…
I1003 12:39:09.872460  5017 upgrade_proto.cpp:82] Successfully upgraded batch norm layers using deprecated params.
I1003 12:39:09.873700  5017 net.cpp:82] Initializing net from parameters: 
name: "WRN-28"
state {
  phase: TRAIN
  level: 0
  stage: ""
}
layer {
  name: "Data1"
  type: "Data"
  top: "data"
  top: "label"
  transform_param {
    scale: 0.00390625
    mirror: true
    crop_size: 32
    mean_value: 125.3
    mean_value: 122.9
    mean_value: 113.8
  }
  data_param {
    source: "/home/lijianfei/datasets/cifar10_40/train_lmdb"
    batch_size: 32
    backend: LMDB
  }
  image_data_param {
    shuffle: true
  }
}
layer {
  name: "conv1"
  type: "Convolution"
  bottom: "data"
  top: "conv1"
  param {
    lr_mult: 1
    decay_mult: 1
  }
  param {
    lr_mult: 2
    decay_mult: 0
  }
  convolution_param {
    num_output: 16
    bias_term: true
    pad: 1
    kernel_size: 3
    stride: 1
    weight_filler {
      type: "msra"
    }
    bias_filler {
      type: "constant"
      value: 0
    }
  }
}
layer {
  name: "conv1/bn"
  type: "BatchNorm"
  bottom: "conv1"
  top: "conv1"
  param {
    lr_mult: 0
    decay_mult: 0
  }
  param {
    lr_mult: 0
    decay_mult: 0
  }
  param {
    lr_mult: 0
    decay_mult: 0
  }
  batch_norm_param {
    use_global_stats: false
  }
}
layer {
  name: "conv1/scale"
  type: "Scale"
  bottom: "conv1"
  top: "conv1"
  scale_param {
    bias_term: true
  }
}
layer {
  name: "conv1/ReLU"
  type: "ReLU"
  bottom: "conv1"
  top: "conv1"
}
layer {
  name: "conv2_1_0"
  type: "Convolution"
  bottom: "conv1"
  top: "conv2_1_0"
  param {
    lr_mult: 1
    decay_mult: 1
  }
  param {
    lr_mult: 2
    decay_mult: 0
  }
  convolution_param {
    num_output: 160
    bias_term: true
    pad: 1
    kernel_size: 3
    stride: 1
    weight_filler {
      type: "msra"
    }
    bias_filler {
      type: "constant"
      value: 0
    }
  }
}
layer {
  name: "conv2_1_bn0"
  type: "BatchNorm"
  bottom: "conv2_1_0"
  top: "conv2_1_0"
  param {
    lr_mult: 0
    decay_mult: 0
  }
  param {
    lr_mult: 0
    decay_mult: 0
  }
  param {
    lr_mult: 0
    decay_mult: 0
  }
  batch_norm_param {
    use_global_stats: false
  }
}
layer {
  name: "conv2_1_scale0"
  type: "Scale"
  bottom: "conv2_1_0"
  top: "conv2_1_0"
  scale_param {
    bias_term: true
  }
}
layer {
  name: "conv2_1_ReLU0"
  type: "ReLU"
  bottom: "conv2_1_0"
  top: "conv2_1_0"
}
layer {
  name: "conv2_Drop1"
  type: "Dropout"
  bottom: "conv2_1_0"
  top: "conv2_1_0"
  dropout_param {
    dropout_ratio: 0.5
  }
}
layer {
  name: "conv2_1_1"
  type: "Convolution"
  bottom: "conv2_1_0"
  top: "conv2_1_1"
  param {
    lr_mult: 1
    decay_mult: 1
  }
  param {
    lr_mult: 2
    decay_mult: 0
  }
  convolution_param {
    num_output: 160
    bias_term: true
    pad: 1
    kernel_size: 3
    stride: 1
    weight_filler {
      type: "msra"
    }
    bias_filler {
      type: "constant"
      value: 0
    }
  }
}
layer {
  name: "conv2_1bn1"
  type: "BatchNorm"
  bottom: "conv2_1_1"
  top: "conv2_1_1"
  param {
    lr_mult: 0
    decay_mult: 0
  }
  param {
    lr_mult: 0
    decay_mult: 0
  }
  param {
    lr_mult: 0
    decay_mult: 0
  }
  batch_norm_param {
    use_global_stats: false
  }
}
layer {
  name: "conv2_1_scale1"
  type: "Scale"
  bottom: "conv2_1_1"
  top: "conv2_1_1"
  scale_param {
    bias_term: true
  }
}
layer {
  name: "conv2_1_down"
  type: "Convolution"
  bottom: "conv1"
  top: "conv2_1_down"
  param {
    lr_mult: 1
    decay_mult: 1
  }
  param {
    lr_mult: 2
    decay_mult: 0
  }
  convolution_param {
    num_output: 160
    bias_term: true
    pad: 0
    kernel_size: 1
    stride: 1
    weight_filler {
      type: "msra"
    }
    bias_filler {
      type: "constant"
      value: 0
    }
  }
}
layer {
  name: "conv2_1_bn_down"
  type: "BatchNorm"
  bottom: "conv2_1_down"
  top: "conv2_1_down"
  param {
    lr_mult: 0
    decay_mult: 0
  }
  param {
    lr_mult: 0
    decay_mult: 0
  }
  param {
    lr_mult: 0
    decay_mult: 0
  }
  batch_norm_param {
    use_global_stats: false
  }
}
layer {
  name: "conv2_1_scale_down"
  type: "Scale"
  bottom: "conv2_1_down"
  top: "conv2_1_down"
  scale_param {
    bias_term: true
  }
}
layer {
  name: "conv2_Eltwise_1"
  type: "Eltwise"
  bottom: "conv2_1_1"
  bottom: "conv2_1_down"
  top: "conv2_Eltwise_1"
  eltwise_param {
    operation: SUM
  }
}
layer {
  name: "conv2_1ReLU_1"
  type: "ReLU"
  bottom: "conv2_Eltwise_1"
  top: "conv2_Eltwise_1"
}
layer {
  name: "conv2_2_0"
  type: "Convolution"
  bottom: "conv2_Eltwise_1"
  top: "conv2_2_0"
  param {
    lr_mult: 1
    decay_mult: 1
  }
  param {
    lr_mult: 2
    decay_mult: 0
  }
  convolution_param {
    num_output: 160
    bias_term: true
    pad: 1
    kernel_size: 3
    stride: 1
    weight_filler {
      type: "msra"
    }
    bias_filler {
      type: "constant"
      value: 0
    }
  }
}
layer {
  name: "conv2_2_bn0"
  type: "BatchNorm"
  bottom: "conv2_2_0"
  top: "conv2_2_0"
  param {
    lr_mult: 0
    decay_mult: 0
  }
  param {
    lr_mult: 0
    decay_mult: 0
  }
  param {
    lr_mult: 0
    decay_mult: 0
  }
  batch_norm_param {
    use_global_stats: false
  }
}
layer {
  name: "conv2_2_scale0"
  type: "Scale"
  bottom: "conv2_2_0"
  top: "conv2_2_0"
  scale_param {
    bias_term: true
  }
}
layer {
  name: "conv2_2_ReLU0"
  type: "ReLU"
  bottom: "conv2_2_0"
  top: "conv2_2_0"
}
layer {
  name: "conv2_Drop2"
  type: "Dropout"
  bottom: "conv2_2_0"
  top: "conv2_2_0"
  dropout_param {
    dropout_ratio: 0.5
  }
}
layer {
  name: "conv2_2_1"
  type: "Convolution"
  bottom: "conv2_2_0"
  top: "conv2_2_1"
  param {
    lr_mult: 1
    decay_mult: 1
  }
  param {
    lr_mult: 2
    decay_mult: 0
  }
  convolution_param {
    num_output: 160
    bias_term: true
    pad: 1
    kernel_size: 3
    stride: 1
    weight_filler {
      type: "msra"
    }
    bias_filler {
      type: "constant"
      value: 0
    }
  }
}
layer {
  name: "conv2_2bn1"
  type: "BatchNorm"
  bottom: "conv2_2_1"
  top: "conv2_2_1"
  param {
    lr_mult: 0
    decay_mult: 0
  }
  param {
    lr_mult: 0
    decay_mult: 0
  }
  param {
    lr_mult: 0
    decay_mult: 0
  }
  batch_norm_param {
    use_global_stats: false
  }
}
layer {
  name: "conv2_2_scale1"
  type: "Scale"
  bottom: "conv2_2_1"
  top: "conv2_2_1"
  scale_param {
    bias_term: true
  }
}
layer {
  name: "conv2_Eltwise_2"
  type: "Eltwise"
  bottom: "conv2_Eltwise_1"
  bottom: "conv2_2_1"
  top: "conv2_Eltwise_2"
  eltwise_param {
    operation: SUM
  }
}
layer {
  name: "conv2_2ReLU_1"
  type: "ReLU"
  bottom: "conv2_Eltwise_2"
  top: "conv2_Eltwise_2"
}
layer {
  name: "conv2_3_0"
  type: "Convolution"
  bottom: "conv2_Eltwise_2"
  top: "conv2_3_0"
  param {
    lr_mult: 1
    decay_mult: 1
  }
  param {
    lr_mult: 2
    decay_mult: 0
  }
  convolution_param {
    num_output: 160
    bias_term: true
    pad: 1
    kernel_size: 3
    stride: 1
    weight_filler {
      type: "msra"
    }
    bias_filler {
      type: "constant"
      value: 0
    }
  }
}
layer {
  name: "conv2_3_bn0"
  type: "BatchNorm"
  bottom: "conv2_3_0"
  top: "conv2_3_0"
  param {
    lr_mult: 0
    decay_mult: 0
  }
  param {
    lr_mult: 0
    decay_mult: 0
  }
  param {
    lr_mult: 0
    decay_mult: 0
  }
  batch_norm_param {
    use_global_stats: false
  }
}
layer {
  name: "conv2_3_scale0"
  type: "Scale"
  bottom: "conv2_3_0"
  top: "conv2_3_0"
  scale_param {
    bias_term: true
  }
}
layer {
  name: "conv2_3_ReLU0"
  type: "ReLU"
  bottom: "conv2_3_0"
  top: "conv2_3_0"
}
layer {
  name: "conv2_Drop3"
  type: "Dropout"
  bottom: "conv2_3_0"
  top: "conv2_3_0"
  dropout_param {
    dropout_ratio: 0.5
  }
}
layer {
  name: "conv2_3_1"
  type: "Convolution"
  bottom: "conv2_3_0"
  top: "conv2_3_1"
  param {
    lr_mult: 1
    decay_mult: 1
  }
  param {
    lr_mult: 2
    decay_mult: 0
  }
  convolution_param {
    num_output: 160
    bias_term: true
    pad: 1
    kernel_size: 3
    stride: 1
    weight_filler {
      type: "msra"
    }
    bias_filler {
      type: "constant"
      value: 0
    }
  }
}
layer {
  name: "conv2_3bn1"
  type: "BatchNorm"
  bottom: "conv2_3_1"
  top: "conv2_3_1"
  param {
    lr_mult: 0
    decay_mult: 0
  }
  param {
    lr_mult: 0
    decay_mult: 0
  }
  param {
    lr_mult: 0
    decay_mult: 0
  }
  batch_norm_param {
    use_global_stats: false
  }
}
layer {
  name: "conv2_3_scale1"
  type: "Scale"
  bottom: "conv2_3_1"
  top: "conv2_3_1"
  scale_param {
    bias_term: true
  }
}
layer {
  name: "conv2_Eltwise_3"
  type: "Eltwise"
  bottom: "conv2_Eltwise_2"
  bottom: "conv2_3_1"
  top: "conv2_Eltwise_3"
  eltwise_param {
    operation: SUM
  }
}
layer {
  name: "conv2_3ReLU_1"
  type: "ReLU"
  bottom: "conv2_Eltwise_3"
  top: "conv2_Eltwise_3"
}
layer {
  name: "conv2_4_0"
  type: "Convolution"
  bottom: "conv2_Eltwise_3"
  top: "conv2_4_0"
  param {
    lr_mult: 1
    decay_mult: 1
  }
  param {
    lr_mult: 2
    decay_mult: 0
  }
  convolution_param {
    num_output: 160
    bias_term: true
    pad: 1
    kernel_size: 3
    stride: 1
    weight_filler {
      type: "msra"
    }
    bias_filler {
      type: "constant"
      value: 0
    }
  }
}
layer {
  name: "conv2_4_bn0"
  type: "BatchNorm"
  bottom: "conv2_4_0"
  top: "conv2_4_0"
  param {
    lr_mult: 0
    decay_mult: 0
  }
  param {
    lr_mult: 0
    decay_mult: 0
  }
  param {
    lr_mult: 0
    decay_mult: 0
  }
  batch_norm_param {
    use_global_stats: false
  }
}
layer {
  name: "conv2_4_scale0"
  type: "Scale"
  bottom: "conv2_4_0"
  top: "conv2_4_0"
  scale_param {
    bias_term: true
  }
}
layer {
  name: "conv2_4_ReLU0"
  type: "ReLU"
  bottom: "conv2_4_0"
  top: "conv2_4_0"
}
layer {
  name: "conv2_Drop4"
  type: "Dropout"
  bottom: "conv2_4_0"
  top: "conv2_4_0"
  dropout_param {
    dropout_ratio: 0.5
  }
}
layer {
  name: "conv2_4_1"
  type: "Convolution"
  bottom: "conv2_4_0"
  top: "conv2_4_1"
  param {
    lr_mult: 1
    decay_mult: 1
  }
  param {
    lr_mult: 2
    decay_mult: 0
  }
  convolution_param {
    num_output: 160
    bias_term: true
    pad: 1
    kernel_size: 3
    stride: 1
    weight_filler {
      type: "msra"
    }
    bias_filler {
      type: "constant"
      value: 0
    }
  }
}
layer {
  name: "conv2_4bn1"
  type: "BatchNorm"
  bottom: "conv2_4_1"
  top: "conv2_4_1"
  param {
    lr_mult: 0
    decay_mult: 0
  }
  param {
    lr_mult: 0
    decay_mult: 0
  }
  param {
    lr_mult: 0
    decay_mult: 0
  }
  batch_norm_param {
    use_global_stats: false
  }
}
layer {
  name: "conv2_4_scale1"
  type: "Scale"
  bottom: "conv2_4_1"
  top: "conv2_4_1"
  scale_param {
    bias_term: true
  }
}
layer {
  name: "conv2_Eltwise_4"
  type: "Eltwise"
  bottom: "conv2_Eltwise_3"
  bottom: "conv2_4_1"
  top: "conv2_Eltwise_4"
  eltwise_param {
    operation: SUM
  }
}
layer {
  name: "conv2_4ReLU_1"
  type: "ReLU"
  bottom: "conv2_Eltwise_4"
  top: "conv2_Eltwise_4"
}
layer {
  name: "conv3_1_0"
  type: "Convolution"
  bottom: "conv2_Eltwise_4"
  top: "conv3_1_0"
  param {
    lr_mult: 1
    decay_mult: 1
  }
  param {
    lr_mult: 2
    decay_mult: 0
  }
  convolution_param {
    num_output: 320
    bias_term: true
    pad: 1
    kernel_size: 3
    stride: 2
    weight_filler {
      type: "msra"
    }
    bias_filler {
      type: "constant"
      value: 0
    }
  }
}
layer {
  name: "conv3_1_bn0"
  type: "BatchNorm"
  bottom: "conv3_1_0"
  top: "conv3_1_0"
  param {
    lr_mult: 0
    decay_mult: 0
  }
  param {
    lr_mult: 0
    decay_mult: 0
  }
  param {
    lr_mult: 0
    decay_mult: 0
  }
  batch_norm_param {
    use_global_stats: false
  }
}
layer {
  name: "conv3_1_scale0"
  type: "Scale"
  bottom: "conv3_1_0"
  top: "conv3_1_0"
  scale_param {
    bias_term: true
  }
}
layer {
  name: "conv3_1_ReLU0"
  type: "ReLU"
  bottom: "conv3_1_0"
  top: "conv3_1_0"
}
layer {
  name: "conv3_Drop1"
  type: "Dropout"
  bottom: "conv3_1_0"
  top: "conv3_1_0"
  dropout_param {
    dropout_ratio: 0.5
  }
}
layer {
  name: "conv3_1_1"
  type: "Convolution"
  bottom: "conv3_1_0"
  top: "conv3_1_1"
  param {
    lr_mult: 1
    decay_mult: 1
  }
  param {
    lr_mult: 2
    decay_mult: 0
  }
  convolution_param {
    num_output: 320
    bias_term: true
    pad: 1
    kernel_size: 3
    stride: 1
    weight_filler {
      type: "msra"
    }
    bias_filler {
      type: "constant"
      value: 0
    }
  }
}
layer {
  name: "conv3_1bn1"
  type: "BatchNorm"
  bottom: "conv3_1_1"
  top: "conv3_1_1"
  param {
    lr_mult: 0
    decay_mult: 0
  }
  param {
    lr_mult: 0
    decay_mult: 0
  }
  param {
    lr_mult: 0
    decay_mult: 0
  }
  batch_norm_param {
    use_global_stats: false
  }
}
layer {
  name: "conv3_1_scale1"
  type: "Scale"
  bottom: "conv3_1_1"
  top: "conv3_1_1"
  scale_param {
    bias_term: true
  }
}
layer {
  name: "conv3_1_down"
  type: "Convolution"
  bottom: "conv2_Eltwise_4"
  top: "conv3_1_down"
  param {
    lr_mult: 1
    decay_mult: 1
  }
  param {
    lr_mult: 2
    decay_mult: 0
  }
  convolution_param {
    num_output: 320
    bias_term: true
    pad: 0
    kernel_size: 1
    stride: 2
    weight_filler {
      type: "msra"
    }
    bias_filler {
      type: "constant"
      value: 0
    }
  }
}
layer {
  name: "conv3_1_bn_down"
  type: "BatchNorm"
  bottom: "conv3_1_down"
  top: "conv3_1_down"
  param {
    lr_mult: 0
    decay_mult: 0
  }
  param {
    lr_mult: 0
    decay_mult: 0
  }
  param {
    lr_mult: 0
    decay_mult: 0
  }
  batch_norm_param {
    use_global_stats: false
  }
}
layer {
  name: "conv3_1_scale_down"
  type: "Scale"
  bottom: "conv3_1_down"
  top: "conv3_1_down"
  scale_param {
    bias_term: true
  }
}
layer {
  name: "conv3_Eltwise_1"
  type: "Eltwise"
  bottom: "conv3_1_1"
  bottom: "conv3_1_down"
  top: "conv3_Eltwise_1"
  eltwise_param {
    operation: SUM
  }
}
layer {
  name: "conv3_1ReLU_1"
  type: "ReLU"
  bottom: "conv3_Eltwise_1"
  top: "conv3_Eltwise_1"
}
layer {
  name: "conv3_2_0"
  type: "Convolution"
  bottom: "conv3_Eltwise_1"
  top: "conv3_2_0"
  param {
    lr_mult: 1
    decay_mult: 1
  }
  param {
    lr_mult: 2
    decay_mult: 0
  }
  convolution_param {
    num_output: 320
    bias_term: true
    pad: 1
    kernel_size: 3
    stride: 1
    weight_filler {
      type: "msra"
    }
    bias_filler {
      type: "constant"
      value: 0
    }
  }
}
layer {
  name: "conv3_2_bn0"
  type: "BatchNorm"
  bottom: "conv3_2_0"
  top: "conv3_2_0"
  param {
    lr_mult: 0
    decay_mult: 0
  }
  param {
    lr_mult: 0
    decay_mult: 0
  }
  param {
    lr_mult: 0
    decay_mult: 0
  }
  batch_norm_param {
    use_global_stats: false
  }
}
layer {
  name: "conv3_2_scale0"
  type: "Scale"
  bottom: "conv3_2_0"
  top: "conv3_2_0"
  scale_param {
    bias_term: true
  }
}
layer {
  name: "conv3_2_ReLU0"
  type: "ReLU"
  bottom: "conv3_2_0"
  top: "conv3_2_0"
}
layer {
  name: "conv3_Drop2"
  type: "Dropout"
  bottom: "conv3_2_0"
  top: "conv3_2_0"
  dropout_param {
    dropout_ratio: 0.5
  }
}
layer {
  name: "conv3_2_1"
  type: "Convolution"
  bottom: "conv3_2_0"
  top: "conv3_2_1"
  param {
    lr_mult: 1
    decay_mult: 1
  }
  param {
    lr_mult: 2
    decay_mult: 0
  }
  convolution_param {
    num_output: 320
    bias_term: true
    pad: 1
    kernel_size: 3
    stride: 1
    weight_filler {
      type: "msra"
    }
    bias_filler {
      type: "constant"
      value: 0
    }
  }
}
layer {
  name: "conv3_2bn1"
  type: "BatchNorm"
  bottom: "conv3_2_1"
  top: "conv3_2_1"
  param {
    lr_mult: 0
    decay_mult: 0
  }
  param {
    lr_mult: 0
    decay_mult: 0
  }
  param {
    lr_mult: 0
    decay_mult: 0
  }
  batch_norm_param {
    use_global_stats: false
  }
}
layer {
  name: "conv3_2_scale1"
  type: "Scale"
  bottom: "conv3_2_1"
  top: "conv3_2_1"
  scale_param {
    bias_term: true
  }
}
layer {
  name: "conv3_Eltwise_2"
  type: "Eltwise"
  bottom: "conv3_Eltwise_1"
  bottom: "conv3_2_1"
  top: "conv3_Eltwise_2"
  eltwise_param {
    operation: SUM
  }
}
layer {
  name: "conv3_2ReLU_1"
  type: "ReLU"
  bottom: "conv3_Eltwise_2"
  top: "conv3_Eltwise_2"
}
layer {
  name: "conv3_3_0"
  type: "Convolution"
  bottom: "conv3_Eltwise_2"
  top: "conv3_3_0"
  param {
    lr_mult: 1
    decay_mult: 1
  }
  param {
    lr_mult: 2
    decay_mult: 0
  }
  convolution_param {
    num_output: 320
    bias_term: true
    pad: 1
    kernel_size: 3
    stride: 1
    weight_filler {
      type: "msra"
    }
    bias_filler {
      type: "constant"
      value: 0
    }
  }
}
layer {
  name: "conv3_3_bn0"
  type: "BatchNorm"
  bottom: "conv3_3_0"
  top: "conv3_3_0"
  param {
    lr_mult: 0
    decay_mult: 0
  }
  param {
    lr_mult: 0
    decay_mult: 0
  }
  param {
    lr_mult: 0
    decay_mult: 0
  }
  batch_norm_param {
    use_global_stats: false
  }
}
layer {
  name: "conv3_3_scale0"
  type: "Scale"
  bottom: "conv3_3_0"
  top: "conv3_3_0"
  scale_param {
    bias_term: true
  }
}
layer {
  name: "conv3_3_ReLU0"
  type: "ReLU"
  bottom: "conv3_3_0"
  top: "conv3_3_0"
}
layer {
  name: "conv3_Drop3"
  type: "Dropout"
  bottom: "conv3_3_0"
  top: "conv3_3_0"
  dropout_param {
    dropout_ratio: 0.5
  }
}
layer {
  name: "conv3_3_1"
  type: "Convolution"
  bottom: "conv3_3_0"
  top: "conv3_3_1"
  param {
    lr_mult: 1
    decay_mult: 1
  }
  param {
    lr_mult: 2
    decay_mult: 0
  }
  convolution_param {
    num_output: 320
    bias_term: true
    pad: 1
    kernel_size: 3
    stride: 1
    weight_filler {
      type: "msra"
    }
    bias_filler {
      type: "constant"
      value: 0
    }
  }
}
layer {
  name: "conv3_3bn1"
  type: "BatchNorm"
  bottom: "conv3_3_1"
  top: "conv3_3_1"
  param {
    lr_mult: 0
    decay_mult: 0
  }
  param {
    lr_mult: 0
    decay_mult: 0
  }
  param {
    lr_mult: 0
    decay_mult: 0
  }
  batch_norm_param {
    use_global_stats: false
  }
}
layer {
  name: "conv3_3_scale1"
  type: "Scale"
  bottom: "conv3_3_1"
  top: "conv3_3_1"
  scale_param {
    bias_term: true
  }
}
layer {
  name: "conv3_Eltwise_3"
  type: "Eltwise"
  bottom: "conv3_Eltwise_2"
  bottom: "conv3_3_1"
  top: "conv3_Eltwise_3"
  eltwise_param {
    operation: SUM
  }
}
layer {
  name: "conv3_3ReLU_1"
  type: "ReLU"
  bottom: "conv3_Eltwise_3"
  top: "conv3_Eltwise_3"
}
layer {
  name: "conv3_4_0"
  type: "Convolution"
  bottom: "conv3_Eltwise_3"
  top: "conv3_4_0"
  param {
    lr_mult: 1
    decay_mult: 1
  }
  param {
    lr_mult: 2
    decay_mult: 0
  }
  convolution_param {
    num_output: 320
    bias_term: true
    pad: 1
    kernel_size: 3
    stride: 1
    weight_filler {
      type: "msra"
    }
    bias_filler {
      type: "constant"
      value: 0
    }
  }
}
layer {
  name: "conv3_4_bn0"
  type: "BatchNorm"
  bottom: "conv3_4_0"
  top: "conv3_4_0"
  param {
    lr_mult: 0
    decay_mult: 0
  }
  param {
    lr_mult: 0
    decay_mult: 0
  }
  param {
    lr_mult: 0
    decay_mult: 0
  }
  batch_norm_param {
    use_global_stats: false
  }
}
layer {
  name: "conv3_4_scale0"
  type: "Scale"
  bottom: "conv3_4_0"
  top: "conv3_4_0"
  scale_param {
    bias_term: true
  }
}
layer {
  name: "conv3_4_ReLU0"
  type: "ReLU"
  bottom: "conv3_4_0"
  top: "conv3_4_0"
}
layer {
  name: "conv3_Drop4"
  type: "Dropout"
  bottom: "conv3_4_0"
  top: "conv3_4_0"
  dropout_param {
    dropout_ratio: 0.5
  }
}
layer {
  name: "conv3_4_1"
  type: "Convolution"
  bottom: "conv3_4_0"
  top: "conv3_4_1"
  param {
    lr_mult: 1
    decay_mult: 1
  }
  param {
    lr_mult: 2
    decay_mult: 0
  }
  convolution_param {
    num_output: 320
    bias_term: true
    pad: 1
    kernel_size: 3
    stride: 1
    weight_filler {
      type: "msra"
    }
    bias_filler {
      type: "constant"
      value: 0
    }
  }
}
layer {
  name: "conv3_4bn1"
  type: "BatchNorm"
  bottom: "conv3_4_1"
  top: "conv3_4_1"
  param {
    lr_mult: 0
    decay_mult: 0
  }
  param {
    lr_mult: 0
    decay_mult: 0
  }
  param {
    lr_mult: 0
    decay_mult: 0
  }
  batch_norm_param {
    use_global_stats: false
  }
}
layer {
  name: "conv3_4_scale1"
  type: "Scale"
  bottom: "conv3_4_1"
  top: "conv3_4_1"
  scale_param {
    bias_term: true
  }
}
layer {
  name: "conv3_Eltwise_4"
  type: "Eltwise"
  bottom: "conv3_Eltwise_3"
  bottom: "conv3_4_1"
  top: "conv3_Eltwise_4"
  eltwise_param {
    operation: SUM
  }
}
layer {
  name: "conv3_4ReLU_1"
  type: "ReLU"
  bottom: "conv3_Eltwise_4"
  top: "conv3_Eltwise_4"
}
layer {
  name: "conv4_1_0"
  type: "Convolution"
  bottom: "conv3_Eltwise_4"
  top: "conv4_1_0"
  param {
    lr_mult: 1
    decay_mult: 1
  }
  param {
    lr_mult: 2
    decay_mult: 0
  }
  convolution_param {
    num_output: 640
    bias_term: true
    pad: 1
    kernel_size: 3
    stride: 2
    weight_filler {
      type: "msra"
    }
    bias_filler {
      type: "constant"
      value: 0
    }
  }
}
layer {
  name: "conv4_1_bn0"
  type: "BatchNorm"
  bottom: "conv4_1_0"
  top: "conv4_1_0"
  param {
    lr_mult: 0
    decay_mult: 0
  }
  param {
    lr_mult: 0
    decay_mult: 0
  }
  param {
    lr_mult: 0
    decay_mult: 0
  }
  batch_norm_param {
    use_global_stats: false
  }
}
layer {
  name: "conv4_1_scale0"
  type: "Scale"
  bottom: "conv4_1_0"
  top: "conv4_1_0"
  scale_param {
    bias_term: true
  }
}
layer {
  name: "conv4_1_ReLU0"
  type: "ReLU"
  bottom: "conv4_1_0"
  top: "conv4_1_0"
}
layer {
  name: "conv4_Drop1"
  type: "Dropout"
  bottom: "conv4_1_0"
  top: "conv4_1_0"
  dropout_param {
    dropout_ratio: 0.5
  }
}
layer {
  name: "conv4_1_1"
  type: "Convolution"
  bottom: "conv4_1_0"
  top: "conv4_1_1"
  param {
    lr_mult: 1
    decay_mult: 1
  }
  param {
    lr_mult: 2
    decay_mult: 0
  }
  convolution_param {
    num_output: 640
    bias_term: true
    pad: 1
    kernel_size: 3
    stride: 1
    weight_filler {
      type: "msra"
    }
    bias_filler {
      type: "constant"
      value: 0
    }
  }
}
layer {
  name: "conv4_1bn1"
  type: "BatchNorm"
  bottom: "conv4_1_1"
  top: "conv4_1_1"
  param {
    lr_mult: 0
    decay_mult: 0
  }
  param {
    lr_mult: 0
    decay_mult: 0
  }
  param {
    lr_mult: 0
    decay_mult: 0
  }
  batch_norm_param {
    use_global_stats: false
  }
}
layer {
  name: "conv4_1_scale1"
  type: "Scale"
  bottom: "conv4_1_1"
  top: "conv4_1_1"
  scale_param {
    bias_term: true
  }
}
layer {
  name: "conv4_1_down"
  type: "Convolution"
  bottom: "conv3_Eltwise_4"
  top: "conv4_1_down"
  param {
    lr_mult: 1
    decay_mult: 1
  }
  param {
    lr_mult: 2
    decay_mult: 0
  }
  convolution_param {
    num_output: 640
    bias_term: true
    pad: 0
    kernel_size: 1
    stride: 2
    weight_filler {
      type: "msra"
    }
    bias_filler {
      type: "constant"
      value: 0
    }
  }
}
layer {
  name: "conv4_1_bn_down"
  type: "BatchNorm"
  bottom: "conv4_1_down"
  top: "conv4_1_down"
  param {
    lr_mult: 0
    decay_mult: 0
  }
  param {
    lr_mult: 0
    decay_mult: 0
  }
  param {
    lr_mult: 0
    decay_mult: 0
  }
  batch_norm_param {
    use_global_stats: false
  }
}
layer {
  name: "conv4_1_scale_down"
  type: "Scale"
  bottom: "conv4_1_down"
  top: "conv4_1_down"
  scale_param {
    bias_term: true
  }
}
layer {
  name: "conv4_Eltwise_1"
  type: "Eltwise"
  bottom: "conv4_1_1"
  bottom: "conv4_1_down"
  top: "conv4_Eltwise_1"
  eltwise_param {
    operation: SUM
  }
}
layer {
  name: "conv4_1ReLU_1"
  type: "ReLU"
  bottom: "conv4_Eltwise_1"
  top: "conv4_Eltwise_1"
}
layer {
  name: "conv4_2_0"
  type: "Convolution"
  bottom: "conv4_Eltwise_1"
  top: "conv4_2_0"
  param {
    lr_mult: 1
    decay_mult: 1
  }
  param {
    lr_mult: 2
    decay_mult: 0
  }
  convolution_param {
    num_output: 640
    bias_term: true
    pad: 1
    kernel_size: 3
    stride: 1
    weight_filler {
      type: "msra"
    }
    bias_filler {
      type: "constant"
      value: 0
    }
  }
}
layer {
  name: "conv4_2_bn0"
  type: "BatchNorm"
  bottom: "conv4_2_0"
  top: "conv4_2_0"
  param {
    lr_mult: 0
    decay_mult: 0
  }
  param {
    lr_mult: 0
    decay_mult: 0
  }
  param {
    lr_mult: 0
    decay_mult: 0
  }
  batch_norm_param {
    use_global_stats: false
  }
}
layer {
  name: "conv4_2_scale0"
  type: "Scale"
  bottom: "conv4_2_0"
  top: "conv4_2_0"
  scale_param {
    bias_term: true
  }
}
layer {
  name: "conv4_2_ReLU0"
  type: "ReLU"
  bottom: "conv4_2_0"
  top: "conv4_2_0"
}
layer {
  name: "conv4_Drop2"
  type: "Dropout"
  bottom: "conv4_2_0"
  top: "conv4_2_0"
  dropout_param {
    dropout_ratio: 0.5
  }
}
layer {
  name: "conv4_2_1"
  type: "Convolution"
  bottom: "conv4_2_0"
  top: "conv4_2_1"
  param {
    lr_mult: 1
    decay_mult: 1
  }
  param {
    lr_mult: 2
    decay_mult: 0
  }
  convolution_param {
    num_output: 640
    bias_term: true
    pad: 1
    kernel_size: 3
    stride: 1
    weight_filler {
      type: "msra"
    }
    bias_filler {
      type: "constant"
      value: 0
    }
  }
}
layer {
  name: "conv4_2bn1"
  type: "BatchNorm"
  bottom: "conv4_2_1"
  top: "conv4_2_1"
  param {
    lr_mult: 0
    decay_mult: 0
  }
  param {
    lr_mult: 0
    decay_mult: 0
  }
  param {
    lr_mult: 0
    decay_mult: 0
  }
  batch_norm_param {
    use_global_stats: false
  }
}
layer {
  name: "conv4_2_scale1"
  type: "Scale"
  bottom: "conv4_2_1"
  top: "conv4_2_1"
  scale_param {
    bias_term: true
  }
}
layer {
  name: "conv4_Eltwise_2"
  type: "Eltwise"
  bottom: "conv4_Eltwise_1"
  bottom: "conv4_2_1"
  top: "conv4_Eltwise_2"
  eltwise_param {
    operation: SUM
  }
}
layer {
  name: "conv4_2ReLU_1"
  type: "ReLU"
  bottom: "conv4_Eltwise_2"
  top: "conv4_Eltwise_2"
}
layer {
  name: "conv4_3_0"
  type: "Convolution"
  bottom: "conv4_Eltwise_2"
  top: "conv4_3_0"
  param {
    lr_mult: 1
    decay_mult: 1
  }
  param {
    lr_mult: 2
    decay_mult: 0
  }
  convolution_param {
    num_output: 640
    bias_term: true
    pad: 1
    kernel_size: 3
    stride: 1
    weight_filler {
      type: "msra"
    }
    bias_filler {
      type: "constant"
      value: 0
    }
  }
}
layer {
  name: "conv4_3_bn0"
  type: "BatchNorm"
  bottom: "conv4_3_0"
  top: "conv4_3_0"
  param {
    lr_mult: 0
    decay_mult: 0
  }
  param {
    lr_mult: 0
    decay_mult: 0
  }
  param {
    lr_mult: 0
    decay_mult: 0
  }
  batch_norm_param {
    use_global_stats: false
  }
}
layer {
  name: "conv4_3_scale0"
  type: "Scale"
  bottom: "conv4_3_0"
  top: "conv4_3_0"
  scale_param {
    bias_term: true
  }
}
layer {
  name: "conv4_3_ReLU0"
  type: "ReLU"
  bottom: "conv4_3_0"
  top: "conv4_3_0"
}
layer {
  name: "conv4_Drop3"
  type: "Dropout"
  bottom: "conv4_3_0"
  top: "conv4_3_0"
  dropout_param {
    dropout_ratio: 0.5
  }
}
layer {
  name: "conv4_3_1"
  type: "Convolution"
  bottom: "conv4_3_0"
  top: "conv4_3_1"
  param {
    lr_mult: 1
    decay_mult: 1
  }
  param {
    lr_mult: 2
    decay_mult: 0
  }
  convolution_param {
    num_output: 640
    bias_term: true
    pad: 1
    kernel_size: 3
    stride: 1
    weight_filler {
      type: "msra"
    }
    bias_filler {
      type: "constant"
      value: 0
    }
  }
}
layer {
  name: "conv4_3bn1"
  type: "BatchNorm"
  bottom: "conv4_3_1"
  top: "conv4_3_1"
  param {
    lr_mult: 0
    decay_mult: 0
  }
  param {
    lr_mult: 0
    decay_mult: 0
  }
  param {
    lr_mult: 0
    decay_mult: 0
  }
  batch_norm_param {
    use_global_stats: false
  }
}
layer {
  name: "conv4_3_scale1"
  type: "Scale"
  bottom: "conv4_3_1"
  top: "conv4_3_1"
  scale_param {
    bias_term: true
  }
}
layer {
  name: "conv4_Eltwise_3"
  type: "Eltwise"
  bottom: "conv4_Eltwise_2"
  bottom: "conv4_3_1"
  top: "conv4_Eltwise_3"
  eltwise_param {
    operation: SUM
  }
}
layer {
  name: "conv4_3ReLU_1"
  type: "ReLU"
  bottom: "conv4_Eltwise_3"
  top: "conv4_Eltwise_3"
}
layer {
  name: "conv4_4_0"
  type: "Convolution"
  bottom: "conv4_Eltwise_3"
  top: "conv4_4_0"
  param {
    lr_mult: 1
    decay_mult: 1
  }
  param {
    lr_mult: 2
    decay_mult: 0
  }
  convolution_param {
    num_output: 640
    bias_term: true
    pad: 1
    kernel_size: 3
    stride: 1
    weight_filler {
      type: "msra"
    }
    bias_filler {
      type: "constant"
      value: 0
    }
  }
}
layer {
  name: "conv4_4_bn0"
  type: "BatchNorm"
  bottom: "conv4_4_0"
  top: "conv4_4_0"
  param {
    lr_mult: 0
    decay_mult: 0
  }
  param {
    lr_mult: 0
    decay_mult: 0
  }
  param {
    lr_mult: 0
    decay_mult: 0
  }
  batch_norm_param {
    use_global_stats: false
  }
}
layer {
  name: "conv4_4_scale0"
  type: "Scale"
  bottom: "conv4_4_0"
  top: "conv4_4_0"
  scale_param {
    bias_term: true
  }
}
layer {
  name: "conv4_4_ReLU0"
  type: "ReLU"
  bottom: "conv4_4_0"
  top: "conv4_4_0"
}
layer {
  name: "conv4_Drop4"
  type: "Dropout"
  bottom: "conv4_4_0"
  top: "conv4_4_0"
  dropout_param {
    dropout_ratio: 0.5
  }
}
layer {
  name: "conv4_4_1"
  type: "Convolution"
  bottom: "conv4_4_0"
  top: "conv4_4_1"
  param {
    lr_mult: 1
    decay_mult: 1
  }
  param {
    lr_mult: 2
    decay_mult: 0
  }
  convolution_param {
    num_output: 640
    bias_term: true
    pad: 1
    kernel_size: 3
    stride: 1
    weight_filler {
      type: "msra"
    }
    bias_filler {
      type: "constant"
      value: 0
    }
  }
}
layer {
  name: "conv4_4bn1"
  type: "BatchNorm"
  bottom: "conv4_4_1"
  top: "conv4_4_1"
  param {
    lr_mult: 0
    decay_mult: 0
  }
  param {
    lr_mult: 0
    decay_mult: 0
  }
  param {
    lr_mult: 0
    decay_mult: 0
  }
  batch_norm_param {
    use_global_stats: false
  }
}
layer {
  name: "conv4_4_scale1"
  type: "Scale"
  bottom: "conv4_4_1"
  top: "conv4_4_1"
  scale_param {
    bias_term: true
  }
}
layer {
  name: "conv4_Eltwise_4"
  type: "Eltwise"
  bottom: "conv4_Eltwise_3"
  bottom: "conv4_4_1"
  top: "conv4_Eltwise_4"
  eltwise_param {
    operation: SUM
  }
}
layer {
  name: "conv4_4ReLU_1"
  type: "ReLU"
  bottom: "conv4_Eltwise_4"
  top: "conv4_Eltwise_4"
}
layer {
  name: "Pooling1"
  type: "Pooling"
  bottom: "conv4_Eltwise_4"
  top: "Pooling1"
  pooling_param {
    pool: AVE
    global_pooling: true
  }
}
layer {
  name: "fc1"
  type: "InnerProduct"
  bottom: "Pooling1"
  top: "fc1"
  param {
    lr_mult: 1
    decay_mult: 1
  }
  param {
   
I1003 12:39:09.874361  5017 layer_factory.hpp:77] Creating layer Data1
I1003 12:39:09.874562  5017 db_lmdb.cpp:35] Opened lmdb /home/lijianfei/datasets/cifar10_40/train_lmdb
I1003 12:39:09.874604  5017 net.cpp:128] Creating Layer Data1
I1003 12:39:09.874614  5017 net.cpp:522] Data1 -> data
I1003 12:39:09.874642  5017 net.cpp:522] Data1 -> label
I1003 12:39:09.876268  5017 data_layer.cpp:45] output data size: 32,3,32,32
I1003 12:39:09.878829  5017 net.cpp:172] Setting up Data1
I1003 12:39:09.878856  5017 net.cpp:186] Top shape: 32 3 32 32 (98304)
I1003 12:39:09.878862  5017 net.cpp:186] Top shape: 32 (32)
I1003 12:39:09.878866  5017 net.cpp:194] Memory required for data: 393344
I1003 12:39:09.878876  5017 layer_factory.hpp:77] Creating layer conv1
I1003 12:39:09.878926  5017 net.cpp:128] Creating Layer conv1
I1003 12:39:09.878933  5017 net.cpp:558] conv1 <- data
I1003 12:39:09.878950  5017 net.cpp:522] conv1 -> conv1
I1003 12:39:10.630921  5017 net.cpp:172] Setting up conv1
I1003 12:39:10.630980  5017 net.cpp:186] Top shape: 32 16 32 32 (524288)
I1003 12:39:10.630985  5017 net.cpp:194] Memory required for data: 2490496
I1003 12:39:10.631021  5017 layer_factory.hpp:77] Creating layer conv1/bn
I1003 12:39:10.631038  5017 net.cpp:128] Creating Layer conv1/bn
I1003 12:39:10.631047  5017 net.cpp:558] conv1/bn <- conv1
I1003 12:39:10.631055  5017 net.cpp:509] conv1/bn -> conv1 (in-place)
I1003 12:39:10.631322  5017 net.cpp:172] Setting up conv1/bn
I1003 12:39:10.631335  5017 net.cpp:186] Top shape: 32 16 32 32 (524288)
I1003 12:39:10.631340  5017 net.cpp:194] Memory required for data: 4587648
I1003 12:39:10.631356  5017 layer_factory.hpp:77] Creating layer conv1/scale
I1003 12:39:10.631364  5017 net.cpp:128] Creating Layer conv1/scale
I1003 12:39:10.631368  5017 net.cpp:558] conv1/scale <- conv1
I1003 12:39:10.631374  5017 net.cpp:509] conv1/scale -> conv1 (in-place)
I1003 12:39:10.631422  5017 layer_factory.hpp:77] Creating layer conv1/scale
I1003 12:39:10.631543  5017 net.cpp:172] Setting up conv1/scale
I1003 12:39:10.631557  5017 net.cpp:186] Top shape: 32 16 32 32 (524288)
I1003 12:39:10.631561  5017 net.cpp:194] Memory required for data: 6684800
I1003 12:39:10.631572  5017 layer_factory.hpp:77] Creating layer conv1/ReLU
I1003 12:39:10.631580  5017 net.cpp:128] Creating Layer conv1/ReLU
I1003 12:39:10.631584  5017 net.cpp:558] conv1/ReLU <- conv1
I1003 12:39:10.631589  5017 net.cpp:509] conv1/ReLU -> conv1 (in-place)
I1003 12:39:10.631808  5017 net.cpp:172] Setting up conv1/ReLU
I1003 12:39:10.631820  5017 net.cpp:186] Top shape: 32 16 32 32 (524288)
I1003 12:39:10.631824  5017 net.cpp:194] Memory required for data: 8781952
I1003 12:39:10.631829  5017 layer_factory.hpp:77] Creating layer conv1_conv1/ReLU_0_split
I1003 12:39:10.631837  5017 net.cpp:128] Creating Layer conv1_conv1/ReLU_0_split
I1003 12:39:10.631841  5017 net.cpp:558] conv1_conv1/ReLU_0_split <- conv1
I1003 12:39:10.631848  5017 net.cpp:522] conv1_conv1/ReLU_0_split -> conv1_conv1/ReLU_0_split_0
I1003 12:39:10.631856  5017 net.cpp:522] conv1_conv1/ReLU_0_split -> conv1_conv1/ReLU_0_split_1
I1003 12:39:10.631899  5017 net.cpp:172] Setting up conv1_conv1/ReLU_0_split
I1003 12:39:10.631906  5017 net.cpp:186] Top shape: 32 16 32 32 (524288)
I1003 12:39:10.631913  5017 net.cpp:186] Top shape: 32 16 32 32 (524288)
I1003 12:39:10.631917  5017 net.cpp:194] Memory required for data: 12976256
I1003 12:39:10.631922  5017 layer_factory.hpp:77] Creating layer conv2_1_0
I1003 12:39:10.631934  5017 net.cpp:128] Creating Layer conv2_1_0
I1003 12:39:10.631938  5017 net.cpp:558] conv2_1_0 <- conv1_conv1/ReLU_0_split_0
I1003 12:39:10.631945  5017 net.cpp:522] conv2_1_0 -> conv2_1_0
I1003 12:39:10.634896  5017 net.cpp:172] Setting up conv2_1_0
I1003 12:39:10.634925  5017 net.cpp:186] Top shape: 32 160 32 32 (5242880)
I1003 12:39:10.634929  5017 net.cpp:194] Memory required for data: 33947776
I1003 12:39:10.634943  5017 layer_factory.hpp:77] Creating layer conv2_1_bn0
I1003 12:39:10.634953  5017 net.cpp:128] Creating Layer conv2_1_bn0
I1003 12:39:10.634958  5017 net.cpp:558] conv2_1_bn0 <- conv2_1_0
I1003 12:39:10.634969  5017 net.cpp:509] conv2_1_bn0 -> conv2_1_0 (in-place)
I1003 12:39:10.635185  5017 net.cpp:172] Setting up conv2_1_bn0
I1003 12:39:10.635195  5017 net.cpp:186] Top shape: 32 160 32 32 (5242880)
I1003 12:39:10.635200  5017 net.cpp:194] Memory required for data: 54919296
I1003 12:39:10.635210  5017 layer_factory.hpp:77] Creating layer conv2_1_scale0
I1003 12:39:10.635217  5017 net.cpp:128] Creating Layer conv2_1_scale0
I1003 12:39:10.635222  5017 net.cpp:558] conv2_1_scale0 <- conv2_1_0
I1003 12:39:10.635228  5017 net.cpp:509] conv2_1_scale0 -> conv2_1_0 (in-place)
I1003 12:39:10.635267  5017 layer_factory.hpp:77] Creating layer conv2_1_scale0
I1003 12:39:10.635382  5017 net.cpp:172] Setting up conv2_1_scale0
I1003 12:39:10.635394  5017 net.cpp:186] Top shape: 32 160 32 32 (5242880)
I1003 12:39:10.635398  5017 net.cpp:194] Memory required for data: 75890816
I1003 12:39:10.635407  5017 layer_factory.hpp:77] Creating layer conv2_1_ReLU0
I1003 12:39:10.635413  5017 net.cpp:128] Creating Layer conv2_1_ReLU0
I1003 12:39:10.635417  5017 net.cpp:558] conv2_1_ReLU0 <- conv2_1_0
I1003 12:39:10.635423  5017 net.cpp:509] conv2_1_ReLU0 -> conv2_1_0 (in-place)
I1003 12:39:10.635633  5017 net.cpp:172] Setting up conv2_1_ReLU0
I1003 12:39:10.635648  5017 net.cpp:186] Top shape: 32 160 32 32 (5242880)
I1003 12:39:10.635653  5017 net.cpp:194] Memory required for data: 96862336
I1003 12:39:10.635673  5017 layer_factory.hpp:77] Creating layer conv2_Drop1
I1003 12:39:10.635682  5017 net.cpp:128] Creating Layer conv2_Drop1
I1003 12:39:10.635687  5017 net.cpp:558] conv2_Drop1 <- conv2_1_0
I1003 12:39:10.635694  5017 net.cpp:509] conv2_Drop1 -> conv2_1_0 (in-place)
I1003 12:39:10.635725  5017 net.cpp:172] Setting up conv2_Drop1
I1003 12:39:10.635732  5017 net.cpp:186] Top shape: 32 160 32 32 (5242880)
I1003 12:39:10.635736  5017 net.cpp:194] Memory required for data: 117833856
I1003 12:39:10.635740  5017 layer_factory.hpp:77] Creating layer conv2_1_1
I1003 12:39:10.635751  5017 net.cpp:128] Creating Layer conv2_1_1
I1003 12:39:10.635756  5017 net.cpp:558] conv2_1_1 <- conv2_1_0
I1003 12:39:10.635761  5017 net.cpp:522] conv2_1_1 -> conv2_1_1
I1003 12:39:10.641816  5017 net.cpp:172] Setting up conv2_1_1
I1003 12:39:10.641846  5017 net.cpp:186] Top shape: 32 160 32 32 (5242880)
I1003 12:39:10.641851  5017 net.cpp:194] Memory required for data: 138805376
I1003 12:39:10.641862  5017 layer_factory.hpp:77] Creating layer conv2_1bn1
I1003 12:39:10.641872  5017 net.cpp:128] Creating Layer conv2_1bn1
I1003 12:39:10.641877  5017 net.cpp:558] conv2_1bn1 <- conv2_1_1
I1003 12:39:10.641885  5017 net.cpp:509] conv2_1bn1 -> conv2_1_1 (in-place)
I1003 12:39:10.642133  5017 net.cpp:172] Setting up conv2_1bn1
I1003 12:39:10.642145  5017 net.cpp:186] Top shape: 32 160 32 32 (5242880)
I1003 12:39:10.642150  5017 net.cpp:194] Memory required for data: 159776896
I1003 12:39:10.642163  5017 layer_factory.hpp:77] Creating layer conv2_1_scale1
I1003 12:39:10.642171  5017 net.cpp:128] Creating Layer conv2_1_scale1
I1003 12:39:10.642176  5017 net.cpp:558] conv2_1_scale1 <- conv2_1_1
I1003 12:39:10.642182  5017 net.cpp:509] conv2_1_scale1 -> conv2_1_1 (in-place)
I1003 12:39:10.642223  5017 layer_factory.hpp:77] Creating layer conv2_1_scale1
I1003 12:39:10.642347  5017 net.cpp:172] Setting up conv2_1_scale1
I1003 12:39:10.642359  5017 net.cpp:186] Top shape: 32 160 32 32 (5242880)
I1003 12:39:10.642362  5017 net.cpp:194] Memory required for data: 180748416
I1003 12:39:10.642370  5017 layer_factory.hpp:77] Creating layer conv2_1_down
I1003 12:39:10.642380  5017 net.cpp:128] Creating Layer conv2_1_down
I1003 12:39:10.642385  5017 net.cpp:558] conv2_1_down <- conv1_conv1/ReLU_0_split_1
I1003 12:39:10.642392  5017 net.cpp:522] conv2_1_down -> conv2_1_down
I1003 12:39:10.644773  5017 net.cpp:172] Setting up conv2_1_down
I1003 12:39:10.644795  5017 net.cpp:186] Top shape: 32 160 32 32 (5242880)
I1003 12:39:10.644799  5017 net.cpp:194] Memory required for data: 201719936
I1003 12:39:10.644809  5017 layer_factory.hpp:77] Creating layer conv2_1_bn_down
I1003 12:39:10.644819  5017 net.cpp:128] Creating Layer conv2_1_bn_down
I1003 12:39:10.644824  5017 net.cpp:558] conv2_1_bn_down <- conv2_1_down
I1003 12:39:10.644835  5017 net.cpp:509] conv2_1_bn_down -> conv2_1_down (in-place)
I1003 12:39:10.645053  5017 net.cpp:172] Setting up conv2_1_bn_down
I1003 12:39:10.645064  5017 net.cpp:186] Top shape: 32 160 32 32 (5242880)
I1003 12:39:10.645069  5017 net.cpp:194] Memory required for data: 222691456
I1003 12:39:10.645079  5017 layer_factory.hpp:77] Creating layer conv2_1_scale_down
I1003 12:39:10.645089  5017 net.cpp:128] Creating Layer conv2_1_scale_down
I1003 12:39:10.645093  5017 net.cpp:558] conv2_1_scale_down <- conv2_1_down
I1003 12:39:10.645099  5017 net.cpp:509] conv2_1_scale_down -> conv2_1_down (in-place)
I1003 12:39:10.645141  5017 layer_factory.hpp:77] Creating layer conv2_1_scale_down
I1003 12:39:10.645258  5017 net.cpp:172] Setting up conv2_1_scale_down
I1003 12:39:10.645272  5017 net.cpp:186] Top shape: 32 160 32 32 (5242880)
I1003 12:39:10.645275  5017 net.cpp:194] Memory required for data: 243662976
I1003 12:39:10.645283  5017 layer_factory.hpp:77] Creating layer conv2_Eltwise_1
I1003 12:39:10.645292  5017 net.cpp:128] Creating Layer conv2_Eltwise_1
I1003 12:39:10.645295  5017 net.cpp:558] conv2_Eltwise_1 <- conv2_1_1
I1003 12:39:10.645300  5017 net.cpp:558] conv2_Eltwise_1 <- conv2_1_down
I1003 12:39:10.645306  5017 net.cpp:522] conv2_Eltwise_1 -> conv2_Eltwise_1
I1003 12:39:10.645359  5017 net.cpp:172] Setting up conv2_Eltwise_1
I1003 12:39:10.645366  5017 net.cpp:186] Top shape: 32 160 32 32 (5242880)
I1003 12:39:10.645370  5017 net.cpp:194] Memory required for data: 264634496
I1003 12:39:10.645375  5017 layer_factory.hpp:77] Creating layer conv2_1ReLU_1
I1003 12:39:10.645381  5017 net.cpp:128] Creating Layer conv2_1ReLU_1
I1003 12:39:10.645385  5017 net.cpp:558] conv2_1ReLU_1 <- conv2_Eltwise_1
I1003 12:39:10.645391  5017 net.cpp:509] conv2_1ReLU_1 -> conv2_Eltwise_1 (in-place)
I1003 12:39:10.645799  5017 net.cpp:172] Setting up conv2_1ReLU_1
I1003 12:39:10.645820  5017 net.cpp:186] Top shape: 32 160 32 32 (5242880)
I1003 12:39:10.645825  5017 net.cpp:194] Memory required for data: 285606016
I1003 12:39:10.645830  5017 layer_factory.hpp:77] Creating layer conv2_Eltwise_1_conv2_1ReLU_1_0_split
I1003 12:39:10.645839  5017 net.cpp:128] Creating Layer conv2_Eltwise_1_conv2_1ReLU_1_0_split
I1003 12:39:10.645844  5017 net.cpp:558] conv2_Eltwise_1_conv2_1ReLU_1_0_split <- conv2_Eltwise_1
I1003 12:39:10.645851  5017 net.cpp:522] conv2_Eltwise_1_conv2_1ReLU_1_0_split -> conv2_Eltwise_1_conv2_1ReLU_1_0_split_0
I1003 12:39:10.645860  5017 net.cpp:522] conv2_Eltwise_1_conv2_1ReLU_1_0_split -> conv2_Eltwise_1_conv2_1ReLU_1_0_split_1
I1003 12:39:10.645916  5017 net.cpp:172] Setting up conv2_Eltwise_1_conv2_1ReLU_1_0_split
I1003 12:39:10.645925  5017 net.cpp:186] Top shape: 32 160 32 32 (5242880)
I1003 12:39:10.645931  5017 net.cpp:186] Top shape: 32 160 32 32 (5242880)
I1003 12:39:10.645936  5017 net.cpp:194] Memory required for data: 327549056
I1003 12:39:10.645941  5017 layer_factory.hpp:77] Creating layer conv2_2_0
I1003 12:39:10.645951  5017 net.cpp:128] Creating Layer conv2_2_0
I1003 12:39:10.645956  5017 net.cpp:558] conv2_2_0 <- conv2_Eltwise_1_conv2_1ReLU_1_0_split_0
I1003 12:39:10.645963  5017 net.cpp:522] conv2_2_0 -> conv2_2_0
I1003 12:39:10.650913  5017 net.cpp:172] Setting up conv2_2_0
I1003 12:39:10.650939  5017 net.cpp:186] Top shape: 32 160 32 32 (5242880)
I1003 12:39:10.650944  5017 net.cpp:194] Memory required for data: 348520576
I1003 12:39:10.650954  5017 layer_factory.hpp:77] Creating layer conv2_2_bn0
I1003 12:39:10.650964  5017 net.cpp:128] Creating Layer conv2_2_bn0
I1003 12:39:10.650969  5017 net.cpp:558] conv2_2_bn0 <- conv2_2_0
I1003 12:39:10.650975  5017 net.cpp:509] conv2_2_bn0 -> conv2_2_0 (in-place)
I1003 12:39:10.651211  5017 net.cpp:172] Setting up conv2_2_bn0
I1003 12:39:10.651221  5017 net.cpp:186] Top shape: 32 160 32 32 (5242880)
I1003 12:39:10.651226  5017 net.cpp:194] Memory required for data: 369492096
I1003 12:39:10.651239  5017 layer_factory.hpp:77] Creating layer conv2_2_scale0
I1003 12:39:10.651247  5017 net.cpp:128] Creating Layer conv2_2_scale0
I1003 12:39:10.651252  5017 net.cpp:558] conv2_2_scale0 <- conv2_2_0
I1003 12:39:10.651257  5017 net.cpp:509] conv2_2_scale0 -> conv2_2_0 (in-place)
I1003 12:39:10.651299  5017 layer_factory.hpp:77] Creating layer conv2_2_scale0
I1003 12:39:10.651437  5017 net.cpp:172] Setting up conv2_2_scale0
I1003 12:39:10.651448  5017 net.cpp:186] Top shape: 32 160 32 32 (5242880)
I1003 12:39:10.651453  5017 net.cpp:194] Memory required for data: 390463616
I1003 12:39:10.651459  5017 layer_factory.hpp:77] Creating layer conv2_2_ReLU0
I1003 12:39:10.651466  5017 net.cpp:128] Creating Layer conv2_2_ReLU0
I1003 12:39:10.651470  5017 net.cpp:558] conv2_2_ReLU0 <- conv2_2_0
I1003 12:39:10.651475  5017 net.cpp:509] conv2_2_ReLU0 -> conv2_2_0 (in-place)
I1003 12:39:10.651687  5017 net.cpp:172] Setting up conv2_2_ReLU0
I1003 12:39:10.651700  5017 net.cpp:186] Top shape: 32 160 32 32 (5242880)
I1003 12:39:10.651705  5017 net.cpp:194] Memory required for data: 411435136
I1003 12:39:10.651708  5017 layer_factory.hpp:77] Creating layer conv2_Drop2
I1003 12:39:10.651716  5017 net.cpp:128] Creating Layer conv2_Drop2
I1003 12:39:10.651721  5017 net.cpp:558] conv2_Drop2 <- conv2_2_0
I1003 12:39:10.651726  5017 net.cpp:509] conv2_Drop2 -> conv2_2_0 (in-place)
I1003 12:39:10.651754  5017 net.cpp:172] Setting up conv2_Drop2
I1003 12:39:10.651782  5017 net.cpp:186] Top shape: 32 160 32 32 (5242880)
I1003 12:39:10.651785  5017 net.cpp:194] Memory required for data: 432406656
I1003 12:39:10.651790  5017 layer_factory.hpp:77] Creating layer conv2_2_1
I1003 12:39:10.651799  5017 net.cpp:128] Creating Layer conv2_2_1
I1003 12:39:10.651804  5017 net.cpp:558] conv2_2_1 <- conv2_2_0
I1003 12:39:10.651811  5017 net.cpp:522] conv2_2_1 -> conv2_2_1
I1003 12:39:10.657985  5017 net.cpp:172] Setting up conv2_2_1
I1003 12:39:10.658015  5017 net.cpp:186] Top shape: 32 160 32 32 (5242880)
I1003 12:39:10.658020  5017 net.cpp:194] Memory required for data: 453378176
I1003 12:39:10.658030  5017 layer_factory.hpp:77] Creating layer conv2_2bn1
I1003 12:39:10.658041  5017 net.cpp:128] Creating Layer conv2_2bn1
I1003 12:39:10.658046  5017 net.cpp:558] conv2_2bn1 <- conv2_2_1
I1003 12:39:10.658053  5017 net.cpp:509] conv2_2bn1 -> conv2_2_1 (in-place)
I1003 12:39:10.658285  5017 net.cpp:172] Setting up conv2_2bn1
I1003 12:39:10.658298  5017 net.cpp:186] Top shape: 32 160 32 32 (5242880)
I1003 12:39:10.658303  5017 net.cpp:194] Memory required for data: 474349696
I1003 12:39:10.658313  5017 layer_factory.hpp:77] Creating layer conv2_2_scale1
I1003 12:39:10.658319  5017 net.cpp:128] Creating Layer conv2_2_scale1
I1003 12:39:10.658324  5017 net.cpp:558] conv2_2_scale1 <- conv2_2_1
I1003 12:39:10.658329  5017 net.cpp:509] conv2_2_scale1 -> conv2_2_1 (in-place)
I1003 12:39:10.658370  5017 layer_factory.hpp:77] Creating layer conv2_2_scale1
I1003 12:39:10.658493  5017 net.cpp:172] Setting up conv2_2_scale1
I1003 12:39:10.658504  5017 net.cpp:186] Top shape: 32 160 32 32 (5242880)
I1003 12:39:10.658507  5017 net.cpp:194] Memory required for data: 495321216
I1003 12:39:10.658515  5017 layer_factory.hpp:77] Creating layer conv2_Eltwise_2
I1003 12:39:10.658522  5017 net.cpp:128] Creating Layer conv2_Eltwise_2
I1003 12:39:10.658566  5017 net.cpp:558] conv2_Eltwise_2 <- conv2_Eltwise_1_conv2_1ReLU_1_0_split_1
I1003 12:39:10.658571  5017 net.cpp:558] conv2_Eltwise_2 <- conv2_2_1
I1003 12:39:10.658578  5017 net.cpp:522] conv2_Eltwise_2 -> conv2_Eltwise_2
I1003 12:39:10.658603  5017 net.cpp:172] Setting up conv2_Eltwise_2
I1003 12:39:10.658610  5017 net.cpp:186] Top shape: 32 160 32 32 (5242880)
I1003 12:39:10.658614  5017 net.cpp:194] Memory required for data: 516292736
I1003 12:39:10.658618  5017 layer_factory.hpp:77] Creating layer conv2_2ReLU_1
I1003 12:39:10.658624  5017 net.cpp:128] Creating Layer conv2_2ReLU_1
I1003 12:39:10.658628  5017 net.cpp:558] conv2_2ReLU_1 <- conv2_Eltwise_2
I1003 12:39:10.658634  5017 net.cpp:509] conv2_2ReLU_1 -> conv2_Eltwise_2 (in-place)
I1003 12:39:10.658851  5017 net.cpp:172] Setting up conv2_2ReLU_1
I1003 12:39:10.658864  5017 net.cpp:186] Top shape: 32 160 32 32 (5242880)
I1003 12:39:10.658869  5017 net.cpp:194] Memory required for data: 537264256
I1003 12:39:10.658874  5017 layer_factory.hpp:77] Creating layer conv2_Eltwise_2_conv2_2ReLU_1_0_split
I1003 12:39:10.658881  5017 net.cpp:128] Creating Layer conv2_Eltwise_2_conv2_2ReLU_1_0_split
I1003 12:39:10.658885  5017 net.cpp:558] conv2_Eltwise_2_conv2_2ReLU_1_0_split <- conv2_Eltwise_2
I1003 12:39:10.658892  5017 net.cpp:522] conv2_Eltwise_2_conv2_2ReLU_1_0_split -> conv2_Eltwise_2_conv2_2ReLU_1_0_split_0
I1003 12:39:10.658900  5017 net.cpp:522] conv2_Eltwise_2_conv2_2ReLU_1_0_split -> conv2_Eltwise_2_conv2_2ReLU_1_0_split_1
I1003 12:39:10.659054  5017 net.cpp:172] Setting up conv2_Eltwise_2_conv2_2ReLU_1_0_split
I1003 12:39:10.659062  5017 net.cpp:186] Top shape: 32 160 32 32 (5242880)
I1003 12:39:10.659068  5017 net.cpp:186] Top shape: 32 160 32 32 (5242880)
I1003 12:39:10.659072  5017 net.cpp:194] Memory required for data: 579207296
I1003 12:39:10.659076  5017 layer_factory.hpp:77] Creating layer conv2_3_0
I1003 12:39:10.659087  5017 net.cpp:128] Creating Layer conv2_3_0
I1003 12:39:10.659091  5017 net.cpp:558] conv2_3_0 <- conv2_Eltwise_2_conv2_2ReLU_1_0_split_0
I1003 12:39:10.659098  5017 net.cpp:522] conv2_3_0 -> conv2_3_0
I1003 12:39:10.664000  5017 net.cpp:172] Setting up conv2_3_0
I1003 12:39:10.664042  5017 net.cpp:186] Top shape: 32 160 32 32 (5242880)
I1003 12:39:10.664047  5017 net.cpp:194] Memory required for data: 600178816
I1003 12:39:10.664062  5017 layer_factory.hpp:77] Creating layer conv2_3_bn0
I1003 12:39:10.664072  5017 net.cpp:128] Creating Layer conv2_3_bn0
I1003 12:39:10.664080  5017 net.cpp:558] conv2_3_bn0 <- conv2_3_0
I1003 12:39:10.664086  5017 net.cpp:509] conv2_3_bn0 -> conv2_3_0 (in-place)
I1003 12:39:10.664324  5017 net.cpp:172] Setting up conv2_3_bn0
I1003 12:39:10.664335  5017 net.cpp:186] Top shape: 32 160 32 32 (5242880)
I1003 12:39:10.664338  5017 net.cpp:194] Memory required for data: 621150336
I1003 12:39:10.664348  5017 layer_factory.hpp:77] Creating layer conv2_3_scale0
I1003 12:39:10.664358  5017 net.cpp:128] Creating Layer conv2_3_scale0
I1003 12:39:10.664362  5017 net.cpp:558] conv2_3_scale0 <- conv2_3_0
I1003 12:39:10.664368  5017 net.cpp:509] conv2_3_scale0 -> conv2_3_0 (in-place)
I1003 12:39:10.664410  5017 layer_factory.hpp:77] Creating layer conv2_3_scale0
I1003 12:39:10.664536  5017 net.cpp:172] Setting up conv2_3_scale0
I1003 12:39:10.664547  5017 net.cpp:186] Top shape: 32 160 32 32 (5242880)
I1003 12:39:10.664552  5017 net.cpp:194] Memory required for data: 642121856
I1003 12:39:10.664559  5017 layer_factory.hpp:77] Creating layer conv2_3_ReLU0
I1003 12:39:10.664566  5017 net.cpp:128] Creating Layer conv2_3_ReLU0
I1003 12:39:10.664571  5017 net.cpp:558] conv2_3_ReLU0 <- conv2_3_0
I1003 12:39:10.664575  5017 net.cpp:509] conv2_3_ReLU0 -> conv2_3_0 (in-place)
I1003 12:39:10.664980  5017 net.cpp:172] Setting up conv2_3_ReLU0
I1003 12:39:10.665000  5017 net.cpp:186] Top shape: 32 160 32 32 (5242880)
I1003 12:39:10.665005  5017 net.cpp:194] Memory required for data: 663093376
I1003 12:39:10.665010  5017 layer_factory.hpp:77] Creating layer conv2_Drop3
I1003 12:39:10.665019  5017 net.cpp:128] Creating Layer conv2_Drop3
I1003 12:39:10.665024  5017 net.cpp:558] conv2_Drop3 <- conv2_3_0
I1003 12:39:10.665031  5017 net.cpp:509] conv2_Drop3 -> conv2_3_0 (in-place)
I1003 12:39:10.665062  5017 net.cpp:172] Setting up conv2_Drop3
I1003 12:39:10.665071  5017 net.cpp:186] Top shape: 32 160 32 32 (5242880)
I1003 12:39:10.665076  5017 net.cpp:194] Memory required for data: 684064896
I1003 12:39:10.665079  5017 layer_factory.hpp:77] Creating layer conv2_3_1
I1003 12:39:10.665091  5017 net.cpp:128] Creating Layer conv2_3_1
I1003 12:39:10.665094  5017 net.cpp:558] conv2_3_1 <- conv2_3_0
I1003 12:39:10.665102  5017 net.cpp:522] conv2_3_1 -> conv2_3_1
I1003 12:39:10.671304  5017 net.cpp:172] Setting up conv2_3_1
I1003 12:39:10.671334  5017 net.cpp:186] Top shape: 32 160 32 32 (5242880)
I1003 12:39:10.671339  5017 net.cpp:194] Memory required for data: 705036416
I1003 12:39:10.671355  5017 layer_factory.hpp:77] Creating layer conv2_3bn1
I1003 12:39:10.671365  5017 net.cpp:128] Creating Layer conv2_3bn1
I1003 12:39:10.671372  5017 net.cpp:558] conv2_3bn1 <- conv2_3_1
I1003 12:39:10.671380  5017 net.cpp:509] conv2_3bn1 -> conv2_3_1 (in-place)
I1003 12:39:10.671620  5017 net.cpp:172] Setting up conv2_3bn1
I1003 12:39:10.671631  5017 net.cpp:186] Top shape: 32 160 32 32 (5242880)
I1003 12:39:10.671635  5017 net.cpp:194] Memory required for data: 726007936
I1003 12:39:10.671645  5017 layer_factory.hpp:77] Creating layer conv2_3_scale1
I1003 12:39:10.671654  5017 net.cpp:128] Creating Layer conv2_3_scale1
I1003 12:39:10.671664  5017 net.cpp:558] conv2_3_scale1 <- conv2_3_1
I1003 12:39:10.671670  5017 net.cpp:509] conv2_3_scale1 -> conv2_3_1 (in-place)
I1003 12:39:10.671713  5017 layer_factory.hpp:77] Creating layer conv2_3_scale1
I1003 12:39:10.671845  5017 net.cpp:172] Setting up conv2_3_scale1
I1003 12:39:10.671854  5017 net.cpp:186] Top shape: 32 160 32 32 (5242880)
I1003 12:39:10.671859  5017 net.cpp:194] Memory required for data: 746979456
I1003 12:39:10.671867  5017 layer_factory.hpp:77] Creating layer conv2_Eltwise_3
I1003 12:39:10.671875  5017 net.cpp:128] Creating Layer conv2_Eltwise_3
I1003 12:39:10.671880  5017 net.cpp:558] conv2_Eltwise_3 <- conv2_Eltwise_2_conv2_2ReLU_1_0_split_1
I1003 12:39:10.671903  5017 net.cpp:558] conv2_Eltwise_3 <- conv2_3_1
I1003 12:39:10.671911  5017 net.cpp:522] conv2_Eltwise_3 -> conv2_Eltwise_3
I1003 12:39:10.671937  5017 net.cpp:172] Setting up conv2_Eltwise_3
I1003 12:39:10.671947  5017 net.cpp:186] Top shape: 32 160 32 32 (5242880)
I1003 12:39:10.671952  5017 net.cpp:194] Memory required for data: 767950976
I1003 12:39:10.671955  5017 layer_factory.hpp:77] Creating layer conv2_3ReLU_1
I1003 12:39:10.671962  5017 net.cpp:128] Creating Layer conv2_3ReLU_1
I1003 12:39:10.671967  5017 net.cpp:558] conv2_3ReLU_1 <- conv2_Eltwise_3
I1003 12:39:10.671972  5017 net.cpp:509] conv2_3ReLU_1 -> conv2_Eltwise_3 (in-place)
I1003 12:39:10.672194  5017 net.cpp:172] Setting up conv2_3ReLU_1
I1003 12:39:10.672207  5017 net.cpp:186] Top shape: 32 160 32 32 (5242880)
I1003 12:39:10.672211  5017 net.cpp:194] Memory required for data: 788922496
I1003 12:39:10.672215  5017 layer_factory.hpp:77] Creating layer conv2_Eltwise_3_conv2_3ReLU_1_0_split
I1003 12:39:10.672224  5017 net.cpp:128] Creating Layer conv2_Eltwise_3_conv2_3ReLU_1_0_split
I1003 12:39:10.672227  5017 net.cpp:558] conv2_Eltwise_3_conv2_3ReLU_1_0_split <- conv2_Eltwise_3
I1003 12:39:10.672235  5017 net.cpp:522] conv2_Eltwise_3_conv2_3ReLU_1_0_split -> conv2_Eltwise_3_conv2_3ReLU_1_0_split_0
I1003 12:39:10.672242  5017 net.cpp:522] conv2_Eltwise_3_conv2_3ReLU_1_0_split -> conv2_Eltwise_3_conv2_3ReLU_1_0_split_1
I1003 12:39:10.672286  5017 net.cpp:172] Setting up conv2_Eltwise_3_conv2_3ReLU_1_0_split
I1003 12:39:10.672296  5017 net.cpp:186] Top shape: 32 160 32 32 (5242880)
I1003 12:39:10.672302  5017 net.cpp:186] Top shape: 32 160 32 32 (5242880)
I1003 12:39:10.672304  5017 net.cpp:194] Memory required for data: 830865536
I1003 12:39:10.672309  5017 layer_factory.hpp:77] Creating layer conv2_4_0
I1003 12:39:10.672319  5017 net.cpp:128] Creating Layer conv2_4_0
I1003 12:39:10.672327  5017 net.cpp:558] conv2_4_0 <- conv2_Eltwise_3_conv2_3ReLU_1_0_split_0
I1003 12:39:10.672333  5017 net.cpp:522] conv2_4_0 -> conv2_4_0
I1003 12:39:10.677258  5017 net.cpp:172] Setting up conv2_4_0
I1003 12:39:10.677286  5017 net.cpp:186] Top shape: 32 160 32 32 (5242880)
I1003 12:39:10.677290  5017 net.cpp:194] Memory required for data: 851837056
I1003 12:39:10.677305  5017 layer_factory.hpp:77] Creating layer conv2_4_bn0
I1003 12:39:10.677314  5017 net.cpp:128] Creating Layer conv2_4_bn0
I1003 12:39:10.677321  5017 net.cpp:558] conv2_4_bn0 <- conv2_4_0
I1003 12:39:10.677335  5017 net.cpp:509] conv2_4_bn0 -> conv2_4_0 (in-place)
I1003 12:39:10.677574  5017 net.cpp:172] Setting up conv2_4_bn0
I1003 12:39:10.677584  5017 net.cpp:186] Top shape: 32 160 32 32 (5242880)
I1003 12:39:10.677588  5017 net.cpp:194] Memory required for data: 872808576
I1003 12:39:10.677598  5017 layer_factory.hpp:77] Creating layer conv2_4_scale0
I1003 12:39:10.677606  5017 net.cpp:128] Creating Layer conv2_4_scale0
I1003 12:39:10.677611  5017 net.cpp:558] conv2_4_scale0 <- conv2_4_0
I1003 12:39:10.677616  5017 net.cpp:509] conv2_4_scale0 -> conv2_4_0 (in-place)
I1003 12:39:10.677659  5017 layer_factory.hpp:77] Creating layer conv2_4_scale0
I1003 12:39:10.677788  5017 net.cpp:172] Setting up conv2_4_scale0
I1003 12:39:10.677798  5017 net.cpp:186] Top shape: 32 160 32 32 (5242880)
I1003 12:39:10.677803  5017 net.cpp:194] Memory required for data: 893780096
I1003 12:39:10.677809  5017 layer_factory.hpp:77] Creating layer conv2_4_ReLU0
I1003 12:39:10.677816  5017 net.cpp:128] Creating Layer conv2_4_ReLU0
I1003 12:39:10.677820  5017 net.cpp:558] conv2_4_ReLU0 <- conv2_4_0
I1003 12:39:10.677825  5017 net.cpp:509] conv2_4_ReLU0 -> conv2_4_0 (in-place)
I1003 12:39:10.678057  5017 net.cpp:172] Setting up conv2_4_ReLU0
I1003 12:39:10.678072  5017 net.cpp:186] Top shape: 32 160 32 32 (5242880)
I1003 12:39:10.678076  5017 net.cpp:194] Memory required for data: 914751616
I1003 12:39:10.678081  5017 layer_factory.hpp:77] Creating layer conv2_Drop4
I1003 12:39:10.678089  5017 net.cpp:128] Creating Layer conv2_Drop4
I1003 12:39:10.678093  5017 net.cpp:558] conv2_Drop4 <- conv2_4_0
I1003 12:39:10.678118  5017 net.cpp:509] conv2_Drop4 -> conv2_4_0 (in-place)
I1003 12:39:10.678150  5017 net.cpp:172] Setting up conv2_Drop4
I1003 12:39:10.678160  5017 net.cpp:186] Top shape: 32 160 32 32 (5242880)
I1003 12:39:10.678164  5017 net.cpp:194] Memory required for data: 935723136
I1003 12:39:10.678169  5017 layer_factory.hpp:77] Creating layer conv2_4_1
I1003 12:39:10.678179  5017 net.cpp:128] Creating Layer conv2_4_1
I1003 12:39:10.678182  5017 net.cpp:558] conv2_4_1 <- conv2_4_0
I1003 12:39:10.678189  5017 net.cpp:522] conv2_4_1 -> conv2_4_1
I1003 12:39:10.684411  5017 net.cpp:172] Setting up conv2_4_1
I1003 12:39:10.684440  5017 net.cpp:186] Top shape: 32 160 32 32 (5242880)
I1003 12:39:10.684445  5017 net.cpp:194] Memory required for data: 956694656
I1003 12:39:10.684468  5017 layer_factory.hpp:77] Creating layer conv2_4bn1
I1003 12:39:10.684487  5017 net.cpp:128] Creating Layer conv2_4bn1
I1003 12:39:10.684495  5017 net.cpp:558] conv2_4bn1 <- conv2_4_1
I1003 12:39:10.684504  5017 net.cpp:509] conv2_4bn1 -> conv2_4_1 (in-place)
I1003 12:39:10.684751  5017 net.cpp:172] Setting up conv2_4bn1
I1003 12:39:10.684762  5017 net.cpp:186] Top shape: 32 160 32 32 (5242880)
I1003 12:39:10.684767  5017 net.cpp:194] Memory required for data: 977666176
I1003 12:39:10.684777  5017 layer_factory.hpp:77] Creating layer conv2_4_scale1
I1003 12:39:10.684784  5017 net.cpp:128] Creating Layer conv2_4_scale1
I1003 12:39:10.684789  5017 net.cpp:558] conv2_4_scale1 <- conv2_4_1
I1003 12:39:10.684794  5017 net.cpp:509] conv2_4_scale1 -> conv2_4_1 (in-place)
I1003 12:39:10.684839  5017 layer_factory.hpp:77] Creating layer conv2_4_scale1
I1003 12:39:10.684969  5017 net.cpp:172] Setting up conv2_4_scale1
I1003 12:39:10.684980  5017 net.cpp:186] Top shape: 32 160 32 32 (5242880)
I1003 12:39:10.684984  5017 net.cpp:194] Memory required for data: 998637696
I1003 12:39:10.684991  5017 layer_factory.hpp:77] Creating layer conv2_Eltwise_4
I1003 12:39:10.684999  5017 net.cpp:128] Creating Layer conv2_Eltwise_4
I1003 12:39:10.685004  5017 net.cpp:558] conv2_Eltwise_4 <- conv2_Eltwise_3_conv2_3ReLU_1_0_split_1
I1003 12:39:10.685009  5017 net.cpp:558] conv2_Eltwise_4 <- conv2_4_1
I1003 12:39:10.685015  5017 net.cpp:522] conv2_Eltwise_4 -> conv2_Eltwise_4
I1003 12:39:10.685041  5017 net.cpp:172] Setting up conv2_Eltwise_4
I1003 12:39:10.685050  5017 net.cpp:186] Top shape: 32 160 32 32 (5242880)
I1003 12:39:10.685055  5017 net.cpp:194] Memory required for data: 1019609216
I1003 12:39:10.685060  5017 layer_factory.hpp:77] Creating layer conv2_4ReLU_1
I1003 12:39:10.685065  5017 net.cpp:128] Creating Layer conv2_4ReLU_1
I1003 12:39:10.685070  5017 net.cpp:558] conv2_4ReLU_1 <- conv2_Eltwise_4
I1003 12:39:10.685075  5017 net.cpp:509] conv2_4ReLU_1 -> conv2_Eltwise_4 (in-place)
I1003 12:39:10.685297  5017 net.cpp:172] Setting up conv2_4ReLU_1
I1003 12:39:10.685312  5017 net.cpp:186] Top shape: 32 160 32 32 (5242880)
I1003 12:39:10.685315  5017 net.cpp:194] Memory required for data: 1040580736
I1003 12:39:10.685320  5017 layer_factory.hpp:77] Creating layer conv2_Eltwise_4_conv2_4ReLU_1_0_split
I1003 12:39:10.685328  5017 net.cpp:128] Creating Layer conv2_Eltwise_4_conv2_4ReLU_1_0_split
I1003 12:39:10.685333  5017 net.cpp:558] conv2_Eltwise_4_conv2_4ReLU_1_0_split <- conv2_Eltwise_4
I1003 12:39:10.685338  5017 net.cpp:522] conv2_Eltwise_4_conv2_4ReLU_1_0_split -> conv2_Eltwise_4_conv2_4ReLU_1_0_split_0
I1003 12:39:10.685346  5017 net.cpp:522] conv2_Eltwise_4_conv2_4ReLU_1_0_split -> conv2_Eltwise_4_conv2_4ReLU_1_0_split_1
I1003 12:39:10.685391  5017 net.cpp:172] Setting up conv2_Eltwise_4_conv2_4ReLU_1_0_split
I1003 12:39:10.685398  5017 net.cpp:186] Top shape: 32 160 32 32 (5242880)
I1003 12:39:10.685405  5017 net.cpp:186] Top shape: 32 160 32 32 (5242880)
I1003 12:39:10.685408  5017 net.cpp:194] Memory required for data: 1082523776
I1003 12:39:10.685412  5017 layer_factory.hpp:77] Creating layer conv3_1_0
I1003 12:39:10.685422  5017 net.cpp:128] Creating Layer conv3_1_0
I1003 12:39:10.685427  5017 net.cpp:558] conv3_1_0 <- conv2_Eltwise_4_conv2_4ReLU_1_0_split_0
I1003 12:39:10.685451  5017 net.cpp:522] conv3_1_0 -> conv3_1_0
I1003 12:39:10.695235  5017 net.cpp:172] Setting up conv3_1_0
I1003 12:39:10.695264  5017 net.cpp:186] Top shape: 32 320 16 16 (2621440)
I1003 12:39:10.695268  5017 net.cpp:194] Memory required for data: 1093009536
I1003 12:39:10.695279  5017 layer_factory.hpp:77] Creating layer conv3_1_bn0
I1003 12:39:10.695291  5017 net.cpp:128] Creating Layer conv3_1_bn0
I1003 12:39:10.695296  5017 net.cpp:558] conv3_1_bn0 <- conv3_1_0
I1003 12:39:10.695302  5017 net.cpp:509] conv3_1_bn0 -> conv3_1_0 (in-place)
I1003 12:39:10.695551  5017 net.cpp:172] Setting up conv3_1_bn0
I1003 12:39:10.695562  5017 net.cpp:186] Top shape: 32 320 16 16 (2621440)
I1003 12:39:10.695566  5017 net.cpp:194] Memory required for data: 1103495296
I1003 12:39:10.695576  5017 layer_factory.hpp:77] Creating layer conv3_1_scale0
I1003 12:39:10.695585  5017 net.cpp:128] Creating Layer conv3_1_scale0
I1003 12:39:10.695588  5017 net.cpp:558] conv3_1_scale0 <- conv3_1_0
I1003 12:39:10.695595  5017 net.cpp:509] conv3_1_scale0 -> conv3_1_0 (in-place)
I1003 12:39:10.695641  5017 layer_factory.hpp:77] Creating layer conv3_1_scale0
I1003 12:39:10.695783  5017 net.cpp:172] Setting up conv3_1_scale0
I1003 12:39:10.695794  5017 net.cpp:186] Top shape: 32 320 16 16 (2621440)
I1003 12:39:10.695798  5017 net.cpp:194] Memory required for data: 1113981056
I1003 12:39:10.695806  5017 layer_factory.hpp:77] Creating layer conv3_1_ReLU0
I1003 12:39:10.695813  5017 net.cpp:128] Creating Layer conv3_1_ReLU0
I1003 12:39:10.695817  5017 net.cpp:558] conv3_1_ReLU0 <- conv3_1_0
I1003 12:39:10.695823  5017 net.cpp:509] conv3_1_ReLU0 -> conv3_1_0 (in-place)
I1003 12:39:10.696239  5017 net.cpp:172] Setting up conv3_1_ReLU0
I1003 12:39:10.696264  5017 net.cpp:186] Top shape: 32 320 16 16 (2621440)
I1003 12:39:10.696269  5017 net.cpp:194] Memory required for data: 1124466816
I1003 12:39:10.696274  5017 layer_factory.hpp:77] Creating layer conv3_Drop1
I1003 12:39:10.696283  5017 net.cpp:128] Creating Layer conv3_Drop1
I1003 12:39:10.696288  5017 net.cpp:558] conv3_Drop1 <- conv3_1_0
I1003 12:39:10.696295  5017 net.cpp:509] conv3_Drop1 -> conv3_1_0 (in-place)
I1003 12:39:10.696322  5017 net.cpp:172] Setting up conv3_Drop1
I1003 12:39:10.696329  5017 net.cpp:186] Top shape: 32 320 16 16 (2621440)
I1003 12:39:10.696333  5017 net.cpp:194] Memory required for data: 1134952576
I1003 12:39:10.696338  5017 layer_factory.hpp:77] Creating layer conv3_1_1
I1003 12:39:10.696348  5017 net.cpp:128] Creating Layer conv3_1_1
I1003 12:39:10.696352  5017 net.cpp:558] conv3_1_1 <- conv3_1_0
I1003 12:39:10.696359  5017 net.cpp:522] conv3_1_1 -> conv3_1_1
I1003 12:39:10.714267  5017 net.cpp:172] Setting up conv3_1_1
I1003 12:39:10.714303  5017 net.cpp:186] Top shape: 32 320 16 16 (2621440)
I1003 12:39:10.714308  5017 net.cpp:194] Memory required for data: 1145438336
I1003 12:39:10.714321  5017 layer_factory.hpp:77] Creating layer conv3_1bn1
I1003 12:39:10.714334  5017 net.cpp:128] Creating Layer conv3_1bn1
I1003 12:39:10.714339  5017 net.cpp:558] conv3_1bn1 <- conv3_1_1
I1003 12:39:10.714351  5017 net.cpp:509] conv3_1bn1 -> conv3_1_1 (in-place)
I1003 12:39:10.714603  5017 net.cpp:172] Setting up conv3_1bn1
I1003 12:39:10.714617  5017 net.cpp:186] Top shape: 32 320 16 16 (2621440)
I1003 12:39:10.714620  5017 net.cpp:194] Memory required for data: 1155924096
I1003 12:39:10.714630  5017 layer_factory.hpp:77] Creating layer conv3_1_scale1
I1003 12:39:10.714640  5017 net.cpp:128] Creating Layer conv3_1_scale1
I1003 12:39:10.714644  5017 net.cpp:558] conv3_1_scale1 <- conv3_1_1
I1003 12:39:10.714649  5017 net.cpp:509] conv3_1_scale1 -> conv3_1_1 (in-place)
I1003 12:39:10.714699  5017 layer_factory.hpp:77] Creating layer conv3_1_scale1
I1003 12:39:10.714836  5017 net.cpp:172] Setting up conv3_1_scale1
I1003 12:39:10.714843  5017 net.cpp:186] Top shape: 32 320 16 16 (2621440)
I1003 12:39:10.714848  5017 net.cpp:194] Memory required for data: 1166409856
I1003 12:39:10.714855  5017 layer_factory.hpp:77] Creating layer conv3_1_down
I1003 12:39:10.714893  5017 net.cpp:128] Creating Layer conv3_1_down
I1003 12:39:10.714898  5017 net.cpp:558] conv3_1_down <- conv2_Eltwise_4_conv2_4ReLU_1_0_split_1
I1003 12:39:10.714906  5017 net.cpp:522] conv3_1_down -> conv3_1_down
I1003 12:39:10.716917  5017 net.cpp:172] Setting up conv3_1_down
I1003 12:39:10.716944  5017 net.cpp:186] Top shape: 32 320 16 16 (2621440)
I1003 12:39:10.716948  5017 net.cpp:194] Memory required for data: 1176895616
I1003 12:39:10.716958  5017 layer_factory.hpp:77] Creating layer conv3_1_bn_down
I1003 12:39:10.716967  5017 net.cpp:128] Creating Layer conv3_1_bn_down
I1003 12:39:10.716972  5017 net.cpp:558] conv3_1_bn_down <- conv3_1_down
I1003 12:39:10.716979  5017 net.cpp:509] conv3_1_bn_down -> conv3_1_down (in-place)
I1003 12:39:10.717227  5017 net.cpp:172] Setting up conv3_1_bn_down
I1003 12:39:10.717238  5017 net.cpp:186] Top shape: 32 320 16 16 (2621440)
I1003 12:39:10.717242  5017 net.cpp:194] Memory required for data: 1187381376
I1003 12:39:10.717253  5017 layer_factory.hpp:77] Creating layer conv3_1_scale_down
I1003 12:39:10.717260  5017 net.cpp:128] Creating Layer conv3_1_scale_down
I1003 12:39:10.717265  5017 net.cpp:558] conv3_1_scale_down <- conv3_1_down
I1003 12:39:10.717270  5017 net.cpp:509] conv3_1_scale_down -> conv3_1_down (in-place)
I1003 12:39:10.717317  5017 layer_factory.hpp:77] Creating layer conv3_1_scale_down
I1003 12:39:10.717453  5017 net.cpp:172] Setting up conv3_1_scale_down
I1003 12:39:10.717464  5017 net.cpp:186] Top shape: 32 320 16 16 (2621440)
I1003 12:39:10.717469  5017 net.cpp:194] Memory required for data: 1197867136
I1003 12:39:10.717478  5017 layer_factory.hpp:77] Creating layer conv3_Eltwise_1
I1003 12:39:10.717489  5017 net.cpp:128] Creating Layer conv3_Eltwise_1
I1003 12:39:10.717494  5017 net.cpp:558] conv3_Eltwise_1 <- conv3_1_1
I1003 12:39:10.717499  5017 net.cpp:558] conv3_Eltwise_1 <- conv3_1_down
I1003 12:39:10.717504  5017 net.cpp:522] conv3_Eltwise_1 -> conv3_Eltwise_1
I1003 12:39:10.717527  5017 net.cpp:172] Setting up conv3_Eltwise_1
I1003 12:39:10.717533  5017 net.cpp:186] Top shape: 32 320 16 16 (2621440)
I1003 12:39:10.717537  5017 net.cpp:194] Memory required for data: 1208352896
I1003 12:39:10.717542  5017 layer_factory.hpp:77] Creating layer conv3_1ReLU_1
I1003 12:39:10.717548  5017 net.cpp:128] Creating Layer conv3_1ReLU_1
I1003 12:39:10.717552  5017 net.cpp:558] conv3_1ReLU_1 <- conv3_Eltwise_1
I1003 12:39:10.717558  5017 net.cpp:509] conv3_1ReLU_1 -> conv3_Eltwise_1 (in-place)
I1003 12:39:10.717784  5017 net.cpp:172] Setting up conv3_1ReLU_1
I1003 12:39:10.717798  5017 net.cpp:186] Top shape: 32 320 16 16 (2621440)
I1003 12:39:10.717803  5017 net.cpp:194] Memory required for data: 1218838656
I1003 12:39:10.717808  5017 layer_factory.hpp:77] Creating layer conv3_Eltwise_1_conv3_1ReLU_1_0_split
I1003 12:39:10.717815  5017 net.cpp:128] Creating Layer conv3_Eltwise_1_conv3_1ReLU_1_0_split
I1003 12:39:10.717819  5017 net.cpp:558] conv3_Eltwise_1_conv3_1ReLU_1_0_split <- conv3_Eltwise_1
I1003 12:39:10.717826  5017 net.cpp:522] conv3_Eltwise_1_conv3_1ReLU_1_0_split -> conv3_Eltwise_1_conv3_1ReLU_1_0_split_0
I1003 12:39:10.717834  5017 net.cpp:522] conv3_Eltwise_1_conv3_1ReLU_1_0_split -> conv3_Eltwise_1_conv3_1ReLU_1_0_split_1
I1003 12:39:10.717881  5017 net.cpp:172] Setting up conv3_Eltwise_1_conv3_1ReLU_1_0_split
I1003 12:39:10.717891  5017 net.cpp:186] Top shape: 32 320 16 16 (2621440)
I1003 12:39:10.717897  5017 net.cpp:186] Top shape: 32 320 16 16 (2621440)
I1003 12:39:10.717911  5017 net.cpp:194] Memory required for data: 1239810176
I1003 12:39:10.717916  5017 layer_factory.hpp:77] Creating layer conv3_2_0
I1003 12:39:10.717926  5017 net.cpp:128] Creating Layer conv3_2_0
I1003 12:39:10.717931  5017 net.cpp:558] conv3_2_0 <- conv3_Eltwise_1_conv3_1ReLU_1_0_split_0
I1003 12:39:10.717938  5017 net.cpp:522] conv3_2_0 -> conv3_2_0
I1003 12:39:10.735940  5017 net.cpp:172] Setting up conv3_2_0
I1003 12:39:10.735980  5017 net.cpp:186] Top shape: 32 320 16 16 (2621440)
I1003 12:39:10.735983  5017 net.cpp:194] Memory required for data: 1250295936
I1003 12:39:10.736022  5017 layer_factory.hpp:77] Creating layer conv3_2_bn0
I1003 12:39:10.736034  5017 net.cpp:128] Creating Layer conv3_2_bn0
I1003 12:39:10.736040  5017 net.cpp:558] conv3_2_bn0 <- conv3_2_0
I1003 12:39:10.736049  5017 net.cpp:509] conv3_2_bn0 -> conv3_2_0 (in-place)
I1003 12:39:10.736332  5017 net.cpp:172] Setting up conv3_2_bn0
I1003 12:39:10.736344  5017 net.cpp:186] Top shape: 32 320 16 16 (2621440)
I1003 12:39:10.736348  5017 net.cpp:194] Memory required for data: 1260781696
I1003 12:39:10.736358  5017 layer_factory.hpp:77] Creating layer conv3_2_scale0
I1003 12:39:10.736366  5017 net.cpp:128] Creating Layer conv3_2_scale0
I1003 12:39:10.736371  5017 net.cpp:558] conv3_2_scale0 <- conv3_2_0
I1003 12:39:10.736378  5017 net.cpp:509] conv3_2_scale0 -> conv3_2_0 (in-place)
I1003 12:39:10.736428  5017 layer_factory.hpp:77] Creating layer conv3_2_scale0
I1003 12:39:10.736579  5017 net.cpp:172] Setting up conv3_2_scale0
I1003 12:39:10.736587  5017 net.cpp:186] Top shape: 32 320 16 16 (2621440)
I1003 12:39:10.736590  5017 net.cpp:194] Memory required for data: 1271267456
I1003 12:39:10.736598  5017 layer_factory.hpp:77] Creating layer conv3_2_ReLU0
I1003 12:39:10.736605  5017 net.cpp:128] Creating Layer conv3_2_ReLU0
I1003 12:39:10.736609  5017 net.cpp:558] conv3_2_ReLU0 <- conv3_2_0
I1003 12:39:10.736614  5017 net.cpp:509] conv3_2_ReLU0 -> conv3_2_0 (in-place)
I1003 12:39:10.736853  5017 net.cpp:172] Setting up conv3_2_ReLU0
I1003 12:39:10.736867  5017 net.cpp:186] Top shape: 32 320 16 16 (2621440)
I1003 12:39:10.736871  5017 net.cpp:194] Memory required for data: 1281753216
I1003 12:39:10.736876  5017 layer_factory.hpp:77] Creating layer conv3_Drop2
I1003 12:39:10.736883  5017 net.cpp:128] Creating Layer conv3_Drop2
I1003 12:39:10.736888  5017 net.cpp:558] conv3_Drop2 <- conv3_2_0
I1003 12:39:10.736896  5017 net.cpp:509] conv3_Drop2 -> conv3_2_0 (in-place)
I1003 12:39:10.736922  5017 net.cpp:172] Setting up conv3_Drop2
I1003 12:39:10.736928  5017 net.cpp:186] Top shape: 32 320 16 16 (2621440)
I1003 12:39:10.736932  5017 net.cpp:194] Memory required for data: 1292238976
I1003 12:39:10.736937  5017 layer_factory.hpp:77] Creating layer conv3_2_1
I1003 12:39:10.736950  5017 net.cpp:128] Creating Layer conv3_2_1
I1003 12:39:10.736954  5017 net.cpp:558] conv3_2_1 <- conv3_2_0
I1003 12:39:10.736966  5017 net.cpp:522] conv3_2_1 -> conv3_2_1
I1003 12:39:10.755000  5017 net.cpp:172] Setting up conv3_2_1
I1003 12:39:10.755038  5017 net.cpp:186] Top shape: 32 320 16 16 (2621440)
I1003 12:39:10.755043  5017 net.cpp:194] Memory required for data: 1302724736
I1003 12:39:10.755056  5017 layer_factory.hpp:77] Creating layer conv3_2bn1
I1003 12:39:10.755070  5017 net.cpp:128] Creating Layer conv3_2bn1
I1003 12:39:10.755076  5017 net.cpp:558] conv3_2bn1 <- conv3_2_1
I1003 12:39:10.755089  5017 net.cpp:509] conv3_2bn1 -> conv3_2_1 (in-place)
I1003 12:39:10.755362  5017 net.cpp:172] Setting up conv3_2bn1
I1003 12:39:10.755373  5017 net.cpp:186] Top shape: 32 320 16 16 (2621440)
I1003 12:39:10.755378  5017 net.cpp:194] Memory required for data: 1313210496
I1003 12:39:10.755388  5017 layer_factory.hpp:77] Creating layer conv3_2_scale1
I1003 12:39:10.755395  5017 net.cpp:128] Creating Layer conv3_2_scale1
I1003 12:39:10.755399  5017 net.cpp:558] conv3_2_scale1 <- conv3_2_1
I1003 12:39:10.755405  5017 net.cpp:509] conv3_2_scale1 -> conv3_2_1 (in-place)
I1003 12:39:10.755461  5017 layer_factory.hpp:77] Creating layer conv3_2_scale1
I1003 12:39:10.755611  5017 net.cpp:172] Setting up conv3_2_scale1
I1003 12:39:10.755625  5017 net.cpp:186] Top shape: 32 320 16 16 (2621440)
I1003 12:39:10.755628  5017 net.cpp:194] Memory required for data: 1323696256
I1003 12:39:10.755636  5017 layer_factory.hpp:77] Creating layer conv3_Eltwise_2
I1003 12:39:10.755646  5017 net.cpp:128] Creating Layer conv3_Eltwise_2
I1003 12:39:10.755652  5017 net.cpp:558] conv3_Eltwise_2 <- conv3_Eltwise_1_conv3_1ReLU_1_0_split_1
I1003 12:39:10.755657  5017 net.cpp:558] conv3_Eltwise_2 <- conv3_2_1
I1003 12:39:10.755663  5017 net.cpp:522] conv3_Eltwise_2 -> conv3_Eltwise_2
I1003 12:39:10.755710  5017 net.cpp:172] Setting up conv3_Eltwise_2
I1003 12:39:10.755718  5017 net.cpp:186] Top shape: 32 320 16 16 (2621440)
I1003 12:39:10.755722  5017 net.cpp:194] Memory required for data: 1334182016
I1003 12:39:10.755726  5017 layer_factory.hpp:77] Creating layer conv3_2ReLU_1
I1003 12:39:10.755733  5017 net.cpp:128] Creating Layer conv3_2ReLU_1
I1003 12:39:10.755738  5017 net.cpp:558] conv3_2ReLU_1 <- conv3_Eltwise_2
I1003 12:39:10.755744  5017 net.cpp:509] conv3_2ReLU_1 -> conv3_Eltwise_2 (in-place)
I1003 12:39:10.756184  5017 net.cpp:172] Setting up conv3_2ReLU_1
I1003 12:39:10.756207  5017 net.cpp:186] Top shape: 32 320 16 16 (2621440)
I1003 12:39:10.756211  5017 net.cpp:194] Memory required for data: 1344667776
I1003 12:39:10.756217  5017 layer_factory.hpp:77] Creating layer conv3_Eltwise_2_conv3_2ReLU_1_0_split
I1003 12:39:10.756225  5017 net.cpp:128] Creating Layer conv3_Eltwise_2_conv3_2ReLU_1_0_split
I1003 12:39:10.756230  5017 net.cpp:558] conv3_Eltwise_2_conv3_2ReLU_1_0_split <- conv3_Eltwise_2
I1003 12:39:10.756239  5017 net.cpp:522] conv3_Eltwise_2_conv3_2ReLU_1_0_split -> conv3_Eltwise_2_conv3_2ReLU_1_0_split_0
I1003 12:39:10.756248  5017 net.cpp:522] conv3_Eltwise_2_conv3_2ReLU_1_0_split -> conv3_Eltwise_2_conv3_2ReLU_1_0_split_1
I1003 12:39:10.756301  5017 net.cpp:172] Setting up conv3_Eltwise_2_conv3_2ReLU_1_0_split
I1003 12:39:10.756309  5017 net.cpp:186] Top shape: 32 320 16 16 (2621440)
I1003 12:39:10.756314  5017 net.cpp:186] Top shape: 32 320 16 16 (2621440)
I1003 12:39:10.756317  5017 net.cpp:194] Memory required for data: 1365639296
I1003 12:39:10.756321  5017 layer_factory.hpp:77] Creating layer conv3_3_0
I1003 12:39:10.756335  5017 net.cpp:128] Creating Layer conv3_3_0
I1003 12:39:10.756340  5017 net.cpp:558] conv3_3_0 <- conv3_Eltwise_2_conv3_2ReLU_1_0_split_0
I1003 12:39:10.756350  5017 net.cpp:522] conv3_3_0 -> conv3_3_0
I1003 12:39:10.774534  5017 net.cpp:172] Setting up conv3_3_0
I1003 12:39:10.774572  5017 net.cpp:186] Top shape: 32 320 16 16 (2621440)
I1003 12:39:10.774577  5017 net.cpp:194] Memory required for data: 1376125056
I1003 12:39:10.774590  5017 layer_factory.hpp:77] Creating layer conv3_3_bn0
I1003 12:39:10.774605  5017 net.cpp:128] Creating Layer conv3_3_bn0
I1003 12:39:10.774610  5017 net.cpp:558] conv3_3_bn0 <- conv3_3_0
I1003 12:39:10.774623  5017 net.cpp:509] conv3_3_bn0 -> conv3_3_0 (in-place)
I1003 12:39:10.774904  5017 net.cpp:172] Setting up conv3_3_bn0
I1003 12:39:10.774915  5017 net.cpp:186] Top shape: 32 320 16 16 (2621440)
I1003 12:39:10.774920  5017 net.cpp:194] Memory required for data: 1386610816
I1003 12:39:10.774930  5017 layer_factory.hpp:77] Creating layer conv3_3_scale0
I1003 12:39:10.774940  5017 net.cpp:128] Creating Layer conv3_3_scale0
I1003 12:39:10.774945  5017 net.cpp:558] conv3_3_scale0 <- conv3_3_0
I1003 12:39:10.774950  5017 net.cpp:509] conv3_3_scale0 -> conv3_3_0 (in-place)
I1003 12:39:10.775007  5017 layer_factory.hpp:77] Creating layer conv3_3_scale0
I1003 12:39:10.775161  5017 net.cpp:172] Setting up conv3_3_scale0
I1003 12:39:10.775167  5017 net.cpp:186] Top shape: 32 320 16 16 (2621440)
I1003 12:39:10.775171  5017 net.cpp:194] Memory required for data: 1397096576
I1003 12:39:10.775178  5017 layer_factory.hpp:77] Creating layer conv3_3_ReLU0
I1003 12:39:10.775185  5017 net.cpp:128] Creating Layer conv3_3_ReLU0
I1003 12:39:10.775189  5017 net.cpp:558] conv3_3_ReLU0 <- conv3_3_0
I1003 12:39:10.775197  5017 net.cpp:509] conv3_3_ReLU0 -> conv3_3_0 (in-place)
I1003 12:39:10.775432  5017 net.cpp:172] Setting up conv3_3_ReLU0
I1003 12:39:10.775449  5017 net.cpp:186] Top shape: 32 320 16 16 (2621440)
I1003 12:39:10.775455  5017 net.cpp:194] Memory required for data: 1407582336
I1003 12:39:10.775460  5017 layer_factory.hpp:77] Creating layer conv3_Drop3
I1003 12:39:10.775470  5017 net.cpp:128] Creating Layer conv3_Drop3
I1003 12:39:10.775473  5017 net.cpp:558] conv3_Drop3 <- conv3_3_0
I1003 12:39:10.775481  5017 net.cpp:509] conv3_Drop3 -> conv3_3_0 (in-place)
I1003 12:39:10.775508  5017 net.cpp:172] Setting up conv3_Drop3
I1003 12:39:10.775539  5017 net.cpp:186] Top shape: 32 320 16 16 (2621440)
I1003 12:39:10.775543  5017 net.cpp:194] Memory required for data: 1418068096
I1003 12:39:10.775548  5017 layer_factory.hpp:77] Creating layer conv3_3_1
I1003 12:39:10.775563  5017 net.cpp:128] Creating Layer conv3_3_1
I1003 12:39:10.775566  5017 net.cpp:558] conv3_3_1 <- conv3_3_0
I1003 12:39:10.775573  5017 net.cpp:522] conv3_3_1 -> conv3_3_1
I1003 12:39:10.793627  5017 net.cpp:172] Setting up conv3_3_1
I1003 12:39:10.793663  5017 net.cpp:186] Top shape: 32 320 16 16 (2621440)
I1003 12:39:10.793666  5017 net.cpp:194] Memory required for data: 1428553856
I1003 12:39:10.793679  5017 layer_factory.hpp:77] Creating layer conv3_3bn1
I1003 12:39:10.793694  5017 net.cpp:128] Creating Layer conv3_3bn1
I1003 12:39:10.793699  5017 net.cpp:558] conv3_3bn1 <- conv3_3_1
I1003 12:39:10.793709  5017 net.cpp:509] conv3_3bn1 -> conv3_3_1 (in-place)
I1003 12:39:10.793998  5017 net.cpp:172] Setting up conv3_3bn1
I1003 12:39:10.794010  5017 net.cpp:186] Top shape: 32 320 16 16 (2621440)
I1003 12:39:10.794015  5017 net.cpp:194] Memory required for data: 1439039616
I1003 12:39:10.794025  5017 layer_factory.hpp:77] Creating layer conv3_3_scale1
I1003 12:39:10.794032  5017 net.cpp:128] Creating Layer conv3_3_scale1
I1003 12:39:10.794037  5017 net.cpp:558] conv3_3_scale1 <- conv3_3_1
I1003 12:39:10.794047  5017 net.cpp:509] conv3_3_scale1 -> conv3_3_1 (in-place)
I1003 12:39:10.794100  5017 layer_factory.hpp:77] Creating layer conv3_3_scale1
I1003 12:39:10.794258  5017 net.cpp:172] Setting up conv3_3_scale1
I1003 12:39:10.794265  5017 net.cpp:186] Top shape: 32 320 16 16 (2621440)
I1003 12:39:10.794270  5017 net.cpp:194] Memory required for data: 1449525376
I1003 12:39:10.794277  5017 layer_factory.hpp:77] Creating layer conv3_Eltwise_3
I1003 12:39:10.794286  5017 net.cpp:128] Creating Layer conv3_Eltwise_3
I1003 12:39:10.794291  5017 net.cpp:558] conv3_Eltwise_3 <- conv3_Eltwise_2_conv3_2ReLU_1_0_split_1
I1003 12:39:10.794296  5017 net.cpp:558] conv3_Eltwise_3 <- conv3_3_1
I1003 12:39:10.794304  5017 net.cpp:522] conv3_Eltwise_3 -> conv3_Eltwise_3
I1003 12:39:10.794328  5017 net.cpp:172] Setting up conv3_Eltwise_3
I1003 12:39:10.794334  5017 net.cpp:186] Top shape: 32 320 16 16 (2621440)
I1003 12:39:10.794338  5017 net.cpp:194] Memory required for data: 1460011136
I1003 12:39:10.794342  5017 layer_factory.hpp:77] Creating layer conv3_3ReLU_1
I1003 12:39:10.794351  5017 net.cpp:128] Creating Layer conv3_3ReLU_1
I1003 12:39:10.794356  5017 net.cpp:558] conv3_3ReLU_1 <- conv3_Eltwise_3
I1003 12:39:10.794361  5017 net.cpp:509] conv3_3ReLU_1 -> conv3_Eltwise_3 (in-place)
I1003 12:39:10.794595  5017 net.cpp:172] Setting up conv3_3ReLU_1
I1003 12:39:10.794608  5017 net.cpp:186] Top shape: 32 320 16 16 (2621440)
I1003 12:39:10.794613  5017 net.cpp:194] Memory required for data: 1470496896
I1003 12:39:10.794617  5017 layer_factory.hpp:77] Creating layer conv3_Eltwise_3_conv3_3ReLU_1_0_split
I1003 12:39:10.794626  5017 net.cpp:128] Creating Layer conv3_Eltwise_3_conv3_3ReLU_1_0_split
I1003 12:39:10.794631  5017 net.cpp:558] conv3_Eltwise_3_conv3_3ReLU_1_0_split <- conv3_Eltwise_3
I1003 12:39:10.794638  5017 net.cpp:522] conv3_Eltwise_3_conv3_3ReLU_1_0_split -> conv3_Eltwise_3_conv3_3ReLU_1_0_split_0
I1003 12:39:10.794646  5017 net.cpp:522] conv3_Eltwise_3_conv3_3ReLU_1_0_split -> conv3_Eltwise_3_conv3_3ReLU_1_0_split_1
I1003 12:39:10.794700  5017 net.cpp:172] Setting up conv3_Eltwise_3_conv3_3ReLU_1_0_split
I1003 12:39:10.794708  5017 net.cpp:186] Top shape: 32 320 16 16 (2621440)
I1003 12:39:10.794713  5017 net.cpp:186] Top shape: 32 320 16 16 (2621440)
I1003 12:39:10.794718  5017 net.cpp:194] Memory required for data: 1491468416
I1003 12:39:10.794721  5017 layer_factory.hpp:77] Creating layer conv3_4_0
I1003 12:39:10.794734  5017 net.cpp:128] Creating Layer conv3_4_0
I1003 12:39:10.794740  5017 net.cpp:558] conv3_4_0 <- conv3_Eltwise_3_conv3_3ReLU_1_0_split_0
I1003 12:39:10.794747  5017 net.cpp:522] conv3_4_0 -> conv3_4_0
I1003 12:39:10.812765  5017 net.cpp:172] Setting up conv3_4_0
I1003 12:39:10.812804  5017 net.cpp:186] Top shape: 32 320 16 16 (2621440)
I1003 12:39:10.812809  5017 net.cpp:194] Memory required for data: 1501954176
I1003 12:39:10.812824  5017 layer_factory.hpp:77] Creating layer conv3_4_bn0
I1003 12:39:10.812835  5017 net.cpp:128] Creating Layer conv3_4_bn0
I1003 12:39:10.812845  5017 net.cpp:558] conv3_4_bn0 <- conv3_4_0
I1003 12:39:10.812855  5017 net.cpp:509] conv3_4_bn0 -> conv3_4_0 (in-place)
I1003 12:39:10.813134  5017 net.cpp:172] Setting up conv3_4_bn0
I1003 12:39:10.813145  5017 net.cpp:186] Top shape: 32 320 16 16 (2621440)
I1003 12:39:10.813150  5017 net.cpp:194] Memory required for data: 1512439936
I1003 12:39:10.813160  5017 layer_factory.hpp:77] Creating layer conv3_4_scale0
I1003 12:39:10.813174  5017 net.cpp:128] Creating Layer conv3_4_scale0
I1003 12:39:10.813179  5017 net.cpp:558] conv3_4_scale0 <- conv3_4_0
I1003 12:39:10.813184  5017 net.cpp:509] conv3_4_scale0 -> conv3_4_0 (in-place)
I1003 12:39:10.813238  5017 layer_factory.hpp:77] Creating layer conv3_4_scale0
I1003 12:39:10.813400  5017 net.cpp:172] Setting up conv3_4_scale0
I1003 12:39:10.813410  5017 net.cpp:186] Top shape: 32 320 16 16 (2621440)
I1003 12:39:10.813414  5017 net.cpp:194] Memory required for data: 1522925696
I1003 12:39:10.813422  5017 layer_factory.hpp:77] Creating layer conv3_4_ReLU0
I1003 12:39:10.813431  5017 net.cpp:128] Creating Layer conv3_4_ReLU0
I1003 12:39:10.813436  5017 net.cpp:558] conv3_4_ReLU0 <- conv3_4_0
I1003 12:39:10.813441  5017 net.cpp:509] conv3_4_ReLU0 -> conv3_4_0 (in-place)
I1003 12:39:10.813887  5017 net.cpp:172] Setting up conv3_4_ReLU0
I1003 12:39:10.813925  5017 net.cpp:186] Top shape: 32 320 16 16 (2621440)
I1003 12:39:10.813930  5017 net.cpp:194] Memory required for data: 1533411456
I1003 12:39:10.813935  5017 layer_factory.hpp:77] Creating layer conv3_Drop4
I1003 12:39:10.813946  5017 net.cpp:128] Creating Layer conv3_Drop4
I1003 12:39:10.813951  5017 net.cpp:558] conv3_Drop4 <- conv3_4_0
I1003 12:39:10.813957  5017 net.cpp:509] conv3_Drop4 -> conv3_4_0 (in-place)
I1003 12:39:10.813992  5017 net.cpp:172] Setting up conv3_Drop4
I1003 12:39:10.813998  5017 net.cpp:186] Top shape: 32 320 16 16 (2621440)
I1003 12:39:10.814002  5017 net.cpp:194] Memory required for data: 1543897216
I1003 12:39:10.814007  5017 layer_factory.hpp:77] Creating layer conv3_4_1
I1003 12:39:10.814019  5017 net.cpp:128] Creating Layer conv3_4_1
I1003 12:39:10.814024  5017 net.cpp:558] conv3_4_1 <- conv3_4_0
I1003 12:39:10.814033  5017 net.cpp:522] conv3_4_1 -> conv3_4_1
I1003 12:39:10.832037  5017 net.cpp:172] Setting up conv3_4_1
I1003 12:39:10.832075  5017 net.cpp:186] Top shape: 32 320 16 16 (2621440)
I1003 12:39:10.832080  5017 net.cpp:194] Memory required for data: 1554382976
I1003 12:39:10.832093  5017 layer_factory.hpp:77] Creating layer conv3_4bn1
I1003 12:39:10.832105  5017 net.cpp:128] Creating Layer conv3_4bn1
I1003 12:39:10.832116  5017 net.cpp:558] conv3_4bn1 <- conv3_4_1
I1003 12:39:10.832125  5017 net.cpp:509] conv3_4bn1 -> conv3_4_1 (in-place)
I1003 12:39:10.832412  5017 net.cpp:172] Setting up conv3_4bn1
I1003 12:39:10.832422  5017 net.cpp:186] Top shape: 32 320 16 16 (2621440)
I1003 12:39:10.832427  5017 net.cpp:194] Memory required for data: 1564868736
I1003 12:39:10.832453  5017 layer_factory.hpp:77] Creating layer conv3_4_scale1
I1003 12:39:10.832465  5017 net.cpp:128] Creating Layer conv3_4_scale1
I1003 12:39:10.832470  5017 net.cpp:558] conv3_4_scale1 <- conv3_4_1
I1003 12:39:10.832478  5017 net.cpp:509] conv3_4_scale1 -> conv3_4_1 (in-place)
I1003 12:39:10.832535  5017 layer_factory.hpp:77] Creating layer conv3_4_scale1
I1003 12:39:10.832690  5017 net.cpp:172] Setting up conv3_4_scale1
I1003 12:39:10.832702  5017 net.cpp:186] Top shape: 32 320 16 16 (2621440)
I1003 12:39:10.832706  5017 net.cpp:194] Memory required for data: 1575354496
I1003 12:39:10.832715  5017 layer_factory.hpp:77] Creating layer conv3_Eltwise_4
I1003 12:39:10.832722  5017 net.cpp:128] Creating Layer conv3_Eltwise_4
I1003 12:39:10.832727  5017 net.cpp:558] conv3_Eltwise_4 <- conv3_Eltwise_3_conv3_3ReLU_1_0_split_1
I1003 12:39:10.832762  5017 net.cpp:558] conv3_Eltwise_4 <- conv3_4_1
I1003 12:39:10.832768  5017 net.cpp:522] conv3_Eltwise_4 -> conv3_Eltwise_4
I1003 12:39:10.832794  5017 net.cpp:172] Setting up conv3_Eltwise_4
I1003 12:39:10.832808  5017 net.cpp:186] Top shape: 32 320 16 16 (2621440)
I1003 12:39:10.832813  5017 net.cpp:194] Memory required for data: 1585840256
I1003 12:39:10.832818  5017 layer_factory.hpp:77] Creating layer conv3_4ReLU_1
I1003 12:39:10.832823  5017 net.cpp:128] Creating Layer conv3_4ReLU_1
I1003 12:39:10.832828  5017 net.cpp:558] conv3_4ReLU_1 <- conv3_Eltwise_4
I1003 12:39:10.832834  5017 net.cpp:509] conv3_4ReLU_1 -> conv3_Eltwise_4 (in-place)
I1003 12:39:10.833070  5017 net.cpp:172] Setting up conv3_4ReLU_1
I1003 12:39:10.833087  5017 net.cpp:186] Top shape: 32 320 16 16 (2621440)
I1003 12:39:10.833092  5017 net.cpp:194] Memory required for data: 1596326016
I1003 12:39:10.833096  5017 layer_factory.hpp:77] Creating layer conv3_Eltwise_4_conv3_4ReLU_1_0_split
I1003 12:39:10.833104  5017 net.cpp:128] Creating Layer conv3_Eltwise_4_conv3_4ReLU_1_0_split
I1003 12:39:10.833109  5017 net.cpp:558] conv3_Eltwise_4_conv3_4ReLU_1_0_split <- conv3_Eltwise_4
I1003 12:39:10.833118  5017 net.cpp:522] conv3_Eltwise_4_conv3_4ReLU_1_0_split -> conv3_Eltwise_4_conv3_4ReLU_1_0_split_0
I1003 12:39:10.833127  5017 net.cpp:522] conv3_Eltwise_4_conv3_4ReLU_1_0_split -> conv3_Eltwise_4_conv3_4ReLU_1_0_split_1
I1003 12:39:10.833179  5017 net.cpp:172] Setting up conv3_Eltwise_4_conv3_4ReLU_1_0_split
I1003 12:39:10.833199  5017 net.cpp:186] Top shape: 32 320 16 16 (2621440)
I1003 12:39:10.833204  5017 net.cpp:186] Top shape: 32 320 16 16 (2621440)
I1003 12:39:10.833209  5017 net.cpp:194] Memory required for data: 1617297536
I1003 12:39:10.833212  5017 layer_factory.hpp:77] Creating layer conv4_1_0
I1003 12:39:10.833227  5017 net.cpp:128] Creating Layer conv4_1_0
I1003 12:39:10.833231  5017 net.cpp:558] conv4_1_0 <- conv3_Eltwise_4_conv3_4ReLU_1_0_split_0
I1003 12:39:10.833238  5017 net.cpp:522] conv4_1_0 -> conv4_1_0
I1003 12:39:10.868814  5017 net.cpp:172] Setting up conv4_1_0
I1003 12:39:10.868872  5017 net.cpp:186] Top shape: 32 640 8 8 (1310720)
I1003 12:39:10.868877  5017 net.cpp:194] Memory required for data: 1622540416
I1003 12:39:10.868894  5017 layer_factory.hpp:77] Creating layer conv4_1_bn0
I1003 12:39:10.868911  5017 net.cpp:128] Creating Layer conv4_1_bn0
I1003 12:39:10.868923  5017 net.cpp:558] conv4_1_bn0 <- conv4_1_0
I1003 12:39:10.868932  5017 net.cpp:509] conv4_1_bn0 -> conv4_1_0 (in-place)
I1003 12:39:10.869223  5017 net.cpp:172] Setting up conv4_1_bn0
I1003 12:39:10.869235  5017 net.cpp:186] Top shape: 32 640 8 8 (1310720)
I1003 12:39:10.869240  5017 net.cpp:194] Memory required for data: 1627783296
I1003 12:39:10.869249  5017 layer_factory.hpp:77] Creating layer conv4_1_scale0
I1003 12:39:10.869257  5017 net.cpp:128] Creating Layer conv4_1_scale0
I1003 12:39:10.869262  5017 net.cpp:558] conv4_1_scale0 <- conv4_1_0
I1003 12:39:10.869274  5017 net.cpp:509] conv4_1_scale0 -> conv4_1_0 (in-place)
I1003 12:39:10.869328  5017 layer_factory.hpp:77] Creating layer conv4_1_scale0
I1003 12:39:10.869489  5017 net.cpp:172] Setting up conv4_1_scale0
I1003 12:39:10.869498  5017 net.cpp:186] Top shape: 32 640 8 8 (1310720)
I1003 12:39:10.869503  5017 net.cpp:194] Memory required for data: 1633026176
I1003 12:39:10.869510  5017 layer_factory.hpp:77] Creating layer conv4_1_ReLU0
I1003 12:39:10.869518  5017 net.cpp:128] Creating Layer conv4_1_ReLU0
I1003 12:39:10.869523  5017 net.cpp:558] conv4_1_ReLU0 <- conv4_1_0
I1003 12:39:10.869527  5017 net.cpp:509] conv4_1_ReLU0 -> conv4_1_0 (in-place)
I1003 12:39:10.869773  5017 net.cpp:172] Setting up conv4_1_ReLU0
I1003 12:39:10.869796  5017 net.cpp:186] Top shape: 32 640 8 8 (1310720)
I1003 12:39:10.869801  5017 net.cpp:194] Memory required for data: 1638269056
I1003 12:39:10.869804  5017 layer_factory.hpp:77] Creating layer conv4_Drop1
I1003 12:39:10.869814  5017 net.cpp:128] Creating Layer conv4_Drop1
I1003 12:39:10.869856  5017 net.cpp:558] conv4_Drop1 <- conv4_1_0
I1003 12:39:10.869863  5017 net.cpp:509] conv4_Drop1 -> conv4_1_0 (in-place)
I1003 12:39:10.869917  5017 net.cpp:172] Setting up conv4_Drop1
I1003 12:39:10.869926  5017 net.cpp:186] Top shape: 32 640 8 8 (1310720)
I1003 12:39:10.869930  5017 net.cpp:194] Memory required for data: 1643511936
I1003 12:39:10.869935  5017 layer_factory.hpp:77] Creating layer conv4_1_1
I1003 12:39:10.869948  5017 net.cpp:128] Creating Layer conv4_1_1
I1003 12:39:10.869953  5017 net.cpp:558] conv4_1_1 <- conv4_1_0
I1003 12:39:10.869962  5017 net.cpp:522] conv4_1_1 -> conv4_1_1
I1003 12:39:10.939828  5017 net.cpp:172] Setting up conv4_1_1
I1003 12:39:10.939887  5017 net.cpp:186] Top shape: 32 640 8 8 (1310720)
I1003 12:39:10.939891  5017 net.cpp:194] Memory required for data: 1648754816
I1003 12:39:10.939911  5017 layer_factory.hpp:77] Creating layer conv4_1bn1
I1003 12:39:10.939929  5017 net.cpp:128] Creating Layer conv4_1bn1
I1003 12:39:10.939935  5017 net.cpp:558] conv4_1bn1 <- conv4_1_1
I1003 12:39:10.939951  5017 net.cpp:509] conv4_1bn1 -> conv4_1_1 (in-place)
I1003 12:39:10.940239  5017 net.cpp:172] Setting up conv4_1bn1
I1003 12:39:10.940250  5017 net.cpp:186] Top shape: 32 640 8 8 (1310720)
I1003 12:39:10.940254  5017 net.cpp:194] Memory required for data: 1653997696
I1003 12:39:10.940265  5017 layer_factory.hpp:77] Creating layer conv4_1_scale1
I1003 12:39:10.940275  5017 net.cpp:128] Creating Layer conv4_1_scale1
I1003 12:39:10.940280  5017 net.cpp:558] conv4_1_scale1 <- conv4_1_1
I1003 12:39:10.940285  5017 net.cpp:509] conv4_1_scale1 -> conv4_1_1 (in-place)
I1003 12:39:10.940340  5017 layer_factory.hpp:77] Creating layer conv4_1_scale1
I1003 12:39:10.940508  5017 net.cpp:172] Setting up conv4_1_scale1
I1003 12:39:10.940518  5017 net.cpp:186] Top shape: 32 640 8 8 (1310720)
I1003 12:39:10.940523  5017 net.cpp:194] Memory required for data: 1659240576
I1003 12:39:10.940531  5017 layer_factory.hpp:77] Creating layer conv4_1_down
I1003 12:39:10.940546  5017 net.cpp:128] Creating Layer conv4_1_down
I1003 12:39:10.940551  5017 net.cpp:558] conv4_1_down <- conv3_Eltwise_4_conv3_4ReLU_1_0_split_1
I1003 12:39:10.940560  5017 net.cpp:522] conv4_1_down -> conv4_1_down
I1003 12:39:10.945240  5017 net.cpp:172] Setting up conv4_1_down
I1003 12:39:10.945266  5017 net.cpp:186] Top shape: 32 640 8 8 (1310720)
I1003 12:39:10.945271  5017 net.cpp:194] Memory required for data: 1664483456
I1003 12:39:10.945281  5017 layer_factory.hpp:77] Creating layer conv4_1_bn_down
I1003 12:39:10.945292  5017 net.cpp:128] Creating Layer conv4_1_bn_down
I1003 12:39:10.945297  5017 net.cpp:558] conv4_1_bn_down <- conv4_1_down
I1003 12:39:10.945303  5017 net.cpp:509] conv4_1_bn_down -> conv4_1_down (in-place)
I1003 12:39:10.945587  5017 net.cpp:172] Setting up conv4_1_bn_down
I1003 12:39:10.945598  5017 net.cpp:186] Top shape: 32 640 8 8 (1310720)
I1003 12:39:10.945602  5017 net.cpp:194] Memory required for data: 1669726336
I1003 12:39:10.945612  5017 layer_factory.hpp:77] Creating layer conv4_1_scale_down
I1003 12:39:10.945619  5017 net.cpp:128] Creating Layer conv4_1_scale_down
I1003 12:39:10.945624  5017 net.cpp:558] conv4_1_scale_down <- conv4_1_down
I1003 12:39:10.945632  5017 net.cpp:509] conv4_1_scale_down -> conv4_1_down (in-place)
I1003 12:39:10.945677  5017 layer_factory.hpp:77] Creating layer conv4_1_scale_down
I1003 12:39:10.945840  5017 net.cpp:172] Setting up conv4_1_scale_down
I1003 12:39:10.945852  5017 net.cpp:186] Top shape: 32 640 8 8 (1310720)
I1003 12:39:10.945858  5017 net.cpp:194] Memory required for data: 1674969216
I1003 12:39:10.945865  5017 layer_factory.hpp:77] Creating layer conv4_Eltwise_1
I1003 12:39:10.945873  5017 net.cpp:128] Creating Layer conv4_Eltwise_1
I1003 12:39:10.945878  5017 net.cpp:558] conv4_Eltwise_1 <- conv4_1_1
I1003 12:39:10.945883  5017 net.cpp:558] conv4_Eltwise_1 <- conv4_1_down
I1003 12:39:10.945888  5017 net.cpp:522] conv4_Eltwise_1 -> conv4_Eltwise_1
I1003 12:39:10.945930  5017 net.cpp:172] Setting up conv4_Eltwise_1
I1003 12:39:10.945936  5017 net.cpp:186] Top shape: 32 640 8 8 (1310720)
I1003 12:39:10.945981  5017 net.cpp:194] Memory required for data: 1680212096
I1003 12:39:10.945986  5017 layer_factory.hpp:77] Creating layer conv4_1ReLU_1
I1003 12:39:10.945996  5017 net.cpp:128] Creating Layer conv4_1ReLU_1
I1003 12:39:10.946000  5017 net.cpp:558] conv4_1ReLU_1 <- conv4_Eltwise_1
I1003 12:39:10.946007  5017 net.cpp:509] conv4_1ReLU_1 -> conv4_Eltwise_1 (in-place)
I1003 12:39:10.946247  5017 net.cpp:172] Setting up conv4_1ReLU_1
I1003 12:39:10.946260  5017 net.cpp:186] Top shape: 32 640 8 8 (1310720)
I1003 12:39:10.946265  5017 net.cpp:194] Memory required for data: 1685454976
I1003 12:39:10.946269  5017 layer_factory.hpp:77] Creating layer conv4_Eltwise_1_conv4_1ReLU_1_0_split
I1003 12:39:10.946279  5017 net.cpp:128] Creating Layer conv4_Eltwise_1_conv4_1ReLU_1_0_split
I1003 12:39:10.946283  5017 net.cpp:558] conv4_Eltwise_1_conv4_1ReLU_1_0_split <- conv4_Eltwise_1
I1003 12:39:10.946290  5017 net.cpp:522] conv4_Eltwise_1_conv4_1ReLU_1_0_split -> conv4_Eltwise_1_conv4_1ReLU_1_0_split_0
I1003 12:39:10.946298  5017 net.cpp:522] conv4_Eltwise_1_conv4_1ReLU_1_0_split -> conv4_Eltwise_1_conv4_1ReLU_1_0_split_1
I1003 12:39:10.946354  5017 net.cpp:172] Setting up conv4_Eltwise_1_conv4_1ReLU_1_0_split
I1003 12:39:10.946367  5017 net.cpp:186] Top shape: 32 640 8 8 (1310720)
I1003 12:39:10.946373  5017 net.cpp:186] Top shape: 32 640 8 8 (1310720)
I1003 12:39:10.946377  5017 net.cpp:194] Memory required for data: 1695940736
I1003 12:39:10.946382  5017 layer_factory.hpp:77] Creating layer conv4_2_0
I1003 12:39:10.946398  5017 net.cpp:128] Creating Layer conv4_2_0
I1003 12:39:10.946403  5017 net.cpp:558] conv4_2_0 <- conv4_Eltwise_1_conv4_1ReLU_1_0_split_0
I1003 12:39:10.946410  5017 net.cpp:522] conv4_2_0 -> conv4_2_0
I1003 12:39:11.016469  5017 net.cpp:172] Setting up conv4_2_0
I1003 12:39:11.016530  5017 net.cpp:186] Top shape: 32 640 8 8 (1310720)
I1003 12:39:11.016535  5017 net.cpp:194] Memory required for data: 1701183616
I1003 12:39:11.016551  5017 layer_factory.hpp:77] Creating layer conv4_2_bn0
I1003 12:39:11.016567  5017 net.cpp:128] Creating Layer conv4_2_bn0
I1003 12:39:11.016575  5017 net.cpp:558] conv4_2_bn0 <- conv4_2_0
I1003 12:39:11.016587  5017 net.cpp:509] conv4_2_bn0 -> conv4_2_0 (in-place)
I1003 12:39:11.016880  5017 net.cpp:172] Setting up conv4_2_bn0
I1003 12:39:11.016891  5017 net.cpp:186] Top shape: 32 640 8 8 (1310720)
I1003 12:39:11.016894  5017 net.cpp:194] Memory required for data: 1706426496
I1003 12:39:11.016904  5017 layer_factory.hpp:77] Creating layer conv4_2_scale0
I1003 12:39:11.016913  5017 net.cpp:128] Creating Layer conv4_2_scale0
I1003 12:39:11.016917  5017 net.cpp:558] conv4_2_scale0 <- conv4_2_0
I1003 12:39:11.016923  5017 net.cpp:509] conv4_2_scale0 -> conv4_2_0 (in-place)
I1003 12:39:11.016978  5017 layer_factory.hpp:77] Creating layer conv4_2_scale0
I1003 12:39:11.017143  5017 net.cpp:172] Setting up conv4_2_scale0
I1003 12:39:11.017150  5017 net.cpp:186] Top shape: 32 640 8 8 (1310720)
I1003 12:39:11.017154  5017 net.cpp:194] Memory required for data: 1711669376
I1003 12:39:11.017161  5017 layer_factory.hpp:77] Creating layer conv4_2_ReLU0
I1003 12:39:11.017169  5017 net.cpp:128] Creating Layer conv4_2_ReLU0
I1003 12:39:11.017174  5017 net.cpp:558] conv4_2_ReLU0 <- conv4_2_0
I1003 12:39:11.017180  5017 net.cpp:509] conv4_2_ReLU0 -> conv4_2_0 (in-place)
I1003 12:39:11.017633  5017 net.cpp:172] Setting up conv4_2_ReLU0
I1003 12:39:11.017658  5017 net.cpp:186] Top shape: 32 640 8 8 (1310720)
I1003 12:39:11.017663  5017 net.cpp:194] Memory required for data: 1716912256
I1003 12:39:11.017668  5017 layer_factory.hpp:77] Creating layer conv4_Drop2
I1003 12:39:11.017678  5017 net.cpp:128] Creating Layer conv4_Drop2
I1003 12:39:11.017683  5017 net.cpp:558] conv4_Drop2 <- conv4_2_0
I1003 12:39:11.017690  5017 net.cpp:509] conv4_Drop2 -> conv4_2_0 (in-place)
I1003 12:39:11.017729  5017 net.cpp:172] Setting up conv4_Drop2
I1003 12:39:11.017738  5017 net.cpp:186] Top shape: 32 640 8 8 (1310720)
I1003 12:39:11.017742  5017 net.cpp:194] Memory required for data: 1722155136
I1003 12:39:11.017784  5017 layer_factory.hpp:77] Creating layer conv4_2_1
I1003 12:39:11.017799  5017 net.cpp:128] Creating Layer conv4_2_1
I1003 12:39:11.017804  5017 net.cpp:558] conv4_2_1 <- conv4_2_0
I1003 12:39:11.017812  5017 net.cpp:522] conv4_2_1 -> conv4_2_1
I1003 12:39:11.087848  5017 net.cpp:172] Setting up conv4_2_1
I1003 12:39:11.087906  5017 net.cpp:186] Top shape: 32 640 8 8 (1310720)
I1003 12:39:11.087910  5017 net.cpp:194] Memory required for data: 1727398016
I1003 12:39:11.087929  5017 layer_factory.hpp:77] Creating layer conv4_2bn1
I1003 12:39:11.087946  5017 net.cpp:128] Creating Layer conv4_2bn1
I1003 12:39:11.087956  5017 net.cpp:558] conv4_2bn1 <- conv4_2_1
I1003 12:39:11.087970  5017 net.cpp:509] conv4_2bn1 -> conv4_2_1 (in-place)
I1003 12:39:11.088263  5017 net.cpp:172] Setting up conv4_2bn1
I1003 12:39:11.088274  5017 net.cpp:186] Top shape: 32 640 8 8 (1310720)
I1003 12:39:11.088277  5017 net.cpp:194] Memory required for data: 1732640896
I1003 12:39:11.088287  5017 layer_factory.hpp:77] Creating layer conv4_2_scale1
I1003 12:39:11.088299  5017 net.cpp:128] Creating Layer conv4_2_scale1
I1003 12:39:11.088304  5017 net.cpp:558] conv4_2_scale1 <- conv4_2_1
I1003 12:39:11.088310  5017 net.cpp:509] conv4_2_scale1 -> conv4_2_1 (in-place)
I1003 12:39:11.088364  5017 layer_factory.hpp:77] Creating layer conv4_2_scale1
I1003 12:39:11.088537  5017 net.cpp:172] Setting up conv4_2_scale1
I1003 12:39:11.088548  5017 net.cpp:186] Top shape: 32 640 8 8 (1310720)
I1003 12:39:11.088552  5017 net.cpp:194] Memory required for data: 1737883776
I1003 12:39:11.088560  5017 layer_factory.hpp:77] Creating layer conv4_Eltwise_2
I1003 12:39:11.088572  5017 net.cpp:128] Creating Layer conv4_Eltwise_2
I1003 12:39:11.088577  5017 net.cpp:558] conv4_Eltwise_2 <- conv4_Eltwise_1_conv4_1ReLU_1_0_split_1
I1003 12:39:11.088582  5017 net.cpp:558] conv4_Eltwise_2 <- conv4_2_1
I1003 12:39:11.088588  5017 net.cpp:522] conv4_Eltwise_2 -> conv4_Eltwise_2
I1003 12:39:11.088619  5017 net.cpp:172] Setting up conv4_Eltwise_2
I1003 12:39:11.088632  5017 net.cpp:186] Top shape: 32 640 8 8 (1310720)
I1003 12:39:11.088636  5017 net.cpp:194] Memory required for data: 1743126656
I1003 12:39:11.088640  5017 layer_factory.hpp:77] Creating layer conv4_2ReLU_1
I1003 12:39:11.088649  5017 net.cpp:128] Creating Layer conv4_2ReLU_1
I1003 12:39:11.088652  5017 net.cpp:558] conv4_2ReLU_1 <- conv4_Eltwise_2
I1003 12:39:11.088660  5017 net.cpp:509] conv4_2ReLU_1 -> conv4_Eltwise_2 (in-place)
I1003 12:39:11.088907  5017 net.cpp:172] Setting up conv4_2ReLU_1
I1003 12:39:11.088922  5017 net.cpp:186] Top shape: 32 640 8 8 (1310720)
I1003 12:39:11.088927  5017 net.cpp:194] Memory required for data: 1748369536
I1003 12:39:11.088932  5017 layer_factory.hpp:77] Creating layer conv4_Eltwise_2_conv4_2ReLU_1_0_split
I1003 12:39:11.088938  5017 net.cpp:128] Creating Layer conv4_Eltwise_2_conv4_2ReLU_1_0_split
I1003 12:39:11.088943  5017 net.cpp:558] conv4_Eltwise_2_conv4_2ReLU_1_0_split <- conv4_Eltwise_2
I1003 12:39:11.088953  5017 net.cpp:522] conv4_Eltwise_2_conv4_2ReLU_1_0_split -> conv4_Eltwise_2_conv4_2ReLU_1_0_split_0
I1003 12:39:11.088960  5017 net.cpp:522] conv4_Eltwise_2_conv4_2ReLU_1_0_split -> conv4_Eltwise_2_conv4_2ReLU_1_0_split_1
I1003 12:39:11.089016  5017 net.cpp:172] Setting up conv4_Eltwise_2_conv4_2ReLU_1_0_split
I1003 12:39:11.089030  5017 net.cpp:186] Top shape: 32 640 8 8 (1310720)
I1003 12:39:11.089035  5017 net.cpp:186] Top shape: 32 640 8 8 (1310720)
I1003 12:39:11.089040  5017 net.cpp:194] Memory required for data: 1758855296
I1003 12:39:11.089043  5017 layer_factory.hpp:77] Creating layer conv4_3_0
I1003 12:39:11.089058  5017 net.cpp:128] Creating Layer conv4_3_0
I1003 12:39:11.089063  5017 net.cpp:558] conv4_3_0 <- conv4_Eltwise_2_conv4_2ReLU_1_0_split_0
I1003 12:39:11.089072  5017 net.cpp:522] conv4_3_0 -> conv4_3_0
I1003 12:39:11.158800  5017 net.cpp:172] Setting up conv4_3_0
I1003 12:39:11.158859  5017 net.cpp:186] Top shape: 32 640 8 8 (1310720)
I1003 12:39:11.158864  5017 net.cpp:194] Memory required for data: 1764098176
I1003 12:39:11.158924  5017 layer_factory.hpp:77] Creating layer conv4_3_bn0
I1003 12:39:11.158942  5017 net.cpp:128] Creating Layer conv4_3_bn0
I1003 12:39:11.158951  5017 net.cpp:558] conv4_3_bn0 <- conv4_3_0
I1003 12:39:11.158967  5017 net.cpp:509] conv4_3_bn0 -> conv4_3_0 (in-place)
I1003 12:39:11.159265  5017 net.cpp:172] Setting up conv4_3_bn0
I1003 12:39:11.159278  5017 net.cpp:186] Top shape: 32 640 8 8 (1310720)
I1003 12:39:11.159283  5017 net.cpp:194] Memory required for data: 1769341056
I1003 12:39:11.159293  5017 layer_factory.hpp:77] Creating layer conv4_3_scale0
I1003 12:39:11.159302  5017 net.cpp:128] Creating Layer conv4_3_scale0
I1003 12:39:11.159307  5017 net.cpp:558] conv4_3_scale0 <- conv4_3_0
I1003 12:39:11.159313  5017 net.cpp:509] conv4_3_scale0 -> conv4_3_0 (in-place)
I1003 12:39:11.159369  5017 layer_factory.hpp:77] Creating layer conv4_3_scale0
I1003 12:39:11.159535  5017 net.cpp:172] Setting up conv4_3_scale0
I1003 12:39:11.159543  5017 net.cpp:186] Top shape: 32 640 8 8 (1310720)
I1003 12:39:11.159546  5017 net.cpp:194] Memory required for data: 1774583936
I1003 12:39:11.159554  5017 layer_factory.hpp:77] Creating layer conv4_3_ReLU0
I1003 12:39:11.159570  5017 net.cpp:128] Creating Layer conv4_3_ReLU0
I1003 12:39:11.159575  5017 net.cpp:558] conv4_3_ReLU0 <- conv4_3_0
I1003 12:39:11.159581  5017 net.cpp:509] conv4_3_ReLU0 -> conv4_3_0 (in-place)
I1003 12:39:11.159829  5017 net.cpp:172] Setting up conv4_3_ReLU0
I1003 12:39:11.159847  5017 net.cpp:186] Top shape: 32 640 8 8 (1310720)
I1003 12:39:11.159852  5017 net.cpp:194] Memory required for data: 1779826816
I1003 12:39:11.159857  5017 layer_factory.hpp:77] Creating layer conv4_Drop3
I1003 12:39:11.159867  5017 net.cpp:128] Creating Layer conv4_Drop3
I1003 12:39:11.159870  5017 net.cpp:558] conv4_Drop3 <- conv4_3_0
I1003 12:39:11.159878  5017 net.cpp:509] conv4_Drop3 -> conv4_3_0 (in-place)
I1003 12:39:11.159914  5017 net.cpp:172] Setting up conv4_Drop3
I1003 12:39:11.159920  5017 net.cpp:186] Top shape: 32 640 8 8 (1310720)
I1003 12:39:11.159924  5017 net.cpp:194] Memory required for data: 1785069696
I1003 12:39:11.159929  5017 layer_factory.hpp:77] Creating layer conv4_3_1
I1003 12:39:11.159945  5017 net.cpp:128] Creating Layer conv4_3_1
I1003 12:39:11.159948  5017 net.cpp:558] conv4_3_1 <- conv4_3_0
I1003 12:39:11.159955  5017 net.cpp:522] conv4_3_1 -> conv4_3_1
I1003 12:39:11.229876  5017 net.cpp:172] Setting up conv4_3_1
I1003 12:39:11.229955  5017 net.cpp:186] Top shape: 32 640 8 8 (1310720)
I1003 12:39:11.229960  5017 net.cpp:194] Memory required for data: 1790312576
I1003 12:39:11.229979  5017 layer_factory.hpp:77] Creating layer conv4_3bn1
I1003 12:39:11.229992  5017 net.cpp:128] Creating Layer conv4_3bn1
I1003 12:39:11.230000  5017 net.cpp:558] conv4_3bn1 <- conv4_3_1
I1003 12:39:11.230016  5017 net.cpp:509] conv4_3bn1 -> conv4_3_1 (in-place)
I1003 12:39:11.230324  5017 net.cpp:172] Setting up conv4_3bn1
I1003 12:39:11.230334  5017 net.cpp:186] Top shape: 32 640 8 8 (1310720)
I1003 12:39:11.230338  5017 net.cpp:194] Memory required for data: 1795555456
I1003 12:39:11.230350  5017 layer_factory.hpp:77] Creating layer conv4_3_scale1
I1003 12:39:11.230357  5017 net.cpp:128] Creating Layer conv4_3_scale1
I1003 12:39:11.230362  5017 net.cpp:558] conv4_3_scale1 <- conv4_3_1
I1003 12:39:11.230367  5017 net.cpp:509] conv4_3_scale1 -> conv4_3_1 (in-place)
I1003 12:39:11.230425  5017 layer_factory.hpp:77] Creating layer conv4_3_scale1
I1003 12:39:11.230590  5017 net.cpp:172] Setting up conv4_3_scale1
I1003 12:39:11.230602  5017 net.cpp:186] Top shape: 32 640 8 8 (1310720)
I1003 12:39:11.230607  5017 net.cpp:194] Memory required for data: 1800798336
I1003 12:39:11.230614  5017 layer_factory.hpp:77] Creating layer conv4_Eltwise_3
I1003 12:39:11.230625  5017 net.cpp:128] Creating Layer conv4_Eltwise_3
I1003 12:39:11.230631  5017 net.cpp:558] conv4_Eltwise_3 <- conv4_Eltwise_2_conv4_2ReLU_1_0_split_1
I1003 12:39:11.230638  5017 net.cpp:558] conv4_Eltwise_3 <- conv4_3_1
I1003 12:39:11.230643  5017 net.cpp:522] conv4_Eltwise_3 -> conv4_Eltwise_3
I1003 12:39:11.230718  5017 net.cpp:172] Setting up conv4_Eltwise_3
I1003 12:39:11.230736  5017 net.cpp:186] Top shape: 32 640 8 8 (1310720)
I1003 12:39:11.230741  5017 net.cpp:194] Memory required for data: 1806041216
I1003 12:39:11.230744  5017 layer_factory.hpp:77] Creating layer conv4_3ReLU_1
I1003 12:39:11.230751  5017 net.cpp:128] Creating Layer conv4_3ReLU_1
I1003 12:39:11.230756  5017 net.cpp:558] conv4_3ReLU_1 <- conv4_Eltwise_3
I1003 12:39:11.230763  5017 net.cpp:509] conv4_3ReLU_1 -> conv4_Eltwise_3 (in-place)
I1003 12:39:11.231225  5017 net.cpp:172] Setting up conv4_3ReLU_1
I1003 12:39:11.231247  5017 net.cpp:186] Top shape: 32 640 8 8 (1310720)
I1003 12:39:11.231251  5017 net.cpp:194] Memory required for data: 1811284096
I1003 12:39:11.231256  5017 layer_factory.hpp:77] Creating layer conv4_Eltwise_3_conv4_3ReLU_1_0_split
I1003 12:39:11.231266  5017 net.cpp:128] Creating Layer conv4_Eltwise_3_conv4_3ReLU_1_0_split
I1003 12:39:11.231271  5017 net.cpp:558] conv4_Eltwise_3_conv4_3ReLU_1_0_split <- conv4_Eltwise_3
I1003 12:39:11.231279  5017 net.cpp:522] conv4_Eltwise_3_conv4_3ReLU_1_0_split -> conv4_Eltwise_3_conv4_3ReLU_1_0_split_0
I1003 12:39:11.231288  5017 net.cpp:522] conv4_Eltwise_3_conv4_3ReLU_1_0_split -> conv4_Eltwise_3_conv4_3ReLU_1_0_split_1
I1003 12:39:11.231349  5017 net.cpp:172] Setting up conv4_Eltwise_3_conv4_3ReLU_1_0_split
I1003 12:39:11.231359  5017 net.cpp:186] Top shape: 32 640 8 8 (1310720)
I1003 12:39:11.231365  5017 net.cpp:186] Top shape: 32 640 8 8 (1310720)
I1003 12:39:11.231369  5017 net.cpp:194] Memory required for data: 1821769856
I1003 12:39:11.231374  5017 layer_factory.hpp:77] Creating layer conv4_4_0
I1003 12:39:11.231386  5017 net.cpp:128] Creating Layer conv4_4_0
I1003 12:39:11.231391  5017 net.cpp:558] conv4_4_0 <- conv4_Eltwise_3_conv4_3ReLU_1_0_split_0
I1003 12:39:11.231401  5017 net.cpp:522] conv4_4_0 -> conv4_4_0
I1003 12:39:11.301421  5017 net.cpp:172] Setting up conv4_4_0
I1003 12:39:11.301479  5017 net.cpp:186] Top shape: 32 640 8 8 (1310720)
I1003 12:39:11.301483  5017 net.cpp:194] Memory required for data: 1827012736
I1003 12:39:11.301502  5017 layer_factory.hpp:77] Creating layer conv4_4_bn0
I1003 12:39:11.301517  5017 net.cpp:128] Creating Layer conv4_4_bn0
I1003 12:39:11.301524  5017 net.cpp:558] conv4_4_bn0 <- conv4_4_0
I1003 12:39:11.301533  5017 net.cpp:509] conv4_4_bn0 -> conv4_4_0 (in-place)
I1003 12:39:11.301839  5017 net.cpp:172] Setting up conv4_4_bn0
I1003 12:39:11.301851  5017 net.cpp:186] Top shape: 32 640 8 8 (1310720)
I1003 12:39:11.301856  5017 net.cpp:194] Memory required for data: 1832255616
I1003 12:39:11.301867  5017 layer_factory.hpp:77] Creating layer conv4_4_scale0
I1003 12:39:11.301875  5017 net.cpp:128] Creating Layer conv4_4_scale0
I1003 12:39:11.301880  5017 net.cpp:558] conv4_4_scale0 <- conv4_4_0
I1003 12:39:11.301888  5017 net.cpp:509] conv4_4_scale0 -> conv4_4_0 (in-place)
I1003 12:39:11.301967  5017 layer_factory.hpp:77] Creating layer conv4_4_scale0
I1003 12:39:11.302141  5017 net.cpp:172] Setting up conv4_4_scale0
I1003 12:39:11.302155  5017 net.cpp:186] Top shape: 32 640 8 8 (1310720)
I1003 12:39:11.302160  5017 net.cpp:194] Memory required for data: 1837498496
I1003 12:39:11.302167  5017 layer_factory.hpp:77] Creating layer conv4_4_ReLU0
I1003 12:39:11.302175  5017 net.cpp:128] Creating Layer conv4_4_ReLU0
I1003 12:39:11.302179  5017 net.cpp:558] conv4_4_ReLU0 <- conv4_4_0
I1003 12:39:11.302186  5017 net.cpp:509] conv4_4_ReLU0 -> conv4_4_0 (in-place)
I1003 12:39:11.302438  5017 net.cpp:172] Setting up conv4_4_ReLU0
I1003 12:39:11.302458  5017 net.cpp:186] Top shape: 32 640 8 8 (1310720)
I1003 12:39:11.302462  5017 net.cpp:194] Memory required for data: 1842741376
I1003 12:39:11.302466  5017 layer_factory.hpp:77] Creating layer conv4_Drop4
I1003 12:39:11.302475  5017 net.cpp:128] Creating Layer conv4_Drop4
I1003 12:39:11.302479  5017 net.cpp:558] conv4_Drop4 <- conv4_4_0
I1003 12:39:11.302485  5017 net.cpp:509] conv4_Drop4 -> conv4_4_0 (in-place)
I1003 12:39:11.302523  5017 net.cpp:172] Setting up conv4_Drop4
I1003 12:39:11.302570  5017 net.cpp:186] Top shape: 32 640 8 8 (1310720)
I1003 12:39:11.302575  5017 net.cpp:194] Memory required for data: 1847984256
I1003 12:39:11.302579  5017 layer_factory.hpp:77] Creating layer conv4_4_1
I1003 12:39:11.302593  5017 net.cpp:128] Creating Layer conv4_4_1
I1003 12:39:11.302597  5017 net.cpp:558] conv4_4_1 <- conv4_4_0
I1003 12:39:11.302606  5017 net.cpp:522] conv4_4_1 -> conv4_4_1
I1003 12:39:11.372716  5017 net.cpp:172] Setting up conv4_4_1
I1003 12:39:11.372776  5017 net.cpp:186] Top shape: 32 640 8 8 (1310720)
I1003 12:39:11.372781  5017 net.cpp:194] Memory required for data: 1853227136
I1003 12:39:11.372800  5017 layer_factory.hpp:77] Creating layer conv4_4bn1
I1003 12:39:11.372817  5017 net.cpp:128] Creating Layer conv4_4bn1
I1003 12:39:11.372829  5017 net.cpp:558] conv4_4bn1 <- conv4_4_1
I1003 12:39:11.372838  5017 net.cpp:509] conv4_4bn1 -> conv4_4_1 (in-place)
I1003 12:39:11.373147  5017 net.cpp:172] Setting up conv4_4bn1
I1003 12:39:11.373158  5017 net.cpp:186] Top shape: 32 640 8 8 (1310720)
I1003 12:39:11.373163  5017 net.cpp:194] Memory required for data: 1858470016
I1003 12:39:11.373173  5017 layer_factory.hpp:77] Creating layer conv4_4_scale1
I1003 12:39:11.373183  5017 net.cpp:128] Creating Layer conv4_4_scale1
I1003 12:39:11.373188  5017 net.cpp:558] conv4_4_scale1 <- conv4_4_1
I1003 12:39:11.373195  5017 net.cpp:509] conv4_4_scale1 -> conv4_4_1 (in-place)
I1003 12:39:11.373250  5017 layer_factory.hpp:77] Creating layer conv4_4_scale1
I1003 12:39:11.373437  5017 net.cpp:172] Setting up conv4_4_scale1
I1003 12:39:11.373445  5017 net.cpp:186] Top shape: 32 640 8 8 (1310720)
I1003 12:39:11.373450  5017 net.cpp:194] Memory required for data: 1863712896
I1003 12:39:11.373457  5017 layer_factory.hpp:77] Creating layer conv4_Eltwise_4
I1003 12:39:11.373466  5017 net.cpp:128] Creating Layer conv4_Eltwise_4
I1003 12:39:11.373471  5017 net.cpp:558] conv4_Eltwise_4 <- conv4_Eltwise_3_conv4_3ReLU_1_0_split_1
I1003 12:39:11.373476  5017 net.cpp:558] conv4_Eltwise_4 <- conv4_4_1
I1003 12:39:11.373484  5017 net.cpp:522] conv4_Eltwise_4 -> conv4_Eltwise_4
I1003 12:39:11.373514  5017 net.cpp:172] Setting up conv4_Eltwise_4
I1003 12:39:11.373524  5017 net.cpp:186] Top shape: 32 640 8 8 (1310720)
I1003 12:39:11.373528  5017 net.cpp:194] Memory required for data: 1868955776
I1003 12:39:11.373533  5017 layer_factory.hpp:77] Creating layer conv4_4ReLU_1
I1003 12:39:11.373540  5017 net.cpp:128] Creating Layer conv4_4ReLU_1
I1003 12:39:11.373544  5017 net.cpp:558] conv4_4ReLU_1 <- conv4_Eltwise_4
I1003 12:39:11.373549  5017 net.cpp:509] conv4_4ReLU_1 -> conv4_Eltwise_4 (in-place)
I1003 12:39:11.373800  5017 net.cpp:172] Setting up conv4_4ReLU_1
I1003 12:39:11.373814  5017 net.cpp:186] Top shape: 32 640 8 8 (1310720)
I1003 12:39:11.373819  5017 net.cpp:194] Memory required for data: 1874198656
I1003 12:39:11.373823  5017 layer_factory.hpp:77] Creating layer Pooling1
I1003 12:39:11.373834  5017 net.cpp:128] Creating Layer Pooling1
I1003 12:39:11.373839  5017 net.cpp:558] Pooling1 <- conv4_Eltwise_4
I1003 12:39:11.373845  5017 net.cpp:522] Pooling1 -> Pooling1
I1003 12:39:11.374414  5017 net.cpp:172] Setting up Pooling1
I1003 12:39:11.374441  5017 net.cpp:186] Top shape: 32 640 1 1 (20480)
I1003 12:39:11.374445  5017 net.cpp:194] Memory required for data: 1874280576
I1003 12:39:11.374450  5017 layer_factory.hpp:77] Creating layer fc1
I1003 12:39:11.374460  5017 net.cpp:128] Creating Layer fc1
I1003 12:39:11.374465  5017 net.cpp:558] fc1 <- Pooling1
I1003 12:39:11.374475  5017 net.cpp:522] fc1 -> fc1
I1003 12:39:11.376121  5017 net.cpp:172] Setting up fc1
I1003 12:39:11.376145  5017 net.cpp:186] Top shape: 32 10 (320)
I1003 12:39:11.376149  5017 net.cpp:194] Memory required for data: 1874281856
I1003 12:39:11.376160  5017 layer_factory.hpp:77] Creating layer Softmax1
I1003 12:39:11.376168  5017 net.cpp:128] Creating Layer Softmax1
I1003 12:39:11.376173  5017 net.cpp:558] Softmax1 <- fc1
I1003 12:39:11.376178  5017 net.cpp:558] Softmax1 <- label
I1003 12:39:11.376193  5017 net.cpp:522] Softmax1 -> Softmax1
…
I1003 12:39:11.379030  5017 solver.cpp:277] Creating test net (#0) specified by test_net file: ./test_WRN_28.prototxt
I1003 12:39:11.380065  5017 net.cpp:82] Initializing net from parameters: 
name: "WRN-28"
state {
  phase: TEST
}
layer {
  name: "Data1"
  type: "Data"
  top: "data"
  top: "label"
  transform_param {
    scale: 0.00390625
    mirror: false
    mean_value: 125.3
    mean_value: 122.9
    mean_value: 113.8
  }
  data_param {
    source: "/home/lijianfei/datasets/cifar10_40/test_lmdb"
    batch_size: 10
    backend: LMDB
  }
  image_data_param {
    shuffle: false
  }
}
layer {
  name: "conv1"
  type: "Convolution"
  bottom: "data"
  top: "conv1"
  param {
    lr_mult: 1
    decay_mult: 1
  }
  param {
    lr_mult: 2
    decay_mult: 0
  }
  convolution_param {
    num_output: 16
    bias_term: true
    pad: 1
    kernel_size: 3
    stride: 1
    weight_filler {
      type: "msra"
    }
    bias_filler {
      type: "constant"
      value: 0
    }
  }
}
layer {
  name: "conv1/bn"
  type: "BatchNorm"
  bottom: "conv1"
  top: "conv1"
  param {
    lr_mult: 0
    decay_mult: 0
  }
  param {
    lr_mult: 0
    decay_mult: 0
  }
  param {
    lr_mult: 0
    decay_mult: 0
  }
  batch_norm_param {
    use_global_stats: true
  }
}
layer {
  name: "conv1/scale"
  type: "Scale"
  bottom: "conv1"
  top: "conv1"
  scale_param {
    bias_term: true
  }
}
layer {
  name: "conv1/ReLU"
  type: "ReLU"
  bottom: "conv1"
  top: "conv1"
}
layer {
  name: "conv2_1_0"
  type: "Convolution"
  bottom: "conv1"
  top: "conv2_1_0"
  param {
    lr_mult: 1
    decay_mult: 1
  }
  param {
    lr_mult: 2
    decay_mult: 0
  }
  convolution_param {
    num_output: 160
    bias_term: true
    pad: 1
    kernel_size: 3
    stride: 1
    weight_filler {
      type: "msra"
    }
    bias_filler {
      type: "constant"
      value: 0
    }
  }
}
layer {
  name: "conv2_1_bn0"
  type: "BatchNorm"
  bottom: "conv2_1_0"
  top: "conv2_1_0"
  param {
    lr_mult: 0
    decay_mult: 0
  }
  param {
    lr_mult: 0
    decay_mult: 0
  }
  param {
    lr_mult: 0
    decay_mult: 0
  }
  batch_norm_param {
    use_global_stats: true
  }
}
layer {
  name: "conv2_1_scale0"
  type: "Scale"
  bottom: "conv2_1_0"
  top: "conv2_1_0"
  scale_param {
    bias_term: true
  }
}
layer {
  name: "conv2_1_ReLU0"
  type: "ReLU"
  bottom: "conv2_1_0"
  top: "conv2_1_0"
}
layer {
  name: "conv2_Drop1"
  type: "Dropout"
  bottom: "conv2_1_0"
  top: "conv2_1_0"
  dropout_param {
    dropout_ratio: 1
  }
}
layer {
  name: "conv2_1_1"
  type: "Convolution"
  bottom: "conv2_1_0"
  top: "conv2_1_1"
  param {
    lr_mult: 1
    decay_mult: 1
  }
  param {
    lr_mult: 2
    decay_mult: 0
  }
  convolution_param {
    num_output: 160
    bias_term: true
    pad: 1
    kernel_size: 3
    stride: 1
    weight_filler {
      type: "msra"
    }
    bias_filler {
      type: "constant"
      value: 0
    }
  }
}
layer {
  name: "conv2_1bn1"
  type: "BatchNorm"
  bottom: "conv2_1_1"
  top: "conv2_1_1"
  param {
    lr_mult: 0
    decay_mult: 0
  }
  param {
    lr_mult: 0
    decay_mult: 0
  }
  param {
    lr_mult: 0
    decay_mult: 0
  }
  batch_norm_param {
    use_global_stats: true
  }
}
layer {
  name: "conv2_1_scale1"
  type: "Scale"
  bottom: "conv2_1_1"
  top: "conv2_1_1"
  scale_param {
    bias_term: true
  }
}
layer {
  name: "conv2_1_down"
  type: "Convolution"
  bottom: "conv1"
  top: "conv2_1_down"
  param {
    lr_mult: 1
    decay_mult: 1
  }
  param {
    lr_mult: 2
    decay_mult: 0
  }
  convolution_param {
    num_output: 160
    bias_term: true
    pad: 0
    kernel_size: 1
    stride: 1
    weight_filler {
      type: "msra"
    }
    bias_filler {
      type: "constant"
      value: 0
    }
  }
}
layer {
  name: "conv2_1_bn_down"
  type: "BatchNorm"
  bottom: "conv2_1_down"
  top: "conv2_1_down"
  param {
    lr_mult: 0
    decay_mult: 0
  }
  param {
    lr_mult: 0
    decay_mult: 0
  }
  param {
    lr_mult: 0
    decay_mult: 0
  }
  batch_norm_param {
    use_global_stats: true
  }
}
layer {
  name: "conv2_1_scale_down"
  type: "Scale"
  bottom: "conv2_1_down"
  top: "conv2_1_down"
  scale_param {
    bias_term: true
  }
}
layer {
  name: "conv2_Eltwise_1"
  type: "Eltwise"
  bottom: "conv2_1_1"
  bottom: "conv2_1_down"
  top: "conv2_Eltwise_1"
  eltwise_param {
    operation: SUM
  }
}
layer {
  name: "conv2_1ReLU_1"
  type: "ReLU"
  bottom: "conv2_Eltwise_1"
  top: "conv2_Eltwise_1"
}
layer {
  name: "conv2_2_0"
  type: "Convolution"
  bottom: "conv2_Eltwise_1"
  top: "conv2_2_0"
  param {
    lr_mult: 1
    decay_mult: 1
  }
  param {
    lr_mult: 2
    decay_mult: 0
  }
  convolution_param {
    num_output: 160
    bias_term: true
    pad: 1
    kernel_size: 3
    stride: 1
    weight_filler {
      type: "msra"
    }
    bias_filler {
      type: "constant"
      value: 0
    }
  }
}
layer {
  name: "conv2_2_bn0"
  type: "BatchNorm"
  bottom: "conv2_2_0"
  top: "conv2_2_0"
  param {
    lr_mult: 0
    decay_mult: 0
  }
  param {
    lr_mult: 0
    decay_mult: 0
  }
  param {
    lr_mult: 0
    decay_mult: 0
  }
  batch_norm_param {
    use_global_stats: true
  }
}
layer {
  name: "conv2_2_scale0"
  type: "Scale"
  bottom: "conv2_2_0"
  top: "conv2_2_0"
  scale_param {
    bias_term: true
  }
}
layer {
  name: "conv2_2_ReLU0"
  type: "ReLU"
  bottom: "conv2_2_0"
  top: "conv2_2_0"
}
layer {
  name: "conv2_Drop2"
  type: "Dropout"
  bottom: "conv2_2_0"
  top: "conv2_2_0"
  dropout_param {
    dropout_ratio: 1
  }
}
layer {
  name: "conv2_2_1"
  type: "Convolution"
  bottom: "conv2_2_0"
  top: "conv2_2_1"
  param {
    lr_mult: 1
    decay_mult: 1
  }
  param {
    lr_mult: 2
    decay_mult: 0
  }
  convolution_param {
    num_output: 160
    bias_term: true
    pad: 1
    kernel_size: 3
    stride: 1
    weight_filler {
      type: "msra"
    }
    bias_filler {
      type: "constant"
      value: 0
    }
  }
}
layer {
  name: "conv2_2bn1"
  type: "BatchNorm"
  bottom: "conv2_2_1"
  top: "conv2_2_1"
  param {
    lr_mult: 0
    decay_mult: 0
  }
  param {
    lr_mult: 0
    decay_mult: 0
  }
  param {
    lr_mult: 0
    decay_mult: 0
  }
  batch_norm_param {
    use_global_stats: true
  }
}
layer {
  name: "conv2_2_scale1"
  type: "Scale"
  bottom: "conv2_2_1"
  top: "conv2_2_1"
  scale_param {
    bias_term: true
  }
}
layer {
  name: "conv2_Eltwise_2"
  type: "Eltwise"
  bottom: "conv2_Eltwise_1"
  bottom: "conv2_2_1"
  top: "conv2_Eltwise_2"
  eltwise_param {
    operation: SUM
  }
}
layer {
  name: "conv2_2ReLU_1"
  type: "ReLU"
  bottom: "conv2_Eltwise_2"
  top: "conv2_Eltwise_2"
}
layer {
  name: "conv2_3_0"
  type: "Convolution"
  bottom: "conv2_Eltwise_2"
  top: "conv2_3_0"
  param {
    lr_mult: 1
    decay_mult: 1
  }
  param {
    lr_mult: 2
    decay_mult: 0
  }
  convolution_param {
    num_output: 160
    bias_term: true
    pad: 1
    kernel_size: 3
    stride: 1
    weight_filler {
      type: "msra"
    }
    bias_filler {
      type: "constant"
      value: 0
    }
  }
}
layer {
  name: "conv2_3_bn0"
  type: "BatchNorm"
  bottom: "conv2_3_0"
  top: "conv2_3_0"
  param {
    lr_mult: 0
    decay_mult: 0
  }
  param {
    lr_mult: 0
    decay_mult: 0
  }
  param {
    lr_mult: 0
    decay_mult: 0
  }
  batch_norm_param {
    use_global_stats: true
  }
}
layer {
  name: "conv2_3_scale0"
  type: "Scale"
  bottom: "conv2_3_0"
  top: "conv2_3_0"
  scale_param {
    bias_term: true
  }
}
layer {
  name: "conv2_3_ReLU0"
  type: "ReLU"
  bottom: "conv2_3_0"
  top: "conv2_3_0"
}
layer {
  name: "conv2_Drop3"
  type: "Dropout"
  bottom: "conv2_3_0"
  top: "conv2_3_0"
  dropout_param {
    dropout_ratio: 1
  }
}
layer {
  name: "conv2_3_1"
  type: "Convolution"
  bottom: "conv2_3_0"
  top: "conv2_3_1"
  param {
    lr_mult: 1
    decay_mult: 1
  }
  param {
    lr_mult: 2
    decay_mult: 0
  }
  convolution_param {
    num_output: 160
    bias_term: true
    pad: 1
    kernel_size: 3
    stride: 1
    weight_filler {
      type: "msra"
    }
    bias_filler {
      type: "constant"
      value: 0
    }
  }
}
layer {
  name: "conv2_3bn1"
  type: "BatchNorm"
  bottom: "conv2_3_1"
  top: "conv2_3_1"
  param {
    lr_mult: 0
    decay_mult: 0
  }
  param {
    lr_mult: 0
    decay_mult: 0
  }
  param {
    lr_mult: 0
    decay_mult: 0
  }
  batch_norm_param {
    use_global_stats: true
  }
}
layer {
  name: "conv2_3_scale1"
  type: "Scale"
  bottom: "conv2_3_1"
  top: "conv2_3_1"
  scale_param {
    bias_term: true
  }
}
layer {
  name: "conv2_Eltwise_3"
  type: "Eltwise"
  bottom: "conv2_Eltwise_2"
  bottom: "conv2_3_1"
  top: "conv2_Eltwise_3"
  eltwise_param {
    operation: SUM
  }
}
layer {
  name: "conv2_3ReLU_1"
  type: "ReLU"
  bottom: "conv2_Eltwise_3"
  top: "conv2_Eltwise_3"
}
layer {
  name: "conv2_4_0"
  type: "Convolution"
  bottom: "conv2_Eltwise_3"
  top: "conv2_4_0"
  param {
    lr_mult: 1
    decay_mult: 1
  }
  param {
    lr_mult: 2
    decay_mult: 0
  }
  convolution_param {
    num_output: 160
    bias_term: true
    pad: 1
    kernel_size: 3
    stride: 1
    weight_filler {
      type: "msra"
    }
    bias_filler {
      type: "constant"
      value: 0
    }
  }
}
layer {
  name: "conv2_4_bn0"
  type: "BatchNorm"
  bottom: "conv2_4_0"
  top: "conv2_4_0"
  param {
    lr_mult: 0
    decay_mult: 0
  }
  param {
    lr_mult: 0
    decay_mult: 0
  }
  param {
    lr_mult: 0
    decay_mult: 0
  }
  batch_norm_param {
    use_global_stats: true
  }
}
layer {
  name: "conv2_4_scale0"
  type: "Scale"
  bottom: "conv2_4_0"
  top: "conv2_4_0"
  scale_param {
    bias_term: true
  }
}
layer {
  name: "conv2_4_ReLU0"
  type: "ReLU"
  bottom: "conv2_4_0"
  top: "conv2_4_0"
}
layer {
  name: "conv2_Drop4"
  type: "Dropout"
  bottom: "conv2_4_0"
  top: "conv2_4_0"
  dropout_param {
    dropout_ratio: 1
  }
}
layer {
  name: "conv2_4_1"
  type: "Convolution"
  bottom: "conv2_4_0"
  top: "conv2_4_1"
  param {
    lr_mult: 1
    decay_mult: 1
  }
  param {
    lr_mult: 2
    decay_mult: 0
  }
  convolution_param {
    num_output: 160
    bias_term: true
    pad: 1
    kernel_size: 3
    stride: 1
    weight_filler {
      type: "msra"
    }
    bias_filler {
      type: "constant"
      value: 0
    }
  }
}
layer {
  name: "conv2_4bn1"
  type: "BatchNorm"
  bottom: "conv2_4_1"
  top: "conv2_4_1"
  param {
    lr_mult: 0
    decay_mult: 0
  }
  param {
    lr_mult: 0
    decay_mult: 0
  }
  param {
    lr_mult: 0
    decay_mult: 0
  }
  batch_norm_param {
    use_global_stats: true
  }
}
layer {
  name: "conv2_4_scale1"
  type: "Scale"
  bottom: "conv2_4_1"
  top: "conv2_4_1"
  scale_param {
    bias_term: true
  }
}
layer {
  name: "conv2_Eltwise_4"
  type: "Eltwise"
  bottom: "conv2_Eltwise_3"
  bottom: "conv2_4_1"
  top: "conv2_Eltwise_4"
  eltwise_param {
    operation: SUM
  }
}
layer {
  name: "conv2_4ReLU_1"
  type: "ReLU"
  bottom: "conv2_Eltwise_4"
  top: "conv2_Eltwise_4"
}
layer {
  name: "conv3_1_0"
  type: "Convolution"
  bottom: "conv2_Eltwise_4"
  top: "conv3_1_0"
  param {
    lr_mult: 1
    decay_mult: 1
  }
  param {
    lr_mult: 2
    decay_mult: 0
  }
  convolution_param {
    num_output: 320
    bias_term: true
    pad: 1
    kernel_size: 3
    stride: 2
    weight_filler {
      type: "msra"
    }
    bias_filler {
      type: "constant"
      value: 0
    }
  }
}
layer {
  name: "conv3_1_bn0"
  type: "BatchNorm"
  bottom: "conv3_1_0"
  top: "conv3_1_0"
  param {
    lr_mult: 0
    decay_mult: 0
  }
  param {
    lr_mult: 0
    decay_mult: 0
  }
  param {
    lr_mult: 0
    decay_mult: 0
  }
  batch_norm_param {
    use_global_stats: true
  }
}
layer {
  name: "conv3_1_scale0"
  type: "Scale"
  bottom: "conv3_1_0"
  top: "conv3_1_0"
  scale_param {
    bias_term: true
  }
}
layer {
  name: "conv3_1_ReLU0"
  type: "ReLU"
  bottom: "conv3_1_0"
  top: "conv3_1_0"
}
layer {
  name: "conv3_Drop1"
  type: "Dropout"
  bottom: "conv3_1_0"
  top: "conv3_1_0"
  dropout_param {
    dropout_ratio: 1
  }
}
layer {
  name: "conv3_1_1"
  type: "Convolution"
  bottom: "conv3_1_0"
  top: "conv3_1_1"
  param {
    lr_mult: 1
    decay_mult: 1
  }
  param {
    lr_mult: 2
    decay_mult: 0
  }
  convolution_param {
    num_output: 320
    bias_term: true
    pad: 1
    kernel_size: 3
    stride: 1
    weight_filler {
      type: "msra"
    }
    bias_filler {
      type: "constant"
      value: 0
    }
  }
}
layer {
  name: "conv3_1bn1"
  type: "BatchNorm"
  bottom: "conv3_1_1"
  top: "conv3_1_1"
  param {
    lr_mult: 0
    decay_mult: 0
  }
  param {
    lr_mult: 0
    decay_mult: 0
  }
  param {
    lr_mult: 0
    decay_mult: 0
  }
  batch_norm_param {
    use_global_stats: true
  }
}
layer {
  name: "conv3_1_scale1"
  type: "Scale"
  bottom: "conv3_1_1"
  top: "conv3_1_1"
  scale_param {
    bias_term: true
  }
}
layer {
  name: "conv3_1_down"
  type: "Convolution"
  bottom: "conv2_Eltwise_4"
  top: "conv3_1_down"
  param {
    lr_mult: 1
    decay_mult: 1
  }
  param {
    lr_mult: 2
    decay_mult: 0
  }
  convolution_param {
    num_output: 320
    bias_term: true
    pad: 0
    kernel_size: 1
    stride: 2
    weight_filler {
      type: "msra"
    }
    bias_filler {
      type: "constant"
      value: 0
    }
  }
}
layer {
  name: "conv3_1_bn_down"
  type: "BatchNorm"
  bottom: "conv3_1_down"
  top: "conv3_1_down"
  param {
    lr_mult: 0
    decay_mult: 0
  }
  param {
    lr_mult: 0
    decay_mult: 0
  }
  param {
    lr_mult: 0
    decay_mult: 0
  }
  batch_norm_param {
    use_global_stats: true
  }
}
layer {
  name: "conv3_1_scale_down"
  type: "Scale"
  bottom: "conv3_1_down"
  top: "conv3_1_down"
  scale_param {
    bias_term: true
  }
}
layer {
  name: "conv3_Eltwise_1"
  type: "Eltwise"
  bottom: "conv3_1_1"
  bottom: "conv3_1_down"
  top: "conv3_Eltwise_1"
  eltwise_param {
    operation: SUM
  }
}
layer {
  name: "conv3_1ReLU_1"
  type: "ReLU"
  bottom: "conv3_Eltwise_1"
  top: "conv3_Eltwise_1"
}
layer {
  name: "conv3_2_0"
  type: "Convolution"
  bottom: "conv3_Eltwise_1"
  top: "conv3_2_0"
  param {
    lr_mult: 1
    decay_mult: 1
  }
  param {
    lr_mult: 2
    decay_mult: 0
  }
  convolution_param {
    num_output: 320
    bias_term: true
    pad: 1
    kernel_size: 3
    stride: 1
    weight_filler {
      type: "msra"
    }
    bias_filler {
      type: "constant"
      value: 0
    }
  }
}
layer {
  name: "conv3_2_bn0"
  type: "BatchNorm"
  bottom: "conv3_2_0"
  top: "conv3_2_0"
  param {
    lr_mult: 0
    decay_mult: 0
  }
  param {
    lr_mult: 0
    decay_mult: 0
  }
  param {
    lr_mult: 0
    decay_mult: 0
  }
  batch_norm_param {
    use_global_stats: true
  }
}
layer {
  name: "conv3_2_scale0"
  type: "Scale"
  bottom: "conv3_2_0"
  top: "conv3_2_0"
  scale_param {
    bias_term: true
  }
}
layer {
  name: "conv3_2_ReLU0"
  type: "ReLU"
  bottom: "conv3_2_0"
  top: "conv3_2_0"
}
layer {
  name: "conv3_Drop2"
  type: "Dropout"
  bottom: "conv3_2_0"
  top: "conv3_2_0"
  dropout_param {
    dropout_ratio: 1
  }
}
layer {
  name: "conv3_2_1"
  type: "Convolution"
  bottom: "conv3_2_0"
  top: "conv3_2_1"
  param {
    lr_mult: 1
    decay_mult: 1
  }
  param {
    lr_mult: 2
    decay_mult: 0
  }
  convolution_param {
    num_output: 320
    bias_term: true
    pad: 1
    kernel_size: 3
    stride: 1
    weight_filler {
      type: "msra"
    }
    bias_filler {
      type: "constant"
      value: 0
    }
  }
}
layer {
  name: "conv3_2bn1"
  type: "BatchNorm"
  bottom: "conv3_2_1"
  top: "conv3_2_1"
  param {
    lr_mult: 0
    decay_mult: 0
  }
  param {
    lr_mult: 0
    decay_mult: 0
  }
  param {
    lr_mult: 0
    decay_mult: 0
  }
  batch_norm_param {
    use_global_stats: true
  }
}
layer {
  name: "conv3_2_scale1"
  type: "Scale"
  bottom: "conv3_2_1"
  top: "conv3_2_1"
  scale_param {
    bias_term: true
  }
}
layer {
  name: "conv3_Eltwise_2"
  type: "Eltwise"
  bottom: "conv3_Eltwise_1"
  bottom: "conv3_2_1"
  top: "conv3_Eltwise_2"
  eltwise_param {
    operation: SUM
  }
}
layer {
  name: "conv3_2ReLU_1"
  type: "ReLU"
  bottom: "conv3_Eltwise_2"
  top: "conv3_Eltwise_2"
}
layer {
  name: "conv3_3_0"
  type: "Convolution"
  bottom: "conv3_Eltwise_2"
  top: "conv3_3_0"
  param {
    lr_mult: 1
    decay_mult: 1
  }
  param {
    lr_mult: 2
    decay_mult: 0
  }
  convolution_param {
    num_output: 320
    bias_term: true
    pad: 1
    kernel_size: 3
    stride: 1
    weight_filler {
      type: "msra"
    }
    bias_filler {
      type: "constant"
      value: 0
    }
  }
}
layer {
  name: "conv3_3_bn0"
  type: "BatchNorm"
  bottom: "conv3_3_0"
  top: "conv3_3_0"
  param {
    lr_mult: 0
    decay_mult: 0
  }
  param {
    lr_mult: 0
    decay_mult: 0
  }
  param {
    lr_mult: 0
    decay_mult: 0
  }
  batch_norm_param {
    use_global_stats: true
  }
}
layer {
  name: "conv3_3_scale0"
  type: "Scale"
  bottom: "conv3_3_0"
  top: "conv3_3_0"
  scale_param {
    bias_term: true
  }
}
layer {
  name: "conv3_3_ReLU0"
  type: "ReLU"
  bottom: "conv3_3_0"
  top: "conv3_3_0"
}
layer {
  name: "conv3_Drop3"
  type: "Dropout"
  bottom: "conv3_3_0"
  top: "conv3_3_0"
  dropout_param {
    dropout_ratio: 1
  }
}
layer {
  name: "conv3_3_1"
  type: "Convolution"
  bottom: "conv3_3_0"
  top: "conv3_3_1"
  param {
    lr_mult: 1
    decay_mult: 1
  }
  param {
    lr_mult: 2
    decay_mult: 0
  }
  convolution_param {
    num_output: 320
    bias_term: true
    pad: 1
    kernel_size: 3
    stride: 1
    weight_filler {
      type: "msra"
    }
    bias_filler {
      type: "constant"
      value: 0
    }
  }
}
layer {
  name: "conv3_3bn1"
  type: "BatchNorm"
  bottom: "conv3_3_1"
  top: "conv3_3_1"
  param {
    lr_mult: 0
    decay_mult: 0
  }
  param {
    lr_mult: 0
    decay_mult: 0
  }
  param {
    lr_mult: 0
    decay_mult: 0
  }
  batch_norm_param {
    use_global_stats: true
  }
}
layer {
  name: "conv3_3_scale1"
  type: "Scale"
  bottom: "conv3_3_1"
  top: "conv3_3_1"
  scale_param {
    bias_term: true
  }
}
layer {
  name: "conv3_Eltwise_3"
  type: "Eltwise"
  bottom: "conv3_Eltwise_2"
  bottom: "conv3_3_1"
  top: "conv3_Eltwise_3"
  eltwise_param {
    operation: SUM
  }
}
layer {
  name: "conv3_3ReLU_1"
  type: "ReLU"
  bottom: "conv3_Eltwise_3"
  top: "conv3_Eltwise_3"
}
layer {
  name: "conv3_4_0"
  type: "Convolution"
  bottom: "conv3_Eltwise_3"
  top: "conv3_4_0"
  param {
    lr_mult: 1
    decay_mult: 1
  }
  param {
    lr_mult: 2
    decay_mult: 0
  }
  convolution_param {
    num_output: 320
    bias_term: true
    pad: 1
    kernel_size: 3
    stride: 1
    weight_filler {
      type: "msra"
    }
    bias_filler {
      type: "constant"
      value: 0
    }
  }
}
layer {
  name: "conv3_4_bn0"
  type: "BatchNorm"
  bottom: "conv3_4_0"
  top: "conv3_4_0"
  param {
    lr_mult: 0
    decay_mult: 0
  }
  param {
    lr_mult: 0
    decay_mult: 0
  }
  param {
    lr_mult: 0
    decay_mult: 0
  }
  batch_norm_param {
    use_global_stats: true
  }
}
layer {
  name: "conv3_4_scale0"
  type: "Scale"
  bottom: "conv3_4_0"
  top: "conv3_4_0"
  scale_param {
    bias_term: true
  }
}
layer {
  name: "conv3_4_ReLU0"
  type: "ReLU"
  bottom: "conv3_4_0"
  top: "conv3_4_0"
}
layer {
  name: "conv3_Drop4"
  type: "Dropout"
  bottom: "conv3_4_0"
  top: "conv3_4_0"
  dropout_param {
    dropout_ratio: 1
  }
}
layer {
  name: "conv3_4_1"
  type: "Convolution"
  bottom: "conv3_4_0"
  top: "conv3_4_1"
  param {
    lr_mult: 1
    decay_mult: 1
  }
  param {
    lr_mult: 2
    decay_mult: 0
  }
  convolution_param {
    num_output: 320
    bias_term: true
    pad: 1
    kernel_size: 3
    stride: 1
    weight_filler {
      type: "msra"
    }
    bias_filler {
      type: "constant"
      value: 0
    }
  }
}
layer {
  name: "conv3_4bn1"
  type: "BatchNorm"
  bottom: "conv3_4_1"
  top: "conv3_4_1"
  param {
    lr_mult: 0
    decay_mult: 0
  }
  param {
    lr_mult: 0
    decay_mult: 0
  }
  param {
    lr_mult: 0
    decay_mult: 0
  }
  batch_norm_param {
    use_global_stats: true
  }
}
layer {
  name: "conv3_4_scale1"
  type: "Scale"
  bottom: "conv3_4_1"
  top: "conv3_4_1"
  scale_param {
    bias_term: true
  }
}
layer {
  name: "conv3_Eltwise_4"
  type: "Eltwise"
  bottom: "conv3_Eltwise_3"
  bottom: "conv3_4_1"
  top: "conv3_Eltwise_4"
  eltwise_param {
    operation: SUM
  }
}
layer {
  name: "conv3_4ReLU_1"
  type: "ReLU"
  bottom: "conv3_Eltwise_4"
  top: "conv3_Eltwise_4"
}
layer {
  name: "conv4_1_0"
  type: "Convolution"
  bottom: "conv3_Eltwise_4"
  top: "conv4_1_0"
  param {
    lr_mult: 1
    decay_mult: 1
  }
  param {
    lr_mult: 2
    decay_mult: 0
  }
  convolution_param {
    num_output: 640
    bias_term: true
    pad: 1
    kernel_size: 3
    stride: 2
    weight_filler {
      type: "msra"
    }
    bias_filler {
      type: "constant"
      value: 0
    }
  }
}
layer {
  name: "conv4_1_bn0"
  type: "BatchNorm"
  bottom: "conv4_1_0"
  top: "conv4_1_0"
  param {
    lr_mult: 0
    decay_mult: 0
  }
  param {
    lr_mult: 0
    decay_mult: 0
  }
  param {
    lr_mult: 0
    decay_mult: 0
  }
  batch_norm_param {
    use_global_stats: true
  }
}
layer {
  name: "conv4_1_scale0"
  type: "Scale"
  bottom: "conv4_1_0"
  top: "conv4_1_0"
  scale_param {
    bias_term: true
  }
}
layer {
  name: "conv4_1_ReLU0"
  type: "ReLU"
  bottom: "conv4_1_0"
  top: "conv4_1_0"
}
layer {
  name: "conv4_Drop1"
  type: "Dropout"
  bottom: "conv4_1_0"
  top: "conv4_1_0"
  dropout_param {
    dropout_ratio: 1
  }
}
layer {
  name: "conv4_1_1"
  type: "Convolution"
  bottom: "conv4_1_0"
  top: "conv4_1_1"
  param {
    lr_mult: 1
    decay_mult: 1
  }
  param {
    lr_mult: 2
    decay_mult: 0
  }
  convolution_param {
    num_output: 640
    bias_term: true
    pad: 1
    kernel_size: 3
    stride: 1
    weight_filler {
      type: "msra"
    }
    bias_filler {
      type: "constant"
      value: 0
    }
  }
}
layer {
  name: "conv4_1bn1"
  type: "BatchNorm"
  bottom: "conv4_1_1"
  top: "conv4_1_1"
  param {
    lr_mult: 0
    decay_mult: 0
  }
  param {
    lr_mult: 0
    decay_mult: 0
  }
  param {
    lr_mult: 0
    decay_mult: 0
  }
  batch_norm_param {
    use_global_stats: true
  }
}
layer {
  name: "conv4_1_scale1"
  type: "Scale"
  bottom: "conv4_1_1"
  top: "conv4_1_1"
  scale_param {
    bias_term: true
  }
}
layer {
  name: "conv4_1_down"
  type: "Convolution"
  bottom: "conv3_Eltwise_4"
  top: "conv4_1_down"
  param {
    lr_mult: 1
    decay_mult: 1
  }
  param {
    lr_mult: 2
    decay_mult: 0
  }
  convolution_param {
    num_output: 640
    bias_term: true
    pad: 0
    kernel_size: 1
    stride: 2
    weight_filler {
      type: "msra"
    }
    bias_filler {
      type: "constant"
      value: 0
    }
  }
}
layer {
  name: "conv4_1_bn_down"
  type: "BatchNorm"
  bottom: "conv4_1_down"
  top: "conv4_1_down"
  param {
    lr_mult: 0
    decay_mult: 0
  }
  param {
    lr_mult: 0
    decay_mult: 0
  }
  param {
    lr_mult: 0
    decay_mult: 0
  }
  batch_norm_param {
    use_global_stats: true
  }
}
layer {
  name: "conv4_1_scale_down"
  type: "Scale"
  bottom: "conv4_1_down"
  top: "conv4_1_down"
  scale_param {
    bias_term: true
  }
}
layer {
  name: "conv4_Eltwise_1"
  type: "Eltwise"
  bottom: "conv4_1_1"
  bottom: "conv4_1_down"
  top: "conv4_Eltwise_1"
  eltwise_param {
    operation: SUM
  }
}
layer {
  name: "conv4_1ReLU_1"
  type: "ReLU"
  bottom: "conv4_Eltwise_1"
  top: "conv4_Eltwise_1"
}
layer {
  name: "conv4_2_0"
  type: "Convolution"
  bottom: "conv4_Eltwise_1"
  top: "conv4_2_0"
  param {
    lr_mult: 1
    decay_mult: 1
  }
  param {
    lr_mult: 2
    decay_mult: 0
  }
  convolution_param {
    num_output: 640
    bias_term: true
    pad: 1
    kernel_size: 3
    stride: 1
    weight_filler {
      type: "msra"
    }
    bias_filler {
      type: "constant"
      value: 0
    }
  }
}
layer {
  name: "conv4_2_bn0"
  type: "BatchNorm"
  bottom: "conv4_2_0"
  top: "conv4_2_0"
  param {
    lr_mult: 0
    decay_mult: 0
  }
  param {
    lr_mult: 0
    decay_mult: 0
  }
  param {
    lr_mult: 0
    decay_mult: 0
  }
  batch_norm_param {
    use_global_stats: true
  }
}
layer {
  name: "conv4_2_scale0"
  type: "Scale"
  bottom: "conv4_2_0"
  top: "conv4_2_0"
  scale_param {
    bias_term: true
  }
}
layer {
  name: "conv4_2_ReLU0"
  type: "ReLU"
  bottom: "conv4_2_0"
  top: "conv4_2_0"
}
layer {
  name: "conv4_Drop2"
  type: "Dropout"
  bottom: "conv4_2_0"
  top: "conv4_2_0"
  dropout_param {
    dropout_ratio: 1
  }
}
layer {
  name: "conv4_2_1"
  type: "Convolution"
  bottom: "conv4_2_0"
  top: "conv4_2_1"
  param {
    lr_mult: 1
    decay_mult: 1
  }
  param {
    lr_mult: 2
    decay_mult: 0
  }
  convolution_param {
    num_output: 640
    bias_term: true
    pad: 1
    kernel_size: 3
    stride: 1
    weight_filler {
      type: "msra"
    }
    bias_filler {
      type: "constant"
      value: 0
    }
  }
}
layer {
  name: "conv4_2bn1"
  type: "BatchNorm"
  bottom: "conv4_2_1"
  top: "conv4_2_1"
  param {
    lr_mult: 0
    decay_mult: 0
  }
  param {
    lr_mult: 0
    decay_mult: 0
  }
  param {
    lr_mult: 0
    decay_mult: 0
  }
  batch_norm_param {
    use_global_stats: true
  }
}
layer {
  name: "conv4_2_scale1"
  type: "Scale"
  bottom: "conv4_2_1"
  top: "conv4_2_1"
  scale_param {
    bias_term: true
  }
}
layer {
  name: "conv4_Eltwise_2"
  type: "Eltwise"
  bottom: "conv4_Eltwise_1"
  bottom: "conv4_2_1"
  top: "conv4_Eltwise_2"
  eltwise_param {
    operation: SUM
  }
}
layer {
  name: "conv4_2ReLU_1"
  type: "ReLU"
  bottom: "conv4_Eltwise_2"
  top: "conv4_Eltwise_2"
}
layer {
  name: "conv4_3_0"
  type: "Convolution"
  bottom: "conv4_Eltwise_2"
  top: "conv4_3_0"
  param {
    lr_mult: 1
    decay_mult: 1
  }
  param {
    lr_mult: 2
    decay_mult: 0
  }
  convolution_param {
    num_output: 640
    bias_term: true
    pad: 1
    kernel_size: 3
    stride: 1
    weight_filler {
      type: "msra"
    }
    bias_filler {
      type: "constant"
      value: 0
    }
  }
}
layer {
  name: "conv4_3_bn0"
  type: "BatchNorm"
  bottom: "conv4_3_0"
  top: "conv4_3_0"
  param {
    lr_mult: 0
    decay_mult: 0
  }
  param {
    lr_mult: 0
    decay_mult: 0
  }
  param {
    lr_mult: 0
    decay_mult: 0
  }
  batch_norm_param {
    use_global_stats: true
  }
}
layer {
  name: "conv4_3_scale0"
  type: "Scale"
  bottom: "conv4_3_0"
  top: "conv4_3_0"
  scale_param {
    bias_term: true
  }
}
layer {
  name: "conv4_3_ReLU0"
  type: "ReLU"
  bottom: "conv4_3_0"
  top: "conv4_3_0"
}
layer {
  name: "conv4_Drop3"
  type: "Dropout"
  bottom: "conv4_3_0"
  top: "conv4_3_0"
  dropout_param {
    dropout_ratio: 1
  }
}
layer {
  name: "conv4_3_1"
  type: "Convolution"
  bottom: "conv4_3_0"
  top: "conv4_3_1"
  param {
    lr_mult: 1
    decay_mult: 1
  }
  param {
    lr_mult: 2
    decay_mult: 0
  }
  convolution_param {
    num_output: 640
    bias_term: true
    pad: 1
    kernel_size: 3
    stride: 1
    weight_filler {
      type: "msra"
    }
    bias_filler {
      type: "constant"
      value: 0
    }
  }
}
layer {
  name: "conv4_3bn1"
  type: "BatchNorm"
  bottom: "conv4_3_1"
  top: "conv4_3_1"
  param {
    lr_mult: 0
    decay_mult: 0
  }
  param {
    lr_mult: 0
    decay_mult: 0
  }
  param {
    lr_mult: 0
    decay_mult: 0
  }
  batch_norm_param {
    use_global_stats: true
  }
}
layer {
  name: "conv4_3_scale1"
  type: "Scale"
  bottom: "conv4_3_1"
  top: "conv4_3_1"
  scale_param {
    bias_term: true
  }
}
layer {
  name: "conv4_Eltwise_3"
  type: "Eltwise"
  bottom: "conv4_Eltwise_2"
  bottom: "conv4_3_1"
  top: "conv4_Eltwise_3"
  eltwise_param {
    operation: SUM
  }
}
layer {
  name: "conv4_3ReLU_1"
  type: "ReLU"
  bottom: "conv4_Eltwise_3"
  top: "conv4_Eltwise_3"
}
layer {
  name: "conv4_4_0"
  type: "Convolution"
  bottom: "conv4_Eltwise_3"
  top: "conv4_4_0"
  param {
    lr_mult: 1
    decay_mult: 1
  }
  param {
    lr_mult: 2
    decay_mult: 0
  }
  convolution_param {
    num_output: 640
    bias_term: true
    pad: 1
    kernel_size: 3
    stride: 1
    weight_filler {
      type: "msra"
    }
    bias_filler {
      type: "constant"
      value: 0
    }
  }
}
layer {
  name: "conv4_4_bn0"
  type: "BatchNorm"
  bottom: "conv4_4_0"
  top: "conv4_4_0"
  param {
    lr_mult: 0
    decay_mult: 0
  }
  param {
    lr_mult: 0
    decay_mult: 0
  }
  param {
    lr_mult: 0
    decay_mult: 0
  }
  batch_norm_param {
    use_global_stats: true
  }
}
layer {
  name: "conv4_4_scale0"
  type: "Scale"
  bottom: "conv4_4_0"
  top: "conv4_4_0"
  scale_param {
    bias_term: true
  }
}
layer {
  name: "conv4_4_ReLU0"
  type: "ReLU"
  bottom: "conv4_4_0"
  top: "conv4_4_0"
}
layer {
  name: "conv4_Drop4"
  type: "Dropout"
  bottom: "conv4_4_0"
  top: "conv4_4_0"
  dropout_param {
    dropout_ratio: 1
  }
}
layer {
  name: "conv4_4_1"
  type: "Convolution"
  bottom: "conv4_4_0"
  top: "conv4_4_1"
  param {
    lr_mult: 1
    decay_mult: 1
  }
  param {
    lr_mult: 2
    decay_mult: 0
  }
  convolution_param {
    num_output: 640
    bias_term: true
    pad: 1
    kernel_size: 3
    stride: 1
    weight_filler {
      type: "msra"
    }
    bias_filler {
      type: "constant"
      value: 0
    }
  }
}
layer {
  name: "conv4_4bn1"
  type: "BatchNorm"
  bottom: "conv4_4_1"
  top: "conv4_4_1"
  param {
    lr_mult: 0
    decay_mult: 0
  }
  param {
    lr_mult: 0
    decay_mult: 0
  }
  param {
    lr_mult: 0
    decay_mult: 0
  }
  batch_norm_param {
    use_global_stats: true
  }
}
layer {
  name: "conv4_4_scale1"
  type: "Scale"
  bottom: "conv4_4_1"
  top: "conv4_4_1"
  scale_param {
    bias_term: true
  }
}
layer {
  name: "conv4_Eltwise_4"
  type: "Eltwise"
  bottom: "conv4_Eltwise_3"
  bottom: "conv4_4_1"
  top: "conv4_Eltwise_4"
  eltwise_param {
    operation: SUM
  }
}
layer {
  name: "conv4_4ReLU_1"
  type: "ReLU"
  bottom: "conv4_Eltwise_4"
  top: "conv4_Eltwise_4"
}
layer {
  name: "Pooling1"
  type: "Pooling"
  bottom: "conv4_Eltwise_4"
  top: "Pooling1"
  pooling_param {
    pool: AVE
    global_pooling: true
  }
}
layer {
  name: "fc1"
  type: "InnerProduct"
  bottom: "Pooling1"
  top: "fc1"
  param {
    lr_mult: 1
    decay_mult: 1
  }
  param {
    lr_mult: 2
    decay_mult: 1
  }
  inner_product_param {
    num_output: 10
    weight_fille
I1003 12:39:11.380570  5017 layer_factory.hpp:77] Creating layer Data1
I1003 12:39:11.380650  5017 db_lmdb.cpp:35] Opened lmdb /home/lijianfei/datasets/cifar10_40/test_lmdb
I1003 12:39:11.380666  5017 net.cpp:128] Creating Layer Data1
I1003 12:39:11.380673  5017 net.cpp:522] Data1 -> data
I1003 12:39:11.380683  5017 net.cpp:522] Data1 -> label
I1003 12:39:11.380853  5017 data_layer.cpp:45] output data size: 10,3,32,32
I1003 12:39:11.381867  5017 net.cpp:172] Setting up Data1
I1003 12:39:11.381884  5017 net.cpp:186] Top shape: 10 3 32 32 (30720)
I1003 12:39:11.381891  5017 net.cpp:186] Top shape: 10 (10)
I1003 12:39:11.381894  5017 net.cpp:194] Memory required for data: 122920
I1003 12:39:11.381908  5017 layer_factory.hpp:77] Creating layer label_Data1_1_split
I1003 12:39:11.381920  5017 net.cpp:128] Creating Layer label_Data1_1_split
I1003 12:39:11.381925  5017 net.cpp:558] label_Data1_1_split <- label
I1003 12:39:11.381964  5017 net.cpp:522] label_Data1_1_split -> label_Data1_1_split_0
I1003 12:39:11.381974  5017 net.cpp:522] label_Data1_1_split -> label_Data1_1_split_1
I1003 12:39:11.382041  5017 net.cpp:172] Setting up label_Data1_1_split
I1003 12:39:11.382050  5017 net.cpp:186] Top shape: 10 (10)
I1003 12:39:11.382055  5017 net.cpp:186] Top shape: 10 (10)
I1003 12:39:11.382057  5017 net.cpp:194] Memory required for data: 123000
I1003 12:39:11.382061  5017 layer_factory.hpp:77] Creating layer conv1
I1003 12:39:11.382074  5017 net.cpp:128] Creating Layer conv1
I1003 12:39:11.382079  5017 net.cpp:558] conv1 <- data
I1003 12:39:11.382087  5017 net.cpp:522] conv1 -> conv1
I1003 12:39:11.384318  5017 net.cpp:172] Setting up conv1
I1003 12:39:11.384336  5017 net.cpp:186] Top shape: 10 16 32 32 (163840)
I1003 12:39:11.384356  5017 net.cpp:194] Memory required for data: 778360
I1003 12:39:11.384371  5017 layer_factory.hpp:77] Creating layer conv1/bn
I1003 12:39:11.384382  5017 net.cpp:128] Creating Layer conv1/bn
I1003 12:39:11.384387  5017 net.cpp:558] conv1/bn <- conv1
I1003 12:39:11.384394  5017 net.cpp:509] conv1/bn -> conv1 (in-place)
I1003 12:39:11.384809  5017 net.cpp:172] Setting up conv1/bn
I1003 12:39:11.384819  5017 net.cpp:186] Top shape: 10 16 32 32 (163840)
I1003 12:39:11.384851  5017 net.cpp:194] Memory required for data: 1433720
I1003 12:39:11.384866  5017 layer_factory.hpp:77] Creating layer conv1/scale
I1003 12:39:11.384876  5017 net.cpp:128] Creating Layer conv1/scale
I1003 12:39:11.384879  5017 net.cpp:558] conv1/scale <- conv1
I1003 12:39:11.384886  5017 net.cpp:509] conv1/scale -> conv1 (in-place)
I1003 12:39:11.384954  5017 layer_factory.hpp:77] Creating layer conv1/scale
I1003 12:39:11.385216  5017 net.cpp:172] Setting up conv1/scale
I1003 12:39:11.385226  5017 net.cpp:186] Top shape: 10 16 32 32 (163840)
I1003 12:39:11.385229  5017 net.cpp:194] Memory required for data: 2089080
I1003 12:39:11.385237  5017 layer_factory.hpp:77] Creating layer conv1/ReLU
I1003 12:39:11.385350  5017 net.cpp:128] Creating Layer conv1/ReLU
I1003 12:39:11.385355  5017 net.cpp:558] conv1/ReLU <- conv1
I1003 12:39:11.385361  5017 net.cpp:509] conv1/ReLU -> conv1 (in-place)
I1003 12:39:11.385632  5017 net.cpp:172] Setting up conv1/ReLU
I1003 12:39:11.385643  5017 net.cpp:186] Top shape: 10 16 32 32 (163840)
I1003 12:39:11.385646  5017 net.cpp:194] Memory required for data: 2744440
I1003 12:39:11.385651  5017 layer_factory.hpp:77] Creating layer conv1_conv1/ReLU_0_split
I1003 12:39:11.385659  5017 net.cpp:128] Creating Layer conv1_conv1/ReLU_0_split
I1003 12:39:11.385664  5017 net.cpp:558] conv1_conv1/ReLU_0_split <- conv1
I1003 12:39:11.385673  5017 net.cpp:522] conv1_conv1/ReLU_0_split -> conv1_conv1/ReLU_0_split_0
I1003 12:39:11.385680  5017 net.cpp:522] conv1_conv1/ReLU_0_split -> conv1_conv1/ReLU_0_split_1
I1003 12:39:11.385740  5017 net.cpp:172] Setting up conv1_conv1/ReLU_0_split
I1003 12:39:11.385748  5017 net.cpp:186] Top shape: 10 16 32 32 (163840)
I1003 12:39:11.385754  5017 net.cpp:186] Top shape: 10 16 32 32 (163840)
I1003 12:39:11.385757  5017 net.cpp:194] Memory required for data: 4055160
I1003 12:39:11.385776  5017 layer_factory.hpp:77] Creating layer conv2_1_0
I1003 12:39:11.385797  5017 net.cpp:128] Creating Layer conv2_1_0
I1003 12:39:11.385802  5017 net.cpp:558] conv2_1_0 <- conv1_conv1/ReLU_0_split_0
I1003 12:39:11.385808  5017 net.cpp:522] conv2_1_0 -> conv2_1_0
I1003 12:39:11.387883  5017 net.cpp:172] Setting up conv2_1_0
I1003 12:39:11.387903  5017 net.cpp:186] Top shape: 10 160 32 32 (1638400)
I1003 12:39:11.387912  5017 net.cpp:194] Memory required for data: 10608760
I1003 12:39:11.387925  5017 layer_factory.hpp:77] Creating layer conv2_1_bn0
I1003 12:39:11.387939  5017 net.cpp:128] Creating Layer conv2_1_bn0
I1003 12:39:11.387946  5017 net.cpp:558] conv2_1_bn0 <- conv2_1_0
I1003 12:39:11.387961  5017 net.cpp:509] conv2_1_bn0 -> conv2_1_0 (in-place)
I1003 12:39:11.388276  5017 net.cpp:172] Setting up conv2_1_bn0
I1003 12:39:11.388286  5017 net.cpp:186] Top shape: 10 160 32 32 (1638400)
I1003 12:39:11.388290  5017 net.cpp:194] Memory required for data: 17162360
I1003 12:39:11.388300  5017 layer_factory.hpp:77] Creating layer conv2_1_scale0
I1003 12:39:11.388308  5017 net.cpp:128] Creating Layer conv2_1_scale0
I1003 12:39:11.388311  5017 net.cpp:558] conv2_1_scale0 <- conv2_1_0
I1003 12:39:11.388319  5017 net.cpp:509] conv2_1_scale0 -> conv2_1_0 (in-place)
I1003 12:39:11.388370  5017 layer_factory.hpp:77] Creating layer conv2_1_scale0
I1003 12:39:11.388535  5017 net.cpp:172] Setting up conv2_1_scale0
I1003 12:39:11.388545  5017 net.cpp:186] Top shape: 10 160 32 32 (1638400)
I1003 12:39:11.388550  5017 net.cpp:194] Memory required for data: 23715960
I1003 12:39:11.388557  5017 layer_factory.hpp:77] Creating layer conv2_1_ReLU0
I1003 12:39:11.388563  5017 net.cpp:128] Creating Layer conv2_1_ReLU0
I1003 12:39:11.388584  5017 net.cpp:558] conv2_1_ReLU0 <- conv2_1_0
I1003 12:39:11.388590  5017 net.cpp:509] conv2_1_ReLU0 -> conv2_1_0 (in-place)
I1003 12:39:11.388841  5017 net.cpp:172] Setting up conv2_1_ReLU0
I1003 12:39:11.388857  5017 net.cpp:186] Top shape: 10 160 32 32 (1638400)
I1003 12:39:11.388864  5017 net.cpp:194] Memory required for data: 30269560
I1003 12:39:11.388869  5017 layer_factory.hpp:77] Creating layer conv2_Drop1
I1003 12:39:11.388875  5017 net.cpp:128] Creating Layer conv2_Drop1
I1003 12:39:11.388880  5017 net.cpp:558] conv2_Drop1 <- conv2_1_0
…
I1003 12:39:11.471264  5017 net.cpp:509] conv3_1_scale1 -> conv3_1_1 (in-place)
I1003 12:39:11.471352  5017 layer_factory.hpp:77] Creating layer conv3_1_scale1
I1003 12:39:11.471539  5017 net.cpp:172] Setting up conv3_1_scale1
I1003 12:39:11.471547  5017 net.cpp:186] Top shape: 10 320 16 16 (819200)
I1003 12:39:11.471551  5017 net.cpp:194] Memory required for data: 364503160
I1003 12:39:11.471560  5017 layer_factory.hpp:77] Creating layer conv3_1_down
I1003 12:39:11.471576  5017 net.cpp:128] Creating Layer conv3_1_down
I1003 12:39:11.471582  5017 net.cpp:558] conv3_1_down <- conv2_Eltwise_4_conv2_4ReLU_1_0_split_1
I1003 12:39:11.471592  5017 net.cpp:522] conv3_1_down -> conv3_1_down
I1003 12:39:11.473832  5017 net.cpp:172] Setting up conv3_1_down
I1003 12:39:11.473858  5017 net.cpp:186] Top shape: 10 320 16 16 (819200)
I1003 12:39:11.473862  5017 net.cpp:194] Memory required for data: 367779960
I1003 12:39:11.473872  5017 layer_factory.hpp:77] Creating layer conv3_1_bn_down
I1003 12:39:11.473883  5017 net.cpp:128] Creating Layer conv3_1_bn_down
I1003 12:39:11.473888  5017 net.cpp:558] conv3_1_bn_down <- conv3_1_down
I1003 12:39:11.473896  5017 net.cpp:509] conv3_1_bn_down -> conv3_1_down (in-place)
I1003 12:39:11.474244  5017 net.cpp:172] Setting up conv3_1_bn_down
I1003 12:39:11.474257  5017 net.cpp:186] Top shape: 10 320 16 16 (819200)
I1003 12:39:11.474262  5017 net.cpp:194] Memory required for data: 371056760
I1003 12:39:11.474273  5017 layer_factory.hpp:77] Creating layer conv3_1_scale_down
I1003 12:39:11.474287  5017 net.cpp:128] Creating Layer conv3_1_scale_down
I1003 12:39:11.474292  5017 net.cpp:558] conv3_1_scale_down <- conv3_1_down
I1003 12:39:11.474298  5017 net.cpp:509] conv3_1_scale_down -> conv3_1_down (in-place)
I1003 12:39:11.474359  5017 layer_factory.hpp:77] Creating layer conv3_1_scale_down
I1003 12:39:11.474542  5017 net.cpp:172] Setting up conv3_1_scale_down
I1003 12:39:11.474550  5017 net.cpp:186] Top shape: 10 320 16 16 (819200)
I1003 12:39:11.474555  5017 net.cpp:194] Memory required for data: 374333560
I1003 12:39:11.474562  5017 layer_factory.hpp:77] Creating layer conv3_Eltwise_1
I1003 12:39:11.474573  5017 net.cpp:128] Creating Layer conv3_Eltwise_1
I1003 12:39:11.474577  5017 net.cpp:558] conv3_Eltwise_1 <- conv3_1_1
I1003 12:39:11.474582  5017 net.cpp:558] conv3_Eltwise_1 <- conv3_1_down
I1003 12:39:11.474588  5017 net.cpp:522] conv3_Eltwise_1 -> conv3_Eltwise_1
I1003 12:39:11.474618  5017 net.cpp:172] Setting up conv3_Eltwise_1
I1003 12:39:11.474625  5017 net.cpp:186] Top shape: 10 320 16 16 (819200)
I1003 12:39:11.474629  5017 net.cpp:194] Memory required for data: 377610360
I1003 12:39:11.474633  5017 layer_factory.hpp:77] Creating layer conv3_1ReLU_1
I1003 12:39:11.474640  5017 net.cpp:128] Creating Layer conv3_1ReLU_1
I1003 12:39:11.474644  5017 net.cpp:558] conv3_1ReLU_1 <- conv3_Eltwise_1
I1003 12:39:11.474649  5017 net.cpp:509] conv3_1ReLU_1 -> conv3_Eltwise_1 (in-place)
I1003 12:39:11.474911  5017 net.cpp:172] Setting up conv3_1ReLU_1
I1003 12:39:11.474927  5017 net.cpp:186] Top shape: 10 320 16 16 (819200)
I1003 12:39:11.474932  5017 net.cpp:194] Memory required for data: 380887160
I1003 12:39:11.474936  5017 layer_factory.hpp:77] Creating layer conv3_Eltwise_1_conv3_1ReLU_1_0_split
I1003 12:39:11.474943  5017 net.cpp:128] Creating Layer conv3_Eltwise_1_conv3_1ReLU_1_0_split
I1003 12:39:11.474948  5017 net.cpp:558] conv3_Eltwise_1_conv3_1ReLU_1_0_split <- conv3_Eltwise_1
I1003 12:39:11.474957  5017 net.cpp:522] conv3_Eltwise_1_conv3_1ReLU_1_0_split -> conv3_Eltwise_1_conv3_1ReLU_1_0_split_0
I1003 12:39:11.474969  5017 net.cpp:522] conv3_Eltwise_1_conv3_1ReLU_1_0_split -> conv3_Eltwise_1_conv3_1ReLU_1_0_split_1
I1003 12:39:11.475033  5017 net.cpp:172] Setting up conv3_Eltwise_1_conv3_1ReLU_1_0_split
I1003 12:39:11.475040  5017 net.cpp:186] Top shape: 10 320 16 16 (819200)
I1003 12:39:11.475046  5017 net.cpp:186] Top shape: 10 320 16 16 (819200)
I1003 12:39:11.475050  5017 net.cpp:194] Memory required for data: 387440760
I1003 12:39:11.475054  5017 layer_factory.hpp:77] Creating layer conv3_2_0
I1003 12:39:11.475071  5017 net.cpp:128] Creating Layer conv3_2_0
I1003 12:39:11.475091  5017 net.cpp:558] conv3_2_0 <- conv3_Eltwise_1_conv3_1ReLU_1_0_split_0
I1003 12:39:11.475100  5017 net.cpp:522] conv3_2_0 -> conv3_2_0
I1003 12:39:11.493329  5017 net.cpp:172] Setting up conv3_2_0
I1003 12:39:11.493366  5017 net.cpp:186] Top shape: 10 320 16 16 (819200)
I1003 12:39:11.493371  5017 net.cpp:194] Memory required for data: 390717560
I1003 12:39:11.493383  5017 layer_factory.hpp:77] Creating layer conv3_2_bn0
I1003 12:39:11.493396  5017 net.cpp:128] Creating Layer conv3_2_bn0
I1003 12:39:11.493402  5017 net.cpp:558] conv3_2_bn0 <- conv3_2_0
I1003 12:39:11.493413  5017 net.cpp:509] conv3_2_bn0 -> conv3_2_0 (in-place)
I1003 12:39:11.493757  5017 net.cpp:172] Setting up conv3_2_bn0
I1003 12:39:11.493770  5017 net.cpp:186] Top shape: 10 320 16 16 (819200)
I1003 12:39:11.493774  5017 net.cpp:194] Memory required for data: 393994360
I1003 12:39:11.493785  5017 layer_factory.hpp:77] Creating layer conv3_2_scale0
I1003 12:39:11.493795  5017 net.cpp:128] Creating Layer conv3_2_scale0
I1003 12:39:11.493799  5017 net.cpp:558] conv3_2_scale0 <- conv3_2_0
I1003 12:39:11.493805  5017 net.cpp:509] conv3_2_scale0 -> conv3_2_0 (in-place)
I1003 12:39:11.493868  5017 layer_factory.hpp:77] Creating layer conv3_2_scale0
I1003 12:39:11.494078  5017 net.cpp:172] Setting up conv3_2_scale0
I1003 12:39:11.494088  5017 net.cpp:186] Top shape: 10 320 16 16 (819200)
I1003 12:39:11.494092  5017 net.cpp:194] Memory required for data: 397271160
I1003 12:39:11.494101  5017 layer_factory.hpp:77] Creating layer conv3_2_ReLU0
I1003 12:39:11.494107  5017 net.cpp:128] Creating Layer conv3_2_ReLU0
I1003 12:39:11.494112  5017 net.cpp:558] conv3_2_ReLU0 <- conv3_2_0
I1003 12:39:11.494119  5017 net.cpp:509] conv3_2_ReLU0 -> conv3_2_0 (in-place)
I1003 12:39:11.494382  5017 net.cpp:172] Setting up conv3_2_ReLU0
I1003 12:39:11.494393  5017 net.cpp:186] Top shape: 10 320 16 16 (819200)
I1003 12:39:11.494397  5017 net.cpp:194] Memory required for data: 400547960
I1003 12:39:11.494401  5017 layer_factory.hpp:77] Creating layer conv3_Drop2
I1003 12:39:11.494410  5017 net.cpp:128] Creating Layer conv3_Drop2
I1003 12:39:11.494413  5017 net.cpp:558] conv3_Drop2 <- conv3_2_0
I1003 12:39:11.494421  5017 net.cpp:509] conv3_Drop2 -> conv3_2_0 (in-place)
I1003 12:39:11.494453  5017 net.cpp:172] Setting up conv3_Drop2
I1003 12:39:11.494460  5017 net.cpp:186] Top shape: 10 320 16 16 (819200)
I1003 12:39:11.494464  5017 net.cpp:194] Memory required for data: 403824760
I1003 12:39:11.494468  5017 layer_factory.hpp:77] Creating layer conv3_2_1
I1003 12:39:11.494480  5017 net.cpp:128] Creating Layer conv3_2_1
I1003 12:39:11.494485  5017 net.cpp:558] conv3_2_1 <- conv3_2_0
I1003 12:39:11.494495  5017 net.cpp:522] conv3_2_1 -> conv3_2_1
I1003 12:39:11.512688  5017 net.cpp:172] Setting up conv3_2_1
I1003 12:39:11.512727  5017 net.cpp:186] Top shape: 10 320 16 16 (819200)
I1003 12:39:11.512732  5017 net.cpp:194] Memory required for data: 407101560
I1003 12:39:11.512747  5017 layer_factory.hpp:77] Creating layer conv3_2bn1
I1003 12:39:11.512758  5017 net.cpp:128] Creating Layer conv3_2bn1
I1003 12:39:11.512763  5017 net.cpp:558] conv3_2bn1 <- conv3_2_1
I1003 12:39:11.512776  5017 net.cpp:509] conv3_2bn1 -> conv3_2_1 (in-place)
I1003 12:39:11.513121  5017 net.cpp:172] Setting up conv3_2bn1
I1003 12:39:11.513137  5017 net.cpp:186] Top shape: 10 320 16 16 (819200)
I1003 12:39:11.513142  5017 net.cpp:194] Memory required for data: 410378360
I1003 12:39:11.513152  5017 layer_factory.hpp:77] Creating layer conv3_2_scale1
I1003 12:39:11.513162  5017 net.cpp:128] Creating Layer conv3_2_scale1
I1003 12:39:11.513167  5017 net.cpp:558] conv3_2_scale1 <- conv3_2_1
I1003 12:39:11.513172  5017 net.cpp:509] conv3_2_scale1 -> conv3_2_1 (in-place)
I1003 12:39:11.513236  5017 layer_factory.hpp:77] Creating layer conv3_2_scale1
I1003 12:39:11.513422  5017 net.cpp:172] Setting up conv3_2_scale1
I1003 12:39:11.513433  5017 net.cpp:186] Top shape: 10 320 16 16 (819200)
I1003 12:39:11.513438  5017 net.cpp:194] Memory required for data: 413655160
I1003 12:39:11.513445  5017 layer_factory.hpp:77] Creating layer conv3_Eltwise_2
I1003 12:39:11.513490  5017 net.cpp:128] Creating Layer conv3_Eltwise_2
I1003 12:39:11.513497  5017 net.cpp:558] conv3_Eltwise_2 <- conv3_Eltwise_1_conv3_1ReLU_1_0_split_1
I1003 12:39:11.513502  5017 net.cpp:558] conv3_Eltwise_2 <- conv3_2_1
I1003 12:39:11.513509  5017 net.cpp:522] conv3_Eltwise_2 -> conv3_Eltwise_2
I1003 12:39:11.513541  5017 net.cpp:172] Setting up conv3_Eltwise_2
I1003 12:39:11.513548  5017 net.cpp:186] Top shape: 10 320 16 16 (819200)
I1003 12:39:11.513552  5017 net.cpp:194] Memory required for data: 416931960
I1003 12:39:11.513556  5017 layer_factory.hpp:77] Creating layer conv3_2ReLU_1
I1003 12:39:11.513563  5017 net.cpp:128] Creating Layer conv3_2ReLU_1
I1003 12:39:11.513567  5017 net.cpp:558] conv3_2ReLU_1 <- conv3_Eltwise_2
I1003 12:39:11.513576  5017 net.cpp:509] conv3_2ReLU_1 -> conv3_Eltwise_2 (in-place)
I1003 12:39:11.514051  5017 net.cpp:172] Setting up conv3_2ReLU_1
I1003 12:39:11.514073  5017 net.cpp:186] Top shape: 10 320 16 16 (819200)
I1003 12:39:11.514077  5017 net.cpp:194] Memory required for data: 420208760
I1003 12:39:11.514083  5017 layer_factory.hpp:77] Creating layer conv3_Eltwise_2_conv3_2ReLU_1_0_split
I1003 12:39:11.514091  5017 net.cpp:128] Creating Layer conv3_Eltwise_2_conv3_2ReLU_1_0_split
I1003 12:39:11.514096  5017 net.cpp:558] conv3_Eltwise_2_conv3_2ReLU_1_0_split <- conv3_Eltwise_2
I1003 12:39:11.514106  5017 net.cpp:522] conv3_Eltwise_2_conv3_2ReLU_1_0_split -> conv3_Eltwise_2_conv3_2ReLU_1_0_split_0
I1003 12:39:11.514114  5017 net.cpp:522] conv3_Eltwise_2_conv3_2ReLU_1_0_split -> conv3_Eltwise_2_conv3_2ReLU_1_0_split_1
I1003 12:39:11.514183  5017 net.cpp:172] Setting up conv3_Eltwise_2_conv3_2ReLU_1_0_split
I1003 12:39:11.514194  5017 net.cpp:186] Top shape: 10 320 16 16 (819200)
I1003 12:39:11.514199  5017 net.cpp:186] Top shape: 10 320 16 16 (819200)
I1003 12:39:11.514202  5017 net.cpp:194] Memory required for data: 426762360
I1003 12:39:11.514206  5017 layer_factory.hpp:77] Creating layer conv3_3_0
I1003 12:39:11.514223  5017 net.cpp:128] Creating Layer conv3_3_0
I1003 12:39:11.514228  5017 net.cpp:558] conv3_3_0 <- conv3_Eltwise_2_conv3_2ReLU_1_0_split_0
I1003 12:39:11.514237  5017 net.cpp:522] conv3_3_0 -> conv3_3_0
I1003 12:39:11.532584  5017 net.cpp:172] Setting up conv3_3_0
I1003 12:39:11.532622  5017 net.cpp:186] Top shape: 10 320 16 16 (819200)
I1003 12:39:11.532626  5017 net.cpp:194] Memory required for data: 430039160
I1003 12:39:11.532641  5017 layer_factory.hpp:77] Creating layer conv3_3_bn0
I1003 12:39:11.532655  5017 net.cpp:128] Creating Layer conv3_3_bn0
I1003 12:39:11.532665  5017 net.cpp:558] conv3_3_bn0 <- conv3_3_0
I1003 12:39:11.532675  5017 net.cpp:509] conv3_3_bn0 -> conv3_3_0 (in-place)
I1003 12:39:11.533020  5017 net.cpp:172] Setting up conv3_3_bn0
I1003 12:39:11.533031  5017 net.cpp:186] Top shape: 10 320 16 16 (819200)
I1003 12:39:11.533036  5017 net.cpp:194] Memory required for data: 433315960
I1003 12:39:11.533046  5017 layer_factory.hpp:77] Creating layer conv3_3_scale0
I1003 12:39:11.533054  5017 net.cpp:128] Creating Layer conv3_3_scale0
I1003 12:39:11.533058  5017 net.cpp:558] conv3_3_scale0 <- conv3_3_0
I1003 12:39:11.533066  5017 net.cpp:509] conv3_3_scale0 -> conv3_3_0 (in-place)
I1003 12:39:11.533131  5017 layer_factory.hpp:77] Creating layer conv3_3_scale0
I1003 12:39:11.533324  5017 net.cpp:172] Setting up conv3_3_scale0
I1003 12:39:11.533335  5017 net.cpp:186] Top shape: 10 320 16 16 (819200)
I1003 12:39:11.533339  5017 net.cpp:194] Memory required for data: 436592760
I1003 12:39:11.533347  5017 layer_factory.hpp:77] Creating layer conv3_3_ReLU0
I1003 12:39:11.533354  5017 net.cpp:128] Creating Layer conv3_3_ReLU0
I1003 12:39:11.533358  5017 net.cpp:558] conv3_3_ReLU0 <- conv3_3_0
I1003 12:39:11.533366  5017 net.cpp:509] conv3_3_ReLU0 -> conv3_3_0 (in-place)
I1003 12:39:11.533632  5017 net.cpp:172] Setting up conv3_3_ReLU0
I1003 12:39:11.533646  5017 net.cpp:186] Top shape: 10 320 16 16 (819200)
I1003 12:39:11.533651  5017 net.cpp:194] Memory required for data: 439869560
I1003 12:39:11.533679  5017 layer_factory.hpp:77] Creating layer conv3_Drop3
I1003 12:39:11.533689  5017 net.cpp:128] Creating Layer conv3_Drop3
I1003 12:39:11.533694  5017 net.cpp:558] conv3_Drop3 <- conv3_3_0
I1003 12:39:11.533701  5017 net.cpp:509] conv3_Drop3 -> conv3_3_0 (in-place)
I1003 12:39:11.533737  5017 net.cpp:172] Setting up conv3_Drop3
I1003 12:39:11.533747  5017 net.cpp:186] Top shape: 10 320 16 16 (819200)
I1003 12:39:11.533751  5017 net.cpp:194] Memory required for data: 443146360
I1003 12:39:11.533756  5017 layer_factory.hpp:77] Creating layer conv3_3_1
I1003 12:39:11.533771  5017 net.cpp:128] Creating Layer conv3_3_1
I1003 12:39:11.533774  5017 net.cpp:558] conv3_3_1 <- conv3_3_0
I1003 12:39:11.533782  5017 net.cpp:522] conv3_3_1 -> conv3_3_1
I1003 12:39:11.552006  5017 net.cpp:172] Setting up conv3_3_1
I1003 12:39:11.552044  5017 net.cpp:186] Top shape: 10 320 16 16 (819200)
I1003 12:39:11.552048  5017 net.cpp:194] Memory required for data: 446423160
I1003 12:39:11.552062  5017 layer_factory.hpp:77] Creating layer conv3_3bn1
I1003 12:39:11.552075  5017 net.cpp:128] Creating Layer conv3_3bn1
I1003 12:39:11.552085  5017 net.cpp:558] conv3_3bn1 <- conv3_3_1
I1003 12:39:11.552093  5017 net.cpp:509] conv3_3bn1 -> conv3_3_1 (in-place)
I1003 12:39:11.552443  5017 net.cpp:172] Setting up conv3_3bn1
I1003 12:39:11.552455  5017 net.cpp:186] Top shape: 10 320 16 16 (819200)
I1003 12:39:11.552460  5017 net.cpp:194] Memory required for data: 449699960
I1003 12:39:11.552470  5017 layer_factory.hpp:77] Creating layer conv3_3_scale1
I1003 12:39:11.552479  5017 net.cpp:128] Creating Layer conv3_3_scale1
I1003 12:39:11.552482  5017 net.cpp:558] conv3_3_scale1 <- conv3_3_1
I1003 12:39:11.552490  5017 net.cpp:509] conv3_3_scale1 -> conv3_3_1 (in-place)
I1003 12:39:11.552552  5017 layer_factory.hpp:77] Creating layer conv3_3_scale1
I1003 12:39:11.552743  5017 net.cpp:172] Setting up conv3_3_scale1
I1003 12:39:11.552754  5017 net.cpp:186] Top shape: 10 320 16 16 (819200)
I1003 12:39:11.552759  5017 net.cpp:194] Memory required for data: 452976760
I1003 12:39:11.552767  5017 layer_factory.hpp:77] Creating layer conv3_Eltwise_3
I1003 12:39:11.552776  5017 net.cpp:128] Creating Layer conv3_Eltwise_3
I1003 12:39:11.552781  5017 net.cpp:558] conv3_Eltwise_3 <- conv3_Eltwise_2_conv3_2ReLU_1_0_split_1
I1003 12:39:11.552788  5017 net.cpp:558] conv3_Eltwise_3 <- conv3_3_1
I1003 12:39:11.552795  5017 net.cpp:522] conv3_Eltwise_3 -> conv3_Eltwise_3
I1003 12:39:11.552824  5017 net.cpp:172] Setting up conv3_Eltwise_3
I1003 12:39:11.552839  5017 net.cpp:186] Top shape: 10 320 16 16 (819200)
I1003 12:39:11.552844  5017 net.cpp:194] Memory required for data: 456253560
I1003 12:39:11.552847  5017 layer_factory.hpp:77] Creating layer conv3_3ReLU_1
I1003 12:39:11.552856  5017 net.cpp:128] Creating Layer conv3_3ReLU_1
I1003 12:39:11.552861  5017 net.cpp:558] conv3_3ReLU_1 <- conv3_Eltwise_3
I1003 12:39:11.552867  5017 net.cpp:509] conv3_3ReLU_1 -> conv3_Eltwise_3 (in-place)
I1003 12:39:11.553130  5017 net.cpp:172] Setting up conv3_3ReLU_1
I1003 12:39:11.553148  5017 net.cpp:186] Top shape: 10 320 16 16 (819200)
I1003 12:39:11.553153  5017 net.cpp:194] Memory required for data: 459530360
I1003 12:39:11.553156  5017 layer_factory.hpp:77] Creating layer conv3_Eltwise_3_conv3_3ReLU_1_0_split
I1003 12:39:11.553166  5017 net.cpp:128] Creating Layer conv3_Eltwise_3_conv3_3ReLU_1_0_split
I1003 12:39:11.553171  5017 net.cpp:558] conv3_Eltwise_3_conv3_3ReLU_1_0_split <- conv3_Eltwise_3
I1003 12:39:11.553177  5017 net.cpp:522] conv3_Eltwise_3_conv3_3ReLU_1_0_split -> conv3_Eltwise_3_conv3_3ReLU_1_0_split_0
I1003 12:39:11.553185  5017 net.cpp:522] conv3_Eltwise_3_conv3_3ReLU_1_0_split -> conv3_Eltwise_3_conv3_3ReLU_1_0_split_1
I1003 12:39:11.553252  5017 net.cpp:172] Setting up conv3_Eltwise_3_conv3_3ReLU_1_0_split
I1003 12:39:11.553259  5017 net.cpp:186] Top shape: 10 320 16 16 (819200)
I1003 12:39:11.553264  5017 net.cpp:186] Top shape: 10 320 16 16 (819200)
I1003 12:39:11.553268  5017 net.cpp:194] Memory required for data: 466083960
I1003 12:39:11.553272  5017 layer_factory.hpp:77] Creating layer conv3_4_0
I1003 12:39:11.553303  5017 net.cpp:128] Creating Layer conv3_4_0
I1003 12:39:11.553310  5017 net.cpp:558] conv3_4_0 <- conv3_Eltwise_3_conv3_3ReLU_1_0_split_0
I1003 12:39:11.553320  5017 net.cpp:522] conv3_4_0 -> conv3_4_0
I1003 12:39:11.571703  5017 net.cpp:172] Setting up conv3_4_0
I1003 12:39:11.571745  5017 net.cpp:186] Top shape: 10 320 16 16 (819200)
I1003 12:39:11.571750  5017 net.cpp:194] Memory required for data: 469360760
I1003 12:39:11.571765  5017 layer_factory.hpp:77] Creating layer conv3_4_bn0
I1003 12:39:11.571776  5017 net.cpp:128] Creating Layer conv3_4_bn0
I1003 12:39:11.571787  5017 net.cpp:558] conv3_4_bn0 <- conv3_4_0
I1003 12:39:11.571796  5017 net.cpp:509] conv3_4_bn0 -> conv3_4_0 (in-place)
I1003 12:39:11.572147  5017 net.cpp:172] Setting up conv3_4_bn0
I1003 12:39:11.572160  5017 net.cpp:186] Top shape: 10 320 16 16 (819200)
I1003 12:39:11.572165  5017 net.cpp:194] Memory required for data: 472637560
I1003 12:39:11.572175  5017 layer_factory.hpp:77] Creating layer conv3_4_scale0
I1003 12:39:11.572185  5017 net.cpp:128] Creating Layer conv3_4_scale0
I1003 12:39:11.572190  5017 net.cpp:558] conv3_4_scale0 <- conv3_4_0
I1003 12:39:11.572196  5017 net.cpp:509] conv3_4_scale0 -> conv3_4_0 (in-place)
I1003 12:39:11.572259  5017 layer_factory.hpp:77] Creating layer conv3_4_scale0
I1003 12:39:11.572455  5017 net.cpp:172] Setting up conv3_4_scale0
I1003 12:39:11.572466  5017 net.cpp:186] Top shape: 10 320 16 16 (819200)
I1003 12:39:11.572471  5017 net.cpp:194] Memory required for data: 475914360
I1003 12:39:11.572479  5017 layer_factory.hpp:77] Creating layer conv3_4_ReLU0
I1003 12:39:11.572487  5017 net.cpp:128] Creating Layer conv3_4_ReLU0
I1003 12:39:11.572492  5017 net.cpp:558] conv3_4_ReLU0 <- conv3_4_0
I1003 12:39:11.572497  5017 net.cpp:509] conv3_4_ReLU0 -> conv3_4_0 (in-place)
I1003 12:39:11.572975  5017 net.cpp:172] Setting up conv3_4_ReLU0
I1003 12:39:11.572999  5017 net.cpp:186] Top shape: 10 320 16 16 (819200)
I1003 12:39:11.573004  5017 net.cpp:194] Memory required for data: 479191160
I1003 12:39:11.573009  5017 layer_factory.hpp:77] Creating layer conv3_Drop4
I1003 12:39:11.573019  5017 net.cpp:128] Creating Layer conv3_Drop4
I1003 12:39:11.573024  5017 net.cpp:558] conv3_Drop4 <- conv3_4_0
I1003 12:39:11.573031  5017 net.cpp:509] conv3_Drop4 -> conv3_4_0 (in-place)
I1003 12:39:11.573070  5017 net.cpp:172] Setting up conv3_Drop4
I1003 12:39:11.573076  5017 net.cpp:186] Top shape: 10 320 16 16 (819200)
I1003 12:39:11.573081  5017 net.cpp:194] Memory required for data: 482467960
I1003 12:39:11.573084  5017 layer_factory.hpp:77] Creating layer conv3_4_1
I1003 12:39:11.573097  5017 net.cpp:128] Creating Layer conv3_4_1
I1003 12:39:11.573101  5017 net.cpp:558] conv3_4_1 <- conv3_4_0
I1003 12:39:11.573110  5017 net.cpp:522] conv3_4_1 -> conv3_4_1
I1003 12:39:11.591362  5017 net.cpp:172] Setting up conv3_4_1
I1003 12:39:11.591399  5017 net.cpp:186] Top shape: 10 320 16 16 (819200)
I1003 12:39:11.591404  5017 net.cpp:194] Memory required for data: 485744760
I1003 12:39:11.591418  5017 layer_factory.hpp:77] Creating layer conv3_4bn1
I1003 12:39:11.591431  5017 net.cpp:128] Creating Layer conv3_4bn1
I1003 12:39:11.591437  5017 net.cpp:558] conv3_4bn1 <- conv3_4_1
I1003 12:39:11.591450  5017 net.cpp:509] conv3_4bn1 -> conv3_4_1 (in-place)
I1003 12:39:11.591806  5017 net.cpp:172] Setting up conv3_4bn1
I1003 12:39:11.591820  5017 net.cpp:186] Top shape: 10 320 16 16 (819200)
I1003 12:39:11.591825  5017 net.cpp:194] Memory required for data: 489021560
I1003 12:39:11.591845  5017 layer_factory.hpp:77] Creating layer conv3_4_scale1
I1003 12:39:11.591855  5017 net.cpp:128] Creating Layer conv3_4_scale1
I1003 12:39:11.591859  5017 net.cpp:558] conv3_4_scale1 <- conv3_4_1
I1003 12:39:11.591866  5017 net.cpp:509] conv3_4_scale1 -> conv3_4_1 (in-place)
I1003 12:39:11.591933  5017 layer_factory.hpp:77] Creating layer conv3_4_scale1
I1003 12:39:11.592121  5017 net.cpp:172] Setting up conv3_4_scale1
I1003 12:39:11.592133  5017 net.cpp:186] Top shape: 10 320 16 16 (819200)
I1003 12:39:11.592166  5017 net.cpp:194] Memory required for data: 492298360
I1003 12:39:11.592176  5017 layer_factory.hpp:77] Creating layer conv3_Eltwise_4
I1003 12:39:11.592187  5017 net.cpp:128] Creating Layer conv3_Eltwise_4
I1003 12:39:11.592193  5017 net.cpp:558] conv3_Eltwise_4 <- conv3_Eltwise_3_conv3_3ReLU_1_0_split_1
I1003 12:39:11.592198  5017 net.cpp:558] conv3_Eltwise_4 <- conv3_4_1
I1003 12:39:11.592206  5017 net.cpp:522] conv3_Eltwise_4 -> conv3_Eltwise_4
I1003 12:39:11.592238  5017 net.cpp:172] Setting up conv3_Eltwise_4
I1003 12:39:11.592245  5017 net.cpp:186] Top shape: 10 320 16 16 (819200)
I1003 12:39:11.592249  5017 net.cpp:194] Memory required for data: 495575160
I1003 12:39:11.592253  5017 layer_factory.hpp:77] Creating layer conv3_4ReLU_1
I1003 12:39:11.592260  5017 net.cpp:128] Creating Layer conv3_4ReLU_1
I1003 12:39:11.592265  5017 net.cpp:558] conv3_4ReLU_1 <- conv3_Eltwise_4
I1003 12:39:11.592270  5017 net.cpp:509] conv3_4ReLU_1 -> conv3_Eltwise_4 (in-place)
I1003 12:39:11.592535  5017 net.cpp:172] Setting up conv3_4ReLU_1
I1003 12:39:11.592553  5017 net.cpp:186] Top shape: 10 320 16 16 (819200)
I1003 12:39:11.592558  5017 net.cpp:194] Memory required for data: 498851960
I1003 12:39:11.592562  5017 layer_factory.hpp:77] Creating layer conv3_Eltwise_4_conv3_4ReLU_1_0_split
I1003 12:39:11.592571  5017 net.cpp:128] Creating Layer conv3_Eltwise_4_conv3_4ReLU_1_0_split
I1003 12:39:11.592574  5017 net.cpp:558] conv3_Eltwise_4_conv3_4ReLU_1_0_split <- conv3_Eltwise_4
I1003 12:39:11.592583  5017 net.cpp:522] conv3_Eltwise_4_conv3_4ReLU_1_0_split -> conv3_Eltwise_4_conv3_4ReLU_1_0_split_0
I1003 12:39:11.592592  5017 net.cpp:522] conv3_Eltwise_4_conv3_4ReLU_1_0_split -> conv3_Eltwise_4_conv3_4ReLU_1_0_split_1
I1003 12:39:11.592656  5017 net.cpp:172] Setting up conv3_Eltwise_4_conv3_4ReLU_1_0_split
I1003 12:39:11.592666  5017 net.cpp:186] Top shape: 10 320 16 16 (819200)
I1003 12:39:11.592672  5017 net.cpp:186] Top shape: 10 320 16 16 (819200)
I1003 12:39:11.592676  5017 net.cpp:194] Memory required for data: 505405560
I1003 12:39:11.592680  5017 layer_factory.hpp:77] Creating layer conv4_1_0
I1003 12:39:11.592694  5017 net.cpp:128] Creating Layer conv4_1_0
I1003 12:39:11.592700  5017 net.cpp:558] conv4_1_0 <- conv3_Eltwise_4_conv3_4ReLU_1_0_split_0
I1003 12:39:11.592707  5017 net.cpp:522] conv4_1_0 -> conv4_1_0
I1003 12:39:11.628914  5017 net.cpp:172] Setting up conv4_1_0
I1003 12:39:11.628970  5017 net.cpp:186] Top shape: 10 640 8 8 (409600)
I1003 12:39:11.628975  5017 net.cpp:194] Memory required for data: 507043960
I1003 12:39:11.628994  5017 layer_factory.hpp:77] Creating layer conv4_1_bn0
I1003 12:39:11.629011  5017 net.cpp:128] Creating Layer conv4_1_bn0
I1003 12:39:11.629022  5017 net.cpp:558] conv4_1_bn0 <- conv4_1_0
I1003 12:39:11.629034  5017 net.cpp:509] conv4_1_bn0 -> conv4_1_0 (in-place)
I1003 12:39:11.629398  5017 net.cpp:172] Setting up conv4_1_bn0
I1003 12:39:11.629412  5017 net.cpp:186] Top shape: 10 640 8 8 (409600)
I1003 12:39:11.629417  5017 net.cpp:194] Memory required for data: 508682360
I1003 12:39:11.629428  5017 layer_factory.hpp:77] Creating layer conv4_1_scale0
I1003 12:39:11.629438  5017 net.cpp:128] Creating Layer conv4_1_scale0
I1003 12:39:11.629442  5017 net.cpp:558] conv4_1_scale0 <- conv4_1_0
I1003 12:39:11.629451  5017 net.cpp:509] conv4_1_scale0 -> conv4_1_0 (in-place)
I1003 12:39:11.629513  5017 layer_factory.hpp:77] Creating layer conv4_1_scale0
I1003 12:39:11.629712  5017 net.cpp:172] Setting up conv4_1_scale0
I1003 12:39:11.629724  5017 net.cpp:186] Top shape: 10 640 8 8 (409600)
I1003 12:39:11.629729  5017 net.cpp:194] Memory required for data: 510320760
I1003 12:39:11.629736  5017 layer_factory.hpp:77] Creating layer conv4_1_ReLU0
I1003 12:39:11.629745  5017 net.cpp:128] Creating Layer conv4_1_ReLU0
I1003 12:39:11.629750  5017 net.cpp:558] conv4_1_ReLU0 <- conv4_1_0
I1003 12:39:11.629756  5017 net.cpp:509] conv4_1_ReLU0 -> conv4_1_0 (in-place)
I1003 12:39:11.630043  5017 net.cpp:172] Setting up conv4_1_ReLU0
I1003 12:39:11.630060  5017 net.cpp:186] Top shape: 10 640 8 8 (409600)
I1003 12:39:11.630105  5017 net.cpp:194] Memory required for data: 511959160
I1003 12:39:11.630111  5017 layer_factory.hpp:77] Creating layer conv4_Drop1
I1003 12:39:11.630121  5017 net.cpp:128] Creating Layer conv4_Drop1
I1003 12:39:11.630126  5017 net.cpp:558] conv4_Drop1 <- conv4_1_0
I1003 12:39:11.630136  5017 net.cpp:509] conv4_Drop1 -> conv4_1_0 (in-place)
I1003 12:39:11.630179  5017 net.cpp:172] Setting up conv4_Drop1
I1003 12:39:11.630193  5017 net.cpp:186] Top shape: 10 640 8 8 (409600)
I1003 12:39:11.630198  5017 net.cpp:194] Memory required for data: 513597560
I1003 12:39:11.630203  5017 layer_factory.hpp:77] Creating layer conv4_1_1
I1003 12:39:11.630216  5017 net.cpp:128] Creating Layer conv4_1_1
I1003 12:39:11.630221  5017 net.cpp:558] conv4_1_1 <- conv4_1_0
I1003 12:39:11.630228  5017 net.cpp:522] conv4_1_1 -> conv4_1_1
I1003 12:39:11.700357  5017 net.cpp:172] Setting up conv4_1_1
I1003 12:39:11.700417  5017 net.cpp:186] Top shape: 10 640 8 8 (409600)
I1003 12:39:11.700422  5017 net.cpp:194] Memory required for data: 515235960
I1003 12:39:11.700443  5017 layer_factory.hpp:77] Creating layer conv4_1bn1
I1003 12:39:11.700460  5017 net.cpp:128] Creating Layer conv4_1bn1
I1003 12:39:11.700469  5017 net.cpp:558] conv4_1bn1 <- conv4_1_1
I1003 12:39:11.700484  5017 net.cpp:509] conv4_1bn1 -> conv4_1_1 (in-place)
I1003 12:39:11.700840  5017 net.cpp:172] Setting up conv4_1bn1
I1003 12:39:11.700857  5017 net.cpp:186] Top shape: 10 640 8 8 (409600)
I1003 12:39:11.700862  5017 net.cpp:194] Memory required for data: 516874360
I1003 12:39:11.700872  5017 layer_factory.hpp:77] Creating layer conv4_1_scale1
I1003 12:39:11.700884  5017 net.cpp:128] Creating Layer conv4_1_scale1
I1003 12:39:11.700889  5017 net.cpp:558] conv4_1_scale1 <- conv4_1_1
I1003 12:39:11.700894  5017 net.cpp:509] conv4_1_scale1 -> conv4_1_1 (in-place)
I1003 12:39:11.700958  5017 layer_factory.hpp:77] Creating layer conv4_1_scale1
I1003 12:39:11.701158  5017 net.cpp:172] Setting up conv4_1_scale1
I1003 12:39:11.701169  5017 net.cpp:186] Top shape: 10 640 8 8 (409600)
I1003 12:39:11.701174  5017 net.cpp:194] Memory required for data: 518512760
I1003 12:39:11.701181  5017 layer_factory.hpp:77] Creating layer conv4_1_down
I1003 12:39:11.701195  5017 net.cpp:128] Creating Layer conv4_1_down
I1003 12:39:11.701200  5017 net.cpp:558] conv4_1_down <- conv3_Eltwise_4_conv3_4ReLU_1_0_split_1
I1003 12:39:11.701212  5017 net.cpp:522] conv4_1_down -> conv4_1_down
I1003 12:39:11.706046  5017 net.cpp:172] Setting up conv4_1_down
I1003 12:39:11.706073  5017 net.cpp:186] Top shape: 10 640 8 8 (409600)
I1003 12:39:11.706077  5017 net.cpp:194] Memory required for data: 520151160
I1003 12:39:11.706087  5017 layer_factory.hpp:77] Creating layer conv4_1_bn_down
I1003 12:39:11.706099  5017 net.cpp:128] Creating Layer conv4_1_bn_down
I1003 12:39:11.706104  5017 net.cpp:558] conv4_1_bn_down <- conv4_1_down
I1003 12:39:11.706110  5017 net.cpp:509] conv4_1_bn_down -> conv4_1_down (in-place)
I1003 12:39:11.706463  5017 net.cpp:172] Setting up conv4_1_bn_down
I1003 12:39:11.706476  5017 net.cpp:186] Top shape: 10 640 8 8 (409600)
I1003 12:39:11.706480  5017 net.cpp:194] Memory required for data: 521789560
I1003 12:39:11.706490  5017 layer_factory.hpp:77] Creating layer conv4_1_scale_down
I1003 12:39:11.706497  5017 net.cpp:128] Creating Layer conv4_1_scale_down
I1003 12:39:11.706501  5017 net.cpp:558] conv4_1_scale_down <- conv4_1_down
I1003 12:39:11.706509  5017 net.cpp:509] conv4_1_scale_down -> conv4_1_down (in-place)
I1003 12:39:11.706564  5017 layer_factory.hpp:77] Creating layer conv4_1_scale_down
I1003 12:39:11.706760  5017 net.cpp:172] Setting up conv4_1_scale_down
I1003 12:39:11.706771  5017 net.cpp:186] Top shape: 10 640 8 8 (409600)
I1003 12:39:11.706775  5017 net.cpp:194] Memory required for data: 523427960
I1003 12:39:11.706784  5017 layer_factory.hpp:77] Creating layer conv4_Eltwise_1
I1003 12:39:11.706792  5017 net.cpp:128] Creating Layer conv4_Eltwise_1
I1003 12:39:11.706796  5017 net.cpp:558] conv4_Eltwise_1 <- conv4_1_1
I1003 12:39:11.706801  5017 net.cpp:558] conv4_Eltwise_1 <- conv4_1_down
I1003 12:39:11.706851  5017 net.cpp:522] conv4_Eltwise_1 -> conv4_Eltwise_1
I1003 12:39:11.706887  5017 net.cpp:172] Setting up conv4_Eltwise_1
I1003 12:39:11.706900  5017 net.cpp:186] Top shape: 10 640 8 8 (409600)
I1003 12:39:11.706905  5017 net.cpp:194] Memory required for data: 525066360
I1003 12:39:11.706909  5017 layer_factory.hpp:77] Creating layer conv4_1ReLU_1
I1003 12:39:11.706917  5017 net.cpp:128] Creating Layer conv4_1ReLU_1
I1003 12:39:11.706921  5017 net.cpp:558] conv4_1ReLU_1 <- conv4_Eltwise_1
I1003 12:39:11.706926  5017 net.cpp:509] conv4_1ReLU_1 -> conv4_Eltwise_1 (in-place)
I1003 12:39:11.707410  5017 net.cpp:172] Setting up conv4_1ReLU_1
I1003 12:39:11.707432  5017 net.cpp:186] Top shape: 10 640 8 8 (409600)
I1003 12:39:11.707437  5017 net.cpp:194] Memory required for data: 526704760
I1003 12:39:11.707442  5017 layer_factory.hpp:77] Creating layer conv4_Eltwise_1_conv4_1ReLU_1_0_split
I1003 12:39:11.707453  5017 net.cpp:128] Creating Layer conv4_Eltwise_1_conv4_1ReLU_1_0_split
I1003 12:39:11.707458  5017 net.cpp:558] conv4_Eltwise_1_conv4_1ReLU_1_0_split <- conv4_Eltwise_1
I1003 12:39:11.707468  5017 net.cpp:522] conv4_Eltwise_1_conv4_1ReLU_1_0_split -> conv4_Eltwise_1_conv4_1ReLU_1_0_split_0
I1003 12:39:11.707476  5017 net.cpp:522] conv4_Eltwise_1_conv4_1ReLU_1_0_split -> conv4_Eltwise_1_conv4_1ReLU_1_0_split_1
I1003 12:39:11.707545  5017 net.cpp:172] Setting up conv4_Eltwise_1_conv4_1ReLU_1_0_split
I1003 12:39:11.707562  5017 net.cpp:186] Top shape: 10 640 8 8 (409600)
I1003 12:39:11.707568  5017 net.cpp:186] Top shape: 10 640 8 8 (409600)
I1003 12:39:11.707572  5017 net.cpp:194] Memory required for data: 529981560
I1003 12:39:11.707576  5017 layer_factory.hpp:77] Creating layer conv4_2_0
I1003 12:39:11.707588  5017 net.cpp:128] Creating Layer conv4_2_0
I1003 12:39:11.707593  5017 net.cpp:558] conv4_2_0 <- conv4_Eltwise_1_conv4_1ReLU_1_0_split_0
I1003 12:39:11.707600  5017 net.cpp:522] conv4_2_0 -> conv4_2_0
I1003 12:39:11.777547  5017 net.cpp:172] Setting up conv4_2_0
I1003 12:39:11.777604  5017 net.cpp:186] Top shape: 10 640 8 8 (409600)
I1003 12:39:11.777609  5017 net.cpp:194] Memory required for data: 531619960
I1003 12:39:11.777626  5017 layer_factory.hpp:77] Creating layer conv4_2_bn0
I1003 12:39:11.777643  5017 net.cpp:128] Creating Layer conv4_2_bn0
I1003 12:39:11.777650  5017 net.cpp:558] conv4_2_bn0 <- conv4_2_0
I1003 12:39:11.777667  5017 net.cpp:509] conv4_2_bn0 -> conv4_2_0 (in-place)
I1003 12:39:11.778046  5017 net.cpp:172] Setting up conv4_2_bn0
I1003 12:39:11.778060  5017 net.cpp:186] Top shape: 10 640 8 8 (409600)
I1003 12:39:11.778064  5017 net.cpp:194] Memory required for data: 533258360
I1003 12:39:11.778075  5017 layer_factory.hpp:77] Creating layer conv4_2_scale0
I1003 12:39:11.778087  5017 net.cpp:128] Creating Layer conv4_2_scale0
I1003 12:39:11.778092  5017 net.cpp:558] conv4_2_scale0 <- conv4_2_0
I1003 12:39:11.778098  5017 net.cpp:509] conv4_2_scale0 -> conv4_2_0 (in-place)
I1003 12:39:11.778167  5017 layer_factory.hpp:77] Creating layer conv4_2_scale0
I1003 12:39:11.778368  5017 net.cpp:172] Setting up conv4_2_scale0
I1003 12:39:11.778375  5017 net.cpp:186] Top shape: 10 640 8 8 (409600)
I1003 12:39:11.778379  5017 net.cpp:194] Memory required for data: 534896760
I1003 12:39:11.778388  5017 layer_factory.hpp:77] Creating layer conv4_2_ReLU0
I1003 12:39:11.778395  5017 net.cpp:128] Creating Layer conv4_2_ReLU0
I1003 12:39:11.778399  5017 net.cpp:558] conv4_2_ReLU0 <- conv4_2_0
I1003 12:39:11.778407  5017 net.cpp:509] conv4_2_ReLU0 -> conv4_2_0 (in-place)
I1003 12:39:11.778669  5017 net.cpp:172] Setting up conv4_2_ReLU0
I1003 12:39:11.778686  5017 net.cpp:186] Top shape: 10 640 8 8 (409600)
I1003 12:39:11.778690  5017 net.cpp:194] Memory required for data: 536535160
I1003 12:39:11.778694  5017 layer_factory.hpp:77] Creating layer conv4_Drop2
I1003 12:39:11.778703  5017 net.cpp:128] Creating Layer conv4_Drop2
I1003 12:39:11.778708  5017 net.cpp:558] conv4_Drop2 <- conv4_2_0
I1003 12:39:11.778720  5017 net.cpp:509] conv4_Drop2 -> conv4_2_0 (in-place)
I1003 12:39:11.778810  5017 net.cpp:172] Setting up conv4_Drop2
I1003 12:39:11.778820  5017 net.cpp:186] Top shape: 10 640 8 8 (409600)
I1003 12:39:11.778825  5017 net.cpp:194] Memory required for data: 538173560
I1003 12:39:11.778829  5017 layer_factory.hpp:77] Creating layer conv4_2_1
I1003 12:39:11.778842  5017 net.cpp:128] Creating Layer conv4_2_1
I1003 12:39:11.778847  5017 net.cpp:558] conv4_2_1 <- conv4_2_0
I1003 12:39:11.778856  5017 net.cpp:522] conv4_2_1 -> conv4_2_1
I1003 12:39:11.848891  5017 net.cpp:172] Setting up conv4_2_1
I1003 12:39:11.848950  5017 net.cpp:186] Top shape: 10 640 8 8 (409600)
I1003 12:39:11.848955  5017 net.cpp:194] Memory required for data: 539811960
I1003 12:39:11.848976  5017 layer_factory.hpp:77] Creating layer conv4_2bn1
I1003 12:39:11.848992  5017 net.cpp:128] Creating Layer conv4_2bn1
I1003 12:39:11.849000  5017 net.cpp:558] conv4_2bn1 <- conv4_2_1
I1003 12:39:11.849014  5017 net.cpp:509] conv4_2bn1 -> conv4_2_1 (in-place)
I1003 12:39:11.849378  5017 net.cpp:172] Setting up conv4_2bn1
I1003 12:39:11.849396  5017 net.cpp:186] Top shape: 10 640 8 8 (409600)
I1003 12:39:11.849400  5017 net.cpp:194] Memory required for data: 541450360
I1003 12:39:11.849411  5017 layer_factory.hpp:77] Creating layer conv4_2_scale1
I1003 12:39:11.849422  5017 net.cpp:128] Creating Layer conv4_2_scale1
I1003 12:39:11.849427  5017 net.cpp:558] conv4_2_scale1 <- conv4_2_1
I1003 12:39:11.849433  5017 net.cpp:509] conv4_2_scale1 -> conv4_2_1 (in-place)
I1003 12:39:11.849498  5017 layer_factory.hpp:77] Creating layer conv4_2_scale1
I1003 12:39:11.849704  5017 net.cpp:172] Setting up conv4_2_scale1
I1003 12:39:11.849715  5017 net.cpp:186] Top shape: 10 640 8 8 (409600)
I1003 12:39:11.849720  5017 net.cpp:194] Memory required for data: 543088760
I1003 12:39:11.849727  5017 layer_factory.hpp:77] Creating layer conv4_Eltwise_2
I1003 12:39:11.849738  5017 net.cpp:128] Creating Layer conv4_Eltwise_2
I1003 12:39:11.849745  5017 net.cpp:558] conv4_Eltwise_2 <- conv4_Eltwise_1_conv4_1ReLU_1_0_split_1
I1003 12:39:11.849750  5017 net.cpp:558] conv4_Eltwise_2 <- conv4_2_1
I1003 12:39:11.849758  5017 net.cpp:522] conv4_Eltwise_2 -> conv4_Eltwise_2
I1003 12:39:11.849795  5017 net.cpp:172] Setting up conv4_Eltwise_2
I1003 12:39:11.849819  5017 net.cpp:186] Top shape: 10 640 8 8 (409600)
I1003 12:39:11.849824  5017 net.cpp:194] Memory required for data: 544727160
I1003 12:39:11.849828  5017 layer_factory.hpp:77] Creating layer conv4_2ReLU_1
I1003 12:39:11.849838  5017 net.cpp:128] Creating Layer conv4_2ReLU_1
I1003 12:39:11.849843  5017 net.cpp:558] conv4_2ReLU_1 <- conv4_Eltwise_2
I1003 12:39:11.849848  5017 net.cpp:509] conv4_2ReLU_1 -> conv4_Eltwise_2 (in-place)
I1003 12:39:11.850138  5017 net.cpp:172] Setting up conv4_2ReLU_1
I1003 12:39:11.850158  5017 net.cpp:186] Top shape: 10 640 8 8 (409600)
I1003 12:39:11.850162  5017 net.cpp:194] Memory required for data: 546365560
I1003 12:39:11.850167  5017 layer_factory.hpp:77] Creating layer conv4_Eltwise_2_conv4_2ReLU_1_0_split
I1003 12:39:11.850178  5017 net.cpp:128] Creating Layer conv4_Eltwise_2_conv4_2ReLU_1_0_split
I1003 12:39:11.850183  5017 net.cpp:558] conv4_Eltwise_2_conv4_2ReLU_1_0_split <- conv4_Eltwise_2
I1003 12:39:11.850191  5017 net.cpp:522] conv4_Eltwise_2_conv4_2ReLU_1_0_split -> conv4_Eltwise_2_conv4_2ReLU_1_0_split_0
I1003 12:39:11.850201  5017 net.cpp:522] conv4_Eltwise_2_conv4_2ReLU_1_0_split -> conv4_Eltwise_2_conv4_2ReLU_1_0_split_1
I1003 12:39:11.850272  5017 net.cpp:172] Setting up conv4_Eltwise_2_conv4_2ReLU_1_0_split
I1003 12:39:11.850281  5017 net.cpp:186] Top shape: 10 640 8 8 (409600)
I1003 12:39:11.850286  5017 net.cpp:186] Top shape: 10 640 8 8 (409600)
I1003 12:39:11.850291  5017 net.cpp:194] Memory required for data: 549642360
I1003 12:39:11.850294  5017 layer_factory.hpp:77] Creating layer conv4_3_0
I1003 12:39:11.850307  5017 net.cpp:128] Creating Layer conv4_3_0
I1003 12:39:11.850312  5017 net.cpp:558] conv4_3_0 <- conv4_Eltwise_2_conv4_2ReLU_1_0_split_0
I1003 12:39:11.850322  5017 net.cpp:522] conv4_3_0 -> conv4_3_0
I1003 12:39:11.920426  5017 net.cpp:172] Setting up conv4_3_0
I1003 12:39:11.920485  5017 net.cpp:186] Top shape: 10 640 8 8 (409600)
I1003 12:39:11.920490  5017 net.cpp:194] Memory required for data: 551280760
I1003 12:39:11.920509  5017 layer_factory.hpp:77] Creating layer conv4_3_bn0
I1003 12:39:11.920526  5017 net.cpp:128] Creating Layer conv4_3_bn0
I1003 12:39:11.920539  5017 net.cpp:558] conv4_3_bn0 <- conv4_3_0
I1003 12:39:11.920552  5017 net.cpp:509] conv4_3_bn0 -> conv4_3_0 (in-place)
I1003 12:39:11.920923  5017 net.cpp:172] Setting up conv4_3_bn0
I1003 12:39:11.920938  5017 net.cpp:186] Top shape: 10 640 8 8 (409600)
I1003 12:39:11.920943  5017 net.cpp:194] Memory required for data: 552919160
I1003 12:39:11.920954  5017 layer_factory.hpp:77] Creating layer conv4_3_scale0
I1003 12:39:11.920977  5017 net.cpp:128] Creating Layer conv4_3_scale0
I1003 12:39:11.920982  5017 net.cpp:558] conv4_3_scale0 <- conv4_3_0
I1003 12:39:11.920987  5017 net.cpp:509] conv4_3_scale0 -> conv4_3_0 (in-place)
I1003 12:39:11.921054  5017 layer_factory.hpp:77] Creating layer conv4_3_scale0
I1003 12:39:11.921267  5017 net.cpp:172] Setting up conv4_3_scale0
I1003 12:39:11.921277  5017 net.cpp:186] Top shape: 10 640 8 8 (409600)
I1003 12:39:11.921281  5017 net.cpp:194] Memory required for data: 554557560
I1003 12:39:11.921290  5017 layer_factory.hpp:77] Creating layer conv4_3_ReLU0
I1003 12:39:11.921298  5017 net.cpp:128] Creating Layer conv4_3_ReLU0
I1003 12:39:11.921303  5017 net.cpp:558] conv4_3_ReLU0 <- conv4_3_0
I1003 12:39:11.921308  5017 net.cpp:509] conv4_3_ReLU0 -> conv4_3_0 (in-place)
I1003 12:39:11.921574  5017 net.cpp:172] Setting up conv4_3_ReLU0
I1003 12:39:11.921591  5017 net.cpp:186] Top shape: 10 640 8 8 (409600)
I1003 12:39:11.921597  5017 net.cpp:194] Memory required for data: 556195960
I1003 12:39:11.921602  5017 layer_factory.hpp:77] Creating layer conv4_Drop3
I1003 12:39:11.921609  5017 net.cpp:128] Creating Layer conv4_Drop3
I1003 12:39:11.921614  5017 net.cpp:558] conv4_Drop3 <- conv4_3_0
I1003 12:39:11.921623  5017 net.cpp:509] conv4_Drop3 -> conv4_3_0 (in-place)
I1003 12:39:11.921665  5017 net.cpp:172] Setting up conv4_Drop3
I1003 12:39:11.921679  5017 net.cpp:186] Top shape: 10 640 8 8 (409600)
I1003 12:39:11.921682  5017 net.cpp:194] Memory required for data: 557834360
I1003 12:39:11.921686  5017 layer_factory.hpp:77] Creating layer conv4_3_1
I1003 12:39:11.921705  5017 net.cpp:128] Creating Layer conv4_3_1
I1003 12:39:11.921710  5017 net.cpp:558] conv4_3_1 <- conv4_3_0
I1003 12:39:11.921716  5017 net.cpp:522] conv4_3_1 -> conv4_3_1
I1003 12:39:11.991736  5017 net.cpp:172] Setting up conv4_3_1
I1003 12:39:11.991796  5017 net.cpp:186] Top shape: 10 640 8 8 (409600)
I1003 12:39:11.991801  5017 net.cpp:194] Memory required for data: 559472760
I1003 12:39:11.991817  5017 layer_factory.hpp:77] Creating layer conv4_3bn1
I1003 12:39:11.991833  5017 net.cpp:128] Creating Layer conv4_3bn1
I1003 12:39:11.991842  5017 net.cpp:558] conv4_3bn1 <- conv4_3_1
I1003 12:39:11.991858  5017 net.cpp:509] conv4_3bn1 -> conv4_3_1 (in-place)
I1003 12:39:11.992224  5017 net.cpp:172] Setting up conv4_3bn1
I1003 12:39:11.992236  5017 net.cpp:186] Top shape: 10 640 8 8 (409600)
I1003 12:39:11.992241  5017 net.cpp:194] Memory required for data: 561111160
I1003 12:39:11.992252  5017 layer_factory.hpp:77] Creating layer conv4_3_scale1
I1003 12:39:11.992261  5017 net.cpp:128] Creating Layer conv4_3_scale1
I1003 12:39:11.992266  5017 net.cpp:558] conv4_3_scale1 <- conv4_3_1
I1003 12:39:11.992275  5017 net.cpp:509] conv4_3_scale1 -> conv4_3_1 (in-place)
I1003 12:39:11.992341  5017 layer_factory.hpp:77] Creating layer conv4_3_scale1
I1003 12:39:11.992559  5017 net.cpp:172] Setting up conv4_3_scale1
I1003 12:39:11.992570  5017 net.cpp:186] Top shape: 10 640 8 8 (409600)
I1003 12:39:11.992575  5017 net.cpp:194] Memory required for data: 562749560
I1003 12:39:11.992583  5017 layer_factory.hpp:77] Creating layer conv4_Eltwise_3
I1003 12:39:11.992594  5017 net.cpp:128] Creating Layer conv4_Eltwise_3
I1003 12:39:11.992599  5017 net.cpp:558] conv4_Eltwise_3 <- conv4_Eltwise_2_conv4_2ReLU_1_0_split_1
I1003 12:39:11.992647  5017 net.cpp:558] conv4_Eltwise_3 <- conv4_3_1
I1003 12:39:11.992655  5017 net.cpp:522] conv4_Eltwise_3 -> conv4_Eltwise_3
I1003 12:39:11.992696  5017 net.cpp:172] Setting up conv4_Eltwise_3
I1003 12:39:11.992705  5017 net.cpp:186] Top shape: 10 640 8 8 (409600)
I1003 12:39:11.992709  5017 net.cpp:194] Memory required for data: 564387960
I1003 12:39:11.992713  5017 layer_factory.hpp:77] Creating layer conv4_3ReLU_1
I1003 12:39:11.992722  5017 net.cpp:128] Creating Layer conv4_3ReLU_1
I1003 12:39:11.992725  5017 net.cpp:558] conv4_3ReLU_1 <- conv4_Eltwise_3
I1003 12:39:11.992733  5017 net.cpp:509] conv4_3ReLU_1 -> conv4_Eltwise_3 (in-place)
I1003 12:39:11.993227  5017 net.cpp:172] Setting up conv4_3ReLU_1
I1003 12:39:11.993249  5017 net.cpp:186] Top shape: 10 640 8 8 (409600)
I1003 12:39:11.993253  5017 net.cpp:194] Memory required for data: 566026360
I1003 12:39:11.993259  5017 layer_factory.hpp:77] Creating layer conv4_Eltwise_3_conv4_3ReLU_1_0_split
I1003 12:39:11.993270  5017 net.cpp:128] Creating Layer conv4_Eltwise_3_conv4_3ReLU_1_0_split
I1003 12:39:11.993275  5017 net.cpp:558] conv4_Eltwise_3_conv4_3ReLU_1_0_split <- conv4_Eltwise_3
I1003 12:39:11.993284  5017 net.cpp:522] conv4_Eltwise_3_conv4_3ReLU_1_0_split -> conv4_Eltwise_3_conv4_3ReLU_1_0_split_0
I1003 12:39:11.993294  5017 net.cpp:522] conv4_Eltwise_3_conv4_3ReLU_1_0_split -> conv4_Eltwise_3_conv4_3ReLU_1_0_split_1
I1003 12:39:11.993371  5017 net.cpp:172] Setting up conv4_Eltwise_3_conv4_3ReLU_1_0_split
I1003 12:39:11.993381  5017 net.cpp:186] Top shape: 10 640 8 8 (409600)
I1003 12:39:11.993389  5017 net.cpp:186] Top shape: 10 640 8 8 (409600)
I1003 12:39:11.993393  5017 net.cpp:194] Memory required for data: 569303160
I1003 12:39:11.993397  5017 layer_factory.hpp:77] Creating layer conv4_4_0
I1003 12:39:11.993412  5017 net.cpp:128] Creating Layer conv4_4_0
I1003 12:39:11.993417  5017 net.cpp:558] conv4_4_0 <- conv4_Eltwise_3_conv4_3ReLU_1_0_split_0
I1003 12:39:11.993423  5017 net.cpp:522] conv4_4_0 -> conv4_4_0
I1003 12:39:12.063536  5017 net.cpp:172] Setting up conv4_4_0
I1003 12:39:12.063593  5017 net.cpp:186] Top shape: 10 640 8 8 (409600)
I1003 12:39:12.063598  5017 net.cpp:194] Memory required for data: 570941560
I1003 12:39:12.063617  5017 layer_factory.hpp:77] Creating layer conv4_4_bn0
I1003 12:39:12.063632  5017 net.cpp:128] Creating Layer conv4_4_bn0
I1003 12:39:12.063639  5017 net.cpp:558] conv4_4_bn0 <- conv4_4_0
I1003 12:39:12.063655  5017 net.cpp:509] conv4_4_bn0 -> conv4_4_0 (in-place)
I1003 12:39:12.064030  5017 net.cpp:172] Setting up conv4_4_bn0
I1003 12:39:12.064049  5017 net.cpp:186] Top shape: 10 640 8 8 (409600)
I1003 12:39:12.064052  5017 net.cpp:194] Memory required for data: 572579960
I1003 12:39:12.064064  5017 layer_factory.hpp:77] Creating layer conv4_4_scale0
I1003 12:39:12.064072  5017 net.cpp:128] Creating Layer conv4_4_scale0
I1003 12:39:12.064076  5017 net.cpp:558] conv4_4_scale0 <- conv4_4_0
I1003 12:39:12.064085  5017 net.cpp:509] conv4_4_scale0 -> conv4_4_0 (in-place)
I1003 12:39:12.064147  5017 layer_factory.hpp:77] Creating layer conv4_4_scale0
I1003 12:39:12.064352  5017 net.cpp:172] Setting up conv4_4_scale0
I1003 12:39:12.064366  5017 net.cpp:186] Top shape: 10 640 8 8 (409600)
I1003 12:39:12.064370  5017 net.cpp:194] Memory required for data: 574218360
I1003 12:39:12.064378  5017 layer_factory.hpp:77] Creating layer conv4_4_ReLU0
I1003 12:39:12.064386  5017 net.cpp:128] Creating Layer conv4_4_ReLU0
I1003 12:39:12.064390  5017 net.cpp:558] conv4_4_ReLU0 <- conv4_4_0
I1003 12:39:12.064395  5017 net.cpp:509] conv4_4_ReLU0 -> conv4_4_0 (in-place)
I1003 12:39:12.064673  5017 net.cpp:172] Setting up conv4_4_ReLU0
I1003 12:39:12.064693  5017 net.cpp:186] Top shape: 10 640 8 8 (409600)
I1003 12:39:12.064700  5017 net.cpp:194] Memory required for data: 575856760
I1003 12:39:12.064704  5017 layer_factory.hpp:77] Creating layer conv4_Drop4
I1003 12:39:12.064715  5017 net.cpp:128] Creating Layer conv4_Drop4
I1003 12:39:12.064720  5017 net.cpp:558] conv4_Drop4 <- conv4_4_0
I1003 12:39:12.064769  5017 net.cpp:509] conv4_Drop4 -> conv4_4_0 (in-place)
I1003 12:39:12.064815  5017 net.cpp:172] Setting up conv4_Drop4
I1003 12:39:12.064826  5017 net.cpp:186] Top shape: 10 640 8 8 (409600)
I1003 12:39:12.064831  5017 net.cpp:194] Memory required for data: 577495160
I1003 12:39:12.064836  5017 layer_factory.hpp:77] Creating layer conv4_4_1
I1003 12:39:12.064848  5017 net.cpp:128] Creating Layer conv4_4_1
I1003 12:39:12.064852  5017 net.cpp:558] conv4_4_1 <- conv4_4_0
I1003 12:39:12.064862  5017 net.cpp:522] conv4_4_1 -> conv4_4_1
I1003 12:39:12.135082  5017 net.cpp:172] Setting up conv4_4_1
I1003 12:39:12.135141  5017 net.cpp:186] Top shape: 10 640 8 8 (409600)
I1003 12:39:12.135146  5017 net.cpp:194] Memory required for data: 579133560
I1003 12:39:12.135164  5017 layer_factory.hpp:77] Creating layer conv4_4bn1
I1003 12:39:12.135181  5017 net.cpp:128] Creating Layer conv4_4bn1
I1003 12:39:12.135190  5017 net.cpp:558] conv4_4bn1 <- conv4_4_1
I1003 12:39:12.135205  5017 net.cpp:509] conv4_4bn1 -> conv4_4_1 (in-place)
I1003 12:39:12.135578  5017 net.cpp:172] Setting up conv4_4bn1
I1003 12:39:12.135591  5017 net.cpp:186] Top shape: 10 640 8 8 (409600)
I1003 12:39:12.135596  5017 net.cpp:194] Memory required for data: 580771960
I1003 12:39:12.135607  5017 layer_factory.hpp:77] Creating layer conv4_4_scale1
I1003 12:39:12.135615  5017 net.cpp:128] Creating Layer conv4_4_scale1
I1003 12:39:12.135620  5017 net.cpp:558] conv4_4_scale1 <- conv4_4_1
I1003 12:39:12.135628  5017 net.cpp:509] conv4_4_scale1 -> conv4_4_1 (in-place)
I1003 12:39:12.135694  5017 layer_factory.hpp:77] Creating layer conv4_4_scale1
I1003 12:39:12.135902  5017 net.cpp:172] Setting up conv4_4_scale1
I1003 12:39:12.135913  5017 net.cpp:186] Top shape: 10 640 8 8 (409600)
I1003 12:39:12.135917  5017 net.cpp:194] Memory required for data: 582410360
I1003 12:39:12.135926  5017 layer_factory.hpp:77] Creating layer conv4_Eltwise_4
I1003 12:39:12.135936  5017 net.cpp:128] Creating Layer conv4_Eltwise_4
I1003 12:39:12.135941  5017 net.cpp:558] conv4_Eltwise_4 <- conv4_Eltwise_3_conv4_3ReLU_1_0_split_1
I1003 12:39:12.135946  5017 net.cpp:558] conv4_Eltwise_4 <- conv4_4_1
I1003 12:39:12.135956  5017 net.cpp:522] conv4_Eltwise_4 -> conv4_Eltwise_4
I1003 12:39:12.135991  5017 net.cpp:172] Setting up conv4_Eltwise_4
I1003 12:39:12.136004  5017 net.cpp:186] Top shape: 10 640 8 8 (409600)
I1003 12:39:12.136008  5017 net.cpp:194] Memory required for data: 584048760
I1003 12:39:12.136013  5017 layer_factory.hpp:77] Creating layer conv4_4ReLU_1
I1003 12:39:12.136019  5017 net.cpp:128] Creating Layer conv4_4ReLU_1
I1003 12:39:12.136024  5017 net.cpp:558] conv4_4ReLU_1 <- conv4_Eltwise_4
I1003 12:39:12.136029  5017 net.cpp:509] conv4_4ReLU_1 -> conv4_Eltwise_4 (in-place)
I1003 12:39:12.136301  5017 net.cpp:172] Setting up conv4_4ReLU_1
I1003 12:39:12.136320  5017 net.cpp:186] Top shape: 10 640 8 8 (409600)
I1003 12:39:12.136325  5017 net.cpp:194] Memory required for data: 585687160
I1003 12:39:12.136329  5017 layer_factory.hpp:77] Creating layer Pooling1
I1003 12:39:12.136338  5017 net.cpp:128] Creating Layer Pooling1
I1003 12:39:12.136343  5017 net.cpp:558] Pooling1 <- conv4_Eltwise_4
I1003 12:39:12.136350  5017 net.cpp:522] Pooling1 -> Pooling1
I1003 12:39:12.136878  5017 net.cpp:172] Setting up Pooling1
I1003 12:39:12.136903  5017 net.cpp:186] Top shape: 10 640 1 1 (6400)
I1003 12:39:12.136906  5017 net.cpp:194] Memory required for data: 585712760
I1003 12:39:12.136911  5017 layer_factory.hpp:77] Creating layer fc1
I1003 12:39:12.136922  5017 net.cpp:128] Creating Layer fc1
I1003 12:39:12.136927  5017 net.cpp:558] fc1 <- Pooling1
I1003 12:39:12.136937  5017 net.cpp:522] fc1 -> fc1
I1003 12:39:12.137246  5017 net.cpp:172] Setting up fc1
I1003 12:39:12.137257  5017 net.cpp:186] Top shape: 10 10 (100)
I1003 12:39:12.137262  5017 net.cpp:194] Memory required for data: 585713160
I1003 12:39:12.137271  5017 layer_factory.hpp:77] Creating layer fc1_fc1_0_split
I1003 12:39:12.137282  5017 net.cpp:128] Creating Layer fc1_fc1_0_split
I1003 12:39:12.137326  5017 net.cpp:558] fc1_fc1_0_split <- fc1
I1003 12:39:12.137336  5017 net.cpp:522] fc1_fc1_0_split -> fc1_fc1_0_split_0
I1003 12:39:12.137344  5017 net.cpp:522] fc1_fc1_0_split -> fc1_fc1_0_split_1
I1003 12:39:12.137408  5017 net.cpp:172] Setting up fc1_fc1_0_split
I1003 12:39:12.137420  5017 net.cpp:186] Top shape: 10 10 (100)
I1003 12:39:12.137425  5017 net.cpp:186] Top shape: 10 10 (100)
I1003 12:39:12.137429  5017 net.cpp:194] Memory required for data: 585713960
I1003 12:39:12.137434  5017 layer_factory.hpp:77] Creating layer Softmax1
I1003 12:39:12.137439  5017 net.cpp:128] Creating Layer Softmax1
I1003 12:39:12.137444  5017 net.cpp:558] Softmax1 <- fc1_fc1_0_split_0
I1003 12:39:12.137449  5017 net.cpp:558] Softmax1 <- label_Data1_1_split_0
I1003 12:39:12.137455  5017 net.cpp:522] Softmax1 -> Softmax1
…
