…
I1012 11:55:10.920148 31118 upgrade_proto.cpp:82] Successfully upgraded batch norm layers using deprecated params.
I1012 11:55:10.921447 31118 net.cpp:82] Initializing net from parameters: 
name: "ResNet-20"
state {
  phase: TRAIN
  level: 0
  stage: ""
}
layer {
  name: "Data1"
  type: "Data"
  top: "data"
  top: "label"
  transform_param {
    scale: 0.00390625
    mirror: true
    crop_size: 32
    mean_value: 125.3
    mean_value: 122.9
    mean_value: 113.8
  }
  data_param {
    source: "/home/lijianfei/datasets/cifar10_40/train_lmdb"
    batch_size: 64
    backend: LMDB
  }
  image_data_param {
    shuffle: true
  }
}
layer {
  name: "conv1"
  type: "Convolution"
  bottom: "data"
  top: "conv1"
  param {
    lr_mult: 1
    decay_mult: 1
  }
  param {
    lr_mult: 2
    decay_mult: 0
  }
  convolution_param {
    num_output: 16
    bias_term: true
    pad: 1
    kernel_size: 3
    stride: 1
    weight_filler {
      type: "msra"
    }
    bias_filler {
      type: "constant"
      value: 0
    }
  }
}
layer {
  name: "conv1/bn"
  type: "BatchNorm"
  bottom: "conv1"
  top: "conv1"
  param {
    lr_mult: 0
    decay_mult: 0
  }
  param {
    lr_mult: 0
    decay_mult: 0
  }
  param {
    lr_mult: 0
    decay_mult: 0
  }
  batch_norm_param {
    use_global_stats: false
  }
}
layer {
  name: "conv1/scale"
  type: "Scale"
  bottom: "conv1"
  top: "conv1"
  scale_param {
    bias_term: true
  }
}
layer {
  name: "conv1/ReLU"
  type: "ReLU"
  bottom: "conv1"
  top: "conv1"
}
layer {
  name: "conv2_1_0"
  type: "Convolution"
  bottom: "conv1"
  top: "conv2_1_0"
  param {
    lr_mult: 1
    decay_mult: 1
  }
  param {
    lr_mult: 2
    decay_mult: 0
  }
  convolution_param {
    num_output: 16
    bias_term: true
    pad: 1
    kernel_size: 3
    stride: 1
    weight_filler {
      type: "msra"
    }
    bias_filler {
      type: "constant"
      value: 0
    }
  }
}
layer {
  name: "conv2_1_bn0"
  type: "BatchNorm"
  bottom: "conv2_1_0"
  top: "conv2_1_0"
  param {
    lr_mult: 0
    decay_mult: 0
  }
  param {
    lr_mult: 0
    decay_mult: 0
  }
  param {
    lr_mult: 0
    decay_mult: 0
  }
  batch_norm_param {
    use_global_stats: false
  }
}
layer {
  name: "conv2_1_scale0"
  type: "Scale"
  bottom: "conv2_1_0"
  top: "conv2_1_0"
  scale_param {
    bias_term: true
  }
}
layer {
  name: "conv2_1_ReLU0"
  type: "ReLU"
  bottom: "conv2_1_0"
  top: "conv2_1_0"
}
layer {
  name: "conv2_1_1"
  type: "Convolution"
  bottom: "conv2_1_0"
  top: "conv2_1_1"
  param {
    lr_mult: 1
    decay_mult: 1
  }
  param {
    lr_mult: 2
    decay_mult: 0
  }
  convolution_param {
    num_output: 16
    bias_term: true
    pad: 1
    kernel_size: 3
    stride: 1
    weight_filler {
      type: "msra"
    }
    bias_filler {
      type: "constant"
      value: 0
    }
  }
}
layer {
  name: "conv2_1_bn1"
  type: "BatchNorm"
  bottom: "conv2_1_1"
  top: "conv2_1_1"
  param {
    lr_mult: 0
    decay_mult: 0
  }
  param {
    lr_mult: 0
    decay_mult: 0
  }
  param {
    lr_mult: 0
    decay_mult: 0
  }
  batch_norm_param {
    use_global_stats: false
  }
}
layer {
  name: "conv2_1_scale1"
  type: "Scale"
  bottom: "conv2_1_1"
  top: "conv2_1_1"
  scale_param {
    bias_term: true
  }
}
layer {
  name: "conv2_1_Pooling"
  type: "Pooling"
  bottom: "conv2_1_1"
  top: "conv2_1_Pooling"
  pooling_param {
    pool: AVE
    engine: CAFFE
    global_pooling: true
  }
}
layer {
  name: "conv2_1_2"
  type: "Convolution"
  bottom: "conv2_1_Pooling"
  top: "conv2_1_2"
  param {
    lr_mult: 1
    decay_mult: 1
  }
  param {
    lr_mult: 2
    decay_mult: 0
  }
  convolution_param {
    num_output: 16
    bias_term: true
    pad: 0
    kernel_size: 1
    stride: 1
    weight_filler {
      type: "msra"
    }
    bias_filler {
      type: "constant"
      value: 0
    }
  }
}
layer {
  name: "conv2_1_ReLU2"
  type: "ReLU"
  bottom: "conv2_1_2"
  top: "conv2_1_2"
}
layer {
  name: "conv2_1_3"
  type: "Convolution"
  bottom: "conv2_1_2"
  top: "conv2_1_3"
  param {
    lr_mult: 1
    decay_mult: 1
  }
  param {
    lr_mult: 2
    decay_mult: 0
  }
  convolution_param {
    num_output: 16
    bias_term: true
    pad: 0
    kernel_size: 1
    stride: 1
    weight_filler {
      type: "msra"
    }
    bias_filler {
      type: "constant"
      value: 0
    }
  }
}
layer {
  name: "conv2_1_Prob3"
  type: "Sigmoid"
  bottom: "conv2_1_3"
  top: "conv2_1_3"
}
layer {
  name: "conv2_Axpy_1"
  type: "Axpy"
  bottom: "conv2_1_3"
  bottom: "conv2_1_1"
  bottom: "conv1"
  top: "conv2_Axpy_1"
}
layer {
  name: "conv2_1ReLU_1"
  type: "ReLU"
  bottom: "conv2_Axpy_1"
  top: "conv2_Axpy_1"
}
layer {
  name: "conv2_2_0"
  type: "Convolution"
  bottom: "conv2_Axpy_1"
  top: "conv2_2_0"
  param {
    lr_mult: 1
    decay_mult: 1
  }
  param {
    lr_mult: 2
    decay_mult: 0
  }
  convolution_param {
    num_output: 16
    bias_term: true
    pad: 1
    kernel_size: 3
    stride: 1
    weight_filler {
      type: "msra"
    }
    bias_filler {
      type: "constant"
      value: 0
    }
  }
}
layer {
  name: "conv2_2_bn0"
  type: "BatchNorm"
  bottom: "conv2_2_0"
  top: "conv2_2_0"
  param {
    lr_mult: 0
    decay_mult: 0
  }
  param {
    lr_mult: 0
    decay_mult: 0
  }
  param {
    lr_mult: 0
    decay_mult: 0
  }
  batch_norm_param {
    use_global_stats: false
  }
}
layer {
  name: "conv2_2_scale0"
  type: "Scale"
  bottom: "conv2_2_0"
  top: "conv2_2_0"
  scale_param {
    bias_term: true
  }
}
layer {
  name: "conv2_2_ReLU0"
  type: "ReLU"
  bottom: "conv2_2_0"
  top: "conv2_2_0"
}
layer {
  name: "conv2_2_1"
  type: "Convolution"
  bottom: "conv2_2_0"
  top: "conv2_2_1"
  param {
    lr_mult: 1
    decay_mult: 1
  }
  param {
    lr_mult: 2
    decay_mult: 0
  }
  convolution_param {
    num_output: 16
    bias_term: true
    pad: 1
    kernel_size: 3
    stride: 1
    weight_filler {
      type: "msra"
    }
    bias_filler {
      type: "constant"
      value: 0
    }
  }
}
layer {
  name: "conv2_2_bn1"
  type: "BatchNorm"
  bottom: "conv2_2_1"
  top: "conv2_2_1"
  param {
    lr_mult: 0
    decay_mult: 0
  }
  param {
    lr_mult: 0
    decay_mult: 0
  }
  param {
    lr_mult: 0
    decay_mult: 0
  }
  batch_norm_param {
    use_global_stats: false
  }
}
layer {
  name: "conv2_2_scale1"
  type: "Scale"
  bottom: "conv2_2_1"
  top: "conv2_2_1"
  scale_param {
    bias_term: true
  }
}
layer {
  name: "conv2_2_Pooling"
  type: "Pooling"
  bottom: "conv2_2_1"
  top: "conv2_2_Pooling"
  pooling_param {
    pool: AVE
    engine: CAFFE
    global_pooling: true
  }
}
layer {
  name: "conv2_2_2"
  type: "Convolution"
  bottom: "conv2_2_Pooling"
  top: "conv2_2_2"
  param {
    lr_mult: 1
    decay_mult: 1
  }
  param {
    lr_mult: 2
    decay_mult: 0
  }
  convolution_param {
    num_output: 16
    bias_term: true
    pad: 0
    kernel_size: 1
    stride: 1
    weight_filler {
      type: "msra"
    }
    bias_filler {
      type: "constant"
      value: 0
    }
  }
}
layer {
  name: "conv2_2_ReLU2"
  type: "ReLU"
  bottom: "conv2_2_2"
  top: "conv2_2_2"
}
layer {
  name: "conv2_2_3"
  type: "Convolution"
  bottom: "conv2_2_2"
  top: "conv2_2_3"
  param {
    lr_mult: 1
    decay_mult: 1
  }
  param {
    lr_mult: 2
    decay_mult: 0
  }
  convolution_param {
    num_output: 16
    bias_term: true
    pad: 0
    kernel_size: 1
    stride: 1
    weight_filler {
      type: "msra"
    }
    bias_filler {
      type: "constant"
      value: 0
    }
  }
}
layer {
  name: "conv2_2_Prob3"
  type: "Sigmoid"
  bottom: "conv2_2_3"
  top: "conv2_2_3"
}
layer {
  name: "conv2_Axpy_2"
  type: "Axpy"
  bottom: "conv2_2_3"
  bottom: "conv2_2_1"
  bottom: "conv2_Axpy_1"
  top: "conv2_Axpy_2"
}
layer {
  name: "conv2_2ReLU_1"
  type: "ReLU"
  bottom: "conv2_Axpy_2"
  top: "conv2_Axpy_2"
}
layer {
  name: "conv2_3_0"
  type: "Convolution"
  bottom: "conv2_Axpy_2"
  top: "conv2_3_0"
  param {
    lr_mult: 1
    decay_mult: 1
  }
  param {
    lr_mult: 2
    decay_mult: 0
  }
  convolution_param {
    num_output: 16
    bias_term: true
    pad: 1
    kernel_size: 3
    stride: 1
    weight_filler {
      type: "msra"
    }
    bias_filler {
      type: "constant"
      value: 0
    }
  }
}
layer {
  name: "conv2_3_bn0"
  type: "BatchNorm"
  bottom: "conv2_3_0"
  top: "conv2_3_0"
  param {
    lr_mult: 0
    decay_mult: 0
  }
  param {
    lr_mult: 0
    decay_mult: 0
  }
  param {
    lr_mult: 0
    decay_mult: 0
  }
  batch_norm_param {
    use_global_stats: false
  }
}
layer {
  name: "conv2_3_scale0"
  type: "Scale"
  bottom: "conv2_3_0"
  top: "conv2_3_0"
  scale_param {
    bias_term: true
  }
}
layer {
  name: "conv2_3_ReLU0"
  type: "ReLU"
  bottom: "conv2_3_0"
  top: "conv2_3_0"
}
layer {
  name: "conv2_3_1"
  type: "Convolution"
  bottom: "conv2_3_0"
  top: "conv2_3_1"
  param {
    lr_mult: 1
    decay_mult: 1
  }
  param {
    lr_mult: 2
    decay_mult: 0
  }
  convolution_param {
    num_output: 16
    bias_term: true
    pad: 1
    kernel_size: 3
    stride: 1
    weight_filler {
      type: "msra"
    }
    bias_filler {
      type: "constant"
      value: 0
    }
  }
}
layer {
  name: "conv2_3_bn1"
  type: "BatchNorm"
  bottom: "conv2_3_1"
  top: "conv2_3_1"
  param {
    lr_mult: 0
    decay_mult: 0
  }
  param {
    lr_mult: 0
    decay_mult: 0
  }
  param {
    lr_mult: 0
    decay_mult: 0
  }
  batch_norm_param {
    use_global_stats: false
  }
}
layer {
  name: "conv2_3_scale1"
  type: "Scale"
  bottom: "conv2_3_1"
  top: "conv2_3_1"
  scale_param {
    bias_term: true
  }
}
layer {
  name: "conv2_3_Pooling"
  type: "Pooling"
  bottom: "conv2_3_1"
  top: "conv2_3_Pooling"
  pooling_param {
    pool: AVE
    engine: CAFFE
    global_pooling: true
  }
}
layer {
  name: "conv2_3_2"
  type: "Convolution"
  bottom: "conv2_3_Pooling"
  top: "conv2_3_2"
  param {
    lr_mult: 1
    decay_mult: 1
  }
  param {
    lr_mult: 2
    decay_mult: 0
  }
  convolution_param {
    num_output: 16
    bias_term: true
    pad: 0
    kernel_size: 1
    stride: 1
    weight_filler {
      type: "msra"
    }
    bias_filler {
      type: "constant"
      value: 0
    }
  }
}
layer {
  name: "conv2_3_ReLU2"
  type: "ReLU"
  bottom: "conv2_3_2"
  top: "conv2_3_2"
}
layer {
  name: "conv2_3_3"
  type: "Convolution"
  bottom: "conv2_3_2"
  top: "conv2_3_3"
  param {
    lr_mult: 1
    decay_mult: 1
  }
  param {
    lr_mult: 2
    decay_mult: 0
  }
  convolution_param {
    num_output: 16
    bias_term: true
    pad: 0
    kernel_size: 1
    stride: 1
    weight_filler {
      type: "msra"
    }
    bias_filler {
      type: "constant"
      value: 0
    }
  }
}
layer {
  name: "conv2_3_Prob3"
  type: "Sigmoid"
  bottom: "conv2_3_3"
  top: "conv2_3_3"
}
layer {
  name: "conv2_Axpy_3"
  type: "Axpy"
  bottom: "conv2_3_3"
  bottom: "conv2_3_1"
  bottom: "conv2_Axpy_2"
  top: "conv2_Axpy_3"
}
layer {
  name: "conv2_3ReLU_1"
  type: "ReLU"
  bottom: "conv2_Axpy_3"
  top: "conv2_Axpy_3"
}
layer {
  name: "conv3_1_0"
  type: "Convolution"
  bottom: "conv2_Axpy_3"
  top: "conv3_1_0"
  param {
    lr_mult: 1
    decay_mult: 1
  }
  param {
    lr_mult: 2
    decay_mult: 0
  }
  convolution_param {
    num_output: 32
    bias_term: true
    pad: 1
    kernel_size: 3
    stride: 2
    weight_filler {
      type: "msra"
    }
    bias_filler {
      type: "constant"
      value: 0
    }
  }
}
layer {
  name: "conv3_1_bn0"
  type: "BatchNorm"
  bottom: "conv3_1_0"
  top: "conv3_1_0"
  param {
    lr_mult: 0
    decay_mult: 0
  }
  param {
    lr_mult: 0
    decay_mult: 0
  }
  param {
    lr_mult: 0
    decay_mult: 0
  }
  batch_norm_param {
    use_global_stats: false
  }
}
layer {
  name: "conv3_1_scale0"
  type: "Scale"
  bottom: "conv3_1_0"
  top: "conv3_1_0"
  scale_param {
    bias_term: true
  }
}
layer {
  name: "conv3_1_ReLU0"
  type: "ReLU"
  bottom: "conv3_1_0"
  top: "conv3_1_0"
}
layer {
  name: "conv3_1_1"
  type: "Convolution"
  bottom: "conv3_1_0"
  top: "conv3_1_1"
  param {
    lr_mult: 1
    decay_mult: 1
  }
  param {
    lr_mult: 2
    decay_mult: 0
  }
  convolution_param {
    num_output: 32
    bias_term: true
    pad: 1
    kernel_size: 3
    stride: 1
    weight_filler {
      type: "msra"
    }
    bias_filler {
      type: "constant"
      value: 0
    }
  }
}
layer {
  name: "conv3_1_bn1"
  type: "BatchNorm"
  bottom: "conv3_1_1"
  top: "conv3_1_1"
  param {
    lr_mult: 0
    decay_mult: 0
  }
  param {
    lr_mult: 0
    decay_mult: 0
  }
  param {
    lr_mult: 0
    decay_mult: 0
  }
  batch_norm_param {
    use_global_stats: false
  }
}
layer {
  name: "conv3_1_scale1"
  type: "Scale"
  bottom: "conv3_1_1"
  top: "conv3_1_1"
  scale_param {
    bias_term: true
  }
}
layer {
  name: "conv3_1_Pooling"
  type: "Pooling"
  bottom: "conv3_1_1"
  top: "conv3_1_Pooling"
  pooling_param {
    pool: AVE
    engine: CAFFE
    global_pooling: true
  }
}
layer {
  name: "conv3_1_2"
  type: "Convolution"
  bottom: "conv3_1_Pooling"
  top: "conv3_1_2"
  param {
    lr_mult: 1
    decay_mult: 1
  }
  param {
    lr_mult: 2
    decay_mult: 0
  }
  convolution_param {
    num_output: 16
    bias_term: true
    pad: 0
    kernel_size: 1
    stride: 1
    weight_filler {
      type: "msra"
    }
    bias_filler {
      type: "constant"
      value: 0
    }
  }
}
layer {
  name: "conv3_1_ReLU2"
  type: "ReLU"
  bottom: "conv3_1_2"
  top: "conv3_1_2"
}
layer {
  name: "conv3_1_3"
  type: "Convolution"
  bottom: "conv3_1_2"
  top: "conv3_1_3"
  param {
    lr_mult: 1
    decay_mult: 1
  }
  param {
    lr_mult: 2
    decay_mult: 0
  }
  convolution_param {
    num_output: 32
    bias_term: true
    pad: 0
    kernel_size: 1
    stride: 1
    weight_filler {
      type: "msra"
    }
    bias_filler {
      type: "constant"
      value: 0
    }
  }
}
layer {
  name: "conv3_1_Prob3"
  type: "Sigmoid"
  bottom: "conv3_1_3"
  top: "conv3_1_3"
}
layer {
  name: "conv3_1_down"
  type: "Convolution"
  bottom: "conv2_Axpy_3"
  top: "conv3_1_down"
  param {
    lr_mult: 1
    decay_mult: 1
  }
  param {
    lr_mult: 2
    decay_mult: 0
  }
  convolution_param {
    num_output: 32
    bias_term: true
    pad: 0
    kernel_size: 1
    stride: 2
    weight_filler {
      type: "msra"
    }
    bias_filler {
      type: "constant"
      value: 0
    }
  }
}
layer {
  name: "conv3_1_bn_down"
  type: "BatchNorm"
  bottom: "conv3_1_down"
  top: "conv3_1_down"
  param {
    lr_mult: 0
    decay_mult: 0
  }
  param {
    lr_mult: 0
    decay_mult: 0
  }
  param {
    lr_mult: 0
    decay_mult: 0
  }
  batch_norm_param {
    use_global_stats: false
  }
}
layer {
  name: "conv3_1_scale_down"
  type: "Scale"
  bottom: "conv3_1_down"
  top: "conv3_1_down"
  scale_param {
    bias_term: true
  }
}
layer {
  name: "conv3_Axpy_1"
  type: "Axpy"
  bottom: "conv3_1_3"
  bottom: "conv3_1_1"
  bottom: "conv3_1_down"
  top: "conv3_Axpy_1"
}
layer {
  name: "conv3_1ReLU_1"
  type: "ReLU"
  bottom: "conv3_Axpy_1"
  top: "conv3_Axpy_1"
}
layer {
  name: "conv3_2_0"
  type: "Convolution"
  bottom: "conv3_Axpy_1"
  top: "conv3_2_0"
  param {
    lr_mult: 1
    decay_mult: 1
  }
  param {
    lr_mult: 2
    decay_mult: 0
  }
  convolution_param {
    num_output: 32
    bias_term: true
    pad: 1
    kernel_size: 3
    stride: 1
    weight_filler {
      type: "msra"
    }
    bias_filler {
      type: "constant"
      value: 0
    }
  }
}
layer {
  name: "conv3_2_bn0"
  type: "BatchNorm"
  bottom: "conv3_2_0"
  top: "conv3_2_0"
  param {
    lr_mult: 0
    decay_mult: 0
  }
  param {
    lr_mult: 0
    decay_mult: 0
  }
  param {
    lr_mult: 0
    decay_mult: 0
  }
  batch_norm_param {
    use_global_stats: false
  }
}
layer {
  name: "conv3_2_scale0"
  type: "Scale"
  bottom: "conv3_2_0"
  top: "conv3_2_0"
  scale_param {
    bias_term: true
  }
}
layer {
  name: "conv3_2_ReLU0"
  type: "ReLU"
  bottom: "conv3_2_0"
  top: "conv3_2_0"
}
layer {
  name: "conv3_2_1"
  type: "Convolution"
  bottom: "conv3_2_0"
  top: "conv3_2_1"
  param {
    lr_mult: 1
    decay_mult: 1
  }
  param {
    lr_mult: 2
    decay_mult: 0
  }
  convolution_param {
    num_output: 32
    bias_term: true
    pad: 1
    kernel_size: 3
    stride: 1
    weight_filler {
      type: "msra"
    }
    bias_filler {
      type: "constant"
      value: 0
    }
  }
}
layer {
  name: "conv3_2_bn1"
  type: "BatchNorm"
  bottom: "conv3_2_1"
  top: "conv3_2_1"
  param {
    lr_mult: 0
    decay_mult: 0
  }
  param {
    lr_mult: 0
    decay_mult: 0
  }
  param {
    lr_mult: 0
    decay_mult: 0
  }
  batch_norm_param {
    use_global_stats: false
  }
}
layer {
  name: "conv3_2_scale1"
  type: "Scale"
  bottom: "conv3_2_1"
  top: "conv3_2_1"
  scale_param {
    bias_term: true
  }
}
layer {
  name: "conv3_2_Pooling"
  type: "Pooling"
  bottom: "conv3_2_1"
  top: "conv3_2_Pooling"
  pooling_param {
    pool: AVE
    engine: CAFFE
    global_pooling: true
  }
}
layer {
  name: "conv3_2_2"
  type: "Convolution"
  bottom: "conv3_2_Pooling"
  top: "conv3_2_2"
  param {
    lr_mult: 1
    decay_mult: 1
  }
  param {
    lr_mult: 2
    decay_mult: 0
  }
  convolution_param {
    num_output: 16
    bias_term: true
    pad: 0
    kernel_size: 1
    stride: 1
    weight_filler {
      type: "msra"
    }
    bias_filler {
      type: "constant"
      value: 0
    }
  }
}
layer {
  name: "conv3_2_ReLU2"
  type: "ReLU"
  bottom: "conv3_2_2"
  top: "conv3_2_2"
}
layer {
  name: "conv3_2_3"
  type: "Convolution"
  bottom: "conv3_2_2"
  top: "conv3_2_3"
  param {
    lr_mult: 1
    decay_mult: 1
  }
  param {
    lr_mult: 2
    decay_mult: 0
  }
  convolution_param {
    num_output: 32
    bias_term: true
    pad: 0
    kernel_size: 1
    stride: 1
    weight_filler {
      type: "msra"
    }
    bias_filler {
      type: "constant"
      value: 0
    }
  }
}
layer {
  name: "conv3_2_Prob3"
  type: "Sigmoid"
  bottom: "conv3_2_3"
  top: "conv3_2_3"
}
layer {
  name: "conv3_Axpy_2"
  type: "Axpy"
  bottom: "conv3_2_3"
  bottom: "conv3_2_1"
  bottom: "conv3_Axpy_1"
  top: "conv3_Axpy_2"
}
layer {
  name: "conv3_2ReLU_1"
  type: "ReLU"
  bottom: "conv3_Axpy_2"
  top: "conv3_Axpy_2"
}
layer {
  name: "conv3_3_0"
  type: "Convolution"
  bottom: "conv3_Axpy_2"
  top: "conv3_3_0"
  param {
    lr_mult: 1
    decay_mult: 1
  }
  param {
    lr_mult: 2
    decay_mult: 0
  }
  convolution_param {
    num_output: 32
    bias_term: true
    pad: 1
    kernel_size: 3
    stride: 1
    weight_filler {
      type: "msra"
    }
    bias_filler {
      type: "constant"
      value: 0
    }
  }
}
layer {
  name: "conv3_3_bn0"
  type: "BatchNorm"
  bottom: "conv3_3_0"
  top: "conv3_3_0"
  param {
    lr_mult: 0
    decay_mult: 0
  }
  param {
    lr_mult: 0
    decay_mult: 0
  }
  param {
    lr_mult: 0
    decay_mult: 0
  }
  batch_norm_param {
    use_global_stats: false
  }
}
layer {
  name: "conv3_3_scale0"
  type: "Scale"
  bottom: "conv3_3_0"
  top: "conv3_3_0"
  scale_param {
    bias_term: true
  }
}
layer {
  name: "conv3_3_ReLU0"
  type: "ReLU"
  bottom: "conv3_3_0"
  top: "conv3_3_0"
}
layer {
  name: "conv3_3_1"
  type: "Convolution"
  bottom: "conv3_3_0"
  top: "conv3_3_1"
  param {
    lr_mult: 1
    decay_mult: 1
  }
  param {
    lr_mult: 2
    decay_mult: 0
  }
  convolution_param {
    num_output: 32
    bias_term: true
    pad: 1
    kernel_size: 3
    stride: 1
    weight_filler {
      type: "msra"
    }
    bias_filler {
      type: "constant"
      value: 0
    }
  }
}
layer {
  name: "conv3_3_bn1"
  type: "BatchNorm"
  bottom: "conv3_3_1"
  top: "conv3_3_1"
  param {
    lr_mult: 0
    decay_mult: 0
  }
  param {
    lr_mult: 0
    decay_mult: 0
  }
  param {
    lr_mult: 0
    decay_mult: 0
  }
  batch_norm_param {
    use_global_stats: false
  }
}
layer {
  name: "conv3_3_scale1"
  type: "Scale"
  bottom: "conv3_3_1"
  top: "conv3_3_1"
  scale_param {
    bias_term: true
  }
}
layer {
  name: "conv3_3_Pooling"
  type: "Pooling"
  bottom: "conv3_3_1"
  top: "conv3_3_Pooling"
  pooling_param {
    pool: AVE
    engine: CAFFE
    global_pooling: true
  }
}
layer {
  name: "conv3_3_2"
  type: "Convolution"
  bottom: "conv3_3_Pooling"
  top: "conv3_3_2"
  param {
    lr_mult: 1
    decay_mult: 1
  }
  param {
    lr_mult: 2
    decay_mult: 0
  }
  convolution_param {
    num_output: 16
    bias_term: true
    pad: 0
    kernel_size: 1
    stride: 1
    weight_filler {
      type: "msra"
    }
    bias_filler {
      type: "constant"
      value: 0
    }
  }
}
layer {
  name: "conv3_3_ReLU2"
  type: "ReLU"
  bottom: "conv3_3_2"
  top: "conv3_3_2"
}
layer {
  name: "conv3_3_3"
  type: "Convolution"
  bottom: "conv3_3_2"
  top: "conv3_3_3"
  param {
    lr_mult: 1
    decay_mult: 1
  }
  param {
    lr_mult: 2
    decay_mult: 0
  }
  convolution_param {
    num_output: 32
    bias_term: true
    pad: 0
    kernel_size: 1
    stride: 1
    weight_filler {
      type: "msra"
    }
    bias_filler {
      type: "constant"
      value: 0
    }
  }
}
layer {
  name: "conv3_3_Prob3"
  type: "Sigmoid"
  bottom: "conv3_3_3"
  top: "conv3_3_3"
}
layer {
  name: "conv3_Axpy_3"
  type: "Axpy"
  bottom: "conv3_3_3"
  bottom: "conv3_3_1"
  bottom: "conv3_Axpy_2"
  top: "conv3_Axpy_3"
}
layer {
  name: "conv3_3ReLU_1"
  type: "ReLU"
  bottom: "conv3_Axpy_3"
  top: "conv3_Axpy_3"
}
layer {
  name: "conv4_1_0"
  type: "Convolution"
  bottom: "conv3_Axpy_3"
  top: "conv4_1_0"
  param {
    lr_mult: 1
    decay_mult: 1
  }
  param {
    lr_mult: 2
    decay_mult: 0
  }
  convolution_param {
    num_output: 64
    bias_term: true
    pad: 1
    kernel_size: 3
    stride: 2
    weight_filler {
      type: "msra"
    }
    bias_filler {
      type: "constant"
      value: 0
    }
  }
}
layer {
  name: "conv4_1_bn0"
  type: "BatchNorm"
  bottom: "conv4_1_0"
  top: "conv4_1_0"
  param {
    lr_mult: 0
    decay_mult: 0
  }
  param {
    lr_mult: 0
    decay_mult: 0
  }
  param {
    lr_mult: 0
    decay_mult: 0
  }
  batch_norm_param {
    use_global_stats: false
  }
}
layer {
  name: "conv4_1_scale0"
  type: "Scale"
  bottom: "conv4_1_0"
  top: "conv4_1_0"
  scale_param {
    bias_term: true
  }
}
layer {
  name: "conv4_1_ReLU0"
  type: "ReLU"
  bottom: "conv4_1_0"
  top: "conv4_1_0"
}
layer {
  name: "conv4_1_1"
  type: "Convolution"
  bottom: "conv4_1_0"
  top: "conv4_1_1"
  param {
    lr_mult: 1
    decay_mult: 1
  }
  param {
    lr_mult: 2
    decay_mult: 0
  }
  convolution_param {
    num_output: 64
    bias_term: true
    pad: 1
    kernel_size: 3
    stride: 1
    weight_filler {
      type: "msra"
    }
    bias_filler {
      type: "constant"
      value: 0
    }
  }
}
layer {
  name: "conv4_1_bn1"
  type: "BatchNorm"
  bottom: "conv4_1_1"
  top: "conv4_1_1"
  param {
    lr_mult: 0
    decay_mult: 0
  }
  param {
    lr_mult: 0
    decay_mult: 0
  }
  param {
    lr_mult: 0
    decay_mult: 0
  }
  batch_norm_param {
    use_global_stats: false
  }
}
layer {
  name: "conv4_1_scale1"
  type: "Scale"
  bottom: "conv4_1_1"
  top: "conv4_1_1"
  scale_param {
    bias_term: true
  }
}
layer {
  name: "conv4_1_Pooling"
  type: "Pooling"
  bottom: "conv4_1_1"
  top: "conv4_1_Pooling"
  pooling_param {
    pool: AVE
    engine: CAFFE
    global_pooling: true
  }
}
layer {
  name: "conv4_1_2"
  type: "Convolution"
  bottom: "conv4_1_Pooling"
  top: "conv4_1_2"
  param {
    lr_mult: 1
    decay_mult: 1
  }
  param {
    lr_mult: 2
    decay_mult: 0
  }
  convolution_param {
    num_output: 16
    bias_term: true
    pad: 0
    kernel_size: 1
    stride: 1
    weight_filler {
      type: "msra"
    }
    bias_filler {
      type: "constant"
      value: 0
    }
  }
}
layer {
  name: "conv4_1_ReLU2"
  type: "ReLU"
  bottom: "conv4_1_2"
  top: "conv4_1_2"
}
layer {
  name: "conv4_1_3"
  type: "Convolution"
  bottom: "conv4_1_2"
  top: "conv4_1_3"
  param {
    lr_mult: 1
    decay_mult: 1
  }
  param {
    lr_mult: 2
    decay_mult: 0
  }
  convolution_param {
    num_output: 64
    bias_term: true
    pad: 0
    kernel_size: 1
    stride: 1
    weight_filler {
      type: "msra"
    }
    bias_filler {
      type: "constant"
      value: 0
    }
  }
}
layer {
  name: "conv4_1_Prob3"
  type: "Sigmoid"
  bottom: "conv4_1_3"
  top: "conv4_1_3"
}
layer {
  name: "conv4_1_down"
  type: "Convolution"
  bottom: "conv3_Axpy_3"
  top: "conv4_1_down"
  param {
    lr_mult: 1
    decay_mult: 1
  }
  param {
    lr_mult: 2
    decay_mult: 0
  }
  convolution_param {
    num_output: 64
    bias_term: true
    pad: 0
    kernel_size: 1
    stride: 2
    weight_filler {
      type: "msra"
    }
    bias_filler {
      type: "constant"
      value: 0
    }
  }
}
layer {
  name: "conv4_1_bn_down"
  type: "BatchNorm"
  bottom: "conv4_1_down"
  top: "conv4_1_down"
  param {
    lr_mult: 0
    decay_mult: 0
  }
  param {
    lr_mult: 0
    decay_mult: 0
  }
  param {
    lr_mult: 0
    decay_mult: 0
  }
  batch_norm_param {
    use_global_stats: false
  }
}
layer {
  name: "conv4_1_scale_down"
  type: "Scale"
  bottom: "conv4_1_down"
  top: "conv4_1_down"
  scale_param {
    bias_term: true
  }
}
layer {
  name: "conv4_Axpy_1"
  type: "Axpy"
  bottom: "conv4_1_3"
  bottom: "conv4_1_1"
  bottom: "conv4_1_down"
  top: "conv4_Axpy_1"
}
layer {
  name: "conv4_1ReLU_1"
  type: "ReLU"
  bottom: "conv4_Axpy_1"
  top: "conv4_Axpy_1"
}
layer {
  name: "conv4_2_0"
  type: "Convolution"
  bottom: "conv4_Axpy_1"
  top: "conv4_2_0"
  param {
    lr_mult: 1
    decay_mult: 1
  }
  param {
    lr_mult: 2
    decay_mult: 0
  }
  convolution_param {
    num_output: 64
    bias_term: true
    pad: 1
    kernel_size: 3
    stride: 1
    weight_filler {
      type: "msra"
    }
    bias_filler {
      type: "constant"
      value: 0
    }
  }
}
layer {
  name: "conv4_2_bn0"
  type: "BatchNorm"
  bottom: "conv4_2_0"
  top: "conv4_2_0"
  param {
    lr_mult: 0
    decay_mult: 0
  }
  param {
    lr_mult: 0
    decay_mult: 0
  }
  param {
    lr_mult: 0
    decay_mult: 0
  }
  batch_norm_param {
    use_global_stats: false
  }
}
layer {
  name: "conv4_2_scale0"
  type: "Scale"
  bottom: "conv4_2_0"
  top: "conv4_2_0"
  scale_param {
    bias_term: true
  }
}
layer {
  name: "conv4_2_ReLU0"
  type: "ReLU"
  bottom: "conv4_2_0"
  top: "conv4_2_0"
}
layer {
  name: "conv4_2_1"
  type: "Convolution"
  bottom: "conv4_2_0"
  top: "conv4_2_1"
  param {
    lr_mult: 1
    decay_mult: 1
  }
  param {
    lr_mult: 2
    decay_mult: 0
  }
  convolution_param {
    num_output: 64
    bias_term: true
    pad: 1
    kernel_size: 3
    stride: 1
    weight_filler {
      type: "msra"
    }
    bias_filler {
      type: "constant"
      value: 0
    }
  }
}
layer {
  name: "conv4_2_bn1"
  type: "BatchNorm"
  bottom: "conv4_2_1"
  top: "conv4_2_1"
  param {
    lr_mult: 0
    decay_mult: 0
  }
  param {
    lr_mult: 0
    decay_mult: 0
  }
  param {
    lr_mult: 0
    decay_mult: 0
  }
  batch_norm_param {
    use_global_stats: false
  }
}
layer {
  name: "conv4_2_scale1"
  type: "Scale"
  bottom: "conv4_2_1"
  top: "conv4_2_1"
  scale_param {
    bias_term: true
  }
}
layer {
  name: "conv4_2_Pooling"
  type: "Pooling"
  bottom: "conv4_2_1"
  top: "conv4_2_Pooling"
  pooling_param {
    pool: AVE
    engine: CAFFE
    global_pooling: true
  }
}
layer {
  name: "conv4_2_2"
  type: "Convolution"
  bottom: "conv4_2_Pooling"
  top: "conv4_2_2"
  param {
    lr_mult: 1
    decay_mult: 1
  }
  param {
    lr_mult: 2
    decay_mult: 0
  }
  convolution_param {
    num_output: 16
    bias_term: true
    pad: 0
    kernel_size: 1
    stride: 1
    weight_filler {
      type: "msra"
    }
    bias_filler {
      type: "constant"
      value: 0
    }
  }
}
layer {
  name: "conv4_2_ReLU2"
  type: "ReLU"
  bottom: "conv4_2_2"
  top: "conv4_2_2"
}
layer {
  name: "conv4_2_3"
  type: "Convolution"
  bottom: "conv4_2_2"
  top: "conv4_2_3"
  param {
    lr_mult: 1
    decay_mult: 1
  }
  param {
    lr_mult: 2
    decay_mult: 0
  }
  convolution_param {
    num_output: 64
    bias_term: true
    pad: 0
    kernel_size: 1
    stride: 1
    weight_filler {
      type: "msra"
    }
    bias_filler {
      type: "constant"
      value: 0
    }
  }
}
layer {
  name: "conv4_2_Prob3"
  type: "Sigmoid"
  bottom: "conv4_2_3"
  top: "conv4_2_3"
}
layer {
  name: "conv4_Axpy_2"
  type: "Axpy"
  bottom: "conv4_2_3"
  bottom: "conv4_2_1"
  bottom: "conv4_Axpy_1"
  top: "conv4_Axpy_2"
}
layer {
  name: "conv4_2ReLU_1"
  type: "ReLU"
  bottom: "conv4_Axpy_2"
  top: "conv4_Axpy_2"
}
layer {
  name: "conv4_3_0"
  type: "Convolution"
  bottom: "conv4_Axpy_2"
  top: "conv4_3_0"
  param {
    lr_mult: 1
    decay_mult: 1
  }
  param {
    lr_mult: 2
    decay_mult: 0
  }
  convolution_param {
    num_output: 64
    bias_term: true
    pad: 1
    kernel_size: 3
    stride: 1
    weight_filler {
      type: "msra"
    }
    bias_filler {
      type: "constant"
      value: 0
    }
  }
}
layer {
  name: "conv4_3_bn0"
  type: "BatchNorm"
  bottom: "conv4_3_0"
  top: "conv4_3_0"
  param {
    lr_mult: 0
    decay_mult: 0
  }
  param {
    lr_mult: 0
    decay_mult: 0
  }
  param {
    lr_mult: 0
    decay_mult: 0
  }
  batch_norm_param {
    use_global_stats: false
  }
}
layer {
  name: "conv4_3_scale0"
  type: "Scale"
  bottom: "conv4_3_0"
  top: "conv4_3_0"
  scale_param {
    bias_term: true
  }
}
layer {
  name: "conv4_3_ReLU0"
  type: "ReLU"
  bottom: "conv4_3_0"
  top: "conv4_3_0"
}
layer {
  name: "conv4_3_1"
  type: "Convolution"
  bottom: "conv4_3_0"
  top: "conv4_3_1"
  param {
    lr_mult: 1
    decay_mult: 1
  }
  param {
    lr_mult: 2
    decay_mult: 0
  }
  convolution_param {
    num_output: 64
    bias_term: true
    pad: 1
    kernel_size: 3
    stride: 1
    weight_filler {
      type: "msra"
    }
    bias_filler {
      type: "constant"
      value: 0
    }
  }
}
layer {
  name: "conv4_3_bn1"
  type: "BatchNorm"
  bottom: "conv4_3_1"
  top: "conv4_3_1"
  param {
    lr_mult: 0
    decay_mult: 0
  }
  param {
    lr_mult: 0
    decay_mult: 0
  }
  param {
    lr_mult: 0
    decay_mult: 0
  }
  batch_norm_param {
    use_global_stats: false
  }
}
layer {
  name: "conv4_3_scale1"
  type: "Scale"
  bottom: "conv4_3_1"
  top: "conv4_3_1"
  scale_param {
    bias_term: true
  }
}
layer {
  nam
I1012 11:55:10.922159 31118 layer_factory.hpp:77] Creating layer Data1
I1012 11:55:10.922376 31118 db_lmdb.cpp:35] Opened lmdb /home/lijianfei/datasets/cifar10_40/train_lmdb
I1012 11:55:10.922420 31118 net.cpp:128] Creating Layer Data1
I1012 11:55:10.922430 31118 net.cpp:522] Data1 -> data
I1012 11:55:10.922461 31118 net.cpp:522] Data1 -> label
I1012 11:55:10.924270 31118 data_layer.cpp:45] output data size: 64,3,32,32
I1012 11:55:10.935792 31118 net.cpp:172] Setting up Data1
I1012 11:55:10.935871 31118 net.cpp:186] Top shape: 64 3 32 32 (196608)
I1012 11:55:10.935890 31118 net.cpp:186] Top shape: 64 (64)
I1012 11:55:10.935904 31118 net.cpp:194] Memory required for data: 786688
I1012 11:55:10.935940 31118 layer_factory.hpp:77] Creating layer conv1
I1012 11:55:10.935989 31118 net.cpp:128] Creating Layer conv1
I1012 11:55:10.936009 31118 net.cpp:558] conv1 <- data
I1012 11:55:10.936045 31118 net.cpp:522] conv1 -> conv1
I1012 11:55:11.971597 31118 net.cpp:172] Setting up conv1
I1012 11:55:11.971653 31118 net.cpp:186] Top shape: 64 16 32 32 (1048576)
I1012 11:55:11.971659 31118 net.cpp:194] Memory required for data: 4980992
I1012 11:55:11.971702 31118 layer_factory.hpp:77] Creating layer conv1/bn
I1012 11:55:11.971722 31118 net.cpp:128] Creating Layer conv1/bn
I1012 11:55:11.971729 31118 net.cpp:558] conv1/bn <- conv1
I1012 11:55:11.971737 31118 net.cpp:509] conv1/bn -> conv1 (in-place)
I1012 11:55:11.972059 31118 net.cpp:172] Setting up conv1/bn
I1012 11:55:11.972086 31118 net.cpp:186] Top shape: 64 16 32 32 (1048576)
I1012 11:55:11.972100 31118 net.cpp:194] Memory required for data: 9175296
I1012 11:55:11.972124 31118 layer_factory.hpp:77] Creating layer conv1/scale
I1012 11:55:11.972144 31118 net.cpp:128] Creating Layer conv1/scale
I1012 11:55:11.972159 31118 net.cpp:558] conv1/scale <- conv1
I1012 11:55:11.972178 31118 net.cpp:509] conv1/scale -> conv1 (in-place)
I1012 11:55:11.972244 31118 layer_factory.hpp:77] Creating layer conv1/scale
I1012 11:55:11.972393 31118 net.cpp:172] Setting up conv1/scale
I1012 11:55:11.972414 31118 net.cpp:186] Top shape: 64 16 32 32 (1048576)
I1012 11:55:11.972426 31118 net.cpp:194] Memory required for data: 13369600
I1012 11:55:11.972445 31118 layer_factory.hpp:77] Creating layer conv1/ReLU
I1012 11:55:11.972463 31118 net.cpp:128] Creating Layer conv1/ReLU
I1012 11:55:11.972476 31118 net.cpp:558] conv1/ReLU <- conv1
I1012 11:55:11.972496 31118 net.cpp:509] conv1/ReLU -> conv1 (in-place)
I1012 11:55:11.973227 31118 net.cpp:172] Setting up conv1/ReLU
I1012 11:55:11.973242 31118 net.cpp:186] Top shape: 64 16 32 32 (1048576)
I1012 11:55:11.973249 31118 net.cpp:194] Memory required for data: 17563904
I1012 11:55:11.973254 31118 layer_factory.hpp:77] Creating layer conv1_conv1/ReLU_0_split
I1012 11:55:11.973263 31118 net.cpp:128] Creating Layer conv1_conv1/ReLU_0_split
I1012 11:55:11.973268 31118 net.cpp:558] conv1_conv1/ReLU_0_split <- conv1
I1012 11:55:11.973278 31118 net.cpp:522] conv1_conv1/ReLU_0_split -> conv1_conv1/ReLU_0_split_0
I1012 11:55:11.973289 31118 net.cpp:522] conv1_conv1/ReLU_0_split -> conv1_conv1/ReLU_0_split_1
I1012 11:55:11.973338 31118 net.cpp:172] Setting up conv1_conv1/ReLU_0_split
I1012 11:55:11.973376 31118 net.cpp:186] Top shape: 64 16 32 32 (1048576)
I1012 11:55:11.973393 31118 net.cpp:186] Top shape: 64 16 32 32 (1048576)
I1012 11:55:11.973407 31118 net.cpp:194] Memory required for data: 25952512
I1012 11:55:11.973420 31118 layer_factory.hpp:77] Creating layer conv2_1_0
I1012 11:55:11.973448 31118 net.cpp:128] Creating Layer conv2_1_0
I1012 11:55:11.973462 31118 net.cpp:558] conv2_1_0 <- conv1_conv1/ReLU_0_split_0
I1012 11:55:11.973481 31118 net.cpp:522] conv2_1_0 -> conv2_1_0
I1012 11:55:11.980005 31118 net.cpp:172] Setting up conv2_1_0
I1012 11:55:11.980072 31118 net.cpp:186] Top shape: 64 16 32 32 (1048576)
I1012 11:55:11.980087 31118 net.cpp:194] Memory required for data: 30146816
I1012 11:55:11.980120 31118 layer_factory.hpp:77] Creating layer conv2_1_bn0
I1012 11:55:11.980149 31118 net.cpp:128] Creating Layer conv2_1_bn0
I1012 11:55:11.980166 31118 net.cpp:558] conv2_1_bn0 <- conv2_1_0
I1012 11:55:11.980191 31118 net.cpp:509] conv2_1_bn0 -> conv2_1_0 (in-place)
I1012 11:55:11.980433 31118 net.cpp:172] Setting up conv2_1_bn0
I1012 11:55:11.980456 31118 net.cpp:186] Top shape: 64 16 32 32 (1048576)
I1012 11:55:11.980471 31118 net.cpp:194] Memory required for data: 34341120
I1012 11:55:11.980494 31118 layer_factory.hpp:77] Creating layer conv2_1_scale0
I1012 11:55:11.980517 31118 net.cpp:128] Creating Layer conv2_1_scale0
I1012 11:55:11.980533 31118 net.cpp:558] conv2_1_scale0 <- conv2_1_0
I1012 11:55:11.980552 31118 net.cpp:509] conv2_1_scale0 -> conv2_1_0 (in-place)
I1012 11:55:11.980613 31118 layer_factory.hpp:77] Creating layer conv2_1_scale0
I1012 11:55:11.980775 31118 net.cpp:172] Setting up conv2_1_scale0
I1012 11:55:11.980789 31118 net.cpp:186] Top shape: 64 16 32 32 (1048576)
I1012 11:55:11.980794 31118 net.cpp:194] Memory required for data: 38535424
I1012 11:55:11.980803 31118 layer_factory.hpp:77] Creating layer conv2_1_ReLU0
I1012 11:55:11.980810 31118 net.cpp:128] Creating Layer conv2_1_ReLU0
I1012 11:55:11.980834 31118 net.cpp:558] conv2_1_ReLU0 <- conv2_1_0
I1012 11:55:11.980850 31118 net.cpp:509] conv2_1_ReLU0 -> conv2_1_0 (in-place)
I1012 11:55:11.982067 31118 net.cpp:172] Setting up conv2_1_ReLU0
I1012 11:55:11.982097 31118 net.cpp:186] Top shape: 64 16 32 32 (1048576)
I1012 11:55:11.982115 31118 net.cpp:194] Memory required for data: 42729728
I1012 11:55:11.982144 31118 layer_factory.hpp:77] Creating layer conv2_1_1
I1012 11:55:11.982177 31118 net.cpp:128] Creating Layer conv2_1_1
I1012 11:55:11.982195 31118 net.cpp:558] conv2_1_1 <- conv2_1_0
I1012 11:55:11.982213 31118 net.cpp:522] conv2_1_1 -> conv2_1_1
I1012 11:55:11.988832 31118 net.cpp:172] Setting up conv2_1_1
I1012 11:55:11.988878 31118 net.cpp:186] Top shape: 64 16 32 32 (1048576)
I1012 11:55:11.988893 31118 net.cpp:194] Memory required for data: 46924032
I1012 11:55:11.988915 31118 layer_factory.hpp:77] Creating layer conv2_1_bn1
I1012 11:55:11.988936 31118 net.cpp:128] Creating Layer conv2_1_bn1
I1012 11:55:11.988955 31118 net.cpp:558] conv2_1_bn1 <- conv2_1_1
I1012 11:55:11.988970 31118 net.cpp:509] conv2_1_bn1 -> conv2_1_1 (in-place)
I1012 11:55:11.989209 31118 net.cpp:172] Setting up conv2_1_bn1
I1012 11:55:11.989233 31118 net.cpp:186] Top shape: 64 16 32 32 (1048576)
I1012 11:55:11.989248 31118 net.cpp:194] Memory required for data: 51118336
I1012 11:55:11.989272 31118 layer_factory.hpp:77] Creating layer conv2_1_scale1
I1012 11:55:11.989293 31118 net.cpp:128] Creating Layer conv2_1_scale1
I1012 11:55:11.989310 31118 net.cpp:558] conv2_1_scale1 <- conv2_1_1
I1012 11:55:11.989327 31118 net.cpp:509] conv2_1_scale1 -> conv2_1_1 (in-place)
I1012 11:55:11.989388 31118 layer_factory.hpp:77] Creating layer conv2_1_scale1
I1012 11:55:11.989542 31118 net.cpp:172] Setting up conv2_1_scale1
I1012 11:55:11.989553 31118 net.cpp:186] Top shape: 64 16 32 32 (1048576)
I1012 11:55:11.989557 31118 net.cpp:194] Memory required for data: 55312640
I1012 11:55:11.989565 31118 layer_factory.hpp:77] Creating layer conv2_1_1_conv2_1_scale1_0_split
I1012 11:55:11.989573 31118 net.cpp:128] Creating Layer conv2_1_1_conv2_1_scale1_0_split
I1012 11:55:11.989578 31118 net.cpp:558] conv2_1_1_conv2_1_scale1_0_split <- conv2_1_1
I1012 11:55:11.989588 31118 net.cpp:522] conv2_1_1_conv2_1_scale1_0_split -> conv2_1_1_conv2_1_scale1_0_split_0
I1012 11:55:11.989616 31118 net.cpp:522] conv2_1_1_conv2_1_scale1_0_split -> conv2_1_1_conv2_1_scale1_0_split_1
I1012 11:55:11.989678 31118 net.cpp:172] Setting up conv2_1_1_conv2_1_scale1_0_split
I1012 11:55:11.989699 31118 net.cpp:186] Top shape: 64 16 32 32 (1048576)
I1012 11:55:11.989715 31118 net.cpp:186] Top shape: 64 16 32 32 (1048576)
I1012 11:55:11.989740 31118 net.cpp:194] Memory required for data: 63701248
I1012 11:55:11.989755 31118 layer_factory.hpp:77] Creating layer conv2_1_Pooling
I1012 11:55:11.989779 31118 net.cpp:128] Creating Layer conv2_1_Pooling
I1012 11:55:11.989794 31118 net.cpp:558] conv2_1_Pooling <- conv2_1_1_conv2_1_scale1_0_split_0
I1012 11:55:11.989810 31118 net.cpp:522] conv2_1_Pooling -> conv2_1_Pooling
I1012 11:55:11.989878 31118 net.cpp:172] Setting up conv2_1_Pooling
I1012 11:55:11.989898 31118 net.cpp:186] Top shape: 64 16 1 1 (1024)
I1012 11:55:11.989912 31118 net.cpp:194] Memory required for data: 63705344
I1012 11:55:11.989925 31118 layer_factory.hpp:77] Creating layer conv2_1_2
I1012 11:55:11.989950 31118 net.cpp:128] Creating Layer conv2_1_2
I1012 11:55:11.989966 31118 net.cpp:558] conv2_1_2 <- conv2_1_Pooling
I1012 11:55:11.989984 31118 net.cpp:522] conv2_1_2 -> conv2_1_2
I1012 11:55:11.995800 31118 net.cpp:172] Setting up conv2_1_2
I1012 11:55:11.995854 31118 net.cpp:186] Top shape: 64 16 1 1 (1024)
I1012 11:55:11.995872 31118 net.cpp:194] Memory required for data: 63709440
I1012 11:55:11.995908 31118 layer_factory.hpp:77] Creating layer conv2_1_ReLU2
I1012 11:55:11.995935 31118 net.cpp:128] Creating Layer conv2_1_ReLU2
I1012 11:55:11.995954 31118 net.cpp:558] conv2_1_ReLU2 <- conv2_1_2
I1012 11:55:11.995971 31118 net.cpp:509] conv2_1_ReLU2 -> conv2_1_2 (in-place)
I1012 11:55:11.997535 31118 net.cpp:172] Setting up conv2_1_ReLU2
I1012 11:55:11.997579 31118 net.cpp:186] Top shape: 64 16 1 1 (1024)
I1012 11:55:11.997596 31118 net.cpp:194] Memory required for data: 63713536
I1012 11:55:11.997612 31118 layer_factory.hpp:77] Creating layer conv2_1_3
I1012 11:55:11.997638 31118 net.cpp:128] Creating Layer conv2_1_3
I1012 11:55:11.997670 31118 net.cpp:558] conv2_1_3 <- conv2_1_2
I1012 11:55:11.997692 31118 net.cpp:522] conv2_1_3 -> conv2_1_3
I1012 11:55:12.004297 31118 net.cpp:172] Setting up conv2_1_3
I1012 11:55:12.004333 31118 net.cpp:186] Top shape: 64 16 1 1 (1024)
I1012 11:55:12.004338 31118 net.cpp:194] Memory required for data: 63717632
I1012 11:55:12.004348 31118 layer_factory.hpp:77] Creating layer conv2_1_Prob3
I1012 11:55:12.004359 31118 net.cpp:128] Creating Layer conv2_1_Prob3
I1012 11:55:12.004397 31118 net.cpp:558] conv2_1_Prob3 <- conv2_1_3
I1012 11:55:12.004410 31118 net.cpp:509] conv2_1_Prob3 -> conv2_1_3 (in-place)
I1012 11:55:12.005697 31118 net.cpp:172] Setting up conv2_1_Prob3
I1012 11:55:12.005717 31118 net.cpp:186] Top shape: 64 16 1 1 (1024)
I1012 11:55:12.005729 31118 net.cpp:194] Memory required for data: 63721728
I1012 11:55:12.005734 31118 layer_factory.hpp:77] Creating layer conv2_Axpy_1
I1012 11:55:12.005746 31118 net.cpp:128] Creating Layer conv2_Axpy_1
I1012 11:55:12.005750 31118 net.cpp:558] conv2_Axpy_1 <- conv2_1_3
I1012 11:55:12.005756 31118 net.cpp:558] conv2_Axpy_1 <- conv2_1_1_conv2_1_scale1_0_split_1
I1012 11:55:12.005762 31118 net.cpp:558] conv2_Axpy_1 <- conv1_conv1/ReLU_0_split_1
I1012 11:55:12.005795 31118 net.cpp:522] conv2_Axpy_1 -> conv2_Axpy_1
I1012 11:55:12.005874 31118 net.cpp:172] Setting up conv2_Axpy_1
I1012 11:55:12.005894 31118 net.cpp:186] Top shape: 64 16 32 32 (1048576)
I1012 11:55:12.005908 31118 net.cpp:194] Memory required for data: 67916032
I1012 11:55:12.005921 31118 layer_factory.hpp:77] Creating layer conv2_1ReLU_1
I1012 11:55:12.005944 31118 net.cpp:128] Creating Layer conv2_1ReLU_1
I1012 11:55:12.005957 31118 net.cpp:558] conv2_1ReLU_1 <- conv2_Axpy_1
I1012 11:55:12.005972 31118 net.cpp:509] conv2_1ReLU_1 -> conv2_Axpy_1 (in-place)
I1012 11:55:12.006223 31118 net.cpp:172] Setting up conv2_1ReLU_1
I1012 11:55:12.006237 31118 net.cpp:186] Top shape: 64 16 32 32 (1048576)
I1012 11:55:12.006242 31118 net.cpp:194] Memory required for data: 72110336
I1012 11:55:12.006247 31118 layer_factory.hpp:77] Creating layer conv2_Axpy_1_conv2_1ReLU_1_0_split
I1012 11:55:12.006258 31118 net.cpp:128] Creating Layer conv2_Axpy_1_conv2_1ReLU_1_0_split
I1012 11:55:12.006283 31118 net.cpp:558] conv2_Axpy_1_conv2_1ReLU_1_0_split <- conv2_Axpy_1
I1012 11:55:12.006304 31118 net.cpp:522] conv2_Axpy_1_conv2_1ReLU_1_0_split -> conv2_Axpy_1_conv2_1ReLU_1_0_split_0
I1012 11:55:12.006323 31118 net.cpp:522] conv2_Axpy_1_conv2_1ReLU_1_0_split -> conv2_Axpy_1_conv2_1ReLU_1_0_split_1
I1012 11:55:12.006382 31118 net.cpp:172] Setting up conv2_Axpy_1_conv2_1ReLU_1_0_split
I1012 11:55:12.006404 31118 net.cpp:186] Top shape: 64 16 32 32 (1048576)
I1012 11:55:12.006420 31118 net.cpp:186] Top shape: 64 16 32 32 (1048576)
I1012 11:55:12.006433 31118 net.cpp:194] Memory required for data: 80498944
I1012 11:55:12.006448 31118 layer_factory.hpp:77] Creating layer conv2_2_0
I1012 11:55:12.006471 31118 net.cpp:128] Creating Layer conv2_2_0
I1012 11:55:12.006487 31118 net.cpp:558] conv2_2_0 <- conv2_Axpy_1_conv2_1ReLU_1_0_split_0
I1012 11:55:12.006505 31118 net.cpp:522] conv2_2_0 -> conv2_2_0
I1012 11:55:12.007874 31118 net.cpp:172] Setting up conv2_2_0
I1012 11:55:12.007901 31118 net.cpp:186] Top shape: 64 16 32 32 (1048576)
I1012 11:55:12.007905 31118 net.cpp:194] Memory required for data: 84693248
I1012 11:55:12.007915 31118 layer_factory.hpp:77] Creating layer conv2_2_bn0
I1012 11:55:12.007927 31118 net.cpp:128] Creating Layer conv2_2_bn0
I1012 11:55:12.007932 31118 net.cpp:558] conv2_2_bn0 <- conv2_2_0
I1012 11:55:12.007938 31118 net.cpp:509] conv2_2_bn0 -> conv2_2_0 (in-place)
I1012 11:55:12.008169 31118 net.cpp:172] Setting up conv2_2_bn0
I1012 11:55:12.008178 31118 net.cpp:186] Top shape: 64 16 32 32 (1048576)
I1012 11:55:12.008183 31118 net.cpp:194] Memory required for data: 88887552
I1012 11:55:12.008193 31118 layer_factory.hpp:77] Creating layer conv2_2_scale0
I1012 11:55:12.008227 31118 net.cpp:128] Creating Layer conv2_2_scale0
I1012 11:55:12.008244 31118 net.cpp:558] conv2_2_scale0 <- conv2_2_0
I1012 11:55:12.008276 31118 net.cpp:509] conv2_2_scale0 -> conv2_2_0 (in-place)
I1012 11:55:12.008342 31118 layer_factory.hpp:77] Creating layer conv2_2_scale0
I1012 11:55:12.008489 31118 net.cpp:172] Setting up conv2_2_scale0
I1012 11:55:12.008500 31118 net.cpp:186] Top shape: 64 16 32 32 (1048576)
I1012 11:55:12.008504 31118 net.cpp:194] Memory required for data: 93081856
I1012 11:55:12.008513 31118 layer_factory.hpp:77] Creating layer conv2_2_ReLU0
I1012 11:55:12.008535 31118 net.cpp:128] Creating Layer conv2_2_ReLU0
I1012 11:55:12.008549 31118 net.cpp:558] conv2_2_ReLU0 <- conv2_2_0
I1012 11:55:12.008569 31118 net.cpp:509] conv2_2_ReLU0 -> conv2_2_0 (in-place)
I1012 11:55:12.009131 31118 net.cpp:172] Setting up conv2_2_ReLU0
I1012 11:55:12.009174 31118 net.cpp:186] Top shape: 64 16 32 32 (1048576)
I1012 11:55:12.009189 31118 net.cpp:194] Memory required for data: 97276160
I1012 11:55:12.009205 31118 layer_factory.hpp:77] Creating layer conv2_2_1
I1012 11:55:12.009233 31118 net.cpp:128] Creating Layer conv2_2_1
I1012 11:55:12.009250 31118 net.cpp:558] conv2_2_1 <- conv2_2_0
I1012 11:55:12.009270 31118 net.cpp:522] conv2_2_1 -> conv2_2_1
I1012 11:55:12.010685 31118 net.cpp:172] Setting up conv2_2_1
I1012 11:55:12.010715 31118 net.cpp:186] Top shape: 64 16 32 32 (1048576)
I1012 11:55:12.010718 31118 net.cpp:194] Memory required for data: 101470464
I1012 11:55:12.010737 31118 layer_factory.hpp:77] Creating layer conv2_2_bn1
I1012 11:55:12.010773 31118 net.cpp:128] Creating Layer conv2_2_bn1
I1012 11:55:12.010788 31118 net.cpp:558] conv2_2_bn1 <- conv2_2_1
I1012 11:55:12.010808 31118 net.cpp:509] conv2_2_bn1 -> conv2_2_1 (in-place)
I1012 11:55:12.011051 31118 net.cpp:172] Setting up conv2_2_bn1
I1012 11:55:12.011062 31118 net.cpp:186] Top shape: 64 16 32 32 (1048576)
I1012 11:55:12.011066 31118 net.cpp:194] Memory required for data: 105664768
I1012 11:55:12.011077 31118 layer_factory.hpp:77] Creating layer conv2_2_scale1
I1012 11:55:12.011102 31118 net.cpp:128] Creating Layer conv2_2_scale1
I1012 11:55:12.011116 31118 net.cpp:558] conv2_2_scale1 <- conv2_2_1
I1012 11:55:12.011135 31118 net.cpp:509] conv2_2_scale1 -> conv2_2_1 (in-place)
I1012 11:55:12.011190 31118 layer_factory.hpp:77] Creating layer conv2_2_scale1
I1012 11:55:12.011332 31118 net.cpp:172] Setting up conv2_2_scale1
I1012 11:55:12.011345 31118 net.cpp:186] Top shape: 64 16 32 32 (1048576)
I1012 11:55:12.011350 31118 net.cpp:194] Memory required for data: 109859072
I1012 11:55:12.011358 31118 layer_factory.hpp:77] Creating layer conv2_2_1_conv2_2_scale1_0_split
I1012 11:55:12.011380 31118 net.cpp:128] Creating Layer conv2_2_1_conv2_2_scale1_0_split
I1012 11:55:12.011394 31118 net.cpp:558] conv2_2_1_conv2_2_scale1_0_split <- conv2_2_1
I1012 11:55:12.011412 31118 net.cpp:522] conv2_2_1_conv2_2_scale1_0_split -> conv2_2_1_conv2_2_scale1_0_split_0
I1012 11:55:12.011435 31118 net.cpp:522] conv2_2_1_conv2_2_scale1_0_split -> conv2_2_1_conv2_2_scale1_0_split_1
I1012 11:55:12.011493 31118 net.cpp:172] Setting up conv2_2_1_conv2_2_scale1_0_split
I1012 11:55:12.011512 31118 net.cpp:186] Top shape: 64 16 32 32 (1048576)
I1012 11:55:12.011529 31118 net.cpp:186] Top shape: 64 16 32 32 (1048576)
I1012 11:55:12.011543 31118 net.cpp:194] Memory required for data: 118247680
I1012 11:55:12.011555 31118 layer_factory.hpp:77] Creating layer conv2_2_Pooling
I1012 11:55:12.011579 31118 net.cpp:128] Creating Layer conv2_2_Pooling
I1012 11:55:12.011602 31118 net.cpp:558] conv2_2_Pooling <- conv2_2_1_conv2_2_scale1_0_split_0
I1012 11:55:12.011620 31118 net.cpp:522] conv2_2_Pooling -> conv2_2_Pooling
I1012 11:55:12.011660 31118 net.cpp:172] Setting up conv2_2_Pooling
I1012 11:55:12.011677 31118 net.cpp:186] Top shape: 64 16 1 1 (1024)
I1012 11:55:12.011690 31118 net.cpp:194] Memory required for data: 118251776
I1012 11:55:12.011706 31118 layer_factory.hpp:77] Creating layer conv2_2_2
I1012 11:55:12.011729 31118 net.cpp:128] Creating Layer conv2_2_2
I1012 11:55:12.011742 31118 net.cpp:558] conv2_2_2 <- conv2_2_Pooling
I1012 11:55:12.011759 31118 net.cpp:522] conv2_2_2 -> conv2_2_2
I1012 11:55:12.013183 31118 net.cpp:172] Setting up conv2_2_2
I1012 11:55:12.013207 31118 net.cpp:186] Top shape: 64 16 1 1 (1024)
I1012 11:55:12.013212 31118 net.cpp:194] Memory required for data: 118255872
I1012 11:55:12.013222 31118 layer_factory.hpp:77] Creating layer conv2_2_ReLU2
I1012 11:55:12.013279 31118 net.cpp:128] Creating Layer conv2_2_ReLU2
I1012 11:55:12.013295 31118 net.cpp:558] conv2_2_ReLU2 <- conv2_2_2
I1012 11:55:12.013314 31118 net.cpp:509] conv2_2_ReLU2 -> conv2_2_2 (in-place)
I1012 11:55:12.013581 31118 net.cpp:172] Setting up conv2_2_ReLU2
I1012 11:55:12.013594 31118 net.cpp:186] Top shape: 64 16 1 1 (1024)
I1012 11:55:12.013598 31118 net.cpp:194] Memory required for data: 118259968
I1012 11:55:12.013603 31118 layer_factory.hpp:77] Creating layer conv2_2_3
I1012 11:55:12.013618 31118 net.cpp:128] Creating Layer conv2_2_3
I1012 11:55:12.013645 31118 net.cpp:558] conv2_2_3 <- conv2_2_2
I1012 11:55:12.013665 31118 net.cpp:522] conv2_2_3 -> conv2_2_3
I1012 11:55:12.016619 31118 net.cpp:172] Setting up conv2_2_3
I1012 11:55:12.016647 31118 net.cpp:186] Top shape: 64 16 1 1 (1024)
I1012 11:55:12.016651 31118 net.cpp:194] Memory required for data: 118264064
I1012 11:55:12.016661 31118 layer_factory.hpp:77] Creating layer conv2_2_Prob3
I1012 11:55:12.016672 31118 net.cpp:128] Creating Layer conv2_2_Prob3
I1012 11:55:12.016680 31118 net.cpp:558] conv2_2_Prob3 <- conv2_2_3
I1012 11:55:12.016687 31118 net.cpp:509] conv2_2_Prob3 -> conv2_2_3 (in-place)
I1012 11:55:12.016927 31118 net.cpp:172] Setting up conv2_2_Prob3
I1012 11:55:12.016938 31118 net.cpp:186] Top shape: 64 16 1 1 (1024)
I1012 11:55:12.016943 31118 net.cpp:194] Memory required for data: 118268160
I1012 11:55:12.016948 31118 layer_factory.hpp:77] Creating layer conv2_Axpy_2
I1012 11:55:12.016960 31118 net.cpp:128] Creating Layer conv2_Axpy_2
I1012 11:55:12.016966 31118 net.cpp:558] conv2_Axpy_2 <- conv2_2_3
I1012 11:55:12.016973 31118 net.cpp:558] conv2_Axpy_2 <- conv2_2_1_conv2_2_scale1_0_split_1
I1012 11:55:12.016979 31118 net.cpp:558] conv2_Axpy_2 <- conv2_Axpy_1_conv2_1ReLU_1_0_split_1
I1012 11:55:12.016988 31118 net.cpp:522] conv2_Axpy_2 -> conv2_Axpy_2
I1012 11:55:12.017050 31118 net.cpp:172] Setting up conv2_Axpy_2
I1012 11:55:12.017060 31118 net.cpp:186] Top shape: 64 16 32 32 (1048576)
I1012 11:55:12.017066 31118 net.cpp:194] Memory required for data: 122462464
I1012 11:55:12.017069 31118 layer_factory.hpp:77] Creating layer conv2_2ReLU_1
I1012 11:55:12.017079 31118 net.cpp:128] Creating Layer conv2_2ReLU_1
I1012 11:55:12.017086 31118 net.cpp:558] conv2_2ReLU_1 <- conv2_Axpy_2
I1012 11:55:12.017091 31118 net.cpp:509] conv2_2ReLU_1 -> conv2_Axpy_2 (in-place)
I1012 11:55:12.017315 31118 net.cpp:172] Setting up conv2_2ReLU_1
I1012 11:55:12.017325 31118 net.cpp:186] Top shape: 64 16 32 32 (1048576)
I1012 11:55:12.017331 31118 net.cpp:194] Memory required for data: 126656768
I1012 11:55:12.017335 31118 layer_factory.hpp:77] Creating layer conv2_Axpy_2_conv2_2ReLU_1_0_split
I1012 11:55:12.017346 31118 net.cpp:128] Creating Layer conv2_Axpy_2_conv2_2ReLU_1_0_split
I1012 11:55:12.017352 31118 net.cpp:558] conv2_Axpy_2_conv2_2ReLU_1_0_split <- conv2_Axpy_2
I1012 11:55:12.017359 31118 net.cpp:522] conv2_Axpy_2_conv2_2ReLU_1_0_split -> conv2_Axpy_2_conv2_2ReLU_1_0_split_0
I1012 11:55:12.017371 31118 net.cpp:522] conv2_Axpy_2_conv2_2ReLU_1_0_split -> conv2_Axpy_2_conv2_2ReLU_1_0_split_1
I1012 11:55:12.017419 31118 net.cpp:172] Setting up conv2_Axpy_2_conv2_2ReLU_1_0_split
I1012 11:55:12.017428 31118 net.cpp:186] Top shape: 64 16 32 32 (1048576)
I1012 11:55:12.017436 31118 net.cpp:186] Top shape: 64 16 32 32 (1048576)
I1012 11:55:12.017441 31118 net.cpp:194] Memory required for data: 135045376
I1012 11:55:12.017446 31118 layer_factory.hpp:77] Creating layer conv2_3_0
I1012 11:55:12.017459 31118 net.cpp:128] Creating Layer conv2_3_0
I1012 11:55:12.017465 31118 net.cpp:558] conv2_3_0 <- conv2_Axpy_2_conv2_2ReLU_1_0_split_0
I1012 11:55:12.017474 31118 net.cpp:522] conv2_3_0 -> conv2_3_0
I1012 11:55:12.018921 31118 net.cpp:172] Setting up conv2_3_0
I1012 11:55:12.018963 31118 net.cpp:186] Top shape: 64 16 32 32 (1048576)
I1012 11:55:12.018968 31118 net.cpp:194] Memory required for data: 139239680
I1012 11:55:12.018978 31118 layer_factory.hpp:77] Creating layer conv2_3_bn0
I1012 11:55:12.018990 31118 net.cpp:128] Creating Layer conv2_3_bn0
I1012 11:55:12.019003 31118 net.cpp:558] conv2_3_bn0 <- conv2_3_0
I1012 11:55:12.019011 31118 net.cpp:509] conv2_3_bn0 -> conv2_3_0 (in-place)
I1012 11:55:12.019249 31118 net.cpp:172] Setting up conv2_3_bn0
I1012 11:55:12.019259 31118 net.cpp:186] Top shape: 64 16 32 32 (1048576)
I1012 11:55:12.019263 31118 net.cpp:194] Memory required for data: 143433984
I1012 11:55:12.019273 31118 layer_factory.hpp:77] Creating layer conv2_3_scale0
I1012 11:55:12.019280 31118 net.cpp:128] Creating Layer conv2_3_scale0
I1012 11:55:12.019287 31118 net.cpp:558] conv2_3_scale0 <- conv2_3_0
I1012 11:55:12.019294 31118 net.cpp:509] conv2_3_scale0 -> conv2_3_0 (in-place)
I1012 11:55:12.019340 31118 layer_factory.hpp:77] Creating layer conv2_3_scale0
I1012 11:55:12.019474 31118 net.cpp:172] Setting up conv2_3_scale0
I1012 11:55:12.019484 31118 net.cpp:186] Top shape: 64 16 32 32 (1048576)
I1012 11:55:12.019490 31118 net.cpp:194] Memory required for data: 147628288
I1012 11:55:12.019496 31118 layer_factory.hpp:77] Creating layer conv2_3_ReLU0
I1012 11:55:12.019506 31118 net.cpp:128] Creating Layer conv2_3_ReLU0
I1012 11:55:12.019511 31118 net.cpp:558] conv2_3_ReLU0 <- conv2_3_0
I1012 11:55:12.019518 31118 net.cpp:509] conv2_3_ReLU0 -> conv2_3_0 (in-place)
I1012 11:55:12.020097 31118 net.cpp:172] Setting up conv2_3_ReLU0
I1012 11:55:12.020117 31118 net.cpp:186] Top shape: 64 16 32 32 (1048576)
I1012 11:55:12.020123 31118 net.cpp:194] Memory required for data: 151822592
I1012 11:55:12.020128 31118 layer_factory.hpp:77] Creating layer conv2_3_1
I1012 11:55:12.020149 31118 net.cpp:128] Creating Layer conv2_3_1
I1012 11:55:12.020155 31118 net.cpp:558] conv2_3_1 <- conv2_3_0
I1012 11:55:12.020164 31118 net.cpp:522] conv2_3_1 -> conv2_3_1
I1012 11:55:12.021558 31118 net.cpp:172] Setting up conv2_3_1
I1012 11:55:12.021587 31118 net.cpp:186] Top shape: 64 16 32 32 (1048576)
I1012 11:55:12.021592 31118 net.cpp:194] Memory required for data: 156016896
I1012 11:55:12.021601 31118 layer_factory.hpp:77] Creating layer conv2_3_bn1
I1012 11:55:12.021610 31118 net.cpp:128] Creating Layer conv2_3_bn1
I1012 11:55:12.021615 31118 net.cpp:558] conv2_3_bn1 <- conv2_3_1
I1012 11:55:12.021623 31118 net.cpp:509] conv2_3_bn1 -> conv2_3_1 (in-place)
I1012 11:55:12.021878 31118 net.cpp:172] Setting up conv2_3_bn1
I1012 11:55:12.021889 31118 net.cpp:186] Top shape: 64 16 32 32 (1048576)
I1012 11:55:12.021893 31118 net.cpp:194] Memory required for data: 160211200
I1012 11:55:12.021903 31118 layer_factory.hpp:77] Creating layer conv2_3_scale1
I1012 11:55:12.021935 31118 net.cpp:128] Creating Layer conv2_3_scale1
I1012 11:55:12.021950 31118 net.cpp:558] conv2_3_scale1 <- conv2_3_1
I1012 11:55:12.021968 31118 net.cpp:509] conv2_3_scale1 -> conv2_3_1 (in-place)
I1012 11:55:12.022028 31118 layer_factory.hpp:77] Creating layer conv2_3_scale1
I1012 11:55:12.022164 31118 net.cpp:172] Setting up conv2_3_scale1
I1012 11:55:12.022177 31118 net.cpp:186] Top shape: 64 16 32 32 (1048576)
I1012 11:55:12.022184 31118 net.cpp:194] Memory required for data: 164405504
I1012 11:55:12.022192 31118 layer_factory.hpp:77] Creating layer conv2_3_1_conv2_3_scale1_0_split
I1012 11:55:12.022198 31118 net.cpp:128] Creating Layer conv2_3_1_conv2_3_scale1_0_split
I1012 11:55:12.022203 31118 net.cpp:558] conv2_3_1_conv2_3_scale1_0_split <- conv2_3_1
I1012 11:55:12.022209 31118 net.cpp:522] conv2_3_1_conv2_3_scale1_0_split -> conv2_3_1_conv2_3_scale1_0_split_0
I1012 11:55:12.022219 31118 net.cpp:522] conv2_3_1_conv2_3_scale1_0_split -> conv2_3_1_conv2_3_scale1_0_split_1
I1012 11:55:12.022264 31118 net.cpp:172] Setting up conv2_3_1_conv2_3_scale1_0_split
I1012 11:55:12.022287 31118 net.cpp:186] Top shape: 64 16 32 32 (1048576)
I1012 11:55:12.022306 31118 net.cpp:186] Top shape: 64 16 32 32 (1048576)
I1012 11:55:12.022313 31118 net.cpp:194] Memory required for data: 172794112
I1012 11:55:12.022328 31118 layer_factory.hpp:77] Creating layer conv2_3_Pooling
I1012 11:55:12.022338 31118 net.cpp:128] Creating Layer conv2_3_Pooling
I1012 11:55:12.022346 31118 net.cpp:558] conv2_3_Pooling <- conv2_3_1_conv2_3_scale1_0_split_0
I1012 11:55:12.022352 31118 net.cpp:522] conv2_3_Pooling -> conv2_3_Pooling
I1012 11:55:12.022384 31118 net.cpp:172] Setting up conv2_3_Pooling
I1012 11:55:12.022408 31118 net.cpp:186] Top shape: 64 16 1 1 (1024)
I1012 11:55:12.022414 31118 net.cpp:194] Memory required for data: 172798208
I1012 11:55:12.022418 31118 layer_factory.hpp:77] Creating layer conv2_3_2
I1012 11:55:12.022431 31118 net.cpp:128] Creating Layer conv2_3_2
I1012 11:55:12.022450 31118 net.cpp:558] conv2_3_2 <- conv2_3_Pooling
I1012 11:55:12.022467 31118 net.cpp:522] conv2_3_2 -> conv2_3_2
I1012 11:55:12.023839 31118 net.cpp:172] Setting up conv2_3_2
I1012 11:55:12.023865 31118 net.cpp:186] Top shape: 64 16 1 1 (1024)
I1012 11:55:12.023870 31118 net.cpp:194] Memory required for data: 172802304
I1012 11:55:12.023885 31118 layer_factory.hpp:77] Creating layer conv2_3_ReLU2
I1012 11:55:12.023895 31118 net.cpp:128] Creating Layer conv2_3_ReLU2
I1012 11:55:12.023927 31118 net.cpp:558] conv2_3_ReLU2 <- conv2_3_2
I1012 11:55:12.023938 31118 net.cpp:509] conv2_3_ReLU2 -> conv2_3_2 (in-place)
I1012 11:55:12.024185 31118 net.cpp:172] Setting up conv2_3_ReLU2
I1012 11:55:12.024197 31118 net.cpp:186] Top shape: 64 16 1 1 (1024)
I1012 11:55:12.024202 31118 net.cpp:194] Memory required for data: 172806400
I1012 11:55:12.024206 31118 layer_factory.hpp:77] Creating layer conv2_3_3
I1012 11:55:12.024224 31118 net.cpp:128] Creating Layer conv2_3_3
I1012 11:55:12.024231 31118 net.cpp:558] conv2_3_3 <- conv2_3_2
I1012 11:55:12.024238 31118 net.cpp:522] conv2_3_3 -> conv2_3_3
I1012 11:55:12.025631 31118 net.cpp:172] Setting up conv2_3_3
I1012 11:55:12.025655 31118 net.cpp:186] Top shape: 64 16 1 1 (1024)
I1012 11:55:12.025658 31118 net.cpp:194] Memory required for data: 172810496
I1012 11:55:12.025668 31118 layer_factory.hpp:77] Creating layer conv2_3_Prob3
I1012 11:55:12.025682 31118 net.cpp:128] Creating Layer conv2_3_Prob3
I1012 11:55:12.025687 31118 net.cpp:558] conv2_3_Prob3 <- conv2_3_3
I1012 11:55:12.025694 31118 net.cpp:509] conv2_3_Prob3 -> conv2_3_3 (in-place)
I1012 11:55:12.025946 31118 net.cpp:172] Setting up conv2_3_Prob3
I1012 11:55:12.025960 31118 net.cpp:186] Top shape: 64 16 1 1 (1024)
I1012 11:55:12.025965 31118 net.cpp:194] Memory required for data: 172814592
I1012 11:55:12.025969 31118 layer_factory.hpp:77] Creating layer conv2_Axpy_3
I1012 11:55:12.025979 31118 net.cpp:128] Creating Layer conv2_Axpy_3
I1012 11:55:12.025985 31118 net.cpp:558] conv2_Axpy_3 <- conv2_3_3
I1012 11:55:12.025990 31118 net.cpp:558] conv2_Axpy_3 <- conv2_3_1_conv2_3_scale1_0_split_1
I1012 11:55:12.025995 31118 net.cpp:558] conv2_Axpy_3 <- conv2_Axpy_2_conv2_2ReLU_1_0_split_1
I1012 11:55:12.026001 31118 net.cpp:522] conv2_Axpy_3 -> conv2_Axpy_3
I1012 11:55:12.026068 31118 net.cpp:172] Setting up conv2_Axpy_3
I1012 11:55:12.026082 31118 net.cpp:186] Top shape: 64 16 32 32 (1048576)
I1012 11:55:12.026085 31118 net.cpp:194] Memory required for data: 177008896
I1012 11:55:12.026089 31118 layer_factory.hpp:77] Creating layer conv2_3ReLU_1
I1012 11:55:12.026098 31118 net.cpp:128] Creating Layer conv2_3ReLU_1
I1012 11:55:12.026103 31118 net.cpp:558] conv2_3ReLU_1 <- conv2_Axpy_3
I1012 11:55:12.026108 31118 net.cpp:509] conv2_3ReLU_1 -> conv2_Axpy_3 (in-place)
I1012 11:55:12.026681 31118 net.cpp:172] Setting up conv2_3ReLU_1
I1012 11:55:12.026705 31118 net.cpp:186] Top shape: 64 16 32 32 (1048576)
I1012 11:55:12.026710 31118 net.cpp:194] Memory required for data: 181203200
I1012 11:55:12.026715 31118 layer_factory.hpp:77] Creating layer conv2_Axpy_3_conv2_3ReLU_1_0_split
I1012 11:55:12.026726 31118 net.cpp:128] Creating Layer conv2_Axpy_3_conv2_3ReLU_1_0_split
I1012 11:55:12.026731 31118 net.cpp:558] conv2_Axpy_3_conv2_3ReLU_1_0_split <- conv2_Axpy_3
I1012 11:55:12.026738 31118 net.cpp:522] conv2_Axpy_3_conv2_3ReLU_1_0_split -> conv2_Axpy_3_conv2_3ReLU_1_0_split_0
I1012 11:55:12.026765 31118 net.cpp:522] conv2_Axpy_3_conv2_3ReLU_1_0_split -> conv2_Axpy_3_conv2_3ReLU_1_0_split_1
I1012 11:55:12.026818 31118 net.cpp:172] Setting up conv2_Axpy_3_conv2_3ReLU_1_0_split
I1012 11:55:12.026829 31118 net.cpp:186] Top shape: 64 16 32 32 (1048576)
I1012 11:55:12.026835 31118 net.cpp:186] Top shape: 64 16 32 32 (1048576)
I1012 11:55:12.026839 31118 net.cpp:194] Memory required for data: 189591808
I1012 11:55:12.026844 31118 layer_factory.hpp:77] Creating layer conv3_1_0
I1012 11:55:12.026859 31118 net.cpp:128] Creating Layer conv3_1_0
I1012 11:55:12.026865 31118 net.cpp:558] conv3_1_0 <- conv2_Axpy_3_conv2_3ReLU_1_0_split_0
I1012 11:55:12.026872 31118 net.cpp:522] conv3_1_0 -> conv3_1_0
I1012 11:55:12.029623 31118 net.cpp:172] Setting up conv3_1_0
I1012 11:55:12.029650 31118 net.cpp:186] Top shape: 64 32 16 16 (524288)
I1012 11:55:12.029655 31118 net.cpp:194] Memory required for data: 191688960
I1012 11:55:12.029665 31118 layer_factory.hpp:77] Creating layer conv3_1_bn0
I1012 11:55:12.029675 31118 net.cpp:128] Creating Layer conv3_1_bn0
I1012 11:55:12.029687 31118 net.cpp:558] conv3_1_bn0 <- conv3_1_0
I1012 11:55:12.029696 31118 net.cpp:509] conv3_1_bn0 -> conv3_1_0 (in-place)
I1012 11:55:12.029959 31118 net.cpp:172] Setting up conv3_1_bn0
I1012 11:55:12.029973 31118 net.cpp:186] Top shape: 64 32 16 16 (524288)
I1012 11:55:12.029978 31118 net.cpp:194] Memory required for data: 193786112
I1012 11:55:12.029994 31118 layer_factory.hpp:77] Creating layer conv3_1_scale0
I1012 11:55:12.030006 31118 net.cpp:128] Creating Layer conv3_1_scale0
I1012 11:55:12.030014 31118 net.cpp:558] conv3_1_scale0 <- conv3_1_0
I1012 11:55:12.030020 31118 net.cpp:509] conv3_1_scale0 -> conv3_1_0 (in-place)
I1012 11:55:12.030069 31118 layer_factory.hpp:77] Creating layer conv3_1_scale0
I1012 11:55:12.030239 31118 net.cpp:172] Setting up conv3_1_scale0
I1012 11:55:12.030251 31118 net.cpp:186] Top shape: 64 32 16 16 (524288)
I1012 11:55:12.030254 31118 net.cpp:194] Memory required for data: 195883264
I1012 11:55:12.030262 31118 layer_factory.hpp:77] Creating layer conv3_1_ReLU0
I1012 11:55:12.030272 31118 net.cpp:128] Creating Layer conv3_1_ReLU0
I1012 11:55:12.030277 31118 net.cpp:558] conv3_1_ReLU0 <- conv3_1_0
I1012 11:55:12.030283 31118 net.cpp:509] conv3_1_ReLU0 -> conv3_1_0 (in-place)
I1012 11:55:12.030545 31118 net.cpp:172] Setting up conv3_1_ReLU0
I1012 11:55:12.030560 31118 net.cpp:186] Top shape: 64 32 16 16 (524288)
I1012 11:55:12.030565 31118 net.cpp:194] Memory required for data: 197980416
I1012 11:55:12.030570 31118 layer_factory.hpp:77] Creating layer conv3_1_1
I1012 11:55:12.030582 31118 net.cpp:128] Creating Layer conv3_1_1
I1012 11:55:12.030589 31118 net.cpp:558] conv3_1_1 <- conv3_1_0
I1012 11:55:12.030599 31118 net.cpp:522] conv3_1_1 -> conv3_1_1
I1012 11:55:12.032136 31118 net.cpp:172] Setting up conv3_1_1
I1012 11:55:12.032160 31118 net.cpp:186] Top shape: 64 32 16 16 (524288)
I1012 11:55:12.032163 31118 net.cpp:194] Memory required for data: 200077568
I1012 11:55:12.032173 31118 layer_factory.hpp:77] Creating layer conv3_1_bn1
I1012 11:55:12.032186 31118 net.cpp:128] Creating Layer conv3_1_bn1
I1012 11:55:12.032191 31118 net.cpp:558] conv3_1_bn1 <- conv3_1_1
I1012 11:55:12.032197 31118 net.cpp:509] conv3_1_bn1 -> conv3_1_1 (in-place)
I1012 11:55:12.032440 31118 net.cpp:172] Setting up conv3_1_bn1
I1012 11:55:12.032451 31118 net.cpp:186] Top shape: 64 32 16 16 (524288)
I1012 11:55:12.032455 31118 net.cpp:194] Memory required for data: 202174720
I1012 11:55:12.032465 31118 layer_factory.hpp:77] Creating layer conv3_1_scale1
I1012 11:55:12.032471 31118 net.cpp:128] Creating Layer conv3_1_scale1
I1012 11:55:12.032475 31118 net.cpp:558] conv3_1_scale1 <- conv3_1_1
I1012 11:55:12.032483 31118 net.cpp:509] conv3_1_scale1 -> conv3_1_1 (in-place)
I1012 11:55:12.032560 31118 layer_factory.hpp:77] Creating layer conv3_1_scale1
I1012 11:55:12.032716 31118 net.cpp:172] Setting up conv3_1_scale1
I1012 11:55:12.032727 31118 net.cpp:186] Top shape: 64 32 16 16 (524288)
I1012 11:55:12.032743 31118 net.cpp:194] Memory required for data: 204271872
I1012 11:55:12.032752 31118 layer_factory.hpp:77] Creating layer conv3_1_1_conv3_1_scale1_0_split
I1012 11:55:12.032775 31118 net.cpp:128] Creating Layer conv3_1_1_conv3_1_scale1_0_split
I1012 11:55:12.032783 31118 net.cpp:558] conv3_1_1_conv3_1_scale1_0_split <- conv3_1_1
I1012 11:55:12.032793 31118 net.cpp:522] conv3_1_1_conv3_1_scale1_0_split -> conv3_1_1_conv3_1_scale1_0_split_0
I1012 11:55:12.032802 31118 net.cpp:522] conv3_1_1_conv3_1_scale1_0_split -> conv3_1_1_conv3_1_scale1_0_split_1
I1012 11:55:12.032862 31118 net.cpp:172] Setting up conv3_1_1_conv3_1_scale1_0_split
I1012 11:55:12.032872 31118 net.cpp:186] Top shape: 64 32 16 16 (524288)
I1012 11:55:12.032878 31118 net.cpp:186] Top shape: 64 32 16 16 (524288)
I1012 11:55:12.032883 31118 net.cpp:194] Memory required for data: 208466176
I1012 11:55:12.032887 31118 layer_factory.hpp:77] Creating layer conv3_1_Pooling
I1012 11:55:12.032897 31118 net.cpp:128] Creating Layer conv3_1_Pooling
I1012 11:55:12.032904 31118 net.cpp:558] conv3_1_Pooling <- conv3_1_1_conv3_1_scale1_0_split_0
I1012 11:55:12.032910 31118 net.cpp:522] conv3_1_Pooling -> conv3_1_Pooling
I1012 11:55:12.032936 31118 net.cpp:172] Setting up conv3_1_Pooling
I1012 11:55:12.032945 31118 net.cpp:186] Top shape: 64 32 1 1 (2048)
I1012 11:55:12.032949 31118 net.cpp:194] Memory required for data: 208474368
I1012 11:55:12.032953 31118 layer_factory.hpp:77] Creating layer conv3_1_2
I1012 11:55:12.032965 31118 net.cpp:128] Creating Layer conv3_1_2
I1012 11:55:12.032971 31118 net.cpp:558] conv3_1_2 <- conv3_1_Pooling
I1012 11:55:12.032979 31118 net.cpp:522] conv3_1_2 -> conv3_1_2
I1012 11:55:12.034374 31118 net.cpp:172] Setting up conv3_1_2
I1012 11:55:12.034401 31118 net.cpp:186] Top shape: 64 16 1 1 (1024)
I1012 11:55:12.034405 31118 net.cpp:194] Memory required for data: 208478464
I1012 11:55:12.034415 31118 layer_factory.hpp:77] Creating layer conv3_1_ReLU2
I1012 11:55:12.034431 31118 net.cpp:128] Creating Layer conv3_1_ReLU2
I1012 11:55:12.034466 31118 net.cpp:558] conv3_1_ReLU2 <- conv3_1_2
I1012 11:55:12.034477 31118 net.cpp:509] conv3_1_ReLU2 -> conv3_1_2 (in-place)
I1012 11:55:12.035048 31118 net.cpp:172] Setting up conv3_1_ReLU2
I1012 11:55:12.035069 31118 net.cpp:186] Top shape: 64 16 1 1 (1024)
I1012 11:55:12.035079 31118 net.cpp:194] Memory required for data: 208482560
I1012 11:55:12.035085 31118 layer_factory.hpp:77] Creating layer conv3_1_3
I1012 11:55:12.035099 31118 net.cpp:128] Creating Layer conv3_1_3
I1012 11:55:12.035104 31118 net.cpp:558] conv3_1_3 <- conv3_1_2
I1012 11:55:12.035115 31118 net.cpp:522] conv3_1_3 -> conv3_1_3
I1012 11:55:12.036489 31118 net.cpp:172] Setting up conv3_1_3
I1012 11:55:12.036515 31118 net.cpp:186] Top shape: 64 32 1 1 (2048)
I1012 11:55:12.036520 31118 net.cpp:194] Memory required for data: 208490752
I1012 11:55:12.036530 31118 layer_factory.hpp:77] Creating layer conv3_1_Prob3
I1012 11:55:12.036537 31118 net.cpp:128] Creating Layer conv3_1_Prob3
I1012 11:55:12.036568 31118 net.cpp:558] conv3_1_Prob3 <- conv3_1_3
I1012 11:55:12.036581 31118 net.cpp:509] conv3_1_Prob3 -> conv3_1_3 (in-place)
I1012 11:55:12.037541 31118 net.cpp:172] Setting up conv3_1_Prob3
I1012 11:55:12.037564 31118 net.cpp:186] Top shape: 64 32 1 1 (2048)
I1012 11:55:12.037569 31118 net.cpp:194] Memory required for data: 208498944
I1012 11:55:12.037573 31118 layer_factory.hpp:77] Creating layer conv3_1_down
I1012 11:55:12.037587 31118 net.cpp:128] Creating Layer conv3_1_down
I1012 11:55:12.037592 31118 net.cpp:558] conv3_1_down <- conv2_Axpy_3_conv2_3ReLU_1_0_split_1
I1012 11:55:12.037603 31118 net.cpp:522] conv3_1_down -> conv3_1_down
I1012 11:55:12.039007 31118 net.cpp:172] Setting up conv3_1_down
I1012 11:55:12.039033 31118 net.cpp:186] Top shape: 64 32 16 16 (524288)
I1012 11:55:12.039038 31118 net.cpp:194] Memory required for data: 210596096
I1012 11:55:12.039048 31118 layer_factory.hpp:77] Creating layer conv3_1_bn_down
I1012 11:55:12.039058 31118 net.cpp:128] Creating Layer conv3_1_bn_down
I1012 11:55:12.039083 31118 net.cpp:558] conv3_1_bn_down <- conv3_1_down
I1012 11:55:12.039093 31118 net.cpp:509] conv3_1_bn_down -> conv3_1_down (in-place)
I1012 11:55:12.039333 31118 net.cpp:172] Setting up conv3_1_bn_down
I1012 11:55:12.039345 31118 net.cpp:186] Top shape: 64 32 16 16 (524288)
I1012 11:55:12.039350 31118 net.cpp:194] Memory required for data: 212693248
I1012 11:55:12.039360 31118 layer_factory.hpp:77] Creating layer conv3_1_scale_down
I1012 11:55:12.039366 31118 net.cpp:128] Creating Layer conv3_1_scale_down
I1012 11:55:12.039371 31118 net.cpp:558] conv3_1_scale_down <- conv3_1_down
I1012 11:55:12.039378 31118 net.cpp:509] conv3_1_scale_down -> conv3_1_down (in-place)
I1012 11:55:12.039424 31118 layer_factory.hpp:77] Creating layer conv3_1_scale_down
I1012 11:55:12.039566 31118 net.cpp:172] Setting up conv3_1_scale_down
I1012 11:55:12.039577 31118 net.cpp:186] Top shape: 64 32 16 16 (524288)
I1012 11:55:12.039582 31118 net.cpp:194] Memory required for data: 214790400
I1012 11:55:12.039588 31118 layer_factory.hpp:77] Creating layer conv3_Axpy_1
I1012 11:55:12.039597 31118 net.cpp:128] Creating Layer conv3_Axpy_1
I1012 11:55:12.039605 31118 net.cpp:558] conv3_Axpy_1 <- conv3_1_3
I1012 11:55:12.039610 31118 net.cpp:558] conv3_Axpy_1 <- conv3_1_1_conv3_1_scale1_0_split_1
I1012 11:55:12.039615 31118 net.cpp:558] conv3_Axpy_1 <- conv3_1_down
I1012 11:55:12.039623 31118 net.cpp:522] conv3_Axpy_1 -> conv3_Axpy_1
I1012 11:55:12.039723 31118 net.cpp:172] Setting up conv3_Axpy_1
I1012 11:55:12.039736 31118 net.cpp:186] Top shape: 64 32 16 16 (524288)
I1012 11:55:12.039739 31118 net.cpp:194] Memory required for data: 216887552
I1012 11:55:12.039743 31118 layer_factory.hpp:77] Creating layer conv3_1ReLU_1
I1012 11:55:12.039750 31118 net.cpp:128] Creating Layer conv3_1ReLU_1
I1012 11:55:12.039754 31118 net.cpp:558] conv3_1ReLU_1 <- conv3_Axpy_1
I1012 11:55:12.039760 31118 net.cpp:509] conv3_1ReLU_1 -> conv3_Axpy_1 (in-place)
I1012 11:55:12.039994 31118 net.cpp:172] Setting up conv3_1ReLU_1
I1012 11:55:12.040006 31118 net.cpp:186] Top shape: 64 32 16 16 (524288)
I1012 11:55:12.040011 31118 net.cpp:194] Memory required for data: 218984704
I1012 11:55:12.040015 31118 layer_factory.hpp:77] Creating layer conv3_Axpy_1_conv3_1ReLU_1_0_split
I1012 11:55:12.040024 31118 net.cpp:128] Creating Layer conv3_Axpy_1_conv3_1ReLU_1_0_split
I1012 11:55:12.040032 31118 net.cpp:558] conv3_Axpy_1_conv3_1ReLU_1_0_split <- conv3_Axpy_1
I1012 11:55:12.040040 31118 net.cpp:522] conv3_Axpy_1_conv3_1ReLU_1_0_split -> conv3_Axpy_1_conv3_1ReLU_1_0_split_0
I1012 11:55:12.040047 31118 net.cpp:522] conv3_Axpy_1_conv3_1ReLU_1_0_split -> conv3_Axpy_1_conv3_1ReLU_1_0_split_1
I1012 11:55:12.040093 31118 net.cpp:172] Setting up conv3_Axpy_1_conv3_1ReLU_1_0_split
I1012 11:55:12.040103 31118 net.cpp:186] Top shape: 64 32 16 16 (524288)
I1012 11:55:12.040110 31118 net.cpp:186] Top shape: 64 32 16 16 (524288)
I1012 11:55:12.040114 31118 net.cpp:194] Memory required for data: 223179008
I1012 11:55:12.040118 31118 layer_factory.hpp:77] Creating layer conv3_2_0
I1012 11:55:12.040130 31118 net.cpp:128] Creating Layer conv3_2_0
I1012 11:55:12.040135 31118 net.cpp:558] conv3_2_0 <- conv3_Axpy_1_conv3_1ReLU_1_0_split_0
I1012 11:55:12.040144 31118 net.cpp:522] conv3_2_0 -> conv3_2_0
I1012 11:55:12.041656 31118 net.cpp:172] Setting up conv3_2_0
I1012 11:55:12.041682 31118 net.cpp:186] Top shape: 64 32 16 16 (524288)
I1012 11:55:12.041685 31118 net.cpp:194] Memory required for data: 225276160
I1012 11:55:12.041695 31118 layer_factory.hpp:77] Creating layer conv3_2_bn0
I1012 11:55:12.041707 31118 net.cpp:128] Creating Layer conv3_2_bn0
I1012 11:55:12.041712 31118 net.cpp:558] conv3_2_bn0 <- conv3_2_0
I1012 11:55:12.041718 31118 net.cpp:509] conv3_2_bn0 -> conv3_2_0 (in-place)
I1012 11:55:12.041975 31118 net.cpp:172] Setting up conv3_2_bn0
I1012 11:55:12.041986 31118 net.cpp:186] Top shape: 64 32 16 16 (524288)
I1012 11:55:12.041990 31118 net.cpp:194] Memory required for data: 227373312
I1012 11:55:12.042001 31118 layer_factory.hpp:77] Creating layer conv3_2_scale0
I1012 11:55:12.042026 31118 net.cpp:128] Creating Layer conv3_2_scale0
I1012 11:55:12.042034 31118 net.cpp:558] conv3_2_scale0 <- conv3_2_0
I1012 11:55:12.042042 31118 net.cpp:509] conv3_2_scale0 -> conv3_2_0 (in-place)
I1012 11:55:12.042088 31118 layer_factory.hpp:77] Creating layer conv3_2_scale0
I1012 11:55:12.042232 31118 net.cpp:172] Setting up conv3_2_scale0
I1012 11:55:12.042243 31118 net.cpp:186] Top shape: 64 32 16 16 (524288)
I1012 11:55:12.042246 31118 net.cpp:194] Memory required for data: 229470464
I1012 11:55:12.042254 31118 layer_factory.hpp:77] Creating layer conv3_2_ReLU0
I1012 11:55:12.042263 31118 net.cpp:128] Creating Layer conv3_2_ReLU0
I1012 11:55:12.042268 31118 net.cpp:558] conv3_2_ReLU0 <- conv3_2_0
I1012 11:55:12.042274 31118 net.cpp:509] conv3_2_ReLU0 -> conv3_2_0 (in-place)
I1012 11:55:12.042516 31118 net.cpp:172] Setting up conv3_2_ReLU0
I1012 11:55:12.042528 31118 net.cpp:186] Top shape: 64 32 16 16 (524288)
I1012 11:55:12.042533 31118 net.cpp:194] Memory required for data: 231567616
I1012 11:55:12.042537 31118 layer_factory.hpp:77] Creating layer conv3_2_1
I1012 11:55:12.042551 31118 net.cpp:128] Creating Layer conv3_2_1
I1012 11:55:12.042556 31118 net.cpp:558] conv3_2_1 <- conv3_2_0
I1012 11:55:12.042564 31118 net.cpp:522] conv3_2_1 -> conv3_2_1
I1012 11:55:12.044092 31118 net.cpp:172] Setting up conv3_2_1
I1012 11:55:12.044121 31118 net.cpp:186] Top shape: 64 32 16 16 (524288)
I1012 11:55:12.044126 31118 net.cpp:194] Memory required for data: 233664768
I1012 11:55:12.044137 31118 layer_factory.hpp:77] Creating layer conv3_2_bn1
I1012 11:55:12.044145 31118 net.cpp:128] Creating Layer conv3_2_bn1
I1012 11:55:12.044150 31118 net.cpp:558] conv3_2_bn1 <- conv3_2_1
I1012 11:55:12.044159 31118 net.cpp:509] conv3_2_bn1 -> conv3_2_1 (in-place)
I1012 11:55:12.044414 31118 net.cpp:172] Setting up conv3_2_bn1
I1012 11:55:12.044425 31118 net.cpp:186] Top shape: 64 32 16 16 (524288)
I1012 11:55:12.044428 31118 net.cpp:194] Memory required for data: 235761920
I1012 11:55:12.044438 31118 layer_factory.hpp:77] Creating layer conv3_2_scale1
I1012 11:55:12.044447 31118 net.cpp:128] Creating Layer conv3_2_scale1
I1012 11:55:12.044454 31118 net.cpp:558] conv3_2_scale1 <- conv3_2_1
I1012 11:55:12.044461 31118 net.cpp:509] conv3_2_scale1 -> conv3_2_1 (in-place)
I1012 11:55:12.044505 31118 layer_factory.hpp:77] Creating layer conv3_2_scale1
I1012 11:55:12.044646 31118 net.cpp:172] Setting up conv3_2_scale1
I1012 11:55:12.044656 31118 net.cpp:186] Top shape: 64 32 16 16 (524288)
I1012 11:55:12.044661 31118 net.cpp:194] Memory required for data: 237859072
I1012 11:55:12.044668 31118 layer_factory.hpp:77] Creating layer conv3_2_1_conv3_2_scale1_0_split
I1012 11:55:12.044680 31118 net.cpp:128] Creating Layer conv3_2_1_conv3_2_scale1_0_split
I1012 11:55:12.044693 31118 net.cpp:558] conv3_2_1_conv3_2_scale1_0_split <- conv3_2_1
I1012 11:55:12.044699 31118 net.cpp:522] conv3_2_1_conv3_2_scale1_0_split -> conv3_2_1_conv3_2_scale1_0_split_0
I1012 11:55:12.044709 31118 net.cpp:522] conv3_2_1_conv3_2_scale1_0_split -> conv3_2_1_conv3_2_scale1_0_split_1
I1012 11:55:12.044749 31118 net.cpp:172] Setting up conv3_2_1_conv3_2_scale1_0_split
I1012 11:55:12.044756 31118 net.cpp:186] Top shape: 64 32 16 16 (524288)
I1012 11:55:12.044762 31118 net.cpp:186] Top shape: 64 32 16 16 (524288)
I1012 11:55:12.044766 31118 net.cpp:194] Memory required for data: 242053376
I1012 11:55:12.044770 31118 layer_factory.hpp:77] Creating layer conv3_2_Pooling
I1012 11:55:12.044777 31118 net.cpp:128] Creating Layer conv3_2_Pooling
I1012 11:55:12.044781 31118 net.cpp:558] conv3_2_Pooling <- conv3_2_1_conv3_2_scale1_0_split_0
I1012 11:55:12.044790 31118 net.cpp:522] conv3_2_Pooling -> conv3_2_Pooling
I1012 11:55:12.044817 31118 net.cpp:172] Setting up conv3_2_Pooling
I1012 11:55:12.044826 31118 net.cpp:186] Top shape: 64 32 1 1 (2048)
I1012 11:55:12.044831 31118 net.cpp:194] Memory required for data: 242061568
I1012 11:55:12.044836 31118 layer_factory.hpp:77] Creating layer conv3_2_2
I1012 11:55:12.044847 31118 net.cpp:128] Creating Layer conv3_2_2
I1012 11:55:12.044868 31118 net.cpp:558] conv3_2_2 <- conv3_2_Pooling
I1012 11:55:12.044878 31118 net.cpp:522] conv3_2_2 -> conv3_2_2
I1012 11:55:12.046277 31118 net.cpp:172] Setting up conv3_2_2
I1012 11:55:12.046303 31118 net.cpp:186] Top shape: 64 16 1 1 (1024)
I1012 11:55:12.046308 31118 net.cpp:194] Memory required for data: 242065664
I1012 11:55:12.046317 31118 layer_factory.hpp:77] Creating layer conv3_2_ReLU2
I1012 11:55:12.046325 31118 net.cpp:128] Creating Layer conv3_2_ReLU2
I1012 11:55:12.046330 31118 net.cpp:558] conv3_2_ReLU2 <- conv3_2_2
I1012 11:55:12.046339 31118 net.cpp:509] conv3_2_ReLU2 -> conv3_2_2 (in-place)
I1012 11:55:12.046587 31118 net.cpp:172] Setting up conv3_2_ReLU2
I1012 11:55:12.046598 31118 net.cpp:186] Top shape: 64 16 1 1 (1024)
I1012 11:55:12.046602 31118 net.cpp:194] Memory required for data: 242069760
I1012 11:55:12.046607 31118 layer_factory.hpp:77] Creating layer conv3_2_3
I1012 11:55:12.046618 31118 net.cpp:128] Creating Layer conv3_2_3
I1012 11:55:12.046627 31118 net.cpp:558] conv3_2_3 <- conv3_2_2
I1012 11:55:12.046635 31118 net.cpp:522] conv3_2_3 -> conv3_2_3
I1012 11:55:12.048008 31118 net.cpp:172] Setting up conv3_2_3
I1012 11:55:12.048034 31118 net.cpp:186] Top shape: 64 32 1 1 (2048)
I1012 11:55:12.048039 31118 net.cpp:194] Memory required for data: 242077952
I1012 11:55:12.048049 31118 layer_factory.hpp:77] Creating layer conv3_2_Prob3
I1012 11:55:12.048061 31118 net.cpp:128] Creating Layer conv3_2_Prob3
I1012 11:55:12.048074 31118 net.cpp:558] conv3_2_Prob3 <- conv3_2_3
I1012 11:55:12.048081 31118 net.cpp:509] conv3_2_Prob3 -> conv3_2_3 (in-place)
I1012 11:55:12.048642 31118 net.cpp:172] Setting up conv3_2_Prob3
I1012 11:55:12.048662 31118 net.cpp:186] Top shape: 64 32 1 1 (2048)
I1012 11:55:12.048667 31118 net.cpp:194] Memory required for data: 242086144
I1012 11:55:12.048671 31118 layer_factory.hpp:77] Creating layer conv3_Axpy_2
I1012 11:55:12.048681 31118 net.cpp:128] Creating Layer conv3_Axpy_2
I1012 11:55:12.048687 31118 net.cpp:558] conv3_Axpy_2 <- conv3_2_3
I1012 11:55:12.048693 31118 net.cpp:558] conv3_Axpy_2 <- conv3_2_1_conv3_2_scale1_0_split_1
I1012 11:55:12.048704 31118 net.cpp:558] conv3_Axpy_2 <- conv3_Axpy_1_conv3_1ReLU_1_0_split_1
I1012 11:55:12.048710 31118 net.cpp:522] conv3_Axpy_2 -> conv3_Axpy_2
I1012 11:55:12.048780 31118 net.cpp:172] Setting up conv3_Axpy_2
I1012 11:55:12.048790 31118 net.cpp:186] Top shape: 64 32 16 16 (524288)
I1012 11:55:12.048794 31118 net.cpp:194] Memory required for data: 244183296
I1012 11:55:12.048799 31118 layer_factory.hpp:77] Creating layer conv3_2ReLU_1
I1012 11:55:12.048806 31118 net.cpp:128] Creating Layer conv3_2ReLU_1
I1012 11:55:12.048813 31118 net.cpp:558] conv3_2ReLU_1 <- conv3_Axpy_2
I1012 11:55:12.048820 31118 net.cpp:509] conv3_2ReLU_1 -> conv3_Axpy_2 (in-place)
I1012 11:55:12.049051 31118 net.cpp:172] Setting up conv3_2ReLU_1
I1012 11:55:12.049062 31118 net.cpp:186] Top shape: 64 32 16 16 (524288)
I1012 11:55:12.049065 31118 net.cpp:194] Memory required for data: 246280448
I1012 11:55:12.049069 31118 layer_factory.hpp:77] Creating layer conv3_Axpy_2_conv3_2ReLU_1_0_split
I1012 11:55:12.049078 31118 net.cpp:128] Creating Layer conv3_Axpy_2_conv3_2ReLU_1_0_split
I1012 11:55:12.049087 31118 net.cpp:558] conv3_Axpy_2_conv3_2ReLU_1_0_split <- conv3_Axpy_2
I1012 11:55:12.049094 31118 net.cpp:522] conv3_Axpy_2_conv3_2ReLU_1_0_split -> conv3_Axpy_2_conv3_2ReLU_1_0_split_0
I1012 11:55:12.049103 31118 net.cpp:522] conv3_Axpy_2_conv3_2ReLU_1_0_split -> conv3_Axpy_2_conv3_2ReLU_1_0_split_1
I1012 11:55:12.049144 31118 net.cpp:172] Setting up conv3_Axpy_2_conv3_2ReLU_1_0_split
I1012 11:55:12.049154 31118 net.cpp:186] Top shape: 64 32 16 16 (524288)
I1012 11:55:12.049160 31118 net.cpp:186] Top shape: 64 32 16 16 (524288)
I1012 11:55:12.049163 31118 net.cpp:194] Memory required for data: 250474752
I1012 11:55:12.049167 31118 layer_factory.hpp:77] Creating layer conv3_3_0
I1012 11:55:12.049180 31118 net.cpp:128] Creating Layer conv3_3_0
I1012 11:55:12.049185 31118 net.cpp:558] conv3_3_0 <- conv3_Axpy_2_conv3_2ReLU_1_0_split_0
I1012 11:55:12.049207 31118 net.cpp:522] conv3_3_0 -> conv3_3_0
I1012 11:55:12.050765 31118 net.cpp:172] Setting up conv3_3_0
I1012 11:55:12.050791 31118 net.cpp:186] Top shape: 64 32 16 16 (524288)
I1012 11:55:12.050796 31118 net.cpp:194] Memory required for data: 252571904
I1012 11:55:12.050809 31118 layer_factory.hpp:77] Creating layer conv3_3_bn0
I1012 11:55:12.050820 31118 net.cpp:128] Creating Layer conv3_3_bn0
I1012 11:55:12.050825 31118 net.cpp:558] conv3_3_bn0 <- conv3_3_0
I1012 11:55:12.050834 31118 net.cpp:509] conv3_3_bn0 -> conv3_3_0 (in-place)
I1012 11:55:12.051086 31118 net.cpp:172] Setting up conv3_3_bn0
I1012 11:55:12.051097 31118 net.cpp:186] Top shape: 64 32 16 16 (524288)
I1012 11:55:12.051101 31118 net.cpp:194] Memory required for data: 254669056
I1012 11:55:12.051110 31118 layer_factory.hpp:77] Creating layer conv3_3_scale0
I1012 11:55:12.051117 31118 net.cpp:128] Creating Layer conv3_3_scale0
I1012 11:55:12.051122 31118 net.cpp:558] conv3_3_scale0 <- conv3_3_0
I1012 11:55:12.051127 31118 net.cpp:509] conv3_3_scale0 -> conv3_3_0 (in-place)
I1012 11:55:12.051173 31118 layer_factory.hpp:77] Creating layer conv3_3_scale0
I1012 11:55:12.051312 31118 net.cpp:172] Setting up conv3_3_scale0
I1012 11:55:12.051322 31118 net.cpp:186] Top shape: 64 32 16 16 (524288)
I1012 11:55:12.051326 31118 net.cpp:194] Memory required for data: 256766208
I1012 11:55:12.051333 31118 layer_factory.hpp:77] Creating layer conv3_3_ReLU0
I1012 11:55:12.051342 31118 net.cpp:128] Creating Layer conv3_3_ReLU0
I1012 11:55:12.051347 31118 net.cpp:558] conv3_3_ReLU0 <- conv3_3_0
I1012 11:55:12.051352 31118 net.cpp:509] conv3_3_ReLU0 -> conv3_3_0 (in-place)
I1012 11:55:12.051589 31118 net.cpp:172] Setting up conv3_3_ReLU0
I1012 11:55:12.051600 31118 net.cpp:186] Top shape: 64 32 16 16 (524288)
I1012 11:55:12.051604 31118 net.cpp:194] Memory required for data: 258863360
I1012 11:55:12.051609 31118 layer_factory.hpp:77] Creating layer conv3_3_1
I1012 11:55:12.051621 31118 net.cpp:128] Creating Layer conv3_3_1
I1012 11:55:12.051626 31118 net.cpp:558] conv3_3_1 <- conv3_3_0
I1012 11:55:12.051635 31118 net.cpp:522] conv3_3_1 -> conv3_3_1
I1012 11:55:12.053150 31118 net.cpp:172] Setting up conv3_3_1
I1012 11:55:12.053176 31118 net.cpp:186] Top shape: 64 32 16 16 (524288)
I1012 11:55:12.053180 31118 net.cpp:194] Memory required for data: 260960512
I1012 11:55:12.053194 31118 layer_factory.hpp:77] Creating layer conv3_3_bn1
I1012 11:55:12.053203 31118 net.cpp:128] Creating Layer conv3_3_bn1
I1012 11:55:12.053208 31118 net.cpp:558] conv3_3_bn1 <- conv3_3_1
I1012 11:55:12.053215 31118 net.cpp:509] conv3_3_bn1 -> conv3_3_1 (in-place)
I1012 11:55:12.053459 31118 net.cpp:172] Setting up conv3_3_bn1
I1012 11:55:12.053469 31118 net.cpp:186] Top shape: 64 32 16 16 (524288)
I1012 11:55:12.053473 31118 net.cpp:194] Memory required for data: 263057664
I1012 11:55:12.053483 31118 layer_factory.hpp:77] Creating layer conv3_3_scale1
I1012 11:55:12.053490 31118 net.cpp:128] Creating Layer conv3_3_scale1
I1012 11:55:12.053495 31118 net.cpp:558] conv3_3_scale1 <- conv3_3_1
I1012 11:55:12.053501 31118 net.cpp:509] conv3_3_scale1 -> conv3_3_1 (in-place)
I1012 11:55:12.053547 31118 layer_factory.hpp:77] Creating layer conv3_3_scale1
I1012 11:55:12.053690 31118 net.cpp:172] Setting up conv3_3_scale1
I1012 11:55:12.053700 31118 net.cpp:186] Top shape: 64 32 16 16 (524288)
I1012 11:55:12.053704 31118 net.cpp:194] Memory required for data: 265154816
I1012 11:55:12.053712 31118 layer_factory.hpp:77] Creating layer conv3_3_1_conv3_3_scale1_0_split
I1012 11:55:12.053726 31118 net.cpp:128] Creating Layer conv3_3_1_conv3_3_scale1_0_split
I1012 11:55:12.053732 31118 net.cpp:558] conv3_3_1_conv3_3_scale1_0_split <- conv3_3_1
I1012 11:55:12.053741 31118 net.cpp:522] conv3_3_1_conv3_3_scale1_0_split -> conv3_3_1_conv3_3_scale1_0_split_0
I1012 11:55:12.053750 31118 net.cpp:522] conv3_3_1_conv3_3_scale1_0_split -> conv3_3_1_conv3_3_scale1_0_split_1
I1012 11:55:12.053789 31118 net.cpp:172] Setting up conv3_3_1_conv3_3_scale1_0_split
I1012 11:55:12.053797 31118 net.cpp:186] Top shape: 64 32 16 16 (524288)
I1012 11:55:12.053817 31118 net.cpp:186] Top shape: 64 32 16 16 (524288)
I1012 11:55:12.053822 31118 net.cpp:194] Memory required for data: 269349120
I1012 11:55:12.053827 31118 layer_factory.hpp:77] Creating layer conv3_3_Pooling
I1012 11:55:12.053834 31118 net.cpp:128] Creating Layer conv3_3_Pooling
I1012 11:55:12.053839 31118 net.cpp:558] conv3_3_Pooling <- conv3_3_1_conv3_3_scale1_0_split_0
I1012 11:55:12.053845 31118 net.cpp:522] conv3_3_Pooling -> conv3_3_Pooling
I1012 11:55:12.053874 31118 net.cpp:172] Setting up conv3_3_Pooling
I1012 11:55:12.053881 31118 net.cpp:186] Top shape: 64 32 1 1 (2048)
I1012 11:55:12.053885 31118 net.cpp:194] Memory required for data: 269357312
I1012 11:55:12.053889 31118 layer_factory.hpp:77] Creating layer conv3_3_2
I1012 11:55:12.053900 31118 net.cpp:128] Creating Layer conv3_3_2
I1012 11:55:12.053905 31118 net.cpp:558] conv3_3_2 <- conv3_3_Pooling
I1012 11:55:12.053915 31118 net.cpp:522] conv3_3_2 -> conv3_3_2
I1012 11:55:12.059216 31118 net.cpp:172] Setting up conv3_3_2
I1012 11:55:12.059242 31118 net.cpp:186] Top shape: 64 16 1 1 (1024)
I1012 11:55:12.059247 31118 net.cpp:194] Memory required for data: 269361408
I1012 11:55:12.059257 31118 layer_factory.hpp:77] Creating layer conv3_3_ReLU2
I1012 11:55:12.059269 31118 net.cpp:128] Creating Layer conv3_3_ReLU2
I1012 11:55:12.059274 31118 net.cpp:558] conv3_3_ReLU2 <- conv3_3_2
I1012 11:55:12.059280 31118 net.cpp:509] conv3_3_ReLU2 -> conv3_3_2 (in-place)
I1012 11:55:12.061281 31118 net.cpp:172] Setting up conv3_3_ReLU2
I1012 11:55:12.061306 31118 net.cpp:186] Top shape: 64 16 1 1 (1024)
I1012 11:55:12.061311 31118 net.cpp:194] Memory required for data: 269365504
I1012 11:55:12.061316 31118 layer_factory.hpp:77] Creating layer conv3_3_3
I1012 11:55:12.061336 31118 net.cpp:128] Creating Layer conv3_3_3
I1012 11:55:12.061342 31118 net.cpp:558] conv3_3_3 <- conv3_3_2
I1012 11:55:12.061353 31118 net.cpp:522] conv3_3_3 -> conv3_3_3
I1012 11:55:12.068073 31118 net.cpp:172] Setting up conv3_3_3
I1012 11:55:12.068100 31118 net.cpp:186] Top shape: 64 32 1 1 (2048)
I1012 11:55:12.068105 31118 net.cpp:194] Memory required for data: 269373696
I1012 11:55:12.068114 31118 layer_factory.hpp:77] Creating layer conv3_3_Prob3
I1012 11:55:12.068125 31118 net.cpp:128] Creating Layer conv3_3_Prob3
I1012 11:55:12.068131 31118 net.cpp:558] conv3_3_Prob3 <- conv3_3_3
I1012 11:55:12.068137 31118 net.cpp:509] conv3_3_Prob3 -> conv3_3_3 (in-place)
I1012 11:55:12.070152 31118 net.cpp:172] Setting up conv3_3_Prob3
I1012 11:55:12.070169 31118 net.cpp:186] Top shape: 64 32 1 1 (2048)
I1012 11:55:12.070174 31118 net.cpp:194] Memory required for data: 269381888
I1012 11:55:12.070178 31118 layer_factory.hpp:77] Creating layer conv3_Axpy_3
I1012 11:55:12.070188 31118 net.cpp:128] Creating Layer conv3_Axpy_3
I1012 11:55:12.070194 31118 net.cpp:558] conv3_Axpy_3 <- conv3_3_3
I1012 11:55:12.070199 31118 net.cpp:558] conv3_Axpy_3 <- conv3_3_1_conv3_3_scale1_0_split_1
I1012 11:55:12.070205 31118 net.cpp:558] conv3_Axpy_3 <- conv3_Axpy_2_conv3_2ReLU_1_0_split_1
I1012 11:55:12.070214 31118 net.cpp:522] conv3_Axpy_3 -> conv3_Axpy_3
I1012 11:55:12.070286 31118 net.cpp:172] Setting up conv3_Axpy_3
I1012 11:55:12.070292 31118 net.cpp:186] Top shape: 64 32 16 16 (524288)
I1012 11:55:12.070297 31118 net.cpp:194] Memory required for data: 271479040
I1012 11:55:12.070302 31118 layer_factory.hpp:77] Creating layer conv3_3ReLU_1
I1012 11:55:12.070307 31118 net.cpp:128] Creating Layer conv3_3ReLU_1
I1012 11:55:12.070312 31118 net.cpp:558] conv3_3ReLU_1 <- conv3_Axpy_3
I1012 11:55:12.070320 31118 net.cpp:509] conv3_3ReLU_1 -> conv3_Axpy_3 (in-place)
I1012 11:55:12.072360 31118 net.cpp:172] Setting up conv3_3ReLU_1
I1012 11:55:12.072376 31118 net.cpp:186] Top shape: 64 32 16 16 (524288)
I1012 11:55:12.072381 31118 net.cpp:194] Memory required for data: 273576192
I1012 11:55:12.072386 31118 layer_factory.hpp:77] Creating layer conv3_Axpy_3_conv3_3ReLU_1_0_split
I1012 11:55:12.072391 31118 net.cpp:128] Creating Layer conv3_Axpy_3_conv3_3ReLU_1_0_split
I1012 11:55:12.072413 31118 net.cpp:558] conv3_Axpy_3_conv3_3ReLU_1_0_split <- conv3_Axpy_3
I1012 11:55:12.072427 31118 net.cpp:522] conv3_Axpy_3_conv3_3ReLU_1_0_split -> conv3_Axpy_3_conv3_3ReLU_1_0_split_0
I1012 11:55:12.072446 31118 net.cpp:522] conv3_Axpy_3_conv3_3ReLU_1_0_split -> conv3_Axpy_3_conv3_3ReLU_1_0_split_1
I1012 11:55:12.072490 31118 net.cpp:172] Setting up conv3_Axpy_3_conv3_3ReLU_1_0_split
I1012 11:55:12.072499 31118 net.cpp:186] Top shape: 64 32 16 16 (524288)
I1012 11:55:12.072505 31118 net.cpp:186] Top shape: 64 32 16 16 (524288)
I1012 11:55:12.072510 31118 net.cpp:194] Memory required for data: 277770496
I1012 11:55:12.072513 31118 layer_factory.hpp:77] Creating layer conv4_1_0
I1012 11:55:12.072526 31118 net.cpp:128] Creating Layer conv4_1_0
I1012 11:55:12.072531 31118 net.cpp:558] conv4_1_0 <- conv3_Axpy_3_conv3_3ReLU_1_0_split_0
I1012 11:55:12.072540 31118 net.cpp:522] conv4_1_0 -> conv4_1_0
I1012 11:55:12.079483 31118 net.cpp:172] Setting up conv4_1_0
I1012 11:55:12.079515 31118 net.cpp:186] Top shape: 64 64 8 8 (262144)
I1012 11:55:12.079521 31118 net.cpp:194] Memory required for data: 278819072
I1012 11:55:12.079533 31118 layer_factory.hpp:77] Creating layer conv4_1_bn0
I1012 11:55:12.079545 31118 net.cpp:128] Creating Layer conv4_1_bn0
I1012 11:55:12.079552 31118 net.cpp:558] conv4_1_bn0 <- conv4_1_0
I1012 11:55:12.079562 31118 net.cpp:509] conv4_1_bn0 -> conv4_1_0 (in-place)
I1012 11:55:12.079838 31118 net.cpp:172] Setting up conv4_1_bn0
I1012 11:55:12.079850 31118 net.cpp:186] Top shape: 64 64 8 8 (262144)
I1012 11:55:12.079854 31118 net.cpp:194] Memory required for data: 279867648
I1012 11:55:12.079864 31118 layer_factory.hpp:77] Creating layer conv4_1_scale0
I1012 11:55:12.079874 31118 net.cpp:128] Creating Layer conv4_1_scale0
I1012 11:55:12.079877 31118 net.cpp:558] conv4_1_scale0 <- conv4_1_0
I1012 11:55:12.079882 31118 net.cpp:509] conv4_1_scale0 -> conv4_1_0 (in-place)
I1012 11:55:12.079934 31118 layer_factory.hpp:77] Creating layer conv4_1_scale0
I1012 11:55:12.080092 31118 net.cpp:172] Setting up conv4_1_scale0
I1012 11:55:12.080101 31118 net.cpp:186] Top shape: 64 64 8 8 (262144)
I1012 11:55:12.080104 31118 net.cpp:194] Memory required for data: 280916224
I1012 11:55:12.080126 31118 layer_factory.hpp:77] Creating layer conv4_1_ReLU0
I1012 11:55:12.080132 31118 net.cpp:128] Creating Layer conv4_1_ReLU0
I1012 11:55:12.080137 31118 net.cpp:558] conv4_1_ReLU0 <- conv4_1_0
I1012 11:55:12.080142 31118 net.cpp:509] conv4_1_ReLU0 -> conv4_1_0 (in-place)
I1012 11:55:12.081189 31118 net.cpp:172] Setting up conv4_1_ReLU0
I1012 11:55:12.081212 31118 net.cpp:186] Top shape: 64 64 8 8 (262144)
I1012 11:55:12.081218 31118 net.cpp:194] Memory required for data: 281964800
I1012 11:55:12.081223 31118 layer_factory.hpp:77] Creating layer conv4_1_1
I1012 11:55:12.081238 31118 net.cpp:128] Creating Layer conv4_1_1
I1012 11:55:12.081243 31118 net.cpp:558] conv4_1_1 <- conv4_1_0
I1012 11:55:12.081259 31118 net.cpp:522] conv4_1_1 -> conv4_1_1
I1012 11:55:12.088304 31118 net.cpp:172] Setting up conv4_1_1
I1012 11:55:12.088330 31118 net.cpp:186] Top shape: 64 64 8 8 (262144)
I1012 11:55:12.088335 31118 net.cpp:194] Memory required for data: 283013376
I1012 11:55:12.088346 31118 layer_factory.hpp:77] Creating layer conv4_1_bn1
I1012 11:55:12.088358 31118 net.cpp:128] Creating Layer conv4_1_bn1
I1012 11:55:12.088363 31118 net.cpp:558] conv4_1_bn1 <- conv4_1_1
I1012 11:55:12.088376 31118 net.cpp:509] conv4_1_bn1 -> conv4_1_1 (in-place)
I1012 11:55:12.088649 31118 net.cpp:172] Setting up conv4_1_bn1
I1012 11:55:12.088665 31118 net.cpp:186] Top shape: 64 64 8 8 (262144)
I1012 11:55:12.088668 31118 net.cpp:194] Memory required for data: 284061952
I1012 11:55:12.088677 31118 layer_factory.hpp:77] Creating layer conv4_1_scale1
I1012 11:55:12.088685 31118 net.cpp:128] Creating Layer conv4_1_scale1
I1012 11:55:12.088688 31118 net.cpp:558] conv4_1_scale1 <- conv4_1_1
I1012 11:55:12.088695 31118 net.cpp:509] conv4_1_scale1 -> conv4_1_1 (in-place)
I1012 11:55:12.088742 31118 layer_factory.hpp:77] Creating layer conv4_1_scale1
I1012 11:55:12.088918 31118 net.cpp:172] Setting up conv4_1_scale1
I1012 11:55:12.088927 31118 net.cpp:186] Top shape: 64 64 8 8 (262144)
I1012 11:55:12.088930 31118 net.cpp:194] Memory required for data: 285110528
I1012 11:55:12.088938 31118 layer_factory.hpp:77] Creating layer conv4_1_1_conv4_1_scale1_0_split
I1012 11:55:12.088948 31118 net.cpp:128] Creating Layer conv4_1_1_conv4_1_scale1_0_split
I1012 11:55:12.088953 31118 net.cpp:558] conv4_1_1_conv4_1_scale1_0_split <- conv4_1_1
I1012 11:55:12.088960 31118 net.cpp:522] conv4_1_1_conv4_1_scale1_0_split -> conv4_1_1_conv4_1_scale1_0_split_0
I1012 11:55:12.088968 31118 net.cpp:522] conv4_1_1_conv4_1_scale1_0_split -> conv4_1_1_conv4_1_scale1_0_split_1
I1012 11:55:12.089013 31118 net.cpp:172] Setting up conv4_1_1_conv4_1_scale1_0_split
I1012 11:55:12.089021 31118 net.cpp:186] Top shape: 64 64 8 8 (262144)
I1012 11:55:12.089027 31118 net.cpp:186] Top shape: 64 64 8 8 (262144)
I1012 11:55:12.089030 31118 net.cpp:194] Memory required for data: 287207680
I1012 11:55:12.089035 31118 layer_factory.hpp:77] Creating layer conv4_1_Pooling
I1012 11:55:12.089046 31118 net.cpp:128] Creating Layer conv4_1_Pooling
I1012 11:55:12.089051 31118 net.cpp:558] conv4_1_Pooling <- conv4_1_1_conv4_1_scale1_0_split_0
I1012 11:55:12.089056 31118 net.cpp:522] conv4_1_Pooling -> conv4_1_Pooling
I1012 11:55:12.089084 31118 net.cpp:172] Setting up conv4_1_Pooling
I1012 11:55:12.089092 31118 net.cpp:186] Top shape: 64 64 1 1 (4096)
I1012 11:55:12.089095 31118 net.cpp:194] Memory required for data: 287224064
I1012 11:55:12.089100 31118 layer_factory.hpp:77] Creating layer conv4_1_2
I1012 11:55:12.089113 31118 net.cpp:128] Creating Layer conv4_1_2
I1012 11:55:12.089118 31118 net.cpp:558] conv4_1_2 <- conv4_1_Pooling
I1012 11:55:12.089126 31118 net.cpp:522] conv4_1_2 -> conv4_1_2
I1012 11:55:12.094646 31118 net.cpp:172] Setting up conv4_1_2
I1012 11:55:12.094672 31118 net.cpp:186] Top shape: 64 16 1 1 (1024)
I1012 11:55:12.094677 31118 net.cpp:194] Memory required for data: 287228160
I1012 11:55:12.094687 31118 layer_factory.hpp:77] Creating layer conv4_1_ReLU2
I1012 11:55:12.094696 31118 net.cpp:128] Creating Layer conv4_1_ReLU2
I1012 11:55:12.094700 31118 net.cpp:558] conv4_1_ReLU2 <- conv4_1_2
I1012 11:55:12.094709 31118 net.cpp:509] conv4_1_ReLU2 -> conv4_1_2 (in-place)
I1012 11:55:12.096699 31118 net.cpp:172] Setting up conv4_1_ReLU2
I1012 11:55:12.096715 31118 net.cpp:186] Top shape: 64 16 1 1 (1024)
I1012 11:55:12.096720 31118 net.cpp:194] Memory required for data: 287232256
I1012 11:55:12.096724 31118 layer_factory.hpp:77] Creating layer conv4_1_3
I1012 11:55:12.096740 31118 net.cpp:128] Creating Layer conv4_1_3
I1012 11:55:12.096745 31118 net.cpp:558] conv4_1_3 <- conv4_1_2
I1012 11:55:12.096753 31118 net.cpp:522] conv4_1_3 -> conv4_1_3
I1012 11:55:12.103447 31118 net.cpp:172] Setting up conv4_1_3
I1012 11:55:12.103473 31118 net.cpp:186] Top shape: 64 64 1 1 (4096)
I1012 11:55:12.103478 31118 net.cpp:194] Memory required for data: 287248640
I1012 11:55:12.103487 31118 layer_factory.hpp:77] Creating layer conv4_1_Prob3
I1012 11:55:12.103499 31118 net.cpp:128] Creating Layer conv4_1_Prob3
I1012 11:55:12.103504 31118 net.cpp:558] conv4_1_Prob3 <- conv4_1_3
I1012 11:55:12.103510 31118 net.cpp:509] conv4_1_Prob3 -> conv4_1_3 (in-place)
I1012 11:55:12.105525 31118 net.cpp:172] Setting up conv4_1_Prob3
I1012 11:55:12.105541 31118 net.cpp:186] Top shape: 64 64 1 1 (4096)
I1012 11:55:12.105546 31118 net.cpp:194] Memory required for data: 287265024
I1012 11:55:12.105551 31118 layer_factory.hpp:77] Creating layer conv4_1_down
I1012 11:55:12.105566 31118 net.cpp:128] Creating Layer conv4_1_down
I1012 11:55:12.105571 31118 net.cpp:558] conv4_1_down <- conv3_Axpy_3_conv3_3ReLU_1_0_split_1
I1012 11:55:12.105579 31118 net.cpp:522] conv4_1_down -> conv4_1_down
I1012 11:55:12.112356 31118 net.cpp:172] Setting up conv4_1_down
I1012 11:55:12.112386 31118 net.cpp:186] Top shape: 64 64 8 8 (262144)
I1012 11:55:12.112391 31118 net.cpp:194] Memory required for data: 288313600
I1012 11:55:12.112403 31118 layer_factory.hpp:77] Creating layer conv4_1_bn_down
I1012 11:55:12.112439 31118 net.cpp:128] Creating Layer conv4_1_bn_down
I1012 11:55:12.112447 31118 net.cpp:558] conv4_1_bn_down <- conv4_1_down
I1012 11:55:12.112460 31118 net.cpp:509] conv4_1_bn_down -> conv4_1_down (in-place)
I1012 11:55:12.112793 31118 net.cpp:172] Setting up conv4_1_bn_down
I1012 11:55:12.112802 31118 net.cpp:186] Top shape: 64 64 8 8 (262144)
I1012 11:55:12.112807 31118 net.cpp:194] Memory required for data: 289362176
I1012 11:55:12.112819 31118 layer_factory.hpp:77] Creating layer conv4_1_scale_down
I1012 11:55:12.112828 31118 net.cpp:128] Creating Layer conv4_1_scale_down
I1012 11:55:12.112834 31118 net.cpp:558] conv4_1_scale_down <- conv4_1_down
I1012 11:55:12.112841 31118 net.cpp:509] conv4_1_scale_down -> conv4_1_down (in-place)
I1012 11:55:12.112902 31118 layer_factory.hpp:77] Creating layer conv4_1_scale_down
I1012 11:55:12.113091 31118 net.cpp:172] Setting up conv4_1_scale_down
I1012 11:55:12.113104 31118 net.cpp:186] Top shape: 64 64 8 8 (262144)
I1012 11:55:12.113111 31118 net.cpp:194] Memory required for data: 290410752
I1012 11:55:12.113119 31118 layer_factory.hpp:77] Creating layer conv4_Axpy_1
I1012 11:55:12.113128 31118 net.cpp:128] Creating Layer conv4_Axpy_1
I1012 11:55:12.113133 31118 net.cpp:558] conv4_Axpy_1 <- conv4_1_3
I1012 11:55:12.113140 31118 net.cpp:558] conv4_Axpy_1 <- conv4_1_1_conv4_1_scale1_0_split_1
I1012 11:55:12.113147 31118 net.cpp:558] conv4_Axpy_1 <- conv4_1_down
I1012 11:55:12.113154 31118 net.cpp:522] conv4_Axpy_1 -> conv4_Axpy_1
I1012 11:55:12.113229 31118 net.cpp:172] Setting up conv4_Axpy_1
I1012 11:55:12.113237 31118 net.cpp:186] Top shape: 64 64 8 8 (262144)
I1012 11:55:12.113242 31118 net.cpp:194] Memory required for data: 291459328
I1012 11:55:12.113247 31118 layer_factory.hpp:77] Creating layer conv4_1ReLU_1
I1012 11:55:12.113258 31118 net.cpp:128] Creating Layer conv4_1ReLU_1
I1012 11:55:12.113265 31118 net.cpp:558] conv4_1ReLU_1 <- conv4_Axpy_1
I1012 11:55:12.113271 31118 net.cpp:509] conv4_1ReLU_1 -> conv4_Axpy_1 (in-place)
I1012 11:55:12.114385 31118 net.cpp:172] Setting up conv4_1ReLU_1
I1012 11:55:12.114404 31118 net.cpp:186] Top shape: 64 64 8 8 (262144)
I1012 11:55:12.114409 31118 net.cpp:194] Memory required for data: 292507904
I1012 11:55:12.114414 31118 layer_factory.hpp:77] Creating layer conv4_Axpy_1_conv4_1ReLU_1_0_split
I1012 11:55:12.114429 31118 net.cpp:128] Creating Layer conv4_Axpy_1_conv4_1ReLU_1_0_split
I1012 11:55:12.114435 31118 net.cpp:558] conv4_Axpy_1_conv4_1ReLU_1_0_split <- conv4_Axpy_1
I1012 11:55:12.114444 31118 net.cpp:522] conv4_Axpy_1_conv4_1ReLU_1_0_split -> conv4_Axpy_1_conv4_1ReLU_1_0_split_0
I1012 11:55:12.114456 31118 net.cpp:522] conv4_Axpy_1_conv4_1ReLU_1_0_split -> conv4_Axpy_1_conv4_1ReLU_1_0_split_1
I1012 11:55:12.114511 31118 net.cpp:172] Setting up conv4_Axpy_1_conv4_1ReLU_1_0_split
I1012 11:55:12.114518 31118 net.cpp:186] Top shape: 64 64 8 8 (262144)
I1012 11:55:12.114524 31118 net.cpp:186] Top shape: 64 64 8 8 (262144)
I1012 11:55:12.114528 31118 net.cpp:194] Memory required for data: 294605056
I1012 11:55:12.114532 31118 layer_factory.hpp:77] Creating layer conv4_2_0
I1012 11:55:12.114545 31118 net.cpp:128] Creating Layer conv4_2_0
I1012 11:55:12.114550 31118 net.cpp:558] conv4_2_0 <- conv4_Axpy_1_conv4_1ReLU_1_0_split_0
I1012 11:55:12.114560 31118 net.cpp:522] conv4_2_0 -> conv4_2_0
I1012 11:55:12.121134 31118 net.cpp:172] Setting up conv4_2_0
I1012 11:55:12.121163 31118 net.cpp:186] Top shape: 64 64 8 8 (262144)
I1012 11:55:12.121167 31118 net.cpp:194] Memory required for data: 295653632
I1012 11:55:12.121177 31118 layer_factory.hpp:77] Creating layer conv4_2_bn0
I1012 11:55:12.121186 31118 net.cpp:128] Creating Layer conv4_2_bn0
I1012 11:55:12.121191 31118 net.cpp:558] conv4_2_bn0 <- conv4_2_0
I1012 11:55:12.121201 31118 net.cpp:509] conv4_2_bn0 -> conv4_2_0 (in-place)
I1012 11:55:12.121466 31118 net.cpp:172] Setting up conv4_2_bn0
I1012 11:55:12.121479 31118 net.cpp:186] Top shape: 64 64 8 8 (262144)
I1012 11:55:12.121484 31118 net.cpp:194] Memory required for data: 296702208
I1012 11:55:12.121508 31118 layer_factory.hpp:77] Creating layer conv4_2_scale0
I1012 11:55:12.121516 31118 net.cpp:128] Creating Layer conv4_2_scale0
I1012 11:55:12.121521 31118 net.cpp:558] conv4_2_scale0 <- conv4_2_0
I1012 11:55:12.121529 31118 net.cpp:509] conv4_2_scale0 -> conv4_2_0 (in-place)
I1012 11:55:12.121578 31118 layer_factory.hpp:77] Creating layer conv4_2_scale0
I1012 11:55:12.121737 31118 net.cpp:172] Setting up conv4_2_scale0
I1012 11:55:12.121749 31118 net.cpp:186] Top shape: 64 64 8 8 (262144)
I1012 11:55:12.121753 31118 net.cpp:194] Memory required for data: 297750784
I1012 11:55:12.121762 31118 layer_factory.hpp:77] Creating layer conv4_2_ReLU0
I1012 11:55:12.121770 31118 net.cpp:128] Creating Layer conv4_2_ReLU0
I1012 11:55:12.121775 31118 net.cpp:558] conv4_2_ReLU0 <- conv4_2_0
I1012 11:55:12.121780 31118 net.cpp:509] conv4_2_ReLU0 -> conv4_2_0 (in-place)
I1012 11:55:12.123205 31118 net.cpp:172] Setting up conv4_2_ReLU0
I1012 11:55:12.123227 31118 net.cpp:186] Top shape: 64 64 8 8 (262144)
I1012 11:55:12.123231 31118 net.cpp:194] Memory required for data: 298799360
I1012 11:55:12.123236 31118 layer_factory.hpp:77] Creating layer conv4_2_1
I1012 11:55:12.123267 31118 net.cpp:128] Creating Layer conv4_2_1
I1012 11:55:12.123275 31118 net.cpp:558] conv4_2_1 <- conv4_2_0
I1012 11:55:12.123282 31118 net.cpp:522] conv4_2_1 -> conv4_2_1
I1012 11:55:12.130328 31118 net.cpp:172] Setting up conv4_2_1
I1012 11:55:12.130354 31118 net.cpp:186] Top shape: 64 64 8 8 (262144)
I1012 11:55:12.130359 31118 net.cpp:194] Memory required for data: 299847936
I1012 11:55:12.130369 31118 layer_factory.hpp:77] Creating layer conv4_2_bn1
I1012 11:55:12.130380 31118 net.cpp:128] Creating Layer conv4_2_bn1
I1012 11:55:12.130386 31118 net.cpp:558] conv4_2_bn1 <- conv4_2_1
I1012 11:55:12.130396 31118 net.cpp:509] conv4_2_bn1 -> conv4_2_1 (in-place)
I1012 11:55:12.130676 31118 net.cpp:172] Setting up conv4_2_bn1
I1012 11:55:12.130694 31118 net.cpp:186] Top shape: 64 64 8 8 (262144)
I1012 11:55:12.130698 31118 net.cpp:194] Memory required for data: 300896512
I1012 11:55:12.130708 31118 layer_factory.hpp:77] Creating layer conv4_2_scale1
I1012 11:55:12.130715 31118 net.cpp:128] Creating Layer conv4_2_scale1
I1012 11:55:12.130719 31118 net.cpp:558] conv4_2_scale1 <- conv4_2_1
I1012 11:55:12.130725 31118 net.cpp:509] conv4_2_scale1 -> conv4_2_1 (in-place)
I1012 11:55:12.130774 31118 layer_factory.hpp:77] Creating layer conv4_2_scale1
I1012 11:55:12.130928 31118 net.cpp:172] Setting up conv4_2_scale1
I1012 11:55:12.130935 31118 net.cpp:186] Top shape: 64 64 8 8 (262144)
I1012 11:55:12.130939 31118 net.cpp:194] Memory required for data: 301945088
I1012 11:55:12.130946 31118 layer_factory.hpp:77] Creating layer conv4_2_1_conv4_2_scale1_0_split
I1012 11:55:12.130955 31118 net.cpp:128] Creating Layer conv4_2_1_conv4_2_scale1_0_split
I1012 11:55:12.130960 31118 net.cpp:558] conv4_2_1_conv4_2_scale1_0_split <- conv4_2_1
I1012 11:55:12.130966 31118 net.cpp:522] conv4_2_1_conv4_2_scale1_0_split -> conv4_2_1_conv4_2_scale1_0_split_0
I1012 11:55:12.130975 31118 net.cpp:522] conv4_2_1_conv4_2_scale1_0_split -> conv4_2_1_conv4_2_scale1_0_split_1
I1012 11:55:12.131021 31118 net.cpp:172] Setting up conv4_2_1_conv4_2_scale1_0_split
I1012 11:55:12.131027 31118 net.cpp:186] Top shape: 64 64 8 8 (262144)
I1012 11:55:12.131033 31118 net.cpp:186] Top shape: 64 64 8 8 (262144)
I1012 11:55:12.131037 31118 net.cpp:194] Memory required for data: 304042240
I1012 11:55:12.131042 31118 layer_factory.hpp:77] Creating layer conv4_2_Pooling
I1012 11:55:12.131049 31118 net.cpp:128] Creating Layer conv4_2_Pooling
I1012 11:55:12.131054 31118 net.cpp:558] conv4_2_Pooling <- conv4_2_1_conv4_2_scale1_0_split_0
I1012 11:55:12.131062 31118 net.cpp:522] conv4_2_Pooling -> conv4_2_Pooling
I1012 11:55:12.131088 31118 net.cpp:172] Setting up conv4_2_Pooling
I1012 11:55:12.131095 31118 net.cpp:186] Top shape: 64 64 1 1 (4096)
I1012 11:55:12.131099 31118 net.cpp:194] Memory required for data: 304058624
I1012 11:55:12.131103 31118 layer_factory.hpp:77] Creating layer conv4_2_2
I1012 11:55:12.131130 31118 net.cpp:128] Creating Layer conv4_2_2
I1012 11:55:12.131136 31118 net.cpp:558] conv4_2_2 <- conv4_2_Pooling
I1012 11:55:12.131144 31118 net.cpp:522] conv4_2_2 -> conv4_2_2
I1012 11:55:12.136611 31118 net.cpp:172] Setting up conv4_2_2
I1012 11:55:12.136637 31118 net.cpp:186] Top shape: 64 16 1 1 (1024)
I1012 11:55:12.136642 31118 net.cpp:194] Memory required for data: 304062720
I1012 11:55:12.136652 31118 layer_factory.hpp:77] Creating layer conv4_2_ReLU2
I1012 11:55:12.136660 31118 net.cpp:128] Creating Layer conv4_2_ReLU2
I1012 11:55:12.136665 31118 net.cpp:558] conv4_2_ReLU2 <- conv4_2_2
I1012 11:55:12.136674 31118 net.cpp:509] conv4_2_ReLU2 -> conv4_2_2 (in-place)
I1012 11:55:12.138675 31118 net.cpp:172] Setting up conv4_2_ReLU2
I1012 11:55:12.138694 31118 net.cpp:186] Top shape: 64 16 1 1 (1024)
I1012 11:55:12.138697 31118 net.cpp:194] Memory required for data: 304066816
I1012 11:55:12.138702 31118 layer_factory.hpp:77] Creating layer conv4_2_3
I1012 11:55:12.138715 31118 net.cpp:128] Creating Layer conv4_2_3
I1012 11:55:12.138720 31118 net.cpp:558] conv4_2_3 <- conv4_2_2
I1012 11:55:12.138731 31118 net.cpp:522] conv4_2_3 -> conv4_2_3
I1012 11:55:12.145424 31118 net.cpp:172] Setting up conv4_2_3
I1012 11:55:12.145452 31118 net.cpp:186] Top shape: 64 64 1 1 (4096)
I1012 11:55:12.145455 31118 net.cpp:194] Memory required for data: 304083200
I1012 11:55:12.145465 31118 layer_factory.hpp:77] Creating layer conv4_2_Prob3
I1012 11:55:12.145476 31118 net.cpp:128] Creating Layer conv4_2_Prob3
I1012 11:55:12.145481 31118 net.cpp:558] conv4_2_Prob3 <- conv4_2_3
I1012 11:55:12.145488 31118 net.cpp:509] conv4_2_Prob3 -> conv4_2_3 (in-place)
I1012 11:55:12.147500 31118 net.cpp:172] Setting up conv4_2_Prob3
I1012 11:55:12.147517 31118 net.cpp:186] Top shape: 64 64 1 1 (4096)
I1012 11:55:12.147521 31118 net.cpp:194] Memory required for data: 304099584
I1012 11:55:12.147526 31118 layer_factory.hpp:77] Creating layer conv4_Axpy_2
I1012 11:55:12.147536 31118 net.cpp:128] Creating Layer conv4_Axpy_2
I1012 11:55:12.147541 31118 net.cpp:558] conv4_Axpy_2 <- conv4_2_3
I1012 11:55:12.147547 31118 net.cpp:558] conv4_Axpy_2 <- conv4_2_1_conv4_2_scale1_0_split_1
I1012 11:55:12.147552 31118 net.cpp:558] conv4_Axpy_2 <- conv4_Axpy_1_conv4_1ReLU_1_0_split_1
I1012 11:55:12.147558 31118 net.cpp:522] conv4_Axpy_2 -> conv4_Axpy_2
I1012 11:55:12.147635 31118 net.cpp:172] Setting up conv4_Axpy_2
I1012 11:55:12.147645 31118 net.cpp:186] Top shape: 64 64 8 8 (262144)
I1012 11:55:12.147650 31118 net.cpp:194] Memory required for data: 305148160
I1012 11:55:12.147653 31118 layer_factory.hpp:77] Creating layer conv4_2ReLU_1
I1012 11:55:12.147660 31118 net.cpp:128] Creating Layer conv4_2ReLU_1
I1012 11:55:12.147665 31118 net.cpp:558] conv4_2ReLU_1 <- conv4_Axpy_2
I1012 11:55:12.147670 31118 net.cpp:509] conv4_2ReLU_1 -> conv4_Axpy_2 (in-place)
I1012 11:55:12.149730 31118 net.cpp:172] Setting up conv4_2ReLU_1
I1012 11:55:12.149752 31118 net.cpp:186] Top shape: 64 64 8 8 (262144)
I1012 11:55:12.149757 31118 net.cpp:194] Memory required for data: 306196736
I1012 11:55:12.149762 31118 layer_factory.hpp:77] Creating layer conv4_Axpy_2_conv4_2ReLU_1_0_split
I1012 11:55:12.149773 31118 net.cpp:128] Creating Layer conv4_Axpy_2_conv4_2ReLU_1_0_split
I1012 11:55:12.149778 31118 net.cpp:558] conv4_Axpy_2_conv4_2ReLU_1_0_split <- conv4_Axpy_2
I1012 11:55:12.149790 31118 net.cpp:522] conv4_Axpy_2_conv4_2ReLU_1_0_split -> conv4_Axpy_2_conv4_2ReLU_1_0_split_0
I1012 11:55:12.149801 31118 net.cpp:522] conv4_Axpy_2_conv4_2ReLU_1_0_split -> conv4_Axpy_2_conv4_2ReLU_1_0_split_1
I1012 11:55:12.149858 31118 net.cpp:172] Setting up conv4_Axpy_2_conv4_2ReLU_1_0_split
I1012 11:55:12.149868 31118 net.cpp:186] Top shape: 64 64 8 8 (262144)
I1012 11:55:12.149874 31118 net.cpp:186] Top shape: 64 64 8 8 (262144)
I1012 11:55:12.149878 31118 net.cpp:194] Memory required for data: 308293888
I1012 11:55:12.149883 31118 layer_factory.hpp:77] Creating layer conv4_3_0
I1012 11:55:12.149894 31118 net.cpp:128] Creating Layer conv4_3_0
I1012 11:55:12.149899 31118 net.cpp:558] conv4_3_0 <- conv4_Axpy_2_conv4_2ReLU_1_0_split_0
I1012 11:55:12.149924 31118 net.cpp:522] conv4_3_0 -> conv4_3_0
I1012 11:55:12.156509 31118 net.cpp:172] Setting up conv4_3_0
I1012 11:55:12.156538 31118 net.cpp:186] Top shape: 64 64 8 8 (262144)
I1012 11:55:12.156543 31118 net.cpp:194] Memory required for data: 309342464
I1012 11:55:12.156553 31118 layer_factory.hpp:77] Creating layer conv4_3_bn0
I1012 11:55:12.156561 31118 net.cpp:128] Creating Layer conv4_3_bn0
I1012 11:55:12.156566 31118 net.cpp:558] conv4_3_bn0 <- conv4_3_0
I1012 11:55:12.156575 31118 net.cpp:509] conv4_3_bn0 -> conv4_3_0 (in-place)
I1012 11:55:12.156850 31118 net.cpp:172] Setting up conv4_3_bn0
I1012 11:55:12.156863 31118 net.cpp:186] Top shape: 64 64 8 8 (262144)
I1012 11:55:12.156867 31118 net.cpp:194] Memory required for data: 310391040
I1012 11:55:12.156877 31118 layer_factory.hpp:77] Creating layer conv4_3_scale0
I1012 11:55:12.156884 31118 net.cpp:128] Creating Layer conv4_3_scale0
I1012 11:55:12.156888 31118 net.cpp:558] conv4_3_scale0 <- conv4_3_0
I1012 11:55:12.156896 31118 net.cpp:509] conv4_3_scale0 -> conv4_3_0 (in-place)
I1012 11:55:12.156941 31118 layer_factory.hpp:77] Creating layer conv4_3_scale0
I1012 11:55:12.157097 31118 net.cpp:172] Setting up conv4_3_scale0
I1012 11:55:12.157105 31118 net.cpp:186] Top shape: 64 64 8 8 (262144)
I1012 11:55:12.157109 31118 net.cpp:194] Memory required for data: 311439616
I1012 11:55:12.157117 31118 layer_factory.hpp:77] Creating layer conv4_3_ReLU0
I1012 11:55:12.157126 31118 net.cpp:128] Creating Layer conv4_3_ReLU0
I1012 11:55:12.157130 31118 net.cpp:558] conv4_3_ReLU0 <- conv4_3_0
I1012 11:55:12.157136 31118 net.cpp:509] conv4_3_ReLU0 -> conv4_3_0 (in-place)
I1012 11:55:12.158586 31118 net.cpp:172] Setting up conv4_3_ReLU0
I1012 11:55:12.158604 31118 net.cpp:186] Top shape: 64 64 8 8 (262144)
I1012 11:55:12.158608 31118 net.cpp:194] Memory required for data: 312488192
I1012 11:55:12.158613 31118 layer_factory.hpp:77] Creating layer conv4_3_1
I1012 11:55:12.158632 31118 net.cpp:128] Creating Layer conv4_3_1
I1012 11:55:12.158638 31118 net.cpp:558] conv4_3_1 <- conv4_3_0
I1012 11:55:12.158645 31118 net.cpp:522] conv4_3_1 -> conv4_3_1
I1012 11:55:12.165696 31118 net.cpp:172] Setting up conv4_3_1
I1012 11:55:12.165731 31118 net.cpp:186] Top shape: 64 64 8 8 (262144)
I1012 11:55:12.165736 31118 net.cpp:194] Memory required for data: 313536768
I1012 11:55:12.165746 31118 layer_factory.hpp:77] Creating layer conv4_3_bn1
I1012 11:55:12.165755 31118 net.cpp:128] Creating Layer conv4_3_bn1
I1012 11:55:12.165760 31118 net.cpp:558] conv4_3_bn1 <- conv4_3_1
I1012 11:55:12.165772 31118 net.cpp:509] conv4_3_bn1 -> conv4_3_1 (in-place)
I1012 11:55:12.166056 31118 net.cpp:172] Setting up conv4_3_bn1
I1012 11:55:12.166070 31118 net.cpp:186] Top shape: 64 64 8 8 (262144)
I1012 11:55:12.166074 31118 net.cpp:194] Memory required for data: 314585344
I1012 11:55:12.166085 31118 layer_factory.hpp:77] Creating layer conv4_3_scale1
I1012 11:55:12.166091 31118 net.cpp:128] Creating Layer conv4_3_scale1
I1012 11:55:12.166095 31118 net.cpp:558] conv4_3_scale1 <- conv4_3_1
I1012 11:55:12.166105 31118 net.cpp:509] conv4_3_scale1 -> conv4_3_1 (in-place)
I1012 11:55:12.166151 31118 layer_factory.hpp:77] Creating layer conv4_3_scale1
I1012 11:55:12.166309 31118 net.cpp:172] Setting up conv4_3_scale1
I1012 11:55:12.166317 31118 net.cpp:186] Top shape: 64 64 8 8 (262144)
I1012 11:55:12.166321 31118 net.cpp:194] Memory required for data: 315633920
I1012 11:55:12.166328 31118 layer_factory.hpp:77] Creating layer conv4_3_1_conv4_3_scale1_0_split
I1012 11:55:12.166338 31118 net.cpp:128] Creating Layer conv4_3_1_conv4_3_scale1_0_split
I1012 11:55:12.166343 31118 net.cpp:558] conv4_3_1_conv4_3_scale1_0_split <- conv4_3_1
I1012 11:55:12.166349 31118 net.cpp:522] conv4_3_1_conv4_3_scale1_0_split -> conv4_3_1_conv4_3_scale1_0_split_0
I1012 11:55:12.166359 31118 net.cpp:522] conv4_3_1_conv4_3_scale1_0_split -> conv4_3_1_conv4_3_scale1_0_split_1
I1012 11:55:12.166406 31118 net.cpp:172] Setting up conv4_3_1_conv4_3_scale1_0_split
I1012 11:55:12.166430 31118 net.cpp:186] Top shape: 64 64 8 8 (262144)
I1012 11:55:12.166436 31118 net.cpp:186] Top shape: 64 64 8 8 (262144)
I1012 11:55:12.166440 31118 net.cpp:194] Memory required for data: 317731072
I1012 11:55:12.166445 31118 layer_factory.hpp:77] Creating layer conv4_3_Pooling
I1012 11:55:12.166451 31118 net.cpp:128] Creating Layer conv4_3_Pooling
I1012 11:55:12.166456 31118 net.cpp:558] conv4_3_Pooling <- conv4_3_1_conv4_3_scale1_0_split_0
I1012 11:55:12.166462 31118 net.cpp:522] conv4_3_Pooling -> conv4_3_Pooling
I1012 11:55:12.166493 31118 net.cpp:172] Setting up conv4_3_Pooling
I1012 11:55:12.166501 31118 net.cpp:186] Top shape: 64 64 1 1 (4096)
I1012 11:55:12.166504 31118 net.cpp:194] Memory required for data: 317747456
I1012 11:55:12.166508 31118 layer_factory.hpp:77] Creating layer conv4_3_2
I1012 11:55:12.166518 31118 net.cpp:128] Creating Layer conv4_3_2
I1012 11:55:12.166523 31118 net.cpp:558] conv4_3_2 <- conv4_3_Pooling
I1012 11:55:12.166532 31118 net.cpp:522] conv4_3_2 -> conv4_3_2
I1012 11:55:12.171980 31118 net.cpp:172] Setting up conv4_3_2
I1012 11:55:12.172005 31118 net.cpp:186] Top shape: 64 16 1 1 (1024)
I1012 11:55:12.172010 31118 net.cpp:194] Memory required for data: 317751552
I1012 11:55:12.172020 31118 layer_factory.hpp:77] Creating layer conv4_3_ReLU2
I1012 11:55:12.172029 31118 net.cpp:128] Creating Layer conv4_3_ReLU2
I1012 11:55:12.172036 31118 net.cpp:558] conv4_3_ReLU2 <- conv4_3_2
I1012 11:55:12.172044 31118 net.cpp:509] conv4_3_ReLU2 -> conv4_3_2 (in-place)
I1012 11:55:12.174053 31118 net.cpp:172] Setting up conv4_3_ReLU2
I1012 11:55:12.174072 31118 net.cpp:186] Top shape: 64 16 1 1 (1024)
I1012 11:55:12.174075 31118 net.cpp:194] Memory required for data: 317755648
I1012 11:55:12.174079 31118 layer_factory.hpp:77] Creating layer conv4_3_3
I1012 11:55:12.174093 31118 net.cpp:128] Creating Layer conv4_3_3
I1012 11:55:12.174098 31118 net.cpp:558] conv4_3_3 <- conv4_3_2
I1012 11:55:12.174108 31118 net.cpp:522] conv4_3_3 -> conv4_3_3
I1012 11:55:12.180842 31118 net.cpp:172] Setting up conv4_3_3
I1012 11:55:12.180868 31118 net.cpp:186] Top shape: 64 64 1 1 (4096)
I1012 11:55:12.180873 31118 net.cpp:194] Memory required for data: 317772032
I1012 11:55:12.180882 31118 layer_factory.hpp:77] Creating layer conv4_3_Prob3
I1012 11:55:12.180893 31118 net.cpp:128] Creating Layer conv4_3_Prob3
I1012 11:55:12.180899 31118 net.cpp:558] conv4_3_Prob3 <- conv4_3_3
I1012 11:55:12.180905 31118 net.cpp:509] conv4_3_Prob3 -> conv4_3_3 (in-place)
I1012 11:55:12.182902 31118 net.cpp:172] Setting up conv4_3_Prob3
I1012 11:55:12.182926 31118 net.cpp:186] Top shape: 64 64 1 1 (4096)
I1012 11:55:12.182931 31118 net.cpp:194] Memory required for data: 317788416
I1012 11:55:12.182936 31118 layer_factory.hpp:77] Creating layer conv4_Axpy_3
I1012 11:55:12.182946 31118 net.cpp:128] Creating Layer conv4_Axpy_3
I1012 11:55:12.182952 31118 net.cpp:558] conv4_Axpy_3 <- conv4_3_3
I1012 11:55:12.182958 31118 net.cpp:558] conv4_Axpy_3 <- conv4_3_1_conv4_3_scale1_0_split_1
I1012 11:55:12.182965 31118 net.cpp:558] conv4_Axpy_3 <- conv4_Axpy_2_conv4_2ReLU_1_0_split_1
I1012 11:55:12.182971 31118 net.cpp:522] conv4_Axpy_3 -> conv4_Axpy_3
I1012 11:55:12.183048 31118 net.cpp:172] Setting up conv4_Axpy_3
I1012 11:55:12.183058 31118 net.cpp:186] Top shape: 64 64 8 8 (262144)
I1012 11:55:12.183061 31118 net.cpp:194] Memory required for data: 318836992
I1012 11:55:12.183065 31118 layer_factory.hpp:77] Creating layer conv4_3ReLU_1
I1012 11:55:12.183073 31118 net.cpp:128] Creating Layer conv4_3ReLU_1
I1012 11:55:12.183076 31118 net.cpp:558] conv4_3ReLU_1 <- conv4_Axpy_3
I1012 11:55:12.183081 31118 net.cpp:509] conv4_3ReLU_1 -> conv4_Axpy_3 (in-place)
I1012 11:55:12.185101 31118 net.cpp:172] Setting up conv4_3ReLU_1
I1012 11:55:12.185118 31118 net.cpp:186] Top shape: 64 64 8 8 (262144)
I1012 11:55:12.185122 31118 net.cpp:194] Memory required for data: 319885568
I1012 11:55:12.185127 31118 layer_factory.hpp:77] Creating layer Pooling1
I1012 11:55:12.185134 31118 net.cpp:128] Creating Layer Pooling1
I1012 11:55:12.185154 31118 net.cpp:558] Pooling1 <- conv4_Axpy_3
I1012 11:55:12.185168 31118 net.cpp:522] Pooling1 -> Pooling1
I1012 11:55:12.185202 31118 net.cpp:172] Setting up Pooling1
I1012 11:55:12.185214 31118 net.cpp:186] Top shape: 64 64 1 1 (4096)
I1012 11:55:12.185217 31118 net.cpp:194] Memory required for data: 319901952
I1012 11:55:12.185221 31118 layer_factory.hpp:77] Creating layer fc1
I1012 11:55:12.185232 31118 net.cpp:128] Creating Layer fc1
I1012 11:55:12.185236 31118 net.cpp:558] fc1 <- Pooling1
I1012 11:55:12.185245 31118 net.cpp:522] fc1 -> fc1
I1012 11:55:12.185420 31118 net.cpp:172] Setting up fc1
I1012 11:55:12.185436 31118 net.cpp:186] Top shape: 64 10 (640)
I1012 11:55:12.185441 31118 net.cpp:194] Memory required for data: 319904512
I1012 11:55:12.185449 31118 layer_factory.hpp:77] Creating layer Softmax1
I1012 11:55:12.185459 31118 net.cpp:128] Creating Layer Softmax1
I1012 11:55:12.185463 31118 net.cpp:558] Softmax1 <- fc1
I1012 11:55:12.185468 31118 net.cpp:558] Softmax1 <- label
I1012 11:55:12.185477 31118 net.cpp:522] Softmax1 -> Softmax1
…
I1012 11:55:12.190169 31118 solver.cpp:277] Creating test net (#0) specified by test_net file: ./test_SE-ResNet_20.prototxt
I1012 11:55:12.191267 31118 net.cpp:82] Initializing net from parameters: 
name: "ResNet-20"
state {
  phase: TEST
}
layer {
  name: "Data1"
  type: "Data"
  top: "data"
  top: "label"
  transform_param {
    scale: 0.00390625
    mirror: false
    mean_value: 125.3
    mean_value: 122.9
    mean_value: 113.8
  }
  data_param {
    source: "/home/lijianfei/datasets/cifar10_40/test_lmdb"
    batch_size: 10
    backend: LMDB
  }
  image_data_param {
    shuffle: false
  }
}
layer {
  name: "conv1"
  type: "Convolution"
  bottom: "data"
  top: "conv1"
  param {
    lr_mult: 1
    decay_mult: 1
  }
  param {
    lr_mult: 2
    decay_mult: 0
  }
  convolution_param {
    num_output: 16
    bias_term: true
    pad: 1
    kernel_size: 3
    stride: 1
    weight_filler {
      type: "msra"
    }
    bias_filler {
      type: "constant"
      value: 0
    }
  }
}
layer {
  name: "conv1/bn"
  type: "BatchNorm"
  bottom: "conv1"
  top: "conv1"
  param {
    lr_mult: 0
    decay_mult: 0
  }
  param {
    lr_mult: 0
    decay_mult: 0
  }
  param {
    lr_mult: 0
    decay_mult: 0
  }
  batch_norm_param {
    use_global_stats: true
  }
}
layer {
  name: "conv1/scale"
  type: "Scale"
  bottom: "conv1"
  top: "conv1"
  scale_param {
    bias_term: true
  }
}
layer {
  name: "conv1/ReLU"
  type: "ReLU"
  bottom: "conv1"
  top: "conv1"
}
layer {
  name: "conv2_1_0"
  type: "Convolution"
  bottom: "conv1"
  top: "conv2_1_0"
  param {
    lr_mult: 1
    decay_mult: 1
  }
  param {
    lr_mult: 2
    decay_mult: 0
  }
  convolution_param {
    num_output: 16
    bias_term: true
    pad: 1
    kernel_size: 3
    stride: 1
    weight_filler {
      type: "msra"
    }
    bias_filler {
      type: "constant"
      value: 0
    }
  }
}
layer {
  name: "conv2_1_bn0"
  type: "BatchNorm"
  bottom: "conv2_1_0"
  top: "conv2_1_0"
  param {
    lr_mult: 0
    decay_mult: 0
  }
  param {
    lr_mult: 0
    decay_mult: 0
  }
  param {
    lr_mult: 0
    decay_mult: 0
  }
  batch_norm_param {
    use_global_stats: true
  }
}
layer {
  name: "conv2_1_scale0"
  type: "Scale"
  bottom: "conv2_1_0"
  top: "conv2_1_0"
  scale_param {
    bias_term: true
  }
}
layer {
  name: "conv2_1_ReLU0"
  type: "ReLU"
  bottom: "conv2_1_0"
  top: "conv2_1_0"
}
layer {
  name: "conv2_1_1"
  type: "Convolution"
  bottom: "conv2_1_0"
  top: "conv2_1_1"
  param {
    lr_mult: 1
    decay_mult: 1
  }
  param {
    lr_mult: 2
    decay_mult: 0
  }
  convolution_param {
    num_output: 16
    bias_term: true
    pad: 1
    kernel_size: 3
    stride: 1
    weight_filler {
      type: "msra"
    }
    bias_filler {
      type: "constant"
      value: 0
    }
  }
}
layer {
  name: "conv2_1_bn1"
  type: "BatchNorm"
  bottom: "conv2_1_1"
  top: "conv2_1_1"
  param {
    lr_mult: 0
    decay_mult: 0
  }
  param {
    lr_mult: 0
    decay_mult: 0
  }
  param {
    lr_mult: 0
    decay_mult: 0
  }
  batch_norm_param {
    use_global_stats: true
  }
}
layer {
  name: "conv2_1_scale1"
  type: "Scale"
  bottom: "conv2_1_1"
  top: "conv2_1_1"
  scale_param {
    bias_term: true
  }
}
layer {
  name: "conv2_1_Pooling"
  type: "Pooling"
  bottom: "conv2_1_1"
  top: "conv2_1_Pooling"
  pooling_param {
    pool: AVE
    engine: CAFFE
    global_pooling: true
  }
}
layer {
  name: "conv2_1_2"
  type: "Convolution"
  bottom: "conv2_1_Pooling"
  top: "conv2_1_2"
  param {
    lr_mult: 1
    decay_mult: 1
  }
  param {
    lr_mult: 2
    decay_mult: 0
  }
  convolution_param {
    num_output: 16
    bias_term: true
    pad: 0
    kernel_size: 1
    stride: 1
    weight_filler {
      type: "msra"
    }
    bias_filler {
      type: "constant"
      value: 0
    }
  }
}
layer {
  name: "conv2_1_ReLU2"
  type: "ReLU"
  bottom: "conv2_1_2"
  top: "conv2_1_2"
}
layer {
  name: "conv2_1_3"
  type: "Convolution"
  bottom: "conv2_1_2"
  top: "conv2_1_3"
  param {
    lr_mult: 1
    decay_mult: 1
  }
  param {
    lr_mult: 2
    decay_mult: 0
  }
  convolution_param {
    num_output: 16
    bias_term: true
    pad: 0
    kernel_size: 1
    stride: 1
    weight_filler {
      type: "msra"
    }
    bias_filler {
      type: "constant"
      value: 0
    }
  }
}
layer {
  name: "conv2_1_Prob3"
  type: "Sigmoid"
  bottom: "conv2_1_3"
  top: "conv2_1_3"
}
layer {
  name: "conv2_Axpy_1"
  type: "Axpy"
  bottom: "conv2_1_3"
  bottom: "conv2_1_1"
  bottom: "conv1"
  top: "conv2_Axpy_1"
}
layer {
  name: "conv2_1ReLU_1"
  type: "ReLU"
  bottom: "conv2_Axpy_1"
  top: "conv2_Axpy_1"
}
layer {
  name: "conv2_2_0"
  type: "Convolution"
  bottom: "conv2_Axpy_1"
  top: "conv2_2_0"
  param {
    lr_mult: 1
    decay_mult: 1
  }
  param {
    lr_mult: 2
    decay_mult: 0
  }
  convolution_param {
    num_output: 16
    bias_term: true
    pad: 1
    kernel_size: 3
    stride: 1
    weight_filler {
      type: "msra"
    }
    bias_filler {
      type: "constant"
      value: 0
    }
  }
}
layer {
  name: "conv2_2_bn0"
  type: "BatchNorm"
  bottom: "conv2_2_0"
  top: "conv2_2_0"
  param {
    lr_mult: 0
    decay_mult: 0
  }
  param {
    lr_mult: 0
    decay_mult: 0
  }
  param {
    lr_mult: 0
    decay_mult: 0
  }
  batch_norm_param {
    use_global_stats: true
  }
}
layer {
  name: "conv2_2_scale0"
  type: "Scale"
  bottom: "conv2_2_0"
  top: "conv2_2_0"
  scale_param {
    bias_term: true
  }
}
layer {
  name: "conv2_2_ReLU0"
  type: "ReLU"
  bottom: "conv2_2_0"
  top: "conv2_2_0"
}
layer {
  name: "conv2_2_1"
  type: "Convolution"
  bottom: "conv2_2_0"
  top: "conv2_2_1"
  param {
    lr_mult: 1
    decay_mult: 1
  }
  param {
    lr_mult: 2
    decay_mult: 0
  }
  convolution_param {
    num_output: 16
    bias_term: true
    pad: 1
    kernel_size: 3
    stride: 1
    weight_filler {
      type: "msra"
    }
    bias_filler {
      type: "constant"
      value: 0
    }
  }
}
layer {
  name: "conv2_2_bn1"
  type: "BatchNorm"
  bottom: "conv2_2_1"
  top: "conv2_2_1"
  param {
    lr_mult: 0
    decay_mult: 0
  }
  param {
    lr_mult: 0
    decay_mult: 0
  }
  param {
    lr_mult: 0
    decay_mult: 0
  }
  batch_norm_param {
    use_global_stats: true
  }
}
layer {
  name: "conv2_2_scale1"
  type: "Scale"
  bottom: "conv2_2_1"
  top: "conv2_2_1"
  scale_param {
    bias_term: true
  }
}
layer {
  name: "conv2_2_Pooling"
  type: "Pooling"
  bottom: "conv2_2_1"
  top: "conv2_2_Pooling"
  pooling_param {
    pool: AVE
    engine: CAFFE
    global_pooling: true
  }
}
layer {
  name: "conv2_2_2"
  type: "Convolution"
  bottom: "conv2_2_Pooling"
  top: "conv2_2_2"
  param {
    lr_mult: 1
    decay_mult: 1
  }
  param {
    lr_mult: 2
    decay_mult: 0
  }
  convolution_param {
    num_output: 16
    bias_term: true
    pad: 0
    kernel_size: 1
    stride: 1
    weight_filler {
      type: "msra"
    }
    bias_filler {
      type: "constant"
      value: 0
    }
  }
}
layer {
  name: "conv2_2_ReLU2"
  type: "ReLU"
  bottom: "conv2_2_2"
  top: "conv2_2_2"
}
layer {
  name: "conv2_2_3"
  type: "Convolution"
  bottom: "conv2_2_2"
  top: "conv2_2_3"
  param {
    lr_mult: 1
    decay_mult: 1
  }
  param {
    lr_mult: 2
    decay_mult: 0
  }
  convolution_param {
    num_output: 16
    bias_term: true
    pad: 0
    kernel_size: 1
    stride: 1
    weight_filler {
      type: "msra"
    }
    bias_filler {
      type: "constant"
      value: 0
    }
  }
}
layer {
  name: "conv2_2_Prob3"
  type: "Sigmoid"
  bottom: "conv2_2_3"
  top: "conv2_2_3"
}
layer {
  name: "conv2_Axpy_2"
  type: "Axpy"
  bottom: "conv2_2_3"
  bottom: "conv2_2_1"
  bottom: "conv2_Axpy_1"
  top: "conv2_Axpy_2"
}
layer {
  name: "conv2_2ReLU_1"
  type: "ReLU"
  bottom: "conv2_Axpy_2"
  top: "conv2_Axpy_2"
}
layer {
  name: "conv2_3_0"
  type: "Convolution"
  bottom: "conv2_Axpy_2"
  top: "conv2_3_0"
  param {
    lr_mult: 1
    decay_mult: 1
  }
  param {
    lr_mult: 2
    decay_mult: 0
  }
  convolution_param {
    num_output: 16
    bias_term: true
    pad: 1
    kernel_size: 3
    stride: 1
    weight_filler {
      type: "msra"
    }
    bias_filler {
      type: "constant"
      value: 0
    }
  }
}
layer {
  name: "conv2_3_bn0"
  type: "BatchNorm"
  bottom: "conv2_3_0"
  top: "conv2_3_0"
  param {
    lr_mult: 0
    decay_mult: 0
  }
  param {
    lr_mult: 0
    decay_mult: 0
  }
  param {
    lr_mult: 0
    decay_mult: 0
  }
  batch_norm_param {
    use_global_stats: true
  }
}
layer {
  name: "conv2_3_scale0"
  type: "Scale"
  bottom: "conv2_3_0"
  top: "conv2_3_0"
  scale_param {
    bias_term: true
  }
}
layer {
  name: "conv2_3_ReLU0"
  type: "ReLU"
  bottom: "conv2_3_0"
  top: "conv2_3_0"
}
layer {
  name: "conv2_3_1"
  type: "Convolution"
  bottom: "conv2_3_0"
  top: "conv2_3_1"
  param {
    lr_mult: 1
    decay_mult: 1
  }
  param {
    lr_mult: 2
    decay_mult: 0
  }
  convolution_param {
    num_output: 16
    bias_term: true
    pad: 1
    kernel_size: 3
    stride: 1
    weight_filler {
      type: "msra"
    }
    bias_filler {
      type: "constant"
      value: 0
    }
  }
}
layer {
  name: "conv2_3_bn1"
  type: "BatchNorm"
  bottom: "conv2_3_1"
  top: "conv2_3_1"
  param {
    lr_mult: 0
    decay_mult: 0
  }
  param {
    lr_mult: 0
    decay_mult: 0
  }
  param {
    lr_mult: 0
    decay_mult: 0
  }
  batch_norm_param {
    use_global_stats: true
  }
}
layer {
  name: "conv2_3_scale1"
  type: "Scale"
  bottom: "conv2_3_1"
  top: "conv2_3_1"
  scale_param {
    bias_term: true
  }
}
layer {
  name: "conv2_3_Pooling"
  type: "Pooling"
  bottom: "conv2_3_1"
  top: "conv2_3_Pooling"
  pooling_param {
    pool: AVE
    engine: CAFFE
    global_pooling: true
  }
}
layer {
  name: "conv2_3_2"
  type: "Convolution"
  bottom: "conv2_3_Pooling"
  top: "conv2_3_2"
  param {
    lr_mult: 1
    decay_mult: 1
  }
  param {
    lr_mult: 2
    decay_mult: 0
  }
  convolution_param {
    num_output: 16
    bias_term: true
    pad: 0
    kernel_size: 1
    stride: 1
    weight_filler {
      type: "msra"
    }
    bias_filler {
      type: "constant"
      value: 0
    }
  }
}
layer {
  name: "conv2_3_ReLU2"
  type: "ReLU"
  bottom: "conv2_3_2"
  top: "conv2_3_2"
}
layer {
  name: "conv2_3_3"
  type: "Convolution"
  bottom: "conv2_3_2"
  top: "conv2_3_3"
  param {
    lr_mult: 1
    decay_mult: 1
  }
  param {
    lr_mult: 2
    decay_mult: 0
  }
  convolution_param {
    num_output: 16
    bias_term: true
    pad: 0
    kernel_size: 1
    stride: 1
    weight_filler {
      type: "msra"
    }
    bias_filler {
      type: "constant"
      value: 0
    }
  }
}
layer {
  name: "conv2_3_Prob3"
  type: "Sigmoid"
  bottom: "conv2_3_3"
  top: "conv2_3_3"
}
layer {
  name: "conv2_Axpy_3"
  type: "Axpy"
  bottom: "conv2_3_3"
  bottom: "conv2_3_1"
  bottom: "conv2_Axpy_2"
  top: "conv2_Axpy_3"
}
layer {
  name: "conv2_3ReLU_1"
  type: "ReLU"
  bottom: "conv2_Axpy_3"
  top: "conv2_Axpy_3"
}
layer {
  name: "conv3_1_0"
  type: "Convolution"
  bottom: "conv2_Axpy_3"
  top: "conv3_1_0"
  param {
    lr_mult: 1
    decay_mult: 1
  }
  param {
    lr_mult: 2
    decay_mult: 0
  }
  convolution_param {
    num_output: 32
    bias_term: true
    pad: 1
    kernel_size: 3
    stride: 2
    weight_filler {
      type: "msra"
    }
    bias_filler {
      type: "constant"
      value: 0
    }
  }
}
layer {
  name: "conv3_1_bn0"
  type: "BatchNorm"
  bottom: "conv3_1_0"
  top: "conv3_1_0"
  param {
    lr_mult: 0
    decay_mult: 0
  }
  param {
    lr_mult: 0
    decay_mult: 0
  }
  param {
    lr_mult: 0
    decay_mult: 0
  }
  batch_norm_param {
    use_global_stats: true
  }
}
layer {
  name: "conv3_1_scale0"
  type: "Scale"
  bottom: "conv3_1_0"
  top: "conv3_1_0"
  scale_param {
    bias_term: true
  }
}
layer {
  name: "conv3_1_ReLU0"
  type: "ReLU"
  bottom: "conv3_1_0"
  top: "conv3_1_0"
}
layer {
  name: "conv3_1_1"
  type: "Convolution"
  bottom: "conv3_1_0"
  top: "conv3_1_1"
  param {
    lr_mult: 1
    decay_mult: 1
  }
  param {
    lr_mult: 2
    decay_mult: 0
  }
  convolution_param {
    num_output: 32
    bias_term: true
    pad: 1
    kernel_size: 3
    stride: 1
    weight_filler {
      type: "msra"
    }
    bias_filler {
      type: "constant"
      value: 0
    }
  }
}
layer {
  name: "conv3_1_bn1"
  type: "BatchNorm"
  bottom: "conv3_1_1"
  top: "conv3_1_1"
  param {
    lr_mult: 0
    decay_mult: 0
  }
  param {
    lr_mult: 0
    decay_mult: 0
  }
  param {
    lr_mult: 0
    decay_mult: 0
  }
  batch_norm_param {
    use_global_stats: true
  }
}
layer {
  name: "conv3_1_scale1"
  type: "Scale"
  bottom: "conv3_1_1"
  top: "conv3_1_1"
  scale_param {
    bias_term: true
  }
}
layer {
  name: "conv3_1_Pooling"
  type: "Pooling"
  bottom: "conv3_1_1"
  top: "conv3_1_Pooling"
  pooling_param {
    pool: AVE
    engine: CAFFE
    global_pooling: true
  }
}
layer {
  name: "conv3_1_2"
  type: "Convolution"
  bottom: "conv3_1_Pooling"
  top: "conv3_1_2"
  param {
    lr_mult: 1
    decay_mult: 1
  }
  param {
    lr_mult: 2
    decay_mult: 0
  }
  convolution_param {
    num_output: 16
    bias_term: true
    pad: 0
    kernel_size: 1
    stride: 1
    weight_filler {
      type: "msra"
    }
    bias_filler {
      type: "constant"
      value: 0
    }
  }
}
layer {
  name: "conv3_1_ReLU2"
  type: "ReLU"
  bottom: "conv3_1_2"
  top: "conv3_1_2"
}
layer {
  name: "conv3_1_3"
  type: "Convolution"
  bottom: "conv3_1_2"
  top: "conv3_1_3"
  param {
    lr_mult: 1
    decay_mult: 1
  }
  param {
    lr_mult: 2
    decay_mult: 0
  }
  convolution_param {
    num_output: 32
    bias_term: true
    pad: 0
    kernel_size: 1
    stride: 1
    weight_filler {
      type: "msra"
    }
    bias_filler {
      type: "constant"
      value: 0
    }
  }
}
layer {
  name: "conv3_1_Prob3"
  type: "Sigmoid"
  bottom: "conv3_1_3"
  top: "conv3_1_3"
}
layer {
  name: "conv3_1_down"
  type: "Convolution"
  bottom: "conv2_Axpy_3"
  top: "conv3_1_down"
  param {
    lr_mult: 1
    decay_mult: 1
  }
  param {
    lr_mult: 2
    decay_mult: 0
  }
  convolution_param {
    num_output: 32
    bias_term: true
    pad: 0
    kernel_size: 1
    stride: 2
    weight_filler {
      type: "msra"
    }
    bias_filler {
      type: "constant"
      value: 0
    }
  }
}
layer {
  name: "conv3_1_bn_down"
  type: "BatchNorm"
  bottom: "conv3_1_down"
  top: "conv3_1_down"
  param {
    lr_mult: 0
    decay_mult: 0
  }
  param {
    lr_mult: 0
    decay_mult: 0
  }
  param {
    lr_mult: 0
    decay_mult: 0
  }
  batch_norm_param {
    use_global_stats: true
  }
}
layer {
  name: "conv3_1_scale_down"
  type: "Scale"
  bottom: "conv3_1_down"
  top: "conv3_1_down"
  scale_param {
    bias_term: true
  }
}
layer {
  name: "conv3_Axpy_1"
  type: "Axpy"
  bottom: "conv3_1_3"
  bottom: "conv3_1_1"
  bottom: "conv3_1_down"
  top: "conv3_Axpy_1"
}
layer {
  name: "conv3_1ReLU_1"
  type: "ReLU"
  bottom: "conv3_Axpy_1"
  top: "conv3_Axpy_1"
}
layer {
  name: "conv3_2_0"
  type: "Convolution"
  bottom: "conv3_Axpy_1"
  top: "conv3_2_0"
  param {
    lr_mult: 1
    decay_mult: 1
  }
  param {
    lr_mult: 2
    decay_mult: 0
  }
  convolution_param {
    num_output: 32
    bias_term: true
    pad: 1
    kernel_size: 3
    stride: 1
    weight_filler {
      type: "msra"
    }
    bias_filler {
      type: "constant"
      value: 0
    }
  }
}
layer {
  name: "conv3_2_bn0"
  type: "BatchNorm"
  bottom: "conv3_2_0"
  top: "conv3_2_0"
  param {
    lr_mult: 0
    decay_mult: 0
  }
  param {
    lr_mult: 0
    decay_mult: 0
  }
  param {
    lr_mult: 0
    decay_mult: 0
  }
  batch_norm_param {
    use_global_stats: true
  }
}
layer {
  name: "conv3_2_scale0"
  type: "Scale"
  bottom: "conv3_2_0"
  top: "conv3_2_0"
  scale_param {
    bias_term: true
  }
}
layer {
  name: "conv3_2_ReLU0"
  type: "ReLU"
  bottom: "conv3_2_0"
  top: "conv3_2_0"
}
layer {
  name: "conv3_2_1"
  type: "Convolution"
  bottom: "conv3_2_0"
  top: "conv3_2_1"
  param {
    lr_mult: 1
    decay_mult: 1
  }
  param {
    lr_mult: 2
    decay_mult: 0
  }
  convolution_param {
    num_output: 32
    bias_term: true
    pad: 1
    kernel_size: 3
    stride: 1
    weight_filler {
      type: "msra"
    }
    bias_filler {
      type: "constant"
      value: 0
    }
  }
}
layer {
  name: "conv3_2_bn1"
  type: "BatchNorm"
  bottom: "conv3_2_1"
  top: "conv3_2_1"
  param {
    lr_mult: 0
    decay_mult: 0
  }
  param {
    lr_mult: 0
    decay_mult: 0
  }
  param {
    lr_mult: 0
    decay_mult: 0
  }
  batch_norm_param {
    use_global_stats: true
  }
}
layer {
  name: "conv3_2_scale1"
  type: "Scale"
  bottom: "conv3_2_1"
  top: "conv3_2_1"
  scale_param {
    bias_term: true
  }
}
layer {
  name: "conv3_2_Pooling"
  type: "Pooling"
  bottom: "conv3_2_1"
  top: "conv3_2_Pooling"
  pooling_param {
    pool: AVE
    engine: CAFFE
    global_pooling: true
  }
}
layer {
  name: "conv3_2_2"
  type: "Convolution"
  bottom: "conv3_2_Pooling"
  top: "conv3_2_2"
  param {
    lr_mult: 1
    decay_mult: 1
  }
  param {
    lr_mult: 2
    decay_mult: 0
  }
  convolution_param {
    num_output: 16
    bias_term: true
    pad: 0
    kernel_size: 1
    stride: 1
    weight_filler {
      type: "msra"
    }
    bias_filler {
      type: "constant"
      value: 0
    }
  }
}
layer {
  name: "conv3_2_ReLU2"
  type: "ReLU"
  bottom: "conv3_2_2"
  top: "conv3_2_2"
}
layer {
  name: "conv3_2_3"
  type: "Convolution"
  bottom: "conv3_2_2"
  top: "conv3_2_3"
  param {
    lr_mult: 1
    decay_mult: 1
  }
  param {
    lr_mult: 2
    decay_mult: 0
  }
  convolution_param {
    num_output: 32
    bias_term: true
    pad: 0
    kernel_size: 1
    stride: 1
    weight_filler {
      type: "msra"
    }
    bias_filler {
      type: "constant"
      value: 0
    }
  }
}
layer {
  name: "conv3_2_Prob3"
  type: "Sigmoid"
  bottom: "conv3_2_3"
  top: "conv3_2_3"
}
layer {
  name: "conv3_Axpy_2"
  type: "Axpy"
  bottom: "conv3_2_3"
  bottom: "conv3_2_1"
  bottom: "conv3_Axpy_1"
  top: "conv3_Axpy_2"
}
layer {
  name: "conv3_2ReLU_1"
  type: "ReLU"
  bottom: "conv3_Axpy_2"
  top: "conv3_Axpy_2"
}
layer {
  name: "conv3_3_0"
  type: "Convolution"
  bottom: "conv3_Axpy_2"
  top: "conv3_3_0"
  param {
    lr_mult: 1
    decay_mult: 1
  }
  param {
    lr_mult: 2
    decay_mult: 0
  }
  convolution_param {
    num_output: 32
    bias_term: true
    pad: 1
    kernel_size: 3
    stride: 1
    weight_filler {
      type: "msra"
    }
    bias_filler {
      type: "constant"
      value: 0
    }
  }
}
layer {
  name: "conv3_3_bn0"
  type: "BatchNorm"
  bottom: "conv3_3_0"
  top: "conv3_3_0"
  param {
    lr_mult: 0
    decay_mult: 0
  }
  param {
    lr_mult: 0
    decay_mult: 0
  }
  param {
    lr_mult: 0
    decay_mult: 0
  }
  batch_norm_param {
    use_global_stats: true
  }
}
layer {
  name: "conv3_3_scale0"
  type: "Scale"
  bottom: "conv3_3_0"
  top: "conv3_3_0"
  scale_param {
    bias_term: true
  }
}
layer {
  name: "conv3_3_ReLU0"
  type: "ReLU"
  bottom: "conv3_3_0"
  top: "conv3_3_0"
}
layer {
  name: "conv3_3_1"
  type: "Convolution"
  bottom: "conv3_3_0"
  top: "conv3_3_1"
  param {
    lr_mult: 1
    decay_mult: 1
  }
  param {
    lr_mult: 2
    decay_mult: 0
  }
  convolution_param {
    num_output: 32
    bias_term: true
    pad: 1
    kernel_size: 3
    stride: 1
    weight_filler {
      type: "msra"
    }
    bias_filler {
      type: "constant"
      value: 0
    }
  }
}
layer {
  name: "conv3_3_bn1"
  type: "BatchNorm"
  bottom: "conv3_3_1"
  top: "conv3_3_1"
  param {
    lr_mult: 0
    decay_mult: 0
  }
  param {
    lr_mult: 0
    decay_mult: 0
  }
  param {
    lr_mult: 0
    decay_mult: 0
  }
  batch_norm_param {
    use_global_stats: true
  }
}
layer {
  name: "conv3_3_scale1"
  type: "Scale"
  bottom: "conv3_3_1"
  top: "conv3_3_1"
  scale_param {
    bias_term: true
  }
}
layer {
  name: "conv3_3_Pooling"
  type: "Pooling"
  bottom: "conv3_3_1"
  top: "conv3_3_Pooling"
  pooling_param {
    pool: AVE
    engine: CAFFE
    global_pooling: true
  }
}
layer {
  name: "conv3_3_2"
  type: "Convolution"
  bottom: "conv3_3_Pooling"
  top: "conv3_3_2"
  param {
    lr_mult: 1
    decay_mult: 1
  }
  param {
    lr_mult: 2
    decay_mult: 0
  }
  convolution_param {
    num_output: 16
    bias_term: true
    pad: 0
    kernel_size: 1
    stride: 1
    weight_filler {
      type: "msra"
    }
    bias_filler {
      type: "constant"
      value: 0
    }
  }
}
layer {
  name: "conv3_3_ReLU2"
  type: "ReLU"
  bottom: "conv3_3_2"
  top: "conv3_3_2"
}
layer {
  name: "conv3_3_3"
  type: "Convolution"
  bottom: "conv3_3_2"
  top: "conv3_3_3"
  param {
    lr_mult: 1
    decay_mult: 1
  }
  param {
    lr_mult: 2
    decay_mult: 0
  }
  convolution_param {
    num_output: 32
    bias_term: true
    pad: 0
    kernel_size: 1
    stride: 1
    weight_filler {
      type: "msra"
    }
    bias_filler {
      type: "constant"
      value: 0
    }
  }
}
layer {
  name: "conv3_3_Prob3"
  type: "Sigmoid"
  bottom: "conv3_3_3"
  top: "conv3_3_3"
}
layer {
  name: "conv3_Axpy_3"
  type: "Axpy"
  bottom: "conv3_3_3"
  bottom: "conv3_3_1"
  bottom: "conv3_Axpy_2"
  top: "conv3_Axpy_3"
}
layer {
  name: "conv3_3ReLU_1"
  type: "ReLU"
  bottom: "conv3_Axpy_3"
  top: "conv3_Axpy_3"
}
layer {
  name: "conv4_1_0"
  type: "Convolution"
  bottom: "conv3_Axpy_3"
  top: "conv4_1_0"
  param {
    lr_mult: 1
    decay_mult: 1
  }
  param {
    lr_mult: 2
    decay_mult: 0
  }
  convolution_param {
    num_output: 64
    bias_term: true
    pad: 1
    kernel_size: 3
    stride: 2
    weight_filler {
      type: "msra"
    }
    bias_filler {
      type: "constant"
      value: 0
    }
  }
}
layer {
  name: "conv4_1_bn0"
  type: "BatchNorm"
  bottom: "conv4_1_0"
  top: "conv4_1_0"
  param {
    lr_mult: 0
    decay_mult: 0
  }
  param {
    lr_mult: 0
    decay_mult: 0
  }
  param {
    lr_mult: 0
    decay_mult: 0
  }
  batch_norm_param {
    use_global_stats: true
  }
}
layer {
  name: "conv4_1_scale0"
  type: "Scale"
  bottom: "conv4_1_0"
  top: "conv4_1_0"
  scale_param {
    bias_term: true
  }
}
layer {
  name: "conv4_1_ReLU0"
  type: "ReLU"
  bottom: "conv4_1_0"
  top: "conv4_1_0"
}
layer {
  name: "conv4_1_1"
  type: "Convolution"
  bottom: "conv4_1_0"
  top: "conv4_1_1"
  param {
    lr_mult: 1
    decay_mult: 1
  }
  param {
    lr_mult: 2
    decay_mult: 0
  }
  convolution_param {
    num_output: 64
    bias_term: true
    pad: 1
    kernel_size: 3
    stride: 1
    weight_filler {
      type: "msra"
    }
    bias_filler {
      type: "constant"
      value: 0
    }
  }
}
layer {
  name: "conv4_1_bn1"
  type: "BatchNorm"
  bottom: "conv4_1_1"
  top: "conv4_1_1"
  param {
    lr_mult: 0
    decay_mult: 0
  }
  param {
    lr_mult: 0
    decay_mult: 0
  }
  param {
    lr_mult: 0
    decay_mult: 0
  }
  batch_norm_param {
    use_global_stats: true
  }
}
layer {
  name: "conv4_1_scale1"
  type: "Scale"
  bottom: "conv4_1_1"
  top: "conv4_1_1"
  scale_param {
    bias_term: true
  }
}
layer {
  name: "conv4_1_Pooling"
  type: "Pooling"
  bottom: "conv4_1_1"
  top: "conv4_1_Pooling"
  pooling_param {
    pool: AVE
    engine: CAFFE
    global_pooling: true
  }
}
layer {
  name: "conv4_1_2"
  type: "Convolution"
  bottom: "conv4_1_Pooling"
  top: "conv4_1_2"
  param {
    lr_mult: 1
    decay_mult: 1
  }
  param {
    lr_mult: 2
    decay_mult: 0
  }
  convolution_param {
    num_output: 16
    bias_term: true
    pad: 0
    kernel_size: 1
    stride: 1
    weight_filler {
      type: "msra"
    }
    bias_filler {
      type: "constant"
      value: 0
    }
  }
}
layer {
  name: "conv4_1_ReLU2"
  type: "ReLU"
  bottom: "conv4_1_2"
  top: "conv4_1_2"
}
layer {
  name: "conv4_1_3"
  type: "Convolution"
  bottom: "conv4_1_2"
  top: "conv4_1_3"
  param {
    lr_mult: 1
    decay_mult: 1
  }
  param {
    lr_mult: 2
    decay_mult: 0
  }
  convolution_param {
    num_output: 64
    bias_term: true
    pad: 0
    kernel_size: 1
    stride: 1
    weight_filler {
      type: "msra"
    }
    bias_filler {
      type: "constant"
      value: 0
    }
  }
}
layer {
  name: "conv4_1_Prob3"
  type: "Sigmoid"
  bottom: "conv4_1_3"
  top: "conv4_1_3"
}
layer {
  name: "conv4_1_down"
  type: "Convolution"
  bottom: "conv3_Axpy_3"
  top: "conv4_1_down"
  param {
    lr_mult: 1
    decay_mult: 1
  }
  param {
    lr_mult: 2
    decay_mult: 0
  }
  convolution_param {
    num_output: 64
    bias_term: true
    pad: 0
    kernel_size: 1
    stride: 2
    weight_filler {
      type: "msra"
    }
    bias_filler {
      type: "constant"
      value: 0
    }
  }
}
layer {
  name: "conv4_1_bn_down"
  type: "BatchNorm"
  bottom: "conv4_1_down"
  top: "conv4_1_down"
  param {
    lr_mult: 0
    decay_mult: 0
  }
  param {
    lr_mult: 0
    decay_mult: 0
  }
  param {
    lr_mult: 0
    decay_mult: 0
  }
  batch_norm_param {
    use_global_stats: true
  }
}
layer {
  name: "conv4_1_scale_down"
  type: "Scale"
  bottom: "conv4_1_down"
  top: "conv4_1_down"
  scale_param {
    bias_term: true
  }
}
layer {
  name: "conv4_Axpy_1"
  type: "Axpy"
  bottom: "conv4_1_3"
  bottom: "conv4_1_1"
  bottom: "conv4_1_down"
  top: "conv4_Axpy_1"
}
layer {
  name: "conv4_1ReLU_1"
  type: "ReLU"
  bottom: "conv4_Axpy_1"
  top: "conv4_Axpy_1"
}
layer {
  name: "conv4_2_0"
  type: "Convolution"
  bottom: "conv4_Axpy_1"
  top: "conv4_2_0"
  param {
    lr_mult: 1
    decay_mult: 1
  }
  param {
    lr_mult: 2
    decay_mult: 0
  }
  convolution_param {
    num_output: 64
    bias_term: true
    pad: 1
    kernel_size: 3
    stride: 1
    weight_filler {
      type: "msra"
    }
    bias_filler {
      type: "constant"
      value: 0
    }
  }
}
layer {
  name: "conv4_2_bn0"
  type: "BatchNorm"
  bottom: "conv4_2_0"
  top: "conv4_2_0"
  param {
    lr_mult: 0
    decay_mult: 0
  }
  param {
    lr_mult: 0
    decay_mult: 0
  }
  param {
    lr_mult: 0
    decay_mult: 0
  }
  batch_norm_param {
    use_global_stats: true
  }
}
layer {
  name: "conv4_2_scale0"
  type: "Scale"
  bottom: "conv4_2_0"
  top: "conv4_2_0"
  scale_param {
    bias_term: true
  }
}
layer {
  name: "conv4_2_ReLU0"
  type: "ReLU"
  bottom: "conv4_2_0"
  top: "conv4_2_0"
}
layer {
  name: "conv4_2_1"
  type: "Convolution"
  bottom: "conv4_2_0"
  top: "conv4_2_1"
  param {
    lr_mult: 1
    decay_mult: 1
  }
  param {
    lr_mult: 2
    decay_mult: 0
  }
  convolution_param {
    num_output: 64
    bias_term: true
    pad: 1
    kernel_size: 3
    stride: 1
    weight_filler {
      type: "msra"
    }
    bias_filler {
      type: "constant"
      value: 0
    }
  }
}
layer {
  name: "conv4_2_bn1"
  type: "BatchNorm"
  bottom: "conv4_2_1"
  top: "conv4_2_1"
  param {
    lr_mult: 0
    decay_mult: 0
  }
  param {
    lr_mult: 0
    decay_mult: 0
  }
  param {
    lr_mult: 0
    decay_mult: 0
  }
  batch_norm_param {
    use_global_stats: true
  }
}
layer {
  name: "conv4_2_scale1"
  type: "Scale"
  bottom: "conv4_2_1"
  top: "conv4_2_1"
  scale_param {
    bias_term: true
  }
}
layer {
  name: "conv4_2_Pooling"
  type: "Pooling"
  bottom: "conv4_2_1"
  top: "conv4_2_Pooling"
  pooling_param {
    pool: AVE
    engine: CAFFE
    global_pooling: true
  }
}
layer {
  name: "conv4_2_2"
  type: "Convolution"
  bottom: "conv4_2_Pooling"
  top: "conv4_2_2"
  param {
    lr_mult: 1
    decay_mult: 1
  }
  param {
    lr_mult: 2
    decay_mult: 0
  }
  convolution_param {
    num_output: 16
    bias_term: true
    pad: 0
    kernel_size: 1
    stride: 1
    weight_filler {
      type: "msra"
    }
    bias_filler {
      type: "constant"
      value: 0
    }
  }
}
layer {
  name: "conv4_2_ReLU2"
  type: "ReLU"
  bottom: "conv4_2_2"
  top: "conv4_2_2"
}
layer {
  name: "conv4_2_3"
  type: "Convolution"
  bottom: "conv4_2_2"
  top: "conv4_2_3"
  param {
    lr_mult: 1
    decay_mult: 1
  }
  param {
    lr_mult: 2
    decay_mult: 0
  }
  convolution_param {
    num_output: 64
    bias_term: true
    pad: 0
    kernel_size: 1
    stride: 1
    weight_filler {
      type: "msra"
    }
    bias_filler {
      type: "constant"
      value: 0
    }
  }
}
layer {
  name: "conv4_2_Prob3"
  type: "Sigmoid"
  bottom: "conv4_2_3"
  top: "conv4_2_3"
}
layer {
  name: "conv4_Axpy_2"
  type: "Axpy"
  bottom: "conv4_2_3"
  bottom: "conv4_2_1"
  bottom: "conv4_Axpy_1"
  top: "conv4_Axpy_2"
}
layer {
  name: "conv4_2ReLU_1"
  type: "ReLU"
  bottom: "conv4_Axpy_2"
  top: "conv4_Axpy_2"
}
layer {
  name: "conv4_3_0"
  type: "Convolution"
  bottom: "conv4_Axpy_2"
  top: "conv4_3_0"
  param {
    lr_mult: 1
    decay_mult: 1
  }
  param {
    lr_mult: 2
    decay_mult: 0
  }
  convolution_param {
    num_output: 64
    bias_term: true
    pad: 1
    kernel_size: 3
    stride: 1
    weight_filler {
      type: "msra"
    }
    bias_filler {
      type: "constant"
      value: 0
    }
  }
}
layer {
  name: "conv4_3_bn0"
  type: "BatchNorm"
  bottom: "conv4_3_0"
  top: "conv4_3_0"
  param {
    lr_mult: 0
    decay_mult: 0
  }
  param {
    lr_mult: 0
    decay_mult: 0
  }
  param {
    lr_mult: 0
    decay_mult: 0
  }
  batch_norm_param {
    use_global_stats: true
  }
}
layer {
  name: "conv4_3_scale0"
  type: "Scale"
  bottom: "conv4_3_0"
  top: "conv4_3_0"
  scale_param {
    bias_term: true
  }
}
layer {
  name: "conv4_3_ReLU0"
  type: "ReLU"
  bottom: "conv4_3_0"
  top: "conv4_3_0"
}
layer {
  name: "conv4_3_1"
  type: "Convolution"
  bottom: "conv4_3_0"
  top: "conv4_3_1"
  param {
    lr_mult: 1
    decay_mult: 1
  }
  param {
    lr_mult: 2
    decay_mult: 0
  }
  convolution_param {
    num_output: 64
    bias_term: true
    pad: 1
    kernel_size: 3
    stride: 1
    weight_filler {
      type: "msra"
    }
    bias_filler {
      type: "constant"
      value: 0
    }
  }
}
layer {
  name: "conv4_3_bn1"
  type: "BatchNorm"
  bottom: "conv4_3_1"
  top: "conv4_3_1"
  param {
    lr_mult: 0
    decay_mult: 0
  }
  param {
    lr_mult: 0
    decay_mult: 0
  }
  param {
    lr_mult: 0
    decay_mult: 0
  }
  batch_norm_param {
    use_global_stats: true
  }
}
layer {
  name: "conv4_3_scale1"
  type: "Scale"
  bottom: "conv4_3_1"
  top: "conv4_3_1"
  scale_param {
    bias_term: true
  }
}
layer {
  name: "conv4_3_Pooling"
  type: "Pooling"
  bottom: "conv4_3_1"
 
I1012 11:55:12.191859 31118 layer_factory.hpp:77] Creating layer Data1
I1012 11:55:12.191953 31118 db_lmdb.cpp:35] Opened lmdb /home/lijianfei/datasets/cifar10_40/test_lmdb
I1012 11:55:12.191970 31118 net.cpp:128] Creating Layer Data1
I1012 11:55:12.191977 31118 net.cpp:522] Data1 -> data
I1012 11:55:12.191988 31118 net.cpp:522] Data1 -> label
I1012 11:55:12.192140 31118 data_layer.cpp:45] output data size: 10,3,32,32
I1012 11:55:12.200493 31118 net.cpp:172] Setting up Data1
I1012 11:55:12.200512 31118 net.cpp:186] Top shape: 10 3 32 32 (30720)
I1012 11:55:12.200518 31118 net.cpp:186] Top shape: 10 (10)
I1012 11:55:12.200522 31118 net.cpp:194] Memory required for data: 122920
I1012 11:55:12.200527 31118 layer_factory.hpp:77] Creating layer label_Data1_1_split
I1012 11:55:12.200536 31118 net.cpp:128] Creating Layer label_Data1_1_split
I1012 11:55:12.200541 31118 net.cpp:558] label_Data1_1_split <- label
I1012 11:55:12.200547 31118 net.cpp:522] label_Data1_1_split -> label_Data1_1_split_0
I1012 11:55:12.200556 31118 net.cpp:522] label_Data1_1_split -> label_Data1_1_split_1
I1012 11:55:12.200795 31118 net.cpp:172] Setting up label_Data1_1_split
I1012 11:55:12.200803 31118 net.cpp:186] Top shape: 10 (10)
I1012 11:55:12.200809 31118 net.cpp:186] Top shape: 10 (10)
…
I1012 11:55:12.362000 31118 layer_factory.hpp:77] Creating layer conv3_1_scale_down
I1012 11:55:12.362160 31118 net.cpp:172] Setting up conv3_1_scale_down
I1012 11:55:12.362205 31118 net.cpp:186] Top shape: 10 32 16 16 (81920)
I1012 11:55:12.362210 31118 net.cpp:194] Memory required for data: 33561080
I1012 11:55:12.362217 31118 layer_factory.hpp:77] Creating layer conv3_Axpy_1
I1012 11:55:12.362223 31118 net.cpp:128] Creating Layer conv3_Axpy_1
I1012 11:55:12.362231 31118 net.cpp:558] conv3_Axpy_1 <- conv3_1_3
I1012 11:55:12.362236 31118 net.cpp:558] conv3_Axpy_1 <- conv3_1_1_conv3_1_scale1_0_split_1
I1012 11:55:12.362241 31118 net.cpp:558] conv3_Axpy_1 <- conv3_1_down
I1012 11:55:12.362247 31118 net.cpp:522] conv3_Axpy_1 -> conv3_Axpy_1
I1012 11:55:12.362309 31118 net.cpp:172] Setting up conv3_Axpy_1
I1012 11:55:12.362316 31118 net.cpp:186] Top shape: 10 32 16 16 (81920)
I1012 11:55:12.362320 31118 net.cpp:194] Memory required for data: 33888760
I1012 11:55:12.362324 31118 layer_factory.hpp:77] Creating layer conv3_1ReLU_1
I1012 11:55:12.362330 31118 net.cpp:128] Creating Layer conv3_1ReLU_1
I1012 11:55:12.362334 31118 net.cpp:558] conv3_1ReLU_1 <- conv3_Axpy_1
I1012 11:55:12.362342 31118 net.cpp:509] conv3_1ReLU_1 -> conv3_Axpy_1 (in-place)
I1012 11:55:12.363585 31118 net.cpp:172] Setting up conv3_1ReLU_1
I1012 11:55:12.363620 31118 net.cpp:186] Top shape: 10 32 16 16 (81920)
I1012 11:55:12.363624 31118 net.cpp:194] Memory required for data: 34216440
I1012 11:55:12.363628 31118 layer_factory.hpp:77] Creating layer conv3_Axpy_1_conv3_1ReLU_1_0_split
I1012 11:55:12.363638 31118 net.cpp:128] Creating Layer conv3_Axpy_1_conv3_1ReLU_1_0_split
I1012 11:55:12.363643 31118 net.cpp:558] conv3_Axpy_1_conv3_1ReLU_1_0_split <- conv3_Axpy_1
I1012 11:55:12.363654 31118 net.cpp:522] conv3_Axpy_1_conv3_1ReLU_1_0_split -> conv3_Axpy_1_conv3_1ReLU_1_0_split_0
I1012 11:55:12.363667 31118 net.cpp:522] conv3_Axpy_1_conv3_1ReLU_1_0_split -> conv3_Axpy_1_conv3_1ReLU_1_0_split_1
I1012 11:55:12.363723 31118 net.cpp:172] Setting up conv3_Axpy_1_conv3_1ReLU_1_0_split
I1012 11:55:12.363729 31118 net.cpp:186] Top shape: 10 32 16 16 (81920)
I1012 11:55:12.363735 31118 net.cpp:186] Top shape: 10 32 16 16 (81920)
I1012 11:55:12.363739 31118 net.cpp:194] Memory required for data: 34871800
I1012 11:55:12.363744 31118 layer_factory.hpp:77] Creating layer conv3_2_0
I1012 11:55:12.363755 31118 net.cpp:128] Creating Layer conv3_2_0
I1012 11:55:12.363760 31118 net.cpp:558] conv3_2_0 <- conv3_Axpy_1_conv3_1ReLU_1_0_split_0
I1012 11:55:12.363770 31118 net.cpp:522] conv3_2_0 -> conv3_2_0
I1012 11:55:12.370498 31118 net.cpp:172] Setting up conv3_2_0
I1012 11:55:12.370527 31118 net.cpp:186] Top shape: 10 32 16 16 (81920)
I1012 11:55:12.370532 31118 net.cpp:194] Memory required for data: 35199480
I1012 11:55:12.370544 31118 layer_factory.hpp:77] Creating layer conv3_2_bn0
I1012 11:55:12.370558 31118 net.cpp:128] Creating Layer conv3_2_bn0
I1012 11:55:12.370566 31118 net.cpp:558] conv3_2_bn0 <- conv3_2_0
I1012 11:55:12.370574 31118 net.cpp:509] conv3_2_bn0 -> conv3_2_0 (in-place)
I1012 11:55:12.370928 31118 net.cpp:172] Setting up conv3_2_bn0
I1012 11:55:12.370940 31118 net.cpp:186] Top shape: 10 32 16 16 (81920)
I1012 11:55:12.370945 31118 net.cpp:194] Memory required for data: 35527160
I1012 11:55:12.370956 31118 layer_factory.hpp:77] Creating layer conv3_2_scale0
I1012 11:55:12.370971 31118 net.cpp:128] Creating Layer conv3_2_scale0
I1012 11:55:12.370978 31118 net.cpp:558] conv3_2_scale0 <- conv3_2_0
I1012 11:55:12.370985 31118 net.cpp:509] conv3_2_scale0 -> conv3_2_0 (in-place)
I1012 11:55:12.371052 31118 layer_factory.hpp:77] Creating layer conv3_2_scale0
I1012 11:55:12.371254 31118 net.cpp:172] Setting up conv3_2_scale0
I1012 11:55:12.371264 31118 net.cpp:186] Top shape: 10 32 16 16 (81920)
I1012 11:55:12.371269 31118 net.cpp:194] Memory required for data: 35854840
I1012 11:55:12.371279 31118 layer_factory.hpp:77] Creating layer conv3_2_ReLU0
I1012 11:55:12.371289 31118 net.cpp:128] Creating Layer conv3_2_ReLU0
I1012 11:55:12.371294 31118 net.cpp:558] conv3_2_ReLU0 <- conv3_2_0
I1012 11:55:12.371304 31118 net.cpp:509] conv3_2_ReLU0 -> conv3_2_0 (in-place)
I1012 11:55:12.372622 31118 net.cpp:172] Setting up conv3_2_ReLU0
I1012 11:55:12.372653 31118 net.cpp:186] Top shape: 10 32 16 16 (81920)
I1012 11:55:12.372658 31118 net.cpp:194] Memory required for data: 36182520
I1012 11:55:12.372664 31118 layer_factory.hpp:77] Creating layer conv3_2_1
I1012 11:55:12.372680 31118 net.cpp:128] Creating Layer conv3_2_1
I1012 11:55:12.372687 31118 net.cpp:558] conv3_2_1 <- conv3_2_0
I1012 11:55:12.372699 31118 net.cpp:522] conv3_2_1 -> conv3_2_1
I1012 11:55:12.375963 31118 net.cpp:172] Setting up conv3_2_1
I1012 11:55:12.375990 31118 net.cpp:186] Top shape: 10 32 16 16 (81920)
I1012 11:55:12.375994 31118 net.cpp:194] Memory required for data: 36510200
I1012 11:55:12.376004 31118 layer_factory.hpp:77] Creating layer conv3_2_bn1
I1012 11:55:12.376015 31118 net.cpp:128] Creating Layer conv3_2_bn1
I1012 11:55:12.376021 31118 net.cpp:558] conv3_2_bn1 <- conv3_2_1
I1012 11:55:12.376030 31118 net.cpp:509] conv3_2_bn1 -> conv3_2_1 (in-place)
I1012 11:55:12.376322 31118 net.cpp:172] Setting up conv3_2_bn1
I1012 11:55:12.376334 31118 net.cpp:186] Top shape: 10 32 16 16 (81920)
I1012 11:55:12.376339 31118 net.cpp:194] Memory required for data: 36837880
I1012 11:55:12.376348 31118 layer_factory.hpp:77] Creating layer conv3_2_scale1
I1012 11:55:12.376382 31118 net.cpp:128] Creating Layer conv3_2_scale1
I1012 11:55:12.376387 31118 net.cpp:558] conv3_2_scale1 <- conv3_2_1
I1012 11:55:12.376394 31118 net.cpp:509] conv3_2_scale1 -> conv3_2_1 (in-place)
I1012 11:55:12.376448 31118 layer_factory.hpp:77] Creating layer conv3_2_scale1
I1012 11:55:12.376617 31118 net.cpp:172] Setting up conv3_2_scale1
I1012 11:55:12.376629 31118 net.cpp:186] Top shape: 10 32 16 16 (81920)
I1012 11:55:12.376633 31118 net.cpp:194] Memory required for data: 37165560
I1012 11:55:12.376641 31118 layer_factory.hpp:77] Creating layer conv3_2_1_conv3_2_scale1_0_split
I1012 11:55:12.376652 31118 net.cpp:128] Creating Layer conv3_2_1_conv3_2_scale1_0_split
I1012 11:55:12.376655 31118 net.cpp:558] conv3_2_1_conv3_2_scale1_0_split <- conv3_2_1
I1012 11:55:12.376664 31118 net.cpp:522] conv3_2_1_conv3_2_scale1_0_split -> conv3_2_1_conv3_2_scale1_0_split_0
I1012 11:55:12.376672 31118 net.cpp:522] conv3_2_1_conv3_2_scale1_0_split -> conv3_2_1_conv3_2_scale1_0_split_1
I1012 11:55:12.376720 31118 net.cpp:172] Setting up conv3_2_1_conv3_2_scale1_0_split
I1012 11:55:12.376730 31118 net.cpp:186] Top shape: 10 32 16 16 (81920)
I1012 11:55:12.376736 31118 net.cpp:186] Top shape: 10 32 16 16 (81920)
I1012 11:55:12.376740 31118 net.cpp:194] Memory required for data: 37820920
I1012 11:55:12.376744 31118 layer_factory.hpp:77] Creating layer conv3_2_Pooling
I1012 11:55:12.376751 31118 net.cpp:128] Creating Layer conv3_2_Pooling
I1012 11:55:12.376755 31118 net.cpp:558] conv3_2_Pooling <- conv3_2_1_conv3_2_scale1_0_split_0
I1012 11:55:12.376765 31118 net.cpp:522] conv3_2_Pooling -> conv3_2_Pooling
I1012 11:55:12.376796 31118 net.cpp:172] Setting up conv3_2_Pooling
I1012 11:55:12.376806 31118 net.cpp:186] Top shape: 10 32 1 1 (320)
I1012 11:55:12.376811 31118 net.cpp:194] Memory required for data: 37822200
I1012 11:55:12.376814 31118 layer_factory.hpp:77] Creating layer conv3_2_2
I1012 11:55:12.376828 31118 net.cpp:128] Creating Layer conv3_2_2
I1012 11:55:12.376833 31118 net.cpp:558] conv3_2_2 <- conv3_2_Pooling
I1012 11:55:12.376839 31118 net.cpp:522] conv3_2_2 -> conv3_2_2
I1012 11:55:12.382122 31118 net.cpp:172] Setting up conv3_2_2
I1012 11:55:12.382143 31118 net.cpp:186] Top shape: 10 16 1 1 (160)
I1012 11:55:12.382148 31118 net.cpp:194] Memory required for data: 37822840
I1012 11:55:12.382158 31118 layer_factory.hpp:77] Creating layer conv3_2_ReLU2
I1012 11:55:12.382165 31118 net.cpp:128] Creating Layer conv3_2_ReLU2
I1012 11:55:12.382170 31118 net.cpp:558] conv3_2_ReLU2 <- conv3_2_2
I1012 11:55:12.382179 31118 net.cpp:509] conv3_2_ReLU2 -> conv3_2_2 (in-place)
I1012 11:55:12.384145 31118 net.cpp:172] Setting up conv3_2_ReLU2
I1012 11:55:12.384162 31118 net.cpp:186] Top shape: 10 16 1 1 (160)
I1012 11:55:12.384166 31118 net.cpp:194] Memory required for data: 37823480
I1012 11:55:12.384171 31118 layer_factory.hpp:77] Creating layer conv3_2_3
I1012 11:55:12.384184 31118 net.cpp:128] Creating Layer conv3_2_3
I1012 11:55:12.384188 31118 net.cpp:558] conv3_2_3 <- conv3_2_2
I1012 11:55:12.384198 31118 net.cpp:522] conv3_2_3 -> conv3_2_3
I1012 11:55:12.390928 31118 net.cpp:172] Setting up conv3_2_3
I1012 11:55:12.390951 31118 net.cpp:186] Top shape: 10 32 1 1 (320)
I1012 11:55:12.390956 31118 net.cpp:194] Memory required for data: 37824760
I1012 11:55:12.390966 31118 layer_factory.hpp:77] Creating layer conv3_2_Prob3
I1012 11:55:12.390974 31118 net.cpp:128] Creating Layer conv3_2_Prob3
I1012 11:55:12.390980 31118 net.cpp:558] conv3_2_Prob3 <- conv3_2_3
I1012 11:55:12.390988 31118 net.cpp:509] conv3_2_Prob3 -> conv3_2_3 (in-place)
I1012 11:55:12.392976 31118 net.cpp:172] Setting up conv3_2_Prob3
I1012 11:55:12.392985 31118 net.cpp:186] Top shape: 10 32 1 1 (320)
I1012 11:55:12.392989 31118 net.cpp:194] Memory required for data: 37826040
I1012 11:55:12.392993 31118 layer_factory.hpp:77] Creating layer conv3_Axpy_2
I1012 11:55:12.393002 31118 net.cpp:128] Creating Layer conv3_Axpy_2
I1012 11:55:12.393005 31118 net.cpp:558] conv3_Axpy_2 <- conv3_2_3
I1012 11:55:12.393029 31118 net.cpp:558] conv3_Axpy_2 <- conv3_2_1_conv3_2_scale1_0_split_1
I1012 11:55:12.393035 31118 net.cpp:558] conv3_Axpy_2 <- conv3_Axpy_1_conv3_1ReLU_1_0_split_1
I1012 11:55:12.393044 31118 net.cpp:522] conv3_Axpy_2 -> conv3_Axpy_2
I1012 11:55:12.393126 31118 net.cpp:172] Setting up conv3_Axpy_2
I1012 11:55:12.393136 31118 net.cpp:186] Top shape: 10 32 16 16 (81920)
I1012 11:55:12.393139 31118 net.cpp:194] Memory required for data: 38153720
I1012 11:55:12.393143 31118 layer_factory.hpp:77] Creating layer conv3_2ReLU_1
I1012 11:55:12.393149 31118 net.cpp:128] Creating Layer conv3_2ReLU_1
I1012 11:55:12.393154 31118 net.cpp:558] conv3_2ReLU_1 <- conv3_Axpy_2
I1012 11:55:12.393159 31118 net.cpp:509] conv3_2ReLU_1 -> conv3_Axpy_2 (in-place)
I1012 11:55:12.395184 31118 net.cpp:172] Setting up conv3_2ReLU_1
I1012 11:55:12.395202 31118 net.cpp:186] Top shape: 10 32 16 16 (81920)
I1012 11:55:12.395207 31118 net.cpp:194] Memory required for data: 38481400
I1012 11:55:12.395211 31118 layer_factory.hpp:77] Creating layer conv3_Axpy_2_conv3_2ReLU_1_0_split
I1012 11:55:12.395220 31118 net.cpp:128] Creating Layer conv3_Axpy_2_conv3_2ReLU_1_0_split
I1012 11:55:12.395223 31118 net.cpp:558] conv3_Axpy_2_conv3_2ReLU_1_0_split <- conv3_Axpy_2
I1012 11:55:12.395231 31118 net.cpp:522] conv3_Axpy_2_conv3_2ReLU_1_0_split -> conv3_Axpy_2_conv3_2ReLU_1_0_split_0
I1012 11:55:12.395241 31118 net.cpp:522] conv3_Axpy_2_conv3_2ReLU_1_0_split -> conv3_Axpy_2_conv3_2ReLU_1_0_split_1
I1012 11:55:12.395292 31118 net.cpp:172] Setting up conv3_Axpy_2_conv3_2ReLU_1_0_split
I1012 11:55:12.395300 31118 net.cpp:186] Top shape: 10 32 16 16 (81920)
I1012 11:55:12.395305 31118 net.cpp:186] Top shape: 10 32 16 16 (81920)
I1012 11:55:12.395309 31118 net.cpp:194] Memory required for data: 39136760
I1012 11:55:12.395314 31118 layer_factory.hpp:77] Creating layer conv3_3_0
I1012 11:55:12.395328 31118 net.cpp:128] Creating Layer conv3_3_0
I1012 11:55:12.395332 31118 net.cpp:558] conv3_3_0 <- conv3_Axpy_2_conv3_2ReLU_1_0_split_0
I1012 11:55:12.395341 31118 net.cpp:522] conv3_3_0 -> conv3_3_0
I1012 11:55:12.401965 31118 net.cpp:172] Setting up conv3_3_0
I1012 11:55:12.401991 31118 net.cpp:186] Top shape: 10 32 16 16 (81920)
I1012 11:55:12.401996 31118 net.cpp:194] Memory required for data: 39464440
I1012 11:55:12.402006 31118 layer_factory.hpp:77] Creating layer conv3_3_bn0
I1012 11:55:12.402020 31118 net.cpp:128] Creating Layer conv3_3_bn0
I1012 11:55:12.402025 31118 net.cpp:558] conv3_3_bn0 <- conv3_3_0
I1012 11:55:12.402034 31118 net.cpp:509] conv3_3_bn0 -> conv3_3_0 (in-place)
I1012 11:55:12.402336 31118 net.cpp:172] Setting up conv3_3_bn0
I1012 11:55:12.402346 31118 net.cpp:186] Top shape: 10 32 16 16 (81920)
I1012 11:55:12.402350 31118 net.cpp:194] Memory required for data: 39792120
I1012 11:55:12.402361 31118 layer_factory.hpp:77] Creating layer conv3_3_scale0
I1012 11:55:12.402372 31118 net.cpp:128] Creating Layer conv3_3_scale0
I1012 11:55:12.402377 31118 net.cpp:558] conv3_3_scale0 <- conv3_3_0
I1012 11:55:12.402386 31118 net.cpp:509] conv3_3_scale0 -> conv3_3_0 (in-place)
I1012 11:55:12.402444 31118 layer_factory.hpp:77] Creating layer conv3_3_scale0
I1012 11:55:12.402617 31118 net.cpp:172] Setting up conv3_3_scale0
I1012 11:55:12.402627 31118 net.cpp:186] Top shape: 10 32 16 16 (81920)
I1012 11:55:12.402631 31118 net.cpp:194] Memory required for data: 40119800
I1012 11:55:12.402639 31118 layer_factory.hpp:77] Creating layer conv3_3_ReLU0
I1012 11:55:12.402647 31118 net.cpp:128] Creating Layer conv3_3_ReLU0
I1012 11:55:12.402655 31118 net.cpp:558] conv3_3_ReLU0 <- conv3_3_0
I1012 11:55:12.402667 31118 net.cpp:509] conv3_3_ReLU0 -> conv3_3_0 (in-place)
I1012 11:55:12.404016 31118 net.cpp:172] Setting up conv3_3_ReLU0
I1012 11:55:12.404042 31118 net.cpp:186] Top shape: 10 32 16 16 (81920)
I1012 11:55:12.404047 31118 net.cpp:194] Memory required for data: 40447480
I1012 11:55:12.404052 31118 layer_factory.hpp:77] Creating layer conv3_3_1
I1012 11:55:12.404067 31118 net.cpp:128] Creating Layer conv3_3_1
I1012 11:55:12.404075 31118 net.cpp:558] conv3_3_1 <- conv3_3_0
I1012 11:55:12.404103 31118 net.cpp:522] conv3_3_1 -> conv3_3_1
I1012 11:55:12.410843 31118 net.cpp:172] Setting up conv3_3_1
I1012 11:55:12.410874 31118 net.cpp:186] Top shape: 10 32 16 16 (81920)
I1012 11:55:12.410878 31118 net.cpp:194] Memory required for data: 40775160
I1012 11:55:12.410892 31118 layer_factory.hpp:77] Creating layer conv3_3_bn1
I1012 11:55:12.410907 31118 net.cpp:128] Creating Layer conv3_3_bn1
I1012 11:55:12.410912 31118 net.cpp:558] conv3_3_bn1 <- conv3_3_1
I1012 11:55:12.410923 31118 net.cpp:509] conv3_3_bn1 -> conv3_3_1 (in-place)
I1012 11:55:12.411218 31118 net.cpp:172] Setting up conv3_3_bn1
I1012 11:55:12.411231 31118 net.cpp:186] Top shape: 10 32 16 16 (81920)
I1012 11:55:12.411234 31118 net.cpp:194] Memory required for data: 41102840
I1012 11:55:12.411244 31118 layer_factory.hpp:77] Creating layer conv3_3_scale1
I1012 11:55:12.411254 31118 net.cpp:128] Creating Layer conv3_3_scale1
I1012 11:55:12.411258 31118 net.cpp:558] conv3_3_scale1 <- conv3_3_1
I1012 11:55:12.411264 31118 net.cpp:509] conv3_3_scale1 -> conv3_3_1 (in-place)
I1012 11:55:12.411325 31118 layer_factory.hpp:77] Creating layer conv3_3_scale1
I1012 11:55:12.411504 31118 net.cpp:172] Setting up conv3_3_scale1
I1012 11:55:12.411515 31118 net.cpp:186] Top shape: 10 32 16 16 (81920)
I1012 11:55:12.411520 31118 net.cpp:194] Memory required for data: 41430520
I1012 11:55:12.411527 31118 layer_factory.hpp:77] Creating layer conv3_3_1_conv3_3_scale1_0_split
I1012 11:55:12.411536 31118 net.cpp:128] Creating Layer conv3_3_1_conv3_3_scale1_0_split
I1012 11:55:12.411541 31118 net.cpp:558] conv3_3_1_conv3_3_scale1_0_split <- conv3_3_1
I1012 11:55:12.411550 31118 net.cpp:522] conv3_3_1_conv3_3_scale1_0_split -> conv3_3_1_conv3_3_scale1_0_split_0
I1012 11:55:12.411559 31118 net.cpp:522] conv3_3_1_conv3_3_scale1_0_split -> conv3_3_1_conv3_3_scale1_0_split_1
I1012 11:55:12.411604 31118 net.cpp:172] Setting up conv3_3_1_conv3_3_scale1_0_split
I1012 11:55:12.411612 31118 net.cpp:186] Top shape: 10 32 16 16 (81920)
I1012 11:55:12.411617 31118 net.cpp:186] Top shape: 10 32 16 16 (81920)
I1012 11:55:12.411622 31118 net.cpp:194] Memory required for data: 42085880
I1012 11:55:12.411625 31118 layer_factory.hpp:77] Creating layer conv3_3_Pooling
I1012 11:55:12.411634 31118 net.cpp:128] Creating Layer conv3_3_Pooling
I1012 11:55:12.411638 31118 net.cpp:558] conv3_3_Pooling <- conv3_3_1_conv3_3_scale1_0_split_0
I1012 11:55:12.411644 31118 net.cpp:522] conv3_3_Pooling -> conv3_3_Pooling
I1012 11:55:12.411679 31118 net.cpp:172] Setting up conv3_3_Pooling
I1012 11:55:12.411685 31118 net.cpp:186] Top shape: 10 32 1 1 (320)
I1012 11:55:12.411689 31118 net.cpp:194] Memory required for data: 42087160
I1012 11:55:12.411693 31118 layer_factory.hpp:77] Creating layer conv3_3_2
I1012 11:55:12.411703 31118 net.cpp:128] Creating Layer conv3_3_2
I1012 11:55:12.411708 31118 net.cpp:558] conv3_3_2 <- conv3_3_Pooling
I1012 11:55:12.411720 31118 net.cpp:522] conv3_3_2 -> conv3_3_2
I1012 11:55:12.417471 31118 net.cpp:172] Setting up conv3_3_2
I1012 11:55:12.417496 31118 net.cpp:186] Top shape: 10 16 1 1 (160)
I1012 11:55:12.417500 31118 net.cpp:194] Memory required for data: 42087800
I1012 11:55:12.417511 31118 layer_factory.hpp:77] Creating layer conv3_3_ReLU2
I1012 11:55:12.417523 31118 net.cpp:128] Creating Layer conv3_3_ReLU2
I1012 11:55:12.417529 31118 net.cpp:558] conv3_3_ReLU2 <- conv3_3_2
I1012 11:55:12.417536 31118 net.cpp:509] conv3_3_ReLU2 -> conv3_3_2 (in-place)
I1012 11:55:12.419489 31118 net.cpp:172] Setting up conv3_3_ReLU2
I1012 11:55:12.419507 31118 net.cpp:186] Top shape: 10 16 1 1 (160)
I1012 11:55:12.419512 31118 net.cpp:194] Memory required for data: 42088440
I1012 11:55:12.419517 31118 layer_factory.hpp:77] Creating layer conv3_3_3
I1012 11:55:12.419529 31118 net.cpp:128] Creating Layer conv3_3_3
I1012 11:55:12.419534 31118 net.cpp:558] conv3_3_3 <- conv3_3_2
I1012 11:55:12.419544 31118 net.cpp:522] conv3_3_3 -> conv3_3_3
I1012 11:55:12.426337 31118 net.cpp:172] Setting up conv3_3_3
I1012 11:55:12.426371 31118 net.cpp:186] Top shape: 10 32 1 1 (320)
I1012 11:55:12.426406 31118 net.cpp:194] Memory required for data: 42089720
I1012 11:55:12.426419 31118 layer_factory.hpp:77] Creating layer conv3_3_Prob3
I1012 11:55:12.426432 31118 net.cpp:128] Creating Layer conv3_3_Prob3
I1012 11:55:12.426440 31118 net.cpp:558] conv3_3_Prob3 <- conv3_3_3
I1012 11:55:12.426450 31118 net.cpp:509] conv3_3_Prob3 -> conv3_3_3 (in-place)
I1012 11:55:12.428333 31118 net.cpp:172] Setting up conv3_3_Prob3
I1012 11:55:12.428349 31118 net.cpp:186] Top shape: 10 32 1 1 (320)
I1012 11:55:12.428354 31118 net.cpp:194] Memory required for data: 42091000
I1012 11:55:12.428359 31118 layer_factory.hpp:77] Creating layer conv3_Axpy_3
I1012 11:55:12.428367 31118 net.cpp:128] Creating Layer conv3_Axpy_3
I1012 11:55:12.428371 31118 net.cpp:558] conv3_Axpy_3 <- conv3_3_3
I1012 11:55:12.428378 31118 net.cpp:558] conv3_Axpy_3 <- conv3_3_1_conv3_3_scale1_0_split_1
I1012 11:55:12.428385 31118 net.cpp:558] conv3_Axpy_3 <- conv3_Axpy_2_conv3_2ReLU_1_0_split_1
I1012 11:55:12.428401 31118 net.cpp:522] conv3_Axpy_3 -> conv3_Axpy_3
I1012 11:55:12.428484 31118 net.cpp:172] Setting up conv3_Axpy_3
I1012 11:55:12.428496 31118 net.cpp:186] Top shape: 10 32 16 16 (81920)
I1012 11:55:12.428500 31118 net.cpp:194] Memory required for data: 42418680
I1012 11:55:12.428504 31118 layer_factory.hpp:77] Creating layer conv3_3ReLU_1
I1012 11:55:12.428514 31118 net.cpp:128] Creating Layer conv3_3ReLU_1
I1012 11:55:12.428519 31118 net.cpp:558] conv3_3ReLU_1 <- conv3_Axpy_3
I1012 11:55:12.428524 31118 net.cpp:509] conv3_3ReLU_1 -> conv3_Axpy_3 (in-place)
I1012 11:55:12.430554 31118 net.cpp:172] Setting up conv3_3ReLU_1
I1012 11:55:12.430578 31118 net.cpp:186] Top shape: 10 32 16 16 (81920)
I1012 11:55:12.430583 31118 net.cpp:194] Memory required for data: 42746360
I1012 11:55:12.430588 31118 layer_factory.hpp:77] Creating layer conv3_Axpy_3_conv3_3ReLU_1_0_split
I1012 11:55:12.430599 31118 net.cpp:128] Creating Layer conv3_Axpy_3_conv3_3ReLU_1_0_split
I1012 11:55:12.430609 31118 net.cpp:558] conv3_Axpy_3_conv3_3ReLU_1_0_split <- conv3_Axpy_3
I1012 11:55:12.430618 31118 net.cpp:522] conv3_Axpy_3_conv3_3ReLU_1_0_split -> conv3_Axpy_3_conv3_3ReLU_1_0_split_0
I1012 11:55:12.430630 31118 net.cpp:522] conv3_Axpy_3_conv3_3ReLU_1_0_split -> conv3_Axpy_3_conv3_3ReLU_1_0_split_1
I1012 11:55:12.430687 31118 net.cpp:172] Setting up conv3_Axpy_3_conv3_3ReLU_1_0_split
I1012 11:55:12.430694 31118 net.cpp:186] Top shape: 10 32 16 16 (81920)
I1012 11:55:12.430701 31118 net.cpp:186] Top shape: 10 32 16 16 (81920)
I1012 11:55:12.430704 31118 net.cpp:194] Memory required for data: 43401720
I1012 11:55:12.430708 31118 layer_factory.hpp:77] Creating layer conv4_1_0
I1012 11:55:12.430724 31118 net.cpp:128] Creating Layer conv4_1_0
I1012 11:55:12.430729 31118 net.cpp:558] conv4_1_0 <- conv3_Axpy_3_conv3_3ReLU_1_0_split_0
I1012 11:55:12.430739 31118 net.cpp:522] conv4_1_0 -> conv4_1_0
I1012 11:55:12.437373 31118 net.cpp:172] Setting up conv4_1_0
I1012 11:55:12.437404 31118 net.cpp:186] Top shape: 10 64 8 8 (40960)
I1012 11:55:12.437408 31118 net.cpp:194] Memory required for data: 43565560
I1012 11:55:12.437423 31118 layer_factory.hpp:77] Creating layer conv4_1_bn0
I1012 11:55:12.437438 31118 net.cpp:128] Creating Layer conv4_1_bn0
I1012 11:55:12.437449 31118 net.cpp:558] conv4_1_bn0 <- conv4_1_0
I1012 11:55:12.437456 31118 net.cpp:509] conv4_1_bn0 -> conv4_1_0 (in-place)
I1012 11:55:12.437798 31118 net.cpp:172] Setting up conv4_1_bn0
I1012 11:55:12.437810 31118 net.cpp:186] Top shape: 10 64 8 8 (40960)
I1012 11:55:12.437815 31118 net.cpp:194] Memory required for data: 43729400
I1012 11:55:12.437825 31118 layer_factory.hpp:77] Creating layer conv4_1_scale0
I1012 11:55:12.437839 31118 net.cpp:128] Creating Layer conv4_1_scale0
I1012 11:55:12.437844 31118 net.cpp:558] conv4_1_scale0 <- conv4_1_0
I1012 11:55:12.437849 31118 net.cpp:509] conv4_1_scale0 -> conv4_1_0 (in-place)
I1012 11:55:12.437922 31118 layer_factory.hpp:77] Creating layer conv4_1_scale0
I1012 11:55:12.438110 31118 net.cpp:172] Setting up conv4_1_scale0
I1012 11:55:12.438120 31118 net.cpp:186] Top shape: 10 64 8 8 (40960)
I1012 11:55:12.438154 31118 net.cpp:194] Memory required for data: 43893240
I1012 11:55:12.438184 31118 layer_factory.hpp:77] Creating layer conv4_1_ReLU0
I1012 11:55:12.438194 31118 net.cpp:128] Creating Layer conv4_1_ReLU0
I1012 11:55:12.438201 31118 net.cpp:558] conv4_1_ReLU0 <- conv4_1_0
I1012 11:55:12.438210 31118 net.cpp:509] conv4_1_ReLU0 -> conv4_1_0 (in-place)
I1012 11:55:12.439380 31118 net.cpp:172] Setting up conv4_1_ReLU0
I1012 11:55:12.439399 31118 net.cpp:186] Top shape: 10 64 8 8 (40960)
I1012 11:55:12.439404 31118 net.cpp:194] Memory required for data: 44057080
I1012 11:55:12.439409 31118 layer_factory.hpp:77] Creating layer conv4_1_1
I1012 11:55:12.439424 31118 net.cpp:128] Creating Layer conv4_1_1
I1012 11:55:12.439435 31118 net.cpp:558] conv4_1_1 <- conv4_1_0
I1012 11:55:12.439445 31118 net.cpp:522] conv4_1_1 -> conv4_1_1
I1012 11:55:12.446193 31118 net.cpp:172] Setting up conv4_1_1
I1012 11:55:12.446220 31118 net.cpp:186] Top shape: 10 64 8 8 (40960)
I1012 11:55:12.446225 31118 net.cpp:194] Memory required for data: 44220920
I1012 11:55:12.446235 31118 layer_factory.hpp:77] Creating layer conv4_1_bn1
I1012 11:55:12.446249 31118 net.cpp:128] Creating Layer conv4_1_bn1
I1012 11:55:12.446257 31118 net.cpp:558] conv4_1_bn1 <- conv4_1_1
I1012 11:55:12.446264 31118 net.cpp:509] conv4_1_bn1 -> conv4_1_1 (in-place)
I1012 11:55:12.446573 31118 net.cpp:172] Setting up conv4_1_bn1
I1012 11:55:12.446583 31118 net.cpp:186] Top shape: 10 64 8 8 (40960)
I1012 11:55:12.446588 31118 net.cpp:194] Memory required for data: 44384760
I1012 11:55:12.446597 31118 layer_factory.hpp:77] Creating layer conv4_1_scale1
I1012 11:55:12.446607 31118 net.cpp:128] Creating Layer conv4_1_scale1
I1012 11:55:12.446612 31118 net.cpp:558] conv4_1_scale1 <- conv4_1_1
I1012 11:55:12.446617 31118 net.cpp:509] conv4_1_scale1 -> conv4_1_1 (in-place)
I1012 11:55:12.446681 31118 layer_factory.hpp:77] Creating layer conv4_1_scale1
I1012 11:55:12.446856 31118 net.cpp:172] Setting up conv4_1_scale1
I1012 11:55:12.446869 31118 net.cpp:186] Top shape: 10 64 8 8 (40960)
I1012 11:55:12.446873 31118 net.cpp:194] Memory required for data: 44548600
I1012 11:55:12.446882 31118 layer_factory.hpp:77] Creating layer conv4_1_1_conv4_1_scale1_0_split
I1012 11:55:12.446892 31118 net.cpp:128] Creating Layer conv4_1_1_conv4_1_scale1_0_split
I1012 11:55:12.446897 31118 net.cpp:558] conv4_1_1_conv4_1_scale1_0_split <- conv4_1_1
I1012 11:55:12.446905 31118 net.cpp:522] conv4_1_1_conv4_1_scale1_0_split -> conv4_1_1_conv4_1_scale1_0_split_0
I1012 11:55:12.446918 31118 net.cpp:522] conv4_1_1_conv4_1_scale1_0_split -> conv4_1_1_conv4_1_scale1_0_split_1
I1012 11:55:12.446969 31118 net.cpp:172] Setting up conv4_1_1_conv4_1_scale1_0_split
I1012 11:55:12.446976 31118 net.cpp:186] Top shape: 10 64 8 8 (40960)
I1012 11:55:12.446981 31118 net.cpp:186] Top shape: 10 64 8 8 (40960)
I1012 11:55:12.446985 31118 net.cpp:194] Memory required for data: 44876280
I1012 11:55:12.446990 31118 layer_factory.hpp:77] Creating layer conv4_1_Pooling
I1012 11:55:12.447000 31118 net.cpp:128] Creating Layer conv4_1_Pooling
I1012 11:55:12.447005 31118 net.cpp:558] conv4_1_Pooling <- conv4_1_1_conv4_1_scale1_0_split_0
I1012 11:55:12.447011 31118 net.cpp:522] conv4_1_Pooling -> conv4_1_Pooling
I1012 11:55:12.447043 31118 net.cpp:172] Setting up conv4_1_Pooling
I1012 11:55:12.447051 31118 net.cpp:186] Top shape: 10 64 1 1 (640)
I1012 11:55:12.447054 31118 net.cpp:194] Memory required for data: 44878840
I1012 11:55:12.447058 31118 layer_factory.hpp:77] Creating layer conv4_1_2
I1012 11:55:12.447075 31118 net.cpp:128] Creating Layer conv4_1_2
I1012 11:55:12.447084 31118 net.cpp:558] conv4_1_2 <- conv4_1_Pooling
I1012 11:55:12.447091 31118 net.cpp:522] conv4_1_2 -> conv4_1_2
I1012 11:55:12.452813 31118 net.cpp:172] Setting up conv4_1_2
I1012 11:55:12.452847 31118 net.cpp:186] Top shape: 10 16 1 1 (160)
I1012 11:55:12.452852 31118 net.cpp:194] Memory required for data: 44879480
I1012 11:55:12.452864 31118 layer_factory.hpp:77] Creating layer conv4_1_ReLU2
I1012 11:55:12.452903 31118 net.cpp:128] Creating Layer conv4_1_ReLU2
I1012 11:55:12.452910 31118 net.cpp:558] conv4_1_ReLU2 <- conv4_1_2
I1012 11:55:12.452917 31118 net.cpp:509] conv4_1_ReLU2 -> conv4_1_2 (in-place)
I1012 11:55:12.454811 31118 net.cpp:172] Setting up conv4_1_ReLU2
I1012 11:55:12.454830 31118 net.cpp:186] Top shape: 10 16 1 1 (160)
I1012 11:55:12.454834 31118 net.cpp:194] Memory required for data: 44880120
I1012 11:55:12.454839 31118 layer_factory.hpp:77] Creating layer conv4_1_3
I1012 11:55:12.454856 31118 net.cpp:128] Creating Layer conv4_1_3
I1012 11:55:12.454862 31118 net.cpp:558] conv4_1_3 <- conv4_1_2
I1012 11:55:12.454870 31118 net.cpp:522] conv4_1_3 -> conv4_1_3
I1012 11:55:12.461623 31118 net.cpp:172] Setting up conv4_1_3
I1012 11:55:12.461650 31118 net.cpp:186] Top shape: 10 64 1 1 (640)
I1012 11:55:12.461655 31118 net.cpp:194] Memory required for data: 44882680
I1012 11:55:12.461665 31118 layer_factory.hpp:77] Creating layer conv4_1_Prob3
I1012 11:55:12.461678 31118 net.cpp:128] Creating Layer conv4_1_Prob3
I1012 11:55:12.461683 31118 net.cpp:558] conv4_1_Prob3 <- conv4_1_3
I1012 11:55:12.461693 31118 net.cpp:509] conv4_1_Prob3 -> conv4_1_3 (in-place)
I1012 11:55:12.463659 31118 net.cpp:172] Setting up conv4_1_Prob3
I1012 11:55:12.463685 31118 net.cpp:186] Top shape: 10 64 1 1 (640)
I1012 11:55:12.463690 31118 net.cpp:194] Memory required for data: 44885240
I1012 11:55:12.463695 31118 layer_factory.hpp:77] Creating layer conv4_1_down
I1012 11:55:12.463708 31118 net.cpp:128] Creating Layer conv4_1_down
I1012 11:55:12.463718 31118 net.cpp:558] conv4_1_down <- conv3_Axpy_3_conv3_3ReLU_1_0_split_1
I1012 11:55:12.463729 31118 net.cpp:522] conv4_1_down -> conv4_1_down
I1012 11:55:12.470499 31118 net.cpp:172] Setting up conv4_1_down
I1012 11:55:12.470528 31118 net.cpp:186] Top shape: 10 64 8 8 (40960)
I1012 11:55:12.470532 31118 net.cpp:194] Memory required for data: 45049080
I1012 11:55:12.470546 31118 layer_factory.hpp:77] Creating layer conv4_1_bn_down
I1012 11:55:12.470559 31118 net.cpp:128] Creating Layer conv4_1_bn_down
I1012 11:55:12.470568 31118 net.cpp:558] conv4_1_bn_down <- conv4_1_down
I1012 11:55:12.470577 31118 net.cpp:509] conv4_1_bn_down -> conv4_1_down (in-place)
I1012 11:55:12.470903 31118 net.cpp:172] Setting up conv4_1_bn_down
I1012 11:55:12.470914 31118 net.cpp:186] Top shape: 10 64 8 8 (40960)
I1012 11:55:12.470918 31118 net.cpp:194] Memory required for data: 45212920
I1012 11:55:12.470929 31118 layer_factory.hpp:77] Creating layer conv4_1_scale_down
I1012 11:55:12.470943 31118 net.cpp:128] Creating Layer conv4_1_scale_down
I1012 11:55:12.470948 31118 net.cpp:558] conv4_1_scale_down <- conv4_1_down
I1012 11:55:12.470954 31118 net.cpp:509] conv4_1_scale_down -> conv4_1_down (in-place)
I1012 11:55:12.471019 31118 layer_factory.hpp:77] Creating layer conv4_1_scale_down
I1012 11:55:12.471205 31118 net.cpp:172] Setting up conv4_1_scale_down
I1012 11:55:12.471216 31118 net.cpp:186] Top shape: 10 64 8 8 (40960)
I1012 11:55:12.471220 31118 net.cpp:194] Memory required for data: 45376760
I1012 11:55:12.471228 31118 layer_factory.hpp:77] Creating layer conv4_Axpy_1
I1012 11:55:12.471240 31118 net.cpp:128] Creating Layer conv4_Axpy_1
I1012 11:55:12.471246 31118 net.cpp:558] conv4_Axpy_1 <- conv4_1_3
I1012 11:55:12.471252 31118 net.cpp:558] conv4_Axpy_1 <- conv4_1_1_conv4_1_scale1_0_split_1
I1012 11:55:12.471257 31118 net.cpp:558] conv4_Axpy_1 <- conv4_1_down
I1012 11:55:12.471266 31118 net.cpp:522] conv4_Axpy_1 -> conv4_Axpy_1
I1012 11:55:12.471338 31118 net.cpp:172] Setting up conv4_Axpy_1
I1012 11:55:12.471348 31118 net.cpp:186] Top shape: 10 64 8 8 (40960)
I1012 11:55:12.471351 31118 net.cpp:194] Memory required for data: 45540600
I1012 11:55:12.471356 31118 layer_factory.hpp:77] Creating layer conv4_1ReLU_1
I1012 11:55:12.471364 31118 net.cpp:128] Creating Layer conv4_1ReLU_1
I1012 11:55:12.471367 31118 net.cpp:558] conv4_1ReLU_1 <- conv4_Axpy_1
I1012 11:55:12.471374 31118 net.cpp:509] conv4_1ReLU_1 -> conv4_Axpy_1 (in-place)
I1012 11:55:12.472518 31118 net.cpp:172] Setting up conv4_1ReLU_1
I1012 11:55:12.472558 31118 net.cpp:186] Top shape: 10 64 8 8 (40960)
I1012 11:55:12.472563 31118 net.cpp:194] Memory required for data: 45704440
I1012 11:55:12.472568 31118 layer_factory.hpp:77] Creating layer conv4_Axpy_1_conv4_1ReLU_1_0_split
I1012 11:55:12.472576 31118 net.cpp:128] Creating Layer conv4_Axpy_1_conv4_1ReLU_1_0_split
I1012 11:55:12.472581 31118 net.cpp:558] conv4_Axpy_1_conv4_1ReLU_1_0_split <- conv4_Axpy_1
I1012 11:55:12.472590 31118 net.cpp:522] conv4_Axpy_1_conv4_1ReLU_1_0_split -> conv4_Axpy_1_conv4_1ReLU_1_0_split_0
I1012 11:55:12.472600 31118 net.cpp:522] conv4_Axpy_1_conv4_1ReLU_1_0_split -> conv4_Axpy_1_conv4_1ReLU_1_0_split_1
I1012 11:55:12.472669 31118 net.cpp:172] Setting up conv4_Axpy_1_conv4_1ReLU_1_0_split
I1012 11:55:12.472682 31118 net.cpp:186] Top shape: 10 64 8 8 (40960)
I1012 11:55:12.472687 31118 net.cpp:186] Top shape: 10 64 8 8 (40960)
I1012 11:55:12.472692 31118 net.cpp:194] Memory required for data: 46032120
I1012 11:55:12.472697 31118 layer_factory.hpp:77] Creating layer conv4_2_0
I1012 11:55:12.472709 31118 net.cpp:128] Creating Layer conv4_2_0
I1012 11:55:12.472714 31118 net.cpp:558] conv4_2_0 <- conv4_Axpy_1_conv4_1ReLU_1_0_split_0
I1012 11:55:12.472723 31118 net.cpp:522] conv4_2_0 -> conv4_2_0
I1012 11:55:12.481088 31118 net.cpp:172] Setting up conv4_2_0
I1012 11:55:12.481110 31118 net.cpp:186] Top shape: 10 64 8 8 (40960)
I1012 11:55:12.481115 31118 net.cpp:194] Memory required for data: 46195960
I1012 11:55:12.481127 31118 layer_factory.hpp:77] Creating layer conv4_2_bn0
I1012 11:55:12.481142 31118 net.cpp:128] Creating Layer conv4_2_bn0
I1012 11:55:12.481148 31118 net.cpp:558] conv4_2_bn0 <- conv4_2_0
I1012 11:55:12.481158 31118 net.cpp:509] conv4_2_bn0 -> conv4_2_0 (in-place)
I1012 11:55:12.481485 31118 net.cpp:172] Setting up conv4_2_bn0
I1012 11:55:12.481495 31118 net.cpp:186] Top shape: 10 64 8 8 (40960)
I1012 11:55:12.481499 31118 net.cpp:194] Memory required for data: 46359800
I1012 11:55:12.481509 31118 layer_factory.hpp:77] Creating layer conv4_2_scale0
I1012 11:55:12.481521 31118 net.cpp:128] Creating Layer conv4_2_scale0
I1012 11:55:12.481526 31118 net.cpp:558] conv4_2_scale0 <- conv4_2_0
I1012 11:55:12.481532 31118 net.cpp:509] conv4_2_scale0 -> conv4_2_0 (in-place)
I1012 11:55:12.481588 31118 layer_factory.hpp:77] Creating layer conv4_2_scale0
I1012 11:55:12.481782 31118 net.cpp:172] Setting up conv4_2_scale0
I1012 11:55:12.481793 31118 net.cpp:186] Top shape: 10 64 8 8 (40960)
I1012 11:55:12.481797 31118 net.cpp:194] Memory required for data: 46523640
I1012 11:55:12.481806 31118 layer_factory.hpp:77] Creating layer conv4_2_ReLU0
I1012 11:55:12.481823 31118 net.cpp:128] Creating Layer conv4_2_ReLU0
I1012 11:55:12.481828 31118 net.cpp:558] conv4_2_ReLU0 <- conv4_2_0
I1012 11:55:12.481834 31118 net.cpp:509] conv4_2_ReLU0 -> conv4_2_0 (in-place)
I1012 11:55:12.482094 31118 net.cpp:172] Setting up conv4_2_ReLU0
I1012 11:55:12.482107 31118 net.cpp:186] Top shape: 10 64 8 8 (40960)
I1012 11:55:12.482111 31118 net.cpp:194] Memory required for data: 46687480
I1012 11:55:12.482116 31118 layer_factory.hpp:77] Creating layer conv4_2_1
I1012 11:55:12.482138 31118 net.cpp:128] Creating Layer conv4_2_1
I1012 11:55:12.482146 31118 net.cpp:558] conv4_2_1 <- conv4_2_0
I1012 11:55:12.482156 31118 net.cpp:522] conv4_2_1 -> conv4_2_1
I1012 11:55:12.488196 31118 net.cpp:172] Setting up conv4_2_1
I1012 11:55:12.488224 31118 net.cpp:186] Top shape: 10 64 8 8 (40960)
I1012 11:55:12.488229 31118 net.cpp:194] Memory required for data: 46851320
I1012 11:55:12.488242 31118 layer_factory.hpp:77] Creating layer conv4_2_bn1
I1012 11:55:12.488255 31118 net.cpp:128] Creating Layer conv4_2_bn1
I1012 11:55:12.488262 31118 net.cpp:558] conv4_2_bn1 <- conv4_2_1
I1012 11:55:12.488270 31118 net.cpp:509] conv4_2_bn1 -> conv4_2_1 (in-place)
I1012 11:55:12.488595 31118 net.cpp:172] Setting up conv4_2_bn1
I1012 11:55:12.488605 31118 net.cpp:186] Top shape: 10 64 8 8 (40960)
I1012 11:55:12.488608 31118 net.cpp:194] Memory required for data: 47015160
I1012 11:55:12.488620 31118 layer_factory.hpp:77] Creating layer conv4_2_scale1
I1012 11:55:12.488658 31118 net.cpp:128] Creating Layer conv4_2_scale1
I1012 11:55:12.488664 31118 net.cpp:558] conv4_2_scale1 <- conv4_2_1
I1012 11:55:12.488669 31118 net.cpp:509] conv4_2_scale1 -> conv4_2_1 (in-place)
I1012 11:55:12.488731 31118 layer_factory.hpp:77] Creating layer conv4_2_scale1
I1012 11:55:12.488919 31118 net.cpp:172] Setting up conv4_2_scale1
I1012 11:55:12.488927 31118 net.cpp:186] Top shape: 10 64 8 8 (40960)
I1012 11:55:12.488932 31118 net.cpp:194] Memory required for data: 47179000
I1012 11:55:12.488940 31118 layer_factory.hpp:77] Creating layer conv4_2_1_conv4_2_scale1_0_split
I1012 11:55:12.488952 31118 net.cpp:128] Creating Layer conv4_2_1_conv4_2_scale1_0_split
I1012 11:55:12.488957 31118 net.cpp:558] conv4_2_1_conv4_2_scale1_0_split <- conv4_2_1
I1012 11:55:12.488965 31118 net.cpp:522] conv4_2_1_conv4_2_scale1_0_split -> conv4_2_1_conv4_2_scale1_0_split_0
I1012 11:55:12.488975 31118 net.cpp:522] conv4_2_1_conv4_2_scale1_0_split -> conv4_2_1_conv4_2_scale1_0_split_1
I1012 11:55:12.489027 31118 net.cpp:172] Setting up conv4_2_1_conv4_2_scale1_0_split
I1012 11:55:12.489037 31118 net.cpp:186] Top shape: 10 64 8 8 (40960)
I1012 11:55:12.489042 31118 net.cpp:186] Top shape: 10 64 8 8 (40960)
I1012 11:55:12.489046 31118 net.cpp:194] Memory required for data: 47506680
I1012 11:55:12.489050 31118 layer_factory.hpp:77] Creating layer conv4_2_Pooling
I1012 11:55:12.489059 31118 net.cpp:128] Creating Layer conv4_2_Pooling
I1012 11:55:12.489063 31118 net.cpp:558] conv4_2_Pooling <- conv4_2_1_conv4_2_scale1_0_split_0
I1012 11:55:12.489069 31118 net.cpp:522] conv4_2_Pooling -> conv4_2_Pooling
I1012 11:55:12.489104 31118 net.cpp:172] Setting up conv4_2_Pooling
I1012 11:55:12.489111 31118 net.cpp:186] Top shape: 10 64 1 1 (640)
I1012 11:55:12.489115 31118 net.cpp:194] Memory required for data: 47509240
I1012 11:55:12.489120 31118 layer_factory.hpp:77] Creating layer conv4_2_2
I1012 11:55:12.489132 31118 net.cpp:128] Creating Layer conv4_2_2
I1012 11:55:12.489137 31118 net.cpp:558] conv4_2_2 <- conv4_2_Pooling
I1012 11:55:12.489145 31118 net.cpp:522] conv4_2_2 -> conv4_2_2
I1012 11:55:12.494792 31118 net.cpp:172] Setting up conv4_2_2
I1012 11:55:12.494818 31118 net.cpp:186] Top shape: 10 16 1 1 (160)
I1012 11:55:12.494822 31118 net.cpp:194] Memory required for data: 47509880
I1012 11:55:12.494833 31118 layer_factory.hpp:77] Creating layer conv4_2_ReLU2
I1012 11:55:12.494843 31118 net.cpp:128] Creating Layer conv4_2_ReLU2
I1012 11:55:12.494850 31118 net.cpp:558] conv4_2_ReLU2 <- conv4_2_2
I1012 11:55:12.494858 31118 net.cpp:509] conv4_2_ReLU2 -> conv4_2_2 (in-place)
I1012 11:55:12.496814 31118 net.cpp:172] Setting up conv4_2_ReLU2
I1012 11:55:12.496830 31118 net.cpp:186] Top shape: 10 16 1 1 (160)
I1012 11:55:12.496835 31118 net.cpp:194] Memory required for data: 47510520
I1012 11:55:12.496840 31118 layer_factory.hpp:77] Creating layer conv4_2_3
I1012 11:55:12.496853 31118 net.cpp:128] Creating Layer conv4_2_3
I1012 11:55:12.496862 31118 net.cpp:558] conv4_2_3 <- conv4_2_2
I1012 11:55:12.496870 31118 net.cpp:522] conv4_2_3 -> conv4_2_3
I1012 11:55:12.503664 31118 net.cpp:172] Setting up conv4_2_3
I1012 11:55:12.503701 31118 net.cpp:186] Top shape: 10 64 1 1 (640)
I1012 11:55:12.503706 31118 net.cpp:194] Memory required for data: 47513080
I1012 11:55:12.503720 31118 layer_factory.hpp:77] Creating layer conv4_2_Prob3
I1012 11:55:12.503732 31118 net.cpp:128] Creating Layer conv4_2_Prob3
I1012 11:55:12.503738 31118 net.cpp:558] conv4_2_Prob3 <- conv4_2_3
I1012 11:55:12.503746 31118 net.cpp:509] conv4_2_Prob3 -> conv4_2_3 (in-place)
I1012 11:55:12.505650 31118 net.cpp:172] Setting up conv4_2_Prob3
I1012 11:55:12.505676 31118 net.cpp:186] Top shape: 10 64 1 1 (640)
I1012 11:55:12.505679 31118 net.cpp:194] Memory required for data: 47515640
I1012 11:55:12.505684 31118 layer_factory.hpp:77] Creating layer conv4_Axpy_2
I1012 11:55:12.505695 31118 net.cpp:128] Creating Layer conv4_Axpy_2
I1012 11:55:12.505702 31118 net.cpp:558] conv4_Axpy_2 <- conv4_2_3
I1012 11:55:12.505707 31118 net.cpp:558] conv4_Axpy_2 <- conv4_2_1_conv4_2_scale1_0_split_1
I1012 11:55:12.505749 31118 net.cpp:558] conv4_Axpy_2 <- conv4_Axpy_1_conv4_1ReLU_1_0_split_1
I1012 11:55:12.505759 31118 net.cpp:522] conv4_Axpy_2 -> conv4_Axpy_2
I1012 11:55:12.505854 31118 net.cpp:172] Setting up conv4_Axpy_2
I1012 11:55:12.505862 31118 net.cpp:186] Top shape: 10 64 8 8 (40960)
I1012 11:55:12.505867 31118 net.cpp:194] Memory required for data: 47679480
I1012 11:55:12.505870 31118 layer_factory.hpp:77] Creating layer conv4_2ReLU_1
I1012 11:55:12.505878 31118 net.cpp:128] Creating Layer conv4_2ReLU_1
I1012 11:55:12.505882 31118 net.cpp:558] conv4_2ReLU_1 <- conv4_Axpy_2
I1012 11:55:12.505890 31118 net.cpp:509] conv4_2ReLU_1 -> conv4_Axpy_2 (in-place)
I1012 11:55:12.507855 31118 net.cpp:172] Setting up conv4_2ReLU_1
I1012 11:55:12.507869 31118 net.cpp:186] Top shape: 10 64 8 8 (40960)
I1012 11:55:12.507874 31118 net.cpp:194] Memory required for data: 47843320
I1012 11:55:12.507879 31118 layer_factory.hpp:77] Creating layer conv4_Axpy_2_conv4_2ReLU_1_0_split
I1012 11:55:12.507885 31118 net.cpp:128] Creating Layer conv4_Axpy_2_conv4_2ReLU_1_0_split
I1012 11:55:12.507890 31118 net.cpp:558] conv4_Axpy_2_conv4_2ReLU_1_0_split <- conv4_Axpy_2
I1012 11:55:12.507899 31118 net.cpp:522] conv4_Axpy_2_conv4_2ReLU_1_0_split -> conv4_Axpy_2_conv4_2ReLU_1_0_split_0
I1012 11:55:12.507911 31118 net.cpp:522] conv4_Axpy_2_conv4_2ReLU_1_0_split -> conv4_Axpy_2_conv4_2ReLU_1_0_split_1
I1012 11:55:12.507975 31118 net.cpp:172] Setting up conv4_Axpy_2_conv4_2ReLU_1_0_split
I1012 11:55:12.507982 31118 net.cpp:186] Top shape: 10 64 8 8 (40960)
I1012 11:55:12.507988 31118 net.cpp:186] Top shape: 10 64 8 8 (40960)
I1012 11:55:12.507992 31118 net.cpp:194] Memory required for data: 48171000
I1012 11:55:12.507997 31118 layer_factory.hpp:77] Creating layer conv4_3_0
I1012 11:55:12.508011 31118 net.cpp:128] Creating Layer conv4_3_0
I1012 11:55:12.508016 31118 net.cpp:558] conv4_3_0 <- conv4_Axpy_2_conv4_2ReLU_1_0_split_0
I1012 11:55:12.508030 31118 net.cpp:522] conv4_3_0 -> conv4_3_0
I1012 11:55:12.515002 31118 net.cpp:172] Setting up conv4_3_0
I1012 11:55:12.515027 31118 net.cpp:186] Top shape: 10 64 8 8 (40960)
I1012 11:55:12.515031 31118 net.cpp:194] Memory required for data: 48334840
I1012 11:55:12.515043 31118 layer_factory.hpp:77] Creating layer conv4_3_bn0
I1012 11:55:12.515056 31118 net.cpp:128] Creating Layer conv4_3_bn0
I1012 11:55:12.515066 31118 net.cpp:558] conv4_3_bn0 <- conv4_3_0
I1012 11:55:12.515075 31118 net.cpp:509] conv4_3_bn0 -> conv4_3_0 (in-place)
I1012 11:55:12.515413 31118 net.cpp:172] Setting up conv4_3_bn0
I1012 11:55:12.515426 31118 net.cpp:186] Top shape: 10 64 8 8 (40960)
I1012 11:55:12.515430 31118 net.cpp:194] Memory required for data: 48498680
I1012 11:55:12.515440 31118 layer_factory.hpp:77] Creating layer conv4_3_scale0
I1012 11:55:12.515452 31118 net.cpp:128] Creating Layer conv4_3_scale0
I1012 11:55:12.515457 31118 net.cpp:558] conv4_3_scale0 <- conv4_3_0
I1012 11:55:12.515462 31118 net.cpp:509] conv4_3_scale0 -> conv4_3_0 (in-place)
I1012 11:55:12.515532 31118 layer_factory.hpp:77] Creating layer conv4_3_scale0
I1012 11:55:12.515722 31118 net.cpp:172] Setting up conv4_3_scale0
I1012 11:55:12.515733 31118 net.cpp:186] Top shape: 10 64 8 8 (40960)
I1012 11:55:12.515736 31118 net.cpp:194] Memory required for data: 48662520
I1012 11:55:12.515744 31118 layer_factory.hpp:77] Creating layer conv4_3_ReLU0
I1012 11:55:12.515753 31118 net.cpp:128] Creating Layer conv4_3_ReLU0
I1012 11:55:12.515758 31118 net.cpp:558] conv4_3_ReLU0 <- conv4_3_0
I1012 11:55:12.515765 31118 net.cpp:509] conv4_3_ReLU0 -> conv4_3_0 (in-place)
I1012 11:55:12.516716 31118 net.cpp:172] Setting up conv4_3_ReLU0
I1012 11:55:12.516734 31118 net.cpp:186] Top shape: 10 64 8 8 (40960)
I1012 11:55:12.516738 31118 net.cpp:194] Memory required for data: 48826360
I1012 11:55:12.516743 31118 layer_factory.hpp:77] Creating layer conv4_3_1
I1012 11:55:12.516758 31118 net.cpp:128] Creating Layer conv4_3_1
I1012 11:55:12.516763 31118 net.cpp:558] conv4_3_1 <- conv4_3_0
I1012 11:55:12.516774 31118 net.cpp:522] conv4_3_1 -> conv4_3_1
I1012 11:55:12.523821 31118 net.cpp:172] Setting up conv4_3_1
I1012 11:55:12.523864 31118 net.cpp:186] Top shape: 10 64 8 8 (40960)
I1012 11:55:12.523870 31118 net.cpp:194] Memory required for data: 48990200
I1012 11:55:12.523890 31118 layer_factory.hpp:77] Creating layer conv4_3_bn1
I1012 11:55:12.523908 31118 net.cpp:128] Creating Layer conv4_3_bn1
I1012 11:55:12.523918 31118 net.cpp:558] conv4_3_bn1 <- conv4_3_1
I1012 11:55:12.523931 31118 net.cpp:509] conv4_3_bn1 -> conv4_3_1 (in-place)
I1012 11:55:12.524260 31118 net.cpp:172] Setting up conv4_3_bn1
I1012 11:55:12.524269 31118 net.cpp:186] Top shape: 10 64 8 8 (40960)
I1012 11:55:12.524273 31118 net.cpp:194] Memory required for data: 49154040
I1012 11:55:12.524283 31118 layer_factory.hpp:77] Creating layer conv4_3_scale1
I1012 11:55:12.524294 31118 net.cpp:128] Creating Layer conv4_3_scale1
I1012 11:55:12.524302 31118 net.cpp:558] conv4_3_scale1 <- conv4_3_1
I1012 11:55:12.524308 31118 net.cpp:509] conv4_3_scale1 -> conv4_3_1 (in-place)
I1012 11:55:12.524370 31118 layer_factory.hpp:77] Creating layer conv4_3_scale1
I1012 11:55:12.524557 31118 net.cpp:172] Setting up conv4_3_scale1
I1012 11:55:12.524567 31118 net.cpp:186] Top shape: 10 64 8 8 (40960)
I1012 11:55:12.524571 31118 net.cpp:194] Memory required for data: 49317880
I1012 11:55:12.524579 31118 layer_factory.hpp:77] Creating layer conv4_3_1_conv4_3_scale1_0_split
I1012 11:55:12.524585 31118 net.cpp:128] Creating Layer conv4_3_1_conv4_3_scale1_0_split
I1012 11:55:12.524595 31118 net.cpp:558] conv4_3_1_conv4_3_scale1_0_split <- conv4_3_1
I1012 11:55:12.524603 31118 net.cpp:522] conv4_3_1_conv4_3_scale1_0_split -> conv4_3_1_conv4_3_scale1_0_split_0
I1012 11:55:12.524615 31118 net.cpp:522] conv4_3_1_conv4_3_scale1_0_split -> conv4_3_1_conv4_3_scale1_0_split_1
I1012 11:55:12.524670 31118 net.cpp:172] Setting up conv4_3_1_conv4_3_scale1_0_split
I1012 11:55:12.524679 31118 net.cpp:186] Top shape: 10 64 8 8 (40960)
I1012 11:55:12.524685 31118 net.cpp:186] Top shape: 10 64 8 8 (40960)
I1012 11:55:12.524689 31118 net.cpp:194] Memory required for data: 49645560
I1012 11:55:12.524693 31118 layer_factory.hpp:77] Creating layer conv4_3_Pooling
I1012 11:55:12.524701 31118 net.cpp:128] Creating Layer conv4_3_Pooling
I1012 11:55:12.524706 31118 net.cpp:558] conv4_3_Pooling <- conv4_3_1_conv4_3_scale1_0_split_0
I1012 11:55:12.524713 31118 net.cpp:522] conv4_3_Pooling -> conv4_3_Pooling
I1012 11:55:12.524750 31118 net.cpp:172] Setting up conv4_3_Pooling
I1012 11:55:12.524760 31118 net.cpp:186] Top shape: 10 64 1 1 (640)
I1012 11:55:12.524763 31118 net.cpp:194] Memory required for data: 49648120
I1012 11:55:12.524768 31118 layer_factory.hpp:77] Creating layer conv4_3_2
I1012 11:55:12.524781 31118 net.cpp:128] Creating Layer conv4_3_2
I1012 11:55:12.524786 31118 net.cpp:558] conv4_3_2 <- conv4_3_Pooling
I1012 11:55:12.524793 31118 net.cpp:522] conv4_3_2 -> conv4_3_2
I1012 11:55:12.526379 31118 net.cpp:172] Setting up conv4_3_2
I1012 11:55:12.526405 31118 net.cpp:186] Top shape: 10 16 1 1 (160)
I1012 11:55:12.526409 31118 net.cpp:194] Memory required for data: 49648760
I1012 11:55:12.526423 31118 layer_factory.hpp:77] Creating layer conv4_3_ReLU2
I1012 11:55:12.526432 31118 net.cpp:128] Creating Layer conv4_3_ReLU2
I1012 11:55:12.526437 31118 net.cpp:558] conv4_3_ReLU2 <- conv4_3_2
I1012 11:55:12.526446 31118 net.cpp:509] conv4_3_ReLU2 -> conv4_3_2 (in-place)
I1012 11:55:12.527055 31118 net.cpp:172] Setting up conv4_3_ReLU2
I1012 11:55:12.527076 31118 net.cpp:186] Top shape: 10 16 1 1 (160)
I1012 11:55:12.527082 31118 net.cpp:194] Memory required for data: 49649400
I1012 11:55:12.527088 31118 layer_factory.hpp:77] Creating layer conv4_3_3
I1012 11:55:12.527102 31118 net.cpp:128] Creating Layer conv4_3_3
I1012 11:55:12.527112 31118 net.cpp:558] conv4_3_3 <- conv4_3_2
I1012 11:55:12.527122 31118 net.cpp:522] conv4_3_3 -> conv4_3_3
I1012 11:55:12.528673 31118 net.cpp:172] Setting up conv4_3_3
I1012 11:55:12.528698 31118 net.cpp:186] Top shape: 10 64 1 1 (640)
I1012 11:55:12.528702 31118 net.cpp:194] Memory required for data: 49651960
I1012 11:55:12.528738 31118 layer_factory.hpp:77] Creating layer conv4_3_Prob3
I1012 11:55:12.528748 31118 net.cpp:128] Creating Layer conv4_3_Prob3
I1012 11:55:12.528756 31118 net.cpp:558] conv4_3_Prob3 <- conv4_3_3
I1012 11:55:12.528766 31118 net.cpp:509] conv4_3_Prob3 -> conv4_3_3 (in-place)
I1012 11:55:12.529033 31118 net.cpp:172] Setting up conv4_3_Prob3
I1012 11:55:12.529047 31118 net.cpp:186] Top shape: 10 64 1 1 (640)
I1012 11:55:12.529050 31118 net.cpp:194] Memory required for data: 49654520
I1012 11:55:12.529055 31118 layer_factory.hpp:77] Creating layer conv4_Axpy_3
I1012 11:55:12.529062 31118 net.cpp:128] Creating Layer conv4_Axpy_3
I1012 11:55:12.529067 31118 net.cpp:558] conv4_Axpy_3 <- conv4_3_3
I1012 11:55:12.529075 31118 net.cpp:558] conv4_Axpy_3 <- conv4_3_1_conv4_3_scale1_0_split_1
I1012 11:55:12.529088 31118 net.cpp:558] conv4_Axpy_3 <- conv4_Axpy_2_conv4_2ReLU_1_0_split_1
I1012 11:55:12.529094 31118 net.cpp:522] conv4_Axpy_3 -> conv4_Axpy_3
I1012 11:55:12.529182 31118 net.cpp:172] Setting up conv4_Axpy_3
I1012 11:55:12.529192 31118 net.cpp:186] Top shape: 10 64 8 8 (40960)
I1012 11:55:12.529196 31118 net.cpp:194] Memory required for data: 49818360
I1012 11:55:12.529201 31118 layer_factory.hpp:77] Creating layer conv4_3ReLU_1
I1012 11:55:12.529208 31118 net.cpp:128] Creating Layer conv4_3ReLU_1
I1012 11:55:12.529213 31118 net.cpp:558] conv4_3ReLU_1 <- conv4_Axpy_3
I1012 11:55:12.529218 31118 net.cpp:509] conv4_3ReLU_1 -> conv4_Axpy_3 (in-place)
I1012 11:55:12.529462 31118 net.cpp:172] Setting up conv4_3ReLU_1
I1012 11:55:12.529474 31118 net.cpp:186] Top shape: 10 64 8 8 (40960)
I1012 11:55:12.529479 31118 net.cpp:194] Memory required for data: 49982200
I1012 11:55:12.529484 31118 layer_factory.hpp:77] Creating layer Pooling1
I1012 11:55:12.529492 31118 net.cpp:128] Creating Layer Pooling1
I1012 11:55:12.529500 31118 net.cpp:558] Pooling1 <- conv4_Axpy_3
I1012 11:55:12.529507 31118 net.cpp:522] Pooling1 -> Pooling1
I1012 11:55:12.529549 31118 net.cpp:172] Setting up Pooling1
I1012 11:55:12.529558 31118 net.cpp:186] Top shape: 10 64 1 1 (640)
I1012 11:55:12.529561 31118 net.cpp:194] Memory required for data: 49984760
I1012 11:55:12.529565 31118 layer_factory.hpp:77] Creating layer fc1
I1012 11:55:12.529577 31118 net.cpp:128] Creating Layer fc1
I1012 11:55:12.529583 31118 net.cpp:558] fc1 <- Pooling1
I1012 11:55:12.529590 31118 net.cpp:522] fc1 -> fc1
I1012 11:55:12.529801 31118 net.cpp:172] Setting up fc1
I1012 11:55:12.529814 31118 net.cpp:186] Top shape: 10 10 (100)
I1012 11:55:12.529817 31118 net.cpp:194] Memory required for data: 49985160
I1012 11:55:12.529827 31118 layer_factory.hpp:77] Creating layer fc1_fc1_0_split
I1012 11:55:12.529834 31118 net.cpp:128] Creating Layer fc1_fc1_0_split
I1012 11:55:12.529844 31118 net.cpp:558] fc1_fc1_0_split <- fc1
I1012 11:55:12.529851 31118 net.cpp:522] fc1_fc1_0_split -> fc1_fc1_0_split_0
I1012 11:55:12.529861 31118 net.cpp:522] fc1_fc1_0_split -> fc1_fc1_0_split_1
I1012 11:55:12.529918 31118 net.cpp:172] Setting up fc1_fc1_0_split
I1012 11:55:12.529927 31118 net.cpp:186] Top shape: 10 10 (100)
I1012 11:55:12.529933 31118 net.cpp:186] Top shape: 10 10 (100)
I1012 11:55:12.529937 31118 net.cpp:194] Memory required for data: 49985960
I1012 11:55:12.529942 31118 layer_factory.hpp:77] Creating layer Softmax1
I1012 11:55:12.529952 31118 net.cpp:128] Creating Layer Softmax1
I1012 11:55:12.529956 31118 net.cpp:558] Softmax1 <- fc1_fc1_0_split_0
I1012 11:55:12.529961 31118 net.cpp:558] Softmax1 <- label_Data1_1_split_0
I1012 11:55:12.529969 31118 net.cpp:522] Softmax1 -> Softmax1
…
