…
I0218 11:49:48.860189 27028 upgrade_proto.cpp:79] Attempting to upgrade batch norm layers using deprecated params: ./train_ResNet_20.prototxt
I0218 11:49:48.860208 27028 upgrade_proto.cpp:82] Successfully upgraded batch norm layers using deprecated params.
I0218 11:49:48.861106 27028 net.cpp:82] Initializing net from parameters: 
name: "ResNet-20"
state {
  phase: TRAIN
  level: 0
  stage: ""
}
layer {
  name: "data1"
  type: "HDF5Data"
  top: "data"
  top: "labels"
  include {
    phase: TRAIN
  }
  hdf5_data_param {
    source: "./train_h5.txt"
    batch_size: 128
  }
}
layer {
  name: "slicers"
  type: "Slice"
  bottom: "labels"
  top: "label_1"
  top: "label_2"
  top: "label_3"
  top: "label_4"
  slice_param {
    slice_point: 1
    slice_point: 2
    slice_point: 3
    axis: 1
  }
}
layer {
  name: "conv1"
  type: "Convolution"
  bottom: "data"
  top: "conv1"
  param {
    lr_mult: 1
    decay_mult: 1
  }
  param {
    lr_mult: 2
    decay_mult: 0
  }
  convolution_param {
    num_output: 16
    bias_term: true
    pad: 1
    kernel_size: 3
    stride: 1
    weight_filler {
      type: "msra"
    }
    bias_filler {
      type: "constant"
      value: 0
    }
  }
}
layer {
  name: "conv1/bn"
  type: "BatchNorm"
  bottom: "conv1"
  top: "conv1"
  param {
    lr_mult: 0
    decay_mult: 0
  }
  param {
    lr_mult: 0
    decay_mult: 0
  }
  param {
    lr_mult: 0
    decay_mult: 0
  }
  batch_norm_param {
    use_global_stats: false
  }
}
layer {
  name: "conv1/scale"
  type: "Scale"
  bottom: "conv1"
  top: "conv1"
  scale_param {
    bias_term: true
  }
}
layer {
  name: "conv1/ReLU"
  type: "ReLU"
  bottom: "conv1"
  top: "conv1"
}
layer {
  name: "conv2_1_0"
  type: "Convolution"
  bottom: "conv1"
  top: "conv2_1_0"
  param {
    lr_mult: 1
    decay_mult: 1
  }
  param {
    lr_mult: 2
    decay_mult: 0
  }
  convolution_param {
    num_output: 16
    bias_term: true
    pad: 1
    kernel_size: 3
    stride: 1
    weight_filler {
      type: "msra"
    }
    bias_filler {
      type: "constant"
      value: 0
    }
  }
}
layer {
  name: "conv2_1_bn0"
  type: "BatchNorm"
  bottom: "conv2_1_0"
  top: "conv2_1_0"
  param {
    lr_mult: 0
    decay_mult: 0
  }
  param {
    lr_mult: 0
    decay_mult: 0
  }
  param {
    lr_mult: 0
    decay_mult: 0
  }
  batch_norm_param {
    use_global_stats: false
  }
}
layer {
  name: "conv2_1_scale0"
  type: "Scale"
  bottom: "conv2_1_0"
  top: "conv2_1_0"
  scale_param {
    bias_term: true
  }
}
layer {
  name: "conv2_1_ReLU0"
  type: "ReLU"
  bottom: "conv2_1_0"
  top: "conv2_1_0"
}
layer {
  name: "conv2_1_1"
  type: "Convolution"
  bottom: "conv2_1_0"
  top: "conv2_1_1"
  param {
    lr_mult: 1
    decay_mult: 1
  }
  param {
    lr_mult: 2
    decay_mult: 0
  }
  convolution_param {
    num_output: 16
    bias_term: true
    pad: 1
    kernel_size: 3
    stride: 1
    weight_filler {
      type: "msra"
    }
    bias_filler {
      type: "constant"
      value: 0
    }
  }
}
layer {
  name: "conv2_1bn1"
  type: "BatchNorm"
  bottom: "conv2_1_1"
  top: "conv2_1_1"
  param {
    lr_mult: 0
    decay_mult: 0
  }
  param {
    lr_mult: 0
    decay_mult: 0
  }
  param {
    lr_mult: 0
    decay_mult: 0
  }
  batch_norm_param {
    use_global_stats: false
  }
}
layer {
  name: "conv2_1_scale1"
  type: "Scale"
  bottom: "conv2_1_1"
  top: "conv2_1_1"
  scale_param {
    bias_term: true
  }
}
layer {
  name: "conv2_Eltwise_1"
  type: "Eltwise"
  bottom: "conv1"
  bottom: "conv2_1_1"
  top: "conv2_Eltwise_1"
  eltwise_param {
    operation: SUM
  }
}
layer {
  name: "conv2_1ReLU_1"
  type: "ReLU"
  bottom: "conv2_Eltwise_1"
  top: "conv2_Eltwise_1"
}
layer {
  name: "conv2_2_0"
  type: "Convolution"
  bottom: "conv2_Eltwise_1"
  top: "conv2_2_0"
  param {
    lr_mult: 1
    decay_mult: 1
  }
  param {
    lr_mult: 2
    decay_mult: 0
  }
  convolution_param {
    num_output: 16
    bias_term: true
    pad: 1
    kernel_size: 3
    stride: 1
    weight_filler {
      type: "msra"
    }
    bias_filler {
      type: "constant"
      value: 0
    }
  }
}
layer {
  name: "conv2_2_bn0"
  type: "BatchNorm"
  bottom: "conv2_2_0"
  top: "conv2_2_0"
  param {
    lr_mult: 0
    decay_mult: 0
  }
  param {
    lr_mult: 0
    decay_mult: 0
  }
  param {
    lr_mult: 0
    decay_mult: 0
  }
  batch_norm_param {
    use_global_stats: false
  }
}
layer {
  name: "conv2_2_scale0"
  type: "Scale"
  bottom: "conv2_2_0"
  top: "conv2_2_0"
  scale_param {
    bias_term: true
  }
}
layer {
  name: "conv2_2_ReLU0"
  type: "ReLU"
  bottom: "conv2_2_0"
  top: "conv2_2_0"
}
layer {
  name: "conv2_2_1"
  type: "Convolution"
  bottom: "conv2_2_0"
  top: "conv2_2_1"
  param {
    lr_mult: 1
    decay_mult: 1
  }
  param {
    lr_mult: 2
    decay_mult: 0
  }
  convolution_param {
    num_output: 16
    bias_term: true
    pad: 1
    kernel_size: 3
    stride: 1
    weight_filler {
      type: "msra"
    }
    bias_filler {
      type: "constant"
      value: 0
    }
  }
}
layer {
  name: "conv2_2bn1"
  type: "BatchNorm"
  bottom: "conv2_2_1"
  top: "conv2_2_1"
  param {
    lr_mult: 0
    decay_mult: 0
  }
  param {
    lr_mult: 0
    decay_mult: 0
  }
  param {
    lr_mult: 0
    decay_mult: 0
  }
  batch_norm_param {
    use_global_stats: false
  }
}
layer {
  name: "conv2_2_scale1"
  type: "Scale"
  bottom: "conv2_2_1"
  top: "conv2_2_1"
  scale_param {
    bias_term: true
  }
}
layer {
  name: "conv2_Eltwise_2"
  type: "Eltwise"
  bottom: "conv2_Eltwise_1"
  bottom: "conv2_2_1"
  top: "conv2_Eltwise_2"
  eltwise_param {
    operation: SUM
  }
}
layer {
  name: "conv2_2ReLU_1"
  type: "ReLU"
  bottom: "conv2_Eltwise_2"
  top: "conv2_Eltwise_2"
}
layer {
  name: "conv2_3_0"
  type: "Convolution"
  bottom: "conv2_Eltwise_2"
  top: "conv2_3_0"
  param {
    lr_mult: 1
    decay_mult: 1
  }
  param {
    lr_mult: 2
    decay_mult: 0
  }
  convolution_param {
    num_output: 16
    bias_term: true
    pad: 1
    kernel_size: 3
    stride: 1
    weight_filler {
      type: "msra"
    }
    bias_filler {
      type: "constant"
      value: 0
    }
  }
}
layer {
  name: "conv2_3_bn0"
  type: "BatchNorm"
  bottom: "conv2_3_0"
  top: "conv2_3_0"
  param {
    lr_mult: 0
    decay_mult: 0
  }
  param {
    lr_mult: 0
    decay_mult: 0
  }
  param {
    lr_mult: 0
    decay_mult: 0
  }
  batch_norm_param {
    use_global_stats: false
  }
}
layer {
  name: "conv2_3_scale0"
  type: "Scale"
  bottom: "conv2_3_0"
  top: "conv2_3_0"
  scale_param {
    bias_term: true
  }
}
layer {
  name: "conv2_3_ReLU0"
  type: "ReLU"
  bottom: "conv2_3_0"
  top: "conv2_3_0"
}
layer {
  name: "conv2_3_1"
  type: "Convolution"
  bottom: "conv2_3_0"
  top: "conv2_3_1"
  param {
    lr_mult: 1
    decay_mult: 1
  }
  param {
    lr_mult: 2
    decay_mult: 0
  }
  convolution_param {
    num_output: 16
    bias_term: true
    pad: 1
    kernel_size: 3
    stride: 1
    weight_filler {
      type: "msra"
    }
    bias_filler {
      type: "constant"
      value: 0
    }
  }
}
layer {
  name: "conv2_3bn1"
  type: "BatchNorm"
  bottom: "conv2_3_1"
  top: "conv2_3_1"
  param {
    lr_mult: 0
    decay_mult: 0
  }
  param {
    lr_mult: 0
    decay_mult: 0
  }
  param {
    lr_mult: 0
    decay_mult: 0
  }
  batch_norm_param {
    use_global_stats: false
  }
}
layer {
  name: "conv2_3_scale1"
  type: "Scale"
  bottom: "conv2_3_1"
  top: "conv2_3_1"
  scale_param {
    bias_term: true
  }
}
layer {
  name: "conv2_Eltwise_3"
  type: "Eltwise"
  bottom: "conv2_Eltwise_2"
  bottom: "conv2_3_1"
  top: "conv2_Eltwise_3"
  eltwise_param {
    operation: SUM
  }
}
layer {
  name: "conv2_3ReLU_1"
  type: "ReLU"
  bottom: "conv2_Eltwise_3"
  top: "conv2_Eltwise_3"
}
layer {
  name: "conv3_1_0"
  type: "Convolution"
  bottom: "conv2_Eltwise_3"
  top: "conv3_1_0"
  param {
    lr_mult: 1
    decay_mult: 1
  }
  param {
    lr_mult: 2
    decay_mult: 0
  }
  convolution_param {
    num_output: 32
    bias_term: true
    pad: 1
    kernel_size: 3
    stride: 2
    weight_filler {
      type: "msra"
    }
    bias_filler {
      type: "constant"
      value: 0
    }
  }
}
layer {
  name: "conv3_1_bn0"
  type: "BatchNorm"
  bottom: "conv3_1_0"
  top: "conv3_1_0"
  param {
    lr_mult: 0
    decay_mult: 0
  }
  param {
    lr_mult: 0
    decay_mult: 0
  }
  param {
    lr_mult: 0
    decay_mult: 0
  }
  batch_norm_param {
    use_global_stats: false
  }
}
layer {
  name: "conv3_1_scale0"
  type: "Scale"
  bottom: "conv3_1_0"
  top: "conv3_1_0"
  scale_param {
    bias_term: true
  }
}
layer {
  name: "conv3_1_ReLU0"
  type: "ReLU"
  bottom: "conv3_1_0"
  top: "conv3_1_0"
}
layer {
  name: "conv3_1_1"
  type: "Convolution"
  bottom: "conv3_1_0"
  top: "conv3_1_1"
  param {
    lr_mult: 1
    decay_mult: 1
  }
  param {
    lr_mult: 2
    decay_mult: 0
  }
  convolution_param {
    num_output: 32
    bias_term: true
    pad: 1
    kernel_size: 3
    stride: 1
    weight_filler {
      type: "msra"
    }
    bias_filler {
      type: "constant"
      value: 0
    }
  }
}
layer {
  name: "conv3_1bn1"
  type: "BatchNorm"
  bottom: "conv3_1_1"
  top: "conv3_1_1"
  param {
    lr_mult: 0
    decay_mult: 0
  }
  param {
    lr_mult: 0
    decay_mult: 0
  }
  param {
    lr_mult: 0
    decay_mult: 0
  }
  batch_norm_param {
    use_global_stats: false
  }
}
layer {
  name: "conv3_1_scale1"
  type: "Scale"
  bottom: "conv3_1_1"
  top: "conv3_1_1"
  scale_param {
    bias_term: true
  }
}
layer {
  name: "conv3_1_down"
  type: "Convolution"
  bottom: "conv2_Eltwise_3"
  top: "conv3_1_down"
  param {
    lr_mult: 1
    decay_mult: 1
  }
  param {
    lr_mult: 2
    decay_mult: 0
  }
  convolution_param {
    num_output: 32
    bias_term: true
    pad: 0
    kernel_size: 1
    stride: 2
    weight_filler {
      type: "msra"
    }
    bias_filler {
      type: "constant"
      value: 0
    }
  }
}
layer {
  name: "conv3_1_bn_down"
  type: "BatchNorm"
  bottom: "conv3_1_down"
  top: "conv3_1_down"
  param {
    lr_mult: 0
    decay_mult: 0
  }
  param {
    lr_mult: 0
    decay_mult: 0
  }
  param {
    lr_mult: 0
    decay_mult: 0
  }
  batch_norm_param {
    use_global_stats: false
  }
}
layer {
  name: "conv3_1_scale_down"
  type: "Scale"
  bottom: "conv3_1_down"
  top: "conv3_1_down"
  scale_param {
    bias_term: true
  }
}
layer {
  name: "conv3_Eltwise_1"
  type: "Eltwise"
  bottom: "conv3_1_1"
  bottom: "conv3_1_down"
  top: "conv3_Eltwise_1"
  eltwise_param {
    operation: SUM
  }
}
layer {
  name: "conv3_1ReLU_1"
  type: "ReLU"
  bottom: "conv3_Eltwise_1"
  top: "conv3_Eltwise_1"
}
layer {
  name: "conv3_2_0"
  type: "Convolution"
  bottom: "conv3_Eltwise_1"
  top: "conv3_2_0"
  param {
    lr_mult: 1
    decay_mult: 1
  }
  param {
    lr_mult: 2
    decay_mult: 0
  }
  convolution_param {
    num_output: 32
    bias_term: true
    pad: 1
    kernel_size: 3
    stride: 1
    weight_filler {
      type: "msra"
    }
    bias_filler {
      type: "constant"
      value: 0
    }
  }
}
layer {
  name: "conv3_2_bn0"
  type: "BatchNorm"
  bottom: "conv3_2_0"
  top: "conv3_2_0"
  param {
    lr_mult: 0
    decay_mult: 0
  }
  param {
    lr_mult: 0
    decay_mult: 0
  }
  param {
    lr_mult: 0
    decay_mult: 0
  }
  batch_norm_param {
    use_global_stats: false
  }
}
layer {
  name: "conv3_2_scale0"
  type: "Scale"
  bottom: "conv3_2_0"
  top: "conv3_2_0"
  scale_param {
    bias_term: true
  }
}
layer {
  name: "conv3_2_ReLU0"
  type: "ReLU"
  bottom: "conv3_2_0"
  top: "conv3_2_0"
}
layer {
  name: "conv3_2_1"
  type: "Convolution"
  bottom: "conv3_2_0"
  top: "conv3_2_1"
  param {
    lr_mult: 1
    decay_mult: 1
  }
  param {
    lr_mult: 2
    decay_mult: 0
  }
  convolution_param {
    num_output: 32
    bias_term: true
    pad: 1
    kernel_size: 3
    stride: 1
    weight_filler {
      type: "msra"
    }
    bias_filler {
      type: "constant"
      value: 0
    }
  }
}
layer {
  name: "conv3_2bn1"
  type: "BatchNorm"
  bottom: "conv3_2_1"
  top: "conv3_2_1"
  param {
    lr_mult: 0
    decay_mult: 0
  }
  param {
    lr_mult: 0
    decay_mult: 0
  }
  param {
    lr_mult: 0
    decay_mult: 0
  }
  batch_norm_param {
    use_global_stats: false
  }
}
layer {
  name: "conv3_2_scale1"
  type: "Scale"
  bottom: "conv3_2_1"
  top: "conv3_2_1"
  scale_param {
    bias_term: true
  }
}
layer {
  name: "conv3_Eltwise_2"
  type: "Eltwise"
  bottom: "conv3_Eltwise_1"
  bottom: "conv3_2_1"
  top: "conv3_Eltwise_2"
  eltwise_param {
    operation: SUM
  }
}
layer {
  name: "conv3_2ReLU_1"
  type: "ReLU"
  bottom: "conv3_Eltwise_2"
  top: "conv3_Eltwise_2"
}
layer {
  name: "conv3_3_0"
  type: "Convolution"
  bottom: "conv3_Eltwise_2"
  top: "conv3_3_0"
  param {
    lr_mult: 1
    decay_mult: 1
  }
  param {
    lr_mult: 2
    decay_mult: 0
  }
  convolution_param {
    num_output: 32
    bias_term: true
    pad: 1
    kernel_size: 3
    stride: 1
    weight_filler {
      type: "msra"
    }
    bias_filler {
      type: "constant"
      value: 0
    }
  }
}
layer {
  name: "conv3_3_bn0"
  type: "BatchNorm"
  bottom: "conv3_3_0"
  top: "conv3_3_0"
  param {
    lr_mult: 0
    decay_mult: 0
  }
  param {
    lr_mult: 0
    decay_mult: 0
  }
  param {
    lr_mult: 0
    decay_mult: 0
  }
  batch_norm_param {
    use_global_stats: false
  }
}
layer {
  name: "conv3_3_scale0"
  type: "Scale"
  bottom: "conv3_3_0"
  top: "conv3_3_0"
  scale_param {
    bias_term: true
  }
}
layer {
  name: "conv3_3_ReLU0"
  type: "ReLU"
  bottom: "conv3_3_0"
  top: "conv3_3_0"
}
layer {
  name: "conv3_3_1"
  type: "Convolution"
  bottom: "conv3_3_0"
  top: "conv3_3_1"
  param {
    lr_mult: 1
    decay_mult: 1
  }
  param {
    lr_mult: 2
    decay_mult: 0
  }
  convolution_param {
    num_output: 32
    bias_term: true
    pad: 1
    kernel_size: 3
    stride: 1
    weight_filler {
      type: "msra"
    }
    bias_filler {
      type: "constant"
      value: 0
    }
  }
}
layer {
  name: "conv3_3bn1"
  type: "BatchNorm"
  bottom: "conv3_3_1"
  top: "conv3_3_1"
  param {
    lr_mult: 0
    decay_mult: 0
  }
  param {
    lr_mult: 0
    decay_mult: 0
  }
  param {
    lr_mult: 0
    decay_mult: 0
  }
  batch_norm_param {
    use_global_stats: false
  }
}
layer {
  name: "conv3_3_scale1"
  type: "Scale"
  bottom: "conv3_3_1"
  top: "conv3_3_1"
  scale_param {
    bias_term: true
  }
}
layer {
  name: "conv3_Eltwise_3"
  type: "Eltwise"
  bottom: "conv3_Eltwise_2"
  bottom: "conv3_3_1"
  top: "conv3_Eltwise_3"
  eltwise_param {
    operation: SUM
  }
}
layer {
  name: "conv3_3ReLU_1"
  type: "ReLU"
  bottom: "conv3_Eltwise_3"
  top: "conv3_Eltwise_3"
}
layer {
  name: "conv4_1_0"
  type: "Convolution"
  bottom: "conv3_Eltwise_3"
  top: "conv4_1_0"
  param {
    lr_mult: 1
    decay_mult: 1
  }
  param {
    lr_mult: 2
    decay_mult: 0
  }
  convolution_param {
    num_output: 64
    bias_term: true
    pad: 1
    kernel_size: 3
    stride: 2
    weight_filler {
      type: "msra"
    }
    bias_filler {
      type: "constant"
      value: 0
    }
  }
}
layer {
  name: "conv4_1_bn0"
  type: "BatchNorm"
  bottom: "conv4_1_0"
  top: "conv4_1_0"
  param {
    lr_mult: 0
    decay_mult: 0
  }
  param {
    lr_mult: 0
    decay_mult: 0
  }
  param {
    lr_mult: 0
    decay_mult: 0
  }
  batch_norm_param {
    use_global_stats: false
  }
}
layer {
  name: "conv4_1_scale0"
  type: "Scale"
  bottom: "conv4_1_0"
  top: "conv4_1_0"
  scale_param {
    bias_term: true
  }
}
layer {
  name: "conv4_1_ReLU0"
  type: "ReLU"
  bottom: "conv4_1_0"
  top: "conv4_1_0"
}
layer {
  name: "conv4_1_1"
  type: "Convolution"
  bottom: "conv4_1_0"
  top: "conv4_1_1"
  param {
    lr_mult: 1
    decay_mult: 1
  }
  param {
    lr_mult: 2
    decay_mult: 0
  }
  convolution_param {
    num_output: 64
    bias_term: true
    pad: 1
    kernel_size: 3
    stride: 1
    weight_filler {
      type: "msra"
    }
    bias_filler {
      type: "constant"
      value: 0
    }
  }
}
layer {
  name: "conv4_1bn1"
  type: "BatchNorm"
  bottom: "conv4_1_1"
  top: "conv4_1_1"
  param {
    lr_mult: 0
    decay_mult: 0
  }
  param {
    lr_mult: 0
    decay_mult: 0
  }
  param {
    lr_mult: 0
    decay_mult: 0
  }
  batch_norm_param {
    use_global_stats: false
  }
}
layer {
  name: "conv4_1_scale1"
  type: "Scale"
  bottom: "conv4_1_1"
  top: "conv4_1_1"
  scale_param {
    bias_term: true
  }
}
layer {
  name: "conv4_1_down"
  type: "Convolution"
  bottom: "conv3_Eltwise_3"
  top: "conv4_1_down"
  param {
    lr_mult: 1
    decay_mult: 1
  }
  param {
    lr_mult: 2
    decay_mult: 0
  }
  convolution_param {
    num_output: 64
    bias_term: true
    pad: 0
    kernel_size: 1
    stride: 2
    weight_filler {
      type: "msra"
    }
    bias_filler {
      type: "constant"
      value: 0
    }
  }
}
layer {
  name: "conv4_1_bn_down"
  type: "BatchNorm"
  bottom: "conv4_1_down"
  top: "conv4_1_down"
  param {
    lr_mult: 0
    decay_mult: 0
  }
  param {
    lr_mult: 0
    decay_mult: 0
  }
  param {
    lr_mult: 0
    decay_mult: 0
  }
  batch_norm_param {
    use_global_stats: false
  }
}
layer {
  name: "conv4_1_scale_down"
  type: "Scale"
  bottom: "conv4_1_down"
  top: "conv4_1_down"
  scale_param {
    bias_term: true
  }
}
layer {
  name: "conv4_Eltwise_1"
  type: "Eltwise"
  bottom: "conv4_1_1"
  bottom: "conv4_1_down"
  top: "conv4_Eltwise_1"
  eltwise_param {
    operation: SUM
  }
}
layer {
  name: "conv4_1ReLU_1"
  type: "ReLU"
  bottom: "conv4_Eltwise_1"
  top: "conv4_Eltwise_1"
}
layer {
  name: "conv4_2_0"
  type: "Convolution"
  bottom: "conv4_Eltwise_1"
  top: "conv4_2_0"
  param {
    lr_mult: 1
    decay_mult: 1
  }
  param {
    lr_mult: 2
    decay_mult: 0
  }
  convolution_param {
    num_output: 64
    bias_term: true
    pad: 1
    kernel_size: 3
    stride: 1
    weight_filler {
      type: "msra"
    }
    bias_filler {
      type: "constant"
      value: 0
    }
  }
}
layer {
  name: "conv4_2_bn0"
  type: "BatchNorm"
  bottom: "conv4_2_0"
  top: "conv4_2_0"
  param {
    lr_mult: 0
    decay_mult: 0
  }
  param {
    lr_mult: 0
    decay_mult: 0
  }
  param {
    lr_mult: 0
    decay_mult: 0
  }
  batch_norm_param {
    use_global_stats: false
  }
}
layer {
  name: "conv4_2_scale0"
  type: "Scale"
  bottom: "conv4_2_0"
  top: "conv4_2_0"
  scale_param {
    bias_term: true
  }
}
layer {
  name: "conv4_2_ReLU0"
  type: "ReLU"
  bottom: "conv4_2_0"
  top: "conv4_2_0"
}
layer {
  name: "conv4_2_1"
  type: "Convolution"
  bottom: "conv4_2_0"
  top: "conv4_2_1"
  param {
    lr_mult: 1
    decay_mult: 1
  }
  param {
    lr_mult: 2
    decay_mult: 0
  }
  convolution_param {
    num_output: 64
    bias_term: true
    pad: 1
    kernel_size: 3
    stride: 1
    weight_filler {
      type: "msra"
    }
    bias_filler {
      type: "constant"
      value: 0
    }
  }
}
layer {
  name: "conv4_2bn1"
  type: "BatchNorm"
  bottom: "conv4_2_1"
  top: "conv4_2_1"
  param {
    lr_mult: 0
    decay_mult: 0
  }
  param {
    lr_mult: 0
    decay_mult: 0
  }
  param {
    lr_mult: 0
    decay_mult: 0
  }
  batch_norm_param {
    use_global_stats: false
  }
}
layer {
  name: "conv4_2_scale1"
  type: "Scale"
  bottom: "conv4_2_1"
  top: "conv4_2_1"
  scale_param {
    bias_term: true
  }
}
layer {
  name: "conv4_Eltwise_2"
  type: "Eltwise"
  bottom: "conv4_Eltwise_1"
  bottom: "conv4_2_1"
  top: "conv4_Eltwise_2"
  eltwise_param {
    operation: SUM
  }
}
layer {
  name: "conv4_2ReLU_1"
  type: "ReLU"
  bottom: "conv4_Eltwise_2"
  top: "conv4_Eltwise_2"
}
layer {
  name: "conv4_3_0"
  type: "Convolution"
  bottom: "conv4_Eltwise_2"
  top: "conv4_3_0"
  param {
    lr_mult: 1
    decay_mult: 1
  }
  param {
    lr_mult: 2
    decay_mult: 0
  }
  convolution_param {
    num_output: 64
    bias_term: true
    pad: 1
    kernel_size: 3
    stride: 1
    weight_filler {
      type: "msra"
    }
    bias_filler {
      type: "constant"
      value: 0
    }
  }
}
layer {
  name: "conv4_3_bn0"
  type: "BatchNorm"
  bottom: "conv4_3_0"
  top: "conv4_3_0"
  param {
    lr_mult: 0
    decay_mult: 0
  }
  param {
    lr_mult: 0
    decay_mult: 0
  }
  param {
    lr_mult: 0
    decay_mult: 0
  }
  batch_norm_param {
    use_global_stats: false
  }
}
layer {
  name: "conv4_3_scale0"
  type: "Scale"
  bottom: "conv4_3_0"
  top: "conv4_3_0"
  scale_param {
    bias_term: true
  }
}
layer {
  name: "conv4_3_ReLU0"
  type: "ReLU"
  bottom: "conv4_3_0"
  top: "conv4_3_0"
}
layer {
  name: "conv4_3_1"
  type: "Convolution"
  bottom: "conv4_3_0"
  top: "conv4_3_1"
  param {
    lr_mult: 1
    decay_mult: 1
  }
  param {
    lr_mult: 2
    decay_mult: 0
  }
  convolution_param {
    num_output: 64
    bias_term: true
    pad: 1
    kernel_size: 3
    stride: 1
    weight_filler {
      type: "msra"
    }
    bias_filler {
      type: "constant"
      value: 0
    }
  }
}
layer {
  name: "conv4_3bn1"
  type: "BatchNorm"
  bottom: "conv4_3_1"
  top: "conv4_3_1"
  param {
    lr_mult: 0
    decay_mult: 0
  }
  param {
    lr_mult: 0
    decay_mult: 0
  }
  param {
    lr_mult: 0
    decay_mult: 0
  }
  batch_norm_param {
    use_global_stats: false
  }
}
layer {
  name: "conv4_3_scale1"
  type: "Scale"
  bottom: "conv4_3_1"
  top: "conv4_3_1"
  scale_param {
    bias_term: true
  }
}
layer {
  name: "conv4_Eltwise_3"
  type: "Eltwise"
  bottom: "conv4_Eltwise_2"
  bottom: "conv4_3_1"
  top: "conv4_Eltwise_3"
  eltwise_param {
    operation: SUM
  }
}
layer {
  name: "conv4_3ReLU_1"
  type: "ReLU"
  bottom: "conv4_Eltwise_3"
  top: "conv4_Eltwise_3"
}
layer {
  name: "Pooling1"
  type: "Pooling"
  bottom: "conv4_Eltwise_3"
  top: "Pooling1"
  pooling_param {
    pool: AVE
    global_pooling: true
  }
}
layer {
  name: "fc1"
  type: "Convolution"
  bottom: "Pooling1"
  top: "fc1"
  param {
    lr_mult: 1
    decay_mult: 1
  }
  param {
    lr_mult: 2
    decay_mult: 1
  }
  convolution_param {
    num_output: 62
    bias_term: true
    pad: 0
    kernel_size: 1
    stride: 1
    weight_filler {
      type: "msra"
    }
    bias_filler {
      type: "constant"
      value: 0
    }
  }
}
layer {
  name: "Softmax1"
  type: "SoftmaxWithLoss"
  bottom: "fc1"
  bottom: "label_1"
  top: "Softmax1"
}
layer {
  name: "fc2"
  type: "Convolution"
  bottom: "Pooling1"
  top: "fc2"
  param {
    lr_mult: 1
    decay_mult: 1
  }
  param {
    lr_mult: 2
    decay_mult: 1
  }
  convolution_param {
    num_output: 62
    bias_term: true
    pad: 0
    kernel_size: 1
    stride: 1
    weight_filler {
      type: "msra"
    }
    bias_filler {
      type: "constant"
      value: 0
    }
  }
}
layer {
  name: "Softmax2"
  type: "SoftmaxWithLoss"
  bottom: "fc2"
  bottom: "label_2"
  top: "Softmax2"
}
layer {
  name: "fc3"
  type: "Convolution"
  bottom: "Pooling1"
  top: "fc3"
  param {
    lr_mult: 1
    decay_mult: 1
  }
  param {
    lr_mult: 2
    decay_mult: 1
  }
  convolution_param {
    num_output: 62
    bias_term: true
    pad: 0
    kernel_size: 1
    stride: 1
    weight_filler {
      type: "msra"
    }
    bias_filler {
      type: "constant"
      value: 0
    }
  }
}
layer {
  name: "Softmax3"
  type: "SoftmaxWithLoss"
  bottom: "fc3"
  bottom: "label_3"
  top: "Softmax3"
}
layer {
  name: "fc4"
  type: "Convolution"
  bottom: "Pooling1"
  top: "fc4"
  param {
    lr_mult: 1
    decay_mult: 1
  }
  param {
    lr_mult: 2
    decay_mult: 1
  }
  convolution_param {
    num_output: 62
    bias_term: true
    pad: 0
    kernel_size: 1
    stride: 1
    weight_filler {
      type: "msra"
    }
    bias_filler {
      type: "constant"
      value: 0
    }
  }
}
layer {
  name: "Softmax4"
  type: "SoftmaxWithLoss"
  bottom: "fc4"
  bottom: "label_4"
  top: "Softmax4"
}
I0218 11:49:48.861641 27028 layer_factory.hpp:77] Creating layer data1
I0218 11:49:48.861662 27028 net.cpp:128] Creating Layer data1
I0218 11:49:48.861671 27028 net.cpp:522] data1 -> data
I0218 11:49:48.861697 27028 net.cpp:522] data1 -> labels
I0218 11:49:48.861711 27028 hdf5_data_layer.cpp:80] Loading list of HDF5 filenames from: ./train_h5.txt
I0218 11:49:48.861763 27028 hdf5_data_layer.cpp:94] Number of HDF5 files: 1
I0218 11:49:48.863165 27028 hdf5.cpp:32] Datatype class: H5T_FLOAT
I0218 11:49:50.103693 27028 net.cpp:172] Setting up data1
I0218 11:49:50.103761 27028 net.cpp:186] Top shape: 128 1 32 72 (294912)
I0218 11:49:50.103768 27028 net.cpp:186] Top shape: 128 4 (512)
I0218 11:49:50.103772 27028 net.cpp:194] Memory required for data: 1181696
I0218 11:49:50.103785 27028 layer_factory.hpp:77] Creating layer slicers
I0218 11:49:50.103806 27028 net.cpp:128] Creating Layer slicers
I0218 11:49:50.103816 27028 net.cpp:558] slicers <- labels
I0218 11:49:50.103839 27028 net.cpp:522] slicers -> label_1
I0218 11:49:50.103857 27028 net.cpp:522] slicers -> label_2
I0218 11:49:50.103863 27028 net.cpp:522] slicers -> label_3
I0218 11:49:50.103871 27028 net.cpp:522] slicers -> label_4
I0218 11:49:50.103927 27028 net.cpp:172] Setting up slicers
I0218 11:49:50.103935 27028 net.cpp:186] Top shape: 128 1 (128)
I0218 11:49:50.103940 27028 net.cpp:186] Top shape: 128 1 (128)
I0218 11:49:50.103943 27028 net.cpp:186] Top shape: 128 1 (128)
I0218 11:49:50.103948 27028 net.cpp:186] Top shape: 128 1 (128)
I0218 11:49:50.103952 27028 net.cpp:194] Memory required for data: 1183744
I0218 11:49:50.103956 27028 layer_factory.hpp:77] Creating layer conv1
I0218 11:49:50.103981 27028 net.cpp:128] Creating Layer conv1
I0218 11:49:50.103984 27028 net.cpp:558] conv1 <- data
I0218 11:49:50.103991 27028 net.cpp:522] conv1 -> conv1
I0218 11:49:51.115525 27028 net.cpp:172] Setting up conv1
I0218 11:49:51.115586 27028 net.cpp:186] Top shape: 128 16 32 72 (4718592)
I0218 11:49:51.115592 27028 net.cpp:194] Memory required for data: 20058112
I0218 11:49:51.115631 27028 layer_factory.hpp:77] Creating layer conv1/bn
I0218 11:49:51.115653 27028 net.cpp:128] Creating Layer conv1/bn
I0218 11:49:51.115659 27028 net.cpp:558] conv1/bn <- conv1
I0218 11:49:51.115669 27028 net.cpp:509] conv1/bn -> conv1 (in-place)
I0218 11:49:51.115902 27028 net.cpp:172] Setting up conv1/bn
I0218 11:49:51.115913 27028 net.cpp:186] Top shape: 128 16 32 72 (4718592)
I0218 11:49:51.115918 27028 net.cpp:194] Memory required for data: 38932480
I0218 11:49:51.115931 27028 layer_factory.hpp:77] Creating layer conv1/scale
I0218 11:49:51.115942 27028 net.cpp:128] Creating Layer conv1/scale
I0218 11:49:51.115945 27028 net.cpp:558] conv1/scale <- conv1
I0218 11:49:51.115952 27028 net.cpp:509] conv1/scale -> conv1 (in-place)
I0218 11:49:51.115998 27028 layer_factory.hpp:77] Creating layer conv1/scale
I0218 11:49:51.116133 27028 net.cpp:172] Setting up conv1/scale
I0218 11:49:51.116144 27028 net.cpp:186] Top shape: 128 16 32 72 (4718592)
I0218 11:49:51.116149 27028 net.cpp:194] Memory required for data: 57806848
I0218 11:49:51.116156 27028 layer_factory.hpp:77] Creating layer conv1/ReLU
I0218 11:49:51.116164 27028 net.cpp:128] Creating Layer conv1/ReLU
I0218 11:49:51.116168 27028 net.cpp:558] conv1/ReLU <- conv1
I0218 11:49:51.116175 27028 net.cpp:509] conv1/ReLU -> conv1 (in-place)
I0218 11:49:51.116405 27028 net.cpp:172] Setting up conv1/ReLU
I0218 11:49:51.116418 27028 net.cpp:186] Top shape: 128 16 32 72 (4718592)
I0218 11:49:51.116423 27028 net.cpp:194] Memory required for data: 76681216
I0218 11:49:51.116427 27028 layer_factory.hpp:77] Creating layer conv1_conv1/ReLU_0_split
I0218 11:49:51.116436 27028 net.cpp:128] Creating Layer conv1_conv1/ReLU_0_split
I0218 11:49:51.116439 27028 net.cpp:558] conv1_conv1/ReLU_0_split <- conv1
I0218 11:49:51.116446 27028 net.cpp:522] conv1_conv1/ReLU_0_split -> conv1_conv1/ReLU_0_split_0
I0218 11:49:51.116456 27028 net.cpp:522] conv1_conv1/ReLU_0_split -> conv1_conv1/ReLU_0_split_1
I0218 11:49:51.116544 27028 net.cpp:172] Setting up conv1_conv1/ReLU_0_split
I0218 11:49:51.116552 27028 net.cpp:186] Top shape: 128 16 32 72 (4718592)
I0218 11:49:51.116559 27028 net.cpp:186] Top shape: 128 16 32 72 (4718592)
I0218 11:49:51.116562 27028 net.cpp:194] Memory required for data: 114429952
I0218 11:49:51.116566 27028 layer_factory.hpp:77] Creating layer conv2_1_0
I0218 11:49:51.116580 27028 net.cpp:128] Creating Layer conv2_1_0
I0218 11:49:51.116583 27028 net.cpp:558] conv2_1_0 <- conv1_conv1/ReLU_0_split_0
I0218 11:49:51.116590 27028 net.cpp:522] conv2_1_0 -> conv2_1_0
I0218 11:49:51.122390 27028 net.cpp:172] Setting up conv2_1_0
I0218 11:49:51.122414 27028 net.cpp:186] Top shape: 128 16 32 72 (4718592)
I0218 11:49:51.122421 27028 net.cpp:194] Memory required for data: 133304320
I0218 11:49:51.122431 27028 layer_factory.hpp:77] Creating layer conv2_1_bn0
I0218 11:49:51.122442 27028 net.cpp:128] Creating Layer conv2_1_bn0
I0218 11:49:51.122450 27028 net.cpp:558] conv2_1_bn0 <- conv2_1_0
I0218 11:49:51.122458 27028 net.cpp:509] conv2_1_bn0 -> conv2_1_0 (in-place)
I0218 11:49:51.122668 27028 net.cpp:172] Setting up conv2_1_bn0
I0218 11:49:51.122680 27028 net.cpp:186] Top shape: 128 16 32 72 (4718592)
I0218 11:49:51.122684 27028 net.cpp:194] Memory required for data: 152178688
I0218 11:49:51.122694 27028 layer_factory.hpp:77] Creating layer conv2_1_scale0
I0218 11:49:51.122699 27028 net.cpp:128] Creating Layer conv2_1_scale0
I0218 11:49:51.122704 27028 net.cpp:558] conv2_1_scale0 <- conv2_1_0
I0218 11:49:51.122709 27028 net.cpp:509] conv2_1_scale0 -> conv2_1_0 (in-place)
I0218 11:49:51.122745 27028 layer_factory.hpp:77] Creating layer conv2_1_scale0
I0218 11:49:51.122860 27028 net.cpp:172] Setting up conv2_1_scale0
I0218 11:49:51.122867 27028 net.cpp:186] Top shape: 128 16 32 72 (4718592)
I0218 11:49:51.122871 27028 net.cpp:194] Memory required for data: 171053056
I0218 11:49:51.122879 27028 layer_factory.hpp:77] Creating layer conv2_1_ReLU0
I0218 11:49:51.122884 27028 net.cpp:128] Creating Layer conv2_1_ReLU0
I0218 11:49:51.122889 27028 net.cpp:558] conv2_1_ReLU0 <- conv2_1_0
I0218 11:49:51.122894 27028 net.cpp:509] conv2_1_ReLU0 -> conv2_1_0 (in-place)
I0218 11:49:51.124456 27028 net.cpp:172] Setting up conv2_1_ReLU0
I0218 11:49:51.124474 27028 net.cpp:186] Top shape: 128 16 32 72 (4718592)
I0218 11:49:51.124477 27028 net.cpp:194] Memory required for data: 189927424
I0218 11:49:51.124482 27028 layer_factory.hpp:77] Creating layer conv2_1_1
I0218 11:49:51.124493 27028 net.cpp:128] Creating Layer conv2_1_1
I0218 11:49:51.124498 27028 net.cpp:558] conv2_1_1 <- conv2_1_0
I0218 11:49:51.124505 27028 net.cpp:522] conv2_1_1 -> conv2_1_1
I0218 11:49:51.131145 27028 net.cpp:172] Setting up conv2_1_1
I0218 11:49:51.131171 27028 net.cpp:186] Top shape: 128 16 32 72 (4718592)
I0218 11:49:51.131175 27028 net.cpp:194] Memory required for data: 208801792
I0218 11:49:51.131184 27028 layer_factory.hpp:77] Creating layer conv2_1bn1
I0218 11:49:51.131194 27028 net.cpp:128] Creating Layer conv2_1bn1
I0218 11:49:51.131199 27028 net.cpp:558] conv2_1bn1 <- conv2_1_1
I0218 11:49:51.131206 27028 net.cpp:509] conv2_1bn1 -> conv2_1_1 (in-place)
I0218 11:49:51.131417 27028 net.cpp:172] Setting up conv2_1bn1
I0218 11:49:51.131424 27028 net.cpp:186] Top shape: 128 16 32 72 (4718592)
I0218 11:49:51.131428 27028 net.cpp:194] Memory required for data: 227676160
I0218 11:49:51.131439 27028 layer_factory.hpp:77] Creating layer conv2_1_scale1
I0218 11:49:51.131448 27028 net.cpp:128] Creating Layer conv2_1_scale1
I0218 11:49:51.131451 27028 net.cpp:558] conv2_1_scale1 <- conv2_1_1
I0218 11:49:51.131456 27028 net.cpp:509] conv2_1_scale1 -> conv2_1_1 (in-place)
I0218 11:49:51.131497 27028 layer_factory.hpp:77] Creating layer conv2_1_scale1
I0218 11:49:51.131615 27028 net.cpp:172] Setting up conv2_1_scale1
I0218 11:49:51.131623 27028 net.cpp:186] Top shape: 128 16 32 72 (4718592)
I0218 11:49:51.131626 27028 net.cpp:194] Memory required for data: 246550528
I0218 11:49:51.131633 27028 layer_factory.hpp:77] Creating layer conv2_Eltwise_1
I0218 11:49:51.131659 27028 net.cpp:128] Creating Layer conv2_Eltwise_1
I0218 11:49:51.131664 27028 net.cpp:558] conv2_Eltwise_1 <- conv1_conv1/ReLU_0_split_1
I0218 11:49:51.131669 27028 net.cpp:558] conv2_Eltwise_1 <- conv2_1_1
I0218 11:49:51.131675 27028 net.cpp:522] conv2_Eltwise_1 -> conv2_Eltwise_1
I0218 11:49:51.131703 27028 net.cpp:172] Setting up conv2_Eltwise_1
I0218 11:49:51.131711 27028 net.cpp:186] Top shape: 128 16 32 72 (4718592)
I0218 11:49:51.131713 27028 net.cpp:194] Memory required for data: 265424896
I0218 11:49:51.131717 27028 layer_factory.hpp:77] Creating layer conv2_1ReLU_1
I0218 11:49:51.131724 27028 net.cpp:128] Creating Layer conv2_1ReLU_1
I0218 11:49:51.131728 27028 net.cpp:558] conv2_1ReLU_1 <- conv2_Eltwise_1
I0218 11:49:51.131733 27028 net.cpp:509] conv2_1ReLU_1 -> conv2_Eltwise_1 (in-place)
I0218 11:49:51.133257 27028 net.cpp:172] Setting up conv2_1ReLU_1
I0218 11:49:51.133282 27028 net.cpp:186] Top shape: 128 16 32 72 (4718592)
I0218 11:49:51.133286 27028 net.cpp:194] Memory required for data: 284299264
I0218 11:49:51.133293 27028 layer_factory.hpp:77] Creating layer conv2_Eltwise_1_conv2_1ReLU_1_0_split
I0218 11:49:51.133306 27028 net.cpp:128] Creating Layer conv2_Eltwise_1_conv2_1ReLU_1_0_split
I0218 11:49:51.133311 27028 net.cpp:558] conv2_Eltwise_1_conv2_1ReLU_1_0_split <- conv2_Eltwise_1
I0218 11:49:51.133317 27028 net.cpp:522] conv2_Eltwise_1_conv2_1ReLU_1_0_split -> conv2_Eltwise_1_conv2_1ReLU_1_0_split_0
I0218 11:49:51.133327 27028 net.cpp:522] conv2_Eltwise_1_conv2_1ReLU_1_0_split -> conv2_Eltwise_1_conv2_1ReLU_1_0_split_1
I0218 11:49:51.133374 27028 net.cpp:172] Setting up conv2_Eltwise_1_conv2_1ReLU_1_0_split
I0218 11:49:51.133381 27028 net.cpp:186] Top shape: 128 16 32 72 (4718592)
I0218 11:49:51.133388 27028 net.cpp:186] Top shape: 128 16 32 72 (4718592)
I0218 11:49:51.133390 27028 net.cpp:194] Memory required for data: 322048000
I0218 11:49:51.133394 27028 layer_factory.hpp:77] Creating layer conv2_2_0
I0218 11:49:51.133406 27028 net.cpp:128] Creating Layer conv2_2_0
I0218 11:49:51.133411 27028 net.cpp:558] conv2_2_0 <- conv2_Eltwise_1_conv2_1ReLU_1_0_split_0
I0218 11:49:51.133420 27028 net.cpp:522] conv2_2_0 -> conv2_2_0
I0218 11:49:51.139947 27028 net.cpp:172] Setting up conv2_2_0
I0218 11:49:51.139973 27028 net.cpp:186] Top shape: 128 16 32 72 (4718592)
I0218 11:49:51.139977 27028 net.cpp:194] Memory required for data: 340922368
I0218 11:49:51.139986 27028 layer_factory.hpp:77] Creating layer conv2_2_bn0
I0218 11:49:51.139998 27028 net.cpp:128] Creating Layer conv2_2_bn0
I0218 11:49:51.140003 27028 net.cpp:558] conv2_2_bn0 <- conv2_2_0
I0218 11:49:51.140009 27028 net.cpp:509] conv2_2_bn0 -> conv2_2_0 (in-place)
I0218 11:49:51.140238 27028 net.cpp:172] Setting up conv2_2_bn0
I0218 11:49:51.140249 27028 net.cpp:186] Top shape: 128 16 32 72 (4718592)
I0218 11:49:51.140254 27028 net.cpp:194] Memory required for data: 359796736
I0218 11:49:51.140261 27028 layer_factory.hpp:77] Creating layer conv2_2_scale0
I0218 11:49:51.140267 27028 net.cpp:128] Creating Layer conv2_2_scale0
I0218 11:49:51.140271 27028 net.cpp:558] conv2_2_scale0 <- conv2_2_0
I0218 11:49:51.140280 27028 net.cpp:509] conv2_2_scale0 -> conv2_2_0 (in-place)
I0218 11:49:51.140314 27028 layer_factory.hpp:77] Creating layer conv2_2_scale0
I0218 11:49:51.140442 27028 net.cpp:172] Setting up conv2_2_scale0
I0218 11:49:51.140455 27028 net.cpp:186] Top shape: 128 16 32 72 (4718592)
I0218 11:49:51.140458 27028 net.cpp:194] Memory required for data: 378671104
I0218 11:49:51.140465 27028 layer_factory.hpp:77] Creating layer conv2_2_ReLU0
I0218 11:49:51.140471 27028 net.cpp:128] Creating Layer conv2_2_ReLU0
I0218 11:49:51.140475 27028 net.cpp:558] conv2_2_ReLU0 <- conv2_2_0
I0218 11:49:51.140480 27028 net.cpp:509] conv2_2_ReLU0 -> conv2_2_0 (in-place)
I0218 11:49:51.141999 27028 net.cpp:172] Setting up conv2_2_ReLU0
I0218 11:49:51.142015 27028 net.cpp:186] Top shape: 128 16 32 72 (4718592)
I0218 11:49:51.142020 27028 net.cpp:194] Memory required for data: 397545472
I0218 11:49:51.142040 27028 layer_factory.hpp:77] Creating layer conv2_2_1
I0218 11:49:51.142056 27028 net.cpp:128] Creating Layer conv2_2_1
I0218 11:49:51.142061 27028 net.cpp:558] conv2_2_1 <- conv2_2_0
I0218 11:49:51.142069 27028 net.cpp:522] conv2_2_1 -> conv2_2_1
I0218 11:49:51.148706 27028 net.cpp:172] Setting up conv2_2_1
I0218 11:49:51.148732 27028 net.cpp:186] Top shape: 128 16 32 72 (4718592)
I0218 11:49:51.148736 27028 net.cpp:194] Memory required for data: 416419840
I0218 11:49:51.148746 27028 layer_factory.hpp:77] Creating layer conv2_2bn1
I0218 11:49:51.148756 27028 net.cpp:128] Creating Layer conv2_2bn1
I0218 11:49:51.148761 27028 net.cpp:558] conv2_2bn1 <- conv2_2_1
I0218 11:49:51.148772 27028 net.cpp:509] conv2_2bn1 -> conv2_2_1 (in-place)
I0218 11:49:51.149005 27028 net.cpp:172] Setting up conv2_2bn1
I0218 11:49:51.149017 27028 net.cpp:186] Top shape: 128 16 32 72 (4718592)
I0218 11:49:51.149022 27028 net.cpp:194] Memory required for data: 435294208
I0218 11:49:51.149035 27028 layer_factory.hpp:77] Creating layer conv2_2_scale1
I0218 11:49:51.149042 27028 net.cpp:128] Creating Layer conv2_2_scale1
I0218 11:49:51.149046 27028 net.cpp:558] conv2_2_scale1 <- conv2_2_1
I0218 11:49:51.149051 27028 net.cpp:509] conv2_2_scale1 -> conv2_2_1 (in-place)
I0218 11:49:51.149089 27028 layer_factory.hpp:77] Creating layer conv2_2_scale1
I0218 11:49:51.149219 27028 net.cpp:172] Setting up conv2_2_scale1
I0218 11:49:51.149232 27028 net.cpp:186] Top shape: 128 16 32 72 (4718592)
I0218 11:49:51.149236 27028 net.cpp:194] Memory required for data: 454168576
I0218 11:49:51.149243 27028 layer_factory.hpp:77] Creating layer conv2_Eltwise_2
I0218 11:49:51.149250 27028 net.cpp:128] Creating Layer conv2_Eltwise_2
I0218 11:49:51.149253 27028 net.cpp:558] conv2_Eltwise_2 <- conv2_Eltwise_1_conv2_1ReLU_1_0_split_1
I0218 11:49:51.149258 27028 net.cpp:558] conv2_Eltwise_2 <- conv2_2_1
I0218 11:49:51.149267 27028 net.cpp:522] conv2_Eltwise_2 -> conv2_Eltwise_2
I0218 11:49:51.149296 27028 net.cpp:172] Setting up conv2_Eltwise_2
I0218 11:49:51.149302 27028 net.cpp:186] Top shape: 128 16 32 72 (4718592)
I0218 11:49:51.149305 27028 net.cpp:194] Memory required for data: 473042944
I0218 11:49:51.149309 27028 layer_factory.hpp:77] Creating layer conv2_2ReLU_1
I0218 11:49:51.149317 27028 net.cpp:128] Creating Layer conv2_2ReLU_1
I0218 11:49:51.149320 27028 net.cpp:558] conv2_2ReLU_1 <- conv2_Eltwise_2
I0218 11:49:51.149329 27028 net.cpp:509] conv2_2ReLU_1 -> conv2_Eltwise_2 (in-place)
I0218 11:49:51.150112 27028 net.cpp:172] Setting up conv2_2ReLU_1
I0218 11:49:51.150127 27028 net.cpp:186] Top shape: 128 16 32 72 (4718592)
I0218 11:49:51.150131 27028 net.cpp:194] Memory required for data: 491917312
I0218 11:49:51.150135 27028 layer_factory.hpp:77] Creating layer conv2_Eltwise_2_conv2_2ReLU_1_0_split
I0218 11:49:51.150146 27028 net.cpp:128] Creating Layer conv2_Eltwise_2_conv2_2ReLU_1_0_split
I0218 11:49:51.150149 27028 net.cpp:558] conv2_Eltwise_2_conv2_2ReLU_1_0_split <- conv2_Eltwise_2
I0218 11:49:51.150156 27028 net.cpp:522] conv2_Eltwise_2_conv2_2ReLU_1_0_split -> conv2_Eltwise_2_conv2_2ReLU_1_0_split_0
I0218 11:49:51.150163 27028 net.cpp:522] conv2_Eltwise_2_conv2_2ReLU_1_0_split -> conv2_Eltwise_2_conv2_2ReLU_1_0_split_1
I0218 11:49:51.150211 27028 net.cpp:172] Setting up conv2_Eltwise_2_conv2_2ReLU_1_0_split
I0218 11:49:51.150218 27028 net.cpp:186] Top shape: 128 16 32 72 (4718592)
I0218 11:49:51.150223 27028 net.cpp:186] Top shape: 128 16 32 72 (4718592)
I0218 11:49:51.150228 27028 net.cpp:194] Memory required for data: 529666048
I0218 11:49:51.150233 27028 layer_factory.hpp:77] Creating layer conv2_3_0
I0218 11:49:51.150244 27028 net.cpp:128] Creating Layer conv2_3_0
I0218 11:49:51.150249 27028 net.cpp:558] conv2_3_0 <- conv2_Eltwise_2_conv2_2ReLU_1_0_split_0
I0218 11:49:51.150257 27028 net.cpp:522] conv2_3_0 -> conv2_3_0
I0218 11:49:51.151511 27028 net.cpp:172] Setting up conv2_3_0
I0218 11:49:51.151535 27028 net.cpp:186] Top shape: 128 16 32 72 (4718592)
I0218 11:49:51.151540 27028 net.cpp:194] Memory required for data: 548540416
I0218 11:49:51.151566 27028 layer_factory.hpp:77] Creating layer conv2_3_bn0
I0218 11:49:51.151576 27028 net.cpp:128] Creating Layer conv2_3_bn0
I0218 11:49:51.151582 27028 net.cpp:558] conv2_3_bn0 <- conv2_3_0
I0218 11:49:51.151588 27028 net.cpp:509] conv2_3_bn0 -> conv2_3_0 (in-place)
I0218 11:49:51.151826 27028 net.cpp:172] Setting up conv2_3_bn0
I0218 11:49:51.151839 27028 net.cpp:186] Top shape: 128 16 32 72 (4718592)
I0218 11:49:51.151842 27028 net.cpp:194] Memory required for data: 567414784
I0218 11:49:51.151851 27028 layer_factory.hpp:77] Creating layer conv2_3_scale0
I0218 11:49:51.151859 27028 net.cpp:128] Creating Layer conv2_3_scale0
I0218 11:49:51.151862 27028 net.cpp:558] conv2_3_scale0 <- conv2_3_0
I0218 11:49:51.151867 27028 net.cpp:509] conv2_3_scale0 -> conv2_3_0 (in-place)
I0218 11:49:51.151907 27028 layer_factory.hpp:77] Creating layer conv2_3_scale0
I0218 11:49:51.152041 27028 net.cpp:172] Setting up conv2_3_scale0
I0218 11:49:51.152048 27028 net.cpp:186] Top shape: 128 16 32 72 (4718592)
I0218 11:49:51.152052 27028 net.cpp:194] Memory required for data: 586289152
I0218 11:49:51.152060 27028 layer_factory.hpp:77] Creating layer conv2_3_ReLU0
I0218 11:49:51.152068 27028 net.cpp:128] Creating Layer conv2_3_ReLU0
I0218 11:49:51.152072 27028 net.cpp:558] conv2_3_ReLU0 <- conv2_3_0
I0218 11:49:51.152077 27028 net.cpp:509] conv2_3_ReLU0 -> conv2_3_0 (in-place)
I0218 11:49:51.152535 27028 net.cpp:172] Setting up conv2_3_ReLU0
I0218 11:49:51.152559 27028 net.cpp:186] Top shape: 128 16 32 72 (4718592)
I0218 11:49:51.152565 27028 net.cpp:194] Memory required for data: 605163520
I0218 11:49:51.152570 27028 layer_factory.hpp:77] Creating layer conv2_3_1
I0218 11:49:51.152582 27028 net.cpp:128] Creating Layer conv2_3_1
I0218 11:49:51.152587 27028 net.cpp:558] conv2_3_1 <- conv2_3_0
I0218 11:49:51.152595 27028 net.cpp:522] conv2_3_1 -> conv2_3_1
I0218 11:49:51.153887 27028 net.cpp:172] Setting up conv2_3_1
I0218 11:49:51.153913 27028 net.cpp:186] Top shape: 128 16 32 72 (4718592)
I0218 11:49:51.153918 27028 net.cpp:194] Memory required for data: 624037888
I0218 11:49:51.153926 27028 layer_factory.hpp:77] Creating layer conv2_3bn1
I0218 11:49:51.153951 27028 net.cpp:128] Creating Layer conv2_3bn1
I0218 11:49:51.153959 27028 net.cpp:558] conv2_3bn1 <- conv2_3_1
I0218 11:49:51.153966 27028 net.cpp:509] conv2_3bn1 -> conv2_3_1 (in-place)
I0218 11:49:51.154201 27028 net.cpp:172] Setting up conv2_3bn1
I0218 11:49:51.154213 27028 net.cpp:186] Top shape: 128 16 32 72 (4718592)
I0218 11:49:51.154217 27028 net.cpp:194] Memory required for data: 642912256
I0218 11:49:51.154227 27028 layer_factory.hpp:77] Creating layer conv2_3_scale1
I0218 11:49:51.154233 27028 net.cpp:128] Creating Layer conv2_3_scale1
I0218 11:49:51.154237 27028 net.cpp:558] conv2_3_scale1 <- conv2_3_1
I0218 11:49:51.154248 27028 net.cpp:509] conv2_3_scale1 -> conv2_3_1 (in-place)
I0218 11:49:51.154285 27028 layer_factory.hpp:77] Creating layer conv2_3_scale1
I0218 11:49:51.154417 27028 net.cpp:172] Setting up conv2_3_scale1
I0218 11:49:51.154433 27028 net.cpp:186] Top shape: 128 16 32 72 (4718592)
I0218 11:49:51.154436 27028 net.cpp:194] Memory required for data: 661786624
I0218 11:49:51.154443 27028 layer_factory.hpp:77] Creating layer conv2_Eltwise_3
I0218 11:49:51.154450 27028 net.cpp:128] Creating Layer conv2_Eltwise_3
I0218 11:49:51.154455 27028 net.cpp:558] conv2_Eltwise_3 <- conv2_Eltwise_2_conv2_2ReLU_1_0_split_1
I0218 11:49:51.154460 27028 net.cpp:558] conv2_Eltwise_3 <- conv2_3_1
I0218 11:49:51.154466 27028 net.cpp:522] conv2_Eltwise_3 -> conv2_Eltwise_3
I0218 11:49:51.154494 27028 net.cpp:172] Setting up conv2_Eltwise_3
I0218 11:49:51.154500 27028 net.cpp:186] Top shape: 128 16 32 72 (4718592)
I0218 11:49:51.154505 27028 net.cpp:194] Memory required for data: 680660992
I0218 11:49:51.154508 27028 layer_factory.hpp:77] Creating layer conv2_3ReLU_1
I0218 11:49:51.154517 27028 net.cpp:128] Creating Layer conv2_3ReLU_1
I0218 11:49:51.154522 27028 net.cpp:558] conv2_3ReLU_1 <- conv2_Eltwise_3
I0218 11:49:51.154527 27028 net.cpp:509] conv2_3ReLU_1 -> conv2_Eltwise_3 (in-place)
I0218 11:49:51.154778 27028 net.cpp:172] Setting up conv2_3ReLU_1
I0218 11:49:51.154788 27028 net.cpp:186] Top shape: 128 16 32 72 (4718592)
I0218 11:49:51.154793 27028 net.cpp:194] Memory required for data: 699535360
I0218 11:49:51.154796 27028 layer_factory.hpp:77] Creating layer conv2_Eltwise_3_conv2_3ReLU_1_0_split
I0218 11:49:51.154805 27028 net.cpp:128] Creating Layer conv2_Eltwise_3_conv2_3ReLU_1_0_split
I0218 11:49:51.154810 27028 net.cpp:558] conv2_Eltwise_3_conv2_3ReLU_1_0_split <- conv2_Eltwise_3
I0218 11:49:51.154816 27028 net.cpp:522] conv2_Eltwise_3_conv2_3ReLU_1_0_split -> conv2_Eltwise_3_conv2_3ReLU_1_0_split_0
I0218 11:49:51.154824 27028 net.cpp:522] conv2_Eltwise_3_conv2_3ReLU_1_0_split -> conv2_Eltwise_3_conv2_3ReLU_1_0_split_1
I0218 11:49:51.154870 27028 net.cpp:172] Setting up conv2_Eltwise_3_conv2_3ReLU_1_0_split
I0218 11:49:51.154877 27028 net.cpp:186] Top shape: 128 16 32 72 (4718592)
I0218 11:49:51.154883 27028 net.cpp:186] Top shape: 128 16 32 72 (4718592)
I0218 11:49:51.154887 27028 net.cpp:194] Memory required for data: 737284096
I0218 11:49:51.154891 27028 layer_factory.hpp:77] Creating layer conv3_1_0
I0218 11:49:51.154904 27028 net.cpp:128] Creating Layer conv3_1_0
I0218 11:49:51.154908 27028 net.cpp:558] conv3_1_0 <- conv2_Eltwise_3_conv2_3ReLU_1_0_split_0
I0218 11:49:51.154916 27028 net.cpp:522] conv3_1_0 -> conv3_1_0
I0218 11:49:51.163079 27028 net.cpp:172] Setting up conv3_1_0
I0218 11:49:51.163128 27028 net.cpp:186] Top shape: 128 32 16 36 (2359296)
I0218 11:49:51.163133 27028 net.cpp:194] Memory required for data: 746721280
I0218 11:49:51.163156 27028 layer_factory.hpp:77] Creating layer conv3_1_bn0
I0218 11:49:51.163170 27028 net.cpp:128] Creating Layer conv3_1_bn0
I0218 11:49:51.163177 27028 net.cpp:558] conv3_1_bn0 <- conv3_1_0
I0218 11:49:51.163187 27028 net.cpp:509] conv3_1_bn0 -> conv3_1_0 (in-place)
I0218 11:49:51.163449 27028 net.cpp:172] Setting up conv3_1_bn0
I0218 11:49:51.163458 27028 net.cpp:186] Top shape: 128 32 16 36 (2359296)
I0218 11:49:51.163462 27028 net.cpp:194] Memory required for data: 756158464
I0218 11:49:51.163471 27028 layer_factory.hpp:77] Creating layer conv3_1_scale0
I0218 11:49:51.163480 27028 net.cpp:128] Creating Layer conv3_1_scale0
I0218 11:49:51.163484 27028 net.cpp:558] conv3_1_scale0 <- conv3_1_0
I0218 11:49:51.163492 27028 net.cpp:509] conv3_1_scale0 -> conv3_1_0 (in-place)
I0218 11:49:51.163532 27028 layer_factory.hpp:77] Creating layer conv3_1_scale0
I0218 11:49:51.163676 27028 net.cpp:172] Setting up conv3_1_scale0
I0218 11:49:51.163686 27028 net.cpp:186] Top shape: 128 32 16 36 (2359296)
I0218 11:49:51.163691 27028 net.cpp:194] Memory required for data: 765595648
I0218 11:49:51.163698 27028 layer_factory.hpp:77] Creating layer conv3_1_ReLU0
I0218 11:49:51.163707 27028 net.cpp:128] Creating Layer conv3_1_ReLU0
I0218 11:49:51.163710 27028 net.cpp:558] conv3_1_ReLU0 <- conv3_1_0
I0218 11:49:51.163718 27028 net.cpp:509] conv3_1_ReLU0 -> conv3_1_0 (in-place)
I0218 11:49:51.163957 27028 net.cpp:172] Setting up conv3_1_ReLU0
I0218 11:49:51.163970 27028 net.cpp:186] Top shape: 128 32 16 36 (2359296)
I0218 11:49:51.163975 27028 net.cpp:194] Memory required for data: 775032832
I0218 11:49:51.163980 27028 layer_factory.hpp:77] Creating layer conv3_1_1
I0218 11:49:51.163995 27028 net.cpp:128] Creating Layer conv3_1_1
I0218 11:49:51.164000 27028 net.cpp:558] conv3_1_1 <- conv3_1_0
I0218 11:49:51.164008 27028 net.cpp:522] conv3_1_1 -> conv3_1_1
I0218 11:49:51.170226 27028 net.cpp:172] Setting up conv3_1_1
I0218 11:49:51.170250 27028 net.cpp:186] Top shape: 128 32 16 36 (2359296)
I0218 11:49:51.170254 27028 net.cpp:194] Memory required for data: 784470016
I0218 11:49:51.170264 27028 layer_factory.hpp:77] Creating layer conv3_1bn1
I0218 11:49:51.170274 27028 net.cpp:128] Creating Layer conv3_1bn1
I0218 11:49:51.170280 27028 net.cpp:558] conv3_1bn1 <- conv3_1_1
I0218 11:49:51.170289 27028 net.cpp:509] conv3_1bn1 -> conv3_1_1 (in-place)
I0218 11:49:51.170536 27028 net.cpp:172] Setting up conv3_1bn1
I0218 11:49:51.170542 27028 net.cpp:186] Top shape: 128 32 16 36 (2359296)
I0218 11:49:51.170567 27028 net.cpp:194] Memory required for data: 793907200
I0218 11:49:51.170578 27028 layer_factory.hpp:77] Creating layer conv3_1_scale1
I0218 11:49:51.170588 27028 net.cpp:128] Creating Layer conv3_1_scale1
I0218 11:49:51.170593 27028 net.cpp:558] conv3_1_scale1 <- conv3_1_1
I0218 11:49:51.170599 27028 net.cpp:509] conv3_1_scale1 -> conv3_1_1 (in-place)
I0218 11:49:51.170639 27028 layer_factory.hpp:77] Creating layer conv3_1_scale1
I0218 11:49:51.170783 27028 net.cpp:172] Setting up conv3_1_scale1
I0218 11:49:51.170796 27028 net.cpp:186] Top shape: 128 32 16 36 (2359296)
I0218 11:49:51.170800 27028 net.cpp:194] Memory required for data: 803344384
I0218 11:49:51.170809 27028 layer_factory.hpp:77] Creating layer conv3_1_down
I0218 11:49:51.170823 27028 net.cpp:128] Creating Layer conv3_1_down
I0218 11:49:51.170830 27028 net.cpp:558] conv3_1_down <- conv2_Eltwise_3_conv2_3ReLU_1_0_split_1
I0218 11:49:51.170836 27028 net.cpp:522] conv3_1_down -> conv3_1_down
I0218 11:49:51.176846 27028 net.cpp:172] Setting up conv3_1_down
I0218 11:49:51.176872 27028 net.cpp:186] Top shape: 128 32 16 36 (2359296)
I0218 11:49:51.176877 27028 net.cpp:194] Memory required for data: 812781568
I0218 11:49:51.176898 27028 layer_factory.hpp:77] Creating layer conv3_1_bn_down
I0218 11:49:51.176908 27028 net.cpp:128] Creating Layer conv3_1_bn_down
I0218 11:49:51.176913 27028 net.cpp:558] conv3_1_bn_down <- conv3_1_down
I0218 11:49:51.176928 27028 net.cpp:509] conv3_1_bn_down -> conv3_1_down (in-place)
I0218 11:49:51.177165 27028 net.cpp:172] Setting up conv3_1_bn_down
I0218 11:49:51.177178 27028 net.cpp:186] Top shape: 128 32 16 36 (2359296)
I0218 11:49:51.177182 27028 net.cpp:194] Memory required for data: 822218752
I0218 11:49:51.177191 27028 layer_factory.hpp:77] Creating layer conv3_1_scale_down
I0218 11:49:51.177197 27028 net.cpp:128] Creating Layer conv3_1_scale_down
I0218 11:49:51.177201 27028 net.cpp:558] conv3_1_scale_down <- conv3_1_down
I0218 11:49:51.177209 27028 net.cpp:509] conv3_1_scale_down -> conv3_1_down (in-place)
I0218 11:49:51.177247 27028 layer_factory.hpp:77] Creating layer conv3_1_scale_down
I0218 11:49:51.177383 27028 net.cpp:172] Setting up conv3_1_scale_down
I0218 11:49:51.177390 27028 net.cpp:186] Top shape: 128 32 16 36 (2359296)
I0218 11:49:51.177394 27028 net.cpp:194] Memory required for data: 831655936
I0218 11:49:51.177402 27028 layer_factory.hpp:77] Creating layer conv3_Eltwise_1
I0218 11:49:51.177409 27028 net.cpp:128] Creating Layer conv3_Eltwise_1
I0218 11:49:51.177413 27028 net.cpp:558] conv3_Eltwise_1 <- conv3_1_1
I0218 11:49:51.177418 27028 net.cpp:558] conv3_Eltwise_1 <- conv3_1_down
I0218 11:49:51.177426 27028 net.cpp:522] conv3_Eltwise_1 -> conv3_Eltwise_1
I0218 11:49:51.177453 27028 net.cpp:172] Setting up conv3_Eltwise_1
I0218 11:49:51.177464 27028 net.cpp:186] Top shape: 128 32 16 36 (2359296)
I0218 11:49:51.177467 27028 net.cpp:194] Memory required for data: 841093120
I0218 11:49:51.177471 27028 layer_factory.hpp:77] Creating layer conv3_1ReLU_1
I0218 11:49:51.177477 27028 net.cpp:128] Creating Layer conv3_1ReLU_1
I0218 11:49:51.177482 27028 net.cpp:558] conv3_1ReLU_1 <- conv3_Eltwise_1
I0218 11:49:51.177487 27028 net.cpp:509] conv3_1ReLU_1 -> conv3_Eltwise_1 (in-place)
I0218 11:49:51.178894 27028 net.cpp:172] Setting up conv3_1ReLU_1
I0218 11:49:51.178913 27028 net.cpp:186] Top shape: 128 32 16 36 (2359296)
I0218 11:49:51.178918 27028 net.cpp:194] Memory required for data: 850530304
I0218 11:49:51.178922 27028 layer_factory.hpp:77] Creating layer conv3_Eltwise_1_conv3_1ReLU_1_0_split
I0218 11:49:51.178930 27028 net.cpp:128] Creating Layer conv3_Eltwise_1_conv3_1ReLU_1_0_split
I0218 11:49:51.178936 27028 net.cpp:558] conv3_Eltwise_1_conv3_1ReLU_1_0_split <- conv3_Eltwise_1
I0218 11:49:51.178942 27028 net.cpp:522] conv3_Eltwise_1_conv3_1ReLU_1_0_split -> conv3_Eltwise_1_conv3_1ReLU_1_0_split_0
I0218 11:49:51.178953 27028 net.cpp:522] conv3_Eltwise_1_conv3_1ReLU_1_0_split -> conv3_Eltwise_1_conv3_1ReLU_1_0_split_1
I0218 11:49:51.179002 27028 net.cpp:172] Setting up conv3_Eltwise_1_conv3_1ReLU_1_0_split
I0218 11:49:51.179023 27028 net.cpp:186] Top shape: 128 32 16 36 (2359296)
I0218 11:49:51.179029 27028 net.cpp:186] Top shape: 128 32 16 36 (2359296)
I0218 11:49:51.179033 27028 net.cpp:194] Memory required for data: 869404672
I0218 11:49:51.179038 27028 layer_factory.hpp:77] Creating layer conv3_2_0
I0218 11:49:51.179052 27028 net.cpp:128] Creating Layer conv3_2_0
I0218 11:49:51.179056 27028 net.cpp:558] conv3_2_0 <- conv3_Eltwise_1_conv3_1ReLU_1_0_split_0
I0218 11:49:51.179064 27028 net.cpp:522] conv3_2_0 -> conv3_2_0
I0218 11:49:51.183007 27028 net.cpp:172] Setting up conv3_2_0
I0218 11:49:51.183032 27028 net.cpp:186] Top shape: 128 32 16 36 (2359296)
I0218 11:49:51.183035 27028 net.cpp:194] Memory required for data: 878841856
I0218 11:49:51.183045 27028 layer_factory.hpp:77] Creating layer conv3_2_bn0
I0218 11:49:51.183055 27028 net.cpp:128] Creating Layer conv3_2_bn0
I0218 11:49:51.183060 27028 net.cpp:558] conv3_2_bn0 <- conv3_2_0
I0218 11:49:51.183069 27028 net.cpp:509] conv3_2_bn0 -> conv3_2_0 (in-place)
I0218 11:49:51.183313 27028 net.cpp:172] Setting up conv3_2_bn0
I0218 11:49:51.183323 27028 net.cpp:186] Top shape: 128 32 16 36 (2359296)
I0218 11:49:51.183327 27028 net.cpp:194] Memory required for data: 888279040
I0218 11:49:51.183336 27028 layer_factory.hpp:77] Creating layer conv3_2_scale0
I0218 11:49:51.183344 27028 net.cpp:128] Creating Layer conv3_2_scale0
I0218 11:49:51.183349 27028 net.cpp:558] conv3_2_scale0 <- conv3_2_0
I0218 11:49:51.183354 27028 net.cpp:509] conv3_2_scale0 -> conv3_2_0 (in-place)
I0218 11:49:51.183393 27028 layer_factory.hpp:77] Creating layer conv3_2_scale0
I0218 11:49:51.183542 27028 net.cpp:172] Setting up conv3_2_scale0
I0218 11:49:51.183548 27028 net.cpp:186] Top shape: 128 32 16 36 (2359296)
I0218 11:49:51.183552 27028 net.cpp:194] Memory required for data: 897716224
I0218 11:49:51.183559 27028 layer_factory.hpp:77] Creating layer conv3_2_ReLU0
I0218 11:49:51.183565 27028 net.cpp:128] Creating Layer conv3_2_ReLU0
I0218 11:49:51.183569 27028 net.cpp:558] conv3_2_ReLU0 <- conv3_2_0
I0218 11:49:51.183578 27028 net.cpp:509] conv3_2_ReLU0 -> conv3_2_0 (in-place)
I0218 11:49:51.184044 27028 net.cpp:172] Setting up conv3_2_ReLU0
I0218 11:49:51.184062 27028 net.cpp:186] Top shape: 128 32 16 36 (2359296)
I0218 11:49:51.184065 27028 net.cpp:194] Memory required for data: 907153408
I0218 11:49:51.184070 27028 layer_factory.hpp:77] Creating layer conv3_2_1
I0218 11:49:51.184087 27028 net.cpp:128] Creating Layer conv3_2_1
I0218 11:49:51.184092 27028 net.cpp:558] conv3_2_1 <- conv3_2_0
I0218 11:49:51.184103 27028 net.cpp:522] conv3_2_1 -> conv3_2_1
I0218 11:49:51.190366 27028 net.cpp:172] Setting up conv3_2_1
I0218 11:49:51.190393 27028 net.cpp:186] Top shape: 128 32 16 36 (2359296)
I0218 11:49:51.190397 27028 net.cpp:194] Memory required for data: 916590592
I0218 11:49:51.190412 27028 layer_factory.hpp:77] Creating layer conv3_2bn1
I0218 11:49:51.190424 27028 net.cpp:128] Creating Layer conv3_2bn1
I0218 11:49:51.190429 27028 net.cpp:558] conv3_2bn1 <- conv3_2_1
I0218 11:49:51.190443 27028 net.cpp:509] conv3_2bn1 -> conv3_2_1 (in-place)
I0218 11:49:51.190696 27028 net.cpp:172] Setting up conv3_2bn1
I0218 11:49:51.190702 27028 net.cpp:186] Top shape: 128 32 16 36 (2359296)
I0218 11:49:51.190706 27028 net.cpp:194] Memory required for data: 926027776
I0218 11:49:51.190714 27028 layer_factory.hpp:77] Creating layer conv3_2_scale1
I0218 11:49:51.190726 27028 net.cpp:128] Creating Layer conv3_2_scale1
I0218 11:49:51.190729 27028 net.cpp:558] conv3_2_scale1 <- conv3_2_1
I0218 11:49:51.190735 27028 net.cpp:509] conv3_2_scale1 -> conv3_2_1 (in-place)
I0218 11:49:51.190773 27028 layer_factory.hpp:77] Creating layer conv3_2_scale1
I0218 11:49:51.190920 27028 net.cpp:172] Setting up conv3_2_scale1
I0218 11:49:51.190927 27028 net.cpp:186] Top shape: 128 32 16 36 (2359296)
I0218 11:49:51.190932 27028 net.cpp:194] Memory required for data: 935464960
I0218 11:49:51.190937 27028 layer_factory.hpp:77] Creating layer conv3_Eltwise_2
I0218 11:49:51.190949 27028 net.cpp:128] Creating Layer conv3_Eltwise_2
I0218 11:49:51.190977 27028 net.cpp:558] conv3_Eltwise_2 <- conv3_Eltwise_1_conv3_1ReLU_1_0_split_1
I0218 11:49:51.190982 27028 net.cpp:558] conv3_Eltwise_2 <- conv3_2_1
I0218 11:49:51.190989 27028 net.cpp:522] conv3_Eltwise_2 -> conv3_Eltwise_2
I0218 11:49:51.191025 27028 net.cpp:172] Setting up conv3_Eltwise_2
I0218 11:49:51.191033 27028 net.cpp:186] Top shape: 128 32 16 36 (2359296)
I0218 11:49:51.191037 27028 net.cpp:194] Memory required for data: 944902144
I0218 11:49:51.191041 27028 layer_factory.hpp:77] Creating layer conv3_2ReLU_1
I0218 11:49:51.191049 27028 net.cpp:128] Creating Layer conv3_2ReLU_1
I0218 11:49:51.191053 27028 net.cpp:558] conv3_2ReLU_1 <- conv3_Eltwise_2
I0218 11:49:51.191058 27028 net.cpp:509] conv3_2ReLU_1 -> conv3_Eltwise_2 (in-place)
I0218 11:49:51.192404 27028 net.cpp:172] Setting up conv3_2ReLU_1
I0218 11:49:51.192412 27028 net.cpp:186] Top shape: 128 32 16 36 (2359296)
I0218 11:49:51.192416 27028 net.cpp:194] Memory required for data: 954339328
I0218 11:49:51.192421 27028 layer_factory.hpp:77] Creating layer conv3_Eltwise_2_conv3_2ReLU_1_0_split
I0218 11:49:51.192428 27028 net.cpp:128] Creating Layer conv3_Eltwise_2_conv3_2ReLU_1_0_split
I0218 11:49:51.192432 27028 net.cpp:558] conv3_Eltwise_2_conv3_2ReLU_1_0_split <- conv3_Eltwise_2
I0218 11:49:51.192441 27028 net.cpp:522] conv3_Eltwise_2_conv3_2ReLU_1_0_split -> conv3_Eltwise_2_conv3_2ReLU_1_0_split_0
I0218 11:49:51.192450 27028 net.cpp:522] conv3_Eltwise_2_conv3_2ReLU_1_0_split -> conv3_Eltwise_2_conv3_2ReLU_1_0_split_1
I0218 11:49:51.192499 27028 net.cpp:172] Setting up conv3_Eltwise_2_conv3_2ReLU_1_0_split
I0218 11:49:51.192507 27028 net.cpp:186] Top shape: 128 32 16 36 (2359296)
I0218 11:49:51.192512 27028 net.cpp:186] Top shape: 128 32 16 36 (2359296)
I0218 11:49:51.192517 27028 net.cpp:194] Memory required for data: 973213696
I0218 11:49:51.192520 27028 layer_factory.hpp:77] Creating layer conv3_3_0
I0218 11:49:51.192538 27028 net.cpp:128] Creating Layer conv3_3_0
I0218 11:49:51.192543 27028 net.cpp:558] conv3_3_0 <- conv3_Eltwise_2_conv3_2ReLU_1_0_split_0
I0218 11:49:51.192553 27028 net.cpp:522] conv3_3_0 -> conv3_3_0
I0218 11:49:51.199131 27028 net.cpp:172] Setting up conv3_3_0
I0218 11:49:51.199169 27028 net.cpp:186] Top shape: 128 32 16 36 (2359296)
I0218 11:49:51.199174 27028 net.cpp:194] Memory required for data: 982650880
I0218 11:49:51.199189 27028 layer_factory.hpp:77] Creating layer conv3_3_bn0
I0218 11:49:51.199203 27028 net.cpp:128] Creating Layer conv3_3_bn0
I0218 11:49:51.199208 27028 net.cpp:558] conv3_3_bn0 <- conv3_3_0
I0218 11:49:51.199219 27028 net.cpp:509] conv3_3_bn0 -> conv3_3_0 (in-place)
I0218 11:49:51.199479 27028 net.cpp:172] Setting up conv3_3_bn0
I0218 11:49:51.199489 27028 net.cpp:186] Top shape: 128 32 16 36 (2359296)
I0218 11:49:51.199493 27028 net.cpp:194] Memory required for data: 992088064
I0218 11:49:51.199502 27028 layer_factory.hpp:77] Creating layer conv3_3_scale0
I0218 11:49:51.199513 27028 net.cpp:128] Creating Layer conv3_3_scale0
I0218 11:49:51.199518 27028 net.cpp:558] conv3_3_scale0 <- conv3_3_0
I0218 11:49:51.199523 27028 net.cpp:509] conv3_3_scale0 -> conv3_3_0 (in-place)
I0218 11:49:51.199564 27028 layer_factory.hpp:77] Creating layer conv3_3_scale0
I0218 11:49:51.199714 27028 net.cpp:172] Setting up conv3_3_scale0
I0218 11:49:51.199724 27028 net.cpp:186] Top shape: 128 32 16 36 (2359296)
I0218 11:49:51.199728 27028 net.cpp:194] Memory required for data: 1001525248
I0218 11:49:51.199735 27028 layer_factory.hpp:77] Creating layer conv3_3_ReLU0
I0218 11:49:51.199745 27028 net.cpp:128] Creating Layer conv3_3_ReLU0
I0218 11:49:51.199749 27028 net.cpp:558] conv3_3_ReLU0 <- conv3_3_0
I0218 11:49:51.199755 27028 net.cpp:509] conv3_3_ReLU0 -> conv3_3_0 (in-place)
I0218 11:49:51.201161 27028 net.cpp:172] Setting up conv3_3_ReLU0
I0218 11:49:51.201179 27028 net.cpp:186] Top shape: 128 32 16 36 (2359296)
I0218 11:49:51.201182 27028 net.cpp:194] Memory required for data: 1010962432
I0218 11:49:51.201187 27028 layer_factory.hpp:77] Creating layer conv3_3_1
I0218 11:49:51.201236 27028 net.cpp:128] Creating Layer conv3_3_1
I0218 11:49:51.201241 27028 net.cpp:558] conv3_3_1 <- conv3_3_0
I0218 11:49:51.201248 27028 net.cpp:522] conv3_3_1 -> conv3_3_1
I0218 11:49:51.207851 27028 net.cpp:172] Setting up conv3_3_1
I0218 11:49:51.207880 27028 net.cpp:186] Top shape: 128 32 16 36 (2359296)
I0218 11:49:51.207885 27028 net.cpp:194] Memory required for data: 1020399616
I0218 11:49:51.207898 27028 layer_factory.hpp:77] Creating layer conv3_3bn1
I0218 11:49:51.207906 27028 net.cpp:128] Creating Layer conv3_3bn1
I0218 11:49:51.207911 27028 net.cpp:558] conv3_3bn1 <- conv3_3_1
I0218 11:49:51.207921 27028 net.cpp:509] conv3_3bn1 -> conv3_3_1 (in-place)
I0218 11:49:51.208178 27028 net.cpp:172] Setting up conv3_3bn1
I0218 11:49:51.208190 27028 net.cpp:186] Top shape: 128 32 16 36 (2359296)
I0218 11:49:51.208194 27028 net.cpp:194] Memory required for data: 1029836800
I0218 11:49:51.208204 27028 layer_factory.hpp:77] Creating layer conv3_3_scale1
I0218 11:49:51.208212 27028 net.cpp:128] Creating Layer conv3_3_scale1
I0218 11:49:51.208216 27028 net.cpp:558] conv3_3_scale1 <- conv3_3_1
I0218 11:49:51.208222 27028 net.cpp:509] conv3_3_scale1 -> conv3_3_1 (in-place)
I0218 11:49:51.208259 27028 layer_factory.hpp:77] Creating layer conv3_3_scale1
I0218 11:49:51.208400 27028 net.cpp:172] Setting up conv3_3_scale1
I0218 11:49:51.208411 27028 net.cpp:186] Top shape: 128 32 16 36 (2359296)
I0218 11:49:51.208415 27028 net.cpp:194] Memory required for data: 1039273984
I0218 11:49:51.208423 27028 layer_factory.hpp:77] Creating layer conv3_Eltwise_3
I0218 11:49:51.208433 27028 net.cpp:128] Creating Layer conv3_Eltwise_3
I0218 11:49:51.208439 27028 net.cpp:558] conv3_Eltwise_3 <- conv3_Eltwise_2_conv3_2ReLU_1_0_split_1
I0218 11:49:51.208444 27028 net.cpp:558] conv3_Eltwise_3 <- conv3_3_1
I0218 11:49:51.208451 27028 net.cpp:522] conv3_Eltwise_3 -> conv3_Eltwise_3
I0218 11:49:51.208478 27028 net.cpp:172] Setting up conv3_Eltwise_3
I0218 11:49:51.208485 27028 net.cpp:186] Top shape: 128 32 16 36 (2359296)
I0218 11:49:51.208489 27028 net.cpp:194] Memory required for data: 1048711168
I0218 11:49:51.208493 27028 layer_factory.hpp:77] Creating layer conv3_3ReLU_1
I0218 11:49:51.208500 27028 net.cpp:128] Creating Layer conv3_3ReLU_1
I0218 11:49:51.208504 27028 net.cpp:558] conv3_3ReLU_1 <- conv3_Eltwise_3
I0218 11:49:51.208513 27028 net.cpp:509] conv3_3ReLU_1 -> conv3_Eltwise_3 (in-place)
I0218 11:49:51.209899 27028 net.cpp:172] Setting up conv3_3ReLU_1
I0218 11:49:51.209925 27028 net.cpp:186] Top shape: 128 32 16 36 (2359296)
I0218 11:49:51.209929 27028 net.cpp:194] Memory required for data: 1058148352
I0218 11:49:51.209947 27028 layer_factory.hpp:77] Creating layer conv3_Eltwise_3_conv3_3ReLU_1_0_split
I0218 11:49:51.210038 27028 net.cpp:128] Creating Layer conv3_Eltwise_3_conv3_3ReLU_1_0_split
I0218 11:49:51.210043 27028 net.cpp:558] conv3_Eltwise_3_conv3_3ReLU_1_0_split <- conv3_Eltwise_3
I0218 11:49:51.210053 27028 net.cpp:522] conv3_Eltwise_3_conv3_3ReLU_1_0_split -> conv3_Eltwise_3_conv3_3ReLU_1_0_split_0
I0218 11:49:51.210062 27028 net.cpp:522] conv3_Eltwise_3_conv3_3ReLU_1_0_split -> conv3_Eltwise_3_conv3_3ReLU_1_0_split_1
I0218 11:49:51.210116 27028 net.cpp:172] Setting up conv3_Eltwise_3_conv3_3ReLU_1_0_split
I0218 11:49:51.210122 27028 net.cpp:186] Top shape: 128 32 16 36 (2359296)
I0218 11:49:51.210129 27028 net.cpp:186] Top shape: 128 32 16 36 (2359296)
I0218 11:49:51.210131 27028 net.cpp:194] Memory required for data: 1077022720
I0218 11:49:51.210135 27028 layer_factory.hpp:77] Creating layer conv4_1_0
I0218 11:49:51.210147 27028 net.cpp:128] Creating Layer conv4_1_0
I0218 11:49:51.210152 27028 net.cpp:558] conv4_1_0 <- conv3_Eltwise_3_conv3_3ReLU_1_0_split_0
I0218 11:49:51.210161 27028 net.cpp:522] conv4_1_0 -> conv4_1_0
I0218 11:49:51.216817 27028 net.cpp:172] Setting up conv4_1_0
I0218 11:49:51.216846 27028 net.cpp:186] Top shape: 128 64 8 18 (1179648)
I0218 11:49:51.216850 27028 net.cpp:194] Memory required for data: 1081741312
I0218 11:49:51.216862 27028 layer_factory.hpp:77] Creating layer conv4_1_bn0
I0218 11:49:51.216897 27028 net.cpp:128] Creating Layer conv4_1_bn0
I0218 11:49:51.216903 27028 net.cpp:558] conv4_1_bn0 <- conv4_1_0
I0218 11:49:51.216912 27028 net.cpp:509] conv4_1_bn0 -> conv4_1_0 (in-place)
I0218 11:49:51.217180 27028 net.cpp:172] Setting up conv4_1_bn0
I0218 11:49:51.217193 27028 net.cpp:186] Top shape: 128 64 8 18 (1179648)
I0218 11:49:51.217197 27028 net.cpp:194] Memory required for data: 1086459904
I0218 11:49:51.217206 27028 layer_factory.hpp:77] Creating layer conv4_1_scale0
I0218 11:49:51.217217 27028 net.cpp:128] Creating Layer conv4_1_scale0
I0218 11:49:51.217221 27028 net.cpp:558] conv4_1_scale0 <- conv4_1_0
I0218 11:49:51.217227 27028 net.cpp:509] conv4_1_scale0 -> conv4_1_0 (in-place)
I0218 11:49:51.217268 27028 layer_factory.hpp:77] Creating layer conv4_1_scale0
I0218 11:49:51.217416 27028 net.cpp:172] Setting up conv4_1_scale0
I0218 11:49:51.217427 27028 net.cpp:186] Top shape: 128 64 8 18 (1179648)
I0218 11:49:51.217432 27028 net.cpp:194] Memory required for data: 1091178496
I0218 11:49:51.217439 27028 layer_factory.hpp:77] Creating layer conv4_1_ReLU0
I0218 11:49:51.217445 27028 net.cpp:128] Creating Layer conv4_1_ReLU0
I0218 11:49:51.217449 27028 net.cpp:558] conv4_1_ReLU0 <- conv4_1_0
I0218 11:49:51.217456 27028 net.cpp:509] conv4_1_ReLU0 -> conv4_1_0 (in-place)
I0218 11:49:51.218689 27028 net.cpp:172] Setting up conv4_1_ReLU0
I0218 11:49:51.218705 27028 net.cpp:186] Top shape: 128 64 8 18 (1179648)
I0218 11:49:51.218709 27028 net.cpp:194] Memory required for data: 1095897088
I0218 11:49:51.218714 27028 layer_factory.hpp:77] Creating layer conv4_1_1
I0218 11:49:51.218730 27028 net.cpp:128] Creating Layer conv4_1_1
I0218 11:49:51.218735 27028 net.cpp:558] conv4_1_1 <- conv4_1_0
I0218 11:49:51.218746 27028 net.cpp:522] conv4_1_1 -> conv4_1_1
I0218 11:49:51.225600 27028 net.cpp:172] Setting up conv4_1_1
I0218 11:49:51.225627 27028 net.cpp:186] Top shape: 128 64 8 18 (1179648)
I0218 11:49:51.225631 27028 net.cpp:194] Memory required for data: 1100615680
I0218 11:49:51.225641 27028 layer_factory.hpp:77] Creating layer conv4_1bn1
I0218 11:49:51.225652 27028 net.cpp:128] Creating Layer conv4_1bn1
I0218 11:49:51.225657 27028 net.cpp:558] conv4_1bn1 <- conv4_1_1
I0218 11:49:51.225664 27028 net.cpp:509] conv4_1bn1 -> conv4_1_1 (in-place)
I0218 11:49:51.225929 27028 net.cpp:172] Setting up conv4_1bn1
I0218 11:49:51.225951 27028 net.cpp:186] Top shape: 128 64 8 18 (1179648)
I0218 11:49:51.225956 27028 net.cpp:194] Memory required for data: 1105334272
I0218 11:49:51.225965 27028 layer_factory.hpp:77] Creating layer conv4_1_scale1
I0218 11:49:51.225975 27028 net.cpp:128] Creating Layer conv4_1_scale1
I0218 11:49:51.225980 27028 net.cpp:558] conv4_1_scale1 <- conv4_1_1
I0218 11:49:51.225984 27028 net.cpp:509] conv4_1_scale1 -> conv4_1_1 (in-place)
I0218 11:49:51.226029 27028 layer_factory.hpp:77] Creating layer conv4_1_scale1
I0218 11:49:51.226174 27028 net.cpp:172] Setting up conv4_1_scale1
I0218 11:49:51.226182 27028 net.cpp:186] Top shape: 128 64 8 18 (1179648)
I0218 11:49:51.226186 27028 net.cpp:194] Memory required for data: 1110052864
I0218 11:49:51.226193 27028 layer_factory.hpp:77] Creating layer conv4_1_down
I0218 11:49:51.226207 27028 net.cpp:128] Creating Layer conv4_1_down
I0218 11:49:51.226212 27028 net.cpp:558] conv4_1_down <- conv3_Eltwise_3_conv3_3ReLU_1_0_split_1
I0218 11:49:51.226219 27028 net.cpp:522] conv4_1_down -> conv4_1_down
I0218 11:49:51.231983 27028 net.cpp:172] Setting up conv4_1_down
I0218 11:49:51.232012 27028 net.cpp:186] Top shape: 128 64 8 18 (1179648)
I0218 11:49:51.232015 27028 net.cpp:194] Memory required for data: 1114771456
I0218 11:49:51.232028 27028 layer_factory.hpp:77] Creating layer conv4_1_bn_down
I0218 11:49:51.232038 27028 net.cpp:128] Creating Layer conv4_1_bn_down
I0218 11:49:51.232043 27028 net.cpp:558] conv4_1_bn_down <- conv4_1_down
I0218 11:49:51.232054 27028 net.cpp:509] conv4_1_bn_down -> conv4_1_down (in-place)
I0218 11:49:51.232304 27028 net.cpp:172] Setting up conv4_1_bn_down
I0218 11:49:51.232353 27028 net.cpp:186] Top shape: 128 64 8 18 (1179648)
I0218 11:49:51.232370 27028 net.cpp:194] Memory required for data: 1119490048
I0218 11:49:51.232381 27028 layer_factory.hpp:77] Creating layer conv4_1_scale_down
I0218 11:49:51.232389 27028 net.cpp:128] Creating Layer conv4_1_scale_down
I0218 11:49:51.232393 27028 net.cpp:558] conv4_1_scale_down <- conv4_1_down
I0218 11:49:51.232401 27028 net.cpp:509] conv4_1_scale_down -> conv4_1_down (in-place)
I0218 11:49:51.232451 27028 layer_factory.hpp:77] Creating layer conv4_1_scale_down
I0218 11:49:51.232601 27028 net.cpp:172] Setting up conv4_1_scale_down
I0218 11:49:51.232609 27028 net.cpp:186] Top shape: 128 64 8 18 (1179648)
I0218 11:49:51.232612 27028 net.cpp:194] Memory required for data: 1124208640
I0218 11:49:51.232620 27028 layer_factory.hpp:77] Creating layer conv4_Eltwise_1
I0218 11:49:51.232626 27028 net.cpp:128] Creating Layer conv4_Eltwise_1
I0218 11:49:51.232630 27028 net.cpp:558] conv4_Eltwise_1 <- conv4_1_1
I0218 11:49:51.232635 27028 net.cpp:558] conv4_Eltwise_1 <- conv4_1_down
I0218 11:49:51.232645 27028 net.cpp:522] conv4_Eltwise_1 -> conv4_Eltwise_1
I0218 11:49:51.232672 27028 net.cpp:172] Setting up conv4_Eltwise_1
I0218 11:49:51.232679 27028 net.cpp:186] Top shape: 128 64 8 18 (1179648)
I0218 11:49:51.232683 27028 net.cpp:194] Memory required for data: 1128927232
I0218 11:49:51.232686 27028 layer_factory.hpp:77] Creating layer conv4_1ReLU_1
I0218 11:49:51.232692 27028 net.cpp:128] Creating Layer conv4_1ReLU_1
I0218 11:49:51.232697 27028 net.cpp:558] conv4_1ReLU_1 <- conv4_Eltwise_1
I0218 11:49:51.232702 27028 net.cpp:509] conv4_1ReLU_1 -> conv4_Eltwise_1 (in-place)
I0218 11:49:51.234025 27028 net.cpp:172] Setting up conv4_1ReLU_1
I0218 11:49:51.234035 27028 net.cpp:186] Top shape: 128 64 8 18 (1179648)
I0218 11:49:51.234040 27028 net.cpp:194] Memory required for data: 1133645824
I0218 11:49:51.234043 27028 layer_factory.hpp:77] Creating layer conv4_Eltwise_1_conv4_1ReLU_1_0_split
I0218 11:49:51.234051 27028 net.cpp:128] Creating Layer conv4_Eltwise_1_conv4_1ReLU_1_0_split
I0218 11:49:51.234056 27028 net.cpp:558] conv4_Eltwise_1_conv4_1ReLU_1_0_split <- conv4_Eltwise_1
I0218 11:49:51.234064 27028 net.cpp:522] conv4_Eltwise_1_conv4_1ReLU_1_0_split -> conv4_Eltwise_1_conv4_1ReLU_1_0_split_0
I0218 11:49:51.234072 27028 net.cpp:522] conv4_Eltwise_1_conv4_1ReLU_1_0_split -> conv4_Eltwise_1_conv4_1ReLU_1_0_split_1
I0218 11:49:51.234123 27028 net.cpp:172] Setting up conv4_Eltwise_1_conv4_1ReLU_1_0_split
I0218 11:49:51.234130 27028 net.cpp:186] Top shape: 128 64 8 18 (1179648)
I0218 11:49:51.234135 27028 net.cpp:186] Top shape: 128 64 8 18 (1179648)
I0218 11:49:51.234139 27028 net.cpp:194] Memory required for data: 1143083008
I0218 11:49:51.234143 27028 layer_factory.hpp:77] Creating layer conv4_2_0
I0218 11:49:51.234158 27028 net.cpp:128] Creating Layer conv4_2_0
I0218 11:49:51.234163 27028 net.cpp:558] conv4_2_0 <- conv4_Eltwise_1_conv4_1ReLU_1_0_split_0
I0218 11:49:51.234172 27028 net.cpp:522] conv4_2_0 -> conv4_2_0
I0218 11:49:51.240756 27028 net.cpp:172] Setting up conv4_2_0
I0218 11:49:51.240782 27028 net.cpp:186] Top shape: 128 64 8 18 (1179648)
I0218 11:49:51.240785 27028 net.cpp:194] Memory required for data: 1147801600
I0218 11:49:51.240799 27028 layer_factory.hpp:77] Creating layer conv4_2_bn0
I0218 11:49:51.240810 27028 net.cpp:128] Creating Layer conv4_2_bn0
I0218 11:49:51.240815 27028 net.cpp:558] conv4_2_bn0 <- conv4_2_0
I0218 11:49:51.240824 27028 net.cpp:509] conv4_2_bn0 -> conv4_2_0 (in-place)
I0218 11:49:51.241070 27028 net.cpp:172] Setting up conv4_2_bn0
I0218 11:49:51.241080 27028 net.cpp:186] Top shape: 128 64 8 18 (1179648)
I0218 11:49:51.241084 27028 net.cpp:194] Memory required for data: 1152520192
I0218 11:49:51.241092 27028 layer_factory.hpp:77] Creating layer conv4_2_scale0
I0218 11:49:51.241099 27028 net.cpp:128] Creating Layer conv4_2_scale0
I0218 11:49:51.241104 27028 net.cpp:558] conv4_2_scale0 <- conv4_2_0
I0218 11:49:51.241109 27028 net.cpp:509] conv4_2_scale0 -> conv4_2_0 (in-place)
I0218 11:49:51.241153 27028 layer_factory.hpp:77] Creating layer conv4_2_scale0
I0218 11:49:51.241317 27028 net.cpp:172] Setting up conv4_2_scale0
I0218 11:49:51.241328 27028 net.cpp:186] Top shape: 128 64 8 18 (1179648)
I0218 11:49:51.241331 27028 net.cpp:194] Memory required for data: 1157238784
I0218 11:49:51.241338 27028 layer_factory.hpp:77] Creating layer conv4_2_ReLU0
I0218 11:49:51.241348 27028 net.cpp:128] Creating Layer conv4_2_ReLU0
I0218 11:49:51.241353 27028 net.cpp:558] conv4_2_ReLU0 <- conv4_2_0
I0218 11:49:51.241360 27028 net.cpp:509] conv4_2_ReLU0 -> conv4_2_0 (in-place)
I0218 11:49:51.242836 27028 net.cpp:172] Setting up conv4_2_ReLU0
I0218 11:49:51.242861 27028 net.cpp:186] Top shape: 128 64 8 18 (1179648)
I0218 11:49:51.242866 27028 net.cpp:194] Memory required for data: 1161957376
I0218 11:49:51.242871 27028 layer_factory.hpp:77] Creating layer conv4_2_1
I0218 11:49:51.242892 27028 net.cpp:128] Creating Layer conv4_2_1
I0218 11:49:51.242908 27028 net.cpp:558] conv4_2_1 <- conv4_2_0
I0218 11:49:51.242918 27028 net.cpp:522] conv4_2_1 -> conv4_2_1
I0218 11:49:51.249763 27028 net.cpp:172] Setting up conv4_2_1
I0218 11:49:51.249788 27028 net.cpp:186] Top shape: 128 64 8 18 (1179648)
I0218 11:49:51.249794 27028 net.cpp:194] Memory required for data: 1166675968
I0218 11:49:51.249806 27028 layer_factory.hpp:77] Creating layer conv4_2bn1
I0218 11:49:51.249817 27028 net.cpp:128] Creating Layer conv4_2bn1
I0218 11:49:51.249828 27028 net.cpp:558] conv4_2bn1 <- conv4_2_1
I0218 11:49:51.249837 27028 net.cpp:509] conv4_2bn1 -> conv4_2_1 (in-place)
I0218 11:49:51.250119 27028 net.cpp:172] Setting up conv4_2bn1
I0218 11:49:51.250131 27028 net.cpp:186] Top shape: 128 64 8 18 (1179648)
I0218 11:49:51.250135 27028 net.cpp:194] Memory required for data: 1171394560
I0218 11:49:51.250156 27028 layer_factory.hpp:77] Creating layer conv4_2_scale1
I0218 11:49:51.250169 27028 net.cpp:128] Creating Layer conv4_2_scale1
I0218 11:49:51.250174 27028 net.cpp:558] conv4_2_scale1 <- conv4_2_1
I0218 11:49:51.250180 27028 net.cpp:509] conv4_2_scale1 -> conv4_2_1 (in-place)
I0218 11:49:51.250224 27028 layer_factory.hpp:77] Creating layer conv4_2_scale1
I0218 11:49:51.250370 27028 net.cpp:172] Setting up conv4_2_scale1
I0218 11:49:51.250380 27028 net.cpp:186] Top shape: 128 64 8 18 (1179648)
I0218 11:49:51.250383 27028 net.cpp:194] Memory required for data: 1176113152
I0218 11:49:51.250391 27028 layer_factory.hpp:77] Creating layer conv4_Eltwise_2
I0218 11:49:51.250399 27028 net.cpp:128] Creating Layer conv4_Eltwise_2
I0218 11:49:51.250406 27028 net.cpp:558] conv4_Eltwise_2 <- conv4_Eltwise_1_conv4_1ReLU_1_0_split_1
I0218 11:49:51.250412 27028 net.cpp:558] conv4_Eltwise_2 <- conv4_2_1
I0218 11:49:51.250422 27028 net.cpp:522] conv4_Eltwise_2 -> conv4_Eltwise_2
I0218 11:49:51.250454 27028 net.cpp:172] Setting up conv4_Eltwise_2
I0218 11:49:51.250461 27028 net.cpp:186] Top shape: 128 64 8 18 (1179648)
I0218 11:49:51.250465 27028 net.cpp:194] Memory required for data: 1180831744
I0218 11:49:51.250469 27028 layer_factory.hpp:77] Creating layer conv4_2ReLU_1
I0218 11:49:51.250478 27028 net.cpp:128] Creating Layer conv4_2ReLU_1
I0218 11:49:51.250481 27028 net.cpp:558] conv4_2ReLU_1 <- conv4_Eltwise_2
I0218 11:49:51.250488 27028 net.cpp:509] conv4_2ReLU_1 -> conv4_Eltwise_2 (in-place)
I0218 11:49:51.251616 27028 net.cpp:172] Setting up conv4_2ReLU_1
I0218 11:49:51.251631 27028 net.cpp:186] Top shape: 128 64 8 18 (1179648)
I0218 11:49:51.251634 27028 net.cpp:194] Memory required for data: 1185550336
I0218 11:49:51.251639 27028 layer_factory.hpp:77] Creating layer conv4_Eltwise_2_conv4_2ReLU_1_0_split
I0218 11:49:51.251651 27028 net.cpp:128] Creating Layer conv4_Eltwise_2_conv4_2ReLU_1_0_split
I0218 11:49:51.251655 27028 net.cpp:558] conv4_Eltwise_2_conv4_2ReLU_1_0_split <- conv4_Eltwise_2
I0218 11:49:51.251664 27028 net.cpp:522] conv4_Eltwise_2_conv4_2ReLU_1_0_split -> conv4_Eltwise_2_conv4_2ReLU_1_0_split_0
I0218 11:49:51.251672 27028 net.cpp:522] conv4_Eltwise_2_conv4_2ReLU_1_0_split -> conv4_Eltwise_2_conv4_2ReLU_1_0_split_1
I0218 11:49:51.251724 27028 net.cpp:172] Setting up conv4_Eltwise_2_conv4_2ReLU_1_0_split
I0218 11:49:51.251749 27028 net.cpp:186] Top shape: 128 64 8 18 (1179648)
I0218 11:49:51.251754 27028 net.cpp:186] Top shape: 128 64 8 18 (1179648)
I0218 11:49:51.251758 27028 net.cpp:194] Memory required for data: 1194987520
I0218 11:49:51.251762 27028 layer_factory.hpp:77] Creating layer conv4_3_0
I0218 11:49:51.251775 27028 net.cpp:128] Creating Layer conv4_3_0
I0218 11:49:51.251780 27028 net.cpp:558] conv4_3_0 <- conv4_Eltwise_2_conv4_2ReLU_1_0_split_0
I0218 11:49:51.251786 27028 net.cpp:522] conv4_3_0 -> conv4_3_0
I0218 11:49:51.258342 27028 net.cpp:172] Setting up conv4_3_0
I0218 11:49:51.258368 27028 net.cpp:186] Top shape: 128 64 8 18 (1179648)
I0218 11:49:51.258373 27028 net.cpp:194] Memory required for data: 1199706112
I0218 11:49:51.258381 27028 layer_factory.hpp:77] Creating layer conv4_3_bn0
I0218 11:49:51.258395 27028 net.cpp:128] Creating Layer conv4_3_bn0
I0218 11:49:51.258401 27028 net.cpp:558] conv4_3_bn0 <- conv4_3_0
I0218 11:49:51.258414 27028 net.cpp:509] conv4_3_bn0 -> conv4_3_0 (in-place)
I0218 11:49:51.258666 27028 net.cpp:172] Setting up conv4_3_bn0
I0218 11:49:51.258678 27028 net.cpp:186] Top shape: 128 64 8 18 (1179648)
I0218 11:49:51.258682 27028 net.cpp:194] Memory required for data: 1204424704
I0218 11:49:51.258690 27028 layer_factory.hpp:77] Creating layer conv4_3_scale0
I0218 11:49:51.258697 27028 net.cpp:128] Creating Layer conv4_3_scale0
I0218 11:49:51.258702 27028 net.cpp:558] conv4_3_scale0 <- conv4_3_0
I0218 11:49:51.258709 27028 net.cpp:509] conv4_3_scale0 -> conv4_3_0 (in-place)
I0218 11:49:51.258749 27028 layer_factory.hpp:77] Creating layer conv4_3_scale0
I0218 11:49:51.258893 27028 net.cpp:172] Setting up conv4_3_scale0
I0218 11:49:51.258903 27028 net.cpp:186] Top shape: 128 64 8 18 (1179648)
I0218 11:49:51.258908 27028 net.cpp:194] Memory required for data: 1209143296
I0218 11:49:51.258914 27028 layer_factory.hpp:77] Creating layer conv4_3_ReLU0
I0218 11:49:51.258920 27028 net.cpp:128] Creating Layer conv4_3_ReLU0
I0218 11:49:51.258924 27028 net.cpp:558] conv4_3_ReLU0 <- conv4_3_0
I0218 11:49:51.258931 27028 net.cpp:509] conv4_3_ReLU0 -> conv4_3_0 (in-place)
I0218 11:49:51.260411 27028 net.cpp:172] Setting up conv4_3_ReLU0
I0218 11:49:51.260428 27028 net.cpp:186] Top shape: 128 64 8 18 (1179648)
I0218 11:49:51.260433 27028 net.cpp:194] Memory required for data: 1213861888
I0218 11:49:51.260438 27028 layer_factory.hpp:77] Creating layer conv4_3_1
I0218 11:49:51.260458 27028 net.cpp:128] Creating Layer conv4_3_1
I0218 11:49:51.260463 27028 net.cpp:558] conv4_3_1 <- conv4_3_0
I0218 11:49:51.260474 27028 net.cpp:522] conv4_3_1 -> conv4_3_1
I0218 11:49:51.266399 27028 net.cpp:172] Setting up conv4_3_1
I0218 11:49:51.266425 27028 net.cpp:186] Top shape: 128 64 8 18 (1179648)
I0218 11:49:51.266429 27028 net.cpp:194] Memory required for data: 1218580480
I0218 11:49:51.266443 27028 layer_factory.hpp:77] Creating layer conv4_3bn1
I0218 11:49:51.266453 27028 net.cpp:128] Creating Layer conv4_3bn1
I0218 11:49:51.266458 27028 net.cpp:558] conv4_3bn1 <- conv4_3_1
I0218 11:49:51.266465 27028 net.cpp:509] conv4_3bn1 -> conv4_3_1 (in-place)
I0218 11:49:51.266724 27028 net.cpp:172] Setting up conv4_3bn1
I0218 11:49:51.266734 27028 net.cpp:186] Top shape: 128 64 8 18 (1179648)
I0218 11:49:51.266738 27028 net.cpp:194] Memory required for data: 1223299072
I0218 11:49:51.266746 27028 layer_factory.hpp:77] Creating layer conv4_3_scale1
I0218 11:49:51.266753 27028 net.cpp:128] Creating Layer conv4_3_scale1
I0218 11:49:51.266757 27028 net.cpp:558] conv4_3_scale1 <- conv4_3_1
I0218 11:49:51.266762 27028 net.cpp:509] conv4_3_scale1 -> conv4_3_1 (in-place)
I0218 11:49:51.266806 27028 layer_factory.hpp:77] Creating layer conv4_3_scale1
I0218 11:49:51.266953 27028 net.cpp:172] Setting up conv4_3_scale1
I0218 11:49:51.266965 27028 net.cpp:186] Top shape: 128 64 8 18 (1179648)
I0218 11:49:51.266979 27028 net.cpp:194] Memory required for data: 1228017664
I0218 11:49:51.266985 27028 layer_factory.hpp:77] Creating layer conv4_Eltwise_3
I0218 11:49:51.266993 27028 net.cpp:128] Creating Layer conv4_Eltwise_3
I0218 11:49:51.266996 27028 net.cpp:558] conv4_Eltwise_3 <- conv4_Eltwise_2_conv4_2ReLU_1_0_split_1
I0218 11:49:51.267016 27028 net.cpp:558] conv4_Eltwise_3 <- conv4_3_1
I0218 11:49:51.267024 27028 net.cpp:522] conv4_Eltwise_3 -> conv4_Eltwise_3
I0218 11:49:51.267052 27028 net.cpp:172] Setting up conv4_Eltwise_3
I0218 11:49:51.267061 27028 net.cpp:186] Top shape: 128 64 8 18 (1179648)
I0218 11:49:51.267066 27028 net.cpp:194] Memory required for data: 1232736256
I0218 11:49:51.267069 27028 layer_factory.hpp:77] Creating layer conv4_3ReLU_1
I0218 11:49:51.267078 27028 net.cpp:128] Creating Layer conv4_3ReLU_1
I0218 11:49:51.267082 27028 net.cpp:558] conv4_3ReLU_1 <- conv4_Eltwise_3
I0218 11:49:51.267087 27028 net.cpp:509] conv4_3ReLU_1 -> conv4_Eltwise_3 (in-place)
I0218 11:49:51.267323 27028 net.cpp:172] Setting up conv4_3ReLU_1
I0218 11:49:51.267335 27028 net.cpp:186] Top shape: 128 64 8 18 (1179648)
I0218 11:49:51.267339 27028 net.cpp:194] Memory required for data: 1237454848
I0218 11:49:51.267343 27028 layer_factory.hpp:77] Creating layer Pooling1
I0218 11:49:51.267354 27028 net.cpp:128] Creating Layer Pooling1
I0218 11:49:51.267361 27028 net.cpp:558] Pooling1 <- conv4_Eltwise_3
I0218 11:49:51.267369 27028 net.cpp:522] Pooling1 -> Pooling1
I0218 11:49:51.267916 27028 net.cpp:172] Setting up Pooling1
I0218 11:49:51.267940 27028 net.cpp:186] Top shape: 128 64 1 1 (8192)
I0218 11:49:51.267943 27028 net.cpp:194] Memory required for data: 1237487616
I0218 11:49:51.267948 27028 layer_factory.hpp:77] Creating layer Pooling1_Pooling1_0_split
I0218 11:49:51.267958 27028 net.cpp:128] Creating Layer Pooling1_Pooling1_0_split
I0218 11:49:51.267963 27028 net.cpp:558] Pooling1_Pooling1_0_split <- Pooling1
I0218 11:49:51.267971 27028 net.cpp:522] Pooling1_Pooling1_0_split -> Pooling1_Pooling1_0_split_0
I0218 11:49:51.267982 27028 net.cpp:522] Pooling1_Pooling1_0_split -> Pooling1_Pooling1_0_split_1
I0218 11:49:51.267989 27028 net.cpp:522] Pooling1_Pooling1_0_split -> Pooling1_Pooling1_0_split_2
I0218 11:49:51.267997 27028 net.cpp:522] Pooling1_Pooling1_0_split -> Pooling1_Pooling1_0_split_3
I0218 11:49:51.268079 27028 net.cpp:172] Setting up Pooling1_Pooling1_0_split
I0218 11:49:51.268088 27028 net.cpp:186] Top shape: 128 64 1 1 (8192)
I0218 11:49:51.268095 27028 net.cpp:186] Top shape: 128 64 1 1 (8192)
I0218 11:49:51.268100 27028 net.cpp:186] Top shape: 128 64 1 1 (8192)
I0218 11:49:51.268105 27028 net.cpp:186] Top shape: 128 64 1 1 (8192)
I0218 11:49:51.268107 27028 net.cpp:194] Memory required for data: 1237618688
I0218 11:49:51.268111 27028 layer_factory.hpp:77] Creating layer fc1
I0218 11:49:51.268126 27028 net.cpp:128] Creating Layer fc1
I0218 11:49:51.268129 27028 net.cpp:558] fc1 <- Pooling1_Pooling1_0_split_0
I0218 11:49:51.268136 27028 net.cpp:522] fc1 -> fc1
I0218 11:49:51.269531 27028 net.cpp:172] Setting up fc1
I0218 11:49:51.269553 27028 net.cpp:186] Top shape: 128 62 1 1 (7936)
I0218 11:49:51.269557 27028 net.cpp:194] Memory required for data: 1237650432
I0218 11:49:51.269567 27028 layer_factory.hpp:77] Creating layer Softmax1
I0218 11:49:51.269575 27028 net.cpp:128] Creating Layer Softmax1
I0218 11:49:51.269580 27028 net.cpp:558] Softmax1 <- fc1
I0218 11:49:51.269587 27028 net.cpp:558] Softmax1 <- label_1
I0218 11:49:51.269599 27028 net.cpp:522] Softmax1 -> Softmax1
I0218 11:49:51.269613 27028 layer_factory.hpp:77] Creating layer Softmax1
I0218 11:49:51.270009 27028 net.cpp:172] Setting up Softmax1
I0218 11:49:51.270025 27028 net.cpp:186] Top shape: (1)
I0218 11:49:51.270030 27028 net.cpp:189]     with loss weight 1
I0218 11:49:51.270058 27028 net.cpp:194] Memory required for data: 1237650436
I0218 11:49:51.270062 27028 layer_factory.hpp:77] Creating layer fc2
I0218 11:49:51.270078 27028 net.cpp:128] Creating Layer fc2
I0218 11:49:51.270083 27028 net.cpp:558] fc2 <- Pooling1_Pooling1_0_split_1
I0218 11:49:51.270095 27028 net.cpp:522] fc2 -> fc2
I0218 11:49:51.273207 27028 net.cpp:172] Setting up fc2
I0218 11:49:51.273234 27028 net.cpp:186] Top shape: 128 62 1 1 (7936)
I0218 11:49:51.273238 27028 net.cpp:194] Memory required for data: 1237682180
I0218 11:49:51.273267 27028 layer_factory.hpp:77] Creating layer Softmax2
I0218 11:49:51.273274 27028 net.cpp:128] Creating Layer Softmax2
I0218 11:49:51.273278 27028 net.cpp:558] Softmax2 <- fc2
I0218 11:49:51.273284 27028 net.cpp:558] Softmax2 <- label_2
I0218 11:49:51.273294 27028 net.cpp:522] Softmax2 -> Softmax2
I0218 11:49:51.273303 27028 layer_factory.hpp:77] Creating layer Softmax2
I0218 11:49:51.275398 27028 net.cpp:172] Setting up Softmax2
I0218 11:49:51.275420 27028 net.cpp:186] Top shape: (1)
I0218 11:49:51.275424 27028 net.cpp:189]     with loss weight 1
I0218 11:49:51.275432 27028 net.cpp:194] Memory required for data: 1237682184
I0218 11:49:51.275439 27028 layer_factory.hpp:77] Creating layer fc3
I0218 11:49:51.275456 27028 net.cpp:128] Creating Layer fc3
I0218 11:49:51.275461 27028 net.cpp:558] fc3 <- Pooling1_Pooling1_0_split_2
I0218 11:49:51.275475 27028 net.cpp:522] fc3 -> fc3
I0218 11:49:51.282050 27028 net.cpp:172] Setting up fc3
I0218 11:49:51.282078 27028 net.cpp:186] Top shape: 128 62 1 1 (7936)
I0218 11:49:51.282083 27028 net.cpp:194] Memory required for data: 1237713928
I0218 11:49:51.282091 27028 layer_factory.hpp:77] Creating layer Softmax3
I0218 11:49:51.282099 27028 net.cpp:128] Creating Layer Softmax3
I0218 11:49:51.282104 27028 net.cpp:558] Softmax3 <- fc3
I0218 11:49:51.282110 27028 net.cpp:558] Softmax3 <- label_3
I0218 11:49:51.282119 27028 net.cpp:522] Softmax3 -> Softmax3
I0218 11:49:51.282137 27028 layer_factory.hpp:77] Creating layer Softmax3
I0218 11:49:51.284236 27028 net.cpp:172] Setting up Softmax3
I0218 11:49:51.284260 27028 net.cpp:186] Top shape: (1)
I0218 11:49:51.284265 27028 net.cpp:189]     with loss weight 1
I0218 11:49:51.284273 27028 net.cpp:194] Memory required for data: 1237713932
I0218 11:49:51.284281 27028 layer_factory.hpp:77] Creating layer fc4
I0218 11:49:51.284294 27028 net.cpp:128] Creating Layer fc4
I0218 11:49:51.284303 27028 net.cpp:558] fc4 <- Pooling1_Pooling1_0_split_3
I0218 11:49:51.284314 27028 net.cpp:522] fc4 -> fc4
I0218 11:49:51.290779 27028 net.cpp:172] Setting up fc4
I0218 11:49:51.290807 27028 net.cpp:186] Top shape: 128 62 1 1 (7936)
I0218 11:49:51.290812 27028 net.cpp:194] Memory required for data: 1237745676
I0218 11:49:51.290823 27028 layer_factory.hpp:77] Creating layer Softmax4
I0218 11:49:51.290832 27028 net.cpp:128] Creating Layer Softmax4
I0218 11:49:51.290836 27028 net.cpp:558] Softmax4 <- fc4
I0218 11:49:51.290843 27028 net.cpp:558] Softmax4 <- label_4
I0218 11:49:51.290848 27028 net.cpp:522] Softmax4 -> Softmax4
…
I0218 11:49:51.294895 27028 upgrade_proto.cpp:79] Attempting to upgrade batch norm layers using deprecated params: ./test_ResNet_20.prototxt
I0218 11:49:51.294911 27028 upgrade_proto.cpp:82] Successfully upgraded batch norm layers using deprecated params.
I0218 11:49:51.294921 27028 solver.cpp:277] Creating test net (#0) specified by test_net file: ./test_ResNet_20.prototxt
I0218 11:49:51.295675 27028 net.cpp:82] Initializing net from parameters: 
name: "ResNet-20"
state {
  phase: TEST
}
layer {
  name: "data1"
  type: "HDF5Data"
  top: "data"
  top: "labels"
  include {
    phase: TEST
  }
  hdf5_data_param {
    source: "./test_h5.txt"
    batch_size: 10
  }
}
layer {
  name: "slicers"
  type: "Slice"
  bottom: "labels"
  top: "label_1"
  top: "label_2"
  top: "label_3"
  top: "label_4"
  slice_param {
    slice_point: 1
    slice_point: 2
    slice_point: 3
    axis: 1
  }
}
layer {
  name: "conv1"
  type: "Convolution"
  bottom: "data"
  top: "conv1"
  param {
    lr_mult: 1
    decay_mult: 1
  }
  param {
    lr_mult: 2
    decay_mult: 0
  }
  convolution_param {
    num_output: 16
    bias_term: true
    pad: 1
    kernel_size: 3
    stride: 1
    weight_filler {
      type: "msra"
    }
    bias_filler {
      type: "constant"
      value: 0
    }
  }
}
layer {
  name: "conv1/bn"
  type: "BatchNorm"
  bottom: "conv1"
  top: "conv1"
  param {
    lr_mult: 0
    decay_mult: 0
  }
  param {
    lr_mult: 0
    decay_mult: 0
  }
  param {
    lr_mult: 0
    decay_mult: 0
  }
  batch_norm_param {
    use_global_stats: true
  }
}
layer {
  name: "conv1/scale"
  type: "Scale"
  bottom: "conv1"
  top: "conv1"
  scale_param {
    bias_term: true
  }
}
layer {
  name: "conv1/ReLU"
  type: "ReLU"
  bottom: "conv1"
  top: "conv1"
}
layer {
  name: "conv2_1_0"
  type: "Convolution"
  bottom: "conv1"
  top: "conv2_1_0"
  param {
    lr_mult: 1
    decay_mult: 1
  }
  param {
    lr_mult: 2
    decay_mult: 0
  }
  convolution_param {
    num_output: 16
    bias_term: true
    pad: 1
    kernel_size: 3
    stride: 1
    weight_filler {
      type: "msra"
    }
    bias_filler {
      type: "constant"
      value: 0
    }
  }
}
layer {
  name: "conv2_1_bn0"
  type: "BatchNorm"
  bottom: "conv2_1_0"
  top: "conv2_1_0"
  param {
    lr_mult: 0
    decay_mult: 0
  }
  param {
    lr_mult: 0
    decay_mult: 0
  }
  param {
    lr_mult: 0
    decay_mult: 0
  }
  batch_norm_param {
    use_global_stats: true
  }
}
layer {
  name: "conv2_1_scale0"
  type: "Scale"
  bottom: "conv2_1_0"
  top: "conv2_1_0"
  scale_param {
    bias_term: true
  }
}
layer {
  name: "conv2_1_ReLU0"
  type: "ReLU"
  bottom: "conv2_1_0"
  top: "conv2_1_0"
}
layer {
  name: "conv2_1_1"
  type: "Convolution"
  bottom: "conv2_1_0"
  top: "conv2_1_1"
  param {
    lr_mult: 1
    decay_mult: 1
  }
  param {
    lr_mult: 2
    decay_mult: 0
  }
  convolution_param {
    num_output: 16
    bias_term: true
    pad: 1
    kernel_size: 3
    stride: 1
    weight_filler {
      type: "msra"
    }
    bias_filler {
      type: "constant"
      value: 0
    }
  }
}
layer {
  name: "conv2_1bn1"
  type: "BatchNorm"
  bottom: "conv2_1_1"
  top: "conv2_1_1"
  param {
    lr_mult: 0
    decay_mult: 0
  }
  param {
    lr_mult: 0
    decay_mult: 0
  }
  param {
    lr_mult: 0
    decay_mult: 0
  }
  batch_norm_param {
    use_global_stats: true
  }
}
layer {
  name: "conv2_1_scale1"
  type: "Scale"
  bottom: "conv2_1_1"
  top: "conv2_1_1"
  scale_param {
    bias_term: true
  }
}
layer {
  name: "conv2_Eltwise_1"
  type: "Eltwise"
  bottom: "conv1"
  bottom: "conv2_1_1"
  top: "conv2_Eltwise_1"
  eltwise_param {
    operation: SUM
  }
}
layer {
  name: "conv2_1ReLU_1"
  type: "ReLU"
  bottom: "conv2_Eltwise_1"
  top: "conv2_Eltwise_1"
}
layer {
  name: "conv2_2_0"
  type: "Convolution"
  bottom: "conv2_Eltwise_1"
  top: "conv2_2_0"
  param {
    lr_mult: 1
    decay_mult: 1
  }
  param {
    lr_mult: 2
    decay_mult: 0
  }
  convolution_param {
    num_output: 16
    bias_term: true
    pad: 1
    kernel_size: 3
    stride: 1
    weight_filler {
      type: "msra"
    }
    bias_filler {
      type: "constant"
      value: 0
    }
  }
}
layer {
  name: "conv2_2_bn0"
  type: "BatchNorm"
  bottom: "conv2_2_0"
  top: "conv2_2_0"
  param {
    lr_mult: 0
    decay_mult: 0
  }
  param {
    lr_mult: 0
    decay_mult: 0
  }
  param {
    lr_mult: 0
    decay_mult: 0
  }
  batch_norm_param {
    use_global_stats: true
  }
}
layer {
  name: "conv2_2_scale0"
  type: "Scale"
  bottom: "conv2_2_0"
  top: "conv2_2_0"
  scale_param {
    bias_term: true
  }
}
layer {
  name: "conv2_2_ReLU0"
  type: "ReLU"
  bottom: "conv2_2_0"
  top: "conv2_2_0"
}
layer {
  name: "conv2_2_1"
  type: "Convolution"
  bottom: "conv2_2_0"
  top: "conv2_2_1"
  param {
    lr_mult: 1
    decay_mult: 1
  }
  param {
    lr_mult: 2
    decay_mult: 0
  }
  convolution_param {
    num_output: 16
    bias_term: true
    pad: 1
    kernel_size: 3
    stride: 1
    weight_filler {
      type: "msra"
    }
    bias_filler {
      type: "constant"
      value: 0
    }
  }
}
layer {
  name: "conv2_2bn1"
  type: "BatchNorm"
  bottom: "conv2_2_1"
  top: "conv2_2_1"
  param {
    lr_mult: 0
    decay_mult: 0
  }
  param {
    lr_mult: 0
    decay_mult: 0
  }
  param {
    lr_mult: 0
    decay_mult: 0
  }
  batch_norm_param {
    use_global_stats: true
  }
}
layer {
  name: "conv2_2_scale1"
  type: "Scale"
  bottom: "conv2_2_1"
  top: "conv2_2_1"
  scale_param {
    bias_term: true
  }
}
layer {
  name: "conv2_Eltwise_2"
  type: "Eltwise"
  bottom: "conv2_Eltwise_1"
  bottom: "conv2_2_1"
  top: "conv2_Eltwise_2"
  eltwise_param {
    operation: SUM
  }
}
layer {
  name: "conv2_2ReLU_1"
  type: "ReLU"
  bottom: "conv2_Eltwise_2"
  top: "conv2_Eltwise_2"
}
layer {
  name: "conv2_3_0"
  type: "Convolution"
  bottom: "conv2_Eltwise_2"
  top: "conv2_3_0"
  param {
    lr_mult: 1
    decay_mult: 1
  }
  param {
    lr_mult: 2
    decay_mult: 0
  }
  convolution_param {
    num_output: 16
    bias_term: true
    pad: 1
    kernel_size: 3
    stride: 1
    weight_filler {
      type: "msra"
    }
    bias_filler {
      type: "constant"
      value: 0
    }
  }
}
layer {
  name: "conv2_3_bn0"
  type: "BatchNorm"
  bottom: "conv2_3_0"
  top: "conv2_3_0"
  param {
    lr_mult: 0
    decay_mult: 0
  }
  param {
    lr_mult: 0
    decay_mult: 0
  }
  param {
    lr_mult: 0
    decay_mult: 0
  }
  batch_norm_param {
    use_global_stats: true
  }
}
layer {
  name: "conv2_3_scale0"
  type: "Scale"
  bottom: "conv2_3_0"
  top: "conv2_3_0"
  scale_param {
    bias_term: true
  }
}
layer {
  name: "conv2_3_ReLU0"
  type: "ReLU"
  bottom: "conv2_3_0"
  top: "conv2_3_0"
}
layer {
  name: "conv2_3_1"
  type: "Convolution"
  bottom: "conv2_3_0"
  top: "conv2_3_1"
  param {
    lr_mult: 1
    decay_mult: 1
  }
  param {
    lr_mult: 2
    decay_mult: 0
  }
  convolution_param {
    num_output: 16
    bias_term: true
    pad: 1
    kernel_size: 3
    stride: 1
    weight_filler {
      type: "msra"
    }
    bias_filler {
      type: "constant"
      value: 0
    }
  }
}
layer {
  name: "conv2_3bn1"
  type: "BatchNorm"
  bottom: "conv2_3_1"
  top: "conv2_3_1"
  param {
    lr_mult: 0
    decay_mult: 0
  }
  param {
    lr_mult: 0
    decay_mult: 0
  }
  param {
    lr_mult: 0
    decay_mult: 0
  }
  batch_norm_param {
    use_global_stats: true
  }
}
layer {
  name: "conv2_3_scale1"
  type: "Scale"
  bottom: "conv2_3_1"
  top: "conv2_3_1"
  scale_param {
    bias_term: true
  }
}
layer {
  name: "conv2_Eltwise_3"
  type: "Eltwise"
  bottom: "conv2_Eltwise_2"
  bottom: "conv2_3_1"
  top: "conv2_Eltwise_3"
  eltwise_param {
    operation: SUM
  }
}
layer {
  name: "conv2_3ReLU_1"
  type: "ReLU"
  bottom: "conv2_Eltwise_3"
  top: "conv2_Eltwise_3"
}
layer {
  name: "conv3_1_0"
  type: "Convolution"
  bottom: "conv2_Eltwise_3"
  top: "conv3_1_0"
  param {
    lr_mult: 1
    decay_mult: 1
  }
  param {
    lr_mult: 2
    decay_mult: 0
  }
  convolution_param {
    num_output: 32
    bias_term: true
    pad: 1
    kernel_size: 3
    stride: 2
    weight_filler {
      type: "msra"
    }
    bias_filler {
      type: "constant"
      value: 0
    }
  }
}
layer {
  name: "conv3_1_bn0"
  type: "BatchNorm"
  bottom: "conv3_1_0"
  top: "conv3_1_0"
  param {
    lr_mult: 0
    decay_mult: 0
  }
  param {
    lr_mult: 0
    decay_mult: 0
  }
  param {
    lr_mult: 0
    decay_mult: 0
  }
  batch_norm_param {
    use_global_stats: true
  }
}
layer {
  name: "conv3_1_scale0"
  type: "Scale"
  bottom: "conv3_1_0"
  top: "conv3_1_0"
  scale_param {
    bias_term: true
  }
}
layer {
  name: "conv3_1_ReLU0"
  type: "ReLU"
  bottom: "conv3_1_0"
  top: "conv3_1_0"
}
layer {
  name: "conv3_1_1"
  type: "Convolution"
  bottom: "conv3_1_0"
  top: "conv3_1_1"
  param {
    lr_mult: 1
    decay_mult: 1
  }
  param {
    lr_mult: 2
    decay_mult: 0
  }
  convolution_param {
    num_output: 32
    bias_term: true
    pad: 1
    kernel_size: 3
    stride: 1
    weight_filler {
      type: "msra"
    }
    bias_filler {
      type: "constant"
      value: 0
    }
  }
}
layer {
  name: "conv3_1bn1"
  type: "BatchNorm"
  bottom: "conv3_1_1"
  top: "conv3_1_1"
  param {
    lr_mult: 0
    decay_mult: 0
  }
  param {
    lr_mult: 0
    decay_mult: 0
  }
  param {
    lr_mult: 0
    decay_mult: 0
  }
  batch_norm_param {
    use_global_stats: true
  }
}
layer {
  name: "conv3_1_scale1"
  type: "Scale"
  bottom: "conv3_1_1"
  top: "conv3_1_1"
  scale_param {
    bias_term: true
  }
}
layer {
  name: "conv3_1_down"
  type: "Convolution"
  bottom: "conv2_Eltwise_3"
  top: "conv3_1_down"
  param {
    lr_mult: 1
    decay_mult: 1
  }
  param {
    lr_mult: 2
    decay_mult: 0
  }
  convolution_param {
    num_output: 32
    bias_term: true
    pad: 0
    kernel_size: 1
    stride: 2
    weight_filler {
      type: "msra"
    }
    bias_filler {
      type: "constant"
      value: 0
    }
  }
}
layer {
  name: "conv3_1_bn_down"
  type: "BatchNorm"
  bottom: "conv3_1_down"
  top: "conv3_1_down"
  param {
    lr_mult: 0
    decay_mult: 0
  }
  param {
    lr_mult: 0
    decay_mult: 0
  }
  param {
    lr_mult: 0
    decay_mult: 0
  }
  batch_norm_param {
    use_global_stats: true
  }
}
layer {
  name: "conv3_1_scale_down"
  type: "Scale"
  bottom: "conv3_1_down"
  top: "conv3_1_down"
  scale_param {
    bias_term: true
  }
}
layer {
  name: "conv3_Eltwise_1"
  type: "Eltwise"
  bottom: "conv3_1_1"
  bottom: "conv3_1_down"
  top: "conv3_Eltwise_1"
  eltwise_param {
    operation: SUM
  }
}
layer {
  name: "conv3_1ReLU_1"
  type: "ReLU"
  bottom: "conv3_Eltwise_1"
  top: "conv3_Eltwise_1"
}
layer {
  name: "conv3_2_0"
  type: "Convolution"
  bottom: "conv3_Eltwise_1"
  top: "conv3_2_0"
  param {
    lr_mult: 1
    decay_mult: 1
  }
  param {
    lr_mult: 2
    decay_mult: 0
  }
  convolution_param {
    num_output: 32
    bias_term: true
    pad: 1
    kernel_size: 3
    stride: 1
    weight_filler {
      type: "msra"
    }
    bias_filler {
      type: "constant"
      value: 0
    }
  }
}
layer {
  name: "conv3_2_bn0"
  type: "BatchNorm"
  bottom: "conv3_2_0"
  top: "conv3_2_0"
  param {
    lr_mult: 0
    decay_mult: 0
  }
  param {
    lr_mult: 0
    decay_mult: 0
  }
  param {
    lr_mult: 0
    decay_mult: 0
  }
  batch_norm_param {
    use_global_stats: true
  }
}
layer {
  name: "conv3_2_scale0"
  type: "Scale"
  bottom: "conv3_2_0"
  top: "conv3_2_0"
  scale_param {
    bias_term: true
  }
}
layer {
  name: "conv3_2_ReLU0"
  type: "ReLU"
  bottom: "conv3_2_0"
  top: "conv3_2_0"
}
layer {
  name: "conv3_2_1"
  type: "Convolution"
  bottom: "conv3_2_0"
  top: "conv3_2_1"
  param {
    lr_mult: 1
    decay_mult: 1
  }
  param {
    lr_mult: 2
    decay_mult: 0
  }
  convolution_param {
    num_output: 32
    bias_term: true
    pad: 1
    kernel_size: 3
    stride: 1
    weight_filler {
      type: "msra"
    }
    bias_filler {
      type: "constant"
      value: 0
    }
  }
}
layer {
  name: "conv3_2bn1"
  type: "BatchNorm"
  bottom: "conv3_2_1"
  top: "conv3_2_1"
  param {
    lr_mult: 0
    decay_mult: 0
  }
  param {
    lr_mult: 0
    decay_mult: 0
  }
  param {
    lr_mult: 0
    decay_mult: 0
  }
  batch_norm_param {
    use_global_stats: true
  }
}
layer {
  name: "conv3_2_scale1"
  type: "Scale"
  bottom: "conv3_2_1"
  top: "conv3_2_1"
  scale_param {
    bias_term: true
  }
}
layer {
  name: "conv3_Eltwise_2"
  type: "Eltwise"
  bottom: "conv3_Eltwise_1"
  bottom: "conv3_2_1"
  top: "conv3_Eltwise_2"
  eltwise_param {
    operation: SUM
  }
}
layer {
  name: "conv3_2ReLU_1"
  type: "ReLU"
  bottom: "conv3_Eltwise_2"
  top: "conv3_Eltwise_2"
}
layer {
  name: "conv3_3_0"
  type: "Convolution"
  bottom: "conv3_Eltwise_2"
  top: "conv3_3_0"
  param {
    lr_mult: 1
    decay_mult: 1
  }
  param {
    lr_mult: 2
    decay_mult: 0
  }
  convolution_param {
    num_output: 32
    bias_term: true
    pad: 1
    kernel_size: 3
    stride: 1
    weight_filler {
      type: "msra"
    }
    bias_filler {
      type: "constant"
      value: 0
    }
  }
}
layer {
  name: "conv3_3_bn0"
  type: "BatchNorm"
  bottom: "conv3_3_0"
  top: "conv3_3_0"
  param {
    lr_mult: 0
    decay_mult: 0
  }
  param {
    lr_mult: 0
    decay_mult: 0
  }
  param {
    lr_mult: 0
    decay_mult: 0
  }
  batch_norm_param {
    use_global_stats: true
  }
}
layer {
  name: "conv3_3_scale0"
  type: "Scale"
  bottom: "conv3_3_0"
  top: "conv3_3_0"
  scale_param {
    bias_term: true
  }
}
layer {
  name: "conv3_3_ReLU0"
  type: "ReLU"
  bottom: "conv3_3_0"
  top: "conv3_3_0"
}
layer {
  name: "conv3_3_1"
  type: "Convolution"
  bottom: "conv3_3_0"
  top: "conv3_3_1"
  param {
    lr_mult: 1
    decay_mult: 1
  }
  param {
    lr_mult: 2
    decay_mult: 0
  }
  convolution_param {
    num_output: 32
    bias_term: true
    pad: 1
    kernel_size: 3
    stride: 1
    weight_filler {
      type: "msra"
    }
    bias_filler {
      type: "constant"
      value: 0
    }
  }
}
layer {
  name: "conv3_3bn1"
  type: "BatchNorm"
  bottom: "conv3_3_1"
  top: "conv3_3_1"
  param {
    lr_mult: 0
    decay_mult: 0
  }
  param {
    lr_mult: 0
    decay_mult: 0
  }
  param {
    lr_mult: 0
    decay_mult: 0
  }
  batch_norm_param {
    use_global_stats: true
  }
}
layer {
  name: "conv3_3_scale1"
  type: "Scale"
  bottom: "conv3_3_1"
  top: "conv3_3_1"
  scale_param {
    bias_term: true
  }
}
layer {
  name: "conv3_Eltwise_3"
  type: "Eltwise"
  bottom: "conv3_Eltwise_2"
  bottom: "conv3_3_1"
  top: "conv3_Eltwise_3"
  eltwise_param {
    operation: SUM
  }
}
layer {
  name: "conv3_3ReLU_1"
  type: "ReLU"
  bottom: "conv3_Eltwise_3"
  top: "conv3_Eltwise_3"
}
layer {
  name: "conv4_1_0"
  type: "Convolution"
  bottom: "conv3_Eltwise_3"
  top: "conv4_1_0"
  param {
    lr_mult: 1
    decay_mult: 1
  }
  param {
    lr_mult: 2
    decay_mult: 0
  }
  convolution_param {
    num_output: 64
    bias_term: true
    pad: 1
    kernel_size: 3
    stride: 2
    weight_filler {
      type: "msra"
    }
    bias_filler {
      type: "constant"
      value: 0
    }
  }
}
layer {
  name: "conv4_1_bn0"
  type: "BatchNorm"
  bottom: "conv4_1_0"
  top: "conv4_1_0"
  param {
    lr_mult: 0
    decay_mult: 0
  }
  param {
    lr_mult: 0
    decay_mult: 0
  }
  param {
    lr_mult: 0
    decay_mult: 0
  }
  batch_norm_param {
    use_global_stats: true
  }
}
layer {
  name: "conv4_1_scale0"
  type: "Scale"
  bottom: "conv4_1_0"
  top: "conv4_1_0"
  scale_param {
    bias_term: true
  }
}
layer {
  name: "conv4_1_ReLU0"
  type: "ReLU"
  bottom: "conv4_1_0"
  top: "conv4_1_0"
}
layer {
  name: "conv4_1_1"
  type: "Convolution"
  bottom: "conv4_1_0"
  top: "conv4_1_1"
  param {
    lr_mult: 1
    decay_mult: 1
  }
  param {
    lr_mult: 2
    decay_mult: 0
  }
  convolution_param {
    num_output: 64
    bias_term: true
    pad: 1
    kernel_size: 3
    stride: 1
    weight_filler {
      type: "msra"
    }
    bias_filler {
      type: "constant"
      value: 0
    }
  }
}
layer {
  name: "conv4_1bn1"
  type: "BatchNorm"
  bottom: "conv4_1_1"
  top: "conv4_1_1"
  param {
    lr_mult: 0
    decay_mult: 0
  }
  param {
    lr_mult: 0
    decay_mult: 0
  }
  param {
    lr_mult: 0
    decay_mult: 0
  }
  batch_norm_param {
    use_global_stats: true
  }
}
layer {
  name: "conv4_1_scale1"
  type: "Scale"
  bottom: "conv4_1_1"
  top: "conv4_1_1"
  scale_param {
    bias_term: true
  }
}
layer {
  name: "conv4_1_down"
  type: "Convolution"
  bottom: "conv3_Eltwise_3"
  top: "conv4_1_down"
  param {
    lr_mult: 1
    decay_mult: 1
  }
  param {
    lr_mult: 2
    decay_mult: 0
  }
  convolution_param {
    num_output: 64
    bias_term: true
    pad: 0
    kernel_size: 1
    stride: 2
    weight_filler {
      type: "msra"
    }
    bias_filler {
      type: "constant"
      value: 0
    }
  }
}
layer {
  name: "conv4_1_bn_down"
  type: "BatchNorm"
  bottom: "conv4_1_down"
  top: "conv4_1_down"
  param {
    lr_mult: 0
    decay_mult: 0
  }
  param {
    lr_mult: 0
    decay_mult: 0
  }
  param {
    lr_mult: 0
    decay_mult: 0
  }
  batch_norm_param {
    use_global_stats: true
  }
}
layer {
  name: "conv4_1_scale_down"
  type: "Scale"
  bottom: "conv4_1_down"
  top: "conv4_1_down"
  scale_param {
    bias_term: true
  }
}
layer {
  name: "conv4_Eltwise_1"
  type: "Eltwise"
  bottom: "conv4_1_1"
  bottom: "conv4_1_down"
  top: "conv4_Eltwise_1"
  eltwise_param {
    operation: SUM
  }
}
layer {
  name: "conv4_1ReLU_1"
  type: "ReLU"
  bottom: "conv4_Eltwise_1"
  top: "conv4_Eltwise_1"
}
layer {
  name: "conv4_2_0"
  type: "Convolution"
  bottom: "conv4_Eltwise_1"
  top: "conv4_2_0"
  param {
    lr_mult: 1
    decay_mult: 1
  }
  param {
    lr_mult: 2
    decay_mult: 0
  }
  convolution_param {
    num_output: 64
    bias_term: true
    pad: 1
    kernel_size: 3
    stride: 1
    weight_filler {
      type: "msra"
    }
    bias_filler {
      type: "constant"
      value: 0
    }
  }
}
layer {
  name: "conv4_2_bn0"
  type: "BatchNorm"
  bottom: "conv4_2_0"
  top: "conv4_2_0"
  param {
    lr_mult: 0
    decay_mult: 0
  }
  param {
    lr_mult: 0
    decay_mult: 0
  }
  param {
    lr_mult: 0
    decay_mult: 0
  }
  batch_norm_param {
    use_global_stats: true
  }
}
layer {
  name: "conv4_2_scale0"
  type: "Scale"
  bottom: "conv4_2_0"
  top: "conv4_2_0"
  scale_param {
    bias_term: true
  }
}
layer {
  name: "conv4_2_ReLU0"
  type: "ReLU"
  bottom: "conv4_2_0"
  top: "conv4_2_0"
}
layer {
  name: "conv4_2_1"
  type: "Convolution"
  bottom: "conv4_2_0"
  top: "conv4_2_1"
  param {
    lr_mult: 1
    decay_mult: 1
  }
  param {
    lr_mult: 2
    decay_mult: 0
  }
  convolution_param {
    num_output: 64
    bias_term: true
    pad: 1
    kernel_size: 3
    stride: 1
    weight_filler {
      type: "msra"
    }
    bias_filler {
      type: "constant"
      value: 0
    }
  }
}
layer {
  name: "conv4_2bn1"
  type: "BatchNorm"
  bottom: "conv4_2_1"
  top: "conv4_2_1"
  param {
    lr_mult: 0
    decay_mult: 0
  }
  param {
    lr_mult: 0
    decay_mult: 0
  }
  param {
    lr_mult: 0
    decay_mult: 0
  }
  batch_norm_param {
    use_global_stats: true
  }
}
layer {
  name: "conv4_2_scale1"
  type: "Scale"
  bottom: "conv4_2_1"
  top: "conv4_2_1"
  scale_param {
    bias_term: true
  }
}
layer {
  name: "conv4_Eltwise_2"
  type: "Eltwise"
  bottom: "conv4_Eltwise_1"
  bottom: "conv4_2_1"
  top: "conv4_Eltwise_2"
  eltwise_param {
    operation: SUM
  }
}
layer {
  name: "conv4_2ReLU_1"
  type: "ReLU"
  bottom: "conv4_Eltwise_2"
  top: "conv4_Eltwise_2"
}
layer {
  name: "conv4_3_0"
  type: "Convolution"
  bottom: "conv4_Eltwise_2"
  top: "conv4_3_0"
  param {
    lr_mult: 1
    decay_mult: 1
  }
  param {
    lr_mult: 2
    decay_mult: 0
  }
  convolution_param {
    num_output: 64
    bias_term: true
    pad: 1
    kernel_size: 3
    stride: 1
    weight_filler {
      type: "msra"
    }
    bias_filler {
      type: "constant"
      value: 0
    }
  }
}
layer {
  name: "conv4_3_bn0"
  type: "BatchNorm"
  bottom: "conv4_3_0"
  top: "conv4_3_0"
  param {
    lr_mult: 0
    decay_mult: 0
  }
  param {
    lr_mult: 0
    decay_mult: 0
  }
  param {
    lr_mult: 0
    decay_mult: 0
  }
  batch_norm_param {
    use_global_stats: true
  }
}
layer {
  name: "conv4_3_scale0"
  type: "Scale"
  bottom: "conv4_3_0"
  top: "conv4_3_0"
  scale_param {
    bias_term: true
  }
}
layer {
  name: "conv4_3_ReLU0"
  type: "ReLU"
  bottom: "conv4_3_0"
  top: "conv4_3_0"
}
layer {
  name: "conv4_3_1"
  type: "Convolution"
  bottom: "conv4_3_0"
  top: "conv4_3_1"
  param {
    lr_mult: 1
    decay_mult: 1
  }
  param {
    lr_mult: 2
    decay_mult: 0
  }
  convolution_param {
    num_output: 64
    bias_term: true
    pad: 1
    kernel_size: 3
    stride: 1
    weight_filler {
      type: "msra"
    }
    bias_filler {
      type: "constant"
      value: 0
    }
  }
}
layer {
  name: "conv4_3bn1"
  type: "BatchNorm"
  bottom: "conv4_3_1"
  top: "conv4_3_1"
  param {
    lr_mult: 0
    decay_mult: 0
  }
  param {
    lr_mult: 0
    decay_mult: 0
  }
  param {
    lr_mult: 0
    decay_mult: 0
  }
  batch_norm_param {
    use_global_stats: true
  }
}
layer {
  name: "conv4_3_scale1"
  type: "Scale"
  bottom: "conv4_3_1"
  top: "conv4_3_1"
  scale_param {
    bias_term: true
  }
}
layer {
  name: "conv4_Eltwise_3"
  type: "Eltwise"
  bottom: "conv4_Eltwise_2"
  bottom: "conv4_3_1"
  top: "conv4_Eltwise_3"
  eltwise_param {
    operation: SUM
  }
}
layer {
  name: "conv4_3ReLU_1"
  type: "ReLU"
  bottom: "conv4_Eltwise_3"
  top: "conv4_Eltwise_3"
}
layer {
  name: "Pooling1"
  type: "Pooling"
  bottom: "conv4_Eltwise_3"
  top: "Pooling1"
  pooling_param {
    pool: AVE
    global_pooling: true
  }
}
layer {
  name: "fc1"
  type: "Convolution"
  bottom: "Pooling1"
  top: "fc1"
  param {
    lr_mult: 1
    decay_mult: 1
  }
  param {
    lr_mult: 2
    decay_mult: 1
  }
  convolution_param {
    num_output: 62
    bias_term: true
    pad: 0
    kernel_size: 1
    stride: 1
    weight_filler {
      type: "msra"
    }
    bias_filler {
      type: "constant"
      value: 0
    }
  }
}
layer {
  name: "Softmax1"
  type: "SoftmaxWithLoss"
  bottom: "fc1"
  bottom: "label_1"
  top: "Softmax1"
}
layer {
  name: "prob1"
  type: "Accuracy"
  bottom: "fc1"
  bottom: "label_1"
  top: "prob1"
}
layer {
  name: "fc2"
  type: "Convolution"
  bottom: "Pooling1"
  top: "fc2"
  param {
    lr_mult: 1
    decay_mult: 1
  }
  param {
    lr_mult: 2
    decay_mult: 1
  }
  convolution_param {
    num_output: 62
    bias_term: true
    pad: 0
    kernel_size: 1
    stride: 1
    weight_filler {
      type: "msra"
    }
    bias_filler {
      type: "constant"
      value: 0
    }
  }
}
layer {
  name: "Softmax2"
  type: "SoftmaxWithLoss"
  bottom: "fc2"
  bottom: "label_2"
  top: "Softmax2"
}
layer {
  name: "prob2"
  type: "Accuracy"
  bottom: "fc2"
  bottom: "label_2"
  top: "prob2"
}
layer {
  name: "fc3"
  type: "Convolution"
  bottom: "Pooling1"
  top: "fc3"
  param {
    lr_mult: 1
    decay_mult: 1
  }
  param {
    lr_mult: 2
    decay_mult: 1
  }
  convolution_param {
    num_output: 62
    bias_term: true
    pad: 0
    kernel_size: 1
    stride: 1
    weight_filler {
      type: "msra"
    }
    bias_filler {
      type: "constant"
      value: 0
    }
  }
}
layer {
  name: "Softmax3"
  type: "SoftmaxWithLoss"
  bottom: "fc3"
  bottom: "label_3"
  top: "Softmax3"
}
layer {
  name: "prob3"
  type: "Accuracy"
  bottom: "fc3"
  bottom: "label_3"
  top: "prob3"
}
layer {
  name: "fc4"
  type: "Convolution"
  bottom: "Pooling1"
  top: "fc4"
  param {
    lr_mult: 1
    decay_mult: 1
  }
  param {
    lr_mult: 2
    decay_mult: 1
  }
  convolution_param {
    num_output: 62
    bias_term: true
    pad: 0
    kernel_size: 1
    stride: 1
    weight_filler {
      type: "msra"
    }
    bias_filler {
      type: "constant"
      value: 0
    }
  }
}
layer {
  name: "Softmax4"
  type: "SoftmaxWithLoss"
  bottom: "fc4"
  bottom: "label_4"
  top: "Softmax4"
}
layer {
  name: "prob4"
  type: "Accuracy"
  bottom: "fc4"
  bottom: "label_4"
  top: "prob4"
}
I0218 11:49:51.296144 27028 layer_factory.hpp:77] Creating layer data1
I0218 11:49:51.296157 27028 net.cpp:128] Creating Layer data1
I0218 11:49:51.296162 27028 net.cpp:522] data1 -> data
I0218 11:49:51.296181 27028 net.cpp:522] data1 -> labels
I0218 11:49:51.296190 27028 hdf5_data_layer.cpp:80] Loading list of HDF5 filenames from: ./test_h5.txt
I0218 11:49:51.296228 27028 hdf5_data_layer.cpp:94] Number of HDF5 files: 1
I0218 11:49:51.551594 27028 net.cpp:172] Setting up data1
I0218 11:49:51.551661 27028 net.cpp:186] Top shape: 10 1 32 72 (23040)
I0218 11:49:51.551666 27028 net.cpp:186] Top shape: 10 4 (40)
I0218 11:49:51.551671 27028 net.cpp:194] Memory required for data: 92320
I0218 11:49:51.551682 27028 layer_factory.hpp:77] Creating layer slicers
I0218 11:49:51.551702 27028 net.cpp:128] Creating Layer slicers
I0218 11:49:51.551708 27028 net.cpp:558] slicers <- labels
I0218 11:49:51.551721 27028 net.cpp:522] slicers -> label_1
I0218 11:49:51.551738 27028 net.cpp:522] slicers -> label_2
I0218 11:49:51.551744 27028 net.cpp:522] slicers -> label_3
I0218 11:49:51.551753 27028 net.cpp:522] slicers -> label_4
I0218 11:49:51.551829 27028 net.cpp:172] Setting up slicers
I0218 11:49:51.551836 27028 net.cpp:186] Top shape: 10 1 (10)
I0218 11:49:51.551841 27028 net.cpp:186] Top shape: 10 1 (10)
I0218 11:49:51.551846 27028 net.cpp:186] Top shape: 10 1 (10)
I0218 11:49:51.551851 27028 net.cpp:186] Top shape: 10 1 (10)
I0218 11:49:51.551853 27028 net.cpp:194] Memory required for data: 92480
I0218 11:49:51.551858 27028 layer_factory.hpp:77] Creating layer label_1_slicers_0_split
I0218 11:49:51.551867 27028 net.cpp:128] Creating Layer label_1_slicers_0_split
I0218 11:49:51.551870 27028 net.cpp:558] label_1_slicers_0_split <- label_1
I0218 11:49:51.551875 27028 net.cpp:522] label_1_slicers_0_split -> label_1_slicers_0_split_0
I0218 11:49:51.551882 27028 net.cpp:522] label_1_slicers_0_split -> label_1_slicers_0_split_1
I0218 11:49:51.551923 27028 net.cpp:172] Setting up label_1_slicers_0_split
I0218 11:49:51.551928 27028 net.cpp:186] Top shape: 10 1 (10)
I0218 11:49:51.551934 27028 net.cpp:186] Top shape: 10 1 (10)
I0218 11:49:51.551936 27028 net.cpp:194] Memory required for data: 92560
I0218 11:49:51.551940 27028 layer_factory.hpp:77] Creating layer label_2_slicers_1_split
I0218 11:49:51.551946 27028 net.cpp:128] Creating Layer label_2_slicers_1_split
I0218 11:49:51.551950 27028 net.cpp:558] label_2_slicers_1_split <- label_2
I0218 11:49:51.551955 27028 net.cpp:522] label_2_slicers_1_split -> label_2_slicers_1_split_0
I0218 11:49:51.551964 27028 net.cpp:522] label_2_slicers_1_split -> label_2_slicers_1_split_1
I0218 11:49:51.552003 27028 net.cpp:172] Setting up label_2_slicers_1_split
I0218 11:49:51.552009 27028 net.cpp:186] Top shape: 10 1 (10)
I0218 11:49:51.552014 27028 net.cpp:186] Top shape: 10 1 (10)
I0218 11:49:51.552018 27028 net.cpp:194] Memory required for data: 92640
I0218 11:49:51.552022 27028 layer_factory.hpp:77] Creating layer label_3_slicers_2_split
I0218 11:49:51.552028 27028 net.cpp:128] Creating Layer label_3_slicers_2_split
I0218 11:49:51.552032 27028 net.cpp:558] label_3_slicers_2_split <- label_3
I0218 11:49:51.552038 27028 net.cpp:522] label_3_slicers_2_split -> label_3_slicers_2_split_0
I0218 11:49:51.552044 27028 net.cpp:522] label_3_slicers_2_split -> label_3_slicers_2_split_1
I0218 11:49:51.552084 27028 net.cpp:172] Setting up label_3_slicers_2_split
I0218 11:49:51.552090 27028 net.cpp:186] Top shape: 10 1 (10)
I0218 11:49:51.552094 27028 net.cpp:186] Top shape: 10 1 (10)
I0218 11:49:51.552098 27028 net.cpp:194] Memory required for data: 92720
I0218 11:49:51.552101 27028 layer_factory.hpp:77] Creating layer label_4_slicers_3_split
I0218 11:49:51.552107 27028 net.cpp:128] Creating Layer label_4_slicers_3_split
I0218 11:49:51.552111 27028 net.cpp:558] label_4_slicers_3_split <- label_4
I0218 11:49:51.552116 27028 net.cpp:522] label_4_slicers_3_split -> label_4_slicers_3_split_0
I0218 11:49:51.552124 27028 net.cpp:522] label_4_slicers_3_split -> label_4_slicers_3_split_1
I0218 11:49:51.552162 27028 net.cpp:172] Setting up label_4_slicers_3_split
I0218 11:49:51.552168 27028 net.cpp:186] Top shape: 10 1 (10)
I0218 11:49:51.552172 27028 net.cpp:186] Top shape: 10 1 (10)
I0218 11:49:51.552220 27028 net.cpp:194] Memory required for data: 92800
I0218 11:49:51.552225 27028 layer_factory.hpp:77] Creating layer conv1
I0218 11:49:51.552244 27028 net.cpp:128] Creating Layer conv1
I0218 11:49:51.552248 27028 net.cpp:558] conv1 <- data
I0218 11:49:51.552254 27028 net.cpp:522] conv1 -> conv1
I0218 11:49:51.556980 27028 net.cpp:172] Setting up conv1
I0218 11:49:51.557008 27028 net.cpp:186] Top shape: 10 16 32 72 (368640)
I0218 11:49:51.557011 27028 net.cpp:194] Memory required for data: 1567360
I0218 11:49:51.557030 27028 layer_factory.hpp:77] Creating layer conv1/bn
I0218 11:49:51.557040 27028 net.cpp:128] Creating Layer conv1/bn
I0218 11:49:51.557045 27028 net.cpp:558] conv1/bn <- conv1
I0218 11:49:51.557055 27028 net.cpp:509] conv1/bn -> conv1 (in-place)
I0218 11:49:51.557312 27028 net.cpp:172] Setting up conv1/bn
I0218 11:49:51.557324 27028 net.cpp:186] Top shape: 10 16 32 72 (368640)
I0218 11:49:51.557328 27028 net.cpp:194] Memory required for data: 3041920
I0218 11:49:51.557339 27028 layer_factory.hpp:77] Creating layer conv1/scale
I0218 11:49:51.557348 27028 net.cpp:128] Creating Layer conv1/scale
I0218 11:49:51.557353 27028 net.cpp:558] conv1/scale <- conv1
I0218 11:49:51.557358 27028 net.cpp:509] conv1/scale -> conv1 (in-place)
I0218 11:49:51.557406 27028 layer_factory.hpp:77] Creating layer conv1/scale
I0218 11:49:51.557548 27028 net.cpp:172] Setting up conv1/scale
I0218 11:49:51.557556 27028 net.cpp:186] Top shape: 10 16 32 72 (368640)
I0218 11:49:51.557560 27028 net.cpp:194] Memory required for data: 4516480
I0218 11:49:51.557567 27028 layer_factory.hpp:77] Creating layer conv1/ReLU
I0218 11:49:51.557574 27028 net.cpp:128] Creating Layer conv1/ReLU
I0218 11:49:51.557579 27028 net.cpp:558] conv1/ReLU <- conv1
I0218 11:49:51.557584 27028 net.cpp:509] conv1/ReLU -> conv1 (in-place)
I0218 11:49:51.559042 27028 net.cpp:172] Setting up conv1/ReLU
I0218 11:49:51.559062 27028 net.cpp:186] Top shape: 10 16 32 72 (368640)
I0218 11:49:51.559065 27028 net.cpp:194] Memory required for data: 5991040
I0218 11:49:51.559070 27028 layer_factory.hpp:77] Creating layer conv1_conv1/ReLU_0_split
I0218 11:49:51.559078 27028 net.cpp:128] Creating Layer conv1_conv1/ReLU_0_split
I0218 11:49:51.559082 27028 net.cpp:558] conv1_conv1/ReLU_0_split <- conv1
I0218 11:49:51.559089 27028 net.cpp:522] conv1_conv1/ReLU_0_split -> conv1_conv1/ReLU_0_split_0
I0218 11:49:51.559098 27028 net.cpp:522] conv1_conv1/ReLU_0_split -> conv1_conv1/ReLU_0_split_1
I0218 11:49:51.559151 27028 net.cpp:172] Setting up conv1_conv1/ReLU_0_split
I0218 11:49:51.559159 27028 net.cpp:186] Top shape: 10 16 32 72 (368640)
I0218 11:49:51.559165 27028 net.cpp:186] Top shape: 10 16 32 72 (368640)
I0218 11:49:51.559168 27028 net.cpp:194] Memory required for data: 8940160
I0218 11:49:51.559172 27028 layer_factory.hpp:77] Creating layer conv2_1_0
I0218 11:49:51.559183 27028 net.cpp:128] Creating Layer conv2_1_0
I0218 11:49:51.559190 27028 net.cpp:558] conv2_1_0 <- conv1_conv1/ReLU_0_split_0
I0218 11:49:51.559196 27028 net.cpp:522] conv2_1_0 -> conv2_1_0
I0218 11:49:51.565809 27028 net.cpp:172] Setting up conv2_1_0
I0218 11:49:51.565835 27028 net.cpp:186] Top shape: 10 16 32 72 (368640)
I0218 11:49:51.565840 27028 net.cpp:194] Memory required for data: 10414720
I0218 11:49:51.565852 27028 layer_factory.hpp:77] Creating layer conv2_1_bn0
I0218 11:49:51.565865 27028 net.cpp:128] Creating Layer conv2_1_bn0
I0218 11:49:51.565876 27028 net.cpp:558] conv2_1_bn0 <- conv2_1_0
I0218 11:49:51.565884 27028 net.cpp:509] conv2_1_bn0 -> conv2_1_0 (in-place)
I0218 11:49:51.566162 27028 net.cpp:172] Setting up conv2_1_bn0
I0218 11:49:51.566174 27028 net.cpp:186] Top shape: 10 16 32 72 (368640)
I0218 11:49:51.566179 27028 net.cpp:194] Memory required for data: 11889280
I0218 11:49:51.566186 27028 layer_factory.hpp:77] Creating layer conv2_1_scale0
I0218 11:49:51.566197 27028 net.cpp:128] Creating Layer conv2_1_scale0
I0218 11:49:51.566206 27028 net.cpp:558] conv2_1_scale0 <- conv2_1_0
I0218 11:49:51.566212 27028 net.cpp:509] conv2_1_scale0 -> conv2_1_0 (in-place)
I0218 11:49:51.566260 27028 layer_factory.hpp:77] Creating layer conv2_1_scale0
I0218 11:49:51.566431 27028 net.cpp:172] Setting up conv2_1_scale0
I0218 11:49:51.566442 27028 net.cpp:186] Top shape: 10 16 32 72 (368640)
I0218 11:49:51.566447 27028 net.cpp:194] Memory required for data: 13363840
I0218 11:49:51.566454 27028 layer_factory.hpp:77] Creating layer conv2_1_ReLU0
I0218 11:49:51.566463 27028 net.cpp:128] Creating Layer conv2_1_ReLU0
I0218 11:49:51.566468 27028 net.cpp:558] conv2_1_ReLU0 <- conv2_1_0
I0218 11:49:51.566473 27028 net.cpp:509] conv2_1_ReLU0 -> conv2_1_0 (in-place)
I0218 11:49:51.567858 27028 net.cpp:172] Setting up conv2_1_ReLU0
I0218 11:49:51.567883 27028 net.cpp:186] Top shape: 10 16 32 72 (368640)
I0218 11:49:51.567888 27028 net.cpp:194] Memory required for data: 14838400
I0218 11:49:51.567893 27028 layer_factory.hpp:77] Creating layer conv2_1_1
I0218 11:49:51.567910 27028 net.cpp:128] Creating Layer conv2_1_1
I0218 11:49:51.567916 27028 net.cpp:558] conv2_1_1 <- conv2_1_0
I0218 11:49:51.567926 27028 net.cpp:522] conv2_1_1 -> conv2_1_1
I0218 11:49:51.574604 27028 net.cpp:172] Setting up conv2_1_1
I0218 11:49:51.574631 27028 net.cpp:186] Top shape: 10 16 32 72 (368640)
I0218 11:49:51.574635 27028 net.cpp:194] Memory required for data: 16312960
I0218 11:49:51.574645 27028 layer_factory.hpp:77] Creating layer conv2_1bn1
I0218 11:49:51.574661 27028 net.cpp:128] Creating Layer conv2_1bn1
I0218 11:49:51.574666 27028 net.cpp:558] conv2_1bn1 <- conv2_1_1
I0218 11:49:51.574676 27028 net.cpp:509] conv2_1bn1 -> conv2_1_1 (in-place)
I0218 11:49:51.574964 27028 net.cpp:172] Setting up conv2_1bn1
I0218 11:49:51.574975 27028 net.cpp:186] Top shape: 10 16 32 72 (368640)
I0218 11:49:51.574978 27028 net.cpp:194] Memory required for data: 17787520
I0218 11:49:51.574990 27028 layer_factory.hpp:77] Creating layer conv2_1_scale1
I0218 11:49:51.575001 27028 net.cpp:128] Creating Layer conv2_1_scale1
I0218 11:49:51.575006 27028 net.cpp:558] conv2_1_scale1 <- conv2_1_1
I0218 11:49:51.575014 27028 net.cpp:509] conv2_1_scale1 -> conv2_1_1 (in-place)
I0218 11:49:51.575063 27028 layer_factory.hpp:77] Creating layer conv2_1_scale1
I0218 11:49:51.575222 27028 net.cpp:172] Setting up conv2_1_scale1
I0218 11:49:51.575232 27028 net.cpp:186] Top shape: 10 16 32 72 (368640)
I0218 11:49:51.575237 27028 net.cpp:194] Memory required for data: 19262080
I0218 11:49:51.575244 27028 layer_factory.hpp:77] Creating layer conv2_Eltwise_1
I0218 11:49:51.575253 27028 net.cpp:128] Creating Layer conv2_Eltwise_1
I0218 11:49:51.575258 27028 net.cpp:558] conv2_Eltwise_1 <- conv1_conv1/ReLU_0_split_1
I0218 11:49:51.575263 27028 net.cpp:558] conv2_Eltwise_1 <- conv2_1_1
I0218 11:49:51.575271 27028 net.cpp:522] conv2_Eltwise_1 -> conv2_Eltwise_1
I0218 11:49:51.575304 27028 net.cpp:172] Setting up conv2_Eltwise_1
I0218 11:49:51.575314 27028 net.cpp:186] Top shape: 10 16 32 72 (368640)
I0218 11:49:51.575316 27028 net.cpp:194] Memory required for data: 20736640
I0218 11:49:51.575320 27028 layer_factory.hpp:77] Creating layer conv2_1ReLU_1
I0218 11:49:51.575326 27028 net.cpp:128] Creating Layer conv2_1ReLU_1
I0218 11:49:51.575330 27028 net.cpp:558] conv2_1ReLU_1 <- conv2_Eltwise_1
I0218 11:49:51.575336 27028 net.cpp:509] conv2_1ReLU_1 -> conv2_Eltwise_1 (in-place)
I0218 11:49:51.576625 27028 net.cpp:172] Setting up conv2_1ReLU_1
I0218 11:49:51.576644 27028 net.cpp:186] Top shape: 10 16 32 72 (368640)
I0218 11:49:51.576649 27028 net.cpp:194] Memory required for data: 22211200
I0218 11:49:51.576653 27028 layer_factory.hpp:77] Creating layer conv2_Eltwise_1_conv2_1ReLU_1_0_split
I0218 11:49:51.576660 27028 net.cpp:128] Creating Layer conv2_Eltwise_1_conv2_1ReLU_1_0_split
I0218 11:49:51.576666 27028 net.cpp:558] conv2_Eltwise_1_conv2_1ReLU_1_0_split <- conv2_Eltwise_1
I0218 11:49:51.576676 27028 net.cpp:522] conv2_Eltwise_1_conv2_1ReLU_1_0_split -> conv2_Eltwise_1_conv2_1ReLU_1_0_split_0
I0218 11:49:51.576684 27028 net.cpp:522] conv2_Eltwise_1_conv2_1ReLU_1_0_split -> conv2_Eltwise_1_conv2_1ReLU_1_0_split_1
I0218 11:49:51.576737 27028 net.cpp:172] Setting up conv2_Eltwise_1_conv2_1ReLU_1_0_split
I0218 11:49:51.576764 27028 net.cpp:186] Top shape: 10 16 32 72 (368640)
I0218 11:49:51.576769 27028 net.cpp:186] Top shape: 10 16 32 72 (368640)
I0218 11:49:51.576773 27028 net.cpp:194] Memory required for data: 25160320
I0218 11:49:51.576777 27028 layer_factory.hpp:77] Creating layer conv2_2_0
I0218 11:49:51.576795 27028 net.cpp:128] Creating Layer conv2_2_0
I0218 11:49:51.576800 27028 net.cpp:558] conv2_2_0 <- conv2_Eltwise_1_conv2_1ReLU_1_0_split_0
I0218 11:49:51.576807 27028 net.cpp:522] conv2_2_0 -> conv2_2_0
I0218 11:49:51.583367 27028 net.cpp:172] Setting up conv2_2_0
I0218 11:49:51.583393 27028 net.cpp:186] Top shape: 10 16 32 72 (368640)
I0218 11:49:51.583397 27028 net.cpp:194] Memory required for data: 26634880
I0218 11:49:51.583406 27028 layer_factory.hpp:77] Creating layer conv2_2_bn0
I0218 11:49:51.583421 27028 net.cpp:128] Creating Layer conv2_2_bn0
I0218 11:49:51.583427 27028 net.cpp:558] conv2_2_bn0 <- conv2_2_0
I0218 11:49:51.583436 27028 net.cpp:509] conv2_2_bn0 -> conv2_2_0 (in-place)
I0218 11:49:51.583709 27028 net.cpp:172] Setting up conv2_2_bn0
I0218 11:49:51.583719 27028 net.cpp:186] Top shape: 10 16 32 72 (368640)
I0218 11:49:51.583724 27028 net.cpp:194] Memory required for data: 28109440
I0218 11:49:51.583731 27028 layer_factory.hpp:77] Creating layer conv2_2_scale0
I0218 11:49:51.583741 27028 net.cpp:128] Creating Layer conv2_2_scale0
I0218 11:49:51.583746 27028 net.cpp:558] conv2_2_scale0 <- conv2_2_0
I0218 11:49:51.583752 27028 net.cpp:509] conv2_2_scale0 -> conv2_2_0 (in-place)
I0218 11:49:51.583801 27028 layer_factory.hpp:77] Creating layer conv2_2_scale0
I0218 11:49:51.583964 27028 net.cpp:172] Setting up conv2_2_scale0
I0218 11:49:51.583974 27028 net.cpp:186] Top shape: 10 16 32 72 (368640)
I0218 11:49:51.583978 27028 net.cpp:194] Memory required for data: 29584000
I0218 11:49:51.583986 27028 layer_factory.hpp:77] Creating layer conv2_2_ReLU0
I0218 11:49:51.583992 27028 net.cpp:128] Creating Layer conv2_2_ReLU0
I0218 11:49:51.583997 27028 net.cpp:558] conv2_2_ReLU0 <- conv2_2_0
I0218 11:49:51.584003 27028 net.cpp:509] conv2_2_ReLU0 -> conv2_2_0 (in-place)
I0218 11:49:51.585427 27028 net.cpp:172] Setting up conv2_2_ReLU0
I0218 11:49:51.585445 27028 net.cpp:186] Top shape: 10 16 32 72 (368640)
I0218 11:49:51.585449 27028 net.cpp:194] Memory required for data: 31058560
I0218 11:49:51.585453 27028 layer_factory.hpp:77] Creating layer conv2_2_1
I0218 11:49:51.585470 27028 net.cpp:128] Creating Layer conv2_2_1
I0218 11:49:51.585475 27028 net.cpp:558] conv2_2_1 <- conv2_2_0
I0218 11:49:51.585486 27028 net.cpp:522] conv2_2_1 -> conv2_2_1
I0218 11:49:51.592434 27028 net.cpp:172] Setting up conv2_2_1
I0218 11:49:51.592460 27028 net.cpp:186] Top shape: 10 16 32 72 (368640)
I0218 11:49:51.592465 27028 net.cpp:194] Memory required for data: 32533120
I0218 11:49:51.592474 27028 layer_factory.hpp:77] Creating layer conv2_2bn1
I0218 11:49:51.592489 27028 net.cpp:128] Creating Layer conv2_2bn1
I0218 11:49:51.592494 27028 net.cpp:558] conv2_2bn1 <- conv2_2_1
I0218 11:49:51.592501 27028 net.cpp:509] conv2_2bn1 -> conv2_2_1 (in-place)
I0218 11:49:51.592790 27028 net.cpp:172] Setting up conv2_2bn1
I0218 11:49:51.592802 27028 net.cpp:186] Top shape: 10 16 32 72 (368640)
I0218 11:49:51.592805 27028 net.cpp:194] Memory required for data: 34007680
I0218 11:49:51.592816 27028 layer_factory.hpp:77] Creating layer conv2_2_scale1
I0218 11:49:51.592825 27028 net.cpp:128] Creating Layer conv2_2_scale1
I0218 11:49:51.592830 27028 net.cpp:558] conv2_2_scale1 <- conv2_2_1
I0218 11:49:51.592839 27028 net.cpp:509] conv2_2_scale1 -> conv2_2_1 (in-place)
I0218 11:49:51.592891 27028 layer_factory.hpp:77] Creating layer conv2_2_scale1
I0218 11:49:51.593048 27028 net.cpp:172] Setting up conv2_2_scale1
I0218 11:49:51.593057 27028 net.cpp:186] Top shape: 10 16 32 72 (368640)
I0218 11:49:51.593061 27028 net.cpp:194] Memory required for data: 35482240
I0218 11:49:51.593068 27028 layer_factory.hpp:77] Creating layer conv2_Eltwise_2
I0218 11:49:51.593081 27028 net.cpp:128] Creating Layer conv2_Eltwise_2
I0218 11:49:51.593103 27028 net.cpp:558] conv2_Eltwise_2 <- conv2_Eltwise_1_conv2_1ReLU_1_0_split_1
I0218 11:49:51.593109 27028 net.cpp:558] conv2_Eltwise_2 <- conv2_2_1
I0218 11:49:51.593116 27028 net.cpp:522] conv2_Eltwise_2 -> conv2_Eltwise_2
I0218 11:49:51.593147 27028 net.cpp:172] Setting up conv2_Eltwise_2
I0218 11:49:51.593156 27028 net.cpp:186] Top shape: 10 16 32 72 (368640)
I0218 11:49:51.593160 27028 net.cpp:194] Memory required for data: 36956800
I0218 11:49:51.593164 27028 layer_factory.hpp:77] Creating layer conv2_2ReLU_1
I0218 11:49:51.593171 27028 net.cpp:128] Creating Layer conv2_2ReLU_1
I0218 11:49:51.593175 27028 net.cpp:558] conv2_2ReLU_1 <- conv2_Eltwise_2
I0218 11:49:51.593183 27028 net.cpp:509] conv2_2ReLU_1 -> conv2_Eltwise_2 (in-place)
I0218 11:49:51.594257 27028 net.cpp:172] Setting up conv2_2ReLU_1
I0218 11:49:51.594276 27028 net.cpp:186] Top shape: 10 16 32 72 (368640)
I0218 11:49:51.594280 27028 net.cpp:194] Memory required for data: 38431360
I0218 11:49:51.594285 27028 layer_factory.hpp:77] Creating layer conv2_Eltwise_2_conv2_2ReLU_1_0_split
I0218 11:49:51.594292 27028 net.cpp:128] Creating Layer conv2_Eltwise_2_conv2_2ReLU_1_0_split
I0218 11:49:51.594296 27028 net.cpp:558] conv2_Eltwise_2_conv2_2ReLU_1_0_split <- conv2_Eltwise_2
I0218 11:49:51.594306 27028 net.cpp:522] conv2_Eltwise_2_conv2_2ReLU_1_0_split -> conv2_Eltwise_2_conv2_2ReLU_1_0_split_0
I0218 11:49:51.594314 27028 net.cpp:522] conv2_Eltwise_2_conv2_2ReLU_1_0_split -> conv2_Eltwise_2_conv2_2ReLU_1_0_split_1
I0218 11:49:51.594372 27028 net.cpp:172] Setting up conv2_Eltwise_2_conv2_2ReLU_1_0_split
I0218 11:49:51.594383 27028 net.cpp:186] Top shape: 10 16 32 72 (368640)
I0218 11:49:51.594388 27028 net.cpp:186] Top shape: 10 16 32 72 (368640)
I0218 11:49:51.594391 27028 net.cpp:194] Memory required for data: 41380480
I0218 11:49:51.594395 27028 layer_factory.hpp:77] Creating layer conv2_3_0
I0218 11:49:51.594408 27028 net.cpp:128] Creating Layer conv2_3_0
I0218 11:49:51.594413 27028 net.cpp:558] conv2_3_0 <- conv2_Eltwise_2_conv2_2ReLU_1_0_split_0
I0218 11:49:51.594424 27028 net.cpp:522] conv2_3_0 -> conv2_3_0
I0218 11:49:51.600952 27028 net.cpp:172] Setting up conv2_3_0
I0218 11:49:51.600978 27028 net.cpp:186] Top shape: 10 16 32 72 (368640)
I0218 11:49:51.600982 27028 net.cpp:194] Memory required for data: 42855040
I0218 11:49:51.600991 27028 layer_factory.hpp:77] Creating layer conv2_3_bn0
I0218 11:49:51.601007 27028 net.cpp:128] Creating Layer conv2_3_bn0
I0218 11:49:51.601012 27028 net.cpp:558] conv2_3_bn0 <- conv2_3_0
I0218 11:49:51.601029 27028 net.cpp:509] conv2_3_bn0 -> conv2_3_0 (in-place)
I0218 11:49:51.601310 27028 net.cpp:172] Setting up conv2_3_bn0
I0218 11:49:51.601323 27028 net.cpp:186] Top shape: 10 16 32 72 (368640)
I0218 11:49:51.601327 27028 net.cpp:194] Memory required for data: 44329600
I0218 11:49:51.601336 27028 layer_factory.hpp:77] Creating layer conv2_3_scale0
I0218 11:49:51.601343 27028 net.cpp:128] Creating Layer conv2_3_scale0
I0218 11:49:51.601347 27028 net.cpp:558] conv2_3_scale0 <- conv2_3_0
I0218 11:49:51.601352 27028 net.cpp:509] conv2_3_scale0 -> conv2_3_0 (in-place)
I0218 11:49:51.601402 27028 layer_factory.hpp:77] Creating layer conv2_3_scale0
I0218 11:49:51.601557 27028 net.cpp:172] Setting up conv2_3_scale0
I0218 11:49:51.601565 27028 net.cpp:186] Top shape: 10 16 32 72 (368640)
I0218 11:49:51.601569 27028 net.cpp:194] Memory required for data: 45804160
I0218 11:49:51.601577 27028 layer_factory.hpp:77] Creating layer conv2_3_ReLU0
I0218 11:49:51.601585 27028 net.cpp:128] Creating Layer conv2_3_ReLU0
I0218 11:49:51.601590 27028 net.cpp:558] conv2_3_ReLU0 <- conv2_3_0
I0218 11:49:51.601595 27028 net.cpp:509] conv2_3_ReLU0 -> conv2_3_0 (in-place)
I0218 11:49:51.603008 27028 net.cpp:172] Setting up conv2_3_ReLU0
I0218 11:49:51.603034 27028 net.cpp:186] Top shape: 10 16 32 72 (368640)
I0218 11:49:51.603039 27028 net.cpp:194] Memory required for data: 47278720
I0218 11:49:51.603044 27028 layer_factory.hpp:77] Creating layer conv2_3_1
I0218 11:49:51.603062 27028 net.cpp:128] Creating Layer conv2_3_1
I0218 11:49:51.603087 27028 net.cpp:558] conv2_3_1 <- conv2_3_0
I0218 11:49:51.603096 27028 net.cpp:522] conv2_3_1 -> conv2_3_1
I0218 11:49:51.609310 27028 net.cpp:172] Setting up conv2_3_1
I0218 11:49:51.609336 27028 net.cpp:186] Top shape: 10 16 32 72 (368640)
I0218 11:49:51.609341 27028 net.cpp:194] Memory required for data: 48753280
I0218 11:49:51.609354 27028 layer_factory.hpp:77] Creating layer conv2_3bn1
I0218 11:49:51.609366 27028 net.cpp:128] Creating Layer conv2_3bn1
I0218 11:49:51.609380 27028 net.cpp:558] conv2_3bn1 <- conv2_3_1
I0218 11:49:51.609386 27028 net.cpp:509] conv2_3bn1 -> conv2_3_1 (in-place)
I0218 11:49:51.609668 27028 net.cpp:172] Setting up conv2_3bn1
I0218 11:49:51.609678 27028 net.cpp:186] Top shape: 10 16 32 72 (368640)
I0218 11:49:51.609681 27028 net.cpp:194] Memory required for data: 50227840
I0218 11:49:51.609689 27028 layer_factory.hpp:77] Creating layer conv2_3_scale1
I0218 11:49:51.609695 27028 net.cpp:128] Creating Layer conv2_3_scale1
I0218 11:49:51.609700 27028 net.cpp:558] conv2_3_scale1 <- conv2_3_1
I0218 11:49:51.609707 27028 net.cpp:509] conv2_3_scale1 -> conv2_3_1 (in-place)
I0218 11:49:51.609756 27028 layer_factory.hpp:77] Creating layer conv2_3_scale1
I0218 11:49:51.609917 27028 net.cpp:172] Setting up conv2_3_scale1
I0218 11:49:51.609927 27028 net.cpp:186] Top shape: 10 16 32 72 (368640)
I0218 11:49:51.609931 27028 net.cpp:194] Memory required for data: 51702400
I0218 11:49:51.609947 27028 layer_factory.hpp:77] Creating layer conv2_Eltwise_3
I0218 11:49:51.609953 27028 net.cpp:128] Creating Layer conv2_Eltwise_3
I0218 11:49:51.609958 27028 net.cpp:558] conv2_Eltwise_3 <- conv2_Eltwise_2_conv2_2ReLU_1_0_split_1
I0218 11:49:51.609963 27028 net.cpp:558] conv2_Eltwise_3 <- conv2_3_1
I0218 11:49:51.609972 27028 net.cpp:522] conv2_Eltwise_3 -> conv2_Eltwise_3
I0218 11:49:51.610002 27028 net.cpp:172] Setting up conv2_Eltwise_3
I0218 11:49:51.610013 27028 net.cpp:186] Top shape: 10 16 32 72 (368640)
I0218 11:49:51.610016 27028 net.cpp:194] Memory required for data: 53176960
I0218 11:49:51.610021 27028 layer_factory.hpp:77] Creating layer conv2_3ReLU_1
I0218 11:49:51.610028 27028 net.cpp:128] Creating Layer conv2_3ReLU_1
I0218 11:49:51.610031 27028 net.cpp:558] conv2_3ReLU_1 <- conv2_Eltwise_3
I0218 11:49:51.610036 27028 net.cpp:509] conv2_3ReLU_1 -> conv2_Eltwise_3 (in-place)
I0218 11:49:51.610280 27028 net.cpp:172] Setting up conv2_3ReLU_1
I0218 11:49:51.610293 27028 net.cpp:186] Top shape: 10 16 32 72 (368640)
I0218 11:49:51.610297 27028 net.cpp:194] Memory required for data: 54651520
I0218 11:49:51.610301 27028 layer_factory.hpp:77] Creating layer conv2_Eltwise_3_conv2_3ReLU_1_0_split
I0218 11:49:51.610311 27028 net.cpp:128] Creating Layer conv2_Eltwise_3_conv2_3ReLU_1_0_split
I0218 11:49:51.610316 27028 net.cpp:558] conv2_Eltwise_3_conv2_3ReLU_1_0_split <- conv2_Eltwise_3
I0218 11:49:51.610321 27028 net.cpp:522] conv2_Eltwise_3_conv2_3ReLU_1_0_split -> conv2_Eltwise_3_conv2_3ReLU_1_0_split_0
I0218 11:49:51.610329 27028 net.cpp:522] conv2_Eltwise_3_conv2_3ReLU_1_0_split -> conv2_Eltwise_3_conv2_3ReLU_1_0_split_1
I0218 11:49:51.610383 27028 net.cpp:172] Setting up conv2_Eltwise_3_conv2_3ReLU_1_0_split
I0218 11:49:51.610393 27028 net.cpp:186] Top shape: 10 16 32 72 (368640)
I0218 11:49:51.610399 27028 net.cpp:186] Top shape: 10 16 32 72 (368640)
I0218 11:49:51.610401 27028 net.cpp:194] Memory required for data: 57600640
I0218 11:49:51.610405 27028 layer_factory.hpp:77] Creating layer conv3_1_0
I0218 11:49:51.610419 27028 net.cpp:128] Creating Layer conv3_1_0
I0218 11:49:51.610424 27028 net.cpp:558] conv3_1_0 <- conv2_Eltwise_3_conv2_3ReLU_1_0_split_0
I0218 11:49:51.610431 27028 net.cpp:522] conv3_1_0 -> conv3_1_0
I0218 11:49:51.612088 27028 net.cpp:172] Setting up conv3_1_0
I0218 11:49:51.612114 27028 net.cpp:186] Top shape: 10 32 16 36 (184320)
I0218 11:49:51.612119 27028 net.cpp:194] Memory required for data: 58337920
I0218 11:49:51.612131 27028 layer_factory.hpp:77] Creating layer conv3_1_bn0
I0218 11:49:51.612143 27028 net.cpp:128] Creating Layer conv3_1_bn0
I0218 11:49:51.612149 27028 net.cpp:558] conv3_1_bn0 <- conv3_1_0
I0218 11:49:51.612175 27028 net.cpp:509] conv3_1_bn0 -> conv3_1_0 (in-place)
I0218 11:49:51.612463 27028 net.cpp:172] Setting up conv3_1_bn0
I0218 11:49:51.612475 27028 net.cpp:186] Top shape: 10 32 16 36 (184320)
I0218 11:49:51.612479 27028 net.cpp:194] Memory required for data: 59075200
I0218 11:49:51.612488 27028 layer_factory.hpp:77] Creating layer conv3_1_scale0
I0218 11:49:51.612498 27028 net.cpp:128] Creating Layer conv3_1_scale0
I0218 11:49:51.612502 27028 net.cpp:558] conv3_1_scale0 <- conv3_1_0
I0218 11:49:51.612509 27028 net.cpp:509] conv3_1_scale0 -> conv3_1_0 (in-place)
I0218 11:49:51.612557 27028 layer_factory.hpp:77] Creating layer conv3_1_scale0
I0218 11:49:51.612721 27028 net.cpp:172] Setting up conv3_1_scale0
I0218 11:49:51.612731 27028 net.cpp:186] Top shape: 10 32 16 36 (184320)
I0218 11:49:51.612735 27028 net.cpp:194] Memory required for data: 59812480
I0218 11:49:51.612742 27028 layer_factory.hpp:77] Creating layer conv3_1_ReLU0
I0218 11:49:51.612751 27028 net.cpp:128] Creating Layer conv3_1_ReLU0
I0218 11:49:51.612756 27028 net.cpp:558] conv3_1_ReLU0 <- conv3_1_0
I0218 11:49:51.612761 27028 net.cpp:509] conv3_1_ReLU0 -> conv3_1_0 (in-place)
I0218 11:49:51.613008 27028 net.cpp:172] Setting up conv3_1_ReLU0
I0218 11:49:51.613019 27028 net.cpp:186] Top shape: 10 32 16 36 (184320)
I0218 11:49:51.613023 27028 net.cpp:194] Memory required for data: 60549760
I0218 11:49:51.613027 27028 layer_factory.hpp:77] Creating layer conv3_1_1
I0218 11:49:51.613040 27028 net.cpp:128] Creating Layer conv3_1_1
I0218 11:49:51.613047 27028 net.cpp:558] conv3_1_1 <- conv3_1_0
I0218 11:49:51.613057 27028 net.cpp:522] conv3_1_1 -> conv3_1_1
I0218 11:49:51.618314 27028 net.cpp:172] Setting up conv3_1_1
I0218 11:49:51.618340 27028 net.cpp:186] Top shape: 10 32 16 36 (184320)
I0218 11:49:51.618345 27028 net.cpp:194] Memory required for data: 61287040
I0218 11:49:51.618360 27028 layer_factory.hpp:77] Creating layer conv3_1bn1
I0218 11:49:51.618371 27028 net.cpp:128] Creating Layer conv3_1bn1
I0218 11:49:51.618376 27028 net.cpp:558] conv3_1bn1 <- conv3_1_1
I0218 11:49:51.618383 27028 net.cpp:509] conv3_1bn1 -> conv3_1_1 (in-place)
I0218 11:49:51.618667 27028 net.cpp:172] Setting up conv3_1bn1
I0218 11:49:51.618677 27028 net.cpp:186] Top shape: 10 32 16 36 (184320)
I0218 11:49:51.618681 27028 net.cpp:194] Memory required for data: 62024320
I0218 11:49:51.618690 27028 layer_factory.hpp:77] Creating layer conv3_1_scale1
I0218 11:49:51.618696 27028 net.cpp:128] Creating Layer conv3_1_scale1
I0218 11:49:51.618701 27028 net.cpp:558] conv3_1_scale1 <- conv3_1_1
I0218 11:49:51.618707 27028 net.cpp:509] conv3_1_scale1 -> conv3_1_1 (in-place)
I0218 11:49:51.618762 27028 layer_factory.hpp:77] Creating layer conv3_1_scale1
I0218 11:49:51.618926 27028 net.cpp:172] Setting up conv3_1_scale1
I0218 11:49:51.618935 27028 net.cpp:186] Top shape: 10 32 16 36 (184320)
I0218 11:49:51.618939 27028 net.cpp:194] Memory required for data: 62761600
I0218 11:49:51.618947 27028 layer_factory.hpp:77] Creating layer conv3_1_down
I0218 11:49:51.618959 27028 net.cpp:128] Creating Layer conv3_1_down
I0218 11:49:51.618968 27028 net.cpp:558] conv3_1_down <- conv2_Eltwise_3_conv2_3ReLU_1_0_split_1
I0218 11:49:51.618978 27028 net.cpp:522] conv3_1_down -> conv3_1_down
I0218 11:49:51.624888 27028 net.cpp:172] Setting up conv3_1_down
I0218 11:49:51.624915 27028 net.cpp:186] Top shape: 10 32 16 36 (184320)
I0218 11:49:51.624919 27028 net.cpp:194] Memory required for data: 63498880
I0218 11:49:51.624943 27028 layer_factory.hpp:77] Creating layer conv3_1_bn_down
I0218 11:49:51.624955 27028 net.cpp:128] Creating Layer conv3_1_bn_down
I0218 11:49:51.624960 27028 net.cpp:558] conv3_1_bn_down <- conv3_1_down
I0218 11:49:51.624967 27028 net.cpp:509] conv3_1_bn_down -> conv3_1_down (in-place)
I0218 11:49:51.625257 27028 net.cpp:172] Setting up conv3_1_bn_down
I0218 11:49:51.625267 27028 net.cpp:186] Top shape: 10 32 16 36 (184320)
I0218 11:49:51.625272 27028 net.cpp:194] Memory required for data: 64236160
I0218 11:49:51.625280 27028 layer_factory.hpp:77] Creating layer conv3_1_scale_down
I0218 11:49:51.625308 27028 net.cpp:128] Creating Layer conv3_1_scale_down
I0218 11:49:51.625313 27028 net.cpp:558] conv3_1_scale_down <- conv3_1_down
I0218 11:49:51.625319 27028 net.cpp:509] conv3_1_scale_down -> conv3_1_down (in-place)
I0218 11:49:51.625373 27028 layer_factory.hpp:77] Creating layer conv3_1_scale_down
I0218 11:49:51.625535 27028 net.cpp:172] Setting up conv3_1_scale_down
I0218 11:49:51.625545 27028 net.cpp:186] Top shape: 10 32 16 36 (184320)
I0218 11:49:51.625550 27028 net.cpp:194] Memory required for data: 64973440
I0218 11:49:51.625557 27028 layer_factory.hpp:77] Creating layer conv3_Eltwise_1
I0218 11:49:51.625568 27028 net.cpp:128] Creating Layer conv3_Eltwise_1
I0218 11:49:51.625576 27028 net.cpp:558] conv3_Eltwise_1 <- conv3_1_1
I0218 11:49:51.625581 27028 net.cpp:558] conv3_Eltwise_1 <- conv3_1_down
I0218 11:49:51.625587 27028 net.cpp:522] conv3_Eltwise_1 -> conv3_Eltwise_1
I0218 11:49:51.625618 27028 net.cpp:172] Setting up conv3_Eltwise_1
I0218 11:49:51.625627 27028 net.cpp:186] Top shape: 10 32 16 36 (184320)
I0218 11:49:51.625632 27028 net.cpp:194] Memory required for data: 65710720
I0218 11:49:51.625636 27028 layer_factory.hpp:77] Creating layer conv3_1ReLU_1
I0218 11:49:51.625643 27028 net.cpp:128] Creating Layer conv3_1ReLU_1
I0218 11:49:51.625648 27028 net.cpp:558] conv3_1ReLU_1 <- conv3_Eltwise_1
I0218 11:49:51.625653 27028 net.cpp:509] conv3_1ReLU_1 -> conv3_Eltwise_1 (in-place)
I0218 11:49:51.626948 27028 net.cpp:172] Setting up conv3_1ReLU_1
I0218 11:49:51.626974 27028 net.cpp:186] Top shape: 10 32 16 36 (184320)
I0218 11:49:51.626978 27028 net.cpp:194] Memory required for data: 66448000
I0218 11:49:51.626983 27028 layer_factory.hpp:77] Creating layer conv3_Eltwise_1_conv3_1ReLU_1_0_split
I0218 11:49:51.626996 27028 net.cpp:128] Creating Layer conv3_Eltwise_1_conv3_1ReLU_1_0_split
I0218 11:49:51.627001 27028 net.cpp:558] conv3_Eltwise_1_conv3_1ReLU_1_0_split <- conv3_Eltwise_1
I0218 11:49:51.627010 27028 net.cpp:522] conv3_Eltwise_1_conv3_1ReLU_1_0_split -> conv3_Eltwise_1_conv3_1ReLU_1_0_split_0
I0218 11:49:51.627019 27028 net.cpp:522] conv3_Eltwise_1_conv3_1ReLU_1_0_split -> conv3_Eltwise_1_conv3_1ReLU_1_0_split_1
I0218 11:49:51.627079 27028 net.cpp:172] Setting up conv3_Eltwise_1_conv3_1ReLU_1_0_split
I0218 11:49:51.627089 27028 net.cpp:186] Top shape: 10 32 16 36 (184320)
I0218 11:49:51.627094 27028 net.cpp:186] Top shape: 10 32 16 36 (184320)
I0218 11:49:51.627099 27028 net.cpp:194] Memory required for data: 67922560
I0218 11:49:51.627102 27028 layer_factory.hpp:77] Creating layer conv3_2_0
I0218 11:49:51.627115 27028 net.cpp:128] Creating Layer conv3_2_0
I0218 11:49:51.627120 27028 net.cpp:558] conv3_2_0 <- conv3_Eltwise_1_conv3_1ReLU_1_0_split_0
I0218 11:49:51.627130 27028 net.cpp:522] conv3_2_0 -> conv3_2_0
I0218 11:49:51.633679 27028 net.cpp:172] Setting up conv3_2_0
I0218 11:49:51.633707 27028 net.cpp:186] Top shape: 10 32 16 36 (184320)
I0218 11:49:51.633710 27028 net.cpp:194] Memory required for data: 68659840
I0218 11:49:51.633719 27028 layer_factory.hpp:77] Creating layer conv3_2_bn0
I0218 11:49:51.633730 27028 net.cpp:128] Creating Layer conv3_2_bn0
I0218 11:49:51.633736 27028 net.cpp:558] conv3_2_bn0 <- conv3_2_0
I0218 11:49:51.633743 27028 net.cpp:509] conv3_2_bn0 -> conv3_2_0 (in-place)
I0218 11:49:51.634050 27028 net.cpp:172] Setting up conv3_2_bn0
I0218 11:49:51.634063 27028 net.cpp:186] Top shape: 10 32 16 36 (184320)
I0218 11:49:51.634068 27028 net.cpp:194] Memory required for data: 69397120
I0218 11:49:51.634075 27028 layer_factory.hpp:77] Creating layer conv3_2_scale0
I0218 11:49:51.634083 27028 net.cpp:128] Creating Layer conv3_2_scale0
I0218 11:49:51.634086 27028 net.cpp:558] conv3_2_scale0 <- conv3_2_0
I0218 11:49:51.634093 27028 net.cpp:509] conv3_2_scale0 -> conv3_2_0 (in-place)
I0218 11:49:51.634146 27028 layer_factory.hpp:77] Creating layer conv3_2_scale0
I0218 11:49:51.634306 27028 net.cpp:172] Setting up conv3_2_scale0
I0218 11:49:51.634317 27028 net.cpp:186] Top shape: 10 32 16 36 (184320)
I0218 11:49:51.634337 27028 net.cpp:194] Memory required for data: 70134400
I0218 11:49:51.634346 27028 layer_factory.hpp:77] Creating layer conv3_2_ReLU0
I0218 11:49:51.634351 27028 net.cpp:128] Creating Layer conv3_2_ReLU0
I0218 11:49:51.634356 27028 net.cpp:558] conv3_2_ReLU0 <- conv3_2_0
I0218 11:49:51.634364 27028 net.cpp:509] conv3_2_ReLU0 -> conv3_2_0 (in-place)
I0218 11:49:51.635694 27028 net.cpp:172] Setting up conv3_2_ReLU0
I0218 11:49:51.635704 27028 net.cpp:186] Top shape: 10 32 16 36 (184320)
I0218 11:49:51.635709 27028 net.cpp:194] Memory required for data: 70871680
I0218 11:49:51.635712 27028 layer_factory.hpp:77] Creating layer conv3_2_1
I0218 11:49:51.635725 27028 net.cpp:128] Creating Layer conv3_2_1
I0218 11:49:51.635730 27028 net.cpp:558] conv3_2_1 <- conv3_2_0
I0218 11:49:51.635740 27028 net.cpp:522] conv3_2_1 -> conv3_2_1
I0218 11:49:51.641944 27028 net.cpp:172] Setting up conv3_2_1
I0218 11:49:51.641963 27028 net.cpp:186] Top shape: 10 32 16 36 (184320)
I0218 11:49:51.641966 27028 net.cpp:194] Memory required for data: 71608960
I0218 11:49:51.641975 27028 layer_factory.hpp:77] Creating layer conv3_2bn1
I0218 11:49:51.641983 27028 net.cpp:128] Creating Layer conv3_2bn1
I0218 11:49:51.641988 27028 net.cpp:558] conv3_2bn1 <- conv3_2_1
I0218 11:49:51.641997 27028 net.cpp:509] conv3_2bn1 -> conv3_2_1 (in-place)
I0218 11:49:51.642282 27028 net.cpp:172] Setting up conv3_2bn1
I0218 11:49:51.642289 27028 net.cpp:186] Top shape: 10 32 16 36 (184320)
I0218 11:49:51.642293 27028 net.cpp:194] Memory required for data: 72346240
I0218 11:49:51.642302 27028 layer_factory.hpp:77] Creating layer conv3_2_scale1
I0218 11:49:51.642310 27028 net.cpp:128] Creating Layer conv3_2_scale1
I0218 11:49:51.642314 27028 net.cpp:558] conv3_2_scale1 <- conv3_2_1
I0218 11:49:51.642320 27028 net.cpp:509] conv3_2_scale1 -> conv3_2_1 (in-place)
I0218 11:49:51.642369 27028 layer_factory.hpp:77] Creating layer conv3_2_scale1
I0218 11:49:51.642527 27028 net.cpp:172] Setting up conv3_2_scale1
I0218 11:49:51.642534 27028 net.cpp:186] Top shape: 10 32 16 36 (184320)
I0218 11:49:51.642539 27028 net.cpp:194] Memory required for data: 73083520
I0218 11:49:51.642544 27028 layer_factory.hpp:77] Creating layer conv3_Eltwise_2
I0218 11:49:51.642552 27028 net.cpp:128] Creating Layer conv3_Eltwise_2
I0218 11:49:51.642557 27028 net.cpp:558] conv3_Eltwise_2 <- conv3_Eltwise_1_conv3_1ReLU_1_0_split_1
I0218 11:49:51.642562 27028 net.cpp:558] conv3_Eltwise_2 <- conv3_2_1
I0218 11:49:51.642570 27028 net.cpp:522] conv3_Eltwise_2 -> conv3_Eltwise_2
I0218 11:49:51.642597 27028 net.cpp:172] Setting up conv3_Eltwise_2
I0218 11:49:51.642604 27028 net.cpp:186] Top shape: 10 32 16 36 (184320)
I0218 11:49:51.642607 27028 net.cpp:194] Memory required for data: 73820800
I0218 11:49:51.642611 27028 layer_factory.hpp:77] Creating layer conv3_2ReLU_1
I0218 11:49:51.642619 27028 net.cpp:128] Creating Layer conv3_2ReLU_1
I0218 11:49:51.642624 27028 net.cpp:558] conv3_2ReLU_1 <- conv3_Eltwise_2
I0218 11:49:51.642629 27028 net.cpp:509] conv3_2ReLU_1 -> conv3_Eltwise_2 (in-place)
I0218 11:49:51.642871 27028 net.cpp:172] Setting up conv3_2ReLU_1
I0218 11:49:51.642880 27028 net.cpp:186] Top shape: 10 32 16 36 (184320)
I0218 11:49:51.642884 27028 net.cpp:194] Memory required for data: 74558080
I0218 11:49:51.642889 27028 layer_factory.hpp:77] Creating layer conv3_Eltwise_2_conv3_2ReLU_1_0_split
I0218 11:49:51.642897 27028 net.cpp:128] Creating Layer conv3_Eltwise_2_conv3_2ReLU_1_0_split
I0218 11:49:51.642901 27028 net.cpp:558] conv3_Eltwise_2_conv3_2ReLU_1_0_split <- conv3_Eltwise_2
I0218 11:49:51.642908 27028 net.cpp:522] conv3_Eltwise_2_conv3_2ReLU_1_0_split -> conv3_Eltwise_2_conv3_2ReLU_1_0_split_0
I0218 11:49:51.642918 27028 net.cpp:522] conv3_Eltwise_2_conv3_2ReLU_1_0_split -> conv3_Eltwise_2_conv3_2ReLU_1_0_split_1
I0218 11:49:51.642971 27028 net.cpp:172] Setting up conv3_Eltwise_2_conv3_2ReLU_1_0_split
I0218 11:49:51.642977 27028 net.cpp:186] Top shape: 10 32 16 36 (184320)
I0218 11:49:51.642983 27028 net.cpp:186] Top shape: 10 32 16 36 (184320)
I0218 11:49:51.642987 27028 net.cpp:194] Memory required for data: 76032640
I0218 11:49:51.643007 27028 layer_factory.hpp:77] Creating layer conv3_3_0
I0218 11:49:51.643031 27028 net.cpp:128] Creating Layer conv3_3_0
I0218 11:49:51.643036 27028 net.cpp:558] conv3_3_0 <- conv3_Eltwise_2_conv3_2ReLU_1_0_split_0
I0218 11:49:51.643043 27028 net.cpp:522] conv3_3_0 -> conv3_3_0
I0218 11:49:51.649523 27028 net.cpp:172] Setting up conv3_3_0
I0218 11:49:51.649541 27028 net.cpp:186] Top shape: 10 32 16 36 (184320)
I0218 11:49:51.649546 27028 net.cpp:194] Memory required for data: 76769920
I0218 11:49:51.649555 27028 layer_factory.hpp:77] Creating layer conv3_3_bn0
I0218 11:49:51.649565 27028 net.cpp:128] Creating Layer conv3_3_bn0
I0218 11:49:51.649570 27028 net.cpp:558] conv3_3_bn0 <- conv3_3_0
I0218 11:49:51.649580 27028 net.cpp:509] conv3_3_bn0 -> conv3_3_0 (in-place)
I0218 11:49:51.649865 27028 net.cpp:172] Setting up conv3_3_bn0
I0218 11:49:51.649873 27028 net.cpp:186] Top shape: 10 32 16 36 (184320)
I0218 11:49:51.649876 27028 net.cpp:194] Memory required for data: 77507200
I0218 11:49:51.649885 27028 layer_factory.hpp:77] Creating layer conv3_3_scale0
I0218 11:49:51.649891 27028 net.cpp:128] Creating Layer conv3_3_scale0
I0218 11:49:51.649895 27028 net.cpp:558] conv3_3_scale0 <- conv3_3_0
I0218 11:49:51.649901 27028 net.cpp:509] conv3_3_scale0 -> conv3_3_0 (in-place)
I0218 11:49:51.649965 27028 layer_factory.hpp:77] Creating layer conv3_3_scale0
I0218 11:49:51.650128 27028 net.cpp:172] Setting up conv3_3_scale0
I0218 11:49:51.650137 27028 net.cpp:186] Top shape: 10 32 16 36 (184320)
I0218 11:49:51.650141 27028 net.cpp:194] Memory required for data: 78244480
I0218 11:49:51.650148 27028 layer_factory.hpp:77] Creating layer conv3_3_ReLU0
I0218 11:49:51.650154 27028 net.cpp:128] Creating Layer conv3_3_ReLU0
I0218 11:49:51.650158 27028 net.cpp:558] conv3_3_ReLU0 <- conv3_3_0
I0218 11:49:51.650163 27028 net.cpp:509] conv3_3_ReLU0 -> conv3_3_0 (in-place)
I0218 11:49:51.651602 27028 net.cpp:172] Setting up conv3_3_ReLU0
I0218 11:49:51.651618 27028 net.cpp:186] Top shape: 10 32 16 36 (184320)
I0218 11:49:51.651623 27028 net.cpp:194] Memory required for data: 78981760
I0218 11:49:51.651628 27028 layer_factory.hpp:77] Creating layer conv3_3_1
I0218 11:49:51.651643 27028 net.cpp:128] Creating Layer conv3_3_1
I0218 11:49:51.651648 27028 net.cpp:558] conv3_3_1 <- conv3_3_0
I0218 11:49:51.651656 27028 net.cpp:522] conv3_3_1 -> conv3_3_1
I0218 11:49:51.658279 27028 net.cpp:172] Setting up conv3_3_1
I0218 11:49:51.658303 27028 net.cpp:186] Top shape: 10 32 16 36 (184320)
I0218 11:49:51.658308 27028 net.cpp:194] Memory required for data: 79719040
I0218 11:49:51.658316 27028 layer_factory.hpp:77] Creating layer conv3_3bn1
I0218 11:49:51.658329 27028 net.cpp:128] Creating Layer conv3_3bn1
I0218 11:49:51.658334 27028 net.cpp:558] conv3_3bn1 <- conv3_3_1
I0218 11:49:51.658342 27028 net.cpp:509] conv3_3bn1 -> conv3_3_1 (in-place)
I0218 11:49:51.658630 27028 net.cpp:172] Setting up conv3_3bn1
I0218 11:49:51.658638 27028 net.cpp:186] Top shape: 10 32 16 36 (184320)
I0218 11:49:51.658643 27028 net.cpp:194] Memory required for data: 80456320
I0218 11:49:51.658650 27028 layer_factory.hpp:77] Creating layer conv3_3_scale1
I0218 11:49:51.658659 27028 net.cpp:128] Creating Layer conv3_3_scale1
I0218 11:49:51.658664 27028 net.cpp:558] conv3_3_scale1 <- conv3_3_1
I0218 11:49:51.658669 27028 net.cpp:509] conv3_3_scale1 -> conv3_3_1 (in-place)
I0218 11:49:51.658720 27028 layer_factory.hpp:77] Creating layer conv3_3_scale1
I0218 11:49:51.658885 27028 net.cpp:172] Setting up conv3_3_scale1
I0218 11:49:51.658892 27028 net.cpp:186] Top shape: 10 32 16 36 (184320)
I0218 11:49:51.658895 27028 net.cpp:194] Memory required for data: 81193600
I0218 11:49:51.658902 27028 layer_factory.hpp:77] Creating layer conv3_Eltwise_3
I0218 11:49:51.658911 27028 net.cpp:128] Creating Layer conv3_Eltwise_3
I0218 11:49:51.658916 27028 net.cpp:558] conv3_Eltwise_3 <- conv3_Eltwise_2_conv3_2ReLU_1_0_split_1
I0218 11:49:51.658921 27028 net.cpp:558] conv3_Eltwise_3 <- conv3_3_1
I0218 11:49:51.658927 27028 net.cpp:522] conv3_Eltwise_3 -> conv3_Eltwise_3
I0218 11:49:51.658977 27028 net.cpp:172] Setting up conv3_Eltwise_3
I0218 11:49:51.658984 27028 net.cpp:186] Top shape: 10 32 16 36 (184320)
I0218 11:49:51.658987 27028 net.cpp:194] Memory required for data: 81930880
I0218 11:49:51.658991 27028 layer_factory.hpp:77] Creating layer conv3_3ReLU_1
I0218 11:49:51.658998 27028 net.cpp:128] Creating Layer conv3_3ReLU_1
I0218 11:49:51.659003 27028 net.cpp:558] conv3_3ReLU_1 <- conv3_Eltwise_3
I0218 11:49:51.659008 27028 net.cpp:509] conv3_3ReLU_1 -> conv3_Eltwise_3 (in-place)
I0218 11:49:51.660347 27028 net.cpp:172] Setting up conv3_3ReLU_1
I0218 11:49:51.660357 27028 net.cpp:186] Top shape: 10 32 16 36 (184320)
I0218 11:49:51.660362 27028 net.cpp:194] Memory required for data: 82668160
I0218 11:49:51.660365 27028 layer_factory.hpp:77] Creating layer conv3_Eltwise_3_conv3_3ReLU_1_0_split
I0218 11:49:51.660372 27028 net.cpp:128] Creating Layer conv3_Eltwise_3_conv3_3ReLU_1_0_split
I0218 11:49:51.660377 27028 net.cpp:558] conv3_Eltwise_3_conv3_3ReLU_1_0_split <- conv3_Eltwise_3
I0218 11:49:51.660385 27028 net.cpp:522] conv3_Eltwise_3_conv3_3ReLU_1_0_split -> conv3_Eltwise_3_conv3_3ReLU_1_0_split_0
I0218 11:49:51.660393 27028 net.cpp:522] conv3_Eltwise_3_conv3_3ReLU_1_0_split -> conv3_Eltwise_3_conv3_3ReLU_1_0_split_1
I0218 11:49:51.660449 27028 net.cpp:172] Setting up conv3_Eltwise_3_conv3_3ReLU_1_0_split
I0218 11:49:51.660455 27028 net.cpp:186] Top shape: 10 32 16 36 (184320)
I0218 11:49:51.660465 27028 net.cpp:186] Top shape: 10 32 16 36 (184320)
I0218 11:49:51.660467 27028 net.cpp:194] Memory required for data: 84142720
I0218 11:49:51.660471 27028 layer_factory.hpp:77] Creating layer conv4_1_0
I0218 11:49:51.660483 27028 net.cpp:128] Creating Layer conv4_1_0
I0218 11:49:51.660488 27028 net.cpp:558] conv4_1_0 <- conv3_Eltwise_3_conv3_3ReLU_1_0_split_0
I0218 11:49:51.660498 27028 net.cpp:522] conv4_1_0 -> conv4_1_0
I0218 11:49:51.667060 27028 net.cpp:172] Setting up conv4_1_0
I0218 11:49:51.667085 27028 net.cpp:186] Top shape: 10 64 8 18 (92160)
I0218 11:49:51.667089 27028 net.cpp:194] Memory required for data: 84511360
I0218 11:49:51.667104 27028 layer_factory.hpp:77] Creating layer conv4_1_bn0
I0218 11:49:51.667115 27028 net.cpp:128] Creating Layer conv4_1_bn0
I0218 11:49:51.667124 27028 net.cpp:558] conv4_1_bn0 <- conv4_1_0
I0218 11:49:51.667134 27028 net.cpp:509] conv4_1_bn0 -> conv4_1_0 (in-place)
I0218 11:49:51.667418 27028 net.cpp:172] Setting up conv4_1_bn0
I0218 11:49:51.667428 27028 net.cpp:186] Top shape: 10 64 8 18 (92160)
I0218 11:49:51.667431 27028 net.cpp:194] Memory required for data: 84880000
I0218 11:49:51.667439 27028 layer_factory.hpp:77] Creating layer conv4_1_scale0
I0218 11:49:51.667449 27028 net.cpp:128] Creating Layer conv4_1_scale0
I0218 11:49:51.667459 27028 net.cpp:558] conv4_1_scale0 <- conv4_1_0
I0218 11:49:51.667464 27028 net.cpp:509] conv4_1_scale0 -> conv4_1_0 (in-place)
I0218 11:49:51.667515 27028 layer_factory.hpp:77] Creating layer conv4_1_scale0
I0218 11:49:51.667685 27028 net.cpp:172] Setting up conv4_1_scale0
I0218 11:49:51.667695 27028 net.cpp:186] Top shape: 10 64 8 18 (92160)
I0218 11:49:51.667698 27028 net.cpp:194] Memory required for data: 85248640
I0218 11:49:51.667706 27028 layer_factory.hpp:77] Creating layer conv4_1_ReLU0
I0218 11:49:51.667711 27028 net.cpp:128] Creating Layer conv4_1_ReLU0
I0218 11:49:51.667721 27028 net.cpp:558] conv4_1_ReLU0 <- conv4_1_0
I0218 11:49:51.667733 27028 net.cpp:509] conv4_1_ReLU0 -> conv4_1_0 (in-place)
I0218 11:49:51.669066 27028 net.cpp:172] Setting up conv4_1_ReLU0
I0218 11:49:51.669085 27028 net.cpp:186] Top shape: 10 64 8 18 (92160)
I0218 11:49:51.669090 27028 net.cpp:194] Memory required for data: 85617280
I0218 11:49:51.669093 27028 layer_factory.hpp:77] Creating layer conv4_1_1
I0218 11:49:51.669111 27028 net.cpp:128] Creating Layer conv4_1_1
I0218 11:49:51.669124 27028 net.cpp:558] conv4_1_1 <- conv4_1_0
I0218 11:49:51.669134 27028 net.cpp:522] conv4_1_1 -> conv4_1_1
I0218 11:49:51.675781 27028 net.cpp:172] Setting up conv4_1_1
I0218 11:49:51.675806 27028 net.cpp:186] Top shape: 10 64 8 18 (92160)
I0218 11:49:51.675829 27028 net.cpp:194] Memory required for data: 85985920
I0218 11:49:51.675839 27028 layer_factory.hpp:77] Creating layer conv4_1bn1
I0218 11:49:51.675854 27028 net.cpp:128] Creating Layer conv4_1bn1
I0218 11:49:51.675863 27028 net.cpp:558] conv4_1bn1 <- conv4_1_1
I0218 11:49:51.675870 27028 net.cpp:509] conv4_1bn1 -> conv4_1_1 (in-place)
I0218 11:49:51.676160 27028 net.cpp:172] Setting up conv4_1bn1
I0218 11:49:51.676170 27028 net.cpp:186] Top shape: 10 64 8 18 (92160)
I0218 11:49:51.676174 27028 net.cpp:194] Memory required for data: 86354560
I0218 11:49:51.676182 27028 layer_factory.hpp:77] Creating layer conv4_1_scale1
I0218 11:49:51.676189 27028 net.cpp:128] Creating Layer conv4_1_scale1
I0218 11:49:51.676194 27028 net.cpp:558] conv4_1_scale1 <- conv4_1_1
I0218 11:49:51.676200 27028 net.cpp:509] conv4_1_scale1 -> conv4_1_1 (in-place)
I0218 11:49:51.676254 27028 layer_factory.hpp:77] Creating layer conv4_1_scale1
I0218 11:49:51.676424 27028 net.cpp:172] Setting up conv4_1_scale1
I0218 11:49:51.676436 27028 net.cpp:186] Top shape: 10 64 8 18 (92160)
I0218 11:49:51.676442 27028 net.cpp:194] Memory required for data: 86723200
I0218 11:49:51.676450 27028 layer_factory.hpp:77] Creating layer conv4_1_down
I0218 11:49:51.676461 27028 net.cpp:128] Creating Layer conv4_1_down
I0218 11:49:51.676466 27028 net.cpp:558] conv4_1_down <- conv3_Eltwise_3_conv3_3ReLU_1_0_split_1
I0218 11:49:51.676477 27028 net.cpp:522] conv4_1_down -> conv4_1_down
I0218 11:49:51.682309 27028 net.cpp:172] Setting up conv4_1_down
I0218 11:49:51.682335 27028 net.cpp:186] Top shape: 10 64 8 18 (92160)
I0218 11:49:51.682340 27028 net.cpp:194] Memory required for data: 87091840
I0218 11:49:51.682349 27028 layer_factory.hpp:77] Creating layer conv4_1_bn_down
I0218 11:49:51.682360 27028 net.cpp:128] Creating Layer conv4_1_bn_down
I0218 11:49:51.682365 27028 net.cpp:558] conv4_1_bn_down <- conv4_1_down
I0218 11:49:51.682373 27028 net.cpp:509] conv4_1_bn_down -> conv4_1_down (in-place)
I0218 11:49:51.682667 27028 net.cpp:172] Setting up conv4_1_bn_down
I0218 11:49:51.682680 27028 net.cpp:186] Top shape: 10 64 8 18 (92160)
I0218 11:49:51.682684 27028 net.cpp:194] Memory required for data: 87460480
I0218 11:49:51.682693 27028 layer_factory.hpp:77] Creating layer conv4_1_scale_down
I0218 11:49:51.682701 27028 net.cpp:128] Creating Layer conv4_1_scale_down
I0218 11:49:51.682706 27028 net.cpp:558] conv4_1_scale_down <- conv4_1_down
I0218 11:49:51.682713 27028 net.cpp:509] conv4_1_scale_down -> conv4_1_down (in-place)
I0218 11:49:51.682763 27028 layer_factory.hpp:77] Creating layer conv4_1_scale_down
I0218 11:49:51.682929 27028 net.cpp:172] Setting up conv4_1_scale_down
I0218 11:49:51.682940 27028 net.cpp:186] Top shape: 10 64 8 18 (92160)
I0218 11:49:51.682945 27028 net.cpp:194] Memory required for data: 87829120
I0218 11:49:51.682951 27028 layer_factory.hpp:77] Creating layer conv4_Eltwise_1
I0218 11:49:51.682958 27028 net.cpp:128] Creating Layer conv4_Eltwise_1
I0218 11:49:51.682962 27028 net.cpp:558] conv4_Eltwise_1 <- conv4_1_1
I0218 11:49:51.682967 27028 net.cpp:558] conv4_Eltwise_1 <- conv4_1_down
I0218 11:49:51.682976 27028 net.cpp:522] conv4_Eltwise_1 -> conv4_Eltwise_1
I0218 11:49:51.683004 27028 net.cpp:172] Setting up conv4_Eltwise_1
I0218 11:49:51.683012 27028 net.cpp:186] Top shape: 10 64 8 18 (92160)
I0218 11:49:51.683015 27028 net.cpp:194] Memory required for data: 88197760
I0218 11:49:51.683019 27028 layer_factory.hpp:77] Creating layer conv4_1ReLU_1
I0218 11:49:51.683027 27028 net.cpp:128] Creating Layer conv4_1ReLU_1
I0218 11:49:51.683032 27028 net.cpp:558] conv4_1ReLU_1 <- conv4_Eltwise_1
I0218 11:49:51.683037 27028 net.cpp:509] conv4_1ReLU_1 -> conv4_Eltwise_1 (in-place)
I0218 11:49:51.684353 27028 net.cpp:172] Setting up conv4_1ReLU_1
I0218 11:49:51.684368 27028 net.cpp:186] Top shape: 10 64 8 18 (92160)
I0218 11:49:51.684375 27028 net.cpp:194] Memory required for data: 88566400
I0218 11:49:51.684378 27028 layer_factory.hpp:77] Creating layer conv4_Eltwise_1_conv4_1ReLU_1_0_split
I0218 11:49:51.684406 27028 net.cpp:128] Creating Layer conv4_Eltwise_1_conv4_1ReLU_1_0_split
I0218 11:49:51.684412 27028 net.cpp:558] conv4_Eltwise_1_conv4_1ReLU_1_0_split <- conv4_Eltwise_1
I0218 11:49:51.684422 27028 net.cpp:522] conv4_Eltwise_1_conv4_1ReLU_1_0_split -> conv4_Eltwise_1_conv4_1ReLU_1_0_split_0
I0218 11:49:51.684430 27028 net.cpp:522] conv4_Eltwise_1_conv4_1ReLU_1_0_split -> conv4_Eltwise_1_conv4_1ReLU_1_0_split_1
I0218 11:49:51.684485 27028 net.cpp:172] Setting up conv4_Eltwise_1_conv4_1ReLU_1_0_split
I0218 11:49:51.684499 27028 net.cpp:186] Top shape: 10 64 8 18 (92160)
I0218 11:49:51.684505 27028 net.cpp:186] Top shape: 10 64 8 18 (92160)
I0218 11:49:51.684509 27028 net.cpp:194] Memory required for data: 89303680
I0218 11:49:51.684514 27028 layer_factory.hpp:77] Creating layer conv4_2_0
I0218 11:49:51.684525 27028 net.cpp:128] Creating Layer conv4_2_0
I0218 11:49:51.684530 27028 net.cpp:558] conv4_2_0 <- conv4_Eltwise_1_conv4_1ReLU_1_0_split_0
I0218 11:49:51.684537 27028 net.cpp:522] conv4_2_0 -> conv4_2_0
I0218 11:49:51.691283 27028 net.cpp:172] Setting up conv4_2_0
I0218 11:49:51.691315 27028 net.cpp:186] Top shape: 10 64 8 18 (92160)
I0218 11:49:51.691320 27028 net.cpp:194] Memory required for data: 89672320
I0218 11:49:51.691334 27028 layer_factory.hpp:77] Creating layer conv4_2_bn0
I0218 11:49:51.691342 27028 net.cpp:128] Creating Layer conv4_2_bn0
I0218 11:49:51.691365 27028 net.cpp:558] conv4_2_bn0 <- conv4_2_0
I0218 11:49:51.691375 27028 net.cpp:509] conv4_2_bn0 -> conv4_2_0 (in-place)
I0218 11:49:51.691673 27028 net.cpp:172] Setting up conv4_2_bn0
I0218 11:49:51.691684 27028 net.cpp:186] Top shape: 10 64 8 18 (92160)
I0218 11:49:51.691689 27028 net.cpp:194] Memory required for data: 90040960
I0218 11:49:51.691696 27028 layer_factory.hpp:77] Creating layer conv4_2_scale0
I0218 11:49:51.691704 27028 net.cpp:128] Creating Layer conv4_2_scale0
I0218 11:49:51.691715 27028 net.cpp:558] conv4_2_scale0 <- conv4_2_0
I0218 11:49:51.691721 27028 net.cpp:509] conv4_2_scale0 -> conv4_2_0 (in-place)
I0218 11:49:51.691774 27028 layer_factory.hpp:77] Creating layer conv4_2_scale0
I0218 11:49:51.691939 27028 net.cpp:172] Setting up conv4_2_scale0
I0218 11:49:51.691952 27028 net.cpp:186] Top shape: 10 64 8 18 (92160)
I0218 11:49:51.691956 27028 net.cpp:194] Memory required for data: 90409600
I0218 11:49:51.691964 27028 layer_factory.hpp:77] Creating layer conv4_2_ReLU0
I0218 11:49:51.691972 27028 net.cpp:128] Creating Layer conv4_2_ReLU0
I0218 11:49:51.691977 27028 net.cpp:558] conv4_2_ReLU0 <- conv4_2_0
I0218 11:49:51.691982 27028 net.cpp:509] conv4_2_ReLU0 -> conv4_2_0 (in-place)
I0218 11:49:51.693094 27028 net.cpp:172] Setting up conv4_2_ReLU0
I0218 11:49:51.693120 27028 net.cpp:186] Top shape: 10 64 8 18 (92160)
I0218 11:49:51.693123 27028 net.cpp:194] Memory required for data: 90778240
I0218 11:49:51.693128 27028 layer_factory.hpp:77] Creating layer conv4_2_1
I0218 11:49:51.693148 27028 net.cpp:128] Creating Layer conv4_2_1
I0218 11:49:51.693153 27028 net.cpp:558] conv4_2_1 <- conv4_2_0
I0218 11:49:51.693161 27028 net.cpp:522] conv4_2_1 -> conv4_2_1
I0218 11:49:51.699796 27028 net.cpp:172] Setting up conv4_2_1
I0218 11:49:51.699822 27028 net.cpp:186] Top shape: 10 64 8 18 (92160)
I0218 11:49:51.699826 27028 net.cpp:194] Memory required for data: 91146880
I0218 11:49:51.699836 27028 layer_factory.hpp:77] Creating layer conv4_2bn1
I0218 11:49:51.699851 27028 net.cpp:128] Creating Layer conv4_2bn1
I0218 11:49:51.699856 27028 net.cpp:558] conv4_2bn1 <- conv4_2_1
I0218 11:49:51.699867 27028 net.cpp:509] conv4_2bn1 -> conv4_2_1 (in-place)
I0218 11:49:51.700160 27028 net.cpp:172] Setting up conv4_2bn1
I0218 11:49:51.700170 27028 net.cpp:186] Top shape: 10 64 8 18 (92160)
I0218 11:49:51.700176 27028 net.cpp:194] Memory required for data: 91515520
I0218 11:49:51.700198 27028 layer_factory.hpp:77] Creating layer conv4_2_scale1
I0218 11:49:51.700212 27028 net.cpp:128] Creating Layer conv4_2_scale1
I0218 11:49:51.700217 27028 net.cpp:558] conv4_2_scale1 <- conv4_2_1
I0218 11:49:51.700222 27028 net.cpp:509] conv4_2_scale1 -> conv4_2_1 (in-place)
I0218 11:49:51.700300 27028 layer_factory.hpp:77] Creating layer conv4_2_scale1
I0218 11:49:51.700474 27028 net.cpp:172] Setting up conv4_2_scale1
I0218 11:49:51.700484 27028 net.cpp:186] Top shape: 10 64 8 18 (92160)
I0218 11:49:51.700490 27028 net.cpp:194] Memory required for data: 91884160
I0218 11:49:51.700497 27028 layer_factory.hpp:77] Creating layer conv4_Eltwise_2
I0218 11:49:51.700505 27028 net.cpp:128] Creating Layer conv4_Eltwise_2
I0218 11:49:51.700510 27028 net.cpp:558] conv4_Eltwise_2 <- conv4_Eltwise_1_conv4_1ReLU_1_0_split_1
I0218 11:49:51.700515 27028 net.cpp:558] conv4_Eltwise_2 <- conv4_2_1
I0218 11:49:51.700522 27028 net.cpp:522] conv4_Eltwise_2 -> conv4_Eltwise_2
I0218 11:49:51.700554 27028 net.cpp:172] Setting up conv4_Eltwise_2
I0218 11:49:51.700562 27028 net.cpp:186] Top shape: 10 64 8 18 (92160)
I0218 11:49:51.700565 27028 net.cpp:194] Memory required for data: 92252800
I0218 11:49:51.700569 27028 layer_factory.hpp:77] Creating layer conv4_2ReLU_1
I0218 11:49:51.700575 27028 net.cpp:128] Creating Layer conv4_2ReLU_1
I0218 11:49:51.700580 27028 net.cpp:558] conv4_2ReLU_1 <- conv4_Eltwise_2
I0218 11:49:51.700587 27028 net.cpp:509] conv4_2ReLU_1 -> conv4_Eltwise_2 (in-place)
I0218 11:49:51.701854 27028 net.cpp:172] Setting up conv4_2ReLU_1
I0218 11:49:51.701872 27028 net.cpp:186] Top shape: 10 64 8 18 (92160)
I0218 11:49:51.701876 27028 net.cpp:194] Memory required for data: 92621440
I0218 11:49:51.701881 27028 layer_factory.hpp:77] Creating layer conv4_Eltwise_2_conv4_2ReLU_1_0_split
I0218 11:49:51.701889 27028 net.cpp:128] Creating Layer conv4_Eltwise_2_conv4_2ReLU_1_0_split
I0218 11:49:51.701894 27028 net.cpp:558] conv4_Eltwise_2_conv4_2ReLU_1_0_split <- conv4_Eltwise_2
I0218 11:49:51.701902 27028 net.cpp:522] conv4_Eltwise_2_conv4_2ReLU_1_0_split -> conv4_Eltwise_2_conv4_2ReLU_1_0_split_0
I0218 11:49:51.701910 27028 net.cpp:522] conv4_Eltwise_2_conv4_2ReLU_1_0_split -> conv4_Eltwise_2_conv4_2ReLU_1_0_split_1
I0218 11:49:51.701979 27028 net.cpp:172] Setting up conv4_Eltwise_2_conv4_2ReLU_1_0_split
I0218 11:49:51.701987 27028 net.cpp:186] Top shape: 10 64 8 18 (92160)
I0218 11:49:51.701992 27028 net.cpp:186] Top shape: 10 64 8 18 (92160)
I0218 11:49:51.701997 27028 net.cpp:194] Memory required for data: 93358720
I0218 11:49:51.702000 27028 layer_factory.hpp:77] Creating layer conv4_3_0
I0218 11:49:51.702013 27028 net.cpp:128] Creating Layer conv4_3_0
I0218 11:49:51.702018 27028 net.cpp:558] conv4_3_0 <- conv4_Eltwise_2_conv4_2ReLU_1_0_split_0
I0218 11:49:51.702026 27028 net.cpp:522] conv4_3_0 -> conv4_3_0
I0218 11:49:51.708832 27028 net.cpp:172] Setting up conv4_3_0
I0218 11:49:51.708858 27028 net.cpp:186] Top shape: 10 64 8 18 (92160)
I0218 11:49:51.708861 27028 net.cpp:194] Memory required for data: 93727360
I0218 11:49:51.708871 27028 layer_factory.hpp:77] Creating layer conv4_3_bn0
I0218 11:49:51.708883 27028 net.cpp:128] Creating Layer conv4_3_bn0
I0218 11:49:51.708887 27028 net.cpp:558] conv4_3_bn0 <- conv4_3_0
I0218 11:49:51.708894 27028 net.cpp:509] conv4_3_bn0 -> conv4_3_0 (in-place)
I0218 11:49:51.709203 27028 net.cpp:172] Setting up conv4_3_bn0
I0218 11:49:51.709215 27028 net.cpp:186] Top shape: 10 64 8 18 (92160)
I0218 11:49:51.709219 27028 net.cpp:194] Memory required for data: 94096000
I0218 11:49:51.709228 27028 layer_factory.hpp:77] Creating layer conv4_3_scale0
I0218 11:49:51.709237 27028 net.cpp:128] Creating Layer conv4_3_scale0
I0218 11:49:51.709242 27028 net.cpp:558] conv4_3_scale0 <- conv4_3_0
I0218 11:49:51.709249 27028 net.cpp:509] conv4_3_scale0 -> conv4_3_0 (in-place)
I0218 11:49:51.709300 27028 layer_factory.hpp:77] Creating layer conv4_3_scale0
I0218 11:49:51.709465 27028 net.cpp:172] Setting up conv4_3_scale0
I0218 11:49:51.709476 27028 net.cpp:186] Top shape: 10 64 8 18 (92160)
I0218 11:49:51.709481 27028 net.cpp:194] Memory required for data: 94464640
I0218 11:49:51.709487 27028 layer_factory.hpp:77] Creating layer conv4_3_ReLU0
I0218 11:49:51.709496 27028 net.cpp:128] Creating Layer conv4_3_ReLU0
I0218 11:49:51.709501 27028 net.cpp:558] conv4_3_ReLU0 <- conv4_3_0
I0218 11:49:51.709524 27028 net.cpp:509] conv4_3_ReLU0 -> conv4_3_0 (in-place)
I0218 11:49:51.710639 27028 net.cpp:172] Setting up conv4_3_ReLU0
I0218 11:49:51.710659 27028 net.cpp:186] Top shape: 10 64 8 18 (92160)
I0218 11:49:51.710664 27028 net.cpp:194] Memory required for data: 94833280
I0218 11:49:51.710669 27028 layer_factory.hpp:77] Creating layer conv4_3_1
I0218 11:49:51.710688 27028 net.cpp:128] Creating Layer conv4_3_1
I0218 11:49:51.710693 27028 net.cpp:558] conv4_3_1 <- conv4_3_0
I0218 11:49:51.710705 27028 net.cpp:522] conv4_3_1 -> conv4_3_1
I0218 11:49:51.717366 27028 net.cpp:172] Setting up conv4_3_1
I0218 11:49:51.717393 27028 net.cpp:186] Top shape: 10 64 8 18 (92160)
I0218 11:49:51.717397 27028 net.cpp:194] Memory required for data: 95201920
I0218 11:49:51.717406 27028 layer_factory.hpp:77] Creating layer conv4_3bn1
I0218 11:49:51.717420 27028 net.cpp:128] Creating Layer conv4_3bn1
I0218 11:49:51.717425 27028 net.cpp:558] conv4_3bn1 <- conv4_3_1
I0218 11:49:51.717435 27028 net.cpp:509] conv4_3bn1 -> conv4_3_1 (in-place)
I0218 11:49:51.717730 27028 net.cpp:172] Setting up conv4_3bn1
I0218 11:49:51.717741 27028 net.cpp:186] Top shape: 10 64 8 18 (92160)
I0218 11:49:51.717744 27028 net.cpp:194] Memory required for data: 95570560
I0218 11:49:51.717752 27028 layer_factory.hpp:77] Creating layer conv4_3_scale1
I0218 11:49:51.717759 27028 net.cpp:128] Creating Layer conv4_3_scale1
I0218 11:49:51.717772 27028 net.cpp:558] conv4_3_scale1 <- conv4_3_1
I0218 11:49:51.717777 27028 net.cpp:509] conv4_3_scale1 -> conv4_3_1 (in-place)
I0218 11:49:51.717833 27028 layer_factory.hpp:77] Creating layer conv4_3_scale1
I0218 11:49:51.718014 27028 net.cpp:172] Setting up conv4_3_scale1
I0218 11:49:51.718027 27028 net.cpp:186] Top shape: 10 64 8 18 (92160)
I0218 11:49:51.718032 27028 net.cpp:194] Memory required for data: 95939200
I0218 11:49:51.718039 27028 layer_factory.hpp:77] Creating layer conv4_Eltwise_3
I0218 11:49:51.718050 27028 net.cpp:128] Creating Layer conv4_Eltwise_3
I0218 11:49:51.718055 27028 net.cpp:558] conv4_Eltwise_3 <- conv4_Eltwise_2_conv4_2ReLU_1_0_split_1
I0218 11:49:51.718061 27028 net.cpp:558] conv4_Eltwise_3 <- conv4_3_1
I0218 11:49:51.718067 27028 net.cpp:522] conv4_Eltwise_3 -> conv4_Eltwise_3
I0218 11:49:51.718099 27028 net.cpp:172] Setting up conv4_Eltwise_3
I0218 11:49:51.718109 27028 net.cpp:186] Top shape: 10 64 8 18 (92160)
I0218 11:49:51.718113 27028 net.cpp:194] Memory required for data: 96307840
I0218 11:49:51.718117 27028 layer_factory.hpp:77] Creating layer conv4_3ReLU_1
I0218 11:49:51.718123 27028 net.cpp:128] Creating Layer conv4_3ReLU_1
I0218 11:49:51.718132 27028 net.cpp:558] conv4_3ReLU_1 <- conv4_Eltwise_3
I0218 11:49:51.718137 27028 net.cpp:509] conv4_3ReLU_1 -> conv4_Eltwise_3 (in-place)
I0218 11:49:51.719437 27028 net.cpp:172] Setting up conv4_3ReLU_1
I0218 11:49:51.719462 27028 net.cpp:186] Top shape: 10 64 8 18 (92160)
I0218 11:49:51.719466 27028 net.cpp:194] Memory required for data: 96676480
I0218 11:49:51.719471 27028 layer_factory.hpp:77] Creating layer Pooling1
I0218 11:49:51.719481 27028 net.cpp:128] Creating Layer Pooling1
I0218 11:49:51.719486 27028 net.cpp:558] Pooling1 <- conv4_Eltwise_3
I0218 11:49:51.719496 27028 net.cpp:522] Pooling1 -> Pooling1
I0218 11:49:51.721643 27028 net.cpp:172] Setting up Pooling1
I0218 11:49:51.721660 27028 net.cpp:186] Top shape: 10 64 1 1 (640)
I0218 11:49:51.721664 27028 net.cpp:194] Memory required for data: 96679040
I0218 11:49:51.721669 27028 layer_factory.hpp:77] Creating layer Pooling1_Pooling1_0_split
I0218 11:49:51.721679 27028 net.cpp:128] Creating Layer Pooling1_Pooling1_0_split
I0218 11:49:51.721684 27028 net.cpp:558] Pooling1_Pooling1_0_split <- Pooling1
I0218 11:49:51.721690 27028 net.cpp:522] Pooling1_Pooling1_0_split -> Pooling1_Pooling1_0_split_0
I0218 11:49:51.721700 27028 net.cpp:522] Pooling1_Pooling1_0_split -> Pooling1_Pooling1_0_split_1
I0218 11:49:51.721725 27028 net.cpp:522] Pooling1_Pooling1_0_split -> Pooling1_Pooling1_0_split_2
I0218 11:49:51.721734 27028 net.cpp:522] Pooling1_Pooling1_0_split -> Pooling1_Pooling1_0_split_3
I0218 11:49:51.721843 27028 net.cpp:172] Setting up Pooling1_Pooling1_0_split
I0218 11:49:51.721854 27028 net.cpp:186] Top shape: 10 64 1 1 (640)
I0218 11:49:51.721860 27028 net.cpp:186] Top shape: 10 64 1 1 (640)
I0218 11:49:51.721865 27028 net.cpp:186] Top shape: 10 64 1 1 (640)
I0218 11:49:51.721870 27028 net.cpp:186] Top shape: 10 64 1 1 (640)
I0218 11:49:51.721873 27028 net.cpp:194] Memory required for data: 96689280
I0218 11:49:51.721879 27028 layer_factory.hpp:77] Creating layer fc1
I0218 11:49:51.721892 27028 net.cpp:128] Creating Layer fc1
I0218 11:49:51.721897 27028 net.cpp:558] fc1 <- Pooling1_Pooling1_0_split_0
I0218 11:49:51.721904 27028 net.cpp:522] fc1 -> fc1
I0218 11:49:51.725208 27028 net.cpp:172] Setting up fc1
I0218 11:49:51.725232 27028 net.cpp:186] Top shape: 10 62 1 1 (620)
I0218 11:49:51.725236 27028 net.cpp:194] Memory required for data: 96691760
I0218 11:49:51.725245 27028 layer_factory.hpp:77] Creating layer fc1_fc1_0_split
I0218 11:49:51.725255 27028 net.cpp:128] Creating Layer fc1_fc1_0_split
I0218 11:49:51.725261 27028 net.cpp:558] fc1_fc1_0_split <- fc1
I0218 11:49:51.725267 27028 net.cpp:522] fc1_fc1_0_split -> fc1_fc1_0_split_0
I0218 11:49:51.725282 27028 net.cpp:522] fc1_fc1_0_split -> fc1_fc1_0_split_1
I0218 11:49:51.725337 27028 net.cpp:172] Setting up fc1_fc1_0_split
I0218 11:49:51.725343 27028 net.cpp:186] Top shape: 10 62 1 1 (620)
I0218 11:49:51.725348 27028 net.cpp:186] Top shape: 10 62 1 1 (620)
I0218 11:49:51.725352 27028 net.cpp:194] Memory required for data: 96696720
I0218 11:49:51.725355 27028 layer_factory.hpp:77] Creating layer Softmax1
I0218 11:49:51.725366 27028 net.cpp:128] Creating Layer Softmax1
I0218 11:49:51.725370 27028 net.cpp:558] Softmax1 <- fc1_fc1_0_split_0
I0218 11:49:51.725375 27028 net.cpp:558] Softmax1 <- label_1_slicers_0_split_0
I0218 11:49:51.725381 27028 net.cpp:522] Softmax1 -> Softmax1
…
