…
I0818 10:44:56.891988  2034 net.cpp:82] Initializing net from parameters: 
name: "resnet_cifar10"
state {
  phase: TRAIN
  level: 0
  stage: ""
}
layer {
  name: "Data1"
  type: "Data"
  top: "Data1"
  top: "Data2"
  include {
    phase: TRAIN
  }
  transform_param {
    scale: 0.0039215684
    mirror: true
    crop_size: 32
    mean_value: 125.3
    mean_value: 122.9
    mean_value: 113.8
  }
  data_param {
    source: "/home/lijianfei/datasets/cifar10_40/train_lmdb"
    batch_size: 128
    backend: LMDB
  }
  image_data_param {
    shuffle: true
  }
}
layer {
  name: "Convolution1"
  type: "Convolution"
  bottom: "Data1"
  top: "Convolution1"
  param {
    lr_mult: 1
    decay_mult: 1
  }
  param {
    lr_mult: 2
    decay_mult: 0
  }
  convolution_param {
    num_output: 16
    pad: 1
    kernel_size: 3
    stride: 1
    weight_filler {
      type: "msra"
    }
    bias_filler {
      type: "constant"
      value: 0
    }
  }
}
layer {
  name: "BatchNorm1"
  type: "BatchNorm"
  bottom: "Convolution1"
  top: "Convolution1"
  param {
    lr_mult: 0
    decay_mult: 0
  }
  param {
    lr_mult: 0
    decay_mult: 0
  }
  param {
    lr_mult: 0
    decay_mult: 0
  }
}
layer {
  name: "Scale1"
  type: "Scale"
  bottom: "Convolution1"
  top: "Convolution1"
  scale_param {
    bias_term: true
  }
}
layer {
  name: "ReLU1"
  type: "ReLU"
  bottom: "Convolution1"
  top: "Convolution1"
}
layer {
  name: "Convolution2"
  type: "Convolution"
  bottom: "Convolution1"
  top: "Convolution2"
  param {
    lr_mult: 1
    decay_mult: 1
  }
  param {
    lr_mult: 2
    decay_mult: 0
  }
  convolution_param {
    num_output: 16
    pad: 1
    kernel_size: 3
    stride: 1
    weight_filler {
      type: "msra"
    }
    bias_filler {
      type: "constant"
      value: 0
    }
  }
}
layer {
  name: "BatchNorm2"
  type: "BatchNorm"
  bottom: "Convolution2"
  top: "Convolution2"
  param {
    lr_mult: 0
    decay_mult: 0
  }
  param {
    lr_mult: 0
    decay_mult: 0
  }
  param {
    lr_mult: 0
    decay_mult: 0
  }
}
layer {
  name: "Scale2"
  type: "Scale"
  bottom: "Convolution2"
  top: "Convolution2"
  scale_param {
    bias_term: true
  }
}
layer {
  name: "ReLU2"
  type: "ReLU"
  bottom: "Convolution2"
  top: "Convolution2"
}
layer {
  name: "Convolution3"
  type: "Convolution"
  bottom: "Convolution2"
  top: "Convolution3"
  param {
    lr_mult: 1
    decay_mult: 1
  }
  param {
    lr_mult: 2
    decay_mult: 0
  }
  convolution_param {
    num_output: 16
    pad: 1
    kernel_size: 3
    stride: 1
    weight_filler {
      type: "msra"
    }
    bias_filler {
      type: "constant"
      value: 0
    }
  }
}
layer {
  name: "BatchNorm3"
  type: "BatchNorm"
  bottom: "Convolution3"
  top: "Convolution3"
  param {
    lr_mult: 0
    decay_mult: 0
  }
  param {
    lr_mult: 0
    decay_mult: 0
  }
  param {
    lr_mult: 0
    decay_mult: 0
  }
}
layer {
  name: "Scale3"
  type: "Scale"
  bottom: "Convolution3"
  top: "Convolution3"
  scale_param {
    bias_term: true
  }
}
layer {
  name: "Eltwise1"
  type: "Eltwise"
  bottom: "Convolution1"
  bottom: "Convolution3"
  top: "Eltwise1"
  eltwise_param {
    operation: SUM
  }
}
layer {
  name: "ReLU3"
  type: "ReLU"
  bottom: "Eltwise1"
  top: "Eltwise1"
}
layer {
  name: "Convolution4"
  type: "Convolution"
  bottom: "Eltwise1"
  top: "Convolution4"
  param {
    lr_mult: 1
    decay_mult: 1
  }
  param {
    lr_mult: 2
    decay_mult: 0
  }
  convolution_param {
    num_output: 16
    pad: 1
    kernel_size: 3
    stride: 1
    weight_filler {
      type: "msra"
    }
    bias_filler {
      type: "constant"
      value: 0
    }
  }
}
layer {
  name: "BatchNorm4"
  type: "BatchNorm"
  bottom: "Convolution4"
  top: "Convolution4"
  param {
    lr_mult: 0
    decay_mult: 0
  }
  param {
    lr_mult: 0
    decay_mult: 0
  }
  param {
    lr_mult: 0
    decay_mult: 0
  }
}
layer {
  name: "Scale4"
  type: "Scale"
  bottom: "Convolution4"
  top: "Convolution4"
  scale_param {
    bias_term: true
  }
}
layer {
  name: "ReLU4"
  type: "ReLU"
  bottom: "Convolution4"
  top: "Convolution4"
}
layer {
  name: "Convolution5"
  type: "Convolution"
  bottom: "Convolution4"
  top: "Convolution5"
  param {
    lr_mult: 1
    decay_mult: 1
  }
  param {
    lr_mult: 2
    decay_mult: 0
  }
  convolution_param {
    num_output: 16
    pad: 1
    kernel_size: 3
    stride: 1
    weight_filler {
      type: "msra"
    }
    bias_filler {
      type: "constant"
      value: 0
    }
  }
}
layer {
  name: "BatchNorm5"
  type: "BatchNorm"
  bottom: "Convolution5"
  top: "Convolution5"
  param {
    lr_mult: 0
    decay_mult: 0
  }
  param {
    lr_mult: 0
    decay_mult: 0
  }
  param {
    lr_mult: 0
    decay_mult: 0
  }
}
layer {
  name: "Scale5"
  type: "Scale"
  bottom: "Convolution5"
  top: "Convolution5"
  scale_param {
    bias_term: true
  }
}
layer {
  name: "Eltwise2"
  type: "Eltwise"
  bottom: "Eltwise1"
  bottom: "Convolution5"
  top: "Eltwise2"
  eltwise_param {
    operation: SUM
  }
}
layer {
  name: "ReLU5"
  type: "ReLU"
  bottom: "Eltwise2"
  top: "Eltwise2"
}
layer {
  name: "Convolution6"
  type: "Convolution"
  bottom: "Eltwise2"
  top: "Convolution6"
  param {
    lr_mult: 1
    decay_mult: 1
  }
  param {
    lr_mult: 2
    decay_mult: 0
  }
  convolution_param {
    num_output: 16
    pad: 1
    kernel_size: 3
    stride: 1
    weight_filler {
      type: "msra"
    }
    bias_filler {
      type: "constant"
      value: 0
    }
  }
}
layer {
  name: "BatchNorm6"
  type: "BatchNorm"
  bottom: "Convolution6"
  top: "Convolution6"
  param {
    lr_mult: 0
    decay_mult: 0
  }
  param {
    lr_mult: 0
    decay_mult: 0
  }
  param {
    lr_mult: 0
    decay_mult: 0
  }
}
layer {
  name: "Scale6"
  type: "Scale"
  bottom: "Convolution6"
  top: "Convolution6"
  scale_param {
    bias_term: true
  }
}
layer {
  name: "ReLU6"
  type: "ReLU"
  bottom: "Convolution6"
  top: "Convolution6"
}
layer {
  name: "Convolution7"
  type: "Convolution"
  bottom: "Convolution6"
  top: "Convolution7"
  param {
    lr_mult: 1
    decay_mult: 1
  }
  param {
    lr_mult: 2
    decay_mult: 0
  }
  convolution_param {
    num_output: 16
    pad: 1
    kernel_size: 3
    stride: 1
    weight_filler {
      type: "msra"
    }
    bias_filler {
      type: "constant"
      value: 0
    }
  }
}
layer {
  name: "BatchNorm7"
  type: "BatchNorm"
  bottom: "Convolution7"
  top: "Convolution7"
  param {
    lr_mult: 0
    decay_mult: 0
  }
  param {
    lr_mult: 0
    decay_mult: 0
  }
  param {
    lr_mult: 0
    decay_mult: 0
  }
}
layer {
  name: "Scale7"
  type: "Scale"
  bottom: "Convolution7"
  top: "Convolution7"
  scale_param {
    bias_term: true
  }
}
layer {
  name: "Eltwise3"
  type: "Eltwise"
  bottom: "Eltwise2"
  bottom: "Convolution7"
  top: "Eltwise3"
  eltwise_param {
    operation: SUM
  }
}
layer {
  name: "ReLU7"
  type: "ReLU"
  bottom: "Eltwise3"
  top: "Eltwise3"
}
layer {
  name: "Convolution8"
  type: "Convolution"
  bottom: "Eltwise3"
  top: "Convolution8"
  param {
    lr_mult: 1
    decay_mult: 1
  }
  param {
    lr_mult: 2
    decay_mult: 0
  }
  convolution_param {
    num_output: 16
    pad: 1
    kernel_size: 3
    stride: 1
    weight_filler {
      type: "msra"
    }
    bias_filler {
      type: "constant"
      value: 0
    }
  }
}
layer {
  name: "BatchNorm8"
  type: "BatchNorm"
  bottom: "Convolution8"
  top: "Convolution8"
  param {
    lr_mult: 0
    decay_mult: 0
  }
  param {
    lr_mult: 0
    decay_mult: 0
  }
  param {
    lr_mult: 0
    decay_mult: 0
  }
}
layer {
  name: "Scale8"
  type: "Scale"
  bottom: "Convolution8"
  top: "Convolution8"
  scale_param {
    bias_term: true
  }
}
layer {
  name: "ReLU8"
  type: "ReLU"
  bottom: "Convolution8"
  top: "Convolution8"
}
layer {
  name: "Convolution9"
  type: "Convolution"
  bottom: "Convolution8"
  top: "Convolution9"
  param {
    lr_mult: 1
    decay_mult: 1
  }
  param {
    lr_mult: 2
    decay_mult: 0
  }
  convolution_param {
    num_output: 16
    pad: 1
    kernel_size: 3
    stride: 1
    weight_filler {
      type: "msra"
    }
    bias_filler {
      type: "constant"
      value: 0
    }
  }
}
layer {
  name: "BatchNorm9"
  type: "BatchNorm"
  bottom: "Convolution9"
  top: "Convolution9"
  param {
    lr_mult: 0
    decay_mult: 0
  }
  param {
    lr_mult: 0
    decay_mult: 0
  }
  param {
    lr_mult: 0
    decay_mult: 0
  }
}
layer {
  name: "Scale9"
  type: "Scale"
  bottom: "Convolution9"
  top: "Convolution9"
  scale_param {
    bias_term: true
  }
}
layer {
  name: "Eltwise4"
  type: "Eltwise"
  bottom: "Eltwise3"
  bottom: "Convolution9"
  top: "Eltwise4"
  eltwise_param {
    operation: SUM
  }
}
layer {
  name: "ReLU9"
  type: "ReLU"
  bottom: "Eltwise4"
  top: "Eltwise4"
}
layer {
  name: "Convolution10"
  type: "Convolution"
  bottom: "Eltwise4"
  top: "Convolution10"
  param {
    lr_mult: 1
    decay_mult: 1
  }
  param {
    lr_mult: 2
    decay_mult: 0
  }
  convolution_param {
    num_output: 16
    pad: 1
    kernel_size: 3
    stride: 1
    weight_filler {
      type: "msra"
    }
    bias_filler {
      type: "constant"
      value: 0
    }
  }
}
layer {
  name: "BatchNorm10"
  type: "BatchNorm"
  bottom: "Convolution10"
  top: "Convolution10"
  param {
    lr_mult: 0
    decay_mult: 0
  }
  param {
    lr_mult: 0
    decay_mult: 0
  }
  param {
    lr_mult: 0
    decay_mult: 0
  }
}
layer {
  name: "Scale10"
  type: "Scale"
  bottom: "Convolution10"
  top: "Convolution10"
  scale_param {
    bias_term: true
  }
}
layer {
  name: "ReLU10"
  type: "ReLU"
  bottom: "Convolution10"
  top: "Convolution10"
}
layer {
  name: "Convolution11"
  type: "Convolution"
  bottom: "Convolution10"
  top: "Convolution11"
  param {
    lr_mult: 1
    decay_mult: 1
  }
  param {
    lr_mult: 2
    decay_mult: 0
  }
  convolution_param {
    num_output: 16
    pad: 1
    kernel_size: 3
    stride: 1
    weight_filler {
      type: "msra"
    }
    bias_filler {
      type: "constant"
      value: 0
    }
  }
}
layer {
  name: "BatchNorm11"
  type: "BatchNorm"
  bottom: "Convolution11"
  top: "Convolution11"
  param {
    lr_mult: 0
    decay_mult: 0
  }
  param {
    lr_mult: 0
    decay_mult: 0
  }
  param {
    lr_mult: 0
    decay_mult: 0
  }
}
layer {
  name: "Scale11"
  type: "Scale"
  bottom: "Convolution11"
  top: "Convolution11"
  scale_param {
    bias_term: true
  }
}
layer {
  name: "Eltwise5"
  type: "Eltwise"
  bottom: "Eltwise4"
  bottom: "Convolution11"
  top: "Eltwise5"
  eltwise_param {
    operation: SUM
  }
}
layer {
  name: "ReLU11"
  type: "ReLU"
  bottom: "Eltwise5"
  top: "Eltwise5"
}
layer {
  name: "Convolution12"
  type: "Convolution"
  bottom: "Eltwise5"
  top: "Convolution12"
  param {
    lr_mult: 1
    decay_mult: 1
  }
  param {
    lr_mult: 2
    decay_mult: 0
  }
  convolution_param {
    num_output: 32
    pad: 0
    kernel_size: 1
    stride: 2
    weight_filler {
      type: "msra"
    }
    bias_filler {
      type: "constant"
      value: 0
    }
  }
}
layer {
  name: "BatchNorm12"
  type: "BatchNorm"
  bottom: "Convolution12"
  top: "Convolution12"
  param {
    lr_mult: 0
    decay_mult: 0
  }
  param {
    lr_mult: 0
    decay_mult: 0
  }
  param {
    lr_mult: 0
    decay_mult: 0
  }
}
layer {
  name: "Scale12"
  type: "Scale"
  bottom: "Convolution12"
  top: "Convolution12"
  scale_param {
    bias_term: true
  }
}
layer {
  name: "Convolution13"
  type: "Convolution"
  bottom: "Eltwise5"
  top: "Convolution13"
  param {
    lr_mult: 1
    decay_mult: 1
  }
  param {
    lr_mult: 2
    decay_mult: 0
  }
  convolution_param {
    num_output: 32
    pad: 1
    kernel_size: 3
    stride: 2
    weight_filler {
      type: "msra"
    }
    bias_filler {
      type: "constant"
      value: 0
    }
  }
}
layer {
  name: "BatchNorm13"
  type: "BatchNorm"
  bottom: "Convolution13"
  top: "Convolution13"
  param {
    lr_mult: 0
    decay_mult: 0
  }
  param {
    lr_mult: 0
    decay_mult: 0
  }
  param {
    lr_mult: 0
    decay_mult: 0
  }
}
layer {
  name: "Scale13"
  type: "Scale"
  bottom: "Convolution13"
  top: "Convolution13"
  scale_param {
    bias_term: true
  }
}
layer {
  name: "ReLU12"
  type: "ReLU"
  bottom: "Convolution13"
  top: "Convolution13"
}
layer {
  name: "Convolution14"
  type: "Convolution"
  bottom: "Convolution13"
  top: "Convolution14"
  param {
    lr_mult: 1
    decay_mult: 1
  }
  param {
    lr_mult: 2
    decay_mult: 0
  }
  convolution_param {
    num_output: 32
    pad: 1
    kernel_size: 3
    stride: 1
    weight_filler {
      type: "msra"
    }
    bias_filler {
      type: "constant"
      value: 0
    }
  }
}
layer {
  name: "BatchNorm14"
  type: "BatchNorm"
  bottom: "Convolution14"
  top: "Convolution14"
  param {
    lr_mult: 0
    decay_mult: 0
  }
  param {
    lr_mult: 0
    decay_mult: 0
  }
  param {
    lr_mult: 0
    decay_mult: 0
  }
}
layer {
  name: "Scale14"
  type: "Scale"
  bottom: "Convolution14"
  top: "Convolution14"
  scale_param {
    bias_term: true
  }
}
layer {
  name: "Eltwise6"
  type: "Eltwise"
  bottom: "Convolution12"
  bottom: "Convolution14"
  top: "Eltwise6"
  eltwise_param {
    operation: SUM
  }
}
layer {
  name: "ReLU13"
  type: "ReLU"
  bottom: "Eltwise6"
  top: "Eltwise6"
}
layer {
  name: "Convolution15"
  type: "Convolution"
  bottom: "Eltwise6"
  top: "Convolution15"
  param {
    lr_mult: 1
    decay_mult: 1
  }
  param {
    lr_mult: 2
    decay_mult: 0
  }
  convolution_param {
    num_output: 32
    pad: 1
    kernel_size: 3
    stride: 1
    weight_filler {
      type: "msra"
    }
    bias_filler {
      type: "constant"
      value: 0
    }
  }
}
layer {
  name: "BatchNorm15"
  type: "BatchNorm"
  bottom: "Convolution15"
  top: "Convolution15"
  param {
    lr_mult: 0
    decay_mult: 0
  }
  param {
    lr_mult: 0
    decay_mult: 0
  }
  param {
    lr_mult: 0
    decay_mult: 0
  }
}
layer {
  name: "Scale15"
  type: "Scale"
  bottom: "Convolution15"
  top: "Convolution15"
  scale_param {
    bias_term: true
  }
}
layer {
  name: "ReLU14"
  type: "ReLU"
  bottom: "Convolution15"
  top: "Convolution15"
}
layer {
  name: "Convolution16"
  type: "Convolution"
  bottom: "Convolution15"
  top: "Convolution16"
  param {
    lr_mult: 1
    decay_mult: 1
  }
  param {
    lr_mult: 2
    decay_mult: 0
  }
  convolution_param {
    num_output: 32
    pad: 1
    kernel_size: 3
    stride: 1
    weight_filler {
      type: "msra"
    }
    bias_filler {
      type: "constant"
      value: 0
    }
  }
}
layer {
  name: "BatchNorm16"
  type: "BatchNorm"
  bottom: "Convolution16"
  top: "Convolution16"
  param {
    lr_mult: 0
    decay_mult: 0
  }
  param {
    lr_mult: 0
    decay_mult: 0
  }
  param {
    lr_mult: 0
    decay_mult: 0
  }
}
layer {
  name: "Scale16"
  type: "Scale"
  bottom: "Convolution16"
  top: "Convolution16"
  scale_param {
    bias_term: true
  }
}
layer {
  name: "Eltwise7"
  type: "Eltwise"
  bottom: "Eltwise6"
  bottom: "Convolution16"
  top: "Eltwise7"
  eltwise_param {
    operation: SUM
  }
}
layer {
  name: "ReLU15"
  type: "ReLU"
  bottom: "Eltwise7"
  top: "Eltwise7"
}
layer {
  name: "Convolution17"
  type: "Convolution"
  bottom: "Eltwise7"
  top: "Convolution17"
  param {
    lr_mult: 1
    decay_mult: 1
  }
  param {
    lr_mult: 2
    decay_mult: 0
  }
  convolution_param {
    num_output: 32
    pad: 1
    kernel_size: 3
    stride: 1
    weight_filler {
      type: "msra"
    }
    bias_filler {
      type: "constant"
      value: 0
    }
  }
}
layer {
  name: "BatchNorm17"
  type: "BatchNorm"
  bottom: "Convolution17"
  top: "Convolution17"
  param {
    lr_mult: 0
    decay_mult: 0
  }
  param {
    lr_mult: 0
    decay_mult: 0
  }
  param {
    lr_mult: 0
    decay_mult: 0
  }
}
layer {
  name: "Scale17"
  type: "Scale"
  bottom: "Convolution17"
  top: "Convolution17"
  scale_param {
    bias_term: true
  }
}
layer {
  name: "ReLU16"
  type: "ReLU"
  bottom: "Convolution17"
  top: "Convolution17"
}
layer {
  name: "Convolution18"
  type: "Convolution"
  bottom: "Convolution17"
  top: "Convolution18"
  param {
    lr_mult: 1
    decay_mult: 1
  }
  param {
    lr_mult: 2
    decay_mult: 0
  }
  convolution_param {
    num_output: 32
    pad: 1
    kernel_size: 3
    stride: 1
    weight_filler {
      type: "msra"
    }
    bias_filler {
      type: "constant"
      value: 0
    }
  }
}
layer {
  name: "BatchNorm18"
  type: "BatchNorm"
  bottom: "Convolution18"
  top: "Convolution18"
  param {
    lr_mult: 0
    decay_mult: 0
  }
  param {
    lr_mult: 0
    decay_mult: 0
  }
  param {
    lr_mult: 0
    decay_mult: 0
  }
}
layer {
  name: "Scale18"
  type: "Scale"
  bottom: "Convolution18"
  top: "Convolution18"
  scale_param {
    bias_term: true
  }
}
layer {
  name: "Eltwise8"
  type: "Eltwise"
  bottom: "Eltwise7"
  bottom: "Convolution18"
  top: "Eltwise8"
  eltwise_param {
    operation: SUM
  }
}
layer {
  name: "ReLU17"
  type: "ReLU"
  bottom: "Eltwise8"
  top: "Eltwise8"
}
layer {
  name: "Convolution19"
  type: "Convolution"
  bottom: "Eltwise8"
  top: "Convolution19"
  param {
    lr_mult: 1
    decay_mult: 1
  }
  param {
    lr_mult: 2
    decay_mult: 0
  }
  convolution_param {
    num_output: 32
    pad: 1
    kernel_size: 3
    stride: 1
    weight_filler {
      type: "msra"
    }
    bias_filler {
      type: "constant"
      value: 0
    }
  }
}
layer {
  name: "BatchNorm19"
  type: "BatchNorm"
  bottom: "Convolution19"
  top: "Convolution19"
  param {
    lr_mult: 0
    decay_mult: 0
  }
  param {
    lr_mult: 0
    decay_mult: 0
  }
  param {
    lr_mult: 0
    decay_mult: 0
  }
}
layer {
  name: "Scale19"
  type: "Scale"
  bottom: "Convolution19"
  top: "Convolution19"
  scale_param {
    bias_term: true
  }
}
layer {
  name: "ReLU18"
  type: "ReLU"
  bottom: "Convolution19"
  top: "Convolution19"
}
layer {
  name: "Convolution20"
  type: "Convolution"
  bottom: "Convolution19"
  top: "Convolution20"
  param {
    lr_mult: 1
    decay_mult: 1
  }
  param {
    lr_mult: 2
    decay_mult: 0
  }
  convolution_param {
    num_output: 32
    pad: 1
    kernel_size: 3
    stride: 1
    weight_filler {
      type: "msra"
    }
    bias_filler {
      type: "constant"
      value: 0
    }
  }
}
layer {
  name: "BatchNorm20"
  type: "BatchNorm"
  bottom: "Convolution20"
  top: "Convolution20"
  param {
    lr_mult: 0
    decay_mult: 0
  }
  param {
    lr_mult: 0
    decay_mult: 0
  }
  param {
    lr_mult: 0
    decay_mult: 0
  }
}
layer {
  name: "Scale20"
  type: "Scale"
  bottom: "Convolution20"
  top: "Convolution20"
  scale_param {
    bias_term: true
  }
}
layer {
  name: "Eltwise9"
  type: "Eltwise"
  bottom: "Eltwise8"
  bottom: "Convolution20"
  top: "Eltwise9"
  eltwise_param {
    operation: SUM
  }
}
layer {
  name: "ReLU19"
  type: "ReLU"
  bottom: "Eltwise9"
  top: "Eltwise9"
}
layer {
  name: "Convolution21"
  type: "Convolution"
  bottom: "Eltwise9"
  top: "Convolution21"
  param {
    lr_mult: 1
    decay_mult: 1
  }
  param {
    lr_mult: 2
    decay_mult: 0
  }
  convolution_param {
    num_output: 32
    pad: 1
    kernel_size: 3
    stride: 1
    weight_filler {
      type: "msra"
    }
    bias_filler {
      type: "constant"
      value: 0
    }
  }
}
layer {
  name: "BatchNorm21"
  type: "BatchNorm"
  bottom: "Convolution21"
  top: "Convolution21"
  param {
    lr_mult: 0
    decay_mult: 0
  }
  param {
    lr_mult: 0
    decay_mult: 0
  }
  param {
    lr_mult: 0
    decay_mult: 0
  }
}
layer {
  name: "Scale21"
  type: "Scale"
  bottom: "Convolution21"
  top: "Convolution21"
  scale_param {
    bias_term: true
  }
}
layer {
  name: "ReLU20"
  type: "ReLU"
  bottom: "Convolution21"
  top: "Convolution21"
}
layer {
  name: "Convolution22"
  type: "Convolution"
  bottom: "Convolution21"
  top: "Convolution22"
  param {
    lr_mult: 1
    decay_mult: 1
  }
  param {
    lr_mult: 2
    decay_mult: 0
  }
  convolution_param {
    num_output: 32
    pad: 1
    kernel_size: 3
    stride: 1
    weight_filler {
      type: "msra"
    }
    bias_filler {
      type: "constant"
      value: 0
    }
  }
}
layer {
  name: "BatchNorm22"
  type: "BatchNorm"
  bottom: "Convolution22"
  top: "Convolution22"
  param {
    lr_mult: 0
    decay_mult: 0
  }
  param {
    lr_mult: 0
    decay_mult: 0
  }
  param {
    lr_mult: 0
    decay_mult: 0
  }
}
layer {
  name: "Scale22"
  type: "Scale"
  bottom: "Convolution22"
  top: "Convolution22"
  scale_param {
    bias_term: true
  }
}
layer {
  name: "Eltwise10"
  type: "Eltwise"
  bottom: "Eltwise9"
  bottom: "Convolution22"
  top: "Eltwise10"
  eltwise_param {
    operation: SUM
  }
}
layer {
  name: "ReLU21"
  type: "ReLU"
  bottom: "Eltwise10"
  top: "Eltwise10"
}
layer {
  name: "Convolution23"
  type: "Convolution"
  bottom: "Eltwise10"
  top: "Convolution23"
  param {
    lr_mult: 1
    decay_mult: 1
  }
  param {
    lr_mult: 2
    decay_mult: 0
  }
  convolution_param {
    num_output: 64
    pad: 0
    kernel_size: 1
    stride: 2
    weight_filler {
      type: "msra"
    }
    bias_filler {
      type: "constant"
      value: 0
    }
  }
}
layer {
  name: "BatchNorm23"
  type: "BatchNorm"
  bottom: "Convolution23"
  top: "Convolution23"
  param {
    lr_mult: 0
    decay_mult: 0
  }
  param {
    lr_mult: 0
    decay_mult: 0
  }
  param {
    lr_mult: 0
    decay_mult: 0
  }
}
layer {
  name: "Scale23"
  type: "Scale"
  bottom: "Convolution23"
  top: "Convolution23"
  scale_param {
    bias_term: true
  }
}
layer {
  name: "Convolution24"
  type: "Convolution"
  bottom: "Eltwise10"
  top: "Convolution24"
  param {
    lr_mult: 1
    decay_mult: 1
  }
  param {
    lr_mult: 2
    decay_mult: 0
  }
  convolution_param {
    num_output: 64
    pad: 1
    kernel_size: 3
    stride: 2
    weight_filler {
      type: "msra"
    }
    bias_filler {
      type: "constant"
      value: 0
    }
  }
}
layer {
  name: "BatchNorm24"
  type: "BatchNorm"
  bottom: "Convolution24"
  top: "Convolution24"
  param {
    lr_mult: 0
    decay_mult: 0
  }
  param {
    lr_mult: 0
    decay_mult: 0
  }
  param {
    lr_mult: 0
    decay_mult: 0
  }
}
layer {
  name: "Scale24"
  type: "Scale"
  bottom: "Convolution24"
  top: "Convolution24"
  scale_param {
    bias_term: true
  }
}
layer {
  name: "ReLU22"
  type: "ReLU"
  bottom: "Convolution24"
  top: "Convolution24"
}
layer {
  name: "Convolution25"
  type: "Convolution"
  bottom: "Convolution24"
  top: "Convolution25"
  param {
    lr_mult: 1
    decay_mult: 1
  }
  param {
    lr_mult: 2
    decay_mult: 0
  }
  convolution_param {
    num_output: 64
    pad: 1
    kernel_size: 3
    stride: 1
    weight_filler {
      type: "msra"
    }
    bias_filler {
      type: "constant"
      value: 0
    }
  }
}
layer {
  name: "BatchNorm25"
  type: "BatchNorm"
  bottom: "Convolution25"
  top: "Convolution25"
  param {
    lr_mult: 0
    decay_mult: 0
  }
  param {
    lr_mult: 0
    decay_mult: 0
  }
  param {
    lr_mult: 0
    decay_mult: 0
  }
}
layer {
  name: "Scale25"
  type: "Scale"
  bottom: "Convolution25"
  top: "Convolution25"
  scale_param {
    bias_term: true
  }
}
layer {
  name: "Eltwise11"
  type: "Eltwise"
  bottom: "Convolution23"
  bottom: "Convolution25"
  top: "Eltwise11"
  eltwise_param {
    operation: SUM
  }
}
layer {
  name: "ReLU23"
  type: "ReLU"
  bottom: "Eltwise11"
  top: "Eltwise11"
}
layer {
  name: "Convolution26"
  type: "Convolution"
  bottom: "Eltwise11"
  top: "Convolution26"
  param {
    lr_mult: 1
    decay_mult: 1
  }
  param {
    lr_mult: 2
    decay_mult: 0
  }
  convolution_param {
    num_output: 64
    pad: 1
    kernel_size: 3
    stride: 1
    weight_filler {
      type: "msra"
    }
    bias_filler {
      type: "constant"
      value: 0
    }
  }
}
layer {
  name: "BatchNorm26"
  type: "BatchNorm"
  bottom: "Convolution26"
  top: "Convolution26"
  param {
    lr_mult: 0
    decay_mult: 0
  }
  param {
    lr_mult: 0
    decay_mult: 0
  }
  param {
    lr_mult: 0
    decay_mult: 0
  }
}
layer {
  name: "Scale26"
  type: "Scale"
  bottom: "Convolution26"
  top: "Convolution26"
  scale_param {
    bias_term: true
  }
}
layer {
  name: "ReLU24"
  type: "ReLU"
  bottom: "Convolution26"
  top: "Convolution26"
}
layer {
  name: "Convolution27"
  type: "Convolution"
  bottom: "Convolution26"
  top: "Convolution27"
  param {
    lr_mult: 1
    decay_mult: 1
  }
  param {
    lr_mult: 2
    decay_mult: 0
  }
  convolution_param {
    num_output: 64
    pad: 1
    kernel_size: 3
    stride: 1
    weight_filler {
      type: "msra"
    }
    bias_filler {
      type: "constant"
      value: 0
    }
  }
}
layer {
  name: "BatchNorm27"
  type: "BatchNorm"
  bottom: "Convolution27"
  top: "Convolution27"
  param {
    lr_mult: 0
    decay_mult: 0
  }
  param {
    lr_mult: 0
    decay_mult: 0
  }
  param {
    lr_mult: 0
    decay_mult: 0
  }
}
layer {
  name: "Scale27"
  type: "Scale"
  bottom: "Convolution27"
  top: "Convolution27"
  scale_param {
    bias_term: true
  }
}
layer {
  name: "Eltwise12"
  type: "Eltwise"
  bottom: "Eltwise11"
  bottom: "Convolution27"
  top: "Eltwise12"
  eltwise_param {
    operation: SUM
  }
}
layer {
  name: "ReLU25"
  type: "ReLU"
  bottom: "Eltwise12"
  top: "Eltwise12"
}
layer {
  name: "Convolution28"
  type: "Convolution"
  bottom: "Eltwise12"
  top: "Convolution28"
  param {
    lr_mult: 1
    decay_mult: 1
  }
  param {
    lr_mult: 2
    decay_mult: 0
  }
  convolution_param {
    num_output: 64
    pad: 1
    kernel_size: 3
    stride: 1
    weight_filler {
      type: "msra"
    }
    bias_filler {
      type: "constant"
      value: 0
    }
  }
}
layer {
  name: "BatchNorm28"
  type: "BatchNorm"
  bottom: "Convolution28"
  top: "Convolution28"
  param {
    lr_mult: 0
    decay_mult: 0
  }
  param {
    lr_mult: 0
    decay_mult: 0
  }
  param {
    lr_mult: 0
    decay_mult: 0
  }
}
layer {
  name: "Scale28"
  type: "Scale"
  bottom: "Convolution28"
  top: "Convolution28"
  scale_param {
    bias_term: true
  }
}
layer {
  name: "ReLU26"
  type: "ReLU"
  bottom: "Convolution28"
  top: "Convolution28"
}
layer {
  name: "Convolution29"
  type: "Convolution"
  bottom: "Convolution28"
  top: "Convolution29"
  param {
    lr_mult: 1
    decay_mult: 1
  }
  param {
    lr_mult: 2
    decay_mult: 0
  }
  convolution_param {
    num_output: 64
    pad: 1
    kernel_size: 3
    stride: 1
    weight_filler {
      type: "msra"
    }
    bias_filler {
      type: "constant"
      value: 0
    }
  }
}
layer {
  name: "BatchNorm29"
  type: "BatchNorm"
  bottom: "Convolution29"
  top: "Convolution29"
  param {
    lr_mult: 0
    decay_mult: 0
  }
  param {
    lr_mult: 0
    decay_mult: 0
  }
  param {
    lr_mult: 0
    decay_mult: 0
  }
}
layer {
  name: "Scale29"
  type: "Scale"
  bottom: "Convolution29"
  top: "Convolution29"
  scale_param {
    bias_term: true
  }
}
layer {
  name: "Eltwise13"
  type: "Eltwise"
  bottom: "Eltwise12"
  bottom: "Convolution29"
  top: "Eltwise13"
  eltwise_param {
    operation: SUM
  }
}
layer {
  name: "ReLU27"
  type: "ReLU"
  bottom: "Eltwise13"
  top: "Eltwise13"
}
layer {
  name: "Convolution30"
  type: "Convolution"
  bottom: "Eltwise13"
  top: "Convolution30"
  param {
    lr_mult: 1
    decay_mult: 1
  }
  param {
    lr_mult: 2
    decay_mult: 0
  }
  convolution_param {
    num_output: 64
    pad: 1
    kernel_size: 3
    stride: 1
    weight_filler {
      type: "msra"
    }
    bias_filler {
      type: "constant"
      value: 0
    }
  }
}
layer {
  name: "BatchNorm30"
  type: "BatchNorm"
  bottom: "Convolution30"
  top: "Convolution30"
  param {
    lr_mult: 0
    decay_mult: 0
  }
  param {
    lr_mult: 0
    decay_mult: 0
  }
  param {
    lr_mult: 0
    decay_mult: 0
  }
}
layer {
  name: "Scale30"
  type: "Scale"
  bottom: "Convolution30"
  top: "Convolution30"
  scale_param {
    bias_term: true
  }
}
layer {
  name: "ReLU28"
  type: "ReLU"
  bottom: "Convolution30"
  top: "Convolution30"
}
layer {
  name: "Convolution31"
  type: "Convolution"
  bottom: "Convolution30"
  top: "Convolution31"
  param {
    lr_mult: 1
    decay_mult: 1
  }
  param {
    lr_mult: 2
    decay_mult: 0
  }
  convolution_param {
    num_output: 64
    pad: 1
    kernel_size: 3
    stride: 1
    weight_filler {
      type: "msra"
    }
    bias_filler {
      type: "constant"
      value: 0
    }
  }
}
layer {
  name: "BatchNorm31"
  type: "BatchNorm"
  bottom: "Convolution31"
  top: "Convolution31"
  param {
    lr_mult: 0
    decay_mult: 0
  }
  param {
    lr_mult: 0
    decay_mult: 0
  }
  param {
    lr_mult: 0
    decay_mult: 0
  }
}
layer {
  name: "Scale31"
  type: "Scale"
  bottom: "Convolution31"
  top: "Convolution31"
  scale_param {
    bias_term: true
  }
}
layer {
  name: "Eltwise14"
  type: "Eltwise"
  bottom: "Eltwise13"
  bottom: "Convolution31"
  top: "Eltwise14"
  eltwise_param {
    operation: SUM
  }
}
layer {
  name: "ReLU29"
  type: "ReLU"
  bottom: "Eltwise14"
  top: "Eltwise14"
}
layer {
  name: "Convolution32"
  type: "Convolution"
  bottom: "Eltwise14"
  top: "Convolution32"
  param {
    lr_mult: 1
    decay_mult: 1
  }
  param {
    lr_mult: 2
    decay_mult: 0
  }
  convolution_param {
    num_output: 64
    pad: 1
    kernel_size: 3
    stride: 1
    weight_filler {
      type: "msra"
    }
    bias_filler {
      type: "constant"
      value: 0
    }
  }
}
layer {
  name: "BatchNorm32"
  type: "BatchNorm"
  bottom: "Convolution32"
  top: "Convolution32"
  param {
    lr_mult: 0
    decay_mult: 0
  }
  param {
    lr_mult: 0
    decay_mult: 0
  }
  param {
    lr_mult: 0
    decay_mult: 0
  }
}
layer {
  name: "Scale32"
  type: "Scale"
  bottom: "Convolution32"
  top: "Convolution32"
  scale_param {
    bias_term: true
  }
}
layer {
  name: "ReLU30"
  type: "ReLU"
  bottom: "Convolution32"
  top: "Convolution32"
}
layer {
  name: "Convolution33"
  type: "Convolution"
  bottom: "Convolution32"
  top: "Convolution33"
  param {
    lr_mult: 1
    decay_mult: 1
  }
  param {
    lr_mult: 2
    decay_mult: 0
  }
  convolution_
I0818 10:44:56.892637  2034 layer_factory.hpp:77] Creating layer Data1
I0818 10:44:57.030931  2034 db_lmdb.cpp:35] Opened lmdb /home/lijianfei/datasets/cifar10_40/train_lmdb
I0818 10:44:57.037544  2034 net.cpp:128] Creating Layer Data1
I0818 10:44:57.037621  2034 net.cpp:522] Data1 -> Data1
I0818 10:44:57.037714  2034 net.cpp:522] Data1 -> Data2
I0818 10:44:57.041829  2034 data_layer.cpp:45] output data size: 128,3,32,32
I0818 10:44:57.052096  2034 net.cpp:172] Setting up Data1
I0818 10:44:57.052155  2034 net.cpp:186] Top shape: 128 3 32 32 (393216)
I0818 10:44:57.052165  2034 net.cpp:186] Top shape: 128 (128)
I0818 10:44:57.052171  2034 net.cpp:194] Memory required for data: 1573376
I0818 10:44:57.052188  2034 layer_factory.hpp:77] Creating layer Convolution1
I0818 10:44:57.052230  2034 net.cpp:128] Creating Layer Convolution1
I0818 10:44:57.052242  2034 net.cpp:558] Convolution1 <- Data1
I0818 10:44:57.052268  2034 net.cpp:522] Convolution1 -> Convolution1
I0818 10:45:00.829525  2034 net.cpp:172] Setting up Convolution1
I0818 10:45:00.829695  2034 net.cpp:186] Top shape: 128 16 32 32 (2097152)
I0818 10:45:00.829717  2034 net.cpp:194] Memory required for data: 9961984
I0818 10:45:00.829821  2034 layer_factory.hpp:77] Creating layer BatchNorm1
I0818 10:45:00.829872  2034 net.cpp:128] Creating Layer BatchNorm1
I0818 10:45:00.829900  2034 net.cpp:558] BatchNorm1 <- Convolution1
I0818 10:45:00.829929  2034 net.cpp:509] BatchNorm1 -> Convolution1 (in-place)
I0818 10:45:00.830826  2034 net.cpp:172] Setting up BatchNorm1
I0818 10:45:00.830935  2034 net.cpp:186] Top shape: 128 16 32 32 (2097152)
I0818 10:45:00.830962  2034 net.cpp:194] Memory required for data: 18350592
I0818 10:45:00.831017  2034 layer_factory.hpp:77] Creating layer Scale1
I0818 10:45:00.831058  2034 net.cpp:128] Creating Layer Scale1
I0818 10:45:00.831084  2034 net.cpp:558] Scale1 <- Convolution1
I0818 10:45:00.831110  2034 net.cpp:509] Scale1 -> Convolution1 (in-place)
I0818 10:45:00.831303  2034 layer_factory.hpp:77] Creating layer Scale1
I0818 10:45:00.831794  2034 net.cpp:172] Setting up Scale1
I0818 10:45:00.831835  2034 net.cpp:186] Top shape: 128 16 32 32 (2097152)
I0818 10:45:00.831853  2034 net.cpp:194] Memory required for data: 26739200
I0818 10:45:00.831887  2034 layer_factory.hpp:77] Creating layer ReLU1
I0818 10:45:00.831928  2034 net.cpp:128] Creating Layer ReLU1
I0818 10:45:00.831946  2034 net.cpp:558] ReLU1 <- Convolution1
I0818 10:45:00.831970  2034 net.cpp:509] ReLU1 -> Convolution1 (in-place)
I0818 10:45:00.832808  2034 net.cpp:172] Setting up ReLU1
I0818 10:45:00.832855  2034 net.cpp:186] Top shape: 128 16 32 32 (2097152)
I0818 10:45:00.832875  2034 net.cpp:194] Memory required for data: 35127808
I0818 10:45:00.832893  2034 layer_factory.hpp:77] Creating layer Convolution1_ReLU1_0_split
I0818 10:45:00.832926  2034 net.cpp:128] Creating Layer Convolution1_ReLU1_0_split
I0818 10:45:00.832943  2034 net.cpp:558] Convolution1_ReLU1_0_split <- Convolution1
I0818 10:45:00.832970  2034 net.cpp:522] Convolution1_ReLU1_0_split -> Convolution1_ReLU1_0_split_0
I0818 10:45:00.833004  2034 net.cpp:522] Convolution1_ReLU1_0_split -> Convolution1_ReLU1_0_split_1
I0818 10:45:00.833176  2034 net.cpp:172] Setting up Convolution1_ReLU1_0_split
I0818 10:45:00.833212  2034 net.cpp:186] Top shape: 128 16 32 32 (2097152)
I0818 10:45:00.833243  2034 net.cpp:186] Top shape: 128 16 32 32 (2097152)
I0818 10:45:00.833266  2034 net.cpp:194] Memory required for data: 51905024
I0818 10:45:00.833284  2034 layer_factory.hpp:77] Creating layer Convolution2
I0818 10:45:00.833333  2034 net.cpp:128] Creating Layer Convolution2
I0818 10:45:00.833353  2034 net.cpp:558] Convolution2 <- Convolution1_ReLU1_0_split_0
I0818 10:45:00.833380  2034 net.cpp:522] Convolution2 -> Convolution2
I0818 10:45:00.839653  2034 net.cpp:172] Setting up Convolution2
I0818 10:45:00.839682  2034 net.cpp:186] Top shape: 128 16 32 32 (2097152)
I0818 10:45:00.839689  2034 net.cpp:194] Memory required for data: 60293632
I0818 10:45:00.839704  2034 layer_factory.hpp:77] Creating layer BatchNorm2
I0818 10:45:00.839715  2034 net.cpp:128] Creating Layer BatchNorm2
I0818 10:45:00.839725  2034 net.cpp:558] BatchNorm2 <- Convolution2
I0818 10:45:00.839733  2034 net.cpp:509] BatchNorm2 -> Convolution2 (in-place)
I0818 10:45:00.839994  2034 net.cpp:172] Setting up BatchNorm2
I0818 10:45:00.840008  2034 net.cpp:186] Top shape: 128 16 32 32 (2097152)
I0818 10:45:00.840016  2034 net.cpp:194] Memory required for data: 68682240
I0818 10:45:00.840029  2034 layer_factory.hpp:77] Creating layer Scale2
I0818 10:45:00.840039  2034 net.cpp:128] Creating Layer Scale2
I0818 10:45:00.840044  2034 net.cpp:558] Scale2 <- Convolution2
I0818 10:45:00.840052  2034 net.cpp:509] Scale2 -> Convolution2 (in-place)
I0818 10:45:00.840096  2034 layer_factory.hpp:77] Creating layer Scale2
I0818 10:45:00.840239  2034 net.cpp:172] Setting up Scale2
I0818 10:45:00.840252  2034 net.cpp:186] Top shape: 128 16 32 32 (2097152)
I0818 10:45:00.840257  2034 net.cpp:194] Memory required for data: 77070848
I0818 10:45:00.840267  2034 layer_factory.hpp:77] Creating layer ReLU2
I0818 10:45:00.840298  2034 net.cpp:128] Creating Layer ReLU2
I0818 10:45:00.840304  2034 net.cpp:558] ReLU2 <- Convolution2
I0818 10:45:00.840312  2034 net.cpp:509] ReLU2 -> Convolution2 (in-place)
I0818 10:45:00.840566  2034 net.cpp:172] Setting up ReLU2
I0818 10:45:00.840584  2034 net.cpp:186] Top shape: 128 16 32 32 (2097152)
I0818 10:45:00.840590  2034 net.cpp:194] Memory required for data: 85459456
I0818 10:45:00.840595  2034 layer_factory.hpp:77] Creating layer Convolution3
I0818 10:45:00.840608  2034 net.cpp:128] Creating Layer Convolution3
I0818 10:45:00.840615  2034 net.cpp:558] Convolution3 <- Convolution2
I0818 10:45:00.840623  2034 net.cpp:522] Convolution3 -> Convolution3
I0818 10:45:00.841974  2034 net.cpp:172] Setting up Convolution3
I0818 10:45:00.842000  2034 net.cpp:186] Top shape: 128 16 32 32 (2097152)
I0818 10:45:00.842006  2034 net.cpp:194] Memory required for data: 93848064
I0818 10:45:00.842018  2034 layer_factory.hpp:77] Creating layer BatchNorm3
I0818 10:45:00.842032  2034 net.cpp:128] Creating Layer BatchNorm3
I0818 10:45:00.842038  2034 net.cpp:558] BatchNorm3 <- Convolution3
I0818 10:45:00.842047  2034 net.cpp:509] BatchNorm3 -> Convolution3 (in-place)
I0818 10:45:00.842310  2034 net.cpp:172] Setting up BatchNorm3
I0818 10:45:00.842325  2034 net.cpp:186] Top shape: 128 16 32 32 (2097152)
I0818 10:45:00.842330  2034 net.cpp:194] Memory required for data: 102236672
I0818 10:45:00.842346  2034 layer_factory.hpp:77] Creating layer Scale3
I0818 10:45:00.842355  2034 net.cpp:128] Creating Layer Scale3
I0818 10:45:00.842360  2034 net.cpp:558] Scale3 <- Convolution3
I0818 10:45:00.842368  2034 net.cpp:509] Scale3 -> Convolution3 (in-place)
I0818 10:45:00.842412  2034 layer_factory.hpp:77] Creating layer Scale3
I0818 10:45:00.842557  2034 net.cpp:172] Setting up Scale3
I0818 10:45:00.842571  2034 net.cpp:186] Top shape: 128 16 32 32 (2097152)
I0818 10:45:00.842578  2034 net.cpp:194] Memory required for data: 110625280
I0818 10:45:00.842588  2034 layer_factory.hpp:77] Creating layer Eltwise1
I0818 10:45:00.842598  2034 net.cpp:128] Creating Layer Eltwise1
I0818 10:45:00.842603  2034 net.cpp:558] Eltwise1 <- Convolution1_ReLU1_0_split_1
I0818 10:45:00.842609  2034 net.cpp:558] Eltwise1 <- Convolution3
I0818 10:45:00.842617  2034 net.cpp:522] Eltwise1 -> Eltwise1
I0818 10:45:00.842660  2034 net.cpp:172] Setting up Eltwise1
I0818 10:45:00.842671  2034 net.cpp:186] Top shape: 128 16 32 32 (2097152)
I0818 10:45:00.842676  2034 net.cpp:194] Memory required for data: 119013888
I0818 10:45:00.842681  2034 layer_factory.hpp:77] Creating layer ReLU3
I0818 10:45:00.842689  2034 net.cpp:128] Creating Layer ReLU3
I0818 10:45:00.842694  2034 net.cpp:558] ReLU3 <- Eltwise1
I0818 10:45:00.842701  2034 net.cpp:509] ReLU3 -> Eltwise1 (in-place)
I0818 10:45:00.843178  2034 net.cpp:172] Setting up ReLU3
I0818 10:45:00.843201  2034 net.cpp:186] Top shape: 128 16 32 32 (2097152)
I0818 10:45:00.843207  2034 net.cpp:194] Memory required for data: 127402496
I0818 10:45:00.843214  2034 layer_factory.hpp:77] Creating layer Eltwise1_ReLU3_0_split
I0818 10:45:00.843224  2034 net.cpp:128] Creating Layer Eltwise1_ReLU3_0_split
I0818 10:45:00.843228  2034 net.cpp:558] Eltwise1_ReLU3_0_split <- Eltwise1
I0818 10:45:00.843238  2034 net.cpp:522] Eltwise1_ReLU3_0_split -> Eltwise1_ReLU3_0_split_0
I0818 10:45:00.843250  2034 net.cpp:522] Eltwise1_ReLU3_0_split -> Eltwise1_ReLU3_0_split_1
I0818 10:45:00.843303  2034 net.cpp:172] Setting up Eltwise1_ReLU3_0_split
I0818 10:45:00.843313  2034 net.cpp:186] Top shape: 128 16 32 32 (2097152)
I0818 10:45:00.843320  2034 net.cpp:186] Top shape: 128 16 32 32 (2097152)
I0818 10:45:00.843325  2034 net.cpp:194] Memory required for data: 144179712
I0818 10:45:00.843331  2034 layer_factory.hpp:77] Creating layer Convolution4
I0818 10:45:00.843344  2034 net.cpp:128] Creating Layer Convolution4
I0818 10:45:00.843350  2034 net.cpp:558] Convolution4 <- Eltwise1_ReLU3_0_split_0
I0818 10:45:00.843359  2034 net.cpp:522] Convolution4 -> Convolution4
I0818 10:45:00.844729  2034 net.cpp:172] Setting up Convolution4
I0818 10:45:00.844775  2034 net.cpp:186] Top shape: 128 16 32 32 (2097152)
I0818 10:45:00.844781  2034 net.cpp:194] Memory required for data: 152568320
I0818 10:45:00.844794  2034 layer_factory.hpp:77] Creating layer BatchNorm4
I0818 10:45:00.844805  2034 net.cpp:128] Creating Layer BatchNorm4
I0818 10:45:00.844811  2034 net.cpp:558] BatchNorm4 <- Convolution4
I0818 10:45:00.844820  2034 net.cpp:509] BatchNorm4 -> Convolution4 (in-place)
I0818 10:45:00.845093  2034 net.cpp:172] Setting up BatchNorm4
I0818 10:45:00.845105  2034 net.cpp:186] Top shape: 128 16 32 32 (2097152)
I0818 10:45:00.845111  2034 net.cpp:194] Memory required for data: 160956928
I0818 10:45:00.845124  2034 layer_factory.hpp:77] Creating layer Scale4
I0818 10:45:00.845132  2034 net.cpp:128] Creating Layer Scale4
I0818 10:45:00.845137  2034 net.cpp:558] Scale4 <- Convolution4
I0818 10:45:00.845144  2034 net.cpp:509] Scale4 -> Convolution4 (in-place)
I0818 10:45:00.845190  2034 layer_factory.hpp:77] Creating layer Scale4
I0818 10:45:00.845338  2034 net.cpp:172] Setting up Scale4
I0818 10:45:00.845353  2034 net.cpp:186] Top shape: 128 16 32 32 (2097152)
I0818 10:45:00.845360  2034 net.cpp:194] Memory required for data: 169345536
I0818 10:45:00.845369  2034 layer_factory.hpp:77] Creating layer ReLU4
I0818 10:45:00.845377  2034 net.cpp:128] Creating Layer ReLU4
I0818 10:45:00.845382  2034 net.cpp:558] ReLU4 <- Convolution4
I0818 10:45:00.845389  2034 net.cpp:509] ReLU4 -> Convolution4 (in-place)
I0818 10:45:00.845656  2034 net.cpp:172] Setting up ReLU4
I0818 10:45:00.845671  2034 net.cpp:186] Top shape: 128 16 32 32 (2097152)
I0818 10:45:00.845677  2034 net.cpp:194] Memory required for data: 177734144
I0818 10:45:00.845683  2034 layer_factory.hpp:77] Creating layer Convolution5
I0818 10:45:00.845695  2034 net.cpp:128] Creating Layer Convolution5
I0818 10:45:00.845702  2034 net.cpp:558] Convolution5 <- Convolution4
I0818 10:45:00.845711  2034 net.cpp:522] Convolution5 -> Convolution5
I0818 10:45:00.847095  2034 net.cpp:172] Setting up Convolution5
I0818 10:45:00.847121  2034 net.cpp:186] Top shape: 128 16 32 32 (2097152)
I0818 10:45:00.847126  2034 net.cpp:194] Memory required for data: 186122752
I0818 10:45:00.847141  2034 layer_factory.hpp:77] Creating layer BatchNorm5
I0818 10:45:00.847151  2034 net.cpp:128] Creating Layer BatchNorm5
I0818 10:45:00.847157  2034 net.cpp:558] BatchNorm5 <- Convolution5
I0818 10:45:00.847168  2034 net.cpp:509] BatchNorm5 -> Convolution5 (in-place)
I0818 10:45:00.847434  2034 net.cpp:172] Setting up BatchNorm5
I0818 10:45:00.847446  2034 net.cpp:186] Top shape: 128 16 32 32 (2097152)
I0818 10:45:00.847451  2034 net.cpp:194] Memory required for data: 194511360
I0818 10:45:00.847467  2034 layer_factory.hpp:77] Creating layer Scale5
I0818 10:45:00.847476  2034 net.cpp:128] Creating Layer Scale5
I0818 10:45:00.847482  2034 net.cpp:558] Scale5 <- Convolution5
I0818 10:45:00.847489  2034 net.cpp:509] Scale5 -> Convolution5 (in-place)
I0818 10:45:00.847535  2034 layer_factory.hpp:77] Creating layer Scale5
I0818 10:45:00.847687  2034 net.cpp:172] Setting up Scale5
I0818 10:45:00.847699  2034 net.cpp:186] Top shape: 128 16 32 32 (2097152)
I0818 10:45:00.847704  2034 net.cpp:194] Memory required for data: 202899968
I0818 10:45:00.847714  2034 layer_factory.hpp:77] Creating layer Eltwise2
I0818 10:45:00.847723  2034 net.cpp:128] Creating Layer Eltwise2
I0818 10:45:00.847728  2034 net.cpp:558] Eltwise2 <- Eltwise1_ReLU3_0_split_1
I0818 10:45:00.847736  2034 net.cpp:558] Eltwise2 <- Convolution5
I0818 10:45:00.847743  2034 net.cpp:522] Eltwise2 -> Eltwise2
I0818 10:45:00.847774  2034 net.cpp:172] Setting up Eltwise2
I0818 10:45:00.847782  2034 net.cpp:186] Top shape: 128 16 32 32 (2097152)
I0818 10:45:00.847787  2034 net.cpp:194] Memory required for data: 211288576
I0818 10:45:00.847792  2034 layer_factory.hpp:77] Creating layer ReLU5
I0818 10:45:00.847800  2034 net.cpp:128] Creating Layer ReLU5
I0818 10:45:00.847806  2034 net.cpp:558] ReLU5 <- Eltwise2
I0818 10:45:00.847813  2034 net.cpp:509] ReLU5 -> Eltwise2 (in-place)
I0818 10:45:00.848093  2034 net.cpp:172] Setting up ReLU5
I0818 10:45:00.848109  2034 net.cpp:186] Top shape: 128 16 32 32 (2097152)
I0818 10:45:00.848114  2034 net.cpp:194] Memory required for data: 219677184
I0818 10:45:00.848120  2034 layer_factory.hpp:77] Creating layer Eltwise2_ReLU5_0_split
I0818 10:45:00.848129  2034 net.cpp:128] Creating Layer Eltwise2_ReLU5_0_split
I0818 10:45:00.848135  2034 net.cpp:558] Eltwise2_ReLU5_0_split <- Eltwise2
I0818 10:45:00.848143  2034 net.cpp:522] Eltwise2_ReLU5_0_split -> Eltwise2_ReLU5_0_split_0
I0818 10:45:00.848153  2034 net.cpp:522] Eltwise2_ReLU5_0_split -> Eltwise2_ReLU5_0_split_1
I0818 10:45:00.848203  2034 net.cpp:172] Setting up Eltwise2_ReLU5_0_split
I0818 10:45:00.848215  2034 net.cpp:186] Top shape: 128 16 32 32 (2097152)
I0818 10:45:00.848223  2034 net.cpp:186] Top shape: 128 16 32 32 (2097152)
I0818 10:45:00.848227  2034 net.cpp:194] Memory required for data: 236454400
I0818 10:45:00.848233  2034 layer_factory.hpp:77] Creating layer Convolution6
I0818 10:45:00.848246  2034 net.cpp:128] Creating Layer Convolution6
I0818 10:45:00.848251  2034 net.cpp:558] Convolution6 <- Eltwise2_ReLU5_0_split_0
I0818 10:45:00.848260  2034 net.cpp:522] Convolution6 -> Convolution6
I0818 10:45:00.849633  2034 net.cpp:172] Setting up Convolution6
I0818 10:45:00.849660  2034 net.cpp:186] Top shape: 128 16 32 32 (2097152)
I0818 10:45:00.849666  2034 net.cpp:194] Memory required for data: 244843008
I0818 10:45:00.849681  2034 layer_factory.hpp:77] Creating layer BatchNorm6
I0818 10:45:00.849696  2034 net.cpp:128] Creating Layer BatchNorm6
I0818 10:45:00.849702  2034 net.cpp:558] BatchNorm6 <- Convolution6
I0818 10:45:00.849711  2034 net.cpp:509] BatchNorm6 -> Convolution6 (in-place)
I0818 10:45:00.849990  2034 net.cpp:172] Setting up BatchNorm6
I0818 10:45:00.850003  2034 net.cpp:186] Top shape: 128 16 32 32 (2097152)
I0818 10:45:00.850008  2034 net.cpp:194] Memory required for data: 253231616
I0818 10:45:00.850020  2034 layer_factory.hpp:77] Creating layer Scale6
I0818 10:45:00.850031  2034 net.cpp:128] Creating Layer Scale6
I0818 10:45:00.850039  2034 net.cpp:558] Scale6 <- Convolution6
I0818 10:45:00.850045  2034 net.cpp:509] Scale6 -> Convolution6 (in-place)
I0818 10:45:00.850092  2034 layer_factory.hpp:77] Creating layer Scale6
I0818 10:45:00.850244  2034 net.cpp:172] Setting up Scale6
I0818 10:45:00.850257  2034 net.cpp:186] Top shape: 128 16 32 32 (2097152)
I0818 10:45:00.850262  2034 net.cpp:194] Memory required for data: 261620224
I0818 10:45:00.850272  2034 layer_factory.hpp:77] Creating layer ReLU6
I0818 10:45:00.850281  2034 net.cpp:128] Creating Layer ReLU6
I0818 10:45:00.850286  2034 net.cpp:558] ReLU6 <- Convolution6
I0818 10:45:00.850292  2034 net.cpp:509] ReLU6 -> Convolution6 (in-place)
I0818 10:45:00.850777  2034 net.cpp:172] Setting up ReLU6
I0818 10:45:00.850800  2034 net.cpp:186] Top shape: 128 16 32 32 (2097152)
I0818 10:45:00.850806  2034 net.cpp:194] Memory required for data: 270008832
I0818 10:45:00.850812  2034 layer_factory.hpp:77] Creating layer Convolution7
I0818 10:45:00.850826  2034 net.cpp:128] Creating Layer Convolution7
I0818 10:45:00.850834  2034 net.cpp:558] Convolution7 <- Convolution6
I0818 10:45:00.850844  2034 net.cpp:522] Convolution7 -> Convolution7
I0818 10:45:00.852021  2034 net.cpp:172] Setting up Convolution7
I0818 10:45:00.852047  2034 net.cpp:186] Top shape: 128 16 32 32 (2097152)
I0818 10:45:00.852052  2034 net.cpp:194] Memory required for data: 278397440
I0818 10:45:00.852066  2034 layer_factory.hpp:77] Creating layer BatchNorm7
I0818 10:45:00.852075  2034 net.cpp:128] Creating Layer BatchNorm7
I0818 10:45:00.852079  2034 net.cpp:558] BatchNorm7 <- Convolution7
I0818 10:45:00.852087  2034 net.cpp:509] BatchNorm7 -> Convolution7 (in-place)
I0818 10:45:00.852309  2034 net.cpp:172] Setting up BatchNorm7
I0818 10:45:00.852319  2034 net.cpp:186] Top shape: 128 16 32 32 (2097152)
I0818 10:45:00.852322  2034 net.cpp:194] Memory required for data: 286786048
I0818 10:45:00.852332  2034 layer_factory.hpp:77] Creating layer Scale7
I0818 10:45:00.852358  2034 net.cpp:128] Creating Layer Scale7
I0818 10:45:00.852365  2034 net.cpp:558] Scale7 <- Convolution7
I0818 10:45:00.852371  2034 net.cpp:509] Scale7 -> Convolution7 (in-place)
I0818 10:45:00.852409  2034 layer_factory.hpp:77] Creating layer Scale7
I0818 10:45:00.852535  2034 net.cpp:172] Setting up Scale7
I0818 10:45:00.852545  2034 net.cpp:186] Top shape: 128 16 32 32 (2097152)
I0818 10:45:00.852548  2034 net.cpp:194] Memory required for data: 295174656
I0818 10:45:00.852556  2034 layer_factory.hpp:77] Creating layer Eltwise3
I0818 10:45:00.852566  2034 net.cpp:128] Creating Layer Eltwise3
I0818 10:45:00.852572  2034 net.cpp:558] Eltwise3 <- Eltwise2_ReLU5_0_split_1
I0818 10:45:00.852577  2034 net.cpp:558] Eltwise3 <- Convolution7
I0818 10:45:00.852584  2034 net.cpp:522] Eltwise3 -> Eltwise3
I0818 10:45:00.852609  2034 net.cpp:172] Setting up Eltwise3
I0818 10:45:00.852618  2034 net.cpp:186] Top shape: 128 16 32 32 (2097152)
I0818 10:45:00.852622  2034 net.cpp:194] Memory required for data: 303563264
I0818 10:45:00.852627  2034 layer_factory.hpp:77] Creating layer ReLU7
I0818 10:45:00.852633  2034 net.cpp:128] Creating Layer ReLU7
I0818 10:45:00.852638  2034 net.cpp:558] ReLU7 <- Eltwise3
I0818 10:45:00.852643  2034 net.cpp:509] ReLU7 -> Eltwise3 (in-place)
I0818 10:45:00.852862  2034 net.cpp:172] Setting up ReLU7
I0818 10:45:00.852875  2034 net.cpp:186] Top shape: 128 16 32 32 (2097152)
I0818 10:45:00.852880  2034 net.cpp:194] Memory required for data: 311951872
I0818 10:45:00.852885  2034 layer_factory.hpp:77] Creating layer Eltwise3_ReLU7_0_split
I0818 10:45:00.852891  2034 net.cpp:128] Creating Layer Eltwise3_ReLU7_0_split
I0818 10:45:00.852898  2034 net.cpp:558] Eltwise3_ReLU7_0_split <- Eltwise3
I0818 10:45:00.852905  2034 net.cpp:522] Eltwise3_ReLU7_0_split -> Eltwise3_ReLU7_0_split_0
I0818 10:45:00.852913  2034 net.cpp:522] Eltwise3_ReLU7_0_split -> Eltwise3_ReLU7_0_split_1
I0818 10:45:00.852957  2034 net.cpp:172] Setting up Eltwise3_ReLU7_0_split
I0818 10:45:00.852965  2034 net.cpp:186] Top shape: 128 16 32 32 (2097152)
I0818 10:45:00.852972  2034 net.cpp:186] Top shape: 128 16 32 32 (2097152)
I0818 10:45:00.852980  2034 net.cpp:194] Memory required for data: 328729088
I0818 10:45:00.852984  2034 layer_factory.hpp:77] Creating layer Convolution8
I0818 10:45:00.852995  2034 net.cpp:128] Creating Layer Convolution8
I0818 10:45:00.852999  2034 net.cpp:558] Convolution8 <- Eltwise3_ReLU7_0_split_0
I0818 10:45:00.853006  2034 net.cpp:522] Convolution8 -> Convolution8
I0818 10:45:00.854169  2034 net.cpp:172] Setting up Convolution8
I0818 10:45:00.854192  2034 net.cpp:186] Top shape: 128 16 32 32 (2097152)
I0818 10:45:00.854197  2034 net.cpp:194] Memory required for data: 337117696
I0818 10:45:00.854207  2034 layer_factory.hpp:77] Creating layer BatchNorm8
I0818 10:45:00.854214  2034 net.cpp:128] Creating Layer BatchNorm8
I0818 10:45:00.854223  2034 net.cpp:558] BatchNorm8 <- Convolution8
I0818 10:45:00.854230  2034 net.cpp:509] BatchNorm8 -> Convolution8 (in-place)
I0818 10:45:00.854460  2034 net.cpp:172] Setting up BatchNorm8
I0818 10:45:00.854470  2034 net.cpp:186] Top shape: 128 16 32 32 (2097152)
I0818 10:45:00.854475  2034 net.cpp:194] Memory required for data: 345506304
I0818 10:45:00.854483  2034 layer_factory.hpp:77] Creating layer Scale8
I0818 10:45:00.854491  2034 net.cpp:128] Creating Layer Scale8
I0818 10:45:00.854498  2034 net.cpp:558] Scale8 <- Convolution8
I0818 10:45:00.854506  2034 net.cpp:509] Scale8 -> Convolution8 (in-place)
I0818 10:45:00.854542  2034 layer_factory.hpp:77] Creating layer Scale8
I0818 10:45:00.854683  2034 net.cpp:172] Setting up Scale8
I0818 10:45:00.854694  2034 net.cpp:186] Top shape: 128 16 32 32 (2097152)
I0818 10:45:00.854698  2034 net.cpp:194] Memory required for data: 353894912
I0818 10:45:00.854707  2034 layer_factory.hpp:77] Creating layer ReLU8
I0818 10:45:00.854713  2034 net.cpp:128] Creating Layer ReLU8
I0818 10:45:00.854718  2034 net.cpp:558] ReLU8 <- Convolution8
I0818 10:45:00.854723  2034 net.cpp:509] ReLU8 -> Convolution8 (in-place)
I0818 10:45:00.854945  2034 net.cpp:172] Setting up ReLU8
I0818 10:45:00.854974  2034 net.cpp:186] Top shape: 128 16 32 32 (2097152)
I0818 10:45:00.854977  2034 net.cpp:194] Memory required for data: 362283520
I0818 10:45:00.854982  2034 layer_factory.hpp:77] Creating layer Convolution9
I0818 10:45:00.854993  2034 net.cpp:128] Creating Layer Convolution9
I0818 10:45:00.855000  2034 net.cpp:558] Convolution9 <- Convolution8
I0818 10:45:00.855007  2034 net.cpp:522] Convolution9 -> Convolution9
I0818 10:45:00.856202  2034 net.cpp:172] Setting up Convolution9
I0818 10:45:00.856225  2034 net.cpp:186] Top shape: 128 16 32 32 (2097152)
I0818 10:45:00.856230  2034 net.cpp:194] Memory required for data: 370672128
I0818 10:45:00.856240  2034 layer_factory.hpp:77] Creating layer BatchNorm9
I0818 10:45:00.856253  2034 net.cpp:128] Creating Layer BatchNorm9
I0818 10:45:00.856258  2034 net.cpp:558] BatchNorm9 <- Convolution9
I0818 10:45:00.856266  2034 net.cpp:509] BatchNorm9 -> Convolution9 (in-place)
I0818 10:45:00.856499  2034 net.cpp:172] Setting up BatchNorm9
I0818 10:45:00.856508  2034 net.cpp:186] Top shape: 128 16 32 32 (2097152)
I0818 10:45:00.856513  2034 net.cpp:194] Memory required for data: 379060736
I0818 10:45:00.856523  2034 layer_factory.hpp:77] Creating layer Scale9
I0818 10:45:00.856530  2034 net.cpp:128] Creating Layer Scale9
I0818 10:45:00.856537  2034 net.cpp:558] Scale9 <- Convolution9
I0818 10:45:00.856544  2034 net.cpp:509] Scale9 -> Convolution9 (in-place)
I0818 10:45:00.856580  2034 layer_factory.hpp:77] Creating layer Scale9
I0818 10:45:00.856709  2034 net.cpp:172] Setting up Scale9
I0818 10:45:00.856719  2034 net.cpp:186] Top shape: 128 16 32 32 (2097152)
I0818 10:45:00.856724  2034 net.cpp:194] Memory required for data: 387449344
I0818 10:45:00.856731  2034 layer_factory.hpp:77] Creating layer Eltwise4
I0818 10:45:00.856739  2034 net.cpp:128] Creating Layer Eltwise4
I0818 10:45:00.856743  2034 net.cpp:558] Eltwise4 <- Eltwise3_ReLU7_0_split_1
I0818 10:45:00.856748  2034 net.cpp:558] Eltwise4 <- Convolution9
I0818 10:45:00.856755  2034 net.cpp:522] Eltwise4 -> Eltwise4
I0818 10:45:00.856781  2034 net.cpp:172] Setting up Eltwise4
I0818 10:45:00.856789  2034 net.cpp:186] Top shape: 128 16 32 32 (2097152)
I0818 10:45:00.856793  2034 net.cpp:194] Memory required for data: 395837952
I0818 10:45:00.856797  2034 layer_factory.hpp:77] Creating layer ReLU9
I0818 10:45:00.856804  2034 net.cpp:128] Creating Layer ReLU9
I0818 10:45:00.856808  2034 net.cpp:558] ReLU9 <- Eltwise4
I0818 10:45:00.856814  2034 net.cpp:509] ReLU9 -> Eltwise4 (in-place)
I0818 10:45:00.857035  2034 net.cpp:172] Setting up ReLU9
I0818 10:45:00.857048  2034 net.cpp:186] Top shape: 128 16 32 32 (2097152)
I0818 10:45:00.857053  2034 net.cpp:194] Memory required for data: 404226560
I0818 10:45:00.857058  2034 layer_factory.hpp:77] Creating layer Eltwise4_ReLU9_0_split
I0818 10:45:00.857064  2034 net.cpp:128] Creating Layer Eltwise4_ReLU9_0_split
I0818 10:45:00.857069  2034 net.cpp:558] Eltwise4_ReLU9_0_split <- Eltwise4
I0818 10:45:00.857076  2034 net.cpp:522] Eltwise4_ReLU9_0_split -> Eltwise4_ReLU9_0_split_0
I0818 10:45:00.857084  2034 net.cpp:522] Eltwise4_ReLU9_0_split -> Eltwise4_ReLU9_0_split_1
I0818 10:45:00.857127  2034 net.cpp:172] Setting up Eltwise4_ReLU9_0_split
I0818 10:45:00.857136  2034 net.cpp:186] Top shape: 128 16 32 32 (2097152)
I0818 10:45:00.857142  2034 net.cpp:186] Top shape: 128 16 32 32 (2097152)
I0818 10:45:00.857146  2034 net.cpp:194] Memory required for data: 421003776
I0818 10:45:00.857151  2034 layer_factory.hpp:77] Creating layer Convolution10
I0818 10:45:00.857161  2034 net.cpp:128] Creating Layer Convolution10
I0818 10:45:00.857165  2034 net.cpp:558] Convolution10 <- Eltwise4_ReLU9_0_split_0
I0818 10:45:00.857173  2034 net.cpp:522] Convolution10 -> Convolution10
I0818 10:45:00.858405  2034 net.cpp:172] Setting up Convolution10
I0818 10:45:00.858428  2034 net.cpp:186] Top shape: 128 16 32 32 (2097152)
I0818 10:45:00.858438  2034 net.cpp:194] Memory required for data: 429392384
I0818 10:45:00.858458  2034 layer_factory.hpp:77] Creating layer BatchNorm10
I0818 10:45:00.858484  2034 net.cpp:128] Creating Layer BatchNorm10
I0818 10:45:00.858490  2034 net.cpp:558] BatchNorm10 <- Convolution10
I0818 10:45:00.858500  2034 net.cpp:509] BatchNorm10 -> Convolution10 (in-place)
I0818 10:45:00.858767  2034 net.cpp:172] Setting up BatchNorm10
I0818 10:45:00.858778  2034 net.cpp:186] Top shape: 128 16 32 32 (2097152)
I0818 10:45:00.858783  2034 net.cpp:194] Memory required for data: 437780992
I0818 10:45:00.858793  2034 layer_factory.hpp:77] Creating layer Scale10
I0818 10:45:00.858803  2034 net.cpp:128] Creating Layer Scale10
I0818 10:45:00.858808  2034 net.cpp:558] Scale10 <- Convolution10
I0818 10:45:00.858814  2034 net.cpp:509] Scale10 -> Convolution10 (in-place)
I0818 10:45:00.858855  2034 layer_factory.hpp:77] Creating layer Scale10
I0818 10:45:00.858999  2034 net.cpp:172] Setting up Scale10
I0818 10:45:00.859009  2034 net.cpp:186] Top shape: 128 16 32 32 (2097152)
I0818 10:45:00.859012  2034 net.cpp:194] Memory required for data: 446169600
I0818 10:45:00.859020  2034 layer_factory.hpp:77] Creating layer ReLU10
I0818 10:45:00.859026  2034 net.cpp:128] Creating Layer ReLU10
I0818 10:45:00.859031  2034 net.cpp:558] ReLU10 <- Convolution10
I0818 10:45:00.859038  2034 net.cpp:509] ReLU10 -> Convolution10 (in-place)
I0818 10:45:00.859457  2034 net.cpp:172] Setting up ReLU10
I0818 10:45:00.859477  2034 net.cpp:186] Top shape: 128 16 32 32 (2097152)
I0818 10:45:00.859481  2034 net.cpp:194] Memory required for data: 454558208
I0818 10:45:00.859486  2034 layer_factory.hpp:77] Creating layer Convolution11
I0818 10:45:00.859500  2034 net.cpp:128] Creating Layer Convolution11
I0818 10:45:00.859505  2034 net.cpp:558] Convolution11 <- Convolution10
I0818 10:45:00.859515  2034 net.cpp:522] Convolution11 -> Convolution11
I0818 10:45:00.860777  2034 net.cpp:172] Setting up Convolution11
I0818 10:45:00.860802  2034 net.cpp:186] Top shape: 128 16 32 32 (2097152)
I0818 10:45:00.860807  2034 net.cpp:194] Memory required for data: 462946816
I0818 10:45:00.860817  2034 layer_factory.hpp:77] Creating layer BatchNorm11
I0818 10:45:00.860828  2034 net.cpp:128] Creating Layer BatchNorm11
I0818 10:45:00.860833  2034 net.cpp:558] BatchNorm11 <- Convolution11
I0818 10:45:00.860844  2034 net.cpp:509] BatchNorm11 -> Convolution11 (in-place)
I0818 10:45:00.861091  2034 net.cpp:172] Setting up BatchNorm11
I0818 10:45:00.861101  2034 net.cpp:186] Top shape: 128 16 32 32 (2097152)
I0818 10:45:00.861106  2034 net.cpp:194] Memory required for data: 471335424
I0818 10:45:00.861115  2034 layer_factory.hpp:77] Creating layer Scale11
I0818 10:45:00.861124  2034 net.cpp:128] Creating Layer Scale11
I0818 10:45:00.861129  2034 net.cpp:558] Scale11 <- Convolution11
I0818 10:45:00.861135  2034 net.cpp:509] Scale11 -> Convolution11 (in-place)
I0818 10:45:00.861174  2034 layer_factory.hpp:77] Creating layer Scale11
I0818 10:45:00.861325  2034 net.cpp:172] Setting up Scale11
I0818 10:45:00.861336  2034 net.cpp:186] Top shape: 128 16 32 32 (2097152)
I0818 10:45:00.861340  2034 net.cpp:194] Memory required for data: 479724032
I0818 10:45:00.861348  2034 layer_factory.hpp:77] Creating layer Eltwise5
I0818 10:45:00.861357  2034 net.cpp:128] Creating Layer Eltwise5
I0818 10:45:00.861362  2034 net.cpp:558] Eltwise5 <- Eltwise4_ReLU9_0_split_1
I0818 10:45:00.861367  2034 net.cpp:558] Eltwise5 <- Convolution11
I0818 10:45:00.861373  2034 net.cpp:522] Eltwise5 -> Eltwise5
I0818 10:45:00.861400  2034 net.cpp:172] Setting up Eltwise5
I0818 10:45:00.861408  2034 net.cpp:186] Top shape: 128 16 32 32 (2097152)
I0818 10:45:00.861413  2034 net.cpp:194] Memory required for data: 488112640
I0818 10:45:00.861416  2034 layer_factory.hpp:77] Creating layer ReLU11
I0818 10:45:00.861423  2034 net.cpp:128] Creating Layer ReLU11
I0818 10:45:00.861426  2034 net.cpp:558] ReLU11 <- Eltwise5
I0818 10:45:00.861433  2034 net.cpp:509] ReLU11 -> Eltwise5 (in-place)
I0818 10:45:00.861661  2034 net.cpp:172] Setting up ReLU11
I0818 10:45:00.861675  2034 net.cpp:186] Top shape: 128 16 32 32 (2097152)
I0818 10:45:00.861678  2034 net.cpp:194] Memory required for data: 496501248
I0818 10:45:00.861698  2034 layer_factory.hpp:77] Creating layer Eltwise5_ReLU11_0_split
I0818 10:45:00.861706  2034 net.cpp:128] Creating Layer Eltwise5_ReLU11_0_split
I0818 10:45:00.861711  2034 net.cpp:558] Eltwise5_ReLU11_0_split <- Eltwise5
I0818 10:45:00.861719  2034 net.cpp:522] Eltwise5_ReLU11_0_split -> Eltwise5_ReLU11_0_split_0
I0818 10:45:00.861728  2034 net.cpp:522] Eltwise5_ReLU11_0_split -> Eltwise5_ReLU11_0_split_1
I0818 10:45:00.861780  2034 net.cpp:172] Setting up Eltwise5_ReLU11_0_split
I0818 10:45:00.861790  2034 net.cpp:186] Top shape: 128 16 32 32 (2097152)
I0818 10:45:00.861796  2034 net.cpp:186] Top shape: 128 16 32 32 (2097152)
I0818 10:45:00.861800  2034 net.cpp:194] Memory required for data: 513278464
I0818 10:45:00.861804  2034 layer_factory.hpp:77] Creating layer Convolution12
I0818 10:45:00.861816  2034 net.cpp:128] Creating Layer Convolution12
I0818 10:45:00.861821  2034 net.cpp:558] Convolution12 <- Eltwise5_ReLU11_0_split_0
I0818 10:45:00.861832  2034 net.cpp:522] Convolution12 -> Convolution12
I0818 10:45:00.863274  2034 net.cpp:172] Setting up Convolution12
I0818 10:45:00.863301  2034 net.cpp:186] Top shape: 128 32 16 16 (1048576)
I0818 10:45:00.863304  2034 net.cpp:194] Memory required for data: 517472768
I0818 10:45:00.863315  2034 layer_factory.hpp:77] Creating layer BatchNorm12
I0818 10:45:00.863325  2034 net.cpp:128] Creating Layer BatchNorm12
I0818 10:45:00.863330  2034 net.cpp:558] BatchNorm12 <- Convolution12
I0818 10:45:00.863338  2034 net.cpp:509] BatchNorm12 -> Convolution12 (in-place)
I0818 10:45:00.863587  2034 net.cpp:172] Setting up BatchNorm12
I0818 10:45:00.863597  2034 net.cpp:186] Top shape: 128 32 16 16 (1048576)
I0818 10:45:00.863602  2034 net.cpp:194] Memory required for data: 521667072
I0818 10:45:00.863611  2034 layer_factory.hpp:77] Creating layer Scale12
I0818 10:45:00.863618  2034 net.cpp:128] Creating Layer Scale12
I0818 10:45:00.863622  2034 net.cpp:558] Scale12 <- Convolution12
I0818 10:45:00.863631  2034 net.cpp:509] Scale12 -> Convolution12 (in-place)
I0818 10:45:00.863669  2034 layer_factory.hpp:77] Creating layer Scale12
I0818 10:45:00.863813  2034 net.cpp:172] Setting up Scale12
I0818 10:45:00.863823  2034 net.cpp:186] Top shape: 128 32 16 16 (1048576)
I0818 10:45:00.863828  2034 net.cpp:194] Memory required for data: 525861376
I0818 10:45:00.863837  2034 layer_factory.hpp:77] Creating layer Convolution13
I0818 10:45:00.863847  2034 net.cpp:128] Creating Layer Convolution13
I0818 10:45:00.863852  2034 net.cpp:558] Convolution13 <- Eltwise5_ReLU11_0_split_1
I0818 10:45:00.863862  2034 net.cpp:522] Convolution13 -> Convolution13
I0818 10:45:00.866497  2034 net.cpp:172] Setting up Convolution13
I0818 10:45:00.866523  2034 net.cpp:186] Top shape: 128 32 16 16 (1048576)
I0818 10:45:00.866528  2034 net.cpp:194] Memory required for data: 530055680
I0818 10:45:00.866539  2034 layer_factory.hpp:77] Creating layer BatchNorm13
I0818 10:45:00.866550  2034 net.cpp:128] Creating Layer BatchNorm13
I0818 10:45:00.866559  2034 net.cpp:558] BatchNorm13 <- Convolution13
I0818 10:45:00.866566  2034 net.cpp:509] BatchNorm13 -> Convolution13 (in-place)
I0818 10:45:00.866827  2034 net.cpp:172] Setting up BatchNorm13
I0818 10:45:00.866837  2034 net.cpp:186] Top shape: 128 32 16 16 (1048576)
I0818 10:45:00.866842  2034 net.cpp:194] Memory required for data: 534249984
I0818 10:45:00.866852  2034 layer_factory.hpp:77] Creating layer Scale13
I0818 10:45:00.866861  2034 net.cpp:128] Creating Layer Scale13
I0818 10:45:00.866865  2034 net.cpp:558] Scale13 <- Convolution13
I0818 10:45:00.866871  2034 net.cpp:509] Scale13 -> Convolution13 (in-place)
I0818 10:45:00.866912  2034 layer_factory.hpp:77] Creating layer Scale13
I0818 10:45:00.867053  2034 net.cpp:172] Setting up Scale13
I0818 10:45:00.867063  2034 net.cpp:186] Top shape: 128 32 16 16 (1048576)
I0818 10:45:00.867067  2034 net.cpp:194] Memory required for data: 538444288
I0818 10:45:00.867074  2034 layer_factory.hpp:77] Creating layer ReLU12
I0818 10:45:00.867084  2034 net.cpp:128] Creating Layer ReLU12
I0818 10:45:00.867107  2034 net.cpp:558] ReLU12 <- Convolution13
I0818 10:45:00.867115  2034 net.cpp:509] ReLU12 -> Convolution13 (in-place)
I0818 10:45:00.867348  2034 net.cpp:172] Setting up ReLU12
I0818 10:45:00.867362  2034 net.cpp:186] Top shape: 128 32 16 16 (1048576)
I0818 10:45:00.867367  2034 net.cpp:194] Memory required for data: 542638592
I0818 10:45:00.867372  2034 layer_factory.hpp:77] Creating layer Convolution14
I0818 10:45:00.867384  2034 net.cpp:128] Creating Layer Convolution14
I0818 10:45:00.867390  2034 net.cpp:558] Convolution14 <- Convolution13
I0818 10:45:00.867398  2034 net.cpp:522] Convolution14 -> Convolution14
I0818 10:45:00.868813  2034 net.cpp:172] Setting up Convolution14
I0818 10:45:00.868839  2034 net.cpp:186] Top shape: 128 32 16 16 (1048576)
I0818 10:45:00.868844  2034 net.cpp:194] Memory required for data: 546832896
I0818 10:45:00.868854  2034 layer_factory.hpp:77] Creating layer BatchNorm14
I0818 10:45:00.868872  2034 net.cpp:128] Creating Layer BatchNorm14
I0818 10:45:00.868881  2034 net.cpp:558] BatchNorm14 <- Convolution14
I0818 10:45:00.868888  2034 net.cpp:509] BatchNorm14 -> Convolution14 (in-place)
I0818 10:45:00.869132  2034 net.cpp:172] Setting up BatchNorm14
I0818 10:45:00.869143  2034 net.cpp:186] Top shape: 128 32 16 16 (1048576)
I0818 10:45:00.869148  2034 net.cpp:194] Memory required for data: 551027200
I0818 10:45:00.869156  2034 layer_factory.hpp:77] Creating layer Scale14
I0818 10:45:00.869165  2034 net.cpp:128] Creating Layer Scale14
I0818 10:45:00.869170  2034 net.cpp:558] Scale14 <- Convolution14
I0818 10:45:00.869175  2034 net.cpp:509] Scale14 -> Convolution14 (in-place)
I0818 10:45:00.869216  2034 layer_factory.hpp:77] Creating layer Scale14
I0818 10:45:00.869354  2034 net.cpp:172] Setting up Scale14
I0818 10:45:00.869365  2034 net.cpp:186] Top shape: 128 32 16 16 (1048576)
I0818 10:45:00.869369  2034 net.cpp:194] Memory required for data: 555221504
I0818 10:45:00.869377  2034 layer_factory.hpp:77] Creating layer Eltwise6
I0818 10:45:00.869385  2034 net.cpp:128] Creating Layer Eltwise6
I0818 10:45:00.869388  2034 net.cpp:558] Eltwise6 <- Convolution12
I0818 10:45:00.869393  2034 net.cpp:558] Eltwise6 <- Convolution14
I0818 10:45:00.869401  2034 net.cpp:522] Eltwise6 -> Eltwise6
I0818 10:45:00.869423  2034 net.cpp:172] Setting up Eltwise6
I0818 10:45:00.869432  2034 net.cpp:186] Top shape: 128 32 16 16 (1048576)
I0818 10:45:00.869436  2034 net.cpp:194] Memory required for data: 559415808
I0818 10:45:00.869441  2034 layer_factory.hpp:77] Creating layer ReLU13
I0818 10:45:00.869447  2034 net.cpp:128] Creating Layer ReLU13
I0818 10:45:00.869451  2034 net.cpp:558] ReLU13 <- Eltwise6
I0818 10:45:00.869457  2034 net.cpp:509] ReLU13 -> Eltwise6 (in-place)
I0818 10:45:00.869885  2034 net.cpp:172] Setting up ReLU13
I0818 10:45:00.869907  2034 net.cpp:186] Top shape: 128 32 16 16 (1048576)
I0818 10:45:00.869911  2034 net.cpp:194] Memory required for data: 563610112
I0818 10:45:00.869917  2034 layer_factory.hpp:77] Creating layer Eltwise6_ReLU13_0_split
I0818 10:45:00.869927  2034 net.cpp:128] Creating Layer Eltwise6_ReLU13_0_split
I0818 10:45:00.869932  2034 net.cpp:558] Eltwise6_ReLU13_0_split <- Eltwise6
I0818 10:45:00.869942  2034 net.cpp:522] Eltwise6_ReLU13_0_split -> Eltwise6_ReLU13_0_split_0
I0818 10:45:00.869952  2034 net.cpp:522] Eltwise6_ReLU13_0_split -> Eltwise6_ReLU13_0_split_1
I0818 10:45:00.870003  2034 net.cpp:172] Setting up Eltwise6_ReLU13_0_split
I0818 10:45:00.870013  2034 net.cpp:186] Top shape: 128 32 16 16 (1048576)
I0818 10:45:00.870019  2034 net.cpp:186] Top shape: 128 32 16 16 (1048576)
I0818 10:45:00.870023  2034 net.cpp:194] Memory required for data: 571998720
I0818 10:45:00.870028  2034 layer_factory.hpp:77] Creating layer Convolution15
I0818 10:45:00.870039  2034 net.cpp:128] Creating Layer Convolution15
I0818 10:45:00.870044  2034 net.cpp:558] Convolution15 <- Eltwise6_ReLU13_0_split_0
I0818 10:45:00.870050  2034 net.cpp:522] Convolution15 -> Convolution15
I0818 10:45:00.871440  2034 net.cpp:172] Setting up Convolution15
I0818 10:45:00.871480  2034 net.cpp:186] Top shape: 128 32 16 16 (1048576)
I0818 10:45:00.871484  2034 net.cpp:194] Memory required for data: 576193024
I0818 10:45:00.871495  2034 layer_factory.hpp:77] Creating layer BatchNorm15
I0818 10:45:00.871506  2034 net.cpp:128] Creating Layer BatchNorm15
I0818 10:45:00.871511  2034 net.cpp:558] BatchNorm15 <- Convolution15
I0818 10:45:00.871525  2034 net.cpp:509] BatchNorm15 -> Convolution15 (in-place)
I0818 10:45:00.871769  2034 net.cpp:172] Setting up BatchNorm15
I0818 10:45:00.871780  2034 net.cpp:186] Top shape: 128 32 16 16 (1048576)
I0818 10:45:00.871784  2034 net.cpp:194] Memory required for data: 580387328
I0818 10:45:00.871794  2034 layer_factory.hpp:77] Creating layer Scale15
I0818 10:45:00.871801  2034 net.cpp:128] Creating Layer Scale15
I0818 10:45:00.871805  2034 net.cpp:558] Scale15 <- Convolution15
I0818 10:45:00.871811  2034 net.cpp:509] Scale15 -> Convolution15 (in-place)
I0818 10:45:00.871853  2034 layer_factory.hpp:77] Creating layer Scale15
I0818 10:45:00.871994  2034 net.cpp:172] Setting up Scale15
I0818 10:45:00.872004  2034 net.cpp:186] Top shape: 128 32 16 16 (1048576)
I0818 10:45:00.872007  2034 net.cpp:194] Memory required for data: 584581632
I0818 10:45:00.872015  2034 layer_factory.hpp:77] Creating layer ReLU14
I0818 10:45:00.872025  2034 net.cpp:128] Creating Layer ReLU14
I0818 10:45:00.872030  2034 net.cpp:558] ReLU14 <- Convolution15
I0818 10:45:00.872037  2034 net.cpp:509] ReLU14 -> Convolution15 (in-place)
I0818 10:45:00.872275  2034 net.cpp:172] Setting up ReLU14
I0818 10:45:00.872287  2034 net.cpp:186] Top shape: 128 32 16 16 (1048576)
I0818 10:45:00.872292  2034 net.cpp:194] Memory required for data: 588775936
I0818 10:45:00.872297  2034 layer_factory.hpp:77] Creating layer Convolution16
I0818 10:45:00.872309  2034 net.cpp:128] Creating Layer Convolution16
I0818 10:45:00.872316  2034 net.cpp:558] Convolution16 <- Convolution15
I0818 10:45:00.872326  2034 net.cpp:522] Convolution16 -> Convolution16
I0818 10:45:00.873697  2034 net.cpp:172] Setting up Convolution16
I0818 10:45:00.873718  2034 net.cpp:186] Top shape: 128 32 16 16 (1048576)
I0818 10:45:00.873723  2034 net.cpp:194] Memory required for data: 592970240
I0818 10:45:00.873734  2034 layer_factory.hpp:77] Creating layer BatchNorm16
I0818 10:45:00.873747  2034 net.cpp:128] Creating Layer BatchNorm16
I0818 10:45:00.873752  2034 net.cpp:558] BatchNorm16 <- Convolution16
I0818 10:45:00.873764  2034 net.cpp:509] BatchNorm16 -> Convolution16 (in-place)
I0818 10:45:00.874009  2034 net.cpp:172] Setting up BatchNorm16
I0818 10:45:00.874019  2034 net.cpp:186] Top shape: 128 32 16 16 (1048576)
I0818 10:45:00.874023  2034 net.cpp:194] Memory required for data: 597164544
I0818 10:45:00.874032  2034 layer_factory.hpp:77] Creating layer Scale16
I0818 10:45:00.874042  2034 net.cpp:128] Creating Layer Scale16
I0818 10:45:00.874047  2034 net.cpp:558] Scale16 <- Convolution16
I0818 10:45:00.874053  2034 net.cpp:509] Scale16 -> Convolution16 (in-place)
I0818 10:45:00.874094  2034 layer_factory.hpp:77] Creating layer Scale16
I0818 10:45:00.874239  2034 net.cpp:172] Setting up Scale16
I0818 10:45:00.874248  2034 net.cpp:186] Top shape: 128 32 16 16 (1048576)
I0818 10:45:00.874251  2034 net.cpp:194] Memory required for data: 601358848
I0818 10:45:00.874259  2034 layer_factory.hpp:77] Creating layer Eltwise7
I0818 10:45:00.874266  2034 net.cpp:128] Creating Layer Eltwise7
I0818 10:45:00.874271  2034 net.cpp:558] Eltwise7 <- Eltwise6_ReLU13_0_split_1
I0818 10:45:00.874275  2034 net.cpp:558] Eltwise7 <- Convolution16
I0818 10:45:00.874284  2034 net.cpp:522] Eltwise7 -> Eltwise7
I0818 10:45:00.874305  2034 net.cpp:172] Setting up Eltwise7
I0818 10:45:00.874317  2034 net.cpp:186] Top shape: 128 32 16 16 (1048576)
I0818 10:45:00.874321  2034 net.cpp:194] Memory required for data: 605553152
I0818 10:45:00.874325  2034 layer_factory.hpp:77] Creating layer ReLU15
I0818 10:45:00.874331  2034 net.cpp:128] Creating Layer ReLU15
I0818 10:45:00.874336  2034 net.cpp:558] ReLU15 <- Eltwise7
I0818 10:45:00.874341  2034 net.cpp:509] ReLU15 -> Eltwise7 (in-place)
I0818 10:45:00.874794  2034 net.cpp:172] Setting up ReLU15
I0818 10:45:00.874810  2034 net.cpp:186] Top shape: 128 32 16 16 (1048576)
I0818 10:45:00.874815  2034 net.cpp:194] Memory required for data: 609747456
I0818 10:45:00.874820  2034 layer_factory.hpp:77] Creating layer Eltwise7_ReLU15_0_split
I0818 10:45:00.874830  2034 net.cpp:128] Creating Layer Eltwise7_ReLU15_0_split
I0818 10:45:00.874835  2034 net.cpp:558] Eltwise7_ReLU15_0_split <- Eltwise7
I0818 10:45:00.874845  2034 net.cpp:522] Eltwise7_ReLU15_0_split -> Eltwise7_ReLU15_0_split_0
I0818 10:45:00.874855  2034 net.cpp:522] Eltwise7_ReLU15_0_split -> Eltwise7_ReLU15_0_split_1
I0818 10:45:00.874910  2034 net.cpp:172] Setting up Eltwise7_ReLU15_0_split
I0818 10:45:00.874918  2034 net.cpp:186] Top shape: 128 32 16 16 (1048576)
I0818 10:45:00.874923  2034 net.cpp:186] Top shape: 128 32 16 16 (1048576)
I0818 10:45:00.874927  2034 net.cpp:194] Memory required for data: 618136064
I0818 10:45:00.874931  2034 layer_factory.hpp:77] Creating layer Convolution17
I0818 10:45:00.874943  2034 net.cpp:128] Creating Layer Convolution17
I0818 10:45:00.874948  2034 net.cpp:558] Convolution17 <- Eltwise7_ReLU15_0_split_0
I0818 10:45:00.874958  2034 net.cpp:522] Convolution17 -> Convolution17
I0818 10:45:00.876328  2034 net.cpp:172] Setting up Convolution17
I0818 10:45:00.876355  2034 net.cpp:186] Top shape: 128 32 16 16 (1048576)
I0818 10:45:00.876360  2034 net.cpp:194] Memory required for data: 622330368
I0818 10:45:00.876370  2034 layer_factory.hpp:77] Creating layer BatchNorm17
I0818 10:45:00.876379  2034 net.cpp:128] Creating Layer BatchNorm17
I0818 10:45:00.876384  2034 net.cpp:558] BatchNorm17 <- Convolution17
I0818 10:45:00.876396  2034 net.cpp:509] BatchNorm17 -> Convolution17 (in-place)
I0818 10:45:00.876649  2034 net.cpp:172] Setting up BatchNorm17
I0818 10:45:00.876659  2034 net.cpp:186] Top shape: 128 32 16 16 (1048576)
I0818 10:45:00.876664  2034 net.cpp:194] Memory required for data: 626524672
I0818 10:45:00.876674  2034 layer_factory.hpp:77] Creating layer Scale17
I0818 10:45:00.876680  2034 net.cpp:128] Creating Layer Scale17
I0818 10:45:00.876685  2034 net.cpp:558] Scale17 <- Convolution17
I0818 10:45:00.876690  2034 net.cpp:509] Scale17 -> Convolution17 (in-place)
I0818 10:45:00.876732  2034 layer_factory.hpp:77] Creating layer Scale17
I0818 10:45:00.876878  2034 net.cpp:172] Setting up Scale17
I0818 10:45:00.876893  2034 net.cpp:186] Top shape: 128 32 16 16 (1048576)
I0818 10:45:00.876896  2034 net.cpp:194] Memory required for data: 630718976
I0818 10:45:00.876904  2034 layer_factory.hpp:77] Creating layer ReLU16
I0818 10:45:00.876914  2034 net.cpp:128] Creating Layer ReLU16
I0818 10:45:00.876919  2034 net.cpp:558] ReLU16 <- Convolution17
I0818 10:45:00.876924  2034 net.cpp:509] ReLU16 -> Convolution17 (in-place)
I0818 10:45:00.877344  2034 net.cpp:172] Setting up ReLU16
I0818 10:45:00.877365  2034 net.cpp:186] Top shape: 128 32 16 16 (1048576)
I0818 10:45:00.877369  2034 net.cpp:194] Memory required for data: 634913280
I0818 10:45:00.877374  2034 layer_factory.hpp:77] Creating layer Convolution18
I0818 10:45:00.877388  2034 net.cpp:128] Creating Layer Convolution18
I0818 10:45:00.877396  2034 net.cpp:558] Convolution18 <- Convolution17
I0818 10:45:00.877404  2034 net.cpp:522] Convolution18 -> Convolution18
I0818 10:45:00.878788  2034 net.cpp:172] Setting up Convolution18
I0818 10:45:00.878813  2034 net.cpp:186] Top shape: 128 32 16 16 (1048576)
I0818 10:45:00.878818  2034 net.cpp:194] Memory required for data: 639107584
I0818 10:45:00.878831  2034 layer_factory.hpp:77] Creating layer BatchNorm18
I0818 10:45:00.878841  2034 net.cpp:128] Creating Layer BatchNorm18
I0818 10:45:00.878846  2034 net.cpp:558] BatchNorm18 <- Convolution18
I0818 10:45:00.878854  2034 net.cpp:509] BatchNorm18 -> Convolution18 (in-place)
I0818 10:45:00.879106  2034 net.cpp:172] Setting up BatchNorm18
I0818 10:45:00.879117  2034 net.cpp:186] Top shape: 128 32 16 16 (1048576)
I0818 10:45:00.879122  2034 net.cpp:194] Memory required for data: 643301888
I0818 10:45:00.879132  2034 layer_factory.hpp:77] Creating layer Scale18
I0818 10:45:00.879155  2034 net.cpp:128] Creating Layer Scale18
I0818 10:45:00.879160  2034 net.cpp:558] Scale18 <- Convolution18
I0818 10:45:00.879168  2034 net.cpp:509] Scale18 -> Convolution18 (in-place)
I0818 10:45:00.879210  2034 layer_factory.hpp:77] Creating layer Scale18
I0818 10:45:00.879354  2034 net.cpp:172] Setting up Scale18
I0818 10:45:00.879366  2034 net.cpp:186] Top shape: 128 32 16 16 (1048576)
I0818 10:45:00.879370  2034 net.cpp:194] Memory required for data: 647496192
I0818 10:45:00.879379  2034 layer_factory.hpp:77] Creating layer Eltwise8
I0818 10:45:00.879385  2034 net.cpp:128] Creating Layer Eltwise8
I0818 10:45:00.879393  2034 net.cpp:558] Eltwise8 <- Eltwise7_ReLU15_0_split_1
I0818 10:45:00.879398  2034 net.cpp:558] Eltwise8 <- Convolution18
I0818 10:45:00.879405  2034 net.cpp:522] Eltwise8 -> Eltwise8
I0818 10:45:00.879427  2034 net.cpp:172] Setting up Eltwise8
I0818 10:45:00.879436  2034 net.cpp:186] Top shape: 128 32 16 16 (1048576)
I0818 10:45:00.879441  2034 net.cpp:194] Memory required for data: 651690496
I0818 10:45:00.879446  2034 layer_factory.hpp:77] Creating layer ReLU17
I0818 10:45:00.879451  2034 net.cpp:128] Creating Layer ReLU17
I0818 10:45:00.879456  2034 net.cpp:558] ReLU17 <- Eltwise8
I0818 10:45:00.879463  2034 net.cpp:509] ReLU17 -> Eltwise8 (in-place)
I0818 10:45:00.879698  2034 net.cpp:172] Setting up ReLU17
I0818 10:45:00.879710  2034 net.cpp:186] Top shape: 128 32 16 16 (1048576)
I0818 10:45:00.879714  2034 net.cpp:194] Memory required for data: 655884800
I0818 10:45:00.879719  2034 layer_factory.hpp:77] Creating layer Eltwise8_ReLU17_0_split
I0818 10:45:00.879726  2034 net.cpp:128] Creating Layer Eltwise8_ReLU17_0_split
I0818 10:45:00.879730  2034 net.cpp:558] Eltwise8_ReLU17_0_split <- Eltwise8
I0818 10:45:00.879739  2034 net.cpp:522] Eltwise8_ReLU17_0_split -> Eltwise8_ReLU17_0_split_0
I0818 10:45:00.879747  2034 net.cpp:522] Eltwise8_ReLU17_0_split -> Eltwise8_ReLU17_0_split_1
I0818 10:45:00.879799  2034 net.cpp:172] Setting up Eltwise8_ReLU17_0_split
I0818 10:45:00.879808  2034 net.cpp:186] Top shape: 128 32 16 16 (1048576)
I0818 10:45:00.879814  2034 net.cpp:186] Top shape: 128 32 16 16 (1048576)
I0818 10:45:00.879818  2034 net.cpp:194] Memory required for data: 664273408
I0818 10:45:00.879822  2034 layer_factory.hpp:77] Creating layer Convolution19
I0818 10:45:00.879834  2034 net.cpp:128] Creating Layer Convolution19
I0818 10:45:00.879840  2034 net.cpp:558] Convolution19 <- Eltwise8_ReLU17_0_split_0
I0818 10:45:00.879851  2034 net.cpp:522] Convolution19 -> Convolution19
I0818 10:45:00.881382  2034 net.cpp:172] Setting up Convolution19
I0818 10:45:00.881407  2034 net.cpp:186] Top shape: 128 32 16 16 (1048576)
I0818 10:45:00.881412  2034 net.cpp:194] Memory required for data: 668467712
I0818 10:45:00.881425  2034 layer_factory.hpp:77] Creating layer BatchNorm19
I0818 10:45:00.881435  2034 net.cpp:128] Creating Layer BatchNorm19
I0818 10:45:00.881441  2034 net.cpp:558] BatchNorm19 <- Convolution19
I0818 10:45:00.881448  2034 net.cpp:509] BatchNorm19 -> Convolution19 (in-place)
I0818 10:45:00.881712  2034 net.cpp:172] Setting up BatchNorm19
I0818 10:45:00.881722  2034 net.cpp:186] Top shape: 128 32 16 16 (1048576)
I0818 10:45:00.881726  2034 net.cpp:194] Memory required for data: 672662016
I0818 10:45:00.881747  2034 layer_factory.hpp:77] Creating layer Scale19
I0818 10:45:00.881760  2034 net.cpp:128] Creating Layer Scale19
I0818 10:45:00.881765  2034 net.cpp:558] Scale19 <- Convolution19
I0818 10:45:00.881772  2034 net.cpp:509] Scale19 -> Convolution19 (in-place)
I0818 10:45:00.881813  2034 layer_factory.hpp:77] Creating layer Scale19
I0818 10:45:00.881953  2034 net.cpp:172] Setting up Scale19
I0818 10:45:00.881961  2034 net.cpp:186] Top shape: 128 32 16 16 (1048576)
I0818 10:45:00.881966  2034 net.cpp:194] Memory required for data: 676856320
I0818 10:45:00.881973  2034 layer_factory.hpp:77] Creating layer ReLU18
I0818 10:45:00.881979  2034 net.cpp:128] Creating Layer ReLU18
I0818 10:45:00.881984  2034 net.cpp:558] ReLU18 <- Convolution19
I0818 10:45:00.882005  2034 net.cpp:509] ReLU18 -> Convolution19 (in-place)
I0818 10:45:00.882246  2034 net.cpp:172] Setting up ReLU18
I0818 10:45:00.882261  2034 net.cpp:186] Top shape: 128 32 16 16 (1048576)
I0818 10:45:00.882264  2034 net.cpp:194] Memory required for data: 681050624
I0818 10:45:00.882269  2034 layer_factory.hpp:77] Creating layer Convolution20
I0818 10:45:00.882283  2034 net.cpp:128] Creating Layer Convolution20
I0818 10:45:00.882292  2034 net.cpp:558] Convolution20 <- Convolution19
I0818 10:45:00.882300  2034 net.cpp:522] Convolution20 -> Convolution20
I0818 10:45:00.883700  2034 net.cpp:172] Setting up Convolution20
I0818 10:45:00.883726  2034 net.cpp:186] Top shape: 128 32 16 16 (1048576)
I0818 10:45:00.883731  2034 net.cpp:194] Memory required for data: 685244928
I0818 10:45:00.883744  2034 layer_factory.hpp:77] Creating layer BatchNorm20
I0818 10:45:00.883754  2034 net.cpp:128] Creating Layer BatchNorm20
I0818 10:45:00.883761  2034 net.cpp:558] BatchNorm20 <- Convolution20
I0818 10:45:00.883770  2034 net.cpp:509] BatchNorm20 -> Convolution20 (in-place)
I0818 10:45:00.884027  2034 net.cpp:172] Setting up BatchNorm20
I0818 10:45:00.884037  2034 net.cpp:186] Top shape: 128 32 16 16 (1048576)
I0818 10:45:00.884040  2034 net.cpp:194] Memory required for data: 689439232
I0818 10:45:00.884049  2034 layer_factory.hpp:77] Creating layer Scale20
I0818 10:45:00.884057  2034 net.cpp:128] Creating Layer Scale20
I0818 10:45:00.884060  2034 net.cpp:558] Scale20 <- Convolution20
I0818 10:45:00.884065  2034 net.cpp:509] Scale20 -> Convolution20 (in-place)
I0818 10:45:00.884109  2034 layer_factory.hpp:77] Creating layer Scale20
I0818 10:45:00.884254  2034 net.cpp:172] Setting up Scale20
I0818 10:45:00.884264  2034 net.cpp:186] Top shape: 128 32 16 16 (1048576)
I0818 10:45:00.884268  2034 net.cpp:194] Memory required for data: 693633536
I0818 10:45:00.884276  2034 layer_factory.hpp:77] Creating layer Eltwise9
I0818 10:45:00.884284  2034 net.cpp:128] Creating Layer Eltwise9
I0818 10:45:00.884287  2034 net.cpp:558] Eltwise9 <- Eltwise8_ReLU17_0_split_1
I0818 10:45:00.884292  2034 net.cpp:558] Eltwise9 <- Convolution20
I0818 10:45:00.884301  2034 net.cpp:522] Eltwise9 -> Eltwise9
I0818 10:45:00.884322  2034 net.cpp:172] Setting up Eltwise9
I0818 10:45:00.884331  2034 net.cpp:186] Top shape: 128 32 16 16 (1048576)
I0818 10:45:00.884335  2034 net.cpp:194] Memory required for data: 697827840
I0818 10:45:00.884340  2034 layer_factory.hpp:77] Creating layer ReLU19
I0818 10:45:00.884349  2034 net.cpp:128] Creating Layer ReLU19
I0818 10:45:00.884356  2034 net.cpp:558] ReLU19 <- Eltwise9
I0818 10:45:00.884361  2034 net.cpp:509] ReLU19 -> Eltwise9 (in-place)
I0818 10:45:00.884589  2034 net.cpp:172] Setting up ReLU19
I0818 10:45:00.884600  2034 net.cpp:186] Top shape: 128 32 16 16 (1048576)
I0818 10:45:00.884605  2034 net.cpp:194] Memory required for data: 702022144
I0818 10:45:00.884609  2034 layer_factory.hpp:77] Creating layer Eltwise9_ReLU19_0_split
I0818 10:45:00.884618  2034 net.cpp:128] Creating Layer Eltwise9_ReLU19_0_split
I0818 10:45:00.884624  2034 net.cpp:558] Eltwise9_ReLU19_0_split <- Eltwise9
I0818 10:45:00.884631  2034 net.cpp:522] Eltwise9_ReLU19_0_split -> Eltwise9_ReLU19_0_split_0
I0818 10:45:00.884639  2034 net.cpp:522] Eltwise9_ReLU19_0_split -> Eltwise9_ReLU19_0_split_1
I0818 10:45:00.884690  2034 net.cpp:172] Setting up Eltwise9_ReLU19_0_split
I0818 10:45:00.884701  2034 net.cpp:186] Top shape: 128 32 16 16 (1048576)
I0818 10:45:00.884706  2034 net.cpp:186] Top shape: 128 32 16 16 (1048576)
I0818 10:45:00.884711  2034 net.cpp:194] Memory required for data: 710410752
I0818 10:45:00.884714  2034 layer_factory.hpp:77] Creating layer Convolution21
I0818 10:45:00.884727  2034 net.cpp:128] Creating Layer Convolution21
I0818 10:45:00.884733  2034 net.cpp:558] Convolution21 <- Eltwise9_ReLU19_0_split_0
I0818 10:45:00.884740  2034 net.cpp:522] Convolution21 -> Convolution21
I0818 10:45:00.886112  2034 net.cpp:172] Setting up Convolution21
I0818 10:45:00.886137  2034 net.cpp:186] Top shape: 128 32 16 16 (1048576)
I0818 10:45:00.886157  2034 net.cpp:194] Memory required for data: 714605056
I0818 10:45:00.886168  2034 layer_factory.hpp:77] Creating layer BatchNorm21
I0818 10:45:00.886183  2034 net.cpp:128] Creating Layer BatchNorm21
I0818 10:45:00.886188  2034 net.cpp:558] BatchNorm21 <- Convolution21
I0818 10:45:00.886195  2034 net.cpp:509] BatchNorm21 -> Convolution21 (in-place)
I0818 10:45:00.886451  2034 net.cpp:172] Setting up BatchNorm21
I0818 10:45:00.886462  2034 net.cpp:186] Top shape: 128 32 16 16 (1048576)
I0818 10:45:00.886467  2034 net.cpp:194] Memory required for data: 718799360
I0818 10:45:00.886476  2034 layer_factory.hpp:77] Creating layer Scale21
I0818 10:45:00.886483  2034 net.cpp:128] Creating Layer Scale21
I0818 10:45:00.886487  2034 net.cpp:558] Scale21 <- Convolution21
I0818 10:45:00.886493  2034 net.cpp:509] Scale21 -> Convolution21 (in-place)
I0818 10:45:00.886534  2034 layer_factory.hpp:77] Creating layer Scale21
I0818 10:45:00.886704  2034 net.cpp:172] Setting up Scale21
I0818 10:45:00.886716  2034 net.cpp:186] Top shape: 128 32 16 16 (1048576)
I0818 10:45:00.886723  2034 net.cpp:194] Memory required for data: 722993664
I0818 10:45:00.886730  2034 layer_factory.hpp:77] Creating layer ReLU20
I0818 10:45:00.886737  2034 net.cpp:128] Creating Layer ReLU20
I0818 10:45:00.886741  2034 net.cpp:558] ReLU20 <- Convolution21
I0818 10:45:00.886749  2034 net.cpp:509] ReLU20 -> Convolution21 (in-place)
I0818 10:45:00.887179  2034 net.cpp:172] Setting up ReLU20
I0818 10:45:00.887200  2034 net.cpp:186] Top shape: 128 32 16 16 (1048576)
I0818 10:45:00.887205  2034 net.cpp:194] Memory required for data: 727187968
I0818 10:45:00.887210  2034 layer_factory.hpp:77] Creating layer Convolution22
I0818 10:45:00.887224  2034 net.cpp:128] Creating Layer Convolution22
I0818 10:45:00.887230  2034 net.cpp:558] Convolution22 <- Convolution21
I0818 10:45:00.887240  2034 net.cpp:522] Convolution22 -> Convolution22
I0818 10:45:00.888622  2034 net.cpp:172] Setting up Convolution22
I0818 10:45:00.888650  2034 net.cpp:186] Top shape: 128 32 16 16 (1048576)
I0818 10:45:00.888658  2034 net.cpp:194] Memory required for data: 731382272
I0818 10:45:00.888667  2034 layer_factory.hpp:77] Creating layer BatchNorm22
I0818 10:45:00.888675  2034 net.cpp:128] Creating Layer BatchNorm22
I0818 10:45:00.888684  2034 net.cpp:558] BatchNorm22 <- Convolution22
I0818 10:45:00.888694  2034 net.cpp:509] BatchNorm22 -> Convolution22 (in-place)
I0818 10:45:00.888944  2034 net.cpp:172] Setting up BatchNorm22
I0818 10:45:00.888955  2034 net.cpp:186] Top shape: 128 32 16 16 (1048576)
I0818 10:45:00.888959  2034 net.cpp:194] Memory required for data: 735576576
I0818 10:45:00.888969  2034 layer_factory.hpp:77] Creating layer Scale22
I0818 10:45:00.888976  2034 net.cpp:128] Creating Layer Scale22
I0818 10:45:00.888980  2034 net.cpp:558] Scale22 <- Convolution22
I0818 10:45:00.888985  2034 net.cpp:509] Scale22 -> Convolution22 (in-place)
I0818 10:45:00.889027  2034 layer_factory.hpp:77] Creating layer Scale22
I0818 10:45:00.889173  2034 net.cpp:172] Setting up Scale22
I0818 10:45:00.889183  2034 net.cpp:186] Top shape: 128 32 16 16 (1048576)
I0818 10:45:00.889186  2034 net.cpp:194] Memory required for data: 739770880
I0818 10:45:00.889194  2034 layer_factory.hpp:77] Creating layer Eltwise10
I0818 10:45:00.889204  2034 net.cpp:128] Creating Layer Eltwise10
I0818 10:45:00.889209  2034 net.cpp:558] Eltwise10 <- Eltwise9_ReLU19_0_split_1
I0818 10:45:00.889212  2034 net.cpp:558] Eltwise10 <- Convolution22
I0818 10:45:00.889219  2034 net.cpp:522] Eltwise10 -> Eltwise10
I0818 10:45:00.889243  2034 net.cpp:172] Setting up Eltwise10
I0818 10:45:00.889250  2034 net.cpp:186] Top shape: 128 32 16 16 (1048576)
I0818 10:45:00.889255  2034 net.cpp:194] Memory required for data: 743965184
I0818 10:45:00.889258  2034 layer_factory.hpp:77] Creating layer ReLU21
I0818 10:45:00.889266  2034 net.cpp:128] Creating Layer ReLU21
I0818 10:45:00.889269  2034 net.cpp:558] ReLU21 <- Eltwise10
I0818 10:45:00.889277  2034 net.cpp:509] ReLU21 -> Eltwise10 (in-place)
I0818 10:45:00.889535  2034 net.cpp:172] Setting up ReLU21
I0818 10:45:00.889554  2034 net.cpp:186] Top shape: 128 32 16 16 (1048576)
I0818 10:45:00.889559  2034 net.cpp:194] Memory required for data: 748159488
I0818 10:45:00.889564  2034 layer_factory.hpp:77] Creating layer Eltwise10_ReLU21_0_split
I0818 10:45:00.889570  2034 net.cpp:128] Creating Layer Eltwise10_ReLU21_0_split
I0818 10:45:00.889575  2034 net.cpp:558] Eltwise10_ReLU21_0_split <- Eltwise10
I0818 10:45:00.889585  2034 net.cpp:522] Eltwise10_ReLU21_0_split -> Eltwise10_ReLU21_0_split_0
I0818 10:45:00.889593  2034 net.cpp:522] Eltwise10_ReLU21_0_split -> Eltwise10_ReLU21_0_split_1
I0818 10:45:00.889643  2034 net.cpp:172] Setting up Eltwise10_ReLU21_0_split
I0818 10:45:00.889652  2034 net.cpp:186] Top shape: 128 32 16 16 (1048576)
I0818 10:45:00.889658  2034 net.cpp:186] Top shape: 128 32 16 16 (1048576)
I0818 10:45:00.889662  2034 net.cpp:194] Memory required for data: 756548096
I0818 10:45:00.889667  2034 layer_factory.hpp:77] Creating layer Convolution23
I0818 10:45:00.889679  2034 net.cpp:128] Creating Layer Convolution23
I0818 10:45:00.889684  2034 net.cpp:558] Convolution23 <- Eltwise10_ReLU21_0_split_0
I0818 10:45:00.889693  2034 net.cpp:522] Convolution23 -> Convolution23
I0818 10:45:00.890987  2034 net.cpp:172] Setting up Convolution23
I0818 10:45:00.891011  2034 net.cpp:186] Top shape: 128 64 8 8 (524288)
I0818 10:45:00.891016  2034 net.cpp:194] Memory required for data: 758645248
I0818 10:45:00.891026  2034 layer_factory.hpp:77] Creating layer BatchNorm23
I0818 10:45:00.891034  2034 net.cpp:128] Creating Layer BatchNorm23
I0818 10:45:00.891039  2034 net.cpp:558] BatchNorm23 <- Convolution23
I0818 10:45:00.891048  2034 net.cpp:509] BatchNorm23 -> Convolution23 (in-place)
I0818 10:45:00.891309  2034 net.cpp:172] Setting up BatchNorm23
I0818 10:45:00.891320  2034 net.cpp:186] Top shape: 128 64 8 8 (524288)
I0818 10:45:00.891324  2034 net.cpp:194] Memory required for data: 760742400
I0818 10:45:00.891333  2034 layer_factory.hpp:77] Creating layer Scale23
I0818 10:45:00.891343  2034 net.cpp:128] Creating Layer Scale23
I0818 10:45:00.891347  2034 net.cpp:558] Scale23 <- Convolution23
I0818 10:45:00.891353  2034 net.cpp:509] Scale23 -> Convolution23 (in-place)
I0818 10:45:00.891393  2034 layer_factory.hpp:77] Creating layer Scale23
I0818 10:45:00.891541  2034 net.cpp:172] Setting up Scale23
I0818 10:45:00.891551  2034 net.cpp:186] Top shape: 128 64 8 8 (524288)
I0818 10:45:00.891556  2034 net.cpp:194] Memory required for data: 762839552
I0818 10:45:00.891563  2034 layer_factory.hpp:77] Creating layer Convolution24
I0818 10:45:00.891577  2034 net.cpp:128] Creating Layer Convolution24
I0818 10:45:00.891582  2034 net.cpp:558] Convolution24 <- Eltwise10_ReLU21_0_split_1
I0818 10:45:00.891589  2034 net.cpp:522] Convolution24 -> Convolution24
I0818 10:45:00.894644  2034 net.cpp:172] Setting up Convolution24
I0818 10:45:00.894687  2034 net.cpp:186] Top shape: 128 64 8 8 (524288)
I0818 10:45:00.894692  2034 net.cpp:194] Memory required for data: 764936704
I0818 10:45:00.894703  2034 layer_factory.hpp:77] Creating layer BatchNorm24
I0818 10:45:00.894713  2034 net.cpp:128] Creating Layer BatchNorm24
I0818 10:45:00.894719  2034 net.cpp:558] BatchNorm24 <- Convolution24
I0818 10:45:00.894728  2034 net.cpp:509] BatchNorm24 -> Convolution24 (in-place)
I0818 10:45:00.895002  2034 net.cpp:172] Setting up BatchNorm24
I0818 10:45:00.895012  2034 net.cpp:186] Top shape: 128 64 8 8 (524288)
I0818 10:45:00.895017  2034 net.cpp:194] Memory required for data: 767033856
I0818 10:45:00.895027  2034 layer_factory.hpp:77] Creating layer Scale24
I0818 10:45:00.895033  2034 net.cpp:128] Creating Layer Scale24
I0818 10:45:00.895038  2034 net.cpp:558] Scale24 <- Convolution24
I0818 10:45:00.895045  2034 net.cpp:509] Scale24 -> Convolution24 (in-place)
I0818 10:45:00.895087  2034 layer_factory.hpp:77] Creating layer Scale24
I0818 10:45:00.895238  2034 net.cpp:172] Setting up Scale24
I0818 10:45:00.895248  2034 net.cpp:186] Top shape: 128 64 8 8 (524288)
I0818 10:45:00.895252  2034 net.cpp:194] Memory required for data: 769131008
I0818 10:45:00.895277  2034 layer_factory.hpp:77] Creating layer ReLU22
I0818 10:45:00.895285  2034 net.cpp:128] Creating Layer ReLU22
I0818 10:45:00.895295  2034 net.cpp:558] ReLU22 <- Convolution24
I0818 10:45:00.895303  2034 net.cpp:509] ReLU22 -> Convolution24 (in-place)
I0818 10:45:00.895541  2034 net.cpp:172] Setting up ReLU22
I0818 10:45:00.895555  2034 net.cpp:186] Top shape: 128 64 8 8 (524288)
I0818 10:45:00.895558  2034 net.cpp:194] Memory required for data: 771228160
I0818 10:45:00.895563  2034 layer_factory.hpp:77] Creating layer Convolution25
I0818 10:45:00.895576  2034 net.cpp:128] Creating Layer Convolution25
I0818 10:45:00.895581  2034 net.cpp:558] Convolution25 <- Convolution24
I0818 10:45:00.895592  2034 net.cpp:522] Convolution25 -> Convolution25
I0818 10:45:00.897809  2034 net.cpp:172] Setting up Convolution25
I0818 10:45:00.897833  2034 net.cpp:186] Top shape: 128 64 8 8 (524288)
I0818 10:45:00.897837  2034 net.cpp:194] Memory required for data: 773325312
I0818 10:45:00.897853  2034 layer_factory.hpp:77] Creating layer BatchNorm25
I0818 10:45:00.897861  2034 net.cpp:128] Creating Layer BatchNorm25
I0818 10:45:00.897871  2034 net.cpp:558] BatchNorm25 <- Convolution25
I0818 10:45:00.897884  2034 net.cpp:509] BatchNorm25 -> Convolution25 (in-place)
I0818 10:45:00.898159  2034 net.cpp:172] Setting up BatchNorm25
I0818 10:45:00.898169  2034 net.cpp:186] Top shape: 128 64 8 8 (524288)
I0818 10:45:00.898174  2034 net.cpp:194] Memory required for data: 775422464
I0818 10:45:00.898183  2034 layer_factory.hpp:77] Creating layer Scale25
I0818 10:45:00.898195  2034 net.cpp:128] Creating Layer Scale25
I0818 10:45:00.898202  2034 net.cpp:558] Scale25 <- Convolution25
I0818 10:45:00.898208  2034 net.cpp:509] Scale25 -> Convolution25 (in-place)
I0818 10:45:00.898249  2034 layer_factory.hpp:77] Creating layer Scale25
I0818 10:45:00.898401  2034 net.cpp:172] Setting up Scale25
I0818 10:45:00.898412  2034 net.cpp:186] Top shape: 128 64 8 8 (524288)
I0818 10:45:00.898416  2034 net.cpp:194] Memory required for data: 777519616
I0818 10:45:00.898424  2034 layer_factory.hpp:77] Creating layer Eltwise11
I0818 10:45:00.898434  2034 net.cpp:128] Creating Layer Eltwise11
I0818 10:45:00.898439  2034 net.cpp:558] Eltwise11 <- Convolution23
I0818 10:45:00.898444  2034 net.cpp:558] Eltwise11 <- Convolution25
I0818 10:45:00.898450  2034 net.cpp:522] Eltwise11 -> Eltwise11
I0818 10:45:00.898474  2034 net.cpp:172] Setting up Eltwise11
I0818 10:45:00.898481  2034 net.cpp:186] Top shape: 128 64 8 8 (524288)
I0818 10:45:00.898485  2034 net.cpp:194] Memory required for data: 779616768
I0818 10:45:00.898489  2034 layer_factory.hpp:77] Creating layer ReLU23
I0818 10:45:00.898496  2034 net.cpp:128] Creating Layer ReLU23
I0818 10:45:00.898500  2034 net.cpp:558] ReLU23 <- Eltwise11
I0818 10:45:00.898506  2034 net.cpp:509] ReLU23 -> Eltwise11 (in-place)
I0818 10:45:00.898952  2034 net.cpp:172] Setting up ReLU23
I0818 10:45:00.898974  2034 net.cpp:186] Top shape: 128 64 8 8 (524288)
I0818 10:45:00.898979  2034 net.cpp:194] Memory required for data: 781713920
I0818 10:45:00.898984  2034 layer_factory.hpp:77] Creating layer Eltwise11_ReLU23_0_split
I0818 10:45:00.898995  2034 net.cpp:128] Creating Layer Eltwise11_ReLU23_0_split
I0818 10:45:00.899000  2034 net.cpp:558] Eltwise11_ReLU23_0_split <- Eltwise11
I0818 10:45:00.899010  2034 net.cpp:522] Eltwise11_ReLU23_0_split -> Eltwise11_ReLU23_0_split_0
I0818 10:45:00.899019  2034 net.cpp:522] Eltwise11_ReLU23_0_split -> Eltwise11_ReLU23_0_split_1
I0818 10:45:00.899072  2034 net.cpp:172] Setting up Eltwise11_ReLU23_0_split
I0818 10:45:00.899086  2034 net.cpp:186] Top shape: 128 64 8 8 (524288)
I0818 10:45:00.899092  2034 net.cpp:186] Top shape: 128 64 8 8 (524288)
I0818 10:45:00.899096  2034 net.cpp:194] Memory required for data: 785908224
I0818 10:45:00.899101  2034 layer_factory.hpp:77] Creating layer Convolution26
I0818 10:45:00.899112  2034 net.cpp:128] Creating Layer Convolution26
I0818 10:45:00.899116  2034 net.cpp:558] Convolution26 <- Eltwise11_ReLU23_0_split_0
I0818 10:45:00.899147  2034 net.cpp:522] Convolution26 -> Convolution26
I0818 10:45:00.900970  2034 net.cpp:172] Setting up Convolution26
I0818 10:45:00.901000  2034 net.cpp:186] Top shape: 128 64 8 8 (524288)
I0818 10:45:00.901003  2034 net.cpp:194] Memory required for data: 788005376
I0818 10:45:00.901013  2034 layer_factory.hpp:77] Creating layer BatchNorm26
I0818 10:45:00.901021  2034 net.cpp:128] Creating Layer BatchNorm26
I0818 10:45:00.901031  2034 net.cpp:558] BatchNorm26 <- Convolution26
I0818 10:45:00.901044  2034 net.cpp:509] BatchNorm26 -> Convolution26 (in-place)
I0818 10:45:00.901314  2034 net.cpp:172] Setting up BatchNorm26
I0818 10:45:00.901324  2034 net.cpp:186] Top shape: 128 64 8 8 (524288)
I0818 10:45:00.901329  2034 net.cpp:194] Memory required for data: 790102528
I0818 10:45:00.901340  2034 layer_factory.hpp:77] Creating layer Scale26
I0818 10:45:00.901346  2034 net.cpp:128] Creating Layer Scale26
I0818 10:45:00.901350  2034 net.cpp:558] Scale26 <- Convolution26
I0818 10:45:00.901358  2034 net.cpp:509] Scale26 -> Convolution26 (in-place)
I0818 10:45:00.901398  2034 layer_factory.hpp:77] Creating layer Scale26
I0818 10:45:00.901548  2034 net.cpp:172] Setting up Scale26
I0818 10:45:00.901558  2034 net.cpp:186] Top shape: 128 64 8 8 (524288)
I0818 10:45:00.901562  2034 net.cpp:194] Memory required for data: 792199680
I0818 10:45:00.901571  2034 layer_factory.hpp:77] Creating layer ReLU24
I0818 10:45:00.901576  2034 net.cpp:128] Creating Layer ReLU24
I0818 10:45:00.901582  2034 net.cpp:558] ReLU24 <- Convolution26
I0818 10:45:00.901589  2034 net.cpp:509] ReLU24 -> Convolution26 (in-place)
I0818 10:45:00.901826  2034 net.cpp:172] Setting up ReLU24
I0818 10:45:00.901839  2034 net.cpp:186] Top shape: 128 64 8 8 (524288)
I0818 10:45:00.901844  2034 net.cpp:194] Memory required for data: 794296832
I0818 10:45:00.901849  2034 layer_factory.hpp:77] Creating layer Convolution27
I0818 10:45:00.901860  2034 net.cpp:128] Creating Layer Convolution27
I0818 10:45:00.901865  2034 net.cpp:558] Convolution27 <- Convolution26
I0818 10:45:00.901875  2034 net.cpp:522] Convolution27 -> Convolution27
I0818 10:45:00.903961  2034 net.cpp:172] Setting up Convolution27
I0818 10:45:00.903987  2034 net.cpp:186] Top shape: 128 64 8 8 (524288)
I0818 10:45:00.903992  2034 net.cpp:194] Memory required for data: 796393984
I0818 10:45:00.904006  2034 layer_factory.hpp:77] Creating layer BatchNorm27
I0818 10:45:00.904016  2034 net.cpp:128] Creating Layer BatchNorm27
I0818 10:45:00.904023  2034 net.cpp:558] BatchNorm27 <- Convolution27
I0818 10:45:00.904031  2034 net.cpp:509] BatchNorm27 -> Convolution27 (in-place)
I0818 10:45:00.904310  2034 net.cpp:172] Setting up BatchNorm27
I0818 10:45:00.904320  2034 net.cpp:186] Top shape: 128 64 8 8 (524288)
I0818 10:45:00.904325  2034 net.cpp:194] Memory required for data: 798491136
I0818 10:45:00.904335  2034 layer_factory.hpp:77] Creating layer Scale27
I0818 10:45:00.904357  2034 net.cpp:128] Creating Layer Scale27
I0818 10:45:00.904362  2034 net.cpp:558] Scale27 <- Convolution27
I0818 10:45:00.904368  2034 net.cpp:509] Scale27 -> Convolution27 (in-place)
I0818 10:45:00.904409  2034 layer_factory.hpp:77] Creating layer Scale27
I0818 10:45:00.904557  2034 net.cpp:172] Setting up Scale27
I0818 10:45:00.904566  2034 net.cpp:186] Top shape: 128 64 8 8 (524288)
I0818 10:45:00.904568  2034 net.cpp:194] Memory required for data: 800588288
I0818 10:45:00.904577  2034 layer_factory.hpp:77] Creating layer Eltwise12
I0818 10:45:00.904587  2034 net.cpp:128] Creating Layer Eltwise12
I0818 10:45:00.904592  2034 net.cpp:558] Eltwise12 <- Eltwise11_ReLU23_0_split_1
I0818 10:45:00.904597  2034 net.cpp:558] Eltwise12 <- Convolution27
I0818 10:45:00.904603  2034 net.cpp:522] Eltwise12 -> Eltwise12
I0818 10:45:00.904630  2034 net.cpp:172] Setting up Eltwise12
I0818 10:45:00.904639  2034 net.cpp:186] Top shape: 128 64 8 8 (524288)
I0818 10:45:00.904642  2034 net.cpp:194] Memory required for data: 802685440
I0818 10:45:00.904647  2034 layer_factory.hpp:77] Creating layer ReLU25
I0818 10:45:00.904654  2034 net.cpp:128] Creating Layer ReLU25
I0818 10:45:00.904675  2034 net.cpp:558] ReLU25 <- Eltwise12
I0818 10:45:00.904680  2034 net.cpp:509] ReLU25 -> Eltwise12 (in-place)
I0818 10:45:00.904925  2034 net.cpp:172] Setting up ReLU25
I0818 10:45:00.904940  2034 net.cpp:186] Top shape: 128 64 8 8 (524288)
I0818 10:45:00.904948  2034 net.cpp:194] Memory required for data: 804782592
I0818 10:45:00.904953  2034 layer_factory.hpp:77] Creating layer Eltwise12_ReLU25_0_split
I0818 10:45:00.904963  2034 net.cpp:128] Creating Layer Eltwise12_ReLU25_0_split
I0818 10:45:00.904968  2034 net.cpp:558] Eltwise12_ReLU25_0_split <- Eltwise12
I0818 10:45:00.904974  2034 net.cpp:522] Eltwise12_ReLU25_0_split -> Eltwise12_ReLU25_0_split_0
I0818 10:45:00.904984  2034 net.cpp:522] Eltwise12_ReLU25_0_split -> Eltwise12_ReLU25_0_split_1
I0818 10:45:00.905037  2034 net.cpp:172] Setting up Eltwise12_ReLU25_0_split
I0818 10:45:00.905048  2034 net.cpp:186] Top shape: 128 64 8 8 (524288)
I0818 10:45:00.905055  2034 net.cpp:186] Top shape: 128 64 8 8 (524288)
I0818 10:45:00.905058  2034 net.cpp:194] Memory required for data: 808976896
I0818 10:45:00.905062  2034 layer_factory.hpp:77] Creating layer Convolution28
I0818 10:45:00.905077  2034 net.cpp:128] Creating Layer Convolution28
I0818 10:45:00.905082  2034 net.cpp:558] Convolution28 <- Eltwise12_ReLU25_0_split_0
I0818 10:45:00.905091  2034 net.cpp:522] Convolution28 -> Convolution28
I0818 10:45:00.906946  2034 net.cpp:172] Setting up Convolution28
I0818 10:45:00.906968  2034 net.cpp:186] Top shape: 128 64 8 8 (524288)
I0818 10:45:00.906972  2034 net.cpp:194] Memory required for data: 811074048
I0818 10:45:00.906982  2034 layer_factory.hpp:77] Creating layer BatchNorm28
I0818 10:45:00.906993  2034 net.cpp:128] Creating Layer BatchNorm28
I0818 10:45:00.906998  2034 net.cpp:558] BatchNorm28 <- Convolution28
I0818 10:45:00.907011  2034 net.cpp:509] BatchNorm28 -> Convolution28 (in-place)
I0818 10:45:00.907279  2034 net.cpp:172] Setting up BatchNorm28
I0818 10:45:00.907289  2034 net.cpp:186] Top shape: 128 64 8 8 (524288)
I0818 10:45:00.907294  2034 net.cpp:194] Memory required for data: 813171200
I0818 10:45:00.907302  2034 layer_factory.hpp:77] Creating layer Scale28
I0818 10:45:00.907311  2034 net.cpp:128] Creating Layer Scale28
I0818 10:45:00.907316  2034 net.cpp:558] Scale28 <- Convolution28
I0818 10:45:00.907321  2034 net.cpp:509] Scale28 -> Convolution28 (in-place)
I0818 10:45:00.907364  2034 layer_factory.hpp:77] Creating layer Scale28
I0818 10:45:00.907521  2034 net.cpp:172] Setting up Scale28
I0818 10:45:00.907533  2034 net.cpp:186] Top shape: 128 64 8 8 (524288)
I0818 10:45:00.907537  2034 net.cpp:194] Memory required for data: 815268352
I0818 10:45:00.907546  2034 layer_factory.hpp:77] Creating layer ReLU26
I0818 10:45:00.907552  2034 net.cpp:128] Creating Layer ReLU26
I0818 10:45:00.907557  2034 net.cpp:558] ReLU26 <- Convolution28
I0818 10:45:00.907563  2034 net.cpp:509] ReLU26 -> Convolution28 (in-place)
I0818 10:45:00.907994  2034 net.cpp:172] Setting up ReLU26
I0818 10:45:00.908015  2034 net.cpp:186] Top shape: 128 64 8 8 (524288)
I0818 10:45:00.908020  2034 net.cpp:194] Memory required for data: 817365504
I0818 10:45:00.908025  2034 layer_factory.hpp:77] Creating layer Convolution29
I0818 10:45:00.908040  2034 net.cpp:128] Creating Layer Convolution29
I0818 10:45:00.908048  2034 net.cpp:558] Convolution29 <- Convolution28
I0818 10:45:00.908059  2034 net.cpp:522] Convolution29 -> Convolution29
I0818 10:45:00.910087  2034 net.cpp:172] Setting up Convolution29
I0818 10:45:00.910115  2034 net.cpp:186] Top shape: 128 64 8 8 (524288)
I0818 10:45:00.910120  2034 net.cpp:194] Memory required for data: 819462656
I0818 10:45:00.910132  2034 layer_factory.hpp:77] Creating layer BatchNorm29
I0818 10:45:00.910140  2034 net.cpp:128] Creating Layer BatchNorm29
I0818 10:45:00.910145  2034 net.cpp:558] BatchNorm29 <- Convolution29
I0818 10:45:00.910158  2034 net.cpp:509] BatchNorm29 -> Convolution29 (in-place)
I0818 10:45:00.910436  2034 net.cpp:172] Setting up BatchNorm29
I0818 10:45:00.910449  2034 net.cpp:186] Top shape: 128 64 8 8 (524288)
I0818 10:45:00.910467  2034 net.cpp:194] Memory required for data: 821559808
I0818 10:45:00.910478  2034 layer_factory.hpp:77] Creating layer Scale29
I0818 10:45:00.910485  2034 net.cpp:128] Creating Layer Scale29
I0818 10:45:00.910490  2034 net.cpp:558] Scale29 <- Convolution29
I0818 10:45:00.910495  2034 net.cpp:509] Scale29 -> Convolution29 (in-place)
I0818 10:45:00.910539  2034 layer_factory.hpp:77] Creating layer Scale29
I0818 10:45:00.910712  2034 net.cpp:172] Setting up Scale29
I0818 10:45:00.910725  2034 net.cpp:186] Top shape: 128 64 8 8 (524288)
I0818 10:45:00.910729  2034 net.cpp:194] Memory required for data: 823656960
I0818 10:45:00.910738  2034 layer_factory.hpp:77] Creating layer Eltwise13
I0818 10:45:00.910748  2034 net.cpp:128] Creating Layer Eltwise13
I0818 10:45:00.910753  2034 net.cpp:558] Eltwise13 <- Eltwise12_ReLU25_0_split_1
I0818 10:45:00.910758  2034 net.cpp:558] Eltwise13 <- Convolution29
I0818 10:45:00.910764  2034 net.cpp:522] Eltwise13 -> Eltwise13
I0818 10:45:00.910787  2034 net.cpp:172] Setting up Eltwise13
I0818 10:45:00.910794  2034 net.cpp:186] Top shape: 128 64 8 8 (524288)
I0818 10:45:00.910797  2034 net.cpp:194] Memory required for data: 825754112
I0818 10:45:00.910802  2034 layer_factory.hpp:77] Creating layer ReLU27
I0818 10:45:00.910810  2034 net.cpp:128] Creating Layer ReLU27
I0818 10:45:00.910815  2034 net.cpp:558] ReLU27 <- Eltwise13
I0818 10:45:00.910820  2034 net.cpp:509] ReLU27 -> Eltwise13 (in-place)
I0818 10:45:00.911069  2034 net.cpp:172] Setting up ReLU27
I0818 10:45:00.911083  2034 net.cpp:186] Top shape: 128 64 8 8 (524288)
I0818 10:45:00.911088  2034 net.cpp:194] Memory required for data: 827851264
I0818 10:45:00.911092  2034 layer_factory.hpp:77] Creating layer Eltwise13_ReLU27_0_split
I0818 10:45:00.911103  2034 net.cpp:128] Creating Layer Eltwise13_ReLU27_0_split
I0818 10:45:00.911108  2034 net.cpp:558] Eltwise13_ReLU27_0_split <- Eltwise13
I0818 10:45:00.911118  2034 net.cpp:522] Eltwise13_ReLU27_0_split -> Eltwise13_ReLU27_0_split_0
I0818 10:45:00.911126  2034 net.cpp:522] Eltwise13_ReLU27_0_split -> Eltwise13_ReLU27_0_split_1
I0818 10:45:00.911176  2034 net.cpp:172] Setting up Eltwise13_ReLU27_0_split
I0818 10:45:00.911191  2034 net.cpp:186] Top shape: 128 64 8 8 (524288)
I0818 10:45:00.911197  2034 net.cpp:186] Top shape: 128 64 8 8 (524288)
I0818 10:45:00.911201  2034 net.cpp:194] Memory required for data: 832045568
I0818 10:45:00.911206  2034 layer_factory.hpp:77] Creating layer Convolution30
I0818 10:45:00.911217  2034 net.cpp:128] Creating Layer Convolution30
I0818 10:45:00.911222  2034 net.cpp:558] Convolution30 <- Eltwise13_ReLU27_0_split_0
I0818 10:45:00.911229  2034 net.cpp:522] Convolution30 -> Convolution30
I0818 10:45:00.913089  2034 net.cpp:172] Setting up Convolution30
I0818 10:45:00.913115  2034 net.cpp:186] Top shape: 128 64 8 8 (524288)
I0818 10:45:00.913120  2034 net.cpp:194] Memory required for data: 834142720
I0818 10:45:00.913130  2034 layer_factory.hpp:77] Creating layer BatchNorm30
I0818 10:45:00.913138  2034 net.cpp:128] Creating Layer BatchNorm30
I0818 10:45:00.913143  2034 net.cpp:558] BatchNorm30 <- Convolution30
I0818 10:45:00.913152  2034 net.cpp:509] BatchNorm30 -> Convolution30 (in-place)
I0818 10:45:00.913425  2034 net.cpp:172] Setting up BatchNorm30
I0818 10:45:00.913437  2034 net.cpp:186] Top shape: 128 64 8 8 (524288)
I0818 10:45:00.913441  2034 net.cpp:194] Memory required for data: 836239872
I0818 10:45:00.913451  2034 layer_factory.hpp:77] Creating layer Scale30
I0818 10:45:00.913458  2034 net.cpp:128] Creating Layer Scale30
I0818 10:45:00.913462  2034 net.cpp:558] Scale30 <- Convolution30
I0818 10:45:00.913471  2034 net.cpp:509] Scale30 -> Convolution30 (in-place)
I0818 10:45:00.913512  2034 layer_factory.hpp:77] Creating layer Scale30
I0818 10:45:00.913671  2034 net.cpp:172] Setting up Scale30
I0818 10:45:00.913681  2034 net.cpp:186] Top shape: 128 64 8 8 (524288)
I0818 10:45:00.913686  2034 net.cpp:194] Memory required for data: 838337024
I0818 10:45:00.913693  2034 layer_factory.hpp:77] Creating layer ReLU28
I0818 10:45:00.913715  2034 net.cpp:128] Creating Layer ReLU28
I0818 10:45:00.913720  2034 net.cpp:558] ReLU28 <- Convolution30
I0818 10:45:00.913733  2034 net.cpp:509] ReLU28 -> Convolution30 (in-place)
I0818 10:45:00.913978  2034 net.cpp:172] Setting up ReLU28
I0818 10:45:00.913992  2034 net.cpp:186] Top shape: 128 64 8 8 (524288)
I0818 10:45:00.913996  2034 net.cpp:194] Memory required for data: 840434176
I0818 10:45:00.914001  2034 layer_factory.hpp:77] Creating layer Convolution31
I0818 10:45:00.914013  2034 net.cpp:128] Creating Layer Convolution31
I0818 10:45:00.914019  2034 net.cpp:558] Convolution31 <- Convolution30
I0818 10:45:00.914028  2034 net.cpp:522] Convolution31 -> Convolution31
I0818 10:45:00.916102  2034 net.cpp:172] Setting up Convolution31
I0818 10:45:00.916131  2034 net.cpp:186] Top shape: 128 64 8 8 (524288)
I0818 10:45:00.916136  2034 net.cpp:194] Memory required for data: 842531328
I0818 10:45:00.916146  2034 layer_factory.hpp:77] Creating layer BatchNorm31
I0818 10:45:00.916157  2034 net.cpp:128] Creating Layer BatchNorm31
I0818 10:45:00.916162  2034 net.cpp:558] BatchNorm31 <- Convolution31
I0818 10:45:00.916168  2034 net.cpp:509] BatchNorm31 -> Convolution31 (in-place)
I0818 10:45:00.916446  2034 net.cpp:172] Setting up BatchNorm31
I0818 10:45:00.916457  2034 net.cpp:186] Top shape: 128 64 8 8 (524288)
I0818 10:45:00.916462  2034 net.cpp:194] Memory required for data: 844628480
I0818 10:45:00.916472  2034 layer_factory.hpp:77] Creating layer Scale31
I0818 10:45:00.916479  2034 net.cpp:128] Creating Layer Scale31
I0818 10:45:00.916483  2034 net.cpp:558] Scale31 <- Convolution31
I0818 10:45:00.916489  2034 net.cpp:509] Scale31 -> Convolution31 (in-place)
I0818 10:45:00.916533  2034 layer_factory.hpp:77] Creating layer Scale31
I0818 10:45:00.916690  2034 net.cpp:172] Setting up Scale31
I0818 10:45:00.916703  2034 net.cpp:186] Top shape: 128 64 8 8 (524288)
I0818 10:45:00.916707  2034 net.cpp:194] Memory required for data: 846725632
I0818 10:45:00.916714  2034 layer_factory.hpp:77] Creating layer Eltwise14
I0818 10:45:00.916723  2034 net.cpp:128] Creating Layer Eltwise14
I0818 10:45:00.916728  2034 net.cpp:558] Eltwise14 <- Eltwise13_ReLU27_0_split_1
I0818 10:45:00.916733  2034 net.cpp:558] Eltwise14 <- Convolution31
I0818 10:45:00.916739  2034 net.cpp:522] Eltwise14 -> Eltwise14
I0818 10:45:00.916764  2034 net.cpp:172] Setting up Eltwise14
I0818 10:45:00.916771  2034 net.cpp:186] Top shape: 128 64 8 8 (524288)
I0818 10:45:00.916775  2034 net.cpp:194] Memory required for data: 848822784
I0818 10:45:00.916779  2034 layer_factory.hpp:77] Creating layer ReLU29
I0818 10:45:00.916785  2034 net.cpp:128] Creating Layer ReLU29
I0818 10:45:00.916790  2034 net.cpp:558] ReLU29 <- Eltwise14
I0818 10:45:00.916797  2034 net.cpp:509] ReLU29 -> Eltwise14 (in-place)
I0818 10:45:00.917045  2034 net.cpp:172] Setting up ReLU29
I0818 10:45:00.917060  2034 net.cpp:186] Top shape: 128 64 8 8 (524288)
I0818 10:45:00.917064  2034 net.cpp:194] Memory required for data: 850919936
I0818 10:45:00.917069  2034 layer_factory.hpp:77] Creating layer Eltwise14_ReLU29_0_split
I0818 10:45:00.917076  2034 net.cpp:128] Creating Layer Eltwise14_ReLU29_0_split
I0818 10:45:00.917081  2034 net.cpp:558] Eltwise14_ReLU29_0_split <- Eltwise14
I0818 10:45:00.917089  2034 net.cpp:522] Eltwise14_ReLU29_0_split -> Eltwise14_ReLU29_0_split_0
I0818 10:45:00.917098  2034 net.cpp:522] Eltwise14_ReLU29_0_split -> Eltwise14_ReLU29_0_split_1
I0818 10:45:00.917155  2034 net.cpp:172] Setting up Eltwise14_ReLU29_0_split
I0818 10:45:00.917165  2034 net.cpp:186] Top shape: 128 64 8 8 (524288)
I0818 10:45:00.917173  2034 net.cpp:186] Top shape: 128 64 8 8 (524288)
I0818 10:45:00.917177  2034 net.cpp:194] Memory required for data: 855114240
I0818 10:45:00.917181  2034 layer_factory.hpp:77] Creating layer Convolution32
I0818 10:45:00.917193  2034 net.cpp:128] Creating Layer Convolution32
I0818 10:45:00.917197  2034 net.cpp:558] Convolution32 <- Eltwise14_ReLU29_0_split_0
I0818 10:45:00.917207  2034 net.cpp:522] Convolution32 -> Convolution32
I0818 10:45:00.919113  2034 net.cpp:172] Setting up Convolution32
I0818 10:45:00.919139  2034 net.cpp:186] Top shape: 128 64 8 8 (524288)
I0818 10:45:00.919143  2034 net.cpp:194] Memory required for data: 857211392
I0818 10:45:00.919157  2034 layer_factory.hpp:77] Creating layer BatchNorm32
I0818 10:45:00.919164  2034 net.cpp:128] Creating Layer BatchNorm32
I0818 10:45:00.919169  2034 net.cpp:558] BatchNorm32 <- Convolution32
I0818 10:45:00.919183  2034 net.cpp:509] BatchNorm32 -> Convolution32 (in-place)
I0818 10:45:00.919456  2034 net.cpp:172] Setting up BatchNorm32
I0818 10:45:00.919466  2034 net.cpp:186] Top shape: 128 64 8 8 (524288)
I0818 10:45:00.919471  2034 net.cpp:194] Memory required for data: 859308544
I0818 10:45:00.919479  2034 layer_factory.hpp:77] Creating layer Scale32
I0818 10:45:00.919486  2034 net.cpp:128] Creating Layer Scale32
I0818 10:45:00.919490  2034 net.cpp:558] Scale32 <- Convolution32
I0818 10:45:00.919499  2034 net.cpp:509] Scale32 -> Convolution32 (in-place)
I0818 10:45:00.919540  2034 layer_factory.hpp:77] Creating layer Scale32
I0818 10:45:00.919693  2034 net.cpp:172] Setting up Scale32
I0818 10:45:00.919704  2034 net.cpp:186] Top shape: 128 64 8 8 (524288)
I0818 10:45:00.919708  2034 net.cpp:194] Memory required for data: 861405696
I0818 10:45:00.919716  2034 layer_factory.hpp:77] Creating layer ReLU30
I0818 10:45:00.919723  2034 net.cpp:128] Creating Layer ReLU30
I0818 10:45:00.919726  2034 net.cpp:558] ReLU30 <- Convolution32
I0818 10:45:00.919734  2034 net.cpp:509] ReLU30 -> Convolution32 (in-place)
I0818 10:45:00.920168  2034 net.cpp:172] Setting up ReLU30
I0818 10:45:00.920192  2034 net.cpp:186] Top shape: 128 64 8 8 (524288)
I0818 10:45:00.920195  2034 net.cpp:194] Memory required for data: 863502848
I0818 10:45:00.920200  2034 layer_factory.hpp:77] Creating layer Convolution33
I0818 10:45:00.920215  2034 net.cpp:128] Creating Layer Convolution33
I0818 10:45:00.920222  2034 net.cpp:558] Convolution33 <- Convolution32
I0818 10:45:00.920231  2034 net.cpp:522] Convolution33 -> Convolution33
I0818 10:45:00.922466  2034 net.cpp:172] Setting up Convolution33
I0818 10:45:00.922493  2034 net.cpp:186] Top shape: 128 64 8 8 (524288)
I0818 10:45:00.922497  2034 net.cpp:194] Memory required for data: 865600000
I0818 10:45:00.922510  2034 layer_factory.hpp:77] Creating layer BatchNorm33
I0818 10:45:00.922520  2034 net.cpp:128] Creating Layer BatchNorm33
I0818 10:45:00.922525  2034 net.cpp:558] BatchNorm33 <- Convolution33
I0818 10:45:00.922533  2034 net.cpp:509] BatchNorm33 -> Convolution33 (in-place)
I0818 10:45:00.922832  2034 net.cpp:172] Setting up BatchNorm33
I0818 10:45:00.922843  2034 net.cpp:186] Top shape: 128 64 8 8 (524288)
I0818 10:45:00.922848  2034 net.cpp:194] Memory required for data: 867697152
I0818 10:45:00.922859  2034 layer_factory.hpp:77] Creating layer Scale33
I0818 10:45:00.922866  2034 net.cpp:128] Creating Layer Scale33
I0818 10:45:00.922870  2034 net.cpp:558] Scale33 <- Convolution33
I0818 10:45:00.922876  2034 net.cpp:509] Scale33 -> Convolution33 (in-place)
I0818 10:45:00.922921  2034 layer_factory.hpp:77] Creating layer Scale33
I0818 10:45:00.923079  2034 net.cpp:172] Setting up Scale33
I0818 10:45:00.923090  2034 net.cpp:186] Top shape: 128 64 8 8 (524288)
I0818 10:45:00.923095  2034 net.cpp:194] Memory required for data: 869794304
I0818 10:45:00.923102  2034 layer_factory.hpp:77] Creating layer Eltwise15
I0818 10:45:00.923111  2034 net.cpp:128] Creating Layer Eltwise15
I0818 10:45:00.923116  2034 net.cpp:558] Eltwise15 <- Eltwise14_ReLU29_0_split_1
I0818 10:45:00.923121  2034 net.cpp:558] Eltwise15 <- Convolution33
I0818 10:45:00.923127  2034 net.cpp:522] Eltwise15 -> Eltwise15
I0818 10:45:00.923153  2034 net.cpp:172] Setting up Eltwise15
I0818 10:45:00.923161  2034 net.cpp:186] Top shape: 128 64 8 8 (524288)
I0818 10:45:00.923164  2034 net.cpp:194] Memory required for data: 871891456
I0818 10:45:00.923168  2034 layer_factory.hpp:77] Creating layer ReLU31
I0818 10:45:00.923174  2034 net.cpp:128] Creating Layer ReLU31
I0818 10:45:00.923178  2034 net.cpp:558] ReLU31 <- Eltwise15
I0818 10:45:00.923200  2034 net.cpp:509] ReLU31 -> Eltwise15 (in-place)
I0818 10:45:00.923446  2034 net.cpp:172] Setting up ReLU31
I0818 10:45:00.923460  2034 net.cpp:186] Top shape: 128 64 8 8 (524288)
I0818 10:45:00.923465  2034 net.cpp:194] Memory required for data: 873988608
I0818 10:45:00.923470  2034 layer_factory.hpp:77] Creating layer Pooling1
I0818 10:45:00.923482  2034 net.cpp:128] Creating Layer Pooling1
I0818 10:45:00.923488  2034 net.cpp:558] Pooling1 <- Eltwise15
I0818 10:45:00.923499  2034 net.cpp:522] Pooling1 -> Pooling1
I0818 10:45:00.923794  2034 net.cpp:172] Setting up Pooling1
I0818 10:45:00.923810  2034 net.cpp:186] Top shape: 128 64 1 1 (8192)
I0818 10:45:00.923813  2034 net.cpp:194] Memory required for data: 874021376
I0818 10:45:00.923818  2034 layer_factory.hpp:77] Creating layer InnerProduct1
I0818 10:45:00.923828  2034 net.cpp:128] Creating Layer InnerProduct1
I0818 10:45:00.923832  2034 net.cpp:558] InnerProduct1 <- Pooling1
I0818 10:45:00.923841  2034 net.cpp:522] InnerProduct1 -> InnerProduct1
I0818 10:45:00.924019  2034 net.cpp:172] Setting up InnerProduct1
I0818 10:45:00.924033  2034 net.cpp:186] Top shape: 128 10 (1280)
I0818 10:45:00.924038  2034 net.cpp:194] Memory required for data: 874026496
I0818 10:45:00.924047  2034 layer_factory.hpp:77] Creating layer SoftmaxWithLoss1
I0818 10:45:00.924054  2034 net.cpp:128] Creating Layer SoftmaxWithLoss1
I0818 10:45:00.924058  2034 net.cpp:558] SoftmaxWithLoss1 <- InnerProduct1
I0818 10:45:00.924063  2034 net.cpp:558] SoftmaxWithLoss1 <- Data2
I0818 10:45:00.924073  2034 net.cpp:522] SoftmaxWithLoss1 -> SoftmaxWithLoss1
…
I0818 10:45:00.949007  2034 net.cpp:390] layer_param.include_size():1
I0818 10:45:00.949010  2034 net.cpp:391] layer_param.exclude_size():0
I0818 10:45:00.949937  2034 net.cpp:82] Initializing net from parameters: 
name: "resnet_cifar10"
state {
  phase: TEST
}
layer {
  name: "Data1"
  type: "Data"
  top: "Data1"
  top: "Data2"
  include {
    phase: TEST
  }
  transform_param {
    scale: 0.0039215684
    mean_value: 125.3
    mean_value: 122.9
    mean_value: 113.8
  }
  data_param {
    source: "/home/lijianfei/datasets/cifar10_40/test_lmdb"
    batch_size: 10
    backend: LMDB
  }
}
layer {
  name: "Convolution1"
  type: "Convolution"
  bottom: "Data1"
  top: "Convolution1"
  param {
    lr_mult: 1
    decay_mult: 1
  }
  param {
    lr_mult: 2
    decay_mult: 0
  }
  convolution_param {
    num_output: 16
    pad: 1
    kernel_size: 3
    stride: 1
    weight_filler {
      type: "msra"
    }
    bias_filler {
      type: "constant"
      value: 0
    }
  }
}
layer {
  name: "BatchNorm1"
  type: "BatchNorm"
  bottom: "Convolution1"
  top: "Convolution1"
  param {
    lr_mult: 0
    decay_mult: 0
  }
  param {
    lr_mult: 0
    decay_mult: 0
  }
  param {
    lr_mult: 0
    decay_mult: 0
  }
}
layer {
  name: "Scale1"
  type: "Scale"
  bottom: "Convolution1"
  top: "Convolution1"
  scale_param {
    bias_term: true
  }
}
layer {
  name: "ReLU1"
  type: "ReLU"
  bottom: "Convolution1"
  top: "Convolution1"
}
layer {
  name: "Convolution2"
  type: "Convolution"
  bottom: "Convolution1"
  top: "Convolution2"
  param {
    lr_mult: 1
    decay_mult: 1
  }
  param {
    lr_mult: 2
    decay_mult: 0
  }
  convolution_param {
    num_output: 16
    pad: 1
    kernel_size: 3
    stride: 1
    weight_filler {
      type: "msra"
    }
    bias_filler {
      type: "constant"
      value: 0
    }
  }
}
layer {
  name: "BatchNorm2"
  type: "BatchNorm"
  bottom: "Convolution2"
  top: "Convolution2"
  param {
    lr_mult: 0
    decay_mult: 0
  }
  param {
    lr_mult: 0
    decay_mult: 0
  }
  param {
    lr_mult: 0
    decay_mult: 0
  }
}
layer {
  name: "Scale2"
  type: "Scale"
  bottom: "Convolution2"
  top: "Convolution2"
  scale_param {
    bias_term: true
  }
}
layer {
  name: "ReLU2"
  type: "ReLU"
  bottom: "Convolution2"
  top: "Convolution2"
}
layer {
  name: "Convolution3"
  type: "Convolution"
  bottom: "Convolution2"
  top: "Convolution3"
  param {
    lr_mult: 1
    decay_mult: 1
  }
  param {
    lr_mult: 2
    decay_mult: 0
  }
  convolution_param {
    num_output: 16
    pad: 1
    kernel_size: 3
    stride: 1
    weight_filler {
      type: "msra"
    }
    bias_filler {
      type: "constant"
      value: 0
    }
  }
}
layer {
  name: "BatchNorm3"
  type: "BatchNorm"
  bottom: "Convolution3"
  top: "Convolution3"
  param {
    lr_mult: 0
    decay_mult: 0
  }
  param {
    lr_mult: 0
    decay_mult: 0
  }
  param {
    lr_mult: 0
    decay_mult: 0
  }
}
layer {
  name: "Scale3"
  type: "Scale"
  bottom: "Convolution3"
  top: "Convolution3"
  scale_param {
    bias_term: true
  }
}
layer {
  name: "Eltwise1"
  type: "Eltwise"
  bottom: "Convolution1"
  bottom: "Convolution3"
  top: "Eltwise1"
  eltwise_param {
    operation: SUM
  }
}
layer {
  name: "ReLU3"
  type: "ReLU"
  bottom: "Eltwise1"
  top: "Eltwise1"
}
layer {
  name: "Convolution4"
  type: "Convolution"
  bottom: "Eltwise1"
  top: "Convolution4"
  param {
    lr_mult: 1
    decay_mult: 1
  }
  param {
    lr_mult: 2
    decay_mult: 0
  }
  convolution_param {
    num_output: 16
    pad: 1
    kernel_size: 3
    stride: 1
    weight_filler {
      type: "msra"
    }
    bias_filler {
      type: "constant"
      value: 0
    }
  }
}
layer {
  name: "BatchNorm4"
  type: "BatchNorm"
  bottom: "Convolution4"
  top: "Convolution4"
  param {
    lr_mult: 0
    decay_mult: 0
  }
  param {
    lr_mult: 0
    decay_mult: 0
  }
  param {
    lr_mult: 0
    decay_mult: 0
  }
}
layer {
  name: "Scale4"
  type: "Scale"
  bottom: "Convolution4"
  top: "Convolution4"
  scale_param {
    bias_term: true
  }
}
layer {
  name: "ReLU4"
  type: "ReLU"
  bottom: "Convolution4"
  top: "Convolution4"
}
layer {
  name: "Convolution5"
  type: "Convolution"
  bottom: "Convolution4"
  top: "Convolution5"
  param {
    lr_mult: 1
    decay_mult: 1
  }
  param {
    lr_mult: 2
    decay_mult: 0
  }
  convolution_param {
    num_output: 16
    pad: 1
    kernel_size: 3
    stride: 1
    weight_filler {
      type: "msra"
    }
    bias_filler {
      type: "constant"
      value: 0
    }
  }
}
layer {
  name: "BatchNorm5"
  type: "BatchNorm"
  bottom: "Convolution5"
  top: "Convolution5"
  param {
    lr_mult: 0
    decay_mult: 0
  }
  param {
    lr_mult: 0
    decay_mult: 0
  }
  param {
    lr_mult: 0
    decay_mult: 0
  }
}
layer {
  name: "Scale5"
  type: "Scale"
  bottom: "Convolution5"
  top: "Convolution5"
  scale_param {
    bias_term: true
  }
}
layer {
  name: "Eltwise2"
  type: "Eltwise"
  bottom: "Eltwise1"
  bottom: "Convolution5"
  top: "Eltwise2"
  eltwise_param {
    operation: SUM
  }
}
layer {
  name: "ReLU5"
  type: "ReLU"
  bottom: "Eltwise2"
  top: "Eltwise2"
}
layer {
  name: "Convolution6"
  type: "Convolution"
  bottom: "Eltwise2"
  top: "Convolution6"
  param {
    lr_mult: 1
    decay_mult: 1
  }
  param {
    lr_mult: 2
    decay_mult: 0
  }
  convolution_param {
    num_output: 16
    pad: 1
    kernel_size: 3
    stride: 1
    weight_filler {
      type: "msra"
    }
    bias_filler {
      type: "constant"
      value: 0
    }
  }
}
layer {
  name: "BatchNorm6"
  type: "BatchNorm"
  bottom: "Convolution6"
  top: "Convolution6"
  param {
    lr_mult: 0
    decay_mult: 0
  }
  param {
    lr_mult: 0
    decay_mult: 0
  }
  param {
    lr_mult: 0
    decay_mult: 0
  }
}
layer {
  name: "Scale6"
  type: "Scale"
  bottom: "Convolution6"
  top: "Convolution6"
  scale_param {
    bias_term: true
  }
}
layer {
  name: "ReLU6"
  type: "ReLU"
  bottom: "Convolution6"
  top: "Convolution6"
}
layer {
  name: "Convolution7"
  type: "Convolution"
  bottom: "Convolution6"
  top: "Convolution7"
  param {
    lr_mult: 1
    decay_mult: 1
  }
  param {
    lr_mult: 2
    decay_mult: 0
  }
  convolution_param {
    num_output: 16
    pad: 1
    kernel_size: 3
    stride: 1
    weight_filler {
      type: "msra"
    }
    bias_filler {
      type: "constant"
      value: 0
    }
  }
}
layer {
  name: "BatchNorm7"
  type: "BatchNorm"
  bottom: "Convolution7"
  top: "Convolution7"
  param {
    lr_mult: 0
    decay_mult: 0
  }
  param {
    lr_mult: 0
    decay_mult: 0
  }
  param {
    lr_mult: 0
    decay_mult: 0
  }
}
layer {
  name: "Scale7"
  type: "Scale"
  bottom: "Convolution7"
  top: "Convolution7"
  scale_param {
    bias_term: true
  }
}
layer {
  name: "Eltwise3"
  type: "Eltwise"
  bottom: "Eltwise2"
  bottom: "Convolution7"
  top: "Eltwise3"
  eltwise_param {
    operation: SUM
  }
}
layer {
  name: "ReLU7"
  type: "ReLU"
  bottom: "Eltwise3"
  top: "Eltwise3"
}
layer {
  name: "Convolution8"
  type: "Convolution"
  bottom: "Eltwise3"
  top: "Convolution8"
  param {
    lr_mult: 1
    decay_mult: 1
  }
  param {
    lr_mult: 2
    decay_mult: 0
  }
  convolution_param {
    num_output: 16
    pad: 1
    kernel_size: 3
    stride: 1
    weight_filler {
      type: "msra"
    }
    bias_filler {
      type: "constant"
      value: 0
    }
  }
}
layer {
  name: "BatchNorm8"
  type: "BatchNorm"
  bottom: "Convolution8"
  top: "Convolution8"
  param {
    lr_mult: 0
    decay_mult: 0
  }
  param {
    lr_mult: 0
    decay_mult: 0
  }
  param {
    lr_mult: 0
    decay_mult: 0
  }
}
layer {
  name: "Scale8"
  type: "Scale"
  bottom: "Convolution8"
  top: "Convolution8"
  scale_param {
    bias_term: true
  }
}
layer {
  name: "ReLU8"
  type: "ReLU"
  bottom: "Convolution8"
  top: "Convolution8"
}
layer {
  name: "Convolution9"
  type: "Convolution"
  bottom: "Convolution8"
  top: "Convolution9"
  param {
    lr_mult: 1
    decay_mult: 1
  }
  param {
    lr_mult: 2
    decay_mult: 0
  }
  convolution_param {
    num_output: 16
    pad: 1
    kernel_size: 3
    stride: 1
    weight_filler {
      type: "msra"
    }
    bias_filler {
      type: "constant"
      value: 0
    }
  }
}
layer {
  name: "BatchNorm9"
  type: "BatchNorm"
  bottom: "Convolution9"
  top: "Convolution9"
  param {
    lr_mult: 0
    decay_mult: 0
  }
  param {
    lr_mult: 0
    decay_mult: 0
  }
  param {
    lr_mult: 0
    decay_mult: 0
  }
}
layer {
  name: "Scale9"
  type: "Scale"
  bottom: "Convolution9"
  top: "Convolution9"
  scale_param {
    bias_term: true
  }
}
layer {
  name: "Eltwise4"
  type: "Eltwise"
  bottom: "Eltwise3"
  bottom: "Convolution9"
  top: "Eltwise4"
  eltwise_param {
    operation: SUM
  }
}
layer {
  name: "ReLU9"
  type: "ReLU"
  bottom: "Eltwise4"
  top: "Eltwise4"
}
layer {
  name: "Convolution10"
  type: "Convolution"
  bottom: "Eltwise4"
  top: "Convolution10"
  param {
    lr_mult: 1
    decay_mult: 1
  }
  param {
    lr_mult: 2
    decay_mult: 0
  }
  convolution_param {
    num_output: 16
    pad: 1
    kernel_size: 3
    stride: 1
    weight_filler {
      type: "msra"
    }
    bias_filler {
      type: "constant"
      value: 0
    }
  }
}
layer {
  name: "BatchNorm10"
  type: "BatchNorm"
  bottom: "Convolution10"
  top: "Convolution10"
  param {
    lr_mult: 0
    decay_mult: 0
  }
  param {
    lr_mult: 0
    decay_mult: 0
  }
  param {
    lr_mult: 0
    decay_mult: 0
  }
}
layer {
  name: "Scale10"
  type: "Scale"
  bottom: "Convolution10"
  top: "Convolution10"
  scale_param {
    bias_term: true
  }
}
layer {
  name: "ReLU10"
  type: "ReLU"
  bottom: "Convolution10"
  top: "Convolution10"
}
layer {
  name: "Convolution11"
  type: "Convolution"
  bottom: "Convolution10"
  top: "Convolution11"
  param {
    lr_mult: 1
    decay_mult: 1
  }
  param {
    lr_mult: 2
    decay_mult: 0
  }
  convolution_param {
    num_output: 16
    pad: 1
    kernel_size: 3
    stride: 1
    weight_filler {
      type: "msra"
    }
    bias_filler {
      type: "constant"
      value: 0
    }
  }
}
layer {
  name: "BatchNorm11"
  type: "BatchNorm"
  bottom: "Convolution11"
  top: "Convolution11"
  param {
    lr_mult: 0
    decay_mult: 0
  }
  param {
    lr_mult: 0
    decay_mult: 0
  }
  param {
    lr_mult: 0
    decay_mult: 0
  }
}
layer {
  name: "Scale11"
  type: "Scale"
  bottom: "Convolution11"
  top: "Convolution11"
  scale_param {
    bias_term: true
  }
}
layer {
  name: "Eltwise5"
  type: "Eltwise"
  bottom: "Eltwise4"
  bottom: "Convolution11"
  top: "Eltwise5"
  eltwise_param {
    operation: SUM
  }
}
layer {
  name: "ReLU11"
  type: "ReLU"
  bottom: "Eltwise5"
  top: "Eltwise5"
}
layer {
  name: "Convolution12"
  type: "Convolution"
  bottom: "Eltwise5"
  top: "Convolution12"
  param {
    lr_mult: 1
    decay_mult: 1
  }
  param {
    lr_mult: 2
    decay_mult: 0
  }
  convolution_param {
    num_output: 32
    pad: 0
    kernel_size: 1
    stride: 2
    weight_filler {
      type: "msra"
    }
    bias_filler {
      type: "constant"
      value: 0
    }
  }
}
layer {
  name: "BatchNorm12"
  type: "BatchNorm"
  bottom: "Convolution12"
  top: "Convolution12"
  param {
    lr_mult: 0
    decay_mult: 0
  }
  param {
    lr_mult: 0
    decay_mult: 0
  }
  param {
    lr_mult: 0
    decay_mult: 0
  }
}
layer {
  name: "Scale12"
  type: "Scale"
  bottom: "Convolution12"
  top: "Convolution12"
  scale_param {
    bias_term: true
  }
}
layer {
  name: "Convolution13"
  type: "Convolution"
  bottom: "Eltwise5"
  top: "Convolution13"
  param {
    lr_mult: 1
    decay_mult: 1
  }
  param {
    lr_mult: 2
    decay_mult: 0
  }
  convolution_param {
    num_output: 32
    pad: 1
    kernel_size: 3
    stride: 2
    weight_filler {
      type: "msra"
    }
    bias_filler {
      type: "constant"
      value: 0
    }
  }
}
layer {
  name: "BatchNorm13"
  type: "BatchNorm"
  bottom: "Convolution13"
  top: "Convolution13"
  param {
    lr_mult: 0
    decay_mult: 0
  }
  param {
    lr_mult: 0
    decay_mult: 0
  }
  param {
    lr_mult: 0
    decay_mult: 0
  }
}
layer {
  name: "Scale13"
  type: "Scale"
  bottom: "Convolution13"
  top: "Convolution13"
  scale_param {
    bias_term: true
  }
}
layer {
  name: "ReLU12"
  type: "ReLU"
  bottom: "Convolution13"
  top: "Convolution13"
}
layer {
  name: "Convolution14"
  type: "Convolution"
  bottom: "Convolution13"
  top: "Convolution14"
  param {
    lr_mult: 1
    decay_mult: 1
  }
  param {
    lr_mult: 2
    decay_mult: 0
  }
  convolution_param {
    num_output: 32
    pad: 1
    kernel_size: 3
    stride: 1
    weight_filler {
      type: "msra"
    }
    bias_filler {
      type: "constant"
      value: 0
    }
  }
}
layer {
  name: "BatchNorm14"
  type: "BatchNorm"
  bottom: "Convolution14"
  top: "Convolution14"
  param {
    lr_mult: 0
    decay_mult: 0
  }
  param {
    lr_mult: 0
    decay_mult: 0
  }
  param {
    lr_mult: 0
    decay_mult: 0
  }
}
layer {
  name: "Scale14"
  type: "Scale"
  bottom: "Convolution14"
  top: "Convolution14"
  scale_param {
    bias_term: true
  }
}
layer {
  name: "Eltwise6"
  type: "Eltwise"
  bottom: "Convolution12"
  bottom: "Convolution14"
  top: "Eltwise6"
  eltwise_param {
    operation: SUM
  }
}
layer {
  name: "ReLU13"
  type: "ReLU"
  bottom: "Eltwise6"
  top: "Eltwise6"
}
layer {
  name: "Convolution15"
  type: "Convolution"
  bottom: "Eltwise6"
  top: "Convolution15"
  param {
    lr_mult: 1
    decay_mult: 1
  }
  param {
    lr_mult: 2
    decay_mult: 0
  }
  convolution_param {
    num_output: 32
    pad: 1
    kernel_size: 3
    stride: 1
    weight_filler {
      type: "msra"
    }
    bias_filler {
      type: "constant"
      value: 0
    }
  }
}
layer {
  name: "BatchNorm15"
  type: "BatchNorm"
  bottom: "Convolution15"
  top: "Convolution15"
  param {
    lr_mult: 0
    decay_mult: 0
  }
  param {
    lr_mult: 0
    decay_mult: 0
  }
  param {
    lr_mult: 0
    decay_mult: 0
  }
}
layer {
  name: "Scale15"
  type: "Scale"
  bottom: "Convolution15"
  top: "Convolution15"
  scale_param {
    bias_term: true
  }
}
layer {
  name: "ReLU14"
  type: "ReLU"
  bottom: "Convolution15"
  top: "Convolution15"
}
layer {
  name: "Convolution16"
  type: "Convolution"
  bottom: "Convolution15"
  top: "Convolution16"
  param {
    lr_mult: 1
    decay_mult: 1
  }
  param {
    lr_mult: 2
    decay_mult: 0
  }
  convolution_param {
    num_output: 32
    pad: 1
    kernel_size: 3
    stride: 1
    weight_filler {
      type: "msra"
    }
    bias_filler {
      type: "constant"
      value: 0
    }
  }
}
layer {
  name: "BatchNorm16"
  type: "BatchNorm"
  bottom: "Convolution16"
  top: "Convolution16"
  param {
    lr_mult: 0
    decay_mult: 0
  }
  param {
    lr_mult: 0
    decay_mult: 0
  }
  param {
    lr_mult: 0
    decay_mult: 0
  }
}
layer {
  name: "Scale16"
  type: "Scale"
  bottom: "Convolution16"
  top: "Convolution16"
  scale_param {
    bias_term: true
  }
}
layer {
  name: "Eltwise7"
  type: "Eltwise"
  bottom: "Eltwise6"
  bottom: "Convolution16"
  top: "Eltwise7"
  eltwise_param {
    operation: SUM
  }
}
layer {
  name: "ReLU15"
  type: "ReLU"
  bottom: "Eltwise7"
  top: "Eltwise7"
}
layer {
  name: "Convolution17"
  type: "Convolution"
  bottom: "Eltwise7"
  top: "Convolution17"
  param {
    lr_mult: 1
    decay_mult: 1
  }
  param {
    lr_mult: 2
    decay_mult: 0
  }
  convolution_param {
    num_output: 32
    pad: 1
    kernel_size: 3
    stride: 1
    weight_filler {
      type: "msra"
    }
    bias_filler {
      type: "constant"
      value: 0
    }
  }
}
layer {
  name: "BatchNorm17"
  type: "BatchNorm"
  bottom: "Convolution17"
  top: "Convolution17"
  param {
    lr_mult: 0
    decay_mult: 0
  }
  param {
    lr_mult: 0
    decay_mult: 0
  }
  param {
    lr_mult: 0
    decay_mult: 0
  }
}
layer {
  name: "Scale17"
  type: "Scale"
  bottom: "Convolution17"
  top: "Convolution17"
  scale_param {
    bias_term: true
  }
}
layer {
  name: "ReLU16"
  type: "ReLU"
  bottom: "Convolution17"
  top: "Convolution17"
}
layer {
  name: "Convolution18"
  type: "Convolution"
  bottom: "Convolution17"
  top: "Convolution18"
  param {
    lr_mult: 1
    decay_mult: 1
  }
  param {
    lr_mult: 2
    decay_mult: 0
  }
  convolution_param {
    num_output: 32
    pad: 1
    kernel_size: 3
    stride: 1
    weight_filler {
      type: "msra"
    }
    bias_filler {
      type: "constant"
      value: 0
    }
  }
}
layer {
  name: "BatchNorm18"
  type: "BatchNorm"
  bottom: "Convolution18"
  top: "Convolution18"
  param {
    lr_mult: 0
    decay_mult: 0
  }
  param {
    lr_mult: 0
    decay_mult: 0
  }
  param {
    lr_mult: 0
    decay_mult: 0
  }
}
layer {
  name: "Scale18"
  type: "Scale"
  bottom: "Convolution18"
  top: "Convolution18"
  scale_param {
    bias_term: true
  }
}
layer {
  name: "Eltwise8"
  type: "Eltwise"
  bottom: "Eltwise7"
  bottom: "Convolution18"
  top: "Eltwise8"
  eltwise_param {
    operation: SUM
  }
}
layer {
  name: "ReLU17"
  type: "ReLU"
  bottom: "Eltwise8"
  top: "Eltwise8"
}
layer {
  name: "Convolution19"
  type: "Convolution"
  bottom: "Eltwise8"
  top: "Convolution19"
  param {
    lr_mult: 1
    decay_mult: 1
  }
  param {
    lr_mult: 2
    decay_mult: 0
  }
  convolution_param {
    num_output: 32
    pad: 1
    kernel_size: 3
    stride: 1
    weight_filler {
      type: "msra"
    }
    bias_filler {
      type: "constant"
      value: 0
    }
  }
}
layer {
  name: "BatchNorm19"
  type: "BatchNorm"
  bottom: "Convolution19"
  top: "Convolution19"
  param {
    lr_mult: 0
    decay_mult: 0
  }
  param {
    lr_mult: 0
    decay_mult: 0
  }
  param {
    lr_mult: 0
    decay_mult: 0
  }
}
layer {
  name: "Scale19"
  type: "Scale"
  bottom: "Convolution19"
  top: "Convolution19"
  scale_param {
    bias_term: true
  }
}
layer {
  name: "ReLU18"
  type: "ReLU"
  bottom: "Convolution19"
  top: "Convolution19"
}
layer {
  name: "Convolution20"
  type: "Convolution"
  bottom: "Convolution19"
  top: "Convolution20"
  param {
    lr_mult: 1
    decay_mult: 1
  }
  param {
    lr_mult: 2
    decay_mult: 0
  }
  convolution_param {
    num_output: 32
    pad: 1
    kernel_size: 3
    stride: 1
    weight_filler {
      type: "msra"
    }
    bias_filler {
      type: "constant"
      value: 0
    }
  }
}
layer {
  name: "BatchNorm20"
  type: "BatchNorm"
  bottom: "Convolution20"
  top: "Convolution20"
  param {
    lr_mult: 0
    decay_mult: 0
  }
  param {
    lr_mult: 0
    decay_mult: 0
  }
  param {
    lr_mult: 0
    decay_mult: 0
  }
}
layer {
  name: "Scale20"
  type: "Scale"
  bottom: "Convolution20"
  top: "Convolution20"
  scale_param {
    bias_term: true
  }
}
layer {
  name: "Eltwise9"
  type: "Eltwise"
  bottom: "Eltwise8"
  bottom: "Convolution20"
  top: "Eltwise9"
  eltwise_param {
    operation: SUM
  }
}
layer {
  name: "ReLU19"
  type: "ReLU"
  bottom: "Eltwise9"
  top: "Eltwise9"
}
layer {
  name: "Convolution21"
  type: "Convolution"
  bottom: "Eltwise9"
  top: "Convolution21"
  param {
    lr_mult: 1
    decay_mult: 1
  }
  param {
    lr_mult: 2
    decay_mult: 0
  }
  convolution_param {
    num_output: 32
    pad: 1
    kernel_size: 3
    stride: 1
    weight_filler {
      type: "msra"
    }
    bias_filler {
      type: "constant"
      value: 0
    }
  }
}
layer {
  name: "BatchNorm21"
  type: "BatchNorm"
  bottom: "Convolution21"
  top: "Convolution21"
  param {
    lr_mult: 0
    decay_mult: 0
  }
  param {
    lr_mult: 0
    decay_mult: 0
  }
  param {
    lr_mult: 0
    decay_mult: 0
  }
}
layer {
  name: "Scale21"
  type: "Scale"
  bottom: "Convolution21"
  top: "Convolution21"
  scale_param {
    bias_term: true
  }
}
layer {
  name: "ReLU20"
  type: "ReLU"
  bottom: "Convolution21"
  top: "Convolution21"
}
layer {
  name: "Convolution22"
  type: "Convolution"
  bottom: "Convolution21"
  top: "Convolution22"
  param {
    lr_mult: 1
    decay_mult: 1
  }
  param {
    lr_mult: 2
    decay_mult: 0
  }
  convolution_param {
    num_output: 32
    pad: 1
    kernel_size: 3
    stride: 1
    weight_filler {
      type: "msra"
    }
    bias_filler {
      type: "constant"
      value: 0
    }
  }
}
layer {
  name: "BatchNorm22"
  type: "BatchNorm"
  bottom: "Convolution22"
  top: "Convolution22"
  param {
    lr_mult: 0
    decay_mult: 0
  }
  param {
    lr_mult: 0
    decay_mult: 0
  }
  param {
    lr_mult: 0
    decay_mult: 0
  }
}
layer {
  name: "Scale22"
  type: "Scale"
  bottom: "Convolution22"
  top: "Convolution22"
  scale_param {
    bias_term: true
  }
}
layer {
  name: "Eltwise10"
  type: "Eltwise"
  bottom: "Eltwise9"
  bottom: "Convolution22"
  top: "Eltwise10"
  eltwise_param {
    operation: SUM
  }
}
layer {
  name: "ReLU21"
  type: "ReLU"
  bottom: "Eltwise10"
  top: "Eltwise10"
}
layer {
  name: "Convolution23"
  type: "Convolution"
  bottom: "Eltwise10"
  top: "Convolution23"
  param {
    lr_mult: 1
    decay_mult: 1
  }
  param {
    lr_mult: 2
    decay_mult: 0
  }
  convolution_param {
    num_output: 64
    pad: 0
    kernel_size: 1
    stride: 2
    weight_filler {
      type: "msra"
    }
    bias_filler {
      type: "constant"
      value: 0
    }
  }
}
layer {
  name: "BatchNorm23"
  type: "BatchNorm"
  bottom: "Convolution23"
  top: "Convolution23"
  param {
    lr_mult: 0
    decay_mult: 0
  }
  param {
    lr_mult: 0
    decay_mult: 0
  }
  param {
    lr_mult: 0
    decay_mult: 0
  }
}
layer {
  name: "Scale23"
  type: "Scale"
  bottom: "Convolution23"
  top: "Convolution23"
  scale_param {
    bias_term: true
  }
}
layer {
  name: "Convolution24"
  type: "Convolution"
  bottom: "Eltwise10"
  top: "Convolution24"
  param {
    lr_mult: 1
    decay_mult: 1
  }
  param {
    lr_mult: 2
    decay_mult: 0
  }
  convolution_param {
    num_output: 64
    pad: 1
    kernel_size: 3
    stride: 2
    weight_filler {
      type: "msra"
    }
    bias_filler {
      type: "constant"
      value: 0
    }
  }
}
layer {
  name: "BatchNorm24"
  type: "BatchNorm"
  bottom: "Convolution24"
  top: "Convolution24"
  param {
    lr_mult: 0
    decay_mult: 0
  }
  param {
    lr_mult: 0
    decay_mult: 0
  }
  param {
    lr_mult: 0
    decay_mult: 0
  }
}
layer {
  name: "Scale24"
  type: "Scale"
  bottom: "Convolution24"
  top: "Convolution24"
  scale_param {
    bias_term: true
  }
}
layer {
  name: "ReLU22"
  type: "ReLU"
  bottom: "Convolution24"
  top: "Convolution24"
}
layer {
  name: "Convolution25"
  type: "Convolution"
  bottom: "Convolution24"
  top: "Convolution25"
  param {
    lr_mult: 1
    decay_mult: 1
  }
  param {
    lr_mult: 2
    decay_mult: 0
  }
  convolution_param {
    num_output: 64
    pad: 1
    kernel_size: 3
    stride: 1
    weight_filler {
      type: "msra"
    }
    bias_filler {
      type: "constant"
      value: 0
    }
  }
}
layer {
  name: "BatchNorm25"
  type: "BatchNorm"
  bottom: "Convolution25"
  top: "Convolution25"
  param {
    lr_mult: 0
    decay_mult: 0
  }
  param {
    lr_mult: 0
    decay_mult: 0
  }
  param {
    lr_mult: 0
    decay_mult: 0
  }
}
layer {
  name: "Scale25"
  type: "Scale"
  bottom: "Convolution25"
  top: "Convolution25"
  scale_param {
    bias_term: true
  }
}
layer {
  name: "Eltwise11"
  type: "Eltwise"
  bottom: "Convolution23"
  bottom: "Convolution25"
  top: "Eltwise11"
  eltwise_param {
    operation: SUM
  }
}
layer {
  name: "ReLU23"
  type: "ReLU"
  bottom: "Eltwise11"
  top: "Eltwise11"
}
layer {
  name: "Convolution26"
  type: "Convolution"
  bottom: "Eltwise11"
  top: "Convolution26"
  param {
    lr_mult: 1
    decay_mult: 1
  }
  param {
    lr_mult: 2
    decay_mult: 0
  }
  convolution_param {
    num_output: 64
    pad: 1
    kernel_size: 3
    stride: 1
    weight_filler {
      type: "msra"
    }
    bias_filler {
      type: "constant"
      value: 0
    }
  }
}
layer {
  name: "BatchNorm26"
  type: "BatchNorm"
  bottom: "Convolution26"
  top: "Convolution26"
  param {
    lr_mult: 0
    decay_mult: 0
  }
  param {
    lr_mult: 0
    decay_mult: 0
  }
  param {
    lr_mult: 0
    decay_mult: 0
  }
}
layer {
  name: "Scale26"
  type: "Scale"
  bottom: "Convolution26"
  top: "Convolution26"
  scale_param {
    bias_term: true
  }
}
layer {
  name: "ReLU24"
  type: "ReLU"
  bottom: "Convolution26"
  top: "Convolution26"
}
layer {
  name: "Convolution27"
  type: "Convolution"
  bottom: "Convolution26"
  top: "Convolution27"
  param {
    lr_mult: 1
    decay_mult: 1
  }
  param {
    lr_mult: 2
    decay_mult: 0
  }
  convolution_param {
    num_output: 64
    pad: 1
    kernel_size: 3
    stride: 1
    weight_filler {
      type: "msra"
    }
    bias_filler {
      type: "constant"
      value: 0
    }
  }
}
layer {
  name: "BatchNorm27"
  type: "BatchNorm"
  bottom: "Convolution27"
  top: "Convolution27"
  param {
    lr_mult: 0
    decay_mult: 0
  }
  param {
    lr_mult: 0
    decay_mult: 0
  }
  param {
    lr_mult: 0
    decay_mult: 0
  }
}
layer {
  name: "Scale27"
  type: "Scale"
  bottom: "Convolution27"
  top: "Convolution27"
  scale_param {
    bias_term: true
  }
}
layer {
  name: "Eltwise12"
  type: "Eltwise"
  bottom: "Eltwise11"
  bottom: "Convolution27"
  top: "Eltwise12"
  eltwise_param {
    operation: SUM
  }
}
layer {
  name: "ReLU25"
  type: "ReLU"
  bottom: "Eltwise12"
  top: "Eltwise12"
}
layer {
  name: "Convolution28"
  type: "Convolution"
  bottom: "Eltwise12"
  top: "Convolution28"
  param {
    lr_mult: 1
    decay_mult: 1
  }
  param {
    lr_mult: 2
    decay_mult: 0
  }
  convolution_param {
    num_output: 64
    pad: 1
    kernel_size: 3
    stride: 1
    weight_filler {
      type: "msra"
    }
    bias_filler {
      type: "constant"
      value: 0
    }
  }
}
layer {
  name: "BatchNorm28"
  type: "BatchNorm"
  bottom: "Convolution28"
  top: "Convolution28"
  param {
    lr_mult: 0
    decay_mult: 0
  }
  param {
    lr_mult: 0
    decay_mult: 0
  }
  param {
    lr_mult: 0
    decay_mult: 0
  }
}
layer {
  name: "Scale28"
  type: "Scale"
  bottom: "Convolution28"
  top: "Convolution28"
  scale_param {
    bias_term: true
  }
}
layer {
  name: "ReLU26"
  type: "ReLU"
  bottom: "Convolution28"
  top: "Convolution28"
}
layer {
  name: "Convolution29"
  type: "Convolution"
  bottom: "Convolution28"
  top: "Convolution29"
  param {
    lr_mult: 1
    decay_mult: 1
  }
  param {
    lr_mult: 2
    decay_mult: 0
  }
  convolution_param {
    num_output: 64
    pad: 1
    kernel_size: 3
    stride: 1
    weight_filler {
      type: "msra"
    }
    bias_filler {
      type: "constant"
      value: 0
    }
  }
}
layer {
  name: "BatchNorm29"
  type: "BatchNorm"
  bottom: "Convolution29"
  top: "Convolution29"
  param {
    lr_mult: 0
    decay_mult: 0
  }
  param {
    lr_mult: 0
    decay_mult: 0
  }
  param {
    lr_mult: 0
    decay_mult: 0
  }
}
layer {
  name: "Scale29"
  type: "Scale"
  bottom: "Convolution29"
  top: "Convolution29"
  scale_param {
    bias_term: true
  }
}
layer {
  name: "Eltwise13"
  type: "Eltwise"
  bottom: "Eltwise12"
  bottom: "Convolution29"
  top: "Eltwise13"
  eltwise_param {
    operation: SUM
  }
}
layer {
  name: "ReLU27"
  type: "ReLU"
  bottom: "Eltwise13"
  top: "Eltwise13"
}
layer {
  name: "Convolution30"
  type: "Convolution"
  bottom: "Eltwise13"
  top: "Convolution30"
  param {
    lr_mult: 1
    decay_mult: 1
  }
  param {
    lr_mult: 2
    decay_mult: 0
  }
  convolution_param {
    num_output: 64
    pad: 1
    kernel_size: 3
    stride: 1
    weight_filler {
      type: "msra"
    }
    bias_filler {
      type: "constant"
      value: 0
    }
  }
}
layer {
  name: "BatchNorm30"
  type: "BatchNorm"
  bottom: "Convolution30"
  top: "Convolution30"
  param {
    lr_mult: 0
    decay_mult: 0
  }
  param {
    lr_mult: 0
    decay_mult: 0
  }
  param {
    lr_mult: 0
    decay_mult: 0
  }
}
layer {
  name: "Scale30"
  type: "Scale"
  bottom: "Convolution30"
  top: "Convolution30"
  scale_param {
    bias_term: true
  }
}
layer {
  name: "ReLU28"
  type: "ReLU"
  bottom: "Convolution30"
  top: "Convolution30"
}
layer {
  name: "Convolution31"
  type: "Convolution"
  bottom: "Convolution30"
  top: "Convolution31"
  param {
    lr_mult: 1
    decay_mult: 1
  }
  param {
    lr_mult: 2
    decay_mult: 0
  }
  convolution_param {
    num_output: 64
    pad: 1
    kernel_size: 3
    stride: 1
    weight_filler {
      type: "msra"
    }
    bias_filler {
      type: "constant"
      value: 0
    }
  }
}
layer {
  name: "BatchNorm31"
  type: "BatchNorm"
  bottom: "Convolution31"
  top: "Convolution31"
  param {
    lr_mult: 0
    decay_mult: 0
  }
  param {
    lr_mult: 0
    decay_mult: 0
  }
  param {
    lr_mult: 0
    decay_mult: 0
  }
}
layer {
  name: "Scale31"
  type: "Scale"
  bottom: "Convolution31"
  top: "Convolution31"
  scale_param {
    bias_term: true
  }
}
layer {
  name: "Eltwise14"
  type: "Eltwise"
  bottom: "Eltwise13"
  bottom: "Convolution31"
  top: "Eltwise14"
  eltwise_param {
    operation: SUM
  }
}
layer {
  name: "ReLU29"
  type: "ReLU"
  bottom: "Eltwise14"
  top: "Eltwise14"
}
layer {
  name: "Convolution32"
  type: "Convolution"
  bottom: "Eltwise14"
  top: "Convolution32"
  param {
    lr_mult: 1
    decay_mult: 1
  }
  param {
    lr_mult: 2
    decay_mult: 0
  }
  convolution_param {
    num_output: 64
    pad: 1
    kernel_size: 3
    stride: 1
    weight_filler {
      type: "msra"
    }
    bias_filler {
      type: "constant"
      value: 0
    }
  }
}
layer {
  name: "BatchNorm32"
  type: "BatchNorm"
  bottom: "Convolution32"
  top: "Convolution32"
  param {
    lr_mult: 0
    decay_mult: 0
  }
  param {
    lr_mult: 0
    decay_mult: 0
  }
  param {
    lr_mult: 0
    decay_mult: 0
  }
}
layer {
  name: "Scale32"
  type: "Scale"
  bottom: "Convolution32"
  top: "Convolution32"
  scale_param {
    bias_term: true
  }
}
layer {
  name: "ReLU30"
  type: "ReLU"
  bottom: "Convolution32"
  top: "Convolution32"
}
layer {
  name: "Convolution33"
  type: "Convolution"
  bottom: "Convolution32"
  top: "Convolution33"
  param {
    lr_mult: 1
    decay_mult: 1
  }
  param {
    lr_mult: 2
    decay_mult: 0
  }
  convolution_param {
    num_output: 64
    pad: 1
    kernel_size: 3
    stride: 1
    weight_filler {
      type: "m
I0818 10:45:00.950481  2034 layer_factory.hpp:77] Creating layer Data1
I0818 10:45:00.987027  2034 db_lmdb.cpp:35] Opened lmdb /home/lijianfei/datasets/cifar10_40/test_lmdb
I0818 10:45:00.992475  2034 net.cpp:128] Creating Layer Data1
I0818 10:45:00.992504  2034 net.cpp:522] Data1 -> Data1
I0818 10:45:00.992525  2034 net.cpp:522] Data1 -> Data2
I0818 10:45:00.992764  2034 data_layer.cpp:45] output data size: 10,3,32,32
I0818 10:45:00.993659  2034 net.cpp:172] Setting up Data1
I0818 10:45:00.993688  2034 net.cpp:186] Top shape: 10 3 32 32 (30720)
I0818 10:45:00.993698  2034 net.cpp:186] Top shape: 10 (10)
I0818 10:45:00.993705  2034 net.cpp:194] Memory required for data: 122920
I0818 10:45:00.993711  2034 layer_factory.hpp:77] Creating layer Data2_Data1_1_split
I0818 10:45:00.993723  2034 net.cpp:128] Creating Layer Data2_Data1_1_split
I0818 10:45:00.993733  2034 net.cpp:558] Data2_Data1_1_split <- Data2
I0818 10:45:00.993743  2034 net.cpp:522] Data2_Data1_1_split -> Data2_Data1_1_split_0
I0818 10:45:00.993757  2034 net.cpp:522] Data2_Data1_1_split -> Data2_Data1_1_split_1
I0818 10:45:00.994040  2034 net.cpp:172] Setting up Data2_Data1_1_split
…
I0818 10:45:01.068476  2034 layer_factory.hpp:77] Creating layer ReLU14
I0818 10:45:01.068482  2034 net.cpp:128] Creating Layer ReLU14
I0818 10:45:01.068486  2034 net.cpp:558] ReLU14 <- Convolution15
I0818 10:45:01.068492  2034 net.cpp:509] ReLU14 -> Convolution15 (in-place)
I0818 10:45:01.068765  2034 net.cpp:172] Setting up ReLU14
I0818 10:45:01.068783  2034 net.cpp:186] Top shape: 10 32 16 16 (81920)
I0818 10:45:01.068787  2034 net.cpp:194] Memory required for data: 45998200
I0818 10:45:01.068791  2034 layer_factory.hpp:77] Creating layer Convolution16
I0818 10:45:01.068804  2034 net.cpp:128] Creating Layer Convolution16
I0818 10:45:01.068809  2034 net.cpp:558] Convolution16 <- Convolution15
I0818 10:45:01.068817  2034 net.cpp:522] Convolution16 -> Convolution16
I0818 10:45:01.070313  2034 net.cpp:172] Setting up Convolution16
I0818 10:45:01.070338  2034 net.cpp:186] Top shape: 10 32 16 16 (81920)
I0818 10:45:01.070343  2034 net.cpp:194] Memory required for data: 46325880
I0818 10:45:01.070353  2034 layer_factory.hpp:77] Creating layer BatchNorm16
I0818 10:45:01.070363  2034 net.cpp:128] Creating Layer BatchNorm16
I0818 10:45:01.070371  2034 net.cpp:558] BatchNorm16 <- Convolution16
I0818 10:45:01.070379  2034 net.cpp:509] BatchNorm16 -> Convolution16 (in-place)
I0818 10:45:01.070685  2034 net.cpp:172] Setting up BatchNorm16
I0818 10:45:01.070698  2034 net.cpp:186] Top shape: 10 32 16 16 (81920)
I0818 10:45:01.070703  2034 net.cpp:194] Memory required for data: 46653560
I0818 10:45:01.070713  2034 layer_factory.hpp:77] Creating layer Scale16
I0818 10:45:01.070719  2034 net.cpp:128] Creating Layer Scale16
I0818 10:45:01.070724  2034 net.cpp:558] Scale16 <- Convolution16
I0818 10:45:01.070730  2034 net.cpp:509] Scale16 -> Convolution16 (in-place)
I0818 10:45:01.070786  2034 layer_factory.hpp:77] Creating layer Scale16
I0818 10:45:01.070952  2034 net.cpp:172] Setting up Scale16
I0818 10:45:01.070963  2034 net.cpp:186] Top shape: 10 32 16 16 (81920)
I0818 10:45:01.070967  2034 net.cpp:194] Memory required for data: 46981240
I0818 10:45:01.070976  2034 layer_factory.hpp:77] Creating layer Eltwise7
I0818 10:45:01.070984  2034 net.cpp:128] Creating Layer Eltwise7
I0818 10:45:01.070989  2034 net.cpp:558] Eltwise7 <- Eltwise6_ReLU13_0_split_1
I0818 10:45:01.070996  2034 net.cpp:558] Eltwise7 <- Convolution16
I0818 10:45:01.071002  2034 net.cpp:522] Eltwise7 -> Eltwise7
I0818 10:45:01.071025  2034 net.cpp:172] Setting up Eltwise7
I0818 10:45:01.071033  2034 net.cpp:186] Top shape: 10 32 16 16 (81920)
I0818 10:45:01.071038  2034 net.cpp:194] Memory required for data: 47308920
I0818 10:45:01.071041  2034 layer_factory.hpp:77] Creating layer ReLU15
I0818 10:45:01.071049  2034 net.cpp:128] Creating Layer ReLU15
I0818 10:45:01.071054  2034 net.cpp:558] ReLU15 <- Eltwise7
I0818 10:45:01.071059  2034 net.cpp:509] ReLU15 -> Eltwise7 (in-place)
I0818 10:45:01.071305  2034 net.cpp:172] Setting up ReLU15
I0818 10:45:01.071319  2034 net.cpp:186] Top shape: 10 32 16 16 (81920)
I0818 10:45:01.071324  2034 net.cpp:194] Memory required for data: 47636600
I0818 10:45:01.071328  2034 layer_factory.hpp:77] Creating layer Eltwise7_ReLU15_0_split
I0818 10:45:01.071337  2034 net.cpp:128] Creating Layer Eltwise7_ReLU15_0_split
I0818 10:45:01.071342  2034 net.cpp:558] Eltwise7_ReLU15_0_split <- Eltwise7
I0818 10:45:01.071352  2034 net.cpp:522] Eltwise7_ReLU15_0_split -> Eltwise7_ReLU15_0_split_0
I0818 10:45:01.071359  2034 net.cpp:522] Eltwise7_ReLU15_0_split -> Eltwise7_ReLU15_0_split_1
I0818 10:45:01.071414  2034 net.cpp:172] Setting up Eltwise7_ReLU15_0_split
I0818 10:45:01.071424  2034 net.cpp:186] Top shape: 10 32 16 16 (81920)
I0818 10:45:01.071429  2034 net.cpp:186] Top shape: 10 32 16 16 (81920)
I0818 10:45:01.071434  2034 net.cpp:194] Memory required for data: 48291960
I0818 10:45:01.071437  2034 layer_factory.hpp:77] Creating layer Convolution17
I0818 10:45:01.071449  2034 net.cpp:128] Creating Layer Convolution17
I0818 10:45:01.071455  2034 net.cpp:558] Convolution17 <- Eltwise7_ReLU15_0_split_0
I0818 10:45:01.071461  2034 net.cpp:522] Convolution17 -> Convolution17
I0818 10:45:01.072948  2034 net.cpp:172] Setting up Convolution17
I0818 10:45:01.072975  2034 net.cpp:186] Top shape: 10 32 16 16 (81920)
I0818 10:45:01.072980  2034 net.cpp:194] Memory required for data: 48619640
I0818 10:45:01.072993  2034 layer_factory.hpp:77] Creating layer BatchNorm17
I0818 10:45:01.073019  2034 net.cpp:128] Creating Layer BatchNorm17
I0818 10:45:01.073025  2034 net.cpp:558] BatchNorm17 <- Convolution17
I0818 10:45:01.073035  2034 net.cpp:509] BatchNorm17 -> Convolution17 (in-place)
I0818 10:45:01.073331  2034 net.cpp:172] Setting up BatchNorm17
I0818 10:45:01.073345  2034 net.cpp:186] Top shape: 10 32 16 16 (81920)
I0818 10:45:01.073349  2034 net.cpp:194] Memory required for data: 48947320
I0818 10:45:01.073359  2034 layer_factory.hpp:77] Creating layer Scale17
I0818 10:45:01.073366  2034 net.cpp:128] Creating Layer Scale17
I0818 10:45:01.073370  2034 net.cpp:558] Scale17 <- Convolution17
I0818 10:45:01.073376  2034 net.cpp:509] Scale17 -> Convolution17 (in-place)
I0818 10:45:01.073432  2034 layer_factory.hpp:77] Creating layer Scale17
I0818 10:45:01.073602  2034 net.cpp:172] Setting up Scale17
I0818 10:45:01.073612  2034 net.cpp:186] Top shape: 10 32 16 16 (81920)
I0818 10:45:01.073616  2034 net.cpp:194] Memory required for data: 49275000
I0818 10:45:01.073628  2034 layer_factory.hpp:77] Creating layer ReLU16
I0818 10:45:01.073637  2034 net.cpp:128] Creating Layer ReLU16
I0818 10:45:01.073642  2034 net.cpp:558] ReLU16 <- Convolution17
I0818 10:45:01.073648  2034 net.cpp:509] ReLU16 -> Convolution17 (in-place)
I0818 10:45:01.073896  2034 net.cpp:172] Setting up ReLU16
I0818 10:45:01.073909  2034 net.cpp:186] Top shape: 10 32 16 16 (81920)
I0818 10:45:01.073915  2034 net.cpp:194] Memory required for data: 49602680
I0818 10:45:01.073918  2034 layer_factory.hpp:77] Creating layer Convolution18
I0818 10:45:01.073930  2034 net.cpp:128] Creating Layer Convolution18
I0818 10:45:01.073935  2034 net.cpp:558] Convolution18 <- Convolution17
I0818 10:45:01.073945  2034 net.cpp:522] Convolution18 -> Convolution18
I0818 10:45:01.075433  2034 net.cpp:172] Setting up Convolution18
I0818 10:45:01.075459  2034 net.cpp:186] Top shape: 10 32 16 16 (81920)
I0818 10:45:01.075464  2034 net.cpp:194] Memory required for data: 49930360
I0818 10:45:01.075474  2034 layer_factory.hpp:77] Creating layer BatchNorm18
I0818 10:45:01.075484  2034 net.cpp:128] Creating Layer BatchNorm18
I0818 10:45:01.075489  2034 net.cpp:558] BatchNorm18 <- Convolution18
I0818 10:45:01.075496  2034 net.cpp:509] BatchNorm18 -> Convolution18 (in-place)
I0818 10:45:01.075793  2034 net.cpp:172] Setting up BatchNorm18
I0818 10:45:01.075804  2034 net.cpp:186] Top shape: 10 32 16 16 (81920)
I0818 10:45:01.075809  2034 net.cpp:194] Memory required for data: 50258040
I0818 10:45:01.075819  2034 layer_factory.hpp:77] Creating layer Scale18
I0818 10:45:01.075827  2034 net.cpp:128] Creating Layer Scale18
I0818 10:45:01.075832  2034 net.cpp:558] Scale18 <- Convolution18
I0818 10:45:01.075837  2034 net.cpp:509] Scale18 -> Convolution18 (in-place)
I0818 10:45:01.075891  2034 layer_factory.hpp:77] Creating layer Scale18
I0818 10:45:01.076064  2034 net.cpp:172] Setting up Scale18
I0818 10:45:01.076074  2034 net.cpp:186] Top shape: 10 32 16 16 (81920)
I0818 10:45:01.076078  2034 net.cpp:194] Memory required for data: 50585720
I0818 10:45:01.076086  2034 layer_factory.hpp:77] Creating layer Eltwise8
I0818 10:45:01.076092  2034 net.cpp:128] Creating Layer Eltwise8
I0818 10:45:01.076097  2034 net.cpp:558] Eltwise8 <- Eltwise7_ReLU15_0_split_1
I0818 10:45:01.076102  2034 net.cpp:558] Eltwise8 <- Convolution18
I0818 10:45:01.076112  2034 net.cpp:522] Eltwise8 -> Eltwise8
I0818 10:45:01.076138  2034 net.cpp:172] Setting up Eltwise8
I0818 10:45:01.076148  2034 net.cpp:186] Top shape: 10 32 16 16 (81920)
I0818 10:45:01.076151  2034 net.cpp:194] Memory required for data: 50913400
I0818 10:45:01.076156  2034 layer_factory.hpp:77] Creating layer ReLU17
I0818 10:45:01.076165  2034 net.cpp:128] Creating Layer ReLU17
I0818 10:45:01.076169  2034 net.cpp:558] ReLU17 <- Eltwise8
I0818 10:45:01.076175  2034 net.cpp:509] ReLU17 -> Eltwise8 (in-place)
I0818 10:45:01.076620  2034 net.cpp:172] Setting up ReLU17
I0818 10:45:01.076642  2034 net.cpp:186] Top shape: 10 32 16 16 (81920)
I0818 10:45:01.076647  2034 net.cpp:194] Memory required for data: 51241080
I0818 10:45:01.076668  2034 layer_factory.hpp:77] Creating layer Eltwise8_ReLU17_0_split
I0818 10:45:01.076680  2034 net.cpp:128] Creating Layer Eltwise8_ReLU17_0_split
I0818 10:45:01.076685  2034 net.cpp:558] Eltwise8_ReLU17_0_split <- Eltwise8
I0818 10:45:01.076694  2034 net.cpp:522] Eltwise8_ReLU17_0_split -> Eltwise8_ReLU17_0_split_0
I0818 10:45:01.076706  2034 net.cpp:522] Eltwise8_ReLU17_0_split -> Eltwise8_ReLU17_0_split_1
I0818 10:45:01.076769  2034 net.cpp:172] Setting up Eltwise8_ReLU17_0_split
I0818 10:45:01.076776  2034 net.cpp:186] Top shape: 10 32 16 16 (81920)
I0818 10:45:01.076782  2034 net.cpp:186] Top shape: 10 32 16 16 (81920)
I0818 10:45:01.076786  2034 net.cpp:194] Memory required for data: 51896440
I0818 10:45:01.076791  2034 layer_factory.hpp:77] Creating layer Convolution19
I0818 10:45:01.076804  2034 net.cpp:128] Creating Layer Convolution19
I0818 10:45:01.076809  2034 net.cpp:558] Convolution19 <- Eltwise8_ReLU17_0_split_0
I0818 10:45:01.076817  2034 net.cpp:522] Convolution19 -> Convolution19
I0818 10:45:01.078313  2034 net.cpp:172] Setting up Convolution19
I0818 10:45:01.078339  2034 net.cpp:186] Top shape: 10 32 16 16 (81920)
I0818 10:45:01.078343  2034 net.cpp:194] Memory required for data: 52224120
I0818 10:45:01.078357  2034 layer_factory.hpp:77] Creating layer BatchNorm19
I0818 10:45:01.078367  2034 net.cpp:128] Creating Layer BatchNorm19
I0818 10:45:01.078372  2034 net.cpp:558] BatchNorm19 <- Convolution19
I0818 10:45:01.078382  2034 net.cpp:509] BatchNorm19 -> Convolution19 (in-place)
I0818 10:45:01.078691  2034 net.cpp:172] Setting up BatchNorm19
I0818 10:45:01.078702  2034 net.cpp:186] Top shape: 10 32 16 16 (81920)
I0818 10:45:01.078706  2034 net.cpp:194] Memory required for data: 52551800
I0818 10:45:01.078728  2034 layer_factory.hpp:77] Creating layer Scale19
I0818 10:45:01.078740  2034 net.cpp:128] Creating Layer Scale19
I0818 10:45:01.078748  2034 net.cpp:558] Scale19 <- Convolution19
I0818 10:45:01.078754  2034 net.cpp:509] Scale19 -> Convolution19 (in-place)
I0818 10:45:01.078812  2034 layer_factory.hpp:77] Creating layer Scale19
I0818 10:45:01.078984  2034 net.cpp:172] Setting up Scale19
I0818 10:45:01.078994  2034 net.cpp:186] Top shape: 10 32 16 16 (81920)
I0818 10:45:01.078997  2034 net.cpp:194] Memory required for data: 52879480
I0818 10:45:01.079005  2034 layer_factory.hpp:77] Creating layer ReLU18
I0818 10:45:01.079011  2034 net.cpp:128] Creating Layer ReLU18
I0818 10:45:01.079018  2034 net.cpp:558] ReLU18 <- Convolution19
I0818 10:45:01.079025  2034 net.cpp:509] ReLU18 -> Convolution19 (in-place)
I0818 10:45:01.079272  2034 net.cpp:172] Setting up ReLU18
I0818 10:45:01.079284  2034 net.cpp:186] Top shape: 10 32 16 16 (81920)
I0818 10:45:01.079288  2034 net.cpp:194] Memory required for data: 53207160
I0818 10:45:01.079293  2034 layer_factory.hpp:77] Creating layer Convolution20
I0818 10:45:01.079306  2034 net.cpp:128] Creating Layer Convolution20
I0818 10:45:01.079313  2034 net.cpp:558] Convolution20 <- Convolution19
I0818 10:45:01.079324  2034 net.cpp:522] Convolution20 -> Convolution20
I0818 10:45:01.080940  2034 net.cpp:172] Setting up Convolution20
I0818 10:45:01.080965  2034 net.cpp:186] Top shape: 10 32 16 16 (81920)
I0818 10:45:01.080970  2034 net.cpp:194] Memory required for data: 53534840
I0818 10:45:01.080981  2034 layer_factory.hpp:77] Creating layer BatchNorm20
I0818 10:45:01.080988  2034 net.cpp:128] Creating Layer BatchNorm20
I0818 10:45:01.080993  2034 net.cpp:558] BatchNorm20 <- Convolution20
I0818 10:45:01.081001  2034 net.cpp:509] BatchNorm20 -> Convolution20 (in-place)
I0818 10:45:01.081295  2034 net.cpp:172] Setting up BatchNorm20
I0818 10:45:01.081305  2034 net.cpp:186] Top shape: 10 32 16 16 (81920)
I0818 10:45:01.081308  2034 net.cpp:194] Memory required for data: 53862520
I0818 10:45:01.081318  2034 layer_factory.hpp:77] Creating layer Scale20
I0818 10:45:01.081327  2034 net.cpp:128] Creating Layer Scale20
I0818 10:45:01.081331  2034 net.cpp:558] Scale20 <- Convolution20
I0818 10:45:01.081339  2034 net.cpp:509] Scale20 -> Convolution20 (in-place)
I0818 10:45:01.081411  2034 layer_factory.hpp:77] Creating layer Scale20
I0818 10:45:01.081581  2034 net.cpp:172] Setting up Scale20
I0818 10:45:01.081591  2034 net.cpp:186] Top shape: 10 32 16 16 (81920)
I0818 10:45:01.081595  2034 net.cpp:194] Memory required for data: 54190200
I0818 10:45:01.081604  2034 layer_factory.hpp:77] Creating layer Eltwise9
I0818 10:45:01.081614  2034 net.cpp:128] Creating Layer Eltwise9
I0818 10:45:01.081621  2034 net.cpp:558] Eltwise9 <- Eltwise8_ReLU17_0_split_1
I0818 10:45:01.081626  2034 net.cpp:558] Eltwise9 <- Convolution20
I0818 10:45:01.081635  2034 net.cpp:522] Eltwise9 -> Eltwise9
I0818 10:45:01.081660  2034 net.cpp:172] Setting up Eltwise9
I0818 10:45:01.081668  2034 net.cpp:186] Top shape: 10 32 16 16 (81920)
I0818 10:45:01.081672  2034 net.cpp:194] Memory required for data: 54517880
I0818 10:45:01.081676  2034 layer_factory.hpp:77] Creating layer ReLU19
I0818 10:45:01.081683  2034 net.cpp:128] Creating Layer ReLU19
I0818 10:45:01.081687  2034 net.cpp:558] ReLU19 <- Eltwise9
I0818 10:45:01.081696  2034 net.cpp:509] ReLU19 -> Eltwise9 (in-place)
I0818 10:45:01.081939  2034 net.cpp:172] Setting up ReLU19
I0818 10:45:01.081951  2034 net.cpp:186] Top shape: 10 32 16 16 (81920)
I0818 10:45:01.081955  2034 net.cpp:194] Memory required for data: 54845560
I0818 10:45:01.081960  2034 layer_factory.hpp:77] Creating layer Eltwise9_ReLU19_0_split
I0818 10:45:01.081967  2034 net.cpp:128] Creating Layer Eltwise9_ReLU19_0_split
I0818 10:45:01.081971  2034 net.cpp:558] Eltwise9_ReLU19_0_split <- Eltwise9
I0818 10:45:01.081980  2034 net.cpp:522] Eltwise9_ReLU19_0_split -> Eltwise9_ReLU19_0_split_0
I0818 10:45:01.081988  2034 net.cpp:522] Eltwise9_ReLU19_0_split -> Eltwise9_ReLU19_0_split_1
I0818 10:45:01.082049  2034 net.cpp:172] Setting up Eltwise9_ReLU19_0_split
I0818 10:45:01.082060  2034 net.cpp:186] Top shape: 10 32 16 16 (81920)
I0818 10:45:01.082067  2034 net.cpp:186] Top shape: 10 32 16 16 (81920)
I0818 10:45:01.082070  2034 net.cpp:194] Memory required for data: 55500920
I0818 10:45:01.082074  2034 layer_factory.hpp:77] Creating layer Convolution21
I0818 10:45:01.082087  2034 net.cpp:128] Creating Layer Convolution21
I0818 10:45:01.082095  2034 net.cpp:558] Convolution21 <- Eltwise9_ReLU19_0_split_0
I0818 10:45:01.082108  2034 net.cpp:522] Convolution21 -> Convolution21
I0818 10:45:01.083609  2034 net.cpp:172] Setting up Convolution21
I0818 10:45:01.083636  2034 net.cpp:186] Top shape: 10 32 16 16 (81920)
I0818 10:45:01.083640  2034 net.cpp:194] Memory required for data: 55828600
I0818 10:45:01.083650  2034 layer_factory.hpp:77] Creating layer BatchNorm21
I0818 10:45:01.083662  2034 net.cpp:128] Creating Layer BatchNorm21
I0818 10:45:01.083667  2034 net.cpp:558] BatchNorm21 <- Convolution21
I0818 10:45:01.083673  2034 net.cpp:509] BatchNorm21 -> Convolution21 (in-place)
I0818 10:45:01.083976  2034 net.cpp:172] Setting up BatchNorm21
I0818 10:45:01.083986  2034 net.cpp:186] Top shape: 10 32 16 16 (81920)
I0818 10:45:01.083992  2034 net.cpp:194] Memory required for data: 56156280
I0818 10:45:01.084002  2034 layer_factory.hpp:77] Creating layer Scale21
I0818 10:45:01.084008  2034 net.cpp:128] Creating Layer Scale21
I0818 10:45:01.084013  2034 net.cpp:558] Scale21 <- Convolution21
I0818 10:45:01.084020  2034 net.cpp:509] Scale21 -> Convolution21 (in-place)
I0818 10:45:01.084074  2034 layer_factory.hpp:77] Creating layer Scale21
I0818 10:45:01.084247  2034 net.cpp:172] Setting up Scale21
I0818 10:45:01.084257  2034 net.cpp:186] Top shape: 10 32 16 16 (81920)
I0818 10:45:01.084261  2034 net.cpp:194] Memory required for data: 56483960
I0818 10:45:01.084270  2034 layer_factory.hpp:77] Creating layer ReLU20
I0818 10:45:01.084275  2034 net.cpp:128] Creating Layer ReLU20
I0818 10:45:01.084280  2034 net.cpp:558] ReLU20 <- Convolution21
I0818 10:45:01.084287  2034 net.cpp:509] ReLU20 -> Convolution21 (in-place)
I0818 10:45:01.084733  2034 net.cpp:172] Setting up ReLU20
I0818 10:45:01.084755  2034 net.cpp:186] Top shape: 10 32 16 16 (81920)
I0818 10:45:01.084759  2034 net.cpp:194] Memory required for data: 56811640
I0818 10:45:01.084781  2034 layer_factory.hpp:77] Creating layer Convolution22
I0818 10:45:01.084795  2034 net.cpp:128] Creating Layer Convolution22
I0818 10:45:01.084801  2034 net.cpp:558] Convolution22 <- Convolution21
I0818 10:45:01.084811  2034 net.cpp:522] Convolution22 -> Convolution22
I0818 10:45:01.086313  2034 net.cpp:172] Setting up Convolution22
I0818 10:45:01.086338  2034 net.cpp:186] Top shape: 10 32 16 16 (81920)
I0818 10:45:01.086344  2034 net.cpp:194] Memory required for data: 57139320
I0818 10:45:01.086354  2034 layer_factory.hpp:77] Creating layer BatchNorm22
I0818 10:45:01.086364  2034 net.cpp:128] Creating Layer BatchNorm22
I0818 10:45:01.086371  2034 net.cpp:558] BatchNorm22 <- Convolution22
I0818 10:45:01.086381  2034 net.cpp:509] BatchNorm22 -> Convolution22 (in-place)
I0818 10:45:01.086694  2034 net.cpp:172] Setting up BatchNorm22
I0818 10:45:01.086705  2034 net.cpp:186] Top shape: 10 32 16 16 (81920)
I0818 10:45:01.086709  2034 net.cpp:194] Memory required for data: 57467000
I0818 10:45:01.086719  2034 layer_factory.hpp:77] Creating layer Scale22
I0818 10:45:01.086726  2034 net.cpp:128] Creating Layer Scale22
I0818 10:45:01.086733  2034 net.cpp:558] Scale22 <- Convolution22
I0818 10:45:01.086740  2034 net.cpp:509] Scale22 -> Convolution22 (in-place)
I0818 10:45:01.086794  2034 layer_factory.hpp:77] Creating layer Scale22
I0818 10:45:01.086963  2034 net.cpp:172] Setting up Scale22
I0818 10:45:01.086977  2034 net.cpp:186] Top shape: 10 32 16 16 (81920)
I0818 10:45:01.086980  2034 net.cpp:194] Memory required for data: 57794680
I0818 10:45:01.086988  2034 layer_factory.hpp:77] Creating layer Eltwise10
I0818 10:45:01.086995  2034 net.cpp:128] Creating Layer Eltwise10
I0818 10:45:01.087000  2034 net.cpp:558] Eltwise10 <- Eltwise9_ReLU19_0_split_1
I0818 10:45:01.087005  2034 net.cpp:558] Eltwise10 <- Convolution22
I0818 10:45:01.087011  2034 net.cpp:522] Eltwise10 -> Eltwise10
I0818 10:45:01.087038  2034 net.cpp:172] Setting up Eltwise10
I0818 10:45:01.087045  2034 net.cpp:186] Top shape: 10 32 16 16 (81920)
I0818 10:45:01.087049  2034 net.cpp:194] Memory required for data: 58122360
I0818 10:45:01.087054  2034 layer_factory.hpp:77] Creating layer ReLU21
I0818 10:45:01.087059  2034 net.cpp:128] Creating Layer ReLU21
I0818 10:45:01.087064  2034 net.cpp:558] ReLU21 <- Eltwise10
I0818 10:45:01.087072  2034 net.cpp:509] ReLU21 -> Eltwise10 (in-place)
I0818 10:45:01.087321  2034 net.cpp:172] Setting up ReLU21
I0818 10:45:01.087335  2034 net.cpp:186] Top shape: 10 32 16 16 (81920)
I0818 10:45:01.087340  2034 net.cpp:194] Memory required for data: 58450040
I0818 10:45:01.087344  2034 layer_factory.hpp:77] Creating layer Eltwise10_ReLU21_0_split
I0818 10:45:01.087352  2034 net.cpp:128] Creating Layer Eltwise10_ReLU21_0_split
I0818 10:45:01.087357  2034 net.cpp:558] Eltwise10_ReLU21_0_split <- Eltwise10
I0818 10:45:01.087365  2034 net.cpp:522] Eltwise10_ReLU21_0_split -> Eltwise10_ReLU21_0_split_0
I0818 10:45:01.087374  2034 net.cpp:522] Eltwise10_ReLU21_0_split -> Eltwise10_ReLU21_0_split_1
I0818 10:45:01.087435  2034 net.cpp:172] Setting up Eltwise10_ReLU21_0_split
I0818 10:45:01.087441  2034 net.cpp:186] Top shape: 10 32 16 16 (81920)
I0818 10:45:01.087447  2034 net.cpp:186] Top shape: 10 32 16 16 (81920)
I0818 10:45:01.087451  2034 net.cpp:194] Memory required for data: 59105400
I0818 10:45:01.087455  2034 layer_factory.hpp:77] Creating layer Convolution23
I0818 10:45:01.087467  2034 net.cpp:128] Creating Layer Convolution23
I0818 10:45:01.087471  2034 net.cpp:558] Convolution23 <- Eltwise10_ReLU21_0_split_0
I0818 10:45:01.087481  2034 net.cpp:522] Convolution23 -> Convolution23
I0818 10:45:01.088907  2034 net.cpp:172] Setting up Convolution23
I0818 10:45:01.088929  2034 net.cpp:186] Top shape: 10 64 8 8 (40960)
I0818 10:45:01.088934  2034 net.cpp:194] Memory required for data: 59269240
I0818 10:45:01.088948  2034 layer_factory.hpp:77] Creating layer BatchNorm23
I0818 10:45:01.088959  2034 net.cpp:128] Creating Layer BatchNorm23
I0818 10:45:01.088965  2034 net.cpp:558] BatchNorm23 <- Convolution23
I0818 10:45:01.088994  2034 net.cpp:509] BatchNorm23 -> Convolution23 (in-place)
I0818 10:45:01.089306  2034 net.cpp:172] Setting up BatchNorm23
I0818 10:45:01.089319  2034 net.cpp:186] Top shape: 10 64 8 8 (40960)
I0818 10:45:01.089324  2034 net.cpp:194] Memory required for data: 59433080
I0818 10:45:01.089334  2034 layer_factory.hpp:77] Creating layer Scale23
I0818 10:45:01.089346  2034 net.cpp:128] Creating Layer Scale23
I0818 10:45:01.089351  2034 net.cpp:558] Scale23 <- Convolution23
I0818 10:45:01.089357  2034 net.cpp:509] Scale23 -> Convolution23 (in-place)
I0818 10:45:01.089413  2034 layer_factory.hpp:77] Creating layer Scale23
I0818 10:45:01.089591  2034 net.cpp:172] Setting up Scale23
I0818 10:45:01.089602  2034 net.cpp:186] Top shape: 10 64 8 8 (40960)
I0818 10:45:01.089607  2034 net.cpp:194] Memory required for data: 59596920
I0818 10:45:01.089614  2034 layer_factory.hpp:77] Creating layer Convolution24
I0818 10:45:01.089627  2034 net.cpp:128] Creating Layer Convolution24
I0818 10:45:01.089632  2034 net.cpp:558] Convolution24 <- Eltwise10_ReLU21_0_split_1
I0818 10:45:01.089642  2034 net.cpp:522] Convolution24 -> Convolution24
I0818 10:45:01.091315  2034 net.cpp:172] Setting up Convolution24
I0818 10:45:01.091336  2034 net.cpp:186] Top shape: 10 64 8 8 (40960)
I0818 10:45:01.091341  2034 net.cpp:194] Memory required for data: 59760760
I0818 10:45:01.091351  2034 layer_factory.hpp:77] Creating layer BatchNorm24
I0818 10:45:01.091361  2034 net.cpp:128] Creating Layer BatchNorm24
I0818 10:45:01.091367  2034 net.cpp:558] BatchNorm24 <- Convolution24
I0818 10:45:01.091377  2034 net.cpp:509] BatchNorm24 -> Convolution24 (in-place)
I0818 10:45:01.091687  2034 net.cpp:172] Setting up BatchNorm24
I0818 10:45:01.091703  2034 net.cpp:186] Top shape: 10 64 8 8 (40960)
I0818 10:45:01.091708  2034 net.cpp:194] Memory required for data: 59924600
I0818 10:45:01.091717  2034 layer_factory.hpp:77] Creating layer Scale24
I0818 10:45:01.091724  2034 net.cpp:128] Creating Layer Scale24
I0818 10:45:01.091730  2034 net.cpp:558] Scale24 <- Convolution24
I0818 10:45:01.091735  2034 net.cpp:509] Scale24 -> Convolution24 (in-place)
I0818 10:45:01.091794  2034 layer_factory.hpp:77] Creating layer Scale24
I0818 10:45:01.091970  2034 net.cpp:172] Setting up Scale24
I0818 10:45:01.091981  2034 net.cpp:186] Top shape: 10 64 8 8 (40960)
I0818 10:45:01.091985  2034 net.cpp:194] Memory required for data: 60088440
I0818 10:45:01.091994  2034 layer_factory.hpp:77] Creating layer ReLU22
I0818 10:45:01.092000  2034 net.cpp:128] Creating Layer ReLU22
I0818 10:45:01.092005  2034 net.cpp:558] ReLU22 <- Convolution24
I0818 10:45:01.092012  2034 net.cpp:509] ReLU22 -> Convolution24 (in-place)
I0818 10:45:01.092264  2034 net.cpp:172] Setting up ReLU22
I0818 10:45:01.092278  2034 net.cpp:186] Top shape: 10 64 8 8 (40960)
I0818 10:45:01.092283  2034 net.cpp:194] Memory required for data: 60252280
I0818 10:45:01.092288  2034 layer_factory.hpp:77] Creating layer Convolution25
I0818 10:45:01.092300  2034 net.cpp:128] Creating Layer Convolution25
I0818 10:45:01.092305  2034 net.cpp:558] Convolution25 <- Convolution24
I0818 10:45:01.092315  2034 net.cpp:522] Convolution25 -> Convolution25
I0818 10:45:01.095630  2034 net.cpp:172] Setting up Convolution25
I0818 10:45:01.095657  2034 net.cpp:186] Top shape: 10 64 8 8 (40960)
I0818 10:45:01.095662  2034 net.cpp:194] Memory required for data: 60416120
I0818 10:45:01.095674  2034 layer_factory.hpp:77] Creating layer BatchNorm25
I0818 10:45:01.095685  2034 net.cpp:128] Creating Layer BatchNorm25
I0818 10:45:01.095690  2034 net.cpp:558] BatchNorm25 <- Convolution25
I0818 10:45:01.095700  2034 net.cpp:509] BatchNorm25 -> Convolution25 (in-place)
I0818 10:45:01.096007  2034 net.cpp:172] Setting up BatchNorm25
I0818 10:45:01.096019  2034 net.cpp:186] Top shape: 10 64 8 8 (40960)
I0818 10:45:01.096024  2034 net.cpp:194] Memory required for data: 60579960
I0818 10:45:01.096032  2034 layer_factory.hpp:77] Creating layer Scale25
I0818 10:45:01.096040  2034 net.cpp:128] Creating Layer Scale25
I0818 10:45:01.096060  2034 net.cpp:558] Scale25 <- Convolution25
I0818 10:45:01.096068  2034 net.cpp:509] Scale25 -> Convolution25 (in-place)
I0818 10:45:01.096130  2034 layer_factory.hpp:77] Creating layer Scale25
I0818 10:45:01.096310  2034 net.cpp:172] Setting up Scale25
I0818 10:45:01.096321  2034 net.cpp:186] Top shape: 10 64 8 8 (40960)
I0818 10:45:01.096325  2034 net.cpp:194] Memory required for data: 60743800
I0818 10:45:01.096333  2034 layer_factory.hpp:77] Creating layer Eltwise11
I0818 10:45:01.096341  2034 net.cpp:128] Creating Layer Eltwise11
I0818 10:45:01.096345  2034 net.cpp:558] Eltwise11 <- Convolution23
I0818 10:45:01.096350  2034 net.cpp:558] Eltwise11 <- Convolution25
I0818 10:45:01.096359  2034 net.cpp:522] Eltwise11 -> Eltwise11
I0818 10:45:01.096390  2034 net.cpp:172] Setting up Eltwise11
I0818 10:45:01.096398  2034 net.cpp:186] Top shape: 10 64 8 8 (40960)
I0818 10:45:01.096402  2034 net.cpp:194] Memory required for data: 60907640
I0818 10:45:01.096406  2034 layer_factory.hpp:77] Creating layer ReLU23
I0818 10:45:01.096413  2034 net.cpp:128] Creating Layer ReLU23
I0818 10:45:01.096417  2034 net.cpp:558] ReLU23 <- Eltwise11
I0818 10:45:01.096423  2034 net.cpp:509] ReLU23 -> Eltwise11 (in-place)
I0818 10:45:01.096879  2034 net.cpp:172] Setting up ReLU23
I0818 10:45:01.096899  2034 net.cpp:186] Top shape: 10 64 8 8 (40960)
I0818 10:45:01.096904  2034 net.cpp:194] Memory required for data: 61071480
I0818 10:45:01.096909  2034 layer_factory.hpp:77] Creating layer Eltwise11_ReLU23_0_split
I0818 10:45:01.096922  2034 net.cpp:128] Creating Layer Eltwise11_ReLU23_0_split
I0818 10:45:01.096927  2034 net.cpp:558] Eltwise11_ReLU23_0_split <- Eltwise11
I0818 10:45:01.096935  2034 net.cpp:522] Eltwise11_ReLU23_0_split -> Eltwise11_ReLU23_0_split_0
I0818 10:45:01.096946  2034 net.cpp:522] Eltwise11_ReLU23_0_split -> Eltwise11_ReLU23_0_split_1
I0818 10:45:01.097007  2034 net.cpp:172] Setting up Eltwise11_ReLU23_0_split
I0818 10:45:01.097014  2034 net.cpp:186] Top shape: 10 64 8 8 (40960)
I0818 10:45:01.097020  2034 net.cpp:186] Top shape: 10 64 8 8 (40960)
I0818 10:45:01.097024  2034 net.cpp:194] Memory required for data: 61399160
I0818 10:45:01.097028  2034 layer_factory.hpp:77] Creating layer Convolution26
I0818 10:45:01.097041  2034 net.cpp:128] Creating Layer Convolution26
I0818 10:45:01.097046  2034 net.cpp:558] Convolution26 <- Eltwise11_ReLU23_0_split_0
I0818 10:45:01.097054  2034 net.cpp:522] Convolution26 -> Convolution26
I0818 10:45:01.099191  2034 net.cpp:172] Setting up Convolution26
I0818 10:45:01.099218  2034 net.cpp:186] Top shape: 10 64 8 8 (40960)
I0818 10:45:01.099223  2034 net.cpp:194] Memory required for data: 61563000
I0818 10:45:01.099233  2034 layer_factory.hpp:77] Creating layer BatchNorm26
I0818 10:45:01.099244  2034 net.cpp:128] Creating Layer BatchNorm26
I0818 10:45:01.099249  2034 net.cpp:558] BatchNorm26 <- Convolution26
I0818 10:45:01.099258  2034 net.cpp:509] BatchNorm26 -> Convolution26 (in-place)
I0818 10:45:01.099578  2034 net.cpp:172] Setting up BatchNorm26
I0818 10:45:01.099588  2034 net.cpp:186] Top shape: 10 64 8 8 (40960)
I0818 10:45:01.099593  2034 net.cpp:194] Memory required for data: 61726840
I0818 10:45:01.099603  2034 layer_factory.hpp:77] Creating layer Scale26
I0818 10:45:01.099613  2034 net.cpp:128] Creating Layer Scale26
I0818 10:45:01.099617  2034 net.cpp:558] Scale26 <- Convolution26
I0818 10:45:01.099623  2034 net.cpp:509] Scale26 -> Convolution26 (in-place)
I0818 10:45:01.099678  2034 layer_factory.hpp:77] Creating layer Scale26
I0818 10:45:01.099858  2034 net.cpp:172] Setting up Scale26
I0818 10:45:01.099865  2034 net.cpp:186] Top shape: 10 64 8 8 (40960)
I0818 10:45:01.099869  2034 net.cpp:194] Memory required for data: 61890680
I0818 10:45:01.099877  2034 layer_factory.hpp:77] Creating layer ReLU24
I0818 10:45:01.099884  2034 net.cpp:128] Creating Layer ReLU24
I0818 10:45:01.099887  2034 net.cpp:558] ReLU24 <- Convolution26
I0818 10:45:01.099895  2034 net.cpp:509] ReLU24 -> Convolution26 (in-place)
I0818 10:45:01.100149  2034 net.cpp:172] Setting up ReLU24
I0818 10:45:01.100180  2034 net.cpp:186] Top shape: 10 64 8 8 (40960)
I0818 10:45:01.100185  2034 net.cpp:194] Memory required for data: 62054520
I0818 10:45:01.100190  2034 layer_factory.hpp:77] Creating layer Convolution27
I0818 10:45:01.100203  2034 net.cpp:128] Creating Layer Convolution27
I0818 10:45:01.100208  2034 net.cpp:558] Convolution27 <- Convolution26
I0818 10:45:01.100220  2034 net.cpp:522] Convolution27 -> Convolution27
I0818 10:45:01.102181  2034 net.cpp:172] Setting up Convolution27
I0818 10:45:01.102207  2034 net.cpp:186] Top shape: 10 64 8 8 (40960)
I0818 10:45:01.102211  2034 net.cpp:194] Memory required for data: 62218360
I0818 10:45:01.102221  2034 layer_factory.hpp:77] Creating layer BatchNorm27
I0818 10:45:01.102241  2034 net.cpp:128] Creating Layer BatchNorm27
I0818 10:45:01.102250  2034 net.cpp:558] BatchNorm27 <- Convolution27
I0818 10:45:01.102257  2034 net.cpp:509] BatchNorm27 -> Convolution27 (in-place)
I0818 10:45:01.102566  2034 net.cpp:172] Setting up BatchNorm27
I0818 10:45:01.102577  2034 net.cpp:186] Top shape: 10 64 8 8 (40960)
I0818 10:45:01.102582  2034 net.cpp:194] Memory required for data: 62382200
I0818 10:45:01.102592  2034 layer_factory.hpp:77] Creating layer Scale27
I0818 10:45:01.102602  2034 net.cpp:128] Creating Layer Scale27
I0818 10:45:01.102612  2034 net.cpp:558] Scale27 <- Convolution27
I0818 10:45:01.102618  2034 net.cpp:509] Scale27 -> Convolution27 (in-place)
I0818 10:45:01.102687  2034 layer_factory.hpp:77] Creating layer Scale27
I0818 10:45:01.102860  2034 net.cpp:172] Setting up Scale27
I0818 10:45:01.102872  2034 net.cpp:186] Top shape: 10 64 8 8 (40960)
I0818 10:45:01.102877  2034 net.cpp:194] Memory required for data: 62546040
I0818 10:45:01.102885  2034 layer_factory.hpp:77] Creating layer Eltwise12
I0818 10:45:01.102895  2034 net.cpp:128] Creating Layer Eltwise12
I0818 10:45:01.102900  2034 net.cpp:558] Eltwise12 <- Eltwise11_ReLU23_0_split_1
I0818 10:45:01.102905  2034 net.cpp:558] Eltwise12 <- Convolution27
I0818 10:45:01.102913  2034 net.cpp:522] Eltwise12 -> Eltwise12
I0818 10:45:01.102943  2034 net.cpp:172] Setting up Eltwise12
I0818 10:45:01.102952  2034 net.cpp:186] Top shape: 10 64 8 8 (40960)
I0818 10:45:01.102955  2034 net.cpp:194] Memory required for data: 62709880
I0818 10:45:01.102959  2034 layer_factory.hpp:77] Creating layer ReLU25
I0818 10:45:01.102967  2034 net.cpp:128] Creating Layer ReLU25
I0818 10:45:01.102972  2034 net.cpp:558] ReLU25 <- Eltwise12
I0818 10:45:01.102977  2034 net.cpp:509] ReLU25 -> Eltwise12 (in-place)
I0818 10:45:01.103224  2034 net.cpp:172] Setting up ReLU25
I0818 10:45:01.103238  2034 net.cpp:186] Top shape: 10 64 8 8 (40960)
I0818 10:45:01.103242  2034 net.cpp:194] Memory required for data: 62873720
I0818 10:45:01.103247  2034 layer_factory.hpp:77] Creating layer Eltwise12_ReLU25_0_split
I0818 10:45:01.103260  2034 net.cpp:128] Creating Layer Eltwise12_ReLU25_0_split
I0818 10:45:01.103266  2034 net.cpp:558] Eltwise12_ReLU25_0_split <- Eltwise12
I0818 10:45:01.103272  2034 net.cpp:522] Eltwise12_ReLU25_0_split -> Eltwise12_ReLU25_0_split_0
I0818 10:45:01.103282  2034 net.cpp:522] Eltwise12_ReLU25_0_split -> Eltwise12_ReLU25_0_split_1
I0818 10:45:01.103341  2034 net.cpp:172] Setting up Eltwise12_ReLU25_0_split
I0818 10:45:01.103351  2034 net.cpp:186] Top shape: 10 64 8 8 (40960)
I0818 10:45:01.103358  2034 net.cpp:186] Top shape: 10 64 8 8 (40960)
I0818 10:45:01.103361  2034 net.cpp:194] Memory required for data: 63201400
I0818 10:45:01.103365  2034 layer_factory.hpp:77] Creating layer Convolution28
I0818 10:45:01.103377  2034 net.cpp:128] Creating Layer Convolution28
I0818 10:45:01.103382  2034 net.cpp:558] Convolution28 <- Eltwise12_ReLU25_0_split_0
I0818 10:45:01.103391  2034 net.cpp:522] Convolution28 -> Convolution28
I0818 10:45:01.105502  2034 net.cpp:172] Setting up Convolution28
I0818 10:45:01.105528  2034 net.cpp:186] Top shape: 10 64 8 8 (40960)
I0818 10:45:01.105533  2034 net.cpp:194] Memory required for data: 63365240
I0818 10:45:01.105547  2034 layer_factory.hpp:77] Creating layer BatchNorm28
I0818 10:45:01.105579  2034 net.cpp:128] Creating Layer BatchNorm28
I0818 10:45:01.105585  2034 net.cpp:558] BatchNorm28 <- Convolution28
I0818 10:45:01.105594  2034 net.cpp:509] BatchNorm28 -> Convolution28 (in-place)
I0818 10:45:01.105922  2034 net.cpp:172] Setting up BatchNorm28
I0818 10:45:01.105932  2034 net.cpp:186] Top shape: 10 64 8 8 (40960)
I0818 10:45:01.105937  2034 net.cpp:194] Memory required for data: 63529080
I0818 10:45:01.105947  2034 layer_factory.hpp:77] Creating layer Scale28
I0818 10:45:01.105957  2034 net.cpp:128] Creating Layer Scale28
I0818 10:45:01.105962  2034 net.cpp:558] Scale28 <- Convolution28
I0818 10:45:01.105968  2034 net.cpp:509] Scale28 -> Convolution28 (in-place)
I0818 10:45:01.106024  2034 layer_factory.hpp:77] Creating layer Scale28
I0818 10:45:01.106204  2034 net.cpp:172] Setting up Scale28
I0818 10:45:01.106214  2034 net.cpp:186] Top shape: 10 64 8 8 (40960)
I0818 10:45:01.106218  2034 net.cpp:194] Memory required for data: 63692920
I0818 10:45:01.106226  2034 layer_factory.hpp:77] Creating layer ReLU26
I0818 10:45:01.106232  2034 net.cpp:128] Creating Layer ReLU26
I0818 10:45:01.106240  2034 net.cpp:558] ReLU26 <- Convolution28
I0818 10:45:01.106246  2034 net.cpp:509] ReLU26 -> Convolution28 (in-place)
I0818 10:45:01.106500  2034 net.cpp:172] Setting up ReLU26
I0818 10:45:01.106513  2034 net.cpp:186] Top shape: 10 64 8 8 (40960)
I0818 10:45:01.106518  2034 net.cpp:194] Memory required for data: 63856760
I0818 10:45:01.106523  2034 layer_factory.hpp:77] Creating layer Convolution29
I0818 10:45:01.106535  2034 net.cpp:128] Creating Layer Convolution29
I0818 10:45:01.106542  2034 net.cpp:558] Convolution29 <- Convolution28
I0818 10:45:01.106555  2034 net.cpp:522] Convolution29 -> Convolution29
I0818 10:45:01.108497  2034 net.cpp:172] Setting up Convolution29
I0818 10:45:01.108523  2034 net.cpp:186] Top shape: 10 64 8 8 (40960)
I0818 10:45:01.108527  2034 net.cpp:194] Memory required for data: 64020600
I0818 10:45:01.108541  2034 layer_factory.hpp:77] Creating layer BatchNorm29
I0818 10:45:01.108552  2034 net.cpp:128] Creating Layer BatchNorm29
I0818 10:45:01.108561  2034 net.cpp:558] BatchNorm29 <- Convolution29
I0818 10:45:01.108568  2034 net.cpp:509] BatchNorm29 -> Convolution29 (in-place)
I0818 10:45:01.108886  2034 net.cpp:172] Setting up BatchNorm29
I0818 10:45:01.108896  2034 net.cpp:186] Top shape: 10 64 8 8 (40960)
I0818 10:45:01.108901  2034 net.cpp:194] Memory required for data: 64184440
I0818 10:45:01.108911  2034 layer_factory.hpp:77] Creating layer Scale29
I0818 10:45:01.108917  2034 net.cpp:128] Creating Layer Scale29
I0818 10:45:01.108922  2034 net.cpp:558] Scale29 <- Convolution29
I0818 10:45:01.108927  2034 net.cpp:509] Scale29 -> Convolution29 (in-place)
I0818 10:45:01.108986  2034 layer_factory.hpp:77] Creating layer Scale29
I0818 10:45:01.109163  2034 net.cpp:172] Setting up Scale29
I0818 10:45:01.109174  2034 net.cpp:186] Top shape: 10 64 8 8 (40960)
I0818 10:45:01.109177  2034 net.cpp:194] Memory required for data: 64348280
I0818 10:45:01.109185  2034 layer_factory.hpp:77] Creating layer Eltwise13
I0818 10:45:01.109192  2034 net.cpp:128] Creating Layer Eltwise13
I0818 10:45:01.109197  2034 net.cpp:558] Eltwise13 <- Eltwise12_ReLU25_0_split_1
I0818 10:45:01.109202  2034 net.cpp:558] Eltwise13 <- Convolution29
I0818 10:45:01.109210  2034 net.cpp:522] Eltwise13 -> Eltwise13
I0818 10:45:01.109242  2034 net.cpp:172] Setting up Eltwise13
I0818 10:45:01.109251  2034 net.cpp:186] Top shape: 10 64 8 8 (40960)
I0818 10:45:01.109256  2034 net.cpp:194] Memory required for data: 64512120
I0818 10:45:01.109259  2034 layer_factory.hpp:77] Creating layer ReLU27
I0818 10:45:01.109266  2034 net.cpp:128] Creating Layer ReLU27
I0818 10:45:01.109271  2034 net.cpp:558] ReLU27 <- Eltwise13
I0818 10:45:01.109275  2034 net.cpp:509] ReLU27 -> Eltwise13 (in-place)
I0818 10:45:01.109725  2034 net.cpp:172] Setting up ReLU27
I0818 10:45:01.109746  2034 net.cpp:186] Top shape: 10 64 8 8 (40960)
I0818 10:45:01.109750  2034 net.cpp:194] Memory required for data: 64675960
I0818 10:45:01.109755  2034 layer_factory.hpp:77] Creating layer Eltwise13_ReLU27_0_split
I0818 10:45:01.109781  2034 net.cpp:128] Creating Layer Eltwise13_ReLU27_0_split
I0818 10:45:01.109786  2034 net.cpp:558] Eltwise13_ReLU27_0_split <- Eltwise13
I0818 10:45:01.109797  2034 net.cpp:522] Eltwise13_ReLU27_0_split -> Eltwise13_ReLU27_0_split_0
I0818 10:45:01.109807  2034 net.cpp:522] Eltwise13_ReLU27_0_split -> Eltwise13_ReLU27_0_split_1
I0818 10:45:01.109870  2034 net.cpp:172] Setting up Eltwise13_ReLU27_0_split
I0818 10:45:01.109882  2034 net.cpp:186] Top shape: 10 64 8 8 (40960)
I0818 10:45:01.109889  2034 net.cpp:186] Top shape: 10 64 8 8 (40960)
I0818 10:45:01.109892  2034 net.cpp:194] Memory required for data: 65003640
I0818 10:45:01.109896  2034 layer_factory.hpp:77] Creating layer Convolution30
I0818 10:45:01.109910  2034 net.cpp:128] Creating Layer Convolution30
I0818 10:45:01.109917  2034 net.cpp:558] Convolution30 <- Eltwise13_ReLU27_0_split_0
I0818 10:45:01.109925  2034 net.cpp:522] Convolution30 -> Convolution30
I0818 10:45:01.112082  2034 net.cpp:172] Setting up Convolution30
I0818 10:45:01.112109  2034 net.cpp:186] Top shape: 10 64 8 8 (40960)
I0818 10:45:01.112114  2034 net.cpp:194] Memory required for data: 65167480
I0818 10:45:01.112125  2034 layer_factory.hpp:77] Creating layer BatchNorm30
I0818 10:45:01.112134  2034 net.cpp:128] Creating Layer BatchNorm30
I0818 10:45:01.112144  2034 net.cpp:558] BatchNorm30 <- Convolution30
I0818 10:45:01.112154  2034 net.cpp:509] BatchNorm30 -> Convolution30 (in-place)
I0818 10:45:01.112481  2034 net.cpp:172] Setting up BatchNorm30
I0818 10:45:01.112491  2034 net.cpp:186] Top shape: 10 64 8 8 (40960)
I0818 10:45:01.112495  2034 net.cpp:194] Memory required for data: 65331320
I0818 10:45:01.112505  2034 layer_factory.hpp:77] Creating layer Scale30
I0818 10:45:01.112512  2034 net.cpp:128] Creating Layer Scale30
I0818 10:45:01.112516  2034 net.cpp:558] Scale30 <- Convolution30
I0818 10:45:01.112522  2034 net.cpp:509] Scale30 -> Convolution30 (in-place)
I0818 10:45:01.112579  2034 layer_factory.hpp:77] Creating layer Scale30
I0818 10:45:01.112758  2034 net.cpp:172] Setting up Scale30
I0818 10:45:01.112771  2034 net.cpp:186] Top shape: 10 64 8 8 (40960)
I0818 10:45:01.112774  2034 net.cpp:194] Memory required for data: 65495160
I0818 10:45:01.112782  2034 layer_factory.hpp:77] Creating layer ReLU28
I0818 10:45:01.112788  2034 net.cpp:128] Creating Layer ReLU28
I0818 10:45:01.112793  2034 net.cpp:558] ReLU28 <- Convolution30
I0818 10:45:01.112799  2034 net.cpp:509] ReLU28 -> Convolution30 (in-place)
I0818 10:45:01.113056  2034 net.cpp:172] Setting up ReLU28
I0818 10:45:01.113072  2034 net.cpp:186] Top shape: 10 64 8 8 (40960)
I0818 10:45:01.113080  2034 net.cpp:194] Memory required for data: 65659000
I0818 10:45:01.113085  2034 layer_factory.hpp:77] Creating layer Convolution31
I0818 10:45:01.113097  2034 net.cpp:128] Creating Layer Convolution31
I0818 10:45:01.113104  2034 net.cpp:558] Convolution31 <- Convolution30
I0818 10:45:01.113112  2034 net.cpp:522] Convolution31 -> Convolution31
I0818 10:45:01.115089  2034 net.cpp:172] Setting up Convolution31
I0818 10:45:01.115114  2034 net.cpp:186] Top shape: 10 64 8 8 (40960)
I0818 10:45:01.115119  2034 net.cpp:194] Memory required for data: 65822840
I0818 10:45:01.115134  2034 layer_factory.hpp:77] Creating layer BatchNorm31
I0818 10:45:01.115149  2034 net.cpp:128] Creating Layer BatchNorm31
I0818 10:45:01.115154  2034 net.cpp:558] BatchNorm31 <- Convolution31
I0818 10:45:01.115161  2034 net.cpp:509] BatchNorm31 -> Convolution31 (in-place)
I0818 10:45:01.115486  2034 net.cpp:172] Setting up BatchNorm31
I0818 10:45:01.115497  2034 net.cpp:186] Top shape: 10 64 8 8 (40960)
I0818 10:45:01.115501  2034 net.cpp:194] Memory required for data: 65986680
I0818 10:45:01.115511  2034 layer_factory.hpp:77] Creating layer Scale31
I0818 10:45:01.115519  2034 net.cpp:128] Creating Layer Scale31
I0818 10:45:01.115523  2034 net.cpp:558] Scale31 <- Convolution31
I0818 10:45:01.115530  2034 net.cpp:509] Scale31 -> Convolution31 (in-place)
I0818 10:45:01.115588  2034 layer_factory.hpp:77] Creating layer Scale31
I0818 10:45:01.115789  2034 net.cpp:172] Setting up Scale31
I0818 10:45:01.115799  2034 net.cpp:186] Top shape: 10 64 8 8 (40960)
I0818 10:45:01.115803  2034 net.cpp:194] Memory required for data: 66150520
I0818 10:45:01.115813  2034 layer_factory.hpp:77] Creating layer Eltwise14
I0818 10:45:01.115818  2034 net.cpp:128] Creating Layer Eltwise14
I0818 10:45:01.115826  2034 net.cpp:558] Eltwise14 <- Eltwise13_ReLU27_0_split_1
I0818 10:45:01.115833  2034 net.cpp:558] Eltwise14 <- Convolution31
I0818 10:45:01.115841  2034 net.cpp:522] Eltwise14 -> Eltwise14
I0818 10:45:01.115872  2034 net.cpp:172] Setting up Eltwise14
I0818 10:45:01.115883  2034 net.cpp:186] Top shape: 10 64 8 8 (40960)
I0818 10:45:01.115887  2034 net.cpp:194] Memory required for data: 66314360
I0818 10:45:01.115891  2034 layer_factory.hpp:77] Creating layer ReLU29
I0818 10:45:01.115898  2034 net.cpp:128] Creating Layer ReLU29
I0818 10:45:01.115902  2034 net.cpp:558] ReLU29 <- Eltwise14
I0818 10:45:01.115908  2034 net.cpp:509] ReLU29 -> Eltwise14 (in-place)
I0818 10:45:01.116348  2034 net.cpp:172] Setting up ReLU29
I0818 10:45:01.116367  2034 net.cpp:186] Top shape: 10 64 8 8 (40960)
I0818 10:45:01.116371  2034 net.cpp:194] Memory required for data: 66478200
I0818 10:45:01.116377  2034 layer_factory.hpp:77] Creating layer Eltwise14_ReLU29_0_split
I0818 10:45:01.116386  2034 net.cpp:128] Creating Layer Eltwise14_ReLU29_0_split
I0818 10:45:01.116392  2034 net.cpp:558] Eltwise14_ReLU29_0_split <- Eltwise14
I0818 10:45:01.116403  2034 net.cpp:522] Eltwise14_ReLU29_0_split -> Eltwise14_ReLU29_0_split_0
I0818 10:45:01.116412  2034 net.cpp:522] Eltwise14_ReLU29_0_split -> Eltwise14_ReLU29_0_split_1
I0818 10:45:01.116482  2034 net.cpp:172] Setting up Eltwise14_ReLU29_0_split
I0818 10:45:01.116492  2034 net.cpp:186] Top shape: 10 64 8 8 (40960)
I0818 10:45:01.116497  2034 net.cpp:186] Top shape: 10 64 8 8 (40960)
I0818 10:45:01.116502  2034 net.cpp:194] Memory required for data: 66805880
I0818 10:45:01.116505  2034 layer_factory.hpp:77] Creating layer Convolution32
I0818 10:45:01.116518  2034 net.cpp:128] Creating Layer Convolution32
I0818 10:45:01.116523  2034 net.cpp:558] Convolution32 <- Eltwise14_ReLU29_0_split_0
I0818 10:45:01.116533  2034 net.cpp:522] Convolution32 -> Convolution32
I0818 10:45:01.118647  2034 net.cpp:172] Setting up Convolution32
I0818 10:45:01.118685  2034 net.cpp:186] Top shape: 10 64 8 8 (40960)
I0818 10:45:01.118690  2034 net.cpp:194] Memory required for data: 66969720
I0818 10:45:01.118703  2034 layer_factory.hpp:77] Creating layer BatchNorm32
I0818 10:45:01.118713  2034 net.cpp:128] Creating Layer BatchNorm32
I0818 10:45:01.118721  2034 net.cpp:558] BatchNorm32 <- Convolution32
I0818 10:45:01.118728  2034 net.cpp:509] BatchNorm32 -> Convolution32 (in-place)
I0818 10:45:01.119060  2034 net.cpp:172] Setting up BatchNorm32
I0818 10:45:01.119071  2034 net.cpp:186] Top shape: 10 64 8 8 (40960)
I0818 10:45:01.119074  2034 net.cpp:194] Memory required for data: 67133560
I0818 10:45:01.119086  2034 layer_factory.hpp:77] Creating layer Scale32
I0818 10:45:01.119092  2034 net.cpp:128] Creating Layer Scale32
I0818 10:45:01.119098  2034 net.cpp:558] Scale32 <- Convolution32
I0818 10:45:01.119104  2034 net.cpp:509] Scale32 -> Convolution32 (in-place)
I0818 10:45:01.119163  2034 layer_factory.hpp:77] Creating layer Scale32
I0818 10:45:01.119348  2034 net.cpp:172] Setting up Scale32
I0818 10:45:01.119359  2034 net.cpp:186] Top shape: 10 64 8 8 (40960)
I0818 10:45:01.119364  2034 net.cpp:194] Memory required for data: 67297400
I0818 10:45:01.119372  2034 layer_factory.hpp:77] Creating layer ReLU30
I0818 10:45:01.119379  2034 net.cpp:128] Creating Layer ReLU30
I0818 10:45:01.119382  2034 net.cpp:558] ReLU30 <- Convolution32
I0818 10:45:01.119388  2034 net.cpp:509] ReLU30 -> Convolution32 (in-place)
I0818 10:45:01.119846  2034 net.cpp:172] Setting up ReLU30
I0818 10:45:01.119869  2034 net.cpp:186] Top shape: 10 64 8 8 (40960)
I0818 10:45:01.119874  2034 net.cpp:194] Memory required for data: 67461240
I0818 10:45:01.119879  2034 layer_factory.hpp:77] Creating layer Convolution33
I0818 10:45:01.119910  2034 net.cpp:128] Creating Layer Convolution33
I0818 10:45:01.119915  2034 net.cpp:558] Convolution33 <- Convolution32
I0818 10:45:01.119923  2034 net.cpp:522] Convolution33 -> Convolution33
I0818 10:45:01.121901  2034 net.cpp:172] Setting up Convolution33
I0818 10:45:01.121927  2034 net.cpp:186] Top shape: 10 64 8 8 (40960)
I0818 10:45:01.121930  2034 net.cpp:194] Memory required for data: 67625080
I0818 10:45:01.121942  2034 layer_factory.hpp:77] Creating layer BatchNorm33
I0818 10:45:01.121951  2034 net.cpp:128] Creating Layer BatchNorm33
I0818 10:45:01.121958  2034 net.cpp:558] BatchNorm33 <- Convolution33
I0818 10:45:01.121968  2034 net.cpp:509] BatchNorm33 -> Convolution33 (in-place)
I0818 10:45:01.122288  2034 net.cpp:172] Setting up BatchNorm33
I0818 10:45:01.122300  2034 net.cpp:186] Top shape: 10 64 8 8 (40960)
I0818 10:45:01.122304  2034 net.cpp:194] Memory required for data: 67788920
I0818 10:45:01.122314  2034 layer_factory.hpp:77] Creating layer Scale33
I0818 10:45:01.122320  2034 net.cpp:128] Creating Layer Scale33
I0818 10:45:01.122325  2034 net.cpp:558] Scale33 <- Convolution33
I0818 10:45:01.122331  2034 net.cpp:509] Scale33 -> Convolution33 (in-place)
I0818 10:45:01.122390  2034 layer_factory.hpp:77] Creating layer Scale33
I0818 10:45:01.122575  2034 net.cpp:172] Setting up Scale33
I0818 10:45:01.122584  2034 net.cpp:186] Top shape: 10 64 8 8 (40960)
I0818 10:45:01.122589  2034 net.cpp:194] Memory required for data: 67952760
I0818 10:45:01.122596  2034 layer_factory.hpp:77] Creating layer Eltwise15
I0818 10:45:01.122606  2034 net.cpp:128] Creating Layer Eltwise15
I0818 10:45:01.122612  2034 net.cpp:558] Eltwise15 <- Eltwise14_ReLU29_0_split_1
I0818 10:45:01.122617  2034 net.cpp:558] Eltwise15 <- Convolution33
I0818 10:45:01.122623  2034 net.cpp:522] Eltwise15 -> Eltwise15
I0818 10:45:01.122673  2034 net.cpp:172] Setting up Eltwise15
I0818 10:45:01.122685  2034 net.cpp:186] Top shape: 10 64 8 8 (40960)
I0818 10:45:01.122690  2034 net.cpp:194] Memory required for data: 68116600
I0818 10:45:01.122695  2034 layer_factory.hpp:77] Creating layer ReLU31
I0818 10:45:01.122701  2034 net.cpp:128] Creating Layer ReLU31
I0818 10:45:01.122705  2034 net.cpp:558] ReLU31 <- Eltwise15
I0818 10:45:01.122711  2034 net.cpp:509] ReLU31 -> Eltwise15 (in-place)
I0818 10:45:01.122967  2034 net.cpp:172] Setting up ReLU31
I0818 10:45:01.122980  2034 net.cpp:186] Top shape: 10 64 8 8 (40960)
I0818 10:45:01.122984  2034 net.cpp:194] Memory required for data: 68280440
I0818 10:45:01.122989  2034 layer_factory.hpp:77] Creating layer Pooling1
I0818 10:45:01.122997  2034 net.cpp:128] Creating Layer Pooling1
I0818 10:45:01.123003  2034 net.cpp:558] Pooling1 <- Eltwise15
I0818 10:45:01.123011  2034 net.cpp:522] Pooling1 -> Pooling1
I0818 10:45:01.123284  2034 net.cpp:172] Setting up Pooling1
I0818 10:45:01.123298  2034 net.cpp:186] Top shape: 10 64 1 1 (640)
I0818 10:45:01.123303  2034 net.cpp:194] Memory required for data: 68283000
I0818 10:45:01.123307  2034 layer_factory.hpp:77] Creating layer InnerProduct1
I0818 10:45:01.123319  2034 net.cpp:128] Creating Layer InnerProduct1
I0818 10:45:01.123324  2034 net.cpp:558] InnerProduct1 <- Pooling1
I0818 10:45:01.123333  2034 net.cpp:522] InnerProduct1 -> InnerProduct1
I0818 10:45:01.123517  2034 net.cpp:172] Setting up InnerProduct1
I0818 10:45:01.123529  2034 net.cpp:186] Top shape: 10 10 (100)
I0818 10:45:01.123533  2034 net.cpp:194] Memory required for data: 68283400
I0818 10:45:01.123543  2034 layer_factory.hpp:77] Creating layer InnerProduct1_InnerProduct1_0_split
I0818 10:45:01.123553  2034 net.cpp:128] Creating Layer InnerProduct1_InnerProduct1_0_split
I0818 10:45:01.123558  2034 net.cpp:558] InnerProduct1_InnerProduct1_0_split <- InnerProduct1
I0818 10:45:01.123564  2034 net.cpp:522] InnerProduct1_InnerProduct1_0_split -> InnerProduct1_InnerProduct1_0_split_0
I0818 10:45:01.123571  2034 net.cpp:522] InnerProduct1_InnerProduct1_0_split -> InnerProduct1_InnerProduct1_0_split_1
I0818 10:45:01.123627  2034 net.cpp:172] Setting up InnerProduct1_InnerProduct1_0_split
I0818 10:45:01.123652  2034 net.cpp:186] Top shape: 10 10 (100)
I0818 10:45:01.123658  2034 net.cpp:186] Top shape: 10 10 (100)
I0818 10:45:01.123661  2034 net.cpp:194] Memory required for data: 68284200
I0818 10:45:01.123667  2034 layer_factory.hpp:77] Creating layer SoftmaxWithLoss1
I0818 10:45:01.123673  2034 net.cpp:128] Creating Layer SoftmaxWithLoss1
I0818 10:45:01.123678  2034 net.cpp:558] SoftmaxWithLoss1 <- InnerProduct1_InnerProduct1_0_split_0
I0818 10:45:01.123687  2034 net.cpp:558] SoftmaxWithLoss1 <- Data2_Data1_1_split_0
…
