…
I0929 16:32:16.357457 25496 upgrade_proto.cpp:82] Successfully upgraded batch norm layers using deprecated params.
I0929 16:32:16.358860 25496 net.cpp:82] Initializing net from parameters: 
name: "ResNet-32"
state {
  phase: TRAIN
  level: 0
  stage: ""
}
layer {
  name: "Data1"
  type: "Data"
  top: "data"
  top: "label"
  transform_param {
    scale: 0.00390625
    mirror: true
    crop_size: 32
    mean_value: 125.3
    mean_value: 122.9
    mean_value: 113.8
  }
  data_param {
    source: "/home/lijianfei/datasets/cifar10_40/train_lmdb"
    batch_size: 128
    backend: LMDB
  }
  image_data_param {
    shuffle: true
  }
}
layer {
  name: "conv1"
  type: "Convolution"
  bottom: "data"
  top: "conv1"
  param {
    lr_mult: 1
    decay_mult: 1
  }
  param {
    lr_mult: 2
    decay_mult: 0
  }
  convolution_param {
    num_output: 16
    bias_term: true
    pad: 1
    kernel_size: 3
    stride: 1
    weight_filler {
      type: "msra"
    }
    bias_filler {
      type: "constant"
      value: 0
    }
  }
}
layer {
  name: "conv1/bn"
  type: "BatchNorm"
  bottom: "conv1"
  top: "conv1"
  param {
    lr_mult: 0
    decay_mult: 0
  }
  param {
    lr_mult: 0
    decay_mult: 0
  }
  param {
    lr_mult: 0
    decay_mult: 0
  }
  batch_norm_param {
    use_global_stats: false
  }
}
layer {
  name: "conv1/scale"
  type: "Scale"
  bottom: "conv1"
  top: "conv1"
  scale_param {
    bias_term: true
  }
}
layer {
  name: "conv1/ReLU"
  type: "ReLU"
  bottom: "conv1"
  top: "conv1"
}
layer {
  name: "conv2_1_0"
  type: "Convolution"
  bottom: "conv1"
  top: "conv2_1_0"
  param {
    lr_mult: 1
    decay_mult: 1
  }
  param {
    lr_mult: 2
    decay_mult: 0
  }
  convolution_param {
    num_output: 16
    bias_term: true
    pad: 1
    kernel_size: 3
    stride: 1
    weight_filler {
      type: "msra"
    }
    bias_filler {
      type: "constant"
      value: 0
    }
  }
}
layer {
  name: "conv2_1_bn0"
  type: "BatchNorm"
  bottom: "conv2_1_0"
  top: "conv2_1_0"
  param {
    lr_mult: 0
    decay_mult: 0
  }
  param {
    lr_mult: 0
    decay_mult: 0
  }
  param {
    lr_mult: 0
    decay_mult: 0
  }
  batch_norm_param {
    use_global_stats: false
  }
}
layer {
  name: "conv2_1_scale0"
  type: "Scale"
  bottom: "conv2_1_0"
  top: "conv2_1_0"
  scale_param {
    bias_term: true
  }
}
layer {
  name: "conv2_1_ReLU0"
  type: "ReLU"
  bottom: "conv2_1_0"
  top: "conv2_1_0"
}
layer {
  name: "conv2_1_1"
  type: "Convolution"
  bottom: "conv2_1_0"
  top: "conv2_1_1"
  param {
    lr_mult: 1
    decay_mult: 1
  }
  param {
    lr_mult: 2
    decay_mult: 0
  }
  convolution_param {
    num_output: 16
    bias_term: true
    pad: 1
    kernel_size: 3
    stride: 1
    weight_filler {
      type: "msra"
    }
    bias_filler {
      type: "constant"
      value: 0
    }
  }
}
layer {
  name: "conv2_1bn1"
  type: "BatchNorm"
  bottom: "conv2_1_1"
  top: "conv2_1_1"
  param {
    lr_mult: 0
    decay_mult: 0
  }
  param {
    lr_mult: 0
    decay_mult: 0
  }
  param {
    lr_mult: 0
    decay_mult: 0
  }
  batch_norm_param {
    use_global_stats: false
  }
}
layer {
  name: "conv2_1_scale1"
  type: "Scale"
  bottom: "conv2_1_1"
  top: "conv2_1_1"
  scale_param {
    bias_term: true
  }
}
layer {
  name: "conv2_Eltwise_1"
  type: "Eltwise"
  bottom: "conv1"
  bottom: "conv2_1_1"
  top: "conv2_Eltwise_1"
  eltwise_param {
    operation: SUM
  }
}
layer {
  name: "conv2_1ReLU_1"
  type: "ReLU"
  bottom: "conv2_Eltwise_1"
  top: "conv2_Eltwise_1"
}
layer {
  name: "conv2_2_0"
  type: "Convolution"
  bottom: "conv2_Eltwise_1"
  top: "conv2_2_0"
  param {
    lr_mult: 1
    decay_mult: 1
  }
  param {
    lr_mult: 2
    decay_mult: 0
  }
  convolution_param {
    num_output: 16
    bias_term: true
    pad: 1
    kernel_size: 3
    stride: 1
    weight_filler {
      type: "msra"
    }
    bias_filler {
      type: "constant"
      value: 0
    }
  }
}
layer {
  name: "conv2_2_bn0"
  type: "BatchNorm"
  bottom: "conv2_2_0"
  top: "conv2_2_0"
  param {
    lr_mult: 0
    decay_mult: 0
  }
  param {
    lr_mult: 0
    decay_mult: 0
  }
  param {
    lr_mult: 0
    decay_mult: 0
  }
  batch_norm_param {
    use_global_stats: false
  }
}
layer {
  name: "conv2_2_scale0"
  type: "Scale"
  bottom: "conv2_2_0"
  top: "conv2_2_0"
  scale_param {
    bias_term: true
  }
}
layer {
  name: "conv2_2_ReLU0"
  type: "ReLU"
  bottom: "conv2_2_0"
  top: "conv2_2_0"
}
layer {
  name: "conv2_2_1"
  type: "Convolution"
  bottom: "conv2_2_0"
  top: "conv2_2_1"
  param {
    lr_mult: 1
    decay_mult: 1
  }
  param {
    lr_mult: 2
    decay_mult: 0
  }
  convolution_param {
    num_output: 16
    bias_term: true
    pad: 1
    kernel_size: 3
    stride: 1
    weight_filler {
      type: "msra"
    }
    bias_filler {
      type: "constant"
      value: 0
    }
  }
}
layer {
  name: "conv2_2bn1"
  type: "BatchNorm"
  bottom: "conv2_2_1"
  top: "conv2_2_1"
  param {
    lr_mult: 0
    decay_mult: 0
  }
  param {
    lr_mult: 0
    decay_mult: 0
  }
  param {
    lr_mult: 0
    decay_mult: 0
  }
  batch_norm_param {
    use_global_stats: false
  }
}
layer {
  name: "conv2_2_scale1"
  type: "Scale"
  bottom: "conv2_2_1"
  top: "conv2_2_1"
  scale_param {
    bias_term: true
  }
}
layer {
  name: "conv2_Eltwise_2"
  type: "Eltwise"
  bottom: "conv2_Eltwise_1"
  bottom: "conv2_2_1"
  top: "conv2_Eltwise_2"
  eltwise_param {
    operation: SUM
  }
}
layer {
  name: "conv2_2ReLU_1"
  type: "ReLU"
  bottom: "conv2_Eltwise_2"
  top: "conv2_Eltwise_2"
}
layer {
  name: "conv2_3_0"
  type: "Convolution"
  bottom: "conv2_Eltwise_2"
  top: "conv2_3_0"
  param {
    lr_mult: 1
    decay_mult: 1
  }
  param {
    lr_mult: 2
    decay_mult: 0
  }
  convolution_param {
    num_output: 16
    bias_term: true
    pad: 1
    kernel_size: 3
    stride: 1
    weight_filler {
      type: "msra"
    }
    bias_filler {
      type: "constant"
      value: 0
    }
  }
}
layer {
  name: "conv2_3_bn0"
  type: "BatchNorm"
  bottom: "conv2_3_0"
  top: "conv2_3_0"
  param {
    lr_mult: 0
    decay_mult: 0
  }
  param {
    lr_mult: 0
    decay_mult: 0
  }
  param {
    lr_mult: 0
    decay_mult: 0
  }
  batch_norm_param {
    use_global_stats: false
  }
}
layer {
  name: "conv2_3_scale0"
  type: "Scale"
  bottom: "conv2_3_0"
  top: "conv2_3_0"
  scale_param {
    bias_term: true
  }
}
layer {
  name: "conv2_3_ReLU0"
  type: "ReLU"
  bottom: "conv2_3_0"
  top: "conv2_3_0"
}
layer {
  name: "conv2_3_1"
  type: "Convolution"
  bottom: "conv2_3_0"
  top: "conv2_3_1"
  param {
    lr_mult: 1
    decay_mult: 1
  }
  param {
    lr_mult: 2
    decay_mult: 0
  }
  convolution_param {
    num_output: 16
    bias_term: true
    pad: 1
    kernel_size: 3
    stride: 1
    weight_filler {
      type: "msra"
    }
    bias_filler {
      type: "constant"
      value: 0
    }
  }
}
layer {
  name: "conv2_3bn1"
  type: "BatchNorm"
  bottom: "conv2_3_1"
  top: "conv2_3_1"
  param {
    lr_mult: 0
    decay_mult: 0
  }
  param {
    lr_mult: 0
    decay_mult: 0
  }
  param {
    lr_mult: 0
    decay_mult: 0
  }
  batch_norm_param {
    use_global_stats: false
  }
}
layer {
  name: "conv2_3_scale1"
  type: "Scale"
  bottom: "conv2_3_1"
  top: "conv2_3_1"
  scale_param {
    bias_term: true
  }
}
layer {
  name: "conv2_Eltwise_3"
  type: "Eltwise"
  bottom: "conv2_Eltwise_2"
  bottom: "conv2_3_1"
  top: "conv2_Eltwise_3"
  eltwise_param {
    operation: SUM
  }
}
layer {
  name: "conv2_3ReLU_1"
  type: "ReLU"
  bottom: "conv2_Eltwise_3"
  top: "conv2_Eltwise_3"
}
layer {
  name: "conv2_4_0"
  type: "Convolution"
  bottom: "conv2_Eltwise_3"
  top: "conv2_4_0"
  param {
    lr_mult: 1
    decay_mult: 1
  }
  param {
    lr_mult: 2
    decay_mult: 0
  }
  convolution_param {
    num_output: 16
    bias_term: true
    pad: 1
    kernel_size: 3
    stride: 1
    weight_filler {
      type: "msra"
    }
    bias_filler {
      type: "constant"
      value: 0
    }
  }
}
layer {
  name: "conv2_4_bn0"
  type: "BatchNorm"
  bottom: "conv2_4_0"
  top: "conv2_4_0"
  param {
    lr_mult: 0
    decay_mult: 0
  }
  param {
    lr_mult: 0
    decay_mult: 0
  }
  param {
    lr_mult: 0
    decay_mult: 0
  }
  batch_norm_param {
    use_global_stats: false
  }
}
layer {
  name: "conv2_4_scale0"
  type: "Scale"
  bottom: "conv2_4_0"
  top: "conv2_4_0"
  scale_param {
    bias_term: true
  }
}
layer {
  name: "conv2_4_ReLU0"
  type: "ReLU"
  bottom: "conv2_4_0"
  top: "conv2_4_0"
}
layer {
  name: "conv2_4_1"
  type: "Convolution"
  bottom: "conv2_4_0"
  top: "conv2_4_1"
  param {
    lr_mult: 1
    decay_mult: 1
  }
  param {
    lr_mult: 2
    decay_mult: 0
  }
  convolution_param {
    num_output: 16
    bias_term: true
    pad: 1
    kernel_size: 3
    stride: 1
    weight_filler {
      type: "msra"
    }
    bias_filler {
      type: "constant"
      value: 0
    }
  }
}
layer {
  name: "conv2_4bn1"
  type: "BatchNorm"
  bottom: "conv2_4_1"
  top: "conv2_4_1"
  param {
    lr_mult: 0
    decay_mult: 0
  }
  param {
    lr_mult: 0
    decay_mult: 0
  }
  param {
    lr_mult: 0
    decay_mult: 0
  }
  batch_norm_param {
    use_global_stats: false
  }
}
layer {
  name: "conv2_4_scale1"
  type: "Scale"
  bottom: "conv2_4_1"
  top: "conv2_4_1"
  scale_param {
    bias_term: true
  }
}
layer {
  name: "conv2_Eltwise_4"
  type: "Eltwise"
  bottom: "conv2_Eltwise_3"
  bottom: "conv2_4_1"
  top: "conv2_Eltwise_4"
  eltwise_param {
    operation: SUM
  }
}
layer {
  name: "conv2_4ReLU_1"
  type: "ReLU"
  bottom: "conv2_Eltwise_4"
  top: "conv2_Eltwise_4"
}
layer {
  name: "conv2_5_0"
  type: "Convolution"
  bottom: "conv2_Eltwise_4"
  top: "conv2_5_0"
  param {
    lr_mult: 1
    decay_mult: 1
  }
  param {
    lr_mult: 2
    decay_mult: 0
  }
  convolution_param {
    num_output: 16
    bias_term: true
    pad: 1
    kernel_size: 3
    stride: 1
    weight_filler {
      type: "msra"
    }
    bias_filler {
      type: "constant"
      value: 0
    }
  }
}
layer {
  name: "conv2_5_bn0"
  type: "BatchNorm"
  bottom: "conv2_5_0"
  top: "conv2_5_0"
  param {
    lr_mult: 0
    decay_mult: 0
  }
  param {
    lr_mult: 0
    decay_mult: 0
  }
  param {
    lr_mult: 0
    decay_mult: 0
  }
  batch_norm_param {
    use_global_stats: false
  }
}
layer {
  name: "conv2_5_scale0"
  type: "Scale"
  bottom: "conv2_5_0"
  top: "conv2_5_0"
  scale_param {
    bias_term: true
  }
}
layer {
  name: "conv2_5_ReLU0"
  type: "ReLU"
  bottom: "conv2_5_0"
  top: "conv2_5_0"
}
layer {
  name: "conv2_5_1"
  type: "Convolution"
  bottom: "conv2_5_0"
  top: "conv2_5_1"
  param {
    lr_mult: 1
    decay_mult: 1
  }
  param {
    lr_mult: 2
    decay_mult: 0
  }
  convolution_param {
    num_output: 16
    bias_term: true
    pad: 1
    kernel_size: 3
    stride: 1
    weight_filler {
      type: "msra"
    }
    bias_filler {
      type: "constant"
      value: 0
    }
  }
}
layer {
  name: "conv2_5bn1"
  type: "BatchNorm"
  bottom: "conv2_5_1"
  top: "conv2_5_1"
  param {
    lr_mult: 0
    decay_mult: 0
  }
  param {
    lr_mult: 0
    decay_mult: 0
  }
  param {
    lr_mult: 0
    decay_mult: 0
  }
  batch_norm_param {
    use_global_stats: false
  }
}
layer {
  name: "conv2_5_scale1"
  type: "Scale"
  bottom: "conv2_5_1"
  top: "conv2_5_1"
  scale_param {
    bias_term: true
  }
}
layer {
  name: "conv2_Eltwise_5"
  type: "Eltwise"
  bottom: "conv2_Eltwise_4"
  bottom: "conv2_5_1"
  top: "conv2_Eltwise_5"
  eltwise_param {
    operation: SUM
  }
}
layer {
  name: "conv2_5ReLU_1"
  type: "ReLU"
  bottom: "conv2_Eltwise_5"
  top: "conv2_Eltwise_5"
}
layer {
  name: "conv3_1_0"
  type: "Convolution"
  bottom: "conv2_Eltwise_5"
  top: "conv3_1_0"
  param {
    lr_mult: 1
    decay_mult: 1
  }
  param {
    lr_mult: 2
    decay_mult: 0
  }
  convolution_param {
    num_output: 32
    bias_term: true
    pad: 1
    kernel_size: 3
    stride: 2
    weight_filler {
      type: "msra"
    }
    bias_filler {
      type: "constant"
      value: 0
    }
  }
}
layer {
  name: "conv3_1_bn0"
  type: "BatchNorm"
  bottom: "conv3_1_0"
  top: "conv3_1_0"
  param {
    lr_mult: 0
    decay_mult: 0
  }
  param {
    lr_mult: 0
    decay_mult: 0
  }
  param {
    lr_mult: 0
    decay_mult: 0
  }
  batch_norm_param {
    use_global_stats: false
  }
}
layer {
  name: "conv3_1_scale0"
  type: "Scale"
  bottom: "conv3_1_0"
  top: "conv3_1_0"
  scale_param {
    bias_term: true
  }
}
layer {
  name: "conv3_1_ReLU0"
  type: "ReLU"
  bottom: "conv3_1_0"
  top: "conv3_1_0"
}
layer {
  name: "conv3_1_1"
  type: "Convolution"
  bottom: "conv3_1_0"
  top: "conv3_1_1"
  param {
    lr_mult: 1
    decay_mult: 1
  }
  param {
    lr_mult: 2
    decay_mult: 0
  }
  convolution_param {
    num_output: 32
    bias_term: true
    pad: 1
    kernel_size: 3
    stride: 1
    weight_filler {
      type: "msra"
    }
    bias_filler {
      type: "constant"
      value: 0
    }
  }
}
layer {
  name: "conv3_1bn1"
  type: "BatchNorm"
  bottom: "conv3_1_1"
  top: "conv3_1_1"
  param {
    lr_mult: 0
    decay_mult: 0
  }
  param {
    lr_mult: 0
    decay_mult: 0
  }
  param {
    lr_mult: 0
    decay_mult: 0
  }
  batch_norm_param {
    use_global_stats: false
  }
}
layer {
  name: "conv3_1_scale1"
  type: "Scale"
  bottom: "conv3_1_1"
  top: "conv3_1_1"
  scale_param {
    bias_term: true
  }
}
layer {
  name: "conv3_1_down"
  type: "Convolution"
  bottom: "conv2_Eltwise_5"
  top: "conv3_1_down"
  param {
    lr_mult: 1
    decay_mult: 1
  }
  param {
    lr_mult: 2
    decay_mult: 0
  }
  convolution_param {
    num_output: 32
    bias_term: true
    pad: 0
    kernel_size: 1
    stride: 2
    weight_filler {
      type: "msra"
    }
    bias_filler {
      type: "constant"
      value: 0
    }
  }
}
layer {
  name: "conv3_1_bn_down"
  type: "BatchNorm"
  bottom: "conv3_1_down"
  top: "conv3_1_down"
  param {
    lr_mult: 0
    decay_mult: 0
  }
  param {
    lr_mult: 0
    decay_mult: 0
  }
  param {
    lr_mult: 0
    decay_mult: 0
  }
  batch_norm_param {
    use_global_stats: false
  }
}
layer {
  name: "conv3_1_scale_down"
  type: "Scale"
  bottom: "conv3_1_down"
  top: "conv3_1_down"
  scale_param {
    bias_term: true
  }
}
layer {
  name: "conv3_Eltwise_1"
  type: "Eltwise"
  bottom: "conv3_1_1"
  bottom: "conv3_1_down"
  top: "conv3_Eltwise_1"
  eltwise_param {
    operation: SUM
  }
}
layer {
  name: "conv3_1ReLU_1"
  type: "ReLU"
  bottom: "conv3_Eltwise_1"
  top: "conv3_Eltwise_1"
}
layer {
  name: "conv3_2_0"
  type: "Convolution"
  bottom: "conv3_Eltwise_1"
  top: "conv3_2_0"
  param {
    lr_mult: 1
    decay_mult: 1
  }
  param {
    lr_mult: 2
    decay_mult: 0
  }
  convolution_param {
    num_output: 32
    bias_term: true
    pad: 1
    kernel_size: 3
    stride: 1
    weight_filler {
      type: "msra"
    }
    bias_filler {
      type: "constant"
      value: 0
    }
  }
}
layer {
  name: "conv3_2_bn0"
  type: "BatchNorm"
  bottom: "conv3_2_0"
  top: "conv3_2_0"
  param {
    lr_mult: 0
    decay_mult: 0
  }
  param {
    lr_mult: 0
    decay_mult: 0
  }
  param {
    lr_mult: 0
    decay_mult: 0
  }
  batch_norm_param {
    use_global_stats: false
  }
}
layer {
  name: "conv3_2_scale0"
  type: "Scale"
  bottom: "conv3_2_0"
  top: "conv3_2_0"
  scale_param {
    bias_term: true
  }
}
layer {
  name: "conv3_2_ReLU0"
  type: "ReLU"
  bottom: "conv3_2_0"
  top: "conv3_2_0"
}
layer {
  name: "conv3_2_1"
  type: "Convolution"
  bottom: "conv3_2_0"
  top: "conv3_2_1"
  param {
    lr_mult: 1
    decay_mult: 1
  }
  param {
    lr_mult: 2
    decay_mult: 0
  }
  convolution_param {
    num_output: 32
    bias_term: true
    pad: 1
    kernel_size: 3
    stride: 1
    weight_filler {
      type: "msra"
    }
    bias_filler {
      type: "constant"
      value: 0
    }
  }
}
layer {
  name: "conv3_2bn1"
  type: "BatchNorm"
  bottom: "conv3_2_1"
  top: "conv3_2_1"
  param {
    lr_mult: 0
    decay_mult: 0
  }
  param {
    lr_mult: 0
    decay_mult: 0
  }
  param {
    lr_mult: 0
    decay_mult: 0
  }
  batch_norm_param {
    use_global_stats: false
  }
}
layer {
  name: "conv3_2_scale1"
  type: "Scale"
  bottom: "conv3_2_1"
  top: "conv3_2_1"
  scale_param {
    bias_term: true
  }
}
layer {
  name: "conv3_Eltwise_2"
  type: "Eltwise"
  bottom: "conv3_Eltwise_1"
  bottom: "conv3_2_1"
  top: "conv3_Eltwise_2"
  eltwise_param {
    operation: SUM
  }
}
layer {
  name: "conv3_2ReLU_1"
  type: "ReLU"
  bottom: "conv3_Eltwise_2"
  top: "conv3_Eltwise_2"
}
layer {
  name: "conv3_3_0"
  type: "Convolution"
  bottom: "conv3_Eltwise_2"
  top: "conv3_3_0"
  param {
    lr_mult: 1
    decay_mult: 1
  }
  param {
    lr_mult: 2
    decay_mult: 0
  }
  convolution_param {
    num_output: 32
    bias_term: true
    pad: 1
    kernel_size: 3
    stride: 1
    weight_filler {
      type: "msra"
    }
    bias_filler {
      type: "constant"
      value: 0
    }
  }
}
layer {
  name: "conv3_3_bn0"
  type: "BatchNorm"
  bottom: "conv3_3_0"
  top: "conv3_3_0"
  param {
    lr_mult: 0
    decay_mult: 0
  }
  param {
    lr_mult: 0
    decay_mult: 0
  }
  param {
    lr_mult: 0
    decay_mult: 0
  }
  batch_norm_param {
    use_global_stats: false
  }
}
layer {
  name: "conv3_3_scale0"
  type: "Scale"
  bottom: "conv3_3_0"
  top: "conv3_3_0"
  scale_param {
    bias_term: true
  }
}
layer {
  name: "conv3_3_ReLU0"
  type: "ReLU"
  bottom: "conv3_3_0"
  top: "conv3_3_0"
}
layer {
  name: "conv3_3_1"
  type: "Convolution"
  bottom: "conv3_3_0"
  top: "conv3_3_1"
  param {
    lr_mult: 1
    decay_mult: 1
  }
  param {
    lr_mult: 2
    decay_mult: 0
  }
  convolution_param {
    num_output: 32
    bias_term: true
    pad: 1
    kernel_size: 3
    stride: 1
    weight_filler {
      type: "msra"
    }
    bias_filler {
      type: "constant"
      value: 0
    }
  }
}
layer {
  name: "conv3_3bn1"
  type: "BatchNorm"
  bottom: "conv3_3_1"
  top: "conv3_3_1"
  param {
    lr_mult: 0
    decay_mult: 0
  }
  param {
    lr_mult: 0
    decay_mult: 0
  }
  param {
    lr_mult: 0
    decay_mult: 0
  }
  batch_norm_param {
    use_global_stats: false
  }
}
layer {
  name: "conv3_3_scale1"
  type: "Scale"
  bottom: "conv3_3_1"
  top: "conv3_3_1"
  scale_param {
    bias_term: true
  }
}
layer {
  name: "conv3_Eltwise_3"
  type: "Eltwise"
  bottom: "conv3_Eltwise_2"
  bottom: "conv3_3_1"
  top: "conv3_Eltwise_3"
  eltwise_param {
    operation: SUM
  }
}
layer {
  name: "conv3_3ReLU_1"
  type: "ReLU"
  bottom: "conv3_Eltwise_3"
  top: "conv3_Eltwise_3"
}
layer {
  name: "conv3_4_0"
  type: "Convolution"
  bottom: "conv3_Eltwise_3"
  top: "conv3_4_0"
  param {
    lr_mult: 1
    decay_mult: 1
  }
  param {
    lr_mult: 2
    decay_mult: 0
  }
  convolution_param {
    num_output: 32
    bias_term: true
    pad: 1
    kernel_size: 3
    stride: 1
    weight_filler {
      type: "msra"
    }
    bias_filler {
      type: "constant"
      value: 0
    }
  }
}
layer {
  name: "conv3_4_bn0"
  type: "BatchNorm"
  bottom: "conv3_4_0"
  top: "conv3_4_0"
  param {
    lr_mult: 0
    decay_mult: 0
  }
  param {
    lr_mult: 0
    decay_mult: 0
  }
  param {
    lr_mult: 0
    decay_mult: 0
  }
  batch_norm_param {
    use_global_stats: false
  }
}
layer {
  name: "conv3_4_scale0"
  type: "Scale"
  bottom: "conv3_4_0"
  top: "conv3_4_0"
  scale_param {
    bias_term: true
  }
}
layer {
  name: "conv3_4_ReLU0"
  type: "ReLU"
  bottom: "conv3_4_0"
  top: "conv3_4_0"
}
layer {
  name: "conv3_4_1"
  type: "Convolution"
  bottom: "conv3_4_0"
  top: "conv3_4_1"
  param {
    lr_mult: 1
    decay_mult: 1
  }
  param {
    lr_mult: 2
    decay_mult: 0
  }
  convolution_param {
    num_output: 32
    bias_term: true
    pad: 1
    kernel_size: 3
    stride: 1
    weight_filler {
      type: "msra"
    }
    bias_filler {
      type: "constant"
      value: 0
    }
  }
}
layer {
  name: "conv3_4bn1"
  type: "BatchNorm"
  bottom: "conv3_4_1"
  top: "conv3_4_1"
  param {
    lr_mult: 0
    decay_mult: 0
  }
  param {
    lr_mult: 0
    decay_mult: 0
  }
  param {
    lr_mult: 0
    decay_mult: 0
  }
  batch_norm_param {
    use_global_stats: false
  }
}
layer {
  name: "conv3_4_scale1"
  type: "Scale"
  bottom: "conv3_4_1"
  top: "conv3_4_1"
  scale_param {
    bias_term: true
  }
}
layer {
  name: "conv3_Eltwise_4"
  type: "Eltwise"
  bottom: "conv3_Eltwise_3"
  bottom: "conv3_4_1"
  top: "conv3_Eltwise_4"
  eltwise_param {
    operation: SUM
  }
}
layer {
  name: "conv3_4ReLU_1"
  type: "ReLU"
  bottom: "conv3_Eltwise_4"
  top: "conv3_Eltwise_4"
}
layer {
  name: "conv3_5_0"
  type: "Convolution"
  bottom: "conv3_Eltwise_4"
  top: "conv3_5_0"
  param {
    lr_mult: 1
    decay_mult: 1
  }
  param {
    lr_mult: 2
    decay_mult: 0
  }
  convolution_param {
    num_output: 32
    bias_term: true
    pad: 1
    kernel_size: 3
    stride: 1
    weight_filler {
      type: "msra"
    }
    bias_filler {
      type: "constant"
      value: 0
    }
  }
}
layer {
  name: "conv3_5_bn0"
  type: "BatchNorm"
  bottom: "conv3_5_0"
  top: "conv3_5_0"
  param {
    lr_mult: 0
    decay_mult: 0
  }
  param {
    lr_mult: 0
    decay_mult: 0
  }
  param {
    lr_mult: 0
    decay_mult: 0
  }
  batch_norm_param {
    use_global_stats: false
  }
}
layer {
  name: "conv3_5_scale0"
  type: "Scale"
  bottom: "conv3_5_0"
  top: "conv3_5_0"
  scale_param {
    bias_term: true
  }
}
layer {
  name: "conv3_5_ReLU0"
  type: "ReLU"
  bottom: "conv3_5_0"
  top: "conv3_5_0"
}
layer {
  name: "conv3_5_1"
  type: "Convolution"
  bottom: "conv3_5_0"
  top: "conv3_5_1"
  param {
    lr_mult: 1
    decay_mult: 1
  }
  param {
    lr_mult: 2
    decay_mult: 0
  }
  convolution_param {
    num_output: 32
    bias_term: true
    pad: 1
    kernel_size: 3
    stride: 1
    weight_filler {
      type: "msra"
    }
    bias_filler {
      type: "constant"
      value: 0
    }
  }
}
layer {
  name: "conv3_5bn1"
  type: "BatchNorm"
  bottom: "conv3_5_1"
  top: "conv3_5_1"
  param {
    lr_mult: 0
    decay_mult: 0
  }
  param {
    lr_mult: 0
    decay_mult: 0
  }
  param {
    lr_mult: 0
    decay_mult: 0
  }
  batch_norm_param {
    use_global_stats: false
  }
}
layer {
  name: "conv3_5_scale1"
  type: "Scale"
  bottom: "conv3_5_1"
  top: "conv3_5_1"
  scale_param {
    bias_term: true
  }
}
layer {
  name: "conv3_Eltwise_5"
  type: "Eltwise"
  bottom: "conv3_Eltwise_4"
  bottom: "conv3_5_1"
  top: "conv3_Eltwise_5"
  eltwise_param {
    operation: SUM
  }
}
layer {
  name: "conv3_5ReLU_1"
  type: "ReLU"
  bottom: "conv3_Eltwise_5"
  top: "conv3_Eltwise_5"
}
layer {
  name: "conv4_1_0"
  type: "Convolution"
  bottom: "conv3_Eltwise_5"
  top: "conv4_1_0"
  param {
    lr_mult: 1
    decay_mult: 1
  }
  param {
    lr_mult: 2
    decay_mult: 0
  }
  convolution_param {
    num_output: 64
    bias_term: true
    pad: 1
    kernel_size: 3
    stride: 2
    weight_filler {
      type: "msra"
    }
    bias_filler {
      type: "constant"
      value: 0
    }
  }
}
layer {
  name: "conv4_1_bn0"
  type: "BatchNorm"
  bottom: "conv4_1_0"
  top: "conv4_1_0"
  param {
    lr_mult: 0
    decay_mult: 0
  }
  param {
    lr_mult: 0
    decay_mult: 0
  }
  param {
    lr_mult: 0
    decay_mult: 0
  }
  batch_norm_param {
    use_global_stats: false
  }
}
layer {
  name: "conv4_1_scale0"
  type: "Scale"
  bottom: "conv4_1_0"
  top: "conv4_1_0"
  scale_param {
    bias_term: true
  }
}
layer {
  name: "conv4_1_ReLU0"
  type: "ReLU"
  bottom: "conv4_1_0"
  top: "conv4_1_0"
}
layer {
  name: "conv4_1_1"
  type: "Convolution"
  bottom: "conv4_1_0"
  top: "conv4_1_1"
  param {
    lr_mult: 1
    decay_mult: 1
  }
  param {
    lr_mult: 2
    decay_mult: 0
  }
  convolution_param {
    num_output: 64
    bias_term: true
    pad: 1
    kernel_size: 3
    stride: 1
    weight_filler {
      type: "msra"
    }
    bias_filler {
      type: "constant"
      value: 0
    }
  }
}
layer {
  name: "conv4_1bn1"
  type: "BatchNorm"
  bottom: "conv4_1_1"
  top: "conv4_1_1"
  param {
    lr_mult: 0
    decay_mult: 0
  }
  param {
    lr_mult: 0
    decay_mult: 0
  }
  param {
    lr_mult: 0
    decay_mult: 0
  }
  batch_norm_param {
    use_global_stats: false
  }
}
layer {
  name: "conv4_1_scale1"
  type: "Scale"
  bottom: "conv4_1_1"
  top: "conv4_1_1"
  scale_param {
    bias_term: true
  }
}
layer {
  name: "conv4_1_down"
  type: "Convolution"
  bottom: "conv3_Eltwise_5"
  top: "conv4_1_down"
  param {
    lr_mult: 1
    decay_mult: 1
  }
  param {
    lr_mult: 2
    decay_mult: 0
  }
  convolution_param {
    num_output: 64
    bias_term: true
    pad: 0
    kernel_size: 1
    stride: 2
    weight_filler {
      type: "msra"
    }
    bias_filler {
      type: "constant"
      value: 0
    }
  }
}
layer {
  name: "conv4_1_bn_down"
  type: "BatchNorm"
  bottom: "conv4_1_down"
  top: "conv4_1_down"
  param {
    lr_mult: 0
    decay_mult: 0
  }
  param {
    lr_mult: 0
    decay_mult: 0
  }
  param {
    lr_mult: 0
    decay_mult: 0
  }
  batch_norm_param {
    use_global_stats: false
  }
}
layer {
  name: "conv4_1_scale_down"
  type: "Scale"
  bottom: "conv4_1_down"
  top: "conv4_1_down"
  scale_param {
    bias_term: true
  }
}
layer {
  name: "conv4_Eltwise_1"
  type: "Eltwise"
  bottom: "conv4_1_1"
  bottom: "conv4_1_down"
  top: "conv4_Eltwise_1"
  eltwise_param {
    operation: SUM
  }
}
layer {
  name: "conv4_1ReLU_1"
  type: "ReLU"
  bottom: "conv4_Eltwise_1"
  top: "conv4_Eltwise_1"
}
layer {
  name: "conv4_2_0"
  type: "Convolution"
  bottom: "conv4_Eltwise_1"
  top: "conv4_2_0"
  param {
    lr_mult: 1
    decay_mult: 1
  }
  param {
    lr_mult: 2
    decay_mult: 0
  }
  convolution_param {
    num_output: 64
    bias_term: true
    pad: 1
    kernel_size: 3
    stride: 1
    weight_filler {
      type: "msra"
    }
    bias_filler {
      type: "constant"
      value: 0
    }
  }
}
layer {
  name: "conv4_2_bn0"
  type: "BatchNorm"
  bottom: "conv4_2_0"
  top: "conv4_2_0"
  param {
    lr_mult: 0
    decay_mult: 0
  }
  param {
    lr_mult: 0
    decay_mult: 0
  }
  param {
    lr_mult: 0
    decay_mult: 0
  }
  batch_norm_param {
    use_global_stats: false
  }
}
layer {
  name: "conv4_2_scale0"
  type: "Scale"
  bottom: "conv4_2_0"
  top: "conv4_2_0"
  scale_param {
    bias_term: true
  }
}
layer {
  name: "conv4_2_ReLU0"
  type: "ReLU"
  bottom: "conv4_2_0"
  top: "conv4_2_0"
}
layer {
  name: "conv4_2_1"
  type: "Convolution"
  bottom: "conv4_2_0"
  top: "conv4_2_1"
  param {
    lr_mult: 1
    decay_mult: 1
  }
  param {
    lr_mult: 2
    decay_mult: 0
  }
  convolution_param {
    num_output: 64
    bias_term: true
    pad: 1
    kernel_size: 3
    stride: 1
    weight_filler {
      type: "msra"
    }
    bias_filler {
      type: "constant"
      value: 0
    }
  }
}
layer {
  name: "conv4_2bn1"
  type: "BatchNorm"
  bottom: "conv4_2_1"
  top: "conv4_2_1"
  param {
    lr_mult: 0
    decay_mult: 0
  }
  param {
    lr_mult: 0
    decay_mult: 0
  }
  param {
    lr_mult: 0
    decay_mult: 0
  }
  batch_norm_param {
    use_global_stats: false
  }
}
layer {
  name: "conv4_2_scale1"
  type: "Scale"
  bottom: "conv4_2_1"
  top: "conv4_2_1"
  scale_param {
    bias_term: true
  }
}
layer {
  name: "conv4_Eltwise_2"
  type: "Eltwise"
  bottom: "conv4_Eltwise_1"
  bottom: "conv4_2_1"
  top: "conv4_Eltwise_2"
  eltwise_param {
    operation: SUM
  }
}
layer {
  name: "conv4_2ReLU_1"
  type: "ReLU"
  bottom: "conv4_Eltwise_2"
  top: "conv4_Eltwise_2"
}
layer {
  name: "conv4_3_0"
  type: "Convolution"
  bottom: "conv4_Eltwise_2"
  top: "conv4_3_0"
  param {
    lr_mult: 1
    decay_mult: 1
  }
  param {
    lr_mult: 2
    decay_mult: 0
  }
  convolution_param {
    num_output: 64
    bias_term: true
    pad: 1
    kernel_size: 3
    stride: 1
    weight_filler {
      type: "msra"
    }
    bias_filler {
      type: "constant"
      value: 0
    }
  }
}
layer {
  name: "conv4_3_bn0"
  type: "BatchNorm"
  bottom: "conv4_3_0"
  top: "conv4_3_0"
  param {
    lr_mult: 0
    decay_mult: 0
  }
  param {
    lr_mult: 0
    decay_mult: 0
  }
  param {
    lr_mult: 0
    decay_mult: 0
  }
  batch_norm_param {
    use_global_stats: false
  }
}
layer {
  name: "conv4_3_scale0"
  type: "Scale"
  bottom: "conv4_3_0"
  top: "conv4_3_0"
  scale_param {
    bias_term: true
  }
}
layer {
  name: "conv4_3_ReLU0"
  type: "ReLU"
  bottom: "conv4_3_0"
  top: "conv4_3_0"
}
layer {
  name: "conv4_3_1"
  type: "Convolution"
  bottom: "conv4_3_0"
  top: "conv4_3_1"
  param {
    lr_mult: 1
    decay_mult: 1
  }
  param {
    lr_mult: 2
    decay_mult: 0
  }
  convolution_param {
    num_output: 64
    bias_term: true
    pad: 1
    kernel_size: 3
    stride: 1
    weight_filler {
      type: "msra"
    }
    bias_filler {
      type: "constant"
      value: 0
    }
  }
}
layer {
  name: "conv4_3bn1"
  type: "BatchNorm"
  bottom: "conv4_3_1"
  top: "conv4_3_1"
  param {
    lr_mult: 0
    decay_mult: 0
  }
  param {
    lr_mult: 0
    decay_mult: 0
  }
  param {
    lr_mult: 0
    decay_mult: 0
  }
  batch_norm_param {
    use_global_stats: false
  }
}
layer {
  name: "conv4_3_scale1"
  type: "Scale"
  bottom: "conv4_3_1"
  top: "conv4_3_1"
  scale_param {
    bias_term: true
  }
}
layer {
  name: "conv4_Eltwise_3"
  type: "Eltwise"
  bottom: "conv4_Eltwise_2"
  bottom: "conv4_3_1"
  top: "conv4_Eltwise_3"
  eltwise_param {
    operation: SUM
  }
}
layer {
  name: "conv4_3ReLU_1"
  type: "ReLU"
  bottom: "conv4_Eltwise_3"
  top: "conv4_Eltwise_3"
}
layer {
  name: "conv4_4_0"
  type: "Convolution"
  bottom: "conv4_Eltwise_3"
  top: "conv4_4_0"
  param {
    lr_mult: 1
    decay_mult: 1
  }
  param {
    lr_mult: 2
    decay_mult: 0
  }
  convolution_param {
    num_output: 64
    bias_term: true
    pad: 1
    kernel_size: 3
    stride: 1
    weight_filler {
      type: "msra"
    }
    bias_filler {
      type: "constant"
      value: 0
    }
  }
}
layer {
  name: "conv4_4_bn0"
  type: "BatchNorm"
  bottom: "conv4_4_0"
  top: "conv4_4_0"
  param {
    lr_mult: 0
    decay_mult: 0
  }
  param {
    lr_mult: 0
    decay_mult: 0
  }
  param {
    lr_mult: 0
    decay_mult: 0
  }
  batch_norm_param {
    use_global_stats: false
  }
}
layer {
  name: "conv4_4_scale0"
  type: "Scale"
  bottom: "conv4_4_0"
  top: "conv4_4_0"
  
I0929 16:32:16.360148 25496 layer_factory.hpp:77] Creating layer Data1
I0929 16:32:16.360383 25496 db_lmdb.cpp:35] Opened lmdb /home/lijianfei/datasets/cifar10_40/train_lmdb
I0929 16:32:16.360435 25496 net.cpp:128] Creating Layer Data1
I0929 16:32:16.360446 25496 net.cpp:522] Data1 -> data
I0929 16:32:16.360482 25496 net.cpp:522] Data1 -> label
I0929 16:32:16.362798 25496 data_layer.cpp:45] output data size: 128,3,32,32
I0929 16:32:16.379585 25496 net.cpp:172] Setting up Data1
I0929 16:32:16.379650 25496 net.cpp:186] Top shape: 128 3 32 32 (393216)
I0929 16:32:16.379657 25496 net.cpp:186] Top shape: 128 (128)
I0929 16:32:16.379662 25496 net.cpp:194] Memory required for data: 1573376
I0929 16:32:16.379678 25496 layer_factory.hpp:77] Creating layer conv1
I0929 16:32:16.379716 25496 net.cpp:128] Creating Layer conv1
I0929 16:32:16.379726 25496 net.cpp:558] conv1 <- data
I0929 16:32:16.379750 25496 net.cpp:522] conv1 -> conv1
I0929 16:32:17.409235 25496 net.cpp:172] Setting up conv1
I0929 16:32:17.409304 25496 net.cpp:186] Top shape: 128 16 32 32 (2097152)
I0929 16:32:17.409309 25496 net.cpp:194] Memory required for data: 9961984
I0929 16:32:17.409354 25496 layer_factory.hpp:77] Creating layer conv1/bn
I0929 16:32:17.409380 25496 net.cpp:128] Creating Layer conv1/bn
I0929 16:32:17.409387 25496 net.cpp:558] conv1/bn <- conv1
I0929 16:32:17.409396 25496 net.cpp:509] conv1/bn -> conv1 (in-place)
I0929 16:32:17.409672 25496 net.cpp:172] Setting up conv1/bn
I0929 16:32:17.409685 25496 net.cpp:186] Top shape: 128 16 32 32 (2097152)
I0929 16:32:17.409692 25496 net.cpp:194] Memory required for data: 18350592
I0929 16:32:17.409704 25496 layer_factory.hpp:77] Creating layer conv1/scale
I0929 16:32:17.409714 25496 net.cpp:128] Creating Layer conv1/scale
I0929 16:32:17.409719 25496 net.cpp:558] conv1/scale <- conv1
I0929 16:32:17.409724 25496 net.cpp:509] conv1/scale -> conv1 (in-place)
I0929 16:32:17.409772 25496 layer_factory.hpp:77] Creating layer conv1/scale
I0929 16:32:17.409974 25496 net.cpp:172] Setting up conv1/scale
I0929 16:32:17.410003 25496 net.cpp:186] Top shape: 128 16 32 32 (2097152)
I0929 16:32:17.410017 25496 net.cpp:194] Memory required for data: 26739200
I0929 16:32:17.410037 25496 layer_factory.hpp:77] Creating layer conv1/ReLU
I0929 16:32:17.410055 25496 net.cpp:128] Creating Layer conv1/ReLU
I0929 16:32:17.410080 25496 net.cpp:558] conv1/ReLU <- conv1
I0929 16:32:17.410100 25496 net.cpp:509] conv1/ReLU -> conv1 (in-place)
I0929 16:32:17.410979 25496 net.cpp:172] Setting up conv1/ReLU
I0929 16:32:17.410996 25496 net.cpp:186] Top shape: 128 16 32 32 (2097152)
I0929 16:32:17.411001 25496 net.cpp:194] Memory required for data: 35127808
I0929 16:32:17.411006 25496 layer_factory.hpp:77] Creating layer conv1_conv1/ReLU_0_split
I0929 16:32:17.411015 25496 net.cpp:128] Creating Layer conv1_conv1/ReLU_0_split
I0929 16:32:17.411018 25496 net.cpp:558] conv1_conv1/ReLU_0_split <- conv1
I0929 16:32:17.411028 25496 net.cpp:522] conv1_conv1/ReLU_0_split -> conv1_conv1/ReLU_0_split_0
I0929 16:32:17.411037 25496 net.cpp:522] conv1_conv1/ReLU_0_split -> conv1_conv1/ReLU_0_split_1
I0929 16:32:17.411084 25496 net.cpp:172] Setting up conv1_conv1/ReLU_0_split
I0929 16:32:17.411123 25496 net.cpp:186] Top shape: 128 16 32 32 (2097152)
I0929 16:32:17.411134 25496 net.cpp:186] Top shape: 128 16 32 32 (2097152)
I0929 16:32:17.411139 25496 net.cpp:194] Memory required for data: 51905024
I0929 16:32:17.411142 25496 layer_factory.hpp:77] Creating layer conv2_1_0
I0929 16:32:17.411159 25496 net.cpp:128] Creating Layer conv2_1_0
I0929 16:32:17.411164 25496 net.cpp:558] conv2_1_0 <- conv1_conv1/ReLU_0_split_0
I0929 16:32:17.411173 25496 net.cpp:522] conv2_1_0 -> conv2_1_0
I0929 16:32:17.417695 25496 net.cpp:172] Setting up conv2_1_0
I0929 16:32:17.417721 25496 net.cpp:186] Top shape: 128 16 32 32 (2097152)
I0929 16:32:17.417726 25496 net.cpp:194] Memory required for data: 60293632
I0929 16:32:17.417739 25496 layer_factory.hpp:77] Creating layer conv2_1_bn0
I0929 16:32:17.417752 25496 net.cpp:128] Creating Layer conv2_1_bn0
I0929 16:32:17.417757 25496 net.cpp:558] conv2_1_bn0 <- conv2_1_0
I0929 16:32:17.417770 25496 net.cpp:509] conv2_1_bn0 -> conv2_1_0 (in-place)
I0929 16:32:17.418015 25496 net.cpp:172] Setting up conv2_1_bn0
I0929 16:32:17.418030 25496 net.cpp:186] Top shape: 128 16 32 32 (2097152)
I0929 16:32:17.418033 25496 net.cpp:194] Memory required for data: 68682240
I0929 16:32:17.418045 25496 layer_factory.hpp:77] Creating layer conv2_1_scale0
I0929 16:32:17.418056 25496 net.cpp:128] Creating Layer conv2_1_scale0
I0929 16:32:17.418061 25496 net.cpp:558] conv2_1_scale0 <- conv2_1_0
I0929 16:32:17.418066 25496 net.cpp:509] conv2_1_scale0 -> conv2_1_0 (in-place)
I0929 16:32:17.418107 25496 layer_factory.hpp:77] Creating layer conv2_1_scale0
I0929 16:32:17.418285 25496 net.cpp:172] Setting up conv2_1_scale0
I0929 16:32:17.418298 25496 net.cpp:186] Top shape: 128 16 32 32 (2097152)
I0929 16:32:17.418303 25496 net.cpp:194] Memory required for data: 77070848
I0929 16:32:17.418313 25496 layer_factory.hpp:77] Creating layer conv2_1_ReLU0
I0929 16:32:17.418318 25496 net.cpp:128] Creating Layer conv2_1_ReLU0
I0929 16:32:17.418323 25496 net.cpp:558] conv2_1_ReLU0 <- conv2_1_0
I0929 16:32:17.418331 25496 net.cpp:509] conv2_1_ReLU0 -> conv2_1_0 (in-place)
I0929 16:32:17.419787 25496 net.cpp:172] Setting up conv2_1_ReLU0
I0929 16:32:17.419804 25496 net.cpp:186] Top shape: 128 16 32 32 (2097152)
I0929 16:32:17.419808 25496 net.cpp:194] Memory required for data: 85459456
I0929 16:32:17.419828 25496 layer_factory.hpp:77] Creating layer conv2_1_1
I0929 16:32:17.419843 25496 net.cpp:128] Creating Layer conv2_1_1
I0929 16:32:17.419850 25496 net.cpp:558] conv2_1_1 <- conv2_1_0
I0929 16:32:17.419859 25496 net.cpp:522] conv2_1_1 -> conv2_1_1
I0929 16:32:17.426543 25496 net.cpp:172] Setting up conv2_1_1
I0929 16:32:17.426570 25496 net.cpp:186] Top shape: 128 16 32 32 (2097152)
I0929 16:32:17.426574 25496 net.cpp:194] Memory required for data: 93848064
I0929 16:32:17.426584 25496 layer_factory.hpp:77] Creating layer conv2_1bn1
I0929 16:32:17.426595 25496 net.cpp:128] Creating Layer conv2_1bn1
I0929 16:32:17.426600 25496 net.cpp:558] conv2_1bn1 <- conv2_1_1
I0929 16:32:17.426607 25496 net.cpp:509] conv2_1bn1 -> conv2_1_1 (in-place)
I0929 16:32:17.426833 25496 net.cpp:172] Setting up conv2_1bn1
I0929 16:32:17.426846 25496 net.cpp:186] Top shape: 128 16 32 32 (2097152)
I0929 16:32:17.426849 25496 net.cpp:194] Memory required for data: 102236672
I0929 16:32:17.426865 25496 layer_factory.hpp:77] Creating layer conv2_1_scale1
I0929 16:32:17.426873 25496 net.cpp:128] Creating Layer conv2_1_scale1
I0929 16:32:17.426877 25496 net.cpp:558] conv2_1_scale1 <- conv2_1_1
I0929 16:32:17.426884 25496 net.cpp:509] conv2_1_scale1 -> conv2_1_1 (in-place)
I0929 16:32:17.426923 25496 layer_factory.hpp:77] Creating layer conv2_1_scale1
I0929 16:32:17.427100 25496 net.cpp:172] Setting up conv2_1_scale1
I0929 16:32:17.427112 25496 net.cpp:186] Top shape: 128 16 32 32 (2097152)
I0929 16:32:17.427119 25496 net.cpp:194] Memory required for data: 110625280
I0929 16:32:17.427127 25496 layer_factory.hpp:77] Creating layer conv2_Eltwise_1
I0929 16:32:17.427136 25496 net.cpp:128] Creating Layer conv2_Eltwise_1
I0929 16:32:17.427140 25496 net.cpp:558] conv2_Eltwise_1 <- conv1_conv1/ReLU_0_split_1
I0929 16:32:17.427147 25496 net.cpp:558] conv2_Eltwise_1 <- conv2_1_1
I0929 16:32:17.427155 25496 net.cpp:522] conv2_Eltwise_1 -> conv2_Eltwise_1
I0929 16:32:17.427184 25496 net.cpp:172] Setting up conv2_Eltwise_1
I0929 16:32:17.427219 25496 net.cpp:186] Top shape: 128 16 32 32 (2097152)
I0929 16:32:17.427227 25496 net.cpp:194] Memory required for data: 119013888
I0929 16:32:17.427232 25496 layer_factory.hpp:77] Creating layer conv2_1ReLU_1
I0929 16:32:17.427239 25496 net.cpp:128] Creating Layer conv2_1ReLU_1
I0929 16:32:17.427243 25496 net.cpp:558] conv2_1ReLU_1 <- conv2_Eltwise_1
I0929 16:32:17.427251 25496 net.cpp:509] conv2_1ReLU_1 -> conv2_Eltwise_1 (in-place)
I0929 16:32:17.428642 25496 net.cpp:172] Setting up conv2_1ReLU_1
I0929 16:32:17.428663 25496 net.cpp:186] Top shape: 128 16 32 32 (2097152)
I0929 16:32:17.428666 25496 net.cpp:194] Memory required for data: 127402496
I0929 16:32:17.428673 25496 layer_factory.hpp:77] Creating layer conv2_Eltwise_1_conv2_1ReLU_1_0_split
I0929 16:32:17.428680 25496 net.cpp:128] Creating Layer conv2_Eltwise_1_conv2_1ReLU_1_0_split
I0929 16:32:17.428685 25496 net.cpp:558] conv2_Eltwise_1_conv2_1ReLU_1_0_split <- conv2_Eltwise_1
I0929 16:32:17.428694 25496 net.cpp:522] conv2_Eltwise_1_conv2_1ReLU_1_0_split -> conv2_Eltwise_1_conv2_1ReLU_1_0_split_0
I0929 16:32:17.428709 25496 net.cpp:522] conv2_Eltwise_1_conv2_1ReLU_1_0_split -> conv2_Eltwise_1_conv2_1ReLU_1_0_split_1
I0929 16:32:17.428761 25496 net.cpp:172] Setting up conv2_Eltwise_1_conv2_1ReLU_1_0_split
I0929 16:32:17.428768 25496 net.cpp:186] Top shape: 128 16 32 32 (2097152)
I0929 16:32:17.428774 25496 net.cpp:186] Top shape: 128 16 32 32 (2097152)
I0929 16:32:17.428778 25496 net.cpp:194] Memory required for data: 144179712
I0929 16:32:17.428782 25496 layer_factory.hpp:77] Creating layer conv2_2_0
I0929 16:32:17.428798 25496 net.cpp:128] Creating Layer conv2_2_0
I0929 16:32:17.428803 25496 net.cpp:558] conv2_2_0 <- conv2_Eltwise_1_conv2_1ReLU_1_0_split_0
I0929 16:32:17.428810 25496 net.cpp:522] conv2_2_0 -> conv2_2_0
I0929 16:32:17.435379 25496 net.cpp:172] Setting up conv2_2_0
I0929 16:32:17.435405 25496 net.cpp:186] Top shape: 128 16 32 32 (2097152)
I0929 16:32:17.435408 25496 net.cpp:194] Memory required for data: 152568320
I0929 16:32:17.435434 25496 layer_factory.hpp:77] Creating layer conv2_2_bn0
I0929 16:32:17.435446 25496 net.cpp:128] Creating Layer conv2_2_bn0
I0929 16:32:17.435454 25496 net.cpp:558] conv2_2_bn0 <- conv2_2_0
I0929 16:32:17.435465 25496 net.cpp:509] conv2_2_bn0 -> conv2_2_0 (in-place)
I0929 16:32:17.435693 25496 net.cpp:172] Setting up conv2_2_bn0
I0929 16:32:17.435705 25496 net.cpp:186] Top shape: 128 16 32 32 (2097152)
I0929 16:32:17.435710 25496 net.cpp:194] Memory required for data: 160956928
I0929 16:32:17.435720 25496 layer_factory.hpp:77] Creating layer conv2_2_scale0
I0929 16:32:17.435729 25496 net.cpp:128] Creating Layer conv2_2_scale0
I0929 16:32:17.435734 25496 net.cpp:558] conv2_2_scale0 <- conv2_2_0
I0929 16:32:17.435740 25496 net.cpp:509] conv2_2_scale0 -> conv2_2_0 (in-place)
I0929 16:32:17.435775 25496 layer_factory.hpp:77] Creating layer conv2_2_scale0
I0929 16:32:17.435921 25496 net.cpp:172] Setting up conv2_2_scale0
I0929 16:32:17.435945 25496 net.cpp:186] Top shape: 128 16 32 32 (2097152)
I0929 16:32:17.435950 25496 net.cpp:194] Memory required for data: 169345536
I0929 16:32:17.435959 25496 layer_factory.hpp:77] Creating layer conv2_2_ReLU0
I0929 16:32:17.435997 25496 net.cpp:128] Creating Layer conv2_2_ReLU0
I0929 16:32:17.436015 25496 net.cpp:558] conv2_2_ReLU0 <- conv2_2_0
I0929 16:32:17.436036 25496 net.cpp:509] conv2_2_ReLU0 -> conv2_2_0 (in-place)
I0929 16:32:17.437463 25496 net.cpp:172] Setting up conv2_2_ReLU0
I0929 16:32:17.437477 25496 net.cpp:186] Top shape: 128 16 32 32 (2097152)
I0929 16:32:17.437482 25496 net.cpp:194] Memory required for data: 177734144
I0929 16:32:17.437487 25496 layer_factory.hpp:77] Creating layer conv2_2_1
I0929 16:32:17.437505 25496 net.cpp:128] Creating Layer conv2_2_1
I0929 16:32:17.437510 25496 net.cpp:558] conv2_2_1 <- conv2_2_0
I0929 16:32:17.437518 25496 net.cpp:522] conv2_2_1 -> conv2_2_1
I0929 16:32:17.444188 25496 net.cpp:172] Setting up conv2_2_1
I0929 16:32:17.444214 25496 net.cpp:186] Top shape: 128 16 32 32 (2097152)
I0929 16:32:17.444218 25496 net.cpp:194] Memory required for data: 186122752
I0929 16:32:17.444228 25496 layer_factory.hpp:77] Creating layer conv2_2bn1
I0929 16:32:17.444241 25496 net.cpp:128] Creating Layer conv2_2bn1
I0929 16:32:17.444245 25496 net.cpp:558] conv2_2bn1 <- conv2_2_1
I0929 16:32:17.444253 25496 net.cpp:509] conv2_2bn1 -> conv2_2_1 (in-place)
I0929 16:32:17.444494 25496 net.cpp:172] Setting up conv2_2bn1
I0929 16:32:17.444505 25496 net.cpp:186] Top shape: 128 16 32 32 (2097152)
I0929 16:32:17.444509 25496 net.cpp:194] Memory required for data: 194511360
I0929 16:32:17.444525 25496 layer_factory.hpp:77] Creating layer conv2_2_scale1
I0929 16:32:17.444531 25496 net.cpp:128] Creating Layer conv2_2_scale1
I0929 16:32:17.444535 25496 net.cpp:558] conv2_2_scale1 <- conv2_2_1
I0929 16:32:17.444541 25496 net.cpp:509] conv2_2_scale1 -> conv2_2_1 (in-place)
I0929 16:32:17.444581 25496 layer_factory.hpp:77] Creating layer conv2_2_scale1
I0929 16:32:17.444764 25496 net.cpp:172] Setting up conv2_2_scale1
I0929 16:32:17.444777 25496 net.cpp:186] Top shape: 128 16 32 32 (2097152)
I0929 16:32:17.444782 25496 net.cpp:194] Memory required for data: 202899968
I0929 16:32:17.444790 25496 layer_factory.hpp:77] Creating layer conv2_Eltwise_2
I0929 16:32:17.444799 25496 net.cpp:128] Creating Layer conv2_Eltwise_2
I0929 16:32:17.444804 25496 net.cpp:558] conv2_Eltwise_2 <- conv2_Eltwise_1_conv2_1ReLU_1_0_split_1
I0929 16:32:17.444809 25496 net.cpp:558] conv2_Eltwise_2 <- conv2_2_1
I0929 16:32:17.444816 25496 net.cpp:522] conv2_Eltwise_2 -> conv2_Eltwise_2
I0929 16:32:17.444842 25496 net.cpp:172] Setting up conv2_Eltwise_2
I0929 16:32:17.444849 25496 net.cpp:186] Top shape: 128 16 32 32 (2097152)
I0929 16:32:17.444854 25496 net.cpp:194] Memory required for data: 211288576
I0929 16:32:17.444857 25496 layer_factory.hpp:77] Creating layer conv2_2ReLU_1
I0929 16:32:17.444864 25496 net.cpp:128] Creating Layer conv2_2ReLU_1
I0929 16:32:17.444867 25496 net.cpp:558] conv2_2ReLU_1 <- conv2_Eltwise_2
I0929 16:32:17.444875 25496 net.cpp:509] conv2_2ReLU_1 -> conv2_Eltwise_2 (in-place)
I0929 16:32:17.446290 25496 net.cpp:172] Setting up conv2_2ReLU_1
I0929 16:32:17.446307 25496 net.cpp:186] Top shape: 128 16 32 32 (2097152)
I0929 16:32:17.446312 25496 net.cpp:194] Memory required for data: 219677184
I0929 16:32:17.446317 25496 layer_factory.hpp:77] Creating layer conv2_Eltwise_2_conv2_2ReLU_1_0_split
I0929 16:32:17.446324 25496 net.cpp:128] Creating Layer conv2_Eltwise_2_conv2_2ReLU_1_0_split
I0929 16:32:17.446334 25496 net.cpp:558] conv2_Eltwise_2_conv2_2ReLU_1_0_split <- conv2_Eltwise_2
I0929 16:32:17.446343 25496 net.cpp:522] conv2_Eltwise_2_conv2_2ReLU_1_0_split -> conv2_Eltwise_2_conv2_2ReLU_1_0_split_0
I0929 16:32:17.446352 25496 net.cpp:522] conv2_Eltwise_2_conv2_2ReLU_1_0_split -> conv2_Eltwise_2_conv2_2ReLU_1_0_split_1
I0929 16:32:17.446403 25496 net.cpp:172] Setting up conv2_Eltwise_2_conv2_2ReLU_1_0_split
I0929 16:32:17.446409 25496 net.cpp:186] Top shape: 128 16 32 32 (2097152)
I0929 16:32:17.446415 25496 net.cpp:186] Top shape: 128 16 32 32 (2097152)
I0929 16:32:17.446419 25496 net.cpp:194] Memory required for data: 236454400
I0929 16:32:17.446424 25496 layer_factory.hpp:77] Creating layer conv2_3_0
I0929 16:32:17.446436 25496 net.cpp:128] Creating Layer conv2_3_0
I0929 16:32:17.446441 25496 net.cpp:558] conv2_3_0 <- conv2_Eltwise_2_conv2_2ReLU_1_0_split_0
I0929 16:32:17.446450 25496 net.cpp:522] conv2_3_0 -> conv2_3_0
I0929 16:32:17.453014 25496 net.cpp:172] Setting up conv2_3_0
I0929 16:32:17.453042 25496 net.cpp:186] Top shape: 128 16 32 32 (2097152)
I0929 16:32:17.453045 25496 net.cpp:194] Memory required for data: 244843008
I0929 16:32:17.453055 25496 layer_factory.hpp:77] Creating layer conv2_3_bn0
I0929 16:32:17.453068 25496 net.cpp:128] Creating Layer conv2_3_bn0
I0929 16:32:17.453073 25496 net.cpp:558] conv2_3_bn0 <- conv2_3_0
I0929 16:32:17.453080 25496 net.cpp:509] conv2_3_bn0 -> conv2_3_0 (in-place)
I0929 16:32:17.453316 25496 net.cpp:172] Setting up conv2_3_bn0
I0929 16:32:17.453364 25496 net.cpp:186] Top shape: 128 16 32 32 (2097152)
I0929 16:32:17.453378 25496 net.cpp:194] Memory required for data: 253231616
I0929 16:32:17.453398 25496 layer_factory.hpp:77] Creating layer conv2_3_scale0
I0929 16:32:17.453415 25496 net.cpp:128] Creating Layer conv2_3_scale0
I0929 16:32:17.453429 25496 net.cpp:558] conv2_3_scale0 <- conv2_3_0
I0929 16:32:17.453444 25496 net.cpp:509] conv2_3_scale0 -> conv2_3_0 (in-place)
I0929 16:32:17.453505 25496 layer_factory.hpp:77] Creating layer conv2_3_scale0
I0929 16:32:17.453660 25496 net.cpp:172] Setting up conv2_3_scale0
I0929 16:32:17.453672 25496 net.cpp:186] Top shape: 128 16 32 32 (2097152)
I0929 16:32:17.453677 25496 net.cpp:194] Memory required for data: 261620224
I0929 16:32:17.453685 25496 layer_factory.hpp:77] Creating layer conv2_3_ReLU0
I0929 16:32:17.453696 25496 net.cpp:128] Creating Layer conv2_3_ReLU0
I0929 16:32:17.453699 25496 net.cpp:558] conv2_3_ReLU0 <- conv2_3_0
I0929 16:32:17.453706 25496 net.cpp:509] conv2_3_ReLU0 -> conv2_3_0 (in-place)
I0929 16:32:17.455106 25496 net.cpp:172] Setting up conv2_3_ReLU0
I0929 16:32:17.455132 25496 net.cpp:186] Top shape: 128 16 32 32 (2097152)
I0929 16:32:17.455138 25496 net.cpp:194] Memory required for data: 270008832
I0929 16:32:17.455144 25496 layer_factory.hpp:77] Creating layer conv2_3_1
I0929 16:32:17.455158 25496 net.cpp:128] Creating Layer conv2_3_1
I0929 16:32:17.455163 25496 net.cpp:558] conv2_3_1 <- conv2_3_0
I0929 16:32:17.455173 25496 net.cpp:522] conv2_3_1 -> conv2_3_1
I0929 16:32:17.461858 25496 net.cpp:172] Setting up conv2_3_1
I0929 16:32:17.461887 25496 net.cpp:186] Top shape: 128 16 32 32 (2097152)
I0929 16:32:17.461892 25496 net.cpp:194] Memory required for data: 278397440
I0929 16:32:17.461905 25496 layer_factory.hpp:77] Creating layer conv2_3bn1
I0929 16:32:17.461912 25496 net.cpp:128] Creating Layer conv2_3bn1
I0929 16:32:17.461921 25496 net.cpp:558] conv2_3bn1 <- conv2_3_1
I0929 16:32:17.461947 25496 net.cpp:509] conv2_3bn1 -> conv2_3_1 (in-place)
I0929 16:32:17.462193 25496 net.cpp:172] Setting up conv2_3bn1
I0929 16:32:17.462218 25496 net.cpp:186] Top shape: 128 16 32 32 (2097152)
I0929 16:32:17.462224 25496 net.cpp:194] Memory required for data: 286786048
I0929 16:32:17.462234 25496 layer_factory.hpp:77] Creating layer conv2_3_scale1
I0929 16:32:17.462245 25496 net.cpp:128] Creating Layer conv2_3_scale1
I0929 16:32:17.462250 25496 net.cpp:558] conv2_3_scale1 <- conv2_3_1
I0929 16:32:17.462256 25496 net.cpp:509] conv2_3_scale1 -> conv2_3_1 (in-place)
I0929 16:32:17.462297 25496 layer_factory.hpp:77] Creating layer conv2_3_scale1
I0929 16:32:17.462440 25496 net.cpp:172] Setting up conv2_3_scale1
I0929 16:32:17.462451 25496 net.cpp:186] Top shape: 128 16 32 32 (2097152)
I0929 16:32:17.462455 25496 net.cpp:194] Memory required for data: 295174656
I0929 16:32:17.462463 25496 layer_factory.hpp:77] Creating layer conv2_Eltwise_3
I0929 16:32:17.462471 25496 net.cpp:128] Creating Layer conv2_Eltwise_3
I0929 16:32:17.462476 25496 net.cpp:558] conv2_Eltwise_3 <- conv2_Eltwise_2_conv2_2ReLU_1_0_split_1
I0929 16:32:17.462489 25496 net.cpp:558] conv2_Eltwise_3 <- conv2_3_1
I0929 16:32:17.462497 25496 net.cpp:522] conv2_Eltwise_3 -> conv2_Eltwise_3
I0929 16:32:17.462528 25496 net.cpp:172] Setting up conv2_Eltwise_3
I0929 16:32:17.462538 25496 net.cpp:186] Top shape: 128 16 32 32 (2097152)
I0929 16:32:17.462543 25496 net.cpp:194] Memory required for data: 303563264
I0929 16:32:17.462548 25496 layer_factory.hpp:77] Creating layer conv2_3ReLU_1
I0929 16:32:17.462553 25496 net.cpp:128] Creating Layer conv2_3ReLU_1
I0929 16:32:17.462558 25496 net.cpp:558] conv2_3ReLU_1 <- conv2_Eltwise_3
I0929 16:32:17.462563 25496 net.cpp:509] conv2_3ReLU_1 -> conv2_Eltwise_3 (in-place)
I0929 16:32:17.463944 25496 net.cpp:172] Setting up conv2_3ReLU_1
I0929 16:32:17.463963 25496 net.cpp:186] Top shape: 128 16 32 32 (2097152)
I0929 16:32:17.463968 25496 net.cpp:194] Memory required for data: 311951872
I0929 16:32:17.463973 25496 layer_factory.hpp:77] Creating layer conv2_Eltwise_3_conv2_3ReLU_1_0_split
I0929 16:32:17.463982 25496 net.cpp:128] Creating Layer conv2_Eltwise_3_conv2_3ReLU_1_0_split
I0929 16:32:17.463987 25496 net.cpp:558] conv2_Eltwise_3_conv2_3ReLU_1_0_split <- conv2_Eltwise_3
I0929 16:32:17.463996 25496 net.cpp:522] conv2_Eltwise_3_conv2_3ReLU_1_0_split -> conv2_Eltwise_3_conv2_3ReLU_1_0_split_0
I0929 16:32:17.464004 25496 net.cpp:522] conv2_Eltwise_3_conv2_3ReLU_1_0_split -> conv2_Eltwise_3_conv2_3ReLU_1_0_split_1
I0929 16:32:17.464051 25496 net.cpp:172] Setting up conv2_Eltwise_3_conv2_3ReLU_1_0_split
I0929 16:32:17.464057 25496 net.cpp:186] Top shape: 128 16 32 32 (2097152)
I0929 16:32:17.464063 25496 net.cpp:186] Top shape: 128 16 32 32 (2097152)
I0929 16:32:17.464067 25496 net.cpp:194] Memory required for data: 328729088
I0929 16:32:17.464071 25496 layer_factory.hpp:77] Creating layer conv2_4_0
I0929 16:32:17.464085 25496 net.cpp:128] Creating Layer conv2_4_0
I0929 16:32:17.464090 25496 net.cpp:558] conv2_4_0 <- conv2_Eltwise_3_conv2_3ReLU_1_0_split_0
I0929 16:32:17.464098 25496 net.cpp:522] conv2_4_0 -> conv2_4_0
I0929 16:32:17.470693 25496 net.cpp:172] Setting up conv2_4_0
I0929 16:32:17.470721 25496 net.cpp:186] Top shape: 128 16 32 32 (2097152)
I0929 16:32:17.470724 25496 net.cpp:194] Memory required for data: 337117696
I0929 16:32:17.470734 25496 layer_factory.hpp:77] Creating layer conv2_4_bn0
I0929 16:32:17.470746 25496 net.cpp:128] Creating Layer conv2_4_bn0
I0929 16:32:17.470752 25496 net.cpp:558] conv2_4_bn0 <- conv2_4_0
I0929 16:32:17.470760 25496 net.cpp:509] conv2_4_bn0 -> conv2_4_0 (in-place)
I0929 16:32:17.470998 25496 net.cpp:172] Setting up conv2_4_bn0
I0929 16:32:17.471011 25496 net.cpp:186] Top shape: 128 16 32 32 (2097152)
I0929 16:32:17.471015 25496 net.cpp:194] Memory required for data: 345506304
I0929 16:32:17.471026 25496 layer_factory.hpp:77] Creating layer conv2_4_scale0
I0929 16:32:17.471035 25496 net.cpp:128] Creating Layer conv2_4_scale0
I0929 16:32:17.471040 25496 net.cpp:558] conv2_4_scale0 <- conv2_4_0
I0929 16:32:17.471046 25496 net.cpp:509] conv2_4_scale0 -> conv2_4_0 (in-place)
I0929 16:32:17.471086 25496 layer_factory.hpp:77] Creating layer conv2_4_scale0
I0929 16:32:17.471235 25496 net.cpp:172] Setting up conv2_4_scale0
I0929 16:32:17.471257 25496 net.cpp:186] Top shape: 128 16 32 32 (2097152)
I0929 16:32:17.471261 25496 net.cpp:194] Memory required for data: 353894912
I0929 16:32:17.471269 25496 layer_factory.hpp:77] Creating layer conv2_4_ReLU0
I0929 16:32:17.471276 25496 net.cpp:128] Creating Layer conv2_4_ReLU0
I0929 16:32:17.471279 25496 net.cpp:558] conv2_4_ReLU0 <- conv2_4_0
I0929 16:32:17.471288 25496 net.cpp:509] conv2_4_ReLU0 -> conv2_4_0 (in-place)
I0929 16:32:17.472781 25496 net.cpp:172] Setting up conv2_4_ReLU0
I0929 16:32:17.472795 25496 net.cpp:186] Top shape: 128 16 32 32 (2097152)
I0929 16:32:17.472800 25496 net.cpp:194] Memory required for data: 362283520
I0929 16:32:17.472805 25496 layer_factory.hpp:77] Creating layer conv2_4_1
I0929 16:32:17.472822 25496 net.cpp:128] Creating Layer conv2_4_1
I0929 16:32:17.472827 25496 net.cpp:558] conv2_4_1 <- conv2_4_0
I0929 16:32:17.472837 25496 net.cpp:522] conv2_4_1 -> conv2_4_1
I0929 16:32:17.479521 25496 net.cpp:172] Setting up conv2_4_1
I0929 16:32:17.479549 25496 net.cpp:186] Top shape: 128 16 32 32 (2097152)
I0929 16:32:17.479553 25496 net.cpp:194] Memory required for data: 370672128
I0929 16:32:17.479563 25496 layer_factory.hpp:77] Creating layer conv2_4bn1
I0929 16:32:17.479573 25496 net.cpp:128] Creating Layer conv2_4bn1
I0929 16:32:17.479576 25496 net.cpp:558] conv2_4bn1 <- conv2_4_1
I0929 16:32:17.479585 25496 net.cpp:509] conv2_4bn1 -> conv2_4_1 (in-place)
I0929 16:32:17.479828 25496 net.cpp:172] Setting up conv2_4bn1
I0929 16:32:17.479872 25496 net.cpp:186] Top shape: 128 16 32 32 (2097152)
I0929 16:32:17.479887 25496 net.cpp:194] Memory required for data: 379060736
I0929 16:32:17.479907 25496 layer_factory.hpp:77] Creating layer conv2_4_scale1
I0929 16:32:17.479923 25496 net.cpp:128] Creating Layer conv2_4_scale1
I0929 16:32:17.479936 25496 net.cpp:558] conv2_4_scale1 <- conv2_4_1
I0929 16:32:17.479954 25496 net.cpp:509] conv2_4_scale1 -> conv2_4_1 (in-place)
I0929 16:32:17.480005 25496 layer_factory.hpp:77] Creating layer conv2_4_scale1
I0929 16:32:17.480136 25496 net.cpp:172] Setting up conv2_4_scale1
I0929 16:32:17.480149 25496 net.cpp:186] Top shape: 128 16 32 32 (2097152)
I0929 16:32:17.480154 25496 net.cpp:194] Memory required for data: 387449344
I0929 16:32:17.480161 25496 layer_factory.hpp:77] Creating layer conv2_Eltwise_4
I0929 16:32:17.480171 25496 net.cpp:128] Creating Layer conv2_Eltwise_4
I0929 16:32:17.480175 25496 net.cpp:558] conv2_Eltwise_4 <- conv2_Eltwise_3_conv2_3ReLU_1_0_split_1
I0929 16:32:17.480180 25496 net.cpp:558] conv2_Eltwise_4 <- conv2_4_1
I0929 16:32:17.480186 25496 net.cpp:522] conv2_Eltwise_4 -> conv2_Eltwise_4
I0929 16:32:17.480213 25496 net.cpp:172] Setting up conv2_Eltwise_4
I0929 16:32:17.480221 25496 net.cpp:186] Top shape: 128 16 32 32 (2097152)
I0929 16:32:17.480224 25496 net.cpp:194] Memory required for data: 395837952
I0929 16:32:17.480228 25496 layer_factory.hpp:77] Creating layer conv2_4ReLU_1
I0929 16:32:17.480235 25496 net.cpp:128] Creating Layer conv2_4ReLU_1
I0929 16:32:17.480239 25496 net.cpp:558] conv2_4ReLU_1 <- conv2_Eltwise_4
I0929 16:32:17.480247 25496 net.cpp:509] conv2_4ReLU_1 -> conv2_Eltwise_4 (in-place)
I0929 16:32:17.481606 25496 net.cpp:172] Setting up conv2_4ReLU_1
I0929 16:32:17.481621 25496 net.cpp:186] Top shape: 128 16 32 32 (2097152)
I0929 16:32:17.481626 25496 net.cpp:194] Memory required for data: 404226560
I0929 16:32:17.481631 25496 layer_factory.hpp:77] Creating layer conv2_Eltwise_4_conv2_4ReLU_1_0_split
I0929 16:32:17.481637 25496 net.cpp:128] Creating Layer conv2_Eltwise_4_conv2_4ReLU_1_0_split
I0929 16:32:17.481642 25496 net.cpp:558] conv2_Eltwise_4_conv2_4ReLU_1_0_split <- conv2_Eltwise_4
I0929 16:32:17.481652 25496 net.cpp:522] conv2_Eltwise_4_conv2_4ReLU_1_0_split -> conv2_Eltwise_4_conv2_4ReLU_1_0_split_0
I0929 16:32:17.481660 25496 net.cpp:522] conv2_Eltwise_4_conv2_4ReLU_1_0_split -> conv2_Eltwise_4_conv2_4ReLU_1_0_split_1
I0929 16:32:17.481707 25496 net.cpp:172] Setting up conv2_Eltwise_4_conv2_4ReLU_1_0_split
I0929 16:32:17.481729 25496 net.cpp:186] Top shape: 128 16 32 32 (2097152)
I0929 16:32:17.481734 25496 net.cpp:186] Top shape: 128 16 32 32 (2097152)
I0929 16:32:17.481739 25496 net.cpp:194] Memory required for data: 421003776
I0929 16:32:17.481743 25496 layer_factory.hpp:77] Creating layer conv2_5_0
I0929 16:32:17.481756 25496 net.cpp:128] Creating Layer conv2_5_0
I0929 16:32:17.481760 25496 net.cpp:558] conv2_5_0 <- conv2_Eltwise_4_conv2_4ReLU_1_0_split_0
I0929 16:32:17.481771 25496 net.cpp:522] conv2_5_0 -> conv2_5_0
I0929 16:32:17.485497 25496 net.cpp:172] Setting up conv2_5_0
I0929 16:32:17.485527 25496 net.cpp:186] Top shape: 128 16 32 32 (2097152)
I0929 16:32:17.485532 25496 net.cpp:194] Memory required for data: 429392384
I0929 16:32:17.485555 25496 layer_factory.hpp:77] Creating layer conv2_5_bn0
I0929 16:32:17.485607 25496 net.cpp:128] Creating Layer conv2_5_bn0
I0929 16:32:17.485627 25496 net.cpp:558] conv2_5_bn0 <- conv2_5_0
I0929 16:32:17.485651 25496 net.cpp:509] conv2_5_bn0 -> conv2_5_0 (in-place)
I0929 16:32:17.485915 25496 net.cpp:172] Setting up conv2_5_bn0
I0929 16:32:17.485929 25496 net.cpp:186] Top shape: 128 16 32 32 (2097152)
I0929 16:32:17.485941 25496 net.cpp:194] Memory required for data: 437780992
I0929 16:32:17.485952 25496 layer_factory.hpp:77] Creating layer conv2_5_scale0
I0929 16:32:17.485962 25496 net.cpp:128] Creating Layer conv2_5_scale0
I0929 16:32:17.485967 25496 net.cpp:558] conv2_5_scale0 <- conv2_5_0
I0929 16:32:17.485973 25496 net.cpp:509] conv2_5_scale0 -> conv2_5_0 (in-place)
I0929 16:32:17.486012 25496 layer_factory.hpp:77] Creating layer conv2_5_scale0
I0929 16:32:17.486155 25496 net.cpp:172] Setting up conv2_5_scale0
I0929 16:32:17.486166 25496 net.cpp:186] Top shape: 128 16 32 32 (2097152)
I0929 16:32:17.486169 25496 net.cpp:194] Memory required for data: 446169600
I0929 16:32:17.486176 25496 layer_factory.hpp:77] Creating layer conv2_5_ReLU0
I0929 16:32:17.486183 25496 net.cpp:128] Creating Layer conv2_5_ReLU0
I0929 16:32:17.486187 25496 net.cpp:558] conv2_5_ReLU0 <- conv2_5_0
I0929 16:32:17.486192 25496 net.cpp:509] conv2_5_ReLU0 -> conv2_5_0 (in-place)
I0929 16:32:17.487481 25496 net.cpp:172] Setting up conv2_5_ReLU0
I0929 16:32:17.487507 25496 net.cpp:186] Top shape: 128 16 32 32 (2097152)
I0929 16:32:17.487512 25496 net.cpp:194] Memory required for data: 454558208
I0929 16:32:17.487517 25496 layer_factory.hpp:77] Creating layer conv2_5_1
I0929 16:32:17.487534 25496 net.cpp:128] Creating Layer conv2_5_1
I0929 16:32:17.487540 25496 net.cpp:558] conv2_5_1 <- conv2_5_0
I0929 16:32:17.487547 25496 net.cpp:522] conv2_5_1 -> conv2_5_1
I0929 16:32:17.494238 25496 net.cpp:172] Setting up conv2_5_1
I0929 16:32:17.494261 25496 net.cpp:186] Top shape: 128 16 32 32 (2097152)
I0929 16:32:17.494264 25496 net.cpp:194] Memory required for data: 462946816
I0929 16:32:17.494274 25496 layer_factory.hpp:77] Creating layer conv2_5bn1
I0929 16:32:17.494287 25496 net.cpp:128] Creating Layer conv2_5bn1
I0929 16:32:17.494292 25496 net.cpp:558] conv2_5bn1 <- conv2_5_1
I0929 16:32:17.494302 25496 net.cpp:509] conv2_5bn1 -> conv2_5_1 (in-place)
I0929 16:32:17.494549 25496 net.cpp:172] Setting up conv2_5bn1
I0929 16:32:17.494562 25496 net.cpp:186] Top shape: 128 16 32 32 (2097152)
I0929 16:32:17.494566 25496 net.cpp:194] Memory required for data: 471335424
I0929 16:32:17.494576 25496 layer_factory.hpp:77] Creating layer conv2_5_scale1
I0929 16:32:17.494585 25496 net.cpp:128] Creating Layer conv2_5_scale1
I0929 16:32:17.494591 25496 net.cpp:558] conv2_5_scale1 <- conv2_5_1
I0929 16:32:17.494597 25496 net.cpp:509] conv2_5_scale1 -> conv2_5_1 (in-place)
I0929 16:32:17.494637 25496 layer_factory.hpp:77] Creating layer conv2_5_scale1
I0929 16:32:17.494786 25496 net.cpp:172] Setting up conv2_5_scale1
I0929 16:32:17.494798 25496 net.cpp:186] Top shape: 128 16 32 32 (2097152)
I0929 16:32:17.494803 25496 net.cpp:194] Memory required for data: 479724032
I0929 16:32:17.494810 25496 layer_factory.hpp:77] Creating layer conv2_Eltwise_5
I0929 16:32:17.494818 25496 net.cpp:128] Creating Layer conv2_Eltwise_5
I0929 16:32:17.494845 25496 net.cpp:558] conv2_Eltwise_5 <- conv2_Eltwise_4_conv2_4ReLU_1_0_split_1
I0929 16:32:17.494853 25496 net.cpp:558] conv2_Eltwise_5 <- conv2_5_1
I0929 16:32:17.494861 25496 net.cpp:522] conv2_Eltwise_5 -> conv2_Eltwise_5
I0929 16:32:17.494891 25496 net.cpp:172] Setting up conv2_Eltwise_5
I0929 16:32:17.494902 25496 net.cpp:186] Top shape: 128 16 32 32 (2097152)
I0929 16:32:17.494907 25496 net.cpp:194] Memory required for data: 488112640
I0929 16:32:17.494911 25496 layer_factory.hpp:77] Creating layer conv2_5ReLU_1
I0929 16:32:17.494917 25496 net.cpp:128] Creating Layer conv2_5ReLU_1
I0929 16:32:17.494922 25496 net.cpp:558] conv2_5ReLU_1 <- conv2_Eltwise_5
I0929 16:32:17.494927 25496 net.cpp:509] conv2_5ReLU_1 -> conv2_Eltwise_5 (in-place)
I0929 16:32:17.496311 25496 net.cpp:172] Setting up conv2_5ReLU_1
I0929 16:32:17.496325 25496 net.cpp:186] Top shape: 128 16 32 32 (2097152)
I0929 16:32:17.496330 25496 net.cpp:194] Memory required for data: 496501248
I0929 16:32:17.496333 25496 layer_factory.hpp:77] Creating layer conv2_Eltwise_5_conv2_5ReLU_1_0_split
I0929 16:32:17.496340 25496 net.cpp:128] Creating Layer conv2_Eltwise_5_conv2_5ReLU_1_0_split
I0929 16:32:17.496345 25496 net.cpp:558] conv2_Eltwise_5_conv2_5ReLU_1_0_split <- conv2_Eltwise_5
I0929 16:32:17.496353 25496 net.cpp:522] conv2_Eltwise_5_conv2_5ReLU_1_0_split -> conv2_Eltwise_5_conv2_5ReLU_1_0_split_0
I0929 16:32:17.496362 25496 net.cpp:522] conv2_Eltwise_5_conv2_5ReLU_1_0_split -> conv2_Eltwise_5_conv2_5ReLU_1_0_split_1
I0929 16:32:17.496408 25496 net.cpp:172] Setting up conv2_Eltwise_5_conv2_5ReLU_1_0_split
I0929 16:32:17.496415 25496 net.cpp:186] Top shape: 128 16 32 32 (2097152)
I0929 16:32:17.496421 25496 net.cpp:186] Top shape: 128 16 32 32 (2097152)
I0929 16:32:17.496425 25496 net.cpp:194] Memory required for data: 513278464
I0929 16:32:17.496429 25496 layer_factory.hpp:77] Creating layer conv3_1_0
I0929 16:32:17.496444 25496 net.cpp:128] Creating Layer conv3_1_0
I0929 16:32:17.496449 25496 net.cpp:558] conv3_1_0 <- conv2_Eltwise_5_conv2_5ReLU_1_0_split_0
I0929 16:32:17.496460 25496 net.cpp:522] conv3_1_0 -> conv3_1_0
I0929 16:32:17.503276 25496 net.cpp:172] Setting up conv3_1_0
I0929 16:32:17.503305 25496 net.cpp:186] Top shape: 128 32 16 16 (1048576)
I0929 16:32:17.503310 25496 net.cpp:194] Memory required for data: 517472768
I0929 16:32:17.503324 25496 layer_factory.hpp:77] Creating layer conv3_1_bn0
I0929 16:32:17.503357 25496 net.cpp:128] Creating Layer conv3_1_bn0
I0929 16:32:17.503366 25496 net.cpp:558] conv3_1_bn0 <- conv3_1_0
I0929 16:32:17.503374 25496 net.cpp:509] conv3_1_bn0 -> conv3_1_0 (in-place)
I0929 16:32:17.503638 25496 net.cpp:172] Setting up conv3_1_bn0
I0929 16:32:17.503649 25496 net.cpp:186] Top shape: 128 32 16 16 (1048576)
I0929 16:32:17.503654 25496 net.cpp:194] Memory required for data: 521667072
I0929 16:32:17.503664 25496 layer_factory.hpp:77] Creating layer conv3_1_scale0
I0929 16:32:17.503675 25496 net.cpp:128] Creating Layer conv3_1_scale0
I0929 16:32:17.503684 25496 net.cpp:558] conv3_1_scale0 <- conv3_1_0
I0929 16:32:17.503690 25496 net.cpp:509] conv3_1_scale0 -> conv3_1_0 (in-place)
I0929 16:32:17.503736 25496 layer_factory.hpp:77] Creating layer conv3_1_scale0
I0929 16:32:17.503890 25496 net.cpp:172] Setting up conv3_1_scale0
I0929 16:32:17.503901 25496 net.cpp:186] Top shape: 128 32 16 16 (1048576)
I0929 16:32:17.503906 25496 net.cpp:194] Memory required for data: 525861376
I0929 16:32:17.503913 25496 layer_factory.hpp:77] Creating layer conv3_1_ReLU0
I0929 16:32:17.503923 25496 net.cpp:128] Creating Layer conv3_1_ReLU0
I0929 16:32:17.503928 25496 net.cpp:558] conv3_1_ReLU0 <- conv3_1_0
I0929 16:32:17.503937 25496 net.cpp:509] conv3_1_ReLU0 -> conv3_1_0 (in-place)
I0929 16:32:17.505167 25496 net.cpp:172] Setting up conv3_1_ReLU0
I0929 16:32:17.505180 25496 net.cpp:186] Top shape: 128 32 16 16 (1048576)
I0929 16:32:17.505185 25496 net.cpp:194] Memory required for data: 530055680
I0929 16:32:17.505190 25496 layer_factory.hpp:77] Creating layer conv3_1_1
I0929 16:32:17.505226 25496 net.cpp:128] Creating Layer conv3_1_1
I0929 16:32:17.505234 25496 net.cpp:558] conv3_1_1 <- conv3_1_0
I0929 16:32:17.505245 25496 net.cpp:522] conv3_1_1 -> conv3_1_1
I0929 16:32:17.511937 25496 net.cpp:172] Setting up conv3_1_1
I0929 16:32:17.511976 25496 net.cpp:186] Top shape: 128 32 16 16 (1048576)
I0929 16:32:17.511981 25496 net.cpp:194] Memory required for data: 534249984
I0929 16:32:17.511994 25496 layer_factory.hpp:77] Creating layer conv3_1bn1
I0929 16:32:17.512010 25496 net.cpp:128] Creating Layer conv3_1bn1
I0929 16:32:17.512019 25496 net.cpp:558] conv3_1bn1 <- conv3_1_1
I0929 16:32:17.512030 25496 net.cpp:509] conv3_1bn1 -> conv3_1_1 (in-place)
I0929 16:32:17.512280 25496 net.cpp:172] Setting up conv3_1bn1
I0929 16:32:17.512292 25496 net.cpp:186] Top shape: 128 32 16 16 (1048576)
I0929 16:32:17.512297 25496 net.cpp:194] Memory required for data: 538444288
I0929 16:32:17.512308 25496 layer_factory.hpp:77] Creating layer conv3_1_scale1
I0929 16:32:17.512326 25496 net.cpp:128] Creating Layer conv3_1_scale1
I0929 16:32:17.512334 25496 net.cpp:558] conv3_1_scale1 <- conv3_1_1
I0929 16:32:17.512341 25496 net.cpp:509] conv3_1_scale1 -> conv3_1_1 (in-place)
I0929 16:32:17.512382 25496 layer_factory.hpp:77] Creating layer conv3_1_scale1
I0929 16:32:17.512531 25496 net.cpp:172] Setting up conv3_1_scale1
I0929 16:32:17.512542 25496 net.cpp:186] Top shape: 128 32 16 16 (1048576)
I0929 16:32:17.512547 25496 net.cpp:194] Memory required for data: 542638592
I0929 16:32:17.512554 25496 layer_factory.hpp:77] Creating layer conv3_1_down
I0929 16:32:17.512573 25496 net.cpp:128] Creating Layer conv3_1_down
I0929 16:32:17.512583 25496 net.cpp:558] conv3_1_down <- conv2_Eltwise_5_conv2_5ReLU_1_0_split_1
I0929 16:32:17.512593 25496 net.cpp:522] conv3_1_down -> conv3_1_down
I0929 16:32:17.518503 25496 net.cpp:172] Setting up conv3_1_down
I0929 16:32:17.518530 25496 net.cpp:186] Top shape: 128 32 16 16 (1048576)
I0929 16:32:17.518535 25496 net.cpp:194] Memory required for data: 546832896
I0929 16:32:17.518546 25496 layer_factory.hpp:77] Creating layer conv3_1_bn_down
I0929 16:32:17.518571 25496 net.cpp:128] Creating Layer conv3_1_bn_down
I0929 16:32:17.518581 25496 net.cpp:558] conv3_1_bn_down <- conv3_1_down
I0929 16:32:17.518589 25496 net.cpp:509] conv3_1_bn_down -> conv3_1_down (in-place)
I0929 16:32:17.518828 25496 net.cpp:172] Setting up conv3_1_bn_down
I0929 16:32:17.518841 25496 net.cpp:186] Top shape: 128 32 16 16 (1048576)
I0929 16:32:17.518844 25496 net.cpp:194] Memory required for data: 551027200
I0929 16:32:17.518856 25496 layer_factory.hpp:77] Creating layer conv3_1_scale_down
I0929 16:32:17.518870 25496 net.cpp:128] Creating Layer conv3_1_scale_down
I0929 16:32:17.518880 25496 net.cpp:558] conv3_1_scale_down <- conv3_1_down
I0929 16:32:17.518887 25496 net.cpp:509] conv3_1_scale_down -> conv3_1_down (in-place)
I0929 16:32:17.518925 25496 layer_factory.hpp:77] Creating layer conv3_1_scale_down
I0929 16:32:17.519062 25496 net.cpp:172] Setting up conv3_1_scale_down
I0929 16:32:17.519073 25496 net.cpp:186] Top shape: 128 32 16 16 (1048576)
I0929 16:32:17.519078 25496 net.cpp:194] Memory required for data: 555221504
I0929 16:32:17.519086 25496 layer_factory.hpp:77] Creating layer conv3_Eltwise_1
I0929 16:32:17.519095 25496 net.cpp:128] Creating Layer conv3_Eltwise_1
I0929 16:32:17.519099 25496 net.cpp:558] conv3_Eltwise_1 <- conv3_1_1
I0929 16:32:17.519105 25496 net.cpp:558] conv3_Eltwise_1 <- conv3_1_down
I0929 16:32:17.519114 25496 net.cpp:522] conv3_Eltwise_1 -> conv3_Eltwise_1
I0929 16:32:17.519136 25496 net.cpp:172] Setting up conv3_Eltwise_1
I0929 16:32:17.519148 25496 net.cpp:186] Top shape: 128 32 16 16 (1048576)
I0929 16:32:17.519152 25496 net.cpp:194] Memory required for data: 559415808
I0929 16:32:17.519157 25496 layer_factory.hpp:77] Creating layer conv3_1ReLU_1
I0929 16:32:17.519165 25496 net.cpp:128] Creating Layer conv3_1ReLU_1
I0929 16:32:17.519168 25496 net.cpp:558] conv3_1ReLU_1 <- conv3_Eltwise_1
I0929 16:32:17.519173 25496 net.cpp:509] conv3_1ReLU_1 -> conv3_Eltwise_1 (in-place)
I0929 16:32:17.520579 25496 net.cpp:172] Setting up conv3_1ReLU_1
I0929 16:32:17.520602 25496 net.cpp:186] Top shape: 128 32 16 16 (1048576)
I0929 16:32:17.520607 25496 net.cpp:194] Memory required for data: 563610112
I0929 16:32:17.520612 25496 layer_factory.hpp:77] Creating layer conv3_Eltwise_1_conv3_1ReLU_1_0_split
I0929 16:32:17.520623 25496 net.cpp:128] Creating Layer conv3_Eltwise_1_conv3_1ReLU_1_0_split
I0929 16:32:17.520628 25496 net.cpp:558] conv3_Eltwise_1_conv3_1ReLU_1_0_split <- conv3_Eltwise_1
I0929 16:32:17.520637 25496 net.cpp:522] conv3_Eltwise_1_conv3_1ReLU_1_0_split -> conv3_Eltwise_1_conv3_1ReLU_1_0_split_0
I0929 16:32:17.520648 25496 net.cpp:522] conv3_Eltwise_1_conv3_1ReLU_1_0_split -> conv3_Eltwise_1_conv3_1ReLU_1_0_split_1
I0929 16:32:17.520699 25496 net.cpp:172] Setting up conv3_Eltwise_1_conv3_1ReLU_1_0_split
I0929 16:32:17.520709 25496 net.cpp:186] Top shape: 128 32 16 16 (1048576)
I0929 16:32:17.520715 25496 net.cpp:186] Top shape: 128 32 16 16 (1048576)
I0929 16:32:17.520720 25496 net.cpp:194] Memory required for data: 571998720
I0929 16:32:17.520723 25496 layer_factory.hpp:77] Creating layer conv3_2_0
I0929 16:32:17.520736 25496 net.cpp:128] Creating Layer conv3_2_0
I0929 16:32:17.520741 25496 net.cpp:558] conv3_2_0 <- conv3_Eltwise_1_conv3_1ReLU_1_0_split_0
I0929 16:32:17.520750 25496 net.cpp:522] conv3_2_0 -> conv3_2_0
I0929 16:32:17.527336 25496 net.cpp:172] Setting up conv3_2_0
I0929 16:32:17.527370 25496 net.cpp:186] Top shape: 128 32 16 16 (1048576)
I0929 16:32:17.527375 25496 net.cpp:194] Memory required for data: 576193024
I0929 16:32:17.527389 25496 layer_factory.hpp:77] Creating layer conv3_2_bn0
I0929 16:32:17.527403 25496 net.cpp:128] Creating Layer conv3_2_bn0
I0929 16:32:17.527413 25496 net.cpp:558] conv3_2_bn0 <- conv3_2_0
I0929 16:32:17.527423 25496 net.cpp:509] conv3_2_bn0 -> conv3_2_0 (in-place)
I0929 16:32:17.527675 25496 net.cpp:172] Setting up conv3_2_bn0
I0929 16:32:17.527688 25496 net.cpp:186] Top shape: 128 32 16 16 (1048576)
I0929 16:32:17.527691 25496 net.cpp:194] Memory required for data: 580387328
I0929 16:32:17.527703 25496 layer_factory.hpp:77] Creating layer conv3_2_scale0
I0929 16:32:17.527714 25496 net.cpp:128] Creating Layer conv3_2_scale0
I0929 16:32:17.527719 25496 net.cpp:558] conv3_2_scale0 <- conv3_2_0
I0929 16:32:17.527724 25496 net.cpp:509] conv3_2_scale0 -> conv3_2_0 (in-place)
I0929 16:32:17.527770 25496 layer_factory.hpp:77] Creating layer conv3_2_scale0
I0929 16:32:17.527910 25496 net.cpp:172] Setting up conv3_2_scale0
I0929 16:32:17.527925 25496 net.cpp:186] Top shape: 128 32 16 16 (1048576)
I0929 16:32:17.527928 25496 net.cpp:194] Memory required for data: 584581632
I0929 16:32:17.527935 25496 layer_factory.hpp:77] Creating layer conv3_2_ReLU0
I0929 16:32:17.527946 25496 net.cpp:128] Creating Layer conv3_2_ReLU0
I0929 16:32:17.527951 25496 net.cpp:558] conv3_2_ReLU0 <- conv3_2_0
I0929 16:32:17.527958 25496 net.cpp:509] conv3_2_ReLU0 -> conv3_2_0 (in-place)
I0929 16:32:17.529390 25496 net.cpp:172] Setting up conv3_2_ReLU0
I0929 16:32:17.529407 25496 net.cpp:186] Top shape: 128 32 16 16 (1048576)
I0929 16:32:17.529412 25496 net.cpp:194] Memory required for data: 588775936
I0929 16:32:17.529417 25496 layer_factory.hpp:77] Creating layer conv3_2_1
I0929 16:32:17.529430 25496 net.cpp:128] Creating Layer conv3_2_1
I0929 16:32:17.529435 25496 net.cpp:558] conv3_2_1 <- conv3_2_0
I0929 16:32:17.529445 25496 net.cpp:522] conv3_2_1 -> conv3_2_1
I0929 16:32:17.536149 25496 net.cpp:172] Setting up conv3_2_1
I0929 16:32:17.536178 25496 net.cpp:186] Top shape: 128 32 16 16 (1048576)
I0929 16:32:17.536183 25496 net.cpp:194] Memory required for data: 592970240
I0929 16:32:17.536193 25496 layer_factory.hpp:77] Creating layer conv3_2bn1
I0929 16:32:17.536206 25496 net.cpp:128] Creating Layer conv3_2bn1
I0929 16:32:17.536252 25496 net.cpp:558] conv3_2bn1 <- conv3_2_1
I0929 16:32:17.536267 25496 net.cpp:509] conv3_2bn1 -> conv3_2_1 (in-place)
I0929 16:32:17.536520 25496 net.cpp:172] Setting up conv3_2bn1
I0929 16:32:17.536548 25496 net.cpp:186] Top shape: 128 32 16 16 (1048576)
I0929 16:32:17.536569 25496 net.cpp:194] Memory required for data: 597164544
I0929 16:32:17.536581 25496 layer_factory.hpp:77] Creating layer conv3_2_scale1
I0929 16:32:17.536594 25496 net.cpp:128] Creating Layer conv3_2_scale1
I0929 16:32:17.536602 25496 net.cpp:558] conv3_2_scale1 <- conv3_2_1
I0929 16:32:17.536607 25496 net.cpp:509] conv3_2_scale1 -> conv3_2_1 (in-place)
I0929 16:32:17.536655 25496 layer_factory.hpp:77] Creating layer conv3_2_scale1
I0929 16:32:17.536798 25496 net.cpp:172] Setting up conv3_2_scale1
I0929 16:32:17.536808 25496 net.cpp:186] Top shape: 128 32 16 16 (1048576)
I0929 16:32:17.536811 25496 net.cpp:194] Memory required for data: 601358848
I0929 16:32:17.536820 25496 layer_factory.hpp:77] Creating layer conv3_Eltwise_2
I0929 16:32:17.536833 25496 net.cpp:128] Creating Layer conv3_Eltwise_2
I0929 16:32:17.536839 25496 net.cpp:558] conv3_Eltwise_2 <- conv3_Eltwise_1_conv3_1ReLU_1_0_split_1
I0929 16:32:17.536845 25496 net.cpp:558] conv3_Eltwise_2 <- conv3_2_1
I0929 16:32:17.536856 25496 net.cpp:522] conv3_Eltwise_2 -> conv3_Eltwise_2
I0929 16:32:17.536911 25496 net.cpp:172] Setting up conv3_Eltwise_2
I0929 16:32:17.536923 25496 net.cpp:186] Top shape: 128 32 16 16 (1048576)
I0929 16:32:17.536928 25496 net.cpp:194] Memory required for data: 605553152
I0929 16:32:17.536932 25496 layer_factory.hpp:77] Creating layer conv3_2ReLU_1
I0929 16:32:17.536957 25496 net.cpp:128] Creating Layer conv3_2ReLU_1
I0929 16:32:17.536965 25496 net.cpp:558] conv3_2ReLU_1 <- conv3_Eltwise_2
I0929 16:32:17.536972 25496 net.cpp:509] conv3_2ReLU_1 -> conv3_Eltwise_2 (in-place)
I0929 16:32:17.538444 25496 net.cpp:172] Setting up conv3_2ReLU_1
I0929 16:32:17.538468 25496 net.cpp:186] Top shape: 128 32 16 16 (1048576)
I0929 16:32:17.538472 25496 net.cpp:194] Memory required for data: 609747456
I0929 16:32:17.538478 25496 layer_factory.hpp:77] Creating layer conv3_Eltwise_2_conv3_2ReLU_1_0_split
I0929 16:32:17.538489 25496 net.cpp:128] Creating Layer conv3_Eltwise_2_conv3_2ReLU_1_0_split
I0929 16:32:17.538496 25496 net.cpp:558] conv3_Eltwise_2_conv3_2ReLU_1_0_split <- conv3_Eltwise_2
I0929 16:32:17.538504 25496 net.cpp:522] conv3_Eltwise_2_conv3_2ReLU_1_0_split -> conv3_Eltwise_2_conv3_2ReLU_1_0_split_0
I0929 16:32:17.538513 25496 net.cpp:522] conv3_Eltwise_2_conv3_2ReLU_1_0_split -> conv3_Eltwise_2_conv3_2ReLU_1_0_split_1
I0929 16:32:17.538568 25496 net.cpp:172] Setting up conv3_Eltwise_2_conv3_2ReLU_1_0_split
I0929 16:32:17.538610 25496 net.cpp:186] Top shape: 128 32 16 16 (1048576)
I0929 16:32:17.538627 25496 net.cpp:186] Top shape: 128 32 16 16 (1048576)
I0929 16:32:17.538640 25496 net.cpp:194] Memory required for data: 618136064
I0929 16:32:17.538653 25496 layer_factory.hpp:77] Creating layer conv3_3_0
I0929 16:32:17.538676 25496 net.cpp:128] Creating Layer conv3_3_0
I0929 16:32:17.538691 25496 net.cpp:558] conv3_3_0 <- conv3_Eltwise_2_conv3_2ReLU_1_0_split_0
I0929 16:32:17.538709 25496 net.cpp:522] conv3_3_0 -> conv3_3_0
I0929 16:32:17.545055 25496 net.cpp:172] Setting up conv3_3_0
I0929 16:32:17.545096 25496 net.cpp:186] Top shape: 128 32 16 16 (1048576)
I0929 16:32:17.545101 25496 net.cpp:194] Memory required for data: 622330368
I0929 16:32:17.545114 25496 layer_factory.hpp:77] Creating layer conv3_3_bn0
I0929 16:32:17.545127 25496 net.cpp:128] Creating Layer conv3_3_bn0
I0929 16:32:17.545171 25496 net.cpp:558] conv3_3_bn0 <- conv3_3_0
I0929 16:32:17.545203 25496 net.cpp:509] conv3_3_bn0 -> conv3_3_0 (in-place)
I0929 16:32:17.545478 25496 net.cpp:172] Setting up conv3_3_bn0
I0929 16:32:17.545490 25496 net.cpp:186] Top shape: 128 32 16 16 (1048576)
I0929 16:32:17.545495 25496 net.cpp:194] Memory required for data: 626524672
I0929 16:32:17.545506 25496 layer_factory.hpp:77] Creating layer conv3_3_scale0
I0929 16:32:17.545536 25496 net.cpp:128] Creating Layer conv3_3_scale0
I0929 16:32:17.545548 25496 net.cpp:558] conv3_3_scale0 <- conv3_3_0
I0929 16:32:17.545567 25496 net.cpp:509] conv3_3_scale0 -> conv3_3_0 (in-place)
I0929 16:32:17.545627 25496 layer_factory.hpp:77] Creating layer conv3_3_scale0
I0929 16:32:17.545800 25496 net.cpp:172] Setting up conv3_3_scale0
I0929 16:32:17.545812 25496 net.cpp:186] Top shape: 128 32 16 16 (1048576)
I0929 16:32:17.545817 25496 net.cpp:194] Memory required for data: 630718976
I0929 16:32:17.545825 25496 layer_factory.hpp:77] Creating layer conv3_3_ReLU0
I0929 16:32:17.545853 25496 net.cpp:128] Creating Layer conv3_3_ReLU0
I0929 16:32:17.545867 25496 net.cpp:558] conv3_3_ReLU0 <- conv3_3_0
I0929 16:32:17.545886 25496 net.cpp:509] conv3_3_ReLU0 -> conv3_3_0 (in-place)
I0929 16:32:17.547065 25496 net.cpp:172] Setting up conv3_3_ReLU0
I0929 16:32:17.547091 25496 net.cpp:186] Top shape: 128 32 16 16 (1048576)
I0929 16:32:17.547096 25496 net.cpp:194] Memory required for data: 634913280
I0929 16:32:17.547101 25496 layer_factory.hpp:77] Creating layer conv3_3_1
I0929 16:32:17.547118 25496 net.cpp:128] Creating Layer conv3_3_1
I0929 16:32:17.547152 25496 net.cpp:558] conv3_3_1 <- conv3_3_0
I0929 16:32:17.547173 25496 net.cpp:522] conv3_3_1 -> conv3_3_1
I0929 16:32:17.550303 25496 net.cpp:172] Setting up conv3_3_1
I0929 16:32:17.550348 25496 net.cpp:186] Top shape: 128 32 16 16 (1048576)
I0929 16:32:17.550365 25496 net.cpp:194] Memory required for data: 639107584
I0929 16:32:17.550386 25496 layer_factory.hpp:77] Creating layer conv3_3bn1
I0929 16:32:17.550407 25496 net.cpp:128] Creating Layer conv3_3bn1
I0929 16:32:17.550421 25496 net.cpp:558] conv3_3bn1 <- conv3_3_1
I0929 16:32:17.550437 25496 net.cpp:509] conv3_3bn1 -> conv3_3_1 (in-place)
I0929 16:32:17.550706 25496 net.cpp:172] Setting up conv3_3bn1
I0929 16:32:17.550729 25496 net.cpp:186] Top shape: 128 32 16 16 (1048576)
I0929 16:32:17.550741 25496 net.cpp:194] Memory required for data: 643301888
I0929 16:32:17.550761 25496 layer_factory.hpp:77] Creating layer conv3_3_scale1
I0929 16:32:17.550781 25496 net.cpp:128] Creating Layer conv3_3_scale1
I0929 16:32:17.550794 25496 net.cpp:558] conv3_3_scale1 <- conv3_3_1
I0929 16:32:17.550812 25496 net.cpp:509] conv3_3_scale1 -> conv3_3_1 (in-place)
I0929 16:32:17.550868 25496 layer_factory.hpp:77] Creating layer conv3_3_scale1
I0929 16:32:17.551020 25496 net.cpp:172] Setting up conv3_3_scale1
I0929 16:32:17.551045 25496 net.cpp:186] Top shape: 128 32 16 16 (1048576)
I0929 16:32:17.551059 25496 net.cpp:194] Memory required for data: 647496192
I0929 16:32:17.551076 25496 layer_factory.hpp:77] Creating layer conv3_Eltwise_3
I0929 16:32:17.551095 25496 net.cpp:128] Creating Layer conv3_Eltwise_3
I0929 16:32:17.551103 25496 net.cpp:558] conv3_Eltwise_3 <- conv3_Eltwise_2_conv3_2ReLU_1_0_split_1
I0929 16:32:17.551110 25496 net.cpp:558] conv3_Eltwise_3 <- conv3_3_1
I0929 16:32:17.551115 25496 net.cpp:522] conv3_Eltwise_3 -> conv3_Eltwise_3
I0929 16:32:17.551146 25496 net.cpp:172] Setting up conv3_Eltwise_3
I0929 16:32:17.551154 25496 net.cpp:186] Top shape: 128 32 16 16 (1048576)
I0929 16:32:17.551160 25496 net.cpp:194] Memory required for data: 651690496
I0929 16:32:17.551164 25496 layer_factory.hpp:77] Creating layer conv3_3ReLU_1
I0929 16:32:17.551172 25496 net.cpp:128] Creating Layer conv3_3ReLU_1
I0929 16:32:17.551179 25496 net.cpp:558] conv3_3ReLU_1 <- conv3_Eltwise_3
I0929 16:32:17.551187 25496 net.cpp:509] conv3_3ReLU_1 -> conv3_Eltwise_3 (in-place)
I0929 16:32:17.551429 25496 net.cpp:172] Setting up conv3_3ReLU_1
I0929 16:32:17.551442 25496 net.cpp:186] Top shape: 128 32 16 16 (1048576)
I0929 16:32:17.551446 25496 net.cpp:194] Memory required for data: 655884800
I0929 16:32:17.551455 25496 layer_factory.hpp:77] Creating layer conv3_Eltwise_3_conv3_3ReLU_1_0_split
I0929 16:32:17.551462 25496 net.cpp:128] Creating Layer conv3_Eltwise_3_conv3_3ReLU_1_0_split
I0929 16:32:17.551467 25496 net.cpp:558] conv3_Eltwise_3_conv3_3ReLU_1_0_split <- conv3_Eltwise_3
I0929 16:32:17.551476 25496 net.cpp:522] conv3_Eltwise_3_conv3_3ReLU_1_0_split -> conv3_Eltwise_3_conv3_3ReLU_1_0_split_0
I0929 16:32:17.551487 25496 net.cpp:522] conv3_Eltwise_3_conv3_3ReLU_1_0_split -> conv3_Eltwise_3_conv3_3ReLU_1_0_split_1
I0929 16:32:17.551539 25496 net.cpp:172] Setting up conv3_Eltwise_3_conv3_3ReLU_1_0_split
I0929 16:32:17.551548 25496 net.cpp:186] Top shape: 128 32 16 16 (1048576)
I0929 16:32:17.551571 25496 net.cpp:186] Top shape: 128 32 16 16 (1048576)
I0929 16:32:17.551578 25496 net.cpp:194] Memory required for data: 664273408
I0929 16:32:17.551584 25496 layer_factory.hpp:77] Creating layer conv3_4_0
I0929 16:32:17.551599 25496 net.cpp:128] Creating Layer conv3_4_0
I0929 16:32:17.551606 25496 net.cpp:558] conv3_4_0 <- conv3_Eltwise_3_conv3_3ReLU_1_0_split_0
I0929 16:32:17.551615 25496 net.cpp:522] conv3_4_0 -> conv3_4_0
I0929 16:32:17.553192 25496 net.cpp:172] Setting up conv3_4_0
I0929 16:32:17.553218 25496 net.cpp:186] Top shape: 128 32 16 16 (1048576)
I0929 16:32:17.553222 25496 net.cpp:194] Memory required for data: 668467712
I0929 16:32:17.553234 25496 layer_factory.hpp:77] Creating layer conv3_4_bn0
I0929 16:32:17.553249 25496 net.cpp:128] Creating Layer conv3_4_bn0
I0929 16:32:17.553257 25496 net.cpp:558] conv3_4_bn0 <- conv3_4_0
I0929 16:32:17.553264 25496 net.cpp:509] conv3_4_bn0 -> conv3_4_0 (in-place)
I0929 16:32:17.553522 25496 net.cpp:172] Setting up conv3_4_bn0
I0929 16:32:17.553534 25496 net.cpp:186] Top shape: 128 32 16 16 (1048576)
I0929 16:32:17.553537 25496 net.cpp:194] Memory required for data: 672662016
I0929 16:32:17.553560 25496 layer_factory.hpp:77] Creating layer conv3_4_scale0
I0929 16:32:17.553570 25496 net.cpp:128] Creating Layer conv3_4_scale0
I0929 16:32:17.553577 25496 net.cpp:558] conv3_4_scale0 <- conv3_4_0
I0929 16:32:17.553584 25496 net.cpp:509] conv3_4_scale0 -> conv3_4_0 (in-place)
I0929 16:32:17.553627 25496 layer_factory.hpp:77] Creating layer conv3_4_scale0
I0929 16:32:17.553767 25496 net.cpp:172] Setting up conv3_4_scale0
I0929 16:32:17.553777 25496 net.cpp:186] Top shape: 128 32 16 16 (1048576)
I0929 16:32:17.553781 25496 net.cpp:194] Memory required for data: 676856320
I0929 16:32:17.553791 25496 layer_factory.hpp:77] Creating layer conv3_4_ReLU0
I0929 16:32:17.553799 25496 net.cpp:128] Creating Layer conv3_4_ReLU0
I0929 16:32:17.553804 25496 net.cpp:558] conv3_4_ReLU0 <- conv3_4_0
I0929 16:32:17.553813 25496 net.cpp:509] conv3_4_ReLU0 -> conv3_4_0 (in-place)
I0929 16:32:17.554077 25496 net.cpp:172] Setting up conv3_4_ReLU0
I0929 16:32:17.554092 25496 net.cpp:186] Top shape: 128 32 16 16 (1048576)
I0929 16:32:17.554101 25496 net.cpp:194] Memory required for data: 681050624
I0929 16:32:17.554106 25496 layer_factory.hpp:77] Creating layer conv3_4_1
I0929 16:32:17.554121 25496 net.cpp:128] Creating Layer conv3_4_1
I0929 16:32:17.554128 25496 net.cpp:558] conv3_4_1 <- conv3_4_0
I0929 16:32:17.554139 25496 net.cpp:522] conv3_4_1 -> conv3_4_1
I0929 16:32:17.555538 25496 net.cpp:172] Setting up conv3_4_1
I0929 16:32:17.555560 25496 net.cpp:186] Top shape: 128 32 16 16 (1048576)
I0929 16:32:17.555564 25496 net.cpp:194] Memory required for data: 685244928
I0929 16:32:17.555574 25496 layer_factory.hpp:77] Creating layer conv3_4bn1
I0929 16:32:17.555589 25496 net.cpp:128] Creating Layer conv3_4bn1
I0929 16:32:17.555598 25496 net.cpp:558] conv3_4bn1 <- conv3_4_1
I0929 16:32:17.555608 25496 net.cpp:509] conv3_4bn1 -> conv3_4_1 (in-place)
I0929 16:32:17.555855 25496 net.cpp:172] Setting up conv3_4bn1
I0929 16:32:17.555866 25496 net.cpp:186] Top shape: 128 32 16 16 (1048576)
I0929 16:32:17.555871 25496 net.cpp:194] Memory required for data: 689439232
I0929 16:32:17.555879 25496 layer_factory.hpp:77] Creating layer conv3_4_scale1
I0929 16:32:17.555886 25496 net.cpp:128] Creating Layer conv3_4_scale1
I0929 16:32:17.555891 25496 net.cpp:558] conv3_4_scale1 <- conv3_4_1
I0929 16:32:17.555896 25496 net.cpp:509] conv3_4_scale1 -> conv3_4_1 (in-place)
I0929 16:32:17.555940 25496 layer_factory.hpp:77] Creating layer conv3_4_scale1
I0929 16:32:17.556082 25496 net.cpp:172] Setting up conv3_4_scale1
I0929 16:32:17.556092 25496 net.cpp:186] Top shape: 128 32 16 16 (1048576)
I0929 16:32:17.556095 25496 net.cpp:194] Memory required for data: 693633536
I0929 16:32:17.556107 25496 layer_factory.hpp:77] Creating layer conv3_Eltwise_4
I0929 16:32:17.556115 25496 net.cpp:128] Creating Layer conv3_Eltwise_4
I0929 16:32:17.556125 25496 net.cpp:558] conv3_Eltwise_4 <- conv3_Eltwise_3_conv3_3ReLU_1_0_split_1
I0929 16:32:17.556146 25496 net.cpp:558] conv3_Eltwise_4 <- conv3_4_1
I0929 16:32:17.556156 25496 net.cpp:522] conv3_Eltwise_4 -> conv3_Eltwise_4
I0929 16:32:17.556181 25496 net.cpp:172] Setting up conv3_Eltwise_4
I0929 16:32:17.556191 25496 net.cpp:186] Top shape: 128 32 16 16 (1048576)
I0929 16:32:17.556195 25496 net.cpp:194] Memory required for data: 697827840
I0929 16:32:17.556200 25496 layer_factory.hpp:77] Creating layer conv3_4ReLU_1
I0929 16:32:17.556210 25496 net.cpp:128] Creating Layer conv3_4ReLU_1
I0929 16:32:17.556215 25496 net.cpp:558] conv3_4ReLU_1 <- conv3_Eltwise_4
I0929 16:32:17.556221 25496 net.cpp:509] conv3_4ReLU_1 -> conv3_Eltwise_4 (in-place)
I0929 16:32:17.556457 25496 net.cpp:172] Setting up conv3_4ReLU_1
I0929 16:32:17.556470 25496 net.cpp:186] Top shape: 128 32 16 16 (1048576)
I0929 16:32:17.556478 25496 net.cpp:194] Memory required for data: 702022144
I0929 16:32:17.556483 25496 layer_factory.hpp:77] Creating layer conv3_Eltwise_4_conv3_4ReLU_1_0_split
I0929 16:32:17.556494 25496 net.cpp:128] Creating Layer conv3_Eltwise_4_conv3_4ReLU_1_0_split
I0929 16:32:17.556501 25496 net.cpp:558] conv3_Eltwise_4_conv3_4ReLU_1_0_split <- conv3_Eltwise_4
I0929 16:32:17.556510 25496 net.cpp:522] conv3_Eltwise_4_conv3_4ReLU_1_0_split -> conv3_Eltwise_4_conv3_4ReLU_1_0_split_0
I0929 16:32:17.556522 25496 net.cpp:522] conv3_Eltwise_4_conv3_4ReLU_1_0_split -> conv3_Eltwise_4_conv3_4ReLU_1_0_split_1
I0929 16:32:17.556571 25496 net.cpp:172] Setting up conv3_Eltwise_4_conv3_4ReLU_1_0_split
I0929 16:32:17.556582 25496 net.cpp:186] Top shape: 128 32 16 16 (1048576)
I0929 16:32:17.556591 25496 net.cpp:186] Top shape: 128 32 16 16 (1048576)
I0929 16:32:17.556594 25496 net.cpp:194] Memory required for data: 710410752
I0929 16:32:17.556601 25496 layer_factory.hpp:77] Creating layer conv3_5_0
I0929 16:32:17.556612 25496 net.cpp:128] Creating Layer conv3_5_0
I0929 16:32:17.556618 25496 net.cpp:558] conv3_5_0 <- conv3_Eltwise_4_conv3_4ReLU_1_0_split_0
I0929 16:32:17.556627 25496 net.cpp:522] conv3_5_0 -> conv3_5_0
I0929 16:32:17.558028 25496 net.cpp:172] Setting up conv3_5_0
I0929 16:32:17.558051 25496 net.cpp:186] Top shape: 128 32 16 16 (1048576)
I0929 16:32:17.558055 25496 net.cpp:194] Memory required for data: 714605056
I0929 16:32:17.558065 25496 layer_factory.hpp:77] Creating layer conv3_5_bn0
I0929 16:32:17.558077 25496 net.cpp:128] Creating Layer conv3_5_bn0
I0929 16:32:17.558084 25496 net.cpp:558] conv3_5_bn0 <- conv3_5_0
I0929 16:32:17.558094 25496 net.cpp:509] conv3_5_bn0 -> conv3_5_0 (in-place)
I0929 16:32:17.558343 25496 net.cpp:172] Setting up conv3_5_bn0
I0929 16:32:17.558353 25496 net.cpp:186] Top shape: 128 32 16 16 (1048576)
I0929 16:32:17.558357 25496 net.cpp:194] Memory required for data: 718799360
I0929 16:32:17.558373 25496 layer_factory.hpp:77] Creating layer conv3_5_scale0
I0929 16:32:17.558380 25496 net.cpp:128] Creating Layer conv3_5_scale0
I0929 16:32:17.558388 25496 net.cpp:558] conv3_5_scale0 <- conv3_5_0
I0929 16:32:17.558393 25496 net.cpp:509] conv3_5_scale0 -> conv3_5_0 (in-place)
I0929 16:32:17.558434 25496 layer_factory.hpp:77] Creating layer conv3_5_scale0
I0929 16:32:17.558579 25496 net.cpp:172] Setting up conv3_5_scale0
I0929 16:32:17.558588 25496 net.cpp:186] Top shape: 128 32 16 16 (1048576)
I0929 16:32:17.558593 25496 net.cpp:194] Memory required for data: 722993664
I0929 16:32:17.558603 25496 layer_factory.hpp:77] Creating layer conv3_5_ReLU0
I0929 16:32:17.558609 25496 net.cpp:128] Creating Layer conv3_5_ReLU0
I0929 16:32:17.558615 25496 net.cpp:558] conv3_5_ReLU0 <- conv3_5_0
I0929 16:32:17.558624 25496 net.cpp:509] conv3_5_ReLU0 -> conv3_5_0 (in-place)
I0929 16:32:17.559062 25496 net.cpp:172] Setting up conv3_5_ReLU0
I0929 16:32:17.559083 25496 net.cpp:186] Top shape: 128 32 16 16 (1048576)
I0929 16:32:17.559088 25496 net.cpp:194] Memory required for data: 727187968
I0929 16:32:17.559094 25496 layer_factory.hpp:77] Creating layer conv3_5_1
I0929 16:32:17.559113 25496 net.cpp:128] Creating Layer conv3_5_1
I0929 16:32:17.559134 25496 net.cpp:558] conv3_5_1 <- conv3_5_0
I0929 16:32:17.559145 25496 net.cpp:522] conv3_5_1 -> conv3_5_1
I0929 16:32:17.560537 25496 net.cpp:172] Setting up conv3_5_1
I0929 16:32:17.560562 25496 net.cpp:186] Top shape: 128 32 16 16 (1048576)
I0929 16:32:17.560566 25496 net.cpp:194] Memory required for data: 731382272
I0929 16:32:17.560576 25496 layer_factory.hpp:77] Creating layer conv3_5bn1
I0929 16:32:17.560587 25496 net.cpp:128] Creating Layer conv3_5bn1
I0929 16:32:17.560592 25496 net.cpp:558] conv3_5bn1 <- conv3_5_1
I0929 16:32:17.560602 25496 net.cpp:509] conv3_5bn1 -> conv3_5_1 (in-place)
I0929 16:32:17.560850 25496 net.cpp:172] Setting up conv3_5bn1
I0929 16:32:17.560860 25496 net.cpp:186] Top shape: 128 32 16 16 (1048576)
I0929 16:32:17.560864 25496 net.cpp:194] Memory required for data: 735576576
I0929 16:32:17.560874 25496 layer_factory.hpp:77] Creating layer conv3_5_scale1
I0929 16:32:17.560880 25496 net.cpp:128] Creating Layer conv3_5_scale1
I0929 16:32:17.560889 25496 net.cpp:558] conv3_5_scale1 <- conv3_5_1
I0929 16:32:17.560894 25496 net.cpp:509] conv3_5_scale1 -> conv3_5_1 (in-place)
I0929 16:32:17.560936 25496 layer_factory.hpp:77] Creating layer conv3_5_scale1
I0929 16:32:17.561079 25496 net.cpp:172] Setting up conv3_5_scale1
I0929 16:32:17.561089 25496 net.cpp:186] Top shape: 128 32 16 16 (1048576)
I0929 16:32:17.561094 25496 net.cpp:194] Memory required for data: 739770880
I0929 16:32:17.561101 25496 layer_factory.hpp:77] Creating layer conv3_Eltwise_5
I0929 16:32:17.561113 25496 net.cpp:128] Creating Layer conv3_Eltwise_5
I0929 16:32:17.561118 25496 net.cpp:558] conv3_Eltwise_5 <- conv3_Eltwise_4_conv3_4ReLU_1_0_split_1
I0929 16:32:17.561123 25496 net.cpp:558] conv3_Eltwise_5 <- conv3_5_1
I0929 16:32:17.561130 25496 net.cpp:522] conv3_Eltwise_5 -> conv3_Eltwise_5
I0929 16:32:17.561153 25496 net.cpp:172] Setting up conv3_Eltwise_5
I0929 16:32:17.561162 25496 net.cpp:186] Top shape: 128 32 16 16 (1048576)
I0929 16:32:17.561167 25496 net.cpp:194] Memory required for data: 743965184
I0929 16:32:17.561170 25496 layer_factory.hpp:77] Creating layer conv3_5ReLU_1
I0929 16:32:17.561177 25496 net.cpp:128] Creating Layer conv3_5ReLU_1
I0929 16:32:17.561182 25496 net.cpp:558] conv3_5ReLU_1 <- conv3_Eltwise_5
I0929 16:32:17.561189 25496 net.cpp:509] conv3_5ReLU_1 -> conv3_Eltwise_5 (in-place)
I0929 16:32:17.561435 25496 net.cpp:172] Setting up conv3_5ReLU_1
I0929 16:32:17.561450 25496 net.cpp:186] Top shape: 128 32 16 16 (1048576)
I0929 16:32:17.561457 25496 net.cpp:194] Memory required for data: 748159488
I0929 16:32:17.561462 25496 layer_factory.hpp:77] Creating layer conv3_Eltwise_5_conv3_5ReLU_1_0_split
I0929 16:32:17.561470 25496 net.cpp:128] Creating Layer conv3_Eltwise_5_conv3_5ReLU_1_0_split
I0929 16:32:17.561475 25496 net.cpp:558] conv3_Eltwise_5_conv3_5ReLU_1_0_split <- conv3_Eltwise_5
I0929 16:32:17.561483 25496 net.cpp:522] conv3_Eltwise_5_conv3_5ReLU_1_0_split -> conv3_Eltwise_5_conv3_5ReLU_1_0_split_0
I0929 16:32:17.561494 25496 net.cpp:522] conv3_Eltwise_5_conv3_5ReLU_1_0_split -> conv3_Eltwise_5_conv3_5ReLU_1_0_split_1
I0929 16:32:17.561547 25496 net.cpp:172] Setting up conv3_Eltwise_5_conv3_5ReLU_1_0_split
I0929 16:32:17.561553 25496 net.cpp:186] Top shape: 128 32 16 16 (1048576)
I0929 16:32:17.561559 25496 net.cpp:186] Top shape: 128 32 16 16 (1048576)
I0929 16:32:17.561563 25496 net.cpp:194] Memory required for data: 756548096
I0929 16:32:17.561568 25496 layer_factory.hpp:77] Creating layer conv4_1_0
I0929 16:32:17.561579 25496 net.cpp:128] Creating Layer conv4_1_0
I0929 16:32:17.561584 25496 net.cpp:558] conv4_1_0 <- conv3_Eltwise_5_conv3_5ReLU_1_0_split_0
I0929 16:32:17.561595 25496 net.cpp:522] conv4_1_0 -> conv4_1_0
I0929 16:32:17.564735 25496 net.cpp:172] Setting up conv4_1_0
I0929 16:32:17.564766 25496 net.cpp:186] Top shape: 128 64 8 8 (524288)
I0929 16:32:17.564771 25496 net.cpp:194] Memory required for data: 758645248
I0929 16:32:17.564785 25496 layer_factory.hpp:77] Creating layer conv4_1_bn0
I0929 16:32:17.564800 25496 net.cpp:128] Creating Layer conv4_1_bn0
I0929 16:32:17.564824 25496 net.cpp:558] conv4_1_bn0 <- conv4_1_0
I0929 16:32:17.564834 25496 net.cpp:509] conv4_1_bn0 -> conv4_1_0 (in-place)
I0929 16:32:17.565102 25496 net.cpp:172] Setting up conv4_1_bn0
I0929 16:32:17.565112 25496 net.cpp:186] Top shape: 128 64 8 8 (524288)
I0929 16:32:17.565116 25496 net.cpp:194] Memory required for data: 760742400
I0929 16:32:17.565129 25496 layer_factory.hpp:77] Creating layer conv4_1_scale0
I0929 16:32:17.565140 25496 net.cpp:128] Creating Layer conv4_1_scale0
I0929 16:32:17.565145 25496 net.cpp:558] conv4_1_scale0 <- conv4_1_0
I0929 16:32:17.565151 25496 net.cpp:509] conv4_1_scale0 -> conv4_1_0 (in-place)
I0929 16:32:17.565194 25496 layer_factory.hpp:77] Creating layer conv4_1_scale0
I0929 16:32:17.565343 25496 net.cpp:172] Setting up conv4_1_scale0
I0929 16:32:17.565352 25496 net.cpp:186] Top shape: 128 64 8 8 (524288)
I0929 16:32:17.565356 25496 net.cpp:194] Memory required for data: 762839552
I0929 16:32:17.565366 25496 layer_factory.hpp:77] Creating layer conv4_1_ReLU0
I0929 16:32:17.565377 25496 net.cpp:128] Creating Layer conv4_1_ReLU0
I0929 16:32:17.565382 25496 net.cpp:558] conv4_1_ReLU0 <- conv4_1_0
I0929 16:32:17.565387 25496 net.cpp:509] conv4_1_ReLU0 -> conv4_1_0 (in-place)
I0929 16:32:17.565630 25496 net.cpp:172] Setting up conv4_1_ReLU0
I0929 16:32:17.565644 25496 net.cpp:186] Top shape: 128 64 8 8 (524288)
I0929 16:32:17.565651 25496 net.cpp:194] Memory required for data: 764936704
I0929 16:32:17.565656 25496 layer_factory.hpp:77] Creating layer conv4_1_1
I0929 16:32:17.565675 25496 net.cpp:128] Creating Layer conv4_1_1
I0929 16:32:17.565680 25496 net.cpp:558] conv4_1_1 <- conv4_1_0
I0929 16:32:17.565686 25496 net.cpp:522] conv4_1_1 -> conv4_1_1
I0929 16:32:17.567720 25496 net.cpp:172] Setting up conv4_1_1
I0929 16:32:17.567747 25496 net.cpp:186] Top shape: 128 64 8 8 (524288)
I0929 16:32:17.567752 25496 net.cpp:194] Memory required for data: 767033856
I0929 16:32:17.567764 25496 layer_factory.hpp:77] Creating layer conv4_1bn1
I0929 16:32:17.567775 25496 net.cpp:128] Creating Layer conv4_1bn1
I0929 16:32:17.567780 25496 net.cpp:558] conv4_1bn1 <- conv4_1_1
I0929 16:32:17.567790 25496 net.cpp:509] conv4_1bn1 -> conv4_1_1 (in-place)
I0929 16:32:17.568058 25496 net.cpp:172] Setting up conv4_1bn1
I0929 16:32:17.568068 25496 net.cpp:186] Top shape: 128 64 8 8 (524288)
I0929 16:32:17.568073 25496 net.cpp:194] Memory required for data: 769131008
I0929 16:32:17.568086 25496 layer_factory.hpp:77] Creating layer conv4_1_scale1
I0929 16:32:17.568092 25496 net.cpp:128] Creating Layer conv4_1_scale1
I0929 16:32:17.568097 25496 net.cpp:558] conv4_1_scale1 <- conv4_1_1
I0929 16:32:17.568104 25496 net.cpp:509] conv4_1_scale1 -> conv4_1_1 (in-place)
I0929 16:32:17.568145 25496 layer_factory.hpp:77] Creating layer conv4_1_scale1
I0929 16:32:17.568296 25496 net.cpp:172] Setting up conv4_1_scale1
I0929 16:32:17.568305 25496 net.cpp:186] Top shape: 128 64 8 8 (524288)
I0929 16:32:17.568310 25496 net.cpp:194] Memory required for data: 771228160
I0929 16:32:17.568320 25496 layer_factory.hpp:77] Creating layer conv4_1_down
I0929 16:32:17.568333 25496 net.cpp:128] Creating Layer conv4_1_down
I0929 16:32:17.568339 25496 net.cpp:558] conv4_1_down <- conv3_Eltwise_5_conv3_5ReLU_1_0_split_1
I0929 16:32:17.568348 25496 net.cpp:522] conv4_1_down -> conv4_1_down
I0929 16:32:17.569659 25496 net.cpp:172] Setting up conv4_1_down
I0929 16:32:17.569686 25496 net.cpp:186] Top shape: 128 64 8 8 (524288)
I0929 16:32:17.569690 25496 net.cpp:194] Memory required for data: 773325312
I0929 16:32:17.569701 25496 layer_factory.hpp:77] Creating layer conv4_1_bn_down
I0929 16:32:17.569710 25496 net.cpp:128] Creating Layer conv4_1_bn_down
I0929 16:32:17.569715 25496 net.cpp:558] conv4_1_bn_down <- conv4_1_down
I0929 16:32:17.569727 25496 net.cpp:509] conv4_1_bn_down -> conv4_1_down (in-place)
I0929 16:32:17.570010 25496 net.cpp:172] Setting up conv4_1_bn_down
I0929 16:32:17.570021 25496 net.cpp:186] Top shape: 128 64 8 8 (524288)
I0929 16:32:17.570025 25496 net.cpp:194] Memory required for data: 775422464
I0929 16:32:17.570058 25496 layer_factory.hpp:77] Creating layer conv4_1_scale_down
I0929 16:32:17.570068 25496 net.cpp:128] Creating Layer conv4_1_scale_down
I0929 16:32:17.570073 25496 net.cpp:558] conv4_1_scale_down <- conv4_1_down
I0929 16:32:17.570080 25496 net.cpp:509] conv4_1_scale_down -> conv4_1_down (in-place)
I0929 16:32:17.570124 25496 layer_factory.hpp:77] Creating layer conv4_1_scale_down
I0929 16:32:17.570276 25496 net.cpp:172] Setting up conv4_1_scale_down
I0929 16:32:17.570287 25496 net.cpp:186] Top shape: 128 64 8 8 (524288)
I0929 16:32:17.570291 25496 net.cpp:194] Memory required for data: 777519616
I0929 16:32:17.570299 25496 layer_factory.hpp:77] Creating layer conv4_Eltwise_1
I0929 16:32:17.570309 25496 net.cpp:128] Creating Layer conv4_Eltwise_1
I0929 16:32:17.570317 25496 net.cpp:558] conv4_Eltwise_1 <- conv4_1_1
I0929 16:32:17.570322 25496 net.cpp:558] conv4_Eltwise_1 <- conv4_1_down
I0929 16:32:17.570327 25496 net.cpp:522] conv4_Eltwise_1 -> conv4_Eltwise_1
I0929 16:32:17.570356 25496 net.cpp:172] Setting up conv4_Eltwise_1
I0929 16:32:17.570365 25496 net.cpp:186] Top shape: 128 64 8 8 (524288)
I0929 16:32:17.570369 25496 net.cpp:194] Memory required for data: 779616768
I0929 16:32:17.570374 25496 layer_factory.hpp:77] Creating layer conv4_1ReLU_1
I0929 16:32:17.570381 25496 net.cpp:128] Creating Layer conv4_1ReLU_1
I0929 16:32:17.570385 25496 net.cpp:558] conv4_1ReLU_1 <- conv4_Eltwise_1
I0929 16:32:17.570392 25496 net.cpp:509] conv4_1ReLU_1 -> conv4_Eltwise_1 (in-place)
I0929 16:32:17.572449 25496 net.cpp:172] Setting up conv4_1ReLU_1
I0929 16:32:17.572475 25496 net.cpp:186] Top shape: 128 64 8 8 (524288)
I0929 16:32:17.572479 25496 net.cpp:194] Memory required for data: 781713920
I0929 16:32:17.572485 25496 layer_factory.hpp:77] Creating layer conv4_Eltwise_1_conv4_1ReLU_1_0_split
I0929 16:32:17.572494 25496 net.cpp:128] Creating Layer conv4_Eltwise_1_conv4_1ReLU_1_0_split
I0929 16:32:17.572499 25496 net.cpp:558] conv4_Eltwise_1_conv4_1ReLU_1_0_split <- conv4_Eltwise_1
I0929 16:32:17.572508 25496 net.cpp:522] conv4_Eltwise_1_conv4_1ReLU_1_0_split -> conv4_Eltwise_1_conv4_1ReLU_1_0_split_0
I0929 16:32:17.572518 25496 net.cpp:522] conv4_Eltwise_1_conv4_1ReLU_1_0_split -> conv4_Eltwise_1_conv4_1ReLU_1_0_split_1
I0929 16:32:17.572576 25496 net.cpp:172] Setting up conv4_Eltwise_1_conv4_1ReLU_1_0_split
I0929 16:32:17.572585 25496 net.cpp:186] Top shape: 128 64 8 8 (524288)
I0929 16:32:17.572592 25496 net.cpp:186] Top shape: 128 64 8 8 (524288)
I0929 16:32:17.572594 25496 net.cpp:194] Memory required for data: 785908224
I0929 16:32:17.572599 25496 layer_factory.hpp:77] Creating layer conv4_2_0
I0929 16:32:17.572613 25496 net.cpp:128] Creating Layer conv4_2_0
I0929 16:32:17.572618 25496 net.cpp:558] conv4_2_0 <- conv4_Eltwise_1_conv4_1ReLU_1_0_split_0
I0929 16:32:17.572626 25496 net.cpp:522] conv4_2_0 -> conv4_2_0
I0929 16:32:17.577679 25496 net.cpp:172] Setting up conv4_2_0
I0929 16:32:17.577708 25496 net.cpp:186] Top shape: 128 64 8 8 (524288)
I0929 16:32:17.577713 25496 net.cpp:194] Memory required for data: 788005376
I0929 16:32:17.577728 25496 layer_factory.hpp:77] Creating layer conv4_2_bn0
I0929 16:32:17.577738 25496 net.cpp:128] Creating Layer conv4_2_bn0
I0929 16:32:17.577742 25496 net.cpp:558] conv4_2_bn0 <- conv4_2_0
I0929 16:32:17.577752 25496 net.cpp:509] conv4_2_bn0 -> conv4_2_0 (in-place)
I0929 16:32:17.578030 25496 net.cpp:172] Setting up conv4_2_bn0
I0929 16:32:17.578042 25496 net.cpp:186] Top shape: 128 64 8 8 (524288)
I0929 16:32:17.578047 25496 net.cpp:194] Memory required for data: 790102528
I0929 16:32:17.578056 25496 layer_factory.hpp:77] Creating layer conv4_2_scale0
I0929 16:32:17.578066 25496 net.cpp:128] Creating Layer conv4_2_scale0
I0929 16:32:17.578071 25496 net.cpp:558] conv4_2_scale0 <- conv4_2_0
I0929 16:32:17.578078 25496 net.cpp:509] conv4_2_scale0 -> conv4_2_0 (in-place)
I0929 16:32:17.578119 25496 layer_factory.hpp:77] Creating layer conv4_2_scale0
I0929 16:32:17.578281 25496 net.cpp:172] Setting up conv4_2_scale0
I0929 16:32:17.578294 25496 net.cpp:186] Top shape: 128 64 8 8 (524288)
I0929 16:32:17.578315 25496 net.cpp:194] Memory required for data: 792199680
I0929 16:32:17.578323 25496 layer_factory.hpp:77] Creating layer conv4_2_ReLU0
I0929 16:32:17.578331 25496 net.cpp:128] Creating Layer conv4_2_ReLU0
I0929 16:32:17.578336 25496 net.cpp:558] conv4_2_ReLU0 <- conv4_2_0
I0929 16:32:17.578346 25496 net.cpp:509] conv4_2_ReLU0 -> conv4_2_0 (in-place)
I0929 16:32:17.579749 25496 net.cpp:172] Setting up conv4_2_ReLU0
I0929 16:32:17.579767 25496 net.cpp:186] Top shape: 128 64 8 8 (524288)
I0929 16:32:17.579771 25496 net.cpp:194] Memory required for data: 794296832
I0929 16:32:17.579777 25496 layer_factory.hpp:77] Creating layer conv4_2_1
I0929 16:32:17.579789 25496 net.cpp:128] Creating Layer conv4_2_1
I0929 16:32:17.579794 25496 net.cpp:558] conv4_2_1 <- conv4_2_0
I0929 16:32:17.579805 25496 net.cpp:522] conv4_2_1 -> conv4_2_1
I0929 16:32:17.586727 25496 net.cpp:172] Setting up conv4_2_1
I0929 16:32:17.586751 25496 net.cpp:186] Top shape: 128 64 8 8 (524288)
I0929 16:32:17.586756 25496 net.cpp:194] Memory required for data: 796393984
I0929 16:32:17.586766 25496 layer_factory.hpp:77] Creating layer conv4_2bn1
I0929 16:32:17.586782 25496 net.cpp:128] Creating Layer conv4_2bn1
I0929 16:32:17.586787 25496 net.cpp:558] conv4_2bn1 <- conv4_2_1
I0929 16:32:17.586794 25496 net.cpp:509] conv4_2bn1 -> conv4_2_1 (in-place)
I0929 16:32:17.587071 25496 net.cpp:172] Setting up conv4_2bn1
I0929 16:32:17.587083 25496 net.cpp:186] Top shape: 128 64 8 8 (524288)
I0929 16:32:17.587087 25496 net.cpp:194] Memory required for data: 798491136
I0929 16:32:17.587097 25496 layer_factory.hpp:77] Creating layer conv4_2_scale1
I0929 16:32:17.587119 25496 net.cpp:128] Creating Layer conv4_2_scale1
I0929 16:32:17.587124 25496 net.cpp:558] conv4_2_scale1 <- conv4_2_1
I0929 16:32:17.587131 25496 net.cpp:509] conv4_2_scale1 -> conv4_2_1 (in-place)
I0929 16:32:17.587172 25496 layer_factory.hpp:77] Creating layer conv4_2_scale1
I0929 16:32:17.587321 25496 net.cpp:172] Setting up conv4_2_scale1
I0929 16:32:17.587333 25496 net.cpp:186] Top shape: 128 64 8 8 (524288)
I0929 16:32:17.587337 25496 net.cpp:194] Memory required for data: 800588288
I0929 16:32:17.587345 25496 layer_factory.hpp:77] Creating layer conv4_Eltwise_2
I0929 16:32:17.587357 25496 net.cpp:128] Creating Layer conv4_Eltwise_2
I0929 16:32:17.587361 25496 net.cpp:558] conv4_Eltwise_2 <- conv4_Eltwise_1_conv4_1ReLU_1_0_split_1
I0929 16:32:17.587366 25496 net.cpp:558] conv4_Eltwise_2 <- conv4_2_1
I0929 16:32:17.587373 25496 net.cpp:522] conv4_Eltwise_2 -> conv4_Eltwise_2
I0929 16:32:17.587404 25496 net.cpp:172] Setting up conv4_Eltwise_2
I0929 16:32:17.587412 25496 net.cpp:186] Top shape: 128 64 8 8 (524288)
I0929 16:32:17.587416 25496 net.cpp:194] Memory required for data: 802685440
I0929 16:32:17.587420 25496 layer_factory.hpp:77] Creating layer conv4_2ReLU_1
I0929 16:32:17.587427 25496 net.cpp:128] Creating Layer conv4_2ReLU_1
I0929 16:32:17.587431 25496 net.cpp:558] conv4_2ReLU_1 <- conv4_Eltwise_2
I0929 16:32:17.587436 25496 net.cpp:509] conv4_2ReLU_1 -> conv4_Eltwise_2 (in-place)
I0929 16:32:17.588559 25496 net.cpp:172] Setting up conv4_2ReLU_1
I0929 16:32:17.588578 25496 net.cpp:186] Top shape: 128 64 8 8 (524288)
I0929 16:32:17.588584 25496 net.cpp:194] Memory required for data: 804782592
I0929 16:32:17.588588 25496 layer_factory.hpp:77] Creating layer conv4_Eltwise_2_conv4_2ReLU_1_0_split
I0929 16:32:17.588596 25496 net.cpp:128] Creating Layer conv4_Eltwise_2_conv4_2ReLU_1_0_split
I0929 16:32:17.588600 25496 net.cpp:558] conv4_Eltwise_2_conv4_2ReLU_1_0_split <- conv4_Eltwise_2
I0929 16:32:17.588610 25496 net.cpp:522] conv4_Eltwise_2_conv4_2ReLU_1_0_split -> conv4_Eltwise_2_conv4_2ReLU_1_0_split_0
I0929 16:32:17.588619 25496 net.cpp:522] conv4_Eltwise_2_conv4_2ReLU_1_0_split -> conv4_Eltwise_2_conv4_2ReLU_1_0_split_1
I0929 16:32:17.588671 25496 net.cpp:172] Setting up conv4_Eltwise_2_conv4_2ReLU_1_0_split
I0929 16:32:17.588678 25496 net.cpp:186] Top shape: 128 64 8 8 (524288)
I0929 16:32:17.588685 25496 net.cpp:186] Top shape: 128 64 8 8 (524288)
I0929 16:32:17.588706 25496 net.cpp:194] Memory required for data: 808976896
I0929 16:32:17.588711 25496 layer_factory.hpp:77] Creating layer conv4_3_0
I0929 16:32:17.588726 25496 net.cpp:128] Creating Layer conv4_3_0
I0929 16:32:17.588732 25496 net.cpp:558] conv4_3_0 <- conv4_Eltwise_2_conv4_2ReLU_1_0_split_0
I0929 16:32:17.588738 25496 net.cpp:522] conv4_3_0 -> conv4_3_0
I0929 16:32:17.595295 25496 net.cpp:172] Setting up conv4_3_0
I0929 16:32:17.595321 25496 net.cpp:186] Top shape: 128 64 8 8 (524288)
I0929 16:32:17.595325 25496 net.cpp:194] Memory required for data: 811074048
I0929 16:32:17.595335 25496 layer_factory.hpp:77] Creating layer conv4_3_bn0
I0929 16:32:17.595347 25496 net.cpp:128] Creating Layer conv4_3_bn0
I0929 16:32:17.595353 25496 net.cpp:558] conv4_3_bn0 <- conv4_3_0
I0929 16:32:17.595361 25496 net.cpp:509] conv4_3_bn0 -> conv4_3_0 (in-place)
I0929 16:32:17.595633 25496 net.cpp:172] Setting up conv4_3_bn0
I0929 16:32:17.595646 25496 net.cpp:186] Top shape: 128 64 8 8 (524288)
I0929 16:32:17.595650 25496 net.cpp:194] Memory required for data: 813171200
I0929 16:32:17.595660 25496 layer_factory.hpp:77] Creating layer conv4_3_scale0
I0929 16:32:17.595666 25496 net.cpp:128] Creating Layer conv4_3_scale0
I0929 16:32:17.595671 25496 net.cpp:558] conv4_3_scale0 <- conv4_3_0
I0929 16:32:17.595676 25496 net.cpp:509] conv4_3_scale0 -> conv4_3_0 (in-place)
I0929 16:32:17.595719 25496 layer_factory.hpp:77] Creating layer conv4_3_scale0
I0929 16:32:17.595872 25496 net.cpp:172] Setting up conv4_3_scale0
I0929 16:32:17.595885 25496 net.cpp:186] Top shape: 128 64 8 8 (524288)
I0929 16:32:17.595891 25496 net.cpp:194] Memory required for data: 815268352
I0929 16:32:17.595898 25496 layer_factory.hpp:77] Creating layer conv4_3_ReLU0
I0929 16:32:17.595906 25496 net.cpp:128] Creating Layer conv4_3_ReLU0
I0929 16:32:17.595909 25496 net.cpp:558] conv4_3_ReLU0 <- conv4_3_0
I0929 16:32:17.595918 25496 net.cpp:509] conv4_3_ReLU0 -> conv4_3_0 (in-place)
I0929 16:32:17.597376 25496 net.cpp:172] Setting up conv4_3_ReLU0
I0929 16:32:17.597403 25496 net.cpp:186] Top shape: 128 64 8 8 (524288)
I0929 16:32:17.597406 25496 net.cpp:194] Memory required for data: 817365504
I0929 16:32:17.597411 25496 layer_factory.hpp:77] Creating layer conv4_3_1
I0929 16:32:17.597429 25496 net.cpp:128] Creating Layer conv4_3_1
I0929 16:32:17.597434 25496 net.cpp:558] conv4_3_1 <- conv4_3_0
I0929 16:32:17.597445 25496 net.cpp:522] conv4_3_1 -> conv4_3_1
I0929 16:32:17.604353 25496 net.cpp:172] Setting up conv4_3_1
I0929 16:32:17.604379 25496 net.cpp:186] Top shape: 128 64 8 8 (524288)
I0929 16:32:17.604384 25496 net.cpp:194] Memory required for data: 819462656
I0929 16:32:17.604395 25496 layer_factory.hpp:77] Creating layer conv4_3bn1
I0929 16:32:17.604408 25496 net.cpp:128] Creating Layer conv4_3bn1
I0929 16:32:17.604413 25496 net.cpp:558] conv4_3bn1 <- conv4_3_1
I0929 16:32:17.604419 25496 net.cpp:509] conv4_3bn1 -> conv4_3_1 (in-place)
I0929 16:32:17.604696 25496 net.cpp:172] Setting up conv4_3bn1
I0929 16:32:17.604708 25496 net.cpp:186] Top shape: 128 64 8 8 (524288)
I0929 16:32:17.604712 25496 net.cpp:194] Memory required for data: 821559808
I0929 16:32:17.604722 25496 layer_factory.hpp:77] Creating layer conv4_3_scale1
I0929 16:32:17.604729 25496 net.cpp:128] Creating Layer conv4_3_scale1
I0929 16:32:17.604733 25496 net.cpp:558] conv4_3_scale1 <- conv4_3_1
I0929 16:32:17.604738 25496 net.cpp:509] conv4_3_scale1 -> conv4_3_1 (in-place)
I0929 16:32:17.604784 25496 layer_factory.hpp:77] Creating layer conv4_3_scale1
I0929 16:32:17.604943 25496 net.cpp:172] Setting up conv4_3_scale1
I0929 16:32:17.604957 25496 net.cpp:186] Top shape: 128 64 8 8 (524288)
I0929 16:32:17.604961 25496 net.cpp:194] Memory required for data: 823656960
I0929 16:32:17.604972 25496 layer_factory.hpp:77] Creating layer conv4_Eltwise_3
I0929 16:32:17.604979 25496 net.cpp:128] Creating Layer conv4_Eltwise_3
I0929 16:32:17.604984 25496 net.cpp:558] conv4_Eltwise_3 <- conv4_Eltwise_2_conv4_2ReLU_1_0_split_1
I0929 16:32:17.604990 25496 net.cpp:558] conv4_Eltwise_3 <- conv4_3_1
I0929 16:32:17.604995 25496 net.cpp:522] conv4_Eltwise_3 -> conv4_Eltwise_3
I0929 16:32:17.605037 25496 net.cpp:172] Setting up conv4_Eltwise_3
I0929 16:32:17.605046 25496 net.cpp:186] Top shape: 128 64 8 8 (524288)
I0929 16:32:17.605049 25496 net.cpp:194] Memory required for data: 825754112
I0929 16:32:17.605053 25496 layer_factory.hpp:77] Creating layer conv4_3ReLU_1
I0929 16:32:17.605062 25496 net.cpp:128] Creating Layer conv4_3ReLU_1
I0929 16:32:17.605065 25496 net.cpp:558] conv4_3ReLU_1 <- conv4_Eltwise_3
I0929 16:32:17.605073 25496 net.cpp:509] conv4_3ReLU_1 -> conv4_Eltwise_3 (in-place)
I0929 16:32:17.606231 25496 net.cpp:172] Setting up conv4_3ReLU_1
I0929 16:32:17.606248 25496 net.cpp:186] Top shape: 128 64 8 8 (524288)
I0929 16:32:17.606253 25496 net.cpp:194] Memory required for data: 827851264
I0929 16:32:17.606257 25496 layer_factory.hpp:77] Creating layer conv4_Eltwise_3_conv4_3ReLU_1_0_split
I0929 16:32:17.606266 25496 net.cpp:128] Creating Layer conv4_Eltwise_3_conv4_3ReLU_1_0_split
I0929 16:32:17.606271 25496 net.cpp:558] conv4_Eltwise_3_conv4_3ReLU_1_0_split <- conv4_Eltwise_3
I0929 16:32:17.606279 25496 net.cpp:522] conv4_Eltwise_3_conv4_3ReLU_1_0_split -> conv4_Eltwise_3_conv4_3ReLU_1_0_split_0
I0929 16:32:17.606288 25496 net.cpp:522] conv4_Eltwise_3_conv4_3ReLU_1_0_split -> conv4_Eltwise_3_conv4_3ReLU_1_0_split_1
I0929 16:32:17.606343 25496 net.cpp:172] Setting up conv4_Eltwise_3_conv4_3ReLU_1_0_split
I0929 16:32:17.606354 25496 net.cpp:186] Top shape: 128 64 8 8 (524288)
I0929 16:32:17.606360 25496 net.cpp:186] Top shape: 128 64 8 8 (524288)
I0929 16:32:17.606364 25496 net.cpp:194] Memory required for data: 832045568
I0929 16:32:17.606369 25496 layer_factory.hpp:77] Creating layer conv4_4_0
I0929 16:32:17.606380 25496 net.cpp:128] Creating Layer conv4_4_0
I0929 16:32:17.606385 25496 net.cpp:558] conv4_4_0 <- conv4_Eltwise_3_conv4_3ReLU_1_0_split_0
I0929 16:32:17.606395 25496 net.cpp:522] conv4_4_0 -> conv4_4_0
I0929 16:32:17.612964 25496 net.cpp:172] Setting up conv4_4_0
I0929 16:32:17.612990 25496 net.cpp:186] Top shape: 128 64 8 8 (524288)
I0929 16:32:17.612994 25496 net.cpp:194] Memory required for data: 834142720
I0929 16:32:17.613009 25496 layer_factory.hpp:77] Creating layer conv4_4_bn0
I0929 16:32:17.613018 25496 net.cpp:128] Creating Layer conv4_4_bn0
I0929 16:32:17.613023 25496 net.cpp:558] conv4_4_bn0 <- conv4_4_0
I0929 16:32:17.613034 25496 net.cpp:509] conv4_4_bn0 -> conv4_4_0 (in-place)
I0929 16:32:17.613322 25496 net.cpp:172] Setting up conv4_4_bn0
I0929 16:32:17.613334 25496 net.cpp:186] Top shape: 128 64 8 8 (524288)
I0929 16:32:17.613338 25496 net.cpp:194] Memory required for data: 836239872
I0929 16:32:17.613348 25496 layer_factory.hpp:77] Creating layer conv4_4_scale0
I0929 16:32:17.613361 25496 net.cpp:128] Creating Layer conv4_4_scale0
I0929 16:32:17.613369 25496 net.cpp:558] conv4_4_scale0 <- conv4_4_0
I0929 16:32:17.613375 25496 net.cpp:509] conv4_4_scale0 -> conv4_4_0 (in-place)
I0929 16:32:17.613416 25496 layer_factory.hpp:77] Creating layer conv4_4_scale0
I0929 16:32:17.613571 25496 net.cpp:172] Setting up conv4_4_scale0
I0929 16:32:17.613581 25496 net.cpp:186] Top shape: 128 64 8 8 (524288)
I0929 16:32:17.613585 25496 net.cpp:194] Memory required for data: 838337024
I0929 16:32:17.613592 25496 layer_factory.hpp:77] Creating layer conv4_4_ReLU0
I0929 16:32:17.613601 25496 net.cpp:128] Creating Layer conv4_4_ReLU0
I0929 16:32:17.613606 25496 net.cpp:558] conv4_4_ReLU0 <- conv4_4_0
I0929 16:32:17.613617 25496 net.cpp:509] conv4_4_ReLU0 -> conv4_4_0 (in-place)
I0929 16:32:17.615036 25496 net.cpp:172] Setting up conv4_4_ReLU0
I0929 16:32:17.615056 25496 net.cpp:186] Top shape: 128 64 8 8 (524288)
I0929 16:32:17.615061 25496 net.cpp:194] Memory required for data: 840434176
I0929 16:32:17.615065 25496 layer_factory.hpp:77] Creating layer conv4_4_1
I0929 16:32:17.615078 25496 net.cpp:128] Creating Layer conv4_4_1
I0929 16:32:17.615087 25496 net.cpp:558] conv4_4_1 <- conv4_4_0
I0929 16:32:17.615094 25496 net.cpp:522] conv4_4_1 -> conv4_4_1
I0929 16:32:17.621966 25496 net.cpp:172] Setting up conv4_4_1
I0929 16:32:17.622007 25496 net.cpp:186] Top shape: 128 64 8 8 (524288)
I0929 16:32:17.622012 25496 net.cpp:194] Memory required for data: 842531328
I0929 16:32:17.622027 25496 layer_factory.hpp:77] Creating layer conv4_4bn1
I0929 16:32:17.622038 25496 net.cpp:128] Creating Layer conv4_4bn1
I0929 16:32:17.622056 25496 net.cpp:558] conv4_4bn1 <- conv4_4_1
I0929 16:32:17.622062 25496 net.cpp:509] conv4_4bn1 -> conv4_4_1 (in-place)
I0929 16:32:17.622347 25496 net.cpp:172] Setting up conv4_4bn1
I0929 16:32:17.622359 25496 net.cpp:186] Top shape: 128 64 8 8 (524288)
I0929 16:32:17.622362 25496 net.cpp:194] Memory required for data: 844628480
I0929 16:32:17.622372 25496 layer_factory.hpp:77] Creating layer conv4_4_scale1
I0929 16:32:17.622380 25496 net.cpp:128] Creating Layer conv4_4_scale1
I0929 16:32:17.622383 25496 net.cpp:558] conv4_4_scale1 <- conv4_4_1
I0929 16:32:17.622390 25496 net.cpp:509] conv4_4_scale1 -> conv4_4_1 (in-place)
I0929 16:32:17.622434 25496 layer_factory.hpp:77] Creating layer conv4_4_scale1
I0929 16:32:17.622589 25496 net.cpp:172] Setting up conv4_4_scale1
I0929 16:32:17.622601 25496 net.cpp:186] Top shape: 128 64 8 8 (524288)
I0929 16:32:17.622606 25496 net.cpp:194] Memory required for data: 846725632
I0929 16:32:17.622614 25496 layer_factory.hpp:77] Creating layer conv4_Eltwise_4
I0929 16:32:17.622627 25496 net.cpp:128] Creating Layer conv4_Eltwise_4
I0929 16:32:17.622632 25496 net.cpp:558] conv4_Eltwise_4 <- conv4_Eltwise_3_conv4_3ReLU_1_0_split_1
I0929 16:32:17.622637 25496 net.cpp:558] conv4_Eltwise_4 <- conv4_4_1
I0929 16:32:17.622648 25496 net.cpp:522] conv4_Eltwise_4 -> conv4_Eltwise_4
I0929 16:32:17.622673 25496 net.cpp:172] Setting up conv4_Eltwise_4
I0929 16:32:17.622684 25496 net.cpp:186] Top shape: 128 64 8 8 (524288)
I0929 16:32:17.622687 25496 net.cpp:194] Memory required for data: 848822784
I0929 16:32:17.622691 25496 layer_factory.hpp:77] Creating layer conv4_4ReLU_1
I0929 16:32:17.622697 25496 net.cpp:128] Creating Layer conv4_4ReLU_1
I0929 16:32:17.622702 25496 net.cpp:558] conv4_4ReLU_1 <- conv4_Eltwise_4
I0929 16:32:17.622710 25496 net.cpp:509] conv4_4ReLU_1 -> conv4_Eltwise_4 (in-place)
I0929 16:32:17.623829 25496 net.cpp:172] Setting up conv4_4ReLU_1
I0929 16:32:17.623847 25496 net.cpp:186] Top shape: 128 64 8 8 (524288)
I0929 16:32:17.623853 25496 net.cpp:194] Memory required for data: 850919936
I0929 16:32:17.623858 25496 layer_factory.hpp:77] Creating layer conv4_Eltwise_4_conv4_4ReLU_1_0_split
I0929 16:32:17.623865 25496 net.cpp:128] Creating Layer conv4_Eltwise_4_conv4_4ReLU_1_0_split
I0929 16:32:17.623870 25496 net.cpp:558] conv4_Eltwise_4_conv4_4ReLU_1_0_split <- conv4_Eltwise_4
I0929 16:32:17.623880 25496 net.cpp:522] conv4_Eltwise_4_conv4_4ReLU_1_0_split -> conv4_Eltwise_4_conv4_4ReLU_1_0_split_0
I0929 16:32:17.623889 25496 net.cpp:522] conv4_Eltwise_4_conv4_4ReLU_1_0_split -> conv4_Eltwise_4_conv4_4ReLU_1_0_split_1
I0929 16:32:17.623944 25496 net.cpp:172] Setting up conv4_Eltwise_4_conv4_4ReLU_1_0_split
I0929 16:32:17.623956 25496 net.cpp:186] Top shape: 128 64 8 8 (524288)
I0929 16:32:17.623962 25496 net.cpp:186] Top shape: 128 64 8 8 (524288)
I0929 16:32:17.623965 25496 net.cpp:194] Memory required for data: 855114240
I0929 16:32:17.623970 25496 layer_factory.hpp:77] Creating layer conv4_5_0
I0929 16:32:17.623982 25496 net.cpp:128] Creating Layer conv4_5_0
I0929 16:32:17.623987 25496 net.cpp:558] conv4_5_0 <- conv4_Eltwise_4_conv4_4ReLU_1_0_split_0
I0929 16:32:17.623997 25496 net.cpp:522] conv4_5_0 -> conv4_5_0
I0929 16:32:17.630611 25496 net.cpp:172] Setting up conv4_5_0
I0929 16:32:17.630637 25496 net.cpp:186] Top shape: 128 64 8 8 (524288)
I0929 16:32:17.630642 25496 net.cpp:194] Memory required for data: 857211392
I0929 16:32:17.630656 25496 layer_factory.hpp:77] Creating layer conv4_5_bn0
I0929 16:32:17.630668 25496 net.cpp:128] Creating Layer conv4_5_bn0
I0929 16:32:17.630677 25496 net.cpp:558] conv4_5_bn0 <- conv4_5_0
I0929 16:32:17.630684 25496 net.cpp:509] conv4_5_bn0 -> conv4_5_0 (in-place)
I0929 16:32:17.630956 25496 net.cpp:172] Setting up conv4_5_bn0
I0929 16:32:17.630982 25496 net.cpp:186] Top shape: 128 64 8 8 (524288)
I0929 16:32:17.630987 25496 net.cpp:194] Memory required for data: 859308544
I0929 16:32:17.630997 25496 layer_factory.hpp:77] Creating layer conv4_5_scale0
I0929 16:32:17.631007 25496 net.cpp:128] Creating Layer conv4_5_scale0
I0929 16:32:17.631012 25496 net.cpp:558] conv4_5_scale0 <- conv4_5_0
I0929 16:32:17.631018 25496 net.cpp:509] conv4_5_scale0 -> conv4_5_0 (in-place)
I0929 16:32:17.631063 25496 layer_factory.hpp:77] Creating layer conv4_5_scale0
I0929 16:32:17.631223 25496 net.cpp:172] Setting up conv4_5_scale0
I0929 16:32:17.631234 25496 net.cpp:186] Top shape: 128 64 8 8 (524288)
I0929 16:32:17.631238 25496 net.cpp:194] Memory required for data: 861405696
I0929 16:32:17.631247 25496 layer_factory.hpp:77] Creating layer conv4_5_ReLU0
I0929 16:32:17.631260 25496 net.cpp:128] Creating Layer conv4_5_ReLU0
I0929 16:32:17.631268 25496 net.cpp:558] conv4_5_ReLU0 <- conv4_5_0
I0929 16:32:17.631273 25496 net.cpp:509] conv4_5_ReLU0 -> conv4_5_0 (in-place)
I0929 16:32:17.632678 25496 net.cpp:172] Setting up conv4_5_ReLU0
I0929 16:32:17.632702 25496 net.cpp:186] Top shape: 128 64 8 8 (524288)
I0929 16:32:17.632707 25496 net.cpp:194] Memory required for data: 863502848
I0929 16:32:17.632712 25496 layer_factory.hpp:77] Creating layer conv4_5_1
I0929 16:32:17.632730 25496 net.cpp:128] Creating Layer conv4_5_1
I0929 16:32:17.632735 25496 net.cpp:558] conv4_5_1 <- conv4_5_0
I0929 16:32:17.632745 25496 net.cpp:522] conv4_5_1 -> conv4_5_1
I0929 16:32:17.639664 25496 net.cpp:172] Setting up conv4_5_1
I0929 16:32:17.639693 25496 net.cpp:186] Top shape: 128 64 8 8 (524288)
I0929 16:32:17.639696 25496 net.cpp:194] Memory required for data: 865600000
I0929 16:32:17.639711 25496 layer_factory.hpp:77] Creating layer conv4_5bn1
I0929 16:32:17.639722 25496 net.cpp:128] Creating Layer conv4_5bn1
I0929 16:32:17.639732 25496 net.cpp:558] conv4_5bn1 <- conv4_5_1
I0929 16:32:17.639739 25496 net.cpp:509] conv4_5bn1 -> conv4_5_1 (in-place)
I0929 16:32:17.640023 25496 net.cpp:172] Setting up conv4_5bn1
I0929 16:32:17.640036 25496 net.cpp:186] Top shape: 128 64 8 8 (524288)
I0929 16:32:17.640040 25496 net.cpp:194] Memory required for data: 867697152
I0929 16:32:17.640050 25496 layer_factory.hpp:77] Creating layer conv4_5_scale1
I0929 16:32:17.640058 25496 net.cpp:128] Creating Layer conv4_5_scale1
I0929 16:32:17.640063 25496 net.cpp:558] conv4_5_scale1 <- conv4_5_1
I0929 16:32:17.640067 25496 net.cpp:509] conv4_5_scale1 -> conv4_5_1 (in-place)
I0929 16:32:17.640115 25496 layer_factory.hpp:77] Creating layer conv4_5_scale1
I0929 16:32:17.640270 25496 net.cpp:172] Setting up conv4_5_scale1
I0929 16:32:17.640285 25496 net.cpp:186] Top shape: 128 64 8 8 (524288)
I0929 16:32:17.640290 25496 net.cpp:194] Memory required for data: 869794304
I0929 16:32:17.640297 25496 layer_factory.hpp:77] Creating layer conv4_Eltwise_5
I0929 16:32:17.640305 25496 net.cpp:128] Creating Layer conv4_Eltwise_5
I0929 16:32:17.640310 25496 net.cpp:558] conv4_Eltwise_5 <- conv4_Eltwise_4_conv4_4ReLU_1_0_split_1
I0929 16:32:17.640314 25496 net.cpp:558] conv4_Eltwise_5 <- conv4_5_1
I0929 16:32:17.640321 25496 net.cpp:522] conv4_Eltwise_5 -> conv4_Eltwise_5
I0929 16:32:17.640345 25496 net.cpp:172] Setting up conv4_Eltwise_5
I0929 16:32:17.640352 25496 net.cpp:186] Top shape: 128 64 8 8 (524288)
I0929 16:32:17.640355 25496 net.cpp:194] Memory required for data: 871891456
I0929 16:32:17.640360 25496 layer_factory.hpp:77] Creating layer conv4_5ReLU_1
I0929 16:32:17.640367 25496 net.cpp:128] Creating Layer conv4_5ReLU_1
I0929 16:32:17.640370 25496 net.cpp:558] conv4_5ReLU_1 <- conv4_Eltwise_5
I0929 16:32:17.640378 25496 net.cpp:509] conv4_5ReLU_1 -> conv4_Eltwise_5 (in-place)
I0929 16:32:17.641525 25496 net.cpp:172] Setting up conv4_5ReLU_1
I0929 16:32:17.641538 25496 net.cpp:186] Top shape: 128 64 8 8 (524288)
I0929 16:32:17.641544 25496 net.cpp:194] Memory required for data: 873988608
I0929 16:32:17.641549 25496 layer_factory.hpp:77] Creating layer Pooling1
I0929 16:32:17.641561 25496 net.cpp:128] Creating Layer Pooling1
I0929 16:32:17.641584 25496 net.cpp:558] Pooling1 <- conv4_Eltwise_5
I0929 16:32:17.641592 25496 net.cpp:522] Pooling1 -> Pooling1
I0929 16:32:17.643810 25496 net.cpp:172] Setting up Pooling1
I0929 16:32:17.643831 25496 net.cpp:186] Top shape: 128 64 1 1 (8192)
I0929 16:32:17.643836 25496 net.cpp:194] Memory required for data: 874021376
I0929 16:32:17.643841 25496 layer_factory.hpp:77] Creating layer fc1
I0929 16:32:17.643854 25496 net.cpp:128] Creating Layer fc1
I0929 16:32:17.643859 25496 net.cpp:558] fc1 <- Pooling1
I0929 16:32:17.643869 25496 net.cpp:522] fc1 -> fc1
I0929 16:32:17.644052 25496 net.cpp:172] Setting up fc1
I0929 16:32:17.644064 25496 net.cpp:186] Top shape: 128 10 (1280)
I0929 16:32:17.644068 25496 net.cpp:194] Memory required for data: 874026496
I0929 16:32:17.644078 25496 layer_factory.hpp:77] Creating layer Softmax1
I0929 16:32:17.644089 25496 net.cpp:128] Creating Layer Softmax1
I0929 16:32:17.644094 25496 net.cpp:558] Softmax1 <- fc1
I0929 16:32:17.644099 25496 net.cpp:558] Softmax1 <- label
I0929 16:32:17.644107 25496 net.cpp:522] Softmax1 -> Softmax1
…
I0929 16:32:17.659171 25496 solver.cpp:277] Creating test net (#0) specified by test_net file: ./test_ResNet_32.prototxt
I0929 16:32:17.664095 25496 net.cpp:82] Initializing net from parameters: 
name: "ResNet-32"
state {
  phase: TEST
}
layer {
  name: "Data1"
  type: "Data"
  top: "data"
  top: "label"
  transform_param {
    scale: 0.00390625
    mirror: false
    crop_size: 32
    mean_value: 125.3
    mean_value: 122.9
    mean_value: 113.8
  }
  data_param {
    source: "/home/lijianfei/datasets/cifar10_40/test_lmdb"
    batch_size: 10
    backend: LMDB
  }
  image_data_param {
    shuffle: false
  }
}
layer {
  name: "conv1"
  type: "Convolution"
  bottom: "data"
  top: "conv1"
  param {
    lr_mult: 1
    decay_mult: 1
  }
  param {
    lr_mult: 2
    decay_mult: 0
  }
  convolution_param {
    num_output: 16
    bias_term: true
    pad: 1
    kernel_size: 3
    stride: 1
    weight_filler {
      type: "msra"
    }
    bias_filler {
      type: "constant"
      value: 0
    }
  }
}
layer {
  name: "conv1/bn"
  type: "BatchNorm"
  bottom: "conv1"
  top: "conv1"
  param {
    lr_mult: 0
    decay_mult: 0
  }
  param {
    lr_mult: 0
    decay_mult: 0
  }
  param {
    lr_mult: 0
    decay_mult: 0
  }
  batch_norm_param {
    use_global_stats: true
  }
}
layer {
  name: "conv1/scale"
  type: "Scale"
  bottom: "conv1"
  top: "conv1"
  scale_param {
    bias_term: true
  }
}
layer {
  name: "conv1/ReLU"
  type: "ReLU"
  bottom: "conv1"
  top: "conv1"
}
layer {
  name: "conv2_1_0"
  type: "Convolution"
  bottom: "conv1"
  top: "conv2_1_0"
  param {
    lr_mult: 1
    decay_mult: 1
  }
  param {
    lr_mult: 2
    decay_mult: 0
  }
  convolution_param {
    num_output: 16
    bias_term: true
    pad: 1
    kernel_size: 3
    stride: 1
    weight_filler {
      type: "msra"
    }
    bias_filler {
      type: "constant"
      value: 0
    }
  }
}
layer {
  name: "conv2_1_bn0"
  type: "BatchNorm"
  bottom: "conv2_1_0"
  top: "conv2_1_0"
  param {
    lr_mult: 0
    decay_mult: 0
  }
  param {
    lr_mult: 0
    decay_mult: 0
  }
  param {
    lr_mult: 0
    decay_mult: 0
  }
  batch_norm_param {
    use_global_stats: true
  }
}
layer {
  name: "conv2_1_scale0"
  type: "Scale"
  bottom: "conv2_1_0"
  top: "conv2_1_0"
  scale_param {
    bias_term: true
  }
}
layer {
  name: "conv2_1_ReLU0"
  type: "ReLU"
  bottom: "conv2_1_0"
  top: "conv2_1_0"
}
layer {
  name: "conv2_1_1"
  type: "Convolution"
  bottom: "conv2_1_0"
  top: "conv2_1_1"
  param {
    lr_mult: 1
    decay_mult: 1
  }
  param {
    lr_mult: 2
    decay_mult: 0
  }
  convolution_param {
    num_output: 16
    bias_term: true
    pad: 1
    kernel_size: 3
    stride: 1
    weight_filler {
      type: "msra"
    }
    bias_filler {
      type: "constant"
      value: 0
    }
  }
}
layer {
  name: "conv2_1bn1"
  type: "BatchNorm"
  bottom: "conv2_1_1"
  top: "conv2_1_1"
  param {
    lr_mult: 0
    decay_mult: 0
  }
  param {
    lr_mult: 0
    decay_mult: 0
  }
  param {
    lr_mult: 0
    decay_mult: 0
  }
  batch_norm_param {
    use_global_stats: true
  }
}
layer {
  name: "conv2_1_scale1"
  type: "Scale"
  bottom: "conv2_1_1"
  top: "conv2_1_1"
  scale_param {
    bias_term: true
  }
}
layer {
  name: "conv2_Eltwise_1"
  type: "Eltwise"
  bottom: "conv1"
  bottom: "conv2_1_1"
  top: "conv2_Eltwise_1"
  eltwise_param {
    operation: SUM
  }
}
layer {
  name: "conv2_1ReLU_1"
  type: "ReLU"
  bottom: "conv2_Eltwise_1"
  top: "conv2_Eltwise_1"
}
layer {
  name: "conv2_2_0"
  type: "Convolution"
  bottom: "conv2_Eltwise_1"
  top: "conv2_2_0"
  param {
    lr_mult: 1
    decay_mult: 1
  }
  param {
    lr_mult: 2
    decay_mult: 0
  }
  convolution_param {
    num_output: 16
    bias_term: true
    pad: 1
    kernel_size: 3
    stride: 1
    weight_filler {
      type: "msra"
    }
    bias_filler {
      type: "constant"
      value: 0
    }
  }
}
layer {
  name: "conv2_2_bn0"
  type: "BatchNorm"
  bottom: "conv2_2_0"
  top: "conv2_2_0"
  param {
    lr_mult: 0
    decay_mult: 0
  }
  param {
    lr_mult: 0
    decay_mult: 0
  }
  param {
    lr_mult: 0
    decay_mult: 0
  }
  batch_norm_param {
    use_global_stats: true
  }
}
layer {
  name: "conv2_2_scale0"
  type: "Scale"
  bottom: "conv2_2_0"
  top: "conv2_2_0"
  scale_param {
    bias_term: true
  }
}
layer {
  name: "conv2_2_ReLU0"
  type: "ReLU"
  bottom: "conv2_2_0"
  top: "conv2_2_0"
}
layer {
  name: "conv2_2_1"
  type: "Convolution"
  bottom: "conv2_2_0"
  top: "conv2_2_1"
  param {
    lr_mult: 1
    decay_mult: 1
  }
  param {
    lr_mult: 2
    decay_mult: 0
  }
  convolution_param {
    num_output: 16
    bias_term: true
    pad: 1
    kernel_size: 3
    stride: 1
    weight_filler {
      type: "msra"
    }
    bias_filler {
      type: "constant"
      value: 0
    }
  }
}
layer {
  name: "conv2_2bn1"
  type: "BatchNorm"
  bottom: "conv2_2_1"
  top: "conv2_2_1"
  param {
    lr_mult: 0
    decay_mult: 0
  }
  param {
    lr_mult: 0
    decay_mult: 0
  }
  param {
    lr_mult: 0
    decay_mult: 0
  }
  batch_norm_param {
    use_global_stats: true
  }
}
layer {
  name: "conv2_2_scale1"
  type: "Scale"
  bottom: "conv2_2_1"
  top: "conv2_2_1"
  scale_param {
    bias_term: true
  }
}
layer {
  name: "conv2_Eltwise_2"
  type: "Eltwise"
  bottom: "conv2_Eltwise_1"
  bottom: "conv2_2_1"
  top: "conv2_Eltwise_2"
  eltwise_param {
    operation: SUM
  }
}
layer {
  name: "conv2_2ReLU_1"
  type: "ReLU"
  bottom: "conv2_Eltwise_2"
  top: "conv2_Eltwise_2"
}
layer {
  name: "conv2_3_0"
  type: "Convolution"
  bottom: "conv2_Eltwise_2"
  top: "conv2_3_0"
  param {
    lr_mult: 1
    decay_mult: 1
  }
  param {
    lr_mult: 2
    decay_mult: 0
  }
  convolution_param {
    num_output: 16
    bias_term: true
    pad: 1
    kernel_size: 3
    stride: 1
    weight_filler {
      type: "msra"
    }
    bias_filler {
      type: "constant"
      value: 0
    }
  }
}
layer {
  name: "conv2_3_bn0"
  type: "BatchNorm"
  bottom: "conv2_3_0"
  top: "conv2_3_0"
  param {
    lr_mult: 0
    decay_mult: 0
  }
  param {
    lr_mult: 0
    decay_mult: 0
  }
  param {
    lr_mult: 0
    decay_mult: 0
  }
  batch_norm_param {
    use_global_stats: true
  }
}
layer {
  name: "conv2_3_scale0"
  type: "Scale"
  bottom: "conv2_3_0"
  top: "conv2_3_0"
  scale_param {
    bias_term: true
  }
}
layer {
  name: "conv2_3_ReLU0"
  type: "ReLU"
  bottom: "conv2_3_0"
  top: "conv2_3_0"
}
layer {
  name: "conv2_3_1"
  type: "Convolution"
  bottom: "conv2_3_0"
  top: "conv2_3_1"
  param {
    lr_mult: 1
    decay_mult: 1
  }
  param {
    lr_mult: 2
    decay_mult: 0
  }
  convolution_param {
    num_output: 16
    bias_term: true
    pad: 1
    kernel_size: 3
    stride: 1
    weight_filler {
      type: "msra"
    }
    bias_filler {
      type: "constant"
      value: 0
    }
  }
}
layer {
  name: "conv2_3bn1"
  type: "BatchNorm"
  bottom: "conv2_3_1"
  top: "conv2_3_1"
  param {
    lr_mult: 0
    decay_mult: 0
  }
  param {
    lr_mult: 0
    decay_mult: 0
  }
  param {
    lr_mult: 0
    decay_mult: 0
  }
  batch_norm_param {
    use_global_stats: true
  }
}
layer {
  name: "conv2_3_scale1"
  type: "Scale"
  bottom: "conv2_3_1"
  top: "conv2_3_1"
  scale_param {
    bias_term: true
  }
}
layer {
  name: "conv2_Eltwise_3"
  type: "Eltwise"
  bottom: "conv2_Eltwise_2"
  bottom: "conv2_3_1"
  top: "conv2_Eltwise_3"
  eltwise_param {
    operation: SUM
  }
}
layer {
  name: "conv2_3ReLU_1"
  type: "ReLU"
  bottom: "conv2_Eltwise_3"
  top: "conv2_Eltwise_3"
}
layer {
  name: "conv2_4_0"
  type: "Convolution"
  bottom: "conv2_Eltwise_3"
  top: "conv2_4_0"
  param {
    lr_mult: 1
    decay_mult: 1
  }
  param {
    lr_mult: 2
    decay_mult: 0
  }
  convolution_param {
    num_output: 16
    bias_term: true
    pad: 1
    kernel_size: 3
    stride: 1
    weight_filler {
      type: "msra"
    }
    bias_filler {
      type: "constant"
      value: 0
    }
  }
}
layer {
  name: "conv2_4_bn0"
  type: "BatchNorm"
  bottom: "conv2_4_0"
  top: "conv2_4_0"
  param {
    lr_mult: 0
    decay_mult: 0
  }
  param {
    lr_mult: 0
    decay_mult: 0
  }
  param {
    lr_mult: 0
    decay_mult: 0
  }
  batch_norm_param {
    use_global_stats: true
  }
}
layer {
  name: "conv2_4_scale0"
  type: "Scale"
  bottom: "conv2_4_0"
  top: "conv2_4_0"
  scale_param {
    bias_term: true
  }
}
layer {
  name: "conv2_4_ReLU0"
  type: "ReLU"
  bottom: "conv2_4_0"
  top: "conv2_4_0"
}
layer {
  name: "conv2_4_1"
  type: "Convolution"
  bottom: "conv2_4_0"
  top: "conv2_4_1"
  param {
    lr_mult: 1
    decay_mult: 1
  }
  param {
    lr_mult: 2
    decay_mult: 0
  }
  convolution_param {
    num_output: 16
    bias_term: true
    pad: 1
    kernel_size: 3
    stride: 1
    weight_filler {
      type: "msra"
    }
    bias_filler {
      type: "constant"
      value: 0
    }
  }
}
layer {
  name: "conv2_4bn1"
  type: "BatchNorm"
  bottom: "conv2_4_1"
  top: "conv2_4_1"
  param {
    lr_mult: 0
    decay_mult: 0
  }
  param {
    lr_mult: 0
    decay_mult: 0
  }
  param {
    lr_mult: 0
    decay_mult: 0
  }
  batch_norm_param {
    use_global_stats: true
  }
}
layer {
  name: "conv2_4_scale1"
  type: "Scale"
  bottom: "conv2_4_1"
  top: "conv2_4_1"
  scale_param {
    bias_term: true
  }
}
layer {
  name: "conv2_Eltwise_4"
  type: "Eltwise"
  bottom: "conv2_Eltwise_3"
  bottom: "conv2_4_1"
  top: "conv2_Eltwise_4"
  eltwise_param {
    operation: SUM
  }
}
layer {
  name: "conv2_4ReLU_1"
  type: "ReLU"
  bottom: "conv2_Eltwise_4"
  top: "conv2_Eltwise_4"
}
layer {
  name: "conv2_5_0"
  type: "Convolution"
  bottom: "conv2_Eltwise_4"
  top: "conv2_5_0"
  param {
    lr_mult: 1
    decay_mult: 1
  }
  param {
    lr_mult: 2
    decay_mult: 0
  }
  convolution_param {
    num_output: 16
    bias_term: true
    pad: 1
    kernel_size: 3
    stride: 1
    weight_filler {
      type: "msra"
    }
    bias_filler {
      type: "constant"
      value: 0
    }
  }
}
layer {
  name: "conv2_5_bn0"
  type: "BatchNorm"
  bottom: "conv2_5_0"
  top: "conv2_5_0"
  param {
    lr_mult: 0
    decay_mult: 0
  }
  param {
    lr_mult: 0
    decay_mult: 0
  }
  param {
    lr_mult: 0
    decay_mult: 0
  }
  batch_norm_param {
    use_global_stats: true
  }
}
layer {
  name: "conv2_5_scale0"
  type: "Scale"
  bottom: "conv2_5_0"
  top: "conv2_5_0"
  scale_param {
    bias_term: true
  }
}
layer {
  name: "conv2_5_ReLU0"
  type: "ReLU"
  bottom: "conv2_5_0"
  top: "conv2_5_0"
}
layer {
  name: "conv2_5_1"
  type: "Convolution"
  bottom: "conv2_5_0"
  top: "conv2_5_1"
  param {
    lr_mult: 1
    decay_mult: 1
  }
  param {
    lr_mult: 2
    decay_mult: 0
  }
  convolution_param {
    num_output: 16
    bias_term: true
    pad: 1
    kernel_size: 3
    stride: 1
    weight_filler {
      type: "msra"
    }
    bias_filler {
      type: "constant"
      value: 0
    }
  }
}
layer {
  name: "conv2_5bn1"
  type: "BatchNorm"
  bottom: "conv2_5_1"
  top: "conv2_5_1"
  param {
    lr_mult: 0
    decay_mult: 0
  }
  param {
    lr_mult: 0
    decay_mult: 0
  }
  param {
    lr_mult: 0
    decay_mult: 0
  }
  batch_norm_param {
    use_global_stats: true
  }
}
layer {
  name: "conv2_5_scale1"
  type: "Scale"
  bottom: "conv2_5_1"
  top: "conv2_5_1"
  scale_param {
    bias_term: true
  }
}
layer {
  name: "conv2_Eltwise_5"
  type: "Eltwise"
  bottom: "conv2_Eltwise_4"
  bottom: "conv2_5_1"
  top: "conv2_Eltwise_5"
  eltwise_param {
    operation: SUM
  }
}
layer {
  name: "conv2_5ReLU_1"
  type: "ReLU"
  bottom: "conv2_Eltwise_5"
  top: "conv2_Eltwise_5"
}
layer {
  name: "conv3_1_0"
  type: "Convolution"
  bottom: "conv2_Eltwise_5"
  top: "conv3_1_0"
  param {
    lr_mult: 1
    decay_mult: 1
  }
  param {
    lr_mult: 2
    decay_mult: 0
  }
  convolution_param {
    num_output: 32
    bias_term: true
    pad: 1
    kernel_size: 3
    stride: 2
    weight_filler {
      type: "msra"
    }
    bias_filler {
      type: "constant"
      value: 0
    }
  }
}
layer {
  name: "conv3_1_bn0"
  type: "BatchNorm"
  bottom: "conv3_1_0"
  top: "conv3_1_0"
  param {
    lr_mult: 0
    decay_mult: 0
  }
  param {
    lr_mult: 0
    decay_mult: 0
  }
  param {
    lr_mult: 0
    decay_mult: 0
  }
  batch_norm_param {
    use_global_stats: true
  }
}
layer {
  name: "conv3_1_scale0"
  type: "Scale"
  bottom: "conv3_1_0"
  top: "conv3_1_0"
  scale_param {
    bias_term: true
  }
}
layer {
  name: "conv3_1_ReLU0"
  type: "ReLU"
  bottom: "conv3_1_0"
  top: "conv3_1_0"
}
layer {
  name: "conv3_1_1"
  type: "Convolution"
  bottom: "conv3_1_0"
  top: "conv3_1_1"
  param {
    lr_mult: 1
    decay_mult: 1
  }
  param {
    lr_mult: 2
    decay_mult: 0
  }
  convolution_param {
    num_output: 32
    bias_term: true
    pad: 1
    kernel_size: 3
    stride: 1
    weight_filler {
      type: "msra"
    }
    bias_filler {
      type: "constant"
      value: 0
    }
  }
}
layer {
  name: "conv3_1bn1"
  type: "BatchNorm"
  bottom: "conv3_1_1"
  top: "conv3_1_1"
  param {
    lr_mult: 0
    decay_mult: 0
  }
  param {
    lr_mult: 0
    decay_mult: 0
  }
  param {
    lr_mult: 0
    decay_mult: 0
  }
  batch_norm_param {
    use_global_stats: true
  }
}
layer {
  name: "conv3_1_scale1"
  type: "Scale"
  bottom: "conv3_1_1"
  top: "conv3_1_1"
  scale_param {
    bias_term: true
  }
}
layer {
  name: "conv3_1_down"
  type: "Convolution"
  bottom: "conv2_Eltwise_5"
  top: "conv3_1_down"
  param {
    lr_mult: 1
    decay_mult: 1
  }
  param {
    lr_mult: 2
    decay_mult: 0
  }
  convolution_param {
    num_output: 32
    bias_term: true
    pad: 0
    kernel_size: 1
    stride: 2
    weight_filler {
      type: "msra"
    }
    bias_filler {
      type: "constant"
      value: 0
    }
  }
}
layer {
  name: "conv3_1_bn_down"
  type: "BatchNorm"
  bottom: "conv3_1_down"
  top: "conv3_1_down"
  param {
    lr_mult: 0
    decay_mult: 0
  }
  param {
    lr_mult: 0
    decay_mult: 0
  }
  param {
    lr_mult: 0
    decay_mult: 0
  }
  batch_norm_param {
    use_global_stats: true
  }
}
layer {
  name: "conv3_1_scale_down"
  type: "Scale"
  bottom: "conv3_1_down"
  top: "conv3_1_down"
  scale_param {
    bias_term: true
  }
}
layer {
  name: "conv3_Eltwise_1"
  type: "Eltwise"
  bottom: "conv3_1_1"
  bottom: "conv3_1_down"
  top: "conv3_Eltwise_1"
  eltwise_param {
    operation: SUM
  }
}
layer {
  name: "conv3_1ReLU_1"
  type: "ReLU"
  bottom: "conv3_Eltwise_1"
  top: "conv3_Eltwise_1"
}
layer {
  name: "conv3_2_0"
  type: "Convolution"
  bottom: "conv3_Eltwise_1"
  top: "conv3_2_0"
  param {
    lr_mult: 1
    decay_mult: 1
  }
  param {
    lr_mult: 2
    decay_mult: 0
  }
  convolution_param {
    num_output: 32
    bias_term: true
    pad: 1
    kernel_size: 3
    stride: 1
    weight_filler {
      type: "msra"
    }
    bias_filler {
      type: "constant"
      value: 0
    }
  }
}
layer {
  name: "conv3_2_bn0"
  type: "BatchNorm"
  bottom: "conv3_2_0"
  top: "conv3_2_0"
  param {
    lr_mult: 0
    decay_mult: 0
  }
  param {
    lr_mult: 0
    decay_mult: 0
  }
  param {
    lr_mult: 0
    decay_mult: 0
  }
  batch_norm_param {
    use_global_stats: true
  }
}
layer {
  name: "conv3_2_scale0"
  type: "Scale"
  bottom: "conv3_2_0"
  top: "conv3_2_0"
  scale_param {
    bias_term: true
  }
}
layer {
  name: "conv3_2_ReLU0"
  type: "ReLU"
  bottom: "conv3_2_0"
  top: "conv3_2_0"
}
layer {
  name: "conv3_2_1"
  type: "Convolution"
  bottom: "conv3_2_0"
  top: "conv3_2_1"
  param {
    lr_mult: 1
    decay_mult: 1
  }
  param {
    lr_mult: 2
    decay_mult: 0
  }
  convolution_param {
    num_output: 32
    bias_term: true
    pad: 1
    kernel_size: 3
    stride: 1
    weight_filler {
      type: "msra"
    }
    bias_filler {
      type: "constant"
      value: 0
    }
  }
}
layer {
  name: "conv3_2bn1"
  type: "BatchNorm"
  bottom: "conv3_2_1"
  top: "conv3_2_1"
  param {
    lr_mult: 0
    decay_mult: 0
  }
  param {
    lr_mult: 0
    decay_mult: 0
  }
  param {
    lr_mult: 0
    decay_mult: 0
  }
  batch_norm_param {
    use_global_stats: true
  }
}
layer {
  name: "conv3_2_scale1"
  type: "Scale"
  bottom: "conv3_2_1"
  top: "conv3_2_1"
  scale_param {
    bias_term: true
  }
}
layer {
  name: "conv3_Eltwise_2"
  type: "Eltwise"
  bottom: "conv3_Eltwise_1"
  bottom: "conv3_2_1"
  top: "conv3_Eltwise_2"
  eltwise_param {
    operation: SUM
  }
}
layer {
  name: "conv3_2ReLU_1"
  type: "ReLU"
  bottom: "conv3_Eltwise_2"
  top: "conv3_Eltwise_2"
}
layer {
  name: "conv3_3_0"
  type: "Convolution"
  bottom: "conv3_Eltwise_2"
  top: "conv3_3_0"
  param {
    lr_mult: 1
    decay_mult: 1
  }
  param {
    lr_mult: 2
    decay_mult: 0
  }
  convolution_param {
    num_output: 32
    bias_term: true
    pad: 1
    kernel_size: 3
    stride: 1
    weight_filler {
      type: "msra"
    }
    bias_filler {
      type: "constant"
      value: 0
    }
  }
}
layer {
  name: "conv3_3_bn0"
  type: "BatchNorm"
  bottom: "conv3_3_0"
  top: "conv3_3_0"
  param {
    lr_mult: 0
    decay_mult: 0
  }
  param {
    lr_mult: 0
    decay_mult: 0
  }
  param {
    lr_mult: 0
    decay_mult: 0
  }
  batch_norm_param {
    use_global_stats: true
  }
}
layer {
  name: "conv3_3_scale0"
  type: "Scale"
  bottom: "conv3_3_0"
  top: "conv3_3_0"
  scale_param {
    bias_term: true
  }
}
layer {
  name: "conv3_3_ReLU0"
  type: "ReLU"
  bottom: "conv3_3_0"
  top: "conv3_3_0"
}
layer {
  name: "conv3_3_1"
  type: "Convolution"
  bottom: "conv3_3_0"
  top: "conv3_3_1"
  param {
    lr_mult: 1
    decay_mult: 1
  }
  param {
    lr_mult: 2
    decay_mult: 0
  }
  convolution_param {
    num_output: 32
    bias_term: true
    pad: 1
    kernel_size: 3
    stride: 1
    weight_filler {
      type: "msra"
    }
    bias_filler {
      type: "constant"
      value: 0
    }
  }
}
layer {
  name: "conv3_3bn1"
  type: "BatchNorm"
  bottom: "conv3_3_1"
  top: "conv3_3_1"
  param {
    lr_mult: 0
    decay_mult: 0
  }
  param {
    lr_mult: 0
    decay_mult: 0
  }
  param {
    lr_mult: 0
    decay_mult: 0
  }
  batch_norm_param {
    use_global_stats: true
  }
}
layer {
  name: "conv3_3_scale1"
  type: "Scale"
  bottom: "conv3_3_1"
  top: "conv3_3_1"
  scale_param {
    bias_term: true
  }
}
layer {
  name: "conv3_Eltwise_3"
  type: "Eltwise"
  bottom: "conv3_Eltwise_2"
  bottom: "conv3_3_1"
  top: "conv3_Eltwise_3"
  eltwise_param {
    operation: SUM
  }
}
layer {
  name: "conv3_3ReLU_1"
  type: "ReLU"
  bottom: "conv3_Eltwise_3"
  top: "conv3_Eltwise_3"
}
layer {
  name: "conv3_4_0"
  type: "Convolution"
  bottom: "conv3_Eltwise_3"
  top: "conv3_4_0"
  param {
    lr_mult: 1
    decay_mult: 1
  }
  param {
    lr_mult: 2
    decay_mult: 0
  }
  convolution_param {
    num_output: 32
    bias_term: true
    pad: 1
    kernel_size: 3
    stride: 1
    weight_filler {
      type: "msra"
    }
    bias_filler {
      type: "constant"
      value: 0
    }
  }
}
layer {
  name: "conv3_4_bn0"
  type: "BatchNorm"
  bottom: "conv3_4_0"
  top: "conv3_4_0"
  param {
    lr_mult: 0
    decay_mult: 0
  }
  param {
    lr_mult: 0
    decay_mult: 0
  }
  param {
    lr_mult: 0
    decay_mult: 0
  }
  batch_norm_param {
    use_global_stats: true
  }
}
layer {
  name: "conv3_4_scale0"
  type: "Scale"
  bottom: "conv3_4_0"
  top: "conv3_4_0"
  scale_param {
    bias_term: true
  }
}
layer {
  name: "conv3_4_ReLU0"
  type: "ReLU"
  bottom: "conv3_4_0"
  top: "conv3_4_0"
}
layer {
  name: "conv3_4_1"
  type: "Convolution"
  bottom: "conv3_4_0"
  top: "conv3_4_1"
  param {
    lr_mult: 1
    decay_mult: 1
  }
  param {
    lr_mult: 2
    decay_mult: 0
  }
  convolution_param {
    num_output: 32
    bias_term: true
    pad: 1
    kernel_size: 3
    stride: 1
    weight_filler {
      type: "msra"
    }
    bias_filler {
      type: "constant"
      value: 0
    }
  }
}
layer {
  name: "conv3_4bn1"
  type: "BatchNorm"
  bottom: "conv3_4_1"
  top: "conv3_4_1"
  param {
    lr_mult: 0
    decay_mult: 0
  }
  param {
    lr_mult: 0
    decay_mult: 0
  }
  param {
    lr_mult: 0
    decay_mult: 0
  }
  batch_norm_param {
    use_global_stats: true
  }
}
layer {
  name: "conv3_4_scale1"
  type: "Scale"
  bottom: "conv3_4_1"
  top: "conv3_4_1"
  scale_param {
    bias_term: true
  }
}
layer {
  name: "conv3_Eltwise_4"
  type: "Eltwise"
  bottom: "conv3_Eltwise_3"
  bottom: "conv3_4_1"
  top: "conv3_Eltwise_4"
  eltwise_param {
    operation: SUM
  }
}
layer {
  name: "conv3_4ReLU_1"
  type: "ReLU"
  bottom: "conv3_Eltwise_4"
  top: "conv3_Eltwise_4"
}
layer {
  name: "conv3_5_0"
  type: "Convolution"
  bottom: "conv3_Eltwise_4"
  top: "conv3_5_0"
  param {
    lr_mult: 1
    decay_mult: 1
  }
  param {
    lr_mult: 2
    decay_mult: 0
  }
  convolution_param {
    num_output: 32
    bias_term: true
    pad: 1
    kernel_size: 3
    stride: 1
    weight_filler {
      type: "msra"
    }
    bias_filler {
      type: "constant"
      value: 0
    }
  }
}
layer {
  name: "conv3_5_bn0"
  type: "BatchNorm"
  bottom: "conv3_5_0"
  top: "conv3_5_0"
  param {
    lr_mult: 0
    decay_mult: 0
  }
  param {
    lr_mult: 0
    decay_mult: 0
  }
  param {
    lr_mult: 0
    decay_mult: 0
  }
  batch_norm_param {
    use_global_stats: true
  }
}
layer {
  name: "conv3_5_scale0"
  type: "Scale"
  bottom: "conv3_5_0"
  top: "conv3_5_0"
  scale_param {
    bias_term: true
  }
}
layer {
  name: "conv3_5_ReLU0"
  type: "ReLU"
  bottom: "conv3_5_0"
  top: "conv3_5_0"
}
layer {
  name: "conv3_5_1"
  type: "Convolution"
  bottom: "conv3_5_0"
  top: "conv3_5_1"
  param {
    lr_mult: 1
    decay_mult: 1
  }
  param {
    lr_mult: 2
    decay_mult: 0
  }
  convolution_param {
    num_output: 32
    bias_term: true
    pad: 1
    kernel_size: 3
    stride: 1
    weight_filler {
      type: "msra"
    }
    bias_filler {
      type: "constant"
      value: 0
    }
  }
}
layer {
  name: "conv3_5bn1"
  type: "BatchNorm"
  bottom: "conv3_5_1"
  top: "conv3_5_1"
  param {
    lr_mult: 0
    decay_mult: 0
  }
  param {
    lr_mult: 0
    decay_mult: 0
  }
  param {
    lr_mult: 0
    decay_mult: 0
  }
  batch_norm_param {
    use_global_stats: true
  }
}
layer {
  name: "conv3_5_scale1"
  type: "Scale"
  bottom: "conv3_5_1"
  top: "conv3_5_1"
  scale_param {
    bias_term: true
  }
}
layer {
  name: "conv3_Eltwise_5"
  type: "Eltwise"
  bottom: "conv3_Eltwise_4"
  bottom: "conv3_5_1"
  top: "conv3_Eltwise_5"
  eltwise_param {
    operation: SUM
  }
}
layer {
  name: "conv3_5ReLU_1"
  type: "ReLU"
  bottom: "conv3_Eltwise_5"
  top: "conv3_Eltwise_5"
}
layer {
  name: "conv4_1_0"
  type: "Convolution"
  bottom: "conv3_Eltwise_5"
  top: "conv4_1_0"
  param {
    lr_mult: 1
    decay_mult: 1
  }
  param {
    lr_mult: 2
    decay_mult: 0
  }
  convolution_param {
    num_output: 64
    bias_term: true
    pad: 1
    kernel_size: 3
    stride: 2
    weight_filler {
      type: "msra"
    }
    bias_filler {
      type: "constant"
      value: 0
    }
  }
}
layer {
  name: "conv4_1_bn0"
  type: "BatchNorm"
  bottom: "conv4_1_0"
  top: "conv4_1_0"
  param {
    lr_mult: 0
    decay_mult: 0
  }
  param {
    lr_mult: 0
    decay_mult: 0
  }
  param {
    lr_mult: 0
    decay_mult: 0
  }
  batch_norm_param {
    use_global_stats: true
  }
}
layer {
  name: "conv4_1_scale0"
  type: "Scale"
  bottom: "conv4_1_0"
  top: "conv4_1_0"
  scale_param {
    bias_term: true
  }
}
layer {
  name: "conv4_1_ReLU0"
  type: "ReLU"
  bottom: "conv4_1_0"
  top: "conv4_1_0"
}
layer {
  name: "conv4_1_1"
  type: "Convolution"
  bottom: "conv4_1_0"
  top: "conv4_1_1"
  param {
    lr_mult: 1
    decay_mult: 1
  }
  param {
    lr_mult: 2
    decay_mult: 0
  }
  convolution_param {
    num_output: 64
    bias_term: true
    pad: 1
    kernel_size: 3
    stride: 1
    weight_filler {
      type: "msra"
    }
    bias_filler {
      type: "constant"
      value: 0
    }
  }
}
layer {
  name: "conv4_1bn1"
  type: "BatchNorm"
  bottom: "conv4_1_1"
  top: "conv4_1_1"
  param {
    lr_mult: 0
    decay_mult: 0
  }
  param {
    lr_mult: 0
    decay_mult: 0
  }
  param {
    lr_mult: 0
    decay_mult: 0
  }
  batch_norm_param {
    use_global_stats: true
  }
}
layer {
  name: "conv4_1_scale1"
  type: "Scale"
  bottom: "conv4_1_1"
  top: "conv4_1_1"
  scale_param {
    bias_term: true
  }
}
layer {
  name: "conv4_1_down"
  type: "Convolution"
  bottom: "conv3_Eltwise_5"
  top: "conv4_1_down"
  param {
    lr_mult: 1
    decay_mult: 1
  }
  param {
    lr_mult: 2
    decay_mult: 0
  }
  convolution_param {
    num_output: 64
    bias_term: true
    pad: 0
    kernel_size: 1
    stride: 2
    weight_filler {
      type: "msra"
    }
    bias_filler {
      type: "constant"
      value: 0
    }
  }
}
layer {
  name: "conv4_1_bn_down"
  type: "BatchNorm"
  bottom: "conv4_1_down"
  top: "conv4_1_down"
  param {
    lr_mult: 0
    decay_mult: 0
  }
  param {
    lr_mult: 0
    decay_mult: 0
  }
  param {
    lr_mult: 0
    decay_mult: 0
  }
  batch_norm_param {
    use_global_stats: true
  }
}
layer {
  name: "conv4_1_scale_down"
  type: "Scale"
  bottom: "conv4_1_down"
  top: "conv4_1_down"
  scale_param {
    bias_term: true
  }
}
layer {
  name: "conv4_Eltwise_1"
  type: "Eltwise"
  bottom: "conv4_1_1"
  bottom: "conv4_1_down"
  top: "conv4_Eltwise_1"
  eltwise_param {
    operation: SUM
  }
}
layer {
  name: "conv4_1ReLU_1"
  type: "ReLU"
  bottom: "conv4_Eltwise_1"
  top: "conv4_Eltwise_1"
}
layer {
  name: "conv4_2_0"
  type: "Convolution"
  bottom: "conv4_Eltwise_1"
  top: "conv4_2_0"
  param {
    lr_mult: 1
    decay_mult: 1
  }
  param {
    lr_mult: 2
    decay_mult: 0
  }
  convolution_param {
    num_output: 64
    bias_term: true
    pad: 1
    kernel_size: 3
    stride: 1
    weight_filler {
      type: "msra"
    }
    bias_filler {
      type: "constant"
      value: 0
    }
  }
}
layer {
  name: "conv4_2_bn0"
  type: "BatchNorm"
  bottom: "conv4_2_0"
  top: "conv4_2_0"
  param {
    lr_mult: 0
    decay_mult: 0
  }
  param {
    lr_mult: 0
    decay_mult: 0
  }
  param {
    lr_mult: 0
    decay_mult: 0
  }
  batch_norm_param {
    use_global_stats: true
  }
}
layer {
  name: "conv4_2_scale0"
  type: "Scale"
  bottom: "conv4_2_0"
  top: "conv4_2_0"
  scale_param {
    bias_term: true
  }
}
layer {
  name: "conv4_2_ReLU0"
  type: "ReLU"
  bottom: "conv4_2_0"
  top: "conv4_2_0"
}
layer {
  name: "conv4_2_1"
  type: "Convolution"
  bottom: "conv4_2_0"
  top: "conv4_2_1"
  param {
    lr_mult: 1
    decay_mult: 1
  }
  param {
    lr_mult: 2
    decay_mult: 0
  }
  convolution_param {
    num_output: 64
    bias_term: true
    pad: 1
    kernel_size: 3
    stride: 1
    weight_filler {
      type: "msra"
    }
    bias_filler {
      type: "constant"
      value: 0
    }
  }
}
layer {
  name: "conv4_2bn1"
  type: "BatchNorm"
  bottom: "conv4_2_1"
  top: "conv4_2_1"
  param {
    lr_mult: 0
    decay_mult: 0
  }
  param {
    lr_mult: 0
    decay_mult: 0
  }
  param {
    lr_mult: 0
    decay_mult: 0
  }
  batch_norm_param {
    use_global_stats: true
  }
}
layer {
  name: "conv4_2_scale1"
  type: "Scale"
  bottom: "conv4_2_1"
  top: "conv4_2_1"
  scale_param {
    bias_term: true
  }
}
layer {
  name: "conv4_Eltwise_2"
  type: "Eltwise"
  bottom: "conv4_Eltwise_1"
  bottom: "conv4_2_1"
  top: "conv4_Eltwise_2"
  eltwise_param {
    operation: SUM
  }
}
layer {
  name: "conv4_2ReLU_1"
  type: "ReLU"
  bottom: "conv4_Eltwise_2"
  top: "conv4_Eltwise_2"
}
…
I0929 16:32:17.808933 25496 net.cpp:194] Memory required for data: 46981240
I0929 16:32:17.808941 25496 layer_factory.hpp:77] Creating layer conv3_Eltwise_2
I0929 16:32:17.808950 25496 net.cpp:128] Creating Layer conv3_Eltwise_2
I0929 16:32:17.808955 25496 net.cpp:558] conv3_Eltwise_2 <- conv3_Eltwise_1_conv3_1ReLU_1_0_split_1
I0929 16:32:17.808961 25496 net.cpp:558] conv3_Eltwise_2 <- conv3_2_1
I0929 16:32:17.808967 25496 net.cpp:522] conv3_Eltwise_2 -> conv3_Eltwise_2
I0929 16:32:17.808995 25496 net.cpp:172] Setting up conv3_Eltwise_2
I0929 16:32:17.809002 25496 net.cpp:186] Top shape: 10 32 16 16 (81920)
I0929 16:32:17.809005 25496 net.cpp:194] Memory required for data: 47308920
I0929 16:32:17.809010 25496 layer_factory.hpp:77] Creating layer conv3_2ReLU_1
I0929 16:32:17.809016 25496 net.cpp:128] Creating Layer conv3_2ReLU_1
I0929 16:32:17.809020 25496 net.cpp:558] conv3_2ReLU_1 <- conv3_Eltwise_2
I0929 16:32:17.809028 25496 net.cpp:509] conv3_2ReLU_1 -> conv3_Eltwise_2 (in-place)
I0929 16:32:17.810340 25496 net.cpp:172] Setting up conv3_2ReLU_1
I0929 16:32:17.810360 25496 net.cpp:186] Top shape: 10 32 16 16 (81920)
I0929 16:32:17.810365 25496 net.cpp:194] Memory required for data: 47636600
I0929 16:32:17.810370 25496 layer_factory.hpp:77] Creating layer conv3_Eltwise_2_conv3_2ReLU_1_0_split
I0929 16:32:17.810379 25496 net.cpp:128] Creating Layer conv3_Eltwise_2_conv3_2ReLU_1_0_split
I0929 16:32:17.810384 25496 net.cpp:558] conv3_Eltwise_2_conv3_2ReLU_1_0_split <- conv3_Eltwise_2
I0929 16:32:17.810392 25496 net.cpp:522] conv3_Eltwise_2_conv3_2ReLU_1_0_split -> conv3_Eltwise_2_conv3_2ReLU_1_0_split_0
I0929 16:32:17.810401 25496 net.cpp:522] conv3_Eltwise_2_conv3_2ReLU_1_0_split -> conv3_Eltwise_2_conv3_2ReLU_1_0_split_1
I0929 16:32:17.810462 25496 net.cpp:172] Setting up conv3_Eltwise_2_conv3_2ReLU_1_0_split
I0929 16:32:17.810473 25496 net.cpp:186] Top shape: 10 32 16 16 (81920)
I0929 16:32:17.810479 25496 net.cpp:186] Top shape: 10 32 16 16 (81920)
I0929 16:32:17.810482 25496 net.cpp:194] Memory required for data: 48291960
I0929 16:32:17.810487 25496 layer_factory.hpp:77] Creating layer conv3_3_0
I0929 16:32:17.810500 25496 net.cpp:128] Creating Layer conv3_3_0
I0929 16:32:17.810504 25496 net.cpp:558] conv3_3_0 <- conv3_Eltwise_2_conv3_2ReLU_1_0_split_0
I0929 16:32:17.810513 25496 net.cpp:522] conv3_3_0 -> conv3_3_0
I0929 16:32:17.817162 25496 net.cpp:172] Setting up conv3_3_0
I0929 16:32:17.817199 25496 net.cpp:186] Top shape: 10 32 16 16 (81920)
I0929 16:32:17.817204 25496 net.cpp:194] Memory required for data: 48619640
I0929 16:32:17.817219 25496 layer_factory.hpp:77] Creating layer conv3_3_bn0
I0929 16:32:17.817230 25496 net.cpp:128] Creating Layer conv3_3_bn0
I0929 16:32:17.817236 25496 net.cpp:558] conv3_3_bn0 <- conv3_3_0
I0929 16:32:17.817247 25496 net.cpp:509] conv3_3_bn0 -> conv3_3_0 (in-place)
I0929 16:32:17.817553 25496 net.cpp:172] Setting up conv3_3_bn0
I0929 16:32:17.817564 25496 net.cpp:186] Top shape: 10 32 16 16 (81920)
I0929 16:32:17.817569 25496 net.cpp:194] Memory required for data: 48947320
I0929 16:32:17.817579 25496 layer_factory.hpp:77] Creating layer conv3_3_scale0
I0929 16:32:17.817587 25496 net.cpp:128] Creating Layer conv3_3_scale0
I0929 16:32:17.817591 25496 net.cpp:558] conv3_3_scale0 <- conv3_3_0
I0929 16:32:17.817602 25496 net.cpp:509] conv3_3_scale0 -> conv3_3_0 (in-place)
I0929 16:32:17.817662 25496 layer_factory.hpp:77] Creating layer conv3_3_scale0
I0929 16:32:17.817834 25496 net.cpp:172] Setting up conv3_3_scale0
I0929 16:32:17.817847 25496 net.cpp:186] Top shape: 10 32 16 16 (81920)
I0929 16:32:17.817850 25496 net.cpp:194] Memory required for data: 49275000
I0929 16:32:17.817858 25496 layer_factory.hpp:77] Creating layer conv3_3_ReLU0
I0929 16:32:17.817865 25496 net.cpp:128] Creating Layer conv3_3_ReLU0
I0929 16:32:17.817869 25496 net.cpp:558] conv3_3_ReLU0 <- conv3_3_0
I0929 16:32:17.817875 25496 net.cpp:509] conv3_3_ReLU0 -> conv3_3_0 (in-place)
I0929 16:32:17.819177 25496 net.cpp:172] Setting up conv3_3_ReLU0
I0929 16:32:17.819196 25496 net.cpp:186] Top shape: 10 32 16 16 (81920)
I0929 16:32:17.819200 25496 net.cpp:194] Memory required for data: 49602680
I0929 16:32:17.819205 25496 layer_factory.hpp:77] Creating layer conv3_3_1
I0929 16:32:17.819221 25496 net.cpp:128] Creating Layer conv3_3_1
I0929 16:32:17.819226 25496 net.cpp:558] conv3_3_1 <- conv3_3_0
I0929 16:32:17.819236 25496 net.cpp:522] conv3_3_1 -> conv3_3_1
I0929 16:32:17.825898 25496 net.cpp:172] Setting up conv3_3_1
I0929 16:32:17.825925 25496 net.cpp:186] Top shape: 10 32 16 16 (81920)
I0929 16:32:17.825937 25496 net.cpp:194] Memory required for data: 49930360
I0929 16:32:17.825947 25496 layer_factory.hpp:77] Creating layer conv3_3bn1
I0929 16:32:17.825959 25496 net.cpp:128] Creating Layer conv3_3bn1
I0929 16:32:17.825968 25496 net.cpp:558] conv3_3bn1 <- conv3_3_1
I0929 16:32:17.825978 25496 net.cpp:509] conv3_3bn1 -> conv3_3_1 (in-place)
I0929 16:32:17.826274 25496 net.cpp:172] Setting up conv3_3bn1
I0929 16:32:17.826285 25496 net.cpp:186] Top shape: 10 32 16 16 (81920)
I0929 16:32:17.826313 25496 net.cpp:194] Memory required for data: 50258040
I0929 16:32:17.826323 25496 layer_factory.hpp:77] Creating layer conv3_3_scale1
I0929 16:32:17.826331 25496 net.cpp:128] Creating Layer conv3_3_scale1
I0929 16:32:17.826335 25496 net.cpp:558] conv3_3_scale1 <- conv3_3_1
I0929 16:32:17.826344 25496 net.cpp:509] conv3_3_scale1 -> conv3_3_1 (in-place)
I0929 16:32:17.826402 25496 layer_factory.hpp:77] Creating layer conv3_3_scale1
I0929 16:32:17.826568 25496 net.cpp:172] Setting up conv3_3_scale1
I0929 16:32:17.826578 25496 net.cpp:186] Top shape: 10 32 16 16 (81920)
I0929 16:32:17.826583 25496 net.cpp:194] Memory required for data: 50585720
I0929 16:32:17.826594 25496 layer_factory.hpp:77] Creating layer conv3_Eltwise_3
I0929 16:32:17.826606 25496 net.cpp:128] Creating Layer conv3_Eltwise_3
I0929 16:32:17.826611 25496 net.cpp:558] conv3_Eltwise_3 <- conv3_Eltwise_2_conv3_2ReLU_1_0_split_1
I0929 16:32:17.826617 25496 net.cpp:558] conv3_Eltwise_3 <- conv3_3_1
I0929 16:32:17.826622 25496 net.cpp:522] conv3_Eltwise_3 -> conv3_Eltwise_3
I0929 16:32:17.826648 25496 net.cpp:172] Setting up conv3_Eltwise_3
I0929 16:32:17.826658 25496 net.cpp:186] Top shape: 10 32 16 16 (81920)
I0929 16:32:17.826663 25496 net.cpp:194] Memory required for data: 50913400
I0929 16:32:17.826666 25496 layer_factory.hpp:77] Creating layer conv3_3ReLU_1
I0929 16:32:17.826675 25496 net.cpp:128] Creating Layer conv3_3ReLU_1
I0929 16:32:17.826680 25496 net.cpp:558] conv3_3ReLU_1 <- conv3_Eltwise_3
I0929 16:32:17.826689 25496 net.cpp:509] conv3_3ReLU_1 -> conv3_Eltwise_3 (in-place)
I0929 16:32:17.827947 25496 net.cpp:172] Setting up conv3_3ReLU_1
I0929 16:32:17.827975 25496 net.cpp:186] Top shape: 10 32 16 16 (81920)
I0929 16:32:17.827980 25496 net.cpp:194] Memory required for data: 51241080
I0929 16:32:17.827985 25496 layer_factory.hpp:77] Creating layer conv3_Eltwise_3_conv3_3ReLU_1_0_split
I0929 16:32:17.827993 25496 net.cpp:128] Creating Layer conv3_Eltwise_3_conv3_3ReLU_1_0_split
I0929 16:32:17.828002 25496 net.cpp:558] conv3_Eltwise_3_conv3_3ReLU_1_0_split <- conv3_Eltwise_3
I0929 16:32:17.828012 25496 net.cpp:522] conv3_Eltwise_3_conv3_3ReLU_1_0_split -> conv3_Eltwise_3_conv3_3ReLU_1_0_split_0
I0929 16:32:17.828024 25496 net.cpp:522] conv3_Eltwise_3_conv3_3ReLU_1_0_split -> conv3_Eltwise_3_conv3_3ReLU_1_0_split_1
I0929 16:32:17.828085 25496 net.cpp:172] Setting up conv3_Eltwise_3_conv3_3ReLU_1_0_split
I0929 16:32:17.828092 25496 net.cpp:186] Top shape: 10 32 16 16 (81920)
I0929 16:32:17.828099 25496 net.cpp:186] Top shape: 10 32 16 16 (81920)
I0929 16:32:17.828102 25496 net.cpp:194] Memory required for data: 51896440
I0929 16:32:17.828106 25496 layer_factory.hpp:77] Creating layer conv3_4_0
I0929 16:32:17.828121 25496 net.cpp:128] Creating Layer conv3_4_0
I0929 16:32:17.828126 25496 net.cpp:558] conv3_4_0 <- conv3_Eltwise_3_conv3_3ReLU_1_0_split_0
I0929 16:32:17.828135 25496 net.cpp:522] conv3_4_0 -> conv3_4_0
I0929 16:32:17.834758 25496 net.cpp:172] Setting up conv3_4_0
I0929 16:32:17.834789 25496 net.cpp:186] Top shape: 10 32 16 16 (81920)
I0929 16:32:17.834794 25496 net.cpp:194] Memory required for data: 52224120
I0929 16:32:17.834806 25496 layer_factory.hpp:77] Creating layer conv3_4_bn0
I0929 16:32:17.834820 25496 net.cpp:128] Creating Layer conv3_4_bn0
I0929 16:32:17.834826 25496 net.cpp:558] conv3_4_bn0 <- conv3_4_0
I0929 16:32:17.834837 25496 net.cpp:509] conv3_4_bn0 -> conv3_4_0 (in-place)
I0929 16:32:17.835134 25496 net.cpp:172] Setting up conv3_4_bn0
I0929 16:32:17.835146 25496 net.cpp:186] Top shape: 10 32 16 16 (81920)
I0929 16:32:17.835150 25496 net.cpp:194] Memory required for data: 52551800
I0929 16:32:17.835175 25496 layer_factory.hpp:77] Creating layer conv3_4_scale0
I0929 16:32:17.835186 25496 net.cpp:128] Creating Layer conv3_4_scale0
I0929 16:32:17.835191 25496 net.cpp:558] conv3_4_scale0 <- conv3_4_0
I0929 16:32:17.835196 25496 net.cpp:509] conv3_4_scale0 -> conv3_4_0 (in-place)
I0929 16:32:17.835258 25496 layer_factory.hpp:77] Creating layer conv3_4_scale0
I0929 16:32:17.835429 25496 net.cpp:172] Setting up conv3_4_scale0
I0929 16:32:17.835469 25496 net.cpp:186] Top shape: 10 32 16 16 (81920)
I0929 16:32:17.835472 25496 net.cpp:194] Memory required for data: 52879480
I0929 16:32:17.835480 25496 layer_factory.hpp:77] Creating layer conv3_4_ReLU0
I0929 16:32:17.835487 25496 net.cpp:128] Creating Layer conv3_4_ReLU0
I0929 16:32:17.835491 25496 net.cpp:558] conv3_4_ReLU0 <- conv3_4_0
I0929 16:32:17.835497 25496 net.cpp:509] conv3_4_ReLU0 -> conv3_4_0 (in-place)
I0929 16:32:17.836745 25496 net.cpp:172] Setting up conv3_4_ReLU0
I0929 16:32:17.836766 25496 net.cpp:186] Top shape: 10 32 16 16 (81920)
I0929 16:32:17.836769 25496 net.cpp:194] Memory required for data: 53207160
I0929 16:32:17.836774 25496 layer_factory.hpp:77] Creating layer conv3_4_1
I0929 16:32:17.836787 25496 net.cpp:128] Creating Layer conv3_4_1
I0929 16:32:17.836793 25496 net.cpp:558] conv3_4_1 <- conv3_4_0
I0929 16:32:17.836800 25496 net.cpp:522] conv3_4_1 -> conv3_4_1
I0929 16:32:17.843497 25496 net.cpp:172] Setting up conv3_4_1
I0929 16:32:17.843523 25496 net.cpp:186] Top shape: 10 32 16 16 (81920)
I0929 16:32:17.843528 25496 net.cpp:194] Memory required for data: 53534840
I0929 16:32:17.843538 25496 layer_factory.hpp:77] Creating layer conv3_4bn1
I0929 16:32:17.843547 25496 net.cpp:128] Creating Layer conv3_4bn1
I0929 16:32:17.843556 25496 net.cpp:558] conv3_4bn1 <- conv3_4_1
I0929 16:32:17.843564 25496 net.cpp:509] conv3_4bn1 -> conv3_4_1 (in-place)
I0929 16:32:17.843853 25496 net.cpp:172] Setting up conv3_4bn1
I0929 16:32:17.843864 25496 net.cpp:186] Top shape: 10 32 16 16 (81920)
I0929 16:32:17.843868 25496 net.cpp:194] Memory required for data: 53862520
I0929 16:32:17.843878 25496 layer_factory.hpp:77] Creating layer conv3_4_scale1
I0929 16:32:17.843888 25496 net.cpp:128] Creating Layer conv3_4_scale1
I0929 16:32:17.843895 25496 net.cpp:558] conv3_4_scale1 <- conv3_4_1
I0929 16:32:17.843900 25496 net.cpp:509] conv3_4_scale1 -> conv3_4_1 (in-place)
I0929 16:32:17.843958 25496 layer_factory.hpp:77] Creating layer conv3_4_scale1
I0929 16:32:17.844121 25496 net.cpp:172] Setting up conv3_4_scale1
I0929 16:32:17.844132 25496 net.cpp:186] Top shape: 10 32 16 16 (81920)
I0929 16:32:17.844136 25496 net.cpp:194] Memory required for data: 54190200
I0929 16:32:17.844144 25496 layer_factory.hpp:77] Creating layer conv3_Eltwise_4
I0929 16:32:17.844158 25496 net.cpp:128] Creating Layer conv3_Eltwise_4
I0929 16:32:17.844166 25496 net.cpp:558] conv3_Eltwise_4 <- conv3_Eltwise_3_conv3_3ReLU_1_0_split_1
I0929 16:32:17.844172 25496 net.cpp:558] conv3_Eltwise_4 <- conv3_4_1
I0929 16:32:17.844178 25496 net.cpp:522] conv3_Eltwise_4 -> conv3_Eltwise_4
I0929 16:32:17.844204 25496 net.cpp:172] Setting up conv3_Eltwise_4
I0929 16:32:17.844210 25496 net.cpp:186] Top shape: 10 32 16 16 (81920)
I0929 16:32:17.844214 25496 net.cpp:194] Memory required for data: 54517880
I0929 16:32:17.844218 25496 layer_factory.hpp:77] Creating layer conv3_4ReLU_1
I0929 16:32:17.844228 25496 net.cpp:128] Creating Layer conv3_4ReLU_1
I0929 16:32:17.844233 25496 net.cpp:558] conv3_4ReLU_1 <- conv3_Eltwise_4
I0929 16:32:17.844238 25496 net.cpp:509] conv3_4ReLU_1 -> conv3_Eltwise_4 (in-place)
I0929 16:32:17.845513 25496 net.cpp:172] Setting up conv3_4ReLU_1
I0929 16:32:17.845531 25496 net.cpp:186] Top shape: 10 32 16 16 (81920)
I0929 16:32:17.845535 25496 net.cpp:194] Memory required for data: 54845560
I0929 16:32:17.845541 25496 layer_factory.hpp:77] Creating layer conv3_Eltwise_4_conv3_4ReLU_1_0_split
I0929 16:32:17.845551 25496 net.cpp:128] Creating Layer conv3_Eltwise_4_conv3_4ReLU_1_0_split
I0929 16:32:17.845556 25496 net.cpp:558] conv3_Eltwise_4_conv3_4ReLU_1_0_split <- conv3_Eltwise_4
I0929 16:32:17.845564 25496 net.cpp:522] conv3_Eltwise_4_conv3_4ReLU_1_0_split -> conv3_Eltwise_4_conv3_4ReLU_1_0_split_0
I0929 16:32:17.845572 25496 net.cpp:522] conv3_Eltwise_4_conv3_4ReLU_1_0_split -> conv3_Eltwise_4_conv3_4ReLU_1_0_split_1
I0929 16:32:17.845636 25496 net.cpp:172] Setting up conv3_Eltwise_4_conv3_4ReLU_1_0_split
I0929 16:32:17.845649 25496 net.cpp:186] Top shape: 10 32 16 16 (81920)
I0929 16:32:17.845654 25496 net.cpp:186] Top shape: 10 32 16 16 (81920)
I0929 16:32:17.845674 25496 net.cpp:194] Memory required for data: 55500920
I0929 16:32:17.845679 25496 layer_factory.hpp:77] Creating layer conv3_5_0
I0929 16:32:17.845692 25496 net.cpp:128] Creating Layer conv3_5_0
I0929 16:32:17.845697 25496 net.cpp:558] conv3_5_0 <- conv3_Eltwise_4_conv3_4ReLU_1_0_split_0
I0929 16:32:17.845705 25496 net.cpp:522] conv3_5_0 -> conv3_5_0
I0929 16:32:17.852322 25496 net.cpp:172] Setting up conv3_5_0
I0929 16:32:17.852357 25496 net.cpp:186] Top shape: 10 32 16 16 (81920)
I0929 16:32:17.852362 25496 net.cpp:194] Memory required for data: 55828600
I0929 16:32:17.852375 25496 layer_factory.hpp:77] Creating layer conv3_5_bn0
I0929 16:32:17.852387 25496 net.cpp:128] Creating Layer conv3_5_bn0
I0929 16:32:17.852398 25496 net.cpp:558] conv3_5_bn0 <- conv3_5_0
I0929 16:32:17.852408 25496 net.cpp:509] conv3_5_bn0 -> conv3_5_0 (in-place)
I0929 16:32:17.852710 25496 net.cpp:172] Setting up conv3_5_bn0
I0929 16:32:17.852720 25496 net.cpp:186] Top shape: 10 32 16 16 (81920)
I0929 16:32:17.852725 25496 net.cpp:194] Memory required for data: 56156280
I0929 16:32:17.852735 25496 layer_factory.hpp:77] Creating layer conv3_5_scale0
I0929 16:32:17.852746 25496 net.cpp:128] Creating Layer conv3_5_scale0
I0929 16:32:17.852751 25496 net.cpp:558] conv3_5_scale0 <- conv3_5_0
I0929 16:32:17.852756 25496 net.cpp:509] conv3_5_scale0 -> conv3_5_0 (in-place)
I0929 16:32:17.852820 25496 layer_factory.hpp:77] Creating layer conv3_5_scale0
I0929 16:32:17.852998 25496 net.cpp:172] Setting up conv3_5_scale0
I0929 16:32:17.853010 25496 net.cpp:186] Top shape: 10 32 16 16 (81920)
I0929 16:32:17.853014 25496 net.cpp:194] Memory required for data: 56483960
I0929 16:32:17.853021 25496 layer_factory.hpp:77] Creating layer conv3_5_ReLU0
I0929 16:32:17.853030 25496 net.cpp:128] Creating Layer conv3_5_ReLU0
I0929 16:32:17.853035 25496 net.cpp:558] conv3_5_ReLU0 <- conv3_5_0
I0929 16:32:17.853040 25496 net.cpp:509] conv3_5_ReLU0 -> conv3_5_0 (in-place)
I0929 16:32:17.853555 25496 net.cpp:172] Setting up conv3_5_ReLU0
I0929 16:32:17.853577 25496 net.cpp:186] Top shape: 10 32 16 16 (81920)
I0929 16:32:17.853581 25496 net.cpp:194] Memory required for data: 56811640
I0929 16:32:17.853586 25496 layer_factory.hpp:77] Creating layer conv3_5_1
I0929 16:32:17.853603 25496 net.cpp:128] Creating Layer conv3_5_1
I0929 16:32:17.853610 25496 net.cpp:558] conv3_5_1 <- conv3_5_0
I0929 16:32:17.853617 25496 net.cpp:522] conv3_5_1 -> conv3_5_1
I0929 16:32:17.855181 25496 net.cpp:172] Setting up conv3_5_1
I0929 16:32:17.855208 25496 net.cpp:186] Top shape: 10 32 16 16 (81920)
I0929 16:32:17.855212 25496 net.cpp:194] Memory required for data: 57139320
I0929 16:32:17.855222 25496 layer_factory.hpp:77] Creating layer conv3_5bn1
I0929 16:32:17.855234 25496 net.cpp:128] Creating Layer conv3_5bn1
I0929 16:32:17.855239 25496 net.cpp:558] conv3_5bn1 <- conv3_5_1
I0929 16:32:17.855247 25496 net.cpp:509] conv3_5bn1 -> conv3_5_1 (in-place)
I0929 16:32:17.855541 25496 net.cpp:172] Setting up conv3_5bn1
I0929 16:32:17.855553 25496 net.cpp:186] Top shape: 10 32 16 16 (81920)
I0929 16:32:17.855557 25496 net.cpp:194] Memory required for data: 57467000
I0929 16:32:17.855567 25496 layer_factory.hpp:77] Creating layer conv3_5_scale1
I0929 16:32:17.855573 25496 net.cpp:128] Creating Layer conv3_5_scale1
I0929 16:32:17.855578 25496 net.cpp:558] conv3_5_scale1 <- conv3_5_1
I0929 16:32:17.855585 25496 net.cpp:509] conv3_5_scale1 -> conv3_5_1 (in-place)
I0929 16:32:17.855638 25496 layer_factory.hpp:77] Creating layer conv3_5_scale1
I0929 16:32:17.855803 25496 net.cpp:172] Setting up conv3_5_scale1
I0929 16:32:17.855818 25496 net.cpp:186] Top shape: 10 32 16 16 (81920)
I0929 16:32:17.855821 25496 net.cpp:194] Memory required for data: 57794680
I0929 16:32:17.855829 25496 layer_factory.hpp:77] Creating layer conv3_Eltwise_5
I0929 16:32:17.855836 25496 net.cpp:128] Creating Layer conv3_Eltwise_5
I0929 16:32:17.855841 25496 net.cpp:558] conv3_Eltwise_5 <- conv3_Eltwise_4_conv3_4ReLU_1_0_split_1
I0929 16:32:17.855847 25496 net.cpp:558] conv3_Eltwise_5 <- conv3_5_1
I0929 16:32:17.855876 25496 net.cpp:522] conv3_Eltwise_5 -> conv3_Eltwise_5
I0929 16:32:17.855903 25496 net.cpp:172] Setting up conv3_Eltwise_5
I0929 16:32:17.855914 25496 net.cpp:186] Top shape: 10 32 16 16 (81920)
I0929 16:32:17.855918 25496 net.cpp:194] Memory required for data: 58122360
I0929 16:32:17.855922 25496 layer_factory.hpp:77] Creating layer conv3_5ReLU_1
I0929 16:32:17.855928 25496 net.cpp:128] Creating Layer conv3_5ReLU_1
I0929 16:32:17.855932 25496 net.cpp:558] conv3_5ReLU_1 <- conv3_Eltwise_5
I0929 16:32:17.855938 25496 net.cpp:509] conv3_5ReLU_1 -> conv3_Eltwise_5 (in-place)
I0929 16:32:17.856199 25496 net.cpp:172] Setting up conv3_5ReLU_1
I0929 16:32:17.856209 25496 net.cpp:186] Top shape: 10 32 16 16 (81920)
I0929 16:32:17.856214 25496 net.cpp:194] Memory required for data: 58450040
I0929 16:32:17.856217 25496 layer_factory.hpp:77] Creating layer conv3_Eltwise_5_conv3_5ReLU_1_0_split
I0929 16:32:17.856227 25496 net.cpp:128] Creating Layer conv3_Eltwise_5_conv3_5ReLU_1_0_split
I0929 16:32:17.856232 25496 net.cpp:558] conv3_Eltwise_5_conv3_5ReLU_1_0_split <- conv3_Eltwise_5
I0929 16:32:17.856238 25496 net.cpp:522] conv3_Eltwise_5_conv3_5ReLU_1_0_split -> conv3_Eltwise_5_conv3_5ReLU_1_0_split_0
I0929 16:32:17.856250 25496 net.cpp:522] conv3_Eltwise_5_conv3_5ReLU_1_0_split -> conv3_Eltwise_5_conv3_5ReLU_1_0_split_1
I0929 16:32:17.856307 25496 net.cpp:172] Setting up conv3_Eltwise_5_conv3_5ReLU_1_0_split
I0929 16:32:17.856313 25496 net.cpp:186] Top shape: 10 32 16 16 (81920)
I0929 16:32:17.856318 25496 net.cpp:186] Top shape: 10 32 16 16 (81920)
I0929 16:32:17.856323 25496 net.cpp:194] Memory required for data: 59105400
I0929 16:32:17.856326 25496 layer_factory.hpp:77] Creating layer conv4_1_0
I0929 16:32:17.856340 25496 net.cpp:128] Creating Layer conv4_1_0
I0929 16:32:17.856345 25496 net.cpp:558] conv4_1_0 <- conv3_Eltwise_5_conv3_5ReLU_1_0_split_0
I0929 16:32:17.856353 25496 net.cpp:522] conv4_1_0 -> conv4_1_0
I0929 16:32:17.858080 25496 net.cpp:172] Setting up conv4_1_0
I0929 16:32:17.858103 25496 net.cpp:186] Top shape: 10 64 8 8 (40960)
I0929 16:32:17.858108 25496 net.cpp:194] Memory required for data: 59269240
I0929 16:32:17.858116 25496 layer_factory.hpp:77] Creating layer conv4_1_bn0
I0929 16:32:17.858129 25496 net.cpp:128] Creating Layer conv4_1_bn0
I0929 16:32:17.858134 25496 net.cpp:558] conv4_1_bn0 <- conv4_1_0
I0929 16:32:17.858142 25496 net.cpp:509] conv4_1_bn0 -> conv4_1_0 (in-place)
I0929 16:32:17.858454 25496 net.cpp:172] Setting up conv4_1_bn0
I0929 16:32:17.858466 25496 net.cpp:186] Top shape: 10 64 8 8 (40960)
I0929 16:32:17.858470 25496 net.cpp:194] Memory required for data: 59433080
I0929 16:32:17.858480 25496 layer_factory.hpp:77] Creating layer conv4_1_scale0
I0929 16:32:17.858487 25496 net.cpp:128] Creating Layer conv4_1_scale0
I0929 16:32:17.858491 25496 net.cpp:558] conv4_1_scale0 <- conv4_1_0
I0929 16:32:17.858496 25496 net.cpp:509] conv4_1_scale0 -> conv4_1_0 (in-place)
I0929 16:32:17.858553 25496 layer_factory.hpp:77] Creating layer conv4_1_scale0
I0929 16:32:17.858721 25496 net.cpp:172] Setting up conv4_1_scale0
I0929 16:32:17.858731 25496 net.cpp:186] Top shape: 10 64 8 8 (40960)
I0929 16:32:17.858736 25496 net.cpp:194] Memory required for data: 59596920
I0929 16:32:17.858742 25496 layer_factory.hpp:77] Creating layer conv4_1_ReLU0
I0929 16:32:17.858750 25496 net.cpp:128] Creating Layer conv4_1_ReLU0
I0929 16:32:17.858755 25496 net.cpp:558] conv4_1_ReLU0 <- conv4_1_0
I0929 16:32:17.858760 25496 net.cpp:509] conv4_1_ReLU0 -> conv4_1_0 (in-place)
I0929 16:32:17.859021 25496 net.cpp:172] Setting up conv4_1_ReLU0
I0929 16:32:17.859032 25496 net.cpp:186] Top shape: 10 64 8 8 (40960)
I0929 16:32:17.859035 25496 net.cpp:194] Memory required for data: 59760760
I0929 16:32:17.859040 25496 layer_factory.hpp:77] Creating layer conv4_1_1
I0929 16:32:17.859052 25496 net.cpp:128] Creating Layer conv4_1_1
I0929 16:32:17.859057 25496 net.cpp:558] conv4_1_1 <- conv4_1_0
I0929 16:32:17.859066 25496 net.cpp:522] conv4_1_1 -> conv4_1_1
I0929 16:32:17.862452 25496 net.cpp:172] Setting up conv4_1_1
I0929 16:32:17.862498 25496 net.cpp:186] Top shape: 10 64 8 8 (40960)
I0929 16:32:17.862504 25496 net.cpp:194] Memory required for data: 59924600
I0929 16:32:17.862515 25496 layer_factory.hpp:77] Creating layer conv4_1bn1
I0929 16:32:17.862534 25496 net.cpp:128] Creating Layer conv4_1bn1
I0929 16:32:17.862540 25496 net.cpp:558] conv4_1bn1 <- conv4_1_1
I0929 16:32:17.862551 25496 net.cpp:509] conv4_1bn1 -> conv4_1_1 (in-place)
I0929 16:32:17.862860 25496 net.cpp:172] Setting up conv4_1bn1
I0929 16:32:17.862869 25496 net.cpp:186] Top shape: 10 64 8 8 (40960)
I0929 16:32:17.862874 25496 net.cpp:194] Memory required for data: 60088440
I0929 16:32:17.862884 25496 layer_factory.hpp:77] Creating layer conv4_1_scale1
I0929 16:32:17.862893 25496 net.cpp:128] Creating Layer conv4_1_scale1
I0929 16:32:17.862897 25496 net.cpp:558] conv4_1_scale1 <- conv4_1_1
I0929 16:32:17.862903 25496 net.cpp:509] conv4_1_scale1 -> conv4_1_1 (in-place)
I0929 16:32:17.862963 25496 layer_factory.hpp:77] Creating layer conv4_1_scale1
I0929 16:32:17.863138 25496 net.cpp:172] Setting up conv4_1_scale1
I0929 16:32:17.863148 25496 net.cpp:186] Top shape: 10 64 8 8 (40960)
I0929 16:32:17.863152 25496 net.cpp:194] Memory required for data: 60252280
I0929 16:32:17.863160 25496 layer_factory.hpp:77] Creating layer conv4_1_down
I0929 16:32:17.863176 25496 net.cpp:128] Creating Layer conv4_1_down
I0929 16:32:17.863183 25496 net.cpp:558] conv4_1_down <- conv3_Eltwise_5_conv3_5ReLU_1_0_split_1
I0929 16:32:17.863191 25496 net.cpp:522] conv4_1_down -> conv4_1_down
I0929 16:32:17.864627 25496 net.cpp:172] Setting up conv4_1_down
I0929 16:32:17.864655 25496 net.cpp:186] Top shape: 10 64 8 8 (40960)
I0929 16:32:17.864660 25496 net.cpp:194] Memory required for data: 60416120
I0929 16:32:17.864670 25496 layer_factory.hpp:77] Creating layer conv4_1_bn_down
I0929 16:32:17.864677 25496 net.cpp:128] Creating Layer conv4_1_bn_down
I0929 16:32:17.864687 25496 net.cpp:558] conv4_1_bn_down <- conv4_1_down
I0929 16:32:17.864696 25496 net.cpp:509] conv4_1_bn_down -> conv4_1_down (in-place)
I0929 16:32:17.865001 25496 net.cpp:172] Setting up conv4_1_bn_down
I0929 16:32:17.865011 25496 net.cpp:186] Top shape: 10 64 8 8 (40960)
I0929 16:32:17.865015 25496 net.cpp:194] Memory required for data: 60579960
I0929 16:32:17.865025 25496 layer_factory.hpp:77] Creating layer conv4_1_scale_down
I0929 16:32:17.865033 25496 net.cpp:128] Creating Layer conv4_1_scale_down
I0929 16:32:17.865038 25496 net.cpp:558] conv4_1_scale_down <- conv4_1_down
I0929 16:32:17.865046 25496 net.cpp:509] conv4_1_scale_down -> conv4_1_down (in-place)
I0929 16:32:17.865098 25496 layer_factory.hpp:77] Creating layer conv4_1_scale_down
I0929 16:32:17.865272 25496 net.cpp:172] Setting up conv4_1_scale_down
I0929 16:32:17.865281 25496 net.cpp:186] Top shape: 10 64 8 8 (40960)
I0929 16:32:17.865285 25496 net.cpp:194] Memory required for data: 60743800
I0929 16:32:17.865293 25496 layer_factory.hpp:77] Creating layer conv4_Eltwise_1
I0929 16:32:17.865305 25496 net.cpp:128] Creating Layer conv4_Eltwise_1
I0929 16:32:17.865310 25496 net.cpp:558] conv4_Eltwise_1 <- conv4_1_1
I0929 16:32:17.865315 25496 net.cpp:558] conv4_Eltwise_1 <- conv4_1_down
I0929 16:32:17.865321 25496 net.cpp:522] conv4_Eltwise_1 -> conv4_Eltwise_1
I0929 16:32:17.865353 25496 net.cpp:172] Setting up conv4_Eltwise_1
I0929 16:32:17.865360 25496 net.cpp:186] Top shape: 10 64 8 8 (40960)
I0929 16:32:17.865365 25496 net.cpp:194] Memory required for data: 60907640
I0929 16:32:17.865368 25496 layer_factory.hpp:77] Creating layer conv4_1ReLU_1
I0929 16:32:17.865375 25496 net.cpp:128] Creating Layer conv4_1ReLU_1
I0929 16:32:17.865378 25496 net.cpp:558] conv4_1ReLU_1 <- conv4_Eltwise_1
I0929 16:32:17.865386 25496 net.cpp:509] conv4_1ReLU_1 -> conv4_Eltwise_1 (in-place)
I0929 16:32:17.865866 25496 net.cpp:172] Setting up conv4_1ReLU_1
I0929 16:32:17.865888 25496 net.cpp:186] Top shape: 10 64 8 8 (40960)
I0929 16:32:17.865892 25496 net.cpp:194] Memory required for data: 61071480
I0929 16:32:17.865901 25496 layer_factory.hpp:77] Creating layer conv4_Eltwise_1_conv4_1ReLU_1_0_split
I0929 16:32:17.865926 25496 net.cpp:128] Creating Layer conv4_Eltwise_1_conv4_1ReLU_1_0_split
I0929 16:32:17.865941 25496 net.cpp:558] conv4_Eltwise_1_conv4_1ReLU_1_0_split <- conv4_Eltwise_1
I0929 16:32:17.865950 25496 net.cpp:522] conv4_Eltwise_1_conv4_1ReLU_1_0_split -> conv4_Eltwise_1_conv4_1ReLU_1_0_split_0
I0929 16:32:17.865959 25496 net.cpp:522] conv4_Eltwise_1_conv4_1ReLU_1_0_split -> conv4_Eltwise_1_conv4_1ReLU_1_0_split_1
I0929 16:32:17.866027 25496 net.cpp:172] Setting up conv4_Eltwise_1_conv4_1ReLU_1_0_split
I0929 16:32:17.866037 25496 net.cpp:186] Top shape: 10 64 8 8 (40960)
I0929 16:32:17.866044 25496 net.cpp:186] Top shape: 10 64 8 8 (40960)
I0929 16:32:17.866047 25496 net.cpp:194] Memory required for data: 61399160
I0929 16:32:17.866051 25496 layer_factory.hpp:77] Creating layer conv4_2_0
I0929 16:32:17.866063 25496 net.cpp:128] Creating Layer conv4_2_0
I0929 16:32:17.866068 25496 net.cpp:558] conv4_2_0 <- conv4_Eltwise_1_conv4_1ReLU_1_0_split_0
I0929 16:32:17.866077 25496 net.cpp:522] conv4_2_0 -> conv4_2_0
I0929 16:32:17.868269 25496 net.cpp:172] Setting up conv4_2_0
I0929 16:32:17.868300 25496 net.cpp:186] Top shape: 10 64 8 8 (40960)
I0929 16:32:17.868305 25496 net.cpp:194] Memory required for data: 61563000
I0929 16:32:17.868316 25496 layer_factory.hpp:77] Creating layer conv4_2_bn0
I0929 16:32:17.868330 25496 net.cpp:128] Creating Layer conv4_2_bn0
I0929 16:32:17.868337 25496 net.cpp:558] conv4_2_bn0 <- conv4_2_0
I0929 16:32:17.868345 25496 net.cpp:509] conv4_2_bn0 -> conv4_2_0 (in-place)
I0929 16:32:17.868659 25496 net.cpp:172] Setting up conv4_2_bn0
I0929 16:32:17.868669 25496 net.cpp:186] Top shape: 10 64 8 8 (40960)
I0929 16:32:17.868674 25496 net.cpp:194] Memory required for data: 61726840
I0929 16:32:17.868683 25496 layer_factory.hpp:77] Creating layer conv4_2_scale0
I0929 16:32:17.868693 25496 net.cpp:128] Creating Layer conv4_2_scale0
I0929 16:32:17.868697 25496 net.cpp:558] conv4_2_scale0 <- conv4_2_0
I0929 16:32:17.868703 25496 net.cpp:509] conv4_2_scale0 -> conv4_2_0 (in-place)
I0929 16:32:17.868762 25496 layer_factory.hpp:77] Creating layer conv4_2_scale0
I0929 16:32:17.868937 25496 net.cpp:172] Setting up conv4_2_scale0
I0929 16:32:17.868949 25496 net.cpp:186] Top shape: 10 64 8 8 (40960)
I0929 16:32:17.868957 25496 net.cpp:194] Memory required for data: 61890680
I0929 16:32:17.868964 25496 layer_factory.hpp:77] Creating layer conv4_2_ReLU0
I0929 16:32:17.868973 25496 net.cpp:128] Creating Layer conv4_2_ReLU0
I0929 16:32:17.868978 25496 net.cpp:558] conv4_2_ReLU0 <- conv4_2_0
I0929 16:32:17.868983 25496 net.cpp:509] conv4_2_ReLU0 -> conv4_2_0 (in-place)
I0929 16:32:17.869246 25496 net.cpp:172] Setting up conv4_2_ReLU0
I0929 16:32:17.869261 25496 net.cpp:186] Top shape: 10 64 8 8 (40960)
I0929 16:32:17.869269 25496 net.cpp:194] Memory required for data: 62054520
I0929 16:32:17.869274 25496 layer_factory.hpp:77] Creating layer conv4_2_1
I0929 16:32:17.869290 25496 net.cpp:128] Creating Layer conv4_2_1
I0929 16:32:17.869298 25496 net.cpp:558] conv4_2_1 <- conv4_2_0
I0929 16:32:17.869307 25496 net.cpp:522] conv4_2_1 -> conv4_2_1
I0929 16:32:17.872001 25496 net.cpp:172] Setting up conv4_2_1
I0929 16:32:17.872032 25496 net.cpp:186] Top shape: 10 64 8 8 (40960)
I0929 16:32:17.872037 25496 net.cpp:194] Memory required for data: 62218360
I0929 16:32:17.872047 25496 layer_factory.hpp:77] Creating layer conv4_2bn1
I0929 16:32:17.872068 25496 net.cpp:128] Creating Layer conv4_2bn1
I0929 16:32:17.872074 25496 net.cpp:558] conv4_2bn1 <- conv4_2_1
I0929 16:32:17.872082 25496 net.cpp:509] conv4_2bn1 -> conv4_2_1 (in-place)
I0929 16:32:17.872388 25496 net.cpp:172] Setting up conv4_2bn1
I0929 16:32:17.872398 25496 net.cpp:186] Top shape: 10 64 8 8 (40960)
I0929 16:32:17.872402 25496 net.cpp:194] Memory required for data: 62382200
I0929 16:32:17.872412 25496 layer_factory.hpp:77] Creating layer conv4_2_scale1
I0929 16:32:17.872421 25496 net.cpp:128] Creating Layer conv4_2_scale1
I0929 16:32:17.872429 25496 net.cpp:558] conv4_2_scale1 <- conv4_2_1
I0929 16:32:17.872455 25496 net.cpp:509] conv4_2_scale1 -> conv4_2_1 (in-place)
I0929 16:32:17.872515 25496 layer_factory.hpp:77] Creating layer conv4_2_scale1
I0929 16:32:17.872691 25496 net.cpp:172] Setting up conv4_2_scale1
I0929 16:32:17.872700 25496 net.cpp:186] Top shape: 10 64 8 8 (40960)
I0929 16:32:17.872705 25496 net.cpp:194] Memory required for data: 62546040
I0929 16:32:17.872714 25496 layer_factory.hpp:77] Creating layer conv4_Eltwise_2
I0929 16:32:17.872723 25496 net.cpp:128] Creating Layer conv4_Eltwise_2
I0929 16:32:17.872730 25496 net.cpp:558] conv4_Eltwise_2 <- conv4_Eltwise_1_conv4_1ReLU_1_0_split_1
I0929 16:32:17.872735 25496 net.cpp:558] conv4_Eltwise_2 <- conv4_2_1
I0929 16:32:17.872741 25496 net.cpp:522] conv4_Eltwise_2 -> conv4_Eltwise_2
I0929 16:32:17.872774 25496 net.cpp:172] Setting up conv4_Eltwise_2
I0929 16:32:17.872781 25496 net.cpp:186] Top shape: 10 64 8 8 (40960)
I0929 16:32:17.872786 25496 net.cpp:194] Memory required for data: 62709880
I0929 16:32:17.872789 25496 layer_factory.hpp:77] Creating layer conv4_2ReLU_1
I0929 16:32:17.872797 25496 net.cpp:128] Creating Layer conv4_2ReLU_1
I0929 16:32:17.872804 25496 net.cpp:558] conv4_2ReLU_1 <- conv4_Eltwise_2
I0929 16:32:17.872809 25496 net.cpp:509] conv4_2ReLU_1 -> conv4_Eltwise_2 (in-place)
I0929 16:32:17.873066 25496 net.cpp:172] Setting up conv4_2ReLU_1
I0929 16:32:17.873080 25496 net.cpp:186] Top shape: 10 64 8 8 (40960)
I0929 16:32:17.873083 25496 net.cpp:194] Memory required for data: 62873720
I0929 16:32:17.873088 25496 layer_factory.hpp:77] Creating layer conv4_Eltwise_2_conv4_2ReLU_1_0_split
I0929 16:32:17.873095 25496 net.cpp:128] Creating Layer conv4_Eltwise_2_conv4_2ReLU_1_0_split
I0929 16:32:17.873100 25496 net.cpp:558] conv4_Eltwise_2_conv4_2ReLU_1_0_split <- conv4_Eltwise_2
I0929 16:32:17.873108 25496 net.cpp:522] conv4_Eltwise_2_conv4_2ReLU_1_0_split -> conv4_Eltwise_2_conv4_2ReLU_1_0_split_0
I0929 16:32:17.873117 25496 net.cpp:522] conv4_Eltwise_2_conv4_2ReLU_1_0_split -> conv4_Eltwise_2_conv4_2ReLU_1_0_split_1
I0929 16:32:17.873180 25496 net.cpp:172] Setting up conv4_Eltwise_2_conv4_2ReLU_1_0_split
I0929 16:32:17.873188 25496 net.cpp:186] Top shape: 10 64 8 8 (40960)
I0929 16:32:17.873193 25496 net.cpp:186] Top shape: 10 64 8 8 (40960)
I0929 16:32:17.873196 25496 net.cpp:194] Memory required for data: 63201400
I0929 16:32:17.873200 25496 layer_factory.hpp:77] Creating layer conv4_3_0
I0929 16:32:17.873211 25496 net.cpp:128] Creating Layer conv4_3_0
I0929 16:32:17.873216 25496 net.cpp:558] conv4_3_0 <- conv4_Eltwise_2_conv4_2ReLU_1_0_split_0
I0929 16:32:17.873225 25496 net.cpp:522] conv4_3_0 -> conv4_3_0
I0929 16:32:17.878772 25496 net.cpp:172] Setting up conv4_3_0
I0929 16:32:17.878800 25496 net.cpp:186] Top shape: 10 64 8 8 (40960)
I0929 16:32:17.878805 25496 net.cpp:194] Memory required for data: 63365240
I0929 16:32:17.878821 25496 layer_factory.hpp:77] Creating layer conv4_3_bn0
I0929 16:32:17.878834 25496 net.cpp:128] Creating Layer conv4_3_bn0
I0929 16:32:17.878839 25496 net.cpp:558] conv4_3_bn0 <- conv4_3_0
I0929 16:32:17.878846 25496 net.cpp:509] conv4_3_bn0 -> conv4_3_0 (in-place)
I0929 16:32:17.879168 25496 net.cpp:172] Setting up conv4_3_bn0
I0929 16:32:17.879179 25496 net.cpp:186] Top shape: 10 64 8 8 (40960)
I0929 16:32:17.879182 25496 net.cpp:194] Memory required for data: 63529080
I0929 16:32:17.879192 25496 layer_factory.hpp:77] Creating layer conv4_3_scale0
I0929 16:32:17.879200 25496 net.cpp:128] Creating Layer conv4_3_scale0
I0929 16:32:17.879204 25496 net.cpp:558] conv4_3_scale0 <- conv4_3_0
I0929 16:32:17.879210 25496 net.cpp:509] conv4_3_scale0 -> conv4_3_0 (in-place)
I0929 16:32:17.879271 25496 layer_factory.hpp:77] Creating layer conv4_3_scale0
I0929 16:32:17.879451 25496 net.cpp:172] Setting up conv4_3_scale0
I0929 16:32:17.879463 25496 net.cpp:186] Top shape: 10 64 8 8 (40960)
I0929 16:32:17.879467 25496 net.cpp:194] Memory required for data: 63692920
I0929 16:32:17.879475 25496 layer_factory.hpp:77] Creating layer conv4_3_ReLU0
I0929 16:32:17.879482 25496 net.cpp:128] Creating Layer conv4_3_ReLU0
I0929 16:32:17.879506 25496 net.cpp:558] conv4_3_ReLU0 <- conv4_3_0
I0929 16:32:17.879515 25496 net.cpp:509] conv4_3_ReLU0 -> conv4_3_0 (in-place)
I0929 16:32:17.880625 25496 net.cpp:172] Setting up conv4_3_ReLU0
I0929 16:32:17.880643 25496 net.cpp:186] Top shape: 10 64 8 8 (40960)
I0929 16:32:17.880647 25496 net.cpp:194] Memory required for data: 63856760
I0929 16:32:17.880652 25496 layer_factory.hpp:77] Creating layer conv4_3_1
I0929 16:32:17.880671 25496 net.cpp:128] Creating Layer conv4_3_1
I0929 16:32:17.880676 25496 net.cpp:558] conv4_3_1 <- conv4_3_0
I0929 16:32:17.880687 25496 net.cpp:522] conv4_3_1 -> conv4_3_1
I0929 16:32:17.887415 25496 net.cpp:172] Setting up conv4_3_1
I0929 16:32:17.887444 25496 net.cpp:186] Top shape: 10 64 8 8 (40960)
I0929 16:32:17.887447 25496 net.cpp:194] Memory required for data: 64020600
I0929 16:32:17.887459 25496 layer_factory.hpp:77] Creating layer conv4_3bn1
I0929 16:32:17.887466 25496 net.cpp:128] Creating Layer conv4_3bn1
I0929 16:32:17.887471 25496 net.cpp:558] conv4_3bn1 <- conv4_3_1
I0929 16:32:17.887481 25496 net.cpp:509] conv4_3bn1 -> conv4_3_1 (in-place)
I0929 16:32:17.887795 25496 net.cpp:172] Setting up conv4_3bn1
I0929 16:32:17.887807 25496 net.cpp:186] Top shape: 10 64 8 8 (40960)
I0929 16:32:17.887811 25496 net.cpp:194] Memory required for data: 64184440
I0929 16:32:17.887822 25496 layer_factory.hpp:77] Creating layer conv4_3_scale1
I0929 16:32:17.887833 25496 net.cpp:128] Creating Layer conv4_3_scale1
I0929 16:32:17.887838 25496 net.cpp:558] conv4_3_scale1 <- conv4_3_1
I0929 16:32:17.887845 25496 net.cpp:509] conv4_3_scale1 -> conv4_3_1 (in-place)
I0929 16:32:17.887900 25496 layer_factory.hpp:77] Creating layer conv4_3_scale1
I0929 16:32:17.888077 25496 net.cpp:172] Setting up conv4_3_scale1
I0929 16:32:17.888089 25496 net.cpp:186] Top shape: 10 64 8 8 (40960)
I0929 16:32:17.888093 25496 net.cpp:194] Memory required for data: 64348280
I0929 16:32:17.888101 25496 layer_factory.hpp:77] Creating layer conv4_Eltwise_3
I0929 16:32:17.888110 25496 net.cpp:128] Creating Layer conv4_Eltwise_3
I0929 16:32:17.888115 25496 net.cpp:558] conv4_Eltwise_3 <- conv4_Eltwise_2_conv4_2ReLU_1_0_split_1
I0929 16:32:17.888120 25496 net.cpp:558] conv4_Eltwise_3 <- conv4_3_1
I0929 16:32:17.888129 25496 net.cpp:522] conv4_Eltwise_3 -> conv4_Eltwise_3
I0929 16:32:17.888160 25496 net.cpp:172] Setting up conv4_Eltwise_3
I0929 16:32:17.888166 25496 net.cpp:186] Top shape: 10 64 8 8 (40960)
I0929 16:32:17.888170 25496 net.cpp:194] Memory required for data: 64512120
I0929 16:32:17.888175 25496 layer_factory.hpp:77] Creating layer conv4_3ReLU_1
I0929 16:32:17.888183 25496 net.cpp:128] Creating Layer conv4_3ReLU_1
I0929 16:32:17.888188 25496 net.cpp:558] conv4_3ReLU_1 <- conv4_Eltwise_3
I0929 16:32:17.888193 25496 net.cpp:509] conv4_3ReLU_1 -> conv4_Eltwise_3 (in-place)
I0929 16:32:17.889461 25496 net.cpp:172] Setting up conv4_3ReLU_1
I0929 16:32:17.889483 25496 net.cpp:186] Top shape: 10 64 8 8 (40960)
I0929 16:32:17.889488 25496 net.cpp:194] Memory required for data: 64675960
I0929 16:32:17.889493 25496 layer_factory.hpp:77] Creating layer conv4_Eltwise_3_conv4_3ReLU_1_0_split
I0929 16:32:17.889505 25496 net.cpp:128] Creating Layer conv4_Eltwise_3_conv4_3ReLU_1_0_split
I0929 16:32:17.889511 25496 net.cpp:558] conv4_Eltwise_3_conv4_3ReLU_1_0_split <- conv4_Eltwise_3
I0929 16:32:17.889518 25496 net.cpp:522] conv4_Eltwise_3_conv4_3ReLU_1_0_split -> conv4_Eltwise_3_conv4_3ReLU_1_0_split_0
I0929 16:32:17.889528 25496 net.cpp:522] conv4_Eltwise_3_conv4_3ReLU_1_0_split -> conv4_Eltwise_3_conv4_3ReLU_1_0_split_1
I0929 16:32:17.889592 25496 net.cpp:172] Setting up conv4_Eltwise_3_conv4_3ReLU_1_0_split
I0929 16:32:17.889609 25496 net.cpp:186] Top shape: 10 64 8 8 (40960)
I0929 16:32:17.889616 25496 net.cpp:186] Top shape: 10 64 8 8 (40960)
I0929 16:32:17.889619 25496 net.cpp:194] Memory required for data: 65003640
I0929 16:32:17.889623 25496 layer_factory.hpp:77] Creating layer conv4_4_0
I0929 16:32:17.889636 25496 net.cpp:128] Creating Layer conv4_4_0
I0929 16:32:17.889642 25496 net.cpp:558] conv4_4_0 <- conv4_Eltwise_3_conv4_3ReLU_1_0_split_0
I0929 16:32:17.889667 25496 net.cpp:522] conv4_4_0 -> conv4_4_0
I0929 16:32:17.896440 25496 net.cpp:172] Setting up conv4_4_0
I0929 16:32:17.896466 25496 net.cpp:186] Top shape: 10 64 8 8 (40960)
I0929 16:32:17.896471 25496 net.cpp:194] Memory required for data: 65167480
I0929 16:32:17.896481 25496 layer_factory.hpp:77] Creating layer conv4_4_bn0
I0929 16:32:17.896494 25496 net.cpp:128] Creating Layer conv4_4_bn0
I0929 16:32:17.896499 25496 net.cpp:558] conv4_4_bn0 <- conv4_4_0
I0929 16:32:17.896508 25496 net.cpp:509] conv4_4_bn0 -> conv4_4_0 (in-place)
I0929 16:32:17.896842 25496 net.cpp:172] Setting up conv4_4_bn0
I0929 16:32:17.896853 25496 net.cpp:186] Top shape: 10 64 8 8 (40960)
I0929 16:32:17.896857 25496 net.cpp:194] Memory required for data: 65331320
I0929 16:32:17.896868 25496 layer_factory.hpp:77] Creating layer conv4_4_scale0
I0929 16:32:17.896875 25496 net.cpp:128] Creating Layer conv4_4_scale0
I0929 16:32:17.896879 25496 net.cpp:558] conv4_4_scale0 <- conv4_4_0
I0929 16:32:17.896888 25496 net.cpp:509] conv4_4_scale0 -> conv4_4_0 (in-place)
I0929 16:32:17.896941 25496 layer_factory.hpp:77] Creating layer conv4_4_scale0
I0929 16:32:17.897127 25496 net.cpp:172] Setting up conv4_4_scale0
I0929 16:32:17.897140 25496 net.cpp:186] Top shape: 10 64 8 8 (40960)
I0929 16:32:17.897145 25496 net.cpp:194] Memory required for data: 65495160
I0929 16:32:17.897152 25496 layer_factory.hpp:77] Creating layer conv4_4_ReLU0
I0929 16:32:17.897158 25496 net.cpp:128] Creating Layer conv4_4_ReLU0
I0929 16:32:17.897162 25496 net.cpp:558] conv4_4_ReLU0 <- conv4_4_0
I0929 16:32:17.897171 25496 net.cpp:509] conv4_4_ReLU0 -> conv4_4_0 (in-place)
I0929 16:32:17.898278 25496 net.cpp:172] Setting up conv4_4_ReLU0
I0929 16:32:17.898295 25496 net.cpp:186] Top shape: 10 64 8 8 (40960)
I0929 16:32:17.898300 25496 net.cpp:194] Memory required for data: 65659000
I0929 16:32:17.898305 25496 layer_factory.hpp:77] Creating layer conv4_4_1
I0929 16:32:17.898319 25496 net.cpp:128] Creating Layer conv4_4_1
I0929 16:32:17.898324 25496 net.cpp:558] conv4_4_1 <- conv4_4_0
I0929 16:32:17.898334 25496 net.cpp:522] conv4_4_1 -> conv4_4_1
I0929 16:32:17.905023 25496 net.cpp:172] Setting up conv4_4_1
I0929 16:32:17.905050 25496 net.cpp:186] Top shape: 10 64 8 8 (40960)
I0929 16:32:17.905055 25496 net.cpp:194] Memory required for data: 65822840
I0929 16:32:17.905064 25496 layer_factory.hpp:77] Creating layer conv4_4bn1
I0929 16:32:17.905073 25496 net.cpp:128] Creating Layer conv4_4bn1
I0929 16:32:17.905078 25496 net.cpp:558] conv4_4bn1 <- conv4_4_1
I0929 16:32:17.905088 25496 net.cpp:509] conv4_4bn1 -> conv4_4_1 (in-place)
I0929 16:32:17.905408 25496 net.cpp:172] Setting up conv4_4bn1
I0929 16:32:17.905421 25496 net.cpp:186] Top shape: 10 64 8 8 (40960)
I0929 16:32:17.905426 25496 net.cpp:194] Memory required for data: 65986680
I0929 16:32:17.905436 25496 layer_factory.hpp:77] Creating layer conv4_4_scale1
I0929 16:32:17.905444 25496 net.cpp:128] Creating Layer conv4_4_scale1
I0929 16:32:17.905449 25496 net.cpp:558] conv4_4_scale1 <- conv4_4_1
I0929 16:32:17.905454 25496 net.cpp:509] conv4_4_scale1 -> conv4_4_1 (in-place)
I0929 16:32:17.905511 25496 layer_factory.hpp:77] Creating layer conv4_4_scale1
I0929 16:32:17.905707 25496 net.cpp:172] Setting up conv4_4_scale1
I0929 16:32:17.905719 25496 net.cpp:186] Top shape: 10 64 8 8 (40960)
I0929 16:32:17.905724 25496 net.cpp:194] Memory required for data: 66150520
I0929 16:32:17.905731 25496 layer_factory.hpp:77] Creating layer conv4_Eltwise_4
I0929 16:32:17.905741 25496 net.cpp:128] Creating Layer conv4_Eltwise_4
I0929 16:32:17.905746 25496 net.cpp:558] conv4_Eltwise_4 <- conv4_Eltwise_3_conv4_3ReLU_1_0_split_1
I0929 16:32:17.905751 25496 net.cpp:558] conv4_Eltwise_4 <- conv4_4_1
I0929 16:32:17.905759 25496 net.cpp:522] conv4_Eltwise_4 -> conv4_Eltwise_4
I0929 16:32:17.905791 25496 net.cpp:172] Setting up conv4_Eltwise_4
I0929 16:32:17.905797 25496 net.cpp:186] Top shape: 10 64 8 8 (40960)
I0929 16:32:17.905800 25496 net.cpp:194] Memory required for data: 66314360
I0929 16:32:17.905820 25496 layer_factory.hpp:77] Creating layer conv4_4ReLU_1
I0929 16:32:17.905830 25496 net.cpp:128] Creating Layer conv4_4ReLU_1
I0929 16:32:17.905835 25496 net.cpp:558] conv4_4ReLU_1 <- conv4_Eltwise_4
I0929 16:32:17.905840 25496 net.cpp:509] conv4_4ReLU_1 -> conv4_Eltwise_4 (in-place)
I0929 16:32:17.907296 25496 net.cpp:172] Setting up conv4_4ReLU_1
I0929 16:32:17.907325 25496 net.cpp:186] Top shape: 10 64 8 8 (40960)
I0929 16:32:17.907330 25496 net.cpp:194] Memory required for data: 66478200
I0929 16:32:17.907335 25496 layer_factory.hpp:77] Creating layer conv4_Eltwise_4_conv4_4ReLU_1_0_split
I0929 16:32:17.907342 25496 net.cpp:128] Creating Layer conv4_Eltwise_4_conv4_4ReLU_1_0_split
I0929 16:32:17.907348 25496 net.cpp:558] conv4_Eltwise_4_conv4_4ReLU_1_0_split <- conv4_Eltwise_4
I0929 16:32:17.907356 25496 net.cpp:522] conv4_Eltwise_4_conv4_4ReLU_1_0_split -> conv4_Eltwise_4_conv4_4ReLU_1_0_split_0
I0929 16:32:17.907366 25496 net.cpp:522] conv4_Eltwise_4_conv4_4ReLU_1_0_split -> conv4_Eltwise_4_conv4_4ReLU_1_0_split_1
I0929 16:32:17.907433 25496 net.cpp:172] Setting up conv4_Eltwise_4_conv4_4ReLU_1_0_split
I0929 16:32:17.907452 25496 net.cpp:186] Top shape: 10 64 8 8 (40960)
I0929 16:32:17.907459 25496 net.cpp:186] Top shape: 10 64 8 8 (40960)
I0929 16:32:17.907462 25496 net.cpp:194] Memory required for data: 66805880
I0929 16:32:17.907466 25496 layer_factory.hpp:77] Creating layer conv4_5_0
I0929 16:32:17.907481 25496 net.cpp:128] Creating Layer conv4_5_0
I0929 16:32:17.907486 25496 net.cpp:558] conv4_5_0 <- conv4_Eltwise_4_conv4_4ReLU_1_0_split_0
I0929 16:32:17.907493 25496 net.cpp:522] conv4_5_0 -> conv4_5_0
I0929 16:32:17.914114 25496 net.cpp:172] Setting up conv4_5_0
I0929 16:32:17.914142 25496 net.cpp:186] Top shape: 10 64 8 8 (40960)
I0929 16:32:17.914147 25496 net.cpp:194] Memory required for data: 66969720
I0929 16:32:17.914157 25496 layer_factory.hpp:77] Creating layer conv4_5_bn0
I0929 16:32:17.914166 25496 net.cpp:128] Creating Layer conv4_5_bn0
I0929 16:32:17.914171 25496 net.cpp:558] conv4_5_bn0 <- conv4_5_0
I0929 16:32:17.914181 25496 net.cpp:509] conv4_5_bn0 -> conv4_5_0 (in-place)
I0929 16:32:17.914511 25496 net.cpp:172] Setting up conv4_5_bn0
I0929 16:32:17.914525 25496 net.cpp:186] Top shape: 10 64 8 8 (40960)
I0929 16:32:17.914530 25496 net.cpp:194] Memory required for data: 67133560
I0929 16:32:17.914538 25496 layer_factory.hpp:77] Creating layer conv4_5_scale0
I0929 16:32:17.914546 25496 net.cpp:128] Creating Layer conv4_5_scale0
I0929 16:32:17.914551 25496 net.cpp:558] conv4_5_scale0 <- conv4_5_0
I0929 16:32:17.914557 25496 net.cpp:509] conv4_5_scale0 -> conv4_5_0 (in-place)
I0929 16:32:17.914611 25496 layer_factory.hpp:77] Creating layer conv4_5_scale0
I0929 16:32:17.914799 25496 net.cpp:172] Setting up conv4_5_scale0
I0929 16:32:17.914813 25496 net.cpp:186] Top shape: 10 64 8 8 (40960)
I0929 16:32:17.914816 25496 net.cpp:194] Memory required for data: 67297400
I0929 16:32:17.914824 25496 layer_factory.hpp:77] Creating layer conv4_5_ReLU0
I0929 16:32:17.914832 25496 net.cpp:128] Creating Layer conv4_5_ReLU0
I0929 16:32:17.914837 25496 net.cpp:558] conv4_5_ReLU0 <- conv4_5_0
I0929 16:32:17.914842 25496 net.cpp:509] conv4_5_ReLU0 -> conv4_5_0 (in-place)
I0929 16:32:17.915941 25496 net.cpp:172] Setting up conv4_5_ReLU0
I0929 16:32:17.915964 25496 net.cpp:186] Top shape: 10 64 8 8 (40960)
I0929 16:32:17.915969 25496 net.cpp:194] Memory required for data: 67461240
I0929 16:32:17.915974 25496 layer_factory.hpp:77] Creating layer conv4_5_1
I0929 16:32:17.915988 25496 net.cpp:128] Creating Layer conv4_5_1
I0929 16:32:17.915994 25496 net.cpp:558] conv4_5_1 <- conv4_5_0
I0929 16:32:17.916004 25496 net.cpp:522] conv4_5_1 -> conv4_5_1
I0929 16:32:17.922745 25496 net.cpp:172] Setting up conv4_5_1
I0929 16:32:17.922771 25496 net.cpp:186] Top shape: 10 64 8 8 (40960)
I0929 16:32:17.922775 25496 net.cpp:194] Memory required for data: 67625080
I0929 16:32:17.922788 25496 layer_factory.hpp:77] Creating layer conv4_5bn1
I0929 16:32:17.922799 25496 net.cpp:128] Creating Layer conv4_5bn1
I0929 16:32:17.922806 25496 net.cpp:558] conv4_5bn1 <- conv4_5_1
I0929 16:32:17.922832 25496 net.cpp:509] conv4_5bn1 -> conv4_5_1 (in-place)
I0929 16:32:17.923156 25496 net.cpp:172] Setting up conv4_5bn1
I0929 16:32:17.923169 25496 net.cpp:186] Top shape: 10 64 8 8 (40960)
I0929 16:32:17.923173 25496 net.cpp:194] Memory required for data: 67788920
I0929 16:32:17.923183 25496 layer_factory.hpp:77] Creating layer conv4_5_scale1
I0929 16:32:17.923190 25496 net.cpp:128] Creating Layer conv4_5_scale1
I0929 16:32:17.923194 25496 net.cpp:558] conv4_5_scale1 <- conv4_5_1
I0929 16:32:17.923202 25496 net.cpp:509] conv4_5_scale1 -> conv4_5_1 (in-place)
I0929 16:32:17.923257 25496 layer_factory.hpp:77] Creating layer conv4_5_scale1
I0929 16:32:17.923440 25496 net.cpp:172] Setting up conv4_5_scale1
I0929 16:32:17.923452 25496 net.cpp:186] Top shape: 10 64 8 8 (40960)
I0929 16:32:17.923456 25496 net.cpp:194] Memory required for data: 67952760
I0929 16:32:17.923465 25496 layer_factory.hpp:77] Creating layer conv4_Eltwise_5
I0929 16:32:17.923470 25496 net.cpp:128] Creating Layer conv4_Eltwise_5
I0929 16:32:17.923475 25496 net.cpp:558] conv4_Eltwise_5 <- conv4_Eltwise_4_conv4_4ReLU_1_0_split_1
I0929 16:32:17.923480 25496 net.cpp:558] conv4_Eltwise_5 <- conv4_5_1
I0929 16:32:17.923490 25496 net.cpp:522] conv4_Eltwise_5 -> conv4_Eltwise_5
I0929 16:32:17.923521 25496 net.cpp:172] Setting up conv4_Eltwise_5
I0929 16:32:17.923528 25496 net.cpp:186] Top shape: 10 64 8 8 (40960)
I0929 16:32:17.923532 25496 net.cpp:194] Memory required for data: 68116600
I0929 16:32:17.923537 25496 layer_factory.hpp:77] Creating layer conv4_5ReLU_1
I0929 16:32:17.923542 25496 net.cpp:128] Creating Layer conv4_5ReLU_1
I0929 16:32:17.923547 25496 net.cpp:558] conv4_5ReLU_1 <- conv4_Eltwise_5
I0929 16:32:17.923555 25496 net.cpp:509] conv4_5ReLU_1 -> conv4_Eltwise_5 (in-place)
I0929 16:32:17.924798 25496 net.cpp:172] Setting up conv4_5ReLU_1
I0929 16:32:17.924814 25496 net.cpp:186] Top shape: 10 64 8 8 (40960)
I0929 16:32:17.924820 25496 net.cpp:194] Memory required for data: 68280440
I0929 16:32:17.924824 25496 layer_factory.hpp:77] Creating layer Pooling1
I0929 16:32:17.924834 25496 net.cpp:128] Creating Layer Pooling1
I0929 16:32:17.924839 25496 net.cpp:558] Pooling1 <- conv4_Eltwise_5
I0929 16:32:17.924849 25496 net.cpp:522] Pooling1 -> Pooling1
I0929 16:32:17.927037 25496 net.cpp:172] Setting up Pooling1
I0929 16:32:17.927057 25496 net.cpp:186] Top shape: 10 64 1 1 (640)
I0929 16:32:17.927062 25496 net.cpp:194] Memory required for data: 68283000
I0929 16:32:17.927067 25496 layer_factory.hpp:77] Creating layer fc1
I0929 16:32:17.927083 25496 net.cpp:128] Creating Layer fc1
I0929 16:32:17.927088 25496 net.cpp:558] fc1 <- Pooling1
I0929 16:32:17.927094 25496 net.cpp:522] fc1 -> fc1
I0929 16:32:17.927294 25496 net.cpp:172] Setting up fc1
I0929 16:32:17.927306 25496 net.cpp:186] Top shape: 10 10 (100)
I0929 16:32:17.927310 25496 net.cpp:194] Memory required for data: 68283400
I0929 16:32:17.927320 25496 layer_factory.hpp:77] Creating layer fc1_fc1_0_split
I0929 16:32:17.927326 25496 net.cpp:128] Creating Layer fc1_fc1_0_split
I0929 16:32:17.927331 25496 net.cpp:558] fc1_fc1_0_split <- fc1
I0929 16:32:17.927340 25496 net.cpp:522] fc1_fc1_0_split -> fc1_fc1_0_split_0
I0929 16:32:17.927347 25496 net.cpp:522] fc1_fc1_0_split -> fc1_fc1_0_split_1
I0929 16:32:17.927399 25496 net.cpp:172] Setting up fc1_fc1_0_split
I0929 16:32:17.927407 25496 net.cpp:186] Top shape: 10 10 (100)
I0929 16:32:17.927412 25496 net.cpp:186] Top shape: 10 10 (100)
I0929 16:32:17.927415 25496 net.cpp:194] Memory required for data: 68284200
I0929 16:32:17.927419 25496 layer_factory.hpp:77] Creating layer Softmax1
I0929 16:32:17.927431 25496 net.cpp:128] Creating Layer Softmax1
I0929 16:32:17.927435 25496 net.cpp:558] Softmax1 <- fc1_fc1_0_split_0
I0929 16:32:17.927441 25496 net.cpp:558] Softmax1 <- label_Data1_1_split_0
I0929 16:32:17.927449 25496 net.cpp:522] Softmax1 -> Softmax1
…
