…
I0927 00:20:22.727948 19128 upgrade_proto.cpp:82] Successfully upgraded batch norm layers using deprecated params.
I0927 00:20:22.729336 19128 net.cpp:82] Initializing net from parameters: 
name: "ResNet-32"
state {
  phase: TRAIN
  level: 0
  stage: ""
}
layer {
  name: "Data1"
  type: "Data"
  top: "data"
  top: "label"
  transform_param {
    scale: 0.00390625
    mirror: true
    crop_size: 32
    mean_value: 125.3
    mean_value: 122.9
    mean_value: 113.8
  }
  data_param {
    source: "/home/lijianfei/datasets/cifar10_40/train_lmdb"
    batch_size: 128
    backend: LMDB
  }
  image_data_param {
    shuffle: true
  }
}
layer {
  name: "conv1"
  type: "Convolution"
  bottom: "data"
  top: "conv1"
  param {
    lr_mult: 1
    decay_mult: 1
  }
  param {
    lr_mult: 2
    decay_mult: 0
  }
  convolution_param {
    num_output: 16
    bias_term: true
    pad: 1
    kernel_size: 3
    stride: 1
    weight_filler {
      type: "msra"
    }
    bias_filler {
      type: "constant"
      value: 0
    }
  }
}
layer {
  name: "conv1/bn"
  type: "BatchNorm"
  bottom: "conv1"
  top: "conv1"
  param {
    lr_mult: 0
    decay_mult: 0
  }
  param {
    lr_mult: 0
    decay_mult: 0
  }
  param {
    lr_mult: 0
    decay_mult: 0
  }
  batch_norm_param {
    use_global_stats: false
  }
}
layer {
  name: "conv1/scale"
  type: "Scale"
  bottom: "conv1"
  top: "conv1"
  scale_param {
    bias_term: true
  }
}
layer {
  name: "conv1/ReLU"
  type: "ReLU"
  bottom: "conv1"
  top: "conv1"
}
layer {
  name: "conv2_1_0"
  type: "Convolution"
  bottom: "conv1"
  top: "conv2_1_0"
  param {
    lr_mult: 1
    decay_mult: 1
  }
  param {
    lr_mult: 2
    decay_mult: 0
  }
  convolution_param {
    num_output: 16
    bias_term: true
    pad: 1
    kernel_size: 3
    stride: 1
    weight_filler {
      type: "msra"
    }
    bias_filler {
      type: "constant"
      value: 0
    }
  }
}
layer {
  name: "conv2_1_bn0"
  type: "BatchNorm"
  bottom: "conv2_1_0"
  top: "conv2_1_0"
  param {
    lr_mult: 0
    decay_mult: 0
  }
  param {
    lr_mult: 0
    decay_mult: 0
  }
  param {
    lr_mult: 0
    decay_mult: 0
  }
  batch_norm_param {
    use_global_stats: false
  }
}
layer {
  name: "conv2_1_scale0"
  type: "Scale"
  bottom: "conv2_1_0"
  top: "conv2_1_0"
  scale_param {
    bias_term: true
  }
}
layer {
  name: "conv2_1_ReLU0"
  type: "ReLU"
  bottom: "conv2_1_0"
  top: "conv2_1_0"
}
layer {
  name: "conv2_1_1"
  type: "Convolution"
  bottom: "conv2_1_0"
  top: "conv2_1_1"
  param {
    lr_mult: 1
    decay_mult: 1
  }
  param {
    lr_mult: 2
    decay_mult: 0
  }
  convolution_param {
    num_output: 16
    bias_term: true
    pad: 1
    kernel_size: 3
    stride: 1
    weight_filler {
      type: "msra"
    }
    bias_filler {
      type: "constant"
      value: 0
    }
  }
}
layer {
  name: "conv2_1bn1"
  type: "BatchNorm"
  bottom: "conv2_1_1"
  top: "conv2_1_1"
  param {
    lr_mult: 0
    decay_mult: 0
  }
  param {
    lr_mult: 0
    decay_mult: 0
  }
  param {
    lr_mult: 0
    decay_mult: 0
  }
  batch_norm_param {
    use_global_stats: false
  }
}
layer {
  name: "conv2_1_scale1"
  type: "Scale"
  bottom: "conv2_1_1"
  top: "conv2_1_1"
  scale_param {
    bias_term: true
  }
}
layer {
  name: "conv2_Eltwise_1"
  type: "Eltwise"
  bottom: "conv1"
  bottom: "conv2_1_1"
  top: "conv2_Eltwise_1"
  eltwise_param {
    operation: SUM
  }
}
layer {
  name: "conv2_1ReLU_1"
  type: "ReLU"
  bottom: "conv2_Eltwise_1"
  top: "conv2_Eltwise_1"
}
layer {
  name: "conv2_2_0"
  type: "Convolution"
  bottom: "conv2_Eltwise_1"
  top: "conv2_2_0"
  param {
    lr_mult: 1
    decay_mult: 1
  }
  param {
    lr_mult: 2
    decay_mult: 0
  }
  convolution_param {
    num_output: 16
    bias_term: true
    pad: 1
    kernel_size: 3
    stride: 1
    weight_filler {
      type: "msra"
    }
    bias_filler {
      type: "constant"
      value: 0
    }
  }
}
layer {
  name: "conv2_2_bn0"
  type: "BatchNorm"
  bottom: "conv2_2_0"
  top: "conv2_2_0"
  param {
    lr_mult: 0
    decay_mult: 0
  }
  param {
    lr_mult: 0
    decay_mult: 0
  }
  param {
    lr_mult: 0
    decay_mult: 0
  }
  batch_norm_param {
    use_global_stats: false
  }
}
layer {
  name: "conv2_2_scale0"
  type: "Scale"
  bottom: "conv2_2_0"
  top: "conv2_2_0"
  scale_param {
    bias_term: true
  }
}
layer {
  name: "conv2_2_ReLU0"
  type: "ReLU"
  bottom: "conv2_2_0"
  top: "conv2_2_0"
}
layer {
  name: "conv2_2_1"
  type: "Convolution"
  bottom: "conv2_2_0"
  top: "conv2_2_1"
  param {
    lr_mult: 1
    decay_mult: 1
  }
  param {
    lr_mult: 2
    decay_mult: 0
  }
  convolution_param {
    num_output: 16
    bias_term: true
    pad: 1
    kernel_size: 3
    stride: 1
    weight_filler {
      type: "msra"
    }
    bias_filler {
      type: "constant"
      value: 0
    }
  }
}
layer {
  name: "conv2_2bn1"
  type: "BatchNorm"
  bottom: "conv2_2_1"
  top: "conv2_2_1"
  param {
    lr_mult: 0
    decay_mult: 0
  }
  param {
    lr_mult: 0
    decay_mult: 0
  }
  param {
    lr_mult: 0
    decay_mult: 0
  }
  batch_norm_param {
    use_global_stats: false
  }
}
layer {
  name: "conv2_2_scale1"
  type: "Scale"
  bottom: "conv2_2_1"
  top: "conv2_2_1"
  scale_param {
    bias_term: true
  }
}
layer {
  name: "conv2_Eltwise_2"
  type: "Eltwise"
  bottom: "conv2_Eltwise_1"
  bottom: "conv2_2_1"
  top: "conv2_Eltwise_2"
  eltwise_param {
    operation: SUM
  }
}
layer {
  name: "conv2_2ReLU_1"
  type: "ReLU"
  bottom: "conv2_Eltwise_2"
  top: "conv2_Eltwise_2"
}
layer {
  name: "conv2_3_0"
  type: "Convolution"
  bottom: "conv2_Eltwise_2"
  top: "conv2_3_0"
  param {
    lr_mult: 1
    decay_mult: 1
  }
  param {
    lr_mult: 2
    decay_mult: 0
  }
  convolution_param {
    num_output: 16
    bias_term: true
    pad: 1
    kernel_size: 3
    stride: 1
    weight_filler {
      type: "msra"
    }
    bias_filler {
      type: "constant"
      value: 0
    }
  }
}
layer {
  name: "conv2_3_bn0"
  type: "BatchNorm"
  bottom: "conv2_3_0"
  top: "conv2_3_0"
  param {
    lr_mult: 0
    decay_mult: 0
  }
  param {
    lr_mult: 0
    decay_mult: 0
  }
  param {
    lr_mult: 0
    decay_mult: 0
  }
  batch_norm_param {
    use_global_stats: false
  }
}
layer {
  name: "conv2_3_scale0"
  type: "Scale"
  bottom: "conv2_3_0"
  top: "conv2_3_0"
  scale_param {
    bias_term: true
  }
}
layer {
  name: "conv2_3_ReLU0"
  type: "ReLU"
  bottom: "conv2_3_0"
  top: "conv2_3_0"
}
layer {
  name: "conv2_3_1"
  type: "Convolution"
  bottom: "conv2_3_0"
  top: "conv2_3_1"
  param {
    lr_mult: 1
    decay_mult: 1
  }
  param {
    lr_mult: 2
    decay_mult: 0
  }
  convolution_param {
    num_output: 16
    bias_term: true
    pad: 1
    kernel_size: 3
    stride: 1
    weight_filler {
      type: "msra"
    }
    bias_filler {
      type: "constant"
      value: 0
    }
  }
}
layer {
  name: "conv2_3bn1"
  type: "BatchNorm"
  bottom: "conv2_3_1"
  top: "conv2_3_1"
  param {
    lr_mult: 0
    decay_mult: 0
  }
  param {
    lr_mult: 0
    decay_mult: 0
  }
  param {
    lr_mult: 0
    decay_mult: 0
  }
  batch_norm_param {
    use_global_stats: false
  }
}
layer {
  name: "conv2_3_scale1"
  type: "Scale"
  bottom: "conv2_3_1"
  top: "conv2_3_1"
  scale_param {
    bias_term: true
  }
}
layer {
  name: "conv2_Eltwise_3"
  type: "Eltwise"
  bottom: "conv2_Eltwise_2"
  bottom: "conv2_3_1"
  top: "conv2_Eltwise_3"
  eltwise_param {
    operation: SUM
  }
}
layer {
  name: "conv2_3ReLU_1"
  type: "ReLU"
  bottom: "conv2_Eltwise_3"
  top: "conv2_Eltwise_3"
}
layer {
  name: "conv2_4_0"
  type: "Convolution"
  bottom: "conv2_Eltwise_3"
  top: "conv2_4_0"
  param {
    lr_mult: 1
    decay_mult: 1
  }
  param {
    lr_mult: 2
    decay_mult: 0
  }
  convolution_param {
    num_output: 16
    bias_term: true
    pad: 1
    kernel_size: 3
    stride: 1
    weight_filler {
      type: "msra"
    }
    bias_filler {
      type: "constant"
      value: 0
    }
  }
}
layer {
  name: "conv2_4_bn0"
  type: "BatchNorm"
  bottom: "conv2_4_0"
  top: "conv2_4_0"
  param {
    lr_mult: 0
    decay_mult: 0
  }
  param {
    lr_mult: 0
    decay_mult: 0
  }
  param {
    lr_mult: 0
    decay_mult: 0
  }
  batch_norm_param {
    use_global_stats: false
  }
}
layer {
  name: "conv2_4_scale0"
  type: "Scale"
  bottom: "conv2_4_0"
  top: "conv2_4_0"
  scale_param {
    bias_term: true
  }
}
layer {
  name: "conv2_4_ReLU0"
  type: "ReLU"
  bottom: "conv2_4_0"
  top: "conv2_4_0"
}
layer {
  name: "conv2_4_1"
  type: "Convolution"
  bottom: "conv2_4_0"
  top: "conv2_4_1"
  param {
    lr_mult: 1
    decay_mult: 1
  }
  param {
    lr_mult: 2
    decay_mult: 0
  }
  convolution_param {
    num_output: 16
    bias_term: true
    pad: 1
    kernel_size: 3
    stride: 1
    weight_filler {
      type: "msra"
    }
    bias_filler {
      type: "constant"
      value: 0
    }
  }
}
layer {
  name: "conv2_4bn1"
  type: "BatchNorm"
  bottom: "conv2_4_1"
  top: "conv2_4_1"
  param {
    lr_mult: 0
    decay_mult: 0
  }
  param {
    lr_mult: 0
    decay_mult: 0
  }
  param {
    lr_mult: 0
    decay_mult: 0
  }
  batch_norm_param {
    use_global_stats: false
  }
}
layer {
  name: "conv2_4_scale1"
  type: "Scale"
  bottom: "conv2_4_1"
  top: "conv2_4_1"
  scale_param {
    bias_term: true
  }
}
layer {
  name: "conv2_Eltwise_4"
  type: "Eltwise"
  bottom: "conv2_Eltwise_3"
  bottom: "conv2_4_1"
  top: "conv2_Eltwise_4"
  eltwise_param {
    operation: SUM
  }
}
layer {
  name: "conv2_4ReLU_1"
  type: "ReLU"
  bottom: "conv2_Eltwise_4"
  top: "conv2_Eltwise_4"
}
layer {
  name: "conv2_5_0"
  type: "Convolution"
  bottom: "conv2_Eltwise_4"
  top: "conv2_5_0"
  param {
    lr_mult: 1
    decay_mult: 1
  }
  param {
    lr_mult: 2
    decay_mult: 0
  }
  convolution_param {
    num_output: 16
    bias_term: true
    pad: 1
    kernel_size: 3
    stride: 1
    weight_filler {
      type: "msra"
    }
    bias_filler {
      type: "constant"
      value: 0
    }
  }
}
layer {
  name: "conv2_5_bn0"
  type: "BatchNorm"
  bottom: "conv2_5_0"
  top: "conv2_5_0"
  param {
    lr_mult: 0
    decay_mult: 0
  }
  param {
    lr_mult: 0
    decay_mult: 0
  }
  param {
    lr_mult: 0
    decay_mult: 0
  }
  batch_norm_param {
    use_global_stats: false
  }
}
layer {
  name: "conv2_5_scale0"
  type: "Scale"
  bottom: "conv2_5_0"
  top: "conv2_5_0"
  scale_param {
    bias_term: true
  }
}
layer {
  name: "conv2_5_ReLU0"
  type: "ReLU"
  bottom: "conv2_5_0"
  top: "conv2_5_0"
}
layer {
  name: "conv2_5_1"
  type: "Convolution"
  bottom: "conv2_5_0"
  top: "conv2_5_1"
  param {
    lr_mult: 1
    decay_mult: 1
  }
  param {
    lr_mult: 2
    decay_mult: 0
  }
  convolution_param {
    num_output: 16
    bias_term: true
    pad: 1
    kernel_size: 3
    stride: 1
    weight_filler {
      type: "msra"
    }
    bias_filler {
      type: "constant"
      value: 0
    }
  }
}
layer {
  name: "conv2_5bn1"
  type: "BatchNorm"
  bottom: "conv2_5_1"
  top: "conv2_5_1"
  param {
    lr_mult: 0
    decay_mult: 0
  }
  param {
    lr_mult: 0
    decay_mult: 0
  }
  param {
    lr_mult: 0
    decay_mult: 0
  }
  batch_norm_param {
    use_global_stats: false
  }
}
layer {
  name: "conv2_5_scale1"
  type: "Scale"
  bottom: "conv2_5_1"
  top: "conv2_5_1"
  scale_param {
    bias_term: true
  }
}
layer {
  name: "conv2_Eltwise_5"
  type: "Eltwise"
  bottom: "conv2_Eltwise_4"
  bottom: "conv2_5_1"
  top: "conv2_Eltwise_5"
  eltwise_param {
    operation: SUM
  }
}
layer {
  name: "conv2_5ReLU_1"
  type: "ReLU"
  bottom: "conv2_Eltwise_5"
  top: "conv2_Eltwise_5"
}
layer {
  name: "conv3_1_0"
  type: "Convolution"
  bottom: "conv2_Eltwise_5"
  top: "conv3_1_0"
  param {
    lr_mult: 1
    decay_mult: 1
  }
  param {
    lr_mult: 2
    decay_mult: 0
  }
  convolution_param {
    num_output: 32
    bias_term: true
    pad: 1
    kernel_size: 3
    stride: 2
    weight_filler {
      type: "msra"
    }
    bias_filler {
      type: "constant"
      value: 0
    }
  }
}
layer {
  name: "conv3_1_bn0"
  type: "BatchNorm"
  bottom: "conv3_1_0"
  top: "conv3_1_0"
  param {
    lr_mult: 0
    decay_mult: 0
  }
  param {
    lr_mult: 0
    decay_mult: 0
  }
  param {
    lr_mult: 0
    decay_mult: 0
  }
  batch_norm_param {
    use_global_stats: false
  }
}
layer {
  name: "conv3_1_scale0"
  type: "Scale"
  bottom: "conv3_1_0"
  top: "conv3_1_0"
  scale_param {
    bias_term: true
  }
}
layer {
  name: "conv3_1_ReLU0"
  type: "ReLU"
  bottom: "conv3_1_0"
  top: "conv3_1_0"
}
layer {
  name: "conv3_1_1"
  type: "Convolution"
  bottom: "conv3_1_0"
  top: "conv3_1_1"
  param {
    lr_mult: 1
    decay_mult: 1
  }
  param {
    lr_mult: 2
    decay_mult: 0
  }
  convolution_param {
    num_output: 32
    bias_term: true
    pad: 1
    kernel_size: 3
    stride: 1
    weight_filler {
      type: "msra"
    }
    bias_filler {
      type: "constant"
      value: 0
    }
  }
}
layer {
  name: "conv3_1bn1"
  type: "BatchNorm"
  bottom: "conv3_1_1"
  top: "conv3_1_1"
  param {
    lr_mult: 0
    decay_mult: 0
  }
  param {
    lr_mult: 0
    decay_mult: 0
  }
  param {
    lr_mult: 0
    decay_mult: 0
  }
  batch_norm_param {
    use_global_stats: false
  }
}
layer {
  name: "conv3_1_scale1"
  type: "Scale"
  bottom: "conv3_1_1"
  top: "conv3_1_1"
  scale_param {
    bias_term: true
  }
}
layer {
  name: "conv3_1_down"
  type: "Convolution"
  bottom: "conv2_Eltwise_5"
  top: "conv3_1_down"
  param {
    lr_mult: 1
    decay_mult: 1
  }
  param {
    lr_mult: 2
    decay_mult: 0
  }
  convolution_param {
    num_output: 32
    bias_term: true
    pad: 0
    kernel_size: 1
    stride: 2
    weight_filler {
      type: "msra"
    }
    bias_filler {
      type: "constant"
      value: 0
    }
  }
}
layer {
  name: "conv3_1_bn_down"
  type: "BatchNorm"
  bottom: "conv3_1_down"
  top: "conv3_1_down"
  param {
    lr_mult: 0
    decay_mult: 0
  }
  param {
    lr_mult: 0
    decay_mult: 0
  }
  param {
    lr_mult: 0
    decay_mult: 0
  }
  batch_norm_param {
    use_global_stats: false
  }
}
layer {
  name: "conv3_1_scale_down"
  type: "Scale"
  bottom: "conv3_1_down"
  top: "conv3_1_down"
  scale_param {
    bias_term: true
  }
}
layer {
  name: "conv3_Eltwise_1"
  type: "Eltwise"
  bottom: "conv3_1_1"
  bottom: "conv3_1_down"
  top: "conv3_Eltwise_1"
  eltwise_param {
    operation: SUM
  }
}
layer {
  name: "conv3_1ReLU_1"
  type: "ReLU"
  bottom: "conv3_Eltwise_1"
  top: "conv3_Eltwise_1"
}
layer {
  name: "conv3_2_0"
  type: "Convolution"
  bottom: "conv3_Eltwise_1"
  top: "conv3_2_0"
  param {
    lr_mult: 1
    decay_mult: 1
  }
  param {
    lr_mult: 2
    decay_mult: 0
  }
  convolution_param {
    num_output: 32
    bias_term: true
    pad: 1
    kernel_size: 3
    stride: 1
    weight_filler {
      type: "msra"
    }
    bias_filler {
      type: "constant"
      value: 0
    }
  }
}
layer {
  name: "conv3_2_bn0"
  type: "BatchNorm"
  bottom: "conv3_2_0"
  top: "conv3_2_0"
  param {
    lr_mult: 0
    decay_mult: 0
  }
  param {
    lr_mult: 0
    decay_mult: 0
  }
  param {
    lr_mult: 0
    decay_mult: 0
  }
  batch_norm_param {
    use_global_stats: false
  }
}
layer {
  name: "conv3_2_scale0"
  type: "Scale"
  bottom: "conv3_2_0"
  top: "conv3_2_0"
  scale_param {
    bias_term: true
  }
}
layer {
  name: "conv3_2_ReLU0"
  type: "ReLU"
  bottom: "conv3_2_0"
  top: "conv3_2_0"
}
layer {
  name: "conv3_2_1"
  type: "Convolution"
  bottom: "conv3_2_0"
  top: "conv3_2_1"
  param {
    lr_mult: 1
    decay_mult: 1
  }
  param {
    lr_mult: 2
    decay_mult: 0
  }
  convolution_param {
    num_output: 32
    bias_term: true
    pad: 1
    kernel_size: 3
    stride: 1
    weight_filler {
      type: "msra"
    }
    bias_filler {
      type: "constant"
      value: 0
    }
  }
}
layer {
  name: "conv3_2bn1"
  type: "BatchNorm"
  bottom: "conv3_2_1"
  top: "conv3_2_1"
  param {
    lr_mult: 0
    decay_mult: 0
  }
  param {
    lr_mult: 0
    decay_mult: 0
  }
  param {
    lr_mult: 0
    decay_mult: 0
  }
  batch_norm_param {
    use_global_stats: false
  }
}
layer {
  name: "conv3_2_scale1"
  type: "Scale"
  bottom: "conv3_2_1"
  top: "conv3_2_1"
  scale_param {
    bias_term: true
  }
}
layer {
  name: "conv3_Eltwise_2"
  type: "Eltwise"
  bottom: "conv3_Eltwise_1"
  bottom: "conv3_2_1"
  top: "conv3_Eltwise_2"
  eltwise_param {
    operation: SUM
  }
}
layer {
  name: "conv3_2ReLU_1"
  type: "ReLU"
  bottom: "conv3_Eltwise_2"
  top: "conv3_Eltwise_2"
}
layer {
  name: "conv3_3_0"
  type: "Convolution"
  bottom: "conv3_Eltwise_2"
  top: "conv3_3_0"
  param {
    lr_mult: 1
    decay_mult: 1
  }
  param {
    lr_mult: 2
    decay_mult: 0
  }
  convolution_param {
    num_output: 32
    bias_term: true
    pad: 1
    kernel_size: 3
    stride: 1
    weight_filler {
      type: "msra"
    }
    bias_filler {
      type: "constant"
      value: 0
    }
  }
}
layer {
  name: "conv3_3_bn0"
  type: "BatchNorm"
  bottom: "conv3_3_0"
  top: "conv3_3_0"
  param {
    lr_mult: 0
    decay_mult: 0
  }
  param {
    lr_mult: 0
    decay_mult: 0
  }
  param {
    lr_mult: 0
    decay_mult: 0
  }
  batch_norm_param {
    use_global_stats: false
  }
}
layer {
  name: "conv3_3_scale0"
  type: "Scale"
  bottom: "conv3_3_0"
  top: "conv3_3_0"
  scale_param {
    bias_term: true
  }
}
layer {
  name: "conv3_3_ReLU0"
  type: "ReLU"
  bottom: "conv3_3_0"
  top: "conv3_3_0"
}
layer {
  name: "conv3_3_1"
  type: "Convolution"
  bottom: "conv3_3_0"
  top: "conv3_3_1"
  param {
    lr_mult: 1
    decay_mult: 1
  }
  param {
    lr_mult: 2
    decay_mult: 0
  }
  convolution_param {
    num_output: 32
    bias_term: true
    pad: 1
    kernel_size: 3
    stride: 1
    weight_filler {
      type: "msra"
    }
    bias_filler {
      type: "constant"
      value: 0
    }
  }
}
layer {
  name: "conv3_3bn1"
  type: "BatchNorm"
  bottom: "conv3_3_1"
  top: "conv3_3_1"
  param {
    lr_mult: 0
    decay_mult: 0
  }
  param {
    lr_mult: 0
    decay_mult: 0
  }
  param {
    lr_mult: 0
    decay_mult: 0
  }
  batch_norm_param {
    use_global_stats: false
  }
}
layer {
  name: "conv3_3_scale1"
  type: "Scale"
  bottom: "conv3_3_1"
  top: "conv3_3_1"
  scale_param {
    bias_term: true
  }
}
layer {
  name: "conv3_Eltwise_3"
  type: "Eltwise"
  bottom: "conv3_Eltwise_2"
  bottom: "conv3_3_1"
  top: "conv3_Eltwise_3"
  eltwise_param {
    operation: SUM
  }
}
layer {
  name: "conv3_3ReLU_1"
  type: "ReLU"
  bottom: "conv3_Eltwise_3"
  top: "conv3_Eltwise_3"
}
layer {
  name: "conv3_4_0"
  type: "Convolution"
  bottom: "conv3_Eltwise_3"
  top: "conv3_4_0"
  param {
    lr_mult: 1
    decay_mult: 1
  }
  param {
    lr_mult: 2
    decay_mult: 0
  }
  convolution_param {
    num_output: 32
    bias_term: true
    pad: 1
    kernel_size: 3
    stride: 1
    weight_filler {
      type: "msra"
    }
    bias_filler {
      type: "constant"
      value: 0
    }
  }
}
layer {
  name: "conv3_4_bn0"
  type: "BatchNorm"
  bottom: "conv3_4_0"
  top: "conv3_4_0"
  param {
    lr_mult: 0
    decay_mult: 0
  }
  param {
    lr_mult: 0
    decay_mult: 0
  }
  param {
    lr_mult: 0
    decay_mult: 0
  }
  batch_norm_param {
    use_global_stats: false
  }
}
layer {
  name: "conv3_4_scale0"
  type: "Scale"
  bottom: "conv3_4_0"
  top: "conv3_4_0"
  scale_param {
    bias_term: true
  }
}
layer {
  name: "conv3_4_ReLU0"
  type: "ReLU"
  bottom: "conv3_4_0"
  top: "conv3_4_0"
}
layer {
  name: "conv3_4_1"
  type: "Convolution"
  bottom: "conv3_4_0"
  top: "conv3_4_1"
  param {
    lr_mult: 1
    decay_mult: 1
  }
  param {
    lr_mult: 2
    decay_mult: 0
  }
  convolution_param {
    num_output: 32
    bias_term: true
    pad: 1
    kernel_size: 3
    stride: 1
    weight_filler {
      type: "msra"
    }
    bias_filler {
      type: "constant"
      value: 0
    }
  }
}
layer {
  name: "conv3_4bn1"
  type: "BatchNorm"
  bottom: "conv3_4_1"
  top: "conv3_4_1"
  param {
    lr_mult: 0
    decay_mult: 0
  }
  param {
    lr_mult: 0
    decay_mult: 0
  }
  param {
    lr_mult: 0
    decay_mult: 0
  }
  batch_norm_param {
    use_global_stats: false
  }
}
layer {
  name: "conv3_4_scale1"
  type: "Scale"
  bottom: "conv3_4_1"
  top: "conv3_4_1"
  scale_param {
    bias_term: true
  }
}
layer {
  name: "conv3_Eltwise_4"
  type: "Eltwise"
  bottom: "conv3_Eltwise_3"
  bottom: "conv3_4_1"
  top: "conv3_Eltwise_4"
  eltwise_param {
    operation: SUM
  }
}
layer {
  name: "conv3_4ReLU_1"
  type: "ReLU"
  bottom: "conv3_Eltwise_4"
  top: "conv3_Eltwise_4"
}
layer {
  name: "conv3_5_0"
  type: "Convolution"
  bottom: "conv3_Eltwise_4"
  top: "conv3_5_0"
  param {
    lr_mult: 1
    decay_mult: 1
  }
  param {
    lr_mult: 2
    decay_mult: 0
  }
  convolution_param {
    num_output: 32
    bias_term: true
    pad: 1
    kernel_size: 3
    stride: 1
    weight_filler {
      type: "msra"
    }
    bias_filler {
      type: "constant"
      value: 0
    }
  }
}
layer {
  name: "conv3_5_bn0"
  type: "BatchNorm"
  bottom: "conv3_5_0"
  top: "conv3_5_0"
  param {
    lr_mult: 0
    decay_mult: 0
  }
  param {
    lr_mult: 0
    decay_mult: 0
  }
  param {
    lr_mult: 0
    decay_mult: 0
  }
  batch_norm_param {
    use_global_stats: false
  }
}
layer {
  name: "conv3_5_scale0"
  type: "Scale"
  bottom: "conv3_5_0"
  top: "conv3_5_0"
  scale_param {
    bias_term: true
  }
}
layer {
  name: "conv3_5_ReLU0"
  type: "ReLU"
  bottom: "conv3_5_0"
  top: "conv3_5_0"
}
layer {
  name: "conv3_5_1"
  type: "Convolution"
  bottom: "conv3_5_0"
  top: "conv3_5_1"
  param {
    lr_mult: 1
    decay_mult: 1
  }
  param {
    lr_mult: 2
    decay_mult: 0
  }
  convolution_param {
    num_output: 32
    bias_term: true
    pad: 1
    kernel_size: 3
    stride: 1
    weight_filler {
      type: "msra"
    }
    bias_filler {
      type: "constant"
      value: 0
    }
  }
}
layer {
  name: "conv3_5bn1"
  type: "BatchNorm"
  bottom: "conv3_5_1"
  top: "conv3_5_1"
  param {
    lr_mult: 0
    decay_mult: 0
  }
  param {
    lr_mult: 0
    decay_mult: 0
  }
  param {
    lr_mult: 0
    decay_mult: 0
  }
  batch_norm_param {
    use_global_stats: false
  }
}
layer {
  name: "conv3_5_scale1"
  type: "Scale"
  bottom: "conv3_5_1"
  top: "conv3_5_1"
  scale_param {
    bias_term: true
  }
}
layer {
  name: "conv3_Eltwise_5"
  type: "Eltwise"
  bottom: "conv3_Eltwise_4"
  bottom: "conv3_5_1"
  top: "conv3_Eltwise_5"
  eltwise_param {
    operation: SUM
  }
}
layer {
  name: "conv3_5ReLU_1"
  type: "ReLU"
  bottom: "conv3_Eltwise_5"
  top: "conv3_Eltwise_5"
}
layer {
  name: "conv4_1_0"
  type: "Convolution"
  bottom: "conv3_Eltwise_5"
  top: "conv4_1_0"
  param {
    lr_mult: 1
    decay_mult: 1
  }
  param {
    lr_mult: 2
    decay_mult: 0
  }
  convolution_param {
    num_output: 64
    bias_term: true
    pad: 1
    kernel_size: 3
    stride: 2
    weight_filler {
      type: "msra"
    }
    bias_filler {
      type: "constant"
      value: 0
    }
  }
}
layer {
  name: "conv4_1_bn0"
  type: "BatchNorm"
  bottom: "conv4_1_0"
  top: "conv4_1_0"
  param {
    lr_mult: 0
    decay_mult: 0
  }
  param {
    lr_mult: 0
    decay_mult: 0
  }
  param {
    lr_mult: 0
    decay_mult: 0
  }
  batch_norm_param {
    use_global_stats: false
  }
}
layer {
  name: "conv4_1_scale0"
  type: "Scale"
  bottom: "conv4_1_0"
  top: "conv4_1_0"
  scale_param {
    bias_term: true
  }
}
layer {
  name: "conv4_1_ReLU0"
  type: "ReLU"
  bottom: "conv4_1_0"
  top: "conv4_1_0"
}
layer {
  name: "conv4_1_1"
  type: "Convolution"
  bottom: "conv4_1_0"
  top: "conv4_1_1"
  param {
    lr_mult: 1
    decay_mult: 1
  }
  param {
    lr_mult: 2
    decay_mult: 0
  }
  convolution_param {
    num_output: 64
    bias_term: true
    pad: 1
    kernel_size: 3
    stride: 1
    weight_filler {
      type: "msra"
    }
    bias_filler {
      type: "constant"
      value: 0
    }
  }
}
layer {
  name: "conv4_1bn1"
  type: "BatchNorm"
  bottom: "conv4_1_1"
  top: "conv4_1_1"
  param {
    lr_mult: 0
    decay_mult: 0
  }
  param {
    lr_mult: 0
    decay_mult: 0
  }
  param {
    lr_mult: 0
    decay_mult: 0
  }
  batch_norm_param {
    use_global_stats: false
  }
}
layer {
  name: "conv4_1_scale1"
  type: "Scale"
  bottom: "conv4_1_1"
  top: "conv4_1_1"
  scale_param {
    bias_term: true
  }
}
layer {
  name: "conv4_1_down"
  type: "Convolution"
  bottom: "conv3_Eltwise_5"
  top: "conv4_1_down"
  param {
    lr_mult: 1
    decay_mult: 1
  }
  param {
    lr_mult: 2
    decay_mult: 0
  }
  convolution_param {
    num_output: 64
    bias_term: true
    pad: 0
    kernel_size: 1
    stride: 2
    weight_filler {
      type: "msra"
    }
    bias_filler {
      type: "constant"
      value: 0
    }
  }
}
layer {
  name: "conv4_1_bn_down"
  type: "BatchNorm"
  bottom: "conv4_1_down"
  top: "conv4_1_down"
  param {
    lr_mult: 0
    decay_mult: 0
  }
  param {
    lr_mult: 0
    decay_mult: 0
  }
  param {
    lr_mult: 0
    decay_mult: 0
  }
  batch_norm_param {
    use_global_stats: false
  }
}
layer {
  name: "conv4_1_scale_down"
  type: "Scale"
  bottom: "conv4_1_down"
  top: "conv4_1_down"
  scale_param {
    bias_term: true
  }
}
layer {
  name: "conv4_Eltwise_1"
  type: "Eltwise"
  bottom: "conv4_1_1"
  bottom: "conv4_1_down"
  top: "conv4_Eltwise_1"
  eltwise_param {
    operation: SUM
  }
}
layer {
  name: "conv4_1ReLU_1"
  type: "ReLU"
  bottom: "conv4_Eltwise_1"
  top: "conv4_Eltwise_1"
}
layer {
  name: "conv4_2_0"
  type: "Convolution"
  bottom: "conv4_Eltwise_1"
  top: "conv4_2_0"
  param {
    lr_mult: 1
    decay_mult: 1
  }
  param {
    lr_mult: 2
    decay_mult: 0
  }
  convolution_param {
    num_output: 64
    bias_term: true
    pad: 1
    kernel_size: 3
    stride: 1
    weight_filler {
      type: "msra"
    }
    bias_filler {
      type: "constant"
      value: 0
    }
  }
}
layer {
  name: "conv4_2_bn0"
  type: "BatchNorm"
  bottom: "conv4_2_0"
  top: "conv4_2_0"
  param {
    lr_mult: 0
    decay_mult: 0
  }
  param {
    lr_mult: 0
    decay_mult: 0
  }
  param {
    lr_mult: 0
    decay_mult: 0
  }
  batch_norm_param {
    use_global_stats: false
  }
}
layer {
  name: "conv4_2_scale0"
  type: "Scale"
  bottom: "conv4_2_0"
  top: "conv4_2_0"
  scale_param {
    bias_term: true
  }
}
layer {
  name: "conv4_2_ReLU0"
  type: "ReLU"
  bottom: "conv4_2_0"
  top: "conv4_2_0"
}
layer {
  name: "conv4_2_1"
  type: "Convolution"
  bottom: "conv4_2_0"
  top: "conv4_2_1"
  param {
    lr_mult: 1
    decay_mult: 1
  }
  param {
    lr_mult: 2
    decay_mult: 0
  }
  convolution_param {
    num_output: 64
    bias_term: true
    pad: 1
    kernel_size: 3
    stride: 1
    weight_filler {
      type: "msra"
    }
    bias_filler {
      type: "constant"
      value: 0
    }
  }
}
layer {
  name: "conv4_2bn1"
  type: "BatchNorm"
  bottom: "conv4_2_1"
  top: "conv4_2_1"
  param {
    lr_mult: 0
    decay_mult: 0
  }
  param {
    lr_mult: 0
    decay_mult: 0
  }
  param {
    lr_mult: 0
    decay_mult: 0
  }
  batch_norm_param {
    use_global_stats: false
  }
}
layer {
  name: "conv4_2_scale1"
  type: "Scale"
  bottom: "conv4_2_1"
  top: "conv4_2_1"
  scale_param {
    bias_term: true
  }
}
layer {
  name: "conv4_Eltwise_2"
  type: "Eltwise"
  bottom: "conv4_Eltwise_1"
  bottom: "conv4_2_1"
  top: "conv4_Eltwise_2"
  eltwise_param {
    operation: SUM
  }
}
layer {
  name: "conv4_2ReLU_1"
  type: "ReLU"
  bottom: "conv4_Eltwise_2"
  top: "conv4_Eltwise_2"
}
layer {
  name: "conv4_3_0"
  type: "Convolution"
  bottom: "conv4_Eltwise_2"
  top: "conv4_3_0"
  param {
    lr_mult: 1
    decay_mult: 1
  }
  param {
    lr_mult: 2
    decay_mult: 0
  }
  convolution_param {
    num_output: 64
    bias_term: true
    pad: 1
    kernel_size: 3
    stride: 1
    weight_filler {
      type: "msra"
    }
    bias_filler {
      type: "constant"
      value: 0
    }
  }
}
layer {
  name: "conv4_3_bn0"
  type: "BatchNorm"
  bottom: "conv4_3_0"
  top: "conv4_3_0"
  param {
    lr_mult: 0
    decay_mult: 0
  }
  param {
    lr_mult: 0
    decay_mult: 0
  }
  param {
    lr_mult: 0
    decay_mult: 0
  }
  batch_norm_param {
    use_global_stats: false
  }
}
layer {
  name: "conv4_3_scale0"
  type: "Scale"
  bottom: "conv4_3_0"
  top: "conv4_3_0"
  scale_param {
    bias_term: true
  }
}
layer {
  name: "conv4_3_ReLU0"
  type: "ReLU"
  bottom: "conv4_3_0"
  top: "conv4_3_0"
}
layer {
  name: "conv4_3_1"
  type: "Convolution"
  bottom: "conv4_3_0"
  top: "conv4_3_1"
  param {
    lr_mult: 1
    decay_mult: 1
  }
  param {
    lr_mult: 2
    decay_mult: 0
  }
  convolution_param {
    num_output: 64
    bias_term: true
    pad: 1
    kernel_size: 3
    stride: 1
    weight_filler {
      type: "msra"
    }
    bias_filler {
      type: "constant"
      value: 0
    }
  }
}
layer {
  name: "conv4_3bn1"
  type: "BatchNorm"
  bottom: "conv4_3_1"
  top: "conv4_3_1"
  param {
    lr_mult: 0
    decay_mult: 0
  }
  param {
    lr_mult: 0
    decay_mult: 0
  }
  param {
    lr_mult: 0
    decay_mult: 0
  }
  batch_norm_param {
    use_global_stats: false
  }
}
layer {
  name: "conv4_3_scale1"
  type: "Scale"
  bottom: "conv4_3_1"
  top: "conv4_3_1"
  scale_param {
    bias_term: true
  }
}
layer {
  name: "conv4_Eltwise_3"
  type: "Eltwise"
  bottom: "conv4_Eltwise_2"
  bottom: "conv4_3_1"
  top: "conv4_Eltwise_3"
  eltwise_param {
    operation: SUM
  }
}
layer {
  name: "conv4_3ReLU_1"
  type: "ReLU"
  bottom: "conv4_Eltwise_3"
  top: "conv4_Eltwise_3"
}
layer {
  name: "conv4_4_0"
  type: "Convolution"
  bottom: "conv4_Eltwise_3"
  top: "conv4_4_0"
  param {
    lr_mult: 1
    decay_mult: 1
  }
  param {
    lr_mult: 2
    decay_mult: 0
  }
  convolution_param {
    num_output: 64
    bias_term: true
    pad: 1
    kernel_size: 3
    stride: 1
    weight_filler {
      type: "msra"
    }
    bias_filler {
      type: "constant"
      value: 0
    }
  }
}
layer {
  name: "conv4_4_bn0"
  type: "BatchNorm"
  bottom: "conv4_4_0"
  top: "conv4_4_0"
  param {
    lr_mult: 0
    decay_mult: 0
  }
  param {
    lr_mult: 0
    decay_mult: 0
  }
  param {
    lr_mult: 0
    decay_mult: 0
  }
  batch_norm_param {
    use_global_stats: false
  }
}
layer {
  name: "conv4_4_scale0"
  type: "Scale"
  bottom: "conv4_4_0"
  top: "conv4_4_0"
  
I0927 00:20:22.730046 19128 layer_factory.hpp:77] Creating layer Data1
I0927 00:20:22.730242 19128 db_lmdb.cpp:35] Opened lmdb /home/lijianfei/datasets/cifar10_40/train_lmdb
I0927 00:20:22.730311 19128 net.cpp:128] Creating Layer Data1
I0927 00:20:22.730324 19128 net.cpp:522] Data1 -> data
I0927 00:20:22.730355 19128 net.cpp:522] Data1 -> label
I0927 00:20:22.732218 19128 data_layer.cpp:45] output data size: 128,3,32,32
I0927 00:20:22.745985 19128 net.cpp:172] Setting up Data1
I0927 00:20:22.746054 19128 net.cpp:186] Top shape: 128 3 32 32 (393216)
I0927 00:20:22.746062 19128 net.cpp:186] Top shape: 128 (128)
I0927 00:20:22.746067 19128 net.cpp:194] Memory required for data: 1573376
I0927 00:20:22.746083 19128 layer_factory.hpp:77] Creating layer conv1
I0927 00:20:22.746124 19128 net.cpp:128] Creating Layer conv1
I0927 00:20:22.746173 19128 net.cpp:558] conv1 <- data
I0927 00:20:22.746213 19128 net.cpp:522] conv1 -> conv1
I0927 00:20:23.799186 19128 net.cpp:172] Setting up conv1
I0927 00:20:23.799249 19128 net.cpp:186] Top shape: 128 16 32 32 (2097152)
I0927 00:20:23.799254 19128 net.cpp:194] Memory required for data: 9961984
I0927 00:20:23.799300 19128 layer_factory.hpp:77] Creating layer conv1/bn
I0927 00:20:23.799324 19128 net.cpp:128] Creating Layer conv1/bn
I0927 00:20:23.799329 19128 net.cpp:558] conv1/bn <- conv1
I0927 00:20:23.799340 19128 net.cpp:509] conv1/bn -> conv1 (in-place)
I0927 00:20:23.799619 19128 net.cpp:172] Setting up conv1/bn
I0927 00:20:23.799633 19128 net.cpp:186] Top shape: 128 16 32 32 (2097152)
I0927 00:20:23.799636 19128 net.cpp:194] Memory required for data: 18350592
I0927 00:20:23.799650 19128 layer_factory.hpp:77] Creating layer conv1/scale
I0927 00:20:23.799659 19128 net.cpp:128] Creating Layer conv1/scale
I0927 00:20:23.799664 19128 net.cpp:558] conv1/scale <- conv1
I0927 00:20:23.799670 19128 net.cpp:509] conv1/scale -> conv1 (in-place)
I0927 00:20:23.799717 19128 layer_factory.hpp:77] Creating layer conv1/scale
I0927 00:20:23.799863 19128 net.cpp:172] Setting up conv1/scale
I0927 00:20:23.799932 19128 net.cpp:186] Top shape: 128 16 32 32 (2097152)
I0927 00:20:23.799949 19128 net.cpp:194] Memory required for data: 26739200
I0927 00:20:23.799970 19128 layer_factory.hpp:77] Creating layer conv1/ReLU
I0927 00:20:23.799990 19128 net.cpp:128] Creating Layer conv1/ReLU
I0927 00:20:23.800007 19128 net.cpp:558] conv1/ReLU <- conv1
I0927 00:20:23.800025 19128 net.cpp:509] conv1/ReLU -> conv1 (in-place)
I0927 00:20:23.800848 19128 net.cpp:172] Setting up conv1/ReLU
I0927 00:20:23.800865 19128 net.cpp:186] Top shape: 128 16 32 32 (2097152)
I0927 00:20:23.800870 19128 net.cpp:194] Memory required for data: 35127808
I0927 00:20:23.800879 19128 layer_factory.hpp:77] Creating layer conv1_conv1/ReLU_0_split
I0927 00:20:23.800886 19128 net.cpp:128] Creating Layer conv1_conv1/ReLU_0_split
I0927 00:20:23.800891 19128 net.cpp:558] conv1_conv1/ReLU_0_split <- conv1
I0927 00:20:23.800899 19128 net.cpp:522] conv1_conv1/ReLU_0_split -> conv1_conv1/ReLU_0_split_0
I0927 00:20:23.800906 19128 net.cpp:522] conv1_conv1/ReLU_0_split -> conv1_conv1/ReLU_0_split_1
I0927 00:20:23.800951 19128 net.cpp:172] Setting up conv1_conv1/ReLU_0_split
I0927 00:20:23.800958 19128 net.cpp:186] Top shape: 128 16 32 32 (2097152)
I0927 00:20:23.800966 19128 net.cpp:186] Top shape: 128 16 32 32 (2097152)
I0927 00:20:23.800969 19128 net.cpp:194] Memory required for data: 51905024
I0927 00:20:23.800973 19128 layer_factory.hpp:77] Creating layer conv2_1_0
I0927 00:20:23.800987 19128 net.cpp:128] Creating Layer conv2_1_0
I0927 00:20:23.800990 19128 net.cpp:558] conv2_1_0 <- conv1_conv1/ReLU_0_split_0
I0927 00:20:23.800997 19128 net.cpp:522] conv2_1_0 -> conv2_1_0
I0927 00:20:23.807523 19128 net.cpp:172] Setting up conv2_1_0
I0927 00:20:23.807554 19128 net.cpp:186] Top shape: 128 16 32 32 (2097152)
I0927 00:20:23.807559 19128 net.cpp:194] Memory required for data: 60293632
I0927 00:20:23.807574 19128 layer_factory.hpp:77] Creating layer conv2_1_bn0
I0927 00:20:23.807584 19128 net.cpp:128] Creating Layer conv2_1_bn0
I0927 00:20:23.807591 19128 net.cpp:558] conv2_1_bn0 <- conv2_1_0
I0927 00:20:23.807598 19128 net.cpp:509] conv2_1_bn0 -> conv2_1_0 (in-place)
I0927 00:20:23.807832 19128 net.cpp:172] Setting up conv2_1_bn0
I0927 00:20:23.807843 19128 net.cpp:186] Top shape: 128 16 32 32 (2097152)
I0927 00:20:23.807849 19128 net.cpp:194] Memory required for data: 68682240
I0927 00:20:23.807859 19128 layer_factory.hpp:77] Creating layer conv2_1_scale0
I0927 00:20:23.807868 19128 net.cpp:128] Creating Layer conv2_1_scale0
I0927 00:20:23.807873 19128 net.cpp:558] conv2_1_scale0 <- conv2_1_0
I0927 00:20:23.807878 19128 net.cpp:509] conv2_1_scale0 -> conv2_1_0 (in-place)
I0927 00:20:23.807917 19128 layer_factory.hpp:77] Creating layer conv2_1_scale0
I0927 00:20:23.808099 19128 net.cpp:172] Setting up conv2_1_scale0
I0927 00:20:23.808125 19128 net.cpp:186] Top shape: 128 16 32 32 (2097152)
I0927 00:20:23.808140 19128 net.cpp:194] Memory required for data: 77070848
I0927 00:20:23.808163 19128 layer_factory.hpp:77] Creating layer conv2_1_ReLU0
I0927 00:20:23.808177 19128 net.cpp:128] Creating Layer conv2_1_ReLU0
I0927 00:20:23.808182 19128 net.cpp:558] conv2_1_ReLU0 <- conv2_1_0
I0927 00:20:23.808188 19128 net.cpp:509] conv2_1_ReLU0 -> conv2_1_0 (in-place)
I0927 00:20:23.809609 19128 net.cpp:172] Setting up conv2_1_ReLU0
I0927 00:20:23.809628 19128 net.cpp:186] Top shape: 128 16 32 32 (2097152)
I0927 00:20:23.809631 19128 net.cpp:194] Memory required for data: 85459456
I0927 00:20:23.809650 19128 layer_factory.hpp:77] Creating layer conv2_1_1
I0927 00:20:23.809665 19128 net.cpp:128] Creating Layer conv2_1_1
I0927 00:20:23.809674 19128 net.cpp:558] conv2_1_1 <- conv2_1_0
I0927 00:20:23.809681 19128 net.cpp:522] conv2_1_1 -> conv2_1_1
I0927 00:20:23.816334 19128 net.cpp:172] Setting up conv2_1_1
I0927 00:20:23.816361 19128 net.cpp:186] Top shape: 128 16 32 32 (2097152)
I0927 00:20:23.816366 19128 net.cpp:194] Memory required for data: 93848064
I0927 00:20:23.816376 19128 layer_factory.hpp:77] Creating layer conv2_1bn1
I0927 00:20:23.816388 19128 net.cpp:128] Creating Layer conv2_1bn1
I0927 00:20:23.816393 19128 net.cpp:558] conv2_1bn1 <- conv2_1_1
I0927 00:20:23.816402 19128 net.cpp:509] conv2_1bn1 -> conv2_1_1 (in-place)
I0927 00:20:23.816633 19128 net.cpp:172] Setting up conv2_1bn1
I0927 00:20:23.816645 19128 net.cpp:186] Top shape: 128 16 32 32 (2097152)
I0927 00:20:23.816649 19128 net.cpp:194] Memory required for data: 102236672
I0927 00:20:23.816665 19128 layer_factory.hpp:77] Creating layer conv2_1_scale1
I0927 00:20:23.816673 19128 net.cpp:128] Creating Layer conv2_1_scale1
I0927 00:20:23.816678 19128 net.cpp:558] conv2_1_scale1 <- conv2_1_1
I0927 00:20:23.816682 19128 net.cpp:509] conv2_1_scale1 -> conv2_1_1 (in-place)
I0927 00:20:23.816722 19128 layer_factory.hpp:77] Creating layer conv2_1_scale1
I0927 00:20:23.816893 19128 net.cpp:172] Setting up conv2_1_scale1
I0927 00:20:23.816905 19128 net.cpp:186] Top shape: 128 16 32 32 (2097152)
I0927 00:20:23.816910 19128 net.cpp:194] Memory required for data: 110625280
I0927 00:20:23.816918 19128 layer_factory.hpp:77] Creating layer conv2_Eltwise_1
I0927 00:20:23.816932 19128 net.cpp:128] Creating Layer conv2_Eltwise_1
I0927 00:20:23.816936 19128 net.cpp:558] conv2_Eltwise_1 <- conv1_conv1/ReLU_0_split_1
I0927 00:20:23.816942 19128 net.cpp:558] conv2_Eltwise_1 <- conv2_1_1
I0927 00:20:23.816948 19128 net.cpp:522] conv2_Eltwise_1 -> conv2_Eltwise_1
I0927 00:20:23.816979 19128 net.cpp:172] Setting up conv2_Eltwise_1
I0927 00:20:23.817011 19128 net.cpp:186] Top shape: 128 16 32 32 (2097152)
I0927 00:20:23.817037 19128 net.cpp:194] Memory required for data: 119013888
I0927 00:20:23.817046 19128 layer_factory.hpp:77] Creating layer conv2_1ReLU_1
I0927 00:20:23.817054 19128 net.cpp:128] Creating Layer conv2_1ReLU_1
I0927 00:20:23.817059 19128 net.cpp:558] conv2_1ReLU_1 <- conv2_Eltwise_1
I0927 00:20:23.817067 19128 net.cpp:509] conv2_1ReLU_1 -> conv2_Eltwise_1 (in-place)
I0927 00:20:23.818390 19128 net.cpp:172] Setting up conv2_1ReLU_1
I0927 00:20:23.818416 19128 net.cpp:186] Top shape: 128 16 32 32 (2097152)
I0927 00:20:23.818420 19128 net.cpp:194] Memory required for data: 127402496
I0927 00:20:23.818426 19128 layer_factory.hpp:77] Creating layer conv2_Eltwise_1_conv2_1ReLU_1_0_split
I0927 00:20:23.818436 19128 net.cpp:128] Creating Layer conv2_Eltwise_1_conv2_1ReLU_1_0_split
I0927 00:20:23.818441 19128 net.cpp:558] conv2_Eltwise_1_conv2_1ReLU_1_0_split <- conv2_Eltwise_1
I0927 00:20:23.818449 19128 net.cpp:522] conv2_Eltwise_1_conv2_1ReLU_1_0_split -> conv2_Eltwise_1_conv2_1ReLU_1_0_split_0
I0927 00:20:23.818465 19128 net.cpp:522] conv2_Eltwise_1_conv2_1ReLU_1_0_split -> conv2_Eltwise_1_conv2_1ReLU_1_0_split_1
I0927 00:20:23.818516 19128 net.cpp:172] Setting up conv2_Eltwise_1_conv2_1ReLU_1_0_split
I0927 00:20:23.818569 19128 net.cpp:186] Top shape: 128 16 32 32 (2097152)
I0927 00:20:23.818579 19128 net.cpp:186] Top shape: 128 16 32 32 (2097152)
I0927 00:20:23.818583 19128 net.cpp:194] Memory required for data: 144179712
I0927 00:20:23.818588 19128 layer_factory.hpp:77] Creating layer conv2_2_0
I0927 00:20:23.818604 19128 net.cpp:128] Creating Layer conv2_2_0
I0927 00:20:23.818609 19128 net.cpp:558] conv2_2_0 <- conv2_Eltwise_1_conv2_1ReLU_1_0_split_0
I0927 00:20:23.818619 19128 net.cpp:522] conv2_2_0 -> conv2_2_0
I0927 00:20:23.825107 19128 net.cpp:172] Setting up conv2_2_0
I0927 00:20:23.825135 19128 net.cpp:186] Top shape: 128 16 32 32 (2097152)
I0927 00:20:23.825139 19128 net.cpp:194] Memory required for data: 152568320
I0927 00:20:23.825166 19128 layer_factory.hpp:77] Creating layer conv2_2_bn0
I0927 00:20:23.825178 19128 net.cpp:128] Creating Layer conv2_2_bn0
I0927 00:20:23.825184 19128 net.cpp:558] conv2_2_bn0 <- conv2_2_0
I0927 00:20:23.825194 19128 net.cpp:509] conv2_2_bn0 -> conv2_2_0 (in-place)
I0927 00:20:23.825428 19128 net.cpp:172] Setting up conv2_2_bn0
I0927 00:20:23.825440 19128 net.cpp:186] Top shape: 128 16 32 32 (2097152)
I0927 00:20:23.825444 19128 net.cpp:194] Memory required for data: 160956928
I0927 00:20:23.825454 19128 layer_factory.hpp:77] Creating layer conv2_2_scale0
I0927 00:20:23.825466 19128 net.cpp:128] Creating Layer conv2_2_scale0
I0927 00:20:23.825471 19128 net.cpp:558] conv2_2_scale0 <- conv2_2_0
I0927 00:20:23.825477 19128 net.cpp:509] conv2_2_scale0 -> conv2_2_0 (in-place)
I0927 00:20:23.825516 19128 layer_factory.hpp:77] Creating layer conv2_2_scale0
I0927 00:20:23.825657 19128 net.cpp:172] Setting up conv2_2_scale0
I0927 00:20:23.825665 19128 net.cpp:186] Top shape: 128 16 32 32 (2097152)
I0927 00:20:23.825670 19128 net.cpp:194] Memory required for data: 169345536
I0927 00:20:23.825676 19128 layer_factory.hpp:77] Creating layer conv2_2_ReLU0
I0927 00:20:23.825683 19128 net.cpp:128] Creating Layer conv2_2_ReLU0
I0927 00:20:23.825688 19128 net.cpp:558] conv2_2_ReLU0 <- conv2_2_0
I0927 00:20:23.825697 19128 net.cpp:509] conv2_2_ReLU0 -> conv2_2_0 (in-place)
I0927 00:20:23.827188 19128 net.cpp:172] Setting up conv2_2_ReLU0
I0927 00:20:23.827208 19128 net.cpp:186] Top shape: 128 16 32 32 (2097152)
I0927 00:20:23.827213 19128 net.cpp:194] Memory required for data: 177734144
I0927 00:20:23.827217 19128 layer_factory.hpp:77] Creating layer conv2_2_1
I0927 00:20:23.827230 19128 net.cpp:128] Creating Layer conv2_2_1
I0927 00:20:23.827235 19128 net.cpp:558] conv2_2_1 <- conv2_2_0
I0927 00:20:23.827245 19128 net.cpp:522] conv2_2_1 -> conv2_2_1
I0927 00:20:23.833065 19128 net.cpp:172] Setting up conv2_2_1
I0927 00:20:23.833091 19128 net.cpp:186] Top shape: 128 16 32 32 (2097152)
I0927 00:20:23.833096 19128 net.cpp:194] Memory required for data: 186122752
I0927 00:20:23.833108 19128 layer_factory.hpp:77] Creating layer conv2_2bn1
I0927 00:20:23.833117 19128 net.cpp:128] Creating Layer conv2_2bn1
I0927 00:20:23.833125 19128 net.cpp:558] conv2_2bn1 <- conv2_2_1
I0927 00:20:23.833134 19128 net.cpp:509] conv2_2bn1 -> conv2_2_1 (in-place)
I0927 00:20:23.833377 19128 net.cpp:172] Setting up conv2_2bn1
I0927 00:20:23.833425 19128 net.cpp:186] Top shape: 128 16 32 32 (2097152)
I0927 00:20:23.833434 19128 net.cpp:194] Memory required for data: 194511360
I0927 00:20:23.833449 19128 layer_factory.hpp:77] Creating layer conv2_2_scale1
I0927 00:20:23.833458 19128 net.cpp:128] Creating Layer conv2_2_scale1
I0927 00:20:23.833462 19128 net.cpp:558] conv2_2_scale1 <- conv2_2_1
I0927 00:20:23.833468 19128 net.cpp:509] conv2_2_scale1 -> conv2_2_1 (in-place)
I0927 00:20:23.833518 19128 layer_factory.hpp:77] Creating layer conv2_2_scale1
I0927 00:20:23.833678 19128 net.cpp:172] Setting up conv2_2_scale1
I0927 00:20:23.833690 19128 net.cpp:186] Top shape: 128 16 32 32 (2097152)
I0927 00:20:23.833696 19128 net.cpp:194] Memory required for data: 202899968
I0927 00:20:23.833704 19128 layer_factory.hpp:77] Creating layer conv2_Eltwise_2
I0927 00:20:23.833714 19128 net.cpp:128] Creating Layer conv2_Eltwise_2
I0927 00:20:23.833719 19128 net.cpp:558] conv2_Eltwise_2 <- conv2_Eltwise_1_conv2_1ReLU_1_0_split_1
I0927 00:20:23.833725 19128 net.cpp:558] conv2_Eltwise_2 <- conv2_2_1
I0927 00:20:23.833734 19128 net.cpp:522] conv2_Eltwise_2 -> conv2_Eltwise_2
I0927 00:20:23.833758 19128 net.cpp:172] Setting up conv2_Eltwise_2
I0927 00:20:23.833765 19128 net.cpp:186] Top shape: 128 16 32 32 (2097152)
I0927 00:20:23.833770 19128 net.cpp:194] Memory required for data: 211288576
I0927 00:20:23.833773 19128 layer_factory.hpp:77] Creating layer conv2_2ReLU_1
I0927 00:20:23.833782 19128 net.cpp:128] Creating Layer conv2_2ReLU_1
I0927 00:20:23.833786 19128 net.cpp:558] conv2_2ReLU_1 <- conv2_Eltwise_2
I0927 00:20:23.833792 19128 net.cpp:509] conv2_2ReLU_1 -> conv2_Eltwise_2 (in-place)
I0927 00:20:23.834033 19128 net.cpp:172] Setting up conv2_2ReLU_1
I0927 00:20:23.834075 19128 net.cpp:186] Top shape: 128 16 32 32 (2097152)
I0927 00:20:23.834094 19128 net.cpp:194] Memory required for data: 219677184
I0927 00:20:23.834102 19128 layer_factory.hpp:77] Creating layer conv2_Eltwise_2_conv2_2ReLU_1_0_split
I0927 00:20:23.834113 19128 net.cpp:128] Creating Layer conv2_Eltwise_2_conv2_2ReLU_1_0_split
I0927 00:20:23.834118 19128 net.cpp:558] conv2_Eltwise_2_conv2_2ReLU_1_0_split <- conv2_Eltwise_2
I0927 00:20:23.834128 19128 net.cpp:522] conv2_Eltwise_2_conv2_2ReLU_1_0_split -> conv2_Eltwise_2_conv2_2ReLU_1_0_split_0
I0927 00:20:23.834136 19128 net.cpp:522] conv2_Eltwise_2_conv2_2ReLU_1_0_split -> conv2_Eltwise_2_conv2_2ReLU_1_0_split_1
I0927 00:20:23.834187 19128 net.cpp:172] Setting up conv2_Eltwise_2_conv2_2ReLU_1_0_split
I0927 00:20:23.834200 19128 net.cpp:186] Top shape: 128 16 32 32 (2097152)
I0927 00:20:23.834208 19128 net.cpp:186] Top shape: 128 16 32 32 (2097152)
I0927 00:20:23.834211 19128 net.cpp:194] Memory required for data: 236454400
I0927 00:20:23.834215 19128 layer_factory.hpp:77] Creating layer conv2_3_0
I0927 00:20:23.834228 19128 net.cpp:128] Creating Layer conv2_3_0
I0927 00:20:23.834233 19128 net.cpp:558] conv2_3_0 <- conv2_Eltwise_2_conv2_2ReLU_1_0_split_0
I0927 00:20:23.834239 19128 net.cpp:522] conv2_3_0 -> conv2_3_0
I0927 00:20:23.837435 19128 net.cpp:172] Setting up conv2_3_0
I0927 00:20:23.837463 19128 net.cpp:186] Top shape: 128 16 32 32 (2097152)
I0927 00:20:23.837468 19128 net.cpp:194] Memory required for data: 244843008
I0927 00:20:23.837478 19128 layer_factory.hpp:77] Creating layer conv2_3_bn0
I0927 00:20:23.837489 19128 net.cpp:128] Creating Layer conv2_3_bn0
I0927 00:20:23.837494 19128 net.cpp:558] conv2_3_bn0 <- conv2_3_0
I0927 00:20:23.837502 19128 net.cpp:509] conv2_3_bn0 -> conv2_3_0 (in-place)
I0927 00:20:23.837756 19128 net.cpp:172] Setting up conv2_3_bn0
I0927 00:20:23.837764 19128 net.cpp:186] Top shape: 128 16 32 32 (2097152)
I0927 00:20:23.837769 19128 net.cpp:194] Memory required for data: 253231616
I0927 00:20:23.837779 19128 layer_factory.hpp:77] Creating layer conv2_3_scale0
I0927 00:20:23.837785 19128 net.cpp:128] Creating Layer conv2_3_scale0
I0927 00:20:23.837790 19128 net.cpp:558] conv2_3_scale0 <- conv2_3_0
I0927 00:20:23.837796 19128 net.cpp:509] conv2_3_scale0 -> conv2_3_0 (in-place)
I0927 00:20:23.837838 19128 layer_factory.hpp:77] Creating layer conv2_3_scale0
I0927 00:20:23.837972 19128 net.cpp:172] Setting up conv2_3_scale0
I0927 00:20:23.837980 19128 net.cpp:186] Top shape: 128 16 32 32 (2097152)
I0927 00:20:23.837983 19128 net.cpp:194] Memory required for data: 261620224
I0927 00:20:23.837991 19128 layer_factory.hpp:77] Creating layer conv2_3_ReLU0
I0927 00:20:23.837999 19128 net.cpp:128] Creating Layer conv2_3_ReLU0
I0927 00:20:23.838003 19128 net.cpp:558] conv2_3_ReLU0 <- conv2_3_0
I0927 00:20:23.838012 19128 net.cpp:509] conv2_3_ReLU0 -> conv2_3_0 (in-place)
I0927 00:20:23.838491 19128 net.cpp:172] Setting up conv2_3_ReLU0
I0927 00:20:23.838508 19128 net.cpp:186] Top shape: 128 16 32 32 (2097152)
I0927 00:20:23.838513 19128 net.cpp:194] Memory required for data: 270008832
I0927 00:20:23.838518 19128 layer_factory.hpp:77] Creating layer conv2_3_1
I0927 00:20:23.838532 19128 net.cpp:128] Creating Layer conv2_3_1
I0927 00:20:23.838537 19128 net.cpp:558] conv2_3_1 <- conv2_3_0
I0927 00:20:23.838548 19128 net.cpp:522] conv2_3_1 -> conv2_3_1
I0927 00:20:23.843425 19128 net.cpp:172] Setting up conv2_3_1
I0927 00:20:23.843452 19128 net.cpp:186] Top shape: 128 16 32 32 (2097152)
I0927 00:20:23.843457 19128 net.cpp:194] Memory required for data: 278397440
I0927 00:20:23.843467 19128 layer_factory.hpp:77] Creating layer conv2_3bn1
I0927 00:20:23.843480 19128 net.cpp:128] Creating Layer conv2_3bn1
I0927 00:20:23.843485 19128 net.cpp:558] conv2_3bn1 <- conv2_3_1
I0927 00:20:23.843492 19128 net.cpp:509] conv2_3bn1 -> conv2_3_1 (in-place)
I0927 00:20:23.843745 19128 net.cpp:172] Setting up conv2_3bn1
I0927 00:20:23.843770 19128 net.cpp:186] Top shape: 128 16 32 32 (2097152)
I0927 00:20:23.843775 19128 net.cpp:194] Memory required for data: 286786048
I0927 00:20:23.843786 19128 layer_factory.hpp:77] Creating layer conv2_3_scale1
I0927 00:20:23.843797 19128 net.cpp:128] Creating Layer conv2_3_scale1
I0927 00:20:23.843801 19128 net.cpp:558] conv2_3_scale1 <- conv2_3_1
I0927 00:20:23.843808 19128 net.cpp:509] conv2_3_scale1 -> conv2_3_1 (in-place)
I0927 00:20:23.843850 19128 layer_factory.hpp:77] Creating layer conv2_3_scale1
I0927 00:20:23.843989 19128 net.cpp:172] Setting up conv2_3_scale1
I0927 00:20:23.843997 19128 net.cpp:186] Top shape: 128 16 32 32 (2097152)
I0927 00:20:23.844002 19128 net.cpp:194] Memory required for data: 295174656
I0927 00:20:23.844009 19128 layer_factory.hpp:77] Creating layer conv2_Eltwise_3
I0927 00:20:23.844019 19128 net.cpp:128] Creating Layer conv2_Eltwise_3
I0927 00:20:23.844024 19128 net.cpp:558] conv2_Eltwise_3 <- conv2_Eltwise_2_conv2_2ReLU_1_0_split_1
I0927 00:20:23.844029 19128 net.cpp:558] conv2_Eltwise_3 <- conv2_3_1
I0927 00:20:23.844035 19128 net.cpp:522] conv2_Eltwise_3 -> conv2_Eltwise_3
I0927 00:20:23.844065 19128 net.cpp:172] Setting up conv2_Eltwise_3
I0927 00:20:23.844072 19128 net.cpp:186] Top shape: 128 16 32 32 (2097152)
I0927 00:20:23.844076 19128 net.cpp:194] Memory required for data: 303563264
I0927 00:20:23.844080 19128 layer_factory.hpp:77] Creating layer conv2_3ReLU_1
I0927 00:20:23.844086 19128 net.cpp:128] Creating Layer conv2_3ReLU_1
I0927 00:20:23.844090 19128 net.cpp:558] conv2_3ReLU_1 <- conv2_Eltwise_3
I0927 00:20:23.844100 19128 net.cpp:509] conv2_3ReLU_1 -> conv2_Eltwise_3 (in-place)
I0927 00:20:23.844331 19128 net.cpp:172] Setting up conv2_3ReLU_1
I0927 00:20:23.844342 19128 net.cpp:186] Top shape: 128 16 32 32 (2097152)
I0927 00:20:23.844347 19128 net.cpp:194] Memory required for data: 311951872
I0927 00:20:23.844350 19128 layer_factory.hpp:77] Creating layer conv2_Eltwise_3_conv2_3ReLU_1_0_split
I0927 00:20:23.844358 19128 net.cpp:128] Creating Layer conv2_Eltwise_3_conv2_3ReLU_1_0_split
I0927 00:20:23.844362 19128 net.cpp:558] conv2_Eltwise_3_conv2_3ReLU_1_0_split <- conv2_Eltwise_3
I0927 00:20:23.844372 19128 net.cpp:522] conv2_Eltwise_3_conv2_3ReLU_1_0_split -> conv2_Eltwise_3_conv2_3ReLU_1_0_split_0
I0927 00:20:23.844379 19128 net.cpp:522] conv2_Eltwise_3_conv2_3ReLU_1_0_split -> conv2_Eltwise_3_conv2_3ReLU_1_0_split_1
I0927 00:20:23.844427 19128 net.cpp:172] Setting up conv2_Eltwise_3_conv2_3ReLU_1_0_split
I0927 00:20:23.844434 19128 net.cpp:186] Top shape: 128 16 32 32 (2097152)
I0927 00:20:23.844440 19128 net.cpp:186] Top shape: 128 16 32 32 (2097152)
I0927 00:20:23.844444 19128 net.cpp:194] Memory required for data: 328729088
I0927 00:20:23.844449 19128 layer_factory.hpp:77] Creating layer conv2_4_0
I0927 00:20:23.844460 19128 net.cpp:128] Creating Layer conv2_4_0
I0927 00:20:23.844465 19128 net.cpp:558] conv2_4_0 <- conv2_Eltwise_3_conv2_3ReLU_1_0_split_0
I0927 00:20:23.844475 19128 net.cpp:522] conv2_4_0 -> conv2_4_0
I0927 00:20:23.850064 19128 net.cpp:172] Setting up conv2_4_0
I0927 00:20:23.850095 19128 net.cpp:186] Top shape: 128 16 32 32 (2097152)
I0927 00:20:23.850098 19128 net.cpp:194] Memory required for data: 337117696
I0927 00:20:23.850114 19128 layer_factory.hpp:77] Creating layer conv2_4_bn0
I0927 00:20:23.850126 19128 net.cpp:128] Creating Layer conv2_4_bn0
I0927 00:20:23.850132 19128 net.cpp:558] conv2_4_bn0 <- conv2_4_0
I0927 00:20:23.850142 19128 net.cpp:509] conv2_4_bn0 -> conv2_4_0 (in-place)
I0927 00:20:23.850390 19128 net.cpp:172] Setting up conv2_4_bn0
I0927 00:20:23.850399 19128 net.cpp:186] Top shape: 128 16 32 32 (2097152)
I0927 00:20:23.850402 19128 net.cpp:194] Memory required for data: 345506304
I0927 00:20:23.850412 19128 layer_factory.hpp:77] Creating layer conv2_4_scale0
I0927 00:20:23.850426 19128 net.cpp:128] Creating Layer conv2_4_scale0
I0927 00:20:23.850431 19128 net.cpp:558] conv2_4_scale0 <- conv2_4_0
I0927 00:20:23.850437 19128 net.cpp:509] conv2_4_scale0 -> conv2_4_0 (in-place)
I0927 00:20:23.850481 19128 layer_factory.hpp:77] Creating layer conv2_4_scale0
I0927 00:20:23.850646 19128 net.cpp:172] Setting up conv2_4_scale0
I0927 00:20:23.850657 19128 net.cpp:186] Top shape: 128 16 32 32 (2097152)
I0927 00:20:23.850662 19128 net.cpp:194] Memory required for data: 353894912
I0927 00:20:23.850672 19128 layer_factory.hpp:77] Creating layer conv2_4_ReLU0
I0927 00:20:23.850679 19128 net.cpp:128] Creating Layer conv2_4_ReLU0
I0927 00:20:23.850684 19128 net.cpp:558] conv2_4_ReLU0 <- conv2_4_0
I0927 00:20:23.850695 19128 net.cpp:509] conv2_4_ReLU0 -> conv2_4_0 (in-place)
I0927 00:20:23.852102 19128 net.cpp:172] Setting up conv2_4_ReLU0
I0927 00:20:23.852123 19128 net.cpp:186] Top shape: 128 16 32 32 (2097152)
I0927 00:20:23.852128 19128 net.cpp:194] Memory required for data: 362283520
I0927 00:20:23.852133 19128 layer_factory.hpp:77] Creating layer conv2_4_1
I0927 00:20:23.852151 19128 net.cpp:128] Creating Layer conv2_4_1
I0927 00:20:23.852195 19128 net.cpp:558] conv2_4_1 <- conv2_4_0
I0927 00:20:23.852208 19128 net.cpp:522] conv2_4_1 -> conv2_4_1
I0927 00:20:23.858825 19128 net.cpp:172] Setting up conv2_4_1
I0927 00:20:23.858852 19128 net.cpp:186] Top shape: 128 16 32 32 (2097152)
I0927 00:20:23.858857 19128 net.cpp:194] Memory required for data: 370672128
I0927 00:20:23.858871 19128 layer_factory.hpp:77] Creating layer conv2_4bn1
I0927 00:20:23.858883 19128 net.cpp:128] Creating Layer conv2_4bn1
I0927 00:20:23.858889 19128 net.cpp:558] conv2_4bn1 <- conv2_4_1
I0927 00:20:23.858896 19128 net.cpp:509] conv2_4bn1 -> conv2_4_1 (in-place)
I0927 00:20:23.859148 19128 net.cpp:172] Setting up conv2_4bn1
I0927 00:20:23.859158 19128 net.cpp:186] Top shape: 128 16 32 32 (2097152)
I0927 00:20:23.859163 19128 net.cpp:194] Memory required for data: 379060736
I0927 00:20:23.859172 19128 layer_factory.hpp:77] Creating layer conv2_4_scale1
I0927 00:20:23.859179 19128 net.cpp:128] Creating Layer conv2_4_scale1
I0927 00:20:23.859184 19128 net.cpp:558] conv2_4_scale1 <- conv2_4_1
I0927 00:20:23.859191 19128 net.cpp:509] conv2_4_scale1 -> conv2_4_1 (in-place)
I0927 00:20:23.859236 19128 layer_factory.hpp:77] Creating layer conv2_4_scale1
I0927 00:20:23.859375 19128 net.cpp:172] Setting up conv2_4_scale1
I0927 00:20:23.859390 19128 net.cpp:186] Top shape: 128 16 32 32 (2097152)
I0927 00:20:23.859393 19128 net.cpp:194] Memory required for data: 387449344
I0927 00:20:23.859401 19128 layer_factory.hpp:77] Creating layer conv2_Eltwise_4
I0927 00:20:23.859447 19128 net.cpp:128] Creating Layer conv2_Eltwise_4
I0927 00:20:23.859457 19128 net.cpp:558] conv2_Eltwise_4 <- conv2_Eltwise_3_conv2_3ReLU_1_0_split_1
I0927 00:20:23.859462 19128 net.cpp:558] conv2_Eltwise_4 <- conv2_4_1
I0927 00:20:23.859468 19128 net.cpp:522] conv2_Eltwise_4 -> conv2_Eltwise_4
I0927 00:20:23.859505 19128 net.cpp:172] Setting up conv2_Eltwise_4
I0927 00:20:23.859534 19128 net.cpp:186] Top shape: 128 16 32 32 (2097152)
I0927 00:20:23.859541 19128 net.cpp:194] Memory required for data: 395837952
I0927 00:20:23.859546 19128 layer_factory.hpp:77] Creating layer conv2_4ReLU_1
I0927 00:20:23.859556 19128 net.cpp:128] Creating Layer conv2_4ReLU_1
I0927 00:20:23.859561 19128 net.cpp:558] conv2_4ReLU_1 <- conv2_Eltwise_4
I0927 00:20:23.859587 19128 net.cpp:509] conv2_4ReLU_1 -> conv2_Eltwise_4 (in-place)
I0927 00:20:23.860908 19128 net.cpp:172] Setting up conv2_4ReLU_1
I0927 00:20:23.860927 19128 net.cpp:186] Top shape: 128 16 32 32 (2097152)
I0927 00:20:23.860931 19128 net.cpp:194] Memory required for data: 404226560
I0927 00:20:23.860936 19128 layer_factory.hpp:77] Creating layer conv2_Eltwise_4_conv2_4ReLU_1_0_split
I0927 00:20:23.860952 19128 net.cpp:128] Creating Layer conv2_Eltwise_4_conv2_4ReLU_1_0_split
I0927 00:20:23.860957 19128 net.cpp:558] conv2_Eltwise_4_conv2_4ReLU_1_0_split <- conv2_Eltwise_4
I0927 00:20:23.860963 19128 net.cpp:522] conv2_Eltwise_4_conv2_4ReLU_1_0_split -> conv2_Eltwise_4_conv2_4ReLU_1_0_split_0
I0927 00:20:23.860971 19128 net.cpp:522] conv2_Eltwise_4_conv2_4ReLU_1_0_split -> conv2_Eltwise_4_conv2_4ReLU_1_0_split_1
I0927 00:20:23.861023 19128 net.cpp:172] Setting up conv2_Eltwise_4_conv2_4ReLU_1_0_split
I0927 00:20:23.861052 19128 net.cpp:186] Top shape: 128 16 32 32 (2097152)
I0927 00:20:23.861058 19128 net.cpp:186] Top shape: 128 16 32 32 (2097152)
I0927 00:20:23.861063 19128 net.cpp:194] Memory required for data: 421003776
I0927 00:20:23.861066 19128 layer_factory.hpp:77] Creating layer conv2_5_0
I0927 00:20:23.861078 19128 net.cpp:128] Creating Layer conv2_5_0
I0927 00:20:23.861086 19128 net.cpp:558] conv2_5_0 <- conv2_Eltwise_4_conv2_4ReLU_1_0_split_0
I0927 00:20:23.861093 19128 net.cpp:522] conv2_5_0 -> conv2_5_0
I0927 00:20:23.867588 19128 net.cpp:172] Setting up conv2_5_0
I0927 00:20:23.867614 19128 net.cpp:186] Top shape: 128 16 32 32 (2097152)
I0927 00:20:23.867619 19128 net.cpp:194] Memory required for data: 429392384
I0927 00:20:23.867640 19128 layer_factory.hpp:77] Creating layer conv2_5_bn0
I0927 00:20:23.867650 19128 net.cpp:128] Creating Layer conv2_5_bn0
I0927 00:20:23.867655 19128 net.cpp:558] conv2_5_bn0 <- conv2_5_0
I0927 00:20:23.867669 19128 net.cpp:509] conv2_5_bn0 -> conv2_5_0 (in-place)
I0927 00:20:23.867919 19128 net.cpp:172] Setting up conv2_5_bn0
I0927 00:20:23.867933 19128 net.cpp:186] Top shape: 128 16 32 32 (2097152)
I0927 00:20:23.867938 19128 net.cpp:194] Memory required for data: 437780992
I0927 00:20:23.867949 19128 layer_factory.hpp:77] Creating layer conv2_5_scale0
I0927 00:20:23.867959 19128 net.cpp:128] Creating Layer conv2_5_scale0
I0927 00:20:23.867964 19128 net.cpp:558] conv2_5_scale0 <- conv2_5_0
I0927 00:20:23.867969 19128 net.cpp:509] conv2_5_scale0 -> conv2_5_0 (in-place)
I0927 00:20:23.868010 19128 layer_factory.hpp:77] Creating layer conv2_5_scale0
I0927 00:20:23.868154 19128 net.cpp:172] Setting up conv2_5_scale0
I0927 00:20:23.868166 19128 net.cpp:186] Top shape: 128 16 32 32 (2097152)
I0927 00:20:23.868172 19128 net.cpp:194] Memory required for data: 446169600
I0927 00:20:23.868181 19128 layer_factory.hpp:77] Creating layer conv2_5_ReLU0
I0927 00:20:23.868188 19128 net.cpp:128] Creating Layer conv2_5_ReLU0
I0927 00:20:23.868192 19128 net.cpp:558] conv2_5_ReLU0 <- conv2_5_0
I0927 00:20:23.868201 19128 net.cpp:509] conv2_5_ReLU0 -> conv2_5_0 (in-place)
I0927 00:20:23.869690 19128 net.cpp:172] Setting up conv2_5_ReLU0
I0927 00:20:23.869716 19128 net.cpp:186] Top shape: 128 16 32 32 (2097152)
I0927 00:20:23.869720 19128 net.cpp:194] Memory required for data: 454558208
I0927 00:20:23.869727 19128 layer_factory.hpp:77] Creating layer conv2_5_1
I0927 00:20:23.869742 19128 net.cpp:128] Creating Layer conv2_5_1
I0927 00:20:23.869747 19128 net.cpp:558] conv2_5_1 <- conv2_5_0
I0927 00:20:23.869761 19128 net.cpp:522] conv2_5_1 -> conv2_5_1
I0927 00:20:23.876410 19128 net.cpp:172] Setting up conv2_5_1
I0927 00:20:23.876437 19128 net.cpp:186] Top shape: 128 16 32 32 (2097152)
I0927 00:20:23.876441 19128 net.cpp:194] Memory required for data: 462946816
I0927 00:20:23.876451 19128 layer_factory.hpp:77] Creating layer conv2_5bn1
I0927 00:20:23.876466 19128 net.cpp:128] Creating Layer conv2_5bn1
I0927 00:20:23.876471 19128 net.cpp:558] conv2_5bn1 <- conv2_5_1
I0927 00:20:23.876479 19128 net.cpp:509] conv2_5bn1 -> conv2_5_1 (in-place)
I0927 00:20:23.876731 19128 net.cpp:172] Setting up conv2_5bn1
I0927 00:20:23.876744 19128 net.cpp:186] Top shape: 128 16 32 32 (2097152)
I0927 00:20:23.876749 19128 net.cpp:194] Memory required for data: 471335424
I0927 00:20:23.876757 19128 layer_factory.hpp:77] Creating layer conv2_5_scale1
I0927 00:20:23.876767 19128 net.cpp:128] Creating Layer conv2_5_scale1
I0927 00:20:23.876772 19128 net.cpp:558] conv2_5_scale1 <- conv2_5_1
I0927 00:20:23.876778 19128 net.cpp:509] conv2_5_scale1 -> conv2_5_1 (in-place)
I0927 00:20:23.876819 19128 layer_factory.hpp:77] Creating layer conv2_5_scale1
I0927 00:20:23.876965 19128 net.cpp:172] Setting up conv2_5_scale1
I0927 00:20:23.876978 19128 net.cpp:186] Top shape: 128 16 32 32 (2097152)
I0927 00:20:23.876982 19128 net.cpp:194] Memory required for data: 479724032
I0927 00:20:23.876991 19128 layer_factory.hpp:77] Creating layer conv2_Eltwise_5
I0927 00:20:23.876999 19128 net.cpp:128] Creating Layer conv2_Eltwise_5
I0927 00:20:23.877027 19128 net.cpp:558] conv2_Eltwise_5 <- conv2_Eltwise_4_conv2_4ReLU_1_0_split_1
I0927 00:20:23.877033 19128 net.cpp:558] conv2_Eltwise_5 <- conv2_5_1
I0927 00:20:23.877039 19128 net.cpp:522] conv2_Eltwise_5 -> conv2_Eltwise_5
I0927 00:20:23.877070 19128 net.cpp:172] Setting up conv2_Eltwise_5
I0927 00:20:23.877082 19128 net.cpp:186] Top shape: 128 16 32 32 (2097152)
I0927 00:20:23.877087 19128 net.cpp:194] Memory required for data: 488112640
I0927 00:20:23.877091 19128 layer_factory.hpp:77] Creating layer conv2_5ReLU_1
I0927 00:20:23.877099 19128 net.cpp:128] Creating Layer conv2_5ReLU_1
I0927 00:20:23.877102 19128 net.cpp:558] conv2_5ReLU_1 <- conv2_Eltwise_5
I0927 00:20:23.877110 19128 net.cpp:509] conv2_5ReLU_1 -> conv2_Eltwise_5 (in-place)
I0927 00:20:23.878479 19128 net.cpp:172] Setting up conv2_5ReLU_1
I0927 00:20:23.878494 19128 net.cpp:186] Top shape: 128 16 32 32 (2097152)
I0927 00:20:23.878497 19128 net.cpp:194] Memory required for data: 496501248
I0927 00:20:23.878502 19128 layer_factory.hpp:77] Creating layer conv2_Eltwise_5_conv2_5ReLU_1_0_split
I0927 00:20:23.878510 19128 net.cpp:128] Creating Layer conv2_Eltwise_5_conv2_5ReLU_1_0_split
I0927 00:20:23.878515 19128 net.cpp:558] conv2_Eltwise_5_conv2_5ReLU_1_0_split <- conv2_Eltwise_5
I0927 00:20:23.878525 19128 net.cpp:522] conv2_Eltwise_5_conv2_5ReLU_1_0_split -> conv2_Eltwise_5_conv2_5ReLU_1_0_split_0
I0927 00:20:23.878533 19128 net.cpp:522] conv2_Eltwise_5_conv2_5ReLU_1_0_split -> conv2_Eltwise_5_conv2_5ReLU_1_0_split_1
I0927 00:20:23.878584 19128 net.cpp:172] Setting up conv2_Eltwise_5_conv2_5ReLU_1_0_split
I0927 00:20:23.878592 19128 net.cpp:186] Top shape: 128 16 32 32 (2097152)
I0927 00:20:23.878598 19128 net.cpp:186] Top shape: 128 16 32 32 (2097152)
I0927 00:20:23.878602 19128 net.cpp:194] Memory required for data: 513278464
I0927 00:20:23.878607 19128 layer_factory.hpp:77] Creating layer conv3_1_0
I0927 00:20:23.878618 19128 net.cpp:128] Creating Layer conv3_1_0
I0927 00:20:23.878623 19128 net.cpp:558] conv3_1_0 <- conv2_Eltwise_5_conv2_5ReLU_1_0_split_0
I0927 00:20:23.878634 19128 net.cpp:522] conv3_1_0 -> conv3_1_0
I0927 00:20:23.885264 19128 net.cpp:172] Setting up conv3_1_0
I0927 00:20:23.885295 19128 net.cpp:186] Top shape: 128 32 16 16 (1048576)
I0927 00:20:23.885300 19128 net.cpp:194] Memory required for data: 517472768
I0927 00:20:23.885313 19128 layer_factory.hpp:77] Creating layer conv3_1_bn0
I0927 00:20:23.885324 19128 net.cpp:128] Creating Layer conv3_1_bn0
I0927 00:20:23.885330 19128 net.cpp:558] conv3_1_bn0 <- conv3_1_0
I0927 00:20:23.885344 19128 net.cpp:509] conv3_1_bn0 -> conv3_1_0 (in-place)
I0927 00:20:23.885605 19128 net.cpp:172] Setting up conv3_1_bn0
I0927 00:20:23.885617 19128 net.cpp:186] Top shape: 128 32 16 16 (1048576)
I0927 00:20:23.885622 19128 net.cpp:194] Memory required for data: 521667072
I0927 00:20:23.885632 19128 layer_factory.hpp:77] Creating layer conv3_1_scale0
I0927 00:20:23.885640 19128 net.cpp:128] Creating Layer conv3_1_scale0
I0927 00:20:23.885645 19128 net.cpp:558] conv3_1_scale0 <- conv3_1_0
I0927 00:20:23.885650 19128 net.cpp:509] conv3_1_scale0 -> conv3_1_0 (in-place)
I0927 00:20:23.885694 19128 layer_factory.hpp:77] Creating layer conv3_1_scale0
I0927 00:20:23.885844 19128 net.cpp:172] Setting up conv3_1_scale0
I0927 00:20:23.885852 19128 net.cpp:186] Top shape: 128 32 16 16 (1048576)
I0927 00:20:23.885857 19128 net.cpp:194] Memory required for data: 525861376
I0927 00:20:23.885865 19128 layer_factory.hpp:77] Creating layer conv3_1_ReLU0
I0927 00:20:23.885872 19128 net.cpp:128] Creating Layer conv3_1_ReLU0
I0927 00:20:23.885876 19128 net.cpp:558] conv3_1_ReLU0 <- conv3_1_0
I0927 00:20:23.885885 19128 net.cpp:509] conv3_1_ReLU0 -> conv3_1_0 (in-place)
I0927 00:20:23.887063 19128 net.cpp:172] Setting up conv3_1_ReLU0
I0927 00:20:23.887082 19128 net.cpp:186] Top shape: 128 32 16 16 (1048576)
I0927 00:20:23.887087 19128 net.cpp:194] Memory required for data: 530055680
I0927 00:20:23.887091 19128 layer_factory.hpp:77] Creating layer conv3_1_1
I0927 00:20:23.887123 19128 net.cpp:128] Creating Layer conv3_1_1
I0927 00:20:23.887133 19128 net.cpp:558] conv3_1_1 <- conv3_1_0
I0927 00:20:23.887143 19128 net.cpp:522] conv3_1_1 -> conv3_1_1
I0927 00:20:23.893761 19128 net.cpp:172] Setting up conv3_1_1
I0927 00:20:23.893788 19128 net.cpp:186] Top shape: 128 32 16 16 (1048576)
I0927 00:20:23.893792 19128 net.cpp:194] Memory required for data: 534249984
I0927 00:20:23.893802 19128 layer_factory.hpp:77] Creating layer conv3_1bn1
I0927 00:20:23.893813 19128 net.cpp:128] Creating Layer conv3_1bn1
I0927 00:20:23.893818 19128 net.cpp:558] conv3_1bn1 <- conv3_1_1
I0927 00:20:23.893828 19128 net.cpp:509] conv3_1bn1 -> conv3_1_1 (in-place)
I0927 00:20:23.894080 19128 net.cpp:172] Setting up conv3_1bn1
I0927 00:20:23.894091 19128 net.cpp:186] Top shape: 128 32 16 16 (1048576)
I0927 00:20:23.894098 19128 net.cpp:194] Memory required for data: 538444288
I0927 00:20:23.894106 19128 layer_factory.hpp:77] Creating layer conv3_1_scale1
I0927 00:20:23.894116 19128 net.cpp:128] Creating Layer conv3_1_scale1
I0927 00:20:23.894121 19128 net.cpp:558] conv3_1_scale1 <- conv3_1_1
I0927 00:20:23.894126 19128 net.cpp:509] conv3_1_scale1 -> conv3_1_1 (in-place)
I0927 00:20:23.894170 19128 layer_factory.hpp:77] Creating layer conv3_1_scale1
I0927 00:20:23.894316 19128 net.cpp:172] Setting up conv3_1_scale1
I0927 00:20:23.894327 19128 net.cpp:186] Top shape: 128 32 16 16 (1048576)
I0927 00:20:23.894332 19128 net.cpp:194] Memory required for data: 542638592
I0927 00:20:23.894340 19128 layer_factory.hpp:77] Creating layer conv3_1_down
I0927 00:20:23.894354 19128 net.cpp:128] Creating Layer conv3_1_down
I0927 00:20:23.894359 19128 net.cpp:558] conv3_1_down <- conv2_Eltwise_5_conv2_5ReLU_1_0_split_1
I0927 00:20:23.894367 19128 net.cpp:522] conv3_1_down -> conv3_1_down
I0927 00:20:23.900285 19128 net.cpp:172] Setting up conv3_1_down
I0927 00:20:23.900313 19128 net.cpp:186] Top shape: 128 32 16 16 (1048576)
I0927 00:20:23.900318 19128 net.cpp:194] Memory required for data: 546832896
I0927 00:20:23.900328 19128 layer_factory.hpp:77] Creating layer conv3_1_bn_down
I0927 00:20:23.900352 19128 net.cpp:128] Creating Layer conv3_1_bn_down
I0927 00:20:23.900362 19128 net.cpp:558] conv3_1_bn_down <- conv3_1_down
I0927 00:20:23.900368 19128 net.cpp:509] conv3_1_bn_down -> conv3_1_down (in-place)
I0927 00:20:23.900614 19128 net.cpp:172] Setting up conv3_1_bn_down
I0927 00:20:23.900629 19128 net.cpp:186] Top shape: 128 32 16 16 (1048576)
I0927 00:20:23.900632 19128 net.cpp:194] Memory required for data: 551027200
I0927 00:20:23.900643 19128 layer_factory.hpp:77] Creating layer conv3_1_scale_down
I0927 00:20:23.900653 19128 net.cpp:128] Creating Layer conv3_1_scale_down
I0927 00:20:23.900658 19128 net.cpp:558] conv3_1_scale_down <- conv3_1_down
I0927 00:20:23.900666 19128 net.cpp:509] conv3_1_scale_down -> conv3_1_down (in-place)
I0927 00:20:23.900708 19128 layer_factory.hpp:77] Creating layer conv3_1_scale_down
I0927 00:20:23.900847 19128 net.cpp:172] Setting up conv3_1_scale_down
I0927 00:20:23.900856 19128 net.cpp:186] Top shape: 128 32 16 16 (1048576)
I0927 00:20:23.900859 19128 net.cpp:194] Memory required for data: 555221504
I0927 00:20:23.900867 19128 layer_factory.hpp:77] Creating layer conv3_Eltwise_1
I0927 00:20:23.900878 19128 net.cpp:128] Creating Layer conv3_Eltwise_1
I0927 00:20:23.900883 19128 net.cpp:558] conv3_Eltwise_1 <- conv3_1_1
I0927 00:20:23.900888 19128 net.cpp:558] conv3_Eltwise_1 <- conv3_1_down
I0927 00:20:23.900894 19128 net.cpp:522] conv3_Eltwise_1 -> conv3_Eltwise_1
I0927 00:20:23.900918 19128 net.cpp:172] Setting up conv3_Eltwise_1
I0927 00:20:23.900926 19128 net.cpp:186] Top shape: 128 32 16 16 (1048576)
I0927 00:20:23.900930 19128 net.cpp:194] Memory required for data: 559415808
I0927 00:20:23.900934 19128 layer_factory.hpp:77] Creating layer conv3_1ReLU_1
I0927 00:20:23.900941 19128 net.cpp:128] Creating Layer conv3_1ReLU_1
I0927 00:20:23.900945 19128 net.cpp:558] conv3_1ReLU_1 <- conv3_Eltwise_1
I0927 00:20:23.900954 19128 net.cpp:509] conv3_1ReLU_1 -> conv3_Eltwise_1 (in-place)
I0927 00:20:23.902351 19128 net.cpp:172] Setting up conv3_1ReLU_1
I0927 00:20:23.902374 19128 net.cpp:186] Top shape: 128 32 16 16 (1048576)
I0927 00:20:23.902379 19128 net.cpp:194] Memory required for data: 563610112
I0927 00:20:23.902384 19128 layer_factory.hpp:77] Creating layer conv3_Eltwise_1_conv3_1ReLU_1_0_split
I0927 00:20:23.902396 19128 net.cpp:128] Creating Layer conv3_Eltwise_1_conv3_1ReLU_1_0_split
I0927 00:20:23.902402 19128 net.cpp:558] conv3_Eltwise_1_conv3_1ReLU_1_0_split <- conv3_Eltwise_1
I0927 00:20:23.902412 19128 net.cpp:522] conv3_Eltwise_1_conv3_1ReLU_1_0_split -> conv3_Eltwise_1_conv3_1ReLU_1_0_split_0
I0927 00:20:23.902421 19128 net.cpp:522] conv3_Eltwise_1_conv3_1ReLU_1_0_split -> conv3_Eltwise_1_conv3_1ReLU_1_0_split_1
I0927 00:20:23.902472 19128 net.cpp:172] Setting up conv3_Eltwise_1_conv3_1ReLU_1_0_split
I0927 00:20:23.902482 19128 net.cpp:186] Top shape: 128 32 16 16 (1048576)
I0927 00:20:23.902488 19128 net.cpp:186] Top shape: 128 32 16 16 (1048576)
I0927 00:20:23.902493 19128 net.cpp:194] Memory required for data: 571998720
I0927 00:20:23.902496 19128 layer_factory.hpp:77] Creating layer conv3_2_0
I0927 00:20:23.902510 19128 net.cpp:128] Creating Layer conv3_2_0
I0927 00:20:23.902515 19128 net.cpp:558] conv3_2_0 <- conv3_Eltwise_1_conv3_1ReLU_1_0_split_0
I0927 00:20:23.902524 19128 net.cpp:522] conv3_2_0 -> conv3_2_0
I0927 00:20:23.909047 19128 net.cpp:172] Setting up conv3_2_0
I0927 00:20:23.909076 19128 net.cpp:186] Top shape: 128 32 16 16 (1048576)
I0927 00:20:23.909081 19128 net.cpp:194] Memory required for data: 576193024
I0927 00:20:23.909095 19128 layer_factory.hpp:77] Creating layer conv3_2_bn0
I0927 00:20:23.909103 19128 net.cpp:128] Creating Layer conv3_2_bn0
I0927 00:20:23.909108 19128 net.cpp:558] conv3_2_bn0 <- conv3_2_0
I0927 00:20:23.909121 19128 net.cpp:509] conv3_2_bn0 -> conv3_2_0 (in-place)
I0927 00:20:23.909375 19128 net.cpp:172] Setting up conv3_2_bn0
I0927 00:20:23.909387 19128 net.cpp:186] Top shape: 128 32 16 16 (1048576)
I0927 00:20:23.909391 19128 net.cpp:194] Memory required for data: 580387328
I0927 00:20:23.909402 19128 layer_factory.hpp:77] Creating layer conv3_2_scale0
I0927 00:20:23.909409 19128 net.cpp:128] Creating Layer conv3_2_scale0
I0927 00:20:23.909415 19128 net.cpp:558] conv3_2_scale0 <- conv3_2_0
I0927 00:20:23.909420 19128 net.cpp:509] conv3_2_scale0 -> conv3_2_0 (in-place)
I0927 00:20:23.909462 19128 layer_factory.hpp:77] Creating layer conv3_2_scale0
I0927 00:20:23.909607 19128 net.cpp:172] Setting up conv3_2_scale0
I0927 00:20:23.909624 19128 net.cpp:186] Top shape: 128 32 16 16 (1048576)
I0927 00:20:23.909628 19128 net.cpp:194] Memory required for data: 584581632
I0927 00:20:23.909636 19128 layer_factory.hpp:77] Creating layer conv3_2_ReLU0
I0927 00:20:23.909646 19128 net.cpp:128] Creating Layer conv3_2_ReLU0
I0927 00:20:23.909651 19128 net.cpp:558] conv3_2_ReLU0 <- conv3_2_0
I0927 00:20:23.909657 19128 net.cpp:509] conv3_2_ReLU0 -> conv3_2_0 (in-place)
I0927 00:20:23.911084 19128 net.cpp:172] Setting up conv3_2_ReLU0
I0927 00:20:23.911104 19128 net.cpp:186] Top shape: 128 32 16 16 (1048576)
I0927 00:20:23.911108 19128 net.cpp:194] Memory required for data: 588775936
I0927 00:20:23.911113 19128 layer_factory.hpp:77] Creating layer conv3_2_1
I0927 00:20:23.911126 19128 net.cpp:128] Creating Layer conv3_2_1
I0927 00:20:23.911131 19128 net.cpp:558] conv3_2_1 <- conv3_2_0
I0927 00:20:23.911141 19128 net.cpp:522] conv3_2_1 -> conv3_2_1
I0927 00:20:23.917822 19128 net.cpp:172] Setting up conv3_2_1
I0927 00:20:23.917850 19128 net.cpp:186] Top shape: 128 32 16 16 (1048576)
I0927 00:20:23.917853 19128 net.cpp:194] Memory required for data: 592970240
I0927 00:20:23.917863 19128 layer_factory.hpp:77] Creating layer conv3_2bn1
I0927 00:20:23.917876 19128 net.cpp:128] Creating Layer conv3_2bn1
I0927 00:20:23.917881 19128 net.cpp:558] conv3_2bn1 <- conv3_2_1
I0927 00:20:23.917889 19128 net.cpp:509] conv3_2bn1 -> conv3_2_1 (in-place)
I0927 00:20:23.918143 19128 net.cpp:172] Setting up conv3_2bn1
I0927 00:20:23.918150 19128 net.cpp:186] Top shape: 128 32 16 16 (1048576)
I0927 00:20:23.918170 19128 net.cpp:194] Memory required for data: 597164544
I0927 00:20:23.918181 19128 layer_factory.hpp:77] Creating layer conv3_2_scale1
I0927 00:20:23.918191 19128 net.cpp:128] Creating Layer conv3_2_scale1
I0927 00:20:23.918196 19128 net.cpp:558] conv3_2_scale1 <- conv3_2_1
I0927 00:20:23.918201 19128 net.cpp:509] conv3_2_scale1 -> conv3_2_1 (in-place)
I0927 00:20:23.918243 19128 layer_factory.hpp:77] Creating layer conv3_2_scale1
I0927 00:20:23.918392 19128 net.cpp:172] Setting up conv3_2_scale1
I0927 00:20:23.918404 19128 net.cpp:186] Top shape: 128 32 16 16 (1048576)
I0927 00:20:23.918411 19128 net.cpp:194] Memory required for data: 601358848
I0927 00:20:23.918418 19128 layer_factory.hpp:77] Creating layer conv3_Eltwise_2
I0927 00:20:23.918428 19128 net.cpp:128] Creating Layer conv3_Eltwise_2
I0927 00:20:23.918433 19128 net.cpp:558] conv3_Eltwise_2 <- conv3_Eltwise_1_conv3_1ReLU_1_0_split_1
I0927 00:20:23.918438 19128 net.cpp:558] conv3_Eltwise_2 <- conv3_2_1
I0927 00:20:23.918445 19128 net.cpp:522] conv3_Eltwise_2 -> conv3_Eltwise_2
I0927 00:20:23.918469 19128 net.cpp:172] Setting up conv3_Eltwise_2
I0927 00:20:23.918476 19128 net.cpp:186] Top shape: 128 32 16 16 (1048576)
I0927 00:20:23.918480 19128 net.cpp:194] Memory required for data: 605553152
I0927 00:20:23.918484 19128 layer_factory.hpp:77] Creating layer conv3_2ReLU_1
I0927 00:20:23.918491 19128 net.cpp:128] Creating Layer conv3_2ReLU_1
I0927 00:20:23.918495 19128 net.cpp:558] conv3_2ReLU_1 <- conv3_Eltwise_2
I0927 00:20:23.918503 19128 net.cpp:509] conv3_2ReLU_1 -> conv3_Eltwise_2 (in-place)
I0927 00:20:23.920115 19128 net.cpp:172] Setting up conv3_2ReLU_1
I0927 00:20:23.920141 19128 net.cpp:186] Top shape: 128 32 16 16 (1048576)
I0927 00:20:23.920146 19128 net.cpp:194] Memory required for data: 609747456
I0927 00:20:23.920151 19128 layer_factory.hpp:77] Creating layer conv3_Eltwise_2_conv3_2ReLU_1_0_split
I0927 00:20:23.920161 19128 net.cpp:128] Creating Layer conv3_Eltwise_2_conv3_2ReLU_1_0_split
I0927 00:20:23.920166 19128 net.cpp:558] conv3_Eltwise_2_conv3_2ReLU_1_0_split <- conv3_Eltwise_2
I0927 00:20:23.920176 19128 net.cpp:522] conv3_Eltwise_2_conv3_2ReLU_1_0_split -> conv3_Eltwise_2_conv3_2ReLU_1_0_split_0
I0927 00:20:23.920184 19128 net.cpp:522] conv3_Eltwise_2_conv3_2ReLU_1_0_split -> conv3_Eltwise_2_conv3_2ReLU_1_0_split_1
I0927 00:20:23.920244 19128 net.cpp:172] Setting up conv3_Eltwise_2_conv3_2ReLU_1_0_split
I0927 00:20:23.920253 19128 net.cpp:186] Top shape: 128 32 16 16 (1048576)
I0927 00:20:23.920258 19128 net.cpp:186] Top shape: 128 32 16 16 (1048576)
I0927 00:20:23.920262 19128 net.cpp:194] Memory required for data: 618136064
I0927 00:20:23.920266 19128 layer_factory.hpp:77] Creating layer conv3_3_0
I0927 00:20:23.920279 19128 net.cpp:128] Creating Layer conv3_3_0
I0927 00:20:23.920284 19128 net.cpp:558] conv3_3_0 <- conv3_Eltwise_2_conv3_2ReLU_1_0_split_0
I0927 00:20:23.920292 19128 net.cpp:522] conv3_3_0 -> conv3_3_0
I0927 00:20:23.926589 19128 net.cpp:172] Setting up conv3_3_0
I0927 00:20:23.926615 19128 net.cpp:186] Top shape: 128 32 16 16 (1048576)
I0927 00:20:23.926620 19128 net.cpp:194] Memory required for data: 622330368
I0927 00:20:23.926630 19128 layer_factory.hpp:77] Creating layer conv3_3_bn0
I0927 00:20:23.926640 19128 net.cpp:128] Creating Layer conv3_3_bn0
I0927 00:20:23.926645 19128 net.cpp:558] conv3_3_bn0 <- conv3_3_0
I0927 00:20:23.926654 19128 net.cpp:509] conv3_3_bn0 -> conv3_3_0 (in-place)
I0927 00:20:23.926916 19128 net.cpp:172] Setting up conv3_3_bn0
I0927 00:20:23.926930 19128 net.cpp:186] Top shape: 128 32 16 16 (1048576)
I0927 00:20:23.926934 19128 net.cpp:194] Memory required for data: 626524672
I0927 00:20:23.926944 19128 layer_factory.hpp:77] Creating layer conv3_3_scale0
I0927 00:20:23.926951 19128 net.cpp:128] Creating Layer conv3_3_scale0
I0927 00:20:23.926955 19128 net.cpp:558] conv3_3_scale0 <- conv3_3_0
I0927 00:20:23.926964 19128 net.cpp:509] conv3_3_scale0 -> conv3_3_0 (in-place)
I0927 00:20:23.927003 19128 layer_factory.hpp:77] Creating layer conv3_3_scale0
I0927 00:20:23.927170 19128 net.cpp:172] Setting up conv3_3_scale0
I0927 00:20:23.927181 19128 net.cpp:186] Top shape: 128 32 16 16 (1048576)
I0927 00:20:23.927186 19128 net.cpp:194] Memory required for data: 630718976
I0927 00:20:23.927193 19128 layer_factory.hpp:77] Creating layer conv3_3_ReLU0
I0927 00:20:23.927199 19128 net.cpp:128] Creating Layer conv3_3_ReLU0
I0927 00:20:23.927204 19128 net.cpp:558] conv3_3_ReLU0 <- conv3_3_0
I0927 00:20:23.927211 19128 net.cpp:509] conv3_3_ReLU0 -> conv3_3_0 (in-place)
I0927 00:20:23.928665 19128 net.cpp:172] Setting up conv3_3_ReLU0
I0927 00:20:23.928691 19128 net.cpp:186] Top shape: 128 32 16 16 (1048576)
I0927 00:20:23.928696 19128 net.cpp:194] Memory required for data: 634913280
I0927 00:20:23.928701 19128 layer_factory.hpp:77] Creating layer conv3_3_1
I0927 00:20:23.928719 19128 net.cpp:128] Creating Layer conv3_3_1
I0927 00:20:23.928723 19128 net.cpp:558] conv3_3_1 <- conv3_3_0
I0927 00:20:23.928731 19128 net.cpp:522] conv3_3_1 -> conv3_3_1
I0927 00:20:23.935325 19128 net.cpp:172] Setting up conv3_3_1
I0927 00:20:23.935353 19128 net.cpp:186] Top shape: 128 32 16 16 (1048576)
I0927 00:20:23.935356 19128 net.cpp:194] Memory required for data: 639107584
I0927 00:20:23.935366 19128 layer_factory.hpp:77] Creating layer conv3_3bn1
I0927 00:20:23.935377 19128 net.cpp:128] Creating Layer conv3_3bn1
I0927 00:20:23.935384 19128 net.cpp:558] conv3_3bn1 <- conv3_3_1
I0927 00:20:23.935392 19128 net.cpp:509] conv3_3bn1 -> conv3_3_1 (in-place)
I0927 00:20:23.935652 19128 net.cpp:172] Setting up conv3_3bn1
I0927 00:20:23.935659 19128 net.cpp:186] Top shape: 128 32 16 16 (1048576)
I0927 00:20:23.935663 19128 net.cpp:194] Memory required for data: 643301888
I0927 00:20:23.935673 19128 layer_factory.hpp:77] Creating layer conv3_3_scale1
I0927 00:20:23.935680 19128 net.cpp:128] Creating Layer conv3_3_scale1
I0927 00:20:23.935684 19128 net.cpp:558] conv3_3_scale1 <- conv3_3_1
I0927 00:20:23.935693 19128 net.cpp:509] conv3_3_scale1 -> conv3_3_1 (in-place)
I0927 00:20:23.935731 19128 layer_factory.hpp:77] Creating layer conv3_3_scale1
I0927 00:20:23.935878 19128 net.cpp:172] Setting up conv3_3_scale1
I0927 00:20:23.935889 19128 net.cpp:186] Top shape: 128 32 16 16 (1048576)
I0927 00:20:23.935895 19128 net.cpp:194] Memory required for data: 647496192
I0927 00:20:23.935904 19128 layer_factory.hpp:77] Creating layer conv3_Eltwise_3
I0927 00:20:23.935910 19128 net.cpp:128] Creating Layer conv3_Eltwise_3
I0927 00:20:23.935915 19128 net.cpp:558] conv3_Eltwise_3 <- conv3_Eltwise_2_conv3_2ReLU_1_0_split_1
I0927 00:20:23.935920 19128 net.cpp:558] conv3_Eltwise_3 <- conv3_3_1
I0927 00:20:23.935930 19128 net.cpp:522] conv3_Eltwise_3 -> conv3_Eltwise_3
I0927 00:20:23.935951 19128 net.cpp:172] Setting up conv3_Eltwise_3
I0927 00:20:23.935958 19128 net.cpp:186] Top shape: 128 32 16 16 (1048576)
I0927 00:20:23.935962 19128 net.cpp:194] Memory required for data: 651690496
I0927 00:20:23.935966 19128 layer_factory.hpp:77] Creating layer conv3_3ReLU_1
I0927 00:20:23.935976 19128 net.cpp:128] Creating Layer conv3_3ReLU_1
I0927 00:20:23.935981 19128 net.cpp:558] conv3_3ReLU_1 <- conv3_Eltwise_3
I0927 00:20:23.935986 19128 net.cpp:509] conv3_3ReLU_1 -> conv3_Eltwise_3 (in-place)
I0927 00:20:23.937364 19128 net.cpp:172] Setting up conv3_3ReLU_1
I0927 00:20:23.937381 19128 net.cpp:186] Top shape: 128 32 16 16 (1048576)
I0927 00:20:23.937386 19128 net.cpp:194] Memory required for data: 655884800
I0927 00:20:23.937391 19128 layer_factory.hpp:77] Creating layer conv3_Eltwise_3_conv3_3ReLU_1_0_split
I0927 00:20:23.937403 19128 net.cpp:128] Creating Layer conv3_Eltwise_3_conv3_3ReLU_1_0_split
I0927 00:20:23.937408 19128 net.cpp:558] conv3_Eltwise_3_conv3_3ReLU_1_0_split <- conv3_Eltwise_3
I0927 00:20:23.937415 19128 net.cpp:522] conv3_Eltwise_3_conv3_3ReLU_1_0_split -> conv3_Eltwise_3_conv3_3ReLU_1_0_split_0
I0927 00:20:23.937424 19128 net.cpp:522] conv3_Eltwise_3_conv3_3ReLU_1_0_split -> conv3_Eltwise_3_conv3_3ReLU_1_0_split_1
I0927 00:20:23.937475 19128 net.cpp:172] Setting up conv3_Eltwise_3_conv3_3ReLU_1_0_split
I0927 00:20:23.937484 19128 net.cpp:186] Top shape: 128 32 16 16 (1048576)
I0927 00:20:23.937505 19128 net.cpp:186] Top shape: 128 32 16 16 (1048576)
I0927 00:20:23.937510 19128 net.cpp:194] Memory required for data: 664273408
I0927 00:20:23.937513 19128 layer_factory.hpp:77] Creating layer conv3_4_0
I0927 00:20:23.937526 19128 net.cpp:128] Creating Layer conv3_4_0
I0927 00:20:23.937532 19128 net.cpp:558] conv3_4_0 <- conv3_Eltwise_3_conv3_3ReLU_1_0_split_0
I0927 00:20:23.937541 19128 net.cpp:522] conv3_4_0 -> conv3_4_0
I0927 00:20:23.944315 19128 net.cpp:172] Setting up conv3_4_0
I0927 00:20:23.944344 19128 net.cpp:186] Top shape: 128 32 16 16 (1048576)
I0927 00:20:23.944348 19128 net.cpp:194] Memory required for data: 668467712
I0927 00:20:23.944358 19128 layer_factory.hpp:77] Creating layer conv3_4_bn0
I0927 00:20:23.944370 19128 net.cpp:128] Creating Layer conv3_4_bn0
I0927 00:20:23.944375 19128 net.cpp:558] conv3_4_bn0 <- conv3_4_0
I0927 00:20:23.944384 19128 net.cpp:509] conv3_4_bn0 -> conv3_4_0 (in-place)
I0927 00:20:23.944653 19128 net.cpp:172] Setting up conv3_4_bn0
I0927 00:20:23.944664 19128 net.cpp:186] Top shape: 128 32 16 16 (1048576)
I0927 00:20:23.944669 19128 net.cpp:194] Memory required for data: 672662016
I0927 00:20:23.944690 19128 layer_factory.hpp:77] Creating layer conv3_4_scale0
I0927 00:20:23.944700 19128 net.cpp:128] Creating Layer conv3_4_scale0
I0927 00:20:23.944705 19128 net.cpp:558] conv3_4_scale0 <- conv3_4_0
I0927 00:20:23.944711 19128 net.cpp:509] conv3_4_scale0 -> conv3_4_0 (in-place)
I0927 00:20:23.944752 19128 layer_factory.hpp:77] Creating layer conv3_4_scale0
I0927 00:20:23.944898 19128 net.cpp:172] Setting up conv3_4_scale0
I0927 00:20:23.944906 19128 net.cpp:186] Top shape: 128 32 16 16 (1048576)
I0927 00:20:23.944911 19128 net.cpp:194] Memory required for data: 676856320
I0927 00:20:23.944918 19128 layer_factory.hpp:77] Creating layer conv3_4_ReLU0
I0927 00:20:23.944924 19128 net.cpp:128] Creating Layer conv3_4_ReLU0
I0927 00:20:23.944928 19128 net.cpp:558] conv3_4_ReLU0 <- conv3_4_0
I0927 00:20:23.944941 19128 net.cpp:509] conv3_4_ReLU0 -> conv3_4_0 (in-place)
I0927 00:20:23.946125 19128 net.cpp:172] Setting up conv3_4_ReLU0
I0927 00:20:23.946144 19128 net.cpp:186] Top shape: 128 32 16 16 (1048576)
I0927 00:20:23.946149 19128 net.cpp:194] Memory required for data: 681050624
I0927 00:20:23.946153 19128 layer_factory.hpp:77] Creating layer conv3_4_1
I0927 00:20:23.946166 19128 net.cpp:128] Creating Layer conv3_4_1
I0927 00:20:23.946171 19128 net.cpp:558] conv3_4_1 <- conv3_4_0
I0927 00:20:23.946182 19128 net.cpp:522] conv3_4_1 -> conv3_4_1
I0927 00:20:23.952807 19128 net.cpp:172] Setting up conv3_4_1
I0927 00:20:23.952836 19128 net.cpp:186] Top shape: 128 32 16 16 (1048576)
I0927 00:20:23.952841 19128 net.cpp:194] Memory required for data: 685244928
I0927 00:20:23.952850 19128 layer_factory.hpp:77] Creating layer conv3_4bn1
I0927 00:20:23.952859 19128 net.cpp:128] Creating Layer conv3_4bn1
I0927 00:20:23.952864 19128 net.cpp:558] conv3_4bn1 <- conv3_4_1
I0927 00:20:23.952873 19128 net.cpp:509] conv3_4bn1 -> conv3_4_1 (in-place)
I0927 00:20:23.953137 19128 net.cpp:172] Setting up conv3_4bn1
I0927 00:20:23.953150 19128 net.cpp:186] Top shape: 128 32 16 16 (1048576)
I0927 00:20:23.953155 19128 net.cpp:194] Memory required for data: 689439232
I0927 00:20:23.953164 19128 layer_factory.hpp:77] Creating layer conv3_4_scale1
I0927 00:20:23.953171 19128 net.cpp:128] Creating Layer conv3_4_scale1
I0927 00:20:23.953176 19128 net.cpp:558] conv3_4_scale1 <- conv3_4_1
I0927 00:20:23.953181 19128 net.cpp:509] conv3_4_scale1 -> conv3_4_1 (in-place)
I0927 00:20:23.953224 19128 layer_factory.hpp:77] Creating layer conv3_4_scale1
I0927 00:20:23.953372 19128 net.cpp:172] Setting up conv3_4_scale1
I0927 00:20:23.953379 19128 net.cpp:186] Top shape: 128 32 16 16 (1048576)
I0927 00:20:23.953383 19128 net.cpp:194] Memory required for data: 693633536
I0927 00:20:23.953392 19128 layer_factory.hpp:77] Creating layer conv3_Eltwise_4
I0927 00:20:23.953400 19128 net.cpp:128] Creating Layer conv3_Eltwise_4
I0927 00:20:23.953405 19128 net.cpp:558] conv3_Eltwise_4 <- conv3_Eltwise_3_conv3_3ReLU_1_0_split_1
I0927 00:20:23.953428 19128 net.cpp:558] conv3_Eltwise_4 <- conv3_4_1
I0927 00:20:23.953434 19128 net.cpp:522] conv3_Eltwise_4 -> conv3_Eltwise_4
I0927 00:20:23.953457 19128 net.cpp:172] Setting up conv3_Eltwise_4
I0927 00:20:23.953464 19128 net.cpp:186] Top shape: 128 32 16 16 (1048576)
I0927 00:20:23.953469 19128 net.cpp:194] Memory required for data: 697827840
I0927 00:20:23.953474 19128 layer_factory.hpp:77] Creating layer conv3_4ReLU_1
I0927 00:20:23.953483 19128 net.cpp:128] Creating Layer conv3_4ReLU_1
I0927 00:20:23.953488 19128 net.cpp:558] conv3_4ReLU_1 <- conv3_Eltwise_4
I0927 00:20:23.953495 19128 net.cpp:509] conv3_4ReLU_1 -> conv3_Eltwise_4 (in-place)
I0927 00:20:23.954869 19128 net.cpp:172] Setting up conv3_4ReLU_1
I0927 00:20:23.954885 19128 net.cpp:186] Top shape: 128 32 16 16 (1048576)
I0927 00:20:23.954890 19128 net.cpp:194] Memory required for data: 702022144
I0927 00:20:23.954895 19128 layer_factory.hpp:77] Creating layer conv3_Eltwise_4_conv3_4ReLU_1_0_split
I0927 00:20:23.954906 19128 net.cpp:128] Creating Layer conv3_Eltwise_4_conv3_4ReLU_1_0_split
I0927 00:20:23.954912 19128 net.cpp:558] conv3_Eltwise_4_conv3_4ReLU_1_0_split <- conv3_Eltwise_4
I0927 00:20:23.954921 19128 net.cpp:522] conv3_Eltwise_4_conv3_4ReLU_1_0_split -> conv3_Eltwise_4_conv3_4ReLU_1_0_split_0
I0927 00:20:23.954931 19128 net.cpp:522] conv3_Eltwise_4_conv3_4ReLU_1_0_split -> conv3_Eltwise_4_conv3_4ReLU_1_0_split_1
I0927 00:20:23.954985 19128 net.cpp:172] Setting up conv3_Eltwise_4_conv3_4ReLU_1_0_split
I0927 00:20:23.954993 19128 net.cpp:186] Top shape: 128 32 16 16 (1048576)
I0927 00:20:23.954998 19128 net.cpp:186] Top shape: 128 32 16 16 (1048576)
I0927 00:20:23.955003 19128 net.cpp:194] Memory required for data: 710410752
I0927 00:20:23.955006 19128 layer_factory.hpp:77] Creating layer conv3_5_0
I0927 00:20:23.955019 19128 net.cpp:128] Creating Layer conv3_5_0
I0927 00:20:23.955024 19128 net.cpp:558] conv3_5_0 <- conv3_Eltwise_4_conv3_4ReLU_1_0_split_0
I0927 00:20:23.955034 19128 net.cpp:522] conv3_5_0 -> conv3_5_0
I0927 00:20:23.961598 19128 net.cpp:172] Setting up conv3_5_0
I0927 00:20:23.961627 19128 net.cpp:186] Top shape: 128 32 16 16 (1048576)
I0927 00:20:23.961632 19128 net.cpp:194] Memory required for data: 714605056
I0927 00:20:23.961642 19128 layer_factory.hpp:77] Creating layer conv3_5_bn0
I0927 00:20:23.961652 19128 net.cpp:128] Creating Layer conv3_5_bn0
I0927 00:20:23.961658 19128 net.cpp:558] conv3_5_bn0 <- conv3_5_0
I0927 00:20:23.961668 19128 net.cpp:509] conv3_5_bn0 -> conv3_5_0 (in-place)
I0927 00:20:23.961928 19128 net.cpp:172] Setting up conv3_5_bn0
I0927 00:20:23.961941 19128 net.cpp:186] Top shape: 128 32 16 16 (1048576)
I0927 00:20:23.961946 19128 net.cpp:194] Memory required for data: 718799360
I0927 00:20:23.961956 19128 layer_factory.hpp:77] Creating layer conv3_5_scale0
I0927 00:20:23.961962 19128 net.cpp:128] Creating Layer conv3_5_scale0
I0927 00:20:23.961967 19128 net.cpp:558] conv3_5_scale0 <- conv3_5_0
I0927 00:20:23.961972 19128 net.cpp:509] conv3_5_scale0 -> conv3_5_0 (in-place)
I0927 00:20:23.962018 19128 layer_factory.hpp:77] Creating layer conv3_5_scale0
I0927 00:20:23.962164 19128 net.cpp:172] Setting up conv3_5_scale0
I0927 00:20:23.962172 19128 net.cpp:186] Top shape: 128 32 16 16 (1048576)
I0927 00:20:23.962175 19128 net.cpp:194] Memory required for data: 722993664
I0927 00:20:23.962183 19128 layer_factory.hpp:77] Creating layer conv3_5_ReLU0
I0927 00:20:23.962193 19128 net.cpp:128] Creating Layer conv3_5_ReLU0
I0927 00:20:23.962198 19128 net.cpp:558] conv3_5_ReLU0 <- conv3_5_0
I0927 00:20:23.962203 19128 net.cpp:509] conv3_5_ReLU0 -> conv3_5_0 (in-place)
I0927 00:20:23.963634 19128 net.cpp:172] Setting up conv3_5_ReLU0
I0927 00:20:23.963660 19128 net.cpp:186] Top shape: 128 32 16 16 (1048576)
I0927 00:20:23.963665 19128 net.cpp:194] Memory required for data: 727187968
I0927 00:20:23.963670 19128 layer_factory.hpp:77] Creating layer conv3_5_1
I0927 00:20:23.963686 19128 net.cpp:128] Creating Layer conv3_5_1
I0927 00:20:23.963711 19128 net.cpp:558] conv3_5_1 <- conv3_5_0
I0927 00:20:23.963723 19128 net.cpp:522] conv3_5_1 -> conv3_5_1
I0927 00:20:23.970355 19128 net.cpp:172] Setting up conv3_5_1
I0927 00:20:23.970382 19128 net.cpp:186] Top shape: 128 32 16 16 (1048576)
I0927 00:20:23.970387 19128 net.cpp:194] Memory required for data: 731382272
I0927 00:20:23.970397 19128 layer_factory.hpp:77] Creating layer conv3_5bn1
I0927 00:20:23.970410 19128 net.cpp:128] Creating Layer conv3_5bn1
I0927 00:20:23.970415 19128 net.cpp:558] conv3_5bn1 <- conv3_5_1
I0927 00:20:23.970422 19128 net.cpp:509] conv3_5bn1 -> conv3_5_1 (in-place)
I0927 00:20:23.970688 19128 net.cpp:172] Setting up conv3_5bn1
I0927 00:20:23.970702 19128 net.cpp:186] Top shape: 128 32 16 16 (1048576)
I0927 00:20:23.970706 19128 net.cpp:194] Memory required for data: 735576576
I0927 00:20:23.970716 19128 layer_factory.hpp:77] Creating layer conv3_5_scale1
I0927 00:20:23.970723 19128 net.cpp:128] Creating Layer conv3_5_scale1
I0927 00:20:23.970727 19128 net.cpp:558] conv3_5_scale1 <- conv3_5_1
I0927 00:20:23.970736 19128 net.cpp:509] conv3_5_scale1 -> conv3_5_1 (in-place)
I0927 00:20:23.970777 19128 layer_factory.hpp:77] Creating layer conv3_5_scale1
I0927 00:20:23.970942 19128 net.cpp:172] Setting up conv3_5_scale1
I0927 00:20:23.970954 19128 net.cpp:186] Top shape: 128 32 16 16 (1048576)
I0927 00:20:23.970958 19128 net.cpp:194] Memory required for data: 739770880
I0927 00:20:23.970966 19128 layer_factory.hpp:77] Creating layer conv3_Eltwise_5
I0927 00:20:23.970973 19128 net.cpp:128] Creating Layer conv3_Eltwise_5
I0927 00:20:23.970978 19128 net.cpp:558] conv3_Eltwise_5 <- conv3_Eltwise_4_conv3_4ReLU_1_0_split_1
I0927 00:20:23.970983 19128 net.cpp:558] conv3_Eltwise_5 <- conv3_5_1
I0927 00:20:23.970989 19128 net.cpp:522] conv3_Eltwise_5 -> conv3_Eltwise_5
I0927 00:20:23.971015 19128 net.cpp:172] Setting up conv3_Eltwise_5
I0927 00:20:23.971022 19128 net.cpp:186] Top shape: 128 32 16 16 (1048576)
I0927 00:20:23.971026 19128 net.cpp:194] Memory required for data: 743965184
I0927 00:20:23.971031 19128 layer_factory.hpp:77] Creating layer conv3_5ReLU_1
I0927 00:20:23.971037 19128 net.cpp:128] Creating Layer conv3_5ReLU_1
I0927 00:20:23.971041 19128 net.cpp:558] conv3_5ReLU_1 <- conv3_Eltwise_5
I0927 00:20:23.971050 19128 net.cpp:509] conv3_5ReLU_1 -> conv3_Eltwise_5 (in-place)
I0927 00:20:23.972421 19128 net.cpp:172] Setting up conv3_5ReLU_1
I0927 00:20:23.972437 19128 net.cpp:186] Top shape: 128 32 16 16 (1048576)
I0927 00:20:23.972443 19128 net.cpp:194] Memory required for data: 748159488
I0927 00:20:23.972448 19128 layer_factory.hpp:77] Creating layer conv3_Eltwise_5_conv3_5ReLU_1_0_split
I0927 00:20:23.972455 19128 net.cpp:128] Creating Layer conv3_Eltwise_5_conv3_5ReLU_1_0_split
I0927 00:20:23.972460 19128 net.cpp:558] conv3_Eltwise_5_conv3_5ReLU_1_0_split <- conv3_Eltwise_5
I0927 00:20:23.972470 19128 net.cpp:522] conv3_Eltwise_5_conv3_5ReLU_1_0_split -> conv3_Eltwise_5_conv3_5ReLU_1_0_split_0
I0927 00:20:23.972478 19128 net.cpp:522] conv3_Eltwise_5_conv3_5ReLU_1_0_split -> conv3_Eltwise_5_conv3_5ReLU_1_0_split_1
I0927 00:20:23.972532 19128 net.cpp:172] Setting up conv3_Eltwise_5_conv3_5ReLU_1_0_split
I0927 00:20:23.972539 19128 net.cpp:186] Top shape: 128 32 16 16 (1048576)
I0927 00:20:23.972545 19128 net.cpp:186] Top shape: 128 32 16 16 (1048576)
I0927 00:20:23.972549 19128 net.cpp:194] Memory required for data: 756548096
I0927 00:20:23.972553 19128 layer_factory.hpp:77] Creating layer conv4_1_0
I0927 00:20:23.972565 19128 net.cpp:128] Creating Layer conv4_1_0
I0927 00:20:23.972570 19128 net.cpp:558] conv4_1_0 <- conv3_Eltwise_5_conv3_5ReLU_1_0_split_0
I0927 00:20:23.972581 19128 net.cpp:522] conv4_1_0 -> conv4_1_0
I0927 00:20:23.979408 19128 net.cpp:172] Setting up conv4_1_0
I0927 00:20:23.979437 19128 net.cpp:186] Top shape: 128 64 8 8 (524288)
I0927 00:20:23.979442 19128 net.cpp:194] Memory required for data: 758645248
I0927 00:20:23.979454 19128 layer_factory.hpp:77] Creating layer conv4_1_bn0
I0927 00:20:23.979466 19128 net.cpp:128] Creating Layer conv4_1_bn0
I0927 00:20:23.979492 19128 net.cpp:558] conv4_1_bn0 <- conv4_1_0
I0927 00:20:23.979502 19128 net.cpp:509] conv4_1_bn0 -> conv4_1_0 (in-place)
I0927 00:20:23.979784 19128 net.cpp:172] Setting up conv4_1_bn0
I0927 00:20:23.979799 19128 net.cpp:186] Top shape: 128 64 8 8 (524288)
I0927 00:20:23.979802 19128 net.cpp:194] Memory required for data: 760742400
I0927 00:20:23.979812 19128 layer_factory.hpp:77] Creating layer conv4_1_scale0
I0927 00:20:23.979822 19128 net.cpp:128] Creating Layer conv4_1_scale0
I0927 00:20:23.979827 19128 net.cpp:558] conv4_1_scale0 <- conv4_1_0
I0927 00:20:23.979833 19128 net.cpp:509] conv4_1_scale0 -> conv4_1_0 (in-place)
I0927 00:20:23.979877 19128 layer_factory.hpp:77] Creating layer conv4_1_scale0
I0927 00:20:23.980036 19128 net.cpp:172] Setting up conv4_1_scale0
I0927 00:20:23.980048 19128 net.cpp:186] Top shape: 128 64 8 8 (524288)
I0927 00:20:23.980052 19128 net.cpp:194] Memory required for data: 762839552
I0927 00:20:23.980060 19128 layer_factory.hpp:77] Creating layer conv4_1_ReLU0
I0927 00:20:23.980067 19128 net.cpp:128] Creating Layer conv4_1_ReLU0
I0927 00:20:23.980072 19128 net.cpp:558] conv4_1_ReLU0 <- conv4_1_0
I0927 00:20:23.980079 19128 net.cpp:509] conv4_1_ReLU0 -> conv4_1_0 (in-place)
I0927 00:20:23.981214 19128 net.cpp:172] Setting up conv4_1_ReLU0
I0927 00:20:23.981231 19128 net.cpp:186] Top shape: 128 64 8 8 (524288)
I0927 00:20:23.981236 19128 net.cpp:194] Memory required for data: 764936704
I0927 00:20:23.981240 19128 layer_factory.hpp:77] Creating layer conv4_1_1
I0927 00:20:23.981254 19128 net.cpp:128] Creating Layer conv4_1_1
I0927 00:20:23.981259 19128 net.cpp:558] conv4_1_1 <- conv4_1_0
I0927 00:20:23.981274 19128 net.cpp:522] conv4_1_1 -> conv4_1_1
I0927 00:20:23.988190 19128 net.cpp:172] Setting up conv4_1_1
I0927 00:20:23.988220 19128 net.cpp:186] Top shape: 128 64 8 8 (524288)
I0927 00:20:23.988225 19128 net.cpp:194] Memory required for data: 767033856
I0927 00:20:23.988235 19128 layer_factory.hpp:77] Creating layer conv4_1bn1
I0927 00:20:23.988245 19128 net.cpp:128] Creating Layer conv4_1bn1
I0927 00:20:23.988250 19128 net.cpp:558] conv4_1bn1 <- conv4_1_1
I0927 00:20:23.988260 19128 net.cpp:509] conv4_1bn1 -> conv4_1_1 (in-place)
I0927 00:20:23.988553 19128 net.cpp:172] Setting up conv4_1bn1
I0927 00:20:23.988565 19128 net.cpp:186] Top shape: 128 64 8 8 (524288)
I0927 00:20:23.988569 19128 net.cpp:194] Memory required for data: 769131008
I0927 00:20:23.988579 19128 layer_factory.hpp:77] Creating layer conv4_1_scale1
I0927 00:20:23.988586 19128 net.cpp:128] Creating Layer conv4_1_scale1
I0927 00:20:23.988591 19128 net.cpp:558] conv4_1_scale1 <- conv4_1_1
I0927 00:20:23.988600 19128 net.cpp:509] conv4_1_scale1 -> conv4_1_1 (in-place)
I0927 00:20:23.988641 19128 layer_factory.hpp:77] Creating layer conv4_1_scale1
I0927 00:20:23.988798 19128 net.cpp:172] Setting up conv4_1_scale1
I0927 00:20:23.988809 19128 net.cpp:186] Top shape: 128 64 8 8 (524288)
I0927 00:20:23.988813 19128 net.cpp:194] Memory required for data: 771228160
I0927 00:20:23.988821 19128 layer_factory.hpp:77] Creating layer conv4_1_down
I0927 00:20:23.988833 19128 net.cpp:128] Creating Layer conv4_1_down
I0927 00:20:23.988843 19128 net.cpp:558] conv4_1_down <- conv3_Eltwise_5_conv3_5ReLU_1_0_split_1
I0927 00:20:23.988852 19128 net.cpp:522] conv4_1_down -> conv4_1_down
I0927 00:20:23.994570 19128 net.cpp:172] Setting up conv4_1_down
I0927 00:20:23.994596 19128 net.cpp:186] Top shape: 128 64 8 8 (524288)
I0927 00:20:23.994601 19128 net.cpp:194] Memory required for data: 773325312
I0927 00:20:23.994611 19128 layer_factory.hpp:77] Creating layer conv4_1_bn_down
I0927 00:20:23.994622 19128 net.cpp:128] Creating Layer conv4_1_bn_down
I0927 00:20:23.994627 19128 net.cpp:558] conv4_1_bn_down <- conv4_1_down
I0927 00:20:23.994637 19128 net.cpp:509] conv4_1_bn_down -> conv4_1_down (in-place)
I0927 00:20:23.994916 19128 net.cpp:172] Setting up conv4_1_bn_down
I0927 00:20:23.994928 19128 net.cpp:186] Top shape: 128 64 8 8 (524288)
I0927 00:20:23.994932 19128 net.cpp:194] Memory required for data: 775422464
I0927 00:20:23.994961 19128 layer_factory.hpp:77] Creating layer conv4_1_scale_down
I0927 00:20:23.994971 19128 net.cpp:128] Creating Layer conv4_1_scale_down
I0927 00:20:23.994976 19128 net.cpp:558] conv4_1_scale_down <- conv4_1_down
I0927 00:20:23.994982 19128 net.cpp:509] conv4_1_scale_down -> conv4_1_down (in-place)
I0927 00:20:23.995026 19128 layer_factory.hpp:77] Creating layer conv4_1_scale_down
I0927 00:20:23.995182 19128 net.cpp:172] Setting up conv4_1_scale_down
I0927 00:20:23.995193 19128 net.cpp:186] Top shape: 128 64 8 8 (524288)
I0927 00:20:23.995198 19128 net.cpp:194] Memory required for data: 777519616
I0927 00:20:23.995205 19128 layer_factory.hpp:77] Creating layer conv4_Eltwise_1
I0927 00:20:23.995215 19128 net.cpp:128] Creating Layer conv4_Eltwise_1
I0927 00:20:23.995220 19128 net.cpp:558] conv4_Eltwise_1 <- conv4_1_1
I0927 00:20:23.995225 19128 net.cpp:558] conv4_Eltwise_1 <- conv4_1_down
I0927 00:20:23.995234 19128 net.cpp:522] conv4_Eltwise_1 -> conv4_Eltwise_1
I0927 00:20:23.995256 19128 net.cpp:172] Setting up conv4_Eltwise_1
I0927 00:20:23.995263 19128 net.cpp:186] Top shape: 128 64 8 8 (524288)
I0927 00:20:23.995267 19128 net.cpp:194] Memory required for data: 779616768
I0927 00:20:23.995272 19128 layer_factory.hpp:77] Creating layer conv4_1ReLU_1
I0927 00:20:23.995278 19128 net.cpp:128] Creating Layer conv4_1ReLU_1
I0927 00:20:23.995283 19128 net.cpp:558] conv4_1ReLU_1 <- conv4_Eltwise_1
I0927 00:20:23.995291 19128 net.cpp:509] conv4_1ReLU_1 -> conv4_Eltwise_1 (in-place)
I0927 00:20:23.996598 19128 net.cpp:172] Setting up conv4_1ReLU_1
I0927 00:20:23.996623 19128 net.cpp:186] Top shape: 128 64 8 8 (524288)
I0927 00:20:23.996628 19128 net.cpp:194] Memory required for data: 781713920
I0927 00:20:23.996634 19128 layer_factory.hpp:77] Creating layer conv4_Eltwise_1_conv4_1ReLU_1_0_split
I0927 00:20:23.996644 19128 net.cpp:128] Creating Layer conv4_Eltwise_1_conv4_1ReLU_1_0_split
I0927 00:20:23.996654 19128 net.cpp:558] conv4_Eltwise_1_conv4_1ReLU_1_0_split <- conv4_Eltwise_1
I0927 00:20:23.996661 19128 net.cpp:522] conv4_Eltwise_1_conv4_1ReLU_1_0_split -> conv4_Eltwise_1_conv4_1ReLU_1_0_split_0
I0927 00:20:23.996670 19128 net.cpp:522] conv4_Eltwise_1_conv4_1ReLU_1_0_split -> conv4_Eltwise_1_conv4_1ReLU_1_0_split_1
I0927 00:20:23.996728 19128 net.cpp:172] Setting up conv4_Eltwise_1_conv4_1ReLU_1_0_split
I0927 00:20:23.996735 19128 net.cpp:186] Top shape: 128 64 8 8 (524288)
I0927 00:20:23.996742 19128 net.cpp:186] Top shape: 128 64 8 8 (524288)
I0927 00:20:23.996745 19128 net.cpp:194] Memory required for data: 785908224
I0927 00:20:23.996749 19128 layer_factory.hpp:77] Creating layer conv4_2_0
I0927 00:20:23.996762 19128 net.cpp:128] Creating Layer conv4_2_0
I0927 00:20:23.996767 19128 net.cpp:558] conv4_2_0 <- conv4_Eltwise_1_conv4_1ReLU_1_0_split_0
I0927 00:20:23.996776 19128 net.cpp:522] conv4_2_0 -> conv4_2_0
I0927 00:20:24.003336 19128 net.cpp:172] Setting up conv4_2_0
I0927 00:20:24.003362 19128 net.cpp:186] Top shape: 128 64 8 8 (524288)
I0927 00:20:24.003367 19128 net.cpp:194] Memory required for data: 788005376
I0927 00:20:24.003377 19128 layer_factory.hpp:77] Creating layer conv4_2_bn0
I0927 00:20:24.003388 19128 net.cpp:128] Creating Layer conv4_2_bn0
I0927 00:20:24.003394 19128 net.cpp:558] conv4_2_bn0 <- conv4_2_0
I0927 00:20:24.003401 19128 net.cpp:509] conv4_2_bn0 -> conv4_2_0 (in-place)
I0927 00:20:24.003679 19128 net.cpp:172] Setting up conv4_2_bn0
I0927 00:20:24.003690 19128 net.cpp:186] Top shape: 128 64 8 8 (524288)
I0927 00:20:24.003696 19128 net.cpp:194] Memory required for data: 790102528
I0927 00:20:24.003706 19128 layer_factory.hpp:77] Creating layer conv4_2_scale0
I0927 00:20:24.003716 19128 net.cpp:128] Creating Layer conv4_2_scale0
I0927 00:20:24.003721 19128 net.cpp:558] conv4_2_scale0 <- conv4_2_0
I0927 00:20:24.003726 19128 net.cpp:509] conv4_2_scale0 -> conv4_2_0 (in-place)
I0927 00:20:24.003769 19128 layer_factory.hpp:77] Creating layer conv4_2_scale0
I0927 00:20:24.003922 19128 net.cpp:172] Setting up conv4_2_scale0
I0927 00:20:24.003929 19128 net.cpp:186] Top shape: 128 64 8 8 (524288)
I0927 00:20:24.003952 19128 net.cpp:194] Memory required for data: 792199680
I0927 00:20:24.003960 19128 layer_factory.hpp:77] Creating layer conv4_2_ReLU0
I0927 00:20:24.003969 19128 net.cpp:128] Creating Layer conv4_2_ReLU0
I0927 00:20:24.003974 19128 net.cpp:558] conv4_2_ReLU0 <- conv4_2_0
I0927 00:20:24.003979 19128 net.cpp:509] conv4_2_ReLU0 -> conv4_2_0 (in-place)
I0927 00:20:24.005394 19128 net.cpp:172] Setting up conv4_2_ReLU0
I0927 00:20:24.005414 19128 net.cpp:186] Top shape: 128 64 8 8 (524288)
I0927 00:20:24.005419 19128 net.cpp:194] Memory required for data: 794296832
I0927 00:20:24.005422 19128 layer_factory.hpp:77] Creating layer conv4_2_1
I0927 00:20:24.005439 19128 net.cpp:128] Creating Layer conv4_2_1
I0927 00:20:24.005445 19128 net.cpp:558] conv4_2_1 <- conv4_2_0
I0927 00:20:24.005452 19128 net.cpp:522] conv4_2_1 -> conv4_2_1
I0927 00:20:24.012377 19128 net.cpp:172] Setting up conv4_2_1
I0927 00:20:24.012404 19128 net.cpp:186] Top shape: 128 64 8 8 (524288)
I0927 00:20:24.012409 19128 net.cpp:194] Memory required for data: 796393984
I0927 00:20:24.012419 19128 layer_factory.hpp:77] Creating layer conv4_2bn1
I0927 00:20:24.012431 19128 net.cpp:128] Creating Layer conv4_2bn1
I0927 00:20:24.012437 19128 net.cpp:558] conv4_2bn1 <- conv4_2_1
I0927 00:20:24.012449 19128 net.cpp:509] conv4_2bn1 -> conv4_2_1 (in-place)
I0927 00:20:24.012733 19128 net.cpp:172] Setting up conv4_2bn1
I0927 00:20:24.012747 19128 net.cpp:186] Top shape: 128 64 8 8 (524288)
I0927 00:20:24.012750 19128 net.cpp:194] Memory required for data: 798491136
I0927 00:20:24.012760 19128 layer_factory.hpp:77] Creating layer conv4_2_scale1
I0927 00:20:24.012778 19128 net.cpp:128] Creating Layer conv4_2_scale1
I0927 00:20:24.012784 19128 net.cpp:558] conv4_2_scale1 <- conv4_2_1
I0927 00:20:24.012789 19128 net.cpp:509] conv4_2_scale1 -> conv4_2_1 (in-place)
I0927 00:20:24.012832 19128 layer_factory.hpp:77] Creating layer conv4_2_scale1
I0927 00:20:24.012989 19128 net.cpp:172] Setting up conv4_2_scale1
I0927 00:20:24.012996 19128 net.cpp:186] Top shape: 128 64 8 8 (524288)
I0927 00:20:24.013000 19128 net.cpp:194] Memory required for data: 800588288
I0927 00:20:24.013010 19128 layer_factory.hpp:77] Creating layer conv4_Eltwise_2
I0927 00:20:24.013015 19128 net.cpp:128] Creating Layer conv4_Eltwise_2
I0927 00:20:24.013020 19128 net.cpp:558] conv4_Eltwise_2 <- conv4_Eltwise_1_conv4_1ReLU_1_0_split_1
I0927 00:20:24.013025 19128 net.cpp:558] conv4_Eltwise_2 <- conv4_2_1
I0927 00:20:24.013031 19128 net.cpp:522] conv4_Eltwise_2 -> conv4_Eltwise_2
I0927 00:20:24.013061 19128 net.cpp:172] Setting up conv4_Eltwise_2
I0927 00:20:24.013069 19128 net.cpp:186] Top shape: 128 64 8 8 (524288)
I0927 00:20:24.013073 19128 net.cpp:194] Memory required for data: 802685440
I0927 00:20:24.013077 19128 layer_factory.hpp:77] Creating layer conv4_2ReLU_1
I0927 00:20:24.013083 19128 net.cpp:128] Creating Layer conv4_2ReLU_1
I0927 00:20:24.013087 19128 net.cpp:558] conv4_2ReLU_1 <- conv4_Eltwise_2
I0927 00:20:24.013093 19128 net.cpp:509] conv4_2ReLU_1 -> conv4_Eltwise_2 (in-place)
I0927 00:20:24.013347 19128 net.cpp:172] Setting up conv4_2ReLU_1
I0927 00:20:24.013358 19128 net.cpp:186] Top shape: 128 64 8 8 (524288)
I0927 00:20:24.013363 19128 net.cpp:194] Memory required for data: 804782592
I0927 00:20:24.013367 19128 layer_factory.hpp:77] Creating layer conv4_Eltwise_2_conv4_2ReLU_1_0_split
I0927 00:20:24.013375 19128 net.cpp:128] Creating Layer conv4_Eltwise_2_conv4_2ReLU_1_0_split
I0927 00:20:24.013379 19128 net.cpp:558] conv4_Eltwise_2_conv4_2ReLU_1_0_split <- conv4_Eltwise_2
I0927 00:20:24.013389 19128 net.cpp:522] conv4_Eltwise_2_conv4_2ReLU_1_0_split -> conv4_Eltwise_2_conv4_2ReLU_1_0_split_0
I0927 00:20:24.013397 19128 net.cpp:522] conv4_Eltwise_2_conv4_2ReLU_1_0_split -> conv4_Eltwise_2_conv4_2ReLU_1_0_split_1
I0927 00:20:24.013453 19128 net.cpp:172] Setting up conv4_Eltwise_2_conv4_2ReLU_1_0_split
I0927 00:20:24.013460 19128 net.cpp:186] Top shape: 128 64 8 8 (524288)
I0927 00:20:24.013466 19128 net.cpp:186] Top shape: 128 64 8 8 (524288)
I0927 00:20:24.013485 19128 net.cpp:194] Memory required for data: 808976896
I0927 00:20:24.013490 19128 layer_factory.hpp:77] Creating layer conv4_3_0
I0927 00:20:24.013502 19128 net.cpp:128] Creating Layer conv4_3_0
I0927 00:20:24.013507 19128 net.cpp:558] conv4_3_0 <- conv4_Eltwise_2_conv4_2ReLU_1_0_split_0
I0927 00:20:24.013516 19128 net.cpp:522] conv4_3_0 -> conv4_3_0
I0927 00:20:24.015941 19128 net.cpp:172] Setting up conv4_3_0
I0927 00:20:24.015970 19128 net.cpp:186] Top shape: 128 64 8 8 (524288)
I0927 00:20:24.015975 19128 net.cpp:194] Memory required for data: 811074048
I0927 00:20:24.015985 19128 layer_factory.hpp:77] Creating layer conv4_3_bn0
I0927 00:20:24.015998 19128 net.cpp:128] Creating Layer conv4_3_bn0
I0927 00:20:24.016003 19128 net.cpp:558] conv4_3_bn0 <- conv4_3_0
I0927 00:20:24.016010 19128 net.cpp:509] conv4_3_bn0 -> conv4_3_0 (in-place)
I0927 00:20:24.016286 19128 net.cpp:172] Setting up conv4_3_bn0
I0927 00:20:24.016299 19128 net.cpp:186] Top shape: 128 64 8 8 (524288)
I0927 00:20:24.016304 19128 net.cpp:194] Memory required for data: 813171200
I0927 00:20:24.016314 19128 layer_factory.hpp:77] Creating layer conv4_3_scale0
I0927 00:20:24.016321 19128 net.cpp:128] Creating Layer conv4_3_scale0
I0927 00:20:24.016325 19128 net.cpp:558] conv4_3_scale0 <- conv4_3_0
I0927 00:20:24.016331 19128 net.cpp:509] conv4_3_scale0 -> conv4_3_0 (in-place)
I0927 00:20:24.016376 19128 layer_factory.hpp:77] Creating layer conv4_3_scale0
I0927 00:20:24.016537 19128 net.cpp:172] Setting up conv4_3_scale0
I0927 00:20:24.016548 19128 net.cpp:186] Top shape: 128 64 8 8 (524288)
I0927 00:20:24.016553 19128 net.cpp:194] Memory required for data: 815268352
I0927 00:20:24.016561 19128 layer_factory.hpp:77] Creating layer conv4_3_ReLU0
I0927 00:20:24.016571 19128 net.cpp:128] Creating Layer conv4_3_ReLU0
I0927 00:20:24.016575 19128 net.cpp:558] conv4_3_ReLU0 <- conv4_3_0
I0927 00:20:24.016582 19128 net.cpp:509] conv4_3_ReLU0 -> conv4_3_0 (in-place)
I0927 00:20:24.017081 19128 net.cpp:172] Setting up conv4_3_ReLU0
I0927 00:20:24.017103 19128 net.cpp:186] Top shape: 128 64 8 8 (524288)
I0927 00:20:24.017107 19128 net.cpp:194] Memory required for data: 817365504
I0927 00:20:24.017112 19128 layer_factory.hpp:77] Creating layer conv4_3_1
I0927 00:20:24.017129 19128 net.cpp:128] Creating Layer conv4_3_1
I0927 00:20:24.017138 19128 net.cpp:558] conv4_3_1 <- conv4_3_0
I0927 00:20:24.017146 19128 net.cpp:522] conv4_3_1 -> conv4_3_1
I0927 00:20:24.023128 19128 net.cpp:172] Setting up conv4_3_1
I0927 00:20:24.023159 19128 net.cpp:186] Top shape: 128 64 8 8 (524288)
I0927 00:20:24.023164 19128 net.cpp:194] Memory required for data: 819462656
I0927 00:20:24.023177 19128 layer_factory.hpp:77] Creating layer conv4_3bn1
I0927 00:20:24.023190 19128 net.cpp:128] Creating Layer conv4_3bn1
I0927 00:20:24.023196 19128 net.cpp:558] conv4_3bn1 <- conv4_3_1
I0927 00:20:24.023203 19128 net.cpp:509] conv4_3bn1 -> conv4_3_1 (in-place)
I0927 00:20:24.023612 19128 net.cpp:172] Setting up conv4_3bn1
I0927 00:20:24.023624 19128 net.cpp:186] Top shape: 128 64 8 8 (524288)
I0927 00:20:24.023630 19128 net.cpp:194] Memory required for data: 821559808
I0927 00:20:24.023641 19128 layer_factory.hpp:77] Creating layer conv4_3_scale1
I0927 00:20:24.023650 19128 net.cpp:128] Creating Layer conv4_3_scale1
I0927 00:20:24.023654 19128 net.cpp:558] conv4_3_scale1 <- conv4_3_1
I0927 00:20:24.023663 19128 net.cpp:509] conv4_3_scale1 -> conv4_3_1 (in-place)
I0927 00:20:24.023710 19128 layer_factory.hpp:77] Creating layer conv4_3_scale1
I0927 00:20:24.023870 19128 net.cpp:172] Setting up conv4_3_scale1
I0927 00:20:24.023886 19128 net.cpp:186] Top shape: 128 64 8 8 (524288)
I0927 00:20:24.023891 19128 net.cpp:194] Memory required for data: 823656960
I0927 00:20:24.023900 19128 layer_factory.hpp:77] Creating layer conv4_Eltwise_3
I0927 00:20:24.023908 19128 net.cpp:128] Creating Layer conv4_Eltwise_3
I0927 00:20:24.023914 19128 net.cpp:558] conv4_Eltwise_3 <- conv4_Eltwise_2_conv4_2ReLU_1_0_split_1
I0927 00:20:24.023919 19128 net.cpp:558] conv4_Eltwise_3 <- conv4_3_1
I0927 00:20:24.023928 19128 net.cpp:522] conv4_Eltwise_3 -> conv4_Eltwise_3
I0927 00:20:24.023977 19128 net.cpp:172] Setting up conv4_Eltwise_3
I0927 00:20:24.023986 19128 net.cpp:186] Top shape: 128 64 8 8 (524288)
I0927 00:20:24.023990 19128 net.cpp:194] Memory required for data: 825754112
I0927 00:20:24.023994 19128 layer_factory.hpp:77] Creating layer conv4_3ReLU_1
I0927 00:20:24.024003 19128 net.cpp:128] Creating Layer conv4_3ReLU_1
I0927 00:20:24.024006 19128 net.cpp:558] conv4_3ReLU_1 <- conv4_Eltwise_3
I0927 00:20:24.024015 19128 net.cpp:509] conv4_3ReLU_1 -> conv4_Eltwise_3 (in-place)
I0927 00:20:24.024909 19128 net.cpp:172] Setting up conv4_3ReLU_1
I0927 00:20:24.024924 19128 net.cpp:186] Top shape: 128 64 8 8 (524288)
I0927 00:20:24.024930 19128 net.cpp:194] Memory required for data: 827851264
I0927 00:20:24.024935 19128 layer_factory.hpp:77] Creating layer conv4_Eltwise_3_conv4_3ReLU_1_0_split
I0927 00:20:24.024942 19128 net.cpp:128] Creating Layer conv4_Eltwise_3_conv4_3ReLU_1_0_split
I0927 00:20:24.024946 19128 net.cpp:558] conv4_Eltwise_3_conv4_3ReLU_1_0_split <- conv4_Eltwise_3
I0927 00:20:24.024956 19128 net.cpp:522] conv4_Eltwise_3_conv4_3ReLU_1_0_split -> conv4_Eltwise_3_conv4_3ReLU_1_0_split_0
I0927 00:20:24.024966 19128 net.cpp:522] conv4_Eltwise_3_conv4_3ReLU_1_0_split -> conv4_Eltwise_3_conv4_3ReLU_1_0_split_1
I0927 00:20:24.025024 19128 net.cpp:172] Setting up conv4_Eltwise_3_conv4_3ReLU_1_0_split
I0927 00:20:24.025035 19128 net.cpp:186] Top shape: 128 64 8 8 (524288)
I0927 00:20:24.025041 19128 net.cpp:186] Top shape: 128 64 8 8 (524288)
I0927 00:20:24.025045 19128 net.cpp:194] Memory required for data: 832045568
I0927 00:20:24.025049 19128 layer_factory.hpp:77] Creating layer conv4_4_0
I0927 00:20:24.025063 19128 net.cpp:128] Creating Layer conv4_4_0
I0927 00:20:24.025068 19128 net.cpp:558] conv4_4_0 <- conv4_Eltwise_3_conv4_3ReLU_1_0_split_0
I0927 00:20:24.025079 19128 net.cpp:522] conv4_4_0 -> conv4_4_0
I0927 00:20:24.031678 19128 net.cpp:172] Setting up conv4_4_0
I0927 00:20:24.031705 19128 net.cpp:186] Top shape: 128 64 8 8 (524288)
I0927 00:20:24.031710 19128 net.cpp:194] Memory required for data: 834142720
I0927 00:20:24.031724 19128 layer_factory.hpp:77] Creating layer conv4_4_bn0
I0927 00:20:24.031739 19128 net.cpp:128] Creating Layer conv4_4_bn0
I0927 00:20:24.031749 19128 net.cpp:558] conv4_4_bn0 <- conv4_4_0
I0927 00:20:24.031756 19128 net.cpp:509] conv4_4_bn0 -> conv4_4_0 (in-place)
I0927 00:20:24.032042 19128 net.cpp:172] Setting up conv4_4_bn0
I0927 00:20:24.032053 19128 net.cpp:186] Top shape: 128 64 8 8 (524288)
I0927 00:20:24.032058 19128 net.cpp:194] Memory required for data: 836239872
I0927 00:20:24.032068 19128 layer_factory.hpp:77] Creating layer conv4_4_scale0
I0927 00:20:24.032078 19128 net.cpp:128] Creating Layer conv4_4_scale0
I0927 00:20:24.032083 19128 net.cpp:558] conv4_4_scale0 <- conv4_4_0
I0927 00:20:24.032088 19128 net.cpp:509] conv4_4_scale0 -> conv4_4_0 (in-place)
I0927 00:20:24.032135 19128 layer_factory.hpp:77] Creating layer conv4_4_scale0
I0927 00:20:24.032299 19128 net.cpp:172] Setting up conv4_4_scale0
I0927 00:20:24.032310 19128 net.cpp:186] Top shape: 128 64 8 8 (524288)
I0927 00:20:24.032315 19128 net.cpp:194] Memory required for data: 838337024
I0927 00:20:24.032322 19128 layer_factory.hpp:77] Creating layer conv4_4_ReLU0
I0927 00:20:24.032331 19128 net.cpp:128] Creating Layer conv4_4_ReLU0
I0927 00:20:24.032336 19128 net.cpp:558] conv4_4_ReLU0 <- conv4_4_0
I0927 00:20:24.032342 19128 net.cpp:509] conv4_4_ReLU0 -> conv4_4_0 (in-place)
I0927 00:20:24.033735 19128 net.cpp:172] Setting up conv4_4_ReLU0
I0927 00:20:24.033753 19128 net.cpp:186] Top shape: 128 64 8 8 (524288)
I0927 00:20:24.033758 19128 net.cpp:194] Memory required for data: 840434176
I0927 00:20:24.033763 19128 layer_factory.hpp:77] Creating layer conv4_4_1
I0927 00:20:24.033784 19128 net.cpp:128] Creating Layer conv4_4_1
I0927 00:20:24.033797 19128 net.cpp:558] conv4_4_1 <- conv4_4_0
I0927 00:20:24.033804 19128 net.cpp:522] conv4_4_1 -> conv4_4_1
I0927 00:20:24.040730 19128 net.cpp:172] Setting up conv4_4_1
I0927 00:20:24.040773 19128 net.cpp:186] Top shape: 128 64 8 8 (524288)
I0927 00:20:24.040778 19128 net.cpp:194] Memory required for data: 842531328
I0927 00:20:24.040792 19128 layer_factory.hpp:77] Creating layer conv4_4bn1
I0927 00:20:24.040804 19128 net.cpp:128] Creating Layer conv4_4bn1
I0927 00:20:24.040817 19128 net.cpp:558] conv4_4bn1 <- conv4_4_1
I0927 00:20:24.040827 19128 net.cpp:509] conv4_4bn1 -> conv4_4_1 (in-place)
I0927 00:20:24.041123 19128 net.cpp:172] Setting up conv4_4bn1
I0927 00:20:24.041136 19128 net.cpp:186] Top shape: 128 64 8 8 (524288)
I0927 00:20:24.041141 19128 net.cpp:194] Memory required for data: 844628480
I0927 00:20:24.041152 19128 layer_factory.hpp:77] Creating layer conv4_4_scale1
I0927 00:20:24.041158 19128 net.cpp:128] Creating Layer conv4_4_scale1
I0927 00:20:24.041162 19128 net.cpp:558] conv4_4_scale1 <- conv4_4_1
I0927 00:20:24.041170 19128 net.cpp:509] conv4_4_scale1 -> conv4_4_1 (in-place)
I0927 00:20:24.041216 19128 layer_factory.hpp:77] Creating layer conv4_4_scale1
I0927 00:20:24.041378 19128 net.cpp:172] Setting up conv4_4_scale1
I0927 00:20:24.041391 19128 net.cpp:186] Top shape: 128 64 8 8 (524288)
I0927 00:20:24.041396 19128 net.cpp:194] Memory required for data: 846725632
I0927 00:20:24.041405 19128 layer_factory.hpp:77] Creating layer conv4_Eltwise_4
I0927 00:20:24.041412 19128 net.cpp:128] Creating Layer conv4_Eltwise_4
I0927 00:20:24.041417 19128 net.cpp:558] conv4_Eltwise_4 <- conv4_Eltwise_3_conv4_3ReLU_1_0_split_1
I0927 00:20:24.041422 19128 net.cpp:558] conv4_Eltwise_4 <- conv4_4_1
I0927 00:20:24.041431 19128 net.cpp:522] conv4_Eltwise_4 -> conv4_Eltwise_4
I0927 00:20:24.041455 19128 net.cpp:172] Setting up conv4_Eltwise_4
I0927 00:20:24.041462 19128 net.cpp:186] Top shape: 128 64 8 8 (524288)
I0927 00:20:24.041466 19128 net.cpp:194] Memory required for data: 848822784
I0927 00:20:24.041471 19128 layer_factory.hpp:77] Creating layer conv4_4ReLU_1
I0927 00:20:24.041479 19128 net.cpp:128] Creating Layer conv4_4ReLU_1
I0927 00:20:24.041484 19128 net.cpp:558] conv4_4ReLU_1 <- conv4_Eltwise_4
I0927 00:20:24.041489 19128 net.cpp:509] conv4_4ReLU_1 -> conv4_Eltwise_4 (in-place)
I0927 00:20:24.042511 19128 net.cpp:172] Setting up conv4_4ReLU_1
I0927 00:20:24.042527 19128 net.cpp:186] Top shape: 128 64 8 8 (524288)
I0927 00:20:24.042532 19128 net.cpp:194] Memory required for data: 850919936
I0927 00:20:24.042537 19128 layer_factory.hpp:77] Creating layer conv4_Eltwise_4_conv4_4ReLU_1_0_split
I0927 00:20:24.042547 19128 net.cpp:128] Creating Layer conv4_Eltwise_4_conv4_4ReLU_1_0_split
I0927 00:20:24.042552 19128 net.cpp:558] conv4_Eltwise_4_conv4_4ReLU_1_0_split <- conv4_Eltwise_4
I0927 00:20:24.042560 19128 net.cpp:522] conv4_Eltwise_4_conv4_4ReLU_1_0_split -> conv4_Eltwise_4_conv4_4ReLU_1_0_split_0
I0927 00:20:24.042568 19128 net.cpp:522] conv4_Eltwise_4_conv4_4ReLU_1_0_split -> conv4_Eltwise_4_conv4_4ReLU_1_0_split_1
I0927 00:20:24.042627 19128 net.cpp:172] Setting up conv4_Eltwise_4_conv4_4ReLU_1_0_split
I0927 00:20:24.042635 19128 net.cpp:186] Top shape: 128 64 8 8 (524288)
I0927 00:20:24.042641 19128 net.cpp:186] Top shape: 128 64 8 8 (524288)
I0927 00:20:24.042645 19128 net.cpp:194] Memory required for data: 855114240
I0927 00:20:24.042649 19128 layer_factory.hpp:77] Creating layer conv4_5_0
I0927 00:20:24.042661 19128 net.cpp:128] Creating Layer conv4_5_0
I0927 00:20:24.042670 19128 net.cpp:558] conv4_5_0 <- conv4_Eltwise_4_conv4_4ReLU_1_0_split_0
I0927 00:20:24.042676 19128 net.cpp:522] conv4_5_0 -> conv4_5_0
I0927 00:20:24.049260 19128 net.cpp:172] Setting up conv4_5_0
I0927 00:20:24.049288 19128 net.cpp:186] Top shape: 128 64 8 8 (524288)
I0927 00:20:24.049291 19128 net.cpp:194] Memory required for data: 857211392
I0927 00:20:24.049301 19128 layer_factory.hpp:77] Creating layer conv4_5_bn0
I0927 00:20:24.049314 19128 net.cpp:128] Creating Layer conv4_5_bn0
I0927 00:20:24.049319 19128 net.cpp:558] conv4_5_bn0 <- conv4_5_0
I0927 00:20:24.049329 19128 net.cpp:509] conv4_5_bn0 -> conv4_5_0 (in-place)
I0927 00:20:24.049616 19128 net.cpp:172] Setting up conv4_5_bn0
I0927 00:20:24.049644 19128 net.cpp:186] Top shape: 128 64 8 8 (524288)
I0927 00:20:24.049649 19128 net.cpp:194] Memory required for data: 859308544
I0927 00:20:24.049659 19128 layer_factory.hpp:77] Creating layer conv4_5_scale0
I0927 00:20:24.049674 19128 net.cpp:128] Creating Layer conv4_5_scale0
I0927 00:20:24.049679 19128 net.cpp:558] conv4_5_scale0 <- conv4_5_0
I0927 00:20:24.049685 19128 net.cpp:509] conv4_5_scale0 -> conv4_5_0 (in-place)
I0927 00:20:24.049731 19128 layer_factory.hpp:77] Creating layer conv4_5_scale0
I0927 00:20:24.049895 19128 net.cpp:172] Setting up conv4_5_scale0
I0927 00:20:24.049901 19128 net.cpp:186] Top shape: 128 64 8 8 (524288)
I0927 00:20:24.049906 19128 net.cpp:194] Memory required for data: 861405696
I0927 00:20:24.049914 19128 layer_factory.hpp:77] Creating layer conv4_5_ReLU0
I0927 00:20:24.049923 19128 net.cpp:128] Creating Layer conv4_5_ReLU0
I0927 00:20:24.049928 19128 net.cpp:558] conv4_5_ReLU0 <- conv4_5_0
I0927 00:20:24.049937 19128 net.cpp:509] conv4_5_ReLU0 -> conv4_5_0 (in-place)
I0927 00:20:24.051326 19128 net.cpp:172] Setting up conv4_5_ReLU0
I0927 00:20:24.051352 19128 net.cpp:186] Top shape: 128 64 8 8 (524288)
I0927 00:20:24.051355 19128 net.cpp:194] Memory required for data: 863502848
I0927 00:20:24.051360 19128 layer_factory.hpp:77] Creating layer conv4_5_1
I0927 00:20:24.051375 19128 net.cpp:128] Creating Layer conv4_5_1
I0927 00:20:24.051381 19128 net.cpp:558] conv4_5_1 <- conv4_5_0
I0927 00:20:24.051393 19128 net.cpp:522] conv4_5_1 -> conv4_5_1
I0927 00:20:24.058401 19128 net.cpp:172] Setting up conv4_5_1
I0927 00:20:24.058429 19128 net.cpp:186] Top shape: 128 64 8 8 (524288)
I0927 00:20:24.058434 19128 net.cpp:194] Memory required for data: 865600000
I0927 00:20:24.058444 19128 layer_factory.hpp:77] Creating layer conv4_5bn1
I0927 00:20:24.058455 19128 net.cpp:128] Creating Layer conv4_5bn1
I0927 00:20:24.058461 19128 net.cpp:558] conv4_5bn1 <- conv4_5_1
I0927 00:20:24.058470 19128 net.cpp:509] conv4_5bn1 -> conv4_5_1 (in-place)
I0927 00:20:24.058770 19128 net.cpp:172] Setting up conv4_5bn1
I0927 00:20:24.058784 19128 net.cpp:186] Top shape: 128 64 8 8 (524288)
I0927 00:20:24.058789 19128 net.cpp:194] Memory required for data: 867697152
I0927 00:20:24.058799 19128 layer_factory.hpp:77] Creating layer conv4_5_scale1
I0927 00:20:24.058805 19128 net.cpp:128] Creating Layer conv4_5_scale1
I0927 00:20:24.058817 19128 net.cpp:558] conv4_5_scale1 <- conv4_5_1
I0927 00:20:24.058827 19128 net.cpp:509] conv4_5_scale1 -> conv4_5_1 (in-place)
I0927 00:20:24.058871 19128 layer_factory.hpp:77] Creating layer conv4_5_scale1
I0927 00:20:24.059038 19128 net.cpp:172] Setting up conv4_5_scale1
I0927 00:20:24.059046 19128 net.cpp:186] Top shape: 128 64 8 8 (524288)
I0927 00:20:24.059051 19128 net.cpp:194] Memory required for data: 869794304
I0927 00:20:24.059058 19128 layer_factory.hpp:77] Creating layer conv4_Eltwise_5
I0927 00:20:24.059067 19128 net.cpp:128] Creating Layer conv4_Eltwise_5
I0927 00:20:24.059072 19128 net.cpp:558] conv4_Eltwise_5 <- conv4_Eltwise_4_conv4_4ReLU_1_0_split_1
I0927 00:20:24.059077 19128 net.cpp:558] conv4_Eltwise_5 <- conv4_5_1
I0927 00:20:24.059085 19128 net.cpp:522] conv4_Eltwise_5 -> conv4_Eltwise_5
I0927 00:20:24.059109 19128 net.cpp:172] Setting up conv4_Eltwise_5
I0927 00:20:24.059116 19128 net.cpp:186] Top shape: 128 64 8 8 (524288)
I0927 00:20:24.059120 19128 net.cpp:194] Memory required for data: 871891456
I0927 00:20:24.059124 19128 layer_factory.hpp:77] Creating layer conv4_5ReLU_1
I0927 00:20:24.059134 19128 net.cpp:128] Creating Layer conv4_5ReLU_1
I0927 00:20:24.059139 19128 net.cpp:558] conv4_5ReLU_1 <- conv4_Eltwise_5
I0927 00:20:24.059144 19128 net.cpp:509] conv4_5ReLU_1 -> conv4_Eltwise_5 (in-place)
I0927 00:20:24.060118 19128 net.cpp:172] Setting up conv4_5ReLU_1
I0927 00:20:24.060134 19128 net.cpp:186] Top shape: 128 64 8 8 (524288)
I0927 00:20:24.060139 19128 net.cpp:194] Memory required for data: 873988608
I0927 00:20:24.060144 19128 layer_factory.hpp:77] Creating layer Pooling1
I0927 00:20:24.060155 19128 net.cpp:128] Creating Layer Pooling1
I0927 00:20:24.060178 19128 net.cpp:558] Pooling1 <- conv4_Eltwise_5
I0927 00:20:24.060186 19128 net.cpp:522] Pooling1 -> Pooling1
I0927 00:20:24.060811 19128 net.cpp:172] Setting up Pooling1
I0927 00:20:24.060828 19128 net.cpp:186] Top shape: 128 64 1 1 (8192)
I0927 00:20:24.060832 19128 net.cpp:194] Memory required for data: 874021376
I0927 00:20:24.060837 19128 layer_factory.hpp:77] Creating layer fc1
I0927 00:20:24.060850 19128 net.cpp:128] Creating Layer fc1
I0927 00:20:24.060855 19128 net.cpp:558] fc1 <- Pooling1
I0927 00:20:24.060865 19128 net.cpp:522] fc1 -> fc1
I0927 00:20:24.061041 19128 net.cpp:172] Setting up fc1
I0927 00:20:24.061053 19128 net.cpp:186] Top shape: 128 10 (1280)
I0927 00:20:24.061058 19128 net.cpp:194] Memory required for data: 874026496
I0927 00:20:24.061066 19128 layer_factory.hpp:77] Creating layer Softmax1
I0927 00:20:24.061074 19128 net.cpp:128] Creating Layer Softmax1
I0927 00:20:24.061079 19128 net.cpp:558] Softmax1 <- fc1
I0927 00:20:24.061084 19128 net.cpp:558] Softmax1 <- label
I0927 00:20:24.061090 19128 net.cpp:522] Softmax1 -> Softmax1
…
I0927 00:20:24.064481 19128 solver.cpp:277] Creating test net (#0) specified by test_net file: ./test_ResNet_32.prototxt
I0927 00:20:24.065649 19128 net.cpp:82] Initializing net from parameters: 
name: "ResNet-32"
state {
  phase: TEST
}
layer {
  name: "Data1"
  type: "Data"
  top: "data"
  top: "label"
  transform_param {
    scale: 0.00390625
    mirror: false
    crop_size: 32
    mean_value: 125.3
    mean_value: 122.9
    mean_value: 113.8
  }
  data_param {
    source: "/home/lijianfei/datasets/cifar10_40/test_lmdb"
    batch_size: 10
    backend: LMDB
  }
  image_data_param {
    shuffle: false
  }
}
layer {
  name: "conv1"
  type: "Convolution"
  bottom: "data"
  top: "conv1"
  param {
    lr_mult: 1
    decay_mult: 1
  }
  param {
    lr_mult: 2
    decay_mult: 0
  }
  convolution_param {
    num_output: 16
    bias_term: true
    pad: 1
    kernel_size: 3
    stride: 1
    weight_filler {
      type: "msra"
    }
    bias_filler {
      type: "constant"
      value: 0
    }
  }
}
layer {
  name: "conv1/bn"
  type: "BatchNorm"
  bottom: "conv1"
  top: "conv1"
  param {
    lr_mult: 0
    decay_mult: 0
  }
  param {
    lr_mult: 0
    decay_mult: 0
  }
  param {
    lr_mult: 0
    decay_mult: 0
  }
  batch_norm_param {
    use_global_stats: true
  }
}
layer {
  name: "conv1/scale"
  type: "Scale"
  bottom: "conv1"
  top: "conv1"
  scale_param {
    bias_term: true
  }
}
layer {
  name: "conv1/ReLU"
  type: "ReLU"
  bottom: "conv1"
  top: "conv1"
}
layer {
  name: "conv2_1_0"
  type: "Convolution"
  bottom: "conv1"
  top: "conv2_1_0"
  param {
    lr_mult: 1
    decay_mult: 1
  }
  param {
    lr_mult: 2
    decay_mult: 0
  }
  convolution_param {
    num_output: 16
    bias_term: true
    pad: 1
    kernel_size: 3
    stride: 1
    weight_filler {
      type: "msra"
    }
    bias_filler {
      type: "constant"
      value: 0
    }
  }
}
layer {
  name: "conv2_1_bn0"
  type: "BatchNorm"
  bottom: "conv2_1_0"
  top: "conv2_1_0"
  param {
    lr_mult: 0
    decay_mult: 0
  }
  param {
    lr_mult: 0
    decay_mult: 0
  }
  param {
    lr_mult: 0
    decay_mult: 0
  }
  batch_norm_param {
    use_global_stats: true
  }
}
layer {
  name: "conv2_1_scale0"
  type: "Scale"
  bottom: "conv2_1_0"
  top: "conv2_1_0"
  scale_param {
    bias_term: true
  }
}
layer {
  name: "conv2_1_ReLU0"
  type: "ReLU"
  bottom: "conv2_1_0"
  top: "conv2_1_0"
}
layer {
  name: "conv2_1_1"
  type: "Convolution"
  bottom: "conv2_1_0"
  top: "conv2_1_1"
  param {
    lr_mult: 1
    decay_mult: 1
  }
  param {
    lr_mult: 2
    decay_mult: 0
  }
  convolution_param {
    num_output: 16
    bias_term: true
    pad: 1
    kernel_size: 3
    stride: 1
    weight_filler {
      type: "msra"
    }
    bias_filler {
      type: "constant"
      value: 0
    }
  }
}
layer {
  name: "conv2_1bn1"
  type: "BatchNorm"
  bottom: "conv2_1_1"
  top: "conv2_1_1"
  param {
    lr_mult: 0
    decay_mult: 0
  }
  param {
    lr_mult: 0
    decay_mult: 0
  }
  param {
    lr_mult: 0
    decay_mult: 0
  }
  batch_norm_param {
    use_global_stats: true
  }
}
layer {
  name: "conv2_1_scale1"
  type: "Scale"
  bottom: "conv2_1_1"
  top: "conv2_1_1"
  scale_param {
    bias_term: true
  }
}
layer {
  name: "conv2_Eltwise_1"
  type: "Eltwise"
  bottom: "conv1"
  bottom: "conv2_1_1"
  top: "conv2_Eltwise_1"
  eltwise_param {
    operation: SUM
  }
}
layer {
  name: "conv2_1ReLU_1"
  type: "ReLU"
  bottom: "conv2_Eltwise_1"
  top: "conv2_Eltwise_1"
}
layer {
  name: "conv2_2_0"
  type: "Convolution"
  bottom: "conv2_Eltwise_1"
  top: "conv2_2_0"
  param {
    lr_mult: 1
    decay_mult: 1
  }
  param {
    lr_mult: 2
    decay_mult: 0
  }
  convolution_param {
    num_output: 16
    bias_term: true
    pad: 1
    kernel_size: 3
    stride: 1
    weight_filler {
      type: "msra"
    }
    bias_filler {
      type: "constant"
      value: 0
    }
  }
}
layer {
  name: "conv2_2_bn0"
  type: "BatchNorm"
  bottom: "conv2_2_0"
  top: "conv2_2_0"
  param {
    lr_mult: 0
    decay_mult: 0
  }
  param {
    lr_mult: 0
    decay_mult: 0
  }
  param {
    lr_mult: 0
    decay_mult: 0
  }
  batch_norm_param {
    use_global_stats: true
  }
}
layer {
  name: "conv2_2_scale0"
  type: "Scale"
  bottom: "conv2_2_0"
  top: "conv2_2_0"
  scale_param {
    bias_term: true
  }
}
layer {
  name: "conv2_2_ReLU0"
  type: "ReLU"
  bottom: "conv2_2_0"
  top: "conv2_2_0"
}
layer {
  name: "conv2_2_1"
  type: "Convolution"
  bottom: "conv2_2_0"
  top: "conv2_2_1"
  param {
    lr_mult: 1
    decay_mult: 1
  }
  param {
    lr_mult: 2
    decay_mult: 0
  }
  convolution_param {
    num_output: 16
    bias_term: true
    pad: 1
    kernel_size: 3
    stride: 1
    weight_filler {
      type: "msra"
    }
    bias_filler {
      type: "constant"
      value: 0
    }
  }
}
layer {
  name: "conv2_2bn1"
  type: "BatchNorm"
  bottom: "conv2_2_1"
  top: "conv2_2_1"
  param {
    lr_mult: 0
    decay_mult: 0
  }
  param {
    lr_mult: 0
    decay_mult: 0
  }
  param {
    lr_mult: 0
    decay_mult: 0
  }
  batch_norm_param {
    use_global_stats: true
  }
}
layer {
  name: "conv2_2_scale1"
  type: "Scale"
  bottom: "conv2_2_1"
  top: "conv2_2_1"
  scale_param {
    bias_term: true
  }
}
layer {
  name: "conv2_Eltwise_2"
  type: "Eltwise"
  bottom: "conv2_Eltwise_1"
  bottom: "conv2_2_1"
  top: "conv2_Eltwise_2"
  eltwise_param {
    operation: SUM
  }
}
layer {
  name: "conv2_2ReLU_1"
  type: "ReLU"
  bottom: "conv2_Eltwise_2"
  top: "conv2_Eltwise_2"
}
layer {
  name: "conv2_3_0"
  type: "Convolution"
  bottom: "conv2_Eltwise_2"
  top: "conv2_3_0"
  param {
    lr_mult: 1
    decay_mult: 1
  }
  param {
    lr_mult: 2
    decay_mult: 0
  }
  convolution_param {
    num_output: 16
    bias_term: true
    pad: 1
    kernel_size: 3
    stride: 1
    weight_filler {
      type: "msra"
    }
    bias_filler {
      type: "constant"
      value: 0
    }
  }
}
layer {
  name: "conv2_3_bn0"
  type: "BatchNorm"
  bottom: "conv2_3_0"
  top: "conv2_3_0"
  param {
    lr_mult: 0
    decay_mult: 0
  }
  param {
    lr_mult: 0
    decay_mult: 0
  }
  param {
    lr_mult: 0
    decay_mult: 0
  }
  batch_norm_param {
    use_global_stats: true
  }
}
layer {
  name: "conv2_3_scale0"
  type: "Scale"
  bottom: "conv2_3_0"
  top: "conv2_3_0"
  scale_param {
    bias_term: true
  }
}
layer {
  name: "conv2_3_ReLU0"
  type: "ReLU"
  bottom: "conv2_3_0"
  top: "conv2_3_0"
}
layer {
  name: "conv2_3_1"
  type: "Convolution"
  bottom: "conv2_3_0"
  top: "conv2_3_1"
  param {
    lr_mult: 1
    decay_mult: 1
  }
  param {
    lr_mult: 2
    decay_mult: 0
  }
  convolution_param {
    num_output: 16
    bias_term: true
    pad: 1
    kernel_size: 3
    stride: 1
    weight_filler {
      type: "msra"
    }
    bias_filler {
      type: "constant"
      value: 0
    }
  }
}
layer {
  name: "conv2_3bn1"
  type: "BatchNorm"
  bottom: "conv2_3_1"
  top: "conv2_3_1"
  param {
    lr_mult: 0
    decay_mult: 0
  }
  param {
    lr_mult: 0
    decay_mult: 0
  }
  param {
    lr_mult: 0
    decay_mult: 0
  }
  batch_norm_param {
    use_global_stats: true
  }
}
layer {
  name: "conv2_3_scale1"
  type: "Scale"
  bottom: "conv2_3_1"
  top: "conv2_3_1"
  scale_param {
    bias_term: true
  }
}
layer {
  name: "conv2_Eltwise_3"
  type: "Eltwise"
  bottom: "conv2_Eltwise_2"
  bottom: "conv2_3_1"
  top: "conv2_Eltwise_3"
  eltwise_param {
    operation: SUM
  }
}
layer {
  name: "conv2_3ReLU_1"
  type: "ReLU"
  bottom: "conv2_Eltwise_3"
  top: "conv2_Eltwise_3"
}
layer {
  name: "conv2_4_0"
  type: "Convolution"
  bottom: "conv2_Eltwise_3"
  top: "conv2_4_0"
  param {
    lr_mult: 1
    decay_mult: 1
  }
  param {
    lr_mult: 2
    decay_mult: 0
  }
  convolution_param {
    num_output: 16
    bias_term: true
    pad: 1
    kernel_size: 3
    stride: 1
    weight_filler {
      type: "msra"
    }
    bias_filler {
      type: "constant"
      value: 0
    }
  }
}
layer {
  name: "conv2_4_bn0"
  type: "BatchNorm"
  bottom: "conv2_4_0"
  top: "conv2_4_0"
  param {
    lr_mult: 0
    decay_mult: 0
  }
  param {
    lr_mult: 0
    decay_mult: 0
  }
  param {
    lr_mult: 0
    decay_mult: 0
  }
  batch_norm_param {
    use_global_stats: true
  }
}
layer {
  name: "conv2_4_scale0"
  type: "Scale"
  bottom: "conv2_4_0"
  top: "conv2_4_0"
  scale_param {
    bias_term: true
  }
}
layer {
  name: "conv2_4_ReLU0"
  type: "ReLU"
  bottom: "conv2_4_0"
  top: "conv2_4_0"
}
layer {
  name: "conv2_4_1"
  type: "Convolution"
  bottom: "conv2_4_0"
  top: "conv2_4_1"
  param {
    lr_mult: 1
    decay_mult: 1
  }
  param {
    lr_mult: 2
    decay_mult: 0
  }
  convolution_param {
    num_output: 16
    bias_term: true
    pad: 1
    kernel_size: 3
    stride: 1
    weight_filler {
      type: "msra"
    }
    bias_filler {
      type: "constant"
      value: 0
    }
  }
}
layer {
  name: "conv2_4bn1"
  type: "BatchNorm"
  bottom: "conv2_4_1"
  top: "conv2_4_1"
  param {
    lr_mult: 0
    decay_mult: 0
  }
  param {
    lr_mult: 0
    decay_mult: 0
  }
  param {
    lr_mult: 0
    decay_mult: 0
  }
  batch_norm_param {
    use_global_stats: true
  }
}
layer {
  name: "conv2_4_scale1"
  type: "Scale"
  bottom: "conv2_4_1"
  top: "conv2_4_1"
  scale_param {
    bias_term: true
  }
}
layer {
  name: "conv2_Eltwise_4"
  type: "Eltwise"
  bottom: "conv2_Eltwise_3"
  bottom: "conv2_4_1"
  top: "conv2_Eltwise_4"
  eltwise_param {
    operation: SUM
  }
}
layer {
  name: "conv2_4ReLU_1"
  type: "ReLU"
  bottom: "conv2_Eltwise_4"
  top: "conv2_Eltwise_4"
}
layer {
  name: "conv2_5_0"
  type: "Convolution"
  bottom: "conv2_Eltwise_4"
  top: "conv2_5_0"
  param {
    lr_mult: 1
    decay_mult: 1
  }
  param {
    lr_mult: 2
    decay_mult: 0
  }
  convolution_param {
    num_output: 16
    bias_term: true
    pad: 1
    kernel_size: 3
    stride: 1
    weight_filler {
      type: "msra"
    }
    bias_filler {
      type: "constant"
      value: 0
    }
  }
}
layer {
  name: "conv2_5_bn0"
  type: "BatchNorm"
  bottom: "conv2_5_0"
  top: "conv2_5_0"
  param {
    lr_mult: 0
    decay_mult: 0
  }
  param {
    lr_mult: 0
    decay_mult: 0
  }
  param {
    lr_mult: 0
    decay_mult: 0
  }
  batch_norm_param {
    use_global_stats: true
  }
}
layer {
  name: "conv2_5_scale0"
  type: "Scale"
  bottom: "conv2_5_0"
  top: "conv2_5_0"
  scale_param {
    bias_term: true
  }
}
layer {
  name: "conv2_5_ReLU0"
  type: "ReLU"
  bottom: "conv2_5_0"
  top: "conv2_5_0"
}
layer {
  name: "conv2_5_1"
  type: "Convolution"
  bottom: "conv2_5_0"
  top: "conv2_5_1"
  param {
    lr_mult: 1
    decay_mult: 1
  }
  param {
    lr_mult: 2
    decay_mult: 0
  }
  convolution_param {
    num_output: 16
    bias_term: true
    pad: 1
    kernel_size: 3
    stride: 1
    weight_filler {
      type: "msra"
    }
    bias_filler {
      type: "constant"
      value: 0
    }
  }
}
layer {
  name: "conv2_5bn1"
  type: "BatchNorm"
  bottom: "conv2_5_1"
  top: "conv2_5_1"
  param {
    lr_mult: 0
    decay_mult: 0
  }
  param {
    lr_mult: 0
    decay_mult: 0
  }
  param {
    lr_mult: 0
    decay_mult: 0
  }
  batch_norm_param {
    use_global_stats: true
  }
}
layer {
  name: "conv2_5_scale1"
  type: "Scale"
  bottom: "conv2_5_1"
  top: "conv2_5_1"
  scale_param {
    bias_term: true
  }
}
layer {
  name: "conv2_Eltwise_5"
  type: "Eltwise"
  bottom: "conv2_Eltwise_4"
  bottom: "conv2_5_1"
  top: "conv2_Eltwise_5"
  eltwise_param {
    operation: SUM
  }
}
layer {
  name: "conv2_5ReLU_1"
  type: "ReLU"
  bottom: "conv2_Eltwise_5"
  top: "conv2_Eltwise_5"
}
layer {
  name: "conv3_1_0"
  type: "Convolution"
  bottom: "conv2_Eltwise_5"
  top: "conv3_1_0"
  param {
    lr_mult: 1
    decay_mult: 1
  }
  param {
    lr_mult: 2
    decay_mult: 0
  }
  convolution_param {
    num_output: 32
    bias_term: true
    pad: 1
    kernel_size: 3
    stride: 2
    weight_filler {
      type: "msra"
    }
    bias_filler {
      type: "constant"
      value: 0
    }
  }
}
layer {
  name: "conv3_1_bn0"
  type: "BatchNorm"
  bottom: "conv3_1_0"
  top: "conv3_1_0"
  param {
    lr_mult: 0
    decay_mult: 0
  }
  param {
    lr_mult: 0
    decay_mult: 0
  }
  param {
    lr_mult: 0
    decay_mult: 0
  }
  batch_norm_param {
    use_global_stats: true
  }
}
layer {
  name: "conv3_1_scale0"
  type: "Scale"
  bottom: "conv3_1_0"
  top: "conv3_1_0"
  scale_param {
    bias_term: true
  }
}
layer {
  name: "conv3_1_ReLU0"
  type: "ReLU"
  bottom: "conv3_1_0"
  top: "conv3_1_0"
}
layer {
  name: "conv3_1_1"
  type: "Convolution"
  bottom: "conv3_1_0"
  top: "conv3_1_1"
  param {
    lr_mult: 1
    decay_mult: 1
  }
  param {
    lr_mult: 2
    decay_mult: 0
  }
  convolution_param {
    num_output: 32
    bias_term: true
    pad: 1
    kernel_size: 3
    stride: 1
    weight_filler {
      type: "msra"
    }
    bias_filler {
      type: "constant"
      value: 0
    }
  }
}
layer {
  name: "conv3_1bn1"
  type: "BatchNorm"
  bottom: "conv3_1_1"
  top: "conv3_1_1"
  param {
    lr_mult: 0
    decay_mult: 0
  }
  param {
    lr_mult: 0
    decay_mult: 0
  }
  param {
    lr_mult: 0
    decay_mult: 0
  }
  batch_norm_param {
    use_global_stats: true
  }
}
layer {
  name: "conv3_1_scale1"
  type: "Scale"
  bottom: "conv3_1_1"
  top: "conv3_1_1"
  scale_param {
    bias_term: true
  }
}
layer {
  name: "conv3_1_down"
  type: "Convolution"
  bottom: "conv2_Eltwise_5"
  top: "conv3_1_down"
  param {
    lr_mult: 1
    decay_mult: 1
  }
  param {
    lr_mult: 2
    decay_mult: 0
  }
  convolution_param {
    num_output: 32
    bias_term: true
    pad: 0
    kernel_size: 1
    stride: 2
    weight_filler {
      type: "msra"
    }
    bias_filler {
      type: "constant"
      value: 0
    }
  }
}
layer {
  name: "conv3_1_bn_down"
  type: "BatchNorm"
  bottom: "conv3_1_down"
  top: "conv3_1_down"
  param {
    lr_mult: 0
    decay_mult: 0
  }
  param {
    lr_mult: 0
    decay_mult: 0
  }
  param {
    lr_mult: 0
    decay_mult: 0
  }
  batch_norm_param {
    use_global_stats: true
  }
}
layer {
  name: "conv3_1_scale_down"
  type: "Scale"
  bottom: "conv3_1_down"
  top: "conv3_1_down"
  scale_param {
    bias_term: true
  }
}
layer {
  name: "conv3_Eltwise_1"
  type: "Eltwise"
  bottom: "conv3_1_1"
  bottom: "conv3_1_down"
  top: "conv3_Eltwise_1"
  eltwise_param {
    operation: SUM
  }
}
layer {
  name: "conv3_1ReLU_1"
  type: "ReLU"
  bottom: "conv3_Eltwise_1"
  top: "conv3_Eltwise_1"
}
layer {
  name: "conv3_2_0"
  type: "Convolution"
  bottom: "conv3_Eltwise_1"
  top: "conv3_2_0"
  param {
    lr_mult: 1
    decay_mult: 1
  }
  param {
    lr_mult: 2
    decay_mult: 0
  }
  convolution_param {
    num_output: 32
    bias_term: true
    pad: 1
    kernel_size: 3
    stride: 1
    weight_filler {
      type: "msra"
    }
    bias_filler {
      type: "constant"
      value: 0
    }
  }
}
layer {
  name: "conv3_2_bn0"
  type: "BatchNorm"
  bottom: "conv3_2_0"
  top: "conv3_2_0"
  param {
    lr_mult: 0
    decay_mult: 0
  }
  param {
    lr_mult: 0
    decay_mult: 0
  }
  param {
    lr_mult: 0
    decay_mult: 0
  }
  batch_norm_param {
    use_global_stats: true
  }
}
layer {
  name: "conv3_2_scale0"
  type: "Scale"
  bottom: "conv3_2_0"
  top: "conv3_2_0"
  scale_param {
    bias_term: true
  }
}
layer {
  name: "conv3_2_ReLU0"
  type: "ReLU"
  bottom: "conv3_2_0"
  top: "conv3_2_0"
}
layer {
  name: "conv3_2_1"
  type: "Convolution"
  bottom: "conv3_2_0"
  top: "conv3_2_1"
  param {
    lr_mult: 1
    decay_mult: 1
  }
  param {
    lr_mult: 2
    decay_mult: 0
  }
  convolution_param {
    num_output: 32
    bias_term: true
    pad: 1
    kernel_size: 3
    stride: 1
    weight_filler {
      type: "msra"
    }
    bias_filler {
      type: "constant"
      value: 0
    }
  }
}
layer {
  name: "conv3_2bn1"
  type: "BatchNorm"
  bottom: "conv3_2_1"
  top: "conv3_2_1"
  param {
    lr_mult: 0
    decay_mult: 0
  }
  param {
    lr_mult: 0
    decay_mult: 0
  }
  param {
    lr_mult: 0
    decay_mult: 0
  }
  batch_norm_param {
    use_global_stats: true
  }
}
layer {
  name: "conv3_2_scale1"
  type: "Scale"
  bottom: "conv3_2_1"
  top: "conv3_2_1"
  scale_param {
    bias_term: true
  }
}
layer {
  name: "conv3_Eltwise_2"
  type: "Eltwise"
  bottom: "conv3_Eltwise_1"
  bottom: "conv3_2_1"
  top: "conv3_Eltwise_2"
  eltwise_param {
    operation: SUM
  }
}
layer {
  name: "conv3_2ReLU_1"
  type: "ReLU"
  bottom: "conv3_Eltwise_2"
  top: "conv3_Eltwise_2"
}
layer {
  name: "conv3_3_0"
  type: "Convolution"
  bottom: "conv3_Eltwise_2"
  top: "conv3_3_0"
  param {
    lr_mult: 1
    decay_mult: 1
  }
  param {
    lr_mult: 2
    decay_mult: 0
  }
  convolution_param {
    num_output: 32
    bias_term: true
    pad: 1
    kernel_size: 3
    stride: 1
    weight_filler {
      type: "msra"
    }
    bias_filler {
      type: "constant"
      value: 0
    }
  }
}
layer {
  name: "conv3_3_bn0"
  type: "BatchNorm"
  bottom: "conv3_3_0"
  top: "conv3_3_0"
  param {
    lr_mult: 0
    decay_mult: 0
  }
  param {
    lr_mult: 0
    decay_mult: 0
  }
  param {
    lr_mult: 0
    decay_mult: 0
  }
  batch_norm_param {
    use_global_stats: true
  }
}
layer {
  name: "conv3_3_scale0"
  type: "Scale"
  bottom: "conv3_3_0"
  top: "conv3_3_0"
  scale_param {
    bias_term: true
  }
}
layer {
  name: "conv3_3_ReLU0"
  type: "ReLU"
  bottom: "conv3_3_0"
  top: "conv3_3_0"
}
layer {
  name: "conv3_3_1"
  type: "Convolution"
  bottom: "conv3_3_0"
  top: "conv3_3_1"
  param {
    lr_mult: 1
    decay_mult: 1
  }
  param {
    lr_mult: 2
    decay_mult: 0
  }
  convolution_param {
    num_output: 32
    bias_term: true
    pad: 1
    kernel_size: 3
    stride: 1
    weight_filler {
      type: "msra"
    }
    bias_filler {
      type: "constant"
      value: 0
    }
  }
}
layer {
  name: "conv3_3bn1"
  type: "BatchNorm"
  bottom: "conv3_3_1"
  top: "conv3_3_1"
  param {
    lr_mult: 0
    decay_mult: 0
  }
  param {
    lr_mult: 0
    decay_mult: 0
  }
  param {
    lr_mult: 0
    decay_mult: 0
  }
  batch_norm_param {
    use_global_stats: true
  }
}
layer {
  name: "conv3_3_scale1"
  type: "Scale"
  bottom: "conv3_3_1"
  top: "conv3_3_1"
  scale_param {
    bias_term: true
  }
}
layer {
  name: "conv3_Eltwise_3"
  type: "Eltwise"
  bottom: "conv3_Eltwise_2"
  bottom: "conv3_3_1"
  top: "conv3_Eltwise_3"
  eltwise_param {
    operation: SUM
  }
}
layer {
  name: "conv3_3ReLU_1"
  type: "ReLU"
  bottom: "conv3_Eltwise_3"
  top: "conv3_Eltwise_3"
}
layer {
  name: "conv3_4_0"
  type: "Convolution"
  bottom: "conv3_Eltwise_3"
  top: "conv3_4_0"
  param {
    lr_mult: 1
    decay_mult: 1
  }
  param {
    lr_mult: 2
    decay_mult: 0
  }
  convolution_param {
    num_output: 32
    bias_term: true
    pad: 1
    kernel_size: 3
    stride: 1
    weight_filler {
      type: "msra"
    }
    bias_filler {
      type: "constant"
      value: 0
    }
  }
}
layer {
  name: "conv3_4_bn0"
  type: "BatchNorm"
  bottom: "conv3_4_0"
  top: "conv3_4_0"
  param {
    lr_mult: 0
    decay_mult: 0
  }
  param {
    lr_mult: 0
    decay_mult: 0
  }
  param {
    lr_mult: 0
    decay_mult: 0
  }
  batch_norm_param {
    use_global_stats: true
  }
}
layer {
  name: "conv3_4_scale0"
  type: "Scale"
  bottom: "conv3_4_0"
  top: "conv3_4_0"
  scale_param {
    bias_term: true
  }
}
layer {
  name: "conv3_4_ReLU0"
  type: "ReLU"
  bottom: "conv3_4_0"
  top: "conv3_4_0"
}
layer {
  name: "conv3_4_1"
  type: "Convolution"
  bottom: "conv3_4_0"
  top: "conv3_4_1"
  param {
    lr_mult: 1
    decay_mult: 1
  }
  param {
    lr_mult: 2
    decay_mult: 0
  }
  convolution_param {
    num_output: 32
    bias_term: true
    pad: 1
    kernel_size: 3
    stride: 1
    weight_filler {
      type: "msra"
    }
    bias_filler {
      type: "constant"
      value: 0
    }
  }
}
layer {
  name: "conv3_4bn1"
  type: "BatchNorm"
  bottom: "conv3_4_1"
  top: "conv3_4_1"
  param {
    lr_mult: 0
    decay_mult: 0
  }
  param {
    lr_mult: 0
    decay_mult: 0
  }
  param {
    lr_mult: 0
    decay_mult: 0
  }
  batch_norm_param {
    use_global_stats: true
  }
}
layer {
  name: "conv3_4_scale1"
  type: "Scale"
  bottom: "conv3_4_1"
  top: "conv3_4_1"
  scale_param {
    bias_term: true
  }
}
layer {
  name: "conv3_Eltwise_4"
  type: "Eltwise"
  bottom: "conv3_Eltwise_3"
  bottom: "conv3_4_1"
  top: "conv3_Eltwise_4"
  eltwise_param {
    operation: SUM
  }
}
layer {
  name: "conv3_4ReLU_1"
  type: "ReLU"
  bottom: "conv3_Eltwise_4"
  top: "conv3_Eltwise_4"
}
layer {
  name: "conv3_5_0"
  type: "Convolution"
  bottom: "conv3_Eltwise_4"
  top: "conv3_5_0"
  param {
    lr_mult: 1
    decay_mult: 1
  }
  param {
    lr_mult: 2
    decay_mult: 0
  }
  convolution_param {
    num_output: 32
    bias_term: true
    pad: 1
    kernel_size: 3
    stride: 1
    weight_filler {
      type: "msra"
    }
    bias_filler {
      type: "constant"
      value: 0
    }
  }
}
layer {
  name: "conv3_5_bn0"
  type: "BatchNorm"
  bottom: "conv3_5_0"
  top: "conv3_5_0"
  param {
    lr_mult: 0
    decay_mult: 0
  }
  param {
    lr_mult: 0
    decay_mult: 0
  }
  param {
    lr_mult: 0
    decay_mult: 0
  }
  batch_norm_param {
    use_global_stats: true
  }
}
layer {
  name: "conv3_5_scale0"
  type: "Scale"
  bottom: "conv3_5_0"
  top: "conv3_5_0"
  scale_param {
    bias_term: true
  }
}
layer {
  name: "conv3_5_ReLU0"
  type: "ReLU"
  bottom: "conv3_5_0"
  top: "conv3_5_0"
}
layer {
  name: "conv3_5_1"
  type: "Convolution"
  bottom: "conv3_5_0"
  top: "conv3_5_1"
  param {
    lr_mult: 1
    decay_mult: 1
  }
  param {
    lr_mult: 2
    decay_mult: 0
  }
  convolution_param {
    num_output: 32
    bias_term: true
    pad: 1
    kernel_size: 3
    stride: 1
    weight_filler {
      type: "msra"
    }
    bias_filler {
      type: "constant"
      value: 0
    }
  }
}
layer {
  name: "conv3_5bn1"
  type: "BatchNorm"
  bottom: "conv3_5_1"
  top: "conv3_5_1"
  param {
    lr_mult: 0
    decay_mult: 0
  }
  param {
    lr_mult: 0
    decay_mult: 0
  }
  param {
    lr_mult: 0
    decay_mult: 0
  }
  batch_norm_param {
    use_global_stats: true
  }
}
layer {
  name: "conv3_5_scale1"
  type: "Scale"
  bottom: "conv3_5_1"
  top: "conv3_5_1"
  scale_param {
    bias_term: true
  }
}
layer {
  name: "conv3_Eltwise_5"
  type: "Eltwise"
  bottom: "conv3_Eltwise_4"
  bottom: "conv3_5_1"
  top: "conv3_Eltwise_5"
  eltwise_param {
    operation: SUM
  }
}
layer {
  name: "conv3_5ReLU_1"
  type: "ReLU"
  bottom: "conv3_Eltwise_5"
  top: "conv3_Eltwise_5"
}
layer {
  name: "conv4_1_0"
  type: "Convolution"
  bottom: "conv3_Eltwise_5"
  top: "conv4_1_0"
  param {
    lr_mult: 1
    decay_mult: 1
  }
  param {
    lr_mult: 2
    decay_mult: 0
  }
  convolution_param {
    num_output: 64
    bias_term: true
    pad: 1
    kernel_size: 3
    stride: 2
    weight_filler {
      type: "msra"
    }
    bias_filler {
      type: "constant"
      value: 0
    }
  }
}
layer {
  name: "conv4_1_bn0"
  type: "BatchNorm"
  bottom: "conv4_1_0"
  top: "conv4_1_0"
  param {
    lr_mult: 0
    decay_mult: 0
  }
  param {
    lr_mult: 0
    decay_mult: 0
  }
  param {
    lr_mult: 0
    decay_mult: 0
  }
  batch_norm_param {
    use_global_stats: true
  }
}
layer {
  name: "conv4_1_scale0"
  type: "Scale"
  bottom: "conv4_1_0"
  top: "conv4_1_0"
  scale_param {
    bias_term: true
  }
}
layer {
  name: "conv4_1_ReLU0"
  type: "ReLU"
  bottom: "conv4_1_0"
  top: "conv4_1_0"
}
layer {
  name: "conv4_1_1"
  type: "Convolution"
  bottom: "conv4_1_0"
  top: "conv4_1_1"
  param {
    lr_mult: 1
    decay_mult: 1
  }
  param {
    lr_mult: 2
    decay_mult: 0
  }
  convolution_param {
    num_output: 64
    bias_term: true
    pad: 1
    kernel_size: 3
    stride: 1
    weight_filler {
      type: "msra"
    }
    bias_filler {
      type: "constant"
      value: 0
    }
  }
}
layer {
  name: "conv4_1bn1"
  type: "BatchNorm"
  bottom: "conv4_1_1"
  top: "conv4_1_1"
  param {
    lr_mult: 0
    decay_mult: 0
  }
  param {
    lr_mult: 0
    decay_mult: 0
  }
  param {
    lr_mult: 0
    decay_mult: 0
  }
  batch_norm_param {
    use_global_stats: true
  }
}
layer {
  name: "conv4_1_scale1"
  type: "Scale"
  bottom: "conv4_1_1"
  top: "conv4_1_1"
  scale_param {
    bias_term: true
  }
}
layer {
  name: "conv4_1_down"
  type: "Convolution"
  bottom: "conv3_Eltwise_5"
  top: "conv4_1_down"
  param {
    lr_mult: 1
    decay_mult: 1
  }
  param {
    lr_mult: 2
    decay_mult: 0
  }
  convolution_param {
    num_output: 64
    bias_term: true
    pad: 0
    kernel_size: 1
    stride: 2
    weight_filler {
      type: "msra"
    }
    bias_filler {
      type: "constant"
      value: 0
    }
  }
}
layer {
  name: "conv4_1_bn_down"
  type: "BatchNorm"
  bottom: "conv4_1_down"
  top: "conv4_1_down"
  param {
    lr_mult: 0
    decay_mult: 0
  }
  param {
    lr_mult: 0
    decay_mult: 0
  }
  param {
    lr_mult: 0
    decay_mult: 0
  }
  batch_norm_param {
    use_global_stats: true
  }
}
layer {
  name: "conv4_1_scale_down"
  type: "Scale"
  bottom: "conv4_1_down"
  top: "conv4_1_down"
  scale_param {
    bias_term: true
  }
}
layer {
  name: "conv4_Eltwise_1"
  type: "Eltwise"
  bottom: "conv4_1_1"
  bottom: "conv4_1_down"
  top: "conv4_Eltwise_1"
  eltwise_param {
    operation: SUM
  }
}
layer {
  name: "conv4_1ReLU_1"
  type: "ReLU"
  bottom: "conv4_Eltwise_1"
  top: "conv4_Eltwise_1"
}
layer {
  name: "conv4_2_0"
  type: "Convolution"
  bottom: "conv4_Eltwise_1"
  top: "conv4_2_0"
  param {
    lr_mult: 1
    decay_mult: 1
  }
  param {
    lr_mult: 2
    decay_mult: 0
  }
  convolution_param {
    num_output: 64
    bias_term: true
    pad: 1
    kernel_size: 3
    stride: 1
    weight_filler {
      type: "msra"
    }
    bias_filler {
      type: "constant"
      value: 0
    }
  }
}
layer {
  name: "conv4_2_bn0"
  type: "BatchNorm"
  bottom: "conv4_2_0"
  top: "conv4_2_0"
  param {
    lr_mult: 0
    decay_mult: 0
  }
  param {
    lr_mult: 0
    decay_mult: 0
  }
  param {
    lr_mult: 0
    decay_mult: 0
  }
  batch_norm_param {
    use_global_stats: true
  }
}
layer {
  name: "conv4_2_scale0"
  type: "Scale"
  bottom: "conv4_2_0"
  top: "conv4_2_0"
  scale_param {
    bias_term: true
  }
}
layer {
  name: "conv4_2_ReLU0"
  type: "ReLU"
  bottom: "conv4_2_0"
  top: "conv4_2_0"
}
layer {
  name: "conv4_2_1"
  type: "Convolution"
  bottom: "conv4_2_0"
  top: "conv4_2_1"
  param {
    lr_mult: 1
    decay_mult: 1
  }
  param {
    lr_mult: 2
    decay_mult: 0
  }
  convolution_param {
    num_output: 64
    bias_term: true
    pad: 1
    kernel_size: 3
    stride: 1
    weight_filler {
      type: "msra"
    }
    bias_filler {
      type: "constant"
      value: 0
    }
  }
}
layer {
  name: "conv4_2bn1"
  type: "BatchNorm"
  bottom: "conv4_2_1"
  top: "conv4_2_1"
  param {
    lr_mult: 0
    decay_mult: 0
  }
  param {
    lr_mult: 0
    decay_mult: 0
  }
  param {
    lr_mult: 0
    decay_mult: 0
  }
  batch_norm_param {
    use_global_stats: true
  }
}
layer {
  name: "conv4_2_scale1"
  type: "Scale"
  bottom: "conv4_2_1"
  top: "conv4_2_1"
  scale_param {
    bias_term: true
  }
}
layer {
  name: "conv4_Eltwise_2"
  type: "Eltwise"
  bottom: "conv4_Eltwise_1"
  bottom: "conv4_2_1"
  top: "conv4_Eltwise_2"
  eltwise_param {
    operation: SUM
  }
}
layer {
  name: "conv4_2ReLU_1"
  type: "ReLU"
  bottom: "conv4_Eltwise_2"
  top: "conv4_Eltwise_2"
}
…
I0927 00:20:24.205801 19128 net.cpp:194] Memory required for data: 46981240
I0927 00:20:24.205809 19128 layer_factory.hpp:77] Creating layer conv3_Eltwise_2
I0927 00:20:24.205818 19128 net.cpp:128] Creating Layer conv3_Eltwise_2
I0927 00:20:24.205823 19128 net.cpp:558] conv3_Eltwise_2 <- conv3_Eltwise_1_conv3_1ReLU_1_0_split_1
I0927 00:20:24.205828 19128 net.cpp:558] conv3_Eltwise_2 <- conv3_2_1
I0927 00:20:24.205834 19128 net.cpp:522] conv3_Eltwise_2 -> conv3_Eltwise_2
I0927 00:20:24.205863 19128 net.cpp:172] Setting up conv3_Eltwise_2
I0927 00:20:24.205870 19128 net.cpp:186] Top shape: 10 32 16 16 (81920)
I0927 00:20:24.205874 19128 net.cpp:194] Memory required for data: 47308920
I0927 00:20:24.205878 19128 layer_factory.hpp:77] Creating layer conv3_2ReLU_1
I0927 00:20:24.205884 19128 net.cpp:128] Creating Layer conv3_2ReLU_1
I0927 00:20:24.205888 19128 net.cpp:558] conv3_2ReLU_1 <- conv3_Eltwise_2
I0927 00:20:24.205898 19128 net.cpp:509] conv3_2ReLU_1 -> conv3_Eltwise_2 (in-place)
I0927 00:20:24.207132 19128 net.cpp:172] Setting up conv3_2ReLU_1
I0927 00:20:24.207154 19128 net.cpp:186] Top shape: 10 32 16 16 (81920)
I0927 00:20:24.207159 19128 net.cpp:194] Memory required for data: 47636600
I0927 00:20:24.207165 19128 layer_factory.hpp:77] Creating layer conv3_Eltwise_2_conv3_2ReLU_1_0_split
I0927 00:20:24.207176 19128 net.cpp:128] Creating Layer conv3_Eltwise_2_conv3_2ReLU_1_0_split
I0927 00:20:24.207181 19128 net.cpp:558] conv3_Eltwise_2_conv3_2ReLU_1_0_split <- conv3_Eltwise_2
I0927 00:20:24.207192 19128 net.cpp:522] conv3_Eltwise_2_conv3_2ReLU_1_0_split -> conv3_Eltwise_2_conv3_2ReLU_1_0_split_0
I0927 00:20:24.207204 19128 net.cpp:522] conv3_Eltwise_2_conv3_2ReLU_1_0_split -> conv3_Eltwise_2_conv3_2ReLU_1_0_split_1
I0927 00:20:24.207267 19128 net.cpp:172] Setting up conv3_Eltwise_2_conv3_2ReLU_1_0_split
I0927 00:20:24.207278 19128 net.cpp:186] Top shape: 10 32 16 16 (81920)
I0927 00:20:24.207283 19128 net.cpp:186] Top shape: 10 32 16 16 (81920)
I0927 00:20:24.207288 19128 net.cpp:194] Memory required for data: 48291960
I0927 00:20:24.207291 19128 layer_factory.hpp:77] Creating layer conv3_3_0
I0927 00:20:24.207305 19128 net.cpp:128] Creating Layer conv3_3_0
I0927 00:20:24.207310 19128 net.cpp:558] conv3_3_0 <- conv3_Eltwise_2_conv3_2ReLU_1_0_split_0
I0927 00:20:24.207320 19128 net.cpp:522] conv3_3_0 -> conv3_3_0
I0927 00:20:24.213868 19128 net.cpp:172] Setting up conv3_3_0
I0927 00:20:24.213896 19128 net.cpp:186] Top shape: 10 32 16 16 (81920)
I0927 00:20:24.213901 19128 net.cpp:194] Memory required for data: 48619640
I0927 00:20:24.213915 19128 layer_factory.hpp:77] Creating layer conv3_3_bn0
I0927 00:20:24.213927 19128 net.cpp:128] Creating Layer conv3_3_bn0
I0927 00:20:24.213932 19128 net.cpp:558] conv3_3_bn0 <- conv3_3_0
I0927 00:20:24.213946 19128 net.cpp:509] conv3_3_bn0 -> conv3_3_0 (in-place)
I0927 00:20:24.214252 19128 net.cpp:172] Setting up conv3_3_bn0
I0927 00:20:24.214260 19128 net.cpp:186] Top shape: 10 32 16 16 (81920)
I0927 00:20:24.214264 19128 net.cpp:194] Memory required for data: 48947320
I0927 00:20:24.214274 19128 layer_factory.hpp:77] Creating layer conv3_3_scale0
I0927 00:20:24.214282 19128 net.cpp:128] Creating Layer conv3_3_scale0
I0927 00:20:24.214285 19128 net.cpp:558] conv3_3_scale0 <- conv3_3_0
I0927 00:20:24.214296 19128 net.cpp:509] conv3_3_scale0 -> conv3_3_0 (in-place)
I0927 00:20:24.214349 19128 layer_factory.hpp:77] Creating layer conv3_3_scale0
I0927 00:20:24.214520 19128 net.cpp:172] Setting up conv3_3_scale0
I0927 00:20:24.214529 19128 net.cpp:186] Top shape: 10 32 16 16 (81920)
I0927 00:20:24.214532 19128 net.cpp:194] Memory required for data: 49275000
I0927 00:20:24.214540 19128 layer_factory.hpp:77] Creating layer conv3_3_ReLU0
I0927 00:20:24.214547 19128 net.cpp:128] Creating Layer conv3_3_ReLU0
I0927 00:20:24.214551 19128 net.cpp:558] conv3_3_ReLU0 <- conv3_3_0
I0927 00:20:24.214560 19128 net.cpp:509] conv3_3_ReLU0 -> conv3_3_0 (in-place)
I0927 00:20:24.215919 19128 net.cpp:172] Setting up conv3_3_ReLU0
I0927 00:20:24.215939 19128 net.cpp:186] Top shape: 10 32 16 16 (81920)
I0927 00:20:24.215943 19128 net.cpp:194] Memory required for data: 49602680
I0927 00:20:24.215948 19128 layer_factory.hpp:77] Creating layer conv3_3_1
I0927 00:20:24.215961 19128 net.cpp:128] Creating Layer conv3_3_1
I0927 00:20:24.215967 19128 net.cpp:558] conv3_3_1 <- conv3_3_0
I0927 00:20:24.215977 19128 net.cpp:522] conv3_3_1 -> conv3_3_1
I0927 00:20:24.222718 19128 net.cpp:172] Setting up conv3_3_1
I0927 00:20:24.222744 19128 net.cpp:186] Top shape: 10 32 16 16 (81920)
I0927 00:20:24.222749 19128 net.cpp:194] Memory required for data: 49930360
I0927 00:20:24.222759 19128 layer_factory.hpp:77] Creating layer conv3_3bn1
I0927 00:20:24.222771 19128 net.cpp:128] Creating Layer conv3_3bn1
I0927 00:20:24.222776 19128 net.cpp:558] conv3_3bn1 <- conv3_3_1
I0927 00:20:24.222790 19128 net.cpp:509] conv3_3bn1 -> conv3_3_1 (in-place)
I0927 00:20:24.223114 19128 net.cpp:172] Setting up conv3_3bn1
I0927 00:20:24.223121 19128 net.cpp:186] Top shape: 10 32 16 16 (81920)
I0927 00:20:24.223140 19128 net.cpp:194] Memory required for data: 50258040
I0927 00:20:24.223152 19128 layer_factory.hpp:77] Creating layer conv3_3_scale1
I0927 00:20:24.223160 19128 net.cpp:128] Creating Layer conv3_3_scale1
I0927 00:20:24.223165 19128 net.cpp:558] conv3_3_scale1 <- conv3_3_1
I0927 00:20:24.223171 19128 net.cpp:509] conv3_3_scale1 -> conv3_3_1 (in-place)
I0927 00:20:24.223228 19128 layer_factory.hpp:77] Creating layer conv3_3_scale1
I0927 00:20:24.223403 19128 net.cpp:172] Setting up conv3_3_scale1
I0927 00:20:24.223424 19128 net.cpp:186] Top shape: 10 32 16 16 (81920)
I0927 00:20:24.223428 19128 net.cpp:194] Memory required for data: 50585720
I0927 00:20:24.223438 19128 layer_factory.hpp:77] Creating layer conv3_Eltwise_3
I0927 00:20:24.223448 19128 net.cpp:128] Creating Layer conv3_Eltwise_3
I0927 00:20:24.223453 19128 net.cpp:558] conv3_Eltwise_3 <- conv3_Eltwise_2_conv3_2ReLU_1_0_split_1
I0927 00:20:24.223459 19128 net.cpp:558] conv3_Eltwise_3 <- conv3_3_1
I0927 00:20:24.223465 19128 net.cpp:522] conv3_Eltwise_3 -> conv3_Eltwise_3
I0927 00:20:24.223495 19128 net.cpp:172] Setting up conv3_Eltwise_3
I0927 00:20:24.223501 19128 net.cpp:186] Top shape: 10 32 16 16 (81920)
I0927 00:20:24.223505 19128 net.cpp:194] Memory required for data: 50913400
I0927 00:20:24.223510 19128 layer_factory.hpp:77] Creating layer conv3_3ReLU_1
I0927 00:20:24.223516 19128 net.cpp:128] Creating Layer conv3_3ReLU_1
I0927 00:20:24.223520 19128 net.cpp:558] conv3_3ReLU_1 <- conv3_Eltwise_3
I0927 00:20:24.223528 19128 net.cpp:509] conv3_3ReLU_1 -> conv3_Eltwise_3 (in-place)
I0927 00:20:24.224730 19128 net.cpp:172] Setting up conv3_3ReLU_1
I0927 00:20:24.224753 19128 net.cpp:186] Top shape: 10 32 16 16 (81920)
I0927 00:20:24.224757 19128 net.cpp:194] Memory required for data: 51241080
I0927 00:20:24.224763 19128 layer_factory.hpp:77] Creating layer conv3_Eltwise_3_conv3_3ReLU_1_0_split
I0927 00:20:24.224771 19128 net.cpp:128] Creating Layer conv3_Eltwise_3_conv3_3ReLU_1_0_split
I0927 00:20:24.224776 19128 net.cpp:558] conv3_Eltwise_3_conv3_3ReLU_1_0_split <- conv3_Eltwise_3
I0927 00:20:24.224787 19128 net.cpp:522] conv3_Eltwise_3_conv3_3ReLU_1_0_split -> conv3_Eltwise_3_conv3_3ReLU_1_0_split_0
I0927 00:20:24.224797 19128 net.cpp:522] conv3_Eltwise_3_conv3_3ReLU_1_0_split -> conv3_Eltwise_3_conv3_3ReLU_1_0_split_1
I0927 00:20:24.224864 19128 net.cpp:172] Setting up conv3_Eltwise_3_conv3_3ReLU_1_0_split
I0927 00:20:24.224877 19128 net.cpp:186] Top shape: 10 32 16 16 (81920)
I0927 00:20:24.224884 19128 net.cpp:186] Top shape: 10 32 16 16 (81920)
I0927 00:20:24.224887 19128 net.cpp:194] Memory required for data: 51896440
I0927 00:20:24.224891 19128 layer_factory.hpp:77] Creating layer conv3_4_0
I0927 00:20:24.224905 19128 net.cpp:128] Creating Layer conv3_4_0
I0927 00:20:24.224910 19128 net.cpp:558] conv3_4_0 <- conv3_Eltwise_3_conv3_3ReLU_1_0_split_0
I0927 00:20:24.224920 19128 net.cpp:522] conv3_4_0 -> conv3_4_0
I0927 00:20:24.231489 19128 net.cpp:172] Setting up conv3_4_0
I0927 00:20:24.231515 19128 net.cpp:186] Top shape: 10 32 16 16 (81920)
I0927 00:20:24.231520 19128 net.cpp:194] Memory required for data: 52224120
I0927 00:20:24.231530 19128 layer_factory.hpp:77] Creating layer conv3_4_bn0
I0927 00:20:24.231544 19128 net.cpp:128] Creating Layer conv3_4_bn0
I0927 00:20:24.231549 19128 net.cpp:558] conv3_4_bn0 <- conv3_4_0
I0927 00:20:24.231559 19128 net.cpp:509] conv3_4_bn0 -> conv3_4_0 (in-place)
I0927 00:20:24.231859 19128 net.cpp:172] Setting up conv3_4_bn0
I0927 00:20:24.231873 19128 net.cpp:186] Top shape: 10 32 16 16 (81920)
I0927 00:20:24.231878 19128 net.cpp:194] Memory required for data: 52551800
I0927 00:20:24.231902 19128 layer_factory.hpp:77] Creating layer conv3_4_scale0
I0927 00:20:24.231910 19128 net.cpp:128] Creating Layer conv3_4_scale0
I0927 00:20:24.231914 19128 net.cpp:558] conv3_4_scale0 <- conv3_4_0
I0927 00:20:24.231922 19128 net.cpp:509] conv3_4_scale0 -> conv3_4_0 (in-place)
I0927 00:20:24.231977 19128 layer_factory.hpp:77] Creating layer conv3_4_scale0
I0927 00:20:24.232151 19128 net.cpp:172] Setting up conv3_4_scale0
I0927 00:20:24.232177 19128 net.cpp:186] Top shape: 10 32 16 16 (81920)
I0927 00:20:24.232182 19128 net.cpp:194] Memory required for data: 52879480
I0927 00:20:24.232190 19128 layer_factory.hpp:77] Creating layer conv3_4_ReLU0
I0927 00:20:24.232197 19128 net.cpp:128] Creating Layer conv3_4_ReLU0
I0927 00:20:24.232203 19128 net.cpp:558] conv3_4_ReLU0 <- conv3_4_0
I0927 00:20:24.232208 19128 net.cpp:509] conv3_4_ReLU0 -> conv3_4_0 (in-place)
I0927 00:20:24.233537 19128 net.cpp:172] Setting up conv3_4_ReLU0
I0927 00:20:24.233559 19128 net.cpp:186] Top shape: 10 32 16 16 (81920)
I0927 00:20:24.233563 19128 net.cpp:194] Memory required for data: 53207160
I0927 00:20:24.233568 19128 layer_factory.hpp:77] Creating layer conv3_4_1
I0927 00:20:24.233585 19128 net.cpp:128] Creating Layer conv3_4_1
I0927 00:20:24.233592 19128 net.cpp:558] conv3_4_1 <- conv3_4_0
I0927 00:20:24.233603 19128 net.cpp:522] conv3_4_1 -> conv3_4_1
I0927 00:20:24.240211 19128 net.cpp:172] Setting up conv3_4_1
I0927 00:20:24.240237 19128 net.cpp:186] Top shape: 10 32 16 16 (81920)
I0927 00:20:24.240242 19128 net.cpp:194] Memory required for data: 53534840
I0927 00:20:24.240255 19128 layer_factory.hpp:77] Creating layer conv3_4bn1
I0927 00:20:24.240264 19128 net.cpp:128] Creating Layer conv3_4bn1
I0927 00:20:24.240269 19128 net.cpp:558] conv3_4bn1 <- conv3_4_1
I0927 00:20:24.240276 19128 net.cpp:509] conv3_4bn1 -> conv3_4_1 (in-place)
I0927 00:20:24.240576 19128 net.cpp:172] Setting up conv3_4bn1
I0927 00:20:24.240586 19128 net.cpp:186] Top shape: 10 32 16 16 (81920)
I0927 00:20:24.240591 19128 net.cpp:194] Memory required for data: 53862520
I0927 00:20:24.240600 19128 layer_factory.hpp:77] Creating layer conv3_4_scale1
I0927 00:20:24.240610 19128 net.cpp:128] Creating Layer conv3_4_scale1
I0927 00:20:24.240615 19128 net.cpp:558] conv3_4_scale1 <- conv3_4_1
I0927 00:20:24.240620 19128 net.cpp:509] conv3_4_scale1 -> conv3_4_1 (in-place)
I0927 00:20:24.240679 19128 layer_factory.hpp:77] Creating layer conv3_4_scale1
I0927 00:20:24.240849 19128 net.cpp:172] Setting up conv3_4_scale1
I0927 00:20:24.240857 19128 net.cpp:186] Top shape: 10 32 16 16 (81920)
I0927 00:20:24.240861 19128 net.cpp:194] Memory required for data: 54190200
I0927 00:20:24.240869 19128 layer_factory.hpp:77] Creating layer conv3_Eltwise_4
I0927 00:20:24.240878 19128 net.cpp:128] Creating Layer conv3_Eltwise_4
I0927 00:20:24.240883 19128 net.cpp:558] conv3_Eltwise_4 <- conv3_Eltwise_3_conv3_3ReLU_1_0_split_1
I0927 00:20:24.240887 19128 net.cpp:558] conv3_Eltwise_4 <- conv3_4_1
I0927 00:20:24.240893 19128 net.cpp:522] conv3_Eltwise_4 -> conv3_Eltwise_4
I0927 00:20:24.240918 19128 net.cpp:172] Setting up conv3_Eltwise_4
I0927 00:20:24.240926 19128 net.cpp:186] Top shape: 10 32 16 16 (81920)
I0927 00:20:24.240929 19128 net.cpp:194] Memory required for data: 54517880
I0927 00:20:24.240933 19128 layer_factory.hpp:77] Creating layer conv3_4ReLU_1
I0927 00:20:24.240942 19128 net.cpp:128] Creating Layer conv3_4ReLU_1
I0927 00:20:24.240947 19128 net.cpp:558] conv3_4ReLU_1 <- conv3_Eltwise_4
I0927 00:20:24.240955 19128 net.cpp:509] conv3_4ReLU_1 -> conv3_Eltwise_4 (in-place)
I0927 00:20:24.241209 19128 net.cpp:172] Setting up conv3_4ReLU_1
I0927 00:20:24.241225 19128 net.cpp:186] Top shape: 10 32 16 16 (81920)
I0927 00:20:24.241230 19128 net.cpp:194] Memory required for data: 54845560
I0927 00:20:24.241233 19128 layer_factory.hpp:77] Creating layer conv3_Eltwise_4_conv3_4ReLU_1_0_split
I0927 00:20:24.241243 19128 net.cpp:128] Creating Layer conv3_Eltwise_4_conv3_4ReLU_1_0_split
I0927 00:20:24.241247 19128 net.cpp:558] conv3_Eltwise_4_conv3_4ReLU_1_0_split <- conv3_Eltwise_4
I0927 00:20:24.241256 19128 net.cpp:522] conv3_Eltwise_4_conv3_4ReLU_1_0_split -> conv3_Eltwise_4_conv3_4ReLU_1_0_split_0
I0927 00:20:24.241264 19128 net.cpp:522] conv3_Eltwise_4_conv3_4ReLU_1_0_split -> conv3_Eltwise_4_conv3_4ReLU_1_0_split_1
I0927 00:20:24.241323 19128 net.cpp:172] Setting up conv3_Eltwise_4_conv3_4ReLU_1_0_split
I0927 00:20:24.241333 19128 net.cpp:186] Top shape: 10 32 16 16 (81920)
I0927 00:20:24.241338 19128 net.cpp:186] Top shape: 10 32 16 16 (81920)
I0927 00:20:24.241358 19128 net.cpp:194] Memory required for data: 55500920
I0927 00:20:24.241363 19128 layer_factory.hpp:77] Creating layer conv3_5_0
I0927 00:20:24.241374 19128 net.cpp:128] Creating Layer conv3_5_0
I0927 00:20:24.241379 19128 net.cpp:558] conv3_5_0 <- conv3_Eltwise_4_conv3_4ReLU_1_0_split_0
I0927 00:20:24.241389 19128 net.cpp:522] conv3_5_0 -> conv3_5_0
I0927 00:20:24.246786 19128 net.cpp:172] Setting up conv3_5_0
I0927 00:20:24.246824 19128 net.cpp:186] Top shape: 10 32 16 16 (81920)
I0927 00:20:24.246829 19128 net.cpp:194] Memory required for data: 55828600
I0927 00:20:24.246839 19128 layer_factory.hpp:77] Creating layer conv3_5_bn0
I0927 00:20:24.246847 19128 net.cpp:128] Creating Layer conv3_5_bn0
I0927 00:20:24.246852 19128 net.cpp:558] conv3_5_bn0 <- conv3_5_0
I0927 00:20:24.246862 19128 net.cpp:509] conv3_5_bn0 -> conv3_5_0 (in-place)
I0927 00:20:24.247172 19128 net.cpp:172] Setting up conv3_5_bn0
I0927 00:20:24.247185 19128 net.cpp:186] Top shape: 10 32 16 16 (81920)
I0927 00:20:24.247189 19128 net.cpp:194] Memory required for data: 56156280
I0927 00:20:24.247198 19128 layer_factory.hpp:77] Creating layer conv3_5_scale0
I0927 00:20:24.247205 19128 net.cpp:128] Creating Layer conv3_5_scale0
I0927 00:20:24.247210 19128 net.cpp:558] conv3_5_scale0 <- conv3_5_0
I0927 00:20:24.247215 19128 net.cpp:509] conv3_5_scale0 -> conv3_5_0 (in-place)
I0927 00:20:24.247272 19128 layer_factory.hpp:77] Creating layer conv3_5_scale0
I0927 00:20:24.247442 19128 net.cpp:172] Setting up conv3_5_scale0
I0927 00:20:24.247452 19128 net.cpp:186] Top shape: 10 32 16 16 (81920)
I0927 00:20:24.247457 19128 net.cpp:194] Memory required for data: 56483960
I0927 00:20:24.247464 19128 layer_factory.hpp:77] Creating layer conv3_5_ReLU0
I0927 00:20:24.247472 19128 net.cpp:128] Creating Layer conv3_5_ReLU0
I0927 00:20:24.247475 19128 net.cpp:558] conv3_5_ReLU0 <- conv3_5_0
I0927 00:20:24.247480 19128 net.cpp:509] conv3_5_ReLU0 -> conv3_5_0 (in-place)
I0927 00:20:24.248805 19128 net.cpp:172] Setting up conv3_5_ReLU0
I0927 00:20:24.248831 19128 net.cpp:186] Top shape: 10 32 16 16 (81920)
I0927 00:20:24.248836 19128 net.cpp:194] Memory required for data: 56811640
I0927 00:20:24.248842 19128 layer_factory.hpp:77] Creating layer conv3_5_1
I0927 00:20:24.248859 19128 net.cpp:128] Creating Layer conv3_5_1
I0927 00:20:24.248864 19128 net.cpp:558] conv3_5_1 <- conv3_5_0
I0927 00:20:24.248877 19128 net.cpp:522] conv3_5_1 -> conv3_5_1
I0927 00:20:24.255543 19128 net.cpp:172] Setting up conv3_5_1
I0927 00:20:24.255570 19128 net.cpp:186] Top shape: 10 32 16 16 (81920)
I0927 00:20:24.255575 19128 net.cpp:194] Memory required for data: 57139320
I0927 00:20:24.255589 19128 layer_factory.hpp:77] Creating layer conv3_5bn1
I0927 00:20:24.255600 19128 net.cpp:128] Creating Layer conv3_5bn1
I0927 00:20:24.255609 19128 net.cpp:558] conv3_5bn1 <- conv3_5_1
I0927 00:20:24.255619 19128 net.cpp:509] conv3_5bn1 -> conv3_5_1 (in-place)
I0927 00:20:24.255926 19128 net.cpp:172] Setting up conv3_5bn1
I0927 00:20:24.255939 19128 net.cpp:186] Top shape: 10 32 16 16 (81920)
I0927 00:20:24.255942 19128 net.cpp:194] Memory required for data: 57467000
I0927 00:20:24.255952 19128 layer_factory.hpp:77] Creating layer conv3_5_scale1
I0927 00:20:24.255959 19128 net.cpp:128] Creating Layer conv3_5_scale1
I0927 00:20:24.255964 19128 net.cpp:558] conv3_5_scale1 <- conv3_5_1
I0927 00:20:24.255972 19128 net.cpp:509] conv3_5_scale1 -> conv3_5_1 (in-place)
I0927 00:20:24.256029 19128 layer_factory.hpp:77] Creating layer conv3_5_scale1
I0927 00:20:24.256207 19128 net.cpp:172] Setting up conv3_5_scale1
I0927 00:20:24.256217 19128 net.cpp:186] Top shape: 10 32 16 16 (81920)
I0927 00:20:24.256222 19128 net.cpp:194] Memory required for data: 57794680
I0927 00:20:24.256230 19128 layer_factory.hpp:77] Creating layer conv3_Eltwise_5
I0927 00:20:24.256237 19128 net.cpp:128] Creating Layer conv3_Eltwise_5
I0927 00:20:24.256242 19128 net.cpp:558] conv3_Eltwise_5 <- conv3_Eltwise_4_conv3_4ReLU_1_0_split_1
I0927 00:20:24.256247 19128 net.cpp:558] conv3_Eltwise_5 <- conv3_5_1
I0927 00:20:24.256275 19128 net.cpp:522] conv3_Eltwise_5 -> conv3_Eltwise_5
I0927 00:20:24.256304 19128 net.cpp:172] Setting up conv3_Eltwise_5
I0927 00:20:24.256312 19128 net.cpp:186] Top shape: 10 32 16 16 (81920)
I0927 00:20:24.256316 19128 net.cpp:194] Memory required for data: 58122360
I0927 00:20:24.256321 19128 layer_factory.hpp:77] Creating layer conv3_5ReLU_1
I0927 00:20:24.256327 19128 net.cpp:128] Creating Layer conv3_5ReLU_1
I0927 00:20:24.256332 19128 net.cpp:558] conv3_5ReLU_1 <- conv3_Eltwise_5
I0927 00:20:24.256337 19128 net.cpp:509] conv3_5ReLU_1 -> conv3_Eltwise_5 (in-place)
I0927 00:20:24.257551 19128 net.cpp:172] Setting up conv3_5ReLU_1
I0927 00:20:24.257572 19128 net.cpp:186] Top shape: 10 32 16 16 (81920)
I0927 00:20:24.257577 19128 net.cpp:194] Memory required for data: 58450040
I0927 00:20:24.257581 19128 layer_factory.hpp:77] Creating layer conv3_Eltwise_5_conv3_5ReLU_1_0_split
I0927 00:20:24.257592 19128 net.cpp:128] Creating Layer conv3_Eltwise_5_conv3_5ReLU_1_0_split
I0927 00:20:24.257597 19128 net.cpp:558] conv3_Eltwise_5_conv3_5ReLU_1_0_split <- conv3_Eltwise_5
I0927 00:20:24.257604 19128 net.cpp:522] conv3_Eltwise_5_conv3_5ReLU_1_0_split -> conv3_Eltwise_5_conv3_5ReLU_1_0_split_0
I0927 00:20:24.257614 19128 net.cpp:522] conv3_Eltwise_5_conv3_5ReLU_1_0_split -> conv3_Eltwise_5_conv3_5ReLU_1_0_split_1
I0927 00:20:24.257686 19128 net.cpp:172] Setting up conv3_Eltwise_5_conv3_5ReLU_1_0_split
I0927 00:20:24.257694 19128 net.cpp:186] Top shape: 10 32 16 16 (81920)
I0927 00:20:24.257700 19128 net.cpp:186] Top shape: 10 32 16 16 (81920)
I0927 00:20:24.257704 19128 net.cpp:194] Memory required for data: 59105400
I0927 00:20:24.257709 19128 layer_factory.hpp:77] Creating layer conv4_1_0
I0927 00:20:24.257724 19128 net.cpp:128] Creating Layer conv4_1_0
I0927 00:20:24.257728 19128 net.cpp:558] conv4_1_0 <- conv3_Eltwise_5_conv3_5ReLU_1_0_split_0
I0927 00:20:24.257735 19128 net.cpp:522] conv4_1_0 -> conv4_1_0
I0927 00:20:24.264300 19128 net.cpp:172] Setting up conv4_1_0
I0927 00:20:24.264328 19128 net.cpp:186] Top shape: 10 64 8 8 (40960)
I0927 00:20:24.264333 19128 net.cpp:194] Memory required for data: 59269240
I0927 00:20:24.264346 19128 layer_factory.hpp:77] Creating layer conv4_1_bn0
I0927 00:20:24.264360 19128 net.cpp:128] Creating Layer conv4_1_bn0
I0927 00:20:24.264369 19128 net.cpp:558] conv4_1_bn0 <- conv4_1_0
I0927 00:20:24.264376 19128 net.cpp:509] conv4_1_bn0 -> conv4_1_0 (in-place)
I0927 00:20:24.264701 19128 net.cpp:172] Setting up conv4_1_bn0
I0927 00:20:24.264713 19128 net.cpp:186] Top shape: 10 64 8 8 (40960)
I0927 00:20:24.264716 19128 net.cpp:194] Memory required for data: 59433080
I0927 00:20:24.264726 19128 layer_factory.hpp:77] Creating layer conv4_1_scale0
I0927 00:20:24.264734 19128 net.cpp:128] Creating Layer conv4_1_scale0
I0927 00:20:24.264746 19128 net.cpp:558] conv4_1_scale0 <- conv4_1_0
I0927 00:20:24.264752 19128 net.cpp:509] conv4_1_scale0 -> conv4_1_0 (in-place)
I0927 00:20:24.264812 19128 layer_factory.hpp:77] Creating layer conv4_1_scale0
I0927 00:20:24.264993 19128 net.cpp:172] Setting up conv4_1_scale0
I0927 00:20:24.265003 19128 net.cpp:186] Top shape: 10 64 8 8 (40960)
I0927 00:20:24.265007 19128 net.cpp:194] Memory required for data: 59596920
I0927 00:20:24.265015 19128 layer_factory.hpp:77] Creating layer conv4_1_ReLU0
I0927 00:20:24.265022 19128 net.cpp:128] Creating Layer conv4_1_ReLU0
I0927 00:20:24.265027 19128 net.cpp:558] conv4_1_ReLU0 <- conv4_1_0
I0927 00:20:24.265031 19128 net.cpp:509] conv4_1_ReLU0 -> conv4_1_0 (in-place)
I0927 00:20:24.266299 19128 net.cpp:172] Setting up conv4_1_ReLU0
I0927 00:20:24.266321 19128 net.cpp:186] Top shape: 10 64 8 8 (40960)
I0927 00:20:24.266326 19128 net.cpp:194] Memory required for data: 59760760
I0927 00:20:24.266331 19128 layer_factory.hpp:77] Creating layer conv4_1_1
I0927 00:20:24.266343 19128 net.cpp:128] Creating Layer conv4_1_1
I0927 00:20:24.266348 19128 net.cpp:558] conv4_1_1 <- conv4_1_0
I0927 00:20:24.266356 19128 net.cpp:522] conv4_1_1 -> conv4_1_1
I0927 00:20:24.273008 19128 net.cpp:172] Setting up conv4_1_1
I0927 00:20:24.273056 19128 net.cpp:186] Top shape: 10 64 8 8 (40960)
I0927 00:20:24.273061 19128 net.cpp:194] Memory required for data: 59924600
I0927 00:20:24.273072 19128 layer_factory.hpp:77] Creating layer conv4_1bn1
I0927 00:20:24.273087 19128 net.cpp:128] Creating Layer conv4_1bn1
I0927 00:20:24.273093 19128 net.cpp:558] conv4_1bn1 <- conv4_1_1
I0927 00:20:24.273103 19128 net.cpp:509] conv4_1bn1 -> conv4_1_1 (in-place)
I0927 00:20:24.273427 19128 net.cpp:172] Setting up conv4_1bn1
I0927 00:20:24.273440 19128 net.cpp:186] Top shape: 10 64 8 8 (40960)
I0927 00:20:24.273445 19128 net.cpp:194] Memory required for data: 60088440
I0927 00:20:24.273455 19128 layer_factory.hpp:77] Creating layer conv4_1_scale1
I0927 00:20:24.273463 19128 net.cpp:128] Creating Layer conv4_1_scale1
I0927 00:20:24.273468 19128 net.cpp:558] conv4_1_scale1 <- conv4_1_1
I0927 00:20:24.273473 19128 net.cpp:509] conv4_1_scale1 -> conv4_1_1 (in-place)
I0927 00:20:24.273535 19128 layer_factory.hpp:77] Creating layer conv4_1_scale1
I0927 00:20:24.273718 19128 net.cpp:172] Setting up conv4_1_scale1
I0927 00:20:24.273730 19128 net.cpp:186] Top shape: 10 64 8 8 (40960)
I0927 00:20:24.273735 19128 net.cpp:194] Memory required for data: 60252280
I0927 00:20:24.273742 19128 layer_factory.hpp:77] Creating layer conv4_1_down
I0927 00:20:24.273756 19128 net.cpp:128] Creating Layer conv4_1_down
I0927 00:20:24.273762 19128 net.cpp:558] conv4_1_down <- conv3_Eltwise_5_conv3_5ReLU_1_0_split_1
I0927 00:20:24.273769 19128 net.cpp:522] conv4_1_down -> conv4_1_down
I0927 00:20:24.279606 19128 net.cpp:172] Setting up conv4_1_down
I0927 00:20:24.279636 19128 net.cpp:186] Top shape: 10 64 8 8 (40960)
I0927 00:20:24.279641 19128 net.cpp:194] Memory required for data: 60416120
I0927 00:20:24.279651 19128 layer_factory.hpp:77] Creating layer conv4_1_bn_down
I0927 00:20:24.279661 19128 net.cpp:128] Creating Layer conv4_1_bn_down
I0927 00:20:24.279666 19128 net.cpp:558] conv4_1_bn_down <- conv4_1_down
I0927 00:20:24.279675 19128 net.cpp:509] conv4_1_bn_down -> conv4_1_down (in-place)
I0927 00:20:24.279994 19128 net.cpp:172] Setting up conv4_1_bn_down
I0927 00:20:24.280007 19128 net.cpp:186] Top shape: 10 64 8 8 (40960)
I0927 00:20:24.280011 19128 net.cpp:194] Memory required for data: 60579960
I0927 00:20:24.280021 19128 layer_factory.hpp:77] Creating layer conv4_1_scale_down
I0927 00:20:24.280028 19128 net.cpp:128] Creating Layer conv4_1_scale_down
I0927 00:20:24.280032 19128 net.cpp:558] conv4_1_scale_down <- conv4_1_down
I0927 00:20:24.280041 19128 net.cpp:509] conv4_1_scale_down -> conv4_1_down (in-place)
I0927 00:20:24.280099 19128 layer_factory.hpp:77] Creating layer conv4_1_scale_down
I0927 00:20:24.280278 19128 net.cpp:172] Setting up conv4_1_scale_down
I0927 00:20:24.280290 19128 net.cpp:186] Top shape: 10 64 8 8 (40960)
I0927 00:20:24.280294 19128 net.cpp:194] Memory required for data: 60743800
I0927 00:20:24.280303 19128 layer_factory.hpp:77] Creating layer conv4_Eltwise_1
I0927 00:20:24.280313 19128 net.cpp:128] Creating Layer conv4_Eltwise_1
I0927 00:20:24.280318 19128 net.cpp:558] conv4_Eltwise_1 <- conv4_1_1
I0927 00:20:24.280323 19128 net.cpp:558] conv4_Eltwise_1 <- conv4_1_down
I0927 00:20:24.280329 19128 net.cpp:522] conv4_Eltwise_1 -> conv4_Eltwise_1
I0927 00:20:24.280362 19128 net.cpp:172] Setting up conv4_Eltwise_1
I0927 00:20:24.280369 19128 net.cpp:186] Top shape: 10 64 8 8 (40960)
I0927 00:20:24.280373 19128 net.cpp:194] Memory required for data: 60907640
I0927 00:20:24.280377 19128 layer_factory.hpp:77] Creating layer conv4_1ReLU_1
I0927 00:20:24.280383 19128 net.cpp:128] Creating Layer conv4_1ReLU_1
I0927 00:20:24.280388 19128 net.cpp:558] conv4_1ReLU_1 <- conv4_Eltwise_1
I0927 00:20:24.280396 19128 net.cpp:509] conv4_1ReLU_1 -> conv4_Eltwise_1 (in-place)
I0927 00:20:24.281601 19128 net.cpp:172] Setting up conv4_1ReLU_1
I0927 00:20:24.281625 19128 net.cpp:186] Top shape: 10 64 8 8 (40960)
I0927 00:20:24.281630 19128 net.cpp:194] Memory required for data: 61071480
I0927 00:20:24.281635 19128 layer_factory.hpp:77] Creating layer conv4_Eltwise_1_conv4_1ReLU_1_0_split
I0927 00:20:24.281666 19128 net.cpp:128] Creating Layer conv4_Eltwise_1_conv4_1ReLU_1_0_split
I0927 00:20:24.281672 19128 net.cpp:558] conv4_Eltwise_1_conv4_1ReLU_1_0_split <- conv4_Eltwise_1
I0927 00:20:24.281679 19128 net.cpp:522] conv4_Eltwise_1_conv4_1ReLU_1_0_split -> conv4_Eltwise_1_conv4_1ReLU_1_0_split_0
I0927 00:20:24.281688 19128 net.cpp:522] conv4_Eltwise_1_conv4_1ReLU_1_0_split -> conv4_Eltwise_1_conv4_1ReLU_1_0_split_1
I0927 00:20:24.281759 19128 net.cpp:172] Setting up conv4_Eltwise_1_conv4_1ReLU_1_0_split
I0927 00:20:24.281774 19128 net.cpp:186] Top shape: 10 64 8 8 (40960)
I0927 00:20:24.281780 19128 net.cpp:186] Top shape: 10 64 8 8 (40960)
I0927 00:20:24.281783 19128 net.cpp:194] Memory required for data: 61399160
I0927 00:20:24.281787 19128 layer_factory.hpp:77] Creating layer conv4_2_0
I0927 00:20:24.281800 19128 net.cpp:128] Creating Layer conv4_2_0
I0927 00:20:24.281805 19128 net.cpp:558] conv4_2_0 <- conv4_Eltwise_1_conv4_1ReLU_1_0_split_0
I0927 00:20:24.281814 19128 net.cpp:522] conv4_2_0 -> conv4_2_0
I0927 00:20:24.288574 19128 net.cpp:172] Setting up conv4_2_0
I0927 00:20:24.288604 19128 net.cpp:186] Top shape: 10 64 8 8 (40960)
I0927 00:20:24.288610 19128 net.cpp:194] Memory required for data: 61563000
I0927 00:20:24.288625 19128 layer_factory.hpp:77] Creating layer conv4_2_bn0
I0927 00:20:24.288636 19128 net.cpp:128] Creating Layer conv4_2_bn0
I0927 00:20:24.288646 19128 net.cpp:558] conv4_2_bn0 <- conv4_2_0
I0927 00:20:24.288653 19128 net.cpp:509] conv4_2_bn0 -> conv4_2_0 (in-place)
I0927 00:20:24.288978 19128 net.cpp:172] Setting up conv4_2_bn0
I0927 00:20:24.288990 19128 net.cpp:186] Top shape: 10 64 8 8 (40960)
I0927 00:20:24.288995 19128 net.cpp:194] Memory required for data: 61726840
I0927 00:20:24.289005 19128 layer_factory.hpp:77] Creating layer conv4_2_scale0
I0927 00:20:24.289021 19128 net.cpp:128] Creating Layer conv4_2_scale0
I0927 00:20:24.289024 19128 net.cpp:558] conv4_2_scale0 <- conv4_2_0
I0927 00:20:24.289031 19128 net.cpp:509] conv4_2_scale0 -> conv4_2_0 (in-place)
I0927 00:20:24.289088 19128 layer_factory.hpp:77] Creating layer conv4_2_scale0
I0927 00:20:24.289269 19128 net.cpp:172] Setting up conv4_2_scale0
I0927 00:20:24.289279 19128 net.cpp:186] Top shape: 10 64 8 8 (40960)
I0927 00:20:24.289284 19128 net.cpp:194] Memory required for data: 61890680
I0927 00:20:24.289292 19128 layer_factory.hpp:77] Creating layer conv4_2_ReLU0
I0927 00:20:24.289299 19128 net.cpp:128] Creating Layer conv4_2_ReLU0
I0927 00:20:24.289304 19128 net.cpp:558] conv4_2_ReLU0 <- conv4_2_0
I0927 00:20:24.289309 19128 net.cpp:509] conv4_2_ReLU0 -> conv4_2_0 (in-place)
I0927 00:20:24.290334 19128 net.cpp:172] Setting up conv4_2_ReLU0
I0927 00:20:24.290354 19128 net.cpp:186] Top shape: 10 64 8 8 (40960)
I0927 00:20:24.290357 19128 net.cpp:194] Memory required for data: 62054520
I0927 00:20:24.290362 19128 layer_factory.hpp:77] Creating layer conv4_2_1
I0927 00:20:24.290385 19128 net.cpp:128] Creating Layer conv4_2_1
I0927 00:20:24.290392 19128 net.cpp:558] conv4_2_1 <- conv4_2_0
I0927 00:20:24.290403 19128 net.cpp:522] conv4_2_1 -> conv4_2_1
I0927 00:20:24.297058 19128 net.cpp:172] Setting up conv4_2_1
I0927 00:20:24.297087 19128 net.cpp:186] Top shape: 10 64 8 8 (40960)
I0927 00:20:24.297092 19128 net.cpp:194] Memory required for data: 62218360
I0927 00:20:24.297107 19128 layer_factory.hpp:77] Creating layer conv4_2bn1
I0927 00:20:24.297129 19128 net.cpp:128] Creating Layer conv4_2bn1
I0927 00:20:24.297143 19128 net.cpp:558] conv4_2bn1 <- conv4_2_1
I0927 00:20:24.297150 19128 net.cpp:509] conv4_2bn1 -> conv4_2_1 (in-place)
I0927 00:20:24.297472 19128 net.cpp:172] Setting up conv4_2bn1
I0927 00:20:24.297483 19128 net.cpp:186] Top shape: 10 64 8 8 (40960)
I0927 00:20:24.297487 19128 net.cpp:194] Memory required for data: 62382200
I0927 00:20:24.297498 19128 layer_factory.hpp:77] Creating layer conv4_2_scale1
I0927 00:20:24.297508 19128 net.cpp:128] Creating Layer conv4_2_scale1
I0927 00:20:24.297513 19128 net.cpp:558] conv4_2_scale1 <- conv4_2_1
I0927 00:20:24.297535 19128 net.cpp:509] conv4_2_scale1 -> conv4_2_1 (in-place)
I0927 00:20:24.297595 19128 layer_factory.hpp:77] Creating layer conv4_2_scale1
I0927 00:20:24.297785 19128 net.cpp:172] Setting up conv4_2_scale1
I0927 00:20:24.297791 19128 net.cpp:186] Top shape: 10 64 8 8 (40960)
I0927 00:20:24.297796 19128 net.cpp:194] Memory required for data: 62546040
I0927 00:20:24.297804 19128 layer_factory.hpp:77] Creating layer conv4_Eltwise_2
I0927 00:20:24.297813 19128 net.cpp:128] Creating Layer conv4_Eltwise_2
I0927 00:20:24.297818 19128 net.cpp:558] conv4_Eltwise_2 <- conv4_Eltwise_1_conv4_1ReLU_1_0_split_1
I0927 00:20:24.297823 19128 net.cpp:558] conv4_Eltwise_2 <- conv4_2_1
I0927 00:20:24.297830 19128 net.cpp:522] conv4_Eltwise_2 -> conv4_Eltwise_2
I0927 00:20:24.297863 19128 net.cpp:172] Setting up conv4_Eltwise_2
I0927 00:20:24.297984 19128 net.cpp:186] Top shape: 10 64 8 8 (40960)
I0927 00:20:24.297989 19128 net.cpp:194] Memory required for data: 62709880
I0927 00:20:24.297993 19128 layer_factory.hpp:77] Creating layer conv4_2ReLU_1
I0927 00:20:24.298000 19128 net.cpp:128] Creating Layer conv4_2ReLU_1
I0927 00:20:24.298005 19128 net.cpp:558] conv4_2ReLU_1 <- conv4_Eltwise_2
I0927 00:20:24.298010 19128 net.cpp:509] conv4_2ReLU_1 -> conv4_Eltwise_2 (in-place)
I0927 00:20:24.299072 19128 net.cpp:172] Setting up conv4_2ReLU_1
I0927 00:20:24.299089 19128 net.cpp:186] Top shape: 10 64 8 8 (40960)
I0927 00:20:24.299094 19128 net.cpp:194] Memory required for data: 62873720
I0927 00:20:24.299099 19128 layer_factory.hpp:77] Creating layer conv4_Eltwise_2_conv4_2ReLU_1_0_split
I0927 00:20:24.299109 19128 net.cpp:128] Creating Layer conv4_Eltwise_2_conv4_2ReLU_1_0_split
I0927 00:20:24.299114 19128 net.cpp:558] conv4_Eltwise_2_conv4_2ReLU_1_0_split <- conv4_Eltwise_2
I0927 00:20:24.299124 19128 net.cpp:522] conv4_Eltwise_2_conv4_2ReLU_1_0_split -> conv4_Eltwise_2_conv4_2ReLU_1_0_split_0
I0927 00:20:24.299131 19128 net.cpp:522] conv4_Eltwise_2_conv4_2ReLU_1_0_split -> conv4_Eltwise_2_conv4_2ReLU_1_0_split_1
I0927 00:20:24.299196 19128 net.cpp:172] Setting up conv4_Eltwise_2_conv4_2ReLU_1_0_split
I0927 00:20:24.299214 19128 net.cpp:186] Top shape: 10 64 8 8 (40960)
I0927 00:20:24.299221 19128 net.cpp:186] Top shape: 10 64 8 8 (40960)
I0927 00:20:24.299224 19128 net.cpp:194] Memory required for data: 63201400
I0927 00:20:24.299228 19128 layer_factory.hpp:77] Creating layer conv4_3_0
I0927 00:20:24.299240 19128 net.cpp:128] Creating Layer conv4_3_0
I0927 00:20:24.299247 19128 net.cpp:558] conv4_3_0 <- conv4_Eltwise_2_conv4_2ReLU_1_0_split_0
I0927 00:20:24.299255 19128 net.cpp:522] conv4_3_0 -> conv4_3_0
I0927 00:20:24.306022 19128 net.cpp:172] Setting up conv4_3_0
I0927 00:20:24.306051 19128 net.cpp:186] Top shape: 10 64 8 8 (40960)
I0927 00:20:24.306056 19128 net.cpp:194] Memory required for data: 63365240
I0927 00:20:24.306066 19128 layer_factory.hpp:77] Creating layer conv4_3_bn0
I0927 00:20:24.306077 19128 net.cpp:128] Creating Layer conv4_3_bn0
I0927 00:20:24.306082 19128 net.cpp:558] conv4_3_bn0 <- conv4_3_0
I0927 00:20:24.306092 19128 net.cpp:509] conv4_3_bn0 -> conv4_3_0 (in-place)
I0927 00:20:24.306432 19128 net.cpp:172] Setting up conv4_3_bn0
I0927 00:20:24.306444 19128 net.cpp:186] Top shape: 10 64 8 8 (40960)
I0927 00:20:24.306448 19128 net.cpp:194] Memory required for data: 63529080
I0927 00:20:24.306459 19128 layer_factory.hpp:77] Creating layer conv4_3_scale0
I0927 00:20:24.306466 19128 net.cpp:128] Creating Layer conv4_3_scale0
I0927 00:20:24.306471 19128 net.cpp:558] conv4_3_scale0 <- conv4_3_0
I0927 00:20:24.306479 19128 net.cpp:509] conv4_3_scale0 -> conv4_3_0 (in-place)
I0927 00:20:24.306533 19128 layer_factory.hpp:77] Creating layer conv4_3_scale0
I0927 00:20:24.306716 19128 net.cpp:172] Setting up conv4_3_scale0
I0927 00:20:24.306730 19128 net.cpp:186] Top shape: 10 64 8 8 (40960)
I0927 00:20:24.306735 19128 net.cpp:194] Memory required for data: 63692920
I0927 00:20:24.306742 19128 layer_factory.hpp:77] Creating layer conv4_3_ReLU0
I0927 00:20:24.306748 19128 net.cpp:128] Creating Layer conv4_3_ReLU0
I0927 00:20:24.306768 19128 net.cpp:558] conv4_3_ReLU0 <- conv4_3_0
I0927 00:20:24.306777 19128 net.cpp:509] conv4_3_ReLU0 -> conv4_3_0 (in-place)
I0927 00:20:24.307821 19128 net.cpp:172] Setting up conv4_3_ReLU0
I0927 00:20:24.307842 19128 net.cpp:186] Top shape: 10 64 8 8 (40960)
I0927 00:20:24.307847 19128 net.cpp:194] Memory required for data: 63856760
I0927 00:20:24.307852 19128 layer_factory.hpp:77] Creating layer conv4_3_1
I0927 00:20:24.307869 19128 net.cpp:128] Creating Layer conv4_3_1
I0927 00:20:24.307878 19128 net.cpp:558] conv4_3_1 <- conv4_3_0
I0927 00:20:24.307888 19128 net.cpp:522] conv4_3_1 -> conv4_3_1
I0927 00:20:24.314549 19128 net.cpp:172] Setting up conv4_3_1
I0927 00:20:24.314576 19128 net.cpp:186] Top shape: 10 64 8 8 (40960)
I0927 00:20:24.314580 19128 net.cpp:194] Memory required for data: 64020600
I0927 00:20:24.314594 19128 layer_factory.hpp:77] Creating layer conv4_3bn1
I0927 00:20:24.314606 19128 net.cpp:128] Creating Layer conv4_3bn1
I0927 00:20:24.314616 19128 net.cpp:558] conv4_3bn1 <- conv4_3_1
I0927 00:20:24.314623 19128 net.cpp:509] conv4_3bn1 -> conv4_3_1 (in-place)
I0927 00:20:24.314965 19128 net.cpp:172] Setting up conv4_3bn1
I0927 00:20:24.314976 19128 net.cpp:186] Top shape: 10 64 8 8 (40960)
I0927 00:20:24.314981 19128 net.cpp:194] Memory required for data: 64184440
I0927 00:20:24.314991 19128 layer_factory.hpp:77] Creating layer conv4_3_scale1
I0927 00:20:24.315002 19128 net.cpp:128] Creating Layer conv4_3_scale1
I0927 00:20:24.315011 19128 net.cpp:558] conv4_3_scale1 <- conv4_3_1
I0927 00:20:24.315018 19128 net.cpp:509] conv4_3_scale1 -> conv4_3_1 (in-place)
I0927 00:20:24.315076 19128 layer_factory.hpp:77] Creating layer conv4_3_scale1
I0927 00:20:24.315261 19128 net.cpp:172] Setting up conv4_3_scale1
I0927 00:20:24.315273 19128 net.cpp:186] Top shape: 10 64 8 8 (40960)
I0927 00:20:24.315277 19128 net.cpp:194] Memory required for data: 64348280
I0927 00:20:24.315285 19128 layer_factory.hpp:77] Creating layer conv4_Eltwise_3
I0927 00:20:24.315291 19128 net.cpp:128] Creating Layer conv4_Eltwise_3
I0927 00:20:24.315296 19128 net.cpp:558] conv4_Eltwise_3 <- conv4_Eltwise_2_conv4_2ReLU_1_0_split_1
I0927 00:20:24.315302 19128 net.cpp:558] conv4_Eltwise_3 <- conv4_3_1
I0927 00:20:24.315310 19128 net.cpp:522] conv4_Eltwise_3 -> conv4_Eltwise_3
I0927 00:20:24.315341 19128 net.cpp:172] Setting up conv4_Eltwise_3
I0927 00:20:24.315348 19128 net.cpp:186] Top shape: 10 64 8 8 (40960)
I0927 00:20:24.315352 19128 net.cpp:194] Memory required for data: 64512120
I0927 00:20:24.315356 19128 layer_factory.hpp:77] Creating layer conv4_3ReLU_1
I0927 00:20:24.315366 19128 net.cpp:128] Creating Layer conv4_3ReLU_1
I0927 00:20:24.315369 19128 net.cpp:558] conv4_3ReLU_1 <- conv4_Eltwise_3
I0927 00:20:24.315376 19128 net.cpp:509] conv4_3ReLU_1 -> conv4_Eltwise_3 (in-place)
I0927 00:20:24.316589 19128 net.cpp:172] Setting up conv4_3ReLU_1
I0927 00:20:24.316613 19128 net.cpp:186] Top shape: 10 64 8 8 (40960)
I0927 00:20:24.316618 19128 net.cpp:194] Memory required for data: 64675960
I0927 00:20:24.316623 19128 layer_factory.hpp:77] Creating layer conv4_Eltwise_3_conv4_3ReLU_1_0_split
I0927 00:20:24.316634 19128 net.cpp:128] Creating Layer conv4_Eltwise_3_conv4_3ReLU_1_0_split
I0927 00:20:24.316639 19128 net.cpp:558] conv4_Eltwise_3_conv4_3ReLU_1_0_split <- conv4_Eltwise_3
I0927 00:20:24.316648 19128 net.cpp:522] conv4_Eltwise_3_conv4_3ReLU_1_0_split -> conv4_Eltwise_3_conv4_3ReLU_1_0_split_0
I0927 00:20:24.316659 19128 net.cpp:522] conv4_Eltwise_3_conv4_3ReLU_1_0_split -> conv4_Eltwise_3_conv4_3ReLU_1_0_split_1
I0927 00:20:24.316725 19128 net.cpp:172] Setting up conv4_Eltwise_3_conv4_3ReLU_1_0_split
I0927 00:20:24.316732 19128 net.cpp:186] Top shape: 10 64 8 8 (40960)
I0927 00:20:24.316738 19128 net.cpp:186] Top shape: 10 64 8 8 (40960)
I0927 00:20:24.316743 19128 net.cpp:194] Memory required for data: 65003640
I0927 00:20:24.316747 19128 layer_factory.hpp:77] Creating layer conv4_4_0
I0927 00:20:24.316761 19128 net.cpp:128] Creating Layer conv4_4_0
I0927 00:20:24.316767 19128 net.cpp:558] conv4_4_0 <- conv4_Eltwise_3_conv4_3ReLU_1_0_split_0
I0927 00:20:24.316792 19128 net.cpp:522] conv4_4_0 -> conv4_4_0
I0927 00:20:24.323639 19128 net.cpp:172] Setting up conv4_4_0
I0927 00:20:24.323669 19128 net.cpp:186] Top shape: 10 64 8 8 (40960)
I0927 00:20:24.323674 19128 net.cpp:194] Memory required for data: 65167480
I0927 00:20:24.323685 19128 layer_factory.hpp:77] Creating layer conv4_4_bn0
I0927 00:20:24.323694 19128 net.cpp:128] Creating Layer conv4_4_bn0
I0927 00:20:24.323699 19128 net.cpp:558] conv4_4_bn0 <- conv4_4_0
I0927 00:20:24.323716 19128 net.cpp:509] conv4_4_bn0 -> conv4_4_0 (in-place)
I0927 00:20:24.324059 19128 net.cpp:172] Setting up conv4_4_bn0
I0927 00:20:24.324074 19128 net.cpp:186] Top shape: 10 64 8 8 (40960)
I0927 00:20:24.324077 19128 net.cpp:194] Memory required for data: 65331320
I0927 00:20:24.324087 19128 layer_factory.hpp:77] Creating layer conv4_4_scale0
I0927 00:20:24.324095 19128 net.cpp:128] Creating Layer conv4_4_scale0
I0927 00:20:24.324100 19128 net.cpp:558] conv4_4_scale0 <- conv4_4_0
I0927 00:20:24.324107 19128 net.cpp:509] conv4_4_scale0 -> conv4_4_0 (in-place)
I0927 00:20:24.324163 19128 layer_factory.hpp:77] Creating layer conv4_4_scale0
I0927 00:20:24.324348 19128 net.cpp:172] Setting up conv4_4_scale0
I0927 00:20:24.324359 19128 net.cpp:186] Top shape: 10 64 8 8 (40960)
I0927 00:20:24.324364 19128 net.cpp:194] Memory required for data: 65495160
I0927 00:20:24.324373 19128 layer_factory.hpp:77] Creating layer conv4_4_ReLU0
I0927 00:20:24.324381 19128 net.cpp:128] Creating Layer conv4_4_ReLU0
I0927 00:20:24.324386 19128 net.cpp:558] conv4_4_ReLU0 <- conv4_4_0
I0927 00:20:24.324391 19128 net.cpp:509] conv4_4_ReLU0 -> conv4_4_0 (in-place)
I0927 00:20:24.325399 19128 net.cpp:172] Setting up conv4_4_ReLU0
I0927 00:20:24.325418 19128 net.cpp:186] Top shape: 10 64 8 8 (40960)
I0927 00:20:24.325423 19128 net.cpp:194] Memory required for data: 65659000
I0927 00:20:24.325428 19128 layer_factory.hpp:77] Creating layer conv4_4_1
I0927 00:20:24.325448 19128 net.cpp:128] Creating Layer conv4_4_1
I0927 00:20:24.325455 19128 net.cpp:558] conv4_4_1 <- conv4_4_0
I0927 00:20:24.325464 19128 net.cpp:522] conv4_4_1 -> conv4_4_1
I0927 00:20:24.332145 19128 net.cpp:172] Setting up conv4_4_1
I0927 00:20:24.332172 19128 net.cpp:186] Top shape: 10 64 8 8 (40960)
I0927 00:20:24.332177 19128 net.cpp:194] Memory required for data: 65822840
I0927 00:20:24.332191 19128 layer_factory.hpp:77] Creating layer conv4_4bn1
I0927 00:20:24.332202 19128 net.cpp:128] Creating Layer conv4_4bn1
I0927 00:20:24.332212 19128 net.cpp:558] conv4_4bn1 <- conv4_4_1
I0927 00:20:24.332221 19128 net.cpp:509] conv4_4bn1 -> conv4_4_1 (in-place)
I0927 00:20:24.332553 19128 net.cpp:172] Setting up conv4_4bn1
I0927 00:20:24.332564 19128 net.cpp:186] Top shape: 10 64 8 8 (40960)
I0927 00:20:24.332568 19128 net.cpp:194] Memory required for data: 65986680
I0927 00:20:24.332579 19128 layer_factory.hpp:77] Creating layer conv4_4_scale1
I0927 00:20:24.332588 19128 net.cpp:128] Creating Layer conv4_4_scale1
I0927 00:20:24.332593 19128 net.cpp:558] conv4_4_scale1 <- conv4_4_1
I0927 00:20:24.332598 19128 net.cpp:509] conv4_4_scale1 -> conv4_4_1 (in-place)
I0927 00:20:24.332656 19128 layer_factory.hpp:77] Creating layer conv4_4_scale1
I0927 00:20:24.332854 19128 net.cpp:172] Setting up conv4_4_scale1
I0927 00:20:24.332867 19128 net.cpp:186] Top shape: 10 64 8 8 (40960)
I0927 00:20:24.332873 19128 net.cpp:194] Memory required for data: 66150520
I0927 00:20:24.332881 19128 layer_factory.hpp:77] Creating layer conv4_Eltwise_4
I0927 00:20:24.332890 19128 net.cpp:128] Creating Layer conv4_Eltwise_4
I0927 00:20:24.332895 19128 net.cpp:558] conv4_Eltwise_4 <- conv4_Eltwise_3_conv4_3ReLU_1_0_split_1
I0927 00:20:24.332900 19128 net.cpp:558] conv4_Eltwise_4 <- conv4_4_1
I0927 00:20:24.332909 19128 net.cpp:522] conv4_Eltwise_4 -> conv4_Eltwise_4
I0927 00:20:24.332942 19128 net.cpp:172] Setting up conv4_Eltwise_4
I0927 00:20:24.332948 19128 net.cpp:186] Top shape: 10 64 8 8 (40960)
I0927 00:20:24.332952 19128 net.cpp:194] Memory required for data: 66314360
I0927 00:20:24.332974 19128 layer_factory.hpp:77] Creating layer conv4_4ReLU_1
I0927 00:20:24.332984 19128 net.cpp:128] Creating Layer conv4_4ReLU_1
I0927 00:20:24.332989 19128 net.cpp:558] conv4_4ReLU_1 <- conv4_Eltwise_4
I0927 00:20:24.332994 19128 net.cpp:509] conv4_4ReLU_1 -> conv4_Eltwise_4 (in-place)
I0927 00:20:24.334429 19128 net.cpp:172] Setting up conv4_4ReLU_1
I0927 00:20:24.334455 19128 net.cpp:186] Top shape: 10 64 8 8 (40960)
I0927 00:20:24.334458 19128 net.cpp:194] Memory required for data: 66478200
I0927 00:20:24.334465 19128 layer_factory.hpp:77] Creating layer conv4_Eltwise_4_conv4_4ReLU_1_0_split
I0927 00:20:24.334473 19128 net.cpp:128] Creating Layer conv4_Eltwise_4_conv4_4ReLU_1_0_split
I0927 00:20:24.334478 19128 net.cpp:558] conv4_Eltwise_4_conv4_4ReLU_1_0_split <- conv4_Eltwise_4
I0927 00:20:24.334488 19128 net.cpp:522] conv4_Eltwise_4_conv4_4ReLU_1_0_split -> conv4_Eltwise_4_conv4_4ReLU_1_0_split_0
I0927 00:20:24.334501 19128 net.cpp:522] conv4_Eltwise_4_conv4_4ReLU_1_0_split -> conv4_Eltwise_4_conv4_4ReLU_1_0_split_1
I0927 00:20:24.334573 19128 net.cpp:172] Setting up conv4_Eltwise_4_conv4_4ReLU_1_0_split
I0927 00:20:24.334580 19128 net.cpp:186] Top shape: 10 64 8 8 (40960)
I0927 00:20:24.334586 19128 net.cpp:186] Top shape: 10 64 8 8 (40960)
I0927 00:20:24.334590 19128 net.cpp:194] Memory required for data: 66805880
I0927 00:20:24.334595 19128 layer_factory.hpp:77] Creating layer conv4_5_0
I0927 00:20:24.334610 19128 net.cpp:128] Creating Layer conv4_5_0
I0927 00:20:24.334615 19128 net.cpp:558] conv4_5_0 <- conv4_Eltwise_4_conv4_4ReLU_1_0_split_0
I0927 00:20:24.334623 19128 net.cpp:522] conv4_5_0 -> conv4_5_0
I0927 00:20:24.341195 19128 net.cpp:172] Setting up conv4_5_0
I0927 00:20:24.341223 19128 net.cpp:186] Top shape: 10 64 8 8 (40960)
I0927 00:20:24.341228 19128 net.cpp:194] Memory required for data: 66969720
I0927 00:20:24.341238 19128 layer_factory.hpp:77] Creating layer conv4_5_bn0
I0927 00:20:24.341248 19128 net.cpp:128] Creating Layer conv4_5_bn0
I0927 00:20:24.341253 19128 net.cpp:558] conv4_5_bn0 <- conv4_5_0
I0927 00:20:24.341264 19128 net.cpp:509] conv4_5_bn0 -> conv4_5_0 (in-place)
I0927 00:20:24.341611 19128 net.cpp:172] Setting up conv4_5_bn0
I0927 00:20:24.341626 19128 net.cpp:186] Top shape: 10 64 8 8 (40960)
I0927 00:20:24.341631 19128 net.cpp:194] Memory required for data: 67133560
I0927 00:20:24.341641 19128 layer_factory.hpp:77] Creating layer conv4_5_scale0
I0927 00:20:24.341652 19128 net.cpp:128] Creating Layer conv4_5_scale0
I0927 00:20:24.341658 19128 net.cpp:558] conv4_5_scale0 <- conv4_5_0
I0927 00:20:24.341665 19128 net.cpp:509] conv4_5_scale0 -> conv4_5_0 (in-place)
I0927 00:20:24.341722 19128 layer_factory.hpp:77] Creating layer conv4_5_scale0
I0927 00:20:24.341924 19128 net.cpp:172] Setting up conv4_5_scale0
I0927 00:20:24.341933 19128 net.cpp:186] Top shape: 10 64 8 8 (40960)
I0927 00:20:24.341936 19128 net.cpp:194] Memory required for data: 67297400
I0927 00:20:24.341944 19128 layer_factory.hpp:77] Creating layer conv4_5_ReLU0
I0927 00:20:24.341953 19128 net.cpp:128] Creating Layer conv4_5_ReLU0
I0927 00:20:24.341958 19128 net.cpp:558] conv4_5_ReLU0 <- conv4_5_0
I0927 00:20:24.341964 19128 net.cpp:509] conv4_5_ReLU0 -> conv4_5_0 (in-place)
I0927 00:20:24.342972 19128 net.cpp:172] Setting up conv4_5_ReLU0
I0927 00:20:24.343001 19128 net.cpp:186] Top shape: 10 64 8 8 (40960)
I0927 00:20:24.343006 19128 net.cpp:194] Memory required for data: 67461240
I0927 00:20:24.343013 19128 layer_factory.hpp:77] Creating layer conv4_5_1
I0927 00:20:24.343026 19128 net.cpp:128] Creating Layer conv4_5_1
I0927 00:20:24.343032 19128 net.cpp:558] conv4_5_1 <- conv4_5_0
I0927 00:20:24.343040 19128 net.cpp:522] conv4_5_1 -> conv4_5_1
I0927 00:20:24.349764 19128 net.cpp:172] Setting up conv4_5_1
I0927 00:20:24.349792 19128 net.cpp:186] Top shape: 10 64 8 8 (40960)
I0927 00:20:24.349797 19128 net.cpp:194] Memory required for data: 67625080
I0927 00:20:24.349812 19128 layer_factory.hpp:77] Creating layer conv4_5bn1
I0927 00:20:24.349823 19128 net.cpp:128] Creating Layer conv4_5bn1
I0927 00:20:24.349835 19128 net.cpp:558] conv4_5bn1 <- conv4_5_1
I0927 00:20:24.349867 19128 net.cpp:509] conv4_5bn1 -> conv4_5_1 (in-place)
I0927 00:20:24.350205 19128 net.cpp:172] Setting up conv4_5bn1
I0927 00:20:24.350217 19128 net.cpp:186] Top shape: 10 64 8 8 (40960)
I0927 00:20:24.350221 19128 net.cpp:194] Memory required for data: 67788920
I0927 00:20:24.350232 19128 layer_factory.hpp:77] Creating layer conv4_5_scale1
I0927 00:20:24.350239 19128 net.cpp:128] Creating Layer conv4_5_scale1
I0927 00:20:24.350244 19128 net.cpp:558] conv4_5_scale1 <- conv4_5_1
I0927 00:20:24.350251 19128 net.cpp:509] conv4_5_scale1 -> conv4_5_1 (in-place)
I0927 00:20:24.350308 19128 layer_factory.hpp:77] Creating layer conv4_5_scale1
I0927 00:20:24.350503 19128 net.cpp:172] Setting up conv4_5_scale1
I0927 00:20:24.350515 19128 net.cpp:186] Top shape: 10 64 8 8 (40960)
I0927 00:20:24.350519 19128 net.cpp:194] Memory required for data: 67952760
I0927 00:20:24.350528 19128 layer_factory.hpp:77] Creating layer conv4_Eltwise_5
I0927 00:20:24.350538 19128 net.cpp:128] Creating Layer conv4_Eltwise_5
I0927 00:20:24.350543 19128 net.cpp:558] conv4_Eltwise_5 <- conv4_Eltwise_4_conv4_4ReLU_1_0_split_1
I0927 00:20:24.350548 19128 net.cpp:558] conv4_Eltwise_5 <- conv4_5_1
I0927 00:20:24.350554 19128 net.cpp:522] conv4_Eltwise_5 -> conv4_Eltwise_5
I0927 00:20:24.350589 19128 net.cpp:172] Setting up conv4_Eltwise_5
I0927 00:20:24.350595 19128 net.cpp:186] Top shape: 10 64 8 8 (40960)
I0927 00:20:24.350600 19128 net.cpp:194] Memory required for data: 68116600
I0927 00:20:24.350605 19128 layer_factory.hpp:77] Creating layer conv4_5ReLU_1
I0927 00:20:24.350610 19128 net.cpp:128] Creating Layer conv4_5ReLU_1
I0927 00:20:24.350615 19128 net.cpp:558] conv4_5ReLU_1 <- conv4_Eltwise_5
I0927 00:20:24.350626 19128 net.cpp:509] conv4_5ReLU_1 -> conv4_Eltwise_5 (in-place)
I0927 00:20:24.351801 19128 net.cpp:172] Setting up conv4_5ReLU_1
I0927 00:20:24.351821 19128 net.cpp:186] Top shape: 10 64 8 8 (40960)
I0927 00:20:24.351826 19128 net.cpp:194] Memory required for data: 68280440
I0927 00:20:24.351831 19128 layer_factory.hpp:77] Creating layer Pooling1
I0927 00:20:24.351840 19128 net.cpp:128] Creating Layer Pooling1
I0927 00:20:24.351845 19128 net.cpp:558] Pooling1 <- conv4_Eltwise_5
I0927 00:20:24.351856 19128 net.cpp:522] Pooling1 -> Pooling1
I0927 00:20:24.354001 19128 net.cpp:172] Setting up Pooling1
I0927 00:20:24.354019 19128 net.cpp:186] Top shape: 10 64 1 1 (640)
I0927 00:20:24.354023 19128 net.cpp:194] Memory required for data: 68283000
I0927 00:20:24.354028 19128 layer_factory.hpp:77] Creating layer fc1
I0927 00:20:24.354040 19128 net.cpp:128] Creating Layer fc1
I0927 00:20:24.354045 19128 net.cpp:558] fc1 <- Pooling1
I0927 00:20:24.354053 19128 net.cpp:522] fc1 -> fc1
I0927 00:20:24.354254 19128 net.cpp:172] Setting up fc1
I0927 00:20:24.354267 19128 net.cpp:186] Top shape: 10 10 (100)
I0927 00:20:24.354271 19128 net.cpp:194] Memory required for data: 68283400
I0927 00:20:24.354280 19128 layer_factory.hpp:77] Creating layer fc1_fc1_0_split
I0927 00:20:24.354287 19128 net.cpp:128] Creating Layer fc1_fc1_0_split
I0927 00:20:24.354292 19128 net.cpp:558] fc1_fc1_0_split <- fc1
I0927 00:20:24.354300 19128 net.cpp:522] fc1_fc1_0_split -> fc1_fc1_0_split_0
I0927 00:20:24.354308 19128 net.cpp:522] fc1_fc1_0_split -> fc1_fc1_0_split_1
I0927 00:20:24.354365 19128 net.cpp:172] Setting up fc1_fc1_0_split
I0927 00:20:24.354372 19128 net.cpp:186] Top shape: 10 10 (100)
I0927 00:20:24.354378 19128 net.cpp:186] Top shape: 10 10 (100)
I0927 00:20:24.354382 19128 net.cpp:194] Memory required for data: 68284200
I0927 00:20:24.354387 19128 layer_factory.hpp:77] Creating layer Softmax1
I0927 00:20:24.354393 19128 net.cpp:128] Creating Layer Softmax1
I0927 00:20:24.354398 19128 net.cpp:558] Softmax1 <- fc1_fc1_0_split_0
I0927 00:20:24.354403 19128 net.cpp:558] Softmax1 <- label_Data1_1_split_0
I0927 00:20:24.354413 19128 net.cpp:522] Softmax1 -> Softmax1
…
