…
I0825 11:10:29.177510  1691 net.cpp:82] Initializing net from parameters: 
name: "resnet_cifar10"
state {
  phase: TRAIN
  level: 0
  stage: ""
}
layer {
  name: "Data1"
  type: "Data"
  top: "Data1"
  top: "Data2"
  include {
    phase: TRAIN
  }
  transform_param {
    scale: 0.00390625
    mirror: true
    crop_size: 32
    mean_value: 125.3
    mean_value: 122.9
    mean_value: 113.8
  }
  data_param {
    source: "/home/lijianfei/datasets/cifar10_40/train_lmdb"
    batch_size: 64
    backend: LMDB
  }
  image_data_param {
    shuffle: true
  }
}
layer {
  name: "Convolution1"
  type: "Convolution"
  bottom: "Data1"
  top: "Convolution1"
  param {
    lr_mult: 1
    decay_mult: 1
  }
  param {
    lr_mult: 2
    decay_mult: 0
  }
  convolution_param {
    num_output: 16
    pad: 1
    kernel_size: 3
    stride: 1
    weight_filler {
      type: "msra"
    }
    bias_filler {
      type: "constant"
      value: 0
    }
  }
}
layer {
  name: "BatchNorm1"
  type: "BatchNorm"
  bottom: "Convolution1"
  top: "Convolution1"
  param {
    lr_mult: 0
    decay_mult: 0
  }
  param {
    lr_mult: 0
    decay_mult: 0
  }
  param {
    lr_mult: 0
    decay_mult: 0
  }
}
layer {
  name: "Scale1"
  type: "Scale"
  bottom: "Convolution1"
  top: "Convolution1"
  scale_param {
    bias_term: true
  }
}
layer {
  name: "ReLU1"
  type: "ReLU"
  bottom: "Convolution1"
  top: "Convolution1"
}
layer {
  name: "Convolution2"
  type: "Convolution"
  bottom: "Convolution1"
  top: "Convolution2"
  param {
    lr_mult: 1
    decay_mult: 1
  }
  param {
    lr_mult: 2
    decay_mult: 0
  }
  convolution_param {
    num_output: 16
    pad: 1
    kernel_size: 3
    stride: 1
    weight_filler {
      type: "msra"
    }
    bias_filler {
      type: "constant"
      value: 0
    }
  }
}
layer {
  name: "BatchNorm2"
  type: "BatchNorm"
  bottom: "Convolution2"
  top: "Convolution2"
  param {
    lr_mult: 0
    decay_mult: 0
  }
  param {
    lr_mult: 0
    decay_mult: 0
  }
  param {
    lr_mult: 0
    decay_mult: 0
  }
}
layer {
  name: "Scale2"
  type: "Scale"
  bottom: "Convolution2"
  top: "Convolution2"
  scale_param {
    bias_term: true
  }
}
layer {
  name: "ReLU2"
  type: "ReLU"
  bottom: "Convolution2"
  top: "Convolution2"
}
layer {
  name: "Convolution3"
  type: "Convolution"
  bottom: "Convolution2"
  top: "Convolution3"
  param {
    lr_mult: 1
    decay_mult: 1
  }
  param {
    lr_mult: 2
    decay_mult: 0
  }
  convolution_param {
    num_output: 16
    pad: 1
    kernel_size: 3
    stride: 1
    weight_filler {
      type: "msra"
    }
    bias_filler {
      type: "constant"
      value: 0
    }
  }
}
layer {
  name: "BatchNorm3"
  type: "BatchNorm"
  bottom: "Convolution3"
  top: "Convolution3"
  param {
    lr_mult: 0
    decay_mult: 0
  }
  param {
    lr_mult: 0
    decay_mult: 0
  }
  param {
    lr_mult: 0
    decay_mult: 0
  }
}
layer {
  name: "Scale3"
  type: "Scale"
  bottom: "Convolution3"
  top: "Convolution3"
  scale_param {
    bias_term: true
  }
}
layer {
  name: "Eltwise1"
  type: "Eltwise"
  bottom: "Convolution1"
  bottom: "Convolution3"
  top: "Eltwise1"
  eltwise_param {
    operation: SUM
  }
}
layer {
  name: "ReLU3"
  type: "ReLU"
  bottom: "Eltwise1"
  top: "Eltwise1"
}
layer {
  name: "Convolution4"
  type: "Convolution"
  bottom: "Eltwise1"
  top: "Convolution4"
  param {
    lr_mult: 1
    decay_mult: 1
  }
  param {
    lr_mult: 2
    decay_mult: 0
  }
  convolution_param {
    num_output: 16
    pad: 1
    kernel_size: 3
    stride: 1
    weight_filler {
      type: "msra"
    }
    bias_filler {
      type: "constant"
      value: 0
    }
  }
}
layer {
  name: "BatchNorm4"
  type: "BatchNorm"
  bottom: "Convolution4"
  top: "Convolution4"
  param {
    lr_mult: 0
    decay_mult: 0
  }
  param {
    lr_mult: 0
    decay_mult: 0
  }
  param {
    lr_mult: 0
    decay_mult: 0
  }
}
layer {
  name: "Scale4"
  type: "Scale"
  bottom: "Convolution4"
  top: "Convolution4"
  scale_param {
    bias_term: true
  }
}
layer {
  name: "ReLU4"
  type: "ReLU"
  bottom: "Convolution4"
  top: "Convolution4"
}
layer {
  name: "Convolution5"
  type: "Convolution"
  bottom: "Convolution4"
  top: "Convolution5"
  param {
    lr_mult: 1
    decay_mult: 1
  }
  param {
    lr_mult: 2
    decay_mult: 0
  }
  convolution_param {
    num_output: 16
    pad: 1
    kernel_size: 3
    stride: 1
    weight_filler {
      type: "msra"
    }
    bias_filler {
      type: "constant"
      value: 0
    }
  }
}
layer {
  name: "BatchNorm5"
  type: "BatchNorm"
  bottom: "Convolution5"
  top: "Convolution5"
  param {
    lr_mult: 0
    decay_mult: 0
  }
  param {
    lr_mult: 0
    decay_mult: 0
  }
  param {
    lr_mult: 0
    decay_mult: 0
  }
}
layer {
  name: "Scale5"
  type: "Scale"
  bottom: "Convolution5"
  top: "Convolution5"
  scale_param {
    bias_term: true
  }
}
layer {
  name: "Eltwise2"
  type: "Eltwise"
  bottom: "Eltwise1"
  bottom: "Convolution5"
  top: "Eltwise2"
  eltwise_param {
    operation: SUM
  }
}
layer {
  name: "ReLU5"
  type: "ReLU"
  bottom: "Eltwise2"
  top: "Eltwise2"
}
layer {
  name: "Convolution6"
  type: "Convolution"
  bottom: "Eltwise2"
  top: "Convolution6"
  param {
    lr_mult: 1
    decay_mult: 1
  }
  param {
    lr_mult: 2
    decay_mult: 0
  }
  convolution_param {
    num_output: 16
    pad: 1
    kernel_size: 3
    stride: 1
    weight_filler {
      type: "msra"
    }
    bias_filler {
      type: "constant"
      value: 0
    }
  }
}
layer {
  name: "BatchNorm6"
  type: "BatchNorm"
  bottom: "Convolution6"
  top: "Convolution6"
  param {
    lr_mult: 0
    decay_mult: 0
  }
  param {
    lr_mult: 0
    decay_mult: 0
  }
  param {
    lr_mult: 0
    decay_mult: 0
  }
}
layer {
  name: "Scale6"
  type: "Scale"
  bottom: "Convolution6"
  top: "Convolution6"
  scale_param {
    bias_term: true
  }
}
layer {
  name: "ReLU6"
  type: "ReLU"
  bottom: "Convolution6"
  top: "Convolution6"
}
layer {
  name: "Convolution7"
  type: "Convolution"
  bottom: "Convolution6"
  top: "Convolution7"
  param {
    lr_mult: 1
    decay_mult: 1
  }
  param {
    lr_mult: 2
    decay_mult: 0
  }
  convolution_param {
    num_output: 16
    pad: 1
    kernel_size: 3
    stride: 1
    weight_filler {
      type: "msra"
    }
    bias_filler {
      type: "constant"
      value: 0
    }
  }
}
layer {
  name: "BatchNorm7"
  type: "BatchNorm"
  bottom: "Convolution7"
  top: "Convolution7"
  param {
    lr_mult: 0
    decay_mult: 0
  }
  param {
    lr_mult: 0
    decay_mult: 0
  }
  param {
    lr_mult: 0
    decay_mult: 0
  }
}
layer {
  name: "Scale7"
  type: "Scale"
  bottom: "Convolution7"
  top: "Convolution7"
  scale_param {
    bias_term: true
  }
}
layer {
  name: "Eltwise3"
  type: "Eltwise"
  bottom: "Eltwise2"
  bottom: "Convolution7"
  top: "Eltwise3"
  eltwise_param {
    operation: SUM
  }
}
layer {
  name: "ReLU7"
  type: "ReLU"
  bottom: "Eltwise3"
  top: "Eltwise3"
}
layer {
  name: "Convolution8"
  type: "Convolution"
  bottom: "Eltwise3"
  top: "Convolution8"
  param {
    lr_mult: 1
    decay_mult: 1
  }
  param {
    lr_mult: 2
    decay_mult: 0
  }
  convolution_param {
    num_output: 16
    pad: 1
    kernel_size: 3
    stride: 1
    weight_filler {
      type: "msra"
    }
    bias_filler {
      type: "constant"
      value: 0
    }
  }
}
layer {
  name: "BatchNorm8"
  type: "BatchNorm"
  bottom: "Convolution8"
  top: "Convolution8"
  param {
    lr_mult: 0
    decay_mult: 0
  }
  param {
    lr_mult: 0
    decay_mult: 0
  }
  param {
    lr_mult: 0
    decay_mult: 0
  }
}
layer {
  name: "Scale8"
  type: "Scale"
  bottom: "Convolution8"
  top: "Convolution8"
  scale_param {
    bias_term: true
  }
}
layer {
  name: "ReLU8"
  type: "ReLU"
  bottom: "Convolution8"
  top: "Convolution8"
}
layer {
  name: "Convolution9"
  type: "Convolution"
  bottom: "Convolution8"
  top: "Convolution9"
  param {
    lr_mult: 1
    decay_mult: 1
  }
  param {
    lr_mult: 2
    decay_mult: 0
  }
  convolution_param {
    num_output: 16
    pad: 1
    kernel_size: 3
    stride: 1
    weight_filler {
      type: "msra"
    }
    bias_filler {
      type: "constant"
      value: 0
    }
  }
}
layer {
  name: "BatchNorm9"
  type: "BatchNorm"
  bottom: "Convolution9"
  top: "Convolution9"
  param {
    lr_mult: 0
    decay_mult: 0
  }
  param {
    lr_mult: 0
    decay_mult: 0
  }
  param {
    lr_mult: 0
    decay_mult: 0
  }
}
layer {
  name: "Scale9"
  type: "Scale"
  bottom: "Convolution9"
  top: "Convolution9"
  scale_param {
    bias_term: true
  }
}
layer {
  name: "Eltwise4"
  type: "Eltwise"
  bottom: "Eltwise3"
  bottom: "Convolution9"
  top: "Eltwise4"
  eltwise_param {
    operation: SUM
  }
}
layer {
  name: "ReLU9"
  type: "ReLU"
  bottom: "Eltwise4"
  top: "Eltwise4"
}
layer {
  name: "Convolution10"
  type: "Convolution"
  bottom: "Eltwise4"
  top: "Convolution10"
  param {
    lr_mult: 1
    decay_mult: 1
  }
  param {
    lr_mult: 2
    decay_mult: 0
  }
  convolution_param {
    num_output: 16
    pad: 1
    kernel_size: 3
    stride: 1
    weight_filler {
      type: "msra"
    }
    bias_filler {
      type: "constant"
      value: 0
    }
  }
}
layer {
  name: "BatchNorm10"
  type: "BatchNorm"
  bottom: "Convolution10"
  top: "Convolution10"
  param {
    lr_mult: 0
    decay_mult: 0
  }
  param {
    lr_mult: 0
    decay_mult: 0
  }
  param {
    lr_mult: 0
    decay_mult: 0
  }
}
layer {
  name: "Scale10"
  type: "Scale"
  bottom: "Convolution10"
  top: "Convolution10"
  scale_param {
    bias_term: true
  }
}
layer {
  name: "ReLU10"
  type: "ReLU"
  bottom: "Convolution10"
  top: "Convolution10"
}
layer {
  name: "Convolution11"
  type: "Convolution"
  bottom: "Convolution10"
  top: "Convolution11"
  param {
    lr_mult: 1
    decay_mult: 1
  }
  param {
    lr_mult: 2
    decay_mult: 0
  }
  convolution_param {
    num_output: 16
    pad: 1
    kernel_size: 3
    stride: 1
    weight_filler {
      type: "msra"
    }
    bias_filler {
      type: "constant"
      value: 0
    }
  }
}
layer {
  name: "BatchNorm11"
  type: "BatchNorm"
  bottom: "Convolution11"
  top: "Convolution11"
  param {
    lr_mult: 0
    decay_mult: 0
  }
  param {
    lr_mult: 0
    decay_mult: 0
  }
  param {
    lr_mult: 0
    decay_mult: 0
  }
}
layer {
  name: "Scale11"
  type: "Scale"
  bottom: "Convolution11"
  top: "Convolution11"
  scale_param {
    bias_term: true
  }
}
layer {
  name: "Eltwise5"
  type: "Eltwise"
  bottom: "Eltwise4"
  bottom: "Convolution11"
  top: "Eltwise5"
  eltwise_param {
    operation: SUM
  }
}
layer {
  name: "ReLU11"
  type: "ReLU"
  bottom: "Eltwise5"
  top: "Eltwise5"
}
layer {
  name: "Convolution12"
  type: "Convolution"
  bottom: "Eltwise5"
  top: "Convolution12"
  param {
    lr_mult: 1
    decay_mult: 1
  }
  param {
    lr_mult: 2
    decay_mult: 0
  }
  convolution_param {
    num_output: 32
    pad: 0
    kernel_size: 1
    stride: 2
    weight_filler {
      type: "msra"
    }
    bias_filler {
      type: "constant"
      value: 0
    }
  }
}
layer {
  name: "BatchNorm12"
  type: "BatchNorm"
  bottom: "Convolution12"
  top: "Convolution12"
  param {
    lr_mult: 0
    decay_mult: 0
  }
  param {
    lr_mult: 0
    decay_mult: 0
  }
  param {
    lr_mult: 0
    decay_mult: 0
  }
}
layer {
  name: "Scale12"
  type: "Scale"
  bottom: "Convolution12"
  top: "Convolution12"
  scale_param {
    bias_term: true
  }
}
layer {
  name: "Convolution13"
  type: "Convolution"
  bottom: "Eltwise5"
  top: "Convolution13"
  param {
    lr_mult: 1
    decay_mult: 1
  }
  param {
    lr_mult: 2
    decay_mult: 0
  }
  convolution_param {
    num_output: 32
    pad: 1
    kernel_size: 3
    stride: 2
    weight_filler {
      type: "msra"
    }
    bias_filler {
      type: "constant"
      value: 0
    }
  }
}
layer {
  name: "BatchNorm13"
  type: "BatchNorm"
  bottom: "Convolution13"
  top: "Convolution13"
  param {
    lr_mult: 0
    decay_mult: 0
  }
  param {
    lr_mult: 0
    decay_mult: 0
  }
  param {
    lr_mult: 0
    decay_mult: 0
  }
}
layer {
  name: "Scale13"
  type: "Scale"
  bottom: "Convolution13"
  top: "Convolution13"
  scale_param {
    bias_term: true
  }
}
layer {
  name: "ReLU12"
  type: "ReLU"
  bottom: "Convolution13"
  top: "Convolution13"
}
layer {
  name: "Convolution14"
  type: "Convolution"
  bottom: "Convolution13"
  top: "Convolution14"
  param {
    lr_mult: 1
    decay_mult: 1
  }
  param {
    lr_mult: 2
    decay_mult: 0
  }
  convolution_param {
    num_output: 32
    pad: 1
    kernel_size: 3
    stride: 1
    weight_filler {
      type: "msra"
    }
    bias_filler {
      type: "constant"
      value: 0
    }
  }
}
layer {
  name: "BatchNorm14"
  type: "BatchNorm"
  bottom: "Convolution14"
  top: "Convolution14"
  param {
    lr_mult: 0
    decay_mult: 0
  }
  param {
    lr_mult: 0
    decay_mult: 0
  }
  param {
    lr_mult: 0
    decay_mult: 0
  }
}
layer {
  name: "Scale14"
  type: "Scale"
  bottom: "Convolution14"
  top: "Convolution14"
  scale_param {
    bias_term: true
  }
}
layer {
  name: "Eltwise6"
  type: "Eltwise"
  bottom: "Convolution12"
  bottom: "Convolution14"
  top: "Eltwise6"
  eltwise_param {
    operation: SUM
  }
}
layer {
  name: "ReLU13"
  type: "ReLU"
  bottom: "Eltwise6"
  top: "Eltwise6"
}
layer {
  name: "Convolution15"
  type: "Convolution"
  bottom: "Eltwise6"
  top: "Convolution15"
  param {
    lr_mult: 1
    decay_mult: 1
  }
  param {
    lr_mult: 2
    decay_mult: 0
  }
  convolution_param {
    num_output: 32
    pad: 1
    kernel_size: 3
    stride: 1
    weight_filler {
      type: "msra"
    }
    bias_filler {
      type: "constant"
      value: 0
    }
  }
}
layer {
  name: "BatchNorm15"
  type: "BatchNorm"
  bottom: "Convolution15"
  top: "Convolution15"
  param {
    lr_mult: 0
    decay_mult: 0
  }
  param {
    lr_mult: 0
    decay_mult: 0
  }
  param {
    lr_mult: 0
    decay_mult: 0
  }
}
layer {
  name: "Scale15"
  type: "Scale"
  bottom: "Convolution15"
  top: "Convolution15"
  scale_param {
    bias_term: true
  }
}
layer {
  name: "ReLU14"
  type: "ReLU"
  bottom: "Convolution15"
  top: "Convolution15"
}
layer {
  name: "Convolution16"
  type: "Convolution"
  bottom: "Convolution15"
  top: "Convolution16"
  param {
    lr_mult: 1
    decay_mult: 1
  }
  param {
    lr_mult: 2
    decay_mult: 0
  }
  convolution_param {
    num_output: 32
    pad: 1
    kernel_size: 3
    stride: 1
    weight_filler {
      type: "msra"
    }
    bias_filler {
      type: "constant"
      value: 0
    }
  }
}
layer {
  name: "BatchNorm16"
  type: "BatchNorm"
  bottom: "Convolution16"
  top: "Convolution16"
  param {
    lr_mult: 0
    decay_mult: 0
  }
  param {
    lr_mult: 0
    decay_mult: 0
  }
  param {
    lr_mult: 0
    decay_mult: 0
  }
}
layer {
  name: "Scale16"
  type: "Scale"
  bottom: "Convolution16"
  top: "Convolution16"
  scale_param {
    bias_term: true
  }
}
layer {
  name: "Eltwise7"
  type: "Eltwise"
  bottom: "Eltwise6"
  bottom: "Convolution16"
  top: "Eltwise7"
  eltwise_param {
    operation: SUM
  }
}
layer {
  name: "ReLU15"
  type: "ReLU"
  bottom: "Eltwise7"
  top: "Eltwise7"
}
layer {
  name: "Convolution17"
  type: "Convolution"
  bottom: "Eltwise7"
  top: "Convolution17"
  param {
    lr_mult: 1
    decay_mult: 1
  }
  param {
    lr_mult: 2
    decay_mult: 0
  }
  convolution_param {
    num_output: 32
    pad: 1
    kernel_size: 3
    stride: 1
    weight_filler {
      type: "msra"
    }
    bias_filler {
      type: "constant"
      value: 0
    }
  }
}
layer {
  name: "BatchNorm17"
  type: "BatchNorm"
  bottom: "Convolution17"
  top: "Convolution17"
  param {
    lr_mult: 0
    decay_mult: 0
  }
  param {
    lr_mult: 0
    decay_mult: 0
  }
  param {
    lr_mult: 0
    decay_mult: 0
  }
}
layer {
  name: "Scale17"
  type: "Scale"
  bottom: "Convolution17"
  top: "Convolution17"
  scale_param {
    bias_term: true
  }
}
layer {
  name: "ReLU16"
  type: "ReLU"
  bottom: "Convolution17"
  top: "Convolution17"
}
layer {
  name: "Convolution18"
  type: "Convolution"
  bottom: "Convolution17"
  top: "Convolution18"
  param {
    lr_mult: 1
    decay_mult: 1
  }
  param {
    lr_mult: 2
    decay_mult: 0
  }
  convolution_param {
    num_output: 32
    pad: 1
    kernel_size: 3
    stride: 1
    weight_filler {
      type: "msra"
    }
    bias_filler {
      type: "constant"
      value: 0
    }
  }
}
layer {
  name: "BatchNorm18"
  type: "BatchNorm"
  bottom: "Convolution18"
  top: "Convolution18"
  param {
    lr_mult: 0
    decay_mult: 0
  }
  param {
    lr_mult: 0
    decay_mult: 0
  }
  param {
    lr_mult: 0
    decay_mult: 0
  }
}
layer {
  name: "Scale18"
  type: "Scale"
  bottom: "Convolution18"
  top: "Convolution18"
  scale_param {
    bias_term: true
  }
}
layer {
  name: "Eltwise8"
  type: "Eltwise"
  bottom: "Eltwise7"
  bottom: "Convolution18"
  top: "Eltwise8"
  eltwise_param {
    operation: SUM
  }
}
layer {
  name: "ReLU17"
  type: "ReLU"
  bottom: "Eltwise8"
  top: "Eltwise8"
}
layer {
  name: "Convolution19"
  type: "Convolution"
  bottom: "Eltwise8"
  top: "Convolution19"
  param {
    lr_mult: 1
    decay_mult: 1
  }
  param {
    lr_mult: 2
    decay_mult: 0
  }
  convolution_param {
    num_output: 32
    pad: 1
    kernel_size: 3
    stride: 1
    weight_filler {
      type: "msra"
    }
    bias_filler {
      type: "constant"
      value: 0
    }
  }
}
layer {
  name: "BatchNorm19"
  type: "BatchNorm"
  bottom: "Convolution19"
  top: "Convolution19"
  param {
    lr_mult: 0
    decay_mult: 0
  }
  param {
    lr_mult: 0
    decay_mult: 0
  }
  param {
    lr_mult: 0
    decay_mult: 0
  }
}
layer {
  name: "Scale19"
  type: "Scale"
  bottom: "Convolution19"
  top: "Convolution19"
  scale_param {
    bias_term: true
  }
}
layer {
  name: "ReLU18"
  type: "ReLU"
  bottom: "Convolution19"
  top: "Convolution19"
}
layer {
  name: "Convolution20"
  type: "Convolution"
  bottom: "Convolution19"
  top: "Convolution20"
  param {
    lr_mult: 1
    decay_mult: 1
  }
  param {
    lr_mult: 2
    decay_mult: 0
  }
  convolution_param {
    num_output: 32
    pad: 1
    kernel_size: 3
    stride: 1
    weight_filler {
      type: "msra"
    }
    bias_filler {
      type: "constant"
      value: 0
    }
  }
}
layer {
  name: "BatchNorm20"
  type: "BatchNorm"
  bottom: "Convolution20"
  top: "Convolution20"
  param {
    lr_mult: 0
    decay_mult: 0
  }
  param {
    lr_mult: 0
    decay_mult: 0
  }
  param {
    lr_mult: 0
    decay_mult: 0
  }
}
layer {
  name: "Scale20"
  type: "Scale"
  bottom: "Convolution20"
  top: "Convolution20"
  scale_param {
    bias_term: true
  }
}
layer {
  name: "Eltwise9"
  type: "Eltwise"
  bottom: "Eltwise8"
  bottom: "Convolution20"
  top: "Eltwise9"
  eltwise_param {
    operation: SUM
  }
}
layer {
  name: "ReLU19"
  type: "ReLU"
  bottom: "Eltwise9"
  top: "Eltwise9"
}
layer {
  name: "Convolution21"
  type: "Convolution"
  bottom: "Eltwise9"
  top: "Convolution21"
  param {
    lr_mult: 1
    decay_mult: 1
  }
  param {
    lr_mult: 2
    decay_mult: 0
  }
  convolution_param {
    num_output: 32
    pad: 1
    kernel_size: 3
    stride: 1
    weight_filler {
      type: "msra"
    }
    bias_filler {
      type: "constant"
      value: 0
    }
  }
}
layer {
  name: "BatchNorm21"
  type: "BatchNorm"
  bottom: "Convolution21"
  top: "Convolution21"
  param {
    lr_mult: 0
    decay_mult: 0
  }
  param {
    lr_mult: 0
    decay_mult: 0
  }
  param {
    lr_mult: 0
    decay_mult: 0
  }
}
layer {
  name: "Scale21"
  type: "Scale"
  bottom: "Convolution21"
  top: "Convolution21"
  scale_param {
    bias_term: true
  }
}
layer {
  name: "ReLU20"
  type: "ReLU"
  bottom: "Convolution21"
  top: "Convolution21"
}
layer {
  name: "Convolution22"
  type: "Convolution"
  bottom: "Convolution21"
  top: "Convolution22"
  param {
    lr_mult: 1
    decay_mult: 1
  }
  param {
    lr_mult: 2
    decay_mult: 0
  }
  convolution_param {
    num_output: 32
    pad: 1
    kernel_size: 3
    stride: 1
    weight_filler {
      type: "msra"
    }
    bias_filler {
      type: "constant"
      value: 0
    }
  }
}
layer {
  name: "BatchNorm22"
  type: "BatchNorm"
  bottom: "Convolution22"
  top: "Convolution22"
  param {
    lr_mult: 0
    decay_mult: 0
  }
  param {
    lr_mult: 0
    decay_mult: 0
  }
  param {
    lr_mult: 0
    decay_mult: 0
  }
}
layer {
  name: "Scale22"
  type: "Scale"
  bottom: "Convolution22"
  top: "Convolution22"
  scale_param {
    bias_term: true
  }
}
layer {
  name: "Eltwise10"
  type: "Eltwise"
  bottom: "Eltwise9"
  bottom: "Convolution22"
  top: "Eltwise10"
  eltwise_param {
    operation: SUM
  }
}
layer {
  name: "ReLU21"
  type: "ReLU"
  bottom: "Eltwise10"
  top: "Eltwise10"
}
layer {
  name: "Convolution23"
  type: "Convolution"
  bottom: "Eltwise10"
  top: "Convolution23"
  param {
    lr_mult: 1
    decay_mult: 1
  }
  param {
    lr_mult: 2
    decay_mult: 0
  }
  convolution_param {
    num_output: 64
    pad: 0
    kernel_size: 1
    stride: 2
    weight_filler {
      type: "msra"
    }
    bias_filler {
      type: "constant"
      value: 0
    }
  }
}
layer {
  name: "BatchNorm23"
  type: "BatchNorm"
  bottom: "Convolution23"
  top: "Convolution23"
  param {
    lr_mult: 0
    decay_mult: 0
  }
  param {
    lr_mult: 0
    decay_mult: 0
  }
  param {
    lr_mult: 0
    decay_mult: 0
  }
}
layer {
  name: "Scale23"
  type: "Scale"
  bottom: "Convolution23"
  top: "Convolution23"
  scale_param {
    bias_term: true
  }
}
layer {
  name: "Convolution24"
  type: "Convolution"
  bottom: "Eltwise10"
  top: "Convolution24"
  param {
    lr_mult: 1
    decay_mult: 1
  }
  param {
    lr_mult: 2
    decay_mult: 0
  }
  convolution_param {
    num_output: 64
    pad: 1
    kernel_size: 3
    stride: 2
    weight_filler {
      type: "msra"
    }
    bias_filler {
      type: "constant"
      value: 0
    }
  }
}
layer {
  name: "BatchNorm24"
  type: "BatchNorm"
  bottom: "Convolution24"
  top: "Convolution24"
  param {
    lr_mult: 0
    decay_mult: 0
  }
  param {
    lr_mult: 0
    decay_mult: 0
  }
  param {
    lr_mult: 0
    decay_mult: 0
  }
}
layer {
  name: "Scale24"
  type: "Scale"
  bottom: "Convolution24"
  top: "Convolution24"
  scale_param {
    bias_term: true
  }
}
layer {
  name: "ReLU22"
  type: "ReLU"
  bottom: "Convolution24"
  top: "Convolution24"
}
layer {
  name: "Convolution25"
  type: "Convolution"
  bottom: "Convolution24"
  top: "Convolution25"
  param {
    lr_mult: 1
    decay_mult: 1
  }
  param {
    lr_mult: 2
    decay_mult: 0
  }
  convolution_param {
    num_output: 64
    pad: 1
    kernel_size: 3
    stride: 1
    weight_filler {
      type: "msra"
    }
    bias_filler {
      type: "constant"
      value: 0
    }
  }
}
layer {
  name: "BatchNorm25"
  type: "BatchNorm"
  bottom: "Convolution25"
  top: "Convolution25"
  param {
    lr_mult: 0
    decay_mult: 0
  }
  param {
    lr_mult: 0
    decay_mult: 0
  }
  param {
    lr_mult: 0
    decay_mult: 0
  }
}
layer {
  name: "Scale25"
  type: "Scale"
  bottom: "Convolution25"
  top: "Convolution25"
  scale_param {
    bias_term: true
  }
}
layer {
  name: "Eltwise11"
  type: "Eltwise"
  bottom: "Convolution23"
  bottom: "Convolution25"
  top: "Eltwise11"
  eltwise_param {
    operation: SUM
  }
}
layer {
  name: "ReLU23"
  type: "ReLU"
  bottom: "Eltwise11"
  top: "Eltwise11"
}
layer {
  name: "Convolution26"
  type: "Convolution"
  bottom: "Eltwise11"
  top: "Convolution26"
  param {
    lr_mult: 1
    decay_mult: 1
  }
  param {
    lr_mult: 2
    decay_mult: 0
  }
  convolution_param {
    num_output: 64
    pad: 1
    kernel_size: 3
    stride: 1
    weight_filler {
      type: "msra"
    }
    bias_filler {
      type: "constant"
      value: 0
    }
  }
}
layer {
  name: "BatchNorm26"
  type: "BatchNorm"
  bottom: "Convolution26"
  top: "Convolution26"
  param {
    lr_mult: 0
    decay_mult: 0
  }
  param {
    lr_mult: 0
    decay_mult: 0
  }
  param {
    lr_mult: 0
    decay_mult: 0
  }
}
layer {
  name: "Scale26"
  type: "Scale"
  bottom: "Convolution26"
  top: "Convolution26"
  scale_param {
    bias_term: true
  }
}
layer {
  name: "ReLU24"
  type: "ReLU"
  bottom: "Convolution26"
  top: "Convolution26"
}
layer {
  name: "Convolution27"
  type: "Convolution"
  bottom: "Convolution26"
  top: "Convolution27"
  param {
    lr_mult: 1
    decay_mult: 1
  }
  param {
    lr_mult: 2
    decay_mult: 0
  }
  convolution_param {
    num_output: 64
    pad: 1
    kernel_size: 3
    stride: 1
    weight_filler {
      type: "msra"
    }
    bias_filler {
      type: "constant"
      value: 0
    }
  }
}
layer {
  name: "BatchNorm27"
  type: "BatchNorm"
  bottom: "Convolution27"
  top: "Convolution27"
  param {
    lr_mult: 0
    decay_mult: 0
  }
  param {
    lr_mult: 0
    decay_mult: 0
  }
  param {
    lr_mult: 0
    decay_mult: 0
  }
}
layer {
  name: "Scale27"
  type: "Scale"
  bottom: "Convolution27"
  top: "Convolution27"
  scale_param {
    bias_term: true
  }
}
layer {
  name: "Eltwise12"
  type: "Eltwise"
  bottom: "Eltwise11"
  bottom: "Convolution27"
  top: "Eltwise12"
  eltwise_param {
    operation: SUM
  }
}
layer {
  name: "ReLU25"
  type: "ReLU"
  bottom: "Eltwise12"
  top: "Eltwise12"
}
layer {
  name: "Convolution28"
  type: "Convolution"
  bottom: "Eltwise12"
  top: "Convolution28"
  param {
    lr_mult: 1
    decay_mult: 1
  }
  param {
    lr_mult: 2
    decay_mult: 0
  }
  convolution_param {
    num_output: 64
    pad: 1
    kernel_size: 3
    stride: 1
    weight_filler {
      type: "msra"
    }
    bias_filler {
      type: "constant"
      value: 0
    }
  }
}
layer {
  name: "BatchNorm28"
  type: "BatchNorm"
  bottom: "Convolution28"
  top: "Convolution28"
  param {
    lr_mult: 0
    decay_mult: 0
  }
  param {
    lr_mult: 0
    decay_mult: 0
  }
  param {
    lr_mult: 0
    decay_mult: 0
  }
}
layer {
  name: "Scale28"
  type: "Scale"
  bottom: "Convolution28"
  top: "Convolution28"
  scale_param {
    bias_term: true
  }
}
layer {
  name: "ReLU26"
  type: "ReLU"
  bottom: "Convolution28"
  top: "Convolution28"
}
layer {
  name: "Convolution29"
  type: "Convolution"
  bottom: "Convolution28"
  top: "Convolution29"
  param {
    lr_mult: 1
    decay_mult: 1
  }
  param {
    lr_mult: 2
    decay_mult: 0
  }
  convolution_param {
    num_output: 64
    pad: 1
    kernel_size: 3
    stride: 1
    weight_filler {
      type: "msra"
    }
    bias_filler {
      type: "constant"
      value: 0
    }
  }
}
layer {
  name: "BatchNorm29"
  type: "BatchNorm"
  bottom: "Convolution29"
  top: "Convolution29"
  param {
    lr_mult: 0
    decay_mult: 0
  }
  param {
    lr_mult: 0
    decay_mult: 0
  }
  param {
    lr_mult: 0
    decay_mult: 0
  }
}
layer {
  name: "Scale29"
  type: "Scale"
  bottom: "Convolution29"
  top: "Convolution29"
  scale_param {
    bias_term: true
  }
}
layer {
  name: "Eltwise13"
  type: "Eltwise"
  bottom: "Eltwise12"
  bottom: "Convolution29"
  top: "Eltwise13"
  eltwise_param {
    operation: SUM
  }
}
layer {
  name: "ReLU27"
  type: "ReLU"
  bottom: "Eltwise13"
  top: "Eltwise13"
}
layer {
  name: "Convolution30"
  type: "Convolution"
  bottom: "Eltwise13"
  top: "Convolution30"
  param {
    lr_mult: 1
    decay_mult: 1
  }
  param {
    lr_mult: 2
    decay_mult: 0
  }
  convolution_param {
    num_output: 64
    pad: 1
    kernel_size: 3
    stride: 1
    weight_filler {
      type: "msra"
    }
    bias_filler {
      type: "constant"
      value: 0
    }
  }
}
layer {
  name: "BatchNorm30"
  type: "BatchNorm"
  bottom: "Convolution30"
  top: "Convolution30"
  param {
    lr_mult: 0
    decay_mult: 0
  }
  param {
    lr_mult: 0
    decay_mult: 0
  }
  param {
    lr_mult: 0
    decay_mult: 0
  }
}
layer {
  name: "Scale30"
  type: "Scale"
  bottom: "Convolution30"
  top: "Convolution30"
  scale_param {
    bias_term: true
  }
}
layer {
  name: "ReLU28"
  type: "ReLU"
  bottom: "Convolution30"
  top: "Convolution30"
}
layer {
  name: "Convolution31"
  type: "Convolution"
  bottom: "Convolution30"
  top: "Convolution31"
  param {
    lr_mult: 1
    decay_mult: 1
  }
  param {
    lr_mult: 2
    decay_mult: 0
  }
  convolution_param {
    num_output: 64
    pad: 1
    kernel_size: 3
    stride: 1
    weight_filler {
      type: "msra"
    }
    bias_filler {
      type: "constant"
      value: 0
    }
  }
}
layer {
  name: "BatchNorm31"
  type: "BatchNorm"
  bottom: "Convolution31"
  top: "Convolution31"
  param {
    lr_mult: 0
    decay_mult: 0
  }
  param {
    lr_mult: 0
    decay_mult: 0
  }
  param {
    lr_mult: 0
    decay_mult: 0
  }
}
layer {
  name: "Scale31"
  type: "Scale"
  bottom: "Convolution31"
  top: "Convolution31"
  scale_param {
    bias_term: true
  }
}
layer {
  name: "Eltwise14"
  type: "Eltwise"
  bottom: "Eltwise13"
  bottom: "Convolution31"
  top: "Eltwise14"
  eltwise_param {
    operation: SUM
  }
}
layer {
  name: "ReLU29"
  type: "ReLU"
  bottom: "Eltwise14"
  top: "Eltwise14"
}
layer {
  name: "Convolution32"
  type: "Convolution"
  bottom: "Eltwise14"
  top: "Convolution32"
  param {
    lr_mult: 1
    decay_mult: 1
  }
  param {
    lr_mult: 2
    decay_mult: 0
  }
  convolution_param {
    num_output: 64
    pad: 1
    kernel_size: 3
    stride: 1
    weight_filler {
      type: "msra"
    }
    bias_filler {
      type: "constant"
      value: 0
    }
  }
}
layer {
  name: "BatchNorm32"
  type: "BatchNorm"
  bottom: "Convolution32"
  top: "Convolution32"
  param {
    lr_mult: 0
    decay_mult: 0
  }
  param {
    lr_mult: 0
    decay_mult: 0
  }
  param {
    lr_mult: 0
    decay_mult: 0
  }
}
layer {
  name: "Scale32"
  type: "Scale"
  bottom: "Convolution32"
  top: "Convolution32"
  scale_param {
    bias_term: true
  }
}
layer {
  name: "ReLU30"
  type: "ReLU"
  bottom: "Convolution32"
  top: "Convolution32"
}
layer {
  name: "Convolution33"
  type: "Convolution"
  bottom: "Convolution32"
  top: "Convolution33"
  param {
    lr_mult: 1
    decay_mult: 1
  }
  param {
    lr_mult: 2
    decay_mult: 0
  }
  convolution_par
I0825 11:10:29.178162  1691 layer_factory.hpp:77] Creating layer Data1
I0825 11:10:29.178361  1691 db_lmdb.cpp:35] Opened lmdb /home/lijianfei/datasets/cifar10_40/train_lmdb
I0825 11:10:29.178426  1691 net.cpp:128] Creating Layer Data1
I0825 11:10:29.178438  1691 net.cpp:522] Data1 -> Data1
I0825 11:10:29.178472  1691 net.cpp:522] Data1 -> Data2
I0825 11:10:29.180395  1691 data_layer.cpp:45] output data size: 64,3,32,32
I0825 11:10:29.191895  1691 net.cpp:172] Setting up Data1
I0825 11:10:29.191941  1691 net.cpp:186] Top shape: 64 3 32 32 (196608)
I0825 11:10:29.191949  1691 net.cpp:186] Top shape: 64 (64)
I0825 11:10:29.191953  1691 net.cpp:194] Memory required for data: 786688
I0825 11:10:29.191969  1691 layer_factory.hpp:77] Creating layer Convolution1
I0825 11:10:29.192008  1691 net.cpp:128] Creating Layer Convolution1
I0825 11:10:29.192018  1691 net.cpp:558] Convolution1 <- Data1
I0825 11:10:29.192039  1691 net.cpp:522] Convolution1 -> Convolution1
I0825 11:10:30.213219  1691 net.cpp:172] Setting up Convolution1
I0825 11:10:30.213359  1691 net.cpp:186] Top shape: 64 16 32 32 (1048576)
I0825 11:10:30.213367  1691 net.cpp:194] Memory required for data: 4980992
I0825 11:10:30.213418  1691 layer_factory.hpp:77] Creating layer BatchNorm1
I0825 11:10:30.213443  1691 net.cpp:128] Creating Layer BatchNorm1
I0825 11:10:30.213449  1691 net.cpp:558] BatchNorm1 <- Convolution1
I0825 11:10:30.213459  1691 net.cpp:509] BatchNorm1 -> Convolution1 (in-place)
I0825 11:10:30.213706  1691 net.cpp:172] Setting up BatchNorm1
I0825 11:10:30.213714  1691 net.cpp:186] Top shape: 64 16 32 32 (1048576)
I0825 11:10:30.213718  1691 net.cpp:194] Memory required for data: 9175296
I0825 11:10:30.213733  1691 layer_factory.hpp:77] Creating layer Scale1
I0825 11:10:30.213745  1691 net.cpp:128] Creating Layer Scale1
I0825 11:10:30.213749  1691 net.cpp:558] Scale1 <- Convolution1
I0825 11:10:30.213755  1691 net.cpp:509] Scale1 -> Convolution1 (in-place)
I0825 11:10:30.213807  1691 layer_factory.hpp:77] Creating layer Scale1
I0825 11:10:30.213939  1691 net.cpp:172] Setting up Scale1
I0825 11:10:30.213948  1691 net.cpp:186] Top shape: 64 16 32 32 (1048576)
I0825 11:10:30.213951  1691 net.cpp:194] Memory required for data: 13369600
I0825 11:10:30.213959  1691 layer_factory.hpp:77] Creating layer ReLU1
I0825 11:10:30.213970  1691 net.cpp:128] Creating Layer ReLU1
I0825 11:10:30.213975  1691 net.cpp:558] ReLU1 <- Convolution1
I0825 11:10:30.213981  1691 net.cpp:509] ReLU1 -> Convolution1 (in-place)
I0825 11:10:30.214946  1691 net.cpp:172] Setting up ReLU1
I0825 11:10:30.214962  1691 net.cpp:186] Top shape: 64 16 32 32 (1048576)
I0825 11:10:30.214967  1691 net.cpp:194] Memory required for data: 17563904
I0825 11:10:30.214972  1691 layer_factory.hpp:77] Creating layer Convolution1_ReLU1_0_split
I0825 11:10:30.214982  1691 net.cpp:128] Creating Layer Convolution1_ReLU1_0_split
I0825 11:10:30.214987  1691 net.cpp:558] Convolution1_ReLU1_0_split <- Convolution1
I0825 11:10:30.214993  1691 net.cpp:522] Convolution1_ReLU1_0_split -> Convolution1_ReLU1_0_split_0
I0825 11:10:30.215003  1691 net.cpp:522] Convolution1_ReLU1_0_split -> Convolution1_ReLU1_0_split_1
I0825 11:10:30.215046  1691 net.cpp:172] Setting up Convolution1_ReLU1_0_split
I0825 11:10:30.215054  1691 net.cpp:186] Top shape: 64 16 32 32 (1048576)
I0825 11:10:30.215060  1691 net.cpp:186] Top shape: 64 16 32 32 (1048576)
I0825 11:10:30.215065  1691 net.cpp:194] Memory required for data: 25952512
I0825 11:10:30.215068  1691 layer_factory.hpp:77] Creating layer Convolution2
I0825 11:10:30.215085  1691 net.cpp:128] Creating Layer Convolution2
I0825 11:10:30.215090  1691 net.cpp:558] Convolution2 <- Convolution1_ReLU1_0_split_0
I0825 11:10:30.215097  1691 net.cpp:522] Convolution2 -> Convolution2
I0825 11:10:30.221707  1691 net.cpp:172] Setting up Convolution2
I0825 11:10:30.221736  1691 net.cpp:186] Top shape: 64 16 32 32 (1048576)
I0825 11:10:30.221741  1691 net.cpp:194] Memory required for data: 30146816
I0825 11:10:30.221757  1691 layer_factory.hpp:77] Creating layer BatchNorm2
I0825 11:10:30.221768  1691 net.cpp:128] Creating Layer BatchNorm2
I0825 11:10:30.221773  1691 net.cpp:558] BatchNorm2 <- Convolution2
I0825 11:10:30.221786  1691 net.cpp:509] BatchNorm2 -> Convolution2 (in-place)
I0825 11:10:30.222002  1691 net.cpp:172] Setting up BatchNorm2
I0825 11:10:30.222014  1691 net.cpp:186] Top shape: 64 16 32 32 (1048576)
I0825 11:10:30.222019  1691 net.cpp:194] Memory required for data: 34341120
I0825 11:10:30.222029  1691 layer_factory.hpp:77] Creating layer Scale2
I0825 11:10:30.222039  1691 net.cpp:128] Creating Layer Scale2
I0825 11:10:30.222043  1691 net.cpp:558] Scale2 <- Convolution2
I0825 11:10:30.222050  1691 net.cpp:509] Scale2 -> Convolution2 (in-place)
I0825 11:10:30.222091  1691 layer_factory.hpp:77] Creating layer Scale2
I0825 11:10:30.222213  1691 net.cpp:172] Setting up Scale2
I0825 11:10:30.222224  1691 net.cpp:186] Top shape: 64 16 32 32 (1048576)
I0825 11:10:30.222231  1691 net.cpp:194] Memory required for data: 38535424
I0825 11:10:30.222239  1691 layer_factory.hpp:77] Creating layer ReLU2
I0825 11:10:30.222270  1691 net.cpp:128] Creating Layer ReLU2
I0825 11:10:30.222278  1691 net.cpp:558] ReLU2 <- Convolution2
I0825 11:10:30.222285  1691 net.cpp:509] ReLU2 -> Convolution2 (in-place)
I0825 11:10:30.223803  1691 net.cpp:172] Setting up ReLU2
I0825 11:10:30.223819  1691 net.cpp:186] Top shape: 64 16 32 32 (1048576)
I0825 11:10:30.223824  1691 net.cpp:194] Memory required for data: 42729728
I0825 11:10:30.223829  1691 layer_factory.hpp:77] Creating layer Convolution3
I0825 11:10:30.223845  1691 net.cpp:128] Creating Layer Convolution3
I0825 11:10:30.223853  1691 net.cpp:558] Convolution3 <- Convolution2
I0825 11:10:30.223862  1691 net.cpp:522] Convolution3 -> Convolution3
I0825 11:10:30.230547  1691 net.cpp:172] Setting up Convolution3
I0825 11:10:30.230574  1691 net.cpp:186] Top shape: 64 16 32 32 (1048576)
I0825 11:10:30.230578  1691 net.cpp:194] Memory required for data: 46924032
I0825 11:10:30.230589  1691 layer_factory.hpp:77] Creating layer BatchNorm3
I0825 11:10:30.230599  1691 net.cpp:128] Creating Layer BatchNorm3
I0825 11:10:30.230603  1691 net.cpp:558] BatchNorm3 <- Convolution3
I0825 11:10:30.230612  1691 net.cpp:509] BatchNorm3 -> Convolution3 (in-place)
I0825 11:10:30.230830  1691 net.cpp:172] Setting up BatchNorm3
I0825 11:10:30.230842  1691 net.cpp:186] Top shape: 64 16 32 32 (1048576)
I0825 11:10:30.230847  1691 net.cpp:194] Memory required for data: 51118336
I0825 11:10:30.230859  1691 layer_factory.hpp:77] Creating layer Scale3
I0825 11:10:30.230868  1691 net.cpp:128] Creating Layer Scale3
I0825 11:10:30.230872  1691 net.cpp:558] Scale3 <- Convolution3
I0825 11:10:30.230880  1691 net.cpp:509] Scale3 -> Convolution3 (in-place)
I0825 11:10:30.230921  1691 layer_factory.hpp:77] Creating layer Scale3
I0825 11:10:30.231046  1691 net.cpp:172] Setting up Scale3
I0825 11:10:30.231057  1691 net.cpp:186] Top shape: 64 16 32 32 (1048576)
I0825 11:10:30.231061  1691 net.cpp:194] Memory required for data: 55312640
I0825 11:10:30.231070  1691 layer_factory.hpp:77] Creating layer Eltwise1
I0825 11:10:30.231078  1691 net.cpp:128] Creating Layer Eltwise1
I0825 11:10:30.231083  1691 net.cpp:558] Eltwise1 <- Convolution1_ReLU1_0_split_1
I0825 11:10:30.231088  1691 net.cpp:558] Eltwise1 <- Convolution3
I0825 11:10:30.231096  1691 net.cpp:522] Eltwise1 -> Eltwise1
I0825 11:10:30.231125  1691 net.cpp:172] Setting up Eltwise1
I0825 11:10:30.231137  1691 net.cpp:186] Top shape: 64 16 32 32 (1048576)
I0825 11:10:30.231140  1691 net.cpp:194] Memory required for data: 59506944
I0825 11:10:30.231145  1691 layer_factory.hpp:77] Creating layer ReLU3
I0825 11:10:30.231151  1691 net.cpp:128] Creating Layer ReLU3
I0825 11:10:30.231156  1691 net.cpp:558] ReLU3 <- Eltwise1
I0825 11:10:30.231163  1691 net.cpp:509] ReLU3 -> Eltwise1 (in-place)
I0825 11:10:30.232653  1691 net.cpp:172] Setting up ReLU3
I0825 11:10:30.232673  1691 net.cpp:186] Top shape: 64 16 32 32 (1048576)
I0825 11:10:30.232678  1691 net.cpp:194] Memory required for data: 63701248
I0825 11:10:30.232684  1691 layer_factory.hpp:77] Creating layer Eltwise1_ReLU3_0_split
I0825 11:10:30.232693  1691 net.cpp:128] Creating Layer Eltwise1_ReLU3_0_split
I0825 11:10:30.232697  1691 net.cpp:558] Eltwise1_ReLU3_0_split <- Eltwise1
I0825 11:10:30.232709  1691 net.cpp:522] Eltwise1_ReLU3_0_split -> Eltwise1_ReLU3_0_split_0
I0825 11:10:30.232719  1691 net.cpp:522] Eltwise1_ReLU3_0_split -> Eltwise1_ReLU3_0_split_1
I0825 11:10:30.232762  1691 net.cpp:172] Setting up Eltwise1_ReLU3_0_split
I0825 11:10:30.232770  1691 net.cpp:186] Top shape: 64 16 32 32 (1048576)
I0825 11:10:30.232776  1691 net.cpp:186] Top shape: 64 16 32 32 (1048576)
I0825 11:10:30.232781  1691 net.cpp:194] Memory required for data: 72089856
I0825 11:10:30.232785  1691 layer_factory.hpp:77] Creating layer Convolution4
I0825 11:10:30.232797  1691 net.cpp:128] Creating Layer Convolution4
I0825 11:10:30.232802  1691 net.cpp:558] Convolution4 <- Eltwise1_ReLU3_0_split_0
I0825 11:10:30.232810  1691 net.cpp:522] Convolution4 -> Convolution4
I0825 11:10:30.234036  1691 net.cpp:172] Setting up Convolution4
I0825 11:10:30.234076  1691 net.cpp:186] Top shape: 64 16 32 32 (1048576)
I0825 11:10:30.234081  1691 net.cpp:194] Memory required for data: 76284160
I0825 11:10:30.234091  1691 layer_factory.hpp:77] Creating layer BatchNorm4
I0825 11:10:30.234099  1691 net.cpp:128] Creating Layer BatchNorm4
I0825 11:10:30.234107  1691 net.cpp:558] BatchNorm4 <- Convolution4
I0825 11:10:30.234113  1691 net.cpp:509] BatchNorm4 -> Convolution4 (in-place)
I0825 11:10:30.234328  1691 net.cpp:172] Setting up BatchNorm4
I0825 11:10:30.234349  1691 net.cpp:186] Top shape: 64 16 32 32 (1048576)
I0825 11:10:30.234352  1691 net.cpp:194] Memory required for data: 80478464
I0825 11:10:30.234362  1691 layer_factory.hpp:77] Creating layer Scale4
I0825 11:10:30.234370  1691 net.cpp:128] Creating Layer Scale4
I0825 11:10:30.234375  1691 net.cpp:558] Scale4 <- Convolution4
I0825 11:10:30.234380  1691 net.cpp:509] Scale4 -> Convolution4 (in-place)
I0825 11:10:30.234421  1691 layer_factory.hpp:77] Creating layer Scale4
I0825 11:10:30.234550  1691 net.cpp:172] Setting up Scale4
I0825 11:10:30.234562  1691 net.cpp:186] Top shape: 64 16 32 32 (1048576)
I0825 11:10:30.234566  1691 net.cpp:194] Memory required for data: 84672768
I0825 11:10:30.234575  1691 layer_factory.hpp:77] Creating layer ReLU4
I0825 11:10:30.234581  1691 net.cpp:128] Creating Layer ReLU4
I0825 11:10:30.234586  1691 net.cpp:558] ReLU4 <- Convolution4
I0825 11:10:30.234591  1691 net.cpp:509] ReLU4 -> Convolution4 (in-place)
I0825 11:10:30.234808  1691 net.cpp:172] Setting up ReLU4
I0825 11:10:30.234817  1691 net.cpp:186] Top shape: 64 16 32 32 (1048576)
I0825 11:10:30.234822  1691 net.cpp:194] Memory required for data: 88867072
I0825 11:10:30.234827  1691 layer_factory.hpp:77] Creating layer Convolution5
I0825 11:10:30.234836  1691 net.cpp:128] Creating Layer Convolution5
I0825 11:10:30.234841  1691 net.cpp:558] Convolution5 <- Convolution4
I0825 11:10:30.234848  1691 net.cpp:522] Convolution5 -> Convolution5
I0825 11:10:30.240998  1691 net.cpp:172] Setting up Convolution5
I0825 11:10:30.241024  1691 net.cpp:186] Top shape: 64 16 32 32 (1048576)
I0825 11:10:30.241029  1691 net.cpp:194] Memory required for data: 93061376
I0825 11:10:30.241039  1691 layer_factory.hpp:77] Creating layer BatchNorm5
I0825 11:10:30.241048  1691 net.cpp:128] Creating Layer BatchNorm5
I0825 11:10:30.241053  1691 net.cpp:558] BatchNorm5 <- Convolution5
I0825 11:10:30.241060  1691 net.cpp:509] BatchNorm5 -> Convolution5 (in-place)
I0825 11:10:30.241294  1691 net.cpp:172] Setting up BatchNorm5
I0825 11:10:30.241307  1691 net.cpp:186] Top shape: 64 16 32 32 (1048576)
I0825 11:10:30.241312  1691 net.cpp:194] Memory required for data: 97255680
I0825 11:10:30.241325  1691 layer_factory.hpp:77] Creating layer Scale5
I0825 11:10:30.241333  1691 net.cpp:128] Creating Layer Scale5
I0825 11:10:30.241338  1691 net.cpp:558] Scale5 <- Convolution5
I0825 11:10:30.241343  1691 net.cpp:509] Scale5 -> Convolution5 (in-place)
I0825 11:10:30.241386  1691 layer_factory.hpp:77] Creating layer Scale5
I0825 11:10:30.241518  1691 net.cpp:172] Setting up Scale5
I0825 11:10:30.241529  1691 net.cpp:186] Top shape: 64 16 32 32 (1048576)
I0825 11:10:30.241533  1691 net.cpp:194] Memory required for data: 101449984
I0825 11:10:30.241541  1691 layer_factory.hpp:77] Creating layer Eltwise2
I0825 11:10:30.241549  1691 net.cpp:128] Creating Layer Eltwise2
I0825 11:10:30.241554  1691 net.cpp:558] Eltwise2 <- Eltwise1_ReLU3_0_split_1
I0825 11:10:30.241559  1691 net.cpp:558] Eltwise2 <- Convolution5
I0825 11:10:30.241565  1691 net.cpp:522] Eltwise2 -> Eltwise2
I0825 11:10:30.241590  1691 net.cpp:172] Setting up Eltwise2
I0825 11:10:30.241597  1691 net.cpp:186] Top shape: 64 16 32 32 (1048576)
I0825 11:10:30.241601  1691 net.cpp:194] Memory required for data: 105644288
I0825 11:10:30.241606  1691 layer_factory.hpp:77] Creating layer ReLU5
I0825 11:10:30.241613  1691 net.cpp:128] Creating Layer ReLU5
I0825 11:10:30.241617  1691 net.cpp:558] ReLU5 <- Eltwise2
I0825 11:10:30.241623  1691 net.cpp:509] ReLU5 -> Eltwise2 (in-place)
I0825 11:10:30.243101  1691 net.cpp:172] Setting up ReLU5
I0825 11:10:30.243132  1691 net.cpp:186] Top shape: 64 16 32 32 (1048576)
I0825 11:10:30.243137  1691 net.cpp:194] Memory required for data: 109838592
I0825 11:10:30.243142  1691 layer_factory.hpp:77] Creating layer Eltwise2_ReLU5_0_split
I0825 11:10:30.243156  1691 net.cpp:128] Creating Layer Eltwise2_ReLU5_0_split
I0825 11:10:30.243161  1691 net.cpp:558] Eltwise2_ReLU5_0_split <- Eltwise2
I0825 11:10:30.243168  1691 net.cpp:522] Eltwise2_ReLU5_0_split -> Eltwise2_ReLU5_0_split_0
I0825 11:10:30.243177  1691 net.cpp:522] Eltwise2_ReLU5_0_split -> Eltwise2_ReLU5_0_split_1
I0825 11:10:30.243223  1691 net.cpp:172] Setting up Eltwise2_ReLU5_0_split
I0825 11:10:30.243234  1691 net.cpp:186] Top shape: 64 16 32 32 (1048576)
I0825 11:10:30.243240  1691 net.cpp:186] Top shape: 64 16 32 32 (1048576)
I0825 11:10:30.243245  1691 net.cpp:194] Memory required for data: 118227200
I0825 11:10:30.243249  1691 layer_factory.hpp:77] Creating layer Convolution6
I0825 11:10:30.243260  1691 net.cpp:128] Creating Layer Convolution6
I0825 11:10:30.243265  1691 net.cpp:558] Convolution6 <- Eltwise2_ReLU5_0_split_0
I0825 11:10:30.243273  1691 net.cpp:522] Convolution6 -> Convolution6
I0825 11:10:30.249792  1691 net.cpp:172] Setting up Convolution6
I0825 11:10:30.249819  1691 net.cpp:186] Top shape: 64 16 32 32 (1048576)
I0825 11:10:30.249824  1691 net.cpp:194] Memory required for data: 122421504
I0825 11:10:30.249833  1691 layer_factory.hpp:77] Creating layer BatchNorm6
I0825 11:10:30.249842  1691 net.cpp:128] Creating Layer BatchNorm6
I0825 11:10:30.249847  1691 net.cpp:558] BatchNorm6 <- Convolution6
I0825 11:10:30.249855  1691 net.cpp:509] BatchNorm6 -> Convolution6 (in-place)
I0825 11:10:30.250089  1691 net.cpp:172] Setting up BatchNorm6
I0825 11:10:30.250100  1691 net.cpp:186] Top shape: 64 16 32 32 (1048576)
I0825 11:10:30.250106  1691 net.cpp:194] Memory required for data: 126615808
I0825 11:10:30.250116  1691 layer_factory.hpp:77] Creating layer Scale6
I0825 11:10:30.250124  1691 net.cpp:128] Creating Layer Scale6
I0825 11:10:30.250129  1691 net.cpp:558] Scale6 <- Convolution6
I0825 11:10:30.250135  1691 net.cpp:509] Scale6 -> Convolution6 (in-place)
I0825 11:10:30.250176  1691 layer_factory.hpp:77] Creating layer Scale6
I0825 11:10:30.250308  1691 net.cpp:172] Setting up Scale6
I0825 11:10:30.250320  1691 net.cpp:186] Top shape: 64 16 32 32 (1048576)
I0825 11:10:30.250324  1691 net.cpp:194] Memory required for data: 130810112
I0825 11:10:30.250332  1691 layer_factory.hpp:77] Creating layer ReLU6
I0825 11:10:30.250346  1691 net.cpp:128] Creating Layer ReLU6
I0825 11:10:30.250352  1691 net.cpp:558] ReLU6 <- Convolution6
I0825 11:10:30.250358  1691 net.cpp:509] ReLU6 -> Convolution6 (in-place)
I0825 11:10:30.251858  1691 net.cpp:172] Setting up ReLU6
I0825 11:10:30.251884  1691 net.cpp:186] Top shape: 64 16 32 32 (1048576)
I0825 11:10:30.251889  1691 net.cpp:194] Memory required for data: 135004416
I0825 11:10:30.251894  1691 layer_factory.hpp:77] Creating layer Convolution7
I0825 11:10:30.251907  1691 net.cpp:128] Creating Layer Convolution7
I0825 11:10:30.251914  1691 net.cpp:558] Convolution7 <- Convolution6
I0825 11:10:30.251921  1691 net.cpp:522] Convolution7 -> Convolution7
I0825 11:10:30.258574  1691 net.cpp:172] Setting up Convolution7
I0825 11:10:30.258602  1691 net.cpp:186] Top shape: 64 16 32 32 (1048576)
I0825 11:10:30.258607  1691 net.cpp:194] Memory required for data: 139198720
I0825 11:10:30.258617  1691 layer_factory.hpp:77] Creating layer BatchNorm7
I0825 11:10:30.258626  1691 net.cpp:128] Creating Layer BatchNorm7
I0825 11:10:30.258631  1691 net.cpp:558] BatchNorm7 <- Convolution7
I0825 11:10:30.258639  1691 net.cpp:509] BatchNorm7 -> Convolution7 (in-place)
I0825 11:10:30.258893  1691 net.cpp:172] Setting up BatchNorm7
I0825 11:10:30.258905  1691 net.cpp:186] Top shape: 64 16 32 32 (1048576)
I0825 11:10:30.258909  1691 net.cpp:194] Memory required for data: 143393024
I0825 11:10:30.258920  1691 layer_factory.hpp:77] Creating layer Scale7
I0825 11:10:30.258931  1691 net.cpp:128] Creating Layer Scale7
I0825 11:10:30.258951  1691 net.cpp:558] Scale7 <- Convolution7
I0825 11:10:30.258958  1691 net.cpp:509] Scale7 -> Convolution7 (in-place)
I0825 11:10:30.259004  1691 layer_factory.hpp:77] Creating layer Scale7
I0825 11:10:30.259145  1691 net.cpp:172] Setting up Scale7
I0825 11:10:30.259157  1691 net.cpp:186] Top shape: 64 16 32 32 (1048576)
I0825 11:10:30.259161  1691 net.cpp:194] Memory required for data: 147587328
I0825 11:10:30.259169  1691 layer_factory.hpp:77] Creating layer Eltwise3
I0825 11:10:30.259176  1691 net.cpp:128] Creating Layer Eltwise3
I0825 11:10:30.259181  1691 net.cpp:558] Eltwise3 <- Eltwise2_ReLU5_0_split_1
I0825 11:10:30.259186  1691 net.cpp:558] Eltwise3 <- Convolution7
I0825 11:10:30.259194  1691 net.cpp:522] Eltwise3 -> Eltwise3
I0825 11:10:30.259223  1691 net.cpp:172] Setting up Eltwise3
I0825 11:10:30.259234  1691 net.cpp:186] Top shape: 64 16 32 32 (1048576)
I0825 11:10:30.259238  1691 net.cpp:194] Memory required for data: 151781632
I0825 11:10:30.259244  1691 layer_factory.hpp:77] Creating layer ReLU7
I0825 11:10:30.259250  1691 net.cpp:128] Creating Layer ReLU7
I0825 11:10:30.259254  1691 net.cpp:558] ReLU7 <- Eltwise3
I0825 11:10:30.259263  1691 net.cpp:509] ReLU7 -> Eltwise3 (in-place)
I0825 11:10:30.260622  1691 net.cpp:172] Setting up ReLU7
I0825 11:10:30.260637  1691 net.cpp:186] Top shape: 64 16 32 32 (1048576)
I0825 11:10:30.260643  1691 net.cpp:194] Memory required for data: 155975936
I0825 11:10:30.260648  1691 layer_factory.hpp:77] Creating layer Eltwise3_ReLU7_0_split
I0825 11:10:30.260654  1691 net.cpp:128] Creating Layer Eltwise3_ReLU7_0_split
I0825 11:10:30.260659  1691 net.cpp:558] Eltwise3_ReLU7_0_split <- Eltwise3
I0825 11:10:30.260668  1691 net.cpp:522] Eltwise3_ReLU7_0_split -> Eltwise3_ReLU7_0_split_0
I0825 11:10:30.260677  1691 net.cpp:522] Eltwise3_ReLU7_0_split -> Eltwise3_ReLU7_0_split_1
I0825 11:10:30.260723  1691 net.cpp:172] Setting up Eltwise3_ReLU7_0_split
I0825 11:10:30.260735  1691 net.cpp:186] Top shape: 64 16 32 32 (1048576)
I0825 11:10:30.260742  1691 net.cpp:186] Top shape: 64 16 32 32 (1048576)
I0825 11:10:30.260746  1691 net.cpp:194] Memory required for data: 164364544
I0825 11:10:30.260751  1691 layer_factory.hpp:77] Creating layer Convolution8
I0825 11:10:30.260766  1691 net.cpp:128] Creating Layer Convolution8
I0825 11:10:30.260771  1691 net.cpp:558] Convolution8 <- Eltwise3_ReLU7_0_split_0
I0825 11:10:30.260779  1691 net.cpp:522] Convolution8 -> Convolution8
I0825 11:10:30.267316  1691 net.cpp:172] Setting up Convolution8
I0825 11:10:30.267341  1691 net.cpp:186] Top shape: 64 16 32 32 (1048576)
I0825 11:10:30.267346  1691 net.cpp:194] Memory required for data: 168558848
I0825 11:10:30.267356  1691 layer_factory.hpp:77] Creating layer BatchNorm8
I0825 11:10:30.267367  1691 net.cpp:128] Creating Layer BatchNorm8
I0825 11:10:30.267374  1691 net.cpp:558] BatchNorm8 <- Convolution8
I0825 11:10:30.267382  1691 net.cpp:509] BatchNorm8 -> Convolution8 (in-place)
I0825 11:10:30.267627  1691 net.cpp:172] Setting up BatchNorm8
I0825 11:10:30.267638  1691 net.cpp:186] Top shape: 64 16 32 32 (1048576)
I0825 11:10:30.267643  1691 net.cpp:194] Memory required for data: 172753152
I0825 11:10:30.267653  1691 layer_factory.hpp:77] Creating layer Scale8
I0825 11:10:30.267666  1691 net.cpp:128] Creating Layer Scale8
I0825 11:10:30.267671  1691 net.cpp:558] Scale8 <- Convolution8
I0825 11:10:30.267678  1691 net.cpp:509] Scale8 -> Convolution8 (in-place)
I0825 11:10:30.267724  1691 layer_factory.hpp:77] Creating layer Scale8
I0825 11:10:30.267863  1691 net.cpp:172] Setting up Scale8
I0825 11:10:30.267876  1691 net.cpp:186] Top shape: 64 16 32 32 (1048576)
I0825 11:10:30.267880  1691 net.cpp:194] Memory required for data: 176947456
I0825 11:10:30.267889  1691 layer_factory.hpp:77] Creating layer ReLU8
I0825 11:10:30.267897  1691 net.cpp:128] Creating Layer ReLU8
I0825 11:10:30.267907  1691 net.cpp:558] ReLU8 <- Convolution8
I0825 11:10:30.267913  1691 net.cpp:509] ReLU8 -> Convolution8 (in-place)
I0825 11:10:30.269361  1691 net.cpp:172] Setting up ReLU8
I0825 11:10:30.269392  1691 net.cpp:186] Top shape: 64 16 32 32 (1048576)
I0825 11:10:30.269397  1691 net.cpp:194] Memory required for data: 181141760
I0825 11:10:30.269402  1691 layer_factory.hpp:77] Creating layer Convolution9
I0825 11:10:30.269421  1691 net.cpp:128] Creating Layer Convolution9
I0825 11:10:30.269430  1691 net.cpp:558] Convolution9 <- Convolution8
I0825 11:10:30.269438  1691 net.cpp:522] Convolution9 -> Convolution9
I0825 11:10:30.276091  1691 net.cpp:172] Setting up Convolution9
I0825 11:10:30.276118  1691 net.cpp:186] Top shape: 64 16 32 32 (1048576)
I0825 11:10:30.276123  1691 net.cpp:194] Memory required for data: 185336064
I0825 11:10:30.276132  1691 layer_factory.hpp:77] Creating layer BatchNorm9
I0825 11:10:30.276144  1691 net.cpp:128] Creating Layer BatchNorm9
I0825 11:10:30.276149  1691 net.cpp:558] BatchNorm9 <- Convolution9
I0825 11:10:30.276156  1691 net.cpp:509] BatchNorm9 -> Convolution9 (in-place)
I0825 11:10:30.276404  1691 net.cpp:172] Setting up BatchNorm9
I0825 11:10:30.276417  1691 net.cpp:186] Top shape: 64 16 32 32 (1048576)
I0825 11:10:30.276422  1691 net.cpp:194] Memory required for data: 189530368
I0825 11:10:30.276432  1691 layer_factory.hpp:77] Creating layer Scale9
I0825 11:10:30.276438  1691 net.cpp:128] Creating Layer Scale9
I0825 11:10:30.276443  1691 net.cpp:558] Scale9 <- Convolution9
I0825 11:10:30.276450  1691 net.cpp:509] Scale9 -> Convolution9 (in-place)
I0825 11:10:30.276495  1691 layer_factory.hpp:77] Creating layer Scale9
I0825 11:10:30.276638  1691 net.cpp:172] Setting up Scale9
I0825 11:10:30.276649  1691 net.cpp:186] Top shape: 64 16 32 32 (1048576)
I0825 11:10:30.276655  1691 net.cpp:194] Memory required for data: 193724672
I0825 11:10:30.276662  1691 layer_factory.hpp:77] Creating layer Eltwise4
I0825 11:10:30.276670  1691 net.cpp:128] Creating Layer Eltwise4
I0825 11:10:30.276675  1691 net.cpp:558] Eltwise4 <- Eltwise3_ReLU7_0_split_1
I0825 11:10:30.276679  1691 net.cpp:558] Eltwise4 <- Convolution9
I0825 11:10:30.276688  1691 net.cpp:522] Eltwise4 -> Eltwise4
I0825 11:10:30.276717  1691 net.cpp:172] Setting up Eltwise4
I0825 11:10:30.276728  1691 net.cpp:186] Top shape: 64 16 32 32 (1048576)
I0825 11:10:30.276733  1691 net.cpp:194] Memory required for data: 197918976
I0825 11:10:30.276737  1691 layer_factory.hpp:77] Creating layer ReLU9
I0825 11:10:30.276744  1691 net.cpp:128] Creating Layer ReLU9
I0825 11:10:30.276748  1691 net.cpp:558] ReLU9 <- Eltwise4
I0825 11:10:30.276754  1691 net.cpp:509] ReLU9 -> Eltwise4 (in-place)
I0825 11:10:30.278141  1691 net.cpp:172] Setting up ReLU9
I0825 11:10:30.278158  1691 net.cpp:186] Top shape: 64 16 32 32 (1048576)
I0825 11:10:30.278162  1691 net.cpp:194] Memory required for data: 202113280
I0825 11:10:30.278167  1691 layer_factory.hpp:77] Creating layer Eltwise4_ReLU9_0_split
I0825 11:10:30.278174  1691 net.cpp:128] Creating Layer Eltwise4_ReLU9_0_split
I0825 11:10:30.278178  1691 net.cpp:558] Eltwise4_ReLU9_0_split <- Eltwise4
I0825 11:10:30.278187  1691 net.cpp:522] Eltwise4_ReLU9_0_split -> Eltwise4_ReLU9_0_split_0
I0825 11:10:30.278196  1691 net.cpp:522] Eltwise4_ReLU9_0_split -> Eltwise4_ReLU9_0_split_1
I0825 11:10:30.278240  1691 net.cpp:172] Setting up Eltwise4_ReLU9_0_split
I0825 11:10:30.278247  1691 net.cpp:186] Top shape: 64 16 32 32 (1048576)
I0825 11:10:30.278254  1691 net.cpp:186] Top shape: 64 16 32 32 (1048576)
I0825 11:10:30.278257  1691 net.cpp:194] Memory required for data: 210501888
I0825 11:10:30.278261  1691 layer_factory.hpp:77] Creating layer Convolution10
I0825 11:10:30.278275  1691 net.cpp:128] Creating Layer Convolution10
I0825 11:10:30.278280  1691 net.cpp:558] Convolution10 <- Eltwise4_ReLU9_0_split_0
I0825 11:10:30.278287  1691 net.cpp:522] Convolution10 -> Convolution10
I0825 11:10:30.284884  1691 net.cpp:172] Setting up Convolution10
I0825 11:10:30.284910  1691 net.cpp:186] Top shape: 64 16 32 32 (1048576)
I0825 11:10:30.284915  1691 net.cpp:194] Memory required for data: 214696192
I0825 11:10:30.284934  1691 layer_factory.hpp:77] Creating layer BatchNorm10
I0825 11:10:30.284946  1691 net.cpp:128] Creating Layer BatchNorm10
I0825 11:10:30.284966  1691 net.cpp:558] BatchNorm10 <- Convolution10
I0825 11:10:30.284974  1691 net.cpp:509] BatchNorm10 -> Convolution10 (in-place)
I0825 11:10:30.285218  1691 net.cpp:172] Setting up BatchNorm10
I0825 11:10:30.285231  1691 net.cpp:186] Top shape: 64 16 32 32 (1048576)
I0825 11:10:30.285236  1691 net.cpp:194] Memory required for data: 218890496
I0825 11:10:30.285246  1691 layer_factory.hpp:77] Creating layer Scale10
I0825 11:10:30.285254  1691 net.cpp:128] Creating Layer Scale10
I0825 11:10:30.285257  1691 net.cpp:558] Scale10 <- Convolution10
I0825 11:10:30.285264  1691 net.cpp:509] Scale10 -> Convolution10 (in-place)
I0825 11:10:30.285308  1691 layer_factory.hpp:77] Creating layer Scale10
I0825 11:10:30.285452  1691 net.cpp:172] Setting up Scale10
I0825 11:10:30.285465  1691 net.cpp:186] Top shape: 64 16 32 32 (1048576)
I0825 11:10:30.285470  1691 net.cpp:194] Memory required for data: 223084800
I0825 11:10:30.285477  1691 layer_factory.hpp:77] Creating layer ReLU10
I0825 11:10:30.285486  1691 net.cpp:128] Creating Layer ReLU10
I0825 11:10:30.285490  1691 net.cpp:558] ReLU10 <- Convolution10
I0825 11:10:30.285496  1691 net.cpp:509] ReLU10 -> Convolution10 (in-place)
I0825 11:10:30.286978  1691 net.cpp:172] Setting up ReLU10
I0825 11:10:30.287004  1691 net.cpp:186] Top shape: 64 16 32 32 (1048576)
I0825 11:10:30.287009  1691 net.cpp:194] Memory required for data: 227279104
I0825 11:10:30.287014  1691 layer_factory.hpp:77] Creating layer Convolution11
I0825 11:10:30.287029  1691 net.cpp:128] Creating Layer Convolution11
I0825 11:10:30.287035  1691 net.cpp:558] Convolution11 <- Convolution10
I0825 11:10:30.287050  1691 net.cpp:522] Convolution11 -> Convolution11
I0825 11:10:30.293737  1691 net.cpp:172] Setting up Convolution11
I0825 11:10:30.293763  1691 net.cpp:186] Top shape: 64 16 32 32 (1048576)
I0825 11:10:30.293768  1691 net.cpp:194] Memory required for data: 231473408
I0825 11:10:30.293778  1691 layer_factory.hpp:77] Creating layer BatchNorm11
I0825 11:10:30.293790  1691 net.cpp:128] Creating Layer BatchNorm11
I0825 11:10:30.293797  1691 net.cpp:558] BatchNorm11 <- Convolution11
I0825 11:10:30.293810  1691 net.cpp:509] BatchNorm11 -> Convolution11 (in-place)
I0825 11:10:30.294055  1691 net.cpp:172] Setting up BatchNorm11
I0825 11:10:30.294068  1691 net.cpp:186] Top shape: 64 16 32 32 (1048576)
I0825 11:10:30.294072  1691 net.cpp:194] Memory required for data: 235667712
I0825 11:10:30.294082  1691 layer_factory.hpp:77] Creating layer Scale11
I0825 11:10:30.294090  1691 net.cpp:128] Creating Layer Scale11
I0825 11:10:30.294095  1691 net.cpp:558] Scale11 <- Convolution11
I0825 11:10:30.294100  1691 net.cpp:509] Scale11 -> Convolution11 (in-place)
I0825 11:10:30.294147  1691 layer_factory.hpp:77] Creating layer Scale11
I0825 11:10:30.294278  1691 net.cpp:172] Setting up Scale11
I0825 11:10:30.294291  1691 net.cpp:186] Top shape: 64 16 32 32 (1048576)
I0825 11:10:30.294294  1691 net.cpp:194] Memory required for data: 239862016
I0825 11:10:30.294302  1691 layer_factory.hpp:77] Creating layer Eltwise5
I0825 11:10:30.294313  1691 net.cpp:128] Creating Layer Eltwise5
I0825 11:10:30.294318  1691 net.cpp:558] Eltwise5 <- Eltwise4_ReLU9_0_split_1
I0825 11:10:30.294323  1691 net.cpp:558] Eltwise5 <- Convolution11
I0825 11:10:30.294329  1691 net.cpp:522] Eltwise5 -> Eltwise5
I0825 11:10:30.294365  1691 net.cpp:172] Setting up Eltwise5
I0825 11:10:30.294373  1691 net.cpp:186] Top shape: 64 16 32 32 (1048576)
I0825 11:10:30.294378  1691 net.cpp:194] Memory required for data: 244056320
I0825 11:10:30.294381  1691 layer_factory.hpp:77] Creating layer ReLU11
I0825 11:10:30.294389  1691 net.cpp:128] Creating Layer ReLU11
I0825 11:10:30.294392  1691 net.cpp:558] ReLU11 <- Eltwise5
I0825 11:10:30.294400  1691 net.cpp:509] ReLU11 -> Eltwise5 (in-place)
I0825 11:10:30.295804  1691 net.cpp:172] Setting up ReLU11
I0825 11:10:30.295817  1691 net.cpp:186] Top shape: 64 16 32 32 (1048576)
I0825 11:10:30.295821  1691 net.cpp:194] Memory required for data: 248250624
I0825 11:10:30.295826  1691 layer_factory.hpp:77] Creating layer Eltwise5_ReLU11_0_split
I0825 11:10:30.295850  1691 net.cpp:128] Creating Layer Eltwise5_ReLU11_0_split
I0825 11:10:30.295855  1691 net.cpp:558] Eltwise5_ReLU11_0_split <- Eltwise5
I0825 11:10:30.295863  1691 net.cpp:522] Eltwise5_ReLU11_0_split -> Eltwise5_ReLU11_0_split_0
I0825 11:10:30.295871  1691 net.cpp:522] Eltwise5_ReLU11_0_split -> Eltwise5_ReLU11_0_split_1
I0825 11:10:30.295922  1691 net.cpp:172] Setting up Eltwise5_ReLU11_0_split
I0825 11:10:30.295929  1691 net.cpp:186] Top shape: 64 16 32 32 (1048576)
I0825 11:10:30.295935  1691 net.cpp:186] Top shape: 64 16 32 32 (1048576)
I0825 11:10:30.295939  1691 net.cpp:194] Memory required for data: 256639232
I0825 11:10:30.295944  1691 layer_factory.hpp:77] Creating layer Convolution12
I0825 11:10:30.295958  1691 net.cpp:128] Creating Layer Convolution12
I0825 11:10:30.295964  1691 net.cpp:558] Convolution12 <- Eltwise5_ReLU11_0_split_0
I0825 11:10:30.295974  1691 net.cpp:522] Convolution12 -> Convolution12
I0825 11:10:30.302767  1691 net.cpp:172] Setting up Convolution12
I0825 11:10:30.302793  1691 net.cpp:186] Top shape: 64 32 16 16 (524288)
I0825 11:10:30.302798  1691 net.cpp:194] Memory required for data: 258736384
I0825 11:10:30.302808  1691 layer_factory.hpp:77] Creating layer BatchNorm12
I0825 11:10:30.302819  1691 net.cpp:128] Creating Layer BatchNorm12
I0825 11:10:30.302824  1691 net.cpp:558] BatchNorm12 <- Convolution12
I0825 11:10:30.302830  1691 net.cpp:509] BatchNorm12 -> Convolution12 (in-place)
I0825 11:10:30.303076  1691 net.cpp:172] Setting up BatchNorm12
I0825 11:10:30.303103  1691 net.cpp:186] Top shape: 64 32 16 16 (524288)
I0825 11:10:30.303107  1691 net.cpp:194] Memory required for data: 260833536
I0825 11:10:30.303117  1691 layer_factory.hpp:77] Creating layer Scale12
I0825 11:10:30.303126  1691 net.cpp:128] Creating Layer Scale12
I0825 11:10:30.303131  1691 net.cpp:558] Scale12 <- Convolution12
I0825 11:10:30.303138  1691 net.cpp:509] Scale12 -> Convolution12 (in-place)
I0825 11:10:30.303181  1691 layer_factory.hpp:77] Creating layer Scale12
I0825 11:10:30.303319  1691 net.cpp:172] Setting up Scale12
I0825 11:10:30.303326  1691 net.cpp:186] Top shape: 64 32 16 16 (524288)
I0825 11:10:30.303330  1691 net.cpp:194] Memory required for data: 262930688
I0825 11:10:30.303339  1691 layer_factory.hpp:77] Creating layer Convolution13
I0825 11:10:30.303350  1691 net.cpp:128] Creating Layer Convolution13
I0825 11:10:30.303355  1691 net.cpp:558] Convolution13 <- Eltwise5_ReLU11_0_split_1
I0825 11:10:30.303365  1691 net.cpp:522] Convolution13 -> Convolution13
I0825 11:10:30.309175  1691 net.cpp:172] Setting up Convolution13
I0825 11:10:30.309201  1691 net.cpp:186] Top shape: 64 32 16 16 (524288)
I0825 11:10:30.309206  1691 net.cpp:194] Memory required for data: 265027840
I0825 11:10:30.309216  1691 layer_factory.hpp:77] Creating layer BatchNorm13
I0825 11:10:30.309227  1691 net.cpp:128] Creating Layer BatchNorm13
I0825 11:10:30.309232  1691 net.cpp:558] BatchNorm13 <- Convolution13
I0825 11:10:30.309239  1691 net.cpp:509] BatchNorm13 -> Convolution13 (in-place)
I0825 11:10:30.309485  1691 net.cpp:172] Setting up BatchNorm13
I0825 11:10:30.309497  1691 net.cpp:186] Top shape: 64 32 16 16 (524288)
I0825 11:10:30.309501  1691 net.cpp:194] Memory required for data: 267124992
I0825 11:10:30.309511  1691 layer_factory.hpp:77] Creating layer Scale13
I0825 11:10:30.309518  1691 net.cpp:128] Creating Layer Scale13
I0825 11:10:30.309523  1691 net.cpp:558] Scale13 <- Convolution13
I0825 11:10:30.309531  1691 net.cpp:509] Scale13 -> Convolution13 (in-place)
I0825 11:10:30.309573  1691 layer_factory.hpp:77] Creating layer Scale13
I0825 11:10:30.309720  1691 net.cpp:172] Setting up Scale13
I0825 11:10:30.309732  1691 net.cpp:186] Top shape: 64 32 16 16 (524288)
I0825 11:10:30.309736  1691 net.cpp:194] Memory required for data: 269222144
I0825 11:10:30.309746  1691 layer_factory.hpp:77] Creating layer ReLU12
I0825 11:10:30.309752  1691 net.cpp:128] Creating Layer ReLU12
I0825 11:10:30.309757  1691 net.cpp:558] ReLU12 <- Convolution13
I0825 11:10:30.309780  1691 net.cpp:509] ReLU12 -> Convolution13 (in-place)
I0825 11:10:30.311241  1691 net.cpp:172] Setting up ReLU12
I0825 11:10:30.311259  1691 net.cpp:186] Top shape: 64 32 16 16 (524288)
I0825 11:10:30.311264  1691 net.cpp:194] Memory required for data: 271319296
I0825 11:10:30.311269  1691 layer_factory.hpp:77] Creating layer Convolution14
I0825 11:10:30.311282  1691 net.cpp:128] Creating Layer Convolution14
I0825 11:10:30.311288  1691 net.cpp:558] Convolution14 <- Convolution13
I0825 11:10:30.311297  1691 net.cpp:522] Convolution14 -> Convolution14
I0825 11:10:30.316246  1691 net.cpp:172] Setting up Convolution14
I0825 11:10:30.316272  1691 net.cpp:186] Top shape: 64 32 16 16 (524288)
I0825 11:10:30.316277  1691 net.cpp:194] Memory required for data: 273416448
I0825 11:10:30.316287  1691 layer_factory.hpp:77] Creating layer BatchNorm14
I0825 11:10:30.316306  1691 net.cpp:128] Creating Layer BatchNorm14
I0825 11:10:30.316313  1691 net.cpp:558] BatchNorm14 <- Convolution14
I0825 11:10:30.316321  1691 net.cpp:509] BatchNorm14 -> Convolution14 (in-place)
I0825 11:10:30.316560  1691 net.cpp:172] Setting up BatchNorm14
I0825 11:10:30.316572  1691 net.cpp:186] Top shape: 64 32 16 16 (524288)
I0825 11:10:30.316576  1691 net.cpp:194] Memory required for data: 275513600
I0825 11:10:30.316586  1691 layer_factory.hpp:77] Creating layer Scale14
I0825 11:10:30.316593  1691 net.cpp:128] Creating Layer Scale14
I0825 11:10:30.316597  1691 net.cpp:558] Scale14 <- Convolution14
I0825 11:10:30.316606  1691 net.cpp:509] Scale14 -> Convolution14 (in-place)
I0825 11:10:30.316648  1691 layer_factory.hpp:77] Creating layer Scale14
I0825 11:10:30.316783  1691 net.cpp:172] Setting up Scale14
I0825 11:10:30.316790  1691 net.cpp:186] Top shape: 64 32 16 16 (524288)
I0825 11:10:30.316794  1691 net.cpp:194] Memory required for data: 277610752
I0825 11:10:30.316802  1691 layer_factory.hpp:77] Creating layer Eltwise6
I0825 11:10:30.316809  1691 net.cpp:128] Creating Layer Eltwise6
I0825 11:10:30.316813  1691 net.cpp:558] Eltwise6 <- Convolution12
I0825 11:10:30.316818  1691 net.cpp:558] Eltwise6 <- Convolution14
I0825 11:10:30.316826  1691 net.cpp:522] Eltwise6 -> Eltwise6
I0825 11:10:30.316848  1691 net.cpp:172] Setting up Eltwise6
I0825 11:10:30.316854  1691 net.cpp:186] Top shape: 64 32 16 16 (524288)
I0825 11:10:30.316859  1691 net.cpp:194] Memory required for data: 279707904
I0825 11:10:30.316864  1691 layer_factory.hpp:77] Creating layer ReLU13
I0825 11:10:30.316871  1691 net.cpp:128] Creating Layer ReLU13
I0825 11:10:30.316875  1691 net.cpp:558] ReLU13 <- Eltwise6
I0825 11:10:30.316881  1691 net.cpp:509] ReLU13 -> Eltwise6 (in-place)
I0825 11:10:30.317343  1691 net.cpp:172] Setting up ReLU13
I0825 11:10:30.317364  1691 net.cpp:186] Top shape: 64 32 16 16 (524288)
I0825 11:10:30.317369  1691 net.cpp:194] Memory required for data: 281805056
I0825 11:10:30.317374  1691 layer_factory.hpp:77] Creating layer Eltwise6_ReLU13_0_split
I0825 11:10:30.317385  1691 net.cpp:128] Creating Layer Eltwise6_ReLU13_0_split
I0825 11:10:30.317390  1691 net.cpp:558] Eltwise6_ReLU13_0_split <- Eltwise6
I0825 11:10:30.317397  1691 net.cpp:522] Eltwise6_ReLU13_0_split -> Eltwise6_ReLU13_0_split_0
I0825 11:10:30.317409  1691 net.cpp:522] Eltwise6_ReLU13_0_split -> Eltwise6_ReLU13_0_split_1
I0825 11:10:30.317459  1691 net.cpp:172] Setting up Eltwise6_ReLU13_0_split
I0825 11:10:30.317467  1691 net.cpp:186] Top shape: 64 32 16 16 (524288)
I0825 11:10:30.317473  1691 net.cpp:186] Top shape: 64 32 16 16 (524288)
I0825 11:10:30.317477  1691 net.cpp:194] Memory required for data: 285999360
I0825 11:10:30.317481  1691 layer_factory.hpp:77] Creating layer Convolution15
I0825 11:10:30.317493  1691 net.cpp:128] Creating Layer Convolution15
I0825 11:10:30.317498  1691 net.cpp:558] Convolution15 <- Eltwise6_ReLU13_0_split_0
I0825 11:10:30.317507  1691 net.cpp:522] Convolution15 -> Convolution15
I0825 11:10:30.321949  1691 net.cpp:172] Setting up Convolution15
I0825 11:10:30.321979  1691 net.cpp:186] Top shape: 64 32 16 16 (524288)
I0825 11:10:30.321983  1691 net.cpp:194] Memory required for data: 288096512
I0825 11:10:30.322016  1691 layer_factory.hpp:77] Creating layer BatchNorm15
I0825 11:10:30.322028  1691 net.cpp:128] Creating Layer BatchNorm15
I0825 11:10:30.322033  1691 net.cpp:558] BatchNorm15 <- Convolution15
I0825 11:10:30.322046  1691 net.cpp:509] BatchNorm15 -> Convolution15 (in-place)
I0825 11:10:30.322293  1691 net.cpp:172] Setting up BatchNorm15
I0825 11:10:30.322304  1691 net.cpp:186] Top shape: 64 32 16 16 (524288)
I0825 11:10:30.322307  1691 net.cpp:194] Memory required for data: 290193664
I0825 11:10:30.322317  1691 layer_factory.hpp:77] Creating layer Scale15
I0825 11:10:30.322325  1691 net.cpp:128] Creating Layer Scale15
I0825 11:10:30.322329  1691 net.cpp:558] Scale15 <- Convolution15
I0825 11:10:30.322335  1691 net.cpp:509] Scale15 -> Convolution15 (in-place)
I0825 11:10:30.322389  1691 layer_factory.hpp:77] Creating layer Scale15
I0825 11:10:30.322530  1691 net.cpp:172] Setting up Scale15
I0825 11:10:30.322540  1691 net.cpp:186] Top shape: 64 32 16 16 (524288)
I0825 11:10:30.322544  1691 net.cpp:194] Memory required for data: 292290816
I0825 11:10:30.322556  1691 layer_factory.hpp:77] Creating layer ReLU14
I0825 11:10:30.322566  1691 net.cpp:128] Creating Layer ReLU14
I0825 11:10:30.322576  1691 net.cpp:558] ReLU14 <- Convolution15
I0825 11:10:30.322582  1691 net.cpp:509] ReLU14 -> Convolution15 (in-place)
I0825 11:10:30.324019  1691 net.cpp:172] Setting up ReLU14
I0825 11:10:30.324036  1691 net.cpp:186] Top shape: 64 32 16 16 (524288)
I0825 11:10:30.324041  1691 net.cpp:194] Memory required for data: 294387968
I0825 11:10:30.324045  1691 layer_factory.hpp:77] Creating layer Convolution16
I0825 11:10:30.324059  1691 net.cpp:128] Creating Layer Convolution16
I0825 11:10:30.324072  1691 net.cpp:558] Convolution16 <- Convolution15
I0825 11:10:30.324082  1691 net.cpp:522] Convolution16 -> Convolution16
I0825 11:10:30.328773  1691 net.cpp:172] Setting up Convolution16
I0825 11:10:30.328796  1691 net.cpp:186] Top shape: 64 32 16 16 (524288)
I0825 11:10:30.328801  1691 net.cpp:194] Memory required for data: 296485120
I0825 11:10:30.328814  1691 layer_factory.hpp:77] Creating layer BatchNorm16
I0825 11:10:30.328828  1691 net.cpp:128] Creating Layer BatchNorm16
I0825 11:10:30.328841  1691 net.cpp:558] BatchNorm16 <- Convolution16
I0825 11:10:30.328850  1691 net.cpp:509] BatchNorm16 -> Convolution16 (in-place)
I0825 11:10:30.329094  1691 net.cpp:172] Setting up BatchNorm16
I0825 11:10:30.329105  1691 net.cpp:186] Top shape: 64 32 16 16 (524288)
I0825 11:10:30.329110  1691 net.cpp:194] Memory required for data: 298582272
I0825 11:10:30.329120  1691 layer_factory.hpp:77] Creating layer Scale16
I0825 11:10:30.329130  1691 net.cpp:128] Creating Layer Scale16
I0825 11:10:30.329135  1691 net.cpp:558] Scale16 <- Convolution16
I0825 11:10:30.329141  1691 net.cpp:509] Scale16 -> Convolution16 (in-place)
I0825 11:10:30.329186  1691 layer_factory.hpp:77] Creating layer Scale16
I0825 11:10:30.329331  1691 net.cpp:172] Setting up Scale16
I0825 11:10:30.329341  1691 net.cpp:186] Top shape: 64 32 16 16 (524288)
I0825 11:10:30.329345  1691 net.cpp:194] Memory required for data: 300679424
I0825 11:10:30.329354  1691 layer_factory.hpp:77] Creating layer Eltwise7
I0825 11:10:30.329363  1691 net.cpp:128] Creating Layer Eltwise7
I0825 11:10:30.329372  1691 net.cpp:558] Eltwise7 <- Eltwise6_ReLU13_0_split_1
I0825 11:10:30.329378  1691 net.cpp:558] Eltwise7 <- Convolution16
I0825 11:10:30.329386  1691 net.cpp:522] Eltwise7 -> Eltwise7
I0825 11:10:30.329408  1691 net.cpp:172] Setting up Eltwise7
I0825 11:10:30.329418  1691 net.cpp:186] Top shape: 64 32 16 16 (524288)
I0825 11:10:30.329422  1691 net.cpp:194] Memory required for data: 302776576
I0825 11:10:30.329427  1691 layer_factory.hpp:77] Creating layer ReLU15
I0825 11:10:30.329433  1691 net.cpp:128] Creating Layer ReLU15
I0825 11:10:30.329440  1691 net.cpp:558] ReLU15 <- Eltwise7
I0825 11:10:30.329449  1691 net.cpp:509] ReLU15 -> Eltwise7 (in-place)
I0825 11:10:30.329905  1691 net.cpp:172] Setting up ReLU15
I0825 11:10:30.329926  1691 net.cpp:186] Top shape: 64 32 16 16 (524288)
I0825 11:10:30.329951  1691 net.cpp:194] Memory required for data: 304873728
I0825 11:10:30.329957  1691 layer_factory.hpp:77] Creating layer Eltwise7_ReLU15_0_split
I0825 11:10:30.329967  1691 net.cpp:128] Creating Layer Eltwise7_ReLU15_0_split
I0825 11:10:30.329973  1691 net.cpp:558] Eltwise7_ReLU15_0_split <- Eltwise7
I0825 11:10:30.329980  1691 net.cpp:522] Eltwise7_ReLU15_0_split -> Eltwise7_ReLU15_0_split_0
I0825 11:10:30.329989  1691 net.cpp:522] Eltwise7_ReLU15_0_split -> Eltwise7_ReLU15_0_split_1
I0825 11:10:30.330049  1691 net.cpp:172] Setting up Eltwise7_ReLU15_0_split
I0825 11:10:30.330058  1691 net.cpp:186] Top shape: 64 32 16 16 (524288)
I0825 11:10:30.330065  1691 net.cpp:186] Top shape: 64 32 16 16 (524288)
I0825 11:10:30.330070  1691 net.cpp:194] Memory required for data: 309068032
I0825 11:10:30.330073  1691 layer_factory.hpp:77] Creating layer Convolution17
I0825 11:10:30.330085  1691 net.cpp:128] Creating Layer Convolution17
I0825 11:10:30.330092  1691 net.cpp:558] Convolution17 <- Eltwise7_ReLU15_0_split_0
I0825 11:10:30.330101  1691 net.cpp:522] Convolution17 -> Convolution17
I0825 11:10:30.335402  1691 net.cpp:172] Setting up Convolution17
I0825 11:10:30.335429  1691 net.cpp:186] Top shape: 64 32 16 16 (524288)
I0825 11:10:30.335433  1691 net.cpp:194] Memory required for data: 311165184
I0825 11:10:30.335448  1691 layer_factory.hpp:77] Creating layer BatchNorm17
I0825 11:10:30.335460  1691 net.cpp:128] Creating Layer BatchNorm17
I0825 11:10:30.335466  1691 net.cpp:558] BatchNorm17 <- Convolution17
I0825 11:10:30.335475  1691 net.cpp:509] BatchNorm17 -> Convolution17 (in-place)
I0825 11:10:30.335726  1691 net.cpp:172] Setting up BatchNorm17
I0825 11:10:30.335736  1691 net.cpp:186] Top shape: 64 32 16 16 (524288)
I0825 11:10:30.335741  1691 net.cpp:194] Memory required for data: 313262336
I0825 11:10:30.335750  1691 layer_factory.hpp:77] Creating layer Scale17
I0825 11:10:30.335758  1691 net.cpp:128] Creating Layer Scale17
I0825 11:10:30.335768  1691 net.cpp:558] Scale17 <- Convolution17
I0825 11:10:30.335777  1691 net.cpp:509] Scale17 -> Convolution17 (in-place)
I0825 11:10:30.335822  1691 layer_factory.hpp:77] Creating layer Scale17
I0825 11:10:30.335963  1691 net.cpp:172] Setting up Scale17
I0825 11:10:30.335973  1691 net.cpp:186] Top shape: 64 32 16 16 (524288)
I0825 11:10:30.335978  1691 net.cpp:194] Memory required for data: 315359488
I0825 11:10:30.335986  1691 layer_factory.hpp:77] Creating layer ReLU16
I0825 11:10:30.335994  1691 net.cpp:128] Creating Layer ReLU16
I0825 11:10:30.336000  1691 net.cpp:558] ReLU16 <- Convolution17
I0825 11:10:30.336009  1691 net.cpp:509] ReLU16 -> Convolution17 (in-place)
I0825 11:10:30.337502  1691 net.cpp:172] Setting up ReLU16
I0825 11:10:30.337525  1691 net.cpp:186] Top shape: 64 32 16 16 (524288)
I0825 11:10:30.337530  1691 net.cpp:194] Memory required for data: 317456640
I0825 11:10:30.337535  1691 layer_factory.hpp:77] Creating layer Convolution18
I0825 11:10:30.337554  1691 net.cpp:128] Creating Layer Convolution18
I0825 11:10:30.337561  1691 net.cpp:558] Convolution18 <- Convolution17
I0825 11:10:30.337574  1691 net.cpp:522] Convolution18 -> Convolution18
I0825 11:10:30.344014  1691 net.cpp:172] Setting up Convolution18
I0825 11:10:30.344039  1691 net.cpp:186] Top shape: 64 32 16 16 (524288)
I0825 11:10:30.344044  1691 net.cpp:194] Memory required for data: 319553792
I0825 11:10:30.344058  1691 layer_factory.hpp:77] Creating layer BatchNorm18
I0825 11:10:30.344069  1691 net.cpp:128] Creating Layer BatchNorm18
I0825 11:10:30.344074  1691 net.cpp:558] BatchNorm18 <- Convolution18
I0825 11:10:30.344084  1691 net.cpp:509] BatchNorm18 -> Convolution18 (in-place)
I0825 11:10:30.344331  1691 net.cpp:172] Setting up BatchNorm18
I0825 11:10:30.344342  1691 net.cpp:186] Top shape: 64 32 16 16 (524288)
I0825 11:10:30.344348  1691 net.cpp:194] Memory required for data: 321650944
I0825 11:10:30.344357  1691 layer_factory.hpp:77] Creating layer Scale18
I0825 11:10:30.344367  1691 net.cpp:128] Creating Layer Scale18
I0825 11:10:30.344390  1691 net.cpp:558] Scale18 <- Convolution18
I0825 11:10:30.344398  1691 net.cpp:509] Scale18 -> Convolution18 (in-place)
I0825 11:10:30.344444  1691 layer_factory.hpp:77] Creating layer Scale18
I0825 11:10:30.344589  1691 net.cpp:172] Setting up Scale18
I0825 11:10:30.344600  1691 net.cpp:186] Top shape: 64 32 16 16 (524288)
I0825 11:10:30.344605  1691 net.cpp:194] Memory required for data: 323748096
I0825 11:10:30.344612  1691 layer_factory.hpp:77] Creating layer Eltwise8
I0825 11:10:30.344622  1691 net.cpp:128] Creating Layer Eltwise8
I0825 11:10:30.344627  1691 net.cpp:558] Eltwise8 <- Eltwise7_ReLU15_0_split_1
I0825 11:10:30.344632  1691 net.cpp:558] Eltwise8 <- Convolution18
I0825 11:10:30.344640  1691 net.cpp:522] Eltwise8 -> Eltwise8
I0825 11:10:30.344662  1691 net.cpp:172] Setting up Eltwise8
I0825 11:10:30.344668  1691 net.cpp:186] Top shape: 64 32 16 16 (524288)
I0825 11:10:30.344672  1691 net.cpp:194] Memory required for data: 325845248
I0825 11:10:30.344676  1691 layer_factory.hpp:77] Creating layer ReLU17
I0825 11:10:30.344683  1691 net.cpp:128] Creating Layer ReLU17
I0825 11:10:30.344687  1691 net.cpp:558] ReLU17 <- Eltwise8
I0825 11:10:30.344696  1691 net.cpp:509] ReLU17 -> Eltwise8 (in-place)
I0825 11:10:30.344928  1691 net.cpp:172] Setting up ReLU17
I0825 11:10:30.344941  1691 net.cpp:186] Top shape: 64 32 16 16 (524288)
I0825 11:10:30.344947  1691 net.cpp:194] Memory required for data: 327942400
I0825 11:10:30.344952  1691 layer_factory.hpp:77] Creating layer Eltwise8_ReLU17_0_split
I0825 11:10:30.344959  1691 net.cpp:128] Creating Layer Eltwise8_ReLU17_0_split
I0825 11:10:30.344964  1691 net.cpp:558] Eltwise8_ReLU17_0_split <- Eltwise8
I0825 11:10:30.344972  1691 net.cpp:522] Eltwise8_ReLU17_0_split -> Eltwise8_ReLU17_0_split_0
I0825 11:10:30.344981  1691 net.cpp:522] Eltwise8_ReLU17_0_split -> Eltwise8_ReLU17_0_split_1
I0825 11:10:30.345031  1691 net.cpp:172] Setting up Eltwise8_ReLU17_0_split
I0825 11:10:30.345041  1691 net.cpp:186] Top shape: 64 32 16 16 (524288)
I0825 11:10:30.345047  1691 net.cpp:186] Top shape: 64 32 16 16 (524288)
I0825 11:10:30.345052  1691 net.cpp:194] Memory required for data: 332136704
I0825 11:10:30.345055  1691 layer_factory.hpp:77] Creating layer Convolution19
I0825 11:10:30.345067  1691 net.cpp:128] Creating Layer Convolution19
I0825 11:10:30.345072  1691 net.cpp:558] Convolution19 <- Eltwise8_ReLU17_0_split_0
I0825 11:10:30.345082  1691 net.cpp:522] Convolution19 -> Convolution19
I0825 11:10:30.351769  1691 net.cpp:172] Setting up Convolution19
I0825 11:10:30.351796  1691 net.cpp:186] Top shape: 64 32 16 16 (524288)
I0825 11:10:30.351801  1691 net.cpp:194] Memory required for data: 334233856
I0825 11:10:30.351811  1691 layer_factory.hpp:77] Creating layer BatchNorm19
I0825 11:10:30.351822  1691 net.cpp:128] Creating Layer BatchNorm19
I0825 11:10:30.351828  1691 net.cpp:558] BatchNorm19 <- Convolution19
I0825 11:10:30.351837  1691 net.cpp:509] BatchNorm19 -> Convolution19 (in-place)
I0825 11:10:30.352092  1691 net.cpp:172] Setting up BatchNorm19
I0825 11:10:30.352104  1691 net.cpp:186] Top shape: 64 32 16 16 (524288)
I0825 11:10:30.352108  1691 net.cpp:194] Memory required for data: 336331008
I0825 11:10:30.352133  1691 layer_factory.hpp:77] Creating layer Scale19
I0825 11:10:30.352140  1691 net.cpp:128] Creating Layer Scale19
I0825 11:10:30.352144  1691 net.cpp:558] Scale19 <- Convolution19
I0825 11:10:30.352154  1691 net.cpp:509] Scale19 -> Convolution19 (in-place)
I0825 11:10:30.352200  1691 layer_factory.hpp:77] Creating layer Scale19
I0825 11:10:30.352340  1691 net.cpp:172] Setting up Scale19
I0825 11:10:30.352351  1691 net.cpp:186] Top shape: 64 32 16 16 (524288)
I0825 11:10:30.352355  1691 net.cpp:194] Memory required for data: 338428160
I0825 11:10:30.352363  1691 layer_factory.hpp:77] Creating layer ReLU18
I0825 11:10:30.352370  1691 net.cpp:128] Creating Layer ReLU18
I0825 11:10:30.352375  1691 net.cpp:558] ReLU18 <- Convolution19
I0825 11:10:30.352382  1691 net.cpp:509] ReLU18 -> Convolution19 (in-place)
I0825 11:10:30.353617  1691 net.cpp:172] Setting up ReLU18
I0825 11:10:30.353647  1691 net.cpp:186] Top shape: 64 32 16 16 (524288)
I0825 11:10:30.353653  1691 net.cpp:194] Memory required for data: 340525312
I0825 11:10:30.353657  1691 layer_factory.hpp:77] Creating layer Convolution20
I0825 11:10:30.353677  1691 net.cpp:128] Creating Layer Convolution20
I0825 11:10:30.353683  1691 net.cpp:558] Convolution20 <- Convolution19
I0825 11:10:30.353693  1691 net.cpp:522] Convolution20 -> Convolution20
I0825 11:10:30.360329  1691 net.cpp:172] Setting up Convolution20
I0825 11:10:30.360355  1691 net.cpp:186] Top shape: 64 32 16 16 (524288)
I0825 11:10:30.360359  1691 net.cpp:194] Memory required for data: 342622464
I0825 11:10:30.360369  1691 layer_factory.hpp:77] Creating layer BatchNorm20
I0825 11:10:30.360381  1691 net.cpp:128] Creating Layer BatchNorm20
I0825 11:10:30.360386  1691 net.cpp:558] BatchNorm20 <- Convolution20
I0825 11:10:30.360396  1691 net.cpp:509] BatchNorm20 -> Convolution20 (in-place)
I0825 11:10:30.360642  1691 net.cpp:172] Setting up BatchNorm20
I0825 11:10:30.360654  1691 net.cpp:186] Top shape: 64 32 16 16 (524288)
I0825 11:10:30.360661  1691 net.cpp:194] Memory required for data: 344719616
I0825 11:10:30.360671  1691 layer_factory.hpp:77] Creating layer Scale20
I0825 11:10:30.360678  1691 net.cpp:128] Creating Layer Scale20
I0825 11:10:30.360683  1691 net.cpp:558] Scale20 <- Convolution20
I0825 11:10:30.360689  1691 net.cpp:509] Scale20 -> Convolution20 (in-place)
I0825 11:10:30.360733  1691 layer_factory.hpp:77] Creating layer Scale20
I0825 11:10:30.360877  1691 net.cpp:172] Setting up Scale20
I0825 11:10:30.360889  1691 net.cpp:186] Top shape: 64 32 16 16 (524288)
I0825 11:10:30.360893  1691 net.cpp:194] Memory required for data: 346816768
I0825 11:10:30.360901  1691 layer_factory.hpp:77] Creating layer Eltwise9
I0825 11:10:30.360924  1691 net.cpp:128] Creating Layer Eltwise9
I0825 11:10:30.360929  1691 net.cpp:558] Eltwise9 <- Eltwise8_ReLU17_0_split_1
I0825 11:10:30.360934  1691 net.cpp:558] Eltwise9 <- Convolution20
I0825 11:10:30.360942  1691 net.cpp:522] Eltwise9 -> Eltwise9
I0825 11:10:30.360968  1691 net.cpp:172] Setting up Eltwise9
I0825 11:10:30.360982  1691 net.cpp:186] Top shape: 64 32 16 16 (524288)
I0825 11:10:30.360986  1691 net.cpp:194] Memory required for data: 348913920
I0825 11:10:30.360991  1691 layer_factory.hpp:77] Creating layer ReLU19
I0825 11:10:30.360997  1691 net.cpp:128] Creating Layer ReLU19
I0825 11:10:30.361001  1691 net.cpp:558] ReLU19 <- Eltwise9
I0825 11:10:30.361009  1691 net.cpp:509] ReLU19 -> Eltwise9 (in-place)
I0825 11:10:30.362396  1691 net.cpp:172] Setting up ReLU19
I0825 11:10:30.362416  1691 net.cpp:186] Top shape: 64 32 16 16 (524288)
I0825 11:10:30.362421  1691 net.cpp:194] Memory required for data: 351011072
I0825 11:10:30.362426  1691 layer_factory.hpp:77] Creating layer Eltwise9_ReLU19_0_split
I0825 11:10:30.362432  1691 net.cpp:128] Creating Layer Eltwise9_ReLU19_0_split
I0825 11:10:30.362437  1691 net.cpp:558] Eltwise9_ReLU19_0_split <- Eltwise9
I0825 11:10:30.362447  1691 net.cpp:522] Eltwise9_ReLU19_0_split -> Eltwise9_ReLU19_0_split_0
I0825 11:10:30.362457  1691 net.cpp:522] Eltwise9_ReLU19_0_split -> Eltwise9_ReLU19_0_split_1
I0825 11:10:30.362507  1691 net.cpp:172] Setting up Eltwise9_ReLU19_0_split
I0825 11:10:30.362515  1691 net.cpp:186] Top shape: 64 32 16 16 (524288)
I0825 11:10:30.362521  1691 net.cpp:186] Top shape: 64 32 16 16 (524288)
I0825 11:10:30.362525  1691 net.cpp:194] Memory required for data: 355205376
I0825 11:10:30.362529  1691 layer_factory.hpp:77] Creating layer Convolution21
I0825 11:10:30.362542  1691 net.cpp:128] Creating Layer Convolution21
I0825 11:10:30.362546  1691 net.cpp:558] Convolution21 <- Eltwise9_ReLU19_0_split_0
I0825 11:10:30.362557  1691 net.cpp:522] Convolution21 -> Convolution21
I0825 11:10:30.369113  1691 net.cpp:172] Setting up Convolution21
I0825 11:10:30.369139  1691 net.cpp:186] Top shape: 64 32 16 16 (524288)
I0825 11:10:30.369144  1691 net.cpp:194] Memory required for data: 357302528
I0825 11:10:30.369154  1691 layer_factory.hpp:77] Creating layer BatchNorm21
I0825 11:10:30.369179  1691 net.cpp:128] Creating Layer BatchNorm21
I0825 11:10:30.369187  1691 net.cpp:558] BatchNorm21 <- Convolution21
I0825 11:10:30.369194  1691 net.cpp:509] BatchNorm21 -> Convolution21 (in-place)
I0825 11:10:30.369441  1691 net.cpp:172] Setting up BatchNorm21
I0825 11:10:30.369454  1691 net.cpp:186] Top shape: 64 32 16 16 (524288)
I0825 11:10:30.369458  1691 net.cpp:194] Memory required for data: 359399680
I0825 11:10:30.369469  1691 layer_factory.hpp:77] Creating layer Scale21
I0825 11:10:30.369478  1691 net.cpp:128] Creating Layer Scale21
I0825 11:10:30.369483  1691 net.cpp:558] Scale21 <- Convolution21
I0825 11:10:30.369488  1691 net.cpp:509] Scale21 -> Convolution21 (in-place)
I0825 11:10:30.369534  1691 layer_factory.hpp:77] Creating layer Scale21
I0825 11:10:30.369685  1691 net.cpp:172] Setting up Scale21
I0825 11:10:30.369698  1691 net.cpp:186] Top shape: 64 32 16 16 (524288)
I0825 11:10:30.369701  1691 net.cpp:194] Memory required for data: 361496832
I0825 11:10:30.369709  1691 layer_factory.hpp:77] Creating layer ReLU20
I0825 11:10:30.369716  1691 net.cpp:128] Creating Layer ReLU20
I0825 11:10:30.369720  1691 net.cpp:558] ReLU20 <- Convolution21
I0825 11:10:30.369729  1691 net.cpp:509] ReLU20 -> Convolution21 (in-place)
I0825 11:10:30.371160  1691 net.cpp:172] Setting up ReLU20
I0825 11:10:30.371182  1691 net.cpp:186] Top shape: 64 32 16 16 (524288)
I0825 11:10:30.371186  1691 net.cpp:194] Memory required for data: 363593984
I0825 11:10:30.371192  1691 layer_factory.hpp:77] Creating layer Convolution22
I0825 11:10:30.371207  1691 net.cpp:128] Creating Layer Convolution22
I0825 11:10:30.371212  1691 net.cpp:558] Convolution22 <- Convolution21
I0825 11:10:30.371223  1691 net.cpp:522] Convolution22 -> Convolution22
I0825 11:10:30.377853  1691 net.cpp:172] Setting up Convolution22
I0825 11:10:30.377882  1691 net.cpp:186] Top shape: 64 32 16 16 (524288)
I0825 11:10:30.377887  1691 net.cpp:194] Memory required for data: 365691136
I0825 11:10:30.377897  1691 layer_factory.hpp:77] Creating layer BatchNorm22
I0825 11:10:30.377907  1691 net.cpp:128] Creating Layer BatchNorm22
I0825 11:10:30.377912  1691 net.cpp:558] BatchNorm22 <- Convolution22
I0825 11:10:30.377921  1691 net.cpp:509] BatchNorm22 -> Convolution22 (in-place)
I0825 11:10:30.378168  1691 net.cpp:172] Setting up BatchNorm22
I0825 11:10:30.378180  1691 net.cpp:186] Top shape: 64 32 16 16 (524288)
I0825 11:10:30.378185  1691 net.cpp:194] Memory required for data: 367788288
I0825 11:10:30.378195  1691 layer_factory.hpp:77] Creating layer Scale22
I0825 11:10:30.378201  1691 net.cpp:128] Creating Layer Scale22
I0825 11:10:30.378206  1691 net.cpp:558] Scale22 <- Convolution22
I0825 11:10:30.378211  1691 net.cpp:509] Scale22 -> Convolution22 (in-place)
I0825 11:10:30.378257  1691 layer_factory.hpp:77] Creating layer Scale22
I0825 11:10:30.378414  1691 net.cpp:172] Setting up Scale22
I0825 11:10:30.378429  1691 net.cpp:186] Top shape: 64 32 16 16 (524288)
I0825 11:10:30.378433  1691 net.cpp:194] Memory required for data: 369885440
I0825 11:10:30.378442  1691 layer_factory.hpp:77] Creating layer Eltwise10
I0825 11:10:30.378448  1691 net.cpp:128] Creating Layer Eltwise10
I0825 11:10:30.378453  1691 net.cpp:558] Eltwise10 <- Eltwise9_ReLU19_0_split_1
I0825 11:10:30.378458  1691 net.cpp:558] Eltwise10 <- Convolution22
I0825 11:10:30.378465  1691 net.cpp:522] Eltwise10 -> Eltwise10
I0825 11:10:30.378490  1691 net.cpp:172] Setting up Eltwise10
I0825 11:10:30.378497  1691 net.cpp:186] Top shape: 64 32 16 16 (524288)
I0825 11:10:30.378501  1691 net.cpp:194] Memory required for data: 371982592
I0825 11:10:30.378505  1691 layer_factory.hpp:77] Creating layer ReLU21
I0825 11:10:30.378512  1691 net.cpp:128] Creating Layer ReLU21
I0825 11:10:30.378516  1691 net.cpp:558] ReLU21 <- Eltwise10
I0825 11:10:30.378525  1691 net.cpp:509] ReLU21 -> Eltwise10 (in-place)
I0825 11:10:30.379897  1691 net.cpp:172] Setting up ReLU21
I0825 11:10:30.379912  1691 net.cpp:186] Top shape: 64 32 16 16 (524288)
I0825 11:10:30.379916  1691 net.cpp:194] Memory required for data: 374079744
I0825 11:10:30.379942  1691 layer_factory.hpp:77] Creating layer Eltwise10_ReLU21_0_split
I0825 11:10:30.379951  1691 net.cpp:128] Creating Layer Eltwise10_ReLU21_0_split
I0825 11:10:30.379956  1691 net.cpp:558] Eltwise10_ReLU21_0_split <- Eltwise10
I0825 11:10:30.379964  1691 net.cpp:522] Eltwise10_ReLU21_0_split -> Eltwise10_ReLU21_0_split_0
I0825 11:10:30.379973  1691 net.cpp:522] Eltwise10_ReLU21_0_split -> Eltwise10_ReLU21_0_split_1
I0825 11:10:30.380026  1691 net.cpp:172] Setting up Eltwise10_ReLU21_0_split
I0825 11:10:30.380040  1691 net.cpp:186] Top shape: 64 32 16 16 (524288)
I0825 11:10:30.380046  1691 net.cpp:186] Top shape: 64 32 16 16 (524288)
I0825 11:10:30.380050  1691 net.cpp:194] Memory required for data: 378274048
I0825 11:10:30.380054  1691 layer_factory.hpp:77] Creating layer Convolution23
I0825 11:10:30.380069  1691 net.cpp:128] Creating Layer Convolution23
I0825 11:10:30.380074  1691 net.cpp:558] Convolution23 <- Eltwise10_ReLU21_0_split_0
I0825 11:10:30.380082  1691 net.cpp:522] Convolution23 -> Convolution23
I0825 11:10:30.386602  1691 net.cpp:172] Setting up Convolution23
I0825 11:10:30.386628  1691 net.cpp:186] Top shape: 64 64 8 8 (262144)
I0825 11:10:30.386632  1691 net.cpp:194] Memory required for data: 379322624
I0825 11:10:30.386642  1691 layer_factory.hpp:77] Creating layer BatchNorm23
I0825 11:10:30.386656  1691 net.cpp:128] Creating Layer BatchNorm23
I0825 11:10:30.386662  1691 net.cpp:558] BatchNorm23 <- Convolution23
I0825 11:10:30.386669  1691 net.cpp:509] BatchNorm23 -> Convolution23 (in-place)
I0825 11:10:30.386925  1691 net.cpp:172] Setting up BatchNorm23
I0825 11:10:30.386937  1691 net.cpp:186] Top shape: 64 64 8 8 (262144)
I0825 11:10:30.386941  1691 net.cpp:194] Memory required for data: 380371200
I0825 11:10:30.386952  1691 layer_factory.hpp:77] Creating layer Scale23
I0825 11:10:30.386962  1691 net.cpp:128] Creating Layer Scale23
I0825 11:10:30.386967  1691 net.cpp:558] Scale23 <- Convolution23
I0825 11:10:30.386973  1691 net.cpp:509] Scale23 -> Convolution23 (in-place)
I0825 11:10:30.387018  1691 layer_factory.hpp:77] Creating layer Scale23
I0825 11:10:30.387168  1691 net.cpp:172] Setting up Scale23
I0825 11:10:30.387179  1691 net.cpp:186] Top shape: 64 64 8 8 (262144)
I0825 11:10:30.387183  1691 net.cpp:194] Memory required for data: 381419776
I0825 11:10:30.387192  1691 layer_factory.hpp:77] Creating layer Convolution24
I0825 11:10:30.387207  1691 net.cpp:128] Creating Layer Convolution24
I0825 11:10:30.387212  1691 net.cpp:558] Convolution24 <- Eltwise10_ReLU21_0_split_1
I0825 11:10:30.387220  1691 net.cpp:522] Convolution24 -> Convolution24
I0825 11:10:30.393419  1691 net.cpp:172] Setting up Convolution24
I0825 11:10:30.393447  1691 net.cpp:186] Top shape: 64 64 8 8 (262144)
I0825 11:10:30.393451  1691 net.cpp:194] Memory required for data: 382468352
I0825 11:10:30.393463  1691 layer_factory.hpp:77] Creating layer BatchNorm24
I0825 11:10:30.393476  1691 net.cpp:128] Creating Layer BatchNorm24
I0825 11:10:30.393481  1691 net.cpp:558] BatchNorm24 <- Convolution24
I0825 11:10:30.393487  1691 net.cpp:509] BatchNorm24 -> Convolution24 (in-place)
I0825 11:10:30.393752  1691 net.cpp:172] Setting up BatchNorm24
I0825 11:10:30.393765  1691 net.cpp:186] Top shape: 64 64 8 8 (262144)
I0825 11:10:30.393769  1691 net.cpp:194] Memory required for data: 383516928
I0825 11:10:30.393779  1691 layer_factory.hpp:77] Creating layer Scale24
I0825 11:10:30.393787  1691 net.cpp:128] Creating Layer Scale24
I0825 11:10:30.393791  1691 net.cpp:558] Scale24 <- Convolution24
I0825 11:10:30.393797  1691 net.cpp:509] Scale24 -> Convolution24 (in-place)
I0825 11:10:30.393844  1691 layer_factory.hpp:77] Creating layer Scale24
I0825 11:10:30.393996  1691 net.cpp:172] Setting up Scale24
I0825 11:10:30.394006  1691 net.cpp:186] Top shape: 64 64 8 8 (262144)
I0825 11:10:30.394011  1691 net.cpp:194] Memory required for data: 384565504
I0825 11:10:30.394019  1691 layer_factory.hpp:77] Creating layer ReLU22
I0825 11:10:30.394026  1691 net.cpp:128] Creating Layer ReLU22
I0825 11:10:30.394052  1691 net.cpp:558] ReLU22 <- Convolution24
I0825 11:10:30.394062  1691 net.cpp:509] ReLU22 -> Convolution24 (in-place)
I0825 11:10:30.395246  1691 net.cpp:172] Setting up ReLU22
I0825 11:10:30.395262  1691 net.cpp:186] Top shape: 64 64 8 8 (262144)
I0825 11:10:30.395265  1691 net.cpp:194] Memory required for data: 385614080
I0825 11:10:30.395270  1691 layer_factory.hpp:77] Creating layer Convolution25
I0825 11:10:30.395288  1691 net.cpp:128] Creating Layer Convolution25
I0825 11:10:30.395293  1691 net.cpp:558] Convolution25 <- Convolution24
I0825 11:10:30.395304  1691 net.cpp:522] Convolution25 -> Convolution25
I0825 11:10:30.402230  1691 net.cpp:172] Setting up Convolution25
I0825 11:10:30.402256  1691 net.cpp:186] Top shape: 64 64 8 8 (262144)
I0825 11:10:30.402261  1691 net.cpp:194] Memory required for data: 386662656
I0825 11:10:30.402271  1691 layer_factory.hpp:77] Creating layer BatchNorm25
I0825 11:10:30.402282  1691 net.cpp:128] Creating Layer BatchNorm25
I0825 11:10:30.402288  1691 net.cpp:558] BatchNorm25 <- Convolution25
I0825 11:10:30.402295  1691 net.cpp:509] BatchNorm25 -> Convolution25 (in-place)
I0825 11:10:30.402572  1691 net.cpp:172] Setting up BatchNorm25
I0825 11:10:30.402585  1691 net.cpp:186] Top shape: 64 64 8 8 (262144)
I0825 11:10:30.402590  1691 net.cpp:194] Memory required for data: 387711232
I0825 11:10:30.402599  1691 layer_factory.hpp:77] Creating layer Scale25
I0825 11:10:30.402606  1691 net.cpp:128] Creating Layer Scale25
I0825 11:10:30.402611  1691 net.cpp:558] Scale25 <- Convolution25
I0825 11:10:30.402617  1691 net.cpp:509] Scale25 -> Convolution25 (in-place)
I0825 11:10:30.402665  1691 layer_factory.hpp:77] Creating layer Scale25
I0825 11:10:30.402813  1691 net.cpp:172] Setting up Scale25
I0825 11:10:30.402820  1691 net.cpp:186] Top shape: 64 64 8 8 (262144)
I0825 11:10:30.402824  1691 net.cpp:194] Memory required for data: 388759808
I0825 11:10:30.402832  1691 layer_factory.hpp:77] Creating layer Eltwise11
I0825 11:10:30.402840  1691 net.cpp:128] Creating Layer Eltwise11
I0825 11:10:30.402845  1691 net.cpp:558] Eltwise11 <- Convolution23
I0825 11:10:30.402850  1691 net.cpp:558] Eltwise11 <- Convolution25
I0825 11:10:30.402858  1691 net.cpp:522] Eltwise11 -> Eltwise11
I0825 11:10:30.402885  1691 net.cpp:172] Setting up Eltwise11
I0825 11:10:30.402894  1691 net.cpp:186] Top shape: 64 64 8 8 (262144)
I0825 11:10:30.402899  1691 net.cpp:194] Memory required for data: 389808384
I0825 11:10:30.402902  1691 layer_factory.hpp:77] Creating layer ReLU23
I0825 11:10:30.402909  1691 net.cpp:128] Creating Layer ReLU23
I0825 11:10:30.402914  1691 net.cpp:558] ReLU23 <- Eltwise11
I0825 11:10:30.402920  1691 net.cpp:509] ReLU23 -> Eltwise11 (in-place)
I0825 11:10:30.404078  1691 net.cpp:172] Setting up ReLU23
I0825 11:10:30.404100  1691 net.cpp:186] Top shape: 64 64 8 8 (262144)
I0825 11:10:30.404105  1691 net.cpp:194] Memory required for data: 390856960
I0825 11:10:30.404110  1691 layer_factory.hpp:77] Creating layer Eltwise11_ReLU23_0_split
I0825 11:10:30.404121  1691 net.cpp:128] Creating Layer Eltwise11_ReLU23_0_split
I0825 11:10:30.404162  1691 net.cpp:558] Eltwise11_ReLU23_0_split <- Eltwise11
I0825 11:10:30.404173  1691 net.cpp:522] Eltwise11_ReLU23_0_split -> Eltwise11_ReLU23_0_split_0
I0825 11:10:30.404182  1691 net.cpp:522] Eltwise11_ReLU23_0_split -> Eltwise11_ReLU23_0_split_1
I0825 11:10:30.404235  1691 net.cpp:172] Setting up Eltwise11_ReLU23_0_split
I0825 11:10:30.404244  1691 net.cpp:186] Top shape: 64 64 8 8 (262144)
I0825 11:10:30.404251  1691 net.cpp:186] Top shape: 64 64 8 8 (262144)
I0825 11:10:30.404254  1691 net.cpp:194] Memory required for data: 392954112
I0825 11:10:30.404259  1691 layer_factory.hpp:77] Creating layer Convolution26
I0825 11:10:30.404271  1691 net.cpp:128] Creating Layer Convolution26
I0825 11:10:30.404276  1691 net.cpp:558] Convolution26 <- Eltwise11_ReLU23_0_split_0
I0825 11:10:30.404284  1691 net.cpp:522] Convolution26 -> Convolution26
I0825 11:10:30.410812  1691 net.cpp:172] Setting up Convolution26
I0825 11:10:30.410835  1691 net.cpp:186] Top shape: 64 64 8 8 (262144)
I0825 11:10:30.410858  1691 net.cpp:194] Memory required for data: 394002688
I0825 11:10:30.410869  1691 layer_factory.hpp:77] Creating layer BatchNorm26
I0825 11:10:30.410881  1691 net.cpp:128] Creating Layer BatchNorm26
I0825 11:10:30.410887  1691 net.cpp:558] BatchNorm26 <- Convolution26
I0825 11:10:30.410897  1691 net.cpp:509] BatchNorm26 -> Convolution26 (in-place)
I0825 11:10:30.411159  1691 net.cpp:172] Setting up BatchNorm26
I0825 11:10:30.411170  1691 net.cpp:186] Top shape: 64 64 8 8 (262144)
I0825 11:10:30.411175  1691 net.cpp:194] Memory required for data: 395051264
I0825 11:10:30.411185  1691 layer_factory.hpp:77] Creating layer Scale26
I0825 11:10:30.411191  1691 net.cpp:128] Creating Layer Scale26
I0825 11:10:30.411195  1691 net.cpp:558] Scale26 <- Convolution26
I0825 11:10:30.411203  1691 net.cpp:509] Scale26 -> Convolution26 (in-place)
I0825 11:10:30.411247  1691 layer_factory.hpp:77] Creating layer Scale26
I0825 11:10:30.411393  1691 net.cpp:172] Setting up Scale26
I0825 11:10:30.411404  1691 net.cpp:186] Top shape: 64 64 8 8 (262144)
I0825 11:10:30.411408  1691 net.cpp:194] Memory required for data: 396099840
I0825 11:10:30.411417  1691 layer_factory.hpp:77] Creating layer ReLU24
I0825 11:10:30.411422  1691 net.cpp:128] Creating Layer ReLU24
I0825 11:10:30.411427  1691 net.cpp:558] ReLU24 <- Convolution26
I0825 11:10:30.411435  1691 net.cpp:509] ReLU24 -> Convolution26 (in-place)
I0825 11:10:30.412850  1691 net.cpp:172] Setting up ReLU24
I0825 11:10:30.412869  1691 net.cpp:186] Top shape: 64 64 8 8 (262144)
I0825 11:10:30.412873  1691 net.cpp:194] Memory required for data: 397148416
I0825 11:10:30.412878  1691 layer_factory.hpp:77] Creating layer Convolution27
I0825 11:10:30.412895  1691 net.cpp:128] Creating Layer Convolution27
I0825 11:10:30.412904  1691 net.cpp:558] Convolution27 <- Convolution26
I0825 11:10:30.412914  1691 net.cpp:522] Convolution27 -> Convolution27
I0825 11:10:30.419809  1691 net.cpp:172] Setting up Convolution27
I0825 11:10:30.419836  1691 net.cpp:186] Top shape: 64 64 8 8 (262144)
I0825 11:10:30.419840  1691 net.cpp:194] Memory required for data: 398196992
I0825 11:10:30.419855  1691 layer_factory.hpp:77] Creating layer BatchNorm27
I0825 11:10:30.419867  1691 net.cpp:128] Creating Layer BatchNorm27
I0825 11:10:30.419875  1691 net.cpp:558] BatchNorm27 <- Convolution27
I0825 11:10:30.419888  1691 net.cpp:509] BatchNorm27 -> Convolution27 (in-place)
I0825 11:10:30.420159  1691 net.cpp:172] Setting up BatchNorm27
I0825 11:10:30.420171  1691 net.cpp:186] Top shape: 64 64 8 8 (262144)
I0825 11:10:30.420176  1691 net.cpp:194] Memory required for data: 399245568
I0825 11:10:30.420186  1691 layer_factory.hpp:77] Creating layer Scale27
I0825 11:10:30.420204  1691 net.cpp:128] Creating Layer Scale27
I0825 11:10:30.420209  1691 net.cpp:558] Scale27 <- Convolution27
I0825 11:10:30.420215  1691 net.cpp:509] Scale27 -> Convolution27 (in-place)
I0825 11:10:30.420260  1691 layer_factory.hpp:77] Creating layer Scale27
I0825 11:10:30.420409  1691 net.cpp:172] Setting up Scale27
I0825 11:10:30.420420  1691 net.cpp:186] Top shape: 64 64 8 8 (262144)
I0825 11:10:30.420424  1691 net.cpp:194] Memory required for data: 400294144
I0825 11:10:30.420433  1691 layer_factory.hpp:77] Creating layer Eltwise12
I0825 11:10:30.420440  1691 net.cpp:128] Creating Layer Eltwise12
I0825 11:10:30.420444  1691 net.cpp:558] Eltwise12 <- Eltwise11_ReLU23_0_split_1
I0825 11:10:30.420450  1691 net.cpp:558] Eltwise12 <- Convolution27
I0825 11:10:30.420456  1691 net.cpp:522] Eltwise12 -> Eltwise12
I0825 11:10:30.420490  1691 net.cpp:172] Setting up Eltwise12
I0825 11:10:30.420497  1691 net.cpp:186] Top shape: 64 64 8 8 (262144)
I0825 11:10:30.420501  1691 net.cpp:194] Memory required for data: 401342720
I0825 11:10:30.420506  1691 layer_factory.hpp:77] Creating layer ReLU25
I0825 11:10:30.420512  1691 net.cpp:128] Creating Layer ReLU25
I0825 11:10:30.420516  1691 net.cpp:558] ReLU25 <- Eltwise12
I0825 11:10:30.420522  1691 net.cpp:509] ReLU25 -> Eltwise12 (in-place)
I0825 11:10:30.421663  1691 net.cpp:172] Setting up ReLU25
I0825 11:10:30.421696  1691 net.cpp:186] Top shape: 64 64 8 8 (262144)
I0825 11:10:30.421702  1691 net.cpp:194] Memory required for data: 402391296
I0825 11:10:30.421706  1691 layer_factory.hpp:77] Creating layer Eltwise12_ReLU25_0_split
I0825 11:10:30.421717  1691 net.cpp:128] Creating Layer Eltwise12_ReLU25_0_split
I0825 11:10:30.421722  1691 net.cpp:558] Eltwise12_ReLU25_0_split <- Eltwise12
I0825 11:10:30.421730  1691 net.cpp:522] Eltwise12_ReLU25_0_split -> Eltwise12_ReLU25_0_split_0
I0825 11:10:30.421741  1691 net.cpp:522] Eltwise12_ReLU25_0_split -> Eltwise12_ReLU25_0_split_1
I0825 11:10:30.421794  1691 net.cpp:172] Setting up Eltwise12_ReLU25_0_split
I0825 11:10:30.421802  1691 net.cpp:186] Top shape: 64 64 8 8 (262144)
I0825 11:10:30.421808  1691 net.cpp:186] Top shape: 64 64 8 8 (262144)
I0825 11:10:30.421811  1691 net.cpp:194] Memory required for data: 404488448
I0825 11:10:30.421815  1691 layer_factory.hpp:77] Creating layer Convolution28
I0825 11:10:30.421828  1691 net.cpp:128] Creating Layer Convolution28
I0825 11:10:30.421833  1691 net.cpp:558] Convolution28 <- Eltwise12_ReLU25_0_split_0
I0825 11:10:30.421842  1691 net.cpp:522] Convolution28 -> Convolution28
I0825 11:10:30.426964  1691 net.cpp:172] Setting up Convolution28
I0825 11:10:30.426990  1691 net.cpp:186] Top shape: 64 64 8 8 (262144)
I0825 11:10:30.426993  1691 net.cpp:194] Memory required for data: 405537024
I0825 11:10:30.427004  1691 layer_factory.hpp:77] Creating layer BatchNorm28
I0825 11:10:30.427016  1691 net.cpp:128] Creating Layer BatchNorm28
I0825 11:10:30.427021  1691 net.cpp:558] BatchNorm28 <- Convolution28
I0825 11:10:30.427031  1691 net.cpp:509] BatchNorm28 -> Convolution28 (in-place)
I0825 11:10:30.427291  1691 net.cpp:172] Setting up BatchNorm28
I0825 11:10:30.427304  1691 net.cpp:186] Top shape: 64 64 8 8 (262144)
I0825 11:10:30.427307  1691 net.cpp:194] Memory required for data: 406585600
I0825 11:10:30.427317  1691 layer_factory.hpp:77] Creating layer Scale28
I0825 11:10:30.427325  1691 net.cpp:128] Creating Layer Scale28
I0825 11:10:30.427328  1691 net.cpp:558] Scale28 <- Convolution28
I0825 11:10:30.427336  1691 net.cpp:509] Scale28 -> Convolution28 (in-place)
I0825 11:10:30.427381  1691 layer_factory.hpp:77] Creating layer Scale28
I0825 11:10:30.427531  1691 net.cpp:172] Setting up Scale28
I0825 11:10:30.427538  1691 net.cpp:186] Top shape: 64 64 8 8 (262144)
I0825 11:10:30.427542  1691 net.cpp:194] Memory required for data: 407634176
I0825 11:10:30.427551  1691 layer_factory.hpp:77] Creating layer ReLU26
I0825 11:10:30.427556  1691 net.cpp:128] Creating Layer ReLU26
I0825 11:10:30.427561  1691 net.cpp:558] ReLU26 <- Convolution28
I0825 11:10:30.427568  1691 net.cpp:509] ReLU26 -> Convolution28 (in-place)
I0825 11:10:30.428036  1691 net.cpp:172] Setting up ReLU26
I0825 11:10:30.428053  1691 net.cpp:186] Top shape: 64 64 8 8 (262144)
I0825 11:10:30.428061  1691 net.cpp:194] Memory required for data: 408682752
I0825 11:10:30.428066  1691 layer_factory.hpp:77] Creating layer Convolution29
I0825 11:10:30.428079  1691 net.cpp:128] Creating Layer Convolution29
I0825 11:10:30.428086  1691 net.cpp:558] Convolution29 <- Convolution28
I0825 11:10:30.428095  1691 net.cpp:522] Convolution29 -> Convolution29
I0825 11:10:30.430455  1691 net.cpp:172] Setting up Convolution29
I0825 11:10:30.430477  1691 net.cpp:186] Top shape: 64 64 8 8 (262144)
I0825 11:10:30.430482  1691 net.cpp:194] Memory required for data: 409731328
I0825 11:10:30.430492  1691 layer_factory.hpp:77] Creating layer BatchNorm29
I0825 11:10:30.430502  1691 net.cpp:128] Creating Layer BatchNorm29
I0825 11:10:30.430508  1691 net.cpp:558] BatchNorm29 <- Convolution29
I0825 11:10:30.430517  1691 net.cpp:509] BatchNorm29 -> Convolution29 (in-place)
I0825 11:10:30.430793  1691 net.cpp:172] Setting up BatchNorm29
I0825 11:10:30.430802  1691 net.cpp:186] Top shape: 64 64 8 8 (262144)
I0825 11:10:30.430806  1691 net.cpp:194] Memory required for data: 410779904
I0825 11:10:30.430816  1691 layer_factory.hpp:77] Creating layer Scale29
I0825 11:10:30.430826  1691 net.cpp:128] Creating Layer Scale29
I0825 11:10:30.430850  1691 net.cpp:558] Scale29 <- Convolution29
I0825 11:10:30.430856  1691 net.cpp:509] Scale29 -> Convolution29 (in-place)
I0825 11:10:30.430905  1691 layer_factory.hpp:77] Creating layer Scale29
I0825 11:10:30.431063  1691 net.cpp:172] Setting up Scale29
I0825 11:10:30.431073  1691 net.cpp:186] Top shape: 64 64 8 8 (262144)
I0825 11:10:30.431077  1691 net.cpp:194] Memory required for data: 411828480
I0825 11:10:30.431085  1691 layer_factory.hpp:77] Creating layer Eltwise13
I0825 11:10:30.431093  1691 net.cpp:128] Creating Layer Eltwise13
I0825 11:10:30.431098  1691 net.cpp:558] Eltwise13 <- Eltwise12_ReLU25_0_split_1
I0825 11:10:30.431103  1691 net.cpp:558] Eltwise13 <- Convolution29
I0825 11:10:30.431113  1691 net.cpp:522] Eltwise13 -> Eltwise13
I0825 11:10:30.431139  1691 net.cpp:172] Setting up Eltwise13
I0825 11:10:30.431149  1691 net.cpp:186] Top shape: 64 64 8 8 (262144)
I0825 11:10:30.431152  1691 net.cpp:194] Memory required for data: 412877056
I0825 11:10:30.431156  1691 layer_factory.hpp:77] Creating layer ReLU27
I0825 11:10:30.431165  1691 net.cpp:128] Creating Layer ReLU27
I0825 11:10:30.431170  1691 net.cpp:558] ReLU27 <- Eltwise13
I0825 11:10:30.431175  1691 net.cpp:509] ReLU27 -> Eltwise13 (in-place)
I0825 11:10:30.431417  1691 net.cpp:172] Setting up ReLU27
I0825 11:10:30.431432  1691 net.cpp:186] Top shape: 64 64 8 8 (262144)
I0825 11:10:30.431435  1691 net.cpp:194] Memory required for data: 413925632
I0825 11:10:30.431440  1691 layer_factory.hpp:77] Creating layer Eltwise13_ReLU27_0_split
I0825 11:10:30.431452  1691 net.cpp:128] Creating Layer Eltwise13_ReLU27_0_split
I0825 11:10:30.431457  1691 net.cpp:558] Eltwise13_ReLU27_0_split <- Eltwise13
I0825 11:10:30.431465  1691 net.cpp:522] Eltwise13_ReLU27_0_split -> Eltwise13_ReLU27_0_split_0
I0825 11:10:30.431474  1691 net.cpp:522] Eltwise13_ReLU27_0_split -> Eltwise13_ReLU27_0_split_1
I0825 11:10:30.431529  1691 net.cpp:172] Setting up Eltwise13_ReLU27_0_split
I0825 11:10:30.431541  1691 net.cpp:186] Top shape: 64 64 8 8 (262144)
I0825 11:10:30.431547  1691 net.cpp:186] Top shape: 64 64 8 8 (262144)
I0825 11:10:30.431551  1691 net.cpp:194] Memory required for data: 416022784
I0825 11:10:30.431555  1691 layer_factory.hpp:77] Creating layer Convolution30
I0825 11:10:30.431567  1691 net.cpp:128] Creating Layer Convolution30
I0825 11:10:30.431572  1691 net.cpp:558] Convolution30 <- Eltwise13_ReLU27_0_split_0
I0825 11:10:30.431581  1691 net.cpp:522] Convolution30 -> Convolution30
I0825 11:10:30.437121  1691 net.cpp:172] Setting up Convolution30
I0825 11:10:30.437152  1691 net.cpp:186] Top shape: 64 64 8 8 (262144)
I0825 11:10:30.437157  1691 net.cpp:194] Memory required for data: 417071360
I0825 11:10:30.437170  1691 layer_factory.hpp:77] Creating layer BatchNorm30
I0825 11:10:30.437178  1691 net.cpp:128] Creating Layer BatchNorm30
I0825 11:10:30.437183  1691 net.cpp:558] BatchNorm30 <- Convolution30
I0825 11:10:30.437193  1691 net.cpp:509] BatchNorm30 -> Convolution30 (in-place)
I0825 11:10:30.437463  1691 net.cpp:172] Setting up BatchNorm30
I0825 11:10:30.437475  1691 net.cpp:186] Top shape: 64 64 8 8 (262144)
I0825 11:10:30.437479  1691 net.cpp:194] Memory required for data: 418119936
I0825 11:10:30.437489  1691 layer_factory.hpp:77] Creating layer Scale30
I0825 11:10:30.437497  1691 net.cpp:128] Creating Layer Scale30
I0825 11:10:30.437501  1691 net.cpp:558] Scale30 <- Convolution30
I0825 11:10:30.437510  1691 net.cpp:509] Scale30 -> Convolution30 (in-place)
I0825 11:10:30.437556  1691 layer_factory.hpp:77] Creating layer Scale30
I0825 11:10:30.437711  1691 net.cpp:172] Setting up Scale30
I0825 11:10:30.437721  1691 net.cpp:186] Top shape: 64 64 8 8 (262144)
I0825 11:10:30.437726  1691 net.cpp:194] Memory required for data: 419168512
I0825 11:10:30.437733  1691 layer_factory.hpp:77] Creating layer ReLU28
I0825 11:10:30.437739  1691 net.cpp:128] Creating Layer ReLU28
I0825 11:10:30.437744  1691 net.cpp:558] ReLU28 <- Convolution30
I0825 11:10:30.437752  1691 net.cpp:509] ReLU28 -> Convolution30 (in-place)
I0825 11:10:30.439146  1691 net.cpp:172] Setting up ReLU28
I0825 11:10:30.439162  1691 net.cpp:186] Top shape: 64 64 8 8 (262144)
I0825 11:10:30.439167  1691 net.cpp:194] Memory required for data: 420217088
I0825 11:10:30.439172  1691 layer_factory.hpp:77] Creating layer Convolution31
I0825 11:10:30.439190  1691 net.cpp:128] Creating Layer Convolution31
I0825 11:10:30.439198  1691 net.cpp:558] Convolution31 <- Convolution30
I0825 11:10:30.439206  1691 net.cpp:522] Convolution31 -> Convolution31
I0825 11:10:30.446106  1691 net.cpp:172] Setting up Convolution31
I0825 11:10:30.446132  1691 net.cpp:186] Top shape: 64 64 8 8 (262144)
I0825 11:10:30.446137  1691 net.cpp:194] Memory required for data: 421265664
I0825 11:10:30.446152  1691 layer_factory.hpp:77] Creating layer BatchNorm31
I0825 11:10:30.446163  1691 net.cpp:128] Creating Layer BatchNorm31
I0825 11:10:30.446169  1691 net.cpp:558] BatchNorm31 <- Convolution31
I0825 11:10:30.446177  1691 net.cpp:509] BatchNorm31 -> Convolution31 (in-place)
I0825 11:10:30.446483  1691 net.cpp:172] Setting up BatchNorm31
I0825 11:10:30.446492  1691 net.cpp:186] Top shape: 64 64 8 8 (262144)
I0825 11:10:30.446497  1691 net.cpp:194] Memory required for data: 422314240
I0825 11:10:30.446507  1691 layer_factory.hpp:77] Creating layer Scale31
I0825 11:10:30.446516  1691 net.cpp:128] Creating Layer Scale31
I0825 11:10:30.446519  1691 net.cpp:558] Scale31 <- Convolution31
I0825 11:10:30.446528  1691 net.cpp:509] Scale31 -> Convolution31 (in-place)
I0825 11:10:30.446574  1691 layer_factory.hpp:77] Creating layer Scale31
I0825 11:10:30.446730  1691 net.cpp:172] Setting up Scale31
I0825 11:10:30.446738  1691 net.cpp:186] Top shape: 64 64 8 8 (262144)
I0825 11:10:30.446743  1691 net.cpp:194] Memory required for data: 423362816
I0825 11:10:30.446750  1691 layer_factory.hpp:77] Creating layer Eltwise14
I0825 11:10:30.446759  1691 net.cpp:128] Creating Layer Eltwise14
I0825 11:10:30.446764  1691 net.cpp:558] Eltwise14 <- Eltwise13_ReLU27_0_split_1
I0825 11:10:30.446769  1691 net.cpp:558] Eltwise14 <- Convolution31
I0825 11:10:30.446777  1691 net.cpp:522] Eltwise14 -> Eltwise14
I0825 11:10:30.446807  1691 net.cpp:172] Setting up Eltwise14
I0825 11:10:30.446815  1691 net.cpp:186] Top shape: 64 64 8 8 (262144)
I0825 11:10:30.446818  1691 net.cpp:194] Memory required for data: 424411392
I0825 11:10:30.446822  1691 layer_factory.hpp:77] Creating layer ReLU29
I0825 11:10:30.446828  1691 net.cpp:128] Creating Layer ReLU29
I0825 11:10:30.446833  1691 net.cpp:558] ReLU29 <- Eltwise14
I0825 11:10:30.446841  1691 net.cpp:509] ReLU29 -> Eltwise14 (in-place)
I0825 11:10:30.447963  1691 net.cpp:172] Setting up ReLU29
I0825 11:10:30.447979  1691 net.cpp:186] Top shape: 64 64 8 8 (262144)
I0825 11:10:30.447984  1691 net.cpp:194] Memory required for data: 425459968
I0825 11:10:30.447989  1691 layer_factory.hpp:77] Creating layer Eltwise14_ReLU29_0_split
I0825 11:10:30.448001  1691 net.cpp:128] Creating Layer Eltwise14_ReLU29_0_split
I0825 11:10:30.448006  1691 net.cpp:558] Eltwise14_ReLU29_0_split <- Eltwise14
I0825 11:10:30.448016  1691 net.cpp:522] Eltwise14_ReLU29_0_split -> Eltwise14_ReLU29_0_split_0
I0825 11:10:30.448024  1691 net.cpp:522] Eltwise14_ReLU29_0_split -> Eltwise14_ReLU29_0_split_1
I0825 11:10:30.448081  1691 net.cpp:172] Setting up Eltwise14_ReLU29_0_split
I0825 11:10:30.448088  1691 net.cpp:186] Top shape: 64 64 8 8 (262144)
I0825 11:10:30.448094  1691 net.cpp:186] Top shape: 64 64 8 8 (262144)
I0825 11:10:30.448098  1691 net.cpp:194] Memory required for data: 427557120
I0825 11:10:30.448102  1691 layer_factory.hpp:77] Creating layer Convolution32
I0825 11:10:30.448117  1691 net.cpp:128] Creating Layer Convolution32
I0825 11:10:30.448120  1691 net.cpp:558] Convolution32 <- Eltwise14_ReLU29_0_split_0
I0825 11:10:30.448130  1691 net.cpp:522] Convolution32 -> Convolution32
I0825 11:10:30.454710  1691 net.cpp:172] Setting up Convolution32
I0825 11:10:30.454735  1691 net.cpp:186] Top shape: 64 64 8 8 (262144)
I0825 11:10:30.454741  1691 net.cpp:194] Memory required for data: 428605696
I0825 11:10:30.454766  1691 layer_factory.hpp:77] Creating layer BatchNorm32
I0825 11:10:30.454777  1691 net.cpp:128] Creating Layer BatchNorm32
I0825 11:10:30.454785  1691 net.cpp:558] BatchNorm32 <- Convolution32
I0825 11:10:30.454792  1691 net.cpp:509] BatchNorm32 -> Convolution32 (in-place)
I0825 11:10:30.455068  1691 net.cpp:172] Setting up BatchNorm32
I0825 11:10:30.455078  1691 net.cpp:186] Top shape: 64 64 8 8 (262144)
I0825 11:10:30.455083  1691 net.cpp:194] Memory required for data: 429654272
I0825 11:10:30.455093  1691 layer_factory.hpp:77] Creating layer Scale32
I0825 11:10:30.455099  1691 net.cpp:128] Creating Layer Scale32
I0825 11:10:30.455104  1691 net.cpp:558] Scale32 <- Convolution32
I0825 11:10:30.455111  1691 net.cpp:509] Scale32 -> Convolution32 (in-place)
I0825 11:10:30.455159  1691 layer_factory.hpp:77] Creating layer Scale32
I0825 11:10:30.455312  1691 net.cpp:172] Setting up Scale32
I0825 11:10:30.455323  1691 net.cpp:186] Top shape: 64 64 8 8 (262144)
I0825 11:10:30.455328  1691 net.cpp:194] Memory required for data: 430702848
I0825 11:10:30.455335  1691 layer_factory.hpp:77] Creating layer ReLU30
I0825 11:10:30.455343  1691 net.cpp:128] Creating Layer ReLU30
I0825 11:10:30.455346  1691 net.cpp:558] ReLU30 <- Convolution32
I0825 11:10:30.455351  1691 net.cpp:509] ReLU30 -> Convolution32 (in-place)
I0825 11:10:30.455817  1691 net.cpp:172] Setting up ReLU30
I0825 11:10:30.455839  1691 net.cpp:186] Top shape: 64 64 8 8 (262144)
I0825 11:10:30.455843  1691 net.cpp:194] Memory required for data: 431751424
I0825 11:10:30.455848  1691 layer_factory.hpp:77] Creating layer Convolution33
I0825 11:10:30.455862  1691 net.cpp:128] Creating Layer Convolution33
I0825 11:10:30.455868  1691 net.cpp:558] Convolution33 <- Convolution32
I0825 11:10:30.455878  1691 net.cpp:522] Convolution33 -> Convolution33
I0825 11:10:30.461261  1691 net.cpp:172] Setting up Convolution33
I0825 11:10:30.461287  1691 net.cpp:186] Top shape: 64 64 8 8 (262144)
I0825 11:10:30.461292  1691 net.cpp:194] Memory required for data: 432800000
I0825 11:10:30.461305  1691 layer_factory.hpp:77] Creating layer BatchNorm33
I0825 11:10:30.461316  1691 net.cpp:128] Creating Layer BatchNorm33
I0825 11:10:30.461324  1691 net.cpp:558] BatchNorm33 <- Convolution33
I0825 11:10:30.461334  1691 net.cpp:509] BatchNorm33 -> Convolution33 (in-place)
I0825 11:10:30.461616  1691 net.cpp:172] Setting up BatchNorm33
I0825 11:10:30.461627  1691 net.cpp:186] Top shape: 64 64 8 8 (262144)
I0825 11:10:30.461632  1691 net.cpp:194] Memory required for data: 433848576
I0825 11:10:30.461642  1691 layer_factory.hpp:77] Creating layer Scale33
I0825 11:10:30.461648  1691 net.cpp:128] Creating Layer Scale33
I0825 11:10:30.461652  1691 net.cpp:558] Scale33 <- Convolution33
I0825 11:10:30.461658  1691 net.cpp:509] Scale33 -> Convolution33 (in-place)
I0825 11:10:30.461711  1691 layer_factory.hpp:77] Creating layer Scale33
I0825 11:10:30.461866  1691 net.cpp:172] Setting up Scale33
I0825 11:10:30.461876  1691 net.cpp:186] Top shape: 64 64 8 8 (262144)
I0825 11:10:30.461881  1691 net.cpp:194] Memory required for data: 434897152
I0825 11:10:30.461889  1691 layer_factory.hpp:77] Creating layer Eltwise15
I0825 11:10:30.461899  1691 net.cpp:128] Creating Layer Eltwise15
I0825 11:10:30.461905  1691 net.cpp:558] Eltwise15 <- Eltwise14_ReLU29_0_split_1
I0825 11:10:30.461910  1691 net.cpp:558] Eltwise15 <- Convolution33
I0825 11:10:30.461915  1691 net.cpp:522] Eltwise15 -> Eltwise15
I0825 11:10:30.461944  1691 net.cpp:172] Setting up Eltwise15
I0825 11:10:30.461952  1691 net.cpp:186] Top shape: 64 64 8 8 (262144)
I0825 11:10:30.461956  1691 net.cpp:194] Memory required for data: 435945728
I0825 11:10:30.461961  1691 layer_factory.hpp:77] Creating layer ReLU31
I0825 11:10:30.461966  1691 net.cpp:128] Creating Layer ReLU31
I0825 11:10:30.461971  1691 net.cpp:558] ReLU31 <- Eltwise15
I0825 11:10:30.461977  1691 net.cpp:509] ReLU31 -> Eltwise15 (in-place)
I0825 11:10:30.463074  1691 net.cpp:172] Setting up ReLU31
I0825 11:10:30.463090  1691 net.cpp:186] Top shape: 64 64 8 8 (262144)
I0825 11:10:30.463095  1691 net.cpp:194] Memory required for data: 436994304
I0825 11:10:30.463120  1691 layer_factory.hpp:77] Creating layer Pooling1
I0825 11:10:30.463135  1691 net.cpp:128] Creating Layer Pooling1
I0825 11:10:30.463140  1691 net.cpp:558] Pooling1 <- Eltwise15
I0825 11:10:30.463150  1691 net.cpp:522] Pooling1 -> Pooling1
I0825 11:10:30.465342  1691 net.cpp:172] Setting up Pooling1
I0825 11:10:30.465361  1691 net.cpp:186] Top shape: 64 64 1 1 (4096)
I0825 11:10:30.465366  1691 net.cpp:194] Memory required for data: 437010688
I0825 11:10:30.465370  1691 layer_factory.hpp:77] Creating layer InnerProduct1
I0825 11:10:30.465382  1691 net.cpp:128] Creating Layer InnerProduct1
I0825 11:10:30.465389  1691 net.cpp:558] InnerProduct1 <- Pooling1
I0825 11:10:30.465397  1691 net.cpp:522] InnerProduct1 -> InnerProduct1
I0825 11:10:30.465584  1691 net.cpp:172] Setting up InnerProduct1
I0825 11:10:30.465591  1691 net.cpp:186] Top shape: 64 10 (640)
I0825 11:10:30.465595  1691 net.cpp:194] Memory required for data: 437013248
I0825 11:10:30.465605  1691 layer_factory.hpp:77] Creating layer SoftmaxWithLoss1
I0825 11:10:30.465615  1691 net.cpp:128] Creating Layer SoftmaxWithLoss1
I0825 11:10:30.465620  1691 net.cpp:558] SoftmaxWithLoss1 <- InnerProduct1
I0825 11:10:30.465625  1691 net.cpp:558] SoftmaxWithLoss1 <- Data2
I0825 11:10:30.465632  1691 net.cpp:522] SoftmaxWithLoss1 -> SoftmaxWithLoss1
…
I0825 11:10:30.471669  1691 net.cpp:390] layer_param.include_size():1
I0825 11:10:30.471673  1691 net.cpp:391] layer_param.exclude_size():0
I0825 11:10:30.472602  1691 net.cpp:82] Initializing net from parameters: 
name: "resnet_cifar10"
state {
  phase: TEST
}
layer {
  name: "Data1"
  type: "Data"
  top: "Data1"
  top: "Data2"
  include {
    phase: TEST
  }
  transform_param {
    scale: 0.00390625
    mean_value: 125.3
    mean_value: 122.9
    mean_value: 113.8
  }
  data_param {
    source: "/home/lijianfei/datasets/cifar10_40/test_lmdb"
    batch_size: 10
    backend: LMDB
  }
}
layer {
  name: "Convolution1"
  type: "Convolution"
  bottom: "Data1"
  top: "Convolution1"
  param {
    lr_mult: 1
    decay_mult: 1
  }
  param {
    lr_mult: 2
    decay_mult: 0
  }
  convolution_param {
    num_output: 16
    pad: 1
    kernel_size: 3
    stride: 1
    weight_filler {
      type: "msra"
    }
    bias_filler {
      type: "constant"
      value: 0
    }
  }
}
layer {
  name: "BatchNorm1"
  type: "BatchNorm"
  bottom: "Convolution1"
  top: "Convolution1"
  param {
    lr_mult: 0
    decay_mult: 0
  }
  param {
    lr_mult: 0
    decay_mult: 0
  }
  param {
    lr_mult: 0
    decay_mult: 0
  }
}
layer {
  name: "Scale1"
  type: "Scale"
  bottom: "Convolution1"
  top: "Convolution1"
  scale_param {
    bias_term: true
  }
}
layer {
  name: "ReLU1"
  type: "ReLU"
  bottom: "Convolution1"
  top: "Convolution1"
}
layer {
  name: "Convolution2"
  type: "Convolution"
  bottom: "Convolution1"
  top: "Convolution2"
  param {
    lr_mult: 1
    decay_mult: 1
  }
  param {
    lr_mult: 2
    decay_mult: 0
  }
  convolution_param {
    num_output: 16
    pad: 1
    kernel_size: 3
    stride: 1
    weight_filler {
      type: "msra"
    }
    bias_filler {
      type: "constant"
      value: 0
    }
  }
}
layer {
  name: "BatchNorm2"
  type: "BatchNorm"
  bottom: "Convolution2"
  top: "Convolution2"
  param {
    lr_mult: 0
    decay_mult: 0
  }
  param {
    lr_mult: 0
    decay_mult: 0
  }
  param {
    lr_mult: 0
    decay_mult: 0
  }
}
layer {
  name: "Scale2"
  type: "Scale"
  bottom: "Convolution2"
  top: "Convolution2"
  scale_param {
    bias_term: true
  }
}
layer {
  name: "ReLU2"
  type: "ReLU"
  bottom: "Convolution2"
  top: "Convolution2"
}
layer {
  name: "Convolution3"
  type: "Convolution"
  bottom: "Convolution2"
  top: "Convolution3"
  param {
    lr_mult: 1
    decay_mult: 1
  }
  param {
    lr_mult: 2
    decay_mult: 0
  }
  convolution_param {
    num_output: 16
    pad: 1
    kernel_size: 3
    stride: 1
    weight_filler {
      type: "msra"
    }
    bias_filler {
      type: "constant"
      value: 0
    }
  }
}
layer {
  name: "BatchNorm3"
  type: "BatchNorm"
  bottom: "Convolution3"
  top: "Convolution3"
  param {
    lr_mult: 0
    decay_mult: 0
  }
  param {
    lr_mult: 0
    decay_mult: 0
  }
  param {
    lr_mult: 0
    decay_mult: 0
  }
}
layer {
  name: "Scale3"
  type: "Scale"
  bottom: "Convolution3"
  top: "Convolution3"
  scale_param {
    bias_term: true
  }
}
layer {
  name: "Eltwise1"
  type: "Eltwise"
  bottom: "Convolution1"
  bottom: "Convolution3"
  top: "Eltwise1"
  eltwise_param {
    operation: SUM
  }
}
layer {
  name: "ReLU3"
  type: "ReLU"
  bottom: "Eltwise1"
  top: "Eltwise1"
}
layer {
  name: "Convolution4"
  type: "Convolution"
  bottom: "Eltwise1"
  top: "Convolution4"
  param {
    lr_mult: 1
    decay_mult: 1
  }
  param {
    lr_mult: 2
    decay_mult: 0
  }
  convolution_param {
    num_output: 16
    pad: 1
    kernel_size: 3
    stride: 1
    weight_filler {
      type: "msra"
    }
    bias_filler {
      type: "constant"
      value: 0
    }
  }
}
layer {
  name: "BatchNorm4"
  type: "BatchNorm"
  bottom: "Convolution4"
  top: "Convolution4"
  param {
    lr_mult: 0
    decay_mult: 0
  }
  param {
    lr_mult: 0
    decay_mult: 0
  }
  param {
    lr_mult: 0
    decay_mult: 0
  }
}
layer {
  name: "Scale4"
  type: "Scale"
  bottom: "Convolution4"
  top: "Convolution4"
  scale_param {
    bias_term: true
  }
}
layer {
  name: "ReLU4"
  type: "ReLU"
  bottom: "Convolution4"
  top: "Convolution4"
}
layer {
  name: "Convolution5"
  type: "Convolution"
  bottom: "Convolution4"
  top: "Convolution5"
  param {
    lr_mult: 1
    decay_mult: 1
  }
  param {
    lr_mult: 2
    decay_mult: 0
  }
  convolution_param {
    num_output: 16
    pad: 1
    kernel_size: 3
    stride: 1
    weight_filler {
      type: "msra"
    }
    bias_filler {
      type: "constant"
      value: 0
    }
  }
}
layer {
  name: "BatchNorm5"
  type: "BatchNorm"
  bottom: "Convolution5"
  top: "Convolution5"
  param {
    lr_mult: 0
    decay_mult: 0
  }
  param {
    lr_mult: 0
    decay_mult: 0
  }
  param {
    lr_mult: 0
    decay_mult: 0
  }
}
layer {
  name: "Scale5"
  type: "Scale"
  bottom: "Convolution5"
  top: "Convolution5"
  scale_param {
    bias_term: true
  }
}
layer {
  name: "Eltwise2"
  type: "Eltwise"
  bottom: "Eltwise1"
  bottom: "Convolution5"
  top: "Eltwise2"
  eltwise_param {
    operation: SUM
  }
}
layer {
  name: "ReLU5"
  type: "ReLU"
  bottom: "Eltwise2"
  top: "Eltwise2"
}
layer {
  name: "Convolution6"
  type: "Convolution"
  bottom: "Eltwise2"
  top: "Convolution6"
  param {
    lr_mult: 1
    decay_mult: 1
  }
  param {
    lr_mult: 2
    decay_mult: 0
  }
  convolution_param {
    num_output: 16
    pad: 1
    kernel_size: 3
    stride: 1
    weight_filler {
      type: "msra"
    }
    bias_filler {
      type: "constant"
      value: 0
    }
  }
}
layer {
  name: "BatchNorm6"
  type: "BatchNorm"
  bottom: "Convolution6"
  top: "Convolution6"
  param {
    lr_mult: 0
    decay_mult: 0
  }
  param {
    lr_mult: 0
    decay_mult: 0
  }
  param {
    lr_mult: 0
    decay_mult: 0
  }
}
layer {
  name: "Scale6"
  type: "Scale"
  bottom: "Convolution6"
  top: "Convolution6"
  scale_param {
    bias_term: true
  }
}
layer {
  name: "ReLU6"
  type: "ReLU"
  bottom: "Convolution6"
  top: "Convolution6"
}
layer {
  name: "Convolution7"
  type: "Convolution"
  bottom: "Convolution6"
  top: "Convolution7"
  param {
    lr_mult: 1
    decay_mult: 1
  }
  param {
    lr_mult: 2
    decay_mult: 0
  }
  convolution_param {
    num_output: 16
    pad: 1
    kernel_size: 3
    stride: 1
    weight_filler {
      type: "msra"
    }
    bias_filler {
      type: "constant"
      value: 0
    }
  }
}
layer {
  name: "BatchNorm7"
  type: "BatchNorm"
  bottom: "Convolution7"
  top: "Convolution7"
  param {
    lr_mult: 0
    decay_mult: 0
  }
  param {
    lr_mult: 0
    decay_mult: 0
  }
  param {
    lr_mult: 0
    decay_mult: 0
  }
}
layer {
  name: "Scale7"
  type: "Scale"
  bottom: "Convolution7"
  top: "Convolution7"
  scale_param {
    bias_term: true
  }
}
layer {
  name: "Eltwise3"
  type: "Eltwise"
  bottom: "Eltwise2"
  bottom: "Convolution7"
  top: "Eltwise3"
  eltwise_param {
    operation: SUM
  }
}
layer {
  name: "ReLU7"
  type: "ReLU"
  bottom: "Eltwise3"
  top: "Eltwise3"
}
layer {
  name: "Convolution8"
  type: "Convolution"
  bottom: "Eltwise3"
  top: "Convolution8"
  param {
    lr_mult: 1
    decay_mult: 1
  }
  param {
    lr_mult: 2
    decay_mult: 0
  }
  convolution_param {
    num_output: 16
    pad: 1
    kernel_size: 3
    stride: 1
    weight_filler {
      type: "msra"
    }
    bias_filler {
      type: "constant"
      value: 0
    }
  }
}
layer {
  name: "BatchNorm8"
  type: "BatchNorm"
  bottom: "Convolution8"
  top: "Convolution8"
  param {
    lr_mult: 0
    decay_mult: 0
  }
  param {
    lr_mult: 0
    decay_mult: 0
  }
  param {
    lr_mult: 0
    decay_mult: 0
  }
}
layer {
  name: "Scale8"
  type: "Scale"
  bottom: "Convolution8"
  top: "Convolution8"
  scale_param {
    bias_term: true
  }
}
layer {
  name: "ReLU8"
  type: "ReLU"
  bottom: "Convolution8"
  top: "Convolution8"
}
layer {
  name: "Convolution9"
  type: "Convolution"
  bottom: "Convolution8"
  top: "Convolution9"
  param {
    lr_mult: 1
    decay_mult: 1
  }
  param {
    lr_mult: 2
    decay_mult: 0
  }
  convolution_param {
    num_output: 16
    pad: 1
    kernel_size: 3
    stride: 1
    weight_filler {
      type: "msra"
    }
    bias_filler {
      type: "constant"
      value: 0
    }
  }
}
layer {
  name: "BatchNorm9"
  type: "BatchNorm"
  bottom: "Convolution9"
  top: "Convolution9"
  param {
    lr_mult: 0
    decay_mult: 0
  }
  param {
    lr_mult: 0
    decay_mult: 0
  }
  param {
    lr_mult: 0
    decay_mult: 0
  }
}
layer {
  name: "Scale9"
  type: "Scale"
  bottom: "Convolution9"
  top: "Convolution9"
  scale_param {
    bias_term: true
  }
}
layer {
  name: "Eltwise4"
  type: "Eltwise"
  bottom: "Eltwise3"
  bottom: "Convolution9"
  top: "Eltwise4"
  eltwise_param {
    operation: SUM
  }
}
layer {
  name: "ReLU9"
  type: "ReLU"
  bottom: "Eltwise4"
  top: "Eltwise4"
}
layer {
  name: "Convolution10"
  type: "Convolution"
  bottom: "Eltwise4"
  top: "Convolution10"
  param {
    lr_mult: 1
    decay_mult: 1
  }
  param {
    lr_mult: 2
    decay_mult: 0
  }
  convolution_param {
    num_output: 16
    pad: 1
    kernel_size: 3
    stride: 1
    weight_filler {
      type: "msra"
    }
    bias_filler {
      type: "constant"
      value: 0
    }
  }
}
layer {
  name: "BatchNorm10"
  type: "BatchNorm"
  bottom: "Convolution10"
  top: "Convolution10"
  param {
    lr_mult: 0
    decay_mult: 0
  }
  param {
    lr_mult: 0
    decay_mult: 0
  }
  param {
    lr_mult: 0
    decay_mult: 0
  }
}
layer {
  name: "Scale10"
  type: "Scale"
  bottom: "Convolution10"
  top: "Convolution10"
  scale_param {
    bias_term: true
  }
}
layer {
  name: "ReLU10"
  type: "ReLU"
  bottom: "Convolution10"
  top: "Convolution10"
}
layer {
  name: "Convolution11"
  type: "Convolution"
  bottom: "Convolution10"
  top: "Convolution11"
  param {
    lr_mult: 1
    decay_mult: 1
  }
  param {
    lr_mult: 2
    decay_mult: 0
  }
  convolution_param {
    num_output: 16
    pad: 1
    kernel_size: 3
    stride: 1
    weight_filler {
      type: "msra"
    }
    bias_filler {
      type: "constant"
      value: 0
    }
  }
}
layer {
  name: "BatchNorm11"
  type: "BatchNorm"
  bottom: "Convolution11"
  top: "Convolution11"
  param {
    lr_mult: 0
    decay_mult: 0
  }
  param {
    lr_mult: 0
    decay_mult: 0
  }
  param {
    lr_mult: 0
    decay_mult: 0
  }
}
layer {
  name: "Scale11"
  type: "Scale"
  bottom: "Convolution11"
  top: "Convolution11"
  scale_param {
    bias_term: true
  }
}
layer {
  name: "Eltwise5"
  type: "Eltwise"
  bottom: "Eltwise4"
  bottom: "Convolution11"
  top: "Eltwise5"
  eltwise_param {
    operation: SUM
  }
}
layer {
  name: "ReLU11"
  type: "ReLU"
  bottom: "Eltwise5"
  top: "Eltwise5"
}
layer {
  name: "Convolution12"
  type: "Convolution"
  bottom: "Eltwise5"
  top: "Convolution12"
  param {
    lr_mult: 1
    decay_mult: 1
  }
  param {
    lr_mult: 2
    decay_mult: 0
  }
  convolution_param {
    num_output: 32
    pad: 0
    kernel_size: 1
    stride: 2
    weight_filler {
      type: "msra"
    }
    bias_filler {
      type: "constant"
      value: 0
    }
  }
}
layer {
  name: "BatchNorm12"
  type: "BatchNorm"
  bottom: "Convolution12"
  top: "Convolution12"
  param {
    lr_mult: 0
    decay_mult: 0
  }
  param {
    lr_mult: 0
    decay_mult: 0
  }
  param {
    lr_mult: 0
    decay_mult: 0
  }
}
layer {
  name: "Scale12"
  type: "Scale"
  bottom: "Convolution12"
  top: "Convolution12"
  scale_param {
    bias_term: true
  }
}
layer {
  name: "Convolution13"
  type: "Convolution"
  bottom: "Eltwise5"
  top: "Convolution13"
  param {
    lr_mult: 1
    decay_mult: 1
  }
  param {
    lr_mult: 2
    decay_mult: 0
  }
  convolution_param {
    num_output: 32
    pad: 1
    kernel_size: 3
    stride: 2
    weight_filler {
      type: "msra"
    }
    bias_filler {
      type: "constant"
      value: 0
    }
  }
}
layer {
  name: "BatchNorm13"
  type: "BatchNorm"
  bottom: "Convolution13"
  top: "Convolution13"
  param {
    lr_mult: 0
    decay_mult: 0
  }
  param {
    lr_mult: 0
    decay_mult: 0
  }
  param {
    lr_mult: 0
    decay_mult: 0
  }
}
layer {
  name: "Scale13"
  type: "Scale"
  bottom: "Convolution13"
  top: "Convolution13"
  scale_param {
    bias_term: true
  }
}
layer {
  name: "ReLU12"
  type: "ReLU"
  bottom: "Convolution13"
  top: "Convolution13"
}
layer {
  name: "Convolution14"
  type: "Convolution"
  bottom: "Convolution13"
  top: "Convolution14"
  param {
    lr_mult: 1
    decay_mult: 1
  }
  param {
    lr_mult: 2
    decay_mult: 0
  }
  convolution_param {
    num_output: 32
    pad: 1
    kernel_size: 3
    stride: 1
    weight_filler {
      type: "msra"
    }
    bias_filler {
      type: "constant"
      value: 0
    }
  }
}
layer {
  name: "BatchNorm14"
  type: "BatchNorm"
  bottom: "Convolution14"
  top: "Convolution14"
  param {
    lr_mult: 0
    decay_mult: 0
  }
  param {
    lr_mult: 0
    decay_mult: 0
  }
  param {
    lr_mult: 0
    decay_mult: 0
  }
}
layer {
  name: "Scale14"
  type: "Scale"
  bottom: "Convolution14"
  top: "Convolution14"
  scale_param {
    bias_term: true
  }
}
layer {
  name: "Eltwise6"
  type: "Eltwise"
  bottom: "Convolution12"
  bottom: "Convolution14"
  top: "Eltwise6"
  eltwise_param {
    operation: SUM
  }
}
layer {
  name: "ReLU13"
  type: "ReLU"
  bottom: "Eltwise6"
  top: "Eltwise6"
}
layer {
  name: "Convolution15"
  type: "Convolution"
  bottom: "Eltwise6"
  top: "Convolution15"
  param {
    lr_mult: 1
    decay_mult: 1
  }
  param {
    lr_mult: 2
    decay_mult: 0
  }
  convolution_param {
    num_output: 32
    pad: 1
    kernel_size: 3
    stride: 1
    weight_filler {
      type: "msra"
    }
    bias_filler {
      type: "constant"
      value: 0
    }
  }
}
layer {
  name: "BatchNorm15"
  type: "BatchNorm"
  bottom: "Convolution15"
  top: "Convolution15"
  param {
    lr_mult: 0
    decay_mult: 0
  }
  param {
    lr_mult: 0
    decay_mult: 0
  }
  param {
    lr_mult: 0
    decay_mult: 0
  }
}
layer {
  name: "Scale15"
  type: "Scale"
  bottom: "Convolution15"
  top: "Convolution15"
  scale_param {
    bias_term: true
  }
}
layer {
  name: "ReLU14"
  type: "ReLU"
  bottom: "Convolution15"
  top: "Convolution15"
}
layer {
  name: "Convolution16"
  type: "Convolution"
  bottom: "Convolution15"
  top: "Convolution16"
  param {
    lr_mult: 1
    decay_mult: 1
  }
  param {
    lr_mult: 2
    decay_mult: 0
  }
  convolution_param {
    num_output: 32
    pad: 1
    kernel_size: 3
    stride: 1
    weight_filler {
      type: "msra"
    }
    bias_filler {
      type: "constant"
      value: 0
    }
  }
}
layer {
  name: "BatchNorm16"
  type: "BatchNorm"
  bottom: "Convolution16"
  top: "Convolution16"
  param {
    lr_mult: 0
    decay_mult: 0
  }
  param {
    lr_mult: 0
    decay_mult: 0
  }
  param {
    lr_mult: 0
    decay_mult: 0
  }
}
layer {
  name: "Scale16"
  type: "Scale"
  bottom: "Convolution16"
  top: "Convolution16"
  scale_param {
    bias_term: true
  }
}
layer {
  name: "Eltwise7"
  type: "Eltwise"
  bottom: "Eltwise6"
  bottom: "Convolution16"
  top: "Eltwise7"
  eltwise_param {
    operation: SUM
  }
}
layer {
  name: "ReLU15"
  type: "ReLU"
  bottom: "Eltwise7"
  top: "Eltwise7"
}
layer {
  name: "Convolution17"
  type: "Convolution"
  bottom: "Eltwise7"
  top: "Convolution17"
  param {
    lr_mult: 1
    decay_mult: 1
  }
  param {
    lr_mult: 2
    decay_mult: 0
  }
  convolution_param {
    num_output: 32
    pad: 1
    kernel_size: 3
    stride: 1
    weight_filler {
      type: "msra"
    }
    bias_filler {
      type: "constant"
      value: 0
    }
  }
}
layer {
  name: "BatchNorm17"
  type: "BatchNorm"
  bottom: "Convolution17"
  top: "Convolution17"
  param {
    lr_mult: 0
    decay_mult: 0
  }
  param {
    lr_mult: 0
    decay_mult: 0
  }
  param {
    lr_mult: 0
    decay_mult: 0
  }
}
layer {
  name: "Scale17"
  type: "Scale"
  bottom: "Convolution17"
  top: "Convolution17"
  scale_param {
    bias_term: true
  }
}
layer {
  name: "ReLU16"
  type: "ReLU"
  bottom: "Convolution17"
  top: "Convolution17"
}
layer {
  name: "Convolution18"
  type: "Convolution"
  bottom: "Convolution17"
  top: "Convolution18"
  param {
    lr_mult: 1
    decay_mult: 1
  }
  param {
    lr_mult: 2
    decay_mult: 0
  }
  convolution_param {
    num_output: 32
    pad: 1
    kernel_size: 3
    stride: 1
    weight_filler {
      type: "msra"
    }
    bias_filler {
      type: "constant"
      value: 0
    }
  }
}
layer {
  name: "BatchNorm18"
  type: "BatchNorm"
  bottom: "Convolution18"
  top: "Convolution18"
  param {
    lr_mult: 0
    decay_mult: 0
  }
  param {
    lr_mult: 0
    decay_mult: 0
  }
  param {
    lr_mult: 0
    decay_mult: 0
  }
}
layer {
  name: "Scale18"
  type: "Scale"
  bottom: "Convolution18"
  top: "Convolution18"
  scale_param {
    bias_term: true
  }
}
layer {
  name: "Eltwise8"
  type: "Eltwise"
  bottom: "Eltwise7"
  bottom: "Convolution18"
  top: "Eltwise8"
  eltwise_param {
    operation: SUM
  }
}
layer {
  name: "ReLU17"
  type: "ReLU"
  bottom: "Eltwise8"
  top: "Eltwise8"
}
layer {
  name: "Convolution19"
  type: "Convolution"
  bottom: "Eltwise8"
  top: "Convolution19"
  param {
    lr_mult: 1
    decay_mult: 1
  }
  param {
    lr_mult: 2
    decay_mult: 0
  }
  convolution_param {
    num_output: 32
    pad: 1
    kernel_size: 3
    stride: 1
    weight_filler {
      type: "msra"
    }
    bias_filler {
      type: "constant"
      value: 0
    }
  }
}
layer {
  name: "BatchNorm19"
  type: "BatchNorm"
  bottom: "Convolution19"
  top: "Convolution19"
  param {
    lr_mult: 0
    decay_mult: 0
  }
  param {
    lr_mult: 0
    decay_mult: 0
  }
  param {
    lr_mult: 0
    decay_mult: 0
  }
}
layer {
  name: "Scale19"
  type: "Scale"
  bottom: "Convolution19"
  top: "Convolution19"
  scale_param {
    bias_term: true
  }
}
layer {
  name: "ReLU18"
  type: "ReLU"
  bottom: "Convolution19"
  top: "Convolution19"
}
layer {
  name: "Convolution20"
  type: "Convolution"
  bottom: "Convolution19"
  top: "Convolution20"
  param {
    lr_mult: 1
    decay_mult: 1
  }
  param {
    lr_mult: 2
    decay_mult: 0
  }
  convolution_param {
    num_output: 32
    pad: 1
    kernel_size: 3
    stride: 1
    weight_filler {
      type: "msra"
    }
    bias_filler {
      type: "constant"
      value: 0
    }
  }
}
layer {
  name: "BatchNorm20"
  type: "BatchNorm"
  bottom: "Convolution20"
  top: "Convolution20"
  param {
    lr_mult: 0
    decay_mult: 0
  }
  param {
    lr_mult: 0
    decay_mult: 0
  }
  param {
    lr_mult: 0
    decay_mult: 0
  }
}
layer {
  name: "Scale20"
  type: "Scale"
  bottom: "Convolution20"
  top: "Convolution20"
  scale_param {
    bias_term: true
  }
}
layer {
  name: "Eltwise9"
  type: "Eltwise"
  bottom: "Eltwise8"
  bottom: "Convolution20"
  top: "Eltwise9"
  eltwise_param {
    operation: SUM
  }
}
layer {
  name: "ReLU19"
  type: "ReLU"
  bottom: "Eltwise9"
  top: "Eltwise9"
}
layer {
  name: "Convolution21"
  type: "Convolution"
  bottom: "Eltwise9"
  top: "Convolution21"
  param {
    lr_mult: 1
    decay_mult: 1
  }
  param {
    lr_mult: 2
    decay_mult: 0
  }
  convolution_param {
    num_output: 32
    pad: 1
    kernel_size: 3
    stride: 1
    weight_filler {
      type: "msra"
    }
    bias_filler {
      type: "constant"
      value: 0
    }
  }
}
layer {
  name: "BatchNorm21"
  type: "BatchNorm"
  bottom: "Convolution21"
  top: "Convolution21"
  param {
    lr_mult: 0
    decay_mult: 0
  }
  param {
    lr_mult: 0
    decay_mult: 0
  }
  param {
    lr_mult: 0
    decay_mult: 0
  }
}
layer {
  name: "Scale21"
  type: "Scale"
  bottom: "Convolution21"
  top: "Convolution21"
  scale_param {
    bias_term: true
  }
}
layer {
  name: "ReLU20"
  type: "ReLU"
  bottom: "Convolution21"
  top: "Convolution21"
}
layer {
  name: "Convolution22"
  type: "Convolution"
  bottom: "Convolution21"
  top: "Convolution22"
  param {
    lr_mult: 1
    decay_mult: 1
  }
  param {
    lr_mult: 2
    decay_mult: 0
  }
  convolution_param {
    num_output: 32
    pad: 1
    kernel_size: 3
    stride: 1
    weight_filler {
      type: "msra"
    }
    bias_filler {
      type: "constant"
      value: 0
    }
  }
}
layer {
  name: "BatchNorm22"
  type: "BatchNorm"
  bottom: "Convolution22"
  top: "Convolution22"
  param {
    lr_mult: 0
    decay_mult: 0
  }
  param {
    lr_mult: 0
    decay_mult: 0
  }
  param {
    lr_mult: 0
    decay_mult: 0
  }
}
layer {
  name: "Scale22"
  type: "Scale"
  bottom: "Convolution22"
  top: "Convolution22"
  scale_param {
    bias_term: true
  }
}
layer {
  name: "Eltwise10"
  type: "Eltwise"
  bottom: "Eltwise9"
  bottom: "Convolution22"
  top: "Eltwise10"
  eltwise_param {
    operation: SUM
  }
}
layer {
  name: "ReLU21"
  type: "ReLU"
  bottom: "Eltwise10"
  top: "Eltwise10"
}
layer {
  name: "Convolution23"
  type: "Convolution"
  bottom: "Eltwise10"
  top: "Convolution23"
  param {
    lr_mult: 1
    decay_mult: 1
  }
  param {
    lr_mult: 2
    decay_mult: 0
  }
  convolution_param {
    num_output: 64
    pad: 0
    kernel_size: 1
    stride: 2
    weight_filler {
      type: "msra"
    }
    bias_filler {
      type: "constant"
      value: 0
    }
  }
}
layer {
  name: "BatchNorm23"
  type: "BatchNorm"
  bottom: "Convolution23"
  top: "Convolution23"
  param {
    lr_mult: 0
    decay_mult: 0
  }
  param {
    lr_mult: 0
    decay_mult: 0
  }
  param {
    lr_mult: 0
    decay_mult: 0
  }
}
layer {
  name: "Scale23"
  type: "Scale"
  bottom: "Convolution23"
  top: "Convolution23"
  scale_param {
    bias_term: true
  }
}
layer {
  name: "Convolution24"
  type: "Convolution"
  bottom: "Eltwise10"
  top: "Convolution24"
  param {
    lr_mult: 1
    decay_mult: 1
  }
  param {
    lr_mult: 2
    decay_mult: 0
  }
  convolution_param {
    num_output: 64
    pad: 1
    kernel_size: 3
    stride: 2
    weight_filler {
      type: "msra"
    }
    bias_filler {
      type: "constant"
      value: 0
    }
  }
}
layer {
  name: "BatchNorm24"
  type: "BatchNorm"
  bottom: "Convolution24"
  top: "Convolution24"
  param {
    lr_mult: 0
    decay_mult: 0
  }
  param {
    lr_mult: 0
    decay_mult: 0
  }
  param {
    lr_mult: 0
    decay_mult: 0
  }
}
layer {
  name: "Scale24"
  type: "Scale"
  bottom: "Convolution24"
  top: "Convolution24"
  scale_param {
    bias_term: true
  }
}
layer {
  name: "ReLU22"
  type: "ReLU"
  bottom: "Convolution24"
  top: "Convolution24"
}
layer {
  name: "Convolution25"
  type: "Convolution"
  bottom: "Convolution24"
  top: "Convolution25"
  param {
    lr_mult: 1
    decay_mult: 1
  }
  param {
    lr_mult: 2
    decay_mult: 0
  }
  convolution_param {
    num_output: 64
    pad: 1
    kernel_size: 3
    stride: 1
    weight_filler {
      type: "msra"
    }
    bias_filler {
      type: "constant"
      value: 0
    }
  }
}
layer {
  name: "BatchNorm25"
  type: "BatchNorm"
  bottom: "Convolution25"
  top: "Convolution25"
  param {
    lr_mult: 0
    decay_mult: 0
  }
  param {
    lr_mult: 0
    decay_mult: 0
  }
  param {
    lr_mult: 0
    decay_mult: 0
  }
}
layer {
  name: "Scale25"
  type: "Scale"
  bottom: "Convolution25"
  top: "Convolution25"
  scale_param {
    bias_term: true
  }
}
layer {
  name: "Eltwise11"
  type: "Eltwise"
  bottom: "Convolution23"
  bottom: "Convolution25"
  top: "Eltwise11"
  eltwise_param {
    operation: SUM
  }
}
layer {
  name: "ReLU23"
  type: "ReLU"
  bottom: "Eltwise11"
  top: "Eltwise11"
}
layer {
  name: "Convolution26"
  type: "Convolution"
  bottom: "Eltwise11"
  top: "Convolution26"
  param {
    lr_mult: 1
    decay_mult: 1
  }
  param {
    lr_mult: 2
    decay_mult: 0
  }
  convolution_param {
    num_output: 64
    pad: 1
    kernel_size: 3
    stride: 1
    weight_filler {
      type: "msra"
    }
    bias_filler {
      type: "constant"
      value: 0
    }
  }
}
layer {
  name: "BatchNorm26"
  type: "BatchNorm"
  bottom: "Convolution26"
  top: "Convolution26"
  param {
    lr_mult: 0
    decay_mult: 0
  }
  param {
    lr_mult: 0
    decay_mult: 0
  }
  param {
    lr_mult: 0
    decay_mult: 0
  }
}
layer {
  name: "Scale26"
  type: "Scale"
  bottom: "Convolution26"
  top: "Convolution26"
  scale_param {
    bias_term: true
  }
}
layer {
  name: "ReLU24"
  type: "ReLU"
  bottom: "Convolution26"
  top: "Convolution26"
}
layer {
  name: "Convolution27"
  type: "Convolution"
  bottom: "Convolution26"
  top: "Convolution27"
  param {
    lr_mult: 1
    decay_mult: 1
  }
  param {
    lr_mult: 2
    decay_mult: 0
  }
  convolution_param {
    num_output: 64
    pad: 1
    kernel_size: 3
    stride: 1
    weight_filler {
      type: "msra"
    }
    bias_filler {
      type: "constant"
      value: 0
    }
  }
}
layer {
  name: "BatchNorm27"
  type: "BatchNorm"
  bottom: "Convolution27"
  top: "Convolution27"
  param {
    lr_mult: 0
    decay_mult: 0
  }
  param {
    lr_mult: 0
    decay_mult: 0
  }
  param {
    lr_mult: 0
    decay_mult: 0
  }
}
layer {
  name: "Scale27"
  type: "Scale"
  bottom: "Convolution27"
  top: "Convolution27"
  scale_param {
    bias_term: true
  }
}
layer {
  name: "Eltwise12"
  type: "Eltwise"
  bottom: "Eltwise11"
  bottom: "Convolution27"
  top: "Eltwise12"
  eltwise_param {
    operation: SUM
  }
}
layer {
  name: "ReLU25"
  type: "ReLU"
  bottom: "Eltwise12"
  top: "Eltwise12"
}
layer {
  name: "Convolution28"
  type: "Convolution"
  bottom: "Eltwise12"
  top: "Convolution28"
  param {
    lr_mult: 1
    decay_mult: 1
  }
  param {
    lr_mult: 2
    decay_mult: 0
  }
  convolution_param {
    num_output: 64
    pad: 1
    kernel_size: 3
    stride: 1
    weight_filler {
      type: "msra"
    }
    bias_filler {
      type: "constant"
      value: 0
    }
  }
}
layer {
  name: "BatchNorm28"
  type: "BatchNorm"
  bottom: "Convolution28"
  top: "Convolution28"
  param {
    lr_mult: 0
    decay_mult: 0
  }
  param {
    lr_mult: 0
    decay_mult: 0
  }
  param {
    lr_mult: 0
    decay_mult: 0
  }
}
layer {
  name: "Scale28"
  type: "Scale"
  bottom: "Convolution28"
  top: "Convolution28"
  scale_param {
    bias_term: true
  }
}
layer {
  name: "ReLU26"
  type: "ReLU"
  bottom: "Convolution28"
  top: "Convolution28"
}
layer {
  name: "Convolution29"
  type: "Convolution"
  bottom: "Convolution28"
  top: "Convolution29"
  param {
    lr_mult: 1
    decay_mult: 1
  }
  param {
    lr_mult: 2
    decay_mult: 0
  }
  convolution_param {
    num_output: 64
    pad: 1
    kernel_size: 3
    stride: 1
    weight_filler {
      type: "msra"
    }
    bias_filler {
      type: "constant"
      value: 0
    }
  }
}
layer {
  name: "BatchNorm29"
  type: "BatchNorm"
  bottom: "Convolution29"
  top: "Convolution29"
  param {
    lr_mult: 0
    decay_mult: 0
  }
  param {
    lr_mult: 0
    decay_mult: 0
  }
  param {
    lr_mult: 0
    decay_mult: 0
  }
}
layer {
  name: "Scale29"
  type: "Scale"
  bottom: "Convolution29"
  top: "Convolution29"
  scale_param {
    bias_term: true
  }
}
layer {
  name: "Eltwise13"
  type: "Eltwise"
  bottom: "Eltwise12"
  bottom: "Convolution29"
  top: "Eltwise13"
  eltwise_param {
    operation: SUM
  }
}
layer {
  name: "ReLU27"
  type: "ReLU"
  bottom: "Eltwise13"
  top: "Eltwise13"
}
layer {
  name: "Convolution30"
  type: "Convolution"
  bottom: "Eltwise13"
  top: "Convolution30"
  param {
    lr_mult: 1
    decay_mult: 1
  }
  param {
    lr_mult: 2
    decay_mult: 0
  }
  convolution_param {
    num_output: 64
    pad: 1
    kernel_size: 3
    stride: 1
    weight_filler {
      type: "msra"
    }
    bias_filler {
      type: "constant"
      value: 0
    }
  }
}
layer {
  name: "BatchNorm30"
  type: "BatchNorm"
  bottom: "Convolution30"
  top: "Convolution30"
  param {
    lr_mult: 0
    decay_mult: 0
  }
  param {
    lr_mult: 0
    decay_mult: 0
  }
  param {
    lr_mult: 0
    decay_mult: 0
  }
}
layer {
  name: "Scale30"
  type: "Scale"
  bottom: "Convolution30"
  top: "Convolution30"
  scale_param {
    bias_term: true
  }
}
layer {
  name: "ReLU28"
  type: "ReLU"
  bottom: "Convolution30"
  top: "Convolution30"
}
layer {
  name: "Convolution31"
  type: "Convolution"
  bottom: "Convolution30"
  top: "Convolution31"
  param {
    lr_mult: 1
    decay_mult: 1
  }
  param {
    lr_mult: 2
    decay_mult: 0
  }
  convolution_param {
    num_output: 64
    pad: 1
    kernel_size: 3
    stride: 1
    weight_filler {
      type: "msra"
    }
    bias_filler {
      type: "constant"
      value: 0
    }
  }
}
layer {
  name: "BatchNorm31"
  type: "BatchNorm"
  bottom: "Convolution31"
  top: "Convolution31"
  param {
    lr_mult: 0
    decay_mult: 0
  }
  param {
    lr_mult: 0
    decay_mult: 0
  }
  param {
    lr_mult: 0
    decay_mult: 0
  }
}
layer {
  name: "Scale31"
  type: "Scale"
  bottom: "Convolution31"
  top: "Convolution31"
  scale_param {
    bias_term: true
  }
}
layer {
  name: "Eltwise14"
  type: "Eltwise"
  bottom: "Eltwise13"
  bottom: "Convolution31"
  top: "Eltwise14"
  eltwise_param {
    operation: SUM
  }
}
layer {
  name: "ReLU29"
  type: "ReLU"
  bottom: "Eltwise14"
  top: "Eltwise14"
}
layer {
  name: "Convolution32"
  type: "Convolution"
  bottom: "Eltwise14"
  top: "Convolution32"
  param {
    lr_mult: 1
    decay_mult: 1
  }
  param {
    lr_mult: 2
    decay_mult: 0
  }
  convolution_param {
    num_output: 64
    pad: 1
    kernel_size: 3
    stride: 1
    weight_filler {
      type: "msra"
    }
    bias_filler {
      type: "constant"
      value: 0
    }
  }
}
layer {
  name: "BatchNorm32"
  type: "BatchNorm"
  bottom: "Convolution32"
  top: "Convolution32"
  param {
    lr_mult: 0
    decay_mult: 0
  }
  param {
    lr_mult: 0
    decay_mult: 0
  }
  param {
    lr_mult: 0
    decay_mult: 0
  }
}
layer {
  name: "Scale32"
  type: "Scale"
  bottom: "Convolution32"
  top: "Convolution32"
  scale_param {
    bias_term: true
  }
}
layer {
  name: "ReLU30"
  type: "ReLU"
  bottom: "Convolution32"
  top: "Convolution32"
}
layer {
  name: "Convolution33"
  type: "Convolution"
  bottom: "Convolution32"
  top: "Convolution33"
  param {
    lr_mult: 1
    decay_mult: 1
  }
  param {
    lr_mult: 2
    decay_mult: 0
  }
  convolution_param {
    num_output: 64
    pad: 1
    kernel_size: 3
    stride: 1
    weight_filler {
      type: "msr
I0825 11:10:30.473148  1691 layer_factory.hpp:77] Creating layer Data1
I0825 11:10:30.473228  1691 db_lmdb.cpp:35] Opened lmdb /home/lijianfei/datasets/cifar10_40/test_lmdb
I0825 11:10:30.473258  1691 net.cpp:128] Creating Layer Data1
I0825 11:10:30.473264  1691 net.cpp:522] Data1 -> Data1
I0825 11:10:30.473275  1691 net.cpp:522] Data1 -> Data2
I0825 11:10:30.473431  1691 data_layer.cpp:45] output data size: 10,3,32,32
I0825 11:10:30.482631  1691 net.cpp:172] Setting up Data1
I0825 11:10:30.482651  1691 net.cpp:186] Top shape: 10 3 32 32 (30720)
I0825 11:10:30.482657  1691 net.cpp:186] Top shape: 10 (10)
I0825 11:10:30.482661  1691 net.cpp:194] Memory required for data: 122920
I0825 11:10:30.482666  1691 layer_factory.hpp:77] Creating layer Data2_Data1_1_split
I0825 11:10:30.482676  1691 net.cpp:128] Creating Layer Data2_Data1_1_split
I0825 11:10:30.482681  1691 net.cpp:558] Data2_Data1_1_split <- Data2
I0825 11:10:30.482692  1691 net.cpp:522] Data2_Data1_1_split -> Data2_Data1_1_split_0
I0825 11:10:30.482702  1691 net.cpp:522] Data2_Data1_1_split -> Data2_Data1_1_split_1
I0825 11:10:30.482758  1691 net.cpp:172] Setting up Data2_Data1_1_split
I0825 11:10:30.482764  1691 net.cpp:186] Top shape: 10 (10)
I0825 11:10:30.482769  1691 net.cpp:186] Top shape: 10 (10)
I0825 11:10:30.482774  1691 net.cpp:194] Memory required for data: 123000
…
I0825 11:10:30.599645  1691 layer_factory.hpp:77] Creating layer ReLU14
I0825 11:10:30.599651  1691 net.cpp:128] Creating Layer ReLU14
I0825 11:10:30.599655  1691 net.cpp:558] ReLU14 <- Convolution15
I0825 11:10:30.599664  1691 net.cpp:509] ReLU14 -> Convolution15 (in-place)
I0825 11:10:30.600834  1691 net.cpp:172] Setting up ReLU14
I0825 11:10:30.600852  1691 net.cpp:186] Top shape: 10 32 16 16 (81920)
I0825 11:10:30.600857  1691 net.cpp:194] Memory required for data: 45998200
I0825 11:10:30.600862  1691 layer_factory.hpp:77] Creating layer Convolution16
I0825 11:10:30.600895  1691 net.cpp:128] Creating Layer Convolution16
I0825 11:10:30.600903  1691 net.cpp:558] Convolution16 <- Convolution15
I0825 11:10:30.600910  1691 net.cpp:522] Convolution16 -> Convolution16
I0825 11:10:30.607581  1691 net.cpp:172] Setting up Convolution16
I0825 11:10:30.607607  1691 net.cpp:186] Top shape: 10 32 16 16 (81920)
I0825 11:10:30.607612  1691 net.cpp:194] Memory required for data: 46325880
I0825 11:10:30.607622  1691 layer_factory.hpp:77] Creating layer BatchNorm16
I0825 11:10:30.607633  1691 net.cpp:128] Creating Layer BatchNorm16
I0825 11:10:30.607640  1691 net.cpp:558] BatchNorm16 <- Convolution16
I0825 11:10:30.607645  1691 net.cpp:509] BatchNorm16 -> Convolution16 (in-place)
I0825 11:10:30.607942  1691 net.cpp:172] Setting up BatchNorm16
I0825 11:10:30.607954  1691 net.cpp:186] Top shape: 10 32 16 16 (81920)
I0825 11:10:30.607959  1691 net.cpp:194] Memory required for data: 46653560
I0825 11:10:30.607969  1691 layer_factory.hpp:77] Creating layer Scale16
I0825 11:10:30.607975  1691 net.cpp:128] Creating Layer Scale16
I0825 11:10:30.607980  1691 net.cpp:558] Scale16 <- Convolution16
I0825 11:10:30.607990  1691 net.cpp:509] Scale16 -> Convolution16 (in-place)
I0825 11:10:30.608042  1691 layer_factory.hpp:77] Creating layer Scale16
I0825 11:10:30.608204  1691 net.cpp:172] Setting up Scale16
I0825 11:10:30.608212  1691 net.cpp:186] Top shape: 10 32 16 16 (81920)
I0825 11:10:30.608217  1691 net.cpp:194] Memory required for data: 46981240
I0825 11:10:30.608224  1691 layer_factory.hpp:77] Creating layer Eltwise7
I0825 11:10:30.608232  1691 net.cpp:128] Creating Layer Eltwise7
I0825 11:10:30.608237  1691 net.cpp:558] Eltwise7 <- Eltwise6_ReLU13_0_split_1
I0825 11:10:30.608242  1691 net.cpp:558] Eltwise7 <- Convolution16
I0825 11:10:30.608249  1691 net.cpp:522] Eltwise7 -> Eltwise7
I0825 11:10:30.608273  1691 net.cpp:172] Setting up Eltwise7
I0825 11:10:30.608280  1691 net.cpp:186] Top shape: 10 32 16 16 (81920)
I0825 11:10:30.608284  1691 net.cpp:194] Memory required for data: 47308920
I0825 11:10:30.608289  1691 layer_factory.hpp:77] Creating layer ReLU15
I0825 11:10:30.608296  1691 net.cpp:128] Creating Layer ReLU15
I0825 11:10:30.608301  1691 net.cpp:558] ReLU15 <- Eltwise7
I0825 11:10:30.608306  1691 net.cpp:509] ReLU15 -> Eltwise7 (in-place)
I0825 11:10:30.609609  1691 net.cpp:172] Setting up ReLU15
I0825 11:10:30.609625  1691 net.cpp:186] Top shape: 10 32 16 16 (81920)
I0825 11:10:30.609629  1691 net.cpp:194] Memory required for data: 47636600
I0825 11:10:30.609634  1691 layer_factory.hpp:77] Creating layer Eltwise7_ReLU15_0_split
I0825 11:10:30.609647  1691 net.cpp:128] Creating Layer Eltwise7_ReLU15_0_split
I0825 11:10:30.609652  1691 net.cpp:558] Eltwise7_ReLU15_0_split <- Eltwise7
I0825 11:10:30.609658  1691 net.cpp:522] Eltwise7_ReLU15_0_split -> Eltwise7_ReLU15_0_split_0
I0825 11:10:30.609666  1691 net.cpp:522] Eltwise7_ReLU15_0_split -> Eltwise7_ReLU15_0_split_1
I0825 11:10:30.609726  1691 net.cpp:172] Setting up Eltwise7_ReLU15_0_split
I0825 11:10:30.609733  1691 net.cpp:186] Top shape: 10 32 16 16 (81920)
I0825 11:10:30.609740  1691 net.cpp:186] Top shape: 10 32 16 16 (81920)
I0825 11:10:30.609743  1691 net.cpp:194] Memory required for data: 48291960
I0825 11:10:30.609747  1691 layer_factory.hpp:77] Creating layer Convolution17
I0825 11:10:30.609760  1691 net.cpp:128] Creating Layer Convolution17
I0825 11:10:30.609766  1691 net.cpp:558] Convolution17 <- Eltwise7_ReLU15_0_split_0
I0825 11:10:30.609774  1691 net.cpp:522] Convolution17 -> Convolution17
I0825 11:10:30.616354  1691 net.cpp:172] Setting up Convolution17
I0825 11:10:30.616380  1691 net.cpp:186] Top shape: 10 32 16 16 (81920)
I0825 11:10:30.616385  1691 net.cpp:194] Memory required for data: 48619640
I0825 11:10:30.616395  1691 layer_factory.hpp:77] Creating layer BatchNorm17
I0825 11:10:30.616408  1691 net.cpp:128] Creating Layer BatchNorm17
I0825 11:10:30.616413  1691 net.cpp:558] BatchNorm17 <- Convolution17
I0825 11:10:30.616422  1691 net.cpp:509] BatchNorm17 -> Convolution17 (in-place)
I0825 11:10:30.616731  1691 net.cpp:172] Setting up BatchNorm17
I0825 11:10:30.616744  1691 net.cpp:186] Top shape: 10 32 16 16 (81920)
I0825 11:10:30.616750  1691 net.cpp:194] Memory required for data: 48947320
I0825 11:10:30.616760  1691 layer_factory.hpp:77] Creating layer Scale17
I0825 11:10:30.616766  1691 net.cpp:128] Creating Layer Scale17
I0825 11:10:30.616770  1691 net.cpp:558] Scale17 <- Convolution17
I0825 11:10:30.616780  1691 net.cpp:509] Scale17 -> Convolution17 (in-place)
I0825 11:10:30.616830  1691 layer_factory.hpp:77] Creating layer Scale17
I0825 11:10:30.616997  1691 net.cpp:172] Setting up Scale17
I0825 11:10:30.617008  1691 net.cpp:186] Top shape: 10 32 16 16 (81920)
I0825 11:10:30.617012  1691 net.cpp:194] Memory required for data: 49275000
I0825 11:10:30.617020  1691 layer_factory.hpp:77] Creating layer ReLU16
I0825 11:10:30.617027  1691 net.cpp:128] Creating Layer ReLU16
I0825 11:10:30.617031  1691 net.cpp:558] ReLU16 <- Convolution17
I0825 11:10:30.617039  1691 net.cpp:509] ReLU16 -> Convolution17 (in-place)
I0825 11:10:30.618398  1691 net.cpp:172] Setting up ReLU16
I0825 11:10:30.618415  1691 net.cpp:186] Top shape: 10 32 16 16 (81920)
I0825 11:10:30.618420  1691 net.cpp:194] Memory required for data: 49602680
I0825 11:10:30.618424  1691 layer_factory.hpp:77] Creating layer Convolution18
I0825 11:10:30.618440  1691 net.cpp:128] Creating Layer Convolution18
I0825 11:10:30.618446  1691 net.cpp:558] Convolution18 <- Convolution17
I0825 11:10:30.618455  1691 net.cpp:522] Convolution18 -> Convolution18
I0825 11:10:30.625149  1691 net.cpp:172] Setting up Convolution18
I0825 11:10:30.625175  1691 net.cpp:186] Top shape: 10 32 16 16 (81920)
I0825 11:10:30.625180  1691 net.cpp:194] Memory required for data: 49930360
I0825 11:10:30.625190  1691 layer_factory.hpp:77] Creating layer BatchNorm18
I0825 11:10:30.625200  1691 net.cpp:128] Creating Layer BatchNorm18
I0825 11:10:30.625205  1691 net.cpp:558] BatchNorm18 <- Convolution18
I0825 11:10:30.625213  1691 net.cpp:509] BatchNorm18 -> Convolution18 (in-place)
I0825 11:10:30.625510  1691 net.cpp:172] Setting up BatchNorm18
I0825 11:10:30.625524  1691 net.cpp:186] Top shape: 10 32 16 16 (81920)
I0825 11:10:30.625527  1691 net.cpp:194] Memory required for data: 50258040
I0825 11:10:30.625537  1691 layer_factory.hpp:77] Creating layer Scale18
I0825 11:10:30.625545  1691 net.cpp:128] Creating Layer Scale18
I0825 11:10:30.625550  1691 net.cpp:558] Scale18 <- Convolution18
I0825 11:10:30.625556  1691 net.cpp:509] Scale18 -> Convolution18 (in-place)
I0825 11:10:30.625610  1691 layer_factory.hpp:77] Creating layer Scale18
I0825 11:10:30.625772  1691 net.cpp:172] Setting up Scale18
I0825 11:10:30.625785  1691 net.cpp:186] Top shape: 10 32 16 16 (81920)
I0825 11:10:30.625790  1691 net.cpp:194] Memory required for data: 50585720
I0825 11:10:30.625798  1691 layer_factory.hpp:77] Creating layer Eltwise8
I0825 11:10:30.625805  1691 net.cpp:128] Creating Layer Eltwise8
I0825 11:10:30.625810  1691 net.cpp:558] Eltwise8 <- Eltwise7_ReLU15_0_split_1
I0825 11:10:30.625815  1691 net.cpp:558] Eltwise8 <- Convolution18
I0825 11:10:30.625823  1691 net.cpp:522] Eltwise8 -> Eltwise8
I0825 11:10:30.625849  1691 net.cpp:172] Setting up Eltwise8
I0825 11:10:30.625856  1691 net.cpp:186] Top shape: 10 32 16 16 (81920)
I0825 11:10:30.625860  1691 net.cpp:194] Memory required for data: 50913400
I0825 11:10:30.625864  1691 layer_factory.hpp:77] Creating layer ReLU17
I0825 11:10:30.625870  1691 net.cpp:128] Creating Layer ReLU17
I0825 11:10:30.625875  1691 net.cpp:558] ReLU17 <- Eltwise8
I0825 11:10:30.625883  1691 net.cpp:509] ReLU17 -> Eltwise8 (in-place)
I0825 11:10:30.627197  1691 net.cpp:172] Setting up ReLU17
I0825 11:10:30.627220  1691 net.cpp:186] Top shape: 10 32 16 16 (81920)
I0825 11:10:30.627225  1691 net.cpp:194] Memory required for data: 51241080
I0825 11:10:30.627229  1691 layer_factory.hpp:77] Creating layer Eltwise8_ReLU17_0_split
I0825 11:10:30.627238  1691 net.cpp:128] Creating Layer Eltwise8_ReLU17_0_split
I0825 11:10:30.627243  1691 net.cpp:558] Eltwise8_ReLU17_0_split <- Eltwise8
I0825 11:10:30.627267  1691 net.cpp:522] Eltwise8_ReLU17_0_split -> Eltwise8_ReLU17_0_split_0
I0825 11:10:30.627276  1691 net.cpp:522] Eltwise8_ReLU17_0_split -> Eltwise8_ReLU17_0_split_1
I0825 11:10:30.627343  1691 net.cpp:172] Setting up Eltwise8_ReLU17_0_split
I0825 11:10:30.627351  1691 net.cpp:186] Top shape: 10 32 16 16 (81920)
I0825 11:10:30.627357  1691 net.cpp:186] Top shape: 10 32 16 16 (81920)
I0825 11:10:30.627360  1691 net.cpp:194] Memory required for data: 51896440
I0825 11:10:30.627365  1691 layer_factory.hpp:77] Creating layer Convolution19
I0825 11:10:30.627377  1691 net.cpp:128] Creating Layer Convolution19
I0825 11:10:30.627382  1691 net.cpp:558] Convolution19 <- Eltwise8_ReLU17_0_split_0
I0825 11:10:30.627393  1691 net.cpp:522] Convolution19 -> Convolution19
I0825 11:10:30.633947  1691 net.cpp:172] Setting up Convolution19
I0825 11:10:30.633975  1691 net.cpp:186] Top shape: 10 32 16 16 (81920)
I0825 11:10:30.633978  1691 net.cpp:194] Memory required for data: 52224120
I0825 11:10:30.633988  1691 layer_factory.hpp:77] Creating layer BatchNorm19
I0825 11:10:30.633999  1691 net.cpp:128] Creating Layer BatchNorm19
I0825 11:10:30.634004  1691 net.cpp:558] BatchNorm19 <- Convolution19
I0825 11:10:30.634011  1691 net.cpp:509] BatchNorm19 -> Convolution19 (in-place)
I0825 11:10:30.634307  1691 net.cpp:172] Setting up BatchNorm19
I0825 11:10:30.634320  1691 net.cpp:186] Top shape: 10 32 16 16 (81920)
I0825 11:10:30.634323  1691 net.cpp:194] Memory required for data: 52551800
I0825 11:10:30.634363  1691 layer_factory.hpp:77] Creating layer Scale19
I0825 11:10:30.634371  1691 net.cpp:128] Creating Layer Scale19
I0825 11:10:30.634377  1691 net.cpp:558] Scale19 <- Convolution19
I0825 11:10:30.634384  1691 net.cpp:509] Scale19 -> Convolution19 (in-place)
I0825 11:10:30.634441  1691 layer_factory.hpp:77] Creating layer Scale19
I0825 11:10:30.634608  1691 net.cpp:172] Setting up Scale19
I0825 11:10:30.634619  1691 net.cpp:186] Top shape: 10 32 16 16 (81920)
I0825 11:10:30.634624  1691 net.cpp:194] Memory required for data: 52879480
I0825 11:10:30.634632  1691 layer_factory.hpp:77] Creating layer ReLU18
I0825 11:10:30.634639  1691 net.cpp:128] Creating Layer ReLU18
I0825 11:10:30.634644  1691 net.cpp:558] ReLU18 <- Convolution19
I0825 11:10:30.634652  1691 net.cpp:509] ReLU18 -> Convolution19 (in-place)
I0825 11:10:30.635957  1691 net.cpp:172] Setting up ReLU18
I0825 11:10:30.635973  1691 net.cpp:186] Top shape: 10 32 16 16 (81920)
I0825 11:10:30.635979  1691 net.cpp:194] Memory required for data: 53207160
I0825 11:10:30.635984  1691 layer_factory.hpp:77] Creating layer Convolution20
I0825 11:10:30.636008  1691 net.cpp:128] Creating Layer Convolution20
I0825 11:10:30.636013  1691 net.cpp:558] Convolution20 <- Convolution19
I0825 11:10:30.636023  1691 net.cpp:522] Convolution20 -> Convolution20
I0825 11:10:30.642709  1691 net.cpp:172] Setting up Convolution20
I0825 11:10:30.642735  1691 net.cpp:186] Top shape: 10 32 16 16 (81920)
I0825 11:10:30.642740  1691 net.cpp:194] Memory required for data: 53534840
I0825 11:10:30.642750  1691 layer_factory.hpp:77] Creating layer BatchNorm20
I0825 11:10:30.642758  1691 net.cpp:128] Creating Layer BatchNorm20
I0825 11:10:30.642763  1691 net.cpp:558] BatchNorm20 <- Convolution20
I0825 11:10:30.642771  1691 net.cpp:509] BatchNorm20 -> Convolution20 (in-place)
I0825 11:10:30.643060  1691 net.cpp:172] Setting up BatchNorm20
I0825 11:10:30.643072  1691 net.cpp:186] Top shape: 10 32 16 16 (81920)
I0825 11:10:30.643077  1691 net.cpp:194] Memory required for data: 53862520
I0825 11:10:30.643087  1691 layer_factory.hpp:77] Creating layer Scale20
I0825 11:10:30.643095  1691 net.cpp:128] Creating Layer Scale20
I0825 11:10:30.643100  1691 net.cpp:558] Scale20 <- Convolution20
I0825 11:10:30.643106  1691 net.cpp:509] Scale20 -> Convolution20 (in-place)
I0825 11:10:30.643163  1691 layer_factory.hpp:77] Creating layer Scale20
I0825 11:10:30.643328  1691 net.cpp:172] Setting up Scale20
I0825 11:10:30.643338  1691 net.cpp:186] Top shape: 10 32 16 16 (81920)
I0825 11:10:30.643357  1691 net.cpp:194] Memory required for data: 54190200
I0825 11:10:30.643366  1691 layer_factory.hpp:77] Creating layer Eltwise9
I0825 11:10:30.643375  1691 net.cpp:128] Creating Layer Eltwise9
I0825 11:10:30.643381  1691 net.cpp:558] Eltwise9 <- Eltwise8_ReLU17_0_split_1
I0825 11:10:30.643386  1691 net.cpp:558] Eltwise9 <- Convolution20
I0825 11:10:30.643393  1691 net.cpp:522] Eltwise9 -> Eltwise9
I0825 11:10:30.643421  1691 net.cpp:172] Setting up Eltwise9
I0825 11:10:30.643429  1691 net.cpp:186] Top shape: 10 32 16 16 (81920)
I0825 11:10:30.643434  1691 net.cpp:194] Memory required for data: 54517880
I0825 11:10:30.643437  1691 layer_factory.hpp:77] Creating layer ReLU19
I0825 11:10:30.643445  1691 net.cpp:128] Creating Layer ReLU19
I0825 11:10:30.643448  1691 net.cpp:558] ReLU19 <- Eltwise9
I0825 11:10:30.643456  1691 net.cpp:509] ReLU19 -> Eltwise9 (in-place)
I0825 11:10:30.644770  1691 net.cpp:172] Setting up ReLU19
I0825 11:10:30.644785  1691 net.cpp:186] Top shape: 10 32 16 16 (81920)
I0825 11:10:30.644790  1691 net.cpp:194] Memory required for data: 54845560
I0825 11:10:30.644795  1691 layer_factory.hpp:77] Creating layer Eltwise9_ReLU19_0_split
I0825 11:10:30.644803  1691 net.cpp:128] Creating Layer Eltwise9_ReLU19_0_split
I0825 11:10:30.644807  1691 net.cpp:558] Eltwise9_ReLU19_0_split <- Eltwise9
I0825 11:10:30.644819  1691 net.cpp:522] Eltwise9_ReLU19_0_split -> Eltwise9_ReLU19_0_split_0
I0825 11:10:30.644826  1691 net.cpp:522] Eltwise9_ReLU19_0_split -> Eltwise9_ReLU19_0_split_1
I0825 11:10:30.644886  1691 net.cpp:172] Setting up Eltwise9_ReLU19_0_split
I0825 11:10:30.644893  1691 net.cpp:186] Top shape: 10 32 16 16 (81920)
I0825 11:10:30.644898  1691 net.cpp:186] Top shape: 10 32 16 16 (81920)
I0825 11:10:30.644903  1691 net.cpp:194] Memory required for data: 55500920
I0825 11:10:30.644907  1691 layer_factory.hpp:77] Creating layer Convolution21
I0825 11:10:30.644920  1691 net.cpp:128] Creating Layer Convolution21
I0825 11:10:30.644925  1691 net.cpp:558] Convolution21 <- Eltwise9_ReLU19_0_split_0
I0825 11:10:30.644934  1691 net.cpp:522] Convolution21 -> Convolution21
I0825 11:10:30.650153  1691 net.cpp:172] Setting up Convolution21
I0825 11:10:30.650179  1691 net.cpp:186] Top shape: 10 32 16 16 (81920)
I0825 11:10:30.650184  1691 net.cpp:194] Memory required for data: 55828600
I0825 11:10:30.650194  1691 layer_factory.hpp:77] Creating layer BatchNorm21
I0825 11:10:30.650203  1691 net.cpp:128] Creating Layer BatchNorm21
I0825 11:10:30.650208  1691 net.cpp:558] BatchNorm21 <- Convolution21
I0825 11:10:30.650218  1691 net.cpp:509] BatchNorm21 -> Convolution21 (in-place)
I0825 11:10:30.650524  1691 net.cpp:172] Setting up BatchNorm21
I0825 11:10:30.650537  1691 net.cpp:186] Top shape: 10 32 16 16 (81920)
I0825 11:10:30.650540  1691 net.cpp:194] Memory required for data: 56156280
I0825 11:10:30.650550  1691 layer_factory.hpp:77] Creating layer Scale21
I0825 11:10:30.650557  1691 net.cpp:128] Creating Layer Scale21
I0825 11:10:30.650562  1691 net.cpp:558] Scale21 <- Convolution21
I0825 11:10:30.650569  1691 net.cpp:509] Scale21 -> Convolution21 (in-place)
I0825 11:10:30.650622  1691 layer_factory.hpp:77] Creating layer Scale21
I0825 11:10:30.650786  1691 net.cpp:172] Setting up Scale21
I0825 11:10:30.650797  1691 net.cpp:186] Top shape: 10 32 16 16 (81920)
I0825 11:10:30.650801  1691 net.cpp:194] Memory required for data: 56483960
I0825 11:10:30.650810  1691 layer_factory.hpp:77] Creating layer ReLU20
I0825 11:10:30.650815  1691 net.cpp:128] Creating Layer ReLU20
I0825 11:10:30.650820  1691 net.cpp:558] ReLU20 <- Convolution21
I0825 11:10:30.650825  1691 net.cpp:509] ReLU20 -> Convolution21 (in-place)
I0825 11:10:30.651321  1691 net.cpp:172] Setting up ReLU20
I0825 11:10:30.651345  1691 net.cpp:186] Top shape: 10 32 16 16 (81920)
I0825 11:10:30.651350  1691 net.cpp:194] Memory required for data: 56811640
I0825 11:10:30.651355  1691 layer_factory.hpp:77] Creating layer Convolution22
I0825 11:10:30.651371  1691 net.cpp:128] Creating Layer Convolution22
I0825 11:10:30.651376  1691 net.cpp:558] Convolution22 <- Convolution21
I0825 11:10:30.651401  1691 net.cpp:522] Convolution22 -> Convolution22
I0825 11:10:30.653015  1691 net.cpp:172] Setting up Convolution22
I0825 11:10:30.653038  1691 net.cpp:186] Top shape: 10 32 16 16 (81920)
I0825 11:10:30.653046  1691 net.cpp:194] Memory required for data: 57139320
I0825 11:10:30.653056  1691 layer_factory.hpp:77] Creating layer BatchNorm22
I0825 11:10:30.653069  1691 net.cpp:128] Creating Layer BatchNorm22
I0825 11:10:30.653074  1691 net.cpp:558] BatchNorm22 <- Convolution22
I0825 11:10:30.653082  1691 net.cpp:509] BatchNorm22 -> Convolution22 (in-place)
I0825 11:10:30.653384  1691 net.cpp:172] Setting up BatchNorm22
I0825 11:10:30.653394  1691 net.cpp:186] Top shape: 10 32 16 16 (81920)
I0825 11:10:30.653398  1691 net.cpp:194] Memory required for data: 57467000
I0825 11:10:30.653409  1691 layer_factory.hpp:77] Creating layer Scale22
I0825 11:10:30.653419  1691 net.cpp:128] Creating Layer Scale22
I0825 11:10:30.653424  1691 net.cpp:558] Scale22 <- Convolution22
I0825 11:10:30.653429  1691 net.cpp:509] Scale22 -> Convolution22 (in-place)
I0825 11:10:30.653486  1691 layer_factory.hpp:77] Creating layer Scale22
I0825 11:10:30.653656  1691 net.cpp:172] Setting up Scale22
I0825 11:10:30.653666  1691 net.cpp:186] Top shape: 10 32 16 16 (81920)
I0825 11:10:30.653671  1691 net.cpp:194] Memory required for data: 57794680
I0825 11:10:30.653678  1691 layer_factory.hpp:77] Creating layer Eltwise10
I0825 11:10:30.653688  1691 net.cpp:128] Creating Layer Eltwise10
I0825 11:10:30.653693  1691 net.cpp:558] Eltwise10 <- Eltwise9_ReLU19_0_split_1
I0825 11:10:30.653699  1691 net.cpp:558] Eltwise10 <- Convolution22
I0825 11:10:30.653705  1691 net.cpp:522] Eltwise10 -> Eltwise10
I0825 11:10:30.653734  1691 net.cpp:172] Setting up Eltwise10
I0825 11:10:30.653744  1691 net.cpp:186] Top shape: 10 32 16 16 (81920)
I0825 11:10:30.653748  1691 net.cpp:194] Memory required for data: 58122360
I0825 11:10:30.653753  1691 layer_factory.hpp:77] Creating layer ReLU21
I0825 11:10:30.653759  1691 net.cpp:128] Creating Layer ReLU21
I0825 11:10:30.653764  1691 net.cpp:558] ReLU21 <- Eltwise10
I0825 11:10:30.653769  1691 net.cpp:509] ReLU21 -> Eltwise10 (in-place)
I0825 11:10:30.654017  1691 net.cpp:172] Setting up ReLU21
I0825 11:10:30.654032  1691 net.cpp:186] Top shape: 10 32 16 16 (81920)
I0825 11:10:30.654037  1691 net.cpp:194] Memory required for data: 58450040
I0825 11:10:30.654042  1691 layer_factory.hpp:77] Creating layer Eltwise10_ReLU21_0_split
I0825 11:10:30.654049  1691 net.cpp:128] Creating Layer Eltwise10_ReLU21_0_split
I0825 11:10:30.654054  1691 net.cpp:558] Eltwise10_ReLU21_0_split <- Eltwise10
I0825 11:10:30.654063  1691 net.cpp:522] Eltwise10_ReLU21_0_split -> Eltwise10_ReLU21_0_split_0
I0825 11:10:30.654072  1691 net.cpp:522] Eltwise10_ReLU21_0_split -> Eltwise10_ReLU21_0_split_1
I0825 11:10:30.654130  1691 net.cpp:172] Setting up Eltwise10_ReLU21_0_split
I0825 11:10:30.654141  1691 net.cpp:186] Top shape: 10 32 16 16 (81920)
I0825 11:10:30.654147  1691 net.cpp:186] Top shape: 10 32 16 16 (81920)
I0825 11:10:30.654151  1691 net.cpp:194] Memory required for data: 59105400
I0825 11:10:30.654155  1691 layer_factory.hpp:77] Creating layer Convolution23
I0825 11:10:30.654170  1691 net.cpp:128] Creating Layer Convolution23
I0825 11:10:30.654175  1691 net.cpp:558] Convolution23 <- Eltwise10_ReLU21_0_split_0
I0825 11:10:30.654182  1691 net.cpp:522] Convolution23 -> Convolution23
I0825 11:10:30.659914  1691 net.cpp:172] Setting up Convolution23
I0825 11:10:30.659940  1691 net.cpp:186] Top shape: 10 64 8 8 (40960)
I0825 11:10:30.659945  1691 net.cpp:194] Memory required for data: 59269240
I0825 11:10:30.659960  1691 layer_factory.hpp:77] Creating layer BatchNorm23
I0825 11:10:30.659971  1691 net.cpp:128] Creating Layer BatchNorm23
I0825 11:10:30.659976  1691 net.cpp:558] BatchNorm23 <- Convolution23
I0825 11:10:30.659983  1691 net.cpp:509] BatchNorm23 -> Convolution23 (in-place)
I0825 11:10:30.660295  1691 net.cpp:172] Setting up BatchNorm23
I0825 11:10:30.660305  1691 net.cpp:186] Top shape: 10 64 8 8 (40960)
I0825 11:10:30.660332  1691 net.cpp:194] Memory required for data: 59433080
I0825 11:10:30.660346  1691 layer_factory.hpp:77] Creating layer Scale23
I0825 11:10:30.660353  1691 net.cpp:128] Creating Layer Scale23
I0825 11:10:30.660358  1691 net.cpp:558] Scale23 <- Convolution23
I0825 11:10:30.660364  1691 net.cpp:509] Scale23 -> Convolution23 (in-place)
I0825 11:10:30.660426  1691 layer_factory.hpp:77] Creating layer Scale23
I0825 11:10:30.660601  1691 net.cpp:172] Setting up Scale23
I0825 11:10:30.660614  1691 net.cpp:186] Top shape: 10 64 8 8 (40960)
I0825 11:10:30.660619  1691 net.cpp:194] Memory required for data: 59596920
I0825 11:10:30.660627  1691 layer_factory.hpp:77] Creating layer Convolution24
I0825 11:10:30.660643  1691 net.cpp:128] Creating Layer Convolution24
I0825 11:10:30.660651  1691 net.cpp:558] Convolution24 <- Eltwise10_ReLU21_0_split_1
I0825 11:10:30.660661  1691 net.cpp:522] Convolution24 -> Convolution24
I0825 11:10:30.666509  1691 net.cpp:172] Setting up Convolution24
I0825 11:10:30.666535  1691 net.cpp:186] Top shape: 10 64 8 8 (40960)
I0825 11:10:30.666540  1691 net.cpp:194] Memory required for data: 59760760
I0825 11:10:30.666554  1691 layer_factory.hpp:77] Creating layer BatchNorm24
I0825 11:10:30.666563  1691 net.cpp:128] Creating Layer BatchNorm24
I0825 11:10:30.666569  1691 net.cpp:558] BatchNorm24 <- Convolution24
I0825 11:10:30.666579  1691 net.cpp:509] BatchNorm24 -> Convolution24 (in-place)
I0825 11:10:30.666888  1691 net.cpp:172] Setting up BatchNorm24
I0825 11:10:30.666899  1691 net.cpp:186] Top shape: 10 64 8 8 (40960)
I0825 11:10:30.666903  1691 net.cpp:194] Memory required for data: 59924600
I0825 11:10:30.666914  1691 layer_factory.hpp:77] Creating layer Scale24
I0825 11:10:30.666921  1691 net.cpp:128] Creating Layer Scale24
I0825 11:10:30.666925  1691 net.cpp:558] Scale24 <- Convolution24
I0825 11:10:30.666934  1691 net.cpp:509] Scale24 -> Convolution24 (in-place)
I0825 11:10:30.666996  1691 layer_factory.hpp:77] Creating layer Scale24
I0825 11:10:30.667171  1691 net.cpp:172] Setting up Scale24
I0825 11:10:30.667181  1691 net.cpp:186] Top shape: 10 64 8 8 (40960)
I0825 11:10:30.667184  1691 net.cpp:194] Memory required for data: 60088440
I0825 11:10:30.667192  1691 layer_factory.hpp:77] Creating layer ReLU22
I0825 11:10:30.667207  1691 net.cpp:128] Creating Layer ReLU22
I0825 11:10:30.667212  1691 net.cpp:558] ReLU22 <- Convolution24
I0825 11:10:30.667217  1691 net.cpp:509] ReLU22 -> Convolution24 (in-place)
I0825 11:10:30.668521  1691 net.cpp:172] Setting up ReLU22
I0825 11:10:30.668540  1691 net.cpp:186] Top shape: 10 64 8 8 (40960)
I0825 11:10:30.668545  1691 net.cpp:194] Memory required for data: 60252280
I0825 11:10:30.668548  1691 layer_factory.hpp:77] Creating layer Convolution25
I0825 11:10:30.668566  1691 net.cpp:128] Creating Layer Convolution25
I0825 11:10:30.668571  1691 net.cpp:558] Convolution25 <- Convolution24
I0825 11:10:30.668579  1691 net.cpp:522] Convolution25 -> Convolution25
I0825 11:10:30.675330  1691 net.cpp:172] Setting up Convolution25
I0825 11:10:30.675361  1691 net.cpp:186] Top shape: 10 64 8 8 (40960)
I0825 11:10:30.675366  1691 net.cpp:194] Memory required for data: 60416120
I0825 11:10:30.675377  1691 layer_factory.hpp:77] Creating layer BatchNorm25
I0825 11:10:30.675386  1691 net.cpp:128] Creating Layer BatchNorm25
I0825 11:10:30.675392  1691 net.cpp:558] BatchNorm25 <- Convolution25
I0825 11:10:30.675406  1691 net.cpp:509] BatchNorm25 -> Convolution25 (in-place)
I0825 11:10:30.675717  1691 net.cpp:172] Setting up BatchNorm25
I0825 11:10:30.675729  1691 net.cpp:186] Top shape: 10 64 8 8 (40960)
I0825 11:10:30.675734  1691 net.cpp:194] Memory required for data: 60579960
I0825 11:10:30.675743  1691 layer_factory.hpp:77] Creating layer Scale25
I0825 11:10:30.675750  1691 net.cpp:128] Creating Layer Scale25
I0825 11:10:30.675755  1691 net.cpp:558] Scale25 <- Convolution25
I0825 11:10:30.675762  1691 net.cpp:509] Scale25 -> Convolution25 (in-place)
I0825 11:10:30.675822  1691 layer_factory.hpp:77] Creating layer Scale25
I0825 11:10:30.675994  1691 net.cpp:172] Setting up Scale25
I0825 11:10:30.676023  1691 net.cpp:186] Top shape: 10 64 8 8 (40960)
I0825 11:10:30.676028  1691 net.cpp:194] Memory required for data: 60743800
I0825 11:10:30.676038  1691 layer_factory.hpp:77] Creating layer Eltwise11
I0825 11:10:30.676048  1691 net.cpp:128] Creating Layer Eltwise11
I0825 11:10:30.676054  1691 net.cpp:558] Eltwise11 <- Convolution23
I0825 11:10:30.676059  1691 net.cpp:558] Eltwise11 <- Convolution25
I0825 11:10:30.676064  1691 net.cpp:522] Eltwise11 -> Eltwise11
I0825 11:10:30.676100  1691 net.cpp:172] Setting up Eltwise11
I0825 11:10:30.676107  1691 net.cpp:186] Top shape: 10 64 8 8 (40960)
I0825 11:10:30.676111  1691 net.cpp:194] Memory required for data: 60907640
I0825 11:10:30.676116  1691 layer_factory.hpp:77] Creating layer ReLU23
I0825 11:10:30.676122  1691 net.cpp:128] Creating Layer ReLU23
I0825 11:10:30.676126  1691 net.cpp:558] ReLU23 <- Eltwise11
I0825 11:10:30.676134  1691 net.cpp:509] ReLU23 -> Eltwise11 (in-place)
I0825 11:10:30.677388  1691 net.cpp:172] Setting up ReLU23
I0825 11:10:30.677412  1691 net.cpp:186] Top shape: 10 64 8 8 (40960)
I0825 11:10:30.677415  1691 net.cpp:194] Memory required for data: 61071480
I0825 11:10:30.677420  1691 layer_factory.hpp:77] Creating layer Eltwise11_ReLU23_0_split
I0825 11:10:30.677433  1691 net.cpp:128] Creating Layer Eltwise11_ReLU23_0_split
I0825 11:10:30.677438  1691 net.cpp:558] Eltwise11_ReLU23_0_split <- Eltwise11
I0825 11:10:30.677446  1691 net.cpp:522] Eltwise11_ReLU23_0_split -> Eltwise11_ReLU23_0_split_0
I0825 11:10:30.677455  1691 net.cpp:522] Eltwise11_ReLU23_0_split -> Eltwise11_ReLU23_0_split_1
I0825 11:10:30.677520  1691 net.cpp:172] Setting up Eltwise11_ReLU23_0_split
I0825 11:10:30.677527  1691 net.cpp:186] Top shape: 10 64 8 8 (40960)
I0825 11:10:30.677533  1691 net.cpp:186] Top shape: 10 64 8 8 (40960)
I0825 11:10:30.677537  1691 net.cpp:194] Memory required for data: 61399160
I0825 11:10:30.677541  1691 layer_factory.hpp:77] Creating layer Convolution26
I0825 11:10:30.677554  1691 net.cpp:128] Creating Layer Convolution26
I0825 11:10:30.677559  1691 net.cpp:558] Convolution26 <- Eltwise11_ReLU23_0_split_0
I0825 11:10:30.677569  1691 net.cpp:522] Convolution26 -> Convolution26
I0825 11:10:30.680320  1691 net.cpp:172] Setting up Convolution26
I0825 11:10:30.680349  1691 net.cpp:186] Top shape: 10 64 8 8 (40960)
I0825 11:10:30.680354  1691 net.cpp:194] Memory required for data: 61563000
I0825 11:10:30.680366  1691 layer_factory.hpp:77] Creating layer BatchNorm26
I0825 11:10:30.680377  1691 net.cpp:128] Creating Layer BatchNorm26
I0825 11:10:30.680382  1691 net.cpp:558] BatchNorm26 <- Convolution26
I0825 11:10:30.680393  1691 net.cpp:509] BatchNorm26 -> Convolution26 (in-place)
I0825 11:10:30.680709  1691 net.cpp:172] Setting up BatchNorm26
I0825 11:10:30.680721  1691 net.cpp:186] Top shape: 10 64 8 8 (40960)
I0825 11:10:30.680725  1691 net.cpp:194] Memory required for data: 61726840
I0825 11:10:30.680735  1691 layer_factory.hpp:77] Creating layer Scale26
I0825 11:10:30.680742  1691 net.cpp:128] Creating Layer Scale26
I0825 11:10:30.680747  1691 net.cpp:558] Scale26 <- Convolution26
I0825 11:10:30.680752  1691 net.cpp:509] Scale26 -> Convolution26 (in-place)
I0825 11:10:30.680810  1691 layer_factory.hpp:77] Creating layer Scale26
I0825 11:10:30.680984  1691 net.cpp:172] Setting up Scale26
I0825 11:10:30.680997  1691 net.cpp:186] Top shape: 10 64 8 8 (40960)
I0825 11:10:30.681002  1691 net.cpp:194] Memory required for data: 61890680
I0825 11:10:30.681010  1691 layer_factory.hpp:77] Creating layer ReLU24
I0825 11:10:30.681016  1691 net.cpp:128] Creating Layer ReLU24
I0825 11:10:30.681021  1691 net.cpp:558] ReLU24 <- Convolution26
I0825 11:10:30.681027  1691 net.cpp:509] ReLU24 -> Convolution26 (in-place)
I0825 11:10:30.681289  1691 net.cpp:172] Setting up ReLU24
I0825 11:10:30.681305  1691 net.cpp:186] Top shape: 10 64 8 8 (40960)
I0825 11:10:30.681310  1691 net.cpp:194] Memory required for data: 62054520
I0825 11:10:30.681315  1691 layer_factory.hpp:77] Creating layer Convolution27
I0825 11:10:30.681342  1691 net.cpp:128] Creating Layer Convolution27
I0825 11:10:30.681349  1691 net.cpp:558] Convolution27 <- Convolution26
I0825 11:10:30.681356  1691 net.cpp:522] Convolution27 -> Convolution27
I0825 11:10:30.687285  1691 net.cpp:172] Setting up Convolution27
I0825 11:10:30.687314  1691 net.cpp:186] Top shape: 10 64 8 8 (40960)
I0825 11:10:30.687319  1691 net.cpp:194] Memory required for data: 62218360
I0825 11:10:30.687328  1691 layer_factory.hpp:77] Creating layer BatchNorm27
I0825 11:10:30.687348  1691 net.cpp:128] Creating Layer BatchNorm27
I0825 11:10:30.687358  1691 net.cpp:558] BatchNorm27 <- Convolution27
I0825 11:10:30.687366  1691 net.cpp:509] BatchNorm27 -> Convolution27 (in-place)
I0825 11:10:30.687680  1691 net.cpp:172] Setting up BatchNorm27
I0825 11:10:30.687691  1691 net.cpp:186] Top shape: 10 64 8 8 (40960)
I0825 11:10:30.687695  1691 net.cpp:194] Memory required for data: 62382200
I0825 11:10:30.687706  1691 layer_factory.hpp:77] Creating layer Scale27
I0825 11:10:30.687713  1691 net.cpp:128] Creating Layer Scale27
I0825 11:10:30.687718  1691 net.cpp:558] Scale27 <- Convolution27
I0825 11:10:30.687726  1691 net.cpp:509] Scale27 -> Convolution27 (in-place)
I0825 11:10:30.687783  1691 layer_factory.hpp:77] Creating layer Scale27
I0825 11:10:30.687954  1691 net.cpp:172] Setting up Scale27
I0825 11:10:30.687963  1691 net.cpp:186] Top shape: 10 64 8 8 (40960)
I0825 11:10:30.687966  1691 net.cpp:194] Memory required for data: 62546040
I0825 11:10:30.687975  1691 layer_factory.hpp:77] Creating layer Eltwise12
I0825 11:10:30.687985  1691 net.cpp:128] Creating Layer Eltwise12
I0825 11:10:30.687990  1691 net.cpp:558] Eltwise12 <- Eltwise11_ReLU23_0_split_1
I0825 11:10:30.687995  1691 net.cpp:558] Eltwise12 <- Convolution27
I0825 11:10:30.688001  1691 net.cpp:522] Eltwise12 -> Eltwise12
I0825 11:10:30.688035  1691 net.cpp:172] Setting up Eltwise12
I0825 11:10:30.688041  1691 net.cpp:186] Top shape: 10 64 8 8 (40960)
I0825 11:10:30.688045  1691 net.cpp:194] Memory required for data: 62709880
I0825 11:10:30.688050  1691 layer_factory.hpp:77] Creating layer ReLU25
I0825 11:10:30.688055  1691 net.cpp:128] Creating Layer ReLU25
I0825 11:10:30.688060  1691 net.cpp:558] ReLU25 <- Eltwise12
I0825 11:10:30.688066  1691 net.cpp:509] ReLU25 -> Eltwise12 (in-place)
I0825 11:10:30.689306  1691 net.cpp:172] Setting up ReLU25
I0825 11:10:30.689321  1691 net.cpp:186] Top shape: 10 64 8 8 (40960)
I0825 11:10:30.689327  1691 net.cpp:194] Memory required for data: 62873720
I0825 11:10:30.689332  1691 layer_factory.hpp:77] Creating layer Eltwise12_ReLU25_0_split
I0825 11:10:30.689343  1691 net.cpp:128] Creating Layer Eltwise12_ReLU25_0_split
I0825 11:10:30.689349  1691 net.cpp:558] Eltwise12_ReLU25_0_split <- Eltwise12
I0825 11:10:30.689359  1691 net.cpp:522] Eltwise12_ReLU25_0_split -> Eltwise12_ReLU25_0_split_0
I0825 11:10:30.689368  1691 net.cpp:522] Eltwise12_ReLU25_0_split -> Eltwise12_ReLU25_0_split_1
I0825 11:10:30.689430  1691 net.cpp:172] Setting up Eltwise12_ReLU25_0_split
I0825 11:10:30.689437  1691 net.cpp:186] Top shape: 10 64 8 8 (40960)
I0825 11:10:30.689443  1691 net.cpp:186] Top shape: 10 64 8 8 (40960)
I0825 11:10:30.689447  1691 net.cpp:194] Memory required for data: 63201400
I0825 11:10:30.689451  1691 layer_factory.hpp:77] Creating layer Convolution28
I0825 11:10:30.689465  1691 net.cpp:128] Creating Layer Convolution28
I0825 11:10:30.689468  1691 net.cpp:558] Convolution28 <- Eltwise12_ReLU25_0_split_0
I0825 11:10:30.689478  1691 net.cpp:522] Convolution28 -> Convolution28
I0825 11:10:30.696250  1691 net.cpp:172] Setting up Convolution28
I0825 11:10:30.696279  1691 net.cpp:186] Top shape: 10 64 8 8 (40960)
I0825 11:10:30.696282  1691 net.cpp:194] Memory required for data: 63365240
I0825 11:10:30.696293  1691 layer_factory.hpp:77] Creating layer BatchNorm28
I0825 11:10:30.696306  1691 net.cpp:128] Creating Layer BatchNorm28
I0825 11:10:30.696312  1691 net.cpp:558] BatchNorm28 <- Convolution28
I0825 11:10:30.696319  1691 net.cpp:509] BatchNorm28 -> Convolution28 (in-place)
I0825 11:10:30.696642  1691 net.cpp:172] Setting up BatchNorm28
I0825 11:10:30.696672  1691 net.cpp:186] Top shape: 10 64 8 8 (40960)
I0825 11:10:30.696676  1691 net.cpp:194] Memory required for data: 63529080
I0825 11:10:30.696687  1691 layer_factory.hpp:77] Creating layer Scale28
I0825 11:10:30.696694  1691 net.cpp:128] Creating Layer Scale28
I0825 11:10:30.696699  1691 net.cpp:558] Scale28 <- Convolution28
I0825 11:10:30.696704  1691 net.cpp:509] Scale28 -> Convolution28 (in-place)
I0825 11:10:30.696766  1691 layer_factory.hpp:77] Creating layer Scale28
I0825 11:10:30.696944  1691 net.cpp:172] Setting up Scale28
I0825 11:10:30.696955  1691 net.cpp:186] Top shape: 10 64 8 8 (40960)
I0825 11:10:30.696959  1691 net.cpp:194] Memory required for data: 63692920
I0825 11:10:30.696967  1691 layer_factory.hpp:77] Creating layer ReLU26
I0825 11:10:30.696974  1691 net.cpp:128] Creating Layer ReLU26
I0825 11:10:30.696979  1691 net.cpp:558] ReLU26 <- Convolution28
I0825 11:10:30.696986  1691 net.cpp:509] ReLU26 -> Convolution28 (in-place)
I0825 11:10:30.698073  1691 net.cpp:172] Setting up ReLU26
I0825 11:10:30.698091  1691 net.cpp:186] Top shape: 10 64 8 8 (40960)
I0825 11:10:30.698096  1691 net.cpp:194] Memory required for data: 63856760
I0825 11:10:30.698099  1691 layer_factory.hpp:77] Creating layer Convolution29
I0825 11:10:30.698117  1691 net.cpp:128] Creating Layer Convolution29
I0825 11:10:30.698122  1691 net.cpp:558] Convolution29 <- Convolution28
I0825 11:10:30.698132  1691 net.cpp:522] Convolution29 -> Convolution29
I0825 11:10:30.704841  1691 net.cpp:172] Setting up Convolution29
I0825 11:10:30.704869  1691 net.cpp:186] Top shape: 10 64 8 8 (40960)
I0825 11:10:30.704874  1691 net.cpp:194] Memory required for data: 64020600
I0825 11:10:30.704883  1691 layer_factory.hpp:77] Creating layer BatchNorm29
I0825 11:10:30.704891  1691 net.cpp:128] Creating Layer BatchNorm29
I0825 11:10:30.704896  1691 net.cpp:558] BatchNorm29 <- Convolution29
I0825 11:10:30.704906  1691 net.cpp:509] BatchNorm29 -> Convolution29 (in-place)
I0825 11:10:30.705224  1691 net.cpp:172] Setting up BatchNorm29
I0825 11:10:30.705236  1691 net.cpp:186] Top shape: 10 64 8 8 (40960)
I0825 11:10:30.705240  1691 net.cpp:194] Memory required for data: 64184440
I0825 11:10:30.705250  1691 layer_factory.hpp:77] Creating layer Scale29
I0825 11:10:30.705261  1691 net.cpp:128] Creating Layer Scale29
I0825 11:10:30.705266  1691 net.cpp:558] Scale29 <- Convolution29
I0825 11:10:30.705271  1691 net.cpp:509] Scale29 -> Convolution29 (in-place)
I0825 11:10:30.705327  1691 layer_factory.hpp:77] Creating layer Scale29
I0825 11:10:30.705503  1691 net.cpp:172] Setting up Scale29
I0825 11:10:30.705514  1691 net.cpp:186] Top shape: 10 64 8 8 (40960)
I0825 11:10:30.705518  1691 net.cpp:194] Memory required for data: 64348280
I0825 11:10:30.705526  1691 layer_factory.hpp:77] Creating layer Eltwise13
I0825 11:10:30.705535  1691 net.cpp:128] Creating Layer Eltwise13
I0825 11:10:30.705541  1691 net.cpp:558] Eltwise13 <- Eltwise12_ReLU25_0_split_1
I0825 11:10:30.705546  1691 net.cpp:558] Eltwise13 <- Convolution29
I0825 11:10:30.705554  1691 net.cpp:522] Eltwise13 -> Eltwise13
I0825 11:10:30.705585  1691 net.cpp:172] Setting up Eltwise13
I0825 11:10:30.705591  1691 net.cpp:186] Top shape: 10 64 8 8 (40960)
I0825 11:10:30.705595  1691 net.cpp:194] Memory required for data: 64512120
I0825 11:10:30.705600  1691 layer_factory.hpp:77] Creating layer ReLU27
I0825 11:10:30.705608  1691 net.cpp:128] Creating Layer ReLU27
I0825 11:10:30.705613  1691 net.cpp:558] ReLU27 <- Eltwise13
I0825 11:10:30.705619  1691 net.cpp:509] ReLU27 -> Eltwise13 (in-place)
I0825 11:10:30.706859  1691 net.cpp:172] Setting up ReLU27
I0825 11:10:30.706881  1691 net.cpp:186] Top shape: 10 64 8 8 (40960)
I0825 11:10:30.706887  1691 net.cpp:194] Memory required for data: 64675960
I0825 11:10:30.706892  1691 layer_factory.hpp:77] Creating layer Eltwise13_ReLU27_0_split
I0825 11:10:30.706902  1691 net.cpp:128] Creating Layer Eltwise13_ReLU27_0_split
I0825 11:10:30.706907  1691 net.cpp:558] Eltwise13_ReLU27_0_split <- Eltwise13
I0825 11:10:30.706914  1691 net.cpp:522] Eltwise13_ReLU27_0_split -> Eltwise13_ReLU27_0_split_0
I0825 11:10:30.706939  1691 net.cpp:522] Eltwise13_ReLU27_0_split -> Eltwise13_ReLU27_0_split_1
I0825 11:10:30.707006  1691 net.cpp:172] Setting up Eltwise13_ReLU27_0_split
I0825 11:10:30.707015  1691 net.cpp:186] Top shape: 10 64 8 8 (40960)
I0825 11:10:30.707020  1691 net.cpp:186] Top shape: 10 64 8 8 (40960)
I0825 11:10:30.707023  1691 net.cpp:194] Memory required for data: 65003640
I0825 11:10:30.707028  1691 layer_factory.hpp:77] Creating layer Convolution30
I0825 11:10:30.707041  1691 net.cpp:128] Creating Layer Convolution30
I0825 11:10:30.707046  1691 net.cpp:558] Convolution30 <- Eltwise13_ReLU27_0_split_0
I0825 11:10:30.707054  1691 net.cpp:522] Convolution30 -> Convolution30
I0825 11:10:30.713809  1691 net.cpp:172] Setting up Convolution30
I0825 11:10:30.713836  1691 net.cpp:186] Top shape: 10 64 8 8 (40960)
I0825 11:10:30.713840  1691 net.cpp:194] Memory required for data: 65167480
I0825 11:10:30.713851  1691 layer_factory.hpp:77] Creating layer BatchNorm30
I0825 11:10:30.713862  1691 net.cpp:128] Creating Layer BatchNorm30
I0825 11:10:30.713868  1691 net.cpp:558] BatchNorm30 <- Convolution30
I0825 11:10:30.713881  1691 net.cpp:509] BatchNorm30 -> Convolution30 (in-place)
I0825 11:10:30.714207  1691 net.cpp:172] Setting up BatchNorm30
I0825 11:10:30.714220  1691 net.cpp:186] Top shape: 10 64 8 8 (40960)
I0825 11:10:30.714223  1691 net.cpp:194] Memory required for data: 65331320
I0825 11:10:30.714233  1691 layer_factory.hpp:77] Creating layer Scale30
I0825 11:10:30.714241  1691 net.cpp:128] Creating Layer Scale30
I0825 11:10:30.714246  1691 net.cpp:558] Scale30 <- Convolution30
I0825 11:10:30.714253  1691 net.cpp:509] Scale30 -> Convolution30 (in-place)
I0825 11:10:30.714308  1691 layer_factory.hpp:77] Creating layer Scale30
I0825 11:10:30.714495  1691 net.cpp:172] Setting up Scale30
I0825 11:10:30.714509  1691 net.cpp:186] Top shape: 10 64 8 8 (40960)
I0825 11:10:30.714514  1691 net.cpp:194] Memory required for data: 65495160
I0825 11:10:30.714521  1691 layer_factory.hpp:77] Creating layer ReLU28
I0825 11:10:30.714527  1691 net.cpp:128] Creating Layer ReLU28
I0825 11:10:30.714532  1691 net.cpp:558] ReLU28 <- Convolution30
I0825 11:10:30.714540  1691 net.cpp:509] ReLU28 -> Convolution30 (in-place)
I0825 11:10:30.715634  1691 net.cpp:172] Setting up ReLU28
I0825 11:10:30.715651  1691 net.cpp:186] Top shape: 10 64 8 8 (40960)
I0825 11:10:30.715656  1691 net.cpp:194] Memory required for data: 65659000
I0825 11:10:30.715659  1691 layer_factory.hpp:77] Creating layer Convolution31
I0825 11:10:30.715673  1691 net.cpp:128] Creating Layer Convolution31
I0825 11:10:30.715678  1691 net.cpp:558] Convolution31 <- Convolution30
I0825 11:10:30.715688  1691 net.cpp:522] Convolution31 -> Convolution31
I0825 11:10:30.722355  1691 net.cpp:172] Setting up Convolution31
I0825 11:10:30.722381  1691 net.cpp:186] Top shape: 10 64 8 8 (40960)
I0825 11:10:30.722386  1691 net.cpp:194] Memory required for data: 65822840
I0825 11:10:30.722396  1691 layer_factory.hpp:77] Creating layer BatchNorm31
I0825 11:10:30.722405  1691 net.cpp:128] Creating Layer BatchNorm31
I0825 11:10:30.722410  1691 net.cpp:558] BatchNorm31 <- Convolution31
I0825 11:10:30.722420  1691 net.cpp:509] BatchNorm31 -> Convolution31 (in-place)
I0825 11:10:30.722744  1691 net.cpp:172] Setting up BatchNorm31
I0825 11:10:30.722756  1691 net.cpp:186] Top shape: 10 64 8 8 (40960)
I0825 11:10:30.722761  1691 net.cpp:194] Memory required for data: 65986680
I0825 11:10:30.722771  1691 layer_factory.hpp:77] Creating layer Scale31
I0825 11:10:30.722780  1691 net.cpp:128] Creating Layer Scale31
I0825 11:10:30.722785  1691 net.cpp:558] Scale31 <- Convolution31
I0825 11:10:30.722791  1691 net.cpp:509] Scale31 -> Convolution31 (in-place)
I0825 11:10:30.722847  1691 layer_factory.hpp:77] Creating layer Scale31
I0825 11:10:30.723024  1691 net.cpp:172] Setting up Scale31
I0825 11:10:30.723031  1691 net.cpp:186] Top shape: 10 64 8 8 (40960)
I0825 11:10:30.723037  1691 net.cpp:194] Memory required for data: 66150520
I0825 11:10:30.723060  1691 layer_factory.hpp:77] Creating layer Eltwise14
I0825 11:10:30.723071  1691 net.cpp:128] Creating Layer Eltwise14
I0825 11:10:30.723078  1691 net.cpp:558] Eltwise14 <- Eltwise13_ReLU27_0_split_1
I0825 11:10:30.723083  1691 net.cpp:558] Eltwise14 <- Convolution31
I0825 11:10:30.723091  1691 net.cpp:522] Eltwise14 -> Eltwise14
I0825 11:10:30.723124  1691 net.cpp:172] Setting up Eltwise14
I0825 11:10:30.723131  1691 net.cpp:186] Top shape: 10 64 8 8 (40960)
I0825 11:10:30.723135  1691 net.cpp:194] Memory required for data: 66314360
I0825 11:10:30.723140  1691 layer_factory.hpp:77] Creating layer ReLU29
I0825 11:10:30.723146  1691 net.cpp:128] Creating Layer ReLU29
I0825 11:10:30.723151  1691 net.cpp:558] ReLU29 <- Eltwise14
I0825 11:10:30.723160  1691 net.cpp:509] ReLU29 -> Eltwise14 (in-place)
I0825 11:10:30.724642  1691 net.cpp:172] Setting up ReLU29
I0825 11:10:30.724668  1691 net.cpp:186] Top shape: 10 64 8 8 (40960)
I0825 11:10:30.724673  1691 net.cpp:194] Memory required for data: 66478200
I0825 11:10:30.724678  1691 layer_factory.hpp:77] Creating layer Eltwise14_ReLU29_0_split
I0825 11:10:30.724685  1691 net.cpp:128] Creating Layer Eltwise14_ReLU29_0_split
I0825 11:10:30.724690  1691 net.cpp:558] Eltwise14_ReLU29_0_split <- Eltwise14
I0825 11:10:30.724697  1691 net.cpp:522] Eltwise14_ReLU29_0_split -> Eltwise14_ReLU29_0_split_0
I0825 11:10:30.724710  1691 net.cpp:522] Eltwise14_ReLU29_0_split -> Eltwise14_ReLU29_0_split_1
I0825 11:10:30.724778  1691 net.cpp:172] Setting up Eltwise14_ReLU29_0_split
I0825 11:10:30.724786  1691 net.cpp:186] Top shape: 10 64 8 8 (40960)
I0825 11:10:30.724792  1691 net.cpp:186] Top shape: 10 64 8 8 (40960)
I0825 11:10:30.724795  1691 net.cpp:194] Memory required for data: 66805880
I0825 11:10:30.724799  1691 layer_factory.hpp:77] Creating layer Convolution32
I0825 11:10:30.724813  1691 net.cpp:128] Creating Layer Convolution32
I0825 11:10:30.724818  1691 net.cpp:558] Convolution32 <- Eltwise14_ReLU29_0_split_0
I0825 11:10:30.724826  1691 net.cpp:522] Convolution32 -> Convolution32
I0825 11:10:30.731369  1691 net.cpp:172] Setting up Convolution32
I0825 11:10:30.731398  1691 net.cpp:186] Top shape: 10 64 8 8 (40960)
I0825 11:10:30.731403  1691 net.cpp:194] Memory required for data: 66969720
I0825 11:10:30.731415  1691 layer_factory.hpp:77] Creating layer BatchNorm32
I0825 11:10:30.731422  1691 net.cpp:128] Creating Layer BatchNorm32
I0825 11:10:30.731428  1691 net.cpp:558] BatchNorm32 <- Convolution32
I0825 11:10:30.731441  1691 net.cpp:509] BatchNorm32 -> Convolution32 (in-place)
I0825 11:10:30.731776  1691 net.cpp:172] Setting up BatchNorm32
I0825 11:10:30.731788  1691 net.cpp:186] Top shape: 10 64 8 8 (40960)
I0825 11:10:30.731792  1691 net.cpp:194] Memory required for data: 67133560
I0825 11:10:30.731802  1691 layer_factory.hpp:77] Creating layer Scale32
I0825 11:10:30.731809  1691 net.cpp:128] Creating Layer Scale32
I0825 11:10:30.731814  1691 net.cpp:558] Scale32 <- Convolution32
I0825 11:10:30.731822  1691 net.cpp:509] Scale32 -> Convolution32 (in-place)
I0825 11:10:30.731878  1691 layer_factory.hpp:77] Creating layer Scale32
I0825 11:10:30.732056  1691 net.cpp:172] Setting up Scale32
I0825 11:10:30.732067  1691 net.cpp:186] Top shape: 10 64 8 8 (40960)
I0825 11:10:30.732071  1691 net.cpp:194] Memory required for data: 67297400
I0825 11:10:30.732079  1691 layer_factory.hpp:77] Creating layer ReLU30
I0825 11:10:30.732087  1691 net.cpp:128] Creating Layer ReLU30
I0825 11:10:30.732092  1691 net.cpp:558] ReLU30 <- Convolution32
I0825 11:10:30.732098  1691 net.cpp:509] ReLU30 -> Convolution32 (in-place)
I0825 11:10:30.733177  1691 net.cpp:172] Setting up ReLU30
I0825 11:10:30.733199  1691 net.cpp:186] Top shape: 10 64 8 8 (40960)
I0825 11:10:30.733204  1691 net.cpp:194] Memory required for data: 67461240
I0825 11:10:30.733209  1691 layer_factory.hpp:77] Creating layer Convolution33
I0825 11:10:30.733224  1691 net.cpp:128] Creating Layer Convolution33
I0825 11:10:30.733230  1691 net.cpp:558] Convolution33 <- Convolution32
I0825 11:10:30.733242  1691 net.cpp:522] Convolution33 -> Convolution33
I0825 11:10:30.739961  1691 net.cpp:172] Setting up Convolution33
I0825 11:10:30.739987  1691 net.cpp:186] Top shape: 10 64 8 8 (40960)
I0825 11:10:30.739991  1691 net.cpp:194] Memory required for data: 67625080
I0825 11:10:30.740002  1691 layer_factory.hpp:77] Creating layer BatchNorm33
I0825 11:10:30.740013  1691 net.cpp:128] Creating Layer BatchNorm33
I0825 11:10:30.740020  1691 net.cpp:558] BatchNorm33 <- Convolution33
I0825 11:10:30.740026  1691 net.cpp:509] BatchNorm33 -> Convolution33 (in-place)
I0825 11:10:30.740345  1691 net.cpp:172] Setting up BatchNorm33
I0825 11:10:30.740356  1691 net.cpp:186] Top shape: 10 64 8 8 (40960)
I0825 11:10:30.740361  1691 net.cpp:194] Memory required for data: 67788920
I0825 11:10:30.740371  1691 layer_factory.hpp:77] Creating layer Scale33
I0825 11:10:30.740378  1691 net.cpp:128] Creating Layer Scale33
I0825 11:10:30.740382  1691 net.cpp:558] Scale33 <- Convolution33
I0825 11:10:30.740391  1691 net.cpp:509] Scale33 -> Convolution33 (in-place)
I0825 11:10:30.740448  1691 layer_factory.hpp:77] Creating layer Scale33
I0825 11:10:30.740630  1691 net.cpp:172] Setting up Scale33
I0825 11:10:30.740643  1691 net.cpp:186] Top shape: 10 64 8 8 (40960)
I0825 11:10:30.740646  1691 net.cpp:194] Memory required for data: 67952760
I0825 11:10:30.740654  1691 layer_factory.hpp:77] Creating layer Eltwise15
I0825 11:10:30.740661  1691 net.cpp:128] Creating Layer Eltwise15
I0825 11:10:30.740666  1691 net.cpp:558] Eltwise15 <- Eltwise14_ReLU29_0_split_1
I0825 11:10:30.740671  1691 net.cpp:558] Eltwise15 <- Convolution33
I0825 11:10:30.740680  1691 net.cpp:522] Eltwise15 -> Eltwise15
I0825 11:10:30.740713  1691 net.cpp:172] Setting up Eltwise15
I0825 11:10:30.740720  1691 net.cpp:186] Top shape: 10 64 8 8 (40960)
I0825 11:10:30.740725  1691 net.cpp:194] Memory required for data: 68116600
I0825 11:10:30.740728  1691 layer_factory.hpp:77] Creating layer ReLU31
I0825 11:10:30.740736  1691 net.cpp:128] Creating Layer ReLU31
I0825 11:10:30.740739  1691 net.cpp:558] ReLU31 <- Eltwise15
I0825 11:10:30.740746  1691 net.cpp:509] ReLU31 -> Eltwise15 (in-place)
I0825 11:10:30.741974  1691 net.cpp:172] Setting up ReLU31
I0825 11:10:30.741989  1691 net.cpp:186] Top shape: 10 64 8 8 (40960)
I0825 11:10:30.741994  1691 net.cpp:194] Memory required for data: 68280440
I0825 11:10:30.741999  1691 layer_factory.hpp:77] Creating layer Pooling1
I0825 11:10:30.742008  1691 net.cpp:128] Creating Layer Pooling1
I0825 11:10:30.742012  1691 net.cpp:558] Pooling1 <- Eltwise15
I0825 11:10:30.742023  1691 net.cpp:522] Pooling1 -> Pooling1
I0825 11:10:30.744220  1691 net.cpp:172] Setting up Pooling1
I0825 11:10:30.744238  1691 net.cpp:186] Top shape: 10 64 1 1 (640)
I0825 11:10:30.744242  1691 net.cpp:194] Memory required for data: 68283000
I0825 11:10:30.744247  1691 layer_factory.hpp:77] Creating layer InnerProduct1
I0825 11:10:30.744259  1691 net.cpp:128] Creating Layer InnerProduct1
I0825 11:10:30.744267  1691 net.cpp:558] InnerProduct1 <- Pooling1
I0825 11:10:30.744274  1691 net.cpp:522] InnerProduct1 -> InnerProduct1
I0825 11:10:30.744468  1691 net.cpp:172] Setting up InnerProduct1
I0825 11:10:30.744480  1691 net.cpp:186] Top shape: 10 10 (100)
I0825 11:10:30.744484  1691 net.cpp:194] Memory required for data: 68283400
I0825 11:10:30.744493  1691 layer_factory.hpp:77] Creating layer InnerProduct1_InnerProduct1_0_split
I0825 11:10:30.744500  1691 net.cpp:128] Creating Layer InnerProduct1_InnerProduct1_0_split
I0825 11:10:30.744505  1691 net.cpp:558] InnerProduct1_InnerProduct1_0_split <- InnerProduct1
I0825 11:10:30.744514  1691 net.cpp:522] InnerProduct1_InnerProduct1_0_split -> InnerProduct1_InnerProduct1_0_split_0
I0825 11:10:30.744524  1691 net.cpp:522] InnerProduct1_InnerProduct1_0_split -> InnerProduct1_InnerProduct1_0_split_1
I0825 11:10:30.744578  1691 net.cpp:172] Setting up InnerProduct1_InnerProduct1_0_split
I0825 11:10:30.744585  1691 net.cpp:186] Top shape: 10 10 (100)
I0825 11:10:30.744590  1691 net.cpp:186] Top shape: 10 10 (100)
I0825 11:10:30.744594  1691 net.cpp:194] Memory required for data: 68284200
I0825 11:10:30.744616  1691 layer_factory.hpp:77] Creating layer SoftmaxWithLoss1
I0825 11:10:30.744622  1691 net.cpp:128] Creating Layer SoftmaxWithLoss1
I0825 11:10:30.744627  1691 net.cpp:558] SoftmaxWithLoss1 <- InnerProduct1_InnerProduct1_0_split_0
I0825 11:10:30.744633  1691 net.cpp:558] SoftmaxWithLoss1 <- Data2_Data1_1_split_0
…
