…
I1029 14:14:20.087349  4958 net.cpp:294] The NetState phase (0) differed from the phase (1) specified by a rule in layer acc
I1029 14:14:20.087482  4958 net.cpp:51] Initializing net from parameters: 
state {
  phase: TRAIN
  level: 0
  stage: ""
}
layer {
  name: "face"
  type: "Data"
  top: "data"
  top: "label"
  include {
    phase: TRAIN
  }
  transform_param {
    scale: 0.00390625
  }
  data_param {
    source: "/home/ljf/caffe-master/examples/ljftest_alphabet_VggNet/train_lmdb"
    batch_size: 512
    backend: LMDB
  }
  image_data_param {
    shuffle: true
  }
}
layer {
  name: "conv1"
  type: "Convolution"
  bottom: "data"
  top: "conv1"
  param {
    lr_mult: 1
  }
  param {
    lr_mult: 2
  }
  convolution_param {
    num_output: 64
    pad: 1
    kernel_size: 3
    stride: 1
    weight_filler {
      type: "gaussian"
      std: 0.1
    }
    bias_filler {
      type: "constant"
      value: 0
    }
  }
}
layer {
  name: "relu1"
  type: "ReLU"
  bottom: "conv1"
  top: "conv1"
}
layer {
  name: "conv2"
  type: "Convolution"
  bottom: "conv1"
  top: "conv2"
  param {
    lr_mult: 1
  }
  param {
    lr_mult: 2
  }
  convolution_param {
    num_output: 64
    pad: 1
    kernel_size: 3
    stride: 1
    weight_filler {
      type: "gaussian"
      std: 0.1
    }
    bias_filler {
      type: "constant"
      value: 0.1
    }
  }
}
layer {
  name: "relu2"
  type: "ReLU"
  bottom: "conv2"
  top: "conv2"
}
layer {
  name: "pool2"
  type: "Pooling"
  bottom: "conv2"
  top: "pool2"
  pooling_param {
    pool: MAX
    kernel_size: 2
    stride: 2
    pad: 0
  }
}
layer {
  name: "conv3"
  type: "Convolution"
  bottom: "pool2"
  top: "conv3"
  param {
    lr_mult: 1
  }
  param {
    lr_mult: 2
  }
  convolution_param {
    num_output: 128
    pad: 1
    kernel_size: 3
    stride: 1
    weight_filler {
      type: "gaussian"
      std: 0.1
    }
    bias_filler {
      type: "constant"
      value: 0
    }
  }
}
layer {
  name: "relu3"
  type: "ReLU"
  bottom: "conv3"
  top: "conv3"
}
layer {
  name: "conv4"
  type: "Convolution"
  bottom: "conv3"
  top: "conv4"
  param {
    lr_mult: 1
  }
  param {
    lr_mult: 2
  }
  convolution_param {
    num_output: 128
    pad: 1
    kernel_size: 3
    stride: 1
    weight_filler {
      type: "gaussian"
      std: 0.1
    }
    bias_filler {
      type: "constant"
      value: 0
    }
  }
}
layer {
  name: "relu4"
  type: "ReLU"
  bottom: "conv4"
  top: "conv4"
}
layer {
  name: "pool4"
  type: "Pooling"
  bottom: "conv4"
  top: "pool4"
  pooling_param {
    pool: MAX
    kernel_size: 2
    stride: 2
    pad: 0
  }
}
layer {
  name: "conv5"
  type: "Convolution"
  bottom: "pool4"
  top: "conv5"
  param {
    lr_mult: 1
  }
  param {
    lr_mult: 2
  }
  convolution_param {
    num_output: 256
    pad: 1
    kernel_size: 3
    stride: 1
    weight_filler {
      type: "gaussian"
      std: 0.1
    }
    bias_filler {
      type: "constant"
      value: 0
    }
  }
}
layer {
  name: "relu5"
  type: "ReLU"
  bottom: "conv5"
  top: "conv5"
}
layer {
  name: "conv6"
  type: "Convolution"
  bottom: "conv5"
  top: "conv6"
  param {
    lr_mult: 1
  }
  param {
    lr_mult: 2
  }
  convolution_param {
    num_output: 256
    pad: 1
    kernel_size: 3
    stride: 1
    weight_filler {
      type: "gaussian"
      std: 0.1
    }
    bias_filler {
      type: "constant"
      value: 0
    }
  }
}
layer {
  name: "relu6"
  type: "ReLU"
  bottom: "conv6"
  top: "conv6"
}
layer {
  name: "conv7"
  type: "Convolution"
  bottom: "conv6"
  top: "conv7"
  param {
    lr_mult: 1
  }
  param {
    lr_mult: 2
  }
  convolution_param {
    num_output: 256
    pad: 1
    kernel_size: 3
    stride: 1
    weight_filler {
      type: "gaussian"
      std: 0.1
    }
    bias_filler {
      type: "constant"
      value: 0
    }
  }
}
layer {
  name: "relu7"
  type: "ReLU"
  bottom: "conv7"
  top: "conv7"
}
layer {
  name: "conv8"
  type: "Convolution"
  bottom: "conv7"
  top: "conv8"
  param {
    lr_mult: 1
  }
  param {
    lr_mult: 2
  }
  convolution_param {
    num_output: 256
    pad: 0
    kernel_size: 1
    stride: 1
    weight_filler {
      type: "gaussian"
      std: 0.1
    }
    bias_filler {
      type: "constant"
      value: 0
    }
  }
}
layer {
  name: "relu8"
  type: "ReLU"
  bottom: "conv8"
  top: "conv8"
}
layer {
  name: "pool8"
  type: "Pooling"
  bottom: "conv8"
  top: "pool8"
  pooling_param {
    pool: MAX
    kernel_size: 2
    stride: 2
    pad: 0
  }
}
layer {
  name: "fc65"
  type: "InnerProduct"
  bottom: "pool8"
  top: "fc65"
  inner_product_param {
    num_output: 1024
    weight_filler {
      type: "gaussian"
      std: 0.0009765625
    }
    bias_filler {
      type: "constant"
      value: 0.1
    }
  }
}
layer {
  name: "relu65"
  type: "ReLU"
  bottom: "fc65"
  top: "fc65"
}
layer {
  name: "drop65"
  type: "Dropout"
  bottom: "fc65"
  top: "fc65"
  dropout_param {
    dropout_ratio: 0.1
  }
}
layer {
  name: "fc66"
  type: "InnerProduct"
  bottom: "fc65"
  top: "fc66"
  inner_product_param {
    num_output: 1024
    weight_filler {
      type: "gaussian"
      std: 0.0009765625
    }
    bias_filler {
      type: "constant"
      value: 0.1
    }
  }
}
layer {
  name: "relu66"
  type: "ReLU"
  bottom: "fc66"
  top: "fc66"
}
layer {
  name: "drop66"
  type: "Dropout"
  bottom: "fc66"
  top: "fc66"
  dropout_param {
    dropout_ratio: 0.5
  }
}
layer {
  name: "fc100"
  type: "InnerProduct"
  bottom: "fc66"
  top: "fc100"
  inner_product_param {
    num_output: 62
    weight_filler {
      type: "gaussian"
      std: 0.1
    }
    bias_filler {
      type: "constant"
      value: 0
    }
  }
}
layer {
  name: "loss"
  type: "SoftmaxWithLoss"
  bottom: "fc100"
  bottom: "label"
  top: "loss"
}
I1029 14:14:20.087569  4958 layer_factory.hpp:77] Creating layer face
I1029 14:14:20.087647  4958 db_lmdb.cpp:35] Opened lmdb /home/ljf/caffe-master/examples/ljftest_alphabet_VggNet/train_lmdb
I1029 14:14:20.087671  4958 net.cpp:84] Creating Layer face
I1029 14:14:20.087677  4958 net.cpp:380] face -> data
I1029 14:14:20.087692  4958 net.cpp:380] face -> label
I1029 14:14:20.088390  4958 data_layer.cpp:45] output data size: 512,3,32,32
I1029 14:14:20.099176  4958 net.cpp:122] Setting up face
I1029 14:14:20.099194  4958 net.cpp:129] Top shape: 512 3 32 32 (1572864)
I1029 14:14:20.099197  4958 net.cpp:129] Top shape: 512 (512)
I1029 14:14:20.099198  4958 net.cpp:137] Memory required for data: 6293504
I1029 14:14:20.099206  4958 layer_factory.hpp:77] Creating layer conv1
I1029 14:14:20.099221  4958 net.cpp:84] Creating Layer conv1
I1029 14:14:20.099225  4958 net.cpp:406] conv1 <- data
I1029 14:14:20.099251  4958 net.cpp:380] conv1 -> conv1
I1029 14:14:20.297933  4958 net.cpp:122] Setting up conv1
I1029 14:14:20.297971  4958 net.cpp:129] Top shape: 512 64 32 32 (33554432)
I1029 14:14:20.297974  4958 net.cpp:137] Memory required for data: 140511232
I1029 14:14:20.297998  4958 layer_factory.hpp:77] Creating layer relu1
I1029 14:14:20.298009  4958 net.cpp:84] Creating Layer relu1
I1029 14:14:20.298012  4958 net.cpp:406] relu1 <- conv1
I1029 14:14:20.298015  4958 net.cpp:367] relu1 -> conv1 (in-place)
I1029 14:14:20.298178  4958 net.cpp:122] Setting up relu1
I1029 14:14:20.298184  4958 net.cpp:129] Top shape: 512 64 32 32 (33554432)
I1029 14:14:20.298187  4958 net.cpp:137] Memory required for data: 274728960
I1029 14:14:20.298200  4958 layer_factory.hpp:77] Creating layer conv2
I1029 14:14:20.298208  4958 net.cpp:84] Creating Layer conv2
I1029 14:14:20.298210  4958 net.cpp:406] conv2 <- conv1
I1029 14:14:20.298213  4958 net.cpp:380] conv2 -> conv2
I1029 14:14:20.299876  4958 net.cpp:122] Setting up conv2
I1029 14:14:20.299885  4958 net.cpp:129] Top shape: 512 64 32 32 (33554432)
I1029 14:14:20.299887  4958 net.cpp:137] Memory required for data: 408946688
I1029 14:14:20.299893  4958 layer_factory.hpp:77] Creating layer relu2
I1029 14:14:20.299898  4958 net.cpp:84] Creating Layer relu2
I1029 14:14:20.299901  4958 net.cpp:406] relu2 <- conv2
I1029 14:14:20.299904  4958 net.cpp:367] relu2 -> conv2 (in-place)
I1029 14:14:20.300004  4958 net.cpp:122] Setting up relu2
I1029 14:14:20.300009  4958 net.cpp:129] Top shape: 512 64 32 32 (33554432)
I1029 14:14:20.300010  4958 net.cpp:137] Memory required for data: 543164416
I1029 14:14:20.300012  4958 layer_factory.hpp:77] Creating layer pool2
I1029 14:14:20.300015  4958 net.cpp:84] Creating Layer pool2
I1029 14:14:20.300017  4958 net.cpp:406] pool2 <- conv2
I1029 14:14:20.300019  4958 net.cpp:380] pool2 -> pool2
I1029 14:14:20.300050  4958 net.cpp:122] Setting up pool2
I1029 14:14:20.300055  4958 net.cpp:129] Top shape: 512 64 16 16 (8388608)
I1029 14:14:20.300056  4958 net.cpp:137] Memory required for data: 576718848
I1029 14:14:20.300057  4958 layer_factory.hpp:77] Creating layer conv3
I1029 14:14:20.300063  4958 net.cpp:84] Creating Layer conv3
I1029 14:14:20.300065  4958 net.cpp:406] conv3 <- pool2
I1029 14:14:20.300068  4958 net.cpp:380] conv3 -> conv3
I1029 14:14:20.301806  4958 net.cpp:122] Setting up conv3
I1029 14:14:20.301815  4958 net.cpp:129] Top shape: 512 128 16 16 (16777216)
I1029 14:14:20.301818  4958 net.cpp:137] Memory required for data: 643827712
I1029 14:14:20.301823  4958 layer_factory.hpp:77] Creating layer relu3
I1029 14:14:20.301827  4958 net.cpp:84] Creating Layer relu3
I1029 14:14:20.301831  4958 net.cpp:406] relu3 <- conv3
I1029 14:14:20.301833  4958 net.cpp:367] relu3 -> conv3 (in-place)
I1029 14:14:20.301935  4958 net.cpp:122] Setting up relu3
I1029 14:14:20.301940  4958 net.cpp:129] Top shape: 512 128 16 16 (16777216)
I1029 14:14:20.301944  4958 net.cpp:137] Memory required for data: 710936576
I1029 14:14:20.301944  4958 layer_factory.hpp:77] Creating layer conv4
I1029 14:14:20.301951  4958 net.cpp:84] Creating Layer conv4
I1029 14:14:20.301954  4958 net.cpp:406] conv4 <- conv3
I1029 14:14:20.301957  4958 net.cpp:380] conv4 -> conv4
I1029 14:14:20.303652  4958 net.cpp:122] Setting up conv4
I1029 14:14:20.303659  4958 net.cpp:129] Top shape: 512 128 16 16 (16777216)
I1029 14:14:20.303661  4958 net.cpp:137] Memory required for data: 778045440
I1029 14:14:20.303665  4958 layer_factory.hpp:77] Creating layer relu4
I1029 14:14:20.303669  4958 net.cpp:84] Creating Layer relu4
I1029 14:14:20.303671  4958 net.cpp:406] relu4 <- conv4
I1029 14:14:20.303674  4958 net.cpp:367] relu4 -> conv4 (in-place)
I1029 14:14:20.303777  4958 net.cpp:122] Setting up relu4
I1029 14:14:20.303782  4958 net.cpp:129] Top shape: 512 128 16 16 (16777216)
I1029 14:14:20.303783  4958 net.cpp:137] Memory required for data: 845154304
I1029 14:14:20.303786  4958 layer_factory.hpp:77] Creating layer pool4
I1029 14:14:20.303788  4958 net.cpp:84] Creating Layer pool4
I1029 14:14:20.303791  4958 net.cpp:406] pool4 <- conv4
I1029 14:14:20.303793  4958 net.cpp:380] pool4 -> pool4
I1029 14:14:20.303814  4958 net.cpp:122] Setting up pool4
I1029 14:14:20.303819  4958 net.cpp:129] Top shape: 512 128 8 8 (4194304)
I1029 14:14:20.303820  4958 net.cpp:137] Memory required for data: 861931520
I1029 14:14:20.303822  4958 layer_factory.hpp:77] Creating layer conv5
I1029 14:14:20.303827  4958 net.cpp:84] Creating Layer conv5
I1029 14:14:20.303828  4958 net.cpp:406] conv5 <- pool4
I1029 14:14:20.303831  4958 net.cpp:380] conv5 -> conv5
I1029 14:14:20.306483  4958 net.cpp:122] Setting up conv5
I1029 14:14:20.306505  4958 net.cpp:129] Top shape: 512 256 8 8 (8388608)
I1029 14:14:20.306517  4958 net.cpp:137] Memory required for data: 895485952
I1029 14:14:20.306522  4958 layer_factory.hpp:77] Creating layer relu5
I1029 14:14:20.306526  4958 net.cpp:84] Creating Layer relu5
I1029 14:14:20.306529  4958 net.cpp:406] relu5 <- conv5
I1029 14:14:20.306533  4958 net.cpp:367] relu5 -> conv5 (in-place)
I1029 14:14:20.306844  4958 net.cpp:122] Setting up relu5
I1029 14:14:20.306851  4958 net.cpp:129] Top shape: 512 256 8 8 (8388608)
I1029 14:14:20.306867  4958 net.cpp:137] Memory required for data: 929040384
I1029 14:14:20.306870  4958 layer_factory.hpp:77] Creating layer conv6
I1029 14:14:20.306876  4958 net.cpp:84] Creating Layer conv6
I1029 14:14:20.306879  4958 net.cpp:406] conv6 <- conv5
I1029 14:14:20.306881  4958 net.cpp:380] conv6 -> conv6
I1029 14:14:20.312448  4958 net.cpp:122] Setting up conv6
I1029 14:14:20.312469  4958 net.cpp:129] Top shape: 512 256 8 8 (8388608)
I1029 14:14:20.312474  4958 net.cpp:137] Memory required for data: 962594816
I1029 14:14:20.312484  4958 layer_factory.hpp:77] Creating layer relu6
I1029 14:14:20.312491  4958 net.cpp:84] Creating Layer relu6
I1029 14:14:20.312495  4958 net.cpp:406] relu6 <- conv6
I1029 14:14:20.312499  4958 net.cpp:367] relu6 -> conv6 (in-place)
I1029 14:14:20.312794  4958 net.cpp:122] Setting up relu6
I1029 14:14:20.312803  4958 net.cpp:129] Top shape: 512 256 8 8 (8388608)
I1029 14:14:20.312804  4958 net.cpp:137] Memory required for data: 996149248
I1029 14:14:20.312805  4958 layer_factory.hpp:77] Creating layer conv7
I1029 14:14:20.312813  4958 net.cpp:84] Creating Layer conv7
I1029 14:14:20.312814  4958 net.cpp:406] conv7 <- conv6
I1029 14:14:20.312819  4958 net.cpp:380] conv7 -> conv7
I1029 14:14:20.318027  4958 net.cpp:122] Setting up conv7
I1029 14:14:20.318037  4958 net.cpp:129] Top shape: 512 256 8 8 (8388608)
I1029 14:14:20.318038  4958 net.cpp:137] Memory required for data: 1029703680
I1029 14:14:20.318042  4958 layer_factory.hpp:77] Creating layer relu7
I1029 14:14:20.318048  4958 net.cpp:84] Creating Layer relu7
I1029 14:14:20.318049  4958 net.cpp:406] relu7 <- conv7
I1029 14:14:20.318053  4958 net.cpp:367] relu7 -> conv7 (in-place)
I1029 14:14:20.318207  4958 net.cpp:122] Setting up relu7
I1029 14:14:20.318212  4958 net.cpp:129] Top shape: 512 256 8 8 (8388608)
I1029 14:14:20.318213  4958 net.cpp:137] Memory required for data: 1063258112
I1029 14:14:20.318217  4958 layer_factory.hpp:77] Creating layer conv8
I1029 14:14:20.318222  4958 net.cpp:84] Creating Layer conv8
I1029 14:14:20.318223  4958 net.cpp:406] conv8 <- conv7
I1029 14:14:20.318228  4958 net.cpp:380] conv8 -> conv8
I1029 14:14:20.319468  4958 net.cpp:122] Setting up conv8
I1029 14:14:20.319476  4958 net.cpp:129] Top shape: 512 256 8 8 (8388608)
I1029 14:14:20.319478  4958 net.cpp:137] Memory required for data: 1096812544
I1029 14:14:20.319483  4958 layer_factory.hpp:77] Creating layer relu8
I1029 14:14:20.319485  4958 net.cpp:84] Creating Layer relu8
I1029 14:14:20.319488  4958 net.cpp:406] relu8 <- conv8
I1029 14:14:20.319491  4958 net.cpp:367] relu8 -> conv8 (in-place)
I1029 14:14:20.319608  4958 net.cpp:122] Setting up relu8
I1029 14:14:20.319614  4958 net.cpp:129] Top shape: 512 256 8 8 (8388608)
I1029 14:14:20.319617  4958 net.cpp:137] Memory required for data: 1130366976
I1029 14:14:20.319617  4958 layer_factory.hpp:77] Creating layer pool8
I1029 14:14:20.319622  4958 net.cpp:84] Creating Layer pool8
I1029 14:14:20.319623  4958 net.cpp:406] pool8 <- conv8
I1029 14:14:20.319627  4958 net.cpp:380] pool8 -> pool8
I1029 14:14:20.319653  4958 net.cpp:122] Setting up pool8
I1029 14:14:20.319656  4958 net.cpp:129] Top shape: 512 256 4 4 (2097152)
I1029 14:14:20.319658  4958 net.cpp:137] Memory required for data: 1138755584
I1029 14:14:20.319660  4958 layer_factory.hpp:77] Creating layer fc65
I1029 14:14:20.319665  4958 net.cpp:84] Creating Layer fc65
I1029 14:14:20.319667  4958 net.cpp:406] fc65 <- pool8
I1029 14:14:20.319670  4958 net.cpp:380] fc65 -> fc65
I1029 14:14:20.351498  4958 net.cpp:122] Setting up fc65
I1029 14:14:20.351523  4958 net.cpp:129] Top shape: 512 1024 (524288)
I1029 14:14:20.351539  4958 net.cpp:137] Memory required for data: 1140852736
I1029 14:14:20.351552  4958 layer_factory.hpp:77] Creating layer relu65
I1029 14:14:20.351562  4958 net.cpp:84] Creating Layer relu65
I1029 14:14:20.351563  4958 net.cpp:406] relu65 <- fc65
I1029 14:14:20.351567  4958 net.cpp:367] relu65 -> fc65 (in-place)
I1029 14:14:20.351732  4958 net.cpp:122] Setting up relu65
I1029 14:14:20.351737  4958 net.cpp:129] Top shape: 512 1024 (524288)
I1029 14:14:20.351738  4958 net.cpp:137] Memory required for data: 1142949888
I1029 14:14:20.351740  4958 layer_factory.hpp:77] Creating layer drop65
I1029 14:14:20.351745  4958 net.cpp:84] Creating Layer drop65
I1029 14:14:20.351747  4958 net.cpp:406] drop65 <- fc65
I1029 14:14:20.351749  4958 net.cpp:367] drop65 -> fc65 (in-place)
I1029 14:14:20.351769  4958 net.cpp:122] Setting up drop65
I1029 14:14:20.351773  4958 net.cpp:129] Top shape: 512 1024 (524288)
I1029 14:14:20.351775  4958 net.cpp:137] Memory required for data: 1145047040
I1029 14:14:20.351776  4958 layer_factory.hpp:77] Creating layer fc66
I1029 14:14:20.351780  4958 net.cpp:84] Creating Layer fc66
I1029 14:14:20.351783  4958 net.cpp:406] fc66 <- fc65
I1029 14:14:20.351788  4958 net.cpp:380] fc66 -> fc66
I1029 14:14:20.359424  4958 net.cpp:122] Setting up fc66
I1029 14:14:20.359449  4958 net.cpp:129] Top shape: 512 1024 (524288)
I1029 14:14:20.359452  4958 net.cpp:137] Memory required for data: 1147144192
I1029 14:14:20.359457  4958 layer_factory.hpp:77] Creating layer relu66
I1029 14:14:20.359463  4958 net.cpp:84] Creating Layer relu66
I1029 14:14:20.359467  4958 net.cpp:406] relu66 <- fc66
I1029 14:14:20.359470  4958 net.cpp:367] relu66 -> fc66 (in-place)
I1029 14:14:20.360028  4958 net.cpp:122] Setting up relu66
I1029 14:14:20.360040  4958 net.cpp:129] Top shape: 512 1024 (524288)
I1029 14:14:20.360044  4958 net.cpp:137] Memory required for data: 1149241344
I1029 14:14:20.360047  4958 layer_factory.hpp:77] Creating layer drop66
I1029 14:14:20.360054  4958 net.cpp:84] Creating Layer drop66
I1029 14:14:20.360059  4958 net.cpp:406] drop66 <- fc66
I1029 14:14:20.360064  4958 net.cpp:367] drop66 -> fc66 (in-place)
I1029 14:14:20.360092  4958 net.cpp:122] Setting up drop66
I1029 14:14:20.360100  4958 net.cpp:129] Top shape: 512 1024 (524288)
I1029 14:14:20.360103  4958 net.cpp:137] Memory required for data: 1151338496
I1029 14:14:20.360105  4958 layer_factory.hpp:77] Creating layer fc100
I1029 14:14:20.360114  4958 net.cpp:84] Creating Layer fc100
I1029 14:14:20.360119  4958 net.cpp:406] fc100 <- fc66
I1029 14:14:20.360124  4958 net.cpp:380] fc100 -> fc100
I1029 14:14:20.360802  4958 net.cpp:122] Setting up fc100
I1029 14:14:20.360812  4958 net.cpp:129] Top shape: 512 62 (31744)
I1029 14:14:20.360815  4958 net.cpp:137] Memory required for data: 1151465472
I1029 14:14:20.360818  4958 layer_factory.hpp:77] Creating layer loss
I1029 14:14:20.360821  4958 net.cpp:84] Creating Layer loss
I1029 14:14:20.360823  4958 net.cpp:406] loss <- fc100
I1029 14:14:20.360826  4958 net.cpp:406] loss <- label
I1029 14:14:20.360831  4958 net.cpp:380] loss -> loss
I1029 14:14:20.360842  4958 layer_factory.hpp:77] Creating layer loss
…
I1029 14:14:20.361342  4958 solver.cpp:172] Creating test net (#0) specified by net file: /home/ljf/caffe-master/examples/ljftest_alphabet_VggNet/train_val.prototxt
I1029 14:14:20.361364  4958 net.cpp:294] The NetState phase (1) differed from the phase (0) specified by a rule in layer face
I1029 14:14:20.361471  4958 net.cpp:51] Initializing net from parameters: 
state {
  phase: TEST
}
layer {
  name: "face"
  type: "Data"
  top: "data"
  top: "label"
  include {
    phase: TEST
  }
  transform_param {
    scale: 0.00390625
  }
  data_param {
    source: "/home/ljf/caffe-master/examples/ljftest_alphabet_VggNet/val_lmdb"
    batch_size: 100
    backend: LMDB
  }
  image_data_param {
    shuffle: true
  }
}
layer {
  name: "conv1"
  type: "Convolution"
  bottom: "data"
  top: "conv1"
  param {
    lr_mult: 1
  }
  param {
    lr_mult: 2
  }
  convolution_param {
    num_output: 64
    pad: 1
    kernel_size: 3
    stride: 1
    weight_filler {
      type: "gaussian"
      std: 0.1
    }
    bias_filler {
      type: "constant"
      value: 0
    }
  }
}
layer {
  name: "relu1"
  type: "ReLU"
  bottom: "conv1"
  top: "conv1"
}
layer {
  name: "conv2"
  type: "Convolution"
  bottom: "conv1"
  top: "conv2"
  param {
    lr_mult: 1
  }
  param {
    lr_mult: 2
  }
  convolution_param {
    num_output: 64
    pad: 1
    kernel_size: 3
    stride: 1
    weight_filler {
      type: "gaussian"
      std: 0.1
    }
    bias_filler {
      type: "constant"
      value: 0.1
    }
  }
}
layer {
  name: "relu2"
  type: "ReLU"
  bottom: "conv2"
  top: "conv2"
}
layer {
  name: "pool2"
  type: "Pooling"
  bottom: "conv2"
  top: "pool2"
  pooling_param {
    pool: MAX
    kernel_size: 2
    stride: 2
    pad: 0
  }
}
layer {
  name: "conv3"
  type: "Convolution"
  bottom: "pool2"
  top: "conv3"
  param {
    lr_mult: 1
  }
  param {
    lr_mult: 2
  }
  convolution_param {
    num_output: 128
    pad: 1
    kernel_size: 3
    stride: 1
    weight_filler {
      type: "gaussian"
      std: 0.1
    }
    bias_filler {
      type: "constant"
      value: 0
    }
  }
}
layer {
  name: "relu3"
  type: "ReLU"
  bottom: "conv3"
  top: "conv3"
}
layer {
  name: "conv4"
  type: "Convolution"
  bottom: "conv3"
  top: "conv4"
  param {
    lr_mult: 1
  }
  param {
    lr_mult: 2
  }
  convolution_param {
    num_output: 128
    pad: 1
    kernel_size: 3
    stride: 1
    weight_filler {
      type: "gaussian"
      std: 0.1
    }
    bias_filler {
      type: "constant"
      value: 0
    }
  }
}
layer {
  name: "relu4"
  type: "ReLU"
  bottom: "conv4"
  top: "conv4"
}
layer {
  name: "pool4"
  type: "Pooling"
  bottom: "conv4"
  top: "pool4"
  pooling_param {
    pool: MAX
    kernel_size: 2
    stride: 2
    pad: 0
  }
}
layer {
  name: "conv5"
  type: "Convolution"
  bottom: "pool4"
  top: "conv5"
  param {
    lr_mult: 1
  }
  param {
    lr_mult: 2
  }
  convolution_param {
    num_output: 256
    pad: 1
    kernel_size: 3
    stride: 1
    weight_filler {
      type: "gaussian"
      std: 0.1
    }
    bias_filler {
      type: "constant"
      value: 0
    }
  }
}
layer {
  name: "relu5"
  type: "ReLU"
  bottom: "conv5"
  top: "conv5"
}
layer {
  name: "conv6"
  type: "Convolution"
  bottom: "conv5"
  top: "conv6"
  param {
    lr_mult: 1
  }
  param {
    lr_mult: 2
  }
  convolution_param {
    num_output: 256
    pad: 1
    kernel_size: 3
    stride: 1
    weight_filler {
      type: "gaussian"
      std: 0.1
    }
    bias_filler {
      type: "constant"
      value: 0
    }
  }
}
layer {
  name: "relu6"
  type: "ReLU"
  bottom: "conv6"
  top: "conv6"
}
layer {
  name: "conv7"
  type: "Convolution"
  bottom: "conv6"
  top: "conv7"
  param {
    lr_mult: 1
  }
  param {
    lr_mult: 2
  }
  convolution_param {
    num_output: 256
    pad: 1
    kernel_size: 3
    stride: 1
    weight_filler {
      type: "gaussian"
      std: 0.1
    }
    bias_filler {
      type: "constant"
      value: 0
    }
  }
}
layer {
  name: "relu7"
  type: "ReLU"
  bottom: "conv7"
  top: "conv7"
}
layer {
  name: "conv8"
  type: "Convolution"
  bottom: "conv7"
  top: "conv8"
  param {
    lr_mult: 1
  }
  param {
    lr_mult: 2
  }
  convolution_param {
    num_output: 256
    pad: 0
    kernel_size: 1
    stride: 1
    weight_filler {
      type: "gaussian"
      std: 0.1
    }
    bias_filler {
      type: "constant"
      value: 0
    }
  }
}
layer {
  name: "relu8"
  type: "ReLU"
  bottom: "conv8"
  top: "conv8"
}
layer {
  name: "pool8"
  type: "Pooling"
  bottom: "conv8"
  top: "pool8"
  pooling_param {
    pool: MAX
    kernel_size: 2
    stride: 2
    pad: 0
  }
}
layer {
  name: "fc65"
  type: "InnerProduct"
  bottom: "pool8"
  top: "fc65"
  inner_product_param {
    num_output: 1024
    weight_filler {
      type: "gaussian"
      std: 0.0009765625
    }
    bias_filler {
      type: "constant"
      value: 0.1
    }
  }
}
layer {
  name: "relu65"
  type: "ReLU"
  bottom: "fc65"
  top: "fc65"
}
layer {
  name: "drop65"
  type: "Dropout"
  bottom: "fc65"
  top: "fc65"
  dropout_param {
    dropout_ratio: 0.1
  }
}
layer {
  name: "fc66"
  type: "InnerProduct"
  bottom: "fc65"
  top: "fc66"
  inner_product_param {
    num_output: 1024
    weight_filler {
      type: "gaussian"
      std: 0.0009765625
    }
    bias_filler {
      type: "constant"
      value: 0.1
    }
  }
}
layer {
  name: "relu66"
  type: "ReLU"
  bottom: "fc66"
  top: "fc66"
}
layer {
  name: "drop66"
  type: "Dropout"
  bottom: "fc66"
  top: "fc66"
  dropout_param {
    dropout_ratio: 0.5
  }
}
layer {
  name: "fc100"
  type: "InnerProduct"
  bottom: "fc66"
  top: "fc100"
  inner_product_param {
    num_output: 62
    weight_filler {
      type: "gaussian"
      std: 0.1
    }
    bias_filler {
      type: "constant"
      value: 0
    }
  }
}
layer {
  name: "loss"
  type: "SoftmaxWithLoss"
  bottom: "fc100"
  bottom: "label"
  top: "loss"
}
layer {
  name: "acc"
  type: "Accuracy"
  bottom: "fc100"
  bottom: "label"
  top: "acc"
  include {
    phase: TEST
  }
}
I1029 14:14:20.361546  4958 layer_factory.hpp:77] Creating layer face
I1029 14:14:20.361599  4958 db_lmdb.cpp:35] Opened lmdb /home/ljf/caffe-master/examples/ljftest_alphabet_VggNet/val_lmdb
I1029 14:14:20.361610  4958 net.cpp:84] Creating Layer face
I1029 14:14:20.361613  4958 net.cpp:380] face -> data
I1029 14:14:20.361618  4958 net.cpp:380] face -> label
I1029 14:14:20.361701  4958 data_layer.cpp:45] output data size: 100,3,32,32
I1029 14:14:20.365664  4958 net.cpp:122] Setting up face
I1029 14:14:20.365705  4958 net.cpp:129] Top shape: 100 3 32 32 (307200)
I1029 14:14:20.365728  4958 net.cpp:129] Top shape: 100 (100)
I1029 14:14:20.365731  4958 net.cpp:137] Memory required for data: 1229200
I1029 14:14:20.365736  4958 layer_factory.hpp:77] Creating layer label_face_1_split
I1029 14:14:20.365746  4958 net.cpp:84] Creating Layer label_face_1_split
I1029 14:14:20.365751  4958 net.cpp:406] label_face_1_split <- label
I1029 14:14:20.365756  4958 net.cpp:380] label_face_1_split -> label_face_1_split_0
I1029 14:14:20.365763  4958 net.cpp:380] label_face_1_split -> label_face_1_split_1
I1029 14:14:20.365799  4958 net.cpp:122] Setting up label_face_1_split
I1029 14:14:20.365816  4958 net.cpp:129] Top shape: 100 (100)
I1029 14:14:20.365818  4958 net.cpp:129] Top shape: 100 (100)
I1029 14:14:20.365820  4958 net.cpp:137] Memory required for data: 1230000
I1029 14:14:20.365821  4958 layer_factory.hpp:77] Creating layer conv1
I1029 14:14:20.365845  4958 net.cpp:84] Creating Layer conv1
I1029 14:14:20.365849  4958 net.cpp:406] conv1 <- data
I1029 14:14:20.365851  4958 net.cpp:380] conv1 -> conv1
I1029 14:14:20.366798  4958 net.cpp:122] Setting up conv1
I1029 14:14:20.366808  4958 net.cpp:129] Top shape: 100 64 32 32 (6553600)
I1029 14:14:20.366811  4958 net.cpp:137] Memory required for data: 27444400
I1029 14:14:20.366817  4958 layer_factory.hpp:77] Creating layer relu1
I1029 14:14:20.366822  4958 net.cpp:84] Creating Layer relu1
I1029 14:14:20.366823  4958 net.cpp:406] relu1 <- conv1
I1029 14:14:20.366827  4958 net.cpp:367] relu1 -> conv1 (in-place)
I1029 14:14:20.366966  4958 net.cpp:122] Setting up relu1
I1029 14:14:20.366972  4958 net.cpp:129] Top shape: 100 64 32 32 (6553600)
I1029 14:14:20.366974  4958 net.cpp:137] Memory required for data: 53658800
I1029 14:14:20.366976  4958 layer_factory.hpp:77] Creating layer conv2
I1029 14:14:20.366982  4958 net.cpp:84] Creating Layer conv2
I1029 14:14:20.366984  4958 net.cpp:406] conv2 <- conv1
I1029 14:14:20.366988  4958 net.cpp:380] conv2 -> conv2
I1029 14:14:20.368090  4958 net.cpp:122] Setting up conv2
I1029 14:14:20.368098  4958 net.cpp:129] Top shape: 100 64 32 32 (6553600)
I1029 14:14:20.368100  4958 net.cpp:137] Memory required for data: 79873200
I1029 14:14:20.368109  4958 layer_factory.hpp:77] Creating layer relu2
I1029 14:14:20.368113  4958 net.cpp:84] Creating Layer relu2
I1029 14:14:20.368114  4958 net.cpp:406] relu2 <- conv2
I1029 14:14:20.368118  4958 net.cpp:367] relu2 -> conv2 (in-place)
I1029 14:14:20.368257  4958 net.cpp:122] Setting up relu2
I1029 14:14:20.368263  4958 net.cpp:129] Top shape: 100 64 32 32 (6553600)
I1029 14:14:20.368265  4958 net.cpp:137] Memory required for data: 106087600
I1029 14:14:20.368266  4958 layer_factory.hpp:77] Creating layer pool2
I1029 14:14:20.368271  4958 net.cpp:84] Creating Layer pool2
I1029 14:14:20.368273  4958 net.cpp:406] pool2 <- conv2
I1029 14:14:20.368276  4958 net.cpp:380] pool2 -> pool2
I1029 14:14:20.368319  4958 net.cpp:122] Setting up pool2
I1029 14:14:20.368324  4958 net.cpp:129] Top shape: 100 64 16 16 (1638400)
I1029 14:14:20.368326  4958 net.cpp:137] Memory required for data: 112641200
I1029 14:14:20.368329  4958 layer_factory.hpp:77] Creating layer conv3
I1029 14:14:20.368333  4958 net.cpp:84] Creating Layer conv3
I1029 14:14:20.368350  4958 net.cpp:406] conv3 <- pool2
I1029 14:14:20.368352  4958 net.cpp:380] conv3 -> conv3
I1029 14:14:20.369726  4958 net.cpp:122] Setting up conv3
I1029 14:14:20.369735  4958 net.cpp:129] Top shape: 100 128 16 16 (3276800)
I1029 14:14:20.369736  4958 net.cpp:137] Memory required for data: 125748400
I1029 14:14:20.369741  4958 layer_factory.hpp:77] Creating layer relu3
I1029 14:14:20.369748  4958 net.cpp:84] Creating Layer relu3
I1029 14:14:20.369750  4958 net.cpp:406] relu3 <- conv3
I1029 14:14:20.369753  4958 net.cpp:367] relu3 -> conv3 (in-place)
I1029 14:14:20.369900  4958 net.cpp:122] Setting up relu3
I1029 14:14:20.369905  4958 net.cpp:129] Top shape: 100 128 16 16 (3276800)
I1029 14:14:20.369907  4958 net.cpp:137] Memory required for data: 138855600
I1029 14:14:20.369910  4958 layer_factory.hpp:77] Creating layer conv4
I1029 14:14:20.369935  4958 net.cpp:84] Creating Layer conv4
I1029 14:14:20.369938  4958 net.cpp:406] conv4 <- conv3
I1029 14:14:20.369942  4958 net.cpp:380] conv4 -> conv4
I1029 14:14:20.372381  4958 net.cpp:122] Setting up conv4
I1029 14:14:20.372408  4958 net.cpp:129] Top shape: 100 128 16 16 (3276800)
I1029 14:14:20.372411  4958 net.cpp:137] Memory required for data: 151962800
I1029 14:14:20.372421  4958 layer_factory.hpp:77] Creating layer relu4
I1029 14:14:20.372431  4958 net.cpp:84] Creating Layer relu4
I1029 14:14:20.372434  4958 net.cpp:406] relu4 <- conv4
I1029 14:14:20.372440  4958 net.cpp:367] relu4 -> conv4 (in-place)
I1029 14:14:20.372859  4958 net.cpp:122] Setting up relu4
I1029 14:14:20.372884  4958 net.cpp:129] Top shape: 100 128 16 16 (3276800)
I1029 14:14:20.372887  4958 net.cpp:137] Memory required for data: 165070000
I1029 14:14:20.372889  4958 layer_factory.hpp:77] Creating layer pool4
I1029 14:14:20.372900  4958 net.cpp:84] Creating Layer pool4
I1029 14:14:20.372902  4958 net.cpp:406] pool4 <- conv4
I1029 14:14:20.372905  4958 net.cpp:380] pool4 -> pool4
I1029 14:14:20.372961  4958 net.cpp:122] Setting up pool4
I1029 14:14:20.372964  4958 net.cpp:129] Top shape: 100 128 8 8 (819200)
I1029 14:14:20.372982  4958 net.cpp:137] Memory required for data: 168346800
I1029 14:14:20.372983  4958 layer_factory.hpp:77] Creating layer conv5
I1029 14:14:20.372993  4958 net.cpp:84] Creating Layer conv5
I1029 14:14:20.372995  4958 net.cpp:406] conv5 <- pool4
I1029 14:14:20.373000  4958 net.cpp:380] conv5 -> conv5
I1029 14:14:20.376725  4958 net.cpp:122] Setting up conv5
I1029 14:14:20.376745  4958 net.cpp:129] Top shape: 100 256 8 8 (1638400)
I1029 14:14:20.376747  4958 net.cpp:137] Memory required for data: 174900400
I1029 14:14:20.376762  4958 layer_factory.hpp:77] Creating layer relu5
I1029 14:14:20.376770  4958 net.cpp:84] Creating Layer relu5
I1029 14:14:20.376772  4958 net.cpp:406] relu5 <- conv5
I1029 14:14:20.376777  4958 net.cpp:367] relu5 -> conv5 (in-place)
I1029 14:14:20.377109  4958 net.cpp:122] Setting up relu5
I1029 14:14:20.377117  4958 net.cpp:129] Top shape: 100 256 8 8 (1638400)
I1029 14:14:20.377118  4958 net.cpp:137] Memory required for data: 181454000
I1029 14:14:20.377121  4958 layer_factory.hpp:77] Creating layer conv6
I1029 14:14:20.377131  4958 net.cpp:84] Creating Layer conv6
I1029 14:14:20.377133  4958 net.cpp:406] conv6 <- conv5
I1029 14:14:20.377138  4958 net.cpp:380] conv6 -> conv6
I1029 14:14:20.382354  4958 net.cpp:122] Setting up conv6
I1029 14:14:20.382364  4958 net.cpp:129] Top shape: 100 256 8 8 (1638400)
I1029 14:14:20.382366  4958 net.cpp:137] Memory required for data: 188007600
I1029 14:14:20.382370  4958 layer_factory.hpp:77] Creating layer relu6
I1029 14:14:20.382390  4958 net.cpp:84] Creating Layer relu6
I1029 14:14:20.382392  4958 net.cpp:406] relu6 <- conv6
I1029 14:14:20.382395  4958 net.cpp:367] relu6 -> conv6 (in-place)
I1029 14:14:20.382524  4958 net.cpp:122] Setting up relu6
I1029 14:14:20.382530  4958 net.cpp:129] Top shape: 100 256 8 8 (1638400)
I1029 14:14:20.382532  4958 net.cpp:137] Memory required for data: 194561200
I1029 14:14:20.382534  4958 layer_factory.hpp:77] Creating layer conv7
I1029 14:14:20.382541  4958 net.cpp:84] Creating Layer conv7
I1029 14:14:20.382544  4958 net.cpp:406] conv7 <- conv6
I1029 14:14:20.382549  4958 net.cpp:380] conv7 -> conv7
I1029 14:14:20.387866  4958 net.cpp:122] Setting up conv7
I1029 14:14:20.387876  4958 net.cpp:129] Top shape: 100 256 8 8 (1638400)
I1029 14:14:20.387878  4958 net.cpp:137] Memory required for data: 201114800
I1029 14:14:20.387883  4958 layer_factory.hpp:77] Creating layer relu7
I1029 14:14:20.387887  4958 net.cpp:84] Creating Layer relu7
I1029 14:14:20.387889  4958 net.cpp:406] relu7 <- conv7
I1029 14:14:20.387892  4958 net.cpp:367] relu7 -> conv7 (in-place)
I1029 14:14:20.388015  4958 net.cpp:122] Setting up relu7
I1029 14:14:20.388020  4958 net.cpp:129] Top shape: 100 256 8 8 (1638400)
I1029 14:14:20.388022  4958 net.cpp:137] Memory required for data: 207668400
I1029 14:14:20.388023  4958 layer_factory.hpp:77] Creating layer conv8
I1029 14:14:20.388041  4958 net.cpp:84] Creating Layer conv8
I1029 14:14:20.388043  4958 net.cpp:406] conv8 <- conv7
I1029 14:14:20.388046  4958 net.cpp:380] conv8 -> conv8
I1029 14:14:20.389168  4958 net.cpp:122] Setting up conv8
I1029 14:14:20.389176  4958 net.cpp:129] Top shape: 100 256 8 8 (1638400)
I1029 14:14:20.389178  4958 net.cpp:137] Memory required for data: 214222000
I1029 14:14:20.389183  4958 layer_factory.hpp:77] Creating layer relu8
I1029 14:14:20.389185  4958 net.cpp:84] Creating Layer relu8
I1029 14:14:20.389187  4958 net.cpp:406] relu8 <- conv8
I1029 14:14:20.389191  4958 net.cpp:367] relu8 -> conv8 (in-place)
I1029 14:14:20.389327  4958 net.cpp:122] Setting up relu8
I1029 14:14:20.389331  4958 net.cpp:129] Top shape: 100 256 8 8 (1638400)
I1029 14:14:20.389333  4958 net.cpp:137] Memory required for data: 220775600
I1029 14:14:20.389335  4958 layer_factory.hpp:77] Creating layer pool8
I1029 14:14:20.389338  4958 net.cpp:84] Creating Layer pool8
I1029 14:14:20.389340  4958 net.cpp:406] pool8 <- conv8
I1029 14:14:20.389343  4958 net.cpp:380] pool8 -> pool8
I1029 14:14:20.389387  4958 net.cpp:122] Setting up pool8
I1029 14:14:20.389391  4958 net.cpp:129] Top shape: 100 256 4 4 (409600)
I1029 14:14:20.389394  4958 net.cpp:137] Memory required for data: 222414000
I1029 14:14:20.389395  4958 layer_factory.hpp:77] Creating layer fc65
I1029 14:14:20.389400  4958 net.cpp:84] Creating Layer fc65
I1029 14:14:20.389415  4958 net.cpp:406] fc65 <- pool8
I1029 14:14:20.389416  4958 net.cpp:380] fc65 -> fc65
I1029 14:14:20.420279  4958 net.cpp:122] Setting up fc65
I1029 14:14:20.420316  4958 net.cpp:129] Top shape: 100 1024 (102400)
I1029 14:14:20.420320  4958 net.cpp:137] Memory required for data: 222823600
I1029 14:14:20.420334  4958 layer_factory.hpp:77] Creating layer relu65
I1029 14:14:20.420347  4958 net.cpp:84] Creating Layer relu65
I1029 14:14:20.420351  4958 net.cpp:406] relu65 <- fc65
I1029 14:14:20.420356  4958 net.cpp:367] relu65 -> fc65 (in-place)
I1029 14:14:20.420821  4958 net.cpp:122] Setting up relu65
I1029 14:14:20.420830  4958 net.cpp:129] Top shape: 100 1024 (102400)
I1029 14:14:20.420831  4958 net.cpp:137] Memory required for data: 223233200
I1029 14:14:20.420832  4958 layer_factory.hpp:77] Creating layer drop65
I1029 14:14:20.420837  4958 net.cpp:84] Creating Layer drop65
I1029 14:14:20.420840  4958 net.cpp:406] drop65 <- fc65
I1029 14:14:20.420842  4958 net.cpp:367] drop65 -> fc65 (in-place)
I1029 14:14:20.420879  4958 net.cpp:122] Setting up drop65
I1029 14:14:20.420883  4958 net.cpp:129] Top shape: 100 1024 (102400)
I1029 14:14:20.420886  4958 net.cpp:137] Memory required for data: 223642800
I1029 14:14:20.420887  4958 layer_factory.hpp:77] Creating layer fc66
I1029 14:14:20.420892  4958 net.cpp:84] Creating Layer fc66
I1029 14:14:20.420894  4958 net.cpp:406] fc66 <- fc65
I1029 14:14:20.420898  4958 net.cpp:380] fc66 -> fc66
I1029 14:14:20.428553  4958 net.cpp:122] Setting up fc66
I1029 14:14:20.428565  4958 net.cpp:129] Top shape: 100 1024 (102400)
I1029 14:14:20.428566  4958 net.cpp:137] Memory required for data: 224052400
I1029 14:14:20.428586  4958 layer_factory.hpp:77] Creating layer relu66
I1029 14:14:20.428591  4958 net.cpp:84] Creating Layer relu66
I1029 14:14:20.428593  4958 net.cpp:406] relu66 <- fc66
I1029 14:14:20.428597  4958 net.cpp:367] relu66 -> fc66 (in-place)
I1029 14:14:20.428745  4958 net.cpp:122] Setting up relu66
I1029 14:14:20.428751  4958 net.cpp:129] Top shape: 100 1024 (102400)
I1029 14:14:20.428752  4958 net.cpp:137] Memory required for data: 224462000
I1029 14:14:20.428755  4958 layer_factory.hpp:77] Creating layer drop66
I1029 14:14:20.428772  4958 net.cpp:84] Creating Layer drop66
I1029 14:14:20.428774  4958 net.cpp:406] drop66 <- fc66
I1029 14:14:20.428777  4958 net.cpp:367] drop66 -> fc66 (in-place)
I1029 14:14:20.428797  4958 net.cpp:122] Setting up drop66
I1029 14:14:20.428800  4958 net.cpp:129] Top shape: 100 1024 (102400)
I1029 14:14:20.428802  4958 net.cpp:137] Memory required for data: 224871600
I1029 14:14:20.428803  4958 layer_factory.hpp:77] Creating layer fc100
I1029 14:14:20.428831  4958 net.cpp:84] Creating Layer fc100
I1029 14:14:20.428834  4958 net.cpp:406] fc100 <- fc66
I1029 14:14:20.428853  4958 net.cpp:380] fc100 -> fc100
I1029 14:14:20.429342  4958 net.cpp:122] Setting up fc100
I1029 14:14:20.429345  4958 net.cpp:129] Top shape: 100 62 (6200)
I1029 14:14:20.429347  4958 net.cpp:137] Memory required for data: 224896400
I1029 14:14:20.429350  4958 layer_factory.hpp:77] Creating layer fc100_fc100_0_split
I1029 14:14:20.429369  4958 net.cpp:84] Creating Layer fc100_fc100_0_split
I1029 14:14:20.429371  4958 net.cpp:406] fc100_fc100_0_split <- fc100
I1029 14:14:20.429375  4958 net.cpp:380] fc100_fc100_0_split -> fc100_fc100_0_split_0
I1029 14:14:20.429378  4958 net.cpp:380] fc100_fc100_0_split -> fc100_fc100_0_split_1
I1029 14:14:20.429404  4958 net.cpp:122] Setting up fc100_fc100_0_split
I1029 14:14:20.429407  4958 net.cpp:129] Top shape: 100 62 (6200)
I1029 14:14:20.429422  4958 net.cpp:129] Top shape: 100 62 (6200)
I1029 14:14:20.429425  4958 net.cpp:137] Memory required for data: 224946000
I1029 14:14:20.429426  4958 layer_factory.hpp:77] Creating layer loss
I1029 14:14:20.429430  4958 net.cpp:84] Creating Layer loss
I1029 14:14:20.429446  4958 net.cpp:406] loss <- fc100_fc100_0_split_0
I1029 14:14:20.429448  4958 net.cpp:406] loss <- label_face_1_split_0
I1029 14:14:20.429452  4958 net.cpp:380] loss -> loss
…
