…
I0815 07:37:47.251096  5607 net.cpp:82] Initializing net from parameters: 
name: "resnet_cifar10"
state {
  phase: TRAIN
  level: 0
  stage: ""
}
layer {
  name: "Data1"
  type: "Data"
  top: "Data1"
  top: "Data2"
  include {
    phase: TRAIN
  }
  transform_param {
    scale: 0.0039215684
    mirror: true
    crop_size: 32
    mean_file: "./examples/ljftest_cifar10_ResNet-110/cifar10_mean.binaryproto"
  }
  data_param {
    source: "./examples/ljftest_cifar10_ResNet/train_lmdb"
    batch_size: 128
    backend: LMDB
  }
  image_data_param {
    shuffle: true
  }
}
layer {
  name: "Convolution1"
  type: "Convolution"
  bottom: "Data1"
  top: "Convolution1"
  param {
    lr_mult: 1
    decay_mult: 1
  }
  param {
    lr_mult: 2
    decay_mult: 0
  }
  convolution_param {
    num_output: 16
    pad: 1
    kernel_size: 3
    stride: 1
    weight_filler {
      type: "msra"
    }
    bias_filler {
      type: "constant"
      value: 0
    }
  }
}
layer {
  name: "BatchNorm1"
  type: "BatchNorm"
  bottom: "Convolution1"
  top: "Convolution1"
  param {
    lr_mult: 0
    decay_mult: 0
  }
  param {
    lr_mult: 0
    decay_mult: 0
  }
  param {
    lr_mult: 0
    decay_mult: 0
  }
  batch_norm_param {
    use_global_stats: false
  }
}
layer {
  name: "Scale1"
  type: "Scale"
  bottom: "Convolution1"
  top: "Convolution1"
  scale_param {
    bias_term: true
  }
}
layer {
  name: "ReLU1"
  type: "ReLU"
  bottom: "Convolution1"
  top: "Convolution1"
}
layer {
  name: "Convolution2"
  type: "Convolution"
  bottom: "Convolution1"
  top: "Convolution2"
  param {
    lr_mult: 1
    decay_mult: 1
  }
  param {
    lr_mult: 2
    decay_mult: 0
  }
  convolution_param {
    num_output: 16
    pad: 1
    kernel_size: 3
    stride: 1
    weight_filler {
      type: "msra"
    }
    bias_filler {
      type: "constant"
      value: 0
    }
  }
}
layer {
  name: "BatchNorm2"
  type: "BatchNorm"
  bottom: "Convolution2"
  top: "Convolution2"
  param {
    lr_mult: 0
    decay_mult: 0
  }
  param {
    lr_mult: 0
    decay_mult: 0
  }
  param {
    lr_mult: 0
    decay_mult: 0
  }
  batch_norm_param {
    use_global_stats: false
  }
}
layer {
  name: "Scale2"
  type: "Scale"
  bottom: "Convolution2"
  top: "Convolution2"
  scale_param {
    bias_term: true
  }
}
layer {
  name: "ReLU2"
  type: "ReLU"
  bottom: "Convolution2"
  top: "Convolution2"
}
layer {
  name: "Convolution3"
  type: "Convolution"
  bottom: "Convolution2"
  top: "Convolution3"
  param {
    lr_mult: 1
    decay_mult: 1
  }
  param {
    lr_mult: 2
    decay_mult: 0
  }
  convolution_param {
    num_output: 16
    pad: 1
    kernel_size: 3
    stride: 1
    weight_filler {
      type: "msra"
    }
    bias_filler {
      type: "constant"
      value: 0
    }
  }
}
layer {
  name: "BatchNorm3"
  type: "BatchNorm"
  bottom: "Convolution3"
  top: "Convolution3"
  param {
    lr_mult: 0
    decay_mult: 0
  }
  param {
    lr_mult: 0
    decay_mult: 0
  }
  param {
    lr_mult: 0
    decay_mult: 0
  }
  batch_norm_param {
    use_global_stats: false
  }
}
layer {
  name: "Scale3"
  type: "Scale"
  bottom: "Convolution3"
  top: "Convolution3"
  scale_param {
    bias_term: true
  }
}
layer {
  name: "Eltwise1"
  type: "Eltwise"
  bottom: "Convolution1"
  bottom: "Convolution3"
  top: "Eltwise1"
  eltwise_param {
    operation: SUM
  }
}
layer {
  name: "ReLU3"
  type: "ReLU"
  bottom: "Eltwise1"
  top: "Eltwise1"
}
layer {
  name: "Convolution4"
  type: "Convolution"
  bottom: "Eltwise1"
  top: "Convolution4"
  param {
    lr_mult: 1
    decay_mult: 1
  }
  param {
    lr_mult: 2
    decay_mult: 0
  }
  convolution_param {
    num_output: 16
    pad: 1
    kernel_size: 3
    stride: 1
    weight_filler {
      type: "msra"
    }
    bias_filler {
      type: "constant"
      value: 0
    }
  }
}
layer {
  name: "BatchNorm4"
  type: "BatchNorm"
  bottom: "Convolution4"
  top: "Convolution4"
  param {
    lr_mult: 0
    decay_mult: 0
  }
  param {
    lr_mult: 0
    decay_mult: 0
  }
  param {
    lr_mult: 0
    decay_mult: 0
  }
  batch_norm_param {
    use_global_stats: false
  }
}
layer {
  name: "Scale4"
  type: "Scale"
  bottom: "Convolution4"
  top: "Convolution4"
  scale_param {
    bias_term: true
  }
}
layer {
  name: "ReLU4"
  type: "ReLU"
  bottom: "Convolution4"
  top: "Convolution4"
}
layer {
  name: "Convolution5"
  type: "Convolution"
  bottom: "Convolution4"
  top: "Convolution5"
  param {
    lr_mult: 1
    decay_mult: 1
  }
  param {
    lr_mult: 2
    decay_mult: 0
  }
  convolution_param {
    num_output: 16
    pad: 1
    kernel_size: 3
    stride: 1
    weight_filler {
      type: "msra"
    }
    bias_filler {
      type: "constant"
      value: 0
    }
  }
}
layer {
  name: "BatchNorm5"
  type: "BatchNorm"
  bottom: "Convolution5"
  top: "Convolution5"
  param {
    lr_mult: 0
    decay_mult: 0
  }
  param {
    lr_mult: 0
    decay_mult: 0
  }
  param {
    lr_mult: 0
    decay_mult: 0
  }
  batch_norm_param {
    use_global_stats: false
  }
}
layer {
  name: "Scale5"
  type: "Scale"
  bottom: "Convolution5"
  top: "Convolution5"
  scale_param {
    bias_term: true
  }
}
layer {
  name: "Eltwise2"
  type: "Eltwise"
  bottom: "Eltwise1"
  bottom: "Convolution5"
  top: "Eltwise2"
  eltwise_param {
    operation: SUM
  }
}
layer {
  name: "ReLU5"
  type: "ReLU"
  bottom: "Eltwise2"
  top: "Eltwise2"
}
layer {
  name: "Convolution6"
  type: "Convolution"
  bottom: "Eltwise2"
  top: "Convolution6"
  param {
    lr_mult: 1
    decay_mult: 1
  }
  param {
    lr_mult: 2
    decay_mult: 0
  }
  convolution_param {
    num_output: 16
    pad: 1
    kernel_size: 3
    stride: 1
    weight_filler {
      type: "msra"
    }
    bias_filler {
      type: "constant"
      value: 0
    }
  }
}
layer {
  name: "BatchNorm6"
  type: "BatchNorm"
  bottom: "Convolution6"
  top: "Convolution6"
  param {
    lr_mult: 0
    decay_mult: 0
  }
  param {
    lr_mult: 0
    decay_mult: 0
  }
  param {
    lr_mult: 0
    decay_mult: 0
  }
  batch_norm_param {
    use_global_stats: false
  }
}
layer {
  name: "Scale6"
  type: "Scale"
  bottom: "Convolution6"
  top: "Convolution6"
  scale_param {
    bias_term: true
  }
}
layer {
  name: "ReLU6"
  type: "ReLU"
  bottom: "Convolution6"
  top: "Convolution6"
}
layer {
  name: "Convolution7"
  type: "Convolution"
  bottom: "Convolution6"
  top: "Convolution7"
  param {
    lr_mult: 1
    decay_mult: 1
  }
  param {
    lr_mult: 2
    decay_mult: 0
  }
  convolution_param {
    num_output: 16
    pad: 1
    kernel_size: 3
    stride: 1
    weight_filler {
      type: "msra"
    }
    bias_filler {
      type: "constant"
      value: 0
    }
  }
}
layer {
  name: "BatchNorm7"
  type: "BatchNorm"
  bottom: "Convolution7"
  top: "Convolution7"
  param {
    lr_mult: 0
    decay_mult: 0
  }
  param {
    lr_mult: 0
    decay_mult: 0
  }
  param {
    lr_mult: 0
    decay_mult: 0
  }
  batch_norm_param {
    use_global_stats: false
  }
}
layer {
  name: "Scale7"
  type: "Scale"
  bottom: "Convolution7"
  top: "Convolution7"
  scale_param {
    bias_term: true
  }
}
layer {
  name: "Eltwise3"
  type: "Eltwise"
  bottom: "Eltwise2"
  bottom: "Convolution7"
  top: "Eltwise3"
  eltwise_param {
    operation: SUM
  }
}
layer {
  name: "ReLU7"
  type: "ReLU"
  bottom: "Eltwise3"
  top: "Eltwise3"
}
layer {
  name: "Convolution8"
  type: "Convolution"
  bottom: "Eltwise3"
  top: "Convolution8"
  param {
    lr_mult: 1
    decay_mult: 1
  }
  param {
    lr_mult: 2
    decay_mult: 0
  }
  convolution_param {
    num_output: 16
    pad: 1
    kernel_size: 3
    stride: 1
    weight_filler {
      type: "msra"
    }
    bias_filler {
      type: "constant"
      value: 0
    }
  }
}
layer {
  name: "BatchNorm8"
  type: "BatchNorm"
  bottom: "Convolution8"
  top: "Convolution8"
  param {
    lr_mult: 0
    decay_mult: 0
  }
  param {
    lr_mult: 0
    decay_mult: 0
  }
  param {
    lr_mult: 0
    decay_mult: 0
  }
  batch_norm_param {
    use_global_stats: false
  }
}
layer {
  name: "Scale8"
  type: "Scale"
  bottom: "Convolution8"
  top: "Convolution8"
  scale_param {
    bias_term: true
  }
}
layer {
  name: "ReLU8"
  type: "ReLU"
  bottom: "Convolution8"
  top: "Convolution8"
}
layer {
  name: "Convolution9"
  type: "Convolution"
  bottom: "Convolution8"
  top: "Convolution9"
  param {
    lr_mult: 1
    decay_mult: 1
  }
  param {
    lr_mult: 2
    decay_mult: 0
  }
  convolution_param {
    num_output: 16
    pad: 1
    kernel_size: 3
    stride: 1
    weight_filler {
      type: "msra"
    }
    bias_filler {
      type: "constant"
      value: 0
    }
  }
}
layer {
  name: "BatchNorm9"
  type: "BatchNorm"
  bottom: "Convolution9"
  top: "Convolution9"
  param {
    lr_mult: 0
    decay_mult: 0
  }
  param {
    lr_mult: 0
    decay_mult: 0
  }
  param {
    lr_mult: 0
    decay_mult: 0
  }
  batch_norm_param {
    use_global_stats: false
  }
}
layer {
  name: "Scale9"
  type: "Scale"
  bottom: "Convolution9"
  top: "Convolution9"
  scale_param {
    bias_term: true
  }
}
layer {
  name: "Eltwise4"
  type: "Eltwise"
  bottom: "Eltwise3"
  bottom: "Convolution9"
  top: "Eltwise4"
  eltwise_param {
    operation: SUM
  }
}
layer {
  name: "ReLU9"
  type: "ReLU"
  bottom: "Eltwise4"
  top: "Eltwise4"
}
layer {
  name: "Convolution10"
  type: "Convolution"
  bottom: "Eltwise4"
  top: "Convolution10"
  param {
    lr_mult: 1
    decay_mult: 1
  }
  param {
    lr_mult: 2
    decay_mult: 0
  }
  convolution_param {
    num_output: 16
    pad: 1
    kernel_size: 3
    stride: 1
    weight_filler {
      type: "msra"
    }
    bias_filler {
      type: "constant"
      value: 0
    }
  }
}
layer {
  name: "BatchNorm10"
  type: "BatchNorm"
  bottom: "Convolution10"
  top: "Convolution10"
  param {
    lr_mult: 0
    decay_mult: 0
  }
  param {
    lr_mult: 0
    decay_mult: 0
  }
  param {
    lr_mult: 0
    decay_mult: 0
  }
  batch_norm_param {
    use_global_stats: false
  }
}
layer {
  name: "Scale10"
  type: "Scale"
  bottom: "Convolution10"
  top: "Convolution10"
  scale_param {
    bias_term: true
  }
}
layer {
  name: "ReLU10"
  type: "ReLU"
  bottom: "Convolution10"
  top: "Convolution10"
}
layer {
  name: "Convolution11"
  type: "Convolution"
  bottom: "Convolution10"
  top: "Convolution11"
  param {
    lr_mult: 1
    decay_mult: 1
  }
  param {
    lr_mult: 2
    decay_mult: 0
  }
  convolution_param {
    num_output: 16
    pad: 1
    kernel_size: 3
    stride: 1
    weight_filler {
      type: "msra"
    }
    bias_filler {
      type: "constant"
      value: 0
    }
  }
}
layer {
  name: "BatchNorm11"
  type: "BatchNorm"
  bottom: "Convolution11"
  top: "Convolution11"
  param {
    lr_mult: 0
    decay_mult: 0
  }
  param {
    lr_mult: 0
    decay_mult: 0
  }
  param {
    lr_mult: 0
    decay_mult: 0
  }
  batch_norm_param {
    use_global_stats: false
  }
}
layer {
  name: "Scale11"
  type: "Scale"
  bottom: "Convolution11"
  top: "Convolution11"
  scale_param {
    bias_term: true
  }
}
layer {
  name: "Eltwise5"
  type: "Eltwise"
  bottom: "Eltwise4"
  bottom: "Convolution11"
  top: "Eltwise5"
  eltwise_param {
    operation: SUM
  }
}
layer {
  name: "ReLU11"
  type: "ReLU"
  bottom: "Eltwise5"
  top: "Eltwise5"
}
layer {
  name: "Convolution12"
  type: "Convolution"
  bottom: "Eltwise5"
  top: "Convolution12"
  param {
    lr_mult: 1
    decay_mult: 1
  }
  param {
    lr_mult: 2
    decay_mult: 0
  }
  convolution_param {
    num_output: 16
    pad: 1
    kernel_size: 3
    stride: 1
    weight_filler {
      type: "msra"
    }
    bias_filler {
      type: "constant"
      value: 0
    }
  }
}
layer {
  name: "BatchNorm12"
  type: "BatchNorm"
  bottom: "Convolution12"
  top: "Convolution12"
  param {
    lr_mult: 0
    decay_mult: 0
  }
  param {
    lr_mult: 0
    decay_mult: 0
  }
  param {
    lr_mult: 0
    decay_mult: 0
  }
  batch_norm_param {
    use_global_stats: false
  }
}
layer {
  name: "Scale12"
  type: "Scale"
  bottom: "Convolution12"
  top: "Convolution12"
  scale_param {
    bias_term: true
  }
}
layer {
  name: "ReLU12"
  type: "ReLU"
  bottom: "Convolution12"
  top: "Convolution12"
}
layer {
  name: "Convolution13"
  type: "Convolution"
  bottom: "Convolution12"
  top: "Convolution13"
  param {
    lr_mult: 1
    decay_mult: 1
  }
  param {
    lr_mult: 2
    decay_mult: 0
  }
  convolution_param {
    num_output: 16
    pad: 1
    kernel_size: 3
    stride: 1
    weight_filler {
      type: "msra"
    }
    bias_filler {
      type: "constant"
      value: 0
    }
  }
}
layer {
  name: "BatchNorm13"
  type: "BatchNorm"
  bottom: "Convolution13"
  top: "Convolution13"
  param {
    lr_mult: 0
    decay_mult: 0
  }
  param {
    lr_mult: 0
    decay_mult: 0
  }
  param {
    lr_mult: 0
    decay_mult: 0
  }
  batch_norm_param {
    use_global_stats: false
  }
}
layer {
  name: "Scale13"
  type: "Scale"
  bottom: "Convolution13"
  top: "Convolution13"
  scale_param {
    bias_term: true
  }
}
layer {
  name: "Eltwise6"
  type: "Eltwise"
  bottom: "Eltwise5"
  bottom: "Convolution13"
  top: "Eltwise6"
  eltwise_param {
    operation: SUM
  }
}
layer {
  name: "ReLU13"
  type: "ReLU"
  bottom: "Eltwise6"
  top: "Eltwise6"
}
layer {
  name: "Convolution14"
  type: "Convolution"
  bottom: "Eltwise6"
  top: "Convolution14"
  param {
    lr_mult: 1
    decay_mult: 1
  }
  param {
    lr_mult: 2
    decay_mult: 0
  }
  convolution_param {
    num_output: 16
    pad: 1
    kernel_size: 3
    stride: 1
    weight_filler {
      type: "msra"
    }
    bias_filler {
      type: "constant"
      value: 0
    }
  }
}
layer {
  name: "BatchNorm14"
  type: "BatchNorm"
  bottom: "Convolution14"
  top: "Convolution14"
  param {
    lr_mult: 0
    decay_mult: 0
  }
  param {
    lr_mult: 0
    decay_mult: 0
  }
  param {
    lr_mult: 0
    decay_mult: 0
  }
  batch_norm_param {
    use_global_stats: false
  }
}
layer {
  name: "Scale14"
  type: "Scale"
  bottom: "Convolution14"
  top: "Convolution14"
  scale_param {
    bias_term: true
  }
}
layer {
  name: "ReLU14"
  type: "ReLU"
  bottom: "Convolution14"
  top: "Convolution14"
}
layer {
  name: "Convolution15"
  type: "Convolution"
  bottom: "Convolution14"
  top: "Convolution15"
  param {
    lr_mult: 1
    decay_mult: 1
  }
  param {
    lr_mult: 2
    decay_mult: 0
  }
  convolution_param {
    num_output: 16
    pad: 1
    kernel_size: 3
    stride: 1
    weight_filler {
      type: "msra"
    }
    bias_filler {
      type: "constant"
      value: 0
    }
  }
}
layer {
  name: "BatchNorm15"
  type: "BatchNorm"
  bottom: "Convolution15"
  top: "Convolution15"
  param {
    lr_mult: 0
    decay_mult: 0
  }
  param {
    lr_mult: 0
    decay_mult: 0
  }
  param {
    lr_mult: 0
    decay_mult: 0
  }
  batch_norm_param {
    use_global_stats: false
  }
}
layer {
  name: "Scale15"
  type: "Scale"
  bottom: "Convolution15"
  top: "Convolution15"
  scale_param {
    bias_term: true
  }
}
layer {
  name: "Eltwise7"
  type: "Eltwise"
  bottom: "Eltwise6"
  bottom: "Convolution15"
  top: "Eltwise7"
  eltwise_param {
    operation: SUM
  }
}
layer {
  name: "ReLU15"
  type: "ReLU"
  bottom: "Eltwise7"
  top: "Eltwise7"
}
layer {
  name: "Convolution16"
  type: "Convolution"
  bottom: "Eltwise7"
  top: "Convolution16"
  param {
    lr_mult: 1
    decay_mult: 1
  }
  param {
    lr_mult: 2
    decay_mult: 0
  }
  convolution_param {
    num_output: 16
    pad: 1
    kernel_size: 3
    stride: 1
    weight_filler {
      type: "msra"
    }
    bias_filler {
      type: "constant"
      value: 0
    }
  }
}
layer {
  name: "BatchNorm16"
  type: "BatchNorm"
  bottom: "Convolution16"
  top: "Convolution16"
  param {
    lr_mult: 0
    decay_mult: 0
  }
  param {
    lr_mult: 0
    decay_mult: 0
  }
  param {
    lr_mult: 0
    decay_mult: 0
  }
  batch_norm_param {
    use_global_stats: false
  }
}
layer {
  name: "Scale16"
  type: "Scale"
  bottom: "Convolution16"
  top: "Convolution16"
  scale_param {
    bias_term: true
  }
}
layer {
  name: "ReLU16"
  type: "ReLU"
  bottom: "Convolution16"
  top: "Convolution16"
}
layer {
  name: "Convolution17"
  type: "Convolution"
  bottom: "Convolution16"
  top: "Convolution17"
  param {
    lr_mult: 1
    decay_mult: 1
  }
  param {
    lr_mult: 2
    decay_mult: 0
  }
  convolution_param {
    num_output: 16
    pad: 1
    kernel_size: 3
    stride: 1
    weight_filler {
      type: "msra"
    }
    bias_filler {
      type: "constant"
      value: 0
    }
  }
}
layer {
  name: "BatchNorm17"
  type: "BatchNorm"
  bottom: "Convolution17"
  top: "Convolution17"
  param {
    lr_mult: 0
    decay_mult: 0
  }
  param {
    lr_mult: 0
    decay_mult: 0
  }
  param {
    lr_mult: 0
    decay_mult: 0
  }
  batch_norm_param {
    use_global_stats: false
  }
}
layer {
  name: "Scale17"
  type: "Scale"
  bottom: "Convolution17"
  top: "Convolution17"
  scale_param {
    bias_term: true
  }
}
layer {
  name: "Eltwise8"
  type: "Eltwise"
  bottom: "Eltwise7"
  bottom: "Convolution17"
  top: "Eltwise8"
  eltwise_param {
    operation: SUM
  }
}
layer {
  name: "ReLU17"
  type: "ReLU"
  bottom: "Eltwise8"
  top: "Eltwise8"
}
layer {
  name: "Convolution18"
  type: "Convolution"
  bottom: "Eltwise8"
  top: "Convolution18"
  param {
    lr_mult: 1
    decay_mult: 1
  }
  param {
    lr_mult: 2
    decay_mult: 0
  }
  convolution_param {
    num_output: 16
    pad: 1
    kernel_size: 3
    stride: 1
    weight_filler {
      type: "msra"
    }
    bias_filler {
      type: "constant"
      value: 0
    }
  }
}
layer {
  name: "BatchNorm18"
  type: "BatchNorm"
  bottom: "Convolution18"
  top: "Convolution18"
  param {
    lr_mult: 0
    decay_mult: 0
  }
  param {
    lr_mult: 0
    decay_mult: 0
  }
  param {
    lr_mult: 0
    decay_mult: 0
  }
  batch_norm_param {
    use_global_stats: false
  }
}
layer {
  name: "Scale18"
  type: "Scale"
  bottom: "Convolution18"
  top: "Convolution18"
  scale_param {
    bias_term: true
  }
}
layer {
  name: "ReLU18"
  type: "ReLU"
  bottom: "Convolution18"
  top: "Convolution18"
}
layer {
  name: "Convolution19"
  type: "Convolution"
  bottom: "Convolution18"
  top: "Convolution19"
  param {
    lr_mult: 1
    decay_mult: 1
  }
  param {
    lr_mult: 2
    decay_mult: 0
  }
  convolution_param {
    num_output: 16
    pad: 1
    kernel_size: 3
    stride: 1
    weight_filler {
      type: "msra"
    }
    bias_filler {
      type: "constant"
      value: 0
    }
  }
}
layer {
  name: "BatchNorm19"
  type: "BatchNorm"
  bottom: "Convolution19"
  top: "Convolution19"
  param {
    lr_mult: 0
    decay_mult: 0
  }
  param {
    lr_mult: 0
    decay_mult: 0
  }
  param {
    lr_mult: 0
    decay_mult: 0
  }
  batch_norm_param {
    use_global_stats: false
  }
}
layer {
  name: "Scale19"
  type: "Scale"
  bottom: "Convolution19"
  top: "Convolution19"
  scale_param {
    bias_term: true
  }
}
layer {
  name: "Eltwise9"
  type: "Eltwise"
  bottom: "Eltwise8"
  bottom: "Convolution19"
  top: "Eltwise9"
  eltwise_param {
    operation: SUM
  }
}
layer {
  name: "ReLU19"
  type: "ReLU"
  bottom: "Eltwise9"
  top: "Eltwise9"
}
layer {
  name: "Convolution20"
  type: "Convolution"
  bottom: "Eltwise9"
  top: "Convolution20"
  param {
    lr_mult: 1
    decay_mult: 1
  }
  param {
    lr_mult: 2
    decay_mult: 0
  }
  convolution_param {
    num_output: 16
    pad: 1
    kernel_size: 3
    stride: 1
    weight_filler {
      type: "msra"
    }
    bias_filler {
      type: "constant"
      value: 0
    }
  }
}
layer {
  name: "BatchNorm20"
  type: "BatchNorm"
  bottom: "Convolution20"
  top: "Convolution20"
  param {
    lr_mult: 0
    decay_mult: 0
  }
  param {
    lr_mult: 0
    decay_mult: 0
  }
  param {
    lr_mult: 0
    decay_mult: 0
  }
  batch_norm_param {
    use_global_stats: false
  }
}
layer {
  name: "Scale20"
  type: "Scale"
  bottom: "Convolution20"
  top: "Convolution20"
  scale_param {
    bias_term: true
  }
}
layer {
  name: "ReLU20"
  type: "ReLU"
  bottom: "Convolution20"
  top: "Convolution20"
}
layer {
  name: "Convolution21"
  type: "Convolution"
  bottom: "Convolution20"
  top: "Convolution21"
  param {
    lr_mult: 1
    decay_mult: 1
  }
  param {
    lr_mult: 2
    decay_mult: 0
  }
  convolution_param {
    num_output: 16
    pad: 1
    kernel_size: 3
    stride: 1
    weight_filler {
      type: "msra"
    }
    bias_filler {
      type: "constant"
      value: 0
    }
  }
}
layer {
  name: "BatchNorm21"
  type: "BatchNorm"
  bottom: "Convolution21"
  top: "Convolution21"
  param {
    lr_mult: 0
    decay_mult: 0
  }
  param {
    lr_mult: 0
    decay_mult: 0
  }
  param {
    lr_mult: 0
    decay_mult: 0
  }
  batch_norm_param {
    use_global_stats: false
  }
}
layer {
  name: "Scale21"
  type: "Scale"
  bottom: "Convolution21"
  top: "Convolution21"
  scale_param {
    bias_term: true
  }
}
layer {
  name: "Eltwise10"
  type: "Eltwise"
  bottom: "Eltwise9"
  bottom: "Convolution21"
  top: "Eltwise10"
  eltwise_param {
    operation: SUM
  }
}
layer {
  name: "ReLU21"
  type: "ReLU"
  bottom: "Eltwise10"
  top: "Eltwise10"
}
layer {
  name: "Convolution22"
  type: "Convolution"
  bottom: "Eltwise10"
  top: "Convolution22"
  param {
    lr_mult: 1
    decay_mult: 1
  }
  param {
    lr_mult: 2
    decay_mult: 0
  }
  convolution_param {
    num_output: 16
    pad: 1
    kernel_size: 3
    stride: 1
    weight_filler {
      type: "msra"
    }
    bias_filler {
      type: "constant"
      value: 0
    }
  }
}
layer {
  name: "BatchNorm22"
  type: "BatchNorm"
  bottom: "Convolution22"
  top: "Convolution22"
  param {
    lr_mult: 0
    decay_mult: 0
  }
  param {
    lr_mult: 0
    decay_mult: 0
  }
  param {
    lr_mult: 0
    decay_mult: 0
  }
  batch_norm_param {
    use_global_stats: false
  }
}
layer {
  name: "Scale22"
  type: "Scale"
  bottom: "Convolution22"
  top: "Convolution22"
  scale_param {
    bias_term: true
  }
}
layer {
  name: "ReLU22"
  type: "ReLU"
  bottom: "Convolution22"
  top: "Convolution22"
}
layer {
  name: "Convolution23"
  type: "Convolution"
  bottom: "Convolution22"
  top: "Convolution23"
  param {
    lr_mult: 1
    decay_mult: 1
  }
  param {
    lr_mult: 2
    decay_mult: 0
  }
  convolution_param {
    num_output: 16
    pad: 1
    kernel_size: 3
    stride: 1
    weight_filler {
      type: "msra"
    }
    bias_filler {
      type: "constant"
      value: 0
    }
  }
}
layer {
  name: "BatchNorm23"
  type: "BatchNorm"
  bottom: "Convolution23"
  top: "Convolution23"
  param {
    lr_mult: 0
    decay_mult: 0
  }
  param {
    lr_mult: 0
    decay_mult: 0
  }
  param {
    lr_mult: 0
    decay_mult: 0
  }
  batch_norm_param {
    use_global_stats: false
  }
}
layer {
  name: "Scale23"
  type: "Scale"
  bottom: "Convolution23"
  top: "Convolution23"
  scale_param {
    bias_term: true
  }
}
layer {
  name: "Eltwise11"
  type: "Eltwise"
  bottom: "Eltwise10"
  bottom: "Convolution23"
  top: "Eltwise11"
  eltwise_param {
    operation: SUM
  }
}
layer {
  name: "ReLU23"
  type: "ReLU"
  bottom: "Eltwise11"
  top: "Eltwise11"
}
layer {
  name: "Convolution24"
  type: "Convolution"
  bottom: "Eltwise11"
  top: "Convolution24"
  param {
    lr_mult: 1
    decay_mult: 1
  }
  param {
    lr_mult: 2
    decay_mult: 0
  }
  convolution_param {
    num_output: 16
    pad: 1
    kernel_size: 3
    stride: 1
    weight_filler {
      type: "msra"
    }
    bias_filler {
      type: "constant"
      value: 0
    }
  }
}
layer {
  name: "BatchNorm24"
  type: "BatchNorm"
  bottom: "Convolution24"
  top: "Convolution24"
  param {
    lr_mult: 0
    decay_mult: 0
  }
  param {
    lr_mult: 0
    decay_mult: 0
  }
  param {
    lr_mult: 0
    decay_mult: 0
  }
  batch_norm_param {
    use_global_stats: false
  }
}
layer {
  name: "Scale24"
  type: "Scale"
  bottom: "Convolution24"
  top: "Convolution24"
  scale_param {
    bias_term: true
  }
}
layer {
  name: "ReLU24"
  type: "ReLU"
  bottom: "Convolution24"
  top: "Convolution24"
}
layer {
  name: "Convolution25"
  type: "Convolution"
  bottom: "Convolution24"
  top: "Convolution25"
  param {
    lr_mult: 1
    decay_mult: 1
  }
  param {
    lr_mult: 2
    decay_mult: 0
  }
  convolution_param {
    num_output: 16
    pad: 1
    kernel_size: 3
    stride: 1
    weight_filler {
      type: "msra"
    }
    bias_filler {
      type: "constant"
      value: 0
    }
  }
}
layer {
  name: "BatchNorm25"
  type: "BatchNorm"
  bottom: "Convolution25"
  top: "Convolution25"
  param {
    lr_mult: 0
    decay_mult: 0
  }
  param {
    lr_mult: 0
    decay_mult: 0
  }
  param {
    lr_mult: 0
    decay_mult: 0
  }
  batch_norm_param {
    use_global_stats: false
  }
}
layer {
  name: "Scale25"
  type: "Scale"
  bottom: "Convolution25"
  top: "Convolution25"
  scale_param {
    bias_term: true
  }
}
layer {
  name: "Eltwise12"
  type: "Eltwise"
  bottom: "Eltwise11"
  bottom: "Convolution25"
  top: "Eltwise12"
  eltwise_param {
    operation: SUM
  }
}
layer {
  name: "ReLU25"
  type: "ReLU"
  bottom: "Eltwise12"
  top: "Eltwise12"
}
layer {
  name: "Convolution26"
  type: "Convolution"
  bottom: "Eltwise12"
  top: "Convolution26"
  param {
    lr_mult: 1
    decay_mult: 1
  }
  param {
    lr_mult: 2
    decay_mult: 0
  }
  convolution_param {
    num_output: 16
    pad: 1
    kernel_size: 3
    stride: 1
    weight_filler {
      type: "msra"
    }
    bias_filler {
      type: "constant"
      value: 0
    }
  }
}
layer {
  name: "BatchNorm26"
  type: "BatchNorm"
  bottom: "Convolution26"
  top: "Convolution26"
  param {
    lr_mult: 0
    decay_mult: 0
  }
  param {
    lr_mult: 0
    decay_mult: 0
  }
  param {
    lr_mult: 0
    decay_mult: 0
  }
  batch_norm_param {
    use_global_stats: false
  }
}
layer {
  name: "Scale26"
  type: "Scale"
  bottom: "Convolution26"
  top: "Convolution26"
  scale_param {
    bias_term: true
  }
}
layer {
  name: "ReLU26"
  type: "ReLU"
  bottom: "Convolution26"
  top: "Convolution26"
}
layer {
  name: "Convolution27"
  type: "Convolution"
  bottom: "Convolution26"
  top: "Convolution27"
  param {
    lr_mult: 1
    decay_mult: 1
  }
  param {
    lr_mult: 2
    decay_mult: 0
  }
  convolution_param {
    num_output: 16
    pad: 1
    kernel_size: 3
    stride: 1
    weight_filler {
      type: "msra"
    }
    bias_filler {
      type: "constant"
      value: 0
    }
  }
}
layer {
  name: "BatchNorm27"
  type: "BatchNorm"
  bottom: "Convolution27"
  top: "Convolution27"
  param {
    lr_mult: 0
    decay_mult: 0
  }
  param {
    lr_mult: 0
    decay_mult: 0
  }
  param {
    lr_mult: 0
    decay_mult: 0
  }
  batch_norm_param {
    use_global_stats: false
  }
}
layer {
  name: "Scale27"
  type: "Scale"
  bottom: "Convolution27"
  top: "Convolution27"
  scale_param {
    bias_term: true
  }
}
layer {
  name: "Eltwise13"
  type: "Eltwise"
  bottom: "Eltwise12"
  bottom: "Convolution27"
  top: "Eltwise13"
  eltwise_param {
    operation: SUM
  }
}
layer {
  name: "ReLU27"
  type: "ReLU"
  bottom: "Eltwise13"
  top: "Eltwise13"
}
layer {
  name: "Convolution28"
  type: "Convolution"
  bottom: "Eltwise13"
  top: "Convolution28"
  param {
    lr_mult: 1
    decay_mult: 1
  }
  param {
    lr_mult: 2
    decay_mult: 0
  }
  convolution_param {
    num_output: 16
    pad: 1
    kernel_size: 3
    stride: 1
    weight_filler {
      type: "msra"
    }
    bias_filler {
      type: "constant"
      value: 0
    }
  }
}
layer {
  name: "BatchNorm28"
  type: "BatchNorm"
  bottom: "Convolution28"
  top: "Convolution28"
  param {
    lr_mult: 0
    decay_mult: 0
  }
  param {
    lr_mult: 0
    decay_mult: 0
  }
  param {
    lr_mult: 0
    decay_mult: 0
  }
  batch_norm_param {
    use_global_stats: false
  }
}
layer {
  name: "Scale28"
  type: "Scale"
  bottom: "Convolution28"
  top: "Convolution28"
  scale_param {
    bias_term: true
  }
}
layer {
  name: "ReLU28"
  type: "ReLU"
  bottom: "Convolution28"
  top: "Convolution28"
}
layer {
  name: "Convolution29"
  type: "Convolution"
  bottom: "Convolution28"
  top: "Convolution29"
  param {
    lr_mult: 1
    decay_mult: 1
  }
  param {
    lr_mult: 2
    decay_mult: 0
  }
  convolution_param {
    num_output: 16
    pad: 1
    kernel_size: 3
    stride: 1
    weight_filler {
      type: "msra"
    }
    bias_filler {
      type: "constant"
      value: 0
    }
  }
}
layer {
  name: "BatchNorm29"
  type: "BatchNorm"
  bottom: "Convolution29"
  top: "Convolution29"
  param {
    lr_mult: 0
    decay_mult: 0
  }
  param {
    lr_mult: 0
    decay_mult: 0
  }
  param {
    lr_mult: 0
    decay_mult: 0
  }
  batch_norm_param {
    use_global_stats: false
  }
}
layer {
  name: "Scale29"
  type: "Scale"
  bottom: "Convolution29"
  top: "Convolution29"
  scale_param {
    bias_term: true
  }
}
layer {
  name: "Eltwise14"
  type: "Eltwise"
  bottom: "Eltwise13"
  bottom: "Convolution29"
  top: "Eltwise14"
  eltwise_param {
    operation: SUM
  }
}
layer {
  name: "ReLU29"
  type: "ReLU"
  bottom: "Eltwise14"
  top: "Eltwise14"
}
layer {
  name: "Convolution30"
  type: "Convolution"
  bottom: "Eltwise14"
  top: "Convolution30"
  param {
    lr_mult: 1
    decay_mult: 1
  }
  param {
    lr_mult: 2
    decay_mult: 0
  }
  convolution_param {
    num_output: 16
    pad: 1
    kernel_size: 3
    stride: 1
    weight_filler {
      type: "msra"
    }
    bias_filler {
      type: "constant"
      value: 0
    }
  }
}
layer {
  name: "BatchNorm30"
  type: "BatchNorm"
  bottom: "Convolution30"
  top: "Convolution30"
  param {
    lr_mult: 0
    decay_mult: 0
  }
  param {
    lr_mult: 0
    decay_mult: 0
  }
  param {
    lr_mult: 0
    decay_mult: 0
  }
  batch_norm_param {
    use_global_stats: false
  }
}
layer {
  name: "Scale30"
  type: "Scale"
  bottom: "Convolution30"
  top: "Convolution30"
  scale_param {
    bias_term: true
  }
}
layer {
  name: "ReLU30"
  type: "ReLU"
  bottom: "Convolution30"
  top: "Convolution30"
}
layer {
  name: "Convolution31"
  type: "Convolution"
  bottom: "Convolution30"
  top: "Convolution31"
  param {
    lr_mult: 1
    decay_mult: 1
  }
I0815 07:37:47.253619  5607 layer_factory.hpp:77] Creating layer Data1
I0815 07:37:47.253839  5607 db_lmdb.cpp:35] Opened lmdb ./examples/ljftest_cifar10_ResNet/train_lmdb
I0815 07:37:47.253880  5607 net.cpp:128] Creating Layer Data1
I0815 07:37:47.253890  5607 net.cpp:522] Data1 -> Data1
I0815 07:37:47.253919  5607 net.cpp:522] Data1 -> Data2
I0815 07:37:47.253938  5607 data_transformer.cpp:25] Loading mean file from: ./examples/ljftest_cifar10_ResNet-110/cifar10_mean.binaryproto
I0815 07:37:47.256979  5607 data_layer.cpp:45] output data size: 128,3,32,32
I0815 07:37:47.265477  5607 net.cpp:172] Setting up Data1
I0815 07:37:47.265522  5607 net.cpp:186] Top shape: 128 3 32 32 (393216)
I0815 07:37:47.265529  5607 net.cpp:186] Top shape: 128 (128)
I0815 07:37:47.265537  5607 net.cpp:194] Memory required for data: 1573376
I0815 07:37:47.265550  5607 layer_factory.hpp:77] Creating layer Convolution1
Could not create logging file: No such file or directory
COULD NOT CREATE A LOGGINGFILE 20180815-073747.5607!I0815 07:37:47.265580  5607 net.cpp:128] Creating Layer Convolution1
I0815 07:37:47.265619  5607 net.cpp:558] Convolution1 <- Data1
I0815 07:37:47.265641  5607 net.cpp:522] Convolution1 -> Convolution1
I0815 07:37:48.012606  5607 net.cpp:172] Setting up Convolution1
I0815 07:37:48.012660  5607 net.cpp:186] Top shape: 128 16 32 32 (2097152)
I0815 07:37:48.012665  5607 net.cpp:194] Memory required for data: 9961984
I0815 07:37:48.012706  5607 layer_factory.hpp:77] Creating layer BatchNorm1
I0815 07:37:48.012730  5607 net.cpp:128] Creating Layer BatchNorm1
I0815 07:37:48.012735  5607 net.cpp:558] BatchNorm1 <- Convolution1
I0815 07:37:48.012749  5607 net.cpp:509] BatchNorm1 -> Convolution1 (in-place)
I0815 07:37:48.012976  5607 net.cpp:172] Setting up BatchNorm1
I0815 07:37:48.012989  5607 net.cpp:186] Top shape: 128 16 32 32 (2097152)
I0815 07:37:48.012992  5607 net.cpp:194] Memory required for data: 18350592
I0815 07:37:48.013005  5607 layer_factory.hpp:77] Creating layer Scale1
I0815 07:37:48.013017  5607 net.cpp:128] Creating Layer Scale1
I0815 07:37:48.013021  5607 net.cpp:558] Scale1 <- Convolution1
I0815 07:37:48.013027  5607 net.cpp:509] Scale1 -> Convolution1 (in-place)
I0815 07:37:48.013073  5607 layer_factory.hpp:77] Creating layer Scale1
I0815 07:37:48.013206  5607 net.cpp:172] Setting up Scale1
I0815 07:37:48.013221  5607 net.cpp:186] Top shape: 128 16 32 32 (2097152)
I0815 07:37:48.013226  5607 net.cpp:194] Memory required for data: 26739200
I0815 07:37:48.013233  5607 layer_factory.hpp:77] Creating layer ReLU1
I0815 07:37:48.013242  5607 net.cpp:128] Creating Layer ReLU1
I0815 07:37:48.013247  5607 net.cpp:558] ReLU1 <- Convolution1
I0815 07:37:48.013252  5607 net.cpp:509] ReLU1 -> Convolution1 (in-place)
I0815 07:37:48.013463  5607 net.cpp:172] Setting up ReLU1
I0815 07:37:48.013478  5607 net.cpp:186] Top shape: 128 16 32 32 (2097152)
I0815 07:37:48.013484  5607 net.cpp:194] Memory required for data: 35127808
I0815 07:37:48.013489  5607 layer_factory.hpp:77] Creating layer Convolution1_ReLU1_0_split
I0815 07:37:48.013519  5607 net.cpp:128] Creating Layer Convolution1_ReLU1_0_split
I0815 07:37:48.013523  5607 net.cpp:558] Convolution1_ReLU1_0_split <- Convolution1
I0815 07:37:48.013530  5607 net.cpp:522] Convolution1_ReLU1_0_split -> Convolution1_ReLU1_0_split_0
Could not create logging file: No such file or directory
COULD NOT CREATE A LOGGINGFILE 20180815-073748.5607!I0815 07:37:48.013537  5607 net.cpp:522] Convolution1_ReLU1_0_split -> Convolution1_ReLU1_0_split_1
I0815 07:37:48.013614  5607 net.cpp:172] Setting up Convolution1_ReLU1_0_split
I0815 07:37:48.013628  5607 net.cpp:186] Top shape: 128 16 32 32 (2097152)
I0815 07:37:48.013635  5607 net.cpp:186] Top shape: 128 16 32 32 (2097152)
I0815 07:37:48.013639  5607 net.cpp:194] Memory required for data: 51905024
I0815 07:37:48.013643  5607 layer_factory.hpp:77] Creating layer Convolution2
I0815 07:37:48.013656  5607 net.cpp:128] Creating Layer Convolution2
I0815 07:37:48.013661  5607 net.cpp:558] Convolution2 <- Convolution1_ReLU1_0_split_0
I0815 07:37:48.013669  5607 net.cpp:522] Convolution2 -> Convolution2
I0815 07:37:48.014904  5607 net.cpp:172] Setting up Convolution2
I0815 07:37:48.014938  5607 net.cpp:186] Top shape: 128 16 32 32 (2097152)
I0815 07:37:48.014943  5607 net.cpp:194] Memory required for data: 60293632
I0815 07:37:48.014957  5607 layer_factory.hpp:77] Creating layer BatchNorm2
I0815 07:37:48.014966  5607 net.cpp:128] Creating Layer BatchNorm2
I0815 07:37:48.014971  5607 net.cpp:558] BatchNorm2 <- Convolution2
I0815 07:37:48.014979  5607 net.cpp:509] BatchNorm2 -> Convolution2 (in-place)
I0815 07:37:48.015185  5607 net.cpp:172] Setting up BatchNorm2
I0815 07:37:48.015197  5607 net.cpp:186] Top shape: 128 16 32 32 (2097152)
I0815 07:37:48.015200  5607 net.cpp:194] Memory required for data: 68682240
I0815 07:37:48.015210  5607 layer_factory.hpp:77] Creating layer Scale2
I0815 07:37:48.015218  5607 net.cpp:128] Creating Layer Scale2
I0815 07:37:48.015223  5607 net.cpp:558] Scale2 <- Convolution2
I0815 07:37:48.015228  5607 net.cpp:509] Scale2 -> Convolution2 (in-place)
I0815 07:37:48.015264  5607 layer_factory.hpp:77] Creating layer Scale2
I0815 07:37:48.015377  5607 net.cpp:172] Setting up Scale2
I0815 07:37:48.015389  5607 net.cpp:186] Top shape: 128 16 32 32 (2097152)
I0815 07:37:48.015393  5607 net.cpp:194] Memory required for data: 77070848
I0815 07:37:48.015401  5607 layer_factory.hpp:77] Creating layer ReLU2
I0815 07:37:48.015408  5607 net.cpp:128] Creating Layer ReLU2
I0815 07:37:48.015413  5607 net.cpp:558] ReLU2 <- Convolution2
I0815 07:37:48.015417  5607 net.cpp:509] ReLU2 -> Convolution2 (in-place)
I0815 07:37:48.015622  5607 net.cpp:172] Setting up ReLU2
Could not create logging file: No such file or directory
COULD NOT CREATE A LOGGINGFILE 20180815-073748.5607!I0815 07:37:48.015635  5607 net.cpp:186] Top shape: 128 16 32 32 (2097152)
I0815 07:37:48.015668  5607 net.cpp:194] Memory required for data: 85459456
I0815 07:37:48.015673  5607 layer_factory.hpp:77] Creating layer Convolution3
I0815 07:37:48.015683  5607 net.cpp:128] Creating Layer Convolution3
I0815 07:37:48.015688  5607 net.cpp:558] Convolution3 <- Convolution2
I0815 07:37:48.015696  5607 net.cpp:522] Convolution3 -> Convolution3
I0815 07:37:48.016917  5607 net.cpp:172] Setting up Convolution3
I0815 07:37:48.016966  5607 net.cpp:186] Top shape: 128 16 32 32 (2097152)
I0815 07:37:48.016971  5607 net.cpp:194] Memory required for data: 93848064
I0815 07:37:48.016983  5607 layer_factory.hpp:77] Creating layer BatchNorm3
I0815 07:37:48.016993  5607 net.cpp:128] Creating Layer BatchNorm3
I0815 07:37:48.016997  5607 net.cpp:558] BatchNorm3 <- Convolution3
I0815 07:37:48.017009  5607 net.cpp:509] BatchNorm3 -> Convolution3 (in-place)
I0815 07:37:48.017230  5607 net.cpp:172] Setting up BatchNorm3
I0815 07:37:48.017241  5607 net.cpp:186] Top shape: 128 16 32 32 (2097152)
I0815 07:37:48.017244  5607 net.cpp:194] Memory required for data: 102236672
I0815 07:37:48.017257  5607 layer_factory.hpp:77] Creating layer Scale3
I0815 07:37:48.017264  5607 net.cpp:128] Creating Layer Scale3
I0815 07:37:48.017268  5607 net.cpp:558] Scale3 <- Convolution3
I0815 07:37:48.017274  5607 net.cpp:509] Scale3 -> Convolution3 (in-place)
I0815 07:37:48.017310  5607 layer_factory.hpp:77] Creating layer Scale3
I0815 07:37:48.017431  5607 net.cpp:172] Setting up Scale3
I0815 07:37:48.017443  5607 net.cpp:186] Top shape: 128 16 32 32 (2097152)
I0815 07:37:48.017447  5607 net.cpp:194] Memory required for data: 110625280
I0815 07:37:48.017455  5607 layer_factory.hpp:77] Creating layer Eltwise1
I0815 07:37:48.017464  5607 net.cpp:128] Creating Layer Eltwise1
I0815 07:37:48.017468  5607 net.cpp:558] Eltwise1 <- Convolution1_ReLU1_0_split_1
I0815 07:37:48.017473  5607 net.cpp:558] Eltwise1 <- Convolution3
I0815 07:37:48.017479  5607 net.cpp:522] Eltwise1 -> Eltwise1
I0815 07:37:48.017506  5607 net.cpp:172] Setting up Eltwise1
I0815 07:37:48.017513  5607 net.cpp:186] Top shape: 128 16 32 32 (2097152)
I0815 07:37:48.017518  5607 net.cpp:194] Memory required for data: 119013888
Could not create logging file: No such file or directory
COULD NOT CREATE A LOGGINGFILE 20180815-073748.5607!I0815 07:37:48.017522  5607 layer_factory.hpp:77] Creating layer ReLU3
I0815 07:37:48.017545  5607 net.cpp:128] Creating Layer ReLU3
I0815 07:37:48.017549  5607 net.cpp:558] ReLU3 <- Eltwise1
I0815 07:37:48.017555  5607 net.cpp:509] ReLU3 -> Eltwise1 (in-place)
I0815 07:37:48.017982  5607 net.cpp:172] Setting up ReLU3
I0815 07:37:48.018003  5607 net.cpp:186] Top shape: 128 16 32 32 (2097152)
I0815 07:37:48.018008  5607 net.cpp:194] Memory required for data: 127402496
I0815 07:37:48.018013  5607 layer_factory.hpp:77] Creating layer Eltwise1_ReLU3_0_split
I0815 07:37:48.018021  5607 net.cpp:128] Creating Layer Eltwise1_ReLU3_0_split
I0815 07:37:48.018026  5607 net.cpp:558] Eltwise1_ReLU3_0_split <- Eltwise1
I0815 07:37:48.018033  5607 net.cpp:522] Eltwise1_ReLU3_0_split -> Eltwise1_ReLU3_0_split_0
I0815 07:37:48.018043  5607 net.cpp:522] Eltwise1_ReLU3_0_split -> Eltwise1_ReLU3_0_split_1
I0815 07:37:48.018087  5607 net.cpp:172] Setting up Eltwise1_ReLU3_0_split
I0815 07:37:48.018095  5607 net.cpp:186] Top shape: 128 16 32 32 (2097152)
I0815 07:37:48.018101  5607 net.cpp:186] Top shape: 128 16 32 32 (2097152)
I0815 07:37:48.018105  5607 net.cpp:194] Memory required for data: 144179712
I0815 07:37:48.018110  5607 layer_factory.hpp:77] Creating layer Convolution4
I0815 07:37:48.018121  5607 net.cpp:128] Creating Layer Convolution4
I0815 07:37:48.018126  5607 net.cpp:558] Convolution4 <- Eltwise1_ReLU3_0_split_0
I0815 07:37:48.018133  5607 net.cpp:522] Convolution4 -> Convolution4
I0815 07:37:48.019346  5607 net.cpp:172] Setting up Convolution4
I0815 07:37:48.019371  5607 net.cpp:186] Top shape: 128 16 32 32 (2097152)
I0815 07:37:48.019376  5607 net.cpp:194] Memory required for data: 152568320
I0815 07:37:48.019402  5607 layer_factory.hpp:77] Creating layer BatchNorm4
I0815 07:37:48.019412  5607 net.cpp:128] Creating Layer BatchNorm4
I0815 07:37:48.019417  5607 net.cpp:558] BatchNorm4 <- Convolution4
I0815 07:37:48.019424  5607 net.cpp:509] BatchNorm4 -> Convolution4 (in-place)
I0815 07:37:48.019665  5607 net.cpp:172] Setting up BatchNorm4
I0815 07:37:48.019675  5607 net.cpp:186] Top shape: 128 16 32 32 (2097152)
I0815 07:37:48.019680  5607 net.cpp:194] Memory required for data: 160956928
I0815 07:37:48.019690  5607 layer_factory.hpp:77] Creating layer Scale4
I0815 07:37:48.019697  5607 net.cpp:128] Creating Layer Scale4
Could not create logging file: No such file or directory
COULD NOT CREATE A LOGGINGFILE 20180815-073748.5607!I0815 07:37:48.019702  5607 net.cpp:558] Scale4 <- Convolution4
I0815 07:37:48.019726  5607 net.cpp:509] Scale4 -> Convolution4 (in-place)
I0815 07:37:48.019767  5607 layer_factory.hpp:77] Creating layer Scale4
I0815 07:37:48.019887  5607 net.cpp:172] Setting up Scale4
I0815 07:37:48.019896  5607 net.cpp:186] Top shape: 128 16 32 32 (2097152)
I0815 07:37:48.019899  5607 net.cpp:194] Memory required for data: 169345536
I0815 07:37:48.019907  5607 layer_factory.hpp:77] Creating layer ReLU4
I0815 07:37:48.019913  5607 net.cpp:128] Creating Layer ReLU4
I0815 07:37:48.019917  5607 net.cpp:558] ReLU4 <- Convolution4
I0815 07:37:48.019923  5607 net.cpp:509] ReLU4 -> Convolution4 (in-place)
I0815 07:37:48.020164  5607 net.cpp:172] Setting up ReLU4
I0815 07:37:48.020179  5607 net.cpp:186] Top shape: 128 16 32 32 (2097152)
I0815 07:37:48.020184  5607 net.cpp:194] Memory required for data: 177734144
I0815 07:37:48.020189  5607 layer_factory.hpp:77] Creating layer Convolution5
I0815 07:37:48.020200  5607 net.cpp:128] Creating Layer Convolution5
I0815 07:37:48.020203  5607 net.cpp:558] Convolution5 <- Convolution4
I0815 07:37:48.020210  5607 net.cpp:522] Convolution5 -> Convolution5
I0815 07:37:48.021442  5607 net.cpp:172] Setting up Convolution5
I0815 07:37:48.021468  5607 net.cpp:186] Top shape: 128 16 32 32 (2097152)
I0815 07:37:48.021473  5607 net.cpp:194] Memory required for data: 186122752
I0815 07:37:48.021486  5607 layer_factory.hpp:77] Creating layer BatchNorm5
I0815 07:37:48.021494  5607 net.cpp:128] Creating Layer BatchNorm5
I0815 07:37:48.021499  5607 net.cpp:558] BatchNorm5 <- Convolution5
I0815 07:37:48.021512  5607 net.cpp:509] BatchNorm5 -> Convolution5 (in-place)
I0815 07:37:48.021731  5607 net.cpp:172] Setting up BatchNorm5
I0815 07:37:48.021741  5607 net.cpp:186] Top shape: 128 16 32 32 (2097152)
I0815 07:37:48.021745  5607 net.cpp:194] Memory required for data: 194511360
I0815 07:37:48.021759  5607 layer_factory.hpp:77] Creating layer Scale5
I0815 07:37:48.021765  5607 net.cpp:128] Creating Layer Scale5
I0815 07:37:48.021770  5607 net.cpp:558] Scale5 <- Convolution5
I0815 07:37:48.021776  5607 net.cpp:509] Scale5 -> Convolution5 (in-place)
I0815 07:37:48.021813  5607 layer_factory.hpp:77] Creating layer Scale5
Could not create logging file: No such file or directory
COULD NOT CREATE A LOGGINGFILE 20180815-073748.5607!I0815 07:37:48.021939  5607 net.cpp:172] Setting up Scale5
I0815 07:37:48.021965  5607 net.cpp:186] Top shape: 128 16 32 32 (2097152)
I0815 07:37:48.021970  5607 net.cpp:194] Memory required for data: 202899968
I0815 07:37:48.021977  5607 layer_factory.hpp:77] Creating layer Eltwise2
I0815 07:37:48.021984  5607 net.cpp:128] Creating Layer Eltwise2
I0815 07:37:48.021989  5607 net.cpp:558] Eltwise2 <- Eltwise1_ReLU3_0_split_1
I0815 07:37:48.021994  5607 net.cpp:558] Eltwise2 <- Convolution5
I0815 07:37:48.022001  5607 net.cpp:522] Eltwise2 -> Eltwise2
I0815 07:37:48.022025  5607 net.cpp:172] Setting up Eltwise2
I0815 07:37:48.022035  5607 net.cpp:186] Top shape: 128 16 32 32 (2097152)
I0815 07:37:48.022039  5607 net.cpp:194] Memory required for data: 211288576
I0815 07:37:48.022043  5607 layer_factory.hpp:77] Creating layer ReLU5
I0815 07:37:48.022049  5607 net.cpp:128] Creating Layer ReLU5
I0815 07:37:48.022054  5607 net.cpp:558] ReLU5 <- Eltwise2
I0815 07:37:48.022060  5607 net.cpp:509] ReLU5 -> Eltwise2 (in-place)
I0815 07:37:48.022302  5607 net.cpp:172] Setting up ReLU5
I0815 07:37:48.022315  5607 net.cpp:186] Top shape: 128 16 32 32 (2097152)
I0815 07:37:48.022320  5607 net.cpp:194] Memory required for data: 219677184
I0815 07:37:48.022325  5607 layer_factory.hpp:77] Creating layer Eltwise2_ReLU5_0_split
I0815 07:37:48.022331  5607 net.cpp:128] Creating Layer Eltwise2_ReLU5_0_split
I0815 07:37:48.022336  5607 net.cpp:558] Eltwise2_ReLU5_0_split <- Eltwise2
I0815 07:37:48.022343  5607 net.cpp:522] Eltwise2_ReLU5_0_split -> Eltwise2_ReLU5_0_split_0
I0815 07:37:48.022351  5607 net.cpp:522] Eltwise2_ReLU5_0_split -> Eltwise2_ReLU5_0_split_1
I0815 07:37:48.022397  5607 net.cpp:172] Setting up Eltwise2_ReLU5_0_split
I0815 07:37:48.022405  5607 net.cpp:186] Top shape: 128 16 32 32 (2097152)
I0815 07:37:48.022411  5607 net.cpp:186] Top shape: 128 16 32 32 (2097152)
I0815 07:37:48.022415  5607 net.cpp:194] Memory required for data: 236454400
I0815 07:37:48.022419  5607 layer_factory.hpp:77] Creating layer Convolution6
I0815 07:37:48.022430  5607 net.cpp:128] Creating Layer Convolution6
I0815 07:37:48.022436  5607 net.cpp:558] Convolution6 <- Eltwise2_ReLU5_0_split_0
I0815 07:37:48.022444  5607 net.cpp:522] Convolution6 -> Convolution6
I0815 07:37:48.023617  5607 net.cpp:172] Setting up Convolution6
Could not create logging file: No such file or directory
COULD NOT CREATE A LOGGINGFILE 20180815-073748.5607!I0815 07:37:48.023644  5607 net.cpp:186] Top shape: 128 16 32 32 (2097152)
I0815 07:37:48.023669  5607 net.cpp:194] Memory required for data: 244843008
I0815 07:37:48.023684  5607 layer_factory.hpp:77] Creating layer BatchNorm6
I0815 07:37:48.023692  5607 net.cpp:128] Creating Layer BatchNorm6
I0815 07:37:48.023697  5607 net.cpp:558] BatchNorm6 <- Convolution6
I0815 07:37:48.023705  5607 net.cpp:509] BatchNorm6 -> Convolution6 (in-place)
I0815 07:37:48.023926  5607 net.cpp:172] Setting up BatchNorm6
I0815 07:37:48.023936  5607 net.cpp:186] Top shape: 128 16 32 32 (2097152)
I0815 07:37:48.023939  5607 net.cpp:194] Memory required for data: 253231616
I0815 07:37:48.023949  5607 layer_factory.hpp:77] Creating layer Scale6
I0815 07:37:48.023957  5607 net.cpp:128] Creating Layer Scale6
I0815 07:37:48.023962  5607 net.cpp:558] Scale6 <- Convolution6
I0815 07:37:48.023967  5607 net.cpp:509] Scale6 -> Convolution6 (in-place)
I0815 07:37:48.024003  5607 layer_factory.hpp:77] Creating layer Scale6
I0815 07:37:48.024128  5607 net.cpp:172] Setting up Scale6
I0815 07:37:48.024138  5607 net.cpp:186] Top shape: 128 16 32 32 (2097152)
I0815 07:37:48.024142  5607 net.cpp:194] Memory required for data: 261620224
I0815 07:37:48.024149  5607 layer_factory.hpp:77] Creating layer ReLU6
I0815 07:37:48.024157  5607 net.cpp:128] Creating Layer ReLU6
I0815 07:37:48.024160  5607 net.cpp:558] ReLU6 <- Convolution6
I0815 07:37:48.024166  5607 net.cpp:509] ReLU6 -> Convolution6 (in-place)
I0815 07:37:48.024618  5607 net.cpp:172] Setting up ReLU6
I0815 07:37:48.024641  5607 net.cpp:186] Top shape: 128 16 32 32 (2097152)
I0815 07:37:48.024644  5607 net.cpp:194] Memory required for data: 270008832
I0815 07:37:48.024649  5607 layer_factory.hpp:77] Creating layer Convolution7
I0815 07:37:48.024662  5607 net.cpp:128] Creating Layer Convolution7
I0815 07:37:48.024668  5607 net.cpp:558] Convolution7 <- Convolution6
I0815 07:37:48.024677  5607 net.cpp:522] Convolution7 -> Convolution7
I0815 07:37:48.025887  5607 net.cpp:172] Setting up Convolution7
I0815 07:37:48.025913  5607 net.cpp:186] Top shape: 128 16 32 32 (2097152)
I0815 07:37:48.025918  5607 net.cpp:194] Memory required for data: 278397440
I0815 07:37:48.025933  5607 layer_factory.hpp:77] Creating layer BatchNorm7
Could not create logging file: No such file or directory
COULD NOT CREATE A LOGGINGFILE 20180815-073748.5607!I0815 07:37:48.025941  5607 net.cpp:128] Creating Layer BatchNorm7
I0815 07:37:48.025969  5607 net.cpp:558] BatchNorm7 <- Convolution7
I0815 07:37:48.025976  5607 net.cpp:509] BatchNorm7 -> Convolution7 (in-place)
I0815 07:37:48.026203  5607 net.cpp:172] Setting up BatchNorm7
I0815 07:37:48.026213  5607 net.cpp:186] Top shape: 128 16 32 32 (2097152)
I0815 07:37:48.026217  5607 net.cpp:194] Memory required for data: 286786048
I0815 07:37:48.026226  5607 layer_factory.hpp:77] Creating layer Scale7
I0815 07:37:48.026237  5607 net.cpp:128] Creating Layer Scale7
I0815 07:37:48.026243  5607 net.cpp:558] Scale7 <- Convolution7
I0815 07:37:48.026249  5607 net.cpp:509] Scale7 -> Convolution7 (in-place)
I0815 07:37:48.026288  5607 layer_factory.hpp:77] Creating layer Scale7
I0815 07:37:48.026441  5607 net.cpp:172] Setting up Scale7
I0815 07:37:48.026484  5607 net.cpp:186] Top shape: 128 16 32 32 (2097152)
I0815 07:37:48.026491  5607 net.cpp:194] Memory required for data: 295174656
I0815 07:37:48.026500  5607 layer_factory.hpp:77] Creating layer Eltwise3
I0815 07:37:48.026509  5607 net.cpp:128] Creating Layer Eltwise3
I0815 07:37:48.026516  5607 net.cpp:558] Eltwise3 <- Eltwise2_ReLU5_0_split_1
I0815 07:37:48.026521  5607 net.cpp:558] Eltwise3 <- Convolution7
I0815 07:37:48.026527  5607 net.cpp:522] Eltwise3 -> Eltwise3
I0815 07:37:48.026554  5607 net.cpp:172] Setting up Eltwise3
I0815 07:37:48.026563  5607 net.cpp:186] Top shape: 128 16 32 32 (2097152)
I0815 07:37:48.026567  5607 net.cpp:194] Memory required for data: 303563264
I0815 07:37:48.026571  5607 layer_factory.hpp:77] Creating layer ReLU7
I0815 07:37:48.026578  5607 net.cpp:128] Creating Layer ReLU7
I0815 07:37:48.026582  5607 net.cpp:558] ReLU7 <- Eltwise3
I0815 07:37:48.026588  5607 net.cpp:509] ReLU7 -> Eltwise3 (in-place)
I0815 07:37:48.026829  5607 net.cpp:172] Setting up ReLU7
I0815 07:37:48.026840  5607 net.cpp:186] Top shape: 128 16 32 32 (2097152)
I0815 07:37:48.026844  5607 net.cpp:194] Memory required for data: 311951872
I0815 07:37:48.026849  5607 layer_factory.hpp:77] Creating layer Eltwise3_ReLU7_0_split
I0815 07:37:48.026856  5607 net.cpp:128] Creating Layer Eltwise3_ReLU7_0_split
I0815 07:37:48.026860  5607 net.cpp:558] Eltwise3_ReLU7_0_split <- Eltwise3
Could not create logging file: No such file or directory
COULD NOT CREATE A LOGGINGFILE 20180815-073748.5607!I0815 07:37:48.026867  5607 net.cpp:522] Eltwise3_ReLU7_0_split -> Eltwise3_ReLU7_0_split_0
I0815 07:37:48.026892  5607 net.cpp:522] Eltwise3_ReLU7_0_split -> Eltwise3_ReLU7_0_split_1
I0815 07:37:48.026947  5607 net.cpp:172] Setting up Eltwise3_ReLU7_0_split
I0815 07:37:48.026957  5607 net.cpp:186] Top shape: 128 16 32 32 (2097152)
I0815 07:37:48.026963  5607 net.cpp:186] Top shape: 128 16 32 32 (2097152)
I0815 07:37:48.026968  5607 net.cpp:194] Memory required for data: 328729088
I0815 07:37:48.026971  5607 layer_factory.hpp:77] Creating layer Convolution8
I0815 07:37:48.026981  5607 net.cpp:128] Creating Layer Convolution8
I0815 07:37:48.026986  5607 net.cpp:558] Convolution8 <- Eltwise3_ReLU7_0_split_0
I0815 07:37:48.026993  5607 net.cpp:522] Convolution8 -> Convolution8
I0815 07:37:48.028275  5607 net.cpp:172] Setting up Convolution8
I0815 07:37:48.028301  5607 net.cpp:186] Top shape: 128 16 32 32 (2097152)
I0815 07:37:48.028304  5607 net.cpp:194] Memory required for data: 337117696
I0815 07:37:48.028318  5607 layer_factory.hpp:77] Creating layer BatchNorm8
I0815 07:37:48.028327  5607 net.cpp:128] Creating Layer BatchNorm8
I0815 07:37:48.028337  5607 net.cpp:558] BatchNorm8 <- Convolution8
I0815 07:37:48.028342  5607 net.cpp:509] BatchNorm8 -> Convolution8 (in-place)
I0815 07:37:48.028573  5607 net.cpp:172] Setting up BatchNorm8
I0815 07:37:48.028584  5607 net.cpp:186] Top shape: 128 16 32 32 (2097152)
I0815 07:37:48.028587  5607 net.cpp:194] Memory required for data: 345506304
I0815 07:37:48.028596  5607 layer_factory.hpp:77] Creating layer Scale8
I0815 07:37:48.028604  5607 net.cpp:128] Creating Layer Scale8
I0815 07:37:48.028609  5607 net.cpp:558] Scale8 <- Convolution8
I0815 07:37:48.028646  5607 net.cpp:509] Scale8 -> Convolution8 (in-place)
I0815 07:37:48.028689  5607 layer_factory.hpp:77] Creating layer Scale8
I0815 07:37:48.028816  5607 net.cpp:172] Setting up Scale8
I0815 07:37:48.028828  5607 net.cpp:186] Top shape: 128 16 32 32 (2097152)
I0815 07:37:48.028832  5607 net.cpp:194] Memory required for data: 353894912
I0815 07:37:48.028841  5607 layer_factory.hpp:77] Creating layer ReLU8
I0815 07:37:48.028847  5607 net.cpp:128] Creating Layer ReLU8
I0815 07:37:48.028852  5607 net.cpp:558] ReLU8 <- Convolution8
I0815 07:37:48.028857  5607 net.cpp:509] ReLU8 -> Convolution8 (in-place)
Could not create logging file: No such file or directory
COULD NOT CREATE A LOGGINGFILE 20180815-073748.5607!I0815 07:37:48.029101  5607 net.cpp:172] Setting up ReLU8
I0815 07:37:48.029131  5607 net.cpp:186] Top shape: 128 16 32 32 (2097152)
I0815 07:37:48.029135  5607 net.cpp:194] Memory required for data: 362283520
I0815 07:37:48.029140  5607 layer_factory.hpp:77] Creating layer Convolution9
I0815 07:37:48.029151  5607 net.cpp:128] Creating Layer Convolution9
I0815 07:37:48.029160  5607 net.cpp:558] Convolution9 <- Convolution8
I0815 07:37:48.029167  5607 net.cpp:522] Convolution9 -> Convolution9
I0815 07:37:48.030433  5607 net.cpp:172] Setting up Convolution9
I0815 07:37:48.030459  5607 net.cpp:186] Top shape: 128 16 32 32 (2097152)
I0815 07:37:48.030463  5607 net.cpp:194] Memory required for data: 370672128
I0815 07:37:48.030478  5607 layer_factory.hpp:77] Creating layer BatchNorm9
I0815 07:37:48.030488  5607 net.cpp:128] Creating Layer BatchNorm9
I0815 07:37:48.030494  5607 net.cpp:558] BatchNorm9 <- Convolution9
I0815 07:37:48.030505  5607 net.cpp:509] BatchNorm9 -> Convolution9 (in-place)
I0815 07:37:48.030740  5607 net.cpp:172] Setting up BatchNorm9
I0815 07:37:48.030750  5607 net.cpp:186] Top shape: 128 16 32 32 (2097152)
I0815 07:37:48.030753  5607 net.cpp:194] Memory required for data: 379060736
I0815 07:37:48.030763  5607 layer_factory.hpp:77] Creating layer Scale9
I0815 07:37:48.030772  5607 net.cpp:128] Creating Layer Scale9
I0815 07:37:48.030777  5607 net.cpp:558] Scale9 <- Convolution9
I0815 07:37:48.030783  5607 net.cpp:509] Scale9 -> Convolution9 (in-place)
I0815 07:37:48.030824  5607 layer_factory.hpp:77] Creating layer Scale9
I0815 07:37:48.030972  5607 net.cpp:172] Setting up Scale9
I0815 07:37:48.030983  5607 net.cpp:186] Top shape: 128 16 32 32 (2097152)
I0815 07:37:48.030988  5607 net.cpp:194] Memory required for data: 387449344
I0815 07:37:48.030997  5607 layer_factory.hpp:77] Creating layer Eltwise4
I0815 07:37:48.031004  5607 net.cpp:128] Creating Layer Eltwise4
I0815 07:37:48.031008  5607 net.cpp:558] Eltwise4 <- Eltwise3_ReLU7_0_split_1
I0815 07:37:48.031013  5607 net.cpp:558] Eltwise4 <- Convolution9
I0815 07:37:48.031038  5607 net.cpp:522] Eltwise4 -> Eltwise4
I0815 07:37:48.031065  5607 net.cpp:172] Setting up Eltwise4
I0815 07:37:48.031075  5607 net.cpp:186] Top shape: 128 16 32 32 (2097152)
Could not create logging file: No such file or directory
COULD NOT CREATE A LOGGINGFILE 20180815-073748.5607!I0815 07:37:48.031078  5607 net.cpp:194] Memory required for data: 395837952
I0815 07:37:48.031101  5607 layer_factory.hpp:77] Creating layer ReLU9
I0815 07:37:48.031108  5607 net.cpp:128] Creating Layer ReLU9
I0815 07:37:48.031114  5607 net.cpp:558] ReLU9 <- Eltwise4
I0815 07:37:48.031121  5607 net.cpp:509] ReLU9 -> Eltwise4 (in-place)
I0815 07:37:48.031343  5607 net.cpp:172] Setting up ReLU9
I0815 07:37:48.031355  5607 net.cpp:186] Top shape: 128 16 32 32 (2097152)
I0815 07:37:48.031359  5607 net.cpp:194] Memory required for data: 404226560
I0815 07:37:48.031364  5607 layer_factory.hpp:77] Creating layer Eltwise4_ReLU9_0_split
I0815 07:37:48.031371  5607 net.cpp:128] Creating Layer Eltwise4_ReLU9_0_split
I0815 07:37:48.031376  5607 net.cpp:558] Eltwise4_ReLU9_0_split <- Eltwise4
I0815 07:37:48.031383  5607 net.cpp:522] Eltwise4_ReLU9_0_split -> Eltwise4_ReLU9_0_split_0
I0815 07:37:48.031390  5607 net.cpp:522] Eltwise4_ReLU9_0_split -> Eltwise4_ReLU9_0_split_1
I0815 07:37:48.031435  5607 net.cpp:172] Setting up Eltwise4_ReLU9_0_split
I0815 07:37:48.031445  5607 net.cpp:186] Top shape: 128 16 32 32 (2097152)
I0815 07:37:48.031450  5607 net.cpp:186] Top shape: 128 16 32 32 (2097152)
I0815 07:37:48.031455  5607 net.cpp:194] Memory required for data: 421003776
I0815 07:37:48.031460  5607 layer_factory.hpp:77] Creating layer Convolution10
I0815 07:37:48.031471  5607 net.cpp:128] Creating Layer Convolution10
I0815 07:37:48.031476  5607 net.cpp:558] Convolution10 <- Eltwise4_ReLU9_0_split_0
I0815 07:37:48.031483  5607 net.cpp:522] Convolution10 -> Convolution10
I0815 07:37:48.032752  5607 net.cpp:172] Setting up Convolution10
I0815 07:37:48.032778  5607 net.cpp:186] Top shape: 128 16 32 32 (2097152)
I0815 07:37:48.032783  5607 net.cpp:194] Memory required for data: 429392384
I0815 07:37:48.032799  5607 layer_factory.hpp:77] Creating layer BatchNorm10
I0815 07:37:48.032814  5607 net.cpp:128] Creating Layer BatchNorm10
I0815 07:37:48.032821  5607 net.cpp:558] BatchNorm10 <- Convolution10
I0815 07:37:48.032829  5607 net.cpp:509] BatchNorm10 -> Convolution10 (in-place)
I0815 07:37:48.033061  5607 net.cpp:172] Setting up BatchNorm10
I0815 07:37:48.033071  5607 net.cpp:186] Top shape: 128 16 32 32 (2097152)
I0815 07:37:48.033074  5607 net.cpp:194] Memory required for data: 437780992
I0815 07:37:48.033085  5607 layer_factory.hpp:77] Creating layer Scale10
Could not create logging file: No such file or directory
COULD NOT CREATE A LOGGINGFILE 20180815-073748.5607!I0815 07:37:48.033092  5607 net.cpp:128] Creating Layer Scale10
I0815 07:37:48.033118  5607 net.cpp:558] Scale10 <- Convolution10
I0815 07:37:48.033123  5607 net.cpp:509] Scale10 -> Convolution10 (in-place)
I0815 07:37:48.033164  5607 layer_factory.hpp:77] Creating layer Scale10
I0815 07:37:48.033293  5607 net.cpp:172] Setting up Scale10
I0815 07:37:48.033301  5607 net.cpp:186] Top shape: 128 16 32 32 (2097152)
I0815 07:37:48.033308  5607 net.cpp:194] Memory required for data: 446169600
I0815 07:37:48.033318  5607 layer_factory.hpp:77] Creating layer ReLU10
I0815 07:37:48.033325  5607 net.cpp:128] Creating Layer ReLU10
I0815 07:37:48.033332  5607 net.cpp:558] ReLU10 <- Convolution10
I0815 07:37:48.033339  5607 net.cpp:509] ReLU10 -> Convolution10 (in-place)
I0815 07:37:48.033779  5607 net.cpp:172] Setting up ReLU10
I0815 07:37:48.033799  5607 net.cpp:186] Top shape: 128 16 32 32 (2097152)
I0815 07:37:48.033804  5607 net.cpp:194] Memory required for data: 454558208
I0815 07:37:48.033809  5607 layer_factory.hpp:77] Creating layer Convolution11
I0815 07:37:48.033821  5607 net.cpp:128] Creating Layer Convolution11
I0815 07:37:48.033826  5607 net.cpp:558] Convolution11 <- Convolution10
I0815 07:37:48.033834  5607 net.cpp:522] Convolution11 -> Convolution11
I0815 07:37:48.035145  5607 net.cpp:172] Setting up Convolution11
I0815 07:37:48.035171  5607 net.cpp:186] Top shape: 128 16 32 32 (2097152)
I0815 07:37:48.035174  5607 net.cpp:194] Memory required for data: 462946816
I0815 07:37:48.035185  5607 layer_factory.hpp:77] Creating layer BatchNorm11
I0815 07:37:48.035194  5607 net.cpp:128] Creating Layer BatchNorm11
I0815 07:37:48.035202  5607 net.cpp:558] BatchNorm11 <- Convolution11
I0815 07:37:48.035208  5607 net.cpp:509] BatchNorm11 -> Convolution11 (in-place)
I0815 07:37:48.035444  5607 net.cpp:172] Setting up BatchNorm11
I0815 07:37:48.035454  5607 net.cpp:186] Top shape: 128 16 32 32 (2097152)
I0815 07:37:48.035459  5607 net.cpp:194] Memory required for data: 471335424
I0815 07:37:48.035467  5607 layer_factory.hpp:77] Creating layer Scale11
I0815 07:37:48.035475  5607 net.cpp:128] Creating Layer Scale11
I0815 07:37:48.035480  5607 net.cpp:558] Scale11 <- Convolution11
I0815 07:37:48.035485  5607 net.cpp:509] Scale11 -> Convolution11 (in-place)
Could not create logging file: No such file or directory
COULD NOT CREATE A LOGGINGFILE 20180815-073748.5607!I0815 07:37:48.035522  5607 layer_factory.hpp:77] Creating layer Scale11
I0815 07:37:48.035672  5607 net.cpp:172] Setting up Scale11
I0815 07:37:48.035684  5607 net.cpp:186] Top shape: 128 16 32 32 (2097152)
I0815 07:37:48.035688  5607 net.cpp:194] Memory required for data: 479724032
I0815 07:37:48.035696  5607 layer_factory.hpp:77] Creating layer Eltwise5
I0815 07:37:48.035703  5607 net.cpp:128] Creating Layer Eltwise5
I0815 07:37:48.035708  5607 net.cpp:558] Eltwise5 <- Eltwise4_ReLU9_0_split_1
I0815 07:37:48.035713  5607 net.cpp:558] Eltwise5 <- Convolution11
I0815 07:37:48.035719  5607 net.cpp:522] Eltwise5 -> Eltwise5
I0815 07:37:48.035745  5607 net.cpp:172] Setting up Eltwise5
I0815 07:37:48.035754  5607 net.cpp:186] Top shape: 128 16 32 32 (2097152)
I0815 07:37:48.035759  5607 net.cpp:194] Memory required for data: 488112640
I0815 07:37:48.035763  5607 layer_factory.hpp:77] Creating layer ReLU11
I0815 07:37:48.035769  5607 net.cpp:128] Creating Layer ReLU11
I0815 07:37:48.035774  5607 net.cpp:558] ReLU11 <- Eltwise5
I0815 07:37:48.035779  5607 net.cpp:509] ReLU11 -> Eltwise5 (in-place)
I0815 07:37:48.036022  5607 net.cpp:172] Setting up ReLU11
I0815 07:37:48.036036  5607 net.cpp:186] Top shape: 128 16 32 32 (2097152)
I0815 07:37:48.036039  5607 net.cpp:194] Memory required for data: 496501248
I0815 07:37:48.036044  5607 layer_factory.hpp:77] Creating layer Eltwise5_ReLU11_0_split
I0815 07:37:48.036051  5607 net.cpp:128] Creating Layer Eltwise5_ReLU11_0_split
I0815 07:37:48.036056  5607 net.cpp:558] Eltwise5_ReLU11_0_split <- Eltwise5
I0815 07:37:48.036062  5607 net.cpp:522] Eltwise5_ReLU11_0_split -> Eltwise5_ReLU11_0_split_0
I0815 07:37:48.036070  5607 net.cpp:522] Eltwise5_ReLU11_0_split -> Eltwise5_ReLU11_0_split_1
I0815 07:37:48.036114  5607 net.cpp:172] Setting up Eltwise5_ReLU11_0_split
I0815 07:37:48.036124  5607 net.cpp:186] Top shape: 128 16 32 32 (2097152)
I0815 07:37:48.036130  5607 net.cpp:186] Top shape: 128 16 32 32 (2097152)
I0815 07:37:48.036134  5607 net.cpp:194] Memory required for data: 513278464
I0815 07:37:48.036139  5607 layer_factory.hpp:77] Creating layer Convolution12
I0815 07:37:48.036149  5607 net.cpp:128] Creating Layer Convolution12
I0815 07:37:48.036154  5607 net.cpp:558] Convolution12 <- Eltwise5_ReLU11_0_split_0
I0815 07:37:48.036160  5607 net.cpp:522] Convolution12 -> Convolution12
Could not create logging file: No such file or directory
COULD NOT CREATE A LOGGINGFILE 20180815-073748.5607!I0815 07:37:48.037417  5607 net.cpp:172] Setting up Convolution12
I0815 07:37:48.037487  5607 net.cpp:186] Top shape: 128 16 32 32 (2097152)
I0815 07:37:48.037492  5607 net.cpp:194] Memory required for data: 521667072
I0815 07:37:48.037501  5607 layer_factory.hpp:77] Creating layer BatchNorm12
I0815 07:37:48.037511  5607 net.cpp:128] Creating Layer BatchNorm12
I0815 07:37:48.037516  5607 net.cpp:558] BatchNorm12 <- Convolution12
I0815 07:37:48.037523  5607 net.cpp:509] BatchNorm12 -> Convolution12 (in-place)
I0815 07:37:48.037767  5607 net.cpp:172] Setting up BatchNorm12
I0815 07:37:48.037778  5607 net.cpp:186] Top shape: 128 16 32 32 (2097152)
I0815 07:37:48.037782  5607 net.cpp:194] Memory required for data: 530055680
I0815 07:37:48.037792  5607 layer_factory.hpp:77] Creating layer Scale12
I0815 07:37:48.037799  5607 net.cpp:128] Creating Layer Scale12
I0815 07:37:48.037804  5607 net.cpp:558] Scale12 <- Convolution12
I0815 07:37:48.037811  5607 net.cpp:509] Scale12 -> Convolution12 (in-place)
I0815 07:37:48.037848  5607 layer_factory.hpp:77] Creating layer Scale12
I0815 07:37:48.037981  5607 net.cpp:172] Setting up Scale12
I0815 07:37:48.037992  5607 net.cpp:186] Top shape: 128 16 32 32 (2097152)
I0815 07:37:48.037995  5607 net.cpp:194] Memory required for data: 538444288
I0815 07:37:48.038003  5607 layer_factory.hpp:77] Creating layer ReLU12
I0815 07:37:48.038009  5607 net.cpp:128] Creating Layer ReLU12
I0815 07:37:48.038013  5607 net.cpp:558] ReLU12 <- Convolution12
I0815 07:37:48.038019  5607 net.cpp:509] ReLU12 -> Convolution12 (in-place)
I0815 07:37:48.038286  5607 net.cpp:172] Setting up ReLU12
I0815 07:37:48.038301  5607 net.cpp:186] Top shape: 128 16 32 32 (2097152)
I0815 07:37:48.038305  5607 net.cpp:194] Memory required for data: 546832896
I0815 07:37:48.038311  5607 layer_factory.hpp:77] Creating layer Convolution13
I0815 07:37:48.038321  5607 net.cpp:128] Creating Layer Convolution13
I0815 07:37:48.038326  5607 net.cpp:558] Convolution13 <- Convolution12
I0815 07:37:48.038332  5607 net.cpp:522] Convolution13 -> Convolution13
I0815 07:37:48.039628  5607 net.cpp:172] Setting up Convolution13
I0815 07:37:48.039655  5607 net.cpp:186] Top shape: 128 16 32 32 (2097152)
I0815 07:37:48.039659  5607 net.cpp:194] Memory required for data: 555221504
Could not create logging file: No such file or directory
COULD NOT CREATE A LOGGINGFILE 20180815-073748.5607!I0815 07:37:48.039669  5607 layer_factory.hpp:77] Creating layer BatchNorm13
I0815 07:37:48.039700  5607 net.cpp:128] Creating Layer BatchNorm13
I0815 07:37:48.039705  5607 net.cpp:558] BatchNorm13 <- Convolution13
I0815 07:37:48.039716  5607 net.cpp:509] BatchNorm13 -> Convolution13 (in-place)
I0815 07:37:48.039955  5607 net.cpp:172] Setting up BatchNorm13
I0815 07:37:48.039966  5607 net.cpp:186] Top shape: 128 16 32 32 (2097152)
I0815 07:37:48.039970  5607 net.cpp:194] Memory required for data: 563610112
I0815 07:37:48.039980  5607 layer_factory.hpp:77] Creating layer Scale13
I0815 07:37:48.039988  5607 net.cpp:128] Creating Layer Scale13
I0815 07:37:48.039993  5607 net.cpp:558] Scale13 <- Convolution13
I0815 07:37:48.039999  5607 net.cpp:509] Scale13 -> Convolution13 (in-place)
I0815 07:37:48.040036  5607 layer_factory.hpp:77] Creating layer Scale13
I0815 07:37:48.040170  5607 net.cpp:172] Setting up Scale13
I0815 07:37:48.040180  5607 net.cpp:186] Top shape: 128 16 32 32 (2097152)
I0815 07:37:48.040184  5607 net.cpp:194] Memory required for data: 571998720
I0815 07:37:48.040192  5607 layer_factory.hpp:77] Creating layer Eltwise6
I0815 07:37:48.040199  5607 net.cpp:128] Creating Layer Eltwise6
I0815 07:37:48.040205  5607 net.cpp:558] Eltwise6 <- Eltwise5_ReLU11_0_split_1
I0815 07:37:48.040210  5607 net.cpp:558] Eltwise6 <- Convolution13
I0815 07:37:48.040215  5607 net.cpp:522] Eltwise6 -> Eltwise6
I0815 07:37:48.040244  5607 net.cpp:172] Setting up Eltwise6
I0815 07:37:48.040252  5607 net.cpp:186] Top shape: 128 16 32 32 (2097152)
I0815 07:37:48.040256  5607 net.cpp:194] Memory required for data: 580387328
I0815 07:37:48.040261  5607 layer_factory.hpp:77] Creating layer ReLU13
I0815 07:37:48.040269  5607 net.cpp:128] Creating Layer ReLU13
I0815 07:37:48.040273  5607 net.cpp:558] ReLU13 <- Eltwise6
I0815 07:37:48.040280  5607 net.cpp:509] ReLU13 -> Eltwise6 (in-place)
I0815 07:37:48.040766  5607 net.cpp:172] Setting up ReLU13
I0815 07:37:48.040787  5607 net.cpp:186] Top shape: 128 16 32 32 (2097152)
I0815 07:37:48.040791  5607 net.cpp:194] Memory required for data: 588775936
I0815 07:37:48.040797  5607 layer_factory.hpp:77] Creating layer Eltwise6_ReLU13_0_split
I0815 07:37:48.040805  5607 net.cpp:128] Creating Layer Eltwise6_ReLU13_0_split
Could not create logging file: No such file or directory
COULD NOT CREATE A LOGGINGFILE 20180815-073748.5607!I0815 07:37:48.040810  5607 net.cpp:558] Eltwise6_ReLU13_0_split <- Eltwise6
I0815 07:37:48.040834  5607 net.cpp:522] Eltwise6_ReLU13_0_split -> Eltwise6_ReLU13_0_split_0
I0815 07:37:48.040843  5607 net.cpp:522] Eltwise6_ReLU13_0_split -> Eltwise6_ReLU13_0_split_1
I0815 07:37:48.040894  5607 net.cpp:172] Setting up Eltwise6_ReLU13_0_split
I0815 07:37:48.040904  5607 net.cpp:186] Top shape: 128 16 32 32 (2097152)
I0815 07:37:48.040910  5607 net.cpp:186] Top shape: 128 16 32 32 (2097152)
I0815 07:37:48.040915  5607 net.cpp:194] Memory required for data: 605553152
I0815 07:37:48.040918  5607 layer_factory.hpp:77] Creating layer Convolution14
I0815 07:37:48.040930  5607 net.cpp:128] Creating Layer Convolution14
I0815 07:37:48.040935  5607 net.cpp:558] Convolution14 <- Eltwise6_ReLU13_0_split_0
I0815 07:37:48.040942  5607 net.cpp:522] Convolution14 -> Convolution14
I0815 07:37:48.042243  5607 net.cpp:172] Setting up Convolution14
I0815 07:37:48.042268  5607 net.cpp:186] Top shape: 128 16 32 32 (2097152)
I0815 07:37:48.042273  5607 net.cpp:194] Memory required for data: 613941760
I0815 07:37:48.042282  5607 layer_factory.hpp:77] Creating layer BatchNorm14
I0815 07:37:48.042291  5607 net.cpp:128] Creating Layer BatchNorm14
I0815 07:37:48.042296  5607 net.cpp:558] BatchNorm14 <- Convolution14
I0815 07:37:48.042309  5607 net.cpp:509] BatchNorm14 -> Convolution14 (in-place)
I0815 07:37:48.042551  5607 net.cpp:172] Setting up BatchNorm14
I0815 07:37:48.042562  5607 net.cpp:186] Top shape: 128 16 32 32 (2097152)
I0815 07:37:48.042567  5607 net.cpp:194] Memory required for data: 622330368
I0815 07:37:48.042577  5607 layer_factory.hpp:77] Creating layer Scale14
I0815 07:37:48.042583  5607 net.cpp:128] Creating Layer Scale14
I0815 07:37:48.042587  5607 net.cpp:558] Scale14 <- Convolution14
I0815 07:37:48.042593  5607 net.cpp:509] Scale14 -> Convolution14 (in-place)
I0815 07:37:48.042632  5607 layer_factory.hpp:77] Creating layer Scale14
I0815 07:37:48.042762  5607 net.cpp:172] Setting up Scale14
I0815 07:37:48.042773  5607 net.cpp:186] Top shape: 128 16 32 32 (2097152)
I0815 07:37:48.042778  5607 net.cpp:194] Memory required for data: 630718976
I0815 07:37:48.042785  5607 layer_factory.hpp:77] Creating layer ReLU14
I0815 07:37:48.042793  5607 net.cpp:128] Creating Layer ReLU14
I0815 07:37:48.042801  5607 net.cpp:558] ReLU14 <- Convolution14
Could not create logging file: No such file or directory
COULD NOT CREATE A LOGGINGFILE 20180815-073748.5607!I0815 07:37:48.042807  5607 net.cpp:509] ReLU14 -> Convolution14 (in-place)
I0815 07:37:48.043088  5607 net.cpp:172] Setting up ReLU14
I0815 07:37:48.043104  5607 net.cpp:186] Top shape: 128 16 32 32 (2097152)
I0815 07:37:48.043109  5607 net.cpp:194] Memory required for data: 639107584
I0815 07:37:48.043113  5607 layer_factory.hpp:77] Creating layer Convolution15
I0815 07:37:48.043125  5607 net.cpp:128] Creating Layer Convolution15
I0815 07:37:48.043133  5607 net.cpp:558] Convolution15 <- Convolution14
I0815 07:37:48.043140  5607 net.cpp:522] Convolution15 -> Convolution15
I0815 07:37:48.044468  5607 net.cpp:172] Setting up Convolution15
I0815 07:37:48.044493  5607 net.cpp:186] Top shape: 128 16 32 32 (2097152)
I0815 07:37:48.044498  5607 net.cpp:194] Memory required for data: 647496192
I0815 07:37:48.044510  5607 layer_factory.hpp:77] Creating layer BatchNorm15
I0815 07:37:48.044524  5607 net.cpp:128] Creating Layer BatchNorm15
I0815 07:37:48.044529  5607 net.cpp:558] BatchNorm15 <- Convolution15
I0815 07:37:48.044536  5607 net.cpp:509] BatchNorm15 -> Convolution15 (in-place)
I0815 07:37:48.044773  5607 net.cpp:172] Setting up BatchNorm15
I0815 07:37:48.044782  5607 net.cpp:186] Top shape: 128 16 32 32 (2097152)
I0815 07:37:48.044787  5607 net.cpp:194] Memory required for data: 655884800
I0815 07:37:48.044796  5607 layer_factory.hpp:77] Creating layer Scale15
I0815 07:37:48.044807  5607 net.cpp:128] Creating Layer Scale15
I0815 07:37:48.044839  5607 net.cpp:558] Scale15 <- Convolution15
I0815 07:37:48.044848  5607 net.cpp:509] Scale15 -> Convolution15 (in-place)
I0815 07:37:48.044888  5607 layer_factory.hpp:77] Creating layer Scale15
I0815 07:37:48.045020  5607 net.cpp:172] Setting up Scale15
I0815 07:37:48.045030  5607 net.cpp:186] Top shape: 128 16 32 32 (2097152)
I0815 07:37:48.045035  5607 net.cpp:194] Memory required for data: 664273408
I0815 07:37:48.045043  5607 layer_factory.hpp:77] Creating layer Eltwise7
I0815 07:37:48.045053  5607 net.cpp:128] Creating Layer Eltwise7
I0815 07:37:48.045058  5607 net.cpp:558] Eltwise7 <- Eltwise6_ReLU13_0_split_1
I0815 07:37:48.045063  5607 net.cpp:558] Eltwise7 <- Convolution15
I0815 07:37:48.045068  5607 net.cpp:522] Eltwise7 -> Eltwise7
I0815 07:37:48.045094  5607 net.cpp:172] Setting up Eltwise7
Could not create logging file: No such file or directory
COULD NOT CREATE A LOGGINGFILE 20180815-073748.5607!I0815 07:37:48.045104  5607 net.cpp:186] Top shape: 128 16 32 32 (2097152)
I0815 07:37:48.045125  5607 net.cpp:194] Memory required for data: 672662016
I0815 07:37:48.045130  5607 layer_factory.hpp:77] Creating layer ReLU15
I0815 07:37:48.045137  5607 net.cpp:128] Creating Layer ReLU15
I0815 07:37:48.045142  5607 net.cpp:558] ReLU15 <- Eltwise7
I0815 07:37:48.045147  5607 net.cpp:509] ReLU15 -> Eltwise7 (in-place)
I0815 07:37:48.045389  5607 net.cpp:172] Setting up ReLU15
I0815 07:37:48.045403  5607 net.cpp:186] Top shape: 128 16 32 32 (2097152)
I0815 07:37:48.045406  5607 net.cpp:194] Memory required for data: 681050624
I0815 07:37:48.045411  5607 layer_factory.hpp:77] Creating layer Eltwise7_ReLU15_0_split
I0815 07:37:48.045418  5607 net.cpp:128] Creating Layer Eltwise7_ReLU15_0_split
I0815 07:37:48.045423  5607 net.cpp:558] Eltwise7_ReLU15_0_split <- Eltwise7
I0815 07:37:48.045428  5607 net.cpp:522] Eltwise7_ReLU15_0_split -> Eltwise7_ReLU15_0_split_0
I0815 07:37:48.045437  5607 net.cpp:522] Eltwise7_ReLU15_0_split -> Eltwise7_ReLU15_0_split_1
I0815 07:37:48.045485  5607 net.cpp:172] Setting up Eltwise7_ReLU15_0_split
I0815 07:37:48.045495  5607 net.cpp:186] Top shape: 128 16 32 32 (2097152)
I0815 07:37:48.045500  5607 net.cpp:186] Top shape: 128 16 32 32 (2097152)
I0815 07:37:48.045505  5607 net.cpp:194] Memory required for data: 697827840
I0815 07:37:48.045508  5607 layer_factory.hpp:77] Creating layer Convolution16
I0815 07:37:48.045521  5607 net.cpp:128] Creating Layer Convolution16
I0815 07:37:48.045526  5607 net.cpp:558] Convolution16 <- Eltwise7_ReLU15_0_split_0
I0815 07:37:48.045533  5607 net.cpp:522] Convolution16 -> Convolution16
I0815 07:37:48.046985  5607 net.cpp:172] Setting up Convolution16
I0815 07:37:48.047011  5607 net.cpp:186] Top shape: 128 16 32 32 (2097152)
I0815 07:37:48.047015  5607 net.cpp:194] Memory required for data: 706216448
I0815 07:37:48.047030  5607 layer_factory.hpp:77] Creating layer BatchNorm16
I0815 07:37:48.047044  5607 net.cpp:128] Creating Layer BatchNorm16
I0815 07:37:48.047049  5607 net.cpp:558] BatchNorm16 <- Convolution16
I0815 07:37:48.047056  5607 net.cpp:509] BatchNorm16 -> Convolution16 (in-place)
I0815 07:37:48.047319  5607 net.cpp:172] Setting up BatchNorm16
I0815 07:37:48.047329  5607 net.cpp:186] Top shape: 128 16 32 32 (2097152)
I0815 07:37:48.047333  5607 net.cpp:194] Memory required for data: 714605056
Could not create logging file: No such file or directory
COULD NOT CREATE A LOGGINGFILE 20180815-073748.5607!I0815 07:37:48.047344  5607 layer_factory.hpp:77] Creating layer Scale16
I0815 07:37:48.047369  5607 net.cpp:128] Creating Layer Scale16
I0815 07:37:48.047374  5607 net.cpp:558] Scale16 <- Convolution16
I0815 07:37:48.047380  5607 net.cpp:509] Scale16 -> Convolution16 (in-place)
I0815 07:37:48.047421  5607 layer_factory.hpp:77] Creating layer Scale16
I0815 07:37:48.047556  5607 net.cpp:172] Setting up Scale16
I0815 07:37:48.047566  5607 net.cpp:186] Top shape: 128 16 32 32 (2097152)
I0815 07:37:48.047571  5607 net.cpp:194] Memory required for data: 722993664
I0815 07:37:48.047580  5607 layer_factory.hpp:77] Creating layer ReLU16
I0815 07:37:48.047586  5607 net.cpp:128] Creating Layer ReLU16
I0815 07:37:48.047592  5607 net.cpp:558] ReLU16 <- Convolution16
I0815 07:37:48.047597  5607 net.cpp:509] ReLU16 -> Convolution16 (in-place)
I0815 07:37:48.048040  5607 net.cpp:172] Setting up ReLU16
I0815 07:37:48.048060  5607 net.cpp:186] Top shape: 128 16 32 32 (2097152)
I0815 07:37:48.048069  5607 net.cpp:194] Memory required for data: 731382272
I0815 07:37:48.048074  5607 layer_factory.hpp:77] Creating layer Convolution17
I0815 07:37:48.048086  5607 net.cpp:128] Creating Layer Convolution17
I0815 07:37:48.048094  5607 net.cpp:558] Convolution17 <- Convolution16
I0815 07:37:48.048101  5607 net.cpp:522] Convolution17 -> Convolution17
I0815 07:37:48.049404  5607 net.cpp:172] Setting up Convolution17
I0815 07:37:48.049430  5607 net.cpp:186] Top shape: 128 16 32 32 (2097152)
I0815 07:37:48.049434  5607 net.cpp:194] Memory required for data: 739770880
I0815 07:37:48.049446  5607 layer_factory.hpp:77] Creating layer BatchNorm17
I0815 07:37:48.049458  5607 net.cpp:128] Creating Layer BatchNorm17
I0815 07:37:48.049463  5607 net.cpp:558] BatchNorm17 <- Convolution17
I0815 07:37:48.049471  5607 net.cpp:509] BatchNorm17 -> Convolution17 (in-place)
I0815 07:37:48.049731  5607 net.cpp:172] Setting up BatchNorm17
I0815 07:37:48.049741  5607 net.cpp:186] Top shape: 128 16 32 32 (2097152)
I0815 07:37:48.049746  5607 net.cpp:194] Memory required for data: 748159488
I0815 07:37:48.049755  5607 layer_factory.hpp:77] Creating layer Scale17
I0815 07:37:48.049765  5607 net.cpp:128] Creating Layer Scale17
I0815 07:37:48.049772  5607 net.cpp:558] Scale17 <- Convolution17
Could not create logging file: No such file or directory
COULD NOT CREATE A LOGGINGFILE 20180815-073748.5607!I0815 07:37:48.049782  5607 net.cpp:509] Scale17 -> Convolution17 (in-place)
I0815 07:37:48.049847  5607 layer_factory.hpp:77] Creating layer Scale17
I0815 07:37:48.050004  5607 net.cpp:172] Setting up Scale17
I0815 07:37:48.050019  5607 net.cpp:186] Top shape: 128 16 32 32 (2097152)
I0815 07:37:48.050024  5607 net.cpp:194] Memory required for data: 756548096
I0815 07:37:48.050032  5607 layer_factory.hpp:77] Creating layer Eltwise8
I0815 07:37:48.050040  5607 net.cpp:128] Creating Layer Eltwise8
I0815 07:37:48.050043  5607 net.cpp:558] Eltwise8 <- Eltwise7_ReLU15_0_split_1
I0815 07:37:48.050050  5607 net.cpp:558] Eltwise8 <- Convolution17
I0815 07:37:48.050060  5607 net.cpp:522] Eltwise8 -> Eltwise8
I0815 07:37:48.050087  5607 net.cpp:172] Setting up Eltwise8
I0815 07:37:48.050099  5607 net.cpp:186] Top shape: 128 16 32 32 (2097152)
I0815 07:37:48.050107  5607 net.cpp:194] Memory required for data: 764936704
I0815 07:37:48.050110  5607 layer_factory.hpp:77] Creating layer ReLU17
I0815 07:37:48.050117  5607 net.cpp:128] Creating Layer ReLU17
I0815 07:37:48.050122  5607 net.cpp:558] ReLU17 <- Eltwise8
I0815 07:37:48.050127  5607 net.cpp:509] ReLU17 -> Eltwise8 (in-place)
I0815 07:37:48.050420  5607 net.cpp:172] Setting up ReLU17
I0815 07:37:48.050436  5607 net.cpp:186] Top shape: 128 16 32 32 (2097152)
I0815 07:37:48.050441  5607 net.cpp:194] Memory required for data: 773325312
I0815 07:37:48.050449  5607 layer_factory.hpp:77] Creating layer Eltwise8_ReLU17_0_split
I0815 07:37:48.050457  5607 net.cpp:128] Creating Layer Eltwise8_ReLU17_0_split
I0815 07:37:48.050464  5607 net.cpp:558] Eltwise8_ReLU17_0_split <- Eltwise8
I0815 07:37:48.050472  5607 net.cpp:522] Eltwise8_ReLU17_0_split -> Eltwise8_ReLU17_0_split_0
I0815 07:37:48.050483  5607 net.cpp:522] Eltwise8_ReLU17_0_split -> Eltwise8_ReLU17_0_split_1
I0815 07:37:48.050549  5607 net.cpp:172] Setting up Eltwise8_ReLU17_0_split
I0815 07:37:48.050559  5607 net.cpp:186] Top shape: 128 16 32 32 (2097152)
I0815 07:37:48.050565  5607 net.cpp:186] Top shape: 128 16 32 32 (2097152)
I0815 07:37:48.050571  5607 net.cpp:194] Memory required for data: 790102528
I0815 07:37:48.050575  5607 layer_factory.hpp:77] Creating layer Convolution18
I0815 07:37:48.050590  5607 net.cpp:128] Creating Layer Convolution18
I0815 07:37:48.050611  5607 net.cpp:558] Convolution18 <- Eltwise8_ReLU17_0_split_0
Could not create logging file: No such file or directory
COULD NOT CREATE A LOGGINGFILE 20180815-073748.5607!I0815 07:37:48.050621  5607 net.cpp:522] Convolution18 -> Convolution18
I0815 07:37:48.052039  5607 net.cpp:172] Setting up Convolution18
I0815 07:37:48.052065  5607 net.cpp:186] Top shape: 128 16 32 32 (2097152)
I0815 07:37:48.052069  5607 net.cpp:194] Memory required for data: 798491136
I0815 07:37:48.052083  5607 layer_factory.hpp:77] Creating layer BatchNorm18
I0815 07:37:48.052094  5607 net.cpp:128] Creating Layer BatchNorm18
I0815 07:37:48.052101  5607 net.cpp:558] BatchNorm18 <- Convolution18
I0815 07:37:48.052110  5607 net.cpp:509] BatchNorm18 -> Convolution18 (in-place)
I0815 07:37:48.052373  5607 net.cpp:172] Setting up BatchNorm18
I0815 07:37:48.052383  5607 net.cpp:186] Top shape: 128 16 32 32 (2097152)
I0815 07:37:48.052387  5607 net.cpp:194] Memory required for data: 806879744
I0815 07:37:48.052397  5607 layer_factory.hpp:77] Creating layer Scale18
I0815 07:37:48.052407  5607 net.cpp:128] Creating Layer Scale18
I0815 07:37:48.052412  5607 net.cpp:558] Scale18 <- Convolution18
I0815 07:37:48.052417  5607 net.cpp:509] Scale18 -> Convolution18 (in-place)
I0815 07:37:48.052465  5607 layer_factory.hpp:77] Creating layer Scale18
I0815 07:37:48.052609  5607 net.cpp:172] Setting up Scale18
I0815 07:37:48.052619  5607 net.cpp:186] Top shape: 128 16 32 32 (2097152)
I0815 07:37:48.052623  5607 net.cpp:194] Memory required for data: 815268352
I0815 07:37:48.052630  5607 layer_factory.hpp:77] Creating layer ReLU18
I0815 07:37:48.052637  5607 net.cpp:128] Creating Layer ReLU18
I0815 07:37:48.052641  5607 net.cpp:558] ReLU18 <- Convolution18
I0815 07:37:48.052654  5607 net.cpp:509] ReLU18 -> Convolution18 (in-place)
I0815 07:37:48.052927  5607 net.cpp:172] Setting up ReLU18
I0815 07:37:48.052942  5607 net.cpp:186] Top shape: 128 16 32 32 (2097152)
I0815 07:37:48.052947  5607 net.cpp:194] Memory required for data: 823656960
I0815 07:37:48.052951  5607 layer_factory.hpp:77] Creating layer Convolution19
I0815 07:37:48.052964  5607 net.cpp:128] Creating Layer Convolution19
I0815 07:37:48.052973  5607 net.cpp:558] Convolution19 <- Convolution18
I0815 07:37:48.052983  5607 net.cpp:522] Convolution19 -> Convolution19
I0815 07:37:48.054337  5607 net.cpp:172] Setting up Convolution19
I0815 07:37:48.054363  5607 net.cpp:186] Top shape: 128 16 32 32 (2097152)
Could not create logging file: No such file or directory
COULD NOT CREATE A LOGGINGFILE 20180815-073748.5607!I0815 07:37:48.054368  5607 net.cpp:194] Memory required for data: 832045568
I0815 07:37:48.054405  5607 layer_factory.hpp:77] Creating layer BatchNorm19
I0815 07:37:48.054417  5607 net.cpp:128] Creating Layer BatchNorm19
I0815 07:37:48.054422  5607 net.cpp:558] BatchNorm19 <- Convolution19
I0815 07:37:48.054431  5607 net.cpp:509] BatchNorm19 -> Convolution19 (in-place)
I0815 07:37:48.054730  5607 net.cpp:172] Setting up BatchNorm19
I0815 07:37:48.054744  5607 net.cpp:186] Top shape: 128 16 32 32 (2097152)
I0815 07:37:48.054749  5607 net.cpp:194] Memory required for data: 840434176
I0815 07:37:48.054783  5607 layer_factory.hpp:77] Creating layer Scale19
I0815 07:37:48.054795  5607 net.cpp:128] Creating Layer Scale19
I0815 07:37:48.054800  5607 net.cpp:558] Scale19 <- Convolution19
I0815 07:37:48.054805  5607 net.cpp:509] Scale19 -> Convolution19 (in-place)
I0815 07:37:48.054852  5607 layer_factory.hpp:77] Creating layer Scale19
I0815 07:37:48.055009  5607 net.cpp:172] Setting up Scale19
I0815 07:37:48.055021  5607 net.cpp:186] Top shape: 128 16 32 32 (2097152)
I0815 07:37:48.055025  5607 net.cpp:194] Memory required for data: 848822784
I0815 07:37:48.055033  5607 layer_factory.hpp:77] Creating layer Eltwise9
I0815 07:37:48.055043  5607 net.cpp:128] Creating Layer Eltwise9
I0815 07:37:48.055048  5607 net.cpp:558] Eltwise9 <- Eltwise8_ReLU17_0_split_1
I0815 07:37:48.055053  5607 net.cpp:558] Eltwise9 <- Convolution19
I0815 07:37:48.055059  5607 net.cpp:522] Eltwise9 -> Eltwise9
I0815 07:37:48.055089  5607 net.cpp:172] Setting up Eltwise9
I0815 07:37:48.055096  5607 net.cpp:186] Top shape: 128 16 32 32 (2097152)
I0815 07:37:48.055100  5607 net.cpp:194] Memory required for data: 857211392
I0815 07:37:48.055104  5607 layer_factory.hpp:77] Creating layer ReLU19
I0815 07:37:48.055110  5607 net.cpp:128] Creating Layer ReLU19
I0815 07:37:48.055115  5607 net.cpp:558] ReLU19 <- Eltwise9
I0815 07:37:48.055122  5607 net.cpp:509] ReLU19 -> Eltwise9 (in-place)
I0815 07:37:48.055388  5607 net.cpp:172] Setting up ReLU19
I0815 07:37:48.055404  5607 net.cpp:186] Top shape: 128 16 32 32 (2097152)
I0815 07:37:48.055409  5607 net.cpp:194] Memory required for data: 865600000
I0815 07:37:48.055413  5607 layer_factory.hpp:77] Creating layer Eltwise9_ReLU19_0_split
Could not create logging file: No such file or directory
COULD NOT CREATE A LOGGINGFILE 20180815-073748.5607!I0815 07:37:48.055420  5607 net.cpp:128] Creating Layer Eltwise9_ReLU19_0_split
I0815 07:37:48.055444  5607 net.cpp:558] Eltwise9_ReLU19_0_split <- Eltwise9
I0815 07:37:48.055451  5607 net.cpp:522] Eltwise9_ReLU19_0_split -> Eltwise9_ReLU19_0_split_0
I0815 07:37:48.055459  5607 net.cpp:522] Eltwise9_ReLU19_0_split -> Eltwise9_ReLU19_0_split_1
I0815 07:37:48.055514  5607 net.cpp:172] Setting up Eltwise9_ReLU19_0_split
I0815 07:37:48.055524  5607 net.cpp:186] Top shape: 128 16 32 32 (2097152)
I0815 07:37:48.055531  5607 net.cpp:186] Top shape: 128 16 32 32 (2097152)
I0815 07:37:48.055534  5607 net.cpp:194] Memory required for data: 882377216
I0815 07:37:48.055538  5607 layer_factory.hpp:77] Creating layer Convolution20
I0815 07:37:48.055550  5607 net.cpp:128] Creating Layer Convolution20
I0815 07:37:48.055570  5607 net.cpp:558] Convolution20 <- Eltwise9_ReLU19_0_split_0
I0815 07:37:48.055579  5607 net.cpp:522] Convolution20 -> Convolution20
I0815 07:37:48.056958  5607 net.cpp:172] Setting up Convolution20
I0815 07:37:48.056984  5607 net.cpp:186] Top shape: 128 16 32 32 (2097152)
I0815 07:37:48.056988  5607 net.cpp:194] Memory required for data: 890765824
I0815 07:37:48.056998  5607 layer_factory.hpp:77] Creating layer BatchNorm20
I0815 07:37:48.057009  5607 net.cpp:128] Creating Layer BatchNorm20
I0815 07:37:48.057014  5607 net.cpp:558] BatchNorm20 <- Convolution20
I0815 07:37:48.057026  5607 net.cpp:509] BatchNorm20 -> Convolution20 (in-place)
I0815 07:37:48.057297  5607 net.cpp:172] Setting up BatchNorm20
I0815 07:37:48.057308  5607 net.cpp:186] Top shape: 128 16 32 32 (2097152)
I0815 07:37:48.057312  5607 net.cpp:194] Memory required for data: 899154432
I0815 07:37:48.057322  5607 layer_factory.hpp:77] Creating layer Scale20
I0815 07:37:48.057332  5607 net.cpp:128] Creating Layer Scale20
I0815 07:37:48.057337  5607 net.cpp:558] Scale20 <- Convolution20
I0815 07:37:48.057343  5607 net.cpp:509] Scale20 -> Convolution20 (in-place)
I0815 07:37:48.057384  5607 layer_factory.hpp:77] Creating layer Scale20
I0815 07:37:48.057531  5607 net.cpp:172] Setting up Scale20
I0815 07:37:48.057541  5607 net.cpp:186] Top shape: 128 16 32 32 (2097152)
I0815 07:37:48.057545  5607 net.cpp:194] Memory required for data: 907543040
I0815 07:37:48.057554  5607 layer_factory.hpp:77] Creating layer ReLU20
I0815 07:37:48.057559  5607 net.cpp:128] Creating Layer ReLU20
Could not create logging file: No such file or directory
COULD NOT CREATE A LOGGINGFILE 20180815-073748.5607!I0815 07:37:48.057564  5607 net.cpp:558] ReLU20 <- Convolution20
I0815 07:37:48.057590  5607 net.cpp:509] ReLU20 -> Convolution20 (in-place)
I0815 07:37:48.058060  5607 net.cpp:172] Setting up ReLU20
I0815 07:37:48.058082  5607 net.cpp:186] Top shape: 128 16 32 32 (2097152)
I0815 07:37:48.058086  5607 net.cpp:194] Memory required for data: 915931648
I0815 07:37:48.058091  5607 layer_factory.hpp:77] Creating layer Convolution21
I0815 07:37:48.058105  5607 net.cpp:128] Creating Layer Convolution21
I0815 07:37:48.058110  5607 net.cpp:558] Convolution21 <- Convolution20
I0815 07:37:48.058125  5607 net.cpp:522] Convolution21 -> Convolution21
I0815 07:37:48.059506  5607 net.cpp:172] Setting up Convolution21
I0815 07:37:48.059531  5607 net.cpp:186] Top shape: 128 16 32 32 (2097152)
I0815 07:37:48.059535  5607 net.cpp:194] Memory required for data: 924320256
I0815 07:37:48.059545  5607 layer_factory.hpp:77] Creating layer BatchNorm21
I0815 07:37:48.059559  5607 net.cpp:128] Creating Layer BatchNorm21
I0815 07:37:48.059564  5607 net.cpp:558] BatchNorm21 <- Convolution21
I0815 07:37:48.059576  5607 net.cpp:509] BatchNorm21 -> Convolution21 (in-place)
I0815 07:37:48.059835  5607 net.cpp:172] Setting up BatchNorm21
I0815 07:37:48.059846  5607 net.cpp:186] Top shape: 128 16 32 32 (2097152)
I0815 07:37:48.059850  5607 net.cpp:194] Memory required for data: 932708864
I0815 07:37:48.059860  5607 layer_factory.hpp:77] Creating layer Scale21
I0815 07:37:48.059867  5607 net.cpp:128] Creating Layer Scale21
I0815 07:37:48.059871  5607 net.cpp:558] Scale21 <- Convolution21
I0815 07:37:48.059877  5607 net.cpp:509] Scale21 -> Convolution21 (in-place)
I0815 07:37:48.059918  5607 layer_factory.hpp:77] Creating layer Scale21
I0815 07:37:48.060081  5607 net.cpp:172] Setting up Scale21
I0815 07:37:48.060091  5607 net.cpp:186] Top shape: 128 16 32 32 (2097152)
I0815 07:37:48.060096  5607 net.cpp:194] Memory required for data: 941097472
I0815 07:37:48.060103  5607 layer_factory.hpp:77] Creating layer Eltwise10
I0815 07:37:48.060112  5607 net.cpp:128] Creating Layer Eltwise10
I0815 07:37:48.060117  5607 net.cpp:558] Eltwise10 <- Eltwise9_ReLU19_0_split_1
I0815 07:37:48.060122  5607 net.cpp:558] Eltwise10 <- Convolution21
I0815 07:37:48.060128  5607 net.cpp:522] Eltwise10 -> Eltwise10
Could not create logging file: No such file or directory
COULD NOT CREATE A LOGGINGFILE 20180815-073748.5607!I0815 07:37:48.060158  5607 net.cpp:172] Setting up Eltwise10
I0815 07:37:48.060184  5607 net.cpp:186] Top shape: 128 16 32 32 (2097152)
I0815 07:37:48.060189  5607 net.cpp:194] Memory required for data: 949486080
I0815 07:37:48.060192  5607 layer_factory.hpp:77] Creating layer ReLU21
I0815 07:37:48.060199  5607 net.cpp:128] Creating Layer ReLU21
I0815 07:37:48.060202  5607 net.cpp:558] ReLU21 <- Eltwise10
I0815 07:37:48.060211  5607 net.cpp:509] ReLU21 -> Eltwise10 (in-place)
I0815 07:37:48.060439  5607 net.cpp:172] Setting up ReLU21
I0815 07:37:48.060452  5607 net.cpp:186] Top shape: 128 16 32 32 (2097152)
I0815 07:37:48.060472  5607 net.cpp:194] Memory required for data: 957874688
I0815 07:37:48.060477  5607 layer_factory.hpp:77] Creating layer Eltwise10_ReLU21_0_split
I0815 07:37:48.060484  5607 net.cpp:128] Creating Layer Eltwise10_ReLU21_0_split
I0815 07:37:48.060489  5607 net.cpp:558] Eltwise10_ReLU21_0_split <- Eltwise10
I0815 07:37:48.060497  5607 net.cpp:522] Eltwise10_ReLU21_0_split -> Eltwise10_ReLU21_0_split_0
I0815 07:37:48.060505  5607 net.cpp:522] Eltwise10_ReLU21_0_split -> Eltwise10_ReLU21_0_split_1
I0815 07:37:48.060557  5607 net.cpp:172] Setting up Eltwise10_ReLU21_0_split
I0815 07:37:48.060569  5607 net.cpp:186] Top shape: 128 16 32 32 (2097152)
I0815 07:37:48.060575  5607 net.cpp:186] Top shape: 128 16 32 32 (2097152)
I0815 07:37:48.060578  5607 net.cpp:194] Memory required for data: 974651904
I0815 07:37:48.060582  5607 layer_factory.hpp:77] Creating layer Convolution22
I0815 07:37:48.060595  5607 net.cpp:128] Creating Layer Convolution22
I0815 07:37:48.060600  5607 net.cpp:558] Convolution22 <- Eltwise10_ReLU21_0_split_0
I0815 07:37:48.060608  5607 net.cpp:522] Convolution22 -> Convolution22
I0815 07:37:48.062144  5607 net.cpp:172] Setting up Convolution22
I0815 07:37:48.062170  5607 net.cpp:186] Top shape: 128 16 32 32 (2097152)
I0815 07:37:48.062173  5607 net.cpp:194] Memory required for data: 983040512
I0815 07:37:48.062185  5607 layer_factory.hpp:77] Creating layer BatchNorm22
I0815 07:37:48.062196  5607 net.cpp:128] Creating Layer BatchNorm22
I0815 07:37:48.062201  5607 net.cpp:558] BatchNorm22 <- Convolution22
I0815 07:37:48.062211  5607 net.cpp:509] BatchNorm22 -> Convolution22 (in-place)
I0815 07:37:48.062485  5607 net.cpp:172] Setting up BatchNorm22
I0815 07:37:48.062496  5607 net.cpp:186] Top shape: 128 16 32 32 (2097152)
Could not create logging file: No such file or directory
COULD NOT CREATE A LOGGINGFILE 20180815-073748.5607!I0815 07:37:48.062500  5607 net.cpp:194] Memory required for data: 991429120
I0815 07:37:48.062527  5607 layer_factory.hpp:77] Creating layer Scale22
I0815 07:37:48.062536  5607 net.cpp:128] Creating Layer Scale22
I0815 07:37:48.062539  5607 net.cpp:558] Scale22 <- Convolution22
I0815 07:37:48.062547  5607 net.cpp:509] Scale22 -> Convolution22 (in-place)
I0815 07:37:48.062587  5607 layer_factory.hpp:77] Creating layer Scale22
I0815 07:37:48.062753  5607 net.cpp:172] Setting up Scale22
I0815 07:37:48.062767  5607 net.cpp:186] Top shape: 128 16 32 32 (2097152)
I0815 07:37:48.062770  5607 net.cpp:194] Memory required for data: 999817728
I0815 07:37:48.062778  5607 layer_factory.hpp:77] Creating layer ReLU22
I0815 07:37:48.062785  5607 net.cpp:128] Creating Layer ReLU22
I0815 07:37:48.062789  5607 net.cpp:558] ReLU22 <- Convolution22
I0815 07:37:48.062795  5607 net.cpp:509] ReLU22 -> Convolution22 (in-place)
I0815 07:37:48.063061  5607 net.cpp:172] Setting up ReLU22
I0815 07:37:48.063078  5607 net.cpp:186] Top shape: 128 16 32 32 (2097152)
I0815 07:37:48.063083  5607 net.cpp:194] Memory required for data: 1008206336
I0815 07:37:48.063088  5607 layer_factory.hpp:77] Creating layer Convolution23
I0815 07:37:48.063102  5607 net.cpp:128] Creating Layer Convolution23
I0815 07:37:48.063107  5607 net.cpp:558] Convolution23 <- Convolution22
I0815 07:37:48.063115  5607 net.cpp:522] Convolution23 -> Convolution23
I0815 07:37:48.064468  5607 net.cpp:172] Setting up Convolution23
I0815 07:37:48.064493  5607 net.cpp:186] Top shape: 128 16 32 32 (2097152)
I0815 07:37:48.064497  5607 net.cpp:194] Memory required for data: 1016594944
I0815 07:37:48.064507  5607 layer_factory.hpp:77] Creating layer BatchNorm23
I0815 07:37:48.064518  5607 net.cpp:128] Creating Layer BatchNorm23
I0815 07:37:48.064523  5607 net.cpp:558] BatchNorm23 <- Convolution23
I0815 07:37:48.064533  5607 net.cpp:509] BatchNorm23 -> Convolution23 (in-place)
I0815 07:37:48.064831  5607 net.cpp:172] Setting up BatchNorm23
I0815 07:37:48.064842  5607 net.cpp:186] Top shape: 128 16 32 32 (2097152)
I0815 07:37:48.064846  5607 net.cpp:194] Memory required for data: 1024983552
I0815 07:37:48.064857  5607 layer_factory.hpp:77] Creating layer Scale23
I0815 07:37:48.064863  5607 net.cpp:128] Creating Layer Scale23
Could not create logging file: No such file or directory
COULD NOT CREATE A LOGGINGFILE 20180815-073748.5607!I0815 07:37:48.064868  5607 net.cpp:558] Scale23 <- Convolution23
I0815 07:37:48.064898  5607 net.cpp:509] Scale23 -> Convolution23 (in-place)
I0815 07:37:48.064941  5607 layer_factory.hpp:77] Creating layer Scale23
I0815 07:37:48.065104  5607 net.cpp:172] Setting up Scale23
I0815 07:37:48.065115  5607 net.cpp:186] Top shape: 128 16 32 32 (2097152)
I0815 07:37:48.065119  5607 net.cpp:194] Memory required for data: 1033372160
I0815 07:37:48.065127  5607 layer_factory.hpp:77] Creating layer Eltwise11
I0815 07:37:48.065135  5607 net.cpp:128] Creating Layer Eltwise11
I0815 07:37:48.065140  5607 net.cpp:558] Eltwise11 <- Eltwise10_ReLU21_0_split_1
I0815 07:37:48.065145  5607 net.cpp:558] Eltwise11 <- Convolution23
I0815 07:37:48.065152  5607 net.cpp:522] Eltwise11 -> Eltwise11
I0815 07:37:48.065179  5607 net.cpp:172] Setting up Eltwise11
I0815 07:37:48.065187  5607 net.cpp:186] Top shape: 128 16 32 32 (2097152)
I0815 07:37:48.065191  5607 net.cpp:194] Memory required for data: 1041760768
I0815 07:37:48.065196  5607 layer_factory.hpp:77] Creating layer ReLU23
I0815 07:37:48.065201  5607 net.cpp:128] Creating Layer ReLU23
I0815 07:37:48.065205  5607 net.cpp:558] ReLU23 <- Eltwise11
I0815 07:37:48.065212  5607 net.cpp:509] ReLU23 -> Eltwise11 (in-place)
I0815 07:37:48.065660  5607 net.cpp:172] Setting up ReLU23
I0815 07:37:48.065683  5607 net.cpp:186] Top shape: 128 16 32 32 (2097152)
I0815 07:37:48.065727  5607 net.cpp:194] Memory required for data: 1050149376
I0815 07:37:48.065733  5607 layer_factory.hpp:77] Creating layer Eltwise11_ReLU23_0_split
I0815 07:37:48.065742  5607 net.cpp:128] Creating Layer Eltwise11_ReLU23_0_split
I0815 07:37:48.065747  5607 net.cpp:558] Eltwise11_ReLU23_0_split <- Eltwise11
I0815 07:37:48.065758  5607 net.cpp:522] Eltwise11_ReLU23_0_split -> Eltwise11_ReLU23_0_split_0
I0815 07:37:48.065768  5607 net.cpp:522] Eltwise11_ReLU23_0_split -> Eltwise11_ReLU23_0_split_1
I0815 07:37:48.065824  5607 net.cpp:172] Setting up Eltwise11_ReLU23_0_split
I0815 07:37:48.065834  5607 net.cpp:186] Top shape: 128 16 32 32 (2097152)
I0815 07:37:48.065840  5607 net.cpp:186] Top shape: 128 16 32 32 (2097152)
I0815 07:37:48.065845  5607 net.cpp:194] Memory required for data: 1066926592
I0815 07:37:48.065848  5607 layer_factory.hpp:77] Creating layer Convolution24
I0815 07:37:48.065861  5607 net.cpp:128] Creating Layer Convolution24
Could not create logging file: No such file or directory
COULD NOT CREATE A LOGGINGFILE 20180815-073748.5607!I0815 07:37:48.065866  5607 net.cpp:558] Convolution24 <- Eltwise11_ReLU23_0_split_0
I0815 07:37:48.065892  5607 net.cpp:522] Convolution24 -> Convolution24
I0815 07:37:48.067219  5607 net.cpp:172] Setting up Convolution24
I0815 07:37:48.067245  5607 net.cpp:186] Top shape: 128 16 32 32 (2097152)
I0815 07:37:48.067248  5607 net.cpp:194] Memory required for data: 1075315200
I0815 07:37:48.067260  5607 layer_factory.hpp:77] Creating layer BatchNorm24
I0815 07:37:48.067270  5607 net.cpp:128] Creating Layer BatchNorm24
I0815 07:37:48.067276  5607 net.cpp:558] BatchNorm24 <- Convolution24
I0815 07:37:48.067288  5607 net.cpp:509] BatchNorm24 -> Convolution24 (in-place)
I0815 07:37:48.067549  5607 net.cpp:172] Setting up BatchNorm24
I0815 07:37:48.067559  5607 net.cpp:186] Top shape: 128 16 32 32 (2097152)
I0815 07:37:48.067564  5607 net.cpp:194] Memory required for data: 1083703808
I0815 07:37:48.067574  5607 layer_factory.hpp:77] Creating layer Scale24
I0815 07:37:48.067586  5607 net.cpp:128] Creating Layer Scale24
I0815 07:37:48.067591  5607 net.cpp:558] Scale24 <- Convolution24
I0815 07:37:48.067596  5607 net.cpp:509] Scale24 -> Convolution24 (in-place)
I0815 07:37:48.067680  5607 layer_factory.hpp:77] Creating layer Scale24
I0815 07:37:48.067836  5607 net.cpp:172] Setting up Scale24
I0815 07:37:48.067862  5607 net.cpp:186] Top shape: 128 16 32 32 (2097152)
I0815 07:37:48.067865  5607 net.cpp:194] Memory required for data: 1092092416
I0815 07:37:48.067874  5607 layer_factory.hpp:77] Creating layer ReLU24
I0815 07:37:48.067880  5607 net.cpp:128] Creating Layer ReLU24
I0815 07:37:48.067885  5607 net.cpp:558] ReLU24 <- Convolution24
I0815 07:37:48.067893  5607 net.cpp:509] ReLU24 -> Convolution24 (in-place)
I0815 07:37:48.068137  5607 net.cpp:172] Setting up ReLU24
I0815 07:37:48.068151  5607 net.cpp:186] Top shape: 128 16 32 32 (2097152)
I0815 07:37:48.068156  5607 net.cpp:194] Memory required for data: 1100481024
I0815 07:37:48.068161  5607 layer_factory.hpp:77] Creating layer Convolution25
I0815 07:37:48.068172  5607 net.cpp:128] Creating Layer Convolution25
I0815 07:37:48.068177  5607 net.cpp:558] Convolution25 <- Convolution24
I0815 07:37:48.068187  5607 net.cpp:522] Convolution25 -> Convolution25
I0815 07:37:48.069464  5607 net.cpp:172] Setting up Convolution25
Could not create logging file: No such file or directory
COULD NOT CREATE A LOGGINGFILE 20180815-073748.5607!I0815 07:37:48.069492  5607 net.cpp:186] Top shape: 128 16 32 32 (2097152)
I0815 07:37:48.069514  5607 net.cpp:194] Memory required for data: 1108869632
I0815 07:37:48.069525  5607 layer_factory.hpp:77] Creating layer BatchNorm25
I0815 07:37:48.069535  5607 net.cpp:128] Creating Layer BatchNorm25
I0815 07:37:48.069540  5607 net.cpp:558] BatchNorm25 <- Convolution25
I0815 07:37:48.069547  5607 net.cpp:509] BatchNorm25 -> Convolution25 (in-place)
I0815 07:37:48.069881  5607 net.cpp:172] Setting up BatchNorm25
I0815 07:37:48.069895  5607 net.cpp:186] Top shape: 128 16 32 32 (2097152)
I0815 07:37:48.069900  5607 net.cpp:194] Memory required for data: 1117258240
I0815 07:37:48.069910  5607 layer_factory.hpp:77] Creating layer Scale25
I0815 07:37:48.069918  5607 net.cpp:128] Creating Layer Scale25
I0815 07:37:48.069922  5607 net.cpp:558] Scale25 <- Convolution25
I0815 07:37:48.069931  5607 net.cpp:509] Scale25 -> Convolution25 (in-place)
I0815 07:37:48.069988  5607 layer_factory.hpp:77] Creating layer Scale25
I0815 07:37:48.070142  5607 net.cpp:172] Setting up Scale25
I0815 07:37:48.070152  5607 net.cpp:186] Top shape: 128 16 32 32 (2097152)
I0815 07:37:48.070156  5607 net.cpp:194] Memory required for data: 1125646848
I0815 07:37:48.070164  5607 layer_factory.hpp:77] Creating layer Eltwise12
I0815 07:37:48.070173  5607 net.cpp:128] Creating Layer Eltwise12
I0815 07:37:48.070179  5607 net.cpp:558] Eltwise12 <- Eltwise11_ReLU23_0_split_1
I0815 07:37:48.070184  5607 net.cpp:558] Eltwise12 <- Convolution25
I0815 07:37:48.070190  5607 net.cpp:522] Eltwise12 -> Eltwise12
I0815 07:37:48.070219  5607 net.cpp:172] Setting up Eltwise12
I0815 07:37:48.070230  5607 net.cpp:186] Top shape: 128 16 32 32 (2097152)
I0815 07:37:48.070235  5607 net.cpp:194] Memory required for data: 1134035456
I0815 07:37:48.070240  5607 layer_factory.hpp:77] Creating layer ReLU25
I0815 07:37:48.070245  5607 net.cpp:128] Creating Layer ReLU25
I0815 07:37:48.070250  5607 net.cpp:558] ReLU25 <- Eltwise12
I0815 07:37:48.070256  5607 net.cpp:509] ReLU25 -> Eltwise12 (in-place)
I0815 07:37:48.070504  5607 net.cpp:172] Setting up ReLU25
I0815 07:37:48.070518  5607 net.cpp:186] Top shape: 128 16 32 32 (2097152)
I0815 07:37:48.070523  5607 net.cpp:194] Memory required for data: 1142424064
Could not create logging file: No such file or directory
COULD NOT CREATE A LOGGINGFILE 20180815-073748.5607!I0815 07:37:48.070528  5607 layer_factory.hpp:77] Creating layer Eltwise12_ReLU25_0_split
I0815 07:37:48.070554  5607 net.cpp:128] Creating Layer Eltwise12_ReLU25_0_split
I0815 07:37:48.070559  5607 net.cpp:558] Eltwise12_ReLU25_0_split <- Eltwise12
I0815 07:37:48.070567  5607 net.cpp:522] Eltwise12_ReLU25_0_split -> Eltwise12_ReLU25_0_split_0
I0815 07:37:48.070576  5607 net.cpp:522] Eltwise12_ReLU25_0_split -> Eltwise12_ReLU25_0_split_1
I0815 07:37:48.070631  5607 net.cpp:172] Setting up Eltwise12_ReLU25_0_split
I0815 07:37:48.070644  5607 net.cpp:186] Top shape: 128 16 32 32 (2097152)
I0815 07:37:48.070652  5607 net.cpp:186] Top shape: 128 16 32 32 (2097152)
I0815 07:37:48.070655  5607 net.cpp:194] Memory required for data: 1159201280
I0815 07:37:48.070660  5607 layer_factory.hpp:77] Creating layer Convolution26
I0815 07:37:48.070670  5607 net.cpp:128] Creating Layer Convolution26
I0815 07:37:48.070674  5607 net.cpp:558] Convolution26 <- Eltwise12_ReLU25_0_split_0
I0815 07:37:48.070684  5607 net.cpp:522] Convolution26 -> Convolution26
I0815 07:37:48.072049  5607 net.cpp:172] Setting up Convolution26
I0815 07:37:48.072075  5607 net.cpp:186] Top shape: 128 16 32 32 (2097152)
I0815 07:37:48.072079  5607 net.cpp:194] Memory required for data: 1167589888
I0815 07:37:48.072089  5607 layer_factory.hpp:77] Creating layer BatchNorm26
I0815 07:37:48.072100  5607 net.cpp:128] Creating Layer BatchNorm26
I0815 07:37:48.072105  5607 net.cpp:558] BatchNorm26 <- Convolution26
I0815 07:37:48.072114  5607 net.cpp:509] BatchNorm26 -> Convolution26 (in-place)
I0815 07:37:48.072386  5607 net.cpp:172] Setting up BatchNorm26
I0815 07:37:48.072397  5607 net.cpp:186] Top shape: 128 16 32 32 (2097152)
I0815 07:37:48.072402  5607 net.cpp:194] Memory required for data: 1175978496
I0815 07:37:48.072410  5607 layer_factory.hpp:77] Creating layer Scale26
I0815 07:37:48.072427  5607 net.cpp:128] Creating Layer Scale26
I0815 07:37:48.072432  5607 net.cpp:558] Scale26 <- Convolution26
I0815 07:37:48.072438  5607 net.cpp:509] Scale26 -> Convolution26 (in-place)
I0815 07:37:48.072480  5607 layer_factory.hpp:77] Creating layer Scale26
I0815 07:37:48.072635  5607 net.cpp:172] Setting up Scale26
I0815 07:37:48.072646  5607 net.cpp:186] Top shape: 128 16 32 32 (2097152)
I0815 07:37:48.072650  5607 net.cpp:194] Memory required for data: 1184367104
I0815 07:37:48.072659  5607 layer_factory.hpp:77] Creating layer ReLU26
Could not create logging file: No such file or directory
COULD NOT CREATE A LOGGINGFILE 20180815-073748.5607!I0815 07:37:48.072665  5607 net.cpp:128] Creating Layer ReLU26
I0815 07:37:48.072688  5607 net.cpp:558] ReLU26 <- Convolution26
I0815 07:37:48.072695  5607 net.cpp:509] ReLU26 -> Convolution26 (in-place)
I0815 07:37:48.073122  5607 net.cpp:172] Setting up ReLU26
I0815 07:37:48.073143  5607 net.cpp:186] Top shape: 128 16 32 32 (2097152)
I0815 07:37:48.073148  5607 net.cpp:194] Memory required for data: 1192755712
I0815 07:37:48.073153  5607 layer_factory.hpp:77] Creating layer Convolution27
I0815 07:37:48.073166  5607 net.cpp:128] Creating Layer Convolution27
I0815 07:37:48.073173  5607 net.cpp:558] Convolution27 <- Convolution26
I0815 07:37:48.073182  5607 net.cpp:522] Convolution27 -> Convolution27
I0815 07:37:48.074545  5607 net.cpp:172] Setting up Convolution27
I0815 07:37:48.074570  5607 net.cpp:186] Top shape: 128 16 32 32 (2097152)
I0815 07:37:48.074574  5607 net.cpp:194] Memory required for data: 1201144320
I0815 07:37:48.074584  5607 layer_factory.hpp:77] Creating layer BatchNorm27
I0815 07:37:48.074595  5607 net.cpp:128] Creating Layer BatchNorm27
I0815 07:37:48.074600  5607 net.cpp:558] BatchNorm27 <- Convolution27
I0815 07:37:48.074614  5607 net.cpp:509] BatchNorm27 -> Convolution27 (in-place)
I0815 07:37:48.074882  5607 net.cpp:172] Setting up BatchNorm27
I0815 07:37:48.074893  5607 net.cpp:186] Top shape: 128 16 32 32 (2097152)
I0815 07:37:48.074898  5607 net.cpp:194] Memory required for data: 1209532928
I0815 07:37:48.074908  5607 layer_factory.hpp:77] Creating layer Scale27
I0815 07:37:48.074916  5607 net.cpp:128] Creating Layer Scale27
I0815 07:37:48.074921  5607 net.cpp:558] Scale27 <- Convolution27
I0815 07:37:48.074944  5607 net.cpp:509] Scale27 -> Convolution27 (in-place)
I0815 07:37:48.074995  5607 layer_factory.hpp:77] Creating layer Scale27
I0815 07:37:48.075145  5607 net.cpp:172] Setting up Scale27
I0815 07:37:48.075155  5607 net.cpp:186] Top shape: 128 16 32 32 (2097152)
I0815 07:37:48.075160  5607 net.cpp:194] Memory required for data: 1217921536
I0815 07:37:48.075167  5607 layer_factory.hpp:77] Creating layer Eltwise13
I0815 07:37:48.075177  5607 net.cpp:128] Creating Layer Eltwise13
I0815 07:37:48.075182  5607 net.cpp:558] Eltwise13 <- Eltwise12_ReLU25_0_split_1
I0815 07:37:48.075187  5607 net.cpp:558] Eltwise13 <- Convolution27
Could not create logging file: No such file or directory
COULD NOT CREATE A LOGGINGFILE 20180815-073748.5607!I0815 07:37:48.075193  5607 net.cpp:522] Eltwise13 -> Eltwise13
I0815 07:37:48.075242  5607 net.cpp:172] Setting up Eltwise13
I0815 07:37:48.075253  5607 net.cpp:186] Top shape: 128 16 32 32 (2097152)
I0815 07:37:48.075256  5607 net.cpp:194] Memory required for data: 1226310144
I0815 07:37:48.075260  5607 layer_factory.hpp:77] Creating layer ReLU27
I0815 07:37:48.075266  5607 net.cpp:128] Creating Layer ReLU27
I0815 07:37:48.075271  5607 net.cpp:558] ReLU27 <- Eltwise13
I0815 07:37:48.075278  5607 net.cpp:509] ReLU27 -> Eltwise13 (in-place)
I0815 07:37:48.075513  5607 net.cpp:172] Setting up ReLU27
I0815 07:37:48.075527  5607 net.cpp:186] Top shape: 128 16 32 32 (2097152)
I0815 07:37:48.075532  5607 net.cpp:194] Memory required for data: 1234698752
I0815 07:37:48.075578  5607 layer_factory.hpp:77] Creating layer Eltwise13_ReLU27_0_split
I0815 07:37:48.075587  5607 net.cpp:128] Creating Layer Eltwise13_ReLU27_0_split
I0815 07:37:48.075592  5607 net.cpp:558] Eltwise13_ReLU27_0_split <- Eltwise13
I0815 07:37:48.075600  5607 net.cpp:522] Eltwise13_ReLU27_0_split -> Eltwise13_ReLU27_0_split_0
I0815 07:37:48.075608  5607 net.cpp:522] Eltwise13_ReLU27_0_split -> Eltwise13_ReLU27_0_split_1
I0815 07:37:48.075667  5607 net.cpp:172] Setting up Eltwise13_ReLU27_0_split
I0815 07:37:48.075677  5607 net.cpp:186] Top shape: 128 16 32 32 (2097152)
I0815 07:37:48.075683  5607 net.cpp:186] Top shape: 128 16 32 32 (2097152)
I0815 07:37:48.075687  5607 net.cpp:194] Memory required for data: 1251475968
I0815 07:37:48.075691  5607 layer_factory.hpp:77] Creating layer Convolution28
I0815 07:37:48.075704  5607 net.cpp:128] Creating Layer Convolution28
I0815 07:37:48.075711  5607 net.cpp:558] Convolution28 <- Eltwise13_ReLU27_0_split_0
I0815 07:37:48.075721  5607 net.cpp:522] Convolution28 -> Convolution28
I0815 07:37:48.077108  5607 net.cpp:172] Setting up Convolution28
I0815 07:37:48.077134  5607 net.cpp:186] Top shape: 128 16 32 32 (2097152)
I0815 07:37:48.077138  5607 net.cpp:194] Memory required for data: 1259864576
I0815 07:37:48.077152  5607 layer_factory.hpp:77] Creating layer BatchNorm28
I0815 07:37:48.077167  5607 net.cpp:128] Creating Layer BatchNorm28
I0815 07:37:48.077177  5607 net.cpp:558] BatchNorm28 <- Convolution28
I0815 07:37:48.077185  5607 net.cpp:509] BatchNorm28 -> Convolution28 (in-place)
I0815 07:37:48.077452  5607 net.cpp:172] Setting up BatchNorm28
Could not create logging file: No such file or directory
COULD NOT CREATE A LOGGINGFILE 20180815-073748.5607!I0815 07:37:48.077462  5607 net.cpp:186] Top shape: 128 16 32 32 (2097152)
I0815 07:37:48.077531  5607 net.cpp:194] Memory required for data: 1268253184
I0815 07:37:48.077548  5607 layer_factory.hpp:77] Creating layer Scale28
I0815 07:37:48.077558  5607 net.cpp:128] Creating Layer Scale28
I0815 07:37:48.077563  5607 net.cpp:558] Scale28 <- Convolution28
I0815 07:37:48.077569  5607 net.cpp:509] Scale28 -> Convolution28 (in-place)
I0815 07:37:48.077622  5607 layer_factory.hpp:77] Creating layer Scale28
I0815 07:37:48.077790  5607 net.cpp:172] Setting up Scale28
I0815 07:37:48.077821  5607 net.cpp:186] Top shape: 128 16 32 32 (2097152)
I0815 07:37:48.077827  5607 net.cpp:194] Memory required for data: 1276641792
I0815 07:37:48.077836  5607 layer_factory.hpp:77] Creating layer ReLU28
I0815 07:37:48.077842  5607 net.cpp:128] Creating Layer ReLU28
I0815 07:37:48.077847  5607 net.cpp:558] ReLU28 <- Convolution28
I0815 07:37:48.077855  5607 net.cpp:509] ReLU28 -> Convolution28 (in-place)
I0815 07:37:48.078094  5607 net.cpp:172] Setting up ReLU28
I0815 07:37:48.078121  5607 net.cpp:186] Top shape: 128 16 32 32 (2097152)
I0815 07:37:48.078126  5607 net.cpp:194] Memory required for data: 1285030400
I0815 07:37:48.078130  5607 layer_factory.hpp:77] Creating layer Convolution29
I0815 07:37:48.078142  5607 net.cpp:128] Creating Layer Convolution29
I0815 07:37:48.078147  5607 net.cpp:558] Convolution29 <- Convolution28
I0815 07:37:48.078158  5607 net.cpp:522] Convolution29 -> Convolution29
I0815 07:37:48.079560  5607 net.cpp:172] Setting up Convolution29
I0815 07:37:48.079586  5607 net.cpp:186] Top shape: 128 16 32 32 (2097152)
I0815 07:37:48.079591  5607 net.cpp:194] Memory required for data: 1293419008
I0815 07:37:48.079603  5607 layer_factory.hpp:77] Creating layer BatchNorm29
I0815 07:37:48.079612  5607 net.cpp:128] Creating Layer BatchNorm29
I0815 07:37:48.079617  5607 net.cpp:558] BatchNorm29 <- Convolution29
I0815 07:37:48.079627  5607 net.cpp:509] BatchNorm29 -> Convolution29 (in-place)
I0815 07:37:48.079895  5607 net.cpp:172] Setting up BatchNorm29
I0815 07:37:48.079906  5607 net.cpp:186] Top shape: 128 16 32 32 (2097152)
I0815 07:37:48.079910  5607 net.cpp:194] Memory required for data: 1301807616
I0815 07:37:48.079944  5607 layer_factory.hpp:77] Creating layer Scale29
Could not create logging file: No such file or directory
COULD NOT CREATE A LOGGINGFILE 20180815-073748.5607!I0815 07:37:48.079957  5607 net.cpp:128] Creating Layer Scale29
I0815 07:37:48.079979  5607 net.cpp:558] Scale29 <- Convolution29
I0815 07:37:48.079987  5607 net.cpp:509] Scale29 -> Convolution29 (in-place)
I0815 07:37:48.080047  5607 layer_factory.hpp:77] Creating layer Scale29
I0815 07:37:48.080214  5607 net.cpp:172] Setting up Scale29
I0815 07:37:48.080227  5607 net.cpp:186] Top shape: 128 16 32 32 (2097152)
I0815 07:37:48.080231  5607 net.cpp:194] Memory required for data: 1310196224
I0815 07:37:48.080240  5607 layer_factory.hpp:77] Creating layer Eltwise14
I0815 07:37:48.080247  5607 net.cpp:128] Creating Layer Eltwise14
I0815 07:37:48.080252  5607 net.cpp:558] Eltwise14 <- Eltwise13_ReLU27_0_split_1
I0815 07:37:48.080257  5607 net.cpp:558] Eltwise14 <- Convolution29
I0815 07:37:48.080263  5607 net.cpp:522] Eltwise14 -> Eltwise14
I0815 07:37:48.080294  5607 net.cpp:172] Setting up Eltwise14
I0815 07:37:48.080305  5607 net.cpp:186] Top shape: 128 16 32 32 (2097152)
I0815 07:37:48.080309  5607 net.cpp:194] Memory required for data: 1318584832
I0815 07:37:48.080313  5607 layer_factory.hpp:77] Creating layer ReLU29
I0815 07:37:48.080322  5607 net.cpp:128] Creating Layer ReLU29
I0815 07:37:48.080330  5607 net.cpp:558] ReLU29 <- Eltwise14
I0815 07:37:48.080337  5607 net.cpp:509] ReLU29 -> Eltwise14 (in-place)
I0815 07:37:48.080574  5607 net.cpp:172] Setting up ReLU29
I0815 07:37:48.080588  5607 net.cpp:186] Top shape: 128 16 32 32 (2097152)
I0815 07:37:48.080592  5607 net.cpp:194] Memory required for data: 1326973440
I0815 07:37:48.080597  5607 layer_factory.hpp:77] Creating layer Eltwise14_ReLU29_0_split
I0815 07:37:48.080621  5607 net.cpp:128] Creating Layer Eltwise14_ReLU29_0_split
I0815 07:37:48.080627  5607 net.cpp:558] Eltwise14_ReLU29_0_split <- Eltwise14
I0815 07:37:48.080634  5607 net.cpp:522] Eltwise14_ReLU29_0_split -> Eltwise14_ReLU29_0_split_0
I0815 07:37:48.080642  5607 net.cpp:522] Eltwise14_ReLU29_0_split -> Eltwise14_ReLU29_0_split_1
I0815 07:37:48.080695  5607 net.cpp:172] Setting up Eltwise14_ReLU29_0_split
I0815 07:37:48.080705  5607 net.cpp:186] Top shape: 128 16 32 32 (2097152)
I0815 07:37:48.080711  5607 net.cpp:186] Top shape: 128 16 32 32 (2097152)
I0815 07:37:48.080715  5607 net.cpp:194] Memory required for data: 1343750656
I0815 07:37:48.080719  5607 layer_factory.hpp:77] Creating layer Convolution30
Could not create logging file: No such file or directory
COULD NOT CREATE A LOGGINGFILE 20180815-073748.5607!I0815 07:37:48.080732  5607 net.cpp:128] Creating Layer Convolution30
I0815 07:37:48.080755  5607 net.cpp:558] Convolution30 <- Eltwise14_ReLU29_0_split_0
I0815 07:37:48.080765  5607 net.cpp:522] Convolution30 -> Convolution30
I0815 07:37:48.082170  5607 net.cpp:172] Setting up Convolution30
I0815 07:37:48.082195  5607 net.cpp:186] Top shape: 128 16 32 32 (2097152)
I0815 07:37:48.082201  5607 net.cpp:194] Memory required for data: 1352139264
I0815 07:37:48.082214  5607 layer_factory.hpp:77] Creating layer BatchNorm30
I0815 07:37:48.082223  5607 net.cpp:128] Creating Layer BatchNorm30
I0815 07:37:48.082235  5607 net.cpp:558] BatchNorm30 <- Convolution30
I0815 07:37:48.082244  5607 net.cpp:509] BatchNorm30 -> Convolution30 (in-place)
I0815 07:37:48.082545  5607 net.cpp:172] Setting up BatchNorm30
I0815 07:37:48.082556  5607 net.cpp:186] Top shape: 128 16 32 32 (2097152)
I0815 07:37:48.082559  5607 net.cpp:194] Memory required for data: 1360527872
I0815 07:37:48.082569  5607 layer_factory.hpp:77] Creating layer Scale30
I0815 07:37:48.082576  5607 net.cpp:128] Creating Layer Scale30
I0815 07:37:48.082581  5607 net.cpp:558] Scale30 <- Convolution30
I0815 07:37:48.082589  5607 net.cpp:509] Scale30 -> Convolution30 (in-place)
I0815 07:37:48.082630  5607 layer_factory.hpp:77] Creating layer Scale30
I0815 07:37:48.082804  5607 net.cpp:172] Setting up Scale30
I0815 07:37:48.082816  5607 net.cpp:186] Top shape: 128 16 32 32 (2097152)
I0815 07:37:48.082820  5607 net.cpp:194] Memory required for data: 1368916480
I0815 07:37:48.082828  5607 layer_factory.hpp:77] Creating layer ReLU30
I0815 07:37:48.082835  5607 net.cpp:128] Creating Layer ReLU30
I0815 07:37:48.082839  5607 net.cpp:558] ReLU30 <- Convolution30
I0815 07:37:48.082845  5607 net.cpp:509] ReLU30 -> Convolution30 (in-place)
I0815 07:37:48.083359  5607 net.cpp:172] Setting up ReLU30
I0815 07:37:48.083381  5607 net.cpp:186] Top shape: 128 16 32 32 (2097152)
I0815 07:37:48.083385  5607 net.cpp:194] Memory required for data: 1377305088
I0815 07:37:48.083391  5607 layer_factory.hpp:77] Creating layer Convolution31
I0815 07:37:48.083407  5607 net.cpp:128] Creating Layer Convolution31
I0815 07:37:48.083415  5607 net.cpp:558] Convolution31 <- Convolution30
I0815 07:37:48.083423  5607 net.cpp:522] Convolution31 -> Convolution31
Could not create logging file: No such file or directory
COULD NOT CREATE A LOGGINGFILE 20180815-073748.5607!I0815 07:37:48.084805  5607 net.cpp:172] Setting up Convolution31
I0815 07:37:48.084849  5607 net.cpp:186] Top shape: 128 16 32 32 (2097152)
I0815 07:37:48.084853  5607 net.cpp:194] Memory required for data: 1385693696
I0815 07:37:48.084863  5607 layer_factory.hpp:77] Creating layer BatchNorm31
I0815 07:37:48.084872  5607 net.cpp:128] Creating Layer BatchNorm31
I0815 07:37:48.084877  5607 net.cpp:558] BatchNorm31 <- Convolution31
I0815 07:37:48.084892  5607 net.cpp:509] BatchNorm31 -> Convolution31 (in-place)
I0815 07:37:48.085165  5607 net.cpp:172] Setting up BatchNorm31
I0815 07:37:48.085177  5607 net.cpp:186] Top shape: 128 16 32 32 (2097152)
I0815 07:37:48.085181  5607 net.cpp:194] Memory required for data: 1394082304
I0815 07:37:48.085191  5607 layer_factory.hpp:77] Creating layer Scale31
I0815 07:37:48.085201  5607 net.cpp:128] Creating Layer Scale31
I0815 07:37:48.085204  5607 net.cpp:558] Scale31 <- Convolution31
I0815 07:37:48.085211  5607 net.cpp:509] Scale31 -> Convolution31 (in-place)
I0815 07:37:48.085252  5607 layer_factory.hpp:77] Creating layer Scale31
I0815 07:37:48.085404  5607 net.cpp:172] Setting up Scale31
I0815 07:37:48.085417  5607 net.cpp:186] Top shape: 128 16 32 32 (2097152)
I0815 07:37:48.085422  5607 net.cpp:194] Memory required for data: 1402470912
I0815 07:37:48.085429  5607 layer_factory.hpp:77] Creating layer Eltwise15
I0815 07:37:48.085436  5607 net.cpp:128] Creating Layer Eltwise15
I0815 07:37:48.085441  5607 net.cpp:558] Eltwise15 <- Eltwise14_ReLU29_0_split_1
I0815 07:37:48.085446  5607 net.cpp:558] Eltwise15 <- Convolution31
I0815 07:37:48.085454  5607 net.cpp:522] Eltwise15 -> Eltwise15
I0815 07:37:48.085482  5607 net.cpp:172] Setting up Eltwise15
I0815 07:37:48.085494  5607 net.cpp:186] Top shape: 128 16 32 32 (2097152)
I0815 07:37:48.085497  5607 net.cpp:194] Memory required for data: 1410859520
I0815 07:37:48.085518  5607 layer_factory.hpp:77] Creating layer ReLU31
I0815 07:37:48.085525  5607 net.cpp:128] Creating Layer ReLU31
I0815 07:37:48.085530  5607 net.cpp:558] ReLU31 <- Eltwise15
I0815 07:37:48.085535  5607 net.cpp:509] ReLU31 -> Eltwise15 (in-place)
I0815 07:37:48.085783  5607 net.cpp:172] Setting up ReLU31
I0815 07:37:48.085800  5607 net.cpp:186] Top shape: 128 16 32 32 (2097152)
Could not create logging file: No such file or directory
COULD NOT CREATE A LOGGINGFILE 20180815-073748.5607!I0815 07:37:48.085804  5607 net.cpp:194] Memory required for data: 1419248128
I0815 07:37:48.085829  5607 layer_factory.hpp:77] Creating layer Eltwise15_ReLU31_0_split
I0815 07:37:48.085836  5607 net.cpp:128] Creating Layer Eltwise15_ReLU31_0_split
I0815 07:37:48.085841  5607 net.cpp:558] Eltwise15_ReLU31_0_split <- Eltwise15
I0815 07:37:48.085847  5607 net.cpp:522] Eltwise15_ReLU31_0_split -> Eltwise15_ReLU31_0_split_0
I0815 07:37:48.085858  5607 net.cpp:522] Eltwise15_ReLU31_0_split -> Eltwise15_ReLU31_0_split_1
I0815 07:37:48.085930  5607 net.cpp:172] Setting up Eltwise15_ReLU31_0_split
I0815 07:37:48.085940  5607 net.cpp:186] Top shape: 128 16 32 32 (2097152)
I0815 07:37:48.085947  5607 net.cpp:186] Top shape: 128 16 32 32 (2097152)
I0815 07:37:48.085950  5607 net.cpp:194] Memory required for data: 1436025344
I0815 07:37:48.085954  5607 layer_factory.hpp:77] Creating layer Convolution32
I0815 07:37:48.085968  5607 net.cpp:128] Creating Layer Convolution32
I0815 07:37:48.085973  5607 net.cpp:558] Convolution32 <- Eltwise15_ReLU31_0_split_0
I0815 07:37:48.085979  5607 net.cpp:522] Convolution32 -> Convolution32
I0815 07:37:48.087544  5607 net.cpp:172] Setting up Convolution32
I0815 07:37:48.087570  5607 net.cpp:186] Top shape: 128 16 32 32 (2097152)
I0815 07:37:48.087574  5607 net.cpp:194] Memory required for data: 1444413952
I0815 07:37:48.087585  5607 layer_factory.hpp:77] Creating layer BatchNorm32
I0815 07:37:48.087596  5607 net.cpp:128] Creating Layer BatchNorm32
I0815 07:37:48.087601  5607 net.cpp:558] BatchNorm32 <- Convolution32
I0815 07:37:48.087608  5607 net.cpp:509] BatchNorm32 -> Convolution32 (in-place)
I0815 07:37:48.087910  5607 net.cpp:172] Setting up BatchNorm32
I0815 07:37:48.087924  5607 net.cpp:186] Top shape: 128 16 32 32 (2097152)
I0815 07:37:48.087929  5607 net.cpp:194] Memory required for data: 1452802560
I0815 07:37:48.087939  5607 layer_factory.hpp:77] Creating layer Scale32
I0815 07:37:48.087946  5607 net.cpp:128] Creating Layer Scale32
I0815 07:37:48.087951  5607 net.cpp:558] Scale32 <- Convolution32
I0815 07:37:48.087956  5607 net.cpp:509] Scale32 -> Convolution32 (in-place)
I0815 07:37:48.088003  5607 layer_factory.hpp:77] Creating layer Scale32
I0815 07:37:48.088177  5607 net.cpp:172] Setting up Scale32
I0815 07:37:48.088189  5607 net.cpp:186] Top shape: 128 16 32 32 (2097152)
I0815 07:37:48.088193  5607 net.cpp:194] Memory required for data: 1461191168
Could not create logging file: No such file or directory
COULD NOT CREATE A LOGGINGFILE 20180815-073748.5607!I0815 07:37:48.088201  5607 layer_factory.hpp:77] Creating layer ReLU32
I0815 07:37:48.088228  5607 net.cpp:128] Creating Layer ReLU32
I0815 07:37:48.088234  5607 net.cpp:558] ReLU32 <- Convolution32
I0815 07:37:48.088239  5607 net.cpp:509] ReLU32 -> Convolution32 (in-place)
I0815 07:37:48.088484  5607 net.cpp:172] Setting up ReLU32
I0815 07:37:48.088497  5607 net.cpp:186] Top shape: 128 16 32 32 (2097152)
I0815 07:37:48.088501  5607 net.cpp:194] Memory required for data: 1469579776
I0815 07:37:48.088505  5607 layer_factory.hpp:77] Creating layer Convolution33
I0815 07:37:48.088521  5607 net.cpp:128] Creating Layer Convolution33
I0815 07:37:48.088526  5607 net.cpp:558] Convolution33 <- Convolution32
I0815 07:37:48.088533  5607 net.cpp:522] Convolution33 -> Convolution33
I0815 07:37:48.089977  5607 net.cpp:172] Setting up Convolution33
I0815 07:37:48.090003  5607 net.cpp:186] Top shape: 128 16 32 32 (2097152)
I0815 07:37:48.090006  5607 net.cpp:194] Memory required for data: 1477968384
I0815 07:37:48.090018  5607 layer_factory.hpp:77] Creating layer BatchNorm33
I0815 07:37:48.090029  5607 net.cpp:128] Creating Layer BatchNorm33
I0815 07:37:48.090034  5607 net.cpp:558] BatchNorm33 <- Convolution33
I0815 07:37:48.090042  5607 net.cpp:509] BatchNorm33 -> Convolution33 (in-place)
I0815 07:37:48.090318  5607 net.cpp:172] Setting up BatchNorm33
I0815 07:37:48.090329  5607 net.cpp:186] Top shape: 128 16 32 32 (2097152)
I0815 07:37:48.090333  5607 net.cpp:194] Memory required for data: 1486356992
I0815 07:37:48.090366  5607 layer_factory.hpp:77] Creating layer Scale33
I0815 07:37:48.090379  5607 net.cpp:128] Creating Layer Scale33
I0815 07:37:48.090384  5607 net.cpp:558] Scale33 <- Convolution33
I0815 07:37:48.090389  5607 net.cpp:509] Scale33 -> Convolution33 (in-place)
I0815 07:37:48.090437  5607 layer_factory.hpp:77] Creating layer Scale33
I0815 07:37:48.090592  5607 net.cpp:172] Setting up Scale33
I0815 07:37:48.090603  5607 net.cpp:186] Top shape: 128 16 32 32 (2097152)
I0815 07:37:48.090607  5607 net.cpp:194] Memory required for data: 1494745600
I0815 07:37:48.090615  5607 layer_factory.hpp:77] Creating layer Eltwise16
I0815 07:37:48.090623  5607 net.cpp:128] Creating Layer Eltwise16
I0815 07:37:48.090628  5607 net.cpp:558] Eltwise16 <- Eltwise15_ReLU31_0_split_1
Could not create logging file: No such file or directory
COULD NOT CREATE A LOGGINGFILE 20180815-073748.5607!I0815 07:37:48.090633  5607 net.cpp:558] Eltwise16 <- Convolution33
I0815 07:37:48.090661  5607 net.cpp:522] Eltwise16 -> Eltwise16
I0815 07:37:48.090693  5607 net.cpp:172] Setting up Eltwise16
I0815 07:37:48.090701  5607 net.cpp:186] Top shape: 128 16 32 32 (2097152)
I0815 07:37:48.090705  5607 net.cpp:194] Memory required for data: 1503134208
I0815 07:37:48.090709  5607 layer_factory.hpp:77] Creating layer ReLU33
I0815 07:37:48.090715  5607 net.cpp:128] Creating Layer ReLU33
I0815 07:37:48.090719  5607 net.cpp:558] ReLU33 <- Eltwise16
I0815 07:37:48.090725  5607 net.cpp:509] ReLU33 -> Eltwise16 (in-place)
I0815 07:37:48.091171  5607 net.cpp:172] Setting up ReLU33
I0815 07:37:48.091193  5607 net.cpp:186] Top shape: 128 16 32 32 (2097152)
I0815 07:37:48.091197  5607 net.cpp:194] Memory required for data: 1511522816
I0815 07:37:48.091202  5607 layer_factory.hpp:77] Creating layer Eltwise16_ReLU33_0_split
I0815 07:37:48.091212  5607 net.cpp:128] Creating Layer Eltwise16_ReLU33_0_split
I0815 07:37:48.091218  5607 net.cpp:558] Eltwise16_ReLU33_0_split <- Eltwise16
I0815 07:37:48.091228  5607 net.cpp:522] Eltwise16_ReLU33_0_split -> Eltwise16_ReLU33_0_split_0
I0815 07:37:48.091238  5607 net.cpp:522] Eltwise16_ReLU33_0_split -> Eltwise16_ReLU33_0_split_1
I0815 07:37:48.091297  5607 net.cpp:172] Setting up Eltwise16_ReLU33_0_split
I0815 07:37:48.091307  5607 net.cpp:186] Top shape: 128 16 32 32 (2097152)
I0815 07:37:48.091313  5607 net.cpp:186] Top shape: 128 16 32 32 (2097152)
I0815 07:37:48.091317  5607 net.cpp:194] Memory required for data: 1528300032
I0815 07:37:48.091321  5607 layer_factory.hpp:77] Creating layer Convolution34
I0815 07:37:48.091333  5607 net.cpp:128] Creating Layer Convolution34
I0815 07:37:48.091339  5607 net.cpp:558] Convolution34 <- Eltwise16_ReLU33_0_split_0
I0815 07:37:48.091349  5607 net.cpp:522] Convolution34 -> Convolution34
I0815 07:37:48.092728  5607 net.cpp:172] Setting up Convolution34
I0815 07:37:48.092753  5607 net.cpp:186] Top shape: 128 16 32 32 (2097152)
I0815 07:37:48.092757  5607 net.cpp:194] Memory required for data: 1536688640
I0815 07:37:48.092772  5607 layer_factory.hpp:77] Creating layer BatchNorm34
I0815 07:37:48.092783  5607 net.cpp:128] Creating Layer BatchNorm34
I0815 07:37:48.092792  5607 net.cpp:558] BatchNorm34 <- Convolution34
I0815 07:37:48.092802  5607 net.cpp:509] BatchNorm34 -> Convolution34 (in-place)
Could not create logging file: No such file or directory
COULD NOT CREATE A LOGGINGFILE 20180815-073748.5607!I0815 07:37:48.093098  5607 net.cpp:172] Setting up BatchNorm34
I0815 07:37:48.093124  5607 net.cpp:186] Top shape: 128 16 32 32 (2097152)
I0815 07:37:48.093129  5607 net.cpp:194] Memory required for data: 1545077248
I0815 07:37:48.093139  5607 layer_factory.hpp:77] Creating layer Scale34
I0815 07:37:48.093147  5607 net.cpp:128] Creating Layer Scale34
I0815 07:37:48.093152  5607 net.cpp:558] Scale34 <- Convolution34
I0815 07:37:48.093156  5607 net.cpp:509] Scale34 -> Convolution34 (in-place)
I0815 07:37:48.093235  5607 layer_factory.hpp:77] Creating layer Scale34
I0815 07:37:48.093395  5607 net.cpp:172] Setting up Scale34
I0815 07:37:48.093405  5607 net.cpp:186] Top shape: 128 16 32 32 (2097152)
I0815 07:37:48.093410  5607 net.cpp:194] Memory required for data: 1553465856
I0815 07:37:48.093418  5607 layer_factory.hpp:77] Creating layer ReLU34
I0815 07:37:48.093425  5607 net.cpp:128] Creating Layer ReLU34
I0815 07:37:48.093430  5607 net.cpp:558] ReLU34 <- Convolution34
I0815 07:37:48.093437  5607 net.cpp:509] ReLU34 -> Convolution34 (in-place)
I0815 07:37:48.093698  5607 net.cpp:172] Setting up ReLU34
I0815 07:37:48.093711  5607 net.cpp:186] Top shape: 128 16 32 32 (2097152)
I0815 07:37:48.093715  5607 net.cpp:194] Memory required for data: 1561854464
I0815 07:37:48.093720  5607 layer_factory.hpp:77] Creating layer Convolution35
I0815 07:37:48.093732  5607 net.cpp:128] Creating Layer Convolution35
I0815 07:37:48.093740  5607 net.cpp:558] Convolution35 <- Convolution34
I0815 07:37:48.093750  5607 net.cpp:522] Convolution35 -> Convolution35
I0815 07:37:48.095203  5607 net.cpp:172] Setting up Convolution35
I0815 07:37:48.095228  5607 net.cpp:186] Top shape: 128 16 32 32 (2097152)
I0815 07:37:48.095232  5607 net.cpp:194] Memory required for data: 1570243072
I0815 07:37:48.095247  5607 layer_factory.hpp:77] Creating layer BatchNorm35
I0815 07:37:48.095257  5607 net.cpp:128] Creating Layer BatchNorm35
I0815 07:37:48.095263  5607 net.cpp:558] BatchNorm35 <- Convolution35
I0815 07:37:48.095273  5607 net.cpp:509] BatchNorm35 -> Convolution35 (in-place)
I0815 07:37:48.095556  5607 net.cpp:172] Setting up BatchNorm35
I0815 07:37:48.095567  5607 net.cpp:186] Top shape: 128 16 32 32 (2097152)
I0815 07:37:48.095571  5607 net.cpp:194] Memory required for data: 1578631680
Could not create logging file: No such file or directory
COULD NOT CREATE A LOGGINGFILE 20180815-073748.5607!I0815 07:37:48.095582  5607 layer_factory.hpp:77] Creating layer Scale35
I0815 07:37:48.095610  5607 net.cpp:128] Creating Layer Scale35
I0815 07:37:48.095615  5607 net.cpp:558] Scale35 <- Convolution35
I0815 07:37:48.095620  5607 net.cpp:509] Scale35 -> Convolution35 (in-place)
I0815 07:37:48.095667  5607 layer_factory.hpp:77] Creating layer Scale35
I0815 07:37:48.095841  5607 net.cpp:172] Setting up Scale35
I0815 07:37:48.095852  5607 net.cpp:186] Top shape: 128 16 32 32 (2097152)
I0815 07:37:48.095856  5607 net.cpp:194] Memory required for data: 1587020288
I0815 07:37:48.095865  5607 layer_factory.hpp:77] Creating layer Eltwise17
I0815 07:37:48.095875  5607 net.cpp:128] Creating Layer Eltwise17
I0815 07:37:48.095881  5607 net.cpp:558] Eltwise17 <- Eltwise16_ReLU33_0_split_1
I0815 07:37:48.095887  5607 net.cpp:558] Eltwise17 <- Convolution35
I0815 07:37:48.095893  5607 net.cpp:522] Eltwise17 -> Eltwise17
I0815 07:37:48.095923  5607 net.cpp:172] Setting up Eltwise17
I0815 07:37:48.095932  5607 net.cpp:186] Top shape: 128 16 32 32 (2097152)
I0815 07:37:48.095937  5607 net.cpp:194] Memory required for data: 1595408896
I0815 07:37:48.095940  5607 layer_factory.hpp:77] Creating layer ReLU35
I0815 07:37:48.095947  5607 net.cpp:128] Creating Layer ReLU35
I0815 07:37:48.095952  5607 net.cpp:558] ReLU35 <- Eltwise17
I0815 07:37:48.095958  5607 net.cpp:509] ReLU35 -> Eltwise17 (in-place)
I0815 07:37:48.096210  5607 net.cpp:172] Setting up ReLU35
I0815 07:37:48.096222  5607 net.cpp:186] Top shape: 128 16 32 32 (2097152)
I0815 07:37:48.096226  5607 net.cpp:194] Memory required for data: 1603797504
I0815 07:37:48.096231  5607 layer_factory.hpp:77] Creating layer Eltwise17_ReLU35_0_split
I0815 07:37:48.096238  5607 net.cpp:128] Creating Layer Eltwise17_ReLU35_0_split
I0815 07:37:48.096243  5607 net.cpp:558] Eltwise17_ReLU35_0_split <- Eltwise17
I0815 07:37:48.096251  5607 net.cpp:522] Eltwise17_ReLU35_0_split -> Eltwise17_ReLU35_0_split_0
I0815 07:37:48.096259  5607 net.cpp:522] Eltwise17_ReLU35_0_split -> Eltwise17_ReLU35_0_split_1
I0815 07:37:48.096315  5607 net.cpp:172] Setting up Eltwise17_ReLU35_0_split
I0815 07:37:48.096325  5607 net.cpp:186] Top shape: 128 16 32 32 (2097152)
I0815 07:37:48.096331  5607 net.cpp:186] Top shape: 128 16 32 32 (2097152)
I0815 07:37:48.096335  5607 net.cpp:194] Memory required for data: 1620574720
Could not create logging file: No such file or directory
COULD NOT CREATE A LOGGINGFILE 20180815-073748.5607!I0815 07:37:48.096339  5607 layer_factory.hpp:77] Creating layer Convolution36
I0815 07:37:48.096370  5607 net.cpp:128] Creating Layer Convolution36
I0815 07:37:48.096377  5607 net.cpp:558] Convolution36 <- Eltwise17_ReLU35_0_split_0
I0815 07:37:48.096385  5607 net.cpp:522] Convolution36 -> Convolution36
I0815 07:37:48.097761  5607 net.cpp:172] Setting up Convolution36
I0815 07:37:48.097787  5607 net.cpp:186] Top shape: 128 16 32 32 (2097152)
I0815 07:37:48.097791  5607 net.cpp:194] Memory required for data: 1628963328
I0815 07:37:48.097806  5607 layer_factory.hpp:77] Creating layer BatchNorm36
I0815 07:37:48.097816  5607 net.cpp:128] Creating Layer BatchNorm36
I0815 07:37:48.097824  5607 net.cpp:558] BatchNorm36 <- Convolution36
I0815 07:37:48.097833  5607 net.cpp:509] BatchNorm36 -> Convolution36 (in-place)
I0815 07:37:48.098115  5607 net.cpp:172] Setting up BatchNorm36
I0815 07:37:48.098124  5607 net.cpp:186] Top shape: 128 16 32 32 (2097152)
I0815 07:37:48.098129  5607 net.cpp:194] Memory required for data: 1637351936
I0815 07:37:48.098139  5607 layer_factory.hpp:77] Creating layer Scale36
I0815 07:37:48.098155  5607 net.cpp:128] Creating Layer Scale36
I0815 07:37:48.098161  5607 net.cpp:558] Scale36 <- Convolution36
I0815 07:37:48.098167  5607 net.cpp:509] Scale36 -> Convolution36 (in-place)
I0815 07:37:48.098212  5607 layer_factory.hpp:77] Creating layer Scale36
I0815 07:37:48.098372  5607 net.cpp:172] Setting up Scale36
I0815 07:37:48.098382  5607 net.cpp:186] Top shape: 128 16 32 32 (2097152)
I0815 07:37:48.098387  5607 net.cpp:194] Memory required for data: 1645740544
I0815 07:37:48.098394  5607 layer_factory.hpp:77] Creating layer ReLU36
I0815 07:37:48.098403  5607 net.cpp:128] Creating Layer ReLU36
I0815 07:37:48.098407  5607 net.cpp:558] ReLU36 <- Convolution36
I0815 07:37:48.098413  5607 net.cpp:509] ReLU36 -> Convolution36 (in-place)
I0815 07:37:48.098845  5607 net.cpp:172] Setting up ReLU36
I0815 07:37:48.098865  5607 net.cpp:186] Top shape: 128 16 32 32 (2097152)
I0815 07:37:48.098870  5607 net.cpp:194] Memory required for data: 1654129152
I0815 07:37:48.098875  5607 layer_factory.hpp:77] Creating layer Convolution37
I0815 07:37:48.098888  5607 net.cpp:128] Creating Layer Convolution37
I0815 07:37:48.098893  5607 net.cpp:558] Convolution37 <- Convolution36
Could not create logging file: No such file or directory
COULD NOT CREATE A LOGGINGFILE 20180815-073748.5607!I0815 07:37:48.098903  5607 net.cpp:522] Convolution37 -> Convolution37
I0815 07:37:48.100359  5607 net.cpp:172] Setting up Convolution37
I0815 07:37:48.100385  5607 net.cpp:186] Top shape: 128 16 32 32 (2097152)
I0815 07:37:48.100390  5607 net.cpp:194] Memory required for data: 1662517760
I0815 07:37:48.100404  5607 layer_factory.hpp:77] Creating layer BatchNorm37
I0815 07:37:48.100414  5607 net.cpp:128] Creating Layer BatchNorm37
I0815 07:37:48.100420  5607 net.cpp:558] BatchNorm37 <- Convolution37
I0815 07:37:48.100427  5607 net.cpp:509] BatchNorm37 -> Convolution37 (in-place)
I0815 07:37:48.100710  5607 net.cpp:172] Setting up BatchNorm37
I0815 07:37:48.100723  5607 net.cpp:186] Top shape: 128 16 32 32 (2097152)
I0815 07:37:48.100728  5607 net.cpp:194] Memory required for data: 1670906368
I0815 07:37:48.100760  5607 layer_factory.hpp:77] Creating layer Scale37
I0815 07:37:48.100769  5607 net.cpp:128] Creating Layer Scale37
I0815 07:37:48.100774  5607 net.cpp:558] Scale37 <- Convolution37
I0815 07:37:48.100780  5607 net.cpp:509] Scale37 -> Convolution37 (in-place)
I0815 07:37:48.100824  5607 layer_factory.hpp:77] Creating layer Scale37
I0815 07:37:48.100980  5607 net.cpp:172] Setting up Scale37
I0815 07:37:48.100991  5607 net.cpp:186] Top shape: 128 16 32 32 (2097152)
I0815 07:37:48.100994  5607 net.cpp:194] Memory required for data: 1679294976
I0815 07:37:48.101002  5607 layer_factory.hpp:77] Creating layer Eltwise18
I0815 07:37:48.101011  5607 net.cpp:128] Creating Layer Eltwise18
I0815 07:37:48.101016  5607 net.cpp:558] Eltwise18 <- Eltwise17_ReLU35_0_split_1
I0815 07:37:48.101022  5607 net.cpp:558] Eltwise18 <- Convolution37
I0815 07:37:48.101029  5607 net.cpp:522] Eltwise18 -> Eltwise18
I0815 07:37:48.101058  5607 net.cpp:172] Setting up Eltwise18
I0815 07:37:48.101065  5607 net.cpp:186] Top shape: 128 16 32 32 (2097152)
I0815 07:37:48.101069  5607 net.cpp:194] Memory required for data: 1687683584
I0815 07:37:48.101073  5607 layer_factory.hpp:77] Creating layer ReLU37
I0815 07:37:48.101083  5607 net.cpp:128] Creating Layer ReLU37
I0815 07:37:48.101088  5607 net.cpp:558] ReLU37 <- Eltwise18
I0815 07:37:48.101094  5607 net.cpp:509] ReLU37 -> Eltwise18 (in-place)
I0815 07:37:48.101369  5607 net.cpp:172] Setting up ReLU37
Could not create logging file: No such file or directory
COULD NOT CREATE A LOGGINGFILE 20180815-073748.5607!I0815 07:37:48.101384  5607 net.cpp:186] Top shape: 128 16 32 32 (2097152)
I0815 07:37:48.101410  5607 net.cpp:194] Memory required for data: 1696072192
I0815 07:37:48.101416  5607 layer_factory.hpp:77] Creating layer Eltwise18_ReLU37_0_split
I0815 07:37:48.101423  5607 net.cpp:128] Creating Layer Eltwise18_ReLU37_0_split
I0815 07:37:48.101428  5607 net.cpp:558] Eltwise18_ReLU37_0_split <- Eltwise18
I0815 07:37:48.101435  5607 net.cpp:522] Eltwise18_ReLU37_0_split -> Eltwise18_ReLU37_0_split_0
I0815 07:37:48.101464  5607 net.cpp:522] Eltwise18_ReLU37_0_split -> Eltwise18_ReLU37_0_split_1
I0815 07:37:48.101521  5607 net.cpp:172] Setting up Eltwise18_ReLU37_0_split
I0815 07:37:48.101531  5607 net.cpp:186] Top shape: 128 16 32 32 (2097152)
I0815 07:37:48.101536  5607 net.cpp:186] Top shape: 128 16 32 32 (2097152)
I0815 07:37:48.101541  5607 net.cpp:194] Memory required for data: 1712849408
I0815 07:37:48.101544  5607 layer_factory.hpp:77] Creating layer Convolution38
I0815 07:37:48.101557  5607 net.cpp:128] Creating Layer Convolution38
I0815 07:37:48.101562  5607 net.cpp:558] Convolution38 <- Eltwise18_ReLU37_0_split_0
I0815 07:37:48.101570  5607 net.cpp:522] Convolution38 -> Convolution38
I0815 07:37:48.103082  5607 net.cpp:172] Setting up Convolution38
I0815 07:37:48.103107  5607 net.cpp:186] Top shape: 128 32 16 16 (1048576)
I0815 07:37:48.103112  5607 net.cpp:194] Memory required for data: 1717043712
I0815 07:37:48.103122  5607 layer_factory.hpp:77] Creating layer BatchNorm38
I0815 07:37:48.103133  5607 net.cpp:128] Creating Layer BatchNorm38
I0815 07:37:48.103139  5607 net.cpp:558] BatchNorm38 <- Convolution38
I0815 07:37:48.103147  5607 net.cpp:509] BatchNorm38 -> Convolution38 (in-place)
I0815 07:37:48.103430  5607 net.cpp:172] Setting up BatchNorm38
I0815 07:37:48.103442  5607 net.cpp:186] Top shape: 128 32 16 16 (1048576)
I0815 07:37:48.103446  5607 net.cpp:194] Memory required for data: 1721238016
I0815 07:37:48.103456  5607 layer_factory.hpp:77] Creating layer Scale38
I0815 07:37:48.103464  5607 net.cpp:128] Creating Layer Scale38
I0815 07:37:48.103469  5607 net.cpp:558] Scale38 <- Convolution38
I0815 07:37:48.103476  5607 net.cpp:509] Scale38 -> Convolution38 (in-place)
I0815 07:37:48.103523  5607 layer_factory.hpp:77] Creating layer Scale38
I0815 07:37:48.103682  5607 net.cpp:172] Setting up Scale38
I0815 07:37:48.103693  5607 net.cpp:186] Top shape: 128 32 16 16 (1048576)
Could not create logging file: No such file or directory
COULD NOT CREATE A LOGGINGFILE 20180815-073748.5607!I0815 07:37:48.103698  5607 net.cpp:194] Memory required for data: 1725432320
I0815 07:37:48.103723  5607 layer_factory.hpp:77] Creating layer Convolution39
I0815 07:37:48.103734  5607 net.cpp:128] Creating Layer Convolution39
I0815 07:37:48.103740  5607 net.cpp:558] Convolution39 <- Eltwise18_ReLU37_0_split_1
I0815 07:37:48.103749  5607 net.cpp:522] Convolution39 -> Convolution39
I0815 07:37:48.106451  5607 net.cpp:172] Setting up Convolution39
I0815 07:37:48.106477  5607 net.cpp:186] Top shape: 128 32 16 16 (1048576)
I0815 07:37:48.106482  5607 net.cpp:194] Memory required for data: 1729626624
I0815 07:37:48.106493  5607 layer_factory.hpp:77] Creating layer BatchNorm39
I0815 07:37:48.106504  5607 net.cpp:128] Creating Layer BatchNorm39
I0815 07:37:48.106513  5607 net.cpp:558] BatchNorm39 <- Convolution39
I0815 07:37:48.106523  5607 net.cpp:509] BatchNorm39 -> Convolution39 (in-place)
I0815 07:37:48.106843  5607 net.cpp:172] Setting up BatchNorm39
I0815 07:37:48.106858  5607 net.cpp:186] Top shape: 128 32 16 16 (1048576)
I0815 07:37:48.106863  5607 net.cpp:194] Memory required for data: 1733820928
I0815 07:37:48.106873  5607 layer_factory.hpp:77] Creating layer Scale39
I0815 07:37:48.106879  5607 net.cpp:128] Creating Layer Scale39
I0815 07:37:48.106884  5607 net.cpp:558] Scale39 <- Convolution39
I0815 07:37:48.106890  5607 net.cpp:509] Scale39 -> Convolution39 (in-place)
I0815 07:37:48.106947  5607 layer_factory.hpp:77] Creating layer Scale39
I0815 07:37:48.107134  5607 net.cpp:172] Setting up Scale39
I0815 07:37:48.107147  5607 net.cpp:186] Top shape: 128 32 16 16 (1048576)
I0815 07:37:48.107151  5607 net.cpp:194] Memory required for data: 1738015232
I0815 07:37:48.107161  5607 layer_factory.hpp:77] Creating layer ReLU38
I0815 07:37:48.107167  5607 net.cpp:128] Creating Layer ReLU38
I0815 07:37:48.107172  5607 net.cpp:558] ReLU38 <- Convolution39
I0815 07:37:48.107179  5607 net.cpp:509] ReLU38 -> Convolution39 (in-place)
I0815 07:37:48.107439  5607 net.cpp:172] Setting up ReLU38
I0815 07:37:48.107455  5607 net.cpp:186] Top shape: 128 32 16 16 (1048576)
I0815 07:37:48.107460  5607 net.cpp:194] Memory required for data: 1742209536
I0815 07:37:48.107463  5607 layer_factory.hpp:77] Creating layer Convolution40
I0815 07:37:48.107477  5607 net.cpp:128] Creating Layer Convolution40
Could not create logging file: No such file or directory
COULD NOT CREATE A LOGGINGFILE 20180815-073748.5607!I0815 07:37:48.107483  5607 net.cpp:558] Convolution40 <- Convolution39
I0815 07:37:48.107511  5607 net.cpp:522] Convolution40 -> Convolution40
I0815 07:37:48.109064  5607 net.cpp:172] Setting up Convolution40
I0815 07:37:48.109091  5607 net.cpp:186] Top shape: 128 32 16 16 (1048576)
I0815 07:37:48.109094  5607 net.cpp:194] Memory required for data: 1746403840
I0815 07:37:48.109104  5607 layer_factory.hpp:77] Creating layer BatchNorm40
I0815 07:37:48.109115  5607 net.cpp:128] Creating Layer BatchNorm40
I0815 07:37:48.109122  5607 net.cpp:558] BatchNorm40 <- Convolution40
I0815 07:37:48.109134  5607 net.cpp:509] BatchNorm40 -> Convolution40 (in-place)
I0815 07:37:48.109412  5607 net.cpp:172] Setting up BatchNorm40
I0815 07:37:48.109423  5607 net.cpp:186] Top shape: 128 32 16 16 (1048576)
I0815 07:37:48.109427  5607 net.cpp:194] Memory required for data: 1750598144
I0815 07:37:48.109437  5607 layer_factory.hpp:77] Creating layer Scale40
I0815 07:37:48.109447  5607 net.cpp:128] Creating Layer Scale40
I0815 07:37:48.109450  5607 net.cpp:558] Scale40 <- Convolution40
I0815 07:37:48.109457  5607 net.cpp:509] Scale40 -> Convolution40 (in-place)
I0815 07:37:48.109501  5607 layer_factory.hpp:77] Creating layer Scale40
I0815 07:37:48.109657  5607 net.cpp:172] Setting up Scale40
I0815 07:37:48.109664  5607 net.cpp:186] Top shape: 128 32 16 16 (1048576)
I0815 07:37:48.109668  5607 net.cpp:194] Memory required for data: 1754792448
I0815 07:37:48.109675  5607 layer_factory.hpp:77] Creating layer Eltwise19
I0815 07:37:48.109685  5607 net.cpp:128] Creating Layer Eltwise19
I0815 07:37:48.109690  5607 net.cpp:558] Eltwise19 <- Convolution38
I0815 07:37:48.109695  5607 net.cpp:558] Eltwise19 <- Convolution40
I0815 07:37:48.109701  5607 net.cpp:522] Eltwise19 -> Eltwise19
I0815 07:37:48.109728  5607 net.cpp:172] Setting up Eltwise19
I0815 07:37:48.109735  5607 net.cpp:186] Top shape: 128 32 16 16 (1048576)
I0815 07:37:48.109740  5607 net.cpp:194] Memory required for data: 1758986752
I0815 07:37:48.109743  5607 layer_factory.hpp:77] Creating layer ReLU39
I0815 07:37:48.109750  5607 net.cpp:128] Creating Layer ReLU39
I0815 07:37:48.109753  5607 net.cpp:558] ReLU39 <- Eltwise19
I0815 07:37:48.109760  5607 net.cpp:509] ReLU39 -> Eltwise19 (in-place)
Could not create logging file: No such file or directory
COULD NOT CREATE A LOGGINGFILE 20180815-073748.5607!I0815 07:37:48.110050  5607 net.cpp:172] Setting up ReLU39
I0815 07:37:48.110085  5607 net.cpp:186] Top shape: 128 32 16 16 (1048576)
I0815 07:37:48.110090  5607 net.cpp:194] Memory required for data: 1763181056
I0815 07:37:48.110095  5607 layer_factory.hpp:77] Creating layer Eltwise19_ReLU39_0_split
I0815 07:37:48.110101  5607 net.cpp:128] Creating Layer Eltwise19_ReLU39_0_split
I0815 07:37:48.110107  5607 net.cpp:558] Eltwise19_ReLU39_0_split <- Eltwise19
I0815 07:37:48.110116  5607 net.cpp:522] Eltwise19_ReLU39_0_split -> Eltwise19_ReLU39_0_split_0
I0815 07:37:48.110126  5607 net.cpp:522] Eltwise19_ReLU39_0_split -> Eltwise19_ReLU39_0_split_1
I0815 07:37:48.110198  5607 net.cpp:172] Setting up Eltwise19_ReLU39_0_split
I0815 07:37:48.110208  5607 net.cpp:186] Top shape: 128 32 16 16 (1048576)
I0815 07:37:48.110214  5607 net.cpp:186] Top shape: 128 32 16 16 (1048576)
I0815 07:37:48.110219  5607 net.cpp:194] Memory required for data: 1771569664
I0815 07:37:48.110222  5607 layer_factory.hpp:77] Creating layer Convolution41
I0815 07:37:48.110239  5607 net.cpp:128] Creating Layer Convolution41
I0815 07:37:48.110244  5607 net.cpp:558] Convolution41 <- Eltwise19_ReLU39_0_split_0
I0815 07:37:48.110250  5607 net.cpp:522] Convolution41 -> Convolution41
I0815 07:37:48.111778  5607 net.cpp:172] Setting up Convolution41
I0815 07:37:48.111800  5607 net.cpp:186] Top shape: 128 32 16 16 (1048576)
I0815 07:37:48.111805  5607 net.cpp:194] Memory required for data: 1775763968
I0815 07:37:48.111819  5607 layer_factory.hpp:77] Creating layer BatchNorm41
I0815 07:37:48.111829  5607 net.cpp:128] Creating Layer BatchNorm41
I0815 07:37:48.111835  5607 net.cpp:558] BatchNorm41 <- Convolution41
I0815 07:37:48.111842  5607 net.cpp:509] BatchNorm41 -> Convolution41 (in-place)
I0815 07:37:48.112136  5607 net.cpp:172] Setting up BatchNorm41
I0815 07:37:48.112149  5607 net.cpp:186] Top shape: 128 32 16 16 (1048576)
I0815 07:37:48.112152  5607 net.cpp:194] Memory required for data: 1779958272
I0815 07:37:48.112162  5607 layer_factory.hpp:77] Creating layer Scale41
I0815 07:37:48.112171  5607 net.cpp:128] Creating Layer Scale41
I0815 07:37:48.112176  5607 net.cpp:558] Scale41 <- Convolution41
I0815 07:37:48.112181  5607 net.cpp:509] Scale41 -> Convolution41 (in-place)
I0815 07:37:48.112226  5607 layer_factory.hpp:77] Creating layer Scale41
I0815 07:37:48.112401  5607 net.cpp:172] Setting up Scale41
Could not create logging file: No such file or directory
COULD NOT CREATE A LOGGINGFILE 20180815-073748.5607!I0815 07:37:48.112412  5607 net.cpp:186] Top shape: 128 32 16 16 (1048576)
I0815 07:37:48.112434  5607 net.cpp:194] Memory required for data: 1784152576
I0815 07:37:48.112443  5607 layer_factory.hpp:77] Creating layer ReLU40
I0815 07:37:48.112452  5607 net.cpp:128] Creating Layer ReLU40
I0815 07:37:48.112457  5607 net.cpp:558] ReLU40 <- Convolution41
I0815 07:37:48.112462  5607 net.cpp:509] ReLU40 -> Convolution41 (in-place)
I0815 07:37:48.112907  5607 net.cpp:172] Setting up ReLU40
I0815 07:37:48.112927  5607 net.cpp:186] Top shape: 128 32 16 16 (1048576)
I0815 07:37:48.112931  5607 net.cpp:194] Memory required for data: 1788346880
I0815 07:37:48.112937  5607 layer_factory.hpp:77] Creating layer Convolution42
I0815 07:37:48.112952  5607 net.cpp:128] Creating Layer Convolution42
I0815 07:37:48.112959  5607 net.cpp:558] Convolution42 <- Convolution41
I0815 07:37:48.112969  5607 net.cpp:522] Convolution42 -> Convolution42
I0815 07:37:48.114681  5607 net.cpp:172] Setting up Convolution42
I0815 07:37:48.114706  5607 net.cpp:186] Top shape: 128 32 16 16 (1048576)
I0815 07:37:48.114711  5607 net.cpp:194] Memory required for data: 1792541184
I0815 07:37:48.114724  5607 layer_factory.hpp:77] Creating layer BatchNorm42
I0815 07:37:48.114737  5607 net.cpp:128] Creating Layer BatchNorm42
I0815 07:37:48.114742  5607 net.cpp:558] BatchNorm42 <- Convolution42
I0815 07:37:48.114751  5607 net.cpp:509] BatchNorm42 -> Convolution42 (in-place)
I0815 07:37:48.115052  5607 net.cpp:172] Setting up BatchNorm42
I0815 07:37:48.115063  5607 net.cpp:186] Top shape: 128 32 16 16 (1048576)
I0815 07:37:48.115067  5607 net.cpp:194] Memory required for data: 1796735488
I0815 07:37:48.115077  5607 layer_factory.hpp:77] Creating layer Scale42
I0815 07:37:48.115085  5607 net.cpp:128] Creating Layer Scale42
I0815 07:37:48.115089  5607 net.cpp:558] Scale42 <- Convolution42
I0815 07:37:48.115097  5607 net.cpp:509] Scale42 -> Convolution42 (in-place)
I0815 07:37:48.115140  5607 layer_factory.hpp:77] Creating layer Scale42
I0815 07:37:48.115300  5607 net.cpp:172] Setting up Scale42
I0815 07:37:48.115309  5607 net.cpp:186] Top shape: 128 32 16 16 (1048576)
I0815 07:37:48.115314  5607 net.cpp:194] Memory required for data: 1800929792
I0815 07:37:48.115321  5607 layer_factory.hpp:77] Creating layer Eltwise20
Could not create logging file: No such file or directory
COULD NOT CREATE A LOGGINGFILE 20180815-073748.5607!I0815 07:37:48.115329  5607 net.cpp:128] Creating Layer Eltwise20
I0815 07:37:48.115358  5607 net.cpp:558] Eltwise20 <- Eltwise19_ReLU39_0_split_1
I0815 07:37:48.115365  5607 net.cpp:558] Eltwise20 <- Convolution42
I0815 07:37:48.115371  5607 net.cpp:522] Eltwise20 -> Eltwise20
I0815 07:37:48.115396  5607 net.cpp:172] Setting up Eltwise20
I0815 07:37:48.115406  5607 net.cpp:186] Top shape: 128 32 16 16 (1048576)
I0815 07:37:48.115409  5607 net.cpp:194] Memory required for data: 1805124096
I0815 07:37:48.115414  5607 layer_factory.hpp:77] Creating layer ReLU41
I0815 07:37:48.115420  5607 net.cpp:128] Creating Layer ReLU41
I0815 07:37:48.115427  5607 net.cpp:558] ReLU41 <- Eltwise20
I0815 07:37:48.115432  5607 net.cpp:509] ReLU41 -> Eltwise20 (in-place)
I0815 07:37:48.115715  5607 net.cpp:172] Setting up ReLU41
I0815 07:37:48.115730  5607 net.cpp:186] Top shape: 128 32 16 16 (1048576)
I0815 07:37:48.115734  5607 net.cpp:194] Memory required for data: 1809318400
I0815 07:37:48.115739  5607 layer_factory.hpp:77] Creating layer Eltwise20_ReLU41_0_split
I0815 07:37:48.115748  5607 net.cpp:128] Creating Layer Eltwise20_ReLU41_0_split
I0815 07:37:48.115753  5607 net.cpp:558] Eltwise20_ReLU41_0_split <- Eltwise20
I0815 07:37:48.115761  5607 net.cpp:522] Eltwise20_ReLU41_0_split -> Eltwise20_ReLU41_0_split_0
I0815 07:37:48.115768  5607 net.cpp:522] Eltwise20_ReLU41_0_split -> Eltwise20_ReLU41_0_split_1
I0815 07:37:48.115849  5607 net.cpp:172] Setting up Eltwise20_ReLU41_0_split
I0815 07:37:48.115860  5607 net.cpp:186] Top shape: 128 32 16 16 (1048576)
I0815 07:37:48.115866  5607 net.cpp:186] Top shape: 128 32 16 16 (1048576)
I0815 07:37:48.115870  5607 net.cpp:194] Memory required for data: 1817707008
I0815 07:37:48.115875  5607 layer_factory.hpp:77] Creating layer Convolution43
I0815 07:37:48.115887  5607 net.cpp:128] Creating Layer Convolution43
I0815 07:37:48.115893  5607 net.cpp:558] Convolution43 <- Eltwise20_ReLU41_0_split_0
I0815 07:37:48.115902  5607 net.cpp:522] Convolution43 -> Convolution43
I0815 07:37:48.117429  5607 net.cpp:172] Setting up Convolution43
…
I0815 07:37:48.994391  5607 net.cpp:128] Creating Layer BatchNorm95
I0815 07:37:48.994396  5607 net.cpp:558] BatchNorm95 <- Convolution95
I0815 07:37:48.994405  5607 net.cpp:509] BatchNorm95 -> Convolution95 (in-place)
I0815 07:37:48.994678  5607 net.cpp:172] Setting up BatchNorm95
I0815 07:37:48.994684  5607 net.cpp:186] Top shape: 10 64 8 8 (40960)
I0815 07:37:48.994688  5607 net.cpp:194] Memory required for data: 217374840
I0815 07:37:48.994698  5607 layer_factory.hpp:77] Creating layer Scale95
I0815 07:37:48.994704  5607 net.cpp:128] Creating Layer Scale95
I0815 07:37:48.994709  5607 net.cpp:558] Scale95 <- Convolution95
I0815 07:37:48.994714  5607 net.cpp:509] Scale95 -> Convolution95 (in-place)
I0815 07:37:48.994765  5607 layer_factory.hpp:77] Creating layer Scale95
I0815 07:37:48.994917  5607 net.cpp:172] Setting up Scale95
I0815 07:37:48.994925  5607 net.cpp:186] Top shape: 10 64 8 8 (40960)
I0815 07:37:48.994940  5607 net.cpp:194] Memory required for data: 217538680
I0815 07:37:48.994948  5607 layer_factory.hpp:77] Creating layer Eltwise46
I0815 07:37:48.994957  5607 net.cpp:128] Creating Layer Eltwise46
I0815 07:37:48.994962  5607 net.cpp:558] Eltwise46 <- Eltwise45_ReLU91_0_split_1
I0815 07:37:48.994967  5607 net.cpp:558] Eltwise46 <- Convolution95
I0815 07:37:48.994973  5607 net.cpp:522] Eltwise46 -> Eltwise46
I0815 07:37:48.995004  5607 net.cpp:172] Setting up Eltwise46
I0815 07:37:48.995012  5607 net.cpp:186] Top shape: 10 64 8 8 (40960)
I0815 07:37:48.995015  5607 net.cpp:194] Memory required for data: 217702520
I0815 07:37:48.995019  5607 layer_factory.hpp:77] Creating layer ReLU93
I0815 07:37:48.995024  5607 net.cpp:128] Creating Layer ReLU93
I0815 07:37:48.995029  5607 net.cpp:558] ReLU93 <- Eltwise46
I0815 07:37:48.995034  5607 net.cpp:509] ReLU93 -> Eltwise46 (in-place)
Could not create logging file: No such file or directory
COULD NOT CREATE A LOGGINGFILE 20180815-073748.5607!I0815 07:37:48.995352  5607 net.cpp:172] Setting up ReLU93
I0815 07:37:48.995379  5607 net.cpp:186] Top shape: 10 64 8 8 (40960)
I0815 07:37:48.995384  5607 net.cpp:194] Memory required for data: 217866360
I0815 07:37:48.995389  5607 layer_factory.hpp:77] Creating layer Eltwise46_ReLU93_0_split
I0815 07:37:48.995396  5607 net.cpp:128] Creating Layer Eltwise46_ReLU93_0_split
I0815 07:37:48.995404  5607 net.cpp:558] Eltwise46_ReLU93_0_split <- Eltwise46
I0815 07:37:48.995410  5607 net.cpp:522] Eltwise46_ReLU93_0_split -> Eltwise46_ReLU93_0_split_0
I0815 07:37:48.995419  5607 net.cpp:522] Eltwise46_ReLU93_0_split -> Eltwise46_ReLU93_0_split_1
I0815 07:37:48.995476  5607 net.cpp:172] Setting up Eltwise46_ReLU93_0_split
I0815 07:37:48.995482  5607 net.cpp:186] Top shape: 10 64 8 8 (40960)
I0815 07:37:48.995488  5607 net.cpp:186] Top shape: 10 64 8 8 (40960)
I0815 07:37:48.995492  5607 net.cpp:194] Memory required for data: 218194040
I0815 07:37:48.995496  5607 layer_factory.hpp:77] Creating layer Convolution96
I0815 07:37:48.995507  5607 net.cpp:128] Creating Layer Convolution96
I0815 07:37:48.995512  5607 net.cpp:558] Convolution96 <- Eltwise46_ReLU93_0_split_0
I0815 07:37:48.995523  5607 net.cpp:522] Convolution96 -> Convolution96
I0815 07:37:48.997849  5607 net.cpp:172] Setting up Convolution96
I0815 07:37:48.997867  5607 net.cpp:186] Top shape: 10 64 8 8 (40960)
I0815 07:37:48.997871  5607 net.cpp:194] Memory required for data: 218357880
I0815 07:37:48.997881  5607 layer_factory.hpp:77] Creating layer BatchNorm96
I0815 07:37:48.997891  5607 net.cpp:128] Creating Layer BatchNorm96
I0815 07:37:48.997897  5607 net.cpp:558] BatchNorm96 <- Convolution96
I0815 07:37:48.997906  5607 net.cpp:509] BatchNorm96 -> Convolution96 (in-place)
I0815 07:37:48.998188  5607 net.cpp:172] Setting up BatchNorm96
I0815 07:37:48.998194  5607 net.cpp:186] Top shape: 10 64 8 8 (40960)
I0815 07:37:48.998198  5607 net.cpp:194] Memory required for data: 218521720
I0815 07:37:48.998208  5607 layer_factory.hpp:77] Creating layer Scale96
I0815 07:37:48.998215  5607 net.cpp:128] Creating Layer Scale96
I0815 07:37:48.998219  5607 net.cpp:558] Scale96 <- Convolution96
I0815 07:37:48.998226  5607 net.cpp:509] Scale96 -> Convolution96 (in-place)
I0815 07:37:48.998275  5607 layer_factory.hpp:77] Creating layer Scale96
I0815 07:37:48.998430  5607 net.cpp:172] Setting up Scale96
Could not create logging file: No such file or directory
COULD NOT CREATE A LOGGINGFILE 20180815-073748.5607!I0815 07:37:48.998436  5607 net.cpp:186] Top shape: 10 64 8 8 (40960)
I0815 07:37:48.998456  5607 net.cpp:194] Memory required for data: 218685560
I0815 07:37:48.998464  5607 layer_factory.hpp:77] Creating layer ReLU94
I0815 07:37:48.998471  5607 net.cpp:128] Creating Layer ReLU94
I0815 07:37:48.998474  5607 net.cpp:558] ReLU94 <- Convolution96
I0815 07:37:48.998482  5607 net.cpp:509] ReLU94 -> Convolution96 (in-place)
I0815 07:37:48.998800  5607 net.cpp:172] Setting up ReLU94
I0815 07:37:48.998811  5607 net.cpp:186] Top shape: 10 64 8 8 (40960)
I0815 07:37:48.998814  5607 net.cpp:194] Memory required for data: 218849400
I0815 07:37:48.998819  5607 layer_factory.hpp:77] Creating layer Convolution97
I0815 07:37:48.998832  5607 net.cpp:128] Creating Layer Convolution97
I0815 07:37:48.998837  5607 net.cpp:558] Convolution97 <- Convolution96
I0815 07:37:48.998848  5607 net.cpp:522] Convolution97 -> Convolution97
I0815 07:37:49.000980  5607 net.cpp:172] Setting up Convolution97
I0815 07:37:49.000999  5607 net.cpp:186] Top shape: 10 64 8 8 (40960)
I0815 07:37:49.001004  5607 net.cpp:194] Memory required for data: 219013240
I0815 07:37:49.001014  5607 layer_factory.hpp:77] Creating layer BatchNorm97
I0815 07:37:49.001022  5607 net.cpp:128] Creating Layer BatchNorm97
I0815 07:37:49.001027  5607 net.cpp:558] BatchNorm97 <- Convolution97
I0815 07:37:49.001036  5607 net.cpp:509] BatchNorm97 -> Convolution97 (in-place)
I0815 07:37:49.001310  5607 net.cpp:172] Setting up BatchNorm97
I0815 07:37:49.001317  5607 net.cpp:186] Top shape: 10 64 8 8 (40960)
I0815 07:37:49.001322  5607 net.cpp:194] Memory required for data: 219177080
I0815 07:37:49.001330  5607 layer_factory.hpp:77] Creating layer Scale97
I0815 07:37:49.001338  5607 net.cpp:128] Creating Layer Scale97
I0815 07:37:49.001341  5607 net.cpp:558] Scale97 <- Convolution97
I0815 07:37:49.001348  5607 net.cpp:509] Scale97 -> Convolution97 (in-place)
I0815 07:37:49.001400  5607 layer_factory.hpp:77] Creating layer Scale97
I0815 07:37:49.001556  5607 net.cpp:172] Setting up Scale97
I0815 07:37:49.001564  5607 net.cpp:186] Top shape: 10 64 8 8 (40960)
I0815 07:37:49.001566  5607 net.cpp:194] Memory required for data: 219340920
I0815 07:37:49.001575  5607 layer_factory.hpp:77] Creating layer Eltwise47
Could not create logging file: No such file or directory
COULD NOT CREATE A LOGGINGFILE 20180815-073749.5607!I0815 07:37:49.001583  5607 net.cpp:128] Creating Layer Eltwise47
I0815 07:37:49.001603  5607 net.cpp:558] Eltwise47 <- Eltwise46_ReLU93_0_split_1
I0815 07:37:49.001610  5607 net.cpp:558] Eltwise47 <- Convolution97
I0815 07:37:49.001616  5607 net.cpp:522] Eltwise47 -> Eltwise47
I0815 07:37:49.001646  5607 net.cpp:172] Setting up Eltwise47
I0815 07:37:49.001652  5607 net.cpp:186] Top shape: 10 64 8 8 (40960)
I0815 07:37:49.001657  5607 net.cpp:194] Memory required for data: 219504760
I0815 07:37:49.001660  5607 layer_factory.hpp:77] Creating layer ReLU95
I0815 07:37:49.001667  5607 net.cpp:128] Creating Layer ReLU95
I0815 07:37:49.001672  5607 net.cpp:558] ReLU95 <- Eltwise47
I0815 07:37:49.001678  5607 net.cpp:509] ReLU95 -> Eltwise47 (in-place)
I0815 07:37:49.002440  5607 net.cpp:172] Setting up ReLU95
I0815 07:37:49.002456  5607 net.cpp:186] Top shape: 10 64 8 8 (40960)
I0815 07:37:49.002460  5607 net.cpp:194] Memory required for data: 219668600
I0815 07:37:49.002465  5607 layer_factory.hpp:77] Creating layer Eltwise47_ReLU95_0_split
I0815 07:37:49.002475  5607 net.cpp:128] Creating Layer Eltwise47_ReLU95_0_split
I0815 07:37:49.002480  5607 net.cpp:558] Eltwise47_ReLU95_0_split <- Eltwise47
I0815 07:37:49.002487  5607 net.cpp:522] Eltwise47_ReLU95_0_split -> Eltwise47_ReLU95_0_split_0
I0815 07:37:49.002498  5607 net.cpp:522] Eltwise47_ReLU95_0_split -> Eltwise47_ReLU95_0_split_1
I0815 07:37:49.002557  5607 net.cpp:172] Setting up Eltwise47_ReLU95_0_split
I0815 07:37:49.002562  5607 net.cpp:186] Top shape: 10 64 8 8 (40960)
I0815 07:37:49.002568  5607 net.cpp:186] Top shape: 10 64 8 8 (40960)
I0815 07:37:49.002573  5607 net.cpp:194] Memory required for data: 219996280
I0815 07:37:49.002576  5607 layer_factory.hpp:77] Creating layer Convolution98
I0815 07:37:49.002588  5607 net.cpp:128] Creating Layer Convolution98
I0815 07:37:49.002591  5607 net.cpp:558] Convolution98 <- Eltwise47_ReLU95_0_split_0
I0815 07:37:49.002600  5607 net.cpp:522] Convolution98 -> Convolution98
I0815 07:37:49.004950  5607 net.cpp:172] Setting up Convolution98
I0815 07:37:49.004966  5607 net.cpp:186] Top shape: 10 64 8 8 (40960)
I0815 07:37:49.004971  5607 net.cpp:194] Memory required for data: 220160120
I0815 07:37:49.004981  5607 layer_factory.hpp:77] Creating layer BatchNorm98
I0815 07:37:49.004992  5607 net.cpp:128] Creating Layer BatchNorm98
Could not create logging file: No such file or directory
COULD NOT CREATE A LOGGINGFILE 20180815-073749.5607!I0815 07:37:49.004997  5607 net.cpp:558] BatchNorm98 <- Convolution98
I0815 07:37:49.005023  5607 net.cpp:509] BatchNorm98 -> Convolution98 (in-place)
I0815 07:37:49.005308  5607 net.cpp:172] Setting up BatchNorm98
I0815 07:37:49.005316  5607 net.cpp:186] Top shape: 10 64 8 8 (40960)
I0815 07:37:49.005321  5607 net.cpp:194] Memory required for data: 220323960
I0815 07:37:49.005331  5607 layer_factory.hpp:77] Creating layer Scale98
I0815 07:37:49.005337  5607 net.cpp:128] Creating Layer Scale98
I0815 07:37:49.005342  5607 net.cpp:558] Scale98 <- Convolution98
I0815 07:37:49.005347  5607 net.cpp:509] Scale98 -> Convolution98 (in-place)
I0815 07:37:49.005398  5607 layer_factory.hpp:77] Creating layer Scale98
I0815 07:37:49.005555  5607 net.cpp:172] Setting up Scale98
I0815 07:37:49.005563  5607 net.cpp:186] Top shape: 10 64 8 8 (40960)
I0815 07:37:49.005566  5607 net.cpp:194] Memory required for data: 220487800
I0815 07:37:49.005574  5607 layer_factory.hpp:77] Creating layer ReLU96
I0815 07:37:49.005581  5607 net.cpp:128] Creating Layer ReLU96
I0815 07:37:49.005586  5607 net.cpp:558] ReLU96 <- Convolution98
I0815 07:37:49.005591  5607 net.cpp:509] ReLU96 -> Convolution98 (in-place)
I0815 07:37:49.005905  5607 net.cpp:172] Setting up ReLU96
I0815 07:37:49.005918  5607 net.cpp:186] Top shape: 10 64 8 8 (40960)
I0815 07:37:49.005921  5607 net.cpp:194] Memory required for data: 220651640
I0815 07:37:49.005926  5607 layer_factory.hpp:77] Creating layer Convolution99
I0815 07:37:49.005939  5607 net.cpp:128] Creating Layer Convolution99
I0815 07:37:49.005944  5607 net.cpp:558] Convolution99 <- Convolution98
I0815 07:37:49.005954  5607 net.cpp:522] Convolution99 -> Convolution99
I0815 07:37:49.008091  5607 net.cpp:172] Setting up Convolution99
I0815 07:37:49.008110  5607 net.cpp:186] Top shape: 10 64 8 8 (40960)
I0815 07:37:49.008113  5607 net.cpp:194] Memory required for data: 220815480
I0815 07:37:49.008123  5607 layer_factory.hpp:77] Creating layer BatchNorm99
I0815 07:37:49.008133  5607 net.cpp:128] Creating Layer BatchNorm99
I0815 07:37:49.008138  5607 net.cpp:558] BatchNorm99 <- Convolution99
I0815 07:37:49.008146  5607 net.cpp:509] BatchNorm99 -> Convolution99 (in-place)
I0815 07:37:49.008425  5607 net.cpp:172] Setting up BatchNorm99
Could not create logging file: No such file or directory
COULD NOT CREATE A LOGGINGFILE 20180815-073749.5607!I0815 07:37:49.008433  5607 net.cpp:186] Top shape: 10 64 8 8 (40960)
I0815 07:37:49.008452  5607 net.cpp:194] Memory required for data: 220979320
I0815 07:37:49.008462  5607 layer_factory.hpp:77] Creating layer Scale99
I0815 07:37:49.008469  5607 net.cpp:128] Creating Layer Scale99
I0815 07:37:49.008474  5607 net.cpp:558] Scale99 <- Convolution99
I0815 07:37:49.008479  5607 net.cpp:509] Scale99 -> Convolution99 (in-place)
I0815 07:37:49.008535  5607 layer_factory.hpp:77] Creating layer Scale99
I0815 07:37:49.008693  5607 net.cpp:172] Setting up Scale99
I0815 07:37:49.008702  5607 net.cpp:186] Top shape: 10 64 8 8 (40960)
I0815 07:37:49.008704  5607 net.cpp:194] Memory required for data: 221143160
I0815 07:37:49.008713  5607 layer_factory.hpp:77] Creating layer Eltwise48
I0815 07:37:49.008719  5607 net.cpp:128] Creating Layer Eltwise48
I0815 07:37:49.008724  5607 net.cpp:558] Eltwise48 <- Eltwise47_ReLU95_0_split_1
I0815 07:37:49.008729  5607 net.cpp:558] Eltwise48 <- Convolution99
I0815 07:37:49.008738  5607 net.cpp:522] Eltwise48 -> Eltwise48
I0815 07:37:49.008769  5607 net.cpp:172] Setting up Eltwise48
I0815 07:37:49.008774  5607 net.cpp:186] Top shape: 10 64 8 8 (40960)
I0815 07:37:49.008779  5607 net.cpp:194] Memory required for data: 221307000
I0815 07:37:49.008782  5607 layer_factory.hpp:77] Creating layer ReLU97
I0815 07:37:49.008788  5607 net.cpp:128] Creating Layer ReLU97
I0815 07:37:49.008792  5607 net.cpp:558] ReLU97 <- Eltwise48
I0815 07:37:49.008797  5607 net.cpp:509] ReLU97 -> Eltwise48 (in-place)
I0815 07:37:49.009109  5607 net.cpp:172] Setting up ReLU97
I0815 07:37:49.009121  5607 net.cpp:186] Top shape: 10 64 8 8 (40960)
I0815 07:37:49.009125  5607 net.cpp:194] Memory required for data: 221470840
I0815 07:37:49.009130  5607 layer_factory.hpp:77] Creating layer Eltwise48_ReLU97_0_split
I0815 07:37:49.009137  5607 net.cpp:128] Creating Layer Eltwise48_ReLU97_0_split
I0815 07:37:49.009142  5607 net.cpp:558] Eltwise48_ReLU97_0_split <- Eltwise48
I0815 07:37:49.009150  5607 net.cpp:522] Eltwise48_ReLU97_0_split -> Eltwise48_ReLU97_0_split_0
I0815 07:37:49.009160  5607 net.cpp:522] Eltwise48_ReLU97_0_split -> Eltwise48_ReLU97_0_split_1
I0815 07:37:49.009213  5607 net.cpp:172] Setting up Eltwise48_ReLU97_0_split
I0815 07:37:49.009219  5607 net.cpp:186] Top shape: 10 64 8 8 (40960)
Could not create logging file: No such file or directory
COULD NOT CREATE A LOGGINGFILE 20180815-073749.5607!I0815 07:37:49.009225  5607 net.cpp:186] Top shape: 10 64 8 8 (40960)
I0815 07:37:49.009246  5607 net.cpp:194] Memory required for data: 221798520
I0815 07:37:49.009251  5607 layer_factory.hpp:77] Creating layer Convolution100
I0815 07:37:49.009263  5607 net.cpp:128] Creating Layer Convolution100
I0815 07:37:49.009268  5607 net.cpp:558] Convolution100 <- Eltwise48_ReLU97_0_split_0
I0815 07:37:49.009276  5607 net.cpp:522] Convolution100 -> Convolution100
I0815 07:37:49.012169  5607 net.cpp:172] Setting up Convolution100
I0815 07:37:49.012187  5607 net.cpp:186] Top shape: 10 64 8 8 (40960)
I0815 07:37:49.012192  5607 net.cpp:194] Memory required for data: 221962360
I0815 07:37:49.012203  5607 layer_factory.hpp:77] Creating layer BatchNorm100
I0815 07:37:49.012212  5607 net.cpp:128] Creating Layer BatchNorm100
I0815 07:37:49.012217  5607 net.cpp:558] BatchNorm100 <- Convolution100
I0815 07:37:49.012224  5607 net.cpp:509] BatchNorm100 -> Convolution100 (in-place)
I0815 07:37:49.012501  5607 net.cpp:172] Setting up BatchNorm100
I0815 07:37:49.012509  5607 net.cpp:186] Top shape: 10 64 8 8 (40960)
I0815 07:37:49.012513  5607 net.cpp:194] Memory required for data: 222126200
I0815 07:37:49.012523  5607 layer_factory.hpp:77] Creating layer Scale100
I0815 07:37:49.012531  5607 net.cpp:128] Creating Layer Scale100
I0815 07:37:49.012536  5607 net.cpp:558] Scale100 <- Convolution100
I0815 07:37:49.012540  5607 net.cpp:509] Scale100 -> Convolution100 (in-place)
I0815 07:37:49.012589  5607 layer_factory.hpp:77] Creating layer Scale100
I0815 07:37:49.012737  5607 net.cpp:172] Setting up Scale100
I0815 07:37:49.012744  5607 net.cpp:186] Top shape: 10 64 8 8 (40960)
I0815 07:37:49.012748  5607 net.cpp:194] Memory required for data: 222290040
I0815 07:37:49.012756  5607 layer_factory.hpp:77] Creating layer ReLU98
I0815 07:37:49.012763  5607 net.cpp:128] Creating Layer ReLU98
I0815 07:37:49.012766  5607 net.cpp:558] ReLU98 <- Convolution100
I0815 07:37:49.012773  5607 net.cpp:509] ReLU98 -> Convolution100 (in-place)
I0815 07:37:49.013069  5607 net.cpp:172] Setting up ReLU98
I0815 07:37:49.013082  5607 net.cpp:186] Top shape: 10 64 8 8 (40960)
I0815 07:37:49.013085  5607 net.cpp:194] Memory required for data: 222453880
I0815 07:37:49.013090  5607 layer_factory.hpp:77] Creating layer Convolution101
Could not create logging file: No such file or directory
COULD NOT CREATE A LOGGINGFILE 20180815-073749.5607!I0815 07:37:49.013100  5607 net.cpp:128] Creating Layer Convolution101
I0815 07:37:49.013121  5607 net.cpp:558] Convolution101 <- Convolution100
I0815 07:37:49.013129  5607 net.cpp:522] Convolution101 -> Convolution101
I0815 07:37:49.015215  5607 net.cpp:172] Setting up Convolution101
I0815 07:37:49.015233  5607 net.cpp:186] Top shape: 10 64 8 8 (40960)
I0815 07:37:49.015236  5607 net.cpp:194] Memory required for data: 222617720
I0815 07:37:49.015247  5607 layer_factory.hpp:77] Creating layer BatchNorm101
I0815 07:37:49.015257  5607 net.cpp:128] Creating Layer BatchNorm101
I0815 07:37:49.015264  5607 net.cpp:558] BatchNorm101 <- Convolution101
I0815 07:37:49.015271  5607 net.cpp:509] BatchNorm101 -> Convolution101 (in-place)
I0815 07:37:49.015552  5607 net.cpp:172] Setting up BatchNorm101
I0815 07:37:49.015559  5607 net.cpp:186] Top shape: 10 64 8 8 (40960)
I0815 07:37:49.015563  5607 net.cpp:194] Memory required for data: 222781560
I0815 07:37:49.015576  5607 layer_factory.hpp:77] Creating layer Scale101
I0815 07:37:49.015585  5607 net.cpp:128] Creating Layer Scale101
I0815 07:37:49.015590  5607 net.cpp:558] Scale101 <- Convolution101
I0815 07:37:49.015595  5607 net.cpp:509] Scale101 -> Convolution101 (in-place)
I0815 07:37:49.015647  5607 layer_factory.hpp:77] Creating layer Scale101
I0815 07:37:49.015806  5607 net.cpp:172] Setting up Scale101
I0815 07:37:49.015813  5607 net.cpp:186] Top shape: 10 64 8 8 (40960)
I0815 07:37:49.015817  5607 net.cpp:194] Memory required for data: 222945400
I0815 07:37:49.015825  5607 layer_factory.hpp:77] Creating layer Eltwise49
I0815 07:37:49.015832  5607 net.cpp:128] Creating Layer Eltwise49
I0815 07:37:49.015838  5607 net.cpp:558] Eltwise49 <- Eltwise48_ReLU97_0_split_1
I0815 07:37:49.015843  5607 net.cpp:558] Eltwise49 <- Convolution101
I0815 07:37:49.015849  5607 net.cpp:522] Eltwise49 -> Eltwise49
I0815 07:37:49.015878  5607 net.cpp:172] Setting up Eltwise49
I0815 07:37:49.015885  5607 net.cpp:186] Top shape: 10 64 8 8 (40960)
I0815 07:37:49.015888  5607 net.cpp:194] Memory required for data: 223109240
I0815 07:37:49.015892  5607 layer_factory.hpp:77] Creating layer ReLU99
I0815 07:37:49.015898  5607 net.cpp:128] Creating Layer ReLU99
I0815 07:37:49.015903  5607 net.cpp:558] ReLU99 <- Eltwise49
Could not create logging file: No such file or directory
COULD NOT CREATE A LOGGINGFILE 20180815-073749.5607!I0815 07:37:49.015908  5607 net.cpp:509] ReLU99 -> Eltwise49 (in-place)
I0815 07:37:49.016480  5607 net.cpp:172] Setting up ReLU99
I0815 07:37:49.016497  5607 net.cpp:186] Top shape: 10 64 8 8 (40960)
I0815 07:37:49.016501  5607 net.cpp:194] Memory required for data: 223273080
I0815 07:37:49.016506  5607 layer_factory.hpp:77] Creating layer Eltwise49_ReLU99_0_split
I0815 07:37:49.016515  5607 net.cpp:128] Creating Layer Eltwise49_ReLU99_0_split
I0815 07:37:49.016520  5607 net.cpp:558] Eltwise49_ReLU99_0_split <- Eltwise49
I0815 07:37:49.016528  5607 net.cpp:522] Eltwise49_ReLU99_0_split -> Eltwise49_ReLU99_0_split_0
I0815 07:37:49.016537  5607 net.cpp:522] Eltwise49_ReLU99_0_split -> Eltwise49_ReLU99_0_split_1
I0815 07:37:49.016597  5607 net.cpp:172] Setting up Eltwise49_ReLU99_0_split
I0815 07:37:49.016603  5607 net.cpp:186] Top shape: 10 64 8 8 (40960)
I0815 07:37:49.016609  5607 net.cpp:186] Top shape: 10 64 8 8 (40960)
I0815 07:37:49.016613  5607 net.cpp:194] Memory required for data: 223600760
I0815 07:37:49.016616  5607 layer_factory.hpp:77] Creating layer Convolution102
I0815 07:37:49.016628  5607 net.cpp:128] Creating Layer Convolution102
I0815 07:37:49.016633  5607 net.cpp:558] Convolution102 <- Eltwise49_ReLU99_0_split_0
I0815 07:37:49.016641  5607 net.cpp:522] Convolution102 -> Convolution102
I0815 07:37:49.018999  5607 net.cpp:172] Setting up Convolution102
I0815 07:37:49.019017  5607 net.cpp:186] Top shape: 10 64 8 8 (40960)
I0815 07:37:49.019021  5607 net.cpp:194] Memory required for data: 223764600
I0815 07:37:49.019032  5607 layer_factory.hpp:77] Creating layer BatchNorm102
I0815 07:37:49.019042  5607 net.cpp:128] Creating Layer BatchNorm102
I0815 07:37:49.019047  5607 net.cpp:558] BatchNorm102 <- Convolution102
I0815 07:37:49.019054  5607 net.cpp:509] BatchNorm102 -> Convolution102 (in-place)
I0815 07:37:49.019356  5607 net.cpp:172] Setting up BatchNorm102
I0815 07:37:49.019363  5607 net.cpp:186] Top shape: 10 64 8 8 (40960)
I0815 07:37:49.019367  5607 net.cpp:194] Memory required for data: 223928440
I0815 07:37:49.019377  5607 layer_factory.hpp:77] Creating layer Scale102
I0815 07:37:49.019385  5607 net.cpp:128] Creating Layer Scale102
I0815 07:37:49.019390  5607 net.cpp:558] Scale102 <- Convolution102
I0815 07:37:49.019395  5607 net.cpp:509] Scale102 -> Convolution102 (in-place)
I0815 07:37:49.019448  5607 layer_factory.hpp:77] Creating layer Scale102
Could not create logging file: No such file or directory
COULD NOT CREATE A LOGGINGFILE 20180815-073749.5607!I0815 07:37:49.019610  5607 net.cpp:172] Setting up Scale102
I0815 07:37:49.019635  5607 net.cpp:186] Top shape: 10 64 8 8 (40960)
I0815 07:37:49.019639  5607 net.cpp:194] Memory required for data: 224092280
I0815 07:37:49.019647  5607 layer_factory.hpp:77] Creating layer ReLU100
I0815 07:37:49.019654  5607 net.cpp:128] Creating Layer ReLU100
I0815 07:37:49.019657  5607 net.cpp:558] ReLU100 <- Convolution102
I0815 07:37:49.019665  5607 net.cpp:509] ReLU100 -> Convolution102 (in-place)
I0815 07:37:49.019975  5607 net.cpp:172] Setting up ReLU100
I0815 07:37:49.019987  5607 net.cpp:186] Top shape: 10 64 8 8 (40960)
I0815 07:37:49.019991  5607 net.cpp:194] Memory required for data: 224256120
I0815 07:37:49.019996  5607 layer_factory.hpp:77] Creating layer Convolution103
I0815 07:37:49.020010  5607 net.cpp:128] Creating Layer Convolution103
I0815 07:37:49.020016  5607 net.cpp:558] Convolution103 <- Convolution102
I0815 07:37:49.020025  5607 net.cpp:522] Convolution103 -> Convolution103
I0815 07:37:49.022163  5607 net.cpp:172] Setting up Convolution103
I0815 07:37:49.022181  5607 net.cpp:186] Top shape: 10 64 8 8 (40960)
I0815 07:37:49.022184  5607 net.cpp:194] Memory required for data: 224419960
I0815 07:37:49.022194  5607 layer_factory.hpp:77] Creating layer BatchNorm103
I0815 07:37:49.022204  5607 net.cpp:128] Creating Layer BatchNorm103
I0815 07:37:49.022212  5607 net.cpp:558] BatchNorm103 <- Convolution103
I0815 07:37:49.022218  5607 net.cpp:509] BatchNorm103 -> Convolution103 (in-place)
I0815 07:37:49.022500  5607 net.cpp:172] Setting up BatchNorm103
I0815 07:37:49.022506  5607 net.cpp:186] Top shape: 10 64 8 8 (40960)
I0815 07:37:49.022511  5607 net.cpp:194] Memory required for data: 224583800
I0815 07:37:49.022519  5607 layer_factory.hpp:77] Creating layer Scale103
I0815 07:37:49.022526  5607 net.cpp:128] Creating Layer Scale103
I0815 07:37:49.022531  5607 net.cpp:558] Scale103 <- Convolution103
I0815 07:37:49.022536  5607 net.cpp:509] Scale103 -> Convolution103 (in-place)
I0815 07:37:49.022588  5607 layer_factory.hpp:77] Creating layer Scale103
I0815 07:37:49.022749  5607 net.cpp:172] Setting up Scale103
I0815 07:37:49.022758  5607 net.cpp:186] Top shape: 10 64 8 8 (40960)
I0815 07:37:49.022763  5607 net.cpp:194] Memory required for data: 224747640
Could not create logging file: No such file or directory
COULD NOT CREATE A LOGGINGFILE 20180815-073749.5607!I0815 07:37:49.022770  5607 layer_factory.hpp:77] Creating layer Eltwise50
I0815 07:37:49.022794  5607 net.cpp:128] Creating Layer Eltwise50
I0815 07:37:49.022800  5607 net.cpp:558] Eltwise50 <- Eltwise49_ReLU99_0_split_1
I0815 07:37:49.022805  5607 net.cpp:558] Eltwise50 <- Convolution103
I0815 07:37:49.022812  5607 net.cpp:522] Eltwise50 -> Eltwise50
I0815 07:37:49.022855  5607 net.cpp:172] Setting up Eltwise50
I0815 07:37:49.022862  5607 net.cpp:186] Top shape: 10 64 8 8 (40960)
I0815 07:37:49.022866  5607 net.cpp:194] Memory required for data: 224911480
I0815 07:37:49.022871  5607 layer_factory.hpp:77] Creating layer ReLU101
I0815 07:37:49.022876  5607 net.cpp:128] Creating Layer ReLU101
I0815 07:37:49.022881  5607 net.cpp:558] ReLU101 <- Eltwise50
I0815 07:37:49.022886  5607 net.cpp:509] ReLU101 -> Eltwise50 (in-place)
I0815 07:37:49.023226  5607 net.cpp:172] Setting up ReLU101
I0815 07:37:49.023239  5607 net.cpp:186] Top shape: 10 64 8 8 (40960)
I0815 07:37:49.023243  5607 net.cpp:194] Memory required for data: 225075320
I0815 07:37:49.023248  5607 layer_factory.hpp:77] Creating layer Eltwise50_ReLU101_0_split
I0815 07:37:49.023280  5607 net.cpp:128] Creating Layer Eltwise50_ReLU101_0_split
I0815 07:37:49.023286  5607 net.cpp:558] Eltwise50_ReLU101_0_split <- Eltwise50
I0815 07:37:49.023293  5607 net.cpp:522] Eltwise50_ReLU101_0_split -> Eltwise50_ReLU101_0_split_0
I0815 07:37:49.023303  5607 net.cpp:522] Eltwise50_ReLU101_0_split -> Eltwise50_ReLU101_0_split_1
I0815 07:37:49.023357  5607 net.cpp:172] Setting up Eltwise50_ReLU101_0_split
I0815 07:37:49.023365  5607 net.cpp:186] Top shape: 10 64 8 8 (40960)
I0815 07:37:49.023370  5607 net.cpp:186] Top shape: 10 64 8 8 (40960)
I0815 07:37:49.023373  5607 net.cpp:194] Memory required for data: 225403000
I0815 07:37:49.023378  5607 layer_factory.hpp:77] Creating layer Convolution104
I0815 07:37:49.023388  5607 net.cpp:128] Creating Layer Convolution104
I0815 07:37:49.023392  5607 net.cpp:558] Convolution104 <- Eltwise50_ReLU101_0_split_0
I0815 07:37:49.023399  5607 net.cpp:522] Convolution104 -> Convolution104
I0815 07:37:49.025738  5607 net.cpp:172] Setting up Convolution104
I0815 07:37:49.025755  5607 net.cpp:186] Top shape: 10 64 8 8 (40960)
I0815 07:37:49.025759  5607 net.cpp:194] Memory required for data: 225566840
I0815 07:37:49.025770  5607 layer_factory.hpp:77] Creating layer BatchNorm104
Could not create logging file: No such file or directory
COULD NOT CREATE A LOGGINGFILE 20180815-073749.5607!I0815 07:37:49.025780  5607 net.cpp:128] Creating Layer BatchNorm104
I0815 07:37:49.025801  5607 net.cpp:558] BatchNorm104 <- Convolution104
I0815 07:37:49.025809  5607 net.cpp:509] BatchNorm104 -> Convolution104 (in-place)
I0815 07:37:49.026106  5607 net.cpp:172] Setting up BatchNorm104
I0815 07:37:49.026114  5607 net.cpp:186] Top shape: 10 64 8 8 (40960)
I0815 07:37:49.026118  5607 net.cpp:194] Memory required for data: 225730680
I0815 07:37:49.026129  5607 layer_factory.hpp:77] Creating layer Scale104
I0815 07:37:49.026136  5607 net.cpp:128] Creating Layer Scale104
I0815 07:37:49.026141  5607 net.cpp:558] Scale104 <- Convolution104
I0815 07:37:49.026147  5607 net.cpp:509] Scale104 -> Convolution104 (in-place)
I0815 07:37:49.026198  5607 layer_factory.hpp:77] Creating layer Scale104
I0815 07:37:49.026360  5607 net.cpp:172] Setting up Scale104
I0815 07:37:49.026366  5607 net.cpp:186] Top shape: 10 64 8 8 (40960)
I0815 07:37:49.026371  5607 net.cpp:194] Memory required for data: 225894520
I0815 07:37:49.026378  5607 layer_factory.hpp:77] Creating layer ReLU102
I0815 07:37:49.026386  5607 net.cpp:128] Creating Layer ReLU102
I0815 07:37:49.026391  5607 net.cpp:558] ReLU102 <- Convolution104
I0815 07:37:49.026397  5607 net.cpp:509] ReLU102 -> Convolution104 (in-place)
I0815 07:37:49.026968  5607 net.cpp:172] Setting up ReLU102
I0815 07:37:49.026988  5607 net.cpp:186] Top shape: 10 64 8 8 (40960)
I0815 07:37:49.026993  5607 net.cpp:194] Memory required for data: 226058360
I0815 07:37:49.026996  5607 layer_factory.hpp:77] Creating layer Convolution105
I0815 07:37:49.027009  5607 net.cpp:128] Creating Layer Convolution105
I0815 07:37:49.027015  5607 net.cpp:558] Convolution105 <- Convolution104
I0815 07:37:49.027025  5607 net.cpp:522] Convolution105 -> Convolution105
I0815 07:37:49.029179  5607 net.cpp:172] Setting up Convolution105
I0815 07:37:49.029198  5607 net.cpp:186] Top shape: 10 64 8 8 (40960)
I0815 07:37:49.029202  5607 net.cpp:194] Memory required for data: 226222200
I0815 07:37:49.029212  5607 layer_factory.hpp:77] Creating layer BatchNorm105
I0815 07:37:49.029220  5607 net.cpp:128] Creating Layer BatchNorm105
I0815 07:37:49.029225  5607 net.cpp:558] BatchNorm105 <- Convolution105
I0815 07:37:49.029234  5607 net.cpp:509] BatchNorm105 -> Convolution105 (in-place)
Could not create logging file: No such file or directory
COULD NOT CREATE A LOGGINGFILE 20180815-073749.5607!I0815 07:37:49.029521  5607 net.cpp:172] Setting up BatchNorm105
I0815 07:37:49.029544  5607 net.cpp:186] Top shape: 10 64 8 8 (40960)
I0815 07:37:49.029548  5607 net.cpp:194] Memory required for data: 226386040
I0815 07:37:49.029558  5607 layer_factory.hpp:77] Creating layer Scale105
I0815 07:37:49.029564  5607 net.cpp:128] Creating Layer Scale105
I0815 07:37:49.029568  5607 net.cpp:558] Scale105 <- Convolution105
I0815 07:37:49.029577  5607 net.cpp:509] Scale105 -> Convolution105 (in-place)
I0815 07:37:49.029633  5607 layer_factory.hpp:77] Creating layer Scale105
I0815 07:37:49.029796  5607 net.cpp:172] Setting up Scale105
I0815 07:37:49.029803  5607 net.cpp:186] Top shape: 10 64 8 8 (40960)
I0815 07:37:49.029808  5607 net.cpp:194] Memory required for data: 226549880
I0815 07:37:49.029819  5607 layer_factory.hpp:77] Creating layer Eltwise51
I0815 07:37:49.029827  5607 net.cpp:128] Creating Layer Eltwise51
I0815 07:37:49.029834  5607 net.cpp:558] Eltwise51 <- Eltwise50_ReLU101_0_split_1
I0815 07:37:49.029839  5607 net.cpp:558] Eltwise51 <- Convolution105
I0815 07:37:49.029844  5607 net.cpp:522] Eltwise51 -> Eltwise51
I0815 07:37:49.029875  5607 net.cpp:172] Setting up Eltwise51
I0815 07:37:49.029881  5607 net.cpp:186] Top shape: 10 64 8 8 (40960)
I0815 07:37:49.029886  5607 net.cpp:194] Memory required for data: 226713720
I0815 07:37:49.029889  5607 layer_factory.hpp:77] Creating layer ReLU103
I0815 07:37:49.029896  5607 net.cpp:128] Creating Layer ReLU103
I0815 07:37:49.029899  5607 net.cpp:558] ReLU103 <- Eltwise51
I0815 07:37:49.029906  5607 net.cpp:509] ReLU103 -> Eltwise51 (in-place)
I0815 07:37:49.030220  5607 net.cpp:172] Setting up ReLU103
I0815 07:37:49.030231  5607 net.cpp:186] Top shape: 10 64 8 8 (40960)
I0815 07:37:49.030236  5607 net.cpp:194] Memory required for data: 226877560
I0815 07:37:49.030241  5607 layer_factory.hpp:77] Creating layer Eltwise51_ReLU103_0_split
I0815 07:37:49.030247  5607 net.cpp:128] Creating Layer Eltwise51_ReLU103_0_split
I0815 07:37:49.030252  5607 net.cpp:558] Eltwise51_ReLU103_0_split <- Eltwise51
I0815 07:37:49.030261  5607 net.cpp:522] Eltwise51_ReLU103_0_split -> Eltwise51_ReLU103_0_split_0
I0815 07:37:49.030269  5607 net.cpp:522] Eltwise51_ReLU103_0_split -> Eltwise51_ReLU103_0_split_1
I0815 07:37:49.030328  5607 net.cpp:172] Setting up Eltwise51_ReLU103_0_split
Could not create logging file: No such file or directory
COULD NOT CREATE A LOGGINGFILE 20180815-073749.5607!I0815 07:37:49.030334  5607 net.cpp:186] Top shape: 10 64 8 8 (40960)
I0815 07:37:49.030356  5607 net.cpp:186] Top shape: 10 64 8 8 (40960)
I0815 07:37:49.030360  5607 net.cpp:194] Memory required for data: 227205240
I0815 07:37:49.030364  5607 layer_factory.hpp:77] Creating layer Convolution106
I0815 07:37:49.030377  5607 net.cpp:128] Creating Layer Convolution106
I0815 07:37:49.030382  5607 net.cpp:558] Convolution106 <- Eltwise51_ReLU103_0_split_0
I0815 07:37:49.030392  5607 net.cpp:522] Convolution106 -> Convolution106
I0815 07:37:49.032795  5607 net.cpp:172] Setting up Convolution106
I0815 07:37:49.032812  5607 net.cpp:186] Top shape: 10 64 8 8 (40960)
I0815 07:37:49.032817  5607 net.cpp:194] Memory required for data: 227369080
I0815 07:37:49.032827  5607 layer_factory.hpp:77] Creating layer BatchNorm106
I0815 07:37:49.032837  5607 net.cpp:128] Creating Layer BatchNorm106
I0815 07:37:49.032842  5607 net.cpp:558] BatchNorm106 <- Convolution106
I0815 07:37:49.032851  5607 net.cpp:509] BatchNorm106 -> Convolution106 (in-place)
I0815 07:37:49.033146  5607 net.cpp:172] Setting up BatchNorm106
I0815 07:37:49.033154  5607 net.cpp:186] Top shape: 10 64 8 8 (40960)
I0815 07:37:49.033157  5607 net.cpp:194] Memory required for data: 227532920
I0815 07:37:49.033166  5607 layer_factory.hpp:77] Creating layer Scale106
I0815 07:37:49.033174  5607 net.cpp:128] Creating Layer Scale106
I0815 07:37:49.033179  5607 net.cpp:558] Scale106 <- Convolution106
I0815 07:37:49.033185  5607 net.cpp:509] Scale106 -> Convolution106 (in-place)
I0815 07:37:49.033241  5607 layer_factory.hpp:77] Creating layer Scale106
I0815 07:37:49.033403  5607 net.cpp:172] Setting up Scale106
I0815 07:37:49.033411  5607 net.cpp:186] Top shape: 10 64 8 8 (40960)
I0815 07:37:49.033416  5607 net.cpp:194] Memory required for data: 227696760
I0815 07:37:49.033423  5607 layer_factory.hpp:77] Creating layer ReLU104
I0815 07:37:49.033429  5607 net.cpp:128] Creating Layer ReLU104
I0815 07:37:49.033433  5607 net.cpp:558] ReLU104 <- Convolution106
I0815 07:37:49.033442  5607 net.cpp:509] ReLU104 -> Convolution106 (in-place)
I0815 07:37:49.033758  5607 net.cpp:172] Setting up ReLU104
I0815 07:37:49.033771  5607 net.cpp:186] Top shape: 10 64 8 8 (40960)
I0815 07:37:49.033774  5607 net.cpp:194] Memory required for data: 227860600
Could not create logging file: No such file or directory
COULD NOT CREATE A LOGGINGFILE 20180815-073749.5607!I0815 07:37:49.033779  5607 layer_factory.hpp:77] Creating layer Convolution107
I0815 07:37:49.033808  5607 net.cpp:128] Creating Layer Convolution107
I0815 07:37:49.033814  5607 net.cpp:558] Convolution107 <- Convolution106
I0815 07:37:49.033823  5607 net.cpp:522] Convolution107 -> Convolution107
I0815 07:37:49.037278  5607 net.cpp:172] Setting up Convolution107
I0815 07:37:49.037297  5607 net.cpp:186] Top shape: 10 64 8 8 (40960)
I0815 07:37:49.037300  5607 net.cpp:194] Memory required for data: 228024440
I0815 07:37:49.037310  5607 layer_factory.hpp:77] Creating layer BatchNorm107
I0815 07:37:49.037322  5607 net.cpp:128] Creating Layer BatchNorm107
I0815 07:37:49.037326  5607 net.cpp:558] BatchNorm107 <- Convolution107
I0815 07:37:49.037335  5607 net.cpp:509] BatchNorm107 -> Convolution107 (in-place)
I0815 07:37:49.037622  5607 net.cpp:172] Setting up BatchNorm107
I0815 07:37:49.037629  5607 net.cpp:186] Top shape: 10 64 8 8 (40960)
I0815 07:37:49.037633  5607 net.cpp:194] Memory required for data: 228188280
I0815 07:37:49.037642  5607 layer_factory.hpp:77] Creating layer Scale107
I0815 07:37:49.037652  5607 net.cpp:128] Creating Layer Scale107
I0815 07:37:49.037657  5607 net.cpp:558] Scale107 <- Convolution107
I0815 07:37:49.037662  5607 net.cpp:509] Scale107 -> Convolution107 (in-place)
I0815 07:37:49.037714  5607 layer_factory.hpp:77] Creating layer Scale107
I0815 07:37:49.037883  5607 net.cpp:172] Setting up Scale107
I0815 07:37:49.037890  5607 net.cpp:186] Top shape: 10 64 8 8 (40960)
I0815 07:37:49.037894  5607 net.cpp:194] Memory required for data: 228352120
I0815 07:37:49.037902  5607 layer_factory.hpp:77] Creating layer Eltwise52
I0815 07:37:49.037909  5607 net.cpp:128] Creating Layer Eltwise52
I0815 07:37:49.037914  5607 net.cpp:558] Eltwise52 <- Eltwise51_ReLU103_0_split_1
I0815 07:37:49.037919  5607 net.cpp:558] Eltwise52 <- Convolution107
I0815 07:37:49.037927  5607 net.cpp:522] Eltwise52 -> Eltwise52
I0815 07:37:49.037956  5607 net.cpp:172] Setting up Eltwise52
I0815 07:37:49.037963  5607 net.cpp:186] Top shape: 10 64 8 8 (40960)
I0815 07:37:49.037967  5607 net.cpp:194] Memory required for data: 228515960
I0815 07:37:49.037971  5607 layer_factory.hpp:77] Creating layer ReLU105
I0815 07:37:49.037981  5607 net.cpp:128] Creating Layer ReLU105
Could not create logging file: No such file or directory
COULD NOT CREATE A LOGGINGFILE 20180815-073749.5607!I0815 07:37:49.037984  5607 net.cpp:558] ReLU105 <- Eltwise52
I0815 07:37:49.038008  5607 net.cpp:509] ReLU105 -> Eltwise52 (in-place)
I0815 07:37:49.038583  5607 net.cpp:172] Setting up ReLU105
I0815 07:37:49.038600  5607 net.cpp:186] Top shape: 10 64 8 8 (40960)
I0815 07:37:49.038605  5607 net.cpp:194] Memory required for data: 228679800
I0815 07:37:49.038610  5607 layer_factory.hpp:77] Creating layer Eltwise52_ReLU105_0_split
I0815 07:37:49.038617  5607 net.cpp:128] Creating Layer Eltwise52_ReLU105_0_split
I0815 07:37:49.038624  5607 net.cpp:558] Eltwise52_ReLU105_0_split <- Eltwise52
I0815 07:37:49.038631  5607 net.cpp:522] Eltwise52_ReLU105_0_split -> Eltwise52_ReLU105_0_split_0
I0815 07:37:49.038640  5607 net.cpp:522] Eltwise52_ReLU105_0_split -> Eltwise52_ReLU105_0_split_1
I0815 07:37:49.038699  5607 net.cpp:172] Setting up Eltwise52_ReLU105_0_split
I0815 07:37:49.038707  5607 net.cpp:186] Top shape: 10 64 8 8 (40960)
I0815 07:37:49.038712  5607 net.cpp:186] Top shape: 10 64 8 8 (40960)
I0815 07:37:49.038715  5607 net.cpp:194] Memory required for data: 229007480
I0815 07:37:49.038719  5607 layer_factory.hpp:77] Creating layer Convolution108
I0815 07:37:49.038733  5607 net.cpp:128] Creating Layer Convolution108
I0815 07:37:49.038738  5607 net.cpp:558] Convolution108 <- Eltwise52_ReLU105_0_split_0
I0815 07:37:49.038744  5607 net.cpp:522] Convolution108 -> Convolution108
I0815 07:37:49.041126  5607 net.cpp:172] Setting up Convolution108
I0815 07:37:49.041142  5607 net.cpp:186] Top shape: 10 64 8 8 (40960)
I0815 07:37:49.041146  5607 net.cpp:194] Memory required for data: 229171320
I0815 07:37:49.041157  5607 layer_factory.hpp:77] Creating layer BatchNorm108
I0815 07:37:49.041165  5607 net.cpp:128] Creating Layer BatchNorm108
I0815 07:37:49.041170  5607 net.cpp:558] BatchNorm108 <- Convolution108
I0815 07:37:49.041179  5607 net.cpp:509] BatchNorm108 -> Convolution108 (in-place)
I0815 07:37:49.041481  5607 net.cpp:172] Setting up BatchNorm108
I0815 07:37:49.041487  5607 net.cpp:186] Top shape: 10 64 8 8 (40960)
I0815 07:37:49.041491  5607 net.cpp:194] Memory required for data: 229335160
I0815 07:37:49.041501  5607 layer_factory.hpp:77] Creating layer Scale108
I0815 07:37:49.041509  5607 net.cpp:128] Creating Layer Scale108
I0815 07:37:49.041514  5607 net.cpp:558] Scale108 <- Convolution108
I0815 07:37:49.041519  5607 net.cpp:509] Scale108 -> Convolution108 (in-place)
Could not create logging file: No such file or directory
COULD NOT CREATE A LOGGINGFILE 20180815-073749.5607!I0815 07:37:49.041571  5607 layer_factory.hpp:77] Creating layer Scale108
I0815 07:37:49.041759  5607 net.cpp:172] Setting up Scale108
I0815 07:37:49.041766  5607 net.cpp:186] Top shape: 10 64 8 8 (40960)
I0815 07:37:49.041770  5607 net.cpp:194] Memory required for data: 229499000
I0815 07:37:49.041779  5607 layer_factory.hpp:77] Creating layer ReLU106
I0815 07:37:49.041785  5607 net.cpp:128] Creating Layer ReLU106
I0815 07:37:49.041790  5607 net.cpp:558] ReLU106 <- Convolution108
I0815 07:37:49.041795  5607 net.cpp:509] ReLU106 -> Convolution108 (in-place)
I0815 07:37:49.042119  5607 net.cpp:172] Setting up ReLU106
I0815 07:37:49.042130  5607 net.cpp:186] Top shape: 10 64 8 8 (40960)
I0815 07:37:49.042135  5607 net.cpp:194] Memory required for data: 229662840
I0815 07:37:49.042140  5607 layer_factory.hpp:77] Creating layer Convolution109
I0815 07:37:49.042151  5607 net.cpp:128] Creating Layer Convolution109
I0815 07:37:49.042157  5607 net.cpp:558] Convolution109 <- Convolution108
I0815 07:37:49.042165  5607 net.cpp:522] Convolution109 -> Convolution109
I0815 07:37:49.044358  5607 net.cpp:172] Setting up Convolution109
I0815 07:37:49.044375  5607 net.cpp:186] Top shape: 10 64 8 8 (40960)
I0815 07:37:49.044379  5607 net.cpp:194] Memory required for data: 229826680
I0815 07:37:49.044389  5607 layer_factory.hpp:77] Creating layer BatchNorm109
I0815 07:37:49.044399  5607 net.cpp:128] Creating Layer BatchNorm109
I0815 07:37:49.044405  5607 net.cpp:558] BatchNorm109 <- Convolution109
I0815 07:37:49.044414  5607 net.cpp:509] BatchNorm109 -> Convolution109 (in-place)
I0815 07:37:49.044706  5607 net.cpp:172] Setting up BatchNorm109
I0815 07:37:49.044714  5607 net.cpp:186] Top shape: 10 64 8 8 (40960)
I0815 07:37:49.044718  5607 net.cpp:194] Memory required for data: 229990520
I0815 07:37:49.044728  5607 layer_factory.hpp:77] Creating layer Scale109
I0815 07:37:49.044734  5607 net.cpp:128] Creating Layer Scale109
I0815 07:37:49.044739  5607 net.cpp:558] Scale109 <- Convolution109
I0815 07:37:49.044744  5607 net.cpp:509] Scale109 -> Convolution109 (in-place)
I0815 07:37:49.044796  5607 layer_factory.hpp:77] Creating layer Scale109
I0815 07:37:49.044960  5607 net.cpp:172] Setting up Scale109
I0815 07:37:49.044967  5607 net.cpp:186] Top shape: 10 64 8 8 (40960)
Could not create logging file: No such file or directory
COULD NOT CREATE A LOGGINGFILE 20180815-073749.5607!I0815 07:37:49.044971  5607 net.cpp:194] Memory required for data: 230154360
I0815 07:37:49.044996  5607 layer_factory.hpp:77] Creating layer Eltwise53
I0815 07:37:49.045004  5607 net.cpp:128] Creating Layer Eltwise53
I0815 07:37:49.045009  5607 net.cpp:558] Eltwise53 <- Eltwise52_ReLU105_0_split_1
I0815 07:37:49.045014  5607 net.cpp:558] Eltwise53 <- Convolution109
I0815 07:37:49.045020  5607 net.cpp:522] Eltwise53 -> Eltwise53
I0815 07:37:49.045051  5607 net.cpp:172] Setting up Eltwise53
I0815 07:37:49.045058  5607 net.cpp:186] Top shape: 10 64 8 8 (40960)
I0815 07:37:49.045063  5607 net.cpp:194] Memory required for data: 230318200
I0815 07:37:49.045066  5607 layer_factory.hpp:77] Creating layer ReLU107
I0815 07:37:49.045071  5607 net.cpp:128] Creating Layer ReLU107
I0815 07:37:49.045076  5607 net.cpp:558] ReLU107 <- Eltwise53
I0815 07:37:49.045081  5607 net.cpp:509] ReLU107 -> Eltwise53 (in-place)
I0815 07:37:49.045405  5607 net.cpp:172] Setting up ReLU107
I0815 07:37:49.045418  5607 net.cpp:186] Top shape: 10 64 8 8 (40960)
I0815 07:37:49.045423  5607 net.cpp:194] Memory required for data: 230482040
I0815 07:37:49.045428  5607 layer_factory.hpp:77] Creating layer Eltwise53_ReLU107_0_split
I0815 07:37:49.045434  5607 net.cpp:128] Creating Layer Eltwise53_ReLU107_0_split
I0815 07:37:49.045439  5607 net.cpp:558] Eltwise53_ReLU107_0_split <- Eltwise53
I0815 07:37:49.045447  5607 net.cpp:522] Eltwise53_ReLU107_0_split -> Eltwise53_ReLU107_0_split_0
I0815 07:37:49.045456  5607 net.cpp:522] Eltwise53_ReLU107_0_split -> Eltwise53_ReLU107_0_split_1
I0815 07:37:49.045517  5607 net.cpp:172] Setting up Eltwise53_ReLU107_0_split
I0815 07:37:49.045524  5607 net.cpp:186] Top shape: 10 64 8 8 (40960)
I0815 07:37:49.045529  5607 net.cpp:186] Top shape: 10 64 8 8 (40960)
I0815 07:37:49.045533  5607 net.cpp:194] Memory required for data: 230809720
I0815 07:37:49.045537  5607 layer_factory.hpp:77] Creating layer Convolution110
I0815 07:37:49.045549  5607 net.cpp:128] Creating Layer Convolution110
I0815 07:37:49.045553  5607 net.cpp:558] Convolution110 <- Eltwise53_ReLU107_0_split_0
I0815 07:37:49.045562  5607 net.cpp:522] Convolution110 -> Convolution110
I0815 07:37:49.047945  5607 net.cpp:172] Setting up Convolution110
I0815 07:37:49.067351  5607 net.cpp:186] Top shape: 10 64 8 8 (40960)
I0815 07:37:49.067376  5607 net.cpp:194] Memory required for data: 230973560
Could not create logging file: No such file or directory
COULD NOT CREATE A LOGGINGFILE 20180815-073749.5607!I0815 07:37:49.067392  5607 layer_factory.hpp:77] Creating layer BatchNorm110
I0815 07:37:49.067433  5607 net.cpp:128] Creating Layer BatchNorm110
I0815 07:37:49.067442  5607 net.cpp:558] BatchNorm110 <- Convolution110
I0815 07:37:49.067453  5607 net.cpp:509] BatchNorm110 -> Convolution110 (in-place)
I0815 07:37:49.067935  5607 net.cpp:172] Setting up BatchNorm110
I0815 07:37:49.067946  5607 net.cpp:186] Top shape: 10 64 8 8 (40960)
I0815 07:37:49.067952  5607 net.cpp:194] Memory required for data: 231137400
I0815 07:37:49.067967  5607 layer_factory.hpp:77] Creating layer Scale110
I0815 07:37:49.067977  5607 net.cpp:128] Creating Layer Scale110
I0815 07:37:49.067984  5607 net.cpp:558] Scale110 <- Convolution110
I0815 07:37:49.067992  5607 net.cpp:509] Scale110 -> Convolution110 (in-place)
I0815 07:37:49.068076  5607 layer_factory.hpp:77] Creating layer Scale110
I0815 07:37:49.068332  5607 net.cpp:172] Setting up Scale110
I0815 07:37:49.068343  5607 net.cpp:186] Top shape: 10 64 8 8 (40960)
I0815 07:37:49.068349  5607 net.cpp:194] Memory required for data: 231301240
I0815 07:37:49.068361  5607 layer_factory.hpp:77] Creating layer ReLU108
I0815 07:37:49.068372  5607 net.cpp:128] Creating Layer ReLU108
I0815 07:37:49.068377  5607 net.cpp:558] ReLU108 <- Convolution110
I0815 07:37:49.068388  5607 net.cpp:509] ReLU108 -> Convolution110 (in-place)
I0815 07:37:49.068871  5607 net.cpp:172] Setting up ReLU108
I0815 07:37:49.068888  5607 net.cpp:186] Top shape: 10 64 8 8 (40960)
I0815 07:37:49.068894  5607 net.cpp:194] Memory required for data: 231465080
I0815 07:37:49.068902  5607 layer_factory.hpp:77] Creating layer Convolution111
I0815 07:37:49.068925  5607 net.cpp:128] Creating Layer Convolution111
I0815 07:37:49.068934  5607 net.cpp:558] Convolution111 <- Convolution110
I0815 07:37:49.068948  5607 net.cpp:522] Convolution111 -> Convolution111
I0815 07:37:49.072204  5607 net.cpp:172] Setting up Convolution111
I0815 07:37:49.072227  5607 net.cpp:186] Top shape: 10 64 8 8 (40960)
I0815 07:37:49.072234  5607 net.cpp:194] Memory required for data: 231628920
I0815 07:37:49.072248  5607 layer_factory.hpp:77] Creating layer BatchNorm111
I0815 07:37:49.072260  5607 net.cpp:128] Creating Layer BatchNorm111
I0815 07:37:49.072268  5607 net.cpp:558] BatchNorm111 <- Convolution111
Could not create logging file: No such file or directory
COULD NOT CREATE A LOGGINGFILE 20180815-073749.5607!I0815 07:37:49.072280  5607 net.cpp:509] BatchNorm111 -> Convolution111 (in-place)
I0815 07:37:49.072762  5607 net.cpp:172] Setting up BatchNorm111
I0815 07:37:49.072773  5607 net.cpp:186] Top shape: 10 64 8 8 (40960)
I0815 07:37:49.072779  5607 net.cpp:194] Memory required for data: 231792760
I0815 07:37:49.072794  5607 layer_factory.hpp:77] Creating layer Scale111
I0815 07:37:49.072804  5607 net.cpp:128] Creating Layer Scale111
I0815 07:37:49.072811  5607 net.cpp:558] Scale111 <- Convolution111
I0815 07:37:49.072819  5607 net.cpp:509] Scale111 -> Convolution111 (in-place)
I0815 07:37:49.072906  5607 layer_factory.hpp:77] Creating layer Scale111
I0815 07:37:49.073163  5607 net.cpp:172] Setting up Scale111
I0815 07:37:49.073174  5607 net.cpp:186] Top shape: 10 64 8 8 (40960)
I0815 07:37:49.073180  5607 net.cpp:194] Memory required for data: 231956600
I0815 07:37:49.073192  5607 layer_factory.hpp:77] Creating layer Eltwise54
I0815 07:37:49.073204  5607 net.cpp:128] Creating Layer Eltwise54
I0815 07:37:49.073212  5607 net.cpp:558] Eltwise54 <- Eltwise53_ReLU107_0_split_1
I0815 07:37:49.073220  5607 net.cpp:558] Eltwise54 <- Convolution111
I0815 07:37:49.073232  5607 net.cpp:522] Eltwise54 -> Eltwise54
I0815 07:37:49.073276  5607 net.cpp:172] Setting up Eltwise54
I0815 07:37:49.073287  5607 net.cpp:186] Top shape: 10 64 8 8 (40960)
I0815 07:37:49.073293  5607 net.cpp:194] Memory required for data: 232120440
I0815 07:37:49.073299  5607 layer_factory.hpp:77] Creating layer ReLU109
I0815 07:37:49.073308  5607 net.cpp:128] Creating Layer ReLU109
I0815 07:37:49.073315  5607 net.cpp:558] ReLU109 <- Eltwise54
I0815 07:37:49.073325  5607 net.cpp:509] ReLU109 -> Eltwise54 (in-place)
I0815 07:37:49.074108  5607 net.cpp:172] Setting up ReLU109
I0815 07:37:49.074131  5607 net.cpp:186] Top shape: 10 64 8 8 (40960)
I0815 07:37:49.074136  5607 net.cpp:194] Memory required for data: 232284280
I0815 07:37:49.074144  5607 layer_factory.hpp:77] Creating layer Pooling1
I0815 07:37:49.074158  5607 net.cpp:128] Creating Layer Pooling1
I0815 07:37:49.074167  5607 net.cpp:558] Pooling1 <- Eltwise54
I0815 07:37:49.074177  5607 net.cpp:522] Pooling1 -> Pooling1
I0815 07:37:49.074687  5607 net.cpp:172] Setting up Pooling1
Could not create logging file: No such file or directory
COULD NOT CREATE A LOGGINGFILE 20180815-073749.5607!I0815 07:37:49.074705  5607 net.cpp:186] Top shape: 10 64 1 1 (640)
I0815 07:37:49.074735  5607 net.cpp:194] Memory required for data: 232286840
I0815 07:37:49.074743  5607 layer_factory.hpp:77] Creating layer InnerProduct1
I0815 07:37:49.074756  5607 net.cpp:128] Creating Layer InnerProduct1
I0815 07:37:49.074764  5607 net.cpp:558] InnerProduct1 <- Pooling1
I0815 07:37:49.074777  5607 net.cpp:522] InnerProduct1 -> InnerProduct1
I0815 07:37:49.075096  5607 net.cpp:172] Setting up InnerProduct1
I0815 07:37:49.075110  5607 net.cpp:186] Top shape: 10 10 (100)
I0815 07:37:49.075116  5607 net.cpp:194] Memory required for data: 232287240
I0815 07:37:49.075129  5607 layer_factory.hpp:77] Creating layer InnerProduct1_InnerProduct1_0_split
I0815 07:37:49.075143  5607 net.cpp:128] Creating Layer InnerProduct1_InnerProduct1_0_split
I0815 07:37:49.075150  5607 net.cpp:558] InnerProduct1_InnerProduct1_0_split <- InnerProduct1
I0815 07:37:49.075160  5607 net.cpp:522] InnerProduct1_InnerProduct1_0_split -> InnerProduct1_InnerProduct1_0_split_0
I0815 07:37:49.075172  5607 net.cpp:522] InnerProduct1_InnerProduct1_0_split -> InnerProduct1_InnerProduct1_0_split_1
I0815 07:37:49.075251  5607 net.cpp:172] Setting up InnerProduct1_InnerProduct1_0_split
I0815 07:37:49.075261  5607 net.cpp:186] Top shape: 10 10 (100)
I0815 07:37:49.075269  5607 net.cpp:186] Top shape: 10 10 (100)
I0815 07:37:49.075275  5607 net.cpp:194] Memory required for data: 232288040
I0815 07:37:49.075281  5607 layer_factory.hpp:77] Creating layer SoftmaxWithLoss1
I0815 07:37:49.075294  5607 net.cpp:128] Creating Layer SoftmaxWithLoss1
I0815 07:37:49.075300  5607 net.cpp:558] SoftmaxWithLoss1 <- InnerProduct1_InnerProduct1_0_split_0
I0815 07:37:49.075309  5607 net.cpp:558] SoftmaxWithLoss1 <- Data2_Data1_1_split_0
…
