…
I1206 21:25:20.579663 16251 upgrade_proto.cpp:82] Successfully upgraded batch norm layers using deprecated params.
I1206 21:25:20.584115 16251 net.cpp:82] Initializing net from parameters: 
name: "ResNet-110"
state {
  phase: TRAIN
  level: 0
  stage: ""
}
layer {
  name: "Data1"
  type: "Data"
  top: "data"
  top: "label"
  transform_param {
    scale: 0.00390625
    mirror: true
    crop_size: 32
    mean_value: 125.3
    mean_value: 122.9
    mean_value: 113.8
  }
  data_param {
    source: "/home/lijianfei/datasets/cifar10_40/train_lmdb"
    batch_size: 32
    backend: LMDB
  }
  image_data_param {
    shuffle: true
  }
}
layer {
  name: "conv1"
  type: "Convolution"
  bottom: "data"
  top: "conv1"
  param {
    lr_mult: 1
    decay_mult: 1
  }
  param {
    lr_mult: 2
    decay_mult: 0
  }
  convolution_param {
    num_output: 16
    bias_term: true
    pad: 1
    kernel_size: 3
    stride: 1
    weight_filler {
      type: "msra"
    }
    bias_filler {
      type: "constant"
      value: 0
    }
  }
}
layer {
  name: "conv1/bn"
  type: "BatchNorm"
  bottom: "conv1"
  top: "conv1"
  param {
    lr_mult: 0
    decay_mult: 0
  }
  param {
    lr_mult: 0
    decay_mult: 0
  }
  param {
    lr_mult: 0
    decay_mult: 0
  }
  batch_norm_param {
    use_global_stats: false
  }
}
layer {
  name: "conv1/scale"
  type: "Scale"
  bottom: "conv1"
  top: "conv1"
  scale_param {
    bias_term: true
  }
}
layer {
  name: "conv1/ReLU"
  type: "ReLU"
  bottom: "conv1"
  top: "conv1"
}
layer {
  name: "conv2_1_0"
  type: "Convolution"
  bottom: "conv1"
  top: "conv2_1_0"
  param {
    lr_mult: 1
    decay_mult: 1
  }
  param {
    lr_mult: 2
    decay_mult: 0
  }
  convolution_param {
    num_output: 16
    bias_term: true
    pad: 1
    kernel_size: 3
    stride: 1
    weight_filler {
      type: "msra"
    }
    bias_filler {
      type: "constant"
      value: 0
    }
  }
}
layer {
  name: "conv2_1_bn0"
  type: "BatchNorm"
  bottom: "conv2_1_0"
  top: "conv2_1_0"
  param {
    lr_mult: 0
    decay_mult: 0
  }
  param {
    lr_mult: 0
    decay_mult: 0
  }
  param {
    lr_mult: 0
    decay_mult: 0
  }
  batch_norm_param {
    use_global_stats: false
  }
}
layer {
  name: "conv2_1_scale0"
  type: "Scale"
  bottom: "conv2_1_0"
  top: "conv2_1_0"
  scale_param {
    bias_term: true
  }
}
layer {
  name: "conv2_1_ReLU0"
  type: "ReLU"
  bottom: "conv2_1_0"
  top: "conv2_1_0"
}
layer {
  name: "conv2_1_1"
  type: "Convolution"
  bottom: "conv2_1_0"
  top: "conv2_1_1"
  param {
    lr_mult: 1
    decay_mult: 1
  }
  param {
    lr_mult: 2
    decay_mult: 0
  }
  convolution_param {
    num_output: 16
    bias_term: true
    pad: 1
    kernel_size: 3
    stride: 1
    weight_filler {
      type: "msra"
    }
    bias_filler {
      type: "constant"
      value: 0
    }
  }
}
layer {
  name: "conv2_1bn1"
  type: "BatchNorm"
  bottom: "conv2_1_1"
  top: "conv2_1_1"
  param {
    lr_mult: 0
    decay_mult: 0
  }
  param {
    lr_mult: 0
    decay_mult: 0
  }
  param {
    lr_mult: 0
    decay_mult: 0
  }
  batch_norm_param {
    use_global_stats: false
  }
}
layer {
  name: "conv2_1_scale1"
  type: "Scale"
  bottom: "conv2_1_1"
  top: "conv2_1_1"
  scale_param {
    bias_term: true
  }
}
layer {
  name: "conv2_Eltwise_1"
  type: "Eltwise"
  bottom: "conv1"
  bottom: "conv2_1_1"
  top: "conv2_Eltwise_1"
  eltwise_param {
    operation: SUM
  }
}
layer {
  name: "conv2_1ReLU_1"
  type: "ReLU"
  bottom: "conv2_Eltwise_1"
  top: "conv2_Eltwise_1"
}
layer {
  name: "conv2_2_0"
  type: "Convolution"
  bottom: "conv2_Eltwise_1"
  top: "conv2_2_0"
  param {
    lr_mult: 1
    decay_mult: 1
  }
  param {
    lr_mult: 2
    decay_mult: 0
  }
  convolution_param {
    num_output: 16
    bias_term: true
    pad: 1
    kernel_size: 3
    stride: 1
    weight_filler {
      type: "msra"
    }
    bias_filler {
      type: "constant"
      value: 0
    }
  }
}
layer {
  name: "conv2_2_bn0"
  type: "BatchNorm"
  bottom: "conv2_2_0"
  top: "conv2_2_0"
  param {
    lr_mult: 0
    decay_mult: 0
  }
  param {
    lr_mult: 0
    decay_mult: 0
  }
  param {
    lr_mult: 0
    decay_mult: 0
  }
  batch_norm_param {
    use_global_stats: false
  }
}
layer {
  name: "conv2_2_scale0"
  type: "Scale"
  bottom: "conv2_2_0"
  top: "conv2_2_0"
  scale_param {
    bias_term: true
  }
}
layer {
  name: "conv2_2_ReLU0"
  type: "ReLU"
  bottom: "conv2_2_0"
  top: "conv2_2_0"
}
layer {
  name: "conv2_2_1"
  type: "Convolution"
  bottom: "conv2_2_0"
  top: "conv2_2_1"
  param {
    lr_mult: 1
    decay_mult: 1
  }
  param {
    lr_mult: 2
    decay_mult: 0
  }
  convolution_param {
    num_output: 16
    bias_term: true
    pad: 1
    kernel_size: 3
    stride: 1
    weight_filler {
      type: "msra"
    }
    bias_filler {
      type: "constant"
      value: 0
    }
  }
}
layer {
  name: "conv2_2bn1"
  type: "BatchNorm"
  bottom: "conv2_2_1"
  top: "conv2_2_1"
  param {
    lr_mult: 0
    decay_mult: 0
  }
  param {
    lr_mult: 0
    decay_mult: 0
  }
  param {
    lr_mult: 0
    decay_mult: 0
  }
  batch_norm_param {
    use_global_stats: false
  }
}
layer {
  name: "conv2_2_scale1"
  type: "Scale"
  bottom: "conv2_2_1"
  top: "conv2_2_1"
  scale_param {
    bias_term: true
  }
}
layer {
  name: "conv2_Eltwise_2"
  type: "Eltwise"
  bottom: "conv2_Eltwise_1"
  bottom: "conv2_2_1"
  top: "conv2_Eltwise_2"
  eltwise_param {
    operation: SUM
  }
}
layer {
  name: "conv2_2ReLU_1"
  type: "ReLU"
  bottom: "conv2_Eltwise_2"
  top: "conv2_Eltwise_2"
}
layer {
  name: "conv2_3_0"
  type: "Convolution"
  bottom: "conv2_Eltwise_2"
  top: "conv2_3_0"
  param {
    lr_mult: 1
    decay_mult: 1
  }
  param {
    lr_mult: 2
    decay_mult: 0
  }
  convolution_param {
    num_output: 16
    bias_term: true
    pad: 1
    kernel_size: 3
    stride: 1
    weight_filler {
      type: "msra"
    }
    bias_filler {
      type: "constant"
      value: 0
    }
  }
}
layer {
  name: "conv2_3_bn0"
  type: "BatchNorm"
  bottom: "conv2_3_0"
  top: "conv2_3_0"
  param {
    lr_mult: 0
    decay_mult: 0
  }
  param {
    lr_mult: 0
    decay_mult: 0
  }
  param {
    lr_mult: 0
    decay_mult: 0
  }
  batch_norm_param {
    use_global_stats: false
  }
}
layer {
  name: "conv2_3_scale0"
  type: "Scale"
  bottom: "conv2_3_0"
  top: "conv2_3_0"
  scale_param {
    bias_term: true
  }
}
layer {
  name: "conv2_3_ReLU0"
  type: "ReLU"
  bottom: "conv2_3_0"
  top: "conv2_3_0"
}
layer {
  name: "conv2_3_1"
  type: "Convolution"
  bottom: "conv2_3_0"
  top: "conv2_3_1"
  param {
    lr_mult: 1
    decay_mult: 1
  }
  param {
    lr_mult: 2
    decay_mult: 0
  }
  convolution_param {
    num_output: 16
    bias_term: true
    pad: 1
    kernel_size: 3
    stride: 1
    weight_filler {
      type: "msra"
    }
    bias_filler {
      type: "constant"
      value: 0
    }
  }
}
layer {
  name: "conv2_3bn1"
  type: "BatchNorm"
  bottom: "conv2_3_1"
  top: "conv2_3_1"
  param {
    lr_mult: 0
    decay_mult: 0
  }
  param {
    lr_mult: 0
    decay_mult: 0
  }
  param {
    lr_mult: 0
    decay_mult: 0
  }
  batch_norm_param {
    use_global_stats: false
  }
}
layer {
  name: "conv2_3_scale1"
  type: "Scale"
  bottom: "conv2_3_1"
  top: "conv2_3_1"
  scale_param {
    bias_term: true
  }
}
layer {
  name: "conv2_Eltwise_3"
  type: "Eltwise"
  bottom: "conv2_Eltwise_2"
  bottom: "conv2_3_1"
  top: "conv2_Eltwise_3"
  eltwise_param {
    operation: SUM
  }
}
layer {
  name: "conv2_3ReLU_1"
  type: "ReLU"
  bottom: "conv2_Eltwise_3"
  top: "conv2_Eltwise_3"
}
layer {
  name: "conv2_4_0"
  type: "Convolution"
  bottom: "conv2_Eltwise_3"
  top: "conv2_4_0"
  param {
    lr_mult: 1
    decay_mult: 1
  }
  param {
    lr_mult: 2
    decay_mult: 0
  }
  convolution_param {
    num_output: 16
    bias_term: true
    pad: 1
    kernel_size: 3
    stride: 1
    weight_filler {
      type: "msra"
    }
    bias_filler {
      type: "constant"
      value: 0
    }
  }
}
layer {
  name: "conv2_4_bn0"
  type: "BatchNorm"
  bottom: "conv2_4_0"
  top: "conv2_4_0"
  param {
    lr_mult: 0
    decay_mult: 0
  }
  param {
    lr_mult: 0
    decay_mult: 0
  }
  param {
    lr_mult: 0
    decay_mult: 0
  }
  batch_norm_param {
    use_global_stats: false
  }
}
layer {
  name: "conv2_4_scale0"
  type: "Scale"
  bottom: "conv2_4_0"
  top: "conv2_4_0"
  scale_param {
    bias_term: true
  }
}
layer {
  name: "conv2_4_ReLU0"
  type: "ReLU"
  bottom: "conv2_4_0"
  top: "conv2_4_0"
}
layer {
  name: "conv2_4_1"
  type: "Convolution"
  bottom: "conv2_4_0"
  top: "conv2_4_1"
  param {
    lr_mult: 1
    decay_mult: 1
  }
  param {
    lr_mult: 2
    decay_mult: 0
  }
  convolution_param {
    num_output: 16
    bias_term: true
    pad: 1
    kernel_size: 3
    stride: 1
    weight_filler {
      type: "msra"
    }
    bias_filler {
      type: "constant"
      value: 0
    }
  }
}
layer {
  name: "conv2_4bn1"
  type: "BatchNorm"
  bottom: "conv2_4_1"
  top: "conv2_4_1"
  param {
    lr_mult: 0
    decay_mult: 0
  }
  param {
    lr_mult: 0
    decay_mult: 0
  }
  param {
    lr_mult: 0
    decay_mult: 0
  }
  batch_norm_param {
    use_global_stats: false
  }
}
layer {
  name: "conv2_4_scale1"
  type: "Scale"
  bottom: "conv2_4_1"
  top: "conv2_4_1"
  scale_param {
    bias_term: true
  }
}
layer {
  name: "conv2_Eltwise_4"
  type: "Eltwise"
  bottom: "conv2_Eltwise_3"
  bottom: "conv2_4_1"
  top: "conv2_Eltwise_4"
  eltwise_param {
    operation: SUM
  }
}
layer {
  name: "conv2_4ReLU_1"
  type: "ReLU"
  bottom: "conv2_Eltwise_4"
  top: "conv2_Eltwise_4"
}
layer {
  name: "conv2_5_0"
  type: "Convolution"
  bottom: "conv2_Eltwise_4"
  top: "conv2_5_0"
  param {
    lr_mult: 1
    decay_mult: 1
  }
  param {
    lr_mult: 2
    decay_mult: 0
  }
  convolution_param {
    num_output: 16
    bias_term: true
    pad: 1
    kernel_size: 3
    stride: 1
    weight_filler {
      type: "msra"
    }
    bias_filler {
      type: "constant"
      value: 0
    }
  }
}
layer {
  name: "conv2_5_bn0"
  type: "BatchNorm"
  bottom: "conv2_5_0"
  top: "conv2_5_0"
  param {
    lr_mult: 0
    decay_mult: 0
  }
  param {
    lr_mult: 0
    decay_mult: 0
  }
  param {
    lr_mult: 0
    decay_mult: 0
  }
  batch_norm_param {
    use_global_stats: false
  }
}
layer {
  name: "conv2_5_scale0"
  type: "Scale"
  bottom: "conv2_5_0"
  top: "conv2_5_0"
  scale_param {
    bias_term: true
  }
}
layer {
  name: "conv2_5_ReLU0"
  type: "ReLU"
  bottom: "conv2_5_0"
  top: "conv2_5_0"
}
layer {
  name: "conv2_5_1"
  type: "Convolution"
  bottom: "conv2_5_0"
  top: "conv2_5_1"
  param {
    lr_mult: 1
    decay_mult: 1
  }
  param {
    lr_mult: 2
    decay_mult: 0
  }
  convolution_param {
    num_output: 16
    bias_term: true
    pad: 1
    kernel_size: 3
    stride: 1
    weight_filler {
      type: "msra"
    }
    bias_filler {
      type: "constant"
      value: 0
    }
  }
}
layer {
  name: "conv2_5bn1"
  type: "BatchNorm"
  bottom: "conv2_5_1"
  top: "conv2_5_1"
  param {
    lr_mult: 0
    decay_mult: 0
  }
  param {
    lr_mult: 0
    decay_mult: 0
  }
  param {
    lr_mult: 0
    decay_mult: 0
  }
  batch_norm_param {
    use_global_stats: false
  }
}
layer {
  name: "conv2_5_scale1"
  type: "Scale"
  bottom: "conv2_5_1"
  top: "conv2_5_1"
  scale_param {
    bias_term: true
  }
}
layer {
  name: "conv2_Eltwise_5"
  type: "Eltwise"
  bottom: "conv2_Eltwise_4"
  bottom: "conv2_5_1"
  top: "conv2_Eltwise_5"
  eltwise_param {
    operation: SUM
  }
}
layer {
  name: "conv2_5ReLU_1"
  type: "ReLU"
  bottom: "conv2_Eltwise_5"
  top: "conv2_Eltwise_5"
}
layer {
  name: "conv2_6_0"
  type: "Convolution"
  bottom: "conv2_Eltwise_5"
  top: "conv2_6_0"
  param {
    lr_mult: 1
    decay_mult: 1
  }
  param {
    lr_mult: 2
    decay_mult: 0
  }
  convolution_param {
    num_output: 16
    bias_term: true
    pad: 1
    kernel_size: 3
    stride: 1
    weight_filler {
      type: "msra"
    }
    bias_filler {
      type: "constant"
      value: 0
    }
  }
}
layer {
  name: "conv2_6_bn0"
  type: "BatchNorm"
  bottom: "conv2_6_0"
  top: "conv2_6_0"
  param {
    lr_mult: 0
    decay_mult: 0
  }
  param {
    lr_mult: 0
    decay_mult: 0
  }
  param {
    lr_mult: 0
    decay_mult: 0
  }
  batch_norm_param {
    use_global_stats: false
  }
}
layer {
  name: "conv2_6_scale0"
  type: "Scale"
  bottom: "conv2_6_0"
  top: "conv2_6_0"
  scale_param {
    bias_term: true
  }
}
layer {
  name: "conv2_6_ReLU0"
  type: "ReLU"
  bottom: "conv2_6_0"
  top: "conv2_6_0"
}
layer {
  name: "conv2_6_1"
  type: "Convolution"
  bottom: "conv2_6_0"
  top: "conv2_6_1"
  param {
    lr_mult: 1
    decay_mult: 1
  }
  param {
    lr_mult: 2
    decay_mult: 0
  }
  convolution_param {
    num_output: 16
    bias_term: true
    pad: 1
    kernel_size: 3
    stride: 1
    weight_filler {
      type: "msra"
    }
    bias_filler {
      type: "constant"
      value: 0
    }
  }
}
layer {
  name: "conv2_6bn1"
  type: "BatchNorm"
  bottom: "conv2_6_1"
  top: "conv2_6_1"
  param {
    lr_mult: 0
    decay_mult: 0
  }
  param {
    lr_mult: 0
    decay_mult: 0
  }
  param {
    lr_mult: 0
    decay_mult: 0
  }
  batch_norm_param {
    use_global_stats: false
  }
}
layer {
  name: "conv2_6_scale1"
  type: "Scale"
  bottom: "conv2_6_1"
  top: "conv2_6_1"
  scale_param {
    bias_term: true
  }
}
layer {
  name: "conv2_Eltwise_6"
  type: "Eltwise"
  bottom: "conv2_Eltwise_5"
  bottom: "conv2_6_1"
  top: "conv2_Eltwise_6"
  eltwise_param {
    operation: SUM
  }
}
layer {
  name: "conv2_6ReLU_1"
  type: "ReLU"
  bottom: "conv2_Eltwise_6"
  top: "conv2_Eltwise_6"
}
layer {
  name: "conv2_7_0"
  type: "Convolution"
  bottom: "conv2_Eltwise_6"
  top: "conv2_7_0"
  param {
    lr_mult: 1
    decay_mult: 1
  }
  param {
    lr_mult: 2
    decay_mult: 0
  }
  convolution_param {
    num_output: 16
    bias_term: true
    pad: 1
    kernel_size: 3
    stride: 1
    weight_filler {
      type: "msra"
    }
    bias_filler {
      type: "constant"
      value: 0
    }
  }
}
layer {
  name: "conv2_7_bn0"
  type: "BatchNorm"
  bottom: "conv2_7_0"
  top: "conv2_7_0"
  param {
    lr_mult: 0
    decay_mult: 0
  }
  param {
    lr_mult: 0
    decay_mult: 0
  }
  param {
    lr_mult: 0
    decay_mult: 0
  }
  batch_norm_param {
    use_global_stats: false
  }
}
layer {
  name: "conv2_7_scale0"
  type: "Scale"
  bottom: "conv2_7_0"
  top: "conv2_7_0"
  scale_param {
    bias_term: true
  }
}
layer {
  name: "conv2_7_ReLU0"
  type: "ReLU"
  bottom: "conv2_7_0"
  top: "conv2_7_0"
}
layer {
  name: "conv2_7_1"
  type: "Convolution"
  bottom: "conv2_7_0"
  top: "conv2_7_1"
  param {
    lr_mult: 1
    decay_mult: 1
  }
  param {
    lr_mult: 2
    decay_mult: 0
  }
  convolution_param {
    num_output: 16
    bias_term: true
    pad: 1
    kernel_size: 3
    stride: 1
    weight_filler {
      type: "msra"
    }
    bias_filler {
      type: "constant"
      value: 0
    }
  }
}
layer {
  name: "conv2_7bn1"
  type: "BatchNorm"
  bottom: "conv2_7_1"
  top: "conv2_7_1"
  param {
    lr_mult: 0
    decay_mult: 0
  }
  param {
    lr_mult: 0
    decay_mult: 0
  }
  param {
    lr_mult: 0
    decay_mult: 0
  }
  batch_norm_param {
    use_global_stats: false
  }
}
layer {
  name: "conv2_7_scale1"
  type: "Scale"
  bottom: "conv2_7_1"
  top: "conv2_7_1"
  scale_param {
    bias_term: true
  }
}
layer {
  name: "conv2_Eltwise_7"
  type: "Eltwise"
  bottom: "conv2_Eltwise_6"
  bottom: "conv2_7_1"
  top: "conv2_Eltwise_7"
  eltwise_param {
    operation: SUM
  }
}
layer {
  name: "conv2_7ReLU_1"
  type: "ReLU"
  bottom: "conv2_Eltwise_7"
  top: "conv2_Eltwise_7"
}
layer {
  name: "conv2_8_0"
  type: "Convolution"
  bottom: "conv2_Eltwise_7"
  top: "conv2_8_0"
  param {
    lr_mult: 1
    decay_mult: 1
  }
  param {
    lr_mult: 2
    decay_mult: 0
  }
  convolution_param {
    num_output: 16
    bias_term: true
    pad: 1
    kernel_size: 3
    stride: 1
    weight_filler {
      type: "msra"
    }
    bias_filler {
      type: "constant"
      value: 0
    }
  }
}
layer {
  name: "conv2_8_bn0"
  type: "BatchNorm"
  bottom: "conv2_8_0"
  top: "conv2_8_0"
  param {
    lr_mult: 0
    decay_mult: 0
  }
  param {
    lr_mult: 0
    decay_mult: 0
  }
  param {
    lr_mult: 0
    decay_mult: 0
  }
  batch_norm_param {
    use_global_stats: false
  }
}
layer {
  name: "conv2_8_scale0"
  type: "Scale"
  bottom: "conv2_8_0"
  top: "conv2_8_0"
  scale_param {
    bias_term: true
  }
}
layer {
  name: "conv2_8_ReLU0"
  type: "ReLU"
  bottom: "conv2_8_0"
  top: "conv2_8_0"
}
layer {
  name: "conv2_8_1"
  type: "Convolution"
  bottom: "conv2_8_0"
  top: "conv2_8_1"
  param {
    lr_mult: 1
    decay_mult: 1
  }
  param {
    lr_mult: 2
    decay_mult: 0
  }
  convolution_param {
    num_output: 16
    bias_term: true
    pad: 1
    kernel_size: 3
    stride: 1
    weight_filler {
      type: "msra"
    }
    bias_filler {
      type: "constant"
      value: 0
    }
  }
}
layer {
  name: "conv2_8bn1"
  type: "BatchNorm"
  bottom: "conv2_8_1"
  top: "conv2_8_1"
  param {
    lr_mult: 0
    decay_mult: 0
  }
  param {
    lr_mult: 0
    decay_mult: 0
  }
  param {
    lr_mult: 0
    decay_mult: 0
  }
  batch_norm_param {
    use_global_stats: false
  }
}
layer {
  name: "conv2_8_scale1"
  type: "Scale"
  bottom: "conv2_8_1"
  top: "conv2_8_1"
  scale_param {
    bias_term: true
  }
}
layer {
  name: "conv2_Eltwise_8"
  type: "Eltwise"
  bottom: "conv2_Eltwise_7"
  bottom: "conv2_8_1"
  top: "conv2_Eltwise_8"
  eltwise_param {
    operation: SUM
  }
}
layer {
  name: "conv2_8ReLU_1"
  type: "ReLU"
  bottom: "conv2_Eltwise_8"
  top: "conv2_Eltwise_8"
}
layer {
  name: "conv2_9_0"
  type: "Convolution"
  bottom: "conv2_Eltwise_8"
  top: "conv2_9_0"
  param {
    lr_mult: 1
    decay_mult: 1
  }
  param {
    lr_mult: 2
    decay_mult: 0
  }
  convolution_param {
    num_output: 16
    bias_term: true
    pad: 1
    kernel_size: 3
    stride: 1
    weight_filler {
      type: "msra"
    }
    bias_filler {
      type: "constant"
      value: 0
    }
  }
}
layer {
  name: "conv2_9_bn0"
  type: "BatchNorm"
  bottom: "conv2_9_0"
  top: "conv2_9_0"
  param {
    lr_mult: 0
    decay_mult: 0
  }
  param {
    lr_mult: 0
    decay_mult: 0
  }
  param {
    lr_mult: 0
    decay_mult: 0
  }
  batch_norm_param {
    use_global_stats: false
  }
}
layer {
  name: "conv2_9_scale0"
  type: "Scale"
  bottom: "conv2_9_0"
  top: "conv2_9_0"
  scale_param {
    bias_term: true
  }
}
layer {
  name: "conv2_9_ReLU0"
  type: "ReLU"
  bottom: "conv2_9_0"
  top: "conv2_9_0"
}
layer {
  name: "conv2_9_1"
  type: "Convolution"
  bottom: "conv2_9_0"
  top: "conv2_9_1"
  param {
    lr_mult: 1
    decay_mult: 1
  }
  param {
    lr_mult: 2
    decay_mult: 0
  }
  convolution_param {
    num_output: 16
    bias_term: true
    pad: 1
    kernel_size: 3
    stride: 1
    weight_filler {
      type: "msra"
    }
    bias_filler {
      type: "constant"
      value: 0
    }
  }
}
layer {
  name: "conv2_9bn1"
  type: "BatchNorm"
  bottom: "conv2_9_1"
  top: "conv2_9_1"
  param {
    lr_mult: 0
    decay_mult: 0
  }
  param {
    lr_mult: 0
    decay_mult: 0
  }
  param {
    lr_mult: 0
    decay_mult: 0
  }
  batch_norm_param {
    use_global_stats: false
  }
}
layer {
  name: "conv2_9_scale1"
  type: "Scale"
  bottom: "conv2_9_1"
  top: "conv2_9_1"
  scale_param {
    bias_term: true
  }
}
layer {
  name: "conv2_Eltwise_9"
  type: "Eltwise"
  bottom: "conv2_Eltwise_8"
  bottom: "conv2_9_1"
  top: "conv2_Eltwise_9"
  eltwise_param {
    operation: SUM
  }
}
layer {
  name: "conv2_9ReLU_1"
  type: "ReLU"
  bottom: "conv2_Eltwise_9"
  top: "conv2_Eltwise_9"
}
layer {
  name: "conv2_10_0"
  type: "Convolution"
  bottom: "conv2_Eltwise_9"
  top: "conv2_10_0"
  param {
    lr_mult: 1
    decay_mult: 1
  }
  param {
    lr_mult: 2
    decay_mult: 0
  }
  convolution_param {
    num_output: 16
    bias_term: true
    pad: 1
    kernel_size: 3
    stride: 1
    weight_filler {
      type: "msra"
    }
    bias_filler {
      type: "constant"
      value: 0
    }
  }
}
layer {
  name: "conv2_10_bn0"
  type: "BatchNorm"
  bottom: "conv2_10_0"
  top: "conv2_10_0"
  param {
    lr_mult: 0
    decay_mult: 0
  }
  param {
    lr_mult: 0
    decay_mult: 0
  }
  param {
    lr_mult: 0
    decay_mult: 0
  }
  batch_norm_param {
    use_global_stats: false
  }
}
layer {
  name: "conv2_10_scale0"
  type: "Scale"
  bottom: "conv2_10_0"
  top: "conv2_10_0"
  scale_param {
    bias_term: true
  }
}
layer {
  name: "conv2_10_ReLU0"
  type: "ReLU"
  bottom: "conv2_10_0"
  top: "conv2_10_0"
}
layer {
  name: "conv2_10_1"
  type: "Convolution"
  bottom: "conv2_10_0"
  top: "conv2_10_1"
  param {
    lr_mult: 1
    decay_mult: 1
  }
  param {
    lr_mult: 2
    decay_mult: 0
  }
  convolution_param {
    num_output: 16
    bias_term: true
    pad: 1
    kernel_size: 3
    stride: 1
    weight_filler {
      type: "msra"
    }
    bias_filler {
      type: "constant"
      value: 0
    }
  }
}
layer {
  name: "conv2_10bn1"
  type: "BatchNorm"
  bottom: "conv2_10_1"
  top: "conv2_10_1"
  param {
    lr_mult: 0
    decay_mult: 0
  }
  param {
    lr_mult: 0
    decay_mult: 0
  }
  param {
    lr_mult: 0
    decay_mult: 0
  }
  batch_norm_param {
    use_global_stats: false
  }
}
layer {
  name: "conv2_10_scale1"
  type: "Scale"
  bottom: "conv2_10_1"
  top: "conv2_10_1"
  scale_param {
    bias_term: true
  }
}
layer {
  name: "conv2_Eltwise_10"
  type: "Eltwise"
  bottom: "conv2_Eltwise_9"
  bottom: "conv2_10_1"
  top: "conv2_Eltwise_10"
  eltwise_param {
    operation: SUM
  }
}
layer {
  name: "conv2_10ReLU_1"
  type: "ReLU"
  bottom: "conv2_Eltwise_10"
  top: "conv2_Eltwise_10"
}
layer {
  name: "conv2_11_0"
  type: "Convolution"
  bottom: "conv2_Eltwise_10"
  top: "conv2_11_0"
  param {
    lr_mult: 1
    decay_mult: 1
  }
  param {
    lr_mult: 2
    decay_mult: 0
  }
  convolution_param {
    num_output: 16
    bias_term: true
    pad: 1
    kernel_size: 3
    stride: 1
    weight_filler {
      type: "msra"
    }
    bias_filler {
      type: "constant"
      value: 0
    }
  }
}
layer {
  name: "conv2_11_bn0"
  type: "BatchNorm"
  bottom: "conv2_11_0"
  top: "conv2_11_0"
  param {
    lr_mult: 0
    decay_mult: 0
  }
  param {
    lr_mult: 0
    decay_mult: 0
  }
  param {
    lr_mult: 0
    decay_mult: 0
  }
  batch_norm_param {
    use_global_stats: false
  }
}
layer {
  name: "conv2_11_scale0"
  type: "Scale"
  bottom: "conv2_11_0"
  top: "conv2_11_0"
  scale_param {
    bias_term: true
  }
}
layer {
  name: "conv2_11_ReLU0"
  type: "ReLU"
  bottom: "conv2_11_0"
  top: "conv2_11_0"
}
layer {
  name: "conv2_11_1"
  type: "Convolution"
  bottom: "conv2_11_0"
  top: "conv2_11_1"
  param {
    lr_mult: 1
    decay_mult: 1
  }
  param {
    lr_mult: 2
    decay_mult: 0
  }
  convolution_param {
    num_output: 16
    bias_term: true
    pad: 1
    kernel_size: 3
    stride: 1
    weight_filler {
      type: "msra"
    }
    bias_filler {
      type: "constant"
      value: 0
    }
  }
}
layer {
  name: "conv2_11bn1"
  type: "BatchNorm"
  bottom: "conv2_11_1"
  top: "conv2_11_1"
  param {
    lr_mult: 0
    decay_mult: 0
  }
  param {
    lr_mult: 0
    decay_mult: 0
  }
  param {
    lr_mult: 0
    decay_mult: 0
  }
  batch_norm_param {
    use_global_stats: false
  }
}
layer {
  name: "conv2_11_scale1"
  type: "Scale"
  bottom: "conv2_11_1"
  top: "conv2_11_1"
  scale_param {
    bias_term: true
  }
}
layer {
  name: "conv2_Eltwise_11"
  type: "Eltwise"
  bottom: "conv2_Eltwise_10"
  bottom: "conv2_11_1"
  top: "conv2_Eltwise_11"
  eltwise_param {
    operation: SUM
  }
}
layer {
  name: "conv2_11ReLU_1"
  type: "ReLU"
  bottom: "conv2_Eltwise_11"
  top: "conv2_Eltwise_11"
}
layer {
  name: "conv2_12_0"
  type: "Convolution"
  bottom: "conv2_Eltwise_11"
  top: "conv2_12_0"
  param {
    lr_mult: 1
    decay_mult: 1
  }
  param {
    lr_mult: 2
    decay_mult: 0
  }
  convolution_param {
    num_output: 16
    bias_term: true
    pad: 1
    kernel_size: 3
    stride: 1
    weight_filler {
      type: "msra"
    }
    bias_filler {
      type: "constant"
      value: 0
    }
  }
}
layer {
  name: "conv2_12_bn0"
  type: "BatchNorm"
  bottom: "conv2_12_0"
  top: "conv2_12_0"
  param {
    lr_mult: 0
    decay_mult: 0
  }
  param {
    lr_mult: 0
    decay_mult: 0
  }
  param {
    lr_mult: 0
    decay_mult: 0
  }
  batch_norm_param {
    use_global_stats: false
  }
}
layer {
  name: "conv2_12_scale0"
  type: "Scale"
  bottom: "conv2_12_0"
  top: "conv2_12_0"
  scale_param {
    bias_term: true
  }
}
layer {
  name: "conv2_12_ReLU0"
  type: "ReLU"
  bottom: "conv2_12_0"
  top: "conv2_12_0"
}
layer {
  name: "conv2_12_1"
  type: "Convolution"
  bottom: "conv2_12_0"
  top: "conv2_12_1"
  param {
    lr_mult: 1
    decay_mult: 1
  }
  param {
    lr_mult: 2
    decay_mult: 0
  }
  convolution_param {
    num_output: 16
    bias_term: true
    pad: 1
    kernel_size: 3
    stride: 1
    weight_filler {
      type: "msra"
    }
    bias_filler {
      type: "constant"
      value: 0
    }
  }
}
layer {
  name: "conv2_12bn1"
  type: "BatchNorm"
  bottom: "conv2_12_1"
  top: "conv2_12_1"
  param {
    lr_mult: 0
    decay_mult: 0
  }
  param {
    lr_mult: 0
    decay_mult: 0
  }
  param {
    lr_mult: 0
    decay_mult: 0
  }
  batch_norm_param {
    use_global_stats: false
  }
}
layer {
  name: "conv2_12_scale1"
  type: "Scale"
  bottom: "conv2_12_1"
  top: "conv2_12_1"
  scale_param {
    bias_term: true
  }
}
layer {
  name: "conv2_Eltwise_12"
  type: "Eltwise"
  bottom: "conv2_Eltwise_11"
  bottom: "conv2_12_1"
  top: "conv2_Eltwise_12"
  eltwise_param {
    operation: SUM
  }
}
layer {
  name: "conv2_12ReLU_1"
  type: "ReLU"
  bottom: "conv2_Eltwise_12"
  top: "conv2_Eltwise_12"
}
layer {
  name: "conv2_13_0"
  type: "Convolution"
  bottom: "conv2_Eltwise_12"
  top: "conv2_13_0"
  param {
    lr_mult: 1
    decay_mult: 1
  }
  param {
    lr_mult: 2
    decay_mult: 0
  }
  convolution_param {
    num_output: 16
    bias_term: true
    pad: 1
    kernel_size: 3
    stride: 1
    weight_filler {
      type: "msra"
    }
    bias_filler {
      type: "constant"
      value: 0
    }
  }
}
layer {
  name: "conv2_13_bn0"
  type: "BatchNorm"
  bottom: "conv2_13_0"
  top: "conv2_13_0"
  param {
    lr_mult: 0
    decay_mult: 0
  }
  param {
    lr_mult: 0
    decay_mult: 0
  }
  param {
    lr_mult: 0
    decay_mult: 0
  }
  batch_norm_param {
    use_global_stats: false
  }
}
layer {
  name: "conv2_13_scale0"
  type: "Scale"
  bottom: "conv2_13_0"
  top: "conv2_13_0"
  scale_param {
    bias_term: true
  }
}
layer {
  name: "conv2_13_ReLU0"
  type: "ReLU"
  bottom: "conv2_13_0"
  top: "conv2_13_0"
}
layer {
  name: "conv2_13_1"
  type: "Convolution"
  bottom: "conv2_13_0"
  top: "conv2_13_1"
  param {
    lr_mult: 1
    decay_mult: 1
  }
  param {
    lr_mult: 2
    decay_mult: 0
  }
  convolution_param {
    num_output: 16
    bias_term: true
    pad: 1
    kernel_size: 3
    stride: 1
    weight_filler {
      type: "msra"
    }
    bias_filler {
      type: "constant"
      value: 0
    }
  }
}
layer {
  name: "conv2_13bn1"
  type: "BatchNorm"
  bottom: "conv2_13_1"
  top: "conv2_13_1"
  param {
    lr_mult: 0
    decay_mult: 0
  }
  param {
    lr_mult: 0
    decay_mult: 0
  }
  param {
    lr_mult: 0
    decay_mult: 0
  }
  batch_norm_param {
    use_global_stats: false
  }
}
layer {
  name: "conv2_13_scale1"
  type: "Scale"
  bottom: "conv2_13_1"
  top: "conv2_13_1"
  scale_param {
    bias_term: true
  }
}
layer {
  name: "conv2_Eltwise_13"
  type: "Eltwise"
  bottom: "conv2_Eltwise_12"
  bottom: "conv2_13_1"
  top: "conv2_Eltwise_13"
  eltwise_param {
    operation: SUM
  }
}
layer {
  name: "conv2_13ReLU_1"
  type: "ReLU"
  bottom: "conv2_Eltwise_13"
  top: "conv2_Eltwise_13"
}
layer {
  name: "conv2_14_0"
  type: "Convolution"
  bottom: "conv2_Eltwise_13"
  top: "conv2_14_0"
  param {
    lr_mult: 1
    decay_mult: 1
  }
  param {
    lr_mult: 2
    decay_mult: 0
  }
  convolution_param {
    num_output: 16
    bias_term: true
    pad: 1
    kernel_size: 3
    stride: 1
    weight_filler {
      type: "msra"
    }
    bias_filler {
      type: "constant"
      value: 0
    }
  }
}
layer {
  name: "conv2_14_bn0"
  type: "BatchNorm"
  bottom: "conv2_14_0"
  top: "conv2_14_0"
  param {
    lr_mult: 0
    decay_mult: 0
  }
  param {
    lr_mult: 0
    decay_mult: 0
  }
  param {
    lr_mult: 0
    decay_mult: 0
  }
  batch_norm_param {
    use_global_stats: false
  }
}
layer {
  name: "conv2_14_scale0"
  type: "Scale"
  bottom: "conv2_14_0"
  top: "conv2_14_0"
  scale_param {
    bias_term: true
  }
}
layer {
  name: "conv2_14_ReLU0"
  type: "ReLU"
  bottom: "conv2_14_0"
  top: "conv2_14_0"
}
layer {
  name: "conv2_14_1"
  type: "Convolution"
  bottom: "conv2_14_0"
  top: "conv2_14_1"
  param {
    lr_mult: 1
    decay_mult: 1
  }
  param {
    lr_mult: 2
    decay_mult: 0
  }
  convolution_param {
    num_output: 16
    bias_term: true
    pad: 1
    kernel_size: 3
    stride: 1
    weight_filler {
      type: "msra"
    }
    bias_filler {
      type: "constant"
      value: 0
    }
  }
}
layer {
  name: "conv2_14bn1"
  type: "BatchNorm"
  bottom: "conv2_14_1"
  top: "conv2_14_1"
  param {
    lr_mult: 0
    decay_mult: 0
  }
  param {
    lr_mult: 0
    decay_mult: 0
  }
  param {
    lr_mult: 0
    decay_mult: 0
  }
  batch_norm_param {
    use_global_stats: false
  }
}
layer {
  name: "conv2_14_scale1"
  type: "Scale"
  bottom: "conv2_14_1"
  top: "conv2_14_1"
  scale_param {
    bias_term: true
  }
}
layer {
  name: "conv2_Eltwise_14"
  type: "Eltwise"
  bottom: "conv2_Eltwise_13"
  bottom: "conv2_14_1"
  top: "conv2_Eltwise_14"
  eltwise_param {
    operation: SUM
  }
}
layer {
  name: "conv2_14ReLU_1"
  type: "ReLU"
  bottom: "conv2_Eltwise_14"
  top: "conv2_Eltwise_14"
}
layer {
  name: "conv2_15_0"
  type: "Convolution"
  bottom: "conv2_Eltwise_14"
  top: "conv2_15_0"
  param {
    lr_mult: 1
    decay_mult: 1
  }
  param {
    lr_mult: 2
    decay_mult: 0
  }
  convolution_param {
    num_output: 16
    bias_term: true
    pad: 1
    kernel_size: 3
    stride: 1
    weight_filler {
      type: "msra"
   
I1206 21:25:20.593677 16251 layer_factory.hpp:77] Creating layer Data1
I1206 21:25:20.593950 16251 db_lmdb.cpp:35] Opened lmdb /home/lijianfei/datasets/cifar10_40/train_lmdb
I1206 21:25:20.594013 16251 net.cpp:128] Creating Layer Data1
I1206 21:25:20.594043 16251 net.cpp:522] Data1 -> data
I1206 21:25:20.594091 16251 net.cpp:522] Data1 -> label
I1206 21:25:20.595681 16251 data_layer.cpp:45] output data size: 32,3,32,32
I1206 21:25:20.602811 16251 net.cpp:172] Setting up Data1
I1206 21:25:20.602900 16251 net.cpp:186] Top shape: 32 3 32 32 (98304)
I1206 21:25:20.602926 16251 net.cpp:186] Top shape: 32 (32)
I1206 21:25:20.602946 16251 net.cpp:194] Memory required for data: 393344
I1206 21:25:20.602986 16251 layer_factory.hpp:77] Creating layer conv1
I1206 21:25:20.603034 16251 net.cpp:128] Creating Layer conv1
I1206 21:25:20.603057 16251 net.cpp:558] conv1 <- data
I1206 21:25:20.603093 16251 net.cpp:522] conv1 -> conv1
I1206 21:25:21.503545 16251 net.cpp:172] Setting up conv1
I1206 21:25:21.503664 16251 net.cpp:186] Top shape: 32 16 32 32 (524288)
I1206 21:25:21.503690 16251 net.cpp:194] Memory required for data: 2490496
I1206 21:25:21.503746 16251 layer_factory.hpp:77] Creating layer conv1/bn
I1206 21:25:21.503782 16251 net.cpp:128] Creating Layer conv1/bn
I1206 21:25:21.503806 16251 net.cpp:558] conv1/bn <- conv1
I1206 21:25:21.503834 16251 net.cpp:509] conv1/bn -> conv1 (in-place)
I1206 21:25:21.504110 16251 net.cpp:172] Setting up conv1/bn
I1206 21:25:21.504139 16251 net.cpp:186] Top shape: 32 16 32 32 (524288)
I1206 21:25:21.504160 16251 net.cpp:194] Memory required for data: 4587648
I1206 21:25:21.504194 16251 layer_factory.hpp:77] Creating layer conv1/scale
I1206 21:25:21.504220 16251 net.cpp:128] Creating Layer conv1/scale
I1206 21:25:21.504252 16251 net.cpp:558] conv1/scale <- conv1
I1206 21:25:21.504278 16251 net.cpp:509] conv1/scale -> conv1 (in-place)
I1206 21:25:21.504353 16251 layer_factory.hpp:77] Creating layer conv1/scale
I1206 21:25:21.504501 16251 net.cpp:172] Setting up conv1/scale
I1206 21:25:21.504528 16251 net.cpp:186] Top shape: 32 16 32 32 (524288)
I1206 21:25:21.504549 16251 net.cpp:194] Memory required for data: 6684800
I1206 21:25:21.504575 16251 layer_factory.hpp:77] Creating layer conv1/ReLU
I1206 21:25:21.504601 16251 net.cpp:128] Creating Layer conv1/ReLU
I1206 21:25:21.504623 16251 net.cpp:558] conv1/ReLU <- conv1
I1206 21:25:21.504648 16251 net.cpp:509] conv1/ReLU -> conv1 (in-place)
I1206 21:25:21.504899 16251 net.cpp:172] Setting up conv1/ReLU
I1206 21:25:21.504940 16251 net.cpp:186] Top shape: 32 16 32 32 (524288)
I1206 21:25:21.504961 16251 net.cpp:194] Memory required for data: 8781952
I1206 21:25:21.504983 16251 layer_factory.hpp:77] Creating layer conv1_conv1/ReLU_0_split
I1206 21:25:21.505009 16251 net.cpp:128] Creating Layer conv1_conv1/ReLU_0_split
I1206 21:25:21.505030 16251 net.cpp:558] conv1_conv1/ReLU_0_split <- conv1
I1206 21:25:21.505055 16251 net.cpp:522] conv1_conv1/ReLU_0_split -> conv1_conv1/ReLU_0_split_0
I1206 21:25:21.505082 16251 net.cpp:522] conv1_conv1/ReLU_0_split -> conv1_conv1/ReLU_0_split_1
I1206 21:25:21.505149 16251 net.cpp:172] Setting up conv1_conv1/ReLU_0_split
I1206 21:25:21.505175 16251 net.cpp:186] Top shape: 32 16 32 32 (524288)
I1206 21:25:21.505199 16251 net.cpp:186] Top shape: 32 16 32 32 (524288)
I1206 21:25:21.505220 16251 net.cpp:194] Memory required for data: 12976256
I1206 21:25:21.505242 16251 layer_factory.hpp:77] Creating layer conv2_1_0
I1206 21:25:21.505273 16251 net.cpp:128] Creating Layer conv2_1_0
I1206 21:25:21.505295 16251 net.cpp:558] conv2_1_0 <- conv1_conv1/ReLU_0_split_0
I1206 21:25:21.505321 16251 net.cpp:522] conv2_1_0 -> conv2_1_0
I1206 21:25:21.508183 16251 net.cpp:172] Setting up conv2_1_0
I1206 21:25:21.508275 16251 net.cpp:186] Top shape: 32 16 32 32 (524288)
I1206 21:25:21.508296 16251 net.cpp:194] Memory required for data: 15073408
I1206 21:25:21.508332 16251 layer_factory.hpp:77] Creating layer conv2_1_bn0
I1206 21:25:21.508363 16251 net.cpp:128] Creating Layer conv2_1_bn0
I1206 21:25:21.508385 16251 net.cpp:558] conv2_1_bn0 <- conv2_1_0
I1206 21:25:21.508410 16251 net.cpp:509] conv2_1_bn0 -> conv2_1_0 (in-place)
I1206 21:25:21.508668 16251 net.cpp:172] Setting up conv2_1_bn0
I1206 21:25:21.508697 16251 net.cpp:186] Top shape: 32 16 32 32 (524288)
I1206 21:25:21.508718 16251 net.cpp:194] Memory required for data: 17170560
I1206 21:25:21.508744 16251 layer_factory.hpp:77] Creating layer conv2_1_scale0
I1206 21:25:21.508772 16251 net.cpp:128] Creating Layer conv2_1_scale0
I1206 21:25:21.508793 16251 net.cpp:558] conv2_1_scale0 <- conv2_1_0
I1206 21:25:21.508816 16251 net.cpp:509] conv2_1_scale0 -> conv2_1_0 (in-place)
I1206 21:25:21.508884 16251 layer_factory.hpp:77] Creating layer conv2_1_scale0
I1206 21:25:21.509047 16251 net.cpp:172] Setting up conv2_1_scale0
I1206 21:25:21.509073 16251 net.cpp:186] Top shape: 32 16 32 32 (524288)
I1206 21:25:21.509093 16251 net.cpp:194] Memory required for data: 19267712
I1206 21:25:21.509119 16251 layer_factory.hpp:77] Creating layer conv2_1_ReLU0
I1206 21:25:21.509143 16251 net.cpp:128] Creating Layer conv2_1_ReLU0
I1206 21:25:21.509165 16251 net.cpp:558] conv2_1_ReLU0 <- conv2_1_0
I1206 21:25:21.509189 16251 net.cpp:509] conv2_1_ReLU0 -> conv2_1_0 (in-place)
I1206 21:25:21.509440 16251 net.cpp:172] Setting up conv2_1_ReLU0
I1206 21:25:21.509472 16251 net.cpp:186] Top shape: 32 16 32 32 (524288)
I1206 21:25:21.509495 16251 net.cpp:194] Memory required for data: 21364864
I1206 21:25:21.509529 16251 layer_factory.hpp:77] Creating layer conv2_1_1
I1206 21:25:21.509562 16251 net.cpp:128] Creating Layer conv2_1_1
I1206 21:25:21.509584 16251 net.cpp:558] conv2_1_1 <- conv2_1_0
I1206 21:25:21.509611 16251 net.cpp:522] conv2_1_1 -> conv2_1_1
I1206 21:25:21.510862 16251 net.cpp:172] Setting up conv2_1_1
I1206 21:25:21.510916 16251 net.cpp:186] Top shape: 32 16 32 32 (524288)
I1206 21:25:21.510937 16251 net.cpp:194] Memory required for data: 23462016
I1206 21:25:21.510965 16251 layer_factory.hpp:77] Creating layer conv2_1bn1
I1206 21:25:21.510989 16251 net.cpp:128] Creating Layer conv2_1bn1
I1206 21:25:21.511010 16251 net.cpp:558] conv2_1bn1 <- conv2_1_1
I1206 21:25:21.511040 16251 net.cpp:509] conv2_1bn1 -> conv2_1_1 (in-place)
I1206 21:25:21.511292 16251 net.cpp:172] Setting up conv2_1bn1
I1206 21:25:21.511318 16251 net.cpp:186] Top shape: 32 16 32 32 (524288)
I1206 21:25:21.511338 16251 net.cpp:194] Memory required for data: 25559168
I1206 21:25:21.511368 16251 layer_factory.hpp:77] Creating layer conv2_1_scale1
I1206 21:25:21.511394 16251 net.cpp:128] Creating Layer conv2_1_scale1
I1206 21:25:21.511415 16251 net.cpp:558] conv2_1_scale1 <- conv2_1_1
I1206 21:25:21.511438 16251 net.cpp:509] conv2_1_scale1 -> conv2_1_1 (in-place)
I1206 21:25:21.511502 16251 layer_factory.hpp:77] Creating layer conv2_1_scale1
I1206 21:25:21.511651 16251 net.cpp:172] Setting up conv2_1_scale1
I1206 21:25:21.511677 16251 net.cpp:186] Top shape: 32 16 32 32 (524288)
I1206 21:25:21.511698 16251 net.cpp:194] Memory required for data: 27656320
I1206 21:25:21.511721 16251 layer_factory.hpp:77] Creating layer conv2_Eltwise_1
I1206 21:25:21.511746 16251 net.cpp:128] Creating Layer conv2_Eltwise_1
I1206 21:25:21.511767 16251 net.cpp:558] conv2_Eltwise_1 <- conv1_conv1/ReLU_0_split_1
I1206 21:25:21.511788 16251 net.cpp:558] conv2_Eltwise_1 <- conv2_1_1
I1206 21:25:21.511814 16251 net.cpp:522] conv2_Eltwise_1 -> conv2_Eltwise_1
I1206 21:25:21.511868 16251 net.cpp:172] Setting up conv2_Eltwise_1
I1206 21:25:21.511893 16251 net.cpp:186] Top shape: 32 16 32 32 (524288)
I1206 21:25:21.511914 16251 net.cpp:194] Memory required for data: 29753472
I1206 21:25:21.511934 16251 layer_factory.hpp:77] Creating layer conv2_1ReLU_1
I1206 21:25:21.511956 16251 net.cpp:128] Creating Layer conv2_1ReLU_1
I1206 21:25:21.511977 16251 net.cpp:558] conv2_1ReLU_1 <- conv2_Eltwise_1
I1206 21:25:21.512003 16251 net.cpp:509] conv2_1ReLU_1 -> conv2_Eltwise_1 (in-place)
I1206 21:25:21.512465 16251 net.cpp:172] Setting up conv2_1ReLU_1
I1206 21:25:21.512516 16251 net.cpp:186] Top shape: 32 16 32 32 (524288)
I1206 21:25:21.512537 16251 net.cpp:194] Memory required for data: 31850624
I1206 21:25:21.512557 16251 layer_factory.hpp:77] Creating layer conv2_Eltwise_1_conv2_1ReLU_1_0_split
I1206 21:25:21.512585 16251 net.cpp:128] Creating Layer conv2_Eltwise_1_conv2_1ReLU_1_0_split
I1206 21:25:21.512606 16251 net.cpp:558] conv2_Eltwise_1_conv2_1ReLU_1_0_split <- conv2_Eltwise_1
I1206 21:25:21.512632 16251 net.cpp:522] conv2_Eltwise_1_conv2_1ReLU_1_0_split -> conv2_Eltwise_1_conv2_1ReLU_1_0_split_0
I1206 21:25:21.512660 16251 net.cpp:522] conv2_Eltwise_1_conv2_1ReLU_1_0_split -> conv2_Eltwise_1_conv2_1ReLU_1_0_split_1
I1206 21:25:21.512732 16251 net.cpp:172] Setting up conv2_Eltwise_1_conv2_1ReLU_1_0_split
I1206 21:25:21.512758 16251 net.cpp:186] Top shape: 32 16 32 32 (524288)
I1206 21:25:21.512787 16251 net.cpp:186] Top shape: 32 16 32 32 (524288)
I1206 21:25:21.512807 16251 net.cpp:194] Memory required for data: 36044928
I1206 21:25:21.512827 16251 layer_factory.hpp:77] Creating layer conv2_2_0
I1206 21:25:21.512859 16251 net.cpp:128] Creating Layer conv2_2_0
I1206 21:25:21.512881 16251 net.cpp:558] conv2_2_0 <- conv2_Eltwise_1_conv2_1ReLU_1_0_split_0
I1206 21:25:21.512905 16251 net.cpp:522] conv2_2_0 -> conv2_2_0
I1206 21:25:21.514192 16251 net.cpp:172] Setting up conv2_2_0
I1206 21:25:21.514247 16251 net.cpp:186] Top shape: 32 16 32 32 (524288)
I1206 21:25:21.514268 16251 net.cpp:194] Memory required for data: 38142080
I1206 21:25:21.514297 16251 layer_factory.hpp:77] Creating layer conv2_2_bn0
I1206 21:25:21.514338 16251 net.cpp:128] Creating Layer conv2_2_bn0
I1206 21:25:21.514359 16251 net.cpp:558] conv2_2_bn0 <- conv2_2_0
I1206 21:25:21.514384 16251 net.cpp:509] conv2_2_bn0 -> conv2_2_0 (in-place)
I1206 21:25:21.514658 16251 net.cpp:172] Setting up conv2_2_bn0
I1206 21:25:21.514686 16251 net.cpp:186] Top shape: 32 16 32 32 (524288)
I1206 21:25:21.514708 16251 net.cpp:194] Memory required for data: 40239232
I1206 21:25:21.514735 16251 layer_factory.hpp:77] Creating layer conv2_2_scale0
I1206 21:25:21.514765 16251 net.cpp:128] Creating Layer conv2_2_scale0
I1206 21:25:21.514787 16251 net.cpp:558] conv2_2_scale0 <- conv2_2_0
I1206 21:25:21.514811 16251 net.cpp:509] conv2_2_scale0 -> conv2_2_0 (in-place)
I1206 21:25:21.514891 16251 layer_factory.hpp:77] Creating layer conv2_2_scale0
I1206 21:25:21.515069 16251 net.cpp:172] Setting up conv2_2_scale0
I1206 21:25:21.515095 16251 net.cpp:186] Top shape: 32 16 32 32 (524288)
I1206 21:25:21.515115 16251 net.cpp:194] Memory required for data: 42336384
I1206 21:25:21.515142 16251 layer_factory.hpp:77] Creating layer conv2_2_ReLU0
I1206 21:25:21.515166 16251 net.cpp:128] Creating Layer conv2_2_ReLU0
I1206 21:25:21.515187 16251 net.cpp:558] conv2_2_ReLU0 <- conv2_2_0
I1206 21:25:21.515215 16251 net.cpp:509] conv2_2_ReLU0 -> conv2_2_0 (in-place)
I1206 21:25:21.515506 16251 net.cpp:172] Setting up conv2_2_ReLU0
I1206 21:25:21.515537 16251 net.cpp:186] Top shape: 32 16 32 32 (524288)
I1206 21:25:21.515558 16251 net.cpp:194] Memory required for data: 44433536
I1206 21:25:21.515579 16251 layer_factory.hpp:77] Creating layer conv2_2_1
I1206 21:25:21.515611 16251 net.cpp:128] Creating Layer conv2_2_1
I1206 21:25:21.515632 16251 net.cpp:558] conv2_2_1 <- conv2_2_0
I1206 21:25:21.515660 16251 net.cpp:522] conv2_2_1 -> conv2_2_1
I1206 21:25:21.517067 16251 net.cpp:172] Setting up conv2_2_1
I1206 21:25:21.517122 16251 net.cpp:186] Top shape: 32 16 32 32 (524288)
I1206 21:25:21.517143 16251 net.cpp:194] Memory required for data: 46530688
I1206 21:25:21.517170 16251 layer_factory.hpp:77] Creating layer conv2_2bn1
I1206 21:25:21.517195 16251 net.cpp:128] Creating Layer conv2_2bn1
I1206 21:25:21.517216 16251 net.cpp:558] conv2_2bn1 <- conv2_2_1
I1206 21:25:21.517242 16251 net.cpp:509] conv2_2bn1 -> conv2_2_1 (in-place)
I1206 21:25:21.517503 16251 net.cpp:172] Setting up conv2_2bn1
I1206 21:25:21.517530 16251 net.cpp:186] Top shape: 32 16 32 32 (524288)
I1206 21:25:21.517549 16251 net.cpp:194] Memory required for data: 48627840
I1206 21:25:21.517582 16251 layer_factory.hpp:77] Creating layer conv2_2_scale1
I1206 21:25:21.517606 16251 net.cpp:128] Creating Layer conv2_2_scale1
I1206 21:25:21.517627 16251 net.cpp:558] conv2_2_scale1 <- conv2_2_1
I1206 21:25:21.517648 16251 net.cpp:509] conv2_2_scale1 -> conv2_2_1 (in-place)
I1206 21:25:21.517717 16251 layer_factory.hpp:77] Creating layer conv2_2_scale1
I1206 21:25:21.517869 16251 net.cpp:172] Setting up conv2_2_scale1
I1206 21:25:21.517896 16251 net.cpp:186] Top shape: 32 16 32 32 (524288)
I1206 21:25:21.517916 16251 net.cpp:194] Memory required for data: 50724992
I1206 21:25:21.517941 16251 layer_factory.hpp:77] Creating layer conv2_Eltwise_2
I1206 21:25:21.517966 16251 net.cpp:128] Creating Layer conv2_Eltwise_2
I1206 21:25:21.517987 16251 net.cpp:558] conv2_Eltwise_2 <- conv2_Eltwise_1_conv2_1ReLU_1_0_split_1
I1206 21:25:21.518019 16251 net.cpp:558] conv2_Eltwise_2 <- conv2_2_1
I1206 21:25:21.518045 16251 net.cpp:522] conv2_Eltwise_2 -> conv2_Eltwise_2
I1206 21:25:21.518095 16251 net.cpp:172] Setting up conv2_Eltwise_2
I1206 21:25:21.518118 16251 net.cpp:186] Top shape: 32 16 32 32 (524288)
I1206 21:25:21.518137 16251 net.cpp:194] Memory required for data: 52822144
I1206 21:25:21.518158 16251 layer_factory.hpp:77] Creating layer conv2_2ReLU_1
I1206 21:25:21.518182 16251 net.cpp:128] Creating Layer conv2_2ReLU_1
I1206 21:25:21.518203 16251 net.cpp:558] conv2_2ReLU_1 <- conv2_Eltwise_2
I1206 21:25:21.518226 16251 net.cpp:509] conv2_2ReLU_1 -> conv2_Eltwise_2 (in-place)
I1206 21:25:21.518492 16251 net.cpp:172] Setting up conv2_2ReLU_1
I1206 21:25:21.518529 16251 net.cpp:186] Top shape: 32 16 32 32 (524288)
I1206 21:25:21.518550 16251 net.cpp:194] Memory required for data: 54919296
I1206 21:25:21.518571 16251 layer_factory.hpp:77] Creating layer conv2_Eltwise_2_conv2_2ReLU_1_0_split
I1206 21:25:21.518600 16251 net.cpp:128] Creating Layer conv2_Eltwise_2_conv2_2ReLU_1_0_split
I1206 21:25:21.518623 16251 net.cpp:558] conv2_Eltwise_2_conv2_2ReLU_1_0_split <- conv2_Eltwise_2
I1206 21:25:21.518649 16251 net.cpp:522] conv2_Eltwise_2_conv2_2ReLU_1_0_split -> conv2_Eltwise_2_conv2_2ReLU_1_0_split_0
I1206 21:25:21.518676 16251 net.cpp:522] conv2_Eltwise_2_conv2_2ReLU_1_0_split -> conv2_Eltwise_2_conv2_2ReLU_1_0_split_1
I1206 21:25:21.518750 16251 net.cpp:172] Setting up conv2_Eltwise_2_conv2_2ReLU_1_0_split
I1206 21:25:21.518781 16251 net.cpp:186] Top shape: 32 16 32 32 (524288)
I1206 21:25:21.518807 16251 net.cpp:186] Top shape: 32 16 32 32 (524288)
I1206 21:25:21.518831 16251 net.cpp:194] Memory required for data: 59113600
I1206 21:25:21.518854 16251 layer_factory.hpp:77] Creating layer conv2_3_0
I1206 21:25:21.518890 16251 net.cpp:128] Creating Layer conv2_3_0
I1206 21:25:21.518911 16251 net.cpp:558] conv2_3_0 <- conv2_Eltwise_2_conv2_2ReLU_1_0_split_0
I1206 21:25:21.518936 16251 net.cpp:522] conv2_3_0 -> conv2_3_0
I1206 21:25:21.521132 16251 net.cpp:172] Setting up conv2_3_0
I1206 21:25:21.521186 16251 net.cpp:186] Top shape: 32 16 32 32 (524288)
I1206 21:25:21.521206 16251 net.cpp:194] Memory required for data: 61210752
I1206 21:25:21.521234 16251 layer_factory.hpp:77] Creating layer conv2_3_bn0
I1206 21:25:21.521262 16251 net.cpp:128] Creating Layer conv2_3_bn0
I1206 21:25:21.521284 16251 net.cpp:558] conv2_3_bn0 <- conv2_3_0
I1206 21:25:21.521309 16251 net.cpp:509] conv2_3_bn0 -> conv2_3_0 (in-place)
I1206 21:25:21.521574 16251 net.cpp:172] Setting up conv2_3_bn0
I1206 21:25:21.521601 16251 net.cpp:186] Top shape: 32 16 32 32 (524288)
I1206 21:25:21.521621 16251 net.cpp:194] Memory required for data: 63307904
I1206 21:25:21.521649 16251 layer_factory.hpp:77] Creating layer conv2_3_scale0
I1206 21:25:21.521673 16251 net.cpp:128] Creating Layer conv2_3_scale0
I1206 21:25:21.521694 16251 net.cpp:558] conv2_3_scale0 <- conv2_3_0
I1206 21:25:21.521715 16251 net.cpp:509] conv2_3_scale0 -> conv2_3_0 (in-place)
I1206 21:25:21.521785 16251 layer_factory.hpp:77] Creating layer conv2_3_scale0
I1206 21:25:21.521939 16251 net.cpp:172] Setting up conv2_3_scale0
I1206 21:25:21.521965 16251 net.cpp:186] Top shape: 32 16 32 32 (524288)
I1206 21:25:21.521986 16251 net.cpp:194] Memory required for data: 65405056
I1206 21:25:21.522009 16251 layer_factory.hpp:77] Creating layer conv2_3_ReLU0
I1206 21:25:21.522032 16251 net.cpp:128] Creating Layer conv2_3_ReLU0
I1206 21:25:21.522054 16251 net.cpp:558] conv2_3_ReLU0 <- conv2_3_0
I1206 21:25:21.522076 16251 net.cpp:509] conv2_3_ReLU0 -> conv2_3_0 (in-place)
I1206 21:25:21.523260 16251 net.cpp:172] Setting up conv2_3_ReLU0
I1206 21:25:21.523315 16251 net.cpp:186] Top shape: 32 16 32 32 (524288)
I1206 21:25:21.523335 16251 net.cpp:194] Memory required for data: 67502208
I1206 21:25:21.523356 16251 layer_factory.hpp:77] Creating layer conv2_3_1
I1206 21:25:21.523387 16251 net.cpp:128] Creating Layer conv2_3_1
I1206 21:25:21.523409 16251 net.cpp:558] conv2_3_1 <- conv2_3_0
I1206 21:25:21.523435 16251 net.cpp:522] conv2_3_1 -> conv2_3_1
I1206 21:25:21.528133 16251 net.cpp:172] Setting up conv2_3_1
I1206 21:25:21.528185 16251 net.cpp:186] Top shape: 32 16 32 32 (524288)
I1206 21:25:21.528206 16251 net.cpp:194] Memory required for data: 69599360
I1206 21:25:21.528239 16251 layer_factory.hpp:77] Creating layer conv2_3bn1
I1206 21:25:21.528267 16251 net.cpp:128] Creating Layer conv2_3bn1
I1206 21:25:21.528288 16251 net.cpp:558] conv2_3bn1 <- conv2_3_1
I1206 21:25:21.528314 16251 net.cpp:509] conv2_3bn1 -> conv2_3_1 (in-place)
I1206 21:25:21.528576 16251 net.cpp:172] Setting up conv2_3bn1
I1206 21:25:21.528604 16251 net.cpp:186] Top shape: 32 16 32 32 (524288)
I1206 21:25:21.528625 16251 net.cpp:194] Memory required for data: 71696512
I1206 21:25:21.528662 16251 layer_factory.hpp:77] Creating layer conv2_3_scale1
I1206 21:25:21.528689 16251 net.cpp:128] Creating Layer conv2_3_scale1
I1206 21:25:21.528710 16251 net.cpp:558] conv2_3_scale1 <- conv2_3_1
I1206 21:25:21.528733 16251 net.cpp:509] conv2_3_scale1 -> conv2_3_1 (in-place)
I1206 21:25:21.528810 16251 layer_factory.hpp:77] Creating layer conv2_3_scale1
I1206 21:25:21.528968 16251 net.cpp:172] Setting up conv2_3_scale1
I1206 21:25:21.528995 16251 net.cpp:186] Top shape: 32 16 32 32 (524288)
I1206 21:25:21.529014 16251 net.cpp:194] Memory required for data: 73793664
I1206 21:25:21.529040 16251 layer_factory.hpp:77] Creating layer conv2_Eltwise_3
I1206 21:25:21.529063 16251 net.cpp:128] Creating Layer conv2_Eltwise_3
I1206 21:25:21.529084 16251 net.cpp:558] conv2_Eltwise_3 <- conv2_Eltwise_2_conv2_2ReLU_1_0_split_1
I1206 21:25:21.529106 16251 net.cpp:558] conv2_Eltwise_3 <- conv2_3_1
I1206 21:25:21.529131 16251 net.cpp:522] conv2_Eltwise_3 -> conv2_Eltwise_3
I1206 21:25:21.529179 16251 net.cpp:172] Setting up conv2_Eltwise_3
I1206 21:25:21.529202 16251 net.cpp:186] Top shape: 32 16 32 32 (524288)
I1206 21:25:21.529222 16251 net.cpp:194] Memory required for data: 75890816
I1206 21:25:21.529242 16251 layer_factory.hpp:77] Creating layer conv2_3ReLU_1
I1206 21:25:21.529268 16251 net.cpp:128] Creating Layer conv2_3ReLU_1
I1206 21:25:21.529289 16251 net.cpp:558] conv2_3ReLU_1 <- conv2_Eltwise_3
I1206 21:25:21.529310 16251 net.cpp:509] conv2_3ReLU_1 -> conv2_Eltwise_3 (in-place)
I1206 21:25:21.529564 16251 net.cpp:172] Setting up conv2_3ReLU_1
I1206 21:25:21.529597 16251 net.cpp:186] Top shape: 32 16 32 32 (524288)
I1206 21:25:21.529615 16251 net.cpp:194] Memory required for data: 77987968
I1206 21:25:21.529637 16251 layer_factory.hpp:77] Creating layer conv2_Eltwise_3_conv2_3ReLU_1_0_split
I1206 21:25:21.529662 16251 net.cpp:128] Creating Layer conv2_Eltwise_3_conv2_3ReLU_1_0_split
I1206 21:25:21.529683 16251 net.cpp:558] conv2_Eltwise_3_conv2_3ReLU_1_0_split <- conv2_Eltwise_3
I1206 21:25:21.529709 16251 net.cpp:522] conv2_Eltwise_3_conv2_3ReLU_1_0_split -> conv2_Eltwise_3_conv2_3ReLU_1_0_split_0
I1206 21:25:21.529736 16251 net.cpp:522] conv2_Eltwise_3_conv2_3ReLU_1_0_split -> conv2_Eltwise_3_conv2_3ReLU_1_0_split_1
I1206 21:25:21.529803 16251 net.cpp:172] Setting up conv2_Eltwise_3_conv2_3ReLU_1_0_split
I1206 21:25:21.529829 16251 net.cpp:186] Top shape: 32 16 32 32 (524288)
I1206 21:25:21.529851 16251 net.cpp:186] Top shape: 32 16 32 32 (524288)
I1206 21:25:21.529871 16251 net.cpp:194] Memory required for data: 82182272
I1206 21:25:21.529892 16251 layer_factory.hpp:77] Creating layer conv2_4_0
I1206 21:25:21.529920 16251 net.cpp:128] Creating Layer conv2_4_0
I1206 21:25:21.529942 16251 net.cpp:558] conv2_4_0 <- conv2_Eltwise_3_conv2_3ReLU_1_0_split_0
I1206 21:25:21.529965 16251 net.cpp:522] conv2_4_0 -> conv2_4_0
I1206 21:25:21.534139 16251 net.cpp:172] Setting up conv2_4_0
I1206 21:25:21.534189 16251 net.cpp:186] Top shape: 32 16 32 32 (524288)
I1206 21:25:21.534209 16251 net.cpp:194] Memory required for data: 84279424
I1206 21:25:21.534236 16251 layer_factory.hpp:77] Creating layer conv2_4_bn0
I1206 21:25:21.534263 16251 net.cpp:128] Creating Layer conv2_4_bn0
I1206 21:25:21.534284 16251 net.cpp:558] conv2_4_bn0 <- conv2_4_0
I1206 21:25:21.534309 16251 net.cpp:509] conv2_4_bn0 -> conv2_4_0 (in-place)
I1206 21:25:21.534581 16251 net.cpp:172] Setting up conv2_4_bn0
I1206 21:25:21.534608 16251 net.cpp:186] Top shape: 32 16 32 32 (524288)
I1206 21:25:21.534628 16251 net.cpp:194] Memory required for data: 86376576
I1206 21:25:21.534656 16251 layer_factory.hpp:77] Creating layer conv2_4_scale0
I1206 21:25:21.534678 16251 net.cpp:128] Creating Layer conv2_4_scale0
I1206 21:25:21.534698 16251 net.cpp:558] conv2_4_scale0 <- conv2_4_0
I1206 21:25:21.534720 16251 net.cpp:509] conv2_4_scale0 -> conv2_4_0 (in-place)
I1206 21:25:21.534787 16251 layer_factory.hpp:77] Creating layer conv2_4_scale0
I1206 21:25:21.534945 16251 net.cpp:172] Setting up conv2_4_scale0
I1206 21:25:21.534978 16251 net.cpp:186] Top shape: 32 16 32 32 (524288)
I1206 21:25:21.534998 16251 net.cpp:194] Memory required for data: 88473728
I1206 21:25:21.535024 16251 layer_factory.hpp:77] Creating layer conv2_4_ReLU0
I1206 21:25:21.535048 16251 net.cpp:128] Creating Layer conv2_4_ReLU0
I1206 21:25:21.535069 16251 net.cpp:558] conv2_4_ReLU0 <- conv2_4_0
I1206 21:25:21.535091 16251 net.cpp:509] conv2_4_ReLU0 -> conv2_4_0 (in-place)
I1206 21:25:21.535348 16251 net.cpp:172] Setting up conv2_4_ReLU0
I1206 21:25:21.535382 16251 net.cpp:186] Top shape: 32 16 32 32 (524288)
I1206 21:25:21.535401 16251 net.cpp:194] Memory required for data: 90570880
I1206 21:25:21.535423 16251 layer_factory.hpp:77] Creating layer conv2_4_1
I1206 21:25:21.535451 16251 net.cpp:128] Creating Layer conv2_4_1
I1206 21:25:21.535472 16251 net.cpp:558] conv2_4_1 <- conv2_4_0
I1206 21:25:21.535498 16251 net.cpp:522] conv2_4_1 -> conv2_4_1
I1206 21:25:21.539579 16251 net.cpp:172] Setting up conv2_4_1
I1206 21:25:21.539630 16251 net.cpp:186] Top shape: 32 16 32 32 (524288)
I1206 21:25:21.539651 16251 net.cpp:194] Memory required for data: 92668032
I1206 21:25:21.539677 16251 layer_factory.hpp:77] Creating layer conv2_4bn1
I1206 21:25:21.539705 16251 net.cpp:128] Creating Layer conv2_4bn1
I1206 21:25:21.539726 16251 net.cpp:558] conv2_4bn1 <- conv2_4_1
I1206 21:25:21.539748 16251 net.cpp:509] conv2_4bn1 -> conv2_4_1 (in-place)
I1206 21:25:21.540011 16251 net.cpp:172] Setting up conv2_4bn1
I1206 21:25:21.540036 16251 net.cpp:186] Top shape: 32 16 32 32 (524288)
I1206 21:25:21.540056 16251 net.cpp:194] Memory required for data: 94765184
I1206 21:25:21.540083 16251 layer_factory.hpp:77] Creating layer conv2_4_scale1
I1206 21:25:21.540107 16251 net.cpp:128] Creating Layer conv2_4_scale1
I1206 21:25:21.540127 16251 net.cpp:558] conv2_4_scale1 <- conv2_4_1
I1206 21:25:21.540148 16251 net.cpp:509] conv2_4_scale1 -> conv2_4_1 (in-place)
I1206 21:25:21.540216 16251 layer_factory.hpp:77] Creating layer conv2_4_scale1
I1206 21:25:21.540381 16251 net.cpp:172] Setting up conv2_4_scale1
I1206 21:25:21.540415 16251 net.cpp:186] Top shape: 32 16 32 32 (524288)
I1206 21:25:21.540434 16251 net.cpp:194] Memory required for data: 96862336
I1206 21:25:21.540459 16251 layer_factory.hpp:77] Creating layer conv2_Eltwise_4
I1206 21:25:21.540482 16251 net.cpp:128] Creating Layer conv2_Eltwise_4
I1206 21:25:21.540503 16251 net.cpp:558] conv2_Eltwise_4 <- conv2_Eltwise_3_conv2_3ReLU_1_0_split_1
I1206 21:25:21.540524 16251 net.cpp:558] conv2_Eltwise_4 <- conv2_4_1
I1206 21:25:21.540550 16251 net.cpp:522] conv2_Eltwise_4 -> conv2_Eltwise_4
I1206 21:25:21.540598 16251 net.cpp:172] Setting up conv2_Eltwise_4
I1206 21:25:21.540622 16251 net.cpp:186] Top shape: 32 16 32 32 (524288)
I1206 21:25:21.540642 16251 net.cpp:194] Memory required for data: 98959488
I1206 21:25:21.540663 16251 layer_factory.hpp:77] Creating layer conv2_4ReLU_1
I1206 21:25:21.540686 16251 net.cpp:128] Creating Layer conv2_4ReLU_1
I1206 21:25:21.540707 16251 net.cpp:558] conv2_4ReLU_1 <- conv2_Eltwise_4
I1206 21:25:21.540729 16251 net.cpp:509] conv2_4ReLU_1 -> conv2_Eltwise_4 (in-place)
I1206 21:25:21.541749 16251 net.cpp:172] Setting up conv2_4ReLU_1
I1206 21:25:21.541781 16251 net.cpp:186] Top shape: 32 16 32 32 (524288)
I1206 21:25:21.541801 16251 net.cpp:194] Memory required for data: 101056640
I1206 21:25:21.541822 16251 layer_factory.hpp:77] Creating layer conv2_Eltwise_4_conv2_4ReLU_1_0_split
I1206 21:25:21.541855 16251 net.cpp:128] Creating Layer conv2_Eltwise_4_conv2_4ReLU_1_0_split
I1206 21:25:21.541877 16251 net.cpp:558] conv2_Eltwise_4_conv2_4ReLU_1_0_split <- conv2_Eltwise_4
I1206 21:25:21.541903 16251 net.cpp:522] conv2_Eltwise_4_conv2_4ReLU_1_0_split -> conv2_Eltwise_4_conv2_4ReLU_1_0_split_0
I1206 21:25:21.541929 16251 net.cpp:522] conv2_Eltwise_4_conv2_4ReLU_1_0_split -> conv2_Eltwise_4_conv2_4ReLU_1_0_split_1
I1206 21:25:21.541997 16251 net.cpp:172] Setting up conv2_Eltwise_4_conv2_4ReLU_1_0_split
I1206 21:25:21.542024 16251 net.cpp:186] Top shape: 32 16 32 32 (524288)
I1206 21:25:21.542047 16251 net.cpp:186] Top shape: 32 16 32 32 (524288)
I1206 21:25:21.542074 16251 net.cpp:194] Memory required for data: 105250944
I1206 21:25:21.542094 16251 layer_factory.hpp:77] Creating layer conv2_5_0
I1206 21:25:21.542122 16251 net.cpp:128] Creating Layer conv2_5_0
I1206 21:25:21.542143 16251 net.cpp:558] conv2_5_0 <- conv2_Eltwise_4_conv2_4ReLU_1_0_split_0
I1206 21:25:21.542167 16251 net.cpp:522] conv2_5_0 -> conv2_5_0
I1206 21:25:21.548022 16251 net.cpp:172] Setting up conv2_5_0
I1206 21:25:21.548072 16251 net.cpp:186] Top shape: 32 16 32 32 (524288)
I1206 21:25:21.548094 16251 net.cpp:194] Memory required for data: 107348096
I1206 21:25:21.548131 16251 layer_factory.hpp:77] Creating layer conv2_5_bn0
I1206 21:25:21.548159 16251 net.cpp:128] Creating Layer conv2_5_bn0
I1206 21:25:21.548180 16251 net.cpp:558] conv2_5_bn0 <- conv2_5_0
I1206 21:25:21.548203 16251 net.cpp:509] conv2_5_bn0 -> conv2_5_0 (in-place)
I1206 21:25:21.548476 16251 net.cpp:172] Setting up conv2_5_bn0
I1206 21:25:21.548506 16251 net.cpp:186] Top shape: 32 16 32 32 (524288)
I1206 21:25:21.548526 16251 net.cpp:194] Memory required for data: 109445248
I1206 21:25:21.548552 16251 layer_factory.hpp:77] Creating layer conv2_5_scale0
I1206 21:25:21.548575 16251 net.cpp:128] Creating Layer conv2_5_scale0
I1206 21:25:21.548595 16251 net.cpp:558] conv2_5_scale0 <- conv2_5_0
I1206 21:25:21.548619 16251 net.cpp:509] conv2_5_scale0 -> conv2_5_0 (in-place)
I1206 21:25:21.548686 16251 layer_factory.hpp:77] Creating layer conv2_5_scale0
I1206 21:25:21.548840 16251 net.cpp:172] Setting up conv2_5_scale0
I1206 21:25:21.548872 16251 net.cpp:186] Top shape: 32 16 32 32 (524288)
I1206 21:25:21.548893 16251 net.cpp:194] Memory required for data: 111542400
I1206 21:25:21.548918 16251 layer_factory.hpp:77] Creating layer conv2_5_ReLU0
I1206 21:25:21.548940 16251 net.cpp:128] Creating Layer conv2_5_ReLU0
I1206 21:25:21.548960 16251 net.cpp:558] conv2_5_ReLU0 <- conv2_5_0
I1206 21:25:21.548982 16251 net.cpp:509] conv2_5_ReLU0 -> conv2_5_0 (in-place)
I1206 21:25:21.549453 16251 net.cpp:172] Setting up conv2_5_ReLU0
I1206 21:25:21.549499 16251 net.cpp:186] Top shape: 32 16 32 32 (524288)
I1206 21:25:21.549520 16251 net.cpp:194] Memory required for data: 113639552
I1206 21:25:21.549540 16251 layer_factory.hpp:77] Creating layer conv2_5_1
I1206 21:25:21.549571 16251 net.cpp:128] Creating Layer conv2_5_1
I1206 21:25:21.549593 16251 net.cpp:558] conv2_5_1 <- conv2_5_0
I1206 21:25:21.549618 16251 net.cpp:522] conv2_5_1 -> conv2_5_1
I1206 21:25:21.553097 16251 net.cpp:172] Setting up conv2_5_1
I1206 21:25:21.553148 16251 net.cpp:186] Top shape: 32 16 32 32 (524288)
I1206 21:25:21.553167 16251 net.cpp:194] Memory required for data: 115736704
I1206 21:25:21.553194 16251 layer_factory.hpp:77] Creating layer conv2_5bn1
I1206 21:25:21.553222 16251 net.cpp:128] Creating Layer conv2_5bn1
I1206 21:25:21.553242 16251 net.cpp:558] conv2_5bn1 <- conv2_5_1
I1206 21:25:21.553268 16251 net.cpp:509] conv2_5bn1 -> conv2_5_1 (in-place)
I1206 21:25:21.553534 16251 net.cpp:172] Setting up conv2_5bn1
I1206 21:25:21.553560 16251 net.cpp:186] Top shape: 32 16 32 32 (524288)
I1206 21:25:21.553581 16251 net.cpp:194] Memory required for data: 117833856
I1206 21:25:21.553607 16251 layer_factory.hpp:77] Creating layer conv2_5_scale1
I1206 21:25:21.553632 16251 net.cpp:128] Creating Layer conv2_5_scale1
I1206 21:25:21.553653 16251 net.cpp:558] conv2_5_scale1 <- conv2_5_1
I1206 21:25:21.553681 16251 net.cpp:509] conv2_5_scale1 -> conv2_5_1 (in-place)
I1206 21:25:21.553750 16251 layer_factory.hpp:77] Creating layer conv2_5_scale1
I1206 21:25:21.553911 16251 net.cpp:172] Setting up conv2_5_scale1
I1206 21:25:21.553937 16251 net.cpp:186] Top shape: 32 16 32 32 (524288)
I1206 21:25:21.553956 16251 net.cpp:194] Memory required for data: 119931008
I1206 21:25:21.553982 16251 layer_factory.hpp:77] Creating layer conv2_Eltwise_5
I1206 21:25:21.554005 16251 net.cpp:128] Creating Layer conv2_Eltwise_5
I1206 21:25:21.554026 16251 net.cpp:558] conv2_Eltwise_5 <- conv2_Eltwise_4_conv2_4ReLU_1_0_split_1
I1206 21:25:21.554057 16251 net.cpp:558] conv2_Eltwise_5 <- conv2_5_1
I1206 21:25:21.554083 16251 net.cpp:522] conv2_Eltwise_5 -> conv2_Eltwise_5
I1206 21:25:21.554133 16251 net.cpp:172] Setting up conv2_Eltwise_5
I1206 21:25:21.554157 16251 net.cpp:186] Top shape: 32 16 32 32 (524288)
I1206 21:25:21.554177 16251 net.cpp:194] Memory required for data: 122028160
I1206 21:25:21.554198 16251 layer_factory.hpp:77] Creating layer conv2_5ReLU_1
I1206 21:25:21.554219 16251 net.cpp:128] Creating Layer conv2_5ReLU_1
I1206 21:25:21.554239 16251 net.cpp:558] conv2_5ReLU_1 <- conv2_Eltwise_5
I1206 21:25:21.554262 16251 net.cpp:509] conv2_5ReLU_1 -> conv2_Eltwise_5 (in-place)
I1206 21:25:21.555266 16251 net.cpp:172] Setting up conv2_5ReLU_1
I1206 21:25:21.555299 16251 net.cpp:186] Top shape: 32 16 32 32 (524288)
I1206 21:25:21.555320 16251 net.cpp:194] Memory required for data: 124125312
I1206 21:25:21.555341 16251 layer_factory.hpp:77] Creating layer conv2_Eltwise_5_conv2_5ReLU_1_0_split
I1206 21:25:21.555364 16251 net.cpp:128] Creating Layer conv2_Eltwise_5_conv2_5ReLU_1_0_split
I1206 21:25:21.555384 16251 net.cpp:558] conv2_Eltwise_5_conv2_5ReLU_1_0_split <- conv2_Eltwise_5
I1206 21:25:21.555410 16251 net.cpp:522] conv2_Eltwise_5_conv2_5ReLU_1_0_split -> conv2_Eltwise_5_conv2_5ReLU_1_0_split_0
I1206 21:25:21.555436 16251 net.cpp:522] conv2_Eltwise_5_conv2_5ReLU_1_0_split -> conv2_Eltwise_5_conv2_5ReLU_1_0_split_1
I1206 21:25:21.555510 16251 net.cpp:172] Setting up conv2_Eltwise_5_conv2_5ReLU_1_0_split
I1206 21:25:21.555533 16251 net.cpp:186] Top shape: 32 16 32 32 (524288)
I1206 21:25:21.555555 16251 net.cpp:186] Top shape: 32 16 32 32 (524288)
I1206 21:25:21.555575 16251 net.cpp:194] Memory required for data: 128319616
I1206 21:25:21.555595 16251 layer_factory.hpp:77] Creating layer conv2_6_0
I1206 21:25:21.555626 16251 net.cpp:128] Creating Layer conv2_6_0
I1206 21:25:21.555647 16251 net.cpp:558] conv2_6_0 <- conv2_Eltwise_5_conv2_5ReLU_1_0_split_0
I1206 21:25:21.555673 16251 net.cpp:522] conv2_6_0 -> conv2_6_0
I1206 21:25:21.560201 16251 net.cpp:172] Setting up conv2_6_0
I1206 21:25:21.560261 16251 net.cpp:186] Top shape: 32 16 32 32 (524288)
I1206 21:25:21.560282 16251 net.cpp:194] Memory required for data: 130416768
I1206 21:25:21.560310 16251 layer_factory.hpp:77] Creating layer conv2_6_bn0
I1206 21:25:21.560338 16251 net.cpp:128] Creating Layer conv2_6_bn0
I1206 21:25:21.560359 16251 net.cpp:558] conv2_6_bn0 <- conv2_6_0
I1206 21:25:21.560384 16251 net.cpp:509] conv2_6_bn0 -> conv2_6_0 (in-place)
I1206 21:25:21.560655 16251 net.cpp:172] Setting up conv2_6_bn0
I1206 21:25:21.560681 16251 net.cpp:186] Top shape: 32 16 32 32 (524288)
I1206 21:25:21.560701 16251 net.cpp:194] Memory required for data: 132513920
I1206 21:25:21.560727 16251 layer_factory.hpp:77] Creating layer conv2_6_scale0
I1206 21:25:21.560752 16251 net.cpp:128] Creating Layer conv2_6_scale0
I1206 21:25:21.560773 16251 net.cpp:558] conv2_6_scale0 <- conv2_6_0
I1206 21:25:21.560796 16251 net.cpp:509] conv2_6_scale0 -> conv2_6_0 (in-place)
I1206 21:25:21.560861 16251 layer_factory.hpp:77] Creating layer conv2_6_scale0
I1206 21:25:21.561022 16251 net.cpp:172] Setting up conv2_6_scale0
I1206 21:25:21.561048 16251 net.cpp:186] Top shape: 32 16 32 32 (524288)
I1206 21:25:21.561067 16251 net.cpp:194] Memory required for data: 134611072
I1206 21:25:21.561092 16251 layer_factory.hpp:77] Creating layer conv2_6_ReLU0
I1206 21:25:21.561123 16251 net.cpp:128] Creating Layer conv2_6_ReLU0
I1206 21:25:21.561144 16251 net.cpp:558] conv2_6_ReLU0 <- conv2_6_0
I1206 21:25:21.561167 16251 net.cpp:509] conv2_6_ReLU0 -> conv2_6_0 (in-place)
I1206 21:25:21.562348 16251 net.cpp:172] Setting up conv2_6_ReLU0
I1206 21:25:21.562382 16251 net.cpp:186] Top shape: 32 16 32 32 (524288)
I1206 21:25:21.562403 16251 net.cpp:194] Memory required for data: 136708224
I1206 21:25:21.562423 16251 layer_factory.hpp:77] Creating layer conv2_6_1
I1206 21:25:21.562454 16251 net.cpp:128] Creating Layer conv2_6_1
I1206 21:25:21.562476 16251 net.cpp:558] conv2_6_1 <- conv2_6_0
I1206 21:25:21.562500 16251 net.cpp:522] conv2_6_1 -> conv2_6_1
I1206 21:25:21.567222 16251 net.cpp:172] Setting up conv2_6_1
I1206 21:25:21.567272 16251 net.cpp:186] Top shape: 32 16 32 32 (524288)
I1206 21:25:21.567292 16251 net.cpp:194] Memory required for data: 138805376
I1206 21:25:21.567319 16251 layer_factory.hpp:77] Creating layer conv2_6bn1
I1206 21:25:21.567345 16251 net.cpp:128] Creating Layer conv2_6bn1
I1206 21:25:21.567366 16251 net.cpp:558] conv2_6bn1 <- conv2_6_1
I1206 21:25:21.567389 16251 net.cpp:509] conv2_6bn1 -> conv2_6_1 (in-place)
I1206 21:25:21.567661 16251 net.cpp:172] Setting up conv2_6bn1
I1206 21:25:21.567687 16251 net.cpp:186] Top shape: 32 16 32 32 (524288)
I1206 21:25:21.567708 16251 net.cpp:194] Memory required for data: 140902528
I1206 21:25:21.567734 16251 layer_factory.hpp:77] Creating layer conv2_6_scale1
I1206 21:25:21.567760 16251 net.cpp:128] Creating Layer conv2_6_scale1
I1206 21:25:21.567781 16251 net.cpp:558] conv2_6_scale1 <- conv2_6_1
I1206 21:25:21.567804 16251 net.cpp:509] conv2_6_scale1 -> conv2_6_1 (in-place)
I1206 21:25:21.567872 16251 layer_factory.hpp:77] Creating layer conv2_6_scale1
I1206 21:25:21.568029 16251 net.cpp:172] Setting up conv2_6_scale1
I1206 21:25:21.568055 16251 net.cpp:186] Top shape: 32 16 32 32 (524288)
I1206 21:25:21.568075 16251 net.cpp:194] Memory required for data: 142999680
I1206 21:25:21.568100 16251 layer_factory.hpp:77] Creating layer conv2_Eltwise_6
I1206 21:25:21.568122 16251 net.cpp:128] Creating Layer conv2_Eltwise_6
I1206 21:25:21.568143 16251 net.cpp:558] conv2_Eltwise_6 <- conv2_Eltwise_5_conv2_5ReLU_1_0_split_1
I1206 21:25:21.568164 16251 net.cpp:558] conv2_Eltwise_6 <- conv2_6_1
I1206 21:25:21.568189 16251 net.cpp:522] conv2_Eltwise_6 -> conv2_Eltwise_6
I1206 21:25:21.568246 16251 net.cpp:172] Setting up conv2_Eltwise_6
I1206 21:25:21.568274 16251 net.cpp:186] Top shape: 32 16 32 32 (524288)
I1206 21:25:21.568295 16251 net.cpp:194] Memory required for data: 145096832
I1206 21:25:21.568315 16251 layer_factory.hpp:77] Creating layer conv2_6ReLU_1
I1206 21:25:21.568341 16251 net.cpp:128] Creating Layer conv2_6ReLU_1
I1206 21:25:21.568361 16251 net.cpp:558] conv2_6ReLU_1 <- conv2_Eltwise_6
I1206 21:25:21.568383 16251 net.cpp:509] conv2_6ReLU_1 -> conv2_Eltwise_6 (in-place)
I1206 21:25:21.568876 16251 net.cpp:172] Setting up conv2_6ReLU_1
I1206 21:25:21.568928 16251 net.cpp:186] Top shape: 32 16 32 32 (524288)
I1206 21:25:21.568948 16251 net.cpp:194] Memory required for data: 147193984
I1206 21:25:21.568970 16251 layer_factory.hpp:77] Creating layer conv2_Eltwise_6_conv2_6ReLU_1_0_split
I1206 21:25:21.568994 16251 net.cpp:128] Creating Layer conv2_Eltwise_6_conv2_6ReLU_1_0_split
I1206 21:25:21.569015 16251 net.cpp:558] conv2_Eltwise_6_conv2_6ReLU_1_0_split <- conv2_Eltwise_6
I1206 21:25:21.569041 16251 net.cpp:522] conv2_Eltwise_6_conv2_6ReLU_1_0_split -> conv2_Eltwise_6_conv2_6ReLU_1_0_split_0
I1206 21:25:21.569067 16251 net.cpp:522] conv2_Eltwise_6_conv2_6ReLU_1_0_split -> conv2_Eltwise_6_conv2_6ReLU_1_0_split_1
I1206 21:25:21.569141 16251 net.cpp:172] Setting up conv2_Eltwise_6_conv2_6ReLU_1_0_split
I1206 21:25:21.569165 16251 net.cpp:186] Top shape: 32 16 32 32 (524288)
I1206 21:25:21.569187 16251 net.cpp:186] Top shape: 32 16 32 32 (524288)
I1206 21:25:21.569207 16251 net.cpp:194] Memory required for data: 151388288
I1206 21:25:21.569226 16251 layer_factory.hpp:77] Creating layer conv2_7_0
I1206 21:25:21.569262 16251 net.cpp:128] Creating Layer conv2_7_0
I1206 21:25:21.569283 16251 net.cpp:558] conv2_7_0 <- conv2_Eltwise_6_conv2_6ReLU_1_0_split_0
I1206 21:25:21.569309 16251 net.cpp:522] conv2_7_0 -> conv2_7_0
I1206 21:25:21.573794 16251 net.cpp:172] Setting up conv2_7_0
I1206 21:25:21.573848 16251 net.cpp:186] Top shape: 32 16 32 32 (524288)
I1206 21:25:21.573868 16251 net.cpp:194] Memory required for data: 153485440
I1206 21:25:21.573894 16251 layer_factory.hpp:77] Creating layer conv2_7_bn0
I1206 21:25:21.573918 16251 net.cpp:128] Creating Layer conv2_7_bn0
I1206 21:25:21.573940 16251 net.cpp:558] conv2_7_bn0 <- conv2_7_0
I1206 21:25:21.573966 16251 net.cpp:509] conv2_7_bn0 -> conv2_7_0 (in-place)
I1206 21:25:21.574249 16251 net.cpp:172] Setting up conv2_7_bn0
I1206 21:25:21.574275 16251 net.cpp:186] Top shape: 32 16 32 32 (524288)
I1206 21:25:21.574295 16251 net.cpp:194] Memory required for data: 155582592
I1206 21:25:21.574321 16251 layer_factory.hpp:77] Creating layer conv2_7_scale0
I1206 21:25:21.574344 16251 net.cpp:128] Creating Layer conv2_7_scale0
I1206 21:25:21.574365 16251 net.cpp:558] conv2_7_scale0 <- conv2_7_0
I1206 21:25:21.574389 16251 net.cpp:509] conv2_7_scale0 -> conv2_7_0 (in-place)
I1206 21:25:21.574456 16251 layer_factory.hpp:77] Creating layer conv2_7_scale0
I1206 21:25:21.574614 16251 net.cpp:172] Setting up conv2_7_scale0
I1206 21:25:21.574641 16251 net.cpp:186] Top shape: 32 16 32 32 (524288)
I1206 21:25:21.574661 16251 net.cpp:194] Memory required for data: 157679744
I1206 21:25:21.574685 16251 layer_factory.hpp:77] Creating layer conv2_7_ReLU0
I1206 21:25:21.574708 16251 net.cpp:128] Creating Layer conv2_7_ReLU0
I1206 21:25:21.574728 16251 net.cpp:558] conv2_7_ReLU0 <- conv2_7_0
I1206 21:25:21.574749 16251 net.cpp:509] conv2_7_ReLU0 -> conv2_7_0 (in-place)
I1206 21:25:21.575003 16251 net.cpp:172] Setting up conv2_7_ReLU0
I1206 21:25:21.575038 16251 net.cpp:186] Top shape: 32 16 32 32 (524288)
I1206 21:25:21.575059 16251 net.cpp:194] Memory required for data: 159776896
I1206 21:25:21.575079 16251 layer_factory.hpp:77] Creating layer conv2_7_1
I1206 21:25:21.575109 16251 net.cpp:128] Creating Layer conv2_7_1
I1206 21:25:21.575129 16251 net.cpp:558] conv2_7_1 <- conv2_7_0
I1206 21:25:21.575153 16251 net.cpp:522] conv2_7_1 -> conv2_7_1
I1206 21:25:21.579344 16251 net.cpp:172] Setting up conv2_7_1
I1206 21:25:21.579397 16251 net.cpp:186] Top shape: 32 16 32 32 (524288)
I1206 21:25:21.579417 16251 net.cpp:194] Memory required for data: 161874048
I1206 21:25:21.579444 16251 layer_factory.hpp:77] Creating layer conv2_7bn1
I1206 21:25:21.579470 16251 net.cpp:128] Creating Layer conv2_7bn1
I1206 21:25:21.579493 16251 net.cpp:558] conv2_7bn1 <- conv2_7_1
I1206 21:25:21.579517 16251 net.cpp:509] conv2_7bn1 -> conv2_7_1 (in-place)
I1206 21:25:21.579793 16251 net.cpp:172] Setting up conv2_7bn1
I1206 21:25:21.579819 16251 net.cpp:186] Top shape: 32 16 32 32 (524288)
I1206 21:25:21.579839 16251 net.cpp:194] Memory required for data: 163971200
I1206 21:25:21.579866 16251 layer_factory.hpp:77] Creating layer conv2_7_scale1
I1206 21:25:21.579888 16251 net.cpp:128] Creating Layer conv2_7_scale1
I1206 21:25:21.579910 16251 net.cpp:558] conv2_7_scale1 <- conv2_7_1
I1206 21:25:21.579931 16251 net.cpp:509] conv2_7_scale1 -> conv2_7_1 (in-place)
I1206 21:25:21.579999 16251 layer_factory.hpp:77] Creating layer conv2_7_scale1
I1206 21:25:21.580157 16251 net.cpp:172] Setting up conv2_7_scale1
I1206 21:25:21.580183 16251 net.cpp:186] Top shape: 32 16 32 32 (524288)
I1206 21:25:21.580202 16251 net.cpp:194] Memory required for data: 166068352
I1206 21:25:21.580232 16251 layer_factory.hpp:77] Creating layer conv2_Eltwise_7
I1206 21:25:21.580260 16251 net.cpp:128] Creating Layer conv2_Eltwise_7
I1206 21:25:21.580281 16251 net.cpp:558] conv2_Eltwise_7 <- conv2_Eltwise_6_conv2_6ReLU_1_0_split_1
I1206 21:25:21.580302 16251 net.cpp:558] conv2_Eltwise_7 <- conv2_7_1
I1206 21:25:21.580324 16251 net.cpp:522] conv2_Eltwise_7 -> conv2_Eltwise_7
I1206 21:25:21.580375 16251 net.cpp:172] Setting up conv2_Eltwise_7
I1206 21:25:21.580405 16251 net.cpp:186] Top shape: 32 16 32 32 (524288)
I1206 21:25:21.580426 16251 net.cpp:194] Memory required for data: 168165504
I1206 21:25:21.580446 16251 layer_factory.hpp:77] Creating layer conv2_7ReLU_1
I1206 21:25:21.580468 16251 net.cpp:128] Creating Layer conv2_7ReLU_1
I1206 21:25:21.580488 16251 net.cpp:558] conv2_7ReLU_1 <- conv2_Eltwise_7
I1206 21:25:21.580513 16251 net.cpp:509] conv2_7ReLU_1 -> conv2_Eltwise_7 (in-place)
I1206 21:25:21.581547 16251 net.cpp:172] Setting up conv2_7ReLU_1
I1206 21:25:21.581581 16251 net.cpp:186] Top shape: 32 16 32 32 (524288)
I1206 21:25:21.581601 16251 net.cpp:194] Memory required for data: 170262656
I1206 21:25:21.581622 16251 layer_factory.hpp:77] Creating layer conv2_Eltwise_7_conv2_7ReLU_1_0_split
I1206 21:25:21.581655 16251 net.cpp:128] Creating Layer conv2_Eltwise_7_conv2_7ReLU_1_0_split
I1206 21:25:21.581676 16251 net.cpp:558] conv2_Eltwise_7_conv2_7ReLU_1_0_split <- conv2_Eltwise_7
I1206 21:25:21.581701 16251 net.cpp:522] conv2_Eltwise_7_conv2_7ReLU_1_0_split -> conv2_Eltwise_7_conv2_7ReLU_1_0_split_0
I1206 21:25:21.581727 16251 net.cpp:522] conv2_Eltwise_7_conv2_7ReLU_1_0_split -> conv2_Eltwise_7_conv2_7ReLU_1_0_split_1
I1206 21:25:21.581801 16251 net.cpp:172] Setting up conv2_Eltwise_7_conv2_7ReLU_1_0_split
I1206 21:25:21.581826 16251 net.cpp:186] Top shape: 32 16 32 32 (524288)
I1206 21:25:21.581849 16251 net.cpp:186] Top shape: 32 16 32 32 (524288)
I1206 21:25:21.581869 16251 net.cpp:194] Memory required for data: 174456960
I1206 21:25:21.581889 16251 layer_factory.hpp:77] Creating layer conv2_8_0
I1206 21:25:21.581918 16251 net.cpp:128] Creating Layer conv2_8_0
I1206 21:25:21.581938 16251 net.cpp:558] conv2_8_0 <- conv2_Eltwise_7_conv2_7ReLU_1_0_split_0
I1206 21:25:21.581965 16251 net.cpp:522] conv2_8_0 -> conv2_8_0
I1206 21:25:21.587849 16251 net.cpp:172] Setting up conv2_8_0
I1206 21:25:21.587903 16251 net.cpp:186] Top shape: 32 16 32 32 (524288)
I1206 21:25:21.587924 16251 net.cpp:194] Memory required for data: 176554112
I1206 21:25:21.587950 16251 layer_factory.hpp:77] Creating layer conv2_8_bn0
I1206 21:25:21.587980 16251 net.cpp:128] Creating Layer conv2_8_bn0
I1206 21:25:21.588001 16251 net.cpp:558] conv2_8_bn0 <- conv2_8_0
I1206 21:25:21.588023 16251 net.cpp:509] conv2_8_bn0 -> conv2_8_0 (in-place)
I1206 21:25:21.588308 16251 net.cpp:172] Setting up conv2_8_bn0
I1206 21:25:21.588337 16251 net.cpp:186] Top shape: 32 16 32 32 (524288)
I1206 21:25:21.588357 16251 net.cpp:194] Memory required for data: 178651264
I1206 21:25:21.588383 16251 layer_factory.hpp:77] Creating layer conv2_8_scale0
I1206 21:25:21.588407 16251 net.cpp:128] Creating Layer conv2_8_scale0
I1206 21:25:21.588426 16251 net.cpp:558] conv2_8_scale0 <- conv2_8_0
I1206 21:25:21.588449 16251 net.cpp:509] conv2_8_scale0 -> conv2_8_0 (in-place)
I1206 21:25:21.588521 16251 layer_factory.hpp:77] Creating layer conv2_8_scale0
I1206 21:25:21.588681 16251 net.cpp:172] Setting up conv2_8_scale0
I1206 21:25:21.588708 16251 net.cpp:186] Top shape: 32 16 32 32 (524288)
I1206 21:25:21.588728 16251 net.cpp:194] Memory required for data: 180748416
I1206 21:25:21.588753 16251 layer_factory.hpp:77] Creating layer conv2_8_ReLU0
I1206 21:25:21.588778 16251 net.cpp:128] Creating Layer conv2_8_ReLU0
I1206 21:25:21.588799 16251 net.cpp:558] conv2_8_ReLU0 <- conv2_8_0
I1206 21:25:21.588824 16251 net.cpp:509] conv2_8_ReLU0 -> conv2_8_0 (in-place)
I1206 21:25:21.589280 16251 net.cpp:172] Setting up conv2_8_ReLU0
I1206 21:25:21.589329 16251 net.cpp:186] Top shape: 32 16 32 32 (524288)
I1206 21:25:21.589349 16251 net.cpp:194] Memory required for data: 182845568
I1206 21:25:21.589370 16251 layer_factory.hpp:77] Creating layer conv2_8_1
I1206 21:25:21.589402 16251 net.cpp:128] Creating Layer conv2_8_1
I1206 21:25:21.589423 16251 net.cpp:558] conv2_8_1 <- conv2_8_0
I1206 21:25:21.589449 16251 net.cpp:522] conv2_8_1 -> conv2_8_1
I1206 21:25:21.590831 16251 net.cpp:172] Setting up conv2_8_1
I1206 21:25:21.590893 16251 net.cpp:186] Top shape: 32 16 32 32 (524288)
I1206 21:25:21.590916 16251 net.cpp:194] Memory required for data: 184942720
I1206 21:25:21.590960 16251 layer_factory.hpp:77] Creating layer conv2_8bn1
I1206 21:25:21.590996 16251 net.cpp:128] Creating Layer conv2_8bn1
I1206 21:25:21.591018 16251 net.cpp:558] conv2_8bn1 <- conv2_8_1
I1206 21:25:21.591048 16251 net.cpp:509] conv2_8bn1 -> conv2_8_1 (in-place)
I1206 21:25:21.591339 16251 net.cpp:172] Setting up conv2_8bn1
I1206 21:25:21.591367 16251 net.cpp:186] Top shape: 32 16 32 32 (524288)
I1206 21:25:21.591387 16251 net.cpp:194] Memory required for data: 187039872
I1206 21:25:21.591415 16251 layer_factory.hpp:77] Creating layer conv2_8_scale1
I1206 21:25:21.591440 16251 net.cpp:128] Creating Layer conv2_8_scale1
I1206 21:25:21.591461 16251 net.cpp:558] conv2_8_scale1 <- conv2_8_1
I1206 21:25:21.591495 16251 net.cpp:509] conv2_8_scale1 -> conv2_8_1 (in-place)
I1206 21:25:21.591578 16251 layer_factory.hpp:77] Creating layer conv2_8_scale1
I1206 21:25:21.591748 16251 net.cpp:172] Setting up conv2_8_scale1
I1206 21:25:21.591775 16251 net.cpp:186] Top shape: 32 16 32 32 (524288)
I1206 21:25:21.591795 16251 net.cpp:194] Memory required for data: 189137024
I1206 21:25:21.591820 16251 layer_factory.hpp:77] Creating layer conv2_Eltwise_8
I1206 21:25:21.591847 16251 net.cpp:128] Creating Layer conv2_Eltwise_8
I1206 21:25:21.591868 16251 net.cpp:558] conv2_Eltwise_8 <- conv2_Eltwise_7_conv2_7ReLU_1_0_split_1
I1206 21:25:21.591890 16251 net.cpp:558] conv2_Eltwise_8 <- conv2_8_1
I1206 21:25:21.591913 16251 net.cpp:522] conv2_Eltwise_8 -> conv2_Eltwise_8
I1206 21:25:21.591965 16251 net.cpp:172] Setting up conv2_Eltwise_8
I1206 21:25:21.591989 16251 net.cpp:186] Top shape: 32 16 32 32 (524288)
I1206 21:25:21.592008 16251 net.cpp:194] Memory required for data: 191234176
I1206 21:25:21.592028 16251 layer_factory.hpp:77] Creating layer conv2_8ReLU_1
I1206 21:25:21.592051 16251 net.cpp:128] Creating Layer conv2_8ReLU_1
I1206 21:25:21.592072 16251 net.cpp:558] conv2_8ReLU_1 <- conv2_Eltwise_8
I1206 21:25:21.592095 16251 net.cpp:509] conv2_8ReLU_1 -> conv2_Eltwise_8 (in-place)
I1206 21:25:21.592360 16251 net.cpp:172] Setting up conv2_8ReLU_1
I1206 21:25:21.592397 16251 net.cpp:186] Top shape: 32 16 32 32 (524288)
I1206 21:25:21.592417 16251 net.cpp:194] Memory required for data: 193331328
I1206 21:25:21.592438 16251 layer_factory.hpp:77] Creating layer conv2_Eltwise_8_conv2_8ReLU_1_0_split
I1206 21:25:21.592463 16251 net.cpp:128] Creating Layer conv2_Eltwise_8_conv2_8ReLU_1_0_split
I1206 21:25:21.592483 16251 net.cpp:558] conv2_Eltwise_8_conv2_8ReLU_1_0_split <- conv2_Eltwise_8
I1206 21:25:21.592509 16251 net.cpp:522] conv2_Eltwise_8_conv2_8ReLU_1_0_split -> conv2_Eltwise_8_conv2_8ReLU_1_0_split_0
I1206 21:25:21.592535 16251 net.cpp:522] conv2_Eltwise_8_conv2_8ReLU_1_0_split -> conv2_Eltwise_8_conv2_8ReLU_1_0_split_1
I1206 21:25:21.592608 16251 net.cpp:172] Setting up conv2_Eltwise_8_conv2_8ReLU_1_0_split
I1206 21:25:21.592633 16251 net.cpp:186] Top shape: 32 16 32 32 (524288)
I1206 21:25:21.592654 16251 net.cpp:186] Top shape: 32 16 32 32 (524288)
I1206 21:25:21.592674 16251 net.cpp:194] Memory required for data: 197525632
I1206 21:25:21.592694 16251 layer_factory.hpp:77] Creating layer conv2_9_0
I1206 21:25:21.592723 16251 net.cpp:128] Creating Layer conv2_9_0
I1206 21:25:21.592744 16251 net.cpp:558] conv2_9_0 <- conv2_Eltwise_8_conv2_8ReLU_1_0_split_0
I1206 21:25:21.592770 16251 net.cpp:522] conv2_9_0 -> conv2_9_0
I1206 21:25:21.594090 16251 net.cpp:172] Setting up conv2_9_0
I1206 21:25:21.594143 16251 net.cpp:186] Top shape: 32 16 32 32 (524288)
I1206 21:25:21.594164 16251 net.cpp:194] Memory required for data: 199622784
I1206 21:25:21.594192 16251 layer_factory.hpp:77] Creating layer conv2_9_bn0
I1206 21:25:21.594216 16251 net.cpp:128] Creating Layer conv2_9_bn0
I1206 21:25:21.594238 16251 net.cpp:558] conv2_9_bn0 <- conv2_9_0
I1206 21:25:21.594264 16251 net.cpp:509] conv2_9_bn0 -> conv2_9_0 (in-place)
I1206 21:25:21.594538 16251 net.cpp:172] Setting up conv2_9_bn0
I1206 21:25:21.594565 16251 net.cpp:186] Top shape: 32 16 32 32 (524288)
I1206 21:25:21.594584 16251 net.cpp:194] Memory required for data: 201719936
I1206 21:25:21.594624 16251 layer_factory.hpp:77] Creating layer conv2_9_scale0
I1206 21:25:21.594646 16251 net.cpp:128] Creating Layer conv2_9_scale0
I1206 21:25:21.594666 16251 net.cpp:558] conv2_9_scale0 <- conv2_9_0
I1206 21:25:21.594691 16251 net.cpp:509] conv2_9_scale0 -> conv2_9_0 (in-place)
I1206 21:25:21.594759 16251 layer_factory.hpp:77] Creating layer conv2_9_scale0
I1206 21:25:21.594921 16251 net.cpp:172] Setting up conv2_9_scale0
I1206 21:25:21.594951 16251 net.cpp:186] Top shape: 32 16 32 32 (524288)
I1206 21:25:21.594971 16251 net.cpp:194] Memory required for data: 203817088
I1206 21:25:21.594997 16251 layer_factory.hpp:77] Creating layer conv2_9_ReLU0
I1206 21:25:21.595028 16251 net.cpp:128] Creating Layer conv2_9_ReLU0
I1206 21:25:21.595049 16251 net.cpp:558] conv2_9_ReLU0 <- conv2_9_0
I1206 21:25:21.595072 16251 net.cpp:509] conv2_9_ReLU0 -> conv2_9_0 (in-place)
I1206 21:25:21.595333 16251 net.cpp:172] Setting up conv2_9_ReLU0
I1206 21:25:21.595371 16251 net.cpp:186] Top shape: 32 16 32 32 (524288)
I1206 21:25:21.595391 16251 net.cpp:194] Memory required for data: 205914240
I1206 21:25:21.595412 16251 layer_factory.hpp:77] Creating layer conv2_9_1
I1206 21:25:21.595440 16251 net.cpp:128] Creating Layer conv2_9_1
I1206 21:25:21.595463 16251 net.cpp:558] conv2_9_1 <- conv2_9_0
I1206 21:25:21.595486 16251 net.cpp:522] conv2_9_1 -> conv2_9_1
I1206 21:25:21.596832 16251 net.cpp:172] Setting up conv2_9_1
I1206 21:25:21.596881 16251 net.cpp:186] Top shape: 32 16 32 32 (524288)
I1206 21:25:21.596902 16251 net.cpp:194] Memory required for data: 208011392
I1206 21:25:21.596930 16251 layer_factory.hpp:77] Creating layer conv2_9bn1
I1206 21:25:21.596957 16251 net.cpp:128] Creating Layer conv2_9bn1
I1206 21:25:21.596978 16251 net.cpp:558] conv2_9bn1 <- conv2_9_1
I1206 21:25:21.597005 16251 net.cpp:509] conv2_9bn1 -> conv2_9_1 (in-place)
I1206 21:25:21.597290 16251 net.cpp:172] Setting up conv2_9bn1
I1206 21:25:21.597317 16251 net.cpp:186] Top shape: 32 16 32 32 (524288)
I1206 21:25:21.597337 16251 net.cpp:194] Memory required for data: 210108544
I1206 21:25:21.597375 16251 layer_factory.hpp:77] Creating layer conv2_9_scale1
I1206 21:25:21.597401 16251 net.cpp:128] Creating Layer conv2_9_scale1
I1206 21:25:21.597422 16251 net.cpp:558] conv2_9_scale1 <- conv2_9_1
I1206 21:25:21.597445 16251 net.cpp:509] conv2_9_scale1 -> conv2_9_1 (in-place)
I1206 21:25:21.597515 16251 layer_factory.hpp:77] Creating layer conv2_9_scale1
I1206 21:25:21.597681 16251 net.cpp:172] Setting up conv2_9_scale1
I1206 21:25:21.597707 16251 net.cpp:186] Top shape: 32 16 32 32 (524288)
I1206 21:25:21.597728 16251 net.cpp:194] Memory required for data: 212205696
I1206 21:25:21.597754 16251 layer_factory.hpp:77] Creating layer conv2_Eltwise_9
I1206 21:25:21.597777 16251 net.cpp:128] Creating Layer conv2_Eltwise_9
I1206 21:25:21.597800 16251 net.cpp:558] conv2_Eltwise_9 <- conv2_Eltwise_8_conv2_8ReLU_1_0_split_1
I1206 21:25:21.597821 16251 net.cpp:558] conv2_Eltwise_9 <- conv2_9_1
I1206 21:25:21.597847 16251 net.cpp:522] conv2_Eltwise_9 -> conv2_Eltwise_9
I1206 21:25:21.597898 16251 net.cpp:172] Setting up conv2_Eltwise_9
I1206 21:25:21.597923 16251 net.cpp:186] Top shape: 32 16 32 32 (524288)
I1206 21:25:21.597942 16251 net.cpp:194] Memory required for data: 214302848
I1206 21:25:21.597962 16251 layer_factory.hpp:77] Creating layer conv2_9ReLU_1
I1206 21:25:21.597985 16251 net.cpp:128] Creating Layer conv2_9ReLU_1
I1206 21:25:21.598006 16251 net.cpp:558] conv2_9ReLU_1 <- conv2_Eltwise_9
I1206 21:25:21.598032 16251 net.cpp:509] conv2_9ReLU_1 -> conv2_Eltwise_9 (in-place)
I1206 21:25:21.598284 16251 net.cpp:172] Setting up conv2_9ReLU_1
I1206 21:25:21.598316 16251 net.cpp:186] Top shape: 32 16 32 32 (524288)
I1206 21:25:21.598336 16251 net.cpp:194] Memory required for data: 216400000
I1206 21:25:21.598357 16251 layer_factory.hpp:77] Creating layer conv2_Eltwise_9_conv2_9ReLU_1_0_split
I1206 21:25:21.598381 16251 net.cpp:128] Creating Layer conv2_Eltwise_9_conv2_9ReLU_1_0_split
I1206 21:25:21.598402 16251 net.cpp:558] conv2_Eltwise_9_conv2_9ReLU_1_0_split <- conv2_Eltwise_9
I1206 21:25:21.598433 16251 net.cpp:522] conv2_Eltwise_9_conv2_9ReLU_1_0_split -> conv2_Eltwise_9_conv2_9ReLU_1_0_split_0
I1206 21:25:21.598460 16251 net.cpp:522] conv2_Eltwise_9_conv2_9ReLU_1_0_split -> conv2_Eltwise_9_conv2_9ReLU_1_0_split_1
I1206 21:25:21.598536 16251 net.cpp:172] Setting up conv2_Eltwise_9_conv2_9ReLU_1_0_split
I1206 21:25:21.598561 16251 net.cpp:186] Top shape: 32 16 32 32 (524288)
I1206 21:25:21.598583 16251 net.cpp:186] Top shape: 32 16 32 32 (524288)
I1206 21:25:21.598603 16251 net.cpp:194] Memory required for data: 220594304
I1206 21:25:21.598623 16251 layer_factory.hpp:77] Creating layer conv2_10_0
I1206 21:25:21.598661 16251 net.cpp:128] Creating Layer conv2_10_0
I1206 21:25:21.598682 16251 net.cpp:558] conv2_10_0 <- conv2_Eltwise_9_conv2_9ReLU_1_0_split_0
I1206 21:25:21.598709 16251 net.cpp:522] conv2_10_0 -> conv2_10_0
I1206 21:25:21.600031 16251 net.cpp:172] Setting up conv2_10_0
I1206 21:25:21.600082 16251 net.cpp:186] Top shape: 32 16 32 32 (524288)
I1206 21:25:21.600103 16251 net.cpp:194] Memory required for data: 222691456
I1206 21:25:21.600131 16251 layer_factory.hpp:77] Creating layer conv2_10_bn0
I1206 21:25:21.600159 16251 net.cpp:128] Creating Layer conv2_10_bn0
I1206 21:25:21.600181 16251 net.cpp:558] conv2_10_bn0 <- conv2_10_0
I1206 21:25:21.600206 16251 net.cpp:509] conv2_10_bn0 -> conv2_10_0 (in-place)
I1206 21:25:21.600491 16251 net.cpp:172] Setting up conv2_10_bn0
I1206 21:25:21.600520 16251 net.cpp:186] Top shape: 32 16 32 32 (524288)
I1206 21:25:21.600540 16251 net.cpp:194] Memory required for data: 224788608
I1206 21:25:21.600567 16251 layer_factory.hpp:77] Creating layer conv2_10_scale0
I1206 21:25:21.600594 16251 net.cpp:128] Creating Layer conv2_10_scale0
I1206 21:25:21.600615 16251 net.cpp:558] conv2_10_scale0 <- conv2_10_0
I1206 21:25:21.600637 16251 net.cpp:509] conv2_10_scale0 -> conv2_10_0 (in-place)
I1206 21:25:21.600706 16251 layer_factory.hpp:77] Creating layer conv2_10_scale0
I1206 21:25:21.600872 16251 net.cpp:172] Setting up conv2_10_scale0
I1206 21:25:21.600898 16251 net.cpp:186] Top shape: 32 16 32 32 (524288)
I1206 21:25:21.600919 16251 net.cpp:194] Memory required for data: 226885760
I1206 21:25:21.600944 16251 layer_factory.hpp:77] Creating layer conv2_10_ReLU0
I1206 21:25:21.600968 16251 net.cpp:128] Creating Layer conv2_10_ReLU0
I1206 21:25:21.600989 16251 net.cpp:558] conv2_10_ReLU0 <- conv2_10_0
I1206 21:25:21.601011 16251 net.cpp:509] conv2_10_ReLU0 -> conv2_10_0 (in-place)
I1206 21:25:21.601487 16251 net.cpp:172] Setting up conv2_10_ReLU0
I1206 21:25:21.601536 16251 net.cpp:186] Top shape: 32 16 32 32 (524288)
I1206 21:25:21.601555 16251 net.cpp:194] Memory required for data: 228982912
I1206 21:25:21.601577 16251 layer_factory.hpp:77] Creating layer conv2_10_1
I1206 21:25:21.601608 16251 net.cpp:128] Creating Layer conv2_10_1
I1206 21:25:21.601629 16251 net.cpp:558] conv2_10_1 <- conv2_10_0
I1206 21:25:21.601655 16251 net.cpp:522] conv2_10_1 -> conv2_10_1
I1206 21:25:21.602990 16251 net.cpp:172] Setting up conv2_10_1
I1206 21:25:21.603040 16251 net.cpp:186] Top shape: 32 16 32 32 (524288)
I1206 21:25:21.603060 16251 net.cpp:194] Memory required for data: 231080064
I1206 21:25:21.603087 16251 layer_factory.hpp:77] Creating layer conv2_10bn1
I1206 21:25:21.603114 16251 net.cpp:128] Creating Layer conv2_10bn1
I1206 21:25:21.603137 16251 net.cpp:558] conv2_10bn1 <- conv2_10_1
I1206 21:25:21.603159 16251 net.cpp:509] conv2_10bn1 -> conv2_10_1 (in-place)
I1206 21:25:21.603437 16251 net.cpp:172] Setting up conv2_10bn1
I1206 21:25:21.603466 16251 net.cpp:186] Top shape: 32 16 32 32 (524288)
I1206 21:25:21.603484 16251 net.cpp:194] Memory required for data: 233177216
I1206 21:25:21.603512 16251 layer_factory.hpp:77] Creating layer conv2_10_scale1
I1206 21:25:21.603534 16251 net.cpp:128] Creating Layer conv2_10_scale1
I1206 21:25:21.603554 16251 net.cpp:558] conv2_10_scale1 <- conv2_10_1
I1206 21:25:21.603579 16251 net.cpp:509] conv2_10_scale1 -> conv2_10_1 (in-place)
I1206 21:25:21.603649 16251 layer_factory.hpp:77] Creating layer conv2_10_scale1
I1206 21:25:21.603824 16251 net.cpp:172] Setting up conv2_10_scale1
I1206 21:25:21.603852 16251 net.cpp:186] Top shape: 32 16 32 32 (524288)
I1206 21:25:21.603871 16251 net.cpp:194] Memory required for data: 235274368
I1206 21:25:21.603896 16251 layer_factory.hpp:77] Creating layer conv2_Eltwise_10
I1206 21:25:21.603920 16251 net.cpp:128] Creating Layer conv2_Eltwise_10
I1206 21:25:21.603941 16251 net.cpp:558] conv2_Eltwise_10 <- conv2_Eltwise_9_conv2_9ReLU_1_0_split_1
I1206 21:25:21.603965 16251 net.cpp:558] conv2_Eltwise_10 <- conv2_10_1
I1206 21:25:21.603989 16251 net.cpp:522] conv2_Eltwise_10 -> conv2_Eltwise_10
I1206 21:25:21.604041 16251 net.cpp:172] Setting up conv2_Eltwise_10
I1206 21:25:21.604074 16251 net.cpp:186] Top shape: 32 16 32 32 (524288)
I1206 21:25:21.604094 16251 net.cpp:194] Memory required for data: 237371520
I1206 21:25:21.604113 16251 layer_factory.hpp:77] Creating layer conv2_10ReLU_1
I1206 21:25:21.604135 16251 net.cpp:128] Creating Layer conv2_10ReLU_1
I1206 21:25:21.604156 16251 net.cpp:558] conv2_10ReLU_1 <- conv2_Eltwise_10
I1206 21:25:21.604179 16251 net.cpp:509] conv2_10ReLU_1 -> conv2_Eltwise_10 (in-place)
I1206 21:25:21.604900 16251 net.cpp:172] Setting up conv2_10ReLU_1
I1206 21:25:21.604943 16251 net.cpp:186] Top shape: 32 16 32 32 (524288)
I1206 21:25:21.604964 16251 net.cpp:194] Memory required for data: 239468672
I1206 21:25:21.604985 16251 layer_factory.hpp:77] Creating layer conv2_Eltwise_10_conv2_10ReLU_1_0_split
I1206 21:25:21.605010 16251 net.cpp:128] Creating Layer conv2_Eltwise_10_conv2_10ReLU_1_0_split
I1206 21:25:21.605031 16251 net.cpp:558] conv2_Eltwise_10_conv2_10ReLU_1_0_split <- conv2_Eltwise_10
I1206 21:25:21.605057 16251 net.cpp:522] conv2_Eltwise_10_conv2_10ReLU_1_0_split -> conv2_Eltwise_10_conv2_10ReLU_1_0_split_0
I1206 21:25:21.605083 16251 net.cpp:522] conv2_Eltwise_10_conv2_10ReLU_1_0_split -> conv2_Eltwise_10_conv2_10ReLU_1_0_split_1
I1206 21:25:21.605161 16251 net.cpp:172] Setting up conv2_Eltwise_10_conv2_10ReLU_1_0_split
I1206 21:25:21.605186 16251 net.cpp:186] Top shape: 32 16 32 32 (524288)
I1206 21:25:21.605208 16251 net.cpp:186] Top shape: 32 16 32 32 (524288)
I1206 21:25:21.605228 16251 net.cpp:194] Memory required for data: 243662976
I1206 21:25:21.605249 16251 layer_factory.hpp:77] Creating layer conv2_11_0
I1206 21:25:21.605279 16251 net.cpp:128] Creating Layer conv2_11_0
I1206 21:25:21.605300 16251 net.cpp:558] conv2_11_0 <- conv2_Eltwise_10_conv2_10ReLU_1_0_split_0
I1206 21:25:21.605329 16251 net.cpp:522] conv2_11_0 -> conv2_11_0
I1206 21:25:21.610152 16251 net.cpp:172] Setting up conv2_11_0
I1206 21:25:21.610206 16251 net.cpp:186] Top shape: 32 16 32 32 (524288)
I1206 21:25:21.610227 16251 net.cpp:194] Memory required for data: 245760128
I1206 21:25:21.610255 16251 layer_factory.hpp:77] Creating layer conv2_11_bn0
I1206 21:25:21.610280 16251 net.cpp:128] Creating Layer conv2_11_bn0
I1206 21:25:21.610301 16251 net.cpp:558] conv2_11_bn0 <- conv2_11_0
I1206 21:25:21.610325 16251 net.cpp:509] conv2_11_bn0 -> conv2_11_0 (in-place)
I1206 21:25:21.610611 16251 net.cpp:172] Setting up conv2_11_bn0
I1206 21:25:21.610638 16251 net.cpp:186] Top shape: 32 16 32 32 (524288)
I1206 21:25:21.610657 16251 net.cpp:194] Memory required for data: 247857280
I1206 21:25:21.610687 16251 layer_factory.hpp:77] Creating layer conv2_11_scale0
I1206 21:25:21.610708 16251 net.cpp:128] Creating Layer conv2_11_scale0
I1206 21:25:21.610729 16251 net.cpp:558] conv2_11_scale0 <- conv2_11_0
I1206 21:25:21.610754 16251 net.cpp:509] conv2_11_scale0 -> conv2_11_0 (in-place)
I1206 21:25:21.610822 16251 layer_factory.hpp:77] Creating layer conv2_11_scale0
I1206 21:25:21.610987 16251 net.cpp:172] Setting up conv2_11_scale0
I1206 21:25:21.611016 16251 net.cpp:186] Top shape: 32 16 32 32 (524288)
I1206 21:25:21.611035 16251 net.cpp:194] Memory required for data: 249954432
I1206 21:25:21.611061 16251 layer_factory.hpp:77] Creating layer conv2_11_ReLU0
I1206 21:25:21.611083 16251 net.cpp:128] Creating Layer conv2_11_ReLU0
I1206 21:25:21.611104 16251 net.cpp:558] conv2_11_ReLU0 <- conv2_11_0
I1206 21:25:21.611131 16251 net.cpp:509] conv2_11_ReLU0 -> conv2_11_0 (in-place)
I1206 21:25:21.612290 16251 net.cpp:172] Setting up conv2_11_ReLU0
I1206 21:25:21.612329 16251 net.cpp:186] Top shape: 32 16 32 32 (524288)
I1206 21:25:21.612349 16251 net.cpp:194] Memory required for data: 252051584
I1206 21:25:21.612370 16251 layer_factory.hpp:77] Creating layer conv2_11_1
I1206 21:25:21.612399 16251 net.cpp:128] Creating Layer conv2_11_1
I1206 21:25:21.612421 16251 net.cpp:558] conv2_11_1 <- conv2_11_0
I1206 21:25:21.612444 16251 net.cpp:522] conv2_11_1 -> conv2_11_1
I1206 21:25:21.617524 16251 net.cpp:172] Setting up conv2_11_1
I1206 21:25:21.617574 16251 net.cpp:186] Top shape: 32 16 32 32 (524288)
I1206 21:25:21.617605 16251 net.cpp:194] Memory required for data: 254148736
I1206 21:25:21.617633 16251 layer_factory.hpp:77] Creating layer conv2_11bn1
I1206 21:25:21.617660 16251 net.cpp:128] Creating Layer conv2_11bn1
I1206 21:25:21.617681 16251 net.cpp:558] conv2_11bn1 <- conv2_11_1
I1206 21:25:21.617707 16251 net.cpp:509] conv2_11bn1 -> conv2_11_1 (in-place)
I1206 21:25:21.618010 16251 net.cpp:172] Setting up conv2_11bn1
I1206 21:25:21.618038 16251 net.cpp:186] Top shape: 32 16 32 32 (524288)
I1206 21:25:21.618059 16251 net.cpp:194] Memory required for data: 256245888
I1206 21:25:21.618088 16251 layer_factory.hpp:77] Creating layer conv2_11_scale1
I1206 21:25:21.618115 16251 net.cpp:128] Creating Layer conv2_11_scale1
I1206 21:25:21.618137 16251 net.cpp:558] conv2_11_scale1 <- conv2_11_1
I1206 21:25:21.618160 16251 net.cpp:509] conv2_11_scale1 -> conv2_11_1 (in-place)
I1206 21:25:21.618233 16251 layer_factory.hpp:77] Creating layer conv2_11_scale1
I1206 21:25:21.618404 16251 net.cpp:172] Setting up conv2_11_scale1
I1206 21:25:21.618429 16251 net.cpp:186] Top shape: 32 16 32 32 (524288)
I1206 21:25:21.618450 16251 net.cpp:194] Memory required for data: 258343040
I1206 21:25:21.618476 16251 layer_factory.hpp:77] Creating layer conv2_Eltwise_11
I1206 21:25:21.618502 16251 net.cpp:128] Creating Layer conv2_Eltwise_11
I1206 21:25:21.618523 16251 net.cpp:558] conv2_Eltwise_11 <- conv2_Eltwise_10_conv2_10ReLU_1_0_split_1
I1206 21:25:21.618546 16251 net.cpp:558] conv2_Eltwise_11 <- conv2_11_1
I1206 21:25:21.618568 16251 net.cpp:522] conv2_Eltwise_11 -> conv2_Eltwise_11
I1206 21:25:21.618619 16251 net.cpp:172] Setting up conv2_Eltwise_11
I1206 21:25:21.618643 16251 net.cpp:186] Top shape: 32 16 32 32 (524288)
I1206 21:25:21.618664 16251 net.cpp:194] Memory required for data: 260440192
I1206 21:25:21.618683 16251 layer_factory.hpp:77] Creating layer conv2_11ReLU_1
I1206 21:25:21.618705 16251 net.cpp:128] Creating Layer conv2_11ReLU_1
I1206 21:25:21.618726 16251 net.cpp:558] conv2_11ReLU_1 <- conv2_Eltwise_11
I1206 21:25:21.618751 16251 net.cpp:509] conv2_11ReLU_1 -> conv2_Eltwise_11 (in-place)
I1206 21:25:21.619475 16251 net.cpp:172] Setting up conv2_11ReLU_1
I1206 21:25:21.619523 16251 net.cpp:186] Top shape: 32 16 32 32 (524288)
I1206 21:25:21.619542 16251 net.cpp:194] Memory required for data: 262537344
I1206 21:25:21.619563 16251 layer_factory.hpp:77] Creating layer conv2_Eltwise_11_conv2_11ReLU_1_0_split
I1206 21:25:21.619590 16251 net.cpp:128] Creating Layer conv2_Eltwise_11_conv2_11ReLU_1_0_split
I1206 21:25:21.619611 16251 net.cpp:558] conv2_Eltwise_11_conv2_11ReLU_1_0_split <- conv2_Eltwise_11
I1206 21:25:21.619635 16251 net.cpp:522] conv2_Eltwise_11_conv2_11ReLU_1_0_split -> conv2_Eltwise_11_conv2_11ReLU_1_0_split_0
I1206 21:25:21.619663 16251 net.cpp:522] conv2_Eltwise_11_conv2_11ReLU_1_0_split -> conv2_Eltwise_11_conv2_11ReLU_1_0_split_1
I1206 21:25:21.619741 16251 net.cpp:172] Setting up conv2_Eltwise_11_conv2_11ReLU_1_0_split
I1206 21:25:21.619765 16251 net.cpp:186] Top shape: 32 16 32 32 (524288)
I1206 21:25:21.619787 16251 net.cpp:186] Top shape: 32 16 32 32 (524288)
I1206 21:25:21.619807 16251 net.cpp:194] Memory required for data: 266731648
I1206 21:25:21.619827 16251 layer_factory.hpp:77] Creating layer conv2_12_0
I1206 21:25:21.619854 16251 net.cpp:128] Creating Layer conv2_12_0
I1206 21:25:21.619882 16251 net.cpp:558] conv2_12_0 <- conv2_Eltwise_11_conv2_11ReLU_1_0_split_0
I1206 21:25:21.619909 16251 net.cpp:522] conv2_12_0 -> conv2_12_0
I1206 21:25:21.624619 16251 net.cpp:172] Setting up conv2_12_0
I1206 21:25:21.624672 16251 net.cpp:186] Top shape: 32 16 32 32 (524288)
I1206 21:25:21.624692 16251 net.cpp:194] Memory required for data: 268828800
I1206 21:25:21.624719 16251 layer_factory.hpp:77] Creating layer conv2_12_bn0
I1206 21:25:21.624747 16251 net.cpp:128] Creating Layer conv2_12_bn0
I1206 21:25:21.624768 16251 net.cpp:558] conv2_12_bn0 <- conv2_12_0
I1206 21:25:21.624791 16251 net.cpp:509] conv2_12_bn0 -> conv2_12_0 (in-place)
I1206 21:25:21.625082 16251 net.cpp:172] Setting up conv2_12_bn0
I1206 21:25:21.625118 16251 net.cpp:186] Top shape: 32 16 32 32 (524288)
I1206 21:25:21.625138 16251 net.cpp:194] Memory required for data: 270925952
I1206 21:25:21.625164 16251 layer_factory.hpp:77] Creating layer conv2_12_scale0
I1206 21:25:21.625187 16251 net.cpp:128] Creating Layer conv2_12_scale0
I1206 21:25:21.625207 16251 net.cpp:558] conv2_12_scale0 <- conv2_12_0
I1206 21:25:21.625231 16251 net.cpp:509] conv2_12_scale0 -> conv2_12_0 (in-place)
I1206 21:25:21.625303 16251 layer_factory.hpp:77] Creating layer conv2_12_scale0
I1206 21:25:21.625473 16251 net.cpp:172] Setting up conv2_12_scale0
I1206 21:25:21.625499 16251 net.cpp:186] Top shape: 32 16 32 32 (524288)
I1206 21:25:21.625519 16251 net.cpp:194] Memory required for data: 273023104
I1206 21:25:21.625543 16251 layer_factory.hpp:77] Creating layer conv2_12_ReLU0
I1206 21:25:21.625566 16251 net.cpp:128] Creating Layer conv2_12_ReLU0
I1206 21:25:21.625586 16251 net.cpp:558] conv2_12_ReLU0 <- conv2_12_0
I1206 21:25:21.625612 16251 net.cpp:509] conv2_12_ReLU0 -> conv2_12_0 (in-place)
I1206 21:25:21.626754 16251 net.cpp:172] Setting up conv2_12_ReLU0
I1206 21:25:21.626788 16251 net.cpp:186] Top shape: 32 16 32 32 (524288)
I1206 21:25:21.626808 16251 net.cpp:194] Memory required for data: 275120256
I1206 21:25:21.626828 16251 layer_factory.hpp:77] Creating layer conv2_12_1
I1206 21:25:21.626858 16251 net.cpp:128] Creating Layer conv2_12_1
I1206 21:25:21.626879 16251 net.cpp:558] conv2_12_1 <- conv2_12_0
I1206 21:25:21.626906 16251 net.cpp:522] conv2_12_1 -> conv2_12_1
I1206 21:25:21.631636 16251 net.cpp:172] Setting up conv2_12_1
I1206 21:25:21.631690 16251 net.cpp:186] Top shape: 32 16 32 32 (524288)
I1206 21:25:21.631711 16251 net.cpp:194] Memory required for data: 277217408
I1206 21:25:21.631737 16251 layer_factory.hpp:77] Creating layer conv2_12bn1
I1206 21:25:21.631762 16251 net.cpp:128] Creating Layer conv2_12bn1
I1206 21:25:21.631783 16251 net.cpp:558] conv2_12bn1 <- conv2_12_1
I1206 21:25:21.631808 16251 net.cpp:509] conv2_12bn1 -> conv2_12_1 (in-place)
I1206 21:25:21.632105 16251 net.cpp:172] Setting up conv2_12bn1
I1206 21:25:21.632133 16251 net.cpp:186] Top shape: 32 16 32 32 (524288)
I1206 21:25:21.632153 16251 net.cpp:194] Memory required for data: 279314560
I1206 21:25:21.632180 16251 layer_factory.hpp:77] Creating layer conv2_12_scale1
I1206 21:25:21.632203 16251 net.cpp:128] Creating Layer conv2_12_scale1
I1206 21:25:21.632223 16251 net.cpp:558] conv2_12_scale1 <- conv2_12_1
I1206 21:25:21.632256 16251 net.cpp:509] conv2_12_scale1 -> conv2_12_1 (in-place)
I1206 21:25:21.632325 16251 layer_factory.hpp:77] Creating layer conv2_12_scale1
I1206 21:25:21.632493 16251 net.cpp:172] Setting up conv2_12_scale1
I1206 21:25:21.632520 16251 net.cpp:186] Top shape: 32 16 32 32 (524288)
I1206 21:25:21.632540 16251 net.cpp:194] Memory required for data: 281411712
I1206 21:25:21.632565 16251 layer_factory.hpp:77] Creating layer conv2_Eltwise_12
I1206 21:25:21.632591 16251 net.cpp:128] Creating Layer conv2_Eltwise_12
I1206 21:25:21.632611 16251 net.cpp:558] conv2_Eltwise_12 <- conv2_Eltwise_11_conv2_11ReLU_1_0_split_1
I1206 21:25:21.632633 16251 net.cpp:558] conv2_Eltwise_12 <- conv2_12_1
I1206 21:25:21.632661 16251 net.cpp:522] conv2_Eltwise_12 -> conv2_Eltwise_12
I1206 21:25:21.632714 16251 net.cpp:172] Setting up conv2_Eltwise_12
I1206 21:25:21.632745 16251 net.cpp:186] Top shape: 32 16 32 32 (524288)
I1206 21:25:21.632764 16251 net.cpp:194] Memory required for data: 283508864
I1206 21:25:21.632786 16251 layer_factory.hpp:77] Creating layer conv2_12ReLU_1
I1206 21:25:21.632810 16251 net.cpp:128] Creating Layer conv2_12ReLU_1
I1206 21:25:21.632831 16251 net.cpp:558] conv2_12ReLU_1 <- conv2_Eltwise_12
I1206 21:25:21.632853 16251 net.cpp:509] conv2_12ReLU_1 -> conv2_Eltwise_12 (in-place)
I1206 21:25:21.633116 16251 net.cpp:172] Setting up conv2_12ReLU_1
I1206 21:25:21.633149 16251 net.cpp:186] Top shape: 32 16 32 32 (524288)
I1206 21:25:21.633169 16251 net.cpp:194] Memory required for data: 285606016
I1206 21:25:21.633190 16251 layer_factory.hpp:77] Creating layer conv2_Eltwise_12_conv2_12ReLU_1_0_split
I1206 21:25:21.633224 16251 net.cpp:128] Creating Layer conv2_Eltwise_12_conv2_12ReLU_1_0_split
I1206 21:25:21.633246 16251 net.cpp:558] conv2_Eltwise_12_conv2_12ReLU_1_0_split <- conv2_Eltwise_12
I1206 21:25:21.633270 16251 net.cpp:522] conv2_Eltwise_12_conv2_12ReLU_1_0_split -> conv2_Eltwise_12_conv2_12ReLU_1_0_split_0
I1206 21:25:21.633297 16251 net.cpp:522] conv2_Eltwise_12_conv2_12ReLU_1_0_split -> conv2_Eltwise_12_conv2_12ReLU_1_0_split_1
I1206 21:25:21.633379 16251 net.cpp:172] Setting up conv2_Eltwise_12_conv2_12ReLU_1_0_split
I1206 21:25:21.633405 16251 net.cpp:186] Top shape: 32 16 32 32 (524288)
I1206 21:25:21.633428 16251 net.cpp:186] Top shape: 32 16 32 32 (524288)
I1206 21:25:21.633447 16251 net.cpp:194] Memory required for data: 289800320
I1206 21:25:21.633468 16251 layer_factory.hpp:77] Creating layer conv2_13_0
I1206 21:25:21.633496 16251 net.cpp:128] Creating Layer conv2_13_0
I1206 21:25:21.633518 16251 net.cpp:558] conv2_13_0 <- conv2_Eltwise_12_conv2_12ReLU_1_0_split_0
I1206 21:25:21.633544 16251 net.cpp:522] conv2_13_0 -> conv2_13_0
I1206 21:25:21.637712 16251 net.cpp:172] Setting up conv2_13_0
I1206 21:25:21.637766 16251 net.cpp:186] Top shape: 32 16 32 32 (524288)
I1206 21:25:21.637786 16251 net.cpp:194] Memory required for data: 291897472
I1206 21:25:21.637814 16251 layer_factory.hpp:77] Creating layer conv2_13_bn0
I1206 21:25:21.637838 16251 net.cpp:128] Creating Layer conv2_13_bn0
I1206 21:25:21.637859 16251 net.cpp:558] conv2_13_bn0 <- conv2_13_0
I1206 21:25:21.637884 16251 net.cpp:509] conv2_13_bn0 -> conv2_13_0 (in-place)
I1206 21:25:21.638178 16251 net.cpp:172] Setting up conv2_13_bn0
I1206 21:25:21.638206 16251 net.cpp:186] Top shape: 32 16 32 32 (524288)
I1206 21:25:21.638226 16251 net.cpp:194] Memory required for data: 293994624
I1206 21:25:21.638252 16251 layer_factory.hpp:77] Creating layer conv2_13_scale0
I1206 21:25:21.638284 16251 net.cpp:128] Creating Layer conv2_13_scale0
I1206 21:25:21.638305 16251 net.cpp:558] conv2_13_scale0 <- conv2_13_0
I1206 21:25:21.638329 16251 net.cpp:509] conv2_13_scale0 -> conv2_13_0 (in-place)
I1206 21:25:21.638398 16251 layer_factory.hpp:77] Creating layer conv2_13_scale0
I1206 21:25:21.638569 16251 net.cpp:172] Setting up conv2_13_scale0
I1206 21:25:21.638595 16251 net.cpp:186] Top shape: 32 16 32 32 (524288)
I1206 21:25:21.638615 16251 net.cpp:194] Memory required for data: 296091776
I1206 21:25:21.638641 16251 layer_factory.hpp:77] Creating layer conv2_13_ReLU0
I1206 21:25:21.638666 16251 net.cpp:128] Creating Layer conv2_13_ReLU0
I1206 21:25:21.638687 16251 net.cpp:558] conv2_13_ReLU0 <- conv2_13_0
I1206 21:25:21.638710 16251 net.cpp:509] conv2_13_ReLU0 -> conv2_13_0 (in-place)
I1206 21:25:21.639190 16251 net.cpp:172] Setting up conv2_13_ReLU0
I1206 21:25:21.639240 16251 net.cpp:186] Top shape: 32 16 32 32 (524288)
I1206 21:25:21.639261 16251 net.cpp:194] Memory required for data: 298188928
I1206 21:25:21.639282 16251 layer_factory.hpp:77] Creating layer conv2_13_1
I1206 21:25:21.639312 16251 net.cpp:128] Creating Layer conv2_13_1
I1206 21:25:21.639333 16251 net.cpp:558] conv2_13_1 <- conv2_13_0
I1206 21:25:21.639358 16251 net.cpp:522] conv2_13_1 -> conv2_13_1
I1206 21:25:21.643163 16251 net.cpp:172] Setting up conv2_13_1
I1206 21:25:21.643218 16251 net.cpp:186] Top shape: 32 16 32 32 (524288)
I1206 21:25:21.643244 16251 net.cpp:194] Memory required for data: 300286080
I1206 21:25:21.643271 16251 layer_factory.hpp:77] Creating layer conv2_13bn1
I1206 21:25:21.643297 16251 net.cpp:128] Creating Layer conv2_13bn1
I1206 21:25:21.643318 16251 net.cpp:558] conv2_13bn1 <- conv2_13_1
I1206 21:25:21.643347 16251 net.cpp:509] conv2_13bn1 -> conv2_13_1 (in-place)
I1206 21:25:21.643647 16251 net.cpp:172] Setting up conv2_13bn1
I1206 21:25:21.643676 16251 net.cpp:186] Top shape: 32 16 32 32 (524288)
I1206 21:25:21.643695 16251 net.cpp:194] Memory required for data: 302383232
I1206 21:25:21.643723 16251 layer_factory.hpp:77] Creating layer conv2_13_scale1
I1206 21:25:21.643744 16251 net.cpp:128] Creating Layer conv2_13_scale1
I1206 21:25:21.643774 16251 net.cpp:558] conv2_13_scale1 <- conv2_13_1
I1206 21:25:21.643796 16251 net.cpp:509] conv2_13_scale1 -> conv2_13_1 (in-place)
I1206 21:25:21.643869 16251 layer_factory.hpp:77] Creating layer conv2_13_scale1
I1206 21:25:21.644042 16251 net.cpp:172] Setting up conv2_13_scale1
I1206 21:25:21.644068 16251 net.cpp:186] Top shape: 32 16 32 32 (524288)
I1206 21:25:21.644088 16251 net.cpp:194] Memory required for data: 304480384
I1206 21:25:21.644112 16251 layer_factory.hpp:77] Creating layer conv2_Eltwise_13
I1206 21:25:21.644137 16251 net.cpp:128] Creating Layer conv2_Eltwise_13
I1206 21:25:21.644160 16251 net.cpp:558] conv2_Eltwise_13 <- conv2_Eltwise_12_conv2_12ReLU_1_0_split_1
I1206 21:25:21.644181 16251 net.cpp:558] conv2_Eltwise_13 <- conv2_13_1
I1206 21:25:21.644204 16251 net.cpp:522] conv2_Eltwise_13 -> conv2_Eltwise_13
I1206 21:25:21.644263 16251 net.cpp:172] Setting up conv2_Eltwise_13
I1206 21:25:21.644289 16251 net.cpp:186] Top shape: 32 16 32 32 (524288)
I1206 21:25:21.644307 16251 net.cpp:194] Memory required for data: 306577536
I1206 21:25:21.644328 16251 layer_factory.hpp:77] Creating layer conv2_13ReLU_1
I1206 21:25:21.644351 16251 net.cpp:128] Creating Layer conv2_13ReLU_1
I1206 21:25:21.644371 16251 net.cpp:558] conv2_13ReLU_1 <- conv2_Eltwise_13
I1206 21:25:21.644395 16251 net.cpp:509] conv2_13ReLU_1 -> conv2_Eltwise_13 (in-place)
I1206 21:25:21.645337 16251 net.cpp:172] Setting up conv2_13ReLU_1
I1206 21:25:21.645371 16251 net.cpp:186] Top shape: 32 16 32 32 (524288)
I1206 21:25:21.645392 16251 net.cpp:194] Memory required for data: 308674688
I1206 21:25:21.645412 16251 layer_factory.hpp:77] Creating layer conv2_Eltwise_13_conv2_13ReLU_1_0_split
I1206 21:25:21.645437 16251 net.cpp:128] Creating Layer conv2_Eltwise_13_conv2_13ReLU_1_0_split
I1206 21:25:21.645458 16251 net.cpp:558] conv2_Eltwise_13_conv2_13ReLU_1_0_split <- conv2_Eltwise_13
I1206 21:25:21.645483 16251 net.cpp:522] conv2_Eltwise_13_conv2_13ReLU_1_0_split -> conv2_Eltwise_13_conv2_13ReLU_1_0_split_0
I1206 21:25:21.645507 16251 net.cpp:522] conv2_Eltwise_13_conv2_13ReLU_1_0_split -> conv2_Eltwise_13_conv2_13ReLU_1_0_split_1
I1206 21:25:21.645584 16251 net.cpp:172] Setting up conv2_Eltwise_13_conv2_13ReLU_1_0_split
I1206 21:25:21.645609 16251 net.cpp:186] Top shape: 32 16 32 32 (524288)
I1206 21:25:21.645632 16251 net.cpp:186] Top shape: 32 16 32 32 (524288)
I1206 21:25:21.645650 16251 net.cpp:194] Memory required for data: 312868992
I1206 21:25:21.645670 16251 layer_factory.hpp:77] Creating layer conv2_14_0
I1206 21:25:21.645699 16251 net.cpp:128] Creating Layer conv2_14_0
I1206 21:25:21.645720 16251 net.cpp:558] conv2_14_0 <- conv2_Eltwise_13_conv2_13ReLU_1_0_split_0
I1206 21:25:21.645745 16251 net.cpp:522] conv2_14_0 -> conv2_14_0
I1206 21:25:21.651765 16251 net.cpp:172] Setting up conv2_14_0
I1206 21:25:21.651819 16251 net.cpp:186] Top shape: 32 16 32 32 (524288)
I1206 21:25:21.651840 16251 net.cpp:194] Memory required for data: 314966144
I1206 21:25:21.651866 16251 layer_factory.hpp:77] Creating layer conv2_14_bn0
I1206 21:25:21.651890 16251 net.cpp:128] Creating Layer conv2_14_bn0
I1206 21:25:21.651911 16251 net.cpp:558] conv2_14_bn0 <- conv2_14_0
I1206 21:25:21.651937 16251 net.cpp:509] conv2_14_bn0 -> conv2_14_0 (in-place)
I1206 21:25:21.652240 16251 net.cpp:172] Setting up conv2_14_bn0
I1206 21:25:21.652276 16251 net.cpp:186] Top shape: 32 16 32 32 (524288)
I1206 21:25:21.652295 16251 net.cpp:194] Memory required for data: 317063296
I1206 21:25:21.652323 16251 layer_factory.hpp:77] Creating layer conv2_14_scale0
I1206 21:25:21.652345 16251 net.cpp:128] Creating Layer conv2_14_scale0
I1206 21:25:21.652365 16251 net.cpp:558] conv2_14_scale0 <- conv2_14_0
I1206 21:25:21.652391 16251 net.cpp:509] conv2_14_scale0 -> conv2_14_0 (in-place)
I1206 21:25:21.652463 16251 layer_factory.hpp:77] Creating layer conv2_14_scale0
I1206 21:25:21.652635 16251 net.cpp:172] Setting up conv2_14_scale0
I1206 21:25:21.652662 16251 net.cpp:186] Top shape: 32 16 32 32 (524288)
I1206 21:25:21.652691 16251 net.cpp:194] Memory required for data: 319160448
I1206 21:25:21.652716 16251 layer_factory.hpp:77] Creating layer conv2_14_ReLU0
I1206 21:25:21.652739 16251 net.cpp:128] Creating Layer conv2_14_ReLU0
I1206 21:25:21.652758 16251 net.cpp:558] conv2_14_ReLU0 <- conv2_14_0
I1206 21:25:21.652781 16251 net.cpp:509] conv2_14_ReLU0 -> conv2_14_0 (in-place)
I1206 21:25:21.653046 16251 net.cpp:172] Setting up conv2_14_ReLU0
I1206 21:25:21.653084 16251 net.cpp:186] Top shape: 32 16 32 32 (524288)
I1206 21:25:21.653105 16251 net.cpp:194] Memory required for data: 321257600
I1206 21:25:21.653126 16251 layer_factory.hpp:77] Creating layer conv2_14_1
I1206 21:25:21.653153 16251 net.cpp:128] Creating Layer conv2_14_1
I1206 21:25:21.653174 16251 net.cpp:558] conv2_14_1 <- conv2_14_0
I1206 21:25:21.653200 16251 net.cpp:522] conv2_14_1 -> conv2_14_1
I1206 21:25:21.659130 16251 net.cpp:172] Setting up conv2_14_1
I1206 21:25:21.659180 16251 net.cpp:186] Top shape: 32 16 32 32 (524288)
I1206 21:25:21.659201 16251 net.cpp:194] Memory required for data: 323354752
I1206 21:25:21.659227 16251 layer_factory.hpp:77] Creating layer conv2_14bn1
I1206 21:25:21.659255 16251 net.cpp:128] Creating Layer conv2_14bn1
I1206 21:25:21.659276 16251 net.cpp:558] conv2_14bn1 <- conv2_14_1
I1206 21:25:21.659301 16251 net.cpp:509] conv2_14bn1 -> conv2_14_1 (in-place)
I1206 21:25:21.659595 16251 net.cpp:172] Setting up conv2_14bn1
I1206 21:25:21.659622 16251 net.cpp:186] Top shape: 32 16 32 32 (524288)
I1206 21:25:21.659641 16251 net.cpp:194] Memory required for data: 325451904
I1206 21:25:21.659668 16251 layer_factory.hpp:77] Creating layer conv2_14_scale1
I1206 21:25:21.659690 16251 net.cpp:128] Creating Layer conv2_14_scale1
I1206 21:25:21.659711 16251 net.cpp:558] conv2_14_scale1 <- conv2_14_1
I1206 21:25:21.659734 16251 net.cpp:509] conv2_14_scale1 -> conv2_14_1 (in-place)
I1206 21:25:21.659804 16251 layer_factory.hpp:77] Creating layer conv2_14_scale1
I1206 21:25:21.659977 16251 net.cpp:172] Setting up conv2_14_scale1
I1206 21:25:21.660009 16251 net.cpp:186] Top shape: 32 16 32 32 (524288)
I1206 21:25:21.660029 16251 net.cpp:194] Memory required for data: 327549056
I1206 21:25:21.660053 16251 layer_factory.hpp:77] Creating layer conv2_Eltwise_14
I1206 21:25:21.660079 16251 net.cpp:128] Creating Layer conv2_Eltwise_14
I1206 21:25:21.660101 16251 net.cpp:558] conv2_Eltwise_14 <- conv2_Eltwise_13_conv2_13ReLU_1_0_split_1
I1206 21:25:21.660122 16251 net.cpp:558] conv2_Eltwise_14 <- conv2_14_1
I1206 21:25:21.660145 16251 net.cpp:522] conv2_Eltwise_14 -> conv2_Eltwise_14
I1206 21:25:21.660198 16251 net.cpp:172] Setting up conv2_Eltwise_14
I1206 21:25:21.660223 16251 net.cpp:186] Top shape: 32 16 32 32 (524288)
I1206 21:25:21.660249 16251 net.cpp:194] Memory required for data: 329646208
I1206 21:25:21.660269 16251 layer_factory.hpp:77] Creating layer conv2_14ReLU_1
I1206 21:25:21.660292 16251 net.cpp:128] Creating Layer conv2_14ReLU_1
I1206 21:25:21.660312 16251 net.cpp:558] conv2_14ReLU_1 <- conv2_Eltwise_14
I1206 21:25:21.660337 16251 net.cpp:509] conv2_14ReLU_1 -> conv2_Eltwise_14 (in-place)
I1206 21:25:21.660598 16251 net.cpp:172] Setting up conv2_14ReLU_1
I1206 21:25:21.660631 16251 net.cpp:186] Top shape: 32 16 32 32 (524288)
I1206 21:25:21.660651 16251 net.cpp:194] Memory required for data: 331743360
I1206 21:25:21.660672 16251 layer_factory.hpp:77] Creating layer conv2_Eltwise_14_conv2_14ReLU_1_0_split
I1206 21:25:21.660704 16251 net.cpp:128] Creating Layer conv2_Eltwise_14_conv2_14ReLU_1_0_split
I1206 21:25:21.660727 16251 net.cpp:558] conv2_Eltwise_14_conv2_14ReLU_1_0_split <- conv2_Eltwise_14
I1206 21:25:21.660749 16251 net.cpp:522] conv2_Eltwise_14_conv2_14ReLU_1_0_split -> conv2_Eltwise_14_conv2_14ReLU_1_0_split_0
I1206 21:25:21.660775 16251 net.cpp:522] conv2_Eltwise_14_conv2_14ReLU_1_0_split -> conv2_Eltwise_14_conv2_14ReLU_1_0_split_1
I1206 21:25:21.660853 16251 net.cpp:172] Setting up conv2_Eltwise_14_conv2_14ReLU_1_0_split
I1206 21:25:21.660878 16251 net.cpp:186] Top shape: 32 16 32 32 (524288)
I1206 21:25:21.660900 16251 net.cpp:186] Top shape: 32 16 32 32 (524288)
I1206 21:25:21.660928 16251 net.cpp:194] Memory required for data: 335937664
I1206 21:25:21.660948 16251 layer_factory.hpp:77] Creating layer conv2_15_0
I1206 21:25:21.660979 16251 net.cpp:128] Creating Layer conv2_15_0
I1206 21:25:21.661000 16251 net.cpp:558] conv2_15_0 <- conv2_Eltwise_14_conv2_14ReLU_1_0_split_0
I1206 21:25:21.661026 16251 net.cpp:522] conv2_15_0 -> conv2_15_0
I1206 21:25:21.664425 16251 net.cpp:172] Setting up conv2_15_0
I1206 21:25:21.664475 16251 net.cpp:186] Top shape: 32 16 32 32 (524288)
I1206 21:25:21.664495 16251 net.cpp:194] Memory required for data: 338034816
I1206 21:25:21.664522 16251 layer_factory.hpp:77] Creating layer conv2_15_bn0
I1206 21:25:21.664547 16251 net.cpp:128] Creating Layer conv2_15_bn0
I1206 21:25:21.664568 16251 net.cpp:558] conv2_15_bn0 <- conv2_15_0
I1206 21:25:21.664594 16251 net.cpp:509] conv2_15_bn0 -> conv2_15_0 (in-place)
I1206 21:25:21.664889 16251 net.cpp:172] Setting up conv2_15_bn0
I1206 21:25:21.664916 16251 net.cpp:186] Top shape: 32 16 32 32 (524288)
I1206 21:25:21.664937 16251 net.cpp:194] Memory required for data: 340131968
I1206 21:25:21.664963 16251 layer_factory.hpp:77] Creating layer conv2_15_scale0
I1206 21:25:21.664985 16251 net.cpp:128] Creating Layer conv2_15_scale0
I1206 21:25:21.665005 16251 net.cpp:558] conv2_15_scale0 <- conv2_15_0
I1206 21:25:21.665030 16251 net.cpp:509] conv2_15_scale0 -> conv2_15_0 (in-place)
I1206 21:25:21.665098 16251 layer_factory.hpp:77] Creating layer conv2_15_scale0
I1206 21:25:21.665271 16251 net.cpp:172] Setting up conv2_15_scale0
I1206 21:25:21.665297 16251 net.cpp:186] Top shape: 32 16 32 32 (524288)
I1206 21:25:21.665318 16251 net.cpp:194] Memory required for data: 342229120
I1206 21:25:21.665343 16251 layer_factory.hpp:77] Creating layer conv2_15_ReLU0
I1206 21:25:21.665365 16251 net.cpp:128] Creating Layer conv2_15_ReLU0
I1206 21:25:21.665385 16251 net.cpp:558] conv2_15_ReLU0 <- conv2_15_0
I1206 21:25:21.665406 16251 net.cpp:509] conv2_15_ReLU0 -> conv2_15_0 (in-place)
I1206 21:25:21.665997 16251 net.cpp:172] Setting up conv2_15_ReLU0
I1206 21:25:21.666046 16251 net.cpp:186] Top shape: 32 16 32 32 (524288)
I1206 21:25:21.666066 16251 net.cpp:194] Memory required for data: 344326272
I1206 21:25:21.666087 16251 layer_factory.hpp:77] Creating layer conv2_15_1
I1206 21:25:21.666117 16251 net.cpp:128] Creating Layer conv2_15_1
I1206 21:25:21.666138 16251 net.cpp:558] conv2_15_1 <- conv2_15_0
I1206 21:25:21.666164 16251 net.cpp:522] conv2_15_1 -> conv2_15_1
I1206 21:25:21.671133 16251 net.cpp:172] Setting up conv2_15_1
I1206 21:25:21.671183 16251 net.cpp:186] Top shape: 32 16 32 32 (524288)
I1206 21:25:21.671205 16251 net.cpp:194] Memory required for data: 346423424
I1206 21:25:21.671231 16251 layer_factory.hpp:77] Creating layer conv2_15bn1
I1206 21:25:21.671257 16251 net.cpp:128] Creating Layer conv2_15bn1
I1206 21:25:21.671277 16251 net.cpp:558] conv2_15bn1 <- conv2_15_1
I1206 21:25:21.671303 16251 net.cpp:509] conv2_15bn1 -> conv2_15_1 (in-place)
I1206 21:25:21.671597 16251 net.cpp:172] Setting up conv2_15bn1
I1206 21:25:21.671625 16251 net.cpp:186] Top shape: 32 16 32 32 (524288)
I1206 21:25:21.671645 16251 net.cpp:194] Memory required for data: 348520576
I1206 21:25:21.671671 16251 layer_factory.hpp:77] Creating layer conv2_15_scale1
I1206 21:25:21.671696 16251 net.cpp:128] Creating Layer conv2_15_scale1
I1206 21:25:21.671723 16251 net.cpp:558] conv2_15_scale1 <- conv2_15_1
I1206 21:25:21.671746 16251 net.cpp:509] conv2_15_scale1 -> conv2_15_1 (in-place)
I1206 21:25:21.671818 16251 layer_factory.hpp:77] Creating layer conv2_15_scale1
I1206 21:25:21.671993 16251 net.cpp:172] Setting up conv2_15_scale1
I1206 21:25:21.672020 16251 net.cpp:186] Top shape: 32 16 32 32 (524288)
I1206 21:25:21.672040 16251 net.cpp:194] Memory required for data: 350617728
I1206 21:25:21.672065 16251 layer_factory.hpp:77] Creating layer conv2_Eltwise_15
I1206 21:25:21.672092 16251 net.cpp:128] Creating Layer conv2_Eltwise_15
I1206 21:25:21.672114 16251 net.cpp:558] conv2_Eltwise_15 <- conv2_Eltwise_14_conv2_14ReLU_1_0_split_1
I1206 21:25:21.672145 16251 net.cpp:558] conv2_Eltwise_15 <- conv2_15_1
I1206 21:25:21.672169 16251 net.cpp:522] conv2_Eltwise_15 -> conv2_Eltwise_15
I1206 21:25:21.672230 16251 net.cpp:172] Setting up conv2_Eltwise_15
I1206 21:25:21.672256 16251 net.cpp:186] Top shape: 32 16 32 32 (524288)
I1206 21:25:21.672276 16251 net.cpp:194] Memory required for data: 352714880
I1206 21:25:21.672296 16251 layer_factory.hpp:77] Creating layer conv2_15ReLU_1
I1206 21:25:21.672318 16251 net.cpp:128] Creating Layer conv2_15ReLU_1
I1206 21:25:21.672339 16251 net.cpp:558] conv2_15ReLU_1 <- conv2_Eltwise_15
I1206 21:25:21.672363 16251 net.cpp:509] conv2_15ReLU_1 -> conv2_Eltwise_15 (in-place)
I1206 21:25:21.672631 16251 net.cpp:172] Setting up conv2_15ReLU_1
I1206 21:25:21.672667 16251 net.cpp:186] Top shape: 32 16 32 32 (524288)
I1206 21:25:21.672686 16251 net.cpp:194] Memory required for data: 354812032
I1206 21:25:21.672708 16251 layer_factory.hpp:77] Creating layer conv2_Eltwise_15_conv2_15ReLU_1_0_split
I1206 21:25:21.672730 16251 net.cpp:128] Creating Layer conv2_Eltwise_15_conv2_15ReLU_1_0_split
I1206 21:25:21.672751 16251 net.cpp:558] conv2_Eltwise_15_conv2_15ReLU_1_0_split <- conv2_Eltwise_15
I1206 21:25:21.672777 16251 net.cpp:522] conv2_Eltwise_15_conv2_15ReLU_1_0_split -> conv2_Eltwise_15_conv2_15ReLU_1_0_split_0
I1206 21:25:21.672803 16251 net.cpp:522] conv2_Eltwise_15_conv2_15ReLU_1_0_split -> conv2_Eltwise_15_conv2_15ReLU_1_0_split_1
I1206 21:25:21.672880 16251 net.cpp:172] Setting up conv2_Eltwise_15_conv2_15ReLU_1_0_split
I1206 21:25:21.672905 16251 net.cpp:186] Top shape: 32 16 32 32 (524288)
I1206 21:25:21.672927 16251 net.cpp:186] Top shape: 32 16 32 32 (524288)
I1206 21:25:21.672947 16251 net.cpp:194] Memory required for data: 359006336
I1206 21:25:21.672967 16251 layer_factory.hpp:77] Creating layer conv2_16_0
I1206 21:25:21.672997 16251 net.cpp:128] Creating Layer conv2_16_0
I1206 21:25:21.673018 16251 net.cpp:558] conv2_16_0 <- conv2_Eltwise_15_conv2_15ReLU_1_0_split_0
I1206 21:25:21.673044 16251 net.cpp:522] conv2_16_0 -> conv2_16_0
I1206 21:25:21.674717 16251 net.cpp:172] Setting up conv2_16_0
I1206 21:25:21.674809 16251 net.cpp:186] Top shape: 32 16 32 32 (524288)
I1206 21:25:21.674832 16251 net.cpp:194] Memory required for data: 361103488
I1206 21:25:21.674870 16251 layer_factory.hpp:77] Creating layer conv2_16_bn0
I1206 21:25:21.674908 16251 net.cpp:128] Creating Layer conv2_16_bn0
I1206 21:25:21.674932 16251 net.cpp:558] conv2_16_bn0 <- conv2_16_0
I1206 21:25:21.674960 16251 net.cpp:509] conv2_16_bn0 -> conv2_16_0 (in-place)
I1206 21:25:21.675282 16251 net.cpp:172] Setting up conv2_16_bn0
I1206 21:25:21.675309 16251 net.cpp:186] Top shape: 32 16 32 32 (524288)
I1206 21:25:21.675330 16251 net.cpp:194] Memory required for data: 363200640
I1206 21:25:21.675357 16251 layer_factory.hpp:77] Creating layer conv2_16_scale0
I1206 21:25:21.675382 16251 net.cpp:128] Creating Layer conv2_16_scale0
I1206 21:25:21.675403 16251 net.cpp:558] conv2_16_scale0 <- conv2_16_0
I1206 21:25:21.675427 16251 net.cpp:509] conv2_16_scale0 -> conv2_16_0 (in-place)
I1206 21:25:21.675510 16251 layer_factory.hpp:77] Creating layer conv2_16_scale0
I1206 21:25:21.675699 16251 net.cpp:172] Setting up conv2_16_scale0
I1206 21:25:21.675725 16251 net.cpp:186] Top shape: 32 16 32 32 (524288)
I1206 21:25:21.675746 16251 net.cpp:194] Memory required for data: 365297792
I1206 21:25:21.675779 16251 layer_factory.hpp:77] Creating layer conv2_16_ReLU0
I1206 21:25:21.675804 16251 net.cpp:128] Creating Layer conv2_16_ReLU0
I1206 21:25:21.675825 16251 net.cpp:558] conv2_16_ReLU0 <- conv2_16_0
I1206 21:25:21.675850 16251 net.cpp:509] conv2_16_ReLU0 -> conv2_16_0 (in-place)
I1206 21:25:21.676152 16251 net.cpp:172] Setting up conv2_16_ReLU0
I1206 21:25:21.676187 16251 net.cpp:186] Top shape: 32 16 32 32 (524288)
I1206 21:25:21.676208 16251 net.cpp:194] Memory required for data: 367394944
I1206 21:25:21.676240 16251 layer_factory.hpp:77] Creating layer conv2_16_1
I1206 21:25:21.676280 16251 net.cpp:128] Creating Layer conv2_16_1
I1206 21:25:21.676319 16251 net.cpp:558] conv2_16_1 <- conv2_16_0
I1206 21:25:21.676348 16251 net.cpp:522] conv2_16_1 -> conv2_16_1
I1206 21:25:21.678089 16251 net.cpp:172] Setting up conv2_16_1
I1206 21:25:21.678194 16251 net.cpp:186] Top shape: 32 16 32 32 (524288)
I1206 21:25:21.678215 16251 net.cpp:194] Memory required for data: 369492096
I1206 21:25:21.678252 16251 layer_factory.hpp:77] Creating layer conv2_16bn1
I1206 21:25:21.678287 16251 net.cpp:128] Creating Layer conv2_16bn1
I1206 21:25:21.678310 16251 net.cpp:558] conv2_16bn1 <- conv2_16_1
I1206 21:25:21.678339 16251 net.cpp:509] conv2_16bn1 -> conv2_16_1 (in-place)
I1206 21:25:21.678661 16251 net.cpp:172] Setting up conv2_16bn1
I1206 21:25:21.678689 16251 net.cpp:186] Top shape: 32 16 32 32 (524288)
I1206 21:25:21.678709 16251 net.cpp:194] Memory required for data: 371589248
I1206 21:25:21.678736 16251 layer_factory.hpp:77] Creating layer conv2_16_scale1
I1206 21:25:21.678762 16251 net.cpp:128] Creating Layer conv2_16_scale1
I1206 21:25:21.678783 16251 net.cpp:558] conv2_16_scale1 <- conv2_16_1
I1206 21:25:21.678807 16251 net.cpp:509] conv2_16_scale1 -> conv2_16_1 (in-place)
I1206 21:25:21.678890 16251 layer_factory.hpp:77] Creating layer conv2_16_scale1
I1206 21:25:21.679071 16251 net.cpp:172] Setting up conv2_16_scale1
I1206 21:25:21.679100 16251 net.cpp:186] Top shape: 32 16 32 32 (524288)
I1206 21:25:21.679119 16251 net.cpp:194] Memory required for data: 373686400
I1206 21:25:21.679144 16251 layer_factory.hpp:77] Creating layer conv2_Eltwise_16
I1206 21:25:21.679173 16251 net.cpp:128] Creating Layer conv2_Eltwise_16
I1206 21:25:21.679198 16251 net.cpp:558] conv2_Eltwise_16 <- conv2_Eltwise_15_conv2_15ReLU_1_0_split_1
I1206 21:25:21.679219 16251 net.cpp:558] conv2_Eltwise_16 <- conv2_16_1
I1206 21:25:21.679244 16251 net.cpp:522] conv2_Eltwise_16 -> conv2_Eltwise_16
I1206 21:25:21.679298 16251 net.cpp:172] Setting up conv2_Eltwise_16
I1206 21:25:21.679323 16251 net.cpp:186] Top shape: 32 16 32 32 (524288)
I1206 21:25:21.679343 16251 net.cpp:194] Memory required for data: 375783552
I1206 21:25:21.679364 16251 layer_factory.hpp:77] Creating layer conv2_16ReLU_1
I1206 21:25:21.679390 16251 net.cpp:128] Creating Layer conv2_16ReLU_1
I1206 21:25:21.679410 16251 net.cpp:558] conv2_16ReLU_1 <- conv2_Eltwise_16
I1206 21:25:21.679432 16251 net.cpp:509] conv2_16ReLU_1 -> conv2_Eltwise_16 (in-place)
I1206 21:25:21.680032 16251 net.cpp:172] Setting up conv2_16ReLU_1
I1206 21:25:21.680083 16251 net.cpp:186] Top shape: 32 16 32 32 (524288)
I1206 21:25:21.680102 16251 net.cpp:194] Memory required for data: 377880704
I1206 21:25:21.680124 16251 layer_factory.hpp:77] Creating layer conv2_Eltwise_16_conv2_16ReLU_1_0_split
I1206 21:25:21.680151 16251 net.cpp:128] Creating Layer conv2_Eltwise_16_conv2_16ReLU_1_0_split
I1206 21:25:21.680173 16251 net.cpp:558] conv2_Eltwise_16_conv2_16ReLU_1_0_split <- conv2_Eltwise_16
I1206 21:25:21.680198 16251 net.cpp:522] conv2_Eltwise_16_conv2_16ReLU_1_0_split -> conv2_Eltwise_16_conv2_16ReLU_1_0_split_0
I1206 21:25:21.680236 16251 net.cpp:522] conv2_Eltwise_16_conv2_16ReLU_1_0_split -> conv2_Eltwise_16_conv2_16ReLU_1_0_split_1
I1206 21:25:21.680326 16251 net.cpp:172] Setting up conv2_Eltwise_16_conv2_16ReLU_1_0_split
I1206 21:25:21.680352 16251 net.cpp:186] Top shape: 32 16 32 32 (524288)
I1206 21:25:21.680374 16251 net.cpp:186] Top shape: 32 16 32 32 (524288)
I1206 21:25:21.680407 16251 net.cpp:194] Memory required for data: 382075008
I1206 21:25:21.680428 16251 layer_factory.hpp:77] Creating layer conv2_17_0
I1206 21:25:21.680461 16251 net.cpp:128] Creating Layer conv2_17_0
I1206 21:25:21.680483 16251 net.cpp:558] conv2_17_0 <- conv2_Eltwise_16_conv2_16ReLU_1_0_split_0
I1206 21:25:21.680510 16251 net.cpp:522] conv2_17_0 -> conv2_17_0
I1206 21:25:21.681959 16251 net.cpp:172] Setting up conv2_17_0
I1206 21:25:21.682011 16251 net.cpp:186] Top shape: 32 16 32 32 (524288)
I1206 21:25:21.682032 16251 net.cpp:194] Memory required for data: 384172160
I1206 21:25:21.682061 16251 layer_factory.hpp:77] Creating layer conv2_17_bn0
I1206 21:25:21.682090 16251 net.cpp:128] Creating Layer conv2_17_bn0
I1206 21:25:21.682124 16251 net.cpp:558] conv2_17_bn0 <- conv2_17_0
I1206 21:25:21.682148 16251 net.cpp:509] conv2_17_bn0 -> conv2_17_0 (in-place)
I1206 21:25:21.682459 16251 net.cpp:172] Setting up conv2_17_bn0
I1206 21:25:21.682487 16251 net.cpp:186] Top shape: 32 16 32 32 (524288)
I1206 21:25:21.682507 16251 net.cpp:194] Memory required for data: 386269312
I1206 21:25:21.682535 16251 layer_factory.hpp:77] Creating layer conv2_17_scale0
I1206 21:25:21.682560 16251 net.cpp:128] Creating Layer conv2_17_scale0
I1206 21:25:21.682581 16251 net.cpp:558] conv2_17_scale0 <- conv2_17_0
I1206 21:25:21.682605 16251 net.cpp:509] conv2_17_scale0 -> conv2_17_0 (in-place)
I1206 21:25:21.682684 16251 layer_factory.hpp:77] Creating layer conv2_17_scale0
I1206 21:25:21.682863 16251 net.cpp:172] Setting up conv2_17_scale0
I1206 21:25:21.682890 16251 net.cpp:186] Top shape: 32 16 32 32 (524288)
I1206 21:25:21.682910 16251 net.cpp:194] Memory required for data: 388366464
I1206 21:25:21.682936 16251 layer_factory.hpp:77] Creating layer conv2_17_ReLU0
I1206 21:25:21.682960 16251 net.cpp:128] Creating Layer conv2_17_ReLU0
I1206 21:25:21.682981 16251 net.cpp:558] conv2_17_ReLU0 <- conv2_17_0
I1206 21:25:21.683007 16251 net.cpp:509] conv2_17_ReLU0 -> conv2_17_0 (in-place)
I1206 21:25:21.683277 16251 net.cpp:172] Setting up conv2_17_ReLU0
I1206 21:25:21.683311 16251 net.cpp:186] Top shape: 32 16 32 32 (524288)
I1206 21:25:21.683331 16251 net.cpp:194] Memory required for data: 390463616
I1206 21:25:21.683352 16251 layer_factory.hpp:77] Creating layer conv2_17_1
I1206 21:25:21.683383 16251 net.cpp:128] Creating Layer conv2_17_1
I1206 21:25:21.683405 16251 net.cpp:558] conv2_17_1 <- conv2_17_0
I1206 21:25:21.683431 16251 net.cpp:522] conv2_17_1 -> conv2_17_1
I1206 21:25:21.684868 16251 net.cpp:172] Setting up conv2_17_1
I1206 21:25:21.684921 16251 net.cpp:186] Top shape: 32 16 32 32 (524288)
I1206 21:25:21.684942 16251 net.cpp:194] Memory required for data: 392560768
I1206 21:25:21.684969 16251 layer_factory.hpp:77] Creating layer conv2_17bn1
I1206 21:25:21.684996 16251 net.cpp:128] Creating Layer conv2_17bn1
I1206 21:25:21.685017 16251 net.cpp:558] conv2_17bn1 <- conv2_17_1
I1206 21:25:21.685043 16251 net.cpp:509] conv2_17bn1 -> conv2_17_1 (in-place)
I1206 21:25:21.685350 16251 net.cpp:172] Setting up conv2_17bn1
I1206 21:25:21.685379 16251 net.cpp:186] Top shape: 32 16 32 32 (524288)
I1206 21:25:21.685398 16251 net.cpp:194] Memory required for data: 394657920
I1206 21:25:21.685425 16251 layer_factory.hpp:77] Creating layer conv2_17_scale1
I1206 21:25:21.685451 16251 net.cpp:128] Creating Layer conv2_17_scale1
I1206 21:25:21.685472 16251 net.cpp:558] conv2_17_scale1 <- conv2_17_1
I1206 21:25:21.685494 16251 net.cpp:509] conv2_17_scale1 -> conv2_17_1 (in-place)
I1206 21:25:21.685570 16251 layer_factory.hpp:77] Creating layer conv2_17_scale1
I1206 21:25:21.685757 16251 net.cpp:172] Setting up conv2_17_scale1
I1206 21:25:21.685784 16251 net.cpp:186] Top shape: 32 16 32 32 (524288)
I1206 21:25:21.685806 16251 net.cpp:194] Memory required for data: 396755072
I1206 21:25:21.685832 16251 layer_factory.hpp:77] Creating layer conv2_Eltwise_17
I1206 21:25:21.685863 16251 net.cpp:128] Creating Layer conv2_Eltwise_17
I1206 21:25:21.685886 16251 net.cpp:558] conv2_Eltwise_17 <- conv2_Eltwise_16_conv2_16ReLU_1_0_split_1
I1206 21:25:21.685910 16251 net.cpp:558] conv2_Eltwise_17 <- conv2_17_1
I1206 21:25:21.685950 16251 net.cpp:522] conv2_Eltwise_17 -> conv2_Eltwise_17
I1206 21:25:21.686008 16251 net.cpp:172] Setting up conv2_Eltwise_17
I1206 21:25:21.686034 16251 net.cpp:186] Top shape: 32 16 32 32 (524288)
I1206 21:25:21.686055 16251 net.cpp:194] Memory required for data: 398852224
I1206 21:25:21.686076 16251 layer_factory.hpp:77] Creating layer conv2_17ReLU_1
I1206 21:25:21.686105 16251 net.cpp:128] Creating Layer conv2_17ReLU_1
I1206 21:25:21.686126 16251 net.cpp:558] conv2_17ReLU_1 <- conv2_Eltwise_17
I1206 21:25:21.686161 16251 net.cpp:509] conv2_17ReLU_1 -> conv2_Eltwise_17 (in-place)
I1206 21:25:21.686471 16251 net.cpp:172] Setting up conv2_17ReLU_1
I1206 21:25:21.686527 16251 net.cpp:186] Top shape: 32 16 32 32 (524288)
I1206 21:25:21.686547 16251 net.cpp:194] Memory required for data: 400949376
I1206 21:25:21.686568 16251 layer_factory.hpp:77] Creating layer conv2_Eltwise_17_conv2_17ReLU_1_0_split
I1206 21:25:21.686599 16251 net.cpp:128] Creating Layer conv2_Eltwise_17_conv2_17ReLU_1_0_split
I1206 21:25:21.686621 16251 net.cpp:558] conv2_Eltwise_17_conv2_17ReLU_1_0_split <- conv2_Eltwise_17
I1206 21:25:21.686645 16251 net.cpp:522] conv2_Eltwise_17_conv2_17ReLU_1_0_split -> conv2_Eltwise_17_conv2_17ReLU_1_0_split_0
I1206 21:25:21.686676 16251 net.cpp:522] conv2_Eltwise_17_conv2_17ReLU_1_0_split -> conv2_Eltwise_17_conv2_17ReLU_1_0_split_1
I1206 21:25:21.686756 16251 net.cpp:172] Setting up conv2_Eltwise_17_conv2_17ReLU_1_0_split
I1206 21:25:21.686784 16251 net.cpp:186] Top shape: 32 16 32 32 (524288)
I1206 21:25:21.686806 16251 net.cpp:186] Top shape: 32 16 32 32 (524288)
I1206 21:25:21.686826 16251 net.cpp:194] Memory required for data: 405143680
I1206 21:25:21.686846 16251 layer_factory.hpp:77] Creating layer conv2_18_0
I1206 21:25:21.686880 16251 net.cpp:128] Creating Layer conv2_18_0
I1206 21:25:21.686902 16251 net.cpp:558] conv2_18_0 <- conv2_Eltwise_17_conv2_17ReLU_1_0_split_0
I1206 21:25:21.686925 16251 net.cpp:522] conv2_18_0 -> conv2_18_0
I1206 21:25:21.688515 16251 net.cpp:172] Setting up conv2_18_0
I1206 21:25:21.688570 16251 net.cpp:186] Top shape: 32 16 32 32 (524288)
I1206 21:25:21.688591 16251 net.cpp:194] Memory required for data: 407240832
I1206 21:25:21.688621 16251 layer_factory.hpp:77] Creating layer conv2_18_bn0
I1206 21:25:21.688648 16251 net.cpp:128] Creating Layer conv2_18_bn0
I1206 21:25:21.688670 16251 net.cpp:558] conv2_18_bn0 <- conv2_18_0
I1206 21:25:21.688694 16251 net.cpp:509] conv2_18_bn0 -> conv2_18_0 (in-place)
I1206 21:25:21.689011 16251 net.cpp:172] Setting up conv2_18_bn0
I1206 21:25:21.689039 16251 net.cpp:186] Top shape: 32 16 32 32 (524288)
I1206 21:25:21.689060 16251 net.cpp:194] Memory required for data: 409337984
I1206 21:25:21.689088 16251 layer_factory.hpp:77] Creating layer conv2_18_scale0
I1206 21:25:21.689115 16251 net.cpp:128] Creating Layer conv2_18_scale0
I1206 21:25:21.689136 16251 net.cpp:558] conv2_18_scale0 <- conv2_18_0
I1206 21:25:21.689162 16251 net.cpp:509] conv2_18_scale0 -> conv2_18_0 (in-place)
I1206 21:25:21.689267 16251 layer_factory.hpp:77] Creating layer conv2_18_scale0
I1206 21:25:21.689467 16251 net.cpp:172] Setting up conv2_18_scale0
I1206 21:25:21.689496 16251 net.cpp:186] Top shape: 32 16 32 32 (524288)
I1206 21:25:21.689518 16251 net.cpp:194] Memory required for data: 411435136
I1206 21:25:21.689548 16251 layer_factory.hpp:77] Creating layer conv2_18_ReLU0
I1206 21:25:21.689575 16251 net.cpp:128] Creating Layer conv2_18_ReLU0
I1206 21:25:21.689599 16251 net.cpp:558] conv2_18_ReLU0 <- conv2_18_0
I1206 21:25:21.689627 16251 net.cpp:509] conv2_18_ReLU0 -> conv2_18_0 (in-place)
I1206 21:25:21.690213 16251 net.cpp:172] Setting up conv2_18_ReLU0
I1206 21:25:21.690261 16251 net.cpp:186] Top shape: 32 16 32 32 (524288)
I1206 21:25:21.690282 16251 net.cpp:194] Memory required for data: 413532288
I1206 21:25:21.690304 16251 layer_factory.hpp:77] Creating layer conv2_18_1
I1206 21:25:21.690337 16251 net.cpp:128] Creating Layer conv2_18_1
I1206 21:25:21.690359 16251 net.cpp:558] conv2_18_1 <- conv2_18_0
I1206 21:25:21.690395 16251 net.cpp:522] conv2_18_1 -> conv2_18_1
I1206 21:25:21.692400 16251 net.cpp:172] Setting up conv2_18_1
I1206 21:25:21.692456 16251 net.cpp:186] Top shape: 32 16 32 32 (524288)
I1206 21:25:21.692477 16251 net.cpp:194] Memory required for data: 415629440
I1206 21:25:21.692504 16251 layer_factory.hpp:77] Creating layer conv2_18bn1
I1206 21:25:21.692530 16251 net.cpp:128] Creating Layer conv2_18bn1
I1206 21:25:21.692551 16251 net.cpp:558] conv2_18bn1 <- conv2_18_1
I1206 21:25:21.692577 16251 net.cpp:509] conv2_18bn1 -> conv2_18_1 (in-place)
I1206 21:25:21.692889 16251 net.cpp:172] Setting up conv2_18bn1
I1206 21:25:21.692917 16251 net.cpp:186] Top shape: 32 16 32 32 (524288)
I1206 21:25:21.692950 16251 net.cpp:194] Memory required for data: 417726592
I1206 21:25:21.692997 16251 layer_factory.hpp:77] Creating layer conv2_18_scale1
I1206 21:25:21.693023 16251 net.cpp:128] Creating Layer conv2_18_scale1
I1206 21:25:21.693044 16251 net.cpp:558] conv2_18_scale1 <- conv2_18_1
I1206 21:25:21.693068 16251 net.cpp:509] conv2_18_scale1 -> conv2_18_1 (in-place)
I1206 21:25:21.693146 16251 layer_factory.hpp:77] Creating layer conv2_18_scale1
I1206 21:25:21.693325 16251 net.cpp:172] Setting up conv2_18_scale1
I1206 21:25:21.693354 16251 net.cpp:186] Top shape: 32 16 32 32 (524288)
I1206 21:25:21.693374 16251 net.cpp:194] Memory required for data: 419823744
I1206 21:25:21.693400 16251 layer_factory.hpp:77] Creating layer conv2_Eltwise_18
I1206 21:25:21.693425 16251 net.cpp:128] Creating Layer conv2_Eltwise_18
I1206 21:25:21.693447 16251 net.cpp:558] conv2_Eltwise_18 <- conv2_Eltwise_17_conv2_17ReLU_1_0_split_1
I1206 21:25:21.693470 16251 net.cpp:558] conv2_Eltwise_18 <- conv2_18_1
I1206 21:25:21.693497 16251 net.cpp:522] conv2_Eltwise_18 -> conv2_Eltwise_18
I1206 21:25:21.693552 16251 net.cpp:172] Setting up conv2_Eltwise_18
I1206 21:25:21.693580 16251 net.cpp:186] Top shape: 32 16 32 32 (524288)
I1206 21:25:21.693600 16251 net.cpp:194] Memory required for data: 421920896
I1206 21:25:21.693620 16251 layer_factory.hpp:77] Creating layer conv2_18ReLU_1
I1206 21:25:21.693645 16251 net.cpp:128] Creating Layer conv2_18ReLU_1
I1206 21:25:21.693665 16251 net.cpp:558] conv2_18ReLU_1 <- conv2_Eltwise_18
I1206 21:25:21.693687 16251 net.cpp:509] conv2_18ReLU_1 -> conv2_Eltwise_18 (in-place)
I1206 21:25:21.694502 16251 net.cpp:172] Setting up conv2_18ReLU_1
I1206 21:25:21.694546 16251 net.cpp:186] Top shape: 32 16 32 32 (524288)
I1206 21:25:21.694567 16251 net.cpp:194] Memory required for data: 424018048
I1206 21:25:21.694588 16251 layer_factory.hpp:77] Creating layer conv2_Eltwise_18_conv2_18ReLU_1_0_split
I1206 21:25:21.694612 16251 net.cpp:128] Creating Layer conv2_Eltwise_18_conv2_18ReLU_1_0_split
I1206 21:25:21.694633 16251 net.cpp:558] conv2_Eltwise_18_conv2_18ReLU_1_0_split <- conv2_Eltwise_18
I1206 21:25:21.694659 16251 net.cpp:522] conv2_Eltwise_18_conv2_18ReLU_1_0_split -> conv2_Eltwise_18_conv2_18ReLU_1_0_split_0
I1206 21:25:21.694686 16251 net.cpp:522] conv2_Eltwise_18_conv2_18ReLU_1_0_split -> conv2_Eltwise_18_conv2_18ReLU_1_0_split_1
I1206 21:25:21.694764 16251 net.cpp:172] Setting up conv2_Eltwise_18_conv2_18ReLU_1_0_split
I1206 21:25:21.694789 16251 net.cpp:186] Top shape: 32 16 32 32 (524288)
I1206 21:25:21.694813 16251 net.cpp:186] Top shape: 32 16 32 32 (524288)
I1206 21:25:21.694833 16251 net.cpp:194] Memory required for data: 428212352
I1206 21:25:21.694854 16251 layer_factory.hpp:77] Creating layer conv3_1_0
I1206 21:25:21.694886 16251 net.cpp:128] Creating Layer conv3_1_0
I1206 21:25:21.694907 16251 net.cpp:558] conv3_1_0 <- conv2_Eltwise_18_conv2_18ReLU_1_0_split_0
I1206 21:25:21.694932 16251 net.cpp:522] conv3_1_0 -> conv3_1_0
I1206 21:25:21.698278 16251 net.cpp:172] Setting up conv3_1_0
I1206 21:25:21.698341 16251 net.cpp:186] Top shape: 32 32 16 16 (262144)
I1206 21:25:21.698362 16251 net.cpp:194] Memory required for data: 429260928
I1206 21:25:21.698392 16251 layer_factory.hpp:77] Creating layer conv3_1_bn0
I1206 21:25:21.698421 16251 net.cpp:128] Creating Layer conv3_1_bn0
I1206 21:25:21.698451 16251 net.cpp:558] conv3_1_bn0 <- conv3_1_0
I1206 21:25:21.698475 16251 net.cpp:509] conv3_1_bn0 -> conv3_1_0 (in-place)
I1206 21:25:21.698781 16251 net.cpp:172] Setting up conv3_1_bn0
I1206 21:25:21.698810 16251 net.cpp:186] Top shape: 32 32 16 16 (262144)
I1206 21:25:21.698829 16251 net.cpp:194] Memory required for data: 430309504
I1206 21:25:21.698856 16251 layer_factory.hpp:77] Creating layer conv3_1_scale0
I1206 21:25:21.698882 16251 net.cpp:128] Creating Layer conv3_1_scale0
I1206 21:25:21.698904 16251 net.cpp:558] conv3_1_scale0 <- conv3_1_0
I1206 21:25:21.698925 16251 net.cpp:509] conv3_1_scale0 -> conv3_1_0 (in-place)
I1206 21:25:21.698999 16251 layer_factory.hpp:77] Creating layer conv3_1_scale0
I1206 21:25:21.699193 16251 net.cpp:172] Setting up conv3_1_scale0
I1206 21:25:21.699218 16251 net.cpp:186] Top shape: 32 32 16 16 (262144)
I1206 21:25:21.699239 16251 net.cpp:194] Memory required for data: 431358080
I1206 21:25:21.699263 16251 layer_factory.hpp:77] Creating layer conv3_1_ReLU0
I1206 21:25:21.699286 16251 net.cpp:128] Creating Layer conv3_1_ReLU0
I1206 21:25:21.699306 16251 net.cpp:558] conv3_1_ReLU0 <- conv3_1_0
I1206 21:25:21.699331 16251 net.cpp:509] conv3_1_ReLU0 -> conv3_1_0 (in-place)
I1206 21:25:21.700204 16251 net.cpp:172] Setting up conv3_1_ReLU0
I1206 21:25:21.700248 16251 net.cpp:186] Top shape: 32 32 16 16 (262144)
I1206 21:25:21.700268 16251 net.cpp:194] Memory required for data: 432406656
I1206 21:25:21.700289 16251 layer_factory.hpp:77] Creating layer conv3_1_1
I1206 21:25:21.700320 16251 net.cpp:128] Creating Layer conv3_1_1
I1206 21:25:21.700341 16251 net.cpp:558] conv3_1_1 <- conv3_1_0
I1206 21:25:21.700367 16251 net.cpp:522] conv3_1_1 -> conv3_1_1
I1206 21:25:21.704306 16251 net.cpp:172] Setting up conv3_1_1
I1206 21:25:21.704354 16251 net.cpp:186] Top shape: 32 32 16 16 (262144)
I1206 21:25:21.704375 16251 net.cpp:194] Memory required for data: 433455232
I1206 21:25:21.704401 16251 layer_factory.hpp:77] Creating layer conv3_1bn1
I1206 21:25:21.704428 16251 net.cpp:128] Creating Layer conv3_1bn1
I1206 21:25:21.704448 16251 net.cpp:558] conv3_1bn1 <- conv3_1_1
I1206 21:25:21.704473 16251 net.cpp:509] conv3_1bn1 -> conv3_1_1 (in-place)
I1206 21:25:21.704771 16251 net.cpp:172] Setting up conv3_1bn1
I1206 21:25:21.704797 16251 net.cpp:186] Top shape: 32 32 16 16 (262144)
I1206 21:25:21.704816 16251 net.cpp:194] Memory required for data: 434503808
I1206 21:25:21.704843 16251 layer_factory.hpp:77] Creating layer conv3_1_scale1
I1206 21:25:21.704867 16251 net.cpp:128] Creating Layer conv3_1_scale1
I1206 21:25:21.704888 16251 net.cpp:558] conv3_1_scale1 <- conv3_1_1
I1206 21:25:21.704911 16251 net.cpp:509] conv3_1_scale1 -> conv3_1_1 (in-place)
I1206 21:25:21.704983 16251 layer_factory.hpp:77] Creating layer conv3_1_scale1
I1206 21:25:21.705164 16251 net.cpp:172] Setting up conv3_1_scale1
I1206 21:25:21.705190 16251 net.cpp:186] Top shape: 32 32 16 16 (262144)
I1206 21:25:21.705210 16251 net.cpp:194] Memory required for data: 435552384
I1206 21:25:21.705235 16251 layer_factory.hpp:77] Creating layer conv3_1_down
I1206 21:25:21.705265 16251 net.cpp:128] Creating Layer conv3_1_down
I1206 21:25:21.705288 16251 net.cpp:558] conv3_1_down <- conv2_Eltwise_18_conv2_18ReLU_1_0_split_1
I1206 21:25:21.705312 16251 net.cpp:522] conv3_1_down -> conv3_1_down
I1206 21:25:21.709553 16251 net.cpp:172] Setting up conv3_1_down
I1206 21:25:21.709602 16251 net.cpp:186] Top shape: 32 32 16 16 (262144)
I1206 21:25:21.709623 16251 net.cpp:194] Memory required for data: 436600960
I1206 21:25:21.709650 16251 layer_factory.hpp:77] Creating layer conv3_1_bn_down
I1206 21:25:21.709676 16251 net.cpp:128] Creating Layer conv3_1_bn_down
I1206 21:25:21.709697 16251 net.cpp:558] conv3_1_bn_down <- conv3_1_down
I1206 21:25:21.709722 16251 net.cpp:509] conv3_1_bn_down -> conv3_1_down (in-place)
I1206 21:25:21.710019 16251 net.cpp:172] Setting up conv3_1_bn_down
I1206 21:25:21.710045 16251 net.cpp:186] Top shape: 32 32 16 16 (262144)
I1206 21:25:21.710064 16251 net.cpp:194] Memory required for data: 437649536
I1206 21:25:21.710098 16251 layer_factory.hpp:77] Creating layer conv3_1_scale_down
I1206 21:25:21.710122 16251 net.cpp:128] Creating Layer conv3_1_scale_down
I1206 21:25:21.710144 16251 net.cpp:558] conv3_1_scale_down <- conv3_1_down
I1206 21:25:21.710165 16251 net.cpp:509] conv3_1_scale_down -> conv3_1_down (in-place)
I1206 21:25:21.710239 16251 layer_factory.hpp:77] Creating layer conv3_1_scale_down
I1206 21:25:21.710422 16251 net.cpp:172] Setting up conv3_1_scale_down
I1206 21:25:21.710446 16251 net.cpp:186] Top shape: 32 32 16 16 (262144)
I1206 21:25:21.710467 16251 net.cpp:194] Memory required for data: 438698112
I1206 21:25:21.710492 16251 layer_factory.hpp:77] Creating layer conv3_Eltwise_1
I1206 21:25:21.710527 16251 net.cpp:128] Creating Layer conv3_Eltwise_1
I1206 21:25:21.710549 16251 net.cpp:558] conv3_Eltwise_1 <- conv3_1_1
I1206 21:25:21.710570 16251 net.cpp:558] conv3_Eltwise_1 <- conv3_1_down
I1206 21:25:21.710593 16251 net.cpp:522] conv3_Eltwise_1 -> conv3_Eltwise_1
I1206 21:25:21.710644 16251 net.cpp:172] Setting up conv3_Eltwise_1
I1206 21:25:21.710669 16251 net.cpp:186] Top shape: 32 32 16 16 (262144)
I1206 21:25:21.710690 16251 net.cpp:194] Memory required for data: 439746688
I1206 21:25:21.710710 16251 layer_factory.hpp:77] Creating layer conv3_1ReLU_1
I1206 21:25:21.710731 16251 net.cpp:128] Creating Layer conv3_1ReLU_1
I1206 21:25:21.710752 16251 net.cpp:558] conv3_1ReLU_1 <- conv3_Eltwise_1
I1206 21:25:21.710775 16251 net.cpp:509] conv3_1ReLU_1 -> conv3_Eltwise_1 (in-place)
I1206 21:25:21.711377 16251 net.cpp:172] Setting up conv3_1ReLU_1
I1206 21:25:21.711411 16251 net.cpp:186] Top shape: 32 32 16 16 (262144)
I1206 21:25:21.711431 16251 net.cpp:194] Memory required for data: 440795264
I1206 21:25:21.711452 16251 layer_factory.hpp:77] Creating layer conv3_Eltwise_1_conv3_1ReLU_1_0_split
I1206 21:25:21.711477 16251 net.cpp:128] Creating Layer conv3_Eltwise_1_conv3_1ReLU_1_0_split
I1206 21:25:21.711498 16251 net.cpp:558] conv3_Eltwise_1_conv3_1ReLU_1_0_split <- conv3_Eltwise_1
I1206 21:25:21.711522 16251 net.cpp:522] conv3_Eltwise_1_conv3_1ReLU_1_0_split -> conv3_Eltwise_1_conv3_1ReLU_1_0_split_0
I1206 21:25:21.711549 16251 net.cpp:522] conv3_Eltwise_1_conv3_1ReLU_1_0_split -> conv3_Eltwise_1_conv3_1ReLU_1_0_split_1
I1206 21:25:21.711630 16251 net.cpp:172] Setting up conv3_Eltwise_1_conv3_1ReLU_1_0_split
I1206 21:25:21.711655 16251 net.cpp:186] Top shape: 32 32 16 16 (262144)
I1206 21:25:21.711678 16251 net.cpp:186] Top shape: 32 32 16 16 (262144)
I1206 21:25:21.711697 16251 net.cpp:194] Memory required for data: 442892416
I1206 21:25:21.711717 16251 layer_factory.hpp:77] Creating layer conv3_2_0
I1206 21:25:21.711746 16251 net.cpp:128] Creating Layer conv3_2_0
I1206 21:25:21.711766 16251 net.cpp:558] conv3_2_0 <- conv3_Eltwise_1_conv3_1ReLU_1_0_split_0
I1206 21:25:21.711792 16251 net.cpp:522] conv3_2_0 -> conv3_2_0
I1206 21:25:21.717077 16251 net.cpp:172] Setting up conv3_2_0
I1206 21:25:21.717125 16251 net.cpp:186] Top shape: 32 32 16 16 (262144)
I1206 21:25:21.717145 16251 net.cpp:194] Memory required for data: 443940992
I1206 21:25:21.717172 16251 layer_factory.hpp:77] Creating layer conv3_2_bn0
I1206 21:25:21.717198 16251 net.cpp:128] Creating Layer conv3_2_bn0
I1206 21:25:21.717219 16251 net.cpp:558] conv3_2_bn0 <- conv3_2_0
I1206 21:25:21.717245 16251 net.cpp:509] conv3_2_bn0 -> conv3_2_0 (in-place)
I1206 21:25:21.717543 16251 net.cpp:172] Setting up conv3_2_bn0
I1206 21:25:21.717568 16251 net.cpp:186] Top shape: 32 32 16 16 (262144)
I1206 21:25:21.717588 16251 net.cpp:194] Memory required for data: 444989568
I1206 21:25:21.717615 16251 layer_factory.hpp:77] Creating layer conv3_2_scale0
I1206 21:25:21.717641 16251 net.cpp:128] Creating Layer conv3_2_scale0
I1206 21:25:21.717662 16251 net.cpp:558] conv3_2_scale0 <- conv3_2_0
I1206 21:25:21.717684 16251 net.cpp:509] conv3_2_scale0 -> conv3_2_0 (in-place)
I1206 21:25:21.717758 16251 layer_factory.hpp:77] Creating layer conv3_2_scale0
I1206 21:25:21.717936 16251 net.cpp:172] Setting up conv3_2_scale0
I1206 21:25:21.717962 16251 net.cpp:186] Top shape: 32 32 16 16 (262144)
I1206 21:25:21.717988 16251 net.cpp:194] Memory required for data: 446038144
I1206 21:25:21.718013 16251 layer_factory.hpp:77] Creating layer conv3_2_ReLU0
I1206 21:25:21.718037 16251 net.cpp:128] Creating Layer conv3_2_ReLU0
I1206 21:25:21.718057 16251 net.cpp:558] conv3_2_ReLU0 <- conv3_2_0
I1206 21:25:21.718080 16251 net.cpp:509] conv3_2_ReLU0 -> conv3_2_0 (in-place)
I1206 21:25:21.719221 16251 net.cpp:172] Setting up conv3_2_ReLU0
I1206 21:25:21.719271 16251 net.cpp:186] Top shape: 32 32 16 16 (262144)
I1206 21:25:21.719292 16251 net.cpp:194] Memory required for data: 447086720
I1206 21:25:21.719313 16251 layer_factory.hpp:77] Creating layer conv3_2_1
I1206 21:25:21.719354 16251 net.cpp:128] Creating Layer conv3_2_1
I1206 21:25:21.719375 16251 net.cpp:558] conv3_2_1 <- conv3_2_0
I1206 21:25:21.719403 16251 net.cpp:522] conv3_2_1 -> conv3_2_1
I1206 21:25:21.721000 16251 net.cpp:172] Setting up conv3_2_1
I1206 21:25:21.721051 16251 net.cpp:186] Top shape: 32 32 16 16 (262144)
I1206 21:25:21.721072 16251 net.cpp:194] Memory required for data: 448135296
I1206 21:25:21.721099 16251 layer_factory.hpp:77] Creating layer conv3_2bn1
I1206 21:25:21.721127 16251 net.cpp:128] Creating Layer conv3_2bn1
I1206 21:25:21.721148 16251 net.cpp:558] conv3_2bn1 <- conv3_2_1
I1206 21:25:21.721174 16251 net.cpp:509] conv3_2bn1 -> conv3_2_1 (in-place)
I1206 21:25:21.721482 16251 net.cpp:172] Setting up conv3_2bn1
I1206 21:25:21.721508 16251 net.cpp:186] Top shape: 32 32 16 16 (262144)
I1206 21:25:21.721527 16251 net.cpp:194] Memory required for data: 449183872
I1206 21:25:21.721554 16251 layer_factory.hpp:77] Creating layer conv3_2_scale1
I1206 21:25:21.721576 16251 net.cpp:128] Creating Layer conv3_2_scale1
I1206 21:25:21.721597 16251 net.cpp:558] conv3_2_scale1 <- conv3_2_1
I1206 21:25:21.721618 16251 net.cpp:509] conv3_2_scale1 -> conv3_2_1 (in-place)
I1206 21:25:21.721693 16251 layer_factory.hpp:77] Creating layer conv3_2_scale1
I1206 21:25:21.721873 16251 net.cpp:172] Setting up conv3_2_scale1
I1206 21:25:21.721899 16251 net.cpp:186] Top shape: 32 32 16 16 (262144)
I1206 21:25:21.721918 16251 net.cpp:194] Memory required for data: 450232448
I1206 21:25:21.721943 16251 layer_factory.hpp:77] Creating layer conv3_Eltwise_2
I1206 21:25:21.721969 16251 net.cpp:128] Creating Layer conv3_Eltwise_2
I1206 21:25:21.721990 16251 net.cpp:558] conv3_Eltwise_2 <- conv3_Eltwise_1_conv3_1ReLU_1_0_split_1
I1206 21:25:21.722012 16251 net.cpp:558] conv3_Eltwise_2 <- conv3_2_1
I1206 21:25:21.722035 16251 net.cpp:522] conv3_Eltwise_2 -> conv3_Eltwise_2
I1206 21:25:21.722081 16251 net.cpp:172] Setting up conv3_Eltwise_2
I1206 21:25:21.722105 16251 net.cpp:186] Top shape: 32 32 16 16 (262144)
I1206 21:25:21.722124 16251 net.cpp:194] Memory required for data: 451281024
I1206 21:25:21.722144 16251 layer_factory.hpp:77] Creating layer conv3_2ReLU_1
I1206 21:25:21.722169 16251 net.cpp:128] Creating Layer conv3_2ReLU_1
I1206 21:25:21.722190 16251 net.cpp:558] conv3_2ReLU_1 <- conv3_Eltwise_2
I1206 21:25:21.722213 16251 net.cpp:509] conv3_2ReLU_1 -> conv3_Eltwise_2 (in-place)
I1206 21:25:21.723129 16251 net.cpp:172] Setting up conv3_2ReLU_1
I1206 21:25:21.723163 16251 net.cpp:186] Top shape: 32 32 16 16 (262144)
I1206 21:25:21.723183 16251 net.cpp:194] Memory required for data: 452329600
I1206 21:25:21.723204 16251 layer_factory.hpp:77] Creating layer conv3_Eltwise_2_conv3_2ReLU_1_0_split
I1206 21:25:21.723230 16251 net.cpp:128] Creating Layer conv3_Eltwise_2_conv3_2ReLU_1_0_split
I1206 21:25:21.723251 16251 net.cpp:558] conv3_Eltwise_2_conv3_2ReLU_1_0_split <- conv3_Eltwise_2
I1206 21:25:21.723276 16251 net.cpp:522] conv3_Eltwise_2_conv3_2ReLU_1_0_split -> conv3_Eltwise_2_conv3_2ReLU_1_0_split_0
I1206 21:25:21.723304 16251 net.cpp:522] conv3_Eltwise_2_conv3_2ReLU_1_0_split -> conv3_Eltwise_2_conv3_2ReLU_1_0_split_1
I1206 21:25:21.723381 16251 net.cpp:172] Setting up conv3_Eltwise_2_conv3_2ReLU_1_0_split
I1206 21:25:21.723407 16251 net.cpp:186] Top shape: 32 32 16 16 (262144)
I1206 21:25:21.723428 16251 net.cpp:186] Top shape: 32 32 16 16 (262144)
I1206 21:25:21.723454 16251 net.cpp:194] Memory required for data: 454426752
I1206 21:25:21.723474 16251 layer_factory.hpp:77] Creating layer conv3_3_0
I1206 21:25:21.723503 16251 net.cpp:128] Creating Layer conv3_3_0
I1206 21:25:21.723525 16251 net.cpp:558] conv3_3_0 <- conv3_Eltwise_2_conv3_2ReLU_1_0_split_0
I1206 21:25:21.723551 16251 net.cpp:522] conv3_3_0 -> conv3_3_0
…
I1206 21:25:22.761746 16251 net.cpp:128] Creating Layer conv4_10bn1
I1206 21:25:22.761765 16251 net.cpp:558] conv4_10bn1 <- conv4_10_1
I1206 21:25:22.761785 16251 net.cpp:509] conv4_10bn1 -> conv4_10_1 (in-place)
I1206 21:25:22.762079 16251 net.cpp:172] Setting up conv4_10bn1
I1206 21:25:22.762101 16251 net.cpp:186] Top shape: 20 64 8 8 (81920)
I1206 21:25:22.762117 16251 net.cpp:194] Memory required for data: 434749680
I1206 21:25:22.762140 16251 layer_factory.hpp:77] Creating layer conv4_10_scale1
I1206 21:25:22.762159 16251 net.cpp:128] Creating Layer conv4_10_scale1
I1206 21:25:22.762176 16251 net.cpp:558] conv4_10_scale1 <- conv4_10_1
I1206 21:25:22.762197 16251 net.cpp:509] conv4_10_scale1 -> conv4_10_1 (in-place)
I1206 21:25:22.762269 16251 layer_factory.hpp:77] Creating layer conv4_10_scale1
I1206 21:25:22.762444 16251 net.cpp:172] Setting up conv4_10_scale1
I1206 21:25:22.762465 16251 net.cpp:186] Top shape: 20 64 8 8 (81920)
I1206 21:25:22.762480 16251 net.cpp:194] Memory required for data: 435077360
I1206 21:25:22.762501 16251 layer_factory.hpp:77] Creating layer conv4_Eltwise_10
I1206 21:25:22.762524 16251 net.cpp:128] Creating Layer conv4_Eltwise_10
I1206 21:25:22.762542 16251 net.cpp:558] conv4_Eltwise_10 <- conv4_Eltwise_9_conv4_9ReLU_1_0_split_1
I1206 21:25:22.762559 16251 net.cpp:558] conv4_Eltwise_10 <- conv4_10_1
I1206 21:25:22.762581 16251 net.cpp:522] conv4_Eltwise_10 -> conv4_Eltwise_10
I1206 21:25:22.762629 16251 net.cpp:172] Setting up conv4_Eltwise_10
I1206 21:25:22.762647 16251 net.cpp:186] Top shape: 20 64 8 8 (81920)
I1206 21:25:22.762663 16251 net.cpp:194] Memory required for data: 435405040
I1206 21:25:22.762679 16251 layer_factory.hpp:77] Creating layer conv4_10ReLU_1
I1206 21:25:22.762701 16251 net.cpp:128] Creating Layer conv4_10ReLU_1
I1206 21:25:22.762717 16251 net.cpp:558] conv4_10ReLU_1 <- conv4_Eltwise_10
I1206 21:25:22.762737 16251 net.cpp:509] conv4_10ReLU_1 -> conv4_Eltwise_10 (in-place)
I1206 21:25:22.763062 16251 net.cpp:172] Setting up conv4_10ReLU_1
I1206 21:25:22.763097 16251 net.cpp:186] Top shape: 20 64 8 8 (81920)
I1206 21:25:22.763113 16251 net.cpp:194] Memory required for data: 435732720
I1206 21:25:22.763130 16251 layer_factory.hpp:77] Creating layer conv4_Eltwise_10_conv4_10ReLU_1_0_split
I1206 21:25:22.763152 16251 net.cpp:128] Creating Layer conv4_Eltwise_10_conv4_10ReLU_1_0_split
I1206 21:25:22.763170 16251 net.cpp:558] conv4_Eltwise_10_conv4_10ReLU_1_0_split <- conv4_Eltwise_10
I1206 21:25:22.763190 16251 net.cpp:522] conv4_Eltwise_10_conv4_10ReLU_1_0_split -> conv4_Eltwise_10_conv4_10ReLU_1_0_split_0
I1206 21:25:22.763216 16251 net.cpp:522] conv4_Eltwise_10_conv4_10ReLU_1_0_split -> conv4_Eltwise_10_conv4_10ReLU_1_0_split_1
I1206 21:25:22.763288 16251 net.cpp:172] Setting up conv4_Eltwise_10_conv4_10ReLU_1_0_split
I1206 21:25:22.763310 16251 net.cpp:186] Top shape: 20 64 8 8 (81920)
I1206 21:25:22.763335 16251 net.cpp:186] Top shape: 20 64 8 8 (81920)
I1206 21:25:22.763351 16251 net.cpp:194] Memory required for data: 436388080
I1206 21:25:22.763367 16251 layer_factory.hpp:77] Creating layer conv4_11_0
I1206 21:25:22.763392 16251 net.cpp:128] Creating Layer conv4_11_0
I1206 21:25:22.763409 16251 net.cpp:558] conv4_11_0 <- conv4_Eltwise_10_conv4_10ReLU_1_0_split_0
I1206 21:25:22.763430 16251 net.cpp:522] conv4_11_0 -> conv4_11_0
I1206 21:25:22.766079 16251 net.cpp:172] Setting up conv4_11_0
I1206 21:25:22.766127 16251 net.cpp:186] Top shape: 20 64 8 8 (81920)
I1206 21:25:22.766144 16251 net.cpp:194] Memory required for data: 436715760
I1206 21:25:22.766177 16251 layer_factory.hpp:77] Creating layer conv4_11_bn0
I1206 21:25:22.766201 16251 net.cpp:128] Creating Layer conv4_11_bn0
I1206 21:25:22.766218 16251 net.cpp:558] conv4_11_bn0 <- conv4_11_0
I1206 21:25:22.766240 16251 net.cpp:509] conv4_11_bn0 -> conv4_11_0 (in-place)
I1206 21:25:22.766542 16251 net.cpp:172] Setting up conv4_11_bn0
I1206 21:25:22.766566 16251 net.cpp:186] Top shape: 20 64 8 8 (81920)
I1206 21:25:22.766582 16251 net.cpp:194] Memory required for data: 437043440
I1206 21:25:22.766603 16251 layer_factory.hpp:77] Creating layer conv4_11_scale0
I1206 21:25:22.766623 16251 net.cpp:128] Creating Layer conv4_11_scale0
I1206 21:25:22.766638 16251 net.cpp:558] conv4_11_scale0 <- conv4_11_0
I1206 21:25:22.766662 16251 net.cpp:509] conv4_11_scale0 -> conv4_11_0 (in-place)
I1206 21:25:22.766731 16251 layer_factory.hpp:77] Creating layer conv4_11_scale0
I1206 21:25:22.766906 16251 net.cpp:172] Setting up conv4_11_scale0
I1206 21:25:22.766928 16251 net.cpp:186] Top shape: 20 64 8 8 (81920)
I1206 21:25:22.766944 16251 net.cpp:194] Memory required for data: 437371120
I1206 21:25:22.766966 16251 layer_factory.hpp:77] Creating layer conv4_11_ReLU0
I1206 21:25:22.766985 16251 net.cpp:128] Creating Layer conv4_11_ReLU0
I1206 21:25:22.767001 16251 net.cpp:558] conv4_11_ReLU0 <- conv4_11_0
I1206 21:25:22.767021 16251 net.cpp:509] conv4_11_ReLU0 -> conv4_11_0 (in-place)
I1206 21:25:22.767359 16251 net.cpp:172] Setting up conv4_11_ReLU0
I1206 21:25:22.767393 16251 net.cpp:186] Top shape: 20 64 8 8 (81920)
I1206 21:25:22.767410 16251 net.cpp:194] Memory required for data: 437698800
I1206 21:25:22.767427 16251 layer_factory.hpp:77] Creating layer conv4_11_1
I1206 21:25:22.767455 16251 net.cpp:128] Creating Layer conv4_11_1
I1206 21:25:22.767472 16251 net.cpp:558] conv4_11_1 <- conv4_11_0
I1206 21:25:22.767496 16251 net.cpp:522] conv4_11_1 -> conv4_11_1
I1206 21:25:22.769680 16251 net.cpp:172] Setting up conv4_11_1
I1206 21:25:22.769726 16251 net.cpp:186] Top shape: 20 64 8 8 (81920)
I1206 21:25:22.769742 16251 net.cpp:194] Memory required for data: 438026480
I1206 21:25:22.769764 16251 layer_factory.hpp:77] Creating layer conv4_11bn1
I1206 21:25:22.769788 16251 net.cpp:128] Creating Layer conv4_11bn1
I1206 21:25:22.769805 16251 net.cpp:558] conv4_11bn1 <- conv4_11_1
I1206 21:25:22.769827 16251 net.cpp:509] conv4_11bn1 -> conv4_11_1 (in-place)
I1206 21:25:22.770115 16251 net.cpp:172] Setting up conv4_11bn1
I1206 21:25:22.770138 16251 net.cpp:186] Top shape: 20 64 8 8 (81920)
I1206 21:25:22.770153 16251 net.cpp:194] Memory required for data: 438354160
I1206 21:25:22.770175 16251 layer_factory.hpp:77] Creating layer conv4_11_scale1
I1206 21:25:22.770197 16251 net.cpp:128] Creating Layer conv4_11_scale1
I1206 21:25:22.770213 16251 net.cpp:558] conv4_11_scale1 <- conv4_11_1
I1206 21:25:22.770232 16251 net.cpp:509] conv4_11_scale1 -> conv4_11_1 (in-place)
I1206 21:25:22.770301 16251 layer_factory.hpp:77] Creating layer conv4_11_scale1
I1206 21:25:22.770480 16251 net.cpp:172] Setting up conv4_11_scale1
I1206 21:25:22.770503 16251 net.cpp:186] Top shape: 20 64 8 8 (81920)
I1206 21:25:22.770519 16251 net.cpp:194] Memory required for data: 438681840
I1206 21:25:22.770540 16251 layer_factory.hpp:77] Creating layer conv4_Eltwise_11
I1206 21:25:22.770560 16251 net.cpp:128] Creating Layer conv4_Eltwise_11
I1206 21:25:22.770577 16251 net.cpp:558] conv4_Eltwise_11 <- conv4_Eltwise_10_conv4_10ReLU_1_0_split_1
I1206 21:25:22.770601 16251 net.cpp:558] conv4_Eltwise_11 <- conv4_11_1
I1206 21:25:22.770623 16251 net.cpp:522] conv4_Eltwise_11 -> conv4_Eltwise_11
I1206 21:25:22.770674 16251 net.cpp:172] Setting up conv4_Eltwise_11
I1206 21:25:22.770694 16251 net.cpp:186] Top shape: 20 64 8 8 (81920)
I1206 21:25:22.770710 16251 net.cpp:194] Memory required for data: 439009520
I1206 21:25:22.770726 16251 layer_factory.hpp:77] Creating layer conv4_11ReLU_1
I1206 21:25:22.770745 16251 net.cpp:128] Creating Layer conv4_11ReLU_1
I1206 21:25:22.770762 16251 net.cpp:558] conv4_11ReLU_1 <- conv4_Eltwise_11
I1206 21:25:22.770781 16251 net.cpp:509] conv4_11ReLU_1 -> conv4_Eltwise_11 (in-place)
I1206 21:25:22.771386 16251 net.cpp:172] Setting up conv4_11ReLU_1
I1206 21:25:22.771428 16251 net.cpp:186] Top shape: 20 64 8 8 (81920)
I1206 21:25:22.771445 16251 net.cpp:194] Memory required for data: 439337200
I1206 21:25:22.771463 16251 layer_factory.hpp:77] Creating layer conv4_Eltwise_11_conv4_11ReLU_1_0_split
I1206 21:25:22.771483 16251 net.cpp:128] Creating Layer conv4_Eltwise_11_conv4_11ReLU_1_0_split
I1206 21:25:22.771502 16251 net.cpp:558] conv4_Eltwise_11_conv4_11ReLU_1_0_split <- conv4_Eltwise_11
I1206 21:25:22.771524 16251 net.cpp:522] conv4_Eltwise_11_conv4_11ReLU_1_0_split -> conv4_Eltwise_11_conv4_11ReLU_1_0_split_0
I1206 21:25:22.771548 16251 net.cpp:522] conv4_Eltwise_11_conv4_11ReLU_1_0_split -> conv4_Eltwise_11_conv4_11ReLU_1_0_split_1
I1206 21:25:22.771625 16251 net.cpp:172] Setting up conv4_Eltwise_11_conv4_11ReLU_1_0_split
I1206 21:25:22.771644 16251 net.cpp:186] Top shape: 20 64 8 8 (81920)
I1206 21:25:22.771662 16251 net.cpp:186] Top shape: 20 64 8 8 (81920)
I1206 21:25:22.771678 16251 net.cpp:194] Memory required for data: 439992560
I1206 21:25:22.771695 16251 layer_factory.hpp:77] Creating layer conv4_12_0
I1206 21:25:22.771719 16251 net.cpp:128] Creating Layer conv4_12_0
I1206 21:25:22.771737 16251 net.cpp:558] conv4_12_0 <- conv4_Eltwise_11_conv4_11ReLU_1_0_split_0
I1206 21:25:22.771759 16251 net.cpp:522] conv4_12_0 -> conv4_12_0
I1206 21:25:22.774169 16251 net.cpp:172] Setting up conv4_12_0
I1206 21:25:22.774219 16251 net.cpp:186] Top shape: 20 64 8 8 (81920)
I1206 21:25:22.774235 16251 net.cpp:194] Memory required for data: 440320240
I1206 21:25:22.774257 16251 layer_factory.hpp:77] Creating layer conv4_12_bn0
I1206 21:25:22.774281 16251 net.cpp:128] Creating Layer conv4_12_bn0
I1206 21:25:22.774297 16251 net.cpp:558] conv4_12_bn0 <- conv4_12_0
I1206 21:25:22.774317 16251 net.cpp:509] conv4_12_bn0 -> conv4_12_0 (in-place)
I1206 21:25:22.774618 16251 net.cpp:172] Setting up conv4_12_bn0
I1206 21:25:22.774641 16251 net.cpp:186] Top shape: 20 64 8 8 (81920)
I1206 21:25:22.774657 16251 net.cpp:194] Memory required for data: 440647920
I1206 21:25:22.774680 16251 layer_factory.hpp:77] Creating layer conv4_12_scale0
I1206 21:25:22.774701 16251 net.cpp:128] Creating Layer conv4_12_scale0
I1206 21:25:22.774718 16251 net.cpp:558] conv4_12_scale0 <- conv4_12_0
I1206 21:25:22.774735 16251 net.cpp:509] conv4_12_scale0 -> conv4_12_0 (in-place)
I1206 21:25:22.774804 16251 layer_factory.hpp:77] Creating layer conv4_12_scale0
I1206 21:25:22.774986 16251 net.cpp:172] Setting up conv4_12_scale0
I1206 21:25:22.775007 16251 net.cpp:186] Top shape: 20 64 8 8 (81920)
I1206 21:25:22.775023 16251 net.cpp:194] Memory required for data: 440975600
I1206 21:25:22.775044 16251 layer_factory.hpp:77] Creating layer conv4_12_ReLU0
I1206 21:25:22.775064 16251 net.cpp:128] Creating Layer conv4_12_ReLU0
I1206 21:25:22.775081 16251 net.cpp:558] conv4_12_ReLU0 <- conv4_12_0
I1206 21:25:22.775102 16251 net.cpp:509] conv4_12_ReLU0 -> conv4_12_0 (in-place)
I1206 21:25:22.775434 16251 net.cpp:172] Setting up conv4_12_ReLU0
I1206 21:25:22.775467 16251 net.cpp:186] Top shape: 20 64 8 8 (81920)
I1206 21:25:22.775483 16251 net.cpp:194] Memory required for data: 441303280
I1206 21:25:22.775501 16251 layer_factory.hpp:77] Creating layer conv4_12_1
I1206 21:25:22.775528 16251 net.cpp:128] Creating Layer conv4_12_1
I1206 21:25:22.775552 16251 net.cpp:558] conv4_12_1 <- conv4_12_0
I1206 21:25:22.775573 16251 net.cpp:522] conv4_12_1 -> conv4_12_1
I1206 21:25:22.778342 16251 net.cpp:172] Setting up conv4_12_1
I1206 21:25:22.778388 16251 net.cpp:186] Top shape: 20 64 8 8 (81920)
I1206 21:25:22.778404 16251 net.cpp:194] Memory required for data: 441630960
I1206 21:25:22.778429 16251 layer_factory.hpp:77] Creating layer conv4_12bn1
I1206 21:25:22.778448 16251 net.cpp:128] Creating Layer conv4_12bn1
I1206 21:25:22.778466 16251 net.cpp:558] conv4_12bn1 <- conv4_12_1
I1206 21:25:22.778486 16251 net.cpp:509] conv4_12bn1 -> conv4_12_1 (in-place)
I1206 21:25:22.778764 16251 net.cpp:172] Setting up conv4_12bn1
I1206 21:25:22.778797 16251 net.cpp:186] Top shape: 20 64 8 8 (81920)
I1206 21:25:22.778813 16251 net.cpp:194] Memory required for data: 441958640
I1206 21:25:22.778837 16251 layer_factory.hpp:77] Creating layer conv4_12_scale1
I1206 21:25:22.778856 16251 net.cpp:128] Creating Layer conv4_12_scale1
I1206 21:25:22.778873 16251 net.cpp:558] conv4_12_scale1 <- conv4_12_1
I1206 21:25:22.778892 16251 net.cpp:509] conv4_12_scale1 -> conv4_12_1 (in-place)
I1206 21:25:22.778960 16251 layer_factory.hpp:77] Creating layer conv4_12_scale1
I1206 21:25:22.779125 16251 net.cpp:172] Setting up conv4_12_scale1
I1206 21:25:22.779147 16251 net.cpp:186] Top shape: 20 64 8 8 (81920)
I1206 21:25:22.779163 16251 net.cpp:194] Memory required for data: 442286320
I1206 21:25:22.779184 16251 layer_factory.hpp:77] Creating layer conv4_Eltwise_12
I1206 21:25:22.779203 16251 net.cpp:128] Creating Layer conv4_Eltwise_12
I1206 21:25:22.779220 16251 net.cpp:558] conv4_Eltwise_12 <- conv4_Eltwise_11_conv4_11ReLU_1_0_split_1
I1206 21:25:22.779238 16251 net.cpp:558] conv4_Eltwise_12 <- conv4_12_1
I1206 21:25:22.779258 16251 net.cpp:522] conv4_Eltwise_12 -> conv4_Eltwise_12
I1206 21:25:22.779304 16251 net.cpp:172] Setting up conv4_Eltwise_12
I1206 21:25:22.779325 16251 net.cpp:186] Top shape: 20 64 8 8 (81920)
I1206 21:25:22.779340 16251 net.cpp:194] Memory required for data: 442614000
I1206 21:25:22.779356 16251 layer_factory.hpp:77] Creating layer conv4_12ReLU_1
I1206 21:25:22.779374 16251 net.cpp:128] Creating Layer conv4_12ReLU_1
I1206 21:25:22.779392 16251 net.cpp:558] conv4_12ReLU_1 <- conv4_Eltwise_12
I1206 21:25:22.779409 16251 net.cpp:509] conv4_12ReLU_1 -> conv4_Eltwise_12 (in-place)
I1206 21:25:22.779726 16251 net.cpp:172] Setting up conv4_12ReLU_1
I1206 21:25:22.779759 16251 net.cpp:186] Top shape: 20 64 8 8 (81920)
I1206 21:25:22.779775 16251 net.cpp:194] Memory required for data: 442941680
I1206 21:25:22.779793 16251 layer_factory.hpp:77] Creating layer conv4_Eltwise_12_conv4_12ReLU_1_0_split
I1206 21:25:22.779814 16251 net.cpp:128] Creating Layer conv4_Eltwise_12_conv4_12ReLU_1_0_split
I1206 21:25:22.779830 16251 net.cpp:558] conv4_Eltwise_12_conv4_12ReLU_1_0_split <- conv4_Eltwise_12
I1206 21:25:22.779850 16251 net.cpp:522] conv4_Eltwise_12_conv4_12ReLU_1_0_split -> conv4_Eltwise_12_conv4_12ReLU_1_0_split_0
I1206 21:25:22.779875 16251 net.cpp:522] conv4_Eltwise_12_conv4_12ReLU_1_0_split -> conv4_Eltwise_12_conv4_12ReLU_1_0_split_1
I1206 21:25:22.779944 16251 net.cpp:172] Setting up conv4_Eltwise_12_conv4_12ReLU_1_0_split
I1206 21:25:22.779965 16251 net.cpp:186] Top shape: 20 64 8 8 (81920)
I1206 21:25:22.779983 16251 net.cpp:186] Top shape: 20 64 8 8 (81920)
I1206 21:25:22.779999 16251 net.cpp:194] Memory required for data: 443597040
I1206 21:25:22.780015 16251 layer_factory.hpp:77] Creating layer conv4_13_0
I1206 21:25:22.780038 16251 net.cpp:128] Creating Layer conv4_13_0
I1206 21:25:22.780055 16251 net.cpp:558] conv4_13_0 <- conv4_Eltwise_12_conv4_12ReLU_1_0_split_0
I1206 21:25:22.780076 16251 net.cpp:522] conv4_13_0 -> conv4_13_0
I1206 21:25:22.782590 16251 net.cpp:172] Setting up conv4_13_0
I1206 21:25:22.782692 16251 net.cpp:186] Top shape: 20 64 8 8 (81920)
I1206 21:25:22.782711 16251 net.cpp:194] Memory required for data: 443924720
I1206 21:25:22.782745 16251 layer_factory.hpp:77] Creating layer conv4_13_bn0
I1206 21:25:22.782776 16251 net.cpp:128] Creating Layer conv4_13_bn0
I1206 21:25:22.782816 16251 net.cpp:558] conv4_13_bn0 <- conv4_13_0
I1206 21:25:22.782843 16251 net.cpp:509] conv4_13_bn0 -> conv4_13_0 (in-place)
I1206 21:25:22.783176 16251 net.cpp:172] Setting up conv4_13_bn0
I1206 21:25:22.783202 16251 net.cpp:186] Top shape: 20 64 8 8 (81920)
I1206 21:25:22.783219 16251 net.cpp:194] Memory required for data: 444252400
I1206 21:25:22.783244 16251 layer_factory.hpp:77] Creating layer conv4_13_scale0
I1206 21:25:22.783268 16251 net.cpp:128] Creating Layer conv4_13_scale0
I1206 21:25:22.783285 16251 net.cpp:558] conv4_13_scale0 <- conv4_13_0
I1206 21:25:22.783308 16251 net.cpp:509] conv4_13_scale0 -> conv4_13_0 (in-place)
I1206 21:25:22.783411 16251 layer_factory.hpp:77] Creating layer conv4_13_scale0
I1206 21:25:22.783605 16251 net.cpp:172] Setting up conv4_13_scale0
I1206 21:25:22.783628 16251 net.cpp:186] Top shape: 20 64 8 8 (81920)
I1206 21:25:22.783644 16251 net.cpp:194] Memory required for data: 444580080
I1206 21:25:22.783666 16251 layer_factory.hpp:77] Creating layer conv4_13_ReLU0
I1206 21:25:22.783686 16251 net.cpp:128] Creating Layer conv4_13_ReLU0
I1206 21:25:22.783704 16251 net.cpp:558] conv4_13_ReLU0 <- conv4_13_0
I1206 21:25:22.783725 16251 net.cpp:509] conv4_13_ReLU0 -> conv4_13_0 (in-place)
I1206 21:25:22.784112 16251 net.cpp:172] Setting up conv4_13_ReLU0
I1206 21:25:22.784149 16251 net.cpp:186] Top shape: 20 64 8 8 (81920)
I1206 21:25:22.784166 16251 net.cpp:194] Memory required for data: 444907760
I1206 21:25:22.784183 16251 layer_factory.hpp:77] Creating layer conv4_13_1
I1206 21:25:22.784211 16251 net.cpp:128] Creating Layer conv4_13_1
I1206 21:25:22.784240 16251 net.cpp:558] conv4_13_1 <- conv4_13_0
I1206 21:25:22.784265 16251 net.cpp:522] conv4_13_1 -> conv4_13_1
I1206 21:25:22.789554 16251 net.cpp:172] Setting up conv4_13_1
I1206 21:25:22.789610 16251 net.cpp:186] Top shape: 20 64 8 8 (81920)
I1206 21:25:22.789628 16251 net.cpp:194] Memory required for data: 445235440
I1206 21:25:22.789654 16251 layer_factory.hpp:77] Creating layer conv4_13bn1
I1206 21:25:22.789678 16251 net.cpp:128] Creating Layer conv4_13bn1
I1206 21:25:22.789697 16251 net.cpp:558] conv4_13bn1 <- conv4_13_1
I1206 21:25:22.789719 16251 net.cpp:509] conv4_13bn1 -> conv4_13_1 (in-place)
I1206 21:25:22.790022 16251 net.cpp:172] Setting up conv4_13bn1
I1206 21:25:22.790045 16251 net.cpp:186] Top shape: 20 64 8 8 (81920)
I1206 21:25:22.790061 16251 net.cpp:194] Memory required for data: 445563120
I1206 21:25:22.790084 16251 layer_factory.hpp:77] Creating layer conv4_13_scale1
I1206 21:25:22.790107 16251 net.cpp:128] Creating Layer conv4_13_scale1
I1206 21:25:22.790124 16251 net.cpp:558] conv4_13_scale1 <- conv4_13_1
I1206 21:25:22.790143 16251 net.cpp:509] conv4_13_scale1 -> conv4_13_1 (in-place)
I1206 21:25:22.790218 16251 layer_factory.hpp:77] Creating layer conv4_13_scale1
I1206 21:25:22.790401 16251 net.cpp:172] Setting up conv4_13_scale1
I1206 21:25:22.790424 16251 net.cpp:186] Top shape: 20 64 8 8 (81920)
I1206 21:25:22.790441 16251 net.cpp:194] Memory required for data: 445890800
I1206 21:25:22.790462 16251 layer_factory.hpp:77] Creating layer conv4_Eltwise_13
I1206 21:25:22.790482 16251 net.cpp:128] Creating Layer conv4_Eltwise_13
I1206 21:25:22.790500 16251 net.cpp:558] conv4_Eltwise_13 <- conv4_Eltwise_12_conv4_12ReLU_1_0_split_1
I1206 21:25:22.790518 16251 net.cpp:558] conv4_Eltwise_13 <- conv4_13_1
I1206 21:25:22.790541 16251 net.cpp:522] conv4_Eltwise_13 -> conv4_Eltwise_13
I1206 21:25:22.790592 16251 net.cpp:172] Setting up conv4_Eltwise_13
I1206 21:25:22.790613 16251 net.cpp:186] Top shape: 20 64 8 8 (81920)
I1206 21:25:22.790629 16251 net.cpp:194] Memory required for data: 446218480
I1206 21:25:22.790647 16251 layer_factory.hpp:77] Creating layer conv4_13ReLU_1
I1206 21:25:22.790665 16251 net.cpp:128] Creating Layer conv4_13ReLU_1
I1206 21:25:22.790681 16251 net.cpp:558] conv4_13ReLU_1 <- conv4_Eltwise_13
I1206 21:25:22.790699 16251 net.cpp:509] conv4_13ReLU_1 -> conv4_Eltwise_13 (in-place)
I1206 21:25:22.791365 16251 net.cpp:172] Setting up conv4_13ReLU_1
I1206 21:25:22.791429 16251 net.cpp:186] Top shape: 20 64 8 8 (81920)
I1206 21:25:22.791446 16251 net.cpp:194] Memory required for data: 446546160
I1206 21:25:22.791463 16251 layer_factory.hpp:77] Creating layer conv4_Eltwise_13_conv4_13ReLU_1_0_split
I1206 21:25:22.791484 16251 net.cpp:128] Creating Layer conv4_Eltwise_13_conv4_13ReLU_1_0_split
I1206 21:25:22.791501 16251 net.cpp:558] conv4_Eltwise_13_conv4_13ReLU_1_0_split <- conv4_Eltwise_13
I1206 21:25:22.791525 16251 net.cpp:522] conv4_Eltwise_13_conv4_13ReLU_1_0_split -> conv4_Eltwise_13_conv4_13ReLU_1_0_split_0
I1206 21:25:22.791548 16251 net.cpp:522] conv4_Eltwise_13_conv4_13ReLU_1_0_split -> conv4_Eltwise_13_conv4_13ReLU_1_0_split_1
I1206 21:25:22.791637 16251 net.cpp:172] Setting up conv4_Eltwise_13_conv4_13ReLU_1_0_split
I1206 21:25:22.791659 16251 net.cpp:186] Top shape: 20 64 8 8 (81920)
I1206 21:25:22.791678 16251 net.cpp:186] Top shape: 20 64 8 8 (81920)
I1206 21:25:22.791693 16251 net.cpp:194] Memory required for data: 447201520
I1206 21:25:22.791709 16251 layer_factory.hpp:77] Creating layer conv4_14_0
I1206 21:25:22.791738 16251 net.cpp:128] Creating Layer conv4_14_0
I1206 21:25:22.791754 16251 net.cpp:558] conv4_14_0 <- conv4_Eltwise_13_conv4_13ReLU_1_0_split_0
I1206 21:25:22.791779 16251 net.cpp:522] conv4_14_0 -> conv4_14_0
I1206 21:25:22.797122 16251 net.cpp:172] Setting up conv4_14_0
I1206 21:25:22.797168 16251 net.cpp:186] Top shape: 20 64 8 8 (81920)
I1206 21:25:22.797184 16251 net.cpp:194] Memory required for data: 447529200
I1206 21:25:22.797209 16251 layer_factory.hpp:77] Creating layer conv4_14_bn0
I1206 21:25:22.797232 16251 net.cpp:128] Creating Layer conv4_14_bn0
I1206 21:25:22.797250 16251 net.cpp:558] conv4_14_bn0 <- conv4_14_0
I1206 21:25:22.797271 16251 net.cpp:509] conv4_14_bn0 -> conv4_14_0 (in-place)
I1206 21:25:22.797582 16251 net.cpp:172] Setting up conv4_14_bn0
I1206 21:25:22.797605 16251 net.cpp:186] Top shape: 20 64 8 8 (81920)
I1206 21:25:22.797622 16251 net.cpp:194] Memory required for data: 447856880
I1206 21:25:22.797649 16251 layer_factory.hpp:77] Creating layer conv4_14_scale0
I1206 21:25:22.797673 16251 net.cpp:128] Creating Layer conv4_14_scale0
I1206 21:25:22.797693 16251 net.cpp:558] conv4_14_scale0 <- conv4_14_0
I1206 21:25:22.797711 16251 net.cpp:509] conv4_14_scale0 -> conv4_14_0 (in-place)
I1206 21:25:22.797791 16251 layer_factory.hpp:77] Creating layer conv4_14_scale0
I1206 21:25:22.797986 16251 net.cpp:172] Setting up conv4_14_scale0
I1206 21:25:22.798009 16251 net.cpp:186] Top shape: 20 64 8 8 (81920)
I1206 21:25:22.798025 16251 net.cpp:194] Memory required for data: 448184560
I1206 21:25:22.798048 16251 layer_factory.hpp:77] Creating layer conv4_14_ReLU0
I1206 21:25:22.798069 16251 net.cpp:128] Creating Layer conv4_14_ReLU0
I1206 21:25:22.798085 16251 net.cpp:558] conv4_14_ReLU0 <- conv4_14_0
I1206 21:25:22.798105 16251 net.cpp:509] conv4_14_ReLU0 -> conv4_14_0 (in-place)
I1206 21:25:22.798445 16251 net.cpp:172] Setting up conv4_14_ReLU0
I1206 21:25:22.798482 16251 net.cpp:186] Top shape: 20 64 8 8 (81920)
I1206 21:25:22.798499 16251 net.cpp:194] Memory required for data: 448512240
I1206 21:25:22.798516 16251 layer_factory.hpp:77] Creating layer conv4_14_1
I1206 21:25:22.798542 16251 net.cpp:128] Creating Layer conv4_14_1
I1206 21:25:22.798560 16251 net.cpp:558] conv4_14_1 <- conv4_14_0
I1206 21:25:22.798585 16251 net.cpp:522] conv4_14_1 -> conv4_14_1
I1206 21:25:22.802939 16251 net.cpp:172] Setting up conv4_14_1
I1206 21:25:22.802984 16251 net.cpp:186] Top shape: 20 64 8 8 (81920)
I1206 21:25:22.803000 16251 net.cpp:194] Memory required for data: 448839920
I1206 21:25:22.803025 16251 layer_factory.hpp:77] Creating layer conv4_14bn1
I1206 21:25:22.803046 16251 net.cpp:128] Creating Layer conv4_14bn1
I1206 21:25:22.803064 16251 net.cpp:558] conv4_14bn1 <- conv4_14_1
I1206 21:25:22.803086 16251 net.cpp:509] conv4_14bn1 -> conv4_14_1 (in-place)
I1206 21:25:22.803390 16251 net.cpp:172] Setting up conv4_14bn1
I1206 21:25:22.803411 16251 net.cpp:186] Top shape: 20 64 8 8 (81920)
I1206 21:25:22.803427 16251 net.cpp:194] Memory required for data: 449167600
I1206 21:25:22.803457 16251 layer_factory.hpp:77] Creating layer conv4_14_scale1
I1206 21:25:22.803478 16251 net.cpp:128] Creating Layer conv4_14_scale1
I1206 21:25:22.803493 16251 net.cpp:558] conv4_14_scale1 <- conv4_14_1
I1206 21:25:22.803511 16251 net.cpp:509] conv4_14_scale1 -> conv4_14_1 (in-place)
I1206 21:25:22.803586 16251 layer_factory.hpp:77] Creating layer conv4_14_scale1
I1206 21:25:22.803763 16251 net.cpp:172] Setting up conv4_14_scale1
I1206 21:25:22.803787 16251 net.cpp:186] Top shape: 20 64 8 8 (81920)
I1206 21:25:22.803803 16251 net.cpp:194] Memory required for data: 449495280
I1206 21:25:22.803823 16251 layer_factory.hpp:77] Creating layer conv4_Eltwise_14
I1206 21:25:22.803853 16251 net.cpp:128] Creating Layer conv4_Eltwise_14
I1206 21:25:22.803871 16251 net.cpp:558] conv4_Eltwise_14 <- conv4_Eltwise_13_conv4_13ReLU_1_0_split_1
I1206 21:25:22.803889 16251 net.cpp:558] conv4_Eltwise_14 <- conv4_14_1
I1206 21:25:22.803908 16251 net.cpp:522] conv4_Eltwise_14 -> conv4_Eltwise_14
I1206 21:25:22.803975 16251 net.cpp:172] Setting up conv4_Eltwise_14
I1206 21:25:22.803999 16251 net.cpp:186] Top shape: 20 64 8 8 (81920)
I1206 21:25:22.804015 16251 net.cpp:194] Memory required for data: 449822960
I1206 21:25:22.804033 16251 layer_factory.hpp:77] Creating layer conv4_14ReLU_1
I1206 21:25:22.804050 16251 net.cpp:128] Creating Layer conv4_14ReLU_1
I1206 21:25:22.804067 16251 net.cpp:558] conv4_14ReLU_1 <- conv4_Eltwise_14
I1206 21:25:22.804085 16251 net.cpp:509] conv4_14ReLU_1 -> conv4_Eltwise_14 (in-place)
I1206 21:25:22.804436 16251 net.cpp:172] Setting up conv4_14ReLU_1
I1206 21:25:22.804473 16251 net.cpp:186] Top shape: 20 64 8 8 (81920)
I1206 21:25:22.804491 16251 net.cpp:194] Memory required for data: 450150640
I1206 21:25:22.804507 16251 layer_factory.hpp:77] Creating layer conv4_Eltwise_14_conv4_14ReLU_1_0_split
I1206 21:25:22.804551 16251 net.cpp:128] Creating Layer conv4_Eltwise_14_conv4_14ReLU_1_0_split
I1206 21:25:22.804569 16251 net.cpp:558] conv4_Eltwise_14_conv4_14ReLU_1_0_split <- conv4_Eltwise_14
I1206 21:25:22.804589 16251 net.cpp:522] conv4_Eltwise_14_conv4_14ReLU_1_0_split -> conv4_Eltwise_14_conv4_14ReLU_1_0_split_0
I1206 21:25:22.804611 16251 net.cpp:522] conv4_Eltwise_14_conv4_14ReLU_1_0_split -> conv4_Eltwise_14_conv4_14ReLU_1_0_split_1
I1206 21:25:22.804687 16251 net.cpp:172] Setting up conv4_Eltwise_14_conv4_14ReLU_1_0_split
I1206 21:25:22.804708 16251 net.cpp:186] Top shape: 20 64 8 8 (81920)
I1206 21:25:22.804725 16251 net.cpp:186] Top shape: 20 64 8 8 (81920)
I1206 21:25:22.804740 16251 net.cpp:194] Memory required for data: 450806000
I1206 21:25:22.804757 16251 layer_factory.hpp:77] Creating layer conv4_15_0
I1206 21:25:22.804780 16251 net.cpp:128] Creating Layer conv4_15_0
I1206 21:25:22.804796 16251 net.cpp:558] conv4_15_0 <- conv4_Eltwise_14_conv4_14ReLU_1_0_split_0
I1206 21:25:22.804817 16251 net.cpp:522] conv4_15_0 -> conv4_15_0
I1206 21:25:22.810264 16251 net.cpp:172] Setting up conv4_15_0
I1206 21:25:22.810318 16251 net.cpp:186] Top shape: 20 64 8 8 (81920)
I1206 21:25:22.810335 16251 net.cpp:194] Memory required for data: 451133680
I1206 21:25:22.810360 16251 layer_factory.hpp:77] Creating layer conv4_15_bn0
I1206 21:25:22.810384 16251 net.cpp:128] Creating Layer conv4_15_bn0
I1206 21:25:22.810402 16251 net.cpp:558] conv4_15_bn0 <- conv4_15_0
I1206 21:25:22.810425 16251 net.cpp:509] conv4_15_bn0 -> conv4_15_0 (in-place)
I1206 21:25:22.810734 16251 net.cpp:172] Setting up conv4_15_bn0
I1206 21:25:22.810756 16251 net.cpp:186] Top shape: 20 64 8 8 (81920)
I1206 21:25:22.810772 16251 net.cpp:194] Memory required for data: 451461360
I1206 21:25:22.810796 16251 layer_factory.hpp:77] Creating layer conv4_15_scale0
I1206 21:25:22.810814 16251 net.cpp:128] Creating Layer conv4_15_scale0
I1206 21:25:22.810832 16251 net.cpp:558] conv4_15_scale0 <- conv4_15_0
I1206 21:25:22.810851 16251 net.cpp:509] conv4_15_scale0 -> conv4_15_0 (in-place)
I1206 21:25:22.810921 16251 layer_factory.hpp:77] Creating layer conv4_15_scale0
I1206 21:25:22.811115 16251 net.cpp:172] Setting up conv4_15_scale0
I1206 21:25:22.811136 16251 net.cpp:186] Top shape: 20 64 8 8 (81920)
I1206 21:25:22.811152 16251 net.cpp:194] Memory required for data: 451789040
I1206 21:25:22.811173 16251 layer_factory.hpp:77] Creating layer conv4_15_ReLU0
I1206 21:25:22.811192 16251 net.cpp:128] Creating Layer conv4_15_ReLU0
I1206 21:25:22.811209 16251 net.cpp:558] conv4_15_ReLU0 <- conv4_15_0
I1206 21:25:22.811229 16251 net.cpp:509] conv4_15_ReLU0 -> conv4_15_0 (in-place)
I1206 21:25:22.811844 16251 net.cpp:172] Setting up conv4_15_ReLU0
I1206 21:25:22.811889 16251 net.cpp:186] Top shape: 20 64 8 8 (81920)
I1206 21:25:22.811905 16251 net.cpp:194] Memory required for data: 452116720
I1206 21:25:22.811933 16251 layer_factory.hpp:77] Creating layer conv4_15_1
I1206 21:25:22.811960 16251 net.cpp:128] Creating Layer conv4_15_1
I1206 21:25:22.811978 16251 net.cpp:558] conv4_15_1 <- conv4_15_0
I1206 21:25:22.812001 16251 net.cpp:522] conv4_15_1 -> conv4_15_1
I1206 21:25:22.817239 16251 net.cpp:172] Setting up conv4_15_1
I1206 21:25:22.817284 16251 net.cpp:186] Top shape: 20 64 8 8 (81920)
I1206 21:25:22.817301 16251 net.cpp:194] Memory required for data: 452444400
I1206 21:25:22.817323 16251 layer_factory.hpp:77] Creating layer conv4_15bn1
I1206 21:25:22.817349 16251 net.cpp:128] Creating Layer conv4_15bn1
I1206 21:25:22.817366 16251 net.cpp:558] conv4_15bn1 <- conv4_15_1
I1206 21:25:22.817385 16251 net.cpp:509] conv4_15bn1 -> conv4_15_1 (in-place)
I1206 21:25:22.817687 16251 net.cpp:172] Setting up conv4_15bn1
I1206 21:25:22.817709 16251 net.cpp:186] Top shape: 20 64 8 8 (81920)
I1206 21:25:22.817724 16251 net.cpp:194] Memory required for data: 452772080
I1206 21:25:22.817747 16251 layer_factory.hpp:77] Creating layer conv4_15_scale1
I1206 21:25:22.817766 16251 net.cpp:128] Creating Layer conv4_15_scale1
I1206 21:25:22.817782 16251 net.cpp:558] conv4_15_scale1 <- conv4_15_1
I1206 21:25:22.817800 16251 net.cpp:509] conv4_15_scale1 -> conv4_15_1 (in-place)
I1206 21:25:22.817873 16251 layer_factory.hpp:77] Creating layer conv4_15_scale1
I1206 21:25:22.818053 16251 net.cpp:172] Setting up conv4_15_scale1
I1206 21:25:22.818074 16251 net.cpp:186] Top shape: 20 64 8 8 (81920)
I1206 21:25:22.818090 16251 net.cpp:194] Memory required for data: 453099760
I1206 21:25:22.818111 16251 layer_factory.hpp:77] Creating layer conv4_Eltwise_15
I1206 21:25:22.818131 16251 net.cpp:128] Creating Layer conv4_Eltwise_15
I1206 21:25:22.818150 16251 net.cpp:558] conv4_Eltwise_15 <- conv4_Eltwise_14_conv4_14ReLU_1_0_split_1
I1206 21:25:22.818166 16251 net.cpp:558] conv4_Eltwise_15 <- conv4_15_1
I1206 21:25:22.818189 16251 net.cpp:522] conv4_Eltwise_15 -> conv4_Eltwise_15
I1206 21:25:22.818240 16251 net.cpp:172] Setting up conv4_Eltwise_15
I1206 21:25:22.818260 16251 net.cpp:186] Top shape: 20 64 8 8 (81920)
I1206 21:25:22.818275 16251 net.cpp:194] Memory required for data: 453427440
I1206 21:25:22.818291 16251 layer_factory.hpp:77] Creating layer conv4_15ReLU_1
I1206 21:25:22.818310 16251 net.cpp:128] Creating Layer conv4_15ReLU_1
I1206 21:25:22.818326 16251 net.cpp:558] conv4_15ReLU_1 <- conv4_Eltwise_15
I1206 21:25:22.818344 16251 net.cpp:509] conv4_15ReLU_1 -> conv4_Eltwise_15 (in-place)
I1206 21:25:22.818681 16251 net.cpp:172] Setting up conv4_15ReLU_1
I1206 21:25:22.818723 16251 net.cpp:186] Top shape: 20 64 8 8 (81920)
I1206 21:25:22.818740 16251 net.cpp:194] Memory required for data: 453755120
I1206 21:25:22.818758 16251 layer_factory.hpp:77] Creating layer conv4_Eltwise_15_conv4_15ReLU_1_0_split
I1206 21:25:22.818778 16251 net.cpp:128] Creating Layer conv4_Eltwise_15_conv4_15ReLU_1_0_split
I1206 21:25:22.818795 16251 net.cpp:558] conv4_Eltwise_15_conv4_15ReLU_1_0_split <- conv4_Eltwise_15
I1206 21:25:22.818819 16251 net.cpp:522] conv4_Eltwise_15_conv4_15ReLU_1_0_split -> conv4_Eltwise_15_conv4_15ReLU_1_0_split_0
I1206 21:25:22.818841 16251 net.cpp:522] conv4_Eltwise_15_conv4_15ReLU_1_0_split -> conv4_Eltwise_15_conv4_15ReLU_1_0_split_1
I1206 21:25:22.818917 16251 net.cpp:172] Setting up conv4_Eltwise_15_conv4_15ReLU_1_0_split
I1206 21:25:22.818944 16251 net.cpp:186] Top shape: 20 64 8 8 (81920)
I1206 21:25:22.818964 16251 net.cpp:186] Top shape: 20 64 8 8 (81920)
I1206 21:25:22.818979 16251 net.cpp:194] Memory required for data: 454410480
I1206 21:25:22.818994 16251 layer_factory.hpp:77] Creating layer conv4_16_0
I1206 21:25:22.819021 16251 net.cpp:128] Creating Layer conv4_16_0
I1206 21:25:22.819038 16251 net.cpp:558] conv4_16_0 <- conv4_Eltwise_15_conv4_15ReLU_1_0_split_0
I1206 21:25:22.819062 16251 net.cpp:522] conv4_16_0 -> conv4_16_0
I1206 21:25:22.823073 16251 net.cpp:172] Setting up conv4_16_0
I1206 21:25:22.823117 16251 net.cpp:186] Top shape: 20 64 8 8 (81920)
I1206 21:25:22.823134 16251 net.cpp:194] Memory required for data: 454738160
I1206 21:25:22.823168 16251 layer_factory.hpp:77] Creating layer conv4_16_bn0
I1206 21:25:22.823189 16251 net.cpp:128] Creating Layer conv4_16_bn0
I1206 21:25:22.823206 16251 net.cpp:558] conv4_16_bn0 <- conv4_16_0
I1206 21:25:22.823228 16251 net.cpp:509] conv4_16_bn0 -> conv4_16_0 (in-place)
I1206 21:25:22.823539 16251 net.cpp:172] Setting up conv4_16_bn0
I1206 21:25:22.823561 16251 net.cpp:186] Top shape: 20 64 8 8 (81920)
I1206 21:25:22.823577 16251 net.cpp:194] Memory required for data: 455065840
I1206 21:25:22.823599 16251 layer_factory.hpp:77] Creating layer conv4_16_scale0
I1206 21:25:22.823621 16251 net.cpp:128] Creating Layer conv4_16_scale0
I1206 21:25:22.823637 16251 net.cpp:558] conv4_16_scale0 <- conv4_16_0
I1206 21:25:22.823655 16251 net.cpp:509] conv4_16_scale0 -> conv4_16_0 (in-place)
I1206 21:25:22.823725 16251 layer_factory.hpp:77] Creating layer conv4_16_scale0
I1206 21:25:22.823904 16251 net.cpp:172] Setting up conv4_16_scale0
I1206 21:25:22.823926 16251 net.cpp:186] Top shape: 20 64 8 8 (81920)
I1206 21:25:22.823942 16251 net.cpp:194] Memory required for data: 455393520
I1206 21:25:22.823963 16251 layer_factory.hpp:77] Creating layer conv4_16_ReLU0
I1206 21:25:22.823984 16251 net.cpp:128] Creating Layer conv4_16_ReLU0
I1206 21:25:22.824002 16251 net.cpp:558] conv4_16_ReLU0 <- conv4_16_0
I1206 21:25:22.824019 16251 net.cpp:509] conv4_16_ReLU0 -> conv4_16_0 (in-place)
I1206 21:25:22.825013 16251 net.cpp:172] Setting up conv4_16_ReLU0
I1206 21:25:22.825052 16251 net.cpp:186] Top shape: 20 64 8 8 (81920)
I1206 21:25:22.825068 16251 net.cpp:194] Memory required for data: 455721200
I1206 21:25:22.825085 16251 layer_factory.hpp:77] Creating layer conv4_16_1
I1206 21:25:22.825112 16251 net.cpp:128] Creating Layer conv4_16_1
I1206 21:25:22.825130 16251 net.cpp:558] conv4_16_1 <- conv4_16_0
I1206 21:25:22.825151 16251 net.cpp:522] conv4_16_1 -> conv4_16_1
I1206 21:25:22.831475 16251 net.cpp:172] Setting up conv4_16_1
I1206 21:25:22.831518 16251 net.cpp:186] Top shape: 20 64 8 8 (81920)
I1206 21:25:22.831535 16251 net.cpp:194] Memory required for data: 456048880
I1206 21:25:22.831558 16251 layer_factory.hpp:77] Creating layer conv4_16bn1
I1206 21:25:22.831581 16251 net.cpp:128] Creating Layer conv4_16bn1
I1206 21:25:22.831598 16251 net.cpp:558] conv4_16bn1 <- conv4_16_1
I1206 21:25:22.831619 16251 net.cpp:509] conv4_16bn1 -> conv4_16_1 (in-place)
I1206 21:25:22.831925 16251 net.cpp:172] Setting up conv4_16bn1
I1206 21:25:22.831946 16251 net.cpp:186] Top shape: 20 64 8 8 (81920)
I1206 21:25:22.831962 16251 net.cpp:194] Memory required for data: 456376560
I1206 21:25:22.831984 16251 layer_factory.hpp:77] Creating layer conv4_16_scale1
I1206 21:25:22.832003 16251 net.cpp:128] Creating Layer conv4_16_scale1
I1206 21:25:22.832020 16251 net.cpp:558] conv4_16_scale1 <- conv4_16_1
I1206 21:25:22.832037 16251 net.cpp:509] conv4_16_scale1 -> conv4_16_1 (in-place)
I1206 21:25:22.832110 16251 layer_factory.hpp:77] Creating layer conv4_16_scale1
I1206 21:25:22.832296 16251 net.cpp:172] Setting up conv4_16_scale1
I1206 21:25:22.832320 16251 net.cpp:186] Top shape: 20 64 8 8 (81920)
I1206 21:25:22.832335 16251 net.cpp:194] Memory required for data: 456704240
I1206 21:25:22.832357 16251 layer_factory.hpp:77] Creating layer conv4_Eltwise_16
I1206 21:25:22.832378 16251 net.cpp:128] Creating Layer conv4_Eltwise_16
I1206 21:25:22.832403 16251 net.cpp:558] conv4_Eltwise_16 <- conv4_Eltwise_15_conv4_15ReLU_1_0_split_1
I1206 21:25:22.832422 16251 net.cpp:558] conv4_Eltwise_16 <- conv4_16_1
I1206 21:25:22.832442 16251 net.cpp:522] conv4_Eltwise_16 -> conv4_Eltwise_16
I1206 21:25:22.832492 16251 net.cpp:172] Setting up conv4_Eltwise_16
I1206 21:25:22.832512 16251 net.cpp:186] Top shape: 20 64 8 8 (81920)
I1206 21:25:22.832528 16251 net.cpp:194] Memory required for data: 457031920
I1206 21:25:22.832545 16251 layer_factory.hpp:77] Creating layer conv4_16ReLU_1
I1206 21:25:22.832563 16251 net.cpp:128] Creating Layer conv4_16ReLU_1
I1206 21:25:22.832579 16251 net.cpp:558] conv4_16ReLU_1 <- conv4_Eltwise_16
I1206 21:25:22.832605 16251 net.cpp:509] conv4_16ReLU_1 -> conv4_Eltwise_16 (in-place)
I1206 21:25:22.833216 16251 net.cpp:172] Setting up conv4_16ReLU_1
I1206 21:25:22.833258 16251 net.cpp:186] Top shape: 20 64 8 8 (81920)
I1206 21:25:22.833274 16251 net.cpp:194] Memory required for data: 457359600
I1206 21:25:22.833292 16251 layer_factory.hpp:77] Creating layer conv4_Eltwise_16_conv4_16ReLU_1_0_split
I1206 21:25:22.833312 16251 net.cpp:128] Creating Layer conv4_Eltwise_16_conv4_16ReLU_1_0_split
I1206 21:25:22.833328 16251 net.cpp:558] conv4_Eltwise_16_conv4_16ReLU_1_0_split <- conv4_Eltwise_16
I1206 21:25:22.833353 16251 net.cpp:522] conv4_Eltwise_16_conv4_16ReLU_1_0_split -> conv4_Eltwise_16_conv4_16ReLU_1_0_split_0
I1206 21:25:22.833377 16251 net.cpp:522] conv4_Eltwise_16_conv4_16ReLU_1_0_split -> conv4_Eltwise_16_conv4_16ReLU_1_0_split_1
I1206 21:25:22.833453 16251 net.cpp:172] Setting up conv4_Eltwise_16_conv4_16ReLU_1_0_split
I1206 21:25:22.833474 16251 net.cpp:186] Top shape: 20 64 8 8 (81920)
I1206 21:25:22.833492 16251 net.cpp:186] Top shape: 20 64 8 8 (81920)
I1206 21:25:22.833508 16251 net.cpp:194] Memory required for data: 458014960
I1206 21:25:22.833524 16251 layer_factory.hpp:77] Creating layer conv4_17_0
I1206 21:25:22.833549 16251 net.cpp:128] Creating Layer conv4_17_0
I1206 21:25:22.833566 16251 net.cpp:558] conv4_17_0 <- conv4_Eltwise_16_conv4_16ReLU_1_0_split_0
I1206 21:25:22.833588 16251 net.cpp:522] conv4_17_0 -> conv4_17_0
I1206 21:25:22.839215 16251 net.cpp:172] Setting up conv4_17_0
I1206 21:25:22.839263 16251 net.cpp:186] Top shape: 20 64 8 8 (81920)
I1206 21:25:22.839280 16251 net.cpp:194] Memory required for data: 458342640
I1206 21:25:22.839303 16251 layer_factory.hpp:77] Creating layer conv4_17_bn0
I1206 21:25:22.839326 16251 net.cpp:128] Creating Layer conv4_17_bn0
I1206 21:25:22.839344 16251 net.cpp:558] conv4_17_bn0 <- conv4_17_0
I1206 21:25:22.839365 16251 net.cpp:509] conv4_17_bn0 -> conv4_17_0 (in-place)
I1206 21:25:22.839679 16251 net.cpp:172] Setting up conv4_17_bn0
I1206 21:25:22.839701 16251 net.cpp:186] Top shape: 20 64 8 8 (81920)
I1206 21:25:22.839717 16251 net.cpp:194] Memory required for data: 458670320
I1206 21:25:22.839740 16251 layer_factory.hpp:77] Creating layer conv4_17_scale0
I1206 21:25:22.839761 16251 net.cpp:128] Creating Layer conv4_17_scale0
I1206 21:25:22.839777 16251 net.cpp:558] conv4_17_scale0 <- conv4_17_0
I1206 21:25:22.839795 16251 net.cpp:509] conv4_17_scale0 -> conv4_17_0 (in-place)
I1206 21:25:22.839869 16251 layer_factory.hpp:77] Creating layer conv4_17_scale0
I1206 21:25:22.840054 16251 net.cpp:172] Setting up conv4_17_scale0
I1206 21:25:22.840076 16251 net.cpp:186] Top shape: 20 64 8 8 (81920)
I1206 21:25:22.840092 16251 net.cpp:194] Memory required for data: 458998000
I1206 21:25:22.840112 16251 layer_factory.hpp:77] Creating layer conv4_17_ReLU0
I1206 21:25:22.840131 16251 net.cpp:128] Creating Layer conv4_17_ReLU0
I1206 21:25:22.840147 16251 net.cpp:558] conv4_17_ReLU0 <- conv4_17_0
I1206 21:25:22.840167 16251 net.cpp:509] conv4_17_ReLU0 -> conv4_17_0 (in-place)
I1206 21:25:22.840512 16251 net.cpp:172] Setting up conv4_17_ReLU0
I1206 21:25:22.840549 16251 net.cpp:186] Top shape: 20 64 8 8 (81920)
I1206 21:25:22.840565 16251 net.cpp:194] Memory required for data: 459325680
I1206 21:25:22.840582 16251 layer_factory.hpp:77] Creating layer conv4_17_1
I1206 21:25:22.840615 16251 net.cpp:128] Creating Layer conv4_17_1
I1206 21:25:22.840632 16251 net.cpp:558] conv4_17_1 <- conv4_17_0
I1206 21:25:22.840656 16251 net.cpp:522] conv4_17_1 -> conv4_17_1
I1206 21:25:22.844097 16251 net.cpp:172] Setting up conv4_17_1
I1206 21:25:22.844141 16251 net.cpp:186] Top shape: 20 64 8 8 (81920)
I1206 21:25:22.844157 16251 net.cpp:194] Memory required for data: 459653360
I1206 21:25:22.844179 16251 layer_factory.hpp:77] Creating layer conv4_17bn1
I1206 21:25:22.844202 16251 net.cpp:128] Creating Layer conv4_17bn1
I1206 21:25:22.844220 16251 net.cpp:558] conv4_17bn1 <- conv4_17_1
I1206 21:25:22.844255 16251 net.cpp:509] conv4_17bn1 -> conv4_17_1 (in-place)
I1206 21:25:22.844586 16251 net.cpp:172] Setting up conv4_17bn1
I1206 21:25:22.844609 16251 net.cpp:186] Top shape: 20 64 8 8 (81920)
I1206 21:25:22.844625 16251 net.cpp:194] Memory required for data: 459981040
I1206 21:25:22.844650 16251 layer_factory.hpp:77] Creating layer conv4_17_scale1
I1206 21:25:22.844668 16251 net.cpp:128] Creating Layer conv4_17_scale1
I1206 21:25:22.844686 16251 net.cpp:558] conv4_17_scale1 <- conv4_17_1
I1206 21:25:22.844703 16251 net.cpp:509] conv4_17_scale1 -> conv4_17_1 (in-place)
I1206 21:25:22.844779 16251 layer_factory.hpp:77] Creating layer conv4_17_scale1
I1206 21:25:22.844965 16251 net.cpp:172] Setting up conv4_17_scale1
I1206 21:25:22.844987 16251 net.cpp:186] Top shape: 20 64 8 8 (81920)
I1206 21:25:22.845003 16251 net.cpp:194] Memory required for data: 460308720
I1206 21:25:22.845024 16251 layer_factory.hpp:77] Creating layer conv4_Eltwise_17
I1206 21:25:22.845043 16251 net.cpp:128] Creating Layer conv4_Eltwise_17
I1206 21:25:22.845060 16251 net.cpp:558] conv4_Eltwise_17 <- conv4_Eltwise_16_conv4_16ReLU_1_0_split_1
I1206 21:25:22.845078 16251 net.cpp:558] conv4_Eltwise_17 <- conv4_17_1
I1206 21:25:22.845100 16251 net.cpp:522] conv4_Eltwise_17 -> conv4_Eltwise_17
I1206 21:25:22.845151 16251 net.cpp:172] Setting up conv4_Eltwise_17
I1206 21:25:22.845171 16251 net.cpp:186] Top shape: 20 64 8 8 (81920)
I1206 21:25:22.845187 16251 net.cpp:194] Memory required for data: 460636400
I1206 21:25:22.845203 16251 layer_factory.hpp:77] Creating layer conv4_17ReLU_1
I1206 21:25:22.845221 16251 net.cpp:128] Creating Layer conv4_17ReLU_1
I1206 21:25:22.845238 16251 net.cpp:558] conv4_17ReLU_1 <- conv4_Eltwise_17
I1206 21:25:22.845258 16251 net.cpp:509] conv4_17ReLU_1 -> conv4_Eltwise_17 (in-place)
I1206 21:25:22.845646 16251 net.cpp:172] Setting up conv4_17ReLU_1
I1206 21:25:22.845681 16251 net.cpp:186] Top shape: 20 64 8 8 (81920)
I1206 21:25:22.845697 16251 net.cpp:194] Memory required for data: 460964080
I1206 21:25:22.845715 16251 layer_factory.hpp:77] Creating layer conv4_Eltwise_17_conv4_17ReLU_1_0_split
I1206 21:25:22.845734 16251 net.cpp:128] Creating Layer conv4_Eltwise_17_conv4_17ReLU_1_0_split
I1206 21:25:22.845752 16251 net.cpp:558] conv4_Eltwise_17_conv4_17ReLU_1_0_split <- conv4_Eltwise_17
I1206 21:25:22.845774 16251 net.cpp:522] conv4_Eltwise_17_conv4_17ReLU_1_0_split -> conv4_Eltwise_17_conv4_17ReLU_1_0_split_0
I1206 21:25:22.845796 16251 net.cpp:522] conv4_Eltwise_17_conv4_17ReLU_1_0_split -> conv4_Eltwise_17_conv4_17ReLU_1_0_split_1
I1206 21:25:22.845875 16251 net.cpp:172] Setting up conv4_Eltwise_17_conv4_17ReLU_1_0_split
I1206 21:25:22.845896 16251 net.cpp:186] Top shape: 20 64 8 8 (81920)
I1206 21:25:22.845914 16251 net.cpp:186] Top shape: 20 64 8 8 (81920)
I1206 21:25:22.845930 16251 net.cpp:194] Memory required for data: 461619440
I1206 21:25:22.845947 16251 layer_factory.hpp:77] Creating layer conv4_18_0
I1206 21:25:22.845971 16251 net.cpp:128] Creating Layer conv4_18_0
I1206 21:25:22.845988 16251 net.cpp:558] conv4_18_0 <- conv4_Eltwise_17_conv4_17ReLU_1_0_split_0
I1206 21:25:22.846010 16251 net.cpp:522] conv4_18_0 -> conv4_18_0
I1206 21:25:22.851069 16251 net.cpp:172] Setting up conv4_18_0
I1206 21:25:22.851114 16251 net.cpp:186] Top shape: 20 64 8 8 (81920)
I1206 21:25:22.851130 16251 net.cpp:194] Memory required for data: 461947120
I1206 21:25:22.851153 16251 layer_factory.hpp:77] Creating layer conv4_18_bn0
I1206 21:25:22.851183 16251 net.cpp:128] Creating Layer conv4_18_bn0
I1206 21:25:22.851202 16251 net.cpp:558] conv4_18_bn0 <- conv4_18_0
I1206 21:25:22.851220 16251 net.cpp:509] conv4_18_bn0 -> conv4_18_0 (in-place)
I1206 21:25:22.851543 16251 net.cpp:172] Setting up conv4_18_bn0
I1206 21:25:22.851567 16251 net.cpp:186] Top shape: 20 64 8 8 (81920)
I1206 21:25:22.851581 16251 net.cpp:194] Memory required for data: 462274800
I1206 21:25:22.851605 16251 layer_factory.hpp:77] Creating layer conv4_18_scale0
I1206 21:25:22.851625 16251 net.cpp:128] Creating Layer conv4_18_scale0
I1206 21:25:22.851642 16251 net.cpp:558] conv4_18_scale0 <- conv4_18_0
I1206 21:25:22.851661 16251 net.cpp:509] conv4_18_scale0 -> conv4_18_0 (in-place)
I1206 21:25:22.851745 16251 layer_factory.hpp:77] Creating layer conv4_18_scale0
I1206 21:25:22.851932 16251 net.cpp:172] Setting up conv4_18_scale0
I1206 21:25:22.851953 16251 net.cpp:186] Top shape: 20 64 8 8 (81920)
I1206 21:25:22.851969 16251 net.cpp:194] Memory required for data: 462602480
I1206 21:25:22.851989 16251 layer_factory.hpp:77] Creating layer conv4_18_ReLU0
I1206 21:25:22.852010 16251 net.cpp:128] Creating Layer conv4_18_ReLU0
I1206 21:25:22.852027 16251 net.cpp:558] conv4_18_ReLU0 <- conv4_18_0
I1206 21:25:22.852047 16251 net.cpp:509] conv4_18_ReLU0 -> conv4_18_0 (in-place)
I1206 21:25:22.852391 16251 net.cpp:172] Setting up conv4_18_ReLU0
I1206 21:25:22.852428 16251 net.cpp:186] Top shape: 20 64 8 8 (81920)
I1206 21:25:22.852444 16251 net.cpp:194] Memory required for data: 462930160
I1206 21:25:22.852461 16251 layer_factory.hpp:77] Creating layer conv4_18_1
I1206 21:25:22.852489 16251 net.cpp:128] Creating Layer conv4_18_1
I1206 21:25:22.852507 16251 net.cpp:558] conv4_18_1 <- conv4_18_0
I1206 21:25:22.852527 16251 net.cpp:522] conv4_18_1 -> conv4_18_1
I1206 21:25:22.854753 16251 net.cpp:172] Setting up conv4_18_1
I1206 21:25:22.854796 16251 net.cpp:186] Top shape: 20 64 8 8 (81920)
I1206 21:25:22.854812 16251 net.cpp:194] Memory required for data: 463257840
I1206 21:25:22.854835 16251 layer_factory.hpp:77] Creating layer conv4_18bn1
I1206 21:25:22.854858 16251 net.cpp:128] Creating Layer conv4_18bn1
I1206 21:25:22.854876 16251 net.cpp:558] conv4_18bn1 <- conv4_18_1
I1206 21:25:22.854897 16251 net.cpp:509] conv4_18bn1 -> conv4_18_1 (in-place)
I1206 21:25:22.855212 16251 net.cpp:172] Setting up conv4_18bn1
I1206 21:25:22.855234 16251 net.cpp:186] Top shape: 20 64 8 8 (81920)
I1206 21:25:22.855250 16251 net.cpp:194] Memory required for data: 463585520
I1206 21:25:22.855273 16251 layer_factory.hpp:77] Creating layer conv4_18_scale1
I1206 21:25:22.855293 16251 net.cpp:128] Creating Layer conv4_18_scale1
I1206 21:25:22.855309 16251 net.cpp:558] conv4_18_scale1 <- conv4_18_1
I1206 21:25:22.855327 16251 net.cpp:509] conv4_18_scale1 -> conv4_18_1 (in-place)
I1206 21:25:22.855401 16251 layer_factory.hpp:77] Creating layer conv4_18_scale1
I1206 21:25:22.855585 16251 net.cpp:172] Setting up conv4_18_scale1
I1206 21:25:22.855607 16251 net.cpp:186] Top shape: 20 64 8 8 (81920)
I1206 21:25:22.855623 16251 net.cpp:194] Memory required for data: 463913200
I1206 21:25:22.855643 16251 layer_factory.hpp:77] Creating layer conv4_Eltwise_18
I1206 21:25:22.855664 16251 net.cpp:128] Creating Layer conv4_Eltwise_18
I1206 21:25:22.855682 16251 net.cpp:558] conv4_Eltwise_18 <- conv4_Eltwise_17_conv4_17ReLU_1_0_split_1
I1206 21:25:22.855700 16251 net.cpp:558] conv4_Eltwise_18 <- conv4_18_1
I1206 21:25:22.855720 16251 net.cpp:522] conv4_Eltwise_18 -> conv4_Eltwise_18
I1206 21:25:22.855768 16251 net.cpp:172] Setting up conv4_Eltwise_18
I1206 21:25:22.855788 16251 net.cpp:186] Top shape: 20 64 8 8 (81920)
I1206 21:25:22.855804 16251 net.cpp:194] Memory required for data: 464240880
I1206 21:25:22.855820 16251 layer_factory.hpp:77] Creating layer conv4_18ReLU_1
I1206 21:25:22.855839 16251 net.cpp:128] Creating Layer conv4_18ReLU_1
I1206 21:25:22.855855 16251 net.cpp:558] conv4_18ReLU_1 <- conv4_Eltwise_18
I1206 21:25:22.855873 16251 net.cpp:509] conv4_18ReLU_1 -> conv4_Eltwise_18 (in-place)
I1206 21:25:22.856487 16251 net.cpp:172] Setting up conv4_18ReLU_1
I1206 21:25:22.856531 16251 net.cpp:186] Top shape: 20 64 8 8 (81920)
I1206 21:25:22.856549 16251 net.cpp:194] Memory required for data: 464568560
I1206 21:25:22.856565 16251 layer_factory.hpp:77] Creating layer Pooling1
I1206 21:25:22.856590 16251 net.cpp:128] Creating Layer Pooling1
I1206 21:25:22.856606 16251 net.cpp:558] Pooling1 <- conv4_Eltwise_18
I1206 21:25:22.856627 16251 net.cpp:522] Pooling1 -> Pooling1
I1206 21:25:22.856997 16251 net.cpp:172] Setting up Pooling1
I1206 21:25:22.857034 16251 net.cpp:186] Top shape: 20 64 1 1 (1280)
I1206 21:25:22.857053 16251 net.cpp:194] Memory required for data: 464573680
I1206 21:25:22.857079 16251 layer_factory.hpp:77] Creating layer fc1
I1206 21:25:22.857105 16251 net.cpp:128] Creating Layer fc1
I1206 21:25:22.857121 16251 net.cpp:558] fc1 <- Pooling1
I1206 21:25:22.857143 16251 net.cpp:522] fc1 -> fc1
I1206 21:25:22.859355 16251 net.cpp:172] Setting up fc1
I1206 21:25:22.859410 16251 net.cpp:186] Top shape: 20 10 1 1 (200)
I1206 21:25:22.859426 16251 net.cpp:194] Memory required for data: 464574480
I1206 21:25:22.859452 16251 layer_factory.hpp:77] Creating layer fc1_fc1_0_split
I1206 21:25:22.859479 16251 net.cpp:128] Creating Layer fc1_fc1_0_split
I1206 21:25:22.859498 16251 net.cpp:558] fc1_fc1_0_split <- fc1
I1206 21:25:22.859522 16251 net.cpp:522] fc1_fc1_0_split -> fc1_fc1_0_split_0
I1206 21:25:22.859546 16251 net.cpp:522] fc1_fc1_0_split -> fc1_fc1_0_split_1
I1206 21:25:22.859628 16251 net.cpp:172] Setting up fc1_fc1_0_split
I1206 21:25:22.859649 16251 net.cpp:186] Top shape: 20 10 1 1 (200)
I1206 21:25:22.859668 16251 net.cpp:186] Top shape: 20 10 1 1 (200)
I1206 21:25:22.859683 16251 net.cpp:194] Memory required for data: 464576080
I1206 21:25:22.859700 16251 layer_factory.hpp:77] Creating layer Softmax1
I1206 21:25:22.859724 16251 net.cpp:128] Creating Layer Softmax1
I1206 21:25:22.859741 16251 net.cpp:558] Softmax1 <- fc1_fc1_0_split_0
I1206 21:25:22.859760 16251 net.cpp:558] Softmax1 <- label_Data1_1_split_0
I1206 21:25:22.859781 16251 net.cpp:522] Softmax1 -> Softmax1
…
