…
I0927 07:56:55.988488 20949 upgrade_proto.cpp:82] Successfully upgraded batch norm layers using deprecated params.
I0927 07:56:55.992949 20949 net.cpp:82] Initializing net from parameters: 
name: "ResNet-20"
state {
  phase: TRAIN
  level: 0
  stage: ""
}
layer {
  name: "Data1"
  type: "Data"
  top: "data"
  top: "label"
  transform_param {
    scale: 0.00390625
    mirror: true
    crop_size: 32
    mean_value: 125.3
    mean_value: 122.9
    mean_value: 113.8
  }
  data_param {
    source: "/home/lijianfei/datasets/cifar10_40/train_lmdb"
    batch_size: 128
    backend: LMDB
  }
  image_data_param {
    shuffle: true
  }
}
layer {
  name: "conv1"
  type: "Convolution"
  bottom: "data"
  top: "conv1"
  param {
    lr_mult: 1
    decay_mult: 1
  }
  param {
    lr_mult: 2
    decay_mult: 0
  }
  convolution_param {
    num_output: 16
    bias_term: true
    pad: 1
    kernel_size: 3
    stride: 1
    weight_filler {
      type: "msra"
    }
    bias_filler {
      type: "constant"
      value: 0
    }
  }
}
layer {
  name: "conv1/bn"
  type: "BatchNorm"
  bottom: "conv1"
  top: "conv1"
  param {
    lr_mult: 0
    decay_mult: 0
  }
  param {
    lr_mult: 0
    decay_mult: 0
  }
  param {
    lr_mult: 0
    decay_mult: 0
  }
  batch_norm_param {
    use_global_stats: false
  }
}
layer {
  name: "conv1/scale"
  type: "Scale"
  bottom: "conv1"
  top: "conv1"
  scale_param {
    bias_term: true
  }
}
layer {
  name: "conv1/ReLU"
  type: "ReLU"
  bottom: "conv1"
  top: "conv1"
}
layer {
  name: "conv2_1_0"
  type: "Convolution"
  bottom: "conv1"
  top: "conv2_1_0"
  param {
    lr_mult: 1
    decay_mult: 1
  }
  param {
    lr_mult: 2
    decay_mult: 0
  }
  convolution_param {
    num_output: 16
    bias_term: true
    pad: 1
    kernel_size: 3
    stride: 1
    weight_filler {
      type: "msra"
    }
    bias_filler {
      type: "constant"
      value: 0
    }
  }
}
layer {
  name: "conv2_1_bn0"
  type: "BatchNorm"
  bottom: "conv2_1_0"
  top: "conv2_1_0"
  param {
    lr_mult: 0
    decay_mult: 0
  }
  param {
    lr_mult: 0
    decay_mult: 0
  }
  param {
    lr_mult: 0
    decay_mult: 0
  }
  batch_norm_param {
    use_global_stats: false
  }
}
layer {
  name: "conv2_1_scale0"
  type: "Scale"
  bottom: "conv2_1_0"
  top: "conv2_1_0"
  scale_param {
    bias_term: true
  }
}
layer {
  name: "conv2_1_ReLU0"
  type: "ReLU"
  bottom: "conv2_1_0"
  top: "conv2_1_0"
}
layer {
  name: "conv2_1_1"
  type: "Convolution"
  bottom: "conv2_1_0"
  top: "conv2_1_1"
  param {
    lr_mult: 1
    decay_mult: 1
  }
  param {
    lr_mult: 2
    decay_mult: 0
  }
  convolution_param {
    num_output: 16
    bias_term: true
    pad: 1
    kernel_size: 3
    stride: 1
    weight_filler {
      type: "msra"
    }
    bias_filler {
      type: "constant"
      value: 0
    }
  }
}
layer {
  name: "conv2_1bn1"
  type: "BatchNorm"
  bottom: "conv2_1_1"
  top: "conv2_1_1"
  param {
    lr_mult: 0
    decay_mult: 0
  }
  param {
    lr_mult: 0
    decay_mult: 0
  }
  param {
    lr_mult: 0
    decay_mult: 0
  }
  batch_norm_param {
    use_global_stats: false
  }
}
layer {
  name: "conv2_1_scale1"
  type: "Scale"
  bottom: "conv2_1_1"
  top: "conv2_1_1"
  scale_param {
    bias_term: true
  }
}
layer {
  name: "conv2_Eltwise_1"
  type: "Eltwise"
  bottom: "conv1"
  bottom: "conv2_1_1"
  top: "conv2_Eltwise_1"
  eltwise_param {
    operation: SUM
  }
}
layer {
  name: "conv2_1ReLU_1"
  type: "ReLU"
  bottom: "conv2_Eltwise_1"
  top: "conv2_Eltwise_1"
}
layer {
  name: "conv2_2_0"
  type: "Convolution"
  bottom: "conv2_Eltwise_1"
  top: "conv2_2_0"
  param {
    lr_mult: 1
    decay_mult: 1
  }
  param {
    lr_mult: 2
    decay_mult: 0
  }
  convolution_param {
    num_output: 16
    bias_term: true
    pad: 1
    kernel_size: 3
    stride: 1
    weight_filler {
      type: "msra"
    }
    bias_filler {
      type: "constant"
      value: 0
    }
  }
}
layer {
  name: "conv2_2_bn0"
  type: "BatchNorm"
  bottom: "conv2_2_0"
  top: "conv2_2_0"
  param {
    lr_mult: 0
    decay_mult: 0
  }
  param {
    lr_mult: 0
    decay_mult: 0
  }
  param {
    lr_mult: 0
    decay_mult: 0
  }
  batch_norm_param {
    use_global_stats: false
  }
}
layer {
  name: "conv2_2_scale0"
  type: "Scale"
  bottom: "conv2_2_0"
  top: "conv2_2_0"
  scale_param {
    bias_term: true
  }
}
layer {
  name: "conv2_2_ReLU0"
  type: "ReLU"
  bottom: "conv2_2_0"
  top: "conv2_2_0"
}
layer {
  name: "conv2_2_1"
  type: "Convolution"
  bottom: "conv2_2_0"
  top: "conv2_2_1"
  param {
    lr_mult: 1
    decay_mult: 1
  }
  param {
    lr_mult: 2
    decay_mult: 0
  }
  convolution_param {
    num_output: 16
    bias_term: true
    pad: 1
    kernel_size: 3
    stride: 1
    weight_filler {
      type: "msra"
    }
    bias_filler {
      type: "constant"
      value: 0
    }
  }
}
layer {
  name: "conv2_2bn1"
  type: "BatchNorm"
  bottom: "conv2_2_1"
  top: "conv2_2_1"
  param {
    lr_mult: 0
    decay_mult: 0
  }
  param {
    lr_mult: 0
    decay_mult: 0
  }
  param {
    lr_mult: 0
    decay_mult: 0
  }
  batch_norm_param {
    use_global_stats: false
  }
}
layer {
  name: "conv2_2_scale1"
  type: "Scale"
  bottom: "conv2_2_1"
  top: "conv2_2_1"
  scale_param {
    bias_term: true
  }
}
layer {
  name: "conv2_Eltwise_2"
  type: "Eltwise"
  bottom: "conv2_Eltwise_1"
  bottom: "conv2_2_1"
  top: "conv2_Eltwise_2"
  eltwise_param {
    operation: SUM
  }
}
layer {
  name: "conv2_2ReLU_1"
  type: "ReLU"
  bottom: "conv2_Eltwise_2"
  top: "conv2_Eltwise_2"
}
layer {
  name: "conv2_3_0"
  type: "Convolution"
  bottom: "conv2_Eltwise_2"
  top: "conv2_3_0"
  param {
    lr_mult: 1
    decay_mult: 1
  }
  param {
    lr_mult: 2
    decay_mult: 0
  }
  convolution_param {
    num_output: 16
    bias_term: true
    pad: 1
    kernel_size: 3
    stride: 1
    weight_filler {
      type: "msra"
    }
    bias_filler {
      type: "constant"
      value: 0
    }
  }
}
layer {
  name: "conv2_3_bn0"
  type: "BatchNorm"
  bottom: "conv2_3_0"
  top: "conv2_3_0"
  param {
    lr_mult: 0
    decay_mult: 0
  }
  param {
    lr_mult: 0
    decay_mult: 0
  }
  param {
    lr_mult: 0
    decay_mult: 0
  }
  batch_norm_param {
    use_global_stats: false
  }
}
layer {
  name: "conv2_3_scale0"
  type: "Scale"
  bottom: "conv2_3_0"
  top: "conv2_3_0"
  scale_param {
    bias_term: true
  }
}
layer {
  name: "conv2_3_ReLU0"
  type: "ReLU"
  bottom: "conv2_3_0"
  top: "conv2_3_0"
}
layer {
  name: "conv2_3_1"
  type: "Convolution"
  bottom: "conv2_3_0"
  top: "conv2_3_1"
  param {
    lr_mult: 1
    decay_mult: 1
  }
  param {
    lr_mult: 2
    decay_mult: 0
  }
  convolution_param {
    num_output: 16
    bias_term: true
    pad: 1
    kernel_size: 3
    stride: 1
    weight_filler {
      type: "msra"
    }
    bias_filler {
      type: "constant"
      value: 0
    }
  }
}
layer {
  name: "conv2_3bn1"
  type: "BatchNorm"
  bottom: "conv2_3_1"
  top: "conv2_3_1"
  param {
    lr_mult: 0
    decay_mult: 0
  }
  param {
    lr_mult: 0
    decay_mult: 0
  }
  param {
    lr_mult: 0
    decay_mult: 0
  }
  batch_norm_param {
    use_global_stats: false
  }
}
layer {
  name: "conv2_3_scale1"
  type: "Scale"
  bottom: "conv2_3_1"
  top: "conv2_3_1"
  scale_param {
    bias_term: true
  }
}
layer {
  name: "conv2_Eltwise_3"
  type: "Eltwise"
  bottom: "conv2_Eltwise_2"
  bottom: "conv2_3_1"
  top: "conv2_Eltwise_3"
  eltwise_param {
    operation: SUM
  }
}
layer {
  name: "conv2_3ReLU_1"
  type: "ReLU"
  bottom: "conv2_Eltwise_3"
  top: "conv2_Eltwise_3"
}
layer {
  name: "conv2_4_0"
  type: "Convolution"
  bottom: "conv2_Eltwise_3"
  top: "conv2_4_0"
  param {
    lr_mult: 1
    decay_mult: 1
  }
  param {
    lr_mult: 2
    decay_mult: 0
  }
  convolution_param {
    num_output: 16
    bias_term: true
    pad: 1
    kernel_size: 3
    stride: 1
    weight_filler {
      type: "msra"
    }
    bias_filler {
      type: "constant"
      value: 0
    }
  }
}
layer {
  name: "conv2_4_bn0"
  type: "BatchNorm"
  bottom: "conv2_4_0"
  top: "conv2_4_0"
  param {
    lr_mult: 0
    decay_mult: 0
  }
  param {
    lr_mult: 0
    decay_mult: 0
  }
  param {
    lr_mult: 0
    decay_mult: 0
  }
  batch_norm_param {
    use_global_stats: false
  }
}
layer {
  name: "conv2_4_scale0"
  type: "Scale"
  bottom: "conv2_4_0"
  top: "conv2_4_0"
  scale_param {
    bias_term: true
  }
}
layer {
  name: "conv2_4_ReLU0"
  type: "ReLU"
  bottom: "conv2_4_0"
  top: "conv2_4_0"
}
layer {
  name: "conv2_4_1"
  type: "Convolution"
  bottom: "conv2_4_0"
  top: "conv2_4_1"
  param {
    lr_mult: 1
    decay_mult: 1
  }
  param {
    lr_mult: 2
    decay_mult: 0
  }
  convolution_param {
    num_output: 16
    bias_term: true
    pad: 1
    kernel_size: 3
    stride: 1
    weight_filler {
      type: "msra"
    }
    bias_filler {
      type: "constant"
      value: 0
    }
  }
}
layer {
  name: "conv2_4bn1"
  type: "BatchNorm"
  bottom: "conv2_4_1"
  top: "conv2_4_1"
  param {
    lr_mult: 0
    decay_mult: 0
  }
  param {
    lr_mult: 0
    decay_mult: 0
  }
  param {
    lr_mult: 0
    decay_mult: 0
  }
  batch_norm_param {
    use_global_stats: false
  }
}
layer {
  name: "conv2_4_scale1"
  type: "Scale"
  bottom: "conv2_4_1"
  top: "conv2_4_1"
  scale_param {
    bias_term: true
  }
}
layer {
  name: "conv2_Eltwise_4"
  type: "Eltwise"
  bottom: "conv2_Eltwise_3"
  bottom: "conv2_4_1"
  top: "conv2_Eltwise_4"
  eltwise_param {
    operation: SUM
  }
}
layer {
  name: "conv2_4ReLU_1"
  type: "ReLU"
  bottom: "conv2_Eltwise_4"
  top: "conv2_Eltwise_4"
}
layer {
  name: "conv2_5_0"
  type: "Convolution"
  bottom: "conv2_Eltwise_4"
  top: "conv2_5_0"
  param {
    lr_mult: 1
    decay_mult: 1
  }
  param {
    lr_mult: 2
    decay_mult: 0
  }
  convolution_param {
    num_output: 16
    bias_term: true
    pad: 1
    kernel_size: 3
    stride: 1
    weight_filler {
      type: "msra"
    }
    bias_filler {
      type: "constant"
      value: 0
    }
  }
}
layer {
  name: "conv2_5_bn0"
  type: "BatchNorm"
  bottom: "conv2_5_0"
  top: "conv2_5_0"
  param {
    lr_mult: 0
    decay_mult: 0
  }
  param {
    lr_mult: 0
    decay_mult: 0
  }
  param {
    lr_mult: 0
    decay_mult: 0
  }
  batch_norm_param {
    use_global_stats: false
  }
}
layer {
  name: "conv2_5_scale0"
  type: "Scale"
  bottom: "conv2_5_0"
  top: "conv2_5_0"
  scale_param {
    bias_term: true
  }
}
layer {
  name: "conv2_5_ReLU0"
  type: "ReLU"
  bottom: "conv2_5_0"
  top: "conv2_5_0"
}
layer {
  name: "conv2_5_1"
  type: "Convolution"
  bottom: "conv2_5_0"
  top: "conv2_5_1"
  param {
    lr_mult: 1
    decay_mult: 1
  }
  param {
    lr_mult: 2
    decay_mult: 0
  }
  convolution_param {
    num_output: 16
    bias_term: true
    pad: 1
    kernel_size: 3
    stride: 1
    weight_filler {
      type: "msra"
    }
    bias_filler {
      type: "constant"
      value: 0
    }
  }
}
layer {
  name: "conv2_5bn1"
  type: "BatchNorm"
  bottom: "conv2_5_1"
  top: "conv2_5_1"
  param {
    lr_mult: 0
    decay_mult: 0
  }
  param {
    lr_mult: 0
    decay_mult: 0
  }
  param {
    lr_mult: 0
    decay_mult: 0
  }
  batch_norm_param {
    use_global_stats: false
  }
}
layer {
  name: "conv2_5_scale1"
  type: "Scale"
  bottom: "conv2_5_1"
  top: "conv2_5_1"
  scale_param {
    bias_term: true
  }
}
layer {
  name: "conv2_Eltwise_5"
  type: "Eltwise"
  bottom: "conv2_Eltwise_4"
  bottom: "conv2_5_1"
  top: "conv2_Eltwise_5"
  eltwise_param {
    operation: SUM
  }
}
layer {
  name: "conv2_5ReLU_1"
  type: "ReLU"
  bottom: "conv2_Eltwise_5"
  top: "conv2_Eltwise_5"
}
layer {
  name: "conv2_6_0"
  type: "Convolution"
  bottom: "conv2_Eltwise_5"
  top: "conv2_6_0"
  param {
    lr_mult: 1
    decay_mult: 1
  }
  param {
    lr_mult: 2
    decay_mult: 0
  }
  convolution_param {
    num_output: 16
    bias_term: true
    pad: 1
    kernel_size: 3
    stride: 1
    weight_filler {
      type: "msra"
    }
    bias_filler {
      type: "constant"
      value: 0
    }
  }
}
layer {
  name: "conv2_6_bn0"
  type: "BatchNorm"
  bottom: "conv2_6_0"
  top: "conv2_6_0"
  param {
    lr_mult: 0
    decay_mult: 0
  }
  param {
    lr_mult: 0
    decay_mult: 0
  }
  param {
    lr_mult: 0
    decay_mult: 0
  }
  batch_norm_param {
    use_global_stats: false
  }
}
layer {
  name: "conv2_6_scale0"
  type: "Scale"
  bottom: "conv2_6_0"
  top: "conv2_6_0"
  scale_param {
    bias_term: true
  }
}
layer {
  name: "conv2_6_ReLU0"
  type: "ReLU"
  bottom: "conv2_6_0"
  top: "conv2_6_0"
}
layer {
  name: "conv2_6_1"
  type: "Convolution"
  bottom: "conv2_6_0"
  top: "conv2_6_1"
  param {
    lr_mult: 1
    decay_mult: 1
  }
  param {
    lr_mult: 2
    decay_mult: 0
  }
  convolution_param {
    num_output: 16
    bias_term: true
    pad: 1
    kernel_size: 3
    stride: 1
    weight_filler {
      type: "msra"
    }
    bias_filler {
      type: "constant"
      value: 0
    }
  }
}
layer {
  name: "conv2_6bn1"
  type: "BatchNorm"
  bottom: "conv2_6_1"
  top: "conv2_6_1"
  param {
    lr_mult: 0
    decay_mult: 0
  }
  param {
    lr_mult: 0
    decay_mult: 0
  }
  param {
    lr_mult: 0
    decay_mult: 0
  }
  batch_norm_param {
    use_global_stats: false
  }
}
layer {
  name: "conv2_6_scale1"
  type: "Scale"
  bottom: "conv2_6_1"
  top: "conv2_6_1"
  scale_param {
    bias_term: true
  }
}
layer {
  name: "conv2_Eltwise_6"
  type: "Eltwise"
  bottom: "conv2_Eltwise_5"
  bottom: "conv2_6_1"
  top: "conv2_Eltwise_6"
  eltwise_param {
    operation: SUM
  }
}
layer {
  name: "conv2_6ReLU_1"
  type: "ReLU"
  bottom: "conv2_Eltwise_6"
  top: "conv2_Eltwise_6"
}
layer {
  name: "conv2_7_0"
  type: "Convolution"
  bottom: "conv2_Eltwise_6"
  top: "conv2_7_0"
  param {
    lr_mult: 1
    decay_mult: 1
  }
  param {
    lr_mult: 2
    decay_mult: 0
  }
  convolution_param {
    num_output: 16
    bias_term: true
    pad: 1
    kernel_size: 3
    stride: 1
    weight_filler {
      type: "msra"
    }
    bias_filler {
      type: "constant"
      value: 0
    }
  }
}
layer {
  name: "conv2_7_bn0"
  type: "BatchNorm"
  bottom: "conv2_7_0"
  top: "conv2_7_0"
  param {
    lr_mult: 0
    decay_mult: 0
  }
  param {
    lr_mult: 0
    decay_mult: 0
  }
  param {
    lr_mult: 0
    decay_mult: 0
  }
  batch_norm_param {
    use_global_stats: false
  }
}
layer {
  name: "conv2_7_scale0"
  type: "Scale"
  bottom: "conv2_7_0"
  top: "conv2_7_0"
  scale_param {
    bias_term: true
  }
}
layer {
  name: "conv2_7_ReLU0"
  type: "ReLU"
  bottom: "conv2_7_0"
  top: "conv2_7_0"
}
layer {
  name: "conv2_7_1"
  type: "Convolution"
  bottom: "conv2_7_0"
  top: "conv2_7_1"
  param {
    lr_mult: 1
    decay_mult: 1
  }
  param {
    lr_mult: 2
    decay_mult: 0
  }
  convolution_param {
    num_output: 16
    bias_term: true
    pad: 1
    kernel_size: 3
    stride: 1
    weight_filler {
      type: "msra"
    }
    bias_filler {
      type: "constant"
      value: 0
    }
  }
}
layer {
  name: "conv2_7bn1"
  type: "BatchNorm"
  bottom: "conv2_7_1"
  top: "conv2_7_1"
  param {
    lr_mult: 0
    decay_mult: 0
  }
  param {
    lr_mult: 0
    decay_mult: 0
  }
  param {
    lr_mult: 0
    decay_mult: 0
  }
  batch_norm_param {
    use_global_stats: false
  }
}
layer {
  name: "conv2_7_scale1"
  type: "Scale"
  bottom: "conv2_7_1"
  top: "conv2_7_1"
  scale_param {
    bias_term: true
  }
}
layer {
  name: "conv2_Eltwise_7"
  type: "Eltwise"
  bottom: "conv2_Eltwise_6"
  bottom: "conv2_7_1"
  top: "conv2_Eltwise_7"
  eltwise_param {
    operation: SUM
  }
}
layer {
  name: "conv2_7ReLU_1"
  type: "ReLU"
  bottom: "conv2_Eltwise_7"
  top: "conv2_Eltwise_7"
}
layer {
  name: "conv2_8_0"
  type: "Convolution"
  bottom: "conv2_Eltwise_7"
  top: "conv2_8_0"
  param {
    lr_mult: 1
    decay_mult: 1
  }
  param {
    lr_mult: 2
    decay_mult: 0
  }
  convolution_param {
    num_output: 16
    bias_term: true
    pad: 1
    kernel_size: 3
    stride: 1
    weight_filler {
      type: "msra"
    }
    bias_filler {
      type: "constant"
      value: 0
    }
  }
}
layer {
  name: "conv2_8_bn0"
  type: "BatchNorm"
  bottom: "conv2_8_0"
  top: "conv2_8_0"
  param {
    lr_mult: 0
    decay_mult: 0
  }
  param {
    lr_mult: 0
    decay_mult: 0
  }
  param {
    lr_mult: 0
    decay_mult: 0
  }
  batch_norm_param {
    use_global_stats: false
  }
}
layer {
  name: "conv2_8_scale0"
  type: "Scale"
  bottom: "conv2_8_0"
  top: "conv2_8_0"
  scale_param {
    bias_term: true
  }
}
layer {
  name: "conv2_8_ReLU0"
  type: "ReLU"
  bottom: "conv2_8_0"
  top: "conv2_8_0"
}
layer {
  name: "conv2_8_1"
  type: "Convolution"
  bottom: "conv2_8_0"
  top: "conv2_8_1"
  param {
    lr_mult: 1
    decay_mult: 1
  }
  param {
    lr_mult: 2
    decay_mult: 0
  }
  convolution_param {
    num_output: 16
    bias_term: true
    pad: 1
    kernel_size: 3
    stride: 1
    weight_filler {
      type: "msra"
    }
    bias_filler {
      type: "constant"
      value: 0
    }
  }
}
layer {
  name: "conv2_8bn1"
  type: "BatchNorm"
  bottom: "conv2_8_1"
  top: "conv2_8_1"
  param {
    lr_mult: 0
    decay_mult: 0
  }
  param {
    lr_mult: 0
    decay_mult: 0
  }
  param {
    lr_mult: 0
    decay_mult: 0
  }
  batch_norm_param {
    use_global_stats: false
  }
}
layer {
  name: "conv2_8_scale1"
  type: "Scale"
  bottom: "conv2_8_1"
  top: "conv2_8_1"
  scale_param {
    bias_term: true
  }
}
layer {
  name: "conv2_Eltwise_8"
  type: "Eltwise"
  bottom: "conv2_Eltwise_7"
  bottom: "conv2_8_1"
  top: "conv2_Eltwise_8"
  eltwise_param {
    operation: SUM
  }
}
layer {
  name: "conv2_8ReLU_1"
  type: "ReLU"
  bottom: "conv2_Eltwise_8"
  top: "conv2_Eltwise_8"
}
layer {
  name: "conv2_9_0"
  type: "Convolution"
  bottom: "conv2_Eltwise_8"
  top: "conv2_9_0"
  param {
    lr_mult: 1
    decay_mult: 1
  }
  param {
    lr_mult: 2
    decay_mult: 0
  }
  convolution_param {
    num_output: 16
    bias_term: true
    pad: 1
    kernel_size: 3
    stride: 1
    weight_filler {
      type: "msra"
    }
    bias_filler {
      type: "constant"
      value: 0
    }
  }
}
layer {
  name: "conv2_9_bn0"
  type: "BatchNorm"
  bottom: "conv2_9_0"
  top: "conv2_9_0"
  param {
    lr_mult: 0
    decay_mult: 0
  }
  param {
    lr_mult: 0
    decay_mult: 0
  }
  param {
    lr_mult: 0
    decay_mult: 0
  }
  batch_norm_param {
    use_global_stats: false
  }
}
layer {
  name: "conv2_9_scale0"
  type: "Scale"
  bottom: "conv2_9_0"
  top: "conv2_9_0"
  scale_param {
    bias_term: true
  }
}
layer {
  name: "conv2_9_ReLU0"
  type: "ReLU"
  bottom: "conv2_9_0"
  top: "conv2_9_0"
}
layer {
  name: "conv2_9_1"
  type: "Convolution"
  bottom: "conv2_9_0"
  top: "conv2_9_1"
  param {
    lr_mult: 1
    decay_mult: 1
  }
  param {
    lr_mult: 2
    decay_mult: 0
  }
  convolution_param {
    num_output: 16
    bias_term: true
    pad: 1
    kernel_size: 3
    stride: 1
    weight_filler {
      type: "msra"
    }
    bias_filler {
      type: "constant"
      value: 0
    }
  }
}
layer {
  name: "conv2_9bn1"
  type: "BatchNorm"
  bottom: "conv2_9_1"
  top: "conv2_9_1"
  param {
    lr_mult: 0
    decay_mult: 0
  }
  param {
    lr_mult: 0
    decay_mult: 0
  }
  param {
    lr_mult: 0
    decay_mult: 0
  }
  batch_norm_param {
    use_global_stats: false
  }
}
layer {
  name: "conv2_9_scale1"
  type: "Scale"
  bottom: "conv2_9_1"
  top: "conv2_9_1"
  scale_param {
    bias_term: true
  }
}
layer {
  name: "conv2_Eltwise_9"
  type: "Eltwise"
  bottom: "conv2_Eltwise_8"
  bottom: "conv2_9_1"
  top: "conv2_Eltwise_9"
  eltwise_param {
    operation: SUM
  }
}
layer {
  name: "conv2_9ReLU_1"
  type: "ReLU"
  bottom: "conv2_Eltwise_9"
  top: "conv2_Eltwise_9"
}
layer {
  name: "conv2_10_0"
  type: "Convolution"
  bottom: "conv2_Eltwise_9"
  top: "conv2_10_0"
  param {
    lr_mult: 1
    decay_mult: 1
  }
  param {
    lr_mult: 2
    decay_mult: 0
  }
  convolution_param {
    num_output: 16
    bias_term: true
    pad: 1
    kernel_size: 3
    stride: 1
    weight_filler {
      type: "msra"
    }
    bias_filler {
      type: "constant"
      value: 0
    }
  }
}
layer {
  name: "conv2_10_bn0"
  type: "BatchNorm"
  bottom: "conv2_10_0"
  top: "conv2_10_0"
  param {
    lr_mult: 0
    decay_mult: 0
  }
  param {
    lr_mult: 0
    decay_mult: 0
  }
  param {
    lr_mult: 0
    decay_mult: 0
  }
  batch_norm_param {
    use_global_stats: false
  }
}
layer {
  name: "conv2_10_scale0"
  type: "Scale"
  bottom: "conv2_10_0"
  top: "conv2_10_0"
  scale_param {
    bias_term: true
  }
}
layer {
  name: "conv2_10_ReLU0"
  type: "ReLU"
  bottom: "conv2_10_0"
  top: "conv2_10_0"
}
layer {
  name: "conv2_10_1"
  type: "Convolution"
  bottom: "conv2_10_0"
  top: "conv2_10_1"
  param {
    lr_mult: 1
    decay_mult: 1
  }
  param {
    lr_mult: 2
    decay_mult: 0
  }
  convolution_param {
    num_output: 16
    bias_term: true
    pad: 1
    kernel_size: 3
    stride: 1
    weight_filler {
      type: "msra"
    }
    bias_filler {
      type: "constant"
      value: 0
    }
  }
}
layer {
  name: "conv2_10bn1"
  type: "BatchNorm"
  bottom: "conv2_10_1"
  top: "conv2_10_1"
  param {
    lr_mult: 0
    decay_mult: 0
  }
  param {
    lr_mult: 0
    decay_mult: 0
  }
  param {
    lr_mult: 0
    decay_mult: 0
  }
  batch_norm_param {
    use_global_stats: false
  }
}
layer {
  name: "conv2_10_scale1"
  type: "Scale"
  bottom: "conv2_10_1"
  top: "conv2_10_1"
  scale_param {
    bias_term: true
  }
}
layer {
  name: "conv2_Eltwise_10"
  type: "Eltwise"
  bottom: "conv2_Eltwise_9"
  bottom: "conv2_10_1"
  top: "conv2_Eltwise_10"
  eltwise_param {
    operation: SUM
  }
}
layer {
  name: "conv2_10ReLU_1"
  type: "ReLU"
  bottom: "conv2_Eltwise_10"
  top: "conv2_Eltwise_10"
}
layer {
  name: "conv2_11_0"
  type: "Convolution"
  bottom: "conv2_Eltwise_10"
  top: "conv2_11_0"
  param {
    lr_mult: 1
    decay_mult: 1
  }
  param {
    lr_mult: 2
    decay_mult: 0
  }
  convolution_param {
    num_output: 16
    bias_term: true
    pad: 1
    kernel_size: 3
    stride: 1
    weight_filler {
      type: "msra"
    }
    bias_filler {
      type: "constant"
      value: 0
    }
  }
}
layer {
  name: "conv2_11_bn0"
  type: "BatchNorm"
  bottom: "conv2_11_0"
  top: "conv2_11_0"
  param {
    lr_mult: 0
    decay_mult: 0
  }
  param {
    lr_mult: 0
    decay_mult: 0
  }
  param {
    lr_mult: 0
    decay_mult: 0
  }
  batch_norm_param {
    use_global_stats: false
  }
}
layer {
  name: "conv2_11_scale0"
  type: "Scale"
  bottom: "conv2_11_0"
  top: "conv2_11_0"
  scale_param {
    bias_term: true
  }
}
layer {
  name: "conv2_11_ReLU0"
  type: "ReLU"
  bottom: "conv2_11_0"
  top: "conv2_11_0"
}
layer {
  name: "conv2_11_1"
  type: "Convolution"
  bottom: "conv2_11_0"
  top: "conv2_11_1"
  param {
    lr_mult: 1
    decay_mult: 1
  }
  param {
    lr_mult: 2
    decay_mult: 0
  }
  convolution_param {
    num_output: 16
    bias_term: true
    pad: 1
    kernel_size: 3
    stride: 1
    weight_filler {
      type: "msra"
    }
    bias_filler {
      type: "constant"
      value: 0
    }
  }
}
layer {
  name: "conv2_11bn1"
  type: "BatchNorm"
  bottom: "conv2_11_1"
  top: "conv2_11_1"
  param {
    lr_mult: 0
    decay_mult: 0
  }
  param {
    lr_mult: 0
    decay_mult: 0
  }
  param {
    lr_mult: 0
    decay_mult: 0
  }
  batch_norm_param {
    use_global_stats: false
  }
}
layer {
  name: "conv2_11_scale1"
  type: "Scale"
  bottom: "conv2_11_1"
  top: "conv2_11_1"
  scale_param {
    bias_term: true
  }
}
layer {
  name: "conv2_Eltwise_11"
  type: "Eltwise"
  bottom: "conv2_Eltwise_10"
  bottom: "conv2_11_1"
  top: "conv2_Eltwise_11"
  eltwise_param {
    operation: SUM
  }
}
layer {
  name: "conv2_11ReLU_1"
  type: "ReLU"
  bottom: "conv2_Eltwise_11"
  top: "conv2_Eltwise_11"
}
layer {
  name: "conv2_12_0"
  type: "Convolution"
  bottom: "conv2_Eltwise_11"
  top: "conv2_12_0"
  param {
    lr_mult: 1
    decay_mult: 1
  }
  param {
    lr_mult: 2
    decay_mult: 0
  }
  convolution_param {
    num_output: 16
    bias_term: true
    pad: 1
    kernel_size: 3
    stride: 1
    weight_filler {
      type: "msra"
    }
    bias_filler {
      type: "constant"
      value: 0
    }
  }
}
layer {
  name: "conv2_12_bn0"
  type: "BatchNorm"
  bottom: "conv2_12_0"
  top: "conv2_12_0"
  param {
    lr_mult: 0
    decay_mult: 0
  }
  param {
    lr_mult: 0
    decay_mult: 0
  }
  param {
    lr_mult: 0
    decay_mult: 0
  }
  batch_norm_param {
    use_global_stats: false
  }
}
layer {
  name: "conv2_12_scale0"
  type: "Scale"
  bottom: "conv2_12_0"
  top: "conv2_12_0"
  scale_param {
    bias_term: true
  }
}
layer {
  name: "conv2_12_ReLU0"
  type: "ReLU"
  bottom: "conv2_12_0"
  top: "conv2_12_0"
}
layer {
  name: "conv2_12_1"
  type: "Convolution"
  bottom: "conv2_12_0"
  top: "conv2_12_1"
  param {
    lr_mult: 1
    decay_mult: 1
  }
  param {
    lr_mult: 2
    decay_mult: 0
  }
  convolution_param {
    num_output: 16
    bias_term: true
    pad: 1
    kernel_size: 3
    stride: 1
    weight_filler {
      type: "msra"
    }
    bias_filler {
      type: "constant"
      value: 0
    }
  }
}
layer {
  name: "conv2_12bn1"
  type: "BatchNorm"
  bottom: "conv2_12_1"
  top: "conv2_12_1"
  param {
    lr_mult: 0
    decay_mult: 0
  }
  param {
    lr_mult: 0
    decay_mult: 0
  }
  param {
    lr_mult: 0
    decay_mult: 0
  }
  batch_norm_param {
    use_global_stats: false
  }
}
layer {
  name: "conv2_12_scale1"
  type: "Scale"
  bottom: "conv2_12_1"
  top: "conv2_12_1"
  scale_param {
    bias_term: true
  }
}
layer {
  name: "conv2_Eltwise_12"
  type: "Eltwise"
  bottom: "conv2_Eltwise_11"
  bottom: "conv2_12_1"
  top: "conv2_Eltwise_12"
  eltwise_param {
    operation: SUM
  }
}
layer {
  name: "conv2_12ReLU_1"
  type: "ReLU"
  bottom: "conv2_Eltwise_12"
  top: "conv2_Eltwise_12"
}
layer {
  name: "conv2_13_0"
  type: "Convolution"
  bottom: "conv2_Eltwise_12"
  top: "conv2_13_0"
  param {
    lr_mult: 1
    decay_mult: 1
  }
  param {
    lr_mult: 2
    decay_mult: 0
  }
  convolution_param {
    num_output: 16
    bias_term: true
    pad: 1
    kernel_size: 3
    stride: 1
    weight_filler {
      type: "msra"
    }
    bias_filler {
      type: "constant"
      value: 0
    }
  }
}
layer {
  name: "conv2_13_bn0"
  type: "BatchNorm"
  bottom: "conv2_13_0"
  top: "conv2_13_0"
  param {
    lr_mult: 0
    decay_mult: 0
  }
  param {
    lr_mult: 0
    decay_mult: 0
  }
  param {
    lr_mult: 0
    decay_mult: 0
  }
  batch_norm_param {
    use_global_stats: false
  }
}
layer {
  name: "conv2_13_scale0"
  type: "Scale"
  bottom: "conv2_13_0"
  top: "conv2_13_0"
  scale_param {
    bias_term: true
  }
}
layer {
  name: "conv2_13_ReLU0"
  type: "ReLU"
  bottom: "conv2_13_0"
  top: "conv2_13_0"
}
layer {
  name: "conv2_13_1"
  type: "Convolution"
  bottom: "conv2_13_0"
  top: "conv2_13_1"
  param {
    lr_mult: 1
    decay_mult: 1
  }
  param {
    lr_mult: 2
    decay_mult: 0
  }
  convolution_param {
    num_output: 16
    bias_term: true
    pad: 1
    kernel_size: 3
    stride: 1
    weight_filler {
      type: "msra"
    }
    bias_filler {
      type: "constant"
      value: 0
    }
  }
}
layer {
  name: "conv2_13bn1"
  type: "BatchNorm"
  bottom: "conv2_13_1"
  top: "conv2_13_1"
  param {
    lr_mult: 0
    decay_mult: 0
  }
  param {
    lr_mult: 0
    decay_mult: 0
  }
  param {
    lr_mult: 0
    decay_mult: 0
  }
  batch_norm_param {
    use_global_stats: false
  }
}
layer {
  name: "conv2_13_scale1"
  type: "Scale"
  bottom: "conv2_13_1"
  top: "conv2_13_1"
  scale_param {
    bias_term: true
  }
}
layer {
  name: "conv2_Eltwise_13"
  type: "Eltwise"
  bottom: "conv2_Eltwise_12"
  bottom: "conv2_13_1"
  top: "conv2_Eltwise_13"
  eltwise_param {
    operation: SUM
  }
}
layer {
  name: "conv2_13ReLU_1"
  type: "ReLU"
  bottom: "conv2_Eltwise_13"
  top: "conv2_Eltwise_13"
}
layer {
  name: "conv2_14_0"
  type: "Convolution"
  bottom: "conv2_Eltwise_13"
  top: "conv2_14_0"
  param {
    lr_mult: 1
    decay_mult: 1
  }
  param {
    lr_mult: 2
    decay_mult: 0
  }
  convolution_param {
    num_output: 16
    bias_term: true
    pad: 1
    kernel_size: 3
    stride: 1
    weight_filler {
      type: "msra"
    }
    bias_filler {
      type: "constant"
      value: 0
    }
  }
}
layer {
  name: "conv2_14_bn0"
  type: "BatchNorm"
  bottom: "conv2_14_0"
  top: "conv2_14_0"
  param {
    lr_mult: 0
    decay_mult: 0
  }
  param {
    lr_mult: 0
    decay_mult: 0
  }
  param {
    lr_mult: 0
    decay_mult: 0
  }
  batch_norm_param {
    use_global_stats: false
  }
}
layer {
  name: "conv2_14_scale0"
  type: "Scale"
  bottom: "conv2_14_0"
  top: "conv2_14_0"
  scale_param {
    bias_term: true
  }
}
layer {
  name: "conv2_14_ReLU0"
  type: "ReLU"
  bottom: "conv2_14_0"
  top: "conv2_14_0"
}
layer {
  name: "conv2_14_1"
  type: "Convolution"
  bottom: "conv2_14_0"
  top: "conv2_14_1"
  param {
    lr_mult: 1
    decay_mult: 1
  }
  param {
    lr_mult: 2
    decay_mult: 0
  }
  convolution_param {
    num_output: 16
    bias_term: true
    pad: 1
    kernel_size: 3
    stride: 1
    weight_filler {
      type: "msra"
    }
    bias_filler {
      type: "constant"
      value: 0
    }
  }
}
layer {
  name: "conv2_14bn1"
  type: "BatchNorm"
  bottom: "conv2_14_1"
  top: "conv2_14_1"
  param {
    lr_mult: 0
    decay_mult: 0
  }
  param {
    lr_mult: 0
    decay_mult: 0
  }
  param {
    lr_mult: 0
    decay_mult: 0
  }
  batch_norm_param {
    use_global_stats: false
  }
}
layer {
  name: "conv2_14_scale1"
  type: "Scale"
  bottom: "conv2_14_1"
  top: "conv2_14_1"
  scale_param {
    bias_term: true
  }
}
layer {
  name: "conv2_Eltwise_14"
  type: "Eltwise"
  bottom: "conv2_Eltwise_13"
  bottom: "conv2_14_1"
  top: "conv2_Eltwise_14"
  eltwise_param {
    operation: SUM
  }
}
layer {
  name: "conv2_14ReLU_1"
  type: "ReLU"
  bottom: "conv2_Eltwise_14"
  top: "conv2_Eltwise_14"
}
layer {
  name: "conv2_15_0"
  type: "Convolution"
  bottom: "conv2_Eltwise_14"
  top: "conv2_15_0"
  param {
    lr_mult: 1
    decay_mult: 1
  }
  param {
    lr_mult: 2
    decay_mult: 0
  }
  convolution_param {
    num_output: 16
    bias_term: true
    pad: 1
    kernel_size: 3
    stride: 1
    weight_filler {
      type: "msra"
   
I0927 07:56:55.995453 20949 layer_factory.hpp:77] Creating layer Data1
I0927 07:56:55.995667 20949 db_lmdb.cpp:35] Opened lmdb /home/lijianfei/datasets/cifar10_40/train_lmdb
I0927 07:56:55.995714 20949 net.cpp:128] Creating Layer Data1
I0927 07:56:55.995725 20949 net.cpp:522] Data1 -> data
I0927 07:56:55.995754 20949 net.cpp:522] Data1 -> label
I0927 07:56:55.997457 20949 data_layer.cpp:45] output data size: 128,3,32,32
I0927 07:56:56.006299 20949 net.cpp:172] Setting up Data1
I0927 07:56:56.006345 20949 net.cpp:186] Top shape: 128 3 32 32 (393216)
I0927 07:56:56.006355 20949 net.cpp:186] Top shape: 128 (128)
I0927 07:56:56.006359 20949 net.cpp:194] Memory required for data: 1573376
I0927 07:56:56.006373 20949 layer_factory.hpp:77] Creating layer conv1
I0927 07:56:56.006404 20949 net.cpp:128] Creating Layer conv1
I0927 07:56:56.006412 20949 net.cpp:558] conv1 <- data
I0927 07:56:56.006433 20949 net.cpp:522] conv1 -> conv1
I0927 07:56:56.757103 20949 net.cpp:172] Setting up conv1
I0927 07:56:56.757159 20949 net.cpp:186] Top shape: 128 16 32 32 (2097152)
I0927 07:56:56.757164 20949 net.cpp:194] Memory required for data: 9961984
I0927 07:56:56.757201 20949 layer_factory.hpp:77] Creating layer conv1/bn
I0927 07:56:56.757225 20949 net.cpp:128] Creating Layer conv1/bn
I0927 07:56:56.757230 20949 net.cpp:558] conv1/bn <- conv1
I0927 07:56:56.757239 20949 net.cpp:509] conv1/bn -> conv1 (in-place)
I0927 07:56:56.757508 20949 net.cpp:172] Setting up conv1/bn
I0927 07:56:56.757520 20949 net.cpp:186] Top shape: 128 16 32 32 (2097152)
I0927 07:56:56.757524 20949 net.cpp:194] Memory required for data: 18350592
I0927 07:56:56.757537 20949 layer_factory.hpp:77] Creating layer conv1/scale
I0927 07:56:56.757547 20949 net.cpp:128] Creating Layer conv1/scale
I0927 07:56:56.757551 20949 net.cpp:558] conv1/scale <- conv1
I0927 07:56:56.757557 20949 net.cpp:509] conv1/scale -> conv1 (in-place)
I0927 07:56:56.757601 20949 layer_factory.hpp:77] Creating layer conv1/scale
I0927 07:56:56.757719 20949 net.cpp:172] Setting up conv1/scale
I0927 07:56:56.757730 20949 net.cpp:186] Top shape: 128 16 32 32 (2097152)
I0927 07:56:56.757735 20949 net.cpp:194] Memory required for data: 26739200
I0927 07:56:56.757742 20949 layer_factory.hpp:77] Creating layer conv1/ReLU
I0927 07:56:56.757750 20949 net.cpp:128] Creating Layer conv1/ReLU
I0927 07:56:56.757755 20949 net.cpp:558] conv1/ReLU <- conv1
I0927 07:56:56.757761 20949 net.cpp:509] conv1/ReLU -> conv1 (in-place)
I0927 07:56:56.757972 20949 net.cpp:172] Setting up conv1/ReLU
I0927 07:56:56.757988 20949 net.cpp:186] Top shape: 128 16 32 32 (2097152)
I0927 07:56:56.757993 20949 net.cpp:194] Memory required for data: 35127808
I0927 07:56:56.757998 20949 layer_factory.hpp:77] Creating layer conv1_conv1/ReLU_0_split
I0927 07:56:56.758005 20949 net.cpp:128] Creating Layer conv1_conv1/ReLU_0_split
I0927 07:56:56.758009 20949 net.cpp:558] conv1_conv1/ReLU_0_split <- conv1
I0927 07:56:56.758015 20949 net.cpp:522] conv1_conv1/ReLU_0_split -> conv1_conv1/ReLU_0_split_0
I0927 07:56:56.758024 20949 net.cpp:522] conv1_conv1/ReLU_0_split -> conv1_conv1/ReLU_0_split_1
I0927 07:56:56.758064 20949 net.cpp:172] Setting up conv1_conv1/ReLU_0_split
I0927 07:56:56.758071 20949 net.cpp:186] Top shape: 128 16 32 32 (2097152)
I0927 07:56:56.758077 20949 net.cpp:186] Top shape: 128 16 32 32 (2097152)
I0927 07:56:56.758081 20949 net.cpp:194] Memory required for data: 51905024
I0927 07:56:56.758085 20949 layer_factory.hpp:77] Creating layer conv2_1_0
I0927 07:56:56.758097 20949 net.cpp:128] Creating Layer conv2_1_0
I0927 07:56:56.758101 20949 net.cpp:558] conv2_1_0 <- conv1_conv1/ReLU_0_split_0
I0927 07:56:56.758108 20949 net.cpp:522] conv2_1_0 -> conv2_1_0
I0927 07:56:56.760627 20949 net.cpp:172] Setting up conv2_1_0
I0927 07:56:56.760653 20949 net.cpp:186] Top shape: 128 16 32 32 (2097152)
I0927 07:56:56.760658 20949 net.cpp:194] Memory required for data: 60293632
I0927 07:56:56.760669 20949 layer_factory.hpp:77] Creating layer conv2_1_bn0
I0927 07:56:56.760681 20949 net.cpp:128] Creating Layer conv2_1_bn0
I0927 07:56:56.760690 20949 net.cpp:558] conv2_1_bn0 <- conv2_1_0
I0927 07:56:56.760699 20949 net.cpp:509] conv2_1_bn0 -> conv2_1_0 (in-place)
I0927 07:56:56.760917 20949 net.cpp:172] Setting up conv2_1_bn0
I0927 07:56:56.760928 20949 net.cpp:186] Top shape: 128 16 32 32 (2097152)
I0927 07:56:56.760932 20949 net.cpp:194] Memory required for data: 68682240
I0927 07:56:56.760941 20949 layer_factory.hpp:77] Creating layer conv2_1_scale0
I0927 07:56:56.760951 20949 net.cpp:128] Creating Layer conv2_1_scale0
I0927 07:56:56.760957 20949 net.cpp:558] conv2_1_scale0 <- conv2_1_0
I0927 07:56:56.760962 20949 net.cpp:509] conv2_1_scale0 -> conv2_1_0 (in-place)
I0927 07:56:56.760999 20949 layer_factory.hpp:77] Creating layer conv2_1_scale0
I0927 07:56:56.761121 20949 net.cpp:172] Setting up conv2_1_scale0
I0927 07:56:56.761128 20949 net.cpp:186] Top shape: 128 16 32 32 (2097152)
I0927 07:56:56.761132 20949 net.cpp:194] Memory required for data: 77070848
I0927 07:56:56.761140 20949 layer_factory.hpp:77] Creating layer conv2_1_ReLU0
I0927 07:56:56.761147 20949 net.cpp:128] Creating Layer conv2_1_ReLU0
I0927 07:56:56.761150 20949 net.cpp:558] conv2_1_ReLU0 <- conv2_1_0
I0927 07:56:56.761158 20949 net.cpp:509] conv2_1_ReLU0 -> conv2_1_0 (in-place)
I0927 07:56:56.761379 20949 net.cpp:172] Setting up conv2_1_ReLU0
I0927 07:56:56.761394 20949 net.cpp:186] Top shape: 128 16 32 32 (2097152)
I0927 07:56:56.761399 20949 net.cpp:194] Memory required for data: 85459456
I0927 07:56:56.761420 20949 layer_factory.hpp:77] Creating layer conv2_1_1
I0927 07:56:56.761435 20949 net.cpp:128] Creating Layer conv2_1_1
I0927 07:56:56.761440 20949 net.cpp:558] conv2_1_1 <- conv2_1_0
I0927 07:56:56.761449 20949 net.cpp:522] conv2_1_1 -> conv2_1_1
I0927 07:56:56.762656 20949 net.cpp:172] Setting up conv2_1_1
I0927 07:56:56.762684 20949 net.cpp:186] Top shape: 128 16 32 32 (2097152)
I0927 07:56:56.762688 20949 net.cpp:194] Memory required for data: 93848064
I0927 07:56:56.762698 20949 layer_factory.hpp:77] Creating layer conv2_1bn1
I0927 07:56:56.762773 20949 net.cpp:128] Creating Layer conv2_1bn1
I0927 07:56:56.762778 20949 net.cpp:558] conv2_1bn1 <- conv2_1_1
I0927 07:56:56.762786 20949 net.cpp:509] conv2_1bn1 -> conv2_1_1 (in-place)
I0927 07:56:56.763036 20949 net.cpp:172] Setting up conv2_1bn1
I0927 07:56:56.763047 20949 net.cpp:186] Top shape: 128 16 32 32 (2097152)
I0927 07:56:56.763051 20949 net.cpp:194] Memory required for data: 102236672
I0927 07:56:56.763064 20949 layer_factory.hpp:77] Creating layer conv2_1_scale1
I0927 07:56:56.763075 20949 net.cpp:128] Creating Layer conv2_1_scale1
I0927 07:56:56.763080 20949 net.cpp:558] conv2_1_scale1 <- conv2_1_1
I0927 07:56:56.763087 20949 net.cpp:509] conv2_1_scale1 -> conv2_1_1 (in-place)
I0927 07:56:56.763124 20949 layer_factory.hpp:77] Creating layer conv2_1_scale1
I0927 07:56:56.763257 20949 net.cpp:172] Setting up conv2_1_scale1
I0927 07:56:56.763264 20949 net.cpp:186] Top shape: 128 16 32 32 (2097152)
I0927 07:56:56.763268 20949 net.cpp:194] Memory required for data: 110625280
I0927 07:56:56.763275 20949 layer_factory.hpp:77] Creating layer conv2_Eltwise_1
I0927 07:56:56.763284 20949 net.cpp:128] Creating Layer conv2_Eltwise_1
I0927 07:56:56.763288 20949 net.cpp:558] conv2_Eltwise_1 <- conv1_conv1/ReLU_0_split_1
I0927 07:56:56.763293 20949 net.cpp:558] conv2_Eltwise_1 <- conv2_1_1
I0927 07:56:56.763301 20949 net.cpp:522] conv2_Eltwise_1 -> conv2_Eltwise_1
I0927 07:56:56.763332 20949 net.cpp:172] Setting up conv2_Eltwise_1
I0927 07:56:56.763339 20949 net.cpp:186] Top shape: 128 16 32 32 (2097152)
I0927 07:56:56.763344 20949 net.cpp:194] Memory required for data: 119013888
I0927 07:56:56.763347 20949 layer_factory.hpp:77] Creating layer conv2_1ReLU_1
I0927 07:56:56.763353 20949 net.cpp:128] Creating Layer conv2_1ReLU_1
I0927 07:56:56.763357 20949 net.cpp:558] conv2_1ReLU_1 <- conv2_Eltwise_1
I0927 07:56:56.763363 20949 net.cpp:509] conv2_1ReLU_1 -> conv2_Eltwise_1 (in-place)
I0927 07:56:56.763783 20949 net.cpp:172] Setting up conv2_1ReLU_1
I0927 07:56:56.763808 20949 net.cpp:186] Top shape: 128 16 32 32 (2097152)
I0927 07:56:56.763813 20949 net.cpp:194] Memory required for data: 127402496
I0927 07:56:56.763818 20949 layer_factory.hpp:77] Creating layer conv2_Eltwise_1_conv2_1ReLU_1_0_split
I0927 07:56:56.763828 20949 net.cpp:128] Creating Layer conv2_Eltwise_1_conv2_1ReLU_1_0_split
I0927 07:56:56.763833 20949 net.cpp:558] conv2_Eltwise_1_conv2_1ReLU_1_0_split <- conv2_Eltwise_1
I0927 07:56:56.763842 20949 net.cpp:522] conv2_Eltwise_1_conv2_1ReLU_1_0_split -> conv2_Eltwise_1_conv2_1ReLU_1_0_split_0
I0927 07:56:56.763852 20949 net.cpp:522] conv2_Eltwise_1_conv2_1ReLU_1_0_split -> conv2_Eltwise_1_conv2_1ReLU_1_0_split_1
I0927 07:56:56.763900 20949 net.cpp:172] Setting up conv2_Eltwise_1_conv2_1ReLU_1_0_split
I0927 07:56:56.763912 20949 net.cpp:186] Top shape: 128 16 32 32 (2097152)
I0927 07:56:56.763918 20949 net.cpp:186] Top shape: 128 16 32 32 (2097152)
I0927 07:56:56.763922 20949 net.cpp:194] Memory required for data: 144179712
I0927 07:56:56.763926 20949 layer_factory.hpp:77] Creating layer conv2_2_0
I0927 07:56:56.763942 20949 net.cpp:128] Creating Layer conv2_2_0
I0927 07:56:56.763947 20949 net.cpp:558] conv2_2_0 <- conv2_Eltwise_1_conv2_1ReLU_1_0_split_0
I0927 07:56:56.763953 20949 net.cpp:522] conv2_2_0 -> conv2_2_0
I0927 07:56:56.765161 20949 net.cpp:172] Setting up conv2_2_0
I0927 07:56:56.765187 20949 net.cpp:186] Top shape: 128 16 32 32 (2097152)
I0927 07:56:56.765192 20949 net.cpp:194] Memory required for data: 152568320
I0927 07:56:56.765218 20949 layer_factory.hpp:77] Creating layer conv2_2_bn0
I0927 07:56:56.765234 20949 net.cpp:128] Creating Layer conv2_2_bn0
I0927 07:56:56.765239 20949 net.cpp:558] conv2_2_bn0 <- conv2_2_0
I0927 07:56:56.765246 20949 net.cpp:509] conv2_2_bn0 -> conv2_2_0 (in-place)
I0927 07:56:56.765485 20949 net.cpp:172] Setting up conv2_2_bn0
I0927 07:56:56.765496 20949 net.cpp:186] Top shape: 128 16 32 32 (2097152)
I0927 07:56:56.765501 20949 net.cpp:194] Memory required for data: 160956928
I0927 07:56:56.765511 20949 layer_factory.hpp:77] Creating layer conv2_2_scale0
I0927 07:56:56.765521 20949 net.cpp:128] Creating Layer conv2_2_scale0
I0927 07:56:56.765524 20949 net.cpp:558] conv2_2_scale0 <- conv2_2_0
I0927 07:56:56.765530 20949 net.cpp:509] conv2_2_scale0 -> conv2_2_0 (in-place)
I0927 07:56:56.765566 20949 layer_factory.hpp:77] Creating layer conv2_2_scale0
I0927 07:56:56.765693 20949 net.cpp:172] Setting up conv2_2_scale0
I0927 07:56:56.765705 20949 net.cpp:186] Top shape: 128 16 32 32 (2097152)
I0927 07:56:56.765709 20949 net.cpp:194] Memory required for data: 169345536
I0927 07:56:56.765717 20949 layer_factory.hpp:77] Creating layer conv2_2_ReLU0
I0927 07:56:56.765723 20949 net.cpp:128] Creating Layer conv2_2_ReLU0
I0927 07:56:56.765728 20949 net.cpp:558] conv2_2_ReLU0 <- conv2_2_0
I0927 07:56:56.765733 20949 net.cpp:509] conv2_2_ReLU0 -> conv2_2_0 (in-place)
I0927 07:56:56.765964 20949 net.cpp:172] Setting up conv2_2_ReLU0
I0927 07:56:56.765977 20949 net.cpp:186] Top shape: 128 16 32 32 (2097152)
I0927 07:56:56.765981 20949 net.cpp:194] Memory required for data: 177734144
I0927 07:56:56.765986 20949 layer_factory.hpp:77] Creating layer conv2_2_1
I0927 07:56:56.765998 20949 net.cpp:128] Creating Layer conv2_2_1
I0927 07:56:56.766003 20949 net.cpp:558] conv2_2_1 <- conv2_2_0
I0927 07:56:56.766012 20949 net.cpp:522] conv2_2_1 -> conv2_2_1
I0927 07:56:56.767227 20949 net.cpp:172] Setting up conv2_2_1
I0927 07:56:56.767254 20949 net.cpp:186] Top shape: 128 16 32 32 (2097152)
I0927 07:56:56.767259 20949 net.cpp:194] Memory required for data: 186122752
I0927 07:56:56.767268 20949 layer_factory.hpp:77] Creating layer conv2_2bn1
I0927 07:56:56.767279 20949 net.cpp:128] Creating Layer conv2_2bn1
I0927 07:56:56.767284 20949 net.cpp:558] conv2_2bn1 <- conv2_2_1
I0927 07:56:56.767292 20949 net.cpp:509] conv2_2bn1 -> conv2_2_1 (in-place)
I0927 07:56:56.767525 20949 net.cpp:172] Setting up conv2_2bn1
I0927 07:56:56.767536 20949 net.cpp:186] Top shape: 128 16 32 32 (2097152)
I0927 07:56:56.767541 20949 net.cpp:194] Memory required for data: 194511360
I0927 07:56:56.767554 20949 layer_factory.hpp:77] Creating layer conv2_2_scale1
I0927 07:56:56.767562 20949 net.cpp:128] Creating Layer conv2_2_scale1
I0927 07:56:56.767566 20949 net.cpp:558] conv2_2_scale1 <- conv2_2_1
I0927 07:56:56.767572 20949 net.cpp:509] conv2_2_scale1 -> conv2_2_1 (in-place)
I0927 07:56:56.767611 20949 layer_factory.hpp:77] Creating layer conv2_2_scale1
I0927 07:56:56.767740 20949 net.cpp:172] Setting up conv2_2_scale1
I0927 07:56:56.767750 20949 net.cpp:186] Top shape: 128 16 32 32 (2097152)
I0927 07:56:56.767755 20949 net.cpp:194] Memory required for data: 202899968
I0927 07:56:56.767762 20949 layer_factory.hpp:77] Creating layer conv2_Eltwise_2
I0927 07:56:56.767771 20949 net.cpp:128] Creating Layer conv2_Eltwise_2
I0927 07:56:56.767776 20949 net.cpp:558] conv2_Eltwise_2 <- conv2_Eltwise_1_conv2_1ReLU_1_0_split_1
I0927 07:56:56.767781 20949 net.cpp:558] conv2_Eltwise_2 <- conv2_2_1
I0927 07:56:56.767786 20949 net.cpp:522] conv2_Eltwise_2 -> conv2_Eltwise_2
I0927 07:56:56.767812 20949 net.cpp:172] Setting up conv2_Eltwise_2
I0927 07:56:56.767820 20949 net.cpp:186] Top shape: 128 16 32 32 (2097152)
I0927 07:56:56.767824 20949 net.cpp:194] Memory required for data: 211288576
I0927 07:56:56.767828 20949 layer_factory.hpp:77] Creating layer conv2_2ReLU_1
I0927 07:56:56.767834 20949 net.cpp:128] Creating Layer conv2_2ReLU_1
I0927 07:56:56.767838 20949 net.cpp:558] conv2_2ReLU_1 <- conv2_Eltwise_2
I0927 07:56:56.767846 20949 net.cpp:509] conv2_2ReLU_1 -> conv2_Eltwise_2 (in-place)
I0927 07:56:56.768085 20949 net.cpp:172] Setting up conv2_2ReLU_1
I0927 07:56:56.768100 20949 net.cpp:186] Top shape: 128 16 32 32 (2097152)
I0927 07:56:56.768105 20949 net.cpp:194] Memory required for data: 219677184
I0927 07:56:56.768110 20949 layer_factory.hpp:77] Creating layer conv2_Eltwise_2_conv2_2ReLU_1_0_split
I0927 07:56:56.768117 20949 net.cpp:128] Creating Layer conv2_Eltwise_2_conv2_2ReLU_1_0_split
I0927 07:56:56.768121 20949 net.cpp:558] conv2_Eltwise_2_conv2_2ReLU_1_0_split <- conv2_Eltwise_2
I0927 07:56:56.768131 20949 net.cpp:522] conv2_Eltwise_2_conv2_2ReLU_1_0_split -> conv2_Eltwise_2_conv2_2ReLU_1_0_split_0
I0927 07:56:56.768138 20949 net.cpp:522] conv2_Eltwise_2_conv2_2ReLU_1_0_split -> conv2_Eltwise_2_conv2_2ReLU_1_0_split_1
I0927 07:56:56.768188 20949 net.cpp:172] Setting up conv2_Eltwise_2_conv2_2ReLU_1_0_split
I0927 07:56:56.768203 20949 net.cpp:186] Top shape: 128 16 32 32 (2097152)
I0927 07:56:56.768208 20949 net.cpp:186] Top shape: 128 16 32 32 (2097152)
I0927 07:56:56.768213 20949 net.cpp:194] Memory required for data: 236454400
I0927 07:56:56.768216 20949 layer_factory.hpp:77] Creating layer conv2_3_0
I0927 07:56:56.768229 20949 net.cpp:128] Creating Layer conv2_3_0
I0927 07:56:56.768234 20949 net.cpp:558] conv2_3_0 <- conv2_Eltwise_2_conv2_2ReLU_1_0_split_0
I0927 07:56:56.768244 20949 net.cpp:522] conv2_3_0 -> conv2_3_0
I0927 07:56:56.769448 20949 net.cpp:172] Setting up conv2_3_0
I0927 07:56:56.769474 20949 net.cpp:186] Top shape: 128 16 32 32 (2097152)
I0927 07:56:56.769479 20949 net.cpp:194] Memory required for data: 244843008
I0927 07:56:56.769490 20949 layer_factory.hpp:77] Creating layer conv2_3_bn0
I0927 07:56:56.769500 20949 net.cpp:128] Creating Layer conv2_3_bn0
I0927 07:56:56.769505 20949 net.cpp:558] conv2_3_bn0 <- conv2_3_0
I0927 07:56:56.769518 20949 net.cpp:509] conv2_3_bn0 -> conv2_3_0 (in-place)
I0927 07:56:56.769748 20949 net.cpp:172] Setting up conv2_3_bn0
I0927 07:56:56.769759 20949 net.cpp:186] Top shape: 128 16 32 32 (2097152)
I0927 07:56:56.769763 20949 net.cpp:194] Memory required for data: 253231616
I0927 07:56:56.769773 20949 layer_factory.hpp:77] Creating layer conv2_3_scale0
I0927 07:56:56.769783 20949 net.cpp:128] Creating Layer conv2_3_scale0
I0927 07:56:56.769786 20949 net.cpp:558] conv2_3_scale0 <- conv2_3_0
I0927 07:56:56.769793 20949 net.cpp:509] conv2_3_scale0 -> conv2_3_0 (in-place)
I0927 07:56:56.769830 20949 layer_factory.hpp:77] Creating layer conv2_3_scale0
I0927 07:56:56.769963 20949 net.cpp:172] Setting up conv2_3_scale0
I0927 07:56:56.769973 20949 net.cpp:186] Top shape: 128 16 32 32 (2097152)
I0927 07:56:56.769978 20949 net.cpp:194] Memory required for data: 261620224
I0927 07:56:56.769985 20949 layer_factory.hpp:77] Creating layer conv2_3_ReLU0
I0927 07:56:56.769992 20949 net.cpp:128] Creating Layer conv2_3_ReLU0
I0927 07:56:56.769996 20949 net.cpp:558] conv2_3_ReLU0 <- conv2_3_0
I0927 07:56:56.770004 20949 net.cpp:509] conv2_3_ReLU0 -> conv2_3_0 (in-place)
I0927 07:56:56.770418 20949 net.cpp:172] Setting up conv2_3_ReLU0
I0927 07:56:56.770440 20949 net.cpp:186] Top shape: 128 16 32 32 (2097152)
I0927 07:56:56.770444 20949 net.cpp:194] Memory required for data: 270008832
I0927 07:56:56.770449 20949 layer_factory.hpp:77] Creating layer conv2_3_1
I0927 07:56:56.770463 20949 net.cpp:128] Creating Layer conv2_3_1
I0927 07:56:56.770468 20949 net.cpp:558] conv2_3_1 <- conv2_3_0
I0927 07:56:56.770478 20949 net.cpp:522] conv2_3_1 -> conv2_3_1
I0927 07:56:56.771729 20949 net.cpp:172] Setting up conv2_3_1
I0927 07:56:56.771757 20949 net.cpp:186] Top shape: 128 16 32 32 (2097152)
I0927 07:56:56.771761 20949 net.cpp:194] Memory required for data: 278397440
I0927 07:56:56.771771 20949 layer_factory.hpp:77] Creating layer conv2_3bn1
I0927 07:56:56.771782 20949 net.cpp:128] Creating Layer conv2_3bn1
I0927 07:56:56.771787 20949 net.cpp:558] conv2_3bn1 <- conv2_3_1
I0927 07:56:56.771800 20949 net.cpp:509] conv2_3bn1 -> conv2_3_1 (in-place)
I0927 07:56:56.772039 20949 net.cpp:172] Setting up conv2_3bn1
I0927 07:56:56.772066 20949 net.cpp:186] Top shape: 128 16 32 32 (2097152)
I0927 07:56:56.772071 20949 net.cpp:194] Memory required for data: 286786048
I0927 07:56:56.772080 20949 layer_factory.hpp:77] Creating layer conv2_3_scale1
I0927 07:56:56.772091 20949 net.cpp:128] Creating Layer conv2_3_scale1
I0927 07:56:56.772096 20949 net.cpp:558] conv2_3_scale1 <- conv2_3_1
I0927 07:56:56.772102 20949 net.cpp:509] conv2_3_scale1 -> conv2_3_1 (in-place)
I0927 07:56:56.772141 20949 layer_factory.hpp:77] Creating layer conv2_3_scale1
I0927 07:56:56.772279 20949 net.cpp:172] Setting up conv2_3_scale1
I0927 07:56:56.772289 20949 net.cpp:186] Top shape: 128 16 32 32 (2097152)
I0927 07:56:56.772294 20949 net.cpp:194] Memory required for data: 295174656
I0927 07:56:56.772301 20949 layer_factory.hpp:77] Creating layer conv2_Eltwise_3
I0927 07:56:56.772308 20949 net.cpp:128] Creating Layer conv2_Eltwise_3
I0927 07:56:56.772313 20949 net.cpp:558] conv2_Eltwise_3 <- conv2_Eltwise_2_conv2_2ReLU_1_0_split_1
I0927 07:56:56.772318 20949 net.cpp:558] conv2_Eltwise_3 <- conv2_3_1
I0927 07:56:56.772326 20949 net.cpp:522] conv2_Eltwise_3 -> conv2_Eltwise_3
I0927 07:56:56.772351 20949 net.cpp:172] Setting up conv2_Eltwise_3
I0927 07:56:56.772361 20949 net.cpp:186] Top shape: 128 16 32 32 (2097152)
I0927 07:56:56.772364 20949 net.cpp:194] Memory required for data: 303563264
I0927 07:56:56.772368 20949 layer_factory.hpp:77] Creating layer conv2_3ReLU_1
I0927 07:56:56.772375 20949 net.cpp:128] Creating Layer conv2_3ReLU_1
I0927 07:56:56.772379 20949 net.cpp:558] conv2_3ReLU_1 <- conv2_Eltwise_3
I0927 07:56:56.772385 20949 net.cpp:509] conv2_3ReLU_1 -> conv2_Eltwise_3 (in-place)
I0927 07:56:56.772614 20949 net.cpp:172] Setting up conv2_3ReLU_1
I0927 07:56:56.772629 20949 net.cpp:186] Top shape: 128 16 32 32 (2097152)
I0927 07:56:56.772634 20949 net.cpp:194] Memory required for data: 311951872
I0927 07:56:56.772637 20949 layer_factory.hpp:77] Creating layer conv2_Eltwise_3_conv2_3ReLU_1_0_split
I0927 07:56:56.772646 20949 net.cpp:128] Creating Layer conv2_Eltwise_3_conv2_3ReLU_1_0_split
I0927 07:56:56.772651 20949 net.cpp:558] conv2_Eltwise_3_conv2_3ReLU_1_0_split <- conv2_Eltwise_3
I0927 07:56:56.772657 20949 net.cpp:522] conv2_Eltwise_3_conv2_3ReLU_1_0_split -> conv2_Eltwise_3_conv2_3ReLU_1_0_split_0
I0927 07:56:56.772667 20949 net.cpp:522] conv2_Eltwise_3_conv2_3ReLU_1_0_split -> conv2_Eltwise_3_conv2_3ReLU_1_0_split_1
I0927 07:56:56.772713 20949 net.cpp:172] Setting up conv2_Eltwise_3_conv2_3ReLU_1_0_split
I0927 07:56:56.772723 20949 net.cpp:186] Top shape: 128 16 32 32 (2097152)
I0927 07:56:56.772729 20949 net.cpp:186] Top shape: 128 16 32 32 (2097152)
I0927 07:56:56.772733 20949 net.cpp:194] Memory required for data: 328729088
I0927 07:56:56.772737 20949 layer_factory.hpp:77] Creating layer conv2_4_0
I0927 07:56:56.772752 20949 net.cpp:128] Creating Layer conv2_4_0
I0927 07:56:56.772756 20949 net.cpp:558] conv2_4_0 <- conv2_Eltwise_3_conv2_3ReLU_1_0_split_0
I0927 07:56:56.772763 20949 net.cpp:522] conv2_4_0 -> conv2_4_0
I0927 07:56:56.774003 20949 net.cpp:172] Setting up conv2_4_0
I0927 07:56:56.774030 20949 net.cpp:186] Top shape: 128 16 32 32 (2097152)
I0927 07:56:56.774034 20949 net.cpp:194] Memory required for data: 337117696
I0927 07:56:56.774044 20949 layer_factory.hpp:77] Creating layer conv2_4_bn0
I0927 07:56:56.774058 20949 net.cpp:128] Creating Layer conv2_4_bn0
I0927 07:56:56.774063 20949 net.cpp:558] conv2_4_bn0 <- conv2_4_0
I0927 07:56:56.774077 20949 net.cpp:509] conv2_4_bn0 -> conv2_4_0 (in-place)
I0927 07:56:56.774320 20949 net.cpp:172] Setting up conv2_4_bn0
I0927 07:56:56.774332 20949 net.cpp:186] Top shape: 128 16 32 32 (2097152)
I0927 07:56:56.774336 20949 net.cpp:194] Memory required for data: 345506304
I0927 07:56:56.774345 20949 layer_factory.hpp:77] Creating layer conv2_4_scale0
I0927 07:56:56.774354 20949 net.cpp:128] Creating Layer conv2_4_scale0
I0927 07:56:56.774359 20949 net.cpp:558] conv2_4_scale0 <- conv2_4_0
I0927 07:56:56.774365 20949 net.cpp:509] conv2_4_scale0 -> conv2_4_0 (in-place)
I0927 07:56:56.774402 20949 layer_factory.hpp:77] Creating layer conv2_4_scale0
I0927 07:56:56.774557 20949 net.cpp:172] Setting up conv2_4_scale0
I0927 07:56:56.774569 20949 net.cpp:186] Top shape: 128 16 32 32 (2097152)
I0927 07:56:56.774574 20949 net.cpp:194] Memory required for data: 353894912
I0927 07:56:56.774581 20949 layer_factory.hpp:77] Creating layer conv2_4_ReLU0
I0927 07:56:56.774587 20949 net.cpp:128] Creating Layer conv2_4_ReLU0
I0927 07:56:56.774591 20949 net.cpp:558] conv2_4_ReLU0 <- conv2_4_0
I0927 07:56:56.774597 20949 net.cpp:509] conv2_4_ReLU0 -> conv2_4_0 (in-place)
I0927 07:56:56.774857 20949 net.cpp:172] Setting up conv2_4_ReLU0
I0927 07:56:56.774875 20949 net.cpp:186] Top shape: 128 16 32 32 (2097152)
I0927 07:56:56.774879 20949 net.cpp:194] Memory required for data: 362283520
I0927 07:56:56.774884 20949 layer_factory.hpp:77] Creating layer conv2_4_1
I0927 07:56:56.774899 20949 net.cpp:128] Creating Layer conv2_4_1
I0927 07:56:56.774904 20949 net.cpp:558] conv2_4_1 <- conv2_4_0
I0927 07:56:56.774914 20949 net.cpp:522] conv2_4_1 -> conv2_4_1
I0927 07:56:56.776182 20949 net.cpp:172] Setting up conv2_4_1
I0927 07:56:56.776209 20949 net.cpp:186] Top shape: 128 16 32 32 (2097152)
I0927 07:56:56.776213 20949 net.cpp:194] Memory required for data: 370672128
I0927 07:56:56.776223 20949 layer_factory.hpp:77] Creating layer conv2_4bn1
I0927 07:56:56.776234 20949 net.cpp:128] Creating Layer conv2_4bn1
I0927 07:56:56.776239 20949 net.cpp:558] conv2_4bn1 <- conv2_4_1
I0927 07:56:56.776253 20949 net.cpp:509] conv2_4bn1 -> conv2_4_1 (in-place)
I0927 07:56:56.776504 20949 net.cpp:172] Setting up conv2_4bn1
I0927 07:56:56.776515 20949 net.cpp:186] Top shape: 128 16 32 32 (2097152)
I0927 07:56:56.776518 20949 net.cpp:194] Memory required for data: 379060736
I0927 07:56:56.776528 20949 layer_factory.hpp:77] Creating layer conv2_4_scale1
I0927 07:56:56.776535 20949 net.cpp:128] Creating Layer conv2_4_scale1
I0927 07:56:56.776540 20949 net.cpp:558] conv2_4_scale1 <- conv2_4_1
I0927 07:56:56.776546 20949 net.cpp:509] conv2_4_scale1 -> conv2_4_1 (in-place)
I0927 07:56:56.776587 20949 layer_factory.hpp:77] Creating layer conv2_4_scale1
I0927 07:56:56.776722 20949 net.cpp:172] Setting up conv2_4_scale1
I0927 07:56:56.776733 20949 net.cpp:186] Top shape: 128 16 32 32 (2097152)
I0927 07:56:56.776737 20949 net.cpp:194] Memory required for data: 387449344
I0927 07:56:56.776746 20949 layer_factory.hpp:77] Creating layer conv2_Eltwise_4
I0927 07:56:56.776756 20949 net.cpp:128] Creating Layer conv2_Eltwise_4
I0927 07:56:56.776760 20949 net.cpp:558] conv2_Eltwise_4 <- conv2_Eltwise_3_conv2_3ReLU_1_0_split_1
I0927 07:56:56.776765 20949 net.cpp:558] conv2_Eltwise_4 <- conv2_4_1
I0927 07:56:56.776772 20949 net.cpp:522] conv2_Eltwise_4 -> conv2_Eltwise_4
I0927 07:56:56.776799 20949 net.cpp:172] Setting up conv2_Eltwise_4
I0927 07:56:56.776806 20949 net.cpp:186] Top shape: 128 16 32 32 (2097152)
I0927 07:56:56.776810 20949 net.cpp:194] Memory required for data: 395837952
I0927 07:56:56.776814 20949 layer_factory.hpp:77] Creating layer conv2_4ReLU_1
I0927 07:56:56.776820 20949 net.cpp:128] Creating Layer conv2_4ReLU_1
I0927 07:56:56.776824 20949 net.cpp:558] conv2_4ReLU_1 <- conv2_Eltwise_4
I0927 07:56:56.776832 20949 net.cpp:509] conv2_4ReLU_1 -> conv2_Eltwise_4 (in-place)
I0927 07:56:56.777065 20949 net.cpp:172] Setting up conv2_4ReLU_1
I0927 07:56:56.777079 20949 net.cpp:186] Top shape: 128 16 32 32 (2097152)
I0927 07:56:56.777084 20949 net.cpp:194] Memory required for data: 404226560
I0927 07:56:56.777088 20949 layer_factory.hpp:77] Creating layer conv2_Eltwise_4_conv2_4ReLU_1_0_split
I0927 07:56:56.777096 20949 net.cpp:128] Creating Layer conv2_Eltwise_4_conv2_4ReLU_1_0_split
I0927 07:56:56.777101 20949 net.cpp:558] conv2_Eltwise_4_conv2_4ReLU_1_0_split <- conv2_Eltwise_4
I0927 07:56:56.777108 20949 net.cpp:522] conv2_Eltwise_4_conv2_4ReLU_1_0_split -> conv2_Eltwise_4_conv2_4ReLU_1_0_split_0
I0927 07:56:56.777117 20949 net.cpp:522] conv2_Eltwise_4_conv2_4ReLU_1_0_split -> conv2_Eltwise_4_conv2_4ReLU_1_0_split_1
I0927 07:56:56.777165 20949 net.cpp:172] Setting up conv2_Eltwise_4_conv2_4ReLU_1_0_split
I0927 07:56:56.777189 20949 net.cpp:186] Top shape: 128 16 32 32 (2097152)
I0927 07:56:56.777195 20949 net.cpp:186] Top shape: 128 16 32 32 (2097152)
I0927 07:56:56.777199 20949 net.cpp:194] Memory required for data: 421003776
I0927 07:56:56.777204 20949 layer_factory.hpp:77] Creating layer conv2_5_0
I0927 07:56:56.777215 20949 net.cpp:128] Creating Layer conv2_5_0
I0927 07:56:56.777220 20949 net.cpp:558] conv2_5_0 <- conv2_Eltwise_4_conv2_4ReLU_1_0_split_0
I0927 07:56:56.777230 20949 net.cpp:522] conv2_5_0 -> conv2_5_0
I0927 07:56:56.778487 20949 net.cpp:172] Setting up conv2_5_0
I0927 07:56:56.778513 20949 net.cpp:186] Top shape: 128 16 32 32 (2097152)
I0927 07:56:56.778517 20949 net.cpp:194] Memory required for data: 429392384
I0927 07:56:56.778537 20949 layer_factory.hpp:77] Creating layer conv2_5_bn0
I0927 07:56:56.778549 20949 net.cpp:128] Creating Layer conv2_5_bn0
I0927 07:56:56.778558 20949 net.cpp:558] conv2_5_bn0 <- conv2_5_0
I0927 07:56:56.778563 20949 net.cpp:509] conv2_5_bn0 -> conv2_5_0 (in-place)
I0927 07:56:56.778821 20949 net.cpp:172] Setting up conv2_5_bn0
I0927 07:56:56.778836 20949 net.cpp:186] Top shape: 128 16 32 32 (2097152)
I0927 07:56:56.778841 20949 net.cpp:194] Memory required for data: 437780992
I0927 07:56:56.778851 20949 layer_factory.hpp:77] Creating layer conv2_5_scale0
I0927 07:56:56.778858 20949 net.cpp:128] Creating Layer conv2_5_scale0
I0927 07:56:56.778863 20949 net.cpp:558] conv2_5_scale0 <- conv2_5_0
I0927 07:56:56.778872 20949 net.cpp:509] conv2_5_scale0 -> conv2_5_0 (in-place)
I0927 07:56:56.778911 20949 layer_factory.hpp:77] Creating layer conv2_5_scale0
I0927 07:56:56.779047 20949 net.cpp:172] Setting up conv2_5_scale0
I0927 07:56:56.779060 20949 net.cpp:186] Top shape: 128 16 32 32 (2097152)
I0927 07:56:56.779065 20949 net.cpp:194] Memory required for data: 446169600
I0927 07:56:56.779073 20949 layer_factory.hpp:77] Creating layer conv2_5_ReLU0
I0927 07:56:56.779079 20949 net.cpp:128] Creating Layer conv2_5_ReLU0
I0927 07:56:56.779083 20949 net.cpp:558] conv2_5_ReLU0 <- conv2_5_0
I0927 07:56:56.779089 20949 net.cpp:509] conv2_5_ReLU0 -> conv2_5_0 (in-place)
I0927 07:56:56.779515 20949 net.cpp:172] Setting up conv2_5_ReLU0
I0927 07:56:56.779536 20949 net.cpp:186] Top shape: 128 16 32 32 (2097152)
I0927 07:56:56.779541 20949 net.cpp:194] Memory required for data: 454558208
I0927 07:56:56.779546 20949 layer_factory.hpp:77] Creating layer conv2_5_1
I0927 07:56:56.779561 20949 net.cpp:128] Creating Layer conv2_5_1
I0927 07:56:56.779567 20949 net.cpp:558] conv2_5_1 <- conv2_5_0
I0927 07:56:56.779574 20949 net.cpp:522] conv2_5_1 -> conv2_5_1
I0927 07:56:56.780849 20949 net.cpp:172] Setting up conv2_5_1
I0927 07:56:56.780876 20949 net.cpp:186] Top shape: 128 16 32 32 (2097152)
I0927 07:56:56.780880 20949 net.cpp:194] Memory required for data: 462946816
I0927 07:56:56.780890 20949 layer_factory.hpp:77] Creating layer conv2_5bn1
I0927 07:56:56.780902 20949 net.cpp:128] Creating Layer conv2_5bn1
I0927 07:56:56.780907 20949 net.cpp:558] conv2_5bn1 <- conv2_5_1
I0927 07:56:56.780920 20949 net.cpp:509] conv2_5bn1 -> conv2_5_1 (in-place)
I0927 07:56:56.781168 20949 net.cpp:172] Setting up conv2_5bn1
I0927 07:56:56.781178 20949 net.cpp:186] Top shape: 128 16 32 32 (2097152)
I0927 07:56:56.781183 20949 net.cpp:194] Memory required for data: 471335424
I0927 07:56:56.781193 20949 layer_factory.hpp:77] Creating layer conv2_5_scale1
I0927 07:56:56.781201 20949 net.cpp:128] Creating Layer conv2_5_scale1
I0927 07:56:56.781206 20949 net.cpp:558] conv2_5_scale1 <- conv2_5_1
I0927 07:56:56.781211 20949 net.cpp:509] conv2_5_scale1 -> conv2_5_1 (in-place)
I0927 07:56:56.781251 20949 layer_factory.hpp:77] Creating layer conv2_5_scale1
I0927 07:56:56.781394 20949 net.cpp:172] Setting up conv2_5_scale1
I0927 07:56:56.781401 20949 net.cpp:186] Top shape: 128 16 32 32 (2097152)
I0927 07:56:56.781405 20949 net.cpp:194] Memory required for data: 479724032
I0927 07:56:56.781414 20949 layer_factory.hpp:77] Creating layer conv2_Eltwise_5
I0927 07:56:56.781420 20949 net.cpp:128] Creating Layer conv2_Eltwise_5
I0927 07:56:56.781440 20949 net.cpp:558] conv2_Eltwise_5 <- conv2_Eltwise_4_conv2_4ReLU_1_0_split_1
I0927 07:56:56.781445 20949 net.cpp:558] conv2_Eltwise_5 <- conv2_5_1
I0927 07:56:56.781453 20949 net.cpp:522] conv2_Eltwise_5 -> conv2_Eltwise_5
I0927 07:56:56.781481 20949 net.cpp:172] Setting up conv2_Eltwise_5
I0927 07:56:56.781491 20949 net.cpp:186] Top shape: 128 16 32 32 (2097152)
I0927 07:56:56.781494 20949 net.cpp:194] Memory required for data: 488112640
I0927 07:56:56.781498 20949 layer_factory.hpp:77] Creating layer conv2_5ReLU_1
I0927 07:56:56.781504 20949 net.cpp:128] Creating Layer conv2_5ReLU_1
I0927 07:56:56.781509 20949 net.cpp:558] conv2_5ReLU_1 <- conv2_Eltwise_5
I0927 07:56:56.781514 20949 net.cpp:509] conv2_5ReLU_1 -> conv2_Eltwise_5 (in-place)
I0927 07:56:56.781746 20949 net.cpp:172] Setting up conv2_5ReLU_1
I0927 07:56:56.781759 20949 net.cpp:186] Top shape: 128 16 32 32 (2097152)
I0927 07:56:56.781762 20949 net.cpp:194] Memory required for data: 496501248
I0927 07:56:56.781766 20949 layer_factory.hpp:77] Creating layer conv2_Eltwise_5_conv2_5ReLU_1_0_split
I0927 07:56:56.781774 20949 net.cpp:128] Creating Layer conv2_Eltwise_5_conv2_5ReLU_1_0_split
I0927 07:56:56.781778 20949 net.cpp:558] conv2_Eltwise_5_conv2_5ReLU_1_0_split <- conv2_Eltwise_5
I0927 07:56:56.781786 20949 net.cpp:522] conv2_Eltwise_5_conv2_5ReLU_1_0_split -> conv2_Eltwise_5_conv2_5ReLU_1_0_split_0
I0927 07:56:56.781795 20949 net.cpp:522] conv2_Eltwise_5_conv2_5ReLU_1_0_split -> conv2_Eltwise_5_conv2_5ReLU_1_0_split_1
I0927 07:56:56.781841 20949 net.cpp:172] Setting up conv2_Eltwise_5_conv2_5ReLU_1_0_split
I0927 07:56:56.781848 20949 net.cpp:186] Top shape: 128 16 32 32 (2097152)
I0927 07:56:56.781854 20949 net.cpp:186] Top shape: 128 16 32 32 (2097152)
I0927 07:56:56.781858 20949 net.cpp:194] Memory required for data: 513278464
I0927 07:56:56.781862 20949 layer_factory.hpp:77] Creating layer conv2_6_0
I0927 07:56:56.781877 20949 net.cpp:128] Creating Layer conv2_6_0
I0927 07:56:56.781883 20949 net.cpp:558] conv2_6_0 <- conv2_Eltwise_5_conv2_5ReLU_1_0_split_0
I0927 07:56:56.781889 20949 net.cpp:522] conv2_6_0 -> conv2_6_0
I0927 07:56:56.783183 20949 net.cpp:172] Setting up conv2_6_0
I0927 07:56:56.783205 20949 net.cpp:186] Top shape: 128 16 32 32 (2097152)
I0927 07:56:56.783210 20949 net.cpp:194] Memory required for data: 521667072
I0927 07:56:56.783221 20949 layer_factory.hpp:77] Creating layer conv2_6_bn0
I0927 07:56:56.783231 20949 net.cpp:128] Creating Layer conv2_6_bn0
I0927 07:56:56.783236 20949 net.cpp:558] conv2_6_bn0 <- conv2_6_0
I0927 07:56:56.783246 20949 net.cpp:509] conv2_6_bn0 -> conv2_6_0 (in-place)
I0927 07:56:56.783496 20949 net.cpp:172] Setting up conv2_6_bn0
I0927 07:56:56.783507 20949 net.cpp:186] Top shape: 128 16 32 32 (2097152)
I0927 07:56:56.783512 20949 net.cpp:194] Memory required for data: 530055680
I0927 07:56:56.783521 20949 layer_factory.hpp:77] Creating layer conv2_6_scale0
I0927 07:56:56.783530 20949 net.cpp:128] Creating Layer conv2_6_scale0
I0927 07:56:56.783535 20949 net.cpp:558] conv2_6_scale0 <- conv2_6_0
I0927 07:56:56.783541 20949 net.cpp:509] conv2_6_scale0 -> conv2_6_0 (in-place)
I0927 07:56:56.783582 20949 layer_factory.hpp:77] Creating layer conv2_6_scale0
I0927 07:56:56.783721 20949 net.cpp:172] Setting up conv2_6_scale0
I0927 07:56:56.783728 20949 net.cpp:186] Top shape: 128 16 32 32 (2097152)
I0927 07:56:56.783732 20949 net.cpp:194] Memory required for data: 538444288
I0927 07:56:56.783740 20949 layer_factory.hpp:77] Creating layer conv2_6_ReLU0
I0927 07:56:56.783747 20949 net.cpp:128] Creating Layer conv2_6_ReLU0
I0927 07:56:56.783751 20949 net.cpp:558] conv2_6_ReLU0 <- conv2_6_0
I0927 07:56:56.783761 20949 net.cpp:509] conv2_6_ReLU0 -> conv2_6_0 (in-place)
I0927 07:56:56.783996 20949 net.cpp:172] Setting up conv2_6_ReLU0
I0927 07:56:56.784011 20949 net.cpp:186] Top shape: 128 16 32 32 (2097152)
I0927 07:56:56.784015 20949 net.cpp:194] Memory required for data: 546832896
I0927 07:56:56.784020 20949 layer_factory.hpp:77] Creating layer conv2_6_1
I0927 07:56:56.784052 20949 net.cpp:128] Creating Layer conv2_6_1
I0927 07:56:56.784057 20949 net.cpp:558] conv2_6_1 <- conv2_6_0
I0927 07:56:56.784067 20949 net.cpp:522] conv2_6_1 -> conv2_6_1
I0927 07:56:56.785349 20949 net.cpp:172] Setting up conv2_6_1
I0927 07:56:56.785378 20949 net.cpp:186] Top shape: 128 16 32 32 (2097152)
I0927 07:56:56.785382 20949 net.cpp:194] Memory required for data: 555221504
I0927 07:56:56.785392 20949 layer_factory.hpp:77] Creating layer conv2_6bn1
I0927 07:56:56.785400 20949 net.cpp:128] Creating Layer conv2_6bn1
I0927 07:56:56.785405 20949 net.cpp:558] conv2_6bn1 <- conv2_6_1
I0927 07:56:56.785418 20949 net.cpp:509] conv2_6bn1 -> conv2_6_1 (in-place)
I0927 07:56:56.785672 20949 net.cpp:172] Setting up conv2_6bn1
I0927 07:56:56.785683 20949 net.cpp:186] Top shape: 128 16 32 32 (2097152)
I0927 07:56:56.785687 20949 net.cpp:194] Memory required for data: 563610112
I0927 07:56:56.785697 20949 layer_factory.hpp:77] Creating layer conv2_6_scale1
I0927 07:56:56.785703 20949 net.cpp:128] Creating Layer conv2_6_scale1
I0927 07:56:56.785708 20949 net.cpp:558] conv2_6_scale1 <- conv2_6_1
I0927 07:56:56.785717 20949 net.cpp:509] conv2_6_scale1 -> conv2_6_1 (in-place)
I0927 07:56:56.785756 20949 layer_factory.hpp:77] Creating layer conv2_6_scale1
I0927 07:56:56.785894 20949 net.cpp:172] Setting up conv2_6_scale1
I0927 07:56:56.785902 20949 net.cpp:186] Top shape: 128 16 32 32 (2097152)
I0927 07:56:56.785907 20949 net.cpp:194] Memory required for data: 571998720
I0927 07:56:56.785915 20949 layer_factory.hpp:77] Creating layer conv2_Eltwise_6
I0927 07:56:56.785923 20949 net.cpp:128] Creating Layer conv2_Eltwise_6
I0927 07:56:56.785928 20949 net.cpp:558] conv2_Eltwise_6 <- conv2_Eltwise_5_conv2_5ReLU_1_0_split_1
I0927 07:56:56.785934 20949 net.cpp:558] conv2_Eltwise_6 <- conv2_6_1
I0927 07:56:56.785939 20949 net.cpp:522] conv2_Eltwise_6 -> conv2_Eltwise_6
I0927 07:56:56.785972 20949 net.cpp:172] Setting up conv2_Eltwise_6
I0927 07:56:56.785980 20949 net.cpp:186] Top shape: 128 16 32 32 (2097152)
I0927 07:56:56.785984 20949 net.cpp:194] Memory required for data: 580387328
I0927 07:56:56.785989 20949 layer_factory.hpp:77] Creating layer conv2_6ReLU_1
I0927 07:56:56.785997 20949 net.cpp:128] Creating Layer conv2_6ReLU_1
I0927 07:56:56.786002 20949 net.cpp:558] conv2_6ReLU_1 <- conv2_Eltwise_6
I0927 07:56:56.786008 20949 net.cpp:509] conv2_6ReLU_1 -> conv2_Eltwise_6 (in-place)
I0927 07:56:56.786469 20949 net.cpp:172] Setting up conv2_6ReLU_1
I0927 07:56:56.786490 20949 net.cpp:186] Top shape: 128 16 32 32 (2097152)
I0927 07:56:56.786495 20949 net.cpp:194] Memory required for data: 588775936
I0927 07:56:56.786501 20949 layer_factory.hpp:77] Creating layer conv2_Eltwise_6_conv2_6ReLU_1_0_split
I0927 07:56:56.786509 20949 net.cpp:128] Creating Layer conv2_Eltwise_6_conv2_6ReLU_1_0_split
I0927 07:56:56.786514 20949 net.cpp:558] conv2_Eltwise_6_conv2_6ReLU_1_0_split <- conv2_Eltwise_6
I0927 07:56:56.786522 20949 net.cpp:522] conv2_Eltwise_6_conv2_6ReLU_1_0_split -> conv2_Eltwise_6_conv2_6ReLU_1_0_split_0
I0927 07:56:56.786531 20949 net.cpp:522] conv2_Eltwise_6_conv2_6ReLU_1_0_split -> conv2_Eltwise_6_conv2_6ReLU_1_0_split_1
I0927 07:56:56.786589 20949 net.cpp:172] Setting up conv2_Eltwise_6_conv2_6ReLU_1_0_split
I0927 07:56:56.786598 20949 net.cpp:186] Top shape: 128 16 32 32 (2097152)
I0927 07:56:56.786604 20949 net.cpp:186] Top shape: 128 16 32 32 (2097152)
I0927 07:56:56.786608 20949 net.cpp:194] Memory required for data: 605553152
I0927 07:56:56.786612 20949 layer_factory.hpp:77] Creating layer conv2_7_0
I0927 07:56:56.786626 20949 net.cpp:128] Creating Layer conv2_7_0
I0927 07:56:56.786631 20949 net.cpp:558] conv2_7_0 <- conv2_Eltwise_6_conv2_6ReLU_1_0_split_0
I0927 07:56:56.786640 20949 net.cpp:522] conv2_7_0 -> conv2_7_0
I0927 07:56:56.787928 20949 net.cpp:172] Setting up conv2_7_0
I0927 07:56:56.787950 20949 net.cpp:186] Top shape: 128 16 32 32 (2097152)
I0927 07:56:56.787955 20949 net.cpp:194] Memory required for data: 613941760
I0927 07:56:56.787968 20949 layer_factory.hpp:77] Creating layer conv2_7_bn0
I0927 07:56:56.788004 20949 net.cpp:128] Creating Layer conv2_7_bn0
I0927 07:56:56.788012 20949 net.cpp:558] conv2_7_bn0 <- conv2_7_0
I0927 07:56:56.788019 20949 net.cpp:509] conv2_7_bn0 -> conv2_7_0 (in-place)
I0927 07:56:56.788273 20949 net.cpp:172] Setting up conv2_7_bn0
I0927 07:56:56.788283 20949 net.cpp:186] Top shape: 128 16 32 32 (2097152)
I0927 07:56:56.788287 20949 net.cpp:194] Memory required for data: 622330368
I0927 07:56:56.788297 20949 layer_factory.hpp:77] Creating layer conv2_7_scale0
I0927 07:56:56.788305 20949 net.cpp:128] Creating Layer conv2_7_scale0
I0927 07:56:56.788312 20949 net.cpp:558] conv2_7_scale0 <- conv2_7_0
I0927 07:56:56.788318 20949 net.cpp:509] conv2_7_scale0 -> conv2_7_0 (in-place)
I0927 07:56:56.788360 20949 layer_factory.hpp:77] Creating layer conv2_7_scale0
I0927 07:56:56.788506 20949 net.cpp:172] Setting up conv2_7_scale0
I0927 07:56:56.788516 20949 net.cpp:186] Top shape: 128 16 32 32 (2097152)
I0927 07:56:56.788519 20949 net.cpp:194] Memory required for data: 630718976
I0927 07:56:56.788527 20949 layer_factory.hpp:77] Creating layer conv2_7_ReLU0
I0927 07:56:56.788542 20949 net.cpp:128] Creating Layer conv2_7_ReLU0
I0927 07:56:56.788547 20949 net.cpp:558] conv2_7_ReLU0 <- conv2_7_0
I0927 07:56:56.788552 20949 net.cpp:509] conv2_7_ReLU0 -> conv2_7_0 (in-place)
I0927 07:56:56.788789 20949 net.cpp:172] Setting up conv2_7_ReLU0
I0927 07:56:56.788801 20949 net.cpp:186] Top shape: 128 16 32 32 (2097152)
I0927 07:56:56.788805 20949 net.cpp:194] Memory required for data: 639107584
I0927 07:56:56.788810 20949 layer_factory.hpp:77] Creating layer conv2_7_1
I0927 07:56:56.788825 20949 net.cpp:128] Creating Layer conv2_7_1
I0927 07:56:56.788831 20949 net.cpp:558] conv2_7_1 <- conv2_7_0
I0927 07:56:56.788839 20949 net.cpp:522] conv2_7_1 -> conv2_7_1
I0927 07:56:56.790118 20949 net.cpp:172] Setting up conv2_7_1
I0927 07:56:56.790145 20949 net.cpp:186] Top shape: 128 16 32 32 (2097152)
I0927 07:56:56.790149 20949 net.cpp:194] Memory required for data: 647496192
I0927 07:56:56.790163 20949 layer_factory.hpp:77] Creating layer conv2_7bn1
I0927 07:56:56.790177 20949 net.cpp:128] Creating Layer conv2_7bn1
I0927 07:56:56.790184 20949 net.cpp:558] conv2_7bn1 <- conv2_7_1
I0927 07:56:56.790192 20949 net.cpp:509] conv2_7bn1 -> conv2_7_1 (in-place)
I0927 07:56:56.790448 20949 net.cpp:172] Setting up conv2_7bn1
I0927 07:56:56.790458 20949 net.cpp:186] Top shape: 128 16 32 32 (2097152)
I0927 07:56:56.790462 20949 net.cpp:194] Memory required for data: 655884800
I0927 07:56:56.790472 20949 layer_factory.hpp:77] Creating layer conv2_7_scale1
I0927 07:56:56.790482 20949 net.cpp:128] Creating Layer conv2_7_scale1
I0927 07:56:56.790489 20949 net.cpp:558] conv2_7_scale1 <- conv2_7_1
I0927 07:56:56.790494 20949 net.cpp:509] conv2_7_scale1 -> conv2_7_1 (in-place)
I0927 07:56:56.790534 20949 layer_factory.hpp:77] Creating layer conv2_7_scale1
I0927 07:56:56.790679 20949 net.cpp:172] Setting up conv2_7_scale1
I0927 07:56:56.790689 20949 net.cpp:186] Top shape: 128 16 32 32 (2097152)
I0927 07:56:56.790693 20949 net.cpp:194] Memory required for data: 664273408
I0927 07:56:56.790701 20949 layer_factory.hpp:77] Creating layer conv2_Eltwise_7
I0927 07:56:56.790709 20949 net.cpp:128] Creating Layer conv2_Eltwise_7
I0927 07:56:56.790712 20949 net.cpp:558] conv2_Eltwise_7 <- conv2_Eltwise_6_conv2_6ReLU_1_0_split_1
I0927 07:56:56.790719 20949 net.cpp:558] conv2_Eltwise_7 <- conv2_7_1
I0927 07:56:56.790725 20949 net.cpp:522] conv2_Eltwise_7 -> conv2_Eltwise_7
I0927 07:56:56.790751 20949 net.cpp:172] Setting up conv2_Eltwise_7
I0927 07:56:56.790762 20949 net.cpp:186] Top shape: 128 16 32 32 (2097152)
I0927 07:56:56.790767 20949 net.cpp:194] Memory required for data: 672662016
I0927 07:56:56.790771 20949 layer_factory.hpp:77] Creating layer conv2_7ReLU_1
I0927 07:56:56.790777 20949 net.cpp:128] Creating Layer conv2_7ReLU_1
I0927 07:56:56.790781 20949 net.cpp:558] conv2_7ReLU_1 <- conv2_Eltwise_7
I0927 07:56:56.790787 20949 net.cpp:509] conv2_7ReLU_1 -> conv2_Eltwise_7 (in-place)
I0927 07:56:56.791040 20949 net.cpp:172] Setting up conv2_7ReLU_1
I0927 07:56:56.791074 20949 net.cpp:186] Top shape: 128 16 32 32 (2097152)
I0927 07:56:56.791079 20949 net.cpp:194] Memory required for data: 681050624
I0927 07:56:56.791083 20949 layer_factory.hpp:77] Creating layer conv2_Eltwise_7_conv2_7ReLU_1_0_split
I0927 07:56:56.791090 20949 net.cpp:128] Creating Layer conv2_Eltwise_7_conv2_7ReLU_1_0_split
I0927 07:56:56.791095 20949 net.cpp:558] conv2_Eltwise_7_conv2_7ReLU_1_0_split <- conv2_Eltwise_7
I0927 07:56:56.791102 20949 net.cpp:522] conv2_Eltwise_7_conv2_7ReLU_1_0_split -> conv2_Eltwise_7_conv2_7ReLU_1_0_split_0
I0927 07:56:56.791112 20949 net.cpp:522] conv2_Eltwise_7_conv2_7ReLU_1_0_split -> conv2_Eltwise_7_conv2_7ReLU_1_0_split_1
I0927 07:56:56.791167 20949 net.cpp:172] Setting up conv2_Eltwise_7_conv2_7ReLU_1_0_split
I0927 07:56:56.791177 20949 net.cpp:186] Top shape: 128 16 32 32 (2097152)
I0927 07:56:56.791182 20949 net.cpp:186] Top shape: 128 16 32 32 (2097152)
I0927 07:56:56.791185 20949 net.cpp:194] Memory required for data: 697827840
I0927 07:56:56.791190 20949 layer_factory.hpp:77] Creating layer conv2_8_0
I0927 07:56:56.791206 20949 net.cpp:128] Creating Layer conv2_8_0
I0927 07:56:56.791214 20949 net.cpp:558] conv2_8_0 <- conv2_Eltwise_7_conv2_7ReLU_1_0_split_0
I0927 07:56:56.791221 20949 net.cpp:522] conv2_8_0 -> conv2_8_0
I0927 07:56:56.792682 20949 net.cpp:172] Setting up conv2_8_0
I0927 07:56:56.792709 20949 net.cpp:186] Top shape: 128 16 32 32 (2097152)
I0927 07:56:56.792713 20949 net.cpp:194] Memory required for data: 706216448
I0927 07:56:56.792726 20949 layer_factory.hpp:77] Creating layer conv2_8_bn0
I0927 07:56:56.792742 20949 net.cpp:128] Creating Layer conv2_8_bn0
I0927 07:56:56.792747 20949 net.cpp:558] conv2_8_bn0 <- conv2_8_0
I0927 07:56:56.792754 20949 net.cpp:509] conv2_8_bn0 -> conv2_8_0 (in-place)
I0927 07:56:56.793010 20949 net.cpp:172] Setting up conv2_8_bn0
I0927 07:56:56.793020 20949 net.cpp:186] Top shape: 128 16 32 32 (2097152)
I0927 07:56:56.793025 20949 net.cpp:194] Memory required for data: 714605056
I0927 07:56:56.793035 20949 layer_factory.hpp:77] Creating layer conv2_8_scale0
I0927 07:56:56.793042 20949 net.cpp:128] Creating Layer conv2_8_scale0
I0927 07:56:56.793048 20949 net.cpp:558] conv2_8_scale0 <- conv2_8_0
I0927 07:56:56.793054 20949 net.cpp:509] conv2_8_scale0 -> conv2_8_0 (in-place)
I0927 07:56:56.793097 20949 layer_factory.hpp:77] Creating layer conv2_8_scale0
I0927 07:56:56.793241 20949 net.cpp:172] Setting up conv2_8_scale0
I0927 07:56:56.793251 20949 net.cpp:186] Top shape: 128 16 32 32 (2097152)
I0927 07:56:56.793256 20949 net.cpp:194] Memory required for data: 722993664
I0927 07:56:56.793264 20949 layer_factory.hpp:77] Creating layer conv2_8_ReLU0
I0927 07:56:56.793272 20949 net.cpp:128] Creating Layer conv2_8_ReLU0
I0927 07:56:56.793279 20949 net.cpp:558] conv2_8_ReLU0 <- conv2_8_0
I0927 07:56:56.793284 20949 net.cpp:509] conv2_8_ReLU0 -> conv2_8_0 (in-place)
I0927 07:56:56.793714 20949 net.cpp:172] Setting up conv2_8_ReLU0
I0927 07:56:56.793736 20949 net.cpp:186] Top shape: 128 16 32 32 (2097152)
I0927 07:56:56.793741 20949 net.cpp:194] Memory required for data: 731382272
I0927 07:56:56.793746 20949 layer_factory.hpp:77] Creating layer conv2_8_1
I0927 07:56:56.793759 20949 net.cpp:128] Creating Layer conv2_8_1
I0927 07:56:56.793764 20949 net.cpp:558] conv2_8_1 <- conv2_8_0
I0927 07:56:56.793774 20949 net.cpp:522] conv2_8_1 -> conv2_8_1
I0927 07:56:56.795085 20949 net.cpp:172] Setting up conv2_8_1
I0927 07:56:56.795112 20949 net.cpp:186] Top shape: 128 16 32 32 (2097152)
I0927 07:56:56.795116 20949 net.cpp:194] Memory required for data: 739770880
I0927 07:56:56.795126 20949 layer_factory.hpp:77] Creating layer conv2_8bn1
I0927 07:56:56.795136 20949 net.cpp:128] Creating Layer conv2_8bn1
I0927 07:56:56.795146 20949 net.cpp:558] conv2_8bn1 <- conv2_8_1
I0927 07:56:56.795155 20949 net.cpp:509] conv2_8bn1 -> conv2_8_1 (in-place)
I0927 07:56:56.795419 20949 net.cpp:172] Setting up conv2_8bn1
I0927 07:56:56.795430 20949 net.cpp:186] Top shape: 128 16 32 32 (2097152)
I0927 07:56:56.795434 20949 net.cpp:194] Memory required for data: 748159488
I0927 07:56:56.795464 20949 layer_factory.hpp:77] Creating layer conv2_8_scale1
I0927 07:56:56.795473 20949 net.cpp:128] Creating Layer conv2_8_scale1
I0927 07:56:56.795478 20949 net.cpp:558] conv2_8_scale1 <- conv2_8_1
I0927 07:56:56.795485 20949 net.cpp:509] conv2_8_scale1 -> conv2_8_1 (in-place)
I0927 07:56:56.795528 20949 layer_factory.hpp:77] Creating layer conv2_8_scale1
I0927 07:56:56.795675 20949 net.cpp:172] Setting up conv2_8_scale1
I0927 07:56:56.795686 20949 net.cpp:186] Top shape: 128 16 32 32 (2097152)
I0927 07:56:56.795691 20949 net.cpp:194] Memory required for data: 756548096
I0927 07:56:56.795698 20949 layer_factory.hpp:77] Creating layer conv2_Eltwise_8
I0927 07:56:56.795706 20949 net.cpp:128] Creating Layer conv2_Eltwise_8
I0927 07:56:56.795711 20949 net.cpp:558] conv2_Eltwise_8 <- conv2_Eltwise_7_conv2_7ReLU_1_0_split_1
I0927 07:56:56.795716 20949 net.cpp:558] conv2_Eltwise_8 <- conv2_8_1
I0927 07:56:56.795723 20949 net.cpp:522] conv2_Eltwise_8 -> conv2_Eltwise_8
I0927 07:56:56.795750 20949 net.cpp:172] Setting up conv2_Eltwise_8
I0927 07:56:56.795759 20949 net.cpp:186] Top shape: 128 16 32 32 (2097152)
I0927 07:56:56.795763 20949 net.cpp:194] Memory required for data: 764936704
I0927 07:56:56.795769 20949 layer_factory.hpp:77] Creating layer conv2_8ReLU_1
I0927 07:56:56.795778 20949 net.cpp:128] Creating Layer conv2_8ReLU_1
I0927 07:56:56.795783 20949 net.cpp:558] conv2_8ReLU_1 <- conv2_Eltwise_8
I0927 07:56:56.795789 20949 net.cpp:509] conv2_8ReLU_1 -> conv2_Eltwise_8 (in-place)
I0927 07:56:56.796020 20949 net.cpp:172] Setting up conv2_8ReLU_1
I0927 07:56:56.796033 20949 net.cpp:186] Top shape: 128 16 32 32 (2097152)
I0927 07:56:56.796037 20949 net.cpp:194] Memory required for data: 773325312
I0927 07:56:56.796042 20949 layer_factory.hpp:77] Creating layer conv2_Eltwise_8_conv2_8ReLU_1_0_split
I0927 07:56:56.796052 20949 net.cpp:128] Creating Layer conv2_Eltwise_8_conv2_8ReLU_1_0_split
I0927 07:56:56.796058 20949 net.cpp:558] conv2_Eltwise_8_conv2_8ReLU_1_0_split <- conv2_Eltwise_8
I0927 07:56:56.796066 20949 net.cpp:522] conv2_Eltwise_8_conv2_8ReLU_1_0_split -> conv2_Eltwise_8_conv2_8ReLU_1_0_split_0
I0927 07:56:56.796075 20949 net.cpp:522] conv2_Eltwise_8_conv2_8ReLU_1_0_split -> conv2_Eltwise_8_conv2_8ReLU_1_0_split_1
I0927 07:56:56.796123 20949 net.cpp:172] Setting up conv2_Eltwise_8_conv2_8ReLU_1_0_split
I0927 07:56:56.796134 20949 net.cpp:186] Top shape: 128 16 32 32 (2097152)
I0927 07:56:56.796140 20949 net.cpp:186] Top shape: 128 16 32 32 (2097152)
I0927 07:56:56.796144 20949 net.cpp:194] Memory required for data: 790102528
I0927 07:56:56.796149 20949 layer_factory.hpp:77] Creating layer conv2_9_0
I0927 07:56:56.796160 20949 net.cpp:128] Creating Layer conv2_9_0
I0927 07:56:56.796167 20949 net.cpp:558] conv2_9_0 <- conv2_Eltwise_8_conv2_8ReLU_1_0_split_0
I0927 07:56:56.796177 20949 net.cpp:522] conv2_9_0 -> conv2_9_0
I0927 07:56:56.797456 20949 net.cpp:172] Setting up conv2_9_0
I0927 07:56:56.797482 20949 net.cpp:186] Top shape: 128 16 32 32 (2097152)
I0927 07:56:56.797487 20949 net.cpp:194] Memory required for data: 798491136
I0927 07:56:56.797500 20949 layer_factory.hpp:77] Creating layer conv2_9_bn0
I0927 07:56:56.797511 20949 net.cpp:128] Creating Layer conv2_9_bn0
I0927 07:56:56.797519 20949 net.cpp:558] conv2_9_bn0 <- conv2_9_0
I0927 07:56:56.797533 20949 net.cpp:509] conv2_9_bn0 -> conv2_9_0 (in-place)
I0927 07:56:56.797797 20949 net.cpp:172] Setting up conv2_9_bn0
I0927 07:56:56.797808 20949 net.cpp:186] Top shape: 128 16 32 32 (2097152)
I0927 07:56:56.797812 20949 net.cpp:194] Memory required for data: 806879744
I0927 07:56:56.797822 20949 layer_factory.hpp:77] Creating layer conv2_9_scale0
I0927 07:56:56.797829 20949 net.cpp:128] Creating Layer conv2_9_scale0
I0927 07:56:56.797833 20949 net.cpp:558] conv2_9_scale0 <- conv2_9_0
I0927 07:56:56.797839 20949 net.cpp:509] conv2_9_scale0 -> conv2_9_0 (in-place)
I0927 07:56:56.797886 20949 layer_factory.hpp:77] Creating layer conv2_9_scale0
I0927 07:56:56.798032 20949 net.cpp:172] Setting up conv2_9_scale0
I0927 07:56:56.798058 20949 net.cpp:186] Top shape: 128 16 32 32 (2097152)
I0927 07:56:56.798063 20949 net.cpp:194] Memory required for data: 815268352
I0927 07:56:56.798070 20949 layer_factory.hpp:77] Creating layer conv2_9_ReLU0
I0927 07:56:56.798076 20949 net.cpp:128] Creating Layer conv2_9_ReLU0
I0927 07:56:56.798081 20949 net.cpp:558] conv2_9_ReLU0 <- conv2_9_0
I0927 07:56:56.798089 20949 net.cpp:509] conv2_9_ReLU0 -> conv2_9_0 (in-place)
I0927 07:56:56.798331 20949 net.cpp:172] Setting up conv2_9_ReLU0
I0927 07:56:56.798349 20949 net.cpp:186] Top shape: 128 16 32 32 (2097152)
I0927 07:56:56.798354 20949 net.cpp:194] Memory required for data: 823656960
I0927 07:56:56.798358 20949 layer_factory.hpp:77] Creating layer conv2_9_1
I0927 07:56:56.798372 20949 net.cpp:128] Creating Layer conv2_9_1
I0927 07:56:56.798377 20949 net.cpp:558] conv2_9_1 <- conv2_9_0
I0927 07:56:56.798386 20949 net.cpp:522] conv2_9_1 -> conv2_9_1
I0927 07:56:56.799679 20949 net.cpp:172] Setting up conv2_9_1
I0927 07:56:56.799706 20949 net.cpp:186] Top shape: 128 16 32 32 (2097152)
I0927 07:56:56.799710 20949 net.cpp:194] Memory required for data: 832045568
I0927 07:56:56.799722 20949 layer_factory.hpp:77] Creating layer conv2_9bn1
I0927 07:56:56.799734 20949 net.cpp:128] Creating Layer conv2_9bn1
I0927 07:56:56.799741 20949 net.cpp:558] conv2_9bn1 <- conv2_9_1
I0927 07:56:56.799753 20949 net.cpp:509] conv2_9bn1 -> conv2_9_1 (in-place)
I0927 07:56:56.800017 20949 net.cpp:172] Setting up conv2_9bn1
I0927 07:56:56.800027 20949 net.cpp:186] Top shape: 128 16 32 32 (2097152)
I0927 07:56:56.800032 20949 net.cpp:194] Memory required for data: 840434176
I0927 07:56:56.800055 20949 layer_factory.hpp:77] Creating layer conv2_9_scale1
I0927 07:56:56.800065 20949 net.cpp:128] Creating Layer conv2_9_scale1
I0927 07:56:56.800071 20949 net.cpp:558] conv2_9_scale1 <- conv2_9_1
I0927 07:56:56.800078 20949 net.cpp:509] conv2_9_scale1 -> conv2_9_1 (in-place)
I0927 07:56:56.800120 20949 layer_factory.hpp:77] Creating layer conv2_9_scale1
I0927 07:56:56.800267 20949 net.cpp:172] Setting up conv2_9_scale1
I0927 07:56:56.800277 20949 net.cpp:186] Top shape: 128 16 32 32 (2097152)
I0927 07:56:56.800282 20949 net.cpp:194] Memory required for data: 848822784
I0927 07:56:56.800289 20949 layer_factory.hpp:77] Creating layer conv2_Eltwise_9
I0927 07:56:56.800299 20949 net.cpp:128] Creating Layer conv2_Eltwise_9
I0927 07:56:56.800305 20949 net.cpp:558] conv2_Eltwise_9 <- conv2_Eltwise_8_conv2_8ReLU_1_0_split_1
I0927 07:56:56.800310 20949 net.cpp:558] conv2_Eltwise_9 <- conv2_9_1
I0927 07:56:56.800317 20949 net.cpp:522] conv2_Eltwise_9 -> conv2_Eltwise_9
I0927 07:56:56.800345 20949 net.cpp:172] Setting up conv2_Eltwise_9
I0927 07:56:56.800355 20949 net.cpp:186] Top shape: 128 16 32 32 (2097152)
I0927 07:56:56.800359 20949 net.cpp:194] Memory required for data: 857211392
I0927 07:56:56.800364 20949 layer_factory.hpp:77] Creating layer conv2_9ReLU_1
I0927 07:56:56.800369 20949 net.cpp:128] Creating Layer conv2_9ReLU_1
I0927 07:56:56.800374 20949 net.cpp:558] conv2_9ReLU_1 <- conv2_Eltwise_9
I0927 07:56:56.800381 20949 net.cpp:509] conv2_9ReLU_1 -> conv2_Eltwise_9 (in-place)
I0927 07:56:56.800616 20949 net.cpp:172] Setting up conv2_9ReLU_1
I0927 07:56:56.800627 20949 net.cpp:186] Top shape: 128 16 32 32 (2097152)
I0927 07:56:56.800632 20949 net.cpp:194] Memory required for data: 865600000
I0927 07:56:56.800637 20949 layer_factory.hpp:77] Creating layer conv2_Eltwise_9_conv2_9ReLU_1_0_split
I0927 07:56:56.800643 20949 net.cpp:128] Creating Layer conv2_Eltwise_9_conv2_9ReLU_1_0_split
I0927 07:56:56.800648 20949 net.cpp:558] conv2_Eltwise_9_conv2_9ReLU_1_0_split <- conv2_Eltwise_9
I0927 07:56:56.800657 20949 net.cpp:522] conv2_Eltwise_9_conv2_9ReLU_1_0_split -> conv2_Eltwise_9_conv2_9ReLU_1_0_split_0
I0927 07:56:56.800664 20949 net.cpp:522] conv2_Eltwise_9_conv2_9ReLU_1_0_split -> conv2_Eltwise_9_conv2_9ReLU_1_0_split_1
I0927 07:56:56.800716 20949 net.cpp:172] Setting up conv2_Eltwise_9_conv2_9ReLU_1_0_split
I0927 07:56:56.800727 20949 net.cpp:186] Top shape: 128 16 32 32 (2097152)
I0927 07:56:56.800750 20949 net.cpp:186] Top shape: 128 16 32 32 (2097152)
I0927 07:56:56.800753 20949 net.cpp:194] Memory required for data: 882377216
I0927 07:56:56.800758 20949 layer_factory.hpp:77] Creating layer conv2_10_0
I0927 07:56:56.800771 20949 net.cpp:128] Creating Layer conv2_10_0
I0927 07:56:56.800776 20949 net.cpp:558] conv2_10_0 <- conv2_Eltwise_9_conv2_9ReLU_1_0_split_0
I0927 07:56:56.800788 20949 net.cpp:522] conv2_10_0 -> conv2_10_0
I0927 07:56:56.802076 20949 net.cpp:172] Setting up conv2_10_0
I0927 07:56:56.802105 20949 net.cpp:186] Top shape: 128 16 32 32 (2097152)
I0927 07:56:56.802110 20949 net.cpp:194] Memory required for data: 890765824
I0927 07:56:56.802120 20949 layer_factory.hpp:77] Creating layer conv2_10_bn0
I0927 07:56:56.802129 20949 net.cpp:128] Creating Layer conv2_10_bn0
I0927 07:56:56.802137 20949 net.cpp:558] conv2_10_bn0 <- conv2_10_0
I0927 07:56:56.802150 20949 net.cpp:509] conv2_10_bn0 -> conv2_10_0 (in-place)
I0927 07:56:56.802408 20949 net.cpp:172] Setting up conv2_10_bn0
I0927 07:56:56.802418 20949 net.cpp:186] Top shape: 128 16 32 32 (2097152)
I0927 07:56:56.802423 20949 net.cpp:194] Memory required for data: 899154432
I0927 07:56:56.802433 20949 layer_factory.hpp:77] Creating layer conv2_10_scale0
I0927 07:56:56.802438 20949 net.cpp:128] Creating Layer conv2_10_scale0
I0927 07:56:56.802443 20949 net.cpp:558] conv2_10_scale0 <- conv2_10_0
I0927 07:56:56.802451 20949 net.cpp:509] conv2_10_scale0 -> conv2_10_0 (in-place)
I0927 07:56:56.802491 20949 layer_factory.hpp:77] Creating layer conv2_10_scale0
I0927 07:56:56.802633 20949 net.cpp:172] Setting up conv2_10_scale0
I0927 07:56:56.802642 20949 net.cpp:186] Top shape: 128 16 32 32 (2097152)
I0927 07:56:56.802646 20949 net.cpp:194] Memory required for data: 907543040
I0927 07:56:56.802654 20949 layer_factory.hpp:77] Creating layer conv2_10_ReLU0
I0927 07:56:56.802662 20949 net.cpp:128] Creating Layer conv2_10_ReLU0
I0927 07:56:56.802667 20949 net.cpp:558] conv2_10_ReLU0 <- conv2_10_0
I0927 07:56:56.802672 20949 net.cpp:509] conv2_10_ReLU0 -> conv2_10_0 (in-place)
I0927 07:56:56.803118 20949 net.cpp:172] Setting up conv2_10_ReLU0
I0927 07:56:56.803140 20949 net.cpp:186] Top shape: 128 16 32 32 (2097152)
I0927 07:56:56.803145 20949 net.cpp:194] Memory required for data: 915931648
I0927 07:56:56.803150 20949 layer_factory.hpp:77] Creating layer conv2_10_1
I0927 07:56:56.803164 20949 net.cpp:128] Creating Layer conv2_10_1
I0927 07:56:56.803169 20949 net.cpp:558] conv2_10_1 <- conv2_10_0
I0927 07:56:56.803181 20949 net.cpp:522] conv2_10_1 -> conv2_10_1
I0927 07:56:56.804495 20949 net.cpp:172] Setting up conv2_10_1
I0927 07:56:56.804522 20949 net.cpp:186] Top shape: 128 16 32 32 (2097152)
I0927 07:56:56.804527 20949 net.cpp:194] Memory required for data: 924320256
I0927 07:56:56.804538 20949 layer_factory.hpp:77] Creating layer conv2_10bn1
I0927 07:56:56.804546 20949 net.cpp:128] Creating Layer conv2_10bn1
I0927 07:56:56.804551 20949 net.cpp:558] conv2_10bn1 <- conv2_10_1
I0927 07:56:56.804563 20949 net.cpp:509] conv2_10bn1 -> conv2_10_1 (in-place)
I0927 07:56:56.804826 20949 net.cpp:172] Setting up conv2_10bn1
I0927 07:56:56.804836 20949 net.cpp:186] Top shape: 128 16 32 32 (2097152)
I0927 07:56:56.804839 20949 net.cpp:194] Memory required for data: 932708864
I0927 07:56:56.804849 20949 layer_factory.hpp:77] Creating layer conv2_10_scale1
I0927 07:56:56.804857 20949 net.cpp:128] Creating Layer conv2_10_scale1
I0927 07:56:56.804860 20949 net.cpp:558] conv2_10_scale1 <- conv2_10_1
I0927 07:56:56.804868 20949 net.cpp:509] conv2_10_scale1 -> conv2_10_1 (in-place)
I0927 07:56:56.804908 20949 layer_factory.hpp:77] Creating layer conv2_10_scale1
I0927 07:56:56.805050 20949 net.cpp:172] Setting up conv2_10_scale1
I0927 07:56:56.805063 20949 net.cpp:186] Top shape: 128 16 32 32 (2097152)
I0927 07:56:56.805068 20949 net.cpp:194] Memory required for data: 941097472
I0927 07:56:56.805074 20949 layer_factory.hpp:77] Creating layer conv2_Eltwise_10
I0927 07:56:56.805083 20949 net.cpp:128] Creating Layer conv2_Eltwise_10
I0927 07:56:56.805086 20949 net.cpp:558] conv2_Eltwise_10 <- conv2_Eltwise_9_conv2_9ReLU_1_0_split_1
I0927 07:56:56.805107 20949 net.cpp:558] conv2_Eltwise_10 <- conv2_10_1
I0927 07:56:56.805114 20949 net.cpp:522] conv2_Eltwise_10 -> conv2_Eltwise_10
I0927 07:56:56.805145 20949 net.cpp:172] Setting up conv2_Eltwise_10
I0927 07:56:56.805155 20949 net.cpp:186] Top shape: 128 16 32 32 (2097152)
I0927 07:56:56.805158 20949 net.cpp:194] Memory required for data: 949486080
I0927 07:56:56.805162 20949 layer_factory.hpp:77] Creating layer conv2_10ReLU_1
I0927 07:56:56.805168 20949 net.cpp:128] Creating Layer conv2_10ReLU_1
I0927 07:56:56.805173 20949 net.cpp:558] conv2_10ReLU_1 <- conv2_Eltwise_10
I0927 07:56:56.805178 20949 net.cpp:509] conv2_10ReLU_1 -> conv2_Eltwise_10 (in-place)
I0927 07:56:56.805414 20949 net.cpp:172] Setting up conv2_10ReLU_1
I0927 07:56:56.805433 20949 net.cpp:186] Top shape: 128 16 32 32 (2097152)
I0927 07:56:56.805441 20949 net.cpp:194] Memory required for data: 957874688
I0927 07:56:56.805446 20949 layer_factory.hpp:77] Creating layer conv2_Eltwise_10_conv2_10ReLU_1_0_split
I0927 07:56:56.805454 20949 net.cpp:128] Creating Layer conv2_Eltwise_10_conv2_10ReLU_1_0_split
I0927 07:56:56.805459 20949 net.cpp:558] conv2_Eltwise_10_conv2_10ReLU_1_0_split <- conv2_Eltwise_10
I0927 07:56:56.805464 20949 net.cpp:522] conv2_Eltwise_10_conv2_10ReLU_1_0_split -> conv2_Eltwise_10_conv2_10ReLU_1_0_split_0
I0927 07:56:56.805475 20949 net.cpp:522] conv2_Eltwise_10_conv2_10ReLU_1_0_split -> conv2_Eltwise_10_conv2_10ReLU_1_0_split_1
I0927 07:56:56.805526 20949 net.cpp:172] Setting up conv2_Eltwise_10_conv2_10ReLU_1_0_split
I0927 07:56:56.805533 20949 net.cpp:186] Top shape: 128 16 32 32 (2097152)
I0927 07:56:56.805539 20949 net.cpp:186] Top shape: 128 16 32 32 (2097152)
I0927 07:56:56.805542 20949 net.cpp:194] Memory required for data: 974651904
I0927 07:56:56.805547 20949 layer_factory.hpp:77] Creating layer conv2_11_0
I0927 07:56:56.805563 20949 net.cpp:128] Creating Layer conv2_11_0
I0927 07:56:56.805568 20949 net.cpp:558] conv2_11_0 <- conv2_Eltwise_10_conv2_10ReLU_1_0_split_0
I0927 07:56:56.805575 20949 net.cpp:522] conv2_11_0 -> conv2_11_0
I0927 07:56:56.807072 20949 net.cpp:172] Setting up conv2_11_0
I0927 07:56:56.807094 20949 net.cpp:186] Top shape: 128 16 32 32 (2097152)
I0927 07:56:56.807099 20949 net.cpp:194] Memory required for data: 983040512
I0927 07:56:56.807111 20949 layer_factory.hpp:77] Creating layer conv2_11_bn0
I0927 07:56:56.807121 20949 net.cpp:128] Creating Layer conv2_11_bn0
I0927 07:56:56.807129 20949 net.cpp:558] conv2_11_bn0 <- conv2_11_0
I0927 07:56:56.807143 20949 net.cpp:509] conv2_11_bn0 -> conv2_11_0 (in-place)
I0927 07:56:56.807421 20949 net.cpp:172] Setting up conv2_11_bn0
I0927 07:56:56.807431 20949 net.cpp:186] Top shape: 128 16 32 32 (2097152)
I0927 07:56:56.807436 20949 net.cpp:194] Memory required for data: 991429120
I0927 07:56:56.807446 20949 layer_factory.hpp:77] Creating layer conv2_11_scale0
I0927 07:56:56.807453 20949 net.cpp:128] Creating Layer conv2_11_scale0
I0927 07:56:56.807457 20949 net.cpp:558] conv2_11_scale0 <- conv2_11_0
I0927 07:56:56.807463 20949 net.cpp:509] conv2_11_scale0 -> conv2_11_0 (in-place)
I0927 07:56:56.807508 20949 layer_factory.hpp:77] Creating layer conv2_11_scale0
I0927 07:56:56.807657 20949 net.cpp:172] Setting up conv2_11_scale0
I0927 07:56:56.807667 20949 net.cpp:186] Top shape: 128 16 32 32 (2097152)
I0927 07:56:56.807670 20949 net.cpp:194] Memory required for data: 999817728
I0927 07:56:56.807678 20949 layer_factory.hpp:77] Creating layer conv2_11_ReLU0
I0927 07:56:56.807684 20949 net.cpp:128] Creating Layer conv2_11_ReLU0
I0927 07:56:56.807689 20949 net.cpp:558] conv2_11_ReLU0 <- conv2_11_0
I0927 07:56:56.807696 20949 net.cpp:509] conv2_11_ReLU0 -> conv2_11_0 (in-place)
I0927 07:56:56.807934 20949 net.cpp:172] Setting up conv2_11_ReLU0
I0927 07:56:56.807947 20949 net.cpp:186] Top shape: 128 16 32 32 (2097152)
I0927 07:56:56.807952 20949 net.cpp:194] Memory required for data: 1008206336
I0927 07:56:56.807956 20949 layer_factory.hpp:77] Creating layer conv2_11_1
I0927 07:56:56.807987 20949 net.cpp:128] Creating Layer conv2_11_1
I0927 07:56:56.807994 20949 net.cpp:558] conv2_11_1 <- conv2_11_0
I0927 07:56:56.808008 20949 net.cpp:522] conv2_11_1 -> conv2_11_1
I0927 07:56:56.809288 20949 net.cpp:172] Setting up conv2_11_1
I0927 07:56:56.809314 20949 net.cpp:186] Top shape: 128 16 32 32 (2097152)
I0927 07:56:56.809319 20949 net.cpp:194] Memory required for data: 1016594944
I0927 07:56:56.809330 20949 layer_factory.hpp:77] Creating layer conv2_11bn1
I0927 07:56:56.809341 20949 net.cpp:128] Creating Layer conv2_11bn1
I0927 07:56:56.809346 20949 net.cpp:558] conv2_11bn1 <- conv2_11_1
I0927 07:56:56.809360 20949 net.cpp:509] conv2_11bn1 -> conv2_11_1 (in-place)
I0927 07:56:56.809626 20949 net.cpp:172] Setting up conv2_11bn1
I0927 07:56:56.809635 20949 net.cpp:186] Top shape: 128 16 32 32 (2097152)
I0927 07:56:56.809640 20949 net.cpp:194] Memory required for data: 1024983552
I0927 07:56:56.809649 20949 layer_factory.hpp:77] Creating layer conv2_11_scale1
I0927 07:56:56.809661 20949 net.cpp:128] Creating Layer conv2_11_scale1
I0927 07:56:56.809665 20949 net.cpp:558] conv2_11_scale1 <- conv2_11_1
I0927 07:56:56.809671 20949 net.cpp:509] conv2_11_scale1 -> conv2_11_1 (in-place)
I0927 07:56:56.809716 20949 layer_factory.hpp:77] Creating layer conv2_11_scale1
I0927 07:56:56.809865 20949 net.cpp:172] Setting up conv2_11_scale1
I0927 07:56:56.809875 20949 net.cpp:186] Top shape: 128 16 32 32 (2097152)
I0927 07:56:56.809880 20949 net.cpp:194] Memory required for data: 1033372160
I0927 07:56:56.809887 20949 layer_factory.hpp:77] Creating layer conv2_Eltwise_11
I0927 07:56:56.809897 20949 net.cpp:128] Creating Layer conv2_Eltwise_11
I0927 07:56:56.809902 20949 net.cpp:558] conv2_Eltwise_11 <- conv2_Eltwise_10_conv2_10ReLU_1_0_split_1
I0927 07:56:56.809907 20949 net.cpp:558] conv2_Eltwise_11 <- conv2_11_1
I0927 07:56:56.809913 20949 net.cpp:522] conv2_Eltwise_11 -> conv2_Eltwise_11
I0927 07:56:56.809943 20949 net.cpp:172] Setting up conv2_Eltwise_11
I0927 07:56:56.809953 20949 net.cpp:186] Top shape: 128 16 32 32 (2097152)
I0927 07:56:56.809957 20949 net.cpp:194] Memory required for data: 1041760768
I0927 07:56:56.809962 20949 layer_factory.hpp:77] Creating layer conv2_11ReLU_1
I0927 07:56:56.809967 20949 net.cpp:128] Creating Layer conv2_11ReLU_1
I0927 07:56:56.809972 20949 net.cpp:558] conv2_11ReLU_1 <- conv2_Eltwise_11
I0927 07:56:56.809979 20949 net.cpp:509] conv2_11ReLU_1 -> conv2_Eltwise_11 (in-place)
I0927 07:56:56.810406 20949 net.cpp:172] Setting up conv2_11ReLU_1
I0927 07:56:56.810428 20949 net.cpp:186] Top shape: 128 16 32 32 (2097152)
I0927 07:56:56.810432 20949 net.cpp:194] Memory required for data: 1050149376
I0927 07:56:56.810438 20949 layer_factory.hpp:77] Creating layer conv2_Eltwise_11_conv2_11ReLU_1_0_split
I0927 07:56:56.810448 20949 net.cpp:128] Creating Layer conv2_Eltwise_11_conv2_11ReLU_1_0_split
I0927 07:56:56.810454 20949 net.cpp:558] conv2_Eltwise_11_conv2_11ReLU_1_0_split <- conv2_Eltwise_11
I0927 07:56:56.810461 20949 net.cpp:522] conv2_Eltwise_11_conv2_11ReLU_1_0_split -> conv2_Eltwise_11_conv2_11ReLU_1_0_split_0
I0927 07:56:56.810472 20949 net.cpp:522] conv2_Eltwise_11_conv2_11ReLU_1_0_split -> conv2_Eltwise_11_conv2_11ReLU_1_0_split_1
I0927 07:56:56.810529 20949 net.cpp:172] Setting up conv2_Eltwise_11_conv2_11ReLU_1_0_split
I0927 07:56:56.810539 20949 net.cpp:186] Top shape: 128 16 32 32 (2097152)
I0927 07:56:56.810545 20949 net.cpp:186] Top shape: 128 16 32 32 (2097152)
I0927 07:56:56.810549 20949 net.cpp:194] Memory required for data: 1066926592
I0927 07:56:56.810554 20949 layer_factory.hpp:77] Creating layer conv2_12_0
I0927 07:56:56.810565 20949 net.cpp:128] Creating Layer conv2_12_0
I0927 07:56:56.810572 20949 net.cpp:558] conv2_12_0 <- conv2_Eltwise_11_conv2_11ReLU_1_0_split_0
I0927 07:56:56.810582 20949 net.cpp:522] conv2_12_0 -> conv2_12_0
I0927 07:56:56.811883 20949 net.cpp:172] Setting up conv2_12_0
I0927 07:56:56.811910 20949 net.cpp:186] Top shape: 128 16 32 32 (2097152)
I0927 07:56:56.811915 20949 net.cpp:194] Memory required for data: 1075315200
I0927 07:56:56.811947 20949 layer_factory.hpp:77] Creating layer conv2_12_bn0
I0927 07:56:56.811956 20949 net.cpp:128] Creating Layer conv2_12_bn0
I0927 07:56:56.811961 20949 net.cpp:558] conv2_12_bn0 <- conv2_12_0
I0927 07:56:56.811970 20949 net.cpp:509] conv2_12_bn0 -> conv2_12_0 (in-place)
I0927 07:56:56.812247 20949 net.cpp:172] Setting up conv2_12_bn0
I0927 07:56:56.812258 20949 net.cpp:186] Top shape: 128 16 32 32 (2097152)
I0927 07:56:56.812261 20949 net.cpp:194] Memory required for data: 1083703808
I0927 07:56:56.812271 20949 layer_factory.hpp:77] Creating layer conv2_12_scale0
I0927 07:56:56.812278 20949 net.cpp:128] Creating Layer conv2_12_scale0
I0927 07:56:56.812283 20949 net.cpp:558] conv2_12_scale0 <- conv2_12_0
I0927 07:56:56.812289 20949 net.cpp:509] conv2_12_scale0 -> conv2_12_0 (in-place)
I0927 07:56:56.812330 20949 layer_factory.hpp:77] Creating layer conv2_12_scale0
I0927 07:56:56.812479 20949 net.cpp:172] Setting up conv2_12_scale0
I0927 07:56:56.812494 20949 net.cpp:186] Top shape: 128 16 32 32 (2097152)
I0927 07:56:56.812499 20949 net.cpp:194] Memory required for data: 1092092416
I0927 07:56:56.812506 20949 layer_factory.hpp:77] Creating layer conv2_12_ReLU0
I0927 07:56:56.812512 20949 net.cpp:128] Creating Layer conv2_12_ReLU0
I0927 07:56:56.812517 20949 net.cpp:558] conv2_12_ReLU0 <- conv2_12_0
I0927 07:56:56.812522 20949 net.cpp:509] conv2_12_ReLU0 -> conv2_12_0 (in-place)
I0927 07:56:56.812767 20949 net.cpp:172] Setting up conv2_12_ReLU0
I0927 07:56:56.812783 20949 net.cpp:186] Top shape: 128 16 32 32 (2097152)
I0927 07:56:56.812791 20949 net.cpp:194] Memory required for data: 1100481024
I0927 07:56:56.812796 20949 layer_factory.hpp:77] Creating layer conv2_12_1
I0927 07:56:56.812808 20949 net.cpp:128] Creating Layer conv2_12_1
I0927 07:56:56.812817 20949 net.cpp:558] conv2_12_1 <- conv2_12_0
I0927 07:56:56.812825 20949 net.cpp:522] conv2_12_1 -> conv2_12_1
I0927 07:56:56.814131 20949 net.cpp:172] Setting up conv2_12_1
I0927 07:56:56.814157 20949 net.cpp:186] Top shape: 128 16 32 32 (2097152)
I0927 07:56:56.814162 20949 net.cpp:194] Memory required for data: 1108869632
I0927 07:56:56.814177 20949 layer_factory.hpp:77] Creating layer conv2_12bn1
I0927 07:56:56.814186 20949 net.cpp:128] Creating Layer conv2_12bn1
I0927 07:56:56.814195 20949 net.cpp:558] conv2_12bn1 <- conv2_12_1
I0927 07:56:56.814206 20949 net.cpp:509] conv2_12bn1 -> conv2_12_1 (in-place)
I0927 07:56:56.814481 20949 net.cpp:172] Setting up conv2_12bn1
I0927 07:56:56.814491 20949 net.cpp:186] Top shape: 128 16 32 32 (2097152)
I0927 07:56:56.814496 20949 net.cpp:194] Memory required for data: 1117258240
I0927 07:56:56.814505 20949 layer_factory.hpp:77] Creating layer conv2_12_scale1
I0927 07:56:56.814512 20949 net.cpp:128] Creating Layer conv2_12_scale1
I0927 07:56:56.814517 20949 net.cpp:558] conv2_12_scale1 <- conv2_12_1
I0927 07:56:56.814522 20949 net.cpp:509] conv2_12_scale1 -> conv2_12_1 (in-place)
I0927 07:56:56.814568 20949 layer_factory.hpp:77] Creating layer conv2_12_scale1
I0927 07:56:56.814715 20949 net.cpp:172] Setting up conv2_12_scale1
I0927 07:56:56.814726 20949 net.cpp:186] Top shape: 128 16 32 32 (2097152)
I0927 07:56:56.814730 20949 net.cpp:194] Memory required for data: 1125646848
I0927 07:56:56.814738 20949 layer_factory.hpp:77] Creating layer conv2_Eltwise_12
I0927 07:56:56.814745 20949 net.cpp:128] Creating Layer conv2_Eltwise_12
I0927 07:56:56.814750 20949 net.cpp:558] conv2_Eltwise_12 <- conv2_Eltwise_11_conv2_11ReLU_1_0_split_1
I0927 07:56:56.814755 20949 net.cpp:558] conv2_Eltwise_12 <- conv2_12_1
I0927 07:56:56.814764 20949 net.cpp:522] conv2_Eltwise_12 -> conv2_Eltwise_12
I0927 07:56:56.814791 20949 net.cpp:172] Setting up conv2_Eltwise_12
I0927 07:56:56.814798 20949 net.cpp:186] Top shape: 128 16 32 32 (2097152)
I0927 07:56:56.814802 20949 net.cpp:194] Memory required for data: 1134035456
I0927 07:56:56.814806 20949 layer_factory.hpp:77] Creating layer conv2_12ReLU_1
I0927 07:56:56.814824 20949 net.cpp:128] Creating Layer conv2_12ReLU_1
I0927 07:56:56.814829 20949 net.cpp:558] conv2_12ReLU_1 <- conv2_Eltwise_12
I0927 07:56:56.814854 20949 net.cpp:509] conv2_12ReLU_1 -> conv2_Eltwise_12 (in-place)
I0927 07:56:56.815091 20949 net.cpp:172] Setting up conv2_12ReLU_1
I0927 07:56:56.815106 20949 net.cpp:186] Top shape: 128 16 32 32 (2097152)
I0927 07:56:56.815110 20949 net.cpp:194] Memory required for data: 1142424064
I0927 07:56:56.815115 20949 layer_factory.hpp:77] Creating layer conv2_Eltwise_12_conv2_12ReLU_1_0_split
I0927 07:56:56.815124 20949 net.cpp:128] Creating Layer conv2_Eltwise_12_conv2_12ReLU_1_0_split
I0927 07:56:56.815130 20949 net.cpp:558] conv2_Eltwise_12_conv2_12ReLU_1_0_split <- conv2_Eltwise_12
I0927 07:56:56.815140 20949 net.cpp:522] conv2_Eltwise_12_conv2_12ReLU_1_0_split -> conv2_Eltwise_12_conv2_12ReLU_1_0_split_0
I0927 07:56:56.815147 20949 net.cpp:522] conv2_Eltwise_12_conv2_12ReLU_1_0_split -> conv2_Eltwise_12_conv2_12ReLU_1_0_split_1
I0927 07:56:56.815204 20949 net.cpp:172] Setting up conv2_Eltwise_12_conv2_12ReLU_1_0_split
I0927 07:56:56.815217 20949 net.cpp:186] Top shape: 128 16 32 32 (2097152)
I0927 07:56:56.815224 20949 net.cpp:186] Top shape: 128 16 32 32 (2097152)
I0927 07:56:56.815228 20949 net.cpp:194] Memory required for data: 1159201280
I0927 07:56:56.815232 20949 layer_factory.hpp:77] Creating layer conv2_13_0
I0927 07:56:56.815245 20949 net.cpp:128] Creating Layer conv2_13_0
I0927 07:56:56.815250 20949 net.cpp:558] conv2_13_0 <- conv2_Eltwise_12_conv2_12ReLU_1_0_split_0
I0927 07:56:56.815258 20949 net.cpp:522] conv2_13_0 -> conv2_13_0
I0927 07:56:56.816563 20949 net.cpp:172] Setting up conv2_13_0
I0927 07:56:56.816591 20949 net.cpp:186] Top shape: 128 16 32 32 (2097152)
I0927 07:56:56.816594 20949 net.cpp:194] Memory required for data: 1167589888
I0927 07:56:56.816604 20949 layer_factory.hpp:77] Creating layer conv2_13_bn0
I0927 07:56:56.816614 20949 net.cpp:128] Creating Layer conv2_13_bn0
I0927 07:56:56.816620 20949 net.cpp:558] conv2_13_bn0 <- conv2_13_0
I0927 07:56:56.816627 20949 net.cpp:509] conv2_13_bn0 -> conv2_13_0 (in-place)
I0927 07:56:56.816896 20949 net.cpp:172] Setting up conv2_13_bn0
I0927 07:56:56.816910 20949 net.cpp:186] Top shape: 128 16 32 32 (2097152)
I0927 07:56:56.816913 20949 net.cpp:194] Memory required for data: 1175978496
I0927 07:56:56.816923 20949 layer_factory.hpp:77] Creating layer conv2_13_scale0
I0927 07:56:56.816943 20949 net.cpp:128] Creating Layer conv2_13_scale0
I0927 07:56:56.816948 20949 net.cpp:558] conv2_13_scale0 <- conv2_13_0
I0927 07:56:56.816954 20949 net.cpp:509] conv2_13_scale0 -> conv2_13_0 (in-place)
I0927 07:56:56.816998 20949 layer_factory.hpp:77] Creating layer conv2_13_scale0
I0927 07:56:56.817144 20949 net.cpp:172] Setting up conv2_13_scale0
I0927 07:56:56.817154 20949 net.cpp:186] Top shape: 128 16 32 32 (2097152)
I0927 07:56:56.817158 20949 net.cpp:194] Memory required for data: 1184367104
I0927 07:56:56.817167 20949 layer_factory.hpp:77] Creating layer conv2_13_ReLU0
I0927 07:56:56.817176 20949 net.cpp:128] Creating Layer conv2_13_ReLU0
I0927 07:56:56.817181 20949 net.cpp:558] conv2_13_ReLU0 <- conv2_13_0
I0927 07:56:56.817188 20949 net.cpp:509] conv2_13_ReLU0 -> conv2_13_0 (in-place)
I0927 07:56:56.817622 20949 net.cpp:172] Setting up conv2_13_ReLU0
I0927 07:56:56.817643 20949 net.cpp:186] Top shape: 128 16 32 32 (2097152)
I0927 07:56:56.817647 20949 net.cpp:194] Memory required for data: 1192755712
I0927 07:56:56.817652 20949 layer_factory.hpp:77] Creating layer conv2_13_1
I0927 07:56:56.817667 20949 net.cpp:128] Creating Layer conv2_13_1
I0927 07:56:56.817672 20949 net.cpp:558] conv2_13_1 <- conv2_13_0
I0927 07:56:56.817680 20949 net.cpp:522] conv2_13_1 -> conv2_13_1
I0927 07:56:56.819084 20949 net.cpp:172] Setting up conv2_13_1
I0927 07:56:56.819111 20949 net.cpp:186] Top shape: 128 16 32 32 (2097152)
I0927 07:56:56.819115 20949 net.cpp:194] Memory required for data: 1201144320
I0927 07:56:56.819128 20949 layer_factory.hpp:77] Creating layer conv2_13bn1
I0927 07:56:56.819139 20949 net.cpp:128] Creating Layer conv2_13bn1
I0927 07:56:56.819147 20949 net.cpp:558] conv2_13bn1 <- conv2_13_1
I0927 07:56:56.819156 20949 net.cpp:509] conv2_13bn1 -> conv2_13_1 (in-place)
I0927 07:56:56.819452 20949 net.cpp:172] Setting up conv2_13bn1
I0927 07:56:56.819463 20949 net.cpp:186] Top shape: 128 16 32 32 (2097152)
I0927 07:56:56.819468 20949 net.cpp:194] Memory required for data: 1209532928
I0927 07:56:56.819478 20949 layer_factory.hpp:77] Creating layer conv2_13_scale1
I0927 07:56:56.819486 20949 net.cpp:128] Creating Layer conv2_13_scale1
I0927 07:56:56.819491 20949 net.cpp:558] conv2_13_scale1 <- conv2_13_1
I0927 07:56:56.819497 20949 net.cpp:509] conv2_13_scale1 -> conv2_13_1 (in-place)
I0927 07:56:56.819541 20949 layer_factory.hpp:77] Creating layer conv2_13_scale1
I0927 07:56:56.819694 20949 net.cpp:172] Setting up conv2_13_scale1
I0927 07:56:56.819703 20949 net.cpp:186] Top shape: 128 16 32 32 (2097152)
I0927 07:56:56.819708 20949 net.cpp:194] Memory required for data: 1217921536
I0927 07:56:56.819716 20949 layer_factory.hpp:77] Creating layer conv2_Eltwise_13
I0927 07:56:56.819725 20949 net.cpp:128] Creating Layer conv2_Eltwise_13
I0927 07:56:56.819730 20949 net.cpp:558] conv2_Eltwise_13 <- conv2_Eltwise_12_conv2_12ReLU_1_0_split_1
I0927 07:56:56.819734 20949 net.cpp:558] conv2_Eltwise_13 <- conv2_13_1
I0927 07:56:56.819742 20949 net.cpp:522] conv2_Eltwise_13 -> conv2_Eltwise_13
I0927 07:56:56.819773 20949 net.cpp:172] Setting up conv2_Eltwise_13
I0927 07:56:56.819782 20949 net.cpp:186] Top shape: 128 16 32 32 (2097152)
I0927 07:56:56.819787 20949 net.cpp:194] Memory required for data: 1226310144
I0927 07:56:56.819792 20949 layer_factory.hpp:77] Creating layer conv2_13ReLU_1
I0927 07:56:56.819798 20949 net.cpp:128] Creating Layer conv2_13ReLU_1
I0927 07:56:56.819802 20949 net.cpp:558] conv2_13ReLU_1 <- conv2_Eltwise_13
I0927 07:56:56.819811 20949 net.cpp:509] conv2_13ReLU_1 -> conv2_Eltwise_13 (in-place)
I0927 07:56:56.820050 20949 net.cpp:172] Setting up conv2_13ReLU_1
I0927 07:56:56.820062 20949 net.cpp:186] Top shape: 128 16 32 32 (2097152)
I0927 07:56:56.820066 20949 net.cpp:194] Memory required for data: 1234698752
I0927 07:56:56.820071 20949 layer_factory.hpp:77] Creating layer conv2_Eltwise_13_conv2_13ReLU_1_0_split
I0927 07:56:56.820078 20949 net.cpp:128] Creating Layer conv2_Eltwise_13_conv2_13ReLU_1_0_split
I0927 07:56:56.820083 20949 net.cpp:558] conv2_Eltwise_13_conv2_13ReLU_1_0_split <- conv2_Eltwise_13
I0927 07:56:56.820091 20949 net.cpp:522] conv2_Eltwise_13_conv2_13ReLU_1_0_split -> conv2_Eltwise_13_conv2_13ReLU_1_0_split_0
I0927 07:56:56.820101 20949 net.cpp:522] conv2_Eltwise_13_conv2_13ReLU_1_0_split -> conv2_Eltwise_13_conv2_13ReLU_1_0_split_1
I0927 07:56:56.820153 20949 net.cpp:172] Setting up conv2_Eltwise_13_conv2_13ReLU_1_0_split
I0927 07:56:56.820163 20949 net.cpp:186] Top shape: 128 16 32 32 (2097152)
I0927 07:56:56.820169 20949 net.cpp:186] Top shape: 128 16 32 32 (2097152)
I0927 07:56:56.820173 20949 net.cpp:194] Memory required for data: 1251475968
I0927 07:56:56.820178 20949 layer_factory.hpp:77] Creating layer conv2_14_0
I0927 07:56:56.820189 20949 net.cpp:128] Creating Layer conv2_14_0
I0927 07:56:56.820197 20949 net.cpp:558] conv2_14_0 <- conv2_Eltwise_13_conv2_13ReLU_1_0_split_0
I0927 07:56:56.820209 20949 net.cpp:522] conv2_14_0 -> conv2_14_0
I0927 07:56:56.821527 20949 net.cpp:172] Setting up conv2_14_0
I0927 07:56:56.821549 20949 net.cpp:186] Top shape: 128 16 32 32 (2097152)
I0927 07:56:56.821553 20949 net.cpp:194] Memory required for data: 1259864576
I0927 07:56:56.821563 20949 layer_factory.hpp:77] Creating layer conv2_14_bn0
I0927 07:56:56.821574 20949 net.cpp:128] Creating Layer conv2_14_bn0
I0927 07:56:56.821579 20949 net.cpp:558] conv2_14_bn0 <- conv2_14_0
I0927 07:56:56.821588 20949 net.cpp:509] conv2_14_bn0 -> conv2_14_0 (in-place)
I0927 07:56:56.821857 20949 net.cpp:172] Setting up conv2_14_bn0
I0927 07:56:56.821867 20949 net.cpp:186] Top shape: 128 16 32 32 (2097152)
I0927 07:56:56.821871 20949 net.cpp:194] Memory required for data: 1268253184
I0927 07:56:56.821880 20949 layer_factory.hpp:77] Creating layer conv2_14_scale0
I0927 07:56:56.821897 20949 net.cpp:128] Creating Layer conv2_14_scale0
I0927 07:56:56.821920 20949 net.cpp:558] conv2_14_scale0 <- conv2_14_0
I0927 07:56:56.821928 20949 net.cpp:509] conv2_14_scale0 -> conv2_14_0 (in-place)
I0927 07:56:56.821974 20949 layer_factory.hpp:77] Creating layer conv2_14_scale0
I0927 07:56:56.822126 20949 net.cpp:172] Setting up conv2_14_scale0
I0927 07:56:56.822137 20949 net.cpp:186] Top shape: 128 16 32 32 (2097152)
I0927 07:56:56.822141 20949 net.cpp:194] Memory required for data: 1276641792
I0927 07:56:56.822149 20949 layer_factory.hpp:77] Creating layer conv2_14_ReLU0
I0927 07:56:56.822156 20949 net.cpp:128] Creating Layer conv2_14_ReLU0
I0927 07:56:56.822160 20949 net.cpp:558] conv2_14_ReLU0 <- conv2_14_0
I0927 07:56:56.822168 20949 net.cpp:509] conv2_14_ReLU0 -> conv2_14_0 (in-place)
I0927 07:56:56.822409 20949 net.cpp:172] Setting up conv2_14_ReLU0
I0927 07:56:56.822422 20949 net.cpp:186] Top shape: 128 16 32 32 (2097152)
I0927 07:56:56.822427 20949 net.cpp:194] Memory required for data: 1285030400
I0927 07:56:56.822432 20949 layer_factory.hpp:77] Creating layer conv2_14_1
I0927 07:56:56.822445 20949 net.cpp:128] Creating Layer conv2_14_1
I0927 07:56:56.822453 20949 net.cpp:558] conv2_14_1 <- conv2_14_0
I0927 07:56:56.822463 20949 net.cpp:522] conv2_14_1 -> conv2_14_1
I0927 07:56:56.823810 20949 net.cpp:172] Setting up conv2_14_1
I0927 07:56:56.823837 20949 net.cpp:186] Top shape: 128 16 32 32 (2097152)
I0927 07:56:56.823842 20949 net.cpp:194] Memory required for data: 1293419008
I0927 07:56:56.823853 20949 layer_factory.hpp:77] Creating layer conv2_14bn1
I0927 07:56:56.823860 20949 net.cpp:128] Creating Layer conv2_14bn1
I0927 07:56:56.823869 20949 net.cpp:558] conv2_14bn1 <- conv2_14_1
I0927 07:56:56.823882 20949 net.cpp:509] conv2_14bn1 -> conv2_14_1 (in-place)
I0927 07:56:56.824154 20949 net.cpp:172] Setting up conv2_14bn1
I0927 07:56:56.824164 20949 net.cpp:186] Top shape: 128 16 32 32 (2097152)
I0927 07:56:56.824169 20949 net.cpp:194] Memory required for data: 1301807616
I0927 07:56:56.824179 20949 layer_factory.hpp:77] Creating layer conv2_14_scale1
I0927 07:56:56.824185 20949 net.cpp:128] Creating Layer conv2_14_scale1
I0927 07:56:56.824190 20949 net.cpp:558] conv2_14_scale1 <- conv2_14_1
I0927 07:56:56.824198 20949 net.cpp:509] conv2_14_scale1 -> conv2_14_1 (in-place)
I0927 07:56:56.824239 20949 layer_factory.hpp:77] Creating layer conv2_14_scale1
I0927 07:56:56.824393 20949 net.cpp:172] Setting up conv2_14_scale1
I0927 07:56:56.824404 20949 net.cpp:186] Top shape: 128 16 32 32 (2097152)
I0927 07:56:56.824409 20949 net.cpp:194] Memory required for data: 1310196224
I0927 07:56:56.824416 20949 layer_factory.hpp:77] Creating layer conv2_Eltwise_14
I0927 07:56:56.824426 20949 net.cpp:128] Creating Layer conv2_Eltwise_14
I0927 07:56:56.824434 20949 net.cpp:558] conv2_Eltwise_14 <- conv2_Eltwise_13_conv2_13ReLU_1_0_split_1
I0927 07:56:56.824440 20949 net.cpp:558] conv2_Eltwise_14 <- conv2_14_1
I0927 07:56:56.824447 20949 net.cpp:522] conv2_Eltwise_14 -> conv2_Eltwise_14
I0927 07:56:56.824476 20949 net.cpp:172] Setting up conv2_Eltwise_14
I0927 07:56:56.824489 20949 net.cpp:186] Top shape: 128 16 32 32 (2097152)
I0927 07:56:56.824496 20949 net.cpp:194] Memory required for data: 1318584832
I0927 07:56:56.824501 20949 layer_factory.hpp:77] Creating layer conv2_14ReLU_1
I0927 07:56:56.824507 20949 net.cpp:128] Creating Layer conv2_14ReLU_1
I0927 07:56:56.824512 20949 net.cpp:558] conv2_14ReLU_1 <- conv2_Eltwise_14
I0927 07:56:56.824517 20949 net.cpp:509] conv2_14ReLU_1 -> conv2_Eltwise_14 (in-place)
I0927 07:56:56.824760 20949 net.cpp:172] Setting up conv2_14ReLU_1
I0927 07:56:56.824780 20949 net.cpp:186] Top shape: 128 16 32 32 (2097152)
I0927 07:56:56.824785 20949 net.cpp:194] Memory required for data: 1326973440
I0927 07:56:56.824790 20949 layer_factory.hpp:77] Creating layer conv2_Eltwise_14_conv2_14ReLU_1_0_split
I0927 07:56:56.824796 20949 net.cpp:128] Creating Layer conv2_Eltwise_14_conv2_14ReLU_1_0_split
I0927 07:56:56.824801 20949 net.cpp:558] conv2_Eltwise_14_conv2_14ReLU_1_0_split <- conv2_Eltwise_14
I0927 07:56:56.824808 20949 net.cpp:522] conv2_Eltwise_14_conv2_14ReLU_1_0_split -> conv2_Eltwise_14_conv2_14ReLU_1_0_split_0
I0927 07:56:56.824836 20949 net.cpp:522] conv2_Eltwise_14_conv2_14ReLU_1_0_split -> conv2_Eltwise_14_conv2_14ReLU_1_0_split_1
I0927 07:56:56.824889 20949 net.cpp:172] Setting up conv2_Eltwise_14_conv2_14ReLU_1_0_split
I0927 07:56:56.824898 20949 net.cpp:186] Top shape: 128 16 32 32 (2097152)
I0927 07:56:56.824903 20949 net.cpp:186] Top shape: 128 16 32 32 (2097152)
I0927 07:56:56.824908 20949 net.cpp:194] Memory required for data: 1343750656
I0927 07:56:56.824911 20949 layer_factory.hpp:77] Creating layer conv2_15_0
I0927 07:56:56.824925 20949 net.cpp:128] Creating Layer conv2_15_0
I0927 07:56:56.824930 20949 net.cpp:558] conv2_15_0 <- conv2_Eltwise_14_conv2_14ReLU_1_0_split_0
I0927 07:56:56.824937 20949 net.cpp:522] conv2_15_0 -> conv2_15_0
I0927 07:56:56.826253 20949 net.cpp:172] Setting up conv2_15_0
I0927 07:56:56.826277 20949 net.cpp:186] Top shape: 128 16 32 32 (2097152)
I0927 07:56:56.826280 20949 net.cpp:194] Memory required for data: 1352139264
I0927 07:56:56.826290 20949 layer_factory.hpp:77] Creating layer conv2_15_bn0
I0927 07:56:56.826301 20949 net.cpp:128] Creating Layer conv2_15_bn0
I0927 07:56:56.826306 20949 net.cpp:558] conv2_15_bn0 <- conv2_15_0
I0927 07:56:56.826314 20949 net.cpp:509] conv2_15_bn0 -> conv2_15_0 (in-place)
I0927 07:56:56.826586 20949 net.cpp:172] Setting up conv2_15_bn0
I0927 07:56:56.826596 20949 net.cpp:186] Top shape: 128 16 32 32 (2097152)
I0927 07:56:56.826601 20949 net.cpp:194] Memory required for data: 1360527872
I0927 07:56:56.826611 20949 layer_factory.hpp:77] Creating layer conv2_15_scale0
I0927 07:56:56.826619 20949 net.cpp:128] Creating Layer conv2_15_scale0
I0927 07:56:56.826624 20949 net.cpp:558] conv2_15_scale0 <- conv2_15_0
I0927 07:56:56.826632 20949 net.cpp:509] conv2_15_scale0 -> conv2_15_0 (in-place)
I0927 07:56:56.826673 20949 layer_factory.hpp:77] Creating layer conv2_15_scale0
I0927 07:56:56.826830 20949 net.cpp:172] Setting up conv2_15_scale0
I0927 07:56:56.826843 20949 net.cpp:186] Top shape: 128 16 32 32 (2097152)
I0927 07:56:56.826846 20949 net.cpp:194] Memory required for data: 1368916480
I0927 07:56:56.826855 20949 layer_factory.hpp:77] Creating layer conv2_15_ReLU0
I0927 07:56:56.826861 20949 net.cpp:128] Creating Layer conv2_15_ReLU0
I0927 07:56:56.826865 20949 net.cpp:558] conv2_15_ReLU0 <- conv2_15_0
I0927 07:56:56.826871 20949 net.cpp:509] conv2_15_ReLU0 -> conv2_15_0 (in-place)
I0927 07:56:56.827320 20949 net.cpp:172] Setting up conv2_15_ReLU0
I0927 07:56:56.827345 20949 net.cpp:186] Top shape: 128 16 32 32 (2097152)
I0927 07:56:56.827350 20949 net.cpp:194] Memory required for data: 1377305088
I0927 07:56:56.827356 20949 layer_factory.hpp:77] Creating layer conv2_15_1
I0927 07:56:56.827368 20949 net.cpp:128] Creating Layer conv2_15_1
I0927 07:56:56.827374 20949 net.cpp:558] conv2_15_1 <- conv2_15_0
I0927 07:56:56.827383 20949 net.cpp:522] conv2_15_1 -> conv2_15_1
I0927 07:56:56.828722 20949 net.cpp:172] Setting up conv2_15_1
I0927 07:56:56.828748 20949 net.cpp:186] Top shape: 128 16 32 32 (2097152)
I0927 07:56:56.828752 20949 net.cpp:194] Memory required for data: 1385693696
I0927 07:56:56.828763 20949 layer_factory.hpp:77] Creating layer conv2_15bn1
I0927 07:56:56.828773 20949 net.cpp:128] Creating Layer conv2_15bn1
I0927 07:56:56.828778 20949 net.cpp:558] conv2_15bn1 <- conv2_15_1
I0927 07:56:56.828790 20949 net.cpp:509] conv2_15bn1 -> conv2_15_1 (in-place)
I0927 07:56:56.829061 20949 net.cpp:172] Setting up conv2_15bn1
I0927 07:56:56.829071 20949 net.cpp:186] Top shape: 128 16 32 32 (2097152)
I0927 07:56:56.829075 20949 net.cpp:194] Memory required for data: 1394082304
I0927 07:56:56.829085 20949 layer_factory.hpp:77] Creating layer conv2_15_scale1
I0927 07:56:56.829094 20949 net.cpp:128] Creating Layer conv2_15_scale1
I0927 07:56:56.829098 20949 net.cpp:558] conv2_15_scale1 <- conv2_15_1
I0927 07:56:56.829104 20949 net.cpp:509] conv2_15_scale1 -> conv2_15_1 (in-place)
I0927 07:56:56.829149 20949 layer_factory.hpp:77] Creating layer conv2_15_scale1
I0927 07:56:56.829299 20949 net.cpp:172] Setting up conv2_15_scale1
I0927 07:56:56.829329 20949 net.cpp:186] Top shape: 128 16 32 32 (2097152)
I0927 07:56:56.829332 20949 net.cpp:194] Memory required for data: 1402470912
I0927 07:56:56.829340 20949 layer_factory.hpp:77] Creating layer conv2_Eltwise_15
I0927 07:56:56.829349 20949 net.cpp:128] Creating Layer conv2_Eltwise_15
I0927 07:56:56.829354 20949 net.cpp:558] conv2_Eltwise_15 <- conv2_Eltwise_14_conv2_14ReLU_1_0_split_1
I0927 07:56:56.829358 20949 net.cpp:558] conv2_Eltwise_15 <- conv2_15_1
I0927 07:56:56.829367 20949 net.cpp:522] conv2_Eltwise_15 -> conv2_Eltwise_15
I0927 07:56:56.829399 20949 net.cpp:172] Setting up conv2_Eltwise_15
I0927 07:56:56.829406 20949 net.cpp:186] Top shape: 128 16 32 32 (2097152)
I0927 07:56:56.829411 20949 net.cpp:194] Memory required for data: 1410859520
I0927 07:56:56.829414 20949 layer_factory.hpp:77] Creating layer conv2_15ReLU_1
I0927 07:56:56.829421 20949 net.cpp:128] Creating Layer conv2_15ReLU_1
I0927 07:56:56.829425 20949 net.cpp:558] conv2_15ReLU_1 <- conv2_Eltwise_15
I0927 07:56:56.829434 20949 net.cpp:509] conv2_15ReLU_1 -> conv2_Eltwise_15 (in-place)
I0927 07:56:56.829682 20949 net.cpp:172] Setting up conv2_15ReLU_1
I0927 07:56:56.829697 20949 net.cpp:186] Top shape: 128 16 32 32 (2097152)
I0927 07:56:56.829702 20949 net.cpp:194] Memory required for data: 1419248128
I0927 07:56:56.829706 20949 layer_factory.hpp:77] Creating layer conv2_Eltwise_15_conv2_15ReLU_1_0_split
I0927 07:56:56.829713 20949 net.cpp:128] Creating Layer conv2_Eltwise_15_conv2_15ReLU_1_0_split
I0927 07:56:56.829718 20949 net.cpp:558] conv2_Eltwise_15_conv2_15ReLU_1_0_split <- conv2_Eltwise_15
I0927 07:56:56.829726 20949 net.cpp:522] conv2_Eltwise_15_conv2_15ReLU_1_0_split -> conv2_Eltwise_15_conv2_15ReLU_1_0_split_0
I0927 07:56:56.829735 20949 net.cpp:522] conv2_Eltwise_15_conv2_15ReLU_1_0_split -> conv2_Eltwise_15_conv2_15ReLU_1_0_split_1
I0927 07:56:56.829789 20949 net.cpp:172] Setting up conv2_Eltwise_15_conv2_15ReLU_1_0_split
I0927 07:56:56.829797 20949 net.cpp:186] Top shape: 128 16 32 32 (2097152)
I0927 07:56:56.829802 20949 net.cpp:186] Top shape: 128 16 32 32 (2097152)
I0927 07:56:56.829807 20949 net.cpp:194] Memory required for data: 1436025344
I0927 07:56:56.829810 20949 layer_factory.hpp:77] Creating layer conv2_16_0
I0927 07:56:56.829823 20949 net.cpp:128] Creating Layer conv2_16_0
I0927 07:56:56.829828 20949 net.cpp:558] conv2_16_0 <- conv2_Eltwise_15_conv2_15ReLU_1_0_split_0
I0927 07:56:56.829838 20949 net.cpp:522] conv2_16_0 -> conv2_16_0
I0927 07:56:56.831380 20949 net.cpp:172] Setting up conv2_16_0
I0927 07:56:56.831404 20949 net.cpp:186] Top shape: 128 16 32 32 (2097152)
I0927 07:56:56.831409 20949 net.cpp:194] Memory required for data: 1444413952
I0927 07:56:56.831419 20949 layer_factory.hpp:77] Creating layer conv2_16_bn0
I0927 07:56:56.831427 20949 net.cpp:128] Creating Layer conv2_16_bn0
I0927 07:56:56.831432 20949 net.cpp:558] conv2_16_bn0 <- conv2_16_0
I0927 07:56:56.831441 20949 net.cpp:509] conv2_16_bn0 -> conv2_16_0 (in-place)
I0927 07:56:56.831717 20949 net.cpp:172] Setting up conv2_16_bn0
I0927 07:56:56.831728 20949 net.cpp:186] Top shape: 128 16 32 32 (2097152)
I0927 07:56:56.831733 20949 net.cpp:194] Memory required for data: 1452802560
I0927 07:56:56.831743 20949 layer_factory.hpp:77] Creating layer conv2_16_scale0
I0927 07:56:56.831749 20949 net.cpp:128] Creating Layer conv2_16_scale0
I0927 07:56:56.831754 20949 net.cpp:558] conv2_16_scale0 <- conv2_16_0
I0927 07:56:56.831763 20949 net.cpp:509] conv2_16_scale0 -> conv2_16_0 (in-place)
I0927 07:56:56.831804 20949 layer_factory.hpp:77] Creating layer conv2_16_scale0
I0927 07:56:56.831954 20949 net.cpp:172] Setting up conv2_16_scale0
I0927 07:56:56.831964 20949 net.cpp:186] Top shape: 128 16 32 32 (2097152)
I0927 07:56:56.831969 20949 net.cpp:194] Memory required for data: 1461191168
I0927 07:56:56.831976 20949 layer_factory.hpp:77] Creating layer conv2_16_ReLU0
I0927 07:56:56.831986 20949 net.cpp:128] Creating Layer conv2_16_ReLU0
I0927 07:56:56.831991 20949 net.cpp:558] conv2_16_ReLU0 <- conv2_16_0
I0927 07:56:56.832015 20949 net.cpp:509] conv2_16_ReLU0 -> conv2_16_0 (in-place)
I0927 07:56:56.832268 20949 net.cpp:172] Setting up conv2_16_ReLU0
I0927 07:56:56.832283 20949 net.cpp:186] Top shape: 128 16 32 32 (2097152)
I0927 07:56:56.832288 20949 net.cpp:194] Memory required for data: 1469579776
I0927 07:56:56.832293 20949 layer_factory.hpp:77] Creating layer conv2_16_1
I0927 07:56:56.832305 20949 net.cpp:128] Creating Layer conv2_16_1
I0927 07:56:56.832310 20949 net.cpp:558] conv2_16_1 <- conv2_16_0
I0927 07:56:56.832320 20949 net.cpp:522] conv2_16_1 -> conv2_16_1
I0927 07:56:56.833662 20949 net.cpp:172] Setting up conv2_16_1
I0927 07:56:56.833684 20949 net.cpp:186] Top shape: 128 16 32 32 (2097152)
I0927 07:56:56.833688 20949 net.cpp:194] Memory required for data: 1477968384
I0927 07:56:56.833698 20949 layer_factory.hpp:77] Creating layer conv2_16bn1
I0927 07:56:56.833712 20949 net.cpp:128] Creating Layer conv2_16bn1
I0927 07:56:56.833719 20949 net.cpp:558] conv2_16bn1 <- conv2_16_1
I0927 07:56:56.833725 20949 net.cpp:509] conv2_16bn1 -> conv2_16_1 (in-place)
I0927 07:56:56.834003 20949 net.cpp:172] Setting up conv2_16bn1
I0927 07:56:56.834013 20949 net.cpp:186] Top shape: 128 16 32 32 (2097152)
I0927 07:56:56.834018 20949 net.cpp:194] Memory required for data: 1486356992
I0927 07:56:56.834028 20949 layer_factory.hpp:77] Creating layer conv2_16_scale1
I0927 07:56:56.834035 20949 net.cpp:128] Creating Layer conv2_16_scale1
I0927 07:56:56.834039 20949 net.cpp:558] conv2_16_scale1 <- conv2_16_1
I0927 07:56:56.834045 20949 net.cpp:509] conv2_16_scale1 -> conv2_16_1 (in-place)
I0927 07:56:56.834090 20949 layer_factory.hpp:77] Creating layer conv2_16_scale1
I0927 07:56:56.834244 20949 net.cpp:172] Setting up conv2_16_scale1
I0927 07:56:56.834254 20949 net.cpp:186] Top shape: 128 16 32 32 (2097152)
I0927 07:56:56.834259 20949 net.cpp:194] Memory required for data: 1494745600
I0927 07:56:56.834266 20949 layer_factory.hpp:77] Creating layer conv2_Eltwise_16
I0927 07:56:56.834275 20949 net.cpp:128] Creating Layer conv2_Eltwise_16
I0927 07:56:56.834281 20949 net.cpp:558] conv2_Eltwise_16 <- conv2_Eltwise_15_conv2_15ReLU_1_0_split_1
I0927 07:56:56.834286 20949 net.cpp:558] conv2_Eltwise_16 <- conv2_16_1
I0927 07:56:56.834295 20949 net.cpp:522] conv2_Eltwise_16 -> conv2_Eltwise_16
I0927 07:56:56.834323 20949 net.cpp:172] Setting up conv2_Eltwise_16
I0927 07:56:56.834332 20949 net.cpp:186] Top shape: 128 16 32 32 (2097152)
I0927 07:56:56.834336 20949 net.cpp:194] Memory required for data: 1503134208
I0927 07:56:56.834342 20949 layer_factory.hpp:77] Creating layer conv2_16ReLU_1
I0927 07:56:56.834349 20949 net.cpp:128] Creating Layer conv2_16ReLU_1
I0927 07:56:56.834354 20949 net.cpp:558] conv2_16ReLU_1 <- conv2_Eltwise_16
I0927 07:56:56.834359 20949 net.cpp:509] conv2_16ReLU_1 -> conv2_Eltwise_16 (in-place)
I0927 07:56:56.834796 20949 net.cpp:172] Setting up conv2_16ReLU_1
I0927 07:56:56.834825 20949 net.cpp:186] Top shape: 128 16 32 32 (2097152)
I0927 07:56:56.834832 20949 net.cpp:194] Memory required for data: 1511522816
I0927 07:56:56.834837 20949 layer_factory.hpp:77] Creating layer conv2_Eltwise_16_conv2_16ReLU_1_0_split
I0927 07:56:56.834848 20949 net.cpp:128] Creating Layer conv2_Eltwise_16_conv2_16ReLU_1_0_split
I0927 07:56:56.834853 20949 net.cpp:558] conv2_Eltwise_16_conv2_16ReLU_1_0_split <- conv2_Eltwise_16
I0927 07:56:56.834861 20949 net.cpp:522] conv2_Eltwise_16_conv2_16ReLU_1_0_split -> conv2_Eltwise_16_conv2_16ReLU_1_0_split_0
I0927 07:56:56.834872 20949 net.cpp:522] conv2_Eltwise_16_conv2_16ReLU_1_0_split -> conv2_Eltwise_16_conv2_16ReLU_1_0_split_1
I0927 07:56:56.834929 20949 net.cpp:172] Setting up conv2_Eltwise_16_conv2_16ReLU_1_0_split
I0927 07:56:56.834939 20949 net.cpp:186] Top shape: 128 16 32 32 (2097152)
I0927 07:56:56.834945 20949 net.cpp:186] Top shape: 128 16 32 32 (2097152)
I0927 07:56:56.834949 20949 net.cpp:194] Memory required for data: 1528300032
I0927 07:56:56.834954 20949 layer_factory.hpp:77] Creating layer conv2_17_0
I0927 07:56:56.834971 20949 net.cpp:128] Creating Layer conv2_17_0
I0927 07:56:56.834992 20949 net.cpp:558] conv2_17_0 <- conv2_Eltwise_16_conv2_16ReLU_1_0_split_0
I0927 07:56:56.835000 20949 net.cpp:522] conv2_17_0 -> conv2_17_0
I0927 07:56:56.836336 20949 net.cpp:172] Setting up conv2_17_0
I0927 07:56:56.836362 20949 net.cpp:186] Top shape: 128 16 32 32 (2097152)
I0927 07:56:56.836367 20949 net.cpp:194] Memory required for data: 1536688640
I0927 07:56:56.836381 20949 layer_factory.hpp:77] Creating layer conv2_17_bn0
I0927 07:56:56.836392 20949 net.cpp:128] Creating Layer conv2_17_bn0
I0927 07:56:56.836400 20949 net.cpp:558] conv2_17_bn0 <- conv2_17_0
I0927 07:56:56.836406 20949 net.cpp:509] conv2_17_bn0 -> conv2_17_0 (in-place)
I0927 07:56:56.836693 20949 net.cpp:172] Setting up conv2_17_bn0
I0927 07:56:56.836702 20949 net.cpp:186] Top shape: 128 16 32 32 (2097152)
I0927 07:56:56.836707 20949 net.cpp:194] Memory required for data: 1545077248
I0927 07:56:56.836717 20949 layer_factory.hpp:77] Creating layer conv2_17_scale0
I0927 07:56:56.836726 20949 net.cpp:128] Creating Layer conv2_17_scale0
I0927 07:56:56.836731 20949 net.cpp:558] conv2_17_scale0 <- conv2_17_0
I0927 07:56:56.836737 20949 net.cpp:509] conv2_17_scale0 -> conv2_17_0 (in-place)
I0927 07:56:56.836779 20949 layer_factory.hpp:77] Creating layer conv2_17_scale0
I0927 07:56:56.836935 20949 net.cpp:172] Setting up conv2_17_scale0
I0927 07:56:56.836946 20949 net.cpp:186] Top shape: 128 16 32 32 (2097152)
I0927 07:56:56.836949 20949 net.cpp:194] Memory required for data: 1553465856
I0927 07:56:56.836957 20949 layer_factory.hpp:77] Creating layer conv2_17_ReLU0
I0927 07:56:56.836963 20949 net.cpp:128] Creating Layer conv2_17_ReLU0
I0927 07:56:56.836968 20949 net.cpp:558] conv2_17_ReLU0 <- conv2_17_0
I0927 07:56:56.836973 20949 net.cpp:509] conv2_17_ReLU0 -> conv2_17_0 (in-place)
I0927 07:56:56.837219 20949 net.cpp:172] Setting up conv2_17_ReLU0
I0927 07:56:56.837234 20949 net.cpp:186] Top shape: 128 16 32 32 (2097152)
I0927 07:56:56.837237 20949 net.cpp:194] Memory required for data: 1561854464
I0927 07:56:56.837242 20949 layer_factory.hpp:77] Creating layer conv2_17_1
I0927 07:56:56.837255 20949 net.cpp:128] Creating Layer conv2_17_1
I0927 07:56:56.837260 20949 net.cpp:558] conv2_17_1 <- conv2_17_0
I0927 07:56:56.837270 20949 net.cpp:522] conv2_17_1 -> conv2_17_1
I0927 07:56:56.838606 20949 net.cpp:172] Setting up conv2_17_1
I0927 07:56:56.838629 20949 net.cpp:186] Top shape: 128 16 32 32 (2097152)
I0927 07:56:56.838636 20949 net.cpp:194] Memory required for data: 1570243072
I0927 07:56:56.838646 20949 layer_factory.hpp:77] Creating layer conv2_17bn1
I0927 07:56:56.838660 20949 net.cpp:128] Creating Layer conv2_17bn1
I0927 07:56:56.838665 20949 net.cpp:558] conv2_17bn1 <- conv2_17_1
I0927 07:56:56.838675 20949 net.cpp:509] conv2_17bn1 -> conv2_17_1 (in-place)
I0927 07:56:56.838970 20949 net.cpp:172] Setting up conv2_17bn1
I0927 07:56:56.838982 20949 net.cpp:186] Top shape: 128 16 32 32 (2097152)
I0927 07:56:56.838986 20949 net.cpp:194] Memory required for data: 1578631680
I0927 07:56:56.838996 20949 layer_factory.hpp:77] Creating layer conv2_17_scale1
I0927 07:56:56.839006 20949 net.cpp:128] Creating Layer conv2_17_scale1
I0927 07:56:56.839010 20949 net.cpp:558] conv2_17_scale1 <- conv2_17_1
I0927 07:56:56.839016 20949 net.cpp:509] conv2_17_scale1 -> conv2_17_1 (in-place)
I0927 07:56:56.839061 20949 layer_factory.hpp:77] Creating layer conv2_17_scale1
I0927 07:56:56.839216 20949 net.cpp:172] Setting up conv2_17_scale1
I0927 07:56:56.839226 20949 net.cpp:186] Top shape: 128 16 32 32 (2097152)
I0927 07:56:56.839231 20949 net.cpp:194] Memory required for data: 1587020288
I0927 07:56:56.839238 20949 layer_factory.hpp:77] Creating layer conv2_Eltwise_17
I0927 07:56:56.839247 20949 net.cpp:128] Creating Layer conv2_Eltwise_17
I0927 07:56:56.839257 20949 net.cpp:558] conv2_Eltwise_17 <- conv2_Eltwise_16_conv2_16ReLU_1_0_split_1
I0927 07:56:56.839262 20949 net.cpp:558] conv2_Eltwise_17 <- conv2_17_1
I0927 07:56:56.839269 20949 net.cpp:522] conv2_Eltwise_17 -> conv2_Eltwise_17
I0927 07:56:56.839299 20949 net.cpp:172] Setting up conv2_Eltwise_17
I0927 07:56:56.839324 20949 net.cpp:186] Top shape: 128 16 32 32 (2097152)
I0927 07:56:56.839329 20949 net.cpp:194] Memory required for data: 1595408896
I0927 07:56:56.839334 20949 layer_factory.hpp:77] Creating layer conv2_17ReLU_1
I0927 07:56:56.839340 20949 net.cpp:128] Creating Layer conv2_17ReLU_1
I0927 07:56:56.839347 20949 net.cpp:558] conv2_17ReLU_1 <- conv2_Eltwise_17
I0927 07:56:56.839355 20949 net.cpp:509] conv2_17ReLU_1 -> conv2_Eltwise_17 (in-place)
I0927 07:56:56.839601 20949 net.cpp:172] Setting up conv2_17ReLU_1
I0927 07:56:56.839613 20949 net.cpp:186] Top shape: 128 16 32 32 (2097152)
I0927 07:56:56.839618 20949 net.cpp:194] Memory required for data: 1603797504
I0927 07:56:56.839622 20949 layer_factory.hpp:77] Creating layer conv2_Eltwise_17_conv2_17ReLU_1_0_split
I0927 07:56:56.839630 20949 net.cpp:128] Creating Layer conv2_Eltwise_17_conv2_17ReLU_1_0_split
I0927 07:56:56.839635 20949 net.cpp:558] conv2_Eltwise_17_conv2_17ReLU_1_0_split <- conv2_Eltwise_17
I0927 07:56:56.839643 20949 net.cpp:522] conv2_Eltwise_17_conv2_17ReLU_1_0_split -> conv2_Eltwise_17_conv2_17ReLU_1_0_split_0
I0927 07:56:56.839653 20949 net.cpp:522] conv2_Eltwise_17_conv2_17ReLU_1_0_split -> conv2_Eltwise_17_conv2_17ReLU_1_0_split_1
I0927 07:56:56.839706 20949 net.cpp:172] Setting up conv2_Eltwise_17_conv2_17ReLU_1_0_split
I0927 07:56:56.839717 20949 net.cpp:186] Top shape: 128 16 32 32 (2097152)
I0927 07:56:56.839723 20949 net.cpp:186] Top shape: 128 16 32 32 (2097152)
I0927 07:56:56.839727 20949 net.cpp:194] Memory required for data: 1620574720
I0927 07:56:56.839731 20949 layer_factory.hpp:77] Creating layer conv2_18_0
I0927 07:56:56.839743 20949 net.cpp:128] Creating Layer conv2_18_0
I0927 07:56:56.839751 20949 net.cpp:558] conv2_18_0 <- conv2_Eltwise_17_conv2_17ReLU_1_0_split_0
I0927 07:56:56.839759 20949 net.cpp:522] conv2_18_0 -> conv2_18_0
I0927 07:56:56.841089 20949 net.cpp:172] Setting up conv2_18_0
I0927 07:56:56.841112 20949 net.cpp:186] Top shape: 128 16 32 32 (2097152)
I0927 07:56:56.841117 20949 net.cpp:194] Memory required for data: 1628963328
I0927 07:56:56.841127 20949 layer_factory.hpp:77] Creating layer conv2_18_bn0
I0927 07:56:56.841136 20949 net.cpp:128] Creating Layer conv2_18_bn0
I0927 07:56:56.841143 20949 net.cpp:558] conv2_18_bn0 <- conv2_18_0
I0927 07:56:56.841159 20949 net.cpp:509] conv2_18_bn0 -> conv2_18_0 (in-place)
I0927 07:56:56.841444 20949 net.cpp:172] Setting up conv2_18_bn0
I0927 07:56:56.841454 20949 net.cpp:186] Top shape: 128 16 32 32 (2097152)
I0927 07:56:56.841457 20949 net.cpp:194] Memory required for data: 1637351936
I0927 07:56:56.841466 20949 layer_factory.hpp:77] Creating layer conv2_18_scale0
I0927 07:56:56.841473 20949 net.cpp:128] Creating Layer conv2_18_scale0
I0927 07:56:56.841478 20949 net.cpp:558] conv2_18_scale0 <- conv2_18_0
I0927 07:56:56.841487 20949 net.cpp:509] conv2_18_scale0 -> conv2_18_0 (in-place)
I0927 07:56:56.841529 20949 layer_factory.hpp:77] Creating layer conv2_18_scale0
I0927 07:56:56.841689 20949 net.cpp:172] Setting up conv2_18_scale0
I0927 07:56:56.841697 20949 net.cpp:186] Top shape: 128 16 32 32 (2097152)
I0927 07:56:56.841701 20949 net.cpp:194] Memory required for data: 1645740544
I0927 07:56:56.841709 20949 layer_factory.hpp:77] Creating layer conv2_18_ReLU0
I0927 07:56:56.841717 20949 net.cpp:128] Creating Layer conv2_18_ReLU0
I0927 07:56:56.841722 20949 net.cpp:558] conv2_18_ReLU0 <- conv2_18_0
I0927 07:56:56.841727 20949 net.cpp:509] conv2_18_ReLU0 -> conv2_18_0 (in-place)
I0927 07:56:56.842169 20949 net.cpp:172] Setting up conv2_18_ReLU0
I0927 07:56:56.842190 20949 net.cpp:186] Top shape: 128 16 32 32 (2097152)
I0927 07:56:56.842195 20949 net.cpp:194] Memory required for data: 1654129152
I0927 07:56:56.842200 20949 layer_factory.hpp:77] Creating layer conv2_18_1
I0927 07:56:56.842213 20949 net.cpp:128] Creating Layer conv2_18_1
I0927 07:56:56.842221 20949 net.cpp:558] conv2_18_1 <- conv2_18_0
I0927 07:56:56.842229 20949 net.cpp:522] conv2_18_1 -> conv2_18_1
I0927 07:56:56.843601 20949 net.cpp:172] Setting up conv2_18_1
I0927 07:56:56.843623 20949 net.cpp:186] Top shape: 128 16 32 32 (2097152)
I0927 07:56:56.843643 20949 net.cpp:194] Memory required for data: 1662517760
I0927 07:56:56.843654 20949 layer_factory.hpp:77] Creating layer conv2_18bn1
I0927 07:56:56.843667 20949 net.cpp:128] Creating Layer conv2_18bn1
I0927 07:56:56.843672 20949 net.cpp:558] conv2_18bn1 <- conv2_18_1
I0927 07:56:56.843678 20949 net.cpp:509] conv2_18bn1 -> conv2_18_1 (in-place)
I0927 07:56:56.843974 20949 net.cpp:172] Setting up conv2_18bn1
I0927 07:56:56.843988 20949 net.cpp:186] Top shape: 128 16 32 32 (2097152)
I0927 07:56:56.843992 20949 net.cpp:194] Memory required for data: 1670906368
I0927 07:56:56.844022 20949 layer_factory.hpp:77] Creating layer conv2_18_scale1
I0927 07:56:56.844028 20949 net.cpp:128] Creating Layer conv2_18_scale1
I0927 07:56:56.844033 20949 net.cpp:558] conv2_18_scale1 <- conv2_18_1
I0927 07:56:56.844039 20949 net.cpp:509] conv2_18_scale1 -> conv2_18_1 (in-place)
I0927 07:56:56.844084 20949 layer_factory.hpp:77] Creating layer conv2_18_scale1
I0927 07:56:56.844239 20949 net.cpp:172] Setting up conv2_18_scale1
I0927 07:56:56.844254 20949 net.cpp:186] Top shape: 128 16 32 32 (2097152)
I0927 07:56:56.844259 20949 net.cpp:194] Memory required for data: 1679294976
I0927 07:56:56.844266 20949 layer_factory.hpp:77] Creating layer conv2_Eltwise_18
I0927 07:56:56.844274 20949 net.cpp:128] Creating Layer conv2_Eltwise_18
I0927 07:56:56.844278 20949 net.cpp:558] conv2_Eltwise_18 <- conv2_Eltwise_17_conv2_17ReLU_1_0_split_1
I0927 07:56:56.844283 20949 net.cpp:558] conv2_Eltwise_18 <- conv2_18_1
I0927 07:56:56.844293 20949 net.cpp:522] conv2_Eltwise_18 -> conv2_Eltwise_18
I0927 07:56:56.844322 20949 net.cpp:172] Setting up conv2_Eltwise_18
I0927 07:56:56.844336 20949 net.cpp:186] Top shape: 128 16 32 32 (2097152)
I0927 07:56:56.844341 20949 net.cpp:194] Memory required for data: 1687683584
I0927 07:56:56.844344 20949 layer_factory.hpp:77] Creating layer conv2_18ReLU_1
I0927 07:56:56.844352 20949 net.cpp:128] Creating Layer conv2_18ReLU_1
I0927 07:56:56.844355 20949 net.cpp:558] conv2_18ReLU_1 <- conv2_Eltwise_18
I0927 07:56:56.844362 20949 net.cpp:509] conv2_18ReLU_1 -> conv2_Eltwise_18 (in-place)
I0927 07:56:56.844614 20949 net.cpp:172] Setting up conv2_18ReLU_1
I0927 07:56:56.844630 20949 net.cpp:186] Top shape: 128 16 32 32 (2097152)
I0927 07:56:56.844635 20949 net.cpp:194] Memory required for data: 1696072192
I0927 07:56:56.844640 20949 layer_factory.hpp:77] Creating layer conv2_Eltwise_18_conv2_18ReLU_1_0_split
I0927 07:56:56.844647 20949 net.cpp:128] Creating Layer conv2_Eltwise_18_conv2_18ReLU_1_0_split
I0927 07:56:56.844652 20949 net.cpp:558] conv2_Eltwise_18_conv2_18ReLU_1_0_split <- conv2_Eltwise_18
I0927 07:56:56.844660 20949 net.cpp:522] conv2_Eltwise_18_conv2_18ReLU_1_0_split -> conv2_Eltwise_18_conv2_18ReLU_1_0_split_0
I0927 07:56:56.844669 20949 net.cpp:522] conv2_Eltwise_18_conv2_18ReLU_1_0_split -> conv2_Eltwise_18_conv2_18ReLU_1_0_split_1
I0927 07:56:56.844722 20949 net.cpp:172] Setting up conv2_Eltwise_18_conv2_18ReLU_1_0_split
I0927 07:56:56.844733 20949 net.cpp:186] Top shape: 128 16 32 32 (2097152)
I0927 07:56:56.844739 20949 net.cpp:186] Top shape: 128 16 32 32 (2097152)
I0927 07:56:56.844743 20949 net.cpp:194] Memory required for data: 1712849408
I0927 07:56:56.844748 20949 layer_factory.hpp:77] Creating layer conv3_1_0
I0927 07:56:56.844761 20949 net.cpp:128] Creating Layer conv3_1_0
I0927 07:56:56.844766 20949 net.cpp:558] conv3_1_0 <- conv2_Eltwise_18_conv2_18ReLU_1_0_split_0
I0927 07:56:56.844774 20949 net.cpp:522] conv3_1_0 -> conv3_1_0
I0927 07:56:56.847790 20949 net.cpp:172] Setting up conv3_1_0
I0927 07:56:56.847820 20949 net.cpp:186] Top shape: 128 32 16 16 (1048576)
I0927 07:56:56.847824 20949 net.cpp:194] Memory required for data: 1717043712
I0927 07:56:56.847836 20949 layer_factory.hpp:77] Creating layer conv3_1_bn0
I0927 07:56:56.847847 20949 net.cpp:128] Creating Layer conv3_1_bn0
I0927 07:56:56.847852 20949 net.cpp:558] conv3_1_bn0 <- conv3_1_0
I0927 07:56:56.847864 20949 net.cpp:509] conv3_1_bn0 -> conv3_1_0 (in-place)
I0927 07:56:56.848160 20949 net.cpp:172] Setting up conv3_1_bn0
I0927 07:56:56.848188 20949 net.cpp:186] Top shape: 128 32 16 16 (1048576)
I0927 07:56:56.848193 20949 net.cpp:194] Memory required for data: 1721238016
I0927 07:56:56.848203 20949 layer_factory.hpp:77] Creating layer conv3_1_scale0
I0927 07:56:56.848213 20949 net.cpp:128] Creating Layer conv3_1_scale0
I0927 07:56:56.848219 20949 net.cpp:558] conv3_1_scale0 <- conv3_1_0
I0927 07:56:56.848224 20949 net.cpp:509] conv3_1_scale0 -> conv3_1_0 (in-place)
I0927 07:56:56.848273 20949 layer_factory.hpp:77] Creating layer conv3_1_scale0
I0927 07:56:56.848439 20949 net.cpp:172] Setting up conv3_1_scale0
I0927 07:56:56.848449 20949 net.cpp:186] Top shape: 128 32 16 16 (1048576)
I0927 07:56:56.848454 20949 net.cpp:194] Memory required for data: 1725432320
I0927 07:56:56.848462 20949 layer_factory.hpp:77] Creating layer conv3_1_ReLU0
I0927 07:56:56.848470 20949 net.cpp:128] Creating Layer conv3_1_ReLU0
I0927 07:56:56.848476 20949 net.cpp:558] conv3_1_ReLU0 <- conv3_1_0
I0927 07:56:56.848481 20949 net.cpp:509] conv3_1_ReLU0 -> conv3_1_0 (in-place)
I0927 07:56:56.848726 20949 net.cpp:172] Setting up conv3_1_ReLU0
I0927 07:56:56.848740 20949 net.cpp:186] Top shape: 128 32 16 16 (1048576)
I0927 07:56:56.848745 20949 net.cpp:194] Memory required for data: 1729626624
I0927 07:56:56.848749 20949 layer_factory.hpp:77] Creating layer conv3_1_1
I0927 07:56:56.848764 20949 net.cpp:128] Creating Layer conv3_1_1
I0927 07:56:56.848770 20949 net.cpp:558] conv3_1_1 <- conv3_1_0
I0927 07:56:56.848778 20949 net.cpp:522] conv3_1_1 -> conv3_1_1
I0927 07:56:56.850244 20949 net.cpp:172] Setting up conv3_1_1
I0927 07:56:56.850267 20949 net.cpp:186] Top shape: 128 32 16 16 (1048576)
I0927 07:56:56.850271 20949 net.cpp:194] Memory required for data: 1733820928
I0927 07:56:56.850281 20949 layer_factory.hpp:77] Creating layer conv3_1bn1
I0927 07:56:56.850291 20949 net.cpp:128] Creating Layer conv3_1bn1
I0927 07:56:56.850297 20949 net.cpp:558] conv3_1bn1 <- conv3_1_1
I0927 07:56:56.850306 20949 net.cpp:509] conv3_1bn1 -> conv3_1_1 (in-place)
I0927 07:56:56.850589 20949 net.cpp:172] Setting up conv3_1bn1
I0927 07:56:56.850600 20949 net.cpp:186] Top shape: 128 32 16 16 (1048576)
I0927 07:56:56.850603 20949 net.cpp:194] Memory required for data: 1738015232
I0927 07:56:56.850613 20949 layer_factory.hpp:77] Creating layer conv3_1_scale1
I0927 07:56:56.850622 20949 net.cpp:128] Creating Layer conv3_1_scale1
I0927 07:56:56.850627 20949 net.cpp:558] conv3_1_scale1 <- conv3_1_1
I0927 07:56:56.850632 20949 net.cpp:509] conv3_1_scale1 -> conv3_1_1 (in-place)
I0927 07:56:56.850677 20949 layer_factory.hpp:77] Creating layer conv3_1_scale1
I0927 07:56:56.850849 20949 net.cpp:172] Setting up conv3_1_scale1
I0927 07:56:56.850860 20949 net.cpp:186] Top shape: 128 32 16 16 (1048576)
I0927 07:56:56.850865 20949 net.cpp:194] Memory required for data: 1742209536
I0927 07:56:56.850873 20949 layer_factory.hpp:77] Creating layer conv3_1_down
I0927 07:56:56.850885 20949 net.cpp:128] Creating Layer conv3_1_down
I0927 07:56:56.850894 20949 net.cpp:558] conv3_1_down <- conv2_Eltwise_18_conv2_18ReLU_1_0_split_1
I0927 07:56:56.850904 20949 net.cpp:522] conv3_1_down -> conv3_1_down
I0927 07:56:56.852241 20949 net.cpp:172] Setting up conv3_1_down
I0927 07:56:56.852263 20949 net.cpp:186] Top shape: 128 32 16 16 (1048576)
I0927 07:56:56.852268 20949 net.cpp:194] Memory required for data: 1746403840
I0927 07:56:56.852282 20949 layer_factory.hpp:77] Creating layer conv3_1_bn_down
I0927 07:56:56.852290 20949 net.cpp:128] Creating Layer conv3_1_bn_down
I0927 07:56:56.852295 20949 net.cpp:558] conv3_1_bn_down <- conv3_1_down
I0927 07:56:56.852306 20949 net.cpp:509] conv3_1_bn_down -> conv3_1_down (in-place)
I0927 07:56:56.852586 20949 net.cpp:172] Setting up conv3_1_bn_down
I0927 07:56:56.852596 20949 net.cpp:186] Top shape: 128 32 16 16 (1048576)
I0927 07:56:56.852599 20949 net.cpp:194] Memory required for data: 1750598144
I0927 07:56:56.852609 20949 layer_factory.hpp:77] Creating layer conv3_1_scale_down
I0927 07:56:56.852618 20949 net.cpp:128] Creating Layer conv3_1_scale_down
I0927 07:56:56.852641 20949 net.cpp:558] conv3_1_scale_down <- conv3_1_down
I0927 07:56:56.852650 20949 net.cpp:509] conv3_1_scale_down -> conv3_1_down (in-place)
I0927 07:56:56.852696 20949 layer_factory.hpp:77] Creating layer conv3_1_scale_down
I0927 07:56:56.852854 20949 net.cpp:172] Setting up conv3_1_scale_down
I0927 07:56:56.852866 20949 net.cpp:186] Top shape: 128 32 16 16 (1048576)
I0927 07:56:56.852870 20949 net.cpp:194] Memory required for data: 1754792448
I0927 07:56:56.852879 20949 layer_factory.hpp:77] Creating layer conv3_Eltwise_1
I0927 07:56:56.852886 20949 net.cpp:128] Creating Layer conv3_Eltwise_1
I0927 07:56:56.852890 20949 net.cpp:558] conv3_Eltwise_1 <- conv3_1_1
I0927 07:56:56.852895 20949 net.cpp:558] conv3_Eltwise_1 <- conv3_1_down
I0927 07:56:56.852901 20949 net.cpp:522] conv3_Eltwise_1 -> conv3_Eltwise_1
I0927 07:56:56.852929 20949 net.cpp:172] Setting up conv3_Eltwise_1
I0927 07:56:56.852938 20949 net.cpp:186] Top shape: 128 32 16 16 (1048576)
I0927 07:56:56.852943 20949 net.cpp:194] Memory required for data: 1758986752
I0927 07:56:56.852947 20949 layer_factory.hpp:77] Creating layer conv3_1ReLU_1
I0927 07:56:56.852953 20949 net.cpp:128] Creating Layer conv3_1ReLU_1
I0927 07:56:56.852958 20949 net.cpp:558] conv3_1ReLU_1 <- conv3_Eltwise_1
I0927 07:56:56.852967 20949 net.cpp:509] conv3_1ReLU_1 -> conv3_Eltwise_1 (in-place)
I0927 07:56:56.853211 20949 net.cpp:172] Setting up conv3_1ReLU_1
I0927 07:56:56.853225 20949 net.cpp:186] Top shape: 128 32 16 16 (1048576)
I0927 07:56:56.853229 20949 net.cpp:194] Memory required for data: 1763181056
I0927 07:56:56.853235 20949 layer_factory.hpp:77] Creating layer conv3_Eltwise_1_conv3_1ReLU_1_0_split
I0927 07:56:56.853241 20949 net.cpp:128] Creating Layer conv3_Eltwise_1_conv3_1ReLU_1_0_split
I0927 07:56:56.853246 20949 net.cpp:558] conv3_Eltwise_1_conv3_1ReLU_1_0_split <- conv3_Eltwise_1
I0927 07:56:56.853260 20949 net.cpp:522] conv3_Eltwise_1_conv3_1ReLU_1_0_split -> conv3_Eltwise_1_conv3_1ReLU_1_0_split_0
I0927 07:56:56.853269 20949 net.cpp:522] conv3_Eltwise_1_conv3_1ReLU_1_0_split -> conv3_Eltwise_1_conv3_1ReLU_1_0_split_1
I0927 07:56:56.853329 20949 net.cpp:172] Setting up conv3_Eltwise_1_conv3_1ReLU_1_0_split
I0927 07:56:56.853340 20949 net.cpp:186] Top shape: 128 32 16 16 (1048576)
I0927 07:56:56.853346 20949 net.cpp:186] Top shape: 128 32 16 16 (1048576)
I0927 07:56:56.853350 20949 net.cpp:194] Memory required for data: 1771569664
I0927 07:56:56.853354 20949 layer_factory.hpp:77] Creating layer conv3_2_0
I0927 07:56:56.853370 20949 net.cpp:128] Creating Layer conv3_2_0
I0927 07:56:56.853377 20949 net.cpp:558] conv3_2_0 <- conv3_Eltwise_1_conv3_1ReLU_1_0_split_0
I0927 07:56:56.853386 20949 net.cpp:522] conv3_2_0 -> conv3_2_0
I0927 07:56:56.854874 20949 net.cpp:172] Setting up conv3_2_0
I0927 07:56:56.854900 20949 net.cpp:186] Top shape: 128 32 16 16 (1048576)
I0927 07:56:56.854905 20949 net.cpp:194] Memory required for data: 1775763968
I0927 07:56:56.854915 20949 layer_factory.hpp:77] Creating layer conv3_2_bn0
I0927 07:56:56.854926 20949 net.cpp:128] Creating Layer conv3_2_bn0
I0927 07:56:56.854938 20949 net.cpp:558] conv3_2_bn0 <- conv3_2_0
I0927 07:56:56.854944 20949 net.cpp:509] conv3_2_bn0 -> conv3_2_0 (in-place)
I0927 07:56:56.855229 20949 net.cpp:172] Setting up conv3_2_bn0
I0927 07:56:56.855243 20949 net.cpp:186] Top shape: 128 32 16 16 (1048576)
I0927 07:56:56.855247 20949 net.cpp:194] Memory required for data: 1779958272
I0927 07:56:56.855258 20949 layer_factory.hpp:77] Creating layer conv3_2_scale0
I0927 07:56:56.855265 20949 net.cpp:128] Creating Layer conv3_2_scale0
I0927 07:56:56.855269 20949 net.cpp:558] conv3_2_scale0 <- conv3_2_0
I0927 07:56:56.855278 20949 net.cpp:509] conv3_2_scale0 -> conv3_2_0 (in-place)
I0927 07:56:56.855320 20949 layer_factory.hpp:77] Creating layer conv3_2_scale0
I0927 07:56:56.855479 20949 net.cpp:172] Setting up conv3_2_scale0
I0927 07:56:56.855490 20949 net.cpp:186] Top shape: 128 32 16 16 (1048576)
I0927 07:56:56.855495 20949 net.cpp:194] Memory required for data: 1784152576
I0927 07:56:56.855520 20949 layer_factory.hpp:77] Creating layer conv3_2_ReLU0
I0927 07:56:56.855528 20949 net.cpp:128] Creating Layer conv3_2_ReLU0
I0927 07:56:56.855532 20949 net.cpp:558] conv3_2_ReLU0 <- conv3_2_0
I0927 07:56:56.855538 20949 net.cpp:509] conv3_2_ReLU0 -> conv3_2_0 (in-place)
I0927 07:56:56.855994 20949 net.cpp:172] Setting up conv3_2_ReLU0
I0927 07:56:56.856015 20949 net.cpp:186] Top shape: 128 32 16 16 (1048576)
I0927 07:56:56.856020 20949 net.cpp:194] Memory required for data: 1788346880
I0927 07:56:56.856025 20949 layer_factory.hpp:77] Creating layer conv3_2_1
I0927 07:56:56.856040 20949 net.cpp:128] Creating Layer conv3_2_1
I0927 07:56:56.856046 20949 net.cpp:558] conv3_2_1 <- conv3_2_0
I0927 07:56:56.856055 20949 net.cpp:522] conv3_2_1 -> conv3_2_1
I0927 07:56:56.857715 20949 net.cpp:172] Setting up conv3_2_1
I0927 07:56:56.857743 20949 net.cpp:186] Top shape: 128 32 16 16 (1048576)
I0927 07:56:56.857748 20949 net.cpp:194] Memory required for data: 1792541184
I0927 07:56:56.857760 20949 layer_factory.hpp:77] Creating layer conv3_2bn1
I0927 07:56:56.857771 20949 net.cpp:128] Creating Layer conv3_2bn1
I0927 07:56:56.857779 20949 net.cpp:558] conv3_2bn1 <- conv3_2_1
I0927 07:56:56.857792 20949 net.cpp:509] conv3_2bn1 -> conv3_2_1 (in-place)
I0927 07:56:56.858088 20949 net.cpp:172] Setting up conv3_2bn1
I0927 07:56:56.858098 20949 net.cpp:186] Top shape: 128 32 16 16 (1048576)
I0927 07:56:56.858101 20949 net.cpp:194] Memory required for data: 1796735488
I0927 07:56:56.858111 20949 layer_factory.hpp:77] Creating layer conv3_2_scale1
I0927 07:56:56.858121 20949 net.cpp:128] Creating Layer conv3_2_scale1
I0927 07:56:56.858126 20949 net.cpp:558] conv3_2_scale1 <- conv3_2_1
I0927 07:56:56.858131 20949 net.cpp:509] conv3_2_scale1 -> conv3_2_1 (in-place)
I0927 07:56:56.858180 20949 layer_factory.hpp:77] Creating layer conv3_2_scale1
I0927 07:56:56.858342 20949 net.cpp:172] Setting up conv3_2_scale1
I0927 07:56:56.858352 20949 net.cpp:186] Top shape: 128 32 16 16 (1048576)
I0927 07:56:56.858356 20949 net.cpp:194] Memory required for data: 1800929792
I0927 07:56:56.858364 20949 layer_factory.hpp:77] Creating layer conv3_Eltwise_2
I0927 07:56:56.858371 20949 net.cpp:128] Creating Layer conv3_Eltwise_2
I0927 07:56:56.858382 20949 net.cpp:558] conv3_Eltwise_2 <- conv3_Eltwise_1_conv3_1ReLU_1_0_split_1
I0927 07:56:56.858387 20949 net.cpp:558] conv3_Eltwise_2 <- conv3_2_1
I0927 07:56:56.858393 20949 net.cpp:522] conv3_Eltwise_2 -> conv3_Eltwise_2
I0927 07:56:56.858417 20949 net.cpp:172] Setting up conv3_Eltwise_2
I0927 07:56:56.858427 20949 net.cpp:186] Top shape: 128 32 16 16 (1048576)
I0927 07:56:56.858430 20949 net.cpp:194] Memory required for data: 1805124096
I0927 07:56:56.858434 20949 layer_factory.hpp:77] Creating layer conv3_2ReLU_1
I0927 07:56:56.858443 20949 net.cpp:128] Creating Layer conv3_2ReLU_1
I0927 07:56:56.858449 20949 net.cpp:558] conv3_2ReLU_1 <- conv3_Eltwise_2
I0927 07:56:56.858454 20949 net.cpp:509] conv3_2ReLU_1 -> conv3_Eltwise_2 (in-place)
I0927 07:56:56.858702 20949 net.cpp:172] Setting up conv3_2ReLU_1
I0927 07:56:56.858717 20949 net.cpp:186] Top shape: 128 32 16 16 (1048576)
I0927 07:56:56.858721 20949 net.cpp:194] Memory required for data: 1809318400
I0927 07:56:56.858726 20949 layer_factory.hpp:77] Creating layer conv3_Eltwise_2_conv3_2ReLU_1_0_split
I0927 07:56:56.858736 20949 net.cpp:128] Creating Layer conv3_Eltwise_2_conv3_2ReLU_1_0_split
I0927 07:56:56.858741 20949 net.cpp:558] conv3_Eltwise_2_conv3_2ReLU_1_0_split <- conv3_Eltwise_2
I0927 07:56:56.858748 20949 net.cpp:522] conv3_Eltwise_2_conv3_2ReLU_1_0_split -> conv3_Eltwise_2_conv3_2ReLU_1_0_split_0
I0927 07:56:56.858757 20949 net.cpp:522] conv3_Eltwise_2_conv3_2ReLU_1_0_split -> conv3_Eltwise_2_conv3_2ReLU_1_0_split_1
…
I0927 07:56:58.325435 20949 net.cpp:128] Creating Layer conv4_10bn1
I0927 07:56:58.325443 20949 net.cpp:558] conv4_10bn1 <- conv4_10_1
I0927 07:56:58.325450 20949 net.cpp:509] conv4_10bn1 -> conv4_10_1 (in-place)
I0927 07:56:58.325721 20949 net.cpp:172] Setting up conv4_10bn1
I0927 07:56:58.325729 20949 net.cpp:186] Top shape: 10 64 8 8 (40960)
I0927 07:56:58.325732 20949 net.cpp:194] Memory required for data: 217374840
I0927 07:56:58.325742 20949 layer_factory.hpp:77] Creating layer conv4_10_scale1
I0927 07:56:58.325749 20949 net.cpp:128] Creating Layer conv4_10_scale1
I0927 07:56:58.325753 20949 net.cpp:558] conv4_10_scale1 <- conv4_10_1
I0927 07:56:58.325758 20949 net.cpp:509] conv4_10_scale1 -> conv4_10_1 (in-place)
I0927 07:56:58.325810 20949 layer_factory.hpp:77] Creating layer conv4_10_scale1
I0927 07:56:58.325964 20949 net.cpp:172] Setting up conv4_10_scale1
I0927 07:56:58.325973 20949 net.cpp:186] Top shape: 10 64 8 8 (40960)
I0927 07:56:58.325976 20949 net.cpp:194] Memory required for data: 217538680
I0927 07:56:58.325984 20949 layer_factory.hpp:77] Creating layer conv4_Eltwise_10
I0927 07:56:58.325991 20949 net.cpp:128] Creating Layer conv4_Eltwise_10
I0927 07:56:58.325996 20949 net.cpp:558] conv4_Eltwise_10 <- conv4_Eltwise_9_conv4_9ReLU_1_0_split_1
I0927 07:56:58.326001 20949 net.cpp:558] conv4_Eltwise_10 <- conv4_10_1
I0927 07:56:58.326007 20949 net.cpp:522] conv4_Eltwise_10 -> conv4_Eltwise_10
I0927 07:56:58.326036 20949 net.cpp:172] Setting up conv4_Eltwise_10
I0927 07:56:58.326046 20949 net.cpp:186] Top shape: 10 64 8 8 (40960)
I0927 07:56:58.326050 20949 net.cpp:194] Memory required for data: 217702520
I0927 07:56:58.326054 20949 layer_factory.hpp:77] Creating layer conv4_10ReLU_1
I0927 07:56:58.326061 20949 net.cpp:128] Creating Layer conv4_10ReLU_1
I0927 07:56:58.326064 20949 net.cpp:558] conv4_10ReLU_1 <- conv4_Eltwise_10
I0927 07:56:58.326071 20949 net.cpp:509] conv4_10ReLU_1 -> conv4_Eltwise_10 (in-place)
I0927 07:56:58.326386 20949 net.cpp:172] Setting up conv4_10ReLU_1
I0927 07:56:58.326400 20949 net.cpp:186] Top shape: 10 64 8 8 (40960)
I0927 07:56:58.326403 20949 net.cpp:194] Memory required for data: 217866360
I0927 07:56:58.326408 20949 layer_factory.hpp:77] Creating layer conv4_Eltwise_10_conv4_10ReLU_1_0_split
I0927 07:56:58.326418 20949 net.cpp:128] Creating Layer conv4_Eltwise_10_conv4_10ReLU_1_0_split
I0927 07:56:58.326438 20949 net.cpp:558] conv4_Eltwise_10_conv4_10ReLU_1_0_split <- conv4_Eltwise_10
I0927 07:56:58.326447 20949 net.cpp:522] conv4_Eltwise_10_conv4_10ReLU_1_0_split -> conv4_Eltwise_10_conv4_10ReLU_1_0_split_0
I0927 07:56:58.326457 20949 net.cpp:522] conv4_Eltwise_10_conv4_10ReLU_1_0_split -> conv4_Eltwise_10_conv4_10ReLU_1_0_split_1
I0927 07:56:58.326514 20949 net.cpp:172] Setting up conv4_Eltwise_10_conv4_10ReLU_1_0_split
I0927 07:56:58.326521 20949 net.cpp:186] Top shape: 10 64 8 8 (40960)
I0927 07:56:58.326527 20949 net.cpp:186] Top shape: 10 64 8 8 (40960)
I0927 07:56:58.326531 20949 net.cpp:194] Memory required for data: 218194040
I0927 07:56:58.326535 20949 layer_factory.hpp:77] Creating layer conv4_11_0
I0927 07:56:58.326550 20949 net.cpp:128] Creating Layer conv4_11_0
I0927 07:56:58.326555 20949 net.cpp:558] conv4_11_0 <- conv4_Eltwise_10_conv4_10ReLU_1_0_split_0
I0927 07:56:58.326562 20949 net.cpp:522] conv4_11_0 -> conv4_11_0
I0927 07:56:58.328940 20949 net.cpp:172] Setting up conv4_11_0
I0927 07:56:58.328960 20949 net.cpp:186] Top shape: 10 64 8 8 (40960)
I0927 07:56:58.328965 20949 net.cpp:194] Memory required for data: 218357880
I0927 07:56:58.328975 20949 layer_factory.hpp:77] Creating layer conv4_11_bn0
I0927 07:56:58.328984 20949 net.cpp:128] Creating Layer conv4_11_bn0
I0927 07:56:58.328989 20949 net.cpp:558] conv4_11_bn0 <- conv4_11_0
I0927 07:56:58.328999 20949 net.cpp:509] conv4_11_bn0 -> conv4_11_0 (in-place)
I0927 07:56:58.329283 20949 net.cpp:172] Setting up conv4_11_bn0
I0927 07:56:58.329291 20949 net.cpp:186] Top shape: 10 64 8 8 (40960)
I0927 07:56:58.329295 20949 net.cpp:194] Memory required for data: 218521720
I0927 07:56:58.329304 20949 layer_factory.hpp:77] Creating layer conv4_11_scale0
I0927 07:56:58.329311 20949 net.cpp:128] Creating Layer conv4_11_scale0
I0927 07:56:58.329316 20949 net.cpp:558] conv4_11_scale0 <- conv4_11_0
I0927 07:56:58.329324 20949 net.cpp:509] conv4_11_scale0 -> conv4_11_0 (in-place)
I0927 07:56:58.329371 20949 layer_factory.hpp:77] Creating layer conv4_11_scale0
I0927 07:56:58.329527 20949 net.cpp:172] Setting up conv4_11_scale0
I0927 07:56:58.329535 20949 net.cpp:186] Top shape: 10 64 8 8 (40960)
I0927 07:56:58.329538 20949 net.cpp:194] Memory required for data: 218685560
I0927 07:56:58.329546 20949 layer_factory.hpp:77] Creating layer conv4_11_ReLU0
I0927 07:56:58.329555 20949 net.cpp:128] Creating Layer conv4_11_ReLU0
I0927 07:56:58.329560 20949 net.cpp:558] conv4_11_ReLU0 <- conv4_11_0
I0927 07:56:58.329565 20949 net.cpp:509] conv4_11_ReLU0 -> conv4_11_0 (in-place)
I0927 07:56:58.329887 20949 net.cpp:172] Setting up conv4_11_ReLU0
I0927 07:56:58.329900 20949 net.cpp:186] Top shape: 10 64 8 8 (40960)
I0927 07:56:58.329905 20949 net.cpp:194] Memory required for data: 218849400
I0927 07:56:58.329910 20949 layer_factory.hpp:77] Creating layer conv4_11_1
I0927 07:56:58.329924 20949 net.cpp:128] Creating Layer conv4_11_1
I0927 07:56:58.329931 20949 net.cpp:558] conv4_11_1 <- conv4_11_0
I0927 07:56:58.329938 20949 net.cpp:522] conv4_11_1 -> conv4_11_1
I0927 07:56:58.332083 20949 net.cpp:172] Setting up conv4_11_1
I0927 07:56:58.332101 20949 net.cpp:186] Top shape: 10 64 8 8 (40960)
I0927 07:56:58.332105 20949 net.cpp:194] Memory required for data: 219013240
I0927 07:56:58.332114 20949 layer_factory.hpp:77] Creating layer conv4_11bn1
I0927 07:56:58.332125 20949 net.cpp:128] Creating Layer conv4_11bn1
I0927 07:56:58.332131 20949 net.cpp:558] conv4_11bn1 <- conv4_11_1
I0927 07:56:58.332139 20949 net.cpp:509] conv4_11bn1 -> conv4_11_1 (in-place)
I0927 07:56:58.332410 20949 net.cpp:172] Setting up conv4_11bn1
I0927 07:56:58.332418 20949 net.cpp:186] Top shape: 10 64 8 8 (40960)
I0927 07:56:58.332422 20949 net.cpp:194] Memory required for data: 219177080
I0927 07:56:58.332432 20949 layer_factory.hpp:77] Creating layer conv4_11_scale1
I0927 07:56:58.332440 20949 net.cpp:128] Creating Layer conv4_11_scale1
I0927 07:56:58.332444 20949 net.cpp:558] conv4_11_scale1 <- conv4_11_1
I0927 07:56:58.332451 20949 net.cpp:509] conv4_11_scale1 -> conv4_11_1 (in-place)
I0927 07:56:58.332520 20949 layer_factory.hpp:77] Creating layer conv4_11_scale1
I0927 07:56:58.332675 20949 net.cpp:172] Setting up conv4_11_scale1
I0927 07:56:58.332682 20949 net.cpp:186] Top shape: 10 64 8 8 (40960)
I0927 07:56:58.332686 20949 net.cpp:194] Memory required for data: 219340920
I0927 07:56:58.332695 20949 layer_factory.hpp:77] Creating layer conv4_Eltwise_11
I0927 07:56:58.332703 20949 net.cpp:128] Creating Layer conv4_Eltwise_11
I0927 07:56:58.332708 20949 net.cpp:558] conv4_Eltwise_11 <- conv4_Eltwise_10_conv4_10ReLU_1_0_split_1
I0927 07:56:58.332715 20949 net.cpp:558] conv4_Eltwise_11 <- conv4_11_1
I0927 07:56:58.332722 20949 net.cpp:522] conv4_Eltwise_11 -> conv4_Eltwise_11
I0927 07:56:58.332749 20949 net.cpp:172] Setting up conv4_Eltwise_11
I0927 07:56:58.332756 20949 net.cpp:186] Top shape: 10 64 8 8 (40960)
I0927 07:56:58.332761 20949 net.cpp:194] Memory required for data: 219504760
I0927 07:56:58.332764 20949 layer_factory.hpp:77] Creating layer conv4_11ReLU_1
I0927 07:56:58.332773 20949 net.cpp:128] Creating Layer conv4_11ReLU_1
I0927 07:56:58.332777 20949 net.cpp:558] conv4_11ReLU_1 <- conv4_Eltwise_11
I0927 07:56:58.332783 20949 net.cpp:509] conv4_11ReLU_1 -> conv4_Eltwise_11 (in-place)
I0927 07:56:58.333580 20949 net.cpp:172] Setting up conv4_11ReLU_1
I0927 07:56:58.333597 20949 net.cpp:186] Top shape: 10 64 8 8 (40960)
I0927 07:56:58.333602 20949 net.cpp:194] Memory required for data: 219668600
I0927 07:56:58.333607 20949 layer_factory.hpp:77] Creating layer conv4_Eltwise_11_conv4_11ReLU_1_0_split
I0927 07:56:58.333614 20949 net.cpp:128] Creating Layer conv4_Eltwise_11_conv4_11ReLU_1_0_split
I0927 07:56:58.333621 20949 net.cpp:558] conv4_Eltwise_11_conv4_11ReLU_1_0_split <- conv4_Eltwise_11
I0927 07:56:58.333629 20949 net.cpp:522] conv4_Eltwise_11_conv4_11ReLU_1_0_split -> conv4_Eltwise_11_conv4_11ReLU_1_0_split_0
I0927 07:56:58.333639 20949 net.cpp:522] conv4_Eltwise_11_conv4_11ReLU_1_0_split -> conv4_Eltwise_11_conv4_11ReLU_1_0_split_1
I0927 07:56:58.333700 20949 net.cpp:172] Setting up conv4_Eltwise_11_conv4_11ReLU_1_0_split
I0927 07:56:58.333708 20949 net.cpp:186] Top shape: 10 64 8 8 (40960)
I0927 07:56:58.333714 20949 net.cpp:186] Top shape: 10 64 8 8 (40960)
I0927 07:56:58.333716 20949 net.cpp:194] Memory required for data: 219996280
I0927 07:56:58.333720 20949 layer_factory.hpp:77] Creating layer conv4_12_0
I0927 07:56:58.333732 20949 net.cpp:128] Creating Layer conv4_12_0
I0927 07:56:58.333737 20949 net.cpp:558] conv4_12_0 <- conv4_Eltwise_11_conv4_11ReLU_1_0_split_0
I0927 07:56:58.333746 20949 net.cpp:522] conv4_12_0 -> conv4_12_0
I0927 07:56:58.336133 20949 net.cpp:172] Setting up conv4_12_0
I0927 07:56:58.336151 20949 net.cpp:186] Top shape: 10 64 8 8 (40960)
I0927 07:56:58.336155 20949 net.cpp:194] Memory required for data: 220160120
I0927 07:56:58.336165 20949 layer_factory.hpp:77] Creating layer conv4_12_bn0
I0927 07:56:58.336176 20949 net.cpp:128] Creating Layer conv4_12_bn0
I0927 07:56:58.336181 20949 net.cpp:558] conv4_12_bn0 <- conv4_12_0
I0927 07:56:58.336189 20949 net.cpp:509] conv4_12_bn0 -> conv4_12_0 (in-place)
I0927 07:56:58.336477 20949 net.cpp:172] Setting up conv4_12_bn0
I0927 07:56:58.336484 20949 net.cpp:186] Top shape: 10 64 8 8 (40960)
I0927 07:56:58.336488 20949 net.cpp:194] Memory required for data: 220323960
I0927 07:56:58.336498 20949 layer_factory.hpp:77] Creating layer conv4_12_scale0
I0927 07:56:58.336504 20949 net.cpp:128] Creating Layer conv4_12_scale0
I0927 07:56:58.336508 20949 net.cpp:558] conv4_12_scale0 <- conv4_12_0
I0927 07:56:58.336514 20949 net.cpp:509] conv4_12_scale0 -> conv4_12_0 (in-place)
I0927 07:56:58.336566 20949 layer_factory.hpp:77] Creating layer conv4_12_scale0
I0927 07:56:58.336724 20949 net.cpp:172] Setting up conv4_12_scale0
I0927 07:56:58.336732 20949 net.cpp:186] Top shape: 10 64 8 8 (40960)
I0927 07:56:58.336736 20949 net.cpp:194] Memory required for data: 220487800
I0927 07:56:58.336743 20949 layer_factory.hpp:77] Creating layer conv4_12_ReLU0
I0927 07:56:58.336750 20949 net.cpp:128] Creating Layer conv4_12_ReLU0
I0927 07:56:58.336771 20949 net.cpp:558] conv4_12_ReLU0 <- conv4_12_0
I0927 07:56:58.336776 20949 net.cpp:509] conv4_12_ReLU0 -> conv4_12_0 (in-place)
I0927 07:56:58.337093 20949 net.cpp:172] Setting up conv4_12_ReLU0
I0927 07:56:58.337106 20949 net.cpp:186] Top shape: 10 64 8 8 (40960)
I0927 07:56:58.337110 20949 net.cpp:194] Memory required for data: 220651640
I0927 07:56:58.337116 20949 layer_factory.hpp:77] Creating layer conv4_12_1
I0927 07:56:58.337131 20949 net.cpp:128] Creating Layer conv4_12_1
I0927 07:56:58.337137 20949 net.cpp:558] conv4_12_1 <- conv4_12_0
I0927 07:56:58.337148 20949 net.cpp:522] conv4_12_1 -> conv4_12_1
I0927 07:56:58.339320 20949 net.cpp:172] Setting up conv4_12_1
I0927 07:56:58.339341 20949 net.cpp:186] Top shape: 10 64 8 8 (40960)
I0927 07:56:58.339345 20949 net.cpp:194] Memory required for data: 220815480
I0927 07:56:58.339355 20949 layer_factory.hpp:77] Creating layer conv4_12bn1
I0927 07:56:58.339363 20949 net.cpp:128] Creating Layer conv4_12bn1
I0927 07:56:58.339368 20949 net.cpp:558] conv4_12bn1 <- conv4_12_1
I0927 07:56:58.339377 20949 net.cpp:509] conv4_12bn1 -> conv4_12_1 (in-place)
I0927 07:56:58.339655 20949 net.cpp:172] Setting up conv4_12bn1
I0927 07:56:58.339663 20949 net.cpp:186] Top shape: 10 64 8 8 (40960)
I0927 07:56:58.339666 20949 net.cpp:194] Memory required for data: 220979320
I0927 07:56:58.339676 20949 layer_factory.hpp:77] Creating layer conv4_12_scale1
I0927 07:56:58.339682 20949 net.cpp:128] Creating Layer conv4_12_scale1
I0927 07:56:58.339687 20949 net.cpp:558] conv4_12_scale1 <- conv4_12_1
I0927 07:56:58.339696 20949 net.cpp:509] conv4_12_scale1 -> conv4_12_1 (in-place)
I0927 07:56:58.339746 20949 layer_factory.hpp:77] Creating layer conv4_12_scale1
I0927 07:56:58.339905 20949 net.cpp:172] Setting up conv4_12_scale1
I0927 07:56:58.339911 20949 net.cpp:186] Top shape: 10 64 8 8 (40960)
I0927 07:56:58.339915 20949 net.cpp:194] Memory required for data: 221143160
I0927 07:56:58.339923 20949 layer_factory.hpp:77] Creating layer conv4_Eltwise_12
I0927 07:56:58.339932 20949 net.cpp:128] Creating Layer conv4_Eltwise_12
I0927 07:56:58.339937 20949 net.cpp:558] conv4_Eltwise_12 <- conv4_Eltwise_11_conv4_11ReLU_1_0_split_1
I0927 07:56:58.339942 20949 net.cpp:558] conv4_Eltwise_12 <- conv4_12_1
I0927 07:56:58.339951 20949 net.cpp:522] conv4_Eltwise_12 -> conv4_Eltwise_12
I0927 07:56:58.339978 20949 net.cpp:172] Setting up conv4_Eltwise_12
I0927 07:56:58.339985 20949 net.cpp:186] Top shape: 10 64 8 8 (40960)
I0927 07:56:58.339989 20949 net.cpp:194] Memory required for data: 221307000
I0927 07:56:58.339993 20949 layer_factory.hpp:77] Creating layer conv4_12ReLU_1
I0927 07:56:58.340001 20949 net.cpp:128] Creating Layer conv4_12ReLU_1
I0927 07:56:58.340006 20949 net.cpp:558] conv4_12ReLU_1 <- conv4_Eltwise_12
I0927 07:56:58.340011 20949 net.cpp:509] conv4_12ReLU_1 -> conv4_Eltwise_12 (in-place)
I0927 07:56:58.340318 20949 net.cpp:172] Setting up conv4_12ReLU_1
I0927 07:56:58.340330 20949 net.cpp:186] Top shape: 10 64 8 8 (40960)
I0927 07:56:58.340334 20949 net.cpp:194] Memory required for data: 221470840
I0927 07:56:58.340339 20949 layer_factory.hpp:77] Creating layer conv4_Eltwise_12_conv4_12ReLU_1_0_split
I0927 07:56:58.340348 20949 net.cpp:128] Creating Layer conv4_Eltwise_12_conv4_12ReLU_1_0_split
I0927 07:56:58.340354 20949 net.cpp:558] conv4_Eltwise_12_conv4_12ReLU_1_0_split <- conv4_Eltwise_12
I0927 07:56:58.340360 20949 net.cpp:522] conv4_Eltwise_12_conv4_12ReLU_1_0_split -> conv4_Eltwise_12_conv4_12ReLU_1_0_split_0
I0927 07:56:58.340371 20949 net.cpp:522] conv4_Eltwise_12_conv4_12ReLU_1_0_split -> conv4_Eltwise_12_conv4_12ReLU_1_0_split_1
I0927 07:56:58.340425 20949 net.cpp:172] Setting up conv4_Eltwise_12_conv4_12ReLU_1_0_split
I0927 07:56:58.340435 20949 net.cpp:186] Top shape: 10 64 8 8 (40960)
I0927 07:56:58.340440 20949 net.cpp:186] Top shape: 10 64 8 8 (40960)
I0927 07:56:58.340443 20949 net.cpp:194] Memory required for data: 221798520
I0927 07:56:58.340448 20949 layer_factory.hpp:77] Creating layer conv4_13_0
I0927 07:56:58.340461 20949 net.cpp:128] Creating Layer conv4_13_0
I0927 07:56:58.340481 20949 net.cpp:558] conv4_13_0 <- conv4_Eltwise_12_conv4_12ReLU_1_0_split_0
I0927 07:56:58.340488 20949 net.cpp:522] conv4_13_0 -> conv4_13_0
I0927 07:56:58.343345 20949 net.cpp:172] Setting up conv4_13_0
I0927 07:56:58.343364 20949 net.cpp:186] Top shape: 10 64 8 8 (40960)
I0927 07:56:58.343369 20949 net.cpp:194] Memory required for data: 221962360
I0927 07:56:58.343379 20949 layer_factory.hpp:77] Creating layer conv4_13_bn0
I0927 07:56:58.343387 20949 net.cpp:128] Creating Layer conv4_13_bn0
I0927 07:56:58.343392 20949 net.cpp:558] conv4_13_bn0 <- conv4_13_0
I0927 07:56:58.343400 20949 net.cpp:509] conv4_13_bn0 -> conv4_13_0 (in-place)
I0927 07:56:58.343674 20949 net.cpp:172] Setting up conv4_13_bn0
I0927 07:56:58.343681 20949 net.cpp:186] Top shape: 10 64 8 8 (40960)
I0927 07:56:58.343685 20949 net.cpp:194] Memory required for data: 222126200
I0927 07:56:58.343700 20949 layer_factory.hpp:77] Creating layer conv4_13_scale0
I0927 07:56:58.343708 20949 net.cpp:128] Creating Layer conv4_13_scale0
I0927 07:56:58.343711 20949 net.cpp:558] conv4_13_scale0 <- conv4_13_0
I0927 07:56:58.343717 20949 net.cpp:509] conv4_13_scale0 -> conv4_13_0 (in-place)
I0927 07:56:58.343766 20949 layer_factory.hpp:77] Creating layer conv4_13_scale0
I0927 07:56:58.343914 20949 net.cpp:172] Setting up conv4_13_scale0
I0927 07:56:58.343921 20949 net.cpp:186] Top shape: 10 64 8 8 (40960)
I0927 07:56:58.343925 20949 net.cpp:194] Memory required for data: 222290040
I0927 07:56:58.343933 20949 layer_factory.hpp:77] Creating layer conv4_13_ReLU0
I0927 07:56:58.343940 20949 net.cpp:128] Creating Layer conv4_13_ReLU0
I0927 07:56:58.343943 20949 net.cpp:558] conv4_13_ReLU0 <- conv4_13_0
I0927 07:56:58.343950 20949 net.cpp:509] conv4_13_ReLU0 -> conv4_13_0 (in-place)
I0927 07:56:58.344249 20949 net.cpp:172] Setting up conv4_13_ReLU0
I0927 07:56:58.344261 20949 net.cpp:186] Top shape: 10 64 8 8 (40960)
I0927 07:56:58.344265 20949 net.cpp:194] Memory required for data: 222453880
I0927 07:56:58.344270 20949 layer_factory.hpp:77] Creating layer conv4_13_1
I0927 07:56:58.344281 20949 net.cpp:128] Creating Layer conv4_13_1
I0927 07:56:58.344286 20949 net.cpp:558] conv4_13_1 <- conv4_13_0
I0927 07:56:58.344293 20949 net.cpp:522] conv4_13_1 -> conv4_13_1
I0927 07:56:58.346371 20949 net.cpp:172] Setting up conv4_13_1
I0927 07:56:58.346390 20949 net.cpp:186] Top shape: 10 64 8 8 (40960)
I0927 07:56:58.346393 20949 net.cpp:194] Memory required for data: 222617720
I0927 07:56:58.346403 20949 layer_factory.hpp:77] Creating layer conv4_13bn1
I0927 07:56:58.346413 20949 net.cpp:128] Creating Layer conv4_13bn1
I0927 07:56:58.346418 20949 net.cpp:558] conv4_13bn1 <- conv4_13_1
I0927 07:56:58.346426 20949 net.cpp:509] conv4_13bn1 -> conv4_13_1 (in-place)
I0927 07:56:58.346710 20949 net.cpp:172] Setting up conv4_13bn1
I0927 07:56:58.346717 20949 net.cpp:186] Top shape: 10 64 8 8 (40960)
I0927 07:56:58.346721 20949 net.cpp:194] Memory required for data: 222781560
I0927 07:56:58.346731 20949 layer_factory.hpp:77] Creating layer conv4_13_scale1
I0927 07:56:58.346738 20949 net.cpp:128] Creating Layer conv4_13_scale1
I0927 07:56:58.346742 20949 net.cpp:558] conv4_13_scale1 <- conv4_13_1
I0927 07:56:58.346750 20949 net.cpp:509] conv4_13_scale1 -> conv4_13_1 (in-place)
I0927 07:56:58.346802 20949 layer_factory.hpp:77] Creating layer conv4_13_scale1
I0927 07:56:58.346979 20949 net.cpp:172] Setting up conv4_13_scale1
I0927 07:56:58.346988 20949 net.cpp:186] Top shape: 10 64 8 8 (40960)
I0927 07:56:58.346992 20949 net.cpp:194] Memory required for data: 222945400
I0927 07:56:58.347000 20949 layer_factory.hpp:77] Creating layer conv4_Eltwise_13
I0927 07:56:58.347007 20949 net.cpp:128] Creating Layer conv4_Eltwise_13
I0927 07:56:58.347012 20949 net.cpp:558] conv4_Eltwise_13 <- conv4_Eltwise_12_conv4_12ReLU_1_0_split_1
I0927 07:56:58.347018 20949 net.cpp:558] conv4_Eltwise_13 <- conv4_13_1
I0927 07:56:58.347026 20949 net.cpp:522] conv4_Eltwise_13 -> conv4_Eltwise_13
I0927 07:56:58.347057 20949 net.cpp:172] Setting up conv4_Eltwise_13
I0927 07:56:58.347079 20949 net.cpp:186] Top shape: 10 64 8 8 (40960)
I0927 07:56:58.347084 20949 net.cpp:194] Memory required for data: 223109240
I0927 07:56:58.347087 20949 layer_factory.hpp:77] Creating layer conv4_13ReLU_1
I0927 07:56:58.347093 20949 net.cpp:128] Creating Layer conv4_13ReLU_1
I0927 07:56:58.347098 20949 net.cpp:558] conv4_13ReLU_1 <- conv4_Eltwise_13
I0927 07:56:58.347107 20949 net.cpp:509] conv4_13ReLU_1 -> conv4_Eltwise_13 (in-place)
I0927 07:56:58.347661 20949 net.cpp:172] Setting up conv4_13ReLU_1
I0927 07:56:58.347677 20949 net.cpp:186] Top shape: 10 64 8 8 (40960)
I0927 07:56:58.347681 20949 net.cpp:194] Memory required for data: 223273080
I0927 07:56:58.347687 20949 layer_factory.hpp:77] Creating layer conv4_Eltwise_13_conv4_13ReLU_1_0_split
I0927 07:56:58.347694 20949 net.cpp:128] Creating Layer conv4_Eltwise_13_conv4_13ReLU_1_0_split
I0927 07:56:58.347699 20949 net.cpp:558] conv4_Eltwise_13_conv4_13ReLU_1_0_split <- conv4_Eltwise_13
I0927 07:56:58.347709 20949 net.cpp:522] conv4_Eltwise_13_conv4_13ReLU_1_0_split -> conv4_Eltwise_13_conv4_13ReLU_1_0_split_0
I0927 07:56:58.347718 20949 net.cpp:522] conv4_Eltwise_13_conv4_13ReLU_1_0_split -> conv4_Eltwise_13_conv4_13ReLU_1_0_split_1
I0927 07:56:58.347777 20949 net.cpp:172] Setting up conv4_Eltwise_13_conv4_13ReLU_1_0_split
I0927 07:56:58.347784 20949 net.cpp:186] Top shape: 10 64 8 8 (40960)
I0927 07:56:58.347790 20949 net.cpp:186] Top shape: 10 64 8 8 (40960)
I0927 07:56:58.347793 20949 net.cpp:194] Memory required for data: 223600760
I0927 07:56:58.347798 20949 layer_factory.hpp:77] Creating layer conv4_14_0
I0927 07:56:58.347810 20949 net.cpp:128] Creating Layer conv4_14_0
I0927 07:56:58.347815 20949 net.cpp:558] conv4_14_0 <- conv4_Eltwise_13_conv4_13ReLU_1_0_split_0
I0927 07:56:58.347823 20949 net.cpp:522] conv4_14_0 -> conv4_14_0
I0927 07:56:58.350191 20949 net.cpp:172] Setting up conv4_14_0
I0927 07:56:58.350209 20949 net.cpp:186] Top shape: 10 64 8 8 (40960)
I0927 07:56:58.350214 20949 net.cpp:194] Memory required for data: 223764600
I0927 07:56:58.350224 20949 layer_factory.hpp:77] Creating layer conv4_14_bn0
I0927 07:56:58.350234 20949 net.cpp:128] Creating Layer conv4_14_bn0
I0927 07:56:58.350239 20949 net.cpp:558] conv4_14_bn0 <- conv4_14_0
I0927 07:56:58.350246 20949 net.cpp:509] conv4_14_bn0 -> conv4_14_0 (in-place)
I0927 07:56:58.350538 20949 net.cpp:172] Setting up conv4_14_bn0
I0927 07:56:58.350546 20949 net.cpp:186] Top shape: 10 64 8 8 (40960)
I0927 07:56:58.350550 20949 net.cpp:194] Memory required for data: 223928440
I0927 07:56:58.350560 20949 layer_factory.hpp:77] Creating layer conv4_14_scale0
I0927 07:56:58.350567 20949 net.cpp:128] Creating Layer conv4_14_scale0
I0927 07:56:58.350571 20949 net.cpp:558] conv4_14_scale0 <- conv4_14_0
I0927 07:56:58.350576 20949 net.cpp:509] conv4_14_scale0 -> conv4_14_0 (in-place)
I0927 07:56:58.350630 20949 layer_factory.hpp:77] Creating layer conv4_14_scale0
I0927 07:56:58.350791 20949 net.cpp:172] Setting up conv4_14_scale0
I0927 07:56:58.350798 20949 net.cpp:186] Top shape: 10 64 8 8 (40960)
I0927 07:56:58.350802 20949 net.cpp:194] Memory required for data: 224092280
I0927 07:56:58.350822 20949 layer_factory.hpp:77] Creating layer conv4_14_ReLU0
I0927 07:56:58.350829 20949 net.cpp:128] Creating Layer conv4_14_ReLU0
I0927 07:56:58.350834 20949 net.cpp:558] conv4_14_ReLU0 <- conv4_14_0
I0927 07:56:58.350839 20949 net.cpp:509] conv4_14_ReLU0 -> conv4_14_0 (in-place)
I0927 07:56:58.351157 20949 net.cpp:172] Setting up conv4_14_ReLU0
I0927 07:56:58.351171 20949 net.cpp:186] Top shape: 10 64 8 8 (40960)
I0927 07:56:58.351176 20949 net.cpp:194] Memory required for data: 224256120
I0927 07:56:58.351181 20949 layer_factory.hpp:77] Creating layer conv4_14_1
I0927 07:56:58.351192 20949 net.cpp:128] Creating Layer conv4_14_1
I0927 07:56:58.351197 20949 net.cpp:558] conv4_14_1 <- conv4_14_0
I0927 07:56:58.351207 20949 net.cpp:522] conv4_14_1 -> conv4_14_1
I0927 07:56:58.353348 20949 net.cpp:172] Setting up conv4_14_1
I0927 07:56:58.353366 20949 net.cpp:186] Top shape: 10 64 8 8 (40960)
I0927 07:56:58.353386 20949 net.cpp:194] Memory required for data: 224419960
I0927 07:56:58.353397 20949 layer_factory.hpp:77] Creating layer conv4_14bn1
I0927 07:56:58.353405 20949 net.cpp:128] Creating Layer conv4_14bn1
I0927 07:56:58.353410 20949 net.cpp:558] conv4_14bn1 <- conv4_14_1
I0927 07:56:58.353420 20949 net.cpp:509] conv4_14bn1 -> conv4_14_1 (in-place)
I0927 07:56:58.353703 20949 net.cpp:172] Setting up conv4_14bn1
I0927 07:56:58.353711 20949 net.cpp:186] Top shape: 10 64 8 8 (40960)
I0927 07:56:58.353715 20949 net.cpp:194] Memory required for data: 224583800
I0927 07:56:58.353724 20949 layer_factory.hpp:77] Creating layer conv4_14_scale1
I0927 07:56:58.353732 20949 net.cpp:128] Creating Layer conv4_14_scale1
I0927 07:56:58.353737 20949 net.cpp:558] conv4_14_scale1 <- conv4_14_1
I0927 07:56:58.353744 20949 net.cpp:509] conv4_14_scale1 -> conv4_14_1 (in-place)
I0927 07:56:58.353794 20949 layer_factory.hpp:77] Creating layer conv4_14_scale1
I0927 07:56:58.353956 20949 net.cpp:172] Setting up conv4_14_scale1
I0927 07:56:58.353965 20949 net.cpp:186] Top shape: 10 64 8 8 (40960)
I0927 07:56:58.353968 20949 net.cpp:194] Memory required for data: 224747640
I0927 07:56:58.353977 20949 layer_factory.hpp:77] Creating layer conv4_Eltwise_14
I0927 07:56:58.353987 20949 net.cpp:128] Creating Layer conv4_Eltwise_14
I0927 07:56:58.353993 20949 net.cpp:558] conv4_Eltwise_14 <- conv4_Eltwise_13_conv4_13ReLU_1_0_split_1
I0927 07:56:58.353998 20949 net.cpp:558] conv4_Eltwise_14 <- conv4_14_1
I0927 07:56:58.354007 20949 net.cpp:522] conv4_Eltwise_14 -> conv4_Eltwise_14
I0927 07:56:58.354045 20949 net.cpp:172] Setting up conv4_Eltwise_14
I0927 07:56:58.354053 20949 net.cpp:186] Top shape: 10 64 8 8 (40960)
I0927 07:56:58.354058 20949 net.cpp:194] Memory required for data: 224911480
I0927 07:56:58.354061 20949 layer_factory.hpp:77] Creating layer conv4_14ReLU_1
I0927 07:56:58.354068 20949 net.cpp:128] Creating Layer conv4_14ReLU_1
I0927 07:56:58.354073 20949 net.cpp:558] conv4_14ReLU_1 <- conv4_Eltwise_14
I0927 07:56:58.354079 20949 net.cpp:509] conv4_14ReLU_1 -> conv4_Eltwise_14 (in-place)
I0927 07:56:58.354398 20949 net.cpp:172] Setting up conv4_14ReLU_1
I0927 07:56:58.354411 20949 net.cpp:186] Top shape: 10 64 8 8 (40960)
I0927 07:56:58.354415 20949 net.cpp:194] Memory required for data: 225075320
I0927 07:56:58.354420 20949 layer_factory.hpp:77] Creating layer conv4_Eltwise_14_conv4_14ReLU_1_0_split
I0927 07:56:58.354450 20949 net.cpp:128] Creating Layer conv4_Eltwise_14_conv4_14ReLU_1_0_split
I0927 07:56:58.354456 20949 net.cpp:558] conv4_Eltwise_14_conv4_14ReLU_1_0_split <- conv4_Eltwise_14
I0927 07:56:58.354463 20949 net.cpp:522] conv4_Eltwise_14_conv4_14ReLU_1_0_split -> conv4_Eltwise_14_conv4_14ReLU_1_0_split_0
I0927 07:56:58.354472 20949 net.cpp:522] conv4_Eltwise_14_conv4_14ReLU_1_0_split -> conv4_Eltwise_14_conv4_14ReLU_1_0_split_1
I0927 07:56:58.354527 20949 net.cpp:172] Setting up conv4_Eltwise_14_conv4_14ReLU_1_0_split
I0927 07:56:58.354534 20949 net.cpp:186] Top shape: 10 64 8 8 (40960)
I0927 07:56:58.354539 20949 net.cpp:186] Top shape: 10 64 8 8 (40960)
I0927 07:56:58.354543 20949 net.cpp:194] Memory required for data: 225403000
I0927 07:56:58.354548 20949 layer_factory.hpp:77] Creating layer conv4_15_0
I0927 07:56:58.354557 20949 net.cpp:128] Creating Layer conv4_15_0
I0927 07:56:58.354562 20949 net.cpp:558] conv4_15_0 <- conv4_Eltwise_14_conv4_14ReLU_1_0_split_0
I0927 07:56:58.354569 20949 net.cpp:522] conv4_15_0 -> conv4_15_0
I0927 07:56:58.356958 20949 net.cpp:172] Setting up conv4_15_0
I0927 07:56:58.356976 20949 net.cpp:186] Top shape: 10 64 8 8 (40960)
I0927 07:56:58.356981 20949 net.cpp:194] Memory required for data: 225566840
I0927 07:56:58.356992 20949 layer_factory.hpp:77] Creating layer conv4_15_bn0
I0927 07:56:58.357002 20949 net.cpp:128] Creating Layer conv4_15_bn0
I0927 07:56:58.357008 20949 net.cpp:558] conv4_15_bn0 <- conv4_15_0
I0927 07:56:58.357014 20949 net.cpp:509] conv4_15_bn0 -> conv4_15_0 (in-place)
I0927 07:56:58.357312 20949 net.cpp:172] Setting up conv4_15_bn0
I0927 07:56:58.357321 20949 net.cpp:186] Top shape: 10 64 8 8 (40960)
I0927 07:56:58.357338 20949 net.cpp:194] Memory required for data: 225730680
I0927 07:56:58.357349 20949 layer_factory.hpp:77] Creating layer conv4_15_scale0
I0927 07:56:58.357357 20949 net.cpp:128] Creating Layer conv4_15_scale0
I0927 07:56:58.357362 20949 net.cpp:558] conv4_15_scale0 <- conv4_15_0
I0927 07:56:58.357367 20949 net.cpp:509] conv4_15_scale0 -> conv4_15_0 (in-place)
I0927 07:56:58.357421 20949 layer_factory.hpp:77] Creating layer conv4_15_scale0
I0927 07:56:58.357583 20949 net.cpp:172] Setting up conv4_15_scale0
I0927 07:56:58.357591 20949 net.cpp:186] Top shape: 10 64 8 8 (40960)
I0927 07:56:58.357594 20949 net.cpp:194] Memory required for data: 225894520
I0927 07:56:58.357602 20949 layer_factory.hpp:77] Creating layer conv4_15_ReLU0
I0927 07:56:58.357609 20949 net.cpp:128] Creating Layer conv4_15_ReLU0
I0927 07:56:58.357614 20949 net.cpp:558] conv4_15_ReLU0 <- conv4_15_0
I0927 07:56:58.357620 20949 net.cpp:509] conv4_15_ReLU0 -> conv4_15_0 (in-place)
I0927 07:56:58.358197 20949 net.cpp:172] Setting up conv4_15_ReLU0
I0927 07:56:58.358214 20949 net.cpp:186] Top shape: 10 64 8 8 (40960)
I0927 07:56:58.358218 20949 net.cpp:194] Memory required for data: 226058360
I0927 07:56:58.358223 20949 layer_factory.hpp:77] Creating layer conv4_15_1
I0927 07:56:58.358237 20949 net.cpp:128] Creating Layer conv4_15_1
I0927 07:56:58.358242 20949 net.cpp:558] conv4_15_1 <- conv4_15_0
I0927 07:56:58.358252 20949 net.cpp:522] conv4_15_1 -> conv4_15_1
I0927 07:56:58.360447 20949 net.cpp:172] Setting up conv4_15_1
I0927 07:56:58.360466 20949 net.cpp:186] Top shape: 10 64 8 8 (40960)
I0927 07:56:58.360469 20949 net.cpp:194] Memory required for data: 226222200
I0927 07:56:58.360479 20949 layer_factory.hpp:77] Creating layer conv4_15bn1
I0927 07:56:58.360491 20949 net.cpp:128] Creating Layer conv4_15bn1
I0927 07:56:58.360496 20949 net.cpp:558] conv4_15bn1 <- conv4_15_1
I0927 07:56:58.360503 20949 net.cpp:509] conv4_15bn1 -> conv4_15_1 (in-place)
I0927 07:56:58.360781 20949 net.cpp:172] Setting up conv4_15bn1
I0927 07:56:58.360788 20949 net.cpp:186] Top shape: 10 64 8 8 (40960)
I0927 07:56:58.360792 20949 net.cpp:194] Memory required for data: 226386040
I0927 07:56:58.360801 20949 layer_factory.hpp:77] Creating layer conv4_15_scale1
I0927 07:56:58.360808 20949 net.cpp:128] Creating Layer conv4_15_scale1
I0927 07:56:58.360813 20949 net.cpp:558] conv4_15_scale1 <- conv4_15_1
I0927 07:56:58.360818 20949 net.cpp:509] conv4_15_scale1 -> conv4_15_1 (in-place)
I0927 07:56:58.360872 20949 layer_factory.hpp:77] Creating layer conv4_15_scale1
I0927 07:56:58.361034 20949 net.cpp:172] Setting up conv4_15_scale1
I0927 07:56:58.361043 20949 net.cpp:186] Top shape: 10 64 8 8 (40960)
I0927 07:56:58.361047 20949 net.cpp:194] Memory required for data: 226549880
I0927 07:56:58.361055 20949 layer_factory.hpp:77] Creating layer conv4_Eltwise_15
I0927 07:56:58.361063 20949 net.cpp:128] Creating Layer conv4_Eltwise_15
I0927 07:56:58.361068 20949 net.cpp:558] conv4_Eltwise_15 <- conv4_Eltwise_14_conv4_14ReLU_1_0_split_1
I0927 07:56:58.361073 20949 net.cpp:558] conv4_Eltwise_15 <- conv4_15_1
I0927 07:56:58.361080 20949 net.cpp:522] conv4_Eltwise_15 -> conv4_Eltwise_15
I0927 07:56:58.361109 20949 net.cpp:172] Setting up conv4_Eltwise_15
I0927 07:56:58.361120 20949 net.cpp:186] Top shape: 10 64 8 8 (40960)
I0927 07:56:58.361124 20949 net.cpp:194] Memory required for data: 226713720
I0927 07:56:58.361129 20949 layer_factory.hpp:77] Creating layer conv4_15ReLU_1
I0927 07:56:58.361135 20949 net.cpp:128] Creating Layer conv4_15ReLU_1
I0927 07:56:58.361140 20949 net.cpp:558] conv4_15ReLU_1 <- conv4_Eltwise_15
I0927 07:56:58.361145 20949 net.cpp:509] conv4_15ReLU_1 -> conv4_Eltwise_15 (in-place)
I0927 07:56:58.361456 20949 net.cpp:172] Setting up conv4_15ReLU_1
I0927 07:56:58.361471 20949 net.cpp:186] Top shape: 10 64 8 8 (40960)
I0927 07:56:58.361475 20949 net.cpp:194] Memory required for data: 226877560
I0927 07:56:58.361480 20949 layer_factory.hpp:77] Creating layer conv4_Eltwise_15_conv4_15ReLU_1_0_split
I0927 07:56:58.361502 20949 net.cpp:128] Creating Layer conv4_Eltwise_15_conv4_15ReLU_1_0_split
I0927 07:56:58.361508 20949 net.cpp:558] conv4_Eltwise_15_conv4_15ReLU_1_0_split <- conv4_Eltwise_15
I0927 07:56:58.361517 20949 net.cpp:522] conv4_Eltwise_15_conv4_15ReLU_1_0_split -> conv4_Eltwise_15_conv4_15ReLU_1_0_split_0
I0927 07:56:58.361526 20949 net.cpp:522] conv4_Eltwise_15_conv4_15ReLU_1_0_split -> conv4_Eltwise_15_conv4_15ReLU_1_0_split_1
I0927 07:56:58.361584 20949 net.cpp:172] Setting up conv4_Eltwise_15_conv4_15ReLU_1_0_split
I0927 07:56:58.361591 20949 net.cpp:186] Top shape: 10 64 8 8 (40960)
I0927 07:56:58.361598 20949 net.cpp:186] Top shape: 10 64 8 8 (40960)
I0927 07:56:58.361600 20949 net.cpp:194] Memory required for data: 227205240
I0927 07:56:58.361605 20949 layer_factory.hpp:77] Creating layer conv4_16_0
I0927 07:56:58.361618 20949 net.cpp:128] Creating Layer conv4_16_0
I0927 07:56:58.361624 20949 net.cpp:558] conv4_16_0 <- conv4_Eltwise_15_conv4_15ReLU_1_0_split_0
I0927 07:56:58.361630 20949 net.cpp:522] conv4_16_0 -> conv4_16_0
I0927 07:56:58.364030 20949 net.cpp:172] Setting up conv4_16_0
I0927 07:56:58.364051 20949 net.cpp:186] Top shape: 10 64 8 8 (40960)
I0927 07:56:58.364055 20949 net.cpp:194] Memory required for data: 227369080
I0927 07:56:58.364065 20949 layer_factory.hpp:77] Creating layer conv4_16_bn0
I0927 07:56:58.364073 20949 net.cpp:128] Creating Layer conv4_16_bn0
I0927 07:56:58.364078 20949 net.cpp:558] conv4_16_bn0 <- conv4_16_0
I0927 07:56:58.364087 20949 net.cpp:509] conv4_16_bn0 -> conv4_16_0 (in-place)
I0927 07:56:58.364384 20949 net.cpp:172] Setting up conv4_16_bn0
I0927 07:56:58.364392 20949 net.cpp:186] Top shape: 10 64 8 8 (40960)
I0927 07:56:58.364397 20949 net.cpp:194] Memory required for data: 227532920
I0927 07:56:58.364405 20949 layer_factory.hpp:77] Creating layer conv4_16_scale0
I0927 07:56:58.364414 20949 net.cpp:128] Creating Layer conv4_16_scale0
I0927 07:56:58.364418 20949 net.cpp:558] conv4_16_scale0 <- conv4_16_0
I0927 07:56:58.364425 20949 net.cpp:509] conv4_16_scale0 -> conv4_16_0 (in-place)
I0927 07:56:58.364478 20949 layer_factory.hpp:77] Creating layer conv4_16_scale0
I0927 07:56:58.364647 20949 net.cpp:172] Setting up conv4_16_scale0
I0927 07:56:58.364655 20949 net.cpp:186] Top shape: 10 64 8 8 (40960)
I0927 07:56:58.364658 20949 net.cpp:194] Memory required for data: 227696760
I0927 07:56:58.364666 20949 layer_factory.hpp:77] Creating layer conv4_16_ReLU0
I0927 07:56:58.364675 20949 net.cpp:128] Creating Layer conv4_16_ReLU0
I0927 07:56:58.364679 20949 net.cpp:558] conv4_16_ReLU0 <- conv4_16_0
I0927 07:56:58.364684 20949 net.cpp:509] conv4_16_ReLU0 -> conv4_16_0 (in-place)
I0927 07:56:58.365001 20949 net.cpp:172] Setting up conv4_16_ReLU0
I0927 07:56:58.365015 20949 net.cpp:186] Top shape: 10 64 8 8 (40960)
I0927 07:56:58.365018 20949 net.cpp:194] Memory required for data: 227860600
I0927 07:56:58.365022 20949 layer_factory.hpp:77] Creating layer conv4_16_1
I0927 07:56:58.365037 20949 net.cpp:128] Creating Layer conv4_16_1
I0927 07:56:58.365042 20949 net.cpp:558] conv4_16_1 <- conv4_16_0
I0927 07:56:58.365051 20949 net.cpp:522] conv4_16_1 -> conv4_16_1
I0927 07:56:58.368543 20949 net.cpp:172] Setting up conv4_16_1
I0927 07:56:58.368564 20949 net.cpp:186] Top shape: 10 64 8 8 (40960)
I0927 07:56:58.368568 20949 net.cpp:194] Memory required for data: 228024440
I0927 07:56:58.368578 20949 layer_factory.hpp:77] Creating layer conv4_16bn1
I0927 07:56:58.368587 20949 net.cpp:128] Creating Layer conv4_16bn1
I0927 07:56:58.368592 20949 net.cpp:558] conv4_16bn1 <- conv4_16_1
I0927 07:56:58.368600 20949 net.cpp:509] conv4_16bn1 -> conv4_16_1 (in-place)
I0927 07:56:58.368882 20949 net.cpp:172] Setting up conv4_16bn1
I0927 07:56:58.368891 20949 net.cpp:186] Top shape: 10 64 8 8 (40960)
I0927 07:56:58.368894 20949 net.cpp:194] Memory required for data: 228188280
I0927 07:56:58.368904 20949 layer_factory.hpp:77] Creating layer conv4_16_scale1
I0927 07:56:58.368911 20949 net.cpp:128] Creating Layer conv4_16_scale1
I0927 07:56:58.368916 20949 net.cpp:558] conv4_16_scale1 <- conv4_16_1
I0927 07:56:58.368940 20949 net.cpp:509] conv4_16_scale1 -> conv4_16_1 (in-place)
I0927 07:56:58.368993 20949 layer_factory.hpp:77] Creating layer conv4_16_scale1
I0927 07:56:58.369151 20949 net.cpp:172] Setting up conv4_16_scale1
I0927 07:56:58.369159 20949 net.cpp:186] Top shape: 10 64 8 8 (40960)
I0927 07:56:58.369163 20949 net.cpp:194] Memory required for data: 228352120
I0927 07:56:58.369170 20949 layer_factory.hpp:77] Creating layer conv4_Eltwise_16
I0927 07:56:58.369179 20949 net.cpp:128] Creating Layer conv4_Eltwise_16
I0927 07:56:58.369185 20949 net.cpp:558] conv4_Eltwise_16 <- conv4_Eltwise_15_conv4_15ReLU_1_0_split_1
I0927 07:56:58.369190 20949 net.cpp:558] conv4_Eltwise_16 <- conv4_16_1
I0927 07:56:58.369197 20949 net.cpp:522] conv4_Eltwise_16 -> conv4_Eltwise_16
I0927 07:56:58.369227 20949 net.cpp:172] Setting up conv4_Eltwise_16
I0927 07:56:58.369235 20949 net.cpp:186] Top shape: 10 64 8 8 (40960)
I0927 07:56:58.369237 20949 net.cpp:194] Memory required for data: 228515960
I0927 07:56:58.369241 20949 layer_factory.hpp:77] Creating layer conv4_16ReLU_1
I0927 07:56:58.369248 20949 net.cpp:128] Creating Layer conv4_16ReLU_1
I0927 07:56:58.369252 20949 net.cpp:558] conv4_16ReLU_1 <- conv4_Eltwise_16
I0927 07:56:58.369263 20949 net.cpp:509] conv4_16ReLU_1 -> conv4_Eltwise_16 (in-place)
I0927 07:56:58.369851 20949 net.cpp:172] Setting up conv4_16ReLU_1
I0927 07:56:58.369868 20949 net.cpp:186] Top shape: 10 64 8 8 (40960)
I0927 07:56:58.369873 20949 net.cpp:194] Memory required for data: 228679800
I0927 07:56:58.369877 20949 layer_factory.hpp:77] Creating layer conv4_Eltwise_16_conv4_16ReLU_1_0_split
I0927 07:56:58.369887 20949 net.cpp:128] Creating Layer conv4_Eltwise_16_conv4_16ReLU_1_0_split
I0927 07:56:58.369892 20949 net.cpp:558] conv4_Eltwise_16_conv4_16ReLU_1_0_split <- conv4_Eltwise_16
I0927 07:56:58.369900 20949 net.cpp:522] conv4_Eltwise_16_conv4_16ReLU_1_0_split -> conv4_Eltwise_16_conv4_16ReLU_1_0_split_0
I0927 07:56:58.369910 20949 net.cpp:522] conv4_Eltwise_16_conv4_16ReLU_1_0_split -> conv4_Eltwise_16_conv4_16ReLU_1_0_split_1
I0927 07:56:58.369969 20949 net.cpp:172] Setting up conv4_Eltwise_16_conv4_16ReLU_1_0_split
I0927 07:56:58.369976 20949 net.cpp:186] Top shape: 10 64 8 8 (40960)
I0927 07:56:58.369982 20949 net.cpp:186] Top shape: 10 64 8 8 (40960)
I0927 07:56:58.369985 20949 net.cpp:194] Memory required for data: 229007480
I0927 07:56:58.369990 20949 layer_factory.hpp:77] Creating layer conv4_17_0
I0927 07:56:58.370002 20949 net.cpp:128] Creating Layer conv4_17_0
I0927 07:56:58.370007 20949 net.cpp:558] conv4_17_0 <- conv4_Eltwise_16_conv4_16ReLU_1_0_split_0
I0927 07:56:58.370015 20949 net.cpp:522] conv4_17_0 -> conv4_17_0
I0927 07:56:58.372421 20949 net.cpp:172] Setting up conv4_17_0
I0927 07:56:58.372439 20949 net.cpp:186] Top shape: 10 64 8 8 (40960)
I0927 07:56:58.372443 20949 net.cpp:194] Memory required for data: 229171320
I0927 07:56:58.372453 20949 layer_factory.hpp:77] Creating layer conv4_17_bn0
I0927 07:56:58.372463 20949 net.cpp:128] Creating Layer conv4_17_bn0
I0927 07:56:58.372469 20949 net.cpp:558] conv4_17_bn0 <- conv4_17_0
I0927 07:56:58.372478 20949 net.cpp:509] conv4_17_bn0 -> conv4_17_0 (in-place)
I0927 07:56:58.372776 20949 net.cpp:172] Setting up conv4_17_bn0
I0927 07:56:58.372784 20949 net.cpp:186] Top shape: 10 64 8 8 (40960)
I0927 07:56:58.372788 20949 net.cpp:194] Memory required for data: 229335160
I0927 07:56:58.372797 20949 layer_factory.hpp:77] Creating layer conv4_17_scale0
I0927 07:56:58.372804 20949 net.cpp:128] Creating Layer conv4_17_scale0
I0927 07:56:58.372808 20949 net.cpp:558] conv4_17_scale0 <- conv4_17_0
I0927 07:56:58.372817 20949 net.cpp:509] conv4_17_scale0 -> conv4_17_0 (in-place)
I0927 07:56:58.372866 20949 layer_factory.hpp:77] Creating layer conv4_17_scale0
I0927 07:56:58.373031 20949 net.cpp:172] Setting up conv4_17_scale0
I0927 07:56:58.373039 20949 net.cpp:186] Top shape: 10 64 8 8 (40960)
I0927 07:56:58.373042 20949 net.cpp:194] Memory required for data: 229499000
I0927 07:56:58.373050 20949 layer_factory.hpp:77] Creating layer conv4_17_ReLU0
I0927 07:56:58.373071 20949 net.cpp:128] Creating Layer conv4_17_ReLU0
I0927 07:56:58.373077 20949 net.cpp:558] conv4_17_ReLU0 <- conv4_17_0
I0927 07:56:58.373087 20949 net.cpp:509] conv4_17_ReLU0 -> conv4_17_0 (in-place)
I0927 07:56:58.373412 20949 net.cpp:172] Setting up conv4_17_ReLU0
I0927 07:56:58.373425 20949 net.cpp:186] Top shape: 10 64 8 8 (40960)
I0927 07:56:58.373430 20949 net.cpp:194] Memory required for data: 229662840
I0927 07:56:58.373435 20949 layer_factory.hpp:77] Creating layer conv4_17_1
I0927 07:56:58.373446 20949 net.cpp:128] Creating Layer conv4_17_1
I0927 07:56:58.373452 20949 net.cpp:558] conv4_17_1 <- conv4_17_0
I0927 07:56:58.373462 20949 net.cpp:522] conv4_17_1 -> conv4_17_1
I0927 07:56:58.375663 20949 net.cpp:172] Setting up conv4_17_1
I0927 07:56:58.375680 20949 net.cpp:186] Top shape: 10 64 8 8 (40960)
I0927 07:56:58.375684 20949 net.cpp:194] Memory required for data: 229826680
I0927 07:56:58.375694 20949 layer_factory.hpp:77] Creating layer conv4_17bn1
I0927 07:56:58.375705 20949 net.cpp:128] Creating Layer conv4_17bn1
I0927 07:56:58.375710 20949 net.cpp:558] conv4_17bn1 <- conv4_17_1
I0927 07:56:58.375718 20949 net.cpp:509] conv4_17bn1 -> conv4_17_1 (in-place)
I0927 07:56:58.376004 20949 net.cpp:172] Setting up conv4_17bn1
I0927 07:56:58.376013 20949 net.cpp:186] Top shape: 10 64 8 8 (40960)
I0927 07:56:58.376015 20949 net.cpp:194] Memory required for data: 229990520
I0927 07:56:58.376025 20949 layer_factory.hpp:77] Creating layer conv4_17_scale1
I0927 07:56:58.376035 20949 net.cpp:128] Creating Layer conv4_17_scale1
I0927 07:56:58.376040 20949 net.cpp:558] conv4_17_scale1 <- conv4_17_1
I0927 07:56:58.376045 20949 net.cpp:509] conv4_17_scale1 -> conv4_17_1 (in-place)
I0927 07:56:58.376098 20949 layer_factory.hpp:77] Creating layer conv4_17_scale1
I0927 07:56:58.376262 20949 net.cpp:172] Setting up conv4_17_scale1
I0927 07:56:58.376269 20949 net.cpp:186] Top shape: 10 64 8 8 (40960)
I0927 07:56:58.376273 20949 net.cpp:194] Memory required for data: 230154360
I0927 07:56:58.376281 20949 layer_factory.hpp:77] Creating layer conv4_Eltwise_17
I0927 07:56:58.376287 20949 net.cpp:128] Creating Layer conv4_Eltwise_17
I0927 07:56:58.376292 20949 net.cpp:558] conv4_Eltwise_17 <- conv4_Eltwise_16_conv4_16ReLU_1_0_split_1
I0927 07:56:58.376298 20949 net.cpp:558] conv4_Eltwise_17 <- conv4_17_1
I0927 07:56:58.376307 20949 net.cpp:522] conv4_Eltwise_17 -> conv4_Eltwise_17
I0927 07:56:58.376336 20949 net.cpp:172] Setting up conv4_Eltwise_17
I0927 07:56:58.376343 20949 net.cpp:186] Top shape: 10 64 8 8 (40960)
I0927 07:56:58.376348 20949 net.cpp:194] Memory required for data: 230318200
I0927 07:56:58.376351 20949 layer_factory.hpp:77] Creating layer conv4_17ReLU_1
I0927 07:56:58.376358 20949 net.cpp:128] Creating Layer conv4_17ReLU_1
I0927 07:56:58.376361 20949 net.cpp:558] conv4_17ReLU_1 <- conv4_Eltwise_17
I0927 07:56:58.376366 20949 net.cpp:509] conv4_17ReLU_1 -> conv4_Eltwise_17 (in-place)
I0927 07:56:58.376684 20949 net.cpp:172] Setting up conv4_17ReLU_1
I0927 07:56:58.376700 20949 net.cpp:186] Top shape: 10 64 8 8 (40960)
I0927 07:56:58.376704 20949 net.cpp:194] Memory required for data: 230482040
I0927 07:56:58.376708 20949 layer_factory.hpp:77] Creating layer conv4_Eltwise_17_conv4_17ReLU_1_0_split
I0927 07:56:58.376716 20949 net.cpp:128] Creating Layer conv4_Eltwise_17_conv4_17ReLU_1_0_split
I0927 07:56:58.376721 20949 net.cpp:558] conv4_Eltwise_17_conv4_17ReLU_1_0_split <- conv4_Eltwise_17
I0927 07:56:58.376730 20949 net.cpp:522] conv4_Eltwise_17_conv4_17ReLU_1_0_split -> conv4_Eltwise_17_conv4_17ReLU_1_0_split_0
I0927 07:56:58.376739 20949 net.cpp:522] conv4_Eltwise_17_conv4_17ReLU_1_0_split -> conv4_Eltwise_17_conv4_17ReLU_1_0_split_1
I0927 07:56:58.376797 20949 net.cpp:172] Setting up conv4_Eltwise_17_conv4_17ReLU_1_0_split
I0927 07:56:58.376806 20949 net.cpp:186] Top shape: 10 64 8 8 (40960)
I0927 07:56:58.376811 20949 net.cpp:186] Top shape: 10 64 8 8 (40960)
I0927 07:56:58.376814 20949 net.cpp:194] Memory required for data: 230809720
I0927 07:56:58.376819 20949 layer_factory.hpp:77] Creating layer conv4_18_0
I0927 07:56:58.376847 20949 net.cpp:128] Creating Layer conv4_18_0
I0927 07:56:58.376852 20949 net.cpp:558] conv4_18_0 <- conv4_Eltwise_17_conv4_17ReLU_1_0_split_0
I0927 07:56:58.376860 20949 net.cpp:522] conv4_18_0 -> conv4_18_0
I0927 07:56:58.379263 20949 net.cpp:172] Setting up conv4_18_0
I0927 07:56:58.379282 20949 net.cpp:186] Top shape: 10 64 8 8 (40960)
I0927 07:56:58.379287 20949 net.cpp:194] Memory required for data: 230973560
I0927 07:56:58.379297 20949 layer_factory.hpp:77] Creating layer conv4_18_bn0
I0927 07:56:58.379307 20949 net.cpp:128] Creating Layer conv4_18_bn0
I0927 07:56:58.379312 20949 net.cpp:558] conv4_18_bn0 <- conv4_18_0
I0927 07:56:58.379319 20949 net.cpp:509] conv4_18_bn0 -> conv4_18_0 (in-place)
I0927 07:56:58.379621 20949 net.cpp:172] Setting up conv4_18_bn0
I0927 07:56:58.379628 20949 net.cpp:186] Top shape: 10 64 8 8 (40960)
I0927 07:56:58.379631 20949 net.cpp:194] Memory required for data: 231137400
I0927 07:56:58.379642 20949 layer_factory.hpp:77] Creating layer conv4_18_scale0
I0927 07:56:58.379648 20949 net.cpp:128] Creating Layer conv4_18_scale0
I0927 07:56:58.379652 20949 net.cpp:558] conv4_18_scale0 <- conv4_18_0
I0927 07:56:58.379657 20949 net.cpp:509] conv4_18_scale0 -> conv4_18_0 (in-place)
I0927 07:56:58.379714 20949 layer_factory.hpp:77] Creating layer conv4_18_scale0
I0927 07:56:58.379879 20949 net.cpp:172] Setting up conv4_18_scale0
I0927 07:56:58.379887 20949 net.cpp:186] Top shape: 10 64 8 8 (40960)
I0927 07:56:58.379890 20949 net.cpp:194] Memory required for data: 231301240
I0927 07:56:58.379899 20949 layer_factory.hpp:77] Creating layer conv4_18_ReLU0
I0927 07:56:58.379904 20949 net.cpp:128] Creating Layer conv4_18_ReLU0
I0927 07:56:58.379909 20949 net.cpp:558] conv4_18_ReLU0 <- conv4_18_0
I0927 07:56:58.379914 20949 net.cpp:509] conv4_18_ReLU0 -> conv4_18_0 (in-place)
I0927 07:56:58.380242 20949 net.cpp:172] Setting up conv4_18_ReLU0
I0927 07:56:58.380257 20949 net.cpp:186] Top shape: 10 64 8 8 (40960)
I0927 07:56:58.380262 20949 net.cpp:194] Memory required for data: 231465080
I0927 07:56:58.380266 20949 layer_factory.hpp:77] Creating layer conv4_18_1
I0927 07:56:58.380278 20949 net.cpp:128] Creating Layer conv4_18_1
I0927 07:56:58.380285 20949 net.cpp:558] conv4_18_1 <- conv4_18_0
I0927 07:56:58.380293 20949 net.cpp:522] conv4_18_1 -> conv4_18_1
I0927 07:56:58.382462 20949 net.cpp:172] Setting up conv4_18_1
I0927 07:56:58.382481 20949 net.cpp:186] Top shape: 10 64 8 8 (40960)
I0927 07:56:58.382485 20949 net.cpp:194] Memory required for data: 231628920
I0927 07:56:58.382495 20949 layer_factory.hpp:77] Creating layer conv4_18bn1
I0927 07:56:58.382503 20949 net.cpp:128] Creating Layer conv4_18bn1
I0927 07:56:58.382509 20949 net.cpp:558] conv4_18bn1 <- conv4_18_1
I0927 07:56:58.382517 20949 net.cpp:509] conv4_18bn1 -> conv4_18_1 (in-place)
I0927 07:56:58.382807 20949 net.cpp:172] Setting up conv4_18bn1
I0927 07:56:58.382824 20949 net.cpp:186] Top shape: 10 64 8 8 (40960)
I0927 07:56:58.382828 20949 net.cpp:194] Memory required for data: 231792760
I0927 07:56:58.382838 20949 layer_factory.hpp:77] Creating layer conv4_18_scale1
I0927 07:56:58.382844 20949 net.cpp:128] Creating Layer conv4_18_scale1
I0927 07:56:58.382849 20949 net.cpp:558] conv4_18_scale1 <- conv4_18_1
I0927 07:56:58.382858 20949 net.cpp:509] conv4_18_scale1 -> conv4_18_1 (in-place)
I0927 07:56:58.382913 20949 layer_factory.hpp:77] Creating layer conv4_18_scale1
I0927 07:56:58.383076 20949 net.cpp:172] Setting up conv4_18_scale1
I0927 07:56:58.383085 20949 net.cpp:186] Top shape: 10 64 8 8 (40960)
I0927 07:56:58.383088 20949 net.cpp:194] Memory required for data: 231956600
I0927 07:56:58.383096 20949 layer_factory.hpp:77] Creating layer conv4_Eltwise_18
I0927 07:56:58.383105 20949 net.cpp:128] Creating Layer conv4_Eltwise_18
I0927 07:56:58.383111 20949 net.cpp:558] conv4_Eltwise_18 <- conv4_Eltwise_17_conv4_17ReLU_1_0_split_1
I0927 07:56:58.383116 20949 net.cpp:558] conv4_Eltwise_18 <- conv4_18_1
I0927 07:56:58.383123 20949 net.cpp:522] conv4_Eltwise_18 -> conv4_Eltwise_18
I0927 07:56:58.383168 20949 net.cpp:172] Setting up conv4_Eltwise_18
I0927 07:56:58.383177 20949 net.cpp:186] Top shape: 10 64 8 8 (40960)
I0927 07:56:58.383179 20949 net.cpp:194] Memory required for data: 232120440
I0927 07:56:58.383183 20949 layer_factory.hpp:77] Creating layer conv4_18ReLU_1
I0927 07:56:58.383193 20949 net.cpp:128] Creating Layer conv4_18ReLU_1
I0927 07:56:58.383198 20949 net.cpp:558] conv4_18ReLU_1 <- conv4_Eltwise_18
I0927 07:56:58.383203 20949 net.cpp:509] conv4_18ReLU_1 -> conv4_Eltwise_18 (in-place)
I0927 07:56:58.383771 20949 net.cpp:172] Setting up conv4_18ReLU_1
I0927 07:56:58.383788 20949 net.cpp:186] Top shape: 10 64 8 8 (40960)
I0927 07:56:58.383792 20949 net.cpp:194] Memory required for data: 232284280
I0927 07:56:58.383797 20949 layer_factory.hpp:77] Creating layer Pooling1
I0927 07:56:58.383810 20949 net.cpp:128] Creating Layer Pooling1
I0927 07:56:58.383814 20949 net.cpp:558] Pooling1 <- conv4_Eltwise_18
I0927 07:56:58.383822 20949 net.cpp:522] Pooling1 -> Pooling1
I0927 07:56:58.384162 20949 net.cpp:172] Setting up Pooling1
I0927 07:56:58.384176 20949 net.cpp:186] Top shape: 10 64 1 1 (640)
I0927 07:56:58.384179 20949 net.cpp:194] Memory required for data: 232286840
I0927 07:56:58.384184 20949 layer_factory.hpp:77] Creating layer fc1
I0927 07:56:58.384196 20949 net.cpp:128] Creating Layer fc1
I0927 07:56:58.384200 20949 net.cpp:558] fc1 <- Pooling1
I0927 07:56:58.384210 20949 net.cpp:522] fc1 -> fc1
I0927 07:56:58.384414 20949 net.cpp:172] Setting up fc1
I0927 07:56:58.384424 20949 net.cpp:186] Top shape: 10 10 (100)
I0927 07:56:58.384428 20949 net.cpp:194] Memory required for data: 232287240
I0927 07:56:58.384438 20949 layer_factory.hpp:77] Creating layer fc1_fc1_0_split
I0927 07:56:58.384443 20949 net.cpp:128] Creating Layer fc1_fc1_0_split
I0927 07:56:58.384449 20949 net.cpp:558] fc1_fc1_0_split <- fc1
I0927 07:56:58.384454 20949 net.cpp:522] fc1_fc1_0_split -> fc1_fc1_0_split_0
I0927 07:56:58.384461 20949 net.cpp:522] fc1_fc1_0_split -> fc1_fc1_0_split_1
I0927 07:56:58.384511 20949 net.cpp:172] Setting up fc1_fc1_0_split
I0927 07:56:58.384518 20949 net.cpp:186] Top shape: 10 10 (100)
I0927 07:56:58.384523 20949 net.cpp:186] Top shape: 10 10 (100)
I0927 07:56:58.384526 20949 net.cpp:194] Memory required for data: 232288040
I0927 07:56:58.384531 20949 layer_factory.hpp:77] Creating layer Softmax1
I0927 07:56:58.384539 20949 net.cpp:128] Creating Layer Softmax1
I0927 07:56:58.384543 20949 net.cpp:558] Softmax1 <- fc1_fc1_0_split_0
I0927 07:56:58.384549 20949 net.cpp:558] Softmax1 <- label_Data1_1_split_0
I0927 07:56:58.384555 20949 net.cpp:522] Softmax1 -> Softmax1
…
