…
I0925 23:49:48.724004 21318 solver.cpp:92] Creating training net from net file: train.prototxt
I0925 23:49:48.725932 21318 net.cpp:49] Initializing net from parameters: 
name: "YOLONET"
state {
  phase: TRAIN
}
layer {
  name: "data"
  type: "BoxData"
  top: "data"
  top: "label"
  include {
    phase: TRAIN
  }
  transform_param {
    scale: 0.00390625
    mirror: false
    force_color: true
    hue: 0.15
    saturation: 0.5
    value: 0.5
    center_scaling: 0.5
  }
  data_param {
    source: "../../../data/yolo/lmdb_voc0712/train_lmdb"
    batch_size: 8
    backend: LMDB
  }
}
layer {
  name: "conv1"
  type: "Convolution"
  bottom: "data"
  top: "conv1"
  param {
    lr_mult: 1
    decay_mult: 1
  }
  convolution_param {
    num_output: 32
    bias_term: false
    pad: 1
    kernel_size: 3
    stride: 1
    weight_filler {
      type: "msra"
    }
  }
}
layer {
  name: "bn1"
  type: "BatchNorm"
  bottom: "conv1"
  top: "conv1"
  param {
    lr_mult: 0
    decay_mult: 0
  }
  param {
    lr_mult: 0
    decay_mult: 0
  }
  param {
    lr_mult: 0
    decay_mult: 0
  }
  batch_norm_param {
    use_global_stats: false
    eps: 1e-05
  }
}
layer {
  name: "scale1"
  type: "Scale"
  bottom: "conv1"
  top: "conv1"
  scale_param {
    bias_term: true
  }
}
layer {
  name: "relu1"
  type: "ReLU"
  bottom: "conv1"
  top: "conv1"
  relu_param {
    negative_slope: 0.1
  }
}
layer {
  name: "pool1"
  type: "Pooling"
  bottom: "conv1"
  top: "pool1"
  pooling_param {
    pool: MAX
    kernel_size: 2
    stride: 2
  }
}
layer {
  name: "conv2"
  type: "Convolution"
  bottom: "pool1"
  top: "conv2"
  param {
    lr_mult: 1
    decay_mult: 1
  }
  convolution_param {
    num_output: 64
    bias_term: false
    pad: 1
    kernel_size: 3
    stride: 1
    weight_filler {
      type: "msra"
    }
  }
}
layer {
  name: "bn2"
  type: "BatchNorm"
  bottom: "conv2"
  top: "conv2"
  param {
    lr_mult: 0
    decay_mult: 0
  }
  param {
    lr_mult: 0
    decay_mult: 0
  }
  param {
    lr_mult: 0
    decay_mult: 0
  }
  batch_norm_param {
    use_global_stats: false
    eps: 1e-05
  }
}
layer {
  name: "scale2"
  type: "Scale"
  bottom: "conv2"
  top: "conv2"
  scale_param {
    bias_term: true
  }
}
layer {
  name: "relu2"
  type: "ReLU"
  bottom: "conv2"
  top: "conv2"
  relu_param {
    negative_slope: 0.1
  }
}
layer {
  name: "pool2"
  type: "Pooling"
  bottom: "conv2"
  top: "pool2"
  pooling_param {
    pool: MAX
    kernel_size: 2
    stride: 2
  }
}
layer {
  name: "conv3"
  type: "Convolution"
  bottom: "pool2"
  top: "conv3"
  param {
    lr_mult: 1
    decay_mult: 1
  }
  convolution_param {
    num_output: 128
    bias_term: false
    pad: 1
    kernel_size: 3
    stride: 1
    weight_filler {
      type: "msra"
    }
  }
}
layer {
  name: "bn3"
  type: "BatchNorm"
  bottom: "conv3"
  top: "conv3"
  param {
    lr_mult: 0
    decay_mult: 0
  }
  param {
    lr_mult: 0
    decay_mult: 0
  }
  param {
    lr_mult: 0
    decay_mult: 0
  }
  batch_norm_param {
    use_global_stats: false
    eps: 1e-05
  }
}
layer {
  name: "scale3"
  type: "Scale"
  bottom: "conv3"
  top: "conv3"
  scale_param {
    bias_term: true
  }
}
layer {
  name: "relu3"
  type: "ReLU"
  bottom: "conv3"
  top: "conv3"
  relu_param {
    negative_slope: 0.1
  }
}
layer {
  name: "conv4"
  type: "Convolution"
  bottom: "conv3"
  top: "conv4"
  param {
    lr_mult: 1
    decay_mult: 1
  }
  convolution_param {
    num_output: 64
    bias_term: false
    pad: 0
    kernel_size: 1
    stride: 1
    weight_filler {
      type: "msra"
    }
  }
}
layer {
  name: "bn4"
  type: "BatchNorm"
  bottom: "conv4"
  top: "conv4"
  param {
    lr_mult: 0
    decay_mult: 0
  }
  param {
    lr_mult: 0
    decay_mult: 0
  }
  param {
    lr_mult: 0
    decay_mult: 0
  }
  batch_norm_param {
    use_global_stats: false
    eps: 1e-05
  }
}
layer {
  name: "scale4"
  type: "Scale"
  bottom: "conv4"
  top: "conv4"
  scale_param {
    bias_term: true
  }
}
layer {
  name: "relu4"
  type: "ReLU"
  bottom: "conv4"
  top: "conv4"
  relu_param {
    negative_slope: 0.1
  }
}
layer {
  name: "conv5"
  type: "Convolution"
  bottom: "conv4"
  top: "conv5"
  param {
    lr_mult: 1
    decay_mult: 1
  }
  convolution_param {
    num_output: 128
    bias_term: false
    pad: 1
    kernel_size: 3
    stride: 1
    weight_filler {
      type: "msra"
    }
  }
}
layer {
  name: "bn5"
  type: "BatchNorm"
  bottom: "conv5"
  top: "conv5"
  param {
    lr_mult: 0
    decay_mult: 0
  }
  param {
    lr_mult: 0
    decay_mult: 0
  }
  param {
    lr_mult: 0
    decay_mult: 0
  }
  batch_norm_param {
    use_global_stats: false
    eps: 1e-05
  }
}
layer {
  name: "scale5"
  type: "Scale"
  bottom: "conv5"
  top: "conv5"
  scale_param {
    bias_term: true
  }
}
layer {
  name: "relu5"
  type: "ReLU"
  bottom: "conv5"
  top: "conv5"
  relu_param {
    negative_slope: 0.1
  }
}
layer {
  name: "pool5"
  type: "Pooling"
  bottom: "conv5"
  top: "pool5"
  pooling_param {
    pool: MAX
    kernel_size: 2
    stride: 2
  }
}
layer {
  name: "conv6"
  type: "Convolution"
  bottom: "pool5"
  top: "conv6"
  param {
    lr_mult: 1
    decay_mult: 1
  }
  convolution_param {
    num_output: 256
    bias_term: false
    pad: 1
    kernel_size: 3
    stride: 1
    weight_filler {
      type: "msra"
    }
  }
}
layer {
  name: "bn6"
  type: "BatchNorm"
  bottom: "conv6"
  top: "conv6"
  param {
    lr_mult: 0
    decay_mult: 0
  }
  param {
    lr_mult: 0
    decay_mult: 0
  }
  param {
    lr_mult: 0
    decay_mult: 0
  }
  batch_norm_param {
    use_global_stats: false
    eps: 1e-05
  }
}
layer {
  name: "scale6"
  type: "Scale"
  bottom: "conv6"
  top: "conv6"
  scale_param {
    bias_term: true
  }
}
layer {
  name: "relu6"
  type: "ReLU"
  bottom: "conv6"
  top: "conv6"
  relu_param {
    negative_slope: 0.1
  }
}
layer {
  name: "conv7"
  type: "Convolution"
  bottom: "conv6"
  top: "conv7"
  param {
    lr_mult: 1
    decay_mult: 1
  }
  convolution_param {
    num_output: 128
    bias_term: false
    pad: 0
    kernel_size: 1
    stride: 1
    weight_filler {
      type: "msra"
    }
  }
}
layer {
  name: "bn7"
  type: "BatchNorm"
  bottom: "conv7"
  top: "conv7"
  param {
    lr_mult: 0
    decay_mult: 0
  }
  param {
    lr_mult: 0
    decay_mult: 0
  }
  param {
    lr_mult: 0
    decay_mult: 0
  }
  batch_norm_param {
    use_global_stats: false
    eps: 1e-05
  }
}
layer {
  name: "scale7"
  type: "Scale"
  bottom: "conv7"
  top: "conv7"
  scale_param {
    bias_term: true
  }
}
layer {
  name: "relu7"
  type: "ReLU"
  bottom: "conv7"
  top: "conv7"
  relu_param {
    negative_slope: 0.1
  }
}
layer {
  name: "conv8"
  type: "Convolution"
  bottom: "conv7"
  top: "conv8"
  param {
    lr_mult: 1
    decay_mult: 1
  }
  convolution_param {
    num_output: 256
    bias_term: false
    pad: 1
    kernel_size: 3
    stride: 1
    weight_filler {
      type: "msra"
    }
  }
}
layer {
  name: "bn8"
  type: "BatchNorm"
  bottom: "conv8"
  top: "conv8"
  param {
    lr_mult: 0
    decay_mult: 0
  }
  param {
    lr_mult: 0
    decay_mult: 0
  }
  param {
    lr_mult: 0
    decay_mult: 0
  }
  batch_norm_param {
    use_global_stats: false
    eps: 1e-05
  }
}
layer {
  name: "scale8"
  type: "Scale"
  bottom: "conv8"
  top: "conv8"
  scale_param {
    bias_term: true
  }
}
layer {
  name: "relu8"
  type: "ReLU"
  bottom: "conv8"
  top: "conv8"
  relu_param {
    negative_slope: 0.1
  }
}
layer {
  name: "pool8"
  type: "Pooling"
  bottom: "conv8"
  top: "pool8"
  pooling_param {
    pool: MAX
    kernel_size: 2
    stride: 2
  }
}
layer {
  name: "conv9"
  type: "Convolution"
  bottom: "pool8"
  top: "conv9"
  param {
    lr_mult: 1
    decay_mult: 1
  }
  convolution_param {
    num_output: 512
    bias_term: false
    pad: 1
    kernel_size: 3
    stride: 1
    weight_filler {
      type: "msra"
    }
  }
}
layer {
  name: "bn9"
  type: "BatchNorm"
  bottom: "conv9"
  top: "conv9"
  param {
    lr_mult: 0
    decay_mult: 0
  }
  param {
    lr_mult: 0
    decay_mult: 0
  }
  param {
    lr_mult: 0
    decay_mult: 0
  }
  batch_norm_param {
    use_global_stats: false
    eps: 1e-05
  }
}
layer {
  name: "scale9"
  type: "Scale"
  bottom: "conv9"
  top: "conv9"
  scale_param {
    bias_term: true
  }
}
layer {
  name: "relu9"
  type: "ReLU"
  bottom: "conv9"
  top: "conv9"
  relu_param {
    negative_slope: 0.1
  }
}
layer {
  name: "conv10"
  type: "Convolution"
  bottom: "conv9"
  top: "conv10"
  param {
    lr_mult: 1
    decay_mult: 1
  }
  convolution_param {
    num_output: 256
    bias_term: false
    pad: 0
    kernel_size: 1
    stride: 1
    weight_filler {
      type: "msra"
    }
  }
}
layer {
  name: "bn10"
  type: "BatchNorm"
  bottom: "conv10"
  top: "conv10"
  param {
    lr_mult: 0
    decay_mult: 0
  }
  param {
    lr_mult: 0
    decay_mult: 0
  }
  param {
    lr_mult: 0
    decay_mult: 0
  }
  batch_norm_param {
    use_global_stats: false
    eps: 1e-05
  }
}
layer {
  name: "scale10"
  type: "Scale"
  bottom: "conv10"
  top: "conv10"
  scale_param {
    bias_term: true
  }
}
layer {
  name: "relu10"
  type: "ReLU"
  bottom: "conv10"
  top: "conv10"
  relu_param {
    negative_slope: 0.1
  }
}
layer {
  name: "conv11"
  type: "Convolution"
  bottom: "conv10"
  top: "conv11"
  param {
    lr_mult: 1
    decay_mult: 1
  }
  convolution_param {
    num_output: 512
    bias_term: false
    pad: 1
    kernel_size: 3
    stride: 1
    weight_filler {
      type: "msra"
    }
  }
}
layer {
  name: "bn11"
  type: "BatchNorm"
  bottom: "conv11"
  top: "conv11"
  param {
    lr_mult: 0
    decay_mult: 0
  }
  param {
    lr_mult: 0
    decay_mult: 0
  }
  param {
    lr_mult: 0
    decay_mult: 0
  }
  batch_norm_param {
    use_global_stats: false
    eps: 1e-05
  }
}
layer {
  name: "scale11"
  type: "Scale"
  bottom: "conv11"
  top: "conv11"
  scale_param {
    bias_term: true
  }
}
layer {
  name: "relu11"
  type: "ReLU"
  bottom: "conv11"
  top: "conv11"
  relu_param {
    negative_slope: 0.1
  }
}
layer {
  name: "conv12"
  type: "Convolution"
  bottom: "conv11"
  top: "conv12"
  param {
    lr_mult: 1
    decay_mult: 1
  }
  convolution_param {
    num_output: 256
    bias_term: false
    pad: 0
    kernel_size: 1
    stride: 1
    weight_filler {
      type: "msra"
    }
  }
}
layer {
  name: "bn12"
  type: "BatchNorm"
  bottom: "conv12"
  top: "conv12"
  param {
    lr_mult: 0
    decay_mult: 0
  }
  param {
    lr_mult: 0
    decay_mult: 0
  }
  param {
    lr_mult: 0
    decay_mult: 0
  }
  batch_norm_param {
    use_global_stats: false
    eps: 1e-05
  }
}
layer {
  name: "scale12"
  type: "Scale"
  bottom: "conv12"
  top: "conv12"
  scale_param {
    bias_term: true
  }
}
layer {
  name: "relu12"
  type: "ReLU"
  bottom: "conv12"
  top: "conv12"
  relu_param {
    negative_slope: 0.1
  }
}
layer {
  name: "conv13"
  type: "Convolution"
  bottom: "conv12"
  top: "conv13"
  param {
    lr_mult: 1
    decay_mult: 1
  }
  convolution_param {
    num_output: 512
    bias_term: false
    pad: 1
    kernel_size: 3
    stride: 1
    weight_filler {
      type: "msra"
    }
  }
}
layer {
  name: "bn13"
  type: "BatchNorm"
  bottom: "conv13"
  top: "conv13"
  param {
    lr_mult: 0
    decay_mult: 0
  }
  param {
    lr_mult: 0
    decay_mult: 0
  }
  param {
    lr_mult: 0
    decay_mult: 0
  }
  batch_norm_param {
    use_global_stats: false
    eps: 1e-05
  }
}
layer {
  name: "scale13"
  type: "Scale"
  bottom: "conv13"
  top: "conv13"
  scale_param {
    bias_term: true
  }
}
layer {
  name: "relu13"
  type: "ReLU"
  bottom: "conv13"
  top: "conv13"
  relu_param {
    negative_slope: 0.1
  }
}
layer {
  name: "pool13"
  type: "Pooling"
  bottom: "conv13"
  top: "pool13"
  pooling_param {
    pool: MAX
    kernel_size: 2
    stride: 2
  }
}
layer {
  name: "conv14"
  type: "Convolution"
  bottom: "pool13"
  top: "conv14"
  param {
    lr_mult: 1
    decay_mult: 1
  }
  convolution_param {
    num_output: 1024
    bias_term: false
    pad: 1
    kernel_size: 3
    stride: 1
    weight_filler {
      type: "msra"
    }
  }
}
layer {
  name: "bn14"
  type: "BatchNorm"
  bottom: "conv14"
  top: "conv14"
  param {
    lr_mult: 0
    decay_mult: 0
  }
  param {
    lr_mult: 0
    decay_mult: 0
  }
  param {
    lr_mult: 0
    decay_mult: 0
  }
  batch_norm_param {
    use_global_stats: false
    eps: 1e-05
  }
}
layer {
  name: "scale14"
  type: "Scale"
  bottom: "conv14"
  top: "conv14"
  scale_param {
    bias_term: true
  }
}
layer {
  name: "relu14"
  type: "ReLU"
  bottom: "conv14"
  top: "conv14"
  relu_param {
    negative_slope: 0.1
  }
}
layer {
  name: "conv15"
  type: "Convolution"
  bottom: "conv14"
  top: "conv15"
  param {
    lr_mult: 1
    decay_mult: 1
  }
  convolution_param {
    num_output: 512
    bias_term: false
    pad: 0
    kernel_size: 1
    stride: 1
    weight_filler {
      type: "msra"
    }
  }
}
layer {
  name: "bn15"
  type: "BatchNorm"
  bottom: "conv15"
  top: "conv15"
  param {
    lr_mult: 0
    decay_mult: 0
  }
  param {
    lr_mult: 0
    decay_mult: 0
  }
  param {
    lr_mult: 0
    decay_mult: 0
  }
  batch_norm_param {
    use_global_stats: false
    eps: 1e-05
  }
}
layer {
  name: "scale15"
  type: "Scale"
  bottom: "conv15"
  top: "conv15"
  scale_param {
    bias_term: true
  }
}
layer {
  name: "relu15"
  type: "ReLU"
  bottom: "conv15"
  top: "conv15"
  relu_param {
    negative_slope: 0.1
  }
}
layer {
  name: "conv16"
  type: "Convolution"
  bottom: "conv15"
  top: "conv16"
  param {
    lr_mult: 1
    decay_mult: 1
  }
  convolution_param {
    num_output: 1024
    bias_term: false
    pad: 1
    kernel_size: 3
    stride: 1
    weight_filler {
      type: "msra"
    }
  }
}
layer {
  name: "bn16"
  type: "BatchNorm"
  bottom: "conv16"
  top: "conv16"
  param {
    lr_mult: 0
    decay_mult: 0
  }
  param {
    lr_mult: 0
    decay_mult: 0
  }
  param {
    lr_mult: 0
    decay_mult: 0
  }
  batch_norm_param {
    use_global_stats: false
    eps: 1e-05
  }
}
layer {
  name: "scale16"
  type: "Scale"
  bottom: "conv16"
  top: "conv16"
  scale_param {
    bias_term: true
  }
}
layer {
  name: "relu16"
  type: "ReLU"
  bottom: "conv16"
  top: "conv16"
  relu_param {
    negative_slope: 0.1
  }
}
layer {
  name: "conv17"
  type: "Convolution"
  bottom: "conv16"
  top: "conv17"
  param {
    lr_mult: 1
    decay_mult: 1
  }
  convolution_param {
    num_output: 512
    bias_term: false
    pad: 0
    kernel_size: 1
    stride: 1
    weight_filler {
      type: "msra"
    }
  }
}
layer {
  name: "bn17"
  type: "BatchNorm"
  bottom: "conv17"
  top: "conv17"
  param {
    lr_mult: 0
    decay_mult: 0
  }
  param {
    lr_mult: 0
    decay_mult: 0
  }
  param {
    lr_mult: 0
    decay_mult: 0
  }
  batch_norm_param {
    use_global_stats: false
    eps: 1e-05
  }
}
layer {
  name: "scale17"
  type: "Scale"
  bottom: "conv17"
  top: "conv17"
  scale_param {
    bias_term: true
  }
}
layer {
  name: "relu17"
  type: "ReLU"
  bottom: "conv17"
  top: "conv17"
  relu_param {
    negative_slope: 0.1
  }
}
layer {
  name: "conv18"
  type: "Convolution"
  bottom: "conv17"
  top: "conv18"
  param {
    lr_mult: 1
    decay_mult: 1
  }
  convolution_param {
    num_output: 1024
    bias_term: false
    pad: 1
    kernel_size: 3
    stride: 1
    weight_filler {
      type: "msra"
    }
  }
}
layer {
  name: "bn18"
  type: "BatchNorm"
  bottom: "conv18"
  top: "conv18"
  param {
    lr_mult: 0
    decay_mult: 0
  }
  param {
    lr_mult: 0
    decay_mult: 0
  }
  param {
    lr_mult: 0
    decay_mult: 0
  }
  batch_norm_param {
    use_global_stats: false
    eps: 1e-05
  }
}
layer {
  name: "scale18"
  type: "Scale"
  bottom: "conv18"
  top: "conv18"
  scale_param {
    bias_term: true
  }
}
layer {
  name: "relu18"
  type: "ReLU"
  bottom: "conv18"
  top: "conv18"
  relu_param {
    negative_slope: 0.1
  }
}
layer {
  name: "conv19"
  type: "Convolution"
  bottom: "conv18"
  top: "conv19"
  param {
    lr_mult: 1
    decay_mult: 1
  }
  convolution_param {
    num_output: 1024
    bias_term: false
    pad: 1
    kernel_size: 3
    stride: 1
    weight_filler {
      type: "msra"
    }
  }
}
layer {
  name: "bn19"
  type: "BatchNorm"
  bottom: "conv19"
  top: "conv19"
  param {
    lr_mult: 0
    decay_mult: 0
  }
  param {
    lr_mult: 0
    decay_mult: 0
  }
  param {
    lr_mult: 0
    decay_mult: 0
  }
  batch_norm_param {
    use_global_stats: false
    eps: 1e-05
  }
}
layer {
  name: "scale19"
  type: "Scale"
  bottom: "conv19"
  top: "conv19"
  scale_param {
    bias_term: true
  }
}
layer {
  name: "relu19"
  type: "ReLU"
  bottom: "conv19"
  top: "conv19"
  relu_param {
    negative_slope: 0.1
  }
}
layer {
  name: "conv20"
  type: "Convolution"
  bottom: "conv19"
  top: "conv20"
  param {
    lr_mult: 1
    decay_mult: 1
  }
  convolution_param {
    num_output: 1024
    bias_term: false
    pad: 1
    kernel_size: 3
    stride: 1
    weight_filler {
      type: "msra"
    }
  }
}
layer {
  name: "bn20"
  type: "BatchNorm"
  bottom: "conv20"
  top: "conv20"
  param {
    lr_mult: 0
    decay_mult: 0
  }
  param {
    lr_mult: 0
    decay_mult: 0
  }
  param {
    lr_mult: 0
    decay_mult: 0
  }
  batch_norm_param {
    use_global_stats: false
    eps: 1e-05
  }
}
layer {
  name: "scale20"
  type: "Scale"
  bottom: "conv20"
  top: "conv20"
  scale_param {
    bias_term: true
  }
}
layer {
  name: "relu20"
  type: "ReLU"
  bottom: "conv20"
  top: "conv20"
  relu_param {
    negative_slope: 0.1
  }
}
layer {
  name: "conv24"
  type: "Convolution"
  bottom: "conv13"
  top: "conv24"
  param {
    lr_mult: 1
    decay_mult: 1
  }
  convolution_param {
    num_output: 64
    bias_term: false
    pad: 0
    kernel_size: 1
    stride: 1
    weight_filler {
      type: "msra"
    }
  }
}
layer {
  name: "bn24"
  type: "BatchNorm"
  bottom: "conv24"
  top: "conv24"
  param {
    lr_mult: 0
    decay_mult: 0
  }
  param {
    lr_mult: 0
    decay_mult: 0
  }
  param {
    lr_mult: 0
    decay_mult: 0
  }
  batch_norm_param {
    use_global_stats: false
    eps: 1e-05
  }
}
layer {
  name: "scale24"
  type: "Scale"
  bottom: "conv24"
  top: "conv24"
  scale_param {
    bias_term: true
  }
}
layer {
  name: "relu24"
  type: "ReLU"
  bottom: "conv24"
  top: "conv24"
  relu_param {
    negative_slope: 0.1
  }
}
layer {
  name: "reorg1"
  type: "Reorg"
  bottom: "conv24"
  top: "reorg1"
  reorg_param {
    stride: 2
  }
}
layer {
  name: "concat2"
  type: "Concat"
  bottom: "reorg1"
  bottom: "conv20"
  top: "concat2"
}
layer {
  name: "conv21"
  type: "Convolution"
  bottom: "concat2"
  top: "conv21"
  param {
    lr_mult: 1
    decay_mult: 1
  }
  convolution_param {
    num_output: 1024
    bias_term: false
    pad: 1
    kernel_size: 3
    stride: 1
    weight_filler {
      type: "msra"
    }
  }
}
layer {
  name: "bn21"
  type: "BatchNorm"
  bottom: "conv21"
  top: "conv21"
  param {
    lr_mult: 0
    decay_mult: 0
  }
  param {
    lr_mult: 0
    decay_mult: 0
  }
  param {
    lr_mult: 0
    decay_mult: 0
  }
  batch_norm_param {
    use_global_stats: false
    eps: 1e-05
  }
}
layer {
  name: "scale21"
  type: "Scale"
  bottom: "conv21"
  top: "conv21"
  scale_param {
    bias_term: true
  }
}
layer {
  name: "relu21"
  type: "ReLU"
  bottom: "conv21"
  top: "conv21"
  relu_param {
    negative_slope: 0.1
  }
}
layer {
  name: "conv22"
  type: "Convolution"
  bottom: "conv21"
  top: "conv22"
  param {
    lr_mult: 1
    decay_mult: 1
  }
  convolution_param {
    num_output: 125
    bias_term: false
    pad: 0
    kernel_size: 1
    stride: 1
    weight_filler {
      type: "msra"
    }
  }
}
layer {
  name: "region1"
  type: "RegionLoss"
  bottom: "conv22"
  bottom: "label"
  top: "region1"
  region_loss_param {
    side: 13
    num_class: 20
    coords: 4
    num: 5
    softmax: 1
    jitter: 0.2
    rescore: 1
    object_scale: 5
    class_scale: 1
    noobject_scale: 1
    coord_scale: 1
    absolute: 1
    thresh: 0.5
    random: 0
    biases: 1.3221
    biases: 1.73145
    biases: 3.19275
    biases: 4.00944
    biases: 5.05587
    biases: 8.09892
    biases: 9.47112
    biases: 4.84053
    biases: 11.2364
    biases: 10.0071
  }
}
I0925 23:49:48.727947 21318 layer_factory.hpp:77] Creating layer data
I0925 23:49:48.728497 21318 net.cpp:91] Creating Layer data
I0925 23:49:48.728543 21318 net.cpp:443] data -> data
I0925 23:49:48.728634 21318 net.cpp:443] data -> label
I0925 23:49:48.729388 21323 db_lmdb.cpp:35] Opened lmdb ../../../data/yolo/lmdb_voc0712/train_lmdb
I0925 23:49:48.783323 21318 box_data_layer.cpp:43] output data size: 8,3,416,416
I0925 23:49:48.802971 21318 net.cpp:141] Setting up data
I0925 23:49:48.803167 21318 net.cpp:148] Top shape: 8 3 416 416 (4153344)
I0925 23:49:48.803191 21318 net.cpp:148] Top shape: 8 150 (1200)
I0925 23:49:48.803206 21318 net.cpp:156] Memory required for data: 16618176
I0925 23:49:48.803236 21318 layer_factory.hpp:77] Creating layer conv1
I0925 23:49:48.803280 21318 net.cpp:91] Creating Layer conv1
I0925 23:49:48.803304 21318 net.cpp:469] conv1 <- data
I0925 23:49:48.803337 21318 net.cpp:443] conv1 -> conv1
I0925 23:49:49.824259 21318 net.cpp:141] Setting up conv1
I0925 23:49:49.824314 21318 net.cpp:148] Top shape: 8 32 416 416 (44302336)
I0925 23:49:49.824319 21318 net.cpp:156] Memory required for data: 193827520
I0925 23:49:49.824350 21318 layer_factory.hpp:77] Creating layer bn1
I0925 23:49:49.824374 21318 net.cpp:91] Creating Layer bn1
I0925 23:49:49.824386 21318 net.cpp:469] bn1 <- conv1
I0925 23:49:49.824395 21318 net.cpp:430] bn1 -> conv1 (in-place)
I0925 23:49:49.826242 21318 net.cpp:141] Setting up bn1
I0925 23:49:49.826272 21318 net.cpp:148] Top shape: 8 32 416 416 (44302336)
I0925 23:49:49.826275 21318 net.cpp:156] Memory required for data: 371036864
I0925 23:49:49.826297 21318 layer_factory.hpp:77] Creating layer scale1
I0925 23:49:49.826308 21318 net.cpp:91] Creating Layer scale1
I0925 23:49:49.826321 21318 net.cpp:469] scale1 <- conv1
I0925 23:49:49.826329 21318 net.cpp:430] scale1 -> conv1 (in-place)
I0925 23:49:49.826383 21318 layer_factory.hpp:77] Creating layer scale1
I0925 23:49:49.826952 21318 net.cpp:141] Setting up scale1
I0925 23:49:49.826974 21318 net.cpp:148] Top shape: 8 32 416 416 (44302336)
I0925 23:49:49.826979 21318 net.cpp:156] Memory required for data: 548246208
I0925 23:49:49.826997 21318 layer_factory.hpp:77] Creating layer relu1
I0925 23:49:49.827010 21318 net.cpp:91] Creating Layer relu1
I0925 23:49:49.827018 21318 net.cpp:469] relu1 <- conv1
I0925 23:49:49.827024 21318 net.cpp:430] relu1 -> conv1 (in-place)
I0925 23:49:49.827266 21318 net.cpp:141] Setting up relu1
I0925 23:49:49.827281 21318 net.cpp:148] Top shape: 8 32 416 416 (44302336)
I0925 23:49:49.827286 21318 net.cpp:156] Memory required for data: 725455552
I0925 23:49:49.827291 21318 layer_factory.hpp:77] Creating layer pool1
I0925 23:49:49.827298 21318 net.cpp:91] Creating Layer pool1
I0925 23:49:49.827303 21318 net.cpp:469] pool1 <- conv1
I0925 23:49:49.827309 21318 net.cpp:443] pool1 -> pool1
I0925 23:49:49.827370 21318 net.cpp:141] Setting up pool1
I0925 23:49:49.827381 21318 net.cpp:148] Top shape: 8 32 208 208 (11075584)
I0925 23:49:49.827385 21318 net.cpp:156] Memory required for data: 769757888
I0925 23:49:49.827394 21318 layer_factory.hpp:77] Creating layer conv2
I0925 23:49:49.827406 21318 net.cpp:91] Creating Layer conv2
I0925 23:49:49.827414 21318 net.cpp:469] conv2 <- pool1
I0925 23:49:49.827419 21318 net.cpp:443] conv2 -> conv2
I0925 23:49:49.833031 21318 net.cpp:141] Setting up conv2
I0925 23:49:49.833061 21318 net.cpp:148] Top shape: 8 64 208 208 (22151168)
I0925 23:49:49.833066 21318 net.cpp:156] Memory required for data: 858362560
I0925 23:49:49.833081 21318 layer_factory.hpp:77] Creating layer bn2
I0925 23:49:49.833091 21318 net.cpp:91] Creating Layer bn2
I0925 23:49:49.833098 21318 net.cpp:469] bn2 <- conv2
I0925 23:49:49.833106 21318 net.cpp:430] bn2 -> conv2 (in-place)
I0925 23:49:49.833361 21318 net.cpp:141] Setting up bn2
I0925 23:49:49.833405 21318 net.cpp:148] Top shape: 8 64 208 208 (22151168)
I0925 23:49:49.833410 21318 net.cpp:156] Memory required for data: 946967232
I0925 23:49:49.833425 21318 layer_factory.hpp:77] Creating layer scale2
I0925 23:49:49.833436 21318 net.cpp:91] Creating Layer scale2
I0925 23:49:49.833472 21318 net.cpp:469] scale2 <- conv2
I0925 23:49:49.833483 21318 net.cpp:430] scale2 -> conv2 (in-place)
I0925 23:49:49.833541 21318 layer_factory.hpp:77] Creating layer scale2
I0925 23:49:49.833778 21318 net.cpp:141] Setting up scale2
I0925 23:49:49.833797 21318 net.cpp:148] Top shape: 8 64 208 208 (22151168)
I0925 23:49:49.833802 21318 net.cpp:156] Memory required for data: 1035571904
I0925 23:49:49.833813 21318 layer_factory.hpp:77] Creating layer relu2
I0925 23:49:49.833851 21318 net.cpp:91] Creating Layer relu2
I0925 23:49:49.833860 21318 net.cpp:469] relu2 <- conv2
I0925 23:49:49.833868 21318 net.cpp:430] relu2 -> conv2 (in-place)
I0925 23:49:49.835209 21318 net.cpp:141] Setting up relu2
I0925 23:49:49.835229 21318 net.cpp:148] Top shape: 8 64 208 208 (22151168)
I0925 23:49:49.835237 21318 net.cpp:156] Memory required for data: 1124176576
I0925 23:49:49.835242 21318 layer_factory.hpp:77] Creating layer pool2
I0925 23:49:49.835253 21318 net.cpp:91] Creating Layer pool2
I0925 23:49:49.835265 21318 net.cpp:469] pool2 <- conv2
I0925 23:49:49.835273 21318 net.cpp:443] pool2 -> pool2
I0925 23:49:49.835317 21318 net.cpp:141] Setting up pool2
I0925 23:49:49.835325 21318 net.cpp:148] Top shape: 8 64 104 104 (5537792)
I0925 23:49:49.835328 21318 net.cpp:156] Memory required for data: 1146327744
I0925 23:49:49.835332 21318 layer_factory.hpp:77] Creating layer conv3
I0925 23:49:49.835342 21318 net.cpp:91] Creating Layer conv3
I0925 23:49:49.835346 21318 net.cpp:469] conv3 <- pool2
I0925 23:49:49.835353 21318 net.cpp:443] conv3 -> conv3
I0925 23:49:49.839213 21318 net.cpp:141] Setting up conv3
I0925 23:49:49.839253 21318 net.cpp:148] Top shape: 8 128 104 104 (11075584)
I0925 23:49:49.839258 21318 net.cpp:156] Memory required for data: 1190630080
I0925 23:49:49.839272 21318 layer_factory.hpp:77] Creating layer bn3
I0925 23:49:49.839287 21318 net.cpp:91] Creating Layer bn3
I0925 23:49:49.839293 21318 net.cpp:469] bn3 <- conv3
I0925 23:49:49.839301 21318 net.cpp:430] bn3 -> conv3 (in-place)
I0925 23:49:49.841152 21318 net.cpp:141] Setting up bn3
I0925 23:49:49.841214 21318 net.cpp:148] Top shape: 8 128 104 104 (11075584)
I0925 23:49:49.841234 21318 net.cpp:156] Memory required for data: 1234932416
I0925 23:49:49.841264 21318 layer_factory.hpp:77] Creating layer scale3
I0925 23:49:49.841286 21318 net.cpp:91] Creating Layer scale3
I0925 23:49:49.841295 21318 net.cpp:469] scale3 <- conv3
I0925 23:49:49.841305 21318 net.cpp:430] scale3 -> conv3 (in-place)
I0925 23:49:49.841367 21318 layer_factory.hpp:77] Creating layer scale3
I0925 23:49:49.841518 21318 net.cpp:141] Setting up scale3
I0925 23:49:49.841552 21318 net.cpp:148] Top shape: 8 128 104 104 (11075584)
I0925 23:49:49.841567 21318 net.cpp:156] Memory required for data: 1279234752
I0925 23:49:49.841593 21318 layer_factory.hpp:77] Creating layer relu3
I0925 23:49:49.841614 21318 net.cpp:91] Creating Layer relu3
I0925 23:49:49.841629 21318 net.cpp:469] relu3 <- conv3
I0925 23:49:49.841653 21318 net.cpp:430] relu3 -> conv3 (in-place)
I0925 23:49:49.842201 21318 net.cpp:141] Setting up relu3
I0925 23:49:49.842224 21318 net.cpp:148] Top shape: 8 128 104 104 (11075584)
I0925 23:49:49.842229 21318 net.cpp:156] Memory required for data: 1323537088
I0925 23:49:49.842236 21318 layer_factory.hpp:77] Creating layer conv4
I0925 23:49:49.842249 21318 net.cpp:91] Creating Layer conv4
I0925 23:49:49.842283 21318 net.cpp:469] conv4 <- conv3
I0925 23:49:49.842295 21318 net.cpp:443] conv4 -> conv4
I0925 23:49:49.843794 21318 net.cpp:141] Setting up conv4
I0925 23:49:49.843854 21318 net.cpp:148] Top shape: 8 64 104 104 (5537792)
I0925 23:49:49.843873 21318 net.cpp:156] Memory required for data: 1345688256
I0925 23:49:49.843905 21318 layer_factory.hpp:77] Creating layer bn4
I0925 23:49:49.843941 21318 net.cpp:91] Creating Layer bn4
I0925 23:49:49.843960 21318 net.cpp:469] bn4 <- conv4
I0925 23:49:49.843977 21318 net.cpp:430] bn4 -> conv4 (in-place)
I0925 23:49:49.844233 21318 net.cpp:141] Setting up bn4
I0925 23:49:49.844259 21318 net.cpp:148] Top shape: 8 64 104 104 (5537792)
I0925 23:49:49.844275 21318 net.cpp:156] Memory required for data: 1367839424
I0925 23:49:49.844296 21318 layer_factory.hpp:77] Creating layer scale4
I0925 23:49:49.844314 21318 net.cpp:91] Creating Layer scale4
I0925 23:49:49.844331 21318 net.cpp:469] scale4 <- conv4
I0925 23:49:49.844347 21318 net.cpp:430] scale4 -> conv4 (in-place)
I0925 23:49:49.844405 21318 layer_factory.hpp:77] Creating layer scale4
I0925 23:49:49.844575 21318 net.cpp:141] Setting up scale4
I0925 23:49:49.844601 21318 net.cpp:148] Top shape: 8 64 104 104 (5537792)
I0925 23:49:49.844617 21318 net.cpp:156] Memory required for data: 1389990592
I0925 23:49:49.844636 21318 layer_factory.hpp:77] Creating layer relu4
I0925 23:49:49.844655 21318 net.cpp:91] Creating Layer relu4
I0925 23:49:49.844671 21318 net.cpp:469] relu4 <- conv4
I0925 23:49:49.844687 21318 net.cpp:430] relu4 -> conv4 (in-place)
I0925 23:49:49.844925 21318 net.cpp:141] Setting up relu4
I0925 23:49:49.844954 21318 net.cpp:148] Top shape: 8 64 104 104 (5537792)
I0925 23:49:49.845017 21318 net.cpp:156] Memory required for data: 1412141760
I0925 23:49:49.845057 21318 layer_factory.hpp:77] Creating layer conv5
I0925 23:49:49.845079 21318 net.cpp:91] Creating Layer conv5
I0925 23:49:49.845098 21318 net.cpp:469] conv5 <- conv4
I0925 23:49:49.845115 21318 net.cpp:443] conv5 -> conv5
I0925 23:49:49.847678 21318 net.cpp:141] Setting up conv5
I0925 23:49:49.847728 21318 net.cpp:148] Top shape: 8 128 104 104 (11075584)
I0925 23:49:49.847745 21318 net.cpp:156] Memory required for data: 1456444096
I0925 23:49:49.847769 21318 layer_factory.hpp:77] Creating layer bn5
I0925 23:49:49.847789 21318 net.cpp:91] Creating Layer bn5
I0925 23:49:49.847805 21318 net.cpp:469] bn5 <- conv5
I0925 23:49:49.847823 21318 net.cpp:430] bn5 -> conv5 (in-place)
I0925 23:49:49.848074 21318 net.cpp:141] Setting up bn5
I0925 23:49:49.848099 21318 net.cpp:148] Top shape: 8 128 104 104 (11075584)
I0925 23:49:49.848115 21318 net.cpp:156] Memory required for data: 1500746432
I0925 23:49:49.848139 21318 layer_factory.hpp:77] Creating layer scale5
I0925 23:49:49.848158 21318 net.cpp:91] Creating Layer scale5
I0925 23:49:49.848176 21318 net.cpp:469] scale5 <- conv5
I0925 23:49:49.848186 21318 net.cpp:430] scale5 -> conv5 (in-place)
I0925 23:49:49.848234 21318 layer_factory.hpp:77] Creating layer scale5
I0925 23:49:49.848417 21318 net.cpp:141] Setting up scale5
I0925 23:49:49.848443 21318 net.cpp:148] Top shape: 8 128 104 104 (11075584)
I0925 23:49:49.848459 21318 net.cpp:156] Memory required for data: 1545048768
I0925 23:49:49.848482 21318 layer_factory.hpp:77] Creating layer relu5
I0925 23:49:49.848502 21318 net.cpp:91] Creating Layer relu5
I0925 23:49:49.848517 21318 net.cpp:469] relu5 <- conv5
I0925 23:49:49.848536 21318 net.cpp:430] relu5 -> conv5 (in-place)
I0925 23:49:49.848786 21318 net.cpp:141] Setting up relu5
I0925 23:49:49.848815 21318 net.cpp:148] Top shape: 8 128 104 104 (11075584)
I0925 23:49:49.848832 21318 net.cpp:156] Memory required for data: 1589351104
I0925 23:49:49.848850 21318 layer_factory.hpp:77] Creating layer pool5
I0925 23:49:49.848870 21318 net.cpp:91] Creating Layer pool5
I0925 23:49:49.848887 21318 net.cpp:469] pool5 <- conv5
I0925 23:49:49.848898 21318 net.cpp:443] pool5 -> pool5
I0925 23:49:49.848956 21318 net.cpp:141] Setting up pool5
I0925 23:49:49.848980 21318 net.cpp:148] Top shape: 8 128 52 52 (2768896)
I0925 23:49:49.848997 21318 net.cpp:156] Memory required for data: 1600426688
I0925 23:49:49.849014 21318 layer_factory.hpp:77] Creating layer conv6
I0925 23:49:49.849040 21318 net.cpp:91] Creating Layer conv6
I0925 23:49:49.849057 21318 net.cpp:469] conv6 <- pool5
I0925 23:49:49.849078 21318 net.cpp:443] conv6 -> conv6
I0925 23:49:49.855702 21318 net.cpp:141] Setting up conv6
I0925 23:49:49.855787 21318 net.cpp:148] Top shape: 8 256 52 52 (5537792)
I0925 23:49:49.855804 21318 net.cpp:156] Memory required for data: 1622577856
I0925 23:49:49.855832 21318 layer_factory.hpp:77] Creating layer bn6
I0925 23:49:49.855861 21318 net.cpp:91] Creating Layer bn6
I0925 23:49:49.855878 21318 net.cpp:469] bn6 <- conv6
I0925 23:49:49.855902 21318 net.cpp:430] bn6 -> conv6 (in-place)
I0925 23:49:49.856194 21318 net.cpp:141] Setting up bn6
I0925 23:49:49.856217 21318 net.cpp:148] Top shape: 8 256 52 52 (5537792)
I0925 23:49:49.856233 21318 net.cpp:156] Memory required for data: 1644729024
I0925 23:49:49.856266 21318 layer_factory.hpp:77] Creating layer scale6
I0925 23:49:49.856288 21318 net.cpp:91] Creating Layer scale6
I0925 23:49:49.856304 21318 net.cpp:469] scale6 <- conv6
I0925 23:49:49.856323 21318 net.cpp:430] scale6 -> conv6 (in-place)
I0925 23:49:49.856393 21318 layer_factory.hpp:77] Creating layer scale6
I0925 23:49:49.856554 21318 net.cpp:141] Setting up scale6
I0925 23:49:49.856577 21318 net.cpp:148] Top shape: 8 256 52 52 (5537792)
I0925 23:49:49.856593 21318 net.cpp:156] Memory required for data: 1666880192
I0925 23:49:49.856616 21318 layer_factory.hpp:77] Creating layer relu6
I0925 23:49:49.856638 21318 net.cpp:91] Creating Layer relu6
I0925 23:49:49.856654 21318 net.cpp:469] relu6 <- conv6
I0925 23:49:49.856673 21318 net.cpp:430] relu6 -> conv6 (in-place)
I0925 23:49:49.857146 21318 net.cpp:141] Setting up relu6
I0925 23:49:49.857189 21318 net.cpp:148] Top shape: 8 256 52 52 (5537792)
I0925 23:49:49.857205 21318 net.cpp:156] Memory required for data: 1689031360
I0925 23:49:49.857223 21318 layer_factory.hpp:77] Creating layer conv7
I0925 23:49:49.857251 21318 net.cpp:91] Creating Layer conv7
I0925 23:49:49.857269 21318 net.cpp:469] conv7 <- conv6
I0925 23:49:49.857291 21318 net.cpp:443] conv7 -> conv7
I0925 23:49:49.860126 21318 net.cpp:141] Setting up conv7
I0925 23:49:49.860172 21318 net.cpp:148] Top shape: 8 128 52 52 (2768896)
I0925 23:49:49.860189 21318 net.cpp:156] Memory required for data: 1700106944
I0925 23:49:49.860210 21318 layer_factory.hpp:77] Creating layer bn7
I0925 23:49:49.860232 21318 net.cpp:91] Creating Layer bn7
I0925 23:49:49.860249 21318 net.cpp:469] bn7 <- conv7
I0925 23:49:49.860267 21318 net.cpp:430] bn7 -> conv7 (in-place)
I0925 23:49:49.860527 21318 net.cpp:141] Setting up bn7
I0925 23:49:49.860550 21318 net.cpp:148] Top shape: 8 128 52 52 (2768896)
I0925 23:49:49.860566 21318 net.cpp:156] Memory required for data: 1711182528
I0925 23:49:49.860589 21318 layer_factory.hpp:77] Creating layer scale7
I0925 23:49:49.860608 21318 net.cpp:91] Creating Layer scale7
I0925 23:49:49.860625 21318 net.cpp:469] scale7 <- conv7
I0925 23:49:49.860646 21318 net.cpp:430] scale7 -> conv7 (in-place)
I0925 23:49:49.860707 21318 layer_factory.hpp:77] Creating layer scale7
I0925 23:49:49.860862 21318 net.cpp:141] Setting up scale7
I0925 23:49:49.860884 21318 net.cpp:148] Top shape: 8 128 52 52 (2768896)
I0925 23:49:49.860900 21318 net.cpp:156] Memory required for data: 1722258112
I0925 23:49:49.860920 21318 layer_factory.hpp:77] Creating layer relu7
I0925 23:49:49.860939 21318 net.cpp:91] Creating Layer relu7
I0925 23:49:49.860954 21318 net.cpp:469] relu7 <- conv7
I0925 23:49:49.860972 21318 net.cpp:430] relu7 -> conv7 (in-place)
I0925 23:49:49.861323 21318 net.cpp:141] Setting up relu7
I0925 23:49:49.861353 21318 net.cpp:148] Top shape: 8 128 52 52 (2768896)
I0925 23:49:49.861369 21318 net.cpp:156] Memory required for data: 1733333696
I0925 23:49:49.861385 21318 layer_factory.hpp:77] Creating layer conv8
I0925 23:49:49.861419 21318 net.cpp:91] Creating Layer conv8
I0925 23:49:49.861436 21318 net.cpp:469] conv8 <- conv7
I0925 23:49:49.861456 21318 net.cpp:443] conv8 -> conv8
I0925 23:49:49.869453 21318 net.cpp:141] Setting up conv8
I0925 23:49:49.869530 21318 net.cpp:148] Top shape: 8 256 52 52 (5537792)
I0925 23:49:49.869547 21318 net.cpp:156] Memory required for data: 1755484864
I0925 23:49:49.869575 21318 layer_factory.hpp:77] Creating layer bn8
I0925 23:49:49.869621 21318 net.cpp:91] Creating Layer bn8
I0925 23:49:49.869650 21318 net.cpp:469] bn8 <- conv8
I0925 23:49:49.869670 21318 net.cpp:430] bn8 -> conv8 (in-place)
I0925 23:49:49.869971 21318 net.cpp:141] Setting up bn8
I0925 23:49:49.869999 21318 net.cpp:148] Top shape: 8 256 52 52 (5537792)
I0925 23:49:49.870015 21318 net.cpp:156] Memory required for data: 1777636032
I0925 23:49:49.870040 21318 layer_factory.hpp:77] Creating layer scale8
I0925 23:49:49.870060 21318 net.cpp:91] Creating Layer scale8
I0925 23:49:49.870077 21318 net.cpp:469] scale8 <- conv8
I0925 23:49:49.870095 21318 net.cpp:430] scale8 -> conv8 (in-place)
I0925 23:49:49.870169 21318 layer_factory.hpp:77] Creating layer scale8
I0925 23:49:49.870331 21318 net.cpp:141] Setting up scale8
I0925 23:49:49.870354 21318 net.cpp:148] Top shape: 8 256 52 52 (5537792)
I0925 23:49:49.870368 21318 net.cpp:156] Memory required for data: 1799787200
I0925 23:49:49.870389 21318 layer_factory.hpp:77] Creating layer relu8
I0925 23:49:49.870410 21318 net.cpp:91] Creating Layer relu8
I0925 23:49:49.870425 21318 net.cpp:469] relu8 <- conv8
I0925 23:49:49.870445 21318 net.cpp:430] relu8 -> conv8 (in-place)
I0925 23:49:49.870703 21318 net.cpp:141] Setting up relu8
I0925 23:49:49.870733 21318 net.cpp:148] Top shape: 8 256 52 52 (5537792)
I0925 23:49:49.870749 21318 net.cpp:156] Memory required for data: 1821938368
I0925 23:49:49.870766 21318 layer_factory.hpp:77] Creating layer pool8
I0925 23:49:49.870787 21318 net.cpp:91] Creating Layer pool8
I0925 23:49:49.870803 21318 net.cpp:469] pool8 <- conv8
I0925 23:49:49.870836 21318 net.cpp:443] pool8 -> pool8
I0925 23:49:49.870908 21318 net.cpp:141] Setting up pool8
I0925 23:49:49.870931 21318 net.cpp:148] Top shape: 8 256 26 26 (1384448)
I0925 23:49:49.870947 21318 net.cpp:156] Memory required for data: 1827476160
I0925 23:49:49.870963 21318 layer_factory.hpp:77] Creating layer conv9
I0925 23:49:49.870990 21318 net.cpp:91] Creating Layer conv9
I0925 23:49:49.871006 21318 net.cpp:469] conv9 <- pool8
I0925 23:49:49.871032 21318 net.cpp:443] conv9 -> conv9
I0925 23:49:49.896363 21318 net.cpp:141] Setting up conv9
I0925 23:49:49.896419 21318 net.cpp:148] Top shape: 8 512 26 26 (2768896)
I0925 23:49:49.896423 21318 net.cpp:156] Memory required for data: 1838551744
I0925 23:49:49.896440 21318 layer_factory.hpp:77] Creating layer bn9
I0925 23:49:49.896457 21318 net.cpp:91] Creating Layer bn9
I0925 23:49:49.896463 21318 net.cpp:469] bn9 <- conv9
I0925 23:49:49.896481 21318 net.cpp:430] bn9 -> conv9 (in-place)
I0925 23:49:49.896764 21318 net.cpp:141] Setting up bn9
I0925 23:49:49.896776 21318 net.cpp:148] Top shape: 8 512 26 26 (2768896)
I0925 23:49:49.896780 21318 net.cpp:156] Memory required for data: 1849627328
I0925 23:49:49.896795 21318 layer_factory.hpp:77] Creating layer scale9
I0925 23:49:49.896806 21318 net.cpp:91] Creating Layer scale9
I0925 23:49:49.896811 21318 net.cpp:469] scale9 <- conv9
I0925 23:49:49.896816 21318 net.cpp:430] scale9 -> conv9 (in-place)
I0925 23:49:49.896873 21318 layer_factory.hpp:77] Creating layer scale9
I0925 23:49:49.897016 21318 net.cpp:141] Setting up scale9
I0925 23:49:49.897027 21318 net.cpp:148] Top shape: 8 512 26 26 (2768896)
I0925 23:49:49.897030 21318 net.cpp:156] Memory required for data: 1860702912
I0925 23:49:49.897037 21318 layer_factory.hpp:77] Creating layer relu9
I0925 23:49:49.897047 21318 net.cpp:91] Creating Layer relu9
I0925 23:49:49.897050 21318 net.cpp:469] relu9 <- conv9
I0925 23:49:49.897058 21318 net.cpp:430] relu9 -> conv9 (in-place)
I0925 23:49:49.898286 21318 net.cpp:141] Setting up relu9
I0925 23:49:49.898308 21318 net.cpp:148] Top shape: 8 512 26 26 (2768896)
I0925 23:49:49.898311 21318 net.cpp:156] Memory required for data: 1871778496
I0925 23:49:49.898316 21318 layer_factory.hpp:77] Creating layer conv10
I0925 23:49:49.898332 21318 net.cpp:91] Creating Layer conv10
I0925 23:49:49.898337 21318 net.cpp:469] conv10 <- conv9
I0925 23:49:49.898352 21318 net.cpp:443] conv10 -> conv10
I0925 23:49:49.905230 21318 net.cpp:141] Setting up conv10
I0925 23:49:49.905256 21318 net.cpp:148] Top shape: 8 256 26 26 (1384448)
I0925 23:49:49.905285 21318 net.cpp:156] Memory required for data: 1877316288
I0925 23:49:49.905295 21318 layer_factory.hpp:77] Creating layer bn10
I0925 23:49:49.905310 21318 net.cpp:91] Creating Layer bn10
I0925 23:49:49.905315 21318 net.cpp:469] bn10 <- conv10
I0925 23:49:49.905324 21318 net.cpp:430] bn10 -> conv10 (in-place)
I0925 23:49:49.905566 21318 net.cpp:141] Setting up bn10
I0925 23:49:49.905578 21318 net.cpp:148] Top shape: 8 256 26 26 (1384448)
I0925 23:49:49.905582 21318 net.cpp:156] Memory required for data: 1882854080
I0925 23:49:49.905592 21318 layer_factory.hpp:77] Creating layer scale10
I0925 23:49:49.905602 21318 net.cpp:91] Creating Layer scale10
I0925 23:49:49.905607 21318 net.cpp:469] scale10 <- conv10
I0925 23:49:49.905613 21318 net.cpp:430] scale10 -> conv10 (in-place)
I0925 23:49:49.905659 21318 layer_factory.hpp:77] Creating layer scale10
I0925 23:49:49.905890 21318 net.cpp:141] Setting up scale10
I0925 23:49:49.905905 21318 net.cpp:148] Top shape: 8 256 26 26 (1384448)
I0925 23:49:49.905910 21318 net.cpp:156] Memory required for data: 1888391872
I0925 23:49:49.905920 21318 layer_factory.hpp:77] Creating layer relu10
I0925 23:49:49.905925 21318 net.cpp:91] Creating Layer relu10
I0925 23:49:49.905930 21318 net.cpp:469] relu10 <- conv10
I0925 23:49:49.905938 21318 net.cpp:430] relu10 -> conv10 (in-place)
I0925 23:49:49.907377 21318 net.cpp:141] Setting up relu10
I0925 23:49:49.907404 21318 net.cpp:148] Top shape: 8 256 26 26 (1384448)
I0925 23:49:49.907409 21318 net.cpp:156] Memory required for data: 1893929664
I0925 23:49:49.907414 21318 layer_factory.hpp:77] Creating layer conv11
I0925 23:49:49.907425 21318 net.cpp:91] Creating Layer conv11
I0925 23:49:49.907430 21318 net.cpp:469] conv11 <- conv10
I0925 23:49:49.907441 21318 net.cpp:443] conv11 -> conv11
I0925 23:49:49.932960 21318 net.cpp:141] Setting up conv11
I0925 23:49:49.933058 21318 net.cpp:148] Top shape: 8 512 26 26 (2768896)
I0925 23:49:49.933075 21318 net.cpp:156] Memory required for data: 1905005248
I0925 23:49:49.933104 21318 layer_factory.hpp:77] Creating layer bn11
I0925 23:49:49.933135 21318 net.cpp:91] Creating Layer bn11
I0925 23:49:49.933156 21318 net.cpp:469] bn11 <- conv11
I0925 23:49:49.933178 21318 net.cpp:430] bn11 -> conv11 (in-place)
I0925 23:49:49.933473 21318 net.cpp:141] Setting up bn11
I0925 23:49:49.933516 21318 net.cpp:148] Top shape: 8 512 26 26 (2768896)
I0925 23:49:49.933532 21318 net.cpp:156] Memory required for data: 1916080832
I0925 23:49:49.933557 21318 layer_factory.hpp:77] Creating layer scale11
I0925 23:49:49.933583 21318 net.cpp:91] Creating Layer scale11
I0925 23:49:49.933601 21318 net.cpp:469] scale11 <- conv11
I0925 23:49:49.933620 21318 net.cpp:430] scale11 -> conv11 (in-place)
I0925 23:49:49.933696 21318 layer_factory.hpp:77] Creating layer scale11
I0925 23:49:49.933876 21318 net.cpp:141] Setting up scale11
I0925 23:49:49.933900 21318 net.cpp:148] Top shape: 8 512 26 26 (2768896)
I0925 23:49:49.933917 21318 net.cpp:156] Memory required for data: 1927156416
I0925 23:49:49.933955 21318 layer_factory.hpp:77] Creating layer relu11
I0925 23:49:49.933977 21318 net.cpp:91] Creating Layer relu11
I0925 23:49:49.933995 21318 net.cpp:469] relu11 <- conv11
I0925 23:49:49.934015 21318 net.cpp:430] relu11 -> conv11 (in-place)
I0925 23:49:49.934281 21318 net.cpp:141] Setting up relu11
I0925 23:49:49.934314 21318 net.cpp:148] Top shape: 8 512 26 26 (2768896)
I0925 23:49:49.934331 21318 net.cpp:156] Memory required for data: 1938232000
I0925 23:49:49.934348 21318 layer_factory.hpp:77] Creating layer conv12
I0925 23:49:49.934376 21318 net.cpp:91] Creating Layer conv12
I0925 23:49:49.934393 21318 net.cpp:469] conv12 <- conv11
I0925 23:49:49.934414 21318 net.cpp:443] conv12 -> conv12
I0925 23:49:49.939579 21318 net.cpp:141] Setting up conv12
I0925 23:49:49.939674 21318 net.cpp:148] Top shape: 8 256 26 26 (1384448)
I0925 23:49:49.939692 21318 net.cpp:156] Memory required for data: 1943769792
I0925 23:49:49.939718 21318 layer_factory.hpp:77] Creating layer bn12
I0925 23:49:49.939762 21318 net.cpp:91] Creating Layer bn12
I0925 23:49:49.939791 21318 net.cpp:469] bn12 <- conv12
I0925 23:49:49.939816 21318 net.cpp:430] bn12 -> conv12 (in-place)
I0925 23:49:49.940137 21318 net.cpp:141] Setting up bn12
I0925 23:49:49.940165 21318 net.cpp:148] Top shape: 8 256 26 26 (1384448)
I0925 23:49:49.940181 21318 net.cpp:156] Memory required for data: 1949307584
I0925 23:49:49.940205 21318 layer_factory.hpp:77] Creating layer scale12
I0925 23:49:49.940229 21318 net.cpp:91] Creating Layer scale12
I0925 23:49:49.940245 21318 net.cpp:469] scale12 <- conv12
I0925 23:49:49.940264 21318 net.cpp:430] scale12 -> conv12 (in-place)
I0925 23:49:49.940337 21318 layer_factory.hpp:77] Creating layer scale12
I0925 23:49:49.940521 21318 net.cpp:141] Setting up scale12
I0925 23:49:49.940547 21318 net.cpp:148] Top shape: 8 256 26 26 (1384448)
I0925 23:49:49.940563 21318 net.cpp:156] Memory required for data: 1954845376
I0925 23:49:49.940585 21318 layer_factory.hpp:77] Creating layer relu12
I0925 23:49:49.940605 21318 net.cpp:91] Creating Layer relu12
I0925 23:49:49.940623 21318 net.cpp:469] relu12 <- conv12
I0925 23:49:49.940642 21318 net.cpp:430] relu12 -> conv12 (in-place)
I0925 23:49:49.940910 21318 net.cpp:141] Setting up relu12
I0925 23:49:49.940943 21318 net.cpp:148] Top shape: 8 256 26 26 (1384448)
I0925 23:49:49.940958 21318 net.cpp:156] Memory required for data: 1960383168
I0925 23:49:49.940976 21318 layer_factory.hpp:77] Creating layer conv13
I0925 23:49:49.941002 21318 net.cpp:91] Creating Layer conv13
I0925 23:49:49.941020 21318 net.cpp:469] conv13 <- conv12
I0925 23:49:49.941042 21318 net.cpp:443] conv13 -> conv13
I0925 23:49:49.968149 21318 net.cpp:141] Setting up conv13
I0925 23:49:49.968205 21318 net.cpp:148] Top shape: 8 512 26 26 (2768896)
I0925 23:49:49.968210 21318 net.cpp:156] Memory required for data: 1971458752
I0925 23:49:49.968227 21318 layer_factory.hpp:77] Creating layer bn13
I0925 23:49:49.968245 21318 net.cpp:91] Creating Layer bn13
I0925 23:49:49.968255 21318 net.cpp:469] bn13 <- conv13
I0925 23:49:49.968274 21318 net.cpp:430] bn13 -> conv13 (in-place)
I0925 23:49:49.968564 21318 net.cpp:141] Setting up bn13
I0925 23:49:49.968575 21318 net.cpp:148] Top shape: 8 512 26 26 (2768896)
I0925 23:49:49.968578 21318 net.cpp:156] Memory required for data: 1982534336
I0925 23:49:49.968590 21318 layer_factory.hpp:77] Creating layer scale13
I0925 23:49:49.968605 21318 net.cpp:91] Creating Layer scale13
I0925 23:49:49.968655 21318 net.cpp:469] scale13 <- conv13
I0925 23:49:49.968667 21318 net.cpp:430] scale13 -> conv13 (in-place)
I0925 23:49:49.968750 21318 layer_factory.hpp:77] Creating layer scale13
I0925 23:49:49.968900 21318 net.cpp:141] Setting up scale13
I0925 23:49:49.968911 21318 net.cpp:148] Top shape: 8 512 26 26 (2768896)
I0925 23:49:49.968915 21318 net.cpp:156] Memory required for data: 1993609920
I0925 23:49:49.968924 21318 layer_factory.hpp:77] Creating layer relu13
I0925 23:49:49.968935 21318 net.cpp:91] Creating Layer relu13
I0925 23:49:49.968941 21318 net.cpp:469] relu13 <- conv13
I0925 23:49:49.968947 21318 net.cpp:430] relu13 -> conv13 (in-place)
I0925 23:49:49.970046 21318 net.cpp:141] Setting up relu13
I0925 23:49:49.970075 21318 net.cpp:148] Top shape: 8 512 26 26 (2768896)
I0925 23:49:49.970079 21318 net.cpp:156] Memory required for data: 2004685504
I0925 23:49:49.970088 21318 layer_factory.hpp:77] Creating layer conv13_relu13_0_split
I0925 23:49:49.970095 21318 net.cpp:91] Creating Layer conv13_relu13_0_split
I0925 23:49:49.970103 21318 net.cpp:469] conv13_relu13_0_split <- conv13
I0925 23:49:49.970113 21318 net.cpp:443] conv13_relu13_0_split -> conv13_relu13_0_split_0
I0925 23:49:49.970125 21318 net.cpp:443] conv13_relu13_0_split -> conv13_relu13_0_split_1
I0925 23:49:49.970180 21318 net.cpp:141] Setting up conv13_relu13_0_split
I0925 23:49:49.970190 21318 net.cpp:148] Top shape: 8 512 26 26 (2768896)
I0925 23:49:49.970196 21318 net.cpp:148] Top shape: 8 512 26 26 (2768896)
I0925 23:49:49.970201 21318 net.cpp:156] Memory required for data: 2026836672
I0925 23:49:49.970206 21318 layer_factory.hpp:77] Creating layer pool13
I0925 23:49:49.970273 21318 net.cpp:91] Creating Layer pool13
I0925 23:49:49.970281 21318 net.cpp:469] pool13 <- conv13_relu13_0_split_0
I0925 23:49:49.970290 21318 net.cpp:443] pool13 -> pool13
I0925 23:49:49.970345 21318 net.cpp:141] Setting up pool13
I0925 23:49:49.970355 21318 net.cpp:148] Top shape: 8 512 13 13 (692224)
I0925 23:49:49.970358 21318 net.cpp:156] Memory required for data: 2029605568
I0925 23:49:49.970363 21318 layer_factory.hpp:77] Creating layer conv14
I0925 23:49:49.970376 21318 net.cpp:91] Creating Layer conv14
I0925 23:49:49.970381 21318 net.cpp:469] conv14 <- pool13
I0925 23:49:49.970389 21318 net.cpp:443] conv14 -> conv14
I0925 23:49:50.061825 21318 net.cpp:141] Setting up conv14
I0925 23:49:50.061878 21318 net.cpp:148] Top shape: 8 1024 13 13 (1384448)
I0925 23:49:50.061883 21318 net.cpp:156] Memory required for data: 2035143360
I0925 23:49:50.061900 21318 layer_factory.hpp:77] Creating layer bn14
I0925 23:49:50.061919 21318 net.cpp:91] Creating Layer bn14
I0925 23:49:50.061987 21318 net.cpp:469] bn14 <- conv14
I0925 23:49:50.062011 21318 net.cpp:430] bn14 -> conv14 (in-place)
I0925 23:49:50.062319 21318 net.cpp:141] Setting up bn14
I0925 23:49:50.062343 21318 net.cpp:148] Top shape: 8 1024 13 13 (1384448)
I0925 23:49:50.062361 21318 net.cpp:156] Memory required for data: 2040681152
I0925 23:49:50.062383 21318 layer_factory.hpp:77] Creating layer scale14
I0925 23:49:50.062405 21318 net.cpp:91] Creating Layer scale14
I0925 23:49:50.062459 21318 net.cpp:469] scale14 <- conv14
I0925 23:49:50.062477 21318 net.cpp:430] scale14 -> conv14 (in-place)
I0925 23:49:50.062551 21318 layer_factory.hpp:77] Creating layer scale14
I0925 23:49:50.062739 21318 net.cpp:141] Setting up scale14
I0925 23:49:50.062763 21318 net.cpp:148] Top shape: 8 1024 13 13 (1384448)
I0925 23:49:50.062779 21318 net.cpp:156] Memory required for data: 2046218944
I0925 23:49:50.062801 21318 layer_factory.hpp:77] Creating layer relu14
I0925 23:49:50.062832 21318 net.cpp:91] Creating Layer relu14
I0925 23:49:50.062850 21318 net.cpp:469] relu14 <- conv14
I0925 23:49:50.062872 21318 net.cpp:430] relu14 -> conv14 (in-place)
I0925 23:49:50.063153 21318 net.cpp:141] Setting up relu14
I0925 23:49:50.063184 21318 net.cpp:148] Top shape: 8 1024 13 13 (1384448)
I0925 23:49:50.063200 21318 net.cpp:156] Memory required for data: 2051756736
I0925 23:49:50.063217 21318 layer_factory.hpp:77] Creating layer conv15
I0925 23:49:50.063246 21318 net.cpp:91] Creating Layer conv15
I0925 23:49:50.063262 21318 net.cpp:469] conv15 <- conv14
I0925 23:49:50.063282 21318 net.cpp:443] conv15 -> conv15
I0925 23:49:50.077018 21318 net.cpp:141] Setting up conv15
I0925 23:49:50.077112 21318 net.cpp:148] Top shape: 8 512 13 13 (692224)
I0925 23:49:50.077131 21318 net.cpp:156] Memory required for data: 2054525632
I0925 23:49:50.077157 21318 layer_factory.hpp:77] Creating layer bn15
I0925 23:49:50.077203 21318 net.cpp:91] Creating Layer bn15
I0925 23:49:50.077226 21318 net.cpp:469] bn15 <- conv15
I0925 23:49:50.077247 21318 net.cpp:430] bn15 -> conv15 (in-place)
I0925 23:49:50.077541 21318 net.cpp:141] Setting up bn15
I0925 23:49:50.077565 21318 net.cpp:148] Top shape: 8 512 13 13 (692224)
I0925 23:49:50.077582 21318 net.cpp:156] Memory required for data: 2057294528
I0925 23:49:50.077607 21318 layer_factory.hpp:77] Creating layer scale15
I0925 23:49:50.077632 21318 net.cpp:91] Creating Layer scale15
I0925 23:49:50.077651 21318 net.cpp:469] scale15 <- conv15
I0925 23:49:50.077669 21318 net.cpp:430] scale15 -> conv15 (in-place)
I0925 23:49:50.077739 21318 layer_factory.hpp:77] Creating layer scale15
I0925 23:49:50.077913 21318 net.cpp:141] Setting up scale15
I0925 23:49:50.077937 21318 net.cpp:148] Top shape: 8 512 13 13 (692224)
I0925 23:49:50.077955 21318 net.cpp:156] Memory required for data: 2060063424
I0925 23:49:50.077976 21318 layer_factory.hpp:77] Creating layer relu15
I0925 23:49:50.077998 21318 net.cpp:91] Creating Layer relu15
I0925 23:49:50.078016 21318 net.cpp:469] relu15 <- conv15
I0925 23:49:50.078037 21318 net.cpp:430] relu15 -> conv15 (in-place)
I0925 23:49:50.078315 21318 net.cpp:141] Setting up relu15
I0925 23:49:50.078361 21318 net.cpp:148] Top shape: 8 512 13 13 (692224)
I0925 23:49:50.078378 21318 net.cpp:156] Memory required for data: 2062832320
I0925 23:49:50.078397 21318 layer_factory.hpp:77] Creating layer conv16
I0925 23:49:50.078424 21318 net.cpp:91] Creating Layer conv16
I0925 23:49:50.078441 21318 net.cpp:469] conv16 <- conv15
I0925 23:49:50.078464 21318 net.cpp:443] conv16 -> conv16
I0925 23:49:50.170919 21318 net.cpp:141] Setting up conv16
I0925 23:49:50.170976 21318 net.cpp:148] Top shape: 8 1024 13 13 (1384448)
I0925 23:49:50.170980 21318 net.cpp:156] Memory required for data: 2068370112
I0925 23:49:50.170997 21318 layer_factory.hpp:77] Creating layer bn16
I0925 23:49:50.171015 21318 net.cpp:91] Creating Layer bn16
I0925 23:49:50.171022 21318 net.cpp:469] bn16 <- conv16
I0925 23:49:50.171036 21318 net.cpp:430] bn16 -> conv16 (in-place)
I0925 23:49:50.171331 21318 net.cpp:141] Setting up bn16
I0925 23:49:50.171342 21318 net.cpp:148] Top shape: 8 1024 13 13 (1384448)
I0925 23:49:50.171346 21318 net.cpp:156] Memory required for data: 2073907904
I0925 23:49:50.171357 21318 layer_factory.hpp:77] Creating layer scale16
I0925 23:49:50.171422 21318 net.cpp:91] Creating Layer scale16
I0925 23:49:50.171432 21318 net.cpp:469] scale16 <- conv16
I0925 23:49:50.171439 21318 net.cpp:430] scale16 -> conv16 (in-place)
I0925 23:49:50.171501 21318 layer_factory.hpp:77] Creating layer scale16
I0925 23:49:50.171667 21318 net.cpp:141] Setting up scale16
I0925 23:49:50.171679 21318 net.cpp:148] Top shape: 8 1024 13 13 (1384448)
I0925 23:49:50.171682 21318 net.cpp:156] Memory required for data: 2079445696
I0925 23:49:50.171691 21318 layer_factory.hpp:77] Creating layer relu16
I0925 23:49:50.171703 21318 net.cpp:91] Creating Layer relu16
I0925 23:49:50.171775 21318 net.cpp:469] relu16 <- conv16
I0925 23:49:50.171798 21318 net.cpp:430] relu16 -> conv16 (in-place)
I0925 23:49:50.173017 21318 net.cpp:141] Setting up relu16
I0925 23:49:50.173045 21318 net.cpp:148] Top shape: 8 1024 13 13 (1384448)
I0925 23:49:50.173049 21318 net.cpp:156] Memory required for data: 2084983488
I0925 23:49:50.173055 21318 layer_factory.hpp:77] Creating layer conv17
I0925 23:49:50.173075 21318 net.cpp:91] Creating Layer conv17
I0925 23:49:50.173084 21318 net.cpp:469] conv17 <- conv16
I0925 23:49:50.173091 21318 net.cpp:443] conv17 -> conv17
I0925 23:49:50.184012 21318 net.cpp:141] Setting up conv17
I0925 23:49:50.184046 21318 net.cpp:148] Top shape: 8 512 13 13 (692224)
I0925 23:49:50.184051 21318 net.cpp:156] Memory required for data: 2087752384
I0925 23:49:50.184062 21318 layer_factory.hpp:77] Creating layer bn17
I0925 23:49:50.184075 21318 net.cpp:91] Creating Layer bn17
I0925 23:49:50.184080 21318 net.cpp:469] bn17 <- conv17
I0925 23:49:50.184088 21318 net.cpp:430] bn17 -> conv17 (in-place)
I0925 23:49:50.184358 21318 net.cpp:141] Setting up bn17
I0925 23:49:50.184403 21318 net.cpp:148] Top shape: 8 512 13 13 (692224)
I0925 23:49:50.184424 21318 net.cpp:156] Memory required for data: 2090521280
I0925 23:49:50.184446 21318 layer_factory.hpp:77] Creating layer scale17
I0925 23:49:50.184466 21318 net.cpp:91] Creating Layer scale17
I0925 23:49:50.184475 21318 net.cpp:469] scale17 <- conv17
I0925 23:49:50.184481 21318 net.cpp:430] scale17 -> conv17 (in-place)
I0925 23:49:50.184540 21318 layer_factory.hpp:77] Creating layer scale17
I0925 23:49:50.184698 21318 net.cpp:141] Setting up scale17
I0925 23:49:50.184729 21318 net.cpp:148] Top shape: 8 512 13 13 (692224)
I0925 23:49:50.184747 21318 net.cpp:156] Memory required for data: 2093290176
I0925 23:49:50.184803 21318 layer_factory.hpp:77] Creating layer relu17
I0925 23:49:50.184825 21318 net.cpp:91] Creating Layer relu17
I0925 23:49:50.184845 21318 net.cpp:469] relu17 <- conv17
I0925 23:49:50.184870 21318 net.cpp:430] relu17 -> conv17 (in-place)
I0925 23:49:50.185148 21318 net.cpp:141] Setting up relu17
I0925 23:49:50.185164 21318 net.cpp:148] Top shape: 8 512 13 13 (692224)
I0925 23:49:50.185168 21318 net.cpp:156] Memory required for data: 2096059072
I0925 23:49:50.185173 21318 layer_factory.hpp:77] Creating layer conv18
I0925 23:49:50.185217 21318 net.cpp:91] Creating Layer conv18
I0925 23:49:50.185222 21318 net.cpp:469] conv18 <- conv17
I0925 23:49:50.185232 21318 net.cpp:443] conv18 -> conv18
I0925 23:49:50.278753 21318 net.cpp:141] Setting up conv18
I0925 23:49:50.278883 21318 net.cpp:148] Top shape: 8 1024 13 13 (1384448)
I0925 23:49:50.278903 21318 net.cpp:156] Memory required for data: 2101596864
I0925 23:49:50.278931 21318 layer_factory.hpp:77] Creating layer bn18
I0925 23:49:50.278962 21318 net.cpp:91] Creating Layer bn18
I0925 23:49:50.278983 21318 net.cpp:469] bn18 <- conv18
I0925 23:49:50.279007 21318 net.cpp:430] bn18 -> conv18 (in-place)
I0925 23:49:50.279361 21318 net.cpp:141] Setting up bn18
I0925 23:49:50.279389 21318 net.cpp:148] Top shape: 8 1024 13 13 (1384448)
I0925 23:49:50.279404 21318 net.cpp:156] Memory required for data: 2107134656
I0925 23:49:50.279430 21318 layer_factory.hpp:77] Creating layer scale18
I0925 23:49:50.279455 21318 net.cpp:91] Creating Layer scale18
I0925 23:49:50.279474 21318 net.cpp:469] scale18 <- conv18
I0925 23:49:50.279491 21318 net.cpp:430] scale18 -> conv18 (in-place)
I0925 23:49:50.279570 21318 layer_factory.hpp:77] Creating layer scale18
I0925 23:49:50.279772 21318 net.cpp:141] Setting up scale18
I0925 23:49:50.279798 21318 net.cpp:148] Top shape: 8 1024 13 13 (1384448)
I0925 23:49:50.279815 21318 net.cpp:156] Memory required for data: 2112672448
I0925 23:49:50.279855 21318 layer_factory.hpp:77] Creating layer relu18
I0925 23:49:50.279878 21318 net.cpp:91] Creating Layer relu18
I0925 23:49:50.279896 21318 net.cpp:469] relu18 <- conv18
I0925 23:49:50.279917 21318 net.cpp:430] relu18 -> conv18 (in-place)
I0925 23:49:50.280200 21318 net.cpp:141] Setting up relu18
I0925 23:49:50.280216 21318 net.cpp:148] Top shape: 8 1024 13 13 (1384448)
I0925 23:49:50.280220 21318 net.cpp:156] Memory required for data: 2118210240
I0925 23:49:50.280225 21318 layer_factory.hpp:77] Creating layer conv19
I0925 23:49:50.280239 21318 net.cpp:91] Creating Layer conv19
I0925 23:49:50.280244 21318 net.cpp:469] conv19 <- conv18
I0925 23:49:50.280256 21318 net.cpp:443] conv19 -> conv19
I0925 23:49:50.457598 21318 net.cpp:141] Setting up conv19
I0925 23:49:50.457723 21318 net.cpp:148] Top shape: 8 1024 13 13 (1384448)
I0925 23:49:50.457744 21318 net.cpp:156] Memory required for data: 2123748032
I0925 23:49:50.457775 21318 layer_factory.hpp:77] Creating layer bn19
I0925 23:49:50.457805 21318 net.cpp:91] Creating Layer bn19
I0925 23:49:50.457828 21318 net.cpp:469] bn19 <- conv19
I0925 23:49:50.457861 21318 net.cpp:430] bn19 -> conv19 (in-place)
I0925 23:49:50.458168 21318 net.cpp:141] Setting up bn19
I0925 23:49:50.458178 21318 net.cpp:148] Top shape: 8 1024 13 13 (1384448)
I0925 23:49:50.458184 21318 net.cpp:156] Memory required for data: 2129285824
I0925 23:49:50.458194 21318 layer_factory.hpp:77] Creating layer scale19
I0925 23:49:50.458227 21318 net.cpp:91] Creating Layer scale19
I0925 23:49:50.458236 21318 net.cpp:469] scale19 <- conv19
I0925 23:49:50.458245 21318 net.cpp:430] scale19 -> conv19 (in-place)
I0925 23:49:50.458326 21318 layer_factory.hpp:77] Creating layer scale19
I0925 23:49:50.458484 21318 net.cpp:141] Setting up scale19
I0925 23:49:50.458516 21318 net.cpp:148] Top shape: 8 1024 13 13 (1384448)
I0925 23:49:50.458534 21318 net.cpp:156] Memory required for data: 2134823616
I0925 23:49:50.458557 21318 layer_factory.hpp:77] Creating layer relu19
I0925 23:49:50.458578 21318 net.cpp:91] Creating Layer relu19
I0925 23:49:50.458595 21318 net.cpp:469] relu19 <- conv19
I0925 23:49:50.458616 21318 net.cpp:430] relu19 -> conv19 (in-place)
I0925 23:49:50.458942 21318 net.cpp:141] Setting up relu19
I0925 23:49:50.458964 21318 net.cpp:148] Top shape: 8 1024 13 13 (1384448)
I0925 23:49:50.458969 21318 net.cpp:156] Memory required for data: 2140361408
I0925 23:49:50.458974 21318 layer_factory.hpp:77] Creating layer conv20
I0925 23:49:50.458988 21318 net.cpp:91] Creating Layer conv20
I0925 23:49:50.459018 21318 net.cpp:469] conv20 <- conv19
I0925 23:49:50.459056 21318 net.cpp:443] conv20 -> conv20
I0925 23:49:50.641975 21318 net.cpp:141] Setting up conv20
I0925 23:49:50.642027 21318 net.cpp:148] Top shape: 8 1024 13 13 (1384448)
I0925 23:49:50.642035 21318 net.cpp:156] Memory required for data: 2145899200
I0925 23:49:50.642055 21318 layer_factory.hpp:77] Creating layer bn20
I0925 23:49:50.642078 21318 net.cpp:91] Creating Layer bn20
I0925 23:49:50.642084 21318 net.cpp:469] bn20 <- conv20
I0925 23:49:50.642097 21318 net.cpp:430] bn20 -> conv20 (in-place)
I0925 23:49:50.642393 21318 net.cpp:141] Setting up bn20
I0925 23:49:50.642405 21318 net.cpp:148] Top shape: 8 1024 13 13 (1384448)
I0925 23:49:50.642408 21318 net.cpp:156] Memory required for data: 2151436992
I0925 23:49:50.642419 21318 layer_factory.hpp:77] Creating layer scale20
I0925 23:49:50.642427 21318 net.cpp:91] Creating Layer scale20
I0925 23:49:50.642431 21318 net.cpp:469] scale20 <- conv20
I0925 23:49:50.642437 21318 net.cpp:430] scale20 -> conv20 (in-place)
I0925 23:49:50.642493 21318 layer_factory.hpp:77] Creating layer scale20
I0925 23:49:50.642650 21318 net.cpp:141] Setting up scale20
I0925 23:49:50.642658 21318 net.cpp:148] Top shape: 8 1024 13 13 (1384448)
I0925 23:49:50.642662 21318 net.cpp:156] Memory required for data: 2156974784
I0925 23:49:50.642669 21318 layer_factory.hpp:77] Creating layer relu20
I0925 23:49:50.642678 21318 net.cpp:91] Creating Layer relu20
I0925 23:49:50.642681 21318 net.cpp:469] relu20 <- conv20
I0925 23:49:50.642688 21318 net.cpp:430] relu20 -> conv20 (in-place)
I0925 23:49:50.644100 21318 net.cpp:141] Setting up relu20
I0925 23:49:50.644129 21318 net.cpp:148] Top shape: 8 1024 13 13 (1384448)
I0925 23:49:50.644132 21318 net.cpp:156] Memory required for data: 2162512576
I0925 23:49:50.644138 21318 layer_factory.hpp:77] Creating layer conv24
I0925 23:49:50.644157 21318 net.cpp:91] Creating Layer conv24
I0925 23:49:50.644167 21318 net.cpp:469] conv24 <- conv13_relu13_0_split_1
I0925 23:49:50.644178 21318 net.cpp:443] conv24 -> conv24
I0925 23:49:50.651012 21318 net.cpp:141] Setting up conv24
I0925 23:49:50.651041 21318 net.cpp:148] Top shape: 8 64 26 26 (346112)
I0925 23:49:50.651044 21318 net.cpp:156] Memory required for data: 2163897024
I0925 23:49:50.651053 21318 layer_factory.hpp:77] Creating layer bn24
I0925 23:49:50.651067 21318 net.cpp:91] Creating Layer bn24
I0925 23:49:50.651074 21318 net.cpp:469] bn24 <- conv24
I0925 23:49:50.651084 21318 net.cpp:430] bn24 -> conv24 (in-place)
I0925 23:49:50.651370 21318 net.cpp:141] Setting up bn24
I0925 23:49:50.651381 21318 net.cpp:148] Top shape: 8 64 26 26 (346112)
I0925 23:49:50.651386 21318 net.cpp:156] Memory required for data: 2165281472
I0925 23:49:50.651396 21318 layer_factory.hpp:77] Creating layer scale24
I0925 23:49:50.651404 21318 net.cpp:91] Creating Layer scale24
I0925 23:49:50.651408 21318 net.cpp:469] scale24 <- conv24
I0925 23:49:50.651414 21318 net.cpp:430] scale24 -> conv24 (in-place)
I0925 23:49:50.651466 21318 layer_factory.hpp:77] Creating layer scale24
I0925 23:49:50.651628 21318 net.cpp:141] Setting up scale24
I0925 23:49:50.651639 21318 net.cpp:148] Top shape: 8 64 26 26 (346112)
I0925 23:49:50.651643 21318 net.cpp:156] Memory required for data: 2166665920
I0925 23:49:50.651651 21318 layer_factory.hpp:77] Creating layer relu24
I0925 23:49:50.651657 21318 net.cpp:91] Creating Layer relu24
I0925 23:49:50.651661 21318 net.cpp:469] relu24 <- conv24
I0925 23:49:50.651669 21318 net.cpp:430] relu24 -> conv24 (in-place)
I0925 23:49:50.653168 21318 net.cpp:141] Setting up relu24
I0925 23:49:50.653183 21318 net.cpp:148] Top shape: 8 64 26 26 (346112)
I0925 23:49:50.653187 21318 net.cpp:156] Memory required for data: 2168050368
I0925 23:49:50.653192 21318 layer_factory.hpp:77] Creating layer reorg1
I0925 23:49:50.653205 21318 net.cpp:91] Creating Layer reorg1
I0925 23:49:50.653209 21318 net.cpp:469] reorg1 <- conv24
I0925 23:49:50.653223 21318 net.cpp:443] reorg1 -> reorg1
I0925 23:49:50.653286 21318 net.cpp:141] Setting up reorg1
I0925 23:49:50.653301 21318 net.cpp:148] Top shape: 8 256 13 13 (346112)
I0925 23:49:50.653304 21318 net.cpp:156] Memory required for data: 2169434816
I0925 23:49:50.653336 21318 layer_factory.hpp:77] Creating layer concat2
I0925 23:49:50.653343 21318 net.cpp:91] Creating Layer concat2
I0925 23:49:50.653347 21318 net.cpp:469] concat2 <- reorg1
I0925 23:49:50.653352 21318 net.cpp:469] concat2 <- conv20
I0925 23:49:50.653358 21318 net.cpp:443] concat2 -> concat2
I0925 23:49:50.653390 21318 net.cpp:141] Setting up concat2
I0925 23:49:50.653398 21318 net.cpp:148] Top shape: 8 1280 13 13 (1730560)
I0925 23:49:50.653401 21318 net.cpp:156] Memory required for data: 2176357056
I0925 23:49:50.653405 21318 layer_factory.hpp:77] Creating layer conv21
I0925 23:49:50.653417 21318 net.cpp:91] Creating Layer conv21
I0925 23:49:50.653421 21318 net.cpp:469] conv21 <- concat2
I0925 23:49:50.653431 21318 net.cpp:443] conv21 -> conv21
I0925 23:49:50.879324 21318 net.cpp:141] Setting up conv21
I0925 23:49:50.879422 21318 net.cpp:148] Top shape: 8 1024 13 13 (1384448)
I0925 23:49:50.879442 21318 net.cpp:156] Memory required for data: 2181894848
I0925 23:49:50.879470 21318 layer_factory.hpp:77] Creating layer bn21
I0925 23:49:50.879498 21318 net.cpp:91] Creating Layer bn21
I0925 23:49:50.879519 21318 net.cpp:469] bn21 <- conv21
I0925 23:49:50.879545 21318 net.cpp:430] bn21 -> conv21 (in-place)
I0925 23:49:50.879878 21318 net.cpp:141] Setting up bn21
I0925 23:49:50.879891 21318 net.cpp:148] Top shape: 8 1024 13 13 (1384448)
I0925 23:49:50.879895 21318 net.cpp:156] Memory required for data: 2187432640
I0925 23:49:50.879938 21318 layer_factory.hpp:77] Creating layer scale21
I0925 23:49:50.879971 21318 net.cpp:91] Creating Layer scale21
I0925 23:49:50.879987 21318 net.cpp:469] scale21 <- conv21
I0925 23:49:50.880009 21318 net.cpp:430] scale21 -> conv21 (in-place)
I0925 23:49:50.880087 21318 layer_factory.hpp:77] Creating layer scale21
I0925 23:49:50.880268 21318 net.cpp:141] Setting up scale21
I0925 23:49:50.880292 21318 net.cpp:148] Top shape: 8 1024 13 13 (1384448)
I0925 23:49:50.880311 21318 net.cpp:156] Memory required for data: 2192970432
I0925 23:49:50.880337 21318 layer_factory.hpp:77] Creating layer relu21
I0925 23:49:50.880360 21318 net.cpp:91] Creating Layer relu21
I0925 23:49:50.880378 21318 net.cpp:469] relu21 <- conv21
I0925 23:49:50.880399 21318 net.cpp:430] relu21 -> conv21 (in-place)
I0925 23:49:50.880666 21318 net.cpp:141] Setting up relu21
I0925 23:49:50.880698 21318 net.cpp:148] Top shape: 8 1024 13 13 (1384448)
I0925 23:49:50.880717 21318 net.cpp:156] Memory required for data: 2198508224
I0925 23:49:50.880735 21318 layer_factory.hpp:77] Creating layer conv22
I0925 23:49:50.880764 21318 net.cpp:91] Creating Layer conv22
I0925 23:49:50.880781 21318 net.cpp:469] conv22 <- conv21
I0925 23:49:50.880805 21318 net.cpp:443] conv22 -> conv22
I0925 23:49:50.884275 21318 net.cpp:141] Setting up conv22
I0925 23:49:50.884323 21318 net.cpp:148] Top shape: 8 125 13 13 (169000)
I0925 23:49:50.884341 21318 net.cpp:156] Memory required for data: 2199184224
I0925 23:49:50.884362 21318 layer_factory.hpp:77] Creating layer region1
I0925 23:49:50.884390 21318 net.cpp:91] Creating Layer region1
I0925 23:49:50.884407 21318 net.cpp:469] region1 <- conv22
I0925 23:49:50.884423 21318 net.cpp:469] region1 <- label
I0925 23:49:50.884445 21318 net.cpp:443] region1 -> region1
…
I0925 23:49:50.886348 21318 net.cpp:274] Network initialization done.
I0925 23:49:50.887454 21318 solver.cpp:182] Creating test net (#0) specified by test_net file: test.prototxt
I0925 23:49:50.888216 21318 net.cpp:49] Initializing net from parameters: 
name: "YOLONET"
state {
  phase: TEST
}
layer {
  name: "data"
  type: "BoxData"
  top: "data"
  top: "label"
  include {
    phase: TEST
  }
  transform_param {
    scale: 0.00390625
    mirror: false
  }
  data_param {
    source: "../../../data/yolo/lmdb_voc0712/test_lmdb"
    batch_size: 1
    backend: LMDB
  }
}
layer {
  name: "conv1"
  type: "Convolution"
  bottom: "data"
  top: "conv1"
  param {
    lr_mult: 1
    decay_mult: 1
  }
  convolution_param {
    num_output: 32
    bias_term: false
    pad: 1
    kernel_size: 3
    stride: 1
    weight_filler {
      type: "msra"
    }
  }
}
layer {
  name: "bn1"
  type: "BatchNorm"
  bottom: "conv1"
  top: "conv1"
  param {
    lr_mult: 0
    decay_mult: 0
  }
  param {
    lr_mult: 0
    decay_mult: 0
  }
  param {
    lr_mult: 0
    decay_mult: 0
  }
  batch_norm_param {
    use_global_stats: true
    eps: 1e-05
  }
}
layer {
  name: "scale1"
  type: "Scale"
  bottom: "conv1"
  top: "conv1"
  scale_param {
    bias_term: true
  }
}
layer {
  name: "relu1"
  type: "ReLU"
  bottom: "conv1"
  top: "conv1"
  relu_param {
    negative_slope: 0.1
  }
}
layer {
  name: "pool1"
  type: "Pooling"
  bottom: "conv1"
  top: "pool1"
  pooling_param {
    pool: MAX
    kernel_size: 2
    stride: 2
  }
}
layer {
  name: "conv2"
  type: "Convolution"
  bottom: "pool1"
  top: "conv2"
  param {
    lr_mult: 1
    decay_mult: 1
  }
  convolution_param {
    num_output: 64
    bias_term: false
    pad: 1
    kernel_size: 3
    stride: 1
    weight_filler {
      type: "msra"
    }
  }
}
layer {
  name: "bn2"
  type: "BatchNorm"
  bottom: "conv2"
  top: "conv2"
  param {
    lr_mult: 0
    decay_mult: 0
  }
  param {
    lr_mult: 0
    decay_mult: 0
  }
  param {
    lr_mult: 0
    decay_mult: 0
  }
  batch_norm_param {
    use_global_stats: true
    eps: 1e-05
  }
}
layer {
  name: "scale2"
  type: "Scale"
  bottom: "conv2"
  top: "conv2"
  scale_param {
    bias_term: true
  }
}
layer {
  name: "relu2"
  type: "ReLU"
  bottom: "conv2"
  top: "conv2"
  relu_param {
    negative_slope: 0.1
  }
}
layer {
  name: "pool2"
  type: "Pooling"
  bottom: "conv2"
  top: "pool2"
  pooling_param {
    pool: MAX
    kernel_size: 2
    stride: 2
  }
}
layer {
  name: "conv3"
  type: "Convolution"
  bottom: "pool2"
  top: "conv3"
  param {
    lr_mult: 1
    decay_mult: 1
  }
  convolution_param {
    num_output: 128
    bias_term: false
    pad: 1
    kernel_size: 3
    stride: 1
    weight_filler {
      type: "msra"
    }
  }
}
layer {
  name: "bn3"
  type: "BatchNorm"
  bottom: "conv3"
  top: "conv3"
  param {
    lr_mult: 0
    decay_mult: 0
  }
  param {
    lr_mult: 0
    decay_mult: 0
  }
  param {
    lr_mult: 0
    decay_mult: 0
  }
  batch_norm_param {
    use_global_stats: true
    eps: 1e-05
  }
}
layer {
  name: "scale3"
  type: "Scale"
  bottom: "conv3"
  top: "conv3"
  scale_param {
    bias_term: true
  }
}
layer {
  name: "relu3"
  type: "ReLU"
  bottom: "conv3"
  top: "conv3"
  relu_param {
    negative_slope: 0.1
  }
}
layer {
  name: "conv4"
  type: "Convolution"
  bottom: "conv3"
  top: "conv4"
  param {
    lr_mult: 1
    decay_mult: 1
  }
  convolution_param {
    num_output: 64
    bias_term: false
    pad: 0
    kernel_size: 1
    stride: 1
    weight_filler {
      type: "msra"
    }
  }
}
layer {
  name: "bn4"
  type: "BatchNorm"
  bottom: "conv4"
  top: "conv4"
  param {
    lr_mult: 0
    decay_mult: 0
  }
  param {
    lr_mult: 0
    decay_mult: 0
  }
  param {
    lr_mult: 0
    decay_mult: 0
  }
  batch_norm_param {
    use_global_stats: true
    eps: 1e-05
  }
}
layer {
  name: "scale4"
  type: "Scale"
  bottom: "conv4"
  top: "conv4"
  scale_param {
    bias_term: true
  }
}
layer {
  name: "relu4"
  type: "ReLU"
  bottom: "conv4"
  top: "conv4"
  relu_param {
    negative_slope: 0.1
  }
}
layer {
  name: "conv5"
  type: "Convolution"
  bottom: "conv4"
  top: "conv5"
  param {
    lr_mult: 1
    decay_mult: 1
  }
  convolution_param {
    num_output: 128
    bias_term: false
    pad: 1
    kernel_size: 3
    stride: 1
    weight_filler {
      type: "msra"
    }
  }
}
layer {
  name: "bn5"
  type: "BatchNorm"
  bottom: "conv5"
  top: "conv5"
  param {
    lr_mult: 0
    decay_mult: 0
  }
  param {
    lr_mult: 0
    decay_mult: 0
  }
  param {
    lr_mult: 0
    decay_mult: 0
  }
  batch_norm_param {
    use_global_stats: true
    eps: 1e-05
  }
}
layer {
  name: "scale5"
  type: "Scale"
  bottom: "conv5"
  top: "conv5"
  scale_param {
    bias_term: true
  }
}
layer {
  name: "relu5"
  type: "ReLU"
  bottom: "conv5"
  top: "conv5"
  relu_param {
    negative_slope: 0.1
  }
}
layer {
  name: "pool5"
  type: "Pooling"
  bottom: "conv5"
  top: "pool5"
  pooling_param {
    pool: MAX
    kernel_size: 2
    stride: 2
  }
}
layer {
  name: "conv6"
  type: "Convolution"
  bottom: "pool5"
  top: "conv6"
  param {
    lr_mult: 1
    decay_mult: 1
  }
  convolution_param {
    num_output: 256
    bias_term: false
    pad: 1
    kernel_size: 3
    stride: 1
    weight_filler {
      type: "msra"
    }
  }
}
layer {
  name: "bn6"
  type: "BatchNorm"
  bottom: "conv6"
  top: "conv6"
  param {
    lr_mult: 0
    decay_mult: 0
  }
  param {
    lr_mult: 0
    decay_mult: 0
  }
  param {
    lr_mult: 0
    decay_mult: 0
  }
  batch_norm_param {
    use_global_stats: true
    eps: 1e-05
  }
}
layer {
  name: "scale6"
  type: "Scale"
  bottom: "conv6"
  top: "conv6"
  scale_param {
    bias_term: true
  }
}
layer {
  name: "relu6"
  type: "ReLU"
  bottom: "conv6"
  top: "conv6"
  relu_param {
    negative_slope: 0.1
  }
}
layer {
  name: "conv7"
  type: "Convolution"
  bottom: "conv6"
  top: "conv7"
  param {
    lr_mult: 1
    decay_mult: 1
  }
  convolution_param {
    num_output: 128
    bias_term: false
    pad: 0
    kernel_size: 1
    stride: 1
    weight_filler {
      type: "msra"
    }
  }
}
layer {
  name: "bn7"
  type: "BatchNorm"
  bottom: "conv7"
  top: "conv7"
  param {
    lr_mult: 0
    decay_mult: 0
  }
  param {
    lr_mult: 0
    decay_mult: 0
  }
  param {
    lr_mult: 0
    decay_mult: 0
  }
  batch_norm_param {
    use_global_stats: true
    eps: 1e-05
  }
}
layer {
  name: "scale7"
  type: "Scale"
  bottom: "conv7"
  top: "conv7"
  scale_param {
    bias_term: true
  }
}
layer {
  name: "relu7"
  type: "ReLU"
  bottom: "conv7"
  top: "conv7"
  relu_param {
    negative_slope: 0.1
  }
}
layer {
  name: "conv8"
  type: "Convolution"
  bottom: "conv7"
  top: "conv8"
  param {
    lr_mult: 1
    decay_mult: 1
  }
  convolution_param {
    num_output: 256
    bias_term: false
    pad: 1
    kernel_size: 3
    stride: 1
    weight_filler {
      type: "msra"
    }
  }
}
layer {
  name: "bn8"
  type: "BatchNorm"
  bottom: "conv8"
  top: "conv8"
  param {
    lr_mult: 0
    decay_mult: 0
  }
  param {
    lr_mult: 0
    decay_mult: 0
  }
  param {
    lr_mult: 0
    decay_mult: 0
  }
  batch_norm_param {
    use_global_stats: true
    eps: 1e-05
  }
}
layer {
  name: "scale8"
  type: "Scale"
  bottom: "conv8"
  top: "conv8"
  scale_param {
    bias_term: true
  }
}
layer {
  name: "relu8"
  type: "ReLU"
  bottom: "conv8"
  top: "conv8"
  relu_param {
    negative_slope: 0.1
  }
}
layer {
  name: "pool8"
  type: "Pooling"
  bottom: "conv8"
  top: "pool8"
  pooling_param {
    pool: MAX
    kernel_size: 2
    stride: 2
  }
}
layer {
  name: "conv9"
  type: "Convolution"
  bottom: "pool8"
  top: "conv9"
  param {
    lr_mult: 1
    decay_mult: 1
  }
  convolution_param {
    num_output: 512
    bias_term: false
    pad: 1
    kernel_size: 3
    stride: 1
    weight_filler {
      type: "msra"
    }
  }
}
layer {
  name: "bn9"
  type: "BatchNorm"
  bottom: "conv9"
  top: "conv9"
  param {
    lr_mult: 0
    decay_mult: 0
  }
  param {
    lr_mult: 0
    decay_mult: 0
  }
  param {
    lr_mult: 0
    decay_mult: 0
  }
  batch_norm_param {
    use_global_stats: true
    eps: 1e-05
  }
}
layer {
  name: "scale9"
  type: "Scale"
  bottom: "conv9"
  top: "conv9"
  scale_param {
    bias_term: true
  }
}
layer {
  name: "relu9"
  type: "ReLU"
  bottom: "conv9"
  top: "conv9"
  relu_param {
    negative_slope: 0.1
  }
}
layer {
  name: "conv10"
  type: "Convolution"
  bottom: "conv9"
  top: "conv10"
  param {
    lr_mult: 1
    decay_mult: 1
  }
  convolution_param {
    num_output: 256
    bias_term: false
    pad: 0
    kernel_size: 1
    stride: 1
    weight_filler {
      type: "msra"
    }
  }
}
layer {
  name: "bn10"
  type: "BatchNorm"
  bottom: "conv10"
  top: "conv10"
  param {
    lr_mult: 0
    decay_mult: 0
  }
  param {
    lr_mult: 0
    decay_mult: 0
  }
  param {
    lr_mult: 0
    decay_mult: 0
  }
  batch_norm_param {
    use_global_stats: true
    eps: 1e-05
  }
}
layer {
  name: "scale10"
  type: "Scale"
  bottom: "conv10"
  top: "conv10"
  scale_param {
    bias_term: true
  }
}
layer {
  name: "relu10"
  type: "ReLU"
  bottom: "conv10"
  top: "conv10"
  relu_param {
    negative_slope: 0.1
  }
}
layer {
  name: "conv11"
  type: "Convolution"
  bottom: "conv10"
  top: "conv11"
  param {
    lr_mult: 1
    decay_mult: 1
  }
  convolution_param {
    num_output: 512
    bias_term: false
    pad: 1
    kernel_size: 3
    stride: 1
    weight_filler {
      type: "msra"
    }
  }
}
layer {
  name: "bn11"
  type: "BatchNorm"
  bottom: "conv11"
  top: "conv11"
  param {
    lr_mult: 0
    decay_mult: 0
  }
  param {
    lr_mult: 0
    decay_mult: 0
  }
  param {
    lr_mult: 0
    decay_mult: 0
  }
  batch_norm_param {
    use_global_stats: true
    eps: 1e-05
  }
}
layer {
  name: "scale11"
  type: "Scale"
  bottom: "conv11"
  top: "conv11"
  scale_param {
    bias_term: true
  }
}
layer {
  name: "relu11"
  type: "ReLU"
  bottom: "conv11"
  top: "conv11"
  relu_param {
    negative_slope: 0.1
  }
}
layer {
  name: "conv12"
  type: "Convolution"
  bottom: "conv11"
  top: "conv12"
  param {
    lr_mult: 1
    decay_mult: 1
  }
  convolution_param {
    num_output: 256
    bias_term: false
    pad: 0
    kernel_size: 1
    stride: 1
    weight_filler {
      type: "msra"
    }
  }
}
layer {
  name: "bn12"
  type: "BatchNorm"
  bottom: "conv12"
  top: "conv12"
  param {
    lr_mult: 0
    decay_mult: 0
  }
  param {
    lr_mult: 0
    decay_mult: 0
  }
  param {
    lr_mult: 0
    decay_mult: 0
  }
  batch_norm_param {
    use_global_stats: true
    eps: 1e-05
  }
}
layer {
  name: "scale12"
  type: "Scale"
  bottom: "conv12"
  top: "conv12"
  scale_param {
    bias_term: true
  }
}
layer {
  name: "relu12"
  type: "ReLU"
  bottom: "conv12"
  top: "conv12"
  relu_param {
    negative_slope: 0.1
  }
}
layer {
  name: "conv13"
  type: "Convolution"
  bottom: "conv12"
  top: "conv13"
  param {
    lr_mult: 1
    decay_mult: 1
  }
  convolution_param {
    num_output: 512
    bias_term: false
    pad: 1
    kernel_size: 3
    stride: 1
    weight_filler {
      type: "msra"
    }
  }
}
layer {
  name: "bn13"
  type: "BatchNorm"
  bottom: "conv13"
  top: "conv13"
  param {
    lr_mult: 0
    decay_mult: 0
  }
  param {
    lr_mult: 0
    decay_mult: 0
  }
  param {
    lr_mult: 0
    decay_mult: 0
  }
  batch_norm_param {
    use_global_stats: true
    eps: 1e-05
  }
}
layer {
  name: "scale13"
  type: "Scale"
  bottom: "conv13"
  top: "conv13"
  scale_param {
    bias_term: true
  }
}
layer {
  name: "relu13"
  type: "ReLU"
  bottom: "conv13"
  top: "conv13"
  relu_param {
    negative_slope: 0.1
  }
}
layer {
  name: "pool13"
  type: "Pooling"
  bottom: "conv13"
  top: "pool13"
  pooling_param {
    pool: MAX
    kernel_size: 2
    stride: 2
  }
}
layer {
  name: "conv14"
  type: "Convolution"
  bottom: "pool13"
  top: "conv14"
  param {
    lr_mult: 1
    decay_mult: 1
  }
  convolution_param {
    num_output: 1024
    bias_term: false
    pad: 1
    kernel_size: 3
    stride: 1
    weight_filler {
      type: "msra"
    }
  }
}
layer {
  name: "bn14"
  type: "BatchNorm"
  bottom: "conv14"
  top: "conv14"
  param {
    lr_mult: 0
    decay_mult: 0
  }
  param {
    lr_mult: 0
    decay_mult: 0
  }
  param {
    lr_mult: 0
    decay_mult: 0
  }
  batch_norm_param {
    use_global_stats: true
    eps: 1e-05
  }
}
layer {
  name: "scale14"
  type: "Scale"
  bottom: "conv14"
  top: "conv14"
  scale_param {
    bias_term: true
  }
}
layer {
  name: "relu14"
  type: "ReLU"
  bottom: "conv14"
  top: "conv14"
  relu_param {
    negative_slope: 0.1
  }
}
layer {
  name: "conv15"
  type: "Convolution"
  bottom: "conv14"
  top: "conv15"
  param {
    lr_mult: 1
    decay_mult: 1
  }
  convolution_param {
    num_output: 512
    bias_term: false
    pad: 0
    kernel_size: 1
    stride: 1
    weight_filler {
      type: "msra"
    }
  }
}
layer {
  name: "bn15"
  type: "BatchNorm"
  bottom: "conv15"
  top: "conv15"
  param {
    lr_mult: 0
    decay_mult: 0
  }
  param {
    lr_mult: 0
    decay_mult: 0
  }
  param {
    lr_mult: 0
    decay_mult: 0
  }
  batch_norm_param {
    use_global_stats: true
    eps: 1e-05
  }
}
layer {
  name: "scale15"
  type: "Scale"
  bottom: "conv15"
  top: "conv15"
  scale_param {
    bias_term: true
  }
}
layer {
  name: "relu15"
  type: "ReLU"
  bottom: "conv15"
  top: "conv15"
  relu_param {
    negative_slope: 0.1
  }
}
layer {
  name: "conv16"
  type: "Convolution"
  bottom: "conv15"
  top: "conv16"
  param {
    lr_mult: 1
    decay_mult: 1
  }
  convolution_param {
    num_output: 1024
    bias_term: false
    pad: 1
    kernel_size: 3
    stride: 1
    weight_filler {
      type: "msra"
    }
  }
}
layer {
  name: "bn16"
  type: "BatchNorm"
  bottom: "conv16"
  top: "conv16"
  param {
    lr_mult: 0
    decay_mult: 0
  }
  param {
    lr_mult: 0
    decay_mult: 0
  }
  param {
    lr_mult: 0
    decay_mult: 0
  }
  batch_norm_param {
    use_global_stats: true
    eps: 1e-05
  }
}
layer {
  name: "scale16"
  type: "Scale"
  bottom: "conv16"
  top: "conv16"
  scale_param {
    bias_term: true
  }
}
layer {
  name: "relu16"
  type: "ReLU"
  bottom: "conv16"
  top: "conv16"
  relu_param {
    negative_slope: 0.1
  }
}
layer {
  name: "conv17"
  type: "Convolution"
  bottom: "conv16"
  top: "conv17"
  param {
    lr_mult: 1
    decay_mult: 1
  }
  convolution_param {
    num_output: 512
    bias_term: false
    pad: 0
    kernel_size: 1
    stride: 1
    weight_filler {
      type: "msra"
    }
  }
}
layer {
  name: "bn17"
  type: "BatchNorm"
  bottom: "conv17"
  top: "conv17"
  param {
    lr_mult: 0
    decay_mult: 0
  }
  param {
    lr_mult: 0
    decay_mult: 0
  }
  param {
    lr_mult: 0
    decay_mult: 0
  }
  batch_norm_param {
    use_global_stats: true
    eps: 1e-05
  }
}
layer {
  name: "scale17"
  type: "Scale"
  bottom: "conv17"
  top: "conv17"
  scale_param {
    bias_term: true
  }
}
layer {
  name: "relu17"
  type: "ReLU"
  bottom: "conv17"
  top: "conv17"
  relu_param {
    negative_slope: 0.1
  }
}
layer {
  name: "conv18"
  type: "Convolution"
  bottom: "conv17"
  top: "conv18"
  param {
    lr_mult: 1
    decay_mult: 1
  }
  convolution_param {
    num_output: 1024
    bias_term: false
    pad: 1
    kernel_size: 3
    stride: 1
    weight_filler {
      type: "msra"
    }
  }
}
layer {
  name: "bn18"
  type: "BatchNorm"
  bottom: "conv18"
  top: "conv18"
  param {
    lr_mult: 0
    decay_mult: 0
  }
  param {
    lr_mult: 0
    decay_mult: 0
  }
  param {
    lr_mult: 0
    decay_mult: 0
  }
  batch_norm_param {
    use_global_stats: true
    eps: 1e-05
  }
}
layer {
  name: "scale18"
  type: "Scale"
  bottom: "conv18"
  top: "conv18"
  scale_param {
    bias_term: true
  }
}
layer {
  name: "relu18"
  type: "ReLU"
  bottom: "conv18"
  top: "conv18"
  relu_param {
    negative_slope: 0.1
  }
}
layer {
  name: "conv19"
  type: "Convolution"
  bottom: "conv18"
  top: "conv19"
  param {
    lr_mult: 1
    decay_mult: 1
  }
  convolution_param {
    num_output: 1024
    bias_term: false
    pad: 1
    kernel_size: 3
    stride: 1
    weight_filler {
      type: "msra"
    }
  }
}
layer {
  name: "bn19"
  type: "BatchNorm"
  bottom: "conv19"
  top: "conv19"
  param {
    lr_mult: 0
    decay_mult: 0
  }
  param {
    lr_mult: 0
    decay_mult: 0
  }
  param {
    lr_mult: 0
    decay_mult: 0
  }
  batch_norm_param {
    use_global_stats: true
    eps: 1e-05
  }
}
layer {
  name: "scale19"
  type: "Scale"
  bottom: "conv19"
  top: "conv19"
  scale_param {
    bias_term: true
  }
}
layer {
  name: "relu19"
  type: "ReLU"
  bottom: "conv19"
  top: "conv19"
  relu_param {
    negative_slope: 0.1
  }
}
layer {
  name: "conv20"
  type: "Convolution"
  bottom: "conv19"
  top: "conv20"
  param {
    lr_mult: 1
    decay_mult: 1
  }
  convolution_param {
    num_output: 1024
    bias_term: false
    pad: 1
    kernel_size: 3
    stride: 1
    weight_filler {
      type: "msra"
    }
  }
}
layer {
  name: "bn20"
  type: "BatchNorm"
  bottom: "conv20"
  top: "conv20"
  param {
    lr_mult: 0
    decay_mult: 0
  }
  param {
    lr_mult: 0
    decay_mult: 0
  }
  param {
    lr_mult: 0
    decay_mult: 0
  }
  batch_norm_param {
    use_global_stats: true
    eps: 1e-05
  }
}
layer {
  name: "scale20"
  type: "Scale"
  bottom: "conv20"
  top: "conv20"
  scale_param {
    bias_term: true
  }
}
layer {
  name: "relu20"
  type: "ReLU"
  bottom: "conv20"
  top: "conv20"
  relu_param {
    negative_slope: 0.1
  }
}
layer {
  name: "conv24"
  type: "Convolution"
  bottom: "conv13"
  top: "conv24"
  param {
    lr_mult: 1
    decay_mult: 1
  }
  convolution_param {
    num_output: 64
    bias_term: false
    pad: 0
    kernel_size: 1
    stride: 1
    weight_filler {
      type: "msra"
    }
  }
}
layer {
  name: "bn24"
  type: "BatchNorm"
  bottom: "conv24"
  top: "conv24"
  param {
    lr_mult: 0
    decay_mult: 0
  }
  param {
    lr_mult: 0
    decay_mult: 0
  }
  param {
    lr_mult: 0
    decay_mult: 0
  }
  batch_norm_param {
    use_global_stats: true
    eps: 1e-05
  }
}
layer {
  name: "scale24"
  type: "Scale"
  bottom: "conv24"
  top: "conv24"
  scale_param {
    bias_term: true
  }
}
layer {
  name: "relu24"
  type: "ReLU"
  bottom: "conv24"
  top: "conv24"
  relu_param {
    negative_slope: 0.1
  }
}
layer {
  name: "reorg1"
  type: "Reorg"
  bottom: "conv24"
  top: "reorg1"
  reorg_param {
    stride: 2
  }
}
layer {
  name: "concat2"
  type: "Concat"
  bottom: "reorg1"
  bottom: "conv20"
  top: "concat2"
}
layer {
  name: "conv21"
  type: "Convolution"
  bottom: "concat2"
  top: "conv21"
  param {
    lr_mult: 1
    decay_mult: 1
  }
  convolution_param {
    num_output: 1024
    bias_term: false
    pad: 1
    kernel_size: 3
    stride: 1
    weight_filler {
      type: "msra"
    }
  }
}
layer {
  name: "bn21"
  type: "BatchNorm"
  bottom: "conv21"
  top: "conv21"
  param {
    lr_mult: 0
    decay_mult: 0
  }
  param {
    lr_mult: 0
    decay_mult: 0
  }
  param {
    lr_mult: 0
    decay_mult: 0
  }
  batch_norm_param {
    use_global_stats: true
    eps: 1e-05
  }
}
layer {
  name: "scale21"
  type: "Scale"
  bottom: "conv21"
  top: "conv21"
  scale_param {
    bias_term: true
  }
}
layer {
  name: "relu21"
  type: "ReLU"
  bottom: "conv21"
  top: "conv21"
  relu_param {
    negative_slope: 0.1
  }
}
layer {
  name: "conv22"
  type: "Convolution"
  bottom: "conv21"
  top: "conv22"
  param {
    lr_mult: 1
    decay_mult: 1
  }
  convolution_param {
    num_output: 125
    bias_term: false
    pad: 0
    kernel_size: 1
    stride: 1
    weight_filler {
      type: "msra"
    }
  }
}
layer {
  name: "detection_out"
  type: "DetectionOutput"
  bottom: "conv22"
  top: "detection_out"
  include {
    phase: TEST
  }
  detection_output_param {
    side: 13
    num_classes: 20
    coords: 4
    confidence_threshold: 0.05
    biases: 1.3221
    biases: 1.73145
    biases: 3.19275
    biases: 4.00944
    biases: 5.05587
    biases: 8.09892
    biases: 9.47112
    biases: 4.84053
    biases: 11.2364
    biases: 10.0071
  }
}
layer {
  name: "detection_eval"
  type: "DetectionEvaluate"
  bottom: "detection_out"
  bottom: "label"
  top: "detection_eval"
  include {
    phase: TEST
  }
  detection_evaluate_param {
    num_classes: 20
    overlap_threshold: 0.2
  }
}
I0925 23:49:50.888787 21318 layer_factory.hpp:77] Creating layer data
I0925 23:49:50.888929 21318 net.cpp:91] Creating Layer data
I0925 23:49:50.888967 21318 net.cpp:443] data -> data
I0925 23:49:50.888979 21318 net.cpp:443] data -> label
I0925 23:49:50.889616 21336 db_lmdb.cpp:35] Opened lmdb ../../../data/yolo/lmdb_voc0712/test_lmdb
I0925 23:49:50.894242 21318 box_data_layer.cpp:43] output data size: 1,3,416,416
I0925 23:49:50.898888 21318 net.cpp:141] Setting up data
I0925 23:49:50.898962 21318 net.cpp:148] Top shape: 1 3 416 416 (519168)
I0925 23:49:50.898993 21318 net.cpp:148] Top shape: 1 150 (150)
I0925 23:49:50.899014 21318 net.cpp:156] Memory required for data: 2077272
I0925 23:49:50.899036 21318 layer_factory.hpp:77] Creating layer conv1
I0925 23:49:50.899072 21318 net.cpp:91] Creating Layer conv1
I0925 23:49:50.899091 21318 net.cpp:469] conv1 <- data
I0925 23:49:50.899114 21318 net.cpp:443] conv1 -> conv1
I0925 23:49:50.904541 21318 net.cpp:141] Setting up conv1
I0925 23:49:50.904568 21318 net.cpp:148] Top shape: 1 32 416 416 (5537792)
I0925 23:49:50.904572 21318 net.cpp:156] Memory required for data: 24228440
I0925 23:49:50.904592 21318 layer_factory.hpp:77] Creating layer bn1
I0925 23:49:50.904604 21318 net.cpp:91] Creating Layer bn1
I0925 23:49:50.904642 21318 net.cpp:469] bn1 <- conv1
I0925 23:49:50.904676 21318 net.cpp:430] bn1 -> conv1 (in-place)
I0925 23:49:50.905268 21318 net.cpp:141] Setting up bn1
I0925 23:49:50.905292 21318 net.cpp:148] Top shape: 1 32 416 416 (5537792)
I0925 23:49:50.905297 21318 net.cpp:156] Memory required for data: 46379608
I0925 23:49:50.905313 21318 layer_factory.hpp:77] Creating layer scale1
I0925 23:49:50.905347 21318 net.cpp:91] Creating Layer scale1
I0925 23:49:50.905364 21318 net.cpp:469] scale1 <- conv1
I0925 23:49:50.905385 21318 net.cpp:430] scale1 -> conv1 (in-place)
I0925 23:49:50.905454 21318 layer_factory.hpp:77] Creating layer scale1
I0925 23:49:50.907323 21318 net.cpp:141] Setting up scale1
I0925 23:49:50.907375 21318 net.cpp:148] Top shape: 1 32 416 416 (5537792)
I0925 23:49:50.907392 21318 net.cpp:156] Memory required for data: 68530776
I0925 23:49:50.907419 21318 layer_factory.hpp:77] Creating layer relu1
I0925 23:49:50.907445 21318 net.cpp:91] Creating Layer relu1
I0925 23:49:50.907462 21318 net.cpp:469] relu1 <- conv1
I0925 23:49:50.907481 21318 net.cpp:430] relu1 -> conv1 (in-place)
I0925 23:49:50.908435 21318 net.cpp:141] Setting up relu1
I0925 23:49:50.908460 21318 net.cpp:148] Top shape: 1 32 416 416 (5537792)
I0925 23:49:50.908464 21318 net.cpp:156] Memory required for data: 90681944
I0925 23:49:50.908470 21318 layer_factory.hpp:77] Creating layer pool1
I0925 23:49:50.908480 21318 net.cpp:91] Creating Layer pool1
I0925 23:49:50.908485 21318 net.cpp:469] pool1 <- conv1
I0925 23:49:50.908493 21318 net.cpp:443] pool1 -> pool1
I0925 23:49:50.908557 21318 net.cpp:141] Setting up pool1
I0925 23:49:50.908571 21318 net.cpp:148] Top shape: 1 32 208 208 (1384448)
I0925 23:49:50.908576 21318 net.cpp:156] Memory required for data: 96219736
I0925 23:49:50.908579 21318 layer_factory.hpp:77] Creating layer conv2
I0925 23:49:50.908591 21318 net.cpp:91] Creating Layer conv2
I0925 23:49:50.908596 21318 net.cpp:469] conv2 <- pool1
I0925 23:49:50.908602 21318 net.cpp:443] conv2 -> conv2
I0925 23:49:50.913506 21318 net.cpp:141] Setting up conv2
I0925 23:49:50.913533 21318 net.cpp:148] Top shape: 1 64 208 208 (2768896)
I0925 23:49:50.913542 21318 net.cpp:156] Memory required for data: 107295320
I0925 23:49:50.913552 21318 layer_factory.hpp:77] Creating layer bn2
I0925 23:49:50.913566 21318 net.cpp:91] Creating Layer bn2
I0925 23:49:50.913573 21318 net.cpp:469] bn2 <- conv2
I0925 23:49:50.913614 21318 net.cpp:430] bn2 -> conv2 (in-place)
I0925 23:49:50.914085 21318 net.cpp:141] Setting up bn2
I0925 23:49:50.914142 21318 net.cpp:148] Top shape: 1 64 208 208 (2768896)
I0925 23:49:50.914165 21318 net.cpp:156] Memory required for data: 118370904
I0925 23:49:50.914198 21318 layer_factory.hpp:77] Creating layer scale2
I0925 23:49:50.914237 21318 net.cpp:91] Creating Layer scale2
I0925 23:49:50.914248 21318 net.cpp:469] scale2 <- conv2
I0925 23:49:50.914257 21318 net.cpp:430] scale2 -> conv2 (in-place)
I0925 23:49:50.914328 21318 layer_factory.hpp:77] Creating layer scale2
I0925 23:49:50.914671 21318 net.cpp:141] Setting up scale2
I0925 23:49:50.914690 21318 net.cpp:148] Top shape: 1 64 208 208 (2768896)
I0925 23:49:50.914693 21318 net.cpp:156] Memory required for data: 129446488
I0925 23:49:50.914702 21318 layer_factory.hpp:77] Creating layer relu2
I0925 23:49:50.914717 21318 net.cpp:91] Creating Layer relu2
I0925 23:49:50.914721 21318 net.cpp:469] relu2 <- conv2
I0925 23:49:50.914728 21318 net.cpp:430] relu2 -> conv2 (in-place)
I0925 23:49:50.915639 21318 net.cpp:141] Setting up relu2
I0925 23:49:50.915657 21318 net.cpp:148] Top shape: 1 64 208 208 (2768896)
I0925 23:49:50.915661 21318 net.cpp:156] Memory required for data: 140522072
I0925 23:49:50.915665 21318 layer_factory.hpp:77] Creating layer pool2
I0925 23:49:50.915678 21318 net.cpp:91] Creating Layer pool2
I0925 23:49:50.915685 21318 net.cpp:469] pool2 <- conv2
I0925 23:49:50.915693 21318 net.cpp:443] pool2 -> pool2
I0925 23:49:50.915750 21318 net.cpp:141] Setting up pool2
I0925 23:49:50.915760 21318 net.cpp:148] Top shape: 1 64 104 104 (692224)
I0925 23:49:50.915766 21318 net.cpp:156] Memory required for data: 143290968
I0925 23:49:50.915771 21318 layer_factory.hpp:77] Creating layer conv3
I0925 23:49:50.915812 21318 net.cpp:91] Creating Layer conv3
I0925 23:49:50.915818 21318 net.cpp:469] conv3 <- pool2
I0925 23:49:50.915825 21318 net.cpp:443] conv3 -> conv3
I0925 23:49:50.922828 21318 net.cpp:141] Setting up conv3
I0925 23:49:50.922850 21318 net.cpp:148] Top shape: 1 128 104 104 (1384448)
I0925 23:49:50.922855 21318 net.cpp:156] Memory required for data: 148828760
I0925 23:49:50.922864 21318 layer_factory.hpp:77] Creating layer bn3
I0925 23:49:50.922876 21318 net.cpp:91] Creating Layer bn3
I0925 23:49:50.922883 21318 net.cpp:469] bn3 <- conv3
I0925 23:49:50.922895 21318 net.cpp:430] bn3 -> conv3 (in-place)
I0925 23:49:50.923202 21318 net.cpp:141] Setting up bn3
I0925 23:49:50.923213 21318 net.cpp:148] Top shape: 1 128 104 104 (1384448)
I0925 23:49:50.923218 21318 net.cpp:156] Memory required for data: 154366552
I0925 23:49:50.923228 21318 layer_factory.hpp:77] Creating layer scale3
I0925 23:49:50.923234 21318 net.cpp:91] Creating Layer scale3
I0925 23:49:50.923243 21318 net.cpp:469] scale3 <- conv3
I0925 23:49:50.923249 21318 net.cpp:430] scale3 -> conv3 (in-place)
I0925 23:49:50.923300 21318 layer_factory.hpp:77] Creating layer scale3
I0925 23:49:50.923483 21318 net.cpp:141] Setting up scale3
I0925 23:49:50.923496 21318 net.cpp:148] Top shape: 1 128 104 104 (1384448)
I0925 23:49:50.923501 21318 net.cpp:156] Memory required for data: 159904344
I0925 23:49:50.923513 21318 layer_factory.hpp:77] Creating layer relu3
I0925 23:49:50.923523 21318 net.cpp:91] Creating Layer relu3
I0925 23:49:50.923528 21318 net.cpp:469] relu3 <- conv3
I0925 23:49:50.923537 21318 net.cpp:430] relu3 -> conv3 (in-place)
I0925 23:49:50.924758 21318 net.cpp:141] Setting up relu3
I0925 23:49:50.924774 21318 net.cpp:148] Top shape: 1 128 104 104 (1384448)
I0925 23:49:50.924779 21318 net.cpp:156] Memory required for data: 165442136
I0925 23:49:50.924783 21318 layer_factory.hpp:77] Creating layer conv4
I0925 23:49:50.924796 21318 net.cpp:91] Creating Layer conv4
I0925 23:49:50.924803 21318 net.cpp:469] conv4 <- conv3
I0925 23:49:50.924810 21318 net.cpp:443] conv4 -> conv4
I0925 23:49:50.926278 21318 net.cpp:141] Setting up conv4
I0925 23:49:50.926306 21318 net.cpp:148] Top shape: 1 64 104 104 (692224)
I0925 23:49:50.926309 21318 net.cpp:156] Memory required for data: 168211032
I0925 23:49:50.926318 21318 layer_factory.hpp:77] Creating layer bn4
I0925 23:49:50.926331 21318 net.cpp:91] Creating Layer bn4
I0925 23:49:50.926335 21318 net.cpp:469] bn4 <- conv4
I0925 23:49:50.926342 21318 net.cpp:430] bn4 -> conv4 (in-place)
I0925 23:49:50.926641 21318 net.cpp:141] Setting up bn4
I0925 23:49:50.926653 21318 net.cpp:148] Top shape: 1 64 104 104 (692224)
I0925 23:49:50.926658 21318 net.cpp:156] Memory required for data: 170979928
I0925 23:49:50.926667 21318 layer_factory.hpp:77] Creating layer scale4
I0925 23:49:50.926674 21318 net.cpp:91] Creating Layer scale4
I0925 23:49:50.926678 21318 net.cpp:469] scale4 <- conv4
I0925 23:49:50.926683 21318 net.cpp:430] scale4 -> conv4 (in-place)
I0925 23:49:50.926736 21318 layer_factory.hpp:77] Creating layer scale4
I0925 23:49:50.926944 21318 net.cpp:141] Setting up scale4
I0925 23:49:50.926961 21318 net.cpp:148] Top shape: 1 64 104 104 (692224)
I0925 23:49:50.926965 21318 net.cpp:156] Memory required for data: 173748824
I0925 23:49:50.926973 21318 layer_factory.hpp:77] Creating layer relu4
I0925 23:49:50.926980 21318 net.cpp:91] Creating Layer relu4
I0925 23:49:50.926985 21318 net.cpp:469] relu4 <- conv4
I0925 23:49:50.926990 21318 net.cpp:430] relu4 -> conv4 (in-place)
I0925 23:49:50.927465 21318 net.cpp:141] Setting up relu4
I0925 23:49:50.927489 21318 net.cpp:148] Top shape: 1 64 104 104 (692224)
I0925 23:49:50.927492 21318 net.cpp:156] Memory required for data: 176517720
I0925 23:49:50.927497 21318 layer_factory.hpp:77] Creating layer conv5
I0925 23:49:50.927515 21318 net.cpp:91] Creating Layer conv5
I0925 23:49:50.927520 21318 net.cpp:469] conv5 <- conv4
I0925 23:49:50.927527 21318 net.cpp:443] conv5 -> conv5
I0925 23:49:50.930196 21318 net.cpp:141] Setting up conv5
I0925 23:49:50.930239 21318 net.cpp:148] Top shape: 1 128 104 104 (1384448)
I0925 23:49:50.930244 21318 net.cpp:156] Memory required for data: 182055512
I0925 23:49:50.930253 21318 layer_factory.hpp:77] Creating layer bn5
I0925 23:49:50.930264 21318 net.cpp:91] Creating Layer bn5
I0925 23:49:50.930269 21318 net.cpp:469] bn5 <- conv5
I0925 23:49:50.930277 21318 net.cpp:430] bn5 -> conv5 (in-place)
I0925 23:49:50.930579 21318 net.cpp:141] Setting up bn5
I0925 23:49:50.930620 21318 net.cpp:148] Top shape: 1 128 104 104 (1384448)
I0925 23:49:50.930629 21318 net.cpp:156] Memory required for data: 187593304
I0925 23:49:50.930640 21318 layer_factory.hpp:77] Creating layer scale5
I0925 23:49:50.930650 21318 net.cpp:91] Creating Layer scale5
I0925 23:49:50.930655 21318 net.cpp:469] scale5 <- conv5
I0925 23:49:50.930660 21318 net.cpp:430] scale5 -> conv5 (in-place)
I0925 23:49:50.930717 21318 layer_factory.hpp:77] Creating layer scale5
I0925 23:49:50.930917 21318 net.cpp:141] Setting up scale5
I0925 23:49:50.930930 21318 net.cpp:148] Top shape: 1 128 104 104 (1384448)
I0925 23:49:50.930934 21318 net.cpp:156] Memory required for data: 193131096
I0925 23:49:50.930943 21318 layer_factory.hpp:77] Creating layer relu5
I0925 23:49:50.930949 21318 net.cpp:91] Creating Layer relu5
I0925 23:49:50.930953 21318 net.cpp:469] relu5 <- conv5
I0925 23:49:50.930963 21318 net.cpp:430] relu5 -> conv5 (in-place)
I0925 23:49:50.931219 21318 net.cpp:141] Setting up relu5
I0925 23:49:50.931270 21318 net.cpp:148] Top shape: 1 128 104 104 (1384448)
I0925 23:49:50.931289 21318 net.cpp:156] Memory required for data: 198668888
I0925 23:49:50.931304 21318 layer_factory.hpp:77] Creating layer pool5
I0925 23:49:50.931324 21318 net.cpp:91] Creating Layer pool5
I0925 23:49:50.931337 21318 net.cpp:469] pool5 <- conv5
I0925 23:49:50.931358 21318 net.cpp:443] pool5 -> pool5
I0925 23:49:50.931443 21318 net.cpp:141] Setting up pool5
I0925 23:49:50.931455 21318 net.cpp:148] Top shape: 1 128 52 52 (346112)
I0925 23:49:50.931462 21318 net.cpp:156] Memory required for data: 200053336
I0925 23:49:50.931465 21318 layer_factory.hpp:77] Creating layer conv6
I0925 23:49:50.931478 21318 net.cpp:91] Creating Layer conv6
I0925 23:49:50.931481 21318 net.cpp:469] conv6 <- pool5
I0925 23:49:50.931488 21318 net.cpp:443] conv6 -> conv6
I0925 23:49:50.939697 21318 net.cpp:141] Setting up conv6
I0925 23:49:50.939785 21318 net.cpp:148] Top shape: 1 256 52 52 (692224)
I0925 23:49:50.939806 21318 net.cpp:156] Memory required for data: 202822232
I0925 23:49:50.939834 21318 layer_factory.hpp:77] Creating layer bn6
I0925 23:49:50.939862 21318 net.cpp:91] Creating Layer bn6
I0925 23:49:50.939880 21318 net.cpp:469] bn6 <- conv6
I0925 23:49:50.939906 21318 net.cpp:430] bn6 -> conv6 (in-place)
I0925 23:49:50.940237 21318 net.cpp:141] Setting up bn6
I0925 23:49:50.940263 21318 net.cpp:148] Top shape: 1 256 52 52 (692224)
I0925 23:49:50.940279 21318 net.cpp:156] Memory required for data: 205591128
I0925 23:49:50.940310 21318 layer_factory.hpp:77] Creating layer scale6
I0925 23:49:50.940337 21318 net.cpp:91] Creating Layer scale6
I0925 23:49:50.940354 21318 net.cpp:469] scale6 <- conv6
I0925 23:49:50.940373 21318 net.cpp:430] scale6 -> conv6 (in-place)
I0925 23:49:50.940448 21318 layer_factory.hpp:77] Creating layer scale6
I0925 23:49:50.940636 21318 net.cpp:141] Setting up scale6
I0925 23:49:50.940661 21318 net.cpp:148] Top shape: 1 256 52 52 (692224)
I0925 23:49:50.940678 21318 net.cpp:156] Memory required for data: 208360024
I0925 23:49:50.940701 21318 layer_factory.hpp:77] Creating layer relu6
I0925 23:49:50.940722 21318 net.cpp:91] Creating Layer relu6
I0925 23:49:50.940739 21318 net.cpp:469] relu6 <- conv6
I0925 23:49:50.940758 21318 net.cpp:430] relu6 -> conv6 (in-place)
I0925 23:49:50.941026 21318 net.cpp:141] Setting up relu6
I0925 23:49:50.941043 21318 net.cpp:148] Top shape: 1 256 52 52 (692224)
I0925 23:49:50.941047 21318 net.cpp:156] Memory required for data: 211128920
I0925 23:49:50.941052 21318 layer_factory.hpp:77] Creating layer conv7
I0925 23:49:50.941068 21318 net.cpp:91] Creating Layer conv7
I0925 23:49:50.941118 21318 net.cpp:469] conv7 <- conv6
I0925 23:49:50.941138 21318 net.cpp:443] conv7 -> conv7
I0925 23:49:50.945825 21318 net.cpp:141] Setting up conv7
I0925 23:49:50.945852 21318 net.cpp:148] Top shape: 1 128 52 52 (346112)
I0925 23:49:50.945858 21318 net.cpp:156] Memory required for data: 212513368
I0925 23:49:50.945868 21318 layer_factory.hpp:77] Creating layer bn7
I0925 23:49:50.945880 21318 net.cpp:91] Creating Layer bn7
I0925 23:49:50.945914 21318 net.cpp:469] bn7 <- conv7
I0925 23:49:50.945932 21318 net.cpp:430] bn7 -> conv7 (in-place)
I0925 23:49:50.946255 21318 net.cpp:141] Setting up bn7
I0925 23:49:50.946283 21318 net.cpp:148] Top shape: 1 128 52 52 (346112)
I0925 23:49:50.946307 21318 net.cpp:156] Memory required for data: 213897816
I0925 23:49:50.946352 21318 layer_factory.hpp:77] Creating layer scale7
I0925 23:49:50.946384 21318 net.cpp:91] Creating Layer scale7
I0925 23:49:50.946419 21318 net.cpp:469] scale7 <- conv7
I0925 23:49:50.946457 21318 net.cpp:430] scale7 -> conv7 (in-place)
I0925 23:49:50.946542 21318 layer_factory.hpp:77] Creating layer scale7
I0925 23:49:50.946748 21318 net.cpp:141] Setting up scale7
I0925 23:49:50.946780 21318 net.cpp:148] Top shape: 1 128 52 52 (346112)
I0925 23:49:50.946799 21318 net.cpp:156] Memory required for data: 215282264
I0925 23:49:50.946830 21318 layer_factory.hpp:77] Creating layer relu7
I0925 23:49:50.946859 21318 net.cpp:91] Creating Layer relu7
I0925 23:49:50.946877 21318 net.cpp:469] relu7 <- conv7
I0925 23:49:50.946900 21318 net.cpp:430] relu7 -> conv7 (in-place)
I0925 23:49:50.947680 21318 net.cpp:141] Setting up relu7
I0925 23:49:50.947713 21318 net.cpp:148] Top shape: 1 128 52 52 (346112)
I0925 23:49:50.947731 21318 net.cpp:156] Memory required for data: 216666712
I0925 23:49:50.947748 21318 layer_factory.hpp:77] Creating layer conv8
I0925 23:49:50.947782 21318 net.cpp:91] Creating Layer conv8
I0925 23:49:50.947800 21318 net.cpp:469] conv8 <- conv7
I0925 23:49:50.947821 21318 net.cpp:443] conv8 -> conv8
I0925 23:49:50.955786 21318 net.cpp:141] Setting up conv8
I0925 23:49:50.955862 21318 net.cpp:148] Top shape: 1 256 52 52 (692224)
I0925 23:49:50.955878 21318 net.cpp:156] Memory required for data: 219435608
I0925 23:49:50.955907 21318 layer_factory.hpp:77] Creating layer bn8
I0925 23:49:50.955936 21318 net.cpp:91] Creating Layer bn8
I0925 23:49:50.955955 21318 net.cpp:469] bn8 <- conv8
I0925 23:49:50.955978 21318 net.cpp:430] bn8 -> conv8 (in-place)
I0925 23:49:50.956316 21318 net.cpp:141] Setting up bn8
I0925 23:49:50.956346 21318 net.cpp:148] Top shape: 1 256 52 52 (692224)
I0925 23:49:50.956362 21318 net.cpp:156] Memory required for data: 222204504
I0925 23:49:50.956385 21318 layer_factory.hpp:77] Creating layer scale8
I0925 23:49:50.956408 21318 net.cpp:91] Creating Layer scale8
I0925 23:49:50.956423 21318 net.cpp:469] scale8 <- conv8
I0925 23:49:50.956442 21318 net.cpp:430] scale8 -> conv8 (in-place)
I0925 23:49:50.956516 21318 layer_factory.hpp:77] Creating layer scale8
I0925 23:49:50.956704 21318 net.cpp:141] Setting up scale8
I0925 23:49:50.956729 21318 net.cpp:148] Top shape: 1 256 52 52 (692224)
I0925 23:49:50.956746 21318 net.cpp:156] Memory required for data: 224973400
I0925 23:49:50.956768 21318 layer_factory.hpp:77] Creating layer relu8
I0925 23:49:50.956789 21318 net.cpp:91] Creating Layer relu8
I0925 23:49:50.956805 21318 net.cpp:469] relu8 <- conv8
I0925 23:49:50.956825 21318 net.cpp:430] relu8 -> conv8 (in-place)
I0925 23:49:50.957335 21318 net.cpp:141] Setting up relu8
I0925 23:49:50.957381 21318 net.cpp:148] Top shape: 1 256 52 52 (692224)
I0925 23:49:50.957397 21318 net.cpp:156] Memory required for data: 227742296
I0925 23:49:50.957415 21318 layer_factory.hpp:77] Creating layer pool8
I0925 23:49:50.957437 21318 net.cpp:91] Creating Layer pool8
I0925 23:49:50.957453 21318 net.cpp:469] pool8 <- conv8
I0925 23:49:50.957474 21318 net.cpp:443] pool8 -> pool8
I0925 23:49:50.957554 21318 net.cpp:141] Setting up pool8
I0925 23:49:50.957576 21318 net.cpp:148] Top shape: 1 256 26 26 (173056)
I0925 23:49:50.957613 21318 net.cpp:156] Memory required for data: 228434520
I0925 23:49:50.957628 21318 layer_factory.hpp:77] Creating layer conv9
I0925 23:49:50.957657 21318 net.cpp:91] Creating Layer conv9
I0925 23:49:50.957674 21318 net.cpp:469] conv9 <- pool8
I0925 23:49:50.957693 21318 net.cpp:443] conv9 -> conv9
I0925 23:49:50.982923 21318 net.cpp:141] Setting up conv9
I0925 23:49:50.982978 21318 net.cpp:148] Top shape: 1 512 26 26 (346112)
I0925 23:49:50.982985 21318 net.cpp:156] Memory required for data: 229818968
I0925 23:49:50.983006 21318 layer_factory.hpp:77] Creating layer bn9
I0925 23:49:50.983021 21318 net.cpp:91] Creating Layer bn9
I0925 23:49:50.983026 21318 net.cpp:469] bn9 <- conv9
I0925 23:49:50.983038 21318 net.cpp:430] bn9 -> conv9 (in-place)
I0925 23:49:50.983367 21318 net.cpp:141] Setting up bn9
I0925 23:49:50.983381 21318 net.cpp:148] Top shape: 1 512 26 26 (346112)
I0925 23:49:50.983384 21318 net.cpp:156] Memory required for data: 231203416
I0925 23:49:50.983397 21318 layer_factory.hpp:77] Creating layer scale9
I0925 23:49:50.983405 21318 net.cpp:91] Creating Layer scale9
I0925 23:49:50.983409 21318 net.cpp:469] scale9 <- conv9
I0925 23:49:50.983415 21318 net.cpp:430] scale9 -> conv9 (in-place)
I0925 23:49:50.983476 21318 layer_factory.hpp:77] Creating layer scale9
I0925 23:49:50.983649 21318 net.cpp:141] Setting up scale9
I0925 23:49:50.983661 21318 net.cpp:148] Top shape: 1 512 26 26 (346112)
I0925 23:49:50.983665 21318 net.cpp:156] Memory required for data: 232587864
I0925 23:49:50.983674 21318 layer_factory.hpp:77] Creating layer relu9
I0925 23:49:50.983685 21318 net.cpp:91] Creating Layer relu9
I0925 23:49:50.983745 21318 net.cpp:469] relu9 <- conv9
I0925 23:49:50.983757 21318 net.cpp:430] relu9 -> conv9 (in-place)
I0925 23:49:50.984794 21318 net.cpp:141] Setting up relu9
I0925 23:49:50.984813 21318 net.cpp:148] Top shape: 1 512 26 26 (346112)
I0925 23:49:50.984817 21318 net.cpp:156] Memory required for data: 233972312
I0925 23:49:50.984822 21318 layer_factory.hpp:77] Creating layer conv10
I0925 23:49:50.984839 21318 net.cpp:91] Creating Layer conv10
I0925 23:49:50.984843 21318 net.cpp:469] conv10 <- conv9
I0925 23:49:50.984853 21318 net.cpp:443] conv10 -> conv10
I0925 23:49:50.991752 21318 net.cpp:141] Setting up conv10
I0925 23:49:50.991776 21318 net.cpp:148] Top shape: 1 256 26 26 (173056)
I0925 23:49:50.991788 21318 net.cpp:156] Memory required for data: 234664536
I0925 23:49:50.991797 21318 layer_factory.hpp:77] Creating layer bn10
I0925 23:49:50.991809 21318 net.cpp:91] Creating Layer bn10
I0925 23:49:50.991814 21318 net.cpp:469] bn10 <- conv10
I0925 23:49:50.991823 21318 net.cpp:430] bn10 -> conv10 (in-place)
I0925 23:49:50.992121 21318 net.cpp:141] Setting up bn10
I0925 23:49:50.992136 21318 net.cpp:148] Top shape: 1 256 26 26 (173056)
I0925 23:49:50.992139 21318 net.cpp:156] Memory required for data: 235356760
I0925 23:49:50.992149 21318 layer_factory.hpp:77] Creating layer scale10
I0925 23:49:50.992157 21318 net.cpp:91] Creating Layer scale10
I0925 23:49:50.992161 21318 net.cpp:469] scale10 <- conv10
I0925 23:49:50.992169 21318 net.cpp:430] scale10 -> conv10 (in-place)
I0925 23:49:50.992218 21318 layer_factory.hpp:77] Creating layer scale10
I0925 23:49:50.992385 21318 net.cpp:141] Setting up scale10
I0925 23:49:50.992398 21318 net.cpp:148] Top shape: 1 256 26 26 (173056)
I0925 23:49:50.992403 21318 net.cpp:156] Memory required for data: 236048984
I0925 23:49:50.992410 21318 layer_factory.hpp:77] Creating layer relu10
I0925 23:49:50.992416 21318 net.cpp:91] Creating Layer relu10
I0925 23:49:50.992420 21318 net.cpp:469] relu10 <- conv10
I0925 23:49:50.992426 21318 net.cpp:430] relu10 -> conv10 (in-place)
I0925 23:49:50.993916 21318 net.cpp:141] Setting up relu10
I0925 23:49:50.993937 21318 net.cpp:148] Top shape: 1 256 26 26 (173056)
I0925 23:49:50.993942 21318 net.cpp:156] Memory required for data: 236741208
I0925 23:49:50.993945 21318 layer_factory.hpp:77] Creating layer conv11
I0925 23:49:50.993959 21318 net.cpp:91] Creating Layer conv11
I0925 23:49:50.993964 21318 net.cpp:469] conv11 <- conv10
I0925 23:49:50.994001 21318 net.cpp:443] conv11 -> conv11
I0925 23:49:51.017951 21318 net.cpp:141] Setting up conv11
I0925 23:49:51.018066 21318 net.cpp:148] Top shape: 1 512 26 26 (346112)
I0925 23:49:51.018085 21318 net.cpp:156] Memory required for data: 238125656
I0925 23:49:51.018116 21318 layer_factory.hpp:77] Creating layer bn11
I0925 23:49:51.018144 21318 net.cpp:91] Creating Layer bn11
I0925 23:49:51.018168 21318 net.cpp:469] bn11 <- conv11
I0925 23:49:51.018193 21318 net.cpp:430] bn11 -> conv11 (in-place)
I0925 23:49:51.018546 21318 net.cpp:141] Setting up bn11
I0925 23:49:51.018573 21318 net.cpp:148] Top shape: 1 512 26 26 (346112)
I0925 23:49:51.018590 21318 net.cpp:156] Memory required for data: 239510104
I0925 23:49:51.018615 21318 layer_factory.hpp:77] Creating layer scale11
I0925 23:49:51.018638 21318 net.cpp:91] Creating Layer scale11
I0925 23:49:51.018656 21318 net.cpp:469] scale11 <- conv11
I0925 23:49:51.018674 21318 net.cpp:430] scale11 -> conv11 (in-place)
I0925 23:49:51.018754 21318 layer_factory.hpp:77] Creating layer scale11
I0925 23:49:51.018959 21318 net.cpp:141] Setting up scale11
I0925 23:49:51.018973 21318 net.cpp:148] Top shape: 1 512 26 26 (346112)
I0925 23:49:51.018977 21318 net.cpp:156] Memory required for data: 240894552
I0925 23:49:51.019004 21318 layer_factory.hpp:77] Creating layer relu11
I0925 23:49:51.019035 21318 net.cpp:91] Creating Layer relu11
I0925 23:49:51.019052 21318 net.cpp:469] relu11 <- conv11
I0925 23:49:51.019071 21318 net.cpp:430] relu11 -> conv11 (in-place)
I0925 23:49:51.019594 21318 net.cpp:141] Setting up relu11
I0925 23:49:51.019639 21318 net.cpp:148] Top shape: 1 512 26 26 (346112)
I0925 23:49:51.019656 21318 net.cpp:156] Memory required for data: 242279000
I0925 23:49:51.019673 21318 layer_factory.hpp:77] Creating layer conv12
I0925 23:49:51.019701 21318 net.cpp:91] Creating Layer conv12
I0925 23:49:51.019716 21318 net.cpp:469] conv12 <- conv11
I0925 23:49:51.019737 21318 net.cpp:443] conv12 -> conv12
I0925 23:49:51.023268 21318 net.cpp:141] Setting up conv12
I0925 23:49:51.023319 21318 net.cpp:148] Top shape: 1 256 26 26 (173056)
I0925 23:49:51.023335 21318 net.cpp:156] Memory required for data: 242971224
I0925 23:49:51.023358 21318 layer_factory.hpp:77] Creating layer bn12
I0925 23:49:51.023383 21318 net.cpp:91] Creating Layer bn12
I0925 23:49:51.023398 21318 net.cpp:469] bn12 <- conv12
I0925 23:49:51.023421 21318 net.cpp:430] bn12 -> conv12 (in-place)
I0925 23:49:51.023751 21318 net.cpp:141] Setting up bn12
I0925 23:49:51.023774 21318 net.cpp:148] Top shape: 1 256 26 26 (173056)
I0925 23:49:51.023790 21318 net.cpp:156] Memory required for data: 243663448
I0925 23:49:51.023814 21318 layer_factory.hpp:77] Creating layer scale12
I0925 23:49:51.023836 21318 net.cpp:91] Creating Layer scale12
I0925 23:49:51.023854 21318 net.cpp:469] scale12 <- conv12
I0925 23:49:51.023869 21318 net.cpp:430] scale12 -> conv12 (in-place)
I0925 23:49:51.023942 21318 layer_factory.hpp:77] Creating layer scale12
I0925 23:49:51.024132 21318 net.cpp:141] Setting up scale12
I0925 23:49:51.024155 21318 net.cpp:148] Top shape: 1 256 26 26 (173056)
I0925 23:49:51.024171 21318 net.cpp:156] Memory required for data: 244355672
I0925 23:49:51.024193 21318 layer_factory.hpp:77] Creating layer relu12
I0925 23:49:51.024212 21318 net.cpp:91] Creating Layer relu12
I0925 23:49:51.024228 21318 net.cpp:469] relu12 <- conv12
I0925 23:49:51.024250 21318 net.cpp:430] relu12 -> conv12 (in-place)
I0925 23:49:51.024528 21318 net.cpp:141] Setting up relu12
I0925 23:49:51.024560 21318 net.cpp:148] Top shape: 1 256 26 26 (173056)
I0925 23:49:51.024577 21318 net.cpp:156] Memory required for data: 245047896
I0925 23:49:51.024595 21318 layer_factory.hpp:77] Creating layer conv13
I0925 23:49:51.024619 21318 net.cpp:91] Creating Layer conv13
I0925 23:49:51.024636 21318 net.cpp:469] conv13 <- conv12
I0925 23:49:51.024657 21318 net.cpp:443] conv13 -> conv13
I0925 23:49:51.051005 21318 net.cpp:141] Setting up conv13
I0925 23:49:51.051062 21318 net.cpp:148] Top shape: 1 512 26 26 (346112)
I0925 23:49:51.051067 21318 net.cpp:156] Memory required for data: 246432344
I0925 23:49:51.051118 21318 layer_factory.hpp:77] Creating layer bn13
I0925 23:49:51.051141 21318 net.cpp:91] Creating Layer bn13
I0925 23:49:51.051148 21318 net.cpp:469] bn13 <- conv13
I0925 23:49:51.051157 21318 net.cpp:430] bn13 -> conv13 (in-place)
I0925 23:49:51.051499 21318 net.cpp:141] Setting up bn13
I0925 23:49:51.051513 21318 net.cpp:148] Top shape: 1 512 26 26 (346112)
I0925 23:49:51.051518 21318 net.cpp:156] Memory required for data: 247816792
I0925 23:49:51.051530 21318 layer_factory.hpp:77] Creating layer scale13
I0925 23:49:51.051542 21318 net.cpp:91] Creating Layer scale13
I0925 23:49:51.051546 21318 net.cpp:469] scale13 <- conv13
I0925 23:49:51.051553 21318 net.cpp:430] scale13 -> conv13 (in-place)
I0925 23:49:51.051612 21318 layer_factory.hpp:77] Creating layer scale13
I0925 23:49:51.051851 21318 net.cpp:141] Setting up scale13
I0925 23:49:51.051867 21318 net.cpp:148] Top shape: 1 512 26 26 (346112)
I0925 23:49:51.051870 21318 net.cpp:156] Memory required for data: 249201240
I0925 23:49:51.051878 21318 layer_factory.hpp:77] Creating layer relu13
I0925 23:49:51.051889 21318 net.cpp:91] Creating Layer relu13
I0925 23:49:51.051894 21318 net.cpp:469] relu13 <- conv13
I0925 23:49:51.051900 21318 net.cpp:430] relu13 -> conv13 (in-place)
I0925 23:49:51.052889 21318 net.cpp:141] Setting up relu13
I0925 23:49:51.052906 21318 net.cpp:148] Top shape: 1 512 26 26 (346112)
I0925 23:49:51.052911 21318 net.cpp:156] Memory required for data: 250585688
I0925 23:49:51.052915 21318 layer_factory.hpp:77] Creating layer conv13_relu13_0_split
I0925 23:49:51.052927 21318 net.cpp:91] Creating Layer conv13_relu13_0_split
I0925 23:49:51.052930 21318 net.cpp:469] conv13_relu13_0_split <- conv13
I0925 23:49:51.052939 21318 net.cpp:443] conv13_relu13_0_split -> conv13_relu13_0_split_0
I0925 23:49:51.052953 21318 net.cpp:443] conv13_relu13_0_split -> conv13_relu13_0_split_1
I0925 23:49:51.053014 21318 net.cpp:141] Setting up conv13_relu13_0_split
I0925 23:49:51.053030 21318 net.cpp:148] Top shape: 1 512 26 26 (346112)
I0925 23:49:51.053035 21318 net.cpp:148] Top shape: 1 512 26 26 (346112)
I0925 23:49:51.053038 21318 net.cpp:156] Memory required for data: 253354584
I0925 23:49:51.053043 21318 layer_factory.hpp:77] Creating layer pool13
I0925 23:49:51.053050 21318 net.cpp:91] Creating Layer pool13
I0925 23:49:51.053056 21318 net.cpp:469] pool13 <- conv13_relu13_0_split_0
I0925 23:49:51.053061 21318 net.cpp:443] pool13 -> pool13
I0925 23:49:51.053117 21318 net.cpp:141] Setting up pool13
I0925 23:49:51.053131 21318 net.cpp:148] Top shape: 1 512 13 13 (86528)
I0925 23:49:51.053135 21318 net.cpp:156] Memory required for data: 253700696
I0925 23:49:51.053139 21318 layer_factory.hpp:77] Creating layer conv14
I0925 23:49:51.053153 21318 net.cpp:91] Creating Layer conv14
I0925 23:49:51.053158 21318 net.cpp:469] conv14 <- pool13
I0925 23:49:51.053166 21318 net.cpp:443] conv14 -> conv14
I0925 23:49:51.144438 21318 net.cpp:141] Setting up conv14
I0925 23:49:51.144492 21318 net.cpp:148] Top shape: 1 1024 13 13 (173056)
I0925 23:49:51.144497 21318 net.cpp:156] Memory required for data: 254392920
I0925 23:49:51.144515 21318 layer_factory.hpp:77] Creating layer bn14
I0925 23:49:51.144532 21318 net.cpp:91] Creating Layer bn14
I0925 23:49:51.144541 21318 net.cpp:469] bn14 <- conv14
I0925 23:49:51.144551 21318 net.cpp:430] bn14 -> conv14 (in-place)
I0925 23:49:51.144912 21318 net.cpp:141] Setting up bn14
I0925 23:49:51.144923 21318 net.cpp:148] Top shape: 1 1024 13 13 (173056)
I0925 23:49:51.144927 21318 net.cpp:156] Memory required for data: 255085144
I0925 23:49:51.144938 21318 layer_factory.hpp:77] Creating layer scale14
I0925 23:49:51.144946 21318 net.cpp:91] Creating Layer scale14
I0925 23:49:51.144953 21318 net.cpp:469] scale14 <- conv14
I0925 23:49:51.144959 21318 net.cpp:430] scale14 -> conv14 (in-place)
I0925 23:49:51.145015 21318 layer_factory.hpp:77] Creating layer scale14
I0925 23:49:51.145198 21318 net.cpp:141] Setting up scale14
I0925 23:49:51.145210 21318 net.cpp:148] Top shape: 1 1024 13 13 (173056)
I0925 23:49:51.145248 21318 net.cpp:156] Memory required for data: 255777368
I0925 23:49:51.145257 21318 layer_factory.hpp:77] Creating layer relu14
I0925 23:49:51.145268 21318 net.cpp:91] Creating Layer relu14
I0925 23:49:51.145272 21318 net.cpp:469] relu14 <- conv14
I0925 23:49:51.145280 21318 net.cpp:430] relu14 -> conv14 (in-place)
I0925 23:49:51.145782 21318 net.cpp:141] Setting up relu14
I0925 23:49:51.145805 21318 net.cpp:148] Top shape: 1 1024 13 13 (173056)
I0925 23:49:51.145810 21318 net.cpp:156] Memory required for data: 256469592
I0925 23:49:51.145815 21318 layer_factory.hpp:77] Creating layer conv15
I0925 23:49:51.145831 21318 net.cpp:91] Creating Layer conv15
I0925 23:49:51.145839 21318 net.cpp:469] conv15 <- conv14
I0925 23:49:51.145848 21318 net.cpp:443] conv15 -> conv15
I0925 23:49:51.157428 21318 net.cpp:141] Setting up conv15
I0925 23:49:51.157480 21318 net.cpp:148] Top shape: 1 512 13 13 (86528)
I0925 23:49:51.157485 21318 net.cpp:156] Memory required for data: 256815704
I0925 23:49:51.157501 21318 layer_factory.hpp:77] Creating layer bn15
I0925 23:49:51.157534 21318 net.cpp:91] Creating Layer bn15
I0925 23:49:51.157543 21318 net.cpp:469] bn15 <- conv15
I0925 23:49:51.157553 21318 net.cpp:430] bn15 -> conv15 (in-place)
I0925 23:49:51.157884 21318 net.cpp:141] Setting up bn15
I0925 23:49:51.157896 21318 net.cpp:148] Top shape: 1 512 13 13 (86528)
I0925 23:49:51.157901 21318 net.cpp:156] Memory required for data: 257161816
I0925 23:49:51.157910 21318 layer_factory.hpp:77] Creating layer scale15
I0925 23:49:51.157923 21318 net.cpp:91] Creating Layer scale15
I0925 23:49:51.157927 21318 net.cpp:469] scale15 <- conv15
I0925 23:49:51.157938 21318 net.cpp:430] scale15 -> conv15 (in-place)
I0925 23:49:51.157994 21318 layer_factory.hpp:77] Creating layer scale15
I0925 23:49:51.158181 21318 net.cpp:141] Setting up scale15
I0925 23:49:51.158192 21318 net.cpp:148] Top shape: 1 512 13 13 (86528)
I0925 23:49:51.158196 21318 net.cpp:156] Memory required for data: 257507928
I0925 23:49:51.158205 21318 layer_factory.hpp:77] Creating layer relu15
I0925 23:49:51.158216 21318 net.cpp:91] Creating Layer relu15
I0925 23:49:51.158221 21318 net.cpp:469] relu15 <- conv15
I0925 23:49:51.158227 21318 net.cpp:430] relu15 -> conv15 (in-place)
I0925 23:49:51.158484 21318 net.cpp:141] Setting up relu15
I0925 23:49:51.158499 21318 net.cpp:148] Top shape: 1 512 13 13 (86528)
I0925 23:49:51.158504 21318 net.cpp:156] Memory required for data: 257854040
I0925 23:49:51.158509 21318 layer_factory.hpp:77] Creating layer conv16
I0925 23:49:51.158524 21318 net.cpp:91] Creating Layer conv16
I0925 23:49:51.158531 21318 net.cpp:469] conv16 <- conv15
I0925 23:49:51.158540 21318 net.cpp:443] conv16 -> conv16
I0925 23:49:51.251343 21318 net.cpp:141] Setting up conv16
I0925 23:49:51.251399 21318 net.cpp:148] Top shape: 1 1024 13 13 (173056)
I0925 23:49:51.251404 21318 net.cpp:156] Memory required for data: 258546264
I0925 23:49:51.251420 21318 layer_factory.hpp:77] Creating layer bn16
I0925 23:49:51.251443 21318 net.cpp:91] Creating Layer bn16
I0925 23:49:51.251451 21318 net.cpp:469] bn16 <- conv16
I0925 23:49:51.251462 21318 net.cpp:430] bn16 -> conv16 (in-place)
I0925 23:49:51.251819 21318 net.cpp:141] Setting up bn16
I0925 23:49:51.251832 21318 net.cpp:148] Top shape: 1 1024 13 13 (173056)
I0925 23:49:51.251835 21318 net.cpp:156] Memory required for data: 259238488
I0925 23:49:51.251845 21318 layer_factory.hpp:77] Creating layer scale16
I0925 23:49:51.251857 21318 net.cpp:91] Creating Layer scale16
I0925 23:49:51.251865 21318 net.cpp:469] scale16 <- conv16
I0925 23:49:51.251871 21318 net.cpp:430] scale16 -> conv16 (in-place)
I0925 23:49:51.251927 21318 layer_factory.hpp:77] Creating layer scale16
I0925 23:49:51.252112 21318 net.cpp:141] Setting up scale16
I0925 23:49:51.252125 21318 net.cpp:148] Top shape: 1 1024 13 13 (173056)
I0925 23:49:51.252128 21318 net.cpp:156] Memory required for data: 259930712
I0925 23:49:51.252136 21318 layer_factory.hpp:77] Creating layer relu16
I0925 23:49:51.252146 21318 net.cpp:91] Creating Layer relu16
I0925 23:49:51.252192 21318 net.cpp:469] relu16 <- conv16
I0925 23:49:51.252202 21318 net.cpp:430] relu16 -> conv16 (in-place)
I0925 23:49:51.253226 21318 net.cpp:141] Setting up relu16
I0925 23:49:51.253244 21318 net.cpp:148] Top shape: 1 1024 13 13 (173056)
I0925 23:49:51.253249 21318 net.cpp:156] Memory required for data: 260622936
I0925 23:49:51.253254 21318 layer_factory.hpp:77] Creating layer conv17
I0925 23:49:51.253273 21318 net.cpp:91] Creating Layer conv17
I0925 23:49:51.253279 21318 net.cpp:469] conv17 <- conv16
I0925 23:49:51.253291 21318 net.cpp:443] conv17 -> conv17
I0925 23:49:51.264663 21318 net.cpp:141] Setting up conv17
I0925 23:49:51.264716 21318 net.cpp:148] Top shape: 1 512 13 13 (86528)
I0925 23:49:51.264721 21318 net.cpp:156] Memory required for data: 260969048
I0925 23:49:51.264739 21318 layer_factory.hpp:77] Creating layer bn17
I0925 23:49:51.264755 21318 net.cpp:91] Creating Layer bn17
I0925 23:49:51.264761 21318 net.cpp:469] bn17 <- conv17
I0925 23:49:51.264780 21318 net.cpp:430] bn17 -> conv17 (in-place)
I0925 23:49:51.265122 21318 net.cpp:141] Setting up bn17
I0925 23:49:51.265133 21318 net.cpp:148] Top shape: 1 512 13 13 (86528)
I0925 23:49:51.265138 21318 net.cpp:156] Memory required for data: 261315160
I0925 23:49:51.265148 21318 layer_factory.hpp:77] Creating layer scale17
I0925 23:49:51.265159 21318 net.cpp:91] Creating Layer scale17
I0925 23:49:51.265167 21318 net.cpp:469] scale17 <- conv17
I0925 23:49:51.265173 21318 net.cpp:430] scale17 -> conv17 (in-place)
I0925 23:49:51.265228 21318 layer_factory.hpp:77] Creating layer scale17
I0925 23:49:51.265413 21318 net.cpp:141] Setting up scale17
I0925 23:49:51.265424 21318 net.cpp:148] Top shape: 1 512 13 13 (86528)
I0925 23:49:51.265429 21318 net.cpp:156] Memory required for data: 261661272
I0925 23:49:51.265437 21318 layer_factory.hpp:77] Creating layer relu17
I0925 23:49:51.265449 21318 net.cpp:91] Creating Layer relu17
I0925 23:49:51.265455 21318 net.cpp:469] relu17 <- conv17
I0925 23:49:51.265461 21318 net.cpp:430] relu17 -> conv17 (in-place)
I0925 23:49:51.265719 21318 net.cpp:141] Setting up relu17
I0925 23:49:51.265735 21318 net.cpp:148] Top shape: 1 512 13 13 (86528)
I0925 23:49:51.265740 21318 net.cpp:156] Memory required for data: 262007384
I0925 23:49:51.265744 21318 layer_factory.hpp:77] Creating layer conv18
I0925 23:49:51.265758 21318 net.cpp:91] Creating Layer conv18
I0925 23:49:51.265763 21318 net.cpp:469] conv18 <- conv17
I0925 23:49:51.265774 21318 net.cpp:443] conv18 -> conv18
I0925 23:49:51.359287 21318 net.cpp:141] Setting up conv18
I0925 23:49:51.359342 21318 net.cpp:148] Top shape: 1 1024 13 13 (173056)
I0925 23:49:51.359347 21318 net.cpp:156] Memory required for data: 262699608
I0925 23:49:51.359366 21318 layer_factory.hpp:77] Creating layer bn18
I0925 23:49:51.359385 21318 net.cpp:91] Creating Layer bn18
I0925 23:49:51.359395 21318 net.cpp:469] bn18 <- conv18
I0925 23:49:51.359405 21318 net.cpp:430] bn18 -> conv18 (in-place)
I0925 23:49:51.359763 21318 net.cpp:141] Setting up bn18
I0925 23:49:51.359776 21318 net.cpp:148] Top shape: 1 1024 13 13 (173056)
I0925 23:49:51.359779 21318 net.cpp:156] Memory required for data: 263391832
I0925 23:49:51.359791 21318 layer_factory.hpp:77] Creating layer scale18
I0925 23:49:51.359804 21318 net.cpp:91] Creating Layer scale18
I0925 23:49:51.359812 21318 net.cpp:469] scale18 <- conv18
I0925 23:49:51.359817 21318 net.cpp:430] scale18 -> conv18 (in-place)
I0925 23:49:51.359880 21318 layer_factory.hpp:77] Creating layer scale18
I0925 23:49:51.360069 21318 net.cpp:141] Setting up scale18
I0925 23:49:51.360080 21318 net.cpp:148] Top shape: 1 1024 13 13 (173056)
I0925 23:49:51.360085 21318 net.cpp:156] Memory required for data: 264084056
I0925 23:49:51.360096 21318 layer_factory.hpp:77] Creating layer relu18
I0925 23:49:51.360106 21318 net.cpp:91] Creating Layer relu18
I0925 23:49:51.360110 21318 net.cpp:469] relu18 <- conv18
I0925 23:49:51.360116 21318 net.cpp:430] relu18 -> conv18 (in-place)
I0925 23:49:51.361176 21318 net.cpp:141] Setting up relu18
I0925 23:49:51.361202 21318 net.cpp:148] Top shape: 1 1024 13 13 (173056)
I0925 23:49:51.361243 21318 net.cpp:156] Memory required for data: 264776280
I0925 23:49:51.361249 21318 layer_factory.hpp:77] Creating layer conv19
I0925 23:49:51.361265 21318 net.cpp:91] Creating Layer conv19
I0925 23:49:51.361274 21318 net.cpp:469] conv19 <- conv18
I0925 23:49:51.361284 21318 net.cpp:443] conv19 -> conv19
I0925 23:49:51.539898 21318 net.cpp:141] Setting up conv19
I0925 23:49:51.539954 21318 net.cpp:148] Top shape: 1 1024 13 13 (173056)
I0925 23:49:51.539959 21318 net.cpp:156] Memory required for data: 265468504
I0925 23:49:51.539975 21318 layer_factory.hpp:77] Creating layer bn19
I0925 23:49:51.539994 21318 net.cpp:91] Creating Layer bn19
I0925 23:49:51.539999 21318 net.cpp:469] bn19 <- conv19
I0925 23:49:51.540011 21318 net.cpp:430] bn19 -> conv19 (in-place)
I0925 23:49:51.540366 21318 net.cpp:141] Setting up bn19
I0925 23:49:51.540380 21318 net.cpp:148] Top shape: 1 1024 13 13 (173056)
I0925 23:49:51.540385 21318 net.cpp:156] Memory required for data: 266160728
I0925 23:49:51.540395 21318 layer_factory.hpp:77] Creating layer scale19
I0925 23:49:51.540403 21318 net.cpp:91] Creating Layer scale19
I0925 23:49:51.540407 21318 net.cpp:469] scale19 <- conv19
I0925 23:49:51.540416 21318 net.cpp:430] scale19 -> conv19 (in-place)
I0925 23:49:51.540474 21318 layer_factory.hpp:77] Creating layer scale19
I0925 23:49:51.540663 21318 net.cpp:141] Setting up scale19
I0925 23:49:51.540674 21318 net.cpp:148] Top shape: 1 1024 13 13 (173056)
I0925 23:49:51.540679 21318 net.cpp:156] Memory required for data: 266852952
I0925 23:49:51.540686 21318 layer_factory.hpp:77] Creating layer relu19
I0925 23:49:51.540696 21318 net.cpp:91] Creating Layer relu19
I0925 23:49:51.540701 21318 net.cpp:469] relu19 <- conv19
I0925 23:49:51.540709 21318 net.cpp:430] relu19 -> conv19 (in-place)
I0925 23:49:51.540973 21318 net.cpp:141] Setting up relu19
I0925 23:49:51.540993 21318 net.cpp:148] Top shape: 1 1024 13 13 (173056)
I0925 23:49:51.540997 21318 net.cpp:156] Memory required for data: 267545176
I0925 23:49:51.541002 21318 layer_factory.hpp:77] Creating layer conv20
I0925 23:49:51.541020 21318 net.cpp:91] Creating Layer conv20
I0925 23:49:51.541025 21318 net.cpp:469] conv20 <- conv19
I0925 23:49:51.541034 21318 net.cpp:443] conv20 -> conv20
I0925 23:49:51.720953 21318 net.cpp:141] Setting up conv20
I0925 23:49:51.721011 21318 net.cpp:148] Top shape: 1 1024 13 13 (173056)
I0925 23:49:51.721016 21318 net.cpp:156] Memory required for data: 268237400
I0925 23:49:51.721035 21318 layer_factory.hpp:77] Creating layer bn20
I0925 23:49:51.721053 21318 net.cpp:91] Creating Layer bn20
I0925 23:49:51.721060 21318 net.cpp:469] bn20 <- conv20
I0925 23:49:51.721073 21318 net.cpp:430] bn20 -> conv20 (in-place)
I0925 23:49:51.721437 21318 net.cpp:141] Setting up bn20
I0925 23:49:51.721449 21318 net.cpp:148] Top shape: 1 1024 13 13 (173056)
I0925 23:49:51.721453 21318 net.cpp:156] Memory required for data: 268929624
I0925 23:49:51.721469 21318 layer_factory.hpp:77] Creating layer scale20
I0925 23:49:51.721482 21318 net.cpp:91] Creating Layer scale20
I0925 23:49:51.721485 21318 net.cpp:469] scale20 <- conv20
I0925 23:49:51.721491 21318 net.cpp:430] scale20 -> conv20 (in-place)
I0925 23:49:51.721551 21318 layer_factory.hpp:77] Creating layer scale20
I0925 23:49:51.721738 21318 net.cpp:141] Setting up scale20
I0925 23:49:51.721748 21318 net.cpp:148] Top shape: 1 1024 13 13 (173056)
I0925 23:49:51.721752 21318 net.cpp:156] Memory required for data: 269621848
I0925 23:49:51.721760 21318 layer_factory.hpp:77] Creating layer relu20
I0925 23:49:51.721771 21318 net.cpp:91] Creating Layer relu20
I0925 23:49:51.721777 21318 net.cpp:469] relu20 <- conv20
I0925 23:49:51.721786 21318 net.cpp:430] relu20 -> conv20 (in-place)
I0925 23:49:51.722059 21318 net.cpp:141] Setting up relu20
I0925 23:49:51.722079 21318 net.cpp:148] Top shape: 1 1024 13 13 (173056)
I0925 23:49:51.722082 21318 net.cpp:156] Memory required for data: 270314072
I0925 23:49:51.722090 21318 layer_factory.hpp:77] Creating layer conv24
I0925 23:49:51.722105 21318 net.cpp:91] Creating Layer conv24
I0925 23:49:51.722146 21318 net.cpp:469] conv24 <- conv13_relu13_0_split_1
I0925 23:49:51.722157 21318 net.cpp:443] conv24 -> conv24
I0925 23:49:51.724190 21318 net.cpp:141] Setting up conv24
I0925 23:49:51.724236 21318 net.cpp:148] Top shape: 1 64 26 26 (43264)
I0925 23:49:51.724241 21318 net.cpp:156] Memory required for data: 270487128
I0925 23:49:51.724252 21318 layer_factory.hpp:77] Creating layer bn24
I0925 23:49:51.724265 21318 net.cpp:91] Creating Layer bn24
I0925 23:49:51.724270 21318 net.cpp:469] bn24 <- conv24
I0925 23:49:51.724282 21318 net.cpp:430] bn24 -> conv24 (in-place)
I0925 23:49:51.724625 21318 net.cpp:141] Setting up bn24
I0925 23:49:51.724642 21318 net.cpp:148] Top shape: 1 64 26 26 (43264)
I0925 23:49:51.724645 21318 net.cpp:156] Memory required for data: 270660184
I0925 23:49:51.724655 21318 layer_factory.hpp:77] Creating layer scale24
I0925 23:49:51.724664 21318 net.cpp:91] Creating Layer scale24
I0925 23:49:51.724669 21318 net.cpp:469] scale24 <- conv24
I0925 23:49:51.724674 21318 net.cpp:430] scale24 -> conv24 (in-place)
I0925 23:49:51.724733 21318 layer_factory.hpp:77] Creating layer scale24
I0925 23:49:51.724930 21318 net.cpp:141] Setting up scale24
I0925 23:49:51.724941 21318 net.cpp:148] Top shape: 1 64 26 26 (43264)
I0925 23:49:51.724946 21318 net.cpp:156] Memory required for data: 270833240
I0925 23:49:51.724953 21318 layer_factory.hpp:77] Creating layer relu24
I0925 23:49:51.724962 21318 net.cpp:91] Creating Layer relu24
I0925 23:49:51.724967 21318 net.cpp:469] relu24 <- conv24
I0925 23:49:51.724972 21318 net.cpp:430] relu24 -> conv24 (in-place)
I0925 23:49:51.725504 21318 net.cpp:141] Setting up relu24
I0925 23:49:51.725528 21318 net.cpp:148] Top shape: 1 64 26 26 (43264)
I0925 23:49:51.725533 21318 net.cpp:156] Memory required for data: 271006296
I0925 23:49:51.725538 21318 layer_factory.hpp:77] Creating layer reorg1
I0925 23:49:51.725549 21318 net.cpp:91] Creating Layer reorg1
I0925 23:49:51.725554 21318 net.cpp:469] reorg1 <- conv24
I0925 23:49:51.725563 21318 net.cpp:443] reorg1 -> reorg1
I0925 23:49:51.725632 21318 net.cpp:141] Setting up reorg1
I0925 23:49:51.725641 21318 net.cpp:148] Top shape: 1 256 13 13 (43264)
I0925 23:49:51.725644 21318 net.cpp:156] Memory required for data: 271179352
I0925 23:49:51.725649 21318 layer_factory.hpp:77] Creating layer concat2
I0925 23:49:51.725656 21318 net.cpp:91] Creating Layer concat2
I0925 23:49:51.725661 21318 net.cpp:469] concat2 <- reorg1
I0925 23:49:51.725666 21318 net.cpp:469] concat2 <- conv20
I0925 23:49:51.725673 21318 net.cpp:443] concat2 -> concat2
I0925 23:49:51.725704 21318 net.cpp:141] Setting up concat2
I0925 23:49:51.725718 21318 net.cpp:148] Top shape: 1 1280 13 13 (216320)
I0925 23:49:51.725723 21318 net.cpp:156] Memory required for data: 272044632
I0925 23:49:51.725726 21318 layer_factory.hpp:77] Creating layer conv21
I0925 23:49:51.725744 21318 net.cpp:91] Creating Layer conv21
I0925 23:49:51.725749 21318 net.cpp:469] conv21 <- concat2
I0925 23:49:51.725755 21318 net.cpp:443] conv21 -> conv21
I0925 23:49:51.949791 21318 net.cpp:141] Setting up conv21
I0925 23:49:51.949847 21318 net.cpp:148] Top shape: 1 1024 13 13 (173056)
I0925 23:49:51.949852 21318 net.cpp:156] Memory required for data: 272736856
I0925 23:49:51.949869 21318 layer_factory.hpp:77] Creating layer bn21
I0925 23:49:51.949887 21318 net.cpp:91] Creating Layer bn21
I0925 23:49:51.949950 21318 net.cpp:469] bn21 <- conv21
I0925 23:49:51.949968 21318 net.cpp:430] bn21 -> conv21 (in-place)
I0925 23:49:51.950347 21318 net.cpp:141] Setting up bn21
I0925 23:49:51.950378 21318 net.cpp:148] Top shape: 1 1024 13 13 (173056)
I0925 23:49:51.950397 21318 net.cpp:156] Memory required for data: 273429080
I0925 23:49:51.950450 21318 layer_factory.hpp:77] Creating layer scale21
I0925 23:49:51.950479 21318 net.cpp:91] Creating Layer scale21
I0925 23:49:51.950495 21318 net.cpp:469] scale21 <- conv21
I0925 23:49:51.950515 21318 net.cpp:430] scale21 -> conv21 (in-place)
I0925 23:49:51.950597 21318 layer_factory.hpp:77] Creating layer scale21
I0925 23:49:51.950820 21318 net.cpp:141] Setting up scale21
I0925 23:49:51.950852 21318 net.cpp:148] Top shape: 1 1024 13 13 (173056)
I0925 23:49:51.950870 21318 net.cpp:156] Memory required for data: 274121304
I0925 23:49:51.950891 21318 layer_factory.hpp:77] Creating layer relu21
I0925 23:49:51.950915 21318 net.cpp:91] Creating Layer relu21
I0925 23:49:51.950932 21318 net.cpp:469] relu21 <- conv21
I0925 23:49:51.950950 21318 net.cpp:430] relu21 -> conv21 (in-place)
I0925 23:49:51.951474 21318 net.cpp:141] Setting up relu21
I0925 23:49:51.951498 21318 net.cpp:148] Top shape: 1 1024 13 13 (173056)
I0925 23:49:51.951503 21318 net.cpp:156] Memory required for data: 274813528
I0925 23:49:51.951508 21318 layer_factory.hpp:77] Creating layer conv22
I0925 23:49:51.951555 21318 net.cpp:91] Creating Layer conv22
I0925 23:49:51.951571 21318 net.cpp:469] conv22 <- conv21
I0925 23:49:51.951592 21318 net.cpp:443] conv22 -> conv22
I0925 23:49:51.957644 21318 net.cpp:141] Setting up conv22
I0925 23:49:51.957715 21318 net.cpp:148] Top shape: 1 125 13 13 (21125)
I0925 23:49:51.957733 21318 net.cpp:156] Memory required for data: 274898028
I0925 23:49:51.957761 21318 layer_factory.hpp:77] Creating layer detection_out
I0925 23:49:51.957795 21318 net.cpp:91] Creating Layer detection_out
I0925 23:49:51.957806 21318 net.cpp:469] detection_out <- conv22
I0925 23:49:51.957819 21318 net.cpp:443] detection_out -> detection_out
I0925 23:49:51.957880 21318 net.cpp:141] Setting up detection_out
I0925 23:49:51.957906 21318 net.cpp:148] Top shape: 1 1 1 7 (7)
I0925 23:49:51.957922 21318 net.cpp:156] Memory required for data: 274898056
I0925 23:49:51.957937 21318 layer_factory.hpp:77] Creating layer detection_eval
I0925 23:49:51.957962 21318 net.cpp:91] Creating Layer detection_eval
I0925 23:49:51.957978 21318 net.cpp:469] detection_eval <- detection_out
I0925 23:49:51.957996 21318 net.cpp:469] detection_eval <- label
I0925 23:49:51.958017 21318 net.cpp:443] detection_eval -> detection_eval
I0925 23:49:51.958106 21318 net.cpp:141] Setting up detection_eval
I0925 23:49:51.958128 21318 net.cpp:148] Top shape: 1 1 21 5 (105)
I0925 23:49:51.958143 21318 net.cpp:156] Memory required for data: 274898476
I0925 23:49:51.958160 21318 net.cpp:219] detection_eval does not need backward computation.
I0925 23:49:51.958178 21318 net.cpp:219] detection_out does not need backward computation.
I0925 23:49:51.958194 21318 net.cpp:219] conv22 does not need backward computation.
I0925 23:49:51.958210 21318 net.cpp:219] relu21 does not need backward computation.
…
