…
I0927 00:14:00.389369 18853 upgrade_proto.cpp:82] Successfully upgraded batch norm layers using deprecated params.
I0927 00:14:00.391265 18853 net.cpp:82] Initializing net from parameters: 
name: "ResNet-20"
state {
  phase: TRAIN
  level: 0
  stage: ""
}
layer {
  name: "Data1"
  type: "Data"
  top: "data"
  top: "label"
  transform_param {
    scale: 0.00390625
    mirror: true
    crop_size: 32
    mean_value: 125.3
    mean_value: 122.9
    mean_value: 113.8
  }
  data_param {
    source: "/home/lijianfei/datasets/cifar10_40/train_lmdb"
    batch_size: 128
    backend: LMDB
  }
  image_data_param {
    shuffle: true
  }
}
layer {
  name: "conv1"
  type: "Convolution"
  bottom: "data"
  top: "conv1"
  param {
    lr_mult: 1
    decay_mult: 1
  }
  param {
    lr_mult: 2
    decay_mult: 0
  }
  convolution_param {
    num_output: 16
    bias_term: true
    pad: 1
    kernel_size: 3
    stride: 1
    weight_filler {
      type: "msra"
    }
    bias_filler {
      type: "constant"
      value: 0
    }
  }
}
layer {
  name: "conv1/bn"
  type: "BatchNorm"
  bottom: "conv1"
  top: "conv1"
  param {
    lr_mult: 0
    decay_mult: 0
  }
  param {
    lr_mult: 0
    decay_mult: 0
  }
  param {
    lr_mult: 0
    decay_mult: 0
  }
  batch_norm_param {
    use_global_stats: false
  }
}
layer {
  name: "conv1/scale"
  type: "Scale"
  bottom: "conv1"
  top: "conv1"
  scale_param {
    bias_term: true
  }
}
layer {
  name: "conv1/ReLU"
  type: "ReLU"
  bottom: "conv1"
  top: "conv1"
}
layer {
  name: "conv2_1_0"
  type: "Convolution"
  bottom: "conv1"
  top: "conv2_1_0"
  param {
    lr_mult: 1
    decay_mult: 1
  }
  param {
    lr_mult: 2
    decay_mult: 0
  }
  convolution_param {
    num_output: 16
    bias_term: true
    pad: 1
    kernel_size: 3
    stride: 1
    weight_filler {
      type: "msra"
    }
    bias_filler {
      type: "constant"
      value: 0
    }
  }
}
layer {
  name: "conv2_1_bn0"
  type: "BatchNorm"
  bottom: "conv2_1_0"
  top: "conv2_1_0"
  param {
    lr_mult: 0
    decay_mult: 0
  }
  param {
    lr_mult: 0
    decay_mult: 0
  }
  param {
    lr_mult: 0
    decay_mult: 0
  }
  batch_norm_param {
    use_global_stats: false
  }
}
layer {
  name: "conv2_1_scale0"
  type: "Scale"
  bottom: "conv2_1_0"
  top: "conv2_1_0"
  scale_param {
    bias_term: true
  }
}
layer {
  name: "conv2_1_ReLU0"
  type: "ReLU"
  bottom: "conv2_1_0"
  top: "conv2_1_0"
}
layer {
  name: "conv2_1_1"
  type: "Convolution"
  bottom: "conv2_1_0"
  top: "conv2_1_1"
  param {
    lr_mult: 1
    decay_mult: 1
  }
  param {
    lr_mult: 2
    decay_mult: 0
  }
  convolution_param {
    num_output: 16
    bias_term: true
    pad: 1
    kernel_size: 3
    stride: 1
    weight_filler {
      type: "msra"
    }
    bias_filler {
      type: "constant"
      value: 0
    }
  }
}
layer {
  name: "conv2_1bn1"
  type: "BatchNorm"
  bottom: "conv2_1_1"
  top: "conv2_1_1"
  param {
    lr_mult: 0
    decay_mult: 0
  }
  param {
    lr_mult: 0
    decay_mult: 0
  }
  param {
    lr_mult: 0
    decay_mult: 0
  }
  batch_norm_param {
    use_global_stats: false
  }
}
layer {
  name: "conv2_1_scale1"
  type: "Scale"
  bottom: "conv2_1_1"
  top: "conv2_1_1"
  scale_param {
    bias_term: true
  }
}
layer {
  name: "conv2_Eltwise_1"
  type: "Eltwise"
  bottom: "conv1"
  bottom: "conv2_1_1"
  top: "conv2_Eltwise_1"
  eltwise_param {
    operation: SUM
  }
}
layer {
  name: "conv2_1ReLU_1"
  type: "ReLU"
  bottom: "conv2_Eltwise_1"
  top: "conv2_Eltwise_1"
}
layer {
  name: "conv2_2_0"
  type: "Convolution"
  bottom: "conv2_Eltwise_1"
  top: "conv2_2_0"
  param {
    lr_mult: 1
    decay_mult: 1
  }
  param {
    lr_mult: 2
    decay_mult: 0
  }
  convolution_param {
    num_output: 16
    bias_term: true
    pad: 1
    kernel_size: 3
    stride: 1
    weight_filler {
      type: "msra"
    }
    bias_filler {
      type: "constant"
      value: 0
    }
  }
}
layer {
  name: "conv2_2_bn0"
  type: "BatchNorm"
  bottom: "conv2_2_0"
  top: "conv2_2_0"
  param {
    lr_mult: 0
    decay_mult: 0
  }
  param {
    lr_mult: 0
    decay_mult: 0
  }
  param {
    lr_mult: 0
    decay_mult: 0
  }
  batch_norm_param {
    use_global_stats: false
  }
}
layer {
  name: "conv2_2_scale0"
  type: "Scale"
  bottom: "conv2_2_0"
  top: "conv2_2_0"
  scale_param {
    bias_term: true
  }
}
layer {
  name: "conv2_2_ReLU0"
  type: "ReLU"
  bottom: "conv2_2_0"
  top: "conv2_2_0"
}
layer {
  name: "conv2_2_1"
  type: "Convolution"
  bottom: "conv2_2_0"
  top: "conv2_2_1"
  param {
    lr_mult: 1
    decay_mult: 1
  }
  param {
    lr_mult: 2
    decay_mult: 0
  }
  convolution_param {
    num_output: 16
    bias_term: true
    pad: 1
    kernel_size: 3
    stride: 1
    weight_filler {
      type: "msra"
    }
    bias_filler {
      type: "constant"
      value: 0
    }
  }
}
layer {
  name: "conv2_2bn1"
  type: "BatchNorm"
  bottom: "conv2_2_1"
  top: "conv2_2_1"
  param {
    lr_mult: 0
    decay_mult: 0
  }
  param {
    lr_mult: 0
    decay_mult: 0
  }
  param {
    lr_mult: 0
    decay_mult: 0
  }
  batch_norm_param {
    use_global_stats: false
  }
}
layer {
  name: "conv2_2_scale1"
  type: "Scale"
  bottom: "conv2_2_1"
  top: "conv2_2_1"
  scale_param {
    bias_term: true
  }
}
layer {
  name: "conv2_Eltwise_2"
  type: "Eltwise"
  bottom: "conv2_Eltwise_1"
  bottom: "conv2_2_1"
  top: "conv2_Eltwise_2"
  eltwise_param {
    operation: SUM
  }
}
layer {
  name: "conv2_2ReLU_1"
  type: "ReLU"
  bottom: "conv2_Eltwise_2"
  top: "conv2_Eltwise_2"
}
layer {
  name: "conv2_3_0"
  type: "Convolution"
  bottom: "conv2_Eltwise_2"
  top: "conv2_3_0"
  param {
    lr_mult: 1
    decay_mult: 1
  }
  param {
    lr_mult: 2
    decay_mult: 0
  }
  convolution_param {
    num_output: 16
    bias_term: true
    pad: 1
    kernel_size: 3
    stride: 1
    weight_filler {
      type: "msra"
    }
    bias_filler {
      type: "constant"
      value: 0
    }
  }
}
layer {
  name: "conv2_3_bn0"
  type: "BatchNorm"
  bottom: "conv2_3_0"
  top: "conv2_3_0"
  param {
    lr_mult: 0
    decay_mult: 0
  }
  param {
    lr_mult: 0
    decay_mult: 0
  }
  param {
    lr_mult: 0
    decay_mult: 0
  }
  batch_norm_param {
    use_global_stats: false
  }
}
layer {
  name: "conv2_3_scale0"
  type: "Scale"
  bottom: "conv2_3_0"
  top: "conv2_3_0"
  scale_param {
    bias_term: true
  }
}
layer {
  name: "conv2_3_ReLU0"
  type: "ReLU"
  bottom: "conv2_3_0"
  top: "conv2_3_0"
}
layer {
  name: "conv2_3_1"
  type: "Convolution"
  bottom: "conv2_3_0"
  top: "conv2_3_1"
  param {
    lr_mult: 1
    decay_mult: 1
  }
  param {
    lr_mult: 2
    decay_mult: 0
  }
  convolution_param {
    num_output: 16
    bias_term: true
    pad: 1
    kernel_size: 3
    stride: 1
    weight_filler {
      type: "msra"
    }
    bias_filler {
      type: "constant"
      value: 0
    }
  }
}
layer {
  name: "conv2_3bn1"
  type: "BatchNorm"
  bottom: "conv2_3_1"
  top: "conv2_3_1"
  param {
    lr_mult: 0
    decay_mult: 0
  }
  param {
    lr_mult: 0
    decay_mult: 0
  }
  param {
    lr_mult: 0
    decay_mult: 0
  }
  batch_norm_param {
    use_global_stats: false
  }
}
layer {
  name: "conv2_3_scale1"
  type: "Scale"
  bottom: "conv2_3_1"
  top: "conv2_3_1"
  scale_param {
    bias_term: true
  }
}
layer {
  name: "conv2_Eltwise_3"
  type: "Eltwise"
  bottom: "conv2_Eltwise_2"
  bottom: "conv2_3_1"
  top: "conv2_Eltwise_3"
  eltwise_param {
    operation: SUM
  }
}
layer {
  name: "conv2_3ReLU_1"
  type: "ReLU"
  bottom: "conv2_Eltwise_3"
  top: "conv2_Eltwise_3"
}
layer {
  name: "conv2_4_0"
  type: "Convolution"
  bottom: "conv2_Eltwise_3"
  top: "conv2_4_0"
  param {
    lr_mult: 1
    decay_mult: 1
  }
  param {
    lr_mult: 2
    decay_mult: 0
  }
  convolution_param {
    num_output: 16
    bias_term: true
    pad: 1
    kernel_size: 3
    stride: 1
    weight_filler {
      type: "msra"
    }
    bias_filler {
      type: "constant"
      value: 0
    }
  }
}
layer {
  name: "conv2_4_bn0"
  type: "BatchNorm"
  bottom: "conv2_4_0"
  top: "conv2_4_0"
  param {
    lr_mult: 0
    decay_mult: 0
  }
  param {
    lr_mult: 0
    decay_mult: 0
  }
  param {
    lr_mult: 0
    decay_mult: 0
  }
  batch_norm_param {
    use_global_stats: false
  }
}
layer {
  name: "conv2_4_scale0"
  type: "Scale"
  bottom: "conv2_4_0"
  top: "conv2_4_0"
  scale_param {
    bias_term: true
  }
}
layer {
  name: "conv2_4_ReLU0"
  type: "ReLU"
  bottom: "conv2_4_0"
  top: "conv2_4_0"
}
layer {
  name: "conv2_4_1"
  type: "Convolution"
  bottom: "conv2_4_0"
  top: "conv2_4_1"
  param {
    lr_mult: 1
    decay_mult: 1
  }
  param {
    lr_mult: 2
    decay_mult: 0
  }
  convolution_param {
    num_output: 16
    bias_term: true
    pad: 1
    kernel_size: 3
    stride: 1
    weight_filler {
      type: "msra"
    }
    bias_filler {
      type: "constant"
      value: 0
    }
  }
}
layer {
  name: "conv2_4bn1"
  type: "BatchNorm"
  bottom: "conv2_4_1"
  top: "conv2_4_1"
  param {
    lr_mult: 0
    decay_mult: 0
  }
  param {
    lr_mult: 0
    decay_mult: 0
  }
  param {
    lr_mult: 0
    decay_mult: 0
  }
  batch_norm_param {
    use_global_stats: false
  }
}
layer {
  name: "conv2_4_scale1"
  type: "Scale"
  bottom: "conv2_4_1"
  top: "conv2_4_1"
  scale_param {
    bias_term: true
  }
}
layer {
  name: "conv2_Eltwise_4"
  type: "Eltwise"
  bottom: "conv2_Eltwise_3"
  bottom: "conv2_4_1"
  top: "conv2_Eltwise_4"
  eltwise_param {
    operation: SUM
  }
}
layer {
  name: "conv2_4ReLU_1"
  type: "ReLU"
  bottom: "conv2_Eltwise_4"
  top: "conv2_Eltwise_4"
}
layer {
  name: "conv2_5_0"
  type: "Convolution"
  bottom: "conv2_Eltwise_4"
  top: "conv2_5_0"
  param {
    lr_mult: 1
    decay_mult: 1
  }
  param {
    lr_mult: 2
    decay_mult: 0
  }
  convolution_param {
    num_output: 16
    bias_term: true
    pad: 1
    kernel_size: 3
    stride: 1
    weight_filler {
      type: "msra"
    }
    bias_filler {
      type: "constant"
      value: 0
    }
  }
}
layer {
  name: "conv2_5_bn0"
  type: "BatchNorm"
  bottom: "conv2_5_0"
  top: "conv2_5_0"
  param {
    lr_mult: 0
    decay_mult: 0
  }
  param {
    lr_mult: 0
    decay_mult: 0
  }
  param {
    lr_mult: 0
    decay_mult: 0
  }
  batch_norm_param {
    use_global_stats: false
  }
}
layer {
  name: "conv2_5_scale0"
  type: "Scale"
  bottom: "conv2_5_0"
  top: "conv2_5_0"
  scale_param {
    bias_term: true
  }
}
layer {
  name: "conv2_5_ReLU0"
  type: "ReLU"
  bottom: "conv2_5_0"
  top: "conv2_5_0"
}
layer {
  name: "conv2_5_1"
  type: "Convolution"
  bottom: "conv2_5_0"
  top: "conv2_5_1"
  param {
    lr_mult: 1
    decay_mult: 1
  }
  param {
    lr_mult: 2
    decay_mult: 0
  }
  convolution_param {
    num_output: 16
    bias_term: true
    pad: 1
    kernel_size: 3
    stride: 1
    weight_filler {
      type: "msra"
    }
    bias_filler {
      type: "constant"
      value: 0
    }
  }
}
layer {
  name: "conv2_5bn1"
  type: "BatchNorm"
  bottom: "conv2_5_1"
  top: "conv2_5_1"
  param {
    lr_mult: 0
    decay_mult: 0
  }
  param {
    lr_mult: 0
    decay_mult: 0
  }
  param {
    lr_mult: 0
    decay_mult: 0
  }
  batch_norm_param {
    use_global_stats: false
  }
}
layer {
  name: "conv2_5_scale1"
  type: "Scale"
  bottom: "conv2_5_1"
  top: "conv2_5_1"
  scale_param {
    bias_term: true
  }
}
layer {
  name: "conv2_Eltwise_5"
  type: "Eltwise"
  bottom: "conv2_Eltwise_4"
  bottom: "conv2_5_1"
  top: "conv2_Eltwise_5"
  eltwise_param {
    operation: SUM
  }
}
layer {
  name: "conv2_5ReLU_1"
  type: "ReLU"
  bottom: "conv2_Eltwise_5"
  top: "conv2_Eltwise_5"
}
layer {
  name: "conv2_6_0"
  type: "Convolution"
  bottom: "conv2_Eltwise_5"
  top: "conv2_6_0"
  param {
    lr_mult: 1
    decay_mult: 1
  }
  param {
    lr_mult: 2
    decay_mult: 0
  }
  convolution_param {
    num_output: 16
    bias_term: true
    pad: 1
    kernel_size: 3
    stride: 1
    weight_filler {
      type: "msra"
    }
    bias_filler {
      type: "constant"
      value: 0
    }
  }
}
layer {
  name: "conv2_6_bn0"
  type: "BatchNorm"
  bottom: "conv2_6_0"
  top: "conv2_6_0"
  param {
    lr_mult: 0
    decay_mult: 0
  }
  param {
    lr_mult: 0
    decay_mult: 0
  }
  param {
    lr_mult: 0
    decay_mult: 0
  }
  batch_norm_param {
    use_global_stats: false
  }
}
layer {
  name: "conv2_6_scale0"
  type: "Scale"
  bottom: "conv2_6_0"
  top: "conv2_6_0"
  scale_param {
    bias_term: true
  }
}
layer {
  name: "conv2_6_ReLU0"
  type: "ReLU"
  bottom: "conv2_6_0"
  top: "conv2_6_0"
}
layer {
  name: "conv2_6_1"
  type: "Convolution"
  bottom: "conv2_6_0"
  top: "conv2_6_1"
  param {
    lr_mult: 1
    decay_mult: 1
  }
  param {
    lr_mult: 2
    decay_mult: 0
  }
  convolution_param {
    num_output: 16
    bias_term: true
    pad: 1
    kernel_size: 3
    stride: 1
    weight_filler {
      type: "msra"
    }
    bias_filler {
      type: "constant"
      value: 0
    }
  }
}
layer {
  name: "conv2_6bn1"
  type: "BatchNorm"
  bottom: "conv2_6_1"
  top: "conv2_6_1"
  param {
    lr_mult: 0
    decay_mult: 0
  }
  param {
    lr_mult: 0
    decay_mult: 0
  }
  param {
    lr_mult: 0
    decay_mult: 0
  }
  batch_norm_param {
    use_global_stats: false
  }
}
layer {
  name: "conv2_6_scale1"
  type: "Scale"
  bottom: "conv2_6_1"
  top: "conv2_6_1"
  scale_param {
    bias_term: true
  }
}
layer {
  name: "conv2_Eltwise_6"
  type: "Eltwise"
  bottom: "conv2_Eltwise_5"
  bottom: "conv2_6_1"
  top: "conv2_Eltwise_6"
  eltwise_param {
    operation: SUM
  }
}
layer {
  name: "conv2_6ReLU_1"
  type: "ReLU"
  bottom: "conv2_Eltwise_6"
  top: "conv2_Eltwise_6"
}
layer {
  name: "conv2_7_0"
  type: "Convolution"
  bottom: "conv2_Eltwise_6"
  top: "conv2_7_0"
  param {
    lr_mult: 1
    decay_mult: 1
  }
  param {
    lr_mult: 2
    decay_mult: 0
  }
  convolution_param {
    num_output: 16
    bias_term: true
    pad: 1
    kernel_size: 3
    stride: 1
    weight_filler {
      type: "msra"
    }
    bias_filler {
      type: "constant"
      value: 0
    }
  }
}
layer {
  name: "conv2_7_bn0"
  type: "BatchNorm"
  bottom: "conv2_7_0"
  top: "conv2_7_0"
  param {
    lr_mult: 0
    decay_mult: 0
  }
  param {
    lr_mult: 0
    decay_mult: 0
  }
  param {
    lr_mult: 0
    decay_mult: 0
  }
  batch_norm_param {
    use_global_stats: false
  }
}
layer {
  name: "conv2_7_scale0"
  type: "Scale"
  bottom: "conv2_7_0"
  top: "conv2_7_0"
  scale_param {
    bias_term: true
  }
}
layer {
  name: "conv2_7_ReLU0"
  type: "ReLU"
  bottom: "conv2_7_0"
  top: "conv2_7_0"
}
layer {
  name: "conv2_7_1"
  type: "Convolution"
  bottom: "conv2_7_0"
  top: "conv2_7_1"
  param {
    lr_mult: 1
    decay_mult: 1
  }
  param {
    lr_mult: 2
    decay_mult: 0
  }
  convolution_param {
    num_output: 16
    bias_term: true
    pad: 1
    kernel_size: 3
    stride: 1
    weight_filler {
      type: "msra"
    }
    bias_filler {
      type: "constant"
      value: 0
    }
  }
}
layer {
  name: "conv2_7bn1"
  type: "BatchNorm"
  bottom: "conv2_7_1"
  top: "conv2_7_1"
  param {
    lr_mult: 0
    decay_mult: 0
  }
  param {
    lr_mult: 0
    decay_mult: 0
  }
  param {
    lr_mult: 0
    decay_mult: 0
  }
  batch_norm_param {
    use_global_stats: false
  }
}
layer {
  name: "conv2_7_scale1"
  type: "Scale"
  bottom: "conv2_7_1"
  top: "conv2_7_1"
  scale_param {
    bias_term: true
  }
}
layer {
  name: "conv2_Eltwise_7"
  type: "Eltwise"
  bottom: "conv2_Eltwise_6"
  bottom: "conv2_7_1"
  top: "conv2_Eltwise_7"
  eltwise_param {
    operation: SUM
  }
}
layer {
  name: "conv2_7ReLU_1"
  type: "ReLU"
  bottom: "conv2_Eltwise_7"
  top: "conv2_Eltwise_7"
}
layer {
  name: "conv3_1_0"
  type: "Convolution"
  bottom: "conv2_Eltwise_7"
  top: "conv3_1_0"
  param {
    lr_mult: 1
    decay_mult: 1
  }
  param {
    lr_mult: 2
    decay_mult: 0
  }
  convolution_param {
    num_output: 32
    bias_term: true
    pad: 1
    kernel_size: 3
    stride: 2
    weight_filler {
      type: "msra"
    }
    bias_filler {
      type: "constant"
      value: 0
    }
  }
}
layer {
  name: "conv3_1_bn0"
  type: "BatchNorm"
  bottom: "conv3_1_0"
  top: "conv3_1_0"
  param {
    lr_mult: 0
    decay_mult: 0
  }
  param {
    lr_mult: 0
    decay_mult: 0
  }
  param {
    lr_mult: 0
    decay_mult: 0
  }
  batch_norm_param {
    use_global_stats: false
  }
}
layer {
  name: "conv3_1_scale0"
  type: "Scale"
  bottom: "conv3_1_0"
  top: "conv3_1_0"
  scale_param {
    bias_term: true
  }
}
layer {
  name: "conv3_1_ReLU0"
  type: "ReLU"
  bottom: "conv3_1_0"
  top: "conv3_1_0"
}
layer {
  name: "conv3_1_1"
  type: "Convolution"
  bottom: "conv3_1_0"
  top: "conv3_1_1"
  param {
    lr_mult: 1
    decay_mult: 1
  }
  param {
    lr_mult: 2
    decay_mult: 0
  }
  convolution_param {
    num_output: 32
    bias_term: true
    pad: 1
    kernel_size: 3
    stride: 1
    weight_filler {
      type: "msra"
    }
    bias_filler {
      type: "constant"
      value: 0
    }
  }
}
layer {
  name: "conv3_1bn1"
  type: "BatchNorm"
  bottom: "conv3_1_1"
  top: "conv3_1_1"
  param {
    lr_mult: 0
    decay_mult: 0
  }
  param {
    lr_mult: 0
    decay_mult: 0
  }
  param {
    lr_mult: 0
    decay_mult: 0
  }
  batch_norm_param {
    use_global_stats: false
  }
}
layer {
  name: "conv3_1_scale1"
  type: "Scale"
  bottom: "conv3_1_1"
  top: "conv3_1_1"
  scale_param {
    bias_term: true
  }
}
layer {
  name: "conv3_1_down"
  type: "Convolution"
  bottom: "conv2_Eltwise_7"
  top: "conv3_1_down"
  param {
    lr_mult: 1
    decay_mult: 1
  }
  param {
    lr_mult: 2
    decay_mult: 0
  }
  convolution_param {
    num_output: 32
    bias_term: true
    pad: 0
    kernel_size: 1
    stride: 2
    weight_filler {
      type: "msra"
    }
    bias_filler {
      type: "constant"
      value: 0
    }
  }
}
layer {
  name: "conv3_1_bn_down"
  type: "BatchNorm"
  bottom: "conv3_1_down"
  top: "conv3_1_down"
  param {
    lr_mult: 0
    decay_mult: 0
  }
  param {
    lr_mult: 0
    decay_mult: 0
  }
  param {
    lr_mult: 0
    decay_mult: 0
  }
  batch_norm_param {
    use_global_stats: false
  }
}
layer {
  name: "conv3_1_scale_down"
  type: "Scale"
  bottom: "conv3_1_down"
  top: "conv3_1_down"
  scale_param {
    bias_term: true
  }
}
layer {
  name: "conv3_Eltwise_1"
  type: "Eltwise"
  bottom: "conv3_1_1"
  bottom: "conv3_1_down"
  top: "conv3_Eltwise_1"
  eltwise_param {
    operation: SUM
  }
}
layer {
  name: "conv3_1ReLU_1"
  type: "ReLU"
  bottom: "conv3_Eltwise_1"
  top: "conv3_Eltwise_1"
}
layer {
  name: "conv3_2_0"
  type: "Convolution"
  bottom: "conv3_Eltwise_1"
  top: "conv3_2_0"
  param {
    lr_mult: 1
    decay_mult: 1
  }
  param {
    lr_mult: 2
    decay_mult: 0
  }
  convolution_param {
    num_output: 32
    bias_term: true
    pad: 1
    kernel_size: 3
    stride: 1
    weight_filler {
      type: "msra"
    }
    bias_filler {
      type: "constant"
      value: 0
    }
  }
}
layer {
  name: "conv3_2_bn0"
  type: "BatchNorm"
  bottom: "conv3_2_0"
  top: "conv3_2_0"
  param {
    lr_mult: 0
    decay_mult: 0
  }
  param {
    lr_mult: 0
    decay_mult: 0
  }
  param {
    lr_mult: 0
    decay_mult: 0
  }
  batch_norm_param {
    use_global_stats: false
  }
}
layer {
  name: "conv3_2_scale0"
  type: "Scale"
  bottom: "conv3_2_0"
  top: "conv3_2_0"
  scale_param {
    bias_term: true
  }
}
layer {
  name: "conv3_2_ReLU0"
  type: "ReLU"
  bottom: "conv3_2_0"
  top: "conv3_2_0"
}
layer {
  name: "conv3_2_1"
  type: "Convolution"
  bottom: "conv3_2_0"
  top: "conv3_2_1"
  param {
    lr_mult: 1
    decay_mult: 1
  }
  param {
    lr_mult: 2
    decay_mult: 0
  }
  convolution_param {
    num_output: 32
    bias_term: true
    pad: 1
    kernel_size: 3
    stride: 1
    weight_filler {
      type: "msra"
    }
    bias_filler {
      type: "constant"
      value: 0
    }
  }
}
layer {
  name: "conv3_2bn1"
  type: "BatchNorm"
  bottom: "conv3_2_1"
  top: "conv3_2_1"
  param {
    lr_mult: 0
    decay_mult: 0
  }
  param {
    lr_mult: 0
    decay_mult: 0
  }
  param {
    lr_mult: 0
    decay_mult: 0
  }
  batch_norm_param {
    use_global_stats: false
  }
}
layer {
  name: "conv3_2_scale1"
  type: "Scale"
  bottom: "conv3_2_1"
  top: "conv3_2_1"
  scale_param {
    bias_term: true
  }
}
layer {
  name: "conv3_Eltwise_2"
  type: "Eltwise"
  bottom: "conv3_Eltwise_1"
  bottom: "conv3_2_1"
  top: "conv3_Eltwise_2"
  eltwise_param {
    operation: SUM
  }
}
layer {
  name: "conv3_2ReLU_1"
  type: "ReLU"
  bottom: "conv3_Eltwise_2"
  top: "conv3_Eltwise_2"
}
layer {
  name: "conv3_3_0"
  type: "Convolution"
  bottom: "conv3_Eltwise_2"
  top: "conv3_3_0"
  param {
    lr_mult: 1
    decay_mult: 1
  }
  param {
    lr_mult: 2
    decay_mult: 0
  }
  convolution_param {
    num_output: 32
    bias_term: true
    pad: 1
    kernel_size: 3
    stride: 1
    weight_filler {
      type: "msra"
    }
    bias_filler {
      type: "constant"
      value: 0
    }
  }
}
layer {
  name: "conv3_3_bn0"
  type: "BatchNorm"
  bottom: "conv3_3_0"
  top: "conv3_3_0"
  param {
    lr_mult: 0
    decay_mult: 0
  }
  param {
    lr_mult: 0
    decay_mult: 0
  }
  param {
    lr_mult: 0
    decay_mult: 0
  }
  batch_norm_param {
    use_global_stats: false
  }
}
layer {
  name: "conv3_3_scale0"
  type: "Scale"
  bottom: "conv3_3_0"
  top: "conv3_3_0"
  scale_param {
    bias_term: true
  }
}
layer {
  name: "conv3_3_ReLU0"
  type: "ReLU"
  bottom: "conv3_3_0"
  top: "conv3_3_0"
}
layer {
  name: "conv3_3_1"
  type: "Convolution"
  bottom: "conv3_3_0"
  top: "conv3_3_1"
  param {
    lr_mult: 1
    decay_mult: 1
  }
  param {
    lr_mult: 2
    decay_mult: 0
  }
  convolution_param {
    num_output: 32
    bias_term: true
    pad: 1
    kernel_size: 3
    stride: 1
    weight_filler {
      type: "msra"
    }
    bias_filler {
      type: "constant"
      value: 0
    }
  }
}
layer {
  name: "conv3_3bn1"
  type: "BatchNorm"
  bottom: "conv3_3_1"
  top: "conv3_3_1"
  param {
    lr_mult: 0
    decay_mult: 0
  }
  param {
    lr_mult: 0
    decay_mult: 0
  }
  param {
    lr_mult: 0
    decay_mult: 0
  }
  batch_norm_param {
    use_global_stats: false
  }
}
layer {
  name: "conv3_3_scale1"
  type: "Scale"
  bottom: "conv3_3_1"
  top: "conv3_3_1"
  scale_param {
    bias_term: true
  }
}
layer {
  name: "conv3_Eltwise_3"
  type: "Eltwise"
  bottom: "conv3_Eltwise_2"
  bottom: "conv3_3_1"
  top: "conv3_Eltwise_3"
  eltwise_param {
    operation: SUM
  }
}
layer {
  name: "conv3_3ReLU_1"
  type: "ReLU"
  bottom: "conv3_Eltwise_3"
  top: "conv3_Eltwise_3"
}
layer {
  name: "conv3_4_0"
  type: "Convolution"
  bottom: "conv3_Eltwise_3"
  top: "conv3_4_0"
  param {
    lr_mult: 1
    decay_mult: 1
  }
  param {
    lr_mult: 2
    decay_mult: 0
  }
  convolution_param {
    num_output: 32
    bias_term: true
    pad: 1
    kernel_size: 3
    stride: 1
    weight_filler {
      type: "msra"
    }
    bias_filler {
      type: "constant"
      value: 0
    }
  }
}
layer {
  name: "conv3_4_bn0"
  type: "BatchNorm"
  bottom: "conv3_4_0"
  top: "conv3_4_0"
  param {
    lr_mult: 0
    decay_mult: 0
  }
  param {
    lr_mult: 0
    decay_mult: 0
  }
  param {
    lr_mult: 0
    decay_mult: 0
  }
  batch_norm_param {
    use_global_stats: false
  }
}
layer {
  name: "conv3_4_scale0"
  type: "Scale"
  bottom: "conv3_4_0"
  top: "conv3_4_0"
  scale_param {
    bias_term: true
  }
}
layer {
  name: "conv3_4_ReLU0"
  type: "ReLU"
  bottom: "conv3_4_0"
  top: "conv3_4_0"
}
layer {
  name: "conv3_4_1"
  type: "Convolution"
  bottom: "conv3_4_0"
  top: "conv3_4_1"
  param {
    lr_mult: 1
    decay_mult: 1
  }
  param {
    lr_mult: 2
    decay_mult: 0
  }
  convolution_param {
    num_output: 32
    bias_term: true
    pad: 1
    kernel_size: 3
    stride: 1
    weight_filler {
      type: "msra"
    }
    bias_filler {
      type: "constant"
      value: 0
    }
  }
}
layer {
  name: "conv3_4bn1"
  type: "BatchNorm"
  bottom: "conv3_4_1"
  top: "conv3_4_1"
  param {
    lr_mult: 0
    decay_mult: 0
  }
  param {
    lr_mult: 0
    decay_mult: 0
  }
  param {
    lr_mult: 0
    decay_mult: 0
  }
  batch_norm_param {
    use_global_stats: false
  }
}
layer {
  name: "conv3_4_scale1"
  type: "Scale"
  bottom: "conv3_4_1"
  top: "conv3_4_1"
  scale_param {
    bias_term: true
  }
}
layer {
  name: "conv3_Eltwise_4"
  type: "Eltwise"
  bottom: "conv3_Eltwise_3"
  bottom: "conv3_4_1"
  top: "conv3_Eltwise_4"
  eltwise_param {
    operation: SUM
  }
}
layer {
  name: "conv3_4ReLU_1"
  type: "ReLU"
  bottom: "conv3_Eltwise_4"
  top: "conv3_Eltwise_4"
}
layer {
  name: "conv3_5_0"
  type: "Convolution"
  bottom: "conv3_Eltwise_4"
  top: "conv3_5_0"
  param {
    lr_mult: 1
    decay_mult: 1
  }
  param {
    lr_mult: 2
    decay_mult: 0
  }
  convolution_param {
    num_output: 32
    bias_term: true
    pad: 1
    kernel_size: 3
    stride: 1
    weight_filler {
      type: "msra"
    }
    bias_filler {
      type: "constant"
      value: 0
    }
  }
}
layer {
  name: "conv3_5_bn0"
  type: "BatchNorm"
  bottom: "conv3_5_0"
  top: "conv3_5_0"
  param {
    lr_mult: 0
    decay_mult: 0
  }
  param {
    lr_mult: 0
    decay_mult: 0
  }
  param {
    lr_mult: 0
    decay_mult: 0
  }
  batch_norm_param {
    use_global_stats: false
  }
}
layer {
  name: "conv3_5_scale0"
  type: "Scale"
  bottom: "conv3_5_0"
  top: "conv3_5_0"
  scale_param {
    bias_term: true
  }
}
layer {
  name: "conv3_5_ReLU0"
  type: "ReLU"
  bottom: "conv3_5_0"
  top: "conv3_5_0"
}
layer {
  name: "conv3_5_1"
  type: "Convolution"
  bottom: "conv3_5_0"
  top: "conv3_5_1"
  param {
    lr_mult: 1
    decay_mult: 1
  }
  param {
    lr_mult: 2
    decay_mult: 0
  }
  convolution_param {
    num_output: 32
    bias_term: true
    pad: 1
    kernel_size: 3
    stride: 1
    weight_filler {
      type: "msra"
    }
    bias_filler {
      type: "constant"
      value: 0
    }
  }
}
layer {
  name: "conv3_5bn1"
  type: "BatchNorm"
  bottom: "conv3_5_1"
  top: "conv3_5_1"
  param {
    lr_mult: 0
    decay_mult: 0
  }
  param {
    lr_mult: 0
    decay_mult: 0
  }
  param {
    lr_mult: 0
    decay_mult: 0
  }
  batch_norm_param {
    use_global_stats: false
  }
}
layer {
  name: "conv3_5_scale1"
  type: "Scale"
  bottom: "conv3_5_1"
  top: "conv3_5_1"
  scale_param {
    bias_term: true
  }
}
layer {
  name: "conv3_Eltwise_5"
  type: "Eltwise"
  bottom: "conv3_Eltwise_4"
  bottom: "conv3_5_1"
  top: "conv3_Eltwise_5"
  eltwise_param {
    operation: SUM
  }
}
layer {
  name: "conv3_5ReLU_1"
  type: "ReLU"
  bottom: "conv3_Eltwise_5"
  top: "conv3_Eltwise_5"
}
layer {
  name: "conv3_6_0"
  type: "Convolution"
  bottom: "conv3_Eltwise_5"
  top: "conv3_6_0"
  param {
    lr_mult: 1
    decay_mult: 1
  }
  param {
    lr_mult: 2
    decay_mult: 0
  }
  convolution_param {
    num_output: 32
    bias_term: true
    pad: 1
    kernel_size: 3
    stride: 1
    weight_filler {
      type: "msra"
    }
    bias_filler {
      type: "constant"
      value: 0
    }
  }
}
layer {
  name: "conv3_6_bn0"
  type: "BatchNorm"
  bottom: "conv3_6_0"
  top: "conv3_6_0"
  param {
    lr_mult: 0
    decay_mult: 0
  }
  param {
    lr_mult: 0
    decay_mult: 0
  }
  param {
    lr_mult: 0
    decay_mult: 0
  }
  batch_norm_param {
    use_global_stats: false
  }
}
layer {
  name: "conv3_6_scale0"
  type: "Scale"
  bottom: "conv3_6_0"
  top: "conv3_6_0"
  scale_param {
    bias_term: true
  }
}
layer {
  name: "conv3_6_ReLU0"
  type: "ReLU"
  bottom: "conv3_6_0"
  top: "conv3_6_0"
}
layer {
  name: "conv3_6_1"
  type: "Convolution"
  bottom: "conv3_6_0"
  top: "conv3_6_1"
  param {
    lr_mult: 1
    decay_mult: 1
  }
  param {
    lr_mult: 2
    decay_mult: 0
  }
  convolution_param {
    num_output: 32
    bias_term: true
    pad: 1
    kernel_size: 3
    stride: 1
    weight_filler {
      type: "msra"
    }
    bias_filler {
      type: "constant"
      value: 0
    }
  }
}
layer {
  name: "conv3_6bn1"
  type: "BatchNorm"
  bottom: "conv3_6_1"
  top: "conv3_6_1"
  param {
    lr_mult: 0
    decay_mult: 0
  }
  param {
    lr_mult: 0
    decay_mult: 0
  }
  param {
    lr_mult: 0
    decay_mult: 0
  }
  batch_norm_param {
    use_global_stats: false
  }
}
layer {
  name: "conv3_6_scale1"
  type: "Scale"
  bottom: "conv3_6_1"
  top: "conv3_6_1"
  scale_param {
    bias_term: true
  }
}
layer {
  name: "conv3_Eltwise_6"
  type: "Eltwise"
  bottom: "conv3_Eltwise_5"
  bottom: "conv3_6_1"
  top: "conv3_Eltwise_6"
  eltwise_param {
    operation: SUM
  }
}
layer {
  name: "conv3_6ReLU_1"
  type: "ReLU"
  bottom: "conv3_Eltwise_6"
  top: "conv3_Eltwise_6"
}
layer {
  name: "conv3_7_0"
  type: "Convolution"
  bottom: "conv3_Eltwise_6"
  top: "conv3_7_0"
  param {
    lr_mult: 1
    decay_mult: 1
  }
  param {
    lr_mult: 2
    decay_mult: 0
  }
  convolution_param {
    num_output: 32
    bias_term: true
    pad: 1
    kernel_size: 3
    stride: 1
    weight_filler {
      type: "msra"
    }
    bias_filler {
      type: "constant"
      value: 0
    }
  }
}
layer {
  name: "conv3_7_bn0"
  type: "BatchNorm"
  bottom: "conv3_7_0"
  top: "conv3_7_0"
  param {
    lr_mult: 0
    decay_mult: 0
  }
  param {
    lr_mult: 0
    decay_mult: 0
  }
  param {
    lr_mult: 0
    decay_mult: 0
  }
  batch_norm_param {
    use_global_stats: false
  }
}
layer {
  name: "conv3_7_scale0"
  type: "Scale"
  bottom: "conv3_7_0"
  top: "conv3_7_0"
  scale_param {
    bias_term: true
  }
}
layer {
  name: "conv3_7_ReLU0"
  type: "ReLU"
  bottom: "conv3_7_0"
  top: "conv3_7_0"
}
layer {
  name: "conv3_7_1"
  type: "Convolution"
  bottom: "conv3_7_0"
  top: "conv3_7_1"
  param {
    lr_mult: 1
    decay_mult: 1
  }
  param {
    lr_mult: 2
    decay_mult: 0
  }
  convolution_param {
    num_output: 32
    bias_term: true
    pad: 1
    kernel_size: 3
    stride: 1
    weight_filler {
      type: "msra"
    }
    bias_filler {
      type: "constant"
      value: 0
    }
  }
}
layer {
  name: "conv3_7bn1"
  type: "BatchNorm"
  bottom: "conv3_7_1"
  top: "conv3_7_1"
  param {
    lr_mult: 0
    decay_mult: 0
  }
  param {
    lr_mult: 0
    decay_mult: 0
  }
  param {
    lr_mult: 0
    decay_mult: 0
  }
  batch_norm_param {
    use_global_stats: false
  }
}
layer {
  name: "conv3_7_scale1"
I0927 00:14:00.392271 18853 layer_factory.hpp:77] Creating layer Data1
I0927 00:14:00.392467 18853 db_lmdb.cpp:35] Opened lmdb /home/lijianfei/datasets/cifar10_40/train_lmdb
I0927 00:14:00.392529 18853 net.cpp:128] Creating Layer Data1
I0927 00:14:00.392540 18853 net.cpp:522] Data1 -> data
I0927 00:14:00.392575 18853 net.cpp:522] Data1 -> label
I0927 00:14:00.394421 18853 data_layer.cpp:45] output data size: 128,3,32,32
I0927 00:14:00.410732 18853 net.cpp:172] Setting up Data1
I0927 00:14:00.410794 18853 net.cpp:186] Top shape: 128 3 32 32 (393216)
I0927 00:14:00.410800 18853 net.cpp:186] Top shape: 128 (128)
I0927 00:14:00.410804 18853 net.cpp:194] Memory required for data: 1573376
I0927 00:14:00.410847 18853 layer_factory.hpp:77] Creating layer conv1
I0927 00:14:00.410884 18853 net.cpp:128] Creating Layer conv1
I0927 00:14:00.410894 18853 net.cpp:558] conv1 <- data
I0927 00:14:00.410917 18853 net.cpp:522] conv1 -> conv1
I0927 00:14:01.444604 18853 net.cpp:172] Setting up conv1
I0927 00:14:01.444669 18853 net.cpp:186] Top shape: 128 16 32 32 (2097152)
I0927 00:14:01.444679 18853 net.cpp:194] Memory required for data: 9961984
I0927 00:14:01.444721 18853 layer_factory.hpp:77] Creating layer conv1/bn
I0927 00:14:01.444749 18853 net.cpp:128] Creating Layer conv1/bn
I0927 00:14:01.444756 18853 net.cpp:558] conv1/bn <- conv1
I0927 00:14:01.444766 18853 net.cpp:509] conv1/bn -> conv1 (in-place)
I0927 00:14:01.445052 18853 net.cpp:172] Setting up conv1/bn
I0927 00:14:01.445068 18853 net.cpp:186] Top shape: 128 16 32 32 (2097152)
I0927 00:14:01.445073 18853 net.cpp:194] Memory required for data: 18350592
I0927 00:14:01.445087 18853 layer_factory.hpp:77] Creating layer conv1/scale
I0927 00:14:01.445096 18853 net.cpp:128] Creating Layer conv1/scale
I0927 00:14:01.445101 18853 net.cpp:558] conv1/scale <- conv1
I0927 00:14:01.445107 18853 net.cpp:509] conv1/scale -> conv1 (in-place)
I0927 00:14:01.445153 18853 layer_factory.hpp:77] Creating layer conv1/scale
I0927 00:14:01.445281 18853 net.cpp:172] Setting up conv1/scale
I0927 00:14:01.445293 18853 net.cpp:186] Top shape: 128 16 32 32 (2097152)
I0927 00:14:01.445298 18853 net.cpp:194] Memory required for data: 26739200
I0927 00:14:01.445307 18853 layer_factory.hpp:77] Creating layer conv1/ReLU
I0927 00:14:01.445314 18853 net.cpp:128] Creating Layer conv1/ReLU
I0927 00:14:01.445318 18853 net.cpp:558] conv1/ReLU <- conv1
I0927 00:14:01.445324 18853 net.cpp:509] conv1/ReLU -> conv1 (in-place)
I0927 00:14:01.446333 18853 net.cpp:172] Setting up conv1/ReLU
I0927 00:14:01.446353 18853 net.cpp:186] Top shape: 128 16 32 32 (2097152)
I0927 00:14:01.446358 18853 net.cpp:194] Memory required for data: 35127808
I0927 00:14:01.446362 18853 layer_factory.hpp:77] Creating layer conv1_conv1/ReLU_0_split
I0927 00:14:01.446372 18853 net.cpp:128] Creating Layer conv1_conv1/ReLU_0_split
I0927 00:14:01.446377 18853 net.cpp:558] conv1_conv1/ReLU_0_split <- conv1
I0927 00:14:01.446382 18853 net.cpp:522] conv1_conv1/ReLU_0_split -> conv1_conv1/ReLU_0_split_0
I0927 00:14:01.446393 18853 net.cpp:522] conv1_conv1/ReLU_0_split -> conv1_conv1/ReLU_0_split_1
I0927 00:14:01.446435 18853 net.cpp:172] Setting up conv1_conv1/ReLU_0_split
I0927 00:14:01.446442 18853 net.cpp:186] Top shape: 128 16 32 32 (2097152)
I0927 00:14:01.446449 18853 net.cpp:186] Top shape: 128 16 32 32 (2097152)
I0927 00:14:01.446452 18853 net.cpp:194] Memory required for data: 51905024
I0927 00:14:01.446456 18853 layer_factory.hpp:77] Creating layer conv2_1_0
I0927 00:14:01.446471 18853 net.cpp:128] Creating Layer conv2_1_0
I0927 00:14:01.446475 18853 net.cpp:558] conv2_1_0 <- conv1_conv1/ReLU_0_split_0
I0927 00:14:01.446483 18853 net.cpp:522] conv2_1_0 -> conv2_1_0
I0927 00:14:01.453030 18853 net.cpp:172] Setting up conv2_1_0
I0927 00:14:01.453073 18853 net.cpp:186] Top shape: 128 16 32 32 (2097152)
I0927 00:14:01.453076 18853 net.cpp:194] Memory required for data: 60293632
I0927 00:14:01.453095 18853 layer_factory.hpp:77] Creating layer conv2_1_bn0
I0927 00:14:01.453110 18853 net.cpp:128] Creating Layer conv2_1_bn0
I0927 00:14:01.453115 18853 net.cpp:558] conv2_1_bn0 <- conv2_1_0
I0927 00:14:01.453125 18853 net.cpp:509] conv2_1_bn0 -> conv2_1_0 (in-place)
I0927 00:14:01.453348 18853 net.cpp:172] Setting up conv2_1_bn0
I0927 00:14:01.453356 18853 net.cpp:186] Top shape: 128 16 32 32 (2097152)
I0927 00:14:01.453359 18853 net.cpp:194] Memory required for data: 68682240
I0927 00:14:01.453371 18853 layer_factory.hpp:77] Creating layer conv2_1_scale0
I0927 00:14:01.453380 18853 net.cpp:128] Creating Layer conv2_1_scale0
I0927 00:14:01.453384 18853 net.cpp:558] conv2_1_scale0 <- conv2_1_0
I0927 00:14:01.453390 18853 net.cpp:509] conv2_1_scale0 -> conv2_1_0 (in-place)
I0927 00:14:01.453429 18853 layer_factory.hpp:77] Creating layer conv2_1_scale0
I0927 00:14:01.453554 18853 net.cpp:172] Setting up conv2_1_scale0
I0927 00:14:01.453562 18853 net.cpp:186] Top shape: 128 16 32 32 (2097152)
I0927 00:14:01.453565 18853 net.cpp:194] Memory required for data: 77070848
I0927 00:14:01.453573 18853 layer_factory.hpp:77] Creating layer conv2_1_ReLU0
I0927 00:14:01.453580 18853 net.cpp:128] Creating Layer conv2_1_ReLU0
I0927 00:14:01.453584 18853 net.cpp:558] conv2_1_ReLU0 <- conv2_1_0
I0927 00:14:01.453590 18853 net.cpp:509] conv2_1_ReLU0 -> conv2_1_0 (in-place)
I0927 00:14:01.455061 18853 net.cpp:172] Setting up conv2_1_ReLU0
I0927 00:14:01.455073 18853 net.cpp:186] Top shape: 128 16 32 32 (2097152)
I0927 00:14:01.455077 18853 net.cpp:194] Memory required for data: 85459456
I0927 00:14:01.455106 18853 layer_factory.hpp:77] Creating layer conv2_1_1
I0927 00:14:01.455121 18853 net.cpp:128] Creating Layer conv2_1_1
I0927 00:14:01.455126 18853 net.cpp:558] conv2_1_1 <- conv2_1_0
I0927 00:14:01.455133 18853 net.cpp:522] conv2_1_1 -> conv2_1_1
I0927 00:14:01.461753 18853 net.cpp:172] Setting up conv2_1_1
I0927 00:14:01.461784 18853 net.cpp:186] Top shape: 128 16 32 32 (2097152)
I0927 00:14:01.461788 18853 net.cpp:194] Memory required for data: 93848064
I0927 00:14:01.461800 18853 layer_factory.hpp:77] Creating layer conv2_1bn1
I0927 00:14:01.461812 18853 net.cpp:128] Creating Layer conv2_1bn1
I0927 00:14:01.461817 18853 net.cpp:558] conv2_1bn1 <- conv2_1_1
I0927 00:14:01.461828 18853 net.cpp:509] conv2_1bn1 -> conv2_1_1 (in-place)
I0927 00:14:01.462064 18853 net.cpp:172] Setting up conv2_1bn1
I0927 00:14:01.462076 18853 net.cpp:186] Top shape: 128 16 32 32 (2097152)
I0927 00:14:01.462081 18853 net.cpp:194] Memory required for data: 102236672
I0927 00:14:01.462095 18853 layer_factory.hpp:77] Creating layer conv2_1_scale1
I0927 00:14:01.462102 18853 net.cpp:128] Creating Layer conv2_1_scale1
I0927 00:14:01.462106 18853 net.cpp:558] conv2_1_scale1 <- conv2_1_1
I0927 00:14:01.462112 18853 net.cpp:509] conv2_1_scale1 -> conv2_1_1 (in-place)
I0927 00:14:01.462150 18853 layer_factory.hpp:77] Creating layer conv2_1_scale1
I0927 00:14:01.462283 18853 net.cpp:172] Setting up conv2_1_scale1
I0927 00:14:01.462291 18853 net.cpp:186] Top shape: 128 16 32 32 (2097152)
I0927 00:14:01.462294 18853 net.cpp:194] Memory required for data: 110625280
I0927 00:14:01.462301 18853 layer_factory.hpp:77] Creating layer conv2_Eltwise_1
I0927 00:14:01.462317 18853 net.cpp:128] Creating Layer conv2_Eltwise_1
I0927 00:14:01.462322 18853 net.cpp:558] conv2_Eltwise_1 <- conv1_conv1/ReLU_0_split_1
I0927 00:14:01.462327 18853 net.cpp:558] conv2_Eltwise_1 <- conv2_1_1
I0927 00:14:01.462337 18853 net.cpp:522] conv2_Eltwise_1 -> conv2_Eltwise_1
I0927 00:14:01.462366 18853 net.cpp:172] Setting up conv2_Eltwise_1
I0927 00:14:01.462373 18853 net.cpp:186] Top shape: 128 16 32 32 (2097152)
I0927 00:14:01.462378 18853 net.cpp:194] Memory required for data: 119013888
I0927 00:14:01.462383 18853 layer_factory.hpp:77] Creating layer conv2_1ReLU_1
I0927 00:14:01.462388 18853 net.cpp:128] Creating Layer conv2_1ReLU_1
I0927 00:14:01.462393 18853 net.cpp:558] conv2_1ReLU_1 <- conv2_Eltwise_1
I0927 00:14:01.462401 18853 net.cpp:509] conv2_1ReLU_1 -> conv2_Eltwise_1 (in-place)
I0927 00:14:01.463855 18853 net.cpp:172] Setting up conv2_1ReLU_1
I0927 00:14:01.463877 18853 net.cpp:186] Top shape: 128 16 32 32 (2097152)
I0927 00:14:01.463882 18853 net.cpp:194] Memory required for data: 127402496
I0927 00:14:01.463887 18853 layer_factory.hpp:77] Creating layer conv2_Eltwise_1_conv2_1ReLU_1_0_split
I0927 00:14:01.463902 18853 net.cpp:128] Creating Layer conv2_Eltwise_1_conv2_1ReLU_1_0_split
I0927 00:14:01.463907 18853 net.cpp:558] conv2_Eltwise_1_conv2_1ReLU_1_0_split <- conv2_Eltwise_1
I0927 00:14:01.463915 18853 net.cpp:522] conv2_Eltwise_1_conv2_1ReLU_1_0_split -> conv2_Eltwise_1_conv2_1ReLU_1_0_split_0
I0927 00:14:01.463928 18853 net.cpp:522] conv2_Eltwise_1_conv2_1ReLU_1_0_split -> conv2_Eltwise_1_conv2_1ReLU_1_0_split_1
I0927 00:14:01.463979 18853 net.cpp:172] Setting up conv2_Eltwise_1_conv2_1ReLU_1_0_split
I0927 00:14:01.463987 18853 net.cpp:186] Top shape: 128 16 32 32 (2097152)
I0927 00:14:01.463994 18853 net.cpp:186] Top shape: 128 16 32 32 (2097152)
I0927 00:14:01.463997 18853 net.cpp:194] Memory required for data: 144179712
I0927 00:14:01.464001 18853 layer_factory.hpp:77] Creating layer conv2_2_0
I0927 00:14:01.464021 18853 net.cpp:128] Creating Layer conv2_2_0
I0927 00:14:01.464026 18853 net.cpp:558] conv2_2_0 <- conv2_Eltwise_1_conv2_1ReLU_1_0_split_0
I0927 00:14:01.464035 18853 net.cpp:522] conv2_2_0 -> conv2_2_0
I0927 00:14:01.470577 18853 net.cpp:172] Setting up conv2_2_0
I0927 00:14:01.470604 18853 net.cpp:186] Top shape: 128 16 32 32 (2097152)
I0927 00:14:01.470609 18853 net.cpp:194] Memory required for data: 152568320
I0927 00:14:01.470643 18853 layer_factory.hpp:77] Creating layer conv2_2_bn0
I0927 00:14:01.470659 18853 net.cpp:128] Creating Layer conv2_2_bn0
I0927 00:14:01.470665 18853 net.cpp:558] conv2_2_bn0 <- conv2_2_0
I0927 00:14:01.470675 18853 net.cpp:509] conv2_2_bn0 -> conv2_2_0 (in-place)
I0927 00:14:01.470937 18853 net.cpp:172] Setting up conv2_2_bn0
I0927 00:14:01.470949 18853 net.cpp:186] Top shape: 128 16 32 32 (2097152)
I0927 00:14:01.470953 18853 net.cpp:194] Memory required for data: 160956928
I0927 00:14:01.470964 18853 layer_factory.hpp:77] Creating layer conv2_2_scale0
I0927 00:14:01.470974 18853 net.cpp:128] Creating Layer conv2_2_scale0
I0927 00:14:01.470981 18853 net.cpp:558] conv2_2_scale0 <- conv2_2_0
I0927 00:14:01.470988 18853 net.cpp:509] conv2_2_scale0 -> conv2_2_0 (in-place)
I0927 00:14:01.471027 18853 layer_factory.hpp:77] Creating layer conv2_2_scale0
I0927 00:14:01.471165 18853 net.cpp:172] Setting up conv2_2_scale0
I0927 00:14:01.471176 18853 net.cpp:186] Top shape: 128 16 32 32 (2097152)
I0927 00:14:01.471180 18853 net.cpp:194] Memory required for data: 169345536
I0927 00:14:01.471189 18853 layer_factory.hpp:77] Creating layer conv2_2_ReLU0
I0927 00:14:01.471202 18853 net.cpp:128] Creating Layer conv2_2_ReLU0
I0927 00:14:01.471207 18853 net.cpp:558] conv2_2_ReLU0 <- conv2_2_0
I0927 00:14:01.471215 18853 net.cpp:509] conv2_2_ReLU0 -> conv2_2_0 (in-place)
I0927 00:14:01.472620 18853 net.cpp:172] Setting up conv2_2_ReLU0
I0927 00:14:01.472638 18853 net.cpp:186] Top shape: 128 16 32 32 (2097152)
I0927 00:14:01.472643 18853 net.cpp:194] Memory required for data: 177734144
I0927 00:14:01.472648 18853 layer_factory.hpp:77] Creating layer conv2_2_1
I0927 00:14:01.472666 18853 net.cpp:128] Creating Layer conv2_2_1
I0927 00:14:01.472672 18853 net.cpp:558] conv2_2_1 <- conv2_2_0
I0927 00:14:01.472682 18853 net.cpp:522] conv2_2_1 -> conv2_2_1
I0927 00:14:01.479293 18853 net.cpp:172] Setting up conv2_2_1
I0927 00:14:01.479316 18853 net.cpp:186] Top shape: 128 16 32 32 (2097152)
I0927 00:14:01.479321 18853 net.cpp:194] Memory required for data: 186122752
I0927 00:14:01.479333 18853 layer_factory.hpp:77] Creating layer conv2_2bn1
I0927 00:14:01.479342 18853 net.cpp:128] Creating Layer conv2_2bn1
I0927 00:14:01.479347 18853 net.cpp:558] conv2_2bn1 <- conv2_2_1
I0927 00:14:01.479357 18853 net.cpp:509] conv2_2bn1 -> conv2_2_1 (in-place)
I0927 00:14:01.479602 18853 net.cpp:172] Setting up conv2_2bn1
I0927 00:14:01.479615 18853 net.cpp:186] Top shape: 128 16 32 32 (2097152)
I0927 00:14:01.479619 18853 net.cpp:194] Memory required for data: 194511360
I0927 00:14:01.479634 18853 layer_factory.hpp:77] Creating layer conv2_2_scale1
I0927 00:14:01.479641 18853 net.cpp:128] Creating Layer conv2_2_scale1
I0927 00:14:01.479645 18853 net.cpp:558] conv2_2_scale1 <- conv2_2_1
I0927 00:14:01.479650 18853 net.cpp:509] conv2_2_scale1 -> conv2_2_1 (in-place)
I0927 00:14:01.479692 18853 layer_factory.hpp:77] Creating layer conv2_2_scale1
I0927 00:14:01.479826 18853 net.cpp:172] Setting up conv2_2_scale1
I0927 00:14:01.479833 18853 net.cpp:186] Top shape: 128 16 32 32 (2097152)
I0927 00:14:01.479837 18853 net.cpp:194] Memory required for data: 202899968
I0927 00:14:01.479845 18853 layer_factory.hpp:77] Creating layer conv2_Eltwise_2
I0927 00:14:01.479854 18853 net.cpp:128] Creating Layer conv2_Eltwise_2
I0927 00:14:01.479861 18853 net.cpp:558] conv2_Eltwise_2 <- conv2_Eltwise_1_conv2_1ReLU_1_0_split_1
I0927 00:14:01.479866 18853 net.cpp:558] conv2_Eltwise_2 <- conv2_2_1
I0927 00:14:01.479873 18853 net.cpp:522] conv2_Eltwise_2 -> conv2_Eltwise_2
I0927 00:14:01.479898 18853 net.cpp:172] Setting up conv2_Eltwise_2
I0927 00:14:01.479905 18853 net.cpp:186] Top shape: 128 16 32 32 (2097152)
I0927 00:14:01.479908 18853 net.cpp:194] Memory required for data: 211288576
I0927 00:14:01.479913 18853 layer_factory.hpp:77] Creating layer conv2_2ReLU_1
I0927 00:14:01.479923 18853 net.cpp:128] Creating Layer conv2_2ReLU_1
I0927 00:14:01.479928 18853 net.cpp:558] conv2_2ReLU_1 <- conv2_Eltwise_2
I0927 00:14:01.479933 18853 net.cpp:509] conv2_2ReLU_1 -> conv2_Eltwise_2 (in-place)
I0927 00:14:01.481379 18853 net.cpp:172] Setting up conv2_2ReLU_1
I0927 00:14:01.481396 18853 net.cpp:186] Top shape: 128 16 32 32 (2097152)
I0927 00:14:01.481401 18853 net.cpp:194] Memory required for data: 219677184
I0927 00:14:01.481406 18853 layer_factory.hpp:77] Creating layer conv2_Eltwise_2_conv2_2ReLU_1_0_split
I0927 00:14:01.481416 18853 net.cpp:128] Creating Layer conv2_Eltwise_2_conv2_2ReLU_1_0_split
I0927 00:14:01.481421 18853 net.cpp:558] conv2_Eltwise_2_conv2_2ReLU_1_0_split <- conv2_Eltwise_2
I0927 00:14:01.481428 18853 net.cpp:522] conv2_Eltwise_2_conv2_2ReLU_1_0_split -> conv2_Eltwise_2_conv2_2ReLU_1_0_split_0
I0927 00:14:01.481439 18853 net.cpp:522] conv2_Eltwise_2_conv2_2ReLU_1_0_split -> conv2_Eltwise_2_conv2_2ReLU_1_0_split_1
I0927 00:14:01.481485 18853 net.cpp:172] Setting up conv2_Eltwise_2_conv2_2ReLU_1_0_split
I0927 00:14:01.481492 18853 net.cpp:186] Top shape: 128 16 32 32 (2097152)
I0927 00:14:01.481498 18853 net.cpp:186] Top shape: 128 16 32 32 (2097152)
I0927 00:14:01.481503 18853 net.cpp:194] Memory required for data: 236454400
I0927 00:14:01.481508 18853 layer_factory.hpp:77] Creating layer conv2_3_0
I0927 00:14:01.481521 18853 net.cpp:128] Creating Layer conv2_3_0
I0927 00:14:01.481528 18853 net.cpp:558] conv2_3_0 <- conv2_Eltwise_2_conv2_2ReLU_1_0_split_0
I0927 00:14:01.481534 18853 net.cpp:522] conv2_3_0 -> conv2_3_0
I0927 00:14:01.488104 18853 net.cpp:172] Setting up conv2_3_0
I0927 00:14:01.488131 18853 net.cpp:186] Top shape: 128 16 32 32 (2097152)
I0927 00:14:01.488137 18853 net.cpp:194] Memory required for data: 244843008
I0927 00:14:01.488148 18853 layer_factory.hpp:77] Creating layer conv2_3_bn0
I0927 00:14:01.488159 18853 net.cpp:128] Creating Layer conv2_3_bn0
I0927 00:14:01.488164 18853 net.cpp:558] conv2_3_bn0 <- conv2_3_0
I0927 00:14:01.488175 18853 net.cpp:509] conv2_3_bn0 -> conv2_3_0 (in-place)
I0927 00:14:01.488416 18853 net.cpp:172] Setting up conv2_3_bn0
I0927 00:14:01.488430 18853 net.cpp:186] Top shape: 128 16 32 32 (2097152)
I0927 00:14:01.488433 18853 net.cpp:194] Memory required for data: 253231616
I0927 00:14:01.488442 18853 layer_factory.hpp:77] Creating layer conv2_3_scale0
I0927 00:14:01.488449 18853 net.cpp:128] Creating Layer conv2_3_scale0
I0927 00:14:01.488453 18853 net.cpp:558] conv2_3_scale0 <- conv2_3_0
I0927 00:14:01.488459 18853 net.cpp:509] conv2_3_scale0 -> conv2_3_0 (in-place)
I0927 00:14:01.488500 18853 layer_factory.hpp:77] Creating layer conv2_3_scale0
I0927 00:14:01.488636 18853 net.cpp:172] Setting up conv2_3_scale0
I0927 00:14:01.488644 18853 net.cpp:186] Top shape: 128 16 32 32 (2097152)
I0927 00:14:01.488648 18853 net.cpp:194] Memory required for data: 261620224
I0927 00:14:01.488656 18853 layer_factory.hpp:77] Creating layer conv2_3_ReLU0
I0927 00:14:01.488665 18853 net.cpp:128] Creating Layer conv2_3_ReLU0
I0927 00:14:01.488669 18853 net.cpp:558] conv2_3_ReLU0 <- conv2_3_0
I0927 00:14:01.488679 18853 net.cpp:509] conv2_3_ReLU0 -> conv2_3_0 (in-place)
I0927 00:14:01.490206 18853 net.cpp:172] Setting up conv2_3_ReLU0
I0927 00:14:01.490234 18853 net.cpp:186] Top shape: 128 16 32 32 (2097152)
I0927 00:14:01.490239 18853 net.cpp:194] Memory required for data: 270008832
I0927 00:14:01.490247 18853 layer_factory.hpp:77] Creating layer conv2_3_1
I0927 00:14:01.490262 18853 net.cpp:128] Creating Layer conv2_3_1
I0927 00:14:01.490267 18853 net.cpp:558] conv2_3_1 <- conv2_3_0
I0927 00:14:01.490280 18853 net.cpp:522] conv2_3_1 -> conv2_3_1
I0927 00:14:01.496897 18853 net.cpp:172] Setting up conv2_3_1
I0927 00:14:01.496924 18853 net.cpp:186] Top shape: 128 16 32 32 (2097152)
I0927 00:14:01.496928 18853 net.cpp:194] Memory required for data: 278397440
I0927 00:14:01.496938 18853 layer_factory.hpp:77] Creating layer conv2_3bn1
I0927 00:14:01.496948 18853 net.cpp:128] Creating Layer conv2_3bn1
I0927 00:14:01.496953 18853 net.cpp:558] conv2_3bn1 <- conv2_3_1
I0927 00:14:01.496961 18853 net.cpp:509] conv2_3bn1 -> conv2_3_1 (in-place)
I0927 00:14:01.497217 18853 net.cpp:172] Setting up conv2_3bn1
I0927 00:14:01.497246 18853 net.cpp:186] Top shape: 128 16 32 32 (2097152)
I0927 00:14:01.497249 18853 net.cpp:194] Memory required for data: 286786048
I0927 00:14:01.497261 18853 layer_factory.hpp:77] Creating layer conv2_3_scale1
I0927 00:14:01.497270 18853 net.cpp:128] Creating Layer conv2_3_scale1
I0927 00:14:01.497275 18853 net.cpp:558] conv2_3_scale1 <- conv2_3_1
I0927 00:14:01.497282 18853 net.cpp:509] conv2_3_scale1 -> conv2_3_1 (in-place)
I0927 00:14:01.497325 18853 layer_factory.hpp:77] Creating layer conv2_3_scale1
I0927 00:14:01.497467 18853 net.cpp:172] Setting up conv2_3_scale1
I0927 00:14:01.497474 18853 net.cpp:186] Top shape: 128 16 32 32 (2097152)
I0927 00:14:01.497478 18853 net.cpp:194] Memory required for data: 295174656
I0927 00:14:01.497485 18853 layer_factory.hpp:77] Creating layer conv2_Eltwise_3
I0927 00:14:01.497494 18853 net.cpp:128] Creating Layer conv2_Eltwise_3
I0927 00:14:01.497499 18853 net.cpp:558] conv2_Eltwise_3 <- conv2_Eltwise_2_conv2_2ReLU_1_0_split_1
I0927 00:14:01.497504 18853 net.cpp:558] conv2_Eltwise_3 <- conv2_3_1
I0927 00:14:01.497510 18853 net.cpp:522] conv2_Eltwise_3 -> conv2_Eltwise_3
I0927 00:14:01.497539 18853 net.cpp:172] Setting up conv2_Eltwise_3
I0927 00:14:01.497546 18853 net.cpp:186] Top shape: 128 16 32 32 (2097152)
I0927 00:14:01.497550 18853 net.cpp:194] Memory required for data: 303563264
I0927 00:14:01.497555 18853 layer_factory.hpp:77] Creating layer conv2_3ReLU_1
I0927 00:14:01.497560 18853 net.cpp:128] Creating Layer conv2_3ReLU_1
I0927 00:14:01.497565 18853 net.cpp:558] conv2_3ReLU_1 <- conv2_Eltwise_3
I0927 00:14:01.497575 18853 net.cpp:509] conv2_3ReLU_1 -> conv2_Eltwise_3 (in-place)
I0927 00:14:01.498993 18853 net.cpp:172] Setting up conv2_3ReLU_1
I0927 00:14:01.499011 18853 net.cpp:186] Top shape: 128 16 32 32 (2097152)
I0927 00:14:01.499017 18853 net.cpp:194] Memory required for data: 311951872
I0927 00:14:01.499022 18853 layer_factory.hpp:77] Creating layer conv2_Eltwise_3_conv2_3ReLU_1_0_split
I0927 00:14:01.499029 18853 net.cpp:128] Creating Layer conv2_Eltwise_3_conv2_3ReLU_1_0_split
I0927 00:14:01.499033 18853 net.cpp:558] conv2_Eltwise_3_conv2_3ReLU_1_0_split <- conv2_Eltwise_3
I0927 00:14:01.499043 18853 net.cpp:522] conv2_Eltwise_3_conv2_3ReLU_1_0_split -> conv2_Eltwise_3_conv2_3ReLU_1_0_split_0
I0927 00:14:01.499053 18853 net.cpp:522] conv2_Eltwise_3_conv2_3ReLU_1_0_split -> conv2_Eltwise_3_conv2_3ReLU_1_0_split_1
I0927 00:14:01.499102 18853 net.cpp:172] Setting up conv2_Eltwise_3_conv2_3ReLU_1_0_split
I0927 00:14:01.499110 18853 net.cpp:186] Top shape: 128 16 32 32 (2097152)
I0927 00:14:01.499116 18853 net.cpp:186] Top shape: 128 16 32 32 (2097152)
I0927 00:14:01.499120 18853 net.cpp:194] Memory required for data: 328729088
I0927 00:14:01.499125 18853 layer_factory.hpp:77] Creating layer conv2_4_0
I0927 00:14:01.499137 18853 net.cpp:128] Creating Layer conv2_4_0
I0927 00:14:01.499142 18853 net.cpp:558] conv2_4_0 <- conv2_Eltwise_3_conv2_3ReLU_1_0_split_0
I0927 00:14:01.499151 18853 net.cpp:522] conv2_4_0 -> conv2_4_0
I0927 00:14:01.505692 18853 net.cpp:172] Setting up conv2_4_0
I0927 00:14:01.505719 18853 net.cpp:186] Top shape: 128 16 32 32 (2097152)
I0927 00:14:01.505724 18853 net.cpp:194] Memory required for data: 337117696
I0927 00:14:01.505734 18853 layer_factory.hpp:77] Creating layer conv2_4_bn0
I0927 00:14:01.505745 18853 net.cpp:128] Creating Layer conv2_4_bn0
I0927 00:14:01.505750 18853 net.cpp:558] conv2_4_bn0 <- conv2_4_0
I0927 00:14:01.505760 18853 net.cpp:509] conv2_4_bn0 -> conv2_4_0 (in-place)
I0927 00:14:01.506005 18853 net.cpp:172] Setting up conv2_4_bn0
I0927 00:14:01.506016 18853 net.cpp:186] Top shape: 128 16 32 32 (2097152)
I0927 00:14:01.506021 18853 net.cpp:194] Memory required for data: 345506304
I0927 00:14:01.506029 18853 layer_factory.hpp:77] Creating layer conv2_4_scale0
I0927 00:14:01.506040 18853 net.cpp:128] Creating Layer conv2_4_scale0
I0927 00:14:01.506045 18853 net.cpp:558] conv2_4_scale0 <- conv2_4_0
I0927 00:14:01.506050 18853 net.cpp:509] conv2_4_scale0 -> conv2_4_0 (in-place)
I0927 00:14:01.506093 18853 layer_factory.hpp:77] Creating layer conv2_4_scale0
I0927 00:14:01.506253 18853 net.cpp:172] Setting up conv2_4_scale0
I0927 00:14:01.506260 18853 net.cpp:186] Top shape: 128 16 32 32 (2097152)
I0927 00:14:01.506265 18853 net.cpp:194] Memory required for data: 353894912
I0927 00:14:01.506273 18853 layer_factory.hpp:77] Creating layer conv2_4_ReLU0
I0927 00:14:01.506279 18853 net.cpp:128] Creating Layer conv2_4_ReLU0
I0927 00:14:01.506283 18853 net.cpp:558] conv2_4_ReLU0 <- conv2_4_0
I0927 00:14:01.506291 18853 net.cpp:509] conv2_4_ReLU0 -> conv2_4_0 (in-place)
I0927 00:14:01.507753 18853 net.cpp:172] Setting up conv2_4_ReLU0
I0927 00:14:01.507773 18853 net.cpp:186] Top shape: 128 16 32 32 (2097152)
I0927 00:14:01.507781 18853 net.cpp:194] Memory required for data: 362283520
I0927 00:14:01.507786 18853 layer_factory.hpp:77] Creating layer conv2_4_1
I0927 00:14:01.507805 18853 net.cpp:128] Creating Layer conv2_4_1
I0927 00:14:01.507815 18853 net.cpp:558] conv2_4_1 <- conv2_4_0
I0927 00:14:01.507827 18853 net.cpp:522] conv2_4_1 -> conv2_4_1
I0927 00:14:01.514467 18853 net.cpp:172] Setting up conv2_4_1
I0927 00:14:01.514493 18853 net.cpp:186] Top shape: 128 16 32 32 (2097152)
I0927 00:14:01.514498 18853 net.cpp:194] Memory required for data: 370672128
I0927 00:14:01.514511 18853 layer_factory.hpp:77] Creating layer conv2_4bn1
I0927 00:14:01.514523 18853 net.cpp:128] Creating Layer conv2_4bn1
I0927 00:14:01.514530 18853 net.cpp:558] conv2_4bn1 <- conv2_4_1
I0927 00:14:01.514537 18853 net.cpp:509] conv2_4bn1 -> conv2_4_1 (in-place)
I0927 00:14:01.514786 18853 net.cpp:172] Setting up conv2_4bn1
I0927 00:14:01.514797 18853 net.cpp:186] Top shape: 128 16 32 32 (2097152)
I0927 00:14:01.514801 18853 net.cpp:194] Memory required for data: 379060736
I0927 00:14:01.514828 18853 layer_factory.hpp:77] Creating layer conv2_4_scale1
I0927 00:14:01.514839 18853 net.cpp:128] Creating Layer conv2_4_scale1
I0927 00:14:01.514843 18853 net.cpp:558] conv2_4_scale1 <- conv2_4_1
I0927 00:14:01.514852 18853 net.cpp:509] conv2_4_scale1 -> conv2_4_1 (in-place)
I0927 00:14:01.514891 18853 layer_factory.hpp:77] Creating layer conv2_4_scale1
I0927 00:14:01.515027 18853 net.cpp:172] Setting up conv2_4_scale1
I0927 00:14:01.515040 18853 net.cpp:186] Top shape: 128 16 32 32 (2097152)
I0927 00:14:01.515044 18853 net.cpp:194] Memory required for data: 387449344
I0927 00:14:01.515053 18853 layer_factory.hpp:77] Creating layer conv2_Eltwise_4
I0927 00:14:01.515059 18853 net.cpp:128] Creating Layer conv2_Eltwise_4
I0927 00:14:01.515064 18853 net.cpp:558] conv2_Eltwise_4 <- conv2_Eltwise_3_conv2_3ReLU_1_0_split_1
I0927 00:14:01.515069 18853 net.cpp:558] conv2_Eltwise_4 <- conv2_4_1
I0927 00:14:01.515074 18853 net.cpp:522] conv2_Eltwise_4 -> conv2_Eltwise_4
I0927 00:14:01.515101 18853 net.cpp:172] Setting up conv2_Eltwise_4
I0927 00:14:01.515112 18853 net.cpp:186] Top shape: 128 16 32 32 (2097152)
I0927 00:14:01.515116 18853 net.cpp:194] Memory required for data: 395837952
I0927 00:14:01.515120 18853 layer_factory.hpp:77] Creating layer conv2_4ReLU_1
I0927 00:14:01.515130 18853 net.cpp:128] Creating Layer conv2_4ReLU_1
I0927 00:14:01.515133 18853 net.cpp:558] conv2_4ReLU_1 <- conv2_Eltwise_4
I0927 00:14:01.515139 18853 net.cpp:509] conv2_4ReLU_1 -> conv2_Eltwise_4 (in-place)
I0927 00:14:01.516544 18853 net.cpp:172] Setting up conv2_4ReLU_1
I0927 00:14:01.516562 18853 net.cpp:186] Top shape: 128 16 32 32 (2097152)
I0927 00:14:01.516566 18853 net.cpp:194] Memory required for data: 404226560
I0927 00:14:01.516571 18853 layer_factory.hpp:77] Creating layer conv2_Eltwise_4_conv2_4ReLU_1_0_split
I0927 00:14:01.516580 18853 net.cpp:128] Creating Layer conv2_Eltwise_4_conv2_4ReLU_1_0_split
I0927 00:14:01.516585 18853 net.cpp:558] conv2_Eltwise_4_conv2_4ReLU_1_0_split <- conv2_Eltwise_4
I0927 00:14:01.516592 18853 net.cpp:522] conv2_Eltwise_4_conv2_4ReLU_1_0_split -> conv2_Eltwise_4_conv2_4ReLU_1_0_split_0
I0927 00:14:01.516599 18853 net.cpp:522] conv2_Eltwise_4_conv2_4ReLU_1_0_split -> conv2_Eltwise_4_conv2_4ReLU_1_0_split_1
I0927 00:14:01.516652 18853 net.cpp:172] Setting up conv2_Eltwise_4_conv2_4ReLU_1_0_split
I0927 00:14:01.516677 18853 net.cpp:186] Top shape: 128 16 32 32 (2097152)
I0927 00:14:01.516683 18853 net.cpp:186] Top shape: 128 16 32 32 (2097152)
I0927 00:14:01.516687 18853 net.cpp:194] Memory required for data: 421003776
I0927 00:14:01.516691 18853 layer_factory.hpp:77] Creating layer conv2_5_0
I0927 00:14:01.516705 18853 net.cpp:128] Creating Layer conv2_5_0
I0927 00:14:01.516712 18853 net.cpp:558] conv2_5_0 <- conv2_Eltwise_4_conv2_4ReLU_1_0_split_0
I0927 00:14:01.516721 18853 net.cpp:522] conv2_5_0 -> conv2_5_0
I0927 00:14:01.523277 18853 net.cpp:172] Setting up conv2_5_0
I0927 00:14:01.523303 18853 net.cpp:186] Top shape: 128 16 32 32 (2097152)
I0927 00:14:01.523308 18853 net.cpp:194] Memory required for data: 429392384
I0927 00:14:01.523334 18853 layer_factory.hpp:77] Creating layer conv2_5_bn0
I0927 00:14:01.523344 18853 net.cpp:128] Creating Layer conv2_5_bn0
I0927 00:14:01.523351 18853 net.cpp:558] conv2_5_bn0 <- conv2_5_0
I0927 00:14:01.523360 18853 net.cpp:509] conv2_5_bn0 -> conv2_5_0 (in-place)
I0927 00:14:01.523608 18853 net.cpp:172] Setting up conv2_5_bn0
I0927 00:14:01.523622 18853 net.cpp:186] Top shape: 128 16 32 32 (2097152)
I0927 00:14:01.523625 18853 net.cpp:194] Memory required for data: 437780992
I0927 00:14:01.523635 18853 layer_factory.hpp:77] Creating layer conv2_5_scale0
I0927 00:14:01.523644 18853 net.cpp:128] Creating Layer conv2_5_scale0
I0927 00:14:01.523648 18853 net.cpp:558] conv2_5_scale0 <- conv2_5_0
I0927 00:14:01.523654 18853 net.cpp:509] conv2_5_scale0 -> conv2_5_0 (in-place)
I0927 00:14:01.523695 18853 layer_factory.hpp:77] Creating layer conv2_5_scale0
I0927 00:14:01.523834 18853 net.cpp:172] Setting up conv2_5_scale0
I0927 00:14:01.523846 18853 net.cpp:186] Top shape: 128 16 32 32 (2097152)
I0927 00:14:01.523850 18853 net.cpp:194] Memory required for data: 446169600
I0927 00:14:01.523859 18853 layer_factory.hpp:77] Creating layer conv2_5_ReLU0
I0927 00:14:01.523864 18853 net.cpp:128] Creating Layer conv2_5_ReLU0
I0927 00:14:01.523869 18853 net.cpp:558] conv2_5_ReLU0 <- conv2_5_0
I0927 00:14:01.523877 18853 net.cpp:509] conv2_5_ReLU0 -> conv2_5_0 (in-place)
I0927 00:14:01.525329 18853 net.cpp:172] Setting up conv2_5_ReLU0
I0927 00:14:01.525355 18853 net.cpp:186] Top shape: 128 16 32 32 (2097152)
I0927 00:14:01.525360 18853 net.cpp:194] Memory required for data: 454558208
I0927 00:14:01.525365 18853 layer_factory.hpp:77] Creating layer conv2_5_1
I0927 00:14:01.525379 18853 net.cpp:128] Creating Layer conv2_5_1
I0927 00:14:01.525385 18853 net.cpp:558] conv2_5_1 <- conv2_5_0
I0927 00:14:01.525395 18853 net.cpp:522] conv2_5_1 -> conv2_5_1
I0927 00:14:01.532066 18853 net.cpp:172] Setting up conv2_5_1
I0927 00:14:01.532093 18853 net.cpp:186] Top shape: 128 16 32 32 (2097152)
I0927 00:14:01.532097 18853 net.cpp:194] Memory required for data: 462946816
I0927 00:14:01.532106 18853 layer_factory.hpp:77] Creating layer conv2_5bn1
I0927 00:14:01.532121 18853 net.cpp:128] Creating Layer conv2_5bn1
I0927 00:14:01.532126 18853 net.cpp:558] conv2_5bn1 <- conv2_5_1
I0927 00:14:01.532140 18853 net.cpp:509] conv2_5bn1 -> conv2_5_1 (in-place)
I0927 00:14:01.532389 18853 net.cpp:172] Setting up conv2_5bn1
I0927 00:14:01.532402 18853 net.cpp:186] Top shape: 128 16 32 32 (2097152)
I0927 00:14:01.532405 18853 net.cpp:194] Memory required for data: 471335424
I0927 00:14:01.532415 18853 layer_factory.hpp:77] Creating layer conv2_5_scale1
I0927 00:14:01.532424 18853 net.cpp:128] Creating Layer conv2_5_scale1
I0927 00:14:01.532429 18853 net.cpp:558] conv2_5_scale1 <- conv2_5_1
I0927 00:14:01.532435 18853 net.cpp:509] conv2_5_scale1 -> conv2_5_1 (in-place)
I0927 00:14:01.532476 18853 layer_factory.hpp:77] Creating layer conv2_5_scale1
I0927 00:14:01.532619 18853 net.cpp:172] Setting up conv2_5_scale1
I0927 00:14:01.532631 18853 net.cpp:186] Top shape: 128 16 32 32 (2097152)
I0927 00:14:01.532635 18853 net.cpp:194] Memory required for data: 479724032
I0927 00:14:01.532644 18853 layer_factory.hpp:77] Creating layer conv2_Eltwise_5
I0927 00:14:01.532652 18853 net.cpp:128] Creating Layer conv2_Eltwise_5
I0927 00:14:01.532675 18853 net.cpp:558] conv2_Eltwise_5 <- conv2_Eltwise_4_conv2_4ReLU_1_0_split_1
I0927 00:14:01.532680 18853 net.cpp:558] conv2_Eltwise_5 <- conv2_5_1
I0927 00:14:01.532686 18853 net.cpp:522] conv2_Eltwise_5 -> conv2_Eltwise_5
I0927 00:14:01.532716 18853 net.cpp:172] Setting up conv2_Eltwise_5
I0927 00:14:01.532723 18853 net.cpp:186] Top shape: 128 16 32 32 (2097152)
I0927 00:14:01.532727 18853 net.cpp:194] Memory required for data: 488112640
I0927 00:14:01.532732 18853 layer_factory.hpp:77] Creating layer conv2_5ReLU_1
I0927 00:14:01.532738 18853 net.cpp:128] Creating Layer conv2_5ReLU_1
I0927 00:14:01.532742 18853 net.cpp:558] conv2_5ReLU_1 <- conv2_Eltwise_5
I0927 00:14:01.532752 18853 net.cpp:509] conv2_5ReLU_1 -> conv2_Eltwise_5 (in-place)
I0927 00:14:01.534140 18853 net.cpp:172] Setting up conv2_5ReLU_1
I0927 00:14:01.534155 18853 net.cpp:186] Top shape: 128 16 32 32 (2097152)
I0927 00:14:01.534159 18853 net.cpp:194] Memory required for data: 496501248
I0927 00:14:01.534164 18853 layer_factory.hpp:77] Creating layer conv2_Eltwise_5_conv2_5ReLU_1_0_split
I0927 00:14:01.534171 18853 net.cpp:128] Creating Layer conv2_Eltwise_5_conv2_5ReLU_1_0_split
I0927 00:14:01.534176 18853 net.cpp:558] conv2_Eltwise_5_conv2_5ReLU_1_0_split <- conv2_Eltwise_5
I0927 00:14:01.534184 18853 net.cpp:522] conv2_Eltwise_5_conv2_5ReLU_1_0_split -> conv2_Eltwise_5_conv2_5ReLU_1_0_split_0
I0927 00:14:01.534193 18853 net.cpp:522] conv2_Eltwise_5_conv2_5ReLU_1_0_split -> conv2_Eltwise_5_conv2_5ReLU_1_0_split_1
I0927 00:14:01.534242 18853 net.cpp:172] Setting up conv2_Eltwise_5_conv2_5ReLU_1_0_split
I0927 00:14:01.534255 18853 net.cpp:186] Top shape: 128 16 32 32 (2097152)
I0927 00:14:01.534260 18853 net.cpp:186] Top shape: 128 16 32 32 (2097152)
I0927 00:14:01.534263 18853 net.cpp:194] Memory required for data: 513278464
I0927 00:14:01.534267 18853 layer_factory.hpp:77] Creating layer conv2_6_0
I0927 00:14:01.534281 18853 net.cpp:128] Creating Layer conv2_6_0
I0927 00:14:01.534286 18853 net.cpp:558] conv2_6_0 <- conv2_Eltwise_5_conv2_5ReLU_1_0_split_0
I0927 00:14:01.534296 18853 net.cpp:522] conv2_6_0 -> conv2_6_0
I0927 00:14:01.540832 18853 net.cpp:172] Setting up conv2_6_0
I0927 00:14:01.540858 18853 net.cpp:186] Top shape: 128 16 32 32 (2097152)
I0927 00:14:01.540863 18853 net.cpp:194] Memory required for data: 521667072
I0927 00:14:01.540876 18853 layer_factory.hpp:77] Creating layer conv2_6_bn0
I0927 00:14:01.540886 18853 net.cpp:128] Creating Layer conv2_6_bn0
I0927 00:14:01.540902 18853 net.cpp:558] conv2_6_bn0 <- conv2_6_0
I0927 00:14:01.540912 18853 net.cpp:509] conv2_6_bn0 -> conv2_6_0 (in-place)
I0927 00:14:01.541167 18853 net.cpp:172] Setting up conv2_6_bn0
I0927 00:14:01.541177 18853 net.cpp:186] Top shape: 128 16 32 32 (2097152)
I0927 00:14:01.541182 18853 net.cpp:194] Memory required for data: 530055680
I0927 00:14:01.541190 18853 layer_factory.hpp:77] Creating layer conv2_6_scale0
I0927 00:14:01.541208 18853 net.cpp:128] Creating Layer conv2_6_scale0
I0927 00:14:01.541219 18853 net.cpp:558] conv2_6_scale0 <- conv2_6_0
I0927 00:14:01.541225 18853 net.cpp:509] conv2_6_scale0 -> conv2_6_0 (in-place)
I0927 00:14:01.541267 18853 layer_factory.hpp:77] Creating layer conv2_6_scale0
I0927 00:14:01.541414 18853 net.cpp:172] Setting up conv2_6_scale0
I0927 00:14:01.541424 18853 net.cpp:186] Top shape: 128 16 32 32 (2097152)
I0927 00:14:01.541427 18853 net.cpp:194] Memory required for data: 538444288
I0927 00:14:01.541435 18853 layer_factory.hpp:77] Creating layer conv2_6_ReLU0
I0927 00:14:01.541445 18853 net.cpp:128] Creating Layer conv2_6_ReLU0
I0927 00:14:01.541456 18853 net.cpp:558] conv2_6_ReLU0 <- conv2_6_0
I0927 00:14:01.541462 18853 net.cpp:509] conv2_6_ReLU0 -> conv2_6_0 (in-place)
I0927 00:14:01.542873 18853 net.cpp:172] Setting up conv2_6_ReLU0
I0927 00:14:01.542889 18853 net.cpp:186] Top shape: 128 16 32 32 (2097152)
I0927 00:14:01.542894 18853 net.cpp:194] Memory required for data: 546832896
I0927 00:14:01.542899 18853 layer_factory.hpp:77] Creating layer conv2_6_1
I0927 00:14:01.542935 18853 net.cpp:128] Creating Layer conv2_6_1
I0927 00:14:01.542942 18853 net.cpp:558] conv2_6_1 <- conv2_6_0
I0927 00:14:01.542949 18853 net.cpp:522] conv2_6_1 -> conv2_6_1
I0927 00:14:01.549559 18853 net.cpp:172] Setting up conv2_6_1
I0927 00:14:01.549587 18853 net.cpp:186] Top shape: 128 16 32 32 (2097152)
I0927 00:14:01.549592 18853 net.cpp:194] Memory required for data: 555221504
I0927 00:14:01.549600 18853 layer_factory.hpp:77] Creating layer conv2_6bn1
I0927 00:14:01.549612 18853 net.cpp:128] Creating Layer conv2_6bn1
I0927 00:14:01.549618 18853 net.cpp:558] conv2_6bn1 <- conv2_6_1
I0927 00:14:01.549624 18853 net.cpp:509] conv2_6bn1 -> conv2_6_1 (in-place)
I0927 00:14:01.549882 18853 net.cpp:172] Setting up conv2_6bn1
I0927 00:14:01.549896 18853 net.cpp:186] Top shape: 128 16 32 32 (2097152)
I0927 00:14:01.549901 18853 net.cpp:194] Memory required for data: 563610112
I0927 00:14:01.549909 18853 layer_factory.hpp:77] Creating layer conv2_6_scale1
I0927 00:14:01.549916 18853 net.cpp:128] Creating Layer conv2_6_scale1
I0927 00:14:01.549921 18853 net.cpp:558] conv2_6_scale1 <- conv2_6_1
I0927 00:14:01.549929 18853 net.cpp:509] conv2_6_scale1 -> conv2_6_1 (in-place)
I0927 00:14:01.549968 18853 layer_factory.hpp:77] Creating layer conv2_6_scale1
I0927 00:14:01.550112 18853 net.cpp:172] Setting up conv2_6_scale1
I0927 00:14:01.550127 18853 net.cpp:186] Top shape: 128 16 32 32 (2097152)
I0927 00:14:01.550132 18853 net.cpp:194] Memory required for data: 571998720
I0927 00:14:01.550139 18853 layer_factory.hpp:77] Creating layer conv2_Eltwise_6
I0927 00:14:01.550148 18853 net.cpp:128] Creating Layer conv2_Eltwise_6
I0927 00:14:01.550151 18853 net.cpp:558] conv2_Eltwise_6 <- conv2_Eltwise_5_conv2_5ReLU_1_0_split_1
I0927 00:14:01.550156 18853 net.cpp:558] conv2_Eltwise_6 <- conv2_6_1
I0927 00:14:01.550163 18853 net.cpp:522] conv2_Eltwise_6 -> conv2_Eltwise_6
I0927 00:14:01.550195 18853 net.cpp:172] Setting up conv2_Eltwise_6
I0927 00:14:01.550204 18853 net.cpp:186] Top shape: 128 16 32 32 (2097152)
I0927 00:14:01.550207 18853 net.cpp:194] Memory required for data: 580387328
I0927 00:14:01.550211 18853 layer_factory.hpp:77] Creating layer conv2_6ReLU_1
I0927 00:14:01.550221 18853 net.cpp:128] Creating Layer conv2_6ReLU_1
I0927 00:14:01.550227 18853 net.cpp:558] conv2_6ReLU_1 <- conv2_Eltwise_6
I0927 00:14:01.550232 18853 net.cpp:509] conv2_6ReLU_1 -> conv2_Eltwise_6 (in-place)
I0927 00:14:01.551290 18853 net.cpp:172] Setting up conv2_6ReLU_1
I0927 00:14:01.551316 18853 net.cpp:186] Top shape: 128 16 32 32 (2097152)
I0927 00:14:01.551321 18853 net.cpp:194] Memory required for data: 588775936
I0927 00:14:01.551326 18853 layer_factory.hpp:77] Creating layer conv2_Eltwise_6_conv2_6ReLU_1_0_split
I0927 00:14:01.551333 18853 net.cpp:128] Creating Layer conv2_Eltwise_6_conv2_6ReLU_1_0_split
I0927 00:14:01.551338 18853 net.cpp:558] conv2_Eltwise_6_conv2_6ReLU_1_0_split <- conv2_Eltwise_6
I0927 00:14:01.551347 18853 net.cpp:522] conv2_Eltwise_6_conv2_6ReLU_1_0_split -> conv2_Eltwise_6_conv2_6ReLU_1_0_split_0
I0927 00:14:01.551357 18853 net.cpp:522] conv2_Eltwise_6_conv2_6ReLU_1_0_split -> conv2_Eltwise_6_conv2_6ReLU_1_0_split_1
I0927 00:14:01.551407 18853 net.cpp:172] Setting up conv2_Eltwise_6_conv2_6ReLU_1_0_split
I0927 00:14:01.551416 18853 net.cpp:186] Top shape: 128 16 32 32 (2097152)
I0927 00:14:01.551422 18853 net.cpp:186] Top shape: 128 16 32 32 (2097152)
I0927 00:14:01.551426 18853 net.cpp:194] Memory required for data: 605553152
I0927 00:14:01.551430 18853 layer_factory.hpp:77] Creating layer conv2_7_0
I0927 00:14:01.551445 18853 net.cpp:128] Creating Layer conv2_7_0
I0927 00:14:01.551448 18853 net.cpp:558] conv2_7_0 <- conv2_Eltwise_6_conv2_6ReLU_1_0_split_0
I0927 00:14:01.551458 18853 net.cpp:522] conv2_7_0 -> conv2_7_0
I0927 00:14:01.552765 18853 net.cpp:172] Setting up conv2_7_0
I0927 00:14:01.552789 18853 net.cpp:186] Top shape: 128 16 32 32 (2097152)
I0927 00:14:01.552794 18853 net.cpp:194] Memory required for data: 613941760
I0927 00:14:01.552804 18853 layer_factory.hpp:77] Creating layer conv2_7_bn0
I0927 00:14:01.552831 18853 net.cpp:128] Creating Layer conv2_7_bn0
I0927 00:14:01.552837 18853 net.cpp:558] conv2_7_bn0 <- conv2_7_0
I0927 00:14:01.552848 18853 net.cpp:509] conv2_7_bn0 -> conv2_7_0 (in-place)
I0927 00:14:01.553107 18853 net.cpp:172] Setting up conv2_7_bn0
I0927 00:14:01.553119 18853 net.cpp:186] Top shape: 128 16 32 32 (2097152)
I0927 00:14:01.553123 18853 net.cpp:194] Memory required for data: 622330368
I0927 00:14:01.553133 18853 layer_factory.hpp:77] Creating layer conv2_7_scale0
I0927 00:14:01.553139 18853 net.cpp:128] Creating Layer conv2_7_scale0
I0927 00:14:01.553143 18853 net.cpp:558] conv2_7_scale0 <- conv2_7_0
I0927 00:14:01.553149 18853 net.cpp:509] conv2_7_scale0 -> conv2_7_0 (in-place)
I0927 00:14:01.553191 18853 layer_factory.hpp:77] Creating layer conv2_7_scale0
I0927 00:14:01.553331 18853 net.cpp:172] Setting up conv2_7_scale0
I0927 00:14:01.553339 18853 net.cpp:186] Top shape: 128 16 32 32 (2097152)
I0927 00:14:01.553342 18853 net.cpp:194] Memory required for data: 630718976
I0927 00:14:01.553350 18853 layer_factory.hpp:77] Creating layer conv2_7_ReLU0
I0927 00:14:01.553356 18853 net.cpp:128] Creating Layer conv2_7_ReLU0
I0927 00:14:01.553361 18853 net.cpp:558] conv2_7_ReLU0 <- conv2_7_0
I0927 00:14:01.553369 18853 net.cpp:509] conv2_7_ReLU0 -> conv2_7_0 (in-place)
I0927 00:14:01.553611 18853 net.cpp:172] Setting up conv2_7_ReLU0
I0927 00:14:01.553628 18853 net.cpp:186] Top shape: 128 16 32 32 (2097152)
I0927 00:14:01.553632 18853 net.cpp:194] Memory required for data: 639107584
I0927 00:14:01.553637 18853 layer_factory.hpp:77] Creating layer conv2_7_1
I0927 00:14:01.553652 18853 net.cpp:128] Creating Layer conv2_7_1
I0927 00:14:01.553656 18853 net.cpp:558] conv2_7_1 <- conv2_7_0
I0927 00:14:01.553666 18853 net.cpp:522] conv2_7_1 -> conv2_7_1
I0927 00:14:01.556643 18853 net.cpp:172] Setting up conv2_7_1
I0927 00:14:01.556671 18853 net.cpp:186] Top shape: 128 16 32 32 (2097152)
I0927 00:14:01.556675 18853 net.cpp:194] Memory required for data: 647496192
I0927 00:14:01.556685 18853 layer_factory.hpp:77] Creating layer conv2_7bn1
I0927 00:14:01.556699 18853 net.cpp:128] Creating Layer conv2_7bn1
I0927 00:14:01.556704 18853 net.cpp:558] conv2_7bn1 <- conv2_7_1
I0927 00:14:01.556712 18853 net.cpp:509] conv2_7bn1 -> conv2_7_1 (in-place)
I0927 00:14:01.556964 18853 net.cpp:172] Setting up conv2_7bn1
I0927 00:14:01.556977 18853 net.cpp:186] Top shape: 128 16 32 32 (2097152)
I0927 00:14:01.556980 18853 net.cpp:194] Memory required for data: 655884800
I0927 00:14:01.556989 18853 layer_factory.hpp:77] Creating layer conv2_7_scale1
I0927 00:14:01.556999 18853 net.cpp:128] Creating Layer conv2_7_scale1
I0927 00:14:01.557003 18853 net.cpp:558] conv2_7_scale1 <- conv2_7_1
I0927 00:14:01.557009 18853 net.cpp:509] conv2_7_scale1 -> conv2_7_1 (in-place)
I0927 00:14:01.557049 18853 layer_factory.hpp:77] Creating layer conv2_7_scale1
I0927 00:14:01.557194 18853 net.cpp:172] Setting up conv2_7_scale1
I0927 00:14:01.557202 18853 net.cpp:186] Top shape: 128 16 32 32 (2097152)
I0927 00:14:01.557206 18853 net.cpp:194] Memory required for data: 664273408
I0927 00:14:01.557214 18853 layer_factory.hpp:77] Creating layer conv2_Eltwise_7
I0927 00:14:01.557224 18853 net.cpp:128] Creating Layer conv2_Eltwise_7
I0927 00:14:01.557230 18853 net.cpp:558] conv2_Eltwise_7 <- conv2_Eltwise_6_conv2_6ReLU_1_0_split_1
I0927 00:14:01.557235 18853 net.cpp:558] conv2_Eltwise_7 <- conv2_7_1
I0927 00:14:01.557241 18853 net.cpp:522] conv2_Eltwise_7 -> conv2_Eltwise_7
I0927 00:14:01.557272 18853 net.cpp:172] Setting up conv2_Eltwise_7
I0927 00:14:01.557279 18853 net.cpp:186] Top shape: 128 16 32 32 (2097152)
I0927 00:14:01.557284 18853 net.cpp:194] Memory required for data: 672662016
I0927 00:14:01.557288 18853 layer_factory.hpp:77] Creating layer conv2_7ReLU_1
I0927 00:14:01.557296 18853 net.cpp:128] Creating Layer conv2_7ReLU_1
I0927 00:14:01.557299 18853 net.cpp:558] conv2_7ReLU_1 <- conv2_Eltwise_7
I0927 00:14:01.557308 18853 net.cpp:509] conv2_7ReLU_1 -> conv2_Eltwise_7 (in-place)
I0927 00:14:01.558734 18853 net.cpp:172] Setting up conv2_7ReLU_1
I0927 00:14:01.558768 18853 net.cpp:186] Top shape: 128 16 32 32 (2097152)
I0927 00:14:01.558773 18853 net.cpp:194] Memory required for data: 681050624
I0927 00:14:01.558779 18853 layer_factory.hpp:77] Creating layer conv2_Eltwise_7_conv2_7ReLU_1_0_split
I0927 00:14:01.558785 18853 net.cpp:128] Creating Layer conv2_Eltwise_7_conv2_7ReLU_1_0_split
I0927 00:14:01.558789 18853 net.cpp:558] conv2_Eltwise_7_conv2_7ReLU_1_0_split <- conv2_Eltwise_7
I0927 00:14:01.558799 18853 net.cpp:522] conv2_Eltwise_7_conv2_7ReLU_1_0_split -> conv2_Eltwise_7_conv2_7ReLU_1_0_split_0
I0927 00:14:01.558807 18853 net.cpp:522] conv2_Eltwise_7_conv2_7ReLU_1_0_split -> conv2_Eltwise_7_conv2_7ReLU_1_0_split_1
I0927 00:14:01.558871 18853 net.cpp:172] Setting up conv2_Eltwise_7_conv2_7ReLU_1_0_split
I0927 00:14:01.558884 18853 net.cpp:186] Top shape: 128 16 32 32 (2097152)
I0927 00:14:01.558890 18853 net.cpp:186] Top shape: 128 16 32 32 (2097152)
I0927 00:14:01.558893 18853 net.cpp:194] Memory required for data: 697827840
I0927 00:14:01.558898 18853 layer_factory.hpp:77] Creating layer conv3_1_0
I0927 00:14:01.558910 18853 net.cpp:128] Creating Layer conv3_1_0
I0927 00:14:01.558915 18853 net.cpp:558] conv3_1_0 <- conv2_Eltwise_7_conv2_7ReLU_1_0_split_0
I0927 00:14:01.558924 18853 net.cpp:522] conv3_1_0 -> conv3_1_0
I0927 00:14:01.565997 18853 net.cpp:172] Setting up conv3_1_0
I0927 00:14:01.566041 18853 net.cpp:186] Top shape: 128 32 16 16 (1048576)
I0927 00:14:01.566046 18853 net.cpp:194] Memory required for data: 702022144
I0927 00:14:01.566069 18853 layer_factory.hpp:77] Creating layer conv3_1_bn0
I0927 00:14:01.566089 18853 net.cpp:128] Creating Layer conv3_1_bn0
I0927 00:14:01.566100 18853 net.cpp:558] conv3_1_bn0 <- conv3_1_0
I0927 00:14:01.566112 18853 net.cpp:509] conv3_1_bn0 -> conv3_1_0 (in-place)
I0927 00:14:01.566378 18853 net.cpp:172] Setting up conv3_1_bn0
I0927 00:14:01.566390 18853 net.cpp:186] Top shape: 128 32 16 16 (1048576)
I0927 00:14:01.566395 18853 net.cpp:194] Memory required for data: 706216448
I0927 00:14:01.566406 18853 layer_factory.hpp:77] Creating layer conv3_1_scale0
I0927 00:14:01.566414 18853 net.cpp:128] Creating Layer conv3_1_scale0
I0927 00:14:01.566422 18853 net.cpp:558] conv3_1_scale0 <- conv3_1_0
I0927 00:14:01.566431 18853 net.cpp:509] conv3_1_scale0 -> conv3_1_0 (in-place)
I0927 00:14:01.566474 18853 layer_factory.hpp:77] Creating layer conv3_1_scale0
I0927 00:14:01.566630 18853 net.cpp:172] Setting up conv3_1_scale0
I0927 00:14:01.566642 18853 net.cpp:186] Top shape: 128 32 16 16 (1048576)
I0927 00:14:01.566645 18853 net.cpp:194] Memory required for data: 710410752
I0927 00:14:01.566653 18853 layer_factory.hpp:77] Creating layer conv3_1_ReLU0
I0927 00:14:01.566661 18853 net.cpp:128] Creating Layer conv3_1_ReLU0
I0927 00:14:01.566666 18853 net.cpp:558] conv3_1_ReLU0 <- conv3_1_0
I0927 00:14:01.566674 18853 net.cpp:509] conv3_1_ReLU0 -> conv3_1_0 (in-place)
I0927 00:14:01.567571 18853 net.cpp:172] Setting up conv3_1_ReLU0
I0927 00:14:01.567597 18853 net.cpp:186] Top shape: 128 32 16 16 (1048576)
I0927 00:14:01.567602 18853 net.cpp:194] Memory required for data: 714605056
I0927 00:14:01.567607 18853 layer_factory.hpp:77] Creating layer conv3_1_1
I0927 00:14:01.567629 18853 net.cpp:128] Creating Layer conv3_1_1
I0927 00:14:01.567636 18853 net.cpp:558] conv3_1_1 <- conv3_1_0
I0927 00:14:01.567646 18853 net.cpp:522] conv3_1_1 -> conv3_1_1
I0927 00:14:01.574326 18853 net.cpp:172] Setting up conv3_1_1
I0927 00:14:01.574354 18853 net.cpp:186] Top shape: 128 32 16 16 (1048576)
I0927 00:14:01.574359 18853 net.cpp:194] Memory required for data: 718799360
I0927 00:14:01.574369 18853 layer_factory.hpp:77] Creating layer conv3_1bn1
I0927 00:14:01.574380 18853 net.cpp:128] Creating Layer conv3_1bn1
I0927 00:14:01.574386 18853 net.cpp:558] conv3_1bn1 <- conv3_1_1
I0927 00:14:01.574395 18853 net.cpp:509] conv3_1bn1 -> conv3_1_1 (in-place)
I0927 00:14:01.574643 18853 net.cpp:172] Setting up conv3_1bn1
I0927 00:14:01.574656 18853 net.cpp:186] Top shape: 128 32 16 16 (1048576)
I0927 00:14:01.574661 18853 net.cpp:194] Memory required for data: 722993664
I0927 00:14:01.574694 18853 layer_factory.hpp:77] Creating layer conv3_1_scale1
I0927 00:14:01.574705 18853 net.cpp:128] Creating Layer conv3_1_scale1
I0927 00:14:01.574710 18853 net.cpp:558] conv3_1_scale1 <- conv3_1_1
I0927 00:14:01.574717 18853 net.cpp:509] conv3_1_scale1 -> conv3_1_1 (in-place)
I0927 00:14:01.574759 18853 layer_factory.hpp:77] Creating layer conv3_1_scale1
I0927 00:14:01.574925 18853 net.cpp:172] Setting up conv3_1_scale1
I0927 00:14:01.574939 18853 net.cpp:186] Top shape: 128 32 16 16 (1048576)
I0927 00:14:01.574944 18853 net.cpp:194] Memory required for data: 727187968
I0927 00:14:01.574951 18853 layer_factory.hpp:77] Creating layer conv3_1_down
I0927 00:14:01.574965 18853 net.cpp:128] Creating Layer conv3_1_down
I0927 00:14:01.574970 18853 net.cpp:558] conv3_1_down <- conv2_Eltwise_7_conv2_7ReLU_1_0_split_1
I0927 00:14:01.574980 18853 net.cpp:522] conv3_1_down -> conv3_1_down
I0927 00:14:01.580884 18853 net.cpp:172] Setting up conv3_1_down
I0927 00:14:01.580912 18853 net.cpp:186] Top shape: 128 32 16 16 (1048576)
I0927 00:14:01.580916 18853 net.cpp:194] Memory required for data: 731382272
I0927 00:14:01.580926 18853 layer_factory.hpp:77] Creating layer conv3_1_bn_down
I0927 00:14:01.580938 18853 net.cpp:128] Creating Layer conv3_1_bn_down
I0927 00:14:01.580943 18853 net.cpp:558] conv3_1_bn_down <- conv3_1_down
I0927 00:14:01.580950 18853 net.cpp:509] conv3_1_bn_down -> conv3_1_down (in-place)
I0927 00:14:01.581208 18853 net.cpp:172] Setting up conv3_1_bn_down
I0927 00:14:01.581223 18853 net.cpp:186] Top shape: 128 32 16 16 (1048576)
I0927 00:14:01.581226 18853 net.cpp:194] Memory required for data: 735576576
I0927 00:14:01.581236 18853 layer_factory.hpp:77] Creating layer conv3_1_scale_down
I0927 00:14:01.581243 18853 net.cpp:128] Creating Layer conv3_1_scale_down
I0927 00:14:01.581248 18853 net.cpp:558] conv3_1_scale_down <- conv3_1_down
I0927 00:14:01.581257 18853 net.cpp:509] conv3_1_scale_down -> conv3_1_down (in-place)
I0927 00:14:01.581296 18853 layer_factory.hpp:77] Creating layer conv3_1_scale_down
I0927 00:14:01.581446 18853 net.cpp:172] Setting up conv3_1_scale_down
I0927 00:14:01.581459 18853 net.cpp:186] Top shape: 128 32 16 16 (1048576)
I0927 00:14:01.581462 18853 net.cpp:194] Memory required for data: 739770880
I0927 00:14:01.581470 18853 layer_factory.hpp:77] Creating layer conv3_Eltwise_1
I0927 00:14:01.581478 18853 net.cpp:128] Creating Layer conv3_Eltwise_1
I0927 00:14:01.581483 18853 net.cpp:558] conv3_Eltwise_1 <- conv3_1_1
I0927 00:14:01.581490 18853 net.cpp:558] conv3_Eltwise_1 <- conv3_1_down
I0927 00:14:01.581498 18853 net.cpp:522] conv3_Eltwise_1 -> conv3_Eltwise_1
I0927 00:14:01.581521 18853 net.cpp:172] Setting up conv3_Eltwise_1
I0927 00:14:01.581534 18853 net.cpp:186] Top shape: 128 32 16 16 (1048576)
I0927 00:14:01.581538 18853 net.cpp:194] Memory required for data: 743965184
I0927 00:14:01.581543 18853 layer_factory.hpp:77] Creating layer conv3_1ReLU_1
I0927 00:14:01.581552 18853 net.cpp:128] Creating Layer conv3_1ReLU_1
I0927 00:14:01.581557 18853 net.cpp:558] conv3_1ReLU_1 <- conv3_Eltwise_1
I0927 00:14:01.581563 18853 net.cpp:509] conv3_1ReLU_1 -> conv3_Eltwise_1 (in-place)
I0927 00:14:01.582940 18853 net.cpp:172] Setting up conv3_1ReLU_1
I0927 00:14:01.582955 18853 net.cpp:186] Top shape: 128 32 16 16 (1048576)
I0927 00:14:01.582962 18853 net.cpp:194] Memory required for data: 748159488
I0927 00:14:01.582967 18853 layer_factory.hpp:77] Creating layer conv3_Eltwise_1_conv3_1ReLU_1_0_split
I0927 00:14:01.582978 18853 net.cpp:128] Creating Layer conv3_Eltwise_1_conv3_1ReLU_1_0_split
I0927 00:14:01.582983 18853 net.cpp:558] conv3_Eltwise_1_conv3_1ReLU_1_0_split <- conv3_Eltwise_1
I0927 00:14:01.582990 18853 net.cpp:522] conv3_Eltwise_1_conv3_1ReLU_1_0_split -> conv3_Eltwise_1_conv3_1ReLU_1_0_split_0
I0927 00:14:01.582999 18853 net.cpp:522] conv3_Eltwise_1_conv3_1ReLU_1_0_split -> conv3_Eltwise_1_conv3_1ReLU_1_0_split_1
I0927 00:14:01.583052 18853 net.cpp:172] Setting up conv3_Eltwise_1_conv3_1ReLU_1_0_split
I0927 00:14:01.583060 18853 net.cpp:186] Top shape: 128 32 16 16 (1048576)
I0927 00:14:01.583083 18853 net.cpp:186] Top shape: 128 32 16 16 (1048576)
I0927 00:14:01.583088 18853 net.cpp:194] Memory required for data: 756548096
I0927 00:14:01.583093 18853 layer_factory.hpp:77] Creating layer conv3_2_0
I0927 00:14:01.583106 18853 net.cpp:128] Creating Layer conv3_2_0
I0927 00:14:01.583112 18853 net.cpp:558] conv3_2_0 <- conv3_Eltwise_1_conv3_1ReLU_1_0_split_0
I0927 00:14:01.583122 18853 net.cpp:522] conv3_2_0 -> conv3_2_0
I0927 00:14:01.589682 18853 net.cpp:172] Setting up conv3_2_0
I0927 00:14:01.589709 18853 net.cpp:186] Top shape: 128 32 16 16 (1048576)
I0927 00:14:01.589713 18853 net.cpp:194] Memory required for data: 760742400
I0927 00:14:01.589723 18853 layer_factory.hpp:77] Creating layer conv3_2_bn0
I0927 00:14:01.589738 18853 net.cpp:128] Creating Layer conv3_2_bn0
I0927 00:14:01.589745 18853 net.cpp:558] conv3_2_bn0 <- conv3_2_0
I0927 00:14:01.589753 18853 net.cpp:509] conv3_2_bn0 -> conv3_2_0 (in-place)
I0927 00:14:01.590003 18853 net.cpp:172] Setting up conv3_2_bn0
I0927 00:14:01.590015 18853 net.cpp:186] Top shape: 128 32 16 16 (1048576)
I0927 00:14:01.590019 18853 net.cpp:194] Memory required for data: 764936704
I0927 00:14:01.590046 18853 layer_factory.hpp:77] Creating layer conv3_2_scale0
I0927 00:14:01.590054 18853 net.cpp:128] Creating Layer conv3_2_scale0
I0927 00:14:01.590059 18853 net.cpp:558] conv3_2_scale0 <- conv3_2_0
I0927 00:14:01.590066 18853 net.cpp:509] conv3_2_scale0 -> conv3_2_0 (in-place)
I0927 00:14:01.590107 18853 layer_factory.hpp:77] Creating layer conv3_2_scale0
I0927 00:14:01.590255 18853 net.cpp:172] Setting up conv3_2_scale0
I0927 00:14:01.590266 18853 net.cpp:186] Top shape: 128 32 16 16 (1048576)
I0927 00:14:01.590270 18853 net.cpp:194] Memory required for data: 769131008
I0927 00:14:01.590278 18853 layer_factory.hpp:77] Creating layer conv3_2_ReLU0
I0927 00:14:01.590286 18853 net.cpp:128] Creating Layer conv3_2_ReLU0
I0927 00:14:01.590289 18853 net.cpp:558] conv3_2_ReLU0 <- conv3_2_0
I0927 00:14:01.590297 18853 net.cpp:509] conv3_2_ReLU0 -> conv3_2_0 (in-place)
I0927 00:14:01.591722 18853 net.cpp:172] Setting up conv3_2_ReLU0
I0927 00:14:01.591740 18853 net.cpp:186] Top shape: 128 32 16 16 (1048576)
I0927 00:14:01.591744 18853 net.cpp:194] Memory required for data: 773325312
I0927 00:14:01.591749 18853 layer_factory.hpp:77] Creating layer conv3_2_1
I0927 00:14:01.591763 18853 net.cpp:128] Creating Layer conv3_2_1
I0927 00:14:01.591768 18853 net.cpp:558] conv3_2_1 <- conv3_2_0
I0927 00:14:01.591778 18853 net.cpp:522] conv3_2_1 -> conv3_2_1
I0927 00:14:01.598409 18853 net.cpp:172] Setting up conv3_2_1
I0927 00:14:01.598436 18853 net.cpp:186] Top shape: 128 32 16 16 (1048576)
I0927 00:14:01.598441 18853 net.cpp:194] Memory required for data: 777519616
I0927 00:14:01.598450 18853 layer_factory.hpp:77] Creating layer conv3_2bn1
I0927 00:14:01.598461 18853 net.cpp:128] Creating Layer conv3_2bn1
I0927 00:14:01.598467 18853 net.cpp:558] conv3_2bn1 <- conv3_2_1
I0927 00:14:01.598477 18853 net.cpp:509] conv3_2bn1 -> conv3_2_1 (in-place)
I0927 00:14:01.598729 18853 net.cpp:172] Setting up conv3_2bn1
I0927 00:14:01.598742 18853 net.cpp:186] Top shape: 128 32 16 16 (1048576)
I0927 00:14:01.598745 18853 net.cpp:194] Memory required for data: 781713920
I0927 00:14:01.598755 18853 layer_factory.hpp:77] Creating layer conv3_2_scale1
I0927 00:14:01.598764 18853 net.cpp:128] Creating Layer conv3_2_scale1
I0927 00:14:01.598770 18853 net.cpp:558] conv3_2_scale1 <- conv3_2_1
I0927 00:14:01.598776 18853 net.cpp:509] conv3_2_scale1 -> conv3_2_1 (in-place)
I0927 00:14:01.598826 18853 layer_factory.hpp:77] Creating layer conv3_2_scale1
I0927 00:14:01.598970 18853 net.cpp:172] Setting up conv3_2_scale1
I0927 00:14:01.598983 18853 net.cpp:186] Top shape: 128 32 16 16 (1048576)
I0927 00:14:01.598986 18853 net.cpp:194] Memory required for data: 785908224
I0927 00:14:01.598994 18853 layer_factory.hpp:77] Creating layer conv3_Eltwise_2
I0927 00:14:01.599000 18853 net.cpp:128] Creating Layer conv3_Eltwise_2
I0927 00:14:01.599005 18853 net.cpp:558] conv3_Eltwise_2 <- conv3_Eltwise_1_conv3_1ReLU_1_0_split_1
I0927 00:14:01.599032 18853 net.cpp:558] conv3_Eltwise_2 <- conv3_2_1
I0927 00:14:01.599042 18853 net.cpp:522] conv3_Eltwise_2 -> conv3_Eltwise_2
I0927 00:14:01.599066 18853 net.cpp:172] Setting up conv3_Eltwise_2
I0927 00:14:01.599079 18853 net.cpp:186] Top shape: 128 32 16 16 (1048576)
I0927 00:14:01.599083 18853 net.cpp:194] Memory required for data: 790102528
I0927 00:14:01.599087 18853 layer_factory.hpp:77] Creating layer conv3_2ReLU_1
I0927 00:14:01.599094 18853 net.cpp:128] Creating Layer conv3_2ReLU_1
I0927 00:14:01.599098 18853 net.cpp:558] conv3_2ReLU_1 <- conv3_Eltwise_2
I0927 00:14:01.599104 18853 net.cpp:509] conv3_2ReLU_1 -> conv3_Eltwise_2 (in-place)
I0927 00:14:01.599331 18853 net.cpp:172] Setting up conv3_2ReLU_1
I0927 00:14:01.599347 18853 net.cpp:186] Top shape: 128 32 16 16 (1048576)
I0927 00:14:01.599352 18853 net.cpp:194] Memory required for data: 794296832
I0927 00:14:01.599356 18853 layer_factory.hpp:77] Creating layer conv3_Eltwise_2_conv3_2ReLU_1_0_split
I0927 00:14:01.599364 18853 net.cpp:128] Creating Layer conv3_Eltwise_2_conv3_2ReLU_1_0_split
I0927 00:14:01.599370 18853 net.cpp:558] conv3_Eltwise_2_conv3_2ReLU_1_0_split <- conv3_Eltwise_2
I0927 00:14:01.599375 18853 net.cpp:522] conv3_Eltwise_2_conv3_2ReLU_1_0_split -> conv3_Eltwise_2_conv3_2ReLU_1_0_split_0
I0927 00:14:01.599385 18853 net.cpp:522] conv3_Eltwise_2_conv3_2ReLU_1_0_split -> conv3_Eltwise_2_conv3_2ReLU_1_0_split_1
I0927 00:14:01.599436 18853 net.cpp:172] Setting up conv3_Eltwise_2_conv3_2ReLU_1_0_split
I0927 00:14:01.599447 18853 net.cpp:186] Top shape: 128 32 16 16 (1048576)
I0927 00:14:01.599453 18853 net.cpp:186] Top shape: 128 32 16 16 (1048576)
I0927 00:14:01.599457 18853 net.cpp:194] Memory required for data: 802685440
I0927 00:14:01.599462 18853 layer_factory.hpp:77] Creating layer conv3_3_0
I0927 00:14:01.599475 18853 net.cpp:128] Creating Layer conv3_3_0
I0927 00:14:01.599480 18853 net.cpp:558] conv3_3_0 <- conv3_Eltwise_2_conv3_2ReLU_1_0_split_0
I0927 00:14:01.599488 18853 net.cpp:522] conv3_3_0 -> conv3_3_0
I0927 00:14:01.604820 18853 net.cpp:172] Setting up conv3_3_0
I0927 00:14:01.604851 18853 net.cpp:186] Top shape: 128 32 16 16 (1048576)
I0927 00:14:01.604854 18853 net.cpp:194] Memory required for data: 806879744
I0927 00:14:01.604866 18853 layer_factory.hpp:77] Creating layer conv3_3_bn0
I0927 00:14:01.604874 18853 net.cpp:128] Creating Layer conv3_3_bn0
I0927 00:14:01.604879 18853 net.cpp:558] conv3_3_bn0 <- conv3_3_0
I0927 00:14:01.604893 18853 net.cpp:509] conv3_3_bn0 -> conv3_3_0 (in-place)
I0927 00:14:01.605159 18853 net.cpp:172] Setting up conv3_3_bn0
I0927 00:14:01.605173 18853 net.cpp:186] Top shape: 128 32 16 16 (1048576)
I0927 00:14:01.605177 18853 net.cpp:194] Memory required for data: 811074048
I0927 00:14:01.605187 18853 layer_factory.hpp:77] Creating layer conv3_3_scale0
I0927 00:14:01.605195 18853 net.cpp:128] Creating Layer conv3_3_scale0
I0927 00:14:01.605198 18853 net.cpp:558] conv3_3_scale0 <- conv3_3_0
I0927 00:14:01.605206 18853 net.cpp:509] conv3_3_scale0 -> conv3_3_0 (in-place)
I0927 00:14:01.605247 18853 layer_factory.hpp:77] Creating layer conv3_3_scale0
I0927 00:14:01.605397 18853 net.cpp:172] Setting up conv3_3_scale0
I0927 00:14:01.605408 18853 net.cpp:186] Top shape: 128 32 16 16 (1048576)
I0927 00:14:01.605413 18853 net.cpp:194] Memory required for data: 815268352
I0927 00:14:01.605422 18853 layer_factory.hpp:77] Creating layer conv3_3_ReLU0
I0927 00:14:01.605430 18853 net.cpp:128] Creating Layer conv3_3_ReLU0
I0927 00:14:01.605435 18853 net.cpp:558] conv3_3_ReLU0 <- conv3_3_0
I0927 00:14:01.605440 18853 net.cpp:509] conv3_3_ReLU0 -> conv3_3_0 (in-place)
I0927 00:14:01.606624 18853 net.cpp:172] Setting up conv3_3_ReLU0
I0927 00:14:01.606648 18853 net.cpp:186] Top shape: 128 32 16 16 (1048576)
I0927 00:14:01.606653 18853 net.cpp:194] Memory required for data: 819462656
I0927 00:14:01.606658 18853 layer_factory.hpp:77] Creating layer conv3_3_1
I0927 00:14:01.606673 18853 net.cpp:128] Creating Layer conv3_3_1
I0927 00:14:01.606695 18853 net.cpp:558] conv3_3_1 <- conv3_3_0
I0927 00:14:01.606704 18853 net.cpp:522] conv3_3_1 -> conv3_3_1
I0927 00:14:01.613293 18853 net.cpp:172] Setting up conv3_3_1
I0927 00:14:01.613322 18853 net.cpp:186] Top shape: 128 32 16 16 (1048576)
I0927 00:14:01.613325 18853 net.cpp:194] Memory required for data: 823656960
I0927 00:14:01.613338 18853 layer_factory.hpp:77] Creating layer conv3_3bn1
I0927 00:14:01.613351 18853 net.cpp:128] Creating Layer conv3_3bn1
I0927 00:14:01.613360 18853 net.cpp:558] conv3_3bn1 <- conv3_3_1
I0927 00:14:01.613368 18853 net.cpp:509] conv3_3bn1 -> conv3_3_1 (in-place)
I0927 00:14:01.613620 18853 net.cpp:172] Setting up conv3_3bn1
I0927 00:14:01.613631 18853 net.cpp:186] Top shape: 128 32 16 16 (1048576)
I0927 00:14:01.613634 18853 net.cpp:194] Memory required for data: 827851264
I0927 00:14:01.613644 18853 layer_factory.hpp:77] Creating layer conv3_3_scale1
I0927 00:14:01.613651 18853 net.cpp:128] Creating Layer conv3_3_scale1
I0927 00:14:01.613656 18853 net.cpp:558] conv3_3_scale1 <- conv3_3_1
I0927 00:14:01.613663 18853 net.cpp:509] conv3_3_scale1 -> conv3_3_1 (in-place)
I0927 00:14:01.613703 18853 layer_factory.hpp:77] Creating layer conv3_3_scale1
I0927 00:14:01.613855 18853 net.cpp:172] Setting up conv3_3_scale1
I0927 00:14:01.613868 18853 net.cpp:186] Top shape: 128 32 16 16 (1048576)
I0927 00:14:01.613873 18853 net.cpp:194] Memory required for data: 832045568
I0927 00:14:01.613881 18853 layer_factory.hpp:77] Creating layer conv3_Eltwise_3
I0927 00:14:01.613891 18853 net.cpp:128] Creating Layer conv3_Eltwise_3
I0927 00:14:01.613896 18853 net.cpp:558] conv3_Eltwise_3 <- conv3_Eltwise_2_conv3_2ReLU_1_0_split_1
I0927 00:14:01.613901 18853 net.cpp:558] conv3_Eltwise_3 <- conv3_3_1
I0927 00:14:01.613914 18853 net.cpp:522] conv3_Eltwise_3 -> conv3_Eltwise_3
I0927 00:14:01.613940 18853 net.cpp:172] Setting up conv3_Eltwise_3
I0927 00:14:01.613950 18853 net.cpp:186] Top shape: 128 32 16 16 (1048576)
I0927 00:14:01.613955 18853 net.cpp:194] Memory required for data: 836239872
I0927 00:14:01.613960 18853 layer_factory.hpp:77] Creating layer conv3_3ReLU_1
I0927 00:14:01.613966 18853 net.cpp:128] Creating Layer conv3_3ReLU_1
I0927 00:14:01.613971 18853 net.cpp:558] conv3_3ReLU_1 <- conv3_Eltwise_3
I0927 00:14:01.613978 18853 net.cpp:509] conv3_3ReLU_1 -> conv3_Eltwise_3 (in-place)
I0927 00:14:01.615371 18853 net.cpp:172] Setting up conv3_3ReLU_1
I0927 00:14:01.615391 18853 net.cpp:186] Top shape: 128 32 16 16 (1048576)
I0927 00:14:01.615397 18853 net.cpp:194] Memory required for data: 840434176
I0927 00:14:01.615402 18853 layer_factory.hpp:77] Creating layer conv3_Eltwise_3_conv3_3ReLU_1_0_split
I0927 00:14:01.615413 18853 net.cpp:128] Creating Layer conv3_Eltwise_3_conv3_3ReLU_1_0_split
I0927 00:14:01.615417 18853 net.cpp:558] conv3_Eltwise_3_conv3_3ReLU_1_0_split <- conv3_Eltwise_3
I0927 00:14:01.615428 18853 net.cpp:522] conv3_Eltwise_3_conv3_3ReLU_1_0_split -> conv3_Eltwise_3_conv3_3ReLU_1_0_split_0
I0927 00:14:01.615437 18853 net.cpp:522] conv3_Eltwise_3_conv3_3ReLU_1_0_split -> conv3_Eltwise_3_conv3_3ReLU_1_0_split_1
I0927 00:14:01.615505 18853 net.cpp:172] Setting up conv3_Eltwise_3_conv3_3ReLU_1_0_split
I0927 00:14:01.615516 18853 net.cpp:186] Top shape: 128 32 16 16 (1048576)
I0927 00:14:01.615522 18853 net.cpp:186] Top shape: 128 32 16 16 (1048576)
I0927 00:14:01.615527 18853 net.cpp:194] Memory required for data: 848822784
I0927 00:14:01.615532 18853 layer_factory.hpp:77] Creating layer conv3_4_0
I0927 00:14:01.615545 18853 net.cpp:128] Creating Layer conv3_4_0
I0927 00:14:01.615550 18853 net.cpp:558] conv3_4_0 <- conv3_Eltwise_3_conv3_3ReLU_1_0_split_0
I0927 00:14:01.615561 18853 net.cpp:522] conv3_4_0 -> conv3_4_0
I0927 00:14:01.622073 18853 net.cpp:172] Setting up conv3_4_0
I0927 00:14:01.622100 18853 net.cpp:186] Top shape: 128 32 16 16 (1048576)
I0927 00:14:01.622105 18853 net.cpp:194] Memory required for data: 853017088
I0927 00:14:01.622119 18853 layer_factory.hpp:77] Creating layer conv3_4_bn0
I0927 00:14:01.622130 18853 net.cpp:128] Creating Layer conv3_4_bn0
I0927 00:14:01.622159 18853 net.cpp:558] conv3_4_bn0 <- conv3_4_0
I0927 00:14:01.622167 18853 net.cpp:509] conv3_4_bn0 -> conv3_4_0 (in-place)
I0927 00:14:01.622431 18853 net.cpp:172] Setting up conv3_4_bn0
I0927 00:14:01.622443 18853 net.cpp:186] Top shape: 128 32 16 16 (1048576)
I0927 00:14:01.622448 18853 net.cpp:194] Memory required for data: 857211392
I0927 00:14:01.622458 18853 layer_factory.hpp:77] Creating layer conv3_4_scale0
I0927 00:14:01.622465 18853 net.cpp:128] Creating Layer conv3_4_scale0
I0927 00:14:01.622470 18853 net.cpp:558] conv3_4_scale0 <- conv3_4_0
I0927 00:14:01.622478 18853 net.cpp:509] conv3_4_scale0 -> conv3_4_0 (in-place)
I0927 00:14:01.622519 18853 layer_factory.hpp:77] Creating layer conv3_4_scale0
I0927 00:14:01.622664 18853 net.cpp:172] Setting up conv3_4_scale0
I0927 00:14:01.622679 18853 net.cpp:186] Top shape: 128 32 16 16 (1048576)
I0927 00:14:01.622684 18853 net.cpp:194] Memory required for data: 861405696
I0927 00:14:01.622691 18853 layer_factory.hpp:77] Creating layer conv3_4_ReLU0
I0927 00:14:01.622699 18853 net.cpp:128] Creating Layer conv3_4_ReLU0
I0927 00:14:01.622702 18853 net.cpp:558] conv3_4_ReLU0 <- conv3_4_0
I0927 00:14:01.622709 18853 net.cpp:509] conv3_4_ReLU0 -> conv3_4_0 (in-place)
I0927 00:14:01.624117 18853 net.cpp:172] Setting up conv3_4_ReLU0
I0927 00:14:01.624140 18853 net.cpp:186] Top shape: 128 32 16 16 (1048576)
I0927 00:14:01.624145 18853 net.cpp:194] Memory required for data: 865600000
I0927 00:14:01.624150 18853 layer_factory.hpp:77] Creating layer conv3_4_1
I0927 00:14:01.624162 18853 net.cpp:128] Creating Layer conv3_4_1
I0927 00:14:01.624168 18853 net.cpp:558] conv3_4_1 <- conv3_4_0
I0927 00:14:01.624177 18853 net.cpp:522] conv3_4_1 -> conv3_4_1
I0927 00:14:01.630818 18853 net.cpp:172] Setting up conv3_4_1
I0927 00:14:01.630846 18853 net.cpp:186] Top shape: 128 32 16 16 (1048576)
I0927 00:14:01.630851 18853 net.cpp:194] Memory required for data: 869794304
I0927 00:14:01.630861 18853 layer_factory.hpp:77] Creating layer conv3_4bn1
I0927 00:14:01.630872 18853 net.cpp:128] Creating Layer conv3_4bn1
I0927 00:14:01.630877 18853 net.cpp:558] conv3_4bn1 <- conv3_4_1
I0927 00:14:01.630885 18853 net.cpp:509] conv3_4bn1 -> conv3_4_1 (in-place)
I0927 00:14:01.631150 18853 net.cpp:172] Setting up conv3_4bn1
I0927 00:14:01.631162 18853 net.cpp:186] Top shape: 128 32 16 16 (1048576)
I0927 00:14:01.631166 18853 net.cpp:194] Memory required for data: 873988608
I0927 00:14:01.631177 18853 layer_factory.hpp:77] Creating layer conv3_4_scale1
I0927 00:14:01.631183 18853 net.cpp:128] Creating Layer conv3_4_scale1
I0927 00:14:01.631187 18853 net.cpp:558] conv3_4_scale1 <- conv3_4_1
I0927 00:14:01.631193 18853 net.cpp:509] conv3_4_scale1 -> conv3_4_1 (in-place)
I0927 00:14:01.631238 18853 layer_factory.hpp:77] Creating layer conv3_4_scale1
I0927 00:14:01.631388 18853 net.cpp:172] Setting up conv3_4_scale1
I0927 00:14:01.631400 18853 net.cpp:186] Top shape: 128 32 16 16 (1048576)
I0927 00:14:01.631405 18853 net.cpp:194] Memory required for data: 878182912
I0927 00:14:01.631413 18853 layer_factory.hpp:77] Creating layer conv3_Eltwise_4
I0927 00:14:01.631420 18853 net.cpp:128] Creating Layer conv3_Eltwise_4
I0927 00:14:01.631424 18853 net.cpp:558] conv3_Eltwise_4 <- conv3_Eltwise_3_conv3_3ReLU_1_0_split_1
I0927 00:14:01.631430 18853 net.cpp:558] conv3_Eltwise_4 <- conv3_4_1
I0927 00:14:01.631440 18853 net.cpp:522] conv3_Eltwise_4 -> conv3_Eltwise_4
I0927 00:14:01.631462 18853 net.cpp:172] Setting up conv3_Eltwise_4
I0927 00:14:01.631469 18853 net.cpp:186] Top shape: 128 32 16 16 (1048576)
I0927 00:14:01.631474 18853 net.cpp:194] Memory required for data: 882377216
I0927 00:14:01.631477 18853 layer_factory.hpp:77] Creating layer conv3_4ReLU_1
I0927 00:14:01.631486 18853 net.cpp:128] Creating Layer conv3_4ReLU_1
I0927 00:14:01.631491 18853 net.cpp:558] conv3_4ReLU_1 <- conv3_Eltwise_4
I0927 00:14:01.631496 18853 net.cpp:509] conv3_4ReLU_1 -> conv3_Eltwise_4 (in-place)
I0927 00:14:01.632856 18853 net.cpp:172] Setting up conv3_4ReLU_1
I0927 00:14:01.632881 18853 net.cpp:186] Top shape: 128 32 16 16 (1048576)
I0927 00:14:01.632905 18853 net.cpp:194] Memory required for data: 886571520
I0927 00:14:01.632911 18853 layer_factory.hpp:77] Creating layer conv3_Eltwise_4_conv3_4ReLU_1_0_split
I0927 00:14:01.632922 18853 net.cpp:128] Creating Layer conv3_Eltwise_4_conv3_4ReLU_1_0_split
I0927 00:14:01.632932 18853 net.cpp:558] conv3_Eltwise_4_conv3_4ReLU_1_0_split <- conv3_Eltwise_4
I0927 00:14:01.632941 18853 net.cpp:522] conv3_Eltwise_4_conv3_4ReLU_1_0_split -> conv3_Eltwise_4_conv3_4ReLU_1_0_split_0
I0927 00:14:01.632951 18853 net.cpp:522] conv3_Eltwise_4_conv3_4ReLU_1_0_split -> conv3_Eltwise_4_conv3_4ReLU_1_0_split_1
I0927 00:14:01.633008 18853 net.cpp:172] Setting up conv3_Eltwise_4_conv3_4ReLU_1_0_split
I0927 00:14:01.633018 18853 net.cpp:186] Top shape: 128 32 16 16 (1048576)
I0927 00:14:01.633024 18853 net.cpp:186] Top shape: 128 32 16 16 (1048576)
I0927 00:14:01.633028 18853 net.cpp:194] Memory required for data: 894960128
I0927 00:14:01.633033 18853 layer_factory.hpp:77] Creating layer conv3_5_0
I0927 00:14:01.633047 18853 net.cpp:128] Creating Layer conv3_5_0
I0927 00:14:01.633052 18853 net.cpp:558] conv3_5_0 <- conv3_Eltwise_4_conv3_4ReLU_1_0_split_0
I0927 00:14:01.633060 18853 net.cpp:522] conv3_5_0 -> conv3_5_0
I0927 00:14:01.639515 18853 net.cpp:172] Setting up conv3_5_0
I0927 00:14:01.639542 18853 net.cpp:186] Top shape: 128 32 16 16 (1048576)
I0927 00:14:01.639546 18853 net.cpp:194] Memory required for data: 899154432
I0927 00:14:01.639560 18853 layer_factory.hpp:77] Creating layer conv3_5_bn0
I0927 00:14:01.639571 18853 net.cpp:128] Creating Layer conv3_5_bn0
I0927 00:14:01.639588 18853 net.cpp:558] conv3_5_bn0 <- conv3_5_0
I0927 00:14:01.639598 18853 net.cpp:509] conv3_5_bn0 -> conv3_5_0 (in-place)
I0927 00:14:01.639858 18853 net.cpp:172] Setting up conv3_5_bn0
I0927 00:14:01.639870 18853 net.cpp:186] Top shape: 128 32 16 16 (1048576)
I0927 00:14:01.639874 18853 net.cpp:194] Memory required for data: 903348736
I0927 00:14:01.639884 18853 layer_factory.hpp:77] Creating layer conv3_5_scale0
I0927 00:14:01.639891 18853 net.cpp:128] Creating Layer conv3_5_scale0
I0927 00:14:01.639896 18853 net.cpp:558] conv3_5_scale0 <- conv3_5_0
I0927 00:14:01.639905 18853 net.cpp:509] conv3_5_scale0 -> conv3_5_0 (in-place)
I0927 00:14:01.639945 18853 layer_factory.hpp:77] Creating layer conv3_5_scale0
I0927 00:14:01.640101 18853 net.cpp:172] Setting up conv3_5_scale0
I0927 00:14:01.640113 18853 net.cpp:186] Top shape: 128 32 16 16 (1048576)
I0927 00:14:01.640117 18853 net.cpp:194] Memory required for data: 907543040
I0927 00:14:01.640125 18853 layer_factory.hpp:77] Creating layer conv3_5_ReLU0
I0927 00:14:01.640137 18853 net.cpp:128] Creating Layer conv3_5_ReLU0
I0927 00:14:01.640142 18853 net.cpp:558] conv3_5_ReLU0 <- conv3_5_0
I0927 00:14:01.640151 18853 net.cpp:509] conv3_5_ReLU0 -> conv3_5_0 (in-place)
I0927 00:14:01.641579 18853 net.cpp:172] Setting up conv3_5_ReLU0
I0927 00:14:01.641597 18853 net.cpp:186] Top shape: 128 32 16 16 (1048576)
I0927 00:14:01.641602 18853 net.cpp:194] Memory required for data: 911737344
I0927 00:14:01.641607 18853 layer_factory.hpp:77] Creating layer conv3_5_1
I0927 00:14:01.641623 18853 net.cpp:128] Creating Layer conv3_5_1
I0927 00:14:01.641638 18853 net.cpp:558] conv3_5_1 <- conv3_5_0
I0927 00:14:01.641647 18853 net.cpp:522] conv3_5_1 -> conv3_5_1
I0927 00:14:01.648242 18853 net.cpp:172] Setting up conv3_5_1
I0927 00:14:01.648272 18853 net.cpp:186] Top shape: 128 32 16 16 (1048576)
I0927 00:14:01.648277 18853 net.cpp:194] Memory required for data: 915931648
I0927 00:14:01.648286 18853 layer_factory.hpp:77] Creating layer conv3_5bn1
I0927 00:14:01.648295 18853 net.cpp:128] Creating Layer conv3_5bn1
I0927 00:14:01.648300 18853 net.cpp:558] conv3_5bn1 <- conv3_5_1
I0927 00:14:01.648309 18853 net.cpp:509] conv3_5bn1 -> conv3_5_1 (in-place)
I0927 00:14:01.648577 18853 net.cpp:172] Setting up conv3_5bn1
I0927 00:14:01.648591 18853 net.cpp:186] Top shape: 128 32 16 16 (1048576)
I0927 00:14:01.648596 18853 net.cpp:194] Memory required for data: 920125952
I0927 00:14:01.648605 18853 layer_factory.hpp:77] Creating layer conv3_5_scale1
I0927 00:14:01.649415 18853 net.cpp:128] Creating Layer conv3_5_scale1
I0927 00:14:01.649426 18853 net.cpp:558] conv3_5_scale1 <- conv3_5_1
I0927 00:14:01.649433 18853 net.cpp:509] conv3_5_scale1 -> conv3_5_1 (in-place)
I0927 00:14:01.649507 18853 layer_factory.hpp:77] Creating layer conv3_5_scale1
I0927 00:14:01.649663 18853 net.cpp:172] Setting up conv3_5_scale1
I0927 00:14:01.649677 18853 net.cpp:186] Top shape: 128 32 16 16 (1048576)
I0927 00:14:01.649680 18853 net.cpp:194] Memory required for data: 924320256
I0927 00:14:01.649690 18853 layer_factory.hpp:77] Creating layer conv3_Eltwise_5
I0927 00:14:01.649700 18853 net.cpp:128] Creating Layer conv3_Eltwise_5
I0927 00:14:01.649705 18853 net.cpp:558] conv3_Eltwise_5 <- conv3_Eltwise_4_conv3_4ReLU_1_0_split_1
I0927 00:14:01.649711 18853 net.cpp:558] conv3_Eltwise_5 <- conv3_5_1
I0927 00:14:01.649718 18853 net.cpp:522] conv3_Eltwise_5 -> conv3_Eltwise_5
I0927 00:14:01.649739 18853 net.cpp:172] Setting up conv3_Eltwise_5
I0927 00:14:01.649746 18853 net.cpp:186] Top shape: 128 32 16 16 (1048576)
I0927 00:14:01.649750 18853 net.cpp:194] Memory required for data: 928514560
I0927 00:14:01.649755 18853 layer_factory.hpp:77] Creating layer conv3_5ReLU_1
I0927 00:14:01.649765 18853 net.cpp:128] Creating Layer conv3_5ReLU_1
I0927 00:14:01.649770 18853 net.cpp:558] conv3_5ReLU_1 <- conv3_Eltwise_5
I0927 00:14:01.649775 18853 net.cpp:509] conv3_5ReLU_1 -> conv3_Eltwise_5 (in-place)
I0927 00:14:01.650272 18853 net.cpp:172] Setting up conv3_5ReLU_1
I0927 00:14:01.650287 18853 net.cpp:186] Top shape: 128 32 16 16 (1048576)
I0927 00:14:01.650292 18853 net.cpp:194] Memory required for data: 932708864
I0927 00:14:01.650296 18853 layer_factory.hpp:77] Creating layer conv3_Eltwise_5_conv3_5ReLU_1_0_split
I0927 00:14:01.650317 18853 net.cpp:128] Creating Layer conv3_Eltwise_5_conv3_5ReLU_1_0_split
I0927 00:14:01.650322 18853 net.cpp:558] conv3_Eltwise_5_conv3_5ReLU_1_0_split <- conv3_Eltwise_5
I0927 00:14:01.650329 18853 net.cpp:522] conv3_Eltwise_5_conv3_5ReLU_1_0_split -> conv3_Eltwise_5_conv3_5ReLU_1_0_split_0
I0927 00:14:01.650344 18853 net.cpp:522] conv3_Eltwise_5_conv3_5ReLU_1_0_split -> conv3_Eltwise_5_conv3_5ReLU_1_0_split_1
I0927 00:14:01.650395 18853 net.cpp:172] Setting up conv3_Eltwise_5_conv3_5ReLU_1_0_split
I0927 00:14:01.650408 18853 net.cpp:186] Top shape: 128 32 16 16 (1048576)
I0927 00:14:01.650414 18853 net.cpp:186] Top shape: 128 32 16 16 (1048576)
I0927 00:14:01.650418 18853 net.cpp:194] Memory required for data: 941097472
I0927 00:14:01.650422 18853 layer_factory.hpp:77] Creating layer conv3_6_0
I0927 00:14:01.650434 18853 net.cpp:128] Creating Layer conv3_6_0
I0927 00:14:01.650441 18853 net.cpp:558] conv3_6_0 <- conv3_Eltwise_5_conv3_5ReLU_1_0_split_0
I0927 00:14:01.650449 18853 net.cpp:522] conv3_6_0 -> conv3_6_0
I0927 00:14:01.656975 18853 net.cpp:172] Setting up conv3_6_0
I0927 00:14:01.657001 18853 net.cpp:186] Top shape: 128 32 16 16 (1048576)
I0927 00:14:01.657006 18853 net.cpp:194] Memory required for data: 945291776
I0927 00:14:01.657019 18853 layer_factory.hpp:77] Creating layer conv3_6_bn0
I0927 00:14:01.657030 18853 net.cpp:128] Creating Layer conv3_6_bn0
I0927 00:14:01.657042 18853 net.cpp:558] conv3_6_bn0 <- conv3_6_0
I0927 00:14:01.657052 18853 net.cpp:509] conv3_6_bn0 -> conv3_6_0 (in-place)
I0927 00:14:01.657325 18853 net.cpp:172] Setting up conv3_6_bn0
I0927 00:14:01.657336 18853 net.cpp:186] Top shape: 128 32 16 16 (1048576)
I0927 00:14:01.657341 18853 net.cpp:194] Memory required for data: 949486080
I0927 00:14:01.657351 18853 layer_factory.hpp:77] Creating layer conv3_6_scale0
I0927 00:14:01.657357 18853 net.cpp:128] Creating Layer conv3_6_scale0
I0927 00:14:01.657362 18853 net.cpp:558] conv3_6_scale0 <- conv3_6_0
I0927 00:14:01.657371 18853 net.cpp:509] conv3_6_scale0 -> conv3_6_0 (in-place)
I0927 00:14:01.657411 18853 layer_factory.hpp:77] Creating layer conv3_6_scale0
I0927 00:14:01.657567 18853 net.cpp:172] Setting up conv3_6_scale0
I0927 00:14:01.657577 18853 net.cpp:186] Top shape: 128 32 16 16 (1048576)
I0927 00:14:01.657600 18853 net.cpp:194] Memory required for data: 953680384
I0927 00:14:01.657610 18853 layer_factory.hpp:77] Creating layer conv3_6_ReLU0
I0927 00:14:01.657627 18853 net.cpp:128] Creating Layer conv3_6_ReLU0
I0927 00:14:01.657632 18853 net.cpp:558] conv3_6_ReLU0 <- conv3_6_0
I0927 00:14:01.657640 18853 net.cpp:509] conv3_6_ReLU0 -> conv3_6_0 (in-place)
I0927 00:14:01.659052 18853 net.cpp:172] Setting up conv3_6_ReLU0
I0927 00:14:01.659078 18853 net.cpp:186] Top shape: 128 32 16 16 (1048576)
I0927 00:14:01.659083 18853 net.cpp:194] Memory required for data: 957874688
I0927 00:14:01.659088 18853 layer_factory.hpp:77] Creating layer conv3_6_1
I0927 00:14:01.659107 18853 net.cpp:128] Creating Layer conv3_6_1
I0927 00:14:01.659116 18853 net.cpp:558] conv3_6_1 <- conv3_6_0
I0927 00:14:01.659130 18853 net.cpp:522] conv3_6_1 -> conv3_6_1
I0927 00:14:01.665787 18853 net.cpp:172] Setting up conv3_6_1
I0927 00:14:01.665814 18853 net.cpp:186] Top shape: 128 32 16 16 (1048576)
I0927 00:14:01.665818 18853 net.cpp:194] Memory required for data: 962068992
I0927 00:14:01.665828 18853 layer_factory.hpp:77] Creating layer conv3_6bn1
I0927 00:14:01.665839 18853 net.cpp:128] Creating Layer conv3_6bn1
I0927 00:14:01.665845 18853 net.cpp:558] conv3_6bn1 <- conv3_6_1
I0927 00:14:01.665854 18853 net.cpp:509] conv3_6bn1 -> conv3_6_1 (in-place)
I0927 00:14:01.666119 18853 net.cpp:172] Setting up conv3_6bn1
I0927 00:14:01.666133 18853 net.cpp:186] Top shape: 128 32 16 16 (1048576)
I0927 00:14:01.666137 18853 net.cpp:194] Memory required for data: 966263296
I0927 00:14:01.666147 18853 layer_factory.hpp:77] Creating layer conv3_6_scale1
I0927 00:14:01.666157 18853 net.cpp:128] Creating Layer conv3_6_scale1
I0927 00:14:01.666162 18853 net.cpp:558] conv3_6_scale1 <- conv3_6_1
I0927 00:14:01.666168 18853 net.cpp:509] conv3_6_scale1 -> conv3_6_1 (in-place)
I0927 00:14:01.666211 18853 layer_factory.hpp:77] Creating layer conv3_6_scale1
I0927 00:14:01.666364 18853 net.cpp:172] Setting up conv3_6_scale1
I0927 00:14:01.666376 18853 net.cpp:186] Top shape: 128 32 16 16 (1048576)
I0927 00:14:01.666381 18853 net.cpp:194] Memory required for data: 970457600
I0927 00:14:01.666389 18853 layer_factory.hpp:77] Creating layer conv3_Eltwise_6
I0927 00:14:01.666396 18853 net.cpp:128] Creating Layer conv3_Eltwise_6
I0927 00:14:01.666401 18853 net.cpp:558] conv3_Eltwise_6 <- conv3_Eltwise_5_conv3_5ReLU_1_0_split_1
I0927 00:14:01.666406 18853 net.cpp:558] conv3_Eltwise_6 <- conv3_6_1
I0927 00:14:01.666415 18853 net.cpp:522] conv3_Eltwise_6 -> conv3_Eltwise_6
I0927 00:14:01.666437 18853 net.cpp:172] Setting up conv3_Eltwise_6
I0927 00:14:01.666455 18853 net.cpp:186] Top shape: 128 32 16 16 (1048576)
I0927 00:14:01.666460 18853 net.cpp:194] Memory required for data: 974651904
I0927 00:14:01.666465 18853 layer_factory.hpp:77] Creating layer conv3_6ReLU_1
I0927 00:14:01.666471 18853 net.cpp:128] Creating Layer conv3_6ReLU_1
I0927 00:14:01.666476 18853 net.cpp:558] conv3_6ReLU_1 <- conv3_Eltwise_6
I0927 00:14:01.666481 18853 net.cpp:509] conv3_6ReLU_1 -> conv3_Eltwise_6 (in-place)
I0927 00:14:01.667815 18853 net.cpp:172] Setting up conv3_6ReLU_1
I0927 00:14:01.667834 18853 net.cpp:186] Top shape: 128 32 16 16 (1048576)
I0927 00:14:01.667838 18853 net.cpp:194] Memory required for data: 978846208
I0927 00:14:01.667843 18853 layer_factory.hpp:77] Creating layer conv3_Eltwise_6_conv3_6ReLU_1_0_split
I0927 00:14:01.667851 18853 net.cpp:128] Creating Layer conv3_Eltwise_6_conv3_6ReLU_1_0_split
I0927 00:14:01.667855 18853 net.cpp:558] conv3_Eltwise_6_conv3_6ReLU_1_0_split <- conv3_Eltwise_6
I0927 00:14:01.667865 18853 net.cpp:522] conv3_Eltwise_6_conv3_6ReLU_1_0_split -> conv3_Eltwise_6_conv3_6ReLU_1_0_split_0
I0927 00:14:01.667873 18853 net.cpp:522] conv3_Eltwise_6_conv3_6ReLU_1_0_split -> conv3_Eltwise_6_conv3_6ReLU_1_0_split_1
I0927 00:14:01.667927 18853 net.cpp:172] Setting up conv3_Eltwise_6_conv3_6ReLU_1_0_split
I0927 00:14:01.667935 18853 net.cpp:186] Top shape: 128 32 16 16 (1048576)
I0927 00:14:01.667942 18853 net.cpp:186] Top shape: 128 32 16 16 (1048576)
I0927 00:14:01.667961 18853 net.cpp:194] Memory required for data: 987234816
I0927 00:14:01.667968 18853 layer_factory.hpp:77] Creating layer conv3_7_0
I0927 00:14:01.667982 18853 net.cpp:128] Creating Layer conv3_7_0
I0927 00:14:01.667987 18853 net.cpp:558] conv3_7_0 <- conv3_Eltwise_6_conv3_6ReLU_1_0_split_0
I0927 00:14:01.667995 18853 net.cpp:522] conv3_7_0 -> conv3_7_0
I0927 00:14:01.674556 18853 net.cpp:172] Setting up conv3_7_0
I0927 00:14:01.674583 18853 net.cpp:186] Top shape: 128 32 16 16 (1048576)
I0927 00:14:01.674587 18853 net.cpp:194] Memory required for data: 991429120
I0927 00:14:01.674597 18853 layer_factory.hpp:77] Creating layer conv3_7_bn0
I0927 00:14:01.674613 18853 net.cpp:128] Creating Layer conv3_7_bn0
I0927 00:14:01.674619 18853 net.cpp:558] conv3_7_bn0 <- conv3_7_0
I0927 00:14:01.674631 18853 net.cpp:509] conv3_7_bn0 -> conv3_7_0 (in-place)
I0927 00:14:01.674902 18853 net.cpp:172] Setting up conv3_7_bn0
I0927 00:14:01.674916 18853 net.cpp:186] Top shape: 128 32 16 16 (1048576)
I0927 00:14:01.674921 18853 net.cpp:194] Memory required for data: 995623424
I0927 00:14:01.674931 18853 layer_factory.hpp:77] Creating layer conv3_7_scale0
I0927 00:14:01.674942 18853 net.cpp:128] Creating Layer conv3_7_scale0
I0927 00:14:01.674947 18853 net.cpp:558] conv3_7_scale0 <- conv3_7_0
I0927 00:14:01.674952 18853 net.cpp:509] conv3_7_scale0 -> conv3_7_0 (in-place)
I0927 00:14:01.674998 18853 layer_factory.hpp:77] Creating layer conv3_7_scale0
I0927 00:14:01.675151 18853 net.cpp:172] Setting up conv3_7_scale0
I0927 00:14:01.675163 18853 net.cpp:186] Top shape: 128 32 16 16 (1048576)
I0927 00:14:01.675168 18853 net.cpp:194] Memory required for data: 999817728
I0927 00:14:01.675175 18853 layer_factory.hpp:77] Creating layer conv3_7_ReLU0
I0927 00:14:01.675181 18853 net.cpp:128] Creating Layer conv3_7_ReLU0
I0927 00:14:01.675185 18853 net.cpp:558] conv3_7_ReLU0 <- conv3_7_0
I0927 00:14:01.675194 18853 net.cpp:509] conv3_7_ReLU0 -> conv3_7_0 (in-place)
I0927 00:14:01.676625 18853 net.cpp:172] Setting up conv3_7_ReLU0
I0927 00:14:01.676642 18853 net.cpp:186] Top shape: 128 32 16 16 (1048576)
I0927 00:14:01.676647 18853 net.cpp:194] Memory required for data: 1004012032
I0927 00:14:01.676652 18853 layer_factory.hpp:77] Creating layer conv3_7_1
I0927 00:14:01.676671 18853 net.cpp:128] Creating Layer conv3_7_1
I0927 00:14:01.676676 18853 net.cpp:558] conv3_7_1 <- conv3_7_0
I0927 00:14:01.676687 18853 net.cpp:522] conv3_7_1 -> conv3_7_1
I0927 00:14:01.683339 18853 net.cpp:172] Setting up conv3_7_1
I0927 00:14:01.683365 18853 net.cpp:186] Top shape: 128 32 16 16 (1048576)
I0927 00:14:01.683370 18853 net.cpp:194] Memory required for data: 1008206336
I0927 00:14:01.683384 18853 layer_factory.hpp:77] Creating layer conv3_7bn1
I0927 00:14:01.683393 18853 net.cpp:128] Creating Layer conv3_7bn1
I0927 00:14:01.683404 18853 net.cpp:558] conv3_7bn1 <- conv3_7_1
I0927 00:14:01.683414 18853 net.cpp:509] conv3_7bn1 -> conv3_7_1 (in-place)
I0927 00:14:01.683684 18853 net.cpp:172] Setting up conv3_7bn1
I0927 00:14:01.683696 18853 net.cpp:186] Top shape: 128 32 16 16 (1048576)
I0927 00:14:01.683699 18853 net.cpp:194] Memory required for data: 1012400640
I0927 00:14:01.683709 18853 layer_factory.hpp:77] Creating layer conv3_7_scale1
I0927 00:14:01.683717 18853 net.cpp:128] Creating Layer conv3_7_scale1
I0927 00:14:01.683720 18853 net.cpp:558] conv3_7_scale1 <- conv3_7_1
I0927 00:14:01.683728 18853 net.cpp:509] conv3_7_scale1 -> conv3_7_1 (in-place)
I0927 00:14:01.683770 18853 layer_factory.hpp:77] Creating layer conv3_7_scale1
I0927 00:14:01.683923 18853 net.cpp:172] Setting up conv3_7_scale1
I0927 00:14:01.683936 18853 net.cpp:186] Top shape: 128 32 16 16 (1048576)
I0927 00:14:01.683940 18853 net.cpp:194] Memory required for data: 1016594944
I0927 00:14:01.683949 18853 layer_factory.hpp:77] Creating layer conv3_Eltwise_7
I0927 00:14:01.683956 18853 net.cpp:128] Creating Layer conv3_Eltwise_7
I0927 00:14:01.683961 18853 net.cpp:558] conv3_Eltwise_7 <- conv3_Eltwise_6_conv3_6ReLU_1_0_split_1
I0927 00:14:01.683967 18853 net.cpp:558] conv3_Eltwise_7 <- conv3_7_1
I0927 00:14:01.684001 18853 net.cpp:522] conv3_Eltwise_7 -> conv3_Eltwise_7
I0927 00:14:01.684028 18853 net.cpp:172] Setting up conv3_Eltwise_7
I0927 00:14:01.684041 18853 net.cpp:186] Top shape: 128 32 16 16 (1048576)
I0927 00:14:01.684046 18853 net.cpp:194] Memory required for data: 1020789248
I0927 00:14:01.684051 18853 layer_factory.hpp:77] Creating layer conv3_7ReLU_1
I0927 00:14:01.684057 18853 net.cpp:128] Creating Layer conv3_7ReLU_1
I0927 00:14:01.684062 18853 net.cpp:558] conv3_7ReLU_1 <- conv3_Eltwise_7
I0927 00:14:01.684072 18853 net.cpp:509] conv3_7ReLU_1 -> conv3_Eltwise_7 (in-place)
I0927 00:14:01.685408 18853 net.cpp:172] Setting up conv3_7ReLU_1
I0927 00:14:01.685426 18853 net.cpp:186] Top shape: 128 32 16 16 (1048576)
I0927 00:14:01.685431 18853 net.cpp:194] Memory required for data: 1024983552
I0927 00:14:01.685436 18853 layer_factory.hpp:77] Creating layer conv3_Eltwise_7_conv3_7ReLU_1_0_split
I0927 00:14:01.685443 18853 net.cpp:128] Creating Layer conv3_Eltwise_7_conv3_7ReLU_1_0_split
I0927 00:14:01.685447 18853 net.cpp:558] conv3_Eltwise_7_conv3_7ReLU_1_0_split <- conv3_Eltwise_7
I0927 00:14:01.685456 18853 net.cpp:522] conv3_Eltwise_7_conv3_7ReLU_1_0_split -> conv3_Eltwise_7_conv3_7ReLU_1_0_split_0
I0927 00:14:01.685465 18853 net.cpp:522] conv3_Eltwise_7_conv3_7ReLU_1_0_split -> conv3_Eltwise_7_conv3_7ReLU_1_0_split_1
I0927 00:14:01.685523 18853 net.cpp:172] Setting up conv3_Eltwise_7_conv3_7ReLU_1_0_split
I0927 00:14:01.685530 18853 net.cpp:186] Top shape: 128 32 16 16 (1048576)
I0927 00:14:01.685536 18853 net.cpp:186] Top shape: 128 32 16 16 (1048576)
I0927 00:14:01.685540 18853 net.cpp:194] Memory required for data: 1033372160
I0927 00:14:01.685544 18853 layer_factory.hpp:77] Creating layer conv4_1_0
I0927 00:14:01.685557 18853 net.cpp:128] Creating Layer conv4_1_0
I0927 00:14:01.685562 18853 net.cpp:558] conv4_1_0 <- conv3_Eltwise_7_conv3_7ReLU_1_0_split_0
I0927 00:14:01.685572 18853 net.cpp:522] conv4_1_0 -> conv4_1_0
I0927 00:14:01.692385 18853 net.cpp:172] Setting up conv4_1_0
I0927 00:14:01.692415 18853 net.cpp:186] Top shape: 128 64 8 8 (524288)
I0927 00:14:01.692420 18853 net.cpp:194] Memory required for data: 1035469312
I0927 00:14:01.692432 18853 layer_factory.hpp:77] Creating layer conv4_1_bn0
I0927 00:14:01.692445 18853 net.cpp:128] Creating Layer conv4_1_bn0
I0927 00:14:01.692451 18853 net.cpp:558] conv4_1_bn0 <- conv4_1_0
I0927 00:14:01.692466 18853 net.cpp:509] conv4_1_bn0 -> conv4_1_0 (in-place)
I0927 00:14:01.692751 18853 net.cpp:172] Setting up conv4_1_bn0
I0927 00:14:01.692765 18853 net.cpp:186] Top shape: 128 64 8 8 (524288)
I0927 00:14:01.692770 18853 net.cpp:194] Memory required for data: 1037566464
I0927 00:14:01.692780 18853 layer_factory.hpp:77] Creating layer conv4_1_scale0
I0927 00:14:01.692790 18853 net.cpp:128] Creating Layer conv4_1_scale0
I0927 00:14:01.692795 18853 net.cpp:558] conv4_1_scale0 <- conv4_1_0
I0927 00:14:01.692801 18853 net.cpp:509] conv4_1_scale0 -> conv4_1_0 (in-place)
I0927 00:14:01.692847 18853 layer_factory.hpp:77] Creating layer conv4_1_scale0
I0927 00:14:01.693008 18853 net.cpp:172] Setting up conv4_1_scale0
I0927 00:14:01.693019 18853 net.cpp:186] Top shape: 128 64 8 8 (524288)
I0927 00:14:01.693023 18853 net.cpp:194] Memory required for data: 1039663616
I0927 00:14:01.693032 18853 layer_factory.hpp:77] Creating layer conv4_1_ReLU0
I0927 00:14:01.693042 18853 net.cpp:128] Creating Layer conv4_1_ReLU0
I0927 00:14:01.693048 18853 net.cpp:558] conv4_1_ReLU0 <- conv4_1_0
I0927 00:14:01.693054 18853 net.cpp:509] conv4_1_ReLU0 -> conv4_1_0 (in-place)
I0927 00:14:01.694211 18853 net.cpp:172] Setting up conv4_1_ReLU0
I0927 00:14:01.694237 18853 net.cpp:186] Top shape: 128 64 8 8 (524288)
I0927 00:14:01.694242 18853 net.cpp:194] Memory required for data: 1041760768
I0927 00:14:01.694247 18853 layer_factory.hpp:77] Creating layer conv4_1_1
I0927 00:14:01.694264 18853 net.cpp:128] Creating Layer conv4_1_1
I0927 00:14:01.694272 18853 net.cpp:558] conv4_1_1 <- conv4_1_0
I0927 00:14:01.694283 18853 net.cpp:522] conv4_1_1 -> conv4_1_1
I0927 00:14:01.701200 18853 net.cpp:172] Setting up conv4_1_1
I0927 00:14:01.701227 18853 net.cpp:186] Top shape: 128 64 8 8 (524288)
I0927 00:14:01.701232 18853 net.cpp:194] Memory required for data: 1043857920
I0927 00:14:01.701246 18853 layer_factory.hpp:77] Creating layer conv4_1bn1
I0927 00:14:01.701258 18853 net.cpp:128] Creating Layer conv4_1bn1
I0927 00:14:01.701268 18853 net.cpp:558] conv4_1bn1 <- conv4_1_1
I0927 00:14:01.701278 18853 net.cpp:509] conv4_1bn1 -> conv4_1_1 (in-place)
I0927 00:14:01.701570 18853 net.cpp:172] Setting up conv4_1bn1
I0927 00:14:01.701581 18853 net.cpp:186] Top shape: 128 64 8 8 (524288)
I0927 00:14:01.701586 18853 net.cpp:194] Memory required for data: 1045955072
I0927 00:14:01.701596 18853 layer_factory.hpp:77] Creating layer conv4_1_scale1
I0927 00:14:01.701606 18853 net.cpp:128] Creating Layer conv4_1_scale1
I0927 00:14:01.701614 18853 net.cpp:558] conv4_1_scale1 <- conv4_1_1
I0927 00:14:01.701620 18853 net.cpp:509] conv4_1_scale1 -> conv4_1_1 (in-place)
I0927 00:14:01.701668 18853 layer_factory.hpp:77] Creating layer conv4_1_scale1
I0927 00:14:01.701833 18853 net.cpp:172] Setting up conv4_1_scale1
I0927 00:14:01.701844 18853 net.cpp:186] Top shape: 128 64 8 8 (524288)
I0927 00:14:01.701848 18853 net.cpp:194] Memory required for data: 1048052224
I0927 00:14:01.701856 18853 layer_factory.hpp:77] Creating layer conv4_1_down
I0927 00:14:01.701869 18853 net.cpp:128] Creating Layer conv4_1_down
I0927 00:14:01.701875 18853 net.cpp:558] conv4_1_down <- conv3_Eltwise_7_conv3_7ReLU_1_0_split_1
I0927 00:14:01.701885 18853 net.cpp:522] conv4_1_down -> conv4_1_down
I0927 00:14:01.707585 18853 net.cpp:172] Setting up conv4_1_down
I0927 00:14:01.707612 18853 net.cpp:186] Top shape: 128 64 8 8 (524288)
I0927 00:14:01.707617 18853 net.cpp:194] Memory required for data: 1050149376
I0927 00:14:01.707626 18853 layer_factory.hpp:77] Creating layer conv4_1_bn_down
I0927 00:14:01.707638 18853 net.cpp:128] Creating Layer conv4_1_bn_down
I0927 00:14:01.707644 18853 net.cpp:558] conv4_1_bn_down <- conv4_1_down
I0927 00:14:01.707650 18853 net.cpp:509] conv4_1_bn_down -> conv4_1_down (in-place)
I0927 00:14:01.707937 18853 net.cpp:172] Setting up conv4_1_bn_down
I0927 00:14:01.707952 18853 net.cpp:186] Top shape: 128 64 8 8 (524288)
I0927 00:14:01.707955 18853 net.cpp:194] Memory required for data: 1052246528
I0927 00:14:01.707965 18853 layer_factory.hpp:77] Creating layer conv4_1_scale_down
I0927 00:14:01.707975 18853 net.cpp:128] Creating Layer conv4_1_scale_down
I0927 00:14:01.707980 18853 net.cpp:558] conv4_1_scale_down <- conv4_1_down
I0927 00:14:01.707986 18853 net.cpp:509] conv4_1_scale_down -> conv4_1_down (in-place)
I0927 00:14:01.708031 18853 layer_factory.hpp:77] Creating layer conv4_1_scale_down
I0927 00:14:01.708197 18853 net.cpp:172] Setting up conv4_1_scale_down
I0927 00:14:01.708209 18853 net.cpp:186] Top shape: 128 64 8 8 (524288)
I0927 00:14:01.708214 18853 net.cpp:194] Memory required for data: 1054343680
I0927 00:14:01.708221 18853 layer_factory.hpp:77] Creating layer conv4_Eltwise_1
I0927 00:14:01.708232 18853 net.cpp:128] Creating Layer conv4_Eltwise_1
I0927 00:14:01.708236 18853 net.cpp:558] conv4_Eltwise_1 <- conv4_1_1
I0927 00:14:01.708241 18853 net.cpp:558] conv4_Eltwise_1 <- conv4_1_down
I0927 00:14:01.708247 18853 net.cpp:522] conv4_Eltwise_1 -> conv4_Eltwise_1
I0927 00:14:01.708274 18853 net.cpp:172] Setting up conv4_Eltwise_1
I0927 00:14:01.708282 18853 net.cpp:186] Top shape: 128 64 8 8 (524288)
I0927 00:14:01.708286 18853 net.cpp:194] Memory required for data: 1056440832
I0927 00:14:01.708290 18853 layer_factory.hpp:77] Creating layer conv4_1ReLU_1
I0927 00:14:01.708297 18853 net.cpp:128] Creating Layer conv4_1ReLU_1
I0927 00:14:01.708302 18853 net.cpp:558] conv4_1ReLU_1 <- conv4_Eltwise_1
I0927 00:14:01.708309 18853 net.cpp:509] conv4_1ReLU_1 -> conv4_Eltwise_1 (in-place)
I0927 00:14:01.709626 18853 net.cpp:172] Setting up conv4_1ReLU_1
I0927 00:14:01.709643 18853 net.cpp:186] Top shape: 128 64 8 8 (524288)
I0927 00:14:01.709648 18853 net.cpp:194] Memory required for data: 1058537984
I0927 00:14:01.709671 18853 layer_factory.hpp:77] Creating layer conv4_Eltwise_1_conv4_1ReLU_1_0_split
I0927 00:14:01.709681 18853 net.cpp:128] Creating Layer conv4_Eltwise_1_conv4_1ReLU_1_0_split
I0927 00:14:01.709686 18853 net.cpp:558] conv4_Eltwise_1_conv4_1ReLU_1_0_split <- conv4_Eltwise_1
I0927 00:14:01.709694 18853 net.cpp:522] conv4_Eltwise_1_conv4_1ReLU_1_0_split -> conv4_Eltwise_1_conv4_1ReLU_1_0_split_0
I0927 00:14:01.709704 18853 net.cpp:522] conv4_Eltwise_1_conv4_1ReLU_1_0_split -> conv4_Eltwise_1_conv4_1ReLU_1_0_split_1
I0927 00:14:01.709761 18853 net.cpp:172] Setting up conv4_Eltwise_1_conv4_1ReLU_1_0_split
I0927 00:14:01.709769 18853 net.cpp:186] Top shape: 128 64 8 8 (524288)
I0927 00:14:01.709775 18853 net.cpp:186] Top shape: 128 64 8 8 (524288)
I0927 00:14:01.709779 18853 net.cpp:194] Memory required for data: 1062732288
I0927 00:14:01.709784 18853 layer_factory.hpp:77] Creating layer conv4_2_0
I0927 00:14:01.709797 18853 net.cpp:128] Creating Layer conv4_2_0
I0927 00:14:01.709802 18853 net.cpp:558] conv4_2_0 <- conv4_Eltwise_1_conv4_1ReLU_1_0_split_0
I0927 00:14:01.709812 18853 net.cpp:522] conv4_2_0 -> conv4_2_0
I0927 00:14:01.716358 18853 net.cpp:172] Setting up conv4_2_0
I0927 00:14:01.716384 18853 net.cpp:186] Top shape: 128 64 8 8 (524288)
I0927 00:14:01.716389 18853 net.cpp:194] Memory required for data: 1064829440
I0927 00:14:01.716403 18853 layer_factory.hpp:77] Creating layer conv4_2_bn0
I0927 00:14:01.716418 18853 net.cpp:128] Creating Layer conv4_2_bn0
I0927 00:14:01.716425 18853 net.cpp:558] conv4_2_bn0 <- conv4_2_0
I0927 00:14:01.716434 18853 net.cpp:509] conv4_2_bn0 -> conv4_2_0 (in-place)
I0927 00:14:01.716711 18853 net.cpp:172] Setting up conv4_2_bn0
I0927 00:14:01.716722 18853 net.cpp:186] Top shape: 128 64 8 8 (524288)
I0927 00:14:01.716725 18853 net.cpp:194] Memory required for data: 1066926592
I0927 00:14:01.716735 18853 layer_factory.hpp:77] Creating layer conv4_2_scale0
I0927 00:14:01.716743 18853 net.cpp:128] Creating Layer conv4_2_scale0
I0927 00:14:01.716753 18853 net.cpp:558] conv4_2_scale0 <- conv4_2_0
I0927 00:14:01.716759 18853 net.cpp:509] conv4_2_scale0 -> conv4_2_0 (in-place)
I0927 00:14:01.716805 18853 layer_factory.hpp:77] Creating layer conv4_2_scale0
I0927 00:14:01.716967 18853 net.cpp:172] Setting up conv4_2_scale0
I0927 00:14:01.716977 18853 net.cpp:186] Top shape: 128 64 8 8 (524288)
I0927 00:14:01.716981 18853 net.cpp:194] Memory required for data: 1069023744
I0927 00:14:01.716989 18853 layer_factory.hpp:77] Creating layer conv4_2_ReLU0
I0927 00:14:01.716998 18853 net.cpp:128] Creating Layer conv4_2_ReLU0
I0927 00:14:01.717003 18853 net.cpp:558] conv4_2_ReLU0 <- conv4_2_0
I0927 00:14:01.717008 18853 net.cpp:509] conv4_2_ReLU0 -> conv4_2_0 (in-place)
I0927 00:14:01.718391 18853 net.cpp:172] Setting up conv4_2_ReLU0
I0927 00:14:01.718410 18853 net.cpp:186] Top shape: 128 64 8 8 (524288)
I0927 00:14:01.718415 18853 net.cpp:194] Memory required for data: 1071120896
I0927 00:14:01.718420 18853 layer_factory.hpp:77] Creating layer conv4_2_1
I0927 00:14:01.718438 18853 net.cpp:128] Creating Layer conv4_2_1
I0927 00:14:01.718446 18853 net.cpp:558] conv4_2_1 <- conv4_2_0
I0927 00:14:01.718459 18853 net.cpp:522] conv4_2_1 -> conv4_2_1
I0927 00:14:01.725380 18853 net.cpp:172] Setting up conv4_2_1
I0927 00:14:01.725409 18853 net.cpp:186] Top shape: 128 64 8 8 (524288)
I0927 00:14:01.725414 18853 net.cpp:194] Memory required for data: 1073218048
I0927 00:14:01.725423 18853 layer_factory.hpp:77] Creating layer conv4_2bn1
I0927 00:14:01.725435 18853 net.cpp:128] Creating Layer conv4_2bn1
I0927 00:14:01.725441 18853 net.cpp:558] conv4_2bn1 <- conv4_2_1
I0927 00:14:01.725450 18853 net.cpp:509] conv4_2bn1 -> conv4_2_1 (in-place)
I0927 00:14:01.725746 18853 net.cpp:172] Setting up conv4_2bn1
I0927 00:14:01.725759 18853 net.cpp:186] Top shape: 128 64 8 8 (524288)
I0927 00:14:01.725764 18853 net.cpp:194] Memory required for data: 1075315200
I0927 00:14:01.725775 18853 layer_factory.hpp:77] Creating layer conv4_2_scale1
I0927 00:14:01.725783 18853 net.cpp:128] Creating Layer conv4_2_scale1
I0927 00:14:01.725805 18853 net.cpp:558] conv4_2_scale1 <- conv4_2_1
I0927 00:14:01.725811 18853 net.cpp:509] conv4_2_scale1 -> conv4_2_1 (in-place)
I0927 00:14:01.725859 18853 layer_factory.hpp:77] Creating layer conv4_2_scale1
I0927 00:14:01.726032 18853 net.cpp:172] Setting up conv4_2_scale1
I0927 00:14:01.726044 18853 net.cpp:186] Top shape: 128 64 8 8 (524288)
I0927 00:14:01.726048 18853 net.cpp:194] Memory required for data: 1077412352
I0927 00:14:01.726058 18853 layer_factory.hpp:77] Creating layer conv4_Eltwise_2
I0927 00:14:01.726066 18853 net.cpp:128] Creating Layer conv4_Eltwise_2
I0927 00:14:01.726071 18853 net.cpp:558] conv4_Eltwise_2 <- conv4_Eltwise_1_conv4_1ReLU_1_0_split_1
I0927 00:14:01.726078 18853 net.cpp:558] conv4_Eltwise_2 <- conv4_2_1
I0927 00:14:01.726085 18853 net.cpp:522] conv4_Eltwise_2 -> conv4_Eltwise_2
I0927 00:14:01.726109 18853 net.cpp:172] Setting up conv4_Eltwise_2
I0927 00:14:01.726116 18853 net.cpp:186] Top shape: 128 64 8 8 (524288)
I0927 00:14:01.726121 18853 net.cpp:194] Memory required for data: 1079509504
I0927 00:14:01.726125 18853 layer_factory.hpp:77] Creating layer conv4_2ReLU_1
I0927 00:14:01.726131 18853 net.cpp:128] Creating Layer conv4_2ReLU_1
I0927 00:14:01.726136 18853 net.cpp:558] conv4_2ReLU_1 <- conv4_Eltwise_2
I0927 00:14:01.726145 18853 net.cpp:509] conv4_2ReLU_1 -> conv4_Eltwise_2 (in-place)
I0927 00:14:01.727200 18853 net.cpp:172] Setting up conv4_2ReLU_1
I0927 00:14:01.727223 18853 net.cpp:186] Top shape: 128 64 8 8 (524288)
I0927 00:14:01.727228 18853 net.cpp:194] Memory required for data: 1081606656
I0927 00:14:01.727233 18853 layer_factory.hpp:77] Creating layer conv4_Eltwise_2_conv4_2ReLU_1_0_split
I0927 00:14:01.727241 18853 net.cpp:128] Creating Layer conv4_Eltwise_2_conv4_2ReLU_1_0_split
I0927 00:14:01.727246 18853 net.cpp:558] conv4_Eltwise_2_conv4_2ReLU_1_0_split <- conv4_Eltwise_2
I0927 00:14:01.727257 18853 net.cpp:522] conv4_Eltwise_2_conv4_2ReLU_1_0_split -> conv4_Eltwise_2_conv4_2ReLU_1_0_split_0
I0927 00:14:01.727265 18853 net.cpp:522] conv4_Eltwise_2_conv4_2ReLU_1_0_split -> conv4_Eltwise_2_conv4_2ReLU_1_0_split_1
I0927 00:14:01.727325 18853 net.cpp:172] Setting up conv4_Eltwise_2_conv4_2ReLU_1_0_split
I0927 00:14:01.727339 18853 net.cpp:186] Top shape: 128 64 8 8 (524288)
I0927 00:14:01.727345 18853 net.cpp:186] Top shape: 128 64 8 8 (524288)
I0927 00:14:01.727349 18853 net.cpp:194] Memory required for data: 1085800960
I0927 00:14:01.727353 18853 layer_factory.hpp:77] Creating layer conv4_3_0
I0927 00:14:01.727370 18853 net.cpp:128] Creating Layer conv4_3_0
I0927 00:14:01.727375 18853 net.cpp:558] conv4_3_0 <- conv4_Eltwise_2_conv4_2ReLU_1_0_split_0
I0927 00:14:01.727388 18853 net.cpp:522] conv4_3_0 -> conv4_3_0
I0927 00:14:01.732681 18853 net.cpp:172] Setting up conv4_3_0
I0927 00:14:01.732707 18853 net.cpp:186] Top shape: 128 64 8 8 (524288)
I0927 00:14:01.732712 18853 net.cpp:194] Memory required for data: 1087898112
I0927 00:14:01.732725 18853 layer_factory.hpp:77] Creating layer conv4_3_bn0
I0927 00:14:01.732735 18853 net.cpp:128] Creating Layer conv4_3_bn0
I0927 00:14:01.732745 18853 net.cpp:558] conv4_3_bn0 <- conv4_3_0
I0927 00:14:01.732753 18853 net.cpp:509] conv4_3_bn0 -> conv4_3_0 (in-place)
I0927 00:14:01.733037 18853 net.cpp:172] Setting up conv4_3_bn0
I0927 00:14:01.733047 18853 net.cpp:186] Top shape: 128 64 8 8 (524288)
I0927 00:14:01.733052 18853 net.cpp:194] Memory required for data: 1089995264
I0927 00:14:01.733062 18853 layer_factory.hpp:77] Creating layer conv4_3_scale0
I0927 00:14:01.733072 18853 net.cpp:128] Creating Layer conv4_3_scale0
I0927 00:14:01.733077 18853 net.cpp:558] conv4_3_scale0 <- conv4_3_0
I0927 00:14:01.733083 18853 net.cpp:509] conv4_3_scale0 -> conv4_3_0 (in-place)
I0927 00:14:01.733127 18853 layer_factory.hpp:77] Creating layer conv4_3_scale0
I0927 00:14:01.733292 18853 net.cpp:172] Setting up conv4_3_scale0
I0927 00:14:01.733302 18853 net.cpp:186] Top shape: 128 64 8 8 (524288)
I0927 00:14:01.733306 18853 net.cpp:194] Memory required for data: 1092092416
I0927 00:14:01.733314 18853 layer_factory.hpp:77] Creating layer conv4_3_ReLU0
I0927 00:14:01.733343 18853 net.cpp:128] Creating Layer conv4_3_ReLU0
I0927 00:14:01.733350 18853 net.cpp:558] conv4_3_ReLU0 <- conv4_3_0
I0927 00:14:01.733356 18853 net.cpp:509] conv4_3_ReLU0 -> conv4_3_0 (in-place)
I0927 00:14:01.733598 18853 net.cpp:172] Setting up conv4_3_ReLU0
I0927 00:14:01.733613 18853 net.cpp:186] Top shape: 128 64 8 8 (524288)
I0927 00:14:01.733616 18853 net.cpp:194] Memory required for data: 1094189568
I0927 00:14:01.733621 18853 layer_factory.hpp:77] Creating layer conv4_3_1
I0927 00:14:01.733638 18853 net.cpp:128] Creating Layer conv4_3_1
I0927 00:14:01.733647 18853 net.cpp:558] conv4_3_1 <- conv4_3_0
I0927 00:14:01.733656 18853 net.cpp:522] conv4_3_1 -> conv4_3_1
I0927 00:14:01.736065 18853 net.cpp:172] Setting up conv4_3_1
I0927 00:14:01.736093 18853 net.cpp:186] Top shape: 128 64 8 8 (524288)
I0927 00:14:01.736097 18853 net.cpp:194] Memory required for data: 1096286720
I0927 00:14:01.736109 18853 layer_factory.hpp:77] Creating layer conv4_3bn1
I0927 00:14:01.736119 18853 net.cpp:128] Creating Layer conv4_3bn1
I0927 00:14:01.736124 18853 net.cpp:558] conv4_3bn1 <- conv4_3_1
I0927 00:14:01.736133 18853 net.cpp:509] conv4_3bn1 -> conv4_3_1 (in-place)
I0927 00:14:01.736438 18853 net.cpp:172] Setting up conv4_3bn1
I0927 00:14:01.736449 18853 net.cpp:186] Top shape: 128 64 8 8 (524288)
I0927 00:14:01.736454 18853 net.cpp:194] Memory required for data: 1098383872
I0927 00:14:01.736487 18853 layer_factory.hpp:77] Creating layer conv4_3_scale1
I0927 00:14:01.736502 18853 net.cpp:128] Creating Layer conv4_3_scale1
I0927 00:14:01.736506 18853 net.cpp:558] conv4_3_scale1 <- conv4_3_1
I0927 00:14:01.736513 18853 net.cpp:509] conv4_3_scale1 -> conv4_3_1 (in-place)
I0927 00:14:01.736558 18853 layer_factory.hpp:77] Creating layer conv4_3_scale1
I0927 00:14:01.736726 18853 net.cpp:172] Setting up conv4_3_scale1
I0927 00:14:01.736738 18853 net.cpp:186] Top shape: 128 64 8 8 (524288)
I0927 00:14:01.736743 18853 net.cpp:194] Memory required for data: 1100481024
I0927 00:14:01.736752 18853 layer_factory.hpp:77] Creating layer conv4_Eltwise_3
I0927 00:14:01.736758 18853 net.cpp:128] Creating Layer conv4_Eltwise_3
I0927 00:14:01.736763 18853 net.cpp:558] conv4_Eltwise_3 <- conv4_Eltwise_2_conv4_2ReLU_1_0_split_1
I0927 00:14:01.736768 18853 net.cpp:558] conv4_Eltwise_3 <- conv4_3_1
I0927 00:14:01.736778 18853 net.cpp:522] conv4_Eltwise_3 -> conv4_Eltwise_3
I0927 00:14:01.736801 18853 net.cpp:172] Setting up conv4_Eltwise_3
I0927 00:14:01.736815 18853 net.cpp:186] Top shape: 128 64 8 8 (524288)
I0927 00:14:01.736820 18853 net.cpp:194] Memory required for data: 1102578176
I0927 00:14:01.736824 18853 layer_factory.hpp:77] Creating layer conv4_3ReLU_1
I0927 00:14:01.736832 18853 net.cpp:128] Creating Layer conv4_3ReLU_1
I0927 00:14:01.736837 18853 net.cpp:558] conv4_3ReLU_1 <- conv4_Eltwise_3
I0927 00:14:01.736843 18853 net.cpp:509] conv4_3ReLU_1 -> conv4_Eltwise_3 (in-place)
I0927 00:14:01.737099 18853 net.cpp:172] Setting up conv4_3ReLU_1
I0927 00:14:01.737115 18853 net.cpp:186] Top shape: 128 64 8 8 (524288)
I0927 00:14:01.737119 18853 net.cpp:194] Memory required for data: 1104675328
I0927 00:14:01.737124 18853 layer_factory.hpp:77] Creating layer conv4_Eltwise_3_conv4_3ReLU_1_0_split
I0927 00:14:01.737133 18853 net.cpp:128] Creating Layer conv4_Eltwise_3_conv4_3ReLU_1_0_split
I0927 00:14:01.737140 18853 net.cpp:558] conv4_Eltwise_3_conv4_3ReLU_1_0_split <- conv4_Eltwise_3
I0927 00:14:01.737148 18853 net.cpp:522] conv4_Eltwise_3_conv4_3ReLU_1_0_split -> conv4_Eltwise_3_conv4_3ReLU_1_0_split_0
I0927 00:14:01.737155 18853 net.cpp:522] conv4_Eltwise_3_conv4_3ReLU_1_0_split -> conv4_Eltwise_3_conv4_3ReLU_1_0_split_1
I0927 00:14:01.737211 18853 net.cpp:172] Setting up conv4_Eltwise_3_conv4_3ReLU_1_0_split
I0927 00:14:01.737224 18853 net.cpp:186] Top shape: 128 64 8 8 (524288)
I0927 00:14:01.737231 18853 net.cpp:186] Top shape: 128 64 8 8 (524288)
I0927 00:14:01.737234 18853 net.cpp:194] Memory required for data: 1108869632
I0927 00:14:01.737238 18853 layer_factory.hpp:77] Creating layer conv4_4_0
I0927 00:14:01.737268 18853 net.cpp:128] Creating Layer conv4_4_0
I0927 00:14:01.737274 18853 net.cpp:558] conv4_4_0 <- conv4_Eltwise_3_conv4_3ReLU_1_0_split_0
I0927 00:14:01.737285 18853 net.cpp:522] conv4_4_0 -> conv4_4_0
I0927 00:14:01.743261 18853 net.cpp:172] Setting up conv4_4_0
I0927 00:14:01.743288 18853 net.cpp:186] Top shape: 128 64 8 8 (524288)
I0927 00:14:01.743291 18853 net.cpp:194] Memory required for data: 1110966784
I0927 00:14:01.743304 18853 layer_factory.hpp:77] Creating layer conv4_4_bn0
I0927 00:14:01.743316 18853 net.cpp:128] Creating Layer conv4_4_bn0
I0927 00:14:01.743322 18853 net.cpp:558] conv4_4_bn0 <- conv4_4_0
I0927 00:14:01.743332 18853 net.cpp:509] conv4_4_bn0 -> conv4_4_0 (in-place)
I0927 00:14:01.743621 18853 net.cpp:172] Setting up conv4_4_bn0
I0927 00:14:01.743635 18853 net.cpp:186] Top shape: 128 64 8 8 (524288)
I0927 00:14:01.743639 18853 net.cpp:194] Memory required for data: 1113063936
I0927 00:14:01.743650 18853 layer_factory.hpp:77] Creating layer conv4_4_scale0
I0927 00:14:01.743660 18853 net.cpp:128] Creating Layer conv4_4_scale0
I0927 00:14:01.743666 18853 net.cpp:558] conv4_4_scale0 <- conv4_4_0
I0927 00:14:01.743672 18853 net.cpp:509] conv4_4_scale0 -> conv4_4_0 (in-place)
I0927 00:14:01.743719 18853 layer_factory.hpp:77] Creating layer conv4_4_scale0
I0927 00:14:01.743893 18853 net.cpp:172] Setting up conv4_4_scale0
I0927 00:14:01.743906 18853 net.cpp:186] Top shape: 128 64 8 8 (524288)
I0927 00:14:01.743911 18853 net.cpp:194] Memory required for data: 1115161088
I0927 00:14:01.743918 18853 layer_factory.hpp:77] Creating layer conv4_4_ReLU0
I0927 00:14:01.743927 18853 net.cpp:128] Creating Layer conv4_4_ReLU0
I0927 00:14:01.743932 18853 net.cpp:558] conv4_4_ReLU0 <- conv4_4_0
I0927 00:14:01.743940 18853 net.cpp:509] conv4_4_ReLU0 -> conv4_4_0 (in-place)
I0927 00:14:01.745319 18853 net.cpp:172] Setting up conv4_4_ReLU0
I0927 00:14:01.745348 18853 net.cpp:186] Top shape: 128 64 8 8 (524288)
I0927 00:14:01.745353 18853 net.cpp:194] Memory required for data: 1117258240
I0927 00:14:01.745358 18853 layer_factory.hpp:77] Creating layer conv4_4_1
I0927 00:14:01.745378 18853 net.cpp:128] Creating Layer conv4_4_1
I0927 00:14:01.745384 18853 net.cpp:558] conv4_4_1 <- conv4_4_0
I0927 00:14:01.745395 18853 net.cpp:522] conv4_4_1 -> conv4_4_1
I0927 00:14:01.752308 18853 net.cpp:172] Setting up conv4_4_1
I0927 00:14:01.752336 18853 net.cpp:186] Top shape: 128 64 8 8 (524288)
I0927 00:14:01.752341 18853 net.cpp:194] Memory required for data: 1119355392
I0927 00:14:01.752355 18853 layer_factory.hpp:77] Creating layer conv4_4bn1
I0927 00:14:01.752367 18853 net.cpp:128] Creating Layer conv4_4bn1
I0927 00:14:01.752373 18853 net.cpp:558] conv4_4bn1 <- conv4_4_1
I0927 00:14:01.752382 18853 net.cpp:509] conv4_4bn1 -> conv4_4_1 (in-place)
I0927 00:14:01.752687 18853 net.cpp:172] Setting up conv4_4bn1
I0927 00:14:01.752698 18853 net.cpp:186] Top shape: 128 64 8 8 (524288)
I0927 00:14:01.752703 18853 net.cpp:194] Memory required for data: 1121452544
I0927 00:14:01.752713 18853 layer_factory.hpp:77] Creating layer conv4_4_scale1
I0927 00:14:01.752720 18853 net.cpp:128] Creating Layer conv4_4_scale1
I0927 00:14:01.752724 18853 net.cpp:558] conv4_4_scale1 <- conv4_4_1
I0927 00:14:01.752730 18853 net.cpp:509] conv4_4_scale1 -> conv4_4_1 (in-place)
I0927 00:14:01.752777 18853 layer_factory.hpp:77] Creating layer conv4_4_scale1
I0927 00:14:01.752951 18853 net.cpp:172] Setting up conv4_4_scale1
I0927 00:14:01.752962 18853 net.cpp:186] Top shape: 128 64 8 8 (524288)
I0927 00:14:01.752966 18853 net.cpp:194] Memory required for data: 1123549696
I0927 00:14:01.752974 18853 layer_factory.hpp:77] Creating layer conv4_Eltwise_4
I0927 00:14:01.752984 18853 net.cpp:128] Creating Layer conv4_Eltwise_4
I0927 00:14:01.752991 18853 net.cpp:558] conv4_Eltwise_4 <- conv4_Eltwise_3_conv4_3ReLU_1_0_split_1
I0927 00:14:01.752997 18853 net.cpp:558] conv4_Eltwise_4 <- conv4_4_1
I0927 00:14:01.753003 18853 net.cpp:522] conv4_Eltwise_4 -> conv4_Eltwise_4
I0927 00:14:01.753027 18853 net.cpp:172] Setting up conv4_Eltwise_4
I0927 00:14:01.753057 18853 net.cpp:186] Top shape: 128 64 8 8 (524288)
I0927 00:14:01.753062 18853 net.cpp:194] Memory required for data: 1125646848
I0927 00:14:01.753067 18853 layer_factory.hpp:77] Creating layer conv4_4ReLU_1
I0927 00:14:01.753077 18853 net.cpp:128] Creating Layer conv4_4ReLU_1
I0927 00:14:01.753085 18853 net.cpp:558] conv4_4ReLU_1 <- conv4_Eltwise_4
I0927 00:14:01.753093 18853 net.cpp:509] conv4_4ReLU_1 -> conv4_Eltwise_4 (in-place)
I0927 00:14:01.754123 18853 net.cpp:172] Setting up conv4_4ReLU_1
I0927 00:14:01.754142 18853 net.cpp:186] Top shape: 128 64 8 8 (524288)
I0927 00:14:01.754145 18853 net.cpp:194] Memory required for data: 1127744000
I0927 00:14:01.754150 18853 layer_factory.hpp:77] Creating layer conv4_Eltwise_4_conv4_4ReLU_1_0_split
I0927 00:14:01.754160 18853 net.cpp:128] Creating Layer conv4_Eltwise_4_conv4_4ReLU_1_0_split
I0927 00:14:01.754165 18853 net.cpp:558] conv4_Eltwise_4_conv4_4ReLU_1_0_split <- conv4_Eltwise_4
I0927 00:14:01.754175 18853 net.cpp:522] conv4_Eltwise_4_conv4_4ReLU_1_0_split -> conv4_Eltwise_4_conv4_4ReLU_1_0_split_0
I0927 00:14:01.754189 18853 net.cpp:522] conv4_Eltwise_4_conv4_4ReLU_1_0_split -> conv4_Eltwise_4_conv4_4ReLU_1_0_split_1
I0927 00:14:01.754245 18853 net.cpp:172] Setting up conv4_Eltwise_4_conv4_4ReLU_1_0_split
I0927 00:14:01.754256 18853 net.cpp:186] Top shape: 128 64 8 8 (524288)
I0927 00:14:01.754262 18853 net.cpp:186] Top shape: 128 64 8 8 (524288)
I0927 00:14:01.754266 18853 net.cpp:194] Memory required for data: 1131938304
I0927 00:14:01.754271 18853 layer_factory.hpp:77] Creating layer conv4_5_0
I0927 00:14:01.754283 18853 net.cpp:128] Creating Layer conv4_5_0
I0927 00:14:01.754288 18853 net.cpp:558] conv4_5_0 <- conv4_Eltwise_4_conv4_4ReLU_1_0_split_0
I0927 00:14:01.754297 18853 net.cpp:522] conv4_5_0 -> conv4_5_0
I0927 00:14:01.760839 18853 net.cpp:172] Setting up conv4_5_0
I0927 00:14:01.760865 18853 net.cpp:186] Top shape: 128 64 8 8 (524288)
I0927 00:14:01.760870 18853 net.cpp:194] Memory required for data: 1134035456
I0927 00:14:01.760880 18853 layer_factory.hpp:77] Creating layer conv4_5_bn0
I0927 00:14:01.760891 18853 net.cpp:128] Creating Layer conv4_5_bn0
I0927 00:14:01.760897 18853 net.cpp:558] conv4_5_bn0 <- conv4_5_0
I0927 00:14:01.760906 18853 net.cpp:509] conv4_5_bn0 -> conv4_5_0 (in-place)
I0927 00:14:01.761198 18853 net.cpp:172] Setting up conv4_5_bn0
I0927 00:14:01.761210 18853 net.cpp:186] Top shape: 128 64 8 8 (524288)
I0927 00:14:01.761214 18853 net.cpp:194] Memory required for data: 1136132608
I0927 00:14:01.761225 18853 layer_factory.hpp:77] Creating layer conv4_5_scale0
I0927 00:14:01.761232 18853 net.cpp:128] Creating Layer conv4_5_scale0
I0927 00:14:01.761237 18853 net.cpp:558] conv4_5_scale0 <- conv4_5_0
I0927 00:14:01.761250 18853 net.cpp:509] conv4_5_scale0 -> conv4_5_0 (in-place)
I0927 00:14:01.761296 18853 layer_factory.hpp:77] Creating layer conv4_5_scale0
I0927 00:14:01.761466 18853 net.cpp:172] Setting up conv4_5_scale0
I0927 00:14:01.761477 18853 net.cpp:186] Top shape: 128 64 8 8 (524288)
I0927 00:14:01.761482 18853 net.cpp:194] Memory required for data: 1138229760
I0927 00:14:01.761490 18853 layer_factory.hpp:77] Creating layer conv4_5_ReLU0
I0927 00:14:01.761497 18853 net.cpp:128] Creating Layer conv4_5_ReLU0
I0927 00:14:01.761502 18853 net.cpp:558] conv4_5_ReLU0 <- conv4_5_0
I0927 00:14:01.761509 18853 net.cpp:509] conv4_5_ReLU0 -> conv4_5_0 (in-place)
I0927 00:14:01.762910 18853 net.cpp:172] Setting up conv4_5_ReLU0
I0927 00:14:01.762930 18853 net.cpp:186] Top shape: 128 64 8 8 (524288)
I0927 00:14:01.762935 18853 net.cpp:194] Memory required for data: 1140326912
I0927 00:14:01.762940 18853 layer_factory.hpp:77] Creating layer conv4_5_1
I0927 00:14:01.762955 18853 net.cpp:128] Creating Layer conv4_5_1
I0927 00:14:01.762961 18853 net.cpp:558] conv4_5_1 <- conv4_5_0
I0927 00:14:01.762971 18853 net.cpp:522] conv4_5_1 -> conv4_5_1
I0927 00:14:01.769938 18853 net.cpp:172] Setting up conv4_5_1
I0927 00:14:01.769968 18853 net.cpp:186] Top shape: 128 64 8 8 (524288)
I0927 00:14:01.769973 18853 net.cpp:194] Memory required for data: 1142424064
I0927 00:14:01.769999 18853 layer_factory.hpp:77] Creating layer conv4_5bn1
I0927 00:14:01.770014 18853 net.cpp:128] Creating Layer conv4_5bn1
I0927 00:14:01.770021 18853 net.cpp:558] conv4_5bn1 <- conv4_5_1
I0927 00:14:01.770028 18853 net.cpp:509] conv4_5bn1 -> conv4_5_1 (in-place)
I0927 00:14:01.770331 18853 net.cpp:172] Setting up conv4_5bn1
I0927 00:14:01.770345 18853 net.cpp:186] Top shape: 128 64 8 8 (524288)
I0927 00:14:01.770349 18853 net.cpp:194] Memory required for data: 1144521216
I0927 00:14:01.770359 18853 layer_factory.hpp:77] Creating layer conv4_5_scale1
I0927 00:14:01.770366 18853 net.cpp:128] Creating Layer conv4_5_scale1
I0927 00:14:01.770371 18853 net.cpp:558] conv4_5_scale1 <- conv4_5_1
I0927 00:14:01.770377 18853 net.cpp:509] conv4_5_scale1 -> conv4_5_1 (in-place)
I0927 00:14:01.770423 18853 layer_factory.hpp:77] Creating layer conv4_5_scale1
I0927 00:14:01.770597 18853 net.cpp:172] Setting up conv4_5_scale1
I0927 00:14:01.770609 18853 net.cpp:186] Top shape: 128 64 8 8 (524288)
I0927 00:14:01.770615 18853 net.cpp:194] Memory required for data: 1146618368
I0927 00:14:01.770623 18853 layer_factory.hpp:77] Creating layer conv4_Eltwise_5
I0927 00:14:01.770633 18853 net.cpp:128] Creating Layer conv4_Eltwise_5
I0927 00:14:01.770638 18853 net.cpp:558] conv4_Eltwise_5 <- conv4_Eltwise_4_conv4_4ReLU_1_0_split_1
I0927 00:14:01.770643 18853 net.cpp:558] conv4_Eltwise_5 <- conv4_5_1
I0927 00:14:01.770649 18853 net.cpp:522] conv4_Eltwise_5 -> conv4_Eltwise_5
I0927 00:14:01.770673 18853 net.cpp:172] Setting up conv4_Eltwise_5
I0927 00:14:01.770681 18853 net.cpp:186] Top shape: 128 64 8 8 (524288)
I0927 00:14:01.770686 18853 net.cpp:194] Memory required for data: 1148715520
I0927 00:14:01.770690 18853 layer_factory.hpp:77] Creating layer conv4_5ReLU_1
I0927 00:14:01.770699 18853 net.cpp:128] Creating Layer conv4_5ReLU_1
I0927 00:14:01.770704 18853 net.cpp:558] conv4_5ReLU_1 <- conv4_Eltwise_5
I0927 00:14:01.770712 18853 net.cpp:509] conv4_5ReLU_1 -> conv4_Eltwise_5 (in-place)
I0927 00:14:01.771718 18853 net.cpp:172] Setting up conv4_5ReLU_1
I0927 00:14:01.771735 18853 net.cpp:186] Top shape: 128 64 8 8 (524288)
I0927 00:14:01.771739 18853 net.cpp:194] Memory required for data: 1150812672
I0927 00:14:01.771744 18853 layer_factory.hpp:77] Creating layer conv4_Eltwise_5_conv4_5ReLU_1_0_split
I0927 00:14:01.771754 18853 net.cpp:128] Creating Layer conv4_Eltwise_5_conv4_5ReLU_1_0_split
I0927 00:14:01.771759 18853 net.cpp:558] conv4_Eltwise_5_conv4_5ReLU_1_0_split <- conv4_Eltwise_5
I0927 00:14:01.771770 18853 net.cpp:522] conv4_Eltwise_5_conv4_5ReLU_1_0_split -> conv4_Eltwise_5_conv4_5ReLU_1_0_split_0
I0927 00:14:01.771778 18853 net.cpp:522] conv4_Eltwise_5_conv4_5ReLU_1_0_split -> conv4_Eltwise_5_conv4_5ReLU_1_0_split_1
I0927 00:14:01.771833 18853 net.cpp:172] Setting up conv4_Eltwise_5_conv4_5ReLU_1_0_split
I0927 00:14:01.771850 18853 net.cpp:186] Top shape: 128 64 8 8 (524288)
I0927 00:14:01.771857 18853 net.cpp:186] Top shape: 128 64 8 8 (524288)
I0927 00:14:01.771862 18853 net.cpp:194] Memory required for data: 1155006976
I0927 00:14:01.771867 18853 layer_factory.hpp:77] Creating layer conv4_6_0
I0927 00:14:01.771878 18853 net.cpp:128] Creating Layer conv4_6_0
I0927 00:14:01.771883 18853 net.cpp:558] conv4_6_0 <- conv4_Eltwise_5_conv4_5ReLU_1_0_split_0
I0927 00:14:01.771894 18853 net.cpp:522] conv4_6_0 -> conv4_6_0
I0927 00:14:01.778493 18853 net.cpp:172] Setting up conv4_6_0
I0927 00:14:01.778523 18853 net.cpp:186] Top shape: 128 64 8 8 (524288)
I0927 00:14:01.778528 18853 net.cpp:194] Memory required for data: 1157104128
I0927 00:14:01.778538 18853 layer_factory.hpp:77] Creating layer conv4_6_bn0
I0927 00:14:01.778548 18853 net.cpp:128] Creating Layer conv4_6_bn0
I0927 00:14:01.778553 18853 net.cpp:558] conv4_6_bn0 <- conv4_6_0
I0927 00:14:01.778561 18853 net.cpp:509] conv4_6_bn0 -> conv4_6_0 (in-place)
I0927 00:14:01.778863 18853 net.cpp:172] Setting up conv4_6_bn0
I0927 00:14:01.778877 18853 net.cpp:186] Top shape: 128 64 8 8 (524288)
I0927 00:14:01.778899 18853 net.cpp:194] Memory required for data: 1159201280
I0927 00:14:01.778910 18853 layer_factory.hpp:77] Creating layer conv4_6_scale0
I0927 00:14:01.778918 18853 net.cpp:128] Creating Layer conv4_6_scale0
I0927 00:14:01.778923 18853 net.cpp:558] conv4_6_scale0 <- conv4_6_0
I0927 00:14:01.778931 18853 net.cpp:509] conv4_6_scale0 -> conv4_6_0 (in-place)
I0927 00:14:01.778977 18853 layer_factory.hpp:77] Creating layer conv4_6_scale0
I0927 00:14:01.779146 18853 net.cpp:172] Setting up conv4_6_scale0
I0927 00:14:01.779158 18853 net.cpp:186] Top shape: 128 64 8 8 (524288)
I0927 00:14:01.779163 18853 net.cpp:194] Memory required for data: 1161298432
I0927 00:14:01.779171 18853 layer_factory.hpp:77] Creating layer conv4_6_ReLU0
I0927 00:14:01.779178 18853 net.cpp:128] Creating Layer conv4_6_ReLU0
I0927 00:14:01.779182 18853 net.cpp:558] conv4_6_ReLU0 <- conv4_6_0
I0927 00:14:01.779194 18853 net.cpp:509] conv4_6_ReLU0 -> conv4_6_0 (in-place)
I0927 00:14:01.780558 18853 net.cpp:172] Setting up conv4_6_ReLU0
I0927 00:14:01.780584 18853 net.cpp:186] Top shape: 128 64 8 8 (524288)
I0927 00:14:01.780589 18853 net.cpp:194] Memory required for data: 1163395584
I0927 00:14:01.780594 18853 layer_factory.hpp:77] Creating layer conv4_6_1
I0927 00:14:01.780611 18853 net.cpp:128] Creating Layer conv4_6_1
I0927 00:14:01.780622 18853 net.cpp:558] conv4_6_1 <- conv4_6_0
I0927 00:14:01.780632 18853 net.cpp:522] conv4_6_1 -> conv4_6_1
I0927 00:14:01.782917 18853 net.cpp:172] Setting up conv4_6_1
I0927 00:14:01.782940 18853 net.cpp:186] Top shape: 128 64 8 8 (524288)
I0927 00:14:01.782945 18853 net.cpp:194] Memory required for data: 1165492736
I0927 00:14:01.782958 18853 layer_factory.hpp:77] Creating layer conv4_6bn1
I0927 00:14:01.782966 18853 net.cpp:128] Creating Layer conv4_6bn1
I0927 00:14:01.782974 18853 net.cpp:558] conv4_6bn1 <- conv4_6_1
I0927 00:14:01.782984 18853 net.cpp:509] conv4_6bn1 -> conv4_6_1 (in-place)
I0927 00:14:01.783294 18853 net.cpp:172] Setting up conv4_6bn1
I0927 00:14:01.783308 18853 net.cpp:186] Top shape: 128 64 8 8 (524288)
I0927 00:14:01.783311 18853 net.cpp:194] Memory required for data: 1167589888
I0927 00:14:01.783321 18853 layer_factory.hpp:77] Creating layer conv4_6_scale1
I0927 00:14:01.783330 18853 net.cpp:128] Creating Layer conv4_6_scale1
I0927 00:14:01.783335 18853 net.cpp:558] conv4_6_scale1 <- conv4_6_1
I0927 00:14:01.783341 18853 net.cpp:509] conv4_6_scale1 -> conv4_6_1 (in-place)
I0927 00:14:01.783388 18853 layer_factory.hpp:77] Creating layer conv4_6_scale1
I0927 00:14:01.783557 18853 net.cpp:172] Setting up conv4_6_scale1
I0927 00:14:01.783567 18853 net.cpp:186] Top shape: 128 64 8 8 (524288)
I0927 00:14:01.783571 18853 net.cpp:194] Memory required for data: 1169687040
I0927 00:14:01.783582 18853 layer_factory.hpp:77] Creating layer conv4_Eltwise_6
I0927 00:14:01.783596 18853 net.cpp:128] Creating Layer conv4_Eltwise_6
I0927 00:14:01.783602 18853 net.cpp:558] conv4_Eltwise_6 <- conv4_Eltwise_5_conv4_5ReLU_1_0_split_1
I0927 00:14:01.783608 18853 net.cpp:558] conv4_Eltwise_6 <- conv4_6_1
I0927 00:14:01.783613 18853 net.cpp:522] conv4_Eltwise_6 -> conv4_Eltwise_6
I0927 00:14:01.783640 18853 net.cpp:172] Setting up conv4_Eltwise_6
I0927 00:14:01.783648 18853 net.cpp:186] Top shape: 128 64 8 8 (524288)
I0927 00:14:01.783654 18853 net.cpp:194] Memory required for data: 1171784192
I0927 00:14:01.783658 18853 layer_factory.hpp:77] Creating layer conv4_6ReLU_1
I0927 00:14:01.783664 18853 net.cpp:128] Creating Layer conv4_6ReLU_1
I0927 00:14:01.783669 18853 net.cpp:558] conv4_6ReLU_1 <- conv4_Eltwise_6
I0927 00:14:01.783677 18853 net.cpp:509] conv4_6ReLU_1 -> conv4_Eltwise_6 (in-place)
I0927 00:14:01.783931 18853 net.cpp:172] Setting up conv4_6ReLU_1
…
I0927 00:14:02.044976 18853 net.cpp:186] Top shape: 10 32 16 16 (81920)
I0927 00:14:02.044981 18853 net.cpp:194] Memory required for data: 75817080
I0927 00:14:02.044989 18853 layer_factory.hpp:77] Creating layer conv3_Eltwise_6
I0927 00:14:02.044996 18853 net.cpp:128] Creating Layer conv3_Eltwise_6
I0927 00:14:02.045001 18853 net.cpp:558] conv3_Eltwise_6 <- conv3_Eltwise_5_conv3_5ReLU_1_0_split_1
I0927 00:14:02.045006 18853 net.cpp:558] conv3_Eltwise_6 <- conv3_6_1
I0927 00:14:02.045012 18853 net.cpp:522] conv3_Eltwise_6 -> conv3_Eltwise_6
I0927 00:14:02.045042 18853 net.cpp:172] Setting up conv3_Eltwise_6
I0927 00:14:02.045049 18853 net.cpp:186] Top shape: 10 32 16 16 (81920)
I0927 00:14:02.045053 18853 net.cpp:194] Memory required for data: 76144760
I0927 00:14:02.045058 18853 layer_factory.hpp:77] Creating layer conv3_6ReLU_1
I0927 00:14:02.045063 18853 net.cpp:128] Creating Layer conv3_6ReLU_1
I0927 00:14:02.045068 18853 net.cpp:558] conv3_6ReLU_1 <- conv3_Eltwise_6
I0927 00:14:02.045076 18853 net.cpp:509] conv3_6ReLU_1 -> conv3_Eltwise_6 (in-place)
I0927 00:14:02.046327 18853 net.cpp:172] Setting up conv3_6ReLU_1
I0927 00:14:02.046361 18853 net.cpp:186] Top shape: 10 32 16 16 (81920)
I0927 00:14:02.046366 18853 net.cpp:194] Memory required for data: 76472440
I0927 00:14:02.046371 18853 layer_factory.hpp:77] Creating layer conv3_Eltwise_6_conv3_6ReLU_1_0_split
I0927 00:14:02.046396 18853 net.cpp:128] Creating Layer conv3_Eltwise_6_conv3_6ReLU_1_0_split
I0927 00:14:02.046401 18853 net.cpp:558] conv3_Eltwise_6_conv3_6ReLU_1_0_split <- conv3_Eltwise_6
I0927 00:14:02.046411 18853 net.cpp:522] conv3_Eltwise_6_conv3_6ReLU_1_0_split -> conv3_Eltwise_6_conv3_6ReLU_1_0_split_0
I0927 00:14:02.046420 18853 net.cpp:522] conv3_Eltwise_6_conv3_6ReLU_1_0_split -> conv3_Eltwise_6_conv3_6ReLU_1_0_split_1
I0927 00:14:02.046489 18853 net.cpp:172] Setting up conv3_Eltwise_6_conv3_6ReLU_1_0_split
I0927 00:14:02.046497 18853 net.cpp:186] Top shape: 10 32 16 16 (81920)
I0927 00:14:02.046504 18853 net.cpp:186] Top shape: 10 32 16 16 (81920)
I0927 00:14:02.046507 18853 net.cpp:194] Memory required for data: 77127800
I0927 00:14:02.046511 18853 layer_factory.hpp:77] Creating layer conv3_7_0
I0927 00:14:02.046524 18853 net.cpp:128] Creating Layer conv3_7_0
I0927 00:14:02.046528 18853 net.cpp:558] conv3_7_0 <- conv3_Eltwise_6_conv3_6ReLU_1_0_split_0
I0927 00:14:02.046538 18853 net.cpp:522] conv3_7_0 -> conv3_7_0
I0927 00:14:02.053299 18853 net.cpp:172] Setting up conv3_7_0
I0927 00:14:02.053326 18853 net.cpp:186] Top shape: 10 32 16 16 (81920)
I0927 00:14:02.053331 18853 net.cpp:194] Memory required for data: 77455480
I0927 00:14:02.053341 18853 layer_factory.hpp:77] Creating layer conv3_7_bn0
I0927 00:14:02.053354 18853 net.cpp:128] Creating Layer conv3_7_bn0
I0927 00:14:02.053359 18853 net.cpp:558] conv3_7_bn0 <- conv3_7_0
I0927 00:14:02.053365 18853 net.cpp:509] conv3_7_bn0 -> conv3_7_0 (in-place)
I0927 00:14:02.053711 18853 net.cpp:172] Setting up conv3_7_bn0
I0927 00:14:02.053726 18853 net.cpp:186] Top shape: 10 32 16 16 (81920)
I0927 00:14:02.053730 18853 net.cpp:194] Memory required for data: 77783160
I0927 00:14:02.053741 18853 layer_factory.hpp:77] Creating layer conv3_7_scale0
I0927 00:14:02.053748 18853 net.cpp:128] Creating Layer conv3_7_scale0
I0927 00:14:02.053752 18853 net.cpp:558] conv3_7_scale0 <- conv3_7_0
I0927 00:14:02.053758 18853 net.cpp:509] conv3_7_scale0 -> conv3_7_0 (in-place)
I0927 00:14:02.053820 18853 layer_factory.hpp:77] Creating layer conv3_7_scale0
I0927 00:14:02.054025 18853 net.cpp:172] Setting up conv3_7_scale0
I0927 00:14:02.054039 18853 net.cpp:186] Top shape: 10 32 16 16 (81920)
I0927 00:14:02.054042 18853 net.cpp:194] Memory required for data: 78110840
I0927 00:14:02.054051 18853 layer_factory.hpp:77] Creating layer conv3_7_ReLU0
I0927 00:14:02.054059 18853 net.cpp:128] Creating Layer conv3_7_ReLU0
I0927 00:14:02.054062 18853 net.cpp:558] conv3_7_ReLU0 <- conv3_7_0
I0927 00:14:02.054070 18853 net.cpp:509] conv3_7_ReLU0 -> conv3_7_0 (in-place)
I0927 00:14:02.055092 18853 net.cpp:172] Setting up conv3_7_ReLU0
I0927 00:14:02.055119 18853 net.cpp:186] Top shape: 10 32 16 16 (81920)
I0927 00:14:02.055124 18853 net.cpp:194] Memory required for data: 78438520
I0927 00:14:02.055128 18853 layer_factory.hpp:77] Creating layer conv3_7_1
I0927 00:14:02.055145 18853 net.cpp:128] Creating Layer conv3_7_1
I0927 00:14:02.055151 18853 net.cpp:558] conv3_7_1 <- conv3_7_0
I0927 00:14:02.055162 18853 net.cpp:522] conv3_7_1 -> conv3_7_1
I0927 00:14:02.061872 18853 net.cpp:172] Setting up conv3_7_1
I0927 00:14:02.061902 18853 net.cpp:186] Top shape: 10 32 16 16 (81920)
I0927 00:14:02.061908 18853 net.cpp:194] Memory required for data: 78766200
I0927 00:14:02.061918 18853 layer_factory.hpp:77] Creating layer conv3_7bn1
I0927 00:14:02.061926 18853 net.cpp:128] Creating Layer conv3_7bn1
I0927 00:14:02.061931 18853 net.cpp:558] conv3_7bn1 <- conv3_7_1
I0927 00:14:02.061977 18853 net.cpp:509] conv3_7bn1 -> conv3_7_1 (in-place)
I0927 00:14:02.062369 18853 net.cpp:172] Setting up conv3_7bn1
I0927 00:14:02.062384 18853 net.cpp:186] Top shape: 10 32 16 16 (81920)
I0927 00:14:02.062391 18853 net.cpp:194] Memory required for data: 79093880
I0927 00:14:02.062402 18853 layer_factory.hpp:77] Creating layer conv3_7_scale1
I0927 00:14:02.062408 18853 net.cpp:128] Creating Layer conv3_7_scale1
I0927 00:14:02.062413 18853 net.cpp:558] conv3_7_scale1 <- conv3_7_1
I0927 00:14:02.062419 18853 net.cpp:509] conv3_7_scale1 -> conv3_7_1 (in-place)
I0927 00:14:02.062508 18853 layer_factory.hpp:77] Creating layer conv3_7_scale1
I0927 00:14:02.062724 18853 net.cpp:172] Setting up conv3_7_scale1
I0927 00:14:02.062743 18853 net.cpp:186] Top shape: 10 32 16 16 (81920)
I0927 00:14:02.062747 18853 net.cpp:194] Memory required for data: 79421560
I0927 00:14:02.062757 18853 layer_factory.hpp:77] Creating layer conv3_Eltwise_7
I0927 00:14:02.062764 18853 net.cpp:128] Creating Layer conv3_Eltwise_7
I0927 00:14:02.062769 18853 net.cpp:558] conv3_Eltwise_7 <- conv3_Eltwise_6_conv3_6ReLU_1_0_split_1
I0927 00:14:02.062775 18853 net.cpp:558] conv3_Eltwise_7 <- conv3_7_1
I0927 00:14:02.062782 18853 net.cpp:522] conv3_Eltwise_7 -> conv3_Eltwise_7
I0927 00:14:02.062820 18853 net.cpp:172] Setting up conv3_Eltwise_7
I0927 00:14:02.062829 18853 net.cpp:186] Top shape: 10 32 16 16 (81920)
I0927 00:14:02.062834 18853 net.cpp:194] Memory required for data: 79749240
I0927 00:14:02.062839 18853 layer_factory.hpp:77] Creating layer conv3_7ReLU_1
I0927 00:14:02.062845 18853 net.cpp:128] Creating Layer conv3_7ReLU_1
I0927 00:14:02.062850 18853 net.cpp:558] conv3_7ReLU_1 <- conv3_Eltwise_7
I0927 00:14:02.062858 18853 net.cpp:509] conv3_7ReLU_1 -> conv3_Eltwise_7 (in-place)
I0927 00:14:02.063877 18853 net.cpp:172] Setting up conv3_7ReLU_1
I0927 00:14:02.063895 18853 net.cpp:186] Top shape: 10 32 16 16 (81920)
I0927 00:14:02.063899 18853 net.cpp:194] Memory required for data: 80076920
I0927 00:14:02.063905 18853 layer_factory.hpp:77] Creating layer conv3_Eltwise_7_conv3_7ReLU_1_0_split
I0927 00:14:02.063911 18853 net.cpp:128] Creating Layer conv3_Eltwise_7_conv3_7ReLU_1_0_split
I0927 00:14:02.063916 18853 net.cpp:558] conv3_Eltwise_7_conv3_7ReLU_1_0_split <- conv3_Eltwise_7
I0927 00:14:02.063925 18853 net.cpp:522] conv3_Eltwise_7_conv3_7ReLU_1_0_split -> conv3_Eltwise_7_conv3_7ReLU_1_0_split_0
I0927 00:14:02.063935 18853 net.cpp:522] conv3_Eltwise_7_conv3_7ReLU_1_0_split -> conv3_Eltwise_7_conv3_7ReLU_1_0_split_1
I0927 00:14:02.063999 18853 net.cpp:172] Setting up conv3_Eltwise_7_conv3_7ReLU_1_0_split
I0927 00:14:02.064007 18853 net.cpp:186] Top shape: 10 32 16 16 (81920)
I0927 00:14:02.064013 18853 net.cpp:186] Top shape: 10 32 16 16 (81920)
I0927 00:14:02.064016 18853 net.cpp:194] Memory required for data: 80732280
I0927 00:14:02.064020 18853 layer_factory.hpp:77] Creating layer conv4_1_0
I0927 00:14:02.064034 18853 net.cpp:128] Creating Layer conv4_1_0
I0927 00:14:02.064039 18853 net.cpp:558] conv4_1_0 <- conv3_Eltwise_7_conv3_7ReLU_1_0_split_0
I0927 00:14:02.064050 18853 net.cpp:522] conv4_1_0 -> conv4_1_0
I0927 00:14:02.070648 18853 net.cpp:172] Setting up conv4_1_0
I0927 00:14:02.070677 18853 net.cpp:186] Top shape: 10 64 8 8 (40960)
I0927 00:14:02.070680 18853 net.cpp:194] Memory required for data: 80896120
I0927 00:14:02.070690 18853 layer_factory.hpp:77] Creating layer conv4_1_bn0
I0927 00:14:02.070701 18853 net.cpp:128] Creating Layer conv4_1_bn0
I0927 00:14:02.070708 18853 net.cpp:558] conv4_1_bn0 <- conv4_1_0
I0927 00:14:02.070716 18853 net.cpp:509] conv4_1_bn0 -> conv4_1_0 (in-place)
I0927 00:14:02.071080 18853 net.cpp:172] Setting up conv4_1_bn0
I0927 00:14:02.071099 18853 net.cpp:186] Top shape: 10 64 8 8 (40960)
I0927 00:14:02.071102 18853 net.cpp:194] Memory required for data: 81059960
I0927 00:14:02.071112 18853 layer_factory.hpp:77] Creating layer conv4_1_scale0
I0927 00:14:02.071122 18853 net.cpp:128] Creating Layer conv4_1_scale0
I0927 00:14:02.071126 18853 net.cpp:558] conv4_1_scale0 <- conv4_1_0
I0927 00:14:02.071132 18853 net.cpp:509] conv4_1_scale0 -> conv4_1_0 (in-place)
I0927 00:14:02.071197 18853 layer_factory.hpp:77] Creating layer conv4_1_scale0
I0927 00:14:02.071395 18853 net.cpp:172] Setting up conv4_1_scale0
I0927 00:14:02.071408 18853 net.cpp:186] Top shape: 10 64 8 8 (40960)
I0927 00:14:02.071413 18853 net.cpp:194] Memory required for data: 81223800
I0927 00:14:02.071421 18853 layer_factory.hpp:77] Creating layer conv4_1_ReLU0
I0927 00:14:02.071427 18853 net.cpp:128] Creating Layer conv4_1_ReLU0
I0927 00:14:02.071431 18853 net.cpp:558] conv4_1_ReLU0 <- conv4_1_0
I0927 00:14:02.071457 18853 net.cpp:509] conv4_1_ReLU0 -> conv4_1_0 (in-place)
I0927 00:14:02.072649 18853 net.cpp:172] Setting up conv4_1_ReLU0
I0927 00:14:02.072671 18853 net.cpp:186] Top shape: 10 64 8 8 (40960)
I0927 00:14:02.072675 18853 net.cpp:194] Memory required for data: 81387640
I0927 00:14:02.072680 18853 layer_factory.hpp:77] Creating layer conv4_1_1
I0927 00:14:02.072696 18853 net.cpp:128] Creating Layer conv4_1_1
I0927 00:14:02.072701 18853 net.cpp:558] conv4_1_1 <- conv4_1_0
I0927 00:14:02.072711 18853 net.cpp:522] conv4_1_1 -> conv4_1_1
I0927 00:14:02.079442 18853 net.cpp:172] Setting up conv4_1_1
I0927 00:14:02.079468 18853 net.cpp:186] Top shape: 10 64 8 8 (40960)
I0927 00:14:02.079473 18853 net.cpp:194] Memory required for data: 81551480
I0927 00:14:02.079483 18853 layer_factory.hpp:77] Creating layer conv4_1bn1
I0927 00:14:02.079497 18853 net.cpp:128] Creating Layer conv4_1bn1
I0927 00:14:02.079502 18853 net.cpp:558] conv4_1bn1 <- conv4_1_1
I0927 00:14:02.079509 18853 net.cpp:509] conv4_1bn1 -> conv4_1_1 (in-place)
I0927 00:14:02.079855 18853 net.cpp:172] Setting up conv4_1bn1
I0927 00:14:02.079869 18853 net.cpp:186] Top shape: 10 64 8 8 (40960)
I0927 00:14:02.079874 18853 net.cpp:194] Memory required for data: 81715320
I0927 00:14:02.079883 18853 layer_factory.hpp:77] Creating layer conv4_1_scale1
I0927 00:14:02.079890 18853 net.cpp:128] Creating Layer conv4_1_scale1
I0927 00:14:02.079895 18853 net.cpp:558] conv4_1_scale1 <- conv4_1_1
I0927 00:14:02.079900 18853 net.cpp:509] conv4_1_scale1 -> conv4_1_1 (in-place)
I0927 00:14:02.079963 18853 layer_factory.hpp:77] Creating layer conv4_1_scale1
I0927 00:14:02.080153 18853 net.cpp:172] Setting up conv4_1_scale1
I0927 00:14:02.080169 18853 net.cpp:186] Top shape: 10 64 8 8 (40960)
I0927 00:14:02.080173 18853 net.cpp:194] Memory required for data: 81879160
I0927 00:14:02.080181 18853 layer_factory.hpp:77] Creating layer conv4_1_down
I0927 00:14:02.080193 18853 net.cpp:128] Creating Layer conv4_1_down
I0927 00:14:02.080199 18853 net.cpp:558] conv4_1_down <- conv3_Eltwise_7_conv3_7ReLU_1_0_split_1
I0927 00:14:02.080207 18853 net.cpp:522] conv4_1_down -> conv4_1_down
I0927 00:14:02.085572 18853 net.cpp:172] Setting up conv4_1_down
I0927 00:14:02.085598 18853 net.cpp:186] Top shape: 10 64 8 8 (40960)
I0927 00:14:02.085602 18853 net.cpp:194] Memory required for data: 82043000
I0927 00:14:02.085613 18853 layer_factory.hpp:77] Creating layer conv4_1_bn_down
I0927 00:14:02.085621 18853 net.cpp:128] Creating Layer conv4_1_bn_down
I0927 00:14:02.085626 18853 net.cpp:558] conv4_1_bn_down <- conv4_1_down
I0927 00:14:02.085635 18853 net.cpp:509] conv4_1_bn_down -> conv4_1_down (in-place)
I0927 00:14:02.085981 18853 net.cpp:172] Setting up conv4_1_bn_down
I0927 00:14:02.085994 18853 net.cpp:186] Top shape: 10 64 8 8 (40960)
I0927 00:14:02.085999 18853 net.cpp:194] Memory required for data: 82206840
I0927 00:14:02.086009 18853 layer_factory.hpp:77] Creating layer conv4_1_scale_down
I0927 00:14:02.086017 18853 net.cpp:128] Creating Layer conv4_1_scale_down
I0927 00:14:02.086022 18853 net.cpp:558] conv4_1_scale_down <- conv4_1_down
I0927 00:14:02.086028 18853 net.cpp:509] conv4_1_scale_down -> conv4_1_down (in-place)
I0927 00:14:02.086087 18853 layer_factory.hpp:77] Creating layer conv4_1_scale_down
I0927 00:14:02.086280 18853 net.cpp:172] Setting up conv4_1_scale_down
I0927 00:14:02.086293 18853 net.cpp:186] Top shape: 10 64 8 8 (40960)
I0927 00:14:02.086297 18853 net.cpp:194] Memory required for data: 82370680
I0927 00:14:02.086305 18853 layer_factory.hpp:77] Creating layer conv4_Eltwise_1
I0927 00:14:02.086314 18853 net.cpp:128] Creating Layer conv4_Eltwise_1
I0927 00:14:02.086319 18853 net.cpp:558] conv4_Eltwise_1 <- conv4_1_1
I0927 00:14:02.086324 18853 net.cpp:558] conv4_Eltwise_1 <- conv4_1_down
I0927 00:14:02.086333 18853 net.cpp:522] conv4_Eltwise_1 -> conv4_Eltwise_1
I0927 00:14:02.086366 18853 net.cpp:172] Setting up conv4_Eltwise_1
I0927 00:14:02.086374 18853 net.cpp:186] Top shape: 10 64 8 8 (40960)
I0927 00:14:02.086377 18853 net.cpp:194] Memory required for data: 82534520
I0927 00:14:02.086397 18853 layer_factory.hpp:77] Creating layer conv4_1ReLU_1
I0927 00:14:02.086407 18853 net.cpp:128] Creating Layer conv4_1ReLU_1
I0927 00:14:02.086411 18853 net.cpp:558] conv4_1ReLU_1 <- conv4_Eltwise_1
I0927 00:14:02.086417 18853 net.cpp:509] conv4_1ReLU_1 -> conv4_Eltwise_1 (in-place)
I0927 00:14:02.086956 18853 net.cpp:172] Setting up conv4_1ReLU_1
I0927 00:14:02.086974 18853 net.cpp:186] Top shape: 10 64 8 8 (40960)
I0927 00:14:02.086978 18853 net.cpp:194] Memory required for data: 82698360
I0927 00:14:02.086983 18853 layer_factory.hpp:77] Creating layer conv4_Eltwise_1_conv4_1ReLU_1_0_split
I0927 00:14:02.086993 18853 net.cpp:128] Creating Layer conv4_Eltwise_1_conv4_1ReLU_1_0_split
I0927 00:14:02.086999 18853 net.cpp:558] conv4_Eltwise_1_conv4_1ReLU_1_0_split <- conv4_Eltwise_1
I0927 00:14:02.087007 18853 net.cpp:522] conv4_Eltwise_1_conv4_1ReLU_1_0_split -> conv4_Eltwise_1_conv4_1ReLU_1_0_split_0
I0927 00:14:02.087015 18853 net.cpp:522] conv4_Eltwise_1_conv4_1ReLU_1_0_split -> conv4_Eltwise_1_conv4_1ReLU_1_0_split_1
I0927 00:14:02.087082 18853 net.cpp:172] Setting up conv4_Eltwise_1_conv4_1ReLU_1_0_split
I0927 00:14:02.087090 18853 net.cpp:186] Top shape: 10 64 8 8 (40960)
I0927 00:14:02.087095 18853 net.cpp:186] Top shape: 10 64 8 8 (40960)
I0927 00:14:02.087100 18853 net.cpp:194] Memory required for data: 83026040
I0927 00:14:02.087103 18853 layer_factory.hpp:77] Creating layer conv4_2_0
I0927 00:14:02.087117 18853 net.cpp:128] Creating Layer conv4_2_0
I0927 00:14:02.087122 18853 net.cpp:558] conv4_2_0 <- conv4_Eltwise_1_conv4_1ReLU_1_0_split_0
I0927 00:14:02.087129 18853 net.cpp:522] conv4_2_0 -> conv4_2_0
I0927 00:14:02.089511 18853 net.cpp:172] Setting up conv4_2_0
I0927 00:14:02.089540 18853 net.cpp:186] Top shape: 10 64 8 8 (40960)
I0927 00:14:02.089548 18853 net.cpp:194] Memory required for data: 83189880
I0927 00:14:02.089558 18853 layer_factory.hpp:77] Creating layer conv4_2_bn0
I0927 00:14:02.089567 18853 net.cpp:128] Creating Layer conv4_2_bn0
I0927 00:14:02.089573 18853 net.cpp:558] conv4_2_bn0 <- conv4_2_0
I0927 00:14:02.089591 18853 net.cpp:509] conv4_2_bn0 -> conv4_2_0 (in-place)
I0927 00:14:02.089949 18853 net.cpp:172] Setting up conv4_2_bn0
I0927 00:14:02.089962 18853 net.cpp:186] Top shape: 10 64 8 8 (40960)
I0927 00:14:02.089965 18853 net.cpp:194] Memory required for data: 83353720
I0927 00:14:02.089977 18853 layer_factory.hpp:77] Creating layer conv4_2_scale0
I0927 00:14:02.089987 18853 net.cpp:128] Creating Layer conv4_2_scale0
I0927 00:14:02.089992 18853 net.cpp:558] conv4_2_scale0 <- conv4_2_0
I0927 00:14:02.090000 18853 net.cpp:509] conv4_2_scale0 -> conv4_2_0 (in-place)
I0927 00:14:02.090062 18853 layer_factory.hpp:77] Creating layer conv4_2_scale0
I0927 00:14:02.090262 18853 net.cpp:172] Setting up conv4_2_scale0
I0927 00:14:02.090273 18853 net.cpp:186] Top shape: 10 64 8 8 (40960)
I0927 00:14:02.090278 18853 net.cpp:194] Memory required for data: 83517560
I0927 00:14:02.090286 18853 layer_factory.hpp:77] Creating layer conv4_2_ReLU0
I0927 00:14:02.090297 18853 net.cpp:128] Creating Layer conv4_2_ReLU0
I0927 00:14:02.090302 18853 net.cpp:558] conv4_2_ReLU0 <- conv4_2_0
I0927 00:14:02.090310 18853 net.cpp:509] conv4_2_ReLU0 -> conv4_2_0 (in-place)
I0927 00:14:02.091055 18853 net.cpp:172] Setting up conv4_2_ReLU0
I0927 00:14:02.091078 18853 net.cpp:186] Top shape: 10 64 8 8 (40960)
I0927 00:14:02.091082 18853 net.cpp:194] Memory required for data: 83681400
I0927 00:14:02.091087 18853 layer_factory.hpp:77] Creating layer conv4_2_1
I0927 00:14:02.091102 18853 net.cpp:128] Creating Layer conv4_2_1
I0927 00:14:02.091107 18853 net.cpp:558] conv4_2_1 <- conv4_2_0
I0927 00:14:02.091117 18853 net.cpp:522] conv4_2_1 -> conv4_2_1
I0927 00:14:02.097857 18853 net.cpp:172] Setting up conv4_2_1
I0927 00:14:02.097887 18853 net.cpp:186] Top shape: 10 64 8 8 (40960)
I0927 00:14:02.097892 18853 net.cpp:194] Memory required for data: 83845240
I0927 00:14:02.097903 18853 layer_factory.hpp:77] Creating layer conv4_2bn1
I0927 00:14:02.097916 18853 net.cpp:128] Creating Layer conv4_2bn1
I0927 00:14:02.097954 18853 net.cpp:558] conv4_2bn1 <- conv4_2_1
I0927 00:14:02.097962 18853 net.cpp:509] conv4_2bn1 -> conv4_2_1 (in-place)
I0927 00:14:02.098320 18853 net.cpp:172] Setting up conv4_2bn1
I0927 00:14:02.098331 18853 net.cpp:186] Top shape: 10 64 8 8 (40960)
I0927 00:14:02.098336 18853 net.cpp:194] Memory required for data: 84009080
I0927 00:14:02.098346 18853 layer_factory.hpp:77] Creating layer conv4_2_scale1
I0927 00:14:02.098362 18853 net.cpp:128] Creating Layer conv4_2_scale1
I0927 00:14:02.098367 18853 net.cpp:558] conv4_2_scale1 <- conv4_2_1
I0927 00:14:02.098373 18853 net.cpp:509] conv4_2_scale1 -> conv4_2_1 (in-place)
I0927 00:14:02.098438 18853 layer_factory.hpp:77] Creating layer conv4_2_scale1
I0927 00:14:02.098635 18853 net.cpp:172] Setting up conv4_2_scale1
I0927 00:14:02.098647 18853 net.cpp:186] Top shape: 10 64 8 8 (40960)
I0927 00:14:02.098651 18853 net.cpp:194] Memory required for data: 84172920
I0927 00:14:02.098659 18853 layer_factory.hpp:77] Creating layer conv4_Eltwise_2
I0927 00:14:02.098670 18853 net.cpp:128] Creating Layer conv4_Eltwise_2
I0927 00:14:02.098675 18853 net.cpp:558] conv4_Eltwise_2 <- conv4_Eltwise_1_conv4_1ReLU_1_0_split_1
I0927 00:14:02.098681 18853 net.cpp:558] conv4_Eltwise_2 <- conv4_2_1
I0927 00:14:02.098690 18853 net.cpp:522] conv4_Eltwise_2 -> conv4_Eltwise_2
I0927 00:14:02.098723 18853 net.cpp:172] Setting up conv4_Eltwise_2
I0927 00:14:02.098731 18853 net.cpp:186] Top shape: 10 64 8 8 (40960)
I0927 00:14:02.098734 18853 net.cpp:194] Memory required for data: 84336760
I0927 00:14:02.098738 18853 layer_factory.hpp:77] Creating layer conv4_2ReLU_1
I0927 00:14:02.098748 18853 net.cpp:128] Creating Layer conv4_2ReLU_1
I0927 00:14:02.098752 18853 net.cpp:558] conv4_2ReLU_1 <- conv4_Eltwise_2
I0927 00:14:02.098758 18853 net.cpp:509] conv4_2ReLU_1 -> conv4_Eltwise_2 (in-place)
I0927 00:14:02.100150 18853 net.cpp:172] Setting up conv4_2ReLU_1
I0927 00:14:02.100179 18853 net.cpp:186] Top shape: 10 64 8 8 (40960)
I0927 00:14:02.100184 18853 net.cpp:194] Memory required for data: 84500600
I0927 00:14:02.100193 18853 layer_factory.hpp:77] Creating layer conv4_Eltwise_2_conv4_2ReLU_1_0_split
I0927 00:14:02.100201 18853 net.cpp:128] Creating Layer conv4_Eltwise_2_conv4_2ReLU_1_0_split
I0927 00:14:02.100208 18853 net.cpp:558] conv4_Eltwise_2_conv4_2ReLU_1_0_split <- conv4_Eltwise_2
I0927 00:14:02.100217 18853 net.cpp:522] conv4_Eltwise_2_conv4_2ReLU_1_0_split -> conv4_Eltwise_2_conv4_2ReLU_1_0_split_0
I0927 00:14:02.100226 18853 net.cpp:522] conv4_Eltwise_2_conv4_2ReLU_1_0_split -> conv4_Eltwise_2_conv4_2ReLU_1_0_split_1
I0927 00:14:02.100301 18853 net.cpp:172] Setting up conv4_Eltwise_2_conv4_2ReLU_1_0_split
I0927 00:14:02.100312 18853 net.cpp:186] Top shape: 10 64 8 8 (40960)
I0927 00:14:02.100318 18853 net.cpp:186] Top shape: 10 64 8 8 (40960)
I0927 00:14:02.100322 18853 net.cpp:194] Memory required for data: 84828280
I0927 00:14:02.100327 18853 layer_factory.hpp:77] Creating layer conv4_3_0
I0927 00:14:02.100340 18853 net.cpp:128] Creating Layer conv4_3_0
I0927 00:14:02.100347 18853 net.cpp:558] conv4_3_0 <- conv4_Eltwise_2_conv4_2ReLU_1_0_split_0
I0927 00:14:02.100353 18853 net.cpp:522] conv4_3_0 -> conv4_3_0
I0927 00:14:02.106958 18853 net.cpp:172] Setting up conv4_3_0
I0927 00:14:02.106983 18853 net.cpp:186] Top shape: 10 64 8 8 (40960)
I0927 00:14:02.106988 18853 net.cpp:194] Memory required for data: 84992120
I0927 00:14:02.107000 18853 layer_factory.hpp:77] Creating layer conv4_3_bn0
I0927 00:14:02.107008 18853 net.cpp:128] Creating Layer conv4_3_bn0
I0927 00:14:02.107013 18853 net.cpp:558] conv4_3_bn0 <- conv4_3_0
I0927 00:14:02.107024 18853 net.cpp:509] conv4_3_bn0 -> conv4_3_0 (in-place)
I0927 00:14:02.107394 18853 net.cpp:172] Setting up conv4_3_bn0
I0927 00:14:02.107408 18853 net.cpp:186] Top shape: 10 64 8 8 (40960)
I0927 00:14:02.107411 18853 net.cpp:194] Memory required for data: 85155960
I0927 00:14:02.107421 18853 layer_factory.hpp:77] Creating layer conv4_3_scale0
I0927 00:14:02.107429 18853 net.cpp:128] Creating Layer conv4_3_scale0
I0927 00:14:02.107450 18853 net.cpp:558] conv4_3_scale0 <- conv4_3_0
I0927 00:14:02.107460 18853 net.cpp:509] conv4_3_scale0 -> conv4_3_0 (in-place)
I0927 00:14:02.107524 18853 layer_factory.hpp:77] Creating layer conv4_3_scale0
I0927 00:14:02.107726 18853 net.cpp:172] Setting up conv4_3_scale0
I0927 00:14:02.107738 18853 net.cpp:186] Top shape: 10 64 8 8 (40960)
I0927 00:14:02.107743 18853 net.cpp:194] Memory required for data: 85319800
I0927 00:14:02.107750 18853 layer_factory.hpp:77] Creating layer conv4_3_ReLU0
I0927 00:14:02.107760 18853 net.cpp:128] Creating Layer conv4_3_ReLU0
I0927 00:14:02.107766 18853 net.cpp:558] conv4_3_ReLU0 <- conv4_3_0
I0927 00:14:02.107772 18853 net.cpp:509] conv4_3_ReLU0 -> conv4_3_0 (in-place)
I0927 00:14:02.108738 18853 net.cpp:172] Setting up conv4_3_ReLU0
I0927 00:14:02.108758 18853 net.cpp:186] Top shape: 10 64 8 8 (40960)
I0927 00:14:02.108762 18853 net.cpp:194] Memory required for data: 85483640
I0927 00:14:02.108767 18853 layer_factory.hpp:77] Creating layer conv4_3_1
I0927 00:14:02.108783 18853 net.cpp:128] Creating Layer conv4_3_1
I0927 00:14:02.108788 18853 net.cpp:558] conv4_3_1 <- conv4_3_0
I0927 00:14:02.108796 18853 net.cpp:522] conv4_3_1 -> conv4_3_1
I0927 00:14:02.115535 18853 net.cpp:172] Setting up conv4_3_1
I0927 00:14:02.115561 18853 net.cpp:186] Top shape: 10 64 8 8 (40960)
I0927 00:14:02.115566 18853 net.cpp:194] Memory required for data: 85647480
I0927 00:14:02.115576 18853 layer_factory.hpp:77] Creating layer conv4_3bn1
I0927 00:14:02.115587 18853 net.cpp:128] Creating Layer conv4_3bn1
I0927 00:14:02.115592 18853 net.cpp:558] conv4_3bn1 <- conv4_3_1
I0927 00:14:02.115604 18853 net.cpp:509] conv4_3bn1 -> conv4_3_1 (in-place)
I0927 00:14:02.115963 18853 net.cpp:172] Setting up conv4_3bn1
I0927 00:14:02.115978 18853 net.cpp:186] Top shape: 10 64 8 8 (40960)
I0927 00:14:02.115981 18853 net.cpp:194] Memory required for data: 85811320
I0927 00:14:02.116024 18853 layer_factory.hpp:77] Creating layer conv4_3_scale1
I0927 00:14:02.116031 18853 net.cpp:128] Creating Layer conv4_3_scale1
I0927 00:14:02.116035 18853 net.cpp:558] conv4_3_scale1 <- conv4_3_1
I0927 00:14:02.116041 18853 net.cpp:509] conv4_3_scale1 -> conv4_3_1 (in-place)
I0927 00:14:02.116104 18853 layer_factory.hpp:77] Creating layer conv4_3_scale1
I0927 00:14:02.116304 18853 net.cpp:172] Setting up conv4_3_scale1
I0927 00:14:02.116318 18853 net.cpp:186] Top shape: 10 64 8 8 (40960)
I0927 00:14:02.116322 18853 net.cpp:194] Memory required for data: 85975160
I0927 00:14:02.116330 18853 layer_factory.hpp:77] Creating layer conv4_Eltwise_3
I0927 00:14:02.116341 18853 net.cpp:128] Creating Layer conv4_Eltwise_3
I0927 00:14:02.116346 18853 net.cpp:558] conv4_Eltwise_3 <- conv4_Eltwise_2_conv4_2ReLU_1_0_split_1
I0927 00:14:02.116351 18853 net.cpp:558] conv4_Eltwise_3 <- conv4_3_1
I0927 00:14:02.116358 18853 net.cpp:522] conv4_Eltwise_3 -> conv4_Eltwise_3
I0927 00:14:02.116392 18853 net.cpp:172] Setting up conv4_Eltwise_3
I0927 00:14:02.116400 18853 net.cpp:186] Top shape: 10 64 8 8 (40960)
I0927 00:14:02.116403 18853 net.cpp:194] Memory required for data: 86139000
I0927 00:14:02.116407 18853 layer_factory.hpp:77] Creating layer conv4_3ReLU_1
I0927 00:14:02.116415 18853 net.cpp:128] Creating Layer conv4_3ReLU_1
I0927 00:14:02.116418 18853 net.cpp:558] conv4_3ReLU_1 <- conv4_Eltwise_3
I0927 00:14:02.116426 18853 net.cpp:509] conv4_3ReLU_1 -> conv4_Eltwise_3 (in-place)
I0927 00:14:02.117578 18853 net.cpp:172] Setting up conv4_3ReLU_1
I0927 00:14:02.117605 18853 net.cpp:186] Top shape: 10 64 8 8 (40960)
I0927 00:14:02.117609 18853 net.cpp:194] Memory required for data: 86302840
I0927 00:14:02.117614 18853 layer_factory.hpp:77] Creating layer conv4_Eltwise_3_conv4_3ReLU_1_0_split
I0927 00:14:02.117622 18853 net.cpp:128] Creating Layer conv4_Eltwise_3_conv4_3ReLU_1_0_split
I0927 00:14:02.117628 18853 net.cpp:558] conv4_Eltwise_3_conv4_3ReLU_1_0_split <- conv4_Eltwise_3
I0927 00:14:02.117638 18853 net.cpp:522] conv4_Eltwise_3_conv4_3ReLU_1_0_split -> conv4_Eltwise_3_conv4_3ReLU_1_0_split_0
I0927 00:14:02.117666 18853 net.cpp:522] conv4_Eltwise_3_conv4_3ReLU_1_0_split -> conv4_Eltwise_3_conv4_3ReLU_1_0_split_1
I0927 00:14:02.117741 18853 net.cpp:172] Setting up conv4_Eltwise_3_conv4_3ReLU_1_0_split
I0927 00:14:02.117749 18853 net.cpp:186] Top shape: 10 64 8 8 (40960)
I0927 00:14:02.117754 18853 net.cpp:186] Top shape: 10 64 8 8 (40960)
I0927 00:14:02.117758 18853 net.cpp:194] Memory required for data: 86630520
I0927 00:14:02.117763 18853 layer_factory.hpp:77] Creating layer conv4_4_0
I0927 00:14:02.117776 18853 net.cpp:128] Creating Layer conv4_4_0
I0927 00:14:02.117782 18853 net.cpp:558] conv4_4_0 <- conv4_Eltwise_3_conv4_3ReLU_1_0_split_0
I0927 00:14:02.117791 18853 net.cpp:522] conv4_4_0 -> conv4_4_0
I0927 00:14:02.124609 18853 net.cpp:172] Setting up conv4_4_0
I0927 00:14:02.124637 18853 net.cpp:186] Top shape: 10 64 8 8 (40960)
I0927 00:14:02.124642 18853 net.cpp:194] Memory required for data: 86794360
I0927 00:14:02.124652 18853 layer_factory.hpp:77] Creating layer conv4_4_bn0
I0927 00:14:02.124663 18853 net.cpp:128] Creating Layer conv4_4_bn0
I0927 00:14:02.124670 18853 net.cpp:558] conv4_4_bn0 <- conv4_4_0
I0927 00:14:02.124676 18853 net.cpp:509] conv4_4_bn0 -> conv4_4_0 (in-place)
I0927 00:14:02.125042 18853 net.cpp:172] Setting up conv4_4_bn0
I0927 00:14:02.125054 18853 net.cpp:186] Top shape: 10 64 8 8 (40960)
I0927 00:14:02.125058 18853 net.cpp:194] Memory required for data: 86958200
I0927 00:14:02.125068 18853 layer_factory.hpp:77] Creating layer conv4_4_scale0
I0927 00:14:02.125082 18853 net.cpp:128] Creating Layer conv4_4_scale0
I0927 00:14:02.125087 18853 net.cpp:558] conv4_4_scale0 <- conv4_4_0
I0927 00:14:02.125092 18853 net.cpp:509] conv4_4_scale0 -> conv4_4_0 (in-place)
I0927 00:14:02.125154 18853 layer_factory.hpp:77] Creating layer conv4_4_scale0
I0927 00:14:02.125352 18853 net.cpp:172] Setting up conv4_4_scale0
I0927 00:14:02.125365 18853 net.cpp:186] Top shape: 10 64 8 8 (40960)
I0927 00:14:02.125370 18853 net.cpp:194] Memory required for data: 87122040
I0927 00:14:02.125377 18853 layer_factory.hpp:77] Creating layer conv4_4_ReLU0
I0927 00:14:02.125385 18853 net.cpp:128] Creating Layer conv4_4_ReLU0
I0927 00:14:02.125391 18853 net.cpp:558] conv4_4_ReLU0 <- conv4_4_0
I0927 00:14:02.125398 18853 net.cpp:509] conv4_4_ReLU0 -> conv4_4_0 (in-place)
I0927 00:14:02.126349 18853 net.cpp:172] Setting up conv4_4_ReLU0
I0927 00:14:02.126368 18853 net.cpp:186] Top shape: 10 64 8 8 (40960)
I0927 00:14:02.126372 18853 net.cpp:194] Memory required for data: 87285880
I0927 00:14:02.126377 18853 layer_factory.hpp:77] Creating layer conv4_4_1
I0927 00:14:02.126397 18853 net.cpp:128] Creating Layer conv4_4_1
I0927 00:14:02.126402 18853 net.cpp:558] conv4_4_1 <- conv4_4_0
I0927 00:14:02.126412 18853 net.cpp:522] conv4_4_1 -> conv4_4_1
I0927 00:14:02.133157 18853 net.cpp:172] Setting up conv4_4_1
I0927 00:14:02.133183 18853 net.cpp:186] Top shape: 10 64 8 8 (40960)
I0927 00:14:02.133188 18853 net.cpp:194] Memory required for data: 87449720
I0927 00:14:02.133198 18853 layer_factory.hpp:77] Creating layer conv4_4bn1
I0927 00:14:02.133209 18853 net.cpp:128] Creating Layer conv4_4bn1
I0927 00:14:02.133214 18853 net.cpp:558] conv4_4bn1 <- conv4_4_1
I0927 00:14:02.133224 18853 net.cpp:509] conv4_4bn1 -> conv4_4_1 (in-place)
I0927 00:14:02.133577 18853 net.cpp:172] Setting up conv4_4bn1
I0927 00:14:02.133589 18853 net.cpp:186] Top shape: 10 64 8 8 (40960)
I0927 00:14:02.133594 18853 net.cpp:194] Memory required for data: 87613560
I0927 00:14:02.133603 18853 layer_factory.hpp:77] Creating layer conv4_4_scale1
I0927 00:14:02.133610 18853 net.cpp:128] Creating Layer conv4_4_scale1
I0927 00:14:02.133615 18853 net.cpp:558] conv4_4_scale1 <- conv4_4_1
I0927 00:14:02.133620 18853 net.cpp:509] conv4_4_scale1 -> conv4_4_1 (in-place)
I0927 00:14:02.133683 18853 layer_factory.hpp:77] Creating layer conv4_4_scale1
I0927 00:14:02.133884 18853 net.cpp:172] Setting up conv4_4_scale1
I0927 00:14:02.133898 18853 net.cpp:186] Top shape: 10 64 8 8 (40960)
I0927 00:14:02.133903 18853 net.cpp:194] Memory required for data: 87777400
I0927 00:14:02.133929 18853 layer_factory.hpp:77] Creating layer conv4_Eltwise_4
I0927 00:14:02.133935 18853 net.cpp:128] Creating Layer conv4_Eltwise_4
I0927 00:14:02.133940 18853 net.cpp:558] conv4_Eltwise_4 <- conv4_Eltwise_3_conv4_3ReLU_1_0_split_1
I0927 00:14:02.133946 18853 net.cpp:558] conv4_Eltwise_4 <- conv4_4_1
I0927 00:14:02.133952 18853 net.cpp:522] conv4_Eltwise_4 -> conv4_Eltwise_4
I0927 00:14:02.133991 18853 net.cpp:172] Setting up conv4_Eltwise_4
I0927 00:14:02.133998 18853 net.cpp:186] Top shape: 10 64 8 8 (40960)
I0927 00:14:02.134002 18853 net.cpp:194] Memory required for data: 87941240
I0927 00:14:02.134006 18853 layer_factory.hpp:77] Creating layer conv4_4ReLU_1
I0927 00:14:02.134016 18853 net.cpp:128] Creating Layer conv4_4ReLU_1
I0927 00:14:02.134021 18853 net.cpp:558] conv4_4ReLU_1 <- conv4_Eltwise_4
I0927 00:14:02.134025 18853 net.cpp:509] conv4_4ReLU_1 -> conv4_Eltwise_4 (in-place)
I0927 00:14:02.134290 18853 net.cpp:172] Setting up conv4_4ReLU_1
I0927 00:14:02.134306 18853 net.cpp:186] Top shape: 10 64 8 8 (40960)
I0927 00:14:02.134310 18853 net.cpp:194] Memory required for data: 88105080
I0927 00:14:02.134315 18853 layer_factory.hpp:77] Creating layer conv4_Eltwise_4_conv4_4ReLU_1_0_split
I0927 00:14:02.134325 18853 net.cpp:128] Creating Layer conv4_Eltwise_4_conv4_4ReLU_1_0_split
I0927 00:14:02.134330 18853 net.cpp:558] conv4_Eltwise_4_conv4_4ReLU_1_0_split <- conv4_Eltwise_4
I0927 00:14:02.134337 18853 net.cpp:522] conv4_Eltwise_4_conv4_4ReLU_1_0_split -> conv4_Eltwise_4_conv4_4ReLU_1_0_split_0
I0927 00:14:02.134346 18853 net.cpp:522] conv4_Eltwise_4_conv4_4ReLU_1_0_split -> conv4_Eltwise_4_conv4_4ReLU_1_0_split_1
I0927 00:14:02.134413 18853 net.cpp:172] Setting up conv4_Eltwise_4_conv4_4ReLU_1_0_split
I0927 00:14:02.134420 18853 net.cpp:186] Top shape: 10 64 8 8 (40960)
I0927 00:14:02.134425 18853 net.cpp:186] Top shape: 10 64 8 8 (40960)
I0927 00:14:02.134429 18853 net.cpp:194] Memory required for data: 88432760
I0927 00:14:02.134433 18853 layer_factory.hpp:77] Creating layer conv4_5_0
I0927 00:14:02.134445 18853 net.cpp:128] Creating Layer conv4_5_0
I0927 00:14:02.134450 18853 net.cpp:558] conv4_5_0 <- conv4_Eltwise_4_conv4_4ReLU_1_0_split_0
I0927 00:14:02.134459 18853 net.cpp:522] conv4_5_0 -> conv4_5_0
I0927 00:14:02.139503 18853 net.cpp:172] Setting up conv4_5_0
I0927 00:14:02.139529 18853 net.cpp:186] Top shape: 10 64 8 8 (40960)
I0927 00:14:02.139533 18853 net.cpp:194] Memory required for data: 88596600
I0927 00:14:02.139544 18853 layer_factory.hpp:77] Creating layer conv4_5_bn0
I0927 00:14:02.139556 18853 net.cpp:128] Creating Layer conv4_5_bn0
I0927 00:14:02.139561 18853 net.cpp:558] conv4_5_bn0 <- conv4_5_0
I0927 00:14:02.139575 18853 net.cpp:509] conv4_5_bn0 -> conv4_5_0 (in-place)
I0927 00:14:02.139947 18853 net.cpp:172] Setting up conv4_5_bn0
I0927 00:14:02.139959 18853 net.cpp:186] Top shape: 10 64 8 8 (40960)
I0927 00:14:02.139963 18853 net.cpp:194] Memory required for data: 88760440
I0927 00:14:02.139973 18853 layer_factory.hpp:77] Creating layer conv4_5_scale0
I0927 00:14:02.139981 18853 net.cpp:128] Creating Layer conv4_5_scale0
I0927 00:14:02.139986 18853 net.cpp:558] conv4_5_scale0 <- conv4_5_0
I0927 00:14:02.139993 18853 net.cpp:509] conv4_5_scale0 -> conv4_5_0 (in-place)
I0927 00:14:02.140053 18853 layer_factory.hpp:77] Creating layer conv4_5_scale0
I0927 00:14:02.140257 18853 net.cpp:172] Setting up conv4_5_scale0
I0927 00:14:02.140270 18853 net.cpp:186] Top shape: 10 64 8 8 (40960)
I0927 00:14:02.140275 18853 net.cpp:194] Memory required for data: 88924280
I0927 00:14:02.140282 18853 layer_factory.hpp:77] Creating layer conv4_5_ReLU0
I0927 00:14:02.140290 18853 net.cpp:128] Creating Layer conv4_5_ReLU0
I0927 00:14:02.140293 18853 net.cpp:558] conv4_5_ReLU0 <- conv4_5_0
I0927 00:14:02.140301 18853 net.cpp:509] conv4_5_ReLU0 -> conv4_5_0 (in-place)
I0927 00:14:02.141243 18853 net.cpp:172] Setting up conv4_5_ReLU0
I0927 00:14:02.141269 18853 net.cpp:186] Top shape: 10 64 8 8 (40960)
I0927 00:14:02.141274 18853 net.cpp:194] Memory required for data: 89088120
I0927 00:14:02.141279 18853 layer_factory.hpp:77] Creating layer conv4_5_1
I0927 00:14:02.141315 18853 net.cpp:128] Creating Layer conv4_5_1
I0927 00:14:02.141321 18853 net.cpp:558] conv4_5_1 <- conv4_5_0
I0927 00:14:02.141331 18853 net.cpp:522] conv4_5_1 -> conv4_5_1
I0927 00:14:02.147987 18853 net.cpp:172] Setting up conv4_5_1
I0927 00:14:02.148015 18853 net.cpp:186] Top shape: 10 64 8 8 (40960)
I0927 00:14:02.148020 18853 net.cpp:194] Memory required for data: 89251960
I0927 00:14:02.148030 18853 layer_factory.hpp:77] Creating layer conv4_5bn1
I0927 00:14:02.148041 18853 net.cpp:128] Creating Layer conv4_5bn1
I0927 00:14:02.148047 18853 net.cpp:558] conv4_5bn1 <- conv4_5_1
I0927 00:14:02.148054 18853 net.cpp:509] conv4_5bn1 -> conv4_5_1 (in-place)
I0927 00:14:02.148414 18853 net.cpp:172] Setting up conv4_5bn1
I0927 00:14:02.148427 18853 net.cpp:186] Top shape: 10 64 8 8 (40960)
I0927 00:14:02.148432 18853 net.cpp:194] Memory required for data: 89415800
I0927 00:14:02.148442 18853 layer_factory.hpp:77] Creating layer conv4_5_scale1
I0927 00:14:02.148448 18853 net.cpp:128] Creating Layer conv4_5_scale1
I0927 00:14:02.148453 18853 net.cpp:558] conv4_5_scale1 <- conv4_5_1
I0927 00:14:02.148458 18853 net.cpp:509] conv4_5_scale1 -> conv4_5_1 (in-place)
I0927 00:14:02.148524 18853 layer_factory.hpp:77] Creating layer conv4_5_scale1
I0927 00:14:02.148726 18853 net.cpp:172] Setting up conv4_5_scale1
I0927 00:14:02.148737 18853 net.cpp:186] Top shape: 10 64 8 8 (40960)
I0927 00:14:02.148742 18853 net.cpp:194] Memory required for data: 89579640
I0927 00:14:02.148751 18853 layer_factory.hpp:77] Creating layer conv4_Eltwise_5
I0927 00:14:02.148757 18853 net.cpp:128] Creating Layer conv4_Eltwise_5
I0927 00:14:02.148762 18853 net.cpp:558] conv4_Eltwise_5 <- conv4_Eltwise_4_conv4_4ReLU_1_0_split_1
I0927 00:14:02.148767 18853 net.cpp:558] conv4_Eltwise_5 <- conv4_5_1
I0927 00:14:02.148777 18853 net.cpp:522] conv4_Eltwise_5 -> conv4_Eltwise_5
I0927 00:14:02.148810 18853 net.cpp:172] Setting up conv4_Eltwise_5
I0927 00:14:02.148821 18853 net.cpp:186] Top shape: 10 64 8 8 (40960)
I0927 00:14:02.148825 18853 net.cpp:194] Memory required for data: 89743480
I0927 00:14:02.148829 18853 layer_factory.hpp:77] Creating layer conv4_5ReLU_1
I0927 00:14:02.148835 18853 net.cpp:128] Creating Layer conv4_5ReLU_1
I0927 00:14:02.148840 18853 net.cpp:558] conv4_5ReLU_1 <- conv4_Eltwise_5
I0927 00:14:02.148845 18853 net.cpp:509] conv4_5ReLU_1 -> conv4_Eltwise_5 (in-place)
I0927 00:14:02.150015 18853 net.cpp:172] Setting up conv4_5ReLU_1
I0927 00:14:02.150035 18853 net.cpp:186] Top shape: 10 64 8 8 (40960)
I0927 00:14:02.150040 18853 net.cpp:194] Memory required for data: 89907320
I0927 00:14:02.150045 18853 layer_factory.hpp:77] Creating layer conv4_Eltwise_5_conv4_5ReLU_1_0_split
I0927 00:14:02.150058 18853 net.cpp:128] Creating Layer conv4_Eltwise_5_conv4_5ReLU_1_0_split
I0927 00:14:02.150063 18853 net.cpp:558] conv4_Eltwise_5_conv4_5ReLU_1_0_split <- conv4_Eltwise_5
I0927 00:14:02.150069 18853 net.cpp:522] conv4_Eltwise_5_conv4_5ReLU_1_0_split -> conv4_Eltwise_5_conv4_5ReLU_1_0_split_0
I0927 00:14:02.150084 18853 net.cpp:522] conv4_Eltwise_5_conv4_5ReLU_1_0_split -> conv4_Eltwise_5_conv4_5ReLU_1_0_split_1
I0927 00:14:02.150151 18853 net.cpp:172] Setting up conv4_Eltwise_5_conv4_5ReLU_1_0_split
I0927 00:14:02.150158 18853 net.cpp:186] Top shape: 10 64 8 8 (40960)
I0927 00:14:02.150164 18853 net.cpp:186] Top shape: 10 64 8 8 (40960)
I0927 00:14:02.150168 18853 net.cpp:194] Memory required for data: 90235000
I0927 00:14:02.150172 18853 layer_factory.hpp:77] Creating layer conv4_6_0
I0927 00:14:02.150187 18853 net.cpp:128] Creating Layer conv4_6_0
I0927 00:14:02.150192 18853 net.cpp:558] conv4_6_0 <- conv4_Eltwise_5_conv4_5ReLU_1_0_split_0
I0927 00:14:02.150199 18853 net.cpp:522] conv4_6_0 -> conv4_6_0
I0927 00:14:02.157024 18853 net.cpp:172] Setting up conv4_6_0
I0927 00:14:02.157054 18853 net.cpp:186] Top shape: 10 64 8 8 (40960)
I0927 00:14:02.157058 18853 net.cpp:194] Memory required for data: 90398840
I0927 00:14:02.157069 18853 layer_factory.hpp:77] Creating layer conv4_6_bn0
I0927 00:14:02.157099 18853 net.cpp:128] Creating Layer conv4_6_bn0
I0927 00:14:02.157104 18853 net.cpp:558] conv4_6_bn0 <- conv4_6_0
I0927 00:14:02.157114 18853 net.cpp:509] conv4_6_bn0 -> conv4_6_0 (in-place)
I0927 00:14:02.157490 18853 net.cpp:172] Setting up conv4_6_bn0
I0927 00:14:02.157503 18853 net.cpp:186] Top shape: 10 64 8 8 (40960)
I0927 00:14:02.157507 18853 net.cpp:194] Memory required for data: 90562680
I0927 00:14:02.157517 18853 layer_factory.hpp:77] Creating layer conv4_6_scale0
I0927 00:14:02.157524 18853 net.cpp:128] Creating Layer conv4_6_scale0
I0927 00:14:02.157529 18853 net.cpp:558] conv4_6_scale0 <- conv4_6_0
I0927 00:14:02.157539 18853 net.cpp:509] conv4_6_scale0 -> conv4_6_0 (in-place)
I0927 00:14:02.157603 18853 layer_factory.hpp:77] Creating layer conv4_6_scale0
I0927 00:14:02.157806 18853 net.cpp:172] Setting up conv4_6_scale0
I0927 00:14:02.157819 18853 net.cpp:186] Top shape: 10 64 8 8 (40960)
I0927 00:14:02.157824 18853 net.cpp:194] Memory required for data: 90726520
I0927 00:14:02.157831 18853 layer_factory.hpp:77] Creating layer conv4_6_ReLU0
I0927 00:14:02.157840 18853 net.cpp:128] Creating Layer conv4_6_ReLU0
I0927 00:14:02.157845 18853 net.cpp:558] conv4_6_ReLU0 <- conv4_6_0
I0927 00:14:02.157850 18853 net.cpp:509] conv4_6_ReLU0 -> conv4_6_0 (in-place)
I0927 00:14:02.158764 18853 net.cpp:172] Setting up conv4_6_ReLU0
I0927 00:14:02.158783 18853 net.cpp:186] Top shape: 10 64 8 8 (40960)
I0927 00:14:02.158788 18853 net.cpp:194] Memory required for data: 90890360
I0927 00:14:02.158793 18853 layer_factory.hpp:77] Creating layer conv4_6_1
I0927 00:14:02.158818 18853 net.cpp:128] Creating Layer conv4_6_1
I0927 00:14:02.158824 18853 net.cpp:558] conv4_6_1 <- conv4_6_0
I0927 00:14:02.158833 18853 net.cpp:522] conv4_6_1 -> conv4_6_1
I0927 00:14:02.165475 18853 net.cpp:172] Setting up conv4_6_1
I0927 00:14:02.165505 18853 net.cpp:186] Top shape: 10 64 8 8 (40960)
I0927 00:14:02.165510 18853 net.cpp:194] Memory required for data: 91054200
I0927 00:14:02.165521 18853 layer_factory.hpp:77] Creating layer conv4_6bn1
I0927 00:14:02.165530 18853 net.cpp:128] Creating Layer conv4_6bn1
I0927 00:14:02.165535 18853 net.cpp:558] conv4_6bn1 <- conv4_6_1
I0927 00:14:02.165544 18853 net.cpp:509] conv4_6bn1 -> conv4_6_1 (in-place)
I0927 00:14:02.165908 18853 net.cpp:172] Setting up conv4_6bn1
I0927 00:14:02.165921 18853 net.cpp:186] Top shape: 10 64 8 8 (40960)
I0927 00:14:02.165925 18853 net.cpp:194] Memory required for data: 91218040
I0927 00:14:02.165935 18853 layer_factory.hpp:77] Creating layer conv4_6_scale1
I0927 00:14:02.165943 18853 net.cpp:128] Creating Layer conv4_6_scale1
I0927 00:14:02.165947 18853 net.cpp:558] conv4_6_scale1 <- conv4_6_1
I0927 00:14:02.165956 18853 net.cpp:509] conv4_6_scale1 -> conv4_6_1 (in-place)
I0927 00:14:02.166018 18853 layer_factory.hpp:77] Creating layer conv4_6_scale1
I0927 00:14:02.166220 18853 net.cpp:172] Setting up conv4_6_scale1
I0927 00:14:02.166232 18853 net.cpp:186] Top shape: 10 64 8 8 (40960)
I0927 00:14:02.166237 18853 net.cpp:194] Memory required for data: 91381880
I0927 00:14:02.166249 18853 layer_factory.hpp:77] Creating layer conv4_Eltwise_6
I0927 00:14:02.166258 18853 net.cpp:128] Creating Layer conv4_Eltwise_6
I0927 00:14:02.166265 18853 net.cpp:558] conv4_Eltwise_6 <- conv4_Eltwise_5_conv4_5ReLU_1_0_split_1
I0927 00:14:02.166270 18853 net.cpp:558] conv4_Eltwise_6 <- conv4_6_1
I0927 00:14:02.166276 18853 net.cpp:522] conv4_Eltwise_6 -> conv4_Eltwise_6
I0927 00:14:02.166313 18853 net.cpp:172] Setting up conv4_Eltwise_6
I0927 00:14:02.166321 18853 net.cpp:186] Top shape: 10 64 8 8 (40960)
I0927 00:14:02.166324 18853 net.cpp:194] Memory required for data: 91545720
I0927 00:14:02.166328 18853 layer_factory.hpp:77] Creating layer conv4_6ReLU_1
I0927 00:14:02.166335 18853 net.cpp:128] Creating Layer conv4_6ReLU_1
I0927 00:14:02.166339 18853 net.cpp:558] conv4_6ReLU_1 <- conv4_Eltwise_6
I0927 00:14:02.166347 18853 net.cpp:509] conv4_6ReLU_1 -> conv4_Eltwise_6 (in-place)
I0927 00:14:02.167477 18853 net.cpp:172] Setting up conv4_6ReLU_1
I0927 00:14:02.167505 18853 net.cpp:186] Top shape: 10 64 8 8 (40960)
I0927 00:14:02.167526 18853 net.cpp:194] Memory required for data: 91709560
I0927 00:14:02.167532 18853 layer_factory.hpp:77] Creating layer conv4_Eltwise_6_conv4_6ReLU_1_0_split
I0927 00:14:02.167541 18853 net.cpp:128] Creating Layer conv4_Eltwise_6_conv4_6ReLU_1_0_split
I0927 00:14:02.167546 18853 net.cpp:558] conv4_Eltwise_6_conv4_6ReLU_1_0_split <- conv4_Eltwise_6
I0927 00:14:02.167557 18853 net.cpp:522] conv4_Eltwise_6_conv4_6ReLU_1_0_split -> conv4_Eltwise_6_conv4_6ReLU_1_0_split_0
I0927 00:14:02.167565 18853 net.cpp:522] conv4_Eltwise_6_conv4_6ReLU_1_0_split -> conv4_Eltwise_6_conv4_6ReLU_1_0_split_1
I0927 00:14:02.167642 18853 net.cpp:172] Setting up conv4_Eltwise_6_conv4_6ReLU_1_0_split
I0927 00:14:02.167650 18853 net.cpp:186] Top shape: 10 64 8 8 (40960)
I0927 00:14:02.167655 18853 net.cpp:186] Top shape: 10 64 8 8 (40960)
I0927 00:14:02.167659 18853 net.cpp:194] Memory required for data: 92037240
I0927 00:14:02.167665 18853 layer_factory.hpp:77] Creating layer conv4_7_0
I0927 00:14:02.167677 18853 net.cpp:128] Creating Layer conv4_7_0
I0927 00:14:02.167682 18853 net.cpp:558] conv4_7_0 <- conv4_Eltwise_6_conv4_6ReLU_1_0_split_0
I0927 00:14:02.167692 18853 net.cpp:522] conv4_7_0 -> conv4_7_0
I0927 00:14:02.174542 18853 net.cpp:172] Setting up conv4_7_0
I0927 00:14:02.174569 18853 net.cpp:186] Top shape: 10 64 8 8 (40960)
I0927 00:14:02.174574 18853 net.cpp:194] Memory required for data: 92201080
I0927 00:14:02.174584 18853 layer_factory.hpp:77] Creating layer conv4_7_bn0
I0927 00:14:02.174597 18853 net.cpp:128] Creating Layer conv4_7_bn0
I0927 00:14:02.174602 18853 net.cpp:558] conv4_7_bn0 <- conv4_7_0
I0927 00:14:02.174609 18853 net.cpp:509] conv4_7_bn0 -> conv4_7_0 (in-place)
I0927 00:14:02.175037 18853 net.cpp:172] Setting up conv4_7_bn0
I0927 00:14:02.175051 18853 net.cpp:186] Top shape: 10 64 8 8 (40960)
I0927 00:14:02.175056 18853 net.cpp:194] Memory required for data: 92364920
I0927 00:14:02.175067 18853 layer_factory.hpp:77] Creating layer conv4_7_scale0
I0927 00:14:02.175076 18853 net.cpp:128] Creating Layer conv4_7_scale0
I0927 00:14:02.175079 18853 net.cpp:558] conv4_7_scale0 <- conv4_7_0
I0927 00:14:02.175086 18853 net.cpp:509] conv4_7_scale0 -> conv4_7_0 (in-place)
I0927 00:14:02.175153 18853 layer_factory.hpp:77] Creating layer conv4_7_scale0
I0927 00:14:02.175361 18853 net.cpp:172] Setting up conv4_7_scale0
I0927 00:14:02.175374 18853 net.cpp:186] Top shape: 10 64 8 8 (40960)
I0927 00:14:02.175377 18853 net.cpp:194] Memory required for data: 92528760
I0927 00:14:02.175385 18853 layer_factory.hpp:77] Creating layer conv4_7_ReLU0
I0927 00:14:02.175392 18853 net.cpp:128] Creating Layer conv4_7_ReLU0
I0927 00:14:02.175397 18853 net.cpp:558] conv4_7_ReLU0 <- conv4_7_0
I0927 00:14:02.175407 18853 net.cpp:509] conv4_7_ReLU0 -> conv4_7_0 (in-place)
I0927 00:14:02.176239 18853 net.cpp:172] Setting up conv4_7_ReLU0
I0927 00:14:02.176259 18853 net.cpp:186] Top shape: 10 64 8 8 (40960)
I0927 00:14:02.176264 18853 net.cpp:194] Memory required for data: 92692600
I0927 00:14:02.176267 18853 layer_factory.hpp:77] Creating layer conv4_7_1
I0927 00:14:02.176286 18853 net.cpp:128] Creating Layer conv4_7_1
I0927 00:14:02.176292 18853 net.cpp:558] conv4_7_1 <- conv4_7_0
I0927 00:14:02.176306 18853 net.cpp:522] conv4_7_1 -> conv4_7_1
I0927 00:14:02.183035 18853 net.cpp:172] Setting up conv4_7_1
I0927 00:14:02.183058 18853 net.cpp:186] Top shape: 10 64 8 8 (40960)
I0927 00:14:02.183064 18853 net.cpp:194] Memory required for data: 92856440
I0927 00:14:02.183075 18853 layer_factory.hpp:77] Creating layer conv4_7bn1
I0927 00:14:02.183084 18853 net.cpp:128] Creating Layer conv4_7bn1
I0927 00:14:02.183089 18853 net.cpp:558] conv4_7bn1 <- conv4_7_1
I0927 00:14:02.183097 18853 net.cpp:509] conv4_7bn1 -> conv4_7_1 (in-place)
I0927 00:14:02.183480 18853 net.cpp:172] Setting up conv4_7bn1
I0927 00:14:02.183493 18853 net.cpp:186] Top shape: 10 64 8 8 (40960)
I0927 00:14:02.183498 18853 net.cpp:194] Memory required for data: 93020280
I0927 00:14:02.183509 18853 layer_factory.hpp:77] Creating layer conv4_7_scale1
I0927 00:14:02.183539 18853 net.cpp:128] Creating Layer conv4_7_scale1
I0927 00:14:02.183545 18853 net.cpp:558] conv4_7_scale1 <- conv4_7_1
I0927 00:14:02.183552 18853 net.cpp:509] conv4_7_scale1 -> conv4_7_1 (in-place)
I0927 00:14:02.183619 18853 layer_factory.hpp:77] Creating layer conv4_7_scale1
I0927 00:14:02.183846 18853 net.cpp:172] Setting up conv4_7_scale1
I0927 00:14:02.183859 18853 net.cpp:186] Top shape: 10 64 8 8 (40960)
I0927 00:14:02.183863 18853 net.cpp:194] Memory required for data: 93184120
I0927 00:14:02.183872 18853 layer_factory.hpp:77] Creating layer conv4_Eltwise_7
I0927 00:14:02.183881 18853 net.cpp:128] Creating Layer conv4_Eltwise_7
I0927 00:14:02.183887 18853 net.cpp:558] conv4_Eltwise_7 <- conv4_Eltwise_6_conv4_6ReLU_1_0_split_1
I0927 00:14:02.183892 18853 net.cpp:558] conv4_Eltwise_7 <- conv4_7_1
I0927 00:14:02.183902 18853 net.cpp:522] conv4_Eltwise_7 -> conv4_Eltwise_7
I0927 00:14:02.183936 18853 net.cpp:172] Setting up conv4_Eltwise_7
I0927 00:14:02.183948 18853 net.cpp:186] Top shape: 10 64 8 8 (40960)
I0927 00:14:02.183953 18853 net.cpp:194] Memory required for data: 93347960
I0927 00:14:02.183956 18853 layer_factory.hpp:77] Creating layer conv4_7ReLU_1
I0927 00:14:02.183965 18853 net.cpp:128] Creating Layer conv4_7ReLU_1
I0927 00:14:02.183969 18853 net.cpp:558] conv4_7ReLU_1 <- conv4_Eltwise_7
I0927 00:14:02.183975 18853 net.cpp:509] conv4_7ReLU_1 -> conv4_Eltwise_7 (in-place)
I0927 00:14:02.185016 18853 net.cpp:172] Setting up conv4_7ReLU_1
I0927 00:14:02.185034 18853 net.cpp:186] Top shape: 10 64 8 8 (40960)
I0927 00:14:02.185039 18853 net.cpp:194] Memory required for data: 93511800
I0927 00:14:02.185045 18853 layer_factory.hpp:77] Creating layer Pooling1
I0927 00:14:02.185056 18853 net.cpp:128] Creating Layer Pooling1
I0927 00:14:02.185061 18853 net.cpp:558] Pooling1 <- conv4_Eltwise_7
I0927 00:14:02.185070 18853 net.cpp:522] Pooling1 -> Pooling1
I0927 00:14:02.187283 18853 net.cpp:172] Setting up Pooling1
I0927 00:14:02.187305 18853 net.cpp:186] Top shape: 10 64 1 1 (640)
I0927 00:14:02.187310 18853 net.cpp:194] Memory required for data: 93514360
I0927 00:14:02.187315 18853 layer_factory.hpp:77] Creating layer fc1
I0927 00:14:02.187326 18853 net.cpp:128] Creating Layer fc1
I0927 00:14:02.187331 18853 net.cpp:558] fc1 <- Pooling1
I0927 00:14:02.187341 18853 net.cpp:522] fc1 -> fc1
I0927 00:14:02.187561 18853 net.cpp:172] Setting up fc1
I0927 00:14:02.187569 18853 net.cpp:186] Top shape: 10 10 (100)
I0927 00:14:02.187573 18853 net.cpp:194] Memory required for data: 93514760
I0927 00:14:02.187582 18853 layer_factory.hpp:77] Creating layer fc1_fc1_0_split
I0927 00:14:02.187593 18853 net.cpp:128] Creating Layer fc1_fc1_0_split
I0927 00:14:02.187598 18853 net.cpp:558] fc1_fc1_0_split <- fc1
I0927 00:14:02.187604 18853 net.cpp:522] fc1_fc1_0_split -> fc1_fc1_0_split_0
I0927 00:14:02.187614 18853 net.cpp:522] fc1_fc1_0_split -> fc1_fc1_0_split_1
I0927 00:14:02.187674 18853 net.cpp:172] Setting up fc1_fc1_0_split
I0927 00:14:02.187681 18853 net.cpp:186] Top shape: 10 10 (100)
I0927 00:14:02.187686 18853 net.cpp:186] Top shape: 10 10 (100)
I0927 00:14:02.187690 18853 net.cpp:194] Memory required for data: 93515560
I0927 00:14:02.187695 18853 layer_factory.hpp:77] Creating layer Softmax1
I0927 00:14:02.187703 18853 net.cpp:128] Creating Layer Softmax1
I0927 00:14:02.187708 18853 net.cpp:558] Softmax1 <- fc1_fc1_0_split_0
I0927 00:14:02.187713 18853 net.cpp:558] Softmax1 <- label_Data1_1_split_0
I0927 00:14:02.187719 18853 net.cpp:522] Softmax1 -> Softmax1
…
