…
I0818 10:49:15.102422  2412 net.cpp:82] Initializing net from parameters: 
name: "resnet_cifar10"
state {
  phase: TRAIN
  level: 0
  stage: ""
}
layer {
  name: "Data1"
  type: "Data"
  top: "Data1"
  top: "Data2"
  include {
    phase: TRAIN
  }
  transform_param {
    scale: 0.0039215684
    mirror: true
    crop_size: 32
    mean_value: 125.3
    mean_value: 122.9
    mean_value: 113.8
  }
  data_param {
    source: "/home/lijianfei/datasets/cifar10_40/train_lmdb"
    batch_size: 128
    backend: LMDB
  }
  image_data_param {
    shuffle: true
  }
}
layer {
  name: "Convolution1"
  type: "Convolution"
  bottom: "Data1"
  top: "Convolution1"
  param {
    lr_mult: 1
    decay_mult: 1
  }
  param {
    lr_mult: 2
    decay_mult: 0
  }
  convolution_param {
    num_output: 16
    pad: 1
    kernel_size: 3
    stride: 1
    weight_filler {
      type: "msra"
    }
    bias_filler {
      type: "constant"
      value: 0
    }
  }
}
layer {
  name: "BatchNorm1"
  type: "BatchNorm"
  bottom: "Convolution1"
  top: "Convolution1"
  param {
    lr_mult: 0
    decay_mult: 0
  }
  param {
    lr_mult: 0
    decay_mult: 0
  }
  param {
    lr_mult: 0
    decay_mult: 0
  }
}
layer {
  name: "Scale1"
  type: "Scale"
  bottom: "Convolution1"
  top: "Convolution1"
  scale_param {
    bias_term: true
  }
}
layer {
  name: "ReLU1"
  type: "ReLU"
  bottom: "Convolution1"
  top: "Convolution1"
}
layer {
  name: "Convolution2"
  type: "Convolution"
  bottom: "Convolution1"
  top: "Convolution2"
  param {
    lr_mult: 1
    decay_mult: 1
  }
  param {
    lr_mult: 2
    decay_mult: 0
  }
  convolution_param {
    num_output: 16
    pad: 1
    kernel_size: 3
    stride: 1
    weight_filler {
      type: "msra"
    }
    bias_filler {
      type: "constant"
      value: 0
    }
  }
}
layer {
  name: "BatchNorm2"
  type: "BatchNorm"
  bottom: "Convolution2"
  top: "Convolution2"
  param {
    lr_mult: 0
    decay_mult: 0
  }
  param {
    lr_mult: 0
    decay_mult: 0
  }
  param {
    lr_mult: 0
    decay_mult: 0
  }
}
layer {
  name: "Scale2"
  type: "Scale"
  bottom: "Convolution2"
  top: "Convolution2"
  scale_param {
    bias_term: true
  }
}
layer {
  name: "ReLU2"
  type: "ReLU"
  bottom: "Convolution2"
  top: "Convolution2"
}
layer {
  name: "Convolution3"
  type: "Convolution"
  bottom: "Convolution2"
  top: "Convolution3"
  param {
    lr_mult: 1
    decay_mult: 1
  }
  param {
    lr_mult: 2
    decay_mult: 0
  }
  convolution_param {
    num_output: 16
    pad: 1
    kernel_size: 3
    stride: 1
    weight_filler {
      type: "msra"
    }
    bias_filler {
      type: "constant"
      value: 0
    }
  }
}
layer {
  name: "BatchNorm3"
  type: "BatchNorm"
  bottom: "Convolution3"
  top: "Convolution3"
  param {
    lr_mult: 0
    decay_mult: 0
  }
  param {
    lr_mult: 0
    decay_mult: 0
  }
  param {
    lr_mult: 0
    decay_mult: 0
  }
}
layer {
  name: "Scale3"
  type: "Scale"
  bottom: "Convolution3"
  top: "Convolution3"
  scale_param {
    bias_term: true
  }
}
layer {
  name: "Eltwise1"
  type: "Eltwise"
  bottom: "Convolution1"
  bottom: "Convolution3"
  top: "Eltwise1"
  eltwise_param {
    operation: SUM
  }
}
layer {
  name: "ReLU3"
  type: "ReLU"
  bottom: "Eltwise1"
  top: "Eltwise1"
}
layer {
  name: "Convolution4"
  type: "Convolution"
  bottom: "Eltwise1"
  top: "Convolution4"
  param {
    lr_mult: 1
    decay_mult: 1
  }
  param {
    lr_mult: 2
    decay_mult: 0
  }
  convolution_param {
    num_output: 16
    pad: 1
    kernel_size: 3
    stride: 1
    weight_filler {
      type: "msra"
    }
    bias_filler {
      type: "constant"
      value: 0
    }
  }
}
layer {
  name: "BatchNorm4"
  type: "BatchNorm"
  bottom: "Convolution4"
  top: "Convolution4"
  param {
    lr_mult: 0
    decay_mult: 0
  }
  param {
    lr_mult: 0
    decay_mult: 0
  }
  param {
    lr_mult: 0
    decay_mult: 0
  }
}
layer {
  name: "Scale4"
  type: "Scale"
  bottom: "Convolution4"
  top: "Convolution4"
  scale_param {
    bias_term: true
  }
}
layer {
  name: "ReLU4"
  type: "ReLU"
  bottom: "Convolution4"
  top: "Convolution4"
}
layer {
  name: "Convolution5"
  type: "Convolution"
  bottom: "Convolution4"
  top: "Convolution5"
  param {
    lr_mult: 1
    decay_mult: 1
  }
  param {
    lr_mult: 2
    decay_mult: 0
  }
  convolution_param {
    num_output: 16
    pad: 1
    kernel_size: 3
    stride: 1
    weight_filler {
      type: "msra"
    }
    bias_filler {
      type: "constant"
      value: 0
    }
  }
}
layer {
  name: "BatchNorm5"
  type: "BatchNorm"
  bottom: "Convolution5"
  top: "Convolution5"
  param {
    lr_mult: 0
    decay_mult: 0
  }
  param {
    lr_mult: 0
    decay_mult: 0
  }
  param {
    lr_mult: 0
    decay_mult: 0
  }
}
layer {
  name: "Scale5"
  type: "Scale"
  bottom: "Convolution5"
  top: "Convolution5"
  scale_param {
    bias_term: true
  }
}
layer {
  name: "Eltwise2"
  type: "Eltwise"
  bottom: "Eltwise1"
  bottom: "Convolution5"
  top: "Eltwise2"
  eltwise_param {
    operation: SUM
  }
}
layer {
  name: "ReLU5"
  type: "ReLU"
  bottom: "Eltwise2"
  top: "Eltwise2"
}
layer {
  name: "Convolution6"
  type: "Convolution"
  bottom: "Eltwise2"
  top: "Convolution6"
  param {
    lr_mult: 1
    decay_mult: 1
  }
  param {
    lr_mult: 2
    decay_mult: 0
  }
  convolution_param {
    num_output: 16
    pad: 1
    kernel_size: 3
    stride: 1
    weight_filler {
      type: "msra"
    }
    bias_filler {
      type: "constant"
      value: 0
    }
  }
}
layer {
  name: "BatchNorm6"
  type: "BatchNorm"
  bottom: "Convolution6"
  top: "Convolution6"
  param {
    lr_mult: 0
    decay_mult: 0
  }
  param {
    lr_mult: 0
    decay_mult: 0
  }
  param {
    lr_mult: 0
    decay_mult: 0
  }
}
layer {
  name: "Scale6"
  type: "Scale"
  bottom: "Convolution6"
  top: "Convolution6"
  scale_param {
    bias_term: true
  }
}
layer {
  name: "ReLU6"
  type: "ReLU"
  bottom: "Convolution6"
  top: "Convolution6"
}
layer {
  name: "Convolution7"
  type: "Convolution"
  bottom: "Convolution6"
  top: "Convolution7"
  param {
    lr_mult: 1
    decay_mult: 1
  }
  param {
    lr_mult: 2
    decay_mult: 0
  }
  convolution_param {
    num_output: 16
    pad: 1
    kernel_size: 3
    stride: 1
    weight_filler {
      type: "msra"
    }
    bias_filler {
      type: "constant"
      value: 0
    }
  }
}
layer {
  name: "BatchNorm7"
  type: "BatchNorm"
  bottom: "Convolution7"
  top: "Convolution7"
  param {
    lr_mult: 0
    decay_mult: 0
  }
  param {
    lr_mult: 0
    decay_mult: 0
  }
  param {
    lr_mult: 0
    decay_mult: 0
  }
}
layer {
  name: "Scale7"
  type: "Scale"
  bottom: "Convolution7"
  top: "Convolution7"
  scale_param {
    bias_term: true
  }
}
layer {
  name: "Eltwise3"
  type: "Eltwise"
  bottom: "Eltwise2"
  bottom: "Convolution7"
  top: "Eltwise3"
  eltwise_param {
    operation: SUM
  }
}
layer {
  name: "ReLU7"
  type: "ReLU"
  bottom: "Eltwise3"
  top: "Eltwise3"
}
layer {
  name: "Convolution8"
  type: "Convolution"
  bottom: "Eltwise3"
  top: "Convolution8"
  param {
    lr_mult: 1
    decay_mult: 1
  }
  param {
    lr_mult: 2
    decay_mult: 0
  }
  convolution_param {
    num_output: 16
    pad: 1
    kernel_size: 3
    stride: 1
    weight_filler {
      type: "msra"
    }
    bias_filler {
      type: "constant"
      value: 0
    }
  }
}
layer {
  name: "BatchNorm8"
  type: "BatchNorm"
  bottom: "Convolution8"
  top: "Convolution8"
  param {
    lr_mult: 0
    decay_mult: 0
  }
  param {
    lr_mult: 0
    decay_mult: 0
  }
  param {
    lr_mult: 0
    decay_mult: 0
  }
}
layer {
  name: "Scale8"
  type: "Scale"
  bottom: "Convolution8"
  top: "Convolution8"
  scale_param {
    bias_term: true
  }
}
layer {
  name: "ReLU8"
  type: "ReLU"
  bottom: "Convolution8"
  top: "Convolution8"
}
layer {
  name: "Convolution9"
  type: "Convolution"
  bottom: "Convolution8"
  top: "Convolution9"
  param {
    lr_mult: 1
    decay_mult: 1
  }
  param {
    lr_mult: 2
    decay_mult: 0
  }
  convolution_param {
    num_output: 16
    pad: 1
    kernel_size: 3
    stride: 1
    weight_filler {
      type: "msra"
    }
    bias_filler {
      type: "constant"
      value: 0
    }
  }
}
layer {
  name: "BatchNorm9"
  type: "BatchNorm"
  bottom: "Convolution9"
  top: "Convolution9"
  param {
    lr_mult: 0
    decay_mult: 0
  }
  param {
    lr_mult: 0
    decay_mult: 0
  }
  param {
    lr_mult: 0
    decay_mult: 0
  }
}
layer {
  name: "Scale9"
  type: "Scale"
  bottom: "Convolution9"
  top: "Convolution9"
  scale_param {
    bias_term: true
  }
}
layer {
  name: "Eltwise4"
  type: "Eltwise"
  bottom: "Eltwise3"
  bottom: "Convolution9"
  top: "Eltwise4"
  eltwise_param {
    operation: SUM
  }
}
layer {
  name: "ReLU9"
  type: "ReLU"
  bottom: "Eltwise4"
  top: "Eltwise4"
}
layer {
  name: "Convolution10"
  type: "Convolution"
  bottom: "Eltwise4"
  top: "Convolution10"
  param {
    lr_mult: 1
    decay_mult: 1
  }
  param {
    lr_mult: 2
    decay_mult: 0
  }
  convolution_param {
    num_output: 16
    pad: 1
    kernel_size: 3
    stride: 1
    weight_filler {
      type: "msra"
    }
    bias_filler {
      type: "constant"
      value: 0
    }
  }
}
layer {
  name: "BatchNorm10"
  type: "BatchNorm"
  bottom: "Convolution10"
  top: "Convolution10"
  param {
    lr_mult: 0
    decay_mult: 0
  }
  param {
    lr_mult: 0
    decay_mult: 0
  }
  param {
    lr_mult: 0
    decay_mult: 0
  }
}
layer {
  name: "Scale10"
  type: "Scale"
  bottom: "Convolution10"
  top: "Convolution10"
  scale_param {
    bias_term: true
  }
}
layer {
  name: "ReLU10"
  type: "ReLU"
  bottom: "Convolution10"
  top: "Convolution10"
}
layer {
  name: "Convolution11"
  type: "Convolution"
  bottom: "Convolution10"
  top: "Convolution11"
  param {
    lr_mult: 1
    decay_mult: 1
  }
  param {
    lr_mult: 2
    decay_mult: 0
  }
  convolution_param {
    num_output: 16
    pad: 1
    kernel_size: 3
    stride: 1
    weight_filler {
      type: "msra"
    }
    bias_filler {
      type: "constant"
      value: 0
    }
  }
}
layer {
  name: "BatchNorm11"
  type: "BatchNorm"
  bottom: "Convolution11"
  top: "Convolution11"
  param {
    lr_mult: 0
    decay_mult: 0
  }
  param {
    lr_mult: 0
    decay_mult: 0
  }
  param {
    lr_mult: 0
    decay_mult: 0
  }
}
layer {
  name: "Scale11"
  type: "Scale"
  bottom: "Convolution11"
  top: "Convolution11"
  scale_param {
    bias_term: true
  }
}
layer {
  name: "Eltwise5"
  type: "Eltwise"
  bottom: "Eltwise4"
  bottom: "Convolution11"
  top: "Eltwise5"
  eltwise_param {
    operation: SUM
  }
}
layer {
  name: "ReLU11"
  type: "ReLU"
  bottom: "Eltwise5"
  top: "Eltwise5"
}
layer {
  name: "Convolution12"
  type: "Convolution"
  bottom: "Eltwise5"
  top: "Convolution12"
  param {
    lr_mult: 1
    decay_mult: 1
  }
  param {
    lr_mult: 2
    decay_mult: 0
  }
  convolution_param {
    num_output: 16
    pad: 1
    kernel_size: 3
    stride: 1
    weight_filler {
      type: "msra"
    }
    bias_filler {
      type: "constant"
      value: 0
    }
  }
}
layer {
  name: "BatchNorm12"
  type: "BatchNorm"
  bottom: "Convolution12"
  top: "Convolution12"
  param {
    lr_mult: 0
    decay_mult: 0
  }
  param {
    lr_mult: 0
    decay_mult: 0
  }
  param {
    lr_mult: 0
    decay_mult: 0
  }
}
layer {
  name: "Scale12"
  type: "Scale"
  bottom: "Convolution12"
  top: "Convolution12"
  scale_param {
    bias_term: true
  }
}
layer {
  name: "ReLU12"
  type: "ReLU"
  bottom: "Convolution12"
  top: "Convolution12"
}
layer {
  name: "Convolution13"
  type: "Convolution"
  bottom: "Convolution12"
  top: "Convolution13"
  param {
    lr_mult: 1
    decay_mult: 1
  }
  param {
    lr_mult: 2
    decay_mult: 0
  }
  convolution_param {
    num_output: 16
    pad: 1
    kernel_size: 3
    stride: 1
    weight_filler {
      type: "msra"
    }
    bias_filler {
      type: "constant"
      value: 0
    }
  }
}
layer {
  name: "BatchNorm13"
  type: "BatchNorm"
  bottom: "Convolution13"
  top: "Convolution13"
  param {
    lr_mult: 0
    decay_mult: 0
  }
  param {
    lr_mult: 0
    decay_mult: 0
  }
  param {
    lr_mult: 0
    decay_mult: 0
  }
}
layer {
  name: "Scale13"
  type: "Scale"
  bottom: "Convolution13"
  top: "Convolution13"
  scale_param {
    bias_term: true
  }
}
layer {
  name: "Eltwise6"
  type: "Eltwise"
  bottom: "Eltwise5"
  bottom: "Convolution13"
  top: "Eltwise6"
  eltwise_param {
    operation: SUM
  }
}
layer {
  name: "ReLU13"
  type: "ReLU"
  bottom: "Eltwise6"
  top: "Eltwise6"
}
layer {
  name: "Convolution14"
  type: "Convolution"
  bottom: "Eltwise6"
  top: "Convolution14"
  param {
    lr_mult: 1
    decay_mult: 1
  }
  param {
    lr_mult: 2
    decay_mult: 0
  }
  convolution_param {
    num_output: 16
    pad: 1
    kernel_size: 3
    stride: 1
    weight_filler {
      type: "msra"
    }
    bias_filler {
      type: "constant"
      value: 0
    }
  }
}
layer {
  name: "BatchNorm14"
  type: "BatchNorm"
  bottom: "Convolution14"
  top: "Convolution14"
  param {
    lr_mult: 0
    decay_mult: 0
  }
  param {
    lr_mult: 0
    decay_mult: 0
  }
  param {
    lr_mult: 0
    decay_mult: 0
  }
}
layer {
  name: "Scale14"
  type: "Scale"
  bottom: "Convolution14"
  top: "Convolution14"
  scale_param {
    bias_term: true
  }
}
layer {
  name: "ReLU14"
  type: "ReLU"
  bottom: "Convolution14"
  top: "Convolution14"
}
layer {
  name: "Convolution15"
  type: "Convolution"
  bottom: "Convolution14"
  top: "Convolution15"
  param {
    lr_mult: 1
    decay_mult: 1
  }
  param {
    lr_mult: 2
    decay_mult: 0
  }
  convolution_param {
    num_output: 16
    pad: 1
    kernel_size: 3
    stride: 1
    weight_filler {
      type: "msra"
    }
    bias_filler {
      type: "constant"
      value: 0
    }
  }
}
layer {
  name: "BatchNorm15"
  type: "BatchNorm"
  bottom: "Convolution15"
  top: "Convolution15"
  param {
    lr_mult: 0
    decay_mult: 0
  }
  param {
    lr_mult: 0
    decay_mult: 0
  }
  param {
    lr_mult: 0
    decay_mult: 0
  }
}
layer {
  name: "Scale15"
  type: "Scale"
  bottom: "Convolution15"
  top: "Convolution15"
  scale_param {
    bias_term: true
  }
}
layer {
  name: "Eltwise7"
  type: "Eltwise"
  bottom: "Eltwise6"
  bottom: "Convolution15"
  top: "Eltwise7"
  eltwise_param {
    operation: SUM
  }
}
layer {
  name: "ReLU15"
  type: "ReLU"
  bottom: "Eltwise7"
  top: "Eltwise7"
}
layer {
  name: "Convolution16"
  type: "Convolution"
  bottom: "Eltwise7"
  top: "Convolution16"
  param {
    lr_mult: 1
    decay_mult: 1
  }
  param {
    lr_mult: 2
    decay_mult: 0
  }
  convolution_param {
    num_output: 32
    pad: 0
    kernel_size: 1
    stride: 2
    weight_filler {
      type: "msra"
    }
    bias_filler {
      type: "constant"
      value: 0
    }
  }
}
layer {
  name: "BatchNorm16"
  type: "BatchNorm"
  bottom: "Convolution16"
  top: "Convolution16"
  param {
    lr_mult: 0
    decay_mult: 0
  }
  param {
    lr_mult: 0
    decay_mult: 0
  }
  param {
    lr_mult: 0
    decay_mult: 0
  }
}
layer {
  name: "Scale16"
  type: "Scale"
  bottom: "Convolution16"
  top: "Convolution16"
  scale_param {
    bias_term: true
  }
}
layer {
  name: "Convolution17"
  type: "Convolution"
  bottom: "Eltwise7"
  top: "Convolution17"
  param {
    lr_mult: 1
    decay_mult: 1
  }
  param {
    lr_mult: 2
    decay_mult: 0
  }
  convolution_param {
    num_output: 32
    pad: 1
    kernel_size: 3
    stride: 2
    weight_filler {
      type: "msra"
    }
    bias_filler {
      type: "constant"
      value: 0
    }
  }
}
layer {
  name: "BatchNorm17"
  type: "BatchNorm"
  bottom: "Convolution17"
  top: "Convolution17"
  param {
    lr_mult: 0
    decay_mult: 0
  }
  param {
    lr_mult: 0
    decay_mult: 0
  }
  param {
    lr_mult: 0
    decay_mult: 0
  }
}
layer {
  name: "Scale17"
  type: "Scale"
  bottom: "Convolution17"
  top: "Convolution17"
  scale_param {
    bias_term: true
  }
}
layer {
  name: "ReLU16"
  type: "ReLU"
  bottom: "Convolution17"
  top: "Convolution17"
}
layer {
  name: "Convolution18"
  type: "Convolution"
  bottom: "Convolution17"
  top: "Convolution18"
  param {
    lr_mult: 1
    decay_mult: 1
  }
  param {
    lr_mult: 2
    decay_mult: 0
  }
  convolution_param {
    num_output: 32
    pad: 1
    kernel_size: 3
    stride: 1
    weight_filler {
      type: "msra"
    }
    bias_filler {
      type: "constant"
      value: 0
    }
  }
}
layer {
  name: "BatchNorm18"
  type: "BatchNorm"
  bottom: "Convolution18"
  top: "Convolution18"
  param {
    lr_mult: 0
    decay_mult: 0
  }
  param {
    lr_mult: 0
    decay_mult: 0
  }
  param {
    lr_mult: 0
    decay_mult: 0
  }
}
layer {
  name: "Scale18"
  type: "Scale"
  bottom: "Convolution18"
  top: "Convolution18"
  scale_param {
    bias_term: true
  }
}
layer {
  name: "Eltwise8"
  type: "Eltwise"
  bottom: "Convolution16"
  bottom: "Convolution18"
  top: "Eltwise8"
  eltwise_param {
    operation: SUM
  }
}
layer {
  name: "ReLU17"
  type: "ReLU"
  bottom: "Eltwise8"
  top: "Eltwise8"
}
layer {
  name: "Convolution19"
  type: "Convolution"
  bottom: "Eltwise8"
  top: "Convolution19"
  param {
    lr_mult: 1
    decay_mult: 1
  }
  param {
    lr_mult: 2
    decay_mult: 0
  }
  convolution_param {
    num_output: 32
    pad: 1
    kernel_size: 3
    stride: 1
    weight_filler {
      type: "msra"
    }
    bias_filler {
      type: "constant"
      value: 0
    }
  }
}
layer {
  name: "BatchNorm19"
  type: "BatchNorm"
  bottom: "Convolution19"
  top: "Convolution19"
  param {
    lr_mult: 0
    decay_mult: 0
  }
  param {
    lr_mult: 0
    decay_mult: 0
  }
  param {
    lr_mult: 0
    decay_mult: 0
  }
}
layer {
  name: "Scale19"
  type: "Scale"
  bottom: "Convolution19"
  top: "Convolution19"
  scale_param {
    bias_term: true
  }
}
layer {
  name: "ReLU18"
  type: "ReLU"
  bottom: "Convolution19"
  top: "Convolution19"
}
layer {
  name: "Convolution20"
  type: "Convolution"
  bottom: "Convolution19"
  top: "Convolution20"
  param {
    lr_mult: 1
    decay_mult: 1
  }
  param {
    lr_mult: 2
    decay_mult: 0
  }
  convolution_param {
    num_output: 32
    pad: 1
    kernel_size: 3
    stride: 1
    weight_filler {
      type: "msra"
    }
    bias_filler {
      type: "constant"
      value: 0
    }
  }
}
layer {
  name: "BatchNorm20"
  type: "BatchNorm"
  bottom: "Convolution20"
  top: "Convolution20"
  param {
    lr_mult: 0
    decay_mult: 0
  }
  param {
    lr_mult: 0
    decay_mult: 0
  }
  param {
    lr_mult: 0
    decay_mult: 0
  }
}
layer {
  name: "Scale20"
  type: "Scale"
  bottom: "Convolution20"
  top: "Convolution20"
  scale_param {
    bias_term: true
  }
}
layer {
  name: "Eltwise9"
  type: "Eltwise"
  bottom: "Eltwise8"
  bottom: "Convolution20"
  top: "Eltwise9"
  eltwise_param {
    operation: SUM
  }
}
layer {
  name: "ReLU19"
  type: "ReLU"
  bottom: "Eltwise9"
  top: "Eltwise9"
}
layer {
  name: "Convolution21"
  type: "Convolution"
  bottom: "Eltwise9"
  top: "Convolution21"
  param {
    lr_mult: 1
    decay_mult: 1
  }
  param {
    lr_mult: 2
    decay_mult: 0
  }
  convolution_param {
    num_output: 32
    pad: 1
    kernel_size: 3
    stride: 1
    weight_filler {
      type: "msra"
    }
    bias_filler {
      type: "constant"
      value: 0
    }
  }
}
layer {
  name: "BatchNorm21"
  type: "BatchNorm"
  bottom: "Convolution21"
  top: "Convolution21"
  param {
    lr_mult: 0
    decay_mult: 0
  }
  param {
    lr_mult: 0
    decay_mult: 0
  }
  param {
    lr_mult: 0
    decay_mult: 0
  }
}
layer {
  name: "Scale21"
  type: "Scale"
  bottom: "Convolution21"
  top: "Convolution21"
  scale_param {
    bias_term: true
  }
}
layer {
  name: "ReLU20"
  type: "ReLU"
  bottom: "Convolution21"
  top: "Convolution21"
}
layer {
  name: "Convolution22"
  type: "Convolution"
  bottom: "Convolution21"
  top: "Convolution22"
  param {
    lr_mult: 1
    decay_mult: 1
  }
  param {
    lr_mult: 2
    decay_mult: 0
  }
  convolution_param {
    num_output: 32
    pad: 1
    kernel_size: 3
    stride: 1
    weight_filler {
      type: "msra"
    }
    bias_filler {
      type: "constant"
      value: 0
    }
  }
}
layer {
  name: "BatchNorm22"
  type: "BatchNorm"
  bottom: "Convolution22"
  top: "Convolution22"
  param {
    lr_mult: 0
    decay_mult: 0
  }
  param {
    lr_mult: 0
    decay_mult: 0
  }
  param {
    lr_mult: 0
    decay_mult: 0
  }
}
layer {
  name: "Scale22"
  type: "Scale"
  bottom: "Convolution22"
  top: "Convolution22"
  scale_param {
    bias_term: true
  }
}
layer {
  name: "Eltwise10"
  type: "Eltwise"
  bottom: "Eltwise9"
  bottom: "Convolution22"
  top: "Eltwise10"
  eltwise_param {
    operation: SUM
  }
}
layer {
  name: "ReLU21"
  type: "ReLU"
  bottom: "Eltwise10"
  top: "Eltwise10"
}
layer {
  name: "Convolution23"
  type: "Convolution"
  bottom: "Eltwise10"
  top: "Convolution23"
  param {
    lr_mult: 1
    decay_mult: 1
  }
  param {
    lr_mult: 2
    decay_mult: 0
  }
  convolution_param {
    num_output: 32
    pad: 1
    kernel_size: 3
    stride: 1
    weight_filler {
      type: "msra"
    }
    bias_filler {
      type: "constant"
      value: 0
    }
  }
}
layer {
  name: "BatchNorm23"
  type: "BatchNorm"
  bottom: "Convolution23"
  top: "Convolution23"
  param {
    lr_mult: 0
    decay_mult: 0
  }
  param {
    lr_mult: 0
    decay_mult: 0
  }
  param {
    lr_mult: 0
    decay_mult: 0
  }
}
layer {
  name: "Scale23"
  type: "Scale"
  bottom: "Convolution23"
  top: "Convolution23"
  scale_param {
    bias_term: true
  }
}
layer {
  name: "ReLU22"
  type: "ReLU"
  bottom: "Convolution23"
  top: "Convolution23"
}
layer {
  name: "Convolution24"
  type: "Convolution"
  bottom: "Convolution23"
  top: "Convolution24"
  param {
    lr_mult: 1
    decay_mult: 1
  }
  param {
    lr_mult: 2
    decay_mult: 0
  }
  convolution_param {
    num_output: 32
    pad: 1
    kernel_size: 3
    stride: 1
    weight_filler {
      type: "msra"
    }
    bias_filler {
      type: "constant"
      value: 0
    }
  }
}
layer {
  name: "BatchNorm24"
  type: "BatchNorm"
  bottom: "Convolution24"
  top: "Convolution24"
  param {
    lr_mult: 0
    decay_mult: 0
  }
  param {
    lr_mult: 0
    decay_mult: 0
  }
  param {
    lr_mult: 0
    decay_mult: 0
  }
}
layer {
  name: "Scale24"
  type: "Scale"
  bottom: "Convolution24"
  top: "Convolution24"
  scale_param {
    bias_term: true
  }
}
layer {
  name: "Eltwise11"
  type: "Eltwise"
  bottom: "Eltwise10"
  bottom: "Convolution24"
  top: "Eltwise11"
  eltwise_param {
    operation: SUM
  }
}
layer {
  name: "ReLU23"
  type: "ReLU"
  bottom: "Eltwise11"
  top: "Eltwise11"
}
layer {
  name: "Convolution25"
  type: "Convolution"
  bottom: "Eltwise11"
  top: "Convolution25"
  param {
    lr_mult: 1
    decay_mult: 1
  }
  param {
    lr_mult: 2
    decay_mult: 0
  }
  convolution_param {
    num_output: 32
    pad: 1
    kernel_size: 3
    stride: 1
    weight_filler {
      type: "msra"
    }
    bias_filler {
      type: "constant"
      value: 0
    }
  }
}
layer {
  name: "BatchNorm25"
  type: "BatchNorm"
  bottom: "Convolution25"
  top: "Convolution25"
  param {
    lr_mult: 0
    decay_mult: 0
  }
  param {
    lr_mult: 0
    decay_mult: 0
  }
  param {
    lr_mult: 0
    decay_mult: 0
  }
}
layer {
  name: "Scale25"
  type: "Scale"
  bottom: "Convolution25"
  top: "Convolution25"
  scale_param {
    bias_term: true
  }
}
layer {
  name: "ReLU24"
  type: "ReLU"
  bottom: "Convolution25"
  top: "Convolution25"
}
layer {
  name: "Convolution26"
  type: "Convolution"
  bottom: "Convolution25"
  top: "Convolution26"
  param {
    lr_mult: 1
    decay_mult: 1
  }
  param {
    lr_mult: 2
    decay_mult: 0
  }
  convolution_param {
    num_output: 32
    pad: 1
    kernel_size: 3
    stride: 1
    weight_filler {
      type: "msra"
    }
    bias_filler {
      type: "constant"
      value: 0
    }
  }
}
layer {
  name: "BatchNorm26"
  type: "BatchNorm"
  bottom: "Convolution26"
  top: "Convolution26"
  param {
    lr_mult: 0
    decay_mult: 0
  }
  param {
    lr_mult: 0
    decay_mult: 0
  }
  param {
    lr_mult: 0
    decay_mult: 0
  }
}
layer {
  name: "Scale26"
  type: "Scale"
  bottom: "Convolution26"
  top: "Convolution26"
  scale_param {
    bias_term: true
  }
}
layer {
  name: "Eltwise12"
  type: "Eltwise"
  bottom: "Eltwise11"
  bottom: "Convolution26"
  top: "Eltwise12"
  eltwise_param {
    operation: SUM
  }
}
layer {
  name: "ReLU25"
  type: "ReLU"
  bottom: "Eltwise12"
  top: "Eltwise12"
}
layer {
  name: "Convolution27"
  type: "Convolution"
  bottom: "Eltwise12"
  top: "Convolution27"
  param {
    lr_mult: 1
    decay_mult: 1
  }
  param {
    lr_mult: 2
    decay_mult: 0
  }
  convolution_param {
    num_output: 32
    pad: 1
    kernel_size: 3
    stride: 1
    weight_filler {
      type: "msra"
    }
    bias_filler {
      type: "constant"
      value: 0
    }
  }
}
layer {
  name: "BatchNorm27"
  type: "BatchNorm"
  bottom: "Convolution27"
  top: "Convolution27"
  param {
    lr_mult: 0
    decay_mult: 0
  }
  param {
    lr_mult: 0
    decay_mult: 0
  }
  param {
    lr_mult: 0
    decay_mult: 0
  }
}
layer {
  name: "Scale27"
  type: "Scale"
  bottom: "Convolution27"
  top: "Convolution27"
  scale_param {
    bias_term: true
  }
}
layer {
  name: "ReLU26"
  type: "ReLU"
  bottom: "Convolution27"
  top: "Convolution27"
}
layer {
  name: "Convolution28"
  type: "Convolution"
  bottom: "Convolution27"
  top: "Convolution28"
  param {
    lr_mult: 1
    decay_mult: 1
  }
  param {
    lr_mult: 2
    decay_mult: 0
  }
  convolution_param {
    num_output: 32
    pad: 1
    kernel_size: 3
    stride: 1
    weight_filler {
      type: "msra"
    }
    bias_filler {
      type: "constant"
      value: 0
    }
  }
}
layer {
  name: "BatchNorm28"
  type: "BatchNorm"
  bottom: "Convolution28"
  top: "Convolution28"
  param {
    lr_mult: 0
    decay_mult: 0
  }
  param {
    lr_mult: 0
    decay_mult: 0
  }
  param {
    lr_mult: 0
    decay_mult: 0
  }
}
layer {
  name: "Scale28"
  type: "Scale"
  bottom: "Convolution28"
  top: "Convolution28"
  scale_param {
    bias_term: true
  }
}
layer {
  name: "Eltwise13"
  type: "Eltwise"
  bottom: "Eltwise12"
  bottom: "Convolution28"
  top: "Eltwise13"
  eltwise_param {
    operation: SUM
  }
}
layer {
  name: "ReLU27"
  type: "ReLU"
  bottom: "Eltwise13"
  top: "Eltwise13"
}
layer {
  name: "Convolution29"
  type: "Convolution"
  bottom: "Eltwise13"
  top: "Convolution29"
  param {
    lr_mult: 1
    decay_mult: 1
  }
  param {
    lr_mult: 2
    decay_mult: 0
  }
  convolution_param {
    num_output: 32
    pad: 1
    kernel_size: 3
    stride: 1
    weight_filler {
      type: "msra"
    }
    bias_filler {
      type: "constant"
      value: 0
    }
  }
}
layer {
  name: "BatchNorm29"
  type: "BatchNorm"
  bottom: "Convolution29"
  top: "Convolution29"
  param {
    lr_mult: 0
    decay_mult: 0
  }
  param {
    lr_mult: 0
    decay_mult: 0
  }
  param {
    lr_mult: 0
    decay_mult: 0
  }
}
layer {
  name: "Scale29"
  type: "Scale"
  bottom: "Convolution29"
  top: "Convolution29"
  scale_param {
    bias_term: true
  }
}
layer {
  name: "ReLU28"
  type: "ReLU"
  bottom: "Convolution29"
  top: "Convolution29"
}
layer {
  name: "Convolution30"
  type: "Convolution"
  bottom: "Convolution29"
  top: "Convolution30"
  param {
    lr_mult: 1
    decay_mult: 1
  }
  param {
    lr_mult: 2
    decay_mult: 0
  }
  convolution_param {
    num_output: 32
    pad: 1
    kernel_size: 3
    stride: 1
    weight_filler {
      type: "msra"
    }
    bias_filler {
      type: "constant"
      value: 0
    }
  }
}
layer {
  name: "BatchNorm30"
  type: "BatchNorm"
  bottom: "Convolution30"
  top: "Convolution30"
  param {
    lr_mult: 0
    decay_mult: 0
  }
  param {
    lr_mult: 0
    decay_mult: 0
  }
  param {
    lr_mult: 0
    decay_mult: 0
  }
}
layer {
  name: "Scale30"
  type: "Scale"
  bottom: "Convolution30"
  top: "Convolution30"
  scale_param {
    bias_term: true
  }
}
layer {
  name: "Eltwise14"
  type: "Eltwise"
  bottom: "Eltwise13"
  bottom: "Convolution30"
  top: "Eltwise14"
  eltwise_param {
    operation: SUM
  }
}
layer {
  name: "ReLU29"
  type: "ReLU"
  bottom: "Eltwise14"
  top: "Eltwise14"
}
layer {
  name: "Convolution31"
  type: "Convolution"
  bottom: "Eltwise14"
  top: "Convolution31"
  param {
    lr_mult: 1
    decay_mult: 1
  }
  param {
    lr_mult: 2
    decay_mult: 0
  }
  convolution_param {
    num_output: 64
    pad: 0
    kernel_size: 1
    stride: 2
    weight_filler {
      type: "msra"
    }
    bias_filler {
      type: "constant"
      value: 0
    }
  }
}
layer {
  name: "BatchNorm31"
  type: "BatchNorm"
  bottom: "Convolution31"
  top: "Convolution31"
  param {
    lr_mult: 0
    decay_mult: 0
  }
  param {
    lr_mult: 0
    decay_mult: 0
  }
  param {
    lr_mult: 0
    decay_mult: 0
  }
}
layer {
  name: "Scale31"
  type: "Scale"
  bottom: "Convolution31"
  top: "Convolution31"
  scale_param {
    bias_term: true
  }
}
layer {
  name: "Convolution32"
  type: "Convolution"
  bottom: "Eltwise14"
  top: "Convolution32"
  param {
    lr_mult: 1
    decay_mult: 1
  }
  param {
    lr_mult: 2
    decay_mult: 0
  }
  convolution_param {
    num_output: 64
    pad: 1
    kernel_size: 3
    stride: 2
    weight_filler {
      type: "msra"
    }
    bias_filler {
      type: "constant"
      value: 0
    }
  }
}
layer {
  name: "BatchNorm32"
  type: "BatchNorm"
  bottom: "Convolution32"
  top: "Convolution32"
  param {
    lr_mult: 0
    decay_mult: 0
  }
  param {
    lr_mult: 0
    decay_mult: 0
  }
  param {
    lr_mult: 0
    decay_mult: 0
  }
}
layer {
  name: "Scale32"
  type: "Scale"
  bottom: "Convolution32"
  top: "Convolution32"
  scale_param {
    bias_term: true
  }
}
layer {
  name: "ReLU30"
  type: "ReLU"
  bottom: "Convolution32"
  top: "Convolution32"
}
layer {
  name: "Convolution33"
  type: "Convolution"
  bottom: "Convolution32"
  top: "Convolution33"
  param {
    lr_mult: 1
    decay_mult: 1
  }
  param {
    lr_mult: 2
    decay_mult: 0
  }
  convolution_para
I0818 10:49:15.103328  2412 layer_factory.hpp:77] Creating layer Data1
I0818 10:49:15.103513  2412 db_lmdb.cpp:35] Opened lmdb /home/lijianfei/datasets/cifar10_40/train_lmdb
I0818 10:49:15.103574  2412 net.cpp:128] Creating Layer Data1
I0818 10:49:15.103585  2412 net.cpp:522] Data1 -> Data1
I0818 10:49:15.103621  2412 net.cpp:522] Data1 -> Data2
I0818 10:49:15.105422  2412 data_layer.cpp:45] output data size: 128,3,32,32
I0818 10:49:15.120543  2412 net.cpp:172] Setting up Data1
I0818 10:49:15.120602  2412 net.cpp:186] Top shape: 128 3 32 32 (393216)
I0818 10:49:15.120610  2412 net.cpp:186] Top shape: 128 (128)
I0818 10:49:15.120620  2412 net.cpp:194] Memory required for data: 1573376
I0818 10:49:15.120640  2412 layer_factory.hpp:77] Creating layer Convolution1
I0818 10:49:15.120676  2412 net.cpp:128] Creating Layer Convolution1
I0818 10:49:15.120685  2412 net.cpp:558] Convolution1 <- Data1
I0818 10:49:15.120708  2412 net.cpp:522] Convolution1 -> Convolution1
I0818 10:49:16.145515  2412 net.cpp:172] Setting up Convolution1
I0818 10:49:16.145572  2412 net.cpp:186] Top shape: 128 16 32 32 (2097152)
I0818 10:49:16.145577  2412 net.cpp:194] Memory required for data: 9961984
I0818 10:49:16.145622  2412 layer_factory.hpp:77] Creating layer BatchNorm1
I0818 10:49:16.145640  2412 net.cpp:128] Creating Layer BatchNorm1
I0818 10:49:16.145699  2412 net.cpp:558] BatchNorm1 <- Convolution1
I0818 10:49:16.145723  2412 net.cpp:509] BatchNorm1 -> Convolution1 (in-place)
I0818 10:49:16.145983  2412 net.cpp:172] Setting up BatchNorm1
I0818 10:49:16.146013  2412 net.cpp:186] Top shape: 128 16 32 32 (2097152)
I0818 10:49:16.146028  2412 net.cpp:194] Memory required for data: 18350592
I0818 10:49:16.146087  2412 layer_factory.hpp:77] Creating layer Scale1
I0818 10:49:16.146112  2412 net.cpp:128] Creating Layer Scale1
I0818 10:49:16.146134  2412 net.cpp:558] Scale1 <- Convolution1
I0818 10:49:16.146152  2412 net.cpp:509] Scale1 -> Convolution1 (in-place)
I0818 10:49:16.146219  2412 layer_factory.hpp:77] Creating layer Scale1
I0818 10:49:16.146353  2412 net.cpp:172] Setting up Scale1
I0818 10:49:16.146381  2412 net.cpp:186] Top shape: 128 16 32 32 (2097152)
I0818 10:49:16.146389  2412 net.cpp:194] Memory required for data: 26739200
I0818 10:49:16.146399  2412 layer_factory.hpp:77] Creating layer ReLU1
I0818 10:49:16.146410  2412 net.cpp:128] Creating Layer ReLU1
I0818 10:49:16.146417  2412 net.cpp:558] ReLU1 <- Convolution1
I0818 10:49:16.146423  2412 net.cpp:509] ReLU1 -> Convolution1 (in-place)
I0818 10:49:16.146658  2412 net.cpp:172] Setting up ReLU1
I0818 10:49:16.146672  2412 net.cpp:186] Top shape: 128 16 32 32 (2097152)
I0818 10:49:16.146677  2412 net.cpp:194] Memory required for data: 35127808
I0818 10:49:16.146682  2412 layer_factory.hpp:77] Creating layer Convolution1_ReLU1_0_split
I0818 10:49:16.146690  2412 net.cpp:128] Creating Layer Convolution1_ReLU1_0_split
I0818 10:49:16.146719  2412 net.cpp:558] Convolution1_ReLU1_0_split <- Convolution1
I0818 10:49:16.146741  2412 net.cpp:522] Convolution1_ReLU1_0_split -> Convolution1_ReLU1_0_split_0
I0818 10:49:16.146764  2412 net.cpp:522] Convolution1_ReLU1_0_split -> Convolution1_ReLU1_0_split_1
I0818 10:49:16.146817  2412 net.cpp:172] Setting up Convolution1_ReLU1_0_split
I0818 10:49:16.146841  2412 net.cpp:186] Top shape: 128 16 32 32 (2097152)
I0818 10:49:16.146863  2412 net.cpp:186] Top shape: 128 16 32 32 (2097152)
I0818 10:49:16.146878  2412 net.cpp:194] Memory required for data: 51905024
I0818 10:49:16.146894  2412 layer_factory.hpp:77] Creating layer Convolution2
I0818 10:49:16.146919  2412 net.cpp:128] Creating Layer Convolution2
I0818 10:49:16.146937  2412 net.cpp:558] Convolution2 <- Convolution1_ReLU1_0_split_0
I0818 10:49:16.146957  2412 net.cpp:522] Convolution2 -> Convolution2
I0818 10:49:16.151629  2412 net.cpp:172] Setting up Convolution2
I0818 10:49:16.151657  2412 net.cpp:186] Top shape: 128 16 32 32 (2097152)
I0818 10:49:16.151662  2412 net.cpp:194] Memory required for data: 60293632
I0818 10:49:16.151680  2412 layer_factory.hpp:77] Creating layer BatchNorm2
I0818 10:49:16.151690  2412 net.cpp:128] Creating Layer BatchNorm2
I0818 10:49:16.151700  2412 net.cpp:558] BatchNorm2 <- Convolution2
I0818 10:49:16.151707  2412 net.cpp:509] BatchNorm2 -> Convolution2 (in-place)
I0818 10:49:16.151926  2412 net.cpp:172] Setting up BatchNorm2
I0818 10:49:16.151937  2412 net.cpp:186] Top shape: 128 16 32 32 (2097152)
I0818 10:49:16.151942  2412 net.cpp:194] Memory required for data: 68682240
I0818 10:49:16.151952  2412 layer_factory.hpp:77] Creating layer Scale2
I0818 10:49:16.151990  2412 net.cpp:128] Creating Layer Scale2
I0818 10:49:16.152009  2412 net.cpp:558] Scale2 <- Convolution2
I0818 10:49:16.152029  2412 net.cpp:509] Scale2 -> Convolution2 (in-place)
I0818 10:49:16.152084  2412 layer_factory.hpp:77] Creating layer Scale2
I0818 10:49:16.152213  2412 net.cpp:172] Setting up Scale2
I0818 10:49:16.152223  2412 net.cpp:186] Top shape: 128 16 32 32 (2097152)
I0818 10:49:16.152228  2412 net.cpp:194] Memory required for data: 77070848
I0818 10:49:16.152236  2412 layer_factory.hpp:77] Creating layer ReLU2
I0818 10:49:16.152245  2412 net.cpp:128] Creating Layer ReLU2
I0818 10:49:16.152248  2412 net.cpp:558] ReLU2 <- Convolution2
I0818 10:49:16.152254  2412 net.cpp:509] ReLU2 -> Convolution2 (in-place)
I0818 10:49:16.153692  2412 net.cpp:172] Setting up ReLU2
I0818 10:49:16.153708  2412 net.cpp:186] Top shape: 128 16 32 32 (2097152)
I0818 10:49:16.153712  2412 net.cpp:194] Memory required for data: 85459456
I0818 10:49:16.153718  2412 layer_factory.hpp:77] Creating layer Convolution3
I0818 10:49:16.153734  2412 net.cpp:128] Creating Layer Convolution3
I0818 10:49:16.153739  2412 net.cpp:558] Convolution3 <- Convolution2
I0818 10:49:16.153792  2412 net.cpp:522] Convolution3 -> Convolution3
I0818 10:49:16.160336  2412 net.cpp:172] Setting up Convolution3
I0818 10:49:16.160363  2412 net.cpp:186] Top shape: 128 16 32 32 (2097152)
I0818 10:49:16.160367  2412 net.cpp:194] Memory required for data: 93848064
I0818 10:49:16.160377  2412 layer_factory.hpp:77] Creating layer BatchNorm3
I0818 10:49:16.160387  2412 net.cpp:128] Creating Layer BatchNorm3
I0818 10:49:16.160392  2412 net.cpp:558] BatchNorm3 <- Convolution3
I0818 10:49:16.160400  2412 net.cpp:509] BatchNorm3 -> Convolution3 (in-place)
I0818 10:49:16.160627  2412 net.cpp:172] Setting up BatchNorm3
I0818 10:49:16.160640  2412 net.cpp:186] Top shape: 128 16 32 32 (2097152)
I0818 10:49:16.160645  2412 net.cpp:194] Memory required for data: 102236672
I0818 10:49:16.160658  2412 layer_factory.hpp:77] Creating layer Scale3
I0818 10:49:16.160667  2412 net.cpp:128] Creating Layer Scale3
I0818 10:49:16.160671  2412 net.cpp:558] Scale3 <- Convolution3
I0818 10:49:16.160677  2412 net.cpp:509] Scale3 -> Convolution3 (in-place)
I0818 10:49:16.160714  2412 layer_factory.hpp:77] Creating layer Scale3
I0818 10:49:16.160848  2412 net.cpp:172] Setting up Scale3
I0818 10:49:16.160859  2412 net.cpp:186] Top shape: 128 16 32 32 (2097152)
I0818 10:49:16.160863  2412 net.cpp:194] Memory required for data: 110625280
I0818 10:49:16.160871  2412 layer_factory.hpp:77] Creating layer Eltwise1
I0818 10:49:16.160881  2412 net.cpp:128] Creating Layer Eltwise1
I0818 10:49:16.160886  2412 net.cpp:558] Eltwise1 <- Convolution1_ReLU1_0_split_1
I0818 10:49:16.160890  2412 net.cpp:558] Eltwise1 <- Convolution3
I0818 10:49:16.160897  2412 net.cpp:522] Eltwise1 -> Eltwise1
I0818 10:49:16.160928  2412 net.cpp:172] Setting up Eltwise1
I0818 10:49:16.160939  2412 net.cpp:186] Top shape: 128 16 32 32 (2097152)
I0818 10:49:16.160944  2412 net.cpp:194] Memory required for data: 119013888
I0818 10:49:16.160948  2412 layer_factory.hpp:77] Creating layer ReLU3
I0818 10:49:16.160954  2412 net.cpp:128] Creating Layer ReLU3
I0818 10:49:16.160959  2412 net.cpp:558] ReLU3 <- Eltwise1
I0818 10:49:16.160964  2412 net.cpp:509] ReLU3 -> Eltwise1 (in-place)
I0818 10:49:16.162441  2412 net.cpp:172] Setting up ReLU3
I0818 10:49:16.162466  2412 net.cpp:186] Top shape: 128 16 32 32 (2097152)
I0818 10:49:16.162470  2412 net.cpp:194] Memory required for data: 127402496
I0818 10:49:16.162475  2412 layer_factory.hpp:77] Creating layer Eltwise1_ReLU3_0_split
I0818 10:49:16.162485  2412 net.cpp:128] Creating Layer Eltwise1_ReLU3_0_split
I0818 10:49:16.162490  2412 net.cpp:558] Eltwise1_ReLU3_0_split <- Eltwise1
I0818 10:49:16.162497  2412 net.cpp:522] Eltwise1_ReLU3_0_split -> Eltwise1_ReLU3_0_split_0
I0818 10:49:16.162510  2412 net.cpp:522] Eltwise1_ReLU3_0_split -> Eltwise1_ReLU3_0_split_1
I0818 10:49:16.162557  2412 net.cpp:172] Setting up Eltwise1_ReLU3_0_split
I0818 10:49:16.162565  2412 net.cpp:186] Top shape: 128 16 32 32 (2097152)
I0818 10:49:16.162571  2412 net.cpp:186] Top shape: 128 16 32 32 (2097152)
I0818 10:49:16.162575  2412 net.cpp:194] Memory required for data: 144179712
I0818 10:49:16.162580  2412 layer_factory.hpp:77] Creating layer Convolution4
I0818 10:49:16.162593  2412 net.cpp:128] Creating Layer Convolution4
I0818 10:49:16.162597  2412 net.cpp:558] Convolution4 <- Eltwise1_ReLU3_0_split_0
I0818 10:49:16.162606  2412 net.cpp:522] Convolution4 -> Convolution4
I0818 10:49:16.169075  2412 net.cpp:172] Setting up Convolution4
I0818 10:49:16.169102  2412 net.cpp:186] Top shape: 128 16 32 32 (2097152)
I0818 10:49:16.169106  2412 net.cpp:194] Memory required for data: 152568320
I0818 10:49:16.169116  2412 layer_factory.hpp:77] Creating layer BatchNorm4
I0818 10:49:16.169126  2412 net.cpp:128] Creating Layer BatchNorm4
I0818 10:49:16.169131  2412 net.cpp:558] BatchNorm4 <- Convolution4
I0818 10:49:16.169138  2412 net.cpp:509] BatchNorm4 -> Convolution4 (in-place)
I0818 10:49:16.169373  2412 net.cpp:172] Setting up BatchNorm4
I0818 10:49:16.169387  2412 net.cpp:186] Top shape: 128 16 32 32 (2097152)
I0818 10:49:16.169391  2412 net.cpp:194] Memory required for data: 160956928
I0818 10:49:16.169418  2412 layer_factory.hpp:77] Creating layer Scale4
I0818 10:49:16.169426  2412 net.cpp:128] Creating Layer Scale4
I0818 10:49:16.169431  2412 net.cpp:558] Scale4 <- Convolution4
I0818 10:49:16.169437  2412 net.cpp:509] Scale4 -> Convolution4 (in-place)
I0818 10:49:16.169477  2412 layer_factory.hpp:77] Creating layer Scale4
I0818 10:49:16.169610  2412 net.cpp:172] Setting up Scale4
I0818 10:49:16.169621  2412 net.cpp:186] Top shape: 128 16 32 32 (2097152)
I0818 10:49:16.169625  2412 net.cpp:194] Memory required for data: 169345536
I0818 10:49:16.169633  2412 layer_factory.hpp:77] Creating layer ReLU4
I0818 10:49:16.169641  2412 net.cpp:128] Creating Layer ReLU4
I0818 10:49:16.169646  2412 net.cpp:558] ReLU4 <- Convolution4
I0818 10:49:16.169651  2412 net.cpp:509] ReLU4 -> Convolution4 (in-place)
I0818 10:49:16.171134  2412 net.cpp:172] Setting up ReLU4
I0818 10:49:16.171149  2412 net.cpp:186] Top shape: 128 16 32 32 (2097152)
I0818 10:49:16.171154  2412 net.cpp:194] Memory required for data: 177734144
I0818 10:49:16.171157  2412 layer_factory.hpp:77] Creating layer Convolution5
I0818 10:49:16.171170  2412 net.cpp:128] Creating Layer Convolution5
I0818 10:49:16.171175  2412 net.cpp:558] Convolution5 <- Convolution4
I0818 10:49:16.171183  2412 net.cpp:522] Convolution5 -> Convolution5
I0818 10:49:16.177824  2412 net.cpp:172] Setting up Convolution5
I0818 10:49:16.177850  2412 net.cpp:186] Top shape: 128 16 32 32 (2097152)
I0818 10:49:16.177855  2412 net.cpp:194] Memory required for data: 186122752
I0818 10:49:16.177865  2412 layer_factory.hpp:77] Creating layer BatchNorm5
I0818 10:49:16.177875  2412 net.cpp:128] Creating Layer BatchNorm5
I0818 10:49:16.177881  2412 net.cpp:558] BatchNorm5 <- Convolution5
I0818 10:49:16.177887  2412 net.cpp:509] BatchNorm5 -> Convolution5 (in-place)
I0818 10:49:16.178126  2412 net.cpp:172] Setting up BatchNorm5
I0818 10:49:16.178139  2412 net.cpp:186] Top shape: 128 16 32 32 (2097152)
I0818 10:49:16.178143  2412 net.cpp:194] Memory required for data: 194511360
I0818 10:49:16.178156  2412 layer_factory.hpp:77] Creating layer Scale5
I0818 10:49:16.178165  2412 net.cpp:128] Creating Layer Scale5
I0818 10:49:16.178169  2412 net.cpp:558] Scale5 <- Convolution5
I0818 10:49:16.178177  2412 net.cpp:509] Scale5 -> Convolution5 (in-place)
I0818 10:49:16.178215  2412 layer_factory.hpp:77] Creating layer Scale5
I0818 10:49:16.178349  2412 net.cpp:172] Setting up Scale5
I0818 10:49:16.178361  2412 net.cpp:186] Top shape: 128 16 32 32 (2097152)
I0818 10:49:16.178365  2412 net.cpp:194] Memory required for data: 202899968
I0818 10:49:16.178373  2412 layer_factory.hpp:77] Creating layer Eltwise2
I0818 10:49:16.178381  2412 net.cpp:128] Creating Layer Eltwise2
I0818 10:49:16.178386  2412 net.cpp:558] Eltwise2 <- Eltwise1_ReLU3_0_split_1
I0818 10:49:16.178391  2412 net.cpp:558] Eltwise2 <- Convolution5
I0818 10:49:16.178397  2412 net.cpp:522] Eltwise2 -> Eltwise2
I0818 10:49:16.178422  2412 net.cpp:172] Setting up Eltwise2
I0818 10:49:16.178434  2412 net.cpp:186] Top shape: 128 16 32 32 (2097152)
I0818 10:49:16.178438  2412 net.cpp:194] Memory required for data: 211288576
I0818 10:49:16.178443  2412 layer_factory.hpp:77] Creating layer ReLU5
I0818 10:49:16.178450  2412 net.cpp:128] Creating Layer ReLU5
I0818 10:49:16.178454  2412 net.cpp:558] ReLU5 <- Eltwise2
I0818 10:49:16.178460  2412 net.cpp:509] ReLU5 -> Eltwise2 (in-place)
I0818 10:49:16.179879  2412 net.cpp:172] Setting up ReLU5
I0818 10:49:16.179893  2412 net.cpp:186] Top shape: 128 16 32 32 (2097152)
I0818 10:49:16.179898  2412 net.cpp:194] Memory required for data: 219677184
I0818 10:49:16.179903  2412 layer_factory.hpp:77] Creating layer Eltwise2_ReLU5_0_split
I0818 10:49:16.179910  2412 net.cpp:128] Creating Layer Eltwise2_ReLU5_0_split
I0818 10:49:16.179915  2412 net.cpp:558] Eltwise2_ReLU5_0_split <- Eltwise2
I0818 10:49:16.179921  2412 net.cpp:522] Eltwise2_ReLU5_0_split -> Eltwise2_ReLU5_0_split_0
I0818 10:49:16.179930  2412 net.cpp:522] Eltwise2_ReLU5_0_split -> Eltwise2_ReLU5_0_split_1
I0818 10:49:16.179994  2412 net.cpp:172] Setting up Eltwise2_ReLU5_0_split
I0818 10:49:16.180007  2412 net.cpp:186] Top shape: 128 16 32 32 (2097152)
I0818 10:49:16.180014  2412 net.cpp:186] Top shape: 128 16 32 32 (2097152)
I0818 10:49:16.180018  2412 net.cpp:194] Memory required for data: 236454400
I0818 10:49:16.180022  2412 layer_factory.hpp:77] Creating layer Convolution6
I0818 10:49:16.180034  2412 net.cpp:128] Creating Layer Convolution6
I0818 10:49:16.180039  2412 net.cpp:558] Convolution6 <- Eltwise2_ReLU5_0_split_0
I0818 10:49:16.180047  2412 net.cpp:522] Convolution6 -> Convolution6
I0818 10:49:16.186588  2412 net.cpp:172] Setting up Convolution6
I0818 10:49:16.186614  2412 net.cpp:186] Top shape: 128 16 32 32 (2097152)
I0818 10:49:16.186619  2412 net.cpp:194] Memory required for data: 244843008
I0818 10:49:16.186630  2412 layer_factory.hpp:77] Creating layer BatchNorm6
I0818 10:49:16.186638  2412 net.cpp:128] Creating Layer BatchNorm6
I0818 10:49:16.186643  2412 net.cpp:558] BatchNorm6 <- Convolution6
I0818 10:49:16.186661  2412 net.cpp:509] BatchNorm6 -> Convolution6 (in-place)
I0818 10:49:16.186900  2412 net.cpp:172] Setting up BatchNorm6
I0818 10:49:16.186911  2412 net.cpp:186] Top shape: 128 16 32 32 (2097152)
I0818 10:49:16.186918  2412 net.cpp:194] Memory required for data: 253231616
I0818 10:49:16.186928  2412 layer_factory.hpp:77] Creating layer Scale6
I0818 10:49:16.186935  2412 net.cpp:128] Creating Layer Scale6
I0818 10:49:16.186939  2412 net.cpp:558] Scale6 <- Convolution6
I0818 10:49:16.186945  2412 net.cpp:509] Scale6 -> Convolution6 (in-place)
I0818 10:49:16.186983  2412 layer_factory.hpp:77] Creating layer Scale6
I0818 10:49:16.187116  2412 net.cpp:172] Setting up Scale6
I0818 10:49:16.187127  2412 net.cpp:186] Top shape: 128 16 32 32 (2097152)
I0818 10:49:16.187131  2412 net.cpp:194] Memory required for data: 261620224
I0818 10:49:16.187139  2412 layer_factory.hpp:77] Creating layer ReLU6
I0818 10:49:16.187146  2412 net.cpp:128] Creating Layer ReLU6
I0818 10:49:16.187150  2412 net.cpp:558] ReLU6 <- Convolution6
I0818 10:49:16.187156  2412 net.cpp:509] ReLU6 -> Convolution6 (in-place)
I0818 10:49:16.188681  2412 net.cpp:172] Setting up ReLU6
I0818 10:49:16.188706  2412 net.cpp:186] Top shape: 128 16 32 32 (2097152)
I0818 10:49:16.188711  2412 net.cpp:194] Memory required for data: 270008832
I0818 10:49:16.188716  2412 layer_factory.hpp:77] Creating layer Convolution7
I0818 10:49:16.188730  2412 net.cpp:128] Creating Layer Convolution7
I0818 10:49:16.188735  2412 net.cpp:558] Convolution7 <- Convolution6
I0818 10:49:16.188747  2412 net.cpp:522] Convolution7 -> Convolution7
I0818 10:49:16.195405  2412 net.cpp:172] Setting up Convolution7
I0818 10:49:16.195431  2412 net.cpp:186] Top shape: 128 16 32 32 (2097152)
I0818 10:49:16.195436  2412 net.cpp:194] Memory required for data: 278397440
I0818 10:49:16.195446  2412 layer_factory.hpp:77] Creating layer BatchNorm7
I0818 10:49:16.195456  2412 net.cpp:128] Creating Layer BatchNorm7
I0818 10:49:16.195461  2412 net.cpp:558] BatchNorm7 <- Convolution7
I0818 10:49:16.195468  2412 net.cpp:509] BatchNorm7 -> Convolution7 (in-place)
I0818 10:49:16.195719  2412 net.cpp:172] Setting up BatchNorm7
I0818 10:49:16.195729  2412 net.cpp:186] Top shape: 128 16 32 32 (2097152)
I0818 10:49:16.195735  2412 net.cpp:194] Memory required for data: 286786048
I0818 10:49:16.195745  2412 layer_factory.hpp:77] Creating layer Scale7
I0818 10:49:16.195755  2412 net.cpp:128] Creating Layer Scale7
I0818 10:49:16.195760  2412 net.cpp:558] Scale7 <- Convolution7
I0818 10:49:16.195765  2412 net.cpp:509] Scale7 -> Convolution7 (in-place)
I0818 10:49:16.195804  2412 layer_factory.hpp:77] Creating layer Scale7
I0818 10:49:16.195940  2412 net.cpp:172] Setting up Scale7
I0818 10:49:16.195951  2412 net.cpp:186] Top shape: 128 16 32 32 (2097152)
I0818 10:49:16.195956  2412 net.cpp:194] Memory required for data: 295174656
I0818 10:49:16.195964  2412 layer_factory.hpp:77] Creating layer Eltwise3
I0818 10:49:16.195972  2412 net.cpp:128] Creating Layer Eltwise3
I0818 10:49:16.195977  2412 net.cpp:558] Eltwise3 <- Eltwise2_ReLU5_0_split_1
I0818 10:49:16.196000  2412 net.cpp:558] Eltwise3 <- Convolution7
I0818 10:49:16.196007  2412 net.cpp:522] Eltwise3 -> Eltwise3
I0818 10:49:16.196033  2412 net.cpp:172] Setting up Eltwise3
I0818 10:49:16.196048  2412 net.cpp:186] Top shape: 128 16 32 32 (2097152)
I0818 10:49:16.196051  2412 net.cpp:194] Memory required for data: 303563264
I0818 10:49:16.196055  2412 layer_factory.hpp:77] Creating layer ReLU7
I0818 10:49:16.196063  2412 net.cpp:128] Creating Layer ReLU7
I0818 10:49:16.196066  2412 net.cpp:558] ReLU7 <- Eltwise3
I0818 10:49:16.196072  2412 net.cpp:509] ReLU7 -> Eltwise3 (in-place)
I0818 10:49:16.197451  2412 net.cpp:172] Setting up ReLU7
I0818 10:49:16.197463  2412 net.cpp:186] Top shape: 128 16 32 32 (2097152)
I0818 10:49:16.197470  2412 net.cpp:194] Memory required for data: 311951872
I0818 10:49:16.197474  2412 layer_factory.hpp:77] Creating layer Eltwise3_ReLU7_0_split
I0818 10:49:16.197481  2412 net.cpp:128] Creating Layer Eltwise3_ReLU7_0_split
I0818 10:49:16.197485  2412 net.cpp:558] Eltwise3_ReLU7_0_split <- Eltwise3
I0818 10:49:16.197494  2412 net.cpp:522] Eltwise3_ReLU7_0_split -> Eltwise3_ReLU7_0_split_0
I0818 10:49:16.197501  2412 net.cpp:522] Eltwise3_ReLU7_0_split -> Eltwise3_ReLU7_0_split_1
I0818 10:49:16.197546  2412 net.cpp:172] Setting up Eltwise3_ReLU7_0_split
I0818 10:49:16.197554  2412 net.cpp:186] Top shape: 128 16 32 32 (2097152)
I0818 10:49:16.197559  2412 net.cpp:186] Top shape: 128 16 32 32 (2097152)
I0818 10:49:16.197563  2412 net.cpp:194] Memory required for data: 328729088
I0818 10:49:16.197567  2412 layer_factory.hpp:77] Creating layer Convolution8
I0818 10:49:16.197578  2412 net.cpp:128] Creating Layer Convolution8
I0818 10:49:16.197583  2412 net.cpp:558] Convolution8 <- Eltwise3_ReLU7_0_split_0
I0818 10:49:16.197592  2412 net.cpp:522] Convolution8 -> Convolution8
I0818 10:49:16.204177  2412 net.cpp:172] Setting up Convolution8
I0818 10:49:16.204205  2412 net.cpp:186] Top shape: 128 16 32 32 (2097152)
I0818 10:49:16.204208  2412 net.cpp:194] Memory required for data: 337117696
I0818 10:49:16.204218  2412 layer_factory.hpp:77] Creating layer BatchNorm8
I0818 10:49:16.204228  2412 net.cpp:128] Creating Layer BatchNorm8
I0818 10:49:16.204233  2412 net.cpp:558] BatchNorm8 <- Convolution8
I0818 10:49:16.204241  2412 net.cpp:509] BatchNorm8 -> Convolution8 (in-place)
I0818 10:49:16.204486  2412 net.cpp:172] Setting up BatchNorm8
I0818 10:49:16.204494  2412 net.cpp:186] Top shape: 128 16 32 32 (2097152)
I0818 10:49:16.204499  2412 net.cpp:194] Memory required for data: 345506304
I0818 10:49:16.204509  2412 layer_factory.hpp:77] Creating layer Scale8
I0818 10:49:16.204515  2412 net.cpp:128] Creating Layer Scale8
I0818 10:49:16.204520  2412 net.cpp:558] Scale8 <- Convolution8
I0818 10:49:16.204526  2412 net.cpp:509] Scale8 -> Convolution8 (in-place)
I0818 10:49:16.204566  2412 layer_factory.hpp:77] Creating layer Scale8
I0818 10:49:16.204696  2412 net.cpp:172] Setting up Scale8
I0818 10:49:16.204704  2412 net.cpp:186] Top shape: 128 16 32 32 (2097152)
I0818 10:49:16.204708  2412 net.cpp:194] Memory required for data: 353894912
I0818 10:49:16.204716  2412 layer_factory.hpp:77] Creating layer ReLU8
I0818 10:49:16.204723  2412 net.cpp:128] Creating Layer ReLU8
I0818 10:49:16.204727  2412 net.cpp:558] ReLU8 <- Convolution8
I0818 10:49:16.204735  2412 net.cpp:509] ReLU8 -> Convolution8 (in-place)
I0818 10:49:16.206271  2412 net.cpp:172] Setting up ReLU8
I0818 10:49:16.206290  2412 net.cpp:186] Top shape: 128 16 32 32 (2097152)
I0818 10:49:16.206293  2412 net.cpp:194] Memory required for data: 362283520
I0818 10:49:16.206298  2412 layer_factory.hpp:77] Creating layer Convolution9
I0818 10:49:16.206310  2412 net.cpp:128] Creating Layer Convolution9
I0818 10:49:16.206315  2412 net.cpp:558] Convolution9 <- Convolution8
I0818 10:49:16.206321  2412 net.cpp:522] Convolution9 -> Convolution9
I0818 10:49:16.212940  2412 net.cpp:172] Setting up Convolution9
I0818 10:49:16.212966  2412 net.cpp:186] Top shape: 128 16 32 32 (2097152)
I0818 10:49:16.212990  2412 net.cpp:194] Memory required for data: 370672128
I0818 10:49:16.213001  2412 layer_factory.hpp:77] Creating layer BatchNorm9
I0818 10:49:16.213014  2412 net.cpp:128] Creating Layer BatchNorm9
I0818 10:49:16.213019  2412 net.cpp:558] BatchNorm9 <- Convolution9
I0818 10:49:16.213026  2412 net.cpp:509] BatchNorm9 -> Convolution9 (in-place)
I0818 10:49:16.213268  2412 net.cpp:172] Setting up BatchNorm9
I0818 10:49:16.213279  2412 net.cpp:186] Top shape: 128 16 32 32 (2097152)
I0818 10:49:16.213284  2412 net.cpp:194] Memory required for data: 379060736
I0818 10:49:16.213294  2412 layer_factory.hpp:77] Creating layer Scale9
I0818 10:49:16.213302  2412 net.cpp:128] Creating Layer Scale9
I0818 10:49:16.213306  2412 net.cpp:558] Scale9 <- Convolution9
I0818 10:49:16.213312  2412 net.cpp:509] Scale9 -> Convolution9 (in-place)
I0818 10:49:16.213351  2412 layer_factory.hpp:77] Creating layer Scale9
I0818 10:49:16.213484  2412 net.cpp:172] Setting up Scale9
I0818 10:49:16.213496  2412 net.cpp:186] Top shape: 128 16 32 32 (2097152)
I0818 10:49:16.213500  2412 net.cpp:194] Memory required for data: 387449344
I0818 10:49:16.213508  2412 layer_factory.hpp:77] Creating layer Eltwise4
I0818 10:49:16.213516  2412 net.cpp:128] Creating Layer Eltwise4
I0818 10:49:16.213521  2412 net.cpp:558] Eltwise4 <- Eltwise3_ReLU7_0_split_1
I0818 10:49:16.213526  2412 net.cpp:558] Eltwise4 <- Convolution9
I0818 10:49:16.213531  2412 net.cpp:522] Eltwise4 -> Eltwise4
I0818 10:49:16.213557  2412 net.cpp:172] Setting up Eltwise4
I0818 10:49:16.213564  2412 net.cpp:186] Top shape: 128 16 32 32 (2097152)
I0818 10:49:16.213568  2412 net.cpp:194] Memory required for data: 395837952
I0818 10:49:16.213572  2412 layer_factory.hpp:77] Creating layer ReLU9
I0818 10:49:16.213579  2412 net.cpp:128] Creating Layer ReLU9
I0818 10:49:16.213583  2412 net.cpp:558] ReLU9 <- Eltwise4
I0818 10:49:16.213589  2412 net.cpp:509] ReLU9 -> Eltwise4 (in-place)
I0818 10:49:16.215028  2412 net.cpp:172] Setting up ReLU9
I0818 10:49:16.215042  2412 net.cpp:186] Top shape: 128 16 32 32 (2097152)
I0818 10:49:16.215047  2412 net.cpp:194] Memory required for data: 404226560
I0818 10:49:16.215051  2412 layer_factory.hpp:77] Creating layer Eltwise4_ReLU9_0_split
I0818 10:49:16.215059  2412 net.cpp:128] Creating Layer Eltwise4_ReLU9_0_split
I0818 10:49:16.215064  2412 net.cpp:558] Eltwise4_ReLU9_0_split <- Eltwise4
I0818 10:49:16.215070  2412 net.cpp:522] Eltwise4_ReLU9_0_split -> Eltwise4_ReLU9_0_split_0
I0818 10:49:16.215080  2412 net.cpp:522] Eltwise4_ReLU9_0_split -> Eltwise4_ReLU9_0_split_1
I0818 10:49:16.215126  2412 net.cpp:172] Setting up Eltwise4_ReLU9_0_split
I0818 10:49:16.215133  2412 net.cpp:186] Top shape: 128 16 32 32 (2097152)
I0818 10:49:16.215139  2412 net.cpp:186] Top shape: 128 16 32 32 (2097152)
I0818 10:49:16.215143  2412 net.cpp:194] Memory required for data: 421003776
I0818 10:49:16.215147  2412 layer_factory.hpp:77] Creating layer Convolution10
I0818 10:49:16.215158  2412 net.cpp:128] Creating Layer Convolution10
I0818 10:49:16.215162  2412 net.cpp:558] Convolution10 <- Eltwise4_ReLU9_0_split_0
I0818 10:49:16.215170  2412 net.cpp:522] Convolution10 -> Convolution10
I0818 10:49:16.221709  2412 net.cpp:172] Setting up Convolution10
I0818 10:49:16.221735  2412 net.cpp:186] Top shape: 128 16 32 32 (2097152)
I0818 10:49:16.221740  2412 net.cpp:194] Memory required for data: 429392384
I0818 10:49:16.221755  2412 layer_factory.hpp:77] Creating layer BatchNorm10
I0818 10:49:16.221765  2412 net.cpp:128] Creating Layer BatchNorm10
I0818 10:49:16.221771  2412 net.cpp:558] BatchNorm10 <- Convolution10
I0818 10:49:16.221782  2412 net.cpp:509] BatchNorm10 -> Convolution10 (in-place)
I0818 10:49:16.222026  2412 net.cpp:172] Setting up BatchNorm10
I0818 10:49:16.222039  2412 net.cpp:186] Top shape: 128 16 32 32 (2097152)
I0818 10:49:16.222043  2412 net.cpp:194] Memory required for data: 437780992
I0818 10:49:16.222054  2412 layer_factory.hpp:77] Creating layer Scale10
I0818 10:49:16.222061  2412 net.cpp:128] Creating Layer Scale10
I0818 10:49:16.222065  2412 net.cpp:558] Scale10 <- Convolution10
I0818 10:49:16.222090  2412 net.cpp:509] Scale10 -> Convolution10 (in-place)
I0818 10:49:16.222128  2412 layer_factory.hpp:77] Creating layer Scale10
I0818 10:49:16.222263  2412 net.cpp:172] Setting up Scale10
I0818 10:49:16.222272  2412 net.cpp:186] Top shape: 128 16 32 32 (2097152)
I0818 10:49:16.222276  2412 net.cpp:194] Memory required for data: 446169600
I0818 10:49:16.222285  2412 layer_factory.hpp:77] Creating layer ReLU10
I0818 10:49:16.222291  2412 net.cpp:128] Creating Layer ReLU10
I0818 10:49:16.222295  2412 net.cpp:558] ReLU10 <- Convolution10
I0818 10:49:16.222301  2412 net.cpp:509] ReLU10 -> Convolution10 (in-place)
I0818 10:49:16.223798  2412 net.cpp:172] Setting up ReLU10
I0818 10:49:16.223824  2412 net.cpp:186] Top shape: 128 16 32 32 (2097152)
I0818 10:49:16.223829  2412 net.cpp:194] Memory required for data: 454558208
I0818 10:49:16.223834  2412 layer_factory.hpp:77] Creating layer Convolution11
I0818 10:49:16.223847  2412 net.cpp:128] Creating Layer Convolution11
I0818 10:49:16.223853  2412 net.cpp:558] Convolution11 <- Convolution10
I0818 10:49:16.223861  2412 net.cpp:522] Convolution11 -> Convolution11
I0818 10:49:16.230556  2412 net.cpp:172] Setting up Convolution11
I0818 10:49:16.230584  2412 net.cpp:186] Top shape: 128 16 32 32 (2097152)
I0818 10:49:16.230588  2412 net.cpp:194] Memory required for data: 462946816
I0818 10:49:16.230598  2412 layer_factory.hpp:77] Creating layer BatchNorm11
I0818 10:49:16.230607  2412 net.cpp:128] Creating Layer BatchNorm11
I0818 10:49:16.230612  2412 net.cpp:558] BatchNorm11 <- Convolution11
I0818 10:49:16.230621  2412 net.cpp:509] BatchNorm11 -> Convolution11 (in-place)
I0818 10:49:16.230888  2412 net.cpp:172] Setting up BatchNorm11
I0818 10:49:16.230901  2412 net.cpp:186] Top shape: 128 16 32 32 (2097152)
I0818 10:49:16.230906  2412 net.cpp:194] Memory required for data: 471335424
I0818 10:49:16.230916  2412 layer_factory.hpp:77] Creating layer Scale11
I0818 10:49:16.230922  2412 net.cpp:128] Creating Layer Scale11
I0818 10:49:16.230927  2412 net.cpp:558] Scale11 <- Convolution11
I0818 10:49:16.230935  2412 net.cpp:509] Scale11 -> Convolution11 (in-place)
I0818 10:49:16.230974  2412 layer_factory.hpp:77] Creating layer Scale11
I0818 10:49:16.231113  2412 net.cpp:172] Setting up Scale11
I0818 10:49:16.231122  2412 net.cpp:186] Top shape: 128 16 32 32 (2097152)
I0818 10:49:16.231125  2412 net.cpp:194] Memory required for data: 479724032
I0818 10:49:16.231132  2412 layer_factory.hpp:77] Creating layer Eltwise5
I0818 10:49:16.231142  2412 net.cpp:128] Creating Layer Eltwise5
I0818 10:49:16.231148  2412 net.cpp:558] Eltwise5 <- Eltwise4_ReLU9_0_split_1
I0818 10:49:16.231153  2412 net.cpp:558] Eltwise5 <- Convolution11
I0818 10:49:16.231158  2412 net.cpp:522] Eltwise5 -> Eltwise5
I0818 10:49:16.231185  2412 net.cpp:172] Setting up Eltwise5
I0818 10:49:16.231192  2412 net.cpp:186] Top shape: 128 16 32 32 (2097152)
I0818 10:49:16.231195  2412 net.cpp:194] Memory required for data: 488112640
I0818 10:49:16.231200  2412 layer_factory.hpp:77] Creating layer ReLU11
I0818 10:49:16.231206  2412 net.cpp:128] Creating Layer ReLU11
I0818 10:49:16.231210  2412 net.cpp:558] ReLU11 <- Eltwise5
I0818 10:49:16.231218  2412 net.cpp:509] ReLU11 -> Eltwise5 (in-place)
I0818 10:49:16.232607  2412 net.cpp:172] Setting up ReLU11
I0818 10:49:16.232625  2412 net.cpp:186] Top shape: 128 16 32 32 (2097152)
I0818 10:49:16.232630  2412 net.cpp:194] Memory required for data: 496501248
I0818 10:49:16.232633  2412 layer_factory.hpp:77] Creating layer Eltwise5_ReLU11_0_split
I0818 10:49:16.232641  2412 net.cpp:128] Creating Layer Eltwise5_ReLU11_0_split
I0818 10:49:16.232646  2412 net.cpp:558] Eltwise5_ReLU11_0_split <- Eltwise5
I0818 10:49:16.232656  2412 net.cpp:522] Eltwise5_ReLU11_0_split -> Eltwise5_ReLU11_0_split_0
I0818 10:49:16.232664  2412 net.cpp:522] Eltwise5_ReLU11_0_split -> Eltwise5_ReLU11_0_split_1
I0818 10:49:16.232714  2412 net.cpp:172] Setting up Eltwise5_ReLU11_0_split
I0818 10:49:16.232722  2412 net.cpp:186] Top shape: 128 16 32 32 (2097152)
I0818 10:49:16.232743  2412 net.cpp:186] Top shape: 128 16 32 32 (2097152)
I0818 10:49:16.232748  2412 net.cpp:194] Memory required for data: 513278464
I0818 10:49:16.232751  2412 layer_factory.hpp:77] Creating layer Convolution12
I0818 10:49:16.232764  2412 net.cpp:128] Creating Layer Convolution12
I0818 10:49:16.232769  2412 net.cpp:558] Convolution12 <- Eltwise5_ReLU11_0_split_0
I0818 10:49:16.232779  2412 net.cpp:522] Convolution12 -> Convolution12
I0818 10:49:16.239302  2412 net.cpp:172] Setting up Convolution12
I0818 10:49:16.239331  2412 net.cpp:186] Top shape: 128 16 32 32 (2097152)
I0818 10:49:16.239336  2412 net.cpp:194] Memory required for data: 521667072
I0818 10:49:16.239346  2412 layer_factory.hpp:77] Creating layer BatchNorm12
I0818 10:49:16.239354  2412 net.cpp:128] Creating Layer BatchNorm12
I0818 10:49:16.239359  2412 net.cpp:558] BatchNorm12 <- Convolution12
I0818 10:49:16.239368  2412 net.cpp:509] BatchNorm12 -> Convolution12 (in-place)
I0818 10:49:16.239621  2412 net.cpp:172] Setting up BatchNorm12
I0818 10:49:16.239634  2412 net.cpp:186] Top shape: 128 16 32 32 (2097152)
I0818 10:49:16.239637  2412 net.cpp:194] Memory required for data: 530055680
I0818 10:49:16.239647  2412 layer_factory.hpp:77] Creating layer Scale12
I0818 10:49:16.239655  2412 net.cpp:128] Creating Layer Scale12
I0818 10:49:16.239658  2412 net.cpp:558] Scale12 <- Convolution12
I0818 10:49:16.239666  2412 net.cpp:509] Scale12 -> Convolution12 (in-place)
I0818 10:49:16.239704  2412 layer_factory.hpp:77] Creating layer Scale12
I0818 10:49:16.239846  2412 net.cpp:172] Setting up Scale12
I0818 10:49:16.239854  2412 net.cpp:186] Top shape: 128 16 32 32 (2097152)
I0818 10:49:16.239858  2412 net.cpp:194] Memory required for data: 538444288
I0818 10:49:16.239866  2412 layer_factory.hpp:77] Creating layer ReLU12
I0818 10:49:16.239872  2412 net.cpp:128] Creating Layer ReLU12
I0818 10:49:16.239876  2412 net.cpp:558] ReLU12 <- Convolution12
I0818 10:49:16.239884  2412 net.cpp:509] ReLU12 -> Convolution12 (in-place)
I0818 10:49:16.241380  2412 net.cpp:172] Setting up ReLU12
I0818 10:49:16.241399  2412 net.cpp:186] Top shape: 128 16 32 32 (2097152)
I0818 10:49:16.241402  2412 net.cpp:194] Memory required for data: 546832896
I0818 10:49:16.241406  2412 layer_factory.hpp:77] Creating layer Convolution13
I0818 10:49:16.241420  2412 net.cpp:128] Creating Layer Convolution13
I0818 10:49:16.241425  2412 net.cpp:558] Convolution13 <- Convolution12
I0818 10:49:16.241433  2412 net.cpp:522] Convolution13 -> Convolution13
I0818 10:49:16.248073  2412 net.cpp:172] Setting up Convolution13
I0818 10:49:16.248100  2412 net.cpp:186] Top shape: 128 16 32 32 (2097152)
I0818 10:49:16.248105  2412 net.cpp:194] Memory required for data: 555221504
I0818 10:49:16.248114  2412 layer_factory.hpp:77] Creating layer BatchNorm13
I0818 10:49:16.248126  2412 net.cpp:128] Creating Layer BatchNorm13
I0818 10:49:16.248133  2412 net.cpp:558] BatchNorm13 <- Convolution13
I0818 10:49:16.248139  2412 net.cpp:509] BatchNorm13 -> Convolution13 (in-place)
I0818 10:49:16.248394  2412 net.cpp:172] Setting up BatchNorm13
I0818 10:49:16.248405  2412 net.cpp:186] Top shape: 128 16 32 32 (2097152)
I0818 10:49:16.248409  2412 net.cpp:194] Memory required for data: 563610112
I0818 10:49:16.248420  2412 layer_factory.hpp:77] Creating layer Scale13
I0818 10:49:16.248427  2412 net.cpp:128] Creating Layer Scale13
I0818 10:49:16.248431  2412 net.cpp:558] Scale13 <- Convolution13
I0818 10:49:16.248436  2412 net.cpp:509] Scale13 -> Convolution13 (in-place)
I0818 10:49:16.248478  2412 layer_factory.hpp:77] Creating layer Scale13
I0818 10:49:16.248620  2412 net.cpp:172] Setting up Scale13
I0818 10:49:16.248628  2412 net.cpp:186] Top shape: 128 16 32 32 (2097152)
I0818 10:49:16.248632  2412 net.cpp:194] Memory required for data: 571998720
I0818 10:49:16.248639  2412 layer_factory.hpp:77] Creating layer Eltwise6
I0818 10:49:16.248649  2412 net.cpp:128] Creating Layer Eltwise6
I0818 10:49:16.248656  2412 net.cpp:558] Eltwise6 <- Eltwise5_ReLU11_0_split_1
I0818 10:49:16.248661  2412 net.cpp:558] Eltwise6 <- Convolution13
I0818 10:49:16.248682  2412 net.cpp:522] Eltwise6 -> Eltwise6
I0818 10:49:16.248714  2412 net.cpp:172] Setting up Eltwise6
I0818 10:49:16.248723  2412 net.cpp:186] Top shape: 128 16 32 32 (2097152)
I0818 10:49:16.248726  2412 net.cpp:194] Memory required for data: 580387328
I0818 10:49:16.248731  2412 layer_factory.hpp:77] Creating layer ReLU13
I0818 10:49:16.248741  2412 net.cpp:128] Creating Layer ReLU13
I0818 10:49:16.248745  2412 net.cpp:558] ReLU13 <- Eltwise6
I0818 10:49:16.248751  2412 net.cpp:509] ReLU13 -> Eltwise6 (in-place)
I0818 10:49:16.250149  2412 net.cpp:172] Setting up ReLU13
I0818 10:49:16.250174  2412 net.cpp:186] Top shape: 128 16 32 32 (2097152)
I0818 10:49:16.250180  2412 net.cpp:194] Memory required for data: 588775936
I0818 10:49:16.250185  2412 layer_factory.hpp:77] Creating layer Eltwise6_ReLU13_0_split
I0818 10:49:16.250196  2412 net.cpp:128] Creating Layer Eltwise6_ReLU13_0_split
I0818 10:49:16.250201  2412 net.cpp:558] Eltwise6_ReLU13_0_split <- Eltwise6
I0818 10:49:16.250208  2412 net.cpp:522] Eltwise6_ReLU13_0_split -> Eltwise6_ReLU13_0_split_0
I0818 10:49:16.250222  2412 net.cpp:522] Eltwise6_ReLU13_0_split -> Eltwise6_ReLU13_0_split_1
I0818 10:49:16.250274  2412 net.cpp:172] Setting up Eltwise6_ReLU13_0_split
I0818 10:49:16.250283  2412 net.cpp:186] Top shape: 128 16 32 32 (2097152)
I0818 10:49:16.250288  2412 net.cpp:186] Top shape: 128 16 32 32 (2097152)
I0818 10:49:16.250291  2412 net.cpp:194] Memory required for data: 605553152
I0818 10:49:16.250295  2412 layer_factory.hpp:77] Creating layer Convolution14
I0818 10:49:16.250309  2412 net.cpp:128] Creating Layer Convolution14
I0818 10:49:16.250314  2412 net.cpp:558] Convolution14 <- Eltwise6_ReLU13_0_split_0
I0818 10:49:16.250321  2412 net.cpp:522] Convolution14 -> Convolution14
I0818 10:49:16.256884  2412 net.cpp:172] Setting up Convolution14
I0818 10:49:16.256911  2412 net.cpp:186] Top shape: 128 16 32 32 (2097152)
I0818 10:49:16.256916  2412 net.cpp:194] Memory required for data: 613941760
I0818 10:49:16.256927  2412 layer_factory.hpp:77] Creating layer BatchNorm14
I0818 10:49:16.256937  2412 net.cpp:128] Creating Layer BatchNorm14
I0818 10:49:16.256942  2412 net.cpp:558] BatchNorm14 <- Convolution14
I0818 10:49:16.256949  2412 net.cpp:509] BatchNorm14 -> Convolution14 (in-place)
I0818 10:49:16.257206  2412 net.cpp:172] Setting up BatchNorm14
I0818 10:49:16.257218  2412 net.cpp:186] Top shape: 128 16 32 32 (2097152)
I0818 10:49:16.257223  2412 net.cpp:194] Memory required for data: 622330368
I0818 10:49:16.257233  2412 layer_factory.hpp:77] Creating layer Scale14
I0818 10:49:16.257242  2412 net.cpp:128] Creating Layer Scale14
I0818 10:49:16.257247  2412 net.cpp:558] Scale14 <- Convolution14
I0818 10:49:16.257253  2412 net.cpp:509] Scale14 -> Convolution14 (in-place)
I0818 10:49:16.257292  2412 layer_factory.hpp:77] Creating layer Scale14
I0818 10:49:16.257432  2412 net.cpp:172] Setting up Scale14
I0818 10:49:16.257443  2412 net.cpp:186] Top shape: 128 16 32 32 (2097152)
I0818 10:49:16.257447  2412 net.cpp:194] Memory required for data: 630718976
I0818 10:49:16.257455  2412 layer_factory.hpp:77] Creating layer ReLU14
I0818 10:49:16.257462  2412 net.cpp:128] Creating Layer ReLU14
I0818 10:49:16.257467  2412 net.cpp:558] ReLU14 <- Convolution14
I0818 10:49:16.257472  2412 net.cpp:509] ReLU14 -> Convolution14 (in-place)
I0818 10:49:16.258919  2412 net.cpp:172] Setting up ReLU14
I0818 10:49:16.258934  2412 net.cpp:186] Top shape: 128 16 32 32 (2097152)
I0818 10:49:16.258939  2412 net.cpp:194] Memory required for data: 639107584
I0818 10:49:16.258946  2412 layer_factory.hpp:77] Creating layer Convolution15
I0818 10:49:16.258958  2412 net.cpp:128] Creating Layer Convolution15
I0818 10:49:16.258963  2412 net.cpp:558] Convolution15 <- Convolution14
I0818 10:49:16.258975  2412 net.cpp:522] Convolution15 -> Convolution15
I0818 10:49:16.265655  2412 net.cpp:172] Setting up Convolution15
I0818 10:49:16.265681  2412 net.cpp:186] Top shape: 128 16 32 32 (2097152)
I0818 10:49:16.265684  2412 net.cpp:194] Memory required for data: 647496192
I0818 10:49:16.265710  2412 layer_factory.hpp:77] Creating layer BatchNorm15
I0818 10:49:16.265722  2412 net.cpp:128] Creating Layer BatchNorm15
I0818 10:49:16.265729  2412 net.cpp:558] BatchNorm15 <- Convolution15
I0818 10:49:16.265738  2412 net.cpp:509] BatchNorm15 -> Convolution15 (in-place)
I0818 10:49:16.265996  2412 net.cpp:172] Setting up BatchNorm15
I0818 10:49:16.266010  2412 net.cpp:186] Top shape: 128 16 32 32 (2097152)
I0818 10:49:16.266014  2412 net.cpp:194] Memory required for data: 655884800
I0818 10:49:16.266024  2412 layer_factory.hpp:77] Creating layer Scale15
I0818 10:49:16.266031  2412 net.cpp:128] Creating Layer Scale15
I0818 10:49:16.266036  2412 net.cpp:558] Scale15 <- Convolution15
I0818 10:49:16.266041  2412 net.cpp:509] Scale15 -> Convolution15 (in-place)
I0818 10:49:16.266083  2412 layer_factory.hpp:77] Creating layer Scale15
I0818 10:49:16.266218  2412 net.cpp:172] Setting up Scale15
I0818 10:49:16.266227  2412 net.cpp:186] Top shape: 128 16 32 32 (2097152)
I0818 10:49:16.266230  2412 net.cpp:194] Memory required for data: 664273408
I0818 10:49:16.266238  2412 layer_factory.hpp:77] Creating layer Eltwise7
I0818 10:49:16.266245  2412 net.cpp:128] Creating Layer Eltwise7
I0818 10:49:16.266252  2412 net.cpp:558] Eltwise7 <- Eltwise6_ReLU13_0_split_1
I0818 10:49:16.266258  2412 net.cpp:558] Eltwise7 <- Convolution15
I0818 10:49:16.266263  2412 net.cpp:522] Eltwise7 -> Eltwise7
I0818 10:49:16.266290  2412 net.cpp:172] Setting up Eltwise7
I0818 10:49:16.266297  2412 net.cpp:186] Top shape: 128 16 32 32 (2097152)
I0818 10:49:16.266301  2412 net.cpp:194] Memory required for data: 672662016
I0818 10:49:16.266307  2412 layer_factory.hpp:77] Creating layer ReLU15
I0818 10:49:16.266314  2412 net.cpp:128] Creating Layer ReLU15
I0818 10:49:16.266317  2412 net.cpp:558] ReLU15 <- Eltwise7
I0818 10:49:16.266324  2412 net.cpp:509] ReLU15 -> Eltwise7 (in-place)
I0818 10:49:16.267732  2412 net.cpp:172] Setting up ReLU15
I0818 10:49:16.267748  2412 net.cpp:186] Top shape: 128 16 32 32 (2097152)
I0818 10:49:16.267752  2412 net.cpp:194] Memory required for data: 681050624
I0818 10:49:16.267757  2412 layer_factory.hpp:77] Creating layer Eltwise7_ReLU15_0_split
I0818 10:49:16.267766  2412 net.cpp:128] Creating Layer Eltwise7_ReLU15_0_split
I0818 10:49:16.267771  2412 net.cpp:558] Eltwise7_ReLU15_0_split <- Eltwise7
I0818 10:49:16.267781  2412 net.cpp:522] Eltwise7_ReLU15_0_split -> Eltwise7_ReLU15_0_split_0
I0818 10:49:16.267788  2412 net.cpp:522] Eltwise7_ReLU15_0_split -> Eltwise7_ReLU15_0_split_1
I0818 10:49:16.267840  2412 net.cpp:172] Setting up Eltwise7_ReLU15_0_split
I0818 10:49:16.267850  2412 net.cpp:186] Top shape: 128 16 32 32 (2097152)
I0818 10:49:16.267856  2412 net.cpp:186] Top shape: 128 16 32 32 (2097152)
I0818 10:49:16.267859  2412 net.cpp:194] Memory required for data: 697827840
I0818 10:49:16.267864  2412 layer_factory.hpp:77] Creating layer Convolution16
I0818 10:49:16.267875  2412 net.cpp:128] Creating Layer Convolution16
I0818 10:49:16.267880  2412 net.cpp:558] Convolution16 <- Eltwise7_ReLU15_0_split_0
I0818 10:49:16.267889  2412 net.cpp:522] Convolution16 -> Convolution16
I0818 10:49:16.274881  2412 net.cpp:172] Setting up Convolution16
I0818 10:49:16.274907  2412 net.cpp:186] Top shape: 128 32 16 16 (1048576)
I0818 10:49:16.274912  2412 net.cpp:194] Memory required for data: 702022144
I0818 10:49:16.274922  2412 layer_factory.hpp:77] Creating layer BatchNorm16
I0818 10:49:16.274931  2412 net.cpp:128] Creating Layer BatchNorm16
I0818 10:49:16.274936  2412 net.cpp:558] BatchNorm16 <- Convolution16
I0818 10:49:16.274947  2412 net.cpp:509] BatchNorm16 -> Convolution16 (in-place)
I0818 10:49:16.275212  2412 net.cpp:172] Setting up BatchNorm16
I0818 10:49:16.275223  2412 net.cpp:186] Top shape: 128 32 16 16 (1048576)
I0818 10:49:16.275228  2412 net.cpp:194] Memory required for data: 706216448
I0818 10:49:16.275238  2412 layer_factory.hpp:77] Creating layer Scale16
I0818 10:49:16.275245  2412 net.cpp:128] Creating Layer Scale16
I0818 10:49:16.275249  2412 net.cpp:558] Scale16 <- Convolution16
I0818 10:49:16.275274  2412 net.cpp:509] Scale16 -> Convolution16 (in-place)
I0818 10:49:16.275315  2412 layer_factory.hpp:77] Creating layer Scale16
I0818 10:49:16.275456  2412 net.cpp:172] Setting up Scale16
I0818 10:49:16.275467  2412 net.cpp:186] Top shape: 128 32 16 16 (1048576)
I0818 10:49:16.275471  2412 net.cpp:194] Memory required for data: 710410752
I0818 10:49:16.275480  2412 layer_factory.hpp:77] Creating layer Convolution17
I0818 10:49:16.275493  2412 net.cpp:128] Creating Layer Convolution17
I0818 10:49:16.275498  2412 net.cpp:558] Convolution17 <- Eltwise7_ReLU15_0_split_1
I0818 10:49:16.275506  2412 net.cpp:522] Convolution17 -> Convolution17
I0818 10:49:16.280663  2412 net.cpp:172] Setting up Convolution17
I0818 10:49:16.280689  2412 net.cpp:186] Top shape: 128 32 16 16 (1048576)
I0818 10:49:16.280692  2412 net.cpp:194] Memory required for data: 714605056
I0818 10:49:16.280704  2412 layer_factory.hpp:77] Creating layer BatchNorm17
I0818 10:49:16.280714  2412 net.cpp:128] Creating Layer BatchNorm17
I0818 10:49:16.280719  2412 net.cpp:558] BatchNorm17 <- Convolution17
I0818 10:49:16.280732  2412 net.cpp:509] BatchNorm17 -> Convolution17 (in-place)
I0818 10:49:16.280975  2412 net.cpp:172] Setting up BatchNorm17
I0818 10:49:16.280987  2412 net.cpp:186] Top shape: 128 32 16 16 (1048576)
I0818 10:49:16.280992  2412 net.cpp:194] Memory required for data: 718799360
I0818 10:49:16.281002  2412 layer_factory.hpp:77] Creating layer Scale17
I0818 10:49:16.281010  2412 net.cpp:128] Creating Layer Scale17
I0818 10:49:16.281015  2412 net.cpp:558] Scale17 <- Convolution17
I0818 10:49:16.281020  2412 net.cpp:509] Scale17 -> Convolution17 (in-place)
I0818 10:49:16.281061  2412 layer_factory.hpp:77] Creating layer Scale17
I0818 10:49:16.281203  2412 net.cpp:172] Setting up Scale17
I0818 10:49:16.281211  2412 net.cpp:186] Top shape: 128 32 16 16 (1048576)
I0818 10:49:16.281215  2412 net.cpp:194] Memory required for data: 722993664
I0818 10:49:16.281224  2412 layer_factory.hpp:77] Creating layer ReLU16
I0818 10:49:16.281229  2412 net.cpp:128] Creating Layer ReLU16
I0818 10:49:16.281234  2412 net.cpp:558] ReLU16 <- Convolution17
I0818 10:49:16.281241  2412 net.cpp:509] ReLU16 -> Convolution17 (in-place)
I0818 10:49:16.281709  2412 net.cpp:172] Setting up ReLU16
I0818 10:49:16.281730  2412 net.cpp:186] Top shape: 128 32 16 16 (1048576)
I0818 10:49:16.281735  2412 net.cpp:194] Memory required for data: 727187968
I0818 10:49:16.281740  2412 layer_factory.hpp:77] Creating layer Convolution18
I0818 10:49:16.281754  2412 net.cpp:128] Creating Layer Convolution18
I0818 10:49:16.281759  2412 net.cpp:558] Convolution18 <- Convolution17
I0818 10:49:16.281770  2412 net.cpp:522] Convolution18 -> Convolution18
I0818 10:49:16.283221  2412 net.cpp:172] Setting up Convolution18
I0818 10:49:16.283246  2412 net.cpp:186] Top shape: 128 32 16 16 (1048576)
I0818 10:49:16.283252  2412 net.cpp:194] Memory required for data: 731382272
I0818 10:49:16.283262  2412 layer_factory.hpp:77] Creating layer BatchNorm18
I0818 10:49:16.283272  2412 net.cpp:128] Creating Layer BatchNorm18
I0818 10:49:16.283278  2412 net.cpp:558] BatchNorm18 <- Convolution18
I0818 10:49:16.283285  2412 net.cpp:509] BatchNorm18 -> Convolution18 (in-place)
I0818 10:49:16.283535  2412 net.cpp:172] Setting up BatchNorm18
I0818 10:49:16.283547  2412 net.cpp:186] Top shape: 128 32 16 16 (1048576)
I0818 10:49:16.283551  2412 net.cpp:194] Memory required for data: 735576576
I0818 10:49:16.283561  2412 layer_factory.hpp:77] Creating layer Scale18
I0818 10:49:16.283571  2412 net.cpp:128] Creating Layer Scale18
I0818 10:49:16.283576  2412 net.cpp:558] Scale18 <- Convolution18
I0818 10:49:16.283582  2412 net.cpp:509] Scale18 -> Convolution18 (in-place)
I0818 10:49:16.283622  2412 layer_factory.hpp:77] Creating layer Scale18
I0818 10:49:16.283761  2412 net.cpp:172] Setting up Scale18
I0818 10:49:16.283771  2412 net.cpp:186] Top shape: 128 32 16 16 (1048576)
I0818 10:49:16.283776  2412 net.cpp:194] Memory required for data: 739770880
I0818 10:49:16.283783  2412 layer_factory.hpp:77] Creating layer Eltwise8
I0818 10:49:16.283809  2412 net.cpp:128] Creating Layer Eltwise8
I0818 10:49:16.283814  2412 net.cpp:558] Eltwise8 <- Convolution16
I0818 10:49:16.283819  2412 net.cpp:558] Eltwise8 <- Convolution18
I0818 10:49:16.283825  2412 net.cpp:522] Eltwise8 -> Eltwise8
I0818 10:49:16.283850  2412 net.cpp:172] Setting up Eltwise8
I0818 10:49:16.283859  2412 net.cpp:186] Top shape: 128 32 16 16 (1048576)
I0818 10:49:16.283862  2412 net.cpp:194] Memory required for data: 743965184
I0818 10:49:16.283866  2412 layer_factory.hpp:77] Creating layer ReLU17
I0818 10:49:16.283872  2412 net.cpp:128] Creating Layer ReLU17
I0818 10:49:16.283876  2412 net.cpp:558] ReLU17 <- Eltwise8
I0818 10:49:16.283885  2412 net.cpp:509] ReLU17 -> Eltwise8 (in-place)
I0818 10:49:16.284116  2412 net.cpp:172] Setting up ReLU17
I0818 10:49:16.284130  2412 net.cpp:186] Top shape: 128 32 16 16 (1048576)
I0818 10:49:16.284135  2412 net.cpp:194] Memory required for data: 748159488
I0818 10:49:16.284139  2412 layer_factory.hpp:77] Creating layer Eltwise8_ReLU17_0_split
I0818 10:49:16.284147  2412 net.cpp:128] Creating Layer Eltwise8_ReLU17_0_split
I0818 10:49:16.284152  2412 net.cpp:558] Eltwise8_ReLU17_0_split <- Eltwise8
I0818 10:49:16.284160  2412 net.cpp:522] Eltwise8_ReLU17_0_split -> Eltwise8_ReLU17_0_split_0
I0818 10:49:16.284169  2412 net.cpp:522] Eltwise8_ReLU17_0_split -> Eltwise8_ReLU17_0_split_1
I0818 10:49:16.284220  2412 net.cpp:172] Setting up Eltwise8_ReLU17_0_split
I0818 10:49:16.284227  2412 net.cpp:186] Top shape: 128 32 16 16 (1048576)
I0818 10:49:16.284234  2412 net.cpp:186] Top shape: 128 32 16 16 (1048576)
I0818 10:49:16.284237  2412 net.cpp:194] Memory required for data: 756548096
I0818 10:49:16.284241  2412 layer_factory.hpp:77] Creating layer Convolution19
I0818 10:49:16.284253  2412 net.cpp:128] Creating Layer Convolution19
I0818 10:49:16.284258  2412 net.cpp:558] Convolution19 <- Eltwise8_ReLU17_0_split_0
I0818 10:49:16.284271  2412 net.cpp:522] Convolution19 -> Convolution19
I0818 10:49:16.290824  2412 net.cpp:172] Setting up Convolution19
I0818 10:49:16.290853  2412 net.cpp:186] Top shape: 128 32 16 16 (1048576)
I0818 10:49:16.290856  2412 net.cpp:194] Memory required for data: 760742400
I0818 10:49:16.290868  2412 layer_factory.hpp:77] Creating layer BatchNorm19
I0818 10:49:16.290880  2412 net.cpp:128] Creating Layer BatchNorm19
I0818 10:49:16.290887  2412 net.cpp:558] BatchNorm19 <- Convolution19
I0818 10:49:16.290897  2412 net.cpp:509] BatchNorm19 -> Convolution19 (in-place)
I0818 10:49:16.291148  2412 net.cpp:172] Setting up BatchNorm19
I0818 10:49:16.291159  2412 net.cpp:186] Top shape: 128 32 16 16 (1048576)
I0818 10:49:16.291164  2412 net.cpp:194] Memory required for data: 764936704
I0818 10:49:16.291191  2412 layer_factory.hpp:77] Creating layer Scale19
I0818 10:49:16.291203  2412 net.cpp:128] Creating Layer Scale19
I0818 10:49:16.291208  2412 net.cpp:558] Scale19 <- Convolution19
I0818 10:49:16.291213  2412 net.cpp:509] Scale19 -> Convolution19 (in-place)
I0818 10:49:16.291258  2412 layer_factory.hpp:77] Creating layer Scale19
I0818 10:49:16.291399  2412 net.cpp:172] Setting up Scale19
I0818 10:49:16.291406  2412 net.cpp:186] Top shape: 128 32 16 16 (1048576)
I0818 10:49:16.291410  2412 net.cpp:194] Memory required for data: 769131008
I0818 10:49:16.291419  2412 layer_factory.hpp:77] Creating layer ReLU18
I0818 10:49:16.291427  2412 net.cpp:128] Creating Layer ReLU18
I0818 10:49:16.291431  2412 net.cpp:558] ReLU18 <- Convolution19
I0818 10:49:16.291437  2412 net.cpp:509] ReLU18 -> Convolution19 (in-place)
I0818 10:49:16.292871  2412 net.cpp:172] Setting up ReLU18
I0818 10:49:16.292888  2412 net.cpp:186] Top shape: 128 32 16 16 (1048576)
I0818 10:49:16.292893  2412 net.cpp:194] Memory required for data: 773325312
I0818 10:49:16.292897  2412 layer_factory.hpp:77] Creating layer Convolution20
I0818 10:49:16.292917  2412 net.cpp:128] Creating Layer Convolution20
I0818 10:49:16.292922  2412 net.cpp:558] Convolution20 <- Convolution19
I0818 10:49:16.292932  2412 net.cpp:522] Convolution20 -> Convolution20
I0818 10:49:16.299634  2412 net.cpp:172] Setting up Convolution20
I0818 10:49:16.299679  2412 net.cpp:186] Top shape: 128 32 16 16 (1048576)
I0818 10:49:16.299685  2412 net.cpp:194] Memory required for data: 777519616
I0818 10:49:16.299696  2412 layer_factory.hpp:77] Creating layer BatchNorm20
I0818 10:49:16.299707  2412 net.cpp:128] Creating Layer BatchNorm20
I0818 10:49:16.299713  2412 net.cpp:558] BatchNorm20 <- Convolution20
I0818 10:49:16.299720  2412 net.cpp:509] BatchNorm20 -> Convolution20 (in-place)
I0818 10:49:16.299968  2412 net.cpp:172] Setting up BatchNorm20
I0818 10:49:16.299985  2412 net.cpp:186] Top shape: 128 32 16 16 (1048576)
I0818 10:49:16.299990  2412 net.cpp:194] Memory required for data: 781713920
I0818 10:49:16.299999  2412 layer_factory.hpp:77] Creating layer Scale20
I0818 10:49:16.300009  2412 net.cpp:128] Creating Layer Scale20
I0818 10:49:16.300014  2412 net.cpp:558] Scale20 <- Convolution20
I0818 10:49:16.300019  2412 net.cpp:509] Scale20 -> Convolution20 (in-place)
I0818 10:49:16.300061  2412 layer_factory.hpp:77] Creating layer Scale20
I0818 10:49:16.300207  2412 net.cpp:172] Setting up Scale20
I0818 10:49:16.300215  2412 net.cpp:186] Top shape: 128 32 16 16 (1048576)
I0818 10:49:16.300220  2412 net.cpp:194] Memory required for data: 785908224
I0818 10:49:16.300226  2412 layer_factory.hpp:77] Creating layer Eltwise9
I0818 10:49:16.300237  2412 net.cpp:128] Creating Layer Eltwise9
I0818 10:49:16.300242  2412 net.cpp:558] Eltwise9 <- Eltwise8_ReLU17_0_split_1
I0818 10:49:16.300247  2412 net.cpp:558] Eltwise9 <- Convolution20
I0818 10:49:16.300256  2412 net.cpp:522] Eltwise9 -> Eltwise9
I0818 10:49:16.300277  2412 net.cpp:172] Setting up Eltwise9
I0818 10:49:16.300284  2412 net.cpp:186] Top shape: 128 32 16 16 (1048576)
I0818 10:49:16.300288  2412 net.cpp:194] Memory required for data: 790102528
I0818 10:49:16.300292  2412 layer_factory.hpp:77] Creating layer ReLU19
I0818 10:49:16.300298  2412 net.cpp:128] Creating Layer ReLU19
I0818 10:49:16.300303  2412 net.cpp:558] ReLU19 <- Eltwise9
I0818 10:49:16.300312  2412 net.cpp:509] ReLU19 -> Eltwise9 (in-place)
I0818 10:49:16.301697  2412 net.cpp:172] Setting up ReLU19
I0818 10:49:16.301714  2412 net.cpp:186] Top shape: 128 32 16 16 (1048576)
I0818 10:49:16.301719  2412 net.cpp:194] Memory required for data: 794296832
I0818 10:49:16.301723  2412 layer_factory.hpp:77] Creating layer Eltwise9_ReLU19_0_split
I0818 10:49:16.301731  2412 net.cpp:128] Creating Layer Eltwise9_ReLU19_0_split
I0818 10:49:16.301736  2412 net.cpp:558] Eltwise9_ReLU19_0_split <- Eltwise9
I0818 10:49:16.301744  2412 net.cpp:522] Eltwise9_ReLU19_0_split -> Eltwise9_ReLU19_0_split_0
I0818 10:49:16.301753  2412 net.cpp:522] Eltwise9_ReLU19_0_split -> Eltwise9_ReLU19_0_split_1
I0818 10:49:16.301807  2412 net.cpp:172] Setting up Eltwise9_ReLU19_0_split
I0818 10:49:16.301815  2412 net.cpp:186] Top shape: 128 32 16 16 (1048576)
I0818 10:49:16.301820  2412 net.cpp:186] Top shape: 128 32 16 16 (1048576)
I0818 10:49:16.301825  2412 net.cpp:194] Memory required for data: 802685440
I0818 10:49:16.301828  2412 layer_factory.hpp:77] Creating layer Convolution21
I0818 10:49:16.301841  2412 net.cpp:128] Creating Layer Convolution21
I0818 10:49:16.301846  2412 net.cpp:558] Convolution21 <- Eltwise9_ReLU19_0_split_0
I0818 10:49:16.301854  2412 net.cpp:522] Convolution21 -> Convolution21
I0818 10:49:16.308655  2412 net.cpp:172] Setting up Convolution21
I0818 10:49:16.308681  2412 net.cpp:186] Top shape: 128 32 16 16 (1048576)
I0818 10:49:16.308686  2412 net.cpp:194] Memory required for data: 806879744
I0818 10:49:16.308696  2412 layer_factory.hpp:77] Creating layer BatchNorm21
I0818 10:49:16.308712  2412 net.cpp:128] Creating Layer BatchNorm21
I0818 10:49:16.308717  2412 net.cpp:558] BatchNorm21 <- Convolution21
I0818 10:49:16.308729  2412 net.cpp:509] BatchNorm21 -> Convolution21 (in-place)
I0818 10:49:16.308990  2412 net.cpp:172] Setting up BatchNorm21
I0818 10:49:16.308997  2412 net.cpp:186] Top shape: 128 32 16 16 (1048576)
I0818 10:49:16.309001  2412 net.cpp:194] Memory required for data: 811074048
I0818 10:49:16.309011  2412 layer_factory.hpp:77] Creating layer Scale21
I0818 10:49:16.309034  2412 net.cpp:128] Creating Layer Scale21
I0818 10:49:16.309039  2412 net.cpp:558] Scale21 <- Convolution21
I0818 10:49:16.309047  2412 net.cpp:509] Scale21 -> Convolution21 (in-place)
I0818 10:49:16.309088  2412 layer_factory.hpp:77] Creating layer Scale21
I0818 10:49:16.309233  2412 net.cpp:172] Setting up Scale21
I0818 10:49:16.309247  2412 net.cpp:186] Top shape: 128 32 16 16 (1048576)
I0818 10:49:16.309252  2412 net.cpp:194] Memory required for data: 815268352
I0818 10:49:16.309259  2412 layer_factory.hpp:77] Creating layer ReLU20
I0818 10:49:16.309267  2412 net.cpp:128] Creating Layer ReLU20
I0818 10:49:16.309270  2412 net.cpp:558] ReLU20 <- Convolution21
I0818 10:49:16.309278  2412 net.cpp:509] ReLU20 -> Convolution21 (in-place)
I0818 10:49:16.310463  2412 net.cpp:172] Setting up ReLU20
I0818 10:49:16.310488  2412 net.cpp:186] Top shape: 128 32 16 16 (1048576)
I0818 10:49:16.310492  2412 net.cpp:194] Memory required for data: 819462656
I0818 10:49:16.310497  2412 layer_factory.hpp:77] Creating layer Convolution22
I0818 10:49:16.310516  2412 net.cpp:128] Creating Layer Convolution22
I0818 10:49:16.310521  2412 net.cpp:558] Convolution22 <- Convolution21
I0818 10:49:16.310535  2412 net.cpp:522] Convolution22 -> Convolution22
I0818 10:49:16.317239  2412 net.cpp:172] Setting up Convolution22
I0818 10:49:16.317265  2412 net.cpp:186] Top shape: 128 32 16 16 (1048576)
I0818 10:49:16.317270  2412 net.cpp:194] Memory required for data: 823656960
I0818 10:49:16.317281  2412 layer_factory.hpp:77] Creating layer BatchNorm22
I0818 10:49:16.317291  2412 net.cpp:128] Creating Layer BatchNorm22
I0818 10:49:16.317296  2412 net.cpp:558] BatchNorm22 <- Convolution22
I0818 10:49:16.317306  2412 net.cpp:509] BatchNorm22 -> Convolution22 (in-place)
I0818 10:49:16.317561  2412 net.cpp:172] Setting up BatchNorm22
I0818 10:49:16.317574  2412 net.cpp:186] Top shape: 128 32 16 16 (1048576)
I0818 10:49:16.317579  2412 net.cpp:194] Memory required for data: 827851264
I0818 10:49:16.317589  2412 layer_factory.hpp:77] Creating layer Scale22
I0818 10:49:16.317598  2412 net.cpp:128] Creating Layer Scale22
I0818 10:49:16.317603  2412 net.cpp:558] Scale22 <- Convolution22
I0818 10:49:16.317608  2412 net.cpp:509] Scale22 -> Convolution22 (in-place)
I0818 10:49:16.317651  2412 layer_factory.hpp:77] Creating layer Scale22
I0818 10:49:16.317796  2412 net.cpp:172] Setting up Scale22
I0818 10:49:16.317808  2412 net.cpp:186] Top shape: 128 32 16 16 (1048576)
I0818 10:49:16.317812  2412 net.cpp:194] Memory required for data: 832045568
I0818 10:49:16.317821  2412 layer_factory.hpp:77] Creating layer Eltwise10
I0818 10:49:16.317826  2412 net.cpp:128] Creating Layer Eltwise10
I0818 10:49:16.317831  2412 net.cpp:558] Eltwise10 <- Eltwise9_ReLU19_0_split_1
I0818 10:49:16.317836  2412 net.cpp:558] Eltwise10 <- Convolution22
I0818 10:49:16.317847  2412 net.cpp:522] Eltwise10 -> Eltwise10
I0818 10:49:16.317868  2412 net.cpp:172] Setting up Eltwise10
I0818 10:49:16.317878  2412 net.cpp:186] Top shape: 128 32 16 16 (1048576)
I0818 10:49:16.317881  2412 net.cpp:194] Memory required for data: 836239872
I0818 10:49:16.317885  2412 layer_factory.hpp:77] Creating layer ReLU21
I0818 10:49:16.317893  2412 net.cpp:128] Creating Layer ReLU21
I0818 10:49:16.317896  2412 net.cpp:558] ReLU21 <- Eltwise10
I0818 10:49:16.317903  2412 net.cpp:509] ReLU21 -> Eltwise10 (in-place)
I0818 10:49:16.319303  2412 net.cpp:172] Setting up ReLU21
I0818 10:49:16.319322  2412 net.cpp:186] Top shape: 128 32 16 16 (1048576)
I0818 10:49:16.319326  2412 net.cpp:194] Memory required for data: 840434176
I0818 10:49:16.319331  2412 layer_factory.hpp:77] Creating layer Eltwise10_ReLU21_0_split
I0818 10:49:16.319339  2412 net.cpp:128] Creating Layer Eltwise10_ReLU21_0_split
I0818 10:49:16.319344  2412 net.cpp:558] Eltwise10_ReLU21_0_split <- Eltwise10
I0818 10:49:16.319350  2412 net.cpp:522] Eltwise10_ReLU21_0_split -> Eltwise10_ReLU21_0_split_0
I0818 10:49:16.319361  2412 net.cpp:522] Eltwise10_ReLU21_0_split -> Eltwise10_ReLU21_0_split_1
I0818 10:49:16.319427  2412 net.cpp:172] Setting up Eltwise10_ReLU21_0_split
I0818 10:49:16.319435  2412 net.cpp:186] Top shape: 128 32 16 16 (1048576)
I0818 10:49:16.319442  2412 net.cpp:186] Top shape: 128 32 16 16 (1048576)
I0818 10:49:16.319445  2412 net.cpp:194] Memory required for data: 848822784
I0818 10:49:16.319449  2412 layer_factory.hpp:77] Creating layer Convolution23
I0818 10:49:16.319463  2412 net.cpp:128] Creating Layer Convolution23
I0818 10:49:16.319468  2412 net.cpp:558] Convolution23 <- Eltwise10_ReLU21_0_split_0
I0818 10:49:16.319476  2412 net.cpp:522] Convolution23 -> Convolution23
I0818 10:49:16.326063  2412 net.cpp:172] Setting up Convolution23
I0818 10:49:16.326089  2412 net.cpp:186] Top shape: 128 32 16 16 (1048576)
I0818 10:49:16.326093  2412 net.cpp:194] Memory required for data: 853017088
I0818 10:49:16.326103  2412 layer_factory.hpp:77] Creating layer BatchNorm23
I0818 10:49:16.326114  2412 net.cpp:128] Creating Layer BatchNorm23
I0818 10:49:16.326119  2412 net.cpp:558] BatchNorm23 <- Convolution23
I0818 10:49:16.326128  2412 net.cpp:509] BatchNorm23 -> Convolution23 (in-place)
I0818 10:49:16.326387  2412 net.cpp:172] Setting up BatchNorm23
I0818 10:49:16.326400  2412 net.cpp:186] Top shape: 128 32 16 16 (1048576)
I0818 10:49:16.326403  2412 net.cpp:194] Memory required for data: 857211392
I0818 10:49:16.326413  2412 layer_factory.hpp:77] Creating layer Scale23
I0818 10:49:16.326426  2412 net.cpp:128] Creating Layer Scale23
I0818 10:49:16.326431  2412 net.cpp:558] Scale23 <- Convolution23
I0818 10:49:16.326436  2412 net.cpp:509] Scale23 -> Convolution23 (in-place)
I0818 10:49:16.326475  2412 layer_factory.hpp:77] Creating layer Scale23
I0818 10:49:16.326622  2412 net.cpp:172] Setting up Scale23
I0818 10:49:16.326628  2412 net.cpp:186] Top shape: 128 32 16 16 (1048576)
I0818 10:49:16.326632  2412 net.cpp:194] Memory required for data: 861405696
I0818 10:49:16.326640  2412 layer_factory.hpp:77] Creating layer ReLU22
I0818 10:49:16.326648  2412 net.cpp:128] Creating Layer ReLU22
I0818 10:49:16.326663  2412 net.cpp:558] ReLU22 <- Convolution23
I0818 10:49:16.326670  2412 net.cpp:509] ReLU22 -> Convolution23 (in-place)
I0818 10:49:16.328145  2412 net.cpp:172] Setting up ReLU22
I0818 10:49:16.328161  2412 net.cpp:186] Top shape: 128 32 16 16 (1048576)
I0818 10:49:16.328166  2412 net.cpp:194] Memory required for data: 865600000
I0818 10:49:16.328171  2412 layer_factory.hpp:77] Creating layer Convolution24
I0818 10:49:16.328183  2412 net.cpp:128] Creating Layer Convolution24
I0818 10:49:16.328188  2412 net.cpp:558] Convolution24 <- Convolution23
I0818 10:49:16.328197  2412 net.cpp:522] Convolution24 -> Convolution24
I0818 10:49:16.329638  2412 net.cpp:172] Setting up Convolution24
I0818 10:49:16.329664  2412 net.cpp:186] Top shape: 128 32 16 16 (1048576)
I0818 10:49:16.329668  2412 net.cpp:194] Memory required for data: 869794304
I0818 10:49:16.329679  2412 layer_factory.hpp:77] Creating layer BatchNorm24
I0818 10:49:16.329686  2412 net.cpp:128] Creating Layer BatchNorm24
I0818 10:49:16.329691  2412 net.cpp:558] BatchNorm24 <- Convolution24
I0818 10:49:16.329700  2412 net.cpp:509] BatchNorm24 -> Convolution24 (in-place)
I0818 10:49:16.329955  2412 net.cpp:172] Setting up BatchNorm24
I0818 10:49:16.329965  2412 net.cpp:186] Top shape: 128 32 16 16 (1048576)
I0818 10:49:16.329970  2412 net.cpp:194] Memory required for data: 873988608
I0818 10:49:16.329979  2412 layer_factory.hpp:77] Creating layer Scale24
I0818 10:49:16.329987  2412 net.cpp:128] Creating Layer Scale24
I0818 10:49:16.329991  2412 net.cpp:558] Scale24 <- Convolution24
I0818 10:49:16.329996  2412 net.cpp:509] Scale24 -> Convolution24 (in-place)
I0818 10:49:16.330039  2412 layer_factory.hpp:77] Creating layer Scale24
I0818 10:49:16.330185  2412 net.cpp:172] Setting up Scale24
I0818 10:49:16.330193  2412 net.cpp:186] Top shape: 128 32 16 16 (1048576)
I0818 10:49:16.330198  2412 net.cpp:194] Memory required for data: 878182912
I0818 10:49:16.330204  2412 layer_factory.hpp:77] Creating layer Eltwise11
I0818 10:49:16.330214  2412 net.cpp:128] Creating Layer Eltwise11
I0818 10:49:16.330235  2412 net.cpp:558] Eltwise11 <- Eltwise10_ReLU21_0_split_1
I0818 10:49:16.330241  2412 net.cpp:558] Eltwise11 <- Convolution24
I0818 10:49:16.330247  2412 net.cpp:522] Eltwise11 -> Eltwise11
I0818 10:49:16.330272  2412 net.cpp:172] Setting up Eltwise11
I0818 10:49:16.330279  2412 net.cpp:186] Top shape: 128 32 16 16 (1048576)
I0818 10:49:16.330283  2412 net.cpp:194] Memory required for data: 882377216
I0818 10:49:16.330287  2412 layer_factory.hpp:77] Creating layer ReLU23
I0818 10:49:16.330294  2412 net.cpp:128] Creating Layer ReLU23
I0818 10:49:16.330298  2412 net.cpp:558] ReLU23 <- Eltwise11
I0818 10:49:16.330307  2412 net.cpp:509] ReLU23 -> Eltwise11 (in-place)
I0818 10:49:16.330811  2412 net.cpp:172] Setting up ReLU23
I0818 10:49:16.330828  2412 net.cpp:186] Top shape: 128 32 16 16 (1048576)
I0818 10:49:16.330833  2412 net.cpp:194] Memory required for data: 886571520
I0818 10:49:16.330838  2412 layer_factory.hpp:77] Creating layer Eltwise11_ReLU23_0_split
I0818 10:49:16.330847  2412 net.cpp:128] Creating Layer Eltwise11_ReLU23_0_split
I0818 10:49:16.330852  2412 net.cpp:558] Eltwise11_ReLU23_0_split <- Eltwise11
I0818 10:49:16.330860  2412 net.cpp:522] Eltwise11_ReLU23_0_split -> Eltwise11_ReLU23_0_split_0
I0818 10:49:16.330869  2412 net.cpp:522] Eltwise11_ReLU23_0_split -> Eltwise11_ReLU23_0_split_1
I0818 10:49:16.330924  2412 net.cpp:172] Setting up Eltwise11_ReLU23_0_split
I0818 10:49:16.330930  2412 net.cpp:186] Top shape: 128 32 16 16 (1048576)
I0818 10:49:16.330936  2412 net.cpp:186] Top shape: 128 32 16 16 (1048576)
I0818 10:49:16.330940  2412 net.cpp:194] Memory required for data: 894960128
I0818 10:49:16.330943  2412 layer_factory.hpp:77] Creating layer Convolution25
I0818 10:49:16.330957  2412 net.cpp:128] Creating Layer Convolution25
I0818 10:49:16.330962  2412 net.cpp:558] Convolution25 <- Eltwise11_ReLU23_0_split_0
I0818 10:49:16.330971  2412 net.cpp:522] Convolution25 -> Convolution25
I0818 10:49:16.336769  2412 net.cpp:172] Setting up Convolution25
I0818 10:49:16.336796  2412 net.cpp:186] Top shape: 128 32 16 16 (1048576)
I0818 10:49:16.336800  2412 net.cpp:194] Memory required for data: 899154432
I0818 10:49:16.336815  2412 layer_factory.hpp:77] Creating layer BatchNorm25
I0818 10:49:16.336827  2412 net.cpp:128] Creating Layer BatchNorm25
I0818 10:49:16.336833  2412 net.cpp:558] BatchNorm25 <- Convolution25
I0818 10:49:16.336843  2412 net.cpp:509] BatchNorm25 -> Convolution25 (in-place)
I0818 10:49:16.337096  2412 net.cpp:172] Setting up BatchNorm25
I0818 10:49:16.337107  2412 net.cpp:186] Top shape: 128 32 16 16 (1048576)
I0818 10:49:16.337111  2412 net.cpp:194] Memory required for data: 903348736
I0818 10:49:16.337121  2412 layer_factory.hpp:77] Creating layer Scale25
I0818 10:49:16.337133  2412 net.cpp:128] Creating Layer Scale25
I0818 10:49:16.337138  2412 net.cpp:558] Scale25 <- Convolution25
I0818 10:49:16.337143  2412 net.cpp:509] Scale25 -> Convolution25 (in-place)
I0818 10:49:16.337185  2412 layer_factory.hpp:77] Creating layer Scale25
I0818 10:49:16.337332  2412 net.cpp:172] Setting up Scale25
I0818 10:49:16.337342  2412 net.cpp:186] Top shape: 128 32 16 16 (1048576)
I0818 10:49:16.337347  2412 net.cpp:194] Memory required for data: 907543040
I0818 10:49:16.337354  2412 layer_factory.hpp:77] Creating layer ReLU24
I0818 10:49:16.337368  2412 net.cpp:128] Creating Layer ReLU24
I0818 10:49:16.337371  2412 net.cpp:558] ReLU24 <- Convolution25
I0818 10:49:16.337378  2412 net.cpp:509] ReLU24 -> Convolution25 (in-place)
I0818 10:49:16.338843  2412 net.cpp:172] Setting up ReLU24
I0818 10:49:16.338861  2412 net.cpp:186] Top shape: 128 32 16 16 (1048576)
I0818 10:49:16.338865  2412 net.cpp:194] Memory required for data: 911737344
I0818 10:49:16.338871  2412 layer_factory.hpp:77] Creating layer Convolution26
I0818 10:49:16.338889  2412 net.cpp:128] Creating Layer Convolution26
I0818 10:49:16.338899  2412 net.cpp:558] Convolution26 <- Convolution25
I0818 10:49:16.338907  2412 net.cpp:522] Convolution26 -> Convolution26
I0818 10:49:16.345553  2412 net.cpp:172] Setting up Convolution26
I0818 10:49:16.345594  2412 net.cpp:186] Top shape: 128 32 16 16 (1048576)
I0818 10:49:16.345600  2412 net.cpp:194] Memory required for data: 915931648
I0818 10:49:16.345614  2412 layer_factory.hpp:77] Creating layer BatchNorm26
I0818 10:49:16.345625  2412 net.cpp:128] Creating Layer BatchNorm26
I0818 10:49:16.345635  2412 net.cpp:558] BatchNorm26 <- Convolution26
I0818 10:49:16.345645  2412 net.cpp:509] BatchNorm26 -> Convolution26 (in-place)
I0818 10:49:16.345906  2412 net.cpp:172] Setting up BatchNorm26
I0818 10:49:16.345917  2412 net.cpp:186] Top shape: 128 32 16 16 (1048576)
I0818 10:49:16.345921  2412 net.cpp:194] Memory required for data: 920125952
I0818 10:49:16.345930  2412 layer_factory.hpp:77] Creating layer Scale26
I0818 10:49:16.345937  2412 net.cpp:128] Creating Layer Scale26
I0818 10:49:16.345942  2412 net.cpp:558] Scale26 <- Convolution26
I0818 10:49:16.345949  2412 net.cpp:509] Scale26 -> Convolution26 (in-place)
I0818 10:49:16.345988  2412 layer_factory.hpp:77] Creating layer Scale26
I0818 10:49:16.346132  2412 net.cpp:172] Setting up Scale26
I0818 10:49:16.346143  2412 net.cpp:186] Top shape: 128 32 16 16 (1048576)
I0818 10:49:16.346146  2412 net.cpp:194] Memory required for data: 924320256
I0818 10:49:16.346154  2412 layer_factory.hpp:77] Creating layer Eltwise12
I0818 10:49:16.346161  2412 net.cpp:128] Creating Layer Eltwise12
I0818 10:49:16.346165  2412 net.cpp:558] Eltwise12 <- Eltwise11_ReLU23_0_split_1
I0818 10:49:16.346170  2412 net.cpp:558] Eltwise12 <- Convolution26
I0818 10:49:16.346176  2412 net.cpp:522] Eltwise12 -> Eltwise12
I0818 10:49:16.346200  2412 net.cpp:172] Setting up Eltwise12
I0818 10:49:16.346207  2412 net.cpp:186] Top shape: 128 32 16 16 (1048576)
I0818 10:49:16.346211  2412 net.cpp:194] Memory required for data: 928514560
I0818 10:49:16.346215  2412 layer_factory.hpp:77] Creating layer ReLU25
I0818 10:49:16.346221  2412 net.cpp:128] Creating Layer ReLU25
I0818 10:49:16.346226  2412 net.cpp:558] ReLU25 <- Eltwise12
I0818 10:49:16.346235  2412 net.cpp:509] ReLU25 -> Eltwise12 (in-place)
I0818 10:49:16.347606  2412 net.cpp:172] Setting up ReLU25
I0818 10:49:16.347626  2412 net.cpp:186] Top shape: 128 32 16 16 (1048576)
I0818 10:49:16.347630  2412 net.cpp:194] Memory required for data: 932708864
I0818 10:49:16.347635  2412 layer_factory.hpp:77] Creating layer Eltwise12_ReLU25_0_split
I0818 10:49:16.347657  2412 net.cpp:128] Creating Layer Eltwise12_ReLU25_0_split
I0818 10:49:16.347663  2412 net.cpp:558] Eltwise12_ReLU25_0_split <- Eltwise12
I0818 10:49:16.347671  2412 net.cpp:522] Eltwise12_ReLU25_0_split -> Eltwise12_ReLU25_0_split_0
I0818 10:49:16.347685  2412 net.cpp:522] Eltwise12_ReLU25_0_split -> Eltwise12_ReLU25_0_split_1
I0818 10:49:16.347735  2412 net.cpp:172] Setting up Eltwise12_ReLU25_0_split
I0818 10:49:16.347743  2412 net.cpp:186] Top shape: 128 32 16 16 (1048576)
I0818 10:49:16.347749  2412 net.cpp:186] Top shape: 128 32 16 16 (1048576)
I0818 10:49:16.347754  2412 net.cpp:194] Memory required for data: 941097472
I0818 10:49:16.347759  2412 layer_factory.hpp:77] Creating layer Convolution27
I0818 10:49:16.347774  2412 net.cpp:128] Creating Layer Convolution27
I0818 10:49:16.347777  2412 net.cpp:558] Convolution27 <- Eltwise12_ReLU25_0_split_0
I0818 10:49:16.347785  2412 net.cpp:522] Convolution27 -> Convolution27
I0818 10:49:16.354271  2412 net.cpp:172] Setting up Convolution27
I0818 10:49:16.354297  2412 net.cpp:186] Top shape: 128 32 16 16 (1048576)
I0818 10:49:16.354301  2412 net.cpp:194] Memory required for data: 945291776
I0818 10:49:16.354311  2412 layer_factory.hpp:77] Creating layer BatchNorm27
I0818 10:49:16.354322  2412 net.cpp:128] Creating Layer BatchNorm27
I0818 10:49:16.354327  2412 net.cpp:558] BatchNorm27 <- Convolution27
I0818 10:49:16.354336  2412 net.cpp:509] BatchNorm27 -> Convolution27 (in-place)
I0818 10:49:16.354601  2412 net.cpp:172] Setting up BatchNorm27
I0818 10:49:16.354614  2412 net.cpp:186] Top shape: 128 32 16 16 (1048576)
I0818 10:49:16.354617  2412 net.cpp:194] Memory required for data: 949486080
I0818 10:49:16.354642  2412 layer_factory.hpp:77] Creating layer Scale27
I0818 10:49:16.354668  2412 net.cpp:128] Creating Layer Scale27
I0818 10:49:16.354674  2412 net.cpp:558] Scale27 <- Convolution27
I0818 10:49:16.354681  2412 net.cpp:509] Scale27 -> Convolution27 (in-place)
I0818 10:49:16.354725  2412 layer_factory.hpp:77] Creating layer Scale27
I0818 10:49:16.354874  2412 net.cpp:172] Setting up Scale27
I0818 10:49:16.354882  2412 net.cpp:186] Top shape: 128 32 16 16 (1048576)
I0818 10:49:16.354887  2412 net.cpp:194] Memory required for data: 953680384
I0818 10:49:16.354894  2412 layer_factory.hpp:77] Creating layer ReLU26
I0818 10:49:16.354902  2412 net.cpp:128] Creating Layer ReLU26
I0818 10:49:16.354905  2412 net.cpp:558] ReLU26 <- Convolution27
I0818 10:49:16.354915  2412 net.cpp:509] ReLU26 -> Convolution27 (in-place)
I0818 10:49:16.356323  2412 net.cpp:172] Setting up ReLU26
I0818 10:49:16.356348  2412 net.cpp:186] Top shape: 128 32 16 16 (1048576)
I0818 10:49:16.356353  2412 net.cpp:194] Memory required for data: 957874688
I0818 10:49:16.356357  2412 layer_factory.hpp:77] Creating layer Convolution28
I0818 10:49:16.356372  2412 net.cpp:128] Creating Layer Convolution28
I0818 10:49:16.356377  2412 net.cpp:558] Convolution28 <- Convolution27
I0818 10:49:16.356392  2412 net.cpp:522] Convolution28 -> Convolution28
I0818 10:49:16.363059  2412 net.cpp:172] Setting up Convolution28
I0818 10:49:16.363085  2412 net.cpp:186] Top shape: 128 32 16 16 (1048576)
I0818 10:49:16.363088  2412 net.cpp:194] Memory required for data: 962068992
I0818 10:49:16.363099  2412 layer_factory.hpp:77] Creating layer BatchNorm28
I0818 10:49:16.363113  2412 net.cpp:128] Creating Layer BatchNorm28
I0818 10:49:16.363118  2412 net.cpp:558] BatchNorm28 <- Convolution28
I0818 10:49:16.363126  2412 net.cpp:509] BatchNorm28 -> Convolution28 (in-place)
I0818 10:49:16.363386  2412 net.cpp:172] Setting up BatchNorm28
I0818 10:49:16.363399  2412 net.cpp:186] Top shape: 128 32 16 16 (1048576)
I0818 10:49:16.363402  2412 net.cpp:194] Memory required for data: 966263296
I0818 10:49:16.363412  2412 layer_factory.hpp:77] Creating layer Scale28
I0818 10:49:16.363421  2412 net.cpp:128] Creating Layer Scale28
I0818 10:49:16.363425  2412 net.cpp:558] Scale28 <- Convolution28
I0818 10:49:16.363431  2412 net.cpp:509] Scale28 -> Convolution28 (in-place)
I0818 10:49:16.363473  2412 layer_factory.hpp:77] Creating layer Scale28
I0818 10:49:16.363622  2412 net.cpp:172] Setting up Scale28
I0818 10:49:16.363631  2412 net.cpp:186] Top shape: 128 32 16 16 (1048576)
I0818 10:49:16.363634  2412 net.cpp:194] Memory required for data: 970457600
I0818 10:49:16.363642  2412 layer_factory.hpp:77] Creating layer Eltwise13
I0818 10:49:16.363651  2412 net.cpp:128] Creating Layer Eltwise13
I0818 10:49:16.363656  2412 net.cpp:558] Eltwise13 <- Eltwise12_ReLU25_0_split_1
I0818 10:49:16.363662  2412 net.cpp:558] Eltwise13 <- Convolution28
I0818 10:49:16.363667  2412 net.cpp:522] Eltwise13 -> Eltwise13
I0818 10:49:16.363692  2412 net.cpp:172] Setting up Eltwise13
I0818 10:49:16.363698  2412 net.cpp:186] Top shape: 128 32 16 16 (1048576)
I0818 10:49:16.363703  2412 net.cpp:194] Memory required for data: 974651904
I0818 10:49:16.363706  2412 layer_factory.hpp:77] Creating layer ReLU27
I0818 10:49:16.363713  2412 net.cpp:128] Creating Layer ReLU27
I0818 10:49:16.363718  2412 net.cpp:558] ReLU27 <- Eltwise13
I0818 10:49:16.363724  2412 net.cpp:509] ReLU27 -> Eltwise13 (in-place)
I0818 10:49:16.365123  2412 net.cpp:172] Setting up ReLU27
I0818 10:49:16.365141  2412 net.cpp:186] Top shape: 128 32 16 16 (1048576)
I0818 10:49:16.365146  2412 net.cpp:194] Memory required for data: 978846208
I0818 10:49:16.365150  2412 layer_factory.hpp:77] Creating layer Eltwise13_ReLU27_0_split
I0818 10:49:16.365159  2412 net.cpp:128] Creating Layer Eltwise13_ReLU27_0_split
I0818 10:49:16.365164  2412 net.cpp:558] Eltwise13_ReLU27_0_split <- Eltwise13
I0818 10:49:16.365172  2412 net.cpp:522] Eltwise13_ReLU27_0_split -> Eltwise13_ReLU27_0_split_0
I0818 10:49:16.365180  2412 net.cpp:522] Eltwise13_ReLU27_0_split -> Eltwise13_ReLU27_0_split_1
I0818 10:49:16.365252  2412 net.cpp:172] Setting up Eltwise13_ReLU27_0_split
I0818 10:49:16.365260  2412 net.cpp:186] Top shape: 128 32 16 16 (1048576)
I0818 10:49:16.365267  2412 net.cpp:186] Top shape: 128 32 16 16 (1048576)
I0818 10:49:16.365270  2412 net.cpp:194] Memory required for data: 987234816
I0818 10:49:16.365274  2412 layer_factory.hpp:77] Creating layer Convolution29
I0818 10:49:16.365286  2412 net.cpp:128] Creating Layer Convolution29
I0818 10:49:16.365291  2412 net.cpp:558] Convolution29 <- Eltwise13_ReLU27_0_split_0
I0818 10:49:16.365300  2412 net.cpp:522] Convolution29 -> Convolution29
I0818 10:49:16.371857  2412 net.cpp:172] Setting up Convolution29
I0818 10:49:16.371883  2412 net.cpp:186] Top shape: 128 32 16 16 (1048576)
I0818 10:49:16.371888  2412 net.cpp:194] Memory required for data: 991429120
I0818 10:49:16.371898  2412 layer_factory.hpp:77] Creating layer BatchNorm29
I0818 10:49:16.371909  2412 net.cpp:128] Creating Layer BatchNorm29
I0818 10:49:16.371917  2412 net.cpp:558] BatchNorm29 <- Convolution29
I0818 10:49:16.371924  2412 net.cpp:509] BatchNorm29 -> Convolution29 (in-place)
I0818 10:49:16.372189  2412 net.cpp:172] Setting up BatchNorm29
I0818 10:49:16.372200  2412 net.cpp:186] Top shape: 128 32 16 16 (1048576)
I0818 10:49:16.372205  2412 net.cpp:194] Memory required for data: 995623424
I0818 10:49:16.372215  2412 layer_factory.hpp:77] Creating layer Scale29
I0818 10:49:16.372226  2412 net.cpp:128] Creating Layer Scale29
I0818 10:49:16.372231  2412 net.cpp:558] Scale29 <- Convolution29
I0818 10:49:16.372236  2412 net.cpp:509] Scale29 -> Convolution29 (in-place)
I0818 10:49:16.372279  2412 layer_factory.hpp:77] Creating layer Scale29
I0818 10:49:16.372432  2412 net.cpp:172] Setting up Scale29
I0818 10:49:16.372440  2412 net.cpp:186] Top shape: 128 32 16 16 (1048576)
I0818 10:49:16.372444  2412 net.cpp:194] Memory required for data: 999817728
I0818 10:49:16.372452  2412 layer_factory.hpp:77] Creating layer ReLU28
I0818 10:49:16.372460  2412 net.cpp:128] Creating Layer ReLU28
I0818 10:49:16.372465  2412 net.cpp:558] ReLU28 <- Convolution29
I0818 10:49:16.372470  2412 net.cpp:509] ReLU28 -> Convolution29 (in-place)
I0818 10:49:16.373885  2412 net.cpp:172] Setting up ReLU28
I0818 10:49:16.373903  2412 net.cpp:186] Top shape: 128 32 16 16 (1048576)
I0818 10:49:16.373908  2412 net.cpp:194] Memory required for data: 1004012032
I0818 10:49:16.373913  2412 layer_factory.hpp:77] Creating layer Convolution30
I0818 10:49:16.373929  2412 net.cpp:128] Creating Layer Convolution30
I0818 10:49:16.373934  2412 net.cpp:558] Convolution30 <- Convolution29
I0818 10:49:16.373941  2412 net.cpp:522] Convolution30 -> Convolution30
I0818 10:49:16.380615  2412 net.cpp:172] Setting up Convolution30
I0818 10:49:16.380643  2412 net.cpp:186] Top shape: 128 32 16 16 (1048576)
I0818 10:49:16.380647  2412 net.cpp:194] Memory required for data: 1008206336
I0818 10:49:16.380658  2412 layer_factory.hpp:77] Creating layer BatchNorm30
I0818 10:49:16.380669  2412 net.cpp:128] Creating Layer BatchNorm30
I0818 10:49:16.380674  2412 net.cpp:558] BatchNorm30 <- Convolution30
I0818 10:49:16.380684  2412 net.cpp:509] BatchNorm30 -> Convolution30 (in-place)
I0818 10:49:16.380950  2412 net.cpp:172] Setting up BatchNorm30
I0818 10:49:16.380962  2412 net.cpp:186] Top shape: 128 32 16 16 (1048576)
I0818 10:49:16.380966  2412 net.cpp:194] Memory required for data: 1012400640
I0818 10:49:16.380976  2412 layer_factory.hpp:77] Creating layer Scale30
I0818 10:49:16.380983  2412 net.cpp:128] Creating Layer Scale30
I0818 10:49:16.380987  2412 net.cpp:558] Scale30 <- Convolution30
I0818 10:49:16.380996  2412 net.cpp:509] Scale30 -> Convolution30 (in-place)
I0818 10:49:16.381037  2412 layer_factory.hpp:77] Creating layer Scale30
I0818 10:49:16.381187  2412 net.cpp:172] Setting up Scale30
I0818 10:49:16.381196  2412 net.cpp:186] Top shape: 128 32 16 16 (1048576)
I0818 10:49:16.381199  2412 net.cpp:194] Memory required for data: 1016594944
I0818 10:49:16.381207  2412 layer_factory.hpp:77] Creating layer Eltwise14
I0818 10:49:16.381230  2412 net.cpp:128] Creating Layer Eltwise14
I0818 10:49:16.381235  2412 net.cpp:558] Eltwise14 <- Eltwise13_ReLU27_0_split_1
I0818 10:49:16.381240  2412 net.cpp:558] Eltwise14 <- Convolution30
I0818 10:49:16.381249  2412 net.cpp:522] Eltwise14 -> Eltwise14
I0818 10:49:16.381273  2412 net.cpp:172] Setting up Eltwise14
I0818 10:49:16.381279  2412 net.cpp:186] Top shape: 128 32 16 16 (1048576)
I0818 10:49:16.381283  2412 net.cpp:194] Memory required for data: 1020789248
I0818 10:49:16.381289  2412 layer_factory.hpp:77] Creating layer ReLU29
I0818 10:49:16.381299  2412 net.cpp:128] Creating Layer ReLU29
I0818 10:49:16.381304  2412 net.cpp:558] ReLU29 <- Eltwise14
I0818 10:49:16.381309  2412 net.cpp:509] ReLU29 -> Eltwise14 (in-place)
I0818 10:49:16.382694  2412 net.cpp:172] Setting up ReLU29
I0818 10:49:16.382709  2412 net.cpp:186] Top shape: 128 32 16 16 (1048576)
I0818 10:49:16.382712  2412 net.cpp:194] Memory required for data: 1024983552
I0818 10:49:16.382717  2412 layer_factory.hpp:77] Creating layer Eltwise14_ReLU29_0_split
I0818 10:49:16.382726  2412 net.cpp:128] Creating Layer Eltwise14_ReLU29_0_split
I0818 10:49:16.382731  2412 net.cpp:558] Eltwise14_ReLU29_0_split <- Eltwise14
I0818 10:49:16.382738  2412 net.cpp:522] Eltwise14_ReLU29_0_split -> Eltwise14_ReLU29_0_split_0
I0818 10:49:16.382746  2412 net.cpp:522] Eltwise14_ReLU29_0_split -> Eltwise14_ReLU29_0_split_1
I0818 10:49:16.382799  2412 net.cpp:172] Setting up Eltwise14_ReLU29_0_split
I0818 10:49:16.382807  2412 net.cpp:186] Top shape: 128 32 16 16 (1048576)
I0818 10:49:16.382812  2412 net.cpp:186] Top shape: 128 32 16 16 (1048576)
I0818 10:49:16.382817  2412 net.cpp:194] Memory required for data: 1033372160
I0818 10:49:16.382820  2412 layer_factory.hpp:77] Creating layer Convolution31
I0818 10:49:16.382833  2412 net.cpp:128] Creating Layer Convolution31
I0818 10:49:16.382838  2412 net.cpp:558] Convolution31 <- Eltwise14_ReLU29_0_split_0
I0818 10:49:16.382848  2412 net.cpp:522] Convolution31 -> Convolution31
I0818 10:49:16.389426  2412 net.cpp:172] Setting up Convolution31
I0818 10:49:16.389452  2412 net.cpp:186] Top shape: 128 64 8 8 (524288)
I0818 10:49:16.389457  2412 net.cpp:194] Memory required for data: 1035469312
I0818 10:49:16.389467  2412 layer_factory.hpp:77] Creating layer BatchNorm31
I0818 10:49:16.389482  2412 net.cpp:128] Creating Layer BatchNorm31
I0818 10:49:16.389487  2412 net.cpp:558] BatchNorm31 <- Convolution31
I0818 10:49:16.389497  2412 net.cpp:509] BatchNorm31 -> Convolution31 (in-place)
I0818 10:49:16.389772  2412 net.cpp:172] Setting up BatchNorm31
I0818 10:49:16.389783  2412 net.cpp:186] Top shape: 128 64 8 8 (524288)
I0818 10:49:16.389787  2412 net.cpp:194] Memory required for data: 1037566464
I0818 10:49:16.389797  2412 layer_factory.hpp:77] Creating layer Scale31
I0818 10:49:16.389808  2412 net.cpp:128] Creating Layer Scale31
I0818 10:49:16.389812  2412 net.cpp:558] Scale31 <- Convolution31
I0818 10:49:16.389818  2412 net.cpp:509] Scale31 -> Convolution31 (in-place)
I0818 10:49:16.389863  2412 layer_factory.hpp:77] Creating layer Scale31
I0818 10:49:16.390019  2412 net.cpp:172] Setting up Scale31
I0818 10:49:16.390033  2412 net.cpp:186] Top shape: 128 64 8 8 (524288)
I0818 10:49:16.390036  2412 net.cpp:194] Memory required for data: 1039663616
I0818 10:49:16.390044  2412 layer_factory.hpp:77] Creating layer Convolution32
I0818 10:49:16.390058  2412 net.cpp:128] Creating Layer Convolution32
I0818 10:49:16.390064  2412 net.cpp:558] Convolution32 <- Eltwise14_ReLU29_0_split_1
I0818 10:49:16.390072  2412 net.cpp:522] Convolution32 -> Convolution32
I0818 10:49:16.396188  2412 net.cpp:172] Setting up Convolution32
I0818 10:49:16.396216  2412 net.cpp:186] Top shape: 128 64 8 8 (524288)
I0818 10:49:16.396220  2412 net.cpp:194] Memory required for data: 1041760768
I0818 10:49:16.396232  2412 layer_factory.hpp:77] Creating layer BatchNorm32
I0818 10:49:16.396245  2412 net.cpp:128] Creating Layer BatchNorm32
I0818 10:49:16.396250  2412 net.cpp:558] BatchNorm32 <- Convolution32
I0818 10:49:16.396262  2412 net.cpp:509] BatchNorm32 -> Convolution32 (in-place)
I0818 10:49:16.396565  2412 net.cpp:172] Setting up BatchNorm32
I0818 10:49:16.396577  2412 net.cpp:186] Top shape: 128 64 8 8 (524288)
I0818 10:49:16.396582  2412 net.cpp:194] Memory required for data: 1043857920
I0818 10:49:16.396592  2412 layer_factory.hpp:77] Creating layer Scale32
I0818 10:49:16.396600  2412 net.cpp:128] Creating Layer Scale32
I0818 10:49:16.396605  2412 net.cpp:558] Scale32 <- Convolution32
I0818 10:49:16.396610  2412 net.cpp:509] Scale32 -> Convolution32 (in-place)
I0818 10:49:16.396656  2412 layer_factory.hpp:77] Creating layer Scale32
I0818 10:49:16.396816  2412 net.cpp:172] Setting up Scale32
I0818 10:49:16.396827  2412 net.cpp:186] Top shape: 128 64 8 8 (524288)
I0818 10:49:16.396831  2412 net.cpp:194] Memory required for data: 1045955072
I0818 10:49:16.396839  2412 layer_factory.hpp:77] Creating layer ReLU30
I0818 10:49:16.396849  2412 net.cpp:128] Creating Layer ReLU30
I0818 10:49:16.396854  2412 net.cpp:558] ReLU30 <- Convolution32
I0818 10:49:16.396859  2412 net.cpp:509] ReLU30 -> Convolution32 (in-place)
I0818 10:49:16.397997  2412 net.cpp:172] Setting up ReLU30
I0818 10:49:16.398022  2412 net.cpp:186] Top shape: 128 64 8 8 (524288)
I0818 10:49:16.398027  2412 net.cpp:194] Memory required for data: 1048052224
I0818 10:49:16.398035  2412 layer_factory.hpp:77] Creating layer Convolution33
I0818 10:49:16.398048  2412 net.cpp:128] Creating Layer Convolution33
I0818 10:49:16.398054  2412 net.cpp:558] Convolution33 <- Convolution32
I0818 10:49:16.398068  2412 net.cpp:522] Convolution33 -> Convolution33
I0818 10:49:16.405005  2412 net.cpp:172] Setting up Convolution33
I0818 10:49:16.405032  2412 net.cpp:186] Top shape: 128 64 8 8 (524288)
I0818 10:49:16.405037  2412 net.cpp:194] Memory required for data: 1050149376
I0818 10:49:16.405047  2412 layer_factory.hpp:77] Creating layer BatchNorm33
I0818 10:49:16.405059  2412 net.cpp:128] Creating Layer BatchNorm33
I0818 10:49:16.405064  2412 net.cpp:558] BatchNorm33 <- Convolution33
I0818 10:49:16.405071  2412 net.cpp:509] BatchNorm33 -> Convolution33 (in-place)
I0818 10:49:16.405364  2412 net.cpp:172] Setting up BatchNorm33
I0818 10:49:16.405376  2412 net.cpp:186] Top shape: 128 64 8 8 (524288)
I0818 10:49:16.405380  2412 net.cpp:194] Memory required for data: 1052246528
I0818 10:49:16.405390  2412 layer_factory.hpp:77] Creating layer Scale33
I0818 10:49:16.405400  2412 net.cpp:128] Creating Layer Scale33
I0818 10:49:16.405405  2412 net.cpp:558] Scale33 <- Convolution33
I0818 10:49:16.405409  2412 net.cpp:509] Scale33 -> Convolution33 (in-place)
I0818 10:49:16.405454  2412 layer_factory.hpp:77] Creating layer Scale33
I0818 10:49:16.405616  2412 net.cpp:172] Setting up Scale33
I0818 10:49:16.405627  2412 net.cpp:186] Top shape: 128 64 8 8 (524288)
I0818 10:49:16.405630  2412 net.cpp:194] Memory required for data: 1054343680
I0818 10:49:16.405639  2412 layer_factory.hpp:77] Creating layer Eltwise15
I0818 10:49:16.405649  2412 net.cpp:128] Creating Layer Eltwise15
I0818 10:49:16.405653  2412 net.cpp:558] Eltwise15 <- Convolution31
I0818 10:49:16.405658  2412 net.cpp:558] Eltwise15 <- Convolution33
I0818 10:49:16.405666  2412 net.cpp:522] Eltwise15 -> Eltwise15
I0818 10:49:16.405690  2412 net.cpp:172] Setting up Eltwise15
I0818 10:49:16.405699  2412 net.cpp:186] Top shape: 128 64 8 8 (524288)
I0818 10:49:16.405701  2412 net.cpp:194] Memory required for data: 1056440832
I0818 10:49:16.405706  2412 layer_factory.hpp:77] Creating layer ReLU31
I0818 10:49:16.405714  2412 net.cpp:128] Creating Layer ReLU31
I0818 10:49:16.405717  2412 net.cpp:558] ReLU31 <- Eltwise15
I0818 10:49:16.405730  2412 net.cpp:509] ReLU31 -> Eltwise15 (in-place)
I0818 10:49:16.406828  2412 net.cpp:172] Setting up ReLU31
I0818 10:49:16.406842  2412 net.cpp:186] Top shape: 128 64 8 8 (524288)
I0818 10:49:16.406847  2412 net.cpp:194] Memory required for data: 1058537984
I0818 10:49:16.406853  2412 layer_factory.hpp:77] Creating layer Eltwise15_ReLU31_0_split
I0818 10:49:16.406862  2412 net.cpp:128] Creating Layer Eltwise15_ReLU31_0_split
I0818 10:49:16.406885  2412 net.cpp:558] Eltwise15_ReLU31_0_split <- Eltwise15
I0818 10:49:16.406896  2412 net.cpp:522] Eltwise15_ReLU31_0_split -> Eltwise15_ReLU31_0_split_0
I0818 10:49:16.406906  2412 net.cpp:522] Eltwise15_ReLU31_0_split -> Eltwise15_ReLU31_0_split_1
I0818 10:49:16.406970  2412 net.cpp:172] Setting up Eltwise15_ReLU31_0_split
I0818 10:49:16.406980  2412 net.cpp:186] Top shape: 128 64 8 8 (524288)
I0818 10:49:16.406986  2412 net.cpp:186] Top shape: 128 64 8 8 (524288)
I0818 10:49:16.406989  2412 net.cpp:194] Memory required for data: 1062732288
I0818 10:49:16.406994  2412 layer_factory.hpp:77] Creating layer Convolution34
I0818 10:49:16.407006  2412 net.cpp:128] Creating Layer Convolution34
I0818 10:49:16.407011  2412 net.cpp:558] Convolution34 <- Eltwise15_ReLU31_0_split_0
I0818 10:49:16.407021  2412 net.cpp:522] Convolution34 -> Convolution34
I0818 10:49:16.413580  2412 net.cpp:172] Setting up Convolution34
I0818 10:49:16.413607  2412 net.cpp:186] Top shape: 128 64 8 8 (524288)
I0818 10:49:16.413611  2412 net.cpp:194] Memory required for data: 1064829440
I0818 10:49:16.413622  2412 layer_factory.hpp:77] Creating layer BatchNorm34
I0818 10:49:16.413635  2412 net.cpp:128] Creating Layer BatchNorm34
I0818 10:49:16.413640  2412 net.cpp:558] BatchNorm34 <- Convolution34
I0818 10:49:16.413645  2412 net.cpp:509] BatchNorm34 -> Convolution34 (in-place)
I0818 10:49:16.413928  2412 net.cpp:172] Setting up BatchNorm34
I0818 10:49:16.413941  2412 net.cpp:186] Top shape: 128 64 8 8 (524288)
I0818 10:49:16.413945  2412 net.cpp:194] Memory required for data: 1066926592
I0818 10:49:16.413954  2412 layer_factory.hpp:77] Creating layer Scale34
I0818 10:49:16.413961  2412 net.cpp:128] Creating Layer Scale34
I0818 10:49:16.413965  2412 net.cpp:558] Scale34 <- Convolution34
I0818 10:49:16.413971  2412 net.cpp:509] Scale34 -> Convolution34 (in-place)
I0818 10:49:16.414018  2412 layer_factory.hpp:77] Creating layer Scale34
I0818 10:49:16.414175  2412 net.cpp:172] Setting up Scale34
I0818 10:49:16.414182  2412 net.cpp:186] Top shape: 128 64 8 8 (524288)
I0818 10:49:16.414186  2412 net.cpp:194] Memory required for data: 1069023744
I0818 10:49:16.414194  2412 layer_factory.hpp:77] Creating layer ReLU32
I0818 10:49:16.414202  2412 net.cpp:128] Creating Layer ReLU32
I0818 10:49:16.414207  2412 net.cpp:558] ReLU32 <- Convolution34
I0818 10:49:16.414212  2412 net.cpp:509] ReLU32 -> Convolution34 (in-place)
I0818 10:49:16.415621  2412 net.cpp:172] Setting up ReLU32
I0818 10:49:16.415639  2412 net.cpp:186] Top shape: 128 64 8 8 (524288)
I0818 10:49:16.415644  2412 net.cpp:194] Memory required for data: 1071120896
I0818 10:49:16.415649  2412 layer_factory.hpp:77] Creating layer Convolution35
I0818 10:49:16.415665  2412 net.cpp:128] Creating Layer Convolution35
I0818 10:49:16.415671  2412 net.cpp:558] Convolution35 <- Convolution34
I0818 10:49:16.415680  2412 net.cpp:522] Convolution35 -> Convolution35
I0818 10:49:16.422557  2412 net.cpp:172] Setting up Convolution35
I0818 10:49:16.422585  2412 net.cpp:186] Top shape: 128 64 8 8 (524288)
I0818 10:49:16.422588  2412 net.cpp:194] Memory required for data: 1073218048
I0818 10:49:16.422600  2412 layer_factory.hpp:77] Creating layer BatchNorm35
I0818 10:49:16.422610  2412 net.cpp:128] Creating Layer BatchNorm35
I0818 10:49:16.422616  2412 net.cpp:558] BatchNorm35 <- Convolution35
I0818 10:49:16.422624  2412 net.cpp:509] BatchNorm35 -> Convolution35 (in-place)
I0818 10:49:16.422937  2412 net.cpp:172] Setting up BatchNorm35
I0818 10:49:16.422951  2412 net.cpp:186] Top shape: 128 64 8 8 (524288)
I0818 10:49:16.422955  2412 net.cpp:194] Memory required for data: 1075315200
I0818 10:49:16.422966  2412 layer_factory.hpp:77] Creating layer Scale35
I0818 10:49:16.422976  2412 net.cpp:128] Creating Layer Scale35
I0818 10:49:16.422981  2412 net.cpp:558] Scale35 <- Convolution35
I0818 10:49:16.422986  2412 net.cpp:509] Scale35 -> Convolution35 (in-place)
I0818 10:49:16.423032  2412 layer_factory.hpp:77] Creating layer Scale35
I0818 10:49:16.423194  2412 net.cpp:172] Setting up Scale35
I0818 10:49:16.423202  2412 net.cpp:186] Top shape: 128 64 8 8 (524288)
I0818 10:49:16.423223  2412 net.cpp:194] Memory required for data: 1077412352
I0818 10:49:16.423231  2412 layer_factory.hpp:77] Creating layer Eltwise16
I0818 10:49:16.423240  2412 net.cpp:128] Creating Layer Eltwise16
I0818 10:49:16.423246  2412 net.cpp:558] Eltwise16 <- Eltwise15_ReLU31_0_split_1
I0818 10:49:16.423251  2412 net.cpp:558] Eltwise16 <- Convolution35
I0818 10:49:16.423260  2412 net.cpp:522] Eltwise16 -> Eltwise16
I0818 10:49:16.423285  2412 net.cpp:172] Setting up Eltwise16
I0818 10:49:16.423292  2412 net.cpp:186] Top shape: 128 64 8 8 (524288)
I0818 10:49:16.423296  2412 net.cpp:194] Memory required for data: 1079509504
I0818 10:49:16.423300  2412 layer_factory.hpp:77] Creating layer ReLU33
I0818 10:49:16.423306  2412 net.cpp:128] Creating Layer ReLU33
I0818 10:49:16.423311  2412 net.cpp:558] ReLU33 <- Eltwise16
I0818 10:49:16.423318  2412 net.cpp:509] ReLU33 -> Eltwise16 (in-place)
I0818 10:49:16.424394  2412 net.cpp:172] Setting up ReLU33
I0818 10:49:16.424417  2412 net.cpp:186] Top shape: 128 64 8 8 (524288)
I0818 10:49:16.424422  2412 net.cpp:194] Memory required for data: 1081606656
I0818 10:49:16.424427  2412 layer_factory.hpp:77] Creating layer Eltwise16_ReLU33_0_split
I0818 10:49:16.424433  2412 net.cpp:128] Creating Layer Eltwise16_ReLU33_0_split
I0818 10:49:16.424443  2412 net.cpp:558] Eltwise16_ReLU33_0_split <- Eltwise16
I0818 10:49:16.424449  2412 net.cpp:522] Eltwise16_ReLU33_0_split -> Eltwise16_ReLU33_0_split_0
I0818 10:49:16.424458  2412 net.cpp:522] Eltwise16_ReLU33_0_split -> Eltwise16_ReLU33_0_split_1
I0818 10:49:16.424520  2412 net.cpp:172] Setting up Eltwise16_ReLU33_0_split
I0818 10:49:16.424526  2412 net.cpp:186] Top shape: 128 64 8 8 (524288)
I0818 10:49:16.424532  2412 net.cpp:186] Top shape: 128 64 8 8 (524288)
I0818 10:49:16.424536  2412 net.cpp:194] Memory required for data: 1085800960
I0818 10:49:16.424540  2412 layer_factory.hpp:77] Creating layer Convolution36
I0818 10:49:16.424552  2412 net.cpp:128] Creating Layer Convolution36
I0818 10:49:16.424557  2412 net.cpp:558] Convolution36 <- Eltwise16_ReLU33_0_split_0
I0818 10:49:16.424566  2412 net.cpp:522] Convolution36 -> Convolution36
I0818 10:49:16.431093  2412 net.cpp:172] Setting up Convolution36
I0818 10:49:16.431119  2412 net.cpp:186] Top shape: 128 64 8 8 (524288)
I0818 10:49:16.431124  2412 net.cpp:194] Memory required for data: 1087898112
I0818 10:49:16.431134  2412 layer_factory.hpp:77] Creating layer BatchNorm36
I0818 10:49:16.431145  2412 net.cpp:128] Creating Layer BatchNorm36
I0818 10:49:16.431150  2412 net.cpp:558] BatchNorm36 <- Convolution36
I0818 10:49:16.431157  2412 net.cpp:509] BatchNorm36 -> Convolution36 (in-place)
I0818 10:49:16.431443  2412 net.cpp:172] Setting up BatchNorm36
I0818 10:49:16.431457  2412 net.cpp:186] Top shape: 128 64 8 8 (524288)
I0818 10:49:16.431460  2412 net.cpp:194] Memory required for data: 1089995264
I0818 10:49:16.431470  2412 layer_factory.hpp:77] Creating layer Scale36
I0818 10:49:16.431479  2412 net.cpp:128] Creating Layer Scale36
I0818 10:49:16.431484  2412 net.cpp:558] Scale36 <- Convolution36
I0818 10:49:16.431490  2412 net.cpp:509] Scale36 -> Convolution36 (in-place)
I0818 10:49:16.431535  2412 layer_factory.hpp:77] Creating layer Scale36
I0818 10:49:16.431700  2412 net.cpp:172] Setting up Scale36
I0818 10:49:16.431708  2412 net.cpp:186] Top shape: 128 64 8 8 (524288)
I0818 10:49:16.431712  2412 net.cpp:194] Memory required for data: 1092092416
I0818 10:49:16.431720  2412 layer_factory.hpp:77] Creating layer ReLU34
I0818 10:49:16.431730  2412 net.cpp:128] Creating Layer ReLU34
I0818 10:49:16.431735  2412 net.cpp:558] ReLU34 <- Convolution36
I0818 10:49:16.431740  2412 net.cpp:509] ReLU34 -> Convolution36 (in-place)
I0818 10:49:16.433151  2412 net.cpp:172] Setting up ReLU34
I0818 10:49:16.433167  2412 net.cpp:186] Top shape: 128 64 8 8 (524288)
I0818 10:49:16.433171  2412 net.cpp:194] Memory required for data: 1094189568
I0818 10:49:16.433176  2412 layer_factory.hpp:77] Creating layer Convolution37
I0818 10:49:16.433192  2412 net.cpp:128] Creating Layer Convolution37
I0818 10:49:16.433214  2412 net.cpp:558] Convolution37 <- Convolution36
I0818 10:49:16.433223  2412 net.cpp:522] Convolution37 -> Convolution37
I0818 10:49:16.440120  2412 net.cpp:172] Setting up Convolution37
I0818 10:49:16.440146  2412 net.cpp:186] Top shape: 128 64 8 8 (524288)
I0818 10:49:16.440151  2412 net.cpp:194] Memory required for data: 1096286720
I0818 10:49:16.440162  2412 layer_factory.hpp:77] Creating layer BatchNorm37
I0818 10:49:16.440173  2412 net.cpp:128] Creating Layer BatchNorm37
I0818 10:49:16.440178  2412 net.cpp:558] BatchNorm37 <- Convolution37
I0818 10:49:16.440192  2412 net.cpp:509] BatchNorm37 -> Convolution37 (in-place)
I0818 10:49:16.440491  2412 net.cpp:172] Setting up BatchNorm37
I0818 10:49:16.440503  2412 net.cpp:186] Top shape: 128 64 8 8 (524288)
I0818 10:49:16.440508  2412 net.cpp:194] Memory required for data: 1098383872
I0818 10:49:16.440541  2412 layer_factory.hpp:77] Creating layer Scale37
I0818 10:49:16.440551  2412 net.cpp:128] Creating Layer Scale37
I0818 10:49:16.440554  2412 net.cpp:558] Scale37 <- Convolution37
I0818 10:49:16.440560  2412 net.cpp:509] Scale37 -> Convolution37 (in-place)
I0818 10:49:16.440605  2412 layer_factory.hpp:77] Creating layer Scale37
I0818 10:49:16.440768  2412 net.cpp:172] Setting up Scale37
I0818 10:49:16.440778  2412 net.cpp:186] Top shape: 128 64 8 8 (524288)
I0818 10:49:16.440783  2412 net.cpp:194] Memory required for data: 1100481024
I0818 10:49:16.440790  2412 layer_factory.hpp:77] Creating layer Eltwise17
I0818 10:49:16.440798  2412 net.cpp:128] Creating Layer Eltwise17
I0818 10:49:16.440802  2412 net.cpp:558] Eltwise17 <- Eltwise16_ReLU33_0_split_1
I0818 10:49:16.440807  2412 net.cpp:558] Eltwise17 <- Convolution37
I0818 10:49:16.440816  2412 net.cpp:522] Eltwise17 -> Eltwise17
I0818 10:49:16.440840  2412 net.cpp:172] Setting up Eltwise17
I0818 10:49:16.440847  2412 net.cpp:186] Top shape: 128 64 8 8 (524288)
I0818 10:49:16.440851  2412 net.cpp:194] Memory required for data: 1102578176
I0818 10:49:16.440855  2412 layer_factory.hpp:77] Creating layer ReLU35
I0818 10:49:16.440865  2412 net.cpp:128] Creating Layer ReLU35
I0818 10:49:16.440870  2412 net.cpp:558] ReLU35 <- Eltwise17
I0818 10:49:16.440874  2412 net.cpp:509] ReLU35 -> Eltwise17 (in-place)
I0818 10:49:16.441915  2412 net.cpp:172] Setting up ReLU35
I0818 10:49:16.441929  2412 net.cpp:186] Top shape: 128 64 8 8 (524288)
I0818 10:49:16.441933  2412 net.cpp:194] Memory required for data: 1104675328
I0818 10:49:16.441938  2412 layer_factory.hpp:77] Creating layer Eltwise17_ReLU35_0_split
I0818 10:49:16.441947  2412 net.cpp:128] Creating Layer Eltwise17_ReLU35_0_split
I0818 10:49:16.441952  2412 net.cpp:558] Eltwise17_ReLU35_0_split <- Eltwise17
I0818 10:49:16.441958  2412 net.cpp:522] Eltwise17_ReLU35_0_split -> Eltwise17_ReLU35_0_split_0
I0818 10:49:16.441967  2412 net.cpp:522] Eltwise17_ReLU35_0_split -> Eltwise17_ReLU35_0_split_1
I0818 10:49:16.442023  2412 net.cpp:172] Setting up Eltwise17_ReLU35_0_split
I0818 10:49:16.442029  2412 net.cpp:186] Top shape: 128 64 8 8 (524288)
I0818 10:49:16.442035  2412 net.cpp:186] Top shape: 128 64 8 8 (524288)
I0818 10:49:16.442039  2412 net.cpp:194] Memory required for data: 1108869632
I0818 10:49:16.442044  2412 layer_factory.hpp:77] Creating layer Convolution38
I0818 10:49:16.442057  2412 net.cpp:128] Creating Layer Convolution38
I0818 10:49:16.442062  2412 net.cpp:558] Convolution38 <- Eltwise17_ReLU35_0_split_0
I0818 10:49:16.442070  2412 net.cpp:522] Convolution38 -> Convolution38
I0818 10:49:16.448676  2412 net.cpp:172] Setting up Convolution38
I0818 10:49:16.448701  2412 net.cpp:186] Top shape: 128 64 8 8 (524288)
I0818 10:49:16.448706  2412 net.cpp:194] Memory required for data: 1110966784
I0818 10:49:16.448716  2412 layer_factory.hpp:77] Creating layer BatchNorm38
I0818 10:49:16.448726  2412 net.cpp:128] Creating Layer BatchNorm38
I0818 10:49:16.448732  2412 net.cpp:558] BatchNorm38 <- Convolution38
I0818 10:49:16.448740  2412 net.cpp:509] BatchNorm38 -> Convolution38 (in-place)
I0818 10:49:16.449033  2412 net.cpp:172] Setting up BatchNorm38
I0818 10:49:16.449059  2412 net.cpp:186] Top shape: 128 64 8 8 (524288)
I0818 10:49:16.449064  2412 net.cpp:194] Memory required for data: 1113063936
I0818 10:49:16.449074  2412 layer_factory.hpp:77] Creating layer Scale38
I0818 10:49:16.449082  2412 net.cpp:128] Creating Layer Scale38
I0818 10:49:16.449087  2412 net.cpp:558] Scale38 <- Convolution38
I0818 10:49:16.449093  2412 net.cpp:509] Scale38 -> Convolution38 (in-place)
I0818 10:49:16.449141  2412 layer_factory.hpp:77] Creating layer Scale38
I0818 10:49:16.449304  2412 net.cpp:172] Setting up Scale38
I0818 10:49:16.449311  2412 net.cpp:186] Top shape: 128 64 8 8 (524288)
I0818 10:49:16.449316  2412 net.cpp:194] Memory required for data: 1115161088
I0818 10:49:16.449323  2412 layer_factory.hpp:77] Creating layer ReLU36
I0818 10:49:16.449332  2412 net.cpp:128] Creating Layer ReLU36
I0818 10:49:16.449337  2412 net.cpp:558] ReLU36 <- Convolution38
I0818 10:49:16.449344  2412 net.cpp:509] ReLU36 -> Convolution38 (in-place)
I0818 10:49:16.450738  2412 net.cpp:172] Setting up ReLU36
I0818 10:49:16.450764  2412 net.cpp:186] Top shape: 128 64 8 8 (524288)
I0818 10:49:16.450768  2412 net.cpp:194] Memory required for data: 1117258240
I0818 10:49:16.450773  2412 layer_factory.hpp:77] Creating layer Convolution39
I0818 10:49:16.450790  2412 net.cpp:128] Creating Layer Convolution39
I0818 10:49:16.450796  2412 net.cpp:558] Convolution39 <- Convolution38
I0818 10:49:16.450806  2412 net.cpp:522] Convolution39 -> Convolution39
I0818 10:49:16.457691  2412 net.cpp:172] Setting up Convolution39
I0818 10:49:16.457718  2412 net.cpp:186] Top shape: 128 64 8 8 (524288)
I0818 10:49:16.457722  2412 net.cpp:194] Memory required for data: 1119355392
I0818 10:49:16.457733  2412 layer_factory.hpp:77] Creating layer BatchNorm39
I0818 10:49:16.457744  2412 net.cpp:128] Creating Layer BatchNorm39
I0818 10:49:16.457749  2412 net.cpp:558] BatchNorm39 <- Convolution39
I0818 10:49:16.457759  2412 net.cpp:509] BatchNorm39 -> Convolution39 (in-place)
I0818 10:49:16.458063  2412 net.cpp:172] Setting up BatchNorm39
I0818 10:49:16.458076  2412 net.cpp:186] Top shape: 128 64 8 8 (524288)
I0818 10:49:16.458081  2412 net.cpp:194] Memory required for data: 1121452544
I0818 10:49:16.458091  2412 layer_factory.hpp:77] Creating layer Scale39
I0818 10:49:16.458097  2412 net.cpp:128] Creating Layer Scale39
I0818 10:49:16.458102  2412 net.cpp:558] Scale39 <- Convolution39
I0818 10:49:16.458108  2412 net.cpp:509] Scale39 -> Convolution39 (in-place)
I0818 10:49:16.458155  2412 layer_factory.hpp:77] Creating layer Scale39
I0818 10:49:16.458320  2412 net.cpp:172] Setting up Scale39
I0818 10:49:16.458331  2412 net.cpp:186] Top shape: 128 64 8 8 (524288)
I0818 10:49:16.458335  2412 net.cpp:194] Memory required for data: 1123549696
I0818 10:49:16.458343  2412 layer_factory.hpp:77] Creating layer Eltwise18
I0818 10:49:16.458350  2412 net.cpp:128] Creating Layer Eltwise18
I0818 10:49:16.458359  2412 net.cpp:558] Eltwise18 <- Eltwise17_ReLU35_0_split_1
I0818 10:49:16.458364  2412 net.cpp:558] Eltwise18 <- Convolution39
I0818 10:49:16.458369  2412 net.cpp:522] Eltwise18 -> Eltwise18
I0818 10:49:16.458392  2412 net.cpp:172] Setting up Eltwise18
I0818 10:49:16.458400  2412 net.cpp:186] Top shape: 128 64 8 8 (524288)
I0818 10:49:16.458403  2412 net.cpp:194] Memory required for data: 1125646848
I0818 10:49:16.458408  2412 layer_factory.hpp:77] Creating layer ReLU37
I0818 10:49:16.458417  2412 net.cpp:128] Creating Layer ReLU37
I0818 10:49:16.458421  2412 net.cpp:558] ReLU37 <- Eltwise18
I0818 10:49:16.458427  2412 net.cpp:509] ReLU37 -> Eltwise18 (in-place)
I0818 10:49:16.459497  2412 net.cpp:172] Setting up ReLU37
I0818 10:49:16.459513  2412 net.cpp:186] Top shape: 128 64 8 8 (524288)
I0818 10:49:16.459518  2412 net.cpp:194] Memory required for data: 1127744000
I0818 10:49:16.459523  2412 layer_factory.hpp:77] Creating layer Eltwise18_ReLU37_0_split
I0818 10:49:16.459532  2412 net.cpp:128] Creating Layer Eltwise18_ReLU37_0_split
I0818 10:49:16.459538  2412 net.cpp:558] Eltwise18_ReLU37_0_split <- Eltwise18
I0818 10:49:16.459564  2412 net.cpp:522] Eltwise18_ReLU37_0_split -> Eltwise18_ReLU37_0_split_0
I0818 10:49:16.459574  2412 net.cpp:522] Eltwise18_ReLU37_0_split -> Eltwise18_ReLU37_0_split_1
I0818 10:49:16.459632  2412 net.cpp:172] Setting up Eltwise18_ReLU37_0_split
I0818 10:49:16.459641  2412 net.cpp:186] Top shape: 128 64 8 8 (524288)
I0818 10:49:16.459647  2412 net.cpp:186] Top shape: 128 64 8 8 (524288)
I0818 10:49:16.459651  2412 net.cpp:194] Memory required for data: 1131938304
I0818 10:49:16.459656  2412 layer_factory.hpp:77] Creating layer Convolution40
I0818 10:49:16.459668  2412 net.cpp:128] Creating Layer Convolution40
I0818 10:49:16.459673  2412 net.cpp:558] Convolution40 <- Eltwise18_ReLU37_0_split_0
I0818 10:49:16.459681  2412 net.cpp:522] Convolution40 -> Convolution40
I0818 10:49:16.463779  2412 net.cpp:172] Setting up Convolution40
I0818 10:49:16.463804  2412 net.cpp:186] Top shape: 128 64 8 8 (524288)
I0818 10:49:16.463809  2412 net.cpp:194] Memory required for data: 1134035456
I0818 10:49:16.463819  2412 layer_factory.hpp:77] Creating layer BatchNorm40
I0818 10:49:16.463830  2412 net.cpp:128] Creating Layer BatchNorm40
I0818 10:49:16.463835  2412 net.cpp:558] BatchNorm40 <- Convolution40
I0818 10:49:16.463845  2412 net.cpp:509] BatchNorm40 -> Convolution40 (in-place)
I0818 10:49:16.464135  2412 net.cpp:172] Setting up BatchNorm40
I0818 10:49:16.464146  2412 net.cpp:186] Top shape: 128 64 8 8 (524288)
I0818 10:49:16.464150  2412 net.cpp:194] Memory required for data: 1136132608
I0818 10:49:16.464160  2412 layer_factory.hpp:77] Creating layer Scale40
I0818 10:49:16.464166  2412 net.cpp:128] Creating Layer Scale40
I0818 10:49:16.464171  2412 net.cpp:558] Scale40 <- Convolution40
I0818 10:49:16.464184  2412 net.cpp:509] Scale40 -> Convolution40 (in-place)
I0818 10:49:16.464227  2412 layer_factory.hpp:77] Creating layer Scale40
I0818 10:49:16.464388  2412 net.cpp:172] Setting up Scale40
I0818 10:49:16.464399  2412 net.cpp:186] Top shape: 128 64 8 8 (524288)
I0818 10:49:16.464403  2412 net.cpp:194] Memory required for data: 1138229760
I0818 10:49:16.464411  2412 layer_factory.hpp:77] Creating layer ReLU38
I0818 10:49:16.464417  2412 net.cpp:128] Creating Layer ReLU38
I0818 10:49:16.464421  2412 net.cpp:558] ReLU38 <- Convolution40
I0818 10:49:16.464429  2412 net.cpp:509] ReLU38 -> Convolution40 (in-place)
I0818 10:49:16.464673  2412 net.cpp:172] Setting up ReLU38
I0818 10:49:16.464689  2412 net.cpp:186] Top shape: 128 64 8 8 (524288)
I0818 10:49:16.464692  2412 net.cpp:194] Memory required for data: 1140326912
I0818 10:49:16.464696  2412 layer_factory.hpp:77] Creating layer Convolution41
I0818 10:49:16.464709  2412 net.cpp:128] Creating Layer Convolution41
I0818 10:49:16.464715  2412 net.cpp:558] Convolution41 <- Convolution40
I0818 10:49:16.464723  2412 net.cpp:522] Convolution41 -> Convolution41
I0818 10:49:16.467239  2412 net.cpp:172] Setting up Convolution41
I0818 10:49:16.467267  2412 net.cpp:186] Top shape: 128 64 8 8 (524288)
I0818 10:49:16.467270  2412 net.cpp:194] Memory required for data: 1142424064
I0818 10:49:16.467281  2412 layer_factory.hpp:77] Creating layer BatchNorm41
I0818 10:49:16.467290  2412 net.cpp:128] Creating Layer BatchNorm41
I0818 10:49:16.467295  2412 net.cpp:558] BatchNorm41 <- Convolution41
I0818 10:49:16.467304  2412 net.cpp:509] BatchNorm41 -> Convolution41 (in-place)
I0818 10:49:16.467600  2412 net.cpp:172] Setting up BatchNorm41
I0818 10:49:16.467607  2412 net.cpp:186] Top shape: 128 64 8 8 (524288)
I0818 10:49:16.467612  2412 net.cpp:194] Memory required for data: 1144521216
I0818 10:49:16.467622  2412 layer_factory.hpp:77] Creating layer Scale41
I0818 10:49:16.467628  2412 net.cpp:128] Creating Layer Scale41
I0818 10:49:16.467633  2412 net.cpp:558] Scale41 <- Convolution41
I0818 10:49:16.467638  2412 net.cpp:509] Scale41 -> Convolution41 (in-place)
I0818 10:49:16.467682  2412 layer_factory.hpp:77] Creating layer Scale41
I0818 10:49:16.467849  2412 net.cpp:172] Setting up Scale41
I0818 10:49:16.467857  2412 net.cpp:186] Top shape: 128 64 8 8 (524288)
I0818 10:49:16.467875  2412 net.cpp:194] Memory required for data: 1146618368
I0818 10:49:16.467885  2412 layer_factory.hpp:77] Creating layer Eltwise19
I0818 10:49:16.467893  2412 net.cpp:128] Creating Layer Eltwise19
I0818 10:49:16.467898  2412 net.cpp:558] Eltwise19 <- Eltwise18_ReLU37_0_split_1
I0818 10:49:16.467903  2412 net.cpp:558] Eltwise19 <- Convolution41
I0818 10:49:16.467909  2412 net.cpp:522] Eltwise19 -> Eltwise19
I0818 10:49:16.467934  2412 net.cpp:172] Setting up Eltwise19
I0818 10:49:16.467941  2412 net.cpp:186] Top shape: 128 64 8 8 (524288)
I0818 10:49:16.467945  2412 net.cpp:194] Memory required for data: 1148715520
I0818 10:49:16.467949  2412 layer_factory.hpp:77] Creating layer ReLU39
I0818 10:49:16.467958  2412 net.cpp:128] Creating Layer ReLU39
I0818 10:49:16.467962  2412 net.cpp:558] ReLU39 <- Eltwise19
I0818 10:49:16.467968  2412 net.cpp:509] ReLU39 -> Eltwise19 (in-place)
I0818 10:49:16.468220  2412 net.cpp:172] Setting up ReLU39
I0818 10:49:16.468230  2412 net.cpp:186] Top shape: 128 64 8 8 (524288)
I0818 10:49:16.468233  2412 net.cpp:194] Memory required for data: 1150812672
I0818 10:49:16.468238  2412 layer_factory.hpp:77] Creating layer Eltwise19_ReLU39_0_split
I0818 10:49:16.468247  2412 net.cpp:128] Creating Layer Eltwise19_ReLU39_0_split
I0818 10:49:16.468252  2412 net.cpp:558] Eltwise19_ReLU39_0_split <- Eltwise19
I0818 10:49:16.468261  2412 net.cpp:522] Eltwise19_ReLU39_0_split -> Eltwise19_ReLU39_0_split_0
I0818 10:49:16.468271  2412 net.cpp:522] Eltwise19_ReLU39_0_split -> Eltwise19_ReLU39_0_split_1
I0818 10:49:16.468325  2412 net.cpp:172] Setting up Eltwise19_ReLU39_0_split
I0818 10:49:16.468335  2412 net.cpp:186] Top shape: 128 64 8 8 (524288)
I0818 10:49:16.468341  2412 net.cpp:186] Top shape: 128 64 8 8 (524288)
I0818 10:49:16.468345  2412 net.cpp:194] Memory required for data: 1155006976
I0818 10:49:16.468350  2412 layer_factory.hpp:77] Creating layer Convolution42
I0818 10:49:16.468363  2412 net.cpp:128] Creating Layer Convolution42
I0818 10:49:16.468367  2412 net.cpp:558] Convolution42 <- Eltwise19_ReLU39_0_split_0
I0818 10:49:16.468374  2412 net.cpp:522] Convolution42 -> Convolution42
I0818 10:49:16.473819  2412 net.cpp:172] Setting up Convolution42
I0818 10:49:16.473847  2412 net.cpp:186] Top shape: 128 64 8 8 (524288)
I0818 10:49:16.473851  2412 net.cpp:194] Memory required for data: 1157104128
I0818 10:49:16.473866  2412 layer_factory.hpp:77] Creating layer BatchNorm42
I0818 10:49:16.473881  2412 net.cpp:128] Creating Layer BatchNorm42
I0818 10:49:16.473887  2412 net.cpp:558] BatchNorm42 <- Convolution42
I0818 10:49:16.473897  2412 net.cpp:509] BatchNorm42 -> Convolution42 (in-place)
I0818 10:49:16.474189  2412 net.cpp:172] Setting up BatchNorm42
I0818 10:49:16.474202  2412 net.cpp:186] Top shape: 128 64 8 8 (524288)
I0818 10:49:16.474206  2412 net.cpp:194] Memory required for data: 1159201280
I0818 10:49:16.474216  2412 layer_factory.hpp:77] Creating layer Scale42
I0818 10:49:16.474223  2412 net.cpp:128] Creating Layer Scale42
I0818 10:49:16.474227  2412 net.cpp:558] Scale42 <- Convolution42
I0818 10:49:16.474236  2412 net.cpp:509] Scale42 -> Convolution42 (in-place)
I0818 10:49:16.474282  2412 layer_factory.hpp:77] Creating layer Scale42
I0818 10:49:16.474452  2412 net.cpp:172] Setting up Scale42
I0818 10:49:16.474462  2412 net.cpp:186] Top shape: 128 64 8 8 (524288)
I0818 10:49:16.474465  2412 net.cpp:194] Memory required for data: 1161298432
I0818 10:49:16.474473  2412 layer_factory.hpp:77] Creating layer ReLU40
I0818 10:49:16.474479  2412 net.cpp:128] Creating Layer ReLU40
I0818 10:49:16.474484  2412 net.cpp:558] ReLU40 <- Convolution42
I0818 10:49:16.474495  2412 net.cpp:509] ReLU40 -> Convolution42 (in-place)
I0818 10:49:16.475838  2412 net.cpp:172] Setting up ReLU40
I0818 10:49:16.475864  2412 net.cpp:186] Top shape: 128 64 8 8 (524288)
I0818 10:49:16.475868  2412 net.cpp:194] Memory required for data: 1163395584
I0818 10:49:16.475873  2412 layer_factory.hpp:77] Creating layer Convolution43
I0818 10:49:16.475894  2412 net.cpp:128] Creating Layer Convolution43
I0818 10:49:16.475921  2412 net.cpp:558] Convolution43 <- Convolution42
I0818 10:49:16.475932  2412 net.cpp:522] Convolution43 -> Convolution43
I0818 10:49:16.482894  2412 net.cpp:172] Setting up Convolution43
I0818 10:49:16.482916  2412 net.cpp:186] Top shape: 128 64 8 8 (524288)
I0818 10:49:16.482921  2412 net.cpp:194] Memory required for data: 1165492736
I0818 10:49:16.482934  2412 layer_factory.hpp:77] Creating layer BatchNorm43
I0818 10:49:16.482944  2412 net.cpp:128] Creating Layer BatchNorm43
I0818 10:49:16.482951  2412 net.cpp:558] BatchNorm43 <- Convolution43
I0818 10:49:16.482960  2412 net.cpp:509] BatchNorm43 -> Convolution43 (in-place)
I0818 10:49:16.483263  2412 net.cpp:172] Setting up BatchNorm43
I0818 10:49:16.483273  2412 net.cpp:186] Top shape: 128 64 8 8 (524288)
I0818 10:49:16.483278  2412 net.cpp:194] Memory required for data: 1167589888
I0818 10:49:16.483289  2412 layer_factory.hpp:77] Creating layer Scale43
I0818 10:49:16.483297  2412 net.cpp:128] Creating Layer Scale43
I0818 10:49:16.483302  2412 net.cpp:558] Scale43 <- Convolution43
I0818 10:49:16.483309  2412 net.cpp:509] Scale43 -> Convolution43 (in-place)
I0818 10:49:16.483351  2412 layer_factory.hpp:77] Creating layer Scale43
I0818 10:49:16.483516  2412 net.cpp:172] Setting up Scale43
I0818 10:49:16.483523  2412 net.cpp:186] Top shape: 128 64 8 8 (524288)
I0818 10:49:16.483527  2412 net.cpp:194] Memory required for data: 1169687040
I0818 10:49:16.483536  2412 layer_factory.hpp:77] Creating layer Eltwise20
I0818 10:49:16.483546  2412 net.cpp:128] Creating Layer Eltwise20
I0818 10:49:16.483552  2412 net.cpp:558] Eltwise20 <- Eltwise19_ReLU39_0_split_1
I0818 10:49:16.483557  2412 net.cpp:558] Eltwise20 <- Convolution43
I0818 10:49:16.483564  2412 net.cpp:522] Eltwise20 -> Eltwise20
I0818 10:49:16.483597  2412 net.cpp:172] Setting up Eltwise20
I0818 10:49:16.483608  2412 net.cpp:186] Top shape: 128 64 8 8 (524288)
I0818 10:49:16.483611  2412 net.cpp:194] Memory required for data: 1171784192
I0818 10:49:16.483615  2412 layer_factory.hpp:77] Creating layer ReLU41
I0818 10:49:16.483621  2412 net.cpp:128] Creating Layer ReLU41
I0818 10:49:16.483626  2412 net.cpp:558] ReLU41 <- Eltwise20
I0818 10:49:16.483631  2412 net.cpp:509] ReLU41 -> Eltwise20 (in-place)
I0818 10:49:16.484688  2412 net.cpp:172] Setting up ReLU41
I0818 10:49:16.484709  2412 net.cpp:186] Top shape: 128 64 8 8 (524288)
I0818 10:49:16.484712  2412 net.cpp:194] Memory required for data: 1173881344
I0818 10:49:16.484717  2412 layer_factory.hpp:77] Creating layer Eltwise20_ReLU41_0_split
I0818 10:49:16.484730  2412 net.cpp:128] Creating Layer Eltwise20_ReLU41_0_split
I0818 10:49:16.484735  2412 net.cpp:558] Eltwise20_ReLU41_0_split <- Eltwise20
I0818 10:49:16.484745  2412 net.cpp:522] Eltwise20_ReLU41_0_split -> Eltwise20_ReLU41_0_split_0
I0818 10:49:16.484757  2412 net.cpp:522] Eltwise20_ReLU41_0_split -> Eltwise20_ReLU41_0_split_1
I0818 10:49:16.484814  2412 net.cpp:172] Setting up Eltwise20_ReLU41_0_split
I0818 10:49:16.484822  2412 net.cpp:186] Top shape: 128 64 8 8 (524288)
I0818 10:49:16.484827  2412 net.cpp:186] Top shape: 128 64 8 8 (524288)
I0818 10:49:16.484832  2412 net.cpp:194] Memory required for data: 1178075648
I0818 10:49:16.484835  2412 layer_factory.hpp:77] Creating layer Convolution44
I0818 10:49:16.484851  2412 net.cpp:128] Creating Layer Convolution44
I0818 10:49:16.484858  2412 net.cpp:558] Convolution44 <- Eltwise20_ReLU41_0_split_0
I0818 10:49:16.484864  2412 net.cpp:522] Convolution44 -> Convolution44
I0818 10:49:16.491473  2412 net.cpp:172] Setting up Convolution44
I0818 10:49:16.491499  2412 net.cpp:186] Top shape: 128 64 8 8 (524288)
I0818 10:49:16.491503  2412 net.cpp:194] Memory required for data: 1180172800
I0818 10:49:16.491514  2412 layer_factory.hpp:77] Creating layer BatchNorm44
I0818 10:49:16.491526  2412 net.cpp:128] Creating Layer BatchNorm44
I0818 10:49:16.491531  2412 net.cpp:558] BatchNorm44 <- Convolution44
I0818 10:49:16.491540  2412 net.cpp:509] BatchNorm44 -> Convolution44 (in-place)
I0818 10:49:16.491835  2412 net.cpp:172] Setting up BatchNorm44
I0818 10:49:16.491863  2412 net.cpp:186] Top shape: 128 64 8 8 (524288)
I0818 10:49:16.491868  2412 net.cpp:194] Memory required for data: 1182269952
I0818 10:49:16.491878  2412 layer_factory.hpp:77] Creating layer Scale44
I0818 10:49:16.491884  2412 net.cpp:128] Creating Layer Scale44
I0818 10:49:16.491889  2412 net.cpp:558] Scale44 <- Convolution44
I0818 10:49:16.491894  2412 net.cpp:509] Scale44 -> Convolution44 (in-place)
I0818 10:49:16.491943  2412 layer_factory.hpp:77] Creating layer Scale44
I0818 10:49:16.492108  2412 net.cpp:172] Setting up Scale44
I0818 10:49:16.492120  2412 net.cpp:186] Top shape: 128 64 8 8 (524288)
I0818 10:49:16.492125  2412 net.cpp:194] Memory required for data: 1184367104
I0818 10:49:16.492132  2412 layer_factory.hpp:77] Creating layer ReLU42
I0818 10:49:16.492139  2412 net.cpp:128] Creating Layer ReLU42
I0818 10:49:16.492143  2412 net.cpp:558] ReLU42 <- Convolution44
I0818 10:49:16.492152  2412 net.cpp:509] ReLU42 -> Convolution44 (in-place)
I0818 10:49:16.493497  2412 net.cpp:172] Setting up ReLU42
I0818 10:49:16.493515  2412 net.cpp:186] Top shape: 128 64 8 8 (524288)
I0818 10:49:16.493520  2412 net.cpp:194] Memory required for data: 1186464256
I0818 10:49:16.493525  2412 layer_factory.hpp:77] Creating layer Convolution45
I0818 10:49:16.493537  2412 net.cpp:128] Creating Layer Convolution45
I0818 10:49:16.493542  2412 net.cpp:558] Convolution45 <- Convolution44
I0818 10:49:16.493552  2412 net.cpp:522] Convolution45 -> Convolution45
I0818 10:49:16.500486  2412 net.cpp:172] Setting up Convolution45
I0818 10:49:16.500512  2412 net.cpp:186] Top shape: 128 64 8 8 (524288)
I0818 10:49:16.500517  2412 net.cpp:194] Memory required for data: 1188561408
I0818 10:49:16.500528  2412 layer_factory.hpp:77] Creating layer BatchNorm45
I0818 10:49:16.500538  2412 net.cpp:128] Creating Layer BatchNorm45
I0818 10:49:16.500545  2412 net.cpp:558] BatchNorm45 <- Convolution45
I0818 10:49:16.500550  2412 net.cpp:509] BatchNorm45 -> Convolution45 (in-place)
I0818 10:49:16.500859  2412 net.cpp:172] Setting up BatchNorm45
I0818 10:49:16.500872  2412 net.cpp:186] Top shape: 128 64 8 8 (524288)
I0818 10:49:16.500876  2412 net.cpp:194] Memory required for data: 1190658560
I0818 10:49:16.500885  2412 layer_factory.hpp:77] Creating layer Scale45
I0818 10:49:16.500895  2412 net.cpp:128] Creating Layer Scale45
I0818 10:49:16.500900  2412 net.cpp:558] Scale45 <- Convolution45
I0818 10:49:16.500905  2412 net.cpp:509] Scale45 -> Convolution45 (in-place)
I0818 10:49:16.500952  2412 layer_factory.hpp:77] Creating layer Scale45
I0818 10:49:16.501121  2412 net.cpp:172] Setting up Scale45
I0818 10:49:16.501132  2412 net.cpp:186] Top shape: 128 64 8 8 (524288)
I0818 10:49:16.501137  2412 net.cpp:194] Memory required for data: 1192755712
I0818 10:49:16.501144  2412 layer_factory.hpp:77] Creating layer Eltwise21
I0818 10:49:16.501153  2412 net.cpp:128] Creating Layer Eltwise21
I0818 10:49:16.501158  2412 net.cpp:558] Eltwise21 <- Eltwise20_ReLU41_0_split_1
I0818 10:49:16.501163  2412 net.cpp:558] Eltwise21 <- Convolution45
I0818 10:49:16.501169  2412 net.cpp:522] Eltwise21 -> Eltwise21
I0818 10:49:16.501195  2412 net.cpp:172] Setting up Eltwise21
I0818 10:49:16.501202  2412 net.cpp:186] Top shape: 128 64 8 8 (524288)
I0818 10:49:16.501205  2412 net.cpp:194] Memory required for data: 1194852864
I0818 10:49:16.501210  2412 layer_factory.hpp:77] Creating layer ReLU43
I0818 10:49:16.501216  2412 net.cpp:128] Creating Layer ReLU43
I0818 10:49:16.501221  2412 net.cpp:558] ReLU43 <- Eltwise21
I0818 10:49:16.501229  2412 net.cpp:509] ReLU43 -> Eltwise21 (in-place)
…
I0818 10:49:16.745579  2412 layer_factory.hpp:77] Creating layer ReLU26
I0818 10:49:16.745585  2412 net.cpp:128] Creating Layer ReLU26
I0818 10:49:16.745590  2412 net.cpp:558] ReLU26 <- Convolution27
I0818 10:49:16.745599  2412 net.cpp:509] ReLU26 -> Convolution27 (in-place)
I0818 10:49:16.746923  2412 net.cpp:172] Setting up ReLU26
I0818 10:49:16.746944  2412 net.cpp:186] Top shape: 10 32 16 16 (81920)
I0818 10:49:16.746948  2412 net.cpp:194] Memory required for data: 74834040
I0818 10:49:16.746953  2412 layer_factory.hpp:77] Creating layer Convolution28
I0818 10:49:16.746966  2412 net.cpp:128] Creating Layer Convolution28
I0818 10:49:16.746973  2412 net.cpp:558] Convolution28 <- Convolution27
I0818 10:49:16.746982  2412 net.cpp:522] Convolution28 -> Convolution28
I0818 10:49:16.753602  2412 net.cpp:172] Setting up Convolution28
I0818 10:49:16.753629  2412 net.cpp:186] Top shape: 10 32 16 16 (81920)
I0818 10:49:16.753633  2412 net.cpp:194] Memory required for data: 75161720
I0818 10:49:16.753659  2412 layer_factory.hpp:77] Creating layer BatchNorm28
I0818 10:49:16.753669  2412 net.cpp:128] Creating Layer BatchNorm28
I0818 10:49:16.753679  2412 net.cpp:558] BatchNorm28 <- Convolution28
I0818 10:49:16.753687  2412 net.cpp:509] BatchNorm28 -> Convolution28 (in-place)
I0818 10:49:16.754017  2412 net.cpp:172] Setting up BatchNorm28
I0818 10:49:16.754032  2412 net.cpp:186] Top shape: 10 32 16 16 (81920)
I0818 10:49:16.754037  2412 net.cpp:194] Memory required for data: 75489400
I0818 10:49:16.754047  2412 layer_factory.hpp:77] Creating layer Scale28
I0818 10:49:16.754055  2412 net.cpp:128] Creating Layer Scale28
I0818 10:49:16.754060  2412 net.cpp:558] Scale28 <- Convolution28
I0818 10:49:16.754067  2412 net.cpp:509] Scale28 -> Convolution28 (in-place)
I0818 10:49:16.754124  2412 layer_factory.hpp:77] Creating layer Scale28
I0818 10:49:16.754305  2412 net.cpp:172] Setting up Scale28
I0818 10:49:16.754313  2412 net.cpp:186] Top shape: 10 32 16 16 (81920)
I0818 10:49:16.754317  2412 net.cpp:194] Memory required for data: 75817080
I0818 10:49:16.754325  2412 layer_factory.hpp:77] Creating layer Eltwise13
I0818 10:49:16.754333  2412 net.cpp:128] Creating Layer Eltwise13
I0818 10:49:16.754338  2412 net.cpp:558] Eltwise13 <- Eltwise12_ReLU25_0_split_1
I0818 10:49:16.754343  2412 net.cpp:558] Eltwise13 <- Convolution28
I0818 10:49:16.754350  2412 net.cpp:522] Eltwise13 -> Eltwise13
I0818 10:49:16.754376  2412 net.cpp:172] Setting up Eltwise13
I0818 10:49:16.754384  2412 net.cpp:186] Top shape: 10 32 16 16 (81920)
I0818 10:49:16.754387  2412 net.cpp:194] Memory required for data: 76144760
I0818 10:49:16.754391  2412 layer_factory.hpp:77] Creating layer ReLU27
I0818 10:49:16.754397  2412 net.cpp:128] Creating Layer ReLU27
I0818 10:49:16.754405  2412 net.cpp:558] ReLU27 <- Eltwise13
I0818 10:49:16.754410  2412 net.cpp:509] ReLU27 -> Eltwise13 (in-place)
I0818 10:49:16.755620  2412 net.cpp:172] Setting up ReLU27
I0818 10:49:16.755636  2412 net.cpp:186] Top shape: 10 32 16 16 (81920)
I0818 10:49:16.755641  2412 net.cpp:194] Memory required for data: 76472440
I0818 10:49:16.755646  2412 layer_factory.hpp:77] Creating layer Eltwise13_ReLU27_0_split
I0818 10:49:16.755656  2412 net.cpp:128] Creating Layer Eltwise13_ReLU27_0_split
I0818 10:49:16.755662  2412 net.cpp:558] Eltwise13_ReLU27_0_split <- Eltwise13
I0818 10:49:16.755669  2412 net.cpp:522] Eltwise13_ReLU27_0_split -> Eltwise13_ReLU27_0_split_0
I0818 10:49:16.755678  2412 net.cpp:522] Eltwise13_ReLU27_0_split -> Eltwise13_ReLU27_0_split_1
I0818 10:49:16.755744  2412 net.cpp:172] Setting up Eltwise13_ReLU27_0_split
I0818 10:49:16.755755  2412 net.cpp:186] Top shape: 10 32 16 16 (81920)
I0818 10:49:16.755762  2412 net.cpp:186] Top shape: 10 32 16 16 (81920)
I0818 10:49:16.755766  2412 net.cpp:194] Memory required for data: 77127800
I0818 10:49:16.755770  2412 layer_factory.hpp:77] Creating layer Convolution29
I0818 10:49:16.755782  2412 net.cpp:128] Creating Layer Convolution29
I0818 10:49:16.755786  2412 net.cpp:558] Convolution29 <- Eltwise13_ReLU27_0_split_0
I0818 10:49:16.755798  2412 net.cpp:522] Convolution29 -> Convolution29
I0818 10:49:16.762639  2412 net.cpp:172] Setting up Convolution29
I0818 10:49:16.762673  2412 net.cpp:186] Top shape: 10 32 16 16 (81920)
I0818 10:49:16.762679  2412 net.cpp:194] Memory required for data: 77455480
I0818 10:49:16.762689  2412 layer_factory.hpp:77] Creating layer BatchNorm29
I0818 10:49:16.762701  2412 net.cpp:128] Creating Layer BatchNorm29
I0818 10:49:16.762706  2412 net.cpp:558] BatchNorm29 <- Convolution29
I0818 10:49:16.762715  2412 net.cpp:509] BatchNorm29 -> Convolution29 (in-place)
I0818 10:49:16.763058  2412 net.cpp:172] Setting up BatchNorm29
I0818 10:49:16.763072  2412 net.cpp:186] Top shape: 10 32 16 16 (81920)
I0818 10:49:16.763075  2412 net.cpp:194] Memory required for data: 77783160
I0818 10:49:16.763085  2412 layer_factory.hpp:77] Creating layer Scale29
I0818 10:49:16.763093  2412 net.cpp:128] Creating Layer Scale29
I0818 10:49:16.763098  2412 net.cpp:558] Scale29 <- Convolution29
I0818 10:49:16.763119  2412 net.cpp:509] Scale29 -> Convolution29 (in-place)
I0818 10:49:16.763180  2412 layer_factory.hpp:77] Creating layer Scale29
I0818 10:49:16.763362  2412 net.cpp:172] Setting up Scale29
I0818 10:49:16.763375  2412 net.cpp:186] Top shape: 10 32 16 16 (81920)
I0818 10:49:16.763379  2412 net.cpp:194] Memory required for data: 78110840
I0818 10:49:16.763388  2412 layer_factory.hpp:77] Creating layer ReLU28
I0818 10:49:16.763394  2412 net.cpp:128] Creating Layer ReLU28
I0818 10:49:16.763401  2412 net.cpp:558] ReLU28 <- Convolution29
I0818 10:49:16.763407  2412 net.cpp:509] ReLU28 -> Convolution29 (in-place)
I0818 10:49:16.764446  2412 net.cpp:172] Setting up ReLU28
I0818 10:49:16.764468  2412 net.cpp:186] Top shape: 10 32 16 16 (81920)
I0818 10:49:16.764472  2412 net.cpp:194] Memory required for data: 78438520
I0818 10:49:16.764477  2412 layer_factory.hpp:77] Creating layer Convolution30
I0818 10:49:16.764497  2412 net.cpp:128] Creating Layer Convolution30
I0818 10:49:16.764503  2412 net.cpp:558] Convolution30 <- Convolution29
I0818 10:49:16.764513  2412 net.cpp:522] Convolution30 -> Convolution30
I0818 10:49:16.771220  2412 net.cpp:172] Setting up Convolution30
I0818 10:49:16.771246  2412 net.cpp:186] Top shape: 10 32 16 16 (81920)
I0818 10:49:16.771251  2412 net.cpp:194] Memory required for data: 78766200
I0818 10:49:16.771261  2412 layer_factory.hpp:77] Creating layer BatchNorm30
I0818 10:49:16.771270  2412 net.cpp:128] Creating Layer BatchNorm30
I0818 10:49:16.771275  2412 net.cpp:558] BatchNorm30 <- Convolution30
I0818 10:49:16.771284  2412 net.cpp:509] BatchNorm30 -> Convolution30 (in-place)
I0818 10:49:16.771610  2412 net.cpp:172] Setting up BatchNorm30
I0818 10:49:16.771621  2412 net.cpp:186] Top shape: 10 32 16 16 (81920)
I0818 10:49:16.771626  2412 net.cpp:194] Memory required for data: 79093880
I0818 10:49:16.771636  2412 layer_factory.hpp:77] Creating layer Scale30
I0818 10:49:16.771643  2412 net.cpp:128] Creating Layer Scale30
I0818 10:49:16.771647  2412 net.cpp:558] Scale30 <- Convolution30
I0818 10:49:16.771656  2412 net.cpp:509] Scale30 -> Convolution30 (in-place)
I0818 10:49:16.771711  2412 layer_factory.hpp:77] Creating layer Scale30
I0818 10:49:16.771893  2412 net.cpp:172] Setting up Scale30
I0818 10:49:16.771905  2412 net.cpp:186] Top shape: 10 32 16 16 (81920)
I0818 10:49:16.771911  2412 net.cpp:194] Memory required for data: 79421560
I0818 10:49:16.771919  2412 layer_factory.hpp:77] Creating layer Eltwise14
I0818 10:49:16.771926  2412 net.cpp:128] Creating Layer Eltwise14
I0818 10:49:16.771931  2412 net.cpp:558] Eltwise14 <- Eltwise13_ReLU27_0_split_1
I0818 10:49:16.771936  2412 net.cpp:558] Eltwise14 <- Convolution30
I0818 10:49:16.771945  2412 net.cpp:522] Eltwise14 -> Eltwise14
I0818 10:49:16.771972  2412 net.cpp:172] Setting up Eltwise14
I0818 10:49:16.771980  2412 net.cpp:186] Top shape: 10 32 16 16 (81920)
I0818 10:49:16.771983  2412 net.cpp:194] Memory required for data: 79749240
I0818 10:49:16.771987  2412 layer_factory.hpp:77] Creating layer ReLU29
I0818 10:49:16.771994  2412 net.cpp:128] Creating Layer ReLU29
I0818 10:49:16.771998  2412 net.cpp:558] ReLU29 <- Eltwise14
I0818 10:49:16.772007  2412 net.cpp:509] ReLU29 -> Eltwise14 (in-place)
I0818 10:49:16.773231  2412 net.cpp:172] Setting up ReLU29
I0818 10:49:16.773245  2412 net.cpp:186] Top shape: 10 32 16 16 (81920)
I0818 10:49:16.773249  2412 net.cpp:194] Memory required for data: 80076920
I0818 10:49:16.773254  2412 layer_factory.hpp:77] Creating layer Eltwise14_ReLU29_0_split
I0818 10:49:16.773264  2412 net.cpp:128] Creating Layer Eltwise14_ReLU29_0_split
I0818 10:49:16.773269  2412 net.cpp:558] Eltwise14_ReLU29_0_split <- Eltwise14
I0818 10:49:16.773275  2412 net.cpp:522] Eltwise14_ReLU29_0_split -> Eltwise14_ReLU29_0_split_0
I0818 10:49:16.773284  2412 net.cpp:522] Eltwise14_ReLU29_0_split -> Eltwise14_ReLU29_0_split_1
I0818 10:49:16.773347  2412 net.cpp:172] Setting up Eltwise14_ReLU29_0_split
I0818 10:49:16.773355  2412 net.cpp:186] Top shape: 10 32 16 16 (81920)
I0818 10:49:16.773361  2412 net.cpp:186] Top shape: 10 32 16 16 (81920)
I0818 10:49:16.773381  2412 net.cpp:194] Memory required for data: 80732280
I0818 10:49:16.773386  2412 layer_factory.hpp:77] Creating layer Convolution31
I0818 10:49:16.773397  2412 net.cpp:128] Creating Layer Convolution31
I0818 10:49:16.773402  2412 net.cpp:558] Convolution31 <- Eltwise14_ReLU29_0_split_0
I0818 10:49:16.773411  2412 net.cpp:522] Convolution31 -> Convolution31
I0818 10:49:16.779968  2412 net.cpp:172] Setting up Convolution31
I0818 10:49:16.779994  2412 net.cpp:186] Top shape: 10 64 8 8 (40960)
I0818 10:49:16.779999  2412 net.cpp:194] Memory required for data: 80896120
I0818 10:49:16.780009  2412 layer_factory.hpp:77] Creating layer BatchNorm31
I0818 10:49:16.780020  2412 net.cpp:128] Creating Layer BatchNorm31
I0818 10:49:16.780025  2412 net.cpp:558] BatchNorm31 <- Convolution31
I0818 10:49:16.780035  2412 net.cpp:509] BatchNorm31 -> Convolution31 (in-place)
I0818 10:49:16.780378  2412 net.cpp:172] Setting up BatchNorm31
I0818 10:49:16.780391  2412 net.cpp:186] Top shape: 10 64 8 8 (40960)
I0818 10:49:16.780395  2412 net.cpp:194] Memory required for data: 81059960
I0818 10:49:16.780405  2412 layer_factory.hpp:77] Creating layer Scale31
I0818 10:49:16.780414  2412 net.cpp:128] Creating Layer Scale31
I0818 10:49:16.780419  2412 net.cpp:558] Scale31 <- Convolution31
I0818 10:49:16.780426  2412 net.cpp:509] Scale31 -> Convolution31 (in-place)
I0818 10:49:16.780484  2412 layer_factory.hpp:77] Creating layer Scale31
I0818 10:49:16.780675  2412 net.cpp:172] Setting up Scale31
I0818 10:49:16.780688  2412 net.cpp:186] Top shape: 10 64 8 8 (40960)
I0818 10:49:16.780692  2412 net.cpp:194] Memory required for data: 81223800
I0818 10:49:16.780700  2412 layer_factory.hpp:77] Creating layer Convolution32
I0818 10:49:16.780714  2412 net.cpp:128] Creating Layer Convolution32
I0818 10:49:16.780719  2412 net.cpp:558] Convolution32 <- Eltwise14_ReLU29_0_split_1
I0818 10:49:16.780730  2412 net.cpp:522] Convolution32 -> Convolution32
I0818 10:49:16.786546  2412 net.cpp:172] Setting up Convolution32
I0818 10:49:16.786572  2412 net.cpp:186] Top shape: 10 64 8 8 (40960)
I0818 10:49:16.786577  2412 net.cpp:194] Memory required for data: 81387640
I0818 10:49:16.786587  2412 layer_factory.hpp:77] Creating layer BatchNorm32
I0818 10:49:16.786598  2412 net.cpp:128] Creating Layer BatchNorm32
I0818 10:49:16.786604  2412 net.cpp:558] BatchNorm32 <- Convolution32
I0818 10:49:16.786610  2412 net.cpp:509] BatchNorm32 -> Convolution32 (in-place)
I0818 10:49:16.786976  2412 net.cpp:172] Setting up BatchNorm32
I0818 10:49:16.786990  2412 net.cpp:186] Top shape: 10 64 8 8 (40960)
I0818 10:49:16.786995  2412 net.cpp:194] Memory required for data: 81551480
I0818 10:49:16.787005  2412 layer_factory.hpp:77] Creating layer Scale32
I0818 10:49:16.787012  2412 net.cpp:128] Creating Layer Scale32
I0818 10:49:16.787017  2412 net.cpp:558] Scale32 <- Convolution32
I0818 10:49:16.787024  2412 net.cpp:509] Scale32 -> Convolution32 (in-place)
I0818 10:49:16.787086  2412 layer_factory.hpp:77] Creating layer Scale32
I0818 10:49:16.787279  2412 net.cpp:172] Setting up Scale32
I0818 10:49:16.787292  2412 net.cpp:186] Top shape: 10 64 8 8 (40960)
I0818 10:49:16.787297  2412 net.cpp:194] Memory required for data: 81715320
I0818 10:49:16.787304  2412 layer_factory.hpp:77] Creating layer ReLU30
I0818 10:49:16.787312  2412 net.cpp:128] Creating Layer ReLU30
I0818 10:49:16.787317  2412 net.cpp:558] ReLU30 <- Convolution32
I0818 10:49:16.787324  2412 net.cpp:509] ReLU30 -> Convolution32 (in-place)
I0818 10:49:16.788580  2412 net.cpp:172] Setting up ReLU30
I0818 10:49:16.788599  2412 net.cpp:186] Top shape: 10 64 8 8 (40960)
I0818 10:49:16.788602  2412 net.cpp:194] Memory required for data: 81879160
I0818 10:49:16.788607  2412 layer_factory.hpp:77] Creating layer Convolution33
I0818 10:49:16.788619  2412 net.cpp:128] Creating Layer Convolution33
I0818 10:49:16.788625  2412 net.cpp:558] Convolution33 <- Convolution32
I0818 10:49:16.788635  2412 net.cpp:522] Convolution33 -> Convolution33
I0818 10:49:16.795361  2412 net.cpp:172] Setting up Convolution33
I0818 10:49:16.795401  2412 net.cpp:186] Top shape: 10 64 8 8 (40960)
I0818 10:49:16.795406  2412 net.cpp:194] Memory required for data: 82043000
I0818 10:49:16.795418  2412 layer_factory.hpp:77] Creating layer BatchNorm33
I0818 10:49:16.795428  2412 net.cpp:128] Creating Layer BatchNorm33
I0818 10:49:16.795433  2412 net.cpp:558] BatchNorm33 <- Convolution33
I0818 10:49:16.795440  2412 net.cpp:509] BatchNorm33 -> Convolution33 (in-place)
I0818 10:49:16.795784  2412 net.cpp:172] Setting up BatchNorm33
I0818 10:49:16.795797  2412 net.cpp:186] Top shape: 10 64 8 8 (40960)
I0818 10:49:16.795801  2412 net.cpp:194] Memory required for data: 82206840
I0818 10:49:16.795811  2412 layer_factory.hpp:77] Creating layer Scale33
I0818 10:49:16.795820  2412 net.cpp:128] Creating Layer Scale33
I0818 10:49:16.795825  2412 net.cpp:558] Scale33 <- Convolution33
I0818 10:49:16.795831  2412 net.cpp:509] Scale33 -> Convolution33 (in-place)
I0818 10:49:16.795892  2412 layer_factory.hpp:77] Creating layer Scale33
I0818 10:49:16.796083  2412 net.cpp:172] Setting up Scale33
I0818 10:49:16.796094  2412 net.cpp:186] Top shape: 10 64 8 8 (40960)
I0818 10:49:16.796099  2412 net.cpp:194] Memory required for data: 82370680
I0818 10:49:16.796108  2412 layer_factory.hpp:77] Creating layer Eltwise15
I0818 10:49:16.796116  2412 net.cpp:128] Creating Layer Eltwise15
I0818 10:49:16.796121  2412 net.cpp:558] Eltwise15 <- Convolution31
I0818 10:49:16.796125  2412 net.cpp:558] Eltwise15 <- Convolution33
I0818 10:49:16.796134  2412 net.cpp:522] Eltwise15 -> Eltwise15
I0818 10:49:16.796167  2412 net.cpp:172] Setting up Eltwise15
I0818 10:49:16.796175  2412 net.cpp:186] Top shape: 10 64 8 8 (40960)
I0818 10:49:16.796178  2412 net.cpp:194] Memory required for data: 82534520
I0818 10:49:16.796182  2412 layer_factory.hpp:77] Creating layer ReLU31
I0818 10:49:16.796192  2412 net.cpp:128] Creating Layer ReLU31
I0818 10:49:16.796196  2412 net.cpp:558] ReLU31 <- Eltwise15
I0818 10:49:16.796202  2412 net.cpp:509] ReLU31 -> Eltwise15 (in-place)
I0818 10:49:16.797405  2412 net.cpp:172] Setting up ReLU31
I0818 10:49:16.797426  2412 net.cpp:186] Top shape: 10 64 8 8 (40960)
I0818 10:49:16.797431  2412 net.cpp:194] Memory required for data: 82698360
I0818 10:49:16.797436  2412 layer_factory.hpp:77] Creating layer Eltwise15_ReLU31_0_split
I0818 10:49:16.797448  2412 net.cpp:128] Creating Layer Eltwise15_ReLU31_0_split
I0818 10:49:16.797454  2412 net.cpp:558] Eltwise15_ReLU31_0_split <- Eltwise15
I0818 10:49:16.797461  2412 net.cpp:522] Eltwise15_ReLU31_0_split -> Eltwise15_ReLU31_0_split_0
I0818 10:49:16.797474  2412 net.cpp:522] Eltwise15_ReLU31_0_split -> Eltwise15_ReLU31_0_split_1
I0818 10:49:16.797544  2412 net.cpp:172] Setting up Eltwise15_ReLU31_0_split
I0818 10:49:16.797551  2412 net.cpp:186] Top shape: 10 64 8 8 (40960)
I0818 10:49:16.797556  2412 net.cpp:186] Top shape: 10 64 8 8 (40960)
I0818 10:49:16.797560  2412 net.cpp:194] Memory required for data: 83026040
I0818 10:49:16.797564  2412 layer_factory.hpp:77] Creating layer Convolution34
I0818 10:49:16.797578  2412 net.cpp:128] Creating Layer Convolution34
I0818 10:49:16.797583  2412 net.cpp:558] Convolution34 <- Eltwise15_ReLU31_0_split_0
I0818 10:49:16.797590  2412 net.cpp:522] Convolution34 -> Convolution34
I0818 10:49:16.804426  2412 net.cpp:172] Setting up Convolution34
I0818 10:49:16.804452  2412 net.cpp:186] Top shape: 10 64 8 8 (40960)
I0818 10:49:16.804458  2412 net.cpp:194] Memory required for data: 83189880
I0818 10:49:16.804469  2412 layer_factory.hpp:77] Creating layer BatchNorm34
I0818 10:49:16.804478  2412 net.cpp:128] Creating Layer BatchNorm34
I0818 10:49:16.804483  2412 net.cpp:558] BatchNorm34 <- Convolution34
I0818 10:49:16.804492  2412 net.cpp:509] BatchNorm34 -> Convolution34 (in-place)
I0818 10:49:16.804850  2412 net.cpp:172] Setting up BatchNorm34
I0818 10:49:16.804863  2412 net.cpp:186] Top shape: 10 64 8 8 (40960)
I0818 10:49:16.804868  2412 net.cpp:194] Memory required for data: 83353720
I0818 10:49:16.804877  2412 layer_factory.hpp:77] Creating layer Scale34
I0818 10:49:16.804885  2412 net.cpp:128] Creating Layer Scale34
I0818 10:49:16.804906  2412 net.cpp:558] Scale34 <- Convolution34
I0818 10:49:16.804914  2412 net.cpp:509] Scale34 -> Convolution34 (in-place)
I0818 10:49:16.804975  2412 layer_factory.hpp:77] Creating layer Scale34
I0818 10:49:16.805168  2412 net.cpp:172] Setting up Scale34
I0818 10:49:16.805181  2412 net.cpp:186] Top shape: 10 64 8 8 (40960)
I0818 10:49:16.805184  2412 net.cpp:194] Memory required for data: 83517560
I0818 10:49:16.805193  2412 layer_factory.hpp:77] Creating layer ReLU32
I0818 10:49:16.805199  2412 net.cpp:128] Creating Layer ReLU32
I0818 10:49:16.805204  2412 net.cpp:558] ReLU32 <- Convolution34
I0818 10:49:16.805212  2412 net.cpp:509] ReLU32 -> Convolution34 (in-place)
I0818 10:49:16.806188  2412 net.cpp:172] Setting up ReLU32
I0818 10:49:16.806205  2412 net.cpp:186] Top shape: 10 64 8 8 (40960)
I0818 10:49:16.806210  2412 net.cpp:194] Memory required for data: 83681400
I0818 10:49:16.806216  2412 layer_factory.hpp:77] Creating layer Convolution35
I0818 10:49:16.806228  2412 net.cpp:128] Creating Layer Convolution35
I0818 10:49:16.806234  2412 net.cpp:558] Convolution35 <- Convolution34
I0818 10:49:16.806244  2412 net.cpp:522] Convolution35 -> Convolution35
I0818 10:49:16.812933  2412 net.cpp:172] Setting up Convolution35
I0818 10:49:16.812959  2412 net.cpp:186] Top shape: 10 64 8 8 (40960)
I0818 10:49:16.812963  2412 net.cpp:194] Memory required for data: 83845240
I0818 10:49:16.812973  2412 layer_factory.hpp:77] Creating layer BatchNorm35
I0818 10:49:16.812983  2412 net.cpp:128] Creating Layer BatchNorm35
I0818 10:49:16.812988  2412 net.cpp:558] BatchNorm35 <- Convolution35
I0818 10:49:16.812996  2412 net.cpp:509] BatchNorm35 -> Convolution35 (in-place)
I0818 10:49:16.813340  2412 net.cpp:172] Setting up BatchNorm35
I0818 10:49:16.813352  2412 net.cpp:186] Top shape: 10 64 8 8 (40960)
I0818 10:49:16.813356  2412 net.cpp:194] Memory required for data: 84009080
I0818 10:49:16.813366  2412 layer_factory.hpp:77] Creating layer Scale35
I0818 10:49:16.813376  2412 net.cpp:128] Creating Layer Scale35
I0818 10:49:16.813381  2412 net.cpp:558] Scale35 <- Convolution35
I0818 10:49:16.813387  2412 net.cpp:509] Scale35 -> Convolution35 (in-place)
I0818 10:49:16.813447  2412 layer_factory.hpp:77] Creating layer Scale35
I0818 10:49:16.813640  2412 net.cpp:172] Setting up Scale35
I0818 10:49:16.813652  2412 net.cpp:186] Top shape: 10 64 8 8 (40960)
I0818 10:49:16.813657  2412 net.cpp:194] Memory required for data: 84172920
I0818 10:49:16.813664  2412 layer_factory.hpp:77] Creating layer Eltwise16
I0818 10:49:16.813673  2412 net.cpp:128] Creating Layer Eltwise16
I0818 10:49:16.813678  2412 net.cpp:558] Eltwise16 <- Eltwise15_ReLU31_0_split_1
I0818 10:49:16.813683  2412 net.cpp:558] Eltwise16 <- Convolution35
I0818 10:49:16.813691  2412 net.cpp:522] Eltwise16 -> Eltwise16
I0818 10:49:16.813724  2412 net.cpp:172] Setting up Eltwise16
I0818 10:49:16.813731  2412 net.cpp:186] Top shape: 10 64 8 8 (40960)
I0818 10:49:16.813735  2412 net.cpp:194] Memory required for data: 84336760
I0818 10:49:16.813740  2412 layer_factory.hpp:77] Creating layer ReLU33
I0818 10:49:16.813748  2412 net.cpp:128] Creating Layer ReLU33
I0818 10:49:16.813753  2412 net.cpp:558] ReLU33 <- Eltwise16
I0818 10:49:16.813758  2412 net.cpp:509] ReLU33 -> Eltwise16 (in-place)
I0818 10:49:16.815222  2412 net.cpp:172] Setting up ReLU33
I0818 10:49:16.815249  2412 net.cpp:186] Top shape: 10 64 8 8 (40960)
I0818 10:49:16.815254  2412 net.cpp:194] Memory required for data: 84500600
I0818 10:49:16.815259  2412 layer_factory.hpp:77] Creating layer Eltwise16_ReLU33_0_split
I0818 10:49:16.815268  2412 net.cpp:128] Creating Layer Eltwise16_ReLU33_0_split
I0818 10:49:16.815274  2412 net.cpp:558] Eltwise16_ReLU33_0_split <- Eltwise16
I0818 10:49:16.815281  2412 net.cpp:522] Eltwise16_ReLU33_0_split -> Eltwise16_ReLU33_0_split_0
I0818 10:49:16.815297  2412 net.cpp:522] Eltwise16_ReLU33_0_split -> Eltwise16_ReLU33_0_split_1
I0818 10:49:16.815372  2412 net.cpp:172] Setting up Eltwise16_ReLU33_0_split
I0818 10:49:16.815379  2412 net.cpp:186] Top shape: 10 64 8 8 (40960)
I0818 10:49:16.815400  2412 net.cpp:186] Top shape: 10 64 8 8 (40960)
I0818 10:49:16.815405  2412 net.cpp:194] Memory required for data: 84828280
I0818 10:49:16.815409  2412 layer_factory.hpp:77] Creating layer Convolution36
I0818 10:49:16.815424  2412 net.cpp:128] Creating Layer Convolution36
I0818 10:49:16.815429  2412 net.cpp:558] Convolution36 <- Eltwise16_ReLU33_0_split_0
I0818 10:49:16.815438  2412 net.cpp:522] Convolution36 -> Convolution36
I0818 10:49:16.821946  2412 net.cpp:172] Setting up Convolution36
I0818 10:49:16.821976  2412 net.cpp:186] Top shape: 10 64 8 8 (40960)
I0818 10:49:16.821981  2412 net.cpp:194] Memory required for data: 84992120
I0818 10:49:16.821992  2412 layer_factory.hpp:77] Creating layer BatchNorm36
I0818 10:49:16.822001  2412 net.cpp:128] Creating Layer BatchNorm36
I0818 10:49:16.822006  2412 net.cpp:558] BatchNorm36 <- Convolution36
I0818 10:49:16.822021  2412 net.cpp:509] BatchNorm36 -> Convolution36 (in-place)
I0818 10:49:16.822384  2412 net.cpp:172] Setting up BatchNorm36
I0818 10:49:16.822396  2412 net.cpp:186] Top shape: 10 64 8 8 (40960)
I0818 10:49:16.822401  2412 net.cpp:194] Memory required for data: 85155960
I0818 10:49:16.822410  2412 layer_factory.hpp:77] Creating layer Scale36
I0818 10:49:16.822418  2412 net.cpp:128] Creating Layer Scale36
I0818 10:49:16.822423  2412 net.cpp:558] Scale36 <- Convolution36
I0818 10:49:16.822432  2412 net.cpp:509] Scale36 -> Convolution36 (in-place)
I0818 10:49:16.822489  2412 layer_factory.hpp:77] Creating layer Scale36
I0818 10:49:16.822696  2412 net.cpp:172] Setting up Scale36
I0818 10:49:16.822705  2412 net.cpp:186] Top shape: 10 64 8 8 (40960)
I0818 10:49:16.822710  2412 net.cpp:194] Memory required for data: 85319800
I0818 10:49:16.822717  2412 layer_factory.hpp:77] Creating layer ReLU34
I0818 10:49:16.822726  2412 net.cpp:128] Creating Layer ReLU34
I0818 10:49:16.822731  2412 net.cpp:558] ReLU34 <- Convolution36
I0818 10:49:16.822737  2412 net.cpp:509] ReLU34 -> Convolution36 (in-place)
I0818 10:49:16.823719  2412 net.cpp:172] Setting up ReLU34
I0818 10:49:16.823738  2412 net.cpp:186] Top shape: 10 64 8 8 (40960)
I0818 10:49:16.823742  2412 net.cpp:194] Memory required for data: 85483640
I0818 10:49:16.823747  2412 layer_factory.hpp:77] Creating layer Convolution37
I0818 10:49:16.823765  2412 net.cpp:128] Creating Layer Convolution37
I0818 10:49:16.823771  2412 net.cpp:558] Convolution37 <- Convolution36
I0818 10:49:16.823778  2412 net.cpp:522] Convolution37 -> Convolution37
I0818 10:49:16.827417  2412 net.cpp:172] Setting up Convolution37
I0818 10:49:16.827443  2412 net.cpp:186] Top shape: 10 64 8 8 (40960)
I0818 10:49:16.827448  2412 net.cpp:194] Memory required for data: 85647480
I0818 10:49:16.827458  2412 layer_factory.hpp:77] Creating layer BatchNorm37
I0818 10:49:16.827468  2412 net.cpp:128] Creating Layer BatchNorm37
I0818 10:49:16.827473  2412 net.cpp:558] BatchNorm37 <- Convolution37
I0818 10:49:16.827482  2412 net.cpp:509] BatchNorm37 -> Convolution37 (in-place)
I0818 10:49:16.827833  2412 net.cpp:172] Setting up BatchNorm37
I0818 10:49:16.827847  2412 net.cpp:186] Top shape: 10 64 8 8 (40960)
I0818 10:49:16.827852  2412 net.cpp:194] Memory required for data: 85811320
I0818 10:49:16.827880  2412 layer_factory.hpp:77] Creating layer Scale37
I0818 10:49:16.827888  2412 net.cpp:128] Creating Layer Scale37
I0818 10:49:16.827893  2412 net.cpp:558] Scale37 <- Convolution37
I0818 10:49:16.827899  2412 net.cpp:509] Scale37 -> Convolution37 (in-place)
I0818 10:49:16.827960  2412 layer_factory.hpp:77] Creating layer Scale37
I0818 10:49:16.828155  2412 net.cpp:172] Setting up Scale37
I0818 10:49:16.828167  2412 net.cpp:186] Top shape: 10 64 8 8 (40960)
I0818 10:49:16.828171  2412 net.cpp:194] Memory required for data: 85975160
I0818 10:49:16.828179  2412 layer_factory.hpp:77] Creating layer Eltwise17
I0818 10:49:16.828188  2412 net.cpp:128] Creating Layer Eltwise17
I0818 10:49:16.828193  2412 net.cpp:558] Eltwise17 <- Eltwise16_ReLU33_0_split_1
I0818 10:49:16.828198  2412 net.cpp:558] Eltwise17 <- Convolution37
I0818 10:49:16.828220  2412 net.cpp:522] Eltwise17 -> Eltwise17
I0818 10:49:16.828258  2412 net.cpp:172] Setting up Eltwise17
I0818 10:49:16.828264  2412 net.cpp:186] Top shape: 10 64 8 8 (40960)
I0818 10:49:16.828269  2412 net.cpp:194] Memory required for data: 86139000
I0818 10:49:16.828272  2412 layer_factory.hpp:77] Creating layer ReLU35
I0818 10:49:16.828279  2412 net.cpp:128] Creating Layer ReLU35
I0818 10:49:16.828284  2412 net.cpp:558] ReLU35 <- Eltwise17
I0818 10:49:16.828292  2412 net.cpp:509] ReLU35 -> Eltwise17 (in-place)
I0818 10:49:16.828819  2412 net.cpp:172] Setting up ReLU35
I0818 10:49:16.828840  2412 net.cpp:186] Top shape: 10 64 8 8 (40960)
I0818 10:49:16.828845  2412 net.cpp:194] Memory required for data: 86302840
I0818 10:49:16.828850  2412 layer_factory.hpp:77] Creating layer Eltwise17_ReLU35_0_split
I0818 10:49:16.828858  2412 net.cpp:128] Creating Layer Eltwise17_ReLU35_0_split
I0818 10:49:16.828863  2412 net.cpp:558] Eltwise17_ReLU35_0_split <- Eltwise17
I0818 10:49:16.828873  2412 net.cpp:522] Eltwise17_ReLU35_0_split -> Eltwise17_ReLU35_0_split_0
I0818 10:49:16.828883  2412 net.cpp:522] Eltwise17_ReLU35_0_split -> Eltwise17_ReLU35_0_split_1
I0818 10:49:16.828953  2412 net.cpp:172] Setting up Eltwise17_ReLU35_0_split
I0818 10:49:16.828961  2412 net.cpp:186] Top shape: 10 64 8 8 (40960)
I0818 10:49:16.828968  2412 net.cpp:186] Top shape: 10 64 8 8 (40960)
I0818 10:49:16.828971  2412 net.cpp:194] Memory required for data: 86630520
I0818 10:49:16.828975  2412 layer_factory.hpp:77] Creating layer Convolution38
I0818 10:49:16.828989  2412 net.cpp:128] Creating Layer Convolution38
I0818 10:49:16.828994  2412 net.cpp:558] Convolution38 <- Eltwise17_ReLU35_0_split_0
I0818 10:49:16.829005  2412 net.cpp:522] Convolution38 -> Convolution38
I0818 10:49:16.831389  2412 net.cpp:172] Setting up Convolution38
I0818 10:49:16.831418  2412 net.cpp:186] Top shape: 10 64 8 8 (40960)
I0818 10:49:16.831421  2412 net.cpp:194] Memory required for data: 86794360
I0818 10:49:16.831432  2412 layer_factory.hpp:77] Creating layer BatchNorm38
I0818 10:49:16.831441  2412 net.cpp:128] Creating Layer BatchNorm38
I0818 10:49:16.831446  2412 net.cpp:558] BatchNorm38 <- Convolution38
I0818 10:49:16.831456  2412 net.cpp:509] BatchNorm38 -> Convolution38 (in-place)
I0818 10:49:16.831816  2412 net.cpp:172] Setting up BatchNorm38
I0818 10:49:16.831827  2412 net.cpp:186] Top shape: 10 64 8 8 (40960)
I0818 10:49:16.831832  2412 net.cpp:194] Memory required for data: 86958200
I0818 10:49:16.831842  2412 layer_factory.hpp:77] Creating layer Scale38
I0818 10:49:16.831852  2412 net.cpp:128] Creating Layer Scale38
I0818 10:49:16.831857  2412 net.cpp:558] Scale38 <- Convolution38
I0818 10:49:16.831862  2412 net.cpp:509] Scale38 -> Convolution38 (in-place)
I0818 10:49:16.831923  2412 layer_factory.hpp:77] Creating layer Scale38
I0818 10:49:16.832118  2412 net.cpp:172] Setting up Scale38
I0818 10:49:16.832129  2412 net.cpp:186] Top shape: 10 64 8 8 (40960)
I0818 10:49:16.832134  2412 net.cpp:194] Memory required for data: 87122040
I0818 10:49:16.832141  2412 layer_factory.hpp:77] Creating layer ReLU36
I0818 10:49:16.832149  2412 net.cpp:128] Creating Layer ReLU36
I0818 10:49:16.832154  2412 net.cpp:558] ReLU36 <- Convolution38
I0818 10:49:16.832160  2412 net.cpp:509] ReLU36 -> Convolution38 (in-place)
I0818 10:49:16.832821  2412 net.cpp:172] Setting up ReLU36
I0818 10:49:16.832840  2412 net.cpp:186] Top shape: 10 64 8 8 (40960)
I0818 10:49:16.832845  2412 net.cpp:194] Memory required for data: 87285880
I0818 10:49:16.832850  2412 layer_factory.hpp:77] Creating layer Convolution39
I0818 10:49:16.832870  2412 net.cpp:128] Creating Layer Convolution39
I0818 10:49:16.832875  2412 net.cpp:558] Convolution39 <- Convolution38
I0818 10:49:16.832882  2412 net.cpp:522] Convolution39 -> Convolution39
I0818 10:49:16.839615  2412 net.cpp:172] Setting up Convolution39
I0818 10:49:16.839642  2412 net.cpp:186] Top shape: 10 64 8 8 (40960)
I0818 10:49:16.839646  2412 net.cpp:194] Memory required for data: 87449720
I0818 10:49:16.839659  2412 layer_factory.hpp:77] Creating layer BatchNorm39
I0818 10:49:16.839695  2412 net.cpp:128] Creating Layer BatchNorm39
I0818 10:49:16.839701  2412 net.cpp:558] BatchNorm39 <- Convolution39
I0818 10:49:16.839712  2412 net.cpp:509] BatchNorm39 -> Convolution39 (in-place)
I0818 10:49:16.840075  2412 net.cpp:172] Setting up BatchNorm39
I0818 10:49:16.840086  2412 net.cpp:186] Top shape: 10 64 8 8 (40960)
I0818 10:49:16.840091  2412 net.cpp:194] Memory required for data: 87613560
I0818 10:49:16.840102  2412 layer_factory.hpp:77] Creating layer Scale39
I0818 10:49:16.840109  2412 net.cpp:128] Creating Layer Scale39
I0818 10:49:16.840114  2412 net.cpp:558] Scale39 <- Convolution39
I0818 10:49:16.840121  2412 net.cpp:509] Scale39 -> Convolution39 (in-place)
I0818 10:49:16.840186  2412 layer_factory.hpp:77] Creating layer Scale39
I0818 10:49:16.840384  2412 net.cpp:172] Setting up Scale39
I0818 10:49:16.840392  2412 net.cpp:186] Top shape: 10 64 8 8 (40960)
I0818 10:49:16.840396  2412 net.cpp:194] Memory required for data: 87777400
I0818 10:49:16.840404  2412 layer_factory.hpp:77] Creating layer Eltwise18
I0818 10:49:16.840415  2412 net.cpp:128] Creating Layer Eltwise18
I0818 10:49:16.840420  2412 net.cpp:558] Eltwise18 <- Eltwise17_ReLU35_0_split_1
I0818 10:49:16.840426  2412 net.cpp:558] Eltwise18 <- Convolution39
I0818 10:49:16.840432  2412 net.cpp:522] Eltwise18 -> Eltwise18
I0818 10:49:16.840471  2412 net.cpp:172] Setting up Eltwise18
I0818 10:49:16.840477  2412 net.cpp:186] Top shape: 10 64 8 8 (40960)
I0818 10:49:16.840481  2412 net.cpp:194] Memory required for data: 87941240
I0818 10:49:16.840486  2412 layer_factory.hpp:77] Creating layer ReLU37
I0818 10:49:16.840492  2412 net.cpp:128] Creating Layer ReLU37
I0818 10:49:16.840497  2412 net.cpp:558] ReLU37 <- Eltwise18
I0818 10:49:16.840502  2412 net.cpp:509] ReLU37 -> Eltwise18 (in-place)
I0818 10:49:16.841639  2412 net.cpp:172] Setting up ReLU37
I0818 10:49:16.841657  2412 net.cpp:186] Top shape: 10 64 8 8 (40960)
I0818 10:49:16.841661  2412 net.cpp:194] Memory required for data: 88105080
I0818 10:49:16.841666  2412 layer_factory.hpp:77] Creating layer Eltwise18_ReLU37_0_split
I0818 10:49:16.841675  2412 net.cpp:128] Creating Layer Eltwise18_ReLU37_0_split
I0818 10:49:16.841679  2412 net.cpp:558] Eltwise18_ReLU37_0_split <- Eltwise18
I0818 10:49:16.841688  2412 net.cpp:522] Eltwise18_ReLU37_0_split -> Eltwise18_ReLU37_0_split_0
I0818 10:49:16.841701  2412 net.cpp:522] Eltwise18_ReLU37_0_split -> Eltwise18_ReLU37_0_split_1
I0818 10:49:16.841770  2412 net.cpp:172] Setting up Eltwise18_ReLU37_0_split
I0818 10:49:16.841778  2412 net.cpp:186] Top shape: 10 64 8 8 (40960)
I0818 10:49:16.841784  2412 net.cpp:186] Top shape: 10 64 8 8 (40960)
I0818 10:49:16.841787  2412 net.cpp:194] Memory required for data: 88432760
I0818 10:49:16.841791  2412 layer_factory.hpp:77] Creating layer Convolution40
I0818 10:49:16.841809  2412 net.cpp:128] Creating Layer Convolution40
I0818 10:49:16.841814  2412 net.cpp:558] Convolution40 <- Eltwise18_ReLU37_0_split_0
I0818 10:49:16.841823  2412 net.cpp:522] Convolution40 -> Convolution40
I0818 10:49:16.848716  2412 net.cpp:172] Setting up Convolution40
I0818 10:49:16.848742  2412 net.cpp:186] Top shape: 10 64 8 8 (40960)
I0818 10:49:16.848747  2412 net.cpp:194] Memory required for data: 88596600
I0818 10:49:16.848758  2412 layer_factory.hpp:77] Creating layer BatchNorm40
I0818 10:49:16.848769  2412 net.cpp:128] Creating Layer BatchNorm40
I0818 10:49:16.848775  2412 net.cpp:558] BatchNorm40 <- Convolution40
I0818 10:49:16.848781  2412 net.cpp:509] BatchNorm40 -> Convolution40 (in-place)
I0818 10:49:16.849150  2412 net.cpp:172] Setting up BatchNorm40
I0818 10:49:16.849162  2412 net.cpp:186] Top shape: 10 64 8 8 (40960)
I0818 10:49:16.849166  2412 net.cpp:194] Memory required for data: 88760440
I0818 10:49:16.849177  2412 layer_factory.hpp:77] Creating layer Scale40
I0818 10:49:16.849184  2412 net.cpp:128] Creating Layer Scale40
I0818 10:49:16.849189  2412 net.cpp:558] Scale40 <- Convolution40
I0818 10:49:16.849195  2412 net.cpp:509] Scale40 -> Convolution40 (in-place)
I0818 10:49:16.849278  2412 layer_factory.hpp:77] Creating layer Scale40
I0818 10:49:16.849483  2412 net.cpp:172] Setting up Scale40
I0818 10:49:16.849490  2412 net.cpp:186] Top shape: 10 64 8 8 (40960)
I0818 10:49:16.849494  2412 net.cpp:194] Memory required for data: 88924280
I0818 10:49:16.849503  2412 layer_factory.hpp:77] Creating layer ReLU38
I0818 10:49:16.849509  2412 net.cpp:128] Creating Layer ReLU38
I0818 10:49:16.849514  2412 net.cpp:558] ReLU38 <- Convolution40
I0818 10:49:16.849522  2412 net.cpp:509] ReLU38 -> Convolution40 (in-place)
I0818 10:49:16.850507  2412 net.cpp:172] Setting up ReLU38
I0818 10:49:16.850531  2412 net.cpp:186] Top shape: 10 64 8 8 (40960)
I0818 10:49:16.850536  2412 net.cpp:194] Memory required for data: 89088120
I0818 10:49:16.850541  2412 layer_factory.hpp:77] Creating layer Convolution41
I0818 10:49:16.850555  2412 net.cpp:128] Creating Layer Convolution41
I0818 10:49:16.850561  2412 net.cpp:558] Convolution41 <- Convolution40
I0818 10:49:16.850571  2412 net.cpp:522] Convolution41 -> Convolution41
I0818 10:49:16.857280  2412 net.cpp:172] Setting up Convolution41
I0818 10:49:16.857307  2412 net.cpp:186] Top shape: 10 64 8 8 (40960)
I0818 10:49:16.857311  2412 net.cpp:194] Memory required for data: 89251960
I0818 10:49:16.857322  2412 layer_factory.hpp:77] Creating layer BatchNorm41
I0818 10:49:16.857333  2412 net.cpp:128] Creating Layer BatchNorm41
I0818 10:49:16.857338  2412 net.cpp:558] BatchNorm41 <- Convolution41
I0818 10:49:16.857345  2412 net.cpp:509] BatchNorm41 -> Convolution41 (in-place)
I0818 10:49:16.857707  2412 net.cpp:172] Setting up BatchNorm41
I0818 10:49:16.857718  2412 net.cpp:186] Top shape: 10 64 8 8 (40960)
I0818 10:49:16.857723  2412 net.cpp:194] Memory required for data: 89415800
I0818 10:49:16.857733  2412 layer_factory.hpp:77] Creating layer Scale41
I0818 10:49:16.857740  2412 net.cpp:128] Creating Layer Scale41
I0818 10:49:16.857744  2412 net.cpp:558] Scale41 <- Convolution41
I0818 10:49:16.857750  2412 net.cpp:509] Scale41 -> Convolution41 (in-place)
I0818 10:49:16.857815  2412 layer_factory.hpp:77] Creating layer Scale41
I0818 10:49:16.858012  2412 net.cpp:172] Setting up Scale41
I0818 10:49:16.858026  2412 net.cpp:186] Top shape: 10 64 8 8 (40960)
I0818 10:49:16.858031  2412 net.cpp:194] Memory required for data: 89579640
I0818 10:49:16.858039  2412 layer_factory.hpp:77] Creating layer Eltwise19
I0818 10:49:16.858047  2412 net.cpp:128] Creating Layer Eltwise19
I0818 10:49:16.858052  2412 net.cpp:558] Eltwise19 <- Eltwise18_ReLU37_0_split_1
I0818 10:49:16.858057  2412 net.cpp:558] Eltwise19 <- Convolution41
I0818 10:49:16.858063  2412 net.cpp:522] Eltwise19 -> Eltwise19
I0818 10:49:16.858098  2412 net.cpp:172] Setting up Eltwise19
I0818 10:49:16.858105  2412 net.cpp:186] Top shape: 10 64 8 8 (40960)
I0818 10:49:16.858109  2412 net.cpp:194] Memory required for data: 89743480
I0818 10:49:16.858114  2412 layer_factory.hpp:77] Creating layer ReLU39
I0818 10:49:16.858124  2412 net.cpp:128] Creating Layer ReLU39
I0818 10:49:16.858127  2412 net.cpp:558] ReLU39 <- Eltwise19
I0818 10:49:16.858132  2412 net.cpp:509] ReLU39 -> Eltwise19 (in-place)
I0818 10:49:16.859268  2412 net.cpp:172] Setting up ReLU39
I0818 10:49:16.859285  2412 net.cpp:186] Top shape: 10 64 8 8 (40960)
I0818 10:49:16.859290  2412 net.cpp:194] Memory required for data: 89907320
I0818 10:49:16.859294  2412 layer_factory.hpp:77] Creating layer Eltwise19_ReLU39_0_split
I0818 10:49:16.859308  2412 net.cpp:128] Creating Layer Eltwise19_ReLU39_0_split
I0818 10:49:16.859313  2412 net.cpp:558] Eltwise19_ReLU39_0_split <- Eltwise19
I0818 10:49:16.859320  2412 net.cpp:522] Eltwise19_ReLU39_0_split -> Eltwise19_ReLU39_0_split_0
I0818 10:49:16.859328  2412 net.cpp:522] Eltwise19_ReLU39_0_split -> Eltwise19_ReLU39_0_split_1
I0818 10:49:16.859400  2412 net.cpp:172] Setting up Eltwise19_ReLU39_0_split
I0818 10:49:16.859407  2412 net.cpp:186] Top shape: 10 64 8 8 (40960)
I0818 10:49:16.859412  2412 net.cpp:186] Top shape: 10 64 8 8 (40960)
I0818 10:49:16.859416  2412 net.cpp:194] Memory required for data: 90235000
I0818 10:49:16.859436  2412 layer_factory.hpp:77] Creating layer Convolution42
I0818 10:49:16.859448  2412 net.cpp:128] Creating Layer Convolution42
I0818 10:49:16.859453  2412 net.cpp:558] Convolution42 <- Eltwise19_ReLU39_0_split_0
I0818 10:49:16.859463  2412 net.cpp:522] Convolution42 -> Convolution42
I0818 10:49:16.866253  2412 net.cpp:172] Setting up Convolution42
I0818 10:49:16.866279  2412 net.cpp:186] Top shape: 10 64 8 8 (40960)
I0818 10:49:16.866284  2412 net.cpp:194] Memory required for data: 90398840
I0818 10:49:16.866294  2412 layer_factory.hpp:77] Creating layer BatchNorm42
I0818 10:49:16.866307  2412 net.cpp:128] Creating Layer BatchNorm42
I0818 10:49:16.866312  2412 net.cpp:558] BatchNorm42 <- Convolution42
I0818 10:49:16.866322  2412 net.cpp:509] BatchNorm42 -> Convolution42 (in-place)
I0818 10:49:16.866701  2412 net.cpp:172] Setting up BatchNorm42
I0818 10:49:16.866716  2412 net.cpp:186] Top shape: 10 64 8 8 (40960)
I0818 10:49:16.866721  2412 net.cpp:194] Memory required for data: 90562680
I0818 10:49:16.866732  2412 layer_factory.hpp:77] Creating layer Scale42
I0818 10:49:16.866740  2412 net.cpp:128] Creating Layer Scale42
I0818 10:49:16.866744  2412 net.cpp:558] Scale42 <- Convolution42
I0818 10:49:16.866752  2412 net.cpp:509] Scale42 -> Convolution42 (in-place)
I0818 10:49:16.866812  2412 layer_factory.hpp:77] Creating layer Scale42
I0818 10:49:16.867027  2412 net.cpp:172] Setting up Scale42
I0818 10:49:16.867039  2412 net.cpp:186] Top shape: 10 64 8 8 (40960)
I0818 10:49:16.867043  2412 net.cpp:194] Memory required for data: 90726520
I0818 10:49:16.867051  2412 layer_factory.hpp:77] Creating layer ReLU40
I0818 10:49:16.867058  2412 net.cpp:128] Creating Layer ReLU40
I0818 10:49:16.867063  2412 net.cpp:558] ReLU40 <- Convolution42
I0818 10:49:16.867070  2412 net.cpp:509] ReLU40 -> Convolution42 (in-place)
I0818 10:49:16.868000  2412 net.cpp:172] Setting up ReLU40
I0818 10:49:16.868018  2412 net.cpp:186] Top shape: 10 64 8 8 (40960)
I0818 10:49:16.868022  2412 net.cpp:194] Memory required for data: 90890360
I0818 10:49:16.868027  2412 layer_factory.hpp:77] Creating layer Convolution43
I0818 10:49:16.868041  2412 net.cpp:128] Creating Layer Convolution43
I0818 10:49:16.868046  2412 net.cpp:558] Convolution43 <- Convolution42
I0818 10:49:16.868057  2412 net.cpp:522] Convolution43 -> Convolution43
I0818 10:49:16.874732  2412 net.cpp:172] Setting up Convolution43
I0818 10:49:16.874755  2412 net.cpp:186] Top shape: 10 64 8 8 (40960)
I0818 10:49:16.874759  2412 net.cpp:194] Memory required for data: 91054200
I0818 10:49:16.874774  2412 layer_factory.hpp:77] Creating layer BatchNorm43
I0818 10:49:16.874786  2412 net.cpp:128] Creating Layer BatchNorm43
I0818 10:49:16.874796  2412 net.cpp:558] BatchNorm43 <- Convolution43
I0818 10:49:16.874805  2412 net.cpp:509] BatchNorm43 -> Convolution43 (in-place)
I0818 10:49:16.875167  2412 net.cpp:172] Setting up BatchNorm43
I0818 10:49:16.875180  2412 net.cpp:186] Top shape: 10 64 8 8 (40960)
I0818 10:49:16.875185  2412 net.cpp:194] Memory required for data: 91218040
I0818 10:49:16.875195  2412 layer_factory.hpp:77] Creating layer Scale43
I0818 10:49:16.875203  2412 net.cpp:128] Creating Layer Scale43
I0818 10:49:16.875208  2412 net.cpp:558] Scale43 <- Convolution43
I0818 10:49:16.875217  2412 net.cpp:509] Scale43 -> Convolution43 (in-place)
I0818 10:49:16.875283  2412 layer_factory.hpp:77] Creating layer Scale43
I0818 10:49:16.875488  2412 net.cpp:172] Setting up Scale43
I0818 10:49:16.875501  2412 net.cpp:186] Top shape: 10 64 8 8 (40960)
I0818 10:49:16.875505  2412 net.cpp:194] Memory required for data: 91381880
I0818 10:49:16.875514  2412 layer_factory.hpp:77] Creating layer Eltwise20
I0818 10:49:16.875524  2412 net.cpp:128] Creating Layer Eltwise20
I0818 10:49:16.875528  2412 net.cpp:558] Eltwise20 <- Eltwise19_ReLU39_0_split_1
I0818 10:49:16.875533  2412 net.cpp:558] Eltwise20 <- Convolution43
I0818 10:49:16.875542  2412 net.cpp:522] Eltwise20 -> Eltwise20
I0818 10:49:16.875578  2412 net.cpp:172] Setting up Eltwise20
I0818 10:49:16.875589  2412 net.cpp:186] Top shape: 10 64 8 8 (40960)
I0818 10:49:16.875612  2412 net.cpp:194] Memory required for data: 91545720
I0818 10:49:16.875617  2412 layer_factory.hpp:77] Creating layer ReLU41
I0818 10:49:16.875622  2412 net.cpp:128] Creating Layer ReLU41
I0818 10:49:16.875627  2412 net.cpp:558] ReLU41 <- Eltwise20
I0818 10:49:16.875635  2412 net.cpp:509] ReLU41 -> Eltwise20 (in-place)
I0818 10:49:16.876180  2412 net.cpp:172] Setting up ReLU41
I0818 10:49:16.876204  2412 net.cpp:186] Top shape: 10 64 8 8 (40960)
I0818 10:49:16.876209  2412 net.cpp:194] Memory required for data: 91709560
I0818 10:49:16.876214  2412 layer_factory.hpp:77] Creating layer Eltwise20_ReLU41_0_split
I0818 10:49:16.876222  2412 net.cpp:128] Creating Layer Eltwise20_ReLU41_0_split
I0818 10:49:16.876227  2412 net.cpp:558] Eltwise20_ReLU41_0_split <- Eltwise20
I0818 10:49:16.876237  2412 net.cpp:522] Eltwise20_ReLU41_0_split -> Eltwise20_ReLU41_0_split_0
I0818 10:49:16.876246  2412 net.cpp:522] Eltwise20_ReLU41_0_split -> Eltwise20_ReLU41_0_split_1
I0818 10:49:16.876318  2412 net.cpp:172] Setting up Eltwise20_ReLU41_0_split
I0818 10:49:16.876330  2412 net.cpp:186] Top shape: 10 64 8 8 (40960)
I0818 10:49:16.876336  2412 net.cpp:186] Top shape: 10 64 8 8 (40960)
I0818 10:49:16.876340  2412 net.cpp:194] Memory required for data: 92037240
I0818 10:49:16.876344  2412 layer_factory.hpp:77] Creating layer Convolution44
I0818 10:49:16.876358  2412 net.cpp:128] Creating Layer Convolution44
I0818 10:49:16.876363  2412 net.cpp:558] Convolution44 <- Eltwise20_ReLU41_0_split_0
I0818 10:49:16.876372  2412 net.cpp:522] Convolution44 -> Convolution44
I0818 10:49:16.882948  2412 net.cpp:172] Setting up Convolution44
I0818 10:49:16.882971  2412 net.cpp:186] Top shape: 10 64 8 8 (40960)
I0818 10:49:16.882975  2412 net.cpp:194] Memory required for data: 92201080
I0818 10:49:16.882987  2412 layer_factory.hpp:77] Creating layer BatchNorm44
I0818 10:49:16.882997  2412 net.cpp:128] Creating Layer BatchNorm44
I0818 10:49:16.883003  2412 net.cpp:558] BatchNorm44 <- Convolution44
I0818 10:49:16.883010  2412 net.cpp:509] BatchNorm44 -> Convolution44 (in-place)
I0818 10:49:16.883379  2412 net.cpp:172] Setting up BatchNorm44
I0818 10:49:16.883393  2412 net.cpp:186] Top shape: 10 64 8 8 (40960)
I0818 10:49:16.883397  2412 net.cpp:194] Memory required for data: 92364920
I0818 10:49:16.883407  2412 layer_factory.hpp:77] Creating layer Scale44
I0818 10:49:16.883415  2412 net.cpp:128] Creating Layer Scale44
I0818 10:49:16.883419  2412 net.cpp:558] Scale44 <- Convolution44
I0818 10:49:16.883425  2412 net.cpp:509] Scale44 -> Convolution44 (in-place)
I0818 10:49:16.883491  2412 layer_factory.hpp:77] Creating layer Scale44
I0818 10:49:16.883692  2412 net.cpp:172] Setting up Scale44
I0818 10:49:16.883707  2412 net.cpp:186] Top shape: 10 64 8 8 (40960)
I0818 10:49:16.883710  2412 net.cpp:194] Memory required for data: 92528760
I0818 10:49:16.883718  2412 layer_factory.hpp:77] Creating layer ReLU42
I0818 10:49:16.883724  2412 net.cpp:128] Creating Layer ReLU42
I0818 10:49:16.883729  2412 net.cpp:558] ReLU42 <- Convolution44
I0818 10:49:16.883734  2412 net.cpp:509] ReLU42 -> Convolution44 (in-place)
I0818 10:49:16.884670  2412 net.cpp:172] Setting up ReLU42
I0818 10:49:16.884690  2412 net.cpp:186] Top shape: 10 64 8 8 (40960)
I0818 10:49:16.884696  2412 net.cpp:194] Memory required for data: 92692600
I0818 10:49:16.884701  2412 layer_factory.hpp:77] Creating layer Convolution45
I0818 10:49:16.884716  2412 net.cpp:128] Creating Layer Convolution45
I0818 10:49:16.884722  2412 net.cpp:558] Convolution45 <- Convolution44
I0818 10:49:16.884732  2412 net.cpp:522] Convolution45 -> Convolution45
I0818 10:49:16.891412  2412 net.cpp:172] Setting up Convolution45
I0818 10:49:16.891441  2412 net.cpp:186] Top shape: 10 64 8 8 (40960)
I0818 10:49:16.891446  2412 net.cpp:194] Memory required for data: 92856440
I0818 10:49:16.891463  2412 layer_factory.hpp:77] Creating layer BatchNorm45
I0818 10:49:16.891472  2412 net.cpp:128] Creating Layer BatchNorm45
I0818 10:49:16.891477  2412 net.cpp:558] BatchNorm45 <- Convolution45
I0818 10:49:16.891508  2412 net.cpp:509] BatchNorm45 -> Convolution45 (in-place)
I0818 10:49:16.891868  2412 net.cpp:172] Setting up BatchNorm45
I0818 10:49:16.891880  2412 net.cpp:186] Top shape: 10 64 8 8 (40960)
I0818 10:49:16.891883  2412 net.cpp:194] Memory required for data: 93020280
I0818 10:49:16.891893  2412 layer_factory.hpp:77] Creating layer Scale45
I0818 10:49:16.891908  2412 net.cpp:128] Creating Layer Scale45
I0818 10:49:16.891913  2412 net.cpp:558] Scale45 <- Convolution45
I0818 10:49:16.891921  2412 net.cpp:509] Scale45 -> Convolution45 (in-place)
I0818 10:49:16.891980  2412 layer_factory.hpp:77] Creating layer Scale45
I0818 10:49:16.892189  2412 net.cpp:172] Setting up Scale45
I0818 10:49:16.892199  2412 net.cpp:186] Top shape: 10 64 8 8 (40960)
I0818 10:49:16.892204  2412 net.cpp:194] Memory required for data: 93184120
I0818 10:49:16.892211  2412 layer_factory.hpp:77] Creating layer Eltwise21
I0818 10:49:16.892221  2412 net.cpp:128] Creating Layer Eltwise21
I0818 10:49:16.892231  2412 net.cpp:558] Eltwise21 <- Eltwise20_ReLU41_0_split_1
I0818 10:49:16.892237  2412 net.cpp:558] Eltwise21 <- Convolution45
I0818 10:49:16.892243  2412 net.cpp:522] Eltwise21 -> Eltwise21
I0818 10:49:16.892279  2412 net.cpp:172] Setting up Eltwise21
I0818 10:49:16.892287  2412 net.cpp:186] Top shape: 10 64 8 8 (40960)
I0818 10:49:16.892290  2412 net.cpp:194] Memory required for data: 93347960
I0818 10:49:16.892295  2412 layer_factory.hpp:77] Creating layer ReLU43
I0818 10:49:16.892302  2412 net.cpp:128] Creating Layer ReLU43
I0818 10:49:16.892307  2412 net.cpp:558] ReLU43 <- Eltwise21
I0818 10:49:16.892314  2412 net.cpp:509] ReLU43 -> Eltwise21 (in-place)
I0818 10:49:16.893411  2412 net.cpp:172] Setting up ReLU43
I0818 10:49:16.893429  2412 net.cpp:186] Top shape: 10 64 8 8 (40960)
I0818 10:49:16.893434  2412 net.cpp:194] Memory required for data: 93511800
I0818 10:49:16.893438  2412 layer_factory.hpp:77] Creating layer Pooling1
I0818 10:49:16.893448  2412 net.cpp:128] Creating Layer Pooling1
I0818 10:49:16.893453  2412 net.cpp:558] Pooling1 <- Eltwise21
I0818 10:49:16.893465  2412 net.cpp:522] Pooling1 -> Pooling1
I0818 10:49:16.895617  2412 net.cpp:172] Setting up Pooling1
I0818 10:49:16.895638  2412 net.cpp:186] Top shape: 10 64 1 1 (640)
I0818 10:49:16.895642  2412 net.cpp:194] Memory required for data: 93514360
I0818 10:49:16.895648  2412 layer_factory.hpp:77] Creating layer InnerProduct1
I0818 10:49:16.895659  2412 net.cpp:128] Creating Layer InnerProduct1
I0818 10:49:16.895665  2412 net.cpp:558] InnerProduct1 <- Pooling1
I0818 10:49:16.895673  2412 net.cpp:522] InnerProduct1 -> InnerProduct1
I0818 10:49:16.895889  2412 net.cpp:172] Setting up InnerProduct1
I0818 10:49:16.895901  2412 net.cpp:186] Top shape: 10 10 (100)
I0818 10:49:16.895905  2412 net.cpp:194] Memory required for data: 93514760
I0818 10:49:16.895915  2412 layer_factory.hpp:77] Creating layer InnerProduct1_InnerProduct1_0_split
I0818 10:49:16.895923  2412 net.cpp:128] Creating Layer InnerProduct1_InnerProduct1_0_split
I0818 10:49:16.895928  2412 net.cpp:558] InnerProduct1_InnerProduct1_0_split <- InnerProduct1
I0818 10:49:16.895936  2412 net.cpp:522] InnerProduct1_InnerProduct1_0_split -> InnerProduct1_InnerProduct1_0_split_0
I0818 10:49:16.895943  2412 net.cpp:522] InnerProduct1_InnerProduct1_0_split -> InnerProduct1_InnerProduct1_0_split_1
I0818 10:49:16.896003  2412 net.cpp:172] Setting up InnerProduct1_InnerProduct1_0_split
I0818 10:49:16.896010  2412 net.cpp:186] Top shape: 10 10 (100)
I0818 10:49:16.896015  2412 net.cpp:186] Top shape: 10 10 (100)
I0818 10:49:16.896019  2412 net.cpp:194] Memory required for data: 93515560
I0818 10:49:16.896023  2412 layer_factory.hpp:77] Creating layer SoftmaxWithLoss1
I0818 10:49:16.896035  2412 net.cpp:128] Creating Layer SoftmaxWithLoss1
I0818 10:49:16.896040  2412 net.cpp:558] SoftmaxWithLoss1 <- InnerProduct1_InnerProduct1_0_split_0
I0818 10:49:16.896045  2412 net.cpp:558] SoftmaxWithLoss1 <- Data2_Data1_1_split_0
…
