…
I0930 10:16:17.236587 30982 upgrade_proto.cpp:82] Successfully upgraded batch norm layers using deprecated params.
I0930 10:16:17.239835 30982 net.cpp:82] Initializing net from parameters: 
name: "ResNet-44"
state {
  phase: TRAIN
  level: 0
  stage: ""
}
layer {
  name: "Data1"
  type: "Data"
  top: "data"
  top: "label"
  transform_param {
    scale: 0.00390625
    mirror: true
    crop_size: 32
    mean_value: 125.3
    mean_value: 122.9
    mean_value: 113.8
  }
  data_param {
    source: "/home/lijianfei/datasets/cifar10_40/train_lmdb"
    batch_size: 128
    backend: LMDB
  }
  image_data_param {
    shuffle: true
  }
}
layer {
  name: "conv1"
  type: "Convolution"
  bottom: "data"
  top: "conv1"
  param {
    lr_mult: 1
    decay_mult: 1
  }
  param {
    lr_mult: 2
    decay_mult: 0
  }
  convolution_param {
    num_output: 16
    bias_term: true
    pad: 1
    kernel_size: 3
    stride: 1
    weight_filler {
      type: "msra"
    }
    bias_filler {
      type: "constant"
      value: 0
    }
  }
}
layer {
  name: "conv1/bn"
  type: "BatchNorm"
  bottom: "conv1"
  top: "conv1"
  param {
    lr_mult: 0
    decay_mult: 0
  }
  param {
    lr_mult: 0
    decay_mult: 0
  }
  param {
    lr_mult: 0
    decay_mult: 0
  }
  batch_norm_param {
    use_global_stats: false
  }
}
layer {
  name: "conv1/scale"
  type: "Scale"
  bottom: "conv1"
  top: "conv1"
  scale_param {
    bias_term: true
  }
}
layer {
  name: "conv1/ReLU"
  type: "ReLU"
  bottom: "conv1"
  top: "conv1"
}
layer {
  name: "conv2_1_0"
  type: "Convolution"
  bottom: "conv1"
  top: "conv2_1_0"
  param {
    lr_mult: 1
    decay_mult: 1
  }
  param {
    lr_mult: 2
    decay_mult: 0
  }
  convolution_param {
    num_output: 16
    bias_term: true
    pad: 1
    kernel_size: 3
    stride: 1
    weight_filler {
      type: "msra"
    }
    bias_filler {
      type: "constant"
      value: 0
    }
  }
}
layer {
  name: "conv2_1_bn0"
  type: "BatchNorm"
  bottom: "conv2_1_0"
  top: "conv2_1_0"
  param {
    lr_mult: 0
    decay_mult: 0
  }
  param {
    lr_mult: 0
    decay_mult: 0
  }
  param {
    lr_mult: 0
    decay_mult: 0
  }
  batch_norm_param {
    use_global_stats: false
  }
}
layer {
  name: "conv2_1_scale0"
  type: "Scale"
  bottom: "conv2_1_0"
  top: "conv2_1_0"
  scale_param {
    bias_term: true
  }
}
layer {
  name: "conv2_1_ReLU0"
  type: "ReLU"
  bottom: "conv2_1_0"
  top: "conv2_1_0"
}
layer {
  name: "conv2_1_1"
  type: "Convolution"
  bottom: "conv2_1_0"
  top: "conv2_1_1"
  param {
    lr_mult: 1
    decay_mult: 1
  }
  param {
    lr_mult: 2
    decay_mult: 0
  }
  convolution_param {
    num_output: 16
    bias_term: true
    pad: 1
    kernel_size: 3
    stride: 1
    weight_filler {
      type: "msra"
    }
    bias_filler {
      type: "constant"
      value: 0
    }
  }
}
layer {
  name: "conv2_1bn1"
  type: "BatchNorm"
  bottom: "conv2_1_1"
  top: "conv2_1_1"
  param {
    lr_mult: 0
    decay_mult: 0
  }
  param {
    lr_mult: 0
    decay_mult: 0
  }
  param {
    lr_mult: 0
    decay_mult: 0
  }
  batch_norm_param {
    use_global_stats: false
  }
}
layer {
  name: "conv2_1_scale1"
  type: "Scale"
  bottom: "conv2_1_1"
  top: "conv2_1_1"
  scale_param {
    bias_term: true
  }
}
layer {
  name: "conv2_Eltwise_1"
  type: "Eltwise"
  bottom: "conv1"
  bottom: "conv2_1_1"
  top: "conv2_Eltwise_1"
  eltwise_param {
    operation: SUM
  }
}
layer {
  name: "conv2_1ReLU_1"
  type: "ReLU"
  bottom: "conv2_Eltwise_1"
  top: "conv2_Eltwise_1"
}
layer {
  name: "conv2_2_0"
  type: "Convolution"
  bottom: "conv2_Eltwise_1"
  top: "conv2_2_0"
  param {
    lr_mult: 1
    decay_mult: 1
  }
  param {
    lr_mult: 2
    decay_mult: 0
  }
  convolution_param {
    num_output: 16
    bias_term: true
    pad: 1
    kernel_size: 3
    stride: 1
    weight_filler {
      type: "msra"
    }
    bias_filler {
      type: "constant"
      value: 0
    }
  }
}
layer {
  name: "conv2_2_bn0"
  type: "BatchNorm"
  bottom: "conv2_2_0"
  top: "conv2_2_0"
  param {
    lr_mult: 0
    decay_mult: 0
  }
  param {
    lr_mult: 0
    decay_mult: 0
  }
  param {
    lr_mult: 0
    decay_mult: 0
  }
  batch_norm_param {
    use_global_stats: false
  }
}
layer {
  name: "conv2_2_scale0"
  type: "Scale"
  bottom: "conv2_2_0"
  top: "conv2_2_0"
  scale_param {
    bias_term: true
  }
}
layer {
  name: "conv2_2_ReLU0"
  type: "ReLU"
  bottom: "conv2_2_0"
  top: "conv2_2_0"
}
layer {
  name: "conv2_2_1"
  type: "Convolution"
  bottom: "conv2_2_0"
  top: "conv2_2_1"
  param {
    lr_mult: 1
    decay_mult: 1
  }
  param {
    lr_mult: 2
    decay_mult: 0
  }
  convolution_param {
    num_output: 16
    bias_term: true
    pad: 1
    kernel_size: 3
    stride: 1
    weight_filler {
      type: "msra"
    }
    bias_filler {
      type: "constant"
      value: 0
    }
  }
}
layer {
  name: "conv2_2bn1"
  type: "BatchNorm"
  bottom: "conv2_2_1"
  top: "conv2_2_1"
  param {
    lr_mult: 0
    decay_mult: 0
  }
  param {
    lr_mult: 0
    decay_mult: 0
  }
  param {
    lr_mult: 0
    decay_mult: 0
  }
  batch_norm_param {
    use_global_stats: false
  }
}
layer {
  name: "conv2_2_scale1"
  type: "Scale"
  bottom: "conv2_2_1"
  top: "conv2_2_1"
  scale_param {
    bias_term: true
  }
}
layer {
  name: "conv2_Eltwise_2"
  type: "Eltwise"
  bottom: "conv2_Eltwise_1"
  bottom: "conv2_2_1"
  top: "conv2_Eltwise_2"
  eltwise_param {
    operation: SUM
  }
}
layer {
  name: "conv2_2ReLU_1"
  type: "ReLU"
  bottom: "conv2_Eltwise_2"
  top: "conv2_Eltwise_2"
}
layer {
  name: "conv2_3_0"
  type: "Convolution"
  bottom: "conv2_Eltwise_2"
  top: "conv2_3_0"
  param {
    lr_mult: 1
    decay_mult: 1
  }
  param {
    lr_mult: 2
    decay_mult: 0
  }
  convolution_param {
    num_output: 16
    bias_term: true
    pad: 1
    kernel_size: 3
    stride: 1
    weight_filler {
      type: "msra"
    }
    bias_filler {
      type: "constant"
      value: 0
    }
  }
}
layer {
  name: "conv2_3_bn0"
  type: "BatchNorm"
  bottom: "conv2_3_0"
  top: "conv2_3_0"
  param {
    lr_mult: 0
    decay_mult: 0
  }
  param {
    lr_mult: 0
    decay_mult: 0
  }
  param {
    lr_mult: 0
    decay_mult: 0
  }
  batch_norm_param {
    use_global_stats: false
  }
}
layer {
  name: "conv2_3_scale0"
  type: "Scale"
  bottom: "conv2_3_0"
  top: "conv2_3_0"
  scale_param {
    bias_term: true
  }
}
layer {
  name: "conv2_3_ReLU0"
  type: "ReLU"
  bottom: "conv2_3_0"
  top: "conv2_3_0"
}
layer {
  name: "conv2_3_1"
  type: "Convolution"
  bottom: "conv2_3_0"
  top: "conv2_3_1"
  param {
    lr_mult: 1
    decay_mult: 1
  }
  param {
    lr_mult: 2
    decay_mult: 0
  }
  convolution_param {
    num_output: 16
    bias_term: true
    pad: 1
    kernel_size: 3
    stride: 1
    weight_filler {
      type: "msra"
    }
    bias_filler {
      type: "constant"
      value: 0
    }
  }
}
layer {
  name: "conv2_3bn1"
  type: "BatchNorm"
  bottom: "conv2_3_1"
  top: "conv2_3_1"
  param {
    lr_mult: 0
    decay_mult: 0
  }
  param {
    lr_mult: 0
    decay_mult: 0
  }
  param {
    lr_mult: 0
    decay_mult: 0
  }
  batch_norm_param {
    use_global_stats: false
  }
}
layer {
  name: "conv2_3_scale1"
  type: "Scale"
  bottom: "conv2_3_1"
  top: "conv2_3_1"
  scale_param {
    bias_term: true
  }
}
layer {
  name: "conv2_Eltwise_3"
  type: "Eltwise"
  bottom: "conv2_Eltwise_2"
  bottom: "conv2_3_1"
  top: "conv2_Eltwise_3"
  eltwise_param {
    operation: SUM
  }
}
layer {
  name: "conv2_3ReLU_1"
  type: "ReLU"
  bottom: "conv2_Eltwise_3"
  top: "conv2_Eltwise_3"
}
layer {
  name: "conv2_4_0"
  type: "Convolution"
  bottom: "conv2_Eltwise_3"
  top: "conv2_4_0"
  param {
    lr_mult: 1
    decay_mult: 1
  }
  param {
    lr_mult: 2
    decay_mult: 0
  }
  convolution_param {
    num_output: 16
    bias_term: true
    pad: 1
    kernel_size: 3
    stride: 1
    weight_filler {
      type: "msra"
    }
    bias_filler {
      type: "constant"
      value: 0
    }
  }
}
layer {
  name: "conv2_4_bn0"
  type: "BatchNorm"
  bottom: "conv2_4_0"
  top: "conv2_4_0"
  param {
    lr_mult: 0
    decay_mult: 0
  }
  param {
    lr_mult: 0
    decay_mult: 0
  }
  param {
    lr_mult: 0
    decay_mult: 0
  }
  batch_norm_param {
    use_global_stats: false
  }
}
layer {
  name: "conv2_4_scale0"
  type: "Scale"
  bottom: "conv2_4_0"
  top: "conv2_4_0"
  scale_param {
    bias_term: true
  }
}
layer {
  name: "conv2_4_ReLU0"
  type: "ReLU"
  bottom: "conv2_4_0"
  top: "conv2_4_0"
}
layer {
  name: "conv2_4_1"
  type: "Convolution"
  bottom: "conv2_4_0"
  top: "conv2_4_1"
  param {
    lr_mult: 1
    decay_mult: 1
  }
  param {
    lr_mult: 2
    decay_mult: 0
  }
  convolution_param {
    num_output: 16
    bias_term: true
    pad: 1
    kernel_size: 3
    stride: 1
    weight_filler {
      type: "msra"
    }
    bias_filler {
      type: "constant"
      value: 0
    }
  }
}
layer {
  name: "conv2_4bn1"
  type: "BatchNorm"
  bottom: "conv2_4_1"
  top: "conv2_4_1"
  param {
    lr_mult: 0
    decay_mult: 0
  }
  param {
    lr_mult: 0
    decay_mult: 0
  }
  param {
    lr_mult: 0
    decay_mult: 0
  }
  batch_norm_param {
    use_global_stats: false
  }
}
layer {
  name: "conv2_4_scale1"
  type: "Scale"
  bottom: "conv2_4_1"
  top: "conv2_4_1"
  scale_param {
    bias_term: true
  }
}
layer {
  name: "conv2_Eltwise_4"
  type: "Eltwise"
  bottom: "conv2_Eltwise_3"
  bottom: "conv2_4_1"
  top: "conv2_Eltwise_4"
  eltwise_param {
    operation: SUM
  }
}
layer {
  name: "conv2_4ReLU_1"
  type: "ReLU"
  bottom: "conv2_Eltwise_4"
  top: "conv2_Eltwise_4"
}
layer {
  name: "conv2_5_0"
  type: "Convolution"
  bottom: "conv2_Eltwise_4"
  top: "conv2_5_0"
  param {
    lr_mult: 1
    decay_mult: 1
  }
  param {
    lr_mult: 2
    decay_mult: 0
  }
  convolution_param {
    num_output: 16
    bias_term: true
    pad: 1
    kernel_size: 3
    stride: 1
    weight_filler {
      type: "msra"
    }
    bias_filler {
      type: "constant"
      value: 0
    }
  }
}
layer {
  name: "conv2_5_bn0"
  type: "BatchNorm"
  bottom: "conv2_5_0"
  top: "conv2_5_0"
  param {
    lr_mult: 0
    decay_mult: 0
  }
  param {
    lr_mult: 0
    decay_mult: 0
  }
  param {
    lr_mult: 0
    decay_mult: 0
  }
  batch_norm_param {
    use_global_stats: false
  }
}
layer {
  name: "conv2_5_scale0"
  type: "Scale"
  bottom: "conv2_5_0"
  top: "conv2_5_0"
  scale_param {
    bias_term: true
  }
}
layer {
  name: "conv2_5_ReLU0"
  type: "ReLU"
  bottom: "conv2_5_0"
  top: "conv2_5_0"
}
layer {
  name: "conv2_5_1"
  type: "Convolution"
  bottom: "conv2_5_0"
  top: "conv2_5_1"
  param {
    lr_mult: 1
    decay_mult: 1
  }
  param {
    lr_mult: 2
    decay_mult: 0
  }
  convolution_param {
    num_output: 16
    bias_term: true
    pad: 1
    kernel_size: 3
    stride: 1
    weight_filler {
      type: "msra"
    }
    bias_filler {
      type: "constant"
      value: 0
    }
  }
}
layer {
  name: "conv2_5bn1"
  type: "BatchNorm"
  bottom: "conv2_5_1"
  top: "conv2_5_1"
  param {
    lr_mult: 0
    decay_mult: 0
  }
  param {
    lr_mult: 0
    decay_mult: 0
  }
  param {
    lr_mult: 0
    decay_mult: 0
  }
  batch_norm_param {
    use_global_stats: false
  }
}
layer {
  name: "conv2_5_scale1"
  type: "Scale"
  bottom: "conv2_5_1"
  top: "conv2_5_1"
  scale_param {
    bias_term: true
  }
}
layer {
  name: "conv2_Eltwise_5"
  type: "Eltwise"
  bottom: "conv2_Eltwise_4"
  bottom: "conv2_5_1"
  top: "conv2_Eltwise_5"
  eltwise_param {
    operation: SUM
  }
}
layer {
  name: "conv2_5ReLU_1"
  type: "ReLU"
  bottom: "conv2_Eltwise_5"
  top: "conv2_Eltwise_5"
}
layer {
  name: "conv2_6_0"
  type: "Convolution"
  bottom: "conv2_Eltwise_5"
  top: "conv2_6_0"
  param {
    lr_mult: 1
    decay_mult: 1
  }
  param {
    lr_mult: 2
    decay_mult: 0
  }
  convolution_param {
    num_output: 16
    bias_term: true
    pad: 1
    kernel_size: 3
    stride: 1
    weight_filler {
      type: "msra"
    }
    bias_filler {
      type: "constant"
      value: 0
    }
  }
}
layer {
  name: "conv2_6_bn0"
  type: "BatchNorm"
  bottom: "conv2_6_0"
  top: "conv2_6_0"
  param {
    lr_mult: 0
    decay_mult: 0
  }
  param {
    lr_mult: 0
    decay_mult: 0
  }
  param {
    lr_mult: 0
    decay_mult: 0
  }
  batch_norm_param {
    use_global_stats: false
  }
}
layer {
  name: "conv2_6_scale0"
  type: "Scale"
  bottom: "conv2_6_0"
  top: "conv2_6_0"
  scale_param {
    bias_term: true
  }
}
layer {
  name: "conv2_6_ReLU0"
  type: "ReLU"
  bottom: "conv2_6_0"
  top: "conv2_6_0"
}
layer {
  name: "conv2_6_1"
  type: "Convolution"
  bottom: "conv2_6_0"
  top: "conv2_6_1"
  param {
    lr_mult: 1
    decay_mult: 1
  }
  param {
    lr_mult: 2
    decay_mult: 0
  }
  convolution_param {
    num_output: 16
    bias_term: true
    pad: 1
    kernel_size: 3
    stride: 1
    weight_filler {
      type: "msra"
    }
    bias_filler {
      type: "constant"
      value: 0
    }
  }
}
layer {
  name: "conv2_6bn1"
  type: "BatchNorm"
  bottom: "conv2_6_1"
  top: "conv2_6_1"
  param {
    lr_mult: 0
    decay_mult: 0
  }
  param {
    lr_mult: 0
    decay_mult: 0
  }
  param {
    lr_mult: 0
    decay_mult: 0
  }
  batch_norm_param {
    use_global_stats: false
  }
}
layer {
  name: "conv2_6_scale1"
  type: "Scale"
  bottom: "conv2_6_1"
  top: "conv2_6_1"
  scale_param {
    bias_term: true
  }
}
layer {
  name: "conv2_Eltwise_6"
  type: "Eltwise"
  bottom: "conv2_Eltwise_5"
  bottom: "conv2_6_1"
  top: "conv2_Eltwise_6"
  eltwise_param {
    operation: SUM
  }
}
layer {
  name: "conv2_6ReLU_1"
  type: "ReLU"
  bottom: "conv2_Eltwise_6"
  top: "conv2_Eltwise_6"
}
layer {
  name: "conv2_7_0"
  type: "Convolution"
  bottom: "conv2_Eltwise_6"
  top: "conv2_7_0"
  param {
    lr_mult: 1
    decay_mult: 1
  }
  param {
    lr_mult: 2
    decay_mult: 0
  }
  convolution_param {
    num_output: 16
    bias_term: true
    pad: 1
    kernel_size: 3
    stride: 1
    weight_filler {
      type: "msra"
    }
    bias_filler {
      type: "constant"
      value: 0
    }
  }
}
layer {
  name: "conv2_7_bn0"
  type: "BatchNorm"
  bottom: "conv2_7_0"
  top: "conv2_7_0"
  param {
    lr_mult: 0
    decay_mult: 0
  }
  param {
    lr_mult: 0
    decay_mult: 0
  }
  param {
    lr_mult: 0
    decay_mult: 0
  }
  batch_norm_param {
    use_global_stats: false
  }
}
layer {
  name: "conv2_7_scale0"
  type: "Scale"
  bottom: "conv2_7_0"
  top: "conv2_7_0"
  scale_param {
    bias_term: true
  }
}
layer {
  name: "conv2_7_ReLU0"
  type: "ReLU"
  bottom: "conv2_7_0"
  top: "conv2_7_0"
}
layer {
  name: "conv2_7_1"
  type: "Convolution"
  bottom: "conv2_7_0"
  top: "conv2_7_1"
  param {
    lr_mult: 1
    decay_mult: 1
  }
  param {
    lr_mult: 2
    decay_mult: 0
  }
  convolution_param {
    num_output: 16
    bias_term: true
    pad: 1
    kernel_size: 3
    stride: 1
    weight_filler {
      type: "msra"
    }
    bias_filler {
      type: "constant"
      value: 0
    }
  }
}
layer {
  name: "conv2_7bn1"
  type: "BatchNorm"
  bottom: "conv2_7_1"
  top: "conv2_7_1"
  param {
    lr_mult: 0
    decay_mult: 0
  }
  param {
    lr_mult: 0
    decay_mult: 0
  }
  param {
    lr_mult: 0
    decay_mult: 0
  }
  batch_norm_param {
    use_global_stats: false
  }
}
layer {
  name: "conv2_7_scale1"
  type: "Scale"
  bottom: "conv2_7_1"
  top: "conv2_7_1"
  scale_param {
    bias_term: true
  }
}
layer {
  name: "conv2_Eltwise_7"
  type: "Eltwise"
  bottom: "conv2_Eltwise_6"
  bottom: "conv2_7_1"
  top: "conv2_Eltwise_7"
  eltwise_param {
    operation: SUM
  }
}
layer {
  name: "conv2_7ReLU_1"
  type: "ReLU"
  bottom: "conv2_Eltwise_7"
  top: "conv2_Eltwise_7"
}
layer {
  name: "conv3_1_0"
  type: "Convolution"
  bottom: "conv2_Eltwise_7"
  top: "conv3_1_0"
  param {
    lr_mult: 1
    decay_mult: 1
  }
  param {
    lr_mult: 2
    decay_mult: 0
  }
  convolution_param {
    num_output: 32
    bias_term: true
    pad: 1
    kernel_size: 3
    stride: 2
    weight_filler {
      type: "msra"
    }
    bias_filler {
      type: "constant"
      value: 0
    }
  }
}
layer {
  name: "conv3_1_bn0"
  type: "BatchNorm"
  bottom: "conv3_1_0"
  top: "conv3_1_0"
  param {
    lr_mult: 0
    decay_mult: 0
  }
  param {
    lr_mult: 0
    decay_mult: 0
  }
  param {
    lr_mult: 0
    decay_mult: 0
  }
  batch_norm_param {
    use_global_stats: false
  }
}
layer {
  name: "conv3_1_scale0"
  type: "Scale"
  bottom: "conv3_1_0"
  top: "conv3_1_0"
  scale_param {
    bias_term: true
  }
}
layer {
  name: "conv3_1_ReLU0"
  type: "ReLU"
  bottom: "conv3_1_0"
  top: "conv3_1_0"
}
layer {
  name: "conv3_1_1"
  type: "Convolution"
  bottom: "conv3_1_0"
  top: "conv3_1_1"
  param {
    lr_mult: 1
    decay_mult: 1
  }
  param {
    lr_mult: 2
    decay_mult: 0
  }
  convolution_param {
    num_output: 32
    bias_term: true
    pad: 1
    kernel_size: 3
    stride: 1
    weight_filler {
      type: "msra"
    }
    bias_filler {
      type: "constant"
      value: 0
    }
  }
}
layer {
  name: "conv3_1bn1"
  type: "BatchNorm"
  bottom: "conv3_1_1"
  top: "conv3_1_1"
  param {
    lr_mult: 0
    decay_mult: 0
  }
  param {
    lr_mult: 0
    decay_mult: 0
  }
  param {
    lr_mult: 0
    decay_mult: 0
  }
  batch_norm_param {
    use_global_stats: false
  }
}
layer {
  name: "conv3_1_scale1"
  type: "Scale"
  bottom: "conv3_1_1"
  top: "conv3_1_1"
  scale_param {
    bias_term: true
  }
}
layer {
  name: "conv3_1_down"
  type: "Convolution"
  bottom: "conv2_Eltwise_7"
  top: "conv3_1_down"
  param {
    lr_mult: 1
    decay_mult: 1
  }
  param {
    lr_mult: 2
    decay_mult: 0
  }
  convolution_param {
    num_output: 32
    bias_term: true
    pad: 0
    kernel_size: 1
    stride: 2
    weight_filler {
      type: "msra"
    }
    bias_filler {
      type: "constant"
      value: 0
    }
  }
}
layer {
  name: "conv3_1_bn_down"
  type: "BatchNorm"
  bottom: "conv3_1_down"
  top: "conv3_1_down"
  param {
    lr_mult: 0
    decay_mult: 0
  }
  param {
    lr_mult: 0
    decay_mult: 0
  }
  param {
    lr_mult: 0
    decay_mult: 0
  }
  batch_norm_param {
    use_global_stats: false
  }
}
layer {
  name: "conv3_1_scale_down"
  type: "Scale"
  bottom: "conv3_1_down"
  top: "conv3_1_down"
  scale_param {
    bias_term: true
  }
}
layer {
  name: "conv3_Eltwise_1"
  type: "Eltwise"
  bottom: "conv3_1_1"
  bottom: "conv3_1_down"
  top: "conv3_Eltwise_1"
  eltwise_param {
    operation: SUM
  }
}
layer {
  name: "conv3_1ReLU_1"
  type: "ReLU"
  bottom: "conv3_Eltwise_1"
  top: "conv3_Eltwise_1"
}
layer {
  name: "conv3_2_0"
  type: "Convolution"
  bottom: "conv3_Eltwise_1"
  top: "conv3_2_0"
  param {
    lr_mult: 1
    decay_mult: 1
  }
  param {
    lr_mult: 2
    decay_mult: 0
  }
  convolution_param {
    num_output: 32
    bias_term: true
    pad: 1
    kernel_size: 3
    stride: 1
    weight_filler {
      type: "msra"
    }
    bias_filler {
      type: "constant"
      value: 0
    }
  }
}
layer {
  name: "conv3_2_bn0"
  type: "BatchNorm"
  bottom: "conv3_2_0"
  top: "conv3_2_0"
  param {
    lr_mult: 0
    decay_mult: 0
  }
  param {
    lr_mult: 0
    decay_mult: 0
  }
  param {
    lr_mult: 0
    decay_mult: 0
  }
  batch_norm_param {
    use_global_stats: false
  }
}
layer {
  name: "conv3_2_scale0"
  type: "Scale"
  bottom: "conv3_2_0"
  top: "conv3_2_0"
  scale_param {
    bias_term: true
  }
}
layer {
  name: "conv3_2_ReLU0"
  type: "ReLU"
  bottom: "conv3_2_0"
  top: "conv3_2_0"
}
layer {
  name: "conv3_2_1"
  type: "Convolution"
  bottom: "conv3_2_0"
  top: "conv3_2_1"
  param {
    lr_mult: 1
    decay_mult: 1
  }
  param {
    lr_mult: 2
    decay_mult: 0
  }
  convolution_param {
    num_output: 32
    bias_term: true
    pad: 1
    kernel_size: 3
    stride: 1
    weight_filler {
      type: "msra"
    }
    bias_filler {
      type: "constant"
      value: 0
    }
  }
}
layer {
  name: "conv3_2bn1"
  type: "BatchNorm"
  bottom: "conv3_2_1"
  top: "conv3_2_1"
  param {
    lr_mult: 0
    decay_mult: 0
  }
  param {
    lr_mult: 0
    decay_mult: 0
  }
  param {
    lr_mult: 0
    decay_mult: 0
  }
  batch_norm_param {
    use_global_stats: false
  }
}
layer {
  name: "conv3_2_scale1"
  type: "Scale"
  bottom: "conv3_2_1"
  top: "conv3_2_1"
  scale_param {
    bias_term: true
  }
}
layer {
  name: "conv3_Eltwise_2"
  type: "Eltwise"
  bottom: "conv3_Eltwise_1"
  bottom: "conv3_2_1"
  top: "conv3_Eltwise_2"
  eltwise_param {
    operation: SUM
  }
}
layer {
  name: "conv3_2ReLU_1"
  type: "ReLU"
  bottom: "conv3_Eltwise_2"
  top: "conv3_Eltwise_2"
}
layer {
  name: "conv3_3_0"
  type: "Convolution"
  bottom: "conv3_Eltwise_2"
  top: "conv3_3_0"
  param {
    lr_mult: 1
    decay_mult: 1
  }
  param {
    lr_mult: 2
    decay_mult: 0
  }
  convolution_param {
    num_output: 32
    bias_term: true
    pad: 1
    kernel_size: 3
    stride: 1
    weight_filler {
      type: "msra"
    }
    bias_filler {
      type: "constant"
      value: 0
    }
  }
}
layer {
  name: "conv3_3_bn0"
  type: "BatchNorm"
  bottom: "conv3_3_0"
  top: "conv3_3_0"
  param {
    lr_mult: 0
    decay_mult: 0
  }
  param {
    lr_mult: 0
    decay_mult: 0
  }
  param {
    lr_mult: 0
    decay_mult: 0
  }
  batch_norm_param {
    use_global_stats: false
  }
}
layer {
  name: "conv3_3_scale0"
  type: "Scale"
  bottom: "conv3_3_0"
  top: "conv3_3_0"
  scale_param {
    bias_term: true
  }
}
layer {
  name: "conv3_3_ReLU0"
  type: "ReLU"
  bottom: "conv3_3_0"
  top: "conv3_3_0"
}
layer {
  name: "conv3_3_1"
  type: "Convolution"
  bottom: "conv3_3_0"
  top: "conv3_3_1"
  param {
    lr_mult: 1
    decay_mult: 1
  }
  param {
    lr_mult: 2
    decay_mult: 0
  }
  convolution_param {
    num_output: 32
    bias_term: true
    pad: 1
    kernel_size: 3
    stride: 1
    weight_filler {
      type: "msra"
    }
    bias_filler {
      type: "constant"
      value: 0
    }
  }
}
layer {
  name: "conv3_3bn1"
  type: "BatchNorm"
  bottom: "conv3_3_1"
  top: "conv3_3_1"
  param {
    lr_mult: 0
    decay_mult: 0
  }
  param {
    lr_mult: 0
    decay_mult: 0
  }
  param {
    lr_mult: 0
    decay_mult: 0
  }
  batch_norm_param {
    use_global_stats: false
  }
}
layer {
  name: "conv3_3_scale1"
  type: "Scale"
  bottom: "conv3_3_1"
  top: "conv3_3_1"
  scale_param {
    bias_term: true
  }
}
layer {
  name: "conv3_Eltwise_3"
  type: "Eltwise"
  bottom: "conv3_Eltwise_2"
  bottom: "conv3_3_1"
  top: "conv3_Eltwise_3"
  eltwise_param {
    operation: SUM
  }
}
layer {
  name: "conv3_3ReLU_1"
  type: "ReLU"
  bottom: "conv3_Eltwise_3"
  top: "conv3_Eltwise_3"
}
layer {
  name: "conv3_4_0"
  type: "Convolution"
  bottom: "conv3_Eltwise_3"
  top: "conv3_4_0"
  param {
    lr_mult: 1
    decay_mult: 1
  }
  param {
    lr_mult: 2
    decay_mult: 0
  }
  convolution_param {
    num_output: 32
    bias_term: true
    pad: 1
    kernel_size: 3
    stride: 1
    weight_filler {
      type: "msra"
    }
    bias_filler {
      type: "constant"
      value: 0
    }
  }
}
layer {
  name: "conv3_4_bn0"
  type: "BatchNorm"
  bottom: "conv3_4_0"
  top: "conv3_4_0"
  param {
    lr_mult: 0
    decay_mult: 0
  }
  param {
    lr_mult: 0
    decay_mult: 0
  }
  param {
    lr_mult: 0
    decay_mult: 0
  }
  batch_norm_param {
    use_global_stats: false
  }
}
layer {
  name: "conv3_4_scale0"
  type: "Scale"
  bottom: "conv3_4_0"
  top: "conv3_4_0"
  scale_param {
    bias_term: true
  }
}
layer {
  name: "conv3_4_ReLU0"
  type: "ReLU"
  bottom: "conv3_4_0"
  top: "conv3_4_0"
}
layer {
  name: "conv3_4_1"
  type: "Convolution"
  bottom: "conv3_4_0"
  top: "conv3_4_1"
  param {
    lr_mult: 1
    decay_mult: 1
  }
  param {
    lr_mult: 2
    decay_mult: 0
  }
  convolution_param {
    num_output: 32
    bias_term: true
    pad: 1
    kernel_size: 3
    stride: 1
    weight_filler {
      type: "msra"
    }
    bias_filler {
      type: "constant"
      value: 0
    }
  }
}
layer {
  name: "conv3_4bn1"
  type: "BatchNorm"
  bottom: "conv3_4_1"
  top: "conv3_4_1"
  param {
    lr_mult: 0
    decay_mult: 0
  }
  param {
    lr_mult: 0
    decay_mult: 0
  }
  param {
    lr_mult: 0
    decay_mult: 0
  }
  batch_norm_param {
    use_global_stats: false
  }
}
layer {
  name: "conv3_4_scale1"
  type: "Scale"
  bottom: "conv3_4_1"
  top: "conv3_4_1"
  scale_param {
    bias_term: true
  }
}
layer {
  name: "conv3_Eltwise_4"
  type: "Eltwise"
  bottom: "conv3_Eltwise_3"
  bottom: "conv3_4_1"
  top: "conv3_Eltwise_4"
  eltwise_param {
    operation: SUM
  }
}
layer {
  name: "conv3_4ReLU_1"
  type: "ReLU"
  bottom: "conv3_Eltwise_4"
  top: "conv3_Eltwise_4"
}
layer {
  name: "conv3_5_0"
  type: "Convolution"
  bottom: "conv3_Eltwise_4"
  top: "conv3_5_0"
  param {
    lr_mult: 1
    decay_mult: 1
  }
  param {
    lr_mult: 2
    decay_mult: 0
  }
  convolution_param {
    num_output: 32
    bias_term: true
    pad: 1
    kernel_size: 3
    stride: 1
    weight_filler {
      type: "msra"
    }
    bias_filler {
      type: "constant"
      value: 0
    }
  }
}
layer {
  name: "conv3_5_bn0"
  type: "BatchNorm"
  bottom: "conv3_5_0"
  top: "conv3_5_0"
  param {
    lr_mult: 0
    decay_mult: 0
  }
  param {
    lr_mult: 0
    decay_mult: 0
  }
  param {
    lr_mult: 0
    decay_mult: 0
  }
  batch_norm_param {
    use_global_stats: false
  }
}
layer {
  name: "conv3_5_scale0"
  type: "Scale"
  bottom: "conv3_5_0"
  top: "conv3_5_0"
  scale_param {
    bias_term: true
  }
}
layer {
  name: "conv3_5_ReLU0"
  type: "ReLU"
  bottom: "conv3_5_0"
  top: "conv3_5_0"
}
layer {
  name: "conv3_5_1"
  type: "Convolution"
  bottom: "conv3_5_0"
  top: "conv3_5_1"
  param {
    lr_mult: 1
    decay_mult: 1
  }
  param {
    lr_mult: 2
    decay_mult: 0
  }
  convolution_param {
    num_output: 32
    bias_term: true
    pad: 1
    kernel_size: 3
    stride: 1
    weight_filler {
      type: "msra"
    }
    bias_filler {
      type: "constant"
      value: 0
    }
  }
}
layer {
  name: "conv3_5bn1"
  type: "BatchNorm"
  bottom: "conv3_5_1"
  top: "conv3_5_1"
  param {
    lr_mult: 0
    decay_mult: 0
  }
  param {
    lr_mult: 0
    decay_mult: 0
  }
  param {
    lr_mult: 0
    decay_mult: 0
  }
  batch_norm_param {
    use_global_stats: false
  }
}
layer {
  name: "conv3_5_scale1"
  type: "Scale"
  bottom: "conv3_5_1"
  top: "conv3_5_1"
  scale_param {
    bias_term: true
  }
}
layer {
  name: "conv3_Eltwise_5"
  type: "Eltwise"
  bottom: "conv3_Eltwise_4"
  bottom: "conv3_5_1"
  top: "conv3_Eltwise_5"
  eltwise_param {
    operation: SUM
  }
}
layer {
  name: "conv3_5ReLU_1"
  type: "ReLU"
  bottom: "conv3_Eltwise_5"
  top: "conv3_Eltwise_5"
}
layer {
  name: "conv3_6_0"
  type: "Convolution"
  bottom: "conv3_Eltwise_5"
  top: "conv3_6_0"
  param {
    lr_mult: 1
    decay_mult: 1
  }
  param {
    lr_mult: 2
    decay_mult: 0
  }
  convolution_param {
    num_output: 32
    bias_term: true
    pad: 1
    kernel_size: 3
    stride: 1
    weight_filler {
      type: "msra"
    }
    bias_filler {
      type: "constant"
      value: 0
    }
  }
}
layer {
  name: "conv3_6_bn0"
  type: "BatchNorm"
  bottom: "conv3_6_0"
  top: "conv3_6_0"
  param {
    lr_mult: 0
    decay_mult: 0
  }
  param {
    lr_mult: 0
    decay_mult: 0
  }
  param {
    lr_mult: 0
    decay_mult: 0
  }
  batch_norm_param {
    use_global_stats: false
  }
}
layer {
  name: "conv3_6_scale0"
  type: "Scale"
  bottom: "conv3_6_0"
  top: "conv3_6_0"
  scale_param {
    bias_term: true
  }
}
layer {
  name: "conv3_6_ReLU0"
  type: "ReLU"
  bottom: "conv3_6_0"
  top: "conv3_6_0"
}
layer {
  name: "conv3_6_1"
  type: "Convolution"
  bottom: "conv3_6_0"
  top: "conv3_6_1"
  param {
    lr_mult: 1
    decay_mult: 1
  }
  param {
    lr_mult: 2
    decay_mult: 0
  }
  convolution_param {
    num_output: 32
    bias_term: true
    pad: 1
    kernel_size: 3
    stride: 1
    weight_filler {
      type: "msra"
    }
    bias_filler {
      type: "constant"
      value: 0
    }
  }
}
layer {
  name: "conv3_6bn1"
  type: "BatchNorm"
  bottom: "conv3_6_1"
  top: "conv3_6_1"
  param {
    lr_mult: 0
    decay_mult: 0
  }
  param {
    lr_mult: 0
    decay_mult: 0
  }
  param {
    lr_mult: 0
    decay_mult: 0
  }
  batch_norm_param {
    use_global_stats: false
  }
}
layer {
  name: "conv3_6_scale1"
  type: "Scale"
  bottom: "conv3_6_1"
  top: "conv3_6_1"
  scale_param {
    bias_term: true
  }
}
layer {
  name: "conv3_Eltwise_6"
  type: "Eltwise"
  bottom: "conv3_Eltwise_5"
  bottom: "conv3_6_1"
  top: "conv3_Eltwise_6"
  eltwise_param {
    operation: SUM
  }
}
layer {
  name: "conv3_6ReLU_1"
  type: "ReLU"
  bottom: "conv3_Eltwise_6"
  top: "conv3_Eltwise_6"
}
layer {
  name: "conv3_7_0"
  type: "Convolution"
  bottom: "conv3_Eltwise_6"
  top: "conv3_7_0"
  param {
    lr_mult: 1
    decay_mult: 1
  }
  param {
    lr_mult: 2
    decay_mult: 0
  }
  convolution_param {
    num_output: 32
    bias_term: true
    pad: 1
    kernel_size: 3
    stride: 1
    weight_filler {
      type: "msra"
    }
    bias_filler {
      type: "constant"
      value: 0
    }
  }
}
layer {
  name: "conv3_7_bn0"
  type: "BatchNorm"
  bottom: "conv3_7_0"
  top: "conv3_7_0"
  param {
    lr_mult: 0
    decay_mult: 0
  }
  param {
    lr_mult: 0
    decay_mult: 0
  }
  param {
    lr_mult: 0
    decay_mult: 0
  }
  batch_norm_param {
    use_global_stats: false
  }
}
layer {
  name: "conv3_7_scale0"
  type: "Scale"
  bottom: "conv3_7_0"
  top: "conv3_7_0"
  scale_param {
    bias_term: true
  }
}
layer {
  name: "conv3_7_ReLU0"
  type: "ReLU"
  bottom: "conv3_7_0"
  top: "conv3_7_0"
}
layer {
  name: "conv3_7_1"
  type: "Convolution"
  bottom: "conv3_7_0"
  top: "conv3_7_1"
  param {
    lr_mult: 1
    decay_mult: 1
  }
  param {
    lr_mult: 2
    decay_mult: 0
  }
  convolution_param {
    num_output: 32
    bias_term: true
    pad: 1
    kernel_size: 3
    stride: 1
    weight_filler {
      type: "msra"
    }
    bias_filler {
      type: "constant"
      value: 0
    }
  }
}
layer {
  name: "conv3_7bn1"
  type: "BatchNorm"
  bottom: "conv3_7_1"
  top: "conv3_7_1"
  param {
    lr_mult: 0
    decay_mult: 0
  }
  param {
    lr_mult: 0
    decay_mult: 0
  }
  param {
    lr_mult: 0
    decay_mult: 0
  }
  batch_norm_param {
    use_global_stats: false
  }
}
layer {
  name: "conv3_7_scale1"
I0930 10:16:17.241039 30982 layer_factory.hpp:77] Creating layer Data1
I0930 10:16:17.273910 30982 db_lmdb.cpp:35] Opened lmdb /home/lijianfei/datasets/cifar10_40/train_lmdb
I0930 10:16:17.274006 30982 net.cpp:128] Creating Layer Data1
I0930 10:16:17.274030 30982 net.cpp:522] Data1 -> data
I0930 10:16:17.274073 30982 net.cpp:522] Data1 -> label
I0930 10:16:17.276290 30982 data_layer.cpp:45] output data size: 128,3,32,32
I0930 10:16:17.293211 30982 net.cpp:172] Setting up Data1
I0930 10:16:17.293279 30982 net.cpp:186] Top shape: 128 3 32 32 (393216)
I0930 10:16:17.293290 30982 net.cpp:186] Top shape: 128 (128)
I0930 10:16:17.293294 30982 net.cpp:194] Memory required for data: 1573376
I0930 10:16:17.293310 30982 layer_factory.hpp:77] Creating layer conv1
I0930 10:16:17.293373 30982 net.cpp:128] Creating Layer conv1
I0930 10:16:17.293385 30982 net.cpp:558] conv1 <- data
I0930 10:16:17.293406 30982 net.cpp:522] conv1 -> conv1
I0930 10:16:18.311678 30982 net.cpp:172] Setting up conv1
I0930 10:16:18.311744 30982 net.cpp:186] Top shape: 128 16 32 32 (2097152)
I0930 10:16:18.311753 30982 net.cpp:194] Memory required for data: 9961984
I0930 10:16:18.311803 30982 layer_factory.hpp:77] Creating layer conv1/bn
I0930 10:16:18.311828 30982 net.cpp:128] Creating Layer conv1/bn
I0930 10:16:18.311836 30982 net.cpp:558] conv1/bn <- conv1
I0930 10:16:18.311846 30982 net.cpp:509] conv1/bn -> conv1 (in-place)
I0930 10:16:18.312203 30982 net.cpp:172] Setting up conv1/bn
I0930 10:16:18.312237 30982 net.cpp:186] Top shape: 128 16 32 32 (2097152)
I0930 10:16:18.312258 30982 net.cpp:194] Memory required for data: 18350592
I0930 10:16:18.312284 30982 layer_factory.hpp:77] Creating layer conv1/scale
I0930 10:16:18.312315 30982 net.cpp:128] Creating Layer conv1/scale
I0930 10:16:18.312331 30982 net.cpp:558] conv1/scale <- conv1
I0930 10:16:18.312350 30982 net.cpp:509] conv1/scale -> conv1 (in-place)
I0930 10:16:18.312417 30982 layer_factory.hpp:77] Creating layer conv1/scale
I0930 10:16:18.312589 30982 net.cpp:172] Setting up conv1/scale
I0930 10:16:18.312618 30982 net.cpp:186] Top shape: 128 16 32 32 (2097152)
I0930 10:16:18.312633 30982 net.cpp:194] Memory required for data: 26739200
I0930 10:16:18.312647 30982 layer_factory.hpp:77] Creating layer conv1/ReLU
I0930 10:16:18.312661 30982 net.cpp:128] Creating Layer conv1/ReLU
I0930 10:16:18.312665 30982 net.cpp:558] conv1/ReLU <- conv1
I0930 10:16:18.312674 30982 net.cpp:509] conv1/ReLU -> conv1 (in-place)
I0930 10:16:18.313405 30982 net.cpp:172] Setting up conv1/ReLU
I0930 10:16:18.313421 30982 net.cpp:186] Top shape: 128 16 32 32 (2097152)
I0930 10:16:18.313426 30982 net.cpp:194] Memory required for data: 35127808
I0930 10:16:18.313431 30982 layer_factory.hpp:77] Creating layer conv1_conv1/ReLU_0_split
I0930 10:16:18.313438 30982 net.cpp:128] Creating Layer conv1_conv1/ReLU_0_split
I0930 10:16:18.313442 30982 net.cpp:558] conv1_conv1/ReLU_0_split <- conv1
I0930 10:16:18.313452 30982 net.cpp:522] conv1_conv1/ReLU_0_split -> conv1_conv1/ReLU_0_split_0
I0930 10:16:18.313462 30982 net.cpp:522] conv1_conv1/ReLU_0_split -> conv1_conv1/ReLU_0_split_1
I0930 10:16:18.313513 30982 net.cpp:172] Setting up conv1_conv1/ReLU_0_split
I0930 10:16:18.313519 30982 net.cpp:186] Top shape: 128 16 32 32 (2097152)
I0930 10:16:18.313525 30982 net.cpp:186] Top shape: 128 16 32 32 (2097152)
I0930 10:16:18.313529 30982 net.cpp:194] Memory required for data: 51905024
I0930 10:16:18.313534 30982 layer_factory.hpp:77] Creating layer conv2_1_0
I0930 10:16:18.313551 30982 net.cpp:128] Creating Layer conv2_1_0
I0930 10:16:18.313556 30982 net.cpp:558] conv2_1_0 <- conv1_conv1/ReLU_0_split_0
I0930 10:16:18.313565 30982 net.cpp:522] conv2_1_0 -> conv2_1_0
I0930 10:16:18.320158 30982 net.cpp:172] Setting up conv2_1_0
I0930 10:16:18.320186 30982 net.cpp:186] Top shape: 128 16 32 32 (2097152)
I0930 10:16:18.320191 30982 net.cpp:194] Memory required for data: 60293632
I0930 10:16:18.320209 30982 layer_factory.hpp:77] Creating layer conv2_1_bn0
I0930 10:16:18.320220 30982 net.cpp:128] Creating Layer conv2_1_bn0
I0930 10:16:18.320228 30982 net.cpp:558] conv2_1_bn0 <- conv2_1_0
I0930 10:16:18.320238 30982 net.cpp:509] conv2_1_bn0 -> conv2_1_0 (in-place)
I0930 10:16:18.320477 30982 net.cpp:172] Setting up conv2_1_bn0
I0930 10:16:18.320488 30982 net.cpp:186] Top shape: 128 16 32 32 (2097152)
I0930 10:16:18.320492 30982 net.cpp:194] Memory required for data: 68682240
I0930 10:16:18.320502 30982 layer_factory.hpp:77] Creating layer conv2_1_scale0
I0930 10:16:18.320511 30982 net.cpp:128] Creating Layer conv2_1_scale0
I0930 10:16:18.320515 30982 net.cpp:558] conv2_1_scale0 <- conv2_1_0
I0930 10:16:18.320524 30982 net.cpp:509] conv2_1_scale0 -> conv2_1_0 (in-place)
I0930 10:16:18.320561 30982 layer_factory.hpp:77] Creating layer conv2_1_scale0
I0930 10:16:18.320698 30982 net.cpp:172] Setting up conv2_1_scale0
I0930 10:16:18.320710 30982 net.cpp:186] Top shape: 128 16 32 32 (2097152)
I0930 10:16:18.320714 30982 net.cpp:194] Memory required for data: 77070848
I0930 10:16:18.320721 30982 layer_factory.hpp:77] Creating layer conv2_1_ReLU0
I0930 10:16:18.320729 30982 net.cpp:128] Creating Layer conv2_1_ReLU0
I0930 10:16:18.320735 30982 net.cpp:558] conv2_1_ReLU0 <- conv2_1_0
I0930 10:16:18.320741 30982 net.cpp:509] conv2_1_ReLU0 -> conv2_1_0 (in-place)
I0930 10:16:18.322257 30982 net.cpp:172] Setting up conv2_1_ReLU0
I0930 10:16:18.322270 30982 net.cpp:186] Top shape: 128 16 32 32 (2097152)
I0930 10:16:18.322274 30982 net.cpp:194] Memory required for data: 85459456
I0930 10:16:18.322296 30982 layer_factory.hpp:77] Creating layer conv2_1_1
I0930 10:16:18.322316 30982 net.cpp:128] Creating Layer conv2_1_1
I0930 10:16:18.322321 30982 net.cpp:558] conv2_1_1 <- conv2_1_0
I0930 10:16:18.322332 30982 net.cpp:522] conv2_1_1 -> conv2_1_1
I0930 10:16:18.328970 30982 net.cpp:172] Setting up conv2_1_1
I0930 10:16:18.328996 30982 net.cpp:186] Top shape: 128 16 32 32 (2097152)
I0930 10:16:18.329001 30982 net.cpp:194] Memory required for data: 93848064
I0930 10:16:18.329010 30982 layer_factory.hpp:77] Creating layer conv2_1bn1
I0930 10:16:18.329022 30982 net.cpp:128] Creating Layer conv2_1bn1
I0930 10:16:18.329027 30982 net.cpp:558] conv2_1bn1 <- conv2_1_1
I0930 10:16:18.329035 30982 net.cpp:509] conv2_1bn1 -> conv2_1_1 (in-place)
I0930 10:16:18.329267 30982 net.cpp:172] Setting up conv2_1bn1
I0930 10:16:18.329278 30982 net.cpp:186] Top shape: 128 16 32 32 (2097152)
I0930 10:16:18.329282 30982 net.cpp:194] Memory required for data: 102236672
I0930 10:16:18.329294 30982 layer_factory.hpp:77] Creating layer conv2_1_scale1
I0930 10:16:18.329301 30982 net.cpp:128] Creating Layer conv2_1_scale1
I0930 10:16:18.329305 30982 net.cpp:558] conv2_1_scale1 <- conv2_1_1
I0930 10:16:18.329314 30982 net.cpp:509] conv2_1_scale1 -> conv2_1_1 (in-place)
I0930 10:16:18.329354 30982 layer_factory.hpp:77] Creating layer conv2_1_scale1
I0930 10:16:18.329489 30982 net.cpp:172] Setting up conv2_1_scale1
I0930 10:16:18.329504 30982 net.cpp:186] Top shape: 128 16 32 32 (2097152)
I0930 10:16:18.329507 30982 net.cpp:194] Memory required for data: 110625280
I0930 10:16:18.329515 30982 layer_factory.hpp:77] Creating layer conv2_Eltwise_1
I0930 10:16:18.329527 30982 net.cpp:128] Creating Layer conv2_Eltwise_1
I0930 10:16:18.329531 30982 net.cpp:558] conv2_Eltwise_1 <- conv1_conv1/ReLU_0_split_1
I0930 10:16:18.329536 30982 net.cpp:558] conv2_Eltwise_1 <- conv2_1_1
I0930 10:16:18.329542 30982 net.cpp:522] conv2_Eltwise_1 -> conv2_Eltwise_1
I0930 10:16:18.329573 30982 net.cpp:172] Setting up conv2_Eltwise_1
I0930 10:16:18.329581 30982 net.cpp:186] Top shape: 128 16 32 32 (2097152)
I0930 10:16:18.329584 30982 net.cpp:194] Memory required for data: 119013888
I0930 10:16:18.329588 30982 layer_factory.hpp:77] Creating layer conv2_1ReLU_1
I0930 10:16:18.329594 30982 net.cpp:128] Creating Layer conv2_1ReLU_1
I0930 10:16:18.329598 30982 net.cpp:558] conv2_1ReLU_1 <- conv2_Eltwise_1
I0930 10:16:18.329603 30982 net.cpp:509] conv2_1ReLU_1 -> conv2_Eltwise_1 (in-place)
I0930 10:16:18.331087 30982 net.cpp:172] Setting up conv2_1ReLU_1
I0930 10:16:18.331111 30982 net.cpp:186] Top shape: 128 16 32 32 (2097152)
I0930 10:16:18.331115 30982 net.cpp:194] Memory required for data: 127402496
I0930 10:16:18.331120 30982 layer_factory.hpp:77] Creating layer conv2_Eltwise_1_conv2_1ReLU_1_0_split
I0930 10:16:18.331130 30982 net.cpp:128] Creating Layer conv2_Eltwise_1_conv2_1ReLU_1_0_split
I0930 10:16:18.331135 30982 net.cpp:558] conv2_Eltwise_1_conv2_1ReLU_1_0_split <- conv2_Eltwise_1
I0930 10:16:18.331145 30982 net.cpp:522] conv2_Eltwise_1_conv2_1ReLU_1_0_split -> conv2_Eltwise_1_conv2_1ReLU_1_0_split_0
I0930 10:16:18.331157 30982 net.cpp:522] conv2_Eltwise_1_conv2_1ReLU_1_0_split -> conv2_Eltwise_1_conv2_1ReLU_1_0_split_1
I0930 10:16:18.331207 30982 net.cpp:172] Setting up conv2_Eltwise_1_conv2_1ReLU_1_0_split
I0930 10:16:18.331213 30982 net.cpp:186] Top shape: 128 16 32 32 (2097152)
I0930 10:16:18.331219 30982 net.cpp:186] Top shape: 128 16 32 32 (2097152)
I0930 10:16:18.331223 30982 net.cpp:194] Memory required for data: 144179712
I0930 10:16:18.331228 30982 layer_factory.hpp:77] Creating layer conv2_2_0
I0930 10:16:18.331241 30982 net.cpp:128] Creating Layer conv2_2_0
I0930 10:16:18.331246 30982 net.cpp:558] conv2_2_0 <- conv2_Eltwise_1_conv2_1ReLU_1_0_split_0
I0930 10:16:18.331254 30982 net.cpp:522] conv2_2_0 -> conv2_2_0
I0930 10:16:18.333904 30982 net.cpp:172] Setting up conv2_2_0
I0930 10:16:18.333937 30982 net.cpp:186] Top shape: 128 16 32 32 (2097152)
I0930 10:16:18.333942 30982 net.cpp:194] Memory required for data: 152568320
I0930 10:16:18.333967 30982 layer_factory.hpp:77] Creating layer conv2_2_bn0
I0930 10:16:18.333983 30982 net.cpp:128] Creating Layer conv2_2_bn0
I0930 10:16:18.333988 30982 net.cpp:558] conv2_2_bn0 <- conv2_2_0
I0930 10:16:18.333995 30982 net.cpp:509] conv2_2_bn0 -> conv2_2_0 (in-place)
I0930 10:16:18.334235 30982 net.cpp:172] Setting up conv2_2_bn0
I0930 10:16:18.334246 30982 net.cpp:186] Top shape: 128 16 32 32 (2097152)
I0930 10:16:18.334250 30982 net.cpp:194] Memory required for data: 160956928
I0930 10:16:18.334260 30982 layer_factory.hpp:77] Creating layer conv2_2_scale0
I0930 10:16:18.334266 30982 net.cpp:128] Creating Layer conv2_2_scale0
I0930 10:16:18.334270 30982 net.cpp:558] conv2_2_scale0 <- conv2_2_0
I0930 10:16:18.334276 30982 net.cpp:509] conv2_2_scale0 -> conv2_2_0 (in-place)
I0930 10:16:18.334316 30982 layer_factory.hpp:77] Creating layer conv2_2_scale0
I0930 10:16:18.334447 30982 net.cpp:172] Setting up conv2_2_scale0
I0930 10:16:18.334457 30982 net.cpp:186] Top shape: 128 16 32 32 (2097152)
I0930 10:16:18.334462 30982 net.cpp:194] Memory required for data: 169345536
I0930 10:16:18.334470 30982 layer_factory.hpp:77] Creating layer conv2_2_ReLU0
I0930 10:16:18.334476 30982 net.cpp:128] Creating Layer conv2_2_ReLU0
I0930 10:16:18.334481 30982 net.cpp:558] conv2_2_ReLU0 <- conv2_2_0
I0930 10:16:18.334489 30982 net.cpp:509] conv2_2_ReLU0 -> conv2_2_0 (in-place)
I0930 10:16:18.334717 30982 net.cpp:172] Setting up conv2_2_ReLU0
I0930 10:16:18.334733 30982 net.cpp:186] Top shape: 128 16 32 32 (2097152)
I0930 10:16:18.334738 30982 net.cpp:194] Memory required for data: 177734144
I0930 10:16:18.334743 30982 layer_factory.hpp:77] Creating layer conv2_2_1
I0930 10:16:18.334753 30982 net.cpp:128] Creating Layer conv2_2_1
I0930 10:16:18.334758 30982 net.cpp:558] conv2_2_1 <- conv2_2_0
I0930 10:16:18.334767 30982 net.cpp:522] conv2_2_1 -> conv2_2_1
I0930 10:16:18.337836 30982 net.cpp:172] Setting up conv2_2_1
I0930 10:16:18.337862 30982 net.cpp:186] Top shape: 128 16 32 32 (2097152)
I0930 10:16:18.337865 30982 net.cpp:194] Memory required for data: 186122752
I0930 10:16:18.337877 30982 layer_factory.hpp:77] Creating layer conv2_2bn1
I0930 10:16:18.337888 30982 net.cpp:128] Creating Layer conv2_2bn1
I0930 10:16:18.337895 30982 net.cpp:558] conv2_2bn1 <- conv2_2_1
I0930 10:16:18.337903 30982 net.cpp:509] conv2_2bn1 -> conv2_2_1 (in-place)
I0930 10:16:18.338156 30982 net.cpp:172] Setting up conv2_2bn1
I0930 10:16:18.338169 30982 net.cpp:186] Top shape: 128 16 32 32 (2097152)
I0930 10:16:18.338174 30982 net.cpp:194] Memory required for data: 194511360
I0930 10:16:18.338189 30982 layer_factory.hpp:77] Creating layer conv2_2_scale1
I0930 10:16:18.338198 30982 net.cpp:128] Creating Layer conv2_2_scale1
I0930 10:16:18.338202 30982 net.cpp:558] conv2_2_scale1 <- conv2_2_1
I0930 10:16:18.338210 30982 net.cpp:509] conv2_2_scale1 -> conv2_2_1 (in-place)
I0930 10:16:18.338251 30982 layer_factory.hpp:77] Creating layer conv2_2_scale1
I0930 10:16:18.338389 30982 net.cpp:172] Setting up conv2_2_scale1
I0930 10:16:18.338402 30982 net.cpp:186] Top shape: 128 16 32 32 (2097152)
I0930 10:16:18.338405 30982 net.cpp:194] Memory required for data: 202899968
I0930 10:16:18.338413 30982 layer_factory.hpp:77] Creating layer conv2_Eltwise_2
I0930 10:16:18.338424 30982 net.cpp:128] Creating Layer conv2_Eltwise_2
I0930 10:16:18.338429 30982 net.cpp:558] conv2_Eltwise_2 <- conv2_Eltwise_1_conv2_1ReLU_1_0_split_1
I0930 10:16:18.338434 30982 net.cpp:558] conv2_Eltwise_2 <- conv2_2_1
I0930 10:16:18.338440 30982 net.cpp:522] conv2_Eltwise_2 -> conv2_Eltwise_2
I0930 10:16:18.338467 30982 net.cpp:172] Setting up conv2_Eltwise_2
I0930 10:16:18.338474 30982 net.cpp:186] Top shape: 128 16 32 32 (2097152)
I0930 10:16:18.338479 30982 net.cpp:194] Memory required for data: 211288576
I0930 10:16:18.338482 30982 layer_factory.hpp:77] Creating layer conv2_2ReLU_1
I0930 10:16:18.338490 30982 net.cpp:128] Creating Layer conv2_2ReLU_1
I0930 10:16:18.338493 30982 net.cpp:558] conv2_2ReLU_1 <- conv2_Eltwise_2
I0930 10:16:18.338498 30982 net.cpp:509] conv2_2ReLU_1 -> conv2_Eltwise_2 (in-place)
I0930 10:16:18.339933 30982 net.cpp:172] Setting up conv2_2ReLU_1
I0930 10:16:18.339951 30982 net.cpp:186] Top shape: 128 16 32 32 (2097152)
I0930 10:16:18.339954 30982 net.cpp:194] Memory required for data: 219677184
I0930 10:16:18.339960 30982 layer_factory.hpp:77] Creating layer conv2_Eltwise_2_conv2_2ReLU_1_0_split
I0930 10:16:18.339968 30982 net.cpp:128] Creating Layer conv2_Eltwise_2_conv2_2ReLU_1_0_split
I0930 10:16:18.339983 30982 net.cpp:558] conv2_Eltwise_2_conv2_2ReLU_1_0_split <- conv2_Eltwise_2
I0930 10:16:18.339990 30982 net.cpp:522] conv2_Eltwise_2_conv2_2ReLU_1_0_split -> conv2_Eltwise_2_conv2_2ReLU_1_0_split_0
I0930 10:16:18.339998 30982 net.cpp:522] conv2_Eltwise_2_conv2_2ReLU_1_0_split -> conv2_Eltwise_2_conv2_2ReLU_1_0_split_1
I0930 10:16:18.340052 30982 net.cpp:172] Setting up conv2_Eltwise_2_conv2_2ReLU_1_0_split
I0930 10:16:18.340064 30982 net.cpp:186] Top shape: 128 16 32 32 (2097152)
I0930 10:16:18.340070 30982 net.cpp:186] Top shape: 128 16 32 32 (2097152)
I0930 10:16:18.340073 30982 net.cpp:194] Memory required for data: 236454400
I0930 10:16:18.340077 30982 layer_factory.hpp:77] Creating layer conv2_3_0
I0930 10:16:18.340090 30982 net.cpp:128] Creating Layer conv2_3_0
I0930 10:16:18.340098 30982 net.cpp:558] conv2_3_0 <- conv2_Eltwise_2_conv2_2ReLU_1_0_split_0
I0930 10:16:18.340108 30982 net.cpp:522] conv2_3_0 -> conv2_3_0
I0930 10:16:18.346652 30982 net.cpp:172] Setting up conv2_3_0
I0930 10:16:18.346678 30982 net.cpp:186] Top shape: 128 16 32 32 (2097152)
I0930 10:16:18.346683 30982 net.cpp:194] Memory required for data: 244843008
I0930 10:16:18.346693 30982 layer_factory.hpp:77] Creating layer conv2_3_bn0
I0930 10:16:18.346701 30982 net.cpp:128] Creating Layer conv2_3_bn0
I0930 10:16:18.346709 30982 net.cpp:558] conv2_3_bn0 <- conv2_3_0
I0930 10:16:18.346720 30982 net.cpp:509] conv2_3_bn0 -> conv2_3_0 (in-place)
I0930 10:16:18.346964 30982 net.cpp:172] Setting up conv2_3_bn0
I0930 10:16:18.346976 30982 net.cpp:186] Top shape: 128 16 32 32 (2097152)
I0930 10:16:18.346979 30982 net.cpp:194] Memory required for data: 253231616
I0930 10:16:18.346989 30982 layer_factory.hpp:77] Creating layer conv2_3_scale0
I0930 10:16:18.347000 30982 net.cpp:128] Creating Layer conv2_3_scale0
I0930 10:16:18.347005 30982 net.cpp:558] conv2_3_scale0 <- conv2_3_0
I0930 10:16:18.347013 30982 net.cpp:509] conv2_3_scale0 -> conv2_3_0 (in-place)
I0930 10:16:18.347051 30982 layer_factory.hpp:77] Creating layer conv2_3_scale0
I0930 10:16:18.347192 30982 net.cpp:172] Setting up conv2_3_scale0
I0930 10:16:18.347201 30982 net.cpp:186] Top shape: 128 16 32 32 (2097152)
I0930 10:16:18.347205 30982 net.cpp:194] Memory required for data: 261620224
I0930 10:16:18.347213 30982 layer_factory.hpp:77] Creating layer conv2_3_ReLU0
I0930 10:16:18.347223 30982 net.cpp:128] Creating Layer conv2_3_ReLU0
I0930 10:16:18.347232 30982 net.cpp:558] conv2_3_ReLU0 <- conv2_3_0
I0930 10:16:18.347239 30982 net.cpp:509] conv2_3_ReLU0 -> conv2_3_0 (in-place)
I0930 10:16:18.348738 30982 net.cpp:172] Setting up conv2_3_ReLU0
I0930 10:16:18.348762 30982 net.cpp:186] Top shape: 128 16 32 32 (2097152)
I0930 10:16:18.348767 30982 net.cpp:194] Memory required for data: 270008832
I0930 10:16:18.348773 30982 layer_factory.hpp:77] Creating layer conv2_3_1
I0930 10:16:18.348789 30982 net.cpp:128] Creating Layer conv2_3_1
I0930 10:16:18.348798 30982 net.cpp:558] conv2_3_1 <- conv2_3_0
I0930 10:16:18.348805 30982 net.cpp:522] conv2_3_1 -> conv2_3_1
I0930 10:16:18.355521 30982 net.cpp:172] Setting up conv2_3_1
I0930 10:16:18.355549 30982 net.cpp:186] Top shape: 128 16 32 32 (2097152)
I0930 10:16:18.355554 30982 net.cpp:194] Memory required for data: 278397440
I0930 10:16:18.355566 30982 layer_factory.hpp:77] Creating layer conv2_3bn1
I0930 10:16:18.355579 30982 net.cpp:128] Creating Layer conv2_3bn1
I0930 10:16:18.355592 30982 net.cpp:558] conv2_3bn1 <- conv2_3_1
I0930 10:16:18.355602 30982 net.cpp:509] conv2_3bn1 -> conv2_3_1 (in-place)
I0930 10:16:18.355854 30982 net.cpp:172] Setting up conv2_3bn1
I0930 10:16:18.355885 30982 net.cpp:186] Top shape: 128 16 32 32 (2097152)
I0930 10:16:18.355888 30982 net.cpp:194] Memory required for data: 286786048
I0930 10:16:18.355900 30982 layer_factory.hpp:77] Creating layer conv2_3_scale1
I0930 10:16:18.355918 30982 net.cpp:128] Creating Layer conv2_3_scale1
I0930 10:16:18.355923 30982 net.cpp:558] conv2_3_scale1 <- conv2_3_1
I0930 10:16:18.355929 30982 net.cpp:509] conv2_3_scale1 -> conv2_3_1 (in-place)
I0930 10:16:18.355975 30982 layer_factory.hpp:77] Creating layer conv2_3_scale1
I0930 10:16:18.356120 30982 net.cpp:172] Setting up conv2_3_scale1
I0930 10:16:18.356130 30982 net.cpp:186] Top shape: 128 16 32 32 (2097152)
I0930 10:16:18.356134 30982 net.cpp:194] Memory required for data: 295174656
I0930 10:16:18.356142 30982 layer_factory.hpp:77] Creating layer conv2_Eltwise_3
I0930 10:16:18.356153 30982 net.cpp:128] Creating Layer conv2_Eltwise_3
I0930 10:16:18.356158 30982 net.cpp:558] conv2_Eltwise_3 <- conv2_Eltwise_2_conv2_2ReLU_1_0_split_1
I0930 10:16:18.356168 30982 net.cpp:558] conv2_Eltwise_3 <- conv2_3_1
I0930 10:16:18.356176 30982 net.cpp:522] conv2_Eltwise_3 -> conv2_Eltwise_3
I0930 10:16:18.356204 30982 net.cpp:172] Setting up conv2_Eltwise_3
I0930 10:16:18.356215 30982 net.cpp:186] Top shape: 128 16 32 32 (2097152)
I0930 10:16:18.356218 30982 net.cpp:194] Memory required for data: 303563264
I0930 10:16:18.356222 30982 layer_factory.hpp:77] Creating layer conv2_3ReLU_1
I0930 10:16:18.356233 30982 net.cpp:128] Creating Layer conv2_3ReLU_1
I0930 10:16:18.356241 30982 net.cpp:558] conv2_3ReLU_1 <- conv2_Eltwise_3
I0930 10:16:18.356247 30982 net.cpp:509] conv2_3ReLU_1 -> conv2_Eltwise_3 (in-place)
I0930 10:16:18.357587 30982 net.cpp:172] Setting up conv2_3ReLU_1
I0930 10:16:18.357600 30982 net.cpp:186] Top shape: 128 16 32 32 (2097152)
I0930 10:16:18.357605 30982 net.cpp:194] Memory required for data: 311951872
I0930 10:16:18.357609 30982 layer_factory.hpp:77] Creating layer conv2_Eltwise_3_conv2_3ReLU_1_0_split
I0930 10:16:18.357620 30982 net.cpp:128] Creating Layer conv2_Eltwise_3_conv2_3ReLU_1_0_split
I0930 10:16:18.357625 30982 net.cpp:558] conv2_Eltwise_3_conv2_3ReLU_1_0_split <- conv2_Eltwise_3
I0930 10:16:18.357633 30982 net.cpp:522] conv2_Eltwise_3_conv2_3ReLU_1_0_split -> conv2_Eltwise_3_conv2_3ReLU_1_0_split_0
I0930 10:16:18.357641 30982 net.cpp:522] conv2_Eltwise_3_conv2_3ReLU_1_0_split -> conv2_Eltwise_3_conv2_3ReLU_1_0_split_1
I0930 10:16:18.357695 30982 net.cpp:172] Setting up conv2_Eltwise_3_conv2_3ReLU_1_0_split
I0930 10:16:18.357708 30982 net.cpp:186] Top shape: 128 16 32 32 (2097152)
I0930 10:16:18.357718 30982 net.cpp:186] Top shape: 128 16 32 32 (2097152)
I0930 10:16:18.357722 30982 net.cpp:194] Memory required for data: 328729088
I0930 10:16:18.357726 30982 layer_factory.hpp:77] Creating layer conv2_4_0
I0930 10:16:18.357743 30982 net.cpp:128] Creating Layer conv2_4_0
I0930 10:16:18.357751 30982 net.cpp:558] conv2_4_0 <- conv2_Eltwise_3_conv2_3ReLU_1_0_split_0
I0930 10:16:18.357761 30982 net.cpp:522] conv2_4_0 -> conv2_4_0
I0930 10:16:18.364377 30982 net.cpp:172] Setting up conv2_4_0
I0930 10:16:18.364404 30982 net.cpp:186] Top shape: 128 16 32 32 (2097152)
I0930 10:16:18.364409 30982 net.cpp:194] Memory required for data: 337117696
I0930 10:16:18.364428 30982 layer_factory.hpp:77] Creating layer conv2_4_bn0
I0930 10:16:18.364441 30982 net.cpp:128] Creating Layer conv2_4_bn0
I0930 10:16:18.364446 30982 net.cpp:558] conv2_4_bn0 <- conv2_4_0
I0930 10:16:18.364456 30982 net.cpp:509] conv2_4_bn0 -> conv2_4_0 (in-place)
I0930 10:16:18.364711 30982 net.cpp:172] Setting up conv2_4_bn0
I0930 10:16:18.364722 30982 net.cpp:186] Top shape: 128 16 32 32 (2097152)
I0930 10:16:18.364725 30982 net.cpp:194] Memory required for data: 345506304
I0930 10:16:18.364737 30982 layer_factory.hpp:77] Creating layer conv2_4_scale0
I0930 10:16:18.364743 30982 net.cpp:128] Creating Layer conv2_4_scale0
I0930 10:16:18.364751 30982 net.cpp:558] conv2_4_scale0 <- conv2_4_0
I0930 10:16:18.364758 30982 net.cpp:509] conv2_4_scale0 -> conv2_4_0 (in-place)
I0930 10:16:18.364804 30982 layer_factory.hpp:77] Creating layer conv2_4_scale0
I0930 10:16:18.364971 30982 net.cpp:172] Setting up conv2_4_scale0
I0930 10:16:18.364984 30982 net.cpp:186] Top shape: 128 16 32 32 (2097152)
I0930 10:16:18.364989 30982 net.cpp:194] Memory required for data: 353894912
I0930 10:16:18.364996 30982 layer_factory.hpp:77] Creating layer conv2_4_ReLU0
I0930 10:16:18.365003 30982 net.cpp:128] Creating Layer conv2_4_ReLU0
I0930 10:16:18.365011 30982 net.cpp:558] conv2_4_ReLU0 <- conv2_4_0
I0930 10:16:18.365020 30982 net.cpp:509] conv2_4_ReLU0 -> conv2_4_0 (in-place)
I0930 10:16:18.366444 30982 net.cpp:172] Setting up conv2_4_ReLU0
I0930 10:16:18.366459 30982 net.cpp:186] Top shape: 128 16 32 32 (2097152)
I0930 10:16:18.366464 30982 net.cpp:194] Memory required for data: 362283520
I0930 10:16:18.366470 30982 layer_factory.hpp:77] Creating layer conv2_4_1
I0930 10:16:18.366487 30982 net.cpp:128] Creating Layer conv2_4_1
I0930 10:16:18.366494 30982 net.cpp:558] conv2_4_1 <- conv2_4_0
I0930 10:16:18.366504 30982 net.cpp:522] conv2_4_1 -> conv2_4_1
I0930 10:16:18.373167 30982 net.cpp:172] Setting up conv2_4_1
I0930 10:16:18.373190 30982 net.cpp:186] Top shape: 128 16 32 32 (2097152)
I0930 10:16:18.373195 30982 net.cpp:194] Memory required for data: 370672128
I0930 10:16:18.373208 30982 layer_factory.hpp:77] Creating layer conv2_4bn1
I0930 10:16:18.373219 30982 net.cpp:128] Creating Layer conv2_4bn1
I0930 10:16:18.373227 30982 net.cpp:558] conv2_4bn1 <- conv2_4_1
I0930 10:16:18.373237 30982 net.cpp:509] conv2_4bn1 -> conv2_4_1 (in-place)
I0930 10:16:18.373497 30982 net.cpp:172] Setting up conv2_4bn1
I0930 10:16:18.373507 30982 net.cpp:186] Top shape: 128 16 32 32 (2097152)
I0930 10:16:18.373512 30982 net.cpp:194] Memory required for data: 379060736
I0930 10:16:18.373523 30982 layer_factory.hpp:77] Creating layer conv2_4_scale1
I0930 10:16:18.373535 30982 net.cpp:128] Creating Layer conv2_4_scale1
I0930 10:16:18.373543 30982 net.cpp:558] conv2_4_scale1 <- conv2_4_1
I0930 10:16:18.373549 30982 net.cpp:509] conv2_4_scale1 -> conv2_4_1 (in-place)
I0930 10:16:18.373594 30982 layer_factory.hpp:77] Creating layer conv2_4_scale1
I0930 10:16:18.373739 30982 net.cpp:172] Setting up conv2_4_scale1
I0930 10:16:18.373749 30982 net.cpp:186] Top shape: 128 16 32 32 (2097152)
I0930 10:16:18.373754 30982 net.cpp:194] Memory required for data: 387449344
I0930 10:16:18.373761 30982 layer_factory.hpp:77] Creating layer conv2_Eltwise_4
I0930 10:16:18.373776 30982 net.cpp:128] Creating Layer conv2_Eltwise_4
I0930 10:16:18.373785 30982 net.cpp:558] conv2_Eltwise_4 <- conv2_Eltwise_3_conv2_3ReLU_1_0_split_1
I0930 10:16:18.373790 30982 net.cpp:558] conv2_Eltwise_4 <- conv2_4_1
I0930 10:16:18.373800 30982 net.cpp:522] conv2_Eltwise_4 -> conv2_Eltwise_4
I0930 10:16:18.373831 30982 net.cpp:172] Setting up conv2_Eltwise_4
I0930 10:16:18.373842 30982 net.cpp:186] Top shape: 128 16 32 32 (2097152)
I0930 10:16:18.373847 30982 net.cpp:194] Memory required for data: 395837952
I0930 10:16:18.373854 30982 layer_factory.hpp:77] Creating layer conv2_4ReLU_1
I0930 10:16:18.373860 30982 net.cpp:128] Creating Layer conv2_4ReLU_1
I0930 10:16:18.373867 30982 net.cpp:558] conv2_4ReLU_1 <- conv2_Eltwise_4
I0930 10:16:18.373875 30982 net.cpp:509] conv2_4ReLU_1 -> conv2_Eltwise_4 (in-place)
I0930 10:16:18.375239 30982 net.cpp:172] Setting up conv2_4ReLU_1
I0930 10:16:18.375255 30982 net.cpp:186] Top shape: 128 16 32 32 (2097152)
I0930 10:16:18.375263 30982 net.cpp:194] Memory required for data: 404226560
I0930 10:16:18.375268 30982 layer_factory.hpp:77] Creating layer conv2_Eltwise_4_conv2_4ReLU_1_0_split
I0930 10:16:18.375277 30982 net.cpp:128] Creating Layer conv2_Eltwise_4_conv2_4ReLU_1_0_split
I0930 10:16:18.375282 30982 net.cpp:558] conv2_Eltwise_4_conv2_4ReLU_1_0_split <- conv2_Eltwise_4
I0930 10:16:18.375289 30982 net.cpp:522] conv2_Eltwise_4_conv2_4ReLU_1_0_split -> conv2_Eltwise_4_conv2_4ReLU_1_0_split_0
I0930 10:16:18.375301 30982 net.cpp:522] conv2_Eltwise_4_conv2_4ReLU_1_0_split -> conv2_Eltwise_4_conv2_4ReLU_1_0_split_1
I0930 10:16:18.375355 30982 net.cpp:172] Setting up conv2_Eltwise_4_conv2_4ReLU_1_0_split
I0930 10:16:18.375382 30982 net.cpp:186] Top shape: 128 16 32 32 (2097152)
I0930 10:16:18.375388 30982 net.cpp:186] Top shape: 128 16 32 32 (2097152)
I0930 10:16:18.375394 30982 net.cpp:194] Memory required for data: 421003776
I0930 10:16:18.375399 30982 layer_factory.hpp:77] Creating layer conv2_5_0
I0930 10:16:18.375414 30982 net.cpp:128] Creating Layer conv2_5_0
I0930 10:16:18.375422 30982 net.cpp:558] conv2_5_0 <- conv2_Eltwise_4_conv2_4ReLU_1_0_split_0
I0930 10:16:18.375432 30982 net.cpp:522] conv2_5_0 -> conv2_5_0
I0930 10:16:18.382079 30982 net.cpp:172] Setting up conv2_5_0
I0930 10:16:18.382112 30982 net.cpp:186] Top shape: 128 16 32 32 (2097152)
I0930 10:16:18.382117 30982 net.cpp:194] Memory required for data: 429392384
I0930 10:16:18.382145 30982 layer_factory.hpp:77] Creating layer conv2_5_bn0
I0930 10:16:18.382163 30982 net.cpp:128] Creating Layer conv2_5_bn0
I0930 10:16:18.382172 30982 net.cpp:558] conv2_5_bn0 <- conv2_5_0
I0930 10:16:18.382185 30982 net.cpp:509] conv2_5_bn0 -> conv2_5_0 (in-place)
I0930 10:16:18.382447 30982 net.cpp:172] Setting up conv2_5_bn0
I0930 10:16:18.382457 30982 net.cpp:186] Top shape: 128 16 32 32 (2097152)
I0930 10:16:18.382462 30982 net.cpp:194] Memory required for data: 437780992
I0930 10:16:18.382472 30982 layer_factory.hpp:77] Creating layer conv2_5_scale0
I0930 10:16:18.382480 30982 net.cpp:128] Creating Layer conv2_5_scale0
I0930 10:16:18.382488 30982 net.cpp:558] conv2_5_scale0 <- conv2_5_0
I0930 10:16:18.382493 30982 net.cpp:509] conv2_5_scale0 -> conv2_5_0 (in-place)
I0930 10:16:18.382542 30982 layer_factory.hpp:77] Creating layer conv2_5_scale0
I0930 10:16:18.382686 30982 net.cpp:172] Setting up conv2_5_scale0
I0930 10:16:18.382696 30982 net.cpp:186] Top shape: 128 16 32 32 (2097152)
I0930 10:16:18.382700 30982 net.cpp:194] Memory required for data: 446169600
I0930 10:16:18.382709 30982 layer_factory.hpp:77] Creating layer conv2_5_ReLU0
I0930 10:16:18.382717 30982 net.cpp:128] Creating Layer conv2_5_ReLU0
I0930 10:16:18.382725 30982 net.cpp:558] conv2_5_ReLU0 <- conv2_5_0
I0930 10:16:18.382733 30982 net.cpp:509] conv2_5_ReLU0 -> conv2_5_0 (in-place)
I0930 10:16:18.384096 30982 net.cpp:172] Setting up conv2_5_ReLU0
I0930 10:16:18.384119 30982 net.cpp:186] Top shape: 128 16 32 32 (2097152)
I0930 10:16:18.384124 30982 net.cpp:194] Memory required for data: 454558208
I0930 10:16:18.384130 30982 layer_factory.hpp:77] Creating layer conv2_5_1
I0930 10:16:18.384151 30982 net.cpp:128] Creating Layer conv2_5_1
I0930 10:16:18.384158 30982 net.cpp:558] conv2_5_1 <- conv2_5_0
I0930 10:16:18.384171 30982 net.cpp:522] conv2_5_1 -> conv2_5_1
I0930 10:16:18.390822 30982 net.cpp:172] Setting up conv2_5_1
I0930 10:16:18.390846 30982 net.cpp:186] Top shape: 128 16 32 32 (2097152)
I0930 10:16:18.390851 30982 net.cpp:194] Memory required for data: 462946816
I0930 10:16:18.390861 30982 layer_factory.hpp:77] Creating layer conv2_5bn1
I0930 10:16:18.390873 30982 net.cpp:128] Creating Layer conv2_5bn1
I0930 10:16:18.390880 30982 net.cpp:558] conv2_5bn1 <- conv2_5_1
I0930 10:16:18.390890 30982 net.cpp:509] conv2_5bn1 -> conv2_5_1 (in-place)
I0930 10:16:18.391144 30982 net.cpp:172] Setting up conv2_5bn1
I0930 10:16:18.391156 30982 net.cpp:186] Top shape: 128 16 32 32 (2097152)
I0930 10:16:18.391160 30982 net.cpp:194] Memory required for data: 471335424
I0930 10:16:18.391170 30982 layer_factory.hpp:77] Creating layer conv2_5_scale1
I0930 10:16:18.391176 30982 net.cpp:128] Creating Layer conv2_5_scale1
I0930 10:16:18.391181 30982 net.cpp:558] conv2_5_scale1 <- conv2_5_1
I0930 10:16:18.391187 30982 net.cpp:509] conv2_5_scale1 -> conv2_5_1 (in-place)
I0930 10:16:18.391227 30982 layer_factory.hpp:77] Creating layer conv2_5_scale1
I0930 10:16:18.391372 30982 net.cpp:172] Setting up conv2_5_scale1
I0930 10:16:18.391384 30982 net.cpp:186] Top shape: 128 16 32 32 (2097152)
I0930 10:16:18.391388 30982 net.cpp:194] Memory required for data: 479724032
I0930 10:16:18.391396 30982 layer_factory.hpp:77] Creating layer conv2_Eltwise_5
I0930 10:16:18.391404 30982 net.cpp:128] Creating Layer conv2_Eltwise_5
I0930 10:16:18.391435 30982 net.cpp:558] conv2_Eltwise_5 <- conv2_Eltwise_4_conv2_4ReLU_1_0_split_1
I0930 10:16:18.391443 30982 net.cpp:558] conv2_Eltwise_5 <- conv2_5_1
I0930 10:16:18.391451 30982 net.cpp:522] conv2_Eltwise_5 -> conv2_Eltwise_5
I0930 10:16:18.391485 30982 net.cpp:172] Setting up conv2_Eltwise_5
I0930 10:16:18.391495 30982 net.cpp:186] Top shape: 128 16 32 32 (2097152)
I0930 10:16:18.391499 30982 net.cpp:194] Memory required for data: 488112640
I0930 10:16:18.391504 30982 layer_factory.hpp:77] Creating layer conv2_5ReLU_1
I0930 10:16:18.391510 30982 net.cpp:128] Creating Layer conv2_5ReLU_1
I0930 10:16:18.391515 30982 net.cpp:558] conv2_5ReLU_1 <- conv2_Eltwise_5
I0930 10:16:18.391525 30982 net.cpp:509] conv2_5ReLU_1 -> conv2_Eltwise_5 (in-place)
I0930 10:16:18.392904 30982 net.cpp:172] Setting up conv2_5ReLU_1
I0930 10:16:18.392917 30982 net.cpp:186] Top shape: 128 16 32 32 (2097152)
I0930 10:16:18.392921 30982 net.cpp:194] Memory required for data: 496501248
I0930 10:16:18.392930 30982 layer_factory.hpp:77] Creating layer conv2_Eltwise_5_conv2_5ReLU_1_0_split
I0930 10:16:18.392942 30982 net.cpp:128] Creating Layer conv2_Eltwise_5_conv2_5ReLU_1_0_split
I0930 10:16:18.392951 30982 net.cpp:558] conv2_Eltwise_5_conv2_5ReLU_1_0_split <- conv2_Eltwise_5
I0930 10:16:18.392961 30982 net.cpp:522] conv2_Eltwise_5_conv2_5ReLU_1_0_split -> conv2_Eltwise_5_conv2_5ReLU_1_0_split_0
I0930 10:16:18.392971 30982 net.cpp:522] conv2_Eltwise_5_conv2_5ReLU_1_0_split -> conv2_Eltwise_5_conv2_5ReLU_1_0_split_1
I0930 10:16:18.393025 30982 net.cpp:172] Setting up conv2_Eltwise_5_conv2_5ReLU_1_0_split
I0930 10:16:18.393036 30982 net.cpp:186] Top shape: 128 16 32 32 (2097152)
I0930 10:16:18.393043 30982 net.cpp:186] Top shape: 128 16 32 32 (2097152)
I0930 10:16:18.393050 30982 net.cpp:194] Memory required for data: 513278464
I0930 10:16:18.393054 30982 layer_factory.hpp:77] Creating layer conv2_6_0
I0930 10:16:18.393071 30982 net.cpp:128] Creating Layer conv2_6_0
I0930 10:16:18.393079 30982 net.cpp:558] conv2_6_0 <- conv2_Eltwise_5_conv2_5ReLU_1_0_split_0
I0930 10:16:18.393088 30982 net.cpp:522] conv2_6_0 -> conv2_6_0
I0930 10:16:18.399672 30982 net.cpp:172] Setting up conv2_6_0
I0930 10:16:18.399694 30982 net.cpp:186] Top shape: 128 16 32 32 (2097152)
I0930 10:16:18.399699 30982 net.cpp:194] Memory required for data: 521667072
I0930 10:16:18.399711 30982 layer_factory.hpp:77] Creating layer conv2_6_bn0
I0930 10:16:18.399724 30982 net.cpp:128] Creating Layer conv2_6_bn0
I0930 10:16:18.399732 30982 net.cpp:558] conv2_6_bn0 <- conv2_6_0
I0930 10:16:18.399741 30982 net.cpp:509] conv2_6_bn0 -> conv2_6_0 (in-place)
I0930 10:16:18.400002 30982 net.cpp:172] Setting up conv2_6_bn0
I0930 10:16:18.400012 30982 net.cpp:186] Top shape: 128 16 32 32 (2097152)
I0930 10:16:18.400015 30982 net.cpp:194] Memory required for data: 530055680
I0930 10:16:18.400028 30982 layer_factory.hpp:77] Creating layer conv2_6_scale0
I0930 10:16:18.400038 30982 net.cpp:128] Creating Layer conv2_6_scale0
I0930 10:16:18.400044 30982 net.cpp:558] conv2_6_scale0 <- conv2_6_0
I0930 10:16:18.400049 30982 net.cpp:509] conv2_6_scale0 -> conv2_6_0 (in-place)
I0930 10:16:18.400096 30982 layer_factory.hpp:77] Creating layer conv2_6_scale0
I0930 10:16:18.400245 30982 net.cpp:172] Setting up conv2_6_scale0
I0930 10:16:18.400255 30982 net.cpp:186] Top shape: 128 16 32 32 (2097152)
I0930 10:16:18.400259 30982 net.cpp:194] Memory required for data: 538444288
I0930 10:16:18.400267 30982 layer_factory.hpp:77] Creating layer conv2_6_ReLU0
I0930 10:16:18.400274 30982 net.cpp:128] Creating Layer conv2_6_ReLU0
I0930 10:16:18.400280 30982 net.cpp:558] conv2_6_ReLU0 <- conv2_6_0
I0930 10:16:18.400288 30982 net.cpp:509] conv2_6_ReLU0 -> conv2_6_0 (in-place)
I0930 10:16:18.400542 30982 net.cpp:172] Setting up conv2_6_ReLU0
I0930 10:16:18.400557 30982 net.cpp:186] Top shape: 128 16 32 32 (2097152)
I0930 10:16:18.400560 30982 net.cpp:194] Memory required for data: 546832896
I0930 10:16:18.400565 30982 layer_factory.hpp:77] Creating layer conv2_6_1
I0930 10:16:18.400604 30982 net.cpp:128] Creating Layer conv2_6_1
I0930 10:16:18.400611 30982 net.cpp:558] conv2_6_1 <- conv2_6_0
I0930 10:16:18.400621 30982 net.cpp:522] conv2_6_1 -> conv2_6_1
I0930 10:16:18.401942 30982 net.cpp:172] Setting up conv2_6_1
I0930 10:16:18.401964 30982 net.cpp:186] Top shape: 128 16 32 32 (2097152)
I0930 10:16:18.401969 30982 net.cpp:194] Memory required for data: 555221504
I0930 10:16:18.401979 30982 layer_factory.hpp:77] Creating layer conv2_6bn1
I0930 10:16:18.401993 30982 net.cpp:128] Creating Layer conv2_6bn1
I0930 10:16:18.402000 30982 net.cpp:558] conv2_6bn1 <- conv2_6_1
I0930 10:16:18.402009 30982 net.cpp:509] conv2_6bn1 -> conv2_6_1 (in-place)
I0930 10:16:18.402269 30982 net.cpp:172] Setting up conv2_6bn1
I0930 10:16:18.402279 30982 net.cpp:186] Top shape: 128 16 32 32 (2097152)
I0930 10:16:18.402283 30982 net.cpp:194] Memory required for data: 563610112
I0930 10:16:18.402292 30982 layer_factory.hpp:77] Creating layer conv2_6_scale1
I0930 10:16:18.402303 30982 net.cpp:128] Creating Layer conv2_6_scale1
I0930 10:16:18.402310 30982 net.cpp:558] conv2_6_scale1 <- conv2_6_1
I0930 10:16:18.402317 30982 net.cpp:509] conv2_6_scale1 -> conv2_6_1 (in-place)
I0930 10:16:18.402361 30982 layer_factory.hpp:77] Creating layer conv2_6_scale1
I0930 10:16:18.402503 30982 net.cpp:172] Setting up conv2_6_scale1
I0930 10:16:18.402513 30982 net.cpp:186] Top shape: 128 16 32 32 (2097152)
I0930 10:16:18.402518 30982 net.cpp:194] Memory required for data: 571998720
I0930 10:16:18.402525 30982 layer_factory.hpp:77] Creating layer conv2_Eltwise_6
I0930 10:16:18.402537 30982 net.cpp:128] Creating Layer conv2_Eltwise_6
I0930 10:16:18.402545 30982 net.cpp:558] conv2_Eltwise_6 <- conv2_Eltwise_5_conv2_5ReLU_1_0_split_1
I0930 10:16:18.402554 30982 net.cpp:558] conv2_Eltwise_6 <- conv2_6_1
I0930 10:16:18.402562 30982 net.cpp:522] conv2_Eltwise_6 -> conv2_Eltwise_6
I0930 10:16:18.402595 30982 net.cpp:172] Setting up conv2_Eltwise_6
I0930 10:16:18.402606 30982 net.cpp:186] Top shape: 128 16 32 32 (2097152)
I0930 10:16:18.402611 30982 net.cpp:194] Memory required for data: 580387328
I0930 10:16:18.402616 30982 layer_factory.hpp:77] Creating layer conv2_6ReLU_1
I0930 10:16:18.402629 30982 net.cpp:128] Creating Layer conv2_6ReLU_1
I0930 10:16:18.402637 30982 net.cpp:558] conv2_6ReLU_1 <- conv2_Eltwise_6
I0930 10:16:18.402642 30982 net.cpp:509] conv2_6ReLU_1 -> conv2_Eltwise_6 (in-place)
I0930 10:16:18.403110 30982 net.cpp:172] Setting up conv2_6ReLU_1
I0930 10:16:18.403131 30982 net.cpp:186] Top shape: 128 16 32 32 (2097152)
I0930 10:16:18.403136 30982 net.cpp:194] Memory required for data: 588775936
I0930 10:16:18.403141 30982 layer_factory.hpp:77] Creating layer conv2_Eltwise_6_conv2_6ReLU_1_0_split
I0930 10:16:18.403151 30982 net.cpp:128] Creating Layer conv2_Eltwise_6_conv2_6ReLU_1_0_split
I0930 10:16:18.403159 30982 net.cpp:558] conv2_Eltwise_6_conv2_6ReLU_1_0_split <- conv2_Eltwise_6
I0930 10:16:18.403167 30982 net.cpp:522] conv2_Eltwise_6_conv2_6ReLU_1_0_split -> conv2_Eltwise_6_conv2_6ReLU_1_0_split_0
I0930 10:16:18.403177 30982 net.cpp:522] conv2_Eltwise_6_conv2_6ReLU_1_0_split -> conv2_Eltwise_6_conv2_6ReLU_1_0_split_1
I0930 10:16:18.403234 30982 net.cpp:172] Setting up conv2_Eltwise_6_conv2_6ReLU_1_0_split
I0930 10:16:18.403244 30982 net.cpp:186] Top shape: 128 16 32 32 (2097152)
I0930 10:16:18.403251 30982 net.cpp:186] Top shape: 128 16 32 32 (2097152)
I0930 10:16:18.403257 30982 net.cpp:194] Memory required for data: 605553152
I0930 10:16:18.403262 30982 layer_factory.hpp:77] Creating layer conv2_7_0
I0930 10:16:18.403276 30982 net.cpp:128] Creating Layer conv2_7_0
I0930 10:16:18.403283 30982 net.cpp:558] conv2_7_0 <- conv2_Eltwise_6_conv2_6ReLU_1_0_split_0
I0930 10:16:18.403293 30982 net.cpp:522] conv2_7_0 -> conv2_7_0
I0930 10:16:18.404582 30982 net.cpp:172] Setting up conv2_7_0
I0930 10:16:18.404605 30982 net.cpp:186] Top shape: 128 16 32 32 (2097152)
I0930 10:16:18.404610 30982 net.cpp:194] Memory required for data: 613941760
I0930 10:16:18.404620 30982 layer_factory.hpp:77] Creating layer conv2_7_bn0
I0930 10:16:18.404649 30982 net.cpp:128] Creating Layer conv2_7_bn0
I0930 10:16:18.404657 30982 net.cpp:558] conv2_7_bn0 <- conv2_7_0
I0930 10:16:18.404667 30982 net.cpp:509] conv2_7_bn0 -> conv2_7_0 (in-place)
I0930 10:16:18.404927 30982 net.cpp:172] Setting up conv2_7_bn0
I0930 10:16:18.404937 30982 net.cpp:186] Top shape: 128 16 32 32 (2097152)
I0930 10:16:18.404942 30982 net.cpp:194] Memory required for data: 622330368
I0930 10:16:18.404952 30982 layer_factory.hpp:77] Creating layer conv2_7_scale0
I0930 10:16:18.404960 30982 net.cpp:128] Creating Layer conv2_7_scale0
I0930 10:16:18.404966 30982 net.cpp:558] conv2_7_scale0 <- conv2_7_0
I0930 10:16:18.404974 30982 net.cpp:509] conv2_7_scale0 -> conv2_7_0 (in-place)
I0930 10:16:18.405016 30982 layer_factory.hpp:77] Creating layer conv2_7_scale0
I0930 10:16:18.405158 30982 net.cpp:172] Setting up conv2_7_scale0
I0930 10:16:18.405170 30982 net.cpp:186] Top shape: 128 16 32 32 (2097152)
I0930 10:16:18.405176 30982 net.cpp:194] Memory required for data: 630718976
I0930 10:16:18.405184 30982 layer_factory.hpp:77] Creating layer conv2_7_ReLU0
I0930 10:16:18.405192 30982 net.cpp:128] Creating Layer conv2_7_ReLU0
I0930 10:16:18.405200 30982 net.cpp:558] conv2_7_ReLU0 <- conv2_7_0
I0930 10:16:18.405205 30982 net.cpp:509] conv2_7_ReLU0 -> conv2_7_0 (in-place)
I0930 10:16:18.405447 30982 net.cpp:172] Setting up conv2_7_ReLU0
I0930 10:16:18.405462 30982 net.cpp:186] Top shape: 128 16 32 32 (2097152)
I0930 10:16:18.405468 30982 net.cpp:194] Memory required for data: 639107584
I0930 10:16:18.405473 30982 layer_factory.hpp:77] Creating layer conv2_7_1
I0930 10:16:18.405485 30982 net.cpp:128] Creating Layer conv2_7_1
I0930 10:16:18.405493 30982 net.cpp:558] conv2_7_1 <- conv2_7_0
I0930 10:16:18.405499 30982 net.cpp:522] conv2_7_1 -> conv2_7_1
I0930 10:16:18.406800 30982 net.cpp:172] Setting up conv2_7_1
I0930 10:16:18.406822 30982 net.cpp:186] Top shape: 128 16 32 32 (2097152)
I0930 10:16:18.406827 30982 net.cpp:194] Memory required for data: 647496192
I0930 10:16:18.406837 30982 layer_factory.hpp:77] Creating layer conv2_7bn1
I0930 10:16:18.406852 30982 net.cpp:128] Creating Layer conv2_7bn1
I0930 10:16:18.406859 30982 net.cpp:558] conv2_7bn1 <- conv2_7_1
I0930 10:16:18.406870 30982 net.cpp:509] conv2_7bn1 -> conv2_7_1 (in-place)
I0930 10:16:18.407130 30982 net.cpp:172] Setting up conv2_7bn1
I0930 10:16:18.407140 30982 net.cpp:186] Top shape: 128 16 32 32 (2097152)
I0930 10:16:18.407143 30982 net.cpp:194] Memory required for data: 655884800
I0930 10:16:18.407153 30982 layer_factory.hpp:77] Creating layer conv2_7_scale1
I0930 10:16:18.407162 30982 net.cpp:128] Creating Layer conv2_7_scale1
I0930 10:16:18.407169 30982 net.cpp:558] conv2_7_scale1 <- conv2_7_1
I0930 10:16:18.407174 30982 net.cpp:509] conv2_7_scale1 -> conv2_7_1 (in-place)
I0930 10:16:18.407217 30982 layer_factory.hpp:77] Creating layer conv2_7_scale1
I0930 10:16:18.407361 30982 net.cpp:172] Setting up conv2_7_scale1
I0930 10:16:18.407371 30982 net.cpp:186] Top shape: 128 16 32 32 (2097152)
I0930 10:16:18.407374 30982 net.cpp:194] Memory required for data: 664273408
I0930 10:16:18.407383 30982 layer_factory.hpp:77] Creating layer conv2_Eltwise_7
I0930 10:16:18.407392 30982 net.cpp:128] Creating Layer conv2_Eltwise_7
I0930 10:16:18.407400 30982 net.cpp:558] conv2_Eltwise_7 <- conv2_Eltwise_6_conv2_6ReLU_1_0_split_1
I0930 10:16:18.407405 30982 net.cpp:558] conv2_Eltwise_7 <- conv2_7_1
I0930 10:16:18.407415 30982 net.cpp:522] conv2_Eltwise_7 -> conv2_Eltwise_7
I0930 10:16:18.407443 30982 net.cpp:172] Setting up conv2_Eltwise_7
I0930 10:16:18.407450 30982 net.cpp:186] Top shape: 128 16 32 32 (2097152)
I0930 10:16:18.407459 30982 net.cpp:194] Memory required for data: 672662016
I0930 10:16:18.407462 30982 layer_factory.hpp:77] Creating layer conv2_7ReLU_1
I0930 10:16:18.407474 30982 net.cpp:128] Creating Layer conv2_7ReLU_1
I0930 10:16:18.407479 30982 net.cpp:558] conv2_7ReLU_1 <- conv2_Eltwise_7
I0930 10:16:18.407485 30982 net.cpp:509] conv2_7ReLU_1 -> conv2_Eltwise_7 (in-place)
I0930 10:16:18.407716 30982 net.cpp:172] Setting up conv2_7ReLU_1
I0930 10:16:18.407747 30982 net.cpp:186] Top shape: 128 16 32 32 (2097152)
I0930 10:16:18.407753 30982 net.cpp:194] Memory required for data: 681050624
I0930 10:16:18.407758 30982 layer_factory.hpp:77] Creating layer conv2_Eltwise_7_conv2_7ReLU_1_0_split
I0930 10:16:18.407769 30982 net.cpp:128] Creating Layer conv2_Eltwise_7_conv2_7ReLU_1_0_split
I0930 10:16:18.407776 30982 net.cpp:558] conv2_Eltwise_7_conv2_7ReLU_1_0_split <- conv2_Eltwise_7
I0930 10:16:18.407785 30982 net.cpp:522] conv2_Eltwise_7_conv2_7ReLU_1_0_split -> conv2_Eltwise_7_conv2_7ReLU_1_0_split_0
I0930 10:16:18.407795 30982 net.cpp:522] conv2_Eltwise_7_conv2_7ReLU_1_0_split -> conv2_Eltwise_7_conv2_7ReLU_1_0_split_1
I0930 10:16:18.407846 30982 net.cpp:172] Setting up conv2_Eltwise_7_conv2_7ReLU_1_0_split
I0930 10:16:18.407858 30982 net.cpp:186] Top shape: 128 16 32 32 (2097152)
I0930 10:16:18.407866 30982 net.cpp:186] Top shape: 128 16 32 32 (2097152)
I0930 10:16:18.407873 30982 net.cpp:194] Memory required for data: 697827840
I0930 10:16:18.407879 30982 layer_factory.hpp:77] Creating layer conv3_1_0
I0930 10:16:18.407893 30982 net.cpp:128] Creating Layer conv3_1_0
I0930 10:16:18.407901 30982 net.cpp:558] conv3_1_0 <- conv2_Eltwise_7_conv2_7ReLU_1_0_split_0
I0930 10:16:18.407908 30982 net.cpp:522] conv3_1_0 -> conv3_1_0
I0930 10:16:18.412802 30982 net.cpp:172] Setting up conv3_1_0
I0930 10:16:18.412844 30982 net.cpp:186] Top shape: 128 32 16 16 (1048576)
I0930 10:16:18.412849 30982 net.cpp:194] Memory required for data: 702022144
I0930 10:16:18.412870 30982 layer_factory.hpp:77] Creating layer conv3_1_bn0
I0930 10:16:18.412886 30982 net.cpp:128] Creating Layer conv3_1_bn0
I0930 10:16:18.412895 30982 net.cpp:558] conv3_1_bn0 <- conv3_1_0
I0930 10:16:18.412907 30982 net.cpp:509] conv3_1_bn0 -> conv3_1_0 (in-place)
I0930 10:16:18.413169 30982 net.cpp:172] Setting up conv3_1_bn0
I0930 10:16:18.413179 30982 net.cpp:186] Top shape: 128 32 16 16 (1048576)
I0930 10:16:18.413183 30982 net.cpp:194] Memory required for data: 706216448
I0930 10:16:18.413194 30982 layer_factory.hpp:77] Creating layer conv3_1_scale0
I0930 10:16:18.413206 30982 net.cpp:128] Creating Layer conv3_1_scale0
I0930 10:16:18.413213 30982 net.cpp:558] conv3_1_scale0 <- conv3_1_0
I0930 10:16:18.413218 30982 net.cpp:509] conv3_1_scale0 -> conv3_1_0 (in-place)
I0930 10:16:18.413264 30982 layer_factory.hpp:77] Creating layer conv3_1_scale0
I0930 10:16:18.413414 30982 net.cpp:172] Setting up conv3_1_scale0
I0930 10:16:18.413424 30982 net.cpp:186] Top shape: 128 32 16 16 (1048576)
I0930 10:16:18.413427 30982 net.cpp:194] Memory required for data: 710410752
I0930 10:16:18.413439 30982 layer_factory.hpp:77] Creating layer conv3_1_ReLU0
I0930 10:16:18.413450 30982 net.cpp:128] Creating Layer conv3_1_ReLU0
I0930 10:16:18.413455 30982 net.cpp:558] conv3_1_ReLU0 <- conv3_1_0
I0930 10:16:18.413460 30982 net.cpp:509] conv3_1_ReLU0 -> conv3_1_0 (in-place)
I0930 10:16:18.413884 30982 net.cpp:172] Setting up conv3_1_ReLU0
I0930 10:16:18.413908 30982 net.cpp:186] Top shape: 128 32 16 16 (1048576)
I0930 10:16:18.413913 30982 net.cpp:194] Memory required for data: 714605056
I0930 10:16:18.413919 30982 layer_factory.hpp:77] Creating layer conv3_1_1
I0930 10:16:18.413945 30982 net.cpp:128] Creating Layer conv3_1_1
I0930 10:16:18.413954 30982 net.cpp:558] conv3_1_1 <- conv3_1_0
I0930 10:16:18.413965 30982 net.cpp:522] conv3_1_1 -> conv3_1_1
I0930 10:16:18.415374 30982 net.cpp:172] Setting up conv3_1_1
I0930 10:16:18.415400 30982 net.cpp:186] Top shape: 128 32 16 16 (1048576)
I0930 10:16:18.415405 30982 net.cpp:194] Memory required for data: 718799360
I0930 10:16:18.415418 30982 layer_factory.hpp:77] Creating layer conv3_1bn1
I0930 10:16:18.415428 30982 net.cpp:128] Creating Layer conv3_1bn1
I0930 10:16:18.415436 30982 net.cpp:558] conv3_1bn1 <- conv3_1_1
I0930 10:16:18.415444 30982 net.cpp:509] conv3_1bn1 -> conv3_1_1 (in-place)
I0930 10:16:18.415701 30982 net.cpp:172] Setting up conv3_1bn1
I0930 10:16:18.415711 30982 net.cpp:186] Top shape: 128 32 16 16 (1048576)
I0930 10:16:18.415715 30982 net.cpp:194] Memory required for data: 722993664
I0930 10:16:18.415745 30982 layer_factory.hpp:77] Creating layer conv3_1_scale1
I0930 10:16:18.415755 30982 net.cpp:128] Creating Layer conv3_1_scale1
I0930 10:16:18.415762 30982 net.cpp:558] conv3_1_scale1 <- conv3_1_1
I0930 10:16:18.415768 30982 net.cpp:509] conv3_1_scale1 -> conv3_1_1 (in-place)
I0930 10:16:18.415817 30982 layer_factory.hpp:77] Creating layer conv3_1_scale1
I0930 10:16:18.415963 30982 net.cpp:172] Setting up conv3_1_scale1
I0930 10:16:18.415973 30982 net.cpp:186] Top shape: 128 32 16 16 (1048576)
I0930 10:16:18.415977 30982 net.cpp:194] Memory required for data: 727187968
I0930 10:16:18.415985 30982 layer_factory.hpp:77] Creating layer conv3_1_down
I0930 10:16:18.415999 30982 net.cpp:128] Creating Layer conv3_1_down
I0930 10:16:18.416007 30982 net.cpp:558] conv3_1_down <- conv2_Eltwise_7_conv2_7ReLU_1_0_split_1
I0930 10:16:18.416015 30982 net.cpp:522] conv3_1_down -> conv3_1_down
I0930 10:16:18.417280 30982 net.cpp:172] Setting up conv3_1_down
I0930 10:16:18.417306 30982 net.cpp:186] Top shape: 128 32 16 16 (1048576)
I0930 10:16:18.417311 30982 net.cpp:194] Memory required for data: 731382272
I0930 10:16:18.417323 30982 layer_factory.hpp:77] Creating layer conv3_1_bn_down
I0930 10:16:18.417333 30982 net.cpp:128] Creating Layer conv3_1_bn_down
I0930 10:16:18.417342 30982 net.cpp:558] conv3_1_bn_down <- conv3_1_down
I0930 10:16:18.417349 30982 net.cpp:509] conv3_1_bn_down -> conv3_1_down (in-place)
I0930 10:16:18.417600 30982 net.cpp:172] Setting up conv3_1_bn_down
I0930 10:16:18.417610 30982 net.cpp:186] Top shape: 128 32 16 16 (1048576)
I0930 10:16:18.417614 30982 net.cpp:194] Memory required for data: 735576576
I0930 10:16:18.417623 30982 layer_factory.hpp:77] Creating layer conv3_1_scale_down
I0930 10:16:18.417634 30982 net.cpp:128] Creating Layer conv3_1_scale_down
I0930 10:16:18.417641 30982 net.cpp:558] conv3_1_scale_down <- conv3_1_down
I0930 10:16:18.417647 30982 net.cpp:509] conv3_1_scale_down -> conv3_1_down (in-place)
I0930 10:16:18.417691 30982 layer_factory.hpp:77] Creating layer conv3_1_scale_down
I0930 10:16:18.417836 30982 net.cpp:172] Setting up conv3_1_scale_down
I0930 10:16:18.417845 30982 net.cpp:186] Top shape: 128 32 16 16 (1048576)
I0930 10:16:18.417850 30982 net.cpp:194] Memory required for data: 739770880
I0930 10:16:18.417856 30982 layer_factory.hpp:77] Creating layer conv3_Eltwise_1
I0930 10:16:18.417868 30982 net.cpp:128] Creating Layer conv3_Eltwise_1
I0930 10:16:18.417876 30982 net.cpp:558] conv3_Eltwise_1 <- conv3_1_1
I0930 10:16:18.417881 30982 net.cpp:558] conv3_Eltwise_1 <- conv3_1_down
I0930 10:16:18.417889 30982 net.cpp:522] conv3_Eltwise_1 -> conv3_Eltwise_1
I0930 10:16:18.417917 30982 net.cpp:172] Setting up conv3_Eltwise_1
I0930 10:16:18.417925 30982 net.cpp:186] Top shape: 128 32 16 16 (1048576)
I0930 10:16:18.417940 30982 net.cpp:194] Memory required for data: 743965184
I0930 10:16:18.417945 30982 layer_factory.hpp:77] Creating layer conv3_1ReLU_1
I0930 10:16:18.417951 30982 net.cpp:128] Creating Layer conv3_1ReLU_1
I0930 10:16:18.417958 30982 net.cpp:558] conv3_1ReLU_1 <- conv3_Eltwise_1
I0930 10:16:18.417965 30982 net.cpp:509] conv3_1ReLU_1 -> conv3_Eltwise_1 (in-place)
I0930 10:16:18.418203 30982 net.cpp:172] Setting up conv3_1ReLU_1
I0930 10:16:18.418217 30982 net.cpp:186] Top shape: 128 32 16 16 (1048576)
I0930 10:16:18.418221 30982 net.cpp:194] Memory required for data: 748159488
I0930 10:16:18.418228 30982 layer_factory.hpp:77] Creating layer conv3_Eltwise_1_conv3_1ReLU_1_0_split
I0930 10:16:18.418236 30982 net.cpp:128] Creating Layer conv3_Eltwise_1_conv3_1ReLU_1_0_split
I0930 10:16:18.418241 30982 net.cpp:558] conv3_Eltwise_1_conv3_1ReLU_1_0_split <- conv3_Eltwise_1
I0930 10:16:18.418249 30982 net.cpp:522] conv3_Eltwise_1_conv3_1ReLU_1_0_split -> conv3_Eltwise_1_conv3_1ReLU_1_0_split_0
I0930 10:16:18.418259 30982 net.cpp:522] conv3_Eltwise_1_conv3_1ReLU_1_0_split -> conv3_Eltwise_1_conv3_1ReLU_1_0_split_1
I0930 10:16:18.418314 30982 net.cpp:172] Setting up conv3_Eltwise_1_conv3_1ReLU_1_0_split
I0930 10:16:18.418323 30982 net.cpp:186] Top shape: 128 32 16 16 (1048576)
I0930 10:16:18.418344 30982 net.cpp:186] Top shape: 128 32 16 16 (1048576)
I0930 10:16:18.418349 30982 net.cpp:194] Memory required for data: 756548096
I0930 10:16:18.418352 30982 layer_factory.hpp:77] Creating layer conv3_2_0
I0930 10:16:18.418365 30982 net.cpp:128] Creating Layer conv3_2_0
I0930 10:16:18.418370 30982 net.cpp:558] conv3_2_0 <- conv3_Eltwise_1_conv3_1ReLU_1_0_split_0
I0930 10:16:18.418380 30982 net.cpp:522] conv3_2_0 -> conv3_2_0
I0930 10:16:18.419780 30982 net.cpp:172] Setting up conv3_2_0
I0930 10:16:18.419806 30982 net.cpp:186] Top shape: 128 32 16 16 (1048576)
I0930 10:16:18.419811 30982 net.cpp:194] Memory required for data: 760742400
I0930 10:16:18.419824 30982 layer_factory.hpp:77] Creating layer conv3_2_bn0
I0930 10:16:18.419836 30982 net.cpp:128] Creating Layer conv3_2_bn0
I0930 10:16:18.419843 30982 net.cpp:558] conv3_2_bn0 <- conv3_2_0
I0930 10:16:18.419850 30982 net.cpp:509] conv3_2_bn0 -> conv3_2_0 (in-place)
I0930 10:16:18.420101 30982 net.cpp:172] Setting up conv3_2_bn0
I0930 10:16:18.420110 30982 net.cpp:186] Top shape: 128 32 16 16 (1048576)
I0930 10:16:18.420114 30982 net.cpp:194] Memory required for data: 764936704
I0930 10:16:18.420140 30982 layer_factory.hpp:77] Creating layer conv3_2_scale0
I0930 10:16:18.420148 30982 net.cpp:128] Creating Layer conv3_2_scale0
I0930 10:16:18.420156 30982 net.cpp:558] conv3_2_scale0 <- conv3_2_0
I0930 10:16:18.420166 30982 net.cpp:509] conv3_2_scale0 -> conv3_2_0 (in-place)
I0930 10:16:18.420208 30982 layer_factory.hpp:77] Creating layer conv3_2_scale0
I0930 10:16:18.420351 30982 net.cpp:172] Setting up conv3_2_scale0
I0930 10:16:18.420361 30982 net.cpp:186] Top shape: 128 32 16 16 (1048576)
I0930 10:16:18.420368 30982 net.cpp:194] Memory required for data: 769131008
I0930 10:16:18.420377 30982 layer_factory.hpp:77] Creating layer conv3_2_ReLU0
I0930 10:16:18.420384 30982 net.cpp:128] Creating Layer conv3_2_ReLU0
I0930 10:16:18.420389 30982 net.cpp:558] conv3_2_ReLU0 <- conv3_2_0
I0930 10:16:18.420397 30982 net.cpp:509] conv3_2_ReLU0 -> conv3_2_0 (in-place)
I0930 10:16:18.420635 30982 net.cpp:172] Setting up conv3_2_ReLU0
I0930 10:16:18.420651 30982 net.cpp:186] Top shape: 128 32 16 16 (1048576)
I0930 10:16:18.420658 30982 net.cpp:194] Memory required for data: 773325312
I0930 10:16:18.420663 30982 layer_factory.hpp:77] Creating layer conv3_2_1
I0930 10:16:18.420675 30982 net.cpp:128] Creating Layer conv3_2_1
I0930 10:16:18.420681 30982 net.cpp:558] conv3_2_1 <- conv3_2_0
I0930 10:16:18.420689 30982 net.cpp:522] conv3_2_1 -> conv3_2_1
I0930 10:16:18.422108 30982 net.cpp:172] Setting up conv3_2_1
I0930 10:16:18.422129 30982 net.cpp:186] Top shape: 128 32 16 16 (1048576)
I0930 10:16:18.422133 30982 net.cpp:194] Memory required for data: 777519616
I0930 10:16:18.422143 30982 layer_factory.hpp:77] Creating layer conv3_2bn1
I0930 10:16:18.422154 30982 net.cpp:128] Creating Layer conv3_2bn1
I0930 10:16:18.422159 30982 net.cpp:558] conv3_2bn1 <- conv3_2_1
I0930 10:16:18.422166 30982 net.cpp:509] conv3_2bn1 -> conv3_2_1 (in-place)
I0930 10:16:18.422425 30982 net.cpp:172] Setting up conv3_2bn1
I0930 10:16:18.422435 30982 net.cpp:186] Top shape: 128 32 16 16 (1048576)
I0930 10:16:18.422439 30982 net.cpp:194] Memory required for data: 781713920
I0930 10:16:18.422448 30982 layer_factory.hpp:77] Creating layer conv3_2_scale1
I0930 10:16:18.422458 30982 net.cpp:128] Creating Layer conv3_2_scale1
I0930 10:16:18.422462 30982 net.cpp:558] conv3_2_scale1 <- conv3_2_1
I0930 10:16:18.422468 30982 net.cpp:509] conv3_2_scale1 -> conv3_2_1 (in-place)
I0930 10:16:18.422509 30982 layer_factory.hpp:77] Creating layer conv3_2_scale1
I0930 10:16:18.422657 30982 net.cpp:172] Setting up conv3_2_scale1
I0930 10:16:18.422667 30982 net.cpp:186] Top shape: 128 32 16 16 (1048576)
I0930 10:16:18.422670 30982 net.cpp:194] Memory required for data: 785908224
I0930 10:16:18.422683 30982 layer_factory.hpp:77] Creating layer conv3_Eltwise_2
I0930 10:16:18.422693 30982 net.cpp:128] Creating Layer conv3_Eltwise_2
I0930 10:16:18.422700 30982 net.cpp:558] conv3_Eltwise_2 <- conv3_Eltwise_1_conv3_1ReLU_1_0_split_1
I0930 10:16:18.422722 30982 net.cpp:558] conv3_Eltwise_2 <- conv3_2_1
I0930 10:16:18.422732 30982 net.cpp:522] conv3_Eltwise_2 -> conv3_Eltwise_2
I0930 10:16:18.422758 30982 net.cpp:172] Setting up conv3_Eltwise_2
I0930 10:16:18.422765 30982 net.cpp:186] Top shape: 128 32 16 16 (1048576)
I0930 10:16:18.422770 30982 net.cpp:194] Memory required for data: 790102528
I0930 10:16:18.422773 30982 layer_factory.hpp:77] Creating layer conv3_2ReLU_1
I0930 10:16:18.422780 30982 net.cpp:128] Creating Layer conv3_2ReLU_1
I0930 10:16:18.422783 30982 net.cpp:558] conv3_2ReLU_1 <- conv3_Eltwise_2
I0930 10:16:18.422791 30982 net.cpp:509] conv3_2ReLU_1 -> conv3_Eltwise_2 (in-place)
I0930 10:16:18.423022 30982 net.cpp:172] Setting up conv3_2ReLU_1
I0930 10:16:18.423035 30982 net.cpp:186] Top shape: 128 32 16 16 (1048576)
I0930 10:16:18.423039 30982 net.cpp:194] Memory required for data: 794296832
I0930 10:16:18.423043 30982 layer_factory.hpp:77] Creating layer conv3_Eltwise_2_conv3_2ReLU_1_0_split
I0930 10:16:18.423050 30982 net.cpp:128] Creating Layer conv3_Eltwise_2_conv3_2ReLU_1_0_split
I0930 10:16:18.423058 30982 net.cpp:558] conv3_Eltwise_2_conv3_2ReLU_1_0_split <- conv3_Eltwise_2
I0930 10:16:18.423066 30982 net.cpp:522] conv3_Eltwise_2_conv3_2ReLU_1_0_split -> conv3_Eltwise_2_conv3_2ReLU_1_0_split_0
I0930 10:16:18.423076 30982 net.cpp:522] conv3_Eltwise_2_conv3_2ReLU_1_0_split -> conv3_Eltwise_2_conv3_2ReLU_1_0_split_1
I0930 10:16:18.423130 30982 net.cpp:172] Setting up conv3_Eltwise_2_conv3_2ReLU_1_0_split
I0930 10:16:18.423140 30982 net.cpp:186] Top shape: 128 32 16 16 (1048576)
I0930 10:16:18.423146 30982 net.cpp:186] Top shape: 128 32 16 16 (1048576)
I0930 10:16:18.423151 30982 net.cpp:194] Memory required for data: 802685440
I0930 10:16:18.423156 30982 layer_factory.hpp:77] Creating layer conv3_3_0
I0930 10:16:18.423166 30982 net.cpp:128] Creating Layer conv3_3_0
I0930 10:16:18.423173 30982 net.cpp:558] conv3_3_0 <- conv3_Eltwise_2_conv3_2ReLU_1_0_split_0
I0930 10:16:18.423187 30982 net.cpp:522] conv3_3_0 -> conv3_3_0
I0930 10:16:18.424782 30982 net.cpp:172] Setting up conv3_3_0
I0930 10:16:18.424808 30982 net.cpp:186] Top shape: 128 32 16 16 (1048576)
I0930 10:16:18.424813 30982 net.cpp:194] Memory required for data: 806879744
I0930 10:16:18.424826 30982 layer_factory.hpp:77] Creating layer conv3_3_bn0
I0930 10:16:18.424845 30982 net.cpp:128] Creating Layer conv3_3_bn0
I0930 10:16:18.424851 30982 net.cpp:558] conv3_3_bn0 <- conv3_3_0
I0930 10:16:18.424860 30982 net.cpp:509] conv3_3_bn0 -> conv3_3_0 (in-place)
I0930 10:16:18.425127 30982 net.cpp:172] Setting up conv3_3_bn0
I0930 10:16:18.425138 30982 net.cpp:186] Top shape: 128 32 16 16 (1048576)
I0930 10:16:18.425144 30982 net.cpp:194] Memory required for data: 811074048
I0930 10:16:18.425154 30982 layer_factory.hpp:77] Creating layer conv3_3_scale0
I0930 10:16:18.425163 30982 net.cpp:128] Creating Layer conv3_3_scale0
I0930 10:16:18.425166 30982 net.cpp:558] conv3_3_scale0 <- conv3_3_0
I0930 10:16:18.425174 30982 net.cpp:509] conv3_3_scale0 -> conv3_3_0 (in-place)
I0930 10:16:18.425215 30982 layer_factory.hpp:77] Creating layer conv3_3_scale0
I0930 10:16:18.425370 30982 net.cpp:172] Setting up conv3_3_scale0
I0930 10:16:18.425381 30982 net.cpp:186] Top shape: 128 32 16 16 (1048576)
I0930 10:16:18.425386 30982 net.cpp:194] Memory required for data: 815268352
I0930 10:16:18.425393 30982 layer_factory.hpp:77] Creating layer conv3_3_ReLU0
I0930 10:16:18.425400 30982 net.cpp:128] Creating Layer conv3_3_ReLU0
I0930 10:16:18.425405 30982 net.cpp:558] conv3_3_ReLU0 <- conv3_3_0
I0930 10:16:18.425413 30982 net.cpp:509] conv3_3_ReLU0 -> conv3_3_0 (in-place)
I0930 10:16:18.425886 30982 net.cpp:172] Setting up conv3_3_ReLU0
I0930 10:16:18.425909 30982 net.cpp:186] Top shape: 128 32 16 16 (1048576)
I0930 10:16:18.425914 30982 net.cpp:194] Memory required for data: 819462656
I0930 10:16:18.425920 30982 layer_factory.hpp:77] Creating layer conv3_3_1
I0930 10:16:18.425948 30982 net.cpp:128] Creating Layer conv3_3_1
I0930 10:16:18.425971 30982 net.cpp:558] conv3_3_1 <- conv3_3_0
I0930 10:16:18.425982 30982 net.cpp:522] conv3_3_1 -> conv3_3_1
I0930 10:16:18.431668 30982 net.cpp:172] Setting up conv3_3_1
I0930 10:16:18.431694 30982 net.cpp:186] Top shape: 128 32 16 16 (1048576)
I0930 10:16:18.431699 30982 net.cpp:194] Memory required for data: 823656960
I0930 10:16:18.431708 30982 layer_factory.hpp:77] Creating layer conv3_3bn1
I0930 10:16:18.431720 30982 net.cpp:128] Creating Layer conv3_3bn1
I0930 10:16:18.431725 30982 net.cpp:558] conv3_3bn1 <- conv3_3_1
I0930 10:16:18.431736 30982 net.cpp:509] conv3_3bn1 -> conv3_3_1 (in-place)
I0930 10:16:18.431993 30982 net.cpp:172] Setting up conv3_3bn1
I0930 10:16:18.432008 30982 net.cpp:186] Top shape: 128 32 16 16 (1048576)
I0930 10:16:18.432011 30982 net.cpp:194] Memory required for data: 827851264
I0930 10:16:18.432020 30982 layer_factory.hpp:77] Creating layer conv3_3_scale1
I0930 10:16:18.432029 30982 net.cpp:128] Creating Layer conv3_3_scale1
I0930 10:16:18.432034 30982 net.cpp:558] conv3_3_scale1 <- conv3_3_1
I0930 10:16:18.432039 30982 net.cpp:509] conv3_3_scale1 -> conv3_3_1 (in-place)
I0930 10:16:18.432082 30982 layer_factory.hpp:77] Creating layer conv3_3_scale1
I0930 10:16:18.432230 30982 net.cpp:172] Setting up conv3_3_scale1
I0930 10:16:18.432241 30982 net.cpp:186] Top shape: 128 32 16 16 (1048576)
I0930 10:16:18.432245 30982 net.cpp:194] Memory required for data: 832045568
I0930 10:16:18.432253 30982 layer_factory.hpp:77] Creating layer conv3_Eltwise_3
I0930 10:16:18.432265 30982 net.cpp:128] Creating Layer conv3_Eltwise_3
I0930 10:16:18.432271 30982 net.cpp:558] conv3_Eltwise_3 <- conv3_Eltwise_2_conv3_2ReLU_1_0_split_1
I0930 10:16:18.432276 30982 net.cpp:558] conv3_Eltwise_3 <- conv3_3_1
I0930 10:16:18.432281 30982 net.cpp:522] conv3_Eltwise_3 -> conv3_Eltwise_3
I0930 10:16:18.432307 30982 net.cpp:172] Setting up conv3_Eltwise_3
I0930 10:16:18.432318 30982 net.cpp:186] Top shape: 128 32 16 16 (1048576)
I0930 10:16:18.432322 30982 net.cpp:194] Memory required for data: 836239872
I0930 10:16:18.432328 30982 layer_factory.hpp:77] Creating layer conv3_3ReLU_1
I0930 10:16:18.432335 30982 net.cpp:128] Creating Layer conv3_3ReLU_1
I0930 10:16:18.432339 30982 net.cpp:558] conv3_3ReLU_1 <- conv3_Eltwise_3
I0930 10:16:18.432344 30982 net.cpp:509] conv3_3ReLU_1 -> conv3_Eltwise_3 (in-place)
I0930 10:16:18.433693 30982 net.cpp:172] Setting up conv3_3ReLU_1
I0930 10:16:18.433712 30982 net.cpp:186] Top shape: 128 32 16 16 (1048576)
I0930 10:16:18.433715 30982 net.cpp:194] Memory required for data: 840434176
I0930 10:16:18.433719 30982 layer_factory.hpp:77] Creating layer conv3_Eltwise_3_conv3_3ReLU_1_0_split
I0930 10:16:18.433727 30982 net.cpp:128] Creating Layer conv3_Eltwise_3_conv3_3ReLU_1_0_split
I0930 10:16:18.433732 30982 net.cpp:558] conv3_Eltwise_3_conv3_3ReLU_1_0_split <- conv3_Eltwise_3
I0930 10:16:18.433742 30982 net.cpp:522] conv3_Eltwise_3_conv3_3ReLU_1_0_split -> conv3_Eltwise_3_conv3_3ReLU_1_0_split_0
I0930 10:16:18.433749 30982 net.cpp:522] conv3_Eltwise_3_conv3_3ReLU_1_0_split -> conv3_Eltwise_3_conv3_3ReLU_1_0_split_1
I0930 10:16:18.433800 30982 net.cpp:172] Setting up conv3_Eltwise_3_conv3_3ReLU_1_0_split
I0930 10:16:18.433807 30982 net.cpp:186] Top shape: 128 32 16 16 (1048576)
I0930 10:16:18.433814 30982 net.cpp:186] Top shape: 128 32 16 16 (1048576)
I0930 10:16:18.433817 30982 net.cpp:194] Memory required for data: 848822784
I0930 10:16:18.433821 30982 layer_factory.hpp:77] Creating layer conv3_4_0
I0930 10:16:18.433836 30982 net.cpp:128] Creating Layer conv3_4_0
I0930 10:16:18.433840 30982 net.cpp:558] conv3_4_0 <- conv3_Eltwise_3_conv3_3ReLU_1_0_split_0
I0930 10:16:18.433848 30982 net.cpp:522] conv3_4_0 -> conv3_4_0
I0930 10:16:18.440467 30982 net.cpp:172] Setting up conv3_4_0
I0930 10:16:18.440493 30982 net.cpp:186] Top shape: 128 32 16 16 (1048576)
I0930 10:16:18.440498 30982 net.cpp:194] Memory required for data: 853017088
I0930 10:16:18.440507 30982 layer_factory.hpp:77] Creating layer conv3_4_bn0
I0930 10:16:18.440523 30982 net.cpp:128] Creating Layer conv3_4_bn0
I0930 10:16:18.440547 30982 net.cpp:558] conv3_4_bn0 <- conv3_4_0
I0930 10:16:18.440557 30982 net.cpp:509] conv3_4_bn0 -> conv3_4_0 (in-place)
I0930 10:16:18.440816 30982 net.cpp:172] Setting up conv3_4_bn0
I0930 10:16:18.440829 30982 net.cpp:186] Top shape: 128 32 16 16 (1048576)
I0930 10:16:18.440835 30982 net.cpp:194] Memory required for data: 857211392
I0930 10:16:18.440845 30982 layer_factory.hpp:77] Creating layer conv3_4_scale0
I0930 10:16:18.440855 30982 net.cpp:128] Creating Layer conv3_4_scale0
I0930 10:16:18.440860 30982 net.cpp:558] conv3_4_scale0 <- conv3_4_0
I0930 10:16:18.440865 30982 net.cpp:509] conv3_4_scale0 -> conv3_4_0 (in-place)
I0930 10:16:18.440909 30982 layer_factory.hpp:77] Creating layer conv3_4_scale0
I0930 10:16:18.441057 30982 net.cpp:172] Setting up conv3_4_scale0
I0930 10:16:18.441068 30982 net.cpp:186] Top shape: 128 32 16 16 (1048576)
I0930 10:16:18.441072 30982 net.cpp:194] Memory required for data: 861405696
I0930 10:16:18.441082 30982 layer_factory.hpp:77] Creating layer conv3_4_ReLU0
I0930 10:16:18.441089 30982 net.cpp:128] Creating Layer conv3_4_ReLU0
I0930 10:16:18.441094 30982 net.cpp:558] conv3_4_ReLU0 <- conv3_4_0
I0930 10:16:18.441099 30982 net.cpp:509] conv3_4_ReLU0 -> conv3_4_0 (in-place)
I0930 10:16:18.442545 30982 net.cpp:172] Setting up conv3_4_ReLU0
I0930 10:16:18.442564 30982 net.cpp:186] Top shape: 128 32 16 16 (1048576)
I0930 10:16:18.442569 30982 net.cpp:194] Memory required for data: 865600000
I0930 10:16:18.442574 30982 layer_factory.hpp:77] Creating layer conv3_4_1
I0930 10:16:18.442590 30982 net.cpp:128] Creating Layer conv3_4_1
I0930 10:16:18.442595 30982 net.cpp:558] conv3_4_1 <- conv3_4_0
I0930 10:16:18.442603 30982 net.cpp:522] conv3_4_1 -> conv3_4_1
I0930 10:16:18.449327 30982 net.cpp:172] Setting up conv3_4_1
I0930 10:16:18.449354 30982 net.cpp:186] Top shape: 128 32 16 16 (1048576)
I0930 10:16:18.449358 30982 net.cpp:194] Memory required for data: 869794304
I0930 10:16:18.449368 30982 layer_factory.hpp:77] Creating layer conv3_4bn1
I0930 10:16:18.449380 30982 net.cpp:128] Creating Layer conv3_4bn1
I0930 10:16:18.449385 30982 net.cpp:558] conv3_4bn1 <- conv3_4_1
I0930 10:16:18.449393 30982 net.cpp:509] conv3_4bn1 -> conv3_4_1 (in-place)
I0930 10:16:18.449657 30982 net.cpp:172] Setting up conv3_4bn1
I0930 10:16:18.449669 30982 net.cpp:186] Top shape: 128 32 16 16 (1048576)
I0930 10:16:18.449674 30982 net.cpp:194] Memory required for data: 873988608
I0930 10:16:18.449683 30982 layer_factory.hpp:77] Creating layer conv3_4_scale1
I0930 10:16:18.449690 30982 net.cpp:128] Creating Layer conv3_4_scale1
I0930 10:16:18.449695 30982 net.cpp:558] conv3_4_scale1 <- conv3_4_1
I0930 10:16:18.449704 30982 net.cpp:509] conv3_4_scale1 -> conv3_4_1 (in-place)
I0930 10:16:18.449745 30982 layer_factory.hpp:77] Creating layer conv3_4_scale1
I0930 10:16:18.449894 30982 net.cpp:172] Setting up conv3_4_scale1
I0930 10:16:18.449908 30982 net.cpp:186] Top shape: 128 32 16 16 (1048576)
I0930 10:16:18.449913 30982 net.cpp:194] Memory required for data: 878182912
I0930 10:16:18.449919 30982 layer_factory.hpp:77] Creating layer conv3_Eltwise_4
I0930 10:16:18.449926 30982 net.cpp:128] Creating Layer conv3_Eltwise_4
I0930 10:16:18.449940 30982 net.cpp:558] conv3_Eltwise_4 <- conv3_Eltwise_3_conv3_3ReLU_1_0_split_1
I0930 10:16:18.449946 30982 net.cpp:558] conv3_Eltwise_4 <- conv3_4_1
I0930 10:16:18.449952 30982 net.cpp:522] conv3_Eltwise_4 -> conv3_Eltwise_4
I0930 10:16:18.449977 30982 net.cpp:172] Setting up conv3_Eltwise_4
I0930 10:16:18.449985 30982 net.cpp:186] Top shape: 128 32 16 16 (1048576)
I0930 10:16:18.449988 30982 net.cpp:194] Memory required for data: 882377216
I0930 10:16:18.449993 30982 layer_factory.hpp:77] Creating layer conv3_4ReLU_1
I0930 10:16:18.450000 30982 net.cpp:128] Creating Layer conv3_4ReLU_1
I0930 10:16:18.450003 30982 net.cpp:558] conv3_4ReLU_1 <- conv3_Eltwise_4
I0930 10:16:18.450011 30982 net.cpp:509] conv3_4ReLU_1 -> conv3_Eltwise_4 (in-place)
I0930 10:16:18.451402 30982 net.cpp:172] Setting up conv3_4ReLU_1
I0930 10:16:18.451423 30982 net.cpp:186] Top shape: 128 32 16 16 (1048576)
I0930 10:16:18.451443 30982 net.cpp:194] Memory required for data: 886571520
I0930 10:16:18.451449 30982 layer_factory.hpp:77] Creating layer conv3_Eltwise_4_conv3_4ReLU_1_0_split
I0930 10:16:18.451458 30982 net.cpp:128] Creating Layer conv3_Eltwise_4_conv3_4ReLU_1_0_split
I0930 10:16:18.451463 30982 net.cpp:558] conv3_Eltwise_4_conv3_4ReLU_1_0_split <- conv3_Eltwise_4
I0930 10:16:18.451473 30982 net.cpp:522] conv3_Eltwise_4_conv3_4ReLU_1_0_split -> conv3_Eltwise_4_conv3_4ReLU_1_0_split_0
I0930 10:16:18.451483 30982 net.cpp:522] conv3_Eltwise_4_conv3_4ReLU_1_0_split -> conv3_Eltwise_4_conv3_4ReLU_1_0_split_1
I0930 10:16:18.451541 30982 net.cpp:172] Setting up conv3_Eltwise_4_conv3_4ReLU_1_0_split
I0930 10:16:18.451548 30982 net.cpp:186] Top shape: 128 32 16 16 (1048576)
I0930 10:16:18.451555 30982 net.cpp:186] Top shape: 128 32 16 16 (1048576)
I0930 10:16:18.451558 30982 net.cpp:194] Memory required for data: 894960128
I0930 10:16:18.451562 30982 layer_factory.hpp:77] Creating layer conv3_5_0
I0930 10:16:18.451575 30982 net.cpp:128] Creating Layer conv3_5_0
I0930 10:16:18.451580 30982 net.cpp:558] conv3_5_0 <- conv3_Eltwise_4_conv3_4ReLU_1_0_split_0
I0930 10:16:18.451589 30982 net.cpp:522] conv3_5_0 -> conv3_5_0
I0930 10:16:18.458147 30982 net.cpp:172] Setting up conv3_5_0
I0930 10:16:18.458173 30982 net.cpp:186] Top shape: 128 32 16 16 (1048576)
I0930 10:16:18.458178 30982 net.cpp:194] Memory required for data: 899154432
I0930 10:16:18.458186 30982 layer_factory.hpp:77] Creating layer conv3_5_bn0
I0930 10:16:18.458199 30982 net.cpp:128] Creating Layer conv3_5_bn0
I0930 10:16:18.458204 30982 net.cpp:558] conv3_5_bn0 <- conv3_5_0
I0930 10:16:18.458211 30982 net.cpp:509] conv3_5_bn0 -> conv3_5_0 (in-place)
I0930 10:16:18.458477 30982 net.cpp:172] Setting up conv3_5_bn0
I0930 10:16:18.458490 30982 net.cpp:186] Top shape: 128 32 16 16 (1048576)
I0930 10:16:18.458494 30982 net.cpp:194] Memory required for data: 903348736
I0930 10:16:18.458504 30982 layer_factory.hpp:77] Creating layer conv3_5_scale0
I0930 10:16:18.458518 30982 net.cpp:128] Creating Layer conv3_5_scale0
I0930 10:16:18.458523 30982 net.cpp:558] conv3_5_scale0 <- conv3_5_0
I0930 10:16:18.458528 30982 net.cpp:509] conv3_5_scale0 -> conv3_5_0 (in-place)
I0930 10:16:18.458572 30982 layer_factory.hpp:77] Creating layer conv3_5_scale0
I0930 10:16:18.458724 30982 net.cpp:172] Setting up conv3_5_scale0
I0930 10:16:18.458732 30982 net.cpp:186] Top shape: 128 32 16 16 (1048576)
I0930 10:16:18.458736 30982 net.cpp:194] Memory required for data: 907543040
I0930 10:16:18.458745 30982 layer_factory.hpp:77] Creating layer conv3_5_ReLU0
I0930 10:16:18.458752 30982 net.cpp:128] Creating Layer conv3_5_ReLU0
I0930 10:16:18.458757 30982 net.cpp:558] conv3_5_ReLU0 <- conv3_5_0
I0930 10:16:18.458762 30982 net.cpp:509] conv3_5_ReLU0 -> conv3_5_0 (in-place)
I0930 10:16:18.460211 30982 net.cpp:172] Setting up conv3_5_ReLU0
I0930 10:16:18.460228 30982 net.cpp:186] Top shape: 128 32 16 16 (1048576)
I0930 10:16:18.460233 30982 net.cpp:194] Memory required for data: 911737344
I0930 10:16:18.460237 30982 layer_factory.hpp:77] Creating layer conv3_5_1
I0930 10:16:18.460253 30982 net.cpp:128] Creating Layer conv3_5_1
I0930 10:16:18.460258 30982 net.cpp:558] conv3_5_1 <- conv3_5_0
I0930 10:16:18.460264 30982 net.cpp:522] conv3_5_1 -> conv3_5_1
I0930 10:16:18.466990 30982 net.cpp:172] Setting up conv3_5_1
I0930 10:16:18.467016 30982 net.cpp:186] Top shape: 128 32 16 16 (1048576)
I0930 10:16:18.467020 30982 net.cpp:194] Memory required for data: 915931648
I0930 10:16:18.467031 30982 layer_factory.hpp:77] Creating layer conv3_5bn1
I0930 10:16:18.467042 30982 net.cpp:128] Creating Layer conv3_5bn1
I0930 10:16:18.467047 30982 net.cpp:558] conv3_5bn1 <- conv3_5_1
I0930 10:16:18.467057 30982 net.cpp:509] conv3_5bn1 -> conv3_5_1 (in-place)
I0930 10:16:18.467329 30982 net.cpp:172] Setting up conv3_5bn1
I0930 10:16:18.467336 30982 net.cpp:186] Top shape: 128 32 16 16 (1048576)
I0930 10:16:18.467340 30982 net.cpp:194] Memory required for data: 920125952
I0930 10:16:18.467350 30982 layer_factory.hpp:77] Creating layer conv3_5_scale1
I0930 10:16:18.467372 30982 net.cpp:128] Creating Layer conv3_5_scale1
I0930 10:16:18.467377 30982 net.cpp:558] conv3_5_scale1 <- conv3_5_1
I0930 10:16:18.467386 30982 net.cpp:509] conv3_5_scale1 -> conv3_5_1 (in-place)
I0930 10:16:18.467428 30982 layer_factory.hpp:77] Creating layer conv3_5_scale1
I0930 10:16:18.467586 30982 net.cpp:172] Setting up conv3_5_scale1
I0930 10:16:18.467593 30982 net.cpp:186] Top shape: 128 32 16 16 (1048576)
I0930 10:16:18.467597 30982 net.cpp:194] Memory required for data: 924320256
I0930 10:16:18.467605 30982 layer_factory.hpp:77] Creating layer conv3_Eltwise_5
I0930 10:16:18.467612 30982 net.cpp:128] Creating Layer conv3_Eltwise_5
I0930 10:16:18.467617 30982 net.cpp:558] conv3_Eltwise_5 <- conv3_Eltwise_4_conv3_4ReLU_1_0_split_1
I0930 10:16:18.467622 30982 net.cpp:558] conv3_Eltwise_5 <- conv3_5_1
I0930 10:16:18.467631 30982 net.cpp:522] conv3_Eltwise_5 -> conv3_Eltwise_5
I0930 10:16:18.467654 30982 net.cpp:172] Setting up conv3_Eltwise_5
I0930 10:16:18.467660 30982 net.cpp:186] Top shape: 128 32 16 16 (1048576)
I0930 10:16:18.467664 30982 net.cpp:194] Memory required for data: 928514560
I0930 10:16:18.467669 30982 layer_factory.hpp:77] Creating layer conv3_5ReLU_1
I0930 10:16:18.467677 30982 net.cpp:128] Creating Layer conv3_5ReLU_1
I0930 10:16:18.467681 30982 net.cpp:558] conv3_5ReLU_1 <- conv3_Eltwise_5
I0930 10:16:18.467686 30982 net.cpp:509] conv3_5ReLU_1 -> conv3_Eltwise_5 (in-place)
I0930 10:16:18.469070 30982 net.cpp:172] Setting up conv3_5ReLU_1
I0930 10:16:18.469089 30982 net.cpp:186] Top shape: 128 32 16 16 (1048576)
I0930 10:16:18.469092 30982 net.cpp:194] Memory required for data: 932708864
I0930 10:16:18.469097 30982 layer_factory.hpp:77] Creating layer conv3_Eltwise_5_conv3_5ReLU_1_0_split
I0930 10:16:18.469121 30982 net.cpp:128] Creating Layer conv3_Eltwise_5_conv3_5ReLU_1_0_split
I0930 10:16:18.469126 30982 net.cpp:558] conv3_Eltwise_5_conv3_5ReLU_1_0_split <- conv3_Eltwise_5
I0930 10:16:18.469137 30982 net.cpp:522] conv3_Eltwise_5_conv3_5ReLU_1_0_split -> conv3_Eltwise_5_conv3_5ReLU_1_0_split_0
I0930 10:16:18.469152 30982 net.cpp:522] conv3_Eltwise_5_conv3_5ReLU_1_0_split -> conv3_Eltwise_5_conv3_5ReLU_1_0_split_1
I0930 10:16:18.469203 30982 net.cpp:172] Setting up conv3_Eltwise_5_conv3_5ReLU_1_0_split
I0930 10:16:18.469213 30982 net.cpp:186] Top shape: 128 32 16 16 (1048576)
I0930 10:16:18.469218 30982 net.cpp:186] Top shape: 128 32 16 16 (1048576)
I0930 10:16:18.469221 30982 net.cpp:194] Memory required for data: 941097472
I0930 10:16:18.469226 30982 layer_factory.hpp:77] Creating layer conv3_6_0
I0930 10:16:18.469236 30982 net.cpp:128] Creating Layer conv3_6_0
I0930 10:16:18.469241 30982 net.cpp:558] conv3_6_0 <- conv3_Eltwise_5_conv3_5ReLU_1_0_split_0
I0930 10:16:18.469251 30982 net.cpp:522] conv3_6_0 -> conv3_6_0
I0930 10:16:18.475836 30982 net.cpp:172] Setting up conv3_6_0
I0930 10:16:18.475862 30982 net.cpp:186] Top shape: 128 32 16 16 (1048576)
I0930 10:16:18.475867 30982 net.cpp:194] Memory required for data: 945291776
I0930 10:16:18.475878 30982 layer_factory.hpp:77] Creating layer conv3_6_bn0
I0930 10:16:18.475889 30982 net.cpp:128] Creating Layer conv3_6_bn0
I0930 10:16:18.475894 30982 net.cpp:558] conv3_6_bn0 <- conv3_6_0
I0930 10:16:18.475901 30982 net.cpp:509] conv3_6_bn0 -> conv3_6_0 (in-place)
I0930 10:16:18.476169 30982 net.cpp:172] Setting up conv3_6_bn0
I0930 10:16:18.476181 30982 net.cpp:186] Top shape: 128 32 16 16 (1048576)
I0930 10:16:18.476186 30982 net.cpp:194] Memory required for data: 949486080
I0930 10:16:18.476195 30982 layer_factory.hpp:77] Creating layer conv3_6_scale0
I0930 10:16:18.476204 30982 net.cpp:128] Creating Layer conv3_6_scale0
I0930 10:16:18.476209 30982 net.cpp:558] conv3_6_scale0 <- conv3_6_0
I0930 10:16:18.476214 30982 net.cpp:509] conv3_6_scale0 -> conv3_6_0 (in-place)
I0930 10:16:18.476258 30982 layer_factory.hpp:77] Creating layer conv3_6_scale0
I0930 10:16:18.476414 30982 net.cpp:172] Setting up conv3_6_scale0
I0930 10:16:18.476426 30982 net.cpp:186] Top shape: 128 32 16 16 (1048576)
I0930 10:16:18.476447 30982 net.cpp:194] Memory required for data: 953680384
I0930 10:16:18.476456 30982 layer_factory.hpp:77] Creating layer conv3_6_ReLU0
I0930 10:16:18.476465 30982 net.cpp:128] Creating Layer conv3_6_ReLU0
I0930 10:16:18.476470 30982 net.cpp:558] conv3_6_ReLU0 <- conv3_6_0
I0930 10:16:18.476475 30982 net.cpp:509] conv3_6_ReLU0 -> conv3_6_0 (in-place)
I0930 10:16:18.477916 30982 net.cpp:172] Setting up conv3_6_ReLU0
I0930 10:16:18.477952 30982 net.cpp:186] Top shape: 128 32 16 16 (1048576)
I0930 10:16:18.477958 30982 net.cpp:194] Memory required for data: 957874688
I0930 10:16:18.477964 30982 layer_factory.hpp:77] Creating layer conv3_6_1
I0930 10:16:18.477978 30982 net.cpp:128] Creating Layer conv3_6_1
I0930 10:16:18.477983 30982 net.cpp:558] conv3_6_1 <- conv3_6_0
I0930 10:16:18.477994 30982 net.cpp:522] conv3_6_1 -> conv3_6_1
I0930 10:16:18.484700 30982 net.cpp:172] Setting up conv3_6_1
I0930 10:16:18.484726 30982 net.cpp:186] Top shape: 128 32 16 16 (1048576)
I0930 10:16:18.484731 30982 net.cpp:194] Memory required for data: 962068992
I0930 10:16:18.484740 30982 layer_factory.hpp:77] Creating layer conv3_6bn1
I0930 10:16:18.484751 30982 net.cpp:128] Creating Layer conv3_6bn1
I0930 10:16:18.484757 30982 net.cpp:558] conv3_6bn1 <- conv3_6_1
I0930 10:16:18.484764 30982 net.cpp:509] conv3_6bn1 -> conv3_6_1 (in-place)
I0930 10:16:18.485035 30982 net.cpp:172] Setting up conv3_6bn1
I0930 10:16:18.485049 30982 net.cpp:186] Top shape: 128 32 16 16 (1048576)
I0930 10:16:18.485054 30982 net.cpp:194] Memory required for data: 966263296
I0930 10:16:18.485064 30982 layer_factory.hpp:77] Creating layer conv3_6_scale1
I0930 10:16:18.485070 30982 net.cpp:128] Creating Layer conv3_6_scale1
I0930 10:16:18.485074 30982 net.cpp:558] conv3_6_scale1 <- conv3_6_1
I0930 10:16:18.485080 30982 net.cpp:509] conv3_6_scale1 -> conv3_6_1 (in-place)
I0930 10:16:18.485123 30982 layer_factory.hpp:77] Creating layer conv3_6_scale1
I0930 10:16:18.485281 30982 net.cpp:172] Setting up conv3_6_scale1
I0930 10:16:18.485289 30982 net.cpp:186] Top shape: 128 32 16 16 (1048576)
I0930 10:16:18.485293 30982 net.cpp:194] Memory required for data: 970457600
I0930 10:16:18.485301 30982 layer_factory.hpp:77] Creating layer conv3_Eltwise_6
I0930 10:16:18.485307 30982 net.cpp:128] Creating Layer conv3_Eltwise_6
I0930 10:16:18.485312 30982 net.cpp:558] conv3_Eltwise_6 <- conv3_Eltwise_5_conv3_5ReLU_1_0_split_1
I0930 10:16:18.485317 30982 net.cpp:558] conv3_Eltwise_6 <- conv3_6_1
I0930 10:16:18.485325 30982 net.cpp:522] conv3_Eltwise_6 -> conv3_Eltwise_6
I0930 10:16:18.485347 30982 net.cpp:172] Setting up conv3_Eltwise_6
I0930 10:16:18.485354 30982 net.cpp:186] Top shape: 128 32 16 16 (1048576)
I0930 10:16:18.485358 30982 net.cpp:194] Memory required for data: 974651904
I0930 10:16:18.485363 30982 layer_factory.hpp:77] Creating layer conv3_6ReLU_1
I0930 10:16:18.485368 30982 net.cpp:128] Creating Layer conv3_6ReLU_1
I0930 10:16:18.485373 30982 net.cpp:558] conv3_6ReLU_1 <- conv3_Eltwise_6
I0930 10:16:18.485380 30982 net.cpp:509] conv3_6ReLU_1 -> conv3_Eltwise_6 (in-place)
I0930 10:16:18.486771 30982 net.cpp:172] Setting up conv3_6ReLU_1
I0930 10:16:18.486791 30982 net.cpp:186] Top shape: 128 32 16 16 (1048576)
I0930 10:16:18.486795 30982 net.cpp:194] Memory required for data: 978846208
I0930 10:16:18.486800 30982 layer_factory.hpp:77] Creating layer conv3_Eltwise_6_conv3_6ReLU_1_0_split
I0930 10:16:18.486809 30982 net.cpp:128] Creating Layer conv3_Eltwise_6_conv3_6ReLU_1_0_split
I0930 10:16:18.486815 30982 net.cpp:558] conv3_Eltwise_6_conv3_6ReLU_1_0_split <- conv3_Eltwise_6
I0930 10:16:18.486822 30982 net.cpp:522] conv3_Eltwise_6_conv3_6ReLU_1_0_split -> conv3_Eltwise_6_conv3_6ReLU_1_0_split_0
I0930 10:16:18.486834 30982 net.cpp:522] conv3_Eltwise_6_conv3_6ReLU_1_0_split -> conv3_Eltwise_6_conv3_6ReLU_1_0_split_1
I0930 10:16:18.486889 30982 net.cpp:172] Setting up conv3_Eltwise_6_conv3_6ReLU_1_0_split
I0930 10:16:18.486896 30982 net.cpp:186] Top shape: 128 32 16 16 (1048576)
I0930 10:16:18.486902 30982 net.cpp:186] Top shape: 128 32 16 16 (1048576)
I0930 10:16:18.486922 30982 net.cpp:194] Memory required for data: 987234816
I0930 10:16:18.486925 30982 layer_factory.hpp:77] Creating layer conv3_7_0
I0930 10:16:18.486938 30982 net.cpp:128] Creating Layer conv3_7_0
I0930 10:16:18.486943 30982 net.cpp:558] conv3_7_0 <- conv3_Eltwise_6_conv3_6ReLU_1_0_split_0
I0930 10:16:18.486953 30982 net.cpp:522] conv3_7_0 -> conv3_7_0
I0930 10:16:18.493558 30982 net.cpp:172] Setting up conv3_7_0
I0930 10:16:18.493584 30982 net.cpp:186] Top shape: 128 32 16 16 (1048576)
I0930 10:16:18.493589 30982 net.cpp:194] Memory required for data: 991429120
I0930 10:16:18.493599 30982 layer_factory.hpp:77] Creating layer conv3_7_bn0
I0930 10:16:18.493610 30982 net.cpp:128] Creating Layer conv3_7_bn0
I0930 10:16:18.493615 30982 net.cpp:558] conv3_7_bn0 <- conv3_7_0
I0930 10:16:18.493623 30982 net.cpp:509] conv3_7_bn0 -> conv3_7_0 (in-place)
I0930 10:16:18.493896 30982 net.cpp:172] Setting up conv3_7_bn0
I0930 10:16:18.493908 30982 net.cpp:186] Top shape: 128 32 16 16 (1048576)
I0930 10:16:18.493912 30982 net.cpp:194] Memory required for data: 995623424
I0930 10:16:18.493922 30982 layer_factory.hpp:77] Creating layer conv3_7_scale0
I0930 10:16:18.493944 30982 net.cpp:128] Creating Layer conv3_7_scale0
I0930 10:16:18.493949 30982 net.cpp:558] conv3_7_scale0 <- conv3_7_0
I0930 10:16:18.493955 30982 net.cpp:509] conv3_7_scale0 -> conv3_7_0 (in-place)
I0930 10:16:18.494000 30982 layer_factory.hpp:77] Creating layer conv3_7_scale0
I0930 10:16:18.494158 30982 net.cpp:172] Setting up conv3_7_scale0
I0930 10:16:18.494165 30982 net.cpp:186] Top shape: 128 32 16 16 (1048576)
I0930 10:16:18.494169 30982 net.cpp:194] Memory required for data: 999817728
I0930 10:16:18.494177 30982 layer_factory.hpp:77] Creating layer conv3_7_ReLU0
I0930 10:16:18.494184 30982 net.cpp:128] Creating Layer conv3_7_ReLU0
I0930 10:16:18.494189 30982 net.cpp:558] conv3_7_ReLU0 <- conv3_7_0
I0930 10:16:18.494199 30982 net.cpp:509] conv3_7_ReLU0 -> conv3_7_0 (in-place)
I0930 10:16:18.495631 30982 net.cpp:172] Setting up conv3_7_ReLU0
I0930 10:16:18.495651 30982 net.cpp:186] Top shape: 128 32 16 16 (1048576)
I0930 10:16:18.495654 30982 net.cpp:194] Memory required for data: 1004012032
I0930 10:16:18.495658 30982 layer_factory.hpp:77] Creating layer conv3_7_1
I0930 10:16:18.495676 30982 net.cpp:128] Creating Layer conv3_7_1
I0930 10:16:18.495682 30982 net.cpp:558] conv3_7_1 <- conv3_7_0
I0930 10:16:18.495692 30982 net.cpp:522] conv3_7_1 -> conv3_7_1
I0930 10:16:18.502423 30982 net.cpp:172] Setting up conv3_7_1
I0930 10:16:18.502449 30982 net.cpp:186] Top shape: 128 32 16 16 (1048576)
I0930 10:16:18.502454 30982 net.cpp:194] Memory required for data: 1008206336
I0930 10:16:18.502463 30982 layer_factory.hpp:77] Creating layer conv3_7bn1
I0930 10:16:18.502475 30982 net.cpp:128] Creating Layer conv3_7bn1
I0930 10:16:18.502480 30982 net.cpp:558] conv3_7bn1 <- conv3_7_1
I0930 10:16:18.502490 30982 net.cpp:509] conv3_7bn1 -> conv3_7_1 (in-place)
I0930 10:16:18.502768 30982 net.cpp:172] Setting up conv3_7bn1
I0930 10:16:18.502784 30982 net.cpp:186] Top shape: 128 32 16 16 (1048576)
I0930 10:16:18.502789 30982 net.cpp:194] Memory required for data: 1012400640
I0930 10:16:18.502797 30982 layer_factory.hpp:77] Creating layer conv3_7_scale1
I0930 10:16:18.502807 30982 net.cpp:128] Creating Layer conv3_7_scale1
I0930 10:16:18.502811 30982 net.cpp:558] conv3_7_scale1 <- conv3_7_1
I0930 10:16:18.502817 30982 net.cpp:509] conv3_7_scale1 -> conv3_7_1 (in-place)
I0930 10:16:18.502862 30982 layer_factory.hpp:77] Creating layer conv3_7_scale1
I0930 10:16:18.503020 30982 net.cpp:172] Setting up conv3_7_scale1
I0930 10:16:18.503026 30982 net.cpp:186] Top shape: 128 32 16 16 (1048576)
I0930 10:16:18.503031 30982 net.cpp:194] Memory required for data: 1016594944
I0930 10:16:18.503038 30982 layer_factory.hpp:77] Creating layer conv3_Eltwise_7
I0930 10:16:18.503044 30982 net.cpp:128] Creating Layer conv3_Eltwise_7
I0930 10:16:18.503049 30982 net.cpp:558] conv3_Eltwise_7 <- conv3_Eltwise_6_conv3_6ReLU_1_0_split_1
I0930 10:16:18.503054 30982 net.cpp:558] conv3_Eltwise_7 <- conv3_7_1
I0930 10:16:18.503082 30982 net.cpp:522] conv3_Eltwise_7 -> conv3_Eltwise_7
I0930 10:16:18.503106 30982 net.cpp:172] Setting up conv3_Eltwise_7
I0930 10:16:18.503116 30982 net.cpp:186] Top shape: 128 32 16 16 (1048576)
I0930 10:16:18.503120 30982 net.cpp:194] Memory required for data: 1020789248
I0930 10:16:18.503125 30982 layer_factory.hpp:77] Creating layer conv3_7ReLU_1
I0930 10:16:18.503131 30982 net.cpp:128] Creating Layer conv3_7ReLU_1
I0930 10:16:18.503136 30982 net.cpp:558] conv3_7ReLU_1 <- conv3_Eltwise_7
I0930 10:16:18.503141 30982 net.cpp:509] conv3_7ReLU_1 -> conv3_Eltwise_7 (in-place)
I0930 10:16:18.504492 30982 net.cpp:172] Setting up conv3_7ReLU_1
I0930 10:16:18.504509 30982 net.cpp:186] Top shape: 128 32 16 16 (1048576)
I0930 10:16:18.504514 30982 net.cpp:194] Memory required for data: 1024983552
I0930 10:16:18.504518 30982 layer_factory.hpp:77] Creating layer conv3_Eltwise_7_conv3_7ReLU_1_0_split
I0930 10:16:18.504526 30982 net.cpp:128] Creating Layer conv3_Eltwise_7_conv3_7ReLU_1_0_split
I0930 10:16:18.504530 30982 net.cpp:558] conv3_Eltwise_7_conv3_7ReLU_1_0_split <- conv3_Eltwise_7
I0930 10:16:18.504537 30982 net.cpp:522] conv3_Eltwise_7_conv3_7ReLU_1_0_split -> conv3_Eltwise_7_conv3_7ReLU_1_0_split_0
I0930 10:16:18.504547 30982 net.cpp:522] conv3_Eltwise_7_conv3_7ReLU_1_0_split -> conv3_Eltwise_7_conv3_7ReLU_1_0_split_1
I0930 10:16:18.504606 30982 net.cpp:172] Setting up conv3_Eltwise_7_conv3_7ReLU_1_0_split
I0930 10:16:18.504612 30982 net.cpp:186] Top shape: 128 32 16 16 (1048576)
I0930 10:16:18.504618 30982 net.cpp:186] Top shape: 128 32 16 16 (1048576)
I0930 10:16:18.504621 30982 net.cpp:194] Memory required for data: 1033372160
I0930 10:16:18.504626 30982 layer_factory.hpp:77] Creating layer conv4_1_0
I0930 10:16:18.504643 30982 net.cpp:128] Creating Layer conv4_1_0
I0930 10:16:18.504649 30982 net.cpp:558] conv4_1_0 <- conv3_Eltwise_7_conv3_7ReLU_1_0_split_0
I0930 10:16:18.504657 30982 net.cpp:522] conv4_1_0 -> conv4_1_0
I0930 10:16:18.511437 30982 net.cpp:172] Setting up conv4_1_0
I0930 10:16:18.511466 30982 net.cpp:186] Top shape: 128 64 8 8 (524288)
I0930 10:16:18.511469 30982 net.cpp:194] Memory required for data: 1035469312
I0930 10:16:18.511481 30982 layer_factory.hpp:77] Creating layer conv4_1_bn0
I0930 10:16:18.511493 30982 net.cpp:128] Creating Layer conv4_1_bn0
I0930 10:16:18.511499 30982 net.cpp:558] conv4_1_bn0 <- conv4_1_0
I0930 10:16:18.511507 30982 net.cpp:509] conv4_1_bn0 -> conv4_1_0 (in-place)
I0930 10:16:18.511799 30982 net.cpp:172] Setting up conv4_1_bn0
I0930 10:16:18.511812 30982 net.cpp:186] Top shape: 128 64 8 8 (524288)
I0930 10:16:18.511816 30982 net.cpp:194] Memory required for data: 1037566464
I0930 10:16:18.511826 30982 layer_factory.hpp:77] Creating layer conv4_1_scale0
I0930 10:16:18.511833 30982 net.cpp:128] Creating Layer conv4_1_scale0
I0930 10:16:18.511837 30982 net.cpp:558] conv4_1_scale0 <- conv4_1_0
I0930 10:16:18.511843 30982 net.cpp:509] conv4_1_scale0 -> conv4_1_0 (in-place)
I0930 10:16:18.511890 30982 layer_factory.hpp:77] Creating layer conv4_1_scale0
I0930 10:16:18.512050 30982 net.cpp:172] Setting up conv4_1_scale0
I0930 10:16:18.512060 30982 net.cpp:186] Top shape: 128 64 8 8 (524288)
I0930 10:16:18.512065 30982 net.cpp:194] Memory required for data: 1039663616
I0930 10:16:18.512073 30982 layer_factory.hpp:77] Creating layer conv4_1_ReLU0
I0930 10:16:18.512079 30982 net.cpp:128] Creating Layer conv4_1_ReLU0
I0930 10:16:18.512084 30982 net.cpp:558] conv4_1_ReLU0 <- conv4_1_0
I0930 10:16:18.512090 30982 net.cpp:509] conv4_1_ReLU0 -> conv4_1_0 (in-place)
I0930 10:16:18.513303 30982 net.cpp:172] Setting up conv4_1_ReLU0
I0930 10:16:18.513329 30982 net.cpp:186] Top shape: 128 64 8 8 (524288)
I0930 10:16:18.513334 30982 net.cpp:194] Memory required for data: 1041760768
I0930 10:16:18.513339 30982 layer_factory.hpp:77] Creating layer conv4_1_1
I0930 10:16:18.513358 30982 net.cpp:128] Creating Layer conv4_1_1
I0930 10:16:18.513363 30982 net.cpp:558] conv4_1_1 <- conv4_1_0
I0930 10:16:18.513375 30982 net.cpp:522] conv4_1_1 -> conv4_1_1
I0930 10:16:18.520288 30982 net.cpp:172] Setting up conv4_1_1
I0930 10:16:18.520315 30982 net.cpp:186] Top shape: 128 64 8 8 (524288)
I0930 10:16:18.520319 30982 net.cpp:194] Memory required for data: 1043857920
I0930 10:16:18.520330 30982 layer_factory.hpp:77] Creating layer conv4_1bn1
I0930 10:16:18.520341 30982 net.cpp:128] Creating Layer conv4_1bn1
I0930 10:16:18.520347 30982 net.cpp:558] conv4_1bn1 <- conv4_1_1
I0930 10:16:18.520354 30982 net.cpp:509] conv4_1bn1 -> conv4_1_1 (in-place)
I0930 10:16:18.520650 30982 net.cpp:172] Setting up conv4_1bn1
I0930 10:16:18.520663 30982 net.cpp:186] Top shape: 128 64 8 8 (524288)
I0930 10:16:18.520668 30982 net.cpp:194] Memory required for data: 1045955072
I0930 10:16:18.520678 30982 layer_factory.hpp:77] Creating layer conv4_1_scale1
I0930 10:16:18.520684 30982 net.cpp:128] Creating Layer conv4_1_scale1
I0930 10:16:18.520689 30982 net.cpp:558] conv4_1_scale1 <- conv4_1_1
I0930 10:16:18.520694 30982 net.cpp:509] conv4_1_scale1 -> conv4_1_1 (in-place)
I0930 10:16:18.520740 30982 layer_factory.hpp:77] Creating layer conv4_1_scale1
I0930 10:16:18.520898 30982 net.cpp:172] Setting up conv4_1_scale1
I0930 10:16:18.520908 30982 net.cpp:186] Top shape: 128 64 8 8 (524288)
I0930 10:16:18.520915 30982 net.cpp:194] Memory required for data: 1048052224
I0930 10:16:18.520922 30982 layer_factory.hpp:77] Creating layer conv4_1_down
I0930 10:16:18.520934 30982 net.cpp:128] Creating Layer conv4_1_down
I0930 10:16:18.520939 30982 net.cpp:558] conv4_1_down <- conv3_Eltwise_7_conv3_7ReLU_1_0_split_1
I0930 10:16:18.520946 30982 net.cpp:522] conv4_1_down -> conv4_1_down
I0930 10:16:18.526753 30982 net.cpp:172] Setting up conv4_1_down
I0930 10:16:18.526779 30982 net.cpp:186] Top shape: 128 64 8 8 (524288)
I0930 10:16:18.526783 30982 net.cpp:194] Memory required for data: 1050149376
I0930 10:16:18.526793 30982 layer_factory.hpp:77] Creating layer conv4_1_bn_down
I0930 10:16:18.526808 30982 net.cpp:128] Creating Layer conv4_1_bn_down
I0930 10:16:18.526813 30982 net.cpp:558] conv4_1_bn_down <- conv4_1_down
I0930 10:16:18.526823 30982 net.cpp:509] conv4_1_bn_down -> conv4_1_down (in-place)
I0930 10:16:18.527109 30982 net.cpp:172] Setting up conv4_1_bn_down
I0930 10:16:18.527123 30982 net.cpp:186] Top shape: 128 64 8 8 (524288)
I0930 10:16:18.527127 30982 net.cpp:194] Memory required for data: 1052246528
I0930 10:16:18.527137 30982 layer_factory.hpp:77] Creating layer conv4_1_scale_down
I0930 10:16:18.527144 30982 net.cpp:128] Creating Layer conv4_1_scale_down
I0930 10:16:18.527148 30982 net.cpp:558] conv4_1_scale_down <- conv4_1_down
I0930 10:16:18.527153 30982 net.cpp:509] conv4_1_scale_down -> conv4_1_down (in-place)
I0930 10:16:18.527200 30982 layer_factory.hpp:77] Creating layer conv4_1_scale_down
I0930 10:16:18.527367 30982 net.cpp:172] Setting up conv4_1_scale_down
I0930 10:16:18.527375 30982 net.cpp:186] Top shape: 128 64 8 8 (524288)
I0930 10:16:18.527379 30982 net.cpp:194] Memory required for data: 1054343680
I0930 10:16:18.527387 30982 layer_factory.hpp:77] Creating layer conv4_Eltwise_1
I0930 10:16:18.527396 30982 net.cpp:128] Creating Layer conv4_Eltwise_1
I0930 10:16:18.527401 30982 net.cpp:558] conv4_Eltwise_1 <- conv4_1_1
I0930 10:16:18.527406 30982 net.cpp:558] conv4_Eltwise_1 <- conv4_1_down
I0930 10:16:18.527412 30982 net.cpp:522] conv4_Eltwise_1 -> conv4_Eltwise_1
I0930 10:16:18.527436 30982 net.cpp:172] Setting up conv4_Eltwise_1
I0930 10:16:18.527443 30982 net.cpp:186] Top shape: 128 64 8 8 (524288)
I0930 10:16:18.527447 30982 net.cpp:194] Memory required for data: 1056440832
I0930 10:16:18.527451 30982 layer_factory.hpp:77] Creating layer conv4_1ReLU_1
I0930 10:16:18.527459 30982 net.cpp:128] Creating Layer conv4_1ReLU_1
I0930 10:16:18.527464 30982 net.cpp:558] conv4_1ReLU_1 <- conv4_Eltwise_1
I0930 10:16:18.527469 30982 net.cpp:509] conv4_1ReLU_1 -> conv4_Eltwise_1 (in-place)
I0930 10:16:18.528795 30982 net.cpp:172] Setting up conv4_1ReLU_1
I0930 10:16:18.528815 30982 net.cpp:186] Top shape: 128 64 8 8 (524288)
I0930 10:16:18.528820 30982 net.cpp:194] Memory required for data: 1058537984
I0930 10:16:18.528841 30982 layer_factory.hpp:77] Creating layer conv4_Eltwise_1_conv4_1ReLU_1_0_split
I0930 10:16:18.528851 30982 net.cpp:128] Creating Layer conv4_Eltwise_1_conv4_1ReLU_1_0_split
I0930 10:16:18.528856 30982 net.cpp:558] conv4_Eltwise_1_conv4_1ReLU_1_0_split <- conv4_Eltwise_1
I0930 10:16:18.528867 30982 net.cpp:522] conv4_Eltwise_1_conv4_1ReLU_1_0_split -> conv4_Eltwise_1_conv4_1ReLU_1_0_split_0
I0930 10:16:18.528874 30982 net.cpp:522] conv4_Eltwise_1_conv4_1ReLU_1_0_split -> conv4_Eltwise_1_conv4_1ReLU_1_0_split_1
I0930 10:16:18.528930 30982 net.cpp:172] Setting up conv4_Eltwise_1_conv4_1ReLU_1_0_split
I0930 10:16:18.528940 30982 net.cpp:186] Top shape: 128 64 8 8 (524288)
I0930 10:16:18.528946 30982 net.cpp:186] Top shape: 128 64 8 8 (524288)
I0930 10:16:18.528950 30982 net.cpp:194] Memory required for data: 1062732288
I0930 10:16:18.528954 30982 layer_factory.hpp:77] Creating layer conv4_2_0
I0930 10:16:18.528969 30982 net.cpp:128] Creating Layer conv4_2_0
I0930 10:16:18.528973 30982 net.cpp:558] conv4_2_0 <- conv4_Eltwise_1_conv4_1ReLU_1_0_split_0
I0930 10:16:18.528980 30982 net.cpp:522] conv4_2_0 -> conv4_2_0
I0930 10:16:18.535603 30982 net.cpp:172] Setting up conv4_2_0
I0930 10:16:18.535629 30982 net.cpp:186] Top shape: 128 64 8 8 (524288)
I0930 10:16:18.535632 30982 net.cpp:194] Memory required for data: 1064829440
I0930 10:16:18.535642 30982 layer_factory.hpp:77] Creating layer conv4_2_bn0
I0930 10:16:18.535655 30982 net.cpp:128] Creating Layer conv4_2_bn0
I0930 10:16:18.535660 30982 net.cpp:558] conv4_2_bn0 <- conv4_2_0
I0930 10:16:18.535670 30982 net.cpp:509] conv4_2_bn0 -> conv4_2_0 (in-place)
I0930 10:16:18.535961 30982 net.cpp:172] Setting up conv4_2_bn0
I0930 10:16:18.535974 30982 net.cpp:186] Top shape: 128 64 8 8 (524288)
I0930 10:16:18.535979 30982 net.cpp:194] Memory required for data: 1066926592
I0930 10:16:18.535987 30982 layer_factory.hpp:77] Creating layer conv4_2_scale0
I0930 10:16:18.535995 30982 net.cpp:128] Creating Layer conv4_2_scale0
I0930 10:16:18.536000 30982 net.cpp:558] conv4_2_scale0 <- conv4_2_0
I0930 10:16:18.536007 30982 net.cpp:509] conv4_2_scale0 -> conv4_2_0 (in-place)
I0930 10:16:18.536049 30982 layer_factory.hpp:77] Creating layer conv4_2_scale0
I0930 10:16:18.536211 30982 net.cpp:172] Setting up conv4_2_scale0
I0930 10:16:18.536222 30982 net.cpp:186] Top shape: 128 64 8 8 (524288)
I0930 10:16:18.536226 30982 net.cpp:194] Memory required for data: 1069023744
I0930 10:16:18.536234 30982 layer_factory.hpp:77] Creating layer conv4_2_ReLU0
I0930 10:16:18.536240 30982 net.cpp:128] Creating Layer conv4_2_ReLU0
I0930 10:16:18.536245 30982 net.cpp:558] conv4_2_ReLU0 <- conv4_2_0
I0930 10:16:18.536257 30982 net.cpp:509] conv4_2_ReLU0 -> conv4_2_0 (in-place)
I0930 10:16:18.537658 30982 net.cpp:172] Setting up conv4_2_ReLU0
I0930 10:16:18.537676 30982 net.cpp:186] Top shape: 128 64 8 8 (524288)
I0930 10:16:18.537680 30982 net.cpp:194] Memory required for data: 1071120896
I0930 10:16:18.537685 30982 layer_factory.hpp:77] Creating layer conv4_2_1
I0930 10:16:18.537699 30982 net.cpp:128] Creating Layer conv4_2_1
I0930 10:16:18.537704 30982 net.cpp:558] conv4_2_1 <- conv4_2_0
I0930 10:16:18.537717 30982 net.cpp:522] conv4_2_1 -> conv4_2_1
I0930 10:16:18.544620 30982 net.cpp:172] Setting up conv4_2_1
I0930 10:16:18.544648 30982 net.cpp:186] Top shape: 128 64 8 8 (524288)
I0930 10:16:18.544653 30982 net.cpp:194] Memory required for data: 1073218048
I0930 10:16:18.544664 30982 layer_factory.hpp:77] Creating layer conv4_2bn1
I0930 10:16:18.544673 30982 net.cpp:128] Creating Layer conv4_2bn1
I0930 10:16:18.544682 30982 net.cpp:558] conv4_2bn1 <- conv4_2_1
I0930 10:16:18.544687 30982 net.cpp:509] conv4_2bn1 -> conv4_2_1 (in-place)
I0930 10:16:18.544991 30982 net.cpp:172] Setting up conv4_2bn1
I0930 10:16:18.545002 30982 net.cpp:186] Top shape: 128 64 8 8 (524288)
I0930 10:16:18.545008 30982 net.cpp:194] Memory required for data: 1075315200
I0930 10:16:18.545018 30982 layer_factory.hpp:77] Creating layer conv4_2_scale1
I0930 10:16:18.545025 30982 net.cpp:128] Creating Layer conv4_2_scale1
I0930 10:16:18.545047 30982 net.cpp:558] conv4_2_scale1 <- conv4_2_1
I0930 10:16:18.545053 30982 net.cpp:509] conv4_2_scale1 -> conv4_2_1 (in-place)
I0930 10:16:18.545100 30982 layer_factory.hpp:77] Creating layer conv4_2_scale1
I0930 10:16:18.545267 30982 net.cpp:172] Setting up conv4_2_scale1
I0930 10:16:18.545279 30982 net.cpp:186] Top shape: 128 64 8 8 (524288)
I0930 10:16:18.545284 30982 net.cpp:194] Memory required for data: 1077412352
I0930 10:16:18.545292 30982 layer_factory.hpp:77] Creating layer conv4_Eltwise_2
I0930 10:16:18.545301 30982 net.cpp:128] Creating Layer conv4_Eltwise_2
I0930 10:16:18.545306 30982 net.cpp:558] conv4_Eltwise_2 <- conv4_Eltwise_1_conv4_1ReLU_1_0_split_1
I0930 10:16:18.545311 30982 net.cpp:558] conv4_Eltwise_2 <- conv4_2_1
I0930 10:16:18.545317 30982 net.cpp:522] conv4_Eltwise_2 -> conv4_Eltwise_2
I0930 10:16:18.545341 30982 net.cpp:172] Setting up conv4_Eltwise_2
I0930 10:16:18.545348 30982 net.cpp:186] Top shape: 128 64 8 8 (524288)
I0930 10:16:18.545351 30982 net.cpp:194] Memory required for data: 1079509504
I0930 10:16:18.545356 30982 layer_factory.hpp:77] Creating layer conv4_2ReLU_1
I0930 10:16:18.545364 30982 net.cpp:128] Creating Layer conv4_2ReLU_1
I0930 10:16:18.545369 30982 net.cpp:558] conv4_2ReLU_1 <- conv4_Eltwise_2
I0930 10:16:18.545377 30982 net.cpp:509] conv4_2ReLU_1 -> conv4_Eltwise_2 (in-place)
I0930 10:16:18.546484 30982 net.cpp:172] Setting up conv4_2ReLU_1
I0930 10:16:18.546509 30982 net.cpp:186] Top shape: 128 64 8 8 (524288)
I0930 10:16:18.546514 30982 net.cpp:194] Memory required for data: 1081606656
I0930 10:16:18.546519 30982 layer_factory.hpp:77] Creating layer conv4_Eltwise_2_conv4_2ReLU_1_0_split
I0930 10:16:18.546526 30982 net.cpp:128] Creating Layer conv4_Eltwise_2_conv4_2ReLU_1_0_split
I0930 10:16:18.546531 30982 net.cpp:558] conv4_Eltwise_2_conv4_2ReLU_1_0_split <- conv4_Eltwise_2
I0930 10:16:18.546542 30982 net.cpp:522] conv4_Eltwise_2_conv4_2ReLU_1_0_split -> conv4_Eltwise_2_conv4_2ReLU_1_0_split_0
I0930 10:16:18.546552 30982 net.cpp:522] conv4_Eltwise_2_conv4_2ReLU_1_0_split -> conv4_Eltwise_2_conv4_2ReLU_1_0_split_1
I0930 10:16:18.546610 30982 net.cpp:172] Setting up conv4_Eltwise_2_conv4_2ReLU_1_0_split
I0930 10:16:18.546617 30982 net.cpp:186] Top shape: 128 64 8 8 (524288)
I0930 10:16:18.546623 30982 net.cpp:186] Top shape: 128 64 8 8 (524288)
I0930 10:16:18.546627 30982 net.cpp:194] Memory required for data: 1085800960
I0930 10:16:18.546631 30982 layer_factory.hpp:77] Creating layer conv4_3_0
I0930 10:16:18.546645 30982 net.cpp:128] Creating Layer conv4_3_0
I0930 10:16:18.546650 30982 net.cpp:558] conv4_3_0 <- conv4_Eltwise_2_conv4_2ReLU_1_0_split_0
I0930 10:16:18.546658 30982 net.cpp:522] conv4_3_0 -> conv4_3_0
I0930 10:16:18.553272 30982 net.cpp:172] Setting up conv4_3_0
I0930 10:16:18.553298 30982 net.cpp:186] Top shape: 128 64 8 8 (524288)
I0930 10:16:18.553303 30982 net.cpp:194] Memory required for data: 1087898112
I0930 10:16:18.553313 30982 layer_factory.hpp:77] Creating layer conv4_3_bn0
I0930 10:16:18.553323 30982 net.cpp:128] Creating Layer conv4_3_bn0
I0930 10:16:18.553328 30982 net.cpp:558] conv4_3_bn0 <- conv4_3_0
I0930 10:16:18.553337 30982 net.cpp:509] conv4_3_bn0 -> conv4_3_0 (in-place)
I0930 10:16:18.553628 30982 net.cpp:172] Setting up conv4_3_bn0
I0930 10:16:18.553640 30982 net.cpp:186] Top shape: 128 64 8 8 (524288)
I0930 10:16:18.553644 30982 net.cpp:194] Memory required for data: 1089995264
I0930 10:16:18.553654 30982 layer_factory.hpp:77] Creating layer conv4_3_scale0
I0930 10:16:18.553661 30982 net.cpp:128] Creating Layer conv4_3_scale0
I0930 10:16:18.553665 30982 net.cpp:558] conv4_3_scale0 <- conv4_3_0
I0930 10:16:18.553670 30982 net.cpp:509] conv4_3_scale0 -> conv4_3_0 (in-place)
I0930 10:16:18.553717 30982 layer_factory.hpp:77] Creating layer conv4_3_scale0
I0930 10:16:18.553880 30982 net.cpp:172] Setting up conv4_3_scale0
I0930 10:16:18.553891 30982 net.cpp:186] Top shape: 128 64 8 8 (524288)
I0930 10:16:18.553896 30982 net.cpp:194] Memory required for data: 1092092416
I0930 10:16:18.553905 30982 layer_factory.hpp:77] Creating layer conv4_3_ReLU0
I0930 10:16:18.553926 30982 net.cpp:128] Creating Layer conv4_3_ReLU0
I0930 10:16:18.553941 30982 net.cpp:558] conv4_3_ReLU0 <- conv4_3_0
I0930 10:16:18.553951 30982 net.cpp:509] conv4_3_ReLU0 -> conv4_3_0 (in-place)
I0930 10:16:18.555336 30982 net.cpp:172] Setting up conv4_3_ReLU0
I0930 10:16:18.555354 30982 net.cpp:186] Top shape: 128 64 8 8 (524288)
I0930 10:16:18.555358 30982 net.cpp:194] Memory required for data: 1094189568
I0930 10:16:18.555363 30982 layer_factory.hpp:77] Creating layer conv4_3_1
I0930 10:16:18.555378 30982 net.cpp:128] Creating Layer conv4_3_1
I0930 10:16:18.555383 30982 net.cpp:558] conv4_3_1 <- conv4_3_0
I0930 10:16:18.555397 30982 net.cpp:522] conv4_3_1 -> conv4_3_1
I0930 10:16:18.562333 30982 net.cpp:172] Setting up conv4_3_1
I0930 10:16:18.562361 30982 net.cpp:186] Top shape: 128 64 8 8 (524288)
I0930 10:16:18.562364 30982 net.cpp:194] Memory required for data: 1096286720
I0930 10:16:18.562374 30982 layer_factory.hpp:77] Creating layer conv4_3bn1
I0930 10:16:18.562386 30982 net.cpp:128] Creating Layer conv4_3bn1
I0930 10:16:18.562391 30982 net.cpp:558] conv4_3bn1 <- conv4_3_1
I0930 10:16:18.562398 30982 net.cpp:509] conv4_3bn1 -> conv4_3_1 (in-place)
I0930 10:16:18.562703 30982 net.cpp:172] Setting up conv4_3bn1
I0930 10:16:18.562716 30982 net.cpp:186] Top shape: 128 64 8 8 (524288)
I0930 10:16:18.562719 30982 net.cpp:194] Memory required for data: 1098383872
I0930 10:16:18.562754 30982 layer_factory.hpp:77] Creating layer conv4_3_scale1
I0930 10:16:18.562762 30982 net.cpp:128] Creating Layer conv4_3_scale1
I0930 10:16:18.562767 30982 net.cpp:558] conv4_3_scale1 <- conv4_3_1
I0930 10:16:18.562773 30982 net.cpp:509] conv4_3_scale1 -> conv4_3_1 (in-place)
I0930 10:16:18.562820 30982 layer_factory.hpp:77] Creating layer conv4_3_scale1
I0930 10:16:18.562985 30982 net.cpp:172] Setting up conv4_3_scale1
I0930 10:16:18.562996 30982 net.cpp:186] Top shape: 128 64 8 8 (524288)
I0930 10:16:18.563000 30982 net.cpp:194] Memory required for data: 1100481024
I0930 10:16:18.563009 30982 layer_factory.hpp:77] Creating layer conv4_Eltwise_3
I0930 10:16:18.563019 30982 net.cpp:128] Creating Layer conv4_Eltwise_3
I0930 10:16:18.563024 30982 net.cpp:558] conv4_Eltwise_3 <- conv4_Eltwise_2_conv4_2ReLU_1_0_split_1
I0930 10:16:18.563028 30982 net.cpp:558] conv4_Eltwise_3 <- conv4_3_1
I0930 10:16:18.563035 30982 net.cpp:522] conv4_Eltwise_3 -> conv4_Eltwise_3
I0930 10:16:18.563060 30982 net.cpp:172] Setting up conv4_Eltwise_3
I0930 10:16:18.563067 30982 net.cpp:186] Top shape: 128 64 8 8 (524288)
I0930 10:16:18.563071 30982 net.cpp:194] Memory required for data: 1102578176
I0930 10:16:18.563076 30982 layer_factory.hpp:77] Creating layer conv4_3ReLU_1
I0930 10:16:18.563081 30982 net.cpp:128] Creating Layer conv4_3ReLU_1
I0930 10:16:18.563086 30982 net.cpp:558] conv4_3ReLU_1 <- conv4_Eltwise_3
I0930 10:16:18.563093 30982 net.cpp:509] conv4_3ReLU_1 -> conv4_Eltwise_3 (in-place)
I0930 10:16:18.564203 30982 net.cpp:172] Setting up conv4_3ReLU_1
I0930 10:16:18.564220 30982 net.cpp:186] Top shape: 128 64 8 8 (524288)
I0930 10:16:18.564224 30982 net.cpp:194] Memory required for data: 1104675328
I0930 10:16:18.564229 30982 layer_factory.hpp:77] Creating layer conv4_Eltwise_3_conv4_3ReLU_1_0_split
I0930 10:16:18.564237 30982 net.cpp:128] Creating Layer conv4_Eltwise_3_conv4_3ReLU_1_0_split
I0930 10:16:18.564242 30982 net.cpp:558] conv4_Eltwise_3_conv4_3ReLU_1_0_split <- conv4_Eltwise_3
I0930 10:16:18.564251 30982 net.cpp:522] conv4_Eltwise_3_conv4_3ReLU_1_0_split -> conv4_Eltwise_3_conv4_3ReLU_1_0_split_0
I0930 10:16:18.564260 30982 net.cpp:522] conv4_Eltwise_3_conv4_3ReLU_1_0_split -> conv4_Eltwise_3_conv4_3ReLU_1_0_split_1
I0930 10:16:18.564318 30982 net.cpp:172] Setting up conv4_Eltwise_3_conv4_3ReLU_1_0_split
I0930 10:16:18.564326 30982 net.cpp:186] Top shape: 128 64 8 8 (524288)
I0930 10:16:18.564330 30982 net.cpp:186] Top shape: 128 64 8 8 (524288)
I0930 10:16:18.564334 30982 net.cpp:194] Memory required for data: 1108869632
I0930 10:16:18.564338 30982 layer_factory.hpp:77] Creating layer conv4_4_0
I0930 10:16:18.564368 30982 net.cpp:128] Creating Layer conv4_4_0
I0930 10:16:18.564373 30982 net.cpp:558] conv4_4_0 <- conv4_Eltwise_3_conv4_3ReLU_1_0_split_0
I0930 10:16:18.564383 30982 net.cpp:522] conv4_4_0 -> conv4_4_0
I0930 10:16:18.570992 30982 net.cpp:172] Setting up conv4_4_0
I0930 10:16:18.571018 30982 net.cpp:186] Top shape: 128 64 8 8 (524288)
I0930 10:16:18.571022 30982 net.cpp:194] Memory required for data: 1110966784
I0930 10:16:18.571033 30982 layer_factory.hpp:77] Creating layer conv4_4_bn0
I0930 10:16:18.571044 30982 net.cpp:128] Creating Layer conv4_4_bn0
I0930 10:16:18.571050 30982 net.cpp:558] conv4_4_bn0 <- conv4_4_0
I0930 10:16:18.571056 30982 net.cpp:509] conv4_4_bn0 -> conv4_4_0 (in-place)
I0930 10:16:18.571354 30982 net.cpp:172] Setting up conv4_4_bn0
I0930 10:16:18.571365 30982 net.cpp:186] Top shape: 128 64 8 8 (524288)
I0930 10:16:18.571369 30982 net.cpp:194] Memory required for data: 1113063936
I0930 10:16:18.571379 30982 layer_factory.hpp:77] Creating layer conv4_4_scale0
I0930 10:16:18.571386 30982 net.cpp:128] Creating Layer conv4_4_scale0
I0930 10:16:18.571390 30982 net.cpp:558] conv4_4_scale0 <- conv4_4_0
I0930 10:16:18.571396 30982 net.cpp:509] conv4_4_scale0 -> conv4_4_0 (in-place)
I0930 10:16:18.571444 30982 layer_factory.hpp:77] Creating layer conv4_4_scale0
I0930 10:16:18.571610 30982 net.cpp:172] Setting up conv4_4_scale0
I0930 10:16:18.571621 30982 net.cpp:186] Top shape: 128 64 8 8 (524288)
I0930 10:16:18.571625 30982 net.cpp:194] Memory required for data: 1115161088
I0930 10:16:18.571633 30982 layer_factory.hpp:77] Creating layer conv4_4_ReLU0
I0930 10:16:18.571642 30982 net.cpp:128] Creating Layer conv4_4_ReLU0
I0930 10:16:18.571646 30982 net.cpp:558] conv4_4_ReLU0 <- conv4_4_0
I0930 10:16:18.571652 30982 net.cpp:509] conv4_4_ReLU0 -> conv4_4_0 (in-place)
I0930 10:16:18.573057 30982 net.cpp:172] Setting up conv4_4_ReLU0
I0930 10:16:18.573082 30982 net.cpp:186] Top shape: 128 64 8 8 (524288)
I0930 10:16:18.573086 30982 net.cpp:194] Memory required for data: 1117258240
I0930 10:16:18.573092 30982 layer_factory.hpp:77] Creating layer conv4_4_1
I0930 10:16:18.573109 30982 net.cpp:128] Creating Layer conv4_4_1
I0930 10:16:18.573114 30982 net.cpp:558] conv4_4_1 <- conv4_4_0
I0930 10:16:18.573122 30982 net.cpp:522] conv4_4_1 -> conv4_4_1
I0930 10:16:18.580036 30982 net.cpp:172] Setting up conv4_4_1
I0930 10:16:18.580062 30982 net.cpp:186] Top shape: 128 64 8 8 (524288)
I0930 10:16:18.580067 30982 net.cpp:194] Memory required for data: 1119355392
I0930 10:16:18.580077 30982 layer_factory.hpp:77] Creating layer conv4_4bn1
I0930 10:16:18.580088 30982 net.cpp:128] Creating Layer conv4_4bn1
I0930 10:16:18.580094 30982 net.cpp:558] conv4_4bn1 <- conv4_4_1
I0930 10:16:18.580101 30982 net.cpp:509] conv4_4bn1 -> conv4_4_1 (in-place)
I0930 10:16:18.580412 30982 net.cpp:172] Setting up conv4_4bn1
I0930 10:16:18.580425 30982 net.cpp:186] Top shape: 128 64 8 8 (524288)
I0930 10:16:18.580428 30982 net.cpp:194] Memory required for data: 1121452544
I0930 10:16:18.580438 30982 layer_factory.hpp:77] Creating layer conv4_4_scale1
I0930 10:16:18.580446 30982 net.cpp:128] Creating Layer conv4_4_scale1
I0930 10:16:18.580451 30982 net.cpp:558] conv4_4_scale1 <- conv4_4_1
I0930 10:16:18.580459 30982 net.cpp:509] conv4_4_scale1 -> conv4_4_1 (in-place)
I0930 10:16:18.580507 30982 layer_factory.hpp:77] Creating layer conv4_4_scale1
I0930 10:16:18.580674 30982 net.cpp:172] Setting up conv4_4_scale1
I0930 10:16:18.580685 30982 net.cpp:186] Top shape: 128 64 8 8 (524288)
I0930 10:16:18.580690 30982 net.cpp:194] Memory required for data: 1123549696
I0930 10:16:18.580698 30982 layer_factory.hpp:77] Creating layer conv4_Eltwise_4
I0930 10:16:18.580705 30982 net.cpp:128] Creating Layer conv4_Eltwise_4
I0930 10:16:18.580710 30982 net.cpp:558] conv4_Eltwise_4 <- conv4_Eltwise_3_conv4_3ReLU_1_0_split_1
I0930 10:16:18.580716 30982 net.cpp:558] conv4_Eltwise_4 <- conv4_4_1
I0930 10:16:18.580724 30982 net.cpp:522] conv4_Eltwise_4 -> conv4_Eltwise_4
I0930 10:16:18.580749 30982 net.cpp:172] Setting up conv4_Eltwise_4
I0930 10:16:18.580771 30982 net.cpp:186] Top shape: 128 64 8 8 (524288)
I0930 10:16:18.580775 30982 net.cpp:194] Memory required for data: 1125646848
I0930 10:16:18.580780 30982 layer_factory.hpp:77] Creating layer conv4_4ReLU_1
I0930 10:16:18.580786 30982 net.cpp:128] Creating Layer conv4_4ReLU_1
I0930 10:16:18.580790 30982 net.cpp:558] conv4_4ReLU_1 <- conv4_Eltwise_4
I0930 10:16:18.580799 30982 net.cpp:509] conv4_4ReLU_1 -> conv4_Eltwise_4 (in-place)
I0930 10:16:18.581897 30982 net.cpp:172] Setting up conv4_4ReLU_1
I0930 10:16:18.581915 30982 net.cpp:186] Top shape: 128 64 8 8 (524288)
I0930 10:16:18.581919 30982 net.cpp:194] Memory required for data: 1127744000
I0930 10:16:18.581924 30982 layer_factory.hpp:77] Creating layer conv4_Eltwise_4_conv4_4ReLU_1_0_split
I0930 10:16:18.581943 30982 net.cpp:128] Creating Layer conv4_Eltwise_4_conv4_4ReLU_1_0_split
I0930 10:16:18.581956 30982 net.cpp:558] conv4_Eltwise_4_conv4_4ReLU_1_0_split <- conv4_Eltwise_4
I0930 10:16:18.581964 30982 net.cpp:522] conv4_Eltwise_4_conv4_4ReLU_1_0_split -> conv4_Eltwise_4_conv4_4ReLU_1_0_split_0
I0930 10:16:18.581972 30982 net.cpp:522] conv4_Eltwise_4_conv4_4ReLU_1_0_split -> conv4_Eltwise_4_conv4_4ReLU_1_0_split_1
I0930 10:16:18.582033 30982 net.cpp:172] Setting up conv4_Eltwise_4_conv4_4ReLU_1_0_split
I0930 10:16:18.582041 30982 net.cpp:186] Top shape: 128 64 8 8 (524288)
I0930 10:16:18.582046 30982 net.cpp:186] Top shape: 128 64 8 8 (524288)
I0930 10:16:18.582051 30982 net.cpp:194] Memory required for data: 1131938304
I0930 10:16:18.582054 30982 layer_factory.hpp:77] Creating layer conv4_5_0
I0930 10:16:18.582067 30982 net.cpp:128] Creating Layer conv4_5_0
I0930 10:16:18.582072 30982 net.cpp:558] conv4_5_0 <- conv4_Eltwise_4_conv4_4ReLU_1_0_split_0
I0930 10:16:18.582082 30982 net.cpp:522] conv4_5_0 -> conv4_5_0
I0930 10:16:18.588678 30982 net.cpp:172] Setting up conv4_5_0
I0930 10:16:18.588704 30982 net.cpp:186] Top shape: 128 64 8 8 (524288)
I0930 10:16:18.588709 30982 net.cpp:194] Memory required for data: 1134035456
I0930 10:16:18.588718 30982 layer_factory.hpp:77] Creating layer conv4_5_bn0
I0930 10:16:18.588733 30982 net.cpp:128] Creating Layer conv4_5_bn0
I0930 10:16:18.588739 30982 net.cpp:558] conv4_5_bn0 <- conv4_5_0
I0930 10:16:18.588747 30982 net.cpp:509] conv4_5_bn0 -> conv4_5_0 (in-place)
I0930 10:16:18.589046 30982 net.cpp:172] Setting up conv4_5_bn0
I0930 10:16:18.589058 30982 net.cpp:186] Top shape: 128 64 8 8 (524288)
I0930 10:16:18.589062 30982 net.cpp:194] Memory required for data: 1136132608
I0930 10:16:18.589072 30982 layer_factory.hpp:77] Creating layer conv4_5_scale0
I0930 10:16:18.589082 30982 net.cpp:128] Creating Layer conv4_5_scale0
I0930 10:16:18.589087 30982 net.cpp:558] conv4_5_scale0 <- conv4_5_0
I0930 10:16:18.589092 30982 net.cpp:509] conv4_5_scale0 -> conv4_5_0 (in-place)
I0930 10:16:18.589139 30982 layer_factory.hpp:77] Creating layer conv4_5_scale0
I0930 10:16:18.589308 30982 net.cpp:172] Setting up conv4_5_scale0
I0930 10:16:18.589318 30982 net.cpp:186] Top shape: 128 64 8 8 (524288)
I0930 10:16:18.589323 30982 net.cpp:194] Memory required for data: 1138229760
I0930 10:16:18.589330 30982 layer_factory.hpp:77] Creating layer conv4_5_ReLU0
I0930 10:16:18.589339 30982 net.cpp:128] Creating Layer conv4_5_ReLU0
I0930 10:16:18.589344 30982 net.cpp:558] conv4_5_ReLU0 <- conv4_5_0
I0930 10:16:18.589349 30982 net.cpp:509] conv4_5_ReLU0 -> conv4_5_0 (in-place)
I0930 10:16:18.590750 30982 net.cpp:172] Setting up conv4_5_ReLU0
I0930 10:16:18.590770 30982 net.cpp:186] Top shape: 128 64 8 8 (524288)
I0930 10:16:18.590775 30982 net.cpp:194] Memory required for data: 1140326912
I0930 10:16:18.590778 30982 layer_factory.hpp:77] Creating layer conv4_5_1
I0930 10:16:18.590795 30982 net.cpp:128] Creating Layer conv4_5_1
I0930 10:16:18.590801 30982 net.cpp:558] conv4_5_1 <- conv4_5_0
I0930 10:16:18.590808 30982 net.cpp:522] conv4_5_1 -> conv4_5_1
I0930 10:16:18.597697 30982 net.cpp:172] Setting up conv4_5_1
I0930 10:16:18.597724 30982 net.cpp:186] Top shape: 128 64 8 8 (524288)
I0930 10:16:18.597728 30982 net.cpp:194] Memory required for data: 1142424064
I0930 10:16:18.597754 30982 layer_factory.hpp:77] Creating layer conv4_5bn1
I0930 10:16:18.597770 30982 net.cpp:128] Creating Layer conv4_5bn1
I0930 10:16:18.597776 30982 net.cpp:558] conv4_5bn1 <- conv4_5_1
I0930 10:16:18.597787 30982 net.cpp:509] conv4_5bn1 -> conv4_5_1 (in-place)
I0930 10:16:18.598119 30982 net.cpp:172] Setting up conv4_5bn1
I0930 10:16:18.598134 30982 net.cpp:186] Top shape: 128 64 8 8 (524288)
I0930 10:16:18.598137 30982 net.cpp:194] Memory required for data: 1144521216
I0930 10:16:18.598148 30982 layer_factory.hpp:77] Creating layer conv4_5_scale1
I0930 10:16:18.598155 30982 net.cpp:128] Creating Layer conv4_5_scale1
I0930 10:16:18.598160 30982 net.cpp:558] conv4_5_scale1 <- conv4_5_1
I0930 10:16:18.598168 30982 net.cpp:509] conv4_5_scale1 -> conv4_5_1 (in-place)
I0930 10:16:18.598213 30982 layer_factory.hpp:77] Creating layer conv4_5_scale1
I0930 10:16:18.598383 30982 net.cpp:172] Setting up conv4_5_scale1
I0930 10:16:18.598394 30982 net.cpp:186] Top shape: 128 64 8 8 (524288)
I0930 10:16:18.598398 30982 net.cpp:194] Memory required for data: 1146618368
I0930 10:16:18.598407 30982 layer_factory.hpp:77] Creating layer conv4_Eltwise_5
I0930 10:16:18.598413 30982 net.cpp:128] Creating Layer conv4_Eltwise_5
I0930 10:16:18.598418 30982 net.cpp:558] conv4_Eltwise_5 <- conv4_Eltwise_4_conv4_4ReLU_1_0_split_1
I0930 10:16:18.598423 30982 net.cpp:558] conv4_Eltwise_5 <- conv4_5_1
I0930 10:16:18.598431 30982 net.cpp:522] conv4_Eltwise_5 -> conv4_Eltwise_5
I0930 10:16:18.598455 30982 net.cpp:172] Setting up conv4_Eltwise_5
I0930 10:16:18.598462 30982 net.cpp:186] Top shape: 128 64 8 8 (524288)
I0930 10:16:18.598466 30982 net.cpp:194] Memory required for data: 1148715520
I0930 10:16:18.598470 30982 layer_factory.hpp:77] Creating layer conv4_5ReLU_1
I0930 10:16:18.598479 30982 net.cpp:128] Creating Layer conv4_5ReLU_1
I0930 10:16:18.598484 30982 net.cpp:558] conv4_5ReLU_1 <- conv4_Eltwise_5
I0930 10:16:18.598489 30982 net.cpp:509] conv4_5ReLU_1 -> conv4_Eltwise_5 (in-place)
I0930 10:16:18.599558 30982 net.cpp:172] Setting up conv4_5ReLU_1
I0930 10:16:18.599573 30982 net.cpp:186] Top shape: 128 64 8 8 (524288)
I0930 10:16:18.599578 30982 net.cpp:194] Memory required for data: 1150812672
I0930 10:16:18.599582 30982 layer_factory.hpp:77] Creating layer conv4_Eltwise_5_conv4_5ReLU_1_0_split
I0930 10:16:18.599592 30982 net.cpp:128] Creating Layer conv4_Eltwise_5_conv4_5ReLU_1_0_split
I0930 10:16:18.599597 30982 net.cpp:558] conv4_Eltwise_5_conv4_5ReLU_1_0_split <- conv4_Eltwise_5
I0930 10:16:18.599604 30982 net.cpp:522] conv4_Eltwise_5_conv4_5ReLU_1_0_split -> conv4_Eltwise_5_conv4_5ReLU_1_0_split_0
I0930 10:16:18.599612 30982 net.cpp:522] conv4_Eltwise_5_conv4_5ReLU_1_0_split -> conv4_Eltwise_5_conv4_5ReLU_1_0_split_1
I0930 10:16:18.599673 30982 net.cpp:172] Setting up conv4_Eltwise_5_conv4_5ReLU_1_0_split
I0930 10:16:18.599679 30982 net.cpp:186] Top shape: 128 64 8 8 (524288)
I0930 10:16:18.599685 30982 net.cpp:186] Top shape: 128 64 8 8 (524288)
I0930 10:16:18.599689 30982 net.cpp:194] Memory required for data: 1155006976
I0930 10:16:18.599694 30982 layer_factory.hpp:77] Creating layer conv4_6_0
I0930 10:16:18.599706 30982 net.cpp:128] Creating Layer conv4_6_0
I0930 10:16:18.599711 30982 net.cpp:558] conv4_6_0 <- conv4_Eltwise_5_conv4_5ReLU_1_0_split_0
I0930 10:16:18.599719 30982 net.cpp:522] conv4_6_0 -> conv4_6_0
I0930 10:16:18.606317 30982 net.cpp:172] Setting up conv4_6_0
I0930 10:16:18.606343 30982 net.cpp:186] Top shape: 128 64 8 8 (524288)
I0930 10:16:18.606348 30982 net.cpp:194] Memory required for data: 1157104128
I0930 10:16:18.606357 30982 layer_factory.hpp:77] Creating layer conv4_6_bn0
I0930 10:16:18.606369 30982 net.cpp:128] Creating Layer conv4_6_bn0
I0930 10:16:18.606375 30982 net.cpp:558] conv4_6_bn0 <- conv4_6_0
I0930 10:16:18.606384 30982 net.cpp:509] conv4_6_bn0 -> conv4_6_0 (in-place)
I0930 10:16:18.606684 30982 net.cpp:172] Setting up conv4_6_bn0
I0930 10:16:18.606695 30982 net.cpp:186] Top shape: 128 64 8 8 (524288)
I0930 10:16:18.606714 30982 net.cpp:194] Memory required for data: 1159201280
I0930 10:16:18.606724 30982 layer_factory.hpp:77] Creating layer conv4_6_scale0
I0930 10:16:18.606737 30982 net.cpp:128] Creating Layer conv4_6_scale0
I0930 10:16:18.606742 30982 net.cpp:558] conv4_6_scale0 <- conv4_6_0
I0930 10:16:18.606747 30982 net.cpp:509] conv4_6_scale0 -> conv4_6_0 (in-place)
I0930 10:16:18.606796 30982 layer_factory.hpp:77] Creating layer conv4_6_scale0
I0930 10:16:18.606966 30982 net.cpp:172] Setting up conv4_6_scale0
I0930 10:16:18.606976 30982 net.cpp:186] Top shape: 128 64 8 8 (524288)
I0930 10:16:18.606981 30982 net.cpp:194] Memory required for data: 1161298432
I0930 10:16:18.606988 30982 layer_factory.hpp:77] Creating layer conv4_6_ReLU0
I0930 10:16:18.606997 30982 net.cpp:128] Creating Layer conv4_6_ReLU0
I0930 10:16:18.607002 30982 net.cpp:558] conv4_6_ReLU0 <- conv4_6_0
I0930 10:16:18.607009 30982 net.cpp:509] conv4_6_ReLU0 -> conv4_6_0 (in-place)
I0930 10:16:18.608373 30982 net.cpp:172] Setting up conv4_6_ReLU0
I0930 10:16:18.608400 30982 net.cpp:186] Top shape: 128 64 8 8 (524288)
I0930 10:16:18.608405 30982 net.cpp:194] Memory required for data: 1163395584
I0930 10:16:18.608410 30982 layer_factory.hpp:77] Creating layer conv4_6_1
I0930 10:16:18.608423 30982 net.cpp:128] Creating Layer conv4_6_1
I0930 10:16:18.608429 30982 net.cpp:558] conv4_6_1 <- conv4_6_0
I0930 10:16:18.608443 30982 net.cpp:522] conv4_6_1 -> conv4_6_1
I0930 10:16:18.615341 30982 net.cpp:172] Setting up conv4_6_1
I0930 10:16:18.615365 30982 net.cpp:186] Top shape: 128 64 8 8 (524288)
I0930 10:16:18.615368 30982 net.cpp:194] Memory required for data: 1165492736
I0930 10:16:18.615380 30982 layer_factory.hpp:77] Creating layer conv4_6bn1
I0930 10:16:18.615394 30982 net.cpp:128] Creating Layer conv4_6bn1
I0930 10:16:18.615399 30982 net.cpp:558] conv4_6bn1 <- conv4_6_1
I0930 10:16:18.615408 30982 net.cpp:509] conv4_6bn1 -> conv4_6_1 (in-place)
I0930 10:16:18.615720 30982 net.cpp:172] Setting up conv4_6bn1
I0930 10:16:18.615732 30982 net.cpp:186] Top shape: 128 64 8 8 (524288)
I0930 10:16:18.615736 30982 net.cpp:194] Memory required for data: 1167589888
I0930 10:16:18.615746 30982 layer_factory.hpp:77] Creating layer conv4_6_scale1
I0930 10:16:18.615753 30982 net.cpp:128] Creating Layer conv4_6_scale1
I0930 10:16:18.615757 30982 net.cpp:558] conv4_6_scale1 <- conv4_6_1
I0930 10:16:18.615762 30982 net.cpp:509] conv4_6_scale1 -> conv4_6_1 (in-place)
I0930 10:16:18.615810 30982 layer_factory.hpp:77] Creating layer conv4_6_scale1
I0930 10:16:18.615985 30982 net.cpp:172] Setting up conv4_6_scale1
I0930 10:16:18.615996 30982 net.cpp:186] Top shape: 128 64 8 8 (524288)
I0930 10:16:18.616001 30982 net.cpp:194] Memory required for data: 1169687040
I0930 10:16:18.616008 30982 layer_factory.hpp:77] Creating layer conv4_Eltwise_6
I0930 10:16:18.616015 30982 net.cpp:128] Creating Layer conv4_Eltwise_6
I0930 10:16:18.616020 30982 net.cpp:558] conv4_Eltwise_6 <- conv4_Eltwise_5_conv4_5ReLU_1_0_split_1
I0930 10:16:18.616025 30982 net.cpp:558] conv4_Eltwise_6 <- conv4_6_1
I0930 10:16:18.616035 30982 net.cpp:522] conv4_Eltwise_6 -> conv4_Eltwise_6
I0930 10:16:18.616060 30982 net.cpp:172] Setting up conv4_Eltwise_6
I0930 10:16:18.616066 30982 net.cpp:186] Top shape: 128 64 8 8 (524288)
I0930 10:16:18.616070 30982 net.cpp:194] Memory required for data: 1171784192
I0930 10:16:18.616075 30982 layer_factory.hpp:77] Creating layer conv4_6ReLU_1
I0930 10:16:18.616083 30982 net.cpp:128] Creating Layer conv4_6ReLU_1
I0930 10:16:18.616088 30982 net.cpp:558] conv4_6ReLU_1 <- conv4_Eltwise_6
I0930 10:16:18.616093 30982 net.cpp:509] conv4_6ReLU_1 -> conv4_Eltwise_6 (in-place)
I0930 10:16:18.617193 30982 net.cpp:172] Setting up conv4_6ReLU_1
…
I0930 10:16:18.893524 30982 net.cpp:186] Top shape: 10 32 16 16 (81920)
I0930 10:16:18.893529 30982 net.cpp:194] Memory required for data: 75817080
I0930 10:16:18.893537 30982 layer_factory.hpp:77] Creating layer conv3_Eltwise_6
I0930 10:16:18.893546 30982 net.cpp:128] Creating Layer conv3_Eltwise_6
I0930 10:16:18.893551 30982 net.cpp:558] conv3_Eltwise_6 <- conv3_Eltwise_5_conv3_5ReLU_1_0_split_1
I0930 10:16:18.893558 30982 net.cpp:558] conv3_Eltwise_6 <- conv3_6_1
I0930 10:16:18.893563 30982 net.cpp:522] conv3_Eltwise_6 -> conv3_Eltwise_6
I0930 10:16:18.893592 30982 net.cpp:172] Setting up conv3_Eltwise_6
I0930 10:16:18.893599 30982 net.cpp:186] Top shape: 10 32 16 16 (81920)
I0930 10:16:18.893604 30982 net.cpp:194] Memory required for data: 76144760
I0930 10:16:18.893607 30982 layer_factory.hpp:77] Creating layer conv3_6ReLU_1
I0930 10:16:18.893615 30982 net.cpp:128] Creating Layer conv3_6ReLU_1
I0930 10:16:18.893618 30982 net.cpp:558] conv3_6ReLU_1 <- conv3_Eltwise_6
I0930 10:16:18.893623 30982 net.cpp:509] conv3_6ReLU_1 -> conv3_Eltwise_6 (in-place)
I0930 10:16:18.894850 30982 net.cpp:172] Setting up conv3_6ReLU_1
I0930 10:16:18.894866 30982 net.cpp:186] Top shape: 10 32 16 16 (81920)
I0930 10:16:18.894871 30982 net.cpp:194] Memory required for data: 76472440
I0930 10:16:18.894876 30982 layer_factory.hpp:77] Creating layer conv3_Eltwise_6_conv3_6ReLU_1_0_split
I0930 10:16:18.894901 30982 net.cpp:128] Creating Layer conv3_Eltwise_6_conv3_6ReLU_1_0_split
I0930 10:16:18.894907 30982 net.cpp:558] conv3_Eltwise_6_conv3_6ReLU_1_0_split <- conv3_Eltwise_6
I0930 10:16:18.894917 30982 net.cpp:522] conv3_Eltwise_6_conv3_6ReLU_1_0_split -> conv3_Eltwise_6_conv3_6ReLU_1_0_split_0
I0930 10:16:18.894925 30982 net.cpp:522] conv3_Eltwise_6_conv3_6ReLU_1_0_split -> conv3_Eltwise_6_conv3_6ReLU_1_0_split_1
I0930 10:16:18.894992 30982 net.cpp:172] Setting up conv3_Eltwise_6_conv3_6ReLU_1_0_split
I0930 10:16:18.895004 30982 net.cpp:186] Top shape: 10 32 16 16 (81920)
I0930 10:16:18.895009 30982 net.cpp:186] Top shape: 10 32 16 16 (81920)
I0930 10:16:18.895014 30982 net.cpp:194] Memory required for data: 77127800
I0930 10:16:18.895017 30982 layer_factory.hpp:77] Creating layer conv3_7_0
I0930 10:16:18.895035 30982 net.cpp:128] Creating Layer conv3_7_0
I0930 10:16:18.895041 30982 net.cpp:558] conv3_7_0 <- conv3_Eltwise_6_conv3_6ReLU_1_0_split_0
I0930 10:16:18.895048 30982 net.cpp:522] conv3_7_0 -> conv3_7_0
I0930 10:16:18.901823 30982 net.cpp:172] Setting up conv3_7_0
I0930 10:16:18.901849 30982 net.cpp:186] Top shape: 10 32 16 16 (81920)
I0930 10:16:18.901854 30982 net.cpp:194] Memory required for data: 77455480
I0930 10:16:18.901865 30982 layer_factory.hpp:77] Creating layer conv3_7_bn0
I0930 10:16:18.901873 30982 net.cpp:128] Creating Layer conv3_7_bn0
I0930 10:16:18.901878 30982 net.cpp:558] conv3_7_bn0 <- conv3_7_0
I0930 10:16:18.901892 30982 net.cpp:509] conv3_7_bn0 -> conv3_7_0 (in-place)
I0930 10:16:18.902251 30982 net.cpp:172] Setting up conv3_7_bn0
I0930 10:16:18.902263 30982 net.cpp:186] Top shape: 10 32 16 16 (81920)
I0930 10:16:18.902268 30982 net.cpp:194] Memory required for data: 77783160
I0930 10:16:18.902278 30982 layer_factory.hpp:77] Creating layer conv3_7_scale0
I0930 10:16:18.902285 30982 net.cpp:128] Creating Layer conv3_7_scale0
I0930 10:16:18.902290 30982 net.cpp:558] conv3_7_scale0 <- conv3_7_0
I0930 10:16:18.902298 30982 net.cpp:509] conv3_7_scale0 -> conv3_7_0 (in-place)
I0930 10:16:18.902356 30982 layer_factory.hpp:77] Creating layer conv3_7_scale0
I0930 10:16:18.902545 30982 net.cpp:172] Setting up conv3_7_scale0
I0930 10:16:18.902556 30982 net.cpp:186] Top shape: 10 32 16 16 (81920)
I0930 10:16:18.902560 30982 net.cpp:194] Memory required for data: 78110840
I0930 10:16:18.902568 30982 layer_factory.hpp:77] Creating layer conv3_7_ReLU0
I0930 10:16:18.902575 30982 net.cpp:128] Creating Layer conv3_7_ReLU0
I0930 10:16:18.902580 30982 net.cpp:558] conv3_7_ReLU0 <- conv3_7_0
I0930 10:16:18.902585 30982 net.cpp:509] conv3_7_ReLU0 -> conv3_7_0 (in-place)
I0930 10:16:18.903657 30982 net.cpp:172] Setting up conv3_7_ReLU0
I0930 10:16:18.903679 30982 net.cpp:186] Top shape: 10 32 16 16 (81920)
I0930 10:16:18.903684 30982 net.cpp:194] Memory required for data: 78438520
I0930 10:16:18.903689 30982 layer_factory.hpp:77] Creating layer conv3_7_1
I0930 10:16:18.903709 30982 net.cpp:128] Creating Layer conv3_7_1
I0930 10:16:18.903715 30982 net.cpp:558] conv3_7_1 <- conv3_7_0
I0930 10:16:18.903723 30982 net.cpp:522] conv3_7_1 -> conv3_7_1
I0930 10:16:18.910434 30982 net.cpp:172] Setting up conv3_7_1
I0930 10:16:18.910460 30982 net.cpp:186] Top shape: 10 32 16 16 (81920)
I0930 10:16:18.910465 30982 net.cpp:194] Memory required for data: 78766200
I0930 10:16:18.910475 30982 layer_factory.hpp:77] Creating layer conv3_7bn1
I0930 10:16:18.910486 30982 net.cpp:128] Creating Layer conv3_7bn1
I0930 10:16:18.910492 30982 net.cpp:558] conv3_7bn1 <- conv3_7_1
I0930 10:16:18.910502 30982 net.cpp:509] conv3_7bn1 -> conv3_7_1 (in-place)
I0930 10:16:18.910841 30982 net.cpp:172] Setting up conv3_7bn1
I0930 10:16:18.910853 30982 net.cpp:186] Top shape: 10 32 16 16 (81920)
I0930 10:16:18.910857 30982 net.cpp:194] Memory required for data: 79093880
I0930 10:16:18.910867 30982 layer_factory.hpp:77] Creating layer conv3_7_scale1
I0930 10:16:18.910877 30982 net.cpp:128] Creating Layer conv3_7_scale1
I0930 10:16:18.910882 30982 net.cpp:558] conv3_7_scale1 <- conv3_7_1
I0930 10:16:18.910888 30982 net.cpp:509] conv3_7_scale1 -> conv3_7_1 (in-place)
I0930 10:16:18.910966 30982 layer_factory.hpp:77] Creating layer conv3_7_scale1
I0930 10:16:18.911159 30982 net.cpp:172] Setting up conv3_7_scale1
I0930 10:16:18.911175 30982 net.cpp:186] Top shape: 10 32 16 16 (81920)
I0930 10:16:18.911180 30982 net.cpp:194] Memory required for data: 79421560
I0930 10:16:18.911187 30982 layer_factory.hpp:77] Creating layer conv3_Eltwise_7
I0930 10:16:18.911197 30982 net.cpp:128] Creating Layer conv3_Eltwise_7
I0930 10:16:18.911202 30982 net.cpp:558] conv3_Eltwise_7 <- conv3_Eltwise_6_conv3_6ReLU_1_0_split_1
I0930 10:16:18.911208 30982 net.cpp:558] conv3_Eltwise_7 <- conv3_7_1
I0930 10:16:18.911214 30982 net.cpp:522] conv3_Eltwise_7 -> conv3_Eltwise_7
I0930 10:16:18.911245 30982 net.cpp:172] Setting up conv3_Eltwise_7
I0930 10:16:18.911255 30982 net.cpp:186] Top shape: 10 32 16 16 (81920)
I0930 10:16:18.911259 30982 net.cpp:194] Memory required for data: 79749240
I0930 10:16:18.911264 30982 layer_factory.hpp:77] Creating layer conv3_7ReLU_1
I0930 10:16:18.911270 30982 net.cpp:128] Creating Layer conv3_7ReLU_1
I0930 10:16:18.911274 30982 net.cpp:558] conv3_7ReLU_1 <- conv3_Eltwise_7
I0930 10:16:18.911280 30982 net.cpp:509] conv3_7ReLU_1 -> conv3_Eltwise_7 (in-place)
I0930 10:16:18.912456 30982 net.cpp:172] Setting up conv3_7ReLU_1
I0930 10:16:18.912472 30982 net.cpp:186] Top shape: 10 32 16 16 (81920)
I0930 10:16:18.912475 30982 net.cpp:194] Memory required for data: 80076920
I0930 10:16:18.912480 30982 layer_factory.hpp:77] Creating layer conv3_Eltwise_7_conv3_7ReLU_1_0_split
I0930 10:16:18.912487 30982 net.cpp:128] Creating Layer conv3_Eltwise_7_conv3_7ReLU_1_0_split
I0930 10:16:18.912492 30982 net.cpp:558] conv3_Eltwise_7_conv3_7ReLU_1_0_split <- conv3_Eltwise_7
I0930 10:16:18.912503 30982 net.cpp:522] conv3_Eltwise_7_conv3_7ReLU_1_0_split -> conv3_Eltwise_7_conv3_7ReLU_1_0_split_0
I0930 10:16:18.912511 30982 net.cpp:522] conv3_Eltwise_7_conv3_7ReLU_1_0_split -> conv3_Eltwise_7_conv3_7ReLU_1_0_split_1
I0930 10:16:18.912575 30982 net.cpp:172] Setting up conv3_Eltwise_7_conv3_7ReLU_1_0_split
I0930 10:16:18.912582 30982 net.cpp:186] Top shape: 10 32 16 16 (81920)
I0930 10:16:18.912587 30982 net.cpp:186] Top shape: 10 32 16 16 (81920)
I0930 10:16:18.912591 30982 net.cpp:194] Memory required for data: 80732280
I0930 10:16:18.912595 30982 layer_factory.hpp:77] Creating layer conv4_1_0
I0930 10:16:18.912611 30982 net.cpp:128] Creating Layer conv4_1_0
I0930 10:16:18.912616 30982 net.cpp:558] conv4_1_0 <- conv3_Eltwise_7_conv3_7ReLU_1_0_split_0
I0930 10:16:18.912626 30982 net.cpp:522] conv4_1_0 -> conv4_1_0
I0930 10:16:18.919287 30982 net.cpp:172] Setting up conv4_1_0
I0930 10:16:18.919313 30982 net.cpp:186] Top shape: 10 64 8 8 (40960)
I0930 10:16:18.919318 30982 net.cpp:194] Memory required for data: 80896120
I0930 10:16:18.919328 30982 layer_factory.hpp:77] Creating layer conv4_1_bn0
I0930 10:16:18.919340 30982 net.cpp:128] Creating Layer conv4_1_bn0
I0930 10:16:18.919345 30982 net.cpp:558] conv4_1_bn0 <- conv4_1_0
I0930 10:16:18.919353 30982 net.cpp:509] conv4_1_bn0 -> conv4_1_0 (in-place)
I0930 10:16:18.919705 30982 net.cpp:172] Setting up conv4_1_bn0
I0930 10:16:18.919718 30982 net.cpp:186] Top shape: 10 64 8 8 (40960)
I0930 10:16:18.919721 30982 net.cpp:194] Memory required for data: 81059960
I0930 10:16:18.919731 30982 layer_factory.hpp:77] Creating layer conv4_1_scale0
I0930 10:16:18.919739 30982 net.cpp:128] Creating Layer conv4_1_scale0
I0930 10:16:18.919744 30982 net.cpp:558] conv4_1_scale0 <- conv4_1_0
I0930 10:16:18.919749 30982 net.cpp:509] conv4_1_scale0 -> conv4_1_0 (in-place)
I0930 10:16:18.919811 30982 layer_factory.hpp:77] Creating layer conv4_1_scale0
I0930 10:16:18.920006 30982 net.cpp:172] Setting up conv4_1_scale0
I0930 10:16:18.920019 30982 net.cpp:186] Top shape: 10 64 8 8 (40960)
I0930 10:16:18.920024 30982 net.cpp:194] Memory required for data: 81223800
I0930 10:16:18.920032 30982 layer_factory.hpp:77] Creating layer conv4_1_ReLU0
I0930 10:16:18.920038 30982 net.cpp:128] Creating Layer conv4_1_ReLU0
I0930 10:16:18.920042 30982 net.cpp:558] conv4_1_ReLU0 <- conv4_1_0
I0930 10:16:18.920064 30982 net.cpp:509] conv4_1_ReLU0 -> conv4_1_0 (in-place)
I0930 10:16:18.921298 30982 net.cpp:172] Setting up conv4_1_ReLU0
I0930 10:16:18.921316 30982 net.cpp:186] Top shape: 10 64 8 8 (40960)
I0930 10:16:18.921321 30982 net.cpp:194] Memory required for data: 81387640
I0930 10:16:18.921330 30982 layer_factory.hpp:77] Creating layer conv4_1_1
I0930 10:16:18.921344 30982 net.cpp:128] Creating Layer conv4_1_1
I0930 10:16:18.921350 30982 net.cpp:558] conv4_1_1 <- conv4_1_0
I0930 10:16:18.921360 30982 net.cpp:522] conv4_1_1 -> conv4_1_1
I0930 10:16:18.928117 30982 net.cpp:172] Setting up conv4_1_1
I0930 10:16:18.928145 30982 net.cpp:186] Top shape: 10 64 8 8 (40960)
I0930 10:16:18.928149 30982 net.cpp:194] Memory required for data: 81551480
I0930 10:16:18.928159 30982 layer_factory.hpp:77] Creating layer conv4_1bn1
I0930 10:16:18.928169 30982 net.cpp:128] Creating Layer conv4_1bn1
I0930 10:16:18.928174 30982 net.cpp:558] conv4_1bn1 <- conv4_1_1
I0930 10:16:18.928182 30982 net.cpp:509] conv4_1bn1 -> conv4_1_1 (in-place)
I0930 10:16:18.928531 30982 net.cpp:172] Setting up conv4_1bn1
I0930 10:16:18.928544 30982 net.cpp:186] Top shape: 10 64 8 8 (40960)
I0930 10:16:18.928547 30982 net.cpp:194] Memory required for data: 81715320
I0930 10:16:18.928557 30982 layer_factory.hpp:77] Creating layer conv4_1_scale1
I0930 10:16:18.928565 30982 net.cpp:128] Creating Layer conv4_1_scale1
I0930 10:16:18.928570 30982 net.cpp:558] conv4_1_scale1 <- conv4_1_1
I0930 10:16:18.928577 30982 net.cpp:509] conv4_1_scale1 -> conv4_1_1 (in-place)
I0930 10:16:18.928637 30982 layer_factory.hpp:77] Creating layer conv4_1_scale1
I0930 10:16:18.928831 30982 net.cpp:172] Setting up conv4_1_scale1
I0930 10:16:18.928843 30982 net.cpp:186] Top shape: 10 64 8 8 (40960)
I0930 10:16:18.928848 30982 net.cpp:194] Memory required for data: 81879160
I0930 10:16:18.928855 30982 layer_factory.hpp:77] Creating layer conv4_1_down
I0930 10:16:18.928870 30982 net.cpp:128] Creating Layer conv4_1_down
I0930 10:16:18.928875 30982 net.cpp:558] conv4_1_down <- conv3_Eltwise_7_conv3_7ReLU_1_0_split_1
I0930 10:16:18.928882 30982 net.cpp:522] conv4_1_down -> conv4_1_down
I0930 10:16:18.934767 30982 net.cpp:172] Setting up conv4_1_down
I0930 10:16:18.934793 30982 net.cpp:186] Top shape: 10 64 8 8 (40960)
I0930 10:16:18.934798 30982 net.cpp:194] Memory required for data: 82043000
I0930 10:16:18.934808 30982 layer_factory.hpp:77] Creating layer conv4_1_bn_down
I0930 10:16:18.934819 30982 net.cpp:128] Creating Layer conv4_1_bn_down
I0930 10:16:18.934825 30982 net.cpp:558] conv4_1_bn_down <- conv4_1_down
I0930 10:16:18.934834 30982 net.cpp:509] conv4_1_bn_down -> conv4_1_down (in-place)
I0930 10:16:18.935186 30982 net.cpp:172] Setting up conv4_1_bn_down
I0930 10:16:18.935199 30982 net.cpp:186] Top shape: 10 64 8 8 (40960)
I0930 10:16:18.935204 30982 net.cpp:194] Memory required for data: 82206840
I0930 10:16:18.935212 30982 layer_factory.hpp:77] Creating layer conv4_1_scale_down
I0930 10:16:18.935220 30982 net.cpp:128] Creating Layer conv4_1_scale_down
I0930 10:16:18.935225 30982 net.cpp:558] conv4_1_scale_down <- conv4_1_down
I0930 10:16:18.935230 30982 net.cpp:509] conv4_1_scale_down -> conv4_1_down (in-place)
I0930 10:16:18.935293 30982 layer_factory.hpp:77] Creating layer conv4_1_scale_down
I0930 10:16:18.935487 30982 net.cpp:172] Setting up conv4_1_scale_down
I0930 10:16:18.935498 30982 net.cpp:186] Top shape: 10 64 8 8 (40960)
I0930 10:16:18.935503 30982 net.cpp:194] Memory required for data: 82370680
I0930 10:16:18.935511 30982 layer_factory.hpp:77] Creating layer conv4_Eltwise_1
I0930 10:16:18.935520 30982 net.cpp:128] Creating Layer conv4_Eltwise_1
I0930 10:16:18.935525 30982 net.cpp:558] conv4_Eltwise_1 <- conv4_1_1
I0930 10:16:18.935529 30982 net.cpp:558] conv4_Eltwise_1 <- conv4_1_down
I0930 10:16:18.935535 30982 net.cpp:522] conv4_Eltwise_1 -> conv4_Eltwise_1
I0930 10:16:18.935570 30982 net.cpp:172] Setting up conv4_Eltwise_1
I0930 10:16:18.935577 30982 net.cpp:186] Top shape: 10 64 8 8 (40960)
I0930 10:16:18.935581 30982 net.cpp:194] Memory required for data: 82534520
I0930 10:16:18.935601 30982 layer_factory.hpp:77] Creating layer conv4_1ReLU_1
I0930 10:16:18.935608 30982 net.cpp:128] Creating Layer conv4_1ReLU_1
I0930 10:16:18.935612 30982 net.cpp:558] conv4_1ReLU_1 <- conv4_Eltwise_1
I0930 10:16:18.935617 30982 net.cpp:509] conv4_1ReLU_1 -> conv4_Eltwise_1 (in-place)
I0930 10:16:18.936764 30982 net.cpp:172] Setting up conv4_1ReLU_1
I0930 10:16:18.936787 30982 net.cpp:186] Top shape: 10 64 8 8 (40960)
I0930 10:16:18.936792 30982 net.cpp:194] Memory required for data: 82698360
I0930 10:16:18.936799 30982 layer_factory.hpp:77] Creating layer conv4_Eltwise_1_conv4_1ReLU_1_0_split
I0930 10:16:18.936806 30982 net.cpp:128] Creating Layer conv4_Eltwise_1_conv4_1ReLU_1_0_split
I0930 10:16:18.936811 30982 net.cpp:558] conv4_Eltwise_1_conv4_1ReLU_1_0_split <- conv4_Eltwise_1
I0930 10:16:18.936821 30982 net.cpp:522] conv4_Eltwise_1_conv4_1ReLU_1_0_split -> conv4_Eltwise_1_conv4_1ReLU_1_0_split_0
I0930 10:16:18.936830 30982 net.cpp:522] conv4_Eltwise_1_conv4_1ReLU_1_0_split -> conv4_Eltwise_1_conv4_1ReLU_1_0_split_1
I0930 10:16:18.936899 30982 net.cpp:172] Setting up conv4_Eltwise_1_conv4_1ReLU_1_0_split
I0930 10:16:18.936908 30982 net.cpp:186] Top shape: 10 64 8 8 (40960)
I0930 10:16:18.936913 30982 net.cpp:186] Top shape: 10 64 8 8 (40960)
I0930 10:16:18.936916 30982 net.cpp:194] Memory required for data: 83026040
I0930 10:16:18.936920 30982 layer_factory.hpp:77] Creating layer conv4_2_0
I0930 10:16:18.936933 30982 net.cpp:128] Creating Layer conv4_2_0
I0930 10:16:18.936939 30982 net.cpp:558] conv4_2_0 <- conv4_Eltwise_1_conv4_1ReLU_1_0_split_0
I0930 10:16:18.936947 30982 net.cpp:522] conv4_2_0 -> conv4_2_0
I0930 10:16:18.943765 30982 net.cpp:172] Setting up conv4_2_0
I0930 10:16:18.943791 30982 net.cpp:186] Top shape: 10 64 8 8 (40960)
I0930 10:16:18.943795 30982 net.cpp:194] Memory required for data: 83189880
I0930 10:16:18.943805 30982 layer_factory.hpp:77] Creating layer conv4_2_bn0
I0930 10:16:18.943816 30982 net.cpp:128] Creating Layer conv4_2_bn0
I0930 10:16:18.943822 30982 net.cpp:558] conv4_2_bn0 <- conv4_2_0
I0930 10:16:18.943833 30982 net.cpp:509] conv4_2_bn0 -> conv4_2_0 (in-place)
I0930 10:16:18.944193 30982 net.cpp:172] Setting up conv4_2_bn0
I0930 10:16:18.944207 30982 net.cpp:186] Top shape: 10 64 8 8 (40960)
I0930 10:16:18.944211 30982 net.cpp:194] Memory required for data: 83353720
I0930 10:16:18.944221 30982 layer_factory.hpp:77] Creating layer conv4_2_scale0
I0930 10:16:18.944231 30982 net.cpp:128] Creating Layer conv4_2_scale0
I0930 10:16:18.944236 30982 net.cpp:558] conv4_2_scale0 <- conv4_2_0
I0930 10:16:18.944247 30982 net.cpp:509] conv4_2_scale0 -> conv4_2_0 (in-place)
I0930 10:16:18.944314 30982 layer_factory.hpp:77] Creating layer conv4_2_scale0
I0930 10:16:18.944517 30982 net.cpp:172] Setting up conv4_2_scale0
I0930 10:16:18.944528 30982 net.cpp:186] Top shape: 10 64 8 8 (40960)
I0930 10:16:18.944532 30982 net.cpp:194] Memory required for data: 83517560
I0930 10:16:18.944540 30982 layer_factory.hpp:77] Creating layer conv4_2_ReLU0
I0930 10:16:18.944547 30982 net.cpp:128] Creating Layer conv4_2_ReLU0
I0930 10:16:18.944552 30982 net.cpp:558] conv4_2_ReLU0 <- conv4_2_0
I0930 10:16:18.944559 30982 net.cpp:509] conv4_2_ReLU0 -> conv4_2_0 (in-place)
I0930 10:16:18.944830 30982 net.cpp:172] Setting up conv4_2_ReLU0
I0930 10:16:18.944846 30982 net.cpp:186] Top shape: 10 64 8 8 (40960)
I0930 10:16:18.944850 30982 net.cpp:194] Memory required for data: 83681400
I0930 10:16:18.944855 30982 layer_factory.hpp:77] Creating layer conv4_2_1
I0930 10:16:18.944869 30982 net.cpp:128] Creating Layer conv4_2_1
I0930 10:16:18.944874 30982 net.cpp:558] conv4_2_1 <- conv4_2_0
I0930 10:16:18.944887 30982 net.cpp:522] conv4_2_1 -> conv4_2_1
I0930 10:16:18.951150 30982 net.cpp:172] Setting up conv4_2_1
I0930 10:16:18.951177 30982 net.cpp:186] Top shape: 10 64 8 8 (40960)
I0930 10:16:18.951181 30982 net.cpp:194] Memory required for data: 83845240
I0930 10:16:18.951192 30982 layer_factory.hpp:77] Creating layer conv4_2bn1
I0930 10:16:18.951203 30982 net.cpp:128] Creating Layer conv4_2bn1
I0930 10:16:18.951228 30982 net.cpp:558] conv4_2bn1 <- conv4_2_1
I0930 10:16:18.951238 30982 net.cpp:509] conv4_2bn1 -> conv4_2_1 (in-place)
I0930 10:16:18.951599 30982 net.cpp:172] Setting up conv4_2bn1
I0930 10:16:18.951613 30982 net.cpp:186] Top shape: 10 64 8 8 (40960)
I0930 10:16:18.951617 30982 net.cpp:194] Memory required for data: 84009080
I0930 10:16:18.951628 30982 layer_factory.hpp:77] Creating layer conv4_2_scale1
I0930 10:16:18.951635 30982 net.cpp:128] Creating Layer conv4_2_scale1
I0930 10:16:18.951639 30982 net.cpp:558] conv4_2_scale1 <- conv4_2_1
I0930 10:16:18.951645 30982 net.cpp:509] conv4_2_scale1 -> conv4_2_1 (in-place)
I0930 10:16:18.951710 30982 layer_factory.hpp:77] Creating layer conv4_2_scale1
I0930 10:16:18.951906 30982 net.cpp:172] Setting up conv4_2_scale1
I0930 10:16:18.951918 30982 net.cpp:186] Top shape: 10 64 8 8 (40960)
I0930 10:16:18.951922 30982 net.cpp:194] Memory required for data: 84172920
I0930 10:16:18.951930 30982 layer_factory.hpp:77] Creating layer conv4_Eltwise_2
I0930 10:16:18.951941 30982 net.cpp:128] Creating Layer conv4_Eltwise_2
I0930 10:16:18.951946 30982 net.cpp:558] conv4_Eltwise_2 <- conv4_Eltwise_1_conv4_1ReLU_1_0_split_1
I0930 10:16:18.951951 30982 net.cpp:558] conv4_Eltwise_2 <- conv4_2_1
I0930 10:16:18.951958 30982 net.cpp:522] conv4_Eltwise_2 -> conv4_Eltwise_2
I0930 10:16:18.951994 30982 net.cpp:172] Setting up conv4_Eltwise_2
I0930 10:16:18.952005 30982 net.cpp:186] Top shape: 10 64 8 8 (40960)
I0930 10:16:18.952009 30982 net.cpp:194] Memory required for data: 84336760
I0930 10:16:18.952013 30982 layer_factory.hpp:77] Creating layer conv4_2ReLU_1
I0930 10:16:18.952020 30982 net.cpp:128] Creating Layer conv4_2ReLU_1
I0930 10:16:18.952024 30982 net.cpp:558] conv4_2ReLU_1 <- conv4_Eltwise_2
I0930 10:16:18.952030 30982 net.cpp:509] conv4_2ReLU_1 -> conv4_Eltwise_2 (in-place)
I0930 10:16:18.953399 30982 net.cpp:172] Setting up conv4_2ReLU_1
I0930 10:16:18.953421 30982 net.cpp:186] Top shape: 10 64 8 8 (40960)
I0930 10:16:18.953425 30982 net.cpp:194] Memory required for data: 84500600
I0930 10:16:18.953430 30982 layer_factory.hpp:77] Creating layer conv4_Eltwise_2_conv4_2ReLU_1_0_split
I0930 10:16:18.953441 30982 net.cpp:128] Creating Layer conv4_Eltwise_2_conv4_2ReLU_1_0_split
I0930 10:16:18.953449 30982 net.cpp:558] conv4_Eltwise_2_conv4_2ReLU_1_0_split <- conv4_Eltwise_2
I0930 10:16:18.953455 30982 net.cpp:522] conv4_Eltwise_2_conv4_2ReLU_1_0_split -> conv4_Eltwise_2_conv4_2ReLU_1_0_split_0
I0930 10:16:18.953467 30982 net.cpp:522] conv4_Eltwise_2_conv4_2ReLU_1_0_split -> conv4_Eltwise_2_conv4_2ReLU_1_0_split_1
I0930 10:16:18.953542 30982 net.cpp:172] Setting up conv4_Eltwise_2_conv4_2ReLU_1_0_split
I0930 10:16:18.953555 30982 net.cpp:186] Top shape: 10 64 8 8 (40960)
I0930 10:16:18.953562 30982 net.cpp:186] Top shape: 10 64 8 8 (40960)
I0930 10:16:18.953567 30982 net.cpp:194] Memory required for data: 84828280
I0930 10:16:18.953570 30982 layer_factory.hpp:77] Creating layer conv4_3_0
I0930 10:16:18.953583 30982 net.cpp:128] Creating Layer conv4_3_0
I0930 10:16:18.953588 30982 net.cpp:558] conv4_3_0 <- conv4_Eltwise_2_conv4_2ReLU_1_0_split_0
I0930 10:16:18.953599 30982 net.cpp:522] conv4_3_0 -> conv4_3_0
I0930 10:16:18.960211 30982 net.cpp:172] Setting up conv4_3_0
I0930 10:16:18.960234 30982 net.cpp:186] Top shape: 10 64 8 8 (40960)
I0930 10:16:18.960238 30982 net.cpp:194] Memory required for data: 84992120
I0930 10:16:18.960249 30982 layer_factory.hpp:77] Creating layer conv4_3_bn0
I0930 10:16:18.960261 30982 net.cpp:128] Creating Layer conv4_3_bn0
I0930 10:16:18.960266 30982 net.cpp:558] conv4_3_bn0 <- conv4_3_0
I0930 10:16:18.960275 30982 net.cpp:509] conv4_3_bn0 -> conv4_3_0 (in-place)
I0930 10:16:18.960645 30982 net.cpp:172] Setting up conv4_3_bn0
I0930 10:16:18.960654 30982 net.cpp:186] Top shape: 10 64 8 8 (40960)
I0930 10:16:18.960657 30982 net.cpp:194] Memory required for data: 85155960
I0930 10:16:18.960667 30982 layer_factory.hpp:77] Creating layer conv4_3_scale0
I0930 10:16:18.960680 30982 net.cpp:128] Creating Layer conv4_3_scale0
I0930 10:16:18.960705 30982 net.cpp:558] conv4_3_scale0 <- conv4_3_0
I0930 10:16:18.960712 30982 net.cpp:509] conv4_3_scale0 -> conv4_3_0 (in-place)
I0930 10:16:18.960779 30982 layer_factory.hpp:77] Creating layer conv4_3_scale0
I0930 10:16:18.960988 30982 net.cpp:172] Setting up conv4_3_scale0
I0930 10:16:18.960999 30982 net.cpp:186] Top shape: 10 64 8 8 (40960)
I0930 10:16:18.961004 30982 net.cpp:194] Memory required for data: 85319800
I0930 10:16:18.961012 30982 layer_factory.hpp:77] Creating layer conv4_3_ReLU0
I0930 10:16:18.961025 30982 net.cpp:128] Creating Layer conv4_3_ReLU0
I0930 10:16:18.961036 30982 net.cpp:558] conv4_3_ReLU0 <- conv4_3_0
I0930 10:16:18.961042 30982 net.cpp:509] conv4_3_ReLU0 -> conv4_3_0 (in-place)
I0930 10:16:18.962029 30982 net.cpp:172] Setting up conv4_3_ReLU0
I0930 10:16:18.962045 30982 net.cpp:186] Top shape: 10 64 8 8 (40960)
I0930 10:16:18.962050 30982 net.cpp:194] Memory required for data: 85483640
I0930 10:16:18.962055 30982 layer_factory.hpp:77] Creating layer conv4_3_1
I0930 10:16:18.962070 30982 net.cpp:128] Creating Layer conv4_3_1
I0930 10:16:18.962079 30982 net.cpp:558] conv4_3_1 <- conv4_3_0
I0930 10:16:18.962088 30982 net.cpp:522] conv4_3_1 -> conv4_3_1
I0930 10:16:18.968886 30982 net.cpp:172] Setting up conv4_3_1
I0930 10:16:18.968925 30982 net.cpp:186] Top shape: 10 64 8 8 (40960)
I0930 10:16:18.968930 30982 net.cpp:194] Memory required for data: 85647480
I0930 10:16:18.968945 30982 layer_factory.hpp:77] Creating layer conv4_3bn1
I0930 10:16:18.968960 30982 net.cpp:128] Creating Layer conv4_3bn1
I0930 10:16:18.968971 30982 net.cpp:558] conv4_3bn1 <- conv4_3_1
I0930 10:16:18.968981 30982 net.cpp:509] conv4_3bn1 -> conv4_3_1 (in-place)
I0930 10:16:18.969357 30982 net.cpp:172] Setting up conv4_3bn1
I0930 10:16:18.969368 30982 net.cpp:186] Top shape: 10 64 8 8 (40960)
I0930 10:16:18.969372 30982 net.cpp:194] Memory required for data: 85811320
I0930 10:16:18.969408 30982 layer_factory.hpp:77] Creating layer conv4_3_scale1
I0930 10:16:18.969419 30982 net.cpp:128] Creating Layer conv4_3_scale1
I0930 10:16:18.969425 30982 net.cpp:558] conv4_3_scale1 <- conv4_3_1
I0930 10:16:18.969431 30982 net.cpp:509] conv4_3_scale1 -> conv4_3_1 (in-place)
I0930 10:16:18.969507 30982 layer_factory.hpp:77] Creating layer conv4_3_scale1
I0930 10:16:18.969714 30982 net.cpp:172] Setting up conv4_3_scale1
I0930 10:16:18.969727 30982 net.cpp:186] Top shape: 10 64 8 8 (40960)
I0930 10:16:18.969730 30982 net.cpp:194] Memory required for data: 85975160
I0930 10:16:18.969738 30982 layer_factory.hpp:77] Creating layer conv4_Eltwise_3
I0930 10:16:18.969753 30982 net.cpp:128] Creating Layer conv4_Eltwise_3
I0930 10:16:18.969758 30982 net.cpp:558] conv4_Eltwise_3 <- conv4_Eltwise_2_conv4_2ReLU_1_0_split_1
I0930 10:16:18.969769 30982 net.cpp:558] conv4_Eltwise_3 <- conv4_3_1
I0930 10:16:18.969779 30982 net.cpp:522] conv4_Eltwise_3 -> conv4_Eltwise_3
I0930 10:16:18.969820 30982 net.cpp:172] Setting up conv4_Eltwise_3
I0930 10:16:18.969830 30982 net.cpp:186] Top shape: 10 64 8 8 (40960)
I0930 10:16:18.969833 30982 net.cpp:194] Memory required for data: 86139000
I0930 10:16:18.969837 30982 layer_factory.hpp:77] Creating layer conv4_3ReLU_1
I0930 10:16:18.969846 30982 net.cpp:128] Creating Layer conv4_3ReLU_1
I0930 10:16:18.969853 30982 net.cpp:558] conv4_3ReLU_1 <- conv4_Eltwise_3
I0930 10:16:18.969859 30982 net.cpp:509] conv4_3ReLU_1 -> conv4_Eltwise_3 (in-place)
I0930 10:16:18.970870 30982 net.cpp:172] Setting up conv4_3ReLU_1
I0930 10:16:18.970896 30982 net.cpp:186] Top shape: 10 64 8 8 (40960)
I0930 10:16:18.970901 30982 net.cpp:194] Memory required for data: 86302840
I0930 10:16:18.970906 30982 layer_factory.hpp:77] Creating layer conv4_Eltwise_3_conv4_3ReLU_1_0_split
I0930 10:16:18.970918 30982 net.cpp:128] Creating Layer conv4_Eltwise_3_conv4_3ReLU_1_0_split
I0930 10:16:18.970924 30982 net.cpp:558] conv4_Eltwise_3_conv4_3ReLU_1_0_split <- conv4_Eltwise_3
I0930 10:16:18.970934 30982 net.cpp:522] conv4_Eltwise_3_conv4_3ReLU_1_0_split -> conv4_Eltwise_3_conv4_3ReLU_1_0_split_0
I0930 10:16:18.970968 30982 net.cpp:522] conv4_Eltwise_3_conv4_3ReLU_1_0_split -> conv4_Eltwise_3_conv4_3ReLU_1_0_split_1
I0930 10:16:18.971050 30982 net.cpp:172] Setting up conv4_Eltwise_3_conv4_3ReLU_1_0_split
I0930 10:16:18.971063 30982 net.cpp:186] Top shape: 10 64 8 8 (40960)
I0930 10:16:18.971069 30982 net.cpp:186] Top shape: 10 64 8 8 (40960)
I0930 10:16:18.971077 30982 net.cpp:194] Memory required for data: 86630520
I0930 10:16:18.971081 30982 layer_factory.hpp:77] Creating layer conv4_4_0
I0930 10:16:18.971097 30982 net.cpp:128] Creating Layer conv4_4_0
I0930 10:16:18.971105 30982 net.cpp:558] conv4_4_0 <- conv4_Eltwise_3_conv4_3ReLU_1_0_split_0
I0930 10:16:18.971115 30982 net.cpp:522] conv4_4_0 -> conv4_4_0
I0930 10:16:18.977895 30982 net.cpp:172] Setting up conv4_4_0
I0930 10:16:18.977926 30982 net.cpp:186] Top shape: 10 64 8 8 (40960)
I0930 10:16:18.977941 30982 net.cpp:194] Memory required for data: 86794360
I0930 10:16:18.977952 30982 layer_factory.hpp:77] Creating layer conv4_4_bn0
I0930 10:16:18.977962 30982 net.cpp:128] Creating Layer conv4_4_bn0
I0930 10:16:18.977972 30982 net.cpp:558] conv4_4_bn0 <- conv4_4_0
I0930 10:16:18.977980 30982 net.cpp:509] conv4_4_bn0 -> conv4_4_0 (in-place)
I0930 10:16:18.978358 30982 net.cpp:172] Setting up conv4_4_bn0
I0930 10:16:18.978371 30982 net.cpp:186] Top shape: 10 64 8 8 (40960)
I0930 10:16:18.978375 30982 net.cpp:194] Memory required for data: 86958200
I0930 10:16:18.978385 30982 layer_factory.hpp:77] Creating layer conv4_4_scale0
I0930 10:16:18.978396 30982 net.cpp:128] Creating Layer conv4_4_scale0
I0930 10:16:18.978401 30982 net.cpp:558] conv4_4_scale0 <- conv4_4_0
I0930 10:16:18.978407 30982 net.cpp:509] conv4_4_scale0 -> conv4_4_0 (in-place)
I0930 10:16:18.978478 30982 layer_factory.hpp:77] Creating layer conv4_4_scale0
I0930 10:16:18.978684 30982 net.cpp:172] Setting up conv4_4_scale0
I0930 10:16:18.978698 30982 net.cpp:186] Top shape: 10 64 8 8 (40960)
I0930 10:16:18.978701 30982 net.cpp:194] Memory required for data: 87122040
I0930 10:16:18.978710 30982 layer_factory.hpp:77] Creating layer conv4_4_ReLU0
I0930 10:16:18.978720 30982 net.cpp:128] Creating Layer conv4_4_ReLU0
I0930 10:16:18.978725 30982 net.cpp:558] conv4_4_ReLU0 <- conv4_4_0
I0930 10:16:18.978731 30982 net.cpp:509] conv4_4_ReLU0 -> conv4_4_0 (in-place)
I0930 10:16:18.979710 30982 net.cpp:172] Setting up conv4_4_ReLU0
I0930 10:16:18.979727 30982 net.cpp:186] Top shape: 10 64 8 8 (40960)
I0930 10:16:18.979732 30982 net.cpp:194] Memory required for data: 87285880
I0930 10:16:18.979737 30982 layer_factory.hpp:77] Creating layer conv4_4_1
I0930 10:16:18.979750 30982 net.cpp:128] Creating Layer conv4_4_1
I0930 10:16:18.979759 30982 net.cpp:558] conv4_4_1 <- conv4_4_0
I0930 10:16:18.979768 30982 net.cpp:522] conv4_4_1 -> conv4_4_1
I0930 10:16:18.986542 30982 net.cpp:172] Setting up conv4_4_1
I0930 10:16:18.986572 30982 net.cpp:186] Top shape: 10 64 8 8 (40960)
I0930 10:16:18.986577 30982 net.cpp:194] Memory required for data: 87449720
I0930 10:16:18.986589 30982 layer_factory.hpp:77] Creating layer conv4_4bn1
I0930 10:16:18.986603 30982 net.cpp:128] Creating Layer conv4_4bn1
I0930 10:16:18.986609 30982 net.cpp:558] conv4_4bn1 <- conv4_4_1
I0930 10:16:18.986619 30982 net.cpp:509] conv4_4bn1 -> conv4_4_1 (in-place)
I0930 10:16:18.986985 30982 net.cpp:172] Setting up conv4_4bn1
I0930 10:16:18.986999 30982 net.cpp:186] Top shape: 10 64 8 8 (40960)
I0930 10:16:18.987004 30982 net.cpp:194] Memory required for data: 87613560
I0930 10:16:18.987013 30982 layer_factory.hpp:77] Creating layer conv4_4_scale1
I0930 10:16:18.987020 30982 net.cpp:128] Creating Layer conv4_4_scale1
I0930 10:16:18.987025 30982 net.cpp:558] conv4_4_scale1 <- conv4_4_1
I0930 10:16:18.987033 30982 net.cpp:509] conv4_4_scale1 -> conv4_4_1 (in-place)
I0930 10:16:18.987099 30982 layer_factory.hpp:77] Creating layer conv4_4_scale1
I0930 10:16:18.987308 30982 net.cpp:172] Setting up conv4_4_scale1
I0930 10:16:18.987321 30982 net.cpp:186] Top shape: 10 64 8 8 (40960)
I0930 10:16:18.987325 30982 net.cpp:194] Memory required for data: 87777400
I0930 10:16:18.987366 30982 layer_factory.hpp:77] Creating layer conv4_Eltwise_4
I0930 10:16:18.987378 30982 net.cpp:128] Creating Layer conv4_Eltwise_4
I0930 10:16:18.987385 30982 net.cpp:558] conv4_Eltwise_4 <- conv4_Eltwise_3_conv4_3ReLU_1_0_split_1
I0930 10:16:18.987391 30982 net.cpp:558] conv4_Eltwise_4 <- conv4_4_1
I0930 10:16:18.987397 30982 net.cpp:522] conv4_Eltwise_4 -> conv4_Eltwise_4
I0930 10:16:18.987437 30982 net.cpp:172] Setting up conv4_Eltwise_4
I0930 10:16:18.987449 30982 net.cpp:186] Top shape: 10 64 8 8 (40960)
I0930 10:16:18.987453 30982 net.cpp:194] Memory required for data: 87941240
I0930 10:16:18.987457 30982 layer_factory.hpp:77] Creating layer conv4_4ReLU_1
I0930 10:16:18.987464 30982 net.cpp:128] Creating Layer conv4_4ReLU_1
I0930 10:16:18.987469 30982 net.cpp:558] conv4_4ReLU_1 <- conv4_Eltwise_4
I0930 10:16:18.987479 30982 net.cpp:509] conv4_4ReLU_1 -> conv4_Eltwise_4 (in-place)
I0930 10:16:18.988550 30982 net.cpp:172] Setting up conv4_4ReLU_1
I0930 10:16:18.988569 30982 net.cpp:186] Top shape: 10 64 8 8 (40960)
I0930 10:16:18.988574 30982 net.cpp:194] Memory required for data: 88105080
I0930 10:16:18.988577 30982 layer_factory.hpp:77] Creating layer conv4_Eltwise_4_conv4_4ReLU_1_0_split
I0930 10:16:18.988585 30982 net.cpp:128] Creating Layer conv4_Eltwise_4_conv4_4ReLU_1_0_split
I0930 10:16:18.988590 30982 net.cpp:558] conv4_Eltwise_4_conv4_4ReLU_1_0_split <- conv4_Eltwise_4
I0930 10:16:18.988600 30982 net.cpp:522] conv4_Eltwise_4_conv4_4ReLU_1_0_split -> conv4_Eltwise_4_conv4_4ReLU_1_0_split_0
I0930 10:16:18.988608 30982 net.cpp:522] conv4_Eltwise_4_conv4_4ReLU_1_0_split -> conv4_Eltwise_4_conv4_4ReLU_1_0_split_1
I0930 10:16:18.988678 30982 net.cpp:172] Setting up conv4_Eltwise_4_conv4_4ReLU_1_0_split
I0930 10:16:18.988690 30982 net.cpp:186] Top shape: 10 64 8 8 (40960)
I0930 10:16:18.988696 30982 net.cpp:186] Top shape: 10 64 8 8 (40960)
I0930 10:16:18.988700 30982 net.cpp:194] Memory required for data: 88432760
I0930 10:16:18.988704 30982 layer_factory.hpp:77] Creating layer conv4_5_0
I0930 10:16:18.988718 30982 net.cpp:128] Creating Layer conv4_5_0
I0930 10:16:18.988723 30982 net.cpp:558] conv4_5_0 <- conv4_Eltwise_4_conv4_4ReLU_1_0_split_0
I0930 10:16:18.988734 30982 net.cpp:522] conv4_5_0 -> conv4_5_0
I0930 10:16:18.995553 30982 net.cpp:172] Setting up conv4_5_0
I0930 10:16:18.995577 30982 net.cpp:186] Top shape: 10 64 8 8 (40960)
I0930 10:16:18.995582 30982 net.cpp:194] Memory required for data: 88596600
I0930 10:16:18.995594 30982 layer_factory.hpp:77] Creating layer conv4_5_bn0
I0930 10:16:18.995606 30982 net.cpp:128] Creating Layer conv4_5_bn0
I0930 10:16:18.995611 30982 net.cpp:558] conv4_5_bn0 <- conv4_5_0
I0930 10:16:18.995618 30982 net.cpp:509] conv4_5_bn0 -> conv4_5_0 (in-place)
I0930 10:16:18.995997 30982 net.cpp:172] Setting up conv4_5_bn0
I0930 10:16:18.996009 30982 net.cpp:186] Top shape: 10 64 8 8 (40960)
I0930 10:16:18.996014 30982 net.cpp:194] Memory required for data: 88760440
I0930 10:16:18.996023 30982 layer_factory.hpp:77] Creating layer conv4_5_scale0
I0930 10:16:18.996033 30982 net.cpp:128] Creating Layer conv4_5_scale0
I0930 10:16:18.996038 30982 net.cpp:558] conv4_5_scale0 <- conv4_5_0
I0930 10:16:18.996044 30982 net.cpp:509] conv4_5_scale0 -> conv4_5_0 (in-place)
I0930 10:16:18.996107 30982 layer_factory.hpp:77] Creating layer conv4_5_scale0
I0930 10:16:18.996316 30982 net.cpp:172] Setting up conv4_5_scale0
I0930 10:16:18.996330 30982 net.cpp:186] Top shape: 10 64 8 8 (40960)
I0930 10:16:18.996333 30982 net.cpp:194] Memory required for data: 88924280
I0930 10:16:18.996342 30982 layer_factory.hpp:77] Creating layer conv4_5_ReLU0
I0930 10:16:18.996348 30982 net.cpp:128] Creating Layer conv4_5_ReLU0
I0930 10:16:18.996352 30982 net.cpp:558] conv4_5_ReLU0 <- conv4_5_0
I0930 10:16:18.996361 30982 net.cpp:509] conv4_5_ReLU0 -> conv4_5_0 (in-place)
I0930 10:16:18.997375 30982 net.cpp:172] Setting up conv4_5_ReLU0
I0930 10:16:18.997400 30982 net.cpp:186] Top shape: 10 64 8 8 (40960)
I0930 10:16:18.997404 30982 net.cpp:194] Memory required for data: 89088120
I0930 10:16:18.997411 30982 layer_factory.hpp:77] Creating layer conv4_5_1
I0930 10:16:18.997445 30982 net.cpp:128] Creating Layer conv4_5_1
I0930 10:16:18.997454 30982 net.cpp:558] conv4_5_1 <- conv4_5_0
I0930 10:16:18.997465 30982 net.cpp:522] conv4_5_1 -> conv4_5_1
I0930 10:16:19.004132 30982 net.cpp:172] Setting up conv4_5_1
I0930 10:16:19.004166 30982 net.cpp:186] Top shape: 10 64 8 8 (40960)
I0930 10:16:19.004171 30982 net.cpp:194] Memory required for data: 89251960
I0930 10:16:19.004184 30982 layer_factory.hpp:77] Creating layer conv4_5bn1
I0930 10:16:19.004195 30982 net.cpp:128] Creating Layer conv4_5bn1
I0930 10:16:19.004206 30982 net.cpp:558] conv4_5bn1 <- conv4_5_1
I0930 10:16:19.004217 30982 net.cpp:509] conv4_5bn1 -> conv4_5_1 (in-place)
I0930 10:16:19.004590 30982 net.cpp:172] Setting up conv4_5bn1
I0930 10:16:19.004601 30982 net.cpp:186] Top shape: 10 64 8 8 (40960)
I0930 10:16:19.004604 30982 net.cpp:194] Memory required for data: 89415800
I0930 10:16:19.004616 30982 layer_factory.hpp:77] Creating layer conv4_5_scale1
I0930 10:16:19.004629 30982 net.cpp:128] Creating Layer conv4_5_scale1
I0930 10:16:19.004634 30982 net.cpp:558] conv4_5_scale1 <- conv4_5_1
I0930 10:16:19.004640 30982 net.cpp:509] conv4_5_scale1 -> conv4_5_1 (in-place)
I0930 10:16:19.004709 30982 layer_factory.hpp:77] Creating layer conv4_5_scale1
I0930 10:16:19.004914 30982 net.cpp:172] Setting up conv4_5_scale1
I0930 10:16:19.004925 30982 net.cpp:186] Top shape: 10 64 8 8 (40960)
I0930 10:16:19.004930 30982 net.cpp:194] Memory required for data: 89579640
I0930 10:16:19.004937 30982 layer_factory.hpp:77] Creating layer conv4_Eltwise_5
I0930 10:16:19.004951 30982 net.cpp:128] Creating Layer conv4_Eltwise_5
I0930 10:16:19.004957 30982 net.cpp:558] conv4_Eltwise_5 <- conv4_Eltwise_4_conv4_4ReLU_1_0_split_1
I0930 10:16:19.004962 30982 net.cpp:558] conv4_Eltwise_5 <- conv4_5_1
I0930 10:16:19.004969 30982 net.cpp:522] conv4_Eltwise_5 -> conv4_Eltwise_5
I0930 10:16:19.005007 30982 net.cpp:172] Setting up conv4_Eltwise_5
I0930 10:16:19.005014 30982 net.cpp:186] Top shape: 10 64 8 8 (40960)
I0930 10:16:19.005023 30982 net.cpp:194] Memory required for data: 89743480
I0930 10:16:19.005026 30982 layer_factory.hpp:77] Creating layer conv4_5ReLU_1
I0930 10:16:19.005033 30982 net.cpp:128] Creating Layer conv4_5ReLU_1
I0930 10:16:19.005038 30982 net.cpp:558] conv4_5ReLU_1 <- conv4_Eltwise_5
I0930 10:16:19.005045 30982 net.cpp:509] conv4_5ReLU_1 -> conv4_Eltwise_5 (in-place)
I0930 10:16:19.006105 30982 net.cpp:172] Setting up conv4_5ReLU_1
I0930 10:16:19.006122 30982 net.cpp:186] Top shape: 10 64 8 8 (40960)
I0930 10:16:19.006126 30982 net.cpp:194] Memory required for data: 89907320
I0930 10:16:19.006131 30982 layer_factory.hpp:77] Creating layer conv4_Eltwise_5_conv4_5ReLU_1_0_split
I0930 10:16:19.006139 30982 net.cpp:128] Creating Layer conv4_Eltwise_5_conv4_5ReLU_1_0_split
I0930 10:16:19.006147 30982 net.cpp:558] conv4_Eltwise_5_conv4_5ReLU_1_0_split <- conv4_Eltwise_5
I0930 10:16:19.006157 30982 net.cpp:522] conv4_Eltwise_5_conv4_5ReLU_1_0_split -> conv4_Eltwise_5_conv4_5ReLU_1_0_split_0
I0930 10:16:19.006170 30982 net.cpp:522] conv4_Eltwise_5_conv4_5ReLU_1_0_split -> conv4_Eltwise_5_conv4_5ReLU_1_0_split_1
I0930 10:16:19.006242 30982 net.cpp:172] Setting up conv4_Eltwise_5_conv4_5ReLU_1_0_split
I0930 10:16:19.006249 30982 net.cpp:186] Top shape: 10 64 8 8 (40960)
I0930 10:16:19.006254 30982 net.cpp:186] Top shape: 10 64 8 8 (40960)
I0930 10:16:19.006258 30982 net.cpp:194] Memory required for data: 90235000
I0930 10:16:19.006263 30982 layer_factory.hpp:77] Creating layer conv4_6_0
I0930 10:16:19.006275 30982 net.cpp:128] Creating Layer conv4_6_0
I0930 10:16:19.006280 30982 net.cpp:558] conv4_6_0 <- conv4_Eltwise_5_conv4_5ReLU_1_0_split_0
I0930 10:16:19.006290 30982 net.cpp:522] conv4_6_0 -> conv4_6_0
I0930 10:16:19.009482 30982 net.cpp:172] Setting up conv4_6_0
I0930 10:16:19.009507 30982 net.cpp:186] Top shape: 10 64 8 8 (40960)
I0930 10:16:19.009511 30982 net.cpp:194] Memory required for data: 90398840
I0930 10:16:19.009523 30982 layer_factory.hpp:77] Creating layer conv4_6_bn0
I0930 10:16:19.009557 30982 net.cpp:128] Creating Layer conv4_6_bn0
I0930 10:16:19.009562 30982 net.cpp:558] conv4_6_bn0 <- conv4_6_0
I0930 10:16:19.009572 30982 net.cpp:509] conv4_6_bn0 -> conv4_6_0 (in-place)
I0930 10:16:19.009958 30982 net.cpp:172] Setting up conv4_6_bn0
I0930 10:16:19.009970 30982 net.cpp:186] Top shape: 10 64 8 8 (40960)
I0930 10:16:19.009974 30982 net.cpp:194] Memory required for data: 90562680
I0930 10:16:19.009985 30982 layer_factory.hpp:77] Creating layer conv4_6_scale0
I0930 10:16:19.009996 30982 net.cpp:128] Creating Layer conv4_6_scale0
I0930 10:16:19.010001 30982 net.cpp:558] conv4_6_scale0 <- conv4_6_0
I0930 10:16:19.010006 30982 net.cpp:509] conv4_6_scale0 -> conv4_6_0 (in-place)
I0930 10:16:19.010073 30982 layer_factory.hpp:77] Creating layer conv4_6_scale0
I0930 10:16:19.010282 30982 net.cpp:172] Setting up conv4_6_scale0
I0930 10:16:19.010291 30982 net.cpp:186] Top shape: 10 64 8 8 (40960)
I0930 10:16:19.010295 30982 net.cpp:194] Memory required for data: 90726520
I0930 10:16:19.010303 30982 layer_factory.hpp:77] Creating layer conv4_6_ReLU0
I0930 10:16:19.010313 30982 net.cpp:128] Creating Layer conv4_6_ReLU0
I0930 10:16:19.010316 30982 net.cpp:558] conv4_6_ReLU0 <- conv4_6_0
I0930 10:16:19.010324 30982 net.cpp:509] conv4_6_ReLU0 -> conv4_6_0 (in-place)
I0930 10:16:19.010601 30982 net.cpp:172] Setting up conv4_6_ReLU0
I0930 10:16:19.010617 30982 net.cpp:186] Top shape: 10 64 8 8 (40960)
I0930 10:16:19.010620 30982 net.cpp:194] Memory required for data: 90890360
I0930 10:16:19.010625 30982 layer_factory.hpp:77] Creating layer conv4_6_1
I0930 10:16:19.010643 30982 net.cpp:128] Creating Layer conv4_6_1
I0930 10:16:19.010648 30982 net.cpp:558] conv4_6_1 <- conv4_6_0
I0930 10:16:19.010658 30982 net.cpp:522] conv4_6_1 -> conv4_6_1
I0930 10:16:19.014242 30982 net.cpp:172] Setting up conv4_6_1
I0930 10:16:19.014269 30982 net.cpp:186] Top shape: 10 64 8 8 (40960)
I0930 10:16:19.014274 30982 net.cpp:194] Memory required for data: 91054200
I0930 10:16:19.014287 30982 layer_factory.hpp:77] Creating layer conv4_6bn1
I0930 10:16:19.014303 30982 net.cpp:128] Creating Layer conv4_6bn1
I0930 10:16:19.014309 30982 net.cpp:558] conv4_6bn1 <- conv4_6_1
I0930 10:16:19.014318 30982 net.cpp:509] conv4_6bn1 -> conv4_6_1 (in-place)
I0930 10:16:19.014683 30982 net.cpp:172] Setting up conv4_6bn1
I0930 10:16:19.014693 30982 net.cpp:186] Top shape: 10 64 8 8 (40960)
I0930 10:16:19.014696 30982 net.cpp:194] Memory required for data: 91218040
I0930 10:16:19.014708 30982 layer_factory.hpp:77] Creating layer conv4_6_scale1
I0930 10:16:19.014720 30982 net.cpp:128] Creating Layer conv4_6_scale1
I0930 10:16:19.014725 30982 net.cpp:558] conv4_6_scale1 <- conv4_6_1
I0930 10:16:19.014730 30982 net.cpp:509] conv4_6_scale1 -> conv4_6_1 (in-place)
I0930 10:16:19.014796 30982 layer_factory.hpp:77] Creating layer conv4_6_scale1
I0930 10:16:19.015007 30982 net.cpp:172] Setting up conv4_6_scale1
I0930 10:16:19.015017 30982 net.cpp:186] Top shape: 10 64 8 8 (40960)
I0930 10:16:19.015020 30982 net.cpp:194] Memory required for data: 91381880
I0930 10:16:19.015028 30982 layer_factory.hpp:77] Creating layer conv4_Eltwise_6
I0930 10:16:19.015041 30982 net.cpp:128] Creating Layer conv4_Eltwise_6
I0930 10:16:19.015050 30982 net.cpp:558] conv4_Eltwise_6 <- conv4_Eltwise_5_conv4_5ReLU_1_0_split_1
I0930 10:16:19.015055 30982 net.cpp:558] conv4_Eltwise_6 <- conv4_6_1
I0930 10:16:19.015063 30982 net.cpp:522] conv4_Eltwise_6 -> conv4_Eltwise_6
I0930 10:16:19.015100 30982 net.cpp:172] Setting up conv4_Eltwise_6
I0930 10:16:19.015107 30982 net.cpp:186] Top shape: 10 64 8 8 (40960)
I0930 10:16:19.015110 30982 net.cpp:194] Memory required for data: 91545720
I0930 10:16:19.015115 30982 layer_factory.hpp:77] Creating layer conv4_6ReLU_1
I0930 10:16:19.015121 30982 net.cpp:128] Creating Layer conv4_6ReLU_1
I0930 10:16:19.015125 30982 net.cpp:558] conv4_6ReLU_1 <- conv4_Eltwise_6
I0930 10:16:19.015130 30982 net.cpp:509] conv4_6ReLU_1 -> conv4_Eltwise_6 (in-place)
I0930 10:16:19.015632 30982 net.cpp:172] Setting up conv4_6ReLU_1
I0930 10:16:19.015655 30982 net.cpp:186] Top shape: 10 64 8 8 (40960)
I0930 10:16:19.015681 30982 net.cpp:194] Memory required for data: 91709560
I0930 10:16:19.015686 30982 layer_factory.hpp:77] Creating layer conv4_Eltwise_6_conv4_6ReLU_1_0_split
I0930 10:16:19.015694 30982 net.cpp:128] Creating Layer conv4_Eltwise_6_conv4_6ReLU_1_0_split
I0930 10:16:19.015699 30982 net.cpp:558] conv4_Eltwise_6_conv4_6ReLU_1_0_split <- conv4_Eltwise_6
I0930 10:16:19.015712 30982 net.cpp:522] conv4_Eltwise_6_conv4_6ReLU_1_0_split -> conv4_Eltwise_6_conv4_6ReLU_1_0_split_0
I0930 10:16:19.015722 30982 net.cpp:522] conv4_Eltwise_6_conv4_6ReLU_1_0_split -> conv4_Eltwise_6_conv4_6ReLU_1_0_split_1
I0930 10:16:19.015797 30982 net.cpp:172] Setting up conv4_Eltwise_6_conv4_6ReLU_1_0_split
I0930 10:16:19.015806 30982 net.cpp:186] Top shape: 10 64 8 8 (40960)
I0930 10:16:19.015812 30982 net.cpp:186] Top shape: 10 64 8 8 (40960)
I0930 10:16:19.015816 30982 net.cpp:194] Memory required for data: 92037240
I0930 10:16:19.015820 30982 layer_factory.hpp:77] Creating layer conv4_7_0
I0930 10:16:19.015835 30982 net.cpp:128] Creating Layer conv4_7_0
I0930 10:16:19.015839 30982 net.cpp:558] conv4_7_0 <- conv4_Eltwise_6_conv4_6ReLU_1_0_split_0
I0930 10:16:19.015849 30982 net.cpp:522] conv4_7_0 -> conv4_7_0
I0930 10:16:19.018208 30982 net.cpp:172] Setting up conv4_7_0
I0930 10:16:19.018231 30982 net.cpp:186] Top shape: 10 64 8 8 (40960)
I0930 10:16:19.018235 30982 net.cpp:194] Memory required for data: 92201080
I0930 10:16:19.018247 30982 layer_factory.hpp:77] Creating layer conv4_7_bn0
I0930 10:16:19.018261 30982 net.cpp:128] Creating Layer conv4_7_bn0
I0930 10:16:19.018266 30982 net.cpp:558] conv4_7_bn0 <- conv4_7_0
I0930 10:16:19.018275 30982 net.cpp:509] conv4_7_bn0 -> conv4_7_0 (in-place)
I0930 10:16:19.018661 30982 net.cpp:172] Setting up conv4_7_bn0
I0930 10:16:19.018672 30982 net.cpp:186] Top shape: 10 64 8 8 (40960)
I0930 10:16:19.018676 30982 net.cpp:194] Memory required for data: 92364920
I0930 10:16:19.018687 30982 layer_factory.hpp:77] Creating layer conv4_7_scale0
I0930 10:16:19.018700 30982 net.cpp:128] Creating Layer conv4_7_scale0
I0930 10:16:19.018705 30982 net.cpp:558] conv4_7_scale0 <- conv4_7_0
I0930 10:16:19.018712 30982 net.cpp:509] conv4_7_scale0 -> conv4_7_0 (in-place)
I0930 10:16:19.018780 30982 layer_factory.hpp:77] Creating layer conv4_7_scale0
I0930 10:16:19.018996 30982 net.cpp:172] Setting up conv4_7_scale0
I0930 10:16:19.019008 30982 net.cpp:186] Top shape: 10 64 8 8 (40960)
I0930 10:16:19.019012 30982 net.cpp:194] Memory required for data: 92528760
I0930 10:16:19.019021 30982 layer_factory.hpp:77] Creating layer conv4_7_ReLU0
I0930 10:16:19.019035 30982 net.cpp:128] Creating Layer conv4_7_ReLU0
I0930 10:16:19.019040 30982 net.cpp:558] conv4_7_ReLU0 <- conv4_7_0
I0930 10:16:19.019045 30982 net.cpp:509] conv4_7_ReLU0 -> conv4_7_0 (in-place)
I0930 10:16:19.019326 30982 net.cpp:172] Setting up conv4_7_ReLU0
I0930 10:16:19.019341 30982 net.cpp:186] Top shape: 10 64 8 8 (40960)
I0930 10:16:19.019346 30982 net.cpp:194] Memory required for data: 92692600
I0930 10:16:19.019351 30982 layer_factory.hpp:77] Creating layer conv4_7_1
I0930 10:16:19.019367 30982 net.cpp:128] Creating Layer conv4_7_1
I0930 10:16:19.019376 30982 net.cpp:558] conv4_7_1 <- conv4_7_0
I0930 10:16:19.019384 30982 net.cpp:522] conv4_7_1 -> conv4_7_1
I0930 10:16:19.021539 30982 net.cpp:172] Setting up conv4_7_1
I0930 10:16:19.021565 30982 net.cpp:186] Top shape: 10 64 8 8 (40960)
I0930 10:16:19.021569 30982 net.cpp:194] Memory required for data: 92856440
I0930 10:16:19.021584 30982 layer_factory.hpp:77] Creating layer conv4_7bn1
I0930 10:16:19.021595 30982 net.cpp:128] Creating Layer conv4_7bn1
I0930 10:16:19.021600 30982 net.cpp:558] conv4_7bn1 <- conv4_7_1
I0930 10:16:19.021610 30982 net.cpp:509] conv4_7bn1 -> conv4_7_1 (in-place)
I0930 10:16:19.021993 30982 net.cpp:172] Setting up conv4_7bn1
I0930 10:16:19.022004 30982 net.cpp:186] Top shape: 10 64 8 8 (40960)
I0930 10:16:19.022009 30982 net.cpp:194] Memory required for data: 93020280
I0930 10:16:19.022019 30982 layer_factory.hpp:77] Creating layer conv4_7_scale1
I0930 10:16:19.022048 30982 net.cpp:128] Creating Layer conv4_7_scale1
I0930 10:16:19.022053 30982 net.cpp:558] conv4_7_scale1 <- conv4_7_1
I0930 10:16:19.022059 30982 net.cpp:509] conv4_7_scale1 -> conv4_7_1 (in-place)
I0930 10:16:19.022128 30982 layer_factory.hpp:77] Creating layer conv4_7_scale1
I0930 10:16:19.022336 30982 net.cpp:172] Setting up conv4_7_scale1
I0930 10:16:19.022346 30982 net.cpp:186] Top shape: 10 64 8 8 (40960)
I0930 10:16:19.022349 30982 net.cpp:194] Memory required for data: 93184120
I0930 10:16:19.022358 30982 layer_factory.hpp:77] Creating layer conv4_Eltwise_7
I0930 10:16:19.022367 30982 net.cpp:128] Creating Layer conv4_Eltwise_7
I0930 10:16:19.022377 30982 net.cpp:558] conv4_Eltwise_7 <- conv4_Eltwise_6_conv4_6ReLU_1_0_split_1
I0930 10:16:19.022383 30982 net.cpp:558] conv4_Eltwise_7 <- conv4_7_1
I0930 10:16:19.022389 30982 net.cpp:522] conv4_Eltwise_7 -> conv4_Eltwise_7
I0930 10:16:19.022428 30982 net.cpp:172] Setting up conv4_Eltwise_7
I0930 10:16:19.022438 30982 net.cpp:186] Top shape: 10 64 8 8 (40960)
I0930 10:16:19.022441 30982 net.cpp:194] Memory required for data: 93347960
I0930 10:16:19.022449 30982 layer_factory.hpp:77] Creating layer conv4_7ReLU_1
I0930 10:16:19.022455 30982 net.cpp:128] Creating Layer conv4_7ReLU_1
I0930 10:16:19.022462 30982 net.cpp:558] conv4_7ReLU_1 <- conv4_Eltwise_7
I0930 10:16:19.022469 30982 net.cpp:509] conv4_7ReLU_1 -> conv4_Eltwise_7 (in-place)
I0930 10:16:19.022742 30982 net.cpp:172] Setting up conv4_7ReLU_1
I0930 10:16:19.022756 30982 net.cpp:186] Top shape: 10 64 8 8 (40960)
I0930 10:16:19.022763 30982 net.cpp:194] Memory required for data: 93511800
I0930 10:16:19.022768 30982 layer_factory.hpp:77] Creating layer Pooling1
I0930 10:16:19.022778 30982 net.cpp:128] Creating Layer Pooling1
I0930 10:16:19.022785 30982 net.cpp:558] Pooling1 <- conv4_Eltwise_7
I0930 10:16:19.022794 30982 net.cpp:522] Pooling1 -> Pooling1
I0930 10:16:19.023098 30982 net.cpp:172] Setting up Pooling1
I0930 10:16:19.023113 30982 net.cpp:186] Top shape: 10 64 1 1 (640)
I0930 10:16:19.023118 30982 net.cpp:194] Memory required for data: 93514360
I0930 10:16:19.023123 30982 layer_factory.hpp:77] Creating layer fc1
I0930 10:16:19.023133 30982 net.cpp:128] Creating Layer fc1
I0930 10:16:19.023140 30982 net.cpp:558] fc1 <- Pooling1
I0930 10:16:19.023151 30982 net.cpp:522] fc1 -> fc1
I0930 10:16:19.023366 30982 net.cpp:172] Setting up fc1
I0930 10:16:19.023376 30982 net.cpp:186] Top shape: 10 10 (100)
I0930 10:16:19.023380 30982 net.cpp:194] Memory required for data: 93514760
I0930 10:16:19.023389 30982 layer_factory.hpp:77] Creating layer fc1_fc1_0_split
I0930 10:16:19.023404 30982 net.cpp:128] Creating Layer fc1_fc1_0_split
I0930 10:16:19.023409 30982 net.cpp:558] fc1_fc1_0_split <- fc1
I0930 10:16:19.023416 30982 net.cpp:522] fc1_fc1_0_split -> fc1_fc1_0_split_0
I0930 10:16:19.023428 30982 net.cpp:522] fc1_fc1_0_split -> fc1_fc1_0_split_1
I0930 10:16:19.023494 30982 net.cpp:172] Setting up fc1_fc1_0_split
I0930 10:16:19.023504 30982 net.cpp:186] Top shape: 10 10 (100)
I0930 10:16:19.023509 30982 net.cpp:186] Top shape: 10 10 (100)
I0930 10:16:19.023514 30982 net.cpp:194] Memory required for data: 93515560
I0930 10:16:19.023517 30982 layer_factory.hpp:77] Creating layer Softmax1
I0930 10:16:19.023524 30982 net.cpp:128] Creating Layer Softmax1
I0930 10:16:19.023530 30982 net.cpp:558] Softmax1 <- fc1_fc1_0_split_0
I0930 10:16:19.023535 30982 net.cpp:558] Softmax1 <- label_Data1_1_split_0
I0930 10:16:19.023542 30982 net.cpp:522] Softmax1 -> Softmax1
…
