…
I0825 11:11:33.315872  1899 net.cpp:82] Initializing net from parameters: 
name: "resnet_cifar10"
state {
  phase: TRAIN
  level: 0
  stage: ""
}
layer {
  name: "Data1"
  type: "Data"
  top: "Data1"
  top: "Data2"
  include {
    phase: TRAIN
  }
  transform_param {
    scale: 0.00390625
    mirror: true
    crop_size: 32
    mean_value: 125.3
    mean_value: 122.9
    mean_value: 113.8
  }
  data_param {
    source: "/home/lijianfei/datasets/cifar10_40/train_lmdb"
    batch_size: 64
    backend: LMDB
  }
  image_data_param {
    shuffle: true
  }
}
layer {
  name: "Convolution1"
  type: "Convolution"
  bottom: "Data1"
  top: "Convolution1"
  param {
    lr_mult: 1
    decay_mult: 1
  }
  param {
    lr_mult: 2
    decay_mult: 0
  }
  convolution_param {
    num_output: 16
    pad: 1
    kernel_size: 3
    stride: 1
    weight_filler {
      type: "msra"
    }
    bias_filler {
      type: "constant"
      value: 0
    }
  }
}
layer {
  name: "BatchNorm1"
  type: "BatchNorm"
  bottom: "Convolution1"
  top: "Convolution1"
  param {
    lr_mult: 0
    decay_mult: 0
  }
  param {
    lr_mult: 0
    decay_mult: 0
  }
  param {
    lr_mult: 0
    decay_mult: 0
  }
}
layer {
  name: "Scale1"
  type: "Scale"
  bottom: "Convolution1"
  top: "Convolution1"
  scale_param {
    bias_term: true
  }
}
layer {
  name: "ReLU1"
  type: "ReLU"
  bottom: "Convolution1"
  top: "Convolution1"
}
layer {
  name: "Convolution2"
  type: "Convolution"
  bottom: "Convolution1"
  top: "Convolution2"
  param {
    lr_mult: 1
    decay_mult: 1
  }
  param {
    lr_mult: 2
    decay_mult: 0
  }
  convolution_param {
    num_output: 16
    pad: 1
    kernel_size: 3
    stride: 1
    weight_filler {
      type: "msra"
    }
    bias_filler {
      type: "constant"
      value: 0
    }
  }
}
layer {
  name: "BatchNorm2"
  type: "BatchNorm"
  bottom: "Convolution2"
  top: "Convolution2"
  param {
    lr_mult: 0
    decay_mult: 0
  }
  param {
    lr_mult: 0
    decay_mult: 0
  }
  param {
    lr_mult: 0
    decay_mult: 0
  }
}
layer {
  name: "Scale2"
  type: "Scale"
  bottom: "Convolution2"
  top: "Convolution2"
  scale_param {
    bias_term: true
  }
}
layer {
  name: "ReLU2"
  type: "ReLU"
  bottom: "Convolution2"
  top: "Convolution2"
}
layer {
  name: "Convolution3"
  type: "Convolution"
  bottom: "Convolution2"
  top: "Convolution3"
  param {
    lr_mult: 1
    decay_mult: 1
  }
  param {
    lr_mult: 2
    decay_mult: 0
  }
  convolution_param {
    num_output: 16
    pad: 1
    kernel_size: 3
    stride: 1
    weight_filler {
      type: "msra"
    }
    bias_filler {
      type: "constant"
      value: 0
    }
  }
}
layer {
  name: "BatchNorm3"
  type: "BatchNorm"
  bottom: "Convolution3"
  top: "Convolution3"
  param {
    lr_mult: 0
    decay_mult: 0
  }
  param {
    lr_mult: 0
    decay_mult: 0
  }
  param {
    lr_mult: 0
    decay_mult: 0
  }
}
layer {
  name: "Scale3"
  type: "Scale"
  bottom: "Convolution3"
  top: "Convolution3"
  scale_param {
    bias_term: true
  }
}
layer {
  name: "Eltwise1"
  type: "Eltwise"
  bottom: "Convolution1"
  bottom: "Convolution3"
  top: "Eltwise1"
  eltwise_param {
    operation: SUM
  }
}
layer {
  name: "ReLU3"
  type: "ReLU"
  bottom: "Eltwise1"
  top: "Eltwise1"
}
layer {
  name: "Convolution4"
  type: "Convolution"
  bottom: "Eltwise1"
  top: "Convolution4"
  param {
    lr_mult: 1
    decay_mult: 1
  }
  param {
    lr_mult: 2
    decay_mult: 0
  }
  convolution_param {
    num_output: 16
    pad: 1
    kernel_size: 3
    stride: 1
    weight_filler {
      type: "msra"
    }
    bias_filler {
      type: "constant"
      value: 0
    }
  }
}
layer {
  name: "BatchNorm4"
  type: "BatchNorm"
  bottom: "Convolution4"
  top: "Convolution4"
  param {
    lr_mult: 0
    decay_mult: 0
  }
  param {
    lr_mult: 0
    decay_mult: 0
  }
  param {
    lr_mult: 0
    decay_mult: 0
  }
}
layer {
  name: "Scale4"
  type: "Scale"
  bottom: "Convolution4"
  top: "Convolution4"
  scale_param {
    bias_term: true
  }
}
layer {
  name: "ReLU4"
  type: "ReLU"
  bottom: "Convolution4"
  top: "Convolution4"
}
layer {
  name: "Convolution5"
  type: "Convolution"
  bottom: "Convolution4"
  top: "Convolution5"
  param {
    lr_mult: 1
    decay_mult: 1
  }
  param {
    lr_mult: 2
    decay_mult: 0
  }
  convolution_param {
    num_output: 16
    pad: 1
    kernel_size: 3
    stride: 1
    weight_filler {
      type: "msra"
    }
    bias_filler {
      type: "constant"
      value: 0
    }
  }
}
layer {
  name: "BatchNorm5"
  type: "BatchNorm"
  bottom: "Convolution5"
  top: "Convolution5"
  param {
    lr_mult: 0
    decay_mult: 0
  }
  param {
    lr_mult: 0
    decay_mult: 0
  }
  param {
    lr_mult: 0
    decay_mult: 0
  }
}
layer {
  name: "Scale5"
  type: "Scale"
  bottom: "Convolution5"
  top: "Convolution5"
  scale_param {
    bias_term: true
  }
}
layer {
  name: "Eltwise2"
  type: "Eltwise"
  bottom: "Eltwise1"
  bottom: "Convolution5"
  top: "Eltwise2"
  eltwise_param {
    operation: SUM
  }
}
layer {
  name: "ReLU5"
  type: "ReLU"
  bottom: "Eltwise2"
  top: "Eltwise2"
}
layer {
  name: "Convolution6"
  type: "Convolution"
  bottom: "Eltwise2"
  top: "Convolution6"
  param {
    lr_mult: 1
    decay_mult: 1
  }
  param {
    lr_mult: 2
    decay_mult: 0
  }
  convolution_param {
    num_output: 16
    pad: 1
    kernel_size: 3
    stride: 1
    weight_filler {
      type: "msra"
    }
    bias_filler {
      type: "constant"
      value: 0
    }
  }
}
layer {
  name: "BatchNorm6"
  type: "BatchNorm"
  bottom: "Convolution6"
  top: "Convolution6"
  param {
    lr_mult: 0
    decay_mult: 0
  }
  param {
    lr_mult: 0
    decay_mult: 0
  }
  param {
    lr_mult: 0
    decay_mult: 0
  }
}
layer {
  name: "Scale6"
  type: "Scale"
  bottom: "Convolution6"
  top: "Convolution6"
  scale_param {
    bias_term: true
  }
}
layer {
  name: "ReLU6"
  type: "ReLU"
  bottom: "Convolution6"
  top: "Convolution6"
}
layer {
  name: "Convolution7"
  type: "Convolution"
  bottom: "Convolution6"
  top: "Convolution7"
  param {
    lr_mult: 1
    decay_mult: 1
  }
  param {
    lr_mult: 2
    decay_mult: 0
  }
  convolution_param {
    num_output: 16
    pad: 1
    kernel_size: 3
    stride: 1
    weight_filler {
      type: "msra"
    }
    bias_filler {
      type: "constant"
      value: 0
    }
  }
}
layer {
  name: "BatchNorm7"
  type: "BatchNorm"
  bottom: "Convolution7"
  top: "Convolution7"
  param {
    lr_mult: 0
    decay_mult: 0
  }
  param {
    lr_mult: 0
    decay_mult: 0
  }
  param {
    lr_mult: 0
    decay_mult: 0
  }
}
layer {
  name: "Scale7"
  type: "Scale"
  bottom: "Convolution7"
  top: "Convolution7"
  scale_param {
    bias_term: true
  }
}
layer {
  name: "Eltwise3"
  type: "Eltwise"
  bottom: "Eltwise2"
  bottom: "Convolution7"
  top: "Eltwise3"
  eltwise_param {
    operation: SUM
  }
}
layer {
  name: "ReLU7"
  type: "ReLU"
  bottom: "Eltwise3"
  top: "Eltwise3"
}
layer {
  name: "Convolution8"
  type: "Convolution"
  bottom: "Eltwise3"
  top: "Convolution8"
  param {
    lr_mult: 1
    decay_mult: 1
  }
  param {
    lr_mult: 2
    decay_mult: 0
  }
  convolution_param {
    num_output: 16
    pad: 1
    kernel_size: 3
    stride: 1
    weight_filler {
      type: "msra"
    }
    bias_filler {
      type: "constant"
      value: 0
    }
  }
}
layer {
  name: "BatchNorm8"
  type: "BatchNorm"
  bottom: "Convolution8"
  top: "Convolution8"
  param {
    lr_mult: 0
    decay_mult: 0
  }
  param {
    lr_mult: 0
    decay_mult: 0
  }
  param {
    lr_mult: 0
    decay_mult: 0
  }
}
layer {
  name: "Scale8"
  type: "Scale"
  bottom: "Convolution8"
  top: "Convolution8"
  scale_param {
    bias_term: true
  }
}
layer {
  name: "ReLU8"
  type: "ReLU"
  bottom: "Convolution8"
  top: "Convolution8"
}
layer {
  name: "Convolution9"
  type: "Convolution"
  bottom: "Convolution8"
  top: "Convolution9"
  param {
    lr_mult: 1
    decay_mult: 1
  }
  param {
    lr_mult: 2
    decay_mult: 0
  }
  convolution_param {
    num_output: 16
    pad: 1
    kernel_size: 3
    stride: 1
    weight_filler {
      type: "msra"
    }
    bias_filler {
      type: "constant"
      value: 0
    }
  }
}
layer {
  name: "BatchNorm9"
  type: "BatchNorm"
  bottom: "Convolution9"
  top: "Convolution9"
  param {
    lr_mult: 0
    decay_mult: 0
  }
  param {
    lr_mult: 0
    decay_mult: 0
  }
  param {
    lr_mult: 0
    decay_mult: 0
  }
}
layer {
  name: "Scale9"
  type: "Scale"
  bottom: "Convolution9"
  top: "Convolution9"
  scale_param {
    bias_term: true
  }
}
layer {
  name: "Eltwise4"
  type: "Eltwise"
  bottom: "Eltwise3"
  bottom: "Convolution9"
  top: "Eltwise4"
  eltwise_param {
    operation: SUM
  }
}
layer {
  name: "ReLU9"
  type: "ReLU"
  bottom: "Eltwise4"
  top: "Eltwise4"
}
layer {
  name: "Convolution10"
  type: "Convolution"
  bottom: "Eltwise4"
  top: "Convolution10"
  param {
    lr_mult: 1
    decay_mult: 1
  }
  param {
    lr_mult: 2
    decay_mult: 0
  }
  convolution_param {
    num_output: 16
    pad: 1
    kernel_size: 3
    stride: 1
    weight_filler {
      type: "msra"
    }
    bias_filler {
      type: "constant"
      value: 0
    }
  }
}
layer {
  name: "BatchNorm10"
  type: "BatchNorm"
  bottom: "Convolution10"
  top: "Convolution10"
  param {
    lr_mult: 0
    decay_mult: 0
  }
  param {
    lr_mult: 0
    decay_mult: 0
  }
  param {
    lr_mult: 0
    decay_mult: 0
  }
}
layer {
  name: "Scale10"
  type: "Scale"
  bottom: "Convolution10"
  top: "Convolution10"
  scale_param {
    bias_term: true
  }
}
layer {
  name: "ReLU10"
  type: "ReLU"
  bottom: "Convolution10"
  top: "Convolution10"
}
layer {
  name: "Convolution11"
  type: "Convolution"
  bottom: "Convolution10"
  top: "Convolution11"
  param {
    lr_mult: 1
    decay_mult: 1
  }
  param {
    lr_mult: 2
    decay_mult: 0
  }
  convolution_param {
    num_output: 16
    pad: 1
    kernel_size: 3
    stride: 1
    weight_filler {
      type: "msra"
    }
    bias_filler {
      type: "constant"
      value: 0
    }
  }
}
layer {
  name: "BatchNorm11"
  type: "BatchNorm"
  bottom: "Convolution11"
  top: "Convolution11"
  param {
    lr_mult: 0
    decay_mult: 0
  }
  param {
    lr_mult: 0
    decay_mult: 0
  }
  param {
    lr_mult: 0
    decay_mult: 0
  }
}
layer {
  name: "Scale11"
  type: "Scale"
  bottom: "Convolution11"
  top: "Convolution11"
  scale_param {
    bias_term: true
  }
}
layer {
  name: "Eltwise5"
  type: "Eltwise"
  bottom: "Eltwise4"
  bottom: "Convolution11"
  top: "Eltwise5"
  eltwise_param {
    operation: SUM
  }
}
layer {
  name: "ReLU11"
  type: "ReLU"
  bottom: "Eltwise5"
  top: "Eltwise5"
}
layer {
  name: "Convolution12"
  type: "Convolution"
  bottom: "Eltwise5"
  top: "Convolution12"
  param {
    lr_mult: 1
    decay_mult: 1
  }
  param {
    lr_mult: 2
    decay_mult: 0
  }
  convolution_param {
    num_output: 16
    pad: 1
    kernel_size: 3
    stride: 1
    weight_filler {
      type: "msra"
    }
    bias_filler {
      type: "constant"
      value: 0
    }
  }
}
layer {
  name: "BatchNorm12"
  type: "BatchNorm"
  bottom: "Convolution12"
  top: "Convolution12"
  param {
    lr_mult: 0
    decay_mult: 0
  }
  param {
    lr_mult: 0
    decay_mult: 0
  }
  param {
    lr_mult: 0
    decay_mult: 0
  }
}
layer {
  name: "Scale12"
  type: "Scale"
  bottom: "Convolution12"
  top: "Convolution12"
  scale_param {
    bias_term: true
  }
}
layer {
  name: "ReLU12"
  type: "ReLU"
  bottom: "Convolution12"
  top: "Convolution12"
}
layer {
  name: "Convolution13"
  type: "Convolution"
  bottom: "Convolution12"
  top: "Convolution13"
  param {
    lr_mult: 1
    decay_mult: 1
  }
  param {
    lr_mult: 2
    decay_mult: 0
  }
  convolution_param {
    num_output: 16
    pad: 1
    kernel_size: 3
    stride: 1
    weight_filler {
      type: "msra"
    }
    bias_filler {
      type: "constant"
      value: 0
    }
  }
}
layer {
  name: "BatchNorm13"
  type: "BatchNorm"
  bottom: "Convolution13"
  top: "Convolution13"
  param {
    lr_mult: 0
    decay_mult: 0
  }
  param {
    lr_mult: 0
    decay_mult: 0
  }
  param {
    lr_mult: 0
    decay_mult: 0
  }
}
layer {
  name: "Scale13"
  type: "Scale"
  bottom: "Convolution13"
  top: "Convolution13"
  scale_param {
    bias_term: true
  }
}
layer {
  name: "Eltwise6"
  type: "Eltwise"
  bottom: "Eltwise5"
  bottom: "Convolution13"
  top: "Eltwise6"
  eltwise_param {
    operation: SUM
  }
}
layer {
  name: "ReLU13"
  type: "ReLU"
  bottom: "Eltwise6"
  top: "Eltwise6"
}
layer {
  name: "Convolution14"
  type: "Convolution"
  bottom: "Eltwise6"
  top: "Convolution14"
  param {
    lr_mult: 1
    decay_mult: 1
  }
  param {
    lr_mult: 2
    decay_mult: 0
  }
  convolution_param {
    num_output: 16
    pad: 1
    kernel_size: 3
    stride: 1
    weight_filler {
      type: "msra"
    }
    bias_filler {
      type: "constant"
      value: 0
    }
  }
}
layer {
  name: "BatchNorm14"
  type: "BatchNorm"
  bottom: "Convolution14"
  top: "Convolution14"
  param {
    lr_mult: 0
    decay_mult: 0
  }
  param {
    lr_mult: 0
    decay_mult: 0
  }
  param {
    lr_mult: 0
    decay_mult: 0
  }
}
layer {
  name: "Scale14"
  type: "Scale"
  bottom: "Convolution14"
  top: "Convolution14"
  scale_param {
    bias_term: true
  }
}
layer {
  name: "ReLU14"
  type: "ReLU"
  bottom: "Convolution14"
  top: "Convolution14"
}
layer {
  name: "Convolution15"
  type: "Convolution"
  bottom: "Convolution14"
  top: "Convolution15"
  param {
    lr_mult: 1
    decay_mult: 1
  }
  param {
    lr_mult: 2
    decay_mult: 0
  }
  convolution_param {
    num_output: 16
    pad: 1
    kernel_size: 3
    stride: 1
    weight_filler {
      type: "msra"
    }
    bias_filler {
      type: "constant"
      value: 0
    }
  }
}
layer {
  name: "BatchNorm15"
  type: "BatchNorm"
  bottom: "Convolution15"
  top: "Convolution15"
  param {
    lr_mult: 0
    decay_mult: 0
  }
  param {
    lr_mult: 0
    decay_mult: 0
  }
  param {
    lr_mult: 0
    decay_mult: 0
  }
}
layer {
  name: "Scale15"
  type: "Scale"
  bottom: "Convolution15"
  top: "Convolution15"
  scale_param {
    bias_term: true
  }
}
layer {
  name: "Eltwise7"
  type: "Eltwise"
  bottom: "Eltwise6"
  bottom: "Convolution15"
  top: "Eltwise7"
  eltwise_param {
    operation: SUM
  }
}
layer {
  name: "ReLU15"
  type: "ReLU"
  bottom: "Eltwise7"
  top: "Eltwise7"
}
layer {
  name: "Convolution16"
  type: "Convolution"
  bottom: "Eltwise7"
  top: "Convolution16"
  param {
    lr_mult: 1
    decay_mult: 1
  }
  param {
    lr_mult: 2
    decay_mult: 0
  }
  convolution_param {
    num_output: 32
    pad: 0
    kernel_size: 1
    stride: 2
    weight_filler {
      type: "msra"
    }
    bias_filler {
      type: "constant"
      value: 0
    }
  }
}
layer {
  name: "BatchNorm16"
  type: "BatchNorm"
  bottom: "Convolution16"
  top: "Convolution16"
  param {
    lr_mult: 0
    decay_mult: 0
  }
  param {
    lr_mult: 0
    decay_mult: 0
  }
  param {
    lr_mult: 0
    decay_mult: 0
  }
}
layer {
  name: "Scale16"
  type: "Scale"
  bottom: "Convolution16"
  top: "Convolution16"
  scale_param {
    bias_term: true
  }
}
layer {
  name: "Convolution17"
  type: "Convolution"
  bottom: "Eltwise7"
  top: "Convolution17"
  param {
    lr_mult: 1
    decay_mult: 1
  }
  param {
    lr_mult: 2
    decay_mult: 0
  }
  convolution_param {
    num_output: 32
    pad: 1
    kernel_size: 3
    stride: 2
    weight_filler {
      type: "msra"
    }
    bias_filler {
      type: "constant"
      value: 0
    }
  }
}
layer {
  name: "BatchNorm17"
  type: "BatchNorm"
  bottom: "Convolution17"
  top: "Convolution17"
  param {
    lr_mult: 0
    decay_mult: 0
  }
  param {
    lr_mult: 0
    decay_mult: 0
  }
  param {
    lr_mult: 0
    decay_mult: 0
  }
}
layer {
  name: "Scale17"
  type: "Scale"
  bottom: "Convolution17"
  top: "Convolution17"
  scale_param {
    bias_term: true
  }
}
layer {
  name: "ReLU16"
  type: "ReLU"
  bottom: "Convolution17"
  top: "Convolution17"
}
layer {
  name: "Convolution18"
  type: "Convolution"
  bottom: "Convolution17"
  top: "Convolution18"
  param {
    lr_mult: 1
    decay_mult: 1
  }
  param {
    lr_mult: 2
    decay_mult: 0
  }
  convolution_param {
    num_output: 32
    pad: 1
    kernel_size: 3
    stride: 1
    weight_filler {
      type: "msra"
    }
    bias_filler {
      type: "constant"
      value: 0
    }
  }
}
layer {
  name: "BatchNorm18"
  type: "BatchNorm"
  bottom: "Convolution18"
  top: "Convolution18"
  param {
    lr_mult: 0
    decay_mult: 0
  }
  param {
    lr_mult: 0
    decay_mult: 0
  }
  param {
    lr_mult: 0
    decay_mult: 0
  }
}
layer {
  name: "Scale18"
  type: "Scale"
  bottom: "Convolution18"
  top: "Convolution18"
  scale_param {
    bias_term: true
  }
}
layer {
  name: "Eltwise8"
  type: "Eltwise"
  bottom: "Convolution16"
  bottom: "Convolution18"
  top: "Eltwise8"
  eltwise_param {
    operation: SUM
  }
}
layer {
  name: "ReLU17"
  type: "ReLU"
  bottom: "Eltwise8"
  top: "Eltwise8"
}
layer {
  name: "Convolution19"
  type: "Convolution"
  bottom: "Eltwise8"
  top: "Convolution19"
  param {
    lr_mult: 1
    decay_mult: 1
  }
  param {
    lr_mult: 2
    decay_mult: 0
  }
  convolution_param {
    num_output: 32
    pad: 1
    kernel_size: 3
    stride: 1
    weight_filler {
      type: "msra"
    }
    bias_filler {
      type: "constant"
      value: 0
    }
  }
}
layer {
  name: "BatchNorm19"
  type: "BatchNorm"
  bottom: "Convolution19"
  top: "Convolution19"
  param {
    lr_mult: 0
    decay_mult: 0
  }
  param {
    lr_mult: 0
    decay_mult: 0
  }
  param {
    lr_mult: 0
    decay_mult: 0
  }
}
layer {
  name: "Scale19"
  type: "Scale"
  bottom: "Convolution19"
  top: "Convolution19"
  scale_param {
    bias_term: true
  }
}
layer {
  name: "ReLU18"
  type: "ReLU"
  bottom: "Convolution19"
  top: "Convolution19"
}
layer {
  name: "Convolution20"
  type: "Convolution"
  bottom: "Convolution19"
  top: "Convolution20"
  param {
    lr_mult: 1
    decay_mult: 1
  }
  param {
    lr_mult: 2
    decay_mult: 0
  }
  convolution_param {
    num_output: 32
    pad: 1
    kernel_size: 3
    stride: 1
    weight_filler {
      type: "msra"
    }
    bias_filler {
      type: "constant"
      value: 0
    }
  }
}
layer {
  name: "BatchNorm20"
  type: "BatchNorm"
  bottom: "Convolution20"
  top: "Convolution20"
  param {
    lr_mult: 0
    decay_mult: 0
  }
  param {
    lr_mult: 0
    decay_mult: 0
  }
  param {
    lr_mult: 0
    decay_mult: 0
  }
}
layer {
  name: "Scale20"
  type: "Scale"
  bottom: "Convolution20"
  top: "Convolution20"
  scale_param {
    bias_term: true
  }
}
layer {
  name: "Eltwise9"
  type: "Eltwise"
  bottom: "Eltwise8"
  bottom: "Convolution20"
  top: "Eltwise9"
  eltwise_param {
    operation: SUM
  }
}
layer {
  name: "ReLU19"
  type: "ReLU"
  bottom: "Eltwise9"
  top: "Eltwise9"
}
layer {
  name: "Convolution21"
  type: "Convolution"
  bottom: "Eltwise9"
  top: "Convolution21"
  param {
    lr_mult: 1
    decay_mult: 1
  }
  param {
    lr_mult: 2
    decay_mult: 0
  }
  convolution_param {
    num_output: 32
    pad: 1
    kernel_size: 3
    stride: 1
    weight_filler {
      type: "msra"
    }
    bias_filler {
      type: "constant"
      value: 0
    }
  }
}
layer {
  name: "BatchNorm21"
  type: "BatchNorm"
  bottom: "Convolution21"
  top: "Convolution21"
  param {
    lr_mult: 0
    decay_mult: 0
  }
  param {
    lr_mult: 0
    decay_mult: 0
  }
  param {
    lr_mult: 0
    decay_mult: 0
  }
}
layer {
  name: "Scale21"
  type: "Scale"
  bottom: "Convolution21"
  top: "Convolution21"
  scale_param {
    bias_term: true
  }
}
layer {
  name: "ReLU20"
  type: "ReLU"
  bottom: "Convolution21"
  top: "Convolution21"
}
layer {
  name: "Convolution22"
  type: "Convolution"
  bottom: "Convolution21"
  top: "Convolution22"
  param {
    lr_mult: 1
    decay_mult: 1
  }
  param {
    lr_mult: 2
    decay_mult: 0
  }
  convolution_param {
    num_output: 32
    pad: 1
    kernel_size: 3
    stride: 1
    weight_filler {
      type: "msra"
    }
    bias_filler {
      type: "constant"
      value: 0
    }
  }
}
layer {
  name: "BatchNorm22"
  type: "BatchNorm"
  bottom: "Convolution22"
  top: "Convolution22"
  param {
    lr_mult: 0
    decay_mult: 0
  }
  param {
    lr_mult: 0
    decay_mult: 0
  }
  param {
    lr_mult: 0
    decay_mult: 0
  }
}
layer {
  name: "Scale22"
  type: "Scale"
  bottom: "Convolution22"
  top: "Convolution22"
  scale_param {
    bias_term: true
  }
}
layer {
  name: "Eltwise10"
  type: "Eltwise"
  bottom: "Eltwise9"
  bottom: "Convolution22"
  top: "Eltwise10"
  eltwise_param {
    operation: SUM
  }
}
layer {
  name: "ReLU21"
  type: "ReLU"
  bottom: "Eltwise10"
  top: "Eltwise10"
}
layer {
  name: "Convolution23"
  type: "Convolution"
  bottom: "Eltwise10"
  top: "Convolution23"
  param {
    lr_mult: 1
    decay_mult: 1
  }
  param {
    lr_mult: 2
    decay_mult: 0
  }
  convolution_param {
    num_output: 32
    pad: 1
    kernel_size: 3
    stride: 1
    weight_filler {
      type: "msra"
    }
    bias_filler {
      type: "constant"
      value: 0
    }
  }
}
layer {
  name: "BatchNorm23"
  type: "BatchNorm"
  bottom: "Convolution23"
  top: "Convolution23"
  param {
    lr_mult: 0
    decay_mult: 0
  }
  param {
    lr_mult: 0
    decay_mult: 0
  }
  param {
    lr_mult: 0
    decay_mult: 0
  }
}
layer {
  name: "Scale23"
  type: "Scale"
  bottom: "Convolution23"
  top: "Convolution23"
  scale_param {
    bias_term: true
  }
}
layer {
  name: "ReLU22"
  type: "ReLU"
  bottom: "Convolution23"
  top: "Convolution23"
}
layer {
  name: "Convolution24"
  type: "Convolution"
  bottom: "Convolution23"
  top: "Convolution24"
  param {
    lr_mult: 1
    decay_mult: 1
  }
  param {
    lr_mult: 2
    decay_mult: 0
  }
  convolution_param {
    num_output: 32
    pad: 1
    kernel_size: 3
    stride: 1
    weight_filler {
      type: "msra"
    }
    bias_filler {
      type: "constant"
      value: 0
    }
  }
}
layer {
  name: "BatchNorm24"
  type: "BatchNorm"
  bottom: "Convolution24"
  top: "Convolution24"
  param {
    lr_mult: 0
    decay_mult: 0
  }
  param {
    lr_mult: 0
    decay_mult: 0
  }
  param {
    lr_mult: 0
    decay_mult: 0
  }
}
layer {
  name: "Scale24"
  type: "Scale"
  bottom: "Convolution24"
  top: "Convolution24"
  scale_param {
    bias_term: true
  }
}
layer {
  name: "Eltwise11"
  type: "Eltwise"
  bottom: "Eltwise10"
  bottom: "Convolution24"
  top: "Eltwise11"
  eltwise_param {
    operation: SUM
  }
}
layer {
  name: "ReLU23"
  type: "ReLU"
  bottom: "Eltwise11"
  top: "Eltwise11"
}
layer {
  name: "Convolution25"
  type: "Convolution"
  bottom: "Eltwise11"
  top: "Convolution25"
  param {
    lr_mult: 1
    decay_mult: 1
  }
  param {
    lr_mult: 2
    decay_mult: 0
  }
  convolution_param {
    num_output: 32
    pad: 1
    kernel_size: 3
    stride: 1
    weight_filler {
      type: "msra"
    }
    bias_filler {
      type: "constant"
      value: 0
    }
  }
}
layer {
  name: "BatchNorm25"
  type: "BatchNorm"
  bottom: "Convolution25"
  top: "Convolution25"
  param {
    lr_mult: 0
    decay_mult: 0
  }
  param {
    lr_mult: 0
    decay_mult: 0
  }
  param {
    lr_mult: 0
    decay_mult: 0
  }
}
layer {
  name: "Scale25"
  type: "Scale"
  bottom: "Convolution25"
  top: "Convolution25"
  scale_param {
    bias_term: true
  }
}
layer {
  name: "ReLU24"
  type: "ReLU"
  bottom: "Convolution25"
  top: "Convolution25"
}
layer {
  name: "Convolution26"
  type: "Convolution"
  bottom: "Convolution25"
  top: "Convolution26"
  param {
    lr_mult: 1
    decay_mult: 1
  }
  param {
    lr_mult: 2
    decay_mult: 0
  }
  convolution_param {
    num_output: 32
    pad: 1
    kernel_size: 3
    stride: 1
    weight_filler {
      type: "msra"
    }
    bias_filler {
      type: "constant"
      value: 0
    }
  }
}
layer {
  name: "BatchNorm26"
  type: "BatchNorm"
  bottom: "Convolution26"
  top: "Convolution26"
  param {
    lr_mult: 0
    decay_mult: 0
  }
  param {
    lr_mult: 0
    decay_mult: 0
  }
  param {
    lr_mult: 0
    decay_mult: 0
  }
}
layer {
  name: "Scale26"
  type: "Scale"
  bottom: "Convolution26"
  top: "Convolution26"
  scale_param {
    bias_term: true
  }
}
layer {
  name: "Eltwise12"
  type: "Eltwise"
  bottom: "Eltwise11"
  bottom: "Convolution26"
  top: "Eltwise12"
  eltwise_param {
    operation: SUM
  }
}
layer {
  name: "ReLU25"
  type: "ReLU"
  bottom: "Eltwise12"
  top: "Eltwise12"
}
layer {
  name: "Convolution27"
  type: "Convolution"
  bottom: "Eltwise12"
  top: "Convolution27"
  param {
    lr_mult: 1
    decay_mult: 1
  }
  param {
    lr_mult: 2
    decay_mult: 0
  }
  convolution_param {
    num_output: 32
    pad: 1
    kernel_size: 3
    stride: 1
    weight_filler {
      type: "msra"
    }
    bias_filler {
      type: "constant"
      value: 0
    }
  }
}
layer {
  name: "BatchNorm27"
  type: "BatchNorm"
  bottom: "Convolution27"
  top: "Convolution27"
  param {
    lr_mult: 0
    decay_mult: 0
  }
  param {
    lr_mult: 0
    decay_mult: 0
  }
  param {
    lr_mult: 0
    decay_mult: 0
  }
}
layer {
  name: "Scale27"
  type: "Scale"
  bottom: "Convolution27"
  top: "Convolution27"
  scale_param {
    bias_term: true
  }
}
layer {
  name: "ReLU26"
  type: "ReLU"
  bottom: "Convolution27"
  top: "Convolution27"
}
layer {
  name: "Convolution28"
  type: "Convolution"
  bottom: "Convolution27"
  top: "Convolution28"
  param {
    lr_mult: 1
    decay_mult: 1
  }
  param {
    lr_mult: 2
    decay_mult: 0
  }
  convolution_param {
    num_output: 32
    pad: 1
    kernel_size: 3
    stride: 1
    weight_filler {
      type: "msra"
    }
    bias_filler {
      type: "constant"
      value: 0
    }
  }
}
layer {
  name: "BatchNorm28"
  type: "BatchNorm"
  bottom: "Convolution28"
  top: "Convolution28"
  param {
    lr_mult: 0
    decay_mult: 0
  }
  param {
    lr_mult: 0
    decay_mult: 0
  }
  param {
    lr_mult: 0
    decay_mult: 0
  }
}
layer {
  name: "Scale28"
  type: "Scale"
  bottom: "Convolution28"
  top: "Convolution28"
  scale_param {
    bias_term: true
  }
}
layer {
  name: "Eltwise13"
  type: "Eltwise"
  bottom: "Eltwise12"
  bottom: "Convolution28"
  top: "Eltwise13"
  eltwise_param {
    operation: SUM
  }
}
layer {
  name: "ReLU27"
  type: "ReLU"
  bottom: "Eltwise13"
  top: "Eltwise13"
}
layer {
  name: "Convolution29"
  type: "Convolution"
  bottom: "Eltwise13"
  top: "Convolution29"
  param {
    lr_mult: 1
    decay_mult: 1
  }
  param {
    lr_mult: 2
    decay_mult: 0
  }
  convolution_param {
    num_output: 32
    pad: 1
    kernel_size: 3
    stride: 1
    weight_filler {
      type: "msra"
    }
    bias_filler {
      type: "constant"
      value: 0
    }
  }
}
layer {
  name: "BatchNorm29"
  type: "BatchNorm"
  bottom: "Convolution29"
  top: "Convolution29"
  param {
    lr_mult: 0
    decay_mult: 0
  }
  param {
    lr_mult: 0
    decay_mult: 0
  }
  param {
    lr_mult: 0
    decay_mult: 0
  }
}
layer {
  name: "Scale29"
  type: "Scale"
  bottom: "Convolution29"
  top: "Convolution29"
  scale_param {
    bias_term: true
  }
}
layer {
  name: "ReLU28"
  type: "ReLU"
  bottom: "Convolution29"
  top: "Convolution29"
}
layer {
  name: "Convolution30"
  type: "Convolution"
  bottom: "Convolution29"
  top: "Convolution30"
  param {
    lr_mult: 1
    decay_mult: 1
  }
  param {
    lr_mult: 2
    decay_mult: 0
  }
  convolution_param {
    num_output: 32
    pad: 1
    kernel_size: 3
    stride: 1
    weight_filler {
      type: "msra"
    }
    bias_filler {
      type: "constant"
      value: 0
    }
  }
}
layer {
  name: "BatchNorm30"
  type: "BatchNorm"
  bottom: "Convolution30"
  top: "Convolution30"
  param {
    lr_mult: 0
    decay_mult: 0
  }
  param {
    lr_mult: 0
    decay_mult: 0
  }
  param {
    lr_mult: 0
    decay_mult: 0
  }
}
layer {
  name: "Scale30"
  type: "Scale"
  bottom: "Convolution30"
  top: "Convolution30"
  scale_param {
    bias_term: true
  }
}
layer {
  name: "Eltwise14"
  type: "Eltwise"
  bottom: "Eltwise13"
  bottom: "Convolution30"
  top: "Eltwise14"
  eltwise_param {
    operation: SUM
  }
}
layer {
  name: "ReLU29"
  type: "ReLU"
  bottom: "Eltwise14"
  top: "Eltwise14"
}
layer {
  name: "Convolution31"
  type: "Convolution"
  bottom: "Eltwise14"
  top: "Convolution31"
  param {
    lr_mult: 1
    decay_mult: 1
  }
  param {
    lr_mult: 2
    decay_mult: 0
  }
  convolution_param {
    num_output: 64
    pad: 0
    kernel_size: 1
    stride: 2
    weight_filler {
      type: "msra"
    }
    bias_filler {
      type: "constant"
      value: 0
    }
  }
}
layer {
  name: "BatchNorm31"
  type: "BatchNorm"
  bottom: "Convolution31"
  top: "Convolution31"
  param {
    lr_mult: 0
    decay_mult: 0
  }
  param {
    lr_mult: 0
    decay_mult: 0
  }
  param {
    lr_mult: 0
    decay_mult: 0
  }
}
layer {
  name: "Scale31"
  type: "Scale"
  bottom: "Convolution31"
  top: "Convolution31"
  scale_param {
    bias_term: true
  }
}
layer {
  name: "Convolution32"
  type: "Convolution"
  bottom: "Eltwise14"
  top: "Convolution32"
  param {
    lr_mult: 1
    decay_mult: 1
  }
  param {
    lr_mult: 2
    decay_mult: 0
  }
  convolution_param {
    num_output: 64
    pad: 1
    kernel_size: 3
    stride: 2
    weight_filler {
      type: "msra"
    }
    bias_filler {
      type: "constant"
      value: 0
    }
  }
}
layer {
  name: "BatchNorm32"
  type: "BatchNorm"
  bottom: "Convolution32"
  top: "Convolution32"
  param {
    lr_mult: 0
    decay_mult: 0
  }
  param {
    lr_mult: 0
    decay_mult: 0
  }
  param {
    lr_mult: 0
    decay_mult: 0
  }
}
layer {
  name: "Scale32"
  type: "Scale"
  bottom: "Convolution32"
  top: "Convolution32"
  scale_param {
    bias_term: true
  }
}
layer {
  name: "ReLU30"
  type: "ReLU"
  bottom: "Convolution32"
  top: "Convolution32"
}
layer {
  name: "Convolution33"
  type: "Convolution"
  bottom: "Convolution32"
  top: "Convolution33"
  param {
    lr_mult: 1
    decay_mult: 1
  }
  param {
    lr_mult: 2
    decay_mult: 0
  }
  convolution_param {
I0825 11:11:33.316799  1899 layer_factory.hpp:77] Creating layer Data1
I0825 11:11:33.316988  1899 db_lmdb.cpp:35] Opened lmdb /home/lijianfei/datasets/cifar10_40/train_lmdb
I0825 11:11:33.317046  1899 net.cpp:128] Creating Layer Data1
I0825 11:11:33.317057  1899 net.cpp:522] Data1 -> Data1
I0825 11:11:33.317092  1899 net.cpp:522] Data1 -> Data2
I0825 11:11:33.318965  1899 data_layer.cpp:45] output data size: 64,3,32,32
I0825 11:11:33.331548  1899 net.cpp:172] Setting up Data1
I0825 11:11:33.331631  1899 net.cpp:186] Top shape: 64 3 32 32 (196608)
I0825 11:11:33.331651  1899 net.cpp:186] Top shape: 64 (64)
I0825 11:11:33.331666  1899 net.cpp:194] Memory required for data: 786688
I0825 11:11:33.331693  1899 layer_factory.hpp:77] Creating layer Convolution1
I0825 11:11:33.331743  1899 net.cpp:128] Creating Layer Convolution1
I0825 11:11:33.331763  1899 net.cpp:558] Convolution1 <- Data1
I0825 11:11:33.331794  1899 net.cpp:522] Convolution1 -> Convolution1
I0825 11:11:34.409482  1899 net.cpp:172] Setting up Convolution1
I0825 11:11:34.409539  1899 net.cpp:186] Top shape: 64 16 32 32 (1048576)
I0825 11:11:34.409544  1899 net.cpp:194] Memory required for data: 4980992
I0825 11:11:34.409586  1899 layer_factory.hpp:77] Creating layer BatchNorm1
I0825 11:11:34.409605  1899 net.cpp:128] Creating Layer BatchNorm1
I0825 11:11:34.409664  1899 net.cpp:558] BatchNorm1 <- Convolution1
I0825 11:11:34.409692  1899 net.cpp:509] BatchNorm1 -> Convolution1 (in-place)
I0825 11:11:34.409938  1899 net.cpp:172] Setting up BatchNorm1
I0825 11:11:34.409950  1899 net.cpp:186] Top shape: 64 16 32 32 (1048576)
I0825 11:11:34.409956  1899 net.cpp:194] Memory required for data: 9175296
I0825 11:11:34.409996  1899 layer_factory.hpp:77] Creating layer Scale1
I0825 11:11:34.410039  1899 net.cpp:128] Creating Layer Scale1
I0825 11:11:34.410055  1899 net.cpp:558] Scale1 <- Convolution1
I0825 11:11:34.410073  1899 net.cpp:509] Scale1 -> Convolution1 (in-place)
I0825 11:11:34.410140  1899 layer_factory.hpp:77] Creating layer Scale1
I0825 11:11:34.410284  1899 net.cpp:172] Setting up Scale1
I0825 11:11:34.410295  1899 net.cpp:186] Top shape: 64 16 32 32 (1048576)
I0825 11:11:34.410300  1899 net.cpp:194] Memory required for data: 13369600
I0825 11:11:34.410308  1899 layer_factory.hpp:77] Creating layer ReLU1
I0825 11:11:34.410318  1899 net.cpp:128] Creating Layer ReLU1
I0825 11:11:34.410323  1899 net.cpp:558] ReLU1 <- Convolution1
I0825 11:11:34.410329  1899 net.cpp:509] ReLU1 -> Convolution1 (in-place)
I0825 11:11:34.411243  1899 net.cpp:172] Setting up ReLU1
I0825 11:11:34.411260  1899 net.cpp:186] Top shape: 64 16 32 32 (1048576)
I0825 11:11:34.411265  1899 net.cpp:194] Memory required for data: 17563904
I0825 11:11:34.411270  1899 layer_factory.hpp:77] Creating layer Convolution1_ReLU1_0_split
I0825 11:11:34.411281  1899 net.cpp:128] Creating Layer Convolution1_ReLU1_0_split
I0825 11:11:34.411285  1899 net.cpp:558] Convolution1_ReLU1_0_split <- Convolution1
I0825 11:11:34.411293  1899 net.cpp:522] Convolution1_ReLU1_0_split -> Convolution1_ReLU1_0_split_0
I0825 11:11:34.411300  1899 net.cpp:522] Convolution1_ReLU1_0_split -> Convolution1_ReLU1_0_split_1
I0825 11:11:34.411342  1899 net.cpp:172] Setting up Convolution1_ReLU1_0_split
I0825 11:11:34.411350  1899 net.cpp:186] Top shape: 64 16 32 32 (1048576)
I0825 11:11:34.411355  1899 net.cpp:186] Top shape: 64 16 32 32 (1048576)
I0825 11:11:34.411360  1899 net.cpp:194] Memory required for data: 25952512
I0825 11:11:34.411365  1899 layer_factory.hpp:77] Creating layer Convolution2
I0825 11:11:34.411378  1899 net.cpp:128] Creating Layer Convolution2
I0825 11:11:34.411383  1899 net.cpp:558] Convolution2 <- Convolution1_ReLU1_0_split_0
I0825 11:11:34.411389  1899 net.cpp:522] Convolution2 -> Convolution2
I0825 11:11:34.418064  1899 net.cpp:172] Setting up Convolution2
I0825 11:11:34.418090  1899 net.cpp:186] Top shape: 64 16 32 32 (1048576)
I0825 11:11:34.418095  1899 net.cpp:194] Memory required for data: 30146816
I0825 11:11:34.418108  1899 layer_factory.hpp:77] Creating layer BatchNorm2
I0825 11:11:34.418118  1899 net.cpp:128] Creating Layer BatchNorm2
I0825 11:11:34.418160  1899 net.cpp:558] BatchNorm2 <- Convolution2
I0825 11:11:34.418174  1899 net.cpp:509] BatchNorm2 -> Convolution2 (in-place)
I0825 11:11:34.418413  1899 net.cpp:172] Setting up BatchNorm2
I0825 11:11:34.418428  1899 net.cpp:186] Top shape: 64 16 32 32 (1048576)
I0825 11:11:34.418433  1899 net.cpp:194] Memory required for data: 34341120
I0825 11:11:34.418444  1899 layer_factory.hpp:77] Creating layer Scale2
I0825 11:11:34.418453  1899 net.cpp:128] Creating Layer Scale2
I0825 11:11:34.418457  1899 net.cpp:558] Scale2 <- Convolution2
I0825 11:11:34.418464  1899 net.cpp:509] Scale2 -> Convolution2 (in-place)
I0825 11:11:34.418507  1899 layer_factory.hpp:77] Creating layer Scale2
I0825 11:11:34.418664  1899 net.cpp:172] Setting up Scale2
I0825 11:11:34.418687  1899 net.cpp:186] Top shape: 64 16 32 32 (1048576)
I0825 11:11:34.418702  1899 net.cpp:194] Memory required for data: 38535424
I0825 11:11:34.418733  1899 layer_factory.hpp:77] Creating layer ReLU2
I0825 11:11:34.418751  1899 net.cpp:128] Creating Layer ReLU2
I0825 11:11:34.418771  1899 net.cpp:558] ReLU2 <- Convolution2
I0825 11:11:34.418787  1899 net.cpp:509] ReLU2 -> Convolution2 (in-place)
I0825 11:11:34.420192  1899 net.cpp:172] Setting up ReLU2
I0825 11:11:34.420210  1899 net.cpp:186] Top shape: 64 16 32 32 (1048576)
I0825 11:11:34.420217  1899 net.cpp:194] Memory required for data: 42729728
I0825 11:11:34.420220  1899 layer_factory.hpp:77] Creating layer Convolution3
I0825 11:11:34.420233  1899 net.cpp:128] Creating Layer Convolution3
I0825 11:11:34.420238  1899 net.cpp:558] Convolution3 <- Convolution2
I0825 11:11:34.420285  1899 net.cpp:522] Convolution3 -> Convolution3
I0825 11:11:34.424302  1899 net.cpp:172] Setting up Convolution3
I0825 11:11:34.424329  1899 net.cpp:186] Top shape: 64 16 32 32 (1048576)
I0825 11:11:34.424335  1899 net.cpp:194] Memory required for data: 46924032
I0825 11:11:34.424345  1899 layer_factory.hpp:77] Creating layer BatchNorm3
I0825 11:11:34.424355  1899 net.cpp:128] Creating Layer BatchNorm3
I0825 11:11:34.424360  1899 net.cpp:558] BatchNorm3 <- Convolution3
I0825 11:11:34.424401  1899 net.cpp:509] BatchNorm3 -> Convolution3 (in-place)
I0825 11:11:34.424641  1899 net.cpp:172] Setting up BatchNorm3
I0825 11:11:34.424652  1899 net.cpp:186] Top shape: 64 16 32 32 (1048576)
I0825 11:11:34.424657  1899 net.cpp:194] Memory required for data: 51118336
I0825 11:11:34.424670  1899 layer_factory.hpp:77] Creating layer Scale3
I0825 11:11:34.424679  1899 net.cpp:128] Creating Layer Scale3
I0825 11:11:34.424684  1899 net.cpp:558] Scale3 <- Convolution3
I0825 11:11:34.424690  1899 net.cpp:509] Scale3 -> Convolution3 (in-place)
I0825 11:11:34.424731  1899 layer_factory.hpp:77] Creating layer Scale3
I0825 11:11:34.424886  1899 net.cpp:172] Setting up Scale3
I0825 11:11:34.424909  1899 net.cpp:186] Top shape: 64 16 32 32 (1048576)
I0825 11:11:34.424927  1899 net.cpp:194] Memory required for data: 55312640
I0825 11:11:34.424947  1899 layer_factory.hpp:77] Creating layer Eltwise1
I0825 11:11:34.424970  1899 net.cpp:128] Creating Layer Eltwise1
I0825 11:11:34.424984  1899 net.cpp:558] Eltwise1 <- Convolution1_ReLU1_0_split_1
I0825 11:11:34.425000  1899 net.cpp:558] Eltwise1 <- Convolution3
I0825 11:11:34.425021  1899 net.cpp:522] Eltwise1 -> Eltwise1
I0825 11:11:34.425065  1899 net.cpp:172] Setting up Eltwise1
I0825 11:11:34.425083  1899 net.cpp:186] Top shape: 64 16 32 32 (1048576)
I0825 11:11:34.425101  1899 net.cpp:194] Memory required for data: 59506944
I0825 11:11:34.425115  1899 layer_factory.hpp:77] Creating layer ReLU3
I0825 11:11:34.425132  1899 net.cpp:128] Creating Layer ReLU3
I0825 11:11:34.425146  1899 net.cpp:558] ReLU3 <- Eltwise1
I0825 11:11:34.425166  1899 net.cpp:509] ReLU3 -> Eltwise1 (in-place)
I0825 11:11:34.428544  1899 net.cpp:172] Setting up ReLU3
I0825 11:11:34.428570  1899 net.cpp:186] Top shape: 64 16 32 32 (1048576)
I0825 11:11:34.428575  1899 net.cpp:194] Memory required for data: 63701248
I0825 11:11:34.428580  1899 layer_factory.hpp:77] Creating layer Eltwise1_ReLU3_0_split
I0825 11:11:34.428589  1899 net.cpp:128] Creating Layer Eltwise1_ReLU3_0_split
I0825 11:11:34.428593  1899 net.cpp:558] Eltwise1_ReLU3_0_split <- Eltwise1
I0825 11:11:34.428628  1899 net.cpp:522] Eltwise1_ReLU3_0_split -> Eltwise1_ReLU3_0_split_0
I0825 11:11:34.428650  1899 net.cpp:522] Eltwise1_ReLU3_0_split -> Eltwise1_ReLU3_0_split_1
I0825 11:11:34.428714  1899 net.cpp:172] Setting up Eltwise1_ReLU3_0_split
I0825 11:11:34.428725  1899 net.cpp:186] Top shape: 64 16 32 32 (1048576)
I0825 11:11:34.428732  1899 net.cpp:186] Top shape: 64 16 32 32 (1048576)
I0825 11:11:34.428736  1899 net.cpp:194] Memory required for data: 72089856
I0825 11:11:34.428757  1899 layer_factory.hpp:77] Creating layer Convolution4
I0825 11:11:34.428783  1899 net.cpp:128] Creating Layer Convolution4
I0825 11:11:34.428791  1899 net.cpp:558] Convolution4 <- Eltwise1_ReLU3_0_split_0
I0825 11:11:34.428799  1899 net.cpp:522] Convolution4 -> Convolution4
I0825 11:11:34.435818  1899 net.cpp:172] Setting up Convolution4
I0825 11:11:34.435847  1899 net.cpp:186] Top shape: 64 16 32 32 (1048576)
I0825 11:11:34.435850  1899 net.cpp:194] Memory required for data: 76284160
I0825 11:11:34.435863  1899 layer_factory.hpp:77] Creating layer BatchNorm4
I0825 11:11:34.435871  1899 net.cpp:128] Creating Layer BatchNorm4
I0825 11:11:34.435904  1899 net.cpp:558] BatchNorm4 <- Convolution4
I0825 11:11:34.435922  1899 net.cpp:509] BatchNorm4 -> Convolution4 (in-place)
I0825 11:11:34.436177  1899 net.cpp:172] Setting up BatchNorm4
I0825 11:11:34.436188  1899 net.cpp:186] Top shape: 64 16 32 32 (1048576)
I0825 11:11:34.436192  1899 net.cpp:194] Memory required for data: 80478464
I0825 11:11:34.436236  1899 layer_factory.hpp:77] Creating layer Scale4
I0825 11:11:34.436249  1899 net.cpp:128] Creating Layer Scale4
I0825 11:11:34.436254  1899 net.cpp:558] Scale4 <- Convolution4
I0825 11:11:34.436261  1899 net.cpp:509] Scale4 -> Convolution4 (in-place)
I0825 11:11:34.436329  1899 layer_factory.hpp:77] Creating layer Scale4
I0825 11:11:34.436465  1899 net.cpp:172] Setting up Scale4
I0825 11:11:34.436475  1899 net.cpp:186] Top shape: 64 16 32 32 (1048576)
I0825 11:11:34.436480  1899 net.cpp:194] Memory required for data: 84672768
I0825 11:11:34.436488  1899 layer_factory.hpp:77] Creating layer ReLU4
I0825 11:11:34.436516  1899 net.cpp:128] Creating Layer ReLU4
I0825 11:11:34.436532  1899 net.cpp:558] ReLU4 <- Convolution4
I0825 11:11:34.436550  1899 net.cpp:509] ReLU4 -> Convolution4 (in-place)
I0825 11:11:34.437937  1899 net.cpp:172] Setting up ReLU4
I0825 11:11:34.437955  1899 net.cpp:186] Top shape: 64 16 32 32 (1048576)
I0825 11:11:34.437960  1899 net.cpp:194] Memory required for data: 88867072
I0825 11:11:34.437964  1899 layer_factory.hpp:77] Creating layer Convolution5
I0825 11:11:34.437984  1899 net.cpp:128] Creating Layer Convolution5
I0825 11:11:34.438014  1899 net.cpp:558] Convolution5 <- Convolution4
I0825 11:11:34.438037  1899 net.cpp:522] Convolution5 -> Convolution5
I0825 11:11:34.444789  1899 net.cpp:172] Setting up Convolution5
I0825 11:11:34.444813  1899 net.cpp:186] Top shape: 64 16 32 32 (1048576)
I0825 11:11:34.444816  1899 net.cpp:194] Memory required for data: 93061376
I0825 11:11:34.444826  1899 layer_factory.hpp:77] Creating layer BatchNorm5
I0825 11:11:34.444838  1899 net.cpp:128] Creating Layer BatchNorm5
I0825 11:11:34.444875  1899 net.cpp:558] BatchNorm5 <- Convolution5
I0825 11:11:34.444898  1899 net.cpp:509] BatchNorm5 -> Convolution5 (in-place)
I0825 11:11:34.445143  1899 net.cpp:172] Setting up BatchNorm5
I0825 11:11:34.445154  1899 net.cpp:186] Top shape: 64 16 32 32 (1048576)
I0825 11:11:34.445178  1899 net.cpp:194] Memory required for data: 97255680
I0825 11:11:34.445199  1899 layer_factory.hpp:77] Creating layer Scale5
I0825 11:11:34.445222  1899 net.cpp:128] Creating Layer Scale5
I0825 11:11:34.445230  1899 net.cpp:558] Scale5 <- Convolution5
I0825 11:11:34.445236  1899 net.cpp:509] Scale5 -> Convolution5 (in-place)
I0825 11:11:34.445286  1899 layer_factory.hpp:77] Creating layer Scale5
I0825 11:11:34.445416  1899 net.cpp:172] Setting up Scale5
I0825 11:11:34.445427  1899 net.cpp:186] Top shape: 64 16 32 32 (1048576)
I0825 11:11:34.445431  1899 net.cpp:194] Memory required for data: 101449984
I0825 11:11:34.445458  1899 layer_factory.hpp:77] Creating layer Eltwise2
I0825 11:11:34.445473  1899 net.cpp:128] Creating Layer Eltwise2
I0825 11:11:34.445497  1899 net.cpp:558] Eltwise2 <- Eltwise1_ReLU3_0_split_1
I0825 11:11:34.445505  1899 net.cpp:558] Eltwise2 <- Convolution5
I0825 11:11:34.445514  1899 net.cpp:522] Eltwise2 -> Eltwise2
I0825 11:11:34.445561  1899 net.cpp:172] Setting up Eltwise2
I0825 11:11:34.445571  1899 net.cpp:186] Top shape: 64 16 32 32 (1048576)
I0825 11:11:34.445575  1899 net.cpp:194] Memory required for data: 105644288
I0825 11:11:34.445580  1899 layer_factory.hpp:77] Creating layer ReLU5
I0825 11:11:34.445605  1899 net.cpp:128] Creating Layer ReLU5
I0825 11:11:34.445622  1899 net.cpp:558] ReLU5 <- Eltwise2
I0825 11:11:34.445634  1899 net.cpp:509] ReLU5 -> Eltwise2 (in-place)
I0825 11:11:34.446877  1899 net.cpp:172] Setting up ReLU5
I0825 11:11:34.446895  1899 net.cpp:186] Top shape: 64 16 32 32 (1048576)
I0825 11:11:34.446900  1899 net.cpp:194] Memory required for data: 109838592
I0825 11:11:34.446904  1899 layer_factory.hpp:77] Creating layer Eltwise2_ReLU5_0_split
I0825 11:11:34.446915  1899 net.cpp:128] Creating Layer Eltwise2_ReLU5_0_split
I0825 11:11:34.446943  1899 net.cpp:558] Eltwise2_ReLU5_0_split <- Eltwise2
I0825 11:11:34.446964  1899 net.cpp:522] Eltwise2_ReLU5_0_split -> Eltwise2_ReLU5_0_split_0
I0825 11:11:34.446990  1899 net.cpp:522] Eltwise2_ReLU5_0_split -> Eltwise2_ReLU5_0_split_1
I0825 11:11:34.447054  1899 net.cpp:172] Setting up Eltwise2_ReLU5_0_split
I0825 11:11:34.447077  1899 net.cpp:186] Top shape: 64 16 32 32 (1048576)
I0825 11:11:34.447082  1899 net.cpp:186] Top shape: 64 16 32 32 (1048576)
I0825 11:11:34.447087  1899 net.cpp:194] Memory required for data: 118227200
I0825 11:11:34.447090  1899 layer_factory.hpp:77] Creating layer Convolution6
I0825 11:11:34.447108  1899 net.cpp:128] Creating Layer Convolution6
I0825 11:11:34.447132  1899 net.cpp:558] Convolution6 <- Eltwise2_ReLU5_0_split_0
I0825 11:11:34.447154  1899 net.cpp:522] Convolution6 -> Convolution6
I0825 11:11:34.454583  1899 net.cpp:172] Setting up Convolution6
I0825 11:11:34.454607  1899 net.cpp:186] Top shape: 64 16 32 32 (1048576)
I0825 11:11:34.454612  1899 net.cpp:194] Memory required for data: 122421504
I0825 11:11:34.454622  1899 layer_factory.hpp:77] Creating layer BatchNorm6
I0825 11:11:34.454632  1899 net.cpp:128] Creating Layer BatchNorm6
I0825 11:11:34.454665  1899 net.cpp:558] BatchNorm6 <- Convolution6
I0825 11:11:34.454684  1899 net.cpp:509] BatchNorm6 -> Convolution6 (in-place)
I0825 11:11:34.454938  1899 net.cpp:172] Setting up BatchNorm6
I0825 11:11:34.454949  1899 net.cpp:186] Top shape: 64 16 32 32 (1048576)
I0825 11:11:34.454954  1899 net.cpp:194] Memory required for data: 126615808
I0825 11:11:34.454964  1899 layer_factory.hpp:77] Creating layer Scale6
I0825 11:11:34.454990  1899 net.cpp:128] Creating Layer Scale6
I0825 11:11:34.455008  1899 net.cpp:558] Scale6 <- Convolution6
I0825 11:11:34.455026  1899 net.cpp:509] Scale6 -> Convolution6 (in-place)
I0825 11:11:34.455088  1899 layer_factory.hpp:77] Creating layer Scale6
I0825 11:11:34.455224  1899 net.cpp:172] Setting up Scale6
I0825 11:11:34.455235  1899 net.cpp:186] Top shape: 64 16 32 32 (1048576)
I0825 11:11:34.455240  1899 net.cpp:194] Memory required for data: 130810112
I0825 11:11:34.455247  1899 layer_factory.hpp:77] Creating layer ReLU6
I0825 11:11:34.455273  1899 net.cpp:128] Creating Layer ReLU6
I0825 11:11:34.455291  1899 net.cpp:558] ReLU6 <- Convolution6
I0825 11:11:34.455312  1899 net.cpp:509] ReLU6 -> Convolution6 (in-place)
I0825 11:11:34.456732  1899 net.cpp:172] Setting up ReLU6
I0825 11:11:34.456756  1899 net.cpp:186] Top shape: 64 16 32 32 (1048576)
I0825 11:11:34.456761  1899 net.cpp:194] Memory required for data: 135004416
I0825 11:11:34.456766  1899 layer_factory.hpp:77] Creating layer Convolution7
I0825 11:11:34.456780  1899 net.cpp:128] Creating Layer Convolution7
I0825 11:11:34.456815  1899 net.cpp:558] Convolution7 <- Convolution6
I0825 11:11:34.456835  1899 net.cpp:522] Convolution7 -> Convolution7
I0825 11:11:34.459430  1899 net.cpp:172] Setting up Convolution7
I0825 11:11:34.459458  1899 net.cpp:186] Top shape: 64 16 32 32 (1048576)
I0825 11:11:34.459463  1899 net.cpp:194] Memory required for data: 139198720
I0825 11:11:34.459473  1899 layer_factory.hpp:77] Creating layer BatchNorm7
I0825 11:11:34.459483  1899 net.cpp:128] Creating Layer BatchNorm7
I0825 11:11:34.459519  1899 net.cpp:558] BatchNorm7 <- Convolution7
I0825 11:11:34.459537  1899 net.cpp:509] BatchNorm7 -> Convolution7 (in-place)
I0825 11:11:34.459800  1899 net.cpp:172] Setting up BatchNorm7
I0825 11:11:34.459812  1899 net.cpp:186] Top shape: 64 16 32 32 (1048576)
I0825 11:11:34.459816  1899 net.cpp:194] Memory required for data: 143393024
I0825 11:11:34.459827  1899 layer_factory.hpp:77] Creating layer Scale7
I0825 11:11:34.459861  1899 net.cpp:128] Creating Layer Scale7
I0825 11:11:34.459880  1899 net.cpp:558] Scale7 <- Convolution7
I0825 11:11:34.459899  1899 net.cpp:509] Scale7 -> Convolution7 (in-place)
I0825 11:11:34.459966  1899 layer_factory.hpp:77] Creating layer Scale7
I0825 11:11:34.460108  1899 net.cpp:172] Setting up Scale7
I0825 11:11:34.460117  1899 net.cpp:186] Top shape: 64 16 32 32 (1048576)
I0825 11:11:34.460121  1899 net.cpp:194] Memory required for data: 147587328
I0825 11:11:34.460129  1899 layer_factory.hpp:77] Creating layer Eltwise3
I0825 11:11:34.460157  1899 net.cpp:128] Creating Layer Eltwise3
I0825 11:11:34.460175  1899 net.cpp:558] Eltwise3 <- Eltwise2_ReLU5_0_split_1
I0825 11:11:34.460192  1899 net.cpp:558] Eltwise3 <- Convolution7
I0825 11:11:34.460204  1899 net.cpp:522] Eltwise3 -> Eltwise3
I0825 11:11:34.460253  1899 net.cpp:172] Setting up Eltwise3
I0825 11:11:34.460264  1899 net.cpp:186] Top shape: 64 16 32 32 (1048576)
I0825 11:11:34.460268  1899 net.cpp:194] Memory required for data: 151781632
I0825 11:11:34.460273  1899 layer_factory.hpp:77] Creating layer ReLU7
I0825 11:11:34.460280  1899 net.cpp:128] Creating Layer ReLU7
I0825 11:11:34.460302  1899 net.cpp:558] ReLU7 <- Eltwise3
I0825 11:11:34.460320  1899 net.cpp:509] ReLU7 -> Eltwise3 (in-place)
I0825 11:11:34.461446  1899 net.cpp:172] Setting up ReLU7
I0825 11:11:34.461460  1899 net.cpp:186] Top shape: 64 16 32 32 (1048576)
I0825 11:11:34.461464  1899 net.cpp:194] Memory required for data: 155975936
I0825 11:11:34.461469  1899 layer_factory.hpp:77] Creating layer Eltwise3_ReLU7_0_split
I0825 11:11:34.461478  1899 net.cpp:128] Creating Layer Eltwise3_ReLU7_0_split
I0825 11:11:34.461483  1899 net.cpp:558] Eltwise3_ReLU7_0_split <- Eltwise3
I0825 11:11:34.461489  1899 net.cpp:522] Eltwise3_ReLU7_0_split -> Eltwise3_ReLU7_0_split_0
I0825 11:11:34.461498  1899 net.cpp:522] Eltwise3_ReLU7_0_split -> Eltwise3_ReLU7_0_split_1
I0825 11:11:34.461572  1899 net.cpp:172] Setting up Eltwise3_ReLU7_0_split
I0825 11:11:34.461593  1899 net.cpp:186] Top shape: 64 16 32 32 (1048576)
I0825 11:11:34.461611  1899 net.cpp:186] Top shape: 64 16 32 32 (1048576)
I0825 11:11:34.461628  1899 net.cpp:194] Memory required for data: 164364544
I0825 11:11:34.461645  1899 layer_factory.hpp:77] Creating layer Convolution8
I0825 11:11:34.461671  1899 net.cpp:128] Creating Layer Convolution8
I0825 11:11:34.461679  1899 net.cpp:558] Convolution8 <- Eltwise3_ReLU7_0_split_0
I0825 11:11:34.461689  1899 net.cpp:522] Convolution8 -> Convolution8
I0825 11:11:34.468313  1899 net.cpp:172] Setting up Convolution8
I0825 11:11:34.468359  1899 net.cpp:186] Top shape: 64 16 32 32 (1048576)
I0825 11:11:34.468379  1899 net.cpp:194] Memory required for data: 168558848
I0825 11:11:34.468402  1899 layer_factory.hpp:77] Creating layer BatchNorm8
I0825 11:11:34.468425  1899 net.cpp:128] Creating Layer BatchNorm8
I0825 11:11:34.468443  1899 net.cpp:558] BatchNorm8 <- Convolution8
I0825 11:11:34.468463  1899 net.cpp:509] BatchNorm8 -> Convolution8 (in-place)
I0825 11:11:34.468734  1899 net.cpp:172] Setting up BatchNorm8
I0825 11:11:34.468757  1899 net.cpp:186] Top shape: 64 16 32 32 (1048576)
I0825 11:11:34.468773  1899 net.cpp:194] Memory required for data: 172753152
I0825 11:11:34.468796  1899 layer_factory.hpp:77] Creating layer Scale8
I0825 11:11:34.468817  1899 net.cpp:128] Creating Layer Scale8
I0825 11:11:34.468834  1899 net.cpp:558] Scale8 <- Convolution8
I0825 11:11:34.468852  1899 net.cpp:509] Scale8 -> Convolution8 (in-place)
I0825 11:11:34.468920  1899 layer_factory.hpp:77] Creating layer Scale8
I0825 11:11:34.469077  1899 net.cpp:172] Setting up Scale8
I0825 11:11:34.469099  1899 net.cpp:186] Top shape: 64 16 32 32 (1048576)
I0825 11:11:34.469115  1899 net.cpp:194] Memory required for data: 176947456
I0825 11:11:34.469141  1899 layer_factory.hpp:77] Creating layer ReLU8
I0825 11:11:34.469161  1899 net.cpp:128] Creating Layer ReLU8
I0825 11:11:34.469177  1899 net.cpp:558] ReLU8 <- Convolution8
I0825 11:11:34.469198  1899 net.cpp:509] ReLU8 -> Convolution8 (in-place)
I0825 11:11:34.470397  1899 net.cpp:172] Setting up ReLU8
I0825 11:11:34.470414  1899 net.cpp:186] Top shape: 64 16 32 32 (1048576)
I0825 11:11:34.470418  1899 net.cpp:194] Memory required for data: 181141760
I0825 11:11:34.470423  1899 layer_factory.hpp:77] Creating layer Convolution9
I0825 11:11:34.470438  1899 net.cpp:128] Creating Layer Convolution9
I0825 11:11:34.470464  1899 net.cpp:558] Convolution9 <- Convolution8
I0825 11:11:34.470486  1899 net.cpp:522] Convolution9 -> Convolution9
I0825 11:11:34.483178  1899 net.cpp:172] Setting up Convolution9
I0825 11:11:34.483206  1899 net.cpp:186] Top shape: 64 16 32 32 (1048576)
I0825 11:11:34.483211  1899 net.cpp:194] Memory required for data: 185336064
I0825 11:11:34.483237  1899 layer_factory.hpp:77] Creating layer BatchNorm9
I0825 11:11:34.483278  1899 net.cpp:128] Creating Layer BatchNorm9
I0825 11:11:34.483295  1899 net.cpp:558] BatchNorm9 <- Convolution9
I0825 11:11:34.483321  1899 net.cpp:509] BatchNorm9 -> Convolution9 (in-place)
I0825 11:11:34.483580  1899 net.cpp:172] Setting up BatchNorm9
I0825 11:11:34.483590  1899 net.cpp:186] Top shape: 64 16 32 32 (1048576)
I0825 11:11:34.483594  1899 net.cpp:194] Memory required for data: 189530368
I0825 11:11:34.483605  1899 layer_factory.hpp:77] Creating layer Scale9
I0825 11:11:34.483635  1899 net.cpp:128] Creating Layer Scale9
I0825 11:11:34.483652  1899 net.cpp:558] Scale9 <- Convolution9
I0825 11:11:34.483671  1899 net.cpp:509] Scale9 -> Convolution9 (in-place)
I0825 11:11:34.483736  1899 layer_factory.hpp:77] Creating layer Scale9
I0825 11:11:34.483880  1899 net.cpp:172] Setting up Scale9
I0825 11:11:34.483891  1899 net.cpp:186] Top shape: 64 16 32 32 (1048576)
I0825 11:11:34.483896  1899 net.cpp:194] Memory required for data: 193724672
I0825 11:11:34.483904  1899 layer_factory.hpp:77] Creating layer Eltwise4
I0825 11:11:34.483935  1899 net.cpp:128] Creating Layer Eltwise4
I0825 11:11:34.483952  1899 net.cpp:558] Eltwise4 <- Eltwise3_ReLU7_0_split_1
I0825 11:11:34.483971  1899 net.cpp:558] Eltwise4 <- Convolution9
I0825 11:11:34.483989  1899 net.cpp:522] Eltwise4 -> Eltwise4
I0825 11:11:34.484036  1899 net.cpp:172] Setting up Eltwise4
I0825 11:11:34.484046  1899 net.cpp:186] Top shape: 64 16 32 32 (1048576)
I0825 11:11:34.484051  1899 net.cpp:194] Memory required for data: 197918976
I0825 11:11:34.484055  1899 layer_factory.hpp:77] Creating layer ReLU9
I0825 11:11:34.484062  1899 net.cpp:128] Creating Layer ReLU9
I0825 11:11:34.484084  1899 net.cpp:558] ReLU9 <- Eltwise4
I0825 11:11:34.484103  1899 net.cpp:509] ReLU9 -> Eltwise4 (in-place)
I0825 11:11:34.485273  1899 net.cpp:172] Setting up ReLU9
I0825 11:11:34.485287  1899 net.cpp:186] Top shape: 64 16 32 32 (1048576)
I0825 11:11:34.485291  1899 net.cpp:194] Memory required for data: 202113280
I0825 11:11:34.485296  1899 layer_factory.hpp:77] Creating layer Eltwise4_ReLU9_0_split
I0825 11:11:34.485304  1899 net.cpp:128] Creating Layer Eltwise4_ReLU9_0_split
I0825 11:11:34.485308  1899 net.cpp:558] Eltwise4_ReLU9_0_split <- Eltwise4
I0825 11:11:34.485316  1899 net.cpp:522] Eltwise4_ReLU9_0_split -> Eltwise4_ReLU9_0_split_0
I0825 11:11:34.485325  1899 net.cpp:522] Eltwise4_ReLU9_0_split -> Eltwise4_ReLU9_0_split_1
I0825 11:11:34.485404  1899 net.cpp:172] Setting up Eltwise4_ReLU9_0_split
I0825 11:11:34.485425  1899 net.cpp:186] Top shape: 64 16 32 32 (1048576)
I0825 11:11:34.485445  1899 net.cpp:186] Top shape: 64 16 32 32 (1048576)
I0825 11:11:34.485460  1899 net.cpp:194] Memory required for data: 210501888
I0825 11:11:34.485477  1899 layer_factory.hpp:77] Creating layer Convolution10
I0825 11:11:34.485502  1899 net.cpp:128] Creating Layer Convolution10
I0825 11:11:34.485512  1899 net.cpp:558] Convolution10 <- Eltwise4_ReLU9_0_split_0
I0825 11:11:34.485522  1899 net.cpp:522] Convolution10 -> Convolution10
I0825 11:11:34.492048  1899 net.cpp:172] Setting up Convolution10
I0825 11:11:34.492074  1899 net.cpp:186] Top shape: 64 16 32 32 (1048576)
I0825 11:11:34.492079  1899 net.cpp:194] Memory required for data: 214696192
I0825 11:11:34.492100  1899 layer_factory.hpp:77] Creating layer BatchNorm10
I0825 11:11:34.492110  1899 net.cpp:128] Creating Layer BatchNorm10
I0825 11:11:34.492115  1899 net.cpp:558] BatchNorm10 <- Convolution10
I0825 11:11:34.492123  1899 net.cpp:509] BatchNorm10 -> Convolution10 (in-place)
I0825 11:11:34.492375  1899 net.cpp:172] Setting up BatchNorm10
I0825 11:11:34.492388  1899 net.cpp:186] Top shape: 64 16 32 32 (1048576)
I0825 11:11:34.492393  1899 net.cpp:194] Memory required for data: 218890496
I0825 11:11:34.492403  1899 layer_factory.hpp:77] Creating layer Scale10
I0825 11:11:34.492409  1899 net.cpp:128] Creating Layer Scale10
I0825 11:11:34.492413  1899 net.cpp:558] Scale10 <- Convolution10
I0825 11:11:34.492419  1899 net.cpp:509] Scale10 -> Convolution10 (in-place)
I0825 11:11:34.492530  1899 layer_factory.hpp:77] Creating layer Scale10
I0825 11:11:34.492688  1899 net.cpp:172] Setting up Scale10
I0825 11:11:34.492702  1899 net.cpp:186] Top shape: 64 16 32 32 (1048576)
I0825 11:11:34.492707  1899 net.cpp:194] Memory required for data: 223084800
I0825 11:11:34.492715  1899 layer_factory.hpp:77] Creating layer ReLU10
I0825 11:11:34.492724  1899 net.cpp:128] Creating Layer ReLU10
I0825 11:11:34.492729  1899 net.cpp:558] ReLU10 <- Convolution10
I0825 11:11:34.492735  1899 net.cpp:509] ReLU10 -> Convolution10 (in-place)
I0825 11:11:34.494180  1899 net.cpp:172] Setting up ReLU10
I0825 11:11:34.494230  1899 net.cpp:186] Top shape: 64 16 32 32 (1048576)
I0825 11:11:34.494248  1899 net.cpp:194] Memory required for data: 227279104
I0825 11:11:34.494264  1899 layer_factory.hpp:77] Creating layer Convolution11
I0825 11:11:34.494288  1899 net.cpp:128] Creating Layer Convolution11
I0825 11:11:34.494310  1899 net.cpp:558] Convolution11 <- Convolution10
I0825 11:11:34.494331  1899 net.cpp:522] Convolution11 -> Convolution11
I0825 11:11:34.501595  1899 net.cpp:172] Setting up Convolution11
I0825 11:11:34.501621  1899 net.cpp:186] Top shape: 64 16 32 32 (1048576)
I0825 11:11:34.501626  1899 net.cpp:194] Memory required for data: 231473408
I0825 11:11:34.501636  1899 layer_factory.hpp:77] Creating layer BatchNorm11
I0825 11:11:34.501644  1899 net.cpp:128] Creating Layer BatchNorm11
I0825 11:11:34.501648  1899 net.cpp:558] BatchNorm11 <- Convolution11
I0825 11:11:34.501658  1899 net.cpp:509] BatchNorm11 -> Convolution11 (in-place)
I0825 11:11:34.501955  1899 net.cpp:172] Setting up BatchNorm11
I0825 11:11:34.501966  1899 net.cpp:186] Top shape: 64 16 32 32 (1048576)
I0825 11:11:34.501971  1899 net.cpp:194] Memory required for data: 235667712
I0825 11:11:34.501981  1899 layer_factory.hpp:77] Creating layer Scale11
I0825 11:11:34.502008  1899 net.cpp:128] Creating Layer Scale11
I0825 11:11:34.502025  1899 net.cpp:558] Scale11 <- Convolution11
I0825 11:11:34.502048  1899 net.cpp:509] Scale11 -> Convolution11 (in-place)
I0825 11:11:34.502100  1899 layer_factory.hpp:77] Creating layer Scale11
I0825 11:11:34.502243  1899 net.cpp:172] Setting up Scale11
I0825 11:11:34.502254  1899 net.cpp:186] Top shape: 64 16 32 32 (1048576)
I0825 11:11:34.502257  1899 net.cpp:194] Memory required for data: 239862016
I0825 11:11:34.502265  1899 layer_factory.hpp:77] Creating layer Eltwise5
I0825 11:11:34.502291  1899 net.cpp:128] Creating Layer Eltwise5
I0825 11:11:34.502308  1899 net.cpp:558] Eltwise5 <- Eltwise4_ReLU9_0_split_1
I0825 11:11:34.502326  1899 net.cpp:558] Eltwise5 <- Convolution11
I0825 11:11:34.502359  1899 net.cpp:522] Eltwise5 -> Eltwise5
I0825 11:11:34.502396  1899 net.cpp:172] Setting up Eltwise5
I0825 11:11:34.502408  1899 net.cpp:186] Top shape: 64 16 32 32 (1048576)
I0825 11:11:34.502429  1899 net.cpp:194] Memory required for data: 244056320
I0825 11:11:34.502445  1899 layer_factory.hpp:77] Creating layer ReLU11
I0825 11:11:34.502465  1899 net.cpp:128] Creating Layer ReLU11
I0825 11:11:34.502472  1899 net.cpp:558] ReLU11 <- Eltwise5
I0825 11:11:34.502478  1899 net.cpp:509] ReLU11 -> Eltwise5 (in-place)
I0825 11:11:34.505784  1899 net.cpp:172] Setting up ReLU11
I0825 11:11:34.505801  1899 net.cpp:186] Top shape: 64 16 32 32 (1048576)
I0825 11:11:34.505806  1899 net.cpp:194] Memory required for data: 248250624
I0825 11:11:34.505810  1899 layer_factory.hpp:77] Creating layer Eltwise5_ReLU11_0_split
I0825 11:11:34.505820  1899 net.cpp:128] Creating Layer Eltwise5_ReLU11_0_split
I0825 11:11:34.505825  1899 net.cpp:558] Eltwise5_ReLU11_0_split <- Eltwise5
I0825 11:11:34.505831  1899 net.cpp:522] Eltwise5_ReLU11_0_split -> Eltwise5_ReLU11_0_split_0
I0825 11:11:34.505841  1899 net.cpp:522] Eltwise5_ReLU11_0_split -> Eltwise5_ReLU11_0_split_1
I0825 11:11:34.505918  1899 net.cpp:172] Setting up Eltwise5_ReLU11_0_split
I0825 11:11:34.505929  1899 net.cpp:186] Top shape: 64 16 32 32 (1048576)
I0825 11:11:34.505935  1899 net.cpp:186] Top shape: 64 16 32 32 (1048576)
I0825 11:11:34.505967  1899 net.cpp:194] Memory required for data: 256639232
I0825 11:11:34.505975  1899 layer_factory.hpp:77] Creating layer Convolution12
I0825 11:11:34.505993  1899 net.cpp:128] Creating Layer Convolution12
I0825 11:11:34.506014  1899 net.cpp:558] Convolution12 <- Eltwise5_ReLU11_0_split_0
I0825 11:11:34.506026  1899 net.cpp:522] Convolution12 -> Convolution12
I0825 11:11:34.515323  1899 net.cpp:172] Setting up Convolution12
I0825 11:11:34.515349  1899 net.cpp:186] Top shape: 64 16 32 32 (1048576)
I0825 11:11:34.515353  1899 net.cpp:194] Memory required for data: 260833536
I0825 11:11:34.515363  1899 layer_factory.hpp:77] Creating layer BatchNorm12
I0825 11:11:34.515377  1899 net.cpp:128] Creating Layer BatchNorm12
I0825 11:11:34.515381  1899 net.cpp:558] BatchNorm12 <- Convolution12
I0825 11:11:34.515388  1899 net.cpp:509] BatchNorm12 -> Convolution12 (in-place)
I0825 11:11:34.515641  1899 net.cpp:172] Setting up BatchNorm12
I0825 11:11:34.515653  1899 net.cpp:186] Top shape: 64 16 32 32 (1048576)
I0825 11:11:34.515658  1899 net.cpp:194] Memory required for data: 265027840
I0825 11:11:34.515668  1899 layer_factory.hpp:77] Creating layer Scale12
I0825 11:11:34.515677  1899 net.cpp:128] Creating Layer Scale12
I0825 11:11:34.515682  1899 net.cpp:558] Scale12 <- Convolution12
I0825 11:11:34.515688  1899 net.cpp:509] Scale12 -> Convolution12 (in-place)
I0825 11:11:34.515734  1899 layer_factory.hpp:77] Creating layer Scale12
I0825 11:11:34.515916  1899 net.cpp:172] Setting up Scale12
I0825 11:11:34.515929  1899 net.cpp:186] Top shape: 64 16 32 32 (1048576)
I0825 11:11:34.515935  1899 net.cpp:194] Memory required for data: 269222144
I0825 11:11:34.515944  1899 layer_factory.hpp:77] Creating layer ReLU12
I0825 11:11:34.515950  1899 net.cpp:128] Creating Layer ReLU12
I0825 11:11:34.515954  1899 net.cpp:558] ReLU12 <- Convolution12
I0825 11:11:34.515962  1899 net.cpp:509] ReLU12 -> Convolution12 (in-place)
I0825 11:11:34.517429  1899 net.cpp:172] Setting up ReLU12
I0825 11:11:34.517446  1899 net.cpp:186] Top shape: 64 16 32 32 (1048576)
I0825 11:11:34.517451  1899 net.cpp:194] Memory required for data: 273416448
I0825 11:11:34.517455  1899 layer_factory.hpp:77] Creating layer Convolution13
I0825 11:11:34.517468  1899 net.cpp:128] Creating Layer Convolution13
I0825 11:11:34.517473  1899 net.cpp:558] Convolution13 <- Convolution12
I0825 11:11:34.517483  1899 net.cpp:522] Convolution13 -> Convolution13
I0825 11:11:34.524245  1899 net.cpp:172] Setting up Convolution13
I0825 11:11:34.524292  1899 net.cpp:186] Top shape: 64 16 32 32 (1048576)
I0825 11:11:34.524312  1899 net.cpp:194] Memory required for data: 277610752
I0825 11:11:34.524338  1899 layer_factory.hpp:77] Creating layer BatchNorm13
I0825 11:11:34.524360  1899 net.cpp:128] Creating Layer BatchNorm13
I0825 11:11:34.524379  1899 net.cpp:558] BatchNorm13 <- Convolution13
I0825 11:11:34.524404  1899 net.cpp:509] BatchNorm13 -> Convolution13 (in-place)
I0825 11:11:34.524680  1899 net.cpp:172] Setting up BatchNorm13
I0825 11:11:34.524693  1899 net.cpp:186] Top shape: 64 16 32 32 (1048576)
I0825 11:11:34.524696  1899 net.cpp:194] Memory required for data: 281805056
I0825 11:11:34.524708  1899 layer_factory.hpp:77] Creating layer Scale13
I0825 11:11:34.524714  1899 net.cpp:128] Creating Layer Scale13
I0825 11:11:34.524739  1899 net.cpp:558] Scale13 <- Convolution13
I0825 11:11:34.524762  1899 net.cpp:509] Scale13 -> Convolution13 (in-place)
I0825 11:11:34.524817  1899 layer_factory.hpp:77] Creating layer Scale13
I0825 11:11:34.524961  1899 net.cpp:172] Setting up Scale13
I0825 11:11:34.524973  1899 net.cpp:186] Top shape: 64 16 32 32 (1048576)
I0825 11:11:34.524997  1899 net.cpp:194] Memory required for data: 285999360
I0825 11:11:34.525010  1899 layer_factory.hpp:77] Creating layer Eltwise6
I0825 11:11:34.525017  1899 net.cpp:128] Creating Layer Eltwise6
I0825 11:11:34.525038  1899 net.cpp:558] Eltwise6 <- Eltwise5_ReLU11_0_split_1
I0825 11:11:34.525058  1899 net.cpp:558] Eltwise6 <- Convolution13
I0825 11:11:34.525068  1899 net.cpp:522] Eltwise6 -> Eltwise6
I0825 11:11:34.525135  1899 net.cpp:172] Setting up Eltwise6
I0825 11:11:34.525147  1899 net.cpp:186] Top shape: 64 16 32 32 (1048576)
I0825 11:11:34.525152  1899 net.cpp:194] Memory required for data: 290193664
I0825 11:11:34.525156  1899 layer_factory.hpp:77] Creating layer ReLU13
I0825 11:11:34.525187  1899 net.cpp:128] Creating Layer ReLU13
I0825 11:11:34.525195  1899 net.cpp:558] ReLU13 <- Eltwise6
I0825 11:11:34.525202  1899 net.cpp:509] ReLU13 -> Eltwise6 (in-place)
I0825 11:11:34.526327  1899 net.cpp:172] Setting up ReLU13
I0825 11:11:34.526360  1899 net.cpp:186] Top shape: 64 16 32 32 (1048576)
I0825 11:11:34.526365  1899 net.cpp:194] Memory required for data: 294387968
I0825 11:11:34.526371  1899 layer_factory.hpp:77] Creating layer Eltwise6_ReLU13_0_split
I0825 11:11:34.526383  1899 net.cpp:128] Creating Layer Eltwise6_ReLU13_0_split
I0825 11:11:34.526414  1899 net.cpp:558] Eltwise6_ReLU13_0_split <- Eltwise6
I0825 11:11:34.526440  1899 net.cpp:522] Eltwise6_ReLU13_0_split -> Eltwise6_ReLU13_0_split_0
I0825 11:11:34.526463  1899 net.cpp:522] Eltwise6_ReLU13_0_split -> Eltwise6_ReLU13_0_split_1
I0825 11:11:34.526535  1899 net.cpp:172] Setting up Eltwise6_ReLU13_0_split
I0825 11:11:34.526548  1899 net.cpp:186] Top shape: 64 16 32 32 (1048576)
I0825 11:11:34.526554  1899 net.cpp:186] Top shape: 64 16 32 32 (1048576)
I0825 11:11:34.526576  1899 net.cpp:194] Memory required for data: 302776576
I0825 11:11:34.526592  1899 layer_factory.hpp:77] Creating layer Convolution14
I0825 11:11:34.526610  1899 net.cpp:128] Creating Layer Convolution14
I0825 11:11:34.526630  1899 net.cpp:558] Convolution14 <- Eltwise6_ReLU13_0_split_0
I0825 11:11:34.526641  1899 net.cpp:522] Convolution14 -> Convolution14
I0825 11:11:34.535372  1899 net.cpp:172] Setting up Convolution14
I0825 11:11:34.535398  1899 net.cpp:186] Top shape: 64 16 32 32 (1048576)
I0825 11:11:34.535403  1899 net.cpp:194] Memory required for data: 306970880
I0825 11:11:34.535413  1899 layer_factory.hpp:77] Creating layer BatchNorm14
I0825 11:11:34.535423  1899 net.cpp:128] Creating Layer BatchNorm14
I0825 11:11:34.535429  1899 net.cpp:558] BatchNorm14 <- Convolution14
I0825 11:11:34.535435  1899 net.cpp:509] BatchNorm14 -> Convolution14 (in-place)
I0825 11:11:34.535727  1899 net.cpp:172] Setting up BatchNorm14
I0825 11:11:34.535738  1899 net.cpp:186] Top shape: 64 16 32 32 (1048576)
I0825 11:11:34.535742  1899 net.cpp:194] Memory required for data: 311165184
I0825 11:11:34.535753  1899 layer_factory.hpp:77] Creating layer Scale14
I0825 11:11:34.535779  1899 net.cpp:128] Creating Layer Scale14
I0825 11:11:34.535797  1899 net.cpp:558] Scale14 <- Convolution14
I0825 11:11:34.535815  1899 net.cpp:509] Scale14 -> Convolution14 (in-place)
I0825 11:11:34.535882  1899 layer_factory.hpp:77] Creating layer Scale14
I0825 11:11:34.536026  1899 net.cpp:172] Setting up Scale14
I0825 11:11:34.536036  1899 net.cpp:186] Top shape: 64 16 32 32 (1048576)
I0825 11:11:34.536039  1899 net.cpp:194] Memory required for data: 315359488
I0825 11:11:34.536047  1899 layer_factory.hpp:77] Creating layer ReLU14
I0825 11:11:34.536072  1899 net.cpp:128] Creating Layer ReLU14
I0825 11:11:34.536090  1899 net.cpp:558] ReLU14 <- Convolution14
I0825 11:11:34.536110  1899 net.cpp:509] ReLU14 -> Convolution14 (in-place)
I0825 11:11:34.539589  1899 net.cpp:172] Setting up ReLU14
I0825 11:11:34.539609  1899 net.cpp:186] Top shape: 64 16 32 32 (1048576)
I0825 11:11:34.539613  1899 net.cpp:194] Memory required for data: 319553792
I0825 11:11:34.539618  1899 layer_factory.hpp:77] Creating layer Convolution15
I0825 11:11:34.539633  1899 net.cpp:128] Creating Layer Convolution15
I0825 11:11:34.539638  1899 net.cpp:558] Convolution15 <- Convolution14
I0825 11:11:34.539652  1899 net.cpp:522] Convolution15 -> Convolution15
I0825 11:11:34.548035  1899 net.cpp:172] Setting up Convolution15
I0825 11:11:34.548061  1899 net.cpp:186] Top shape: 64 16 32 32 (1048576)
I0825 11:11:34.548065  1899 net.cpp:194] Memory required for data: 323748096
I0825 11:11:34.548075  1899 layer_factory.hpp:77] Creating layer BatchNorm15
I0825 11:11:34.548102  1899 net.cpp:128] Creating Layer BatchNorm15
I0825 11:11:34.548107  1899 net.cpp:558] BatchNorm15 <- Convolution15
I0825 11:11:34.548116  1899 net.cpp:509] BatchNorm15 -> Convolution15 (in-place)
I0825 11:11:34.548378  1899 net.cpp:172] Setting up BatchNorm15
I0825 11:11:34.548390  1899 net.cpp:186] Top shape: 64 16 32 32 (1048576)
I0825 11:11:34.548395  1899 net.cpp:194] Memory required for data: 327942400
I0825 11:11:34.548405  1899 layer_factory.hpp:77] Creating layer Scale15
I0825 11:11:34.548413  1899 net.cpp:128] Creating Layer Scale15
I0825 11:11:34.548418  1899 net.cpp:558] Scale15 <- Convolution15
I0825 11:11:34.548424  1899 net.cpp:509] Scale15 -> Convolution15 (in-place)
I0825 11:11:34.548470  1899 layer_factory.hpp:77] Creating layer Scale15
I0825 11:11:34.548653  1899 net.cpp:172] Setting up Scale15
I0825 11:11:34.548666  1899 net.cpp:186] Top shape: 64 16 32 32 (1048576)
I0825 11:11:34.548671  1899 net.cpp:194] Memory required for data: 332136704
I0825 11:11:34.548679  1899 layer_factory.hpp:77] Creating layer Eltwise7
I0825 11:11:34.548689  1899 net.cpp:128] Creating Layer Eltwise7
I0825 11:11:34.548694  1899 net.cpp:558] Eltwise7 <- Eltwise6_ReLU13_0_split_1
I0825 11:11:34.548699  1899 net.cpp:558] Eltwise7 <- Convolution15
I0825 11:11:34.548707  1899 net.cpp:522] Eltwise7 -> Eltwise7
I0825 11:11:34.548734  1899 net.cpp:172] Setting up Eltwise7
I0825 11:11:34.548765  1899 net.cpp:186] Top shape: 64 16 32 32 (1048576)
I0825 11:11:34.548779  1899 net.cpp:194] Memory required for data: 336331008
I0825 11:11:34.548794  1899 layer_factory.hpp:77] Creating layer ReLU15
I0825 11:11:34.548813  1899 net.cpp:128] Creating Layer ReLU15
I0825 11:11:34.548828  1899 net.cpp:558] ReLU15 <- Eltwise7
I0825 11:11:34.548843  1899 net.cpp:509] ReLU15 -> Eltwise7 (in-place)
I0825 11:11:34.550138  1899 net.cpp:172] Setting up ReLU15
I0825 11:11:34.550153  1899 net.cpp:186] Top shape: 64 16 32 32 (1048576)
I0825 11:11:34.550158  1899 net.cpp:194] Memory required for data: 340525312
I0825 11:11:34.550161  1899 layer_factory.hpp:77] Creating layer Eltwise7_ReLU15_0_split
I0825 11:11:34.550171  1899 net.cpp:128] Creating Layer Eltwise7_ReLU15_0_split
I0825 11:11:34.550175  1899 net.cpp:558] Eltwise7_ReLU15_0_split <- Eltwise7
I0825 11:11:34.550182  1899 net.cpp:522] Eltwise7_ReLU15_0_split -> Eltwise7_ReLU15_0_split_0
I0825 11:11:34.550191  1899 net.cpp:522] Eltwise7_ReLU15_0_split -> Eltwise7_ReLU15_0_split_1
I0825 11:11:34.550241  1899 net.cpp:172] Setting up Eltwise7_ReLU15_0_split
I0825 11:11:34.550248  1899 net.cpp:186] Top shape: 64 16 32 32 (1048576)
I0825 11:11:34.550254  1899 net.cpp:186] Top shape: 64 16 32 32 (1048576)
I0825 11:11:34.550257  1899 net.cpp:194] Memory required for data: 348913920
I0825 11:11:34.550262  1899 layer_factory.hpp:77] Creating layer Convolution16
I0825 11:11:34.550274  1899 net.cpp:128] Creating Layer Convolution16
I0825 11:11:34.550279  1899 net.cpp:558] Convolution16 <- Eltwise7_ReLU15_0_split_0
I0825 11:11:34.550288  1899 net.cpp:522] Convolution16 -> Convolution16
I0825 11:11:34.552079  1899 net.cpp:172] Setting up Convolution16
I0825 11:11:34.552132  1899 net.cpp:186] Top shape: 64 32 16 16 (524288)
I0825 11:11:34.552151  1899 net.cpp:194] Memory required for data: 351011072
I0825 11:11:34.552172  1899 layer_factory.hpp:77] Creating layer BatchNorm16
I0825 11:11:34.552198  1899 net.cpp:128] Creating Layer BatchNorm16
I0825 11:11:34.552219  1899 net.cpp:558] BatchNorm16 <- Convolution16
I0825 11:11:34.552238  1899 net.cpp:509] BatchNorm16 -> Convolution16 (in-place)
I0825 11:11:34.552520  1899 net.cpp:172] Setting up BatchNorm16
I0825 11:11:34.552532  1899 net.cpp:186] Top shape: 64 32 16 16 (524288)
I0825 11:11:34.552538  1899 net.cpp:194] Memory required for data: 353108224
I0825 11:11:34.552548  1899 layer_factory.hpp:77] Creating layer Scale16
I0825 11:11:34.552556  1899 net.cpp:128] Creating Layer Scale16
I0825 11:11:34.552559  1899 net.cpp:558] Scale16 <- Convolution16
I0825 11:11:34.552565  1899 net.cpp:509] Scale16 -> Convolution16 (in-place)
I0825 11:11:34.552611  1899 layer_factory.hpp:77] Creating layer Scale16
I0825 11:11:34.552793  1899 net.cpp:172] Setting up Scale16
I0825 11:11:34.552804  1899 net.cpp:186] Top shape: 64 32 16 16 (524288)
I0825 11:11:34.552809  1899 net.cpp:194] Memory required for data: 355205376
I0825 11:11:34.552817  1899 layer_factory.hpp:77] Creating layer Convolution17
I0825 11:11:34.552829  1899 net.cpp:128] Creating Layer Convolution17
I0825 11:11:34.552834  1899 net.cpp:558] Convolution17 <- Eltwise7_ReLU15_0_split_1
I0825 11:11:34.552844  1899 net.cpp:522] Convolution17 -> Convolution17
I0825 11:11:34.557602  1899 net.cpp:172] Setting up Convolution17
I0825 11:11:34.557633  1899 net.cpp:186] Top shape: 64 32 16 16 (524288)
I0825 11:11:34.557637  1899 net.cpp:194] Memory required for data: 357302528
I0825 11:11:34.557649  1899 layer_factory.hpp:77] Creating layer BatchNorm17
I0825 11:11:34.557660  1899 net.cpp:128] Creating Layer BatchNorm17
I0825 11:11:34.557695  1899 net.cpp:558] BatchNorm17 <- Convolution17
I0825 11:11:34.557718  1899 net.cpp:509] BatchNorm17 -> Convolution17 (in-place)
I0825 11:11:34.557992  1899 net.cpp:172] Setting up BatchNorm17
I0825 11:11:34.558003  1899 net.cpp:186] Top shape: 64 32 16 16 (524288)
I0825 11:11:34.558007  1899 net.cpp:194] Memory required for data: 359399680
I0825 11:11:34.558018  1899 layer_factory.hpp:77] Creating layer Scale17
I0825 11:11:34.558046  1899 net.cpp:128] Creating Layer Scale17
I0825 11:11:34.558064  1899 net.cpp:558] Scale17 <- Convolution17
I0825 11:11:34.558082  1899 net.cpp:509] Scale17 -> Convolution17 (in-place)
I0825 11:11:34.558147  1899 layer_factory.hpp:77] Creating layer Scale17
I0825 11:11:34.558297  1899 net.cpp:172] Setting up Scale17
I0825 11:11:34.558307  1899 net.cpp:186] Top shape: 64 32 16 16 (524288)
I0825 11:11:34.558312  1899 net.cpp:194] Memory required for data: 361496832
I0825 11:11:34.558320  1899 layer_factory.hpp:77] Creating layer ReLU16
I0825 11:11:34.558362  1899 net.cpp:128] Creating Layer ReLU16
I0825 11:11:34.558382  1899 net.cpp:558] ReLU16 <- Convolution17
I0825 11:11:34.558401  1899 net.cpp:509] ReLU16 -> Convolution17 (in-place)
I0825 11:11:34.558907  1899 net.cpp:172] Setting up ReLU16
I0825 11:11:34.558928  1899 net.cpp:186] Top shape: 64 32 16 16 (524288)
I0825 11:11:34.558933  1899 net.cpp:194] Memory required for data: 363593984
I0825 11:11:34.558938  1899 layer_factory.hpp:77] Creating layer Convolution18
I0825 11:11:34.558953  1899 net.cpp:128] Creating Layer Convolution18
I0825 11:11:34.558985  1899 net.cpp:558] Convolution18 <- Convolution17
I0825 11:11:34.559007  1899 net.cpp:522] Convolution18 -> Convolution18
I0825 11:11:34.562592  1899 net.cpp:172] Setting up Convolution18
I0825 11:11:34.562615  1899 net.cpp:186] Top shape: 64 32 16 16 (524288)
I0825 11:11:34.562619  1899 net.cpp:194] Memory required for data: 365691136
I0825 11:11:34.562630  1899 layer_factory.hpp:77] Creating layer BatchNorm18
I0825 11:11:34.562642  1899 net.cpp:128] Creating Layer BatchNorm18
I0825 11:11:34.562675  1899 net.cpp:558] BatchNorm18 <- Convolution18
I0825 11:11:34.562695  1899 net.cpp:509] BatchNorm18 -> Convolution18 (in-place)
I0825 11:11:34.562968  1899 net.cpp:172] Setting up BatchNorm18
I0825 11:11:34.562980  1899 net.cpp:186] Top shape: 64 32 16 16 (524288)
I0825 11:11:34.562984  1899 net.cpp:194] Memory required for data: 367788288
I0825 11:11:34.562994  1899 layer_factory.hpp:77] Creating layer Scale18
I0825 11:11:34.563031  1899 net.cpp:128] Creating Layer Scale18
I0825 11:11:34.563040  1899 net.cpp:558] Scale18 <- Convolution18
I0825 11:11:34.563045  1899 net.cpp:509] Scale18 -> Convolution18 (in-place)
I0825 11:11:34.563098  1899 layer_factory.hpp:77] Creating layer Scale18
I0825 11:11:34.563246  1899 net.cpp:172] Setting up Scale18
I0825 11:11:34.563254  1899 net.cpp:186] Top shape: 64 32 16 16 (524288)
I0825 11:11:34.563277  1899 net.cpp:194] Memory required for data: 369885440
I0825 11:11:34.563289  1899 layer_factory.hpp:77] Creating layer Eltwise8
I0825 11:11:34.563313  1899 net.cpp:128] Creating Layer Eltwise8
I0825 11:11:34.563321  1899 net.cpp:558] Eltwise8 <- Convolution16
I0825 11:11:34.563349  1899 net.cpp:558] Eltwise8 <- Convolution18
I0825 11:11:34.563362  1899 net.cpp:522] Eltwise8 -> Eltwise8
I0825 11:11:34.563406  1899 net.cpp:172] Setting up Eltwise8
I0825 11:11:34.563416  1899 net.cpp:186] Top shape: 64 32 16 16 (524288)
I0825 11:11:34.563421  1899 net.cpp:194] Memory required for data: 371982592
I0825 11:11:34.563424  1899 layer_factory.hpp:77] Creating layer ReLU17
I0825 11:11:34.563446  1899 net.cpp:128] Creating Layer ReLU17
I0825 11:11:34.563462  1899 net.cpp:558] ReLU17 <- Eltwise8
I0825 11:11:34.563474  1899 net.cpp:509] ReLU17 -> Eltwise8 (in-place)
I0825 11:11:34.563727  1899 net.cpp:172] Setting up ReLU17
I0825 11:11:34.563742  1899 net.cpp:186] Top shape: 64 32 16 16 (524288)
I0825 11:11:34.563746  1899 net.cpp:194] Memory required for data: 374079744
I0825 11:11:34.563771  1899 layer_factory.hpp:77] Creating layer Eltwise8_ReLU17_0_split
I0825 11:11:34.563784  1899 net.cpp:128] Creating Layer Eltwise8_ReLU17_0_split
I0825 11:11:34.563803  1899 net.cpp:558] Eltwise8_ReLU17_0_split <- Eltwise8
I0825 11:11:34.563814  1899 net.cpp:522] Eltwise8_ReLU17_0_split -> Eltwise8_ReLU17_0_split_0
I0825 11:11:34.563825  1899 net.cpp:522] Eltwise8_ReLU17_0_split -> Eltwise8_ReLU17_0_split_1
I0825 11:11:34.563895  1899 net.cpp:172] Setting up Eltwise8_ReLU17_0_split
I0825 11:11:34.563905  1899 net.cpp:186] Top shape: 64 32 16 16 (524288)
I0825 11:11:34.563911  1899 net.cpp:186] Top shape: 64 32 16 16 (524288)
I0825 11:11:34.563932  1899 net.cpp:194] Memory required for data: 378274048
I0825 11:11:34.563949  1899 layer_factory.hpp:77] Creating layer Convolution19
I0825 11:11:34.563967  1899 net.cpp:128] Creating Layer Convolution19
I0825 11:11:34.563989  1899 net.cpp:558] Convolution19 <- Eltwise8_ReLU17_0_split_0
I0825 11:11:34.564003  1899 net.cpp:522] Convolution19 -> Convolution19
I0825 11:11:34.568663  1899 net.cpp:172] Setting up Convolution19
I0825 11:11:34.568708  1899 net.cpp:186] Top shape: 64 32 16 16 (524288)
I0825 11:11:34.568725  1899 net.cpp:194] Memory required for data: 380371200
I0825 11:11:34.568748  1899 layer_factory.hpp:77] Creating layer BatchNorm19
I0825 11:11:34.568770  1899 net.cpp:128] Creating Layer BatchNorm19
I0825 11:11:34.568789  1899 net.cpp:558] BatchNorm19 <- Convolution19
I0825 11:11:34.568809  1899 net.cpp:509] BatchNorm19 -> Convolution19 (in-place)
I0825 11:11:34.569087  1899 net.cpp:172] Setting up BatchNorm19
I0825 11:11:34.569109  1899 net.cpp:186] Top shape: 64 32 16 16 (524288)
I0825 11:11:34.569125  1899 net.cpp:194] Memory required for data: 382468352
I0825 11:11:34.569166  1899 layer_factory.hpp:77] Creating layer Scale19
I0825 11:11:34.569190  1899 net.cpp:128] Creating Layer Scale19
I0825 11:11:34.569207  1899 net.cpp:558] Scale19 <- Convolution19
I0825 11:11:34.569226  1899 net.cpp:509] Scale19 -> Convolution19 (in-place)
I0825 11:11:34.569295  1899 layer_factory.hpp:77] Creating layer Scale19
I0825 11:11:34.569455  1899 net.cpp:172] Setting up Scale19
I0825 11:11:34.569478  1899 net.cpp:186] Top shape: 64 32 16 16 (524288)
I0825 11:11:34.569494  1899 net.cpp:194] Memory required for data: 384565504
I0825 11:11:34.569516  1899 layer_factory.hpp:77] Creating layer ReLU18
I0825 11:11:34.569535  1899 net.cpp:128] Creating Layer ReLU18
I0825 11:11:34.569551  1899 net.cpp:558] ReLU18 <- Convolution19
I0825 11:11:34.569572  1899 net.cpp:509] ReLU18 -> Convolution19 (in-place)
I0825 11:11:34.571012  1899 net.cpp:172] Setting up ReLU18
I0825 11:11:34.571033  1899 net.cpp:186] Top shape: 64 32 16 16 (524288)
I0825 11:11:34.571038  1899 net.cpp:194] Memory required for data: 386662656
I0825 11:11:34.571043  1899 layer_factory.hpp:77] Creating layer Convolution20
I0825 11:11:34.571058  1899 net.cpp:128] Creating Layer Convolution20
I0825 11:11:34.571063  1899 net.cpp:558] Convolution20 <- Convolution19
I0825 11:11:34.571105  1899 net.cpp:522] Convolution20 -> Convolution20
I0825 11:11:34.577898  1899 net.cpp:172] Setting up Convolution20
I0825 11:11:34.577924  1899 net.cpp:186] Top shape: 64 32 16 16 (524288)
I0825 11:11:34.577947  1899 net.cpp:194] Memory required for data: 388759808
I0825 11:11:34.577957  1899 layer_factory.hpp:77] Creating layer BatchNorm20
I0825 11:11:34.577993  1899 net.cpp:128] Creating Layer BatchNorm20
I0825 11:11:34.578011  1899 net.cpp:558] BatchNorm20 <- Convolution20
I0825 11:11:34.578035  1899 net.cpp:509] BatchNorm20 -> Convolution20 (in-place)
I0825 11:11:34.578320  1899 net.cpp:172] Setting up BatchNorm20
I0825 11:11:34.578332  1899 net.cpp:186] Top shape: 64 32 16 16 (524288)
I0825 11:11:34.578346  1899 net.cpp:194] Memory required for data: 390856960
I0825 11:11:34.578356  1899 layer_factory.hpp:77] Creating layer Scale20
I0825 11:11:34.578387  1899 net.cpp:128] Creating Layer Scale20
I0825 11:11:34.578405  1899 net.cpp:558] Scale20 <- Convolution20
I0825 11:11:34.578428  1899 net.cpp:509] Scale20 -> Convolution20 (in-place)
I0825 11:11:34.578496  1899 layer_factory.hpp:77] Creating layer Scale20
I0825 11:11:34.578645  1899 net.cpp:172] Setting up Scale20
I0825 11:11:34.578655  1899 net.cpp:186] Top shape: 64 32 16 16 (524288)
I0825 11:11:34.578660  1899 net.cpp:194] Memory required for data: 392954112
I0825 11:11:34.578667  1899 layer_factory.hpp:77] Creating layer Eltwise9
I0825 11:11:34.578696  1899 net.cpp:128] Creating Layer Eltwise9
I0825 11:11:34.578714  1899 net.cpp:558] Eltwise9 <- Eltwise8_ReLU17_0_split_1
I0825 11:11:34.578732  1899 net.cpp:558] Eltwise9 <- Convolution20
I0825 11:11:34.578755  1899 net.cpp:522] Eltwise9 -> Eltwise9
I0825 11:11:34.578788  1899 net.cpp:172] Setting up Eltwise9
I0825 11:11:34.578797  1899 net.cpp:186] Top shape: 64 32 16 16 (524288)
I0825 11:11:34.578801  1899 net.cpp:194] Memory required for data: 395051264
I0825 11:11:34.578805  1899 layer_factory.hpp:77] Creating layer ReLU19
I0825 11:11:34.578812  1899 net.cpp:128] Creating Layer ReLU19
I0825 11:11:34.578816  1899 net.cpp:558] ReLU19 <- Eltwise9
I0825 11:11:34.578825  1899 net.cpp:509] ReLU19 -> Eltwise9 (in-place)
I0825 11:11:34.579980  1899 net.cpp:172] Setting up ReLU19
I0825 11:11:34.579996  1899 net.cpp:186] Top shape: 64 32 16 16 (524288)
I0825 11:11:34.580000  1899 net.cpp:194] Memory required for data: 397148416
I0825 11:11:34.580006  1899 layer_factory.hpp:77] Creating layer Eltwise9_ReLU19_0_split
I0825 11:11:34.580018  1899 net.cpp:128] Creating Layer Eltwise9_ReLU19_0_split
I0825 11:11:34.580024  1899 net.cpp:558] Eltwise9_ReLU19_0_split <- Eltwise9
I0825 11:11:34.580030  1899 net.cpp:522] Eltwise9_ReLU19_0_split -> Eltwise9_ReLU19_0_split_0
I0825 11:11:34.580039  1899 net.cpp:522] Eltwise9_ReLU19_0_split -> Eltwise9_ReLU19_0_split_1
I0825 11:11:34.580127  1899 net.cpp:172] Setting up Eltwise9_ReLU19_0_split
I0825 11:11:34.580138  1899 net.cpp:186] Top shape: 64 32 16 16 (524288)
I0825 11:11:34.580144  1899 net.cpp:186] Top shape: 64 32 16 16 (524288)
I0825 11:11:34.580148  1899 net.cpp:194] Memory required for data: 401342720
I0825 11:11:34.580152  1899 layer_factory.hpp:77] Creating layer Convolution21
I0825 11:11:34.580165  1899 net.cpp:128] Creating Layer Convolution21
I0825 11:11:34.580189  1899 net.cpp:558] Convolution21 <- Eltwise9_ReLU19_0_split_0
I0825 11:11:34.580211  1899 net.cpp:522] Convolution21 -> Convolution21
I0825 11:11:34.591248  1899 net.cpp:172] Setting up Convolution21
I0825 11:11:34.591275  1899 net.cpp:186] Top shape: 64 32 16 16 (524288)
I0825 11:11:34.591279  1899 net.cpp:194] Memory required for data: 403439872
I0825 11:11:34.591290  1899 layer_factory.hpp:77] Creating layer BatchNorm21
I0825 11:11:34.591301  1899 net.cpp:128] Creating Layer BatchNorm21
I0825 11:11:34.591306  1899 net.cpp:558] BatchNorm21 <- Convolution21
I0825 11:11:34.591313  1899 net.cpp:509] BatchNorm21 -> Convolution21 (in-place)
I0825 11:11:34.591584  1899 net.cpp:172] Setting up BatchNorm21
I0825 11:11:34.591596  1899 net.cpp:186] Top shape: 64 32 16 16 (524288)
I0825 11:11:34.591601  1899 net.cpp:194] Memory required for data: 405537024
I0825 11:11:34.591611  1899 layer_factory.hpp:77] Creating layer Scale21
I0825 11:11:34.591619  1899 net.cpp:128] Creating Layer Scale21
I0825 11:11:34.591622  1899 net.cpp:558] Scale21 <- Convolution21
I0825 11:11:34.591645  1899 net.cpp:509] Scale21 -> Convolution21 (in-place)
I0825 11:11:34.591696  1899 layer_factory.hpp:77] Creating layer Scale21
I0825 11:11:34.591882  1899 net.cpp:172] Setting up Scale21
I0825 11:11:34.591894  1899 net.cpp:186] Top shape: 64 32 16 16 (524288)
I0825 11:11:34.591898  1899 net.cpp:194] Memory required for data: 407634176
I0825 11:11:34.591907  1899 layer_factory.hpp:77] Creating layer ReLU20
I0825 11:11:34.591914  1899 net.cpp:128] Creating Layer ReLU20
I0825 11:11:34.591918  1899 net.cpp:558] ReLU20 <- Convolution21
I0825 11:11:34.591926  1899 net.cpp:509] ReLU20 -> Convolution21 (in-place)
I0825 11:11:34.594772  1899 net.cpp:172] Setting up ReLU20
I0825 11:11:34.594794  1899 net.cpp:186] Top shape: 64 32 16 16 (524288)
I0825 11:11:34.594797  1899 net.cpp:194] Memory required for data: 409731328
I0825 11:11:34.594802  1899 layer_factory.hpp:77] Creating layer Convolution22
I0825 11:11:34.594820  1899 net.cpp:128] Creating Layer Convolution22
I0825 11:11:34.594825  1899 net.cpp:558] Convolution22 <- Convolution21
I0825 11:11:34.594835  1899 net.cpp:522] Convolution22 -> Convolution22
I0825 11:11:34.601588  1899 net.cpp:172] Setting up Convolution22
I0825 11:11:34.601613  1899 net.cpp:186] Top shape: 64 32 16 16 (524288)
I0825 11:11:34.601619  1899 net.cpp:194] Memory required for data: 411828480
I0825 11:11:34.601627  1899 layer_factory.hpp:77] Creating layer BatchNorm22
I0825 11:11:34.601636  1899 net.cpp:128] Creating Layer BatchNorm22
I0825 11:11:34.601641  1899 net.cpp:558] BatchNorm22 <- Convolution22
I0825 11:11:34.601650  1899 net.cpp:509] BatchNorm22 -> Convolution22 (in-place)
I0825 11:11:34.601909  1899 net.cpp:172] Setting up BatchNorm22
I0825 11:11:34.601920  1899 net.cpp:186] Top shape: 64 32 16 16 (524288)
I0825 11:11:34.601925  1899 net.cpp:194] Memory required for data: 413925632
I0825 11:11:34.601934  1899 layer_factory.hpp:77] Creating layer Scale22
I0825 11:11:34.601943  1899 net.cpp:128] Creating Layer Scale22
I0825 11:11:34.601946  1899 net.cpp:558] Scale22 <- Convolution22
I0825 11:11:34.601954  1899 net.cpp:509] Scale22 -> Convolution22 (in-place)
I0825 11:11:34.602000  1899 layer_factory.hpp:77] Creating layer Scale22
I0825 11:11:34.602188  1899 net.cpp:172] Setting up Scale22
I0825 11:11:34.602200  1899 net.cpp:186] Top shape: 64 32 16 16 (524288)
I0825 11:11:34.602206  1899 net.cpp:194] Memory required for data: 416022784
I0825 11:11:34.602214  1899 layer_factory.hpp:77] Creating layer Eltwise10
I0825 11:11:34.602221  1899 net.cpp:128] Creating Layer Eltwise10
I0825 11:11:34.602227  1899 net.cpp:558] Eltwise10 <- Eltwise9_ReLU19_0_split_1
I0825 11:11:34.602232  1899 net.cpp:558] Eltwise10 <- Convolution22
I0825 11:11:34.602242  1899 net.cpp:522] Eltwise10 -> Eltwise10
I0825 11:11:34.602264  1899 net.cpp:172] Setting up Eltwise10
I0825 11:11:34.602294  1899 net.cpp:186] Top shape: 64 32 16 16 (524288)
I0825 11:11:34.602308  1899 net.cpp:194] Memory required for data: 418119936
I0825 11:11:34.602322  1899 layer_factory.hpp:77] Creating layer ReLU21
I0825 11:11:34.602346  1899 net.cpp:128] Creating Layer ReLU21
I0825 11:11:34.602362  1899 net.cpp:558] ReLU21 <- Eltwise10
I0825 11:11:34.602381  1899 net.cpp:509] ReLU21 -> Eltwise10 (in-place)
I0825 11:11:34.602638  1899 net.cpp:172] Setting up ReLU21
I0825 11:11:34.602654  1899 net.cpp:186] Top shape: 64 32 16 16 (524288)
I0825 11:11:34.602660  1899 net.cpp:194] Memory required for data: 420217088
I0825 11:11:34.602665  1899 layer_factory.hpp:77] Creating layer Eltwise10_ReLU21_0_split
I0825 11:11:34.602672  1899 net.cpp:128] Creating Layer Eltwise10_ReLU21_0_split
I0825 11:11:34.602679  1899 net.cpp:558] Eltwise10_ReLU21_0_split <- Eltwise10
I0825 11:11:34.602686  1899 net.cpp:522] Eltwise10_ReLU21_0_split -> Eltwise10_ReLU21_0_split_0
I0825 11:11:34.602695  1899 net.cpp:522] Eltwise10_ReLU21_0_split -> Eltwise10_ReLU21_0_split_1
I0825 11:11:34.602748  1899 net.cpp:172] Setting up Eltwise10_ReLU21_0_split
I0825 11:11:34.602784  1899 net.cpp:186] Top shape: 64 32 16 16 (524288)
I0825 11:11:34.602813  1899 net.cpp:186] Top shape: 64 32 16 16 (524288)
I0825 11:11:34.602828  1899 net.cpp:194] Memory required for data: 424411392
I0825 11:11:34.602841  1899 layer_factory.hpp:77] Creating layer Convolution23
I0825 11:11:34.602865  1899 net.cpp:128] Creating Layer Convolution23
I0825 11:11:34.602880  1899 net.cpp:558] Convolution23 <- Eltwise10_ReLU21_0_split_0
I0825 11:11:34.602901  1899 net.cpp:522] Convolution23 -> Convolution23
I0825 11:11:34.614022  1899 net.cpp:172] Setting up Convolution23
I0825 11:11:34.614048  1899 net.cpp:186] Top shape: 64 32 16 16 (524288)
I0825 11:11:34.614053  1899 net.cpp:194] Memory required for data: 426508544
I0825 11:11:34.614064  1899 layer_factory.hpp:77] Creating layer BatchNorm23
I0825 11:11:34.614078  1899 net.cpp:128] Creating Layer BatchNorm23
I0825 11:11:34.614084  1899 net.cpp:558] BatchNorm23 <- Convolution23
I0825 11:11:34.614091  1899 net.cpp:509] BatchNorm23 -> Convolution23 (in-place)
I0825 11:11:34.614365  1899 net.cpp:172] Setting up BatchNorm23
I0825 11:11:34.614378  1899 net.cpp:186] Top shape: 64 32 16 16 (524288)
I0825 11:11:34.614382  1899 net.cpp:194] Memory required for data: 428605696
I0825 11:11:34.614392  1899 layer_factory.hpp:77] Creating layer Scale23
I0825 11:11:34.614400  1899 net.cpp:128] Creating Layer Scale23
I0825 11:11:34.614404  1899 net.cpp:558] Scale23 <- Convolution23
I0825 11:11:34.614413  1899 net.cpp:509] Scale23 -> Convolution23 (in-place)
I0825 11:11:34.614460  1899 layer_factory.hpp:77] Creating layer Scale23
I0825 11:11:34.614650  1899 net.cpp:172] Setting up Scale23
I0825 11:11:34.614662  1899 net.cpp:186] Top shape: 64 32 16 16 (524288)
I0825 11:11:34.614667  1899 net.cpp:194] Memory required for data: 430702848
I0825 11:11:34.614676  1899 layer_factory.hpp:77] Creating layer ReLU22
I0825 11:11:34.614683  1899 net.cpp:128] Creating Layer ReLU22
I0825 11:11:34.614688  1899 net.cpp:558] ReLU22 <- Convolution23
I0825 11:11:34.614697  1899 net.cpp:509] ReLU22 -> Convolution23 (in-place)
I0825 11:11:34.616104  1899 net.cpp:172] Setting up ReLU22
I0825 11:11:34.616122  1899 net.cpp:186] Top shape: 64 32 16 16 (524288)
I0825 11:11:34.616125  1899 net.cpp:194] Memory required for data: 432800000
I0825 11:11:34.616130  1899 layer_factory.hpp:77] Creating layer Convolution24
I0825 11:11:34.616143  1899 net.cpp:128] Creating Layer Convolution24
I0825 11:11:34.616148  1899 net.cpp:558] Convolution24 <- Convolution23
I0825 11:11:34.616159  1899 net.cpp:522] Convolution24 -> Convolution24
I0825 11:11:34.622910  1899 net.cpp:172] Setting up Convolution24
I0825 11:11:34.622939  1899 net.cpp:186] Top shape: 64 32 16 16 (524288)
I0825 11:11:34.622943  1899 net.cpp:194] Memory required for data: 434897152
I0825 11:11:34.622953  1899 layer_factory.hpp:77] Creating layer BatchNorm24
I0825 11:11:34.622962  1899 net.cpp:128] Creating Layer BatchNorm24
I0825 11:11:34.622967  1899 net.cpp:558] BatchNorm24 <- Convolution24
I0825 11:11:34.622977  1899 net.cpp:509] BatchNorm24 -> Convolution24 (in-place)
I0825 11:11:34.623246  1899 net.cpp:172] Setting up BatchNorm24
I0825 11:11:34.623257  1899 net.cpp:186] Top shape: 64 32 16 16 (524288)
I0825 11:11:34.623263  1899 net.cpp:194] Memory required for data: 436994304
I0825 11:11:34.623273  1899 layer_factory.hpp:77] Creating layer Scale24
I0825 11:11:34.623281  1899 net.cpp:128] Creating Layer Scale24
I0825 11:11:34.623286  1899 net.cpp:558] Scale24 <- Convolution24
I0825 11:11:34.623291  1899 net.cpp:509] Scale24 -> Convolution24 (in-place)
I0825 11:11:34.623340  1899 layer_factory.hpp:77] Creating layer Scale24
I0825 11:11:34.623533  1899 net.cpp:172] Setting up Scale24
I0825 11:11:34.623548  1899 net.cpp:186] Top shape: 64 32 16 16 (524288)
I0825 11:11:34.623553  1899 net.cpp:194] Memory required for data: 439091456
I0825 11:11:34.623561  1899 layer_factory.hpp:77] Creating layer Eltwise11
I0825 11:11:34.623569  1899 net.cpp:128] Creating Layer Eltwise11
I0825 11:11:34.623574  1899 net.cpp:558] Eltwise11 <- Eltwise10_ReLU21_0_split_1
I0825 11:11:34.623579  1899 net.cpp:558] Eltwise11 <- Convolution24
I0825 11:11:34.623600  1899 net.cpp:522] Eltwise11 -> Eltwise11
I0825 11:11:34.623626  1899 net.cpp:172] Setting up Eltwise11
I0825 11:11:34.623656  1899 net.cpp:186] Top shape: 64 32 16 16 (524288)
I0825 11:11:34.623672  1899 net.cpp:194] Memory required for data: 441188608
I0825 11:11:34.623685  1899 layer_factory.hpp:77] Creating layer ReLU23
I0825 11:11:34.623702  1899 net.cpp:128] Creating Layer ReLU23
I0825 11:11:34.623716  1899 net.cpp:558] ReLU23 <- Eltwise11
I0825 11:11:34.623734  1899 net.cpp:509] ReLU23 -> Eltwise11 (in-place)
I0825 11:11:34.625033  1899 net.cpp:172] Setting up ReLU23
I0825 11:11:34.625059  1899 net.cpp:186] Top shape: 64 32 16 16 (524288)
I0825 11:11:34.625063  1899 net.cpp:194] Memory required for data: 443285760
I0825 11:11:34.625068  1899 layer_factory.hpp:77] Creating layer Eltwise11_ReLU23_0_split
I0825 11:11:34.625077  1899 net.cpp:128] Creating Layer Eltwise11_ReLU23_0_split
I0825 11:11:34.625082  1899 net.cpp:558] Eltwise11_ReLU23_0_split <- Eltwise11
I0825 11:11:34.625090  1899 net.cpp:522] Eltwise11_ReLU23_0_split -> Eltwise11_ReLU23_0_split_0
I0825 11:11:34.625100  1899 net.cpp:522] Eltwise11_ReLU23_0_split -> Eltwise11_ReLU23_0_split_1
I0825 11:11:34.625157  1899 net.cpp:172] Setting up Eltwise11_ReLU23_0_split
I0825 11:11:34.625198  1899 net.cpp:186] Top shape: 64 32 16 16 (524288)
I0825 11:11:34.625216  1899 net.cpp:186] Top shape: 64 32 16 16 (524288)
I0825 11:11:34.625229  1899 net.cpp:194] Memory required for data: 447480064
I0825 11:11:34.625243  1899 layer_factory.hpp:77] Creating layer Convolution25
I0825 11:11:34.625267  1899 net.cpp:128] Creating Layer Convolution25
I0825 11:11:34.625282  1899 net.cpp:558] Convolution25 <- Eltwise11_ReLU23_0_split_0
I0825 11:11:34.625300  1899 net.cpp:522] Convolution25 -> Convolution25
I0825 11:11:34.637719  1899 net.cpp:172] Setting up Convolution25
I0825 11:11:34.637745  1899 net.cpp:186] Top shape: 64 32 16 16 (524288)
I0825 11:11:34.637749  1899 net.cpp:194] Memory required for data: 449577216
I0825 11:11:34.637759  1899 layer_factory.hpp:77] Creating layer BatchNorm25
I0825 11:11:34.637771  1899 net.cpp:128] Creating Layer BatchNorm25
I0825 11:11:34.637776  1899 net.cpp:558] BatchNorm25 <- Convolution25
I0825 11:11:34.637784  1899 net.cpp:509] BatchNorm25 -> Convolution25 (in-place)
I0825 11:11:34.638048  1899 net.cpp:172] Setting up BatchNorm25
I0825 11:11:34.638061  1899 net.cpp:186] Top shape: 64 32 16 16 (524288)
I0825 11:11:34.638064  1899 net.cpp:194] Memory required for data: 451674368
I0825 11:11:34.638074  1899 layer_factory.hpp:77] Creating layer Scale25
I0825 11:11:34.638087  1899 net.cpp:128] Creating Layer Scale25
I0825 11:11:34.638092  1899 net.cpp:558] Scale25 <- Convolution25
I0825 11:11:34.638098  1899 net.cpp:509] Scale25 -> Convolution25 (in-place)
I0825 11:11:34.638146  1899 layer_factory.hpp:77] Creating layer Scale25
I0825 11:11:34.638350  1899 net.cpp:172] Setting up Scale25
I0825 11:11:34.638363  1899 net.cpp:186] Top shape: 64 32 16 16 (524288)
I0825 11:11:34.638367  1899 net.cpp:194] Memory required for data: 453771520
I0825 11:11:34.638376  1899 layer_factory.hpp:77] Creating layer ReLU24
I0825 11:11:34.638386  1899 net.cpp:128] Creating Layer ReLU24
I0825 11:11:34.638391  1899 net.cpp:558] ReLU24 <- Convolution25
I0825 11:11:34.638398  1899 net.cpp:509] ReLU24 -> Convolution25 (in-place)
I0825 11:11:34.639786  1899 net.cpp:172] Setting up ReLU24
I0825 11:11:34.639802  1899 net.cpp:186] Top shape: 64 32 16 16 (524288)
I0825 11:11:34.639807  1899 net.cpp:194] Memory required for data: 455868672
I0825 11:11:34.639811  1899 layer_factory.hpp:77] Creating layer Convolution26
I0825 11:11:34.639828  1899 net.cpp:128] Creating Layer Convolution26
I0825 11:11:34.639834  1899 net.cpp:558] Convolution26 <- Convolution25
I0825 11:11:34.639843  1899 net.cpp:522] Convolution26 -> Convolution26
I0825 11:11:34.646651  1899 net.cpp:172] Setting up Convolution26
I0825 11:11:34.646673  1899 net.cpp:186] Top shape: 64 32 16 16 (524288)
I0825 11:11:34.646678  1899 net.cpp:194] Memory required for data: 457965824
I0825 11:11:34.646704  1899 layer_factory.hpp:77] Creating layer BatchNorm26
I0825 11:11:34.646716  1899 net.cpp:128] Creating Layer BatchNorm26
I0825 11:11:34.646721  1899 net.cpp:558] BatchNorm26 <- Convolution26
I0825 11:11:34.646733  1899 net.cpp:509] BatchNorm26 -> Convolution26 (in-place)
I0825 11:11:34.647002  1899 net.cpp:172] Setting up BatchNorm26
I0825 11:11:34.647011  1899 net.cpp:186] Top shape: 64 32 16 16 (524288)
I0825 11:11:34.647014  1899 net.cpp:194] Memory required for data: 460062976
I0825 11:11:34.647024  1899 layer_factory.hpp:77] Creating layer Scale26
I0825 11:11:34.647033  1899 net.cpp:128] Creating Layer Scale26
I0825 11:11:34.647038  1899 net.cpp:558] Scale26 <- Convolution26
I0825 11:11:34.647043  1899 net.cpp:509] Scale26 -> Convolution26 (in-place)
I0825 11:11:34.647091  1899 layer_factory.hpp:77] Creating layer Scale26
I0825 11:11:34.647245  1899 net.cpp:172] Setting up Scale26
I0825 11:11:34.647253  1899 net.cpp:186] Top shape: 64 32 16 16 (524288)
I0825 11:11:34.647256  1899 net.cpp:194] Memory required for data: 462160128
I0825 11:11:34.647264  1899 layer_factory.hpp:77] Creating layer Eltwise12
I0825 11:11:34.647274  1899 net.cpp:128] Creating Layer Eltwise12
I0825 11:11:34.647279  1899 net.cpp:558] Eltwise12 <- Eltwise11_ReLU23_0_split_1
I0825 11:11:34.647284  1899 net.cpp:558] Eltwise12 <- Convolution26
I0825 11:11:34.647289  1899 net.cpp:522] Eltwise12 -> Eltwise12
I0825 11:11:34.647315  1899 net.cpp:172] Setting up Eltwise12
I0825 11:11:34.647321  1899 net.cpp:186] Top shape: 64 32 16 16 (524288)
I0825 11:11:34.647325  1899 net.cpp:194] Memory required for data: 464257280
I0825 11:11:34.647330  1899 layer_factory.hpp:77] Creating layer ReLU25
I0825 11:11:34.647336  1899 net.cpp:128] Creating Layer ReLU25
I0825 11:11:34.647339  1899 net.cpp:558] ReLU25 <- Eltwise12
I0825 11:11:34.647346  1899 net.cpp:509] ReLU25 -> Eltwise12 (in-place)
I0825 11:11:34.648758  1899 net.cpp:172] Setting up ReLU25
I0825 11:11:34.648777  1899 net.cpp:186] Top shape: 64 32 16 16 (524288)
I0825 11:11:34.648782  1899 net.cpp:194] Memory required for data: 466354432
I0825 11:11:34.648787  1899 layer_factory.hpp:77] Creating layer Eltwise12_ReLU25_0_split
I0825 11:11:34.648807  1899 net.cpp:128] Creating Layer Eltwise12_ReLU25_0_split
I0825 11:11:34.648811  1899 net.cpp:558] Eltwise12_ReLU25_0_split <- Eltwise12
I0825 11:11:34.648818  1899 net.cpp:522] Eltwise12_ReLU25_0_split -> Eltwise12_ReLU25_0_split_0
I0825 11:11:34.648834  1899 net.cpp:522] Eltwise12_ReLU25_0_split -> Eltwise12_ReLU25_0_split_1
I0825 11:11:34.648885  1899 net.cpp:172] Setting up Eltwise12_ReLU25_0_split
I0825 11:11:34.648893  1899 net.cpp:186] Top shape: 64 32 16 16 (524288)
I0825 11:11:34.648898  1899 net.cpp:186] Top shape: 64 32 16 16 (524288)
I0825 11:11:34.648902  1899 net.cpp:194] Memory required for data: 470548736
I0825 11:11:34.648907  1899 layer_factory.hpp:77] Creating layer Convolution27
I0825 11:11:34.648918  1899 net.cpp:128] Creating Layer Convolution27
I0825 11:11:34.648922  1899 net.cpp:558] Convolution27 <- Eltwise12_ReLU25_0_split_0
I0825 11:11:34.648932  1899 net.cpp:522] Convolution27 -> Convolution27
I0825 11:11:34.661490  1899 net.cpp:172] Setting up Convolution27
I0825 11:11:34.661518  1899 net.cpp:186] Top shape: 64 32 16 16 (524288)
I0825 11:11:34.661522  1899 net.cpp:194] Memory required for data: 472645888
I0825 11:11:34.661533  1899 layer_factory.hpp:77] Creating layer BatchNorm27
I0825 11:11:34.661545  1899 net.cpp:128] Creating Layer BatchNorm27
I0825 11:11:34.661550  1899 net.cpp:558] BatchNorm27 <- Convolution27
I0825 11:11:34.661559  1899 net.cpp:509] BatchNorm27 -> Convolution27 (in-place)
I0825 11:11:34.661833  1899 net.cpp:172] Setting up BatchNorm27
I0825 11:11:34.661842  1899 net.cpp:186] Top shape: 64 32 16 16 (524288)
I0825 11:11:34.661846  1899 net.cpp:194] Memory required for data: 474743040
I0825 11:11:34.661886  1899 layer_factory.hpp:77] Creating layer Scale27
I0825 11:11:34.661898  1899 net.cpp:128] Creating Layer Scale27
I0825 11:11:34.661903  1899 net.cpp:558] Scale27 <- Convolution27
I0825 11:11:34.661922  1899 net.cpp:509] Scale27 -> Convolution27 (in-place)
I0825 11:11:34.662003  1899 layer_factory.hpp:77] Creating layer Scale27
I0825 11:11:34.662163  1899 net.cpp:172] Setting up Scale27
I0825 11:11:34.662173  1899 net.cpp:186] Top shape: 64 32 16 16 (524288)
I0825 11:11:34.662178  1899 net.cpp:194] Memory required for data: 476840192
I0825 11:11:34.662209  1899 layer_factory.hpp:77] Creating layer ReLU26
I0825 11:11:34.662222  1899 net.cpp:128] Creating Layer ReLU26
I0825 11:11:34.662228  1899 net.cpp:558] ReLU26 <- Convolution27
I0825 11:11:34.662253  1899 net.cpp:509] ReLU26 -> Convolution27 (in-place)
I0825 11:11:34.663601  1899 net.cpp:172] Setting up ReLU26
I0825 11:11:34.663627  1899 net.cpp:186] Top shape: 64 32 16 16 (524288)
I0825 11:11:34.663632  1899 net.cpp:194] Memory required for data: 478937344
I0825 11:11:34.663637  1899 layer_factory.hpp:77] Creating layer Convolution28
I0825 11:11:34.663651  1899 net.cpp:128] Creating Layer Convolution28
I0825 11:11:34.663689  1899 net.cpp:558] Convolution28 <- Convolution27
I0825 11:11:34.663705  1899 net.cpp:522] Convolution28 -> Convolution28
I0825 11:11:34.670429  1899 net.cpp:172] Setting up Convolution28
I0825 11:11:34.670451  1899 net.cpp:186] Top shape: 64 32 16 16 (524288)
I0825 11:11:34.670456  1899 net.cpp:194] Memory required for data: 481034496
I0825 11:11:34.670466  1899 layer_factory.hpp:77] Creating layer BatchNorm28
I0825 11:11:34.670477  1899 net.cpp:128] Creating Layer BatchNorm28
I0825 11:11:34.670485  1899 net.cpp:558] BatchNorm28 <- Convolution28
I0825 11:11:34.670496  1899 net.cpp:509] BatchNorm28 -> Convolution28 (in-place)
I0825 11:11:34.670771  1899 net.cpp:172] Setting up BatchNorm28
I0825 11:11:34.670783  1899 net.cpp:186] Top shape: 64 32 16 16 (524288)
I0825 11:11:34.670789  1899 net.cpp:194] Memory required for data: 483131648
I0825 11:11:34.670799  1899 layer_factory.hpp:77] Creating layer Scale28
I0825 11:11:34.670809  1899 net.cpp:128] Creating Layer Scale28
I0825 11:11:34.670815  1899 net.cpp:558] Scale28 <- Convolution28
I0825 11:11:34.670822  1899 net.cpp:509] Scale28 -> Convolution28 (in-place)
I0825 11:11:34.670872  1899 layer_factory.hpp:77] Creating layer Scale28
I0825 11:11:34.671027  1899 net.cpp:172] Setting up Scale28
I0825 11:11:34.671038  1899 net.cpp:186] Top shape: 64 32 16 16 (524288)
I0825 11:11:34.671044  1899 net.cpp:194] Memory required for data: 485228800
I0825 11:11:34.671052  1899 layer_factory.hpp:77] Creating layer Eltwise13
I0825 11:11:34.671062  1899 net.cpp:128] Creating Layer Eltwise13
I0825 11:11:34.671069  1899 net.cpp:558] Eltwise13 <- Eltwise12_ReLU25_0_split_1
I0825 11:11:34.671074  1899 net.cpp:558] Eltwise13 <- Convolution28
I0825 11:11:34.671084  1899 net.cpp:522] Eltwise13 -> Eltwise13
I0825 11:11:34.671109  1899 net.cpp:172] Setting up Eltwise13
I0825 11:11:34.671119  1899 net.cpp:186] Top shape: 64 32 16 16 (524288)
I0825 11:11:34.671125  1899 net.cpp:194] Memory required for data: 487325952
I0825 11:11:34.671129  1899 layer_factory.hpp:77] Creating layer ReLU27
I0825 11:11:34.671139  1899 net.cpp:128] Creating Layer ReLU27
I0825 11:11:34.671147  1899 net.cpp:558] ReLU27 <- Eltwise13
I0825 11:11:34.671154  1899 net.cpp:509] ReLU27 -> Eltwise13 (in-place)
I0825 11:11:34.672514  1899 net.cpp:172] Setting up ReLU27
I0825 11:11:34.672533  1899 net.cpp:186] Top shape: 64 32 16 16 (524288)
I0825 11:11:34.672538  1899 net.cpp:194] Memory required for data: 489423104
I0825 11:11:34.672543  1899 layer_factory.hpp:77] Creating layer Eltwise13_ReLU27_0_split
I0825 11:11:34.672554  1899 net.cpp:128] Creating Layer Eltwise13_ReLU27_0_split
I0825 11:11:34.672559  1899 net.cpp:558] Eltwise13_ReLU27_0_split <- Eltwise13
I0825 11:11:34.672565  1899 net.cpp:522] Eltwise13_ReLU27_0_split -> Eltwise13_ReLU27_0_split_0
I0825 11:11:34.672576  1899 net.cpp:522] Eltwise13_ReLU27_0_split -> Eltwise13_ReLU27_0_split_1
I0825 11:11:34.672669  1899 net.cpp:172] Setting up Eltwise13_ReLU27_0_split
I0825 11:11:34.672682  1899 net.cpp:186] Top shape: 64 32 16 16 (524288)
I0825 11:11:34.672688  1899 net.cpp:186] Top shape: 64 32 16 16 (524288)
I0825 11:11:34.672704  1899 net.cpp:194] Memory required for data: 493617408
I0825 11:11:34.672709  1899 layer_factory.hpp:77] Creating layer Convolution29
I0825 11:11:34.672724  1899 net.cpp:128] Creating Layer Convolution29
I0825 11:11:34.672731  1899 net.cpp:558] Convolution29 <- Eltwise13_ReLU27_0_split_0
I0825 11:11:34.672745  1899 net.cpp:522] Convolution29 -> Convolution29
I0825 11:11:34.681509  1899 net.cpp:172] Setting up Convolution29
I0825 11:11:34.681536  1899 net.cpp:186] Top shape: 64 32 16 16 (524288)
I0825 11:11:34.681540  1899 net.cpp:194] Memory required for data: 495714560
I0825 11:11:34.681551  1899 layer_factory.hpp:77] Creating layer BatchNorm29
I0825 11:11:34.681561  1899 net.cpp:128] Creating Layer BatchNorm29
I0825 11:11:34.681566  1899 net.cpp:558] BatchNorm29 <- Convolution29
I0825 11:11:34.681573  1899 net.cpp:509] BatchNorm29 -> Convolution29 (in-place)
I0825 11:11:34.681890  1899 net.cpp:172] Setting up BatchNorm29
I0825 11:11:34.681901  1899 net.cpp:186] Top shape: 64 32 16 16 (524288)
I0825 11:11:34.681906  1899 net.cpp:194] Memory required for data: 497811712
I0825 11:11:34.681916  1899 layer_factory.hpp:77] Creating layer Scale29
I0825 11:11:34.681943  1899 net.cpp:128] Creating Layer Scale29
I0825 11:11:34.681958  1899 net.cpp:558] Scale29 <- Convolution29
I0825 11:11:34.681980  1899 net.cpp:509] Scale29 -> Convolution29 (in-place)
I0825 11:11:34.682047  1899 layer_factory.hpp:77] Creating layer Scale29
I0825 11:11:34.682205  1899 net.cpp:172] Setting up Scale29
I0825 11:11:34.682216  1899 net.cpp:186] Top shape: 64 32 16 16 (524288)
I0825 11:11:34.682220  1899 net.cpp:194] Memory required for data: 499908864
I0825 11:11:34.682229  1899 layer_factory.hpp:77] Creating layer ReLU28
I0825 11:11:34.682255  1899 net.cpp:128] Creating Layer ReLU28
I0825 11:11:34.682271  1899 net.cpp:558] ReLU28 <- Convolution29
I0825 11:11:34.682291  1899 net.cpp:509] ReLU28 -> Convolution29 (in-place)
I0825 11:11:34.685716  1899 net.cpp:172] Setting up ReLU28
I0825 11:11:34.685737  1899 net.cpp:186] Top shape: 64 32 16 16 (524288)
I0825 11:11:34.685742  1899 net.cpp:194] Memory required for data: 502006016
I0825 11:11:34.685747  1899 layer_factory.hpp:77] Creating layer Convolution30
I0825 11:11:34.685761  1899 net.cpp:128] Creating Layer Convolution30
I0825 11:11:34.685766  1899 net.cpp:558] Convolution30 <- Convolution29
I0825 11:11:34.685777  1899 net.cpp:522] Convolution30 -> Convolution30
I0825 11:11:34.694041  1899 net.cpp:172] Setting up Convolution30
I0825 11:11:34.694068  1899 net.cpp:186] Top shape: 64 32 16 16 (524288)
I0825 11:11:34.694073  1899 net.cpp:194] Memory required for data: 504103168
I0825 11:11:34.694083  1899 layer_factory.hpp:77] Creating layer BatchNorm30
I0825 11:11:34.694092  1899 net.cpp:128] Creating Layer BatchNorm30
I0825 11:11:34.694097  1899 net.cpp:558] BatchNorm30 <- Convolution30
I0825 11:11:34.694106  1899 net.cpp:509] BatchNorm30 -> Convolution30 (in-place)
I0825 11:11:34.694391  1899 net.cpp:172] Setting up BatchNorm30
I0825 11:11:34.694403  1899 net.cpp:186] Top shape: 64 32 16 16 (524288)
I0825 11:11:34.694408  1899 net.cpp:194] Memory required for data: 506200320
I0825 11:11:34.694418  1899 layer_factory.hpp:77] Creating layer Scale30
I0825 11:11:34.694425  1899 net.cpp:128] Creating Layer Scale30
I0825 11:11:34.694429  1899 net.cpp:558] Scale30 <- Convolution30
I0825 11:11:34.694435  1899 net.cpp:509] Scale30 -> Convolution30 (in-place)
I0825 11:11:34.694485  1899 layer_factory.hpp:77] Creating layer Scale30
I0825 11:11:34.694681  1899 net.cpp:172] Setting up Scale30
I0825 11:11:34.694712  1899 net.cpp:186] Top shape: 64 32 16 16 (524288)
I0825 11:11:34.694730  1899 net.cpp:194] Memory required for data: 508297472
I0825 11:11:34.694751  1899 layer_factory.hpp:77] Creating layer Eltwise14
I0825 11:11:34.694770  1899 net.cpp:128] Creating Layer Eltwise14
I0825 11:11:34.694785  1899 net.cpp:558] Eltwise14 <- Eltwise13_ReLU27_0_split_1
I0825 11:11:34.694802  1899 net.cpp:558] Eltwise14 <- Convolution30
I0825 11:11:34.694821  1899 net.cpp:522] Eltwise14 -> Eltwise14
I0825 11:11:34.694875  1899 net.cpp:172] Setting up Eltwise14
I0825 11:11:34.694895  1899 net.cpp:186] Top shape: 64 32 16 16 (524288)
I0825 11:11:34.694910  1899 net.cpp:194] Memory required for data: 510394624
I0825 11:11:34.694923  1899 layer_factory.hpp:77] Creating layer ReLU29
I0825 11:11:34.694943  1899 net.cpp:128] Creating Layer ReLU29
I0825 11:11:34.694957  1899 net.cpp:558] ReLU29 <- Eltwise14
I0825 11:11:34.694978  1899 net.cpp:509] ReLU29 -> Eltwise14 (in-place)
I0825 11:11:34.696146  1899 net.cpp:172] Setting up ReLU29
I0825 11:11:34.696161  1899 net.cpp:186] Top shape: 64 32 16 16 (524288)
I0825 11:11:34.696166  1899 net.cpp:194] Memory required for data: 512491776
I0825 11:11:34.696171  1899 layer_factory.hpp:77] Creating layer Eltwise14_ReLU29_0_split
I0825 11:11:34.696177  1899 net.cpp:128] Creating Layer Eltwise14_ReLU29_0_split
I0825 11:11:34.696184  1899 net.cpp:558] Eltwise14_ReLU29_0_split <- Eltwise14
I0825 11:11:34.696193  1899 net.cpp:522] Eltwise14_ReLU29_0_split -> Eltwise14_ReLU29_0_split_0
I0825 11:11:34.696202  1899 net.cpp:522] Eltwise14_ReLU29_0_split -> Eltwise14_ReLU29_0_split_1
I0825 11:11:34.696259  1899 net.cpp:172] Setting up Eltwise14_ReLU29_0_split
I0825 11:11:34.696297  1899 net.cpp:186] Top shape: 64 32 16 16 (524288)
I0825 11:11:34.696314  1899 net.cpp:186] Top shape: 64 32 16 16 (524288)
I0825 11:11:34.696328  1899 net.cpp:194] Memory required for data: 516686080
I0825 11:11:34.696342  1899 layer_factory.hpp:77] Creating layer Convolution31
I0825 11:11:34.696365  1899 net.cpp:128] Creating Layer Convolution31
I0825 11:11:34.696379  1899 net.cpp:558] Convolution31 <- Eltwise14_ReLU29_0_split_0
I0825 11:11:34.696399  1899 net.cpp:522] Convolution31 -> Convolution31
I0825 11:11:34.699911  1899 net.cpp:172] Setting up Convolution31
I0825 11:11:34.699960  1899 net.cpp:186] Top shape: 64 64 8 8 (262144)
I0825 11:11:34.699978  1899 net.cpp:194] Memory required for data: 517734656
I0825 11:11:34.700000  1899 layer_factory.hpp:77] Creating layer BatchNorm31
I0825 11:11:34.700022  1899 net.cpp:128] Creating Layer BatchNorm31
I0825 11:11:34.700042  1899 net.cpp:558] BatchNorm31 <- Convolution31
I0825 11:11:34.700060  1899 net.cpp:509] BatchNorm31 -> Convolution31 (in-place)
I0825 11:11:34.700354  1899 net.cpp:172] Setting up BatchNorm31
I0825 11:11:34.700377  1899 net.cpp:186] Top shape: 64 64 8 8 (262144)
I0825 11:11:34.700395  1899 net.cpp:194] Memory required for data: 518783232
I0825 11:11:34.700417  1899 layer_factory.hpp:77] Creating layer Scale31
I0825 11:11:34.700444  1899 net.cpp:128] Creating Layer Scale31
I0825 11:11:34.700462  1899 net.cpp:558] Scale31 <- Convolution31
I0825 11:11:34.700479  1899 net.cpp:509] Scale31 -> Convolution31 (in-place)
I0825 11:11:34.700546  1899 layer_factory.hpp:77] Creating layer Scale31
I0825 11:11:34.700726  1899 net.cpp:172] Setting up Scale31
I0825 11:11:34.700749  1899 net.cpp:186] Top shape: 64 64 8 8 (262144)
I0825 11:11:34.700767  1899 net.cpp:194] Memory required for data: 519831808
I0825 11:11:34.700786  1899 layer_factory.hpp:77] Creating layer Convolution32
I0825 11:11:34.700815  1899 net.cpp:128] Creating Layer Convolution32
I0825 11:11:34.700835  1899 net.cpp:558] Convolution32 <- Eltwise14_ReLU29_0_split_1
I0825 11:11:34.700856  1899 net.cpp:522] Convolution32 -> Convolution32
I0825 11:11:34.709460  1899 net.cpp:172] Setting up Convolution32
I0825 11:11:34.709496  1899 net.cpp:186] Top shape: 64 64 8 8 (262144)
I0825 11:11:34.709501  1899 net.cpp:194] Memory required for data: 520880384
I0825 11:11:34.709517  1899 layer_factory.hpp:77] Creating layer BatchNorm32
I0825 11:11:34.709532  1899 net.cpp:128] Creating Layer BatchNorm32
I0825 11:11:34.709539  1899 net.cpp:558] BatchNorm32 <- Convolution32
I0825 11:11:34.709589  1899 net.cpp:509] BatchNorm32 -> Convolution32 (in-place)
I0825 11:11:34.709904  1899 net.cpp:172] Setting up BatchNorm32
I0825 11:11:34.709916  1899 net.cpp:186] Top shape: 64 64 8 8 (262144)
I0825 11:11:34.709920  1899 net.cpp:194] Memory required for data: 521928960
I0825 11:11:34.709969  1899 layer_factory.hpp:77] Creating layer Scale32
I0825 11:11:34.709981  1899 net.cpp:128] Creating Layer Scale32
I0825 11:11:34.709986  1899 net.cpp:558] Scale32 <- Convolution32
I0825 11:11:34.709995  1899 net.cpp:509] Scale32 -> Convolution32 (in-place)
I0825 11:11:34.710068  1899 layer_factory.hpp:77] Creating layer Scale32
I0825 11:11:34.710240  1899 net.cpp:172] Setting up Scale32
I0825 11:11:34.710252  1899 net.cpp:186] Top shape: 64 64 8 8 (262144)
I0825 11:11:34.710255  1899 net.cpp:194] Memory required for data: 522977536
I0825 11:11:34.710264  1899 layer_factory.hpp:77] Creating layer ReLU30
I0825 11:11:34.710294  1899 net.cpp:128] Creating Layer ReLU30
I0825 11:11:34.710311  1899 net.cpp:558] ReLU30 <- Convolution32
I0825 11:11:34.710333  1899 net.cpp:509] ReLU30 -> Convolution32 (in-place)
I0825 11:11:34.711314  1899 net.cpp:172] Setting up ReLU30
I0825 11:11:34.711340  1899 net.cpp:186] Top shape: 64 64 8 8 (262144)
I0825 11:11:34.711344  1899 net.cpp:194] Memory required for data: 524026112
I0825 11:11:34.711349  1899 layer_factory.hpp:77] Creating layer Convolution33
I0825 11:11:34.711367  1899 net.cpp:128] Creating Layer Convolution33
I0825 11:11:34.711401  1899 net.cpp:558] Convolution33 <- Convolution32
I0825 11:11:34.711426  1899 net.cpp:522] Convolution33 -> Convolution33
I0825 11:11:34.718430  1899 net.cpp:172] Setting up Convolution33
I0825 11:11:34.718451  1899 net.cpp:186] Top shape: 64 64 8 8 (262144)
I0825 11:11:34.718456  1899 net.cpp:194] Memory required for data: 525074688
I0825 11:11:34.718467  1899 layer_factory.hpp:77] Creating layer BatchNorm33
I0825 11:11:34.718478  1899 net.cpp:128] Creating Layer BatchNorm33
I0825 11:11:34.718484  1899 net.cpp:558] BatchNorm33 <- Convolution33
I0825 11:11:34.718490  1899 net.cpp:509] BatchNorm33 -> Convolution33 (in-place)
I0825 11:11:34.718782  1899 net.cpp:172] Setting up BatchNorm33
I0825 11:11:34.718794  1899 net.cpp:186] Top shape: 64 64 8 8 (262144)
I0825 11:11:34.718799  1899 net.cpp:194] Memory required for data: 526123264
I0825 11:11:34.718809  1899 layer_factory.hpp:77] Creating layer Scale33
I0825 11:11:34.718816  1899 net.cpp:128] Creating Layer Scale33
I0825 11:11:34.718821  1899 net.cpp:558] Scale33 <- Convolution33
I0825 11:11:34.718827  1899 net.cpp:509] Scale33 -> Convolution33 (in-place)
I0825 11:11:34.718878  1899 layer_factory.hpp:77] Creating layer Scale33
I0825 11:11:34.719079  1899 net.cpp:172] Setting up Scale33
I0825 11:11:34.719092  1899 net.cpp:186] Top shape: 64 64 8 8 (262144)
I0825 11:11:34.719099  1899 net.cpp:194] Memory required for data: 527171840
I0825 11:11:34.719107  1899 layer_factory.hpp:77] Creating layer Eltwise15
I0825 11:11:34.719115  1899 net.cpp:128] Creating Layer Eltwise15
I0825 11:11:34.719120  1899 net.cpp:558] Eltwise15 <- Convolution31
I0825 11:11:34.719125  1899 net.cpp:558] Eltwise15 <- Convolution33
I0825 11:11:34.719141  1899 net.cpp:522] Eltwise15 -> Eltwise15
I0825 11:11:34.719171  1899 net.cpp:172] Setting up Eltwise15
I0825 11:11:34.719205  1899 net.cpp:186] Top shape: 64 64 8 8 (262144)
I0825 11:11:34.719220  1899 net.cpp:194] Memory required for data: 528220416
I0825 11:11:34.719235  1899 layer_factory.hpp:77] Creating layer ReLU31
I0825 11:11:34.719251  1899 net.cpp:128] Creating Layer ReLU31
I0825 11:11:34.719265  1899 net.cpp:558] ReLU31 <- Eltwise15
I0825 11:11:34.719281  1899 net.cpp:509] ReLU31 -> Eltwise15 (in-place)
I0825 11:11:34.720227  1899 net.cpp:172] Setting up ReLU31
I0825 11:11:34.720271  1899 net.cpp:186] Top shape: 64 64 8 8 (262144)
I0825 11:11:34.720285  1899 net.cpp:194] Memory required for data: 529268992
I0825 11:11:34.720305  1899 layer_factory.hpp:77] Creating layer Eltwise15_ReLU31_0_split
I0825 11:11:34.720327  1899 net.cpp:128] Creating Layer Eltwise15_ReLU31_0_split
I0825 11:11:34.720342  1899 net.cpp:558] Eltwise15_ReLU31_0_split <- Eltwise15
I0825 11:11:34.720360  1899 net.cpp:522] Eltwise15_ReLU31_0_split -> Eltwise15_ReLU31_0_split_0
I0825 11:11:34.720383  1899 net.cpp:522] Eltwise15_ReLU31_0_split -> Eltwise15_ReLU31_0_split_1
I0825 11:11:34.720458  1899 net.cpp:172] Setting up Eltwise15_ReLU31_0_split
I0825 11:11:34.720489  1899 net.cpp:186] Top shape: 64 64 8 8 (262144)
I0825 11:11:34.720504  1899 net.cpp:186] Top shape: 64 64 8 8 (262144)
I0825 11:11:34.720517  1899 net.cpp:194] Memory required for data: 531366144
I0825 11:11:34.720531  1899 layer_factory.hpp:77] Creating layer Convolution34
I0825 11:11:34.720557  1899 net.cpp:128] Creating Layer Convolution34
I0825 11:11:34.720577  1899 net.cpp:558] Convolution34 <- Eltwise15_ReLU31_0_split_0
I0825 11:11:34.720602  1899 net.cpp:522] Convolution34 -> Convolution34
I0825 11:11:34.727686  1899 net.cpp:172] Setting up Convolution34
I0825 11:11:34.727713  1899 net.cpp:186] Top shape: 64 64 8 8 (262144)
I0825 11:11:34.727718  1899 net.cpp:194] Memory required for data: 532414720
I0825 11:11:34.727728  1899 layer_factory.hpp:77] Creating layer BatchNorm34
I0825 11:11:34.727740  1899 net.cpp:128] Creating Layer BatchNorm34
I0825 11:11:34.727782  1899 net.cpp:558] BatchNorm34 <- Convolution34
I0825 11:11:34.727802  1899 net.cpp:509] BatchNorm34 -> Convolution34 (in-place)
I0825 11:11:34.728106  1899 net.cpp:172] Setting up BatchNorm34
I0825 11:11:34.728117  1899 net.cpp:186] Top shape: 64 64 8 8 (262144)
I0825 11:11:34.728122  1899 net.cpp:194] Memory required for data: 533463296
I0825 11:11:34.728132  1899 layer_factory.hpp:77] Creating layer Scale34
I0825 11:11:34.728161  1899 net.cpp:128] Creating Layer Scale34
I0825 11:11:34.728179  1899 net.cpp:558] Scale34 <- Convolution34
I0825 11:11:34.728197  1899 net.cpp:509] Scale34 -> Convolution34 (in-place)
I0825 11:11:34.728266  1899 layer_factory.hpp:77] Creating layer Scale34
I0825 11:11:34.728430  1899 net.cpp:172] Setting up Scale34
I0825 11:11:34.728440  1899 net.cpp:186] Top shape: 64 64 8 8 (262144)
I0825 11:11:34.728444  1899 net.cpp:194] Memory required for data: 534511872
I0825 11:11:34.728453  1899 layer_factory.hpp:77] Creating layer ReLU32
I0825 11:11:34.728479  1899 net.cpp:128] Creating Layer ReLU32
I0825 11:11:34.728498  1899 net.cpp:558] ReLU32 <- Convolution34
I0825 11:11:34.728518  1899 net.cpp:509] ReLU32 -> Convolution34 (in-place)
I0825 11:11:34.731894  1899 net.cpp:172] Setting up ReLU32
I0825 11:11:34.731914  1899 net.cpp:186] Top shape: 64 64 8 8 (262144)
I0825 11:11:34.731918  1899 net.cpp:194] Memory required for data: 535560448
I0825 11:11:34.731923  1899 layer_factory.hpp:77] Creating layer Convolution35
I0825 11:11:34.731936  1899 net.cpp:128] Creating Layer Convolution35
I0825 11:11:34.731941  1899 net.cpp:558] Convolution35 <- Convolution34
I0825 11:11:34.731951  1899 net.cpp:522] Convolution35 -> Convolution35
I0825 11:11:34.737239  1899 net.cpp:172] Setting up Convolution35
I0825 11:11:34.737267  1899 net.cpp:186] Top shape: 64 64 8 8 (262144)
I0825 11:11:34.737270  1899 net.cpp:194] Memory required for data: 536609024
I0825 11:11:34.737282  1899 layer_factory.hpp:77] Creating layer BatchNorm35
I0825 11:11:34.737291  1899 net.cpp:128] Creating Layer BatchNorm35
I0825 11:11:34.737326  1899 net.cpp:558] BatchNorm35 <- Convolution35
I0825 11:11:34.737347  1899 net.cpp:509] BatchNorm35 -> Convolution35 (in-place)
I0825 11:11:34.737661  1899 net.cpp:172] Setting up BatchNorm35
I0825 11:11:34.737673  1899 net.cpp:186] Top shape: 64 64 8 8 (262144)
I0825 11:11:34.737677  1899 net.cpp:194] Memory required for data: 537657600
I0825 11:11:34.737687  1899 layer_factory.hpp:77] Creating layer Scale35
I0825 11:11:34.737720  1899 net.cpp:128] Creating Layer Scale35
I0825 11:11:34.737737  1899 net.cpp:558] Scale35 <- Convolution35
I0825 11:11:34.737756  1899 net.cpp:509] Scale35 -> Convolution35 (in-place)
I0825 11:11:34.737825  1899 layer_factory.hpp:77] Creating layer Scale35
I0825 11:11:34.737995  1899 net.cpp:172] Setting up Scale35
I0825 11:11:34.738005  1899 net.cpp:186] Top shape: 64 64 8 8 (262144)
I0825 11:11:34.738009  1899 net.cpp:194] Memory required for data: 538706176
I0825 11:11:34.738018  1899 layer_factory.hpp:77] Creating layer Eltwise16
I0825 11:11:34.738045  1899 net.cpp:128] Creating Layer Eltwise16
I0825 11:11:34.738062  1899 net.cpp:558] Eltwise16 <- Eltwise15_ReLU31_0_split_1
I0825 11:11:34.738083  1899 net.cpp:558] Eltwise16 <- Convolution35
I0825 11:11:34.738091  1899 net.cpp:522] Eltwise16 -> Eltwise16
I0825 11:11:34.738131  1899 net.cpp:172] Setting up Eltwise16
I0825 11:11:34.738140  1899 net.cpp:186] Top shape: 64 64 8 8 (262144)
I0825 11:11:34.738144  1899 net.cpp:194] Memory required for data: 539754752
I0825 11:11:34.738148  1899 layer_factory.hpp:77] Creating layer ReLU33
I0825 11:11:34.738155  1899 net.cpp:128] Creating Layer ReLU33
I0825 11:11:34.738178  1899 net.cpp:558] ReLU33 <- Eltwise16
I0825 11:11:34.738193  1899 net.cpp:509] ReLU33 -> Eltwise16 (in-place)
I0825 11:11:34.738735  1899 net.cpp:172] Setting up ReLU33
I0825 11:11:34.738760  1899 net.cpp:186] Top shape: 64 64 8 8 (262144)
I0825 11:11:34.738765  1899 net.cpp:194] Memory required for data: 540803328
I0825 11:11:34.738798  1899 layer_factory.hpp:77] Creating layer Eltwise16_ReLU33_0_split
I0825 11:11:34.738821  1899 net.cpp:128] Creating Layer Eltwise16_ReLU33_0_split
I0825 11:11:34.738838  1899 net.cpp:558] Eltwise16_ReLU33_0_split <- Eltwise16
I0825 11:11:34.738862  1899 net.cpp:522] Eltwise16_ReLU33_0_split -> Eltwise16_ReLU33_0_split_0
I0825 11:11:34.738875  1899 net.cpp:522] Eltwise16_ReLU33_0_split -> Eltwise16_ReLU33_0_split_1
I0825 11:11:34.738940  1899 net.cpp:172] Setting up Eltwise16_ReLU33_0_split
I0825 11:11:34.738950  1899 net.cpp:186] Top shape: 64 64 8 8 (262144)
I0825 11:11:34.738955  1899 net.cpp:186] Top shape: 64 64 8 8 (262144)
I0825 11:11:34.738960  1899 net.cpp:194] Memory required for data: 542900480
I0825 11:11:34.738965  1899 layer_factory.hpp:77] Creating layer Convolution36
I0825 11:11:34.738979  1899 net.cpp:128] Creating Layer Convolution36
I0825 11:11:34.739001  1899 net.cpp:558] Convolution36 <- Eltwise16_ReLU33_0_split_0
I0825 11:11:34.739022  1899 net.cpp:522] Convolution36 -> Convolution36
I0825 11:11:34.744220  1899 net.cpp:172] Setting up Convolution36
I0825 11:11:34.744266  1899 net.cpp:186] Top shape: 64 64 8 8 (262144)
I0825 11:11:34.744283  1899 net.cpp:194] Memory required for data: 543949056
I0825 11:11:34.744308  1899 layer_factory.hpp:77] Creating layer BatchNorm36
I0825 11:11:34.744331  1899 net.cpp:128] Creating Layer BatchNorm36
I0825 11:11:34.744350  1899 net.cpp:558] BatchNorm36 <- Convolution36
I0825 11:11:34.744372  1899 net.cpp:509] BatchNorm36 -> Convolution36 (in-place)
I0825 11:11:34.744681  1899 net.cpp:172] Setting up BatchNorm36
I0825 11:11:34.744694  1899 net.cpp:186] Top shape: 64 64 8 8 (262144)
I0825 11:11:34.744699  1899 net.cpp:194] Memory required for data: 544997632
I0825 11:11:34.744709  1899 layer_factory.hpp:77] Creating layer Scale36
I0825 11:11:34.744717  1899 net.cpp:128] Creating Layer Scale36
I0825 11:11:34.744741  1899 net.cpp:558] Scale36 <- Convolution36
I0825 11:11:34.744758  1899 net.cpp:509] Scale36 -> Convolution36 (in-place)
I0825 11:11:34.744829  1899 layer_factory.hpp:77] Creating layer Scale36
I0825 11:11:34.744995  1899 net.cpp:172] Setting up Scale36
I0825 11:11:34.745007  1899 net.cpp:186] Top shape: 64 64 8 8 (262144)
I0825 11:11:34.745010  1899 net.cpp:194] Memory required for data: 546046208
I0825 11:11:34.745018  1899 layer_factory.hpp:77] Creating layer ReLU34
I0825 11:11:34.745048  1899 net.cpp:128] Creating Layer ReLU34
I0825 11:11:34.745066  1899 net.cpp:558] ReLU34 <- Convolution36
I0825 11:11:34.745093  1899 net.cpp:509] ReLU34 -> Convolution36 (in-place)
I0825 11:11:34.746297  1899 net.cpp:172] Setting up ReLU34
I0825 11:11:34.746314  1899 net.cpp:186] Top shape: 64 64 8 8 (262144)
I0825 11:11:34.746317  1899 net.cpp:194] Memory required for data: 547094784
I0825 11:11:34.746322  1899 layer_factory.hpp:77] Creating layer Convolution37
I0825 11:11:34.746351  1899 net.cpp:128] Creating Layer Convolution37
I0825 11:11:34.746358  1899 net.cpp:558] Convolution37 <- Convolution36
I0825 11:11:34.746368  1899 net.cpp:522] Convolution37 -> Convolution37
I0825 11:11:34.759243  1899 net.cpp:172] Setting up Convolution37
I0825 11:11:34.759269  1899 net.cpp:186] Top shape: 64 64 8 8 (262144)
I0825 11:11:34.759290  1899 net.cpp:194] Memory required for data: 548143360
I0825 11:11:34.759301  1899 layer_factory.hpp:77] Creating layer BatchNorm37
I0825 11:11:34.759312  1899 net.cpp:128] Creating Layer BatchNorm37
I0825 11:11:34.759317  1899 net.cpp:558] BatchNorm37 <- Convolution37
I0825 11:11:34.759326  1899 net.cpp:509] BatchNorm37 -> Convolution37 (in-place)
I0825 11:11:34.759629  1899 net.cpp:172] Setting up BatchNorm37
I0825 11:11:34.759640  1899 net.cpp:186] Top shape: 64 64 8 8 (262144)
I0825 11:11:34.759646  1899 net.cpp:194] Memory required for data: 549191936
I0825 11:11:34.759680  1899 layer_factory.hpp:77] Creating layer Scale37
I0825 11:11:34.759721  1899 net.cpp:128] Creating Layer Scale37
I0825 11:11:34.759737  1899 net.cpp:558] Scale37 <- Convolution37
I0825 11:11:34.759754  1899 net.cpp:509] Scale37 -> Convolution37 (in-place)
I0825 11:11:34.759826  1899 layer_factory.hpp:77] Creating layer Scale37
I0825 11:11:34.760007  1899 net.cpp:172] Setting up Scale37
I0825 11:11:34.760020  1899 net.cpp:186] Top shape: 64 64 8 8 (262144)
I0825 11:11:34.760025  1899 net.cpp:194] Memory required for data: 550240512
I0825 11:11:34.760033  1899 layer_factory.hpp:77] Creating layer Eltwise17
I0825 11:11:34.760043  1899 net.cpp:128] Creating Layer Eltwise17
I0825 11:11:34.760049  1899 net.cpp:558] Eltwise17 <- Eltwise16_ReLU33_0_split_1
I0825 11:11:34.760054  1899 net.cpp:558] Eltwise17 <- Convolution37
I0825 11:11:34.760061  1899 net.cpp:522] Eltwise17 -> Eltwise17
I0825 11:11:34.760092  1899 net.cpp:172] Setting up Eltwise17
I0825 11:11:34.760123  1899 net.cpp:186] Top shape: 64 64 8 8 (262144)
I0825 11:11:34.760138  1899 net.cpp:194] Memory required for data: 551289088
I0825 11:11:34.760151  1899 layer_factory.hpp:77] Creating layer ReLU35
I0825 11:11:34.760169  1899 net.cpp:128] Creating Layer ReLU35
I0825 11:11:34.760184  1899 net.cpp:558] ReLU35 <- Eltwise17
I0825 11:11:34.760201  1899 net.cpp:509] ReLU35 -> Eltwise17 (in-place)
I0825 11:11:34.761072  1899 net.cpp:172] Setting up ReLU35
I0825 11:11:34.761092  1899 net.cpp:186] Top shape: 64 64 8 8 (262144)
I0825 11:11:34.761096  1899 net.cpp:194] Memory required for data: 552337664
I0825 11:11:34.761102  1899 layer_factory.hpp:77] Creating layer Eltwise17_ReLU35_0_split
I0825 11:11:34.761111  1899 net.cpp:128] Creating Layer Eltwise17_ReLU35_0_split
I0825 11:11:34.761116  1899 net.cpp:558] Eltwise17_ReLU35_0_split <- Eltwise17
I0825 11:11:34.761124  1899 net.cpp:522] Eltwise17_ReLU35_0_split -> Eltwise17_ReLU35_0_split_0
I0825 11:11:34.761133  1899 net.cpp:522] Eltwise17_ReLU35_0_split -> Eltwise17_ReLU35_0_split_1
I0825 11:11:34.761191  1899 net.cpp:172] Setting up Eltwise17_ReLU35_0_split
I0825 11:11:34.761229  1899 net.cpp:186] Top shape: 64 64 8 8 (262144)
I0825 11:11:34.761246  1899 net.cpp:186] Top shape: 64 64 8 8 (262144)
I0825 11:11:34.761260  1899 net.cpp:194] Memory required for data: 554434816
I0825 11:11:34.761274  1899 layer_factory.hpp:77] Creating layer Convolution38
I0825 11:11:34.761298  1899 net.cpp:128] Creating Layer Convolution38
I0825 11:11:34.761313  1899 net.cpp:558] Convolution38 <- Eltwise17_ReLU35_0_split_0
I0825 11:11:34.761333  1899 net.cpp:522] Convolution38 -> Convolution38
I0825 11:11:34.767904  1899 net.cpp:172] Setting up Convolution38
I0825 11:11:34.767930  1899 net.cpp:186] Top shape: 64 64 8 8 (262144)
I0825 11:11:34.767935  1899 net.cpp:194] Memory required for data: 555483392
I0825 11:11:34.767944  1899 layer_factory.hpp:77] Creating layer BatchNorm38
I0825 11:11:34.767956  1899 net.cpp:128] Creating Layer BatchNorm38
I0825 11:11:34.767961  1899 net.cpp:558] BatchNorm38 <- Convolution38
I0825 11:11:34.767967  1899 net.cpp:509] BatchNorm38 -> Convolution38 (in-place)
I0825 11:11:34.768254  1899 net.cpp:172] Setting up BatchNorm38
I0825 11:11:34.768265  1899 net.cpp:186] Top shape: 64 64 8 8 (262144)
I0825 11:11:34.768271  1899 net.cpp:194] Memory required for data: 556531968
I0825 11:11:34.768281  1899 layer_factory.hpp:77] Creating layer Scale38
I0825 11:11:34.768291  1899 net.cpp:128] Creating Layer Scale38
I0825 11:11:34.768340  1899 net.cpp:558] Scale38 <- Convolution38
I0825 11:11:34.768357  1899 net.cpp:509] Scale38 -> Convolution38 (in-place)
I0825 11:11:34.768427  1899 layer_factory.hpp:77] Creating layer Scale38
I0825 11:11:34.768612  1899 net.cpp:172] Setting up Scale38
I0825 11:11:34.768625  1899 net.cpp:186] Top shape: 64 64 8 8 (262144)
I0825 11:11:34.768630  1899 net.cpp:194] Memory required for data: 557580544
I0825 11:11:34.768640  1899 layer_factory.hpp:77] Creating layer ReLU36
I0825 11:11:34.768648  1899 net.cpp:128] Creating Layer ReLU36
I0825 11:11:34.768653  1899 net.cpp:558] ReLU36 <- Convolution38
I0825 11:11:34.768661  1899 net.cpp:509] ReLU36 -> Convolution38 (in-place)
I0825 11:11:34.770016  1899 net.cpp:172] Setting up ReLU36
I0825 11:11:34.770067  1899 net.cpp:186] Top shape: 64 64 8 8 (262144)
I0825 11:11:34.770087  1899 net.cpp:194] Memory required for data: 558629120
I0825 11:11:34.770102  1899 layer_factory.hpp:77] Creating layer Convolution39
I0825 11:11:34.770126  1899 net.cpp:128] Creating Layer Convolution39
I0825 11:11:34.770148  1899 net.cpp:558] Convolution39 <- Convolution38
I0825 11:11:34.770169  1899 net.cpp:522] Convolution39 -> Convolution39
I0825 11:11:34.777626  1899 net.cpp:172] Setting up Convolution39
I0825 11:11:34.777655  1899 net.cpp:186] Top shape: 64 64 8 8 (262144)
I0825 11:11:34.777662  1899 net.cpp:194] Memory required for data: 559677696
I0825 11:11:34.777671  1899 layer_factory.hpp:77] Creating layer BatchNorm39
I0825 11:11:34.777683  1899 net.cpp:128] Creating Layer BatchNorm39
I0825 11:11:34.777719  1899 net.cpp:558] BatchNorm39 <- Convolution39
I0825 11:11:34.777736  1899 net.cpp:509] BatchNorm39 -> Convolution39 (in-place)
I0825 11:11:34.778056  1899 net.cpp:172] Setting up BatchNorm39
I0825 11:11:34.778067  1899 net.cpp:186] Top shape: 64 64 8 8 (262144)
I0825 11:11:34.778072  1899 net.cpp:194] Memory required for data: 560726272
I0825 11:11:34.778082  1899 layer_factory.hpp:77] Creating layer Scale39
I0825 11:11:34.778108  1899 net.cpp:128] Creating Layer Scale39
I0825 11:11:34.778126  1899 net.cpp:558] Scale39 <- Convolution39
I0825 11:11:34.778144  1899 net.cpp:509] Scale39 -> Convolution39 (in-place)
I0825 11:11:34.778215  1899 layer_factory.hpp:77] Creating layer Scale39
I0825 11:11:34.778393  1899 net.cpp:172] Setting up Scale39
I0825 11:11:34.778405  1899 net.cpp:186] Top shape: 64 64 8 8 (262144)
I0825 11:11:34.778410  1899 net.cpp:194] Memory required for data: 561774848
I0825 11:11:34.778419  1899 layer_factory.hpp:77] Creating layer Eltwise18
I0825 11:11:34.778445  1899 net.cpp:128] Creating Layer Eltwise18
I0825 11:11:34.778463  1899 net.cpp:558] Eltwise18 <- Eltwise17_ReLU35_0_split_1
I0825 11:11:34.778481  1899 net.cpp:558] Eltwise18 <- Convolution39
I0825 11:11:34.778499  1899 net.cpp:522] Eltwise18 -> Eltwise18
I0825 11:11:34.778540  1899 net.cpp:172] Setting up Eltwise18
I0825 11:11:34.778549  1899 net.cpp:186] Top shape: 64 64 8 8 (262144)
I0825 11:11:34.778554  1899 net.cpp:194] Memory required for data: 562823424
I0825 11:11:34.778558  1899 layer_factory.hpp:77] Creating layer ReLU37
I0825 11:11:34.778568  1899 net.cpp:128] Creating Layer ReLU37
I0825 11:11:34.778590  1899 net.cpp:558] ReLU37 <- Eltwise18
I0825 11:11:34.778606  1899 net.cpp:509] ReLU37 -> Eltwise18 (in-place)
I0825 11:11:34.781617  1899 net.cpp:172] Setting up ReLU37
I0825 11:11:34.781636  1899 net.cpp:186] Top shape: 64 64 8 8 (262144)
I0825 11:11:34.781641  1899 net.cpp:194] Memory required for data: 563872000
I0825 11:11:34.781646  1899 layer_factory.hpp:77] Creating layer Eltwise18_ReLU37_0_split
I0825 11:11:34.781656  1899 net.cpp:128] Creating Layer Eltwise18_ReLU37_0_split
I0825 11:11:34.781661  1899 net.cpp:558] Eltwise18_ReLU37_0_split <- Eltwise18
I0825 11:11:34.781667  1899 net.cpp:522] Eltwise18_ReLU37_0_split -> Eltwise18_ReLU37_0_split_0
I0825 11:11:34.781675  1899 net.cpp:522] Eltwise18_ReLU37_0_split -> Eltwise18_ReLU37_0_split_1
I0825 11:11:34.781736  1899 net.cpp:172] Setting up Eltwise18_ReLU37_0_split
I0825 11:11:34.781769  1899 net.cpp:186] Top shape: 64 64 8 8 (262144)
I0825 11:11:34.781790  1899 net.cpp:186] Top shape: 64 64 8 8 (262144)
I0825 11:11:34.781795  1899 net.cpp:194] Memory required for data: 565969152
I0825 11:11:34.781798  1899 layer_factory.hpp:77] Creating layer Convolution40
I0825 11:11:34.781813  1899 net.cpp:128] Creating Layer Convolution40
I0825 11:11:34.781836  1899 net.cpp:558] Convolution40 <- Eltwise18_ReLU37_0_split_0
I0825 11:11:34.781855  1899 net.cpp:522] Convolution40 -> Convolution40
I0825 11:11:34.791410  1899 net.cpp:172] Setting up Convolution40
I0825 11:11:34.791437  1899 net.cpp:186] Top shape: 64 64 8 8 (262144)
I0825 11:11:34.791442  1899 net.cpp:194] Memory required for data: 567017728
I0825 11:11:34.791452  1899 layer_factory.hpp:77] Creating layer BatchNorm40
I0825 11:11:34.791463  1899 net.cpp:128] Creating Layer BatchNorm40
I0825 11:11:34.791469  1899 net.cpp:558] BatchNorm40 <- Convolution40
I0825 11:11:34.791478  1899 net.cpp:509] BatchNorm40 -> Convolution40 (in-place)
I0825 11:11:34.791769  1899 net.cpp:172] Setting up BatchNorm40
I0825 11:11:34.791780  1899 net.cpp:186] Top shape: 64 64 8 8 (262144)
I0825 11:11:34.791785  1899 net.cpp:194] Memory required for data: 568066304
I0825 11:11:34.791795  1899 layer_factory.hpp:77] Creating layer Scale40
I0825 11:11:34.791803  1899 net.cpp:128] Creating Layer Scale40
I0825 11:11:34.791810  1899 net.cpp:558] Scale40 <- Convolution40
I0825 11:11:34.791815  1899 net.cpp:509] Scale40 -> Convolution40 (in-place)
I0825 11:11:34.791867  1899 layer_factory.hpp:77] Creating layer Scale40
I0825 11:11:34.792076  1899 net.cpp:172] Setting up Scale40
I0825 11:11:34.792090  1899 net.cpp:186] Top shape: 64 64 8 8 (262144)
I0825 11:11:34.792096  1899 net.cpp:194] Memory required for data: 569114880
I0825 11:11:34.792104  1899 layer_factory.hpp:77] Creating layer ReLU38
I0825 11:11:34.792111  1899 net.cpp:128] Creating Layer ReLU38
I0825 11:11:34.792116  1899 net.cpp:558] ReLU38 <- Convolution40
I0825 11:11:34.792124  1899 net.cpp:509] ReLU38 -> Convolution40 (in-place)
I0825 11:11:34.793506  1899 net.cpp:172] Setting up ReLU38
I0825 11:11:34.793524  1899 net.cpp:186] Top shape: 64 64 8 8 (262144)
I0825 11:11:34.793529  1899 net.cpp:194] Memory required for data: 570163456
I0825 11:11:34.793534  1899 layer_factory.hpp:77] Creating layer Convolution41
I0825 11:11:34.793547  1899 net.cpp:128] Creating Layer Convolution41
I0825 11:11:34.793553  1899 net.cpp:558] Convolution41 <- Convolution40
I0825 11:11:34.793562  1899 net.cpp:522] Convolution41 -> Convolution41
I0825 11:11:34.800645  1899 net.cpp:172] Setting up Convolution41
I0825 11:11:34.800669  1899 net.cpp:186] Top shape: 64 64 8 8 (262144)
I0825 11:11:34.800674  1899 net.cpp:194] Memory required for data: 571212032
I0825 11:11:34.800685  1899 layer_factory.hpp:77] Creating layer BatchNorm41
I0825 11:11:34.800695  1899 net.cpp:128] Creating Layer BatchNorm41
I0825 11:11:34.800704  1899 net.cpp:558] BatchNorm41 <- Convolution41
I0825 11:11:34.800711  1899 net.cpp:509] BatchNorm41 -> Convolution41 (in-place)
I0825 11:11:34.801023  1899 net.cpp:172] Setting up BatchNorm41
I0825 11:11:34.801033  1899 net.cpp:186] Top shape: 64 64 8 8 (262144)
I0825 11:11:34.801070  1899 net.cpp:194] Memory required for data: 572260608
I0825 11:11:34.801095  1899 layer_factory.hpp:77] Creating layer Scale41
I0825 11:11:34.801108  1899 net.cpp:128] Creating Layer Scale41
I0825 11:11:34.801113  1899 net.cpp:558] Scale41 <- Convolution41
I0825 11:11:34.801120  1899 net.cpp:509] Scale41 -> Convolution41 (in-place)
I0825 11:11:34.801177  1899 layer_factory.hpp:77] Creating layer Scale41
I0825 11:11:34.801352  1899 net.cpp:172] Setting up Scale41
I0825 11:11:34.801363  1899 net.cpp:186] Top shape: 64 64 8 8 (262144)
I0825 11:11:34.801367  1899 net.cpp:194] Memory required for data: 573309184
I0825 11:11:34.801396  1899 layer_factory.hpp:77] Creating layer Eltwise19
I0825 11:11:34.801409  1899 net.cpp:128] Creating Layer Eltwise19
I0825 11:11:34.801414  1899 net.cpp:558] Eltwise19 <- Eltwise18_ReLU37_0_split_1
I0825 11:11:34.801419  1899 net.cpp:558] Eltwise19 <- Convolution41
I0825 11:11:34.801457  1899 net.cpp:522] Eltwise19 -> Eltwise19
I0825 11:11:34.801496  1899 net.cpp:172] Setting up Eltwise19
I0825 11:11:34.801506  1899 net.cpp:186] Top shape: 64 64 8 8 (262144)
I0825 11:11:34.801511  1899 net.cpp:194] Memory required for data: 574357760
I0825 11:11:34.801532  1899 layer_factory.hpp:77] Creating layer ReLU39
I0825 11:11:34.801553  1899 net.cpp:128] Creating Layer ReLU39
I0825 11:11:34.801561  1899 net.cpp:558] ReLU39 <- Eltwise19
I0825 11:11:34.801568  1899 net.cpp:509] ReLU39 -> Eltwise19 (in-place)
I0825 11:11:34.802464  1899 net.cpp:172] Setting up ReLU39
I0825 11:11:34.802484  1899 net.cpp:186] Top shape: 64 64 8 8 (262144)
I0825 11:11:34.802487  1899 net.cpp:194] Memory required for data: 575406336
I0825 11:11:34.802492  1899 layer_factory.hpp:77] Creating layer Eltwise19_ReLU39_0_split
I0825 11:11:34.802501  1899 net.cpp:128] Creating Layer Eltwise19_ReLU39_0_split
I0825 11:11:34.802533  1899 net.cpp:558] Eltwise19_ReLU39_0_split <- Eltwise19
I0825 11:11:34.802558  1899 net.cpp:522] Eltwise19_ReLU39_0_split -> Eltwise19_ReLU39_0_split_0
I0825 11:11:34.802582  1899 net.cpp:522] Eltwise19_ReLU39_0_split -> Eltwise19_ReLU39_0_split_1
I0825 11:11:34.802659  1899 net.cpp:172] Setting up Eltwise19_ReLU39_0_split
I0825 11:11:34.802673  1899 net.cpp:186] Top shape: 64 64 8 8 (262144)
I0825 11:11:34.802680  1899 net.cpp:186] Top shape: 64 64 8 8 (262144)
I0825 11:11:34.802683  1899 net.cpp:194] Memory required for data: 577503488
I0825 11:11:34.802707  1899 layer_factory.hpp:77] Creating layer Convolution42
I0825 11:11:34.802733  1899 net.cpp:128] Creating Layer Convolution42
I0825 11:11:34.802742  1899 net.cpp:558] Convolution42 <- Eltwise19_ReLU39_0_split_0
I0825 11:11:34.802750  1899 net.cpp:522] Convolution42 -> Convolution42
I0825 11:11:34.811537  1899 net.cpp:172] Setting up Convolution42
I0825 11:11:34.811566  1899 net.cpp:186] Top shape: 64 64 8 8 (262144)
I0825 11:11:34.811571  1899 net.cpp:194] Memory required for data: 578552064
I0825 11:11:34.811583  1899 layer_factory.hpp:77] Creating layer BatchNorm42
I0825 11:11:34.811590  1899 net.cpp:128] Creating Layer BatchNorm42
I0825 11:11:34.811595  1899 net.cpp:558] BatchNorm42 <- Convolution42
I0825 11:11:34.811635  1899 net.cpp:509] BatchNorm42 -> Convolution42 (in-place)
I0825 11:11:34.811956  1899 net.cpp:172] Setting up BatchNorm42
I0825 11:11:34.811967  1899 net.cpp:186] Top shape: 64 64 8 8 (262144)
I0825 11:11:34.811972  1899 net.cpp:194] Memory required for data: 579600640
I0825 11:11:34.811985  1899 layer_factory.hpp:77] Creating layer Scale42
I0825 11:11:34.812011  1899 net.cpp:128] Creating Layer Scale42
I0825 11:11:34.812028  1899 net.cpp:558] Scale42 <- Convolution42
I0825 11:11:34.812049  1899 net.cpp:509] Scale42 -> Convolution42 (in-place)
I0825 11:11:34.812119  1899 layer_factory.hpp:77] Creating layer Scale42
I0825 11:11:34.812294  1899 net.cpp:172] Setting up Scale42
I0825 11:11:34.812304  1899 net.cpp:186] Top shape: 64 64 8 8 (262144)
I0825 11:11:34.812307  1899 net.cpp:194] Memory required for data: 580649216
I0825 11:11:34.812316  1899 layer_factory.hpp:77] Creating layer ReLU40
I0825 11:11:34.812341  1899 net.cpp:128] Creating Layer ReLU40
I0825 11:11:34.812360  1899 net.cpp:558] ReLU40 <- Convolution42
I0825 11:11:34.812379  1899 net.cpp:509] ReLU40 -> Convolution42 (in-place)
I0825 11:11:34.815702  1899 net.cpp:172] Setting up ReLU40
I0825 11:11:34.815727  1899 net.cpp:186] Top shape: 64 64 8 8 (262144)
I0825 11:11:34.815732  1899 net.cpp:194] Memory required for data: 581697792
I0825 11:11:34.815737  1899 layer_factory.hpp:77] Creating layer Convolution43
I0825 11:11:34.815752  1899 net.cpp:128] Creating Layer Convolution43
I0825 11:11:34.815757  1899 net.cpp:558] Convolution43 <- Convolution42
I0825 11:11:34.815766  1899 net.cpp:522] Convolution43 -> Convolution43
I0825 11:11:34.824259  1899 net.cpp:172] Setting up Convolution43
I0825 11:11:34.824285  1899 net.cpp:186] Top shape: 64 64 8 8 (262144)
I0825 11:11:34.824290  1899 net.cpp:194] Memory required for data: 582746368
I0825 11:11:34.824301  1899 layer_factory.hpp:77] Creating layer BatchNorm43
I0825 11:11:34.824326  1899 net.cpp:128] Creating Layer BatchNorm43
I0825 11:11:34.824332  1899 net.cpp:558] BatchNorm43 <- Convolution43
I0825 11:11:34.824342  1899 net.cpp:509] BatchNorm43 -> Convolution43 (in-place)
I0825 11:11:34.824651  1899 net.cpp:172] Setting up BatchNorm43
I0825 11:11:34.824663  1899 net.cpp:186] Top shape: 64 64 8 8 (262144)
I0825 11:11:34.824669  1899 net.cpp:194] Memory required for data: 583794944
I0825 11:11:34.824679  1899 layer_factory.hpp:77] Creating layer Scale43
I0825 11:11:34.824689  1899 net.cpp:128] Creating Layer Scale43
I0825 11:11:34.824693  1899 net.cpp:558] Scale43 <- Convolution43
I0825 11:11:34.824699  1899 net.cpp:509] Scale43 -> Convolution43 (in-place)
I0825 11:11:34.824753  1899 layer_factory.hpp:77] Creating layer Scale43
I0825 11:11:34.824968  1899 net.cpp:172] Setting up Scale43
I0825 11:11:34.824981  1899 net.cpp:186] Top shape: 64 64 8 8 (262144)
I0825 11:11:34.824985  1899 net.cpp:194] Memory required for data: 584843520
I0825 11:11:34.824995  1899 layer_factory.hpp:77] Creating layer Eltwise20
I0825 11:11:34.825004  1899 net.cpp:128] Creating Layer Eltwise20
I0825 11:11:34.825011  1899 net.cpp:558] Eltwise20 <- Eltwise19_ReLU39_0_split_1
I0825 11:11:34.825016  1899 net.cpp:558] Eltwise20 <- Convolution43
I0825 11:11:34.825021  1899 net.cpp:522] Eltwise20 -> Eltwise20
I0825 11:11:34.825054  1899 net.cpp:172] Setting up Eltwise20
I0825 11:11:34.825086  1899 net.cpp:186] Top shape: 64 64 8 8 (262144)
I0825 11:11:34.825100  1899 net.cpp:194] Memory required for data: 585892096
I0825 11:11:34.825115  1899 layer_factory.hpp:77] Creating layer ReLU41
I0825 11:11:34.825132  1899 net.cpp:128] Creating Layer ReLU41
I0825 11:11:34.825146  1899 net.cpp:558] ReLU41 <- Eltwise20
I0825 11:11:34.825162  1899 net.cpp:509] ReLU41 -> Eltwise20 (in-place)
I0825 11:11:34.826071  1899 net.cpp:172] Setting up ReLU41
I0825 11:11:34.826090  1899 net.cpp:186] Top shape: 64 64 8 8 (262144)
I0825 11:11:34.826094  1899 net.cpp:194] Memory required for data: 586940672
I0825 11:11:34.826099  1899 layer_factory.hpp:77] Creating layer Eltwise20_ReLU41_0_split
I0825 11:11:34.826107  1899 net.cpp:128] Creating Layer Eltwise20_ReLU41_0_split
I0825 11:11:34.826112  1899 net.cpp:558] Eltwise20_ReLU41_0_split <- Eltwise20
I0825 11:11:34.826122  1899 net.cpp:522] Eltwise20_ReLU41_0_split -> Eltwise20_ReLU41_0_split_0
I0825 11:11:34.826131  1899 net.cpp:522] Eltwise20_ReLU41_0_split -> Eltwise20_ReLU41_0_split_1
I0825 11:11:34.826191  1899 net.cpp:172] Setting up Eltwise20_ReLU41_0_split
I0825 11:11:34.826231  1899 net.cpp:186] Top shape: 64 64 8 8 (262144)
I0825 11:11:34.826247  1899 net.cpp:186] Top shape: 64 64 8 8 (262144)
I0825 11:11:34.826261  1899 net.cpp:194] Memory required for data: 589037824
I0825 11:11:34.826274  1899 layer_factory.hpp:77] Creating layer Convolution44
I0825 11:11:34.826297  1899 net.cpp:128] Creating Layer Convolution44
I0825 11:11:34.826311  1899 net.cpp:558] Convolution44 <- Eltwise20_ReLU41_0_split_0
I0825 11:11:34.826331  1899 net.cpp:522] Convolution44 -> Convolution44
I0825 11:11:34.829030  1899 net.cpp:172] Setting up Convolution44
I0825 11:11:34.829078  1899 net.cpp:186] Top shape: 64 64 8 8 (262144)
I0825 11:11:34.829097  1899 net.cpp:194] Memory required for data: 590086400
I0825 11:11:34.829118  1899 layer_factory.hpp:77] Creating layer BatchNorm44
I0825 11:11:34.829144  1899 net.cpp:128] Creating Layer BatchNorm44
I0825 11:11:34.829162  1899 net.cpp:558] BatchNorm44 <- Convolution44
I0825 11:11:34.829181  1899 net.cpp:509] BatchNorm44 -> Convolution44 (in-place)
I0825 11:11:34.829506  1899 net.cpp:172] Setting up BatchNorm44
I0825 11:11:34.829531  1899 net.cpp:186] Top shape: 64 64 8 8 (262144)
I0825 11:11:34.829550  1899 net.cpp:194] Memory required for data: 591134976
I0825 11:11:34.829571  1899 layer_factory.hpp:77] Creating layer Scale44
I0825 11:11:34.829591  1899 net.cpp:128] Creating Layer Scale44
I0825 11:11:34.829607  1899 net.cpp:558] Scale44 <- Convolution44
I0825 11:11:34.829624  1899 net.cpp:509] Scale44 -> Convolution44 (in-place)
I0825 11:11:34.829711  1899 layer_factory.hpp:77] Creating layer Scale44
I0825 11:11:34.829907  1899 net.cpp:172] Setting up Scale44
I0825 11:11:34.829931  1899 net.cpp:186] Top shape: 64 64 8 8 (262144)
I0825 11:11:34.829948  1899 net.cpp:194] Memory required for data: 592183552
I0825 11:11:34.829967  1899 layer_factory.hpp:77] Creating layer ReLU42
I0825 11:11:34.829991  1899 net.cpp:128] Creating Layer ReLU42
I0825 11:11:34.830006  1899 net.cpp:558] ReLU42 <- Convolution44
I0825 11:11:34.830021  1899 net.cpp:509] ReLU42 -> Convolution44 (in-place)
I0825 11:11:34.830291  1899 net.cpp:172] Setting up ReLU42
I0825 11:11:34.830323  1899 net.cpp:186] Top shape: 64 64 8 8 (262144)
I0825 11:11:34.830350  1899 net.cpp:194] Memory required for data: 593232128
I0825 11:11:34.830365  1899 layer_factory.hpp:77] Creating layer Convolution45
I0825 11:11:34.830391  1899 net.cpp:128] Creating Layer Convolution45
I0825 11:11:34.830410  1899 net.cpp:558] Convolution45 <- Convolution44
I0825 11:11:34.830428  1899 net.cpp:522] Convolution45 -> Convolution45
I0825 11:11:34.833578  1899 net.cpp:172] Setting up Convolution45
I0825 11:11:34.833624  1899 net.cpp:186] Top shape: 64 64 8 8 (262144)
I0825 11:11:34.833642  1899 net.cpp:194] Memory required for data: 594280704
I0825 11:11:34.833664  1899 layer_factory.hpp:77] Creating layer BatchNorm45
I0825 11:11:34.833681  1899 net.cpp:128] Creating Layer BatchNorm45
I0825 11:11:34.833700  1899 net.cpp:558] BatchNorm45 <- Convolution45
I0825 11:11:34.833719  1899 net.cpp:509] BatchNorm45 -> Convolution45 (in-place)
I0825 11:11:34.834046  1899 net.cpp:172] Setting up BatchNorm45
I0825 11:11:34.834070  1899 net.cpp:186] Top shape: 64 64 8 8 (262144)
I0825 11:11:34.834087  1899 net.cpp:194] Memory required for data: 595329280
I0825 11:11:34.834108  1899 layer_factory.hpp:77] Creating layer Scale45
I0825 11:11:34.834130  1899 net.cpp:128] Creating Layer Scale45
I0825 11:11:34.834143  1899 net.cpp:558] Scale45 <- Convolution45
I0825 11:11:34.834161  1899 net.cpp:509] Scale45 -> Convolution45 (in-place)
I0825 11:11:34.834235  1899 layer_factory.hpp:77] Creating layer Scale45
I0825 11:11:34.834439  1899 net.cpp:172] Setting up Scale45
I0825 11:11:34.834451  1899 net.cpp:186] Top shape: 64 64 8 8 (262144)
I0825 11:11:34.834456  1899 net.cpp:194] Memory required for data: 596377856
I0825 11:11:34.834465  1899 layer_factory.hpp:77] Creating layer Eltwise21
I0825 11:11:34.834475  1899 net.cpp:128] Creating Layer Eltwise21
I0825 11:11:34.834502  1899 net.cpp:558] Eltwise21 <- Eltwise20_ReLU41_0_split_1
I0825 11:11:34.834511  1899 net.cpp:558] Eltwise21 <- Convolution45
I0825 11:11:34.834518  1899 net.cpp:522] Eltwise21 -> Eltwise21
I0825 11:11:34.834573  1899 net.cpp:172] Setting up Eltwise21
I0825 11:11:34.834583  1899 net.cpp:186] Top shape: 64 64 8 8 (262144)
I0825 11:11:34.834587  1899 net.cpp:194] Memory required for data: 597426432
I0825 11:11:34.834591  1899 layer_factory.hpp:77] Creating layer ReLU43
I0825 11:11:34.834600  1899 net.cpp:128] Creating Layer ReLU43
I0825 11:11:34.834621  1899 net.cpp:558] ReLU43 <- Eltwise21
I0825 11:11:34.834633  1899 net.cpp:509] ReLU43 -> Eltwise21 (in-place)
I0825 11:11:34.835160  1899 net.cpp:172] Setting up ReLU43
I0825 11:11:34.835201  1899 net.cpp:186] Top shape: 64 64 8 8 (262144)
I0825 11:11:34.835218  1899 net.cpp:194] Memory required for data: 598475008
I0825 11:11:34.835247  1899 layer_factory.hpp:77] Creating layer Pooling1
I0825 11:11:34.835268  1899 net.cpp:128] Creating Layer Pooling1
I0825 11:11:34.835289  1899 net.cpp:558] Pooling1 <- Eltwise21
…
I0825 11:11:35.118568  1899 layer_factory.hpp:77] Creating layer ReLU26
I0825 11:11:35.118582  1899 net.cpp:128] Creating Layer ReLU26
I0825 11:11:35.118587  1899 net.cpp:558] ReLU26 <- Convolution27
I0825 11:11:35.118594  1899 net.cpp:509] ReLU26 -> Convolution27 (in-place)
I0825 11:11:35.120975  1899 net.cpp:172] Setting up ReLU26
I0825 11:11:35.120992  1899 net.cpp:186] Top shape: 10 32 16 16 (81920)
I0825 11:11:35.120997  1899 net.cpp:194] Memory required for data: 74834040
I0825 11:11:35.121001  1899 layer_factory.hpp:77] Creating layer Convolution28
I0825 11:11:35.121016  1899 net.cpp:128] Creating Layer Convolution28
I0825 11:11:35.121021  1899 net.cpp:558] Convolution28 <- Convolution27
I0825 11:11:35.121034  1899 net.cpp:522] Convolution28 -> Convolution28
I0825 11:11:35.127893  1899 net.cpp:172] Setting up Convolution28
I0825 11:11:35.127919  1899 net.cpp:186] Top shape: 10 32 16 16 (81920)
I0825 11:11:35.127924  1899 net.cpp:194] Memory required for data: 75161720
I0825 11:11:35.127933  1899 layer_factory.hpp:77] Creating layer BatchNorm28
I0825 11:11:35.127945  1899 net.cpp:128] Creating Layer BatchNorm28
I0825 11:11:35.127950  1899 net.cpp:558] BatchNorm28 <- Convolution28
I0825 11:11:35.127960  1899 net.cpp:509] BatchNorm28 -> Convolution28 (in-place)
I0825 11:11:35.128290  1899 net.cpp:172] Setting up BatchNorm28
I0825 11:11:35.128301  1899 net.cpp:186] Top shape: 10 32 16 16 (81920)
I0825 11:11:35.128322  1899 net.cpp:194] Memory required for data: 75489400
I0825 11:11:35.128334  1899 layer_factory.hpp:77] Creating layer Scale28
I0825 11:11:35.128343  1899 net.cpp:128] Creating Layer Scale28
I0825 11:11:35.128348  1899 net.cpp:558] Scale28 <- Convolution28
I0825 11:11:35.128353  1899 net.cpp:509] Scale28 -> Convolution28 (in-place)
I0825 11:11:35.128415  1899 layer_factory.hpp:77] Creating layer Scale28
I0825 11:11:35.128605  1899 net.cpp:172] Setting up Scale28
I0825 11:11:35.128617  1899 net.cpp:186] Top shape: 10 32 16 16 (81920)
I0825 11:11:35.128621  1899 net.cpp:194] Memory required for data: 75817080
I0825 11:11:35.128629  1899 layer_factory.hpp:77] Creating layer Eltwise13
I0825 11:11:35.128639  1899 net.cpp:128] Creating Layer Eltwise13
I0825 11:11:35.128645  1899 net.cpp:558] Eltwise13 <- Eltwise12_ReLU25_0_split_1
I0825 11:11:35.128650  1899 net.cpp:558] Eltwise13 <- Convolution28
I0825 11:11:35.128657  1899 net.cpp:522] Eltwise13 -> Eltwise13
I0825 11:11:35.128688  1899 net.cpp:172] Setting up Eltwise13
I0825 11:11:35.128698  1899 net.cpp:186] Top shape: 10 32 16 16 (81920)
I0825 11:11:35.128703  1899 net.cpp:194] Memory required for data: 76144760
I0825 11:11:35.128707  1899 layer_factory.hpp:77] Creating layer ReLU27
I0825 11:11:35.128713  1899 net.cpp:128] Creating Layer ReLU27
I0825 11:11:35.128717  1899 net.cpp:558] ReLU27 <- Eltwise13
I0825 11:11:35.128722  1899 net.cpp:509] ReLU27 -> Eltwise13 (in-place)
I0825 11:11:35.129946  1899 net.cpp:172] Setting up ReLU27
I0825 11:11:35.129959  1899 net.cpp:186] Top shape: 10 32 16 16 (81920)
I0825 11:11:35.129963  1899 net.cpp:194] Memory required for data: 76472440
I0825 11:11:35.129968  1899 layer_factory.hpp:77] Creating layer Eltwise13_ReLU27_0_split
I0825 11:11:35.129976  1899 net.cpp:128] Creating Layer Eltwise13_ReLU27_0_split
I0825 11:11:35.129981  1899 net.cpp:558] Eltwise13_ReLU27_0_split <- Eltwise13
I0825 11:11:35.129989  1899 net.cpp:522] Eltwise13_ReLU27_0_split -> Eltwise13_ReLU27_0_split_0
I0825 11:11:35.129998  1899 net.cpp:522] Eltwise13_ReLU27_0_split -> Eltwise13_ReLU27_0_split_1
I0825 11:11:35.130059  1899 net.cpp:172] Setting up Eltwise13_ReLU27_0_split
I0825 11:11:35.130071  1899 net.cpp:186] Top shape: 10 32 16 16 (81920)
I0825 11:11:35.130077  1899 net.cpp:186] Top shape: 10 32 16 16 (81920)
I0825 11:11:35.130081  1899 net.cpp:194] Memory required for data: 77127800
I0825 11:11:35.130085  1899 layer_factory.hpp:77] Creating layer Convolution29
I0825 11:11:35.130100  1899 net.cpp:128] Creating Layer Convolution29
I0825 11:11:35.130105  1899 net.cpp:558] Convolution29 <- Eltwise13_ReLU27_0_split_0
I0825 11:11:35.130115  1899 net.cpp:522] Convolution29 -> Convolution29
I0825 11:11:35.137948  1899 net.cpp:172] Setting up Convolution29
I0825 11:11:35.137974  1899 net.cpp:186] Top shape: 10 32 16 16 (81920)
I0825 11:11:35.137979  1899 net.cpp:194] Memory required for data: 77455480
I0825 11:11:35.137990  1899 layer_factory.hpp:77] Creating layer BatchNorm29
I0825 11:11:35.137998  1899 net.cpp:128] Creating Layer BatchNorm29
I0825 11:11:35.138010  1899 net.cpp:558] BatchNorm29 <- Convolution29
I0825 11:11:35.138017  1899 net.cpp:509] BatchNorm29 -> Convolution29 (in-place)
I0825 11:11:35.138372  1899 net.cpp:172] Setting up BatchNorm29
I0825 11:11:35.138384  1899 net.cpp:186] Top shape: 10 32 16 16 (81920)
I0825 11:11:35.138388  1899 net.cpp:194] Memory required for data: 77783160
I0825 11:11:35.138398  1899 layer_factory.hpp:77] Creating layer Scale29
I0825 11:11:35.138406  1899 net.cpp:128] Creating Layer Scale29
I0825 11:11:35.138411  1899 net.cpp:558] Scale29 <- Convolution29
I0825 11:11:35.138418  1899 net.cpp:509] Scale29 -> Convolution29 (in-place)
I0825 11:11:35.138480  1899 layer_factory.hpp:77] Creating layer Scale29
I0825 11:11:35.138669  1899 net.cpp:172] Setting up Scale29
I0825 11:11:35.138680  1899 net.cpp:186] Top shape: 10 32 16 16 (81920)
I0825 11:11:35.138684  1899 net.cpp:194] Memory required for data: 78110840
I0825 11:11:35.138692  1899 layer_factory.hpp:77] Creating layer ReLU28
I0825 11:11:35.138716  1899 net.cpp:128] Creating Layer ReLU28
I0825 11:11:35.138721  1899 net.cpp:558] ReLU28 <- Convolution29
I0825 11:11:35.138727  1899 net.cpp:509] ReLU28 -> Convolution29 (in-place)
I0825 11:11:35.141799  1899 net.cpp:172] Setting up ReLU28
I0825 11:11:35.141825  1899 net.cpp:186] Top shape: 10 32 16 16 (81920)
I0825 11:11:35.141829  1899 net.cpp:194] Memory required for data: 78438520
I0825 11:11:35.141834  1899 layer_factory.hpp:77] Creating layer Convolution30
I0825 11:11:35.141850  1899 net.cpp:128] Creating Layer Convolution30
I0825 11:11:35.141861  1899 net.cpp:558] Convolution30 <- Convolution29
I0825 11:11:35.141872  1899 net.cpp:522] Convolution30 -> Convolution30
I0825 11:11:35.144970  1899 net.cpp:172] Setting up Convolution30
I0825 11:11:35.144996  1899 net.cpp:186] Top shape: 10 32 16 16 (81920)
I0825 11:11:35.145001  1899 net.cpp:194] Memory required for data: 78766200
I0825 11:11:35.145011  1899 layer_factory.hpp:77] Creating layer BatchNorm30
I0825 11:11:35.145022  1899 net.cpp:128] Creating Layer BatchNorm30
I0825 11:11:35.145027  1899 net.cpp:558] BatchNorm30 <- Convolution30
I0825 11:11:35.145037  1899 net.cpp:509] BatchNorm30 -> Convolution30 (in-place)
I0825 11:11:35.145366  1899 net.cpp:172] Setting up BatchNorm30
I0825 11:11:35.145377  1899 net.cpp:186] Top shape: 10 32 16 16 (81920)
I0825 11:11:35.145381  1899 net.cpp:194] Memory required for data: 79093880
I0825 11:11:35.145391  1899 layer_factory.hpp:77] Creating layer Scale30
I0825 11:11:35.145401  1899 net.cpp:128] Creating Layer Scale30
I0825 11:11:35.145406  1899 net.cpp:558] Scale30 <- Convolution30
I0825 11:11:35.145411  1899 net.cpp:509] Scale30 -> Convolution30 (in-place)
I0825 11:11:35.145470  1899 layer_factory.hpp:77] Creating layer Scale30
I0825 11:11:35.145658  1899 net.cpp:172] Setting up Scale30
I0825 11:11:35.145669  1899 net.cpp:186] Top shape: 10 32 16 16 (81920)
I0825 11:11:35.145674  1899 net.cpp:194] Memory required for data: 79421560
I0825 11:11:35.145682  1899 layer_factory.hpp:77] Creating layer Eltwise14
I0825 11:11:35.145694  1899 net.cpp:128] Creating Layer Eltwise14
I0825 11:11:35.145699  1899 net.cpp:558] Eltwise14 <- Eltwise13_ReLU27_0_split_1
I0825 11:11:35.145705  1899 net.cpp:558] Eltwise14 <- Convolution30
I0825 11:11:35.145711  1899 net.cpp:522] Eltwise14 -> Eltwise14
I0825 11:11:35.145740  1899 net.cpp:172] Setting up Eltwise14
I0825 11:11:35.145751  1899 net.cpp:186] Top shape: 10 32 16 16 (81920)
I0825 11:11:35.145756  1899 net.cpp:194] Memory required for data: 79749240
I0825 11:11:35.145759  1899 layer_factory.hpp:77] Creating layer ReLU29
I0825 11:11:35.145766  1899 net.cpp:128] Creating Layer ReLU29
I0825 11:11:35.145771  1899 net.cpp:558] ReLU29 <- Eltwise14
I0825 11:11:35.145776  1899 net.cpp:509] ReLU29 -> Eltwise14 (in-place)
I0825 11:11:35.147073  1899 net.cpp:172] Setting up ReLU29
I0825 11:11:35.147092  1899 net.cpp:186] Top shape: 10 32 16 16 (81920)
I0825 11:11:35.147096  1899 net.cpp:194] Memory required for data: 80076920
I0825 11:11:35.147101  1899 layer_factory.hpp:77] Creating layer Eltwise14_ReLU29_0_split
I0825 11:11:35.147109  1899 net.cpp:128] Creating Layer Eltwise14_ReLU29_0_split
I0825 11:11:35.147114  1899 net.cpp:558] Eltwise14_ReLU29_0_split <- Eltwise14
I0825 11:11:35.147122  1899 net.cpp:522] Eltwise14_ReLU29_0_split -> Eltwise14_ReLU29_0_split_0
I0825 11:11:35.147131  1899 net.cpp:522] Eltwise14_ReLU29_0_split -> Eltwise14_ReLU29_0_split_1
I0825 11:11:35.147195  1899 net.cpp:172] Setting up Eltwise14_ReLU29_0_split
I0825 11:11:35.147202  1899 net.cpp:186] Top shape: 10 32 16 16 (81920)
I0825 11:11:35.147208  1899 net.cpp:186] Top shape: 10 32 16 16 (81920)
I0825 11:11:35.147212  1899 net.cpp:194] Memory required for data: 80732280
I0825 11:11:35.147217  1899 layer_factory.hpp:77] Creating layer Convolution31
I0825 11:11:35.147231  1899 net.cpp:128] Creating Layer Convolution31
I0825 11:11:35.147236  1899 net.cpp:558] Convolution31 <- Eltwise14_ReLU29_0_split_0
I0825 11:11:35.147248  1899 net.cpp:522] Convolution31 -> Convolution31
I0825 11:11:35.153966  1899 net.cpp:172] Setting up Convolution31
I0825 11:11:35.153991  1899 net.cpp:186] Top shape: 10 64 8 8 (40960)
I0825 11:11:35.153996  1899 net.cpp:194] Memory required for data: 80896120
I0825 11:11:35.154006  1899 layer_factory.hpp:77] Creating layer BatchNorm31
I0825 11:11:35.154016  1899 net.cpp:128] Creating Layer BatchNorm31
I0825 11:11:35.154022  1899 net.cpp:558] BatchNorm31 <- Convolution31
I0825 11:11:35.154029  1899 net.cpp:509] BatchNorm31 -> Convolution31 (in-place)
I0825 11:11:35.154381  1899 net.cpp:172] Setting up BatchNorm31
I0825 11:11:35.154392  1899 net.cpp:186] Top shape: 10 64 8 8 (40960)
I0825 11:11:35.154397  1899 net.cpp:194] Memory required for data: 81059960
I0825 11:11:35.154407  1899 layer_factory.hpp:77] Creating layer Scale31
I0825 11:11:35.154417  1899 net.cpp:128] Creating Layer Scale31
I0825 11:11:35.154420  1899 net.cpp:558] Scale31 <- Convolution31
I0825 11:11:35.154426  1899 net.cpp:509] Scale31 -> Convolution31 (in-place)
I0825 11:11:35.154489  1899 layer_factory.hpp:77] Creating layer Scale31
I0825 11:11:35.154680  1899 net.cpp:172] Setting up Scale31
I0825 11:11:35.154693  1899 net.cpp:186] Top shape: 10 64 8 8 (40960)
I0825 11:11:35.154697  1899 net.cpp:194] Memory required for data: 81223800
I0825 11:11:35.154706  1899 layer_factory.hpp:77] Creating layer Convolution32
I0825 11:11:35.154722  1899 net.cpp:128] Creating Layer Convolution32
I0825 11:11:35.154727  1899 net.cpp:558] Convolution32 <- Eltwise14_ReLU29_0_split_1
I0825 11:11:35.154736  1899 net.cpp:522] Convolution32 -> Convolution32
I0825 11:11:35.164826  1899 net.cpp:172] Setting up Convolution32
I0825 11:11:35.164851  1899 net.cpp:186] Top shape: 10 64 8 8 (40960)
I0825 11:11:35.164856  1899 net.cpp:194] Memory required for data: 81387640
I0825 11:11:35.164866  1899 layer_factory.hpp:77] Creating layer BatchNorm32
I0825 11:11:35.164875  1899 net.cpp:128] Creating Layer BatchNorm32
I0825 11:11:35.164880  1899 net.cpp:558] BatchNorm32 <- Convolution32
I0825 11:11:35.164891  1899 net.cpp:509] BatchNorm32 -> Convolution32 (in-place)
I0825 11:11:35.165225  1899 net.cpp:172] Setting up BatchNorm32
I0825 11:11:35.165236  1899 net.cpp:186] Top shape: 10 64 8 8 (40960)
I0825 11:11:35.165241  1899 net.cpp:194] Memory required for data: 81551480
I0825 11:11:35.165251  1899 layer_factory.hpp:77] Creating layer Scale32
I0825 11:11:35.165259  1899 net.cpp:128] Creating Layer Scale32
I0825 11:11:35.165264  1899 net.cpp:558] Scale32 <- Convolution32
I0825 11:11:35.165271  1899 net.cpp:509] Scale32 -> Convolution32 (in-place)
I0825 11:11:35.165329  1899 layer_factory.hpp:77] Creating layer Scale32
I0825 11:11:35.165522  1899 net.cpp:172] Setting up Scale32
I0825 11:11:35.165534  1899 net.cpp:186] Top shape: 10 64 8 8 (40960)
I0825 11:11:35.165539  1899 net.cpp:194] Memory required for data: 81715320
I0825 11:11:35.165545  1899 layer_factory.hpp:77] Creating layer ReLU30
I0825 11:11:35.165555  1899 net.cpp:128] Creating Layer ReLU30
I0825 11:11:35.165560  1899 net.cpp:558] ReLU30 <- Convolution32
I0825 11:11:35.165565  1899 net.cpp:509] ReLU30 -> Convolution32 (in-place)
I0825 11:11:35.168334  1899 net.cpp:172] Setting up ReLU30
I0825 11:11:35.168354  1899 net.cpp:186] Top shape: 10 64 8 8 (40960)
I0825 11:11:35.168359  1899 net.cpp:194] Memory required for data: 81879160
I0825 11:11:35.168362  1899 layer_factory.hpp:77] Creating layer Convolution33
I0825 11:11:35.168380  1899 net.cpp:128] Creating Layer Convolution33
I0825 11:11:35.168386  1899 net.cpp:558] Convolution33 <- Convolution32
I0825 11:11:35.168395  1899 net.cpp:522] Convolution33 -> Convolution33
I0825 11:11:35.175225  1899 net.cpp:172] Setting up Convolution33
I0825 11:11:35.175251  1899 net.cpp:186] Top shape: 10 64 8 8 (40960)
I0825 11:11:35.175256  1899 net.cpp:194] Memory required for data: 82043000
I0825 11:11:35.175266  1899 layer_factory.hpp:77] Creating layer BatchNorm33
I0825 11:11:35.175277  1899 net.cpp:128] Creating Layer BatchNorm33
I0825 11:11:35.175283  1899 net.cpp:558] BatchNorm33 <- Convolution33
I0825 11:11:35.175292  1899 net.cpp:509] BatchNorm33 -> Convolution33 (in-place)
I0825 11:11:35.175653  1899 net.cpp:172] Setting up BatchNorm33
I0825 11:11:35.175665  1899 net.cpp:186] Top shape: 10 64 8 8 (40960)
I0825 11:11:35.175669  1899 net.cpp:194] Memory required for data: 82206840
I0825 11:11:35.175679  1899 layer_factory.hpp:77] Creating layer Scale33
I0825 11:11:35.175686  1899 net.cpp:128] Creating Layer Scale33
I0825 11:11:35.175691  1899 net.cpp:558] Scale33 <- Convolution33
I0825 11:11:35.175698  1899 net.cpp:509] Scale33 -> Convolution33 (in-place)
I0825 11:11:35.175757  1899 layer_factory.hpp:77] Creating layer Scale33
I0825 11:11:35.175953  1899 net.cpp:172] Setting up Scale33
I0825 11:11:35.175964  1899 net.cpp:186] Top shape: 10 64 8 8 (40960)
I0825 11:11:35.175969  1899 net.cpp:194] Memory required for data: 82370680
I0825 11:11:35.175977  1899 layer_factory.hpp:77] Creating layer Eltwise15
I0825 11:11:35.175987  1899 net.cpp:128] Creating Layer Eltwise15
I0825 11:11:35.175992  1899 net.cpp:558] Eltwise15 <- Convolution31
I0825 11:11:35.175997  1899 net.cpp:558] Eltwise15 <- Convolution33
I0825 11:11:35.176003  1899 net.cpp:522] Eltwise15 -> Eltwise15
I0825 11:11:35.176038  1899 net.cpp:172] Setting up Eltwise15
I0825 11:11:35.176048  1899 net.cpp:186] Top shape: 10 64 8 8 (40960)
I0825 11:11:35.176053  1899 net.cpp:194] Memory required for data: 82534520
I0825 11:11:35.176057  1899 layer_factory.hpp:77] Creating layer ReLU31
I0825 11:11:35.176064  1899 net.cpp:128] Creating Layer ReLU31
I0825 11:11:35.176067  1899 net.cpp:558] ReLU31 <- Eltwise15
I0825 11:11:35.176074  1899 net.cpp:509] ReLU31 -> Eltwise15 (in-place)
I0825 11:11:35.177266  1899 net.cpp:172] Setting up ReLU31
I0825 11:11:35.177290  1899 net.cpp:186] Top shape: 10 64 8 8 (40960)
I0825 11:11:35.177296  1899 net.cpp:194] Memory required for data: 82698360
I0825 11:11:35.177301  1899 layer_factory.hpp:77] Creating layer Eltwise15_ReLU31_0_split
I0825 11:11:35.177310  1899 net.cpp:128] Creating Layer Eltwise15_ReLU31_0_split
I0825 11:11:35.177315  1899 net.cpp:558] Eltwise15_ReLU31_0_split <- Eltwise15
I0825 11:11:35.177328  1899 net.cpp:522] Eltwise15_ReLU31_0_split -> Eltwise15_ReLU31_0_split_0
I0825 11:11:35.177338  1899 net.cpp:522] Eltwise15_ReLU31_0_split -> Eltwise15_ReLU31_0_split_1
I0825 11:11:35.177410  1899 net.cpp:172] Setting up Eltwise15_ReLU31_0_split
I0825 11:11:35.177423  1899 net.cpp:186] Top shape: 10 64 8 8 (40960)
I0825 11:11:35.177428  1899 net.cpp:186] Top shape: 10 64 8 8 (40960)
I0825 11:11:35.177433  1899 net.cpp:194] Memory required for data: 83026040
I0825 11:11:35.177436  1899 layer_factory.hpp:77] Creating layer Convolution34
I0825 11:11:35.177449  1899 net.cpp:128] Creating Layer Convolution34
I0825 11:11:35.177454  1899 net.cpp:558] Convolution34 <- Eltwise15_ReLU31_0_split_0
I0825 11:11:35.177464  1899 net.cpp:522] Convolution34 -> Convolution34
I0825 11:11:35.185354  1899 net.cpp:172] Setting up Convolution34
I0825 11:11:35.185381  1899 net.cpp:186] Top shape: 10 64 8 8 (40960)
I0825 11:11:35.185385  1899 net.cpp:194] Memory required for data: 83189880
I0825 11:11:35.185396  1899 layer_factory.hpp:77] Creating layer BatchNorm34
I0825 11:11:35.185406  1899 net.cpp:128] Creating Layer BatchNorm34
I0825 11:11:35.185416  1899 net.cpp:558] BatchNorm34 <- Convolution34
I0825 11:11:35.185423  1899 net.cpp:509] BatchNorm34 -> Convolution34 (in-place)
I0825 11:11:35.185775  1899 net.cpp:172] Setting up BatchNorm34
I0825 11:11:35.185786  1899 net.cpp:186] Top shape: 10 64 8 8 (40960)
I0825 11:11:35.185791  1899 net.cpp:194] Memory required for data: 83353720
I0825 11:11:35.185801  1899 layer_factory.hpp:77] Creating layer Scale34
I0825 11:11:35.185811  1899 net.cpp:128] Creating Layer Scale34
I0825 11:11:35.185818  1899 net.cpp:558] Scale34 <- Convolution34
I0825 11:11:35.185823  1899 net.cpp:509] Scale34 -> Convolution34 (in-place)
I0825 11:11:35.185883  1899 layer_factory.hpp:77] Creating layer Scale34
I0825 11:11:35.186079  1899 net.cpp:172] Setting up Scale34
I0825 11:11:35.186089  1899 net.cpp:186] Top shape: 10 64 8 8 (40960)
I0825 11:11:35.186094  1899 net.cpp:194] Memory required for data: 83517560
I0825 11:11:35.186120  1899 layer_factory.hpp:77] Creating layer ReLU32
I0825 11:11:35.186127  1899 net.cpp:128] Creating Layer ReLU32
I0825 11:11:35.186132  1899 net.cpp:558] ReLU32 <- Convolution34
I0825 11:11:35.186141  1899 net.cpp:509] ReLU32 -> Convolution34 (in-place)
I0825 11:11:35.189257  1899 net.cpp:172] Setting up ReLU32
I0825 11:11:35.189277  1899 net.cpp:186] Top shape: 10 64 8 8 (40960)
I0825 11:11:35.189281  1899 net.cpp:194] Memory required for data: 83681400
I0825 11:11:35.189286  1899 layer_factory.hpp:77] Creating layer Convolution35
I0825 11:11:35.189301  1899 net.cpp:128] Creating Layer Convolution35
I0825 11:11:35.189307  1899 net.cpp:558] Convolution35 <- Convolution34
I0825 11:11:35.189324  1899 net.cpp:522] Convolution35 -> Convolution35
I0825 11:11:35.198369  1899 net.cpp:172] Setting up Convolution35
I0825 11:11:35.198397  1899 net.cpp:186] Top shape: 10 64 8 8 (40960)
I0825 11:11:35.198402  1899 net.cpp:194] Memory required for data: 83845240
I0825 11:11:35.198413  1899 layer_factory.hpp:77] Creating layer BatchNorm35
I0825 11:11:35.198424  1899 net.cpp:128] Creating Layer BatchNorm35
I0825 11:11:35.198429  1899 net.cpp:558] BatchNorm35 <- Convolution35
I0825 11:11:35.198443  1899 net.cpp:509] BatchNorm35 -> Convolution35 (in-place)
I0825 11:11:35.198794  1899 net.cpp:172] Setting up BatchNorm35
I0825 11:11:35.198806  1899 net.cpp:186] Top shape: 10 64 8 8 (40960)
I0825 11:11:35.198809  1899 net.cpp:194] Memory required for data: 84009080
I0825 11:11:35.198819  1899 layer_factory.hpp:77] Creating layer Scale35
I0825 11:11:35.198833  1899 net.cpp:128] Creating Layer Scale35
I0825 11:11:35.198838  1899 net.cpp:558] Scale35 <- Convolution35
I0825 11:11:35.198843  1899 net.cpp:509] Scale35 -> Convolution35 (in-place)
I0825 11:11:35.198909  1899 layer_factory.hpp:77] Creating layer Scale35
I0825 11:11:35.199105  1899 net.cpp:172] Setting up Scale35
I0825 11:11:35.199115  1899 net.cpp:186] Top shape: 10 64 8 8 (40960)
I0825 11:11:35.199118  1899 net.cpp:194] Memory required for data: 84172920
I0825 11:11:35.199126  1899 layer_factory.hpp:77] Creating layer Eltwise16
I0825 11:11:35.199141  1899 net.cpp:128] Creating Layer Eltwise16
I0825 11:11:35.199147  1899 net.cpp:558] Eltwise16 <- Eltwise15_ReLU31_0_split_1
I0825 11:11:35.199152  1899 net.cpp:558] Eltwise16 <- Convolution35
I0825 11:11:35.199158  1899 net.cpp:522] Eltwise16 -> Eltwise16
I0825 11:11:35.199193  1899 net.cpp:172] Setting up Eltwise16
I0825 11:11:35.199203  1899 net.cpp:186] Top shape: 10 64 8 8 (40960)
I0825 11:11:35.199208  1899 net.cpp:194] Memory required for data: 84336760
I0825 11:11:35.199211  1899 layer_factory.hpp:77] Creating layer ReLU33
I0825 11:11:35.199218  1899 net.cpp:128] Creating Layer ReLU33
I0825 11:11:35.199231  1899 net.cpp:558] ReLU33 <- Eltwise16
I0825 11:11:35.199237  1899 net.cpp:509] ReLU33 -> Eltwise16 (in-place)
I0825 11:11:35.200667  1899 net.cpp:172] Setting up ReLU33
I0825 11:11:35.200692  1899 net.cpp:186] Top shape: 10 64 8 8 (40960)
I0825 11:11:35.200696  1899 net.cpp:194] Memory required for data: 84500600
I0825 11:11:35.200701  1899 layer_factory.hpp:77] Creating layer Eltwise16_ReLU33_0_split
I0825 11:11:35.200713  1899 net.cpp:128] Creating Layer Eltwise16_ReLU33_0_split
I0825 11:11:35.200718  1899 net.cpp:558] Eltwise16_ReLU33_0_split <- Eltwise16
I0825 11:11:35.200726  1899 net.cpp:522] Eltwise16_ReLU33_0_split -> Eltwise16_ReLU33_0_split_0
I0825 11:11:35.200737  1899 net.cpp:522] Eltwise16_ReLU33_0_split -> Eltwise16_ReLU33_0_split_1
I0825 11:11:35.200811  1899 net.cpp:172] Setting up Eltwise16_ReLU33_0_split
I0825 11:11:35.200822  1899 net.cpp:186] Top shape: 10 64 8 8 (40960)
I0825 11:11:35.200829  1899 net.cpp:186] Top shape: 10 64 8 8 (40960)
I0825 11:11:35.200832  1899 net.cpp:194] Memory required for data: 84828280
I0825 11:11:35.200836  1899 layer_factory.hpp:77] Creating layer Convolution36
I0825 11:11:35.200850  1899 net.cpp:128] Creating Layer Convolution36
I0825 11:11:35.200857  1899 net.cpp:558] Convolution36 <- Eltwise16_ReLU33_0_split_0
I0825 11:11:35.200882  1899 net.cpp:522] Convolution36 -> Convolution36
I0825 11:11:35.207500  1899 net.cpp:172] Setting up Convolution36
I0825 11:11:35.207522  1899 net.cpp:186] Top shape: 10 64 8 8 (40960)
I0825 11:11:35.207527  1899 net.cpp:194] Memory required for data: 84992120
I0825 11:11:35.207537  1899 layer_factory.hpp:77] Creating layer BatchNorm36
I0825 11:11:35.207547  1899 net.cpp:128] Creating Layer BatchNorm36
I0825 11:11:35.207553  1899 net.cpp:558] BatchNorm36 <- Convolution36
I0825 11:11:35.207562  1899 net.cpp:509] BatchNorm36 -> Convolution36 (in-place)
I0825 11:11:35.207922  1899 net.cpp:172] Setting up BatchNorm36
I0825 11:11:35.207929  1899 net.cpp:186] Top shape: 10 64 8 8 (40960)
I0825 11:11:35.207933  1899 net.cpp:194] Memory required for data: 85155960
I0825 11:11:35.207943  1899 layer_factory.hpp:77] Creating layer Scale36
I0825 11:11:35.207952  1899 net.cpp:128] Creating Layer Scale36
I0825 11:11:35.207957  1899 net.cpp:558] Scale36 <- Convolution36
I0825 11:11:35.207962  1899 net.cpp:509] Scale36 -> Convolution36 (in-place)
I0825 11:11:35.208024  1899 layer_factory.hpp:77] Creating layer Scale36
I0825 11:11:35.208220  1899 net.cpp:172] Setting up Scale36
I0825 11:11:35.208226  1899 net.cpp:186] Top shape: 10 64 8 8 (40960)
I0825 11:11:35.208230  1899 net.cpp:194] Memory required for data: 85319800
I0825 11:11:35.208238  1899 layer_factory.hpp:77] Creating layer ReLU34
I0825 11:11:35.208246  1899 net.cpp:128] Creating Layer ReLU34
I0825 11:11:35.208251  1899 net.cpp:558] ReLU34 <- Convolution36
I0825 11:11:35.208256  1899 net.cpp:509] ReLU34 -> Convolution36 (in-place)
I0825 11:11:35.209323  1899 net.cpp:172] Setting up ReLU34
I0825 11:11:35.209334  1899 net.cpp:186] Top shape: 10 64 8 8 (40960)
I0825 11:11:35.209338  1899 net.cpp:194] Memory required for data: 85483640
I0825 11:11:35.209343  1899 layer_factory.hpp:77] Creating layer Convolution37
I0825 11:11:35.209355  1899 net.cpp:128] Creating Layer Convolution37
I0825 11:11:35.209360  1899 net.cpp:558] Convolution37 <- Convolution36
I0825 11:11:35.209369  1899 net.cpp:522] Convolution37 -> Convolution37
I0825 11:11:35.220369  1899 net.cpp:172] Setting up Convolution37
I0825 11:11:35.220396  1899 net.cpp:186] Top shape: 10 64 8 8 (40960)
I0825 11:11:35.220401  1899 net.cpp:194] Memory required for data: 85647480
I0825 11:11:35.220410  1899 layer_factory.hpp:77] Creating layer BatchNorm37
I0825 11:11:35.220420  1899 net.cpp:128] Creating Layer BatchNorm37
I0825 11:11:35.220427  1899 net.cpp:558] BatchNorm37 <- Convolution37
I0825 11:11:35.220432  1899 net.cpp:509] BatchNorm37 -> Convolution37 (in-place)
I0825 11:11:35.220789  1899 net.cpp:172] Setting up BatchNorm37
I0825 11:11:35.220800  1899 net.cpp:186] Top shape: 10 64 8 8 (40960)
I0825 11:11:35.220806  1899 net.cpp:194] Memory required for data: 85811320
I0825 11:11:35.220840  1899 layer_factory.hpp:77] Creating layer Scale37
I0825 11:11:35.220849  1899 net.cpp:128] Creating Layer Scale37
I0825 11:11:35.220854  1899 net.cpp:558] Scale37 <- Convolution37
I0825 11:11:35.220860  1899 net.cpp:509] Scale37 -> Convolution37 (in-place)
I0825 11:11:35.220922  1899 layer_factory.hpp:77] Creating layer Scale37
I0825 11:11:35.221122  1899 net.cpp:172] Setting up Scale37
I0825 11:11:35.221133  1899 net.cpp:186] Top shape: 10 64 8 8 (40960)
I0825 11:11:35.221138  1899 net.cpp:194] Memory required for data: 85975160
I0825 11:11:35.221146  1899 layer_factory.hpp:77] Creating layer Eltwise17
I0825 11:11:35.221153  1899 net.cpp:128] Creating Layer Eltwise17
I0825 11:11:35.221158  1899 net.cpp:558] Eltwise17 <- Eltwise16_ReLU33_0_split_1
I0825 11:11:35.221163  1899 net.cpp:558] Eltwise17 <- Convolution37
I0825 11:11:35.221173  1899 net.cpp:522] Eltwise17 -> Eltwise17
I0825 11:11:35.221209  1899 net.cpp:172] Setting up Eltwise17
I0825 11:11:35.221215  1899 net.cpp:186] Top shape: 10 64 8 8 (40960)
I0825 11:11:35.221220  1899 net.cpp:194] Memory required for data: 86139000
I0825 11:11:35.221223  1899 layer_factory.hpp:77] Creating layer ReLU35
I0825 11:11:35.221230  1899 net.cpp:128] Creating Layer ReLU35
I0825 11:11:35.221251  1899 net.cpp:558] ReLU35 <- Eltwise17
I0825 11:11:35.221257  1899 net.cpp:509] ReLU35 -> Eltwise17 (in-place)
I0825 11:11:35.224041  1899 net.cpp:172] Setting up ReLU35
I0825 11:11:35.224066  1899 net.cpp:186] Top shape: 10 64 8 8 (40960)
I0825 11:11:35.224071  1899 net.cpp:194] Memory required for data: 86302840
I0825 11:11:35.224076  1899 layer_factory.hpp:77] Creating layer Eltwise17_ReLU35_0_split
I0825 11:11:35.224089  1899 net.cpp:128] Creating Layer Eltwise17_ReLU35_0_split
I0825 11:11:35.224094  1899 net.cpp:558] Eltwise17_ReLU35_0_split <- Eltwise17
I0825 11:11:35.224103  1899 net.cpp:522] Eltwise17_ReLU35_0_split -> Eltwise17_ReLU35_0_split_0
I0825 11:11:35.224113  1899 net.cpp:522] Eltwise17_ReLU35_0_split -> Eltwise17_ReLU35_0_split_1
I0825 11:11:35.224181  1899 net.cpp:172] Setting up Eltwise17_ReLU35_0_split
I0825 11:11:35.224190  1899 net.cpp:186] Top shape: 10 64 8 8 (40960)
I0825 11:11:35.224196  1899 net.cpp:186] Top shape: 10 64 8 8 (40960)
I0825 11:11:35.224200  1899 net.cpp:194] Memory required for data: 86630520
I0825 11:11:35.224205  1899 layer_factory.hpp:77] Creating layer Convolution38
I0825 11:11:35.224218  1899 net.cpp:128] Creating Layer Convolution38
I0825 11:11:35.224223  1899 net.cpp:558] Convolution38 <- Eltwise17_ReLU35_0_split_0
I0825 11:11:35.224234  1899 net.cpp:522] Convolution38 -> Convolution38
I0825 11:11:35.231194  1899 net.cpp:172] Setting up Convolution38
I0825 11:11:35.231222  1899 net.cpp:186] Top shape: 10 64 8 8 (40960)
I0825 11:11:35.231227  1899 net.cpp:194] Memory required for data: 86794360
I0825 11:11:35.231237  1899 layer_factory.hpp:77] Creating layer BatchNorm38
I0825 11:11:35.231246  1899 net.cpp:128] Creating Layer BatchNorm38
I0825 11:11:35.231251  1899 net.cpp:558] BatchNorm38 <- Convolution38
I0825 11:11:35.231261  1899 net.cpp:509] BatchNorm38 -> Convolution38 (in-place)
I0825 11:11:35.231626  1899 net.cpp:172] Setting up BatchNorm38
I0825 11:11:35.231637  1899 net.cpp:186] Top shape: 10 64 8 8 (40960)
I0825 11:11:35.231642  1899 net.cpp:194] Memory required for data: 86958200
I0825 11:11:35.231652  1899 layer_factory.hpp:77] Creating layer Scale38
I0825 11:11:35.231659  1899 net.cpp:128] Creating Layer Scale38
I0825 11:11:35.231664  1899 net.cpp:558] Scale38 <- Convolution38
I0825 11:11:35.231670  1899 net.cpp:509] Scale38 -> Convolution38 (in-place)
I0825 11:11:35.231734  1899 layer_factory.hpp:77] Creating layer Scale38
I0825 11:11:35.231935  1899 net.cpp:172] Setting up Scale38
I0825 11:11:35.231950  1899 net.cpp:186] Top shape: 10 64 8 8 (40960)
I0825 11:11:35.231953  1899 net.cpp:194] Memory required for data: 87122040
I0825 11:11:35.231961  1899 layer_factory.hpp:77] Creating layer ReLU36
I0825 11:11:35.231968  1899 net.cpp:128] Creating Layer ReLU36
I0825 11:11:35.231973  1899 net.cpp:558] ReLU36 <- Convolution38
I0825 11:11:35.231978  1899 net.cpp:509] ReLU36 -> Convolution38 (in-place)
I0825 11:11:35.232987  1899 net.cpp:172] Setting up ReLU36
I0825 11:11:35.233008  1899 net.cpp:186] Top shape: 10 64 8 8 (40960)
I0825 11:11:35.233012  1899 net.cpp:194] Memory required for data: 87285880
I0825 11:11:35.233017  1899 layer_factory.hpp:77] Creating layer Convolution39
I0825 11:11:35.233031  1899 net.cpp:128] Creating Layer Convolution39
I0825 11:11:35.233036  1899 net.cpp:558] Convolution39 <- Convolution38
I0825 11:11:35.233043  1899 net.cpp:522] Convolution39 -> Convolution39
I0825 11:11:35.239784  1899 net.cpp:172] Setting up Convolution39
I0825 11:11:35.239811  1899 net.cpp:186] Top shape: 10 64 8 8 (40960)
I0825 11:11:35.239816  1899 net.cpp:194] Memory required for data: 87449720
I0825 11:11:35.239827  1899 layer_factory.hpp:77] Creating layer BatchNorm39
I0825 11:11:35.239840  1899 net.cpp:128] Creating Layer BatchNorm39
I0825 11:11:35.239848  1899 net.cpp:558] BatchNorm39 <- Convolution39
I0825 11:11:35.239857  1899 net.cpp:509] BatchNorm39 -> Convolution39 (in-place)
I0825 11:11:35.240216  1899 net.cpp:172] Setting up BatchNorm39
I0825 11:11:35.240227  1899 net.cpp:186] Top shape: 10 64 8 8 (40960)
I0825 11:11:35.240231  1899 net.cpp:194] Memory required for data: 87613560
I0825 11:11:35.240260  1899 layer_factory.hpp:77] Creating layer Scale39
I0825 11:11:35.240272  1899 net.cpp:128] Creating Layer Scale39
I0825 11:11:35.240276  1899 net.cpp:558] Scale39 <- Convolution39
I0825 11:11:35.240284  1899 net.cpp:509] Scale39 -> Convolution39 (in-place)
I0825 11:11:35.240350  1899 layer_factory.hpp:77] Creating layer Scale39
I0825 11:11:35.240553  1899 net.cpp:172] Setting up Scale39
I0825 11:11:35.240563  1899 net.cpp:186] Top shape: 10 64 8 8 (40960)
I0825 11:11:35.240567  1899 net.cpp:194] Memory required for data: 87777400
I0825 11:11:35.240576  1899 layer_factory.hpp:77] Creating layer Eltwise18
I0825 11:11:35.240586  1899 net.cpp:128] Creating Layer Eltwise18
I0825 11:11:35.240592  1899 net.cpp:558] Eltwise18 <- Eltwise17_ReLU35_0_split_1
I0825 11:11:35.240597  1899 net.cpp:558] Eltwise18 <- Convolution39
I0825 11:11:35.240607  1899 net.cpp:522] Eltwise18 -> Eltwise18
I0825 11:11:35.240645  1899 net.cpp:172] Setting up Eltwise18
I0825 11:11:35.240658  1899 net.cpp:186] Top shape: 10 64 8 8 (40960)
I0825 11:11:35.240661  1899 net.cpp:194] Memory required for data: 87941240
I0825 11:11:35.240665  1899 layer_factory.hpp:77] Creating layer ReLU37
I0825 11:11:35.240671  1899 net.cpp:128] Creating Layer ReLU37
I0825 11:11:35.240679  1899 net.cpp:558] ReLU37 <- Eltwise18
I0825 11:11:35.240689  1899 net.cpp:509] ReLU37 -> Eltwise18 (in-place)
I0825 11:11:35.243960  1899 net.cpp:172] Setting up ReLU37
I0825 11:11:35.243979  1899 net.cpp:186] Top shape: 10 64 8 8 (40960)
I0825 11:11:35.243983  1899 net.cpp:194] Memory required for data: 88105080
I0825 11:11:35.243988  1899 layer_factory.hpp:77] Creating layer Eltwise18_ReLU37_0_split
I0825 11:11:35.243995  1899 net.cpp:128] Creating Layer Eltwise18_ReLU37_0_split
I0825 11:11:35.244000  1899 net.cpp:558] Eltwise18_ReLU37_0_split <- Eltwise18
I0825 11:11:35.244009  1899 net.cpp:522] Eltwise18_ReLU37_0_split -> Eltwise18_ReLU37_0_split_0
I0825 11:11:35.244021  1899 net.cpp:522] Eltwise18_ReLU37_0_split -> Eltwise18_ReLU37_0_split_1
I0825 11:11:35.244091  1899 net.cpp:172] Setting up Eltwise18_ReLU37_0_split
I0825 11:11:35.244101  1899 net.cpp:186] Top shape: 10 64 8 8 (40960)
I0825 11:11:35.244107  1899 net.cpp:186] Top shape: 10 64 8 8 (40960)
I0825 11:11:35.244112  1899 net.cpp:194] Memory required for data: 88432760
I0825 11:11:35.244117  1899 layer_factory.hpp:77] Creating layer Convolution40
I0825 11:11:35.244129  1899 net.cpp:128] Creating Layer Convolution40
I0825 11:11:35.244134  1899 net.cpp:558] Convolution40 <- Eltwise18_ReLU37_0_split_0
I0825 11:11:35.244144  1899 net.cpp:522] Convolution40 -> Convolution40
I0825 11:11:35.251899  1899 net.cpp:172] Setting up Convolution40
I0825 11:11:35.251922  1899 net.cpp:186] Top shape: 10 64 8 8 (40960)
I0825 11:11:35.251927  1899 net.cpp:194] Memory required for data: 88596600
I0825 11:11:35.251938  1899 layer_factory.hpp:77] Creating layer BatchNorm40
I0825 11:11:35.251950  1899 net.cpp:128] Creating Layer BatchNorm40
I0825 11:11:35.251960  1899 net.cpp:558] BatchNorm40 <- Convolution40
I0825 11:11:35.251967  1899 net.cpp:509] BatchNorm40 -> Convolution40 (in-place)
I0825 11:11:35.252336  1899 net.cpp:172] Setting up BatchNorm40
I0825 11:11:35.252347  1899 net.cpp:186] Top shape: 10 64 8 8 (40960)
I0825 11:11:35.252351  1899 net.cpp:194] Memory required for data: 88760440
I0825 11:11:35.252362  1899 layer_factory.hpp:77] Creating layer Scale40
I0825 11:11:35.252372  1899 net.cpp:128] Creating Layer Scale40
I0825 11:11:35.252375  1899 net.cpp:558] Scale40 <- Convolution40
I0825 11:11:35.252382  1899 net.cpp:509] Scale40 -> Convolution40 (in-place)
I0825 11:11:35.252449  1899 layer_factory.hpp:77] Creating layer Scale40
I0825 11:11:35.252653  1899 net.cpp:172] Setting up Scale40
I0825 11:11:35.252663  1899 net.cpp:186] Top shape: 10 64 8 8 (40960)
I0825 11:11:35.252667  1899 net.cpp:194] Memory required for data: 88924280
I0825 11:11:35.252676  1899 layer_factory.hpp:77] Creating layer ReLU38
I0825 11:11:35.252687  1899 net.cpp:128] Creating Layer ReLU38
I0825 11:11:35.252707  1899 net.cpp:558] ReLU38 <- Convolution40
I0825 11:11:35.252717  1899 net.cpp:509] ReLU38 -> Convolution40 (in-place)
I0825 11:11:35.253679  1899 net.cpp:172] Setting up ReLU38
I0825 11:11:35.253706  1899 net.cpp:186] Top shape: 10 64 8 8 (40960)
I0825 11:11:35.253711  1899 net.cpp:194] Memory required for data: 89088120
I0825 11:11:35.253717  1899 layer_factory.hpp:77] Creating layer Convolution41
I0825 11:11:35.253731  1899 net.cpp:128] Creating Layer Convolution41
I0825 11:11:35.253741  1899 net.cpp:558] Convolution41 <- Convolution40
I0825 11:11:35.253751  1899 net.cpp:522] Convolution41 -> Convolution41
I0825 11:11:35.260534  1899 net.cpp:172] Setting up Convolution41
I0825 11:11:35.260561  1899 net.cpp:186] Top shape: 10 64 8 8 (40960)
I0825 11:11:35.260566  1899 net.cpp:194] Memory required for data: 89251960
I0825 11:11:35.260577  1899 layer_factory.hpp:77] Creating layer BatchNorm41
I0825 11:11:35.260586  1899 net.cpp:128] Creating Layer BatchNorm41
I0825 11:11:35.260591  1899 net.cpp:558] BatchNorm41 <- Convolution41
I0825 11:11:35.260599  1899 net.cpp:509] BatchNorm41 -> Convolution41 (in-place)
I0825 11:11:35.260965  1899 net.cpp:172] Setting up BatchNorm41
I0825 11:11:35.260975  1899 net.cpp:186] Top shape: 10 64 8 8 (40960)
I0825 11:11:35.260979  1899 net.cpp:194] Memory required for data: 89415800
I0825 11:11:35.260989  1899 layer_factory.hpp:77] Creating layer Scale41
I0825 11:11:35.260999  1899 net.cpp:128] Creating Layer Scale41
I0825 11:11:35.261003  1899 net.cpp:558] Scale41 <- Convolution41
I0825 11:11:35.261011  1899 net.cpp:509] Scale41 -> Convolution41 (in-place)
I0825 11:11:35.261077  1899 layer_factory.hpp:77] Creating layer Scale41
I0825 11:11:35.261279  1899 net.cpp:172] Setting up Scale41
I0825 11:11:35.261289  1899 net.cpp:186] Top shape: 10 64 8 8 (40960)
I0825 11:11:35.261294  1899 net.cpp:194] Memory required for data: 89579640
I0825 11:11:35.261302  1899 layer_factory.hpp:77] Creating layer Eltwise19
I0825 11:11:35.261317  1899 net.cpp:128] Creating Layer Eltwise19
I0825 11:11:35.261324  1899 net.cpp:558] Eltwise19 <- Eltwise18_ReLU37_0_split_1
I0825 11:11:35.261330  1899 net.cpp:558] Eltwise19 <- Convolution41
I0825 11:11:35.261337  1899 net.cpp:522] Eltwise19 -> Eltwise19
I0825 11:11:35.261374  1899 net.cpp:172] Setting up Eltwise19
I0825 11:11:35.261384  1899 net.cpp:186] Top shape: 10 64 8 8 (40960)
I0825 11:11:35.261389  1899 net.cpp:194] Memory required for data: 89743480
I0825 11:11:35.261392  1899 layer_factory.hpp:77] Creating layer ReLU39
I0825 11:11:35.261399  1899 net.cpp:128] Creating Layer ReLU39
I0825 11:11:35.261406  1899 net.cpp:558] ReLU39 <- Eltwise19
I0825 11:11:35.261415  1899 net.cpp:509] ReLU39 -> Eltwise19 (in-place)
I0825 11:11:35.262600  1899 net.cpp:172] Setting up ReLU39
I0825 11:11:35.262616  1899 net.cpp:186] Top shape: 10 64 8 8 (40960)
I0825 11:11:35.262621  1899 net.cpp:194] Memory required for data: 89907320
I0825 11:11:35.262626  1899 layer_factory.hpp:77] Creating layer Eltwise19_ReLU39_0_split
I0825 11:11:35.262634  1899 net.cpp:128] Creating Layer Eltwise19_ReLU39_0_split
I0825 11:11:35.262639  1899 net.cpp:558] Eltwise19_ReLU39_0_split <- Eltwise19
I0825 11:11:35.262647  1899 net.cpp:522] Eltwise19_ReLU39_0_split -> Eltwise19_ReLU39_0_split_0
I0825 11:11:35.262660  1899 net.cpp:522] Eltwise19_ReLU39_0_split -> Eltwise19_ReLU39_0_split_1
I0825 11:11:35.262728  1899 net.cpp:172] Setting up Eltwise19_ReLU39_0_split
I0825 11:11:35.262739  1899 net.cpp:186] Top shape: 10 64 8 8 (40960)
I0825 11:11:35.262745  1899 net.cpp:186] Top shape: 10 64 8 8 (40960)
I0825 11:11:35.262749  1899 net.cpp:194] Memory required for data: 90235000
I0825 11:11:35.262753  1899 layer_factory.hpp:77] Creating layer Convolution42
I0825 11:11:35.262765  1899 net.cpp:128] Creating Layer Convolution42
I0825 11:11:35.262774  1899 net.cpp:558] Convolution42 <- Eltwise19_ReLU39_0_split_0
I0825 11:11:35.262785  1899 net.cpp:522] Convolution42 -> Convolution42
I0825 11:11:35.267582  1899 net.cpp:172] Setting up Convolution42
I0825 11:11:35.267606  1899 net.cpp:186] Top shape: 10 64 8 8 (40960)
I0825 11:11:35.267627  1899 net.cpp:194] Memory required for data: 90398840
I0825 11:11:35.267638  1899 layer_factory.hpp:77] Creating layer BatchNorm42
I0825 11:11:35.267652  1899 net.cpp:128] Creating Layer BatchNorm42
I0825 11:11:35.267659  1899 net.cpp:558] BatchNorm42 <- Convolution42
I0825 11:11:35.267668  1899 net.cpp:509] BatchNorm42 -> Convolution42 (in-place)
I0825 11:11:35.268038  1899 net.cpp:172] Setting up BatchNorm42
I0825 11:11:35.268049  1899 net.cpp:186] Top shape: 10 64 8 8 (40960)
I0825 11:11:35.268052  1899 net.cpp:194] Memory required for data: 90562680
I0825 11:11:35.268062  1899 layer_factory.hpp:77] Creating layer Scale42
I0825 11:11:35.268074  1899 net.cpp:128] Creating Layer Scale42
I0825 11:11:35.268081  1899 net.cpp:558] Scale42 <- Convolution42
I0825 11:11:35.268086  1899 net.cpp:509] Scale42 -> Convolution42 (in-place)
I0825 11:11:35.268149  1899 layer_factory.hpp:77] Creating layer Scale42
I0825 11:11:35.268352  1899 net.cpp:172] Setting up Scale42
I0825 11:11:35.268362  1899 net.cpp:186] Top shape: 10 64 8 8 (40960)
I0825 11:11:35.268368  1899 net.cpp:194] Memory required for data: 90726520
I0825 11:11:35.268375  1899 layer_factory.hpp:77] Creating layer ReLU40
I0825 11:11:35.268384  1899 net.cpp:128] Creating Layer ReLU40
I0825 11:11:35.268389  1899 net.cpp:558] ReLU40 <- Convolution42
I0825 11:11:35.268398  1899 net.cpp:509] ReLU40 -> Convolution42 (in-place)
I0825 11:11:35.268671  1899 net.cpp:172] Setting up ReLU40
I0825 11:11:35.268687  1899 net.cpp:186] Top shape: 10 64 8 8 (40960)
I0825 11:11:35.268692  1899 net.cpp:194] Memory required for data: 90890360
I0825 11:11:35.268699  1899 layer_factory.hpp:77] Creating layer Convolution43
I0825 11:11:35.268713  1899 net.cpp:128] Creating Layer Convolution43
I0825 11:11:35.268721  1899 net.cpp:558] Convolution43 <- Convolution42
I0825 11:11:35.268733  1899 net.cpp:522] Convolution43 -> Convolution43
I0825 11:11:35.278481  1899 net.cpp:172] Setting up Convolution43
I0825 11:11:35.278512  1899 net.cpp:186] Top shape: 10 64 8 8 (40960)
I0825 11:11:35.278517  1899 net.cpp:194] Memory required for data: 91054200
I0825 11:11:35.278529  1899 layer_factory.hpp:77] Creating layer BatchNorm43
I0825 11:11:35.278543  1899 net.cpp:128] Creating Layer BatchNorm43
I0825 11:11:35.278553  1899 net.cpp:558] BatchNorm43 <- Convolution43
I0825 11:11:35.278564  1899 net.cpp:509] BatchNorm43 -> Convolution43 (in-place)
I0825 11:11:35.278926  1899 net.cpp:172] Setting up BatchNorm43
I0825 11:11:35.278936  1899 net.cpp:186] Top shape: 10 64 8 8 (40960)
I0825 11:11:35.278941  1899 net.cpp:194] Memory required for data: 91218040
I0825 11:11:35.278954  1899 layer_factory.hpp:77] Creating layer Scale43
I0825 11:11:35.278964  1899 net.cpp:128] Creating Layer Scale43
I0825 11:11:35.278972  1899 net.cpp:558] Scale43 <- Convolution43
I0825 11:11:35.278978  1899 net.cpp:509] Scale43 -> Convolution43 (in-place)
I0825 11:11:35.279047  1899 layer_factory.hpp:77] Creating layer Scale43
I0825 11:11:35.279255  1899 net.cpp:172] Setting up Scale43
I0825 11:11:35.279264  1899 net.cpp:186] Top shape: 10 64 8 8 (40960)
I0825 11:11:35.279269  1899 net.cpp:194] Memory required for data: 91381880
I0825 11:11:35.279278  1899 layer_factory.hpp:77] Creating layer Eltwise20
I0825 11:11:35.279287  1899 net.cpp:128] Creating Layer Eltwise20
I0825 11:11:35.279294  1899 net.cpp:558] Eltwise20 <- Eltwise19_ReLU39_0_split_1
I0825 11:11:35.279299  1899 net.cpp:558] Eltwise20 <- Convolution43
I0825 11:11:35.279307  1899 net.cpp:522] Eltwise20 -> Eltwise20
I0825 11:11:35.279342  1899 net.cpp:172] Setting up Eltwise20
I0825 11:11:35.279352  1899 net.cpp:186] Top shape: 10 64 8 8 (40960)
I0825 11:11:35.279356  1899 net.cpp:194] Memory required for data: 91545720
I0825 11:11:35.279361  1899 layer_factory.hpp:77] Creating layer ReLU41
I0825 11:11:35.279369  1899 net.cpp:128] Creating Layer ReLU41
I0825 11:11:35.279377  1899 net.cpp:558] ReLU41 <- Eltwise20
I0825 11:11:35.279383  1899 net.cpp:509] ReLU41 -> Eltwise20 (in-place)
I0825 11:11:35.280519  1899 net.cpp:172] Setting up ReLU41
I0825 11:11:35.280565  1899 net.cpp:186] Top shape: 10 64 8 8 (40960)
I0825 11:11:35.280570  1899 net.cpp:194] Memory required for data: 91709560
I0825 11:11:35.280575  1899 layer_factory.hpp:77] Creating layer Eltwise20_ReLU41_0_split
I0825 11:11:35.280583  1899 net.cpp:128] Creating Layer Eltwise20_ReLU41_0_split
I0825 11:11:35.280591  1899 net.cpp:558] Eltwise20_ReLU41_0_split <- Eltwise20
I0825 11:11:35.280601  1899 net.cpp:522] Eltwise20_ReLU41_0_split -> Eltwise20_ReLU41_0_split_0
I0825 11:11:35.280611  1899 net.cpp:522] Eltwise20_ReLU41_0_split -> Eltwise20_ReLU41_0_split_1
I0825 11:11:35.280683  1899 net.cpp:172] Setting up Eltwise20_ReLU41_0_split
I0825 11:11:35.280694  1899 net.cpp:186] Top shape: 10 64 8 8 (40960)
I0825 11:11:35.280699  1899 net.cpp:186] Top shape: 10 64 8 8 (40960)
I0825 11:11:35.280706  1899 net.cpp:194] Memory required for data: 92037240
I0825 11:11:35.280711  1899 layer_factory.hpp:77] Creating layer Convolution44
I0825 11:11:35.280727  1899 net.cpp:128] Creating Layer Convolution44
I0825 11:11:35.280732  1899 net.cpp:558] Convolution44 <- Eltwise20_ReLU41_0_split_0
I0825 11:11:35.280743  1899 net.cpp:522] Convolution44 -> Convolution44
I0825 11:11:35.287602  1899 net.cpp:172] Setting up Convolution44
I0825 11:11:35.287631  1899 net.cpp:186] Top shape: 10 64 8 8 (40960)
I0825 11:11:35.287636  1899 net.cpp:194] Memory required for data: 92201080
I0825 11:11:35.287647  1899 layer_factory.hpp:77] Creating layer BatchNorm44
I0825 11:11:35.287654  1899 net.cpp:128] Creating Layer BatchNorm44
I0825 11:11:35.287660  1899 net.cpp:558] BatchNorm44 <- Convolution44
I0825 11:11:35.287670  1899 net.cpp:509] BatchNorm44 -> Convolution44 (in-place)
I0825 11:11:35.288043  1899 net.cpp:172] Setting up BatchNorm44
I0825 11:11:35.288053  1899 net.cpp:186] Top shape: 10 64 8 8 (40960)
I0825 11:11:35.288059  1899 net.cpp:194] Memory required for data: 92364920
I0825 11:11:35.288069  1899 layer_factory.hpp:77] Creating layer Scale44
I0825 11:11:35.288076  1899 net.cpp:128] Creating Layer Scale44
I0825 11:11:35.288081  1899 net.cpp:558] Scale44 <- Convolution44
I0825 11:11:35.288089  1899 net.cpp:509] Scale44 -> Convolution44 (in-place)
I0825 11:11:35.288152  1899 layer_factory.hpp:77] Creating layer Scale44
I0825 11:11:35.288358  1899 net.cpp:172] Setting up Scale44
I0825 11:11:35.288368  1899 net.cpp:186] Top shape: 10 64 8 8 (40960)
I0825 11:11:35.288374  1899 net.cpp:194] Memory required for data: 92528760
I0825 11:11:35.288383  1899 layer_factory.hpp:77] Creating layer ReLU42
I0825 11:11:35.288391  1899 net.cpp:128] Creating Layer ReLU42
I0825 11:11:35.288396  1899 net.cpp:558] ReLU42 <- Convolution44
I0825 11:11:35.288401  1899 net.cpp:509] ReLU42 -> Convolution44 (in-place)
I0825 11:11:35.289376  1899 net.cpp:172] Setting up ReLU42
I0825 11:11:35.289393  1899 net.cpp:186] Top shape: 10 64 8 8 (40960)
I0825 11:11:35.289398  1899 net.cpp:194] Memory required for data: 92692600
I0825 11:11:35.289402  1899 layer_factory.hpp:77] Creating layer Convolution45
I0825 11:11:35.289420  1899 net.cpp:128] Creating Layer Convolution45
I0825 11:11:35.289427  1899 net.cpp:558] Convolution45 <- Convolution44
I0825 11:11:35.289433  1899 net.cpp:522] Convolution45 -> Convolution45
I0825 11:11:35.296635  1899 net.cpp:172] Setting up Convolution45
I0825 11:11:35.296663  1899 net.cpp:186] Top shape: 10 64 8 8 (40960)
I0825 11:11:35.296667  1899 net.cpp:194] Memory required for data: 92856440
I0825 11:11:35.296677  1899 layer_factory.hpp:77] Creating layer BatchNorm45
I0825 11:11:35.296687  1899 net.cpp:128] Creating Layer BatchNorm45
I0825 11:11:35.296694  1899 net.cpp:558] BatchNorm45 <- Convolution45
I0825 11:11:35.296701  1899 net.cpp:509] BatchNorm45 -> Convolution45 (in-place)
I0825 11:11:35.297068  1899 net.cpp:172] Setting up BatchNorm45
I0825 11:11:35.297078  1899 net.cpp:186] Top shape: 10 64 8 8 (40960)
I0825 11:11:35.297083  1899 net.cpp:194] Memory required for data: 93020280
I0825 11:11:35.297093  1899 layer_factory.hpp:77] Creating layer Scale45
I0825 11:11:35.297106  1899 net.cpp:128] Creating Layer Scale45
I0825 11:11:35.297128  1899 net.cpp:558] Scale45 <- Convolution45
I0825 11:11:35.297135  1899 net.cpp:509] Scale45 -> Convolution45 (in-place)
I0825 11:11:35.297204  1899 layer_factory.hpp:77] Creating layer Scale45
I0825 11:11:35.297410  1899 net.cpp:172] Setting up Scale45
I0825 11:11:35.297420  1899 net.cpp:186] Top shape: 10 64 8 8 (40960)
I0825 11:11:35.297423  1899 net.cpp:194] Memory required for data: 93184120
I0825 11:11:35.297431  1899 layer_factory.hpp:77] Creating layer Eltwise21
I0825 11:11:35.297444  1899 net.cpp:128] Creating Layer Eltwise21
I0825 11:11:35.297449  1899 net.cpp:558] Eltwise21 <- Eltwise20_ReLU41_0_split_1
I0825 11:11:35.297456  1899 net.cpp:558] Eltwise21 <- Convolution45
I0825 11:11:35.297461  1899 net.cpp:522] Eltwise21 -> Eltwise21
I0825 11:11:35.297497  1899 net.cpp:172] Setting up Eltwise21
I0825 11:11:35.297508  1899 net.cpp:186] Top shape: 10 64 8 8 (40960)
I0825 11:11:35.297511  1899 net.cpp:194] Memory required for data: 93347960
I0825 11:11:35.297515  1899 layer_factory.hpp:77] Creating layer ReLU43
I0825 11:11:35.297521  1899 net.cpp:128] Creating Layer ReLU43
I0825 11:11:35.297526  1899 net.cpp:558] ReLU43 <- Eltwise21
I0825 11:11:35.297531  1899 net.cpp:509] ReLU43 -> Eltwise21 (in-place)
I0825 11:11:35.300807  1899 net.cpp:172] Setting up ReLU43
I0825 11:11:35.300827  1899 net.cpp:186] Top shape: 10 64 8 8 (40960)
I0825 11:11:35.300832  1899 net.cpp:194] Memory required for data: 93511800
I0825 11:11:35.300837  1899 layer_factory.hpp:77] Creating layer Pooling1
I0825 11:11:35.300845  1899 net.cpp:128] Creating Layer Pooling1
I0825 11:11:35.300849  1899 net.cpp:558] Pooling1 <- Eltwise21
I0825 11:11:35.300860  1899 net.cpp:522] Pooling1 -> Pooling1
I0825 11:11:35.305176  1899 net.cpp:172] Setting up Pooling1
I0825 11:11:35.305196  1899 net.cpp:186] Top shape: 10 64 1 1 (640)
I0825 11:11:35.305199  1899 net.cpp:194] Memory required for data: 93514360
I0825 11:11:35.305204  1899 layer_factory.hpp:77] Creating layer InnerProduct1
I0825 11:11:35.305217  1899 net.cpp:128] Creating Layer InnerProduct1
I0825 11:11:35.305222  1899 net.cpp:558] InnerProduct1 <- Pooling1
I0825 11:11:35.305229  1899 net.cpp:522] InnerProduct1 -> InnerProduct1
I0825 11:11:35.305444  1899 net.cpp:172] Setting up InnerProduct1
I0825 11:11:35.305456  1899 net.cpp:186] Top shape: 10 10 (100)
I0825 11:11:35.305460  1899 net.cpp:194] Memory required for data: 93514760
I0825 11:11:35.305470  1899 layer_factory.hpp:77] Creating layer InnerProduct1_InnerProduct1_0_split
I0825 11:11:35.305477  1899 net.cpp:128] Creating Layer InnerProduct1_InnerProduct1_0_split
I0825 11:11:35.305482  1899 net.cpp:558] InnerProduct1_InnerProduct1_0_split <- InnerProduct1
I0825 11:11:35.305490  1899 net.cpp:522] InnerProduct1_InnerProduct1_0_split -> InnerProduct1_InnerProduct1_0_split_0
I0825 11:11:35.305500  1899 net.cpp:522] InnerProduct1_InnerProduct1_0_split -> InnerProduct1_InnerProduct1_0_split_1
I0825 11:11:35.305560  1899 net.cpp:172] Setting up InnerProduct1_InnerProduct1_0_split
I0825 11:11:35.305570  1899 net.cpp:186] Top shape: 10 10 (100)
I0825 11:11:35.305577  1899 net.cpp:186] Top shape: 10 10 (100)
I0825 11:11:35.305579  1899 net.cpp:194] Memory required for data: 93515560
I0825 11:11:35.305584  1899 layer_factory.hpp:77] Creating layer SoftmaxWithLoss1
I0825 11:11:35.305591  1899 net.cpp:128] Creating Layer SoftmaxWithLoss1
I0825 11:11:35.305596  1899 net.cpp:558] SoftmaxWithLoss1 <- InnerProduct1_InnerProduct1_0_split_0
I0825 11:11:35.305603  1899 net.cpp:558] SoftmaxWithLoss1 <- Data2_Data1_1_split_0
…
