…
I0927 22:03:27.848706 26041 upgrade_proto.cpp:82] Successfully upgraded batch norm layers using deprecated params.
I0927 22:03:27.850543 26041 net.cpp:82] Initializing net from parameters: 
name: "ResNet-44"
state {
  phase: TRAIN
  level: 0
  stage: ""
}
layer {
  name: "Data1"
  type: "Data"
  top: "data"
  top: "label"
  transform_param {
    scale: 0.00390625
    mirror: true
    crop_size: 32
    mean_value: 125.3
    mean_value: 122.9
    mean_value: 113.8
  }
  data_param {
    source: "/home/lijianfei/datasets/cifar10_40/train_lmdb"
    batch_size: 128
    backend: LMDB
  }
  image_data_param {
    shuffle: true
  }
}
layer {
  name: "conv1"
  type: "Convolution"
  bottom: "data"
  top: "conv1"
  param {
    lr_mult: 1
    decay_mult: 1
  }
  param {
    lr_mult: 2
    decay_mult: 0
  }
  convolution_param {
    num_output: 16
    bias_term: true
    pad: 1
    kernel_size: 3
    stride: 1
    weight_filler {
      type: "msra"
    }
    bias_filler {
      type: "constant"
      value: 0
    }
  }
}
layer {
  name: "conv1/bn"
  type: "BatchNorm"
  bottom: "conv1"
  top: "conv1"
  param {
    lr_mult: 0
    decay_mult: 0
  }
  param {
    lr_mult: 0
    decay_mult: 0
  }
  param {
    lr_mult: 0
    decay_mult: 0
  }
  batch_norm_param {
    use_global_stats: false
  }
}
layer {
  name: "conv1/scale"
  type: "Scale"
  bottom: "conv1"
  top: "conv1"
  scale_param {
    bias_term: true
  }
}
layer {
  name: "conv1/ReLU"
  type: "ReLU"
  bottom: "conv1"
  top: "conv1"
}
layer {
  name: "conv2_1_0"
  type: "Convolution"
  bottom: "conv1"
  top: "conv2_1_0"
  param {
    lr_mult: 1
    decay_mult: 1
  }
  param {
    lr_mult: 2
    decay_mult: 0
  }
  convolution_param {
    num_output: 16
    bias_term: true
    pad: 1
    kernel_size: 3
    stride: 1
    weight_filler {
      type: "msra"
    }
    bias_filler {
      type: "constant"
      value: 0
    }
  }
}
layer {
  name: "conv2_1_bn0"
  type: "BatchNorm"
  bottom: "conv2_1_0"
  top: "conv2_1_0"
  param {
    lr_mult: 0
    decay_mult: 0
  }
  param {
    lr_mult: 0
    decay_mult: 0
  }
  param {
    lr_mult: 0
    decay_mult: 0
  }
  batch_norm_param {
    use_global_stats: false
  }
}
layer {
  name: "conv2_1_scale0"
  type: "Scale"
  bottom: "conv2_1_0"
  top: "conv2_1_0"
  scale_param {
    bias_term: true
  }
}
layer {
  name: "conv2_1_ReLU0"
  type: "ReLU"
  bottom: "conv2_1_0"
  top: "conv2_1_0"
}
layer {
  name: "conv2_1_1"
  type: "Convolution"
  bottom: "conv2_1_0"
  top: "conv2_1_1"
  param {
    lr_mult: 1
    decay_mult: 1
  }
  param {
    lr_mult: 2
    decay_mult: 0
  }
  convolution_param {
    num_output: 16
    bias_term: true
    pad: 1
    kernel_size: 3
    stride: 1
    weight_filler {
      type: "msra"
    }
    bias_filler {
      type: "constant"
      value: 0
    }
  }
}
layer {
  name: "conv2_1bn1"
  type: "BatchNorm"
  bottom: "conv2_1_1"
  top: "conv2_1_1"
  param {
    lr_mult: 0
    decay_mult: 0
  }
  param {
    lr_mult: 0
    decay_mult: 0
  }
  param {
    lr_mult: 0
    decay_mult: 0
  }
  batch_norm_param {
    use_global_stats: false
  }
}
layer {
  name: "conv2_1_scale1"
  type: "Scale"
  bottom: "conv2_1_1"
  top: "conv2_1_1"
  scale_param {
    bias_term: true
  }
}
layer {
  name: "conv2_Eltwise_1"
  type: "Eltwise"
  bottom: "conv1"
  bottom: "conv2_1_1"
  top: "conv2_Eltwise_1"
  eltwise_param {
    operation: SUM
  }
}
layer {
  name: "conv2_1ReLU_1"
  type: "ReLU"
  bottom: "conv2_Eltwise_1"
  top: "conv2_Eltwise_1"
}
layer {
  name: "conv2_2_0"
  type: "Convolution"
  bottom: "conv2_Eltwise_1"
  top: "conv2_2_0"
  param {
    lr_mult: 1
    decay_mult: 1
  }
  param {
    lr_mult: 2
    decay_mult: 0
  }
  convolution_param {
    num_output: 16
    bias_term: true
    pad: 1
    kernel_size: 3
    stride: 1
    weight_filler {
      type: "msra"
    }
    bias_filler {
      type: "constant"
      value: 0
    }
  }
}
layer {
  name: "conv2_2_bn0"
  type: "BatchNorm"
  bottom: "conv2_2_0"
  top: "conv2_2_0"
  param {
    lr_mult: 0
    decay_mult: 0
  }
  param {
    lr_mult: 0
    decay_mult: 0
  }
  param {
    lr_mult: 0
    decay_mult: 0
  }
  batch_norm_param {
    use_global_stats: false
  }
}
layer {
  name: "conv2_2_scale0"
  type: "Scale"
  bottom: "conv2_2_0"
  top: "conv2_2_0"
  scale_param {
    bias_term: true
  }
}
layer {
  name: "conv2_2_ReLU0"
  type: "ReLU"
  bottom: "conv2_2_0"
  top: "conv2_2_0"
}
layer {
  name: "conv2_2_1"
  type: "Convolution"
  bottom: "conv2_2_0"
  top: "conv2_2_1"
  param {
    lr_mult: 1
    decay_mult: 1
  }
  param {
    lr_mult: 2
    decay_mult: 0
  }
  convolution_param {
    num_output: 16
    bias_term: true
    pad: 1
    kernel_size: 3
    stride: 1
    weight_filler {
      type: "msra"
    }
    bias_filler {
      type: "constant"
      value: 0
    }
  }
}
layer {
  name: "conv2_2bn1"
  type: "BatchNorm"
  bottom: "conv2_2_1"
  top: "conv2_2_1"
  param {
    lr_mult: 0
    decay_mult: 0
  }
  param {
    lr_mult: 0
    decay_mult: 0
  }
  param {
    lr_mult: 0
    decay_mult: 0
  }
  batch_norm_param {
    use_global_stats: false
  }
}
layer {
  name: "conv2_2_scale1"
  type: "Scale"
  bottom: "conv2_2_1"
  top: "conv2_2_1"
  scale_param {
    bias_term: true
  }
}
layer {
  name: "conv2_Eltwise_2"
  type: "Eltwise"
  bottom: "conv2_Eltwise_1"
  bottom: "conv2_2_1"
  top: "conv2_Eltwise_2"
  eltwise_param {
    operation: SUM
  }
}
layer {
  name: "conv2_2ReLU_1"
  type: "ReLU"
  bottom: "conv2_Eltwise_2"
  top: "conv2_Eltwise_2"
}
layer {
  name: "conv2_3_0"
  type: "Convolution"
  bottom: "conv2_Eltwise_2"
  top: "conv2_3_0"
  param {
    lr_mult: 1
    decay_mult: 1
  }
  param {
    lr_mult: 2
    decay_mult: 0
  }
  convolution_param {
    num_output: 16
    bias_term: true
    pad: 1
    kernel_size: 3
    stride: 1
    weight_filler {
      type: "msra"
    }
    bias_filler {
      type: "constant"
      value: 0
    }
  }
}
layer {
  name: "conv2_3_bn0"
  type: "BatchNorm"
  bottom: "conv2_3_0"
  top: "conv2_3_0"
  param {
    lr_mult: 0
    decay_mult: 0
  }
  param {
    lr_mult: 0
    decay_mult: 0
  }
  param {
    lr_mult: 0
    decay_mult: 0
  }
  batch_norm_param {
    use_global_stats: false
  }
}
layer {
  name: "conv2_3_scale0"
  type: "Scale"
  bottom: "conv2_3_0"
  top: "conv2_3_0"
  scale_param {
    bias_term: true
  }
}
layer {
  name: "conv2_3_ReLU0"
  type: "ReLU"
  bottom: "conv2_3_0"
  top: "conv2_3_0"
}
layer {
  name: "conv2_3_1"
  type: "Convolution"
  bottom: "conv2_3_0"
  top: "conv2_3_1"
  param {
    lr_mult: 1
    decay_mult: 1
  }
  param {
    lr_mult: 2
    decay_mult: 0
  }
  convolution_param {
    num_output: 16
    bias_term: true
    pad: 1
    kernel_size: 3
    stride: 1
    weight_filler {
      type: "msra"
    }
    bias_filler {
      type: "constant"
      value: 0
    }
  }
}
layer {
  name: "conv2_3bn1"
  type: "BatchNorm"
  bottom: "conv2_3_1"
  top: "conv2_3_1"
  param {
    lr_mult: 0
    decay_mult: 0
  }
  param {
    lr_mult: 0
    decay_mult: 0
  }
  param {
    lr_mult: 0
    decay_mult: 0
  }
  batch_norm_param {
    use_global_stats: false
  }
}
layer {
  name: "conv2_3_scale1"
  type: "Scale"
  bottom: "conv2_3_1"
  top: "conv2_3_1"
  scale_param {
    bias_term: true
  }
}
layer {
  name: "conv2_Eltwise_3"
  type: "Eltwise"
  bottom: "conv2_Eltwise_2"
  bottom: "conv2_3_1"
  top: "conv2_Eltwise_3"
  eltwise_param {
    operation: SUM
  }
}
layer {
  name: "conv2_3ReLU_1"
  type: "ReLU"
  bottom: "conv2_Eltwise_3"
  top: "conv2_Eltwise_3"
}
layer {
  name: "conv2_4_0"
  type: "Convolution"
  bottom: "conv2_Eltwise_3"
  top: "conv2_4_0"
  param {
    lr_mult: 1
    decay_mult: 1
  }
  param {
    lr_mult: 2
    decay_mult: 0
  }
  convolution_param {
    num_output: 16
    bias_term: true
    pad: 1
    kernel_size: 3
    stride: 1
    weight_filler {
      type: "msra"
    }
    bias_filler {
      type: "constant"
      value: 0
    }
  }
}
layer {
  name: "conv2_4_bn0"
  type: "BatchNorm"
  bottom: "conv2_4_0"
  top: "conv2_4_0"
  param {
    lr_mult: 0
    decay_mult: 0
  }
  param {
    lr_mult: 0
    decay_mult: 0
  }
  param {
    lr_mult: 0
    decay_mult: 0
  }
  batch_norm_param {
    use_global_stats: false
  }
}
layer {
  name: "conv2_4_scale0"
  type: "Scale"
  bottom: "conv2_4_0"
  top: "conv2_4_0"
  scale_param {
    bias_term: true
  }
}
layer {
  name: "conv2_4_ReLU0"
  type: "ReLU"
  bottom: "conv2_4_0"
  top: "conv2_4_0"
}
layer {
  name: "conv2_4_1"
  type: "Convolution"
  bottom: "conv2_4_0"
  top: "conv2_4_1"
  param {
    lr_mult: 1
    decay_mult: 1
  }
  param {
    lr_mult: 2
    decay_mult: 0
  }
  convolution_param {
    num_output: 16
    bias_term: true
    pad: 1
    kernel_size: 3
    stride: 1
    weight_filler {
      type: "msra"
    }
    bias_filler {
      type: "constant"
      value: 0
    }
  }
}
layer {
  name: "conv2_4bn1"
  type: "BatchNorm"
  bottom: "conv2_4_1"
  top: "conv2_4_1"
  param {
    lr_mult: 0
    decay_mult: 0
  }
  param {
    lr_mult: 0
    decay_mult: 0
  }
  param {
    lr_mult: 0
    decay_mult: 0
  }
  batch_norm_param {
    use_global_stats: false
  }
}
layer {
  name: "conv2_4_scale1"
  type: "Scale"
  bottom: "conv2_4_1"
  top: "conv2_4_1"
  scale_param {
    bias_term: true
  }
}
layer {
  name: "conv2_Eltwise_4"
  type: "Eltwise"
  bottom: "conv2_Eltwise_3"
  bottom: "conv2_4_1"
  top: "conv2_Eltwise_4"
  eltwise_param {
    operation: SUM
  }
}
layer {
  name: "conv2_4ReLU_1"
  type: "ReLU"
  bottom: "conv2_Eltwise_4"
  top: "conv2_Eltwise_4"
}
layer {
  name: "conv2_5_0"
  type: "Convolution"
  bottom: "conv2_Eltwise_4"
  top: "conv2_5_0"
  param {
    lr_mult: 1
    decay_mult: 1
  }
  param {
    lr_mult: 2
    decay_mult: 0
  }
  convolution_param {
    num_output: 16
    bias_term: true
    pad: 1
    kernel_size: 3
    stride: 1
    weight_filler {
      type: "msra"
    }
    bias_filler {
      type: "constant"
      value: 0
    }
  }
}
layer {
  name: "conv2_5_bn0"
  type: "BatchNorm"
  bottom: "conv2_5_0"
  top: "conv2_5_0"
  param {
    lr_mult: 0
    decay_mult: 0
  }
  param {
    lr_mult: 0
    decay_mult: 0
  }
  param {
    lr_mult: 0
    decay_mult: 0
  }
  batch_norm_param {
    use_global_stats: false
  }
}
layer {
  name: "conv2_5_scale0"
  type: "Scale"
  bottom: "conv2_5_0"
  top: "conv2_5_0"
  scale_param {
    bias_term: true
  }
}
layer {
  name: "conv2_5_ReLU0"
  type: "ReLU"
  bottom: "conv2_5_0"
  top: "conv2_5_0"
}
layer {
  name: "conv2_5_1"
  type: "Convolution"
  bottom: "conv2_5_0"
  top: "conv2_5_1"
  param {
    lr_mult: 1
    decay_mult: 1
  }
  param {
    lr_mult: 2
    decay_mult: 0
  }
  convolution_param {
    num_output: 16
    bias_term: true
    pad: 1
    kernel_size: 3
    stride: 1
    weight_filler {
      type: "msra"
    }
    bias_filler {
      type: "constant"
      value: 0
    }
  }
}
layer {
  name: "conv2_5bn1"
  type: "BatchNorm"
  bottom: "conv2_5_1"
  top: "conv2_5_1"
  param {
    lr_mult: 0
    decay_mult: 0
  }
  param {
    lr_mult: 0
    decay_mult: 0
  }
  param {
    lr_mult: 0
    decay_mult: 0
  }
  batch_norm_param {
    use_global_stats: false
  }
}
layer {
  name: "conv2_5_scale1"
  type: "Scale"
  bottom: "conv2_5_1"
  top: "conv2_5_1"
  scale_param {
    bias_term: true
  }
}
layer {
  name: "conv2_Eltwise_5"
  type: "Eltwise"
  bottom: "conv2_Eltwise_4"
  bottom: "conv2_5_1"
  top: "conv2_Eltwise_5"
  eltwise_param {
    operation: SUM
  }
}
layer {
  name: "conv2_5ReLU_1"
  type: "ReLU"
  bottom: "conv2_Eltwise_5"
  top: "conv2_Eltwise_5"
}
layer {
  name: "conv2_6_0"
  type: "Convolution"
  bottom: "conv2_Eltwise_5"
  top: "conv2_6_0"
  param {
    lr_mult: 1
    decay_mult: 1
  }
  param {
    lr_mult: 2
    decay_mult: 0
  }
  convolution_param {
    num_output: 16
    bias_term: true
    pad: 1
    kernel_size: 3
    stride: 1
    weight_filler {
      type: "msra"
    }
    bias_filler {
      type: "constant"
      value: 0
    }
  }
}
layer {
  name: "conv2_6_bn0"
  type: "BatchNorm"
  bottom: "conv2_6_0"
  top: "conv2_6_0"
  param {
    lr_mult: 0
    decay_mult: 0
  }
  param {
    lr_mult: 0
    decay_mult: 0
  }
  param {
    lr_mult: 0
    decay_mult: 0
  }
  batch_norm_param {
    use_global_stats: false
  }
}
layer {
  name: "conv2_6_scale0"
  type: "Scale"
  bottom: "conv2_6_0"
  top: "conv2_6_0"
  scale_param {
    bias_term: true
  }
}
layer {
  name: "conv2_6_ReLU0"
  type: "ReLU"
  bottom: "conv2_6_0"
  top: "conv2_6_0"
}
layer {
  name: "conv2_6_1"
  type: "Convolution"
  bottom: "conv2_6_0"
  top: "conv2_6_1"
  param {
    lr_mult: 1
    decay_mult: 1
  }
  param {
    lr_mult: 2
    decay_mult: 0
  }
  convolution_param {
    num_output: 16
    bias_term: true
    pad: 1
    kernel_size: 3
    stride: 1
    weight_filler {
      type: "msra"
    }
    bias_filler {
      type: "constant"
      value: 0
    }
  }
}
layer {
  name: "conv2_6bn1"
  type: "BatchNorm"
  bottom: "conv2_6_1"
  top: "conv2_6_1"
  param {
    lr_mult: 0
    decay_mult: 0
  }
  param {
    lr_mult: 0
    decay_mult: 0
  }
  param {
    lr_mult: 0
    decay_mult: 0
  }
  batch_norm_param {
    use_global_stats: false
  }
}
layer {
  name: "conv2_6_scale1"
  type: "Scale"
  bottom: "conv2_6_1"
  top: "conv2_6_1"
  scale_param {
    bias_term: true
  }
}
layer {
  name: "conv2_Eltwise_6"
  type: "Eltwise"
  bottom: "conv2_Eltwise_5"
  bottom: "conv2_6_1"
  top: "conv2_Eltwise_6"
  eltwise_param {
    operation: SUM
  }
}
layer {
  name: "conv2_6ReLU_1"
  type: "ReLU"
  bottom: "conv2_Eltwise_6"
  top: "conv2_Eltwise_6"
}
layer {
  name: "conv2_7_0"
  type: "Convolution"
  bottom: "conv2_Eltwise_6"
  top: "conv2_7_0"
  param {
    lr_mult: 1
    decay_mult: 1
  }
  param {
    lr_mult: 2
    decay_mult: 0
  }
  convolution_param {
    num_output: 16
    bias_term: true
    pad: 1
    kernel_size: 3
    stride: 1
    weight_filler {
      type: "msra"
    }
    bias_filler {
      type: "constant"
      value: 0
    }
  }
}
layer {
  name: "conv2_7_bn0"
  type: "BatchNorm"
  bottom: "conv2_7_0"
  top: "conv2_7_0"
  param {
    lr_mult: 0
    decay_mult: 0
  }
  param {
    lr_mult: 0
    decay_mult: 0
  }
  param {
    lr_mult: 0
    decay_mult: 0
  }
  batch_norm_param {
    use_global_stats: false
  }
}
layer {
  name: "conv2_7_scale0"
  type: "Scale"
  bottom: "conv2_7_0"
  top: "conv2_7_0"
  scale_param {
    bias_term: true
  }
}
layer {
  name: "conv2_7_ReLU0"
  type: "ReLU"
  bottom: "conv2_7_0"
  top: "conv2_7_0"
}
layer {
  name: "conv2_7_1"
  type: "Convolution"
  bottom: "conv2_7_0"
  top: "conv2_7_1"
  param {
    lr_mult: 1
    decay_mult: 1
  }
  param {
    lr_mult: 2
    decay_mult: 0
  }
  convolution_param {
    num_output: 16
    bias_term: true
    pad: 1
    kernel_size: 3
    stride: 1
    weight_filler {
      type: "msra"
    }
    bias_filler {
      type: "constant"
      value: 0
    }
  }
}
layer {
  name: "conv2_7bn1"
  type: "BatchNorm"
  bottom: "conv2_7_1"
  top: "conv2_7_1"
  param {
    lr_mult: 0
    decay_mult: 0
  }
  param {
    lr_mult: 0
    decay_mult: 0
  }
  param {
    lr_mult: 0
    decay_mult: 0
  }
  batch_norm_param {
    use_global_stats: false
  }
}
layer {
  name: "conv2_7_scale1"
  type: "Scale"
  bottom: "conv2_7_1"
  top: "conv2_7_1"
  scale_param {
    bias_term: true
  }
}
layer {
  name: "conv2_Eltwise_7"
  type: "Eltwise"
  bottom: "conv2_Eltwise_6"
  bottom: "conv2_7_1"
  top: "conv2_Eltwise_7"
  eltwise_param {
    operation: SUM
  }
}
layer {
  name: "conv2_7ReLU_1"
  type: "ReLU"
  bottom: "conv2_Eltwise_7"
  top: "conv2_Eltwise_7"
}
layer {
  name: "conv3_1_0"
  type: "Convolution"
  bottom: "conv2_Eltwise_7"
  top: "conv3_1_0"
  param {
    lr_mult: 1
    decay_mult: 1
  }
  param {
    lr_mult: 2
    decay_mult: 0
  }
  convolution_param {
    num_output: 32
    bias_term: true
    pad: 1
    kernel_size: 3
    stride: 2
    weight_filler {
      type: "msra"
    }
    bias_filler {
      type: "constant"
      value: 0
    }
  }
}
layer {
  name: "conv3_1_bn0"
  type: "BatchNorm"
  bottom: "conv3_1_0"
  top: "conv3_1_0"
  param {
    lr_mult: 0
    decay_mult: 0
  }
  param {
    lr_mult: 0
    decay_mult: 0
  }
  param {
    lr_mult: 0
    decay_mult: 0
  }
  batch_norm_param {
    use_global_stats: false
  }
}
layer {
  name: "conv3_1_scale0"
  type: "Scale"
  bottom: "conv3_1_0"
  top: "conv3_1_0"
  scale_param {
    bias_term: true
  }
}
layer {
  name: "conv3_1_ReLU0"
  type: "ReLU"
  bottom: "conv3_1_0"
  top: "conv3_1_0"
}
layer {
  name: "conv3_1_1"
  type: "Convolution"
  bottom: "conv3_1_0"
  top: "conv3_1_1"
  param {
    lr_mult: 1
    decay_mult: 1
  }
  param {
    lr_mult: 2
    decay_mult: 0
  }
  convolution_param {
    num_output: 32
    bias_term: true
    pad: 1
    kernel_size: 3
    stride: 1
    weight_filler {
      type: "msra"
    }
    bias_filler {
      type: "constant"
      value: 0
    }
  }
}
layer {
  name: "conv3_1bn1"
  type: "BatchNorm"
  bottom: "conv3_1_1"
  top: "conv3_1_1"
  param {
    lr_mult: 0
    decay_mult: 0
  }
  param {
    lr_mult: 0
    decay_mult: 0
  }
  param {
    lr_mult: 0
    decay_mult: 0
  }
  batch_norm_param {
    use_global_stats: false
  }
}
layer {
  name: "conv3_1_scale1"
  type: "Scale"
  bottom: "conv3_1_1"
  top: "conv3_1_1"
  scale_param {
    bias_term: true
  }
}
layer {
  name: "conv3_1_down"
  type: "Convolution"
  bottom: "conv2_Eltwise_7"
  top: "conv3_1_down"
  param {
    lr_mult: 1
    decay_mult: 1
  }
  param {
    lr_mult: 2
    decay_mult: 0
  }
  convolution_param {
    num_output: 32
    bias_term: true
    pad: 0
    kernel_size: 1
    stride: 2
    weight_filler {
      type: "msra"
    }
    bias_filler {
      type: "constant"
      value: 0
    }
  }
}
layer {
  name: "conv3_1_bn_down"
  type: "BatchNorm"
  bottom: "conv3_1_down"
  top: "conv3_1_down"
  param {
    lr_mult: 0
    decay_mult: 0
  }
  param {
    lr_mult: 0
    decay_mult: 0
  }
  param {
    lr_mult: 0
    decay_mult: 0
  }
  batch_norm_param {
    use_global_stats: false
  }
}
layer {
  name: "conv3_1_scale_down"
  type: "Scale"
  bottom: "conv3_1_down"
  top: "conv3_1_down"
  scale_param {
    bias_term: true
  }
}
layer {
  name: "conv3_Eltwise_1"
  type: "Eltwise"
  bottom: "conv3_1_1"
  bottom: "conv3_1_down"
  top: "conv3_Eltwise_1"
  eltwise_param {
    operation: SUM
  }
}
layer {
  name: "conv3_1ReLU_1"
  type: "ReLU"
  bottom: "conv3_Eltwise_1"
  top: "conv3_Eltwise_1"
}
layer {
  name: "conv3_2_0"
  type: "Convolution"
  bottom: "conv3_Eltwise_1"
  top: "conv3_2_0"
  param {
    lr_mult: 1
    decay_mult: 1
  }
  param {
    lr_mult: 2
    decay_mult: 0
  }
  convolution_param {
    num_output: 32
    bias_term: true
    pad: 1
    kernel_size: 3
    stride: 1
    weight_filler {
      type: "msra"
    }
    bias_filler {
      type: "constant"
      value: 0
    }
  }
}
layer {
  name: "conv3_2_bn0"
  type: "BatchNorm"
  bottom: "conv3_2_0"
  top: "conv3_2_0"
  param {
    lr_mult: 0
    decay_mult: 0
  }
  param {
    lr_mult: 0
    decay_mult: 0
  }
  param {
    lr_mult: 0
    decay_mult: 0
  }
  batch_norm_param {
    use_global_stats: false
  }
}
layer {
  name: "conv3_2_scale0"
  type: "Scale"
  bottom: "conv3_2_0"
  top: "conv3_2_0"
  scale_param {
    bias_term: true
  }
}
layer {
  name: "conv3_2_ReLU0"
  type: "ReLU"
  bottom: "conv3_2_0"
  top: "conv3_2_0"
}
layer {
  name: "conv3_2_1"
  type: "Convolution"
  bottom: "conv3_2_0"
  top: "conv3_2_1"
  param {
    lr_mult: 1
    decay_mult: 1
  }
  param {
    lr_mult: 2
    decay_mult: 0
  }
  convolution_param {
    num_output: 32
    bias_term: true
    pad: 1
    kernel_size: 3
    stride: 1
    weight_filler {
      type: "msra"
    }
    bias_filler {
      type: "constant"
      value: 0
    }
  }
}
layer {
  name: "conv3_2bn1"
  type: "BatchNorm"
  bottom: "conv3_2_1"
  top: "conv3_2_1"
  param {
    lr_mult: 0
    decay_mult: 0
  }
  param {
    lr_mult: 0
    decay_mult: 0
  }
  param {
    lr_mult: 0
    decay_mult: 0
  }
  batch_norm_param {
    use_global_stats: false
  }
}
layer {
  name: "conv3_2_scale1"
  type: "Scale"
  bottom: "conv3_2_1"
  top: "conv3_2_1"
  scale_param {
    bias_term: true
  }
}
layer {
  name: "conv3_Eltwise_2"
  type: "Eltwise"
  bottom: "conv3_Eltwise_1"
  bottom: "conv3_2_1"
  top: "conv3_Eltwise_2"
  eltwise_param {
    operation: SUM
  }
}
layer {
  name: "conv3_2ReLU_1"
  type: "ReLU"
  bottom: "conv3_Eltwise_2"
  top: "conv3_Eltwise_2"
}
layer {
  name: "conv3_3_0"
  type: "Convolution"
  bottom: "conv3_Eltwise_2"
  top: "conv3_3_0"
  param {
    lr_mult: 1
    decay_mult: 1
  }
  param {
    lr_mult: 2
    decay_mult: 0
  }
  convolution_param {
    num_output: 32
    bias_term: true
    pad: 1
    kernel_size: 3
    stride: 1
    weight_filler {
      type: "msra"
    }
    bias_filler {
      type: "constant"
      value: 0
    }
  }
}
layer {
  name: "conv3_3_bn0"
  type: "BatchNorm"
  bottom: "conv3_3_0"
  top: "conv3_3_0"
  param {
    lr_mult: 0
    decay_mult: 0
  }
  param {
    lr_mult: 0
    decay_mult: 0
  }
  param {
    lr_mult: 0
    decay_mult: 0
  }
  batch_norm_param {
    use_global_stats: false
  }
}
layer {
  name: "conv3_3_scale0"
  type: "Scale"
  bottom: "conv3_3_0"
  top: "conv3_3_0"
  scale_param {
    bias_term: true
  }
}
layer {
  name: "conv3_3_ReLU0"
  type: "ReLU"
  bottom: "conv3_3_0"
  top: "conv3_3_0"
}
layer {
  name: "conv3_3_1"
  type: "Convolution"
  bottom: "conv3_3_0"
  top: "conv3_3_1"
  param {
    lr_mult: 1
    decay_mult: 1
  }
  param {
    lr_mult: 2
    decay_mult: 0
  }
  convolution_param {
    num_output: 32
    bias_term: true
    pad: 1
    kernel_size: 3
    stride: 1
    weight_filler {
      type: "msra"
    }
    bias_filler {
      type: "constant"
      value: 0
    }
  }
}
layer {
  name: "conv3_3bn1"
  type: "BatchNorm"
  bottom: "conv3_3_1"
  top: "conv3_3_1"
  param {
    lr_mult: 0
    decay_mult: 0
  }
  param {
    lr_mult: 0
    decay_mult: 0
  }
  param {
    lr_mult: 0
    decay_mult: 0
  }
  batch_norm_param {
    use_global_stats: false
  }
}
layer {
  name: "conv3_3_scale1"
  type: "Scale"
  bottom: "conv3_3_1"
  top: "conv3_3_1"
  scale_param {
    bias_term: true
  }
}
layer {
  name: "conv3_Eltwise_3"
  type: "Eltwise"
  bottom: "conv3_Eltwise_2"
  bottom: "conv3_3_1"
  top: "conv3_Eltwise_3"
  eltwise_param {
    operation: SUM
  }
}
layer {
  name: "conv3_3ReLU_1"
  type: "ReLU"
  bottom: "conv3_Eltwise_3"
  top: "conv3_Eltwise_3"
}
layer {
  name: "conv3_4_0"
  type: "Convolution"
  bottom: "conv3_Eltwise_3"
  top: "conv3_4_0"
  param {
    lr_mult: 1
    decay_mult: 1
  }
  param {
    lr_mult: 2
    decay_mult: 0
  }
  convolution_param {
    num_output: 32
    bias_term: true
    pad: 1
    kernel_size: 3
    stride: 1
    weight_filler {
      type: "msra"
    }
    bias_filler {
      type: "constant"
      value: 0
    }
  }
}
layer {
  name: "conv3_4_bn0"
  type: "BatchNorm"
  bottom: "conv3_4_0"
  top: "conv3_4_0"
  param {
    lr_mult: 0
    decay_mult: 0
  }
  param {
    lr_mult: 0
    decay_mult: 0
  }
  param {
    lr_mult: 0
    decay_mult: 0
  }
  batch_norm_param {
    use_global_stats: false
  }
}
layer {
  name: "conv3_4_scale0"
  type: "Scale"
  bottom: "conv3_4_0"
  top: "conv3_4_0"
  scale_param {
    bias_term: true
  }
}
layer {
  name: "conv3_4_ReLU0"
  type: "ReLU"
  bottom: "conv3_4_0"
  top: "conv3_4_0"
}
layer {
  name: "conv3_4_1"
  type: "Convolution"
  bottom: "conv3_4_0"
  top: "conv3_4_1"
  param {
    lr_mult: 1
    decay_mult: 1
  }
  param {
    lr_mult: 2
    decay_mult: 0
  }
  convolution_param {
    num_output: 32
    bias_term: true
    pad: 1
    kernel_size: 3
    stride: 1
    weight_filler {
      type: "msra"
    }
    bias_filler {
      type: "constant"
      value: 0
    }
  }
}
layer {
  name: "conv3_4bn1"
  type: "BatchNorm"
  bottom: "conv3_4_1"
  top: "conv3_4_1"
  param {
    lr_mult: 0
    decay_mult: 0
  }
  param {
    lr_mult: 0
    decay_mult: 0
  }
  param {
    lr_mult: 0
    decay_mult: 0
  }
  batch_norm_param {
    use_global_stats: false
  }
}
layer {
  name: "conv3_4_scale1"
  type: "Scale"
  bottom: "conv3_4_1"
  top: "conv3_4_1"
  scale_param {
    bias_term: true
  }
}
layer {
  name: "conv3_Eltwise_4"
  type: "Eltwise"
  bottom: "conv3_Eltwise_3"
  bottom: "conv3_4_1"
  top: "conv3_Eltwise_4"
  eltwise_param {
    operation: SUM
  }
}
layer {
  name: "conv3_4ReLU_1"
  type: "ReLU"
  bottom: "conv3_Eltwise_4"
  top: "conv3_Eltwise_4"
}
layer {
  name: "conv3_5_0"
  type: "Convolution"
  bottom: "conv3_Eltwise_4"
  top: "conv3_5_0"
  param {
    lr_mult: 1
    decay_mult: 1
  }
  param {
    lr_mult: 2
    decay_mult: 0
  }
  convolution_param {
    num_output: 32
    bias_term: true
    pad: 1
    kernel_size: 3
    stride: 1
    weight_filler {
      type: "msra"
    }
    bias_filler {
      type: "constant"
      value: 0
    }
  }
}
layer {
  name: "conv3_5_bn0"
  type: "BatchNorm"
  bottom: "conv3_5_0"
  top: "conv3_5_0"
  param {
    lr_mult: 0
    decay_mult: 0
  }
  param {
    lr_mult: 0
    decay_mult: 0
  }
  param {
    lr_mult: 0
    decay_mult: 0
  }
  batch_norm_param {
    use_global_stats: false
  }
}
layer {
  name: "conv3_5_scale0"
  type: "Scale"
  bottom: "conv3_5_0"
  top: "conv3_5_0"
  scale_param {
    bias_term: true
  }
}
layer {
  name: "conv3_5_ReLU0"
  type: "ReLU"
  bottom: "conv3_5_0"
  top: "conv3_5_0"
}
layer {
  name: "conv3_5_1"
  type: "Convolution"
  bottom: "conv3_5_0"
  top: "conv3_5_1"
  param {
    lr_mult: 1
    decay_mult: 1
  }
  param {
    lr_mult: 2
    decay_mult: 0
  }
  convolution_param {
    num_output: 32
    bias_term: true
    pad: 1
    kernel_size: 3
    stride: 1
    weight_filler {
      type: "msra"
    }
    bias_filler {
      type: "constant"
      value: 0
    }
  }
}
layer {
  name: "conv3_5bn1"
  type: "BatchNorm"
  bottom: "conv3_5_1"
  top: "conv3_5_1"
  param {
    lr_mult: 0
    decay_mult: 0
  }
  param {
    lr_mult: 0
    decay_mult: 0
  }
  param {
    lr_mult: 0
    decay_mult: 0
  }
  batch_norm_param {
    use_global_stats: false
  }
}
layer {
  name: "conv3_5_scale1"
  type: "Scale"
  bottom: "conv3_5_1"
  top: "conv3_5_1"
  scale_param {
    bias_term: true
  }
}
layer {
  name: "conv3_Eltwise_5"
  type: "Eltwise"
  bottom: "conv3_Eltwise_4"
  bottom: "conv3_5_1"
  top: "conv3_Eltwise_5"
  eltwise_param {
    operation: SUM
  }
}
layer {
  name: "conv3_5ReLU_1"
  type: "ReLU"
  bottom: "conv3_Eltwise_5"
  top: "conv3_Eltwise_5"
}
layer {
  name: "conv3_6_0"
  type: "Convolution"
  bottom: "conv3_Eltwise_5"
  top: "conv3_6_0"
  param {
    lr_mult: 1
    decay_mult: 1
  }
  param {
    lr_mult: 2
    decay_mult: 0
  }
  convolution_param {
    num_output: 32
    bias_term: true
    pad: 1
    kernel_size: 3
    stride: 1
    weight_filler {
      type: "msra"
    }
    bias_filler {
      type: "constant"
      value: 0
    }
  }
}
layer {
  name: "conv3_6_bn0"
  type: "BatchNorm"
  bottom: "conv3_6_0"
  top: "conv3_6_0"
  param {
    lr_mult: 0
    decay_mult: 0
  }
  param {
    lr_mult: 0
    decay_mult: 0
  }
  param {
    lr_mult: 0
    decay_mult: 0
  }
  batch_norm_param {
    use_global_stats: false
  }
}
layer {
  name: "conv3_6_scale0"
  type: "Scale"
  bottom: "conv3_6_0"
  top: "conv3_6_0"
  scale_param {
    bias_term: true
  }
}
layer {
  name: "conv3_6_ReLU0"
  type: "ReLU"
  bottom: "conv3_6_0"
  top: "conv3_6_0"
}
layer {
  name: "conv3_6_1"
  type: "Convolution"
  bottom: "conv3_6_0"
  top: "conv3_6_1"
  param {
    lr_mult: 1
    decay_mult: 1
  }
  param {
    lr_mult: 2
    decay_mult: 0
  }
  convolution_param {
    num_output: 32
    bias_term: true
    pad: 1
    kernel_size: 3
    stride: 1
    weight_filler {
      type: "msra"
    }
    bias_filler {
      type: "constant"
      value: 0
    }
  }
}
layer {
  name: "conv3_6bn1"
  type: "BatchNorm"
  bottom: "conv3_6_1"
  top: "conv3_6_1"
  param {
    lr_mult: 0
    decay_mult: 0
  }
  param {
    lr_mult: 0
    decay_mult: 0
  }
  param {
    lr_mult: 0
    decay_mult: 0
  }
  batch_norm_param {
    use_global_stats: false
  }
}
layer {
  name: "conv3_6_scale1"
  type: "Scale"
  bottom: "conv3_6_1"
  top: "conv3_6_1"
  scale_param {
    bias_term: true
  }
}
layer {
  name: "conv3_Eltwise_6"
  type: "Eltwise"
  bottom: "conv3_Eltwise_5"
  bottom: "conv3_6_1"
  top: "conv3_Eltwise_6"
  eltwise_param {
    operation: SUM
  }
}
layer {
  name: "conv3_6ReLU_1"
  type: "ReLU"
  bottom: "conv3_Eltwise_6"
  top: "conv3_Eltwise_6"
}
layer {
  name: "conv3_7_0"
  type: "Convolution"
  bottom: "conv3_Eltwise_6"
  top: "conv3_7_0"
  param {
    lr_mult: 1
    decay_mult: 1
  }
  param {
    lr_mult: 2
    decay_mult: 0
  }
  convolution_param {
    num_output: 32
    bias_term: true
    pad: 1
    kernel_size: 3
    stride: 1
    weight_filler {
      type: "msra"
    }
    bias_filler {
      type: "constant"
      value: 0
    }
  }
}
layer {
  name: "conv3_7_bn0"
  type: "BatchNorm"
  bottom: "conv3_7_0"
  top: "conv3_7_0"
  param {
    lr_mult: 0
    decay_mult: 0
  }
  param {
    lr_mult: 0
    decay_mult: 0
  }
  param {
    lr_mult: 0
    decay_mult: 0
  }
  batch_norm_param {
    use_global_stats: false
  }
}
layer {
  name: "conv3_7_scale0"
  type: "Scale"
  bottom: "conv3_7_0"
  top: "conv3_7_0"
  scale_param {
    bias_term: true
  }
}
layer {
  name: "conv3_7_ReLU0"
  type: "ReLU"
  bottom: "conv3_7_0"
  top: "conv3_7_0"
}
layer {
  name: "conv3_7_1"
  type: "Convolution"
  bottom: "conv3_7_0"
  top: "conv3_7_1"
  param {
    lr_mult: 1
    decay_mult: 1
  }
  param {
    lr_mult: 2
    decay_mult: 0
  }
  convolution_param {
    num_output: 32
    bias_term: true
    pad: 1
    kernel_size: 3
    stride: 1
    weight_filler {
      type: "msra"
    }
    bias_filler {
      type: "constant"
      value: 0
    }
  }
}
layer {
  name: "conv3_7bn1"
  type: "BatchNorm"
  bottom: "conv3_7_1"
  top: "conv3_7_1"
  param {
    lr_mult: 0
    decay_mult: 0
  }
  param {
    lr_mult: 0
    decay_mult: 0
  }
  param {
    lr_mult: 0
    decay_mult: 0
  }
  batch_norm_param {
    use_global_stats: false
  }
}
layer {
  name: "conv3_7_scale1"
I0927 22:03:27.851532 26041 layer_factory.hpp:77] Creating layer Data1
I0927 22:03:27.851742 26041 db_lmdb.cpp:35] Opened lmdb /home/lijianfei/datasets/cifar10_40/train_lmdb
I0927 22:03:27.851788 26041 net.cpp:128] Creating Layer Data1
I0927 22:03:27.851799 26041 net.cpp:522] Data1 -> data
I0927 22:03:27.851825 26041 net.cpp:522] Data1 -> label
I0927 22:03:27.853508 26041 data_layer.cpp:45] output data size: 128,3,32,32
I0927 22:03:27.862035 26041 net.cpp:172] Setting up Data1
I0927 22:03:27.862088 26041 net.cpp:186] Top shape: 128 3 32 32 (393216)
I0927 22:03:27.862095 26041 net.cpp:186] Top shape: 128 (128)
I0927 22:03:27.862099 26041 net.cpp:194] Memory required for data: 1573376
I0927 22:03:27.862115 26041 layer_factory.hpp:77] Creating layer conv1
I0927 22:03:27.862146 26041 net.cpp:128] Creating Layer conv1
I0927 22:03:27.862156 26041 net.cpp:558] conv1 <- data
I0927 22:03:27.862177 26041 net.cpp:522] conv1 -> conv1
I0927 22:03:28.612807 26041 net.cpp:172] Setting up conv1
I0927 22:03:28.612864 26041 net.cpp:186] Top shape: 128 16 32 32 (2097152)
I0927 22:03:28.612869 26041 net.cpp:194] Memory required for data: 9961984
I0927 22:03:28.612906 26041 layer_factory.hpp:77] Creating layer conv1/bn
I0927 22:03:28.612926 26041 net.cpp:128] Creating Layer conv1/bn
I0927 22:03:28.612936 26041 net.cpp:558] conv1/bn <- conv1
I0927 22:03:28.612944 26041 net.cpp:509] conv1/bn -> conv1 (in-place)
I0927 22:03:28.613214 26041 net.cpp:172] Setting up conv1/bn
I0927 22:03:28.613227 26041 net.cpp:186] Top shape: 128 16 32 32 (2097152)
I0927 22:03:28.613231 26041 net.cpp:194] Memory required for data: 18350592
I0927 22:03:28.613245 26041 layer_factory.hpp:77] Creating layer conv1/scale
I0927 22:03:28.613255 26041 net.cpp:128] Creating Layer conv1/scale
I0927 22:03:28.613260 26041 net.cpp:558] conv1/scale <- conv1
I0927 22:03:28.613265 26041 net.cpp:509] conv1/scale -> conv1 (in-place)
I0927 22:03:28.613310 26041 layer_factory.hpp:77] Creating layer conv1/scale
I0927 22:03:28.613442 26041 net.cpp:172] Setting up conv1/scale
I0927 22:03:28.613457 26041 net.cpp:186] Top shape: 128 16 32 32 (2097152)
I0927 22:03:28.613461 26041 net.cpp:194] Memory required for data: 26739200
I0927 22:03:28.613472 26041 layer_factory.hpp:77] Creating layer conv1/ReLU
I0927 22:03:28.613481 26041 net.cpp:128] Creating Layer conv1/ReLU
I0927 22:03:28.613484 26041 net.cpp:558] conv1/ReLU <- conv1
I0927 22:03:28.613490 26041 net.cpp:509] conv1/ReLU -> conv1 (in-place)
I0927 22:03:28.613723 26041 net.cpp:172] Setting up conv1/ReLU
I0927 22:03:28.613739 26041 net.cpp:186] Top shape: 128 16 32 32 (2097152)
I0927 22:03:28.613744 26041 net.cpp:194] Memory required for data: 35127808
I0927 22:03:28.613749 26041 layer_factory.hpp:77] Creating layer conv1_conv1/ReLU_0_split
I0927 22:03:28.613756 26041 net.cpp:128] Creating Layer conv1_conv1/ReLU_0_split
I0927 22:03:28.613760 26041 net.cpp:558] conv1_conv1/ReLU_0_split <- conv1
I0927 22:03:28.613770 26041 net.cpp:522] conv1_conv1/ReLU_0_split -> conv1_conv1/ReLU_0_split_0
I0927 22:03:28.613778 26041 net.cpp:522] conv1_conv1/ReLU_0_split -> conv1_conv1/ReLU_0_split_1
I0927 22:03:28.613826 26041 net.cpp:172] Setting up conv1_conv1/ReLU_0_split
I0927 22:03:28.613833 26041 net.cpp:186] Top shape: 128 16 32 32 (2097152)
I0927 22:03:28.613839 26041 net.cpp:186] Top shape: 128 16 32 32 (2097152)
I0927 22:03:28.613843 26041 net.cpp:194] Memory required for data: 51905024
I0927 22:03:28.613847 26041 layer_factory.hpp:77] Creating layer conv2_1_0
I0927 22:03:28.613862 26041 net.cpp:128] Creating Layer conv2_1_0
I0927 22:03:28.613868 26041 net.cpp:558] conv2_1_0 <- conv1_conv1/ReLU_0_split_0
I0927 22:03:28.613878 26041 net.cpp:522] conv2_1_0 -> conv2_1_0
I0927 22:03:28.616554 26041 net.cpp:172] Setting up conv2_1_0
I0927 22:03:28.616583 26041 net.cpp:186] Top shape: 128 16 32 32 (2097152)
I0927 22:03:28.616587 26041 net.cpp:194] Memory required for data: 60293632
I0927 22:03:28.616600 26041 layer_factory.hpp:77] Creating layer conv2_1_bn0
I0927 22:03:28.616611 26041 net.cpp:128] Creating Layer conv2_1_bn0
I0927 22:03:28.616616 26041 net.cpp:558] conv2_1_bn0 <- conv2_1_0
I0927 22:03:28.616629 26041 net.cpp:509] conv2_1_bn0 -> conv2_1_0 (in-place)
I0927 22:03:28.616858 26041 net.cpp:172] Setting up conv2_1_bn0
I0927 22:03:28.616868 26041 net.cpp:186] Top shape: 128 16 32 32 (2097152)
I0927 22:03:28.616873 26041 net.cpp:194] Memory required for data: 68682240
I0927 22:03:28.616883 26041 layer_factory.hpp:77] Creating layer conv2_1_scale0
I0927 22:03:28.616890 26041 net.cpp:128] Creating Layer conv2_1_scale0
I0927 22:03:28.616895 26041 net.cpp:558] conv2_1_scale0 <- conv2_1_0
I0927 22:03:28.616904 26041 net.cpp:509] conv2_1_scale0 -> conv2_1_0 (in-place)
I0927 22:03:28.616940 26041 layer_factory.hpp:77] Creating layer conv2_1_scale0
I0927 22:03:28.617067 26041 net.cpp:172] Setting up conv2_1_scale0
I0927 22:03:28.617074 26041 net.cpp:186] Top shape: 128 16 32 32 (2097152)
I0927 22:03:28.617079 26041 net.cpp:194] Memory required for data: 77070848
I0927 22:03:28.617086 26041 layer_factory.hpp:77] Creating layer conv2_1_ReLU0
I0927 22:03:28.617094 26041 net.cpp:128] Creating Layer conv2_1_ReLU0
I0927 22:03:28.617099 26041 net.cpp:558] conv2_1_ReLU0 <- conv2_1_0
I0927 22:03:28.617105 26041 net.cpp:509] conv2_1_ReLU0 -> conv2_1_0 (in-place)
I0927 22:03:28.617326 26041 net.cpp:172] Setting up conv2_1_ReLU0
I0927 22:03:28.617342 26041 net.cpp:186] Top shape: 128 16 32 32 (2097152)
I0927 22:03:28.617347 26041 net.cpp:194] Memory required for data: 85459456
I0927 22:03:28.617369 26041 layer_factory.hpp:77] Creating layer conv2_1_1
I0927 22:03:28.617383 26041 net.cpp:128] Creating Layer conv2_1_1
I0927 22:03:28.617388 26041 net.cpp:558] conv2_1_1 <- conv2_1_0
I0927 22:03:28.617398 26041 net.cpp:522] conv2_1_1 -> conv2_1_1
I0927 22:03:28.618618 26041 net.cpp:172] Setting up conv2_1_1
I0927 22:03:28.618645 26041 net.cpp:186] Top shape: 128 16 32 32 (2097152)
I0927 22:03:28.618649 26041 net.cpp:194] Memory required for data: 93848064
I0927 22:03:28.618659 26041 layer_factory.hpp:77] Creating layer conv2_1bn1
I0927 22:03:28.618670 26041 net.cpp:128] Creating Layer conv2_1bn1
I0927 22:03:28.618675 26041 net.cpp:558] conv2_1bn1 <- conv2_1_1
I0927 22:03:28.618682 26041 net.cpp:509] conv2_1bn1 -> conv2_1_1 (in-place)
I0927 22:03:28.618927 26041 net.cpp:172] Setting up conv2_1bn1
I0927 22:03:28.618938 26041 net.cpp:186] Top shape: 128 16 32 32 (2097152)
I0927 22:03:28.618943 26041 net.cpp:194] Memory required for data: 102236672
I0927 22:03:28.618955 26041 layer_factory.hpp:77] Creating layer conv2_1_scale1
I0927 22:03:28.618963 26041 net.cpp:128] Creating Layer conv2_1_scale1
I0927 22:03:28.618968 26041 net.cpp:558] conv2_1_scale1 <- conv2_1_1
I0927 22:03:28.618975 26041 net.cpp:509] conv2_1_scale1 -> conv2_1_1 (in-place)
I0927 22:03:28.619016 26041 layer_factory.hpp:77] Creating layer conv2_1_scale1
I0927 22:03:28.619149 26041 net.cpp:172] Setting up conv2_1_scale1
I0927 22:03:28.619163 26041 net.cpp:186] Top shape: 128 16 32 32 (2097152)
I0927 22:03:28.619166 26041 net.cpp:194] Memory required for data: 110625280
I0927 22:03:28.619174 26041 layer_factory.hpp:77] Creating layer conv2_Eltwise_1
I0927 22:03:28.619184 26041 net.cpp:128] Creating Layer conv2_Eltwise_1
I0927 22:03:28.619189 26041 net.cpp:558] conv2_Eltwise_1 <- conv1_conv1/ReLU_0_split_1
I0927 22:03:28.619194 26041 net.cpp:558] conv2_Eltwise_1 <- conv2_1_1
I0927 22:03:28.619200 26041 net.cpp:522] conv2_Eltwise_1 -> conv2_Eltwise_1
I0927 22:03:28.619230 26041 net.cpp:172] Setting up conv2_Eltwise_1
I0927 22:03:28.619238 26041 net.cpp:186] Top shape: 128 16 32 32 (2097152)
I0927 22:03:28.619241 26041 net.cpp:194] Memory required for data: 119013888
I0927 22:03:28.619246 26041 layer_factory.hpp:77] Creating layer conv2_1ReLU_1
I0927 22:03:28.619251 26041 net.cpp:128] Creating Layer conv2_1ReLU_1
I0927 22:03:28.619256 26041 net.cpp:558] conv2_1ReLU_1 <- conv2_Eltwise_1
I0927 22:03:28.619264 26041 net.cpp:509] conv2_1ReLU_1 -> conv2_Eltwise_1 (in-place)
I0927 22:03:28.619686 26041 net.cpp:172] Setting up conv2_1ReLU_1
I0927 22:03:28.619709 26041 net.cpp:186] Top shape: 128 16 32 32 (2097152)
I0927 22:03:28.619714 26041 net.cpp:194] Memory required for data: 127402496
I0927 22:03:28.619719 26041 layer_factory.hpp:77] Creating layer conv2_Eltwise_1_conv2_1ReLU_1_0_split
I0927 22:03:28.619727 26041 net.cpp:128] Creating Layer conv2_Eltwise_1_conv2_1ReLU_1_0_split
I0927 22:03:28.619731 26041 net.cpp:558] conv2_Eltwise_1_conv2_1ReLU_1_0_split <- conv2_Eltwise_1
I0927 22:03:28.619741 26041 net.cpp:522] conv2_Eltwise_1_conv2_1ReLU_1_0_split -> conv2_Eltwise_1_conv2_1ReLU_1_0_split_0
I0927 22:03:28.619753 26041 net.cpp:522] conv2_Eltwise_1_conv2_1ReLU_1_0_split -> conv2_Eltwise_1_conv2_1ReLU_1_0_split_1
I0927 22:03:28.619801 26041 net.cpp:172] Setting up conv2_Eltwise_1_conv2_1ReLU_1_0_split
I0927 22:03:28.619809 26041 net.cpp:186] Top shape: 128 16 32 32 (2097152)
I0927 22:03:28.619815 26041 net.cpp:186] Top shape: 128 16 32 32 (2097152)
I0927 22:03:28.619818 26041 net.cpp:194] Memory required for data: 144179712
I0927 22:03:28.619823 26041 layer_factory.hpp:77] Creating layer conv2_2_0
I0927 22:03:28.619837 26041 net.cpp:128] Creating Layer conv2_2_0
I0927 22:03:28.619843 26041 net.cpp:558] conv2_2_0 <- conv2_Eltwise_1_conv2_1ReLU_1_0_split_0
I0927 22:03:28.619851 26041 net.cpp:522] conv2_2_0 -> conv2_2_0
I0927 22:03:28.621050 26041 net.cpp:172] Setting up conv2_2_0
I0927 22:03:28.621074 26041 net.cpp:186] Top shape: 128 16 32 32 (2097152)
I0927 22:03:28.621079 26041 net.cpp:194] Memory required for data: 152568320
I0927 22:03:28.621105 26041 layer_factory.hpp:77] Creating layer conv2_2_bn0
I0927 22:03:28.621117 26041 net.cpp:128] Creating Layer conv2_2_bn0
I0927 22:03:28.621122 26041 net.cpp:558] conv2_2_bn0 <- conv2_2_0
I0927 22:03:28.621134 26041 net.cpp:509] conv2_2_bn0 -> conv2_2_0 (in-place)
I0927 22:03:28.621374 26041 net.cpp:172] Setting up conv2_2_bn0
I0927 22:03:28.621387 26041 net.cpp:186] Top shape: 128 16 32 32 (2097152)
I0927 22:03:28.621390 26041 net.cpp:194] Memory required for data: 160956928
I0927 22:03:28.621400 26041 layer_factory.hpp:77] Creating layer conv2_2_scale0
I0927 22:03:28.621407 26041 net.cpp:128] Creating Layer conv2_2_scale0
I0927 22:03:28.621412 26041 net.cpp:558] conv2_2_scale0 <- conv2_2_0
I0927 22:03:28.621417 26041 net.cpp:509] conv2_2_scale0 -> conv2_2_0 (in-place)
I0927 22:03:28.621457 26041 layer_factory.hpp:77] Creating layer conv2_2_scale0
I0927 22:03:28.621596 26041 net.cpp:172] Setting up conv2_2_scale0
I0927 22:03:28.621608 26041 net.cpp:186] Top shape: 128 16 32 32 (2097152)
I0927 22:03:28.621611 26041 net.cpp:194] Memory required for data: 169345536
I0927 22:03:28.621619 26041 layer_factory.hpp:77] Creating layer conv2_2_ReLU0
I0927 22:03:28.621625 26041 net.cpp:128] Creating Layer conv2_2_ReLU0
I0927 22:03:28.621630 26041 net.cpp:558] conv2_2_ReLU0 <- conv2_2_0
I0927 22:03:28.621639 26041 net.cpp:509] conv2_2_ReLU0 -> conv2_2_0 (in-place)
I0927 22:03:28.621867 26041 net.cpp:172] Setting up conv2_2_ReLU0
I0927 22:03:28.621882 26041 net.cpp:186] Top shape: 128 16 32 32 (2097152)
I0927 22:03:28.621886 26041 net.cpp:194] Memory required for data: 177734144
I0927 22:03:28.621891 26041 layer_factory.hpp:77] Creating layer conv2_2_1
I0927 22:03:28.621904 26041 net.cpp:128] Creating Layer conv2_2_1
I0927 22:03:28.621912 26041 net.cpp:558] conv2_2_1 <- conv2_2_0
I0927 22:03:28.621920 26041 net.cpp:522] conv2_2_1 -> conv2_2_1
I0927 22:03:28.623157 26041 net.cpp:172] Setting up conv2_2_1
I0927 22:03:28.623183 26041 net.cpp:186] Top shape: 128 16 32 32 (2097152)
I0927 22:03:28.623186 26041 net.cpp:194] Memory required for data: 186122752
I0927 22:03:28.623196 26041 layer_factory.hpp:77] Creating layer conv2_2bn1
I0927 22:03:28.623211 26041 net.cpp:128] Creating Layer conv2_2bn1
I0927 22:03:28.623219 26041 net.cpp:558] conv2_2bn1 <- conv2_2_1
I0927 22:03:28.623229 26041 net.cpp:509] conv2_2bn1 -> conv2_2_1 (in-place)
I0927 22:03:28.623464 26041 net.cpp:172] Setting up conv2_2bn1
I0927 22:03:28.623474 26041 net.cpp:186] Top shape: 128 16 32 32 (2097152)
I0927 22:03:28.623478 26041 net.cpp:194] Memory required for data: 194511360
I0927 22:03:28.623492 26041 layer_factory.hpp:77] Creating layer conv2_2_scale1
I0927 22:03:28.623500 26041 net.cpp:128] Creating Layer conv2_2_scale1
I0927 22:03:28.623504 26041 net.cpp:558] conv2_2_scale1 <- conv2_2_1
I0927 22:03:28.623512 26041 net.cpp:509] conv2_2_scale1 -> conv2_2_1 (in-place)
I0927 22:03:28.623551 26041 layer_factory.hpp:77] Creating layer conv2_2_scale1
I0927 22:03:28.623684 26041 net.cpp:172] Setting up conv2_2_scale1
I0927 22:03:28.623697 26041 net.cpp:186] Top shape: 128 16 32 32 (2097152)
I0927 22:03:28.623704 26041 net.cpp:194] Memory required for data: 202899968
I0927 22:03:28.623713 26041 layer_factory.hpp:77] Creating layer conv2_Eltwise_2
I0927 22:03:28.623719 26041 net.cpp:128] Creating Layer conv2_Eltwise_2
I0927 22:03:28.623723 26041 net.cpp:558] conv2_Eltwise_2 <- conv2_Eltwise_1_conv2_1ReLU_1_0_split_1
I0927 22:03:28.623729 26041 net.cpp:558] conv2_Eltwise_2 <- conv2_2_1
I0927 22:03:28.623735 26041 net.cpp:522] conv2_Eltwise_2 -> conv2_Eltwise_2
I0927 22:03:28.623762 26041 net.cpp:172] Setting up conv2_Eltwise_2
I0927 22:03:28.623771 26041 net.cpp:186] Top shape: 128 16 32 32 (2097152)
I0927 22:03:28.623775 26041 net.cpp:194] Memory required for data: 211288576
I0927 22:03:28.623780 26041 layer_factory.hpp:77] Creating layer conv2_2ReLU_1
I0927 22:03:28.623786 26041 net.cpp:128] Creating Layer conv2_2ReLU_1
I0927 22:03:28.623790 26041 net.cpp:558] conv2_2ReLU_1 <- conv2_Eltwise_2
I0927 22:03:28.623796 26041 net.cpp:509] conv2_2ReLU_1 -> conv2_Eltwise_2 (in-place)
I0927 22:03:28.624035 26041 net.cpp:172] Setting up conv2_2ReLU_1
I0927 22:03:28.624049 26041 net.cpp:186] Top shape: 128 16 32 32 (2097152)
I0927 22:03:28.624054 26041 net.cpp:194] Memory required for data: 219677184
I0927 22:03:28.624059 26041 layer_factory.hpp:77] Creating layer conv2_Eltwise_2_conv2_2ReLU_1_0_split
I0927 22:03:28.624069 26041 net.cpp:128] Creating Layer conv2_Eltwise_2_conv2_2ReLU_1_0_split
I0927 22:03:28.624076 26041 net.cpp:558] conv2_Eltwise_2_conv2_2ReLU_1_0_split <- conv2_Eltwise_2
I0927 22:03:28.624083 26041 net.cpp:522] conv2_Eltwise_2_conv2_2ReLU_1_0_split -> conv2_Eltwise_2_conv2_2ReLU_1_0_split_0
I0927 22:03:28.624090 26041 net.cpp:522] conv2_Eltwise_2_conv2_2ReLU_1_0_split -> conv2_Eltwise_2_conv2_2ReLU_1_0_split_1
I0927 22:03:28.624138 26041 net.cpp:172] Setting up conv2_Eltwise_2_conv2_2ReLU_1_0_split
I0927 22:03:28.624147 26041 net.cpp:186] Top shape: 128 16 32 32 (2097152)
I0927 22:03:28.624153 26041 net.cpp:186] Top shape: 128 16 32 32 (2097152)
I0927 22:03:28.624157 26041 net.cpp:194] Memory required for data: 236454400
I0927 22:03:28.624162 26041 layer_factory.hpp:77] Creating layer conv2_3_0
I0927 22:03:28.624173 26041 net.cpp:128] Creating Layer conv2_3_0
I0927 22:03:28.624181 26041 net.cpp:558] conv2_3_0 <- conv2_Eltwise_2_conv2_2ReLU_1_0_split_0
I0927 22:03:28.624191 26041 net.cpp:522] conv2_3_0 -> conv2_3_0
I0927 22:03:28.625392 26041 net.cpp:172] Setting up conv2_3_0
I0927 22:03:28.625419 26041 net.cpp:186] Top shape: 128 16 32 32 (2097152)
I0927 22:03:28.625423 26041 net.cpp:194] Memory required for data: 244843008
I0927 22:03:28.625433 26041 layer_factory.hpp:77] Creating layer conv2_3_bn0
I0927 22:03:28.625442 26041 net.cpp:128] Creating Layer conv2_3_bn0
I0927 22:03:28.625447 26041 net.cpp:558] conv2_3_bn0 <- conv2_3_0
I0927 22:03:28.625455 26041 net.cpp:509] conv2_3_bn0 -> conv2_3_0 (in-place)
I0927 22:03:28.625694 26041 net.cpp:172] Setting up conv2_3_bn0
I0927 22:03:28.625705 26041 net.cpp:186] Top shape: 128 16 32 32 (2097152)
I0927 22:03:28.625708 26041 net.cpp:194] Memory required for data: 253231616
I0927 22:03:28.625717 26041 layer_factory.hpp:77] Creating layer conv2_3_scale0
I0927 22:03:28.625725 26041 net.cpp:128] Creating Layer conv2_3_scale0
I0927 22:03:28.625730 26041 net.cpp:558] conv2_3_scale0 <- conv2_3_0
I0927 22:03:28.625736 26041 net.cpp:509] conv2_3_scale0 -> conv2_3_0 (in-place)
I0927 22:03:28.625777 26041 layer_factory.hpp:77] Creating layer conv2_3_scale0
I0927 22:03:28.625910 26041 net.cpp:172] Setting up conv2_3_scale0
I0927 22:03:28.625921 26041 net.cpp:186] Top shape: 128 16 32 32 (2097152)
I0927 22:03:28.625928 26041 net.cpp:194] Memory required for data: 261620224
I0927 22:03:28.625936 26041 layer_factory.hpp:77] Creating layer conv2_3_ReLU0
I0927 22:03:28.625942 26041 net.cpp:128] Creating Layer conv2_3_ReLU0
I0927 22:03:28.625946 26041 net.cpp:558] conv2_3_ReLU0 <- conv2_3_0
I0927 22:03:28.625952 26041 net.cpp:509] conv2_3_ReLU0 -> conv2_3_0 (in-place)
I0927 22:03:28.626365 26041 net.cpp:172] Setting up conv2_3_ReLU0
I0927 22:03:28.626386 26041 net.cpp:186] Top shape: 128 16 32 32 (2097152)
I0927 22:03:28.626391 26041 net.cpp:194] Memory required for data: 270008832
I0927 22:03:28.626396 26041 layer_factory.hpp:77] Creating layer conv2_3_1
I0927 22:03:28.626411 26041 net.cpp:128] Creating Layer conv2_3_1
I0927 22:03:28.626418 26041 net.cpp:558] conv2_3_1 <- conv2_3_0
I0927 22:03:28.626427 26041 net.cpp:522] conv2_3_1 -> conv2_3_1
I0927 22:03:28.627681 26041 net.cpp:172] Setting up conv2_3_1
I0927 22:03:28.627708 26041 net.cpp:186] Top shape: 128 16 32 32 (2097152)
I0927 22:03:28.627712 26041 net.cpp:194] Memory required for data: 278397440
I0927 22:03:28.627723 26041 layer_factory.hpp:77] Creating layer conv2_3bn1
I0927 22:03:28.627734 26041 net.cpp:128] Creating Layer conv2_3bn1
I0927 22:03:28.627743 26041 net.cpp:558] conv2_3bn1 <- conv2_3_1
I0927 22:03:28.627753 26041 net.cpp:509] conv2_3bn1 -> conv2_3_1 (in-place)
I0927 22:03:28.627990 26041 net.cpp:172] Setting up conv2_3bn1
I0927 22:03:28.628015 26041 net.cpp:186] Top shape: 128 16 32 32 (2097152)
I0927 22:03:28.628021 26041 net.cpp:194] Memory required for data: 286786048
I0927 22:03:28.628031 26041 layer_factory.hpp:77] Creating layer conv2_3_scale1
I0927 22:03:28.628042 26041 net.cpp:128] Creating Layer conv2_3_scale1
I0927 22:03:28.628046 26041 net.cpp:558] conv2_3_scale1 <- conv2_3_1
I0927 22:03:28.628052 26041 net.cpp:509] conv2_3_scale1 -> conv2_3_1 (in-place)
I0927 22:03:28.628095 26041 layer_factory.hpp:77] Creating layer conv2_3_scale1
I0927 22:03:28.628231 26041 net.cpp:172] Setting up conv2_3_scale1
I0927 22:03:28.628240 26041 net.cpp:186] Top shape: 128 16 32 32 (2097152)
I0927 22:03:28.628244 26041 net.cpp:194] Memory required for data: 295174656
I0927 22:03:28.628252 26041 layer_factory.hpp:77] Creating layer conv2_Eltwise_3
I0927 22:03:28.628259 26041 net.cpp:128] Creating Layer conv2_Eltwise_3
I0927 22:03:28.628263 26041 net.cpp:558] conv2_Eltwise_3 <- conv2_Eltwise_2_conv2_2ReLU_1_0_split_1
I0927 22:03:28.628269 26041 net.cpp:558] conv2_Eltwise_3 <- conv2_3_1
I0927 22:03:28.628278 26041 net.cpp:522] conv2_Eltwise_3 -> conv2_Eltwise_3
I0927 22:03:28.628302 26041 net.cpp:172] Setting up conv2_Eltwise_3
I0927 22:03:28.628311 26041 net.cpp:186] Top shape: 128 16 32 32 (2097152)
I0927 22:03:28.628316 26041 net.cpp:194] Memory required for data: 303563264
I0927 22:03:28.628320 26041 layer_factory.hpp:77] Creating layer conv2_3ReLU_1
I0927 22:03:28.628329 26041 net.cpp:128] Creating Layer conv2_3ReLU_1
I0927 22:03:28.628334 26041 net.cpp:558] conv2_3ReLU_1 <- conv2_Eltwise_3
I0927 22:03:28.628340 26041 net.cpp:509] conv2_3ReLU_1 -> conv2_Eltwise_3 (in-place)
I0927 22:03:28.628569 26041 net.cpp:172] Setting up conv2_3ReLU_1
I0927 22:03:28.628584 26041 net.cpp:186] Top shape: 128 16 32 32 (2097152)
I0927 22:03:28.628592 26041 net.cpp:194] Memory required for data: 311951872
I0927 22:03:28.628597 26041 layer_factory.hpp:77] Creating layer conv2_Eltwise_3_conv2_3ReLU_1_0_split
I0927 22:03:28.628603 26041 net.cpp:128] Creating Layer conv2_Eltwise_3_conv2_3ReLU_1_0_split
I0927 22:03:28.628608 26041 net.cpp:558] conv2_Eltwise_3_conv2_3ReLU_1_0_split <- conv2_Eltwise_3
I0927 22:03:28.628618 26041 net.cpp:522] conv2_Eltwise_3_conv2_3ReLU_1_0_split -> conv2_Eltwise_3_conv2_3ReLU_1_0_split_0
I0927 22:03:28.628628 26041 net.cpp:522] conv2_Eltwise_3_conv2_3ReLU_1_0_split -> conv2_Eltwise_3_conv2_3ReLU_1_0_split_1
I0927 22:03:28.628674 26041 net.cpp:172] Setting up conv2_Eltwise_3_conv2_3ReLU_1_0_split
I0927 22:03:28.628684 26041 net.cpp:186] Top shape: 128 16 32 32 (2097152)
I0927 22:03:28.628695 26041 net.cpp:186] Top shape: 128 16 32 32 (2097152)
I0927 22:03:28.628698 26041 net.cpp:194] Memory required for data: 328729088
I0927 22:03:28.628702 26041 layer_factory.hpp:77] Creating layer conv2_4_0
I0927 22:03:28.628715 26041 net.cpp:128] Creating Layer conv2_4_0
I0927 22:03:28.628721 26041 net.cpp:558] conv2_4_0 <- conv2_Eltwise_3_conv2_3ReLU_1_0_split_0
I0927 22:03:28.628732 26041 net.cpp:522] conv2_4_0 -> conv2_4_0
I0927 22:03:28.629971 26041 net.cpp:172] Setting up conv2_4_0
I0927 22:03:28.629992 26041 net.cpp:186] Top shape: 128 16 32 32 (2097152)
I0927 22:03:28.629997 26041 net.cpp:194] Memory required for data: 337117696
I0927 22:03:28.630007 26041 layer_factory.hpp:77] Creating layer conv2_4_bn0
I0927 22:03:28.630023 26041 net.cpp:128] Creating Layer conv2_4_bn0
I0927 22:03:28.630028 26041 net.cpp:558] conv2_4_bn0 <- conv2_4_0
I0927 22:03:28.630040 26041 net.cpp:509] conv2_4_bn0 -> conv2_4_0 (in-place)
I0927 22:03:28.630286 26041 net.cpp:172] Setting up conv2_4_bn0
I0927 22:03:28.630296 26041 net.cpp:186] Top shape: 128 16 32 32 (2097152)
I0927 22:03:28.630300 26041 net.cpp:194] Memory required for data: 345506304
I0927 22:03:28.630311 26041 layer_factory.hpp:77] Creating layer conv2_4_scale0
I0927 22:03:28.630316 26041 net.cpp:128] Creating Layer conv2_4_scale0
I0927 22:03:28.630321 26041 net.cpp:558] conv2_4_scale0 <- conv2_4_0
I0927 22:03:28.630327 26041 net.cpp:509] conv2_4_scale0 -> conv2_4_0 (in-place)
I0927 22:03:28.630368 26041 layer_factory.hpp:77] Creating layer conv2_4_scale0
I0927 22:03:28.630522 26041 net.cpp:172] Setting up conv2_4_scale0
I0927 22:03:28.630532 26041 net.cpp:186] Top shape: 128 16 32 32 (2097152)
I0927 22:03:28.630537 26041 net.cpp:194] Memory required for data: 353894912
I0927 22:03:28.630545 26041 layer_factory.hpp:77] Creating layer conv2_4_ReLU0
I0927 22:03:28.630551 26041 net.cpp:128] Creating Layer conv2_4_ReLU0
I0927 22:03:28.630556 26041 net.cpp:558] conv2_4_ReLU0 <- conv2_4_0
I0927 22:03:28.630564 26041 net.cpp:509] conv2_4_ReLU0 -> conv2_4_0 (in-place)
I0927 22:03:28.630805 26041 net.cpp:172] Setting up conv2_4_ReLU0
I0927 22:03:28.630827 26041 net.cpp:186] Top shape: 128 16 32 32 (2097152)
I0927 22:03:28.630832 26041 net.cpp:194] Memory required for data: 362283520
I0927 22:03:28.630837 26041 layer_factory.hpp:77] Creating layer conv2_4_1
I0927 22:03:28.630851 26041 net.cpp:128] Creating Layer conv2_4_1
I0927 22:03:28.630857 26041 net.cpp:558] conv2_4_1 <- conv2_4_0
I0927 22:03:28.630867 26041 net.cpp:522] conv2_4_1 -> conv2_4_1
I0927 22:03:28.632133 26041 net.cpp:172] Setting up conv2_4_1
I0927 22:03:28.632160 26041 net.cpp:186] Top shape: 128 16 32 32 (2097152)
I0927 22:03:28.632164 26041 net.cpp:194] Memory required for data: 370672128
I0927 22:03:28.632179 26041 layer_factory.hpp:77] Creating layer conv2_4bn1
I0927 22:03:28.632194 26041 net.cpp:128] Creating Layer conv2_4bn1
I0927 22:03:28.632200 26041 net.cpp:558] conv2_4bn1 <- conv2_4_1
I0927 22:03:28.632208 26041 net.cpp:509] conv2_4bn1 -> conv2_4_1 (in-place)
I0927 22:03:28.632452 26041 net.cpp:172] Setting up conv2_4bn1
I0927 22:03:28.632464 26041 net.cpp:186] Top shape: 128 16 32 32 (2097152)
I0927 22:03:28.632468 26041 net.cpp:194] Memory required for data: 379060736
I0927 22:03:28.632479 26041 layer_factory.hpp:77] Creating layer conv2_4_scale1
I0927 22:03:28.632488 26041 net.cpp:128] Creating Layer conv2_4_scale1
I0927 22:03:28.632493 26041 net.cpp:558] conv2_4_scale1 <- conv2_4_1
I0927 22:03:28.632498 26041 net.cpp:509] conv2_4_scale1 -> conv2_4_1 (in-place)
I0927 22:03:28.632539 26041 layer_factory.hpp:77] Creating layer conv2_4_scale1
I0927 22:03:28.632675 26041 net.cpp:172] Setting up conv2_4_scale1
I0927 22:03:28.632686 26041 net.cpp:186] Top shape: 128 16 32 32 (2097152)
I0927 22:03:28.632690 26041 net.cpp:194] Memory required for data: 387449344
I0927 22:03:28.632699 26041 layer_factory.hpp:77] Creating layer conv2_Eltwise_4
I0927 22:03:28.632707 26041 net.cpp:128] Creating Layer conv2_Eltwise_4
I0927 22:03:28.632712 26041 net.cpp:558] conv2_Eltwise_4 <- conv2_Eltwise_3_conv2_3ReLU_1_0_split_1
I0927 22:03:28.632717 26041 net.cpp:558] conv2_Eltwise_4 <- conv2_4_1
I0927 22:03:28.632724 26041 net.cpp:522] conv2_Eltwise_4 -> conv2_Eltwise_4
I0927 22:03:28.632752 26041 net.cpp:172] Setting up conv2_Eltwise_4
I0927 22:03:28.632761 26041 net.cpp:186] Top shape: 128 16 32 32 (2097152)
I0927 22:03:28.632766 26041 net.cpp:194] Memory required for data: 395837952
I0927 22:03:28.632771 26041 layer_factory.hpp:77] Creating layer conv2_4ReLU_1
I0927 22:03:28.632776 26041 net.cpp:128] Creating Layer conv2_4ReLU_1
I0927 22:03:28.632781 26041 net.cpp:558] conv2_4ReLU_1 <- conv2_Eltwise_4
I0927 22:03:28.632788 26041 net.cpp:509] conv2_4ReLU_1 -> conv2_Eltwise_4 (in-place)
I0927 22:03:28.633018 26041 net.cpp:172] Setting up conv2_4ReLU_1
I0927 22:03:28.633030 26041 net.cpp:186] Top shape: 128 16 32 32 (2097152)
I0927 22:03:28.633034 26041 net.cpp:194] Memory required for data: 404226560
I0927 22:03:28.633039 26041 layer_factory.hpp:77] Creating layer conv2_Eltwise_4_conv2_4ReLU_1_0_split
I0927 22:03:28.633046 26041 net.cpp:128] Creating Layer conv2_Eltwise_4_conv2_4ReLU_1_0_split
I0927 22:03:28.633050 26041 net.cpp:558] conv2_Eltwise_4_conv2_4ReLU_1_0_split <- conv2_Eltwise_4
I0927 22:03:28.633059 26041 net.cpp:522] conv2_Eltwise_4_conv2_4ReLU_1_0_split -> conv2_Eltwise_4_conv2_4ReLU_1_0_split_0
I0927 22:03:28.633067 26041 net.cpp:522] conv2_Eltwise_4_conv2_4ReLU_1_0_split -> conv2_Eltwise_4_conv2_4ReLU_1_0_split_1
I0927 22:03:28.633117 26041 net.cpp:172] Setting up conv2_Eltwise_4_conv2_4ReLU_1_0_split
I0927 22:03:28.633141 26041 net.cpp:186] Top shape: 128 16 32 32 (2097152)
I0927 22:03:28.633148 26041 net.cpp:186] Top shape: 128 16 32 32 (2097152)
I0927 22:03:28.633152 26041 net.cpp:194] Memory required for data: 421003776
I0927 22:03:28.633157 26041 layer_factory.hpp:77] Creating layer conv2_5_0
I0927 22:03:28.633169 26041 net.cpp:128] Creating Layer conv2_5_0
I0927 22:03:28.633177 26041 net.cpp:558] conv2_5_0 <- conv2_Eltwise_4_conv2_4ReLU_1_0_split_0
I0927 22:03:28.633190 26041 net.cpp:522] conv2_5_0 -> conv2_5_0
I0927 22:03:28.634452 26041 net.cpp:172] Setting up conv2_5_0
I0927 22:03:28.634474 26041 net.cpp:186] Top shape: 128 16 32 32 (2097152)
I0927 22:03:28.634479 26041 net.cpp:194] Memory required for data: 429392384
I0927 22:03:28.634497 26041 layer_factory.hpp:77] Creating layer conv2_5_bn0
I0927 22:03:28.634510 26041 net.cpp:128] Creating Layer conv2_5_bn0
I0927 22:03:28.634515 26041 net.cpp:558] conv2_5_bn0 <- conv2_5_0
I0927 22:03:28.634526 26041 net.cpp:509] conv2_5_bn0 -> conv2_5_0 (in-place)
I0927 22:03:28.634778 26041 net.cpp:172] Setting up conv2_5_bn0
I0927 22:03:28.634786 26041 net.cpp:186] Top shape: 128 16 32 32 (2097152)
I0927 22:03:28.634790 26041 net.cpp:194] Memory required for data: 437780992
I0927 22:03:28.634800 26041 layer_factory.hpp:77] Creating layer conv2_5_scale0
I0927 22:03:28.634826 26041 net.cpp:128] Creating Layer conv2_5_scale0
I0927 22:03:28.634832 26041 net.cpp:558] conv2_5_scale0 <- conv2_5_0
I0927 22:03:28.634840 26041 net.cpp:509] conv2_5_scale0 -> conv2_5_0 (in-place)
I0927 22:03:28.634887 26041 layer_factory.hpp:77] Creating layer conv2_5_scale0
I0927 22:03:28.635028 26041 net.cpp:172] Setting up conv2_5_scale0
I0927 22:03:28.635038 26041 net.cpp:186] Top shape: 128 16 32 32 (2097152)
I0927 22:03:28.635042 26041 net.cpp:194] Memory required for data: 446169600
I0927 22:03:28.635051 26041 layer_factory.hpp:77] Creating layer conv2_5_ReLU0
I0927 22:03:28.635061 26041 net.cpp:128] Creating Layer conv2_5_ReLU0
I0927 22:03:28.635066 26041 net.cpp:558] conv2_5_ReLU0 <- conv2_5_0
I0927 22:03:28.635073 26041 net.cpp:509] conv2_5_ReLU0 -> conv2_5_0 (in-place)
I0927 22:03:28.635500 26041 net.cpp:172] Setting up conv2_5_ReLU0
I0927 22:03:28.635521 26041 net.cpp:186] Top shape: 128 16 32 32 (2097152)
I0927 22:03:28.635526 26041 net.cpp:194] Memory required for data: 454558208
I0927 22:03:28.635531 26041 layer_factory.hpp:77] Creating layer conv2_5_1
I0927 22:03:28.635546 26041 net.cpp:128] Creating Layer conv2_5_1
I0927 22:03:28.635555 26041 net.cpp:558] conv2_5_1 <- conv2_5_0
I0927 22:03:28.635565 26041 net.cpp:522] conv2_5_1 -> conv2_5_1
I0927 22:03:28.636837 26041 net.cpp:172] Setting up conv2_5_1
I0927 22:03:28.636863 26041 net.cpp:186] Top shape: 128 16 32 32 (2097152)
I0927 22:03:28.636868 26041 net.cpp:194] Memory required for data: 462946816
I0927 22:03:28.636883 26041 layer_factory.hpp:77] Creating layer conv2_5bn1
I0927 22:03:28.636893 26041 net.cpp:128] Creating Layer conv2_5bn1
I0927 22:03:28.636901 26041 net.cpp:558] conv2_5bn1 <- conv2_5_1
I0927 22:03:28.636916 26041 net.cpp:509] conv2_5bn1 -> conv2_5_1 (in-place)
I0927 22:03:28.637168 26041 net.cpp:172] Setting up conv2_5bn1
I0927 22:03:28.637178 26041 net.cpp:186] Top shape: 128 16 32 32 (2097152)
I0927 22:03:28.637182 26041 net.cpp:194] Memory required for data: 471335424
I0927 22:03:28.637192 26041 layer_factory.hpp:77] Creating layer conv2_5_scale1
I0927 22:03:28.637202 26041 net.cpp:128] Creating Layer conv2_5_scale1
I0927 22:03:28.637207 26041 net.cpp:558] conv2_5_scale1 <- conv2_5_1
I0927 22:03:28.637212 26041 net.cpp:509] conv2_5_scale1 -> conv2_5_1 (in-place)
I0927 22:03:28.637253 26041 layer_factory.hpp:77] Creating layer conv2_5_scale1
I0927 22:03:28.637396 26041 net.cpp:172] Setting up conv2_5_scale1
I0927 22:03:28.637410 26041 net.cpp:186] Top shape: 128 16 32 32 (2097152)
I0927 22:03:28.637414 26041 net.cpp:194] Memory required for data: 479724032
I0927 22:03:28.637423 26041 layer_factory.hpp:77] Creating layer conv2_Eltwise_5
I0927 22:03:28.637429 26041 net.cpp:128] Creating Layer conv2_Eltwise_5
I0927 22:03:28.637454 26041 net.cpp:558] conv2_Eltwise_5 <- conv2_Eltwise_4_conv2_4ReLU_1_0_split_1
I0927 22:03:28.637459 26041 net.cpp:558] conv2_Eltwise_5 <- conv2_5_1
I0927 22:03:28.637466 26041 net.cpp:522] conv2_Eltwise_5 -> conv2_Eltwise_5
I0927 22:03:28.637495 26041 net.cpp:172] Setting up conv2_Eltwise_5
I0927 22:03:28.637503 26041 net.cpp:186] Top shape: 128 16 32 32 (2097152)
I0927 22:03:28.637507 26041 net.cpp:194] Memory required for data: 488112640
I0927 22:03:28.637511 26041 layer_factory.hpp:77] Creating layer conv2_5ReLU_1
I0927 22:03:28.637517 26041 net.cpp:128] Creating Layer conv2_5ReLU_1
I0927 22:03:28.637521 26041 net.cpp:558] conv2_5ReLU_1 <- conv2_Eltwise_5
I0927 22:03:28.637529 26041 net.cpp:509] conv2_5ReLU_1 -> conv2_Eltwise_5 (in-place)
I0927 22:03:28.637764 26041 net.cpp:172] Setting up conv2_5ReLU_1
I0927 22:03:28.637779 26041 net.cpp:186] Top shape: 128 16 32 32 (2097152)
I0927 22:03:28.637784 26041 net.cpp:194] Memory required for data: 496501248
I0927 22:03:28.637789 26041 layer_factory.hpp:77] Creating layer conv2_Eltwise_5_conv2_5ReLU_1_0_split
I0927 22:03:28.637796 26041 net.cpp:128] Creating Layer conv2_Eltwise_5_conv2_5ReLU_1_0_split
I0927 22:03:28.637801 26041 net.cpp:558] conv2_Eltwise_5_conv2_5ReLU_1_0_split <- conv2_Eltwise_5
I0927 22:03:28.637810 26041 net.cpp:522] conv2_Eltwise_5_conv2_5ReLU_1_0_split -> conv2_Eltwise_5_conv2_5ReLU_1_0_split_0
I0927 22:03:28.637818 26041 net.cpp:522] conv2_Eltwise_5_conv2_5ReLU_1_0_split -> conv2_Eltwise_5_conv2_5ReLU_1_0_split_1
I0927 22:03:28.637867 26041 net.cpp:172] Setting up conv2_Eltwise_5_conv2_5ReLU_1_0_split
I0927 22:03:28.637876 26041 net.cpp:186] Top shape: 128 16 32 32 (2097152)
I0927 22:03:28.637881 26041 net.cpp:186] Top shape: 128 16 32 32 (2097152)
I0927 22:03:28.637886 26041 net.cpp:194] Memory required for data: 513278464
I0927 22:03:28.637889 26041 layer_factory.hpp:77] Creating layer conv2_6_0
I0927 22:03:28.637902 26041 net.cpp:128] Creating Layer conv2_6_0
I0927 22:03:28.637907 26041 net.cpp:558] conv2_6_0 <- conv2_Eltwise_5_conv2_5ReLU_1_0_split_0
I0927 22:03:28.637917 26041 net.cpp:522] conv2_6_0 -> conv2_6_0
I0927 22:03:28.639191 26041 net.cpp:172] Setting up conv2_6_0
I0927 22:03:28.639214 26041 net.cpp:186] Top shape: 128 16 32 32 (2097152)
I0927 22:03:28.639219 26041 net.cpp:194] Memory required for data: 521667072
I0927 22:03:28.639230 26041 layer_factory.hpp:77] Creating layer conv2_6_bn0
I0927 22:03:28.639240 26041 net.cpp:128] Creating Layer conv2_6_bn0
I0927 22:03:28.639245 26041 net.cpp:558] conv2_6_bn0 <- conv2_6_0
I0927 22:03:28.639255 26041 net.cpp:509] conv2_6_bn0 -> conv2_6_0 (in-place)
I0927 22:03:28.639518 26041 net.cpp:172] Setting up conv2_6_bn0
I0927 22:03:28.639528 26041 net.cpp:186] Top shape: 128 16 32 32 (2097152)
I0927 22:03:28.639533 26041 net.cpp:194] Memory required for data: 530055680
I0927 22:03:28.639542 26041 layer_factory.hpp:77] Creating layer conv2_6_scale0
I0927 22:03:28.639549 26041 net.cpp:128] Creating Layer conv2_6_scale0
I0927 22:03:28.639554 26041 net.cpp:558] conv2_6_scale0 <- conv2_6_0
I0927 22:03:28.639559 26041 net.cpp:509] conv2_6_scale0 -> conv2_6_0 (in-place)
I0927 22:03:28.639601 26041 layer_factory.hpp:77] Creating layer conv2_6_scale0
I0927 22:03:28.639744 26041 net.cpp:172] Setting up conv2_6_scale0
I0927 22:03:28.639755 26041 net.cpp:186] Top shape: 128 16 32 32 (2097152)
I0927 22:03:28.639760 26041 net.cpp:194] Memory required for data: 538444288
I0927 22:03:28.639766 26041 layer_factory.hpp:77] Creating layer conv2_6_ReLU0
I0927 22:03:28.639773 26041 net.cpp:128] Creating Layer conv2_6_ReLU0
I0927 22:03:28.639777 26041 net.cpp:558] conv2_6_ReLU0 <- conv2_6_0
I0927 22:03:28.639787 26041 net.cpp:509] conv2_6_ReLU0 -> conv2_6_0 (in-place)
I0927 22:03:28.640020 26041 net.cpp:172] Setting up conv2_6_ReLU0
I0927 22:03:28.640033 26041 net.cpp:186] Top shape: 128 16 32 32 (2097152)
I0927 22:03:28.640038 26041 net.cpp:194] Memory required for data: 546832896
I0927 22:03:28.640043 26041 layer_factory.hpp:77] Creating layer conv2_6_1
I0927 22:03:28.640072 26041 net.cpp:128] Creating Layer conv2_6_1
I0927 22:03:28.640079 26041 net.cpp:558] conv2_6_1 <- conv2_6_0
I0927 22:03:28.640087 26041 net.cpp:522] conv2_6_1 -> conv2_6_1
I0927 22:03:28.641356 26041 net.cpp:172] Setting up conv2_6_1
I0927 22:03:28.641378 26041 net.cpp:186] Top shape: 128 16 32 32 (2097152)
I0927 22:03:28.641382 26041 net.cpp:194] Memory required for data: 555221504
I0927 22:03:28.641394 26041 layer_factory.hpp:77] Creating layer conv2_6bn1
I0927 22:03:28.641405 26041 net.cpp:128] Creating Layer conv2_6bn1
I0927 22:03:28.641410 26041 net.cpp:558] conv2_6bn1 <- conv2_6_1
I0927 22:03:28.641419 26041 net.cpp:509] conv2_6bn1 -> conv2_6_1 (in-place)
I0927 22:03:28.641675 26041 net.cpp:172] Setting up conv2_6bn1
I0927 22:03:28.641690 26041 net.cpp:186] Top shape: 128 16 32 32 (2097152)
I0927 22:03:28.641695 26041 net.cpp:194] Memory required for data: 563610112
I0927 22:03:28.641705 26041 layer_factory.hpp:77] Creating layer conv2_6_scale1
I0927 22:03:28.641714 26041 net.cpp:128] Creating Layer conv2_6_scale1
I0927 22:03:28.641719 26041 net.cpp:558] conv2_6_scale1 <- conv2_6_1
I0927 22:03:28.641724 26041 net.cpp:509] conv2_6_scale1 -> conv2_6_1 (in-place)
I0927 22:03:28.641767 26041 layer_factory.hpp:77] Creating layer conv2_6_scale1
I0927 22:03:28.641917 26041 net.cpp:172] Setting up conv2_6_scale1
I0927 22:03:28.641928 26041 net.cpp:186] Top shape: 128 16 32 32 (2097152)
I0927 22:03:28.641932 26041 net.cpp:194] Memory required for data: 571998720
I0927 22:03:28.641940 26041 layer_factory.hpp:77] Creating layer conv2_Eltwise_6
I0927 22:03:28.641949 26041 net.cpp:128] Creating Layer conv2_Eltwise_6
I0927 22:03:28.641954 26041 net.cpp:558] conv2_Eltwise_6 <- conv2_Eltwise_5_conv2_5ReLU_1_0_split_1
I0927 22:03:28.641959 26041 net.cpp:558] conv2_Eltwise_6 <- conv2_6_1
I0927 22:03:28.641965 26041 net.cpp:522] conv2_Eltwise_6 -> conv2_Eltwise_6
I0927 22:03:28.641999 26041 net.cpp:172] Setting up conv2_Eltwise_6
I0927 22:03:28.642009 26041 net.cpp:186] Top shape: 128 16 32 32 (2097152)
I0927 22:03:28.642014 26041 net.cpp:194] Memory required for data: 580387328
I0927 22:03:28.642017 26041 layer_factory.hpp:77] Creating layer conv2_6ReLU_1
I0927 22:03:28.642027 26041 net.cpp:128] Creating Layer conv2_6ReLU_1
I0927 22:03:28.642032 26041 net.cpp:558] conv2_6ReLU_1 <- conv2_Eltwise_6
I0927 22:03:28.642038 26041 net.cpp:509] conv2_6ReLU_1 -> conv2_Eltwise_6 (in-place)
I0927 22:03:28.642490 26041 net.cpp:172] Setting up conv2_6ReLU_1
I0927 22:03:28.642511 26041 net.cpp:186] Top shape: 128 16 32 32 (2097152)
I0927 22:03:28.642516 26041 net.cpp:194] Memory required for data: 588775936
I0927 22:03:28.642522 26041 layer_factory.hpp:77] Creating layer conv2_Eltwise_6_conv2_6ReLU_1_0_split
I0927 22:03:28.642532 26041 net.cpp:128] Creating Layer conv2_Eltwise_6_conv2_6ReLU_1_0_split
I0927 22:03:28.642537 26041 net.cpp:558] conv2_Eltwise_6_conv2_6ReLU_1_0_split <- conv2_Eltwise_6
I0927 22:03:28.642544 26041 net.cpp:522] conv2_Eltwise_6_conv2_6ReLU_1_0_split -> conv2_Eltwise_6_conv2_6ReLU_1_0_split_0
I0927 22:03:28.642554 26041 net.cpp:522] conv2_Eltwise_6_conv2_6ReLU_1_0_split -> conv2_Eltwise_6_conv2_6ReLU_1_0_split_1
I0927 22:03:28.642606 26041 net.cpp:172] Setting up conv2_Eltwise_6_conv2_6ReLU_1_0_split
I0927 22:03:28.642617 26041 net.cpp:186] Top shape: 128 16 32 32 (2097152)
I0927 22:03:28.642623 26041 net.cpp:186] Top shape: 128 16 32 32 (2097152)
I0927 22:03:28.642627 26041 net.cpp:194] Memory required for data: 605553152
I0927 22:03:28.642632 26041 layer_factory.hpp:77] Creating layer conv2_7_0
I0927 22:03:28.642645 26041 net.cpp:128] Creating Layer conv2_7_0
I0927 22:03:28.642650 26041 net.cpp:558] conv2_7_0 <- conv2_Eltwise_6_conv2_6ReLU_1_0_split_0
I0927 22:03:28.642657 26041 net.cpp:522] conv2_7_0 -> conv2_7_0
I0927 22:03:28.643946 26041 net.cpp:172] Setting up conv2_7_0
I0927 22:03:28.643973 26041 net.cpp:186] Top shape: 128 16 32 32 (2097152)
I0927 22:03:28.643978 26041 net.cpp:194] Memory required for data: 613941760
I0927 22:03:28.643991 26041 layer_factory.hpp:77] Creating layer conv2_7_bn0
I0927 22:03:28.644021 26041 net.cpp:128] Creating Layer conv2_7_bn0
I0927 22:03:28.644028 26041 net.cpp:558] conv2_7_bn0 <- conv2_7_0
I0927 22:03:28.644037 26041 net.cpp:509] conv2_7_bn0 -> conv2_7_0 (in-place)
I0927 22:03:28.644299 26041 net.cpp:172] Setting up conv2_7_bn0
I0927 22:03:28.644309 26041 net.cpp:186] Top shape: 128 16 32 32 (2097152)
I0927 22:03:28.644313 26041 net.cpp:194] Memory required for data: 622330368
I0927 22:03:28.644323 26041 layer_factory.hpp:77] Creating layer conv2_7_scale0
I0927 22:03:28.644332 26041 net.cpp:128] Creating Layer conv2_7_scale0
I0927 22:03:28.644337 26041 net.cpp:558] conv2_7_scale0 <- conv2_7_0
I0927 22:03:28.644345 26041 net.cpp:509] conv2_7_scale0 -> conv2_7_0 (in-place)
I0927 22:03:28.644384 26041 layer_factory.hpp:77] Creating layer conv2_7_scale0
I0927 22:03:28.644527 26041 net.cpp:172] Setting up conv2_7_scale0
I0927 22:03:28.644538 26041 net.cpp:186] Top shape: 128 16 32 32 (2097152)
I0927 22:03:28.644546 26041 net.cpp:194] Memory required for data: 630718976
I0927 22:03:28.644556 26041 layer_factory.hpp:77] Creating layer conv2_7_ReLU0
I0927 22:03:28.644562 26041 net.cpp:128] Creating Layer conv2_7_ReLU0
I0927 22:03:28.644567 26041 net.cpp:558] conv2_7_ReLU0 <- conv2_7_0
I0927 22:03:28.644572 26041 net.cpp:509] conv2_7_ReLU0 -> conv2_7_0 (in-place)
I0927 22:03:28.644810 26041 net.cpp:172] Setting up conv2_7_ReLU0
I0927 22:03:28.644825 26041 net.cpp:186] Top shape: 128 16 32 32 (2097152)
I0927 22:03:28.644832 26041 net.cpp:194] Memory required for data: 639107584
I0927 22:03:28.644837 26041 layer_factory.hpp:77] Creating layer conv2_7_1
I0927 22:03:28.644850 26041 net.cpp:128] Creating Layer conv2_7_1
I0927 22:03:28.644857 26041 net.cpp:558] conv2_7_1 <- conv2_7_0
I0927 22:03:28.644866 26041 net.cpp:522] conv2_7_1 -> conv2_7_1
I0927 22:03:28.646134 26041 net.cpp:172] Setting up conv2_7_1
I0927 22:03:28.646160 26041 net.cpp:186] Top shape: 128 16 32 32 (2097152)
I0927 22:03:28.646165 26041 net.cpp:194] Memory required for data: 647496192
I0927 22:03:28.646175 26041 layer_factory.hpp:77] Creating layer conv2_7bn1
I0927 22:03:28.646186 26041 net.cpp:128] Creating Layer conv2_7bn1
I0927 22:03:28.646194 26041 net.cpp:558] conv2_7bn1 <- conv2_7_1
I0927 22:03:28.646203 26041 net.cpp:509] conv2_7bn1 -> conv2_7_1 (in-place)
I0927 22:03:28.646461 26041 net.cpp:172] Setting up conv2_7bn1
I0927 22:03:28.646471 26041 net.cpp:186] Top shape: 128 16 32 32 (2097152)
I0927 22:03:28.646474 26041 net.cpp:194] Memory required for data: 655884800
I0927 22:03:28.646484 26041 layer_factory.hpp:77] Creating layer conv2_7_scale1
I0927 22:03:28.646492 26041 net.cpp:128] Creating Layer conv2_7_scale1
I0927 22:03:28.646498 26041 net.cpp:558] conv2_7_scale1 <- conv2_7_1
I0927 22:03:28.646504 26041 net.cpp:509] conv2_7_scale1 -> conv2_7_1 (in-place)
I0927 22:03:28.646546 26041 layer_factory.hpp:77] Creating layer conv2_7_scale1
I0927 22:03:28.646692 26041 net.cpp:172] Setting up conv2_7_scale1
I0927 22:03:28.646701 26041 net.cpp:186] Top shape: 128 16 32 32 (2097152)
I0927 22:03:28.646705 26041 net.cpp:194] Memory required for data: 664273408
I0927 22:03:28.646713 26041 layer_factory.hpp:77] Creating layer conv2_Eltwise_7
I0927 22:03:28.646720 26041 net.cpp:128] Creating Layer conv2_Eltwise_7
I0927 22:03:28.646724 26041 net.cpp:558] conv2_Eltwise_7 <- conv2_Eltwise_6_conv2_6ReLU_1_0_split_1
I0927 22:03:28.646730 26041 net.cpp:558] conv2_Eltwise_7 <- conv2_7_1
I0927 22:03:28.646739 26041 net.cpp:522] conv2_Eltwise_7 -> conv2_Eltwise_7
I0927 22:03:28.646765 26041 net.cpp:172] Setting up conv2_Eltwise_7
I0927 22:03:28.646775 26041 net.cpp:186] Top shape: 128 16 32 32 (2097152)
I0927 22:03:28.646778 26041 net.cpp:194] Memory required for data: 672662016
I0927 22:03:28.646782 26041 layer_factory.hpp:77] Creating layer conv2_7ReLU_1
I0927 22:03:28.646791 26041 net.cpp:128] Creating Layer conv2_7ReLU_1
I0927 22:03:28.646797 26041 net.cpp:558] conv2_7ReLU_1 <- conv2_Eltwise_7
I0927 22:03:28.646806 26041 net.cpp:509] conv2_7ReLU_1 -> conv2_Eltwise_7 (in-place)
I0927 22:03:28.647059 26041 net.cpp:172] Setting up conv2_7ReLU_1
I0927 22:03:28.647089 26041 net.cpp:186] Top shape: 128 16 32 32 (2097152)
I0927 22:03:28.647095 26041 net.cpp:194] Memory required for data: 681050624
I0927 22:03:28.647100 26041 layer_factory.hpp:77] Creating layer conv2_Eltwise_7_conv2_7ReLU_1_0_split
I0927 22:03:28.647110 26041 net.cpp:128] Creating Layer conv2_Eltwise_7_conv2_7ReLU_1_0_split
I0927 22:03:28.647117 26041 net.cpp:558] conv2_Eltwise_7_conv2_7ReLU_1_0_split <- conv2_Eltwise_7
I0927 22:03:28.647126 26041 net.cpp:522] conv2_Eltwise_7_conv2_7ReLU_1_0_split -> conv2_Eltwise_7_conv2_7ReLU_1_0_split_0
I0927 22:03:28.647135 26041 net.cpp:522] conv2_Eltwise_7_conv2_7ReLU_1_0_split -> conv2_Eltwise_7_conv2_7ReLU_1_0_split_1
I0927 22:03:28.647189 26041 net.cpp:172] Setting up conv2_Eltwise_7_conv2_7ReLU_1_0_split
I0927 22:03:28.647200 26041 net.cpp:186] Top shape: 128 16 32 32 (2097152)
I0927 22:03:28.647207 26041 net.cpp:186] Top shape: 128 16 32 32 (2097152)
I0927 22:03:28.647210 26041 net.cpp:194] Memory required for data: 697827840
I0927 22:03:28.647215 26041 layer_factory.hpp:77] Creating layer conv3_1_0
I0927 22:03:28.647228 26041 net.cpp:128] Creating Layer conv3_1_0
I0927 22:03:28.647233 26041 net.cpp:558] conv3_1_0 <- conv2_Eltwise_7_conv2_7ReLU_1_0_split_0
I0927 22:03:28.647243 26041 net.cpp:522] conv3_1_0 -> conv3_1_0
I0927 22:03:28.650230 26041 net.cpp:172] Setting up conv3_1_0
I0927 22:03:28.650259 26041 net.cpp:186] Top shape: 128 32 16 16 (1048576)
I0927 22:03:28.650264 26041 net.cpp:194] Memory required for data: 702022144
I0927 22:03:28.650279 26041 layer_factory.hpp:77] Creating layer conv3_1_bn0
I0927 22:03:28.650300 26041 net.cpp:128] Creating Layer conv3_1_bn0
I0927 22:03:28.650308 26041 net.cpp:558] conv3_1_bn0 <- conv3_1_0
I0927 22:03:28.650315 26041 net.cpp:509] conv3_1_bn0 -> conv3_1_0 (in-place)
I0927 22:03:28.650574 26041 net.cpp:172] Setting up conv3_1_bn0
I0927 22:03:28.650584 26041 net.cpp:186] Top shape: 128 32 16 16 (1048576)
I0927 22:03:28.650588 26041 net.cpp:194] Memory required for data: 706216448
I0927 22:03:28.650599 26041 layer_factory.hpp:77] Creating layer conv3_1_scale0
I0927 22:03:28.650610 26041 net.cpp:128] Creating Layer conv3_1_scale0
I0927 22:03:28.650615 26041 net.cpp:558] conv3_1_scale0 <- conv3_1_0
I0927 22:03:28.650621 26041 net.cpp:509] conv3_1_scale0 -> conv3_1_0 (in-place)
I0927 22:03:28.650663 26041 layer_factory.hpp:77] Creating layer conv3_1_scale0
I0927 22:03:28.650833 26041 net.cpp:172] Setting up conv3_1_scale0
I0927 22:03:28.650846 26041 net.cpp:186] Top shape: 128 32 16 16 (1048576)
I0927 22:03:28.650849 26041 net.cpp:194] Memory required for data: 710410752
I0927 22:03:28.650857 26041 layer_factory.hpp:77] Creating layer conv3_1_ReLU0
I0927 22:03:28.650866 26041 net.cpp:128] Creating Layer conv3_1_ReLU0
I0927 22:03:28.650871 26041 net.cpp:558] conv3_1_ReLU0 <- conv3_1_0
I0927 22:03:28.650876 26041 net.cpp:509] conv3_1_ReLU0 -> conv3_1_0 (in-place)
I0927 22:03:28.651304 26041 net.cpp:172] Setting up conv3_1_ReLU0
I0927 22:03:28.651329 26041 net.cpp:186] Top shape: 128 32 16 16 (1048576)
I0927 22:03:28.651335 26041 net.cpp:194] Memory required for data: 714605056
I0927 22:03:28.651340 26041 layer_factory.hpp:77] Creating layer conv3_1_1
I0927 22:03:28.651353 26041 net.cpp:128] Creating Layer conv3_1_1
I0927 22:03:28.651358 26041 net.cpp:558] conv3_1_1 <- conv3_1_0
I0927 22:03:28.651366 26041 net.cpp:522] conv3_1_1 -> conv3_1_1
I0927 22:03:28.652745 26041 net.cpp:172] Setting up conv3_1_1
I0927 22:03:28.652771 26041 net.cpp:186] Top shape: 128 32 16 16 (1048576)
I0927 22:03:28.652776 26041 net.cpp:194] Memory required for data: 718799360
I0927 22:03:28.652786 26041 layer_factory.hpp:77] Creating layer conv3_1bn1
I0927 22:03:28.652797 26041 net.cpp:128] Creating Layer conv3_1bn1
I0927 22:03:28.652802 26041 net.cpp:558] conv3_1bn1 <- conv3_1_1
I0927 22:03:28.652812 26041 net.cpp:509] conv3_1bn1 -> conv3_1_1 (in-place)
I0927 22:03:28.653070 26041 net.cpp:172] Setting up conv3_1bn1
I0927 22:03:28.653080 26041 net.cpp:186] Top shape: 128 32 16 16 (1048576)
I0927 22:03:28.653085 26041 net.cpp:194] Memory required for data: 722993664
I0927 22:03:28.653112 26041 layer_factory.hpp:77] Creating layer conv3_1_scale1
I0927 22:03:28.653120 26041 net.cpp:128] Creating Layer conv3_1_scale1
I0927 22:03:28.653125 26041 net.cpp:558] conv3_1_scale1 <- conv3_1_1
I0927 22:03:28.653131 26041 net.cpp:509] conv3_1_scale1 -> conv3_1_1 (in-place)
I0927 22:03:28.653174 26041 layer_factory.hpp:77] Creating layer conv3_1_scale1
I0927 22:03:28.653326 26041 net.cpp:172] Setting up conv3_1_scale1
I0927 22:03:28.653337 26041 net.cpp:186] Top shape: 128 32 16 16 (1048576)
I0927 22:03:28.653340 26041 net.cpp:194] Memory required for data: 727187968
I0927 22:03:28.653348 26041 layer_factory.hpp:77] Creating layer conv3_1_down
I0927 22:03:28.653359 26041 net.cpp:128] Creating Layer conv3_1_down
I0927 22:03:28.653365 26041 net.cpp:558] conv3_1_down <- conv2_Eltwise_7_conv2_7ReLU_1_0_split_1
I0927 22:03:28.653374 26041 net.cpp:522] conv3_1_down -> conv3_1_down
I0927 22:03:28.654629 26041 net.cpp:172] Setting up conv3_1_down
I0927 22:03:28.654656 26041 net.cpp:186] Top shape: 128 32 16 16 (1048576)
I0927 22:03:28.654660 26041 net.cpp:194] Memory required for data: 731382272
I0927 22:03:28.654670 26041 layer_factory.hpp:77] Creating layer conv3_1_bn_down
I0927 22:03:28.654682 26041 net.cpp:128] Creating Layer conv3_1_bn_down
I0927 22:03:28.654688 26041 net.cpp:558] conv3_1_bn_down <- conv3_1_down
I0927 22:03:28.654698 26041 net.cpp:509] conv3_1_bn_down -> conv3_1_down (in-place)
I0927 22:03:28.654989 26041 net.cpp:172] Setting up conv3_1_bn_down
I0927 22:03:28.655004 26041 net.cpp:186] Top shape: 128 32 16 16 (1048576)
I0927 22:03:28.655007 26041 net.cpp:194] Memory required for data: 735576576
I0927 22:03:28.655019 26041 layer_factory.hpp:77] Creating layer conv3_1_scale_down
I0927 22:03:28.655028 26041 net.cpp:128] Creating Layer conv3_1_scale_down
I0927 22:03:28.655033 26041 net.cpp:558] conv3_1_scale_down <- conv3_1_down
I0927 22:03:28.655040 26041 net.cpp:509] conv3_1_scale_down -> conv3_1_down (in-place)
I0927 22:03:28.655083 26041 layer_factory.hpp:77] Creating layer conv3_1_scale_down
I0927 22:03:28.655233 26041 net.cpp:172] Setting up conv3_1_scale_down
I0927 22:03:28.655243 26041 net.cpp:186] Top shape: 128 32 16 16 (1048576)
I0927 22:03:28.655248 26041 net.cpp:194] Memory required for data: 739770880
I0927 22:03:28.655256 26041 layer_factory.hpp:77] Creating layer conv3_Eltwise_1
I0927 22:03:28.655266 26041 net.cpp:128] Creating Layer conv3_Eltwise_1
I0927 22:03:28.655270 26041 net.cpp:558] conv3_Eltwise_1 <- conv3_1_1
I0927 22:03:28.655275 26041 net.cpp:558] conv3_Eltwise_1 <- conv3_1_down
I0927 22:03:28.655282 26041 net.cpp:522] conv3_Eltwise_1 -> conv3_Eltwise_1
I0927 22:03:28.655305 26041 net.cpp:172] Setting up conv3_Eltwise_1
I0927 22:03:28.655313 26041 net.cpp:186] Top shape: 128 32 16 16 (1048576)
I0927 22:03:28.655316 26041 net.cpp:194] Memory required for data: 743965184
I0927 22:03:28.655320 26041 layer_factory.hpp:77] Creating layer conv3_1ReLU_1
I0927 22:03:28.655326 26041 net.cpp:128] Creating Layer conv3_1ReLU_1
I0927 22:03:28.655331 26041 net.cpp:558] conv3_1ReLU_1 <- conv3_Eltwise_1
I0927 22:03:28.655339 26041 net.cpp:509] conv3_1ReLU_1 -> conv3_Eltwise_1 (in-place)
I0927 22:03:28.655570 26041 net.cpp:172] Setting up conv3_1ReLU_1
I0927 22:03:28.655583 26041 net.cpp:186] Top shape: 128 32 16 16 (1048576)
I0927 22:03:28.655587 26041 net.cpp:194] Memory required for data: 748159488
I0927 22:03:28.655592 26041 layer_factory.hpp:77] Creating layer conv3_Eltwise_1_conv3_1ReLU_1_0_split
I0927 22:03:28.655599 26041 net.cpp:128] Creating Layer conv3_Eltwise_1_conv3_1ReLU_1_0_split
I0927 22:03:28.655604 26041 net.cpp:558] conv3_Eltwise_1_conv3_1ReLU_1_0_split <- conv3_Eltwise_1
I0927 22:03:28.655613 26041 net.cpp:522] conv3_Eltwise_1_conv3_1ReLU_1_0_split -> conv3_Eltwise_1_conv3_1ReLU_1_0_split_0
I0927 22:03:28.655622 26041 net.cpp:522] conv3_Eltwise_1_conv3_1ReLU_1_0_split -> conv3_Eltwise_1_conv3_1ReLU_1_0_split_1
I0927 22:03:28.655671 26041 net.cpp:172] Setting up conv3_Eltwise_1_conv3_1ReLU_1_0_split
I0927 22:03:28.655679 26041 net.cpp:186] Top shape: 128 32 16 16 (1048576)
I0927 22:03:28.655702 26041 net.cpp:186] Top shape: 128 32 16 16 (1048576)
I0927 22:03:28.655706 26041 net.cpp:194] Memory required for data: 756548096
I0927 22:03:28.655711 26041 layer_factory.hpp:77] Creating layer conv3_2_0
I0927 22:03:28.655724 26041 net.cpp:128] Creating Layer conv3_2_0
I0927 22:03:28.655728 26041 net.cpp:558] conv3_2_0 <- conv3_Eltwise_1_conv3_1ReLU_1_0_split_0
I0927 22:03:28.655737 26041 net.cpp:522] conv3_2_0 -> conv3_2_0
I0927 22:03:28.657143 26041 net.cpp:172] Setting up conv3_2_0
I0927 22:03:28.657169 26041 net.cpp:186] Top shape: 128 32 16 16 (1048576)
I0927 22:03:28.657174 26041 net.cpp:194] Memory required for data: 760742400
I0927 22:03:28.657184 26041 layer_factory.hpp:77] Creating layer conv3_2_bn0
I0927 22:03:28.657196 26041 net.cpp:128] Creating Layer conv3_2_bn0
I0927 22:03:28.657200 26041 net.cpp:558] conv3_2_bn0 <- conv3_2_0
I0927 22:03:28.657207 26041 net.cpp:509] conv3_2_bn0 -> conv3_2_0 (in-place)
I0927 22:03:28.657461 26041 net.cpp:172] Setting up conv3_2_bn0
I0927 22:03:28.657472 26041 net.cpp:186] Top shape: 128 32 16 16 (1048576)
I0927 22:03:28.657477 26041 net.cpp:194] Memory required for data: 764936704
I0927 22:03:28.657501 26041 layer_factory.hpp:77] Creating layer conv3_2_scale0
I0927 22:03:28.657510 26041 net.cpp:128] Creating Layer conv3_2_scale0
I0927 22:03:28.657515 26041 net.cpp:558] conv3_2_scale0 <- conv3_2_0
I0927 22:03:28.657522 26041 net.cpp:509] conv3_2_scale0 -> conv3_2_0 (in-place)
I0927 22:03:28.657563 26041 layer_factory.hpp:77] Creating layer conv3_2_scale0
I0927 22:03:28.657711 26041 net.cpp:172] Setting up conv3_2_scale0
I0927 22:03:28.657723 26041 net.cpp:186] Top shape: 128 32 16 16 (1048576)
I0927 22:03:28.657728 26041 net.cpp:194] Memory required for data: 769131008
I0927 22:03:28.657737 26041 layer_factory.hpp:77] Creating layer conv3_2_ReLU0
I0927 22:03:28.657742 26041 net.cpp:128] Creating Layer conv3_2_ReLU0
I0927 22:03:28.657747 26041 net.cpp:558] conv3_2_ReLU0 <- conv3_2_0
I0927 22:03:28.657752 26041 net.cpp:509] conv3_2_ReLU0 -> conv3_2_0 (in-place)
I0927 22:03:28.657985 26041 net.cpp:172] Setting up conv3_2_ReLU0
I0927 22:03:28.658001 26041 net.cpp:186] Top shape: 128 32 16 16 (1048576)
I0927 22:03:28.658006 26041 net.cpp:194] Memory required for data: 773325312
I0927 22:03:28.658010 26041 layer_factory.hpp:77] Creating layer conv3_2_1
I0927 22:03:28.658023 26041 net.cpp:128] Creating Layer conv3_2_1
I0927 22:03:28.658028 26041 net.cpp:558] conv3_2_1 <- conv3_2_0
I0927 22:03:28.658035 26041 net.cpp:522] conv3_2_1 -> conv3_2_1
I0927 22:03:28.659436 26041 net.cpp:172] Setting up conv3_2_1
I0927 22:03:28.659463 26041 net.cpp:186] Top shape: 128 32 16 16 (1048576)
I0927 22:03:28.659468 26041 net.cpp:194] Memory required for data: 777519616
I0927 22:03:28.659478 26041 layer_factory.hpp:77] Creating layer conv3_2bn1
I0927 22:03:28.659489 26041 net.cpp:128] Creating Layer conv3_2bn1
I0927 22:03:28.659494 26041 net.cpp:558] conv3_2bn1 <- conv3_2_1
I0927 22:03:28.659505 26041 net.cpp:509] conv3_2bn1 -> conv3_2_1 (in-place)
I0927 22:03:28.659768 26041 net.cpp:172] Setting up conv3_2bn1
I0927 22:03:28.659780 26041 net.cpp:186] Top shape: 128 32 16 16 (1048576)
I0927 22:03:28.659785 26041 net.cpp:194] Memory required for data: 781713920
I0927 22:03:28.659793 26041 layer_factory.hpp:77] Creating layer conv3_2_scale1
I0927 22:03:28.659801 26041 net.cpp:128] Creating Layer conv3_2_scale1
I0927 22:03:28.659806 26041 net.cpp:558] conv3_2_scale1 <- conv3_2_1
I0927 22:03:28.659811 26041 net.cpp:509] conv3_2_scale1 -> conv3_2_1 (in-place)
I0927 22:03:28.659852 26041 layer_factory.hpp:77] Creating layer conv3_2_scale1
I0927 22:03:28.660004 26041 net.cpp:172] Setting up conv3_2_scale1
I0927 22:03:28.660017 26041 net.cpp:186] Top shape: 128 32 16 16 (1048576)
I0927 22:03:28.660020 26041 net.cpp:194] Memory required for data: 785908224
I0927 22:03:28.660028 26041 layer_factory.hpp:77] Creating layer conv3_Eltwise_2
I0927 22:03:28.660035 26041 net.cpp:128] Creating Layer conv3_Eltwise_2
I0927 22:03:28.660040 26041 net.cpp:558] conv3_Eltwise_2 <- conv3_Eltwise_1_conv3_1ReLU_1_0_split_1
I0927 22:03:28.660061 26041 net.cpp:558] conv3_Eltwise_2 <- conv3_2_1
I0927 22:03:28.660071 26041 net.cpp:522] conv3_Eltwise_2 -> conv3_Eltwise_2
I0927 22:03:28.660095 26041 net.cpp:172] Setting up conv3_Eltwise_2
I0927 22:03:28.660102 26041 net.cpp:186] Top shape: 128 32 16 16 (1048576)
I0927 22:03:28.660106 26041 net.cpp:194] Memory required for data: 790102528
I0927 22:03:28.660110 26041 layer_factory.hpp:77] Creating layer conv3_2ReLU_1
I0927 22:03:28.660117 26041 net.cpp:128] Creating Layer conv3_2ReLU_1
I0927 22:03:28.660121 26041 net.cpp:558] conv3_2ReLU_1 <- conv3_Eltwise_2
I0927 22:03:28.660130 26041 net.cpp:509] conv3_2ReLU_1 -> conv3_Eltwise_2 (in-place)
I0927 22:03:28.660354 26041 net.cpp:172] Setting up conv3_2ReLU_1
I0927 22:03:28.660368 26041 net.cpp:186] Top shape: 128 32 16 16 (1048576)
I0927 22:03:28.660373 26041 net.cpp:194] Memory required for data: 794296832
I0927 22:03:28.660377 26041 layer_factory.hpp:77] Creating layer conv3_Eltwise_2_conv3_2ReLU_1_0_split
I0927 22:03:28.660387 26041 net.cpp:128] Creating Layer conv3_Eltwise_2_conv3_2ReLU_1_0_split
I0927 22:03:28.660392 26041 net.cpp:558] conv3_Eltwise_2_conv3_2ReLU_1_0_split <- conv3_Eltwise_2
I0927 22:03:28.660398 26041 net.cpp:522] conv3_Eltwise_2_conv3_2ReLU_1_0_split -> conv3_Eltwise_2_conv3_2ReLU_1_0_split_0
I0927 22:03:28.660408 26041 net.cpp:522] conv3_Eltwise_2_conv3_2ReLU_1_0_split -> conv3_Eltwise_2_conv3_2ReLU_1_0_split_1
I0927 22:03:28.660460 26041 net.cpp:172] Setting up conv3_Eltwise_2_conv3_2ReLU_1_0_split
I0927 22:03:28.660470 26041 net.cpp:186] Top shape: 128 32 16 16 (1048576)
I0927 22:03:28.660476 26041 net.cpp:186] Top shape: 128 32 16 16 (1048576)
I0927 22:03:28.660480 26041 net.cpp:194] Memory required for data: 802685440
I0927 22:03:28.660485 26041 layer_factory.hpp:77] Creating layer conv3_3_0
I0927 22:03:28.660498 26041 net.cpp:128] Creating Layer conv3_3_0
I0927 22:03:28.660503 26041 net.cpp:558] conv3_3_0 <- conv3_Eltwise_2_conv3_2ReLU_1_0_split_0
I0927 22:03:28.660512 26041 net.cpp:522] conv3_3_0 -> conv3_3_0
I0927 22:03:28.662082 26041 net.cpp:172] Setting up conv3_3_0
I0927 22:03:28.662109 26041 net.cpp:186] Top shape: 128 32 16 16 (1048576)
I0927 22:03:28.662114 26041 net.cpp:194] Memory required for data: 806879744
I0927 22:03:28.662124 26041 layer_factory.hpp:77] Creating layer conv3_3_bn0
I0927 22:03:28.662135 26041 net.cpp:128] Creating Layer conv3_3_bn0
I0927 22:03:28.662140 26041 net.cpp:558] conv3_3_bn0 <- conv3_3_0
I0927 22:03:28.662153 26041 net.cpp:509] conv3_3_bn0 -> conv3_3_0 (in-place)
I0927 22:03:28.662428 26041 net.cpp:172] Setting up conv3_3_bn0
I0927 22:03:28.662439 26041 net.cpp:186] Top shape: 128 32 16 16 (1048576)
I0927 22:03:28.662443 26041 net.cpp:194] Memory required for data: 811074048
I0927 22:03:28.662453 26041 layer_factory.hpp:77] Creating layer conv3_3_scale0
I0927 22:03:28.662464 26041 net.cpp:128] Creating Layer conv3_3_scale0
I0927 22:03:28.662468 26041 net.cpp:558] conv3_3_scale0 <- conv3_3_0
I0927 22:03:28.662474 26041 net.cpp:509] conv3_3_scale0 -> conv3_3_0 (in-place)
I0927 22:03:28.662514 26041 layer_factory.hpp:77] Creating layer conv3_3_scale0
I0927 22:03:28.662664 26041 net.cpp:172] Setting up conv3_3_scale0
I0927 22:03:28.662675 26041 net.cpp:186] Top shape: 128 32 16 16 (1048576)
I0927 22:03:28.662680 26041 net.cpp:194] Memory required for data: 815268352
I0927 22:03:28.662688 26041 layer_factory.hpp:77] Creating layer conv3_3_ReLU0
I0927 22:03:28.662694 26041 net.cpp:128] Creating Layer conv3_3_ReLU0
I0927 22:03:28.662698 26041 net.cpp:558] conv3_3_ReLU0 <- conv3_3_0
I0927 22:03:28.662706 26041 net.cpp:509] conv3_3_ReLU0 -> conv3_3_0 (in-place)
I0927 22:03:28.663152 26041 net.cpp:172] Setting up conv3_3_ReLU0
I0927 22:03:28.663174 26041 net.cpp:186] Top shape: 128 32 16 16 (1048576)
I0927 22:03:28.663179 26041 net.cpp:194] Memory required for data: 819462656
I0927 22:03:28.663184 26041 layer_factory.hpp:77] Creating layer conv3_3_1
I0927 22:03:28.663198 26041 net.cpp:128] Creating Layer conv3_3_1
I0927 22:03:28.663218 26041 net.cpp:558] conv3_3_1 <- conv3_3_0
I0927 22:03:28.663229 26041 net.cpp:522] conv3_3_1 -> conv3_3_1
I0927 22:03:28.664618 26041 net.cpp:172] Setting up conv3_3_1
I0927 22:03:28.664645 26041 net.cpp:186] Top shape: 128 32 16 16 (1048576)
I0927 22:03:28.664649 26041 net.cpp:194] Memory required for data: 823656960
I0927 22:03:28.664659 26041 layer_factory.hpp:77] Creating layer conv3_3bn1
I0927 22:03:28.664671 26041 net.cpp:128] Creating Layer conv3_3bn1
I0927 22:03:28.664676 26041 net.cpp:558] conv3_3bn1 <- conv3_3_1
I0927 22:03:28.664690 26041 net.cpp:509] conv3_3bn1 -> conv3_3_1 (in-place)
I0927 22:03:28.664947 26041 net.cpp:172] Setting up conv3_3bn1
I0927 22:03:28.664958 26041 net.cpp:186] Top shape: 128 32 16 16 (1048576)
I0927 22:03:28.664963 26041 net.cpp:194] Memory required for data: 827851264
I0927 22:03:28.664973 26041 layer_factory.hpp:77] Creating layer conv3_3_scale1
I0927 22:03:28.664980 26041 net.cpp:128] Creating Layer conv3_3_scale1
I0927 22:03:28.664985 26041 net.cpp:558] conv3_3_scale1 <- conv3_3_1
I0927 22:03:28.664991 26041 net.cpp:509] conv3_3_scale1 -> conv3_3_1 (in-place)
I0927 22:03:28.665033 26041 layer_factory.hpp:77] Creating layer conv3_3_scale1
I0927 22:03:28.665189 26041 net.cpp:172] Setting up conv3_3_scale1
I0927 22:03:28.665199 26041 net.cpp:186] Top shape: 128 32 16 16 (1048576)
I0927 22:03:28.665205 26041 net.cpp:194] Memory required for data: 832045568
I0927 22:03:28.665212 26041 layer_factory.hpp:77] Creating layer conv3_Eltwise_3
I0927 22:03:28.665222 26041 net.cpp:128] Creating Layer conv3_Eltwise_3
I0927 22:03:28.665227 26041 net.cpp:558] conv3_Eltwise_3 <- conv3_Eltwise_2_conv3_2ReLU_1_0_split_1
I0927 22:03:28.665233 26041 net.cpp:558] conv3_Eltwise_3 <- conv3_3_1
I0927 22:03:28.665240 26041 net.cpp:522] conv3_Eltwise_3 -> conv3_Eltwise_3
I0927 22:03:28.665264 26041 net.cpp:172] Setting up conv3_Eltwise_3
I0927 22:03:28.665271 26041 net.cpp:186] Top shape: 128 32 16 16 (1048576)
I0927 22:03:28.665275 26041 net.cpp:194] Memory required for data: 836239872
I0927 22:03:28.665279 26041 layer_factory.hpp:77] Creating layer conv3_3ReLU_1
I0927 22:03:28.665285 26041 net.cpp:128] Creating Layer conv3_3ReLU_1
I0927 22:03:28.665289 26041 net.cpp:558] conv3_3ReLU_1 <- conv3_Eltwise_3
I0927 22:03:28.665297 26041 net.cpp:509] conv3_3ReLU_1 -> conv3_Eltwise_3 (in-place)
I0927 22:03:28.665527 26041 net.cpp:172] Setting up conv3_3ReLU_1
I0927 22:03:28.665541 26041 net.cpp:186] Top shape: 128 32 16 16 (1048576)
I0927 22:03:28.665545 26041 net.cpp:194] Memory required for data: 840434176
I0927 22:03:28.665550 26041 layer_factory.hpp:77] Creating layer conv3_Eltwise_3_conv3_3ReLU_1_0_split
I0927 22:03:28.665557 26041 net.cpp:128] Creating Layer conv3_Eltwise_3_conv3_3ReLU_1_0_split
I0927 22:03:28.665561 26041 net.cpp:558] conv3_Eltwise_3_conv3_3ReLU_1_0_split <- conv3_Eltwise_3
I0927 22:03:28.665570 26041 net.cpp:522] conv3_Eltwise_3_conv3_3ReLU_1_0_split -> conv3_Eltwise_3_conv3_3ReLU_1_0_split_0
I0927 22:03:28.665578 26041 net.cpp:522] conv3_Eltwise_3_conv3_3ReLU_1_0_split -> conv3_Eltwise_3_conv3_3ReLU_1_0_split_1
I0927 22:03:28.665629 26041 net.cpp:172] Setting up conv3_Eltwise_3_conv3_3ReLU_1_0_split
I0927 22:03:28.665640 26041 net.cpp:186] Top shape: 128 32 16 16 (1048576)
I0927 22:03:28.665647 26041 net.cpp:186] Top shape: 128 32 16 16 (1048576)
I0927 22:03:28.665650 26041 net.cpp:194] Memory required for data: 848822784
I0927 22:03:28.665654 26041 layer_factory.hpp:77] Creating layer conv3_4_0
I0927 22:03:28.665668 26041 net.cpp:128] Creating Layer conv3_4_0
I0927 22:03:28.665673 26041 net.cpp:558] conv3_4_0 <- conv3_Eltwise_3_conv3_3ReLU_1_0_split_0
I0927 22:03:28.665683 26041 net.cpp:522] conv3_4_0 -> conv3_4_0
I0927 22:03:28.667081 26041 net.cpp:172] Setting up conv3_4_0
I0927 22:03:28.667109 26041 net.cpp:186] Top shape: 128 32 16 16 (1048576)
I0927 22:03:28.667112 26041 net.cpp:194] Memory required for data: 853017088
I0927 22:03:28.667122 26041 layer_factory.hpp:77] Creating layer conv3_4_bn0
I0927 22:03:28.667134 26041 net.cpp:128] Creating Layer conv3_4_bn0
I0927 22:03:28.667155 26041 net.cpp:558] conv3_4_bn0 <- conv3_4_0
I0927 22:03:28.667165 26041 net.cpp:509] conv3_4_bn0 -> conv3_4_0 (in-place)
I0927 22:03:28.667430 26041 net.cpp:172] Setting up conv3_4_bn0
I0927 22:03:28.667443 26041 net.cpp:186] Top shape: 128 32 16 16 (1048576)
I0927 22:03:28.667446 26041 net.cpp:194] Memory required for data: 857211392
I0927 22:03:28.667456 26041 layer_factory.hpp:77] Creating layer conv3_4_scale0
I0927 22:03:28.667467 26041 net.cpp:128] Creating Layer conv3_4_scale0
I0927 22:03:28.667472 26041 net.cpp:558] conv3_4_scale0 <- conv3_4_0
I0927 22:03:28.667477 26041 net.cpp:509] conv3_4_scale0 -> conv3_4_0 (in-place)
I0927 22:03:28.667520 26041 layer_factory.hpp:77] Creating layer conv3_4_scale0
I0927 22:03:28.667672 26041 net.cpp:172] Setting up conv3_4_scale0
I0927 22:03:28.667683 26041 net.cpp:186] Top shape: 128 32 16 16 (1048576)
I0927 22:03:28.667687 26041 net.cpp:194] Memory required for data: 861405696
I0927 22:03:28.667695 26041 layer_factory.hpp:77] Creating layer conv3_4_ReLU0
I0927 22:03:28.667708 26041 net.cpp:128] Creating Layer conv3_4_ReLU0
I0927 22:03:28.667713 26041 net.cpp:558] conv3_4_ReLU0 <- conv3_4_0
I0927 22:03:28.667718 26041 net.cpp:509] conv3_4_ReLU0 -> conv3_4_0 (in-place)
I0927 22:03:28.667949 26041 net.cpp:172] Setting up conv3_4_ReLU0
I0927 22:03:28.667964 26041 net.cpp:186] Top shape: 128 32 16 16 (1048576)
I0927 22:03:28.667969 26041 net.cpp:194] Memory required for data: 865600000
I0927 22:03:28.667973 26041 layer_factory.hpp:77] Creating layer conv3_4_1
I0927 22:03:28.667987 26041 net.cpp:128] Creating Layer conv3_4_1
I0927 22:03:28.667992 26041 net.cpp:558] conv3_4_1 <- conv3_4_0
I0927 22:03:28.668000 26041 net.cpp:522] conv3_4_1 -> conv3_4_1
I0927 22:03:28.669396 26041 net.cpp:172] Setting up conv3_4_1
I0927 22:03:28.669422 26041 net.cpp:186] Top shape: 128 32 16 16 (1048576)
I0927 22:03:28.669427 26041 net.cpp:194] Memory required for data: 869794304
I0927 22:03:28.669436 26041 layer_factory.hpp:77] Creating layer conv3_4bn1
I0927 22:03:28.669447 26041 net.cpp:128] Creating Layer conv3_4bn1
I0927 22:03:28.669453 26041 net.cpp:558] conv3_4bn1 <- conv3_4_1
I0927 22:03:28.669463 26041 net.cpp:509] conv3_4bn1 -> conv3_4_1 (in-place)
I0927 22:03:28.669726 26041 net.cpp:172] Setting up conv3_4bn1
I0927 22:03:28.669737 26041 net.cpp:186] Top shape: 128 32 16 16 (1048576)
I0927 22:03:28.669741 26041 net.cpp:194] Memory required for data: 873988608
I0927 22:03:28.669751 26041 layer_factory.hpp:77] Creating layer conv3_4_scale1
I0927 22:03:28.669757 26041 net.cpp:128] Creating Layer conv3_4_scale1
I0927 22:03:28.669762 26041 net.cpp:558] conv3_4_scale1 <- conv3_4_1
I0927 22:03:28.669771 26041 net.cpp:509] conv3_4_scale1 -> conv3_4_1 (in-place)
I0927 22:03:28.669811 26041 layer_factory.hpp:77] Creating layer conv3_4_scale1
I0927 22:03:28.669962 26041 net.cpp:172] Setting up conv3_4_scale1
I0927 22:03:28.669975 26041 net.cpp:186] Top shape: 128 32 16 16 (1048576)
I0927 22:03:28.669981 26041 net.cpp:194] Memory required for data: 878182912
I0927 22:03:28.669987 26041 layer_factory.hpp:77] Creating layer conv3_Eltwise_4
I0927 22:03:28.669994 26041 net.cpp:128] Creating Layer conv3_Eltwise_4
I0927 22:03:28.669999 26041 net.cpp:558] conv3_Eltwise_4 <- conv3_Eltwise_3_conv3_3ReLU_1_0_split_1
I0927 22:03:28.670004 26041 net.cpp:558] conv3_Eltwise_4 <- conv3_4_1
I0927 22:03:28.670011 26041 net.cpp:522] conv3_Eltwise_4 -> conv3_Eltwise_4
I0927 22:03:28.670035 26041 net.cpp:172] Setting up conv3_Eltwise_4
I0927 22:03:28.670042 26041 net.cpp:186] Top shape: 128 32 16 16 (1048576)
I0927 22:03:28.670047 26041 net.cpp:194] Memory required for data: 882377216
I0927 22:03:28.670050 26041 layer_factory.hpp:77] Creating layer conv3_4ReLU_1
I0927 22:03:28.670056 26041 net.cpp:128] Creating Layer conv3_4ReLU_1
I0927 22:03:28.670060 26041 net.cpp:558] conv3_4ReLU_1 <- conv3_Eltwise_4
I0927 22:03:28.670068 26041 net.cpp:509] conv3_4ReLU_1 -> conv3_Eltwise_4 (in-place)
I0927 22:03:28.670505 26041 net.cpp:172] Setting up conv3_4ReLU_1
I0927 22:03:28.670526 26041 net.cpp:186] Top shape: 128 32 16 16 (1048576)
I0927 22:03:28.670545 26041 net.cpp:194] Memory required for data: 886571520
I0927 22:03:28.670552 26041 layer_factory.hpp:77] Creating layer conv3_Eltwise_4_conv3_4ReLU_1_0_split
I0927 22:03:28.670559 26041 net.cpp:128] Creating Layer conv3_Eltwise_4_conv3_4ReLU_1_0_split
I0927 22:03:28.670565 26041 net.cpp:558] conv3_Eltwise_4_conv3_4ReLU_1_0_split <- conv3_Eltwise_4
I0927 22:03:28.670574 26041 net.cpp:522] conv3_Eltwise_4_conv3_4ReLU_1_0_split -> conv3_Eltwise_4_conv3_4ReLU_1_0_split_0
I0927 22:03:28.670584 26041 net.cpp:522] conv3_Eltwise_4_conv3_4ReLU_1_0_split -> conv3_Eltwise_4_conv3_4ReLU_1_0_split_1
I0927 22:03:28.670644 26041 net.cpp:172] Setting up conv3_Eltwise_4_conv3_4ReLU_1_0_split
I0927 22:03:28.670655 26041 net.cpp:186] Top shape: 128 32 16 16 (1048576)
I0927 22:03:28.670661 26041 net.cpp:186] Top shape: 128 32 16 16 (1048576)
I0927 22:03:28.670665 26041 net.cpp:194] Memory required for data: 894960128
I0927 22:03:28.670670 26041 layer_factory.hpp:77] Creating layer conv3_5_0
I0927 22:03:28.670682 26041 net.cpp:128] Creating Layer conv3_5_0
I0927 22:03:28.670687 26041 net.cpp:558] conv3_5_0 <- conv3_Eltwise_4_conv3_4ReLU_1_0_split_0
I0927 22:03:28.670696 26041 net.cpp:522] conv3_5_0 -> conv3_5_0
I0927 22:03:28.672143 26041 net.cpp:172] Setting up conv3_5_0
I0927 22:03:28.672170 26041 net.cpp:186] Top shape: 128 32 16 16 (1048576)
I0927 22:03:28.672175 26041 net.cpp:194] Memory required for data: 899154432
I0927 22:03:28.672184 26041 layer_factory.hpp:77] Creating layer conv3_5_bn0
I0927 22:03:28.672195 26041 net.cpp:128] Creating Layer conv3_5_bn0
I0927 22:03:28.672201 26041 net.cpp:558] conv3_5_bn0 <- conv3_5_0
I0927 22:03:28.672207 26041 net.cpp:509] conv3_5_bn0 -> conv3_5_0 (in-place)
I0927 22:03:28.672472 26041 net.cpp:172] Setting up conv3_5_bn0
I0927 22:03:28.672483 26041 net.cpp:186] Top shape: 128 32 16 16 (1048576)
I0927 22:03:28.672487 26041 net.cpp:194] Memory required for data: 903348736
I0927 22:03:28.672497 26041 layer_factory.hpp:77] Creating layer conv3_5_scale0
I0927 22:03:28.672507 26041 net.cpp:128] Creating Layer conv3_5_scale0
I0927 22:03:28.672511 26041 net.cpp:558] conv3_5_scale0 <- conv3_5_0
I0927 22:03:28.672516 26041 net.cpp:509] conv3_5_scale0 -> conv3_5_0 (in-place)
I0927 22:03:28.672560 26041 layer_factory.hpp:77] Creating layer conv3_5_scale0
I0927 22:03:28.672716 26041 net.cpp:172] Setting up conv3_5_scale0
I0927 22:03:28.672726 26041 net.cpp:186] Top shape: 128 32 16 16 (1048576)
I0927 22:03:28.672732 26041 net.cpp:194] Memory required for data: 907543040
I0927 22:03:28.672740 26041 layer_factory.hpp:77] Creating layer conv3_5_ReLU0
I0927 22:03:28.672749 26041 net.cpp:128] Creating Layer conv3_5_ReLU0
I0927 22:03:28.672754 26041 net.cpp:558] conv3_5_ReLU0 <- conv3_5_0
I0927 22:03:28.672760 26041 net.cpp:509] conv3_5_ReLU0 -> conv3_5_0 (in-place)
I0927 22:03:28.672996 26041 net.cpp:172] Setting up conv3_5_ReLU0
I0927 22:03:28.673010 26041 net.cpp:186] Top shape: 128 32 16 16 (1048576)
I0927 22:03:28.673015 26041 net.cpp:194] Memory required for data: 911737344
I0927 22:03:28.673019 26041 layer_factory.hpp:77] Creating layer conv3_5_1
I0927 22:03:28.673034 26041 net.cpp:128] Creating Layer conv3_5_1
I0927 22:03:28.673039 26041 net.cpp:558] conv3_5_1 <- conv3_5_0
I0927 22:03:28.673046 26041 net.cpp:522] conv3_5_1 -> conv3_5_1
I0927 22:03:28.674475 26041 net.cpp:172] Setting up conv3_5_1
I0927 22:03:28.674502 26041 net.cpp:186] Top shape: 128 32 16 16 (1048576)
I0927 22:03:28.674506 26041 net.cpp:194] Memory required for data: 915931648
I0927 22:03:28.674516 26041 layer_factory.hpp:77] Creating layer conv3_5bn1
I0927 22:03:28.674527 26041 net.cpp:128] Creating Layer conv3_5bn1
I0927 22:03:28.674533 26041 net.cpp:558] conv3_5bn1 <- conv3_5_1
I0927 22:03:28.674546 26041 net.cpp:509] conv3_5bn1 -> conv3_5_1 (in-place)
I0927 22:03:28.674808 26041 net.cpp:172] Setting up conv3_5bn1
I0927 22:03:28.674836 26041 net.cpp:186] Top shape: 128 32 16 16 (1048576)
I0927 22:03:28.674841 26041 net.cpp:194] Memory required for data: 920125952
I0927 22:03:28.674851 26041 layer_factory.hpp:77] Creating layer conv3_5_scale1
I0927 22:03:28.674875 26041 net.cpp:128] Creating Layer conv3_5_scale1
I0927 22:03:28.674880 26041 net.cpp:558] conv3_5_scale1 <- conv3_5_1
I0927 22:03:28.674890 26041 net.cpp:509] conv3_5_scale1 -> conv3_5_1 (in-place)
I0927 22:03:28.674934 26041 layer_factory.hpp:77] Creating layer conv3_5_scale1
I0927 22:03:28.675089 26041 net.cpp:172] Setting up conv3_5_scale1
I0927 22:03:28.675101 26041 net.cpp:186] Top shape: 128 32 16 16 (1048576)
I0927 22:03:28.675106 26041 net.cpp:194] Memory required for data: 924320256
I0927 22:03:28.675112 26041 layer_factory.hpp:77] Creating layer conv3_Eltwise_5
I0927 22:03:28.675119 26041 net.cpp:128] Creating Layer conv3_Eltwise_5
I0927 22:03:28.675124 26041 net.cpp:558] conv3_Eltwise_5 <- conv3_Eltwise_4_conv3_4ReLU_1_0_split_1
I0927 22:03:28.675129 26041 net.cpp:558] conv3_Eltwise_5 <- conv3_5_1
I0927 22:03:28.675138 26041 net.cpp:522] conv3_Eltwise_5 -> conv3_Eltwise_5
I0927 22:03:28.675160 26041 net.cpp:172] Setting up conv3_Eltwise_5
I0927 22:03:28.675170 26041 net.cpp:186] Top shape: 128 32 16 16 (1048576)
I0927 22:03:28.675175 26041 net.cpp:194] Memory required for data: 928514560
I0927 22:03:28.675179 26041 layer_factory.hpp:77] Creating layer conv3_5ReLU_1
I0927 22:03:28.675187 26041 net.cpp:128] Creating Layer conv3_5ReLU_1
I0927 22:03:28.675194 26041 net.cpp:558] conv3_5ReLU_1 <- conv3_Eltwise_5
I0927 22:03:28.675199 26041 net.cpp:509] conv3_5ReLU_1 -> conv3_Eltwise_5 (in-place)
I0927 22:03:28.675437 26041 net.cpp:172] Setting up conv3_5ReLU_1
I0927 22:03:28.675451 26041 net.cpp:186] Top shape: 128 32 16 16 (1048576)
I0927 22:03:28.675457 26041 net.cpp:194] Memory required for data: 932708864
I0927 22:03:28.675460 26041 layer_factory.hpp:77] Creating layer conv3_Eltwise_5_conv3_5ReLU_1_0_split
I0927 22:03:28.675488 26041 net.cpp:128] Creating Layer conv3_Eltwise_5_conv3_5ReLU_1_0_split
I0927 22:03:28.675493 26041 net.cpp:558] conv3_Eltwise_5_conv3_5ReLU_1_0_split <- conv3_Eltwise_5
I0927 22:03:28.675501 26041 net.cpp:522] conv3_Eltwise_5_conv3_5ReLU_1_0_split -> conv3_Eltwise_5_conv3_5ReLU_1_0_split_0
I0927 22:03:28.675515 26041 net.cpp:522] conv3_Eltwise_5_conv3_5ReLU_1_0_split -> conv3_Eltwise_5_conv3_5ReLU_1_0_split_1
I0927 22:03:28.675567 26041 net.cpp:172] Setting up conv3_Eltwise_5_conv3_5ReLU_1_0_split
I0927 22:03:28.675578 26041 net.cpp:186] Top shape: 128 32 16 16 (1048576)
I0927 22:03:28.675585 26041 net.cpp:186] Top shape: 128 32 16 16 (1048576)
I0927 22:03:28.675588 26041 net.cpp:194] Memory required for data: 941097472
I0927 22:03:28.675592 26041 layer_factory.hpp:77] Creating layer conv3_6_0
I0927 22:03:28.675603 26041 net.cpp:128] Creating Layer conv3_6_0
I0927 22:03:28.675607 26041 net.cpp:558] conv3_6_0 <- conv3_Eltwise_5_conv3_5ReLU_1_0_split_0
I0927 22:03:28.675617 26041 net.cpp:522] conv3_6_0 -> conv3_6_0
I0927 22:03:28.677083 26041 net.cpp:172] Setting up conv3_6_0
I0927 22:03:28.677109 26041 net.cpp:186] Top shape: 128 32 16 16 (1048576)
I0927 22:03:28.677114 26041 net.cpp:194] Memory required for data: 945291776
I0927 22:03:28.677124 26041 layer_factory.hpp:77] Creating layer conv3_6_bn0
I0927 22:03:28.677134 26041 net.cpp:128] Creating Layer conv3_6_bn0
I0927 22:03:28.677139 26041 net.cpp:558] conv3_6_bn0 <- conv3_6_0
I0927 22:03:28.677151 26041 net.cpp:509] conv3_6_bn0 -> conv3_6_0 (in-place)
I0927 22:03:28.677414 26041 net.cpp:172] Setting up conv3_6_bn0
I0927 22:03:28.677426 26041 net.cpp:186] Top shape: 128 32 16 16 (1048576)
I0927 22:03:28.677430 26041 net.cpp:194] Memory required for data: 949486080
I0927 22:03:28.677440 26041 layer_factory.hpp:77] Creating layer conv3_6_scale0
I0927 22:03:28.677449 26041 net.cpp:128] Creating Layer conv3_6_scale0
I0927 22:03:28.677454 26041 net.cpp:558] conv3_6_scale0 <- conv3_6_0
I0927 22:03:28.677459 26041 net.cpp:509] conv3_6_scale0 -> conv3_6_0 (in-place)
I0927 22:03:28.677503 26041 layer_factory.hpp:77] Creating layer conv3_6_scale0
I0927 22:03:28.677659 26041 net.cpp:172] Setting up conv3_6_scale0
I0927 22:03:28.677669 26041 net.cpp:186] Top shape: 128 32 16 16 (1048576)
I0927 22:03:28.677688 26041 net.cpp:194] Memory required for data: 953680384
I0927 22:03:28.677697 26041 layer_factory.hpp:77] Creating layer conv3_6_ReLU0
I0927 22:03:28.677706 26041 net.cpp:128] Creating Layer conv3_6_ReLU0
I0927 22:03:28.677711 26041 net.cpp:558] conv3_6_ReLU0 <- conv3_6_0
I0927 22:03:28.677717 26041 net.cpp:509] conv3_6_ReLU0 -> conv3_6_0 (in-place)
I0927 22:03:28.678155 26041 net.cpp:172] Setting up conv3_6_ReLU0
I0927 22:03:28.678179 26041 net.cpp:186] Top shape: 128 32 16 16 (1048576)
I0927 22:03:28.678184 26041 net.cpp:194] Memory required for data: 957874688
I0927 22:03:28.678191 26041 layer_factory.hpp:77] Creating layer conv3_6_1
I0927 22:03:28.678205 26041 net.cpp:128] Creating Layer conv3_6_1
I0927 22:03:28.678211 26041 net.cpp:558] conv3_6_1 <- conv3_6_0
I0927 22:03:28.678218 26041 net.cpp:522] conv3_6_1 -> conv3_6_1
I0927 22:03:28.679667 26041 net.cpp:172] Setting up conv3_6_1
I0927 22:03:28.679694 26041 net.cpp:186] Top shape: 128 32 16 16 (1048576)
I0927 22:03:28.679699 26041 net.cpp:194] Memory required for data: 962068992
I0927 22:03:28.679709 26041 layer_factory.hpp:77] Creating layer conv3_6bn1
I0927 22:03:28.679720 26041 net.cpp:128] Creating Layer conv3_6bn1
I0927 22:03:28.679725 26041 net.cpp:558] conv3_6bn1 <- conv3_6_1
I0927 22:03:28.679736 26041 net.cpp:509] conv3_6bn1 -> conv3_6_1 (in-place)
I0927 22:03:28.680007 26041 net.cpp:172] Setting up conv3_6bn1
I0927 22:03:28.680018 26041 net.cpp:186] Top shape: 128 32 16 16 (1048576)
I0927 22:03:28.680022 26041 net.cpp:194] Memory required for data: 966263296
I0927 22:03:28.680032 26041 layer_factory.hpp:77] Creating layer conv3_6_scale1
I0927 22:03:28.680038 26041 net.cpp:128] Creating Layer conv3_6_scale1
I0927 22:03:28.680043 26041 net.cpp:558] conv3_6_scale1 <- conv3_6_1
I0927 22:03:28.680048 26041 net.cpp:509] conv3_6_scale1 -> conv3_6_1 (in-place)
I0927 22:03:28.680092 26041 layer_factory.hpp:77] Creating layer conv3_6_scale1
I0927 22:03:28.680251 26041 net.cpp:172] Setting up conv3_6_scale1
I0927 22:03:28.680263 26041 net.cpp:186] Top shape: 128 32 16 16 (1048576)
I0927 22:03:28.680266 26041 net.cpp:194] Memory required for data: 970457600
I0927 22:03:28.680275 26041 layer_factory.hpp:77] Creating layer conv3_Eltwise_6
I0927 22:03:28.680281 26041 net.cpp:128] Creating Layer conv3_Eltwise_6
I0927 22:03:28.680286 26041 net.cpp:558] conv3_Eltwise_6 <- conv3_Eltwise_5_conv3_5ReLU_1_0_split_1
I0927 22:03:28.680292 26041 net.cpp:558] conv3_Eltwise_6 <- conv3_6_1
I0927 22:03:28.680300 26041 net.cpp:522] conv3_Eltwise_6 -> conv3_Eltwise_6
I0927 22:03:28.680322 26041 net.cpp:172] Setting up conv3_Eltwise_6
I0927 22:03:28.680330 26041 net.cpp:186] Top shape: 128 32 16 16 (1048576)
I0927 22:03:28.680335 26041 net.cpp:194] Memory required for data: 974651904
I0927 22:03:28.680338 26041 layer_factory.hpp:77] Creating layer conv3_6ReLU_1
I0927 22:03:28.680344 26041 net.cpp:128] Creating Layer conv3_6ReLU_1
I0927 22:03:28.680349 26041 net.cpp:558] conv3_6ReLU_1 <- conv3_Eltwise_6
I0927 22:03:28.680356 26041 net.cpp:509] conv3_6ReLU_1 -> conv3_Eltwise_6 (in-place)
I0927 22:03:28.680593 26041 net.cpp:172] Setting up conv3_6ReLU_1
I0927 22:03:28.680608 26041 net.cpp:186] Top shape: 128 32 16 16 (1048576)
I0927 22:03:28.680611 26041 net.cpp:194] Memory required for data: 978846208
I0927 22:03:28.680616 26041 layer_factory.hpp:77] Creating layer conv3_Eltwise_6_conv3_6ReLU_1_0_split
I0927 22:03:28.680625 26041 net.cpp:128] Creating Layer conv3_Eltwise_6_conv3_6ReLU_1_0_split
I0927 22:03:28.680631 26041 net.cpp:558] conv3_Eltwise_6_conv3_6ReLU_1_0_split <- conv3_Eltwise_6
I0927 22:03:28.680637 26041 net.cpp:522] conv3_Eltwise_6_conv3_6ReLU_1_0_split -> conv3_Eltwise_6_conv3_6ReLU_1_0_split_0
I0927 22:03:28.680647 26041 net.cpp:522] conv3_Eltwise_6_conv3_6ReLU_1_0_split -> conv3_Eltwise_6_conv3_6ReLU_1_0_split_1
I0927 22:03:28.680699 26041 net.cpp:172] Setting up conv3_Eltwise_6_conv3_6ReLU_1_0_split
I0927 22:03:28.680707 26041 net.cpp:186] Top shape: 128 32 16 16 (1048576)
I0927 22:03:28.680713 26041 net.cpp:186] Top shape: 128 32 16 16 (1048576)
I0927 22:03:28.680732 26041 net.cpp:194] Memory required for data: 987234816
I0927 22:03:28.680737 26041 layer_factory.hpp:77] Creating layer conv3_7_0
I0927 22:03:28.680749 26041 net.cpp:128] Creating Layer conv3_7_0
I0927 22:03:28.680754 26041 net.cpp:558] conv3_7_0 <- conv3_Eltwise_6_conv3_6ReLU_1_0_split_0
I0927 22:03:28.680768 26041 net.cpp:522] conv3_7_0 -> conv3_7_0
I0927 22:03:28.682204 26041 net.cpp:172] Setting up conv3_7_0
I0927 22:03:28.682229 26041 net.cpp:186] Top shape: 128 32 16 16 (1048576)
I0927 22:03:28.682234 26041 net.cpp:194] Memory required for data: 991429120
I0927 22:03:28.682246 26041 layer_factory.hpp:77] Creating layer conv3_7_bn0
I0927 22:03:28.682257 26041 net.cpp:128] Creating Layer conv3_7_bn0
I0927 22:03:28.682263 26041 net.cpp:558] conv3_7_bn0 <- conv3_7_0
I0927 22:03:28.682269 26041 net.cpp:509] conv3_7_bn0 -> conv3_7_0 (in-place)
I0927 22:03:28.682548 26041 net.cpp:172] Setting up conv3_7_bn0
I0927 22:03:28.682560 26041 net.cpp:186] Top shape: 128 32 16 16 (1048576)
I0927 22:03:28.682564 26041 net.cpp:194] Memory required for data: 995623424
I0927 22:03:28.682574 26041 layer_factory.hpp:77] Creating layer conv3_7_scale0
I0927 22:03:28.682581 26041 net.cpp:128] Creating Layer conv3_7_scale0
I0927 22:03:28.682586 26041 net.cpp:558] conv3_7_scale0 <- conv3_7_0
I0927 22:03:28.682591 26041 net.cpp:509] conv3_7_scale0 -> conv3_7_0 (in-place)
I0927 22:03:28.682636 26041 layer_factory.hpp:77] Creating layer conv3_7_scale0
I0927 22:03:28.682792 26041 net.cpp:172] Setting up conv3_7_scale0
I0927 22:03:28.682803 26041 net.cpp:186] Top shape: 128 32 16 16 (1048576)
I0927 22:03:28.682807 26041 net.cpp:194] Memory required for data: 999817728
I0927 22:03:28.682824 26041 layer_factory.hpp:77] Creating layer conv3_7_ReLU0
I0927 22:03:28.682832 26041 net.cpp:128] Creating Layer conv3_7_ReLU0
I0927 22:03:28.682835 26041 net.cpp:558] conv3_7_ReLU0 <- conv3_7_0
I0927 22:03:28.682843 26041 net.cpp:509] conv3_7_ReLU0 -> conv3_7_0 (in-place)
I0927 22:03:28.683082 26041 net.cpp:172] Setting up conv3_7_ReLU0
I0927 22:03:28.683097 26041 net.cpp:186] Top shape: 128 32 16 16 (1048576)
I0927 22:03:28.683102 26041 net.cpp:194] Memory required for data: 1004012032
I0927 22:03:28.683106 26041 layer_factory.hpp:77] Creating layer conv3_7_1
I0927 22:03:28.683120 26041 net.cpp:128] Creating Layer conv3_7_1
I0927 22:03:28.683125 26041 net.cpp:558] conv3_7_1 <- conv3_7_0
I0927 22:03:28.683133 26041 net.cpp:522] conv3_7_1 -> conv3_7_1
I0927 22:03:28.684557 26041 net.cpp:172] Setting up conv3_7_1
I0927 22:03:28.684584 26041 net.cpp:186] Top shape: 128 32 16 16 (1048576)
I0927 22:03:28.684588 26041 net.cpp:194] Memory required for data: 1008206336
I0927 22:03:28.684598 26041 layer_factory.hpp:77] Creating layer conv3_7bn1
I0927 22:03:28.684609 26041 net.cpp:128] Creating Layer conv3_7bn1
I0927 22:03:28.684614 26041 net.cpp:558] conv3_7bn1 <- conv3_7_1
I0927 22:03:28.684628 26041 net.cpp:509] conv3_7bn1 -> conv3_7_1 (in-place)
I0927 22:03:28.684904 26041 net.cpp:172] Setting up conv3_7bn1
I0927 22:03:28.684916 26041 net.cpp:186] Top shape: 128 32 16 16 (1048576)
I0927 22:03:28.684919 26041 net.cpp:194] Memory required for data: 1012400640
I0927 22:03:28.684929 26041 layer_factory.hpp:77] Creating layer conv3_7_scale1
I0927 22:03:28.684938 26041 net.cpp:128] Creating Layer conv3_7_scale1
I0927 22:03:28.684943 26041 net.cpp:558] conv3_7_scale1 <- conv3_7_1
I0927 22:03:28.684949 26041 net.cpp:509] conv3_7_scale1 -> conv3_7_1 (in-place)
I0927 22:03:28.684993 26041 layer_factory.hpp:77] Creating layer conv3_7_scale1
I0927 22:03:28.685145 26041 net.cpp:172] Setting up conv3_7_scale1
I0927 22:03:28.685156 26041 net.cpp:186] Top shape: 128 32 16 16 (1048576)
I0927 22:03:28.685160 26041 net.cpp:194] Memory required for data: 1016594944
I0927 22:03:28.685168 26041 layer_factory.hpp:77] Creating layer conv3_Eltwise_7
I0927 22:03:28.685175 26041 net.cpp:128] Creating Layer conv3_Eltwise_7
I0927 22:03:28.685180 26041 net.cpp:558] conv3_Eltwise_7 <- conv3_Eltwise_6_conv3_6ReLU_1_0_split_1
I0927 22:03:28.685189 26041 net.cpp:558] conv3_Eltwise_7 <- conv3_7_1
I0927 22:03:28.685214 26041 net.cpp:522] conv3_Eltwise_7 -> conv3_Eltwise_7
I0927 22:03:28.685240 26041 net.cpp:172] Setting up conv3_Eltwise_7
I0927 22:03:28.685250 26041 net.cpp:186] Top shape: 128 32 16 16 (1048576)
I0927 22:03:28.685254 26041 net.cpp:194] Memory required for data: 1020789248
I0927 22:03:28.685258 26041 layer_factory.hpp:77] Creating layer conv3_7ReLU_1
I0927 22:03:28.685266 26041 net.cpp:128] Creating Layer conv3_7ReLU_1
I0927 22:03:28.685271 26041 net.cpp:558] conv3_7ReLU_1 <- conv3_Eltwise_7
I0927 22:03:28.685276 26041 net.cpp:509] conv3_7ReLU_1 -> conv3_Eltwise_7 (in-place)
I0927 22:03:28.685513 26041 net.cpp:172] Setting up conv3_7ReLU_1
I0927 22:03:28.685530 26041 net.cpp:186] Top shape: 128 32 16 16 (1048576)
I0927 22:03:28.685535 26041 net.cpp:194] Memory required for data: 1024983552
I0927 22:03:28.685539 26041 layer_factory.hpp:77] Creating layer conv3_Eltwise_7_conv3_7ReLU_1_0_split
I0927 22:03:28.685546 26041 net.cpp:128] Creating Layer conv3_Eltwise_7_conv3_7ReLU_1_0_split
I0927 22:03:28.685551 26041 net.cpp:558] conv3_Eltwise_7_conv3_7ReLU_1_0_split <- conv3_Eltwise_7
I0927 22:03:28.685557 26041 net.cpp:522] conv3_Eltwise_7_conv3_7ReLU_1_0_split -> conv3_Eltwise_7_conv3_7ReLU_1_0_split_0
I0927 22:03:28.685569 26041 net.cpp:522] conv3_Eltwise_7_conv3_7ReLU_1_0_split -> conv3_Eltwise_7_conv3_7ReLU_1_0_split_1
I0927 22:03:28.685621 26041 net.cpp:172] Setting up conv3_Eltwise_7_conv3_7ReLU_1_0_split
I0927 22:03:28.685631 26041 net.cpp:186] Top shape: 128 32 16 16 (1048576)
I0927 22:03:28.685638 26041 net.cpp:186] Top shape: 128 32 16 16 (1048576)
I0927 22:03:28.685642 26041 net.cpp:194] Memory required for data: 1033372160
I0927 22:03:28.685647 26041 layer_factory.hpp:77] Creating layer conv4_1_0
I0927 22:03:28.685659 26041 net.cpp:128] Creating Layer conv4_1_0
I0927 22:03:28.685664 26041 net.cpp:558] conv4_1_0 <- conv3_Eltwise_7_conv3_7ReLU_1_0_split_0
I0927 22:03:28.685672 26041 net.cpp:522] conv4_1_0 -> conv4_1_0
I0927 22:03:28.688844 26041 net.cpp:172] Setting up conv4_1_0
I0927 22:03:28.688874 26041 net.cpp:186] Top shape: 128 64 8 8 (524288)
I0927 22:03:28.688877 26041 net.cpp:194] Memory required for data: 1035469312
I0927 22:03:28.688889 26041 layer_factory.hpp:77] Creating layer conv4_1_bn0
I0927 22:03:28.688900 26041 net.cpp:128] Creating Layer conv4_1_bn0
I0927 22:03:28.688906 26041 net.cpp:558] conv4_1_bn0 <- conv4_1_0
I0927 22:03:28.688918 26041 net.cpp:509] conv4_1_bn0 -> conv4_1_0 (in-place)
I0927 22:03:28.689205 26041 net.cpp:172] Setting up conv4_1_bn0
I0927 22:03:28.689218 26041 net.cpp:186] Top shape: 128 64 8 8 (524288)
I0927 22:03:28.689222 26041 net.cpp:194] Memory required for data: 1037566464
I0927 22:03:28.689232 26041 layer_factory.hpp:77] Creating layer conv4_1_scale0
I0927 22:03:28.689240 26041 net.cpp:128] Creating Layer conv4_1_scale0
I0927 22:03:28.689245 26041 net.cpp:558] conv4_1_scale0 <- conv4_1_0
I0927 22:03:28.689250 26041 net.cpp:509] conv4_1_scale0 -> conv4_1_0 (in-place)
I0927 22:03:28.689297 26041 layer_factory.hpp:77] Creating layer conv4_1_scale0
I0927 22:03:28.689453 26041 net.cpp:172] Setting up conv4_1_scale0
I0927 22:03:28.689465 26041 net.cpp:186] Top shape: 128 64 8 8 (524288)
I0927 22:03:28.689471 26041 net.cpp:194] Memory required for data: 1039663616
I0927 22:03:28.689478 26041 layer_factory.hpp:77] Creating layer conv4_1_ReLU0
I0927 22:03:28.689484 26041 net.cpp:128] Creating Layer conv4_1_ReLU0
I0927 22:03:28.689488 26041 net.cpp:558] conv4_1_ReLU0 <- conv4_1_0
I0927 22:03:28.689494 26041 net.cpp:509] conv4_1_ReLU0 -> conv4_1_0 (in-place)
I0927 22:03:28.689947 26041 net.cpp:172] Setting up conv4_1_ReLU0
I0927 22:03:28.689970 26041 net.cpp:186] Top shape: 128 64 8 8 (524288)
I0927 22:03:28.689975 26041 net.cpp:194] Memory required for data: 1041760768
I0927 22:03:28.689980 26041 layer_factory.hpp:77] Creating layer conv4_1_1
I0927 22:03:28.689996 26041 net.cpp:128] Creating Layer conv4_1_1
I0927 22:03:28.690006 26041 net.cpp:558] conv4_1_1 <- conv4_1_0
I0927 22:03:28.690013 26041 net.cpp:522] conv4_1_1 -> conv4_1_1
I0927 22:03:28.692123 26041 net.cpp:172] Setting up conv4_1_1
I0927 22:03:28.692152 26041 net.cpp:186] Top shape: 128 64 8 8 (524288)
I0927 22:03:28.692155 26041 net.cpp:194] Memory required for data: 1043857920
I0927 22:03:28.692169 26041 layer_factory.hpp:77] Creating layer conv4_1bn1
I0927 22:03:28.692180 26041 net.cpp:128] Creating Layer conv4_1bn1
I0927 22:03:28.692188 26041 net.cpp:558] conv4_1bn1 <- conv4_1_1
I0927 22:03:28.692195 26041 net.cpp:509] conv4_1bn1 -> conv4_1_1 (in-place)
I0927 22:03:28.692483 26041 net.cpp:172] Setting up conv4_1bn1
I0927 22:03:28.692493 26041 net.cpp:186] Top shape: 128 64 8 8 (524288)
I0927 22:03:28.692497 26041 net.cpp:194] Memory required for data: 1045955072
I0927 22:03:28.692507 26041 layer_factory.hpp:77] Creating layer conv4_1_scale1
I0927 22:03:28.692514 26041 net.cpp:128] Creating Layer conv4_1_scale1
I0927 22:03:28.692520 26041 net.cpp:558] conv4_1_scale1 <- conv4_1_1
I0927 22:03:28.692526 26041 net.cpp:509] conv4_1_scale1 -> conv4_1_1 (in-place)
I0927 22:03:28.692574 26041 layer_factory.hpp:77] Creating layer conv4_1_scale1
I0927 22:03:28.692739 26041 net.cpp:172] Setting up conv4_1_scale1
I0927 22:03:28.692754 26041 net.cpp:186] Top shape: 128 64 8 8 (524288)
I0927 22:03:28.692759 26041 net.cpp:194] Memory required for data: 1048052224
I0927 22:03:28.692767 26041 layer_factory.hpp:77] Creating layer conv4_1_down
I0927 22:03:28.692780 26041 net.cpp:128] Creating Layer conv4_1_down
I0927 22:03:28.692785 26041 net.cpp:558] conv4_1_down <- conv3_Eltwise_7_conv3_7ReLU_1_0_split_1
I0927 22:03:28.692791 26041 net.cpp:522] conv4_1_down -> conv4_1_down
I0927 22:03:28.694324 26041 net.cpp:172] Setting up conv4_1_down
I0927 22:03:28.694350 26041 net.cpp:186] Top shape: 128 64 8 8 (524288)
I0927 22:03:28.694355 26041 net.cpp:194] Memory required for data: 1050149376
I0927 22:03:28.694365 26041 layer_factory.hpp:77] Creating layer conv4_1_bn_down
I0927 22:03:28.694381 26041 net.cpp:128] Creating Layer conv4_1_bn_down
I0927 22:03:28.694386 26041 net.cpp:558] conv4_1_bn_down <- conv4_1_down
I0927 22:03:28.694396 26041 net.cpp:509] conv4_1_bn_down -> conv4_1_down (in-place)
I0927 22:03:28.694676 26041 net.cpp:172] Setting up conv4_1_bn_down
I0927 22:03:28.694686 26041 net.cpp:186] Top shape: 128 64 8 8 (524288)
I0927 22:03:28.694690 26041 net.cpp:194] Memory required for data: 1052246528
I0927 22:03:28.694700 26041 layer_factory.hpp:77] Creating layer conv4_1_scale_down
I0927 22:03:28.694715 26041 net.cpp:128] Creating Layer conv4_1_scale_down
I0927 22:03:28.694720 26041 net.cpp:558] conv4_1_scale_down <- conv4_1_down
I0927 22:03:28.694725 26041 net.cpp:509] conv4_1_scale_down -> conv4_1_down (in-place)
I0927 22:03:28.694770 26041 layer_factory.hpp:77] Creating layer conv4_1_scale_down
I0927 22:03:28.694942 26041 net.cpp:172] Setting up conv4_1_scale_down
I0927 22:03:28.694950 26041 net.cpp:186] Top shape: 128 64 8 8 (524288)
I0927 22:03:28.694954 26041 net.cpp:194] Memory required for data: 1054343680
I0927 22:03:28.694962 26041 layer_factory.hpp:77] Creating layer conv4_Eltwise_1
I0927 22:03:28.694972 26041 net.cpp:128] Creating Layer conv4_Eltwise_1
I0927 22:03:28.694977 26041 net.cpp:558] conv4_Eltwise_1 <- conv4_1_1
I0927 22:03:28.694981 26041 net.cpp:558] conv4_Eltwise_1 <- conv4_1_down
I0927 22:03:28.694988 26041 net.cpp:522] conv4_Eltwise_1 -> conv4_Eltwise_1
I0927 22:03:28.695010 26041 net.cpp:172] Setting up conv4_Eltwise_1
I0927 22:03:28.695017 26041 net.cpp:186] Top shape: 128 64 8 8 (524288)
I0927 22:03:28.695021 26041 net.cpp:194] Memory required for data: 1056440832
I0927 22:03:28.695025 26041 layer_factory.hpp:77] Creating layer conv4_1ReLU_1
I0927 22:03:28.695034 26041 net.cpp:128] Creating Layer conv4_1ReLU_1
I0927 22:03:28.695039 26041 net.cpp:558] conv4_1ReLU_1 <- conv4_Eltwise_1
I0927 22:03:28.695044 26041 net.cpp:509] conv4_1ReLU_1 -> conv4_Eltwise_1 (in-place)
I0927 22:03:28.695283 26041 net.cpp:172] Setting up conv4_1ReLU_1
I0927 22:03:28.695294 26041 net.cpp:186] Top shape: 128 64 8 8 (524288)
I0927 22:03:28.695298 26041 net.cpp:194] Memory required for data: 1058537984
I0927 22:03:28.695320 26041 layer_factory.hpp:77] Creating layer conv4_Eltwise_1_conv4_1ReLU_1_0_split
I0927 22:03:28.695331 26041 net.cpp:128] Creating Layer conv4_Eltwise_1_conv4_1ReLU_1_0_split
I0927 22:03:28.695336 26041 net.cpp:558] conv4_Eltwise_1_conv4_1ReLU_1_0_split <- conv4_Eltwise_1
I0927 22:03:28.695345 26041 net.cpp:522] conv4_Eltwise_1_conv4_1ReLU_1_0_split -> conv4_Eltwise_1_conv4_1ReLU_1_0_split_0
I0927 22:03:28.695353 26041 net.cpp:522] conv4_Eltwise_1_conv4_1ReLU_1_0_split -> conv4_Eltwise_1_conv4_1ReLU_1_0_split_1
I0927 22:03:28.695413 26041 net.cpp:172] Setting up conv4_Eltwise_1_conv4_1ReLU_1_0_split
I0927 22:03:28.695423 26041 net.cpp:186] Top shape: 128 64 8 8 (524288)
I0927 22:03:28.695428 26041 net.cpp:186] Top shape: 128 64 8 8 (524288)
I0927 22:03:28.695432 26041 net.cpp:194] Memory required for data: 1062732288
I0927 22:03:28.695437 26041 layer_factory.hpp:77] Creating layer conv4_2_0
I0927 22:03:28.695451 26041 net.cpp:128] Creating Layer conv4_2_0
I0927 22:03:28.695454 26041 net.cpp:558] conv4_2_0 <- conv4_Eltwise_1_conv4_1ReLU_1_0_split_0
I0927 22:03:28.695462 26041 net.cpp:522] conv4_2_0 -> conv4_2_0
I0927 22:03:28.697324 26041 net.cpp:172] Setting up conv4_2_0
I0927 22:03:28.697350 26041 net.cpp:186] Top shape: 128 64 8 8 (524288)
I0927 22:03:28.697355 26041 net.cpp:194] Memory required for data: 1064829440
I0927 22:03:28.697365 26041 layer_factory.hpp:77] Creating layer conv4_2_bn0
I0927 22:03:28.697376 26041 net.cpp:128] Creating Layer conv4_2_bn0
I0927 22:03:28.697382 26041 net.cpp:558] conv4_2_bn0 <- conv4_2_0
I0927 22:03:28.697393 26041 net.cpp:509] conv4_2_bn0 -> conv4_2_0 (in-place)
I0927 22:03:28.697679 26041 net.cpp:172] Setting up conv4_2_bn0
I0927 22:03:28.697690 26041 net.cpp:186] Top shape: 128 64 8 8 (524288)
I0927 22:03:28.697695 26041 net.cpp:194] Memory required for data: 1066926592
I0927 22:03:28.697705 26041 layer_factory.hpp:77] Creating layer conv4_2_scale0
I0927 22:03:28.697711 26041 net.cpp:128] Creating Layer conv4_2_scale0
I0927 22:03:28.697715 26041 net.cpp:558] conv4_2_scale0 <- conv4_2_0
I0927 22:03:28.697723 26041 net.cpp:509] conv4_2_scale0 -> conv4_2_0 (in-place)
I0927 22:03:28.697767 26041 layer_factory.hpp:77] Creating layer conv4_2_scale0
I0927 22:03:28.697926 26041 net.cpp:172] Setting up conv4_2_scale0
I0927 22:03:28.697937 26041 net.cpp:186] Top shape: 128 64 8 8 (524288)
I0927 22:03:28.697942 26041 net.cpp:194] Memory required for data: 1069023744
I0927 22:03:28.697949 26041 layer_factory.hpp:77] Creating layer conv4_2_ReLU0
I0927 22:03:28.697955 26041 net.cpp:128] Creating Layer conv4_2_ReLU0
I0927 22:03:28.697960 26041 net.cpp:558] conv4_2_ReLU0 <- conv4_2_0
I0927 22:03:28.697968 26041 net.cpp:509] conv4_2_ReLU0 -> conv4_2_0 (in-place)
I0927 22:03:28.698209 26041 net.cpp:172] Setting up conv4_2_ReLU0
I0927 22:03:28.698222 26041 net.cpp:186] Top shape: 128 64 8 8 (524288)
I0927 22:03:28.698226 26041 net.cpp:194] Memory required for data: 1071120896
I0927 22:03:28.698231 26041 layer_factory.hpp:77] Creating layer conv4_2_1
I0927 22:03:28.698243 26041 net.cpp:128] Creating Layer conv4_2_1
I0927 22:03:28.698248 26041 net.cpp:558] conv4_2_1 <- conv4_2_0
I0927 22:03:28.698258 26041 net.cpp:522] conv4_2_1 -> conv4_2_1
I0927 22:03:28.700337 26041 net.cpp:172] Setting up conv4_2_1
I0927 22:03:28.700366 26041 net.cpp:186] Top shape: 128 64 8 8 (524288)
I0927 22:03:28.700371 26041 net.cpp:194] Memory required for data: 1073218048
I0927 22:03:28.700382 26041 layer_factory.hpp:77] Creating layer conv4_2bn1
I0927 22:03:28.700393 26041 net.cpp:128] Creating Layer conv4_2bn1
I0927 22:03:28.700398 26041 net.cpp:558] conv4_2bn1 <- conv4_2_1
I0927 22:03:28.700405 26041 net.cpp:509] conv4_2bn1 -> conv4_2_1 (in-place)
I0927 22:03:28.700700 26041 net.cpp:172] Setting up conv4_2bn1
I0927 22:03:28.700711 26041 net.cpp:186] Top shape: 128 64 8 8 (524288)
I0927 22:03:28.700716 26041 net.cpp:194] Memory required for data: 1075315200
I0927 22:03:28.700726 26041 layer_factory.hpp:77] Creating layer conv4_2_scale1
I0927 22:03:28.700733 26041 net.cpp:128] Creating Layer conv4_2_scale1
I0927 22:03:28.700753 26041 net.cpp:558] conv4_2_scale1 <- conv4_2_1
I0927 22:03:28.700760 26041 net.cpp:509] conv4_2_scale1 -> conv4_2_1 (in-place)
I0927 22:03:28.700809 26041 layer_factory.hpp:77] Creating layer conv4_2_scale1
I0927 22:03:28.700975 26041 net.cpp:172] Setting up conv4_2_scale1
I0927 22:03:28.700986 26041 net.cpp:186] Top shape: 128 64 8 8 (524288)
I0927 22:03:28.700991 26041 net.cpp:194] Memory required for data: 1077412352
I0927 22:03:28.700999 26041 layer_factory.hpp:77] Creating layer conv4_Eltwise_2
I0927 22:03:28.701009 26041 net.cpp:128] Creating Layer conv4_Eltwise_2
I0927 22:03:28.701014 26041 net.cpp:558] conv4_Eltwise_2 <- conv4_Eltwise_1_conv4_1ReLU_1_0_split_1
I0927 22:03:28.701019 26041 net.cpp:558] conv4_Eltwise_2 <- conv4_2_1
I0927 22:03:28.701025 26041 net.cpp:522] conv4_Eltwise_2 -> conv4_Eltwise_2
I0927 22:03:28.701051 26041 net.cpp:172] Setting up conv4_Eltwise_2
I0927 22:03:28.701062 26041 net.cpp:186] Top shape: 128 64 8 8 (524288)
I0927 22:03:28.701066 26041 net.cpp:194] Memory required for data: 1079509504
I0927 22:03:28.701071 26041 layer_factory.hpp:77] Creating layer conv4_2ReLU_1
I0927 22:03:28.701076 26041 net.cpp:128] Creating Layer conv4_2ReLU_1
I0927 22:03:28.701081 26041 net.cpp:558] conv4_2ReLU_1 <- conv4_Eltwise_2
I0927 22:03:28.701089 26041 net.cpp:509] conv4_2ReLU_1 -> conv4_Eltwise_2 (in-place)
I0927 22:03:28.701529 26041 net.cpp:172] Setting up conv4_2ReLU_1
I0927 22:03:28.701550 26041 net.cpp:186] Top shape: 128 64 8 8 (524288)
I0927 22:03:28.701555 26041 net.cpp:194] Memory required for data: 1081606656
I0927 22:03:28.701560 26041 layer_factory.hpp:77] Creating layer conv4_Eltwise_2_conv4_2ReLU_1_0_split
I0927 22:03:28.701570 26041 net.cpp:128] Creating Layer conv4_Eltwise_2_conv4_2ReLU_1_0_split
I0927 22:03:28.701575 26041 net.cpp:558] conv4_Eltwise_2_conv4_2ReLU_1_0_split <- conv4_Eltwise_2
I0927 22:03:28.701583 26041 net.cpp:522] conv4_Eltwise_2_conv4_2ReLU_1_0_split -> conv4_Eltwise_2_conv4_2ReLU_1_0_split_0
I0927 22:03:28.701593 26041 net.cpp:522] conv4_Eltwise_2_conv4_2ReLU_1_0_split -> conv4_Eltwise_2_conv4_2ReLU_1_0_split_1
I0927 22:03:28.701651 26041 net.cpp:172] Setting up conv4_Eltwise_2_conv4_2ReLU_1_0_split
I0927 22:03:28.701660 26041 net.cpp:186] Top shape: 128 64 8 8 (524288)
I0927 22:03:28.701668 26041 net.cpp:186] Top shape: 128 64 8 8 (524288)
I0927 22:03:28.701671 26041 net.cpp:194] Memory required for data: 1085800960
I0927 22:03:28.701675 26041 layer_factory.hpp:77] Creating layer conv4_3_0
I0927 22:03:28.701689 26041 net.cpp:128] Creating Layer conv4_3_0
I0927 22:03:28.701696 26041 net.cpp:558] conv4_3_0 <- conv4_Eltwise_2_conv4_2ReLU_1_0_split_0
I0927 22:03:28.701707 26041 net.cpp:522] conv4_3_0 -> conv4_3_0
I0927 22:03:28.703621 26041 net.cpp:172] Setting up conv4_3_0
I0927 22:03:28.703649 26041 net.cpp:186] Top shape: 128 64 8 8 (524288)
I0927 22:03:28.703652 26041 net.cpp:194] Memory required for data: 1087898112
I0927 22:03:28.703662 26041 layer_factory.hpp:77] Creating layer conv4_3_bn0
I0927 22:03:28.703673 26041 net.cpp:128] Creating Layer conv4_3_bn0
I0927 22:03:28.703680 26041 net.cpp:558] conv4_3_bn0 <- conv4_3_0
I0927 22:03:28.703687 26041 net.cpp:509] conv4_3_bn0 -> conv4_3_0 (in-place)
I0927 22:03:28.703977 26041 net.cpp:172] Setting up conv4_3_bn0
I0927 22:03:28.703989 26041 net.cpp:186] Top shape: 128 64 8 8 (524288)
I0927 22:03:28.703992 26041 net.cpp:194] Memory required for data: 1089995264
I0927 22:03:28.704002 26041 layer_factory.hpp:77] Creating layer conv4_3_scale0
I0927 22:03:28.704010 26041 net.cpp:128] Creating Layer conv4_3_scale0
I0927 22:03:28.704015 26041 net.cpp:558] conv4_3_scale0 <- conv4_3_0
I0927 22:03:28.704020 26041 net.cpp:509] conv4_3_scale0 -> conv4_3_0 (in-place)
I0927 22:03:28.704066 26041 layer_factory.hpp:77] Creating layer conv4_3_scale0
I0927 22:03:28.704229 26041 net.cpp:172] Setting up conv4_3_scale0
I0927 22:03:28.704241 26041 net.cpp:186] Top shape: 128 64 8 8 (524288)
I0927 22:03:28.704246 26041 net.cpp:194] Memory required for data: 1092092416
I0927 22:03:28.704253 26041 layer_factory.hpp:77] Creating layer conv4_3_ReLU0
I0927 22:03:28.704279 26041 net.cpp:128] Creating Layer conv4_3_ReLU0
I0927 22:03:28.704284 26041 net.cpp:558] conv4_3_ReLU0 <- conv4_3_0
I0927 22:03:28.704294 26041 net.cpp:509] conv4_3_ReLU0 -> conv4_3_0 (in-place)
I0927 22:03:28.704538 26041 net.cpp:172] Setting up conv4_3_ReLU0
I0927 22:03:28.704552 26041 net.cpp:186] Top shape: 128 64 8 8 (524288)
I0927 22:03:28.704557 26041 net.cpp:194] Memory required for data: 1094189568
I0927 22:03:28.704562 26041 layer_factory.hpp:77] Creating layer conv4_3_1
I0927 22:03:28.704576 26041 net.cpp:128] Creating Layer conv4_3_1
I0927 22:03:28.704581 26041 net.cpp:558] conv4_3_1 <- conv4_3_0
I0927 22:03:28.704591 26041 net.cpp:522] conv4_3_1 -> conv4_3_1
I0927 22:03:28.706684 26041 net.cpp:172] Setting up conv4_3_1
I0927 22:03:28.706710 26041 net.cpp:186] Top shape: 128 64 8 8 (524288)
I0927 22:03:28.706715 26041 net.cpp:194] Memory required for data: 1096286720
I0927 22:03:28.706730 26041 layer_factory.hpp:77] Creating layer conv4_3bn1
I0927 22:03:28.706742 26041 net.cpp:128] Creating Layer conv4_3bn1
I0927 22:03:28.706749 26041 net.cpp:558] conv4_3bn1 <- conv4_3_1
I0927 22:03:28.706756 26041 net.cpp:509] conv4_3bn1 -> conv4_3_1 (in-place)
I0927 22:03:28.707072 26041 net.cpp:172] Setting up conv4_3bn1
I0927 22:03:28.707089 26041 net.cpp:186] Top shape: 128 64 8 8 (524288)
I0927 22:03:28.707094 26041 net.cpp:194] Memory required for data: 1098383872
I0927 22:03:28.707128 26041 layer_factory.hpp:77] Creating layer conv4_3_scale1
I0927 22:03:28.707134 26041 net.cpp:128] Creating Layer conv4_3_scale1
I0927 22:03:28.707139 26041 net.cpp:558] conv4_3_scale1 <- conv4_3_1
I0927 22:03:28.707145 26041 net.cpp:509] conv4_3_scale1 -> conv4_3_1 (in-place)
I0927 22:03:28.707195 26041 layer_factory.hpp:77] Creating layer conv4_3_scale1
I0927 22:03:28.707365 26041 net.cpp:172] Setting up conv4_3_scale1
I0927 22:03:28.707377 26041 net.cpp:186] Top shape: 128 64 8 8 (524288)
I0927 22:03:28.707381 26041 net.cpp:194] Memory required for data: 1100481024
I0927 22:03:28.707389 26041 layer_factory.hpp:77] Creating layer conv4_Eltwise_3
I0927 22:03:28.707398 26041 net.cpp:128] Creating Layer conv4_Eltwise_3
I0927 22:03:28.707406 26041 net.cpp:558] conv4_Eltwise_3 <- conv4_Eltwise_2_conv4_2ReLU_1_0_split_1
I0927 22:03:28.707412 26041 net.cpp:558] conv4_Eltwise_3 <- conv4_3_1
I0927 22:03:28.707420 26041 net.cpp:522] conv4_Eltwise_3 -> conv4_Eltwise_3
I0927 22:03:28.707446 26041 net.cpp:172] Setting up conv4_Eltwise_3
I0927 22:03:28.707453 26041 net.cpp:186] Top shape: 128 64 8 8 (524288)
I0927 22:03:28.707458 26041 net.cpp:194] Memory required for data: 1102578176
I0927 22:03:28.707461 26041 layer_factory.hpp:77] Creating layer conv4_3ReLU_1
I0927 22:03:28.707468 26041 net.cpp:128] Creating Layer conv4_3ReLU_1
I0927 22:03:28.707473 26041 net.cpp:558] conv4_3ReLU_1 <- conv4_Eltwise_3
I0927 22:03:28.707480 26041 net.cpp:509] conv4_3ReLU_1 -> conv4_Eltwise_3 (in-place)
I0927 22:03:28.707728 26041 net.cpp:172] Setting up conv4_3ReLU_1
I0927 22:03:28.707742 26041 net.cpp:186] Top shape: 128 64 8 8 (524288)
I0927 22:03:28.707747 26041 net.cpp:194] Memory required for data: 1104675328
I0927 22:03:28.707752 26041 layer_factory.hpp:77] Creating layer conv4_Eltwise_3_conv4_3ReLU_1_0_split
I0927 22:03:28.707758 26041 net.cpp:128] Creating Layer conv4_Eltwise_3_conv4_3ReLU_1_0_split
I0927 22:03:28.707763 26041 net.cpp:558] conv4_Eltwise_3_conv4_3ReLU_1_0_split <- conv4_Eltwise_3
I0927 22:03:28.707772 26041 net.cpp:522] conv4_Eltwise_3_conv4_3ReLU_1_0_split -> conv4_Eltwise_3_conv4_3ReLU_1_0_split_0
I0927 22:03:28.707780 26041 net.cpp:522] conv4_Eltwise_3_conv4_3ReLU_1_0_split -> conv4_Eltwise_3_conv4_3ReLU_1_0_split_1
I0927 22:03:28.707837 26041 net.cpp:172] Setting up conv4_Eltwise_3_conv4_3ReLU_1_0_split
I0927 22:03:28.707849 26041 net.cpp:186] Top shape: 128 64 8 8 (524288)
I0927 22:03:28.707854 26041 net.cpp:186] Top shape: 128 64 8 8 (524288)
I0927 22:03:28.707859 26041 net.cpp:194] Memory required for data: 1108869632
I0927 22:03:28.707862 26041 layer_factory.hpp:77] Creating layer conv4_4_0
I0927 22:03:28.707891 26041 net.cpp:128] Creating Layer conv4_4_0
I0927 22:03:28.707897 26041 net.cpp:558] conv4_4_0 <- conv4_Eltwise_3_conv4_3ReLU_1_0_split_0
I0927 22:03:28.707907 26041 net.cpp:522] conv4_4_0 -> conv4_4_0
I0927 22:03:28.709805 26041 net.cpp:172] Setting up conv4_4_0
I0927 22:03:28.709830 26041 net.cpp:186] Top shape: 128 64 8 8 (524288)
I0927 22:03:28.709836 26041 net.cpp:194] Memory required for data: 1110966784
I0927 22:03:28.709849 26041 layer_factory.hpp:77] Creating layer conv4_4_bn0
I0927 22:03:28.709861 26041 net.cpp:128] Creating Layer conv4_4_bn0
I0927 22:03:28.709873 26041 net.cpp:558] conv4_4_bn0 <- conv4_4_0
I0927 22:03:28.709880 26041 net.cpp:509] conv4_4_bn0 -> conv4_4_0 (in-place)
I0927 22:03:28.710171 26041 net.cpp:172] Setting up conv4_4_bn0
I0927 22:03:28.710184 26041 net.cpp:186] Top shape: 128 64 8 8 (524288)
I0927 22:03:28.710191 26041 net.cpp:194] Memory required for data: 1113063936
I0927 22:03:28.710201 26041 layer_factory.hpp:77] Creating layer conv4_4_scale0
I0927 22:03:28.710207 26041 net.cpp:128] Creating Layer conv4_4_scale0
I0927 22:03:28.710211 26041 net.cpp:558] conv4_4_scale0 <- conv4_4_0
I0927 22:03:28.710217 26041 net.cpp:509] conv4_4_scale0 -> conv4_4_0 (in-place)
I0927 22:03:28.710266 26041 layer_factory.hpp:77] Creating layer conv4_4_scale0
I0927 22:03:28.710430 26041 net.cpp:172] Setting up conv4_4_scale0
I0927 22:03:28.710441 26041 net.cpp:186] Top shape: 128 64 8 8 (524288)
I0927 22:03:28.710445 26041 net.cpp:194] Memory required for data: 1115161088
I0927 22:03:28.710453 26041 layer_factory.hpp:77] Creating layer conv4_4_ReLU0
I0927 22:03:28.710463 26041 net.cpp:128] Creating Layer conv4_4_ReLU0
I0927 22:03:28.710467 26041 net.cpp:558] conv4_4_ReLU0 <- conv4_4_0
I0927 22:03:28.710474 26041 net.cpp:509] conv4_4_ReLU0 -> conv4_4_0 (in-place)
I0927 22:03:28.710940 26041 net.cpp:172] Setting up conv4_4_ReLU0
I0927 22:03:28.710963 26041 net.cpp:186] Top shape: 128 64 8 8 (524288)
I0927 22:03:28.710968 26041 net.cpp:194] Memory required for data: 1117258240
I0927 22:03:28.710973 26041 layer_factory.hpp:77] Creating layer conv4_4_1
I0927 22:03:28.710988 26041 net.cpp:128] Creating Layer conv4_4_1
I0927 22:03:28.710994 26041 net.cpp:558] conv4_4_1 <- conv4_4_0
I0927 22:03:28.711001 26041 net.cpp:522] conv4_4_1 -> conv4_4_1
I0927 22:03:28.713083 26041 net.cpp:172] Setting up conv4_4_1
I0927 22:03:28.713110 26041 net.cpp:186] Top shape: 128 64 8 8 (524288)
I0927 22:03:28.713114 26041 net.cpp:194] Memory required for data: 1119355392
I0927 22:03:28.713124 26041 layer_factory.hpp:77] Creating layer conv4_4bn1
I0927 22:03:28.713135 26041 net.cpp:128] Creating Layer conv4_4bn1
I0927 22:03:28.713141 26041 net.cpp:558] conv4_4bn1 <- conv4_4_1
I0927 22:03:28.713152 26041 net.cpp:509] conv4_4bn1 -> conv4_4_1 (in-place)
I0927 22:03:28.713455 26041 net.cpp:172] Setting up conv4_4bn1
I0927 22:03:28.713466 26041 net.cpp:186] Top shape: 128 64 8 8 (524288)
I0927 22:03:28.713470 26041 net.cpp:194] Memory required for data: 1121452544
I0927 22:03:28.713480 26041 layer_factory.hpp:77] Creating layer conv4_4_scale1
I0927 22:03:28.713487 26041 net.cpp:128] Creating Layer conv4_4_scale1
I0927 22:03:28.713492 26041 net.cpp:558] conv4_4_scale1 <- conv4_4_1
I0927 22:03:28.713500 26041 net.cpp:509] conv4_4_scale1 -> conv4_4_1 (in-place)
I0927 22:03:28.713543 26041 layer_factory.hpp:77] Creating layer conv4_4_scale1
I0927 22:03:28.713718 26041 net.cpp:172] Setting up conv4_4_scale1
I0927 22:03:28.713729 26041 net.cpp:186] Top shape: 128 64 8 8 (524288)
I0927 22:03:28.713733 26041 net.cpp:194] Memory required for data: 1123549696
I0927 22:03:28.713742 26041 layer_factory.hpp:77] Creating layer conv4_Eltwise_4
I0927 22:03:28.713749 26041 net.cpp:128] Creating Layer conv4_Eltwise_4
I0927 22:03:28.713754 26041 net.cpp:558] conv4_Eltwise_4 <- conv4_Eltwise_3_conv4_3ReLU_1_0_split_1
I0927 22:03:28.713759 26041 net.cpp:558] conv4_Eltwise_4 <- conv4_4_1
I0927 22:03:28.713768 26041 net.cpp:522] conv4_Eltwise_4 -> conv4_Eltwise_4
I0927 22:03:28.713794 26041 net.cpp:172] Setting up conv4_Eltwise_4
I0927 22:03:28.713820 26041 net.cpp:186] Top shape: 128 64 8 8 (524288)
I0927 22:03:28.713825 26041 net.cpp:194] Memory required for data: 1125646848
I0927 22:03:28.713829 26041 layer_factory.hpp:77] Creating layer conv4_4ReLU_1
I0927 22:03:28.713835 26041 net.cpp:128] Creating Layer conv4_4ReLU_1
I0927 22:03:28.713842 26041 net.cpp:558] conv4_4ReLU_1 <- conv4_Eltwise_4
I0927 22:03:28.713848 26041 net.cpp:509] conv4_4ReLU_1 -> conv4_Eltwise_4 (in-place)
I0927 22:03:28.714098 26041 net.cpp:172] Setting up conv4_4ReLU_1
I0927 22:03:28.714112 26041 net.cpp:186] Top shape: 128 64 8 8 (524288)
I0927 22:03:28.714116 26041 net.cpp:194] Memory required for data: 1127744000
I0927 22:03:28.714121 26041 layer_factory.hpp:77] Creating layer conv4_Eltwise_4_conv4_4ReLU_1_0_split
I0927 22:03:28.714131 26041 net.cpp:128] Creating Layer conv4_Eltwise_4_conv4_4ReLU_1_0_split
I0927 22:03:28.714140 26041 net.cpp:558] conv4_Eltwise_4_conv4_4ReLU_1_0_split <- conv4_Eltwise_4
I0927 22:03:28.714148 26041 net.cpp:522] conv4_Eltwise_4_conv4_4ReLU_1_0_split -> conv4_Eltwise_4_conv4_4ReLU_1_0_split_0
I0927 22:03:28.714155 26041 net.cpp:522] conv4_Eltwise_4_conv4_4ReLU_1_0_split -> conv4_Eltwise_4_conv4_4ReLU_1_0_split_1
I0927 22:03:28.714215 26041 net.cpp:172] Setting up conv4_Eltwise_4_conv4_4ReLU_1_0_split
I0927 22:03:28.714226 26041 net.cpp:186] Top shape: 128 64 8 8 (524288)
I0927 22:03:28.714231 26041 net.cpp:186] Top shape: 128 64 8 8 (524288)
I0927 22:03:28.714236 26041 net.cpp:194] Memory required for data: 1131938304
I0927 22:03:28.714241 26041 layer_factory.hpp:77] Creating layer conv4_5_0
I0927 22:03:28.714252 26041 net.cpp:128] Creating Layer conv4_5_0
I0927 22:03:28.714257 26041 net.cpp:558] conv4_5_0 <- conv4_Eltwise_4_conv4_4ReLU_1_0_split_0
I0927 22:03:28.714267 26041 net.cpp:522] conv4_5_0 -> conv4_5_0
I0927 22:03:28.716219 26041 net.cpp:172] Setting up conv4_5_0
I0927 22:03:28.716248 26041 net.cpp:186] Top shape: 128 64 8 8 (524288)
I0927 22:03:28.716251 26041 net.cpp:194] Memory required for data: 1134035456
I0927 22:03:28.716264 26041 layer_factory.hpp:77] Creating layer conv4_5_bn0
I0927 22:03:28.716275 26041 net.cpp:128] Creating Layer conv4_5_bn0
I0927 22:03:28.716284 26041 net.cpp:558] conv4_5_bn0 <- conv4_5_0
I0927 22:03:28.716290 26041 net.cpp:509] conv4_5_bn0 -> conv4_5_0 (in-place)
I0927 22:03:28.716588 26041 net.cpp:172] Setting up conv4_5_bn0
I0927 22:03:28.716601 26041 net.cpp:186] Top shape: 128 64 8 8 (524288)
I0927 22:03:28.716605 26041 net.cpp:194] Memory required for data: 1136132608
I0927 22:03:28.716616 26041 layer_factory.hpp:77] Creating layer conv4_5_scale0
I0927 22:03:28.716625 26041 net.cpp:128] Creating Layer conv4_5_scale0
I0927 22:03:28.716629 26041 net.cpp:558] conv4_5_scale0 <- conv4_5_0
I0927 22:03:28.716635 26041 net.cpp:509] conv4_5_scale0 -> conv4_5_0 (in-place)
I0927 22:03:28.716683 26041 layer_factory.hpp:77] Creating layer conv4_5_scale0
I0927 22:03:28.716853 26041 net.cpp:172] Setting up conv4_5_scale0
I0927 22:03:28.716864 26041 net.cpp:186] Top shape: 128 64 8 8 (524288)
I0927 22:03:28.716868 26041 net.cpp:194] Memory required for data: 1138229760
I0927 22:03:28.716876 26041 layer_factory.hpp:77] Creating layer conv4_5_ReLU0
I0927 22:03:28.716888 26041 net.cpp:128] Creating Layer conv4_5_ReLU0
I0927 22:03:28.716893 26041 net.cpp:558] conv4_5_ReLU0 <- conv4_5_0
I0927 22:03:28.716899 26041 net.cpp:509] conv4_5_ReLU0 -> conv4_5_0 (in-place)
I0927 22:03:28.717140 26041 net.cpp:172] Setting up conv4_5_ReLU0
I0927 22:03:28.717155 26041 net.cpp:186] Top shape: 128 64 8 8 (524288)
I0927 22:03:28.717160 26041 net.cpp:194] Memory required for data: 1140326912
I0927 22:03:28.717164 26041 layer_factory.hpp:77] Creating layer conv4_5_1
I0927 22:03:28.717180 26041 net.cpp:128] Creating Layer conv4_5_1
I0927 22:03:28.717185 26041 net.cpp:558] conv4_5_1 <- conv4_5_0
I0927 22:03:28.717192 26041 net.cpp:522] conv4_5_1 -> conv4_5_1
I0927 22:03:28.719331 26041 net.cpp:172] Setting up conv4_5_1
I0927 22:03:28.719357 26041 net.cpp:186] Top shape: 128 64 8 8 (524288)
I0927 22:03:28.719362 26041 net.cpp:194] Memory required for data: 1142424064
I0927 22:03:28.719388 26041 layer_factory.hpp:77] Creating layer conv4_5bn1
I0927 22:03:28.719404 26041 net.cpp:128] Creating Layer conv4_5bn1
I0927 22:03:28.719409 26041 net.cpp:558] conv4_5bn1 <- conv4_5_1
I0927 22:03:28.719419 26041 net.cpp:509] conv4_5bn1 -> conv4_5_1 (in-place)
I0927 22:03:28.719732 26041 net.cpp:172] Setting up conv4_5bn1
I0927 22:03:28.719744 26041 net.cpp:186] Top shape: 128 64 8 8 (524288)
I0927 22:03:28.719748 26041 net.cpp:194] Memory required for data: 1144521216
I0927 22:03:28.719758 26041 layer_factory.hpp:77] Creating layer conv4_5_scale1
I0927 22:03:28.719765 26041 net.cpp:128] Creating Layer conv4_5_scale1
I0927 22:03:28.719769 26041 net.cpp:558] conv4_5_scale1 <- conv4_5_1
I0927 22:03:28.719777 26041 net.cpp:509] conv4_5_scale1 -> conv4_5_1 (in-place)
I0927 22:03:28.719822 26041 layer_factory.hpp:77] Creating layer conv4_5_scale1
I0927 22:03:28.719990 26041 net.cpp:172] Setting up conv4_5_scale1
I0927 22:03:28.720001 26041 net.cpp:186] Top shape: 128 64 8 8 (524288)
I0927 22:03:28.720007 26041 net.cpp:194] Memory required for data: 1146618368
I0927 22:03:28.720016 26041 layer_factory.hpp:77] Creating layer conv4_Eltwise_5
I0927 22:03:28.720021 26041 net.cpp:128] Creating Layer conv4_Eltwise_5
I0927 22:03:28.720026 26041 net.cpp:558] conv4_Eltwise_5 <- conv4_Eltwise_4_conv4_4ReLU_1_0_split_1
I0927 22:03:28.720032 26041 net.cpp:558] conv4_Eltwise_5 <- conv4_5_1
I0927 22:03:28.720041 26041 net.cpp:522] conv4_Eltwise_5 -> conv4_Eltwise_5
I0927 22:03:28.720064 26041 net.cpp:172] Setting up conv4_Eltwise_5
I0927 22:03:28.720072 26041 net.cpp:186] Top shape: 128 64 8 8 (524288)
I0927 22:03:28.720075 26041 net.cpp:194] Memory required for data: 1148715520
I0927 22:03:28.720080 26041 layer_factory.hpp:77] Creating layer conv4_5ReLU_1
I0927 22:03:28.720088 26041 net.cpp:128] Creating Layer conv4_5ReLU_1
I0927 22:03:28.720093 26041 net.cpp:558] conv4_5ReLU_1 <- conv4_Eltwise_5
I0927 22:03:28.720098 26041 net.cpp:509] conv4_5ReLU_1 -> conv4_Eltwise_5 (in-place)
I0927 22:03:28.720347 26041 net.cpp:172] Setting up conv4_5ReLU_1
I0927 22:03:28.720362 26041 net.cpp:186] Top shape: 128 64 8 8 (524288)
I0927 22:03:28.720367 26041 net.cpp:194] Memory required for data: 1150812672
I0927 22:03:28.720372 26041 layer_factory.hpp:77] Creating layer conv4_Eltwise_5_conv4_5ReLU_1_0_split
I0927 22:03:28.720383 26041 net.cpp:128] Creating Layer conv4_Eltwise_5_conv4_5ReLU_1_0_split
I0927 22:03:28.720389 26041 net.cpp:558] conv4_Eltwise_5_conv4_5ReLU_1_0_split <- conv4_Eltwise_5
I0927 22:03:28.720396 26041 net.cpp:522] conv4_Eltwise_5_conv4_5ReLU_1_0_split -> conv4_Eltwise_5_conv4_5ReLU_1_0_split_0
I0927 22:03:28.720404 26041 net.cpp:522] conv4_Eltwise_5_conv4_5ReLU_1_0_split -> conv4_Eltwise_5_conv4_5ReLU_1_0_split_1
I0927 22:03:28.720464 26041 net.cpp:172] Setting up conv4_Eltwise_5_conv4_5ReLU_1_0_split
I0927 22:03:28.720475 26041 net.cpp:186] Top shape: 128 64 8 8 (524288)
I0927 22:03:28.720481 26041 net.cpp:186] Top shape: 128 64 8 8 (524288)
I0927 22:03:28.720485 26041 net.cpp:194] Memory required for data: 1155006976
I0927 22:03:28.720489 26041 layer_factory.hpp:77] Creating layer conv4_6_0
I0927 22:03:28.720504 26041 net.cpp:128] Creating Layer conv4_6_0
I0927 22:03:28.720508 26041 net.cpp:558] conv4_6_0 <- conv4_Eltwise_5_conv4_5ReLU_1_0_split_0
I0927 22:03:28.720515 26041 net.cpp:522] conv4_6_0 -> conv4_6_0
I0927 22:03:28.722434 26041 net.cpp:172] Setting up conv4_6_0
I0927 22:03:28.722460 26041 net.cpp:186] Top shape: 128 64 8 8 (524288)
I0927 22:03:28.722465 26041 net.cpp:194] Memory required for data: 1157104128
I0927 22:03:28.722476 26041 layer_factory.hpp:77] Creating layer conv4_6_bn0
I0927 22:03:28.722486 26041 net.cpp:128] Creating Layer conv4_6_bn0
I0927 22:03:28.722491 26041 net.cpp:558] conv4_6_bn0 <- conv4_6_0
I0927 22:03:28.722501 26041 net.cpp:509] conv4_6_bn0 -> conv4_6_0 (in-place)
I0927 22:03:28.722797 26041 net.cpp:172] Setting up conv4_6_bn0
I0927 22:03:28.722808 26041 net.cpp:186] Top shape: 128 64 8 8 (524288)
I0927 22:03:28.722837 26041 net.cpp:194] Memory required for data: 1159201280
I0927 22:03:28.722848 26041 layer_factory.hpp:77] Creating layer conv4_6_scale0
I0927 22:03:28.722858 26041 net.cpp:128] Creating Layer conv4_6_scale0
I0927 22:03:28.722863 26041 net.cpp:558] conv4_6_scale0 <- conv4_6_0
I0927 22:03:28.722868 26041 net.cpp:509] conv4_6_scale0 -> conv4_6_0 (in-place)
I0927 22:03:28.722919 26041 layer_factory.hpp:77] Creating layer conv4_6_scale0
I0927 22:03:28.723093 26041 net.cpp:172] Setting up conv4_6_scale0
I0927 22:03:28.723103 26041 net.cpp:186] Top shape: 128 64 8 8 (524288)
I0927 22:03:28.723106 26041 net.cpp:194] Memory required for data: 1161298432
I0927 22:03:28.723114 26041 layer_factory.hpp:77] Creating layer conv4_6_ReLU0
I0927 22:03:28.723126 26041 net.cpp:128] Creating Layer conv4_6_ReLU0
I0927 22:03:28.723131 26041 net.cpp:558] conv4_6_ReLU0 <- conv4_6_0
I0927 22:03:28.723140 26041 net.cpp:509] conv4_6_ReLU0 -> conv4_6_0 (in-place)
I0927 22:03:28.723592 26041 net.cpp:172] Setting up conv4_6_ReLU0
I0927 22:03:28.723616 26041 net.cpp:186] Top shape: 128 64 8 8 (524288)
I0927 22:03:28.723621 26041 net.cpp:194] Memory required for data: 1163395584
I0927 22:03:28.723626 26041 layer_factory.hpp:77] Creating layer conv4_6_1
I0927 22:03:28.723639 26041 net.cpp:128] Creating Layer conv4_6_1
I0927 22:03:28.723645 26041 net.cpp:558] conv4_6_1 <- conv4_6_0
I0927 22:03:28.723655 26041 net.cpp:522] conv4_6_1 -> conv4_6_1
I0927 22:03:28.725764 26041 net.cpp:172] Setting up conv4_6_1
I0927 22:03:28.725791 26041 net.cpp:186] Top shape: 128 64 8 8 (524288)
I0927 22:03:28.725796 26041 net.cpp:194] Memory required for data: 1165492736
I0927 22:03:28.725806 26041 layer_factory.hpp:77] Creating layer conv4_6bn1
I0927 22:03:28.725817 26041 net.cpp:128] Creating Layer conv4_6bn1
I0927 22:03:28.725823 26041 net.cpp:558] conv4_6bn1 <- conv4_6_1
I0927 22:03:28.725836 26041 net.cpp:509] conv4_6bn1 -> conv4_6_1 (in-place)
I0927 22:03:28.726146 26041 net.cpp:172] Setting up conv4_6bn1
I0927 22:03:28.726161 26041 net.cpp:186] Top shape: 128 64 8 8 (524288)
I0927 22:03:28.726164 26041 net.cpp:194] Memory required for data: 1167589888
I0927 22:03:28.726174 26041 layer_factory.hpp:77] Creating layer conv4_6_scale1
I0927 22:03:28.726181 26041 net.cpp:128] Creating Layer conv4_6_scale1
I0927 22:03:28.726186 26041 net.cpp:558] conv4_6_scale1 <- conv4_6_1
I0927 22:03:28.726192 26041 net.cpp:509] conv4_6_scale1 -> conv4_6_1 (in-place)
I0927 22:03:28.726244 26041 layer_factory.hpp:77] Creating layer conv4_6_scale1
I0927 22:03:28.726418 26041 net.cpp:172] Setting up conv4_6_scale1
I0927 22:03:28.726430 26041 net.cpp:186] Top shape: 128 64 8 8 (524288)
I0927 22:03:28.726435 26041 net.cpp:194] Memory required for data: 1169687040
I0927 22:03:28.726444 26041 layer_factory.hpp:77] Creating layer conv4_Eltwise_6
I0927 22:03:28.726449 26041 net.cpp:128] Creating Layer conv4_Eltwise_6
I0927 22:03:28.726454 26041 net.cpp:558] conv4_Eltwise_6 <- conv4_Eltwise_5_conv4_5ReLU_1_0_split_1
I0927 22:03:28.726464 26041 net.cpp:558] conv4_Eltwise_6 <- conv4_6_1
I0927 22:03:28.726470 26041 net.cpp:522] conv4_Eltwise_6 -> conv4_Eltwise_6
I0927 22:03:28.726495 26041 net.cpp:172] Setting up conv4_Eltwise_6
I0927 22:03:28.726501 26041 net.cpp:186] Top shape: 128 64 8 8 (524288)
I0927 22:03:28.726505 26041 net.cpp:194] Memory required for data: 1171784192
I0927 22:03:28.726510 26041 layer_factory.hpp:77] Creating layer conv4_6ReLU_1
I0927 22:03:28.726517 26041 net.cpp:128] Creating Layer conv4_6ReLU_1
I0927 22:03:28.726522 26041 net.cpp:558] conv4_6ReLU_1 <- conv4_Eltwise_6
I0927 22:03:28.726528 26041 net.cpp:509] conv4_6ReLU_1 -> conv4_Eltwise_6 (in-place)
I0927 22:03:28.726773 26041 net.cpp:172] Setting up conv4_6ReLU_1
…
I0927 22:03:28.816926 26041 net.cpp:186] Top shape: 10 32 16 16 (81920)
I0927 22:03:28.816929 26041 net.cpp:194] Memory required for data: 75817080
I0927 22:03:28.816937 26041 layer_factory.hpp:77] Creating layer conv3_Eltwise_6
I0927 22:03:28.816946 26041 net.cpp:128] Creating Layer conv3_Eltwise_6
I0927 22:03:28.816951 26041 net.cpp:558] conv3_Eltwise_6 <- conv3_Eltwise_5_conv3_5ReLU_1_0_split_1
I0927 22:03:28.816956 26041 net.cpp:558] conv3_Eltwise_6 <- conv3_6_1
I0927 22:03:28.816962 26041 net.cpp:522] conv3_Eltwise_6 -> conv3_Eltwise_6
I0927 22:03:28.816990 26041 net.cpp:172] Setting up conv3_Eltwise_6
I0927 22:03:28.816998 26041 net.cpp:186] Top shape: 10 32 16 16 (81920)
I0927 22:03:28.817000 26041 net.cpp:194] Memory required for data: 76144760
I0927 22:03:28.817005 26041 layer_factory.hpp:77] Creating layer conv3_6ReLU_1
I0927 22:03:28.817011 26041 net.cpp:128] Creating Layer conv3_6ReLU_1
I0927 22:03:28.817016 26041 net.cpp:558] conv3_6ReLU_1 <- conv3_Eltwise_6
I0927 22:03:28.817021 26041 net.cpp:509] conv3_6ReLU_1 -> conv3_Eltwise_6 (in-place)
I0927 22:03:28.817270 26041 net.cpp:172] Setting up conv3_6ReLU_1
I0927 22:03:28.817281 26041 net.cpp:186] Top shape: 10 32 16 16 (81920)
I0927 22:03:28.817284 26041 net.cpp:194] Memory required for data: 76472440
I0927 22:03:28.817288 26041 layer_factory.hpp:77] Creating layer conv3_Eltwise_6_conv3_6ReLU_1_0_split
I0927 22:03:28.817311 26041 net.cpp:128] Creating Layer conv3_Eltwise_6_conv3_6ReLU_1_0_split
I0927 22:03:28.817317 26041 net.cpp:558] conv3_Eltwise_6_conv3_6ReLU_1_0_split <- conv3_Eltwise_6
I0927 22:03:28.817324 26041 net.cpp:522] conv3_Eltwise_6_conv3_6ReLU_1_0_split -> conv3_Eltwise_6_conv3_6ReLU_1_0_split_0
I0927 22:03:28.817333 26041 net.cpp:522] conv3_Eltwise_6_conv3_6ReLU_1_0_split -> conv3_Eltwise_6_conv3_6ReLU_1_0_split_1
I0927 22:03:28.817397 26041 net.cpp:172] Setting up conv3_Eltwise_6_conv3_6ReLU_1_0_split
I0927 22:03:28.817405 26041 net.cpp:186] Top shape: 10 32 16 16 (81920)
I0927 22:03:28.817410 26041 net.cpp:186] Top shape: 10 32 16 16 (81920)
I0927 22:03:28.817414 26041 net.cpp:194] Memory required for data: 77127800
I0927 22:03:28.817418 26041 layer_factory.hpp:77] Creating layer conv3_7_0
I0927 22:03:28.817436 26041 net.cpp:128] Creating Layer conv3_7_0
I0927 22:03:28.817441 26041 net.cpp:558] conv3_7_0 <- conv3_Eltwise_6_conv3_6ReLU_1_0_split_0
I0927 22:03:28.817448 26041 net.cpp:522] conv3_7_0 -> conv3_7_0
I0927 22:03:28.819190 26041 net.cpp:172] Setting up conv3_7_0
I0927 22:03:28.819209 26041 net.cpp:186] Top shape: 10 32 16 16 (81920)
I0927 22:03:28.819213 26041 net.cpp:194] Memory required for data: 77455480
I0927 22:03:28.819224 26041 layer_factory.hpp:77] Creating layer conv3_7_bn0
I0927 22:03:28.819232 26041 net.cpp:128] Creating Layer conv3_7_bn0
I0927 22:03:28.819237 26041 net.cpp:558] conv3_7_bn0 <- conv3_7_0
I0927 22:03:28.819245 26041 net.cpp:509] conv3_7_bn0 -> conv3_7_0 (in-place)
I0927 22:03:28.819584 26041 net.cpp:172] Setting up conv3_7_bn0
I0927 22:03:28.819592 26041 net.cpp:186] Top shape: 10 32 16 16 (81920)
I0927 22:03:28.819597 26041 net.cpp:194] Memory required for data: 77783160
I0927 22:03:28.819605 26041 layer_factory.hpp:77] Creating layer conv3_7_scale0
I0927 22:03:28.819612 26041 net.cpp:128] Creating Layer conv3_7_scale0
I0927 22:03:28.819617 26041 net.cpp:558] conv3_7_scale0 <- conv3_7_0
I0927 22:03:28.819624 26041 net.cpp:509] conv3_7_scale0 -> conv3_7_0 (in-place)
I0927 22:03:28.819680 26041 layer_factory.hpp:77] Creating layer conv3_7_scale0
I0927 22:03:28.819864 26041 net.cpp:172] Setting up conv3_7_scale0
I0927 22:03:28.819871 26041 net.cpp:186] Top shape: 10 32 16 16 (81920)
I0927 22:03:28.819875 26041 net.cpp:194] Memory required for data: 78110840
I0927 22:03:28.819883 26041 layer_factory.hpp:77] Creating layer conv3_7_ReLU0
I0927 22:03:28.819890 26041 net.cpp:128] Creating Layer conv3_7_ReLU0
I0927 22:03:28.819893 26041 net.cpp:558] conv3_7_ReLU0 <- conv3_7_0
I0927 22:03:28.819898 26041 net.cpp:509] conv3_7_ReLU0 -> conv3_7_0 (in-place)
I0927 22:03:28.820363 26041 net.cpp:172] Setting up conv3_7_ReLU0
I0927 22:03:28.820380 26041 net.cpp:186] Top shape: 10 32 16 16 (81920)
I0927 22:03:28.820384 26041 net.cpp:194] Memory required for data: 78438520
I0927 22:03:28.820389 26041 layer_factory.hpp:77] Creating layer conv3_7_1
I0927 22:03:28.820405 26041 net.cpp:128] Creating Layer conv3_7_1
I0927 22:03:28.820410 26041 net.cpp:558] conv3_7_1 <- conv3_7_0
I0927 22:03:28.820418 26041 net.cpp:522] conv3_7_1 -> conv3_7_1
I0927 22:03:28.821998 26041 net.cpp:172] Setting up conv3_7_1
I0927 22:03:28.822016 26041 net.cpp:186] Top shape: 10 32 16 16 (81920)
I0927 22:03:28.822021 26041 net.cpp:194] Memory required for data: 78766200
I0927 22:03:28.822031 26041 layer_factory.hpp:77] Creating layer conv3_7bn1
I0927 22:03:28.822041 26041 net.cpp:128] Creating Layer conv3_7bn1
I0927 22:03:28.822046 26041 net.cpp:558] conv3_7bn1 <- conv3_7_1
I0927 22:03:28.822057 26041 net.cpp:509] conv3_7bn1 -> conv3_7_1 (in-place)
I0927 22:03:28.822383 26041 net.cpp:172] Setting up conv3_7bn1
I0927 22:03:28.822391 26041 net.cpp:186] Top shape: 10 32 16 16 (81920)
I0927 22:03:28.822394 26041 net.cpp:194] Memory required for data: 79093880
I0927 22:03:28.822404 26041 layer_factory.hpp:77] Creating layer conv3_7_scale1
I0927 22:03:28.822412 26041 net.cpp:128] Creating Layer conv3_7_scale1
I0927 22:03:28.822417 26041 net.cpp:558] conv3_7_scale1 <- conv3_7_1
I0927 22:03:28.822423 26041 net.cpp:509] conv3_7_scale1 -> conv3_7_1 (in-place)
I0927 22:03:28.822500 26041 layer_factory.hpp:77] Creating layer conv3_7_scale1
I0927 22:03:28.822686 26041 net.cpp:172] Setting up conv3_7_scale1
I0927 22:03:28.822695 26041 net.cpp:186] Top shape: 10 32 16 16 (81920)
I0927 22:03:28.822698 26041 net.cpp:194] Memory required for data: 79421560
I0927 22:03:28.822706 26041 layer_factory.hpp:77] Creating layer conv3_Eltwise_7
I0927 22:03:28.822715 26041 net.cpp:128] Creating Layer conv3_Eltwise_7
I0927 22:03:28.822721 26041 net.cpp:558] conv3_Eltwise_7 <- conv3_Eltwise_6_conv3_6ReLU_1_0_split_1
I0927 22:03:28.822726 26041 net.cpp:558] conv3_Eltwise_7 <- conv3_7_1
I0927 22:03:28.822731 26041 net.cpp:522] conv3_Eltwise_7 -> conv3_Eltwise_7
I0927 22:03:28.822760 26041 net.cpp:172] Setting up conv3_Eltwise_7
I0927 22:03:28.822767 26041 net.cpp:186] Top shape: 10 32 16 16 (81920)
I0927 22:03:28.822772 26041 net.cpp:194] Memory required for data: 79749240
I0927 22:03:28.822775 26041 layer_factory.hpp:77] Creating layer conv3_7ReLU_1
I0927 22:03:28.822782 26041 net.cpp:128] Creating Layer conv3_7ReLU_1
I0927 22:03:28.822785 26041 net.cpp:558] conv3_7ReLU_1 <- conv3_Eltwise_7
I0927 22:03:28.822793 26041 net.cpp:509] conv3_7ReLU_1 -> conv3_Eltwise_7 (in-place)
I0927 22:03:28.823062 26041 net.cpp:172] Setting up conv3_7ReLU_1
I0927 22:03:28.823076 26041 net.cpp:186] Top shape: 10 32 16 16 (81920)
I0927 22:03:28.823079 26041 net.cpp:194] Memory required for data: 80076920
I0927 22:03:28.823083 26041 layer_factory.hpp:77] Creating layer conv3_Eltwise_7_conv3_7ReLU_1_0_split
I0927 22:03:28.823091 26041 net.cpp:128] Creating Layer conv3_Eltwise_7_conv3_7ReLU_1_0_split
I0927 22:03:28.823096 26041 net.cpp:558] conv3_Eltwise_7_conv3_7ReLU_1_0_split <- conv3_Eltwise_7
I0927 22:03:28.823104 26041 net.cpp:522] conv3_Eltwise_7_conv3_7ReLU_1_0_split -> conv3_Eltwise_7_conv3_7ReLU_1_0_split_0
I0927 22:03:28.823113 26041 net.cpp:522] conv3_Eltwise_7_conv3_7ReLU_1_0_split -> conv3_Eltwise_7_conv3_7ReLU_1_0_split_1
I0927 22:03:28.823175 26041 net.cpp:172] Setting up conv3_Eltwise_7_conv3_7ReLU_1_0_split
I0927 22:03:28.823184 26041 net.cpp:186] Top shape: 10 32 16 16 (81920)
I0927 22:03:28.823189 26041 net.cpp:186] Top shape: 10 32 16 16 (81920)
I0927 22:03:28.823192 26041 net.cpp:194] Memory required for data: 80732280
I0927 22:03:28.823196 26041 layer_factory.hpp:77] Creating layer conv4_1_0
I0927 22:03:28.823210 26041 net.cpp:128] Creating Layer conv4_1_0
I0927 22:03:28.823215 26041 net.cpp:558] conv4_1_0 <- conv3_Eltwise_7_conv3_7ReLU_1_0_split_0
I0927 22:03:28.823225 26041 net.cpp:522] conv4_1_0 -> conv4_1_0
I0927 22:03:28.824981 26041 net.cpp:172] Setting up conv4_1_0
I0927 22:03:28.825000 26041 net.cpp:186] Top shape: 10 64 8 8 (40960)
I0927 22:03:28.825003 26041 net.cpp:194] Memory required for data: 80896120
I0927 22:03:28.825013 26041 layer_factory.hpp:77] Creating layer conv4_1_bn0
I0927 22:03:28.825024 26041 net.cpp:128] Creating Layer conv4_1_bn0
I0927 22:03:28.825029 26041 net.cpp:558] conv4_1_bn0 <- conv4_1_0
I0927 22:03:28.825037 26041 net.cpp:509] conv4_1_bn0 -> conv4_1_0 (in-place)
I0927 22:03:28.825376 26041 net.cpp:172] Setting up conv4_1_bn0
I0927 22:03:28.825382 26041 net.cpp:186] Top shape: 10 64 8 8 (40960)
I0927 22:03:28.825387 26041 net.cpp:194] Memory required for data: 81059960
I0927 22:03:28.825395 26041 layer_factory.hpp:77] Creating layer conv4_1_scale0
I0927 22:03:28.825402 26041 net.cpp:128] Creating Layer conv4_1_scale0
I0927 22:03:28.825407 26041 net.cpp:558] conv4_1_scale0 <- conv4_1_0
I0927 22:03:28.825412 26041 net.cpp:509] conv4_1_scale0 -> conv4_1_0 (in-place)
I0927 22:03:28.825475 26041 layer_factory.hpp:77] Creating layer conv4_1_scale0
I0927 22:03:28.825664 26041 net.cpp:172] Setting up conv4_1_scale0
I0927 22:03:28.825673 26041 net.cpp:186] Top shape: 10 64 8 8 (40960)
I0927 22:03:28.825678 26041 net.cpp:194] Memory required for data: 81223800
I0927 22:03:28.825685 26041 layer_factory.hpp:77] Creating layer conv4_1_ReLU0
I0927 22:03:28.825691 26041 net.cpp:128] Creating Layer conv4_1_ReLU0
I0927 22:03:28.825695 26041 net.cpp:558] conv4_1_ReLU0 <- conv4_1_0
I0927 22:03:28.825717 26041 net.cpp:509] conv4_1_ReLU0 -> conv4_1_0 (in-place)
I0927 22:03:28.825978 26041 net.cpp:172] Setting up conv4_1_ReLU0
I0927 22:03:28.825990 26041 net.cpp:186] Top shape: 10 64 8 8 (40960)
I0927 22:03:28.825995 26041 net.cpp:194] Memory required for data: 81387640
I0927 22:03:28.825999 26041 layer_factory.hpp:77] Creating layer conv4_1_1
I0927 22:03:28.826011 26041 net.cpp:128] Creating Layer conv4_1_1
I0927 22:03:28.826016 26041 net.cpp:558] conv4_1_1 <- conv4_1_0
I0927 22:03:28.826026 26041 net.cpp:522] conv4_1_1 -> conv4_1_1
I0927 22:03:28.828066 26041 net.cpp:172] Setting up conv4_1_1
I0927 22:03:28.828088 26041 net.cpp:186] Top shape: 10 64 8 8 (40960)
I0927 22:03:28.828091 26041 net.cpp:194] Memory required for data: 81551480
I0927 22:03:28.828101 26041 layer_factory.hpp:77] Creating layer conv4_1bn1
I0927 22:03:28.828109 26041 net.cpp:128] Creating Layer conv4_1bn1
I0927 22:03:28.828114 26041 net.cpp:558] conv4_1bn1 <- conv4_1_1
I0927 22:03:28.828124 26041 net.cpp:509] conv4_1bn1 -> conv4_1_1 (in-place)
I0927 22:03:28.828467 26041 net.cpp:172] Setting up conv4_1bn1
I0927 22:03:28.828474 26041 net.cpp:186] Top shape: 10 64 8 8 (40960)
I0927 22:03:28.828478 26041 net.cpp:194] Memory required for data: 81715320
I0927 22:03:28.828488 26041 layer_factory.hpp:77] Creating layer conv4_1_scale1
I0927 22:03:28.828495 26041 net.cpp:128] Creating Layer conv4_1_scale1
I0927 22:03:28.828500 26041 net.cpp:558] conv4_1_scale1 <- conv4_1_1
I0927 22:03:28.828507 26041 net.cpp:509] conv4_1_scale1 -> conv4_1_1 (in-place)
I0927 22:03:28.828564 26041 layer_factory.hpp:77] Creating layer conv4_1_scale1
I0927 22:03:28.828754 26041 net.cpp:172] Setting up conv4_1_scale1
I0927 22:03:28.828761 26041 net.cpp:186] Top shape: 10 64 8 8 (40960)
I0927 22:03:28.828765 26041 net.cpp:194] Memory required for data: 81879160
I0927 22:03:28.828773 26041 layer_factory.hpp:77] Creating layer conv4_1_down
I0927 22:03:28.828785 26041 net.cpp:128] Creating Layer conv4_1_down
I0927 22:03:28.828790 26041 net.cpp:558] conv4_1_down <- conv3_Eltwise_7_conv3_7ReLU_1_0_split_1
I0927 22:03:28.828799 26041 net.cpp:522] conv4_1_down -> conv4_1_down
I0927 22:03:28.830279 26041 net.cpp:172] Setting up conv4_1_down
I0927 22:03:28.830297 26041 net.cpp:186] Top shape: 10 64 8 8 (40960)
I0927 22:03:28.830302 26041 net.cpp:194] Memory required for data: 82043000
I0927 22:03:28.830312 26041 layer_factory.hpp:77] Creating layer conv4_1_bn_down
I0927 22:03:28.830322 26041 net.cpp:128] Creating Layer conv4_1_bn_down
I0927 22:03:28.830327 26041 net.cpp:558] conv4_1_bn_down <- conv4_1_down
I0927 22:03:28.830335 26041 net.cpp:509] conv4_1_bn_down -> conv4_1_down (in-place)
I0927 22:03:28.830673 26041 net.cpp:172] Setting up conv4_1_bn_down
I0927 22:03:28.830680 26041 net.cpp:186] Top shape: 10 64 8 8 (40960)
I0927 22:03:28.830684 26041 net.cpp:194] Memory required for data: 82206840
I0927 22:03:28.830694 26041 layer_factory.hpp:77] Creating layer conv4_1_scale_down
I0927 22:03:28.830700 26041 net.cpp:128] Creating Layer conv4_1_scale_down
I0927 22:03:28.830705 26041 net.cpp:558] conv4_1_scale_down <- conv4_1_down
I0927 22:03:28.830710 26041 net.cpp:509] conv4_1_scale_down -> conv4_1_down (in-place)
I0927 22:03:28.830770 26041 layer_factory.hpp:77] Creating layer conv4_1_scale_down
I0927 22:03:28.830971 26041 net.cpp:172] Setting up conv4_1_scale_down
I0927 22:03:28.830979 26041 net.cpp:186] Top shape: 10 64 8 8 (40960)
I0927 22:03:28.830983 26041 net.cpp:194] Memory required for data: 82370680
I0927 22:03:28.830991 26041 layer_factory.hpp:77] Creating layer conv4_Eltwise_1
I0927 22:03:28.831001 26041 net.cpp:128] Creating Layer conv4_Eltwise_1
I0927 22:03:28.831007 26041 net.cpp:558] conv4_Eltwise_1 <- conv4_1_1
I0927 22:03:28.831012 26041 net.cpp:558] conv4_Eltwise_1 <- conv4_1_down
I0927 22:03:28.831017 26041 net.cpp:522] conv4_Eltwise_1 -> conv4_Eltwise_1
I0927 22:03:28.831050 26041 net.cpp:172] Setting up conv4_Eltwise_1
I0927 22:03:28.831058 26041 net.cpp:186] Top shape: 10 64 8 8 (40960)
I0927 22:03:28.831061 26041 net.cpp:194] Memory required for data: 82534520
I0927 22:03:28.831080 26041 layer_factory.hpp:77] Creating layer conv4_1ReLU_1
I0927 22:03:28.831087 26041 net.cpp:128] Creating Layer conv4_1ReLU_1
I0927 22:03:28.831091 26041 net.cpp:558] conv4_1ReLU_1 <- conv4_Eltwise_1
I0927 22:03:28.831097 26041 net.cpp:509] conv4_1ReLU_1 -> conv4_Eltwise_1 (in-place)
I0927 22:03:28.831581 26041 net.cpp:172] Setting up conv4_1ReLU_1
I0927 22:03:28.831598 26041 net.cpp:186] Top shape: 10 64 8 8 (40960)
I0927 22:03:28.831602 26041 net.cpp:194] Memory required for data: 82698360
I0927 22:03:28.831607 26041 layer_factory.hpp:77] Creating layer conv4_Eltwise_1_conv4_1ReLU_1_0_split
I0927 22:03:28.831615 26041 net.cpp:128] Creating Layer conv4_Eltwise_1_conv4_1ReLU_1_0_split
I0927 22:03:28.831620 26041 net.cpp:558] conv4_Eltwise_1_conv4_1ReLU_1_0_split <- conv4_Eltwise_1
I0927 22:03:28.831630 26041 net.cpp:522] conv4_Eltwise_1_conv4_1ReLU_1_0_split -> conv4_Eltwise_1_conv4_1ReLU_1_0_split_0
I0927 22:03:28.831640 26041 net.cpp:522] conv4_Eltwise_1_conv4_1ReLU_1_0_split -> conv4_Eltwise_1_conv4_1ReLU_1_0_split_1
I0927 22:03:28.831708 26041 net.cpp:172] Setting up conv4_Eltwise_1_conv4_1ReLU_1_0_split
I0927 22:03:28.831717 26041 net.cpp:186] Top shape: 10 64 8 8 (40960)
I0927 22:03:28.831722 26041 net.cpp:186] Top shape: 10 64 8 8 (40960)
I0927 22:03:28.831725 26041 net.cpp:194] Memory required for data: 83026040
I0927 22:03:28.831729 26041 layer_factory.hpp:77] Creating layer conv4_2_0
I0927 22:03:28.831742 26041 net.cpp:128] Creating Layer conv4_2_0
I0927 22:03:28.831745 26041 net.cpp:558] conv4_2_0 <- conv4_Eltwise_1_conv4_1ReLU_1_0_split_0
I0927 22:03:28.831755 26041 net.cpp:522] conv4_2_0 -> conv4_2_0
I0927 22:03:28.833976 26041 net.cpp:172] Setting up conv4_2_0
I0927 22:03:28.833993 26041 net.cpp:186] Top shape: 10 64 8 8 (40960)
I0927 22:03:28.833997 26041 net.cpp:194] Memory required for data: 83189880
I0927 22:03:28.834007 26041 layer_factory.hpp:77] Creating layer conv4_2_bn0
I0927 22:03:28.834018 26041 net.cpp:128] Creating Layer conv4_2_bn0
I0927 22:03:28.834024 26041 net.cpp:558] conv4_2_bn0 <- conv4_2_0
I0927 22:03:28.834033 26041 net.cpp:509] conv4_2_bn0 -> conv4_2_0 (in-place)
I0927 22:03:28.834383 26041 net.cpp:172] Setting up conv4_2_bn0
I0927 22:03:28.834391 26041 net.cpp:186] Top shape: 10 64 8 8 (40960)
I0927 22:03:28.834394 26041 net.cpp:194] Memory required for data: 83353720
I0927 22:03:28.834404 26041 layer_factory.hpp:77] Creating layer conv4_2_scale0
I0927 22:03:28.834414 26041 net.cpp:128] Creating Layer conv4_2_scale0
I0927 22:03:28.834419 26041 net.cpp:558] conv4_2_scale0 <- conv4_2_0
I0927 22:03:28.834424 26041 net.cpp:509] conv4_2_scale0 -> conv4_2_0 (in-place)
I0927 22:03:28.834484 26041 layer_factory.hpp:77] Creating layer conv4_2_scale0
I0927 22:03:28.834679 26041 net.cpp:172] Setting up conv4_2_scale0
I0927 22:03:28.834686 26041 net.cpp:186] Top shape: 10 64 8 8 (40960)
I0927 22:03:28.834691 26041 net.cpp:194] Memory required for data: 83517560
I0927 22:03:28.834698 26041 layer_factory.hpp:77] Creating layer conv4_2_ReLU0
I0927 22:03:28.834704 26041 net.cpp:128] Creating Layer conv4_2_ReLU0
I0927 22:03:28.834708 26041 net.cpp:558] conv4_2_ReLU0 <- conv4_2_0
I0927 22:03:28.834717 26041 net.cpp:509] conv4_2_ReLU0 -> conv4_2_0 (in-place)
I0927 22:03:28.834997 26041 net.cpp:172] Setting up conv4_2_ReLU0
I0927 22:03:28.835011 26041 net.cpp:186] Top shape: 10 64 8 8 (40960)
I0927 22:03:28.835016 26041 net.cpp:194] Memory required for data: 83681400
I0927 22:03:28.835021 26041 layer_factory.hpp:77] Creating layer conv4_2_1
I0927 22:03:28.835032 26041 net.cpp:128] Creating Layer conv4_2_1
I0927 22:03:28.835037 26041 net.cpp:558] conv4_2_1 <- conv4_2_0
I0927 22:03:28.835052 26041 net.cpp:522] conv4_2_1 -> conv4_2_1
I0927 22:03:28.837095 26041 net.cpp:172] Setting up conv4_2_1
I0927 22:03:28.837113 26041 net.cpp:186] Top shape: 10 64 8 8 (40960)
I0927 22:03:28.837117 26041 net.cpp:194] Memory required for data: 83845240
I0927 22:03:28.837127 26041 layer_factory.hpp:77] Creating layer conv4_2bn1
I0927 22:03:28.837138 26041 net.cpp:128] Creating Layer conv4_2bn1
I0927 22:03:28.837158 26041 net.cpp:558] conv4_2bn1 <- conv4_2_1
I0927 22:03:28.837167 26041 net.cpp:509] conv4_2bn1 -> conv4_2_1 (in-place)
I0927 22:03:28.837517 26041 net.cpp:172] Setting up conv4_2bn1
I0927 22:03:28.837525 26041 net.cpp:186] Top shape: 10 64 8 8 (40960)
I0927 22:03:28.837529 26041 net.cpp:194] Memory required for data: 84009080
I0927 22:03:28.837539 26041 layer_factory.hpp:77] Creating layer conv4_2_scale1
I0927 22:03:28.837546 26041 net.cpp:128] Creating Layer conv4_2_scale1
I0927 22:03:28.837550 26041 net.cpp:558] conv4_2_scale1 <- conv4_2_1
I0927 22:03:28.837556 26041 net.cpp:509] conv4_2_scale1 -> conv4_2_1 (in-place)
I0927 22:03:28.837618 26041 layer_factory.hpp:77] Creating layer conv4_2_scale1
I0927 22:03:28.837810 26041 net.cpp:172] Setting up conv4_2_scale1
I0927 22:03:28.837816 26041 net.cpp:186] Top shape: 10 64 8 8 (40960)
I0927 22:03:28.837821 26041 net.cpp:194] Memory required for data: 84172920
I0927 22:03:28.837828 26041 layer_factory.hpp:77] Creating layer conv4_Eltwise_2
I0927 22:03:28.837837 26041 net.cpp:128] Creating Layer conv4_Eltwise_2
I0927 22:03:28.837842 26041 net.cpp:558] conv4_Eltwise_2 <- conv4_Eltwise_1_conv4_1ReLU_1_0_split_1
I0927 22:03:28.837847 26041 net.cpp:558] conv4_Eltwise_2 <- conv4_2_1
I0927 22:03:28.837853 26041 net.cpp:522] conv4_Eltwise_2 -> conv4_Eltwise_2
I0927 22:03:28.837888 26041 net.cpp:172] Setting up conv4_Eltwise_2
I0927 22:03:28.837894 26041 net.cpp:186] Top shape: 10 64 8 8 (40960)
I0927 22:03:28.837898 26041 net.cpp:194] Memory required for data: 84336760
I0927 22:03:28.837903 26041 layer_factory.hpp:77] Creating layer conv4_2ReLU_1
I0927 22:03:28.837908 26041 net.cpp:128] Creating Layer conv4_2ReLU_1
I0927 22:03:28.837913 26041 net.cpp:558] conv4_2ReLU_1 <- conv4_Eltwise_2
I0927 22:03:28.837918 26041 net.cpp:509] conv4_2ReLU_1 -> conv4_Eltwise_2 (in-place)
I0927 22:03:28.838369 26041 net.cpp:172] Setting up conv4_2ReLU_1
I0927 22:03:28.838387 26041 net.cpp:186] Top shape: 10 64 8 8 (40960)
I0927 22:03:28.838390 26041 net.cpp:194] Memory required for data: 84500600
I0927 22:03:28.838395 26041 layer_factory.hpp:77] Creating layer conv4_Eltwise_2_conv4_2ReLU_1_0_split
I0927 22:03:28.838405 26041 net.cpp:128] Creating Layer conv4_Eltwise_2_conv4_2ReLU_1_0_split
I0927 22:03:28.838410 26041 net.cpp:558] conv4_Eltwise_2_conv4_2ReLU_1_0_split <- conv4_Eltwise_2
I0927 22:03:28.838418 26041 net.cpp:522] conv4_Eltwise_2_conv4_2ReLU_1_0_split -> conv4_Eltwise_2_conv4_2ReLU_1_0_split_0
I0927 22:03:28.838428 26041 net.cpp:522] conv4_Eltwise_2_conv4_2ReLU_1_0_split -> conv4_Eltwise_2_conv4_2ReLU_1_0_split_1
I0927 22:03:28.838501 26041 net.cpp:172] Setting up conv4_Eltwise_2_conv4_2ReLU_1_0_split
I0927 22:03:28.838508 26041 net.cpp:186] Top shape: 10 64 8 8 (40960)
I0927 22:03:28.838515 26041 net.cpp:186] Top shape: 10 64 8 8 (40960)
I0927 22:03:28.838518 26041 net.cpp:194] Memory required for data: 84828280
I0927 22:03:28.838522 26041 layer_factory.hpp:77] Creating layer conv4_3_0
I0927 22:03:28.838534 26041 net.cpp:128] Creating Layer conv4_3_0
I0927 22:03:28.838539 26041 net.cpp:558] conv4_3_0 <- conv4_Eltwise_2_conv4_2ReLU_1_0_split_0
I0927 22:03:28.838548 26041 net.cpp:522] conv4_3_0 -> conv4_3_0
I0927 22:03:28.840778 26041 net.cpp:172] Setting up conv4_3_0
I0927 22:03:28.840797 26041 net.cpp:186] Top shape: 10 64 8 8 (40960)
I0927 22:03:28.840801 26041 net.cpp:194] Memory required for data: 84992120
I0927 22:03:28.840811 26041 layer_factory.hpp:77] Creating layer conv4_3_bn0
I0927 22:03:28.840821 26041 net.cpp:128] Creating Layer conv4_3_bn0
I0927 22:03:28.840827 26041 net.cpp:558] conv4_3_bn0 <- conv4_3_0
I0927 22:03:28.840836 26041 net.cpp:509] conv4_3_bn0 -> conv4_3_0 (in-place)
I0927 22:03:28.841197 26041 net.cpp:172] Setting up conv4_3_bn0
I0927 22:03:28.841204 26041 net.cpp:186] Top shape: 10 64 8 8 (40960)
I0927 22:03:28.841208 26041 net.cpp:194] Memory required for data: 85155960
I0927 22:03:28.841218 26041 layer_factory.hpp:77] Creating layer conv4_3_scale0
I0927 22:03:28.841226 26041 net.cpp:128] Creating Layer conv4_3_scale0
I0927 22:03:28.841246 26041 net.cpp:558] conv4_3_scale0 <- conv4_3_0
I0927 22:03:28.841253 26041 net.cpp:509] conv4_3_scale0 -> conv4_3_0 (in-place)
I0927 22:03:28.841316 26041 layer_factory.hpp:77] Creating layer conv4_3_scale0
I0927 22:03:28.841512 26041 net.cpp:172] Setting up conv4_3_scale0
I0927 22:03:28.841521 26041 net.cpp:186] Top shape: 10 64 8 8 (40960)
I0927 22:03:28.841524 26041 net.cpp:194] Memory required for data: 85319800
I0927 22:03:28.841532 26041 layer_factory.hpp:77] Creating layer conv4_3_ReLU0
I0927 22:03:28.841540 26041 net.cpp:128] Creating Layer conv4_3_ReLU0
I0927 22:03:28.841545 26041 net.cpp:558] conv4_3_ReLU0 <- conv4_3_0
I0927 22:03:28.841550 26041 net.cpp:509] conv4_3_ReLU0 -> conv4_3_0 (in-place)
I0927 22:03:28.841809 26041 net.cpp:172] Setting up conv4_3_ReLU0
I0927 22:03:28.841820 26041 net.cpp:186] Top shape: 10 64 8 8 (40960)
I0927 22:03:28.841823 26041 net.cpp:194] Memory required for data: 85483640
I0927 22:03:28.841828 26041 layer_factory.hpp:77] Creating layer conv4_3_1
I0927 22:03:28.841840 26041 net.cpp:128] Creating Layer conv4_3_1
I0927 22:03:28.841845 26041 net.cpp:558] conv4_3_1 <- conv4_3_0
I0927 22:03:28.841855 26041 net.cpp:522] conv4_3_1 -> conv4_3_1
I0927 22:03:28.843909 26041 net.cpp:172] Setting up conv4_3_1
I0927 22:03:28.843926 26041 net.cpp:186] Top shape: 10 64 8 8 (40960)
I0927 22:03:28.843930 26041 net.cpp:194] Memory required for data: 85647480
I0927 22:03:28.843940 26041 layer_factory.hpp:77] Creating layer conv4_3bn1
I0927 22:03:28.843952 26041 net.cpp:128] Creating Layer conv4_3bn1
I0927 22:03:28.843957 26041 net.cpp:558] conv4_3bn1 <- conv4_3_1
I0927 22:03:28.843964 26041 net.cpp:509] conv4_3bn1 -> conv4_3_1 (in-place)
I0927 22:03:28.844321 26041 net.cpp:172] Setting up conv4_3bn1
I0927 22:03:28.844328 26041 net.cpp:186] Top shape: 10 64 8 8 (40960)
I0927 22:03:28.844332 26041 net.cpp:194] Memory required for data: 85811320
I0927 22:03:28.844362 26041 layer_factory.hpp:77] Creating layer conv4_3_scale1
I0927 22:03:28.844368 26041 net.cpp:128] Creating Layer conv4_3_scale1
I0927 22:03:28.844373 26041 net.cpp:558] conv4_3_scale1 <- conv4_3_1
I0927 22:03:28.844378 26041 net.cpp:509] conv4_3_scale1 -> conv4_3_1 (in-place)
I0927 22:03:28.844440 26041 layer_factory.hpp:77] Creating layer conv4_3_scale1
I0927 22:03:28.844635 26041 net.cpp:172] Setting up conv4_3_scale1
I0927 22:03:28.844642 26041 net.cpp:186] Top shape: 10 64 8 8 (40960)
I0927 22:03:28.844646 26041 net.cpp:194] Memory required for data: 85975160
I0927 22:03:28.844655 26041 layer_factory.hpp:77] Creating layer conv4_Eltwise_3
I0927 22:03:28.844660 26041 net.cpp:128] Creating Layer conv4_Eltwise_3
I0927 22:03:28.844666 26041 net.cpp:558] conv4_Eltwise_3 <- conv4_Eltwise_2_conv4_2ReLU_1_0_split_1
I0927 22:03:28.844671 26041 net.cpp:558] conv4_Eltwise_3 <- conv4_3_1
I0927 22:03:28.844678 26041 net.cpp:522] conv4_Eltwise_3 -> conv4_Eltwise_3
I0927 22:03:28.844713 26041 net.cpp:172] Setting up conv4_Eltwise_3
I0927 22:03:28.844720 26041 net.cpp:186] Top shape: 10 64 8 8 (40960)
I0927 22:03:28.844724 26041 net.cpp:194] Memory required for data: 86139000
I0927 22:03:28.844728 26041 layer_factory.hpp:77] Creating layer conv4_3ReLU_1
I0927 22:03:28.844735 26041 net.cpp:128] Creating Layer conv4_3ReLU_1
I0927 22:03:28.844739 26041 net.cpp:558] conv4_3ReLU_1 <- conv4_Eltwise_3
I0927 22:03:28.844745 26041 net.cpp:509] conv4_3ReLU_1 -> conv4_Eltwise_3 (in-place)
I0927 22:03:28.845216 26041 net.cpp:172] Setting up conv4_3ReLU_1
I0927 22:03:28.845233 26041 net.cpp:186] Top shape: 10 64 8 8 (40960)
I0927 22:03:28.845237 26041 net.cpp:194] Memory required for data: 86302840
I0927 22:03:28.845242 26041 layer_factory.hpp:77] Creating layer conv4_Eltwise_3_conv4_3ReLU_1_0_split
I0927 22:03:28.845252 26041 net.cpp:128] Creating Layer conv4_Eltwise_3_conv4_3ReLU_1_0_split
I0927 22:03:28.845258 26041 net.cpp:558] conv4_Eltwise_3_conv4_3ReLU_1_0_split <- conv4_Eltwise_3
I0927 22:03:28.845268 26041 net.cpp:522] conv4_Eltwise_3_conv4_3ReLU_1_0_split -> conv4_Eltwise_3_conv4_3ReLU_1_0_split_0
I0927 22:03:28.845291 26041 net.cpp:522] conv4_Eltwise_3_conv4_3ReLU_1_0_split -> conv4_Eltwise_3_conv4_3ReLU_1_0_split_1
I0927 22:03:28.845363 26041 net.cpp:172] Setting up conv4_Eltwise_3_conv4_3ReLU_1_0_split
I0927 22:03:28.845373 26041 net.cpp:186] Top shape: 10 64 8 8 (40960)
I0927 22:03:28.845379 26041 net.cpp:186] Top shape: 10 64 8 8 (40960)
I0927 22:03:28.845383 26041 net.cpp:194] Memory required for data: 86630520
I0927 22:03:28.845387 26041 layer_factory.hpp:77] Creating layer conv4_4_0
I0927 22:03:28.845401 26041 net.cpp:128] Creating Layer conv4_4_0
I0927 22:03:28.845405 26041 net.cpp:558] conv4_4_0 <- conv4_Eltwise_3_conv4_3ReLU_1_0_split_0
I0927 22:03:28.845414 26041 net.cpp:522] conv4_4_0 -> conv4_4_0
I0927 22:03:28.847661 26041 net.cpp:172] Setting up conv4_4_0
I0927 22:03:28.847681 26041 net.cpp:186] Top shape: 10 64 8 8 (40960)
I0927 22:03:28.847685 26041 net.cpp:194] Memory required for data: 86794360
I0927 22:03:28.847695 26041 layer_factory.hpp:77] Creating layer conv4_4_bn0
I0927 22:03:28.847703 26041 net.cpp:128] Creating Layer conv4_4_bn0
I0927 22:03:28.847712 26041 net.cpp:558] conv4_4_bn0 <- conv4_4_0
I0927 22:03:28.847718 26041 net.cpp:509] conv4_4_bn0 -> conv4_4_0 (in-place)
I0927 22:03:28.848085 26041 net.cpp:172] Setting up conv4_4_bn0
I0927 22:03:28.848093 26041 net.cpp:186] Top shape: 10 64 8 8 (40960)
I0927 22:03:28.848098 26041 net.cpp:194] Memory required for data: 86958200
I0927 22:03:28.848106 26041 layer_factory.hpp:77] Creating layer conv4_4_scale0
I0927 22:03:28.848114 26041 net.cpp:128] Creating Layer conv4_4_scale0
I0927 22:03:28.848117 26041 net.cpp:558] conv4_4_scale0 <- conv4_4_0
I0927 22:03:28.848124 26041 net.cpp:509] conv4_4_scale0 -> conv4_4_0 (in-place)
I0927 22:03:28.848186 26041 layer_factory.hpp:77] Creating layer conv4_4_scale0
I0927 22:03:28.848381 26041 net.cpp:172] Setting up conv4_4_scale0
I0927 22:03:28.848392 26041 net.cpp:186] Top shape: 10 64 8 8 (40960)
I0927 22:03:28.848395 26041 net.cpp:194] Memory required for data: 87122040
I0927 22:03:28.848403 26041 layer_factory.hpp:77] Creating layer conv4_4_ReLU0
I0927 22:03:28.848409 26041 net.cpp:128] Creating Layer conv4_4_ReLU0
I0927 22:03:28.848413 26041 net.cpp:558] conv4_4_ReLU0 <- conv4_4_0
I0927 22:03:28.848419 26041 net.cpp:509] conv4_4_ReLU0 -> conv4_4_0 (in-place)
I0927 22:03:28.848685 26041 net.cpp:172] Setting up conv4_4_ReLU0
I0927 22:03:28.848697 26041 net.cpp:186] Top shape: 10 64 8 8 (40960)
I0927 22:03:28.848701 26041 net.cpp:194] Memory required for data: 87285880
I0927 22:03:28.848706 26041 layer_factory.hpp:77] Creating layer conv4_4_1
I0927 22:03:28.848718 26041 net.cpp:128] Creating Layer conv4_4_1
I0927 22:03:28.848723 26041 net.cpp:558] conv4_4_1 <- conv4_4_0
I0927 22:03:28.848731 26041 net.cpp:522] conv4_4_1 -> conv4_4_1
I0927 22:03:28.850790 26041 net.cpp:172] Setting up conv4_4_1
I0927 22:03:28.850816 26041 net.cpp:186] Top shape: 10 64 8 8 (40960)
I0927 22:03:28.850822 26041 net.cpp:194] Memory required for data: 87449720
I0927 22:03:28.850832 26041 layer_factory.hpp:77] Creating layer conv4_4bn1
I0927 22:03:28.850842 26041 net.cpp:128] Creating Layer conv4_4bn1
I0927 22:03:28.850848 26041 net.cpp:558] conv4_4bn1 <- conv4_4_1
I0927 22:03:28.850857 26041 net.cpp:509] conv4_4bn1 -> conv4_4_1 (in-place)
I0927 22:03:28.851217 26041 net.cpp:172] Setting up conv4_4bn1
I0927 22:03:28.851224 26041 net.cpp:186] Top shape: 10 64 8 8 (40960)
I0927 22:03:28.851228 26041 net.cpp:194] Memory required for data: 87613560
I0927 22:03:28.851238 26041 layer_factory.hpp:77] Creating layer conv4_4_scale1
I0927 22:03:28.851244 26041 net.cpp:128] Creating Layer conv4_4_scale1
I0927 22:03:28.851248 26041 net.cpp:558] conv4_4_scale1 <- conv4_4_1
I0927 22:03:28.851256 26041 net.cpp:509] conv4_4_scale1 -> conv4_4_1 (in-place)
I0927 22:03:28.851315 26041 layer_factory.hpp:77] Creating layer conv4_4_scale1
I0927 22:03:28.851517 26041 net.cpp:172] Setting up conv4_4_scale1
I0927 22:03:28.851526 26041 net.cpp:186] Top shape: 10 64 8 8 (40960)
I0927 22:03:28.851529 26041 net.cpp:194] Memory required for data: 87777400
I0927 22:03:28.851552 26041 layer_factory.hpp:77] Creating layer conv4_Eltwise_4
I0927 22:03:28.851562 26041 net.cpp:128] Creating Layer conv4_Eltwise_4
I0927 22:03:28.851567 26041 net.cpp:558] conv4_Eltwise_4 <- conv4_Eltwise_3_conv4_3ReLU_1_0_split_1
I0927 22:03:28.851572 26041 net.cpp:558] conv4_Eltwise_4 <- conv4_4_1
I0927 22:03:28.851578 26041 net.cpp:522] conv4_Eltwise_4 -> conv4_Eltwise_4
I0927 22:03:28.851616 26041 net.cpp:172] Setting up conv4_Eltwise_4
I0927 22:03:28.851624 26041 net.cpp:186] Top shape: 10 64 8 8 (40960)
I0927 22:03:28.851627 26041 net.cpp:194] Memory required for data: 87941240
I0927 22:03:28.851631 26041 layer_factory.hpp:77] Creating layer conv4_4ReLU_1
I0927 22:03:28.851637 26041 net.cpp:128] Creating Layer conv4_4ReLU_1
I0927 22:03:28.851641 26041 net.cpp:558] conv4_4ReLU_1 <- conv4_Eltwise_4
I0927 22:03:28.851650 26041 net.cpp:509] conv4_4ReLU_1 -> conv4_Eltwise_4 (in-place)
I0927 22:03:28.851910 26041 net.cpp:172] Setting up conv4_4ReLU_1
I0927 22:03:28.851922 26041 net.cpp:186] Top shape: 10 64 8 8 (40960)
I0927 22:03:28.851925 26041 net.cpp:194] Memory required for data: 88105080
I0927 22:03:28.851930 26041 layer_factory.hpp:77] Creating layer conv4_Eltwise_4_conv4_4ReLU_1_0_split
I0927 22:03:28.851938 26041 net.cpp:128] Creating Layer conv4_Eltwise_4_conv4_4ReLU_1_0_split
I0927 22:03:28.851943 26041 net.cpp:558] conv4_Eltwise_4_conv4_4ReLU_1_0_split <- conv4_Eltwise_4
I0927 22:03:28.851950 26041 net.cpp:522] conv4_Eltwise_4_conv4_4ReLU_1_0_split -> conv4_Eltwise_4_conv4_4ReLU_1_0_split_0
I0927 22:03:28.851958 26041 net.cpp:522] conv4_Eltwise_4_conv4_4ReLU_1_0_split -> conv4_Eltwise_4_conv4_4ReLU_1_0_split_1
I0927 22:03:28.852026 26041 net.cpp:172] Setting up conv4_Eltwise_4_conv4_4ReLU_1_0_split
I0927 22:03:28.852035 26041 net.cpp:186] Top shape: 10 64 8 8 (40960)
I0927 22:03:28.852039 26041 net.cpp:186] Top shape: 10 64 8 8 (40960)
I0927 22:03:28.852043 26041 net.cpp:194] Memory required for data: 88432760
I0927 22:03:28.852047 26041 layer_factory.hpp:77] Creating layer conv4_5_0
I0927 22:03:28.852059 26041 net.cpp:128] Creating Layer conv4_5_0
I0927 22:03:28.852064 26041 net.cpp:558] conv4_5_0 <- conv4_Eltwise_4_conv4_4ReLU_1_0_split_0
I0927 22:03:28.852074 26041 net.cpp:522] conv4_5_0 -> conv4_5_0
I0927 22:03:28.854296 26041 net.cpp:172] Setting up conv4_5_0
I0927 22:03:28.854315 26041 net.cpp:186] Top shape: 10 64 8 8 (40960)
I0927 22:03:28.854318 26041 net.cpp:194] Memory required for data: 88596600
I0927 22:03:28.854328 26041 layer_factory.hpp:77] Creating layer conv4_5_bn0
I0927 22:03:28.854339 26041 net.cpp:128] Creating Layer conv4_5_bn0
I0927 22:03:28.854344 26041 net.cpp:558] conv4_5_bn0 <- conv4_5_0
I0927 22:03:28.854351 26041 net.cpp:509] conv4_5_bn0 -> conv4_5_0 (in-place)
I0927 22:03:28.854723 26041 net.cpp:172] Setting up conv4_5_bn0
I0927 22:03:28.854732 26041 net.cpp:186] Top shape: 10 64 8 8 (40960)
I0927 22:03:28.854735 26041 net.cpp:194] Memory required for data: 88760440
I0927 22:03:28.854744 26041 layer_factory.hpp:77] Creating layer conv4_5_scale0
I0927 22:03:28.854753 26041 net.cpp:128] Creating Layer conv4_5_scale0
I0927 22:03:28.854758 26041 net.cpp:558] conv4_5_scale0 <- conv4_5_0
I0927 22:03:28.956915 26041 net.cpp:509] conv4_5_scale0 -> conv4_5_0 (in-place)
I0927 22:03:28.957062 26041 layer_factory.hpp:77] Creating layer conv4_5_scale0
I0927 22:03:28.957383 26041 net.cpp:172] Setting up conv4_5_scale0
I0927 22:03:28.957396 26041 net.cpp:186] Top shape: 10 64 8 8 (40960)
I0927 22:03:28.957403 26041 net.cpp:194] Memory required for data: 88924280
I0927 22:03:28.957417 26041 layer_factory.hpp:77] Creating layer conv4_5_ReLU0
I0927 22:03:28.957427 26041 net.cpp:128] Creating Layer conv4_5_ReLU0
I0927 22:03:28.957434 26041 net.cpp:558] conv4_5_ReLU0 <- conv4_5_0
I0927 22:03:28.957446 26041 net.cpp:509] conv4_5_ReLU0 -> conv4_5_0 (in-place)
I0927 22:03:28.958132 26041 net.cpp:172] Setting up conv4_5_ReLU0
I0927 22:03:28.958154 26041 net.cpp:186] Top shape: 10 64 8 8 (40960)
I0927 22:03:28.958160 26041 net.cpp:194] Memory required for data: 89088120
I0927 22:03:28.958168 26041 layer_factory.hpp:77] Creating layer conv4_5_1
I0927 22:03:28.958212 26041 net.cpp:128] Creating Layer conv4_5_1
I0927 22:03:28.958221 26041 net.cpp:558] conv4_5_1 <- conv4_5_0
I0927 22:03:28.958236 26041 net.cpp:522] conv4_5_1 -> conv4_5_1
I0927 22:03:28.965572 26041 net.cpp:172] Setting up conv4_5_1
I0927 22:03:28.965634 26041 net.cpp:186] Top shape: 10 64 8 8 (40960)
I0927 22:03:28.965652 26041 net.cpp:194] Memory required for data: 89251960
I0927 22:03:28.965690 26041 layer_factory.hpp:77] Creating layer conv4_5bn1
I0927 22:03:28.965721 26041 net.cpp:128] Creating Layer conv4_5bn1
I0927 22:03:28.965742 26041 net.cpp:558] conv4_5bn1 <- conv4_5_1
I0927 22:03:28.965777 26041 net.cpp:509] conv4_5bn1 -> conv4_5_1 (in-place)
I0927 22:03:28.966976 26041 net.cpp:172] Setting up conv4_5bn1
I0927 22:03:28.966985 26041 net.cpp:186] Top shape: 10 64 8 8 (40960)
I0927 22:03:28.966989 26041 net.cpp:194] Memory required for data: 89415800
I0927 22:03:28.967000 26041 layer_factory.hpp:77] Creating layer conv4_5_scale1
I0927 22:03:28.967010 26041 net.cpp:128] Creating Layer conv4_5_scale1
I0927 22:03:28.967015 26041 net.cpp:558] conv4_5_scale1 <- conv4_5_1
I0927 22:03:28.967020 26041 net.cpp:509] conv4_5_scale1 -> conv4_5_1 (in-place)
I0927 22:03:28.967082 26041 layer_factory.hpp:77] Creating layer conv4_5_scale1
I0927 22:03:28.967283 26041 net.cpp:172] Setting up conv4_5_scale1
I0927 22:03:28.967291 26041 net.cpp:186] Top shape: 10 64 8 8 (40960)
I0927 22:03:28.967295 26041 net.cpp:194] Memory required for data: 89579640
I0927 22:03:28.967303 26041 layer_factory.hpp:77] Creating layer conv4_Eltwise_5
I0927 22:03:28.967314 26041 net.cpp:128] Creating Layer conv4_Eltwise_5
I0927 22:03:28.967319 26041 net.cpp:558] conv4_Eltwise_5 <- conv4_Eltwise_4_conv4_4ReLU_1_0_split_1
I0927 22:03:28.967324 26041 net.cpp:558] conv4_Eltwise_5 <- conv4_5_1
I0927 22:03:28.967334 26041 net.cpp:522] conv4_Eltwise_5 -> conv4_Eltwise_5
I0927 22:03:28.967367 26041 net.cpp:172] Setting up conv4_Eltwise_5
I0927 22:03:28.967375 26041 net.cpp:186] Top shape: 10 64 8 8 (40960)
I0927 22:03:28.967378 26041 net.cpp:194] Memory required for data: 89743480
I0927 22:03:28.967382 26041 layer_factory.hpp:77] Creating layer conv4_5ReLU_1
I0927 22:03:28.967388 26041 net.cpp:128] Creating Layer conv4_5ReLU_1
I0927 22:03:28.967393 26041 net.cpp:558] conv4_5ReLU_1 <- conv4_Eltwise_5
I0927 22:03:28.967401 26041 net.cpp:509] conv4_5ReLU_1 -> conv4_Eltwise_5 (in-place)
I0927 22:03:28.967666 26041 net.cpp:172] Setting up conv4_5ReLU_1
I0927 22:03:28.967677 26041 net.cpp:186] Top shape: 10 64 8 8 (40960)
I0927 22:03:28.967681 26041 net.cpp:194] Memory required for data: 89907320
I0927 22:03:28.967686 26041 layer_factory.hpp:77] Creating layer conv4_Eltwise_5_conv4_5ReLU_1_0_split
I0927 22:03:28.967694 26041 net.cpp:128] Creating Layer conv4_Eltwise_5_conv4_5ReLU_1_0_split
I0927 22:03:28.967698 26041 net.cpp:558] conv4_Eltwise_5_conv4_5ReLU_1_0_split <- conv4_Eltwise_5
I0927 22:03:28.967706 26041 net.cpp:522] conv4_Eltwise_5_conv4_5ReLU_1_0_split -> conv4_Eltwise_5_conv4_5ReLU_1_0_split_0
I0927 22:03:28.967715 26041 net.cpp:522] conv4_Eltwise_5_conv4_5ReLU_1_0_split -> conv4_Eltwise_5_conv4_5ReLU_1_0_split_1
I0927 22:03:28.967783 26041 net.cpp:172] Setting up conv4_Eltwise_5_conv4_5ReLU_1_0_split
I0927 22:03:28.967792 26041 net.cpp:186] Top shape: 10 64 8 8 (40960)
I0927 22:03:28.967797 26041 net.cpp:186] Top shape: 10 64 8 8 (40960)
I0927 22:03:28.967800 26041 net.cpp:194] Memory required for data: 90235000
I0927 22:03:28.967805 26041 layer_factory.hpp:77] Creating layer conv4_6_0
I0927 22:03:28.967818 26041 net.cpp:128] Creating Layer conv4_6_0
I0927 22:03:28.967823 26041 net.cpp:558] conv4_6_0 <- conv4_Eltwise_5_conv4_5ReLU_1_0_split_0
I0927 22:03:28.967833 26041 net.cpp:522] conv4_6_0 -> conv4_6_0
I0927 22:03:28.970095 26041 net.cpp:172] Setting up conv4_6_0
I0927 22:03:28.970113 26041 net.cpp:186] Top shape: 10 64 8 8 (40960)
I0927 22:03:28.970118 26041 net.cpp:194] Memory required for data: 90398840
I0927 22:03:28.970129 26041 layer_factory.hpp:77] Creating layer conv4_6_bn0
I0927 22:03:28.970155 26041 net.cpp:128] Creating Layer conv4_6_bn0
I0927 22:03:28.970160 26041 net.cpp:558] conv4_6_bn0 <- conv4_6_0
I0927 22:03:28.970170 26041 net.cpp:509] conv4_6_bn0 -> conv4_6_0 (in-place)
I0927 22:03:28.970541 26041 net.cpp:172] Setting up conv4_6_bn0
I0927 22:03:28.970548 26041 net.cpp:186] Top shape: 10 64 8 8 (40960)
I0927 22:03:28.970552 26041 net.cpp:194] Memory required for data: 90562680
I0927 22:03:28.970562 26041 layer_factory.hpp:77] Creating layer conv4_6_scale0
I0927 22:03:28.970571 26041 net.cpp:128] Creating Layer conv4_6_scale0
I0927 22:03:28.970577 26041 net.cpp:558] conv4_6_scale0 <- conv4_6_0
I0927 22:03:28.970582 26041 net.cpp:509] conv4_6_scale0 -> conv4_6_0 (in-place)
I0927 22:03:28.970643 26041 layer_factory.hpp:77] Creating layer conv4_6_scale0
I0927 22:03:28.970858 26041 net.cpp:172] Setting up conv4_6_scale0
I0927 22:03:28.970866 26041 net.cpp:186] Top shape: 10 64 8 8 (40960)
I0927 22:03:28.970870 26041 net.cpp:194] Memory required for data: 90726520
I0927 22:03:28.970878 26041 layer_factory.hpp:77] Creating layer conv4_6_ReLU0
I0927 22:03:28.970885 26041 net.cpp:128] Creating Layer conv4_6_ReLU0
I0927 22:03:28.970890 26041 net.cpp:558] conv4_6_ReLU0 <- conv4_6_0
I0927 22:03:28.970897 26041 net.cpp:509] conv4_6_ReLU0 -> conv4_6_0 (in-place)
I0927 22:03:28.971166 26041 net.cpp:172] Setting up conv4_6_ReLU0
I0927 22:03:28.971179 26041 net.cpp:186] Top shape: 10 64 8 8 (40960)
I0927 22:03:28.971182 26041 net.cpp:194] Memory required for data: 90890360
I0927 22:03:28.971186 26041 layer_factory.hpp:77] Creating layer conv4_6_1
I0927 22:03:28.971199 26041 net.cpp:128] Creating Layer conv4_6_1
I0927 22:03:28.971204 26041 net.cpp:558] conv4_6_1 <- conv4_6_0
I0927 22:03:28.971213 26041 net.cpp:522] conv4_6_1 -> conv4_6_1
I0927 22:03:28.974707 26041 net.cpp:172] Setting up conv4_6_1
I0927 22:03:28.974725 26041 net.cpp:186] Top shape: 10 64 8 8 (40960)
I0927 22:03:28.974730 26041 net.cpp:194] Memory required for data: 91054200
I0927 22:03:28.974740 26041 layer_factory.hpp:77] Creating layer conv4_6bn1
I0927 22:03:28.974750 26041 net.cpp:128] Creating Layer conv4_6bn1
I0927 22:03:28.974756 26041 net.cpp:558] conv4_6bn1 <- conv4_6_1
I0927 22:03:28.974764 26041 net.cpp:509] conv4_6bn1 -> conv4_6_1 (in-place)
I0927 22:03:28.975144 26041 net.cpp:172] Setting up conv4_6bn1
I0927 22:03:28.975153 26041 net.cpp:186] Top shape: 10 64 8 8 (40960)
I0927 22:03:28.975157 26041 net.cpp:194] Memory required for data: 91218040
I0927 22:03:28.975167 26041 layer_factory.hpp:77] Creating layer conv4_6_scale1
I0927 22:03:28.975176 26041 net.cpp:128] Creating Layer conv4_6_scale1
I0927 22:03:28.975181 26041 net.cpp:558] conv4_6_scale1 <- conv4_6_1
I0927 22:03:28.975188 26041 net.cpp:509] conv4_6_scale1 -> conv4_6_1 (in-place)
I0927 22:03:28.975250 26041 layer_factory.hpp:77] Creating layer conv4_6_scale1
I0927 22:03:28.975453 26041 net.cpp:172] Setting up conv4_6_scale1
I0927 22:03:28.975461 26041 net.cpp:186] Top shape: 10 64 8 8 (40960)
I0927 22:03:28.975464 26041 net.cpp:194] Memory required for data: 91381880
I0927 22:03:28.975472 26041 layer_factory.hpp:77] Creating layer conv4_Eltwise_6
I0927 22:03:28.975481 26041 net.cpp:128] Creating Layer conv4_Eltwise_6
I0927 22:03:28.975487 26041 net.cpp:558] conv4_Eltwise_6 <- conv4_Eltwise_5_conv4_5ReLU_1_0_split_1
I0927 22:03:28.975492 26041 net.cpp:558] conv4_Eltwise_6 <- conv4_6_1
I0927 22:03:28.975498 26041 net.cpp:522] conv4_Eltwise_6 -> conv4_Eltwise_6
I0927 22:03:28.975533 26041 net.cpp:172] Setting up conv4_Eltwise_6
I0927 22:03:28.975540 26041 net.cpp:186] Top shape: 10 64 8 8 (40960)
I0927 22:03:28.975544 26041 net.cpp:194] Memory required for data: 91545720
I0927 22:03:28.975548 26041 layer_factory.hpp:77] Creating layer conv4_6ReLU_1
I0927 22:03:28.975554 26041 net.cpp:128] Creating Layer conv4_6ReLU_1
I0927 22:03:28.975558 26041 net.cpp:558] conv4_6ReLU_1 <- conv4_Eltwise_6
I0927 22:03:28.975564 26041 net.cpp:509] conv4_6ReLU_1 -> conv4_Eltwise_6 (in-place)
I0927 22:03:28.976048 26041 net.cpp:172] Setting up conv4_6ReLU_1
I0927 22:03:28.976065 26041 net.cpp:186] Top shape: 10 64 8 8 (40960)
I0927 22:03:28.976086 26041 net.cpp:194] Memory required for data: 91709560
I0927 22:03:28.976092 26041 layer_factory.hpp:77] Creating layer conv4_Eltwise_6_conv4_6ReLU_1_0_split
I0927 22:03:28.976100 26041 net.cpp:128] Creating Layer conv4_Eltwise_6_conv4_6ReLU_1_0_split
I0927 22:03:28.976105 26041 net.cpp:558] conv4_Eltwise_6_conv4_6ReLU_1_0_split <- conv4_Eltwise_6
I0927 22:03:28.976119 26041 net.cpp:522] conv4_Eltwise_6_conv4_6ReLU_1_0_split -> conv4_Eltwise_6_conv4_6ReLU_1_0_split_0
I0927 22:03:28.976128 26041 net.cpp:522] conv4_Eltwise_6_conv4_6ReLU_1_0_split -> conv4_Eltwise_6_conv4_6ReLU_1_0_split_1
I0927 22:03:28.976200 26041 net.cpp:172] Setting up conv4_Eltwise_6_conv4_6ReLU_1_0_split
I0927 22:03:28.976208 26041 net.cpp:186] Top shape: 10 64 8 8 (40960)
I0927 22:03:28.976214 26041 net.cpp:186] Top shape: 10 64 8 8 (40960)
I0927 22:03:28.976218 26041 net.cpp:194] Memory required for data: 92037240
I0927 22:03:28.976222 26041 layer_factory.hpp:77] Creating layer conv4_7_0
I0927 22:03:28.976236 26041 net.cpp:128] Creating Layer conv4_7_0
I0927 22:03:28.976240 26041 net.cpp:558] conv4_7_0 <- conv4_Eltwise_6_conv4_6ReLU_1_0_split_0
I0927 22:03:28.976249 26041 net.cpp:522] conv4_7_0 -> conv4_7_0
I0927 22:03:28.978492 26041 net.cpp:172] Setting up conv4_7_0
I0927 22:03:28.978509 26041 net.cpp:186] Top shape: 10 64 8 8 (40960)
I0927 22:03:28.978513 26041 net.cpp:194] Memory required for data: 92201080
I0927 22:03:28.978524 26041 layer_factory.hpp:77] Creating layer conv4_7_bn0
I0927 22:03:28.978533 26041 net.cpp:128] Creating Layer conv4_7_bn0
I0927 22:03:28.978538 26041 net.cpp:558] conv4_7_bn0 <- conv4_7_0
I0927 22:03:28.978546 26041 net.cpp:509] conv4_7_bn0 -> conv4_7_0 (in-place)
I0927 22:03:28.978942 26041 net.cpp:172] Setting up conv4_7_bn0
I0927 22:03:28.978952 26041 net.cpp:186] Top shape: 10 64 8 8 (40960)
I0927 22:03:28.978956 26041 net.cpp:194] Memory required for data: 92364920
I0927 22:03:28.978967 26041 layer_factory.hpp:77] Creating layer conv4_7_scale0
I0927 22:03:28.978976 26041 net.cpp:128] Creating Layer conv4_7_scale0
I0927 22:03:28.978981 26041 net.cpp:558] conv4_7_scale0 <- conv4_7_0
I0927 22:03:28.978986 26041 net.cpp:509] conv4_7_scale0 -> conv4_7_0 (in-place)
I0927 22:03:28.979049 26041 layer_factory.hpp:77] Creating layer conv4_7_scale0
I0927 22:03:28.979249 26041 net.cpp:172] Setting up conv4_7_scale0
I0927 22:03:28.979256 26041 net.cpp:186] Top shape: 10 64 8 8 (40960)
I0927 22:03:28.979260 26041 net.cpp:194] Memory required for data: 92528760
I0927 22:03:28.979269 26041 layer_factory.hpp:77] Creating layer conv4_7_ReLU0
I0927 22:03:28.979276 26041 net.cpp:128] Creating Layer conv4_7_ReLU0
I0927 22:03:28.979281 26041 net.cpp:558] conv4_7_ReLU0 <- conv4_7_0
I0927 22:03:28.979286 26041 net.cpp:509] conv4_7_ReLU0 -> conv4_7_0 (in-place)
I0927 22:03:28.979552 26041 net.cpp:172] Setting up conv4_7_ReLU0
I0927 22:03:28.979563 26041 net.cpp:186] Top shape: 10 64 8 8 (40960)
I0927 22:03:28.979568 26041 net.cpp:194] Memory required for data: 92692600
I0927 22:03:28.979571 26041 layer_factory.hpp:77] Creating layer conv4_7_1
I0927 22:03:28.979585 26041 net.cpp:128] Creating Layer conv4_7_1
I0927 22:03:28.979590 26041 net.cpp:558] conv4_7_1 <- conv4_7_0
I0927 22:03:28.979598 26041 net.cpp:522] conv4_7_1 -> conv4_7_1
I0927 22:03:28.981678 26041 net.cpp:172] Setting up conv4_7_1
I0927 22:03:28.981695 26041 net.cpp:186] Top shape: 10 64 8 8 (40960)
I0927 22:03:28.981699 26041 net.cpp:194] Memory required for data: 92856440
I0927 22:03:28.981709 26041 layer_factory.hpp:77] Creating layer conv4_7bn1
I0927 22:03:28.981719 26041 net.cpp:128] Creating Layer conv4_7bn1
I0927 22:03:28.981725 26041 net.cpp:558] conv4_7bn1 <- conv4_7_1
I0927 22:03:28.981734 26041 net.cpp:509] conv4_7bn1 -> conv4_7_1 (in-place)
I0927 22:03:28.982090 26041 net.cpp:172] Setting up conv4_7bn1
I0927 22:03:28.982098 26041 net.cpp:186] Top shape: 10 64 8 8 (40960)
I0927 22:03:28.982101 26041 net.cpp:194] Memory required for data: 93020280
I0927 22:03:28.982111 26041 layer_factory.hpp:77] Creating layer conv4_7_scale1
I0927 22:03:28.982133 26041 net.cpp:128] Creating Layer conv4_7_scale1
I0927 22:03:28.982138 26041 net.cpp:558] conv4_7_scale1 <- conv4_7_1
I0927 22:03:28.982144 26041 net.cpp:509] conv4_7_scale1 -> conv4_7_1 (in-place)
I0927 22:03:28.982209 26041 layer_factory.hpp:77] Creating layer conv4_7_scale1
I0927 22:03:28.982408 26041 net.cpp:172] Setting up conv4_7_scale1
I0927 22:03:28.982415 26041 net.cpp:186] Top shape: 10 64 8 8 (40960)
I0927 22:03:28.982419 26041 net.cpp:194] Memory required for data: 93184120
I0927 22:03:28.982427 26041 layer_factory.hpp:77] Creating layer conv4_Eltwise_7
I0927 22:03:28.982435 26041 net.cpp:128] Creating Layer conv4_Eltwise_7
I0927 22:03:28.982441 26041 net.cpp:558] conv4_Eltwise_7 <- conv4_Eltwise_6_conv4_6ReLU_1_0_split_1
I0927 22:03:28.982446 26041 net.cpp:558] conv4_Eltwise_7 <- conv4_7_1
I0927 22:03:28.982452 26041 net.cpp:522] conv4_Eltwise_7 -> conv4_Eltwise_7
I0927 22:03:28.982487 26041 net.cpp:172] Setting up conv4_Eltwise_7
I0927 22:03:28.982494 26041 net.cpp:186] Top shape: 10 64 8 8 (40960)
I0927 22:03:28.982498 26041 net.cpp:194] Memory required for data: 93347960
I0927 22:03:28.982502 26041 layer_factory.hpp:77] Creating layer conv4_7ReLU_1
I0927 22:03:28.982508 26041 net.cpp:128] Creating Layer conv4_7ReLU_1
I0927 22:03:28.982512 26041 net.cpp:558] conv4_7ReLU_1 <- conv4_Eltwise_7
I0927 22:03:28.982518 26041 net.cpp:509] conv4_7ReLU_1 -> conv4_Eltwise_7 (in-place)
I0927 22:03:28.982780 26041 net.cpp:172] Setting up conv4_7ReLU_1
I0927 22:03:28.982791 26041 net.cpp:186] Top shape: 10 64 8 8 (40960)
I0927 22:03:28.982795 26041 net.cpp:194] Memory required for data: 93511800
I0927 22:03:28.982800 26041 layer_factory.hpp:77] Creating layer Pooling1
I0927 22:03:28.982823 26041 net.cpp:128] Creating Layer Pooling1
I0927 22:03:28.982830 26041 net.cpp:558] Pooling1 <- conv4_Eltwise_7
I0927 22:03:28.982837 26041 net.cpp:522] Pooling1 -> Pooling1
I0927 22:03:28.983139 26041 net.cpp:172] Setting up Pooling1
I0927 22:03:28.983150 26041 net.cpp:186] Top shape: 10 64 1 1 (640)
I0927 22:03:28.983155 26041 net.cpp:194] Memory required for data: 93514360
I0927 22:03:28.983160 26041 layer_factory.hpp:77] Creating layer fc1
I0927 22:03:28.983171 26041 net.cpp:128] Creating Layer fc1
I0927 22:03:28.983176 26041 net.cpp:558] fc1 <- Pooling1
I0927 22:03:28.983186 26041 net.cpp:522] fc1 -> fc1
I0927 22:03:28.983394 26041 net.cpp:172] Setting up fc1
I0927 22:03:28.983402 26041 net.cpp:186] Top shape: 10 10 (100)
I0927 22:03:28.983407 26041 net.cpp:194] Memory required for data: 93514760
I0927 22:03:28.983415 26041 layer_factory.hpp:77] Creating layer fc1_fc1_0_split
I0927 22:03:28.983424 26041 net.cpp:128] Creating Layer fc1_fc1_0_split
I0927 22:03:28.983428 26041 net.cpp:558] fc1_fc1_0_split <- fc1
I0927 22:03:28.983434 26041 net.cpp:522] fc1_fc1_0_split -> fc1_fc1_0_split_0
I0927 22:03:28.983443 26041 net.cpp:522] fc1_fc1_0_split -> fc1_fc1_0_split_1
I0927 22:03:28.983502 26041 net.cpp:172] Setting up fc1_fc1_0_split
I0927 22:03:28.983510 26041 net.cpp:186] Top shape: 10 10 (100)
I0927 22:03:28.983515 26041 net.cpp:186] Top shape: 10 10 (100)
I0927 22:03:28.983518 26041 net.cpp:194] Memory required for data: 93515560
I0927 22:03:28.983522 26041 layer_factory.hpp:77] Creating layer Softmax1
I0927 22:03:28.983528 26041 net.cpp:128] Creating Layer Softmax1
I0927 22:03:28.983533 26041 net.cpp:558] Softmax1 <- fc1_fc1_0_split_0
I0927 22:03:28.983538 26041 net.cpp:558] Softmax1 <- label_Data1_1_split_0
I0927 22:03:28.983546 26041 net.cpp:522] Softmax1 -> Softmax1
…
