…
I1128 13:09:49.644776  8649 solver.cpp:77] Creating training net from train_net file: /home/ljf/caffe-master/examples/ljftest_cifar10_ResNet_pool/train.prototxt
I1128 13:09:49.645886  8649 net.cpp:51] Initializing net from parameters: 
state {
  phase: TRAIN
  level: 0
  stage: ""
}
layer {
  name: "Data1"
  type: "Data"
  top: "Data1"
  top: "Data2"
  transform_param {
    mirror: true
    crop_size: 28
  }
  data_param {
    source: "/home/ljf/caffe-master/examples/ljftest_cifar10_ResNet_pool/train_lmdb"
    batch_size: 32
    backend: LMDB
  }
  image_data_param {
    shuffle: true
  }
}
layer {
  name: "Convolution1"
  type: "Convolution"
  bottom: "Data1"
  top: "Convolution1"
  convolution_param {
    num_output: 16
    bias_term: true
    pad: 1
    kernel_size: 3
    stride: 1
    weight_filler {
      type: "msra"
    }
    bias_filler {
      type: "constant"
    }
  }
}
layer {
  name: "BatchNorm1"
  type: "BatchNorm"
  bottom: "Convolution1"
  top: "Convolution1"
  batch_norm_param {
    use_global_stats: false
  }
}
layer {
  name: "Scale1"
  type: "Scale"
  bottom: "Convolution1"
  top: "Convolution1"
  scale_param {
    bias_term: true
  }
}
layer {
  name: "ReLU1"
  type: "ReLU"
  bottom: "Convolution1"
  top: "Convolution1"
}
layer {
  name: "Convolution2"
  type: "Convolution"
  bottom: "Convolution1"
  top: "Convolution2"
  convolution_param {
    num_output: 16
    bias_term: true
    pad: 1
    kernel_size: 3
    stride: 1
    weight_filler {
      type: "msra"
    }
    bias_filler {
      type: "constant"
    }
  }
}
layer {
  name: "BatchNorm2"
  type: "BatchNorm"
  bottom: "Convolution2"
  top: "Convolution2"
  batch_norm_param {
    use_global_stats: false
  }
}
layer {
  name: "Scale2"
  type: "Scale"
  bottom: "Convolution2"
  top: "Convolution2"
  scale_param {
    bias_term: true
  }
}
layer {
  name: "ReLU2"
  type: "ReLU"
  bottom: "Convolution2"
  top: "Convolution2"
}
layer {
  name: "Convolution3"
  type: "Convolution"
  bottom: "Convolution2"
  top: "Convolution3"
  convolution_param {
    num_output: 16
    bias_term: true
    pad: 1
    kernel_size: 3
    stride: 1
    weight_filler {
      type: "msra"
    }
    bias_filler {
      type: "constant"
    }
  }
}
layer {
  name: "BatchNorm3"
  type: "BatchNorm"
  bottom: "Convolution3"
  top: "Convolution3"
  batch_norm_param {
    use_global_stats: false
  }
}
layer {
  name: "Scale3"
  type: "Scale"
  bottom: "Convolution3"
  top: "Convolution3"
  scale_param {
    bias_term: true
  }
}
layer {
  name: "Eltwise1"
  type: "Eltwise"
  bottom: "Convolution3"
  bottom: "Convolution1"
  top: "Eltwise1"
  eltwise_param {
    operation: SUM
  }
}
layer {
  name: "ReLU3"
  type: "ReLU"
  bottom: "Eltwise1"
  top: "Eltwise1"
}
layer {
  name: "Convolution4"
  type: "Convolution"
  bottom: "Eltwise1"
  top: "Convolution4"
  convolution_param {
    num_output: 16
    bias_term: true
    pad: 1
    kernel_size: 3
    stride: 1
    weight_filler {
      type: "msra"
    }
    bias_filler {
      type: "constant"
    }
  }
}
layer {
  name: "BatchNorm4"
  type: "BatchNorm"
  bottom: "Convolution4"
  top: "Convolution4"
  batch_norm_param {
    use_global_stats: false
  }
}
layer {
  name: "Scale4"
  type: "Scale"
  bottom: "Convolution4"
  top: "Convolution4"
  scale_param {
    bias_term: true
  }
}
layer {
  name: "ReLU4"
  type: "ReLU"
  bottom: "Convolution4"
  top: "Convolution4"
}
layer {
  name: "Convolution5"
  type: "Convolution"
  bottom: "Convolution4"
  top: "Convolution5"
  convolution_param {
    num_output: 16
    bias_term: true
    pad: 1
    kernel_size: 3
    stride: 1
    weight_filler {
      type: "msra"
    }
    bias_filler {
      type: "constant"
    }
  }
}
layer {
  name: "BatchNorm5"
  type: "BatchNorm"
  bottom: "Convolution5"
  top: "Convolution5"
  batch_norm_param {
    use_global_stats: false
  }
}
layer {
  name: "Scale5"
  type: "Scale"
  bottom: "Convolution5"
  top: "Convolution5"
  scale_param {
    bias_term: true
  }
}
layer {
  name: "Eltwise2"
  type: "Eltwise"
  bottom: "Convolution5"
  bottom: "Eltwise1"
  top: "Eltwise2"
  eltwise_param {
    operation: SUM
  }
}
layer {
  name: "ReLU5"
  type: "ReLU"
  bottom: "Eltwise2"
  top: "Eltwise2"
}
layer {
  name: "Convolution6"
  type: "Convolution"
  bottom: "Eltwise2"
  top: "Convolution6"
  convolution_param {
    num_output: 16
    bias_term: true
    pad: 1
    kernel_size: 3
    stride: 1
    weight_filler {
      type: "msra"
    }
    bias_filler {
      type: "constant"
    }
  }
}
layer {
  name: "BatchNorm6"
  type: "BatchNorm"
  bottom: "Convolution6"
  top: "Convolution6"
  batch_norm_param {
    use_global_stats: false
  }
}
layer {
  name: "Scale6"
  type: "Scale"
  bottom: "Convolution6"
  top: "Convolution6"
  scale_param {
    bias_term: true
  }
}
layer {
  name: "ReLU6"
  type: "ReLU"
  bottom: "Convolution6"
  top: "Convolution6"
}
layer {
  name: "Convolution7"
  type: "Convolution"
  bottom: "Convolution6"
  top: "Convolution7"
  convolution_param {
    num_output: 16
    bias_term: true
    pad: 1
    kernel_size: 3
    stride: 1
    weight_filler {
      type: "msra"
    }
    bias_filler {
      type: "constant"
    }
  }
}
layer {
  name: "BatchNorm7"
  type: "BatchNorm"
  bottom: "Convolution7"
  top: "Convolution7"
  batch_norm_param {
    use_global_stats: false
  }
}
layer {
  name: "Scale7"
  type: "Scale"
  bottom: "Convolution7"
  top: "Convolution7"
  scale_param {
    bias_term: true
  }
}
layer {
  name: "Eltwise3"
  type: "Eltwise"
  bottom: "Convolution7"
  bottom: "Eltwise2"
  top: "Eltwise3"
  eltwise_param {
    operation: SUM
  }
}
layer {
  name: "ReLU7"
  type: "ReLU"
  bottom: "Eltwise3"
  top: "Eltwise3"
}
layer {
  name: "Convolution8"
  type: "Convolution"
  bottom: "Eltwise3"
  top: "Convolution8"
  convolution_param {
    num_output: 32
    bias_term: true
    pad: 1
    kernel_size: 3
    stride: 2
    weight_filler {
      type: "msra"
    }
    bias_filler {
      type: "constant"
    }
  }
}
layer {
  name: "BatchNorm8"
  type: "BatchNorm"
  bottom: "Convolution8"
  top: "Convolution8"
  batch_norm_param {
    use_global_stats: false
  }
}
layer {
  name: "Scale8"
  type: "Scale"
  bottom: "Convolution8"
  top: "Convolution8"
  scale_param {
    bias_term: true
  }
}
layer {
  name: "ReLU8"
  type: "ReLU"
  bottom: "Convolution8"
  top: "Convolution8"
}
layer {
  name: "Convolution9"
  type: "Convolution"
  bottom: "Convolution8"
  top: "Convolution9"
  convolution_param {
    num_output: 32
    bias_term: true
    pad: 1
    kernel_size: 3
    stride: 1
    weight_filler {
      type: "msra"
    }
    bias_filler {
      type: "constant"
    }
  }
}
layer {
  name: "BatchNorm9"
  type: "BatchNorm"
  bottom: "Convolution9"
  top: "Convolution9"
  batch_norm_param {
    use_global_stats: false
  }
}
layer {
  name: "Scale9"
  type: "Scale"
  bottom: "Convolution9"
  top: "Convolution9"
  scale_param {
    bias_term: true
  }
}
layer {
  name: "Pooling1"
  type: "Pooling"
  bottom: "Eltwise3"
  top: "Pooling1"
  pooling_param {
    pool: MAX
    kernel_size: 2
    stride: 2
    pad: 0
  }
}
layer {
  name: "Convolution10"
  type: "Convolution"
  bottom: "Pooling1"
  top: "Convolution10"
  convolution_param {
    num_output: 32
    bias_term: true
    pad: 0
    kernel_size: 1
    stride: 1
    weight_filler {
      type: "msra"
    }
    bias_filler {
      type: "constant"
    }
  }
}
layer {
  name: "BatchNorm10"
  type: "BatchNorm"
  bottom: "Convolution10"
  top: "Convolution10"
  batch_norm_param {
    use_global_stats: false
  }
}
layer {
  name: "Scale10"
  type: "Scale"
  bottom: "Convolution10"
  top: "Convolution10"
  scale_param {
    bias_term: true
  }
}
layer {
  name: "Eltwise4"
  type: "Eltwise"
  bottom: "Convolution9"
  bottom: "Convolution10"
  top: "Eltwise4"
  eltwise_param {
    operation: SUM
  }
}
layer {
  name: "ReLU9"
  type: "ReLU"
  bottom: "Eltwise4"
  top: "Eltwise4"
}
layer {
  name: "Convolution11"
  type: "Convolution"
  bottom: "Eltwise4"
  top: "Convolution11"
  convolution_param {
    num_output: 32
    bias_term: true
    pad: 1
    kernel_size: 3
    stride: 1
    weight_filler {
      type: "msra"
    }
    bias_filler {
      type: "constant"
    }
  }
}
layer {
  name: "BatchNorm11"
  type: "BatchNorm"
  bottom: "Convolution11"
  top: "Convolution11"
  batch_norm_param {
    use_global_stats: false
  }
}
layer {
  name: "Scale11"
  type: "Scale"
  bottom: "Convolution11"
  top: "Convolution11"
  scale_param {
    bias_term: true
  }
}
layer {
  name: "ReLU10"
  type: "ReLU"
  bottom: "Convolution11"
  top: "Convolution11"
}
layer {
  name: "Convolution12"
  type: "Convolution"
  bottom: "Convolution11"
  top: "Convolution12"
  convolution_param {
    num_output: 32
    bias_term: true
    pad: 1
    kernel_size: 3
    stride: 1
    weight_filler {
      type: "msra"
    }
    bias_filler {
      type: "constant"
    }
  }
}
layer {
  name: "BatchNorm12"
  type: "BatchNorm"
  bottom: "Convolution12"
  top: "Convolution12"
  batch_norm_param {
    use_global_stats: false
  }
}
layer {
  name: "Scale12"
  type: "Scale"
  bottom: "Convolution12"
  top: "Convolution12"
  scale_param {
    bias_term: true
  }
}
layer {
  name: "Eltwise5"
  type: "Eltwise"
  bottom: "Convolution12"
  bottom: "Eltwise4"
  top: "Eltwise5"
  eltwise_param {
    operation: SUM
  }
}
layer {
  name: "ReLU11"
  type: "ReLU"
  bottom: "Eltwise5"
  top: "Eltwise5"
}
layer {
  name: "Convolution13"
  type: "Convolution"
  bottom: "Eltwise5"
  top: "Convolution13"
  convolution_param {
    num_output: 32
    bias_term: true
    pad: 1
    kernel_size: 3
    stride: 1
    weight_filler {
      type: "msra"
    }
    bias_filler {
      type: "constant"
    }
  }
}
layer {
  name: "BatchNorm13"
  type: "BatchNorm"
  bottom: "Convolution13"
  top: "Convolution13"
  batch_norm_param {
    use_global_stats: false
  }
}
layer {
  name: "Scale13"
  type: "Scale"
  bottom: "Convolution13"
  top: "Convolution13"
  scale_param {
    bias_term: true
  }
}
layer {
  name: "ReLU12"
  type: "ReLU"
  bottom: "Convolution13"
  top: "Convolution13"
}
layer {
  name: "Convolution14"
  type: "Convolution"
  bottom: "Convolution13"
  top: "Convolution14"
  convolution_param {
    num_output: 32
    bias_term: true
    pad: 1
    kernel_size: 3
    stride: 1
    weight_filler {
      type: "msra"
    }
    bias_filler {
      type: "constant"
    }
  }
}
layer {
  name: "BatchNorm14"
  type: "BatchNorm"
  bottom: "Convolution14"
  top: "Convolution14"
  batch_norm_param {
    use_global_stats: false
  }
}
layer {
  name: "Scale14"
  type: "Scale"
  bottom: "Convolution14"
  top: "Convolution14"
  scale_param {
    bias_term: true
  }
}
layer {
  name: "Eltwise6"
  type: "Eltwise"
  bottom: "Convolution14"
  bottom: "Eltwise5"
  top: "Eltwise6"
  eltwise_param {
    operation: SUM
  }
}
layer {
  name: "ReLU13"
  type: "ReLU"
  bottom: "Eltwise6"
  top: "Eltwise6"
}
layer {
  name: "Convolution15"
  type: "Convolution"
  bottom: "Eltwise6"
  top: "Convolution15"
  convolution_param {
    num_output: 64
    bias_term: true
    pad: 1
    kernel_size: 3
    stride: 2
    weight_filler {
      type: "msra"
    }
    bias_filler {
      type: "constant"
    }
  }
}
layer {
  name: "BatchNorm15"
  type: "BatchNorm"
  bottom: "Convolution15"
  top: "Convolution15"
  batch_norm_param {
    use_global_stats: false
  }
}
layer {
  name: "Scale15"
  type: "Scale"
  bottom: "Convolution15"
  top: "Convolution15"
  scale_param {
    bias_term: true
  }
}
layer {
  name: "ReLU14"
  type: "ReLU"
  bottom: "Convolution15"
  top: "Convolution15"
}
layer {
  name: "Convolution16"
  type: "Convolution"
  bottom: "Convolution15"
  top: "Convolution16"
  convolution_param {
    num_output: 64
    bias_term: true
    pad: 1
    kernel_size: 3
    stride: 1
    weight_filler {
      type: "msra"
    }
    bias_filler {
      type: "constant"
    }
  }
}
layer {
  name: "BatchNorm16"
  type: "BatchNorm"
  bottom: "Convolution16"
  top: "Convolution16"
  batch_norm_param {
    use_global_stats: false
  }
}
layer {
  name: "Scale16"
  type: "Scale"
  bottom: "Convolution16"
  top: "Convolution16"
  scale_param {
    bias_term: true
  }
}
layer {
  name: "Pooling2"
  type: "Pooling"
  bottom: "Eltwise6"
  top: "Pooling2"
  pooling_param {
    pool: MAX
    kernel_size: 2
    stride: 2
    pad: 0
  }
}
layer {
  name: "Convolution17"
  type: "Convolution"
  bottom: "Pooling2"
  top: "Convolution17"
  convolution_param {
    num_output: 64
    bias_term: true
    pad: 0
    kernel_size: 1
    stride: 1
    weight_filler {
      type: "msra"
    }
    bias_filler {
      type: "constant"
    }
  }
}
layer {
  name: "BatchNorm17"
  type: "BatchNorm"
  bottom: "Convolution17"
  top: "Convolution17"
  batch_norm_param {
    use_global_stats: false
  }
}
layer {
  name: "Scale17"
  type: "Scale"
  bottom: "Convolution17"
  top: "Convolution17"
  scale_param {
    bias_term: true
  }
}
layer {
  name: "Eltwise7"
  type: "Eltwise"
  bottom: "Convolution16"
  bottom: "Convolution17"
  top: "Eltwise7"
  eltwise_param {
    operation: SUM
  }
}
layer {
  name: "ReLU15"
  type: "ReLU"
  bottom: "Eltwise7"
  top: "Eltwise7"
}
layer {
  name: "Convolution18"
  type: "Convolution"
  bottom: "Eltwise7"
  top: "Convolution18"
  convolution_param {
    num_output: 64
    bias_term: true
    pad: 1
    kernel_size: 3
    stride: 1
    weight_filler {
      type: "msra"
    }
    bias_filler {
      type: "constant"
    }
  }
}
layer {
  name: "BatchNorm18"
  type: "BatchNorm"
  bottom: "Convolution18"
  top: "Convolution18"
  batch_norm_param {
    use_global_stats: false
  }
}
layer {
  name: "Scale18"
  type: "Scale"
  bottom: "Convolution18"
  top: "Convolution18"
  scale_param {
    bias_term: true
  }
}
layer {
  name: "ReLU16"
  type: "ReLU"
  bottom: "Convolution18"
  top: "Convolution18"
}
layer {
  name: "Convolution19"
  type: "Convolution"
  bottom: "Convolution18"
  top: "Convolution19"
  convolution_param {
    num_output: 64
    bias_term: true
    pad: 1
    kernel_size: 3
    stride: 1
    weight_filler {
      type: "msra"
    }
    bias_filler {
      type: "constant"
    }
  }
}
layer {
  name: "BatchNorm19"
  type: "BatchNorm"
  bottom: "Convolution19"
  top: "Convolution19"
  batch_norm_param {
    use_global_stats: false
  }
}
layer {
  name: "Scale19"
  type: "Scale"
  bottom: "Convolution19"
  top: "Convolution19"
  scale_param {
    bias_term: true
  }
}
layer {
  name: "Eltwise8"
  type: "Eltwise"
  bottom: "Convolution19"
  bottom: "Eltwise7"
  top: "Eltwise8"
  eltwise_param {
    operation: SUM
  }
}
layer {
  name: "ReLU17"
  type: "ReLU"
  bottom: "Eltwise8"
  top: "Eltwise8"
}
layer {
  name: "Convolution20"
  type: "Convolution"
  bottom: "Eltwise8"
  top: "Convolution20"
  convolution_param {
    num_output: 64
    bias_term: true
    pad: 1
    kernel_size: 3
    stride: 1
    weight_filler {
      type: "msra"
    }
    bias_filler {
      type: "constant"
    }
  }
}
layer {
  name: "BatchNorm20"
  type: "BatchNorm"
  bottom: "Convolution20"
  top: "Convolution20"
  batch_norm_param {
    use_global_stats: false
  }
}
layer {
  name: "Scale20"
  type: "Scale"
  bottom: "Convolution20"
  top: "Convolution20"
  scale_param {
    bias_term: true
  }
}
layer {
  name: "ReLU18"
  type: "ReLU"
  bottom: "Convolution20"
  top: "Convolution20"
}
layer {
  name: "Convolution21"
  type: "Convolution"
  bottom: "Convolution20"
  top: "Convolution21"
  convolution_param {
    num_output: 64
    bias_term: true
    pad: 1
    kernel_size: 3
    stride: 1
    weight_filler {
      type: "msra"
    }
    bias_filler {
      type: "constant"
    }
  }
}
layer {
  name: "BatchNorm21"
  type: "BatchNorm"
  bottom: "Convolution21"
  top: "Convolution21"
  batch_norm_param {
    use_global_stats: false
  }
}
layer {
  name: "Scale21"
  type: "Scale"
  bottom: "Convolution21"
  top: "Convolution21"
  scale_param {
    bias_term: true
  }
}
layer {
  name: "Eltwise9"
  type: "Eltwise"
  bottom: "Convolution21"
  bottom: "Eltwise8"
  top: "Eltwise9"
  eltwise_param {
    operation: SUM
  }
}
layer {
  name: "ReLU19"
  type: "ReLU"
  bottom: "Eltwise9"
  top: "Eltwise9"
}
layer {
  name: "Convolution22"
  type: "Convolution"
  bottom: "Eltwise9"
  top: "Convolution22"
  convolution_param {
    num_output: 64
    bias_term: true
    pad: 1
    kernel_size: 3
    stride: 2
    weight_filler {
      type: "msra"
    }
    bias_filler {
      type: "constant"
    }
  }
}
layer {
  name: "BatchNorm22"
  type: "BatchNorm"
  bottom: "Convolution22"
  top: "Convolution22"
  batch_norm_param {
    use_global_stats: false
  }
}
layer {
  name: "Scale22"
  type: "Scale"
  bottom: "Convolution22"
  top: "Convolution22"
  scale_param {
    bias_term: true
  }
}
layer {
  name: "ReLU20"
  type: "ReLU"
  bottom: "Convolution22"
  top: "Convolution22"
}
layer {
  name: "Convolution23"
  type: "Convolution"
  bottom: "Convolution22"
  top: "Convolution23"
  convolution_param {
    num_output: 64
    bias_term: true
    pad: 1
    kernel_size: 3
    stride: 1
    weight_filler {
      type: "msra"
    }
    bias_filler {
      type: "constant"
    }
  }
}
layer {
  name: "BatchNorm23"
  type: "BatchNorm"
  bottom: "Convolution23"
  top: "Convolution23"
  batch_norm_param {
    use_global_stats: false
  }
}
layer {
  name: "Scale23"
  type: "Scale"
  bottom: "Convolution23"
  top: "Convolution23"
  scale_param {
    bias_term: true
  }
}
layer {
  name: "Pooling3"
  type: "Pooling"
  bottom: "Eltwise9"
  top: "Pooling3"
  pooling_param {
    pool: MAX
    kernel_size: 2
    stride: 2
    pad: 0
  }
}
layer {
  name: "Convolution24"
  type: "Convolution"
  bottom: "Pooling3"
  top: "Convolution24"
  convolution_param {
    num_output: 64
    bias_term: true
    pad: 0
    kernel_size: 1
    stride: 1
    weight_filler {
      type: "msra"
    }
    bias_filler {
      type: "constant"
    }
  }
}
layer {
  name: "BatchNorm24"
  type: "BatchNorm"
  bottom: "Convolution24"
  top: "Convolution24"
  batch_norm_param {
    use_global_stats: false
  }
}
layer {
  name: "Scale24"
  type: "Scale"
  bottom: "Convolution24"
  top: "Convolution24"
  scale_param {
    bias_term: true
  }
}
layer {
  name: "Eltwise10"
  type: "Eltwise"
  bottom: "Convolution23"
  bottom: "Convolution24"
  top: "Eltwise10"
  eltwise_param {
    operation: SUM
  }
}
layer {
  name: "ReLU21"
  type: "ReLU"
  bottom: "Eltwise10"
  top: "Eltwise10"
}
layer {
  name: "Convolution25"
  type: "Convolution"
  bottom: "Eltwise10"
  top: "Convolution25"
  convolution_param {
    num_output: 64
    bias_term: true
    pad: 1
    kernel_size: 3
    stride: 1
    weight_filler {
      type: "msra"
    }
    bias_filler {
      type: "constant"
    }
  }
}
layer {
  name: "BatchNorm25"
  type: "BatchNorm"
  bottom: "Convolution25"
  top: "Convolution25"
  batch_norm_param {
    use_global_stats: false
  }
}
layer {
  name: "Scale25"
  type: "Scale"
  bottom: "Convolution25"
  top: "Convolution25"
  scale_param {
    bias_term: true
  }
}
layer {
  name: "ReLU22"
  type: "ReLU"
  bottom: "Convolution25"
  top: "Convolution25"
}
layer {
  name: "Convolution26"
  type: "Convolution"
  bottom: "Convolution25"
  top: "Convolution26"
  convolution_param {
    num_output: 64
    bias_term: true
    pad: 1
    kernel_size: 3
    stride: 1
    weight_filler {
      type: "msra"
    }
    bias_filler {
      type: "constant"
    }
  }
}
layer {
  name: "BatchNorm26"
  type: "BatchNorm"
  bottom: "Convolution26"
  top: "Convolution26"
  batch_norm_param {
    use_global_stats: false
  }
}
layer {
  name: "Scale26"
  type: "Scale"
  bottom: "Convolution26"
  top: "Convolution26"
  scale_param {
    bias_term: true
  }
}
layer {
  name: "Eltwise11"
  type: "Eltwise"
  bottom: "Convolution26"
  bottom: "Eltwise10"
  top: "Eltwise11"
  eltwise_param {
    operation: SUM
  }
}
layer {
  name: "ReLU23"
  type: "ReLU"
  bottom: "Eltwise11"
  top: "Eltwise11"
}
layer {
  name: "Convolution27"
  type: "Convolution"
  bottom: "Eltwise11"
  top: "Convolution27"
  convolution_param {
    num_output: 64
    bias_term: true
    pad: 1
    kernel_size: 3
    stride: 1
    weight_filler {
      type: "msra"
    }
    bias_filler {
      type: "constant"
    }
  }
}
layer {
  name: "BatchNorm27"
  type: "BatchNorm"
  bottom: "Convolution27"
  top: "Convolution27"
  batch_norm_param {
    use_global_stats: false
  }
}
layer {
  name: "Scale27"
  type: "Scale"
  bottom: "Convolution27"
  top: "Convolution27"
  scale_param {
    bias_term: true
  }
}
layer {
  name: "ReLU24"
  type: "ReLU"
  bottom: "Convolution27"
  top: "Convolution27"
}
layer {
  name: "Convolution28"
  type: "Convolution"
  bottom: "Convolution27"
  top: "Convolution28"
  convolution_param {
    num_output: 64
    bias_term: true
    pad: 1
    kernel_size: 3
    stride: 1
    weight_filler {
      type: "msra"
    }
    bias_filler {
      type: "constant"
    }
  }
}
layer {
  name: "BatchNorm28"
  type: "BatchNorm"
  bottom: "Convolution28"
  top: "Convolution28"
  batch_norm_param {
    use_global_stats: false
  }
}
layer {
  name: "Scale28"
  type: "Scale"
  bottom: "Convolution28"
  top: "Convolution28"
  scale_param {
    bias_term: true
  }
}
layer {
  name: "Eltwise12"
  type: "Eltwise"
  bottom: "Convolution28"
  bottom: "Eltwise11"
  top: "Eltwise12"
  eltwise_param {
    operation: SUM
  }
}
layer {
  name: "ReLU25"
  type: "ReLU"
  bottom: "Eltwise12"
  top: "Eltwise12"
}
layer {
  name: "Convolution29"
  type: "Convolution"
  bottom: "Eltwise12"
  top: "Convolution29"
  convolution_param {
    num_output: 64
    bias_term: true
    pad: 1
    kernel_size: 3
    stride: 2
    weight_filler {
      type: "msra"
    }
    bias_filler {
      type: "constant"
    }
  }
}
layer {
  name: "BatchNorm29"
  type: "BatchNorm"
  bottom: "Convolution29"
  top: "Convolution29"
  batch_norm_param {
    use_global_stats: false
  }
}
layer {
  name: "Scale29"
  type: "Scale"
  bottom: "Convolution29"
  top: "Convolution29"
  scale_param {
    bias_term: true
  }
}
layer {
  name: "ReLU26"
  type: "ReLU"
  bottom: "Convolution29"
  top: "Convolution29"
}
layer {
  name: "Convolution30"
  type: "Convolution"
  bottom: "Convolution29"
  top: "Convolution30"
  convolution_param {
    num_output: 64
    bias_term: true
    pad: 1
    kernel_size: 3
    stride: 1
    weight_filler {
      type: "msra"
    }
    bias_filler {
      type: "constant"
    }
  }
}
layer {
  name: "BatchNorm30"
  type: "BatchNorm"
  bottom: "Convolution30"
  top: "Convolution30"
  batch_norm_param {
    use_global_stats: false
  }
}
layer {
  name: "Scale30"
  type: "Scale"
  bottom: "Convolution30"
  top: "Convolution30"
  scale_param {
    bias_term: true
  }
}
layer {
  name: "Pooling4"
  type: "Pooling"
  bottom: "Eltwise12"
  top: "Pooling4"
  pooling_param {
    pool: MAX
    kernel_size: 2
    stride: 2
    pad: 0
  }
}
layer {
  name: "Convolution31"
  type: "Convolution"
  bottom: "Pooling4"
  top: "Convolution31"
  convolution_param {
    num_output: 64
    bias_term: true
    pad: 0
    kernel_size: 1
    stride: 1
    weight_filler {
      type: "msra"
    }
    bias_filler {
      type: "constant"
    }
  }
}
layer {
  name: "BatchNorm31"
  type: "BatchNorm"
  bottom: "Convolution31"
  top: "Convolution31"
  batch_norm_param {
    use_global_stats: false
  }
}
layer {
  name: "Scale31"
  type: "Scale"
  bottom: "Convolution31"
  top: "Convolution31"
  scale_param {
    bias_term: true
  }
}
layer {
  name: "Eltwise13"
  type: "Eltwise"
  bottom: "Convolution30"
  bottom: "Convolution31"
  top: "Eltwise13"
  eltwise_param {
    operation: SUM
  }
}
layer {
  name: "ReLU27"
  type: "ReLU"
  bottom: "Eltwise13"
  top: "Eltwise13"
}
layer {
  name: "Convolution32"
  type: "Convolution"
  bottom: "Eltwise13"
  top: "Convolution32"
  convolution_param {
    num_output: 64
    bias_term: true
    pad: 1
    kernel_size: 3
    stride: 1
    weight_filler {
      type: "msra"
    }
    bias_filler {
      type: "constant"
    }
  }
}
layer {
  name: "BatchNorm32"
  type: "BatchNorm"
  bottom: "Convolution32"
  top: "Convolution32"
  batch_norm_param {
    use_global_stats: false
  }
}
layer {
  name: "Scale32"
  type: "Scale"
  bottom: "Convolution32"
  top: "Convolution32"
  scale_param {
    bias_term: true
  }
}
layer {
  name: "ReLU28"
  type: "ReLU"
  bottom: "Convolution32"
  top: "Convolution32"
}
layer {
  name: "Convolution33"
  type: "Convolution"
  bottom: "Convolution32"
  top: "Convolution33"
  convolution_param {
    num_output: 64
    bias_term: true
    pad: 1
    kernel_size: 3
    stride: 1
    weight_filler {
      type: "msra"
    }
    bias_filler {
      type: "constant"
    }
  }
}
layer {
  name: "BatchNorm33"
  type: "BatchNorm"
  bottom: "Convolution33"
  top: "Convolution33"
  batch_norm_param {
    use_global_stats: false
  }
}
layer {
  name: "Scale33"
  type: "Scale"
  bottom: "Convolution33"
  top: "Convolution33"
  scale_param {
    bias_term: true
  }
}
layer {
  name: "Eltwise14"
  type: "Eltwise"
  bottom: "Convolution33"
  bottom: "Eltwise13"
  top: "Eltwise14"
  eltwise_param {
    operation: SUM
  }
}
layer {
  name: "ReLU29"
  type: "ReLU"
  bottom: "Eltwise14"
  top: "Eltwise14"
}
layer {
  name: "Convolution34"
  type: "Convolution"
  bottom: "Eltwise14"
  top: "Convolution34"
  convolution_param {
    num_output: 64
    bias_term: true
    pad: 1
    kernel_size: 3
    stride: 1
    weight_filler {
      type: "msra"
    }
    bias_filler {
      type: "constant"
    }
  }
}
layer {
  name: "BatchNorm34"
  type: "BatchNorm"
  bottom: "Convolution34"
  top: "Convolution34"
  batch_norm_param {
    use_global_stats: false
  }
}
layer {
  name: "Scale34"
  type: "Scale"
  bottom: "Convolution34"
  top: "Convolution34"
  scale_param {
    bias_term: true
  }
}
layer {
  name: "ReLU30"
  type: "ReLU"
  bottom: "Convolution34"
  top: "Convolution34"
}
layer {
  name: "Convolution35"
  type: "Convolution"
  bottom: "Convolution34"
  top: "Convolution35"
  convolution_param {
    num_output: 64
    bias_term: true
    pad: 1
    kernel_size: 3
    stride: 1
    weight_filler {
      type: "msra"
    }
    bias_filler {
      type: "constant"
    }
  }
}
layer {
  name: "BatchNorm35"
  type: "BatchNorm"
  bottom: "Convolution35"
  top: "Convolution35"
  batch_norm_param {
    use_global_stats: false
  }
}
layer {
  name: "Scale35"
  type: "Scale"
  bottom: "Convolution35"
  top: "Convolution35"
  scale_param {
    bias_term: true
  }
}
layer {
  name: "Eltwise15"
  type: "Eltwise"
  bottom: "Convolution35"
  bottom: "Eltwise14"
  top: "Eltwise15"
  eltwise_param {
    operation: SUM
  }
}
layer {
  name: "ReLU31"
  type: "ReLU"
  bottom: "Eltwise15"
  top: "Eltwise15"
}
layer {
  name: "Pooling5"
  type: "Pooling"
  bottom: "Eltwise15"
  top: "Pooling5"
  pooling_param {
    pool: AVE
    global_pooling: true
  }
}
layer {
  name: "InnerProduct1"
  type: "InnerProduct"
  bottom: "Pooling5"
  top: "InnerProduct1"
  inner_product_param {
    num_output: 10
    weight_filler {
      type: "xavier"
    }
    bias_filler {
      type: "constant"
    }
  }
}
layer {
  name: "SoftmaxWithLoss1"
  type: "SoftmaxWithLoss"
  bottom: "InnerProduct1"
  bottom: "Data2"
  top: "SoftmaxWithLoss1"
}
I1128 13:09:49.646383  8649 layer_factory.hpp:77] Creating layer Data1
I1128 13:09:49.646499  8649 db_lmdb.cpp:35] Opened lmdb /home/ljf/caffe-master/examples/ljftest_cifar10_ResNet_pool/train_lmdb
I1128 13:09:49.646534  8649 net.cpp:84] Creating Layer Data1
I1128 13:09:49.646546  8649 net.cpp:380] Data1 -> Data1
I1128 13:09:49.646569  8649 net.cpp:380] Data1 -> Data2
I1128 13:09:49.647178  8649 data_layer.cpp:45] output data size: 32,3,28,28
I1128 13:09:49.649022  8649 net.cpp:122] Setting up Data1
I1128 13:09:49.649051  8649 net.cpp:129] Top shape: 32 3 28 28 (75264)
I1128 13:09:49.649073  8649 net.cpp:129] Top shape: 32 (32)
I1128 13:09:49.649077  8649 net.cpp:137] Memory required for data: 301184
I1128 13:09:49.649088  8649 layer_factory.hpp:77] Creating layer Convolution1
I1128 13:09:49.649111  8649 net.cpp:84] Creating Layer Convolution1
I1128 13:09:49.649116  8649 net.cpp:406] Convolution1 <- Data1
I1128 13:09:49.649127  8649 net.cpp:380] Convolution1 -> Convolution1
I1128 13:09:49.990348  8649 net.cpp:122] Setting up Convolution1
I1128 13:09:49.990391  8649 net.cpp:129] Top shape: 32 16 28 28 (401408)
I1128 13:09:49.990396  8649 net.cpp:137] Memory required for data: 1906816
I1128 13:09:49.990427  8649 layer_factory.hpp:77] Creating layer BatchNorm1
I1128 13:09:49.990444  8649 net.cpp:84] Creating Layer BatchNorm1
I1128 13:09:49.990450  8649 net.cpp:406] BatchNorm1 <- Convolution1
I1128 13:09:49.990458  8649 net.cpp:367] BatchNorm1 -> Convolution1 (in-place)
I1128 13:09:49.990615  8649 net.cpp:122] Setting up BatchNorm1
I1128 13:09:49.990624  8649 net.cpp:129] Top shape: 32 16 28 28 (401408)
I1128 13:09:49.990628  8649 net.cpp:137] Memory required for data: 3512448
I1128 13:09:49.990636  8649 layer_factory.hpp:77] Creating layer Scale1
I1128 13:09:49.990645  8649 net.cpp:84] Creating Layer Scale1
I1128 13:09:49.990650  8649 net.cpp:406] Scale1 <- Convolution1
I1128 13:09:49.990656  8649 net.cpp:367] Scale1 -> Convolution1 (in-place)
I1128 13:09:49.990696  8649 layer_factory.hpp:77] Creating layer Scale1
I1128 13:09:49.990787  8649 net.cpp:122] Setting up Scale1
I1128 13:09:49.990794  8649 net.cpp:129] Top shape: 32 16 28 28 (401408)
I1128 13:09:49.990798  8649 net.cpp:137] Memory required for data: 5118080
I1128 13:09:49.990804  8649 layer_factory.hpp:77] Creating layer ReLU1
I1128 13:09:49.990811  8649 net.cpp:84] Creating Layer ReLU1
I1128 13:09:49.990816  8649 net.cpp:406] ReLU1 <- Convolution1
I1128 13:09:49.990821  8649 net.cpp:367] ReLU1 -> Convolution1 (in-place)
I1128 13:09:49.991178  8649 net.cpp:122] Setting up ReLU1
I1128 13:09:49.991189  8649 net.cpp:129] Top shape: 32 16 28 28 (401408)
I1128 13:09:49.991192  8649 net.cpp:137] Memory required for data: 6723712
I1128 13:09:49.991196  8649 layer_factory.hpp:77] Creating layer Convolution1_ReLU1_0_split
I1128 13:09:49.991206  8649 net.cpp:84] Creating Layer Convolution1_ReLU1_0_split
I1128 13:09:49.991211  8649 net.cpp:406] Convolution1_ReLU1_0_split <- Convolution1
I1128 13:09:49.991216  8649 net.cpp:380] Convolution1_ReLU1_0_split -> Convolution1_ReLU1_0_split_0
I1128 13:09:49.991225  8649 net.cpp:380] Convolution1_ReLU1_0_split -> Convolution1_ReLU1_0_split_1
I1128 13:09:49.991258  8649 net.cpp:122] Setting up Convolution1_ReLU1_0_split
I1128 13:09:49.991266  8649 net.cpp:129] Top shape: 32 16 28 28 (401408)
I1128 13:09:49.991271  8649 net.cpp:129] Top shape: 32 16 28 28 (401408)
I1128 13:09:49.991273  8649 net.cpp:137] Memory required for data: 9934976
I1128 13:09:49.991276  8649 layer_factory.hpp:77] Creating layer Convolution2
I1128 13:09:49.991289  8649 net.cpp:84] Creating Layer Convolution2
I1128 13:09:49.991294  8649 net.cpp:406] Convolution2 <- Convolution1_ReLU1_0_split_0
I1128 13:09:49.991300  8649 net.cpp:380] Convolution2 -> Convolution2
I1128 13:09:49.993325  8649 net.cpp:122] Setting up Convolution2
I1128 13:09:49.993368  8649 net.cpp:129] Top shape: 32 16 28 28 (401408)
I1128 13:09:49.993372  8649 net.cpp:137] Memory required for data: 11540608
I1128 13:09:49.993388  8649 layer_factory.hpp:77] Creating layer BatchNorm2
I1128 13:09:49.993398  8649 net.cpp:84] Creating Layer BatchNorm2
I1128 13:09:49.993403  8649 net.cpp:406] BatchNorm2 <- Convolution2
I1128 13:09:49.993410  8649 net.cpp:367] BatchNorm2 -> Convolution2 (in-place)
I1128 13:09:49.993594  8649 net.cpp:122] Setting up BatchNorm2
I1128 13:09:49.993602  8649 net.cpp:129] Top shape: 32 16 28 28 (401408)
I1128 13:09:49.993605  8649 net.cpp:137] Memory required for data: 13146240
I1128 13:09:49.993613  8649 layer_factory.hpp:77] Creating layer Scale2
I1128 13:09:49.993624  8649 net.cpp:84] Creating Layer Scale2
I1128 13:09:49.993639  8649 net.cpp:406] Scale2 <- Convolution2
I1128 13:09:49.993645  8649 net.cpp:367] Scale2 -> Convolution2 (in-place)
I1128 13:09:49.993680  8649 layer_factory.hpp:77] Creating layer Scale2
I1128 13:09:49.993772  8649 net.cpp:122] Setting up Scale2
I1128 13:09:49.993780  8649 net.cpp:129] Top shape: 32 16 28 28 (401408)
I1128 13:09:49.993784  8649 net.cpp:137] Memory required for data: 14751872
I1128 13:09:49.993789  8649 layer_factory.hpp:77] Creating layer ReLU2
I1128 13:09:49.993796  8649 net.cpp:84] Creating Layer ReLU2
I1128 13:09:49.993800  8649 net.cpp:406] ReLU2 <- Convolution2
I1128 13:09:49.993806  8649 net.cpp:367] ReLU2 -> Convolution2 (in-place)
I1128 13:09:49.994055  8649 net.cpp:122] Setting up ReLU2
I1128 13:09:49.994076  8649 net.cpp:129] Top shape: 32 16 28 28 (401408)
I1128 13:09:49.994081  8649 net.cpp:137] Memory required for data: 16357504
I1128 13:09:49.994084  8649 layer_factory.hpp:77] Creating layer Convolution3
I1128 13:09:49.994099  8649 net.cpp:84] Creating Layer Convolution3
I1128 13:09:49.994107  8649 net.cpp:406] Convolution3 <- Convolution2
I1128 13:09:49.994115  8649 net.cpp:380] Convolution3 -> Convolution3
I1128 13:09:49.995627  8649 net.cpp:122] Setting up Convolution3
I1128 13:09:49.995652  8649 net.cpp:129] Top shape: 32 16 28 28 (401408)
I1128 13:09:49.995656  8649 net.cpp:137] Memory required for data: 17963136
I1128 13:09:49.995664  8649 layer_factory.hpp:77] Creating layer BatchNorm3
I1128 13:09:49.995674  8649 net.cpp:84] Creating Layer BatchNorm3
I1128 13:09:49.995682  8649 net.cpp:406] BatchNorm3 <- Convolution3
I1128 13:09:49.995687  8649 net.cpp:367] BatchNorm3 -> Convolution3 (in-place)
I1128 13:09:49.995839  8649 net.cpp:122] Setting up BatchNorm3
I1128 13:09:49.995846  8649 net.cpp:129] Top shape: 32 16 28 28 (401408)
I1128 13:09:49.995849  8649 net.cpp:137] Memory required for data: 19568768
I1128 13:09:49.995859  8649 layer_factory.hpp:77] Creating layer Scale3
I1128 13:09:49.995867  8649 net.cpp:84] Creating Layer Scale3
I1128 13:09:49.995869  8649 net.cpp:406] Scale3 <- Convolution3
I1128 13:09:49.995875  8649 net.cpp:367] Scale3 -> Convolution3 (in-place)
I1128 13:09:49.995909  8649 layer_factory.hpp:77] Creating layer Scale3
I1128 13:09:49.995999  8649 net.cpp:122] Setting up Scale3
I1128 13:09:49.996008  8649 net.cpp:129] Top shape: 32 16 28 28 (401408)
I1128 13:09:49.996012  8649 net.cpp:137] Memory required for data: 21174400
I1128 13:09:49.996021  8649 layer_factory.hpp:77] Creating layer Eltwise1
I1128 13:09:49.996028  8649 net.cpp:84] Creating Layer Eltwise1
I1128 13:09:49.996034  8649 net.cpp:406] Eltwise1 <- Convolution3
I1128 13:09:49.996040  8649 net.cpp:406] Eltwise1 <- Convolution1_ReLU1_0_split_1
I1128 13:09:49.996049  8649 net.cpp:380] Eltwise1 -> Eltwise1
I1128 13:09:49.996084  8649 net.cpp:122] Setting up Eltwise1
I1128 13:09:49.996095  8649 net.cpp:129] Top shape: 32 16 28 28 (401408)
I1128 13:09:49.996100  8649 net.cpp:137] Memory required for data: 22780032
I1128 13:09:49.996105  8649 layer_factory.hpp:77] Creating layer ReLU3
I1128 13:09:49.996114  8649 net.cpp:84] Creating Layer ReLU3
I1128 13:09:49.996119  8649 net.cpp:406] ReLU3 <- Eltwise1
I1128 13:09:49.996126  8649 net.cpp:367] ReLU3 -> Eltwise1 (in-place)
I1128 13:09:49.996469  8649 net.cpp:122] Setting up ReLU3
I1128 13:09:49.996481  8649 net.cpp:129] Top shape: 32 16 28 28 (401408)
I1128 13:09:49.996486  8649 net.cpp:137] Memory required for data: 24385664
I1128 13:09:49.996491  8649 layer_factory.hpp:77] Creating layer Eltwise1_ReLU3_0_split
I1128 13:09:49.996500  8649 net.cpp:84] Creating Layer Eltwise1_ReLU3_0_split
I1128 13:09:49.996520  8649 net.cpp:406] Eltwise1_ReLU3_0_split <- Eltwise1
I1128 13:09:49.996541  8649 net.cpp:380] Eltwise1_ReLU3_0_split -> Eltwise1_ReLU3_0_split_0
I1128 13:09:49.996562  8649 net.cpp:380] Eltwise1_ReLU3_0_split -> Eltwise1_ReLU3_0_split_1
I1128 13:09:49.996626  8649 net.cpp:122] Setting up Eltwise1_ReLU3_0_split
I1128 13:09:49.996636  8649 net.cpp:129] Top shape: 32 16 28 28 (401408)
I1128 13:09:49.996642  8649 net.cpp:129] Top shape: 32 16 28 28 (401408)
I1128 13:09:49.996659  8649 net.cpp:137] Memory required for data: 27596928
I1128 13:09:49.996666  8649 layer_factory.hpp:77] Creating layer Convolution4
I1128 13:09:49.996685  8649 net.cpp:84] Creating Layer Convolution4
I1128 13:09:49.996690  8649 net.cpp:406] Convolution4 <- Eltwise1_ReLU3_0_split_0
I1128 13:09:49.996700  8649 net.cpp:380] Convolution4 -> Convolution4
I1128 13:09:49.998026  8649 net.cpp:122] Setting up Convolution4
I1128 13:09:49.998088  8649 net.cpp:129] Top shape: 32 16 28 28 (401408)
I1128 13:09:49.998105  8649 net.cpp:137] Memory required for data: 29202560
I1128 13:09:49.998126  8649 layer_factory.hpp:77] Creating layer BatchNorm4
I1128 13:09:49.998150  8649 net.cpp:84] Creating Layer BatchNorm4
I1128 13:09:49.998167  8649 net.cpp:406] BatchNorm4 <- Convolution4
I1128 13:09:49.998185  8649 net.cpp:367] BatchNorm4 -> Convolution4 (in-place)
I1128 13:09:49.998402  8649 net.cpp:122] Setting up BatchNorm4
I1128 13:09:49.998427  8649 net.cpp:129] Top shape: 32 16 28 28 (401408)
I1128 13:09:49.998443  8649 net.cpp:137] Memory required for data: 30808192
I1128 13:09:49.998464  8649 layer_factory.hpp:77] Creating layer Scale4
I1128 13:09:49.998476  8649 net.cpp:84] Creating Layer Scale4
I1128 13:09:49.998481  8649 net.cpp:406] Scale4 <- Convolution4
I1128 13:09:49.998488  8649 net.cpp:367] Scale4 -> Convolution4 (in-place)
I1128 13:09:49.998546  8649 layer_factory.hpp:77] Creating layer Scale4
I1128 13:09:49.998677  8649 net.cpp:122] Setting up Scale4
I1128 13:09:49.998688  8649 net.cpp:129] Top shape: 32 16 28 28 (401408)
I1128 13:09:49.998694  8649 net.cpp:137] Memory required for data: 32413824
I1128 13:09:49.998703  8649 layer_factory.hpp:77] Creating layer ReLU4
I1128 13:09:49.998724  8649 net.cpp:84] Creating Layer ReLU4
I1128 13:09:49.998741  8649 net.cpp:406] ReLU4 <- Convolution4
I1128 13:09:49.998760  8649 net.cpp:367] ReLU4 -> Convolution4 (in-place)
I1128 13:09:49.998987  8649 net.cpp:122] Setting up ReLU4
I1128 13:09:49.998999  8649 net.cpp:129] Top shape: 32 16 28 28 (401408)
I1128 13:09:49.999004  8649 net.cpp:137] Memory required for data: 34019456
I1128 13:09:49.999009  8649 layer_factory.hpp:77] Creating layer Convolution5
I1128 13:09:49.999034  8649 net.cpp:84] Creating Layer Convolution5
I1128 13:09:49.999052  8649 net.cpp:406] Convolution5 <- Convolution4
I1128 13:09:49.999063  8649 net.cpp:380] Convolution5 -> Convolution5
I1128 13:09:50.000216  8649 net.cpp:122] Setting up Convolution5
I1128 13:09:50.000269  8649 net.cpp:129] Top shape: 32 16 28 28 (401408)
I1128 13:09:50.000274  8649 net.cpp:137] Memory required for data: 35625088
I1128 13:09:50.000286  8649 layer_factory.hpp:77] Creating layer BatchNorm5
I1128 13:09:50.000301  8649 net.cpp:84] Creating Layer BatchNorm5
I1128 13:09:50.000325  8649 net.cpp:406] BatchNorm5 <- Convolution5
I1128 13:09:50.000339  8649 net.cpp:367] BatchNorm5 -> Convolution5 (in-place)
I1128 13:09:50.000522  8649 net.cpp:122] Setting up BatchNorm5
I1128 13:09:50.000531  8649 net.cpp:129] Top shape: 32 16 28 28 (401408)
I1128 13:09:50.000536  8649 net.cpp:137] Memory required for data: 37230720
I1128 13:09:50.000553  8649 layer_factory.hpp:77] Creating layer Scale5
I1128 13:09:50.000563  8649 net.cpp:84] Creating Layer Scale5
I1128 13:09:50.000569  8649 net.cpp:406] Scale5 <- Convolution5
I1128 13:09:50.000581  8649 net.cpp:367] Scale5 -> Convolution5 (in-place)
I1128 13:09:50.000622  8649 layer_factory.hpp:77] Creating layer Scale5
I1128 13:09:50.000716  8649 net.cpp:122] Setting up Scale5
I1128 13:09:50.000737  8649 net.cpp:129] Top shape: 32 16 28 28 (401408)
I1128 13:09:50.000742  8649 net.cpp:137] Memory required for data: 38836352
I1128 13:09:50.000751  8649 layer_factory.hpp:77] Creating layer Eltwise2
I1128 13:09:50.000767  8649 net.cpp:84] Creating Layer Eltwise2
I1128 13:09:50.000773  8649 net.cpp:406] Eltwise2 <- Convolution5
I1128 13:09:50.000780  8649 net.cpp:406] Eltwise2 <- Eltwise1_ReLU3_0_split_1
I1128 13:09:50.000790  8649 net.cpp:380] Eltwise2 -> Eltwise2
I1128 13:09:50.000820  8649 net.cpp:122] Setting up Eltwise2
I1128 13:09:50.000836  8649 net.cpp:129] Top shape: 32 16 28 28 (401408)
I1128 13:09:50.000841  8649 net.cpp:137] Memory required for data: 40441984
I1128 13:09:50.000847  8649 layer_factory.hpp:77] Creating layer ReLU5
I1128 13:09:50.000856  8649 net.cpp:84] Creating Layer ReLU5
I1128 13:09:50.000862  8649 net.cpp:406] ReLU5 <- Eltwise2
I1128 13:09:50.000869  8649 net.cpp:367] ReLU5 -> Eltwise2 (in-place)
I1128 13:09:50.001232  8649 net.cpp:122] Setting up ReLU5
I1128 13:09:50.001246  8649 net.cpp:129] Top shape: 32 16 28 28 (401408)
I1128 13:09:50.001251  8649 net.cpp:137] Memory required for data: 42047616
I1128 13:09:50.001256  8649 layer_factory.hpp:77] Creating layer Eltwise2_ReLU5_0_split
I1128 13:09:50.001266  8649 net.cpp:84] Creating Layer Eltwise2_ReLU5_0_split
I1128 13:09:50.001271  8649 net.cpp:406] Eltwise2_ReLU5_0_split <- Eltwise2
I1128 13:09:50.001281  8649 net.cpp:380] Eltwise2_ReLU5_0_split -> Eltwise2_ReLU5_0_split_0
I1128 13:09:50.001293  8649 net.cpp:380] Eltwise2_ReLU5_0_split -> Eltwise2_ReLU5_0_split_1
I1128 13:09:50.001338  8649 net.cpp:122] Setting up Eltwise2_ReLU5_0_split
I1128 13:09:50.001346  8649 net.cpp:129] Top shape: 32 16 28 28 (401408)
I1128 13:09:50.001353  8649 net.cpp:129] Top shape: 32 16 28 28 (401408)
I1128 13:09:50.001358  8649 net.cpp:137] Memory required for data: 45258880
I1128 13:09:50.001363  8649 layer_factory.hpp:77] Creating layer Convolution6
I1128 13:09:50.001379  8649 net.cpp:84] Creating Layer Convolution6
I1128 13:09:50.001384  8649 net.cpp:406] Convolution6 <- Eltwise2_ReLU5_0_split_0
I1128 13:09:50.001392  8649 net.cpp:380] Convolution6 -> Convolution6
I1128 13:09:50.003005  8649 net.cpp:122] Setting up Convolution6
I1128 13:09:50.003062  8649 net.cpp:129] Top shape: 32 16 28 28 (401408)
I1128 13:09:50.003088  8649 net.cpp:137] Memory required for data: 46864512
I1128 13:09:50.003113  8649 layer_factory.hpp:77] Creating layer BatchNorm6
I1128 13:09:50.003135  8649 net.cpp:84] Creating Layer BatchNorm6
I1128 13:09:50.003154  8649 net.cpp:406] BatchNorm6 <- Convolution6
I1128 13:09:50.003173  8649 net.cpp:367] BatchNorm6 -> Convolution6 (in-place)
I1128 13:09:50.003435  8649 net.cpp:122] Setting up BatchNorm6
I1128 13:09:50.003464  8649 net.cpp:129] Top shape: 32 16 28 28 (401408)
I1128 13:09:50.003479  8649 net.cpp:137] Memory required for data: 48470144
I1128 13:09:50.003496  8649 layer_factory.hpp:77] Creating layer Scale6
I1128 13:09:50.003517  8649 net.cpp:84] Creating Layer Scale6
I1128 13:09:50.003532  8649 net.cpp:406] Scale6 <- Convolution6
I1128 13:09:50.003547  8649 net.cpp:367] Scale6 -> Convolution6 (in-place)
I1128 13:09:50.003617  8649 layer_factory.hpp:77] Creating layer Scale6
I1128 13:09:50.003772  8649 net.cpp:122] Setting up Scale6
I1128 13:09:50.003798  8649 net.cpp:129] Top shape: 32 16 28 28 (401408)
I1128 13:09:50.003813  8649 net.cpp:137] Memory required for data: 50075776
I1128 13:09:50.003832  8649 layer_factory.hpp:77] Creating layer ReLU6
I1128 13:09:50.003851  8649 net.cpp:84] Creating Layer ReLU6
I1128 13:09:50.003867  8649 net.cpp:406] ReLU6 <- Convolution6
I1128 13:09:50.003886  8649 net.cpp:367] ReLU6 -> Convolution6 (in-place)
I1128 13:09:50.004525  8649 net.cpp:122] Setting up ReLU6
I1128 13:09:50.004542  8649 net.cpp:129] Top shape: 32 16 28 28 (401408)
I1128 13:09:50.004549  8649 net.cpp:137] Memory required for data: 51681408
I1128 13:09:50.004554  8649 layer_factory.hpp:77] Creating layer Convolution7
I1128 13:09:50.004570  8649 net.cpp:84] Creating Layer Convolution7
I1128 13:09:50.004578  8649 net.cpp:406] Convolution7 <- Convolution6
I1128 13:09:50.004590  8649 net.cpp:380] Convolution7 -> Convolution7
I1128 13:09:50.005698  8649 net.cpp:122] Setting up Convolution7
I1128 13:09:50.005712  8649 net.cpp:129] Top shape: 32 16 28 28 (401408)
I1128 13:09:50.005715  8649 net.cpp:137] Memory required for data: 53287040
I1128 13:09:50.005726  8649 layer_factory.hpp:77] Creating layer BatchNorm7
I1128 13:09:50.005738  8649 net.cpp:84] Creating Layer BatchNorm7
I1128 13:09:50.005744  8649 net.cpp:406] BatchNorm7 <- Convolution7
I1128 13:09:50.005769  8649 net.cpp:367] BatchNorm7 -> Convolution7 (in-place)
I1128 13:09:50.005934  8649 net.cpp:122] Setting up BatchNorm7
I1128 13:09:50.005942  8649 net.cpp:129] Top shape: 32 16 28 28 (401408)
I1128 13:09:50.005949  8649 net.cpp:137] Memory required for data: 54892672
I1128 13:09:50.005961  8649 layer_factory.hpp:77] Creating layer Scale7
I1128 13:09:50.005978  8649 net.cpp:84] Creating Layer Scale7
I1128 13:09:50.005985  8649 net.cpp:406] Scale7 <- Convolution7
I1128 13:09:50.005995  8649 net.cpp:367] Scale7 -> Convolution7 (in-place)
I1128 13:09:50.006041  8649 layer_factory.hpp:77] Creating layer Scale7
I1128 13:09:50.006145  8649 net.cpp:122] Setting up Scale7
I1128 13:09:50.006153  8649 net.cpp:129] Top shape: 32 16 28 28 (401408)
I1128 13:09:50.006158  8649 net.cpp:137] Memory required for data: 56498304
I1128 13:09:50.006167  8649 layer_factory.hpp:77] Creating layer Eltwise3
I1128 13:09:50.006180  8649 net.cpp:84] Creating Layer Eltwise3
I1128 13:09:50.006186  8649 net.cpp:406] Eltwise3 <- Convolution7
I1128 13:09:50.006196  8649 net.cpp:406] Eltwise3 <- Eltwise2_ReLU5_0_split_1
I1128 13:09:50.006206  8649 net.cpp:380] Eltwise3 -> Eltwise3
I1128 13:09:50.006237  8649 net.cpp:122] Setting up Eltwise3
I1128 13:09:50.006243  8649 net.cpp:129] Top shape: 32 16 28 28 (401408)
I1128 13:09:50.006249  8649 net.cpp:137] Memory required for data: 58103936
I1128 13:09:50.006255  8649 layer_factory.hpp:77] Creating layer ReLU7
I1128 13:09:50.006265  8649 net.cpp:84] Creating Layer ReLU7
I1128 13:09:50.006273  8649 net.cpp:406] ReLU7 <- Eltwise3
I1128 13:09:50.006283  8649 net.cpp:367] ReLU7 -> Eltwise3 (in-place)
I1128 13:09:50.006438  8649 net.cpp:122] Setting up ReLU7
I1128 13:09:50.006446  8649 net.cpp:129] Top shape: 32 16 28 28 (401408)
I1128 13:09:50.006453  8649 net.cpp:137] Memory required for data: 59709568
I1128 13:09:50.006458  8649 layer_factory.hpp:77] Creating layer Eltwise3_ReLU7_0_split
I1128 13:09:50.006469  8649 net.cpp:84] Creating Layer Eltwise3_ReLU7_0_split
I1128 13:09:50.006477  8649 net.cpp:406] Eltwise3_ReLU7_0_split <- Eltwise3
I1128 13:09:50.006489  8649 net.cpp:380] Eltwise3_ReLU7_0_split -> Eltwise3_ReLU7_0_split_0
I1128 13:09:50.006500  8649 net.cpp:380] Eltwise3_ReLU7_0_split -> Eltwise3_ReLU7_0_split_1
I1128 13:09:50.006542  8649 net.cpp:122] Setting up Eltwise3_ReLU7_0_split
I1128 13:09:50.006551  8649 net.cpp:129] Top shape: 32 16 28 28 (401408)
I1128 13:09:50.006556  8649 net.cpp:129] Top shape: 32 16 28 28 (401408)
I1128 13:09:50.006562  8649 net.cpp:137] Memory required for data: 62920832
I1128 13:09:50.006569  8649 layer_factory.hpp:77] Creating layer Convolution8
I1128 13:09:50.006585  8649 net.cpp:84] Creating Layer Convolution8
I1128 13:09:50.006593  8649 net.cpp:406] Convolution8 <- Eltwise3_ReLU7_0_split_0
I1128 13:09:50.006606  8649 net.cpp:380] Convolution8 -> Convolution8
I1128 13:09:50.008011  8649 net.cpp:122] Setting up Convolution8
I1128 13:09:50.008028  8649 net.cpp:129] Top shape: 32 32 14 14 (200704)
I1128 13:09:50.008031  8649 net.cpp:137] Memory required for data: 63723648
I1128 13:09:50.008041  8649 layer_factory.hpp:77] Creating layer BatchNorm8
I1128 13:09:50.008051  8649 net.cpp:84] Creating Layer BatchNorm8
I1128 13:09:50.008059  8649 net.cpp:406] BatchNorm8 <- Convolution8
I1128 13:09:50.008070  8649 net.cpp:367] BatchNorm8 -> Convolution8 (in-place)
I1128 13:09:50.008255  8649 net.cpp:122] Setting up BatchNorm8
I1128 13:09:50.008265  8649 net.cpp:129] Top shape: 32 32 14 14 (200704)
I1128 13:09:50.008268  8649 net.cpp:137] Memory required for data: 64526464
I1128 13:09:50.008275  8649 layer_factory.hpp:77] Creating layer Scale8
I1128 13:09:50.008283  8649 net.cpp:84] Creating Layer Scale8
I1128 13:09:50.008289  8649 net.cpp:406] Scale8 <- Convolution8
I1128 13:09:50.008296  8649 net.cpp:367] Scale8 -> Convolution8 (in-place)
I1128 13:09:50.008340  8649 layer_factory.hpp:77] Creating layer Scale8
I1128 13:09:50.008438  8649 net.cpp:122] Setting up Scale8
I1128 13:09:50.008446  8649 net.cpp:129] Top shape: 32 32 14 14 (200704)
I1128 13:09:50.008463  8649 net.cpp:137] Memory required for data: 65329280
I1128 13:09:50.008476  8649 layer_factory.hpp:77] Creating layer ReLU8
I1128 13:09:50.008486  8649 net.cpp:84] Creating Layer ReLU8
I1128 13:09:50.008493  8649 net.cpp:406] ReLU8 <- Convolution8
I1128 13:09:50.008503  8649 net.cpp:367] ReLU8 -> Convolution8 (in-place)
I1128 13:09:50.008787  8649 net.cpp:122] Setting up ReLU8
I1128 13:09:50.008797  8649 net.cpp:129] Top shape: 32 32 14 14 (200704)
I1128 13:09:50.008803  8649 net.cpp:137] Memory required for data: 66132096
I1128 13:09:50.008810  8649 layer_factory.hpp:77] Creating layer Convolution9
I1128 13:09:50.008826  8649 net.cpp:84] Creating Layer Convolution9
I1128 13:09:50.008833  8649 net.cpp:406] Convolution9 <- Convolution8
I1128 13:09:50.008844  8649 net.cpp:380] Convolution9 -> Convolution9
I1128 13:09:50.009912  8649 net.cpp:122] Setting up Convolution9
I1128 13:09:50.009925  8649 net.cpp:129] Top shape: 32 32 14 14 (200704)
I1128 13:09:50.009929  8649 net.cpp:137] Memory required for data: 66934912
I1128 13:09:50.009937  8649 layer_factory.hpp:77] Creating layer BatchNorm9
I1128 13:09:50.009943  8649 net.cpp:84] Creating Layer BatchNorm9
I1128 13:09:50.009948  8649 net.cpp:406] BatchNorm9 <- Convolution9
I1128 13:09:50.009953  8649 net.cpp:367] BatchNorm9 -> Convolution9 (in-place)
I1128 13:09:50.010107  8649 net.cpp:122] Setting up BatchNorm9
I1128 13:09:50.010114  8649 net.cpp:129] Top shape: 32 32 14 14 (200704)
I1128 13:09:50.010118  8649 net.cpp:137] Memory required for data: 67737728
I1128 13:09:50.010125  8649 layer_factory.hpp:77] Creating layer Scale9
I1128 13:09:50.010131  8649 net.cpp:84] Creating Layer Scale9
I1128 13:09:50.010136  8649 net.cpp:406] Scale9 <- Convolution9
I1128 13:09:50.010140  8649 net.cpp:367] Scale9 -> Convolution9 (in-place)
I1128 13:09:50.010172  8649 layer_factory.hpp:77] Creating layer Scale9
I1128 13:09:50.010262  8649 net.cpp:122] Setting up Scale9
I1128 13:09:50.010268  8649 net.cpp:129] Top shape: 32 32 14 14 (200704)
I1128 13:09:50.010273  8649 net.cpp:137] Memory required for data: 68540544
I1128 13:09:50.010278  8649 layer_factory.hpp:77] Creating layer Pooling1
I1128 13:09:50.010285  8649 net.cpp:84] Creating Layer Pooling1
I1128 13:09:50.010290  8649 net.cpp:406] Pooling1 <- Eltwise3_ReLU7_0_split_1
I1128 13:09:50.010295  8649 net.cpp:380] Pooling1 -> Pooling1
I1128 13:09:50.010335  8649 net.cpp:122] Setting up Pooling1
I1128 13:09:50.010342  8649 net.cpp:129] Top shape: 32 16 14 14 (100352)
I1128 13:09:50.010346  8649 net.cpp:137] Memory required for data: 68941952
I1128 13:09:50.010350  8649 layer_factory.hpp:77] Creating layer Convolution10
I1128 13:09:50.010360  8649 net.cpp:84] Creating Layer Convolution10
I1128 13:09:50.010365  8649 net.cpp:406] Convolution10 <- Pooling1
I1128 13:09:50.010370  8649 net.cpp:380] Convolution10 -> Convolution10
I1128 13:09:50.011243  8649 net.cpp:122] Setting up Convolution10
I1128 13:09:50.011260  8649 net.cpp:129] Top shape: 32 32 14 14 (200704)
I1128 13:09:50.011265  8649 net.cpp:137] Memory required for data: 69744768
I1128 13:09:50.011281  8649 layer_factory.hpp:77] Creating layer BatchNorm10
I1128 13:09:50.011291  8649 net.cpp:84] Creating Layer BatchNorm10
I1128 13:09:50.011296  8649 net.cpp:406] BatchNorm10 <- Convolution10
I1128 13:09:50.011301  8649 net.cpp:367] BatchNorm10 -> Convolution10 (in-place)
I1128 13:09:50.011451  8649 net.cpp:122] Setting up BatchNorm10
I1128 13:09:50.011458  8649 net.cpp:129] Top shape: 32 32 14 14 (200704)
I1128 13:09:50.011461  8649 net.cpp:137] Memory required for data: 70547584
I1128 13:09:50.011468  8649 layer_factory.hpp:77] Creating layer Scale10
I1128 13:09:50.011474  8649 net.cpp:84] Creating Layer Scale10
I1128 13:09:50.011478  8649 net.cpp:406] Scale10 <- Convolution10
I1128 13:09:50.011482  8649 net.cpp:367] Scale10 -> Convolution10 (in-place)
I1128 13:09:50.011515  8649 layer_factory.hpp:77] Creating layer Scale10
I1128 13:09:50.011603  8649 net.cpp:122] Setting up Scale10
I1128 13:09:50.011610  8649 net.cpp:129] Top shape: 32 32 14 14 (200704)
I1128 13:09:50.011626  8649 net.cpp:137] Memory required for data: 71350400
I1128 13:09:50.011631  8649 layer_factory.hpp:77] Creating layer Eltwise4
I1128 13:09:50.011638  8649 net.cpp:84] Creating Layer Eltwise4
I1128 13:09:50.011643  8649 net.cpp:406] Eltwise4 <- Convolution9
I1128 13:09:50.011647  8649 net.cpp:406] Eltwise4 <- Convolution10
I1128 13:09:50.011653  8649 net.cpp:380] Eltwise4 -> Eltwise4
I1128 13:09:50.011677  8649 net.cpp:122] Setting up Eltwise4
I1128 13:09:50.011682  8649 net.cpp:129] Top shape: 32 32 14 14 (200704)
I1128 13:09:50.011685  8649 net.cpp:137] Memory required for data: 72153216
I1128 13:09:50.011689  8649 layer_factory.hpp:77] Creating layer ReLU9
I1128 13:09:50.011695  8649 net.cpp:84] Creating Layer ReLU9
I1128 13:09:50.011699  8649 net.cpp:406] ReLU9 <- Eltwise4
I1128 13:09:50.011704  8649 net.cpp:367] ReLU9 -> Eltwise4 (in-place)
I1128 13:09:50.011859  8649 net.cpp:122] Setting up ReLU9
I1128 13:09:50.011868  8649 net.cpp:129] Top shape: 32 32 14 14 (200704)
I1128 13:09:50.011871  8649 net.cpp:137] Memory required for data: 72956032
I1128 13:09:50.011875  8649 layer_factory.hpp:77] Creating layer Eltwise4_ReLU9_0_split
I1128 13:09:50.011880  8649 net.cpp:84] Creating Layer Eltwise4_ReLU9_0_split
I1128 13:09:50.011885  8649 net.cpp:406] Eltwise4_ReLU9_0_split <- Eltwise4
I1128 13:09:50.011890  8649 net.cpp:380] Eltwise4_ReLU9_0_split -> Eltwise4_ReLU9_0_split_0
I1128 13:09:50.011898  8649 net.cpp:380] Eltwise4_ReLU9_0_split -> Eltwise4_ReLU9_0_split_1
I1128 13:09:50.011932  8649 net.cpp:122] Setting up Eltwise4_ReLU9_0_split
I1128 13:09:50.011940  8649 net.cpp:129] Top shape: 32 32 14 14 (200704)
I1128 13:09:50.011942  8649 net.cpp:129] Top shape: 32 32 14 14 (200704)
I1128 13:09:50.011946  8649 net.cpp:137] Memory required for data: 74561664
I1128 13:09:50.011950  8649 layer_factory.hpp:77] Creating layer Convolution11
I1128 13:09:50.011960  8649 net.cpp:84] Creating Layer Convolution11
I1128 13:09:50.011963  8649 net.cpp:406] Convolution11 <- Eltwise4_ReLU9_0_split_0
I1128 13:09:50.011968  8649 net.cpp:380] Convolution11 -> Convolution11
I1128 13:09:50.013080  8649 net.cpp:122] Setting up Convolution11
I1128 13:09:50.013097  8649 net.cpp:129] Top shape: 32 32 14 14 (200704)
I1128 13:09:50.013099  8649 net.cpp:137] Memory required for data: 75364480
I1128 13:09:50.013106  8649 layer_factory.hpp:77] Creating layer BatchNorm11
I1128 13:09:50.013113  8649 net.cpp:84] Creating Layer BatchNorm11
I1128 13:09:50.013119  8649 net.cpp:406] BatchNorm11 <- Convolution11
I1128 13:09:50.013124  8649 net.cpp:367] BatchNorm11 -> Convolution11 (in-place)
I1128 13:09:50.013284  8649 net.cpp:122] Setting up BatchNorm11
I1128 13:09:50.013293  8649 net.cpp:129] Top shape: 32 32 14 14 (200704)
I1128 13:09:50.013296  8649 net.cpp:137] Memory required for data: 76167296
I1128 13:09:50.013304  8649 layer_factory.hpp:77] Creating layer Scale11
I1128 13:09:50.013310  8649 net.cpp:84] Creating Layer Scale11
I1128 13:09:50.013315  8649 net.cpp:406] Scale11 <- Convolution11
I1128 13:09:50.013320  8649 net.cpp:367] Scale11 -> Convolution11 (in-place)
I1128 13:09:50.013355  8649 layer_factory.hpp:77] Creating layer Scale11
I1128 13:09:50.013445  8649 net.cpp:122] Setting up Scale11
I1128 13:09:50.013453  8649 net.cpp:129] Top shape: 32 32 14 14 (200704)
I1128 13:09:50.013456  8649 net.cpp:137] Memory required for data: 76970112
I1128 13:09:50.013461  8649 layer_factory.hpp:77] Creating layer ReLU10
I1128 13:09:50.013468  8649 net.cpp:84] Creating Layer ReLU10
I1128 13:09:50.013473  8649 net.cpp:406] ReLU10 <- Convolution11
I1128 13:09:50.013478  8649 net.cpp:367] ReLU10 -> Convolution11 (in-place)
I1128 13:09:50.013824  8649 net.cpp:122] Setting up ReLU10
I1128 13:09:50.013842  8649 net.cpp:129] Top shape: 32 32 14 14 (200704)
I1128 13:09:50.013845  8649 net.cpp:137] Memory required for data: 77772928
I1128 13:09:50.013850  8649 layer_factory.hpp:77] Creating layer Convolution12
I1128 13:09:50.013864  8649 net.cpp:84] Creating Layer Convolution12
I1128 13:09:50.013870  8649 net.cpp:406] Convolution12 <- Convolution11
I1128 13:09:50.013890  8649 net.cpp:380] Convolution12 -> Convolution12
I1128 13:09:50.015467  8649 net.cpp:122] Setting up Convolution12
I1128 13:09:50.015492  8649 net.cpp:129] Top shape: 32 32 14 14 (200704)
I1128 13:09:50.015496  8649 net.cpp:137] Memory required for data: 78575744
I1128 13:09:50.015507  8649 layer_factory.hpp:77] Creating layer BatchNorm12
I1128 13:09:50.015522  8649 net.cpp:84] Creating Layer BatchNorm12
I1128 13:09:50.015529  8649 net.cpp:406] BatchNorm12 <- Convolution12
I1128 13:09:50.015539  8649 net.cpp:367] BatchNorm12 -> Convolution12 (in-place)
I1128 13:09:50.015738  8649 net.cpp:122] Setting up BatchNorm12
I1128 13:09:50.015749  8649 net.cpp:129] Top shape: 32 32 14 14 (200704)
I1128 13:09:50.015772  8649 net.cpp:137] Memory required for data: 79378560
I1128 13:09:50.015792  8649 layer_factory.hpp:77] Creating layer Scale12
I1128 13:09:50.015810  8649 net.cpp:84] Creating Layer Scale12
I1128 13:09:50.015825  8649 net.cpp:406] Scale12 <- Convolution12
I1128 13:09:50.015841  8649 net.cpp:367] Scale12 -> Convolution12 (in-place)
I1128 13:09:50.015898  8649 layer_factory.hpp:77] Creating layer Scale12
I1128 13:09:50.015997  8649 net.cpp:122] Setting up Scale12
I1128 13:09:50.016008  8649 net.cpp:129] Top shape: 32 32 14 14 (200704)
I1128 13:09:50.016023  8649 net.cpp:137] Memory required for data: 80181376
I1128 13:09:50.016031  8649 layer_factory.hpp:77] Creating layer Eltwise5
I1128 13:09:50.016041  8649 net.cpp:84] Creating Layer Eltwise5
I1128 13:09:50.016047  8649 net.cpp:406] Eltwise5 <- Convolution12
I1128 13:09:50.016054  8649 net.cpp:406] Eltwise5 <- Eltwise4_ReLU9_0_split_1
I1128 13:09:50.016062  8649 net.cpp:380] Eltwise5 -> Eltwise5
I1128 13:09:50.016093  8649 net.cpp:122] Setting up Eltwise5
I1128 13:09:50.016101  8649 net.cpp:129] Top shape: 32 32 14 14 (200704)
I1128 13:09:50.016114  8649 net.cpp:137] Memory required for data: 80984192
I1128 13:09:50.016120  8649 layer_factory.hpp:77] Creating layer ReLU11
I1128 13:09:50.016129  8649 net.cpp:84] Creating Layer ReLU11
I1128 13:09:50.016134  8649 net.cpp:406] ReLU11 <- Eltwise5
I1128 13:09:50.016144  8649 net.cpp:367] ReLU11 -> Eltwise5 (in-place)
I1128 13:09:50.016556  8649 net.cpp:122] Setting up ReLU11
I1128 13:09:50.016587  8649 net.cpp:129] Top shape: 32 32 14 14 (200704)
I1128 13:09:50.016602  8649 net.cpp:137] Memory required for data: 81787008
I1128 13:09:50.016616  8649 layer_factory.hpp:77] Creating layer Eltwise5_ReLU11_0_split
I1128 13:09:50.016634  8649 net.cpp:84] Creating Layer Eltwise5_ReLU11_0_split
I1128 13:09:50.016649  8649 net.cpp:406] Eltwise5_ReLU11_0_split <- Eltwise5
I1128 13:09:50.016666  8649 net.cpp:380] Eltwise5_ReLU11_0_split -> Eltwise5_ReLU11_0_split_0
I1128 13:09:50.016686  8649 net.cpp:380] Eltwise5_ReLU11_0_split -> Eltwise5_ReLU11_0_split_1
I1128 13:09:50.016747  8649 net.cpp:122] Setting up Eltwise5_ReLU11_0_split
I1128 13:09:50.016767  8649 net.cpp:129] Top shape: 32 32 14 14 (200704)
I1128 13:09:50.016782  8649 net.cpp:129] Top shape: 32 32 14 14 (200704)
I1128 13:09:50.016794  8649 net.cpp:137] Memory required for data: 83392640
I1128 13:09:50.016806  8649 layer_factory.hpp:77] Creating layer Convolution13
I1128 13:09:50.016829  8649 net.cpp:84] Creating Layer Convolution13
I1128 13:09:50.016844  8649 net.cpp:406] Convolution13 <- Eltwise5_ReLU11_0_split_0
I1128 13:09:50.016863  8649 net.cpp:380] Convolution13 -> Convolution13
I1128 13:09:50.018779  8649 net.cpp:122] Setting up Convolution13
I1128 13:09:50.018838  8649 net.cpp:129] Top shape: 32 32 14 14 (200704)
I1128 13:09:50.018856  8649 net.cpp:137] Memory required for data: 84195456
I1128 13:09:50.018878  8649 layer_factory.hpp:77] Creating layer BatchNorm13
I1128 13:09:50.018901  8649 net.cpp:84] Creating Layer BatchNorm13
I1128 13:09:50.018916  8649 net.cpp:406] BatchNorm13 <- Convolution13
I1128 13:09:50.018934  8649 net.cpp:367] BatchNorm13 -> Convolution13 (in-place)
I1128 13:09:50.019227  8649 net.cpp:122] Setting up BatchNorm13
I1128 13:09:50.019260  8649 net.cpp:129] Top shape: 32 32 14 14 (200704)
I1128 13:09:50.019282  8649 net.cpp:137] Memory required for data: 84998272
I1128 13:09:50.019314  8649 layer_factory.hpp:77] Creating layer Scale13
I1128 13:09:50.019335  8649 net.cpp:84] Creating Layer Scale13
I1128 13:09:50.019351  8649 net.cpp:406] Scale13 <- Convolution13
I1128 13:09:50.019366  8649 net.cpp:367] Scale13 -> Convolution13 (in-place)
I1128 13:09:50.019434  8649 layer_factory.hpp:77] Creating layer Scale13
I1128 13:09:50.019594  8649 net.cpp:122] Setting up Scale13
I1128 13:09:50.019608  8649 net.cpp:129] Top shape: 32 32 14 14 (200704)
I1128 13:09:50.019614  8649 net.cpp:137] Memory required for data: 85801088
I1128 13:09:50.019624  8649 layer_factory.hpp:77] Creating layer ReLU12
I1128 13:09:50.019635  8649 net.cpp:84] Creating Layer ReLU12
I1128 13:09:50.019642  8649 net.cpp:406] ReLU12 <- Convolution13
I1128 13:09:50.019651  8649 net.cpp:367] ReLU12 -> Convolution13 (in-place)
I1128 13:09:50.019922  8649 net.cpp:122] Setting up ReLU12
I1128 13:09:50.019937  8649 net.cpp:129] Top shape: 32 32 14 14 (200704)
I1128 13:09:50.019943  8649 net.cpp:137] Memory required for data: 86603904
I1128 13:09:50.019950  8649 layer_factory.hpp:77] Creating layer Convolution14
I1128 13:09:50.019973  8649 net.cpp:84] Creating Layer Convolution14
I1128 13:09:50.019980  8649 net.cpp:406] Convolution14 <- Convolution13
I1128 13:09:50.019990  8649 net.cpp:380] Convolution14 -> Convolution14
I1128 13:09:50.021718  8649 net.cpp:122] Setting up Convolution14
I1128 13:09:50.021739  8649 net.cpp:129] Top shape: 32 32 14 14 (200704)
I1128 13:09:50.021744  8649 net.cpp:137] Memory required for data: 87406720
I1128 13:09:50.021754  8649 layer_factory.hpp:77] Creating layer BatchNorm14
I1128 13:09:50.021761  8649 net.cpp:84] Creating Layer BatchNorm14
I1128 13:09:50.021767  8649 net.cpp:406] BatchNorm14 <- Convolution14
I1128 13:09:50.021775  8649 net.cpp:367] BatchNorm14 -> Convolution14 (in-place)
I1128 13:09:50.021944  8649 net.cpp:122] Setting up BatchNorm14
I1128 13:09:50.021951  8649 net.cpp:129] Top shape: 32 32 14 14 (200704)
I1128 13:09:50.021955  8649 net.cpp:137] Memory required for data: 88209536
I1128 13:09:50.021965  8649 layer_factory.hpp:77] Creating layer Scale14
I1128 13:09:50.021975  8649 net.cpp:84] Creating Layer Scale14
I1128 13:09:50.021981  8649 net.cpp:406] Scale14 <- Convolution14
I1128 13:09:50.021988  8649 net.cpp:367] Scale14 -> Convolution14 (in-place)
I1128 13:09:50.022027  8649 layer_factory.hpp:77] Creating layer Scale14
I1128 13:09:50.022122  8649 net.cpp:122] Setting up Scale14
I1128 13:09:50.022130  8649 net.cpp:129] Top shape: 32 32 14 14 (200704)
I1128 13:09:50.022137  8649 net.cpp:137] Memory required for data: 89012352
I1128 13:09:50.022143  8649 layer_factory.hpp:77] Creating layer Eltwise6
I1128 13:09:50.022152  8649 net.cpp:84] Creating Layer Eltwise6
I1128 13:09:50.022157  8649 net.cpp:406] Eltwise6 <- Convolution14
I1128 13:09:50.022162  8649 net.cpp:406] Eltwise6 <- Eltwise5_ReLU11_0_split_1
I1128 13:09:50.022172  8649 net.cpp:380] Eltwise6 -> Eltwise6
I1128 13:09:50.022199  8649 net.cpp:122] Setting up Eltwise6
I1128 13:09:50.022207  8649 net.cpp:129] Top shape: 32 32 14 14 (200704)
I1128 13:09:50.022213  8649 net.cpp:137] Memory required for data: 89815168
I1128 13:09:50.022218  8649 layer_factory.hpp:77] Creating layer ReLU13
I1128 13:09:50.022225  8649 net.cpp:84] Creating Layer ReLU13
I1128 13:09:50.022230  8649 net.cpp:406] ReLU13 <- Eltwise6
I1128 13:09:50.022234  8649 net.cpp:367] ReLU13 -> Eltwise6 (in-place)
I1128 13:09:50.022511  8649 net.cpp:122] Setting up ReLU13
I1128 13:09:50.022521  8649 net.cpp:129] Top shape: 32 32 14 14 (200704)
I1128 13:09:50.022526  8649 net.cpp:137] Memory required for data: 90617984
I1128 13:09:50.022529  8649 layer_factory.hpp:77] Creating layer Eltwise6_ReLU13_0_split
I1128 13:09:50.022536  8649 net.cpp:84] Creating Layer Eltwise6_ReLU13_0_split
I1128 13:09:50.022539  8649 net.cpp:406] Eltwise6_ReLU13_0_split <- Eltwise6
I1128 13:09:50.022545  8649 net.cpp:380] Eltwise6_ReLU13_0_split -> Eltwise6_ReLU13_0_split_0
I1128 13:09:50.022552  8649 net.cpp:380] Eltwise6_ReLU13_0_split -> Eltwise6_ReLU13_0_split_1
I1128 13:09:50.022598  8649 net.cpp:122] Setting up Eltwise6_ReLU13_0_split
I1128 13:09:50.022603  8649 net.cpp:129] Top shape: 32 32 14 14 (200704)
I1128 13:09:50.022608  8649 net.cpp:129] Top shape: 32 32 14 14 (200704)
I1128 13:09:50.022611  8649 net.cpp:137] Memory required for data: 92223616
I1128 13:09:50.022614  8649 layer_factory.hpp:77] Creating layer Convolution15
I1128 13:09:50.022624  8649 net.cpp:84] Creating Layer Convolution15
I1128 13:09:50.022632  8649 net.cpp:406] Convolution15 <- Eltwise6_ReLU13_0_split_0
I1128 13:09:50.022640  8649 net.cpp:380] Convolution15 -> Convolution15
I1128 13:09:50.024075  8649 net.cpp:122] Setting up Convolution15
I1128 13:09:50.024091  8649 net.cpp:129] Top shape: 32 64 7 7 (100352)
I1128 13:09:50.024096  8649 net.cpp:137] Memory required for data: 92625024
I1128 13:09:50.024104  8649 layer_factory.hpp:77] Creating layer BatchNorm15
I1128 13:09:50.024116  8649 net.cpp:84] Creating Layer BatchNorm15
I1128 13:09:50.024123  8649 net.cpp:406] BatchNorm15 <- Convolution15
I1128 13:09:50.024134  8649 net.cpp:367] BatchNorm15 -> Convolution15 (in-place)
I1128 13:09:50.024330  8649 net.cpp:122] Setting up BatchNorm15
I1128 13:09:50.024340  8649 net.cpp:129] Top shape: 32 64 7 7 (100352)
I1128 13:09:50.024345  8649 net.cpp:137] Memory required for data: 93026432
I1128 13:09:50.024354  8649 layer_factory.hpp:77] Creating layer Scale15
I1128 13:09:50.024363  8649 net.cpp:84] Creating Layer Scale15
I1128 13:09:50.024370  8649 net.cpp:406] Scale15 <- Convolution15
I1128 13:09:50.024379  8649 net.cpp:367] Scale15 -> Convolution15 (in-place)
I1128 13:09:50.024421  8649 layer_factory.hpp:77] Creating layer Scale15
I1128 13:09:50.024518  8649 net.cpp:122] Setting up Scale15
I1128 13:09:50.024528  8649 net.cpp:129] Top shape: 32 64 7 7 (100352)
I1128 13:09:50.024533  8649 net.cpp:137] Memory required for data: 93427840
I1128 13:09:50.024541  8649 layer_factory.hpp:77] Creating layer ReLU14
I1128 13:09:50.024551  8649 net.cpp:84] Creating Layer ReLU14
I1128 13:09:50.024559  8649 net.cpp:406] ReLU14 <- Convolution15
I1128 13:09:50.024570  8649 net.cpp:367] ReLU14 -> Convolution15 (in-place)
I1128 13:09:50.024729  8649 net.cpp:122] Setting up ReLU14
I1128 13:09:50.024739  8649 net.cpp:129] Top shape: 32 64 7 7 (100352)
I1128 13:09:50.024744  8649 net.cpp:137] Memory required for data: 93829248
I1128 13:09:50.024750  8649 layer_factory.hpp:77] Creating layer Convolution16
I1128 13:09:50.024765  8649 net.cpp:84] Creating Layer Convolution16
I1128 13:09:50.024770  8649 net.cpp:406] Convolution16 <- Convolution15
I1128 13:09:50.024780  8649 net.cpp:380] Convolution16 -> Convolution16
I1128 13:09:50.026041  8649 net.cpp:122] Setting up Convolution16
I1128 13:09:50.026053  8649 net.cpp:129] Top shape: 32 64 7 7 (100352)
I1128 13:09:50.026058  8649 net.cpp:137] Memory required for data: 94230656
I1128 13:09:50.026068  8649 layer_factory.hpp:77] Creating layer BatchNorm16
I1128 13:09:50.026077  8649 net.cpp:84] Creating Layer BatchNorm16
I1128 13:09:50.026085  8649 net.cpp:406] BatchNorm16 <- Convolution16
I1128 13:09:50.026093  8649 net.cpp:367] BatchNorm16 -> Convolution16 (in-place)
I1128 13:09:50.026257  8649 net.cpp:122] Setting up BatchNorm16
I1128 13:09:50.026266  8649 net.cpp:129] Top shape: 32 64 7 7 (100352)
I1128 13:09:50.026271  8649 net.cpp:137] Memory required for data: 94632064
I1128 13:09:50.026283  8649 layer_factory.hpp:77] Creating layer Scale16
I1128 13:09:50.026291  8649 net.cpp:84] Creating Layer Scale16
I1128 13:09:50.026300  8649 net.cpp:406] Scale16 <- Convolution16
I1128 13:09:50.026309  8649 net.cpp:367] Scale16 -> Convolution16 (in-place)
I1128 13:09:50.026352  8649 layer_factory.hpp:77] Creating layer Scale16
I1128 13:09:50.026449  8649 net.cpp:122] Setting up Scale16
I1128 13:09:50.026458  8649 net.cpp:129] Top shape: 32 64 7 7 (100352)
I1128 13:09:50.026465  8649 net.cpp:137] Memory required for data: 95033472
I1128 13:09:50.026474  8649 layer_factory.hpp:77] Creating layer Pooling2
I1128 13:09:50.026484  8649 net.cpp:84] Creating Layer Pooling2
I1128 13:09:50.026501  8649 net.cpp:406] Pooling2 <- Eltwise6_ReLU13_0_split_1
I1128 13:09:50.026512  8649 net.cpp:380] Pooling2 -> Pooling2
I1128 13:09:50.026553  8649 net.cpp:122] Setting up Pooling2
I1128 13:09:50.026561  8649 net.cpp:129] Top shape: 32 32 7 7 (50176)
I1128 13:09:50.026566  8649 net.cpp:137] Memory required for data: 95234176
I1128 13:09:50.026573  8649 layer_factory.hpp:77] Creating layer Convolution17
I1128 13:09:50.026588  8649 net.cpp:84] Creating Layer Convolution17
I1128 13:09:50.026595  8649 net.cpp:406] Convolution17 <- Pooling2
I1128 13:09:50.026603  8649 net.cpp:380] Convolution17 -> Convolution17
I1128 13:09:50.027776  8649 net.cpp:122] Setting up Convolution17
I1128 13:09:50.027789  8649 net.cpp:129] Top shape: 32 64 7 7 (100352)
I1128 13:09:50.027794  8649 net.cpp:137] Memory required for data: 95635584
I1128 13:09:50.027803  8649 layer_factory.hpp:77] Creating layer BatchNorm17
I1128 13:09:50.027813  8649 net.cpp:84] Creating Layer BatchNorm17
I1128 13:09:50.027822  8649 net.cpp:406] BatchNorm17 <- Convolution17
I1128 13:09:50.027833  8649 net.cpp:367] BatchNorm17 -> Convolution17 (in-place)
I1128 13:09:50.027997  8649 net.cpp:122] Setting up BatchNorm17
I1128 13:09:50.028007  8649 net.cpp:129] Top shape: 32 64 7 7 (100352)
I1128 13:09:50.028012  8649 net.cpp:137] Memory required for data: 96036992
I1128 13:09:50.028023  8649 layer_factory.hpp:77] Creating layer Scale17
I1128 13:09:50.028033  8649 net.cpp:84] Creating Layer Scale17
I1128 13:09:50.028040  8649 net.cpp:406] Scale17 <- Convolution17
I1128 13:09:50.028048  8649 net.cpp:367] Scale17 -> Convolution17 (in-place)
I1128 13:09:50.028089  8649 layer_factory.hpp:77] Creating layer Scale17
I1128 13:09:50.028187  8649 net.cpp:122] Setting up Scale17
I1128 13:09:50.028195  8649 net.cpp:129] Top shape: 32 64 7 7 (100352)
I1128 13:09:50.028200  8649 net.cpp:137] Memory required for data: 96438400
I1128 13:09:50.028209  8649 layer_factory.hpp:77] Creating layer Eltwise7
I1128 13:09:50.028220  8649 net.cpp:84] Creating Layer Eltwise7
I1128 13:09:50.028247  8649 net.cpp:406] Eltwise7 <- Convolution16
I1128 13:09:50.028254  8649 net.cpp:406] Eltwise7 <- Convolution17
I1128 13:09:50.028265  8649 net.cpp:380] Eltwise7 -> Eltwise7
I1128 13:09:50.028296  8649 net.cpp:122] Setting up Eltwise7
I1128 13:09:50.028306  8649 net.cpp:129] Top shape: 32 64 7 7 (100352)
I1128 13:09:50.028311  8649 net.cpp:137] Memory required for data: 96839808
I1128 13:09:50.028317  8649 layer_factory.hpp:77] Creating layer ReLU15
I1128 13:09:50.028327  8649 net.cpp:84] Creating Layer ReLU15
I1128 13:09:50.028334  8649 net.cpp:406] ReLU15 <- Eltwise7
I1128 13:09:50.028340  8649 net.cpp:367] ReLU15 -> Eltwise7 (in-place)
I1128 13:09:50.028621  8649 net.cpp:122] Setting up ReLU15
I1128 13:09:50.028632  8649 net.cpp:129] Top shape: 32 64 7 7 (100352)
I1128 13:09:50.028637  8649 net.cpp:137] Memory required for data: 97241216
I1128 13:09:50.028643  8649 layer_factory.hpp:77] Creating layer Eltwise7_ReLU15_0_split
I1128 13:09:50.028653  8649 net.cpp:84] Creating Layer Eltwise7_ReLU15_0_split
I1128 13:09:50.028661  8649 net.cpp:406] Eltwise7_ReLU15_0_split <- Eltwise7
I1128 13:09:50.028671  8649 net.cpp:380] Eltwise7_ReLU15_0_split -> Eltwise7_ReLU15_0_split_0
I1128 13:09:50.028681  8649 net.cpp:380] Eltwise7_ReLU15_0_split -> Eltwise7_ReLU15_0_split_1
I1128 13:09:50.028723  8649 net.cpp:122] Setting up Eltwise7_ReLU15_0_split
I1128 13:09:50.028730  8649 net.cpp:129] Top shape: 32 64 7 7 (100352)
I1128 13:09:50.028738  8649 net.cpp:129] Top shape: 32 64 7 7 (100352)
I1128 13:09:50.028744  8649 net.cpp:137] Memory required for data: 98044032
I1128 13:09:50.028749  8649 layer_factory.hpp:77] Creating layer Convolution18
I1128 13:09:50.028764  8649 net.cpp:84] Creating Layer Convolution18
I1128 13:09:50.028770  8649 net.cpp:406] Convolution18 <- Eltwise7_ReLU15_0_split_0
I1128 13:09:50.028779  8649 net.cpp:380] Convolution18 -> Convolution18
I1128 13:09:50.030059  8649 net.cpp:122] Setting up Convolution18
I1128 13:09:50.030079  8649 net.cpp:129] Top shape: 32 64 7 7 (100352)
I1128 13:09:50.030102  8649 net.cpp:137] Memory required for data: 98445440
I1128 13:09:50.030113  8649 layer_factory.hpp:77] Creating layer BatchNorm18
I1128 13:09:50.030127  8649 net.cpp:84] Creating Layer BatchNorm18
I1128 13:09:50.030133  8649 net.cpp:406] BatchNorm18 <- Convolution18
I1128 13:09:50.030141  8649 net.cpp:367] BatchNorm18 -> Convolution18 (in-place)
I1128 13:09:50.030320  8649 net.cpp:122] Setting up BatchNorm18
I1128 13:09:50.030330  8649 net.cpp:129] Top shape: 32 64 7 7 (100352)
I1128 13:09:50.030335  8649 net.cpp:137] Memory required for data: 98846848
I1128 13:09:50.030347  8649 layer_factory.hpp:77] Creating layer Scale18
I1128 13:09:50.030357  8649 net.cpp:84] Creating Layer Scale18
I1128 13:09:50.030364  8649 net.cpp:406] Scale18 <- Convolution18
I1128 13:09:50.030371  8649 net.cpp:367] Scale18 -> Convolution18 (in-place)
I1128 13:09:50.030416  8649 layer_factory.hpp:77] Creating layer Scale18
I1128 13:09:50.030519  8649 net.cpp:122] Setting up Scale18
I1128 13:09:50.030529  8649 net.cpp:129] Top shape: 32 64 7 7 (100352)
I1128 13:09:50.030536  8649 net.cpp:137] Memory required for data: 99248256
I1128 13:09:50.030544  8649 layer_factory.hpp:77] Creating layer ReLU16
I1128 13:09:50.030552  8649 net.cpp:84] Creating Layer ReLU16
I1128 13:09:50.030577  8649 net.cpp:406] ReLU16 <- Convolution18
I1128 13:09:50.030596  8649 net.cpp:367] ReLU16 -> Convolution18 (in-place)
I1128 13:09:50.031010  8649 net.cpp:122] Setting up ReLU16
I1128 13:09:50.031025  8649 net.cpp:129] Top shape: 32 64 7 7 (100352)
I1128 13:09:50.031030  8649 net.cpp:137] Memory required for data: 99649664
I1128 13:09:50.031035  8649 layer_factory.hpp:77] Creating layer Convolution19
I1128 13:09:50.031065  8649 net.cpp:84] Creating Layer Convolution19
I1128 13:09:50.031074  8649 net.cpp:406] Convolution19 <- Convolution18
I1128 13:09:50.031083  8649 net.cpp:380] Convolution19 -> Convolution19
I1128 13:09:50.033135  8649 net.cpp:122] Setting up Convolution19
I1128 13:09:50.033190  8649 net.cpp:129] Top shape: 32 64 7 7 (100352)
I1128 13:09:50.033195  8649 net.cpp:137] Memory required for data: 100051072
I1128 13:09:50.033211  8649 layer_factory.hpp:77] Creating layer BatchNorm19
I1128 13:09:50.033233  8649 net.cpp:84] Creating Layer BatchNorm19
I1128 13:09:50.033242  8649 net.cpp:406] BatchNorm19 <- Convolution19
I1128 13:09:50.033253  8649 net.cpp:367] BatchNorm19 -> Convolution19 (in-place)
I1128 13:09:50.033638  8649 net.cpp:122] Setting up BatchNorm19
I1128 13:09:50.033740  8649 net.cpp:129] Top shape: 32 64 7 7 (100352)
I1128 13:09:50.033756  8649 net.cpp:137] Memory required for data: 100452480
I1128 13:09:50.033816  8649 layer_factory.hpp:77] Creating layer Scale19
I1128 13:09:50.033849  8649 net.cpp:84] Creating Layer Scale19
I1128 13:09:50.033866  8649 net.cpp:406] Scale19 <- Convolution19
I1128 13:09:50.033887  8649 net.cpp:367] Scale19 -> Convolution19 (in-place)
I1128 13:09:50.034072  8649 layer_factory.hpp:77] Creating layer Scale19
I1128 13:09:50.034322  8649 net.cpp:122] Setting up Scale19
I1128 13:09:50.034373  8649 net.cpp:129] Top shape: 32 64 7 7 (100352)
I1128 13:09:50.034391  8649 net.cpp:137] Memory required for data: 100853888
I1128 13:09:50.034417  8649 layer_factory.hpp:77] Creating layer Eltwise8
I1128 13:09:50.034447  8649 net.cpp:84] Creating Layer Eltwise8
I1128 13:09:50.034466  8649 net.cpp:406] Eltwise8 <- Convolution19
I1128 13:09:50.034487  8649 net.cpp:406] Eltwise8 <- Eltwise7_ReLU15_0_split_1
I1128 13:09:50.034508  8649 net.cpp:380] Eltwise8 -> Eltwise8
I1128 13:09:50.034607  8649 net.cpp:122] Setting up Eltwise8
I1128 13:09:50.034631  8649 net.cpp:129] Top shape: 32 64 7 7 (100352)
I1128 13:09:50.034643  8649 net.cpp:137] Memory required for data: 101255296
I1128 13:09:50.034656  8649 layer_factory.hpp:77] Creating layer ReLU17
I1128 13:09:50.034670  8649 net.cpp:84] Creating Layer ReLU17
I1128 13:09:50.034682  8649 net.cpp:406] ReLU17 <- Eltwise8
I1128 13:09:50.034698  8649 net.cpp:367] ReLU17 -> Eltwise8 (in-place)
I1128 13:09:50.034958  8649 net.cpp:122] Setting up ReLU17
I1128 13:09:50.034971  8649 net.cpp:129] Top shape: 32 64 7 7 (100352)
I1128 13:09:50.034989  8649 net.cpp:137] Memory required for data: 101656704
I1128 13:09:50.035007  8649 layer_factory.hpp:77] Creating layer Eltwise8_ReLU17_0_split
I1128 13:09:50.035025  8649 net.cpp:84] Creating Layer Eltwise8_ReLU17_0_split
I1128 13:09:50.035040  8649 net.cpp:406] Eltwise8_ReLU17_0_split <- Eltwise8
I1128 13:09:50.035063  8649 net.cpp:380] Eltwise8_ReLU17_0_split -> Eltwise8_ReLU17_0_split_0
I1128 13:09:50.035076  8649 net.cpp:380] Eltwise8_ReLU17_0_split -> Eltwise8_ReLU17_0_split_1
I1128 13:09:50.035132  8649 net.cpp:122] Setting up Eltwise8_ReLU17_0_split
I1128 13:09:50.035153  8649 net.cpp:129] Top shape: 32 64 7 7 (100352)
I1128 13:09:50.035171  8649 net.cpp:129] Top shape: 32 64 7 7 (100352)
I1128 13:09:50.035185  8649 net.cpp:137] Memory required for data: 102459520
I1128 13:09:50.035199  8649 layer_factory.hpp:77] Creating layer Convolution20
I1128 13:09:50.035224  8649 net.cpp:84] Creating Layer Convolution20
I1128 13:09:50.035233  8649 net.cpp:406] Convolution20 <- Eltwise8_ReLU17_0_split_0
I1128 13:09:50.035243  8649 net.cpp:380] Convolution20 -> Convolution20
I1128 13:09:50.037109  8649 net.cpp:122] Setting up Convolution20
I1128 13:09:50.037176  8649 net.cpp:129] Top shape: 32 64 7 7 (100352)
I1128 13:09:50.037192  8649 net.cpp:137] Memory required for data: 102860928
I1128 13:09:50.037214  8649 layer_factory.hpp:77] Creating layer BatchNorm20
I1128 13:09:50.037235  8649 net.cpp:84] Creating Layer BatchNorm20
I1128 13:09:50.037255  8649 net.cpp:406] BatchNorm20 <- Convolution20
I1128 13:09:50.037274  8649 net.cpp:367] BatchNorm20 -> Convolution20 (in-place)
I1128 13:09:50.037544  8649 net.cpp:122] Setting up BatchNorm20
I1128 13:09:50.037566  8649 net.cpp:129] Top shape: 32 64 7 7 (100352)
I1128 13:09:50.037581  8649 net.cpp:137] Memory required for data: 103262336
I1128 13:09:50.037601  8649 layer_factory.hpp:77] Creating layer Scale20
I1128 13:09:50.037621  8649 net.cpp:84] Creating Layer Scale20
I1128 13:09:50.037636  8649 net.cpp:406] Scale20 <- Convolution20
I1128 13:09:50.037654  8649 net.cpp:367] Scale20 -> Convolution20 (in-place)
I1128 13:09:50.037722  8649 layer_factory.hpp:77] Creating layer Scale20
I1128 13:09:50.037883  8649 net.cpp:122] Setting up Scale20
I1128 13:09:50.037904  8649 net.cpp:129] Top shape: 32 64 7 7 (100352)
I1128 13:09:50.037919  8649 net.cpp:137] Memory required for data: 103663744
I1128 13:09:50.037935  8649 layer_factory.hpp:77] Creating layer ReLU18
I1128 13:09:50.037952  8649 net.cpp:84] Creating Layer ReLU18
I1128 13:09:50.037966  8649 net.cpp:406] ReLU18 <- Convolution20
I1128 13:09:50.037983  8649 net.cpp:367] ReLU18 -> Convolution20 (in-place)
I1128 13:09:50.038429  8649 net.cpp:122] Setting up ReLU18
I1128 13:09:50.038461  8649 net.cpp:129] Top shape: 32 64 7 7 (100352)
I1128 13:09:50.038477  8649 net.cpp:137] Memory required for data: 104065152
I1128 13:09:50.038492  8649 layer_factory.hpp:77] Creating layer Convolution21
I1128 13:09:50.038517  8649 net.cpp:84] Creating Layer Convolution21
I1128 13:09:50.038537  8649 net.cpp:406] Convolution21 <- Convolution20
I1128 13:09:50.038558  8649 net.cpp:380] Convolution21 -> Convolution21
I1128 13:09:50.040217  8649 net.cpp:122] Setting up Convolution21
I1128 13:09:50.040276  8649 net.cpp:129] Top shape: 32 64 7 7 (100352)
I1128 13:09:50.040282  8649 net.cpp:137] Memory required for data: 104466560
I1128 13:09:50.040293  8649 layer_factory.hpp:77] Creating layer BatchNorm21
I1128 13:09:50.040307  8649 net.cpp:84] Creating Layer BatchNorm21
I1128 13:09:50.040330  8649 net.cpp:406] BatchNorm21 <- Convolution21
I1128 13:09:50.040351  8649 net.cpp:367] BatchNorm21 -> Convolution21 (in-place)
I1128 13:09:50.040555  8649 net.cpp:122] Setting up BatchNorm21
I1128 13:09:50.040565  8649 net.cpp:129] Top shape: 32 64 7 7 (100352)
I1128 13:09:50.040570  8649 net.cpp:137] Memory required for data: 104867968
I1128 13:09:50.040580  8649 layer_factory.hpp:77] Creating layer Scale21
I1128 13:09:50.040601  8649 net.cpp:84] Creating Layer Scale21
I1128 13:09:50.040622  8649 net.cpp:406] Scale21 <- Convolution21
I1128 13:09:50.040639  8649 net.cpp:367] Scale21 -> Convolution21 (in-place)
I1128 13:09:50.040696  8649 layer_factory.hpp:77] Creating layer Scale21
I1128 13:09:50.040812  8649 net.cpp:122] Setting up Scale21
I1128 13:09:50.040822  8649 net.cpp:129] Top shape: 32 64 7 7 (100352)
I1128 13:09:50.040827  8649 net.cpp:137] Memory required for data: 105269376
I1128 13:09:50.040834  8649 layer_factory.hpp:77] Creating layer Eltwise9
I1128 13:09:50.040845  8649 net.cpp:84] Creating Layer Eltwise9
I1128 13:09:50.040851  8649 net.cpp:406] Eltwise9 <- Convolution21
I1128 13:09:50.040858  8649 net.cpp:406] Eltwise9 <- Eltwise8_ReLU17_0_split_1
I1128 13:09:50.040869  8649 net.cpp:380] Eltwise9 -> Eltwise9
I1128 13:09:50.040904  8649 net.cpp:122] Setting up Eltwise9
I1128 13:09:50.040910  8649 net.cpp:129] Top shape: 32 64 7 7 (100352)
I1128 13:09:50.040915  8649 net.cpp:137] Memory required for data: 105670784
I1128 13:09:50.040921  8649 layer_factory.hpp:77] Creating layer ReLU19
I1128 13:09:50.040935  8649 net.cpp:84] Creating Layer ReLU19
I1128 13:09:50.040941  8649 net.cpp:406] ReLU19 <- Eltwise9
I1128 13:09:50.040949  8649 net.cpp:367] ReLU19 -> Eltwise9 (in-place)
I1128 13:09:50.041132  8649 net.cpp:122] Setting up ReLU19
I1128 13:09:50.041142  8649 net.cpp:129] Top shape: 32 64 7 7 (100352)
I1128 13:09:50.041148  8649 net.cpp:137] Memory required for data: 106072192
I1128 13:09:50.041154  8649 layer_factory.hpp:77] Creating layer Eltwise9_ReLU19_0_split
I1128 13:09:50.041165  8649 net.cpp:84] Creating Layer Eltwise9_ReLU19_0_split
I1128 13:09:50.041172  8649 net.cpp:406] Eltwise9_ReLU19_0_split <- Eltwise9
I1128 13:09:50.041184  8649 net.cpp:380] Eltwise9_ReLU19_0_split -> Eltwise9_ReLU19_0_split_0
I1128 13:09:50.041198  8649 net.cpp:380] Eltwise9_ReLU19_0_split -> Eltwise9_ReLU19_0_split_1
I1128 13:09:50.041244  8649 net.cpp:122] Setting up Eltwise9_ReLU19_0_split
I1128 13:09:50.041250  8649 net.cpp:129] Top shape: 32 64 7 7 (100352)
I1128 13:09:50.041257  8649 net.cpp:129] Top shape: 32 64 7 7 (100352)
I1128 13:09:50.041265  8649 net.cpp:137] Memory required for data: 106875008
I1128 13:09:50.041272  8649 layer_factory.hpp:77] Creating layer Convolution22
I1128 13:09:50.041288  8649 net.cpp:84] Creating Layer Convolution22
I1128 13:09:50.041296  8649 net.cpp:406] Convolution22 <- Eltwise9_ReLU19_0_split_0
I1128 13:09:50.041306  8649 net.cpp:380] Convolution22 -> Convolution22
I1128 13:09:50.042565  8649 net.cpp:122] Setting up Convolution22
I1128 13:09:50.042577  8649 net.cpp:129] Top shape: 32 64 4 4 (32768)
I1128 13:09:50.042580  8649 net.cpp:137] Memory required for data: 107006080
I1128 13:09:50.042592  8649 layer_factory.hpp:77] Creating layer BatchNorm22
I1128 13:09:50.042603  8649 net.cpp:84] Creating Layer BatchNorm22
I1128 13:09:50.042610  8649 net.cpp:406] BatchNorm22 <- Convolution22
I1128 13:09:50.042620  8649 net.cpp:367] BatchNorm22 -> Convolution22 (in-place)
I1128 13:09:50.042798  8649 net.cpp:122] Setting up BatchNorm22
I1128 13:09:50.042805  8649 net.cpp:129] Top shape: 32 64 4 4 (32768)
I1128 13:09:50.042811  8649 net.cpp:137] Memory required for data: 107137152
I1128 13:09:50.042822  8649 layer_factory.hpp:77] Creating layer Scale22
I1128 13:09:50.042834  8649 net.cpp:84] Creating Layer Scale22
I1128 13:09:50.042840  8649 net.cpp:406] Scale22 <- Convolution22
I1128 13:09:50.042848  8649 net.cpp:367] Scale22 -> Convolution22 (in-place)
I1128 13:09:50.042898  8649 layer_factory.hpp:77] Creating layer Scale22
I1128 13:09:50.043004  8649 net.cpp:122] Setting up Scale22
I1128 13:09:50.043011  8649 net.cpp:129] Top shape: 32 64 4 4 (32768)
I1128 13:09:50.043017  8649 net.cpp:137] Memory required for data: 107268224
I1128 13:09:50.043025  8649 layer_factory.hpp:77] Creating layer ReLU20
I1128 13:09:50.043036  8649 net.cpp:84] Creating Layer ReLU20
I1128 13:09:50.043045  8649 net.cpp:406] ReLU20 <- Convolution22
I1128 13:09:50.043054  8649 net.cpp:367] ReLU20 -> Convolution22 (in-place)
I1128 13:09:50.043344  8649 net.cpp:122] Setting up ReLU20
I1128 13:09:50.043354  8649 net.cpp:129] Top shape: 32 64 4 4 (32768)
I1128 13:09:50.043370  8649 net.cpp:137] Memory required for data: 107399296
I1128 13:09:50.043380  8649 layer_factory.hpp:77] Creating layer Convolution23
I1128 13:09:50.043393  8649 net.cpp:84] Creating Layer Convolution23
I1128 13:09:50.043401  8649 net.cpp:406] Convolution23 <- Convolution22
I1128 13:09:50.043413  8649 net.cpp:380] Convolution23 -> Convolution23
I1128 13:09:50.045012  8649 net.cpp:122] Setting up Convolution23
I1128 13:09:50.045028  8649 net.cpp:129] Top shape: 32 64 4 4 (32768)
I1128 13:09:50.045032  8649 net.cpp:137] Memory required for data: 107530368
I1128 13:09:50.045042  8649 layer_factory.hpp:77] Creating layer BatchNorm23
I1128 13:09:50.045054  8649 net.cpp:84] Creating Layer BatchNorm23
I1128 13:09:50.045061  8649 net.cpp:406] BatchNorm23 <- Convolution23
I1128 13:09:50.045071  8649 net.cpp:367] BatchNorm23 -> Convolution23 (in-place)
I1128 13:09:50.045251  8649 net.cpp:122] Setting up BatchNorm23
I1128 13:09:50.045259  8649 net.cpp:129] Top shape: 32 64 4 4 (32768)
I1128 13:09:50.045262  8649 net.cpp:137] Memory required for data: 107661440
I1128 13:09:50.045274  8649 layer_factory.hpp:77] Creating layer Scale23
I1128 13:09:50.045284  8649 net.cpp:84] Creating Layer Scale23
I1128 13:09:50.045291  8649 net.cpp:406] Scale23 <- Convolution23
I1128 13:09:50.045301  8649 net.cpp:367] Scale23 -> Convolution23 (in-place)
I1128 13:09:50.045349  8649 layer_factory.hpp:77] Creating layer Scale23
I1128 13:09:50.045459  8649 net.cpp:122] Setting up Scale23
I1128 13:09:50.045467  8649 net.cpp:129] Top shape: 32 64 4 4 (32768)
I1128 13:09:50.045473  8649 net.cpp:137] Memory required for data: 107792512
I1128 13:09:50.045482  8649 layer_factory.hpp:77] Creating layer Pooling3
I1128 13:09:50.045496  8649 net.cpp:84] Creating Layer Pooling3
I1128 13:09:50.045503  8649 net.cpp:406] Pooling3 <- Eltwise9_ReLU19_0_split_1
I1128 13:09:50.045512  8649 net.cpp:380] Pooling3 -> Pooling3
I1128 13:09:50.045559  8649 net.cpp:122] Setting up Pooling3
I1128 13:09:50.045567  8649 net.cpp:129] Top shape: 32 64 4 4 (32768)
I1128 13:09:50.045573  8649 net.cpp:137] Memory required for data: 107923584
I1128 13:09:50.045578  8649 layer_factory.hpp:77] Creating layer Convolution24
I1128 13:09:50.045589  8649 net.cpp:84] Creating Layer Convolution24
I1128 13:09:50.045596  8649 net.cpp:406] Convolution24 <- Pooling3
I1128 13:09:50.045608  8649 net.cpp:380] Convolution24 -> Convolution24
I1128 13:09:50.046808  8649 net.cpp:122] Setting up Convolution24
I1128 13:09:50.046823  8649 net.cpp:129] Top shape: 32 64 4 4 (32768)
I1128 13:09:50.046826  8649 net.cpp:137] Memory required for data: 108054656
I1128 13:09:50.046836  8649 layer_factory.hpp:77] Creating layer BatchNorm24
I1128 13:09:50.046849  8649 net.cpp:84] Creating Layer BatchNorm24
I1128 13:09:50.046856  8649 net.cpp:406] BatchNorm24 <- Convolution24
I1128 13:09:50.046869  8649 net.cpp:367] BatchNorm24 -> Convolution24 (in-place)
I1128 13:09:50.047044  8649 net.cpp:122] Setting up BatchNorm24
I1128 13:09:50.047052  8649 net.cpp:129] Top shape: 32 64 4 4 (32768)
I1128 13:09:50.047058  8649 net.cpp:137] Memory required for data: 108185728
I1128 13:09:50.047068  8649 layer_factory.hpp:77] Creating layer Scale24
I1128 13:09:50.047080  8649 net.cpp:84] Creating Layer Scale24
I1128 13:09:50.047087  8649 net.cpp:406] Scale24 <- Convolution24
I1128 13:09:50.047098  8649 net.cpp:367] Scale24 -> Convolution24 (in-place)
I1128 13:09:50.047147  8649 layer_factory.hpp:77] Creating layer Scale24
I1128 13:09:50.047253  8649 net.cpp:122] Setting up Scale24
I1128 13:09:50.047261  8649 net.cpp:129] Top shape: 32 64 4 4 (32768)
I1128 13:09:50.047267  8649 net.cpp:137] Memory required for data: 108316800
I1128 13:09:50.047274  8649 layer_factory.hpp:77] Creating layer Eltwise10
I1128 13:09:50.047287  8649 net.cpp:84] Creating Layer Eltwise10
I1128 13:09:50.047293  8649 net.cpp:406] Eltwise10 <- Convolution23
I1128 13:09:50.047302  8649 net.cpp:406] Eltwise10 <- Convolution24
I1128 13:09:50.047312  8649 net.cpp:380] Eltwise10 -> Eltwise10
I1128 13:09:50.047358  8649 net.cpp:122] Setting up Eltwise10
I1128 13:09:50.047368  8649 net.cpp:129] Top shape: 32 64 4 4 (32768)
I1128 13:09:50.047372  8649 net.cpp:137] Memory required for data: 108447872
I1128 13:09:50.047377  8649 layer_factory.hpp:77] Creating layer ReLU21
I1128 13:09:50.047391  8649 net.cpp:84] Creating Layer ReLU21
I1128 13:09:50.047399  8649 net.cpp:406] ReLU21 <- Eltwise10
I1128 13:09:50.047407  8649 net.cpp:367] ReLU21 -> Eltwise10 (in-place)
I1128 13:09:50.047714  8649 net.cpp:122] Setting up ReLU21
I1128 13:09:50.047724  8649 net.cpp:129] Top shape: 32 64 4 4 (32768)
I1128 13:09:50.047731  8649 net.cpp:137] Memory required for data: 108578944
I1128 13:09:50.047736  8649 layer_factory.hpp:77] Creating layer Eltwise10_ReLU21_0_split
I1128 13:09:50.047747  8649 net.cpp:84] Creating Layer Eltwise10_ReLU21_0_split
I1128 13:09:50.047755  8649 net.cpp:406] Eltwise10_ReLU21_0_split <- Eltwise10
I1128 13:09:50.047765  8649 net.cpp:380] Eltwise10_ReLU21_0_split -> Eltwise10_ReLU21_0_split_0
I1128 13:09:50.047778  8649 net.cpp:380] Eltwise10_ReLU21_0_split -> Eltwise10_ReLU21_0_split_1
I1128 13:09:50.047827  8649 net.cpp:122] Setting up Eltwise10_ReLU21_0_split
I1128 13:09:50.047833  8649 net.cpp:129] Top shape: 32 64 4 4 (32768)
I1128 13:09:50.047840  8649 net.cpp:129] Top shape: 32 64 4 4 (32768)
I1128 13:09:50.047847  8649 net.cpp:137] Memory required for data: 108841088
I1128 13:09:50.047853  8649 layer_factory.hpp:77] Creating layer Convolution25
I1128 13:09:50.047869  8649 net.cpp:84] Creating Layer Convolution25
I1128 13:09:50.047876  8649 net.cpp:406] Convolution25 <- Eltwise10_ReLU21_0_split_0
I1128 13:09:50.047888  8649 net.cpp:380] Convolution25 -> Convolution25
I1128 13:09:50.049335  8649 net.cpp:122] Setting up Convolution25
I1128 13:09:50.049381  8649 net.cpp:129] Top shape: 32 64 4 4 (32768)
I1128 13:09:50.049398  8649 net.cpp:137] Memory required for data: 108972160
I1128 13:09:50.049418  8649 layer_factory.hpp:77] Creating layer BatchNorm25
I1128 13:09:50.049438  8649 net.cpp:84] Creating Layer BatchNorm25
I1128 13:09:50.049446  8649 net.cpp:406] BatchNorm25 <- Convolution25
I1128 13:09:50.049458  8649 net.cpp:367] BatchNorm25 -> Convolution25 (in-place)
I1128 13:09:50.049706  8649 net.cpp:122] Setting up BatchNorm25
I1128 13:09:50.049717  8649 net.cpp:129] Top shape: 32 64 4 4 (32768)
I1128 13:09:50.049724  8649 net.cpp:137] Memory required for data: 109103232
I1128 13:09:50.049738  8649 layer_factory.hpp:77] Creating layer Scale25
I1128 13:09:50.049747  8649 net.cpp:84] Creating Layer Scale25
I1128 13:09:50.049753  8649 net.cpp:406] Scale25 <- Convolution25
I1128 13:09:50.049762  8649 net.cpp:367] Scale25 -> Convolution25 (in-place)
I1128 13:09:50.049814  8649 layer_factory.hpp:77] Creating layer Scale25
I1128 13:09:50.049984  8649 net.cpp:122] Setting up Scale25
I1128 13:09:50.049994  8649 net.cpp:129] Top shape: 32 64 4 4 (32768)
I1128 13:09:50.050000  8649 net.cpp:137] Memory required for data: 109234304
I1128 13:09:50.050009  8649 layer_factory.hpp:77] Creating layer ReLU22
I1128 13:09:50.050016  8649 net.cpp:84] Creating Layer ReLU22
I1128 13:09:50.050024  8649 net.cpp:406] ReLU22 <- Convolution25
I1128 13:09:50.050031  8649 net.cpp:367] ReLU22 -> Convolution25 (in-place)
I1128 13:09:50.050252  8649 net.cpp:122] Setting up ReLU22
I1128 13:09:50.050264  8649 net.cpp:129] Top shape: 32 64 4 4 (32768)
I1128 13:09:50.050271  8649 net.cpp:137] Memory required for data: 109365376
I1128 13:09:50.050277  8649 layer_factory.hpp:77] Creating layer Convolution26
I1128 13:09:50.050290  8649 net.cpp:84] Creating Layer Convolution26
I1128 13:09:50.050297  8649 net.cpp:406] Convolution26 <- Convolution25
I1128 13:09:50.050307  8649 net.cpp:380] Convolution26 -> Convolution26
I1128 13:09:50.052364  8649 net.cpp:122] Setting up Convolution26
I1128 13:09:50.052435  8649 net.cpp:129] Top shape: 32 64 4 4 (32768)
I1128 13:09:50.052454  8649 net.cpp:137] Memory required for data: 109496448
I1128 13:09:50.052479  8649 layer_factory.hpp:77] Creating layer BatchNorm26
I1128 13:09:50.052513  8649 net.cpp:84] Creating Layer BatchNorm26
I1128 13:09:50.052541  8649 net.cpp:406] BatchNorm26 <- Convolution26
I1128 13:09:50.052564  8649 net.cpp:367] BatchNorm26 -> Convolution26 (in-place)
I1128 13:09:50.052832  8649 net.cpp:122] Setting up BatchNorm26
I1128 13:09:50.052846  8649 net.cpp:129] Top shape: 32 64 4 4 (32768)
I1128 13:09:50.052855  8649 net.cpp:137] Memory required for data: 109627520
I1128 13:09:50.052870  8649 layer_factory.hpp:77] Creating layer Scale26
I1128 13:09:50.052882  8649 net.cpp:84] Creating Layer Scale26
I1128 13:09:50.052891  8649 net.cpp:406] Scale26 <- Convolution26
I1128 13:09:50.052901  8649 net.cpp:367] Scale26 -> Convolution26 (in-place)
I1128 13:09:50.052954  8649 layer_factory.hpp:77] Creating layer Scale26
I1128 13:09:50.053110  8649 net.cpp:122] Setting up Scale26
I1128 13:09:50.053123  8649 net.cpp:129] Top shape: 32 64 4 4 (32768)
I1128 13:09:50.053130  8649 net.cpp:137] Memory required for data: 109758592
I1128 13:09:50.053139  8649 layer_factory.hpp:77] Creating layer Eltwise11
I1128 13:09:50.053153  8649 net.cpp:84] Creating Layer Eltwise11
I1128 13:09:50.053159  8649 net.cpp:406] Eltwise11 <- Convolution26
I1128 13:09:50.053169  8649 net.cpp:406] Eltwise11 <- Eltwise10_ReLU21_0_split_1
I1128 13:09:50.053179  8649 net.cpp:380] Eltwise11 -> Eltwise11
I1128 13:09:50.053215  8649 net.cpp:122] Setting up Eltwise11
I1128 13:09:50.053225  8649 net.cpp:129] Top shape: 32 64 4 4 (32768)
I1128 13:09:50.053246  8649 net.cpp:137] Memory required for data: 109889664
I1128 13:09:50.053261  8649 layer_factory.hpp:77] Creating layer ReLU23
I1128 13:09:50.053278  8649 net.cpp:84] Creating Layer ReLU23
I1128 13:09:50.053292  8649 net.cpp:406] ReLU23 <- Eltwise11
I1128 13:09:50.053309  8649 net.cpp:367] ReLU23 -> Eltwise11 (in-place)
I1128 13:09:50.053833  8649 net.cpp:122] Setting up ReLU23
I1128 13:09:50.053849  8649 net.cpp:129] Top shape: 32 64 4 4 (32768)
I1128 13:09:50.053856  8649 net.cpp:137] Memory required for data: 110020736
I1128 13:09:50.053864  8649 layer_factory.hpp:77] Creating layer Eltwise11_ReLU23_0_split
I1128 13:09:50.053875  8649 net.cpp:84] Creating Layer Eltwise11_ReLU23_0_split
I1128 13:09:50.053882  8649 net.cpp:406] Eltwise11_ReLU23_0_split <- Eltwise11
I1128 13:09:50.053892  8649 net.cpp:380] Eltwise11_ReLU23_0_split -> Eltwise11_ReLU23_0_split_0
I1128 13:09:50.053915  8649 net.cpp:380] Eltwise11_ReLU23_0_split -> Eltwise11_ReLU23_0_split_1
I1128 13:09:50.053975  8649 net.cpp:122] Setting up Eltwise11_ReLU23_0_split
I1128 13:09:50.053987  8649 net.cpp:129] Top shape: 32 64 4 4 (32768)
I1128 13:09:50.053994  8649 net.cpp:129] Top shape: 32 64 4 4 (32768)
I1128 13:09:50.054002  8649 net.cpp:137] Memory required for data: 110282880
I1128 13:09:50.054008  8649 layer_factory.hpp:77] Creating layer Convolution27
I1128 13:09:50.054035  8649 net.cpp:84] Creating Layer Convolution27
I1128 13:09:50.054042  8649 net.cpp:406] Convolution27 <- Eltwise11_ReLU23_0_split_0
I1128 13:09:50.054051  8649 net.cpp:380] Convolution27 -> Convolution27
I1128 13:09:50.055963  8649 net.cpp:122] Setting up Convolution27
I1128 13:09:50.055986  8649 net.cpp:129] Top shape: 32 64 4 4 (32768)
I1128 13:09:50.055991  8649 net.cpp:137] Memory required for data: 110413952
I1128 13:09:50.056004  8649 layer_factory.hpp:77] Creating layer BatchNorm27
I1128 13:09:50.056015  8649 net.cpp:84] Creating Layer BatchNorm27
I1128 13:09:50.056023  8649 net.cpp:406] BatchNorm27 <- Convolution27
I1128 13:09:50.056032  8649 net.cpp:367] BatchNorm27 -> Convolution27 (in-place)
I1128 13:09:50.056304  8649 net.cpp:122] Setting up BatchNorm27
I1128 13:09:50.056334  8649 net.cpp:129] Top shape: 32 64 4 4 (32768)
I1128 13:09:50.056349  8649 net.cpp:137] Memory required for data: 110545024
I1128 13:09:50.056366  8649 layer_factory.hpp:77] Creating layer Scale27
I1128 13:09:50.056376  8649 net.cpp:84] Creating Layer Scale27
I1128 13:09:50.056381  8649 net.cpp:406] Scale27 <- Convolution27
I1128 13:09:50.056390  8649 net.cpp:367] Scale27 -> Convolution27 (in-place)
I1128 13:09:50.056452  8649 layer_factory.hpp:77] Creating layer Scale27
I1128 13:09:50.056617  8649 net.cpp:122] Setting up Scale27
I1128 13:09:50.056628  8649 net.cpp:129] Top shape: 32 64 4 4 (32768)
I1128 13:09:50.056634  8649 net.cpp:137] Memory required for data: 110676096
I1128 13:09:50.056643  8649 layer_factory.hpp:77] Creating layer ReLU24
I1128 13:09:50.056653  8649 net.cpp:84] Creating Layer ReLU24
I1128 13:09:50.056658  8649 net.cpp:406] ReLU24 <- Convolution27
I1128 13:09:50.056668  8649 net.cpp:367] ReLU24 -> Convolution27 (in-place)
I1128 13:09:50.056906  8649 net.cpp:122] Setting up ReLU24
I1128 13:09:50.056917  8649 net.cpp:129] Top shape: 32 64 4 4 (32768)
I1128 13:09:50.056923  8649 net.cpp:137] Memory required for data: 110807168
I1128 13:09:50.056929  8649 layer_factory.hpp:77] Creating layer Convolution28
I1128 13:09:50.056942  8649 net.cpp:84] Creating Layer Convolution28
I1128 13:09:50.056949  8649 net.cpp:406] Convolution28 <- Convolution27
I1128 13:09:50.056958  8649 net.cpp:380] Convolution28 -> Convolution28
I1128 13:09:50.058774  8649 net.cpp:122] Setting up Convolution28
I1128 13:09:50.058797  8649 net.cpp:129] Top shape: 32 64 4 4 (32768)
I1128 13:09:50.058804  8649 net.cpp:137] Memory required for data: 110938240
I1128 13:09:50.058815  8649 layer_factory.hpp:77] Creating layer BatchNorm28
I1128 13:09:50.058825  8649 net.cpp:84] Creating Layer BatchNorm28
I1128 13:09:50.058850  8649 net.cpp:406] BatchNorm28 <- Convolution28
I1128 13:09:50.058871  8649 net.cpp:367] BatchNorm28 -> Convolution28 (in-place)
I1128 13:09:50.059077  8649 net.cpp:122] Setting up BatchNorm28
I1128 13:09:50.059087  8649 net.cpp:129] Top shape: 32 64 4 4 (32768)
I1128 13:09:50.059093  8649 net.cpp:137] Memory required for data: 111069312
I1128 13:09:50.059104  8649 layer_factory.hpp:77] Creating layer Scale28
I1128 13:09:50.059113  8649 net.cpp:84] Creating Layer Scale28
I1128 13:09:50.059119  8649 net.cpp:406] Scale28 <- Convolution28
I1128 13:09:50.059126  8649 net.cpp:367] Scale28 -> Convolution28 (in-place)
I1128 13:09:50.059173  8649 layer_factory.hpp:77] Creating layer Scale28
I1128 13:09:50.059289  8649 net.cpp:122] Setting up Scale28
I1128 13:09:50.059299  8649 net.cpp:129] Top shape: 32 64 4 4 (32768)
I1128 13:09:50.059304  8649 net.cpp:137] Memory required for data: 111200384
I1128 13:09:50.059314  8649 layer_factory.hpp:77] Creating layer Eltwise12
I1128 13:09:50.059324  8649 net.cpp:84] Creating Layer Eltwise12
I1128 13:09:50.059332  8649 net.cpp:406] Eltwise12 <- Convolution28
I1128 13:09:50.059339  8649 net.cpp:406] Eltwise12 <- Eltwise11_ReLU23_0_split_1
I1128 13:09:50.059347  8649 net.cpp:380] Eltwise12 -> Eltwise12
I1128 13:09:50.059382  8649 net.cpp:122] Setting up Eltwise12
I1128 13:09:50.059392  8649 net.cpp:129] Top shape: 32 64 4 4 (32768)
I1128 13:09:50.059397  8649 net.cpp:137] Memory required for data: 111331456
I1128 13:09:50.059403  8649 layer_factory.hpp:77] Creating layer ReLU25
I1128 13:09:50.059413  8649 net.cpp:84] Creating Layer ReLU25
I1128 13:09:50.059433  8649 net.cpp:406] ReLU25 <- Eltwise12
I1128 13:09:50.059449  8649 net.cpp:367] ReLU25 -> Eltwise12 (in-place)
I1128 13:09:50.059823  8649 net.cpp:122] Setting up ReLU25
I1128 13:09:50.059834  8649 net.cpp:129] Top shape: 32 64 4 4 (32768)
I1128 13:09:50.059839  8649 net.cpp:137] Memory required for data: 111462528
I1128 13:09:50.059844  8649 layer_factory.hpp:77] Creating layer Eltwise12_ReLU25_0_split
I1128 13:09:50.059854  8649 net.cpp:84] Creating Layer Eltwise12_ReLU25_0_split
I1128 13:09:50.059861  8649 net.cpp:406] Eltwise12_ReLU25_0_split <- Eltwise12
I1128 13:09:50.059875  8649 net.cpp:380] Eltwise12_ReLU25_0_split -> Eltwise12_ReLU25_0_split_0
I1128 13:09:50.059886  8649 net.cpp:380] Eltwise12_ReLU25_0_split -> Eltwise12_ReLU25_0_split_1
I1128 13:09:50.059934  8649 net.cpp:122] Setting up Eltwise12_ReLU25_0_split
I1128 13:09:50.059942  8649 net.cpp:129] Top shape: 32 64 4 4 (32768)
I1128 13:09:50.059949  8649 net.cpp:129] Top shape: 32 64 4 4 (32768)
I1128 13:09:50.059955  8649 net.cpp:137] Memory required for data: 111724672
I1128 13:09:50.059962  8649 layer_factory.hpp:77] Creating layer Convolution29
I1128 13:09:50.059988  8649 net.cpp:84] Creating Layer Convolution29
I1128 13:09:50.059996  8649 net.cpp:406] Convolution29 <- Eltwise12_ReLU25_0_split_0
I1128 13:09:50.060008  8649 net.cpp:380] Convolution29 -> Convolution29
I1128 13:09:50.061338  8649 net.cpp:122] Setting up Convolution29
I1128 13:09:50.061352  8649 net.cpp:129] Top shape: 32 64 2 2 (8192)
I1128 13:09:50.061355  8649 net.cpp:137] Memory required for data: 111757440
I1128 13:09:50.061365  8649 layer_factory.hpp:77] Creating layer BatchNorm29
I1128 13:09:50.061377  8649 net.cpp:84] Creating Layer BatchNorm29
I1128 13:09:50.061384  8649 net.cpp:406] BatchNorm29 <- Convolution29
I1128 13:09:50.061393  8649 net.cpp:367] BatchNorm29 -> Convolution29 (in-place)
I1128 13:09:50.061583  8649 net.cpp:122] Setting up BatchNorm29
I1128 13:09:50.061590  8649 net.cpp:129] Top shape: 32 64 2 2 (8192)
I1128 13:09:50.061594  8649 net.cpp:137] Memory required for data: 111790208
I1128 13:09:50.061604  8649 layer_factory.hpp:77] Creating layer Scale29
I1128 13:09:50.061616  8649 net.cpp:84] Creating Layer Scale29
I1128 13:09:50.061624  8649 net.cpp:406] Scale29 <- Convolution29
I1128 13:09:50.061631  8649 net.cpp:367] Scale29 -> Convolution29 (in-place)
I1128 13:09:50.061682  8649 layer_factory.hpp:77] Creating layer Scale29
I1128 13:09:50.061799  8649 net.cpp:122] Setting up Scale29
I1128 13:09:50.061806  8649 net.cpp:129] Top shape: 32 64 2 2 (8192)
I1128 13:09:50.061811  8649 net.cpp:137] Memory required for data: 111822976
I1128 13:09:50.061820  8649 layer_factory.hpp:77] Creating layer ReLU26
I1128 13:09:50.061832  8649 net.cpp:84] Creating Layer ReLU26
I1128 13:09:50.061839  8649 net.cpp:406] ReLU26 <- Convolution29
I1128 13:09:50.061848  8649 net.cpp:367] ReLU26 -> Convolution29 (in-place)
I1128 13:09:50.062141  8649 net.cpp:122] Setting up ReLU26
I1128 13:09:50.062151  8649 net.cpp:129] Top shape: 32 64 2 2 (8192)
I1128 13:09:50.062158  8649 net.cpp:137] Memory required for data: 111855744
I1128 13:09:50.062165  8649 layer_factory.hpp:77] Creating layer Convolution30
I1128 13:09:50.062180  8649 net.cpp:84] Creating Layer Convolution30
I1128 13:09:50.062187  8649 net.cpp:406] Convolution30 <- Convolution29
I1128 13:09:50.062197  8649 net.cpp:380] Convolution30 -> Convolution30
I1128 13:09:50.063413  8649 net.cpp:122] Setting up Convolution30
I1128 13:09:50.063423  8649 net.cpp:129] Top shape: 32 64 2 2 (8192)
I1128 13:09:50.063429  8649 net.cpp:137] Memory required for data: 111888512
I1128 13:09:50.063441  8649 layer_factory.hpp:77] Creating layer BatchNorm30
I1128 13:09:50.063452  8649 net.cpp:84] Creating Layer BatchNorm30
I1128 13:09:50.063459  8649 net.cpp:406] BatchNorm30 <- Convolution30
I1128 13:09:50.063469  8649 net.cpp:367] BatchNorm30 -> Convolution30 (in-place)
I1128 13:09:50.063652  8649 net.cpp:122] Setting up BatchNorm30
I1128 13:09:50.063659  8649 net.cpp:129] Top shape: 32 64 2 2 (8192)
I1128 13:09:50.063665  8649 net.cpp:137] Memory required for data: 111921280
I1128 13:09:50.063676  8649 layer_factory.hpp:77] Creating layer Scale30
I1128 13:09:50.063686  8649 net.cpp:84] Creating Layer Scale30
I1128 13:09:50.063694  8649 net.cpp:406] Scale30 <- Convolution30
I1128 13:09:50.063702  8649 net.cpp:367] Scale30 -> Convolution30 (in-place)
I1128 13:09:50.063752  8649 layer_factory.hpp:77] Creating layer Scale30
I1128 13:09:50.063865  8649 net.cpp:122] Setting up Scale30
I1128 13:09:50.063874  8649 net.cpp:129] Top shape: 32 64 2 2 (8192)
I1128 13:09:50.063879  8649 net.cpp:137] Memory required for data: 111954048
I1128 13:09:50.063887  8649 layer_factory.hpp:77] Creating layer Pooling4
I1128 13:09:50.063900  8649 net.cpp:84] Creating Layer Pooling4
I1128 13:09:50.063908  8649 net.cpp:406] Pooling4 <- Eltwise12_ReLU25_0_split_1
I1128 13:09:50.063918  8649 net.cpp:380] Pooling4 -> Pooling4
I1128 13:09:50.063966  8649 net.cpp:122] Setting up Pooling4
I1128 13:09:50.063973  8649 net.cpp:129] Top shape: 32 64 2 2 (8192)
I1128 13:09:50.063979  8649 net.cpp:137] Memory required for data: 111986816
I1128 13:09:50.063984  8649 layer_factory.hpp:77] Creating layer Convolution31
I1128 13:09:50.064010  8649 net.cpp:84] Creating Layer Convolution31
I1128 13:09:50.064018  8649 net.cpp:406] Convolution31 <- Pooling4
I1128 13:09:50.064029  8649 net.cpp:380] Convolution31 -> Convolution31
I1128 13:09:50.065006  8649 net.cpp:122] Setting up Convolution31
I1128 13:09:50.065017  8649 net.cpp:129] Top shape: 32 64 2 2 (8192)
I1128 13:09:50.065021  8649 net.cpp:137] Memory required for data: 112019584
I1128 13:09:50.065032  8649 layer_factory.hpp:77] Creating layer BatchNorm31
I1128 13:09:50.065042  8649 net.cpp:84] Creating Layer BatchNorm31
I1128 13:09:50.065050  8649 net.cpp:406] BatchNorm31 <- Convolution31
I1128 13:09:50.065062  8649 net.cpp:367] BatchNorm31 -> Convolution31 (in-place)
I1128 13:09:50.065244  8649 net.cpp:122] Setting up BatchNorm31
I1128 13:09:50.065251  8649 net.cpp:129] Top shape: 32 64 2 2 (8192)
I1128 13:09:50.065255  8649 net.cpp:137] Memory required for data: 112052352
I1128 13:09:50.065268  8649 layer_factory.hpp:77] Creating layer Scale31
I1128 13:09:50.065279  8649 net.cpp:84] Creating Layer Scale31
I1128 13:09:50.065286  8649 net.cpp:406] Scale31 <- Convolution31
I1128 13:09:50.065295  8649 net.cpp:367] Scale31 -> Convolution31 (in-place)
I1128 13:09:50.065342  8649 layer_factory.hpp:77] Creating layer Scale31
I1128 13:09:50.065454  8649 net.cpp:122] Setting up Scale31
I1128 13:09:50.065462  8649 net.cpp:129] Top shape: 32 64 2 2 (8192)
I1128 13:09:50.065467  8649 net.cpp:137] Memory required for data: 112085120
I1128 13:09:50.065477  8649 layer_factory.hpp:77] Creating layer Eltwise13
I1128 13:09:50.065488  8649 net.cpp:84] Creating Layer Eltwise13
I1128 13:09:50.065496  8649 net.cpp:406] Eltwise13 <- Convolution30
I1128 13:09:50.065506  8649 net.cpp:406] Eltwise13 <- Convolution31
I1128 13:09:50.065515  8649 net.cpp:380] Eltwise13 -> Eltwise13
I1128 13:09:50.065551  8649 net.cpp:122] Setting up Eltwise13
I1128 13:09:50.065558  8649 net.cpp:129] Top shape: 32 64 2 2 (8192)
I1128 13:09:50.065563  8649 net.cpp:137] Memory required for data: 112117888
I1128 13:09:50.065569  8649 layer_factory.hpp:77] Creating layer ReLU27
I1128 13:09:50.065579  8649 net.cpp:84] Creating Layer ReLU27
I1128 13:09:50.065587  8649 net.cpp:406] ReLU27 <- Eltwise13
I1128 13:09:50.065598  8649 net.cpp:367] ReLU27 -> Eltwise13 (in-place)
I1128 13:09:50.065758  8649 net.cpp:122] Setting up ReLU27
I1128 13:09:50.065768  8649 net.cpp:129] Top shape: 32 64 2 2 (8192)
I1128 13:09:50.065773  8649 net.cpp:137] Memory required for data: 112150656
I1128 13:09:50.065780  8649 layer_factory.hpp:77] Creating layer Eltwise13_ReLU27_0_split
I1128 13:09:50.065793  8649 net.cpp:84] Creating Layer Eltwise13_ReLU27_0_split
I1128 13:09:50.065800  8649 net.cpp:406] Eltwise13_ReLU27_0_split <- Eltwise13
I1128 13:09:50.065811  8649 net.cpp:380] Eltwise13_ReLU27_0_split -> Eltwise13_ReLU27_0_split_0
I1128 13:09:50.065825  8649 net.cpp:380] Eltwise13_ReLU27_0_split -> Eltwise13_ReLU27_0_split_1
I1128 13:09:50.065874  8649 net.cpp:122] Setting up Eltwise13_ReLU27_0_split
I1128 13:09:50.065881  8649 net.cpp:129] Top shape: 32 64 2 2 (8192)
I1128 13:09:50.065887  8649 net.cpp:129] Top shape: 32 64 2 2 (8192)
I1128 13:09:50.065892  8649 net.cpp:137] Memory required for data: 112216192
I1128 13:09:50.065899  8649 layer_factory.hpp:77] Creating layer Convolution32
I1128 13:09:50.065914  8649 net.cpp:84] Creating Layer Convolution32
I1128 13:09:50.065922  8649 net.cpp:406] Convolution32 <- Eltwise13_ReLU27_0_split_0
I1128 13:09:50.065934  8649 net.cpp:380] Convolution32 -> Convolution32
I1128 13:09:50.067562  8649 net.cpp:122] Setting up Convolution32
I1128 13:09:50.067620  8649 net.cpp:129] Top shape: 32 64 2 2 (8192)
I1128 13:09:50.067633  8649 net.cpp:137] Memory required for data: 112248960
I1128 13:09:50.067651  8649 layer_factory.hpp:77] Creating layer BatchNorm32
I1128 13:09:50.067670  8649 net.cpp:84] Creating Layer BatchNorm32
I1128 13:09:50.067685  8649 net.cpp:406] BatchNorm32 <- Convolution32
I1128 13:09:50.067704  8649 net.cpp:367] BatchNorm32 -> Convolution32 (in-place)
I1128 13:09:50.068009  8649 net.cpp:122] Setting up BatchNorm32
I1128 13:09:50.068045  8649 net.cpp:129] Top shape: 32 64 2 2 (8192)
I1128 13:09:50.068060  8649 net.cpp:137] Memory required for data: 112281728
I1128 13:09:50.068081  8649 layer_factory.hpp:77] Creating layer Scale32
I1128 13:09:50.068100  8649 net.cpp:84] Creating Layer Scale32
I1128 13:09:50.068116  8649 net.cpp:406] Scale32 <- Convolution32
I1128 13:09:50.068135  8649 net.cpp:367] Scale32 -> Convolution32 (in-place)
I1128 13:09:50.068207  8649 layer_factory.hpp:77] Creating layer Scale32
I1128 13:09:50.068351  8649 net.cpp:122] Setting up Scale32
I1128 13:09:50.068361  8649 net.cpp:129] Top shape: 32 64 2 2 (8192)
I1128 13:09:50.068367  8649 net.cpp:137] Memory required for data: 112314496
I1128 13:09:50.068375  8649 layer_factory.hpp:77] Creating layer ReLU28
I1128 13:09:50.068395  8649 net.cpp:84] Creating Layer ReLU28
I1128 13:09:50.068415  8649 net.cpp:406] ReLU28 <- Convolution32
I1128 13:09:50.068436  8649 net.cpp:367] ReLU28 -> Convolution32 (in-place)
I1128 13:09:50.068851  8649 net.cpp:122] Setting up ReLU28
I1128 13:09:50.068873  8649 net.cpp:129] Top shape: 32 64 2 2 (8192)
I1128 13:09:50.068878  8649 net.cpp:137] Memory required for data: 112347264
I1128 13:09:50.068884  8649 layer_factory.hpp:77] Creating layer Convolution33
I1128 13:09:50.068907  8649 net.cpp:84] Creating Layer Convolution33
I1128 13:09:50.068936  8649 net.cpp:406] Convolution33 <- Convolution32
I1128 13:09:50.068964  8649 net.cpp:380] Convolution33 -> Convolution33
I1128 13:09:50.071090  8649 net.cpp:122] Setting up Convolution33
I1128 13:09:50.071135  8649 net.cpp:129] Top shape: 32 64 2 2 (8192)
I1128 13:09:50.071141  8649 net.cpp:137] Memory required for data: 112380032
I1128 13:09:50.071162  8649 layer_factory.hpp:77] Creating layer BatchNorm33
I1128 13:09:50.071183  8649 net.cpp:84] Creating Layer BatchNorm33
I1128 13:09:50.071192  8649 net.cpp:406] BatchNorm33 <- Convolution33
I1128 13:09:50.071209  8649 net.cpp:367] BatchNorm33 -> Convolution33 (in-place)
I1128 13:09:50.071499  8649 net.cpp:122] Setting up BatchNorm33
I1128 13:09:50.071516  8649 net.cpp:129] Top shape: 32 64 2 2 (8192)
I1128 13:09:50.071521  8649 net.cpp:137] Memory required for data: 112412800
I1128 13:09:50.071533  8649 layer_factory.hpp:77] Creating layer Scale33
I1128 13:09:50.071545  8649 net.cpp:84] Creating Layer Scale33
I1128 13:09:50.071569  8649 net.cpp:406] Scale33 <- Convolution33
I1128 13:09:50.071588  8649 net.cpp:367] Scale33 -> Convolution33 (in-place)
I1128 13:09:50.071688  8649 layer_factory.hpp:77] Creating layer Scale33
I1128 13:09:50.071830  8649 net.cpp:122] Setting up Scale33
I1128 13:09:50.071842  8649 net.cpp:129] Top shape: 32 64 2 2 (8192)
I1128 13:09:50.071847  8649 net.cpp:137] Memory required for data: 112445568
I1128 13:09:50.071857  8649 layer_factory.hpp:77] Creating layer Eltwise14
I1128 13:09:50.071882  8649 net.cpp:84] Creating Layer Eltwise14
I1128 13:09:50.071898  8649 net.cpp:406] Eltwise14 <- Convolution33
I1128 13:09:50.071916  8649 net.cpp:406] Eltwise14 <- Eltwise13_ReLU27_0_split_1
I1128 13:09:50.071935  8649 net.cpp:380] Eltwise14 -> Eltwise14
I1128 13:09:50.071997  8649 net.cpp:122] Setting up Eltwise14
I1128 13:09:50.072010  8649 net.cpp:129] Top shape: 32 64 2 2 (8192)
I1128 13:09:50.072016  8649 net.cpp:137] Memory required for data: 112478336
I1128 13:09:50.072033  8649 layer_factory.hpp:77] Creating layer ReLU29
I1128 13:09:50.072052  8649 net.cpp:84] Creating Layer ReLU29
I1128 13:09:50.072069  8649 net.cpp:406] ReLU29 <- Eltwise14
I1128 13:09:50.072087  8649 net.cpp:367] ReLU29 -> Eltwise14 (in-place)
I1128 13:09:50.072409  8649 net.cpp:122] Setting up ReLU29
I1128 13:09:50.072427  8649 net.cpp:129] Top shape: 32 64 2 2 (8192)
I1128 13:09:50.072432  8649 net.cpp:137] Memory required for data: 112511104
I1128 13:09:50.072438  8649 layer_factory.hpp:77] Creating layer Eltwise14_ReLU29_0_split
I1128 13:09:50.072448  8649 net.cpp:84] Creating Layer Eltwise14_ReLU29_0_split
I1128 13:09:50.072468  8649 net.cpp:406] Eltwise14_ReLU29_0_split <- Eltwise14
I1128 13:09:50.072495  8649 net.cpp:380] Eltwise14_ReLU29_0_split -> Eltwise14_ReLU29_0_split_0
I1128 13:09:50.072516  8649 net.cpp:380] Eltwise14_ReLU29_0_split -> Eltwise14_ReLU29_0_split_1
I1128 13:09:50.072585  8649 net.cpp:122] Setting up Eltwise14_ReLU29_0_split
I1128 13:09:50.072593  8649 net.cpp:129] Top shape: 32 64 2 2 (8192)
I1128 13:09:50.072600  8649 net.cpp:129] Top shape: 32 64 2 2 (8192)
I1128 13:09:50.072605  8649 net.cpp:137] Memory required for data: 112576640
I1128 13:09:50.072623  8649 layer_factory.hpp:77] Creating layer Convolution34
I1128 13:09:50.072654  8649 net.cpp:84] Creating Layer Convolution34
I1128 13:09:50.072661  8649 net.cpp:406] Convolution34 <- Eltwise14_ReLU29_0_split_0
I1128 13:09:50.072674  8649 net.cpp:380] Convolution34 -> Convolution34
I1128 13:09:50.074750  8649 net.cpp:122] Setting up Convolution34
I1128 13:09:50.074775  8649 net.cpp:129] Top shape: 32 64 2 2 (8192)
I1128 13:09:50.074780  8649 net.cpp:137] Memory required for data: 112609408
I1128 13:09:50.074791  8649 layer_factory.hpp:77] Creating layer BatchNorm34
I1128 13:09:50.074805  8649 net.cpp:84] Creating Layer BatchNorm34
I1128 13:09:50.074828  8649 net.cpp:406] BatchNorm34 <- Convolution34
I1128 13:09:50.074846  8649 net.cpp:367] BatchNorm34 -> Convolution34 (in-place)
I1128 13:09:50.075053  8649 net.cpp:122] Setting up BatchNorm34
I1128 13:09:50.075063  8649 net.cpp:129] Top shape: 32 64 2 2 (8192)
I1128 13:09:50.075068  8649 net.cpp:137] Memory required for data: 112642176
I1128 13:09:50.075078  8649 layer_factory.hpp:77] Creating layer Scale34
I1128 13:09:50.075100  8649 net.cpp:84] Creating Layer Scale34
I1128 13:09:50.075106  8649 net.cpp:406] Scale34 <- Convolution34
I1128 13:09:50.075114  8649 net.cpp:367] Scale34 -> Convolution34 (in-place)
I1128 13:09:50.075175  8649 layer_factory.hpp:77] Creating layer Scale34
I1128 13:09:50.075299  8649 net.cpp:122] Setting up Scale34
I1128 13:09:50.075309  8649 net.cpp:129] Top shape: 32 64 2 2 (8192)
I1128 13:09:50.075314  8649 net.cpp:137] Memory required for data: 112674944
I1128 13:09:50.075335  8649 layer_factory.hpp:77] Creating layer ReLU30
I1128 13:09:50.075356  8649 net.cpp:84] Creating Layer ReLU30
I1128 13:09:50.075372  8649 net.cpp:406] ReLU30 <- Convolution34
I1128 13:09:50.075388  8649 net.cpp:367] ReLU30 -> Convolution34 (in-place)
I1128 13:09:50.075923  8649 net.cpp:122] Setting up ReLU30
I1128 13:09:50.075961  8649 net.cpp:129] Top shape: 32 64 2 2 (8192)
I1128 13:09:50.075974  8649 net.cpp:137] Memory required for data: 112707712
I1128 13:09:50.075989  8649 layer_factory.hpp:77] Creating layer Convolution35
I1128 13:09:50.076014  8649 net.cpp:84] Creating Layer Convolution35
I1128 13:09:50.076028  8649 net.cpp:406] Convolution35 <- Convolution34
I1128 13:09:50.076047  8649 net.cpp:380] Convolution35 -> Convolution35
I1128 13:09:50.078140  8649 net.cpp:122] Setting up Convolution35
I1128 13:09:50.078202  8649 net.cpp:129] Top shape: 32 64 2 2 (8192)
I1128 13:09:50.078217  8649 net.cpp:137] Memory required for data: 112740480
I1128 13:09:50.078238  8649 layer_factory.hpp:77] Creating layer BatchNorm35
I1128 13:09:50.078259  8649 net.cpp:84] Creating Layer BatchNorm35
I1128 13:09:50.078274  8649 net.cpp:406] BatchNorm35 <- Convolution35
I1128 13:09:50.078285  8649 net.cpp:367] BatchNorm35 -> Convolution35 (in-place)
I1128 13:09:50.078560  8649 net.cpp:122] Setting up BatchNorm35
I1128 13:09:50.078575  8649 net.cpp:129] Top shape: 32 64 2 2 (8192)
I1128 13:09:50.078580  8649 net.cpp:137] Memory required for data: 112773248
I1128 13:09:50.078591  8649 layer_factory.hpp:77] Creating layer Scale35
I1128 13:09:50.078601  8649 net.cpp:84] Creating Layer Scale35
I1128 13:09:50.078608  8649 net.cpp:406] Scale35 <- Convolution35
I1128 13:09:50.078615  8649 net.cpp:367] Scale35 -> Convolution35 (in-place)
I1128 13:09:50.078681  8649 layer_factory.hpp:77] Creating layer Scale35
I1128 13:09:50.078884  8649 net.cpp:122] Setting up Scale35
I1128 13:09:50.078897  8649 net.cpp:129] Top shape: 32 64 2 2 (8192)
I1128 13:09:50.078902  8649 net.cpp:137] Memory required for data: 112806016
I1128 13:09:50.078925  8649 layer_factory.hpp:77] Creating layer Eltwise15
I1128 13:09:50.078936  8649 net.cpp:84] Creating Layer Eltwise15
I1128 13:09:50.078943  8649 net.cpp:406] Eltwise15 <- Convolution35
I1128 13:09:50.078949  8649 net.cpp:406] Eltwise15 <- Eltwise14_ReLU29_0_split_1
I1128 13:09:50.078958  8649 net.cpp:380] Eltwise15 -> Eltwise15
I1128 13:09:50.079004  8649 net.cpp:122] Setting up Eltwise15
I1128 13:09:50.079013  8649 net.cpp:129] Top shape: 32 64 2 2 (8192)
I1128 13:09:50.079020  8649 net.cpp:137] Memory required for data: 112838784
I1128 13:09:50.079025  8649 layer_factory.hpp:77] Creating layer ReLU31
I1128 13:09:50.079035  8649 net.cpp:84] Creating Layer ReLU31
I1128 13:09:50.079041  8649 net.cpp:406] ReLU31 <- Eltwise15
I1128 13:09:50.079049  8649 net.cpp:367] ReLU31 -> Eltwise15 (in-place)
I1128 13:09:50.079584  8649 net.cpp:122] Setting up ReLU31
I1128 13:09:50.079602  8649 net.cpp:129] Top shape: 32 64 2 2 (8192)
I1128 13:09:50.079607  8649 net.cpp:137] Memory required for data: 112871552
I1128 13:09:50.079613  8649 layer_factory.hpp:77] Creating layer Pooling5
I1128 13:09:50.079625  8649 net.cpp:84] Creating Layer Pooling5
I1128 13:09:50.079632  8649 net.cpp:406] Pooling5 <- Eltwise15
I1128 13:09:50.079641  8649 net.cpp:380] Pooling5 -> Pooling5
I1128 13:09:50.079955  8649 net.cpp:122] Setting up Pooling5
I1128 13:09:50.079969  8649 net.cpp:129] Top shape: 32 64 1 1 (2048)
I1128 13:09:50.079974  8649 net.cpp:137] Memory required for data: 112879744
I1128 13:09:50.079982  8649 layer_factory.hpp:77] Creating layer InnerProduct1
I1128 13:09:50.079993  8649 net.cpp:84] Creating Layer InnerProduct1
I1128 13:09:50.079999  8649 net.cpp:406] InnerProduct1 <- Pooling5
I1128 13:09:50.080010  8649 net.cpp:380] InnerProduct1 -> InnerProduct1
I1128 13:09:50.080188  8649 net.cpp:122] Setting up InnerProduct1
I1128 13:09:50.080199  8649 net.cpp:129] Top shape: 32 10 (320)
I1128 13:09:50.080204  8649 net.cpp:137] Memory required for data: 112881024
I1128 13:09:50.080217  8649 layer_factory.hpp:77] Creating layer SoftmaxWithLoss1
I1128 13:09:50.080237  8649 net.cpp:84] Creating Layer SoftmaxWithLoss1
I1128 13:09:50.080243  8649 net.cpp:406] SoftmaxWithLoss1 <- InnerProduct1
I1128 13:09:50.080250  8649 net.cpp:406] SoftmaxWithLoss1 <- Data2
I1128 13:09:50.080260  8649 net.cpp:380] SoftmaxWithLoss1 -> SoftmaxWithLoss1
…
I1128 13:09:50.083653  8649 solver.cpp:172] Creating test net (#0) specified by test_net file: /home/ljf/caffe-master/examples/ljftest_cifar10_ResNet_pool/test.prototxt
I1128 13:09:50.084455  8649 net.cpp:51] Initializing net from parameters: 
state {
  phase: TEST
}
layer {
  name: "Data1"
  type: "Data"
  top: "Data1"
  top: "Data2"
  transform_param {
    crop_size: 28
  }
  data_param {
    source: "/home/ljf/caffe-master/examples/ljftest_cifar10_ResNet_pool/test_lmdb"
    batch_size: 10
    backend: LMDB
  }
  image_data_param {
    shuffle: true
  }
}
layer {
  name: "Convolution1"
  type: "Convolution"
  bottom: "Data1"
  top: "Convolution1"
  convolution_param {
    num_output: 16
    bias_term: true
    pad: 1
    kernel_size: 3
    stride: 1
    weight_filler {
      type: "msra"
    }
    bias_filler {
      type: "constant"
    }
  }
}
layer {
  name: "BatchNorm1"
  type: "BatchNorm"
  bottom: "Convolution1"
  top: "Convolution1"
  batch_norm_param {
    use_global_stats: true
  }
}
layer {
  name: "Scale1"
  type: "Scale"
  bottom: "Convolution1"
  top: "Convolution1"
  scale_param {
    bias_term: true
  }
}
layer {
  name: "ReLU1"
  type: "ReLU"
  bottom: "Convolution1"
  top: "Convolution1"
}
layer {
  name: "Convolution2"
  type: "Convolution"
  bottom: "Convolution1"
  top: "Convolution2"
  convolution_param {
    num_output: 16
    bias_term: true
    pad: 1
    kernel_size: 3
    stride: 1
    weight_filler {
      type: "msra"
    }
    bias_filler {
      type: "constant"
    }
  }
}
layer {
  name: "BatchNorm2"
  type: "BatchNorm"
  bottom: "Convolution2"
  top: "Convolution2"
  batch_norm_param {
    use_global_stats: true
  }
}
layer {
  name: "Scale2"
  type: "Scale"
  bottom: "Convolution2"
  top: "Convolution2"
  scale_param {
    bias_term: true
  }
}
layer {
  name: "ReLU2"
  type: "ReLU"
  bottom: "Convolution2"
  top: "Convolution2"
}
layer {
  name: "Convolution3"
  type: "Convolution"
  bottom: "Convolution2"
  top: "Convolution3"
  convolution_param {
    num_output: 16
    bias_term: true
    pad: 1
    kernel_size: 3
    stride: 1
    weight_filler {
      type: "msra"
    }
    bias_filler {
      type: "constant"
    }
  }
}
layer {
  name: "BatchNorm3"
  type: "BatchNorm"
  bottom: "Convolution3"
  top: "Convolution3"
  batch_norm_param {
    use_global_stats: true
  }
}
layer {
  name: "Scale3"
  type: "Scale"
  bottom: "Convolution3"
  top: "Convolution3"
  scale_param {
    bias_term: true
  }
}
layer {
  name: "Eltwise1"
  type: "Eltwise"
  bottom: "Convolution3"
  bottom: "Convolution1"
  top: "Eltwise1"
  eltwise_param {
    operation: SUM
  }
}
layer {
  name: "ReLU3"
  type: "ReLU"
  bottom: "Eltwise1"
  top: "Eltwise1"
}
layer {
  name: "Convolution4"
  type: "Convolution"
  bottom: "Eltwise1"
  top: "Convolution4"
  convolution_param {
    num_output: 16
    bias_term: true
    pad: 1
    kernel_size: 3
    stride: 1
    weight_filler {
      type: "msra"
    }
    bias_filler {
      type: "constant"
    }
  }
}
layer {
  name: "BatchNorm4"
  type: "BatchNorm"
  bottom: "Convolution4"
  top: "Convolution4"
  batch_norm_param {
    use_global_stats: true
  }
}
layer {
  name: "Scale4"
  type: "Scale"
  bottom: "Convolution4"
  top: "Convolution4"
  scale_param {
    bias_term: true
  }
}
layer {
  name: "ReLU4"
  type: "ReLU"
  bottom: "Convolution4"
  top: "Convolution4"
}
layer {
  name: "Convolution5"
  type: "Convolution"
  bottom: "Convolution4"
  top: "Convolution5"
  convolution_param {
    num_output: 16
    bias_term: true
    pad: 1
    kernel_size: 3
    stride: 1
    weight_filler {
      type: "msra"
    }
    bias_filler {
      type: "constant"
    }
  }
}
layer {
  name: "BatchNorm5"
  type: "BatchNorm"
  bottom: "Convolution5"
  top: "Convolution5"
  batch_norm_param {
    use_global_stats: true
  }
}
layer {
  name: "Scale5"
  type: "Scale"
  bottom: "Convolution5"
  top: "Convolution5"
  scale_param {
    bias_term: true
  }
}
layer {
  name: "Eltwise2"
  type: "Eltwise"
  bottom: "Convolution5"
  bottom: "Eltwise1"
  top: "Eltwise2"
  eltwise_param {
    operation: SUM
  }
}
layer {
  name: "ReLU5"
  type: "ReLU"
  bottom: "Eltwise2"
  top: "Eltwise2"
}
layer {
  name: "Convolution6"
  type: "Convolution"
  bottom: "Eltwise2"
  top: "Convolution6"
  convolution_param {
    num_output: 16
    bias_term: true
    pad: 1
    kernel_size: 3
    stride: 1
    weight_filler {
      type: "msra"
    }
    bias_filler {
      type: "constant"
    }
  }
}
layer {
  name: "BatchNorm6"
  type: "BatchNorm"
  bottom: "Convolution6"
  top: "Convolution6"
  batch_norm_param {
    use_global_stats: true
  }
}
layer {
  name: "Scale6"
  type: "Scale"
  bottom: "Convolution6"
  top: "Convolution6"
  scale_param {
    bias_term: true
  }
}
layer {
  name: "ReLU6"
  type: "ReLU"
  bottom: "Convolution6"
  top: "Convolution6"
}
layer {
  name: "Convolution7"
  type: "Convolution"
  bottom: "Convolution6"
  top: "Convolution7"
  convolution_param {
    num_output: 16
    bias_term: true
    pad: 1
    kernel_size: 3
    stride: 1
    weight_filler {
      type: "msra"
    }
    bias_filler {
      type: "constant"
    }
  }
}
layer {
  name: "BatchNorm7"
  type: "BatchNorm"
  bottom: "Convolution7"
  top: "Convolution7"
  batch_norm_param {
    use_global_stats: true
  }
}
layer {
  name: "Scale7"
  type: "Scale"
  bottom: "Convolution7"
  top: "Convolution7"
  scale_param {
    bias_term: true
  }
}
layer {
  name: "Eltwise3"
  type: "Eltwise"
  bottom: "Convolution7"
  bottom: "Eltwise2"
  top: "Eltwise3"
  eltwise_param {
    operation: SUM
  }
}
layer {
  name: "ReLU7"
  type: "ReLU"
  bottom: "Eltwise3"
  top: "Eltwise3"
}
layer {
  name: "Convolution8"
  type: "Convolution"
  bottom: "Eltwise3"
  top: "Convolution8"
  convolution_param {
    num_output: 32
    bias_term: true
    pad: 1
    kernel_size: 3
    stride: 2
    weight_filler {
      type: "msra"
    }
    bias_filler {
      type: "constant"
    }
  }
}
layer {
  name: "BatchNorm8"
  type: "BatchNorm"
  bottom: "Convolution8"
  top: "Convolution8"
  batch_norm_param {
    use_global_stats: true
  }
}
layer {
  name: "Scale8"
  type: "Scale"
  bottom: "Convolution8"
  top: "Convolution8"
  scale_param {
    bias_term: true
  }
}
layer {
  name: "ReLU8"
  type: "ReLU"
  bottom: "Convolution8"
  top: "Convolution8"
}
layer {
  name: "Convolution9"
  type: "Convolution"
  bottom: "Convolution8"
  top: "Convolution9"
  convolution_param {
    num_output: 32
    bias_term: true
    pad: 1
    kernel_size: 3
    stride: 1
    weight_filler {
      type: "msra"
    }
    bias_filler {
      type: "constant"
    }
  }
}
layer {
  name: "BatchNorm9"
  type: "BatchNorm"
  bottom: "Convolution9"
  top: "Convolution9"
  batch_norm_param {
    use_global_stats: true
  }
}
layer {
  name: "Scale9"
  type: "Scale"
  bottom: "Convolution9"
  top: "Convolution9"
  scale_param {
    bias_term: true
  }
}
layer {
  name: "Pooling1"
  type: "Pooling"
  bottom: "Eltwise3"
  top: "Pooling1"
  pooling_param {
    pool: MAX
    kernel_size: 2
    stride: 2
    pad: 0
  }
}
layer {
  name: "Convolution10"
  type: "Convolution"
  bottom: "Pooling1"
  top: "Convolution10"
  convolution_param {
    num_output: 32
    bias_term: true
    pad: 0
    kernel_size: 1
    stride: 1
    weight_filler {
      type: "msra"
    }
    bias_filler {
      type: "constant"
    }
  }
}
layer {
  name: "BatchNorm10"
  type: "BatchNorm"
  bottom: "Convolution10"
  top: "Convolution10"
  batch_norm_param {
    use_global_stats: true
  }
}
layer {
  name: "Scale10"
  type: "Scale"
  bottom: "Convolution10"
  top: "Convolution10"
  scale_param {
    bias_term: true
  }
}
layer {
  name: "Eltwise4"
  type: "Eltwise"
  bottom: "Convolution9"
  bottom: "Convolution10"
  top: "Eltwise4"
  eltwise_param {
    operation: SUM
  }
}
layer {
  name: "ReLU9"
  type: "ReLU"
  bottom: "Eltwise4"
  top: "Eltwise4"
}
layer {
  name: "Convolution11"
  type: "Convolution"
  bottom: "Eltwise4"
  top: "Convolution11"
  convolution_param {
    num_output: 32
    bias_term: true
    pad: 1
    kernel_size: 3
    stride: 1
    weight_filler {
      type: "msra"
    }
    bias_filler {
      type: "constant"
    }
  }
}
layer {
  name: "BatchNorm11"
  type: "BatchNorm"
  bottom: "Convolution11"
  top: "Convolution11"
  batch_norm_param {
    use_global_stats: true
  }
}
layer {
  name: "Scale11"
  type: "Scale"
  bottom: "Convolution11"
  top: "Convolution11"
  scale_param {
    bias_term: true
  }
}
layer {
  name: "ReLU10"
  type: "ReLU"
  bottom: "Convolution11"
  top: "Convolution11"
}
layer {
  name: "Convolution12"
  type: "Convolution"
  bottom: "Convolution11"
  top: "Convolution12"
  convolution_param {
    num_output: 32
    bias_term: true
    pad: 1
    kernel_size: 3
    stride: 1
    weight_filler {
      type: "msra"
    }
    bias_filler {
      type: "constant"
    }
  }
}
layer {
  name: "BatchNorm12"
  type: "BatchNorm"
  bottom: "Convolution12"
  top: "Convolution12"
  batch_norm_param {
    use_global_stats: true
  }
}
layer {
  name: "Scale12"
  type: "Scale"
  bottom: "Convolution12"
  top: "Convolution12"
  scale_param {
    bias_term: true
  }
}
layer {
  name: "Eltwise5"
  type: "Eltwise"
  bottom: "Convolution12"
  bottom: "Eltwise4"
  top: "Eltwise5"
  eltwise_param {
    operation: SUM
  }
}
layer {
  name: "ReLU11"
  type: "ReLU"
  bottom: "Eltwise5"
  top: "Eltwise5"
}
layer {
  name: "Convolution13"
  type: "Convolution"
  bottom: "Eltwise5"
  top: "Convolution13"
  convolution_param {
    num_output: 32
    bias_term: true
    pad: 1
    kernel_size: 3
    stride: 1
    weight_filler {
      type: "msra"
    }
    bias_filler {
      type: "constant"
    }
  }
}
layer {
  name: "BatchNorm13"
  type: "BatchNorm"
  bottom: "Convolution13"
  top: "Convolution13"
  batch_norm_param {
    use_global_stats: true
  }
}
layer {
  name: "Scale13"
  type: "Scale"
  bottom: "Convolution13"
  top: "Convolution13"
  scale_param {
    bias_term: true
  }
}
layer {
  name: "ReLU12"
  type: "ReLU"
  bottom: "Convolution13"
  top: "Convolution13"
}
layer {
  name: "Convolution14"
  type: "Convolution"
  bottom: "Convolution13"
  top: "Convolution14"
  convolution_param {
    num_output: 32
    bias_term: true
    pad: 1
    kernel_size: 3
    stride: 1
    weight_filler {
      type: "msra"
    }
    bias_filler {
      type: "constant"
    }
  }
}
layer {
  name: "BatchNorm14"
  type: "BatchNorm"
  bottom: "Convolution14"
  top: "Convolution14"
  batch_norm_param {
    use_global_stats: true
  }
}
layer {
  name: "Scale14"
  type: "Scale"
  bottom: "Convolution14"
  top: "Convolution14"
  scale_param {
    bias_term: true
  }
}
layer {
  name: "Eltwise6"
  type: "Eltwise"
  bottom: "Convolution14"
  bottom: "Eltwise5"
  top: "Eltwise6"
  eltwise_param {
    operation: SUM
  }
}
layer {
  name: "ReLU13"
  type: "ReLU"
  bottom: "Eltwise6"
  top: "Eltwise6"
}
layer {
  name: "Convolution15"
  type: "Convolution"
  bottom: "Eltwise6"
  top: "Convolution15"
  convolution_param {
    num_output: 64
    bias_term: true
    pad: 1
    kernel_size: 3
    stride: 2
    weight_filler {
      type: "msra"
    }
    bias_filler {
      type: "constant"
    }
  }
}
layer {
  name: "BatchNorm15"
  type: "BatchNorm"
  bottom: "Convolution15"
  top: "Convolution15"
  batch_norm_param {
    use_global_stats: true
  }
}
layer {
  name: "Scale15"
  type: "Scale"
  bottom: "Convolution15"
  top: "Convolution15"
  scale_param {
    bias_term: true
  }
}
layer {
  name: "ReLU14"
  type: "ReLU"
  bottom: "Convolution15"
  top: "Convolution15"
}
layer {
  name: "Convolution16"
  type: "Convolution"
  bottom: "Convolution15"
  top: "Convolution16"
  convolution_param {
    num_output: 64
    bias_term: true
    pad: 1
    kernel_size: 3
    stride: 1
    weight_filler {
      type: "msra"
    }
    bias_filler {
      type: "constant"
    }
  }
}
layer {
  name: "BatchNorm16"
  type: "BatchNorm"
  bottom: "Convolution16"
  top: "Convolution16"
  batch_norm_param {
    use_global_stats: true
  }
}
layer {
  name: "Scale16"
  type: "Scale"
  bottom: "Convolution16"
  top: "Convolution16"
  scale_param {
    bias_term: true
  }
}
layer {
  name: "Pooling2"
  type: "Pooling"
  bottom: "Eltwise6"
  top: "Pooling2"
  pooling_param {
    pool: MAX
    kernel_size: 2
    stride: 2
    pad: 0
  }
}
layer {
  name: "Convolution17"
  type: "Convolution"
  bottom: "Pooling2"
  top: "Convolution17"
  convolution_param {
    num_output: 64
    bias_term: true
    pad: 0
    kernel_size: 1
    stride: 1
    weight_filler {
      type: "msra"
    }
    bias_filler {
      type: "constant"
    }
  }
}
layer {
  name: "BatchNorm17"
  type: "BatchNorm"
  bottom: "Convolution17"
  top: "Convolution17"
  batch_norm_param {
    use_global_stats: true
  }
}
layer {
  name: "Scale17"
  type: "Scale"
  bottom: "Convolution17"
  top: "Convolution17"
  scale_param {
    bias_term: true
  }
}
layer {
  name: "Eltwise7"
  type: "Eltwise"
  bottom: "Convolution16"
  bottom: "Convolution17"
  top: "Eltwise7"
  eltwise_param {
    operation: SUM
  }
}
layer {
  name: "ReLU15"
  type: "ReLU"
  bottom: "Eltwise7"
  top: "Eltwise7"
}
layer {
  name: "Convolution18"
  type: "Convolution"
  bottom: "Eltwise7"
  top: "Convolution18"
  convolution_param {
    num_output: 64
    bias_term: true
    pad: 1
    kernel_size: 3
    stride: 1
    weight_filler {
      type: "msra"
    }
    bias_filler {
      type: "constant"
    }
  }
}
layer {
  name: "BatchNorm18"
  type: "BatchNorm"
  bottom: "Convolution18"
  top: "Convolution18"
  batch_norm_param {
    use_global_stats: true
  }
}
layer {
  name: "Scale18"
  type: "Scale"
  bottom: "Convolution18"
  top: "Convolution18"
  scale_param {
    bias_term: true
  }
}
layer {
  name: "ReLU16"
  type: "ReLU"
  bottom: "Convolution18"
  top: "Convolution18"
}
layer {
  name: "Convolution19"
  type: "Convolution"
  bottom: "Convolution18"
  top: "Convolution19"
  convolution_param {
    num_output: 64
    bias_term: true
    pad: 1
    kernel_size: 3
    stride: 1
    weight_filler {
      type: "msra"
    }
    bias_filler {
      type: "constant"
    }
  }
}
layer {
  name: "BatchNorm19"
  type: "BatchNorm"
  bottom: "Convolution19"
  top: "Convolution19"
  batch_norm_param {
    use_global_stats: true
  }
}
layer {
  name: "Scale19"
  type: "Scale"
  bottom: "Convolution19"
  top: "Convolution19"
  scale_param {
    bias_term: true
  }
}
layer {
  name: "Eltwise8"
  type: "Eltwise"
  bottom: "Convolution19"
  bottom: "Eltwise7"
  top: "Eltwise8"
  eltwise_param {
    operation: SUM
  }
}
layer {
  name: "ReLU17"
  type: "ReLU"
  bottom: "Eltwise8"
  top: "Eltwise8"
}
layer {
  name: "Convolution20"
  type: "Convolution"
  bottom: "Eltwise8"
  top: "Convolution20"
  convolution_param {
    num_output: 64
    bias_term: true
    pad: 1
    kernel_size: 3
    stride: 1
    weight_filler {
      type: "msra"
    }
    bias_filler {
      type: "constant"
    }
  }
}
layer {
  name: "BatchNorm20"
  type: "BatchNorm"
  bottom: "Convolution20"
  top: "Convolution20"
  batch_norm_param {
    use_global_stats: true
  }
}
layer {
  name: "Scale20"
  type: "Scale"
  bottom: "Convolution20"
  top: "Convolution20"
  scale_param {
    bias_term: true
  }
}
layer {
  name: "ReLU18"
  type: "ReLU"
  bottom: "Convolution20"
  top: "Convolution20"
}
layer {
  name: "Convolution21"
  type: "Convolution"
  bottom: "Convolution20"
  top: "Convolution21"
  convolution_param {
    num_output: 64
    bias_term: true
    pad: 1
    kernel_size: 3
    stride: 1
    weight_filler {
      type: "msra"
    }
    bias_filler {
      type: "constant"
    }
  }
}
layer {
  name: "BatchNorm21"
  type: "BatchNorm"
  bottom: "Convolution21"
  top: "Convolution21"
  batch_norm_param {
    use_global_stats: true
  }
}
layer {
  name: "Scale21"
  type: "Scale"
  bottom: "Convolution21"
  top: "Convolution21"
  scale_param {
    bias_term: true
  }
}
layer {
  name: "Eltwise9"
  type: "Eltwise"
  bottom: "Convolution21"
  bottom: "Eltwise8"
  top: "Eltwise9"
  eltwise_param {
    operation: SUM
  }
}
layer {
  name: "ReLU19"
  type: "ReLU"
  bottom: "Eltwise9"
  top: "Eltwise9"
}
layer {
  name: "Convolution22"
  type: "Convolution"
  bottom: "Eltwise9"
  top: "Convolution22"
  convolution_param {
    num_output: 64
    bias_term: true
    pad: 1
    kernel_size: 3
    stride: 2
    weight_filler {
      type: "msra"
    }
    bias_filler {
      type: "constant"
    }
  }
}
layer {
  name: "BatchNorm22"
  type: "BatchNorm"
  bottom: "Convolution22"
  top: "Convolution22"
  batch_norm_param {
    use_global_stats: true
  }
}
layer {
  name: "Scale22"
  type: "Scale"
  bottom: "Convolution22"
  top: "Convolution22"
  scale_param {
    bias_term: true
  }
}
layer {
  name: "ReLU20"
  type: "ReLU"
  bottom: "Convolution22"
  top: "Convolution22"
}
layer {
  name: "Convolution23"
  type: "Convolution"
  bottom: "Convolution22"
  top: "Convolution23"
  convolution_param {
    num_output: 64
    bias_term: true
    pad: 1
    kernel_size: 3
    stride: 1
    weight_filler {
      type: "msra"
    }
    bias_filler {
      type: "constant"
    }
  }
}
layer {
  name: "BatchNorm23"
  type: "BatchNorm"
  bottom: "Convolution23"
  top: "Convolution23"
  batch_norm_param {
    use_global_stats: true
  }
}
layer {
  name: "Scale23"
  type: "Scale"
  bottom: "Convolution23"
  top: "Convolution23"
  scale_param {
    bias_term: true
  }
}
layer {
  name: "Pooling3"
  type: "Pooling"
  bottom: "Eltwise9"
  top: "Pooling3"
  pooling_param {
    pool: MAX
    kernel_size: 2
    stride: 2
    pad: 0
  }
}
layer {
  name: "Convolution24"
  type: "Convolution"
  bottom: "Pooling3"
  top: "Convolution24"
  convolution_param {
    num_output: 64
    bias_term: true
    pad: 0
    kernel_size: 1
    stride: 1
    weight_filler {
      type: "msra"
    }
    bias_filler {
      type: "constant"
    }
  }
}
layer {
  name: "BatchNorm24"
  type: "BatchNorm"
  bottom: "Convolution24"
  top: "Convolution24"
  batch_norm_param {
    use_global_stats: true
  }
}
layer {
  name: "Scale24"
  type: "Scale"
  bottom: "Convolution24"
  top: "Convolution24"
  scale_param {
    bias_term: true
  }
}
layer {
  name: "Eltwise10"
  type: "Eltwise"
  bottom: "Convolution23"
  bottom: "Convolution24"
  top: "Eltwise10"
  eltwise_param {
    operation: SUM
  }
}
layer {
  name: "ReLU21"
  type: "ReLU"
  bottom: "Eltwise10"
  top: "Eltwise10"
}
layer {
  name: "Convolution25"
  type: "Convolution"
  bottom: "Eltwise10"
  top: "Convolution25"
  convolution_param {
    num_output: 64
    bias_term: true
    pad: 1
    kernel_size: 3
    stride: 1
    weight_filler {
      type: "msra"
    }
    bias_filler {
      type: "constant"
    }
  }
}
layer {
  name: "BatchNorm25"
  type: "BatchNorm"
  bottom: "Convolution25"
  top: "Convolution25"
  batch_norm_param {
    use_global_stats: true
  }
}
layer {
  name: "Scale25"
  type: "Scale"
  bottom: "Convolution25"
  top: "Convolution25"
  scale_param {
    bias_term: true
  }
}
layer {
  name: "ReLU22"
  type: "ReLU"
  bottom: "Convolution25"
  top: "Convolution25"
}
layer {
  name: "Convolution26"
  type: "Convolution"
  bottom: "Convolution25"
  top: "Convolution26"
  convolution_param {
    num_output: 64
    bias_term: true
    pad: 1
    kernel_size: 3
    stride: 1
    weight_filler {
      type: "msra"
    }
    bias_filler {
      type: "constant"
    }
  }
}
layer {
  name: "BatchNorm26"
  type: "BatchNorm"
  bottom: "Convolution26"
  top: "Convolution26"
  batch_norm_param {
    use_global_stats: true
  }
}
layer {
  name: "Scale26"
  type: "Scale"
  bottom: "Convolution26"
  top: "Convolution26"
  scale_param {
    bias_term: true
  }
}
layer {
  name: "Eltwise11"
  type: "Eltwise"
  bottom: "Convolution26"
  bottom: "Eltwise10"
  top: "Eltwise11"
  eltwise_param {
    operation: SUM
  }
}
layer {
  name: "ReLU23"
  type: "ReLU"
  bottom: "Eltwise11"
  top: "Eltwise11"
}
layer {
  name: "Convolution27"
  type: "Convolution"
  bottom: "Eltwise11"
  top: "Convolution27"
  convolution_param {
    num_output: 64
    bias_term: true
    pad: 1
    kernel_size: 3
    stride: 1
    weight_filler {
      type: "msra"
    }
    bias_filler {
      type: "constant"
    }
  }
}
layer {
  name: "BatchNorm27"
  type: "BatchNorm"
  bottom: "Convolution27"
  top: "Convolution27"
  batch_norm_param {
    use_global_stats: true
  }
}
layer {
  name: "Scale27"
  type: "Scale"
  bottom: "Convolution27"
  top: "Convolution27"
  scale_param {
    bias_term: true
  }
}
layer {
  name: "ReLU24"
  type: "ReLU"
  bottom: "Convolution27"
  top: "Convolution27"
}
layer {
  name: "Convolution28"
  type: "Convolution"
  bottom: "Convolution27"
  top: "Convolution28"
  convolution_param {
    num_output: 64
    bias_term: true
    pad: 1
    kernel_size: 3
    stride: 1
    weight_filler {
      type: "msra"
    }
    bias_filler {
      type: "constant"
    }
  }
}
layer {
  name: "BatchNorm28"
  type: "BatchNorm"
  bottom: "Convolution28"
  top: "Convolution28"
  batch_norm_param {
    use_global_stats: true
  }
}
layer {
  name: "Scale28"
  type: "Scale"
  bottom: "Convolution28"
  top: "Convolution28"
  scale_param {
    bias_term: true
  }
}
layer {
  name: "Eltwise12"
  type: "Eltwise"
  bottom: "Convolution28"
  bottom: "Eltwise11"
  top: "Eltwise12"
  eltwise_param {
    operation: SUM
  }
}
layer {
  name: "ReLU25"
  type: "ReLU"
  bottom: "Eltwise12"
  top: "Eltwise12"
}
layer {
  name: "Convolution29"
  type: "Convolution"
  bottom: "Eltwise12"
  top: "Convolution29"
  convolution_param {
    num_output: 64
    bias_term: true
    pad: 1
    kernel_size: 3
    stride: 2
    weight_filler {
      type: "msra"
    }
    bias_filler {
      type: "constant"
    }
  }
}
layer {
  name: "BatchNorm29"
  type: "BatchNorm"
  bottom: "Convolution29"
  top: "Convolution29"
  batch_norm_param {
    use_global_stats: true
  }
}
layer {
  name: "Scale29"
  type: "Scale"
  bottom: "Convolution29"
  top: "Convolution29"
  scale_param {
    bias_term: true
  }
}
layer {
  name: "ReLU26"
  type: "ReLU"
  bottom: "Convolution29"
  top: "Convolution29"
}
layer {
  name: "Convolution30"
  type: "Convolution"
  bottom: "Convolution29"
  top: "Convolution30"
  convolution_param {
    num_output: 64
    bias_term: true
    pad: 1
    kernel_size: 3
    stride: 1
    weight_filler {
      type: "msra"
    }
    bias_filler {
      type: "constant"
    }
  }
}
layer {
  name: "BatchNorm30"
  type: "BatchNorm"
  bottom: "Convolution30"
  top: "Convolution30"
  batch_norm_param {
    use_global_stats: true
  }
}
layer {
  name: "Scale30"
  type: "Scale"
  bottom: "Convolution30"
  top: "Convolution30"
  scale_param {
    bias_term: true
  }
}
layer {
  name: "Pooling4"
  type: "Pooling"
  bottom: "Eltwise12"
  top: "Pooling4"
  pooling_param {
    pool: MAX
    kernel_size: 2
    stride: 2
    pad: 0
  }
}
layer {
  name: "Convolution31"
  type: "Convolution"
  bottom: "Pooling4"
  top: "Convolution31"
  convolution_param {
    num_output: 64
    bias_term: true
    pad: 0
    kernel_size: 1
    stride: 1
    weight_filler {
      type: "msra"
    }
    bias_filler {
      type: "constant"
    }
  }
}
layer {
  name: "BatchNorm31"
  type: "BatchNorm"
  bottom: "Convolution31"
  top: "Convolution31"
  batch_norm_param {
    use_global_stats: true
  }
}
layer {
  name: "Scale31"
  type: "Scale"
  bottom: "Convolution31"
  top: "Convolution31"
  scale_param {
    bias_term: true
  }
}
layer {
  name: "Eltwise13"
  type: "Eltwise"
  bottom: "Convolution30"
  bottom: "Convolution31"
  top: "Eltwise13"
  eltwise_param {
    operation: SUM
  }
}
layer {
  name: "ReLU27"
  type: "ReLU"
  bottom: "Eltwise13"
  top: "Eltwise13"
}
layer {
  name: "Convolution32"
  type: "Convolution"
  bottom: "Eltwise13"
  top: "Convolution32"
  convolution_param {
    num_output: 64
    bias_term: true
    pad: 1
    kernel_size: 3
    stride: 1
    weight_filler {
      type: "msra"
    }
    bias_filler {
      type: "constant"
    }
  }
}
layer {
  name: "BatchNorm32"
  type: "BatchNorm"
  bottom: "Convolution32"
  top: "Convolution32"
  batch_norm_param {
    use_global_stats: true
  }
}
layer {
  name: "Scale32"
  type: "Scale"
  bottom: "Convolution32"
  top: "Convolution32"
  scale_param {
    bias_term: true
  }
}
layer {
  name: "ReLU28"
  type: "ReLU"
  bottom: "Convolution32"
  top: "Convolution32"
}
layer {
  name: "Convolution33"
  type: "Convolution"
  bottom: "Convolution32"
  top: "Convolution33"
  convolution_param {
    num_output: 64
    bias_term: true
    pad: 1
    kernel_size: 3
    stride: 1
    weight_filler {
      type: "msra"
    }
    bias_filler {
      type: "constant"
    }
  }
}
layer {
  name: "BatchNorm33"
  type: "BatchNorm"
  bottom: "Convolution33"
  top: "Convolution33"
  batch_norm_param {
    use_global_stats: true
  }
}
layer {
  name: "Scale33"
  type: "Scale"
  bottom: "Convolution33"
  top: "Convolution33"
  scale_param {
    bias_term: true
  }
}
layer {
  name: "Eltwise14"
  type: "Eltwise"
  bottom: "Convolution33"
  bottom: "Eltwise13"
  top: "Eltwise14"
  eltwise_param {
    operation: SUM
  }
}
layer {
  name: "ReLU29"
  type: "ReLU"
  bottom: "Eltwise14"
  top: "Eltwise14"
}
layer {
  name: "Convolution34"
  type: "Convolution"
  bottom: "Eltwise14"
  top: "Convolution34"
  convolution_param {
    num_output: 64
    bias_term: true
    pad: 1
    kernel_size: 3
    stride: 1
    weight_filler {
      type: "msra"
    }
    bias_filler {
      type: "constant"
    }
  }
}
layer {
  name: "BatchNorm34"
  type: "BatchNorm"
  bottom: "Convolution34"
  top: "Convolution34"
  batch_norm_param {
    use_global_stats: true
  }
}
layer {
  name: "Scale34"
  type: "Scale"
  bottom: "Convolution34"
  top: "Convolution34"
  scale_param {
    bias_term: true
  }
}
layer {
  name: "ReLU30"
  type: "ReLU"
  bottom: "Convolution34"
  top: "Convolution34"
}
layer {
  name: "Convolution35"
  type: "Convolution"
  bottom: "Convolution34"
  top: "Convolution35"
  convolution_param {
    num_output: 64
    bias_term: true
    pad: 1
    kernel_size: 3
    stride: 1
    weight_filler {
      type: "msra"
    }
    bias_filler {
      type: "constant"
    }
  }
}
layer {
  name: "BatchNorm35"
  type: "BatchNorm"
  bottom: "Convolution35"
  top: "Convolution35"
  batch_norm_param {
    use_global_stats: true
  }
}
layer {
  name: "Scale35"
  type: "Scale"
  bottom: "Convolution35"
  top: "Convolution35"
  scale_param {
    bias_term: true
  }
}
layer {
  name: "Eltwise15"
  type: "Eltwise"
  bottom: "Convolution35"
  bottom: "Eltwise14"
  top: "Eltwise15"
  eltwise_param {
    operation: SUM
  }
}
layer {
  name: "ReLU31"
  type: "ReLU"
  bottom: "Eltwise15"
  top: "Eltwise15"
}
layer {
  name: "Pooling5"
  type: "Pooling"
  bottom: "Eltwise15"
  top: "Pooling5"
  pooling_param {
    pool: AVE
    global_pooling: true
  }
}
layer {
  name: "InnerProduct1"
  type: "InnerProduct"
  bottom: "Pooling5"
  top: "InnerProduct1"
  inner_product_param {
    num_output: 10
    weight_filler {
      type: "xavier"
    }
    bias_filler {
      type: "constant"
    }
  }
}
layer {
  name: "Accuracy1"
  type: "Accuracy"
  bottom: "InnerProduct1"
  bottom: "Data2"
  top: "Accuracy1"
}
layer {
  name: "SoftmaxWithLoss1"
  type: "SoftmaxWithLoss"
  bottom: "InnerProduct1"
  bottom: "Data2"
  top: "SoftmaxWithLoss1"
}
I1128 13:09:50.085187  8649 layer_factory.hpp:77] Creating layer Data1
I1128 13:09:50.085260  8649 db_lmdb.cpp:35] Opened lmdb /home/ljf/caffe-master/examples/ljftest_cifar10_ResNet_pool/test_lmdb
I1128 13:09:50.085276  8649 net.cpp:84] Creating Layer Data1
I1128 13:09:50.085283  8649 net.cpp:380] Data1 -> Data1
I1128 13:09:50.085295  8649 net.cpp:380] Data1 -> Data2
I1128 13:09:50.085486  8649 data_layer.cpp:45] output data size: 10,3,28,28
I1128 13:09:50.086261  8649 net.cpp:122] Setting up Data1
I1128 13:09:50.086278  8649 net.cpp:129] Top shape: 10 3 28 28 (23520)
I1128 13:09:50.086284  8649 net.cpp:129] Top shape: 10 (10)
I1128 13:09:50.086288  8649 net.cpp:137] Memory required for data: 94120
I1128 13:09:50.086295  8649 layer_factory.hpp:77] Creating layer Data2_Data1_1_split
I1128 13:09:50.086318  8649 net.cpp:84] Creating Layer Data2_Data1_1_split
I1128 13:09:50.086325  8649 net.cpp:406] Data2_Data1_1_split <- Data2
I1128 13:09:50.086334  8649 net.cpp:380] Data2_Data1_1_split -> Data2_Data1_1_split_0
I1128 13:09:50.086349  8649 net.cpp:380] Data2_Data1_1_split -> Data2_Data1_1_split_1
I1128 13:09:50.086431  8649 net.cpp:122] Setting up Data2_Data1_1_split
I1128 13:09:50.086441  8649 net.cpp:129] Top shape: 10 (10)
I1128 13:09:50.086447  8649 net.cpp:129] Top shape: 10 (10)
I1128 13:09:50.086452  8649 net.cpp:137] Memory required for data: 94200
I1128 13:09:50.086457  8649 layer_factory.hpp:77] Creating layer Convolution1
I1128 13:09:50.086472  8649 net.cpp:84] Creating Layer Convolution1
I1128 13:09:50.086478  8649 net.cpp:406] Convolution1 <- Data1
I1128 13:09:50.086488  8649 net.cpp:380] Convolution1 -> Convolution1
I1128 13:09:50.088390  8649 net.cpp:122] Setting up Convolution1
I1128 13:09:50.088412  8649 net.cpp:129] Top shape: 10 16 28 28 (125440)
I1128 13:09:50.088418  8649 net.cpp:137] Memory required for data: 595960
I1128 13:09:50.088433  8649 layer_factory.hpp:77] Creating layer BatchNorm1
I1128 13:09:50.088451  8649 net.cpp:84] Creating Layer BatchNorm1
I1128 13:09:50.088457  8649 net.cpp:406] BatchNorm1 <- Convolution1
I1128 13:09:50.088465  8649 net.cpp:367] BatchNorm1 -> Convolution1 (in-place)
I1128 13:09:50.088798  8649 net.cpp:122] Setting up BatchNorm1
…
I1128 13:09:50.132388  8649 net.cpp:380] Eltwise7 -> Eltwise7
I1128 13:09:50.132426  8649 net.cpp:122] Setting up Eltwise7
I1128 13:09:50.132447  8649 net.cpp:129] Top shape: 10 64 7 7 (31360)
I1128 13:09:50.132458  8649 net.cpp:137] Memory required for data: 30262520
I1128 13:09:50.132472  8649 layer_factory.hpp:77] Creating layer ReLU15
I1128 13:09:50.132488  8649 net.cpp:84] Creating Layer ReLU15
I1128 13:09:50.132500  8649 net.cpp:406] ReLU15 <- Eltwise7
I1128 13:09:50.132514  8649 net.cpp:367] ReLU15 -> Eltwise7 (in-place)
I1128 13:09:50.132984  8649 net.cpp:122] Setting up ReLU15
I1128 13:09:50.133018  8649 net.cpp:129] Top shape: 10 64 7 7 (31360)
I1128 13:09:50.133033  8649 net.cpp:137] Memory required for data: 30387960
I1128 13:09:50.133046  8649 layer_factory.hpp:77] Creating layer Eltwise7_ReLU15_0_split
I1128 13:09:50.133064  8649 net.cpp:84] Creating Layer Eltwise7_ReLU15_0_split
I1128 13:09:50.133078  8649 net.cpp:406] Eltwise7_ReLU15_0_split <- Eltwise7
I1128 13:09:50.133095  8649 net.cpp:380] Eltwise7_ReLU15_0_split -> Eltwise7_ReLU15_0_split_0
I1128 13:09:50.133114  8649 net.cpp:380] Eltwise7_ReLU15_0_split -> Eltwise7_ReLU15_0_split_1
I1128 13:09:50.133173  8649 net.cpp:122] Setting up Eltwise7_ReLU15_0_split
I1128 13:09:50.133191  8649 net.cpp:129] Top shape: 10 64 7 7 (31360)
I1128 13:09:50.133206  8649 net.cpp:129] Top shape: 10 64 7 7 (31360)
I1128 13:09:50.133219  8649 net.cpp:137] Memory required for data: 30638840
I1128 13:09:50.133231  8649 layer_factory.hpp:77] Creating layer Convolution18
I1128 13:09:50.133260  8649 net.cpp:84] Creating Layer Convolution18
I1128 13:09:50.133286  8649 net.cpp:406] Convolution18 <- Eltwise7_ReLU15_0_split_0
I1128 13:09:50.133303  8649 net.cpp:380] Convolution18 -> Convolution18
I1128 13:09:50.135303  8649 net.cpp:122] Setting up Convolution18
I1128 13:09:50.135365  8649 net.cpp:129] Top shape: 10 64 7 7 (31360)
I1128 13:09:50.135383  8649 net.cpp:137] Memory required for data: 30764280
I1128 13:09:50.135406  8649 layer_factory.hpp:77] Creating layer BatchNorm18
I1128 13:09:50.135426  8649 net.cpp:84] Creating Layer BatchNorm18
I1128 13:09:50.135444  8649 net.cpp:406] BatchNorm18 <- Convolution18
I1128 13:09:50.135465  8649 net.cpp:367] BatchNorm18 -> Convolution18 (in-place)
I1128 13:09:50.135710  8649 net.cpp:122] Setting up BatchNorm18
I1128 13:09:50.135736  8649 net.cpp:129] Top shape: 10 64 7 7 (31360)
I1128 13:09:50.135752  8649 net.cpp:137] Memory required for data: 30889720
I1128 13:09:50.135771  8649 layer_factory.hpp:77] Creating layer Scale18
I1128 13:09:50.135789  8649 net.cpp:84] Creating Layer Scale18
I1128 13:09:50.135803  8649 net.cpp:406] Scale18 <- Convolution18
I1128 13:09:50.135820  8649 net.cpp:367] Scale18 -> Convolution18 (in-place)
I1128 13:09:50.135886  8649 layer_factory.hpp:77] Creating layer Scale18
I1128 13:09:50.136037  8649 net.cpp:122] Setting up Scale18
I1128 13:09:50.136062  8649 net.cpp:129] Top shape: 10 64 7 7 (31360)
I1128 13:09:50.136076  8649 net.cpp:137] Memory required for data: 31015160
I1128 13:09:50.136092  8649 layer_factory.hpp:77] Creating layer ReLU16
I1128 13:09:50.136109  8649 net.cpp:84] Creating Layer ReLU16
I1128 13:09:50.136126  8649 net.cpp:406] ReLU16 <- Convolution18
I1128 13:09:50.136142  8649 net.cpp:367] ReLU16 -> Convolution18 (in-place)
I1128 13:09:50.136469  8649 net.cpp:122] Setting up ReLU16
I1128 13:09:50.136500  8649 net.cpp:129] Top shape: 10 64 7 7 (31360)
I1128 13:09:50.136515  8649 net.cpp:137] Memory required for data: 31140600
I1128 13:09:50.136529  8649 layer_factory.hpp:77] Creating layer Convolution19
I1128 13:09:50.136554  8649 net.cpp:84] Creating Layer Convolution19
I1128 13:09:50.136569  8649 net.cpp:406] Convolution19 <- Convolution18
I1128 13:09:50.136589  8649 net.cpp:380] Convolution19 -> Convolution19
I1128 13:09:50.139034  8649 net.cpp:122] Setting up Convolution19
I1128 13:09:50.139060  8649 net.cpp:129] Top shape: 10 64 7 7 (31360)
I1128 13:09:50.139065  8649 net.cpp:137] Memory required for data: 31266040
I1128 13:09:50.139076  8649 layer_factory.hpp:77] Creating layer BatchNorm19
I1128 13:09:50.139089  8649 net.cpp:84] Creating Layer BatchNorm19
I1128 13:09:50.139112  8649 net.cpp:406] BatchNorm19 <- Convolution19
I1128 13:09:50.139132  8649 net.cpp:367] BatchNorm19 -> Convolution19 (in-place)
I1128 13:09:50.139310  8649 net.cpp:122] Setting up BatchNorm19
I1128 13:09:50.139322  8649 net.cpp:129] Top shape: 10 64 7 7 (31360)
I1128 13:09:50.139327  8649 net.cpp:137] Memory required for data: 31391480
I1128 13:09:50.139353  8649 layer_factory.hpp:77] Creating layer Scale19
I1128 13:09:50.139377  8649 net.cpp:84] Creating Layer Scale19
I1128 13:09:50.139392  8649 net.cpp:406] Scale19 <- Convolution19
I1128 13:09:50.139410  8649 net.cpp:367] Scale19 -> Convolution19 (in-place)
I1128 13:09:50.139469  8649 layer_factory.hpp:77] Creating layer Scale19
I1128 13:09:50.139576  8649 net.cpp:122] Setting up Scale19
I1128 13:09:50.139585  8649 net.cpp:129] Top shape: 10 64 7 7 (31360)
I1128 13:09:50.139590  8649 net.cpp:137] Memory required for data: 31516920
I1128 13:09:50.139598  8649 layer_factory.hpp:77] Creating layer Eltwise8
I1128 13:09:50.139622  8649 net.cpp:84] Creating Layer Eltwise8
I1128 13:09:50.139631  8649 net.cpp:406] Eltwise8 <- Convolution19
I1128 13:09:50.139638  8649 net.cpp:406] Eltwise8 <- Eltwise7_ReLU15_0_split_1
I1128 13:09:50.139657  8649 net.cpp:380] Eltwise8 -> Eltwise8
I1128 13:09:50.139696  8649 net.cpp:122] Setting up Eltwise8
I1128 13:09:50.139705  8649 net.cpp:129] Top shape: 10 64 7 7 (31360)
I1128 13:09:50.139710  8649 net.cpp:137] Memory required for data: 31642360
I1128 13:09:50.139715  8649 layer_factory.hpp:77] Creating layer ReLU17
I1128 13:09:50.139741  8649 net.cpp:84] Creating Layer ReLU17
I1128 13:09:50.139757  8649 net.cpp:406] ReLU17 <- Eltwise8
I1128 13:09:50.139776  8649 net.cpp:367] ReLU17 -> Eltwise8 (in-place)
I1128 13:09:50.140158  8649 net.cpp:122] Setting up ReLU17
I1128 13:09:50.140170  8649 net.cpp:129] Top shape: 10 64 7 7 (31360)
I1128 13:09:50.140175  8649 net.cpp:137] Memory required for data: 31767800
I1128 13:09:50.140182  8649 layer_factory.hpp:77] Creating layer Eltwise8_ReLU17_0_split
I1128 13:09:50.140202  8649 net.cpp:84] Creating Layer Eltwise8_ReLU17_0_split
I1128 13:09:50.140216  8649 net.cpp:406] Eltwise8_ReLU17_0_split <- Eltwise8
I1128 13:09:50.140246  8649 net.cpp:380] Eltwise8_ReLU17_0_split -> Eltwise8_ReLU17_0_split_0
I1128 13:09:50.140266  8649 net.cpp:380] Eltwise8_ReLU17_0_split -> Eltwise8_ReLU17_0_split_1
I1128 13:09:50.140323  8649 net.cpp:122] Setting up Eltwise8_ReLU17_0_split
I1128 13:09:50.140336  8649 net.cpp:129] Top shape: 10 64 7 7 (31360)
I1128 13:09:50.140342  8649 net.cpp:129] Top shape: 10 64 7 7 (31360)
I1128 13:09:50.140357  8649 net.cpp:137] Memory required for data: 32018680
I1128 13:09:50.140372  8649 layer_factory.hpp:77] Creating layer Convolution20
I1128 13:09:50.140394  8649 net.cpp:84] Creating Layer Convolution20
I1128 13:09:50.140401  8649 net.cpp:406] Convolution20 <- Eltwise8_ReLU17_0_split_0
I1128 13:09:50.140413  8649 net.cpp:380] Convolution20 -> Convolution20
I1128 13:09:50.141693  8649 net.cpp:122] Setting up Convolution20
I1128 13:09:50.141707  8649 net.cpp:129] Top shape: 10 64 7 7 (31360)
I1128 13:09:50.141712  8649 net.cpp:137] Memory required for data: 32144120
I1128 13:09:50.141721  8649 layer_factory.hpp:77] Creating layer BatchNorm20
I1128 13:09:50.141746  8649 net.cpp:84] Creating Layer BatchNorm20
I1128 13:09:50.141762  8649 net.cpp:406] BatchNorm20 <- Convolution20
I1128 13:09:50.141779  8649 net.cpp:367] BatchNorm20 -> Convolution20 (in-place)
I1128 13:09:50.141952  8649 net.cpp:122] Setting up BatchNorm20
I1128 13:09:50.141963  8649 net.cpp:129] Top shape: 10 64 7 7 (31360)
I1128 13:09:50.141968  8649 net.cpp:137] Memory required for data: 32269560
I1128 13:09:50.141976  8649 layer_factory.hpp:77] Creating layer Scale20
I1128 13:09:50.141996  8649 net.cpp:84] Creating Layer Scale20
I1128 13:09:50.142011  8649 net.cpp:406] Scale20 <- Convolution20
I1128 13:09:50.142027  8649 net.cpp:367] Scale20 -> Convolution20 (in-place)
I1128 13:09:50.142083  8649 layer_factory.hpp:77] Creating layer Scale20
I1128 13:09:50.142186  8649 net.cpp:122] Setting up Scale20
I1128 13:09:50.142195  8649 net.cpp:129] Top shape: 10 64 7 7 (31360)
I1128 13:09:50.142200  8649 net.cpp:137] Memory required for data: 32395000
I1128 13:09:50.142208  8649 layer_factory.hpp:77] Creating layer ReLU18
I1128 13:09:50.142230  8649 net.cpp:84] Creating Layer ReLU18
I1128 13:09:50.142236  8649 net.cpp:406] ReLU18 <- Convolution20
I1128 13:09:50.142243  8649 net.cpp:367] ReLU18 -> Convolution20 (in-place)
I1128 13:09:50.142585  8649 net.cpp:122] Setting up ReLU18
I1128 13:09:50.142598  8649 net.cpp:129] Top shape: 10 64 7 7 (31360)
I1128 13:09:50.142603  8649 net.cpp:137] Memory required for data: 32520440
I1128 13:09:50.142608  8649 layer_factory.hpp:77] Creating layer Convolution21
I1128 13:09:50.142633  8649 net.cpp:84] Creating Layer Convolution21
I1128 13:09:50.142642  8649 net.cpp:406] Convolution21 <- Convolution20
I1128 13:09:50.142650  8649 net.cpp:380] Convolution21 -> Convolution21
I1128 13:09:50.144356  8649 net.cpp:122] Setting up Convolution21
I1128 13:09:50.144388  8649 net.cpp:129] Top shape: 10 64 7 7 (31360)
I1128 13:09:50.144393  8649 net.cpp:137] Memory required for data: 32645880
I1128 13:09:50.144407  8649 layer_factory.hpp:77] Creating layer BatchNorm21
I1128 13:09:50.144420  8649 net.cpp:84] Creating Layer BatchNorm21
I1128 13:09:50.144445  8649 net.cpp:406] BatchNorm21 <- Convolution21
I1128 13:09:50.144469  8649 net.cpp:367] BatchNorm21 -> Convolution21 (in-place)
I1128 13:09:50.144732  8649 net.cpp:122] Setting up BatchNorm21
I1128 13:09:50.144762  8649 net.cpp:129] Top shape: 10 64 7 7 (31360)
I1128 13:09:50.144768  8649 net.cpp:137] Memory required for data: 32771320
I1128 13:09:50.144779  8649 layer_factory.hpp:77] Creating layer Scale21
I1128 13:09:50.144803  8649 net.cpp:84] Creating Layer Scale21
I1128 13:09:50.144819  8649 net.cpp:406] Scale21 <- Convolution21
I1128 13:09:50.144836  8649 net.cpp:367] Scale21 -> Convolution21 (in-place)
I1128 13:09:50.144910  8649 layer_factory.hpp:77] Creating layer Scale21
I1128 13:09:50.145018  8649 net.cpp:122] Setting up Scale21
I1128 13:09:50.145032  8649 net.cpp:129] Top shape: 10 64 7 7 (31360)
I1128 13:09:50.145050  8649 net.cpp:137] Memory required for data: 32896760
I1128 13:09:50.145067  8649 layer_factory.hpp:77] Creating layer Eltwise9
I1128 13:09:50.145087  8649 net.cpp:84] Creating Layer Eltwise9
I1128 13:09:50.145102  8649 net.cpp:406] Eltwise9 <- Convolution21
I1128 13:09:50.145119  8649 net.cpp:406] Eltwise9 <- Eltwise8_ReLU17_0_split_1
I1128 13:09:50.145131  8649 net.cpp:380] Eltwise9 -> Eltwise9
I1128 13:09:50.145170  8649 net.cpp:122] Setting up Eltwise9
I1128 13:09:50.145179  8649 net.cpp:129] Top shape: 10 64 7 7 (31360)
I1128 13:09:50.145184  8649 net.cpp:137] Memory required for data: 33022200
I1128 13:09:50.145200  8649 layer_factory.hpp:77] Creating layer ReLU19
I1128 13:09:50.145218  8649 net.cpp:84] Creating Layer ReLU19
I1128 13:09:50.145233  8649 net.cpp:406] ReLU19 <- Eltwise9
I1128 13:09:50.145249  8649 net.cpp:367] ReLU19 -> Eltwise9 (in-place)
I1128 13:09:50.145514  8649 net.cpp:122] Setting up ReLU19
I1128 13:09:50.145525  8649 net.cpp:129] Top shape: 10 64 7 7 (31360)
I1128 13:09:50.145530  8649 net.cpp:137] Memory required for data: 33147640
I1128 13:09:50.145535  8649 layer_factory.hpp:77] Creating layer Eltwise9_ReLU19_0_split
I1128 13:09:50.145555  8649 net.cpp:84] Creating Layer Eltwise9_ReLU19_0_split
I1128 13:09:50.145570  8649 net.cpp:406] Eltwise9_ReLU19_0_split <- Eltwise9
I1128 13:09:50.145589  8649 net.cpp:380] Eltwise9_ReLU19_0_split -> Eltwise9_ReLU19_0_split_0
I1128 13:09:50.145609  8649 net.cpp:380] Eltwise9_ReLU19_0_split -> Eltwise9_ReLU19_0_split_1
I1128 13:09:50.145660  8649 net.cpp:122] Setting up Eltwise9_ReLU19_0_split
I1128 13:09:50.145669  8649 net.cpp:129] Top shape: 10 64 7 7 (31360)
I1128 13:09:50.145676  8649 net.cpp:129] Top shape: 10 64 7 7 (31360)
I1128 13:09:50.145691  8649 net.cpp:137] Memory required for data: 33398520
I1128 13:09:50.145705  8649 layer_factory.hpp:77] Creating layer Convolution22
I1128 13:09:50.145730  8649 net.cpp:84] Creating Layer Convolution22
I1128 13:09:50.145736  8649 net.cpp:406] Convolution22 <- Eltwise9_ReLU19_0_split_0
I1128 13:09:50.145745  8649 net.cpp:380] Convolution22 -> Convolution22
I1128 13:09:50.147301  8649 net.cpp:122] Setting up Convolution22
I1128 13:09:50.147338  8649 net.cpp:129] Top shape: 10 64 4 4 (10240)
I1128 13:09:50.147356  8649 net.cpp:137] Memory required for data: 33439480
I1128 13:09:50.147375  8649 layer_factory.hpp:77] Creating layer BatchNorm22
I1128 13:09:50.147397  8649 net.cpp:84] Creating Layer BatchNorm22
I1128 13:09:50.147414  8649 net.cpp:406] BatchNorm22 <- Convolution22
I1128 13:09:50.147433  8649 net.cpp:367] BatchNorm22 -> Convolution22 (in-place)
I1128 13:09:50.147653  8649 net.cpp:122] Setting up BatchNorm22
I1128 13:09:50.147676  8649 net.cpp:129] Top shape: 10 64 4 4 (10240)
I1128 13:09:50.147692  8649 net.cpp:137] Memory required for data: 33480440
I1128 13:09:50.147712  8649 layer_factory.hpp:77] Creating layer Scale22
I1128 13:09:50.147733  8649 net.cpp:84] Creating Layer Scale22
I1128 13:09:50.147749  8649 net.cpp:406] Scale22 <- Convolution22
I1128 13:09:50.147768  8649 net.cpp:367] Scale22 -> Convolution22 (in-place)
I1128 13:09:50.147840  8649 layer_factory.hpp:77] Creating layer Scale22
I1128 13:09:50.147945  8649 net.cpp:122] Setting up Scale22
I1128 13:09:50.147955  8649 net.cpp:129] Top shape: 10 64 4 4 (10240)
I1128 13:09:50.147960  8649 net.cpp:137] Memory required for data: 33521400
I1128 13:09:50.147985  8649 layer_factory.hpp:77] Creating layer ReLU20
I1128 13:09:50.148006  8649 net.cpp:84] Creating Layer ReLU20
I1128 13:09:50.148012  8649 net.cpp:406] ReLU20 <- Convolution22
I1128 13:09:50.148030  8649 net.cpp:367] ReLU20 -> Convolution22 (in-place)
I1128 13:09:50.148440  8649 net.cpp:122] Setting up ReLU20
I1128 13:09:50.148453  8649 net.cpp:129] Top shape: 10 64 4 4 (10240)
I1128 13:09:50.148458  8649 net.cpp:137] Memory required for data: 33562360
I1128 13:09:50.148464  8649 layer_factory.hpp:77] Creating layer Convolution23
I1128 13:09:50.148490  8649 net.cpp:84] Creating Layer Convolution23
I1128 13:09:50.148507  8649 net.cpp:406] Convolution23 <- Convolution22
I1128 13:09:50.148526  8649 net.cpp:380] Convolution23 -> Convolution23
I1128 13:09:50.150524  8649 net.cpp:122] Setting up Convolution23
I1128 13:09:50.150568  8649 net.cpp:129] Top shape: 10 64 4 4 (10240)
I1128 13:09:50.150573  8649 net.cpp:137] Memory required for data: 33603320
I1128 13:09:50.150591  8649 layer_factory.hpp:77] Creating layer BatchNorm23
I1128 13:09:50.150610  8649 net.cpp:84] Creating Layer BatchNorm23
I1128 13:09:50.150617  8649 net.cpp:406] BatchNorm23 <- Convolution23
I1128 13:09:50.150635  8649 net.cpp:367] BatchNorm23 -> Convolution23 (in-place)
I1128 13:09:50.150904  8649 net.cpp:122] Setting up BatchNorm23
I1128 13:09:50.150918  8649 net.cpp:129] Top shape: 10 64 4 4 (10240)
I1128 13:09:50.150923  8649 net.cpp:137] Memory required for data: 33644280
I1128 13:09:50.150935  8649 layer_factory.hpp:77] Creating layer Scale23
I1128 13:09:50.150959  8649 net.cpp:84] Creating Layer Scale23
I1128 13:09:50.150974  8649 net.cpp:406] Scale23 <- Convolution23
I1128 13:09:50.150993  8649 net.cpp:367] Scale23 -> Convolution23 (in-place)
I1128 13:09:50.151074  8649 layer_factory.hpp:77] Creating layer Scale23
I1128 13:09:50.151211  8649 net.cpp:122] Setting up Scale23
I1128 13:09:50.151222  8649 net.cpp:129] Top shape: 10 64 4 4 (10240)
I1128 13:09:50.151227  8649 net.cpp:137] Memory required for data: 33685240
I1128 13:09:50.151238  8649 layer_factory.hpp:77] Creating layer Pooling3
I1128 13:09:50.151268  8649 net.cpp:84] Creating Layer Pooling3
I1128 13:09:50.151286  8649 net.cpp:406] Pooling3 <- Eltwise9_ReLU19_0_split_1
I1128 13:09:50.151309  8649 net.cpp:380] Pooling3 -> Pooling3
I1128 13:09:50.151379  8649 net.cpp:122] Setting up Pooling3
I1128 13:09:50.151391  8649 net.cpp:129] Top shape: 10 64 4 4 (10240)
I1128 13:09:50.151396  8649 net.cpp:137] Memory required for data: 33726200
I1128 13:09:50.151401  8649 layer_factory.hpp:77] Creating layer Convolution24
I1128 13:09:50.151430  8649 net.cpp:84] Creating Layer Convolution24
I1128 13:09:50.151448  8649 net.cpp:406] Convolution24 <- Pooling3
I1128 13:09:50.151465  8649 net.cpp:380] Convolution24 -> Convolution24
I1128 13:09:50.153554  8649 net.cpp:122] Setting up Convolution24
I1128 13:09:50.153589  8649 net.cpp:129] Top shape: 10 64 4 4 (10240)
I1128 13:09:50.153594  8649 net.cpp:137] Memory required for data: 33767160
I1128 13:09:50.153607  8649 layer_factory.hpp:77] Creating layer BatchNorm24
I1128 13:09:50.153621  8649 net.cpp:84] Creating Layer BatchNorm24
I1128 13:09:50.153648  8649 net.cpp:406] BatchNorm24 <- Convolution24
I1128 13:09:50.153671  8649 net.cpp:367] BatchNorm24 -> Convolution24 (in-place)
I1128 13:09:50.153888  8649 net.cpp:122] Setting up BatchNorm24
I1128 13:09:50.153903  8649 net.cpp:129] Top shape: 10 64 4 4 (10240)
I1128 13:09:50.153908  8649 net.cpp:137] Memory required for data: 33808120
I1128 13:09:50.153921  8649 layer_factory.hpp:77] Creating layer Scale24
I1128 13:09:50.153956  8649 net.cpp:84] Creating Layer Scale24
I1128 13:09:50.153975  8649 net.cpp:406] Scale24 <- Convolution24
I1128 13:09:50.153995  8649 net.cpp:367] Scale24 -> Convolution24 (in-place)
I1128 13:09:50.154100  8649 layer_factory.hpp:77] Creating layer Scale24
I1128 13:09:50.154242  8649 net.cpp:122] Setting up Scale24
I1128 13:09:50.154255  8649 net.cpp:129] Top shape: 10 64 4 4 (10240)
I1128 13:09:50.154260  8649 net.cpp:137] Memory required for data: 33849080
I1128 13:09:50.154271  8649 layer_factory.hpp:77] Creating layer Eltwise10
I1128 13:09:50.154327  8649 net.cpp:84] Creating Layer Eltwise10
I1128 13:09:50.154346  8649 net.cpp:406] Eltwise10 <- Convolution23
I1128 13:09:50.154364  8649 net.cpp:406] Eltwise10 <- Convolution24
I1128 13:09:50.154383  8649 net.cpp:380] Eltwise10 -> Eltwise10
I1128 13:09:50.154446  8649 net.cpp:122] Setting up Eltwise10
I1128 13:09:50.154456  8649 net.cpp:129] Top shape: 10 64 4 4 (10240)
I1128 13:09:50.154461  8649 net.cpp:137] Memory required for data: 33890040
I1128 13:09:50.154466  8649 layer_factory.hpp:77] Creating layer ReLU21
I1128 13:09:50.154489  8649 net.cpp:84] Creating Layer ReLU21
I1128 13:09:50.154505  8649 net.cpp:406] ReLU21 <- Eltwise10
I1128 13:09:50.154532  8649 net.cpp:367] ReLU21 -> Eltwise10 (in-place)
I1128 13:09:50.154945  8649 net.cpp:122] Setting up ReLU21
I1128 13:09:50.154984  8649 net.cpp:129] Top shape: 10 64 4 4 (10240)
I1128 13:09:50.154989  8649 net.cpp:137] Memory required for data: 33931000
I1128 13:09:50.154999  8649 layer_factory.hpp:77] Creating layer Eltwise10_ReLU21_0_split
I1128 13:09:50.155014  8649 net.cpp:84] Creating Layer Eltwise10_ReLU21_0_split
I1128 13:09:50.155021  8649 net.cpp:406] Eltwise10_ReLU21_0_split <- Eltwise10
I1128 13:09:50.155033  8649 net.cpp:380] Eltwise10_ReLU21_0_split -> Eltwise10_ReLU21_0_split_0
I1128 13:09:50.155079  8649 net.cpp:380] Eltwise10_ReLU21_0_split -> Eltwise10_ReLU21_0_split_1
I1128 13:09:50.155187  8649 net.cpp:122] Setting up Eltwise10_ReLU21_0_split
I1128 13:09:50.155200  8649 net.cpp:129] Top shape: 10 64 4 4 (10240)
I1128 13:09:50.155205  8649 net.cpp:129] Top shape: 10 64 4 4 (10240)
I1128 13:09:50.155210  8649 net.cpp:137] Memory required for data: 34012920
I1128 13:09:50.155227  8649 layer_factory.hpp:77] Creating layer Convolution25
I1128 13:09:50.155256  8649 net.cpp:84] Creating Layer Convolution25
I1128 13:09:50.155272  8649 net.cpp:406] Convolution25 <- Eltwise10_ReLU21_0_split_0
I1128 13:09:50.155295  8649 net.cpp:380] Convolution25 -> Convolution25
I1128 13:09:50.157313  8649 net.cpp:122] Setting up Convolution25
I1128 13:09:50.157338  8649 net.cpp:129] Top shape: 10 64 4 4 (10240)
I1128 13:09:50.157344  8649 net.cpp:137] Memory required for data: 34053880
I1128 13:09:50.157356  8649 layer_factory.hpp:77] Creating layer BatchNorm25
I1128 13:09:50.157369  8649 net.cpp:84] Creating Layer BatchNorm25
I1128 13:09:50.157393  8649 net.cpp:406] BatchNorm25 <- Convolution25
I1128 13:09:50.157413  8649 net.cpp:367] BatchNorm25 -> Convolution25 (in-place)
I1128 13:09:50.157606  8649 net.cpp:122] Setting up BatchNorm25
I1128 13:09:50.157616  8649 net.cpp:129] Top shape: 10 64 4 4 (10240)
I1128 13:09:50.157621  8649 net.cpp:137] Memory required for data: 34094840
I1128 13:09:50.157631  8649 layer_factory.hpp:77] Creating layer Scale25
I1128 13:09:50.157655  8649 net.cpp:84] Creating Layer Scale25
I1128 13:09:50.157670  8649 net.cpp:406] Scale25 <- Convolution25
I1128 13:09:50.157687  8649 net.cpp:367] Scale25 -> Convolution25 (in-place)
I1128 13:09:50.157748  8649 layer_factory.hpp:77] Creating layer Scale25
I1128 13:09:50.157860  8649 net.cpp:122] Setting up Scale25
I1128 13:09:50.157871  8649 net.cpp:129] Top shape: 10 64 4 4 (10240)
I1128 13:09:50.157874  8649 net.cpp:137] Memory required for data: 34135800
I1128 13:09:50.157883  8649 layer_factory.hpp:77] Creating layer ReLU22
I1128 13:09:50.157904  8649 net.cpp:84] Creating Layer ReLU22
I1128 13:09:50.157912  8649 net.cpp:406] ReLU22 <- Convolution25
I1128 13:09:50.157919  8649 net.cpp:367] ReLU22 -> Convolution25 (in-place)
I1128 13:09:50.158361  8649 net.cpp:122] Setting up ReLU22
I1128 13:09:50.158375  8649 net.cpp:129] Top shape: 10 64 4 4 (10240)
I1128 13:09:50.158380  8649 net.cpp:137] Memory required for data: 34176760
I1128 13:09:50.158385  8649 layer_factory.hpp:77] Creating layer Convolution26
I1128 13:09:50.158401  8649 net.cpp:84] Creating Layer Convolution26
I1128 13:09:50.158421  8649 net.cpp:406] Convolution26 <- Convolution25
I1128 13:09:50.158442  8649 net.cpp:380] Convolution26 -> Convolution26
I1128 13:09:50.160591  8649 net.cpp:122] Setting up Convolution26
I1128 13:09:50.160641  8649 net.cpp:129] Top shape: 10 64 4 4 (10240)
I1128 13:09:50.160646  8649 net.cpp:137] Memory required for data: 34217720
I1128 13:09:50.160660  8649 layer_factory.hpp:77] Creating layer BatchNorm26
I1128 13:09:50.160691  8649 net.cpp:84] Creating Layer BatchNorm26
I1128 13:09:50.160712  8649 net.cpp:406] BatchNorm26 <- Convolution26
I1128 13:09:50.160730  8649 net.cpp:367] BatchNorm26 -> Convolution26 (in-place)
I1128 13:09:50.160933  8649 net.cpp:122] Setting up BatchNorm26
I1128 13:09:50.160943  8649 net.cpp:129] Top shape: 10 64 4 4 (10240)
I1128 13:09:50.160948  8649 net.cpp:137] Memory required for data: 34258680
I1128 13:09:50.160959  8649 layer_factory.hpp:77] Creating layer Scale26
I1128 13:09:50.160979  8649 net.cpp:84] Creating Layer Scale26
I1128 13:09:50.160995  8649 net.cpp:406] Scale26 <- Convolution26
I1128 13:09:50.161011  8649 net.cpp:367] Scale26 -> Convolution26 (in-place)
I1128 13:09:50.161077  8649 layer_factory.hpp:77] Creating layer Scale26
I1128 13:09:50.161201  8649 net.cpp:122] Setting up Scale26
I1128 13:09:50.161212  8649 net.cpp:129] Top shape: 10 64 4 4 (10240)
I1128 13:09:50.161217  8649 net.cpp:137] Memory required for data: 34299640
I1128 13:09:50.161226  8649 layer_factory.hpp:77] Creating layer Eltwise11
I1128 13:09:50.161247  8649 net.cpp:84] Creating Layer Eltwise11
I1128 13:09:50.161264  8649 net.cpp:406] Eltwise11 <- Convolution26
I1128 13:09:50.161290  8649 net.cpp:406] Eltwise11 <- Eltwise10_ReLU21_0_split_1
I1128 13:09:50.161300  8649 net.cpp:380] Eltwise11 -> Eltwise11
I1128 13:09:50.161337  8649 net.cpp:122] Setting up Eltwise11
I1128 13:09:50.161346  8649 net.cpp:129] Top shape: 10 64 4 4 (10240)
I1128 13:09:50.161351  8649 net.cpp:137] Memory required for data: 34340600
I1128 13:09:50.161368  8649 layer_factory.hpp:77] Creating layer ReLU23
I1128 13:09:50.161387  8649 net.cpp:84] Creating Layer ReLU23
I1128 13:09:50.161401  8649 net.cpp:406] ReLU23 <- Eltwise11
I1128 13:09:50.161417  8649 net.cpp:367] ReLU23 -> Eltwise11 (in-place)
I1128 13:09:50.162037  8649 net.cpp:122] Setting up ReLU23
I1128 13:09:50.162055  8649 net.cpp:129] Top shape: 10 64 4 4 (10240)
I1128 13:09:50.162060  8649 net.cpp:137] Memory required for data: 34381560
I1128 13:09:50.162066  8649 layer_factory.hpp:77] Creating layer Eltwise11_ReLU23_0_split
I1128 13:09:50.162101  8649 net.cpp:84] Creating Layer Eltwise11_ReLU23_0_split
I1128 13:09:50.162123  8649 net.cpp:406] Eltwise11_ReLU23_0_split <- Eltwise11
I1128 13:09:50.162143  8649 net.cpp:380] Eltwise11_ReLU23_0_split -> Eltwise11_ReLU23_0_split_0
I1128 13:09:50.162164  8649 net.cpp:380] Eltwise11_ReLU23_0_split -> Eltwise11_ReLU23_0_split_1
I1128 13:09:50.162223  8649 net.cpp:122] Setting up Eltwise11_ReLU23_0_split
I1128 13:09:50.162232  8649 net.cpp:129] Top shape: 10 64 4 4 (10240)
I1128 13:09:50.162238  8649 net.cpp:129] Top shape: 10 64 4 4 (10240)
I1128 13:09:50.162243  8649 net.cpp:137] Memory required for data: 34463480
I1128 13:09:50.162259  8649 layer_factory.hpp:77] Creating layer Convolution27
I1128 13:09:50.162284  8649 net.cpp:84] Creating Layer Convolution27
I1128 13:09:50.162292  8649 net.cpp:406] Convolution27 <- Eltwise11_ReLU23_0_split_0
I1128 13:09:50.162302  8649 net.cpp:380] Convolution27 -> Convolution27
I1128 13:09:50.163794  8649 net.cpp:122] Setting up Convolution27
I1128 13:09:50.163820  8649 net.cpp:129] Top shape: 10 64 4 4 (10240)
I1128 13:09:50.163825  8649 net.cpp:137] Memory required for data: 34504440
I1128 13:09:50.163836  8649 layer_factory.hpp:77] Creating layer BatchNorm27
I1128 13:09:50.163849  8649 net.cpp:84] Creating Layer BatchNorm27
I1128 13:09:50.163856  8649 net.cpp:406] BatchNorm27 <- Convolution27
I1128 13:09:50.163884  8649 net.cpp:367] BatchNorm27 -> Convolution27 (in-place)
I1128 13:09:50.164079  8649 net.cpp:122] Setting up BatchNorm27
I1128 13:09:50.164089  8649 net.cpp:129] Top shape: 10 64 4 4 (10240)
I1128 13:09:50.164094  8649 net.cpp:137] Memory required for data: 34545400
I1128 13:09:50.164104  8649 layer_factory.hpp:77] Creating layer Scale27
I1128 13:09:50.164134  8649 net.cpp:84] Creating Layer Scale27
I1128 13:09:50.164149  8649 net.cpp:406] Scale27 <- Convolution27
I1128 13:09:50.164157  8649 net.cpp:367] Scale27 -> Convolution27 (in-place)
I1128 13:09:50.164221  8649 layer_factory.hpp:77] Creating layer Scale27
I1128 13:09:50.164356  8649 net.cpp:122] Setting up Scale27
I1128 13:09:50.164366  8649 net.cpp:129] Top shape: 10 64 4 4 (10240)
I1128 13:09:50.164371  8649 net.cpp:137] Memory required for data: 34586360
I1128 13:09:50.164378  8649 layer_factory.hpp:77] Creating layer ReLU24
I1128 13:09:50.164400  8649 net.cpp:84] Creating Layer ReLU24
I1128 13:09:50.164417  8649 net.cpp:406] ReLU24 <- Convolution27
I1128 13:09:50.164433  8649 net.cpp:367] ReLU24 -> Convolution27 (in-place)
I1128 13:09:50.164671  8649 net.cpp:122] Setting up ReLU24
I1128 13:09:50.164682  8649 net.cpp:129] Top shape: 10 64 4 4 (10240)
I1128 13:09:50.164687  8649 net.cpp:137] Memory required for data: 34627320
I1128 13:09:50.164692  8649 layer_factory.hpp:77] Creating layer Convolution28
I1128 13:09:50.164706  8649 net.cpp:84] Creating Layer Convolution28
I1128 13:09:50.164723  8649 net.cpp:406] Convolution28 <- Convolution27
I1128 13:09:50.164744  8649 net.cpp:380] Convolution28 -> Convolution28
I1128 13:09:50.166270  8649 net.cpp:122] Setting up Convolution28
I1128 13:09:50.166297  8649 net.cpp:129] Top shape: 10 64 4 4 (10240)
I1128 13:09:50.166302  8649 net.cpp:137] Memory required for data: 34668280
I1128 13:09:50.166313  8649 layer_factory.hpp:77] Creating layer BatchNorm28
I1128 13:09:50.166326  8649 net.cpp:84] Creating Layer BatchNorm28
I1128 13:09:50.166349  8649 net.cpp:406] BatchNorm28 <- Convolution28
I1128 13:09:50.166370  8649 net.cpp:367] BatchNorm28 -> Convolution28 (in-place)
I1128 13:09:50.166561  8649 net.cpp:122] Setting up BatchNorm28
I1128 13:09:50.166570  8649 net.cpp:129] Top shape: 10 64 4 4 (10240)
I1128 13:09:50.166575  8649 net.cpp:137] Memory required for data: 34709240
I1128 13:09:50.166585  8649 layer_factory.hpp:77] Creating layer Scale28
I1128 13:09:50.166605  8649 net.cpp:84] Creating Layer Scale28
I1128 13:09:50.166620  8649 net.cpp:406] Scale28 <- Convolution28
I1128 13:09:50.166636  8649 net.cpp:367] Scale28 -> Convolution28 (in-place)
I1128 13:09:50.166694  8649 layer_factory.hpp:77] Creating layer Scale28
I1128 13:09:50.166805  8649 net.cpp:122] Setting up Scale28
I1128 13:09:50.166815  8649 net.cpp:129] Top shape: 10 64 4 4 (10240)
I1128 13:09:50.166818  8649 net.cpp:137] Memory required for data: 34750200
I1128 13:09:50.166827  8649 layer_factory.hpp:77] Creating layer Eltwise12
I1128 13:09:50.166848  8649 net.cpp:84] Creating Layer Eltwise12
I1128 13:09:50.166863  8649 net.cpp:406] Eltwise12 <- Convolution28
I1128 13:09:50.166882  8649 net.cpp:406] Eltwise12 <- Eltwise11_ReLU23_0_split_1
I1128 13:09:50.166901  8649 net.cpp:380] Eltwise12 -> Eltwise12
I1128 13:09:50.166947  8649 net.cpp:122] Setting up Eltwise12
I1128 13:09:50.166959  8649 net.cpp:129] Top shape: 10 64 4 4 (10240)
I1128 13:09:50.166963  8649 net.cpp:137] Memory required for data: 34791160
I1128 13:09:50.166967  8649 layer_factory.hpp:77] Creating layer ReLU25
I1128 13:09:50.166987  8649 net.cpp:84] Creating Layer ReLU25
I1128 13:09:50.167002  8649 net.cpp:406] ReLU25 <- Eltwise12
I1128 13:09:50.167018  8649 net.cpp:367] ReLU25 -> Eltwise12 (in-place)
I1128 13:09:50.167497  8649 net.cpp:122] Setting up ReLU25
I1128 13:09:50.167511  8649 net.cpp:129] Top shape: 10 64 4 4 (10240)
I1128 13:09:50.167516  8649 net.cpp:137] Memory required for data: 34832120
I1128 13:09:50.167521  8649 layer_factory.hpp:77] Creating layer Eltwise12_ReLU25_0_split
I1128 13:09:50.167529  8649 net.cpp:84] Creating Layer Eltwise12_ReLU25_0_split
I1128 13:09:50.167551  8649 net.cpp:406] Eltwise12_ReLU25_0_split <- Eltwise12
I1128 13:09:50.167570  8649 net.cpp:380] Eltwise12_ReLU25_0_split -> Eltwise12_ReLU25_0_split_0
I1128 13:09:50.167584  8649 net.cpp:380] Eltwise12_ReLU25_0_split -> Eltwise12_ReLU25_0_split_1
I1128 13:09:50.167640  8649 net.cpp:122] Setting up Eltwise12_ReLU25_0_split
I1128 13:09:50.167650  8649 net.cpp:129] Top shape: 10 64 4 4 (10240)
I1128 13:09:50.167667  8649 net.cpp:129] Top shape: 10 64 4 4 (10240)
I1128 13:09:50.167682  8649 net.cpp:137] Memory required for data: 34914040
I1128 13:09:50.167696  8649 layer_factory.hpp:77] Creating layer Convolution29
I1128 13:09:50.167721  8649 net.cpp:84] Creating Layer Convolution29
I1128 13:09:50.167727  8649 net.cpp:406] Convolution29 <- Eltwise12_ReLU25_0_split_0
I1128 13:09:50.167738  8649 net.cpp:380] Convolution29 -> Convolution29
I1128 13:09:50.169656  8649 net.cpp:122] Setting up Convolution29
I1128 13:09:50.169721  8649 net.cpp:129] Top shape: 10 64 2 2 (2560)
I1128 13:09:50.169736  8649 net.cpp:137] Memory required for data: 34924280
I1128 13:09:50.169757  8649 layer_factory.hpp:77] Creating layer BatchNorm29
I1128 13:09:50.169778  8649 net.cpp:84] Creating Layer BatchNorm29
I1128 13:09:50.169795  8649 net.cpp:406] BatchNorm29 <- Convolution29
I1128 13:09:50.169812  8649 net.cpp:367] BatchNorm29 -> Convolution29 (in-place)
I1128 13:09:50.170048  8649 net.cpp:122] Setting up BatchNorm29
I1128 13:09:50.170070  8649 net.cpp:129] Top shape: 10 64 2 2 (2560)
I1128 13:09:50.170083  8649 net.cpp:137] Memory required for data: 34934520
I1128 13:09:50.170101  8649 layer_factory.hpp:77] Creating layer Scale29
I1128 13:09:50.170119  8649 net.cpp:84] Creating Layer Scale29
I1128 13:09:50.170132  8649 net.cpp:406] Scale29 <- Convolution29
I1128 13:09:50.170147  8649 net.cpp:367] Scale29 -> Convolution29 (in-place)
I1128 13:09:50.170212  8649 layer_factory.hpp:77] Creating layer Scale29
I1128 13:09:50.170358  8649 net.cpp:122] Setting up Scale29
I1128 13:09:50.170378  8649 net.cpp:129] Top shape: 10 64 2 2 (2560)
I1128 13:09:50.170392  8649 net.cpp:137] Memory required for data: 34944760
I1128 13:09:50.170408  8649 layer_factory.hpp:77] Creating layer ReLU26
I1128 13:09:50.170424  8649 net.cpp:84] Creating Layer ReLU26
I1128 13:09:50.170439  8649 net.cpp:406] ReLU26 <- Convolution29
I1128 13:09:50.170454  8649 net.cpp:367] ReLU26 -> Convolution29 (in-place)
I1128 13:09:50.170732  8649 net.cpp:122] Setting up ReLU26
I1128 13:09:50.170754  8649 net.cpp:129] Top shape: 10 64 2 2 (2560)
I1128 13:09:50.170768  8649 net.cpp:137] Memory required for data: 34955000
I1128 13:09:50.170780  8649 layer_factory.hpp:77] Creating layer Convolution30
I1128 13:09:50.170801  8649 net.cpp:84] Creating Layer Convolution30
I1128 13:09:50.170817  8649 net.cpp:406] Convolution30 <- Convolution29
I1128 13:09:50.170835  8649 net.cpp:380] Convolution30 -> Convolution30
I1128 13:09:50.172924  8649 net.cpp:122] Setting up Convolution30
I1128 13:09:50.172971  8649 net.cpp:129] Top shape: 10 64 2 2 (2560)
I1128 13:09:50.172986  8649 net.cpp:137] Memory required for data: 34965240
I1128 13:09:50.173005  8649 layer_factory.hpp:77] Creating layer BatchNorm30
I1128 13:09:50.173089  8649 net.cpp:84] Creating Layer BatchNorm30
I1128 13:09:50.173107  8649 net.cpp:406] BatchNorm30 <- Convolution30
I1128 13:09:50.173125  8649 net.cpp:367] BatchNorm30 -> Convolution30 (in-place)
I1128 13:09:50.173358  8649 net.cpp:122] Setting up BatchNorm30
I1128 13:09:50.173383  8649 net.cpp:129] Top shape: 10 64 2 2 (2560)
I1128 13:09:50.173398  8649 net.cpp:137] Memory required for data: 34975480
I1128 13:09:50.173418  8649 layer_factory.hpp:77] Creating layer Scale30
I1128 13:09:50.173439  8649 net.cpp:84] Creating Layer Scale30
I1128 13:09:50.173456  8649 net.cpp:406] Scale30 <- Convolution30
I1128 13:09:50.173472  8649 net.cpp:367] Scale30 -> Convolution30 (in-place)
I1128 13:09:50.173544  8649 layer_factory.hpp:77] Creating layer Scale30
I1128 13:09:50.173696  8649 net.cpp:122] Setting up Scale30
I1128 13:09:50.173717  8649 net.cpp:129] Top shape: 10 64 2 2 (2560)
I1128 13:09:50.173732  8649 net.cpp:137] Memory required for data: 34985720
I1128 13:09:50.173749  8649 layer_factory.hpp:77] Creating layer Pooling4
I1128 13:09:50.173769  8649 net.cpp:84] Creating Layer Pooling4
I1128 13:09:50.173784  8649 net.cpp:406] Pooling4 <- Eltwise12_ReLU25_0_split_1
I1128 13:09:50.173802  8649 net.cpp:380] Pooling4 -> Pooling4
I1128 13:09:50.173876  8649 net.cpp:122] Setting up Pooling4
I1128 13:09:50.173895  8649 net.cpp:129] Top shape: 10 64 2 2 (2560)
I1128 13:09:50.173900  8649 net.cpp:137] Memory required for data: 34995960
I1128 13:09:50.173907  8649 layer_factory.hpp:77] Creating layer Convolution31
I1128 13:09:50.173928  8649 net.cpp:84] Creating Layer Convolution31
I1128 13:09:50.173934  8649 net.cpp:406] Convolution31 <- Pooling4
I1128 13:09:50.173943  8649 net.cpp:380] Convolution31 -> Convolution31
I1128 13:09:50.175384  8649 net.cpp:122] Setting up Convolution31
I1128 13:09:50.175437  8649 net.cpp:129] Top shape: 10 64 2 2 (2560)
I1128 13:09:50.175456  8649 net.cpp:137] Memory required for data: 35006200
I1128 13:09:50.175477  8649 layer_factory.hpp:77] Creating layer BatchNorm31
I1128 13:09:50.175504  8649 net.cpp:84] Creating Layer BatchNorm31
I1128 13:09:50.175514  8649 net.cpp:406] BatchNorm31 <- Convolution31
I1128 13:09:50.175525  8649 net.cpp:367] BatchNorm31 -> Convolution31 (in-place)
I1128 13:09:50.175774  8649 net.cpp:122] Setting up BatchNorm31
I1128 13:09:50.175797  8649 net.cpp:129] Top shape: 10 64 2 2 (2560)
I1128 13:09:50.175812  8649 net.cpp:137] Memory required for data: 35016440
I1128 13:09:50.175833  8649 layer_factory.hpp:77] Creating layer Scale31
I1128 13:09:50.175854  8649 net.cpp:84] Creating Layer Scale31
I1128 13:09:50.175871  8649 net.cpp:406] Scale31 <- Convolution31
I1128 13:09:50.175889  8649 net.cpp:367] Scale31 -> Convolution31 (in-place)
I1128 13:09:50.175961  8649 layer_factory.hpp:77] Creating layer Scale31
I1128 13:09:50.176107  8649 net.cpp:122] Setting up Scale31
I1128 13:09:50.176117  8649 net.cpp:129] Top shape: 10 64 2 2 (2560)
I1128 13:09:50.176128  8649 net.cpp:137] Memory required for data: 35026680
I1128 13:09:50.176148  8649 layer_factory.hpp:77] Creating layer Eltwise13
I1128 13:09:50.176174  8649 net.cpp:84] Creating Layer Eltwise13
I1128 13:09:50.176182  8649 net.cpp:406] Eltwise13 <- Convolution30
I1128 13:09:50.176189  8649 net.cpp:406] Eltwise13 <- Convolution31
I1128 13:09:50.176198  8649 net.cpp:380] Eltwise13 -> Eltwise13
I1128 13:09:50.176254  8649 net.cpp:122] Setting up Eltwise13
I1128 13:09:50.176276  8649 net.cpp:129] Top shape: 10 64 2 2 (2560)
I1128 13:09:50.176293  8649 net.cpp:137] Memory required for data: 35036920
I1128 13:09:50.176306  8649 layer_factory.hpp:77] Creating layer ReLU27
I1128 13:09:50.176321  8649 net.cpp:84] Creating Layer ReLU27
I1128 13:09:50.176331  8649 net.cpp:406] ReLU27 <- Eltwise13
I1128 13:09:50.176347  8649 net.cpp:367] ReLU27 -> Eltwise13 (in-place)
I1128 13:09:50.176940  8649 net.cpp:122] Setting up ReLU27
I1128 13:09:50.176975  8649 net.cpp:129] Top shape: 10 64 2 2 (2560)
I1128 13:09:50.176990  8649 net.cpp:137] Memory required for data: 35047160
I1128 13:09:50.177002  8649 layer_factory.hpp:77] Creating layer Eltwise13_ReLU27_0_split
I1128 13:09:50.177022  8649 net.cpp:84] Creating Layer Eltwise13_ReLU27_0_split
I1128 13:09:50.177037  8649 net.cpp:406] Eltwise13_ReLU27_0_split <- Eltwise13
I1128 13:09:50.177055  8649 net.cpp:380] Eltwise13_ReLU27_0_split -> Eltwise13_ReLU27_0_split_0
I1128 13:09:50.177074  8649 net.cpp:380] Eltwise13_ReLU27_0_split -> Eltwise13_ReLU27_0_split_1
I1128 13:09:50.177135  8649 net.cpp:122] Setting up Eltwise13_ReLU27_0_split
I1128 13:09:50.177156  8649 net.cpp:129] Top shape: 10 64 2 2 (2560)
I1128 13:09:50.177171  8649 net.cpp:129] Top shape: 10 64 2 2 (2560)
I1128 13:09:50.177183  8649 net.cpp:137] Memory required for data: 35067640
I1128 13:09:50.177196  8649 layer_factory.hpp:77] Creating layer Convolution32
I1128 13:09:50.177219  8649 net.cpp:84] Creating Layer Convolution32
I1128 13:09:50.177233  8649 net.cpp:406] Convolution32 <- Eltwise13_ReLU27_0_split_0
I1128 13:09:50.177253  8649 net.cpp:380] Convolution32 -> Convolution32
I1128 13:09:50.179216  8649 net.cpp:122] Setting up Convolution32
I1128 13:09:50.179255  8649 net.cpp:129] Top shape: 10 64 2 2 (2560)
I1128 13:09:50.179270  8649 net.cpp:137] Memory required for data: 35077880
I1128 13:09:50.179291  8649 layer_factory.hpp:77] Creating layer BatchNorm32
I1128 13:09:50.179327  8649 net.cpp:84] Creating Layer BatchNorm32
I1128 13:09:50.179345  8649 net.cpp:406] BatchNorm32 <- Convolution32
I1128 13:09:50.179365  8649 net.cpp:367] BatchNorm32 -> Convolution32 (in-place)
I1128 13:09:50.179608  8649 net.cpp:122] Setting up BatchNorm32
I1128 13:09:50.179631  8649 net.cpp:129] Top shape: 10 64 2 2 (2560)
I1128 13:09:50.179646  8649 net.cpp:137] Memory required for data: 35088120
I1128 13:09:50.179666  8649 layer_factory.hpp:77] Creating layer Scale32
I1128 13:09:50.179687  8649 net.cpp:84] Creating Layer Scale32
I1128 13:09:50.179703  8649 net.cpp:406] Scale32 <- Convolution32
I1128 13:09:50.179720  8649 net.cpp:367] Scale32 -> Convolution32 (in-place)
I1128 13:09:50.179786  8649 layer_factory.hpp:77] Creating layer Scale32
I1128 13:09:50.179937  8649 net.cpp:122] Setting up Scale32
I1128 13:09:50.179960  8649 net.cpp:129] Top shape: 10 64 2 2 (2560)
I1128 13:09:50.179975  8649 net.cpp:137] Memory required for data: 35098360
I1128 13:09:50.179992  8649 layer_factory.hpp:77] Creating layer ReLU28
I1128 13:09:50.180011  8649 net.cpp:84] Creating Layer ReLU28
I1128 13:09:50.180027  8649 net.cpp:406] ReLU28 <- Convolution32
I1128 13:09:50.180043  8649 net.cpp:367] ReLU28 -> Convolution32 (in-place)
I1128 13:09:50.180516  8649 net.cpp:122] Setting up ReLU28
I1128 13:09:50.180543  8649 net.cpp:129] Top shape: 10 64 2 2 (2560)
I1128 13:09:50.180559  8649 net.cpp:137] Memory required for data: 35108600
I1128 13:09:50.180573  8649 layer_factory.hpp:77] Creating layer Convolution33
I1128 13:09:50.180598  8649 net.cpp:84] Creating Layer Convolution33
I1128 13:09:50.180614  8649 net.cpp:406] Convolution33 <- Convolution32
I1128 13:09:50.180635  8649 net.cpp:380] Convolution33 -> Convolution33
I1128 13:09:50.183102  8649 net.cpp:122] Setting up Convolution33
I1128 13:09:50.183157  8649 net.cpp:129] Top shape: 10 64 2 2 (2560)
I1128 13:09:50.183172  8649 net.cpp:137] Memory required for data: 35118840
I1128 13:09:50.183193  8649 layer_factory.hpp:77] Creating layer BatchNorm33
I1128 13:09:50.183218  8649 net.cpp:84] Creating Layer BatchNorm33
I1128 13:09:50.183235  8649 net.cpp:406] BatchNorm33 <- Convolution33
I1128 13:09:50.183254  8649 net.cpp:367] BatchNorm33 -> Convolution33 (in-place)
I1128 13:09:50.183504  8649 net.cpp:122] Setting up BatchNorm33
I1128 13:09:50.183529  8649 net.cpp:129] Top shape: 10 64 2 2 (2560)
I1128 13:09:50.183545  8649 net.cpp:137] Memory required for data: 35129080
I1128 13:09:50.183565  8649 layer_factory.hpp:77] Creating layer Scale33
I1128 13:09:50.183583  8649 net.cpp:84] Creating Layer Scale33
I1128 13:09:50.183598  8649 net.cpp:406] Scale33 <- Convolution33
I1128 13:09:50.183614  8649 net.cpp:367] Scale33 -> Convolution33 (in-place)
I1128 13:09:50.183682  8649 layer_factory.hpp:77] Creating layer Scale33
I1128 13:09:50.183836  8649 net.cpp:122] Setting up Scale33
I1128 13:09:50.183858  8649 net.cpp:129] Top shape: 10 64 2 2 (2560)
I1128 13:09:50.183873  8649 net.cpp:137] Memory required for data: 35139320
I1128 13:09:50.183893  8649 layer_factory.hpp:77] Creating layer Eltwise14
I1128 13:09:50.183913  8649 net.cpp:84] Creating Layer Eltwise14
I1128 13:09:50.183929  8649 net.cpp:406] Eltwise14 <- Convolution33
I1128 13:09:50.183945  8649 net.cpp:406] Eltwise14 <- Eltwise13_ReLU27_0_split_1
I1128 13:09:50.183964  8649 net.cpp:380] Eltwise14 -> Eltwise14
I1128 13:09:50.184008  8649 net.cpp:122] Setting up Eltwise14
I1128 13:09:50.184028  8649 net.cpp:129] Top shape: 10 64 2 2 (2560)
I1128 13:09:50.184042  8649 net.cpp:137] Memory required for data: 35149560
I1128 13:09:50.184058  8649 layer_factory.hpp:77] Creating layer ReLU29
I1128 13:09:50.184075  8649 net.cpp:84] Creating Layer ReLU29
I1128 13:09:50.184089  8649 net.cpp:406] ReLU29 <- Eltwise14
I1128 13:09:50.184108  8649 net.cpp:367] ReLU29 -> Eltwise14 (in-place)
I1128 13:09:50.184411  8649 net.cpp:122] Setting up ReLU29
I1128 13:09:50.184440  8649 net.cpp:129] Top shape: 10 64 2 2 (2560)
I1128 13:09:50.184456  8649 net.cpp:137] Memory required for data: 35159800
I1128 13:09:50.184478  8649 layer_factory.hpp:77] Creating layer Eltwise14_ReLU29_0_split
I1128 13:09:50.184506  8649 net.cpp:84] Creating Layer Eltwise14_ReLU29_0_split
I1128 13:09:50.184521  8649 net.cpp:406] Eltwise14_ReLU29_0_split <- Eltwise14
I1128 13:09:50.184541  8649 net.cpp:380] Eltwise14_ReLU29_0_split -> Eltwise14_ReLU29_0_split_0
I1128 13:09:50.184563  8649 net.cpp:380] Eltwise14_ReLU29_0_split -> Eltwise14_ReLU29_0_split_1
I1128 13:09:50.184638  8649 net.cpp:122] Setting up Eltwise14_ReLU29_0_split
I1128 13:09:50.184659  8649 net.cpp:129] Top shape: 10 64 2 2 (2560)
I1128 13:09:50.184675  8649 net.cpp:129] Top shape: 10 64 2 2 (2560)
I1128 13:09:50.184689  8649 net.cpp:137] Memory required for data: 35180280
I1128 13:09:50.184705  8649 layer_factory.hpp:77] Creating layer Convolution34
I1128 13:09:50.184728  8649 net.cpp:84] Creating Layer Convolution34
I1128 13:09:50.184751  8649 net.cpp:406] Convolution34 <- Eltwise14_ReLU29_0_split_0
I1128 13:09:50.184772  8649 net.cpp:380] Convolution34 -> Convolution34
I1128 13:09:50.186767  8649 net.cpp:122] Setting up Convolution34
I1128 13:09:50.186797  8649 net.cpp:129] Top shape: 10 64 2 2 (2560)
I1128 13:09:50.186802  8649 net.cpp:137] Memory required for data: 35190520
I1128 13:09:50.186815  8649 layer_factory.hpp:77] Creating layer BatchNorm34
I1128 13:09:50.186830  8649 net.cpp:84] Creating Layer BatchNorm34
I1128 13:09:50.186859  8649 net.cpp:406] BatchNorm34 <- Convolution34
I1128 13:09:50.186882  8649 net.cpp:367] BatchNorm34 -> Convolution34 (in-place)
I1128 13:09:50.187075  8649 net.cpp:122] Setting up BatchNorm34
I1128 13:09:50.187084  8649 net.cpp:129] Top shape: 10 64 2 2 (2560)
I1128 13:09:50.187089  8649 net.cpp:137] Memory required for data: 35200760
I1128 13:09:50.187099  8649 layer_factory.hpp:77] Creating layer Scale34
I1128 13:09:50.187120  8649 net.cpp:84] Creating Layer Scale34
I1128 13:09:50.187135  8649 net.cpp:406] Scale34 <- Convolution34
I1128 13:09:50.187153  8649 net.cpp:367] Scale34 -> Convolution34 (in-place)
I1128 13:09:50.187218  8649 layer_factory.hpp:77] Creating layer Scale34
I1128 13:09:50.187340  8649 net.cpp:122] Setting up Scale34
I1128 13:09:50.187350  8649 net.cpp:129] Top shape: 10 64 2 2 (2560)
I1128 13:09:50.187355  8649 net.cpp:137] Memory required for data: 35211000
I1128 13:09:50.187363  8649 layer_factory.hpp:77] Creating layer ReLU30
I1128 13:09:50.187384  8649 net.cpp:84] Creating Layer ReLU30
I1128 13:09:50.187399  8649 net.cpp:406] ReLU30 <- Convolution34
I1128 13:09:50.187417  8649 net.cpp:367] ReLU30 -> Convolution34 (in-place)
I1128 13:09:50.187851  8649 net.cpp:122] Setting up ReLU30
I1128 13:09:50.187865  8649 net.cpp:129] Top shape: 10 64 2 2 (2560)
I1128 13:09:50.187870  8649 net.cpp:137] Memory required for data: 35221240
I1128 13:09:50.187875  8649 layer_factory.hpp:77] Creating layer Convolution35
I1128 13:09:50.187901  8649 net.cpp:84] Creating Layer Convolution35
I1128 13:09:50.187917  8649 net.cpp:406] Convolution35 <- Convolution34
I1128 13:09:50.187937  8649 net.cpp:380] Convolution35 -> Convolution35
I1128 13:09:50.189554  8649 net.cpp:122] Setting up Convolution35
I1128 13:09:50.189586  8649 net.cpp:129] Top shape: 10 64 2 2 (2560)
I1128 13:09:50.189591  8649 net.cpp:137] Memory required for data: 35231480
I1128 13:09:50.189604  8649 layer_factory.hpp:77] Creating layer BatchNorm35
I1128 13:09:50.189620  8649 net.cpp:84] Creating Layer BatchNorm35
I1128 13:09:50.189626  8649 net.cpp:406] BatchNorm35 <- Convolution35
I1128 13:09:50.189637  8649 net.cpp:367] BatchNorm35 -> Convolution35 (in-place)
I1128 13:09:50.189863  8649 net.cpp:122] Setting up BatchNorm35
I1128 13:09:50.189874  8649 net.cpp:129] Top shape: 10 64 2 2 (2560)
I1128 13:09:50.189879  8649 net.cpp:137] Memory required for data: 35241720
I1128 13:09:50.189890  8649 layer_factory.hpp:77] Creating layer Scale35
I1128 13:09:50.189916  8649 net.cpp:84] Creating Layer Scale35
I1128 13:09:50.189932  8649 net.cpp:406] Scale35 <- Convolution35
I1128 13:09:50.189952  8649 net.cpp:367] Scale35 -> Convolution35 (in-place)
I1128 13:09:50.190030  8649 layer_factory.hpp:77] Creating layer Scale35
I1128 13:09:50.190168  8649 net.cpp:122] Setting up Scale35
I1128 13:09:50.190181  8649 net.cpp:129] Top shape: 10 64 2 2 (2560)
I1128 13:09:50.190187  8649 net.cpp:137] Memory required for data: 35251960
I1128 13:09:50.190196  8649 layer_factory.hpp:77] Creating layer Eltwise15
I1128 13:09:50.190203  8649 net.cpp:84] Creating Layer Eltwise15
I1128 13:09:50.190208  8649 net.cpp:406] Eltwise15 <- Convolution35
I1128 13:09:50.190214  8649 net.cpp:406] Eltwise15 <- Eltwise14_ReLU29_0_split_1
I1128 13:09:50.190223  8649 net.cpp:380] Eltwise15 -> Eltwise15
I1128 13:09:50.190256  8649 net.cpp:122] Setting up Eltwise15
I1128 13:09:50.190281  8649 net.cpp:129] Top shape: 10 64 2 2 (2560)
I1128 13:09:50.190297  8649 net.cpp:137] Memory required for data: 35262200
I1128 13:09:50.190311  8649 layer_factory.hpp:77] Creating layer ReLU31
I1128 13:09:50.190327  8649 net.cpp:84] Creating Layer ReLU31
I1128 13:09:50.190341  8649 net.cpp:406] ReLU31 <- Eltwise15
I1128 13:09:50.190358  8649 net.cpp:367] ReLU31 -> Eltwise15 (in-place)
I1128 13:09:50.190623  8649 net.cpp:122] Setting up ReLU31
I1128 13:09:50.190634  8649 net.cpp:129] Top shape: 10 64 2 2 (2560)
I1128 13:09:50.190639  8649 net.cpp:137] Memory required for data: 35272440
I1128 13:09:50.190644  8649 layer_factory.hpp:77] Creating layer Pooling5
I1128 13:09:50.190657  8649 net.cpp:84] Creating Layer Pooling5
I1128 13:09:50.190678  8649 net.cpp:406] Pooling5 <- Eltwise15
I1128 13:09:50.190701  8649 net.cpp:380] Pooling5 -> Pooling5
I1128 13:09:50.191236  8649 net.cpp:122] Setting up Pooling5
I1128 13:09:50.191256  8649 net.cpp:129] Top shape: 10 64 1 1 (640)
I1128 13:09:50.191260  8649 net.cpp:137] Memory required for data: 35275000
I1128 13:09:50.191267  8649 layer_factory.hpp:77] Creating layer InnerProduct1
I1128 13:09:50.191278  8649 net.cpp:84] Creating Layer InnerProduct1
I1128 13:09:50.191284  8649 net.cpp:406] InnerProduct1 <- Pooling5
I1128 13:09:50.191295  8649 net.cpp:380] InnerProduct1 -> InnerProduct1
I1128 13:09:50.191465  8649 net.cpp:122] Setting up InnerProduct1
I1128 13:09:50.191475  8649 net.cpp:129] Top shape: 10 10 (100)
I1128 13:09:50.191480  8649 net.cpp:137] Memory required for data: 35275400
I1128 13:09:50.191489  8649 layer_factory.hpp:77] Creating layer InnerProduct1_InnerProduct1_0_split
I1128 13:09:50.191512  8649 net.cpp:84] Creating Layer InnerProduct1_InnerProduct1_0_split
I1128 13:09:50.191530  8649 net.cpp:406] InnerProduct1_InnerProduct1_0_split <- InnerProduct1
I1128 13:09:50.191550  8649 net.cpp:380] InnerProduct1_InnerProduct1_0_split -> InnerProduct1_InnerProduct1_0_split_0
I1128 13:09:50.191565  8649 net.cpp:380] InnerProduct1_InnerProduct1_0_split -> InnerProduct1_InnerProduct1_0_split_1
I1128 13:09:50.191625  8649 net.cpp:122] Setting up InnerProduct1_InnerProduct1_0_split
I1128 13:09:50.191635  8649 net.cpp:129] Top shape: 10 10 (100)
I1128 13:09:50.191642  8649 net.cpp:129] Top shape: 10 10 (100)
I1128 13:09:50.191645  8649 net.cpp:137] Memory required for data: 35276200
I1128 13:09:50.191663  8649 layer_factory.hpp:77] Creating layer Accuracy1
I1128 13:09:50.191682  8649 net.cpp:84] Creating Layer Accuracy1
I1128 13:09:50.191697  8649 net.cpp:406] Accuracy1 <- InnerProduct1_InnerProduct1_0_split_0
I1128 13:09:50.191715  8649 net.cpp:406] Accuracy1 <- Data2_Data1_1_split_0
I1128 13:09:50.191731  8649 net.cpp:380] Accuracy1 -> Accuracy1
…
