…
I1028 14:12:04.534721 12618 net.cpp:294] The NetState phase (0) differed from the phase (1) specified by a rule in layer acc
I1028 14:12:04.534827 12618 net.cpp:51] Initializing net from parameters: 
state {
  phase: TRAIN
  level: 0
  stage: ""
}
layer {
  name: "face"
  type: "Data"
  top: "data"
  top: "label"
  include {
    phase: TRAIN
  }
  transform_param {
    scale: 0.00390625
  }
  data_param {
    source: "/home/ljf/caffe-master/examples/ljftest_alphabet/train_lmdb"
    batch_size: 128
    backend: LMDB
  }
  image_data_param {
    shuffle: true
  }
}
layer {
  name: "conv1"
  type: "Convolution"
  bottom: "data"
  top: "conv1"
  param {
    lr_mult: 1
  }
  param {
    lr_mult: 2
  }
  convolution_param {
    num_output: 32
    pad: 1
    kernel_size: 3
    stride: 1
    weight_filler {
      type: "gaussian"
      std: 0.1
    }
    bias_filler {
      type: "constant"
      value: 0
    }
  }
}
layer {
  name: "relu1"
  type: "ReLU"
  bottom: "conv1"
  top: "conv1"
}
layer {
  name: "pool1"
  type: "Pooling"
  bottom: "conv1"
  top: "pool1"
  pooling_param {
    pool: MAX
    kernel_size: 2
    stride: 2
    pad: 0
  }
}
layer {
  name: "norm1"
  type: "LRN"
  bottom: "pool1"
  top: "norm1"
  lrn_param {
    local_size: 5
    alpha: 0.00011111111
    beta: 0.75
  }
}
layer {
  name: "conv2"
  type: "Convolution"
  bottom: "norm1"
  top: "conv2"
  param {
    lr_mult: 1
  }
  param {
    lr_mult: 2
  }
  convolution_param {
    num_output: 64
    pad: 1
    kernel_size: 3
    stride: 1
    weight_filler {
      type: "gaussian"
      std: 0.1
    }
    bias_filler {
      type: "constant"
      value: 0.1
    }
  }
}
layer {
  name: "relu2"
  type: "ReLU"
  bottom: "conv2"
  top: "conv2"
}
layer {
  name: "pool2"
  type: "Pooling"
  bottom: "conv2"
  top: "pool2"
  pooling_param {
    pool: MAX
    kernel_size: 2
    stride: 2
    pad: 0
  }
}
layer {
  name: "norm2"
  type: "LRN"
  bottom: "pool2"
  top: "norm2"
  lrn_param {
    local_size: 5
    alpha: 0.00011111111
    beta: 0.75
  }
}
layer {
  name: "conv3"
  type: "Convolution"
  bottom: "norm2"
  top: "conv3"
  param {
    lr_mult: 1
  }
  param {
    lr_mult: 2
  }
  convolution_param {
    num_output: 64
    pad: 1
    kernel_size: 3
    stride: 1
    weight_filler {
      type: "gaussian"
      std: 0.1
    }
    bias_filler {
      type: "constant"
      value: 0
    }
  }
}
layer {
  name: "relu3"
  type: "ReLU"
  bottom: "conv3"
  top: "conv3"
}
layer {
  name: "pool3"
  type: "Pooling"
  bottom: "conv3"
  top: "pool3"
  pooling_param {
    pool: MAX
    kernel_size: 2
    stride: 2
    pad: 0
  }
}
layer {
  name: "norm3"
  type: "LRN"
  bottom: "pool3"
  top: "norm3"
  lrn_param {
    local_size: 5
    alpha: 0.00011111111
    beta: 0.75
  }
}
layer {
  name: "conv4"
  type: "Convolution"
  bottom: "norm3"
  top: "conv4"
  param {
    lr_mult: 1
  }
  param {
    lr_mult: 2
  }
  convolution_param {
    num_output: 64
    pad: 1
    kernel_size: 3
    stride: 1
    weight_filler {
      type: "gaussian"
      std: 0.1
    }
    bias_filler {
      type: "constant"
      value: 0
    }
  }
}
layer {
  name: "relu4"
  type: "ReLU"
  bottom: "conv4"
  top: "conv4"
}
layer {
  name: "pool4"
  type: "Pooling"
  bottom: "conv4"
  top: "pool4"
  pooling_param {
    pool: MAX
    kernel_size: 2
    stride: 2
    pad: 0
  }
}
layer {
  name: "norm4"
  type: "LRN"
  bottom: "pool4"
  top: "norm4"
  lrn_param {
    local_size: 3
    alpha: 0.00011111111
    beta: 0.75
  }
}
layer {
  name: "fc65"
  type: "InnerProduct"
  bottom: "norm4"
  top: "fc65"
  inner_product_param {
    num_output: 1024
    weight_filler {
      type: "gaussian"
      std: 0.0009765625
    }
    bias_filler {
      type: "constant"
      value: 0.1
    }
  }
}
layer {
  name: "relu65"
  type: "ReLU"
  bottom: "fc65"
  top: "fc65"
}
layer {
  name: "drop65"
  type: "Dropout"
  bottom: "fc65"
  top: "fc65"
  dropout_param {
    dropout_ratio: 0.1
  }
}
layer {
  name: "fc100"
  type: "InnerProduct"
  bottom: "fc65"
  top: "fc100"
  inner_product_param {
    num_output: 62
    weight_filler {
      type: "gaussian"
      std: 0.1
    }
    bias_filler {
      type: "constant"
      value: 0
    }
  }
}
layer {
  name: "loss"
  type: "SoftmaxWithLoss"
  bottom: "fc100"
  bottom: "label"
  top: "loss"
}
I1028 14:12:04.534939 12618 layer_factory.hpp:77] Creating layer face
I1028 14:12:04.535058 12618 db_lmdb.cpp:35] Opened lmdb /home/ljf/caffe-master/examples/ljftest_alphabet/train_lmdb
I1028 14:12:04.535100 12618 net.cpp:84] Creating Layer face
I1028 14:12:04.535107 12618 net.cpp:380] face -> data
I1028 14:12:04.535123 12618 net.cpp:380] face -> label
I1028 14:12:04.535804 12618 data_layer.cpp:45] output data size: 128,3,32,32
I1028 14:12:04.540050 12618 net.cpp:122] Setting up face
I1028 14:12:04.540066 12618 net.cpp:129] Top shape: 128 3 32 32 (393216)
I1028 14:12:04.540069 12618 net.cpp:129] Top shape: 128 (128)
I1028 14:12:04.540072 12618 net.cpp:137] Memory required for data: 1573376
I1028 14:12:04.540079 12618 layer_factory.hpp:77] Creating layer conv1
I1028 14:12:04.540115 12618 net.cpp:84] Creating Layer conv1
I1028 14:12:04.540132 12618 net.cpp:406] conv1 <- data
I1028 14:12:04.540158 12618 net.cpp:380] conv1 -> conv1
I1028 14:12:04.702783 12618 net.cpp:122] Setting up conv1
I1028 14:12:04.702821 12618 net.cpp:129] Top shape: 128 32 32 32 (4194304)
I1028 14:12:04.702822 12618 net.cpp:137] Memory required for data: 18350592
I1028 14:12:04.702846 12618 layer_factory.hpp:77] Creating layer relu1
I1028 14:12:04.702858 12618 net.cpp:84] Creating Layer relu1
I1028 14:12:04.702864 12618 net.cpp:406] relu1 <- conv1
I1028 14:12:04.702870 12618 net.cpp:367] relu1 -> conv1 (in-place)
I1028 14:12:04.703032 12618 net.cpp:122] Setting up relu1
I1028 14:12:04.703038 12618 net.cpp:129] Top shape: 128 32 32 32 (4194304)
I1028 14:12:04.703054 12618 net.cpp:137] Memory required for data: 35127808
I1028 14:12:04.703057 12618 layer_factory.hpp:77] Creating layer pool1
I1028 14:12:04.703060 12618 net.cpp:84] Creating Layer pool1
I1028 14:12:04.703063 12618 net.cpp:406] pool1 <- conv1
I1028 14:12:04.703065 12618 net.cpp:380] pool1 -> pool1
I1028 14:12:04.703099 12618 net.cpp:122] Setting up pool1
I1028 14:12:04.703104 12618 net.cpp:129] Top shape: 128 32 16 16 (1048576)
I1028 14:12:04.703105 12618 net.cpp:137] Memory required for data: 39322112
I1028 14:12:04.703107 12618 layer_factory.hpp:77] Creating layer norm1
I1028 14:12:04.703114 12618 net.cpp:84] Creating Layer norm1
I1028 14:12:04.703115 12618 net.cpp:406] norm1 <- pool1
I1028 14:12:04.703119 12618 net.cpp:380] norm1 -> norm1
I1028 14:12:04.703245 12618 net.cpp:122] Setting up norm1
I1028 14:12:04.703250 12618 net.cpp:129] Top shape: 128 32 16 16 (1048576)
I1028 14:12:04.703266 12618 net.cpp:137] Memory required for data: 43516416
I1028 14:12:04.703269 12618 layer_factory.hpp:77] Creating layer conv2
I1028 14:12:04.703275 12618 net.cpp:84] Creating Layer conv2
I1028 14:12:04.703277 12618 net.cpp:406] conv2 <- norm1
I1028 14:12:04.703280 12618 net.cpp:380] conv2 -> conv2
I1028 14:12:04.704567 12618 net.cpp:122] Setting up conv2
I1028 14:12:04.704576 12618 net.cpp:129] Top shape: 128 64 16 16 (2097152)
I1028 14:12:04.704592 12618 net.cpp:137] Memory required for data: 51905024
I1028 14:12:04.704597 12618 layer_factory.hpp:77] Creating layer relu2
I1028 14:12:04.704612 12618 net.cpp:84] Creating Layer relu2
I1028 14:12:04.704615 12618 net.cpp:406] relu2 <- conv2
I1028 14:12:04.704618 12618 net.cpp:367] relu2 -> conv2 (in-place)
I1028 14:12:04.704754 12618 net.cpp:122] Setting up relu2
I1028 14:12:04.704761 12618 net.cpp:129] Top shape: 128 64 16 16 (2097152)
I1028 14:12:04.704777 12618 net.cpp:137] Memory required for data: 60293632
I1028 14:12:04.704777 12618 layer_factory.hpp:77] Creating layer pool2
I1028 14:12:04.704780 12618 net.cpp:84] Creating Layer pool2
I1028 14:12:04.704783 12618 net.cpp:406] pool2 <- conv2
I1028 14:12:04.704785 12618 net.cpp:380] pool2 -> pool2
I1028 14:12:04.704805 12618 net.cpp:122] Setting up pool2
I1028 14:12:04.704809 12618 net.cpp:129] Top shape: 128 64 8 8 (524288)
I1028 14:12:04.704812 12618 net.cpp:137] Memory required for data: 62390784
I1028 14:12:04.704813 12618 layer_factory.hpp:77] Creating layer norm2
I1028 14:12:04.704818 12618 net.cpp:84] Creating Layer norm2
I1028 14:12:04.704818 12618 net.cpp:406] norm2 <- pool2
I1028 14:12:04.704821 12618 net.cpp:380] norm2 -> norm2
I1028 14:12:04.705147 12618 net.cpp:122] Setting up norm2
I1028 14:12:04.705154 12618 net.cpp:129] Top shape: 128 64 8 8 (524288)
I1028 14:12:04.705171 12618 net.cpp:137] Memory required for data: 64487936
I1028 14:12:04.705173 12618 layer_factory.hpp:77] Creating layer conv3
I1028 14:12:04.705178 12618 net.cpp:84] Creating Layer conv3
I1028 14:12:04.705180 12618 net.cpp:406] conv3 <- norm2
I1028 14:12:04.705183 12618 net.cpp:380] conv3 -> conv3
I1028 14:12:04.706207 12618 net.cpp:122] Setting up conv3
I1028 14:12:04.706214 12618 net.cpp:129] Top shape: 128 64 8 8 (524288)
I1028 14:12:04.706229 12618 net.cpp:137] Memory required for data: 66585088
I1028 14:12:04.706234 12618 layer_factory.hpp:77] Creating layer relu3
I1028 14:12:04.706238 12618 net.cpp:84] Creating Layer relu3
I1028 14:12:04.706241 12618 net.cpp:406] relu3 <- conv3
I1028 14:12:04.706244 12618 net.cpp:367] relu3 -> conv3 (in-place)
I1028 14:12:04.706382 12618 net.cpp:122] Setting up relu3
I1028 14:12:04.706387 12618 net.cpp:129] Top shape: 128 64 8 8 (524288)
I1028 14:12:04.706389 12618 net.cpp:137] Memory required for data: 68682240
I1028 14:12:04.706392 12618 layer_factory.hpp:77] Creating layer pool3
I1028 14:12:04.706406 12618 net.cpp:84] Creating Layer pool3
I1028 14:12:04.706408 12618 net.cpp:406] pool3 <- conv3
I1028 14:12:04.706411 12618 net.cpp:380] pool3 -> pool3
I1028 14:12:04.706449 12618 net.cpp:122] Setting up pool3
I1028 14:12:04.706452 12618 net.cpp:129] Top shape: 128 64 4 4 (131072)
I1028 14:12:04.706454 12618 net.cpp:137] Memory required for data: 69206528
I1028 14:12:04.706456 12618 layer_factory.hpp:77] Creating layer norm3
I1028 14:12:04.706459 12618 net.cpp:84] Creating Layer norm3
I1028 14:12:04.706461 12618 net.cpp:406] norm3 <- pool3
I1028 14:12:04.706463 12618 net.cpp:380] norm3 -> norm3
I1028 14:12:04.706629 12618 net.cpp:122] Setting up norm3
I1028 14:12:04.706634 12618 net.cpp:129] Top shape: 128 64 4 4 (131072)
I1028 14:12:04.706650 12618 net.cpp:137] Memory required for data: 69730816
I1028 14:12:04.706651 12618 layer_factory.hpp:77] Creating layer conv4
I1028 14:12:04.706656 12618 net.cpp:84] Creating Layer conv4
I1028 14:12:04.706658 12618 net.cpp:406] conv4 <- norm3
I1028 14:12:04.706661 12618 net.cpp:380] conv4 -> conv4
I1028 14:12:04.707501 12618 net.cpp:122] Setting up conv4
I1028 14:12:04.707509 12618 net.cpp:129] Top shape: 128 64 4 4 (131072)
I1028 14:12:04.707525 12618 net.cpp:137] Memory required for data: 70255104
I1028 14:12:04.707530 12618 layer_factory.hpp:77] Creating layer relu4
I1028 14:12:04.707532 12618 net.cpp:84] Creating Layer relu4
I1028 14:12:04.707535 12618 net.cpp:406] relu4 <- conv4
I1028 14:12:04.707538 12618 net.cpp:367] relu4 -> conv4 (in-place)
I1028 14:12:04.707653 12618 net.cpp:122] Setting up relu4
I1028 14:12:04.707659 12618 net.cpp:129] Top shape: 128 64 4 4 (131072)
I1028 14:12:04.707675 12618 net.cpp:137] Memory required for data: 70779392
I1028 14:12:04.707676 12618 layer_factory.hpp:77] Creating layer pool4
I1028 14:12:04.707685 12618 net.cpp:84] Creating Layer pool4
I1028 14:12:04.707687 12618 net.cpp:406] pool4 <- conv4
I1028 14:12:04.707691 12618 net.cpp:380] pool4 -> pool4
I1028 14:12:04.707716 12618 net.cpp:122] Setting up pool4
I1028 14:12:04.707720 12618 net.cpp:129] Top shape: 128 64 2 2 (32768)
I1028 14:12:04.707721 12618 net.cpp:137] Memory required for data: 70910464
I1028 14:12:04.707723 12618 layer_factory.hpp:77] Creating layer norm4
I1028 14:12:04.707727 12618 net.cpp:84] Creating Layer norm4
I1028 14:12:04.707729 12618 net.cpp:406] norm4 <- pool4
I1028 14:12:04.707732 12618 net.cpp:380] norm4 -> norm4
I1028 14:12:04.707881 12618 net.cpp:122] Setting up norm4
I1028 14:12:04.707887 12618 net.cpp:129] Top shape: 128 64 2 2 (32768)
I1028 14:12:04.707890 12618 net.cpp:137] Memory required for data: 71041536
I1028 14:12:04.707891 12618 layer_factory.hpp:77] Creating layer fc65
I1028 14:12:04.707897 12618 net.cpp:84] Creating Layer fc65
I1028 14:12:04.707900 12618 net.cpp:406] fc65 <- norm4
I1028 14:12:04.707903 12618 net.cpp:380] fc65 -> fc65
I1028 14:12:04.710136 12618 net.cpp:122] Setting up fc65
I1028 14:12:04.710144 12618 net.cpp:129] Top shape: 128 1024 (131072)
I1028 14:12:04.710146 12618 net.cpp:137] Memory required for data: 71565824
I1028 14:12:04.710165 12618 layer_factory.hpp:77] Creating layer relu65
I1028 14:12:04.710168 12618 net.cpp:84] Creating Layer relu65
I1028 14:12:04.710170 12618 net.cpp:406] relu65 <- fc65
I1028 14:12:04.710188 12618 net.cpp:367] relu65 -> fc65 (in-place)
I1028 14:12:04.710474 12618 net.cpp:122] Setting up relu65
I1028 14:12:04.710482 12618 net.cpp:129] Top shape: 128 1024 (131072)
I1028 14:12:04.710499 12618 net.cpp:137] Memory required for data: 72090112
I1028 14:12:04.710500 12618 layer_factory.hpp:77] Creating layer drop65
I1028 14:12:04.710505 12618 net.cpp:84] Creating Layer drop65
I1028 14:12:04.710507 12618 net.cpp:406] drop65 <- fc65
I1028 14:12:04.710510 12618 net.cpp:367] drop65 -> fc65 (in-place)
I1028 14:12:04.710526 12618 net.cpp:122] Setting up drop65
I1028 14:12:04.710530 12618 net.cpp:129] Top shape: 128 1024 (131072)
I1028 14:12:04.710531 12618 net.cpp:137] Memory required for data: 72614400
I1028 14:12:04.710533 12618 layer_factory.hpp:77] Creating layer fc100
I1028 14:12:04.710536 12618 net.cpp:84] Creating Layer fc100
I1028 14:12:04.710538 12618 net.cpp:406] fc100 <- fc65
I1028 14:12:04.710541 12618 net.cpp:380] fc100 -> fc100
I1028 14:12:04.711036 12618 net.cpp:122] Setting up fc100
I1028 14:12:04.711040 12618 net.cpp:129] Top shape: 128 62 (7936)
I1028 14:12:04.711042 12618 net.cpp:137] Memory required for data: 72646144
I1028 14:12:04.711061 12618 layer_factory.hpp:77] Creating layer loss
I1028 14:12:04.711064 12618 net.cpp:84] Creating Layer loss
I1028 14:12:04.711066 12618 net.cpp:406] loss <- fc100
I1028 14:12:04.711068 12618 net.cpp:406] loss <- label
I1028 14:12:04.711071 12618 net.cpp:380] loss -> loss
I1028 14:12:04.711082 12618 layer_factory.hpp:77] Creating layer loss
…
I1028 14:12:04.712153 12618 solver.cpp:172] Creating test net (#0) specified by net file: /home/ljf/caffe-master/examples/ljftest_alphabet/train_val.prototxt
I1028 14:12:04.712201 12618 net.cpp:294] The NetState phase (1) differed from the phase (0) specified by a rule in layer face
I1028 14:12:04.712317 12618 net.cpp:51] Initializing net from parameters: 
state {
  phase: TEST
}
layer {
  name: "face"
  type: "Data"
  top: "data"
  top: "label"
  include {
    phase: TEST
  }
  transform_param {
    scale: 0.00390625
  }
  data_param {
    source: "/home/ljf/caffe-master/examples/ljftest_alphabet/val_lmdb"
    batch_size: 100
    backend: LMDB
  }
  image_data_param {
    shuffle: true
  }
}
layer {
  name: "conv1"
  type: "Convolution"
  bottom: "data"
  top: "conv1"
  param {
    lr_mult: 1
  }
  param {
    lr_mult: 2
  }
  convolution_param {
    num_output: 32
    pad: 1
    kernel_size: 3
    stride: 1
    weight_filler {
      type: "gaussian"
      std: 0.1
    }
    bias_filler {
      type: "constant"
      value: 0
    }
  }
}
layer {
  name: "relu1"
  type: "ReLU"
  bottom: "conv1"
  top: "conv1"
}
layer {
  name: "pool1"
  type: "Pooling"
  bottom: "conv1"
  top: "pool1"
  pooling_param {
    pool: MAX
    kernel_size: 2
    stride: 2
    pad: 0
  }
}
layer {
  name: "norm1"
  type: "LRN"
  bottom: "pool1"
  top: "norm1"
  lrn_param {
    local_size: 5
    alpha: 0.00011111111
    beta: 0.75
  }
}
layer {
  name: "conv2"
  type: "Convolution"
  bottom: "norm1"
  top: "conv2"
  param {
    lr_mult: 1
  }
  param {
    lr_mult: 2
  }
  convolution_param {
    num_output: 64
    pad: 1
    kernel_size: 3
    stride: 1
    weight_filler {
      type: "gaussian"
      std: 0.1
    }
    bias_filler {
      type: "constant"
      value: 0.1
    }
  }
}
layer {
  name: "relu2"
  type: "ReLU"
  bottom: "conv2"
  top: "conv2"
}
layer {
  name: "pool2"
  type: "Pooling"
  bottom: "conv2"
  top: "pool2"
  pooling_param {
    pool: MAX
    kernel_size: 2
    stride: 2
    pad: 0
  }
}
layer {
  name: "norm2"
  type: "LRN"
  bottom: "pool2"
  top: "norm2"
  lrn_param {
    local_size: 5
    alpha: 0.00011111111
    beta: 0.75
  }
}
layer {
  name: "conv3"
  type: "Convolution"
  bottom: "norm2"
  top: "conv3"
  param {
    lr_mult: 1
  }
  param {
    lr_mult: 2
  }
  convolution_param {
    num_output: 64
    pad: 1
    kernel_size: 3
    stride: 1
    weight_filler {
      type: "gaussian"
      std: 0.1
    }
    bias_filler {
      type: "constant"
      value: 0
    }
  }
}
layer {
  name: "relu3"
  type: "ReLU"
  bottom: "conv3"
  top: "conv3"
}
layer {
  name: "pool3"
  type: "Pooling"
  bottom: "conv3"
  top: "pool3"
  pooling_param {
    pool: MAX
    kernel_size: 2
    stride: 2
    pad: 0
  }
}
layer {
  name: "norm3"
  type: "LRN"
  bottom: "pool3"
  top: "norm3"
  lrn_param {
    local_size: 5
    alpha: 0.00011111111
    beta: 0.75
  }
}
layer {
  name: "conv4"
  type: "Convolution"
  bottom: "norm3"
  top: "conv4"
  param {
    lr_mult: 1
  }
  param {
    lr_mult: 2
  }
  convolution_param {
    num_output: 64
    pad: 1
    kernel_size: 3
    stride: 1
    weight_filler {
      type: "gaussian"
      std: 0.1
    }
    bias_filler {
      type: "constant"
      value: 0
    }
  }
}
layer {
  name: "relu4"
  type: "ReLU"
  bottom: "conv4"
  top: "conv4"
}
layer {
  name: "pool4"
  type: "Pooling"
  bottom: "conv4"
  top: "pool4"
  pooling_param {
    pool: MAX
    kernel_size: 2
    stride: 2
    pad: 0
  }
}
layer {
  name: "norm4"
  type: "LRN"
  bottom: "pool4"
  top: "norm4"
  lrn_param {
    local_size: 3
    alpha: 0.00011111111
    beta: 0.75
  }
}
layer {
  name: "fc65"
  type: "InnerProduct"
  bottom: "norm4"
  top: "fc65"
  inner_product_param {
    num_output: 1024
    weight_filler {
      type: "gaussian"
      std: 0.0009765625
    }
    bias_filler {
      type: "constant"
      value: 0.1
    }
  }
}
layer {
  name: "relu65"
  type: "ReLU"
  bottom: "fc65"
  top: "fc65"
}
layer {
  name: "drop65"
  type: "Dropout"
  bottom: "fc65"
  top: "fc65"
  dropout_param {
    dropout_ratio: 0.1
  }
}
layer {
  name: "fc100"
  type: "InnerProduct"
  bottom: "fc65"
  top: "fc100"
  inner_product_param {
    num_output: 62
    weight_filler {
      type: "gaussian"
      std: 0.1
    }
    bias_filler {
      type: "constant"
      value: 0
    }
  }
}
layer {
  name: "loss"
  type: "SoftmaxWithLoss"
  bottom: "fc100"
  bottom: "label"
  top: "loss"
}
layer {
  name: "acc"
  type: "Accuracy"
  bottom: "fc100"
  bottom: "label"
  top: "acc"
  include {
    phase: TEST
  }
}
I1028 14:12:04.712400 12618 layer_factory.hpp:77] Creating layer face
I1028 14:12:04.712436 12618 db_lmdb.cpp:35] Opened lmdb /home/ljf/caffe-master/examples/ljftest_alphabet/val_lmdb
I1028 14:12:04.712458 12618 net.cpp:84] Creating Layer face
I1028 14:12:04.712477 12618 net.cpp:380] face -> data
I1028 14:12:04.712483 12618 net.cpp:380] face -> label
I1028 14:12:04.712560 12618 data_layer.cpp:45] output data size: 100,3,32,32
I1028 14:12:04.716534 12618 net.cpp:122] Setting up face
I1028 14:12:04.716557 12618 net.cpp:129] Top shape: 100 3 32 32 (307200)
I1028 14:12:04.716560 12618 net.cpp:129] Top shape: 100 (100)
I1028 14:12:04.716562 12618 net.cpp:137] Memory required for data: 1229200
I1028 14:12:04.716568 12618 layer_factory.hpp:77] Creating layer label_face_1_split
I1028 14:12:04.716583 12618 net.cpp:84] Creating Layer label_face_1_split
I1028 14:12:04.716585 12618 net.cpp:406] label_face_1_split <- label
I1028 14:12:04.716604 12618 net.cpp:380] label_face_1_split -> label_face_1_split_0
I1028 14:12:04.716612 12618 net.cpp:380] label_face_1_split -> label_face_1_split_1
I1028 14:12:04.716660 12618 net.cpp:122] Setting up label_face_1_split
I1028 14:12:04.716665 12618 net.cpp:129] Top shape: 100 (100)
I1028 14:12:04.716667 12618 net.cpp:129] Top shape: 100 (100)
I1028 14:12:04.716668 12618 net.cpp:137] Memory required for data: 1230000
I1028 14:12:04.716670 12618 layer_factory.hpp:77] Creating layer conv1
I1028 14:12:04.716693 12618 net.cpp:84] Creating Layer conv1
I1028 14:12:04.716696 12618 net.cpp:406] conv1 <- data
I1028 14:12:04.716701 12618 net.cpp:380] conv1 -> conv1
I1028 14:12:04.717581 12618 net.cpp:122] Setting up conv1
I1028 14:12:04.717605 12618 net.cpp:129] Top shape: 100 32 32 32 (3276800)
I1028 14:12:04.717608 12618 net.cpp:137] Memory required for data: 14337200
I1028 14:12:04.717617 12618 layer_factory.hpp:77] Creating layer relu1
I1028 14:12:04.717620 12618 net.cpp:84] Creating Layer relu1
I1028 14:12:04.717622 12618 net.cpp:406] relu1 <- conv1
I1028 14:12:04.717625 12618 net.cpp:367] relu1 -> conv1 (in-place)
I1028 14:12:04.717751 12618 net.cpp:122] Setting up relu1
I1028 14:12:04.717756 12618 net.cpp:129] Top shape: 100 32 32 32 (3276800)
I1028 14:12:04.717772 12618 net.cpp:137] Memory required for data: 27444400
I1028 14:12:04.717773 12618 layer_factory.hpp:77] Creating layer pool1
I1028 14:12:04.717779 12618 net.cpp:84] Creating Layer pool1
I1028 14:12:04.717780 12618 net.cpp:406] pool1 <- conv1
I1028 14:12:04.717784 12618 net.cpp:380] pool1 -> pool1
I1028 14:12:04.717824 12618 net.cpp:122] Setting up pool1
I1028 14:12:04.717828 12618 net.cpp:129] Top shape: 100 32 16 16 (819200)
I1028 14:12:04.717852 12618 net.cpp:137] Memory required for data: 30721200
I1028 14:12:04.717854 12618 layer_factory.hpp:77] Creating layer norm1
I1028 14:12:04.717860 12618 net.cpp:84] Creating Layer norm1
I1028 14:12:04.717861 12618 net.cpp:406] norm1 <- pool1
I1028 14:12:04.717864 12618 net.cpp:380] norm1 -> norm1
I1028 14:12:04.717993 12618 net.cpp:122] Setting up norm1
I1028 14:12:04.717999 12618 net.cpp:129] Top shape: 100 32 16 16 (819200)
I1028 14:12:04.718003 12618 net.cpp:137] Memory required for data: 33998000
I1028 14:12:04.718004 12618 layer_factory.hpp:77] Creating layer conv2
I1028 14:12:04.718010 12618 net.cpp:84] Creating Layer conv2
I1028 14:12:04.718014 12618 net.cpp:406] conv2 <- norm1
I1028 14:12:04.718017 12618 net.cpp:380] conv2 -> conv2
I1028 14:12:04.718968 12618 net.cpp:122] Setting up conv2
I1028 14:12:04.718977 12618 net.cpp:129] Top shape: 100 64 16 16 (1638400)
I1028 14:12:04.718992 12618 net.cpp:137] Memory required for data: 40551600
I1028 14:12:04.718998 12618 layer_factory.hpp:77] Creating layer relu2
I1028 14:12:04.719003 12618 net.cpp:84] Creating Layer relu2
I1028 14:12:04.719005 12618 net.cpp:406] relu2 <- conv2
I1028 14:12:04.719008 12618 net.cpp:367] relu2 -> conv2 (in-place)
I1028 14:12:04.719328 12618 net.cpp:122] Setting up relu2
I1028 14:12:04.719336 12618 net.cpp:129] Top shape: 100 64 16 16 (1638400)
I1028 14:12:04.719352 12618 net.cpp:137] Memory required for data: 47105200
I1028 14:12:04.719354 12618 layer_factory.hpp:77] Creating layer pool2
I1028 14:12:04.719362 12618 net.cpp:84] Creating Layer pool2
I1028 14:12:04.719363 12618 net.cpp:406] pool2 <- conv2
I1028 14:12:04.719367 12618 net.cpp:380] pool2 -> pool2
I1028 14:12:04.719393 12618 net.cpp:122] Setting up pool2
I1028 14:12:04.719410 12618 net.cpp:129] Top shape: 100 64 8 8 (409600)
I1028 14:12:04.719413 12618 net.cpp:137] Memory required for data: 48743600
I1028 14:12:04.719413 12618 layer_factory.hpp:77] Creating layer norm2
I1028 14:12:04.719431 12618 net.cpp:84] Creating Layer norm2
I1028 14:12:04.719434 12618 net.cpp:406] norm2 <- pool2
I1028 14:12:04.719435 12618 net.cpp:380] norm2 -> norm2
I1028 14:12:04.719717 12618 net.cpp:122] Setting up norm2
I1028 14:12:04.719723 12618 net.cpp:129] Top shape: 100 64 8 8 (409600)
I1028 14:12:04.719725 12618 net.cpp:137] Memory required for data: 50382000
I1028 14:12:04.719727 12618 layer_factory.hpp:77] Creating layer conv3
I1028 14:12:04.719732 12618 net.cpp:84] Creating Layer conv3
I1028 14:12:04.719735 12618 net.cpp:406] conv3 <- norm2
I1028 14:12:04.719739 12618 net.cpp:380] conv3 -> conv3
I1028 14:12:04.720788 12618 net.cpp:122] Setting up conv3
I1028 14:12:04.720798 12618 net.cpp:129] Top shape: 100 64 8 8 (409600)
I1028 14:12:04.720800 12618 net.cpp:137] Memory required for data: 52020400
I1028 14:12:04.720808 12618 layer_factory.hpp:77] Creating layer relu3
I1028 14:12:04.720813 12618 net.cpp:84] Creating Layer relu3
I1028 14:12:04.720814 12618 net.cpp:406] relu3 <- conv3
I1028 14:12:04.720818 12618 net.cpp:367] relu3 -> conv3 (in-place)
I1028 14:12:04.720940 12618 net.cpp:122] Setting up relu3
I1028 14:12:04.720945 12618 net.cpp:129] Top shape: 100 64 8 8 (409600)
I1028 14:12:04.720947 12618 net.cpp:137] Memory required for data: 53658800
I1028 14:12:04.720949 12618 layer_factory.hpp:77] Creating layer pool3
I1028 14:12:04.720968 12618 net.cpp:84] Creating Layer pool3
I1028 14:12:04.720971 12618 net.cpp:406] pool3 <- conv3
I1028 14:12:04.720974 12618 net.cpp:380] pool3 -> pool3
I1028 14:12:04.721002 12618 net.cpp:122] Setting up pool3
I1028 14:12:04.721006 12618 net.cpp:129] Top shape: 100 64 4 4 (102400)
I1028 14:12:04.721007 12618 net.cpp:137] Memory required for data: 54068400
I1028 14:12:04.721009 12618 layer_factory.hpp:77] Creating layer norm3
I1028 14:12:04.721025 12618 net.cpp:84] Creating Layer norm3
I1028 14:12:04.721027 12618 net.cpp:406] norm3 <- pool3
I1028 14:12:04.721030 12618 net.cpp:380] norm3 -> norm3
I1028 14:12:04.721181 12618 net.cpp:122] Setting up norm3
I1028 14:12:04.721186 12618 net.cpp:129] Top shape: 100 64 4 4 (102400)
I1028 14:12:04.721201 12618 net.cpp:137] Memory required for data: 54478000
I1028 14:12:04.721210 12618 layer_factory.hpp:77] Creating layer conv4
I1028 14:12:04.721216 12618 net.cpp:84] Creating Layer conv4
I1028 14:12:04.721220 12618 net.cpp:406] conv4 <- norm3
I1028 14:12:04.721226 12618 net.cpp:380] conv4 -> conv4
I1028 14:12:04.722420 12618 net.cpp:122] Setting up conv4
I1028 14:12:04.722429 12618 net.cpp:129] Top shape: 100 64 4 4 (102400)
I1028 14:12:04.722430 12618 net.cpp:137] Memory required for data: 54887600
I1028 14:12:04.722434 12618 layer_factory.hpp:77] Creating layer relu4
I1028 14:12:04.722439 12618 net.cpp:84] Creating Layer relu4
I1028 14:12:04.722440 12618 net.cpp:406] relu4 <- conv4
I1028 14:12:04.722443 12618 net.cpp:367] relu4 -> conv4 (in-place)
I1028 14:12:04.722755 12618 net.cpp:122] Setting up relu4
I1028 14:12:04.722762 12618 net.cpp:129] Top shape: 100 64 4 4 (102400)
I1028 14:12:04.722764 12618 net.cpp:137] Memory required for data: 55297200
I1028 14:12:04.722767 12618 layer_factory.hpp:77] Creating layer pool4
I1028 14:12:04.722772 12618 net.cpp:84] Creating Layer pool4
I1028 14:12:04.722774 12618 net.cpp:406] pool4 <- conv4
I1028 14:12:04.722777 12618 net.cpp:380] pool4 -> pool4
I1028 14:12:04.722836 12618 net.cpp:122] Setting up pool4
I1028 14:12:04.722839 12618 net.cpp:129] Top shape: 100 64 2 2 (25600)
I1028 14:12:04.722841 12618 net.cpp:137] Memory required for data: 55399600
I1028 14:12:04.722842 12618 layer_factory.hpp:77] Creating layer norm4
I1028 14:12:04.722847 12618 net.cpp:84] Creating Layer norm4
I1028 14:12:04.722849 12618 net.cpp:406] norm4 <- pool4
I1028 14:12:04.722869 12618 net.cpp:380] norm4 -> norm4
I1028 14:12:04.723063 12618 net.cpp:122] Setting up norm4
I1028 14:12:04.723070 12618 net.cpp:129] Top shape: 100 64 2 2 (25600)
I1028 14:12:04.723073 12618 net.cpp:137] Memory required for data: 55502000
I1028 14:12:04.723073 12618 layer_factory.hpp:77] Creating layer fc65
I1028 14:12:04.723078 12618 net.cpp:84] Creating Layer fc65
I1028 14:12:04.723079 12618 net.cpp:406] fc65 <- norm4
I1028 14:12:04.723083 12618 net.cpp:380] fc65 -> fc65
I1028 14:12:04.724774 12618 net.cpp:122] Setting up fc65
I1028 14:12:04.724779 12618 net.cpp:129] Top shape: 100 1024 (102400)
I1028 14:12:04.724782 12618 net.cpp:137] Memory required for data: 55911600
I1028 14:12:04.724787 12618 layer_factory.hpp:77] Creating layer relu65
I1028 14:12:04.724791 12618 net.cpp:84] Creating Layer relu65
I1028 14:12:04.724792 12618 net.cpp:406] relu65 <- fc65
I1028 14:12:04.724797 12618 net.cpp:367] relu65 -> fc65 (in-place)
I1028 14:12:04.724936 12618 net.cpp:122] Setting up relu65
I1028 14:12:04.724941 12618 net.cpp:129] Top shape: 100 1024 (102400)
I1028 14:12:04.724943 12618 net.cpp:137] Memory required for data: 56321200
I1028 14:12:04.724946 12618 layer_factory.hpp:77] Creating layer drop65
I1028 14:12:04.724948 12618 net.cpp:84] Creating Layer drop65
I1028 14:12:04.724951 12618 net.cpp:406] drop65 <- fc65
I1028 14:12:04.724952 12618 net.cpp:367] drop65 -> fc65 (in-place)
I1028 14:12:04.724983 12618 net.cpp:122] Setting up drop65
I1028 14:12:04.724987 12618 net.cpp:129] Top shape: 100 1024 (102400)
I1028 14:12:04.724988 12618 net.cpp:137] Memory required for data: 56730800
I1028 14:12:04.724989 12618 layer_factory.hpp:77] Creating layer fc100
I1028 14:12:04.724993 12618 net.cpp:84] Creating Layer fc100
I1028 14:12:04.724995 12618 net.cpp:406] fc100 <- fc65
I1028 14:12:04.724998 12618 net.cpp:380] fc100 -> fc100
I1028 14:12:04.725502 12618 net.cpp:122] Setting up fc100
I1028 14:12:04.725507 12618 net.cpp:129] Top shape: 100 62 (6200)
I1028 14:12:04.725507 12618 net.cpp:137] Memory required for data: 56755600
I1028 14:12:04.725510 12618 layer_factory.hpp:77] Creating layer fc100_fc100_0_split
I1028 14:12:04.725528 12618 net.cpp:84] Creating Layer fc100_fc100_0_split
I1028 14:12:04.725529 12618 net.cpp:406] fc100_fc100_0_split <- fc100
I1028 14:12:04.725533 12618 net.cpp:380] fc100_fc100_0_split -> fc100_fc100_0_split_0
I1028 14:12:04.725538 12618 net.cpp:380] fc100_fc100_0_split -> fc100_fc100_0_split_1
I1028 14:12:04.725560 12618 net.cpp:122] Setting up fc100_fc100_0_split
I1028 14:12:04.725585 12618 net.cpp:129] Top shape: 100 62 (6200)
I1028 14:12:04.725587 12618 net.cpp:129] Top shape: 100 62 (6200)
I1028 14:12:04.725589 12618 net.cpp:137] Memory required for data: 56805200
I1028 14:12:04.725590 12618 layer_factory.hpp:77] Creating layer loss
I1028 14:12:04.725594 12618 net.cpp:84] Creating Layer loss
I1028 14:12:04.725595 12618 net.cpp:406] loss <- fc100_fc100_0_split_0
I1028 14:12:04.725599 12618 net.cpp:406] loss <- label_face_1_split_0
I1028 14:12:04.725601 12618 net.cpp:380] loss -> loss
…
