…
I1109 23:28:11.489187  4004 solver.cpp:77] Creating training net from train_net file: /home/ljf/caffe-master/examples/ljftest_cifar10_VggNet/train.prototxt
I1109 23:28:11.489573  4004 net.cpp:51] Initializing net from parameters: 
state {
  phase: TRAIN
  level: 0
  stage: ""
}
layer {
  name: "cifar10"
  type: "Data"
  top: "data"
  top: "label"
  transform_param {
    scale: 0.00390625
    mirror: true
    crop_size: 28
  }
  data_param {
    source: "/home/ljf/caffe-master/examples/ljftest_cifar10_VggNet/train_lmdb"
    batch_size: 512
    backend: LMDB
  }
  image_data_param {
    shuffle: true
  }
}
layer {
  name: "conv1"
  type: "Convolution"
  bottom: "data"
  top: "conv1"
  param {
    lr_mult: 1
  }
  param {
    lr_mult: 2
  }
  convolution_param {
    num_output: 64
    pad: 1
    kernel_size: 3
    stride: 1
    weight_filler {
      type: "msra"
    }
    bias_filler {
      type: "constant"
    }
  }
}
layer {
  name: "relu1"
  type: "ReLU"
  bottom: "conv1"
  top: "conv1"
}
layer {
  name: "conv2"
  type: "Convolution"
  bottom: "conv1"
  top: "conv2"
  param {
    lr_mult: 1
  }
  param {
    lr_mult: 2
  }
  convolution_param {
    num_output: 64
    pad: 1
    kernel_size: 3
    stride: 1
    weight_filler {
      type: "msra"
    }
    bias_filler {
      type: "constant"
    }
  }
}
layer {
  name: "relu2"
  type: "ReLU"
  bottom: "conv2"
  top: "conv2"
}
layer {
  name: "pool2"
  type: "Pooling"
  bottom: "conv2"
  top: "pool2"
  pooling_param {
    pool: MAX
    kernel_size: 2
    stride: 2
    pad: 0
  }
}
layer {
  name: "conv3"
  type: "Convolution"
  bottom: "pool2"
  top: "conv3"
  param {
    lr_mult: 1
  }
  param {
    lr_mult: 2
  }
  convolution_param {
    num_output: 128
    pad: 1
    kernel_size: 3
    stride: 1
    weight_filler {
      type: "msra"
    }
    bias_filler {
      type: "constant"
    }
  }
}
layer {
  name: "relu3"
  type: "ReLU"
  bottom: "conv3"
  top: "conv3"
}
layer {
  name: "conv4"
  type: "Convolution"
  bottom: "conv3"
  top: "conv4"
  param {
    lr_mult: 1
  }
  param {
    lr_mult: 2
  }
  convolution_param {
    num_output: 128
    pad: 1
    kernel_size: 3
    stride: 1
    weight_filler {
      type: "msra"
    }
    bias_filler {
      type: "constant"
    }
  }
}
layer {
  name: "relu4"
  type: "ReLU"
  bottom: "conv4"
  top: "conv4"
}
layer {
  name: "pool4"
  type: "Pooling"
  bottom: "conv4"
  top: "pool4"
  pooling_param {
    pool: MAX
    kernel_size: 2
    stride: 2
    pad: 0
  }
}
layer {
  name: "conv5"
  type: "Convolution"
  bottom: "pool4"
  top: "conv5"
  param {
    lr_mult: 1
  }
  param {
    lr_mult: 2
  }
  convolution_param {
    num_output: 256
    pad: 1
    kernel_size: 3
    stride: 1
    weight_filler {
      type: "msra"
    }
    bias_filler {
      type: "constant"
    }
  }
}
layer {
  name: "relu5"
  type: "ReLU"
  bottom: "conv5"
  top: "conv5"
}
layer {
  name: "conv6"
  type: "Convolution"
  bottom: "conv5"
  top: "conv6"
  param {
    lr_mult: 1
  }
  param {
    lr_mult: 2
  }
  convolution_param {
    num_output: 256
    pad: 1
    kernel_size: 3
    stride: 1
    weight_filler {
      type: "msra"
    }
    bias_filler {
      type: "constant"
    }
  }
}
layer {
  name: "relu6"
  type: "ReLU"
  bottom: "conv6"
  top: "conv6"
}
layer {
  name: "conv7"
  type: "Convolution"
  bottom: "conv6"
  top: "conv7"
  param {
    lr_mult: 1
  }
  param {
    lr_mult: 2
  }
  convolution_param {
    num_output: 256
    pad: 1
    kernel_size: 3
    stride: 1
    weight_filler {
      type: "msra"
    }
    bias_filler {
      type: "constant"
    }
  }
}
layer {
  name: "relu7"
  type: "ReLU"
  bottom: "conv7"
  top: "conv7"
}
layer {
  name: "pool7"
  type: "Pooling"
  bottom: "conv7"
  top: "pool7"
  pooling_param {
    pool: MAX
    kernel_size: 2
    stride: 2
    pad: 0
  }
}
layer {
  name: "conv8"
  type: "Convolution"
  bottom: "pool7"
  top: "conv8"
  param {
    lr_mult: 1
  }
  param {
    lr_mult: 2
  }
  convolution_param {
    num_output: 512
    pad: 1
    kernel_size: 3
    stride: 1
    weight_filler {
      type: "msra"
    }
    bias_filler {
      type: "constant"
    }
  }
}
layer {
  name: "relu8"
  type: "ReLU"
  bottom: "conv8"
  top: "conv8"
}
layer {
  name: "conv9"
  type: "Convolution"
  bottom: "conv8"
  top: "conv9"
  param {
    lr_mult: 1
  }
  param {
    lr_mult: 2
  }
  convolution_param {
    num_output: 512
    pad: 1
    kernel_size: 3
    stride: 1
    weight_filler {
      type: "msra"
    }
    bias_filler {
      type: "constant"
    }
  }
}
layer {
  name: "relu9"
  type: "ReLU"
  bottom: "conv9"
  top: "conv9"
}
layer {
  name: "conv10"
  type: "Convolution"
  bottom: "conv9"
  top: "conv10"
  param {
    lr_mult: 1
  }
  param {
    lr_mult: 2
  }
  convolution_param {
    num_output: 512
    pad: 1
    kernel_size: 3
    stride: 1
    weight_filler {
      type: "msra"
    }
    bias_filler {
      type: "constant"
    }
  }
}
layer {
  name: "relu10"
  type: "ReLU"
  bottom: "conv10"
  top: "conv10"
}
layer {
  name: "pool10"
  type: "Pooling"
  bottom: "conv10"
  top: "pool10"
  pooling_param {
    pool: MAX
    kernel_size: 2
    stride: 2
    pad: 0
  }
}
layer {
  name: "fc65"
  type: "InnerProduct"
  bottom: "pool10"
  top: "fc65"
  inner_product_param {
    num_output: 1024
    weight_filler {
      type: "xavier"
    }
    bias_filler {
      type: "constant"
    }
  }
}
layer {
  name: "relu65"
  type: "ReLU"
  bottom: "fc65"
  top: "fc65"
}
layer {
  name: "drop65"
  type: "Dropout"
  bottom: "fc65"
  top: "fc65"
  dropout_param {
    dropout_ratio: 0.5
  }
}
layer {
  name: "fc66"
  type: "InnerProduct"
  bottom: "fc65"
  top: "fc66"
  inner_product_param {
    num_output: 1024
    weight_filler {
      type: "xavier"
    }
    bias_filler {
      type: "constant"
    }
  }
}
layer {
  name: "relu66"
  type: "ReLU"
  bottom: "fc66"
  top: "fc66"
}
layer {
  name: "drop66"
  type: "Dropout"
  bottom: "fc66"
  top: "fc66"
  dropout_param {
    dropout_ratio: 0.5
  }
}
layer {
  name: "fc100"
  type: "InnerProduct"
  bottom: "fc66"
  top: "fc100"
  inner_product_param {
    num_output: 10
    weight_filler {
      type: "xavier"
    }
    bias_filler {
      type: "constant"
    }
  }
}
layer {
  name: "loss"
  type: "SoftmaxWithLoss"
  bottom: "fc100"
  bottom: "label"
  top: "loss"
}
I1109 23:28:11.489701  4004 layer_factory.hpp:77] Creating layer cifar10
I1109 23:28:11.489814  4004 db_lmdb.cpp:35] Opened lmdb /home/ljf/caffe-master/examples/ljftest_cifar10_VggNet/train_lmdb
I1109 23:28:11.489850  4004 net.cpp:84] Creating Layer cifar10
I1109 23:28:11.489872  4004 net.cpp:380] cifar10 -> data
I1109 23:28:11.489890  4004 net.cpp:380] cifar10 -> label
I1109 23:28:11.490573  4004 data_layer.cpp:45] output data size: 512,3,28,28
I1109 23:28:11.498597  4004 net.cpp:122] Setting up cifar10
I1109 23:28:11.498617  4004 net.cpp:129] Top shape: 512 3 28 28 (1204224)
I1109 23:28:11.498622  4004 net.cpp:129] Top shape: 512 (512)
I1109 23:28:11.498639  4004 net.cpp:137] Memory required for data: 4818944
I1109 23:28:11.498647  4004 layer_factory.hpp:77] Creating layer conv1
I1109 23:28:11.498668  4004 net.cpp:84] Creating Layer conv1
I1109 23:28:11.498675  4004 net.cpp:406] conv1 <- data
I1109 23:28:11.498699  4004 net.cpp:380] conv1 -> conv1
I1109 23:28:11.665047  4004 net.cpp:122] Setting up conv1
I1109 23:28:11.665068  4004 net.cpp:129] Top shape: 512 64 28 28 (25690112)
I1109 23:28:11.665094  4004 net.cpp:137] Memory required for data: 107579392
I1109 23:28:11.665119  4004 layer_factory.hpp:77] Creating layer relu1
I1109 23:28:11.665132  4004 net.cpp:84] Creating Layer relu1
I1109 23:28:11.665135  4004 net.cpp:406] relu1 <- conv1
I1109 23:28:11.665140  4004 net.cpp:367] relu1 -> conv1 (in-place)
I1109 23:28:11.665292  4004 net.cpp:122] Setting up relu1
I1109 23:28:11.665297  4004 net.cpp:129] Top shape: 512 64 28 28 (25690112)
I1109 23:28:11.665313  4004 net.cpp:137] Memory required for data: 210339840
I1109 23:28:11.665315  4004 layer_factory.hpp:77] Creating layer conv2
I1109 23:28:11.665323  4004 net.cpp:84] Creating Layer conv2
I1109 23:28:11.665324  4004 net.cpp:406] conv2 <- conv1
I1109 23:28:11.665328  4004 net.cpp:380] conv2 -> conv2
I1109 23:28:11.666782  4004 net.cpp:122] Setting up conv2
I1109 23:28:11.666791  4004 net.cpp:129] Top shape: 512 64 28 28 (25690112)
I1109 23:28:11.666795  4004 net.cpp:137] Memory required for data: 313100288
I1109 23:28:11.666800  4004 layer_factory.hpp:77] Creating layer relu2
I1109 23:28:11.666805  4004 net.cpp:84] Creating Layer relu2
I1109 23:28:11.666806  4004 net.cpp:406] relu2 <- conv2
I1109 23:28:11.666810  4004 net.cpp:367] relu2 -> conv2 (in-place)
I1109 23:28:11.666944  4004 net.cpp:122] Setting up relu2
I1109 23:28:11.666949  4004 net.cpp:129] Top shape: 512 64 28 28 (25690112)
I1109 23:28:11.666952  4004 net.cpp:137] Memory required for data: 415860736
I1109 23:28:11.666968  4004 layer_factory.hpp:77] Creating layer pool2
I1109 23:28:11.666971  4004 net.cpp:84] Creating Layer pool2
I1109 23:28:11.666975  4004 net.cpp:406] pool2 <- conv2
I1109 23:28:11.666977  4004 net.cpp:380] pool2 -> pool2
I1109 23:28:11.667023  4004 net.cpp:122] Setting up pool2
I1109 23:28:11.667028  4004 net.cpp:129] Top shape: 512 64 14 14 (6422528)
I1109 23:28:11.667031  4004 net.cpp:137] Memory required for data: 441550848
I1109 23:28:11.667047  4004 layer_factory.hpp:77] Creating layer conv3
I1109 23:28:11.667052  4004 net.cpp:84] Creating Layer conv3
I1109 23:28:11.667054  4004 net.cpp:406] conv3 <- pool2
I1109 23:28:11.667057  4004 net.cpp:380] conv3 -> conv3
I1109 23:28:11.668772  4004 net.cpp:122] Setting up conv3
I1109 23:28:11.668781  4004 net.cpp:129] Top shape: 512 128 14 14 (12845056)
I1109 23:28:11.668797  4004 net.cpp:137] Memory required for data: 492931072
I1109 23:28:11.668802  4004 layer_factory.hpp:77] Creating layer relu3
I1109 23:28:11.668807  4004 net.cpp:84] Creating Layer relu3
I1109 23:28:11.668808  4004 net.cpp:406] relu3 <- conv3
I1109 23:28:11.668812  4004 net.cpp:367] relu3 -> conv3 (in-place)
I1109 23:28:11.668925  4004 net.cpp:122] Setting up relu3
I1109 23:28:11.668931  4004 net.cpp:129] Top shape: 512 128 14 14 (12845056)
I1109 23:28:11.668946  4004 net.cpp:137] Memory required for data: 544311296
I1109 23:28:11.668948  4004 layer_factory.hpp:77] Creating layer conv4
I1109 23:28:11.668953  4004 net.cpp:84] Creating Layer conv4
I1109 23:28:11.668956  4004 net.cpp:406] conv4 <- conv3
I1109 23:28:11.668958  4004 net.cpp:380] conv4 -> conv4
I1109 23:28:11.670691  4004 net.cpp:122] Setting up conv4
I1109 23:28:11.670698  4004 net.cpp:129] Top shape: 512 128 14 14 (12845056)
I1109 23:28:11.670701  4004 net.cpp:137] Memory required for data: 595691520
I1109 23:28:11.670704  4004 layer_factory.hpp:77] Creating layer relu4
I1109 23:28:11.670708  4004 net.cpp:84] Creating Layer relu4
I1109 23:28:11.670711  4004 net.cpp:406] relu4 <- conv4
I1109 23:28:11.670713  4004 net.cpp:367] relu4 -> conv4 (in-place)
I1109 23:28:11.670817  4004 net.cpp:122] Setting up relu4
I1109 23:28:11.670822  4004 net.cpp:129] Top shape: 512 128 14 14 (12845056)
I1109 23:28:11.670825  4004 net.cpp:137] Memory required for data: 647071744
I1109 23:28:11.670826  4004 layer_factory.hpp:77] Creating layer pool4
I1109 23:28:11.670830  4004 net.cpp:84] Creating Layer pool4
I1109 23:28:11.670831  4004 net.cpp:406] pool4 <- conv4
I1109 23:28:11.670835  4004 net.cpp:380] pool4 -> pool4
I1109 23:28:11.670861  4004 net.cpp:122] Setting up pool4
I1109 23:28:11.670873  4004 net.cpp:129] Top shape: 512 128 7 7 (3211264)
I1109 23:28:11.670876  4004 net.cpp:137] Memory required for data: 659916800
I1109 23:28:11.670877  4004 layer_factory.hpp:77] Creating layer conv5
I1109 23:28:11.670882  4004 net.cpp:84] Creating Layer conv5
I1109 23:28:11.670884  4004 net.cpp:406] conv5 <- pool4
I1109 23:28:11.670887  4004 net.cpp:380] conv5 -> conv5
I1109 23:28:11.673485  4004 net.cpp:122] Setting up conv5
I1109 23:28:11.673494  4004 net.cpp:129] Top shape: 512 256 7 7 (6422528)
I1109 23:28:11.673496  4004 net.cpp:137] Memory required for data: 685606912
I1109 23:28:11.673501  4004 layer_factory.hpp:77] Creating layer relu5
I1109 23:28:11.673506  4004 net.cpp:84] Creating Layer relu5
I1109 23:28:11.673508  4004 net.cpp:406] relu5 <- conv5
I1109 23:28:11.673511  4004 net.cpp:367] relu5 -> conv5 (in-place)
I1109 23:28:11.673779  4004 net.cpp:122] Setting up relu5
I1109 23:28:11.673786  4004 net.cpp:129] Top shape: 512 256 7 7 (6422528)
I1109 23:28:11.673789  4004 net.cpp:137] Memory required for data: 711297024
I1109 23:28:11.673791  4004 layer_factory.hpp:77] Creating layer conv6
I1109 23:28:11.673796  4004 net.cpp:84] Creating Layer conv6
I1109 23:28:11.673799  4004 net.cpp:406] conv6 <- conv5
I1109 23:28:11.673802  4004 net.cpp:380] conv6 -> conv6
I1109 23:28:11.679385  4004 net.cpp:122] Setting up conv6
I1109 23:28:11.679416  4004 net.cpp:129] Top shape: 512 256 7 7 (6422528)
I1109 23:28:11.679419  4004 net.cpp:137] Memory required for data: 736987136
I1109 23:28:11.679425  4004 layer_factory.hpp:77] Creating layer relu6
I1109 23:28:11.679433  4004 net.cpp:84] Creating Layer relu6
I1109 23:28:11.679436  4004 net.cpp:406] relu6 <- conv6
I1109 23:28:11.679440  4004 net.cpp:367] relu6 -> conv6 (in-place)
I1109 23:28:11.679723  4004 net.cpp:122] Setting up relu6
I1109 23:28:11.679730  4004 net.cpp:129] Top shape: 512 256 7 7 (6422528)
I1109 23:28:11.679746  4004 net.cpp:137] Memory required for data: 762677248
I1109 23:28:11.679749  4004 layer_factory.hpp:77] Creating layer conv7
I1109 23:28:11.679755  4004 net.cpp:84] Creating Layer conv7
I1109 23:28:11.679757  4004 net.cpp:406] conv7 <- conv6
I1109 23:28:11.679760  4004 net.cpp:380] conv7 -> conv7
I1109 23:28:11.684749  4004 net.cpp:122] Setting up conv7
I1109 23:28:11.684774  4004 net.cpp:129] Top shape: 512 256 7 7 (6422528)
I1109 23:28:11.684777  4004 net.cpp:137] Memory required for data: 788367360
I1109 23:28:11.684780  4004 layer_factory.hpp:77] Creating layer relu7
I1109 23:28:11.684785  4004 net.cpp:84] Creating Layer relu7
I1109 23:28:11.684787  4004 net.cpp:406] relu7 <- conv7
I1109 23:28:11.684792  4004 net.cpp:367] relu7 -> conv7 (in-place)
I1109 23:28:11.684897  4004 net.cpp:122] Setting up relu7
I1109 23:28:11.684902  4004 net.cpp:129] Top shape: 512 256 7 7 (6422528)
I1109 23:28:11.684904  4004 net.cpp:137] Memory required for data: 814057472
I1109 23:28:11.684906  4004 layer_factory.hpp:77] Creating layer pool7
I1109 23:28:11.684911  4004 net.cpp:84] Creating Layer pool7
I1109 23:28:11.684911  4004 net.cpp:406] pool7 <- conv7
I1109 23:28:11.684916  4004 net.cpp:380] pool7 -> pool7
I1109 23:28:11.684942  4004 net.cpp:122] Setting up pool7
I1109 23:28:11.684947  4004 net.cpp:129] Top shape: 512 256 4 4 (2097152)
I1109 23:28:11.684948  4004 net.cpp:137] Memory required for data: 822446080
I1109 23:28:11.684950  4004 layer_factory.hpp:77] Creating layer conv8
I1109 23:28:11.684957  4004 net.cpp:84] Creating Layer conv8
I1109 23:28:11.684958  4004 net.cpp:406] conv8 <- pool7
I1109 23:28:11.684962  4004 net.cpp:380] conv8 -> conv8
I1109 23:28:11.694317  4004 net.cpp:122] Setting up conv8
I1109 23:28:11.694349  4004 net.cpp:129] Top shape: 512 512 4 4 (4194304)
I1109 23:28:11.694352  4004 net.cpp:137] Memory required for data: 839223296
I1109 23:28:11.694358  4004 layer_factory.hpp:77] Creating layer relu8
I1109 23:28:11.694367  4004 net.cpp:84] Creating Layer relu8
I1109 23:28:11.694370  4004 net.cpp:406] relu8 <- conv8
I1109 23:28:11.694375  4004 net.cpp:367] relu8 -> conv8 (in-place)
I1109 23:28:11.694543  4004 net.cpp:122] Setting up relu8
I1109 23:28:11.694578  4004 net.cpp:129] Top shape: 512 512 4 4 (4194304)
I1109 23:28:11.694581  4004 net.cpp:137] Memory required for data: 856000512
I1109 23:28:11.694584  4004 layer_factory.hpp:77] Creating layer conv9
I1109 23:28:11.694594  4004 net.cpp:84] Creating Layer conv9
I1109 23:28:11.694599  4004 net.cpp:406] conv9 <- conv8
I1109 23:28:11.694604  4004 net.cpp:380] conv9 -> conv9
I1109 23:28:11.714292  4004 net.cpp:122] Setting up conv9
I1109 23:28:11.714311  4004 net.cpp:129] Top shape: 512 512 4 4 (4194304)
I1109 23:28:11.714313  4004 net.cpp:137] Memory required for data: 872777728
I1109 23:28:11.714329  4004 layer_factory.hpp:77] Creating layer relu9
I1109 23:28:11.714339  4004 net.cpp:84] Creating Layer relu9
I1109 23:28:11.714344  4004 net.cpp:406] relu9 <- conv9
I1109 23:28:11.714349  4004 net.cpp:367] relu9 -> conv9 (in-place)
I1109 23:28:11.714465  4004 net.cpp:122] Setting up relu9
I1109 23:28:11.714471  4004 net.cpp:129] Top shape: 512 512 4 4 (4194304)
I1109 23:28:11.714473  4004 net.cpp:137] Memory required for data: 889554944
I1109 23:28:11.714474  4004 layer_factory.hpp:77] Creating layer conv10
I1109 23:28:11.714481  4004 net.cpp:84] Creating Layer conv10
I1109 23:28:11.714484  4004 net.cpp:406] conv10 <- conv9
I1109 23:28:11.714488  4004 net.cpp:380] conv10 -> conv10
I1109 23:28:11.732823  4004 net.cpp:122] Setting up conv10
I1109 23:28:11.732841  4004 net.cpp:129] Top shape: 512 512 4 4 (4194304)
I1109 23:28:11.732842  4004 net.cpp:137] Memory required for data: 906332160
I1109 23:28:11.732848  4004 layer_factory.hpp:77] Creating layer relu10
I1109 23:28:11.732854  4004 net.cpp:84] Creating Layer relu10
I1109 23:28:11.732856  4004 net.cpp:406] relu10 <- conv10
I1109 23:28:11.732861  4004 net.cpp:367] relu10 -> conv10 (in-place)
I1109 23:28:11.732966  4004 net.cpp:122] Setting up relu10
I1109 23:28:11.732971  4004 net.cpp:129] Top shape: 512 512 4 4 (4194304)
I1109 23:28:11.732973  4004 net.cpp:137] Memory required for data: 923109376
I1109 23:28:11.732975  4004 layer_factory.hpp:77] Creating layer pool10
I1109 23:28:11.732978  4004 net.cpp:84] Creating Layer pool10
I1109 23:28:11.732980  4004 net.cpp:406] pool10 <- conv10
I1109 23:28:11.732983  4004 net.cpp:380] pool10 -> pool10
I1109 23:28:11.733011  4004 net.cpp:122] Setting up pool10
I1109 23:28:11.733016  4004 net.cpp:129] Top shape: 512 512 2 2 (1048576)
I1109 23:28:11.733016  4004 net.cpp:137] Memory required for data: 927303680
I1109 23:28:11.733018  4004 layer_factory.hpp:77] Creating layer fc65
I1109 23:28:11.733022  4004 net.cpp:84] Creating Layer fc65
I1109 23:28:11.733024  4004 net.cpp:406] fc65 <- pool10
I1109 23:28:11.733027  4004 net.cpp:380] fc65 -> fc65
I1109 23:28:11.745651  4004 net.cpp:122] Setting up fc65
I1109 23:28:11.745700  4004 net.cpp:129] Top shape: 512 1024 (524288)
I1109 23:28:11.745703  4004 net.cpp:137] Memory required for data: 929400832
I1109 23:28:11.745715  4004 layer_factory.hpp:77] Creating layer relu65
I1109 23:28:11.745730  4004 net.cpp:84] Creating Layer relu65
I1109 23:28:11.745735  4004 net.cpp:406] relu65 <- fc65
I1109 23:28:11.745743  4004 net.cpp:367] relu65 -> fc65 (in-place)
I1109 23:28:11.746273  4004 net.cpp:122] Setting up relu65
I1109 23:28:11.746282  4004 net.cpp:129] Top shape: 512 1024 (524288)
I1109 23:28:11.746284  4004 net.cpp:137] Memory required for data: 931497984
I1109 23:28:11.746285  4004 layer_factory.hpp:77] Creating layer drop65
I1109 23:28:11.746290  4004 net.cpp:84] Creating Layer drop65
I1109 23:28:11.746294  4004 net.cpp:406] drop65 <- fc65
I1109 23:28:11.746296  4004 net.cpp:367] drop65 -> fc65 (in-place)
I1109 23:28:11.746338  4004 net.cpp:122] Setting up drop65
I1109 23:28:11.746342  4004 net.cpp:129] Top shape: 512 1024 (524288)
I1109 23:28:11.746345  4004 net.cpp:137] Memory required for data: 933595136
I1109 23:28:11.746346  4004 layer_factory.hpp:77] Creating layer fc66
I1109 23:28:11.746363  4004 net.cpp:84] Creating Layer fc66
I1109 23:28:11.746366  4004 net.cpp:406] fc66 <- fc65
I1109 23:28:11.746368  4004 net.cpp:380] fc66 -> fc66
I1109 23:28:11.752846  4004 net.cpp:122] Setting up fc66
I1109 23:28:11.752888  4004 net.cpp:129] Top shape: 512 1024 (524288)
I1109 23:28:11.752890  4004 net.cpp:137] Memory required for data: 935692288
I1109 23:28:11.752898  4004 layer_factory.hpp:77] Creating layer relu66
I1109 23:28:11.752904  4004 net.cpp:84] Creating Layer relu66
I1109 23:28:11.752907  4004 net.cpp:406] relu66 <- fc66
I1109 23:28:11.752912  4004 net.cpp:367] relu66 -> fc66 (in-place)
I1109 23:28:11.753072  4004 net.cpp:122] Setting up relu66
I1109 23:28:11.753077  4004 net.cpp:129] Top shape: 512 1024 (524288)
I1109 23:28:11.753078  4004 net.cpp:137] Memory required for data: 937789440
I1109 23:28:11.753080  4004 layer_factory.hpp:77] Creating layer drop66
I1109 23:28:11.753084  4004 net.cpp:84] Creating Layer drop66
I1109 23:28:11.753087  4004 net.cpp:406] drop66 <- fc66
I1109 23:28:11.753088  4004 net.cpp:367] drop66 -> fc66 (in-place)
I1109 23:28:11.753105  4004 net.cpp:122] Setting up drop66
I1109 23:28:11.753109  4004 net.cpp:129] Top shape: 512 1024 (524288)
I1109 23:28:11.753110  4004 net.cpp:137] Memory required for data: 939886592
I1109 23:28:11.753113  4004 layer_factory.hpp:77] Creating layer fc100
I1109 23:28:11.753115  4004 net.cpp:84] Creating Layer fc100
I1109 23:28:11.753118  4004 net.cpp:406] fc100 <- fc66
I1109 23:28:11.753121  4004 net.cpp:380] fc100 -> fc100
I1109 23:28:11.753835  4004 net.cpp:122] Setting up fc100
I1109 23:28:11.753844  4004 net.cpp:129] Top shape: 512 10 (5120)
I1109 23:28:11.753845  4004 net.cpp:137] Memory required for data: 939907072
I1109 23:28:11.753849  4004 layer_factory.hpp:77] Creating layer loss
I1109 23:28:11.753854  4004 net.cpp:84] Creating Layer loss
I1109 23:28:11.753856  4004 net.cpp:406] loss <- fc100
I1109 23:28:11.753859  4004 net.cpp:406] loss <- label
I1109 23:28:11.753865  4004 net.cpp:380] loss -> loss
I1109 23:28:11.753875  4004 layer_factory.hpp:77] Creating layer loss
…
I1109 23:28:11.754175  4004 net.cpp:255] Network initialization done.
I1109 23:28:11.754425  4004 solver.cpp:172] Creating test net (#0) specified by test_net file: /home/ljf/caffe-master/examples/ljftest_cifar10_VggNet/test.prototxt
I1109 23:28:11.754576  4004 net.cpp:51] Initializing net from parameters: 
state {
  phase: TEST
}
layer {
  name: "cifar10"
  type: "Data"
  top: "data"
  top: "label"
  transform_param {
    scale: 0.00390625
    crop_size: 28
  }
  data_param {
    source: "/home/ljf/caffe-master/examples/ljftest_cifar10_VggNet/test_lmdb"
    batch_size: 100
    backend: LMDB
  }
}
layer {
  name: "conv1"
  type: "Convolution"
  bottom: "data"
  top: "conv1"
  param {
    lr_mult: 1
  }
  param {
    lr_mult: 2
  }
  convolution_param {
    num_output: 64
    pad: 1
    kernel_size: 3
    stride: 1
    weight_filler {
      type: "msra"
    }
    bias_filler {
      type: "constant"
    }
  }
}
layer {
  name: "relu1"
  type: "ReLU"
  bottom: "conv1"
  top: "conv1"
}
layer {
  name: "conv2"
  type: "Convolution"
  bottom: "conv1"
  top: "conv2"
  param {
    lr_mult: 1
  }
  param {
    lr_mult: 2
  }
  convolution_param {
    num_output: 64
    pad: 1
    kernel_size: 3
    stride: 1
    weight_filler {
      type: "msra"
    }
    bias_filler {
      type: "constant"
    }
  }
}
layer {
  name: "relu2"
  type: "ReLU"
  bottom: "conv2"
  top: "conv2"
}
layer {
  name: "pool2"
  type: "Pooling"
  bottom: "conv2"
  top: "pool2"
  pooling_param {
    pool: MAX
    kernel_size: 2
    stride: 2
    pad: 0
  }
}
layer {
  name: "conv3"
  type: "Convolution"
  bottom: "pool2"
  top: "conv3"
  param {
    lr_mult: 1
  }
  param {
    lr_mult: 2
  }
  convolution_param {
    num_output: 128
    pad: 1
    kernel_size: 3
    stride: 1
    weight_filler {
      type: "msra"
    }
    bias_filler {
      type: "constant"
    }
  }
}
layer {
  name: "relu3"
  type: "ReLU"
  bottom: "conv3"
  top: "conv3"
}
layer {
  name: "conv4"
  type: "Convolution"
  bottom: "conv3"
  top: "conv4"
  param {
    lr_mult: 1
  }
  param {
    lr_mult: 2
  }
  convolution_param {
    num_output: 128
    pad: 1
    kernel_size: 3
    stride: 1
    weight_filler {
      type: "msra"
    }
    bias_filler {
      type: "constant"
    }
  }
}
layer {
  name: "relu4"
  type: "ReLU"
  bottom: "conv4"
  top: "conv4"
}
layer {
  name: "pool4"
  type: "Pooling"
  bottom: "conv4"
  top: "pool4"
  pooling_param {
    pool: MAX
    kernel_size: 2
    stride: 2
    pad: 0
  }
}
layer {
  name: "conv5"
  type: "Convolution"
  bottom: "pool4"
  top: "conv5"
  param {
    lr_mult: 1
  }
  param {
    lr_mult: 2
  }
  convolution_param {
    num_output: 256
    pad: 1
    kernel_size: 3
    stride: 1
    weight_filler {
      type: "msra"
    }
    bias_filler {
      type: "constant"
    }
  }
}
layer {
  name: "relu5"
  type: "ReLU"
  bottom: "conv5"
  top: "conv5"
}
layer {
  name: "conv6"
  type: "Convolution"
  bottom: "conv5"
  top: "conv6"
  param {
    lr_mult: 1
  }
  param {
    lr_mult: 2
  }
  convolution_param {
    num_output: 256
    pad: 1
    kernel_size: 3
    stride: 1
    weight_filler {
      type: "msra"
    }
    bias_filler {
      type: "constant"
    }
  }
}
layer {
  name: "relu6"
  type: "ReLU"
  bottom: "conv6"
  top: "conv6"
}
layer {
  name: "conv7"
  type: "Convolution"
  bottom: "conv6"
  top: "conv7"
  param {
    lr_mult: 1
  }
  param {
    lr_mult: 2
  }
  convolution_param {
    num_output: 256
    pad: 1
    kernel_size: 3
    stride: 1
    weight_filler {
      type: "msra"
    }
    bias_filler {
      type: "constant"
    }
  }
}
layer {
  name: "relu7"
  type: "ReLU"
  bottom: "conv7"
  top: "conv7"
}
layer {
  name: "pool7"
  type: "Pooling"
  bottom: "conv7"
  top: "pool7"
  pooling_param {
    pool: MAX
    kernel_size: 2
    stride: 2
    pad: 0
  }
}
layer {
  name: "conv8"
  type: "Convolution"
  bottom: "pool7"
  top: "conv8"
  param {
    lr_mult: 1
  }
  param {
    lr_mult: 2
  }
  convolution_param {
    num_output: 512
    pad: 1
    kernel_size: 3
    stride: 1
    weight_filler {
      type: "msra"
    }
    bias_filler {
      type: "constant"
    }
  }
}
layer {
  name: "relu8"
  type: "ReLU"
  bottom: "conv8"
  top: "conv8"
}
layer {
  name: "conv9"
  type: "Convolution"
  bottom: "conv8"
  top: "conv9"
  param {
    lr_mult: 1
  }
  param {
    lr_mult: 2
  }
  convolution_param {
    num_output: 512
    pad: 1
    kernel_size: 3
    stride: 1
    weight_filler {
      type: "msra"
    }
    bias_filler {
      type: "constant"
    }
  }
}
layer {
  name: "relu9"
  type: "ReLU"
  bottom: "conv9"
  top: "conv9"
}
layer {
  name: "conv10"
  type: "Convolution"
  bottom: "conv9"
  top: "conv10"
  param {
    lr_mult: 1
  }
  param {
    lr_mult: 2
  }
  convolution_param {
    num_output: 512
    pad: 1
    kernel_size: 3
    stride: 1
    weight_filler {
      type: "msra"
    }
    bias_filler {
      type: "constant"
    }
  }
}
layer {
  name: "relu10"
  type: "ReLU"
  bottom: "conv10"
  top: "conv10"
}
layer {
  name: "pool10"
  type: "Pooling"
  bottom: "conv10"
  top: "pool10"
  pooling_param {
    pool: MAX
    kernel_size: 2
    stride: 2
    pad: 0
  }
}
layer {
  name: "fc65"
  type: "InnerProduct"
  bottom: "pool10"
  top: "fc65"
  inner_product_param {
    num_output: 1024
    weight_filler {
      type: "xavier"
    }
    bias_filler {
      type: "constant"
    }
  }
}
layer {
  name: "relu65"
  type: "ReLU"
  bottom: "fc65"
  top: "fc65"
}
layer {
  name: "drop65"
  type: "Dropout"
  bottom: "fc65"
  top: "fc65"
  dropout_param {
    dropout_ratio: 0.5
  }
}
layer {
  name: "fc66"
  type: "InnerProduct"
  bottom: "fc65"
  top: "fc66"
  inner_product_param {
    num_output: 1024
    weight_filler {
      type: "xavier"
    }
    bias_filler {
      type: "constant"
    }
  }
}
layer {
  name: "relu66"
  type: "ReLU"
  bottom: "fc66"
  top: "fc66"
}
layer {
  name: "drop66"
  type: "Dropout"
  bottom: "fc66"
  top: "fc66"
  dropout_param {
    dropout_ratio: 0.5
  }
}
layer {
  name: "fc100"
  type: "InnerProduct"
  bottom: "fc66"
  top: "fc100"
  inner_product_param {
    num_output: 10
    weight_filler {
      type: "xavier"
    }
    bias_filler {
      type: "constant"
    }
  }
}
layer {
  name: "loss"
  type: "SoftmaxWithLoss"
  bottom: "fc100"
  bottom: "label"
  top: "loss"
}
layer {
  name: "acc"
  type: "Accuracy"
  bottom: "fc100"
  bottom: "label"
  top: "acc"
  include {
    phase: TEST
  }
}
I1109 23:28:11.754665  4004 layer_factory.hpp:77] Creating layer cifar10
I1109 23:28:11.754705  4004 db_lmdb.cpp:35] Opened lmdb /home/ljf/caffe-master/examples/ljftest_cifar10_VggNet/test_lmdb
I1109 23:28:11.754715  4004 net.cpp:84] Creating Layer cifar10
I1109 23:28:11.754719  4004 net.cpp:380] cifar10 -> data
I1109 23:28:11.754724  4004 net.cpp:380] cifar10 -> label
I1109 23:28:11.754797  4004 data_layer.cpp:45] output data size: 100,3,28,28
I1109 23:28:11.757061  4004 net.cpp:122] Setting up cifar10
I1109 23:28:11.757076  4004 net.cpp:129] Top shape: 100 3 28 28 (235200)
I1109 23:28:11.757079  4004 net.cpp:129] Top shape: 100 (100)
I1109 23:28:11.757081  4004 net.cpp:137] Memory required for data: 941200
I1109 23:28:11.757083  4004 layer_factory.hpp:77] Creating layer label_cifar10_1_split
I1109 23:28:11.757092  4004 net.cpp:84] Creating Layer label_cifar10_1_split
I1109 23:28:11.757094  4004 net.cpp:406] label_cifar10_1_split <- label
I1109 23:28:11.757113  4004 net.cpp:380] label_cifar10_1_split -> label_cifar10_1_split_0
I1109 23:28:11.757119  4004 net.cpp:380] label_cifar10_1_split -> label_cifar10_1_split_1
I1109 23:28:11.757191  4004 net.cpp:122] Setting up label_cifar10_1_split
I1109 23:28:11.757196  4004 net.cpp:129] Top shape: 100 (100)
I1109 23:28:11.757199  4004 net.cpp:129] Top shape: 100 (100)
I1109 23:28:11.757200  4004 net.cpp:137] Memory required for data: 942000
I1109 23:28:11.757201  4004 layer_factory.hpp:77] Creating layer conv1
I1109 23:28:11.757210  4004 net.cpp:84] Creating Layer conv1
I1109 23:28:11.757226  4004 net.cpp:406] conv1 <- data
I1109 23:28:11.757230  4004 net.cpp:380] conv1 -> conv1
I1109 23:28:11.758051  4004 net.cpp:122] Setting up conv1
I1109 23:28:11.758060  4004 net.cpp:129] Top shape: 100 64 28 28 (5017600)
I1109 23:28:11.758062  4004 net.cpp:137] Memory required for data: 21012400
I1109 23:28:11.758069  4004 layer_factory.hpp:77] Creating layer relu1
I1109 23:28:11.758072  4004 net.cpp:84] Creating Layer relu1
I1109 23:28:11.758075  4004 net.cpp:406] relu1 <- conv1
I1109 23:28:11.758077  4004 net.cpp:367] relu1 -> conv1 (in-place)
I1109 23:28:11.758193  4004 net.cpp:122] Setting up relu1
I1109 23:28:11.758198  4004 net.cpp:129] Top shape: 100 64 28 28 (5017600)
I1109 23:28:11.758201  4004 net.cpp:137] Memory required for data: 41082800
I1109 23:28:11.758203  4004 layer_factory.hpp:77] Creating layer conv2
I1109 23:28:11.758208  4004 net.cpp:84] Creating Layer conv2
I1109 23:28:11.758231  4004 net.cpp:406] conv2 <- conv1
I1109 23:28:11.758236  4004 net.cpp:380] conv2 -> conv2
I1109 23:28:11.759603  4004 net.cpp:122] Setting up conv2
I1109 23:28:11.759614  4004 net.cpp:129] Top shape: 100 64 28 28 (5017600)
I1109 23:28:11.759618  4004 net.cpp:137] Memory required for data: 61153200
I1109 23:28:11.759642  4004 layer_factory.hpp:77] Creating layer relu2
I1109 23:28:11.759649  4004 net.cpp:84] Creating Layer relu2
I1109 23:28:11.759654  4004 net.cpp:406] relu2 <- conv2
I1109 23:28:11.759660  4004 net.cpp:367] relu2 -> conv2 (in-place)
I1109 23:28:11.760161  4004 net.cpp:122] Setting up relu2
I1109 23:28:11.760172  4004 net.cpp:129] Top shape: 100 64 28 28 (5017600)
I1109 23:28:11.760193  4004 net.cpp:137] Memory required for data: 81223600
I1109 23:28:11.760197  4004 layer_factory.hpp:77] Creating layer pool2
I1109 23:28:11.760203  4004 net.cpp:84] Creating Layer pool2
I1109 23:28:11.760207  4004 net.cpp:406] pool2 <- conv2
I1109 23:28:11.760212  4004 net.cpp:380] pool2 -> pool2
I1109 23:28:11.760252  4004 net.cpp:122] Setting up pool2
I1109 23:28:11.760262  4004 net.cpp:129] Top shape: 100 64 14 14 (1254400)
I1109 23:28:11.760265  4004 net.cpp:137] Memory required for data: 86241200
I1109 23:28:11.760272  4004 layer_factory.hpp:77] Creating layer conv3
I1109 23:28:11.760277  4004 net.cpp:84] Creating Layer conv3
I1109 23:28:11.760280  4004 net.cpp:406] conv3 <- pool2
I1109 23:28:11.760283  4004 net.cpp:380] conv3 -> conv3
I1109 23:28:11.762012  4004 net.cpp:122] Setting up conv3
I1109 23:28:11.762022  4004 net.cpp:129] Top shape: 100 128 14 14 (2508800)
I1109 23:28:11.762023  4004 net.cpp:137] Memory required for data: 96276400
I1109 23:28:11.762029  4004 layer_factory.hpp:77] Creating layer relu3
I1109 23:28:11.762035  4004 net.cpp:84] Creating Layer relu3
I1109 23:28:11.762038  4004 net.cpp:406] relu3 <- conv3
I1109 23:28:11.762042  4004 net.cpp:367] relu3 -> conv3 (in-place)
I1109 23:28:11.762429  4004 net.cpp:122] Setting up relu3
I1109 23:28:11.762439  4004 net.cpp:129] Top shape: 100 128 14 14 (2508800)
I1109 23:28:11.762440  4004 net.cpp:137] Memory required for data: 106311600
I1109 23:28:11.762442  4004 layer_factory.hpp:77] Creating layer conv4
I1109 23:28:11.762449  4004 net.cpp:84] Creating Layer conv4
I1109 23:28:11.762451  4004 net.cpp:406] conv4 <- conv3
I1109 23:28:11.762455  4004 net.cpp:380] conv4 -> conv4
I1109 23:28:11.764240  4004 net.cpp:122] Setting up conv4
I1109 23:28:11.764250  4004 net.cpp:129] Top shape: 100 128 14 14 (2508800)
I1109 23:28:11.764251  4004 net.cpp:137] Memory required for data: 116346800
I1109 23:28:11.764256  4004 layer_factory.hpp:77] Creating layer relu4
I1109 23:28:11.764259  4004 net.cpp:84] Creating Layer relu4
I1109 23:28:11.764271  4004 net.cpp:406] relu4 <- conv4
I1109 23:28:11.764274  4004 net.cpp:367] relu4 -> conv4 (in-place)
I1109 23:28:11.764385  4004 net.cpp:122] Setting up relu4
I1109 23:28:11.764391  4004 net.cpp:129] Top shape: 100 128 14 14 (2508800)
I1109 23:28:11.764394  4004 net.cpp:137] Memory required for data: 126382000
I1109 23:28:11.764395  4004 layer_factory.hpp:77] Creating layer pool4
I1109 23:28:11.764398  4004 net.cpp:84] Creating Layer pool4
I1109 23:28:11.764401  4004 net.cpp:406] pool4 <- conv4
I1109 23:28:11.764405  4004 net.cpp:380] pool4 -> pool4
I1109 23:28:11.764433  4004 net.cpp:122] Setting up pool4
I1109 23:28:11.764437  4004 net.cpp:129] Top shape: 100 128 7 7 (627200)
I1109 23:28:11.764441  4004 net.cpp:137] Memory required for data: 128890800
I1109 23:28:11.764441  4004 layer_factory.hpp:77] Creating layer conv5
I1109 23:28:11.764447  4004 net.cpp:84] Creating Layer conv5
I1109 23:28:11.764449  4004 net.cpp:406] conv5 <- pool4
I1109 23:28:11.764453  4004 net.cpp:380] conv5 -> conv5
I1109 23:28:11.767354  4004 net.cpp:122] Setting up conv5
I1109 23:28:11.767362  4004 net.cpp:129] Top shape: 100 256 7 7 (1254400)
I1109 23:28:11.767364  4004 net.cpp:137] Memory required for data: 133908400
I1109 23:28:11.767372  4004 layer_factory.hpp:77] Creating layer relu5
I1109 23:28:11.767379  4004 net.cpp:84] Creating Layer relu5
I1109 23:28:11.767380  4004 net.cpp:406] relu5 <- conv5
I1109 23:28:11.767383  4004 net.cpp:367] relu5 -> conv5 (in-place)
I1109 23:28:11.767498  4004 net.cpp:122] Setting up relu5
I1109 23:28:11.767503  4004 net.cpp:129] Top shape: 100 256 7 7 (1254400)
I1109 23:28:11.767505  4004 net.cpp:137] Memory required for data: 138926000
I1109 23:28:11.767508  4004 layer_factory.hpp:77] Creating layer conv6
I1109 23:28:11.767513  4004 net.cpp:84] Creating Layer conv6
I1109 23:28:11.767515  4004 net.cpp:406] conv6 <- conv5
I1109 23:28:11.767518  4004 net.cpp:380] conv6 -> conv6
I1109 23:28:11.772600  4004 net.cpp:122] Setting up conv6
I1109 23:28:11.772610  4004 net.cpp:129] Top shape: 100 256 7 7 (1254400)
I1109 23:28:11.772613  4004 net.cpp:137] Memory required for data: 143943600
I1109 23:28:11.772616  4004 layer_factory.hpp:77] Creating layer relu6
I1109 23:28:11.772619  4004 net.cpp:84] Creating Layer relu6
I1109 23:28:11.772622  4004 net.cpp:406] relu6 <- conv6
I1109 23:28:11.772625  4004 net.cpp:367] relu6 -> conv6 (in-place)
I1109 23:28:11.772758  4004 net.cpp:122] Setting up relu6
I1109 23:28:11.772763  4004 net.cpp:129] Top shape: 100 256 7 7 (1254400)
I1109 23:28:11.772765  4004 net.cpp:137] Memory required for data: 148961200
I1109 23:28:11.772768  4004 layer_factory.hpp:77] Creating layer conv7
I1109 23:28:11.772773  4004 net.cpp:84] Creating Layer conv7
I1109 23:28:11.772775  4004 net.cpp:406] conv7 <- conv6
I1109 23:28:11.772779  4004 net.cpp:380] conv7 -> conv7
I1109 23:28:11.777827  4004 net.cpp:122] Setting up conv7
I1109 23:28:11.777850  4004 net.cpp:129] Top shape: 100 256 7 7 (1254400)
I1109 23:28:11.777853  4004 net.cpp:137] Memory required for data: 153978800
I1109 23:28:11.777858  4004 layer_factory.hpp:77] Creating layer relu7
I1109 23:28:11.777861  4004 net.cpp:84] Creating Layer relu7
I1109 23:28:11.777863  4004 net.cpp:406] relu7 <- conv7
I1109 23:28:11.777868  4004 net.cpp:367] relu7 -> conv7 (in-place)
I1109 23:28:11.777972  4004 net.cpp:122] Setting up relu7
I1109 23:28:11.777977  4004 net.cpp:129] Top shape: 100 256 7 7 (1254400)
I1109 23:28:11.777979  4004 net.cpp:137] Memory required for data: 158996400
I1109 23:28:11.777981  4004 layer_factory.hpp:77] Creating layer pool7
I1109 23:28:11.777984  4004 net.cpp:84] Creating Layer pool7
I1109 23:28:11.777987  4004 net.cpp:406] pool7 <- conv7
I1109 23:28:11.777989  4004 net.cpp:380] pool7 -> pool7
I1109 23:28:11.778033  4004 net.cpp:122] Setting up pool7
I1109 23:28:11.778043  4004 net.cpp:129] Top shape: 100 256 4 4 (409600)
I1109 23:28:11.778044  4004 net.cpp:137] Memory required for data: 160634800
I1109 23:28:11.778046  4004 layer_factory.hpp:77] Creating layer conv8
I1109 23:28:11.778053  4004 net.cpp:84] Creating Layer conv8
I1109 23:28:11.778066  4004 net.cpp:406] conv8 <- pool7
I1109 23:28:11.778070  4004 net.cpp:380] conv8 -> conv8
I1109 23:28:11.790717  4004 net.cpp:122] Setting up conv8
I1109 23:28:11.790748  4004 net.cpp:129] Top shape: 100 512 4 4 (819200)
I1109 23:28:11.790751  4004 net.cpp:137] Memory required for data: 163911600
I1109 23:28:11.790760  4004 layer_factory.hpp:77] Creating layer relu8
I1109 23:28:11.790766  4004 net.cpp:84] Creating Layer relu8
I1109 23:28:11.790769  4004 net.cpp:406] relu8 <- conv8
I1109 23:28:11.790774  4004 net.cpp:367] relu8 -> conv8 (in-place)
I1109 23:28:11.791085  4004 net.cpp:122] Setting up relu8
I1109 23:28:11.791092  4004 net.cpp:129] Top shape: 100 512 4 4 (819200)
I1109 23:28:11.791095  4004 net.cpp:137] Memory required for data: 167188400
I1109 23:28:11.791097  4004 layer_factory.hpp:77] Creating layer conv9
I1109 23:28:11.791121  4004 net.cpp:84] Creating Layer conv9
I1109 23:28:11.791123  4004 net.cpp:406] conv9 <- conv8
I1109 23:28:11.791127  4004 net.cpp:380] conv9 -> conv9
I1109 23:28:11.809334  4004 net.cpp:122] Setting up conv9
I1109 23:28:11.809353  4004 net.cpp:129] Top shape: 100 512 4 4 (819200)
I1109 23:28:11.809355  4004 net.cpp:137] Memory required for data: 170465200
I1109 23:28:11.809365  4004 layer_factory.hpp:77] Creating layer relu9
I1109 23:28:11.809370  4004 net.cpp:84] Creating Layer relu9
I1109 23:28:11.809373  4004 net.cpp:406] relu9 <- conv9
I1109 23:28:11.809376  4004 net.cpp:367] relu9 -> conv9 (in-place)
I1109 23:28:11.809749  4004 net.cpp:122] Setting up relu9
I1109 23:28:11.809757  4004 net.cpp:129] Top shape: 100 512 4 4 (819200)
I1109 23:28:11.809759  4004 net.cpp:137] Memory required for data: 173742000
I1109 23:28:11.809762  4004 layer_factory.hpp:77] Creating layer conv10
I1109 23:28:11.809768  4004 net.cpp:84] Creating Layer conv10
I1109 23:28:11.809770  4004 net.cpp:406] conv10 <- conv9
I1109 23:28:11.809774  4004 net.cpp:380] conv10 -> conv10
I1109 23:28:11.827431  4004 net.cpp:122] Setting up conv10
I1109 23:28:11.827466  4004 net.cpp:129] Top shape: 100 512 4 4 (819200)
I1109 23:28:11.827469  4004 net.cpp:137] Memory required for data: 177018800
I1109 23:28:11.827476  4004 layer_factory.hpp:77] Creating layer relu10
I1109 23:28:11.827484  4004 net.cpp:84] Creating Layer relu10
I1109 23:28:11.827488  4004 net.cpp:406] relu10 <- conv10
I1109 23:28:11.827494  4004 net.cpp:367] relu10 -> conv10 (in-place)
I1109 23:28:11.827620  4004 net.cpp:122] Setting up relu10
I1109 23:28:11.827625  4004 net.cpp:129] Top shape: 100 512 4 4 (819200)
I1109 23:28:11.827641  4004 net.cpp:137] Memory required for data: 180295600
I1109 23:28:11.827643  4004 layer_factory.hpp:77] Creating layer pool10
I1109 23:28:11.827646  4004 net.cpp:84] Creating Layer pool10
I1109 23:28:11.827648  4004 net.cpp:406] pool10 <- conv10
I1109 23:28:11.827651  4004 net.cpp:380] pool10 -> pool10
I1109 23:28:11.827682  4004 net.cpp:122] Setting up pool10
I1109 23:28:11.827685  4004 net.cpp:129] Top shape: 100 512 2 2 (204800)
I1109 23:28:11.827687  4004 net.cpp:137] Memory required for data: 181114800
I1109 23:28:11.827688  4004 layer_factory.hpp:77] Creating layer fc65
I1109 23:28:11.827692  4004 net.cpp:84] Creating Layer fc65
I1109 23:28:11.827694  4004 net.cpp:406] fc65 <- pool10
I1109 23:28:11.827697  4004 net.cpp:380] fc65 -> fc65
I1109 23:28:11.837296  4004 net.cpp:122] Setting up fc65
I1109 23:28:11.837321  4004 net.cpp:129] Top shape: 100 1024 (102400)
I1109 23:28:11.837323  4004 net.cpp:137] Memory required for data: 181524400
I1109 23:28:11.837330  4004 layer_factory.hpp:77] Creating layer relu65
I1109 23:28:11.837337  4004 net.cpp:84] Creating Layer relu65
I1109 23:28:11.837339  4004 net.cpp:406] relu65 <- fc65
I1109 23:28:11.837343  4004 net.cpp:367] relu65 -> fc65 (in-place)
I1109 23:28:11.837525  4004 net.cpp:122] Setting up relu65
I1109 23:28:11.837532  4004 net.cpp:129] Top shape: 100 1024 (102400)
I1109 23:28:11.837548  4004 net.cpp:137] Memory required for data: 181934000
I1109 23:28:11.837549  4004 layer_factory.hpp:77] Creating layer drop65
I1109 23:28:11.837566  4004 net.cpp:84] Creating Layer drop65
I1109 23:28:11.837569  4004 net.cpp:406] drop65 <- fc65
I1109 23:28:11.837572  4004 net.cpp:367] drop65 -> fc65 (in-place)
I1109 23:28:11.837594  4004 net.cpp:122] Setting up drop65
I1109 23:28:11.837597  4004 net.cpp:129] Top shape: 100 1024 (102400)
I1109 23:28:11.837599  4004 net.cpp:137] Memory required for data: 182343600
I1109 23:28:11.837600  4004 layer_factory.hpp:77] Creating layer fc66
I1109 23:28:11.837605  4004 net.cpp:84] Creating Layer fc66
I1109 23:28:11.837606  4004 net.cpp:406] fc66 <- fc65
I1109 23:28:11.837610  4004 net.cpp:380] fc66 -> fc66
I1109 23:28:11.843013  4004 net.cpp:122] Setting up fc66
I1109 23:28:11.843044  4004 net.cpp:129] Top shape: 100 1024 (102400)
I1109 23:28:11.843046  4004 net.cpp:137] Memory required for data: 182753200
I1109 23:28:11.843052  4004 layer_factory.hpp:77] Creating layer relu66
I1109 23:28:11.843060  4004 net.cpp:84] Creating Layer relu66
I1109 23:28:11.843062  4004 net.cpp:406] relu66 <- fc66
I1109 23:28:11.843066  4004 net.cpp:367] relu66 -> fc66 (in-place)
I1109 23:28:11.843230  4004 net.cpp:122] Setting up relu66
I1109 23:28:11.843236  4004 net.cpp:129] Top shape: 100 1024 (102400)
I1109 23:28:11.843253  4004 net.cpp:137] Memory required for data: 183162800
I1109 23:28:11.843255  4004 layer_factory.hpp:77] Creating layer drop66
I1109 23:28:11.843260  4004 net.cpp:84] Creating Layer drop66
I1109 23:28:11.843261  4004 net.cpp:406] drop66 <- fc66
I1109 23:28:11.843263  4004 net.cpp:367] drop66 -> fc66 (in-place)
I1109 23:28:11.843283  4004 net.cpp:122] Setting up drop66
I1109 23:28:11.843287  4004 net.cpp:129] Top shape: 100 1024 (102400)
I1109 23:28:11.843289  4004 net.cpp:137] Memory required for data: 183572400
I1109 23:28:11.843291  4004 layer_factory.hpp:77] Creating layer fc100
I1109 23:28:11.843298  4004 net.cpp:84] Creating Layer fc100
I1109 23:28:11.843300  4004 net.cpp:406] fc100 <- fc66
I1109 23:28:11.843303  4004 net.cpp:380] fc100 -> fc100
I1109 23:28:11.843466  4004 net.cpp:122] Setting up fc100
I1109 23:28:11.843469  4004 net.cpp:129] Top shape: 100 10 (1000)
I1109 23:28:11.843471  4004 net.cpp:137] Memory required for data: 183576400
I1109 23:28:11.843487  4004 layer_factory.hpp:77] Creating layer fc100_fc100_0_split
I1109 23:28:11.843492  4004 net.cpp:84] Creating Layer fc100_fc100_0_split
I1109 23:28:11.843493  4004 net.cpp:406] fc100_fc100_0_split <- fc100
I1109 23:28:11.843497  4004 net.cpp:380] fc100_fc100_0_split -> fc100_fc100_0_split_0
I1109 23:28:11.843502  4004 net.cpp:380] fc100_fc100_0_split -> fc100_fc100_0_split_1
I1109 23:28:11.843544  4004 net.cpp:122] Setting up fc100_fc100_0_split
I1109 23:28:11.843559  4004 net.cpp:129] Top shape: 100 10 (1000)
I1109 23:28:11.843564  4004 net.cpp:129] Top shape: 100 10 (1000)
I1109 23:28:11.843565  4004 net.cpp:137] Memory required for data: 183584400
I1109 23:28:11.843567  4004 layer_factory.hpp:77] Creating layer loss
I1109 23:28:11.843585  4004 net.cpp:84] Creating Layer loss
I1109 23:28:11.843587  4004 net.cpp:406] loss <- fc100_fc100_0_split_0
I1109 23:28:11.843590  4004 net.cpp:406] loss <- label_cifar10_1_split_0
I1109 23:28:11.843593  4004 net.cpp:380] loss -> loss
…
