…
I0925 21:35:42.932087 19975 upgrade_proto.cpp:82] Successfully upgraded batch norm layers using deprecated params.
I0925 21:35:42.932996 19975 net.cpp:82] Initializing net from parameters: 
name: "ResNet-20"
state {
  phase: TRAIN
  level: 0
  stage: ""
}
layer {
  name: "Data1"
  type: "Data"
  top: "data"
  top: "label"
  transform_param {
    scale: 0.00390625
    mirror: true
    crop_size: 32
    mean_value: 125.3
    mean_value: 122.9
    mean_value: 113.8
  }
  data_param {
    source: "/home/lijianfei/datasets/cifar10_40/train_lmdb"
    batch_size: 128
    backend: LMDB
  }
  image_data_param {
    shuffle: true
  }
}
layer {
  name: "conv1"
  type: "Convolution"
  bottom: "data"
  top: "conv1"
  param {
    lr_mult: 1
    decay_mult: 1
  }
  param {
    lr_mult: 2
    decay_mult: 0
  }
  convolution_param {
    num_output: 16
    bias_term: true
    pad: 1
    kernel_size: 3
    stride: 1
    weight_filler {
      type: "msra"
    }
    bias_filler {
      type: "constant"
      value: 0
    }
  }
}
layer {
  name: "conv1/bn"
  type: "BatchNorm"
  bottom: "conv1"
  top: "conv1"
  param {
    lr_mult: 0
    decay_mult: 0
  }
  param {
    lr_mult: 0
    decay_mult: 0
  }
  param {
    lr_mult: 0
    decay_mult: 0
  }
  batch_norm_param {
    use_global_stats: false
  }
}
layer {
  name: "conv1/scale"
  type: "Scale"
  bottom: "conv1"
  top: "conv1"
  scale_param {
    bias_term: true
  }
}
layer {
  name: "conv1/ReLU"
  type: "ReLU"
  bottom: "conv1"
  top: "conv1"
}
layer {
  name: "conv2_1_0"
  type: "Convolution"
  bottom: "conv1"
  top: "conv2_1_0"
  param {
    lr_mult: 1
    decay_mult: 1
  }
  param {
    lr_mult: 2
    decay_mult: 0
  }
  convolution_param {
    num_output: 16
    bias_term: true
    pad: 1
    kernel_size: 3
    stride: 1
    weight_filler {
      type: "msra"
    }
    bias_filler {
      type: "constant"
      value: 0
    }
  }
}
layer {
  name: "conv2_1_bn0"
  type: "BatchNorm"
  bottom: "conv2_1_0"
  top: "conv2_1_0"
  param {
    lr_mult: 0
    decay_mult: 0
  }
  param {
    lr_mult: 0
    decay_mult: 0
  }
  param {
    lr_mult: 0
    decay_mult: 0
  }
  batch_norm_param {
    use_global_stats: false
  }
}
layer {
  name: "conv2_1_scale0"
  type: "Scale"
  bottom: "conv2_1_0"
  top: "conv2_1_0"
  scale_param {
    bias_term: true
  }
}
layer {
  name: "conv2_1_ReLU0"
  type: "ReLU"
  bottom: "conv2_1_0"
  top: "conv2_1_0"
}
layer {
  name: "conv2_1_1"
  type: "Convolution"
  bottom: "conv2_1_0"
  top: "conv2_1_1"
  param {
    lr_mult: 1
    decay_mult: 1
  }
  param {
    lr_mult: 2
    decay_mult: 0
  }
  convolution_param {
    num_output: 16
    bias_term: true
    pad: 1
    kernel_size: 3
    stride: 1
    weight_filler {
      type: "msra"
    }
    bias_filler {
      type: "constant"
      value: 0
    }
  }
}
layer {
  name: "conv2_1bn1"
  type: "BatchNorm"
  bottom: "conv2_1_1"
  top: "conv2_1_1"
  param {
    lr_mult: 0
    decay_mult: 0
  }
  param {
    lr_mult: 0
    decay_mult: 0
  }
  param {
    lr_mult: 0
    decay_mult: 0
  }
  batch_norm_param {
    use_global_stats: false
  }
}
layer {
  name: "conv2_1_scale1"
  type: "Scale"
  bottom: "conv2_1_1"
  top: "conv2_1_1"
  scale_param {
    bias_term: true
  }
}
layer {
  name: "conv2_Eltwise_1"
  type: "Eltwise"
  bottom: "conv1"
  bottom: "conv2_1_1"
  top: "conv2_Eltwise_1"
  eltwise_param {
    operation: SUM
  }
}
layer {
  name: "conv2_1ReLU_1"
  type: "ReLU"
  bottom: "conv2_Eltwise_1"
  top: "conv2_Eltwise_1"
}
layer {
  name: "conv2_2_0"
  type: "Convolution"
  bottom: "conv2_Eltwise_1"
  top: "conv2_2_0"
  param {
    lr_mult: 1
    decay_mult: 1
  }
  param {
    lr_mult: 2
    decay_mult: 0
  }
  convolution_param {
    num_output: 16
    bias_term: true
    pad: 1
    kernel_size: 3
    stride: 1
    weight_filler {
      type: "msra"
    }
    bias_filler {
      type: "constant"
      value: 0
    }
  }
}
layer {
  name: "conv2_2_bn0"
  type: "BatchNorm"
  bottom: "conv2_2_0"
  top: "conv2_2_0"
  param {
    lr_mult: 0
    decay_mult: 0
  }
  param {
    lr_mult: 0
    decay_mult: 0
  }
  param {
    lr_mult: 0
    decay_mult: 0
  }
  batch_norm_param {
    use_global_stats: false
  }
}
layer {
  name: "conv2_2_scale0"
  type: "Scale"
  bottom: "conv2_2_0"
  top: "conv2_2_0"
  scale_param {
    bias_term: true
  }
}
layer {
  name: "conv2_2_ReLU0"
  type: "ReLU"
  bottom: "conv2_2_0"
  top: "conv2_2_0"
}
layer {
  name: "conv2_2_1"
  type: "Convolution"
  bottom: "conv2_2_0"
  top: "conv2_2_1"
  param {
    lr_mult: 1
    decay_mult: 1
  }
  param {
    lr_mult: 2
    decay_mult: 0
  }
  convolution_param {
    num_output: 16
    bias_term: true
    pad: 1
    kernel_size: 3
    stride: 1
    weight_filler {
      type: "msra"
    }
    bias_filler {
      type: "constant"
      value: 0
    }
  }
}
layer {
  name: "conv2_2bn1"
  type: "BatchNorm"
  bottom: "conv2_2_1"
  top: "conv2_2_1"
  param {
    lr_mult: 0
    decay_mult: 0
  }
  param {
    lr_mult: 0
    decay_mult: 0
  }
  param {
    lr_mult: 0
    decay_mult: 0
  }
  batch_norm_param {
    use_global_stats: false
  }
}
layer {
  name: "conv2_2_scale1"
  type: "Scale"
  bottom: "conv2_2_1"
  top: "conv2_2_1"
  scale_param {
    bias_term: true
  }
}
layer {
  name: "conv2_Eltwise_2"
  type: "Eltwise"
  bottom: "conv2_Eltwise_1"
  bottom: "conv2_2_1"
  top: "conv2_Eltwise_2"
  eltwise_param {
    operation: SUM
  }
}
layer {
  name: "conv2_2ReLU_1"
  type: "ReLU"
  bottom: "conv2_Eltwise_2"
  top: "conv2_Eltwise_2"
}
layer {
  name: "conv2_3_0"
  type: "Convolution"
  bottom: "conv2_Eltwise_2"
  top: "conv2_3_0"
  param {
    lr_mult: 1
    decay_mult: 1
  }
  param {
    lr_mult: 2
    decay_mult: 0
  }
  convolution_param {
    num_output: 16
    bias_term: true
    pad: 1
    kernel_size: 3
    stride: 1
    weight_filler {
      type: "msra"
    }
    bias_filler {
      type: "constant"
      value: 0
    }
  }
}
layer {
  name: "conv2_3_bn0"
  type: "BatchNorm"
  bottom: "conv2_3_0"
  top: "conv2_3_0"
  param {
    lr_mult: 0
    decay_mult: 0
  }
  param {
    lr_mult: 0
    decay_mult: 0
  }
  param {
    lr_mult: 0
    decay_mult: 0
  }
  batch_norm_param {
    use_global_stats: false
  }
}
layer {
  name: "conv2_3_scale0"
  type: "Scale"
  bottom: "conv2_3_0"
  top: "conv2_3_0"
  scale_param {
    bias_term: true
  }
}
layer {
  name: "conv2_3_ReLU0"
  type: "ReLU"
  bottom: "conv2_3_0"
  top: "conv2_3_0"
}
layer {
  name: "conv2_3_1"
  type: "Convolution"
  bottom: "conv2_3_0"
  top: "conv2_3_1"
  param {
    lr_mult: 1
    decay_mult: 1
  }
  param {
    lr_mult: 2
    decay_mult: 0
  }
  convolution_param {
    num_output: 16
    bias_term: true
    pad: 1
    kernel_size: 3
    stride: 1
    weight_filler {
      type: "msra"
    }
    bias_filler {
      type: "constant"
      value: 0
    }
  }
}
layer {
  name: "conv2_3bn1"
  type: "BatchNorm"
  bottom: "conv2_3_1"
  top: "conv2_3_1"
  param {
    lr_mult: 0
    decay_mult: 0
  }
  param {
    lr_mult: 0
    decay_mult: 0
  }
  param {
    lr_mult: 0
    decay_mult: 0
  }
  batch_norm_param {
    use_global_stats: false
  }
}
layer {
  name: "conv2_3_scale1"
  type: "Scale"
  bottom: "conv2_3_1"
  top: "conv2_3_1"
  scale_param {
    bias_term: true
  }
}
layer {
  name: "conv2_Eltwise_3"
  type: "Eltwise"
  bottom: "conv2_Eltwise_2"
  bottom: "conv2_3_1"
  top: "conv2_Eltwise_3"
  eltwise_param {
    operation: SUM
  }
}
layer {
  name: "conv2_3ReLU_1"
  type: "ReLU"
  bottom: "conv2_Eltwise_3"
  top: "conv2_Eltwise_3"
}
layer {
  name: "conv3_1_0"
  type: "Convolution"
  bottom: "conv2_Eltwise_3"
  top: "conv3_1_0"
  param {
    lr_mult: 1
    decay_mult: 1
  }
  param {
    lr_mult: 2
    decay_mult: 0
  }
  convolution_param {
    num_output: 32
    bias_term: true
    pad: 1
    kernel_size: 3
    stride: 2
    weight_filler {
      type: "msra"
    }
    bias_filler {
      type: "constant"
      value: 0
    }
  }
}
layer {
  name: "conv3_1_bn0"
  type: "BatchNorm"
  bottom: "conv3_1_0"
  top: "conv3_1_0"
  param {
    lr_mult: 0
    decay_mult: 0
  }
  param {
    lr_mult: 0
    decay_mult: 0
  }
  param {
    lr_mult: 0
    decay_mult: 0
  }
  batch_norm_param {
    use_global_stats: false
  }
}
layer {
  name: "conv3_1_scale0"
  type: "Scale"
  bottom: "conv3_1_0"
  top: "conv3_1_0"
  scale_param {
    bias_term: true
  }
}
layer {
  name: "conv3_1_ReLU0"
  type: "ReLU"
  bottom: "conv3_1_0"
  top: "conv3_1_0"
}
layer {
  name: "conv3_1_1"
  type: "Convolution"
  bottom: "conv3_1_0"
  top: "conv3_1_1"
  param {
    lr_mult: 1
    decay_mult: 1
  }
  param {
    lr_mult: 2
    decay_mult: 0
  }
  convolution_param {
    num_output: 32
    bias_term: true
    pad: 1
    kernel_size: 3
    stride: 1
    weight_filler {
      type: "msra"
    }
    bias_filler {
      type: "constant"
      value: 0
    }
  }
}
layer {
  name: "conv3_1bn1"
  type: "BatchNorm"
  bottom: "conv3_1_1"
  top: "conv3_1_1"
  param {
    lr_mult: 0
    decay_mult: 0
  }
  param {
    lr_mult: 0
    decay_mult: 0
  }
  param {
    lr_mult: 0
    decay_mult: 0
  }
  batch_norm_param {
    use_global_stats: false
  }
}
layer {
  name: "conv3_1_scale1"
  type: "Scale"
  bottom: "conv3_1_1"
  top: "conv3_1_1"
  scale_param {
    bias_term: true
  }
}
layer {
  name: "conv3_1_down"
  type: "Convolution"
  bottom: "conv2_Eltwise_3"
  top: "conv3_1_down"
  param {
    lr_mult: 1
    decay_mult: 1
  }
  param {
    lr_mult: 2
    decay_mult: 0
  }
  convolution_param {
    num_output: 32
    bias_term: true
    pad: 0
    kernel_size: 1
    stride: 2
    weight_filler {
      type: "msra"
    }
    bias_filler {
      type: "constant"
      value: 0
    }
  }
}
layer {
  name: "conv3_1_bn_down"
  type: "BatchNorm"
  bottom: "conv3_1_down"
  top: "conv3_1_down"
  param {
    lr_mult: 0
    decay_mult: 0
  }
  param {
    lr_mult: 0
    decay_mult: 0
  }
  param {
    lr_mult: 0
    decay_mult: 0
  }
  batch_norm_param {
    use_global_stats: false
  }
}
layer {
  name: "conv3_1_scale_down"
  type: "Scale"
  bottom: "conv3_1_down"
  top: "conv3_1_down"
  scale_param {
    bias_term: true
  }
}
layer {
  name: "conv3_Eltwise_1"
  type: "Eltwise"
  bottom: "conv3_1_1"
  bottom: "conv3_1_down"
  top: "conv3_Eltwise_1"
  eltwise_param {
    operation: SUM
  }
}
layer {
  name: "conv3_1ReLU_1"
  type: "ReLU"
  bottom: "conv3_Eltwise_1"
  top: "conv3_Eltwise_1"
}
layer {
  name: "conv3_2_0"
  type: "Convolution"
  bottom: "conv3_Eltwise_1"
  top: "conv3_2_0"
  param {
    lr_mult: 1
    decay_mult: 1
  }
  param {
    lr_mult: 2
    decay_mult: 0
  }
  convolution_param {
    num_output: 32
    bias_term: true
    pad: 1
    kernel_size: 3
    stride: 1
    weight_filler {
      type: "msra"
    }
    bias_filler {
      type: "constant"
      value: 0
    }
  }
}
layer {
  name: "conv3_2_bn0"
  type: "BatchNorm"
  bottom: "conv3_2_0"
  top: "conv3_2_0"
  param {
    lr_mult: 0
    decay_mult: 0
  }
  param {
    lr_mult: 0
    decay_mult: 0
  }
  param {
    lr_mult: 0
    decay_mult: 0
  }
  batch_norm_param {
    use_global_stats: false
  }
}
layer {
  name: "conv3_2_scale0"
  type: "Scale"
  bottom: "conv3_2_0"
  top: "conv3_2_0"
  scale_param {
    bias_term: true
  }
}
layer {
  name: "conv3_2_ReLU0"
  type: "ReLU"
  bottom: "conv3_2_0"
  top: "conv3_2_0"
}
layer {
  name: "conv3_2_1"
  type: "Convolution"
  bottom: "conv3_2_0"
  top: "conv3_2_1"
  param {
    lr_mult: 1
    decay_mult: 1
  }
  param {
    lr_mult: 2
    decay_mult: 0
  }
  convolution_param {
    num_output: 32
    bias_term: true
    pad: 1
    kernel_size: 3
    stride: 1
    weight_filler {
      type: "msra"
    }
    bias_filler {
      type: "constant"
      value: 0
    }
  }
}
layer {
  name: "conv3_2bn1"
  type: "BatchNorm"
  bottom: "conv3_2_1"
  top: "conv3_2_1"
  param {
    lr_mult: 0
    decay_mult: 0
  }
  param {
    lr_mult: 0
    decay_mult: 0
  }
  param {
    lr_mult: 0
    decay_mult: 0
  }
  batch_norm_param {
    use_global_stats: false
  }
}
layer {
  name: "conv3_2_scale1"
  type: "Scale"
  bottom: "conv3_2_1"
  top: "conv3_2_1"
  scale_param {
    bias_term: true
  }
}
layer {
  name: "conv3_Eltwise_2"
  type: "Eltwise"
  bottom: "conv3_Eltwise_1"
  bottom: "conv3_2_1"
  top: "conv3_Eltwise_2"
  eltwise_param {
    operation: SUM
  }
}
layer {
  name: "conv3_2ReLU_1"
  type: "ReLU"
  bottom: "conv3_Eltwise_2"
  top: "conv3_Eltwise_2"
}
layer {
  name: "conv3_3_0"
  type: "Convolution"
  bottom: "conv3_Eltwise_2"
  top: "conv3_3_0"
  param {
    lr_mult: 1
    decay_mult: 1
  }
  param {
    lr_mult: 2
    decay_mult: 0
  }
  convolution_param {
    num_output: 32
    bias_term: true
    pad: 1
    kernel_size: 3
    stride: 1
    weight_filler {
      type: "msra"
    }
    bias_filler {
      type: "constant"
      value: 0
    }
  }
}
layer {
  name: "conv3_3_bn0"
  type: "BatchNorm"
  bottom: "conv3_3_0"
  top: "conv3_3_0"
  param {
    lr_mult: 0
    decay_mult: 0
  }
  param {
    lr_mult: 0
    decay_mult: 0
  }
  param {
    lr_mult: 0
    decay_mult: 0
  }
  batch_norm_param {
    use_global_stats: false
  }
}
layer {
  name: "conv3_3_scale0"
  type: "Scale"
  bottom: "conv3_3_0"
  top: "conv3_3_0"
  scale_param {
    bias_term: true
  }
}
layer {
  name: "conv3_3_ReLU0"
  type: "ReLU"
  bottom: "conv3_3_0"
  top: "conv3_3_0"
}
layer {
  name: "conv3_3_1"
  type: "Convolution"
  bottom: "conv3_3_0"
  top: "conv3_3_1"
  param {
    lr_mult: 1
    decay_mult: 1
  }
  param {
    lr_mult: 2
    decay_mult: 0
  }
  convolution_param {
    num_output: 32
    bias_term: true
    pad: 1
    kernel_size: 3
    stride: 1
    weight_filler {
      type: "msra"
    }
    bias_filler {
      type: "constant"
      value: 0
    }
  }
}
layer {
  name: "conv3_3bn1"
  type: "BatchNorm"
  bottom: "conv3_3_1"
  top: "conv3_3_1"
  param {
    lr_mult: 0
    decay_mult: 0
  }
  param {
    lr_mult: 0
    decay_mult: 0
  }
  param {
    lr_mult: 0
    decay_mult: 0
  }
  batch_norm_param {
    use_global_stats: false
  }
}
layer {
  name: "conv3_3_scale1"
  type: "Scale"
  bottom: "conv3_3_1"
  top: "conv3_3_1"
  scale_param {
    bias_term: true
  }
}
layer {
  name: "conv3_Eltwise_3"
  type: "Eltwise"
  bottom: "conv3_Eltwise_2"
  bottom: "conv3_3_1"
  top: "conv3_Eltwise_3"
  eltwise_param {
    operation: SUM
  }
}
layer {
  name: "conv3_3ReLU_1"
  type: "ReLU"
  bottom: "conv3_Eltwise_3"
  top: "conv3_Eltwise_3"
}
layer {
  name: "conv4_1_0"
  type: "Convolution"
  bottom: "conv3_Eltwise_3"
  top: "conv4_1_0"
  param {
    lr_mult: 1
    decay_mult: 1
  }
  param {
    lr_mult: 2
    decay_mult: 0
  }
  convolution_param {
    num_output: 64
    bias_term: true
    pad: 1
    kernel_size: 3
    stride: 2
    weight_filler {
      type: "msra"
    }
    bias_filler {
      type: "constant"
      value: 0
    }
  }
}
layer {
  name: "conv4_1_bn0"
  type: "BatchNorm"
  bottom: "conv4_1_0"
  top: "conv4_1_0"
  param {
    lr_mult: 0
    decay_mult: 0
  }
  param {
    lr_mult: 0
    decay_mult: 0
  }
  param {
    lr_mult: 0
    decay_mult: 0
  }
  batch_norm_param {
    use_global_stats: false
  }
}
layer {
  name: "conv4_1_scale0"
  type: "Scale"
  bottom: "conv4_1_0"
  top: "conv4_1_0"
  scale_param {
    bias_term: true
  }
}
layer {
  name: "conv4_1_ReLU0"
  type: "ReLU"
  bottom: "conv4_1_0"
  top: "conv4_1_0"
}
layer {
  name: "conv4_1_1"
  type: "Convolution"
  bottom: "conv4_1_0"
  top: "conv4_1_1"
  param {
    lr_mult: 1
    decay_mult: 1
  }
  param {
    lr_mult: 2
    decay_mult: 0
  }
  convolution_param {
    num_output: 64
    bias_term: true
    pad: 1
    kernel_size: 3
    stride: 1
    weight_filler {
      type: "msra"
    }
    bias_filler {
      type: "constant"
      value: 0
    }
  }
}
layer {
  name: "conv4_1bn1"
  type: "BatchNorm"
  bottom: "conv4_1_1"
  top: "conv4_1_1"
  param {
    lr_mult: 0
    decay_mult: 0
  }
  param {
    lr_mult: 0
    decay_mult: 0
  }
  param {
    lr_mult: 0
    decay_mult: 0
  }
  batch_norm_param {
    use_global_stats: false
  }
}
layer {
  name: "conv4_1_scale1"
  type: "Scale"
  bottom: "conv4_1_1"
  top: "conv4_1_1"
  scale_param {
    bias_term: true
  }
}
layer {
  name: "conv4_1_down"
  type: "Convolution"
  bottom: "conv3_Eltwise_3"
  top: "conv4_1_down"
  param {
    lr_mult: 1
    decay_mult: 1
  }
  param {
    lr_mult: 2
    decay_mult: 0
  }
  convolution_param {
    num_output: 64
    bias_term: true
    pad: 0
    kernel_size: 1
    stride: 2
    weight_filler {
      type: "msra"
    }
    bias_filler {
      type: "constant"
      value: 0
    }
  }
}
layer {
  name: "conv4_1_bn_down"
  type: "BatchNorm"
  bottom: "conv4_1_down"
  top: "conv4_1_down"
  param {
    lr_mult: 0
    decay_mult: 0
  }
  param {
    lr_mult: 0
    decay_mult: 0
  }
  param {
    lr_mult: 0
    decay_mult: 0
  }
  batch_norm_param {
    use_global_stats: false
  }
}
layer {
  name: "conv4_1_scale_down"
  type: "Scale"
  bottom: "conv4_1_down"
  top: "conv4_1_down"
  scale_param {
    bias_term: true
  }
}
layer {
  name: "conv4_Eltwise_1"
  type: "Eltwise"
  bottom: "conv4_1_1"
  bottom: "conv4_1_down"
  top: "conv4_Eltwise_1"
  eltwise_param {
    operation: SUM
  }
}
layer {
  name: "conv4_1ReLU_1"
  type: "ReLU"
  bottom: "conv4_Eltwise_1"
  top: "conv4_Eltwise_1"
}
layer {
  name: "conv4_2_0"
  type: "Convolution"
  bottom: "conv4_Eltwise_1"
  top: "conv4_2_0"
  param {
    lr_mult: 1
    decay_mult: 1
  }
  param {
    lr_mult: 2
    decay_mult: 0
  }
  convolution_param {
    num_output: 64
    bias_term: true
    pad: 1
    kernel_size: 3
    stride: 1
    weight_filler {
      type: "msra"
    }
    bias_filler {
      type: "constant"
      value: 0
    }
  }
}
layer {
  name: "conv4_2_bn0"
  type: "BatchNorm"
  bottom: "conv4_2_0"
  top: "conv4_2_0"
  param {
    lr_mult: 0
    decay_mult: 0
  }
  param {
    lr_mult: 0
    decay_mult: 0
  }
  param {
    lr_mult: 0
    decay_mult: 0
  }
  batch_norm_param {
    use_global_stats: false
  }
}
layer {
  name: "conv4_2_scale0"
  type: "Scale"
  bottom: "conv4_2_0"
  top: "conv4_2_0"
  scale_param {
    bias_term: true
  }
}
layer {
  name: "conv4_2_ReLU0"
  type: "ReLU"
  bottom: "conv4_2_0"
  top: "conv4_2_0"
}
layer {
  name: "conv4_2_1"
  type: "Convolution"
  bottom: "conv4_2_0"
  top: "conv4_2_1"
  param {
    lr_mult: 1
    decay_mult: 1
  }
  param {
    lr_mult: 2
    decay_mult: 0
  }
  convolution_param {
    num_output: 64
    bias_term: true
    pad: 1
    kernel_size: 3
    stride: 1
    weight_filler {
      type: "msra"
    }
    bias_filler {
      type: "constant"
      value: 0
    }
  }
}
layer {
  name: "conv4_2bn1"
  type: "BatchNorm"
  bottom: "conv4_2_1"
  top: "conv4_2_1"
  param {
    lr_mult: 0
    decay_mult: 0
  }
  param {
    lr_mult: 0
    decay_mult: 0
  }
  param {
    lr_mult: 0
    decay_mult: 0
  }
  batch_norm_param {
    use_global_stats: false
  }
}
layer {
  name: "conv4_2_scale1"
  type: "Scale"
  bottom: "conv4_2_1"
  top: "conv4_2_1"
  scale_param {
    bias_term: true
  }
}
layer {
  name: "conv4_Eltwise_2"
  type: "Eltwise"
  bottom: "conv4_Eltwise_1"
  bottom: "conv4_2_1"
  top: "conv4_Eltwise_2"
  eltwise_param {
    operation: SUM
  }
}
layer {
  name: "conv4_2ReLU_1"
  type: "ReLU"
  bottom: "conv4_Eltwise_2"
  top: "conv4_Eltwise_2"
}
layer {
  name: "conv4_3_0"
  type: "Convolution"
  bottom: "conv4_Eltwise_2"
  top: "conv4_3_0"
  param {
    lr_mult: 1
    decay_mult: 1
  }
  param {
    lr_mult: 2
    decay_mult: 0
  }
  convolution_param {
    num_output: 64
    bias_term: true
    pad: 1
    kernel_size: 3
    stride: 1
    weight_filler {
      type: "msra"
    }
    bias_filler {
      type: "constant"
      value: 0
    }
  }
}
layer {
  name: "conv4_3_bn0"
  type: "BatchNorm"
  bottom: "conv4_3_0"
  top: "conv4_3_0"
  param {
    lr_mult: 0
    decay_mult: 0
  }
  param {
    lr_mult: 0
    decay_mult: 0
  }
  param {
    lr_mult: 0
    decay_mult: 0
  }
  batch_norm_param {
    use_global_stats: false
  }
}
layer {
  name: "conv4_3_scale0"
  type: "Scale"
  bottom: "conv4_3_0"
  top: "conv4_3_0"
  scale_param {
    bias_term: true
  }
}
layer {
  name: "conv4_3_ReLU0"
  type: "ReLU"
  bottom: "conv4_3_0"
  top: "conv4_3_0"
}
layer {
  name: "conv4_3_1"
  type: "Convolution"
  bottom: "conv4_3_0"
  top: "conv4_3_1"
  param {
    lr_mult: 1
    decay_mult: 1
  }
  param {
    lr_mult: 2
    decay_mult: 0
  }
  convolution_param {
    num_output: 64
    bias_term: true
    pad: 1
    kernel_size: 3
    stride: 1
    weight_filler {
      type: "msra"
    }
    bias_filler {
      type: "constant"
      value: 0
    }
  }
}
layer {
  name: "conv4_3bn1"
  type: "BatchNorm"
  bottom: "conv4_3_1"
  top: "conv4_3_1"
  param {
    lr_mult: 0
    decay_mult: 0
  }
  param {
    lr_mult: 0
    decay_mult: 0
  }
  param {
    lr_mult: 0
    decay_mult: 0
  }
  batch_norm_param {
    use_global_stats: false
  }
}
layer {
  name: "conv4_3_scale1"
  type: "Scale"
  bottom: "conv4_3_1"
  top: "conv4_3_1"
  scale_param {
    bias_term: true
  }
}
layer {
  name: "conv4_Eltwise_3"
  type: "Eltwise"
  bottom: "conv4_Eltwise_2"
  bottom: "conv4_3_1"
  top: "conv4_Eltwise_3"
  eltwise_param {
    operation: SUM
  }
}
layer {
  name: "conv4_3ReLU_1"
  type: "ReLU"
  bottom: "conv4_Eltwise_3"
  top: "conv4_Eltwise_3"
}
layer {
  name: "Pooling1"
  type: "Pooling"
  bottom: "conv4_Eltwise_3"
  top: "Pooling1"
  pooling_param {
    pool: AVE
    global_pooling: true
  }
}
layer {
  name: "fc1"
  type: "InnerProduct"
  bottom: "Pooling1"
  top: "fc1"
  param {
    lr_mult: 1
    decay_mult: 1
  }
  param {
    lr_mult: 2
    decay_mult: 1
  }
  inner_product_param {
    num_output: 10
    weight_filler {
      type: "msra"
    }
    bias_filler {
      type: "constant"
      value: 0
    }
  }
}
layer {
  name: "Softmax1"
  type: "SoftmaxWithLoss"
  bottom: "fc1"
  bottom: "label"
  top: "Softmax1"
}
I0925 21:35:42.933481 19975 layer_factory.hpp:77] Creating layer Data1
I0925 21:35:42.933678 19975 db_lmdb.cpp:35] Opened lmdb /home/lijianfei/datasets/cifar10_40/train_lmdb
I0925 21:35:42.933722 19975 net.cpp:128] Creating Layer Data1
I0925 21:35:42.933733 19975 net.cpp:522] Data1 -> data
I0925 21:35:42.933760 19975 net.cpp:522] Data1 -> label
I0925 21:35:42.935451 19975 data_layer.cpp:45] output data size: 128,3,32,32
I0925 21:35:42.943966 19975 net.cpp:172] Setting up Data1
I0925 21:35:42.944054 19975 net.cpp:186] Top shape: 128 3 32 32 (393216)
I0925 21:35:42.944077 19975 net.cpp:186] Top shape: 128 (128)
I0925 21:35:42.944094 19975 net.cpp:194] Memory required for data: 1573376
I0925 21:35:42.944121 19975 layer_factory.hpp:77] Creating layer conv1
I0925 21:35:42.944177 19975 net.cpp:128] Creating Layer conv1
I0925 21:35:42.944198 19975 net.cpp:558] conv1 <- data
I0925 21:35:42.944238 19975 net.cpp:522] conv1 -> conv1
I0925 21:35:43.700392 19975 net.cpp:172] Setting up conv1
I0925 21:35:43.700454 19975 net.cpp:186] Top shape: 128 16 32 32 (2097152)
I0925 21:35:43.700459 19975 net.cpp:194] Memory required for data: 9961984
I0925 21:35:43.700496 19975 layer_factory.hpp:77] Creating layer conv1/bn
I0925 21:35:43.700515 19975 net.cpp:128] Creating Layer conv1/bn
I0925 21:35:43.700525 19975 net.cpp:558] conv1/bn <- conv1
I0925 21:35:43.700534 19975 net.cpp:509] conv1/bn -> conv1 (in-place)
I0925 21:35:43.700764 19975 net.cpp:172] Setting up conv1/bn
I0925 21:35:43.700814 19975 net.cpp:186] Top shape: 128 16 32 32 (2097152)
I0925 21:35:43.700819 19975 net.cpp:194] Memory required for data: 18350592
I0925 21:35:43.700831 19975 layer_factory.hpp:77] Creating layer conv1/scale
I0925 21:35:43.700841 19975 net.cpp:128] Creating Layer conv1/scale
I0925 21:35:43.700845 19975 net.cpp:558] conv1/scale <- conv1
I0925 21:35:43.700851 19975 net.cpp:509] conv1/scale -> conv1 (in-place)
I0925 21:35:43.700898 19975 layer_factory.hpp:77] Creating layer conv1/scale
I0925 21:35:43.701023 19975 net.cpp:172] Setting up conv1/scale
I0925 21:35:43.701036 19975 net.cpp:186] Top shape: 128 16 32 32 (2097152)
I0925 21:35:43.701040 19975 net.cpp:194] Memory required for data: 26739200
I0925 21:35:43.701048 19975 layer_factory.hpp:77] Creating layer conv1/ReLU
I0925 21:35:43.701056 19975 net.cpp:128] Creating Layer conv1/ReLU
I0925 21:35:43.701061 19975 net.cpp:558] conv1/ReLU <- conv1
I0925 21:35:43.701067 19975 net.cpp:509] conv1/ReLU -> conv1 (in-place)
I0925 21:35:43.701290 19975 net.cpp:172] Setting up conv1/ReLU
I0925 21:35:43.701365 19975 net.cpp:186] Top shape: 128 16 32 32 (2097152)
I0925 21:35:43.701386 19975 net.cpp:194] Memory required for data: 35127808
I0925 21:35:43.701406 19975 layer_factory.hpp:77] Creating layer conv1_conv1/ReLU_0_split
I0925 21:35:43.701419 19975 net.cpp:128] Creating Layer conv1_conv1/ReLU_0_split
I0925 21:35:43.701423 19975 net.cpp:558] conv1_conv1/ReLU_0_split <- conv1
I0925 21:35:43.701431 19975 net.cpp:522] conv1_conv1/ReLU_0_split -> conv1_conv1/ReLU_0_split_0
I0925 21:35:43.701439 19975 net.cpp:522] conv1_conv1/ReLU_0_split -> conv1_conv1/ReLU_0_split_1
I0925 21:35:43.701488 19975 net.cpp:172] Setting up conv1_conv1/ReLU_0_split
I0925 21:35:43.701498 19975 net.cpp:186] Top shape: 128 16 32 32 (2097152)
I0925 21:35:43.701504 19975 net.cpp:186] Top shape: 128 16 32 32 (2097152)
I0925 21:35:43.701508 19975 net.cpp:194] Memory required for data: 51905024
I0925 21:35:43.701512 19975 layer_factory.hpp:77] Creating layer conv2_1_0
I0925 21:35:43.701525 19975 net.cpp:128] Creating Layer conv2_1_0
I0925 21:35:43.701529 19975 net.cpp:558] conv2_1_0 <- conv1_conv1/ReLU_0_split_0
I0925 21:35:43.701536 19975 net.cpp:522] conv2_1_0 -> conv2_1_0
I0925 21:35:43.704063 19975 net.cpp:172] Setting up conv2_1_0
I0925 21:35:43.704092 19975 net.cpp:186] Top shape: 128 16 32 32 (2097152)
I0925 21:35:43.704097 19975 net.cpp:194] Memory required for data: 60293632
I0925 21:35:43.704110 19975 layer_factory.hpp:77] Creating layer conv2_1_bn0
I0925 21:35:43.704120 19975 net.cpp:128] Creating Layer conv2_1_bn0
I0925 21:35:43.704125 19975 net.cpp:558] conv2_1_bn0 <- conv2_1_0
I0925 21:35:43.704133 19975 net.cpp:509] conv2_1_bn0 -> conv2_1_0 (in-place)
I0925 21:35:43.704347 19975 net.cpp:172] Setting up conv2_1_bn0
I0925 21:35:43.704358 19975 net.cpp:186] Top shape: 128 16 32 32 (2097152)
I0925 21:35:43.704363 19975 net.cpp:194] Memory required for data: 68682240
I0925 21:35:43.704373 19975 layer_factory.hpp:77] Creating layer conv2_1_scale0
I0925 21:35:43.704381 19975 net.cpp:128] Creating Layer conv2_1_scale0
I0925 21:35:43.704386 19975 net.cpp:558] conv2_1_scale0 <- conv2_1_0
I0925 21:35:43.704392 19975 net.cpp:509] conv2_1_scale0 -> conv2_1_0 (in-place)
I0925 21:35:43.704428 19975 layer_factory.hpp:77] Creating layer conv2_1_scale0
I0925 21:35:43.704548 19975 net.cpp:172] Setting up conv2_1_scale0
I0925 21:35:43.704558 19975 net.cpp:186] Top shape: 128 16 32 32 (2097152)
I0925 21:35:43.704563 19975 net.cpp:194] Memory required for data: 77070848
I0925 21:35:43.704571 19975 layer_factory.hpp:77] Creating layer conv2_1_ReLU0
I0925 21:35:43.704577 19975 net.cpp:128] Creating Layer conv2_1_ReLU0
I0925 21:35:43.704581 19975 net.cpp:558] conv2_1_ReLU0 <- conv2_1_0
I0925 21:35:43.704587 19975 net.cpp:509] conv2_1_ReLU0 -> conv2_1_0 (in-place)
I0925 21:35:43.704794 19975 net.cpp:172] Setting up conv2_1_ReLU0
I0925 21:35:43.704835 19975 net.cpp:186] Top shape: 128 16 32 32 (2097152)
I0925 21:35:43.704844 19975 net.cpp:194] Memory required for data: 85459456
I0925 21:35:43.704864 19975 layer_factory.hpp:77] Creating layer conv2_1_1
I0925 21:35:43.704875 19975 net.cpp:128] Creating Layer conv2_1_1
I0925 21:35:43.704880 19975 net.cpp:558] conv2_1_1 <- conv2_1_0
I0925 21:35:43.704887 19975 net.cpp:522] conv2_1_1 -> conv2_1_1
I0925 21:35:43.706009 19975 net.cpp:172] Setting up conv2_1_1
I0925 21:35:43.706033 19975 net.cpp:186] Top shape: 128 16 32 32 (2097152)
I0925 21:35:43.706037 19975 net.cpp:194] Memory required for data: 93848064
I0925 21:35:43.706048 19975 layer_factory.hpp:77] Creating layer conv2_1bn1
I0925 21:35:43.706056 19975 net.cpp:128] Creating Layer conv2_1bn1
I0925 21:35:43.706061 19975 net.cpp:558] conv2_1bn1 <- conv2_1_1
I0925 21:35:43.706068 19975 net.cpp:509] conv2_1bn1 -> conv2_1_1 (in-place)
I0925 21:35:43.706280 19975 net.cpp:172] Setting up conv2_1bn1
I0925 21:35:43.706291 19975 net.cpp:186] Top shape: 128 16 32 32 (2097152)
I0925 21:35:43.706296 19975 net.cpp:194] Memory required for data: 102236672
I0925 21:35:43.706308 19975 layer_factory.hpp:77] Creating layer conv2_1_scale1
I0925 21:35:43.706315 19975 net.cpp:128] Creating Layer conv2_1_scale1
I0925 21:35:43.706320 19975 net.cpp:558] conv2_1_scale1 <- conv2_1_1
I0925 21:35:43.706326 19975 net.cpp:509] conv2_1_scale1 -> conv2_1_1 (in-place)
I0925 21:35:43.706362 19975 layer_factory.hpp:77] Creating layer conv2_1_scale1
I0925 21:35:43.706483 19975 net.cpp:172] Setting up conv2_1_scale1
I0925 21:35:43.706495 19975 net.cpp:186] Top shape: 128 16 32 32 (2097152)
I0925 21:35:43.706498 19975 net.cpp:194] Memory required for data: 110625280
I0925 21:35:43.706506 19975 layer_factory.hpp:77] Creating layer conv2_Eltwise_1
I0925 21:35:43.706514 19975 net.cpp:128] Creating Layer conv2_Eltwise_1
I0925 21:35:43.706518 19975 net.cpp:558] conv2_Eltwise_1 <- conv1_conv1/ReLU_0_split_1
I0925 21:35:43.706523 19975 net.cpp:558] conv2_Eltwise_1 <- conv2_1_1
I0925 21:35:43.706532 19975 net.cpp:522] conv2_Eltwise_1 -> conv2_Eltwise_1
I0925 21:35:43.706559 19975 net.cpp:172] Setting up conv2_Eltwise_1
I0925 21:35:43.706567 19975 net.cpp:186] Top shape: 128 16 32 32 (2097152)
I0925 21:35:43.706570 19975 net.cpp:194] Memory required for data: 119013888
I0925 21:35:43.706574 19975 layer_factory.hpp:77] Creating layer conv2_1ReLU_1
I0925 21:35:43.706580 19975 net.cpp:128] Creating Layer conv2_1ReLU_1
I0925 21:35:43.706585 19975 net.cpp:558] conv2_1ReLU_1 <- conv2_Eltwise_1
I0925 21:35:43.706590 19975 net.cpp:509] conv2_1ReLU_1 -> conv2_Eltwise_1 (in-place)
I0925 21:35:43.706998 19975 net.cpp:172] Setting up conv2_1ReLU_1
I0925 21:35:43.707046 19975 net.cpp:186] Top shape: 128 16 32 32 (2097152)
I0925 21:35:43.707062 19975 net.cpp:194] Memory required for data: 127402496
I0925 21:35:43.707082 19975 layer_factory.hpp:77] Creating layer conv2_Eltwise_1_conv2_1ReLU_1_0_split
I0925 21:35:43.707100 19975 net.cpp:128] Creating Layer conv2_Eltwise_1_conv2_1ReLU_1_0_split
I0925 21:35:43.707115 19975 net.cpp:558] conv2_Eltwise_1_conv2_1ReLU_1_0_split <- conv2_Eltwise_1
I0925 21:35:43.707139 19975 net.cpp:522] conv2_Eltwise_1_conv2_1ReLU_1_0_split -> conv2_Eltwise_1_conv2_1ReLU_1_0_split_0
I0925 21:35:43.707154 19975 net.cpp:522] conv2_Eltwise_1_conv2_1ReLU_1_0_split -> conv2_Eltwise_1_conv2_1ReLU_1_0_split_1
I0925 21:35:43.707203 19975 net.cpp:172] Setting up conv2_Eltwise_1_conv2_1ReLU_1_0_split
I0925 21:35:43.707212 19975 net.cpp:186] Top shape: 128 16 32 32 (2097152)
I0925 21:35:43.707218 19975 net.cpp:186] Top shape: 128 16 32 32 (2097152)
I0925 21:35:43.707222 19975 net.cpp:194] Memory required for data: 144179712
I0925 21:35:43.707226 19975 layer_factory.hpp:77] Creating layer conv2_2_0
I0925 21:35:43.707238 19975 net.cpp:128] Creating Layer conv2_2_0
I0925 21:35:43.707243 19975 net.cpp:558] conv2_2_0 <- conv2_Eltwise_1_conv2_1ReLU_1_0_split_0
I0925 21:35:43.707250 19975 net.cpp:522] conv2_2_0 -> conv2_2_0
I0925 21:35:43.708379 19975 net.cpp:172] Setting up conv2_2_0
I0925 21:35:43.708403 19975 net.cpp:186] Top shape: 128 16 32 32 (2097152)
I0925 21:35:43.708408 19975 net.cpp:194] Memory required for data: 152568320
I0925 21:35:43.708417 19975 layer_factory.hpp:77] Creating layer conv2_2_bn0
I0925 21:35:43.708446 19975 net.cpp:128] Creating Layer conv2_2_bn0
I0925 21:35:43.708451 19975 net.cpp:558] conv2_2_bn0 <- conv2_2_0
I0925 21:35:43.708457 19975 net.cpp:509] conv2_2_bn0 -> conv2_2_0 (in-place)
I0925 21:35:43.708670 19975 net.cpp:172] Setting up conv2_2_bn0
I0925 21:35:43.708681 19975 net.cpp:186] Top shape: 128 16 32 32 (2097152)
I0925 21:35:43.708685 19975 net.cpp:194] Memory required for data: 160956928
I0925 21:35:43.708695 19975 layer_factory.hpp:77] Creating layer conv2_2_scale0
I0925 21:35:43.708703 19975 net.cpp:128] Creating Layer conv2_2_scale0
I0925 21:35:43.708706 19975 net.cpp:558] conv2_2_scale0 <- conv2_2_0
I0925 21:35:43.708714 19975 net.cpp:509] conv2_2_scale0 -> conv2_2_0 (in-place)
I0925 21:35:43.708750 19975 layer_factory.hpp:77] Creating layer conv2_2_scale0
I0925 21:35:43.708866 19975 net.cpp:172] Setting up conv2_2_scale0
I0925 21:35:43.708878 19975 net.cpp:186] Top shape: 128 16 32 32 (2097152)
I0925 21:35:43.708881 19975 net.cpp:194] Memory required for data: 169345536
I0925 21:35:43.708889 19975 layer_factory.hpp:77] Creating layer conv2_2_ReLU0
I0925 21:35:43.708895 19975 net.cpp:128] Creating Layer conv2_2_ReLU0
I0925 21:35:43.708899 19975 net.cpp:558] conv2_2_ReLU0 <- conv2_2_0
I0925 21:35:43.708905 19975 net.cpp:509] conv2_2_ReLU0 -> conv2_2_0 (in-place)
I0925 21:35:43.709115 19975 net.cpp:172] Setting up conv2_2_ReLU0
I0925 21:35:43.709125 19975 net.cpp:186] Top shape: 128 16 32 32 (2097152)
I0925 21:35:43.709130 19975 net.cpp:194] Memory required for data: 177734144
I0925 21:35:43.709133 19975 layer_factory.hpp:77] Creating layer conv2_2_1
I0925 21:35:43.709144 19975 net.cpp:128] Creating Layer conv2_2_1
I0925 21:35:43.709148 19975 net.cpp:558] conv2_2_1 <- conv2_2_0
I0925 21:35:43.709156 19975 net.cpp:522] conv2_2_1 -> conv2_2_1
I0925 21:35:43.710278 19975 net.cpp:172] Setting up conv2_2_1
I0925 21:35:43.710301 19975 net.cpp:186] Top shape: 128 16 32 32 (2097152)
I0925 21:35:43.710305 19975 net.cpp:194] Memory required for data: 186122752
I0925 21:35:43.710315 19975 layer_factory.hpp:77] Creating layer conv2_2bn1
I0925 21:35:43.710325 19975 net.cpp:128] Creating Layer conv2_2bn1
I0925 21:35:43.710330 19975 net.cpp:558] conv2_2bn1 <- conv2_2_1
I0925 21:35:43.710336 19975 net.cpp:509] conv2_2bn1 -> conv2_2_1 (in-place)
I0925 21:35:43.710553 19975 net.cpp:172] Setting up conv2_2bn1
I0925 21:35:43.710563 19975 net.cpp:186] Top shape: 128 16 32 32 (2097152)
I0925 21:35:43.710567 19975 net.cpp:194] Memory required for data: 194511360
I0925 21:35:43.710580 19975 layer_factory.hpp:77] Creating layer conv2_2_scale1
I0925 21:35:43.710589 19975 net.cpp:128] Creating Layer conv2_2_scale1
I0925 21:35:43.710594 19975 net.cpp:558] conv2_2_scale1 <- conv2_2_1
I0925 21:35:43.710600 19975 net.cpp:509] conv2_2_scale1 -> conv2_2_1 (in-place)
I0925 21:35:43.710636 19975 layer_factory.hpp:77] Creating layer conv2_2_scale1
I0925 21:35:43.710758 19975 net.cpp:172] Setting up conv2_2_scale1
I0925 21:35:43.710772 19975 net.cpp:186] Top shape: 128 16 32 32 (2097152)
I0925 21:35:43.710775 19975 net.cpp:194] Memory required for data: 202899968
I0925 21:35:43.710783 19975 layer_factory.hpp:77] Creating layer conv2_Eltwise_2
I0925 21:35:43.710790 19975 net.cpp:128] Creating Layer conv2_Eltwise_2
I0925 21:35:43.710794 19975 net.cpp:558] conv2_Eltwise_2 <- conv2_Eltwise_1_conv2_1ReLU_1_0_split_1
I0925 21:35:43.710799 19975 net.cpp:558] conv2_Eltwise_2 <- conv2_2_1
I0925 21:35:43.710805 19975 net.cpp:522] conv2_Eltwise_2 -> conv2_Eltwise_2
I0925 21:35:43.710851 19975 net.cpp:172] Setting up conv2_Eltwise_2
I0925 21:35:43.710860 19975 net.cpp:186] Top shape: 128 16 32 32 (2097152)
I0925 21:35:43.710865 19975 net.cpp:194] Memory required for data: 211288576
I0925 21:35:43.710868 19975 layer_factory.hpp:77] Creating layer conv2_2ReLU_1
I0925 21:35:43.710875 19975 net.cpp:128] Creating Layer conv2_2ReLU_1
I0925 21:35:43.710880 19975 net.cpp:558] conv2_2ReLU_1 <- conv2_Eltwise_2
I0925 21:35:43.710886 19975 net.cpp:509] conv2_2ReLU_1 -> conv2_Eltwise_2 (in-place)
I0925 21:35:43.711122 19975 net.cpp:172] Setting up conv2_2ReLU_1
I0925 21:35:43.711136 19975 net.cpp:186] Top shape: 128 16 32 32 (2097152)
I0925 21:35:43.711141 19975 net.cpp:194] Memory required for data: 219677184
I0925 21:35:43.711146 19975 layer_factory.hpp:77] Creating layer conv2_Eltwise_2_conv2_2ReLU_1_0_split
I0925 21:35:43.711208 19975 net.cpp:128] Creating Layer conv2_Eltwise_2_conv2_2ReLU_1_0_split
I0925 21:35:43.711230 19975 net.cpp:558] conv2_Eltwise_2_conv2_2ReLU_1_0_split <- conv2_Eltwise_2
I0925 21:35:43.711241 19975 net.cpp:522] conv2_Eltwise_2_conv2_2ReLU_1_0_split -> conv2_Eltwise_2_conv2_2ReLU_1_0_split_0
I0925 21:35:43.711256 19975 net.cpp:522] conv2_Eltwise_2_conv2_2ReLU_1_0_split -> conv2_Eltwise_2_conv2_2ReLU_1_0_split_1
I0925 21:35:43.711365 19975 net.cpp:172] Setting up conv2_Eltwise_2_conv2_2ReLU_1_0_split
I0925 21:35:43.711383 19975 net.cpp:186] Top shape: 128 16 32 32 (2097152)
I0925 21:35:43.711395 19975 net.cpp:186] Top shape: 128 16 32 32 (2097152)
I0925 21:35:43.711405 19975 net.cpp:194] Memory required for data: 236454400
I0925 21:35:43.711411 19975 layer_factory.hpp:77] Creating layer conv2_3_0
I0925 21:35:43.711428 19975 net.cpp:128] Creating Layer conv2_3_0
I0925 21:35:43.711437 19975 net.cpp:558] conv2_3_0 <- conv2_Eltwise_2_conv2_2ReLU_1_0_split_0
I0925 21:35:43.711448 19975 net.cpp:522] conv2_3_0 -> conv2_3_0
I0925 21:35:43.713150 19975 net.cpp:172] Setting up conv2_3_0
I0925 21:35:43.713184 19975 net.cpp:186] Top shape: 128 16 32 32 (2097152)
I0925 21:35:43.713191 19975 net.cpp:194] Memory required for data: 244843008
I0925 21:35:43.713207 19975 layer_factory.hpp:77] Creating layer conv2_3_bn0
I0925 21:35:43.713222 19975 net.cpp:128] Creating Layer conv2_3_bn0
I0925 21:35:43.713228 19975 net.cpp:558] conv2_3_bn0 <- conv2_3_0
I0925 21:35:43.713238 19975 net.cpp:509] conv2_3_bn0 -> conv2_3_0 (in-place)
I0925 21:35:43.713572 19975 net.cpp:172] Setting up conv2_3_bn0
I0925 21:35:43.713587 19975 net.cpp:186] Top shape: 128 16 32 32 (2097152)
I0925 21:35:43.713596 19975 net.cpp:194] Memory required for data: 253231616
I0925 21:35:43.713613 19975 layer_factory.hpp:77] Creating layer conv2_3_scale0
I0925 21:35:43.713625 19975 net.cpp:128] Creating Layer conv2_3_scale0
I0925 21:35:43.713634 19975 net.cpp:558] conv2_3_scale0 <- conv2_3_0
I0925 21:35:43.713644 19975 net.cpp:509] conv2_3_scale0 -> conv2_3_0 (in-place)
I0925 21:35:43.713701 19975 layer_factory.hpp:77] Creating layer conv2_3_scale0
I0925 21:35:43.713886 19975 net.cpp:172] Setting up conv2_3_scale0
I0925 21:35:43.713901 19975 net.cpp:186] Top shape: 128 16 32 32 (2097152)
I0925 21:35:43.713908 19975 net.cpp:194] Memory required for data: 261620224
I0925 21:35:43.713922 19975 layer_factory.hpp:77] Creating layer conv2_3_ReLU0
I0925 21:35:43.713933 19975 net.cpp:128] Creating Layer conv2_3_ReLU0
I0925 21:35:43.713941 19975 net.cpp:558] conv2_3_ReLU0 <- conv2_3_0
I0925 21:35:43.713950 19975 net.cpp:509] conv2_3_ReLU0 -> conv2_3_0 (in-place)
I0925 21:35:43.714512 19975 net.cpp:172] Setting up conv2_3_ReLU0
I0925 21:35:43.714542 19975 net.cpp:186] Top shape: 128 16 32 32 (2097152)
I0925 21:35:43.714550 19975 net.cpp:194] Memory required for data: 270008832
I0925 21:35:43.714558 19975 layer_factory.hpp:77] Creating layer conv2_3_1
I0925 21:35:43.714578 19975 net.cpp:128] Creating Layer conv2_3_1
I0925 21:35:43.714586 19975 net.cpp:558] conv2_3_1 <- conv2_3_0
I0925 21:35:43.714598 19975 net.cpp:522] conv2_3_1 -> conv2_3_1
I0925 21:35:43.716331 19975 net.cpp:172] Setting up conv2_3_1
I0925 21:35:43.716367 19975 net.cpp:186] Top shape: 128 16 32 32 (2097152)
I0925 21:35:43.716373 19975 net.cpp:194] Memory required for data: 278397440
I0925 21:35:43.716392 19975 layer_factory.hpp:77] Creating layer conv2_3bn1
I0925 21:35:43.716404 19975 net.cpp:128] Creating Layer conv2_3bn1
I0925 21:35:43.716414 19975 net.cpp:558] conv2_3bn1 <- conv2_3_1
I0925 21:35:43.716424 19975 net.cpp:509] conv2_3bn1 -> conv2_3_1 (in-place)
I0925 21:35:43.716770 19975 net.cpp:172] Setting up conv2_3bn1
I0925 21:35:43.716785 19975 net.cpp:186] Top shape: 128 16 32 32 (2097152)
I0925 21:35:43.716816 19975 net.cpp:194] Memory required for data: 286786048
I0925 21:35:43.716833 19975 layer_factory.hpp:77] Creating layer conv2_3_scale1
I0925 21:35:43.716850 19975 net.cpp:128] Creating Layer conv2_3_scale1
I0925 21:35:43.716857 19975 net.cpp:558] conv2_3_scale1 <- conv2_3_1
I0925 21:35:43.716866 19975 net.cpp:509] conv2_3_scale1 -> conv2_3_1 (in-place)
I0925 21:35:43.716926 19975 layer_factory.hpp:77] Creating layer conv2_3_scale1
I0925 21:35:43.717120 19975 net.cpp:172] Setting up conv2_3_scale1
I0925 21:35:43.717134 19975 net.cpp:186] Top shape: 128 16 32 32 (2097152)
I0925 21:35:43.717144 19975 net.cpp:194] Memory required for data: 295174656
I0925 21:35:43.717155 19975 layer_factory.hpp:77] Creating layer conv2_Eltwise_3
I0925 21:35:43.717169 19975 net.cpp:128] Creating Layer conv2_Eltwise_3
I0925 21:35:43.717175 19975 net.cpp:558] conv2_Eltwise_3 <- conv2_Eltwise_2_conv2_2ReLU_1_0_split_1
I0925 21:35:43.717183 19975 net.cpp:558] conv2_Eltwise_3 <- conv2_3_1
I0925 21:35:43.717192 19975 net.cpp:522] conv2_Eltwise_3 -> conv2_Eltwise_3
I0925 21:35:43.717232 19975 net.cpp:172] Setting up conv2_Eltwise_3
I0925 21:35:43.717243 19975 net.cpp:186] Top shape: 128 16 32 32 (2097152)
I0925 21:35:43.717249 19975 net.cpp:194] Memory required for data: 303563264
I0925 21:35:43.717255 19975 layer_factory.hpp:77] Creating layer conv2_3ReLU_1
I0925 21:35:43.717265 19975 net.cpp:128] Creating Layer conv2_3ReLU_1
I0925 21:35:43.717274 19975 net.cpp:558] conv2_3ReLU_1 <- conv2_Eltwise_3
I0925 21:35:43.717283 19975 net.cpp:509] conv2_3ReLU_1 -> conv2_Eltwise_3 (in-place)
I0925 21:35:43.717605 19975 net.cpp:172] Setting up conv2_3ReLU_1
I0925 21:35:43.717623 19975 net.cpp:186] Top shape: 128 16 32 32 (2097152)
I0925 21:35:43.717633 19975 net.cpp:194] Memory required for data: 311951872
I0925 21:35:43.717639 19975 layer_factory.hpp:77] Creating layer conv2_Eltwise_3_conv2_3ReLU_1_0_split
I0925 21:35:43.717649 19975 net.cpp:128] Creating Layer conv2_Eltwise_3_conv2_3ReLU_1_0_split
I0925 21:35:43.717658 19975 net.cpp:558] conv2_Eltwise_3_conv2_3ReLU_1_0_split <- conv2_Eltwise_3
I0925 21:35:43.717669 19975 net.cpp:522] conv2_Eltwise_3_conv2_3ReLU_1_0_split -> conv2_Eltwise_3_conv2_3ReLU_1_0_split_0
I0925 21:35:43.717680 19975 net.cpp:522] conv2_Eltwise_3_conv2_3ReLU_1_0_split -> conv2_Eltwise_3_conv2_3ReLU_1_0_split_1
I0925 21:35:43.717746 19975 net.cpp:172] Setting up conv2_Eltwise_3_conv2_3ReLU_1_0_split
I0925 21:35:43.717767 19975 net.cpp:186] Top shape: 128 16 32 32 (2097152)
I0925 21:35:43.717777 19975 net.cpp:186] Top shape: 128 16 32 32 (2097152)
I0925 21:35:43.717782 19975 net.cpp:194] Memory required for data: 328729088
I0925 21:35:43.717788 19975 layer_factory.hpp:77] Creating layer conv3_1_0
I0925 21:35:43.717803 19975 net.cpp:128] Creating Layer conv3_1_0
I0925 21:35:43.717810 19975 net.cpp:558] conv3_1_0 <- conv2_Eltwise_3_conv2_3ReLU_1_0_split_0
I0925 21:35:43.717820 19975 net.cpp:522] conv3_1_0 -> conv3_1_0
I0925 21:35:43.720877 19975 net.cpp:172] Setting up conv3_1_0
I0925 21:35:43.720904 19975 net.cpp:186] Top shape: 128 32 16 16 (1048576)
I0925 21:35:43.720909 19975 net.cpp:194] Memory required for data: 332923392
I0925 21:35:43.720922 19975 layer_factory.hpp:77] Creating layer conv3_1_bn0
I0925 21:35:43.720932 19975 net.cpp:128] Creating Layer conv3_1_bn0
I0925 21:35:43.720939 19975 net.cpp:558] conv3_1_bn0 <- conv3_1_0
I0925 21:35:43.720954 19975 net.cpp:509] conv3_1_bn0 -> conv3_1_0 (in-place)
I0925 21:35:43.721186 19975 net.cpp:172] Setting up conv3_1_bn0
I0925 21:35:43.721197 19975 net.cpp:186] Top shape: 128 32 16 16 (1048576)
I0925 21:35:43.721202 19975 net.cpp:194] Memory required for data: 337117696
I0925 21:35:43.721212 19975 layer_factory.hpp:77] Creating layer conv3_1_scale0
I0925 21:35:43.721218 19975 net.cpp:128] Creating Layer conv3_1_scale0
I0925 21:35:43.721223 19975 net.cpp:558] conv3_1_scale0 <- conv3_1_0
I0925 21:35:43.721230 19975 net.cpp:509] conv3_1_scale0 -> conv3_1_0 (in-place)
I0925 21:35:43.721267 19975 layer_factory.hpp:77] Creating layer conv3_1_scale0
I0925 21:35:43.721417 19975 net.cpp:172] Setting up conv3_1_scale0
I0925 21:35:43.721428 19975 net.cpp:186] Top shape: 128 32 16 16 (1048576)
I0925 21:35:43.721433 19975 net.cpp:194] Memory required for data: 341312000
I0925 21:35:43.721441 19975 layer_factory.hpp:77] Creating layer conv3_1_ReLU0
I0925 21:35:43.721448 19975 net.cpp:128] Creating Layer conv3_1_ReLU0
I0925 21:35:43.721453 19975 net.cpp:558] conv3_1_ReLU0 <- conv3_1_0
I0925 21:35:43.721459 19975 net.cpp:509] conv3_1_ReLU0 -> conv3_1_0 (in-place)
I0925 21:35:43.721683 19975 net.cpp:172] Setting up conv3_1_ReLU0
I0925 21:35:43.721698 19975 net.cpp:186] Top shape: 128 32 16 16 (1048576)
I0925 21:35:43.721701 19975 net.cpp:194] Memory required for data: 345506304
I0925 21:35:43.721706 19975 layer_factory.hpp:77] Creating layer conv3_1_1
I0925 21:35:43.721717 19975 net.cpp:128] Creating Layer conv3_1_1
I0925 21:35:43.721721 19975 net.cpp:558] conv3_1_1 <- conv3_1_0
I0925 21:35:43.721729 19975 net.cpp:522] conv3_1_1 -> conv3_1_1
I0925 21:35:43.723040 19975 net.cpp:172] Setting up conv3_1_1
I0925 21:35:43.723063 19975 net.cpp:186] Top shape: 128 32 16 16 (1048576)
I0925 21:35:43.723068 19975 net.cpp:194] Memory required for data: 349700608
I0925 21:35:43.723078 19975 layer_factory.hpp:77] Creating layer conv3_1bn1
I0925 21:35:43.723088 19975 net.cpp:128] Creating Layer conv3_1bn1
I0925 21:35:43.723093 19975 net.cpp:558] conv3_1bn1 <- conv3_1_1
I0925 21:35:43.723098 19975 net.cpp:509] conv3_1bn1 -> conv3_1_1 (in-place)
I0925 21:35:43.723325 19975 net.cpp:172] Setting up conv3_1bn1
I0925 21:35:43.723335 19975 net.cpp:186] Top shape: 128 32 16 16 (1048576)
I0925 21:35:43.723340 19975 net.cpp:194] Memory required for data: 353894912
I0925 21:35:43.723350 19975 layer_factory.hpp:77] Creating layer conv3_1_scale1
I0925 21:35:43.723356 19975 net.cpp:128] Creating Layer conv3_1_scale1
I0925 21:35:43.723361 19975 net.cpp:558] conv3_1_scale1 <- conv3_1_1
I0925 21:35:43.723367 19975 net.cpp:509] conv3_1_scale1 -> conv3_1_1 (in-place)
I0925 21:35:43.723405 19975 layer_factory.hpp:77] Creating layer conv3_1_scale1
I0925 21:35:43.723532 19975 net.cpp:172] Setting up conv3_1_scale1
I0925 21:35:43.723544 19975 net.cpp:186] Top shape: 128 32 16 16 (1048576)
I0925 21:35:43.723549 19975 net.cpp:194] Memory required for data: 358089216
I0925 21:35:43.723556 19975 layer_factory.hpp:77] Creating layer conv3_1_down
I0925 21:35:43.723567 19975 net.cpp:128] Creating Layer conv3_1_down
I0925 21:35:43.723572 19975 net.cpp:558] conv3_1_down <- conv2_Eltwise_3_conv2_3ReLU_1_0_split_1
I0925 21:35:43.723578 19975 net.cpp:522] conv3_1_down -> conv3_1_down
I0925 21:35:43.724738 19975 net.cpp:172] Setting up conv3_1_down
I0925 21:35:43.724762 19975 net.cpp:186] Top shape: 128 32 16 16 (1048576)
I0925 21:35:43.724766 19975 net.cpp:194] Memory required for data: 362283520
I0925 21:35:43.724782 19975 layer_factory.hpp:77] Creating layer conv3_1_bn_down
I0925 21:35:43.724792 19975 net.cpp:128] Creating Layer conv3_1_bn_down
I0925 21:35:43.724797 19975 net.cpp:558] conv3_1_bn_down <- conv3_1_down
I0925 21:35:43.724803 19975 net.cpp:509] conv3_1_bn_down -> conv3_1_down (in-place)
I0925 21:35:43.725033 19975 net.cpp:172] Setting up conv3_1_bn_down
I0925 21:35:43.725042 19975 net.cpp:186] Top shape: 128 32 16 16 (1048576)
I0925 21:35:43.725047 19975 net.cpp:194] Memory required for data: 366477824
I0925 21:35:43.725057 19975 layer_factory.hpp:77] Creating layer conv3_1_scale_down
I0925 21:35:43.725065 19975 net.cpp:128] Creating Layer conv3_1_scale_down
I0925 21:35:43.725069 19975 net.cpp:558] conv3_1_scale_down <- conv3_1_down
I0925 21:35:43.725076 19975 net.cpp:509] conv3_1_scale_down -> conv3_1_down (in-place)
I0925 21:35:43.725114 19975 layer_factory.hpp:77] Creating layer conv3_1_scale_down
I0925 21:35:43.725244 19975 net.cpp:172] Setting up conv3_1_scale_down
I0925 21:35:43.725251 19975 net.cpp:186] Top shape: 128 32 16 16 (1048576)
I0925 21:35:43.725255 19975 net.cpp:194] Memory required for data: 370672128
I0925 21:35:43.725262 19975 layer_factory.hpp:77] Creating layer conv3_Eltwise_1
I0925 21:35:43.725286 19975 net.cpp:128] Creating Layer conv3_Eltwise_1
I0925 21:35:43.725291 19975 net.cpp:558] conv3_Eltwise_1 <- conv3_1_1
I0925 21:35:43.725296 19975 net.cpp:558] conv3_Eltwise_1 <- conv3_1_down
I0925 21:35:43.725302 19975 net.cpp:522] conv3_Eltwise_1 -> conv3_Eltwise_1
I0925 21:35:43.725324 19975 net.cpp:172] Setting up conv3_Eltwise_1
I0925 21:35:43.725332 19975 net.cpp:186] Top shape: 128 32 16 16 (1048576)
I0925 21:35:43.725337 19975 net.cpp:194] Memory required for data: 374866432
I0925 21:35:43.725340 19975 layer_factory.hpp:77] Creating layer conv3_1ReLU_1
I0925 21:35:43.725347 19975 net.cpp:128] Creating Layer conv3_1ReLU_1
I0925 21:35:43.725352 19975 net.cpp:558] conv3_1ReLU_1 <- conv3_Eltwise_1
I0925 21:35:43.725358 19975 net.cpp:509] conv3_1ReLU_1 -> conv3_Eltwise_1 (in-place)
I0925 21:35:43.725577 19975 net.cpp:172] Setting up conv3_1ReLU_1
I0925 21:35:43.725587 19975 net.cpp:186] Top shape: 128 32 16 16 (1048576)
I0925 21:35:43.725591 19975 net.cpp:194] Memory required for data: 379060736
I0925 21:35:43.725596 19975 layer_factory.hpp:77] Creating layer conv3_Eltwise_1_conv3_1ReLU_1_0_split
I0925 21:35:43.725603 19975 net.cpp:128] Creating Layer conv3_Eltwise_1_conv3_1ReLU_1_0_split
I0925 21:35:43.725607 19975 net.cpp:558] conv3_Eltwise_1_conv3_1ReLU_1_0_split <- conv3_Eltwise_1
I0925 21:35:43.725615 19975 net.cpp:522] conv3_Eltwise_1_conv3_1ReLU_1_0_split -> conv3_Eltwise_1_conv3_1ReLU_1_0_split_0
I0925 21:35:43.725622 19975 net.cpp:522] conv3_Eltwise_1_conv3_1ReLU_1_0_split -> conv3_Eltwise_1_conv3_1ReLU_1_0_split_1
I0925 21:35:43.725667 19975 net.cpp:172] Setting up conv3_Eltwise_1_conv3_1ReLU_1_0_split
I0925 21:35:43.725675 19975 net.cpp:186] Top shape: 128 32 16 16 (1048576)
I0925 21:35:43.725680 19975 net.cpp:186] Top shape: 128 32 16 16 (1048576)
I0925 21:35:43.725684 19975 net.cpp:194] Memory required for data: 387449344
I0925 21:35:43.725688 19975 layer_factory.hpp:77] Creating layer conv3_2_0
I0925 21:35:43.725699 19975 net.cpp:128] Creating Layer conv3_2_0
I0925 21:35:43.725704 19975 net.cpp:558] conv3_2_0 <- conv3_Eltwise_1_conv3_1ReLU_1_0_split_0
I0925 21:35:43.725711 19975 net.cpp:522] conv3_2_0 -> conv3_2_0
I0925 21:35:43.727020 19975 net.cpp:172] Setting up conv3_2_0
I0925 21:35:43.727042 19975 net.cpp:186] Top shape: 128 32 16 16 (1048576)
I0925 21:35:43.727047 19975 net.cpp:194] Memory required for data: 391643648
I0925 21:35:43.727057 19975 layer_factory.hpp:77] Creating layer conv3_2_bn0
I0925 21:35:43.727066 19975 net.cpp:128] Creating Layer conv3_2_bn0
I0925 21:35:43.727072 19975 net.cpp:558] conv3_2_bn0 <- conv3_2_0
I0925 21:35:43.727078 19975 net.cpp:509] conv3_2_bn0 -> conv3_2_0 (in-place)
I0925 21:35:43.727308 19975 net.cpp:172] Setting up conv3_2_bn0
I0925 21:35:43.727314 19975 net.cpp:186] Top shape: 128 32 16 16 (1048576)
I0925 21:35:43.727319 19975 net.cpp:194] Memory required for data: 395837952
I0925 21:35:43.727329 19975 layer_factory.hpp:77] Creating layer conv3_2_scale0
I0925 21:35:43.727335 19975 net.cpp:128] Creating Layer conv3_2_scale0
I0925 21:35:43.727339 19975 net.cpp:558] conv3_2_scale0 <- conv3_2_0
I0925 21:35:43.727345 19975 net.cpp:509] conv3_2_scale0 -> conv3_2_0 (in-place)
I0925 21:35:43.727383 19975 layer_factory.hpp:77] Creating layer conv3_2_scale0
I0925 21:35:43.727515 19975 net.cpp:172] Setting up conv3_2_scale0
I0925 21:35:43.727526 19975 net.cpp:186] Top shape: 128 32 16 16 (1048576)
I0925 21:35:43.727530 19975 net.cpp:194] Memory required for data: 400032256
I0925 21:35:43.727537 19975 layer_factory.hpp:77] Creating layer conv3_2_ReLU0
I0925 21:35:43.727545 19975 net.cpp:128] Creating Layer conv3_2_ReLU0
I0925 21:35:43.727548 19975 net.cpp:558] conv3_2_ReLU0 <- conv3_2_0
I0925 21:35:43.727555 19975 net.cpp:509] conv3_2_ReLU0 -> conv3_2_0 (in-place)
I0925 21:35:43.727963 19975 net.cpp:172] Setting up conv3_2_ReLU0
I0925 21:35:43.727985 19975 net.cpp:186] Top shape: 128 32 16 16 (1048576)
I0925 21:35:43.727990 19975 net.cpp:194] Memory required for data: 404226560
I0925 21:35:43.727995 19975 layer_factory.hpp:77] Creating layer conv3_2_1
I0925 21:35:43.728026 19975 net.cpp:128] Creating Layer conv3_2_1
I0925 21:35:43.728034 19975 net.cpp:558] conv3_2_1 <- conv3_2_0
I0925 21:35:43.728044 19975 net.cpp:522] conv3_2_1 -> conv3_2_1
I0925 21:35:43.729353 19975 net.cpp:172] Setting up conv3_2_1
I0925 21:35:43.729380 19975 net.cpp:186] Top shape: 128 32 16 16 (1048576)
I0925 21:35:43.729384 19975 net.cpp:194] Memory required for data: 408420864
I0925 21:35:43.729398 19975 layer_factory.hpp:77] Creating layer conv3_2bn1
I0925 21:35:43.729411 19975 net.cpp:128] Creating Layer conv3_2bn1
I0925 21:35:43.729419 19975 net.cpp:558] conv3_2bn1 <- conv3_2_1
I0925 21:35:43.729427 19975 net.cpp:509] conv3_2bn1 -> conv3_2_1 (in-place)
I0925 21:35:43.729658 19975 net.cpp:172] Setting up conv3_2bn1
I0925 21:35:43.729668 19975 net.cpp:186] Top shape: 128 32 16 16 (1048576)
I0925 21:35:43.729672 19975 net.cpp:194] Memory required for data: 412615168
I0925 21:35:43.729682 19975 layer_factory.hpp:77] Creating layer conv3_2_scale1
I0925 21:35:43.729692 19975 net.cpp:128] Creating Layer conv3_2_scale1
I0925 21:35:43.729696 19975 net.cpp:558] conv3_2_scale1 <- conv3_2_1
I0925 21:35:43.729702 19975 net.cpp:509] conv3_2_scale1 -> conv3_2_1 (in-place)
I0925 21:35:43.729741 19975 layer_factory.hpp:77] Creating layer conv3_2_scale1
I0925 21:35:43.729876 19975 net.cpp:172] Setting up conv3_2_scale1
I0925 21:35:43.729887 19975 net.cpp:186] Top shape: 128 32 16 16 (1048576)
I0925 21:35:43.729890 19975 net.cpp:194] Memory required for data: 416809472
I0925 21:35:43.729898 19975 layer_factory.hpp:77] Creating layer conv3_Eltwise_2
I0925 21:35:43.729907 19975 net.cpp:128] Creating Layer conv3_Eltwise_2
I0925 21:35:43.729910 19975 net.cpp:558] conv3_Eltwise_2 <- conv3_Eltwise_1_conv3_1ReLU_1_0_split_1
I0925 21:35:43.729917 19975 net.cpp:558] conv3_Eltwise_2 <- conv3_2_1
I0925 21:35:43.729923 19975 net.cpp:522] conv3_Eltwise_2 -> conv3_Eltwise_2
I0925 21:35:43.729943 19975 net.cpp:172] Setting up conv3_Eltwise_2
I0925 21:35:43.729952 19975 net.cpp:186] Top shape: 128 32 16 16 (1048576)
I0925 21:35:43.729956 19975 net.cpp:194] Memory required for data: 421003776
I0925 21:35:43.729961 19975 layer_factory.hpp:77] Creating layer conv3_2ReLU_1
I0925 21:35:43.729967 19975 net.cpp:128] Creating Layer conv3_2ReLU_1
I0925 21:35:43.729972 19975 net.cpp:558] conv3_2ReLU_1 <- conv3_Eltwise_2
I0925 21:35:43.729977 19975 net.cpp:509] conv3_2ReLU_1 -> conv3_Eltwise_2 (in-place)
I0925 21:35:43.730198 19975 net.cpp:172] Setting up conv3_2ReLU_1
I0925 21:35:43.730214 19975 net.cpp:186] Top shape: 128 32 16 16 (1048576)
I0925 21:35:43.730221 19975 net.cpp:194] Memory required for data: 425198080
I0925 21:35:43.730224 19975 layer_factory.hpp:77] Creating layer conv3_Eltwise_2_conv3_2ReLU_1_0_split
I0925 21:35:43.730232 19975 net.cpp:128] Creating Layer conv3_Eltwise_2_conv3_2ReLU_1_0_split
I0925 21:35:43.730237 19975 net.cpp:558] conv3_Eltwise_2_conv3_2ReLU_1_0_split <- conv3_Eltwise_2
I0925 21:35:43.730243 19975 net.cpp:522] conv3_Eltwise_2_conv3_2ReLU_1_0_split -> conv3_Eltwise_2_conv3_2ReLU_1_0_split_0
I0925 21:35:43.730252 19975 net.cpp:522] conv3_Eltwise_2_conv3_2ReLU_1_0_split -> conv3_Eltwise_2_conv3_2ReLU_1_0_split_1
I0925 21:35:43.730296 19975 net.cpp:172] Setting up conv3_Eltwise_2_conv3_2ReLU_1_0_split
I0925 21:35:43.730304 19975 net.cpp:186] Top shape: 128 32 16 16 (1048576)
I0925 21:35:43.730309 19975 net.cpp:186] Top shape: 128 32 16 16 (1048576)
I0925 21:35:43.730314 19975 net.cpp:194] Memory required for data: 433586688
I0925 21:35:43.730317 19975 layer_factory.hpp:77] Creating layer conv3_3_0
I0925 21:35:43.730329 19975 net.cpp:128] Creating Layer conv3_3_0
I0925 21:35:43.730332 19975 net.cpp:558] conv3_3_0 <- conv3_Eltwise_2_conv3_2ReLU_1_0_split_0
I0925 21:35:43.730340 19975 net.cpp:522] conv3_3_0 -> conv3_3_0
I0925 21:35:43.731655 19975 net.cpp:172] Setting up conv3_3_0
I0925 21:35:43.731683 19975 net.cpp:186] Top shape: 128 32 16 16 (1048576)
I0925 21:35:43.731688 19975 net.cpp:194] Memory required for data: 437780992
I0925 21:35:43.731698 19975 layer_factory.hpp:77] Creating layer conv3_3_bn0
I0925 21:35:43.731727 19975 net.cpp:128] Creating Layer conv3_3_bn0
I0925 21:35:43.731734 19975 net.cpp:558] conv3_3_bn0 <- conv3_3_0
I0925 21:35:43.731745 19975 net.cpp:509] conv3_3_bn0 -> conv3_3_0 (in-place)
I0925 21:35:43.731974 19975 net.cpp:172] Setting up conv3_3_bn0
I0925 21:35:43.731986 19975 net.cpp:186] Top shape: 128 32 16 16 (1048576)
I0925 21:35:43.731990 19975 net.cpp:194] Memory required for data: 441975296
I0925 21:35:43.732000 19975 layer_factory.hpp:77] Creating layer conv3_3_scale0
I0925 21:35:43.732007 19975 net.cpp:128] Creating Layer conv3_3_scale0
I0925 21:35:43.732012 19975 net.cpp:558] conv3_3_scale0 <- conv3_3_0
I0925 21:35:43.732017 19975 net.cpp:509] conv3_3_scale0 -> conv3_3_0 (in-place)
I0925 21:35:43.732056 19975 layer_factory.hpp:77] Creating layer conv3_3_scale0
I0925 21:35:43.732189 19975 net.cpp:172] Setting up conv3_3_scale0
I0925 21:35:43.732199 19975 net.cpp:186] Top shape: 128 32 16 16 (1048576)
I0925 21:35:43.732204 19975 net.cpp:194] Memory required for data: 446169600
I0925 21:35:43.732213 19975 layer_factory.hpp:77] Creating layer conv3_3_ReLU0
I0925 21:35:43.732218 19975 net.cpp:128] Creating Layer conv3_3_ReLU0
I0925 21:35:43.732223 19975 net.cpp:558] conv3_3_ReLU0 <- conv3_3_0
I0925 21:35:43.732228 19975 net.cpp:509] conv3_3_ReLU0 -> conv3_3_0 (in-place)
I0925 21:35:43.732450 19975 net.cpp:172] Setting up conv3_3_ReLU0
I0925 21:35:43.732463 19975 net.cpp:186] Top shape: 128 32 16 16 (1048576)
I0925 21:35:43.732467 19975 net.cpp:194] Memory required for data: 450363904
I0925 21:35:43.732472 19975 layer_factory.hpp:77] Creating layer conv3_3_1
I0925 21:35:43.732482 19975 net.cpp:128] Creating Layer conv3_3_1
I0925 21:35:43.732487 19975 net.cpp:558] conv3_3_1 <- conv3_3_0
I0925 21:35:43.732494 19975 net.cpp:522] conv3_3_1 -> conv3_3_1
I0925 21:35:43.733814 19975 net.cpp:172] Setting up conv3_3_1
I0925 21:35:43.733840 19975 net.cpp:186] Top shape: 128 32 16 16 (1048576)
I0925 21:35:43.733845 19975 net.cpp:194] Memory required for data: 454558208
I0925 21:35:43.733855 19975 layer_factory.hpp:77] Creating layer conv3_3bn1
I0925 21:35:43.733867 19975 net.cpp:128] Creating Layer conv3_3bn1
I0925 21:35:43.733872 19975 net.cpp:558] conv3_3bn1 <- conv3_3_1
I0925 21:35:43.733883 19975 net.cpp:509] conv3_3bn1 -> conv3_3_1 (in-place)
I0925 21:35:43.734115 19975 net.cpp:172] Setting up conv3_3bn1
I0925 21:35:43.734127 19975 net.cpp:186] Top shape: 128 32 16 16 (1048576)
I0925 21:35:43.734131 19975 net.cpp:194] Memory required for data: 458752512
I0925 21:35:43.734141 19975 layer_factory.hpp:77] Creating layer conv3_3_scale1
I0925 21:35:43.734149 19975 net.cpp:128] Creating Layer conv3_3_scale1
I0925 21:35:43.734154 19975 net.cpp:558] conv3_3_scale1 <- conv3_3_1
I0925 21:35:43.734160 19975 net.cpp:509] conv3_3_scale1 -> conv3_3_1 (in-place)
I0925 21:35:43.734200 19975 layer_factory.hpp:77] Creating layer conv3_3_scale1
I0925 21:35:43.734329 19975 net.cpp:172] Setting up conv3_3_scale1
I0925 21:35:43.734339 19975 net.cpp:186] Top shape: 128 32 16 16 (1048576)
I0925 21:35:43.734344 19975 net.cpp:194] Memory required for data: 462946816
I0925 21:35:43.734351 19975 layer_factory.hpp:77] Creating layer conv3_Eltwise_3
I0925 21:35:43.734359 19975 net.cpp:128] Creating Layer conv3_Eltwise_3
I0925 21:35:43.734364 19975 net.cpp:558] conv3_Eltwise_3 <- conv3_Eltwise_2_conv3_2ReLU_1_0_split_1
I0925 21:35:43.734369 19975 net.cpp:558] conv3_Eltwise_3 <- conv3_3_1
I0925 21:35:43.734375 19975 net.cpp:522] conv3_Eltwise_3 -> conv3_Eltwise_3
I0925 21:35:43.734395 19975 net.cpp:172] Setting up conv3_Eltwise_3
I0925 21:35:43.734402 19975 net.cpp:186] Top shape: 128 32 16 16 (1048576)
I0925 21:35:43.734406 19975 net.cpp:194] Memory required for data: 467141120
I0925 21:35:43.734411 19975 layer_factory.hpp:77] Creating layer conv3_3ReLU_1
I0925 21:35:43.734416 19975 net.cpp:128] Creating Layer conv3_3ReLU_1
I0925 21:35:43.734421 19975 net.cpp:558] conv3_3ReLU_1 <- conv3_Eltwise_3
I0925 21:35:43.734426 19975 net.cpp:509] conv3_3ReLU_1 -> conv3_Eltwise_3 (in-place)
I0925 21:35:43.734853 19975 net.cpp:172] Setting up conv3_3ReLU_1
I0925 21:35:43.734890 19975 net.cpp:186] Top shape: 128 32 16 16 (1048576)
I0925 21:35:43.734895 19975 net.cpp:194] Memory required for data: 471335424
I0925 21:35:43.734900 19975 layer_factory.hpp:77] Creating layer conv3_Eltwise_3_conv3_3ReLU_1_0_split
I0925 21:35:43.734908 19975 net.cpp:128] Creating Layer conv3_Eltwise_3_conv3_3ReLU_1_0_split
I0925 21:35:43.734913 19975 net.cpp:558] conv3_Eltwise_3_conv3_3ReLU_1_0_split <- conv3_Eltwise_3
I0925 21:35:43.734921 19975 net.cpp:522] conv3_Eltwise_3_conv3_3ReLU_1_0_split -> conv3_Eltwise_3_conv3_3ReLU_1_0_split_0
I0925 21:35:43.734930 19975 net.cpp:522] conv3_Eltwise_3_conv3_3ReLU_1_0_split -> conv3_Eltwise_3_conv3_3ReLU_1_0_split_1
I0925 21:35:43.734980 19975 net.cpp:172] Setting up conv3_Eltwise_3_conv3_3ReLU_1_0_split
I0925 21:35:43.734990 19975 net.cpp:186] Top shape: 128 32 16 16 (1048576)
I0925 21:35:43.734997 19975 net.cpp:186] Top shape: 128 32 16 16 (1048576)
I0925 21:35:43.735000 19975 net.cpp:194] Memory required for data: 479724032
I0925 21:35:43.735004 19975 layer_factory.hpp:77] Creating layer conv4_1_0
I0925 21:35:43.735015 19975 net.cpp:128] Creating Layer conv4_1_0
I0925 21:35:43.735020 19975 net.cpp:558] conv4_1_0 <- conv3_Eltwise_3_conv3_3ReLU_1_0_split_0
I0925 21:35:43.735028 19975 net.cpp:522] conv4_1_0 -> conv4_1_0
I0925 21:35:43.738014 19975 net.cpp:172] Setting up conv4_1_0
I0925 21:35:43.738041 19975 net.cpp:186] Top shape: 128 64 8 8 (524288)
I0925 21:35:43.738046 19975 net.cpp:194] Memory required for data: 481821184
I0925 21:35:43.738061 19975 layer_factory.hpp:77] Creating layer conv4_1_bn0
I0925 21:35:43.738070 19975 net.cpp:128] Creating Layer conv4_1_bn0
I0925 21:35:43.738077 19975 net.cpp:558] conv4_1_bn0 <- conv4_1_0
I0925 21:35:43.738085 19975 net.cpp:509] conv4_1_bn0 -> conv4_1_0 (in-place)
I0925 21:35:43.738332 19975 net.cpp:172] Setting up conv4_1_bn0
I0925 21:35:43.738343 19975 net.cpp:186] Top shape: 128 64 8 8 (524288)
I0925 21:35:43.738346 19975 net.cpp:194] Memory required for data: 483918336
I0925 21:35:43.738356 19975 layer_factory.hpp:77] Creating layer conv4_1_scale0
I0925 21:35:43.738363 19975 net.cpp:128] Creating Layer conv4_1_scale0
I0925 21:35:43.738370 19975 net.cpp:558] conv4_1_scale0 <- conv4_1_0
I0925 21:35:43.738376 19975 net.cpp:509] conv4_1_scale0 -> conv4_1_0 (in-place)
I0925 21:35:43.738415 19975 layer_factory.hpp:77] Creating layer conv4_1_scale0
I0925 21:35:43.738554 19975 net.cpp:172] Setting up conv4_1_scale0
I0925 21:35:43.738564 19975 net.cpp:186] Top shape: 128 64 8 8 (524288)
I0925 21:35:43.738569 19975 net.cpp:194] Memory required for data: 486015488
I0925 21:35:43.738576 19975 layer_factory.hpp:77] Creating layer conv4_1_ReLU0
I0925 21:35:43.738584 19975 net.cpp:128] Creating Layer conv4_1_ReLU0
I0925 21:35:43.738587 19975 net.cpp:558] conv4_1_ReLU0 <- conv4_1_0
I0925 21:35:43.738593 19975 net.cpp:509] conv4_1_ReLU0 -> conv4_1_0 (in-place)
I0925 21:35:43.738832 19975 net.cpp:172] Setting up conv4_1_ReLU0
I0925 21:35:43.738849 19975 net.cpp:186] Top shape: 128 64 8 8 (524288)
I0925 21:35:43.738853 19975 net.cpp:194] Memory required for data: 488112640
I0925 21:35:43.738858 19975 layer_factory.hpp:77] Creating layer conv4_1_1
I0925 21:35:43.738870 19975 net.cpp:128] Creating Layer conv4_1_1
I0925 21:35:43.738875 19975 net.cpp:558] conv4_1_1 <- conv4_1_0
I0925 21:35:43.738883 19975 net.cpp:522] conv4_1_1 -> conv4_1_1
I0925 21:35:43.740806 19975 net.cpp:172] Setting up conv4_1_1
I0925 21:35:43.740833 19975 net.cpp:186] Top shape: 128 64 8 8 (524288)
I0925 21:35:43.740839 19975 net.cpp:194] Memory required for data: 490209792
I0925 21:35:43.740850 19975 layer_factory.hpp:77] Creating layer conv4_1bn1
I0925 21:35:43.740859 19975 net.cpp:128] Creating Layer conv4_1bn1
I0925 21:35:43.740869 19975 net.cpp:558] conv4_1bn1 <- conv4_1_1
I0925 21:35:43.740876 19975 net.cpp:509] conv4_1bn1 -> conv4_1_1 (in-place)
I0925 21:35:43.741129 19975 net.cpp:172] Setting up conv4_1bn1
I0925 21:35:43.741142 19975 net.cpp:186] Top shape: 128 64 8 8 (524288)
I0925 21:35:43.741145 19975 net.cpp:194] Memory required for data: 492306944
I0925 21:35:43.741175 19975 layer_factory.hpp:77] Creating layer conv4_1_scale1
I0925 21:35:43.741185 19975 net.cpp:128] Creating Layer conv4_1_scale1
I0925 21:35:43.741190 19975 net.cpp:558] conv4_1_scale1 <- conv4_1_1
I0925 21:35:43.741196 19975 net.cpp:509] conv4_1_scale1 -> conv4_1_1 (in-place)
I0925 21:35:43.741237 19975 layer_factory.hpp:77] Creating layer conv4_1_scale1
I0925 21:35:43.741379 19975 net.cpp:172] Setting up conv4_1_scale1
I0925 21:35:43.741390 19975 net.cpp:186] Top shape: 128 64 8 8 (524288)
I0925 21:35:43.741395 19975 net.cpp:194] Memory required for data: 494404096
I0925 21:35:43.741403 19975 layer_factory.hpp:77] Creating layer conv4_1_down
I0925 21:35:43.741415 19975 net.cpp:128] Creating Layer conv4_1_down
I0925 21:35:43.741422 19975 net.cpp:558] conv4_1_down <- conv3_Eltwise_3_conv3_3ReLU_1_0_split_1
I0925 21:35:43.741430 19975 net.cpp:522] conv4_1_down -> conv4_1_down
I0925 21:35:43.742805 19975 net.cpp:172] Setting up conv4_1_down
I0925 21:35:43.742848 19975 net.cpp:186] Top shape: 128 64 8 8 (524288)
I0925 21:35:43.742852 19975 net.cpp:194] Memory required for data: 496501248
I0925 21:35:43.742864 19975 layer_factory.hpp:77] Creating layer conv4_1_bn_down
I0925 21:35:43.742873 19975 net.cpp:128] Creating Layer conv4_1_bn_down
I0925 21:35:43.742882 19975 net.cpp:558] conv4_1_bn_down <- conv4_1_down
I0925 21:35:43.742888 19975 net.cpp:509] conv4_1_bn_down -> conv4_1_down (in-place)
I0925 21:35:43.743139 19975 net.cpp:172] Setting up conv4_1_bn_down
I0925 21:35:43.743147 19975 net.cpp:186] Top shape: 128 64 8 8 (524288)
I0925 21:35:43.743152 19975 net.cpp:194] Memory required for data: 498598400
I0925 21:35:43.743162 19975 layer_factory.hpp:77] Creating layer conv4_1_scale_down
I0925 21:35:43.743171 19975 net.cpp:128] Creating Layer conv4_1_scale_down
I0925 21:35:43.743176 19975 net.cpp:558] conv4_1_scale_down <- conv4_1_down
I0925 21:35:43.743181 19975 net.cpp:509] conv4_1_scale_down -> conv4_1_down (in-place)
I0925 21:35:43.743221 19975 layer_factory.hpp:77] Creating layer conv4_1_scale_down
I0925 21:35:43.743360 19975 net.cpp:172] Setting up conv4_1_scale_down
I0925 21:35:43.743369 19975 net.cpp:186] Top shape: 128 64 8 8 (524288)
I0925 21:35:43.743373 19975 net.cpp:194] Memory required for data: 500695552
I0925 21:35:43.743382 19975 layer_factory.hpp:77] Creating layer conv4_Eltwise_1
I0925 21:35:43.743389 19975 net.cpp:128] Creating Layer conv4_Eltwise_1
I0925 21:35:43.743393 19975 net.cpp:558] conv4_Eltwise_1 <- conv4_1_1
I0925 21:35:43.743398 19975 net.cpp:558] conv4_Eltwise_1 <- conv4_1_down
I0925 21:35:43.743404 19975 net.cpp:522] conv4_Eltwise_1 -> conv4_Eltwise_1
I0925 21:35:43.743425 19975 net.cpp:172] Setting up conv4_Eltwise_1
I0925 21:35:43.743434 19975 net.cpp:186] Top shape: 128 64 8 8 (524288)
I0925 21:35:43.743438 19975 net.cpp:194] Memory required for data: 502792704
I0925 21:35:43.743443 19975 layer_factory.hpp:77] Creating layer conv4_1ReLU_1
I0925 21:35:43.743450 19975 net.cpp:128] Creating Layer conv4_1ReLU_1
I0925 21:35:43.743454 19975 net.cpp:558] conv4_1ReLU_1 <- conv4_Eltwise_1
I0925 21:35:43.743460 19975 net.cpp:509] conv4_1ReLU_1 -> conv4_Eltwise_1 (in-place)
I0925 21:35:43.743680 19975 net.cpp:172] Setting up conv4_1ReLU_1
I0925 21:35:43.743692 19975 net.cpp:186] Top shape: 128 64 8 8 (524288)
I0925 21:35:43.743697 19975 net.cpp:194] Memory required for data: 504889856
I0925 21:35:43.743701 19975 layer_factory.hpp:77] Creating layer conv4_Eltwise_1_conv4_1ReLU_1_0_split
I0925 21:35:43.743708 19975 net.cpp:128] Creating Layer conv4_Eltwise_1_conv4_1ReLU_1_0_split
I0925 21:35:43.743713 19975 net.cpp:558] conv4_Eltwise_1_conv4_1ReLU_1_0_split <- conv4_Eltwise_1
I0925 21:35:43.743719 19975 net.cpp:522] conv4_Eltwise_1_conv4_1ReLU_1_0_split -> conv4_Eltwise_1_conv4_1ReLU_1_0_split_0
I0925 21:35:43.743728 19975 net.cpp:522] conv4_Eltwise_1_conv4_1ReLU_1_0_split -> conv4_Eltwise_1_conv4_1ReLU_1_0_split_1
I0925 21:35:43.743773 19975 net.cpp:172] Setting up conv4_Eltwise_1_conv4_1ReLU_1_0_split
I0925 21:35:43.743783 19975 net.cpp:186] Top shape: 128 64 8 8 (524288)
I0925 21:35:43.743808 19975 net.cpp:186] Top shape: 128 64 8 8 (524288)
I0925 21:35:43.743813 19975 net.cpp:194] Memory required for data: 509084160
I0925 21:35:43.743816 19975 layer_factory.hpp:77] Creating layer conv4_2_0
I0925 21:35:43.743827 19975 net.cpp:128] Creating Layer conv4_2_0
I0925 21:35:43.743832 19975 net.cpp:558] conv4_2_0 <- conv4_Eltwise_1_conv4_1ReLU_1_0_split_0
I0925 21:35:43.743839 19975 net.cpp:522] conv4_2_0 -> conv4_2_0
I0925 21:35:43.745586 19975 net.cpp:172] Setting up conv4_2_0
I0925 21:35:43.745613 19975 net.cpp:186] Top shape: 128 64 8 8 (524288)
I0925 21:35:43.745618 19975 net.cpp:194] Memory required for data: 511181312
I0925 21:35:43.745632 19975 layer_factory.hpp:77] Creating layer conv4_2_bn0
I0925 21:35:43.745647 19975 net.cpp:128] Creating Layer conv4_2_bn0
I0925 21:35:43.745651 19975 net.cpp:558] conv4_2_bn0 <- conv4_2_0
I0925 21:35:43.745661 19975 net.cpp:509] conv4_2_bn0 -> conv4_2_0 (in-place)
I0925 21:35:43.745909 19975 net.cpp:172] Setting up conv4_2_bn0
I0925 21:35:43.745919 19975 net.cpp:186] Top shape: 128 64 8 8 (524288)
I0925 21:35:43.745923 19975 net.cpp:194] Memory required for data: 513278464
I0925 21:35:43.745934 19975 layer_factory.hpp:77] Creating layer conv4_2_scale0
I0925 21:35:43.745941 19975 net.cpp:128] Creating Layer conv4_2_scale0
I0925 21:35:43.745946 19975 net.cpp:558] conv4_2_scale0 <- conv4_2_0
I0925 21:35:43.745952 19975 net.cpp:509] conv4_2_scale0 -> conv4_2_0 (in-place)
I0925 21:35:43.745992 19975 layer_factory.hpp:77] Creating layer conv4_2_scale0
I0925 21:35:43.746135 19975 net.cpp:172] Setting up conv4_2_scale0
I0925 21:35:43.746146 19975 net.cpp:186] Top shape: 128 64 8 8 (524288)
I0925 21:35:43.746150 19975 net.cpp:194] Memory required for data: 515375616
I0925 21:35:43.746158 19975 layer_factory.hpp:77] Creating layer conv4_2_ReLU0
I0925 21:35:43.746165 19975 net.cpp:128] Creating Layer conv4_2_ReLU0
I0925 21:35:43.746170 19975 net.cpp:558] conv4_2_ReLU0 <- conv4_2_0
I0925 21:35:43.746176 19975 net.cpp:509] conv4_2_ReLU0 -> conv4_2_0 (in-place)
I0925 21:35:43.746592 19975 net.cpp:172] Setting up conv4_2_ReLU0
I0925 21:35:43.746614 19975 net.cpp:186] Top shape: 128 64 8 8 (524288)
I0925 21:35:43.746619 19975 net.cpp:194] Memory required for data: 517472768
I0925 21:35:43.746624 19975 layer_factory.hpp:77] Creating layer conv4_2_1
I0925 21:35:43.746637 19975 net.cpp:128] Creating Layer conv4_2_1
I0925 21:35:43.746642 19975 net.cpp:558] conv4_2_1 <- conv4_2_0
I0925 21:35:43.746650 19975 net.cpp:522] conv4_2_1 -> conv4_2_1
I0925 21:35:43.748590 19975 net.cpp:172] Setting up conv4_2_1
I0925 21:35:43.748617 19975 net.cpp:186] Top shape: 128 64 8 8 (524288)
I0925 21:35:43.748621 19975 net.cpp:194] Memory required for data: 519569920
I0925 21:35:43.748632 19975 layer_factory.hpp:77] Creating layer conv4_2bn1
I0925 21:35:43.748641 19975 net.cpp:128] Creating Layer conv4_2bn1
I0925 21:35:43.748646 19975 net.cpp:558] conv4_2bn1 <- conv4_2_1
I0925 21:35:43.748657 19975 net.cpp:509] conv4_2bn1 -> conv4_2_1 (in-place)
I0925 21:35:43.748919 19975 net.cpp:172] Setting up conv4_2bn1
I0925 21:35:43.748930 19975 net.cpp:186] Top shape: 128 64 8 8 (524288)
I0925 21:35:43.748935 19975 net.cpp:194] Memory required for data: 521667072
I0925 21:35:43.748952 19975 layer_factory.hpp:77] Creating layer conv4_2_scale1
I0925 21:35:43.748960 19975 net.cpp:128] Creating Layer conv4_2_scale1
I0925 21:35:43.748965 19975 net.cpp:558] conv4_2_scale1 <- conv4_2_1
I0925 21:35:43.748970 19975 net.cpp:509] conv4_2_scale1 -> conv4_2_1 (in-place)
I0925 21:35:43.749011 19975 layer_factory.hpp:77] Creating layer conv4_2_scale1
I0925 21:35:43.749150 19975 net.cpp:172] Setting up conv4_2_scale1
I0925 21:35:43.749156 19975 net.cpp:186] Top shape: 128 64 8 8 (524288)
I0925 21:35:43.749161 19975 net.cpp:194] Memory required for data: 523764224
I0925 21:35:43.749168 19975 layer_factory.hpp:77] Creating layer conv4_Eltwise_2
I0925 21:35:43.749176 19975 net.cpp:128] Creating Layer conv4_Eltwise_2
I0925 21:35:43.749181 19975 net.cpp:558] conv4_Eltwise_2 <- conv4_Eltwise_1_conv4_1ReLU_1_0_split_1
I0925 21:35:43.749202 19975 net.cpp:558] conv4_Eltwise_2 <- conv4_2_1
I0925 21:35:43.749208 19975 net.cpp:522] conv4_Eltwise_2 -> conv4_Eltwise_2
I0925 21:35:43.749231 19975 net.cpp:172] Setting up conv4_Eltwise_2
I0925 21:35:43.749239 19975 net.cpp:186] Top shape: 128 64 8 8 (524288)
I0925 21:35:43.749243 19975 net.cpp:194] Memory required for data: 525861376
I0925 21:35:43.749248 19975 layer_factory.hpp:77] Creating layer conv4_2ReLU_1
I0925 21:35:43.749253 19975 net.cpp:128] Creating Layer conv4_2ReLU_1
I0925 21:35:43.749259 19975 net.cpp:558] conv4_2ReLU_1 <- conv4_Eltwise_2
I0925 21:35:43.749265 19975 net.cpp:509] conv4_2ReLU_1 -> conv4_Eltwise_2 (in-place)
I0925 21:35:43.749490 19975 net.cpp:172] Setting up conv4_2ReLU_1
I0925 21:35:43.749507 19975 net.cpp:186] Top shape: 128 64 8 8 (524288)
I0925 21:35:43.749512 19975 net.cpp:194] Memory required for data: 527958528
I0925 21:35:43.749516 19975 layer_factory.hpp:77] Creating layer conv4_Eltwise_2_conv4_2ReLU_1_0_split
I0925 21:35:43.749524 19975 net.cpp:128] Creating Layer conv4_Eltwise_2_conv4_2ReLU_1_0_split
I0925 21:35:43.749528 19975 net.cpp:558] conv4_Eltwise_2_conv4_2ReLU_1_0_split <- conv4_Eltwise_2
I0925 21:35:43.749536 19975 net.cpp:522] conv4_Eltwise_2_conv4_2ReLU_1_0_split -> conv4_Eltwise_2_conv4_2ReLU_1_0_split_0
I0925 21:35:43.749543 19975 net.cpp:522] conv4_Eltwise_2_conv4_2ReLU_1_0_split -> conv4_Eltwise_2_conv4_2ReLU_1_0_split_1
I0925 21:35:43.749591 19975 net.cpp:172] Setting up conv4_Eltwise_2_conv4_2ReLU_1_0_split
I0925 21:35:43.749601 19975 net.cpp:186] Top shape: 128 64 8 8 (524288)
I0925 21:35:43.749608 19975 net.cpp:186] Top shape: 128 64 8 8 (524288)
I0925 21:35:43.749611 19975 net.cpp:194] Memory required for data: 532152832
I0925 21:35:43.749615 19975 layer_factory.hpp:77] Creating layer conv4_3_0
I0925 21:35:43.749626 19975 net.cpp:128] Creating Layer conv4_3_0
I0925 21:35:43.749632 19975 net.cpp:558] conv4_3_0 <- conv4_Eltwise_2_conv4_2ReLU_1_0_split_0
I0925 21:35:43.749639 19975 net.cpp:522] conv4_3_0 -> conv4_3_0
I0925 21:35:43.751427 19975 net.cpp:172] Setting up conv4_3_0
I0925 21:35:43.751451 19975 net.cpp:186] Top shape: 128 64 8 8 (524288)
I0925 21:35:43.751456 19975 net.cpp:194] Memory required for data: 534249984
I0925 21:35:43.751466 19975 layer_factory.hpp:77] Creating layer conv4_3_bn0
I0925 21:35:43.751476 19975 net.cpp:128] Creating Layer conv4_3_bn0
I0925 21:35:43.751480 19975 net.cpp:558] conv4_3_bn0 <- conv4_3_0
I0925 21:35:43.751487 19975 net.cpp:509] conv4_3_bn0 -> conv4_3_0 (in-place)
I0925 21:35:43.751740 19975 net.cpp:172] Setting up conv4_3_bn0
I0925 21:35:43.751752 19975 net.cpp:186] Top shape: 128 64 8 8 (524288)
I0925 21:35:43.751756 19975 net.cpp:194] Memory required for data: 536347136
I0925 21:35:43.751767 19975 layer_factory.hpp:77] Creating layer conv4_3_scale0
I0925 21:35:43.751775 19975 net.cpp:128] Creating Layer conv4_3_scale0
I0925 21:35:43.751778 19975 net.cpp:558] conv4_3_scale0 <- conv4_3_0
I0925 21:35:43.751785 19975 net.cpp:509] conv4_3_scale0 -> conv4_3_0 (in-place)
I0925 21:35:43.751826 19975 layer_factory.hpp:77] Creating layer conv4_3_scale0
I0925 21:35:43.751969 19975 net.cpp:172] Setting up conv4_3_scale0
I0925 21:35:43.751981 19975 net.cpp:186] Top shape: 128 64 8 8 (524288)
I0925 21:35:43.751984 19975 net.cpp:194] Memory required for data: 538444288
I0925 21:35:43.751993 19975 layer_factory.hpp:77] Creating layer conv4_3_ReLU0
I0925 21:35:43.752001 19975 net.cpp:128] Creating Layer conv4_3_ReLU0
I0925 21:35:43.752004 19975 net.cpp:558] conv4_3_ReLU0 <- conv4_3_0
I0925 21:35:43.752010 19975 net.cpp:509] conv4_3_ReLU0 -> conv4_3_0 (in-place)
I0925 21:35:43.752236 19975 net.cpp:172] Setting up conv4_3_ReLU0
I0925 21:35:43.752249 19975 net.cpp:186] Top shape: 128 64 8 8 (524288)
I0925 21:35:43.752254 19975 net.cpp:194] Memory required for data: 540541440
I0925 21:35:43.752259 19975 layer_factory.hpp:77] Creating layer conv4_3_1
I0925 21:35:43.752269 19975 net.cpp:128] Creating Layer conv4_3_1
I0925 21:35:43.752274 19975 net.cpp:558] conv4_3_1 <- conv4_3_0
I0925 21:35:43.752280 19975 net.cpp:522] conv4_3_1 -> conv4_3_1
I0925 21:35:43.754252 19975 net.cpp:172] Setting up conv4_3_1
I0925 21:35:43.754278 19975 net.cpp:186] Top shape: 128 64 8 8 (524288)
I0925 21:35:43.754283 19975 net.cpp:194] Memory required for data: 542638592
I0925 21:35:43.754293 19975 layer_factory.hpp:77] Creating layer conv4_3bn1
I0925 21:35:43.754302 19975 net.cpp:128] Creating Layer conv4_3bn1
I0925 21:35:43.754307 19975 net.cpp:558] conv4_3bn1 <- conv4_3_1
I0925 21:35:43.754318 19975 net.cpp:509] conv4_3bn1 -> conv4_3_1 (in-place)
I0925 21:35:43.754581 19975 net.cpp:172] Setting up conv4_3bn1
I0925 21:35:43.754591 19975 net.cpp:186] Top shape: 128 64 8 8 (524288)
I0925 21:35:43.754595 19975 net.cpp:194] Memory required for data: 544735744
I0925 21:35:43.754606 19975 layer_factory.hpp:77] Creating layer conv4_3_scale1
I0925 21:35:43.754614 19975 net.cpp:128] Creating Layer conv4_3_scale1
I0925 21:35:43.754619 19975 net.cpp:558] conv4_3_scale1 <- conv4_3_1
I0925 21:35:43.754624 19975 net.cpp:509] conv4_3_scale1 -> conv4_3_1 (in-place)
I0925 21:35:43.754664 19975 layer_factory.hpp:77] Creating layer conv4_3_scale1
I0925 21:35:43.754807 19975 net.cpp:172] Setting up conv4_3_scale1
I0925 21:35:43.754837 19975 net.cpp:186] Top shape: 128 64 8 8 (524288)
I0925 21:35:43.754840 19975 net.cpp:194] Memory required for data: 546832896
I0925 21:35:43.754848 19975 layer_factory.hpp:77] Creating layer conv4_Eltwise_3
I0925 21:35:43.754855 19975 net.cpp:128] Creating Layer conv4_Eltwise_3
I0925 21:35:43.754860 19975 net.cpp:558] conv4_Eltwise_3 <- conv4_Eltwise_2_conv4_2ReLU_1_0_split_1
I0925 21:35:43.754865 19975 net.cpp:558] conv4_Eltwise_3 <- conv4_3_1
I0925 21:35:43.754873 19975 net.cpp:522] conv4_Eltwise_3 -> conv4_Eltwise_3
I0925 21:35:43.754895 19975 net.cpp:172] Setting up conv4_Eltwise_3
I0925 21:35:43.754902 19975 net.cpp:186] Top shape: 128 64 8 8 (524288)
I0925 21:35:43.754906 19975 net.cpp:194] Memory required for data: 548930048
I0925 21:35:43.754910 19975 layer_factory.hpp:77] Creating layer conv4_3ReLU_1
I0925 21:35:43.754917 19975 net.cpp:128] Creating Layer conv4_3ReLU_1
I0925 21:35:43.754921 19975 net.cpp:558] conv4_3ReLU_1 <- conv4_Eltwise_3
I0925 21:35:43.754927 19975 net.cpp:509] conv4_3ReLU_1 -> conv4_Eltwise_3 (in-place)
I0925 21:35:43.755157 19975 net.cpp:172] Setting up conv4_3ReLU_1
I0925 21:35:43.755172 19975 net.cpp:186] Top shape: 128 64 8 8 (524288)
I0925 21:35:43.755175 19975 net.cpp:194] Memory required for data: 551027200
I0925 21:35:43.755180 19975 layer_factory.hpp:77] Creating layer Pooling1
I0925 21:35:43.755188 19975 net.cpp:128] Creating Layer Pooling1
I0925 21:35:43.755193 19975 net.cpp:558] Pooling1 <- conv4_Eltwise_3
I0925 21:35:43.755200 19975 net.cpp:522] Pooling1 -> Pooling1
I0925 21:35:43.755681 19975 net.cpp:172] Setting up Pooling1
I0925 21:35:43.755704 19975 net.cpp:186] Top shape: 128 64 1 1 (8192)
I0925 21:35:43.755710 19975 net.cpp:194] Memory required for data: 551059968
I0925 21:35:43.755715 19975 layer_factory.hpp:77] Creating layer fc1
I0925 21:35:43.755726 19975 net.cpp:128] Creating Layer fc1
I0925 21:35:43.755734 19975 net.cpp:558] fc1 <- Pooling1
I0925 21:35:43.755743 19975 net.cpp:522] fc1 -> fc1
I0925 21:35:43.755897 19975 net.cpp:172] Setting up fc1
I0925 21:35:43.755909 19975 net.cpp:186] Top shape: 128 10 (1280)
I0925 21:35:43.755913 19975 net.cpp:194] Memory required for data: 551065088
I0925 21:35:43.755923 19975 layer_factory.hpp:77] Creating layer Softmax1
I0925 21:35:43.755930 19975 net.cpp:128] Creating Layer Softmax1
I0925 21:35:43.755934 19975 net.cpp:558] Softmax1 <- fc1
I0925 21:35:43.755939 19975 net.cpp:558] Softmax1 <- label
I0925 21:35:43.755946 19975 net.cpp:522] Softmax1 -> Softmax1
…
I0925 21:35:43.758020 19975 solver.cpp:277] Creating test net (#0) specified by test_net file: ./test_ResNet_20.prototxt
I0925 21:35:43.758781 19975 net.cpp:82] Initializing net from parameters: 
name: "ResNet-20"
state {
  phase: TEST
}
layer {
  name: "Data1"
  type: "Data"
  top: "data"
  top: "label"
  transform_param {
    scale: 0.00390625
    mirror: false
    mean_value: 125.3
    mean_value: 122.9
    mean_value: 113.8
  }
  data_param {
    source: "/home/lijianfei/datasets/cifar10_40/test_lmdb"
    batch_size: 10
    backend: LMDB
  }
  image_data_param {
    shuffle: false
  }
}
layer {
  name: "conv1"
  type: "Convolution"
  bottom: "data"
  top: "conv1"
  param {
    lr_mult: 1
    decay_mult: 1
  }
  param {
    lr_mult: 2
    decay_mult: 0
  }
  convolution_param {
    num_output: 16
    bias_term: true
    pad: 1
    kernel_size: 3
    stride: 1
    weight_filler {
      type: "msra"
    }
    bias_filler {
      type: "constant"
      value: 0
    }
  }
}
layer {
  name: "conv1/bn"
  type: "BatchNorm"
  bottom: "conv1"
  top: "conv1"
  param {
    lr_mult: 0
    decay_mult: 0
  }
  param {
    lr_mult: 0
    decay_mult: 0
  }
  param {
    lr_mult: 0
    decay_mult: 0
  }
  batch_norm_param {
    use_global_stats: true
  }
}
layer {
  name: "conv1/scale"
  type: "Scale"
  bottom: "conv1"
  top: "conv1"
  scale_param {
    bias_term: true
  }
}
layer {
  name: "conv1/ReLU"
  type: "ReLU"
  bottom: "conv1"
  top: "conv1"
}
layer {
  name: "conv2_1_0"
  type: "Convolution"
  bottom: "conv1"
  top: "conv2_1_0"
  param {
    lr_mult: 1
    decay_mult: 1
  }
  param {
    lr_mult: 2
    decay_mult: 0
  }
  convolution_param {
    num_output: 16
    bias_term: true
    pad: 1
    kernel_size: 3
    stride: 1
    weight_filler {
      type: "msra"
    }
    bias_filler {
      type: "constant"
      value: 0
    }
  }
}
layer {
  name: "conv2_1_bn0"
  type: "BatchNorm"
  bottom: "conv2_1_0"
  top: "conv2_1_0"
  param {
    lr_mult: 0
    decay_mult: 0
  }
  param {
    lr_mult: 0
    decay_mult: 0
  }
  param {
    lr_mult: 0
    decay_mult: 0
  }
  batch_norm_param {
    use_global_stats: true
  }
}
layer {
  name: "conv2_1_scale0"
  type: "Scale"
  bottom: "conv2_1_0"
  top: "conv2_1_0"
  scale_param {
    bias_term: true
  }
}
layer {
  name: "conv2_1_ReLU0"
  type: "ReLU"
  bottom: "conv2_1_0"
  top: "conv2_1_0"
}
layer {
  name: "conv2_1_1"
  type: "Convolution"
  bottom: "conv2_1_0"
  top: "conv2_1_1"
  param {
    lr_mult: 1
    decay_mult: 1
  }
  param {
    lr_mult: 2
    decay_mult: 0
  }
  convolution_param {
    num_output: 16
    bias_term: true
    pad: 1
    kernel_size: 3
    stride: 1
    weight_filler {
      type: "msra"
    }
    bias_filler {
      type: "constant"
      value: 0
    }
  }
}
layer {
  name: "conv2_1bn1"
  type: "BatchNorm"
  bottom: "conv2_1_1"
  top: "conv2_1_1"
  param {
    lr_mult: 0
    decay_mult: 0
  }
  param {
    lr_mult: 0
    decay_mult: 0
  }
  param {
    lr_mult: 0
    decay_mult: 0
  }
  batch_norm_param {
    use_global_stats: true
  }
}
layer {
  name: "conv2_1_scale1"
  type: "Scale"
  bottom: "conv2_1_1"
  top: "conv2_1_1"
  scale_param {
    bias_term: true
  }
}
layer {
  name: "conv2_Eltwise_1"
  type: "Eltwise"
  bottom: "conv1"
  bottom: "conv2_1_1"
  top: "conv2_Eltwise_1"
  eltwise_param {
    operation: SUM
  }
}
layer {
  name: "conv2_1ReLU_1"
  type: "ReLU"
  bottom: "conv2_Eltwise_1"
  top: "conv2_Eltwise_1"
}
layer {
  name: "conv2_2_0"
  type: "Convolution"
  bottom: "conv2_Eltwise_1"
  top: "conv2_2_0"
  param {
    lr_mult: 1
    decay_mult: 1
  }
  param {
    lr_mult: 2
    decay_mult: 0
  }
  convolution_param {
    num_output: 16
    bias_term: true
    pad: 1
    kernel_size: 3
    stride: 1
    weight_filler {
      type: "msra"
    }
    bias_filler {
      type: "constant"
      value: 0
    }
  }
}
layer {
  name: "conv2_2_bn0"
  type: "BatchNorm"
  bottom: "conv2_2_0"
  top: "conv2_2_0"
  param {
    lr_mult: 0
    decay_mult: 0
  }
  param {
    lr_mult: 0
    decay_mult: 0
  }
  param {
    lr_mult: 0
    decay_mult: 0
  }
  batch_norm_param {
    use_global_stats: true
  }
}
layer {
  name: "conv2_2_scale0"
  type: "Scale"
  bottom: "conv2_2_0"
  top: "conv2_2_0"
  scale_param {
    bias_term: true
  }
}
layer {
  name: "conv2_2_ReLU0"
  type: "ReLU"
  bottom: "conv2_2_0"
  top: "conv2_2_0"
}
layer {
  name: "conv2_2_1"
  type: "Convolution"
  bottom: "conv2_2_0"
  top: "conv2_2_1"
  param {
    lr_mult: 1
    decay_mult: 1
  }
  param {
    lr_mult: 2
    decay_mult: 0
  }
  convolution_param {
    num_output: 16
    bias_term: true
    pad: 1
    kernel_size: 3
    stride: 1
    weight_filler {
      type: "msra"
    }
    bias_filler {
      type: "constant"
      value: 0
    }
  }
}
layer {
  name: "conv2_2bn1"
  type: "BatchNorm"
  bottom: "conv2_2_1"
  top: "conv2_2_1"
  param {
    lr_mult: 0
    decay_mult: 0
  }
  param {
    lr_mult: 0
    decay_mult: 0
  }
  param {
    lr_mult: 0
    decay_mult: 0
  }
  batch_norm_param {
    use_global_stats: true
  }
}
layer {
  name: "conv2_2_scale1"
  type: "Scale"
  bottom: "conv2_2_1"
  top: "conv2_2_1"
  scale_param {
    bias_term: true
  }
}
layer {
  name: "conv2_Eltwise_2"
  type: "Eltwise"
  bottom: "conv2_Eltwise_1"
  bottom: "conv2_2_1"
  top: "conv2_Eltwise_2"
  eltwise_param {
    operation: SUM
  }
}
layer {
  name: "conv2_2ReLU_1"
  type: "ReLU"
  bottom: "conv2_Eltwise_2"
  top: "conv2_Eltwise_2"
}
layer {
  name: "conv2_3_0"
  type: "Convolution"
  bottom: "conv2_Eltwise_2"
  top: "conv2_3_0"
  param {
    lr_mult: 1
    decay_mult: 1
  }
  param {
    lr_mult: 2
    decay_mult: 0
  }
  convolution_param {
    num_output: 16
    bias_term: true
    pad: 1
    kernel_size: 3
    stride: 1
    weight_filler {
      type: "msra"
    }
    bias_filler {
      type: "constant"
      value: 0
    }
  }
}
layer {
  name: "conv2_3_bn0"
  type: "BatchNorm"
  bottom: "conv2_3_0"
  top: "conv2_3_0"
  param {
    lr_mult: 0
    decay_mult: 0
  }
  param {
    lr_mult: 0
    decay_mult: 0
  }
  param {
    lr_mult: 0
    decay_mult: 0
  }
  batch_norm_param {
    use_global_stats: true
  }
}
layer {
  name: "conv2_3_scale0"
  type: "Scale"
  bottom: "conv2_3_0"
  top: "conv2_3_0"
  scale_param {
    bias_term: true
  }
}
layer {
  name: "conv2_3_ReLU0"
  type: "ReLU"
  bottom: "conv2_3_0"
  top: "conv2_3_0"
}
layer {
  name: "conv2_3_1"
  type: "Convolution"
  bottom: "conv2_3_0"
  top: "conv2_3_1"
  param {
    lr_mult: 1
    decay_mult: 1
  }
  param {
    lr_mult: 2
    decay_mult: 0
  }
  convolution_param {
    num_output: 16
    bias_term: true
    pad: 1
    kernel_size: 3
    stride: 1
    weight_filler {
      type: "msra"
    }
    bias_filler {
      type: "constant"
      value: 0
    }
  }
}
layer {
  name: "conv2_3bn1"
  type: "BatchNorm"
  bottom: "conv2_3_1"
  top: "conv2_3_1"
  param {
    lr_mult: 0
    decay_mult: 0
  }
  param {
    lr_mult: 0
    decay_mult: 0
  }
  param {
    lr_mult: 0
    decay_mult: 0
  }
  batch_norm_param {
    use_global_stats: true
  }
}
layer {
  name: "conv2_3_scale1"
  type: "Scale"
  bottom: "conv2_3_1"
  top: "conv2_3_1"
  scale_param {
    bias_term: true
  }
}
layer {
  name: "conv2_Eltwise_3"
  type: "Eltwise"
  bottom: "conv2_Eltwise_2"
  bottom: "conv2_3_1"
  top: "conv2_Eltwise_3"
  eltwise_param {
    operation: SUM
  }
}
layer {
  name: "conv2_3ReLU_1"
  type: "ReLU"
  bottom: "conv2_Eltwise_3"
  top: "conv2_Eltwise_3"
}
layer {
  name: "conv3_1_0"
  type: "Convolution"
  bottom: "conv2_Eltwise_3"
  top: "conv3_1_0"
  param {
    lr_mult: 1
    decay_mult: 1
  }
  param {
    lr_mult: 2
    decay_mult: 0
  }
  convolution_param {
    num_output: 32
    bias_term: true
    pad: 1
    kernel_size: 3
    stride: 2
    weight_filler {
      type: "msra"
    }
    bias_filler {
      type: "constant"
      value: 0
    }
  }
}
layer {
  name: "conv3_1_bn0"
  type: "BatchNorm"
  bottom: "conv3_1_0"
  top: "conv3_1_0"
  param {
    lr_mult: 0
    decay_mult: 0
  }
  param {
    lr_mult: 0
    decay_mult: 0
  }
  param {
    lr_mult: 0
    decay_mult: 0
  }
  batch_norm_param {
    use_global_stats: true
  }
}
layer {
  name: "conv3_1_scale0"
  type: "Scale"
  bottom: "conv3_1_0"
  top: "conv3_1_0"
  scale_param {
    bias_term: true
  }
}
layer {
  name: "conv3_1_ReLU0"
  type: "ReLU"
  bottom: "conv3_1_0"
  top: "conv3_1_0"
}
layer {
  name: "conv3_1_1"
  type: "Convolution"
  bottom: "conv3_1_0"
  top: "conv3_1_1"
  param {
    lr_mult: 1
    decay_mult: 1
  }
  param {
    lr_mult: 2
    decay_mult: 0
  }
  convolution_param {
    num_output: 32
    bias_term: true
    pad: 1
    kernel_size: 3
    stride: 1
    weight_filler {
      type: "msra"
    }
    bias_filler {
      type: "constant"
      value: 0
    }
  }
}
layer {
  name: "conv3_1bn1"
  type: "BatchNorm"
  bottom: "conv3_1_1"
  top: "conv3_1_1"
  param {
    lr_mult: 0
    decay_mult: 0
  }
  param {
    lr_mult: 0
    decay_mult: 0
  }
  param {
    lr_mult: 0
    decay_mult: 0
  }
  batch_norm_param {
    use_global_stats: true
  }
}
layer {
  name: "conv3_1_scale1"
  type: "Scale"
  bottom: "conv3_1_1"
  top: "conv3_1_1"
  scale_param {
    bias_term: true
  }
}
layer {
  name: "conv3_1_down"
  type: "Convolution"
  bottom: "conv2_Eltwise_3"
  top: "conv3_1_down"
  param {
    lr_mult: 1
    decay_mult: 1
  }
  param {
    lr_mult: 2
    decay_mult: 0
  }
  convolution_param {
    num_output: 32
    bias_term: true
    pad: 0
    kernel_size: 1
    stride: 2
    weight_filler {
      type: "msra"
    }
    bias_filler {
      type: "constant"
      value: 0
    }
  }
}
layer {
  name: "conv3_1_bn_down"
  type: "BatchNorm"
  bottom: "conv3_1_down"
  top: "conv3_1_down"
  param {
    lr_mult: 0
    decay_mult: 0
  }
  param {
    lr_mult: 0
    decay_mult: 0
  }
  param {
    lr_mult: 0
    decay_mult: 0
  }
  batch_norm_param {
    use_global_stats: true
  }
}
layer {
  name: "conv3_1_scale_down"
  type: "Scale"
  bottom: "conv3_1_down"
  top: "conv3_1_down"
  scale_param {
    bias_term: true
  }
}
layer {
  name: "conv3_Eltwise_1"
  type: "Eltwise"
  bottom: "conv3_1_1"
  bottom: "conv3_1_down"
  top: "conv3_Eltwise_1"
  eltwise_param {
    operation: SUM
  }
}
layer {
  name: "conv3_1ReLU_1"
  type: "ReLU"
  bottom: "conv3_Eltwise_1"
  top: "conv3_Eltwise_1"
}
layer {
  name: "conv3_2_0"
  type: "Convolution"
  bottom: "conv3_Eltwise_1"
  top: "conv3_2_0"
  param {
    lr_mult: 1
    decay_mult: 1
  }
  param {
    lr_mult: 2
    decay_mult: 0
  }
  convolution_param {
    num_output: 32
    bias_term: true
    pad: 1
    kernel_size: 3
    stride: 1
    weight_filler {
      type: "msra"
    }
    bias_filler {
      type: "constant"
      value: 0
    }
  }
}
layer {
  name: "conv3_2_bn0"
  type: "BatchNorm"
  bottom: "conv3_2_0"
  top: "conv3_2_0"
  param {
    lr_mult: 0
    decay_mult: 0
  }
  param {
    lr_mult: 0
    decay_mult: 0
  }
  param {
    lr_mult: 0
    decay_mult: 0
  }
  batch_norm_param {
    use_global_stats: true
  }
}
layer {
  name: "conv3_2_scale0"
  type: "Scale"
  bottom: "conv3_2_0"
  top: "conv3_2_0"
  scale_param {
    bias_term: true
  }
}
layer {
  name: "conv3_2_ReLU0"
  type: "ReLU"
  bottom: "conv3_2_0"
  top: "conv3_2_0"
}
layer {
  name: "conv3_2_1"
  type: "Convolution"
  bottom: "conv3_2_0"
  top: "conv3_2_1"
  param {
    lr_mult: 1
    decay_mult: 1
  }
  param {
    lr_mult: 2
    decay_mult: 0
  }
  convolution_param {
    num_output: 32
    bias_term: true
    pad: 1
    kernel_size: 3
    stride: 1
    weight_filler {
      type: "msra"
    }
    bias_filler {
      type: "constant"
      value: 0
    }
  }
}
layer {
  name: "conv3_2bn1"
  type: "BatchNorm"
  bottom: "conv3_2_1"
  top: "conv3_2_1"
  param {
    lr_mult: 0
    decay_mult: 0
  }
  param {
    lr_mult: 0
    decay_mult: 0
  }
  param {
    lr_mult: 0
    decay_mult: 0
  }
  batch_norm_param {
    use_global_stats: true
  }
}
layer {
  name: "conv3_2_scale1"
  type: "Scale"
  bottom: "conv3_2_1"
  top: "conv3_2_1"
  scale_param {
    bias_term: true
  }
}
layer {
  name: "conv3_Eltwise_2"
  type: "Eltwise"
  bottom: "conv3_Eltwise_1"
  bottom: "conv3_2_1"
  top: "conv3_Eltwise_2"
  eltwise_param {
    operation: SUM
  }
}
layer {
  name: "conv3_2ReLU_1"
  type: "ReLU"
  bottom: "conv3_Eltwise_2"
  top: "conv3_Eltwise_2"
}
layer {
  name: "conv3_3_0"
  type: "Convolution"
  bottom: "conv3_Eltwise_2"
  top: "conv3_3_0"
  param {
    lr_mult: 1
    decay_mult: 1
  }
  param {
    lr_mult: 2
    decay_mult: 0
  }
  convolution_param {
    num_output: 32
    bias_term: true
    pad: 1
    kernel_size: 3
    stride: 1
    weight_filler {
      type: "msra"
    }
    bias_filler {
      type: "constant"
      value: 0
    }
  }
}
layer {
  name: "conv3_3_bn0"
  type: "BatchNorm"
  bottom: "conv3_3_0"
  top: "conv3_3_0"
  param {
    lr_mult: 0
    decay_mult: 0
  }
  param {
    lr_mult: 0
    decay_mult: 0
  }
  param {
    lr_mult: 0
    decay_mult: 0
  }
  batch_norm_param {
    use_global_stats: true
  }
}
layer {
  name: "conv3_3_scale0"
  type: "Scale"
  bottom: "conv3_3_0"
  top: "conv3_3_0"
  scale_param {
    bias_term: true
  }
}
layer {
  name: "conv3_3_ReLU0"
  type: "ReLU"
  bottom: "conv3_3_0"
  top: "conv3_3_0"
}
layer {
  name: "conv3_3_1"
  type: "Convolution"
  bottom: "conv3_3_0"
  top: "conv3_3_1"
  param {
    lr_mult: 1
    decay_mult: 1
  }
  param {
    lr_mult: 2
    decay_mult: 0
  }
  convolution_param {
    num_output: 32
    bias_term: true
    pad: 1
    kernel_size: 3
    stride: 1
    weight_filler {
      type: "msra"
    }
    bias_filler {
      type: "constant"
      value: 0
    }
  }
}
layer {
  name: "conv3_3bn1"
  type: "BatchNorm"
  bottom: "conv3_3_1"
  top: "conv3_3_1"
  param {
    lr_mult: 0
    decay_mult: 0
  }
  param {
    lr_mult: 0
    decay_mult: 0
  }
  param {
    lr_mult: 0
    decay_mult: 0
  }
  batch_norm_param {
    use_global_stats: true
  }
}
layer {
  name: "conv3_3_scale1"
  type: "Scale"
  bottom: "conv3_3_1"
  top: "conv3_3_1"
  scale_param {
    bias_term: true
  }
}
layer {
  name: "conv3_Eltwise_3"
  type: "Eltwise"
  bottom: "conv3_Eltwise_2"
  bottom: "conv3_3_1"
  top: "conv3_Eltwise_3"
  eltwise_param {
    operation: SUM
  }
}
layer {
  name: "conv3_3ReLU_1"
  type: "ReLU"
  bottom: "conv3_Eltwise_3"
  top: "conv3_Eltwise_3"
}
layer {
  name: "conv4_1_0"
  type: "Convolution"
  bottom: "conv3_Eltwise_3"
  top: "conv4_1_0"
  param {
    lr_mult: 1
    decay_mult: 1
  }
  param {
    lr_mult: 2
    decay_mult: 0
  }
  convolution_param {
    num_output: 64
    bias_term: true
    pad: 1
    kernel_size: 3
    stride: 2
    weight_filler {
      type: "msra"
    }
    bias_filler {
      type: "constant"
      value: 0
    }
  }
}
layer {
  name: "conv4_1_bn0"
  type: "BatchNorm"
  bottom: "conv4_1_0"
  top: "conv4_1_0"
  param {
    lr_mult: 0
    decay_mult: 0
  }
  param {
    lr_mult: 0
    decay_mult: 0
  }
  param {
    lr_mult: 0
    decay_mult: 0
  }
  batch_norm_param {
    use_global_stats: true
  }
}
layer {
  name: "conv4_1_scale0"
  type: "Scale"
  bottom: "conv4_1_0"
  top: "conv4_1_0"
  scale_param {
    bias_term: true
  }
}
layer {
  name: "conv4_1_ReLU0"
  type: "ReLU"
  bottom: "conv4_1_0"
  top: "conv4_1_0"
}
layer {
  name: "conv4_1_1"
  type: "Convolution"
  bottom: "conv4_1_0"
  top: "conv4_1_1"
  param {
    lr_mult: 1
    decay_mult: 1
  }
  param {
    lr_mult: 2
    decay_mult: 0
  }
  convolution_param {
    num_output: 64
    bias_term: true
    pad: 1
    kernel_size: 3
    stride: 1
    weight_filler {
      type: "msra"
    }
    bias_filler {
      type: "constant"
      value: 0
    }
  }
}
layer {
  name: "conv4_1bn1"
  type: "BatchNorm"
  bottom: "conv4_1_1"
  top: "conv4_1_1"
  param {
    lr_mult: 0
    decay_mult: 0
  }
  param {
    lr_mult: 0
    decay_mult: 0
  }
  param {
    lr_mult: 0
    decay_mult: 0
  }
  batch_norm_param {
    use_global_stats: true
  }
}
layer {
  name: "conv4_1_scale1"
  type: "Scale"
  bottom: "conv4_1_1"
  top: "conv4_1_1"
  scale_param {
    bias_term: true
  }
}
layer {
  name: "conv4_1_down"
  type: "Convolution"
  bottom: "conv3_Eltwise_3"
  top: "conv4_1_down"
  param {
    lr_mult: 1
    decay_mult: 1
  }
  param {
    lr_mult: 2
    decay_mult: 0
  }
  convolution_param {
    num_output: 64
    bias_term: true
    pad: 0
    kernel_size: 1
    stride: 2
    weight_filler {
      type: "msra"
    }
    bias_filler {
      type: "constant"
      value: 0
    }
  }
}
layer {
  name: "conv4_1_bn_down"
  type: "BatchNorm"
  bottom: "conv4_1_down"
  top: "conv4_1_down"
  param {
    lr_mult: 0
    decay_mult: 0
  }
  param {
    lr_mult: 0
    decay_mult: 0
  }
  param {
    lr_mult: 0
    decay_mult: 0
  }
  batch_norm_param {
    use_global_stats: true
  }
}
layer {
  name: "conv4_1_scale_down"
  type: "Scale"
  bottom: "conv4_1_down"
  top: "conv4_1_down"
  scale_param {
    bias_term: true
  }
}
layer {
  name: "conv4_Eltwise_1"
  type: "Eltwise"
  bottom: "conv4_1_1"
  bottom: "conv4_1_down"
  top: "conv4_Eltwise_1"
  eltwise_param {
    operation: SUM
  }
}
layer {
  name: "conv4_1ReLU_1"
  type: "ReLU"
  bottom: "conv4_Eltwise_1"
  top: "conv4_Eltwise_1"
}
layer {
  name: "conv4_2_0"
  type: "Convolution"
  bottom: "conv4_Eltwise_1"
  top: "conv4_2_0"
  param {
    lr_mult: 1
    decay_mult: 1
  }
  param {
    lr_mult: 2
    decay_mult: 0
  }
  convolution_param {
    num_output: 64
    bias_term: true
    pad: 1
    kernel_size: 3
    stride: 1
    weight_filler {
      type: "msra"
    }
    bias_filler {
      type: "constant"
      value: 0
    }
  }
}
layer {
  name: "conv4_2_bn0"
  type: "BatchNorm"
  bottom: "conv4_2_0"
  top: "conv4_2_0"
  param {
    lr_mult: 0
    decay_mult: 0
  }
  param {
    lr_mult: 0
    decay_mult: 0
  }
  param {
    lr_mult: 0
    decay_mult: 0
  }
  batch_norm_param {
    use_global_stats: true
  }
}
layer {
  name: "conv4_2_scale0"
  type: "Scale"
  bottom: "conv4_2_0"
  top: "conv4_2_0"
  scale_param {
    bias_term: true
  }
}
layer {
  name: "conv4_2_ReLU0"
  type: "ReLU"
  bottom: "conv4_2_0"
  top: "conv4_2_0"
}
layer {
  name: "conv4_2_1"
  type: "Convolution"
  bottom: "conv4_2_0"
  top: "conv4_2_1"
  param {
    lr_mult: 1
    decay_mult: 1
  }
  param {
    lr_mult: 2
    decay_mult: 0
  }
  convolution_param {
    num_output: 64
    bias_term: true
    pad: 1
    kernel_size: 3
    stride: 1
    weight_filler {
      type: "msra"
    }
    bias_filler {
      type: "constant"
      value: 0
    }
  }
}
layer {
  name: "conv4_2bn1"
  type: "BatchNorm"
  bottom: "conv4_2_1"
  top: "conv4_2_1"
  param {
    lr_mult: 0
    decay_mult: 0
  }
  param {
    lr_mult: 0
    decay_mult: 0
  }
  param {
    lr_mult: 0
    decay_mult: 0
  }
  batch_norm_param {
    use_global_stats: true
  }
}
layer {
  name: "conv4_2_scale1"
  type: "Scale"
  bottom: "conv4_2_1"
  top: "conv4_2_1"
  scale_param {
    bias_term: true
  }
}
layer {
  name: "conv4_Eltwise_2"
  type: "Eltwise"
  bottom: "conv4_Eltwise_1"
  bottom: "conv4_2_1"
  top: "conv4_Eltwise_2"
  eltwise_param {
    operation: SUM
  }
}
layer {
  name: "conv4_2ReLU_1"
  type: "ReLU"
  bottom: "conv4_Eltwise_2"
  top: "conv4_Eltwise_2"
}
layer {
  name: "conv4_3_0"
  type: "Convolution"
  bottom: "conv4_Eltwise_2"
  top: "conv4_3_0"
  param {
    lr_mult: 1
    decay_mult: 1
  }
  param {
    lr_mult: 2
    decay_mult: 0
  }
  convolution_param {
    num_output: 64
    bias_term: true
    pad: 1
    kernel_size: 3
    stride: 1
    weight_filler {
      type: "msra"
    }
    bias_filler {
      type: "constant"
      value: 0
    }
  }
}
layer {
  name: "conv4_3_bn0"
  type: "BatchNorm"
  bottom: "conv4_3_0"
  top: "conv4_3_0"
  param {
    lr_mult: 0
    decay_mult: 0
  }
  param {
    lr_mult: 0
    decay_mult: 0
  }
  param {
    lr_mult: 0
    decay_mult: 0
  }
  batch_norm_param {
    use_global_stats: true
  }
}
layer {
  name: "conv4_3_scale0"
  type: "Scale"
  bottom: "conv4_3_0"
  top: "conv4_3_0"
  scale_param {
    bias_term: true
  }
}
layer {
  name: "conv4_3_ReLU0"
  type: "ReLU"
  bottom: "conv4_3_0"
  top: "conv4_3_0"
}
layer {
  name: "conv4_3_1"
  type: "Convolution"
  bottom: "conv4_3_0"
  top: "conv4_3_1"
  param {
    lr_mult: 1
    decay_mult: 1
  }
  param {
    lr_mult: 2
    decay_mult: 0
  }
  convolution_param {
    num_output: 64
    bias_term: true
    pad: 1
    kernel_size: 3
    stride: 1
    weight_filler {
      type: "msra"
    }
    bias_filler {
      type: "constant"
      value: 0
    }
  }
}
layer {
  name: "conv4_3bn1"
  type: "BatchNorm"
  bottom: "conv4_3_1"
  top: "conv4_3_1"
  param {
    lr_mult: 0
    decay_mult: 0
  }
  param {
    lr_mult: 0
    decay_mult: 0
  }
  param {
    lr_mult: 0
    decay_mult: 0
  }
  batch_norm_param {
    use_global_stats: true
  }
}
layer {
  name: "conv4_3_scale1"
  type: "Scale"
  bottom: "conv4_3_1"
  top: "conv4_3_1"
  scale_param {
    bias_term: true
  }
}
layer {
  name: "conv4_Eltwise_3"
  type: "Eltwise"
  bottom: "conv4_Eltwise_2"
  bottom: "conv4_3_1"
  top: "conv4_Eltwise_3"
  eltwise_param {
    operation: SUM
  }
}
layer {
  name: "conv4_3ReLU_1"
  type: "ReLU"
  bottom: "conv4_Eltwise_3"
  top: "conv4_Eltwise_3"
}
layer {
  name: "Pooling1"
  type: "Pooling"
  bottom: "conv4_Eltwise_3"
  top: "Pooling1"
  pooling_param {
    pool: AVE
    global_pooling: true
  }
}
layer {
  name: "fc1"
  type: "InnerProduct"
  bottom: "Pooling1"
  top: "fc1"
  param {
    lr_mult: 1
    decay_mult: 1
  }
  param {
    lr_mult: 2
    decay_mult: 1
  }
  inner_product_param {
    num_output: 10
    weight_filler {
      type: "msra"
    }
    bias_filler {
      type: "constant"
      value: 0
    }
  }
}
layer {
  name: "Softmax1"
  type: "SoftmaxWithLoss"
  bottom: "fc1"
  bottom: "label"
  top: "Softmax1"
}
layer {
  name: "prob"
  type: "Accuracy"
  bottom: "fc1"
  bottom: "label"
  top: "prob"
}
I0925 21:35:43.759168 19975 layer_factory.hpp:77] Creating layer Data1
I0925 21:35:43.759258 19975 db_lmdb.cpp:35] Opened lmdb /home/lijianfei/datasets/cifar10_40/test_lmdb
I0925 21:35:43.759276 19975 net.cpp:128] Creating Layer Data1
I0925 21:35:43.759284 19975 net.cpp:522] Data1 -> data
I0925 21:35:43.759294 19975 net.cpp:522] Data1 -> label
I0925 21:35:43.759439 19975 data_layer.cpp:45] output data size: 10,3,32,32
I0925 21:35:43.760314 19975 net.cpp:172] Setting up Data1
I0925 21:35:43.760331 19975 net.cpp:186] Top shape: 10 3 32 32 (30720)
I0925 21:35:43.760337 19975 net.cpp:186] Top shape: 10 (10)
I0925 21:35:43.760341 19975 net.cpp:194] Memory required for data: 122920
I0925 21:35:43.760346 19975 layer_factory.hpp:77] Creating layer label_Data1_1_split
I0925 21:35:43.760354 19975 net.cpp:128] Creating Layer label_Data1_1_split
I0925 21:35:43.760360 19975 net.cpp:558] label_Data1_1_split <- label
I0925 21:35:43.760366 19975 net.cpp:522] label_Data1_1_split -> label_Data1_1_split_0
I0925 21:35:43.760375 19975 net.cpp:522] label_Data1_1_split -> label_Data1_1_split_1
I0925 21:35:43.760430 19975 net.cpp:172] Setting up label_Data1_1_split
I0925 21:35:43.760438 19975 net.cpp:186] Top shape: 10 (10)
I0925 21:35:43.760443 19975 net.cpp:186] Top shape: 10 (10)
I0925 21:35:43.760447 19975 net.cpp:194] Memory required for data: 123000
I0925 21:35:43.760452 19975 layer_factory.hpp:77] Creating layer conv1
I0925 21:35:43.760462 19975 net.cpp:128] Creating Layer conv1
I0925 21:35:43.760466 19975 net.cpp:558] conv1 <- data
I0925 21:35:43.760473 19975 net.cpp:522] conv1 -> conv1
I0925 21:35:43.761950 19975 net.cpp:172] Setting up conv1
I0925 21:35:43.761973 19975 net.cpp:186] Top shape: 10 16 32 32 (163840)
I0925 21:35:43.761978 19975 net.cpp:194] Memory required for data: 778360
I0925 21:35:43.762006 19975 layer_factory.hpp:77] Creating layer conv1/bn
I0925 21:35:43.762019 19975 net.cpp:128] Creating Layer conv1/bn
I0925 21:35:43.762025 19975 net.cpp:558] conv1/bn <- conv1
I0925 21:35:43.762032 19975 net.cpp:509] conv1/bn -> conv1 (in-place)
I0925 21:35:43.762392 19975 net.cpp:172] Setting up conv1/bn
I0925 21:35:43.762403 19975 net.cpp:186] Top shape: 10 16 32 32 (163840)
I0925 21:35:43.762408 19975 net.cpp:194] Memory required for data: 1433720
I0925 21:35:43.762420 19975 layer_factory.hpp:77] Creating layer conv1/scale
I0925 21:35:43.762431 19975 net.cpp:128] Creating Layer conv1/scale
I0925 21:35:43.762439 19975 net.cpp:558] conv1/scale <- conv1
I0925 21:35:43.762444 19975 net.cpp:509] conv1/scale -> conv1 (in-place)
I0925 21:35:43.762502 19975 layer_factory.hpp:77] Creating layer conv1/scale
I0925 21:35:43.762707 19975 net.cpp:172] Setting up conv1/scale
I0925 21:35:43.762717 19975 net.cpp:186] Top shape: 10 16 32 32 (163840)
I0925 21:35:43.762722 19975 net.cpp:194] Memory required for data: 2089080
I0925 21:35:43.762729 19975 layer_factory.hpp:77] Creating layer conv1/ReLU
I0925 21:35:43.762738 19975 net.cpp:128] Creating Layer conv1/ReLU
I0925 21:35:43.762747 19975 net.cpp:558] conv1/ReLU <- conv1
I0925 21:35:43.762753 19975 net.cpp:509] conv1/ReLU -> conv1 (in-place)
I0925 21:35:43.763031 19975 net.cpp:172] Setting up conv1/ReLU
I0925 21:35:43.763047 19975 net.cpp:186] Top shape: 10 16 32 32 (163840)
I0925 21:35:43.763053 19975 net.cpp:194] Memory required for data: 2744440
I0925 21:35:43.763057 19975 layer_factory.hpp:77] Creating layer conv1_conv1/ReLU_0_split
I0925 21:35:43.763067 19975 net.cpp:128] Creating Layer conv1_conv1/ReLU_0_split
I0925 21:35:43.763072 19975 net.cpp:558] conv1_conv1/ReLU_0_split <- conv1
I0925 21:35:43.763078 19975 net.cpp:522] conv1_conv1/ReLU_0_split -> conv1_conv1/ReLU_0_split_0
I0925 21:35:43.763087 19975 net.cpp:522] conv1_conv1/ReLU_0_split -> conv1_conv1/ReLU_0_split_1
I0925 21:35:43.763147 19975 net.cpp:172] Setting up conv1_conv1/ReLU_0_split
I0925 21:35:43.763157 19975 net.cpp:186] Top shape: 10 16 32 32 (163840)
I0925 21:35:43.763164 19975 net.cpp:186] Top shape: 10 16 32 32 (163840)
I0925 21:35:43.763167 19975 net.cpp:194] Memory required for data: 4055160
I0925 21:35:43.763171 19975 layer_factory.hpp:77] Creating layer conv2_1_0
I0925 21:35:43.763181 19975 net.cpp:128] Creating Layer conv2_1_0
I0925 21:35:43.763185 19975 net.cpp:558] conv2_1_0 <- conv1_conv1/ReLU_0_split_0
I0925 21:35:43.763193 19975 net.cpp:522] conv2_1_0 -> conv2_1_0
I0925 21:35:43.764801 19975 net.cpp:172] Setting up conv2_1_0
I0925 21:35:43.764824 19975 net.cpp:186] Top shape: 10 16 32 32 (163840)
I0925 21:35:43.764829 19975 net.cpp:194] Memory required for data: 4710520
I0925 21:35:43.764842 19975 layer_factory.hpp:77] Creating layer conv2_1_bn0
I0925 21:35:43.764852 19975 net.cpp:128] Creating Layer conv2_1_bn0
I0925 21:35:43.764859 19975 net.cpp:558] conv2_1_bn0 <- conv2_1_0
I0925 21:35:43.764866 19975 net.cpp:509] conv2_1_bn0 -> conv2_1_0 (in-place)
I0925 21:35:43.765143 19975 net.cpp:172] Setting up conv2_1_bn0
I0925 21:35:43.765153 19975 net.cpp:186] Top shape: 10 16 32 32 (163840)
I0925 21:35:43.765157 19975 net.cpp:194] Memory required for data: 5365880
I0925 21:35:43.765167 19975 layer_factory.hpp:77] Creating layer conv2_1_scale0
I0925 21:35:43.765177 19975 net.cpp:128] Creating Layer conv2_1_scale0
I0925 21:35:43.765182 19975 net.cpp:558] conv2_1_scale0 <- conv2_1_0
I0925 21:35:43.765187 19975 net.cpp:509] conv2_1_scale0 -> conv2_1_0 (in-place)
I0925 21:35:43.765259 19975 layer_factory.hpp:77] Creating layer conv2_1_scale0
I0925 21:35:43.765400 19975 net.cpp:172] Setting up conv2_1_scale0
I0925 21:35:43.765410 19975 net.cpp:186] Top shape: 10 16 32 32 (163840)
I0925 21:35:43.765414 19975 net.cpp:194] Memory required for data: 6021240
I0925 21:35:43.765422 19975 layer_factory.hpp:77] Creating layer conv2_1_ReLU0
I0925 21:35:43.765429 19975 net.cpp:128] Creating Layer conv2_1_ReLU0
I0925 21:35:43.765434 19975 net.cpp:558] conv2_1_ReLU0 <- conv2_1_0
I0925 21:35:43.765460 19975 net.cpp:509] conv2_1_ReLU0 -> conv2_1_0 (in-place)
I0925 21:35:43.765887 19975 net.cpp:172] Setting up conv2_1_ReLU0
I0925 21:35:43.765908 19975 net.cpp:186] Top shape: 10 16 32 32 (163840)
I0925 21:35:43.765913 19975 net.cpp:194] Memory required for data: 6676600
I0925 21:35:43.765918 19975 layer_factory.hpp:77] Creating layer conv2_1_1
I0925 21:35:43.765929 19975 net.cpp:128] Creating Layer conv2_1_1
I0925 21:35:43.765934 19975 net.cpp:558] conv2_1_1 <- conv2_1_0
I0925 21:35:43.765942 19975 net.cpp:522] conv2_1_1 -> conv2_1_1
I0925 21:35:43.767205 19975 net.cpp:172] Setting up conv2_1_1
I0925 21:35:43.767230 19975 net.cpp:186] Top shape: 10 16 32 32 (163840)
I0925 21:35:43.767235 19975 net.cpp:194] Memory required for data: 7331960
I0925 21:35:43.767244 19975 layer_factory.hpp:77] Creating layer conv2_1bn1
I0925 21:35:43.767256 19975 net.cpp:128] Creating Layer conv2_1bn1
I0925 21:35:43.767261 19975 net.cpp:558] conv2_1bn1 <- conv2_1_1
I0925 21:35:43.767267 19975 net.cpp:509] conv2_1bn1 -> conv2_1_1 (in-place)
I0925 21:35:43.767527 19975 net.cpp:172] Setting up conv2_1bn1
I0925 21:35:43.767536 19975 net.cpp:186] Top shape: 10 16 32 32 (163840)
I0925 21:35:43.767540 19975 net.cpp:194] Memory required for data: 7987320
I0925 21:35:43.767554 19975 layer_factory.hpp:77] Creating layer conv2_1_scale1
I0925 21:35:43.767563 19975 net.cpp:128] Creating Layer conv2_1_scale1
I0925 21:35:43.767568 19975 net.cpp:558] conv2_1_scale1 <- conv2_1_1
I0925 21:35:43.767575 19975 net.cpp:509] conv2_1_scale1 -> conv2_1_1 (in-place)
I0925 21:35:43.767621 19975 layer_factory.hpp:77] Creating layer conv2_1_scale1
I0925 21:35:43.767762 19975 net.cpp:172] Setting up conv2_1_scale1
I0925 21:35:43.767773 19975 net.cpp:186] Top shape: 10 16 32 32 (163840)
I0925 21:35:43.767777 19975 net.cpp:194] Memory required for data: 8642680
I0925 21:35:43.767784 19975 layer_factory.hpp:77] Creating layer conv2_Eltwise_1
I0925 21:35:43.767792 19975 net.cpp:128] Creating Layer conv2_Eltwise_1
I0925 21:35:43.767796 19975 net.cpp:558] conv2_Eltwise_1 <- conv1_conv1/ReLU_0_split_1
I0925 21:35:43.767802 19975 net.cpp:558] conv2_Eltwise_1 <- conv2_1_1
I0925 21:35:43.767807 19975 net.cpp:522] conv2_Eltwise_1 -> conv2_Eltwise_1
I0925 21:35:43.767834 19975 net.cpp:172] Setting up conv2_Eltwise_1
I0925 21:35:43.767845 19975 net.cpp:186] Top shape: 10 16 32 32 (163840)
I0925 21:35:43.767849 19975 net.cpp:194] Memory required for data: 9298040
I0925 21:35:43.767853 19975 layer_factory.hpp:77] Creating layer conv2_1ReLU_1
I0925 21:35:43.767859 19975 net.cpp:128] Creating Layer conv2_1ReLU_1
I0925 21:35:43.767864 19975 net.cpp:558] conv2_1ReLU_1 <- conv2_Eltwise_1
I0925 21:35:43.767869 19975 net.cpp:509] conv2_1ReLU_1 -> conv2_Eltwise_1 (in-place)
I0925 21:35:43.768102 19975 net.cpp:172] Setting up conv2_1ReLU_1
I0925 21:35:43.768116 19975 net.cpp:186] Top shape: 10 16 32 32 (163840)
I0925 21:35:43.768121 19975 net.cpp:194] Memory required for data: 9953400
I0925 21:35:43.768124 19975 layer_factory.hpp:77] Creating layer conv2_Eltwise_1_conv2_1ReLU_1_0_split
I0925 21:35:43.768133 19975 net.cpp:128] Creating Layer conv2_Eltwise_1_conv2_1ReLU_1_0_split
I0925 21:35:43.768141 19975 net.cpp:558] conv2_Eltwise_1_conv2_1ReLU_1_0_split <- conv2_Eltwise_1
I0925 21:35:43.768147 19975 net.cpp:522] conv2_Eltwise_1_conv2_1ReLU_1_0_split -> conv2_Eltwise_1_conv2_1ReLU_1_0_split_0
I0925 21:35:43.768157 19975 net.cpp:522] conv2_Eltwise_1_conv2_1ReLU_1_0_split -> conv2_Eltwise_1_conv2_1ReLU_1_0_split_1
I0925 21:35:43.768204 19975 net.cpp:172] Setting up conv2_Eltwise_1_conv2_1ReLU_1_0_split
I0925 21:35:43.768214 19975 net.cpp:186] Top shape: 10 16 32 32 (163840)
I0925 21:35:43.768219 19975 net.cpp:186] Top shape: 10 16 32 32 (163840)
I0925 21:35:43.768224 19975 net.cpp:194] Memory required for data: 11264120
I0925 21:35:43.768229 19975 layer_factory.hpp:77] Creating layer conv2_2_0
I0925 21:35:43.768239 19975 net.cpp:128] Creating Layer conv2_2_0
I0925 21:35:43.768244 19975 net.cpp:558] conv2_2_0 <- conv2_Eltwise_1_conv2_1ReLU_1_0_split_0
I0925 21:35:43.768252 19975 net.cpp:522] conv2_2_0 -> conv2_2_0
I0925 21:35:43.769574 19975 net.cpp:172] Setting up conv2_2_0
I0925 21:35:43.769601 19975 net.cpp:186] Top shape: 10 16 32 32 (163840)
I0925 21:35:43.769605 19975 net.cpp:194] Memory required for data: 11919480
I0925 21:35:43.769618 19975 layer_factory.hpp:77] Creating layer conv2_2_bn0
I0925 21:35:43.769631 19975 net.cpp:128] Creating Layer conv2_2_bn0
I0925 21:35:43.769640 19975 net.cpp:558] conv2_2_bn0 <- conv2_2_0
I0925 21:35:43.769649 19975 net.cpp:509] conv2_2_bn0 -> conv2_2_0 (in-place)
I0925 21:35:43.769907 19975 net.cpp:172] Setting up conv2_2_bn0
I0925 21:35:43.769917 19975 net.cpp:186] Top shape: 10 16 32 32 (163840)
I0925 21:35:43.769922 19975 net.cpp:194] Memory required for data: 12574840
I0925 21:35:43.769930 19975 layer_factory.hpp:77] Creating layer conv2_2_scale0
I0925 21:35:43.769938 19975 net.cpp:128] Creating Layer conv2_2_scale0
I0925 21:35:43.769944 19975 net.cpp:558] conv2_2_scale0 <- conv2_2_0
I0925 21:35:43.769950 19975 net.cpp:509] conv2_2_scale0 -> conv2_2_0 (in-place)
I0925 21:35:43.769997 19975 layer_factory.hpp:77] Creating layer conv2_2_scale0
I0925 21:35:43.770136 19975 net.cpp:172] Setting up conv2_2_scale0
I0925 21:35:43.770146 19975 net.cpp:186] Top shape: 10 16 32 32 (163840)
I0925 21:35:43.770150 19975 net.cpp:194] Memory required for data: 13230200
I0925 21:35:43.770159 19975 layer_factory.hpp:77] Creating layer conv2_2_ReLU0
I0925 21:35:43.770164 19975 net.cpp:128] Creating Layer conv2_2_ReLU0
I0925 21:35:43.770169 19975 net.cpp:558] conv2_2_ReLU0 <- conv2_2_0
I0925 21:35:43.770174 19975 net.cpp:509] conv2_2_ReLU0 -> conv2_2_0 (in-place)
I0925 21:35:43.770402 19975 net.cpp:172] Setting up conv2_2_ReLU0
I0925 21:35:43.770416 19975 net.cpp:186] Top shape: 10 16 32 32 (163840)
I0925 21:35:43.770422 19975 net.cpp:194] Memory required for data: 13885560
I0925 21:35:43.770427 19975 layer_factory.hpp:77] Creating layer conv2_2_1
I0925 21:35:43.770437 19975 net.cpp:128] Creating Layer conv2_2_1
I0925 21:35:43.770443 19975 net.cpp:558] conv2_2_1 <- conv2_2_0
I0925 21:35:43.770452 19975 net.cpp:522] conv2_2_1 -> conv2_2_1
I0925 21:35:43.771692 19975 net.cpp:172] Setting up conv2_2_1
I0925 21:35:43.771720 19975 net.cpp:186] Top shape: 10 16 32 32 (163840)
I0925 21:35:43.771724 19975 net.cpp:194] Memory required for data: 14540920
I0925 21:35:43.771739 19975 layer_factory.hpp:77] Creating layer conv2_2bn1
I0925 21:35:43.771751 19975 net.cpp:128] Creating Layer conv2_2bn1
I0925 21:35:43.771756 19975 net.cpp:558] conv2_2bn1 <- conv2_2_1
I0925 21:35:43.771764 19975 net.cpp:509] conv2_2bn1 -> conv2_2_1 (in-place)
I0925 21:35:43.772024 19975 net.cpp:172] Setting up conv2_2bn1
I0925 21:35:43.772034 19975 net.cpp:186] Top shape: 10 16 32 32 (163840)
I0925 21:35:43.772038 19975 net.cpp:194] Memory required for data: 15196280
I0925 21:35:43.772050 19975 layer_factory.hpp:77] Creating layer conv2_2_scale1
I0925 21:35:43.772060 19975 net.cpp:128] Creating Layer conv2_2_scale1
I0925 21:35:43.772064 19975 net.cpp:558] conv2_2_scale1 <- conv2_2_1
I0925 21:35:43.772070 19975 net.cpp:509] conv2_2_scale1 -> conv2_2_1 (in-place)
I0925 21:35:43.772117 19975 layer_factory.hpp:77] Creating layer conv2_2_scale1
I0925 21:35:43.772260 19975 net.cpp:172] Setting up conv2_2_scale1
I0925 21:35:43.772270 19975 net.cpp:186] Top shape: 10 16 32 32 (163840)
I0925 21:35:43.772274 19975 net.cpp:194] Memory required for data: 15851640
I0925 21:35:43.772282 19975 layer_factory.hpp:77] Creating layer conv2_Eltwise_2
I0925 21:35:43.772289 19975 net.cpp:128] Creating Layer conv2_Eltwise_2
I0925 21:35:43.772294 19975 net.cpp:558] conv2_Eltwise_2 <- conv2_Eltwise_1_conv2_1ReLU_1_0_split_1
I0925 21:35:43.772300 19975 net.cpp:558] conv2_Eltwise_2 <- conv2_2_1
I0925 21:35:43.772305 19975 net.cpp:522] conv2_Eltwise_2 -> conv2_Eltwise_2
I0925 21:35:43.772331 19975 net.cpp:172] Setting up conv2_Eltwise_2
I0925 21:35:43.772341 19975 net.cpp:186] Top shape: 10 16 32 32 (163840)
I0925 21:35:43.772346 19975 net.cpp:194] Memory required for data: 16507000
I0925 21:35:43.772349 19975 layer_factory.hpp:77] Creating layer conv2_2ReLU_1
I0925 21:35:43.772377 19975 net.cpp:128] Creating Layer conv2_2ReLU_1
I0925 21:35:43.772382 19975 net.cpp:558] conv2_2ReLU_1 <- conv2_Eltwise_2
I0925 21:35:43.772387 19975 net.cpp:509] conv2_2ReLU_1 -> conv2_Eltwise_2 (in-place)
I0925 21:35:43.772809 19975 net.cpp:172] Setting up conv2_2ReLU_1
I0925 21:35:43.772830 19975 net.cpp:186] Top shape: 10 16 32 32 (163840)
I0925 21:35:43.772835 19975 net.cpp:194] Memory required for data: 17162360
I0925 21:35:43.772840 19975 layer_factory.hpp:77] Creating layer conv2_Eltwise_2_conv2_2ReLU_1_0_split
I0925 21:35:43.772848 19975 net.cpp:128] Creating Layer conv2_Eltwise_2_conv2_2ReLU_1_0_split
I0925 21:35:43.772853 19975 net.cpp:558] conv2_Eltwise_2_conv2_2ReLU_1_0_split <- conv2_Eltwise_2
I0925 21:35:43.772861 19975 net.cpp:522] conv2_Eltwise_2_conv2_2ReLU_1_0_split -> conv2_Eltwise_2_conv2_2ReLU_1_0_split_0
I0925 21:35:43.772869 19975 net.cpp:522] conv2_Eltwise_2_conv2_2ReLU_1_0_split -> conv2_Eltwise_2_conv2_2ReLU_1_0_split_1
I0925 21:35:43.772924 19975 net.cpp:172] Setting up conv2_Eltwise_2_conv2_2ReLU_1_0_split
I0925 21:35:43.772933 19975 net.cpp:186] Top shape: 10 16 32 32 (163840)
I0925 21:35:43.772940 19975 net.cpp:186] Top shape: 10 16 32 32 (163840)
I0925 21:35:43.772944 19975 net.cpp:194] Memory required for data: 18473080
I0925 21:35:43.772948 19975 layer_factory.hpp:77] Creating layer conv2_3_0
I0925 21:35:43.772959 19975 net.cpp:128] Creating Layer conv2_3_0
I0925 21:35:43.772964 19975 net.cpp:558] conv2_3_0 <- conv2_Eltwise_2_conv2_2ReLU_1_0_split_0
I0925 21:35:43.772971 19975 net.cpp:522] conv2_3_0 -> conv2_3_0
I0925 21:35:43.774260 19975 net.cpp:172] Setting up conv2_3_0
I0925 21:35:43.774286 19975 net.cpp:186] Top shape: 10 16 32 32 (163840)
I0925 21:35:43.774291 19975 net.cpp:194] Memory required for data: 19128440
I0925 21:35:43.774300 19975 layer_factory.hpp:77] Creating layer conv2_3_bn0
I0925 21:35:43.774309 19975 net.cpp:128] Creating Layer conv2_3_bn0
I0925 21:35:43.774318 19975 net.cpp:558] conv2_3_bn0 <- conv2_3_0
I0925 21:35:43.774325 19975 net.cpp:509] conv2_3_bn0 -> conv2_3_0 (in-place)
I0925 21:35:43.774582 19975 net.cpp:172] Setting up conv2_3_bn0
I0925 21:35:43.774592 19975 net.cpp:186] Top shape: 10 16 32 32 (163840)
I0925 21:35:43.774596 19975 net.cpp:194] Memory required for data: 19783800
I0925 21:35:43.774606 19975 layer_factory.hpp:77] Creating layer conv2_3_scale0
I0925 21:35:43.774613 19975 net.cpp:128] Creating Layer conv2_3_scale0
I0925 21:35:43.774618 19975 net.cpp:558] conv2_3_scale0 <- conv2_3_0
I0925 21:35:43.774623 19975 net.cpp:509] conv2_3_scale0 -> conv2_3_0 (in-place)
I0925 21:35:43.774669 19975 layer_factory.hpp:77] Creating layer conv2_3_scale0
I0925 21:35:43.774828 19975 net.cpp:172] Setting up conv2_3_scale0
I0925 21:35:43.774840 19975 net.cpp:186] Top shape: 10 16 32 32 (163840)
I0925 21:35:43.774844 19975 net.cpp:194] Memory required for data: 20439160
I0925 21:35:43.774852 19975 layer_factory.hpp:77] Creating layer conv2_3_ReLU0
I0925 21:35:43.774858 19975 net.cpp:128] Creating Layer conv2_3_ReLU0
I0925 21:35:43.774863 19975 net.cpp:558] conv2_3_ReLU0 <- conv2_3_0
I0925 21:35:43.774869 19975 net.cpp:509] conv2_3_ReLU0 -> conv2_3_0 (in-place)
I0925 21:35:43.775099 19975 net.cpp:172] Setting up conv2_3_ReLU0
I0925 21:35:43.775112 19975 net.cpp:186] Top shape: 10 16 32 32 (163840)
I0925 21:35:43.775116 19975 net.cpp:194] Memory required for data: 21094520
I0925 21:35:43.775121 19975 layer_factory.hpp:77] Creating layer conv2_3_1
I0925 21:35:43.775131 19975 net.cpp:128] Creating Layer conv2_3_1
I0925 21:35:43.775136 19975 net.cpp:558] conv2_3_1 <- conv2_3_0
I0925 21:35:43.775143 19975 net.cpp:522] conv2_3_1 -> conv2_3_1
I0925 21:35:43.776396 19975 net.cpp:172] Setting up conv2_3_1
I0925 21:35:43.776423 19975 net.cpp:186] Top shape: 10 16 32 32 (163840)
I0925 21:35:43.776427 19975 net.cpp:194] Memory required for data: 21749880
I0925 21:35:43.776439 19975 layer_factory.hpp:77] Creating layer conv2_3bn1
I0925 21:35:43.776450 19975 net.cpp:128] Creating Layer conv2_3bn1
I0925 21:35:43.776455 19975 net.cpp:558] conv2_3bn1 <- conv2_3_1
I0925 21:35:43.776481 19975 net.cpp:509] conv2_3bn1 -> conv2_3_1 (in-place)
I0925 21:35:43.776746 19975 net.cpp:172] Setting up conv2_3bn1
I0925 21:35:43.776756 19975 net.cpp:186] Top shape: 10 16 32 32 (163840)
I0925 21:35:43.776759 19975 net.cpp:194] Memory required for data: 22405240
I0925 21:35:43.776770 19975 layer_factory.hpp:77] Creating layer conv2_3_scale1
I0925 21:35:43.776777 19975 net.cpp:128] Creating Layer conv2_3_scale1
I0925 21:35:43.776782 19975 net.cpp:558] conv2_3_scale1 <- conv2_3_1
I0925 21:35:43.776788 19975 net.cpp:509] conv2_3_scale1 -> conv2_3_1 (in-place)
I0925 21:35:43.776835 19975 layer_factory.hpp:77] Creating layer conv2_3_scale1
I0925 21:35:43.776976 19975 net.cpp:172] Setting up conv2_3_scale1
I0925 21:35:43.776986 19975 net.cpp:186] Top shape: 10 16 32 32 (163840)
I0925 21:35:43.776990 19975 net.cpp:194] Memory required for data: 23060600
I0925 21:35:43.776998 19975 layer_factory.hpp:77] Creating layer conv2_Eltwise_3
I0925 21:35:43.777004 19975 net.cpp:128] Creating Layer conv2_Eltwise_3
I0925 21:35:43.777009 19975 net.cpp:558] conv2_Eltwise_3 <- conv2_Eltwise_2_conv2_2ReLU_1_0_split_1
I0925 21:35:43.777014 19975 net.cpp:558] conv2_Eltwise_3 <- conv2_3_1
I0925 21:35:43.777021 19975 net.cpp:522] conv2_Eltwise_3 -> conv2_Eltwise_3
I0925 21:35:43.777047 19975 net.cpp:172] Setting up conv2_Eltwise_3
I0925 21:35:43.777057 19975 net.cpp:186] Top shape: 10 16 32 32 (163840)
I0925 21:35:43.777061 19975 net.cpp:194] Memory required for data: 23715960
I0925 21:35:43.777065 19975 layer_factory.hpp:77] Creating layer conv2_3ReLU_1
I0925 21:35:43.777071 19975 net.cpp:128] Creating Layer conv2_3ReLU_1
I0925 21:35:43.777076 19975 net.cpp:558] conv2_3ReLU_1 <- conv2_Eltwise_3
I0925 21:35:43.777082 19975 net.cpp:509] conv2_3ReLU_1 -> conv2_Eltwise_3 (in-place)
I0925 21:35:43.777315 19975 net.cpp:172] Setting up conv2_3ReLU_1
I0925 21:35:43.777328 19975 net.cpp:186] Top shape: 10 16 32 32 (163840)
I0925 21:35:43.777333 19975 net.cpp:194] Memory required for data: 24371320
I0925 21:35:43.777338 19975 layer_factory.hpp:77] Creating layer conv2_Eltwise_3_conv2_3ReLU_1_0_split
I0925 21:35:43.777344 19975 net.cpp:128] Creating Layer conv2_Eltwise_3_conv2_3ReLU_1_0_split
I0925 21:35:43.777349 19975 net.cpp:558] conv2_Eltwise_3_conv2_3ReLU_1_0_split <- conv2_Eltwise_3
I0925 21:35:43.777355 19975 net.cpp:522] conv2_Eltwise_3_conv2_3ReLU_1_0_split -> conv2_Eltwise_3_conv2_3ReLU_1_0_split_0
I0925 21:35:43.777364 19975 net.cpp:522] conv2_Eltwise_3_conv2_3ReLU_1_0_split -> conv2_Eltwise_3_conv2_3ReLU_1_0_split_1
I0925 21:35:43.777412 19975 net.cpp:172] Setting up conv2_Eltwise_3_conv2_3ReLU_1_0_split
I0925 21:35:43.777422 19975 net.cpp:186] Top shape: 10 16 32 32 (163840)
I0925 21:35:43.777428 19975 net.cpp:186] Top shape: 10 16 32 32 (163840)
I0925 21:35:43.777432 19975 net.cpp:194] Memory required for data: 25682040
I0925 21:35:43.777436 19975 layer_factory.hpp:77] Creating layer conv3_1_0
I0925 21:35:43.777446 19975 net.cpp:128] Creating Layer conv3_1_0
I0925 21:35:43.777451 19975 net.cpp:558] conv3_1_0 <- conv2_Eltwise_3_conv2_3ReLU_1_0_split_0
I0925 21:35:43.777458 19975 net.cpp:522] conv3_1_0 -> conv3_1_0
I0925 21:35:43.778766 19975 net.cpp:172] Setting up conv3_1_0
I0925 21:35:43.778792 19975 net.cpp:186] Top shape: 10 32 16 16 (81920)
I0925 21:35:43.778796 19975 net.cpp:194] Memory required for data: 26009720
I0925 21:35:43.778823 19975 layer_factory.hpp:77] Creating layer conv3_1_bn0
I0925 21:35:43.778833 19975 net.cpp:128] Creating Layer conv3_1_bn0
I0925 21:35:43.778838 19975 net.cpp:558] conv3_1_bn0 <- conv3_1_0
I0925 21:35:43.778846 19975 net.cpp:509] conv3_1_bn0 -> conv3_1_0 (in-place)
I0925 21:35:43.779100 19975 net.cpp:172] Setting up conv3_1_bn0
I0925 21:35:43.779110 19975 net.cpp:186] Top shape: 10 32 16 16 (81920)
I0925 21:35:43.779114 19975 net.cpp:194] Memory required for data: 26337400
I0925 21:35:43.779124 19975 layer_factory.hpp:77] Creating layer conv3_1_scale0
I0925 21:35:43.779131 19975 net.cpp:128] Creating Layer conv3_1_scale0
I0925 21:35:43.779136 19975 net.cpp:558] conv3_1_scale0 <- conv3_1_0
I0925 21:35:43.779160 19975 net.cpp:509] conv3_1_scale0 -> conv3_1_0 (in-place)
I0925 21:35:43.779211 19975 layer_factory.hpp:77] Creating layer conv3_1_scale0
I0925 21:35:43.779356 19975 net.cpp:172] Setting up conv3_1_scale0
I0925 21:35:43.779366 19975 net.cpp:186] Top shape: 10 32 16 16 (81920)
I0925 21:35:43.779369 19975 net.cpp:194] Memory required for data: 26665080
I0925 21:35:43.779377 19975 layer_factory.hpp:77] Creating layer conv3_1_ReLU0
I0925 21:35:43.779383 19975 net.cpp:128] Creating Layer conv3_1_ReLU0
I0925 21:35:43.779388 19975 net.cpp:558] conv3_1_ReLU0 <- conv3_1_0
I0925 21:35:43.779394 19975 net.cpp:509] conv3_1_ReLU0 -> conv3_1_0 (in-place)
I0925 21:35:43.779628 19975 net.cpp:172] Setting up conv3_1_ReLU0
I0925 21:35:43.779642 19975 net.cpp:186] Top shape: 10 32 16 16 (81920)
I0925 21:35:43.779647 19975 net.cpp:194] Memory required for data: 26992760
I0925 21:35:43.779651 19975 layer_factory.hpp:77] Creating layer conv3_1_1
I0925 21:35:43.779664 19975 net.cpp:128] Creating Layer conv3_1_1
I0925 21:35:43.779669 19975 net.cpp:558] conv3_1_1 <- conv3_1_0
I0925 21:35:43.779675 19975 net.cpp:522] conv3_1_1 -> conv3_1_1
I0925 21:35:43.781035 19975 net.cpp:172] Setting up conv3_1_1
I0925 21:35:43.781062 19975 net.cpp:186] Top shape: 10 32 16 16 (81920)
I0925 21:35:43.781066 19975 net.cpp:194] Memory required for data: 27320440
I0925 21:35:43.781080 19975 layer_factory.hpp:77] Creating layer conv3_1bn1
I0925 21:35:43.781093 19975 net.cpp:128] Creating Layer conv3_1bn1
I0925 21:35:43.781098 19975 net.cpp:558] conv3_1bn1 <- conv3_1_1
I0925 21:35:43.781110 19975 net.cpp:509] conv3_1bn1 -> conv3_1_1 (in-place)
I0925 21:35:43.781361 19975 net.cpp:172] Setting up conv3_1bn1
I0925 21:35:43.781371 19975 net.cpp:186] Top shape: 10 32 16 16 (81920)
I0925 21:35:43.781375 19975 net.cpp:194] Memory required for data: 27648120
I0925 21:35:43.781385 19975 layer_factory.hpp:77] Creating layer conv3_1_scale1
I0925 21:35:43.781392 19975 net.cpp:128] Creating Layer conv3_1_scale1
I0925 21:35:43.781397 19975 net.cpp:558] conv3_1_scale1 <- conv3_1_1
I0925 21:35:43.781404 19975 net.cpp:509] conv3_1_scale1 -> conv3_1_1 (in-place)
I0925 21:35:43.781451 19975 layer_factory.hpp:77] Creating layer conv3_1_scale1
I0925 21:35:43.781596 19975 net.cpp:172] Setting up conv3_1_scale1
I0925 21:35:43.781606 19975 net.cpp:186] Top shape: 10 32 16 16 (81920)
I0925 21:35:43.781611 19975 net.cpp:194] Memory required for data: 27975800
I0925 21:35:43.781618 19975 layer_factory.hpp:77] Creating layer conv3_1_down
I0925 21:35:43.781628 19975 net.cpp:128] Creating Layer conv3_1_down
I0925 21:35:43.781633 19975 net.cpp:558] conv3_1_down <- conv2_Eltwise_3_conv2_3ReLU_1_0_split_1
I0925 21:35:43.781641 19975 net.cpp:522] conv3_1_down -> conv3_1_down
I0925 21:35:43.782883 19975 net.cpp:172] Setting up conv3_1_down
I0925 21:35:43.782909 19975 net.cpp:186] Top shape: 10 32 16 16 (81920)
I0925 21:35:43.782913 19975 net.cpp:194] Memory required for data: 28303480
I0925 21:35:43.782928 19975 layer_factory.hpp:77] Creating layer conv3_1_bn_down
I0925 21:35:43.782938 19975 net.cpp:128] Creating Layer conv3_1_bn_down
I0925 21:35:43.782943 19975 net.cpp:558] conv3_1_bn_down <- conv3_1_down
I0925 21:35:43.782953 19975 net.cpp:509] conv3_1_bn_down -> conv3_1_down (in-place)
I0925 21:35:43.783210 19975 net.cpp:172] Setting up conv3_1_bn_down
I0925 21:35:43.783221 19975 net.cpp:186] Top shape: 10 32 16 16 (81920)
I0925 21:35:43.783224 19975 net.cpp:194] Memory required for data: 28631160
I0925 21:35:43.783234 19975 layer_factory.hpp:77] Creating layer conv3_1_scale_down
I0925 21:35:43.783242 19975 net.cpp:128] Creating Layer conv3_1_scale_down
I0925 21:35:43.783246 19975 net.cpp:558] conv3_1_scale_down <- conv3_1_down
I0925 21:35:43.783252 19975 net.cpp:509] conv3_1_scale_down -> conv3_1_down (in-place)
I0925 21:35:43.783300 19975 layer_factory.hpp:77] Creating layer conv3_1_scale_down
I0925 21:35:43.783443 19975 net.cpp:172] Setting up conv3_1_scale_down
I0925 21:35:43.783453 19975 net.cpp:186] Top shape: 10 32 16 16 (81920)
I0925 21:35:43.783479 19975 net.cpp:194] Memory required for data: 28958840
I0925 21:35:43.783489 19975 layer_factory.hpp:77] Creating layer conv3_Eltwise_1
I0925 21:35:43.783495 19975 net.cpp:128] Creating Layer conv3_Eltwise_1
I0925 21:35:43.783500 19975 net.cpp:558] conv3_Eltwise_1 <- conv3_1_1
I0925 21:35:43.783505 19975 net.cpp:558] conv3_Eltwise_1 <- conv3_1_down
I0925 21:35:43.783511 19975 net.cpp:522] conv3_Eltwise_1 -> conv3_Eltwise_1
I0925 21:35:43.783535 19975 net.cpp:172] Setting up conv3_Eltwise_1
I0925 21:35:43.783542 19975 net.cpp:186] Top shape: 10 32 16 16 (81920)
I0925 21:35:43.783546 19975 net.cpp:194] Memory required for data: 29286520
I0925 21:35:43.783550 19975 layer_factory.hpp:77] Creating layer conv3_1ReLU_1
I0925 21:35:43.783558 19975 net.cpp:128] Creating Layer conv3_1ReLU_1
I0925 21:35:43.783562 19975 net.cpp:558] conv3_1ReLU_1 <- conv3_Eltwise_1
I0925 21:35:43.783568 19975 net.cpp:509] conv3_1ReLU_1 -> conv3_Eltwise_1 (in-place)
I0925 21:35:43.783995 19975 net.cpp:172] Setting up conv3_1ReLU_1
I0925 21:35:43.784018 19975 net.cpp:186] Top shape: 10 32 16 16 (81920)
I0925 21:35:43.784023 19975 net.cpp:194] Memory required for data: 29614200
I0925 21:35:43.784027 19975 layer_factory.hpp:77] Creating layer conv3_Eltwise_1_conv3_1ReLU_1_0_split
I0925 21:35:43.784035 19975 net.cpp:128] Creating Layer conv3_Eltwise_1_conv3_1ReLU_1_0_split
I0925 21:35:43.784040 19975 net.cpp:558] conv3_Eltwise_1_conv3_1ReLU_1_0_split <- conv3_Eltwise_1
I0925 21:35:43.784047 19975 net.cpp:522] conv3_Eltwise_1_conv3_1ReLU_1_0_split -> conv3_Eltwise_1_conv3_1ReLU_1_0_split_0
I0925 21:35:43.784056 19975 net.cpp:522] conv3_Eltwise_1_conv3_1ReLU_1_0_split -> conv3_Eltwise_1_conv3_1ReLU_1_0_split_1
I0925 21:35:43.784111 19975 net.cpp:172] Setting up conv3_Eltwise_1_conv3_1ReLU_1_0_split
I0925 21:35:43.784122 19975 net.cpp:186] Top shape: 10 32 16 16 (81920)
I0925 21:35:43.784127 19975 net.cpp:186] Top shape: 10 32 16 16 (81920)
I0925 21:35:43.784132 19975 net.cpp:194] Memory required for data: 30269560
I0925 21:35:43.784137 19975 layer_factory.hpp:77] Creating layer conv3_2_0
I0925 21:35:43.784147 19975 net.cpp:128] Creating Layer conv3_2_0
I0925 21:35:43.784152 19975 net.cpp:558] conv3_2_0 <- conv3_Eltwise_1_conv3_1ReLU_1_0_split_0
I0925 21:35:43.784158 19975 net.cpp:522] conv3_2_0 -> conv3_2_0
I0925 21:35:43.785686 19975 net.cpp:172] Setting up conv3_2_0
I0925 21:35:43.785712 19975 net.cpp:186] Top shape: 10 32 16 16 (81920)
I0925 21:35:43.785717 19975 net.cpp:194] Memory required for data: 30597240
I0925 21:35:43.785727 19975 layer_factory.hpp:77] Creating layer conv3_2_bn0
I0925 21:35:43.785737 19975 net.cpp:128] Creating Layer conv3_2_bn0
I0925 21:35:43.785742 19975 net.cpp:558] conv3_2_bn0 <- conv3_2_0
I0925 21:35:43.785753 19975 net.cpp:509] conv3_2_bn0 -> conv3_2_0 (in-place)
I0925 21:35:43.786010 19975 net.cpp:172] Setting up conv3_2_bn0
I0925 21:35:43.786022 19975 net.cpp:186] Top shape: 10 32 16 16 (81920)
I0925 21:35:43.786026 19975 net.cpp:194] Memory required for data: 30924920
I0925 21:35:43.786036 19975 layer_factory.hpp:77] Creating layer conv3_2_scale0
I0925 21:35:43.786043 19975 net.cpp:128] Creating Layer conv3_2_scale0
I0925 21:35:43.786048 19975 net.cpp:558] conv3_2_scale0 <- conv3_2_0
I0925 21:35:43.786053 19975 net.cpp:509] conv3_2_scale0 -> conv3_2_0 (in-place)
I0925 21:35:43.786103 19975 layer_factory.hpp:77] Creating layer conv3_2_scale0
I0925 21:35:43.786249 19975 net.cpp:172] Setting up conv3_2_scale0
I0925 21:35:43.786260 19975 net.cpp:186] Top shape: 10 32 16 16 (81920)
I0925 21:35:43.786264 19975 net.cpp:194] Memory required for data: 31252600
I0925 21:35:43.786272 19975 layer_factory.hpp:77] Creating layer conv3_2_ReLU0
I0925 21:35:43.786278 19975 net.cpp:128] Creating Layer conv3_2_ReLU0
I0925 21:35:43.786283 19975 net.cpp:558] conv3_2_ReLU0 <- conv3_2_0
I0925 21:35:43.786288 19975 net.cpp:509] conv3_2_ReLU0 -> conv3_2_0 (in-place)
I0925 21:35:43.786520 19975 net.cpp:172] Setting up conv3_2_ReLU0
I0925 21:35:43.786535 19975 net.cpp:186] Top shape: 10 32 16 16 (81920)
I0925 21:35:43.786538 19975 net.cpp:194] Memory required for data: 31580280
I0925 21:35:43.786561 19975 layer_factory.hpp:77] Creating layer conv3_2_1
I0925 21:35:43.786571 19975 net.cpp:128] Creating Layer conv3_2_1
I0925 21:35:43.786576 19975 net.cpp:558] conv3_2_1 <- conv3_2_0
I0925 21:35:43.786583 19975 net.cpp:522] conv3_2_1 -> conv3_2_1
I0925 21:35:43.787986 19975 net.cpp:172] Setting up conv3_2_1
I0925 21:35:43.788012 19975 net.cpp:186] Top shape: 10 32 16 16 (81920)
I0925 21:35:43.788017 19975 net.cpp:194] Memory required for data: 31907960
I0925 21:35:43.788027 19975 layer_factory.hpp:77] Creating layer conv3_2bn1
I0925 21:35:43.788035 19975 net.cpp:128] Creating Layer conv3_2bn1
I0925 21:35:43.788040 19975 net.cpp:558] conv3_2bn1 <- conv3_2_1
I0925 21:35:43.788048 19975 net.cpp:509] conv3_2bn1 -> conv3_2_1 (in-place)
I0925 21:35:43.788322 19975 net.cpp:172] Setting up conv3_2bn1
I0925 21:35:43.788333 19975 net.cpp:186] Top shape: 10 32 16 16 (81920)
I0925 21:35:43.788337 19975 net.cpp:194] Memory required for data: 32235640
I0925 21:35:43.788347 19975 layer_factory.hpp:77] Creating layer conv3_2_scale1
I0925 21:35:43.788357 19975 net.cpp:128] Creating Layer conv3_2_scale1
I0925 21:35:43.788362 19975 net.cpp:558] conv3_2_scale1 <- conv3_2_1
I0925 21:35:43.788367 19975 net.cpp:509] conv3_2_scale1 -> conv3_2_1 (in-place)
I0925 21:35:43.788419 19975 layer_factory.hpp:77] Creating layer conv3_2_scale1
I0925 21:35:43.788574 19975 net.cpp:172] Setting up conv3_2_scale1
I0925 21:35:43.788585 19975 net.cpp:186] Top shape: 10 32 16 16 (81920)
I0925 21:35:43.788589 19975 net.cpp:194] Memory required for data: 32563320
I0925 21:35:43.788596 19975 layer_factory.hpp:77] Creating layer conv3_Eltwise_2
I0925 21:35:43.788607 19975 net.cpp:128] Creating Layer conv3_Eltwise_2
I0925 21:35:43.788612 19975 net.cpp:558] conv3_Eltwise_2 <- conv3_Eltwise_1_conv3_1ReLU_1_0_split_1
I0925 21:35:43.788617 19975 net.cpp:558] conv3_Eltwise_2 <- conv3_2_1
I0925 21:35:43.788624 19975 net.cpp:522] conv3_Eltwise_2 -> conv3_Eltwise_2
I0925 21:35:43.788648 19975 net.cpp:172] Setting up conv3_Eltwise_2
I0925 21:35:43.788656 19975 net.cpp:186] Top shape: 10 32 16 16 (81920)
I0925 21:35:43.788661 19975 net.cpp:194] Memory required for data: 32891000
I0925 21:35:43.788664 19975 layer_factory.hpp:77] Creating layer conv3_2ReLU_1
I0925 21:35:43.788671 19975 net.cpp:128] Creating Layer conv3_2ReLU_1
I0925 21:35:43.788676 19975 net.cpp:558] conv3_2ReLU_1 <- conv3_Eltwise_2
I0925 21:35:43.788683 19975 net.cpp:509] conv3_2ReLU_1 -> conv3_Eltwise_2 (in-place)
I0925 21:35:43.788918 19975 net.cpp:172] Setting up conv3_2ReLU_1
I0925 21:35:43.788933 19975 net.cpp:186] Top shape: 10 32 16 16 (81920)
I0925 21:35:43.788938 19975 net.cpp:194] Memory required for data: 33218680
I0925 21:35:43.788941 19975 layer_factory.hpp:77] Creating layer conv3_Eltwise_2_conv3_2ReLU_1_0_split
I0925 21:35:43.788949 19975 net.cpp:128] Creating Layer conv3_Eltwise_2_conv3_2ReLU_1_0_split
I0925 21:35:43.788952 19975 net.cpp:558] conv3_Eltwise_2_conv3_2ReLU_1_0_split <- conv3_Eltwise_2
I0925 21:35:43.788961 19975 net.cpp:522] conv3_Eltwise_2_conv3_2ReLU_1_0_split -> conv3_Eltwise_2_conv3_2ReLU_1_0_split_0
I0925 21:35:43.788969 19975 net.cpp:522] conv3_Eltwise_2_conv3_2ReLU_1_0_split -> conv3_Eltwise_2_conv3_2ReLU_1_0_split_1
I0925 21:35:43.789032 19975 net.cpp:172] Setting up conv3_Eltwise_2_conv3_2ReLU_1_0_split
I0925 21:35:43.789043 19975 net.cpp:186] Top shape: 10 32 16 16 (81920)
I0925 21:35:43.789049 19975 net.cpp:186] Top shape: 10 32 16 16 (81920)
I0925 21:35:43.789053 19975 net.cpp:194] Memory required for data: 33874040
I0925 21:35:43.789057 19975 layer_factory.hpp:77] Creating layer conv3_3_0
I0925 21:35:43.789069 19975 net.cpp:128] Creating Layer conv3_3_0
I0925 21:35:43.789074 19975 net.cpp:558] conv3_3_0 <- conv3_Eltwise_2_conv3_2ReLU_1_0_split_0
I0925 21:35:43.789086 19975 net.cpp:522] conv3_3_0 -> conv3_3_0
I0925 21:35:43.790513 19975 net.cpp:172] Setting up conv3_3_0
I0925 21:35:43.790540 19975 net.cpp:186] Top shape: 10 32 16 16 (81920)
I0925 21:35:43.790545 19975 net.cpp:194] Memory required for data: 34201720
I0925 21:35:43.790571 19975 layer_factory.hpp:77] Creating layer conv3_3_bn0
I0925 21:35:43.790583 19975 net.cpp:128] Creating Layer conv3_3_bn0
I0925 21:35:43.790588 19975 net.cpp:558] conv3_3_bn0 <- conv3_3_0
I0925 21:35:43.790597 19975 net.cpp:509] conv3_3_bn0 -> conv3_3_0 (in-place)
I0925 21:35:43.790887 19975 net.cpp:172] Setting up conv3_3_bn0
I0925 21:35:43.790900 19975 net.cpp:186] Top shape: 10 32 16 16 (81920)
I0925 21:35:43.790905 19975 net.cpp:194] Memory required for data: 34529400
I0925 21:35:43.790915 19975 layer_factory.hpp:77] Creating layer conv3_3_scale0
I0925 21:35:43.790922 19975 net.cpp:128] Creating Layer conv3_3_scale0
I0925 21:35:43.790926 19975 net.cpp:558] conv3_3_scale0 <- conv3_3_0
I0925 21:35:43.790932 19975 net.cpp:509] conv3_3_scale0 -> conv3_3_0 (in-place)
I0925 21:35:43.790984 19975 layer_factory.hpp:77] Creating layer conv3_3_scale0
I0925 21:35:43.791142 19975 net.cpp:172] Setting up conv3_3_scale0
I0925 21:35:43.791155 19975 net.cpp:186] Top shape: 10 32 16 16 (81920)
I0925 21:35:43.791159 19975 net.cpp:194] Memory required for data: 34857080
I0925 21:35:43.791167 19975 layer_factory.hpp:77] Creating layer conv3_3_ReLU0
I0925 21:35:43.791173 19975 net.cpp:128] Creating Layer conv3_3_ReLU0
I0925 21:35:43.791178 19975 net.cpp:558] conv3_3_ReLU0 <- conv3_3_0
I0925 21:35:43.791183 19975 net.cpp:509] conv3_3_ReLU0 -> conv3_3_0 (in-place)
I0925 21:35:43.791627 19975 net.cpp:172] Setting up conv3_3_ReLU0
I0925 21:35:43.791649 19975 net.cpp:186] Top shape: 10 32 16 16 (81920)
I0925 21:35:43.791654 19975 net.cpp:194] Memory required for data: 35184760
I0925 21:35:43.791659 19975 layer_factory.hpp:77] Creating layer conv3_3_1
I0925 21:35:43.791684 19975 net.cpp:128] Creating Layer conv3_3_1
I0925 21:35:43.791690 19975 net.cpp:558] conv3_3_1 <- conv3_3_0
I0925 21:35:43.791698 19975 net.cpp:522] conv3_3_1 -> conv3_3_1
I0925 21:35:43.793162 19975 net.cpp:172] Setting up conv3_3_1
I0925 21:35:43.793189 19975 net.cpp:186] Top shape: 10 32 16 16 (81920)
I0925 21:35:43.793192 19975 net.cpp:194] Memory required for data: 35512440
I0925 21:35:43.793202 19975 layer_factory.hpp:77] Creating layer conv3_3bn1
I0925 21:35:43.793211 19975 net.cpp:128] Creating Layer conv3_3bn1
I0925 21:35:43.793216 19975 net.cpp:558] conv3_3bn1 <- conv3_3_1
I0925 21:35:43.793229 19975 net.cpp:509] conv3_3bn1 -> conv3_3_1 (in-place)
I0925 21:35:43.793505 19975 net.cpp:172] Setting up conv3_3bn1
I0925 21:35:43.793516 19975 net.cpp:186] Top shape: 10 32 16 16 (81920)
I0925 21:35:43.793521 19975 net.cpp:194] Memory required for data: 35840120
I0925 21:35:43.793530 19975 layer_factory.hpp:77] Creating layer conv3_3_scale1
I0925 21:35:43.793537 19975 net.cpp:128] Creating Layer conv3_3_scale1
I0925 21:35:43.793541 19975 net.cpp:558] conv3_3_scale1 <- conv3_3_1
I0925 21:35:43.793547 19975 net.cpp:509] conv3_3_scale1 -> conv3_3_1 (in-place)
I0925 21:35:43.793601 19975 layer_factory.hpp:77] Creating layer conv3_3_scale1
I0925 21:35:43.793756 19975 net.cpp:172] Setting up conv3_3_scale1
I0925 21:35:43.793768 19975 net.cpp:186] Top shape: 10 32 16 16 (81920)
I0925 21:35:43.793772 19975 net.cpp:194] Memory required for data: 36167800
I0925 21:35:43.793781 19975 layer_factory.hpp:77] Creating layer conv3_Eltwise_3
I0925 21:35:43.793787 19975 net.cpp:128] Creating Layer conv3_Eltwise_3
I0925 21:35:43.793792 19975 net.cpp:558] conv3_Eltwise_3 <- conv3_Eltwise_2_conv3_2ReLU_1_0_split_1
I0925 21:35:43.793797 19975 net.cpp:558] conv3_Eltwise_3 <- conv3_3_1
I0925 21:35:43.793804 19975 net.cpp:522] conv3_Eltwise_3 -> conv3_Eltwise_3
I0925 21:35:43.793829 19975 net.cpp:172] Setting up conv3_Eltwise_3
I0925 21:35:43.793836 19975 net.cpp:186] Top shape: 10 32 16 16 (81920)
I0925 21:35:43.793840 19975 net.cpp:194] Memory required for data: 36495480
I0925 21:35:43.793844 19975 layer_factory.hpp:77] Creating layer conv3_3ReLU_1
I0925 21:35:43.793850 19975 net.cpp:128] Creating Layer conv3_3ReLU_1
I0925 21:35:43.793854 19975 net.cpp:558] conv3_3ReLU_1 <- conv3_Eltwise_3
I0925 21:35:43.793864 19975 net.cpp:509] conv3_3ReLU_1 -> conv3_Eltwise_3 (in-place)
I0925 21:35:43.794124 19975 net.cpp:172] Setting up conv3_3ReLU_1
I0925 21:35:43.794139 19975 net.cpp:186] Top shape: 10 32 16 16 (81920)
I0925 21:35:43.794143 19975 net.cpp:194] Memory required for data: 36823160
I0925 21:35:43.794148 19975 layer_factory.hpp:77] Creating layer conv3_Eltwise_3_conv3_3ReLU_1_0_split
I0925 21:35:43.794155 19975 net.cpp:128] Creating Layer conv3_Eltwise_3_conv3_3ReLU_1_0_split
I0925 21:35:43.794162 19975 net.cpp:558] conv3_Eltwise_3_conv3_3ReLU_1_0_split <- conv3_Eltwise_3
I0925 21:35:43.794168 19975 net.cpp:522] conv3_Eltwise_3_conv3_3ReLU_1_0_split -> conv3_Eltwise_3_conv3_3ReLU_1_0_split_0
I0925 21:35:43.794176 19975 net.cpp:522] conv3_Eltwise_3_conv3_3ReLU_1_0_split -> conv3_Eltwise_3_conv3_3ReLU_1_0_split_1
I0925 21:35:43.794234 19975 net.cpp:172] Setting up conv3_Eltwise_3_conv3_3ReLU_1_0_split
I0925 21:35:43.794243 19975 net.cpp:186] Top shape: 10 32 16 16 (81920)
I0925 21:35:43.794250 19975 net.cpp:186] Top shape: 10 32 16 16 (81920)
I0925 21:35:43.794252 19975 net.cpp:194] Memory required for data: 37478520
I0925 21:35:43.794257 19975 layer_factory.hpp:77] Creating layer conv4_1_0
I0925 21:35:43.794268 19975 net.cpp:128] Creating Layer conv4_1_0
I0925 21:35:43.794273 19975 net.cpp:558] conv4_1_0 <- conv3_Eltwise_3_conv3_3ReLU_1_0_split_0
I0925 21:35:43.794282 19975 net.cpp:522] conv4_1_0 -> conv4_1_0
I0925 21:35:43.795917 19975 net.cpp:172] Setting up conv4_1_0
I0925 21:35:43.795943 19975 net.cpp:186] Top shape: 10 64 8 8 (40960)
I0925 21:35:43.795948 19975 net.cpp:194] Memory required for data: 37642360
I0925 21:35:43.795958 19975 layer_factory.hpp:77] Creating layer conv4_1_bn0
I0925 21:35:43.795971 19975 net.cpp:128] Creating Layer conv4_1_bn0
I0925 21:35:43.795977 19975 net.cpp:558] conv4_1_bn0 <- conv4_1_0
I0925 21:35:43.795990 19975 net.cpp:509] conv4_1_bn0 -> conv4_1_0 (in-place)
I0925 21:35:43.796270 19975 net.cpp:172] Setting up conv4_1_bn0
I0925 21:35:43.796280 19975 net.cpp:186] Top shape: 10 64 8 8 (40960)
I0925 21:35:43.796285 19975 net.cpp:194] Memory required for data: 37806200
I0925 21:35:43.796294 19975 layer_factory.hpp:77] Creating layer conv4_1_scale0
I0925 21:35:43.796303 19975 net.cpp:128] Creating Layer conv4_1_scale0
I0925 21:35:43.796308 19975 net.cpp:558] conv4_1_scale0 <- conv4_1_0
I0925 21:35:43.796314 19975 net.cpp:509] conv4_1_scale0 -> conv4_1_0 (in-place)
I0925 21:35:43.796365 19975 layer_factory.hpp:77] Creating layer conv4_1_scale0
I0925 21:35:43.796526 19975 net.cpp:172] Setting up conv4_1_scale0
I0925 21:35:43.796537 19975 net.cpp:186] Top shape: 10 64 8 8 (40960)
I0925 21:35:43.796541 19975 net.cpp:194] Memory required for data: 37970040
I0925 21:35:43.796550 19975 layer_factory.hpp:77] Creating layer conv4_1_ReLU0
I0925 21:35:43.796555 19975 net.cpp:128] Creating Layer conv4_1_ReLU0
I0925 21:35:43.796560 19975 net.cpp:558] conv4_1_ReLU0 <- conv4_1_0
I0925 21:35:43.796567 19975 net.cpp:509] conv4_1_ReLU0 -> conv4_1_0 (in-place)
I0925 21:35:43.796813 19975 net.cpp:172] Setting up conv4_1_ReLU0
I0925 21:35:43.796828 19975 net.cpp:186] Top shape: 10 64 8 8 (40960)
I0925 21:35:43.796831 19975 net.cpp:194] Memory required for data: 38133880
I0925 21:35:43.796836 19975 layer_factory.hpp:77] Creating layer conv4_1_1
I0925 21:35:43.796849 19975 net.cpp:128] Creating Layer conv4_1_1
I0925 21:35:43.796854 19975 net.cpp:558] conv4_1_1 <- conv4_1_0
I0925 21:35:43.796862 19975 net.cpp:522] conv4_1_1 -> conv4_1_1
I0925 21:35:43.798764 19975 net.cpp:172] Setting up conv4_1_1
I0925 21:35:43.798790 19975 net.cpp:186] Top shape: 10 64 8 8 (40960)
I0925 21:35:43.798794 19975 net.cpp:194] Memory required for data: 38297720
I0925 21:35:43.798804 19975 layer_factory.hpp:77] Creating layer conv4_1bn1
I0925 21:35:43.798828 19975 net.cpp:128] Creating Layer conv4_1bn1
I0925 21:35:43.798835 19975 net.cpp:558] conv4_1bn1 <- conv4_1_1
I0925 21:35:43.798841 19975 net.cpp:509] conv4_1bn1 -> conv4_1_1 (in-place)
I0925 21:35:43.799125 19975 net.cpp:172] Setting up conv4_1bn1
I0925 21:35:43.799136 19975 net.cpp:186] Top shape: 10 64 8 8 (40960)
I0925 21:35:43.799165 19975 net.cpp:194] Memory required for data: 38461560
I0925 21:35:43.799175 19975 layer_factory.hpp:77] Creating layer conv4_1_scale1
I0925 21:35:43.799181 19975 net.cpp:128] Creating Layer conv4_1_scale1
I0925 21:35:43.799186 19975 net.cpp:558] conv4_1_scale1 <- conv4_1_1
I0925 21:35:43.799192 19975 net.cpp:509] conv4_1_scale1 -> conv4_1_1 (in-place)
I0925 21:35:43.799249 19975 layer_factory.hpp:77] Creating layer conv4_1_scale1
I0925 21:35:43.799413 19975 net.cpp:172] Setting up conv4_1_scale1
I0925 21:35:43.799424 19975 net.cpp:186] Top shape: 10 64 8 8 (40960)
I0925 21:35:43.799428 19975 net.cpp:194] Memory required for data: 38625400
I0925 21:35:43.799435 19975 layer_factory.hpp:77] Creating layer conv4_1_down
I0925 21:35:43.799450 19975 net.cpp:128] Creating Layer conv4_1_down
I0925 21:35:43.799455 19975 net.cpp:558] conv4_1_down <- conv3_Eltwise_3_conv3_3ReLU_1_0_split_1
I0925 21:35:43.799464 19975 net.cpp:522] conv4_1_down -> conv4_1_down
I0925 21:35:43.800801 19975 net.cpp:172] Setting up conv4_1_down
I0925 21:35:43.800827 19975 net.cpp:186] Top shape: 10 64 8 8 (40960)
I0925 21:35:43.800832 19975 net.cpp:194] Memory required for data: 38789240
I0925 21:35:43.800840 19975 layer_factory.hpp:77] Creating layer conv4_1_bn_down
I0925 21:35:43.800851 19975 net.cpp:128] Creating Layer conv4_1_bn_down
I0925 21:35:43.800856 19975 net.cpp:558] conv4_1_bn_down <- conv4_1_down
I0925 21:35:43.800868 19975 net.cpp:509] conv4_1_bn_down -> conv4_1_down (in-place)
I0925 21:35:43.801147 19975 net.cpp:172] Setting up conv4_1_bn_down
I0925 21:35:43.801158 19975 net.cpp:186] Top shape: 10 64 8 8 (40960)
I0925 21:35:43.801162 19975 net.cpp:194] Memory required for data: 38953080
I0925 21:35:43.801172 19975 layer_factory.hpp:77] Creating layer conv4_1_scale_down
I0925 21:35:43.801182 19975 net.cpp:128] Creating Layer conv4_1_scale_down
I0925 21:35:43.801185 19975 net.cpp:558] conv4_1_scale_down <- conv4_1_down
I0925 21:35:43.801192 19975 net.cpp:509] conv4_1_scale_down -> conv4_1_down (in-place)
I0925 21:35:43.801245 19975 layer_factory.hpp:77] Creating layer conv4_1_scale_down
I0925 21:35:43.801410 19975 net.cpp:172] Setting up conv4_1_scale_down
I0925 21:35:43.801421 19975 net.cpp:186] Top shape: 10 64 8 8 (40960)
I0925 21:35:43.801425 19975 net.cpp:194] Memory required for data: 39116920
I0925 21:35:43.801432 19975 layer_factory.hpp:77] Creating layer conv4_Eltwise_1
I0925 21:35:43.801441 19975 net.cpp:128] Creating Layer conv4_Eltwise_1
I0925 21:35:43.801446 19975 net.cpp:558] conv4_Eltwise_1 <- conv4_1_1
I0925 21:35:43.801451 19975 net.cpp:558] conv4_Eltwise_1 <- conv4_1_down
I0925 21:35:43.801458 19975 net.cpp:522] conv4_Eltwise_1 -> conv4_Eltwise_1
I0925 21:35:43.801487 19975 net.cpp:172] Setting up conv4_Eltwise_1
I0925 21:35:43.801494 19975 net.cpp:186] Top shape: 10 64 8 8 (40960)
I0925 21:35:43.801498 19975 net.cpp:194] Memory required for data: 39280760
I0925 21:35:43.801502 19975 layer_factory.hpp:77] Creating layer conv4_1ReLU_1
I0925 21:35:43.801511 19975 net.cpp:128] Creating Layer conv4_1ReLU_1
I0925 21:35:43.801515 19975 net.cpp:558] conv4_1ReLU_1 <- conv4_Eltwise_1
I0925 21:35:43.801522 19975 net.cpp:509] conv4_1ReLU_1 -> conv4_Eltwise_1 (in-place)
I0925 21:35:43.801971 19975 net.cpp:172] Setting up conv4_1ReLU_1
I0925 21:35:43.801995 19975 net.cpp:186] Top shape: 10 64 8 8 (40960)
I0925 21:35:43.802000 19975 net.cpp:194] Memory required for data: 39444600
I0925 21:35:43.802004 19975 layer_factory.hpp:77] Creating layer conv4_Eltwise_1_conv4_1ReLU_1_0_split
I0925 21:35:43.802018 19975 net.cpp:128] Creating Layer conv4_Eltwise_1_conv4_1ReLU_1_0_split
I0925 21:35:43.802023 19975 net.cpp:558] conv4_Eltwise_1_conv4_1ReLU_1_0_split <- conv4_Eltwise_1
I0925 21:35:43.802031 19975 net.cpp:522] conv4_Eltwise_1_conv4_1ReLU_1_0_split -> conv4_Eltwise_1_conv4_1ReLU_1_0_split_0
I0925 21:35:43.802042 19975 net.cpp:522] conv4_Eltwise_1_conv4_1ReLU_1_0_split -> conv4_Eltwise_1_conv4_1ReLU_1_0_split_1
I0925 21:35:43.802101 19975 net.cpp:172] Setting up conv4_Eltwise_1_conv4_1ReLU_1_0_split
I0925 21:35:43.802109 19975 net.cpp:186] Top shape: 10 64 8 8 (40960)
I0925 21:35:43.802130 19975 net.cpp:186] Top shape: 10 64 8 8 (40960)
I0925 21:35:43.802134 19975 net.cpp:194] Memory required for data: 39772280
I0925 21:35:43.802139 19975 layer_factory.hpp:77] Creating layer conv4_2_0
I0925 21:35:43.802151 19975 net.cpp:128] Creating Layer conv4_2_0
I0925 21:35:43.802156 19975 net.cpp:558] conv4_2_0 <- conv4_Eltwise_1_conv4_1ReLU_1_0_split_0
I0925 21:35:43.802163 19975 net.cpp:522] conv4_2_0 -> conv4_2_0
I0925 21:35:43.804255 19975 net.cpp:172] Setting up conv4_2_0
I0925 21:35:43.804275 19975 net.cpp:186] Top shape: 10 64 8 8 (40960)
I0925 21:35:43.804280 19975 net.cpp:194] Memory required for data: 39936120
I0925 21:35:43.804291 19975 layer_factory.hpp:77] Creating layer conv4_2_bn0
I0925 21:35:43.804298 19975 net.cpp:128] Creating Layer conv4_2_bn0
I0925 21:35:43.804303 19975 net.cpp:558] conv4_2_bn0 <- conv4_2_0
I0925 21:35:43.804312 19975 net.cpp:509] conv4_2_bn0 -> conv4_2_0 (in-place)
I0925 21:35:43.804606 19975 net.cpp:172] Setting up conv4_2_bn0
I0925 21:35:43.804613 19975 net.cpp:186] Top shape: 10 64 8 8 (40960)
I0925 21:35:43.804617 19975 net.cpp:194] Memory required for data: 40099960
I0925 21:35:43.804627 19975 layer_factory.hpp:77] Creating layer conv4_2_scale0
I0925 21:35:43.804633 19975 net.cpp:128] Creating Layer conv4_2_scale0
I0925 21:35:43.804638 19975 net.cpp:558] conv4_2_scale0 <- conv4_2_0
I0925 21:35:43.804646 19975 net.cpp:509] conv4_2_scale0 -> conv4_2_0 (in-place)
I0925 21:35:43.804693 19975 layer_factory.hpp:77] Creating layer conv4_2_scale0
I0925 21:35:43.804854 19975 net.cpp:172] Setting up conv4_2_scale0
I0925 21:35:43.804862 19975 net.cpp:186] Top shape: 10 64 8 8 (40960)
I0925 21:35:43.804865 19975 net.cpp:194] Memory required for data: 40263800
I0925 21:35:43.804873 19975 layer_factory.hpp:77] Creating layer conv4_2_ReLU0
I0925 21:35:43.804882 19975 net.cpp:128] Creating Layer conv4_2_ReLU0
I0925 21:35:43.804885 19975 net.cpp:558] conv4_2_ReLU0 <- conv4_2_0
I0925 21:35:43.804891 19975 net.cpp:509] conv4_2_ReLU0 -> conv4_2_0 (in-place)
I0925 21:35:43.805133 19975 net.cpp:172] Setting up conv4_2_ReLU0
I0925 21:35:43.805143 19975 net.cpp:186] Top shape: 10 64 8 8 (40960)
I0925 21:35:43.805147 19975 net.cpp:194] Memory required for data: 40427640
I0925 21:35:43.805152 19975 layer_factory.hpp:77] Creating layer conv4_2_1
I0925 21:35:43.805166 19975 net.cpp:128] Creating Layer conv4_2_1
I0925 21:35:43.805171 19975 net.cpp:558] conv4_2_1 <- conv4_2_0
I0925 21:35:43.805178 19975 net.cpp:522] conv4_2_1 -> conv4_2_1
I0925 21:35:43.807111 19975 net.cpp:172] Setting up conv4_2_1
I0925 21:35:43.807128 19975 net.cpp:186] Top shape: 10 64 8 8 (40960)
I0925 21:35:43.807132 19975 net.cpp:194] Memory required for data: 40591480
I0925 21:35:43.807142 19975 layer_factory.hpp:77] Creating layer conv4_2bn1
I0925 21:35:43.807152 19975 net.cpp:128] Creating Layer conv4_2bn1
I0925 21:35:43.807157 19975 net.cpp:558] conv4_2bn1 <- conv4_2_1
I0925 21:35:43.807165 19975 net.cpp:509] conv4_2bn1 -> conv4_2_1 (in-place)
I0925 21:35:43.807449 19975 net.cpp:172] Setting up conv4_2bn1
I0925 21:35:43.807456 19975 net.cpp:186] Top shape: 10 64 8 8 (40960)
I0925 21:35:43.807461 19975 net.cpp:194] Memory required for data: 40755320
I0925 21:35:43.807482 19975 layer_factory.hpp:77] Creating layer conv4_2_scale1
I0925 21:35:43.807490 19975 net.cpp:128] Creating Layer conv4_2_scale1
I0925 21:35:43.807494 19975 net.cpp:558] conv4_2_scale1 <- conv4_2_1
I0925 21:35:43.807502 19975 net.cpp:509] conv4_2_scale1 -> conv4_2_1 (in-place)
I0925 21:35:43.807552 19975 layer_factory.hpp:77] Creating layer conv4_2_scale1
I0925 21:35:43.807710 19975 net.cpp:172] Setting up conv4_2_scale1
I0925 21:35:43.807718 19975 net.cpp:186] Top shape: 10 64 8 8 (40960)
I0925 21:35:43.807721 19975 net.cpp:194] Memory required for data: 40919160
I0925 21:35:43.807729 19975 layer_factory.hpp:77] Creating layer conv4_Eltwise_2
I0925 21:35:43.807735 19975 net.cpp:128] Creating Layer conv4_Eltwise_2
I0925 21:35:43.807741 19975 net.cpp:558] conv4_Eltwise_2 <- conv4_Eltwise_1_conv4_1ReLU_1_0_split_1
I0925 21:35:43.807763 19975 net.cpp:558] conv4_Eltwise_2 <- conv4_2_1
I0925 21:35:43.807771 19975 net.cpp:522] conv4_Eltwise_2 -> conv4_Eltwise_2
I0925 21:35:43.807803 19975 net.cpp:172] Setting up conv4_Eltwise_2
I0925 21:35:43.807811 19975 net.cpp:186] Top shape: 10 64 8 8 (40960)
I0925 21:35:43.807814 19975 net.cpp:194] Memory required for data: 41083000
I0925 21:35:43.807818 19975 layer_factory.hpp:77] Creating layer conv4_2ReLU_1
I0925 21:35:43.807824 19975 net.cpp:128] Creating Layer conv4_2ReLU_1
I0925 21:35:43.807828 19975 net.cpp:558] conv4_2ReLU_1 <- conv4_Eltwise_2
I0925 21:35:43.807835 19975 net.cpp:509] conv4_2ReLU_1 -> conv4_Eltwise_2 (in-place)
I0925 21:35:43.808076 19975 net.cpp:172] Setting up conv4_2ReLU_1
I0925 21:35:43.808086 19975 net.cpp:186] Top shape: 10 64 8 8 (40960)
I0925 21:35:43.808090 19975 net.cpp:194] Memory required for data: 41246840
I0925 21:35:43.808094 19975 layer_factory.hpp:77] Creating layer conv4_Eltwise_2_conv4_2ReLU_1_0_split
I0925 21:35:43.808101 19975 net.cpp:128] Creating Layer conv4_Eltwise_2_conv4_2ReLU_1_0_split
I0925 21:35:43.808105 19975 net.cpp:558] conv4_Eltwise_2_conv4_2ReLU_1_0_split <- conv4_Eltwise_2
I0925 21:35:43.808115 19975 net.cpp:522] conv4_Eltwise_2_conv4_2ReLU_1_0_split -> conv4_Eltwise_2_conv4_2ReLU_1_0_split_0
I0925 21:35:43.808122 19975 net.cpp:522] conv4_Eltwise_2_conv4_2ReLU_1_0_split -> conv4_Eltwise_2_conv4_2ReLU_1_0_split_1
I0925 21:35:43.808176 19975 net.cpp:172] Setting up conv4_Eltwise_2_conv4_2ReLU_1_0_split
I0925 21:35:43.808184 19975 net.cpp:186] Top shape: 10 64 8 8 (40960)
I0925 21:35:43.808189 19975 net.cpp:186] Top shape: 10 64 8 8 (40960)
I0925 21:35:43.808193 19975 net.cpp:194] Memory required for data: 41574520
I0925 21:35:43.808197 19975 layer_factory.hpp:77] Creating layer conv4_3_0
I0925 21:35:43.808210 19975 net.cpp:128] Creating Layer conv4_3_0
I0925 21:35:43.808215 19975 net.cpp:558] conv4_3_0 <- conv4_Eltwise_2_conv4_2ReLU_1_0_split_0
I0925 21:35:43.808224 19975 net.cpp:522] conv4_3_0 -> conv4_3_0
I0925 21:35:43.810292 19975 net.cpp:172] Setting up conv4_3_0
I0925 21:35:43.810310 19975 net.cpp:186] Top shape: 10 64 8 8 (40960)
I0925 21:35:43.810314 19975 net.cpp:194] Memory required for data: 41738360
I0925 21:35:43.810324 19975 layer_factory.hpp:77] Creating layer conv4_3_bn0
I0925 21:35:43.810334 19975 net.cpp:128] Creating Layer conv4_3_bn0
I0925 21:35:43.810339 19975 net.cpp:558] conv4_3_bn0 <- conv4_3_0
I0925 21:35:43.810346 19975 net.cpp:509] conv4_3_bn0 -> conv4_3_0 (in-place)
I0925 21:35:43.810642 19975 net.cpp:172] Setting up conv4_3_bn0
I0925 21:35:43.810649 19975 net.cpp:186] Top shape: 10 64 8 8 (40960)
I0925 21:35:43.810653 19975 net.cpp:194] Memory required for data: 41902200
I0925 21:35:43.810662 19975 layer_factory.hpp:77] Creating layer conv4_3_scale0
I0925 21:35:43.810672 19975 net.cpp:128] Creating Layer conv4_3_scale0
I0925 21:35:43.810675 19975 net.cpp:558] conv4_3_scale0 <- conv4_3_0
I0925 21:35:43.810681 19975 net.cpp:509] conv4_3_scale0 -> conv4_3_0 (in-place)
I0925 21:35:43.810734 19975 layer_factory.hpp:77] Creating layer conv4_3_scale0
I0925 21:35:43.810907 19975 net.cpp:172] Setting up conv4_3_scale0
I0925 21:35:43.810915 19975 net.cpp:186] Top shape: 10 64 8 8 (40960)
I0925 21:35:43.810920 19975 net.cpp:194] Memory required for data: 42066040
I0925 21:35:43.810927 19975 layer_factory.hpp:77] Creating layer conv4_3_ReLU0
I0925 21:35:43.810935 19975 net.cpp:128] Creating Layer conv4_3_ReLU0
I0925 21:35:43.810940 19975 net.cpp:558] conv4_3_ReLU0 <- conv4_3_0
I0925 21:35:43.810946 19975 net.cpp:509] conv4_3_ReLU0 -> conv4_3_0 (in-place)
I0925 21:35:43.811187 19975 net.cpp:172] Setting up conv4_3_ReLU0
I0925 21:35:43.811197 19975 net.cpp:186] Top shape: 10 64 8 8 (40960)
I0925 21:35:43.811202 19975 net.cpp:194] Memory required for data: 42229880
I0925 21:35:43.811206 19975 layer_factory.hpp:77] Creating layer conv4_3_1
I0925 21:35:43.811219 19975 net.cpp:128] Creating Layer conv4_3_1
I0925 21:35:43.811224 19975 net.cpp:558] conv4_3_1 <- conv4_3_0
I0925 21:35:43.811231 19975 net.cpp:522] conv4_3_1 -> conv4_3_1
I0925 21:35:43.814487 19975 net.cpp:172] Setting up conv4_3_1
I0925 21:35:43.814505 19975 net.cpp:186] Top shape: 10 64 8 8 (40960)
I0925 21:35:43.814509 19975 net.cpp:194] Memory required for data: 42393720
I0925 21:35:43.814518 19975 layer_factory.hpp:77] Creating layer conv4_3bn1
I0925 21:35:43.814529 19975 net.cpp:128] Creating Layer conv4_3bn1
I0925 21:35:43.814534 19975 net.cpp:558] conv4_3bn1 <- conv4_3_1
I0925 21:35:43.814541 19975 net.cpp:509] conv4_3bn1 -> conv4_3_1 (in-place)
I0925 21:35:43.814884 19975 net.cpp:172] Setting up conv4_3bn1
I0925 21:35:43.814894 19975 net.cpp:186] Top shape: 10 64 8 8 (40960)
I0925 21:35:43.814898 19975 net.cpp:194] Memory required for data: 42557560
I0925 21:35:43.814909 19975 layer_factory.hpp:77] Creating layer conv4_3_scale1
I0925 21:35:43.814918 19975 net.cpp:128] Creating Layer conv4_3_scale1
I0925 21:35:43.814924 19975 net.cpp:558] conv4_3_scale1 <- conv4_3_1
I0925 21:35:43.814929 19975 net.cpp:509] conv4_3_scale1 -> conv4_3_1 (in-place)
I0925 21:35:43.814983 19975 layer_factory.hpp:77] Creating layer conv4_3_scale1
I0925 21:35:43.815166 19975 net.cpp:172] Setting up conv4_3_scale1
I0925 21:35:43.815174 19975 net.cpp:186] Top shape: 10 64 8 8 (40960)
I0925 21:35:43.815177 19975 net.cpp:194] Memory required for data: 42721400
I0925 21:35:43.815186 19975 layer_factory.hpp:77] Creating layer conv4_Eltwise_3
I0925 21:35:43.815194 19975 net.cpp:128] Creating Layer conv4_Eltwise_3
I0925 21:35:43.815199 19975 net.cpp:558] conv4_Eltwise_3 <- conv4_Eltwise_2_conv4_2ReLU_1_0_split_1
I0925 21:35:43.815204 19975 net.cpp:558] conv4_Eltwise_3 <- conv4_3_1
I0925 21:35:43.815212 19975 net.cpp:522] conv4_Eltwise_3 -> conv4_Eltwise_3
I0925 21:35:43.815240 19975 net.cpp:172] Setting up conv4_Eltwise_3
I0925 21:35:43.815248 19975 net.cpp:186] Top shape: 10 64 8 8 (40960)
I0925 21:35:43.815250 19975 net.cpp:194] Memory required for data: 42885240
I0925 21:35:43.815254 19975 layer_factory.hpp:77] Creating layer conv4_3ReLU_1
I0925 21:35:43.815263 19975 net.cpp:128] Creating Layer conv4_3ReLU_1
I0925 21:35:43.815268 19975 net.cpp:558] conv4_3ReLU_1 <- conv4_Eltwise_3
I0925 21:35:43.815273 19975 net.cpp:509] conv4_3ReLU_1 -> conv4_Eltwise_3 (in-place)
I0925 21:35:43.815711 19975 net.cpp:172] Setting up conv4_3ReLU_1
I0925 21:35:43.815728 19975 net.cpp:186] Top shape: 10 64 8 8 (40960)
I0925 21:35:43.815732 19975 net.cpp:194] Memory required for data: 43049080
I0925 21:35:43.815737 19975 layer_factory.hpp:77] Creating layer Pooling1
I0925 21:35:43.815748 19975 net.cpp:128] Creating Layer Pooling1
I0925 21:35:43.815753 19975 net.cpp:558] Pooling1 <- conv4_Eltwise_3
I0925 21:35:43.815760 19975 net.cpp:522] Pooling1 -> Pooling1
I0925 21:35:43.816027 19975 net.cpp:172] Setting up Pooling1
I0925 21:35:43.816037 19975 net.cpp:186] Top shape: 10 64 1 1 (640)
I0925 21:35:43.816041 19975 net.cpp:194] Memory required for data: 43051640
I0925 21:35:43.816045 19975 layer_factory.hpp:77] Creating layer fc1
I0925 21:35:43.816056 19975 net.cpp:128] Creating Layer fc1
I0925 21:35:43.816061 19975 net.cpp:558] fc1 <- Pooling1
I0925 21:35:43.816069 19975 net.cpp:522] fc1 -> fc1
I0925 21:35:43.816237 19975 net.cpp:172] Setting up fc1
I0925 21:35:43.816247 19975 net.cpp:186] Top shape: 10 10 (100)
I0925 21:35:43.816251 19975 net.cpp:194] Memory required for data: 43052040
I0925 21:35:43.816259 19975 layer_factory.hpp:77] Creating layer fc1_fc1_0_split
I0925 21:35:43.816267 19975 net.cpp:128] Creating Layer fc1_fc1_0_split
I0925 21:35:43.816270 19975 net.cpp:558] fc1_fc1_0_split <- fc1
I0925 21:35:43.816277 19975 net.cpp:522] fc1_fc1_0_split -> fc1_fc1_0_split_0
I0925 21:35:43.816285 19975 net.cpp:522] fc1_fc1_0_split -> fc1_fc1_0_split_1
I0925 21:35:43.816334 19975 net.cpp:172] Setting up fc1_fc1_0_split
I0925 21:35:43.816341 19975 net.cpp:186] Top shape: 10 10 (100)
I0925 21:35:43.816346 19975 net.cpp:186] Top shape: 10 10 (100)
I0925 21:35:43.816350 19975 net.cpp:194] Memory required for data: 43052840
I0925 21:35:43.816354 19975 layer_factory.hpp:77] Creating layer Softmax1
I0925 21:35:43.816367 19975 net.cpp:128] Creating Layer Softmax1
I0925 21:35:43.816386 19975 net.cpp:558] Softmax1 <- fc1_fc1_0_split_0
I0925 21:35:43.816391 19975 net.cpp:558] Softmax1 <- label_Data1_1_split_0
I0925 21:35:43.816398 19975 net.cpp:522] Softmax1 -> Softmax1
…
