…
I0825 11:08:59.132910  1476 net.cpp:82] Initializing net from parameters: 
name: "resnet_cifar10"
state {
  phase: TRAIN
  level: 0
  stage: ""
}
layer {
  name: "Data1"
  type: "Data"
  top: "Data1"
  top: "Data2"
  include {
    phase: TRAIN
  }
  transform_param {
    scale: 0.00390625
    mirror: true
    crop_size: 32
    mean_value: 125.3
    mean_value: 122.9
    mean_value: 113.8
  }
  data_param {
    source: "/home/lijianfei/datasets/cifar10_40/train_lmdb"
    batch_size: 128
    backend: LMDB
  }
  image_data_param {
    shuffle: true
  }
}
layer {
  name: "Convolution1"
  type: "Convolution"
  bottom: "Data1"
  top: "Convolution1"
  param {
    lr_mult: 1
    decay_mult: 1
  }
  param {
    lr_mult: 2
    decay_mult: 0
  }
  convolution_param {
    num_output: 16
    pad: 1
    kernel_size: 3
    stride: 1
    weight_filler {
      type: "msra"
    }
    bias_filler {
      type: "constant"
      value: 0
    }
  }
}
layer {
  name: "BatchNorm1"
  type: "BatchNorm"
  bottom: "Convolution1"
  top: "Convolution1"
  param {
    lr_mult: 0
    decay_mult: 0
  }
  param {
    lr_mult: 0
    decay_mult: 0
  }
  param {
    lr_mult: 0
    decay_mult: 0
  }
}
layer {
  name: "Scale1"
  type: "Scale"
  bottom: "Convolution1"
  top: "Convolution1"
  scale_param {
    bias_term: true
  }
}
layer {
  name: "ReLU1"
  type: "ReLU"
  bottom: "Convolution1"
  top: "Convolution1"
}
layer {
  name: "Convolution2"
  type: "Convolution"
  bottom: "Convolution1"
  top: "Convolution2"
  param {
    lr_mult: 1
    decay_mult: 1
  }
  param {
    lr_mult: 2
    decay_mult: 0
  }
  convolution_param {
    num_output: 16
    pad: 1
    kernel_size: 3
    stride: 1
    weight_filler {
      type: "msra"
    }
    bias_filler {
      type: "constant"
      value: 0
    }
  }
}
layer {
  name: "BatchNorm2"
  type: "BatchNorm"
  bottom: "Convolution2"
  top: "Convolution2"
  param {
    lr_mult: 0
    decay_mult: 0
  }
  param {
    lr_mult: 0
    decay_mult: 0
  }
  param {
    lr_mult: 0
    decay_mult: 0
  }
}
layer {
  name: "Scale2"
  type: "Scale"
  bottom: "Convolution2"
  top: "Convolution2"
  scale_param {
    bias_term: true
  }
}
layer {
  name: "ReLU2"
  type: "ReLU"
  bottom: "Convolution2"
  top: "Convolution2"
}
layer {
  name: "Convolution3"
  type: "Convolution"
  bottom: "Convolution2"
  top: "Convolution3"
  param {
    lr_mult: 1
    decay_mult: 1
  }
  param {
    lr_mult: 2
    decay_mult: 0
  }
  convolution_param {
    num_output: 16
    pad: 1
    kernel_size: 3
    stride: 1
    weight_filler {
      type: "msra"
    }
    bias_filler {
      type: "constant"
      value: 0
    }
  }
}
layer {
  name: "BatchNorm3"
  type: "BatchNorm"
  bottom: "Convolution3"
  top: "Convolution3"
  param {
    lr_mult: 0
    decay_mult: 0
  }
  param {
    lr_mult: 0
    decay_mult: 0
  }
  param {
    lr_mult: 0
    decay_mult: 0
  }
}
layer {
  name: "Scale3"
  type: "Scale"
  bottom: "Convolution3"
  top: "Convolution3"
  scale_param {
    bias_term: true
  }
}
layer {
  name: "Eltwise1"
  type: "Eltwise"
  bottom: "Convolution1"
  bottom: "Convolution3"
  top: "Eltwise1"
  eltwise_param {
    operation: SUM
  }
}
layer {
  name: "ReLU3"
  type: "ReLU"
  bottom: "Eltwise1"
  top: "Eltwise1"
}
layer {
  name: "Convolution4"
  type: "Convolution"
  bottom: "Eltwise1"
  top: "Convolution4"
  param {
    lr_mult: 1
    decay_mult: 1
  }
  param {
    lr_mult: 2
    decay_mult: 0
  }
  convolution_param {
    num_output: 16
    pad: 1
    kernel_size: 3
    stride: 1
    weight_filler {
      type: "msra"
    }
    bias_filler {
      type: "constant"
      value: 0
    }
  }
}
layer {
  name: "BatchNorm4"
  type: "BatchNorm"
  bottom: "Convolution4"
  top: "Convolution4"
  param {
    lr_mult: 0
    decay_mult: 0
  }
  param {
    lr_mult: 0
    decay_mult: 0
  }
  param {
    lr_mult: 0
    decay_mult: 0
  }
}
layer {
  name: "Scale4"
  type: "Scale"
  bottom: "Convolution4"
  top: "Convolution4"
  scale_param {
    bias_term: true
  }
}
layer {
  name: "ReLU4"
  type: "ReLU"
  bottom: "Convolution4"
  top: "Convolution4"
}
layer {
  name: "Convolution5"
  type: "Convolution"
  bottom: "Convolution4"
  top: "Convolution5"
  param {
    lr_mult: 1
    decay_mult: 1
  }
  param {
    lr_mult: 2
    decay_mult: 0
  }
  convolution_param {
    num_output: 16
    pad: 1
    kernel_size: 3
    stride: 1
    weight_filler {
      type: "msra"
    }
    bias_filler {
      type: "constant"
      value: 0
    }
  }
}
layer {
  name: "BatchNorm5"
  type: "BatchNorm"
  bottom: "Convolution5"
  top: "Convolution5"
  param {
    lr_mult: 0
    decay_mult: 0
  }
  param {
    lr_mult: 0
    decay_mult: 0
  }
  param {
    lr_mult: 0
    decay_mult: 0
  }
}
layer {
  name: "Scale5"
  type: "Scale"
  bottom: "Convolution5"
  top: "Convolution5"
  scale_param {
    bias_term: true
  }
}
layer {
  name: "Eltwise2"
  type: "Eltwise"
  bottom: "Eltwise1"
  bottom: "Convolution5"
  top: "Eltwise2"
  eltwise_param {
    operation: SUM
  }
}
layer {
  name: "ReLU5"
  type: "ReLU"
  bottom: "Eltwise2"
  top: "Eltwise2"
}
layer {
  name: "Convolution6"
  type: "Convolution"
  bottom: "Eltwise2"
  top: "Convolution6"
  param {
    lr_mult: 1
    decay_mult: 1
  }
  param {
    lr_mult: 2
    decay_mult: 0
  }
  convolution_param {
    num_output: 16
    pad: 1
    kernel_size: 3
    stride: 1
    weight_filler {
      type: "msra"
    }
    bias_filler {
      type: "constant"
      value: 0
    }
  }
}
layer {
  name: "BatchNorm6"
  type: "BatchNorm"
  bottom: "Convolution6"
  top: "Convolution6"
  param {
    lr_mult: 0
    decay_mult: 0
  }
  param {
    lr_mult: 0
    decay_mult: 0
  }
  param {
    lr_mult: 0
    decay_mult: 0
  }
}
layer {
  name: "Scale6"
  type: "Scale"
  bottom: "Convolution6"
  top: "Convolution6"
  scale_param {
    bias_term: true
  }
}
layer {
  name: "ReLU6"
  type: "ReLU"
  bottom: "Convolution6"
  top: "Convolution6"
}
layer {
  name: "Convolution7"
  type: "Convolution"
  bottom: "Convolution6"
  top: "Convolution7"
  param {
    lr_mult: 1
    decay_mult: 1
  }
  param {
    lr_mult: 2
    decay_mult: 0
  }
  convolution_param {
    num_output: 16
    pad: 1
    kernel_size: 3
    stride: 1
    weight_filler {
      type: "msra"
    }
    bias_filler {
      type: "constant"
      value: 0
    }
  }
}
layer {
  name: "BatchNorm7"
  type: "BatchNorm"
  bottom: "Convolution7"
  top: "Convolution7"
  param {
    lr_mult: 0
    decay_mult: 0
  }
  param {
    lr_mult: 0
    decay_mult: 0
  }
  param {
    lr_mult: 0
    decay_mult: 0
  }
}
layer {
  name: "Scale7"
  type: "Scale"
  bottom: "Convolution7"
  top: "Convolution7"
  scale_param {
    bias_term: true
  }
}
layer {
  name: "Eltwise3"
  type: "Eltwise"
  bottom: "Eltwise2"
  bottom: "Convolution7"
  top: "Eltwise3"
  eltwise_param {
    operation: SUM
  }
}
layer {
  name: "ReLU7"
  type: "ReLU"
  bottom: "Eltwise3"
  top: "Eltwise3"
}
layer {
  name: "Convolution8"
  type: "Convolution"
  bottom: "Eltwise3"
  top: "Convolution8"
  param {
    lr_mult: 1
    decay_mult: 1
  }
  param {
    lr_mult: 2
    decay_mult: 0
  }
  convolution_param {
    num_output: 32
    pad: 0
    kernel_size: 1
    stride: 2
    weight_filler {
      type: "msra"
    }
    bias_filler {
      type: "constant"
      value: 0
    }
  }
}
layer {
  name: "BatchNorm8"
  type: "BatchNorm"
  bottom: "Convolution8"
  top: "Convolution8"
  param {
    lr_mult: 0
    decay_mult: 0
  }
  param {
    lr_mult: 0
    decay_mult: 0
  }
  param {
    lr_mult: 0
    decay_mult: 0
  }
}
layer {
  name: "Scale8"
  type: "Scale"
  bottom: "Convolution8"
  top: "Convolution8"
  scale_param {
    bias_term: true
  }
}
layer {
  name: "Convolution9"
  type: "Convolution"
  bottom: "Eltwise3"
  top: "Convolution9"
  param {
    lr_mult: 1
    decay_mult: 1
  }
  param {
    lr_mult: 2
    decay_mult: 0
  }
  convolution_param {
    num_output: 32
    pad: 1
    kernel_size: 3
    stride: 2
    weight_filler {
      type: "msra"
    }
    bias_filler {
      type: "constant"
      value: 0
    }
  }
}
layer {
  name: "BatchNorm9"
  type: "BatchNorm"
  bottom: "Convolution9"
  top: "Convolution9"
  param {
    lr_mult: 0
    decay_mult: 0
  }
  param {
    lr_mult: 0
    decay_mult: 0
  }
  param {
    lr_mult: 0
    decay_mult: 0
  }
}
layer {
  name: "Scale9"
  type: "Scale"
  bottom: "Convolution9"
  top: "Convolution9"
  scale_param {
    bias_term: true
  }
}
layer {
  name: "ReLU8"
  type: "ReLU"
  bottom: "Convolution9"
  top: "Convolution9"
}
layer {
  name: "Convolution10"
  type: "Convolution"
  bottom: "Convolution9"
  top: "Convolution10"
  param {
    lr_mult: 1
    decay_mult: 1
  }
  param {
    lr_mult: 2
    decay_mult: 0
  }
  convolution_param {
    num_output: 32
    pad: 1
    kernel_size: 3
    stride: 1
    weight_filler {
      type: "msra"
    }
    bias_filler {
      type: "constant"
      value: 0
    }
  }
}
layer {
  name: "BatchNorm10"
  type: "BatchNorm"
  bottom: "Convolution10"
  top: "Convolution10"
  param {
    lr_mult: 0
    decay_mult: 0
  }
  param {
    lr_mult: 0
    decay_mult: 0
  }
  param {
    lr_mult: 0
    decay_mult: 0
  }
}
layer {
  name: "Scale10"
  type: "Scale"
  bottom: "Convolution10"
  top: "Convolution10"
  scale_param {
    bias_term: true
  }
}
layer {
  name: "Eltwise4"
  type: "Eltwise"
  bottom: "Convolution8"
  bottom: "Convolution10"
  top: "Eltwise4"
  eltwise_param {
    operation: SUM
  }
}
layer {
  name: "ReLU9"
  type: "ReLU"
  bottom: "Eltwise4"
  top: "Eltwise4"
}
layer {
  name: "Convolution11"
  type: "Convolution"
  bottom: "Eltwise4"
  top: "Convolution11"
  param {
    lr_mult: 1
    decay_mult: 1
  }
  param {
    lr_mult: 2
    decay_mult: 0
  }
  convolution_param {
    num_output: 32
    pad: 1
    kernel_size: 3
    stride: 1
    weight_filler {
      type: "msra"
    }
    bias_filler {
      type: "constant"
      value: 0
    }
  }
}
layer {
  name: "BatchNorm11"
  type: "BatchNorm"
  bottom: "Convolution11"
  top: "Convolution11"
  param {
    lr_mult: 0
    decay_mult: 0
  }
  param {
    lr_mult: 0
    decay_mult: 0
  }
  param {
    lr_mult: 0
    decay_mult: 0
  }
}
layer {
  name: "Scale11"
  type: "Scale"
  bottom: "Convolution11"
  top: "Convolution11"
  scale_param {
    bias_term: true
  }
}
layer {
  name: "ReLU10"
  type: "ReLU"
  bottom: "Convolution11"
  top: "Convolution11"
}
layer {
  name: "Convolution12"
  type: "Convolution"
  bottom: "Convolution11"
  top: "Convolution12"
  param {
    lr_mult: 1
    decay_mult: 1
  }
  param {
    lr_mult: 2
    decay_mult: 0
  }
  convolution_param {
    num_output: 32
    pad: 1
    kernel_size: 3
    stride: 1
    weight_filler {
      type: "msra"
    }
    bias_filler {
      type: "constant"
      value: 0
    }
  }
}
layer {
  name: "BatchNorm12"
  type: "BatchNorm"
  bottom: "Convolution12"
  top: "Convolution12"
  param {
    lr_mult: 0
    decay_mult: 0
  }
  param {
    lr_mult: 0
    decay_mult: 0
  }
  param {
    lr_mult: 0
    decay_mult: 0
  }
}
layer {
  name: "Scale12"
  type: "Scale"
  bottom: "Convolution12"
  top: "Convolution12"
  scale_param {
    bias_term: true
  }
}
layer {
  name: "Eltwise5"
  type: "Eltwise"
  bottom: "Eltwise4"
  bottom: "Convolution12"
  top: "Eltwise5"
  eltwise_param {
    operation: SUM
  }
}
layer {
  name: "ReLU11"
  type: "ReLU"
  bottom: "Eltwise5"
  top: "Eltwise5"
}
layer {
  name: "Convolution13"
  type: "Convolution"
  bottom: "Eltwise5"
  top: "Convolution13"
  param {
    lr_mult: 1
    decay_mult: 1
  }
  param {
    lr_mult: 2
    decay_mult: 0
  }
  convolution_param {
    num_output: 32
    pad: 1
    kernel_size: 3
    stride: 1
    weight_filler {
      type: "msra"
    }
    bias_filler {
      type: "constant"
      value: 0
    }
  }
}
layer {
  name: "BatchNorm13"
  type: "BatchNorm"
  bottom: "Convolution13"
  top: "Convolution13"
  param {
    lr_mult: 0
    decay_mult: 0
  }
  param {
    lr_mult: 0
    decay_mult: 0
  }
  param {
    lr_mult: 0
    decay_mult: 0
  }
}
layer {
  name: "Scale13"
  type: "Scale"
  bottom: "Convolution13"
  top: "Convolution13"
  scale_param {
    bias_term: true
  }
}
layer {
  name: "ReLU12"
  type: "ReLU"
  bottom: "Convolution13"
  top: "Convolution13"
}
layer {
  name: "Convolution14"
  type: "Convolution"
  bottom: "Convolution13"
  top: "Convolution14"
  param {
    lr_mult: 1
    decay_mult: 1
  }
  param {
    lr_mult: 2
    decay_mult: 0
  }
  convolution_param {
    num_output: 32
    pad: 1
    kernel_size: 3
    stride: 1
    weight_filler {
      type: "msra"
    }
    bias_filler {
      type: "constant"
      value: 0
    }
  }
}
layer {
  name: "BatchNorm14"
  type: "BatchNorm"
  bottom: "Convolution14"
  top: "Convolution14"
  param {
    lr_mult: 0
    decay_mult: 0
  }
  param {
    lr_mult: 0
    decay_mult: 0
  }
  param {
    lr_mult: 0
    decay_mult: 0
  }
}
layer {
  name: "Scale14"
  type: "Scale"
  bottom: "Convolution14"
  top: "Convolution14"
  scale_param {
    bias_term: true
  }
}
layer {
  name: "Eltwise6"
  type: "Eltwise"
  bottom: "Eltwise5"
  bottom: "Convolution14"
  top: "Eltwise6"
  eltwise_param {
    operation: SUM
  }
}
layer {
  name: "ReLU13"
  type: "ReLU"
  bottom: "Eltwise6"
  top: "Eltwise6"
}
layer {
  name: "Convolution15"
  type: "Convolution"
  bottom: "Eltwise6"
  top: "Convolution15"
  param {
    lr_mult: 1
    decay_mult: 1
  }
  param {
    lr_mult: 2
    decay_mult: 0
  }
  convolution_param {
    num_output: 64
    pad: 0
    kernel_size: 1
    stride: 2
    weight_filler {
      type: "msra"
    }
    bias_filler {
      type: "constant"
      value: 0
    }
  }
}
layer {
  name: "BatchNorm15"
  type: "BatchNorm"
  bottom: "Convolution15"
  top: "Convolution15"
  param {
    lr_mult: 0
    decay_mult: 0
  }
  param {
    lr_mult: 0
    decay_mult: 0
  }
  param {
    lr_mult: 0
    decay_mult: 0
  }
}
layer {
  name: "Scale15"
  type: "Scale"
  bottom: "Convolution15"
  top: "Convolution15"
  scale_param {
    bias_term: true
  }
}
layer {
  name: "Convolution16"
  type: "Convolution"
  bottom: "Eltwise6"
  top: "Convolution16"
  param {
    lr_mult: 1
    decay_mult: 1
  }
  param {
    lr_mult: 2
    decay_mult: 0
  }
  convolution_param {
    num_output: 64
    pad: 1
    kernel_size: 3
    stride: 2
    weight_filler {
      type: "msra"
    }
    bias_filler {
      type: "constant"
      value: 0
    }
  }
}
layer {
  name: "BatchNorm16"
  type: "BatchNorm"
  bottom: "Convolution16"
  top: "Convolution16"
  param {
    lr_mult: 0
    decay_mult: 0
  }
  param {
    lr_mult: 0
    decay_mult: 0
  }
  param {
    lr_mult: 0
    decay_mult: 0
  }
}
layer {
  name: "Scale16"
  type: "Scale"
  bottom: "Convolution16"
  top: "Convolution16"
  scale_param {
    bias_term: true
  }
}
layer {
  name: "ReLU14"
  type: "ReLU"
  bottom: "Convolution16"
  top: "Convolution16"
}
layer {
  name: "Convolution17"
  type: "Convolution"
  bottom: "Convolution16"
  top: "Convolution17"
  param {
    lr_mult: 1
    decay_mult: 1
  }
  param {
    lr_mult: 2
    decay_mult: 0
  }
  convolution_param {
    num_output: 64
    pad: 1
    kernel_size: 3
    stride: 1
    weight_filler {
      type: "msra"
    }
    bias_filler {
      type: "constant"
      value: 0
    }
  }
}
layer {
  name: "BatchNorm17"
  type: "BatchNorm"
  bottom: "Convolution17"
  top: "Convolution17"
  param {
    lr_mult: 0
    decay_mult: 0
  }
  param {
    lr_mult: 0
    decay_mult: 0
  }
  param {
    lr_mult: 0
    decay_mult: 0
  }
}
layer {
  name: "Scale17"
  type: "Scale"
  bottom: "Convolution17"
  top: "Convolution17"
  scale_param {
    bias_term: true
  }
}
layer {
  name: "Eltwise7"
  type: "Eltwise"
  bottom: "Convolution15"
  bottom: "Convolution17"
  top: "Eltwise7"
  eltwise_param {
    operation: SUM
  }
}
layer {
  name: "ReLU15"
  type: "ReLU"
  bottom: "Eltwise7"
  top: "Eltwise7"
}
layer {
  name: "Convolution18"
  type: "Convolution"
  bottom: "Eltwise7"
  top: "Convolution18"
  param {
    lr_mult: 1
    decay_mult: 1
  }
  param {
    lr_mult: 2
    decay_mult: 0
  }
  convolution_param {
    num_output: 64
    pad: 1
    kernel_size: 3
    stride: 1
    weight_filler {
      type: "msra"
    }
    bias_filler {
      type: "constant"
      value: 0
    }
  }
}
layer {
  name: "BatchNorm18"
  type: "BatchNorm"
  bottom: "Convolution18"
  top: "Convolution18"
  param {
    lr_mult: 0
    decay_mult: 0
  }
  param {
    lr_mult: 0
    decay_mult: 0
  }
  param {
    lr_mult: 0
    decay_mult: 0
  }
}
layer {
  name: "Scale18"
  type: "Scale"
  bottom: "Convolution18"
  top: "Convolution18"
  scale_param {
    bias_term: true
  }
}
layer {
  name: "ReLU16"
  type: "ReLU"
  bottom: "Convolution18"
  top: "Convolution18"
}
layer {
  name: "Convolution19"
  type: "Convolution"
  bottom: "Convolution18"
  top: "Convolution19"
  param {
    lr_mult: 1
    decay_mult: 1
  }
  param {
    lr_mult: 2
    decay_mult: 0
  }
  convolution_param {
    num_output: 64
    pad: 1
    kernel_size: 3
    stride: 1
    weight_filler {
      type: "msra"
    }
    bias_filler {
      type: "constant"
      value: 0
    }
  }
}
layer {
  name: "BatchNorm19"
  type: "BatchNorm"
  bottom: "Convolution19"
  top: "Convolution19"
  param {
    lr_mult: 0
    decay_mult: 0
  }
  param {
    lr_mult: 0
    decay_mult: 0
  }
  param {
    lr_mult: 0
    decay_mult: 0
  }
}
layer {
  name: "Scale19"
  type: "Scale"
  bottom: "Convolution19"
  top: "Convolution19"
  scale_param {
    bias_term: true
  }
}
layer {
  name: "Eltwise8"
  type: "Eltwise"
  bottom: "Eltwise7"
  bottom: "Convolution19"
  top: "Eltwise8"
  eltwise_param {
    operation: SUM
  }
}
layer {
  name: "ReLU17"
  type: "ReLU"
  bottom: "Eltwise8"
  top: "Eltwise8"
}
layer {
  name: "Convolution20"
  type: "Convolution"
  bottom: "Eltwise8"
  top: "Convolution20"
  param {
    lr_mult: 1
    decay_mult: 1
  }
  param {
    lr_mult: 2
    decay_mult: 0
  }
  convolution_param {
    num_output: 64
    pad: 1
    kernel_size: 3
    stride: 1
    weight_filler {
      type: "msra"
    }
    bias_filler {
      type: "constant"
      value: 0
    }
  }
}
layer {
  name: "BatchNorm20"
  type: "BatchNorm"
  bottom: "Convolution20"
  top: "Convolution20"
  param {
    lr_mult: 0
    decay_mult: 0
  }
  param {
    lr_mult: 0
    decay_mult: 0
  }
  param {
    lr_mult: 0
    decay_mult: 0
  }
}
layer {
  name: "Scale20"
  type: "Scale"
  bottom: "Convolution20"
  top: "Convolution20"
  scale_param {
    bias_term: true
  }
}
layer {
  name: "ReLU18"
  type: "ReLU"
  bottom: "Convolution20"
  top: "Convolution20"
}
layer {
  name: "Convolution21"
  type: "Convolution"
  bottom: "Convolution20"
  top: "Convolution21"
  param {
    lr_mult: 1
    decay_mult: 1
  }
  param {
    lr_mult: 2
    decay_mult: 0
  }
  convolution_param {
    num_output: 64
    pad: 1
    kernel_size: 3
    stride: 1
    weight_filler {
      type: "msra"
    }
    bias_filler {
      type: "constant"
      value: 0
    }
  }
}
layer {
  name: "BatchNorm21"
  type: "BatchNorm"
  bottom: "Convolution21"
  top: "Convolution21"
  param {
    lr_mult: 0
    decay_mult: 0
  }
  param {
    lr_mult: 0
    decay_mult: 0
  }
  param {
    lr_mult: 0
    decay_mult: 0
  }
}
layer {
  name: "Scale21"
  type: "Scale"
  bottom: "Convolution21"
  top: "Convolution21"
  scale_param {
    bias_term: true
  }
}
layer {
  name: "Eltwise9"
  type: "Eltwise"
  bottom: "Eltwise8"
  bottom: "Convolution21"
  top: "Eltwise9"
  eltwise_param {
    operation: SUM
  }
}
layer {
  name: "ReLU19"
  type: "ReLU"
  bottom: "Eltwise9"
  top: "Eltwise9"
}
layer {
  name: "Pooling1"
  type: "Pooling"
  bottom: "Eltwise9"
  top: "Pooling1"
  pooling_param {
    pool: AVE
    global_pooling: true
  }
}
layer {
  name: "InnerProduct1"
  type: "InnerProduct"
  bottom: "Pooling1"
  top: "InnerProduct1"
  param {
    lr_mult: 1
    decay_mult: 1
  }
  param {
    lr_mult: 2
    decay_mult: 1
  }
  inner_product_param {
    num_output: 10
    weight_filler {
      type: "msra"
    }
    bias_filler {
      type: "constant"
      value: 0
    }
  }
}
layer {
  name: "SoftmaxWithLoss1"
  type: "SoftmaxWithLoss"
  bottom: "InnerProduct1"
  bottom: "Data2"
  top: "SoftmaxWithLoss1"
}
I0825 11:08:59.134713  1476 layer_factory.hpp:77] Creating layer Data1
I0825 11:08:59.254482  1476 db_lmdb.cpp:35] Opened lmdb /home/lijianfei/datasets/cifar10_40/train_lmdb
I0825 11:08:59.261059  1476 net.cpp:128] Creating Layer Data1
I0825 11:08:59.261144  1476 net.cpp:522] Data1 -> Data1
I0825 11:08:59.261236  1476 net.cpp:522] Data1 -> Data2
I0825 11:08:59.264109  1476 data_layer.cpp:45] output data size: 128,3,32,32
I0825 11:08:59.273573  1476 net.cpp:172] Setting up Data1
I0825 11:08:59.273627  1476 net.cpp:186] Top shape: 128 3 32 32 (393216)
I0825 11:08:59.273634  1476 net.cpp:186] Top shape: 128 (128)
I0825 11:08:59.273638  1476 net.cpp:194] Memory required for data: 1573376
I0825 11:08:59.273653  1476 layer_factory.hpp:77] Creating layer Convolution1
I0825 11:08:59.273689  1476 net.cpp:128] Creating Layer Convolution1
I0825 11:08:59.273697  1476 net.cpp:558] Convolution1 <- Data1
I0825 11:08:59.273716  1476 net.cpp:522] Convolution1 -> Convolution1
I0825 11:09:03.083650  1476 net.cpp:172] Setting up Convolution1
I0825 11:09:03.083750  1476 net.cpp:186] Top shape: 128 16 32 32 (2097152)
I0825 11:09:03.083770  1476 net.cpp:194] Memory required for data: 9961984
I0825 11:09:03.083873  1476 layer_factory.hpp:77] Creating layer BatchNorm1
I0825 11:09:03.083925  1476 net.cpp:128] Creating Layer BatchNorm1
I0825 11:09:03.083955  1476 net.cpp:558] BatchNorm1 <- Convolution1
I0825 11:09:03.083984  1476 net.cpp:509] BatchNorm1 -> Convolution1 (in-place)
I0825 11:09:03.084853  1476 net.cpp:172] Setting up BatchNorm1
I0825 11:09:03.084897  1476 net.cpp:186] Top shape: 128 16 32 32 (2097152)
I0825 11:09:03.084914  1476 net.cpp:194] Memory required for data: 18350592
I0825 11:09:03.085033  1476 layer_factory.hpp:77] Creating layer Scale1
I0825 11:09:03.085078  1476 net.cpp:128] Creating Layer Scale1
I0825 11:09:03.085104  1476 net.cpp:558] Scale1 <- Convolution1
I0825 11:09:03.085130  1476 net.cpp:509] Scale1 -> Convolution1 (in-place)
I0825 11:09:03.085391  1476 layer_factory.hpp:77] Creating layer Scale1
I0825 11:09:03.085875  1476 net.cpp:172] Setting up Scale1
I0825 11:09:03.085916  1476 net.cpp:186] Top shape: 128 16 32 32 (2097152)
I0825 11:09:03.085942  1476 net.cpp:194] Memory required for data: 26739200
I0825 11:09:03.085978  1476 layer_factory.hpp:77] Creating layer ReLU1
I0825 11:09:03.086015  1476 net.cpp:128] Creating Layer ReLU1
I0825 11:09:03.086045  1476 net.cpp:558] ReLU1 <- Convolution1
I0825 11:09:03.086071  1476 net.cpp:509] ReLU1 -> Convolution1 (in-place)
I0825 11:09:03.086944  1476 net.cpp:172] Setting up ReLU1
I0825 11:09:03.086984  1476 net.cpp:186] Top shape: 128 16 32 32 (2097152)
I0825 11:09:03.087002  1476 net.cpp:194] Memory required for data: 35127808
I0825 11:09:03.087021  1476 layer_factory.hpp:77] Creating layer Convolution1_ReLU1_0_split
I0825 11:09:03.087049  1476 net.cpp:128] Creating Layer Convolution1_ReLU1_0_split
I0825 11:09:03.087067  1476 net.cpp:558] Convolution1_ReLU1_0_split <- Convolution1
I0825 11:09:03.087093  1476 net.cpp:522] Convolution1_ReLU1_0_split -> Convolution1_ReLU1_0_split_0
I0825 11:09:03.087126  1476 net.cpp:522] Convolution1_ReLU1_0_split -> Convolution1_ReLU1_0_split_1
I0825 11:09:03.087291  1476 net.cpp:172] Setting up Convolution1_ReLU1_0_split
I0825 11:09:03.087321  1476 net.cpp:186] Top shape: 128 16 32 32 (2097152)
I0825 11:09:03.087347  1476 net.cpp:186] Top shape: 128 16 32 32 (2097152)
I0825 11:09:03.087363  1476 net.cpp:194] Memory required for data: 51905024
I0825 11:09:03.087383  1476 layer_factory.hpp:77] Creating layer Convolution2
I0825 11:09:03.087424  1476 net.cpp:128] Creating Layer Convolution2
I0825 11:09:03.087442  1476 net.cpp:558] Convolution2 <- Convolution1_ReLU1_0_split_0
I0825 11:09:03.087469  1476 net.cpp:522] Convolution2 -> Convolution2
I0825 11:09:03.094877  1476 net.cpp:172] Setting up Convolution2
I0825 11:09:03.094903  1476 net.cpp:186] Top shape: 128 16 32 32 (2097152)
I0825 11:09:03.094908  1476 net.cpp:194] Memory required for data: 60293632
I0825 11:09:03.094920  1476 layer_factory.hpp:77] Creating layer BatchNorm2
I0825 11:09:03.094933  1476 net.cpp:128] Creating Layer BatchNorm2
I0825 11:09:03.094938  1476 net.cpp:558] BatchNorm2 <- Convolution2
I0825 11:09:03.094949  1476 net.cpp:509] BatchNorm2 -> Convolution2 (in-place)
I0825 11:09:03.095167  1476 net.cpp:172] Setting up BatchNorm2
I0825 11:09:03.095178  1476 net.cpp:186] Top shape: 128 16 32 32 (2097152)
I0825 11:09:03.095183  1476 net.cpp:194] Memory required for data: 68682240
I0825 11:09:03.095193  1476 layer_factory.hpp:77] Creating layer Scale2
I0825 11:09:03.095203  1476 net.cpp:128] Creating Layer Scale2
I0825 11:09:03.095208  1476 net.cpp:558] Scale2 <- Convolution2
I0825 11:09:03.095214  1476 net.cpp:509] Scale2 -> Convolution2 (in-place)
I0825 11:09:03.095252  1476 layer_factory.hpp:77] Creating layer Scale2
I0825 11:09:03.095381  1476 net.cpp:172] Setting up Scale2
I0825 11:09:03.095393  1476 net.cpp:186] Top shape: 128 16 32 32 (2097152)
I0825 11:09:03.095397  1476 net.cpp:194] Memory required for data: 77070848
I0825 11:09:03.095405  1476 layer_factory.hpp:77] Creating layer ReLU2
I0825 11:09:03.095412  1476 net.cpp:128] Creating Layer ReLU2
I0825 11:09:03.095417  1476 net.cpp:558] ReLU2 <- Convolution2
I0825 11:09:03.095424  1476 net.cpp:509] ReLU2 -> Convolution2 (in-place)
I0825 11:09:03.095636  1476 net.cpp:172] Setting up ReLU2
I0825 11:09:03.095649  1476 net.cpp:186] Top shape: 128 16 32 32 (2097152)
I0825 11:09:03.095654  1476 net.cpp:194] Memory required for data: 85459456
I0825 11:09:03.095659  1476 layer_factory.hpp:77] Creating layer Convolution3
I0825 11:09:03.095670  1476 net.cpp:128] Creating Layer Convolution3
I0825 11:09:03.095675  1476 net.cpp:558] Convolution3 <- Convolution2
I0825 11:09:03.095685  1476 net.cpp:522] Convolution3 -> Convolution3
I0825 11:09:03.096868  1476 net.cpp:172] Setting up Convolution3
I0825 11:09:03.096896  1476 net.cpp:186] Top shape: 128 16 32 32 (2097152)
I0825 11:09:03.096901  1476 net.cpp:194] Memory required for data: 93848064
I0825 11:09:03.096915  1476 layer_factory.hpp:77] Creating layer BatchNorm3
I0825 11:09:03.096942  1476 net.cpp:128] Creating Layer BatchNorm3
I0825 11:09:03.096947  1476 net.cpp:558] BatchNorm3 <- Convolution3
I0825 11:09:03.096958  1476 net.cpp:509] BatchNorm3 -> Convolution3 (in-place)
I0825 11:09:03.097184  1476 net.cpp:172] Setting up BatchNorm3
I0825 11:09:03.097195  1476 net.cpp:186] Top shape: 128 16 32 32 (2097152)
I0825 11:09:03.097200  1476 net.cpp:194] Memory required for data: 102236672
I0825 11:09:03.097213  1476 layer_factory.hpp:77] Creating layer Scale3
I0825 11:09:03.097221  1476 net.cpp:128] Creating Layer Scale3
I0825 11:09:03.097226  1476 net.cpp:558] Scale3 <- Convolution3
I0825 11:09:03.097232  1476 net.cpp:509] Scale3 -> Convolution3 (in-place)
I0825 11:09:03.097270  1476 layer_factory.hpp:77] Creating layer Scale3
I0825 11:09:03.097398  1476 net.cpp:172] Setting up Scale3
I0825 11:09:03.097409  1476 net.cpp:186] Top shape: 128 16 32 32 (2097152)
I0825 11:09:03.097412  1476 net.cpp:194] Memory required for data: 110625280
I0825 11:09:03.097420  1476 layer_factory.hpp:77] Creating layer Eltwise1
I0825 11:09:03.097429  1476 net.cpp:128] Creating Layer Eltwise1
I0825 11:09:03.097434  1476 net.cpp:558] Eltwise1 <- Convolution1_ReLU1_0_split_1
I0825 11:09:03.097438  1476 net.cpp:558] Eltwise1 <- Convolution3
I0825 11:09:03.097446  1476 net.cpp:522] Eltwise1 -> Eltwise1
I0825 11:09:03.097476  1476 net.cpp:172] Setting up Eltwise1
I0825 11:09:03.097483  1476 net.cpp:186] Top shape: 128 16 32 32 (2097152)
I0825 11:09:03.097487  1476 net.cpp:194] Memory required for data: 119013888
I0825 11:09:03.097491  1476 layer_factory.hpp:77] Creating layer ReLU3
I0825 11:09:03.097498  1476 net.cpp:128] Creating Layer ReLU3
I0825 11:09:03.097502  1476 net.cpp:558] ReLU3 <- Eltwise1
I0825 11:09:03.097508  1476 net.cpp:509] ReLU3 -> Eltwise1 (in-place)
I0825 11:09:03.097914  1476 net.cpp:172] Setting up ReLU3
I0825 11:09:03.097937  1476 net.cpp:186] Top shape: 128 16 32 32 (2097152)
I0825 11:09:03.097942  1476 net.cpp:194] Memory required for data: 127402496
I0825 11:09:03.097947  1476 layer_factory.hpp:77] Creating layer Eltwise1_ReLU3_0_split
I0825 11:09:03.097956  1476 net.cpp:128] Creating Layer Eltwise1_ReLU3_0_split
I0825 11:09:03.097961  1476 net.cpp:558] Eltwise1_ReLU3_0_split <- Eltwise1
I0825 11:09:03.097970  1476 net.cpp:522] Eltwise1_ReLU3_0_split -> Eltwise1_ReLU3_0_split_0
I0825 11:09:03.097980  1476 net.cpp:522] Eltwise1_ReLU3_0_split -> Eltwise1_ReLU3_0_split_1
I0825 11:09:03.098027  1476 net.cpp:172] Setting up Eltwise1_ReLU3_0_split
I0825 11:09:03.098038  1476 net.cpp:186] Top shape: 128 16 32 32 (2097152)
I0825 11:09:03.098044  1476 net.cpp:186] Top shape: 128 16 32 32 (2097152)
I0825 11:09:03.098048  1476 net.cpp:194] Memory required for data: 144179712
I0825 11:09:03.098053  1476 layer_factory.hpp:77] Creating layer Convolution4
I0825 11:09:03.098068  1476 net.cpp:128] Creating Layer Convolution4
I0825 11:09:03.098073  1476 net.cpp:558] Convolution4 <- Eltwise1_ReLU3_0_split_0
I0825 11:09:03.098080  1476 net.cpp:522] Convolution4 -> Convolution4
I0825 11:09:03.099293  1476 net.cpp:172] Setting up Convolution4
I0825 11:09:03.099319  1476 net.cpp:186] Top shape: 128 16 32 32 (2097152)
I0825 11:09:03.099324  1476 net.cpp:194] Memory required for data: 152568320
I0825 11:09:03.099334  1476 layer_factory.hpp:77] Creating layer BatchNorm4
I0825 11:09:03.099342  1476 net.cpp:128] Creating Layer BatchNorm4
I0825 11:09:03.099347  1476 net.cpp:558] BatchNorm4 <- Convolution4
I0825 11:09:03.099356  1476 net.cpp:509] BatchNorm4 -> Convolution4 (in-place)
I0825 11:09:03.099584  1476 net.cpp:172] Setting up BatchNorm4
I0825 11:09:03.099596  1476 net.cpp:186] Top shape: 128 16 32 32 (2097152)
I0825 11:09:03.099599  1476 net.cpp:194] Memory required for data: 160956928
I0825 11:09:03.099609  1476 layer_factory.hpp:77] Creating layer Scale4
I0825 11:09:03.099617  1476 net.cpp:128] Creating Layer Scale4
I0825 11:09:03.099620  1476 net.cpp:558] Scale4 <- Convolution4
I0825 11:09:03.099628  1476 net.cpp:509] Scale4 -> Convolution4 (in-place)
I0825 11:09:03.099681  1476 layer_factory.hpp:77] Creating layer Scale4
I0825 11:09:03.099812  1476 net.cpp:172] Setting up Scale4
I0825 11:09:03.099823  1476 net.cpp:186] Top shape: 128 16 32 32 (2097152)
I0825 11:09:03.099828  1476 net.cpp:194] Memory required for data: 169345536
I0825 11:09:03.099836  1476 layer_factory.hpp:77] Creating layer ReLU4
I0825 11:09:03.099844  1476 net.cpp:128] Creating Layer ReLU4
I0825 11:09:03.099848  1476 net.cpp:558] ReLU4 <- Convolution4
I0825 11:09:03.099854  1476 net.cpp:509] ReLU4 -> Convolution4 (in-place)
I0825 11:09:03.100082  1476 net.cpp:172] Setting up ReLU4
I0825 11:09:03.100095  1476 net.cpp:186] Top shape: 128 16 32 32 (2097152)
I0825 11:09:03.100102  1476 net.cpp:194] Memory required for data: 177734144
I0825 11:09:03.100107  1476 layer_factory.hpp:77] Creating layer Convolution5
I0825 11:09:03.100119  1476 net.cpp:128] Creating Layer Convolution5
I0825 11:09:03.100124  1476 net.cpp:558] Convolution5 <- Convolution4
I0825 11:09:03.100133  1476 net.cpp:522] Convolution5 -> Convolution5
I0825 11:09:03.101323  1476 net.cpp:172] Setting up Convolution5
I0825 11:09:03.101349  1476 net.cpp:186] Top shape: 128 16 32 32 (2097152)
I0825 11:09:03.101353  1476 net.cpp:194] Memory required for data: 186122752
I0825 11:09:03.101363  1476 layer_factory.hpp:77] Creating layer BatchNorm5
I0825 11:09:03.101374  1476 net.cpp:128] Creating Layer BatchNorm5
I0825 11:09:03.101379  1476 net.cpp:558] BatchNorm5 <- Convolution5
I0825 11:09:03.101390  1476 net.cpp:509] BatchNorm5 -> Convolution5 (in-place)
I0825 11:09:03.101620  1476 net.cpp:172] Setting up BatchNorm5
I0825 11:09:03.101631  1476 net.cpp:186] Top shape: 128 16 32 32 (2097152)
I0825 11:09:03.101635  1476 net.cpp:194] Memory required for data: 194511360
I0825 11:09:03.101647  1476 layer_factory.hpp:77] Creating layer Scale5
I0825 11:09:03.101658  1476 net.cpp:128] Creating Layer Scale5
I0825 11:09:03.101663  1476 net.cpp:558] Scale5 <- Convolution5
I0825 11:09:03.101672  1476 net.cpp:509] Scale5 -> Convolution5 (in-place)
I0825 11:09:03.101712  1476 layer_factory.hpp:77] Creating layer Scale5
I0825 11:09:03.101843  1476 net.cpp:172] Setting up Scale5
I0825 11:09:03.101853  1476 net.cpp:186] Top shape: 128 16 32 32 (2097152)
I0825 11:09:03.101858  1476 net.cpp:194] Memory required for data: 202899968
I0825 11:09:03.101866  1476 layer_factory.hpp:77] Creating layer Eltwise2
I0825 11:09:03.101872  1476 net.cpp:128] Creating Layer Eltwise2
I0825 11:09:03.101877  1476 net.cpp:558] Eltwise2 <- Eltwise1_ReLU3_0_split_1
I0825 11:09:03.101882  1476 net.cpp:558] Eltwise2 <- Convolution5
I0825 11:09:03.101889  1476 net.cpp:522] Eltwise2 -> Eltwise2
I0825 11:09:03.101915  1476 net.cpp:172] Setting up Eltwise2
I0825 11:09:03.101925  1476 net.cpp:186] Top shape: 128 16 32 32 (2097152)
I0825 11:09:03.101930  1476 net.cpp:194] Memory required for data: 211288576
I0825 11:09:03.101934  1476 layer_factory.hpp:77] Creating layer ReLU5
I0825 11:09:03.101940  1476 net.cpp:128] Creating Layer ReLU5
I0825 11:09:03.101945  1476 net.cpp:558] ReLU5 <- Eltwise2
I0825 11:09:03.101950  1476 net.cpp:509] ReLU5 -> Eltwise2 (in-place)
I0825 11:09:03.102171  1476 net.cpp:172] Setting up ReLU5
I0825 11:09:03.102185  1476 net.cpp:186] Top shape: 128 16 32 32 (2097152)
I0825 11:09:03.102188  1476 net.cpp:194] Memory required for data: 219677184
I0825 11:09:03.102193  1476 layer_factory.hpp:77] Creating layer Eltwise2_ReLU5_0_split
I0825 11:09:03.102200  1476 net.cpp:128] Creating Layer Eltwise2_ReLU5_0_split
I0825 11:09:03.102205  1476 net.cpp:558] Eltwise2_ReLU5_0_split <- Eltwise2
I0825 11:09:03.102213  1476 net.cpp:522] Eltwise2_ReLU5_0_split -> Eltwise2_ReLU5_0_split_0
I0825 11:09:03.102221  1476 net.cpp:522] Eltwise2_ReLU5_0_split -> Eltwise2_ReLU5_0_split_1
I0825 11:09:03.102267  1476 net.cpp:172] Setting up Eltwise2_ReLU5_0_split
I0825 11:09:03.102273  1476 net.cpp:186] Top shape: 128 16 32 32 (2097152)
I0825 11:09:03.102279  1476 net.cpp:186] Top shape: 128 16 32 32 (2097152)
I0825 11:09:03.102283  1476 net.cpp:194] Memory required for data: 236454400
I0825 11:09:03.102303  1476 layer_factory.hpp:77] Creating layer Convolution6
I0825 11:09:03.102316  1476 net.cpp:128] Creating Layer Convolution6
I0825 11:09:03.102321  1476 net.cpp:558] Convolution6 <- Eltwise2_ReLU5_0_split_0
I0825 11:09:03.102330  1476 net.cpp:522] Convolution6 -> Convolution6
I0825 11:09:03.103541  1476 net.cpp:172] Setting up Convolution6
I0825 11:09:03.103567  1476 net.cpp:186] Top shape: 128 16 32 32 (2097152)
I0825 11:09:03.103571  1476 net.cpp:194] Memory required for data: 244843008
I0825 11:09:03.103582  1476 layer_factory.hpp:77] Creating layer BatchNorm6
I0825 11:09:03.103592  1476 net.cpp:128] Creating Layer BatchNorm6
I0825 11:09:03.103597  1476 net.cpp:558] BatchNorm6 <- Convolution6
I0825 11:09:03.103606  1476 net.cpp:509] BatchNorm6 -> Convolution6 (in-place)
I0825 11:09:03.103837  1476 net.cpp:172] Setting up BatchNorm6
I0825 11:09:03.103848  1476 net.cpp:186] Top shape: 128 16 32 32 (2097152)
I0825 11:09:03.103852  1476 net.cpp:194] Memory required for data: 253231616
I0825 11:09:03.103863  1476 layer_factory.hpp:77] Creating layer Scale6
I0825 11:09:03.103871  1476 net.cpp:128] Creating Layer Scale6
I0825 11:09:03.103876  1476 net.cpp:558] Scale6 <- Convolution6
I0825 11:09:03.103883  1476 net.cpp:509] Scale6 -> Convolution6 (in-place)
I0825 11:09:03.103921  1476 layer_factory.hpp:77] Creating layer Scale6
I0825 11:09:03.104054  1476 net.cpp:172] Setting up Scale6
I0825 11:09:03.104064  1476 net.cpp:186] Top shape: 128 16 32 32 (2097152)
I0825 11:09:03.104068  1476 net.cpp:194] Memory required for data: 261620224
I0825 11:09:03.104076  1476 layer_factory.hpp:77] Creating layer ReLU6
I0825 11:09:03.104084  1476 net.cpp:128] Creating Layer ReLU6
I0825 11:09:03.104087  1476 net.cpp:558] ReLU6 <- Convolution6
I0825 11:09:03.104094  1476 net.cpp:509] ReLU6 -> Convolution6 (in-place)
I0825 11:09:03.104506  1476 net.cpp:172] Setting up ReLU6
I0825 11:09:03.104526  1476 net.cpp:186] Top shape: 128 16 32 32 (2097152)
I0825 11:09:03.104531  1476 net.cpp:194] Memory required for data: 270008832
I0825 11:09:03.104537  1476 layer_factory.hpp:77] Creating layer Convolution7
I0825 11:09:03.104549  1476 net.cpp:128] Creating Layer Convolution7
I0825 11:09:03.104555  1476 net.cpp:558] Convolution7 <- Convolution6
I0825 11:09:03.104568  1476 net.cpp:522] Convolution7 -> Convolution7
I0825 11:09:03.105787  1476 net.cpp:172] Setting up Convolution7
I0825 11:09:03.105813  1476 net.cpp:186] Top shape: 128 16 32 32 (2097152)
I0825 11:09:03.105818  1476 net.cpp:194] Memory required for data: 278397440
I0825 11:09:03.105829  1476 layer_factory.hpp:77] Creating layer BatchNorm7
I0825 11:09:03.105839  1476 net.cpp:128] Creating Layer BatchNorm7
I0825 11:09:03.105844  1476 net.cpp:558] BatchNorm7 <- Convolution7
I0825 11:09:03.105854  1476 net.cpp:509] BatchNorm7 -> Convolution7 (in-place)
I0825 11:09:03.106094  1476 net.cpp:172] Setting up BatchNorm7
I0825 11:09:03.106104  1476 net.cpp:186] Top shape: 128 16 32 32 (2097152)
I0825 11:09:03.106109  1476 net.cpp:194] Memory required for data: 286786048
I0825 11:09:03.106119  1476 layer_factory.hpp:77] Creating layer Scale7
I0825 11:09:03.106129  1476 net.cpp:128] Creating Layer Scale7
I0825 11:09:03.106134  1476 net.cpp:558] Scale7 <- Convolution7
I0825 11:09:03.106139  1476 net.cpp:509] Scale7 -> Convolution7 (in-place)
I0825 11:09:03.106180  1476 layer_factory.hpp:77] Creating layer Scale7
I0825 11:09:03.106313  1476 net.cpp:172] Setting up Scale7
I0825 11:09:03.106326  1476 net.cpp:186] Top shape: 128 16 32 32 (2097152)
I0825 11:09:03.106333  1476 net.cpp:194] Memory required for data: 295174656
I0825 11:09:03.106355  1476 layer_factory.hpp:77] Creating layer Eltwise3
I0825 11:09:03.106364  1476 net.cpp:128] Creating Layer Eltwise3
I0825 11:09:03.106369  1476 net.cpp:558] Eltwise3 <- Eltwise2_ReLU5_0_split_1
I0825 11:09:03.106374  1476 net.cpp:558] Eltwise3 <- Convolution7
I0825 11:09:03.106379  1476 net.cpp:522] Eltwise3 -> Eltwise3
I0825 11:09:03.106407  1476 net.cpp:172] Setting up Eltwise3
I0825 11:09:03.106415  1476 net.cpp:186] Top shape: 128 16 32 32 (2097152)
I0825 11:09:03.106433  1476 net.cpp:194] Memory required for data: 303563264
I0825 11:09:03.106438  1476 layer_factory.hpp:77] Creating layer ReLU7
I0825 11:09:03.106447  1476 net.cpp:128] Creating Layer ReLU7
I0825 11:09:03.106452  1476 net.cpp:558] ReLU7 <- Eltwise3
I0825 11:09:03.106458  1476 net.cpp:509] ReLU7 -> Eltwise3 (in-place)
I0825 11:09:03.106688  1476 net.cpp:172] Setting up ReLU7
I0825 11:09:03.106703  1476 net.cpp:186] Top shape: 128 16 32 32 (2097152)
I0825 11:09:03.106707  1476 net.cpp:194] Memory required for data: 311951872
I0825 11:09:03.106711  1476 layer_factory.hpp:77] Creating layer Eltwise3_ReLU7_0_split
I0825 11:09:03.106720  1476 net.cpp:128] Creating Layer Eltwise3_ReLU7_0_split
I0825 11:09:03.106725  1476 net.cpp:558] Eltwise3_ReLU7_0_split <- Eltwise3
I0825 11:09:03.106732  1476 net.cpp:522] Eltwise3_ReLU7_0_split -> Eltwise3_ReLU7_0_split_0
I0825 11:09:03.106740  1476 net.cpp:522] Eltwise3_ReLU7_0_split -> Eltwise3_ReLU7_0_split_1
I0825 11:09:03.106791  1476 net.cpp:172] Setting up Eltwise3_ReLU7_0_split
I0825 11:09:03.106799  1476 net.cpp:186] Top shape: 128 16 32 32 (2097152)
I0825 11:09:03.106804  1476 net.cpp:186] Top shape: 128 16 32 32 (2097152)
I0825 11:09:03.106808  1476 net.cpp:194] Memory required for data: 328729088
I0825 11:09:03.106813  1476 layer_factory.hpp:77] Creating layer Convolution8
I0825 11:09:03.106825  1476 net.cpp:128] Creating Layer Convolution8
I0825 11:09:03.106830  1476 net.cpp:558] Convolution8 <- Eltwise3_ReLU7_0_split_0
I0825 11:09:03.106839  1476 net.cpp:522] Convolution8 -> Convolution8
I0825 11:09:03.108207  1476 net.cpp:172] Setting up Convolution8
I0825 11:09:03.108233  1476 net.cpp:186] Top shape: 128 32 16 16 (1048576)
I0825 11:09:03.108237  1476 net.cpp:194] Memory required for data: 332923392
I0825 11:09:03.108252  1476 layer_factory.hpp:77] Creating layer BatchNorm8
I0825 11:09:03.108268  1476 net.cpp:128] Creating Layer BatchNorm8
I0825 11:09:03.108273  1476 net.cpp:558] BatchNorm8 <- Convolution8
I0825 11:09:03.108281  1476 net.cpp:509] BatchNorm8 -> Convolution8 (in-place)
I0825 11:09:03.108525  1476 net.cpp:172] Setting up BatchNorm8
I0825 11:09:03.108534  1476 net.cpp:186] Top shape: 128 32 16 16 (1048576)
I0825 11:09:03.108539  1476 net.cpp:194] Memory required for data: 337117696
I0825 11:09:03.108549  1476 layer_factory.hpp:77] Creating layer Scale8
I0825 11:09:03.108559  1476 net.cpp:128] Creating Layer Scale8
I0825 11:09:03.108564  1476 net.cpp:558] Scale8 <- Convolution8
I0825 11:09:03.108569  1476 net.cpp:509] Scale8 -> Convolution8 (in-place)
I0825 11:09:03.108610  1476 layer_factory.hpp:77] Creating layer Scale8
I0825 11:09:03.108747  1476 net.cpp:172] Setting up Scale8
I0825 11:09:03.108758  1476 net.cpp:186] Top shape: 128 32 16 16 (1048576)
I0825 11:09:03.108762  1476 net.cpp:194] Memory required for data: 341312000
I0825 11:09:03.108770  1476 layer_factory.hpp:77] Creating layer Convolution9
I0825 11:09:03.108783  1476 net.cpp:128] Creating Layer Convolution9
I0825 11:09:03.108788  1476 net.cpp:558] Convolution9 <- Eltwise3_ReLU7_0_split_1
I0825 11:09:03.108798  1476 net.cpp:522] Convolution9 -> Convolution9
I0825 11:09:03.111412  1476 net.cpp:172] Setting up Convolution9
I0825 11:09:03.111434  1476 net.cpp:186] Top shape: 128 32 16 16 (1048576)
I0825 11:09:03.111439  1476 net.cpp:194] Memory required for data: 345506304
I0825 11:09:03.111454  1476 layer_factory.hpp:77] Creating layer BatchNorm9
I0825 11:09:03.111474  1476 net.cpp:128] Creating Layer BatchNorm9
I0825 11:09:03.111479  1476 net.cpp:558] BatchNorm9 <- Convolution9
I0825 11:09:03.111485  1476 net.cpp:509] BatchNorm9 -> Convolution9 (in-place)
I0825 11:09:03.111727  1476 net.cpp:172] Setting up BatchNorm9
I0825 11:09:03.111737  1476 net.cpp:186] Top shape: 128 32 16 16 (1048576)
I0825 11:09:03.111742  1476 net.cpp:194] Memory required for data: 349700608
I0825 11:09:03.111752  1476 layer_factory.hpp:77] Creating layer Scale9
I0825 11:09:03.111758  1476 net.cpp:128] Creating Layer Scale9
I0825 11:09:03.111765  1476 net.cpp:558] Scale9 <- Convolution9
I0825 11:09:03.111793  1476 net.cpp:509] Scale9 -> Convolution9 (in-place)
I0825 11:09:03.111835  1476 layer_factory.hpp:77] Creating layer Scale9
I0825 11:09:03.111970  1476 net.cpp:172] Setting up Scale9
I0825 11:09:03.111982  1476 net.cpp:186] Top shape: 128 32 16 16 (1048576)
I0825 11:09:03.111987  1476 net.cpp:194] Memory required for data: 353894912
I0825 11:09:03.111995  1476 layer_factory.hpp:77] Creating layer ReLU8
I0825 11:09:03.112002  1476 net.cpp:128] Creating Layer ReLU8
I0825 11:09:03.112006  1476 net.cpp:558] ReLU8 <- Convolution9
I0825 11:09:03.112011  1476 net.cpp:509] ReLU8 -> Convolution9 (in-place)
I0825 11:09:03.112242  1476 net.cpp:172] Setting up ReLU8
I0825 11:09:03.112257  1476 net.cpp:186] Top shape: 128 32 16 16 (1048576)
I0825 11:09:03.112262  1476 net.cpp:194] Memory required for data: 358089216
I0825 11:09:03.112267  1476 layer_factory.hpp:77] Creating layer Convolution10
I0825 11:09:03.112280  1476 net.cpp:128] Creating Layer Convolution10
I0825 11:09:03.112287  1476 net.cpp:558] Convolution10 <- Convolution9
I0825 11:09:03.112298  1476 net.cpp:522] Convolution10 -> Convolution10
I0825 11:09:03.113637  1476 net.cpp:172] Setting up Convolution10
I0825 11:09:03.113663  1476 net.cpp:186] Top shape: 128 32 16 16 (1048576)
I0825 11:09:03.113668  1476 net.cpp:194] Memory required for data: 362283520
I0825 11:09:03.113692  1476 layer_factory.hpp:77] Creating layer BatchNorm10
I0825 11:09:03.113705  1476 net.cpp:128] Creating Layer BatchNorm10
I0825 11:09:03.113713  1476 net.cpp:558] BatchNorm10 <- Convolution10
I0825 11:09:03.113719  1476 net.cpp:509] BatchNorm10 -> Convolution10 (in-place)
I0825 11:09:03.113956  1476 net.cpp:172] Setting up BatchNorm10
I0825 11:09:03.113968  1476 net.cpp:186] Top shape: 128 32 16 16 (1048576)
I0825 11:09:03.113972  1476 net.cpp:194] Memory required for data: 366477824
I0825 11:09:03.113982  1476 layer_factory.hpp:77] Creating layer Scale10
I0825 11:09:03.113991  1476 net.cpp:128] Creating Layer Scale10
I0825 11:09:03.113996  1476 net.cpp:558] Scale10 <- Convolution10
I0825 11:09:03.114003  1476 net.cpp:509] Scale10 -> Convolution10 (in-place)
I0825 11:09:03.114044  1476 layer_factory.hpp:77] Creating layer Scale10
I0825 11:09:03.114183  1476 net.cpp:172] Setting up Scale10
I0825 11:09:03.114197  1476 net.cpp:186] Top shape: 128 32 16 16 (1048576)
I0825 11:09:03.114200  1476 net.cpp:194] Memory required for data: 370672128
I0825 11:09:03.114208  1476 layer_factory.hpp:77] Creating layer Eltwise4
I0825 11:09:03.114215  1476 net.cpp:128] Creating Layer Eltwise4
I0825 11:09:03.114220  1476 net.cpp:558] Eltwise4 <- Convolution8
I0825 11:09:03.114225  1476 net.cpp:558] Eltwise4 <- Convolution10
I0825 11:09:03.114233  1476 net.cpp:522] Eltwise4 -> Eltwise4
I0825 11:09:03.114256  1476 net.cpp:172] Setting up Eltwise4
I0825 11:09:03.114266  1476 net.cpp:186] Top shape: 128 32 16 16 (1048576)
I0825 11:09:03.114270  1476 net.cpp:194] Memory required for data: 374866432
I0825 11:09:03.114274  1476 layer_factory.hpp:77] Creating layer ReLU9
I0825 11:09:03.114280  1476 net.cpp:128] Creating Layer ReLU9
I0825 11:09:03.114285  1476 net.cpp:558] ReLU9 <- Eltwise4
I0825 11:09:03.114293  1476 net.cpp:509] ReLU9 -> Eltwise4 (in-place)
I0825 11:09:03.114540  1476 net.cpp:172] Setting up ReLU9
I0825 11:09:03.114555  1476 net.cpp:186] Top shape: 128 32 16 16 (1048576)
I0825 11:09:03.114560  1476 net.cpp:194] Memory required for data: 379060736
I0825 11:09:03.114565  1476 layer_factory.hpp:77] Creating layer Eltwise4_ReLU9_0_split
I0825 11:09:03.114573  1476 net.cpp:128] Creating Layer Eltwise4_ReLU9_0_split
I0825 11:09:03.114578  1476 net.cpp:558] Eltwise4_ReLU9_0_split <- Eltwise4
I0825 11:09:03.114586  1476 net.cpp:522] Eltwise4_ReLU9_0_split -> Eltwise4_ReLU9_0_split_0
I0825 11:09:03.114595  1476 net.cpp:522] Eltwise4_ReLU9_0_split -> Eltwise4_ReLU9_0_split_1
I0825 11:09:03.114645  1476 net.cpp:172] Setting up Eltwise4_ReLU9_0_split
I0825 11:09:03.114651  1476 net.cpp:186] Top shape: 128 32 16 16 (1048576)
I0825 11:09:03.114657  1476 net.cpp:186] Top shape: 128 32 16 16 (1048576)
I0825 11:09:03.114676  1476 net.cpp:194] Memory required for data: 387449344
I0825 11:09:03.114681  1476 layer_factory.hpp:77] Creating layer Convolution11
I0825 11:09:03.114693  1476 net.cpp:128] Creating Layer Convolution11
I0825 11:09:03.114698  1476 net.cpp:558] Convolution11 <- Eltwise4_ReLU9_0_split_0
I0825 11:09:03.114707  1476 net.cpp:522] Convolution11 -> Convolution11
I0825 11:09:03.116044  1476 net.cpp:172] Setting up Convolution11
I0825 11:09:03.116066  1476 net.cpp:186] Top shape: 128 32 16 16 (1048576)
I0825 11:09:03.116071  1476 net.cpp:194] Memory required for data: 391643648
I0825 11:09:03.116081  1476 layer_factory.hpp:77] Creating layer BatchNorm11
I0825 11:09:03.116089  1476 net.cpp:128] Creating Layer BatchNorm11
I0825 11:09:03.116099  1476 net.cpp:558] BatchNorm11 <- Convolution11
I0825 11:09:03.116108  1476 net.cpp:509] BatchNorm11 -> Convolution11 (in-place)
I0825 11:09:03.116348  1476 net.cpp:172] Setting up BatchNorm11
I0825 11:09:03.116358  1476 net.cpp:186] Top shape: 128 32 16 16 (1048576)
I0825 11:09:03.116363  1476 net.cpp:194] Memory required for data: 395837952
I0825 11:09:03.116371  1476 layer_factory.hpp:77] Creating layer Scale11
I0825 11:09:03.116379  1476 net.cpp:128] Creating Layer Scale11
I0825 11:09:03.116384  1476 net.cpp:558] Scale11 <- Convolution11
I0825 11:09:03.116390  1476 net.cpp:509] Scale11 -> Convolution11 (in-place)
I0825 11:09:03.116430  1476 layer_factory.hpp:77] Creating layer Scale11
I0825 11:09:03.116567  1476 net.cpp:172] Setting up Scale11
I0825 11:09:03.116577  1476 net.cpp:186] Top shape: 128 32 16 16 (1048576)
I0825 11:09:03.116581  1476 net.cpp:194] Memory required for data: 400032256
I0825 11:09:03.116590  1476 layer_factory.hpp:77] Creating layer ReLU10
I0825 11:09:03.116597  1476 net.cpp:128] Creating Layer ReLU10
I0825 11:09:03.116602  1476 net.cpp:558] ReLU10 <- Convolution11
I0825 11:09:03.116608  1476 net.cpp:509] ReLU10 -> Convolution11 (in-place)
I0825 11:09:03.117033  1476 net.cpp:172] Setting up ReLU10
I0825 11:09:03.117055  1476 net.cpp:186] Top shape: 128 32 16 16 (1048576)
I0825 11:09:03.117059  1476 net.cpp:194] Memory required for data: 404226560
I0825 11:09:03.117064  1476 layer_factory.hpp:77] Creating layer Convolution12
I0825 11:09:03.117080  1476 net.cpp:128] Creating Layer Convolution12
I0825 11:09:03.117086  1476 net.cpp:558] Convolution12 <- Convolution11
I0825 11:09:03.117094  1476 net.cpp:522] Convolution12 -> Convolution12
I0825 11:09:03.118474  1476 net.cpp:172] Setting up Convolution12
I0825 11:09:03.118495  1476 net.cpp:186] Top shape: 128 32 16 16 (1048576)
I0825 11:09:03.118500  1476 net.cpp:194] Memory required for data: 408420864
I0825 11:09:03.118510  1476 layer_factory.hpp:77] Creating layer BatchNorm12
I0825 11:09:03.118520  1476 net.cpp:128] Creating Layer BatchNorm12
I0825 11:09:03.118525  1476 net.cpp:558] BatchNorm12 <- Convolution12
I0825 11:09:03.118532  1476 net.cpp:509] BatchNorm12 -> Convolution12 (in-place)
I0825 11:09:03.118774  1476 net.cpp:172] Setting up BatchNorm12
I0825 11:09:03.118785  1476 net.cpp:186] Top shape: 128 32 16 16 (1048576)
I0825 11:09:03.118789  1476 net.cpp:194] Memory required for data: 412615168
I0825 11:09:03.118799  1476 layer_factory.hpp:77] Creating layer Scale12
I0825 11:09:03.118808  1476 net.cpp:128] Creating Layer Scale12
I0825 11:09:03.118811  1476 net.cpp:558] Scale12 <- Convolution12
I0825 11:09:03.118819  1476 net.cpp:509] Scale12 -> Convolution12 (in-place)
I0825 11:09:03.118858  1476 layer_factory.hpp:77] Creating layer Scale12
I0825 11:09:03.118997  1476 net.cpp:172] Setting up Scale12
I0825 11:09:03.119010  1476 net.cpp:186] Top shape: 128 32 16 16 (1048576)
I0825 11:09:03.119015  1476 net.cpp:194] Memory required for data: 416809472
I0825 11:09:03.119024  1476 layer_factory.hpp:77] Creating layer Eltwise5
I0825 11:09:03.119030  1476 net.cpp:128] Creating Layer Eltwise5
I0825 11:09:03.119035  1476 net.cpp:558] Eltwise5 <- Eltwise4_ReLU9_0_split_1
I0825 11:09:03.119040  1476 net.cpp:558] Eltwise5 <- Convolution12
I0825 11:09:03.119048  1476 net.cpp:522] Eltwise5 -> Eltwise5
I0825 11:09:03.119086  1476 net.cpp:172] Setting up Eltwise5
I0825 11:09:03.119096  1476 net.cpp:186] Top shape: 128 32 16 16 (1048576)
I0825 11:09:03.119101  1476 net.cpp:194] Memory required for data: 421003776
I0825 11:09:03.119104  1476 layer_factory.hpp:77] Creating layer ReLU11
I0825 11:09:03.119110  1476 net.cpp:128] Creating Layer ReLU11
I0825 11:09:03.119115  1476 net.cpp:558] ReLU11 <- Eltwise5
I0825 11:09:03.119123  1476 net.cpp:509] ReLU11 -> Eltwise5 (in-place)
I0825 11:09:03.119355  1476 net.cpp:172] Setting up ReLU11
I0825 11:09:03.119369  1476 net.cpp:186] Top shape: 128 32 16 16 (1048576)
I0825 11:09:03.119374  1476 net.cpp:194] Memory required for data: 425198080
I0825 11:09:03.119379  1476 layer_factory.hpp:77] Creating layer Eltwise5_ReLU11_0_split
I0825 11:09:03.119385  1476 net.cpp:128] Creating Layer Eltwise5_ReLU11_0_split
I0825 11:09:03.119392  1476 net.cpp:558] Eltwise5_ReLU11_0_split <- Eltwise5
I0825 11:09:03.119398  1476 net.cpp:522] Eltwise5_ReLU11_0_split -> Eltwise5_ReLU11_0_split_0
I0825 11:09:03.119406  1476 net.cpp:522] Eltwise5_ReLU11_0_split -> Eltwise5_ReLU11_0_split_1
I0825 11:09:03.119457  1476 net.cpp:172] Setting up Eltwise5_ReLU11_0_split
I0825 11:09:03.119464  1476 net.cpp:186] Top shape: 128 32 16 16 (1048576)
I0825 11:09:03.119470  1476 net.cpp:186] Top shape: 128 32 16 16 (1048576)
I0825 11:09:03.119473  1476 net.cpp:194] Memory required for data: 433586688
I0825 11:09:03.119478  1476 layer_factory.hpp:77] Creating layer Convolution13
I0825 11:09:03.119490  1476 net.cpp:128] Creating Layer Convolution13
I0825 11:09:03.119494  1476 net.cpp:558] Convolution13 <- Eltwise5_ReLU11_0_split_0
I0825 11:09:03.119505  1476 net.cpp:522] Convolution13 -> Convolution13
I0825 11:09:03.120853  1476 net.cpp:172] Setting up Convolution13
I0825 11:09:03.120877  1476 net.cpp:186] Top shape: 128 32 16 16 (1048576)
I0825 11:09:03.120882  1476 net.cpp:194] Memory required for data: 437780992
I0825 11:09:03.120892  1476 layer_factory.hpp:77] Creating layer BatchNorm13
I0825 11:09:03.120906  1476 net.cpp:128] Creating Layer BatchNorm13
I0825 11:09:03.120911  1476 net.cpp:558] BatchNorm13 <- Convolution13
I0825 11:09:03.120918  1476 net.cpp:509] BatchNorm13 -> Convolution13 (in-place)
I0825 11:09:03.121163  1476 net.cpp:172] Setting up BatchNorm13
I0825 11:09:03.121174  1476 net.cpp:186] Top shape: 128 32 16 16 (1048576)
I0825 11:09:03.121178  1476 net.cpp:194] Memory required for data: 441975296
I0825 11:09:03.121188  1476 layer_factory.hpp:77] Creating layer Scale13
I0825 11:09:03.121196  1476 net.cpp:128] Creating Layer Scale13
I0825 11:09:03.121201  1476 net.cpp:558] Scale13 <- Convolution13
I0825 11:09:03.121210  1476 net.cpp:509] Scale13 -> Convolution13 (in-place)
I0825 11:09:03.121249  1476 layer_factory.hpp:77] Creating layer Scale13
I0825 11:09:03.121387  1476 net.cpp:172] Setting up Scale13
I0825 11:09:03.121399  1476 net.cpp:186] Top shape: 128 32 16 16 (1048576)
I0825 11:09:03.121403  1476 net.cpp:194] Memory required for data: 446169600
I0825 11:09:03.121412  1476 layer_factory.hpp:77] Creating layer ReLU12
I0825 11:09:03.121417  1476 net.cpp:128] Creating Layer ReLU12
I0825 11:09:03.121423  1476 net.cpp:558] ReLU12 <- Convolution13
I0825 11:09:03.121428  1476 net.cpp:509] ReLU12 -> Convolution13 (in-place)
I0825 11:09:03.121655  1476 net.cpp:172] Setting up ReLU12
I0825 11:09:03.121670  1476 net.cpp:186] Top shape: 128 32 16 16 (1048576)
I0825 11:09:03.121675  1476 net.cpp:194] Memory required for data: 450363904
I0825 11:09:03.121680  1476 layer_factory.hpp:77] Creating layer Convolution14
I0825 11:09:03.121692  1476 net.cpp:128] Creating Layer Convolution14
I0825 11:09:03.121697  1476 net.cpp:558] Convolution14 <- Convolution13
I0825 11:09:03.121706  1476 net.cpp:522] Convolution14 -> Convolution14
I0825 11:09:03.123112  1476 net.cpp:172] Setting up Convolution14
I0825 11:09:03.123134  1476 net.cpp:186] Top shape: 128 32 16 16 (1048576)
I0825 11:09:03.123138  1476 net.cpp:194] Memory required for data: 454558208
I0825 11:09:03.123150  1476 layer_factory.hpp:77] Creating layer BatchNorm14
I0825 11:09:03.123184  1476 net.cpp:128] Creating Layer BatchNorm14
I0825 11:09:03.123193  1476 net.cpp:558] BatchNorm14 <- Convolution14
I0825 11:09:03.123200  1476 net.cpp:509] BatchNorm14 -> Convolution14 (in-place)
I0825 11:09:03.123443  1476 net.cpp:172] Setting up BatchNorm14
I0825 11:09:03.123456  1476 net.cpp:186] Top shape: 128 32 16 16 (1048576)
I0825 11:09:03.123461  1476 net.cpp:194] Memory required for data: 458752512
I0825 11:09:03.123471  1476 layer_factory.hpp:77] Creating layer Scale14
I0825 11:09:03.123479  1476 net.cpp:128] Creating Layer Scale14
I0825 11:09:03.123483  1476 net.cpp:558] Scale14 <- Convolution14
I0825 11:09:03.123489  1476 net.cpp:509] Scale14 -> Convolution14 (in-place)
I0825 11:09:03.123530  1476 layer_factory.hpp:77] Creating layer Scale14
I0825 11:09:03.123669  1476 net.cpp:172] Setting up Scale14
I0825 11:09:03.123679  1476 net.cpp:186] Top shape: 128 32 16 16 (1048576)
I0825 11:09:03.123683  1476 net.cpp:194] Memory required for data: 462946816
I0825 11:09:03.123692  1476 layer_factory.hpp:77] Creating layer Eltwise6
I0825 11:09:03.123700  1476 net.cpp:128] Creating Layer Eltwise6
I0825 11:09:03.123708  1476 net.cpp:558] Eltwise6 <- Eltwise5_ReLU11_0_split_1
I0825 11:09:03.123713  1476 net.cpp:558] Eltwise6 <- Convolution14
I0825 11:09:03.123719  1476 net.cpp:522] Eltwise6 -> Eltwise6
I0825 11:09:03.123741  1476 net.cpp:172] Setting up Eltwise6
I0825 11:09:03.123750  1476 net.cpp:186] Top shape: 128 32 16 16 (1048576)
I0825 11:09:03.123754  1476 net.cpp:194] Memory required for data: 467141120
I0825 11:09:03.123759  1476 layer_factory.hpp:77] Creating layer ReLU13
I0825 11:09:03.123765  1476 net.cpp:128] Creating Layer ReLU13
I0825 11:09:03.123769  1476 net.cpp:558] ReLU13 <- Eltwise6
I0825 11:09:03.123780  1476 net.cpp:509] ReLU13 -> Eltwise6 (in-place)
I0825 11:09:03.124207  1476 net.cpp:172] Setting up ReLU13
I0825 11:09:03.124228  1476 net.cpp:186] Top shape: 128 32 16 16 (1048576)
I0825 11:09:03.124235  1476 net.cpp:194] Memory required for data: 471335424
I0825 11:09:03.124240  1476 layer_factory.hpp:77] Creating layer Eltwise6_ReLU13_0_split
I0825 11:09:03.124248  1476 net.cpp:128] Creating Layer Eltwise6_ReLU13_0_split
I0825 11:09:03.124254  1476 net.cpp:558] Eltwise6_ReLU13_0_split <- Eltwise6
I0825 11:09:03.124264  1476 net.cpp:522] Eltwise6_ReLU13_0_split -> Eltwise6_ReLU13_0_split_0
I0825 11:09:03.124274  1476 net.cpp:522] Eltwise6_ReLU13_0_split -> Eltwise6_ReLU13_0_split_1
I0825 11:09:03.124327  1476 net.cpp:172] Setting up Eltwise6_ReLU13_0_split
I0825 11:09:03.124337  1476 net.cpp:186] Top shape: 128 32 16 16 (1048576)
I0825 11:09:03.124343  1476 net.cpp:186] Top shape: 128 32 16 16 (1048576)
I0825 11:09:03.124347  1476 net.cpp:194] Memory required for data: 479724032
I0825 11:09:03.124351  1476 layer_factory.hpp:77] Creating layer Convolution15
I0825 11:09:03.124366  1476 net.cpp:128] Creating Layer Convolution15
I0825 11:09:03.124370  1476 net.cpp:558] Convolution15 <- Eltwise6_ReLU13_0_split_0
I0825 11:09:03.124378  1476 net.cpp:522] Convolution15 -> Convolution15
I0825 11:09:03.125628  1476 net.cpp:172] Setting up Convolution15
I0825 11:09:03.125650  1476 net.cpp:186] Top shape: 128 64 8 8 (524288)
I0825 11:09:03.125654  1476 net.cpp:194] Memory required for data: 481821184
I0825 11:09:03.125665  1476 layer_factory.hpp:77] Creating layer BatchNorm15
I0825 11:09:03.125681  1476 net.cpp:128] Creating Layer BatchNorm15
I0825 11:09:03.125686  1476 net.cpp:558] BatchNorm15 <- Convolution15
I0825 11:09:03.125694  1476 net.cpp:509] BatchNorm15 -> Convolution15 (in-place)
I0825 11:09:03.125942  1476 net.cpp:172] Setting up BatchNorm15
I0825 11:09:03.125952  1476 net.cpp:186] Top shape: 128 64 8 8 (524288)
I0825 11:09:03.125957  1476 net.cpp:194] Memory required for data: 483918336
I0825 11:09:03.125967  1476 layer_factory.hpp:77] Creating layer Scale15
I0825 11:09:03.125973  1476 net.cpp:128] Creating Layer Scale15
I0825 11:09:03.125978  1476 net.cpp:558] Scale15 <- Convolution15
I0825 11:09:03.125983  1476 net.cpp:509] Scale15 -> Convolution15 (in-place)
I0825 11:09:03.126026  1476 layer_factory.hpp:77] Creating layer Scale15
I0825 11:09:03.126186  1476 net.cpp:172] Setting up Scale15
I0825 11:09:03.126196  1476 net.cpp:186] Top shape: 128 64 8 8 (524288)
I0825 11:09:03.126200  1476 net.cpp:194] Memory required for data: 486015488
I0825 11:09:03.126209  1476 layer_factory.hpp:77] Creating layer Convolution16
I0825 11:09:03.126224  1476 net.cpp:128] Creating Layer Convolution16
I0825 11:09:03.126235  1476 net.cpp:558] Convolution16 <- Eltwise6_ReLU13_0_split_1
I0825 11:09:03.126243  1476 net.cpp:522] Convolution16 -> Convolution16
I0825 11:09:03.129272  1476 net.cpp:172] Setting up Convolution16
I0825 11:09:03.129300  1476 net.cpp:186] Top shape: 128 64 8 8 (524288)
I0825 11:09:03.129305  1476 net.cpp:194] Memory required for data: 488112640
I0825 11:09:03.129319  1476 layer_factory.hpp:77] Creating layer BatchNorm16
I0825 11:09:03.129335  1476 net.cpp:128] Creating Layer BatchNorm16
I0825 11:09:03.129341  1476 net.cpp:558] BatchNorm16 <- Convolution16
I0825 11:09:03.129349  1476 net.cpp:509] BatchNorm16 -> Convolution16 (in-place)
I0825 11:09:03.129616  1476 net.cpp:172] Setting up BatchNorm16
I0825 11:09:03.129627  1476 net.cpp:186] Top shape: 128 64 8 8 (524288)
I0825 11:09:03.129632  1476 net.cpp:194] Memory required for data: 490209792
I0825 11:09:03.129642  1476 layer_factory.hpp:77] Creating layer Scale16
I0825 11:09:03.129649  1476 net.cpp:128] Creating Layer Scale16
I0825 11:09:03.129653  1476 net.cpp:558] Scale16 <- Convolution16
I0825 11:09:03.129662  1476 net.cpp:509] Scale16 -> Convolution16 (in-place)
I0825 11:09:03.129703  1476 layer_factory.hpp:77] Creating layer Scale16
I0825 11:09:03.129848  1476 net.cpp:172] Setting up Scale16
I0825 11:09:03.129854  1476 net.cpp:186] Top shape: 128 64 8 8 (524288)
I0825 11:09:03.129858  1476 net.cpp:194] Memory required for data: 492306944
I0825 11:09:03.129866  1476 layer_factory.hpp:77] Creating layer ReLU14
I0825 11:09:03.129873  1476 net.cpp:128] Creating Layer ReLU14
I0825 11:09:03.129878  1476 net.cpp:558] ReLU14 <- Convolution16
I0825 11:09:03.129885  1476 net.cpp:509] ReLU14 -> Convolution16 (in-place)
I0825 11:09:03.130113  1476 net.cpp:172] Setting up ReLU14
I0825 11:09:03.130131  1476 net.cpp:186] Top shape: 128 64 8 8 (524288)
I0825 11:09:03.130136  1476 net.cpp:194] Memory required for data: 494404096
I0825 11:09:03.130141  1476 layer_factory.hpp:77] Creating layer Convolution17
I0825 11:09:03.130153  1476 net.cpp:128] Creating Layer Convolution17
I0825 11:09:03.130162  1476 net.cpp:558] Convolution17 <- Convolution16
I0825 11:09:03.130169  1476 net.cpp:522] Convolution17 -> Convolution17
I0825 11:09:03.132501  1476 net.cpp:172] Setting up Convolution17
I0825 11:09:03.132531  1476 net.cpp:186] Top shape: 128 64 8 8 (524288)
I0825 11:09:03.132536  1476 net.cpp:194] Memory required for data: 496501248
I0825 11:09:03.132550  1476 layer_factory.hpp:77] Creating layer BatchNorm17
I0825 11:09:03.132562  1476 net.cpp:128] Creating Layer BatchNorm17
I0825 11:09:03.132568  1476 net.cpp:558] BatchNorm17 <- Convolution17
I0825 11:09:03.132585  1476 net.cpp:509] BatchNorm17 -> Convolution17 (in-place)
I0825 11:09:03.132853  1476 net.cpp:172] Setting up BatchNorm17
I0825 11:09:03.132863  1476 net.cpp:186] Top shape: 128 64 8 8 (524288)
I0825 11:09:03.132867  1476 net.cpp:194] Memory required for data: 498598400
I0825 11:09:03.132876  1476 layer_factory.hpp:77] Creating layer Scale17
I0825 11:09:03.132886  1476 net.cpp:128] Creating Layer Scale17
I0825 11:09:03.132894  1476 net.cpp:558] Scale17 <- Convolution17
I0825 11:09:03.132901  1476 net.cpp:509] Scale17 -> Convolution17 (in-place)
I0825 11:09:03.132942  1476 layer_factory.hpp:77] Creating layer Scale17
I0825 11:09:03.133092  1476 net.cpp:172] Setting up Scale17
I0825 11:09:03.133105  1476 net.cpp:186] Top shape: 128 64 8 8 (524288)
I0825 11:09:03.133110  1476 net.cpp:194] Memory required for data: 500695552
I0825 11:09:03.133117  1476 layer_factory.hpp:77] Creating layer Eltwise7
I0825 11:09:03.133124  1476 net.cpp:128] Creating Layer Eltwise7
I0825 11:09:03.133129  1476 net.cpp:558] Eltwise7 <- Convolution15
I0825 11:09:03.133149  1476 net.cpp:558] Eltwise7 <- Convolution17
I0825 11:09:03.133158  1476 net.cpp:522] Eltwise7 -> Eltwise7
I0825 11:09:03.133183  1476 net.cpp:172] Setting up Eltwise7
I0825 11:09:03.133191  1476 net.cpp:186] Top shape: 128 64 8 8 (524288)
I0825 11:09:03.133196  1476 net.cpp:194] Memory required for data: 502792704
I0825 11:09:03.133200  1476 layer_factory.hpp:77] Creating layer ReLU15
I0825 11:09:03.133206  1476 net.cpp:128] Creating Layer ReLU15
I0825 11:09:03.133211  1476 net.cpp:558] ReLU15 <- Eltwise7
I0825 11:09:03.133216  1476 net.cpp:509] ReLU15 -> Eltwise7 (in-place)
I0825 11:09:03.133447  1476 net.cpp:172] Setting up ReLU15
I0825 11:09:03.133464  1476 net.cpp:186] Top shape: 128 64 8 8 (524288)
I0825 11:09:03.133468  1476 net.cpp:194] Memory required for data: 504889856
I0825 11:09:03.133473  1476 layer_factory.hpp:77] Creating layer Eltwise7_ReLU15_0_split
I0825 11:09:03.133481  1476 net.cpp:128] Creating Layer Eltwise7_ReLU15_0_split
I0825 11:09:03.133486  1476 net.cpp:558] Eltwise7_ReLU15_0_split <- Eltwise7
I0825 11:09:03.133491  1476 net.cpp:522] Eltwise7_ReLU15_0_split -> Eltwise7_ReLU15_0_split_0
I0825 11:09:03.133502  1476 net.cpp:522] Eltwise7_ReLU15_0_split -> Eltwise7_ReLU15_0_split_1
I0825 11:09:03.133553  1476 net.cpp:172] Setting up Eltwise7_ReLU15_0_split
I0825 11:09:03.133563  1476 net.cpp:186] Top shape: 128 64 8 8 (524288)
I0825 11:09:03.133569  1476 net.cpp:186] Top shape: 128 64 8 8 (524288)
I0825 11:09:03.133572  1476 net.cpp:194] Memory required for data: 509084160
I0825 11:09:03.133576  1476 layer_factory.hpp:77] Creating layer Convolution18
I0825 11:09:03.133590  1476 net.cpp:128] Creating Layer Convolution18
I0825 11:09:03.133595  1476 net.cpp:558] Convolution18 <- Eltwise7_ReLU15_0_split_0
I0825 11:09:03.133602  1476 net.cpp:522] Convolution18 -> Convolution18
I0825 11:09:03.135398  1476 net.cpp:172] Setting up Convolution18
I0825 11:09:03.135424  1476 net.cpp:186] Top shape: 128 64 8 8 (524288)
I0825 11:09:03.135429  1476 net.cpp:194] Memory required for data: 511181312
I0825 11:09:03.135439  1476 layer_factory.hpp:77] Creating layer BatchNorm18
I0825 11:09:03.135450  1476 net.cpp:128] Creating Layer BatchNorm18
I0825 11:09:03.135455  1476 net.cpp:558] BatchNorm18 <- Convolution18
I0825 11:09:03.135464  1476 net.cpp:509] BatchNorm18 -> Convolution18 (in-place)
I0825 11:09:03.135720  1476 net.cpp:172] Setting up BatchNorm18
I0825 11:09:03.135730  1476 net.cpp:186] Top shape: 128 64 8 8 (524288)
I0825 11:09:03.135735  1476 net.cpp:194] Memory required for data: 513278464
I0825 11:09:03.135746  1476 layer_factory.hpp:77] Creating layer Scale18
I0825 11:09:03.135753  1476 net.cpp:128] Creating Layer Scale18
I0825 11:09:03.135758  1476 net.cpp:558] Scale18 <- Convolution18
I0825 11:09:03.135764  1476 net.cpp:509] Scale18 -> Convolution18 (in-place)
I0825 11:09:03.135807  1476 layer_factory.hpp:77] Creating layer Scale18
I0825 11:09:03.135962  1476 net.cpp:172] Setting up Scale18
I0825 11:09:03.135972  1476 net.cpp:186] Top shape: 128 64 8 8 (524288)
I0825 11:09:03.135975  1476 net.cpp:194] Memory required for data: 515375616
I0825 11:09:03.135984  1476 layer_factory.hpp:77] Creating layer ReLU16
I0825 11:09:03.135990  1476 net.cpp:128] Creating Layer ReLU16
I0825 11:09:03.135995  1476 net.cpp:558] ReLU16 <- Convolution18
I0825 11:09:03.136003  1476 net.cpp:509] ReLU16 -> Convolution18 (in-place)
I0825 11:09:03.136417  1476 net.cpp:172] Setting up ReLU16
I0825 11:09:03.136438  1476 net.cpp:186] Top shape: 128 64 8 8 (524288)
I0825 11:09:03.136443  1476 net.cpp:194] Memory required for data: 517472768
I0825 11:09:03.136448  1476 layer_factory.hpp:77] Creating layer Convolution19
I0825 11:09:03.136462  1476 net.cpp:128] Creating Layer Convolution19
I0825 11:09:03.136468  1476 net.cpp:558] Convolution19 <- Convolution18
I0825 11:09:03.136478  1476 net.cpp:522] Convolution19 -> Convolution19
I0825 11:09:03.138459  1476 net.cpp:172] Setting up Convolution19
I0825 11:09:03.138487  1476 net.cpp:186] Top shape: 128 64 8 8 (524288)
I0825 11:09:03.138491  1476 net.cpp:194] Memory required for data: 519569920
I0825 11:09:03.138516  1476 layer_factory.hpp:77] Creating layer BatchNorm19
I0825 11:09:03.138525  1476 net.cpp:128] Creating Layer BatchNorm19
I0825 11:09:03.138530  1476 net.cpp:558] BatchNorm19 <- Convolution19
I0825 11:09:03.138540  1476 net.cpp:509] BatchNorm19 -> Convolution19 (in-place)
I0825 11:09:03.138810  1476 net.cpp:172] Setting up BatchNorm19
I0825 11:09:03.138823  1476 net.cpp:186] Top shape: 128 64 8 8 (524288)
I0825 11:09:03.138828  1476 net.cpp:194] Memory required for data: 521667072
I0825 11:09:03.138851  1476 layer_factory.hpp:77] Creating layer Scale19
I0825 11:09:03.138861  1476 net.cpp:128] Creating Layer Scale19
I0825 11:09:03.138866  1476 net.cpp:558] Scale19 <- Convolution19
I0825 11:09:03.138872  1476 net.cpp:509] Scale19 -> Convolution19 (in-place)
I0825 11:09:03.138913  1476 layer_factory.hpp:77] Creating layer Scale19
I0825 11:09:03.139058  1476 net.cpp:172] Setting up Scale19
I0825 11:09:03.139070  1476 net.cpp:186] Top shape: 128 64 8 8 (524288)
I0825 11:09:03.139073  1476 net.cpp:194] Memory required for data: 523764224
I0825 11:09:03.139081  1476 layer_factory.hpp:77] Creating layer Eltwise8
I0825 11:09:03.139091  1476 net.cpp:128] Creating Layer Eltwise8
I0825 11:09:03.139096  1476 net.cpp:558] Eltwise8 <- Eltwise7_ReLU15_0_split_1
I0825 11:09:03.139101  1476 net.cpp:558] Eltwise8 <- Convolution19
I0825 11:09:03.139107  1476 net.cpp:522] Eltwise8 -> Eltwise8
I0825 11:09:03.139132  1476 net.cpp:172] Setting up Eltwise8
I0825 11:09:03.139138  1476 net.cpp:186] Top shape: 128 64 8 8 (524288)
I0825 11:09:03.139142  1476 net.cpp:194] Memory required for data: 525861376
I0825 11:09:03.139147  1476 layer_factory.hpp:77] Creating layer ReLU17
I0825 11:09:03.139153  1476 net.cpp:128] Creating Layer ReLU17
I0825 11:09:03.139156  1476 net.cpp:558] ReLU17 <- Eltwise8
I0825 11:09:03.139163  1476 net.cpp:509] ReLU17 -> Eltwise8 (in-place)
I0825 11:09:03.139400  1476 net.cpp:172] Setting up ReLU17
I0825 11:09:03.139415  1476 net.cpp:186] Top shape: 128 64 8 8 (524288)
I0825 11:09:03.139420  1476 net.cpp:194] Memory required for data: 527958528
I0825 11:09:03.139425  1476 layer_factory.hpp:77] Creating layer Eltwise8_ReLU17_0_split
I0825 11:09:03.139432  1476 net.cpp:128] Creating Layer Eltwise8_ReLU17_0_split
I0825 11:09:03.139437  1476 net.cpp:558] Eltwise8_ReLU17_0_split <- Eltwise8
I0825 11:09:03.139446  1476 net.cpp:522] Eltwise8_ReLU17_0_split -> Eltwise8_ReLU17_0_split_0
I0825 11:09:03.139454  1476 net.cpp:522] Eltwise8_ReLU17_0_split -> Eltwise8_ReLU17_0_split_1
I0825 11:09:03.139503  1476 net.cpp:172] Setting up Eltwise8_ReLU17_0_split
I0825 11:09:03.139514  1476 net.cpp:186] Top shape: 128 64 8 8 (524288)
I0825 11:09:03.139520  1476 net.cpp:186] Top shape: 128 64 8 8 (524288)
I0825 11:09:03.139524  1476 net.cpp:194] Memory required for data: 532152832
I0825 11:09:03.139528  1476 layer_factory.hpp:77] Creating layer Convolution20
I0825 11:09:03.139542  1476 net.cpp:128] Creating Layer Convolution20
I0825 11:09:03.139547  1476 net.cpp:558] Convolution20 <- Eltwise8_ReLU17_0_split_0
I0825 11:09:03.139554  1476 net.cpp:522] Convolution20 -> Convolution20
I0825 11:09:03.141337  1476 net.cpp:172] Setting up Convolution20
I0825 11:09:03.141360  1476 net.cpp:186] Top shape: 128 64 8 8 (524288)
I0825 11:09:03.141364  1476 net.cpp:194] Memory required for data: 534249984
I0825 11:09:03.141377  1476 layer_factory.hpp:77] Creating layer BatchNorm20
I0825 11:09:03.141387  1476 net.cpp:128] Creating Layer BatchNorm20
I0825 11:09:03.141392  1476 net.cpp:558] BatchNorm20 <- Convolution20
I0825 11:09:03.141402  1476 net.cpp:509] BatchNorm20 -> Convolution20 (in-place)
I0825 11:09:03.141661  1476 net.cpp:172] Setting up BatchNorm20
I0825 11:09:03.141671  1476 net.cpp:186] Top shape: 128 64 8 8 (524288)
I0825 11:09:03.141676  1476 net.cpp:194] Memory required for data: 536347136
I0825 11:09:03.141686  1476 layer_factory.hpp:77] Creating layer Scale20
I0825 11:09:03.141693  1476 net.cpp:128] Creating Layer Scale20
I0825 11:09:03.141698  1476 net.cpp:558] Scale20 <- Convolution20
I0825 11:09:03.141718  1476 net.cpp:509] Scale20 -> Convolution20 (in-place)
I0825 11:09:03.141762  1476 layer_factory.hpp:77] Creating layer Scale20
I0825 11:09:03.141916  1476 net.cpp:172] Setting up Scale20
I0825 11:09:03.141927  1476 net.cpp:186] Top shape: 128 64 8 8 (524288)
I0825 11:09:03.141932  1476 net.cpp:194] Memory required for data: 538444288
I0825 11:09:03.141939  1476 layer_factory.hpp:77] Creating layer ReLU18
I0825 11:09:03.141947  1476 net.cpp:128] Creating Layer ReLU18
I0825 11:09:03.141952  1476 net.cpp:558] ReLU18 <- Convolution20
I0825 11:09:03.141959  1476 net.cpp:509] ReLU18 -> Convolution20 (in-place)
I0825 11:09:03.142189  1476 net.cpp:172] Setting up ReLU18
I0825 11:09:03.142204  1476 net.cpp:186] Top shape: 128 64 8 8 (524288)
I0825 11:09:03.142210  1476 net.cpp:194] Memory required for data: 540541440
I0825 11:09:03.142213  1476 layer_factory.hpp:77] Creating layer Convolution21
I0825 11:09:03.142226  1476 net.cpp:128] Creating Layer Convolution21
I0825 11:09:03.142231  1476 net.cpp:558] Convolution21 <- Convolution20
I0825 11:09:03.142241  1476 net.cpp:522] Convolution21 -> Convolution21
I0825 11:09:03.144214  1476 net.cpp:172] Setting up Convolution21
I0825 11:09:03.144240  1476 net.cpp:186] Top shape: 128 64 8 8 (524288)
I0825 11:09:03.144245  1476 net.cpp:194] Memory required for data: 542638592
I0825 11:09:03.144258  1476 layer_factory.hpp:77] Creating layer BatchNorm21
I0825 11:09:03.144266  1476 net.cpp:128] Creating Layer BatchNorm21
I0825 11:09:03.144271  1476 net.cpp:558] BatchNorm21 <- Convolution21
I0825 11:09:03.144285  1476 net.cpp:509] BatchNorm21 -> Convolution21 (in-place)
I0825 11:09:03.144568  1476 net.cpp:172] Setting up BatchNorm21
I0825 11:09:03.144578  1476 net.cpp:186] Top shape: 128 64 8 8 (524288)
I0825 11:09:03.144583  1476 net.cpp:194] Memory required for data: 544735744
I0825 11:09:03.144593  1476 layer_factory.hpp:77] Creating layer Scale21
I0825 11:09:03.144603  1476 net.cpp:128] Creating Layer Scale21
I0825 11:09:03.144608  1476 net.cpp:558] Scale21 <- Convolution21
I0825 11:09:03.144613  1476 net.cpp:509] Scale21 -> Convolution21 (in-place)
I0825 11:09:03.144654  1476 layer_factory.hpp:77] Creating layer Scale21
I0825 11:09:03.144806  1476 net.cpp:172] Setting up Scale21
I0825 11:09:03.144816  1476 net.cpp:186] Top shape: 128 64 8 8 (524288)
I0825 11:09:03.144821  1476 net.cpp:194] Memory required for data: 546832896
I0825 11:09:03.144829  1476 layer_factory.hpp:77] Creating layer Eltwise9
I0825 11:09:03.144837  1476 net.cpp:128] Creating Layer Eltwise9
I0825 11:09:03.144843  1476 net.cpp:558] Eltwise9 <- Eltwise8_ReLU17_0_split_1
I0825 11:09:03.144848  1476 net.cpp:558] Eltwise9 <- Convolution21
I0825 11:09:03.144855  1476 net.cpp:522] Eltwise9 -> Eltwise9
I0825 11:09:03.144879  1476 net.cpp:172] Setting up Eltwise9
I0825 11:09:03.144886  1476 net.cpp:186] Top shape: 128 64 8 8 (524288)
I0825 11:09:03.144891  1476 net.cpp:194] Memory required for data: 548930048
I0825 11:09:03.144894  1476 layer_factory.hpp:77] Creating layer ReLU19
I0825 11:09:03.144901  1476 net.cpp:128] Creating Layer ReLU19
I0825 11:09:03.144906  1476 net.cpp:558] ReLU19 <- Eltwise9
I0825 11:09:03.144912  1476 net.cpp:509] ReLU19 -> Eltwise9 (in-place)
I0825 11:09:03.145149  1476 net.cpp:172] Setting up ReLU19
I0825 11:09:03.145165  1476 net.cpp:186] Top shape: 128 64 8 8 (524288)
I0825 11:09:03.145170  1476 net.cpp:194] Memory required for data: 551027200
I0825 11:09:03.145175  1476 layer_factory.hpp:77] Creating layer Pooling1
I0825 11:09:03.145184  1476 net.cpp:128] Creating Layer Pooling1
I0825 11:09:03.145189  1476 net.cpp:558] Pooling1 <- Eltwise9
I0825 11:09:03.145197  1476 net.cpp:522] Pooling1 -> Pooling1
I0825 11:09:03.145680  1476 net.cpp:172] Setting up Pooling1
I0825 11:09:03.145704  1476 net.cpp:186] Top shape: 128 64 1 1 (8192)
I0825 11:09:03.145709  1476 net.cpp:194] Memory required for data: 551059968
I0825 11:09:03.145712  1476 layer_factory.hpp:77] Creating layer InnerProduct1
I0825 11:09:03.145723  1476 net.cpp:128] Creating Layer InnerProduct1
I0825 11:09:03.145742  1476 net.cpp:558] InnerProduct1 <- Pooling1
I0825 11:09:03.145752  1476 net.cpp:522] InnerProduct1 -> InnerProduct1
I0825 11:09:03.145922  1476 net.cpp:172] Setting up InnerProduct1
I0825 11:09:03.145929  1476 net.cpp:186] Top shape: 128 10 (1280)
I0825 11:09:03.145933  1476 net.cpp:194] Memory required for data: 551065088
I0825 11:09:03.145943  1476 layer_factory.hpp:77] Creating layer SoftmaxWithLoss1
I0825 11:09:03.145951  1476 net.cpp:128] Creating Layer SoftmaxWithLoss1
I0825 11:09:03.145956  1476 net.cpp:558] SoftmaxWithLoss1 <- InnerProduct1
I0825 11:09:03.145961  1476 net.cpp:558] SoftmaxWithLoss1 <- Data2
I0825 11:09:03.145970  1476 net.cpp:522] SoftmaxWithLoss1 -> SoftmaxWithLoss1
…
I0825 11:09:03.166692  1476 net.cpp:390] layer_param.include_size():1
I0825 11:09:03.166707  1476 net.cpp:391] layer_param.exclude_size():0
I0825 11:09:03.169191  1476 net.cpp:82] Initializing net from parameters: 
name: "resnet_cifar10"
state {
  phase: TEST
}
layer {
  name: "Data1"
  type: "Data"
  top: "Data1"
  top: "Data2"
  include {
    phase: TEST
  }
  transform_param {
    scale: 0.00390625
    mean_value: 125.3
    mean_value: 122.9
    mean_value: 113.8
  }
  data_param {
    source: "/home/lijianfei/datasets/cifar10_40/test_lmdb"
    batch_size: 10
    backend: LMDB
  }
}
layer {
  name: "Convolution1"
  type: "Convolution"
  bottom: "Data1"
  top: "Convolution1"
  param {
    lr_mult: 1
    decay_mult: 1
  }
  param {
    lr_mult: 2
    decay_mult: 0
  }
  convolution_param {
    num_output: 16
    pad: 1
    kernel_size: 3
    stride: 1
    weight_filler {
      type: "msra"
    }
    bias_filler {
      type: "constant"
      value: 0
    }
  }
}
layer {
  name: "BatchNorm1"
  type: "BatchNorm"
  bottom: "Convolution1"
  top: "Convolution1"
  param {
    lr_mult: 0
    decay_mult: 0
  }
  param {
    lr_mult: 0
    decay_mult: 0
  }
  param {
    lr_mult: 0
    decay_mult: 0
  }
}
layer {
  name: "Scale1"
  type: "Scale"
  bottom: "Convolution1"
  top: "Convolution1"
  scale_param {
    bias_term: true
  }
}
layer {
  name: "ReLU1"
  type: "ReLU"
  bottom: "Convolution1"
  top: "Convolution1"
}
layer {
  name: "Convolution2"
  type: "Convolution"
  bottom: "Convolution1"
  top: "Convolution2"
  param {
    lr_mult: 1
    decay_mult: 1
  }
  param {
    lr_mult: 2
    decay_mult: 0
  }
  convolution_param {
    num_output: 16
    pad: 1
    kernel_size: 3
    stride: 1
    weight_filler {
      type: "msra"
    }
    bias_filler {
      type: "constant"
      value: 0
    }
  }
}
layer {
  name: "BatchNorm2"
  type: "BatchNorm"
  bottom: "Convolution2"
  top: "Convolution2"
  param {
    lr_mult: 0
    decay_mult: 0
  }
  param {
    lr_mult: 0
    decay_mult: 0
  }
  param {
    lr_mult: 0
    decay_mult: 0
  }
}
layer {
  name: "Scale2"
  type: "Scale"
  bottom: "Convolution2"
  top: "Convolution2"
  scale_param {
    bias_term: true
  }
}
layer {
  name: "ReLU2"
  type: "ReLU"
  bottom: "Convolution2"
  top: "Convolution2"
}
layer {
  name: "Convolution3"
  type: "Convolution"
  bottom: "Convolution2"
  top: "Convolution3"
  param {
    lr_mult: 1
    decay_mult: 1
  }
  param {
    lr_mult: 2
    decay_mult: 0
  }
  convolution_param {
    num_output: 16
    pad: 1
    kernel_size: 3
    stride: 1
    weight_filler {
      type: "msra"
    }
    bias_filler {
      type: "constant"
      value: 0
    }
  }
}
layer {
  name: "BatchNorm3"
  type: "BatchNorm"
  bottom: "Convolution3"
  top: "Convolution3"
  param {
    lr_mult: 0
    decay_mult: 0
  }
  param {
    lr_mult: 0
    decay_mult: 0
  }
  param {
    lr_mult: 0
    decay_mult: 0
  }
}
layer {
  name: "Scale3"
  type: "Scale"
  bottom: "Convolution3"
  top: "Convolution3"
  scale_param {
    bias_term: true
  }
}
layer {
  name: "Eltwise1"
  type: "Eltwise"
  bottom: "Convolution1"
  bottom: "Convolution3"
  top: "Eltwise1"
  eltwise_param {
    operation: SUM
  }
}
layer {
  name: "ReLU3"
  type: "ReLU"
  bottom: "Eltwise1"
  top: "Eltwise1"
}
layer {
  name: "Convolution4"
  type: "Convolution"
  bottom: "Eltwise1"
  top: "Convolution4"
  param {
    lr_mult: 1
    decay_mult: 1
  }
  param {
    lr_mult: 2
    decay_mult: 0
  }
  convolution_param {
    num_output: 16
    pad: 1
    kernel_size: 3
    stride: 1
    weight_filler {
      type: "msra"
    }
    bias_filler {
      type: "constant"
      value: 0
    }
  }
}
layer {
  name: "BatchNorm4"
  type: "BatchNorm"
  bottom: "Convolution4"
  top: "Convolution4"
  param {
    lr_mult: 0
    decay_mult: 0
  }
  param {
    lr_mult: 0
    decay_mult: 0
  }
  param {
    lr_mult: 0
    decay_mult: 0
  }
}
layer {
  name: "Scale4"
  type: "Scale"
  bottom: "Convolution4"
  top: "Convolution4"
  scale_param {
    bias_term: true
  }
}
layer {
  name: "ReLU4"
  type: "ReLU"
  bottom: "Convolution4"
  top: "Convolution4"
}
layer {
  name: "Convolution5"
  type: "Convolution"
  bottom: "Convolution4"
  top: "Convolution5"
  param {
    lr_mult: 1
    decay_mult: 1
  }
  param {
    lr_mult: 2
    decay_mult: 0
  }
  convolution_param {
    num_output: 16
    pad: 1
    kernel_size: 3
    stride: 1
    weight_filler {
      type: "msra"
    }
    bias_filler {
      type: "constant"
      value: 0
    }
  }
}
layer {
  name: "BatchNorm5"
  type: "BatchNorm"
  bottom: "Convolution5"
  top: "Convolution5"
  param {
    lr_mult: 0
    decay_mult: 0
  }
  param {
    lr_mult: 0
    decay_mult: 0
  }
  param {
    lr_mult: 0
    decay_mult: 0
  }
}
layer {
  name: "Scale5"
  type: "Scale"
  bottom: "Convolution5"
  top: "Convolution5"
  scale_param {
    bias_term: true
  }
}
layer {
  name: "Eltwise2"
  type: "Eltwise"
  bottom: "Eltwise1"
  bottom: "Convolution5"
  top: "Eltwise2"
  eltwise_param {
    operation: SUM
  }
}
layer {
  name: "ReLU5"
  type: "ReLU"
  bottom: "Eltwise2"
  top: "Eltwise2"
}
layer {
  name: "Convolution6"
  type: "Convolution"
  bottom: "Eltwise2"
  top: "Convolution6"
  param {
    lr_mult: 1
    decay_mult: 1
  }
  param {
    lr_mult: 2
    decay_mult: 0
  }
  convolution_param {
    num_output: 16
    pad: 1
    kernel_size: 3
    stride: 1
    weight_filler {
      type: "msra"
    }
    bias_filler {
      type: "constant"
      value: 0
    }
  }
}
layer {
  name: "BatchNorm6"
  type: "BatchNorm"
  bottom: "Convolution6"
  top: "Convolution6"
  param {
    lr_mult: 0
    decay_mult: 0
  }
  param {
    lr_mult: 0
    decay_mult: 0
  }
  param {
    lr_mult: 0
    decay_mult: 0
  }
}
layer {
  name: "Scale6"
  type: "Scale"
  bottom: "Convolution6"
  top: "Convolution6"
  scale_param {
    bias_term: true
  }
}
layer {
  name: "ReLU6"
  type: "ReLU"
  bottom: "Convolution6"
  top: "Convolution6"
}
layer {
  name: "Convolution7"
  type: "Convolution"
  bottom: "Convolution6"
  top: "Convolution7"
  param {
    lr_mult: 1
    decay_mult: 1
  }
  param {
    lr_mult: 2
    decay_mult: 0
  }
  convolution_param {
    num_output: 16
    pad: 1
    kernel_size: 3
    stride: 1
    weight_filler {
      type: "msra"
    }
    bias_filler {
      type: "constant"
      value: 0
    }
  }
}
layer {
  name: "BatchNorm7"
  type: "BatchNorm"
  bottom: "Convolution7"
  top: "Convolution7"
  param {
    lr_mult: 0
    decay_mult: 0
  }
  param {
    lr_mult: 0
    decay_mult: 0
  }
  param {
    lr_mult: 0
    decay_mult: 0
  }
}
layer {
  name: "Scale7"
  type: "Scale"
  bottom: "Convolution7"
  top: "Convolution7"
  scale_param {
    bias_term: true
  }
}
layer {
  name: "Eltwise3"
  type: "Eltwise"
  bottom: "Eltwise2"
  bottom: "Convolution7"
  top: "Eltwise3"
  eltwise_param {
    operation: SUM
  }
}
layer {
  name: "ReLU7"
  type: "ReLU"
  bottom: "Eltwise3"
  top: "Eltwise3"
}
layer {
  name: "Convolution8"
  type: "Convolution"
  bottom: "Eltwise3"
  top: "Convolution8"
  param {
    lr_mult: 1
    decay_mult: 1
  }
  param {
    lr_mult: 2
    decay_mult: 0
  }
  convolution_param {
    num_output: 32
    pad: 0
    kernel_size: 1
    stride: 2
    weight_filler {
      type: "msra"
    }
    bias_filler {
      type: "constant"
      value: 0
    }
  }
}
layer {
  name: "BatchNorm8"
  type: "BatchNorm"
  bottom: "Convolution8"
  top: "Convolution8"
  param {
    lr_mult: 0
    decay_mult: 0
  }
  param {
    lr_mult: 0
    decay_mult: 0
  }
  param {
    lr_mult: 0
    decay_mult: 0
  }
}
layer {
  name: "Scale8"
  type: "Scale"
  bottom: "Convolution8"
  top: "Convolution8"
  scale_param {
    bias_term: true
  }
}
layer {
  name: "Convolution9"
  type: "Convolution"
  bottom: "Eltwise3"
  top: "Convolution9"
  param {
    lr_mult: 1
    decay_mult: 1
  }
  param {
    lr_mult: 2
    decay_mult: 0
  }
  convolution_param {
    num_output: 32
    pad: 1
    kernel_size: 3
    stride: 2
    weight_filler {
      type: "msra"
    }
    bias_filler {
      type: "constant"
      value: 0
    }
  }
}
layer {
  name: "BatchNorm9"
  type: "BatchNorm"
  bottom: "Convolution9"
  top: "Convolution9"
  param {
    lr_mult: 0
    decay_mult: 0
  }
  param {
    lr_mult: 0
    decay_mult: 0
  }
  param {
    lr_mult: 0
    decay_mult: 0
  }
}
layer {
  name: "Scale9"
  type: "Scale"
  bottom: "Convolution9"
  top: "Convolution9"
  scale_param {
    bias_term: true
  }
}
layer {
  name: "ReLU8"
  type: "ReLU"
  bottom: "Convolution9"
  top: "Convolution9"
}
layer {
  name: "Convolution10"
  type: "Convolution"
  bottom: "Convolution9"
  top: "Convolution10"
  param {
    lr_mult: 1
    decay_mult: 1
  }
  param {
    lr_mult: 2
    decay_mult: 0
  }
  convolution_param {
    num_output: 32
    pad: 1
    kernel_size: 3
    stride: 1
    weight_filler {
      type: "msra"
    }
    bias_filler {
      type: "constant"
      value: 0
    }
  }
}
layer {
  name: "BatchNorm10"
  type: "BatchNorm"
  bottom: "Convolution10"
  top: "Convolution10"
  param {
    lr_mult: 0
    decay_mult: 0
  }
  param {
    lr_mult: 0
    decay_mult: 0
  }
  param {
    lr_mult: 0
    decay_mult: 0
  }
}
layer {
  name: "Scale10"
  type: "Scale"
  bottom: "Convolution10"
  top: "Convolution10"
  scale_param {
    bias_term: true
  }
}
layer {
  name: "Eltwise4"
  type: "Eltwise"
  bottom: "Convolution8"
  bottom: "Convolution10"
  top: "Eltwise4"
  eltwise_param {
    operation: SUM
  }
}
layer {
  name: "ReLU9"
  type: "ReLU"
  bottom: "Eltwise4"
  top: "Eltwise4"
}
layer {
  name: "Convolution11"
  type: "Convolution"
  bottom: "Eltwise4"
  top: "Convolution11"
  param {
    lr_mult: 1
    decay_mult: 1
  }
  param {
    lr_mult: 2
    decay_mult: 0
  }
  convolution_param {
    num_output: 32
    pad: 1
    kernel_size: 3
    stride: 1
    weight_filler {
      type: "msra"
    }
    bias_filler {
      type: "constant"
      value: 0
    }
  }
}
layer {
  name: "BatchNorm11"
  type: "BatchNorm"
  bottom: "Convolution11"
  top: "Convolution11"
  param {
    lr_mult: 0
    decay_mult: 0
  }
  param {
    lr_mult: 0
    decay_mult: 0
  }
  param {
    lr_mult: 0
    decay_mult: 0
  }
}
layer {
  name: "Scale11"
  type: "Scale"
  bottom: "Convolution11"
  top: "Convolution11"
  scale_param {
    bias_term: true
  }
}
layer {
  name: "ReLU10"
  type: "ReLU"
  bottom: "Convolution11"
  top: "Convolution11"
}
layer {
  name: "Convolution12"
  type: "Convolution"
  bottom: "Convolution11"
  top: "Convolution12"
  param {
    lr_mult: 1
    decay_mult: 1
  }
  param {
    lr_mult: 2
    decay_mult: 0
  }
  convolution_param {
    num_output: 32
    pad: 1
    kernel_size: 3
    stride: 1
    weight_filler {
      type: "msra"
    }
    bias_filler {
      type: "constant"
      value: 0
    }
  }
}
layer {
  name: "BatchNorm12"
  type: "BatchNorm"
  bottom: "Convolution12"
  top: "Convolution12"
  param {
    lr_mult: 0
    decay_mult: 0
  }
  param {
    lr_mult: 0
    decay_mult: 0
  }
  param {
    lr_mult: 0
    decay_mult: 0
  }
}
layer {
  name: "Scale12"
  type: "Scale"
  bottom: "Convolution12"
  top: "Convolution12"
  scale_param {
    bias_term: true
  }
}
layer {
  name: "Eltwise5"
  type: "Eltwise"
  bottom: "Eltwise4"
  bottom: "Convolution12"
  top: "Eltwise5"
  eltwise_param {
    operation: SUM
  }
}
layer {
  name: "ReLU11"
  type: "ReLU"
  bottom: "Eltwise5"
  top: "Eltwise5"
}
layer {
  name: "Convolution13"
  type: "Convolution"
  bottom: "Eltwise5"
  top: "Convolution13"
  param {
    lr_mult: 1
    decay_mult: 1
  }
  param {
    lr_mult: 2
    decay_mult: 0
  }
  convolution_param {
    num_output: 32
    pad: 1
    kernel_size: 3
    stride: 1
    weight_filler {
      type: "msra"
    }
    bias_filler {
      type: "constant"
      value: 0
    }
  }
}
layer {
  name: "BatchNorm13"
  type: "BatchNorm"
  bottom: "Convolution13"
  top: "Convolution13"
  param {
    lr_mult: 0
    decay_mult: 0
  }
  param {
    lr_mult: 0
    decay_mult: 0
  }
  param {
    lr_mult: 0
    decay_mult: 0
  }
}
layer {
  name: "Scale13"
  type: "Scale"
  bottom: "Convolution13"
  top: "Convolution13"
  scale_param {
    bias_term: true
  }
}
layer {
  name: "ReLU12"
  type: "ReLU"
  bottom: "Convolution13"
  top: "Convolution13"
}
layer {
  name: "Convolution14"
  type: "Convolution"
  bottom: "Convolution13"
  top: "Convolution14"
  param {
    lr_mult: 1
    decay_mult: 1
  }
  param {
    lr_mult: 2
    decay_mult: 0
  }
  convolution_param {
    num_output: 32
    pad: 1
    kernel_size: 3
    stride: 1
    weight_filler {
      type: "msra"
    }
    bias_filler {
      type: "constant"
      value: 0
    }
  }
}
layer {
  name: "BatchNorm14"
  type: "BatchNorm"
  bottom: "Convolution14"
  top: "Convolution14"
  param {
    lr_mult: 0
    decay_mult: 0
  }
  param {
    lr_mult: 0
    decay_mult: 0
  }
  param {
    lr_mult: 0
    decay_mult: 0
  }
}
layer {
  name: "Scale14"
  type: "Scale"
  bottom: "Convolution14"
  top: "Convolution14"
  scale_param {
    bias_term: true
  }
}
layer {
  name: "Eltwise6"
  type: "Eltwise"
  bottom: "Eltwise5"
  bottom: "Convolution14"
  top: "Eltwise6"
  eltwise_param {
    operation: SUM
  }
}
layer {
  name: "ReLU13"
  type: "ReLU"
  bottom: "Eltwise6"
  top: "Eltwise6"
}
layer {
  name: "Convolution15"
  type: "Convolution"
  bottom: "Eltwise6"
  top: "Convolution15"
  param {
    lr_mult: 1
    decay_mult: 1
  }
  param {
    lr_mult: 2
    decay_mult: 0
  }
  convolution_param {
    num_output: 64
    pad: 0
    kernel_size: 1
    stride: 2
    weight_filler {
      type: "msra"
    }
    bias_filler {
      type: "constant"
      value: 0
    }
  }
}
layer {
  name: "BatchNorm15"
  type: "BatchNorm"
  bottom: "Convolution15"
  top: "Convolution15"
  param {
    lr_mult: 0
    decay_mult: 0
  }
  param {
    lr_mult: 0
    decay_mult: 0
  }
  param {
    lr_mult: 0
    decay_mult: 0
  }
}
layer {
  name: "Scale15"
  type: "Scale"
  bottom: "Convolution15"
  top: "Convolution15"
  scale_param {
    bias_term: true
  }
}
layer {
  name: "Convolution16"
  type: "Convolution"
  bottom: "Eltwise6"
  top: "Convolution16"
  param {
    lr_mult: 1
    decay_mult: 1
  }
  param {
    lr_mult: 2
    decay_mult: 0
  }
  convolution_param {
    num_output: 64
    pad: 1
    kernel_size: 3
    stride: 2
    weight_filler {
      type: "msra"
    }
    bias_filler {
      type: "constant"
      value: 0
    }
  }
}
layer {
  name: "BatchNorm16"
  type: "BatchNorm"
  bottom: "Convolution16"
  top: "Convolution16"
  param {
    lr_mult: 0
    decay_mult: 0
  }
  param {
    lr_mult: 0
    decay_mult: 0
  }
  param {
    lr_mult: 0
    decay_mult: 0
  }
}
layer {
  name: "Scale16"
  type: "Scale"
  bottom: "Convolution16"
  top: "Convolution16"
  scale_param {
    bias_term: true
  }
}
layer {
  name: "ReLU14"
  type: "ReLU"
  bottom: "Convolution16"
  top: "Convolution16"
}
layer {
  name: "Convolution17"
  type: "Convolution"
  bottom: "Convolution16"
  top: "Convolution17"
  param {
    lr_mult: 1
    decay_mult: 1
  }
  param {
    lr_mult: 2
    decay_mult: 0
  }
  convolution_param {
    num_output: 64
    pad: 1
    kernel_size: 3
    stride: 1
    weight_filler {
      type: "msra"
    }
    bias_filler {
      type: "constant"
      value: 0
    }
  }
}
layer {
  name: "BatchNorm17"
  type: "BatchNorm"
  bottom: "Convolution17"
  top: "Convolution17"
  param {
    lr_mult: 0
    decay_mult: 0
  }
  param {
    lr_mult: 0
    decay_mult: 0
  }
  param {
    lr_mult: 0
    decay_mult: 0
  }
}
layer {
  name: "Scale17"
  type: "Scale"
  bottom: "Convolution17"
  top: "Convolution17"
  scale_param {
    bias_term: true
  }
}
layer {
  name: "Eltwise7"
  type: "Eltwise"
  bottom: "Convolution15"
  bottom: "Convolution17"
  top: "Eltwise7"
  eltwise_param {
    operation: SUM
  }
}
layer {
  name: "ReLU15"
  type: "ReLU"
  bottom: "Eltwise7"
  top: "Eltwise7"
}
layer {
  name: "Convolution18"
  type: "Convolution"
  bottom: "Eltwise7"
  top: "Convolution18"
  param {
    lr_mult: 1
    decay_mult: 1
  }
  param {
    lr_mult: 2
    decay_mult: 0
  }
  convolution_param {
    num_output: 64
    pad: 1
    kernel_size: 3
    stride: 1
    weight_filler {
      type: "msra"
    }
    bias_filler {
      type: "constant"
      value: 0
    }
  }
}
layer {
  name: "BatchNorm18"
  type: "BatchNorm"
  bottom: "Convolution18"
  top: "Convolution18"
  param {
    lr_mult: 0
    decay_mult: 0
  }
  param {
    lr_mult: 0
    decay_mult: 0
  }
  param {
    lr_mult: 0
    decay_mult: 0
  }
}
layer {
  name: "Scale18"
  type: "Scale"
  bottom: "Convolution18"
  top: "Convolution18"
  scale_param {
    bias_term: true
  }
}
layer {
  name: "ReLU16"
  type: "ReLU"
  bottom: "Convolution18"
  top: "Convolution18"
}
layer {
  name: "Convolution19"
  type: "Convolution"
  bottom: "Convolution18"
  top: "Convolution19"
  param {
    lr_mult: 1
    decay_mult: 1
  }
  param {
    lr_mult: 2
    decay_mult: 0
  }
  convolution_param {
    num_output: 64
    pad: 1
    kernel_size: 3
    stride: 1
    weight_filler {
      type: "msra"
    }
    bias_filler {
      type: "constant"
      value: 0
    }
  }
}
layer {
  name: "BatchNorm19"
  type: "BatchNorm"
  bottom: "Convolution19"
  top: "Convolution19"
  param {
    lr_mult: 0
    decay_mult: 0
  }
  param {
    lr_mult: 0
    decay_mult: 0
  }
  param {
    lr_mult: 0
    decay_mult: 0
  }
}
layer {
  name: "Scale19"
  type: "Scale"
  bottom: "Convolution19"
  top: "Convolution19"
  scale_param {
    bias_term: true
  }
}
layer {
  name: "Eltwise8"
  type: "Eltwise"
  bottom: "Eltwise7"
  bottom: "Convolution19"
  top: "Eltwise8"
  eltwise_param {
    operation: SUM
  }
}
layer {
  name: "ReLU17"
  type: "ReLU"
  bottom: "Eltwise8"
  top: "Eltwise8"
}
layer {
  name: "Convolution20"
  type: "Convolution"
  bottom: "Eltwise8"
  top: "Convolution20"
  param {
    lr_mult: 1
    decay_mult: 1
  }
  param {
    lr_mult: 2
    decay_mult: 0
  }
  convolution_param {
    num_output: 64
    pad: 1
    kernel_size: 3
    stride: 1
    weight_filler {
      type: "msra"
    }
    bias_filler {
      type: "constant"
      value: 0
    }
  }
}
layer {
  name: "BatchNorm20"
  type: "BatchNorm"
  bottom: "Convolution20"
  top: "Convolution20"
  param {
    lr_mult: 0
    decay_mult: 0
  }
  param {
    lr_mult: 0
    decay_mult: 0
  }
  param {
    lr_mult: 0
    decay_mult: 0
  }
}
layer {
  name: "Scale20"
  type: "Scale"
  bottom: "Convolution20"
  top: "Convolution20"
  scale_param {
    bias_term: true
  }
}
layer {
  name: "ReLU18"
  type: "ReLU"
  bottom: "Convolution20"
  top: "Convolution20"
}
layer {
  name: "Convolution21"
  type: "Convolution"
  bottom: "Convolution20"
  top: "Convolution21"
  param {
    lr_mult: 1
    decay_mult: 1
  }
  param {
    lr_mult: 2
    decay_mult: 0
  }
  convolution_param {
    num_output: 64
    pad: 1
    kernel_size: 3
    stride: 1
    weight_filler {
      type: "msra"
    }
    bias_filler {
      type: "constant"
      value: 0
    }
  }
}
layer {
  name: "BatchNorm21"
  type: "BatchNorm"
  bottom: "Convolution21"
  top: "Convolution21"
  param {
    lr_mult: 0
    decay_mult: 0
  }
  param {
    lr_mult: 0
    decay_mult: 0
  }
  param {
    lr_mult: 0
    decay_mult: 0
  }
}
layer {
  name: "Scale21"
  type: "Scale"
  bottom: "Convolution21"
  top: "Convolution21"
  scale_param {
    bias_term: true
  }
}
layer {
  name: "Eltwise9"
  type: "Eltwise"
  bottom: "Eltwise8"
  bottom: "Convolution21"
  top: "Eltwise9"
  eltwise_param {
    operation: SUM
  }
}
layer {
  name: "ReLU19"
  type: "ReLU"
  bottom: "Eltwise9"
  top: "Eltwise9"
}
layer {
  name: "Pooling1"
  type: "Pooling"
  bottom: "Eltwise9"
  top: "Pooling1"
  pooling_param {
    pool: AVE
    global_pooling: true
  }
}
layer {
  name: "InnerProduct1"
  type: "InnerProduct"
  bottom: "Pooling1"
  top: "InnerProduct1"
  param {
    lr_mult: 1
    decay_mult: 1
  }
  param {
    lr_mult: 2
    decay_mult: 1
  }
  inner_product_param {
    num_output: 10
    weight_filler {
      type: "msra"
    }
    bias_filler {
      type: "constant"
      value: 0
    }
  }
}
layer {
  name: "SoftmaxWithLoss1"
  type: "SoftmaxWithLoss"
  bottom: "InnerProduct1"
  bottom: "Data2"
  top: "SoftmaxWithLoss1"
}
layer {
  name: "Accuracy1"
  type: "Accuracy"
  bottom: "InnerProduct1"
  bottom: "Data2"
  top: "Accuracy1"
  include {
    phase: TEST
  }
}
I0825 11:09:03.170645  1476 layer_factory.hpp:77] Creating layer Data1
I0825 11:09:03.216205  1476 db_lmdb.cpp:35] Opened lmdb /home/lijianfei/datasets/cifar10_40/test_lmdb
I0825 11:09:03.221586  1476 net.cpp:128] Creating Layer Data1
I0825 11:09:03.221658  1476 net.cpp:522] Data1 -> Data1
I0825 11:09:03.221704  1476 net.cpp:522] Data1 -> Data2
I0825 11:09:03.222268  1476 data_layer.cpp:45] output data size: 10,3,32,32
I0825 11:09:03.224807  1476 net.cpp:172] Setting up Data1
I0825 11:09:03.224882  1476 net.cpp:186] Top shape: 10 3 32 32 (30720)
I0825 11:09:03.224915  1476 net.cpp:186] Top shape: 10 (10)
I0825 11:09:03.224938  1476 net.cpp:194] Memory required for data: 122920
I0825 11:09:03.224961  1476 layer_factory.hpp:77] Creating layer Data2_Data1_1_split
I0825 11:09:03.224994  1476 net.cpp:128] Creating Layer Data2_Data1_1_split
I0825 11:09:03.225021  1476 net.cpp:558] Data2_Data1_1_split <- Data2
I0825 11:09:03.225051  1476 net.cpp:522] Data2_Data1_1_split -> Data2_Data1_1_split_0
I0825 11:09:03.225096  1476 net.cpp:522] Data2_Data1_1_split -> Data2_Data1_1_split_1
I0825 11:09:03.225419  1476 net.cpp:172] Setting up Data2_Data1_1_split
I0825 11:09:03.225455  1476 net.cpp:186] Top shape: 10 (10)
I0825 11:09:03.225463  1476 net.cpp:186] Top shape: 10 (10)
I0825 11:09:03.225469  1476 net.cpp:194] Memory required for data: 123000
I0825 11:09:03.225478  1476 layer_factory.hpp:77] Creating layer Convolution1
I0825 11:09:03.225517  1476 net.cpp:128] Creating Layer Convolution1
I0825 11:09:03.225525  1476 net.cpp:558] Convolution1 <- Data1
I0825 11:09:03.225543  1476 net.cpp:522] Convolution1 -> Convolution1
I0825 11:09:03.255484  1476 net.cpp:172] Setting up Convolution1
I0825 11:09:03.255556  1476 net.cpp:186] Top shape: 10 16 32 32 (163840)
I0825 11:09:03.255575  1476 net.cpp:194] Memory required for data: 778360
I0825 11:09:03.255626  1476 layer_factory.hpp:77] Creating layer BatchNorm1
I0825 11:09:03.255666  1476 net.cpp:128] Creating Layer BatchNorm1
I0825 11:09:03.255693  1476 net.cpp:558] BatchNorm1 <- Convolution1
I0825 11:09:03.255728  1476 net.cpp:509] BatchNorm1 -> Convolution1 (in-place)
I0825 11:09:03.256858  1476 net.cpp:172] Setting up BatchNorm1
I0825 11:09:03.256902  1476 net.cpp:186] Top shape: 10 16 32 32 (163840)
I0825 11:09:03.256920  1476 net.cpp:194] Memory required for data: 1433720
I0825 11:09:03.256983  1476 layer_factory.hpp:77] Creating layer Scale1
I0825 11:09:03.257026  1476 net.cpp:128] Creating Layer Scale1
I0825 11:09:03.257050  1476 net.cpp:558] Scale1 <- Convolution1
I0825 11:09:03.257076  1476 net.cpp:509] Scale1 -> Convolution1 (in-place)
I0825 11:09:03.257283  1476 layer_factory.hpp:77] Creating layer Scale1
I0825 11:09:03.257889  1476 net.cpp:172] Setting up Scale1
I0825 11:09:03.257928  1476 net.cpp:186] Top shape: 10 16 32 32 (163840)
I0825 11:09:03.257958  1476 net.cpp:194] Memory required for data: 2089080
I0825 11:09:03.257992  1476 layer_factory.hpp:77] Creating layer ReLU1
I0825 11:09:03.258031  1476 net.cpp:128] Creating Layer ReLU1
I0825 11:09:03.258061  1476 net.cpp:558] ReLU1 <- Convolution1
I0825 11:09:03.258086  1476 net.cpp:509] ReLU1 -> Convolution1 (in-place)
I0825 11:09:03.259057  1476 net.cpp:172] Setting up ReLU1
I0825 11:09:03.259111  1476 net.cpp:186] Top shape: 10 16 32 32 (163840)
I0825 11:09:03.259130  1476 net.cpp:194] Memory required for data: 2744440
I0825 11:09:03.259150  1476 layer_factory.hpp:77] Creating layer Convolution1_ReLU1_0_split
I0825 11:09:03.259189  1476 net.cpp:128] Creating Layer Convolution1_ReLU1_0_split
I0825 11:09:03.259217  1476 net.cpp:558] Convolution1_ReLU1_0_split <- Convolution1
I0825 11:09:03.259251  1476 net.cpp:522] Convolution1_ReLU1_0_split -> Convolution1_ReLU1_0_split_0
I0825 11:09:03.259291  1476 net.cpp:522] Convolution1_ReLU1_0_split -> Convolution1_ReLU1_0_split_1
I0825 11:09:03.259501  1476 net.cpp:172] Setting up Convolution1_ReLU1_0_split
I0825 11:09:03.259544  1476 net.cpp:186] Top shape: 10 16 32 32 (163840)
I0825 11:09:03.259577  1476 net.cpp:186] Top shape: 10 16 32 32 (163840)
I0825 11:09:03.259598  1476 net.cpp:194] Memory required for data: 4055160
I0825 11:09:03.259618  1476 layer_factory.hpp:77] Creating layer Convolution2
I0825 11:09:03.259666  1476 net.cpp:128] Creating Layer Convolution2
I0825 11:09:03.259687  1476 net.cpp:558] Convolution2 <- Convolution1_ReLU1_0_split_0
I0825 11:09:03.259737  1476 net.cpp:522] Convolution2 -> Convolution2
I0825 11:09:03.264734  1476 net.cpp:172] Setting up Convolution2
I0825 11:09:03.264809  1476 net.cpp:186] Top shape: 10 16 32 32 (163840)
I0825 11:09:03.264828  1476 net.cpp:194] Memory required for data: 4710520
I0825 11:09:03.264885  1476 layer_factory.hpp:77] Creating layer BatchNorm2
I0825 11:09:03.264927  1476 net.cpp:128] Creating Layer BatchNorm2
I0825 11:09:03.264955  1476 net.cpp:558] BatchNorm2 <- Convolution2
I0825 11:09:03.264986  1476 net.cpp:509] BatchNorm2 -> Convolution2 (in-place)
I0825 11:09:03.266089  1476 net.cpp:172] Setting up BatchNorm2
I0825 11:09:03.266132  1476 net.cpp:186] Top shape: 10 16 32 32 (163840)
I0825 11:09:03.266150  1476 net.cpp:194] Memory required for data: 5365880
I0825 11:09:03.266192  1476 layer_factory.hpp:77] Creating layer Scale2
I0825 11:09:03.266221  1476 net.cpp:128] Creating Layer Scale2
I0825 11:09:03.266238  1476 net.cpp:558] Scale2 <- Convolution2
I0825 11:09:03.266279  1476 net.cpp:509] Scale2 -> Convolution2 (in-place)
I0825 11:09:03.266537  1476 layer_factory.hpp:77] Creating layer Scale2
I0825 11:09:03.266773  1476 net.cpp:172] Setting up Scale2
I0825 11:09:03.266788  1476 net.cpp:186] Top shape: 10 16 32 32 (163840)
I0825 11:09:03.266791  1476 net.cpp:194] Memory required for data: 6021240
I0825 11:09:03.266800  1476 layer_factory.hpp:77] Creating layer ReLU2
I0825 11:09:03.266806  1476 net.cpp:128] Creating Layer ReLU2
I0825 11:09:03.266813  1476 net.cpp:558] ReLU2 <- Convolution2
I0825 11:09:03.266819  1476 net.cpp:509] ReLU2 -> Convolution2 (in-place)
I0825 11:09:03.267257  1476 net.cpp:172] Setting up ReLU2
I0825 11:09:03.267278  1476 net.cpp:186] Top shape: 10 16 32 32 (163840)
I0825 11:09:03.267283  1476 net.cpp:194] Memory required for data: 6676600
I0825 11:09:03.267288  1476 layer_factory.hpp:77] Creating layer Convolution3
I0825 11:09:03.267303  1476 net.cpp:128] Creating Layer Convolution3
I0825 11:09:03.267308  1476 net.cpp:558] Convolution3 <- Convolution2
I0825 11:09:03.267316  1476 net.cpp:522] Convolution3 -> Convolution3
I0825 11:09:03.268623  1476 net.cpp:172] Setting up Convolution3
I0825 11:09:03.268648  1476 net.cpp:186] Top shape: 10 16 32 32 (163840)
I0825 11:09:03.268653  1476 net.cpp:194] Memory required for data: 7331960
I0825 11:09:03.268663  1476 layer_factory.hpp:77] Creating layer BatchNorm3
I0825 11:09:03.268673  1476 net.cpp:128] Creating Layer BatchNorm3
I0825 11:09:03.268678  1476 net.cpp:558] BatchNorm3 <- Convolution3
I0825 11:09:03.268692  1476 net.cpp:509] BatchNorm3 -> Convolution3 (in-place)
I0825 11:09:03.268962  1476 net.cpp:172] Setting up BatchNorm3
I0825 11:09:03.268975  1476 net.cpp:186] Top shape: 10 16 32 32 (163840)
I0825 11:09:03.268980  1476 net.cpp:194] Memory required for data: 7987320
I0825 11:09:03.268993  1476 layer_factory.hpp:77] Creating layer Scale3
I0825 11:09:03.269001  1476 net.cpp:128] Creating Layer Scale3
I0825 11:09:03.269004  1476 net.cpp:558] Scale3 <- Convolution3
I0825 11:09:03.269011  1476 net.cpp:509] Scale3 -> Convolution3 (in-place)
I0825 11:09:03.269062  1476 layer_factory.hpp:77] Creating layer Scale3
I0825 11:09:03.269212  1476 net.cpp:172] Setting up Scale3
I0825 11:09:03.269219  1476 net.cpp:186] Top shape: 10 16 32 32 (163840)
I0825 11:09:03.269223  1476 net.cpp:194] Memory required for data: 8642680
I0825 11:09:03.269232  1476 layer_factory.hpp:77] Creating layer Eltwise1
I0825 11:09:03.269240  1476 net.cpp:128] Creating Layer Eltwise1
I0825 11:09:03.269245  1476 net.cpp:558] Eltwise1 <- Convolution1_ReLU1_0_split_1
I0825 11:09:03.269250  1476 net.cpp:558] Eltwise1 <- Convolution3
I0825 11:09:03.269256  1476 net.cpp:522] Eltwise1 -> Eltwise1
I0825 11:09:03.269286  1476 net.cpp:172] Setting up Eltwise1
I0825 11:09:03.269294  1476 net.cpp:186] Top shape: 10 16 32 32 (163840)
I0825 11:09:03.269297  1476 net.cpp:194] Memory required for data: 9298040
I0825 11:09:03.269302  1476 layer_factory.hpp:77] Creating layer ReLU3
I0825 11:09:03.269307  1476 net.cpp:128] Creating Layer ReLU3
I0825 11:09:03.269312  1476 net.cpp:558] ReLU3 <- Eltwise1
I0825 11:09:03.269320  1476 net.cpp:509] ReLU3 -> Eltwise1 (in-place)
I0825 11:09:03.269558  1476 net.cpp:172] Setting up ReLU3
I0825 11:09:03.269573  1476 net.cpp:186] Top shape: 10 16 32 32 (163840)
I0825 11:09:03.269578  1476 net.cpp:194] Memory required for data: 9953400
I0825 11:09:03.269582  1476 layer_factory.hpp:77] Creating layer Eltwise1_ReLU3_0_split
I0825 11:09:03.269594  1476 net.cpp:128] Creating Layer Eltwise1_ReLU3_0_split
I0825 11:09:03.269599  1476 net.cpp:558] Eltwise1_ReLU3_0_split <- Eltwise1
I0825 11:09:03.269606  1476 net.cpp:522] Eltwise1_ReLU3_0_split -> Eltwise1_ReLU3_0_split_0
I0825 11:09:03.269615  1476 net.cpp:522] Eltwise1_ReLU3_0_split -> Eltwise1_ReLU3_0_split_1
I0825 11:09:03.269668  1476 net.cpp:172] Setting up Eltwise1_ReLU3_0_split
I0825 11:09:03.269675  1476 net.cpp:186] Top shape: 10 16 32 32 (163840)
I0825 11:09:03.269681  1476 net.cpp:186] Top shape: 10 16 32 32 (163840)
I0825 11:09:03.269685  1476 net.cpp:194] Memory required for data: 11264120
I0825 11:09:03.269690  1476 layer_factory.hpp:77] Creating layer Convolution4
I0825 11:09:03.269701  1476 net.cpp:128] Creating Layer Convolution4
I0825 11:09:03.269721  1476 net.cpp:558] Convolution4 <- Eltwise1_ReLU3_0_split_0
I0825 11:09:03.269731  1476 net.cpp:522] Convolution4 -> Convolution4
I0825 11:09:03.271037  1476 net.cpp:172] Setting up Convolution4
I0825 11:09:03.271060  1476 net.cpp:186] Top shape: 10 16 32 32 (163840)
I0825 11:09:03.271064  1476 net.cpp:194] Memory required for data: 11919480
I0825 11:09:03.271075  1476 layer_factory.hpp:77] Creating layer BatchNorm4
I0825 11:09:03.271082  1476 net.cpp:128] Creating Layer BatchNorm4
I0825 11:09:03.271087  1476 net.cpp:558] BatchNorm4 <- Convolution4
I0825 11:09:03.271096  1476 net.cpp:509] BatchNorm4 -> Convolution4 (in-place)
I0825 11:09:03.271370  1476 net.cpp:172] Setting up BatchNorm4
I0825 11:09:03.271384  1476 net.cpp:186] Top shape: 10 16 32 32 (163840)
I0825 11:09:03.271387  1476 net.cpp:194] Memory required for data: 12574840
I0825 11:09:03.271397  1476 layer_factory.hpp:77] Creating layer Scale4
I0825 11:09:03.271404  1476 net.cpp:128] Creating Layer Scale4
I0825 11:09:03.271409  1476 net.cpp:558] Scale4 <- Convolution4
I0825 11:09:03.271417  1476 net.cpp:509] Scale4 -> Convolution4 (in-place)
I0825 11:09:03.271464  1476 layer_factory.hpp:77] Creating layer Scale4
I0825 11:09:03.271612  1476 net.cpp:172] Setting up Scale4
I0825 11:09:03.271622  1476 net.cpp:186] Top shape: 10 16 32 32 (163840)
I0825 11:09:03.271627  1476 net.cpp:194] Memory required for data: 13230200
I0825 11:09:03.271636  1476 layer_factory.hpp:77] Creating layer ReLU4
I0825 11:09:03.271641  1476 net.cpp:128] Creating Layer ReLU4
I0825 11:09:03.271646  1476 net.cpp:558] ReLU4 <- Convolution4
I0825 11:09:03.271651  1476 net.cpp:509] ReLU4 -> Convolution4 (in-place)
I0825 11:09:03.271894  1476 net.cpp:172] Setting up ReLU4
I0825 11:09:03.271911  1476 net.cpp:186] Top shape: 10 16 32 32 (163840)
I0825 11:09:03.271916  1476 net.cpp:194] Memory required for data: 13885560
I0825 11:09:03.271920  1476 layer_factory.hpp:77] Creating layer Convolution5
I0825 11:09:03.271934  1476 net.cpp:128] Creating Layer Convolution5
I0825 11:09:03.271939  1476 net.cpp:558] Convolution5 <- Convolution4
I0825 11:09:03.271948  1476 net.cpp:522] Convolution5 -> Convolution5
I0825 11:09:03.273234  1476 net.cpp:172] Setting up Convolution5
I0825 11:09:03.273257  1476 net.cpp:186] Top shape: 10 16 32 32 (163840)
I0825 11:09:03.273262  1476 net.cpp:194] Memory required for data: 14540920
I0825 11:09:03.273272  1476 layer_factory.hpp:77] Creating layer BatchNorm5
I0825 11:09:03.273281  1476 net.cpp:128] Creating Layer BatchNorm5
I0825 11:09:03.273288  1476 net.cpp:558] BatchNorm5 <- Convolution5
I0825 11:09:03.273296  1476 net.cpp:509] BatchNorm5 -> Convolution5 (in-place)
I0825 11:09:03.273568  1476 net.cpp:172] Setting up BatchNorm5
I0825 11:09:03.273579  1476 net.cpp:186] Top shape: 10 16 32 32 (163840)
I0825 11:09:03.273583  1476 net.cpp:194] Memory required for data: 15196280
I0825 11:09:03.273598  1476 layer_factory.hpp:77] Creating layer Scale5
I0825 11:09:03.273607  1476 net.cpp:128] Creating Layer Scale5
I0825 11:09:03.273610  1476 net.cpp:558] Scale5 <- Convolution5
I0825 11:09:03.273617  1476 net.cpp:509] Scale5 -> Convolution5 (in-place)
I0825 11:09:03.273666  1476 layer_factory.hpp:77] Creating layer Scale5
I0825 11:09:03.273816  1476 net.cpp:172] Setting up Scale5
I0825 11:09:03.273825  1476 net.cpp:186] Top shape: 10 16 32 32 (163840)
I0825 11:09:03.273829  1476 net.cpp:194] Memory required for data: 15851640
I0825 11:09:03.273836  1476 layer_factory.hpp:77] Creating layer Eltwise2
I0825 11:09:03.273845  1476 net.cpp:128] Creating Layer Eltwise2
I0825 11:09:03.273850  1476 net.cpp:558] Eltwise2 <- Eltwise1_ReLU3_0_split_1
I0825 11:09:03.273855  1476 net.cpp:558] Eltwise2 <- Convolution5
I0825 11:09:03.273861  1476 net.cpp:522] Eltwise2 -> Eltwise2
I0825 11:09:03.273890  1476 net.cpp:172] Setting up Eltwise2
I0825 11:09:03.273896  1476 net.cpp:186] Top shape: 10 16 32 32 (163840)
I0825 11:09:03.273902  1476 net.cpp:194] Memory required for data: 16507000
I0825 11:09:03.273906  1476 layer_factory.hpp:77] Creating layer ReLU5
I0825 11:09:03.273928  1476 net.cpp:128] Creating Layer ReLU5
I0825 11:09:03.273932  1476 net.cpp:558] ReLU5 <- Eltwise2
I0825 11:09:03.273941  1476 net.cpp:509] ReLU5 -> Eltwise2 (in-place)
I0825 11:09:03.274385  1476 net.cpp:172] Setting up ReLU5
I0825 11:09:03.274408  1476 net.cpp:186] Top shape: 10 16 32 32 (163840)
I0825 11:09:03.274413  1476 net.cpp:194] Memory required for data: 17162360
I0825 11:09:03.274418  1476 layer_factory.hpp:77] Creating layer Eltwise2_ReLU5_0_split
I0825 11:09:03.274427  1476 net.cpp:128] Creating Layer Eltwise2_ReLU5_0_split
I0825 11:09:03.274433  1476 net.cpp:558] Eltwise2_ReLU5_0_split <- Eltwise2
I0825 11:09:03.274441  1476 net.cpp:522] Eltwise2_ReLU5_0_split -> Eltwise2_ReLU5_0_split_0
I0825 11:09:03.274448  1476 net.cpp:522] Eltwise2_ReLU5_0_split -> Eltwise2_ReLU5_0_split_1
I0825 11:09:03.274507  1476 net.cpp:172] Setting up Eltwise2_ReLU5_0_split
I0825 11:09:03.274514  1476 net.cpp:186] Top shape: 10 16 32 32 (163840)
I0825 11:09:03.274520  1476 net.cpp:186] Top shape: 10 16 32 32 (163840)
I0825 11:09:03.274524  1476 net.cpp:194] Memory required for data: 18473080
I0825 11:09:03.274528  1476 layer_factory.hpp:77] Creating layer Convolution6
I0825 11:09:03.274541  1476 net.cpp:128] Creating Layer Convolution6
I0825 11:09:03.274547  1476 net.cpp:558] Convolution6 <- Eltwise2_ReLU5_0_split_0
I0825 11:09:03.274554  1476 net.cpp:522] Convolution6 -> Convolution6
I0825 11:09:03.275921  1476 net.cpp:172] Setting up Convolution6
I0825 11:09:03.275944  1476 net.cpp:186] Top shape: 10 16 32 32 (163840)
I0825 11:09:03.275949  1476 net.cpp:194] Memory required for data: 19128440
I0825 11:09:03.275961  1476 layer_factory.hpp:77] Creating layer BatchNorm6
I0825 11:09:03.275971  1476 net.cpp:128] Creating Layer BatchNorm6
I0825 11:09:03.275977  1476 net.cpp:558] BatchNorm6 <- Convolution6
I0825 11:09:03.275986  1476 net.cpp:509] BatchNorm6 -> Convolution6 (in-place)
I0825 11:09:03.276263  1476 net.cpp:172] Setting up BatchNorm6
I0825 11:09:03.276275  1476 net.cpp:186] Top shape: 10 16 32 32 (163840)
I0825 11:09:03.276279  1476 net.cpp:194] Memory required for data: 19783800
I0825 11:09:03.276289  1476 layer_factory.hpp:77] Creating layer Scale6
I0825 11:09:03.276301  1476 net.cpp:128] Creating Layer Scale6
I0825 11:09:03.276306  1476 net.cpp:558] Scale6 <- Convolution6
I0825 11:09:03.276312  1476 net.cpp:509] Scale6 -> Convolution6 (in-place)
I0825 11:09:03.276362  1476 layer_factory.hpp:77] Creating layer Scale6
I0825 11:09:03.276511  1476 net.cpp:172] Setting up Scale6
I0825 11:09:03.276522  1476 net.cpp:186] Top shape: 10 16 32 32 (163840)
I0825 11:09:03.276527  1476 net.cpp:194] Memory required for data: 20439160
I0825 11:09:03.276535  1476 layer_factory.hpp:77] Creating layer ReLU6
I0825 11:09:03.276541  1476 net.cpp:128] Creating Layer ReLU6
I0825 11:09:03.276546  1476 net.cpp:558] ReLU6 <- Convolution6
I0825 11:09:03.276553  1476 net.cpp:509] ReLU6 -> Convolution6 (in-place)
I0825 11:09:03.276787  1476 net.cpp:172] Setting up ReLU6
I0825 11:09:03.276803  1476 net.cpp:186] Top shape: 10 16 32 32 (163840)
I0825 11:09:03.276809  1476 net.cpp:194] Memory required for data: 21094520
I0825 11:09:03.276813  1476 layer_factory.hpp:77] Creating layer Convolution7
I0825 11:09:03.276826  1476 net.cpp:128] Creating Layer Convolution7
I0825 11:09:03.276831  1476 net.cpp:558] Convolution7 <- Convolution6
I0825 11:09:03.276840  1476 net.cpp:522] Convolution7 -> Convolution7
I0825 11:09:03.278151  1476 net.cpp:172] Setting up Convolution7
I0825 11:09:03.278177  1476 net.cpp:186] Top shape: 10 16 32 32 (163840)
I0825 11:09:03.278182  1476 net.cpp:194] Memory required for data: 21749880
I0825 11:09:03.278192  1476 layer_factory.hpp:77] Creating layer BatchNorm7
I0825 11:09:03.278205  1476 net.cpp:128] Creating Layer BatchNorm7
I0825 11:09:03.278210  1476 net.cpp:558] BatchNorm7 <- Convolution7
I0825 11:09:03.278220  1476 net.cpp:509] BatchNorm7 -> Convolution7 (in-place)
I0825 11:09:03.278517  1476 net.cpp:172] Setting up BatchNorm7
I0825 11:09:03.278528  1476 net.cpp:186] Top shape: 10 16 32 32 (163840)
I0825 11:09:03.278549  1476 net.cpp:194] Memory required for data: 22405240
I0825 11:09:03.278560  1476 layer_factory.hpp:77] Creating layer Scale7
I0825 11:09:03.278570  1476 net.cpp:128] Creating Layer Scale7
I0825 11:09:03.278575  1476 net.cpp:558] Scale7 <- Convolution7
I0825 11:09:03.278582  1476 net.cpp:509] Scale7 -> Convolution7 (in-place)
I0825 11:09:03.278635  1476 layer_factory.hpp:77] Creating layer Scale7
I0825 11:09:03.278795  1476 net.cpp:172] Setting up Scale7
I0825 11:09:03.278803  1476 net.cpp:186] Top shape: 10 16 32 32 (163840)
I0825 11:09:03.278807  1476 net.cpp:194] Memory required for data: 23060600
I0825 11:09:03.278815  1476 layer_factory.hpp:77] Creating layer Eltwise3
I0825 11:09:03.278825  1476 net.cpp:128] Creating Layer Eltwise3
I0825 11:09:03.278829  1476 net.cpp:558] Eltwise3 <- Eltwise2_ReLU5_0_split_1
I0825 11:09:03.278834  1476 net.cpp:558] Eltwise3 <- Convolution7
I0825 11:09:03.278841  1476 net.cpp:522] Eltwise3 -> Eltwise3
I0825 11:09:03.278869  1476 net.cpp:172] Setting up Eltwise3
I0825 11:09:03.278877  1476 net.cpp:186] Top shape: 10 16 32 32 (163840)
I0825 11:09:03.278880  1476 net.cpp:194] Memory required for data: 23715960
I0825 11:09:03.278885  1476 layer_factory.hpp:77] Creating layer ReLU7
I0825 11:09:03.278892  1476 net.cpp:128] Creating Layer ReLU7
I0825 11:09:03.278895  1476 net.cpp:558] ReLU7 <- Eltwise3
I0825 11:09:03.278903  1476 net.cpp:509] ReLU7 -> Eltwise3 (in-place)
I0825 11:09:03.279145  1476 net.cpp:172] Setting up ReLU7
I0825 11:09:03.279158  1476 net.cpp:186] Top shape: 10 16 32 32 (163840)
I0825 11:09:03.279163  1476 net.cpp:194] Memory required for data: 24371320
I0825 11:09:03.279167  1476 layer_factory.hpp:77] Creating layer Eltwise3_ReLU7_0_split
I0825 11:09:03.279176  1476 net.cpp:128] Creating Layer Eltwise3_ReLU7_0_split
I0825 11:09:03.279181  1476 net.cpp:558] Eltwise3_ReLU7_0_split <- Eltwise3
I0825 11:09:03.279188  1476 net.cpp:522] Eltwise3_ReLU7_0_split -> Eltwise3_ReLU7_0_split_0
I0825 11:09:03.279196  1476 net.cpp:522] Eltwise3_ReLU7_0_split -> Eltwise3_ReLU7_0_split_1
I0825 11:09:03.279250  1476 net.cpp:172] Setting up Eltwise3_ReLU7_0_split
I0825 11:09:03.279258  1476 net.cpp:186] Top shape: 10 16 32 32 (163840)
I0825 11:09:03.279263  1476 net.cpp:186] Top shape: 10 16 32 32 (163840)
I0825 11:09:03.279268  1476 net.cpp:194] Memory required for data: 25682040
I0825 11:09:03.279273  1476 layer_factory.hpp:77] Creating layer Convolution8
I0825 11:09:03.279285  1476 net.cpp:128] Creating Layer Convolution8
I0825 11:09:03.279290  1476 net.cpp:558] Convolution8 <- Eltwise3_ReLU7_0_split_0
I0825 11:09:03.279299  1476 net.cpp:522] Convolution8 -> Convolution8
I0825 11:09:03.280596  1476 net.cpp:172] Setting up Convolution8
I0825 11:09:03.280622  1476 net.cpp:186] Top shape: 10 32 16 16 (81920)
I0825 11:09:03.280627  1476 net.cpp:194] Memory required for data: 26009720
I0825 11:09:03.280639  1476 layer_factory.hpp:77] Creating layer BatchNorm8
I0825 11:09:03.280653  1476 net.cpp:128] Creating Layer BatchNorm8
I0825 11:09:03.280658  1476 net.cpp:558] BatchNorm8 <- Convolution8
I0825 11:09:03.280668  1476 net.cpp:509] BatchNorm8 -> Convolution8 (in-place)
I0825 11:09:03.280941  1476 net.cpp:172] Setting up BatchNorm8
I0825 11:09:03.280951  1476 net.cpp:186] Top shape: 10 32 16 16 (81920)
I0825 11:09:03.280954  1476 net.cpp:194] Memory required for data: 26337400
I0825 11:09:03.280964  1476 layer_factory.hpp:77] Creating layer Scale8
I0825 11:09:03.280972  1476 net.cpp:128] Creating Layer Scale8
I0825 11:09:03.280975  1476 net.cpp:558] Scale8 <- Convolution8
I0825 11:09:03.280982  1476 net.cpp:509] Scale8 -> Convolution8 (in-place)
I0825 11:09:03.281031  1476 layer_factory.hpp:77] Creating layer Scale8
I0825 11:09:03.281184  1476 net.cpp:172] Setting up Scale8
I0825 11:09:03.281194  1476 net.cpp:186] Top shape: 10 32 16 16 (81920)
I0825 11:09:03.281198  1476 net.cpp:194] Memory required for data: 26665080
I0825 11:09:03.281206  1476 layer_factory.hpp:77] Creating layer Convolution9
I0825 11:09:03.281219  1476 net.cpp:128] Creating Layer Convolution9
I0825 11:09:03.281239  1476 net.cpp:558] Convolution9 <- Eltwise3_ReLU7_0_split_1
I0825 11:09:03.281249  1476 net.cpp:522] Convolution9 -> Convolution9
I0825 11:09:03.282619  1476 net.cpp:172] Setting up Convolution9
I0825 11:09:03.282645  1476 net.cpp:186] Top shape: 10 32 16 16 (81920)
I0825 11:09:03.282649  1476 net.cpp:194] Memory required for data: 26992760
I0825 11:09:03.282660  1476 layer_factory.hpp:77] Creating layer BatchNorm9
I0825 11:09:03.282675  1476 net.cpp:128] Creating Layer BatchNorm9
I0825 11:09:03.282680  1476 net.cpp:558] BatchNorm9 <- Convolution9
I0825 11:09:03.282687  1476 net.cpp:509] BatchNorm9 -> Convolution9 (in-place)
I0825 11:09:03.282958  1476 net.cpp:172] Setting up BatchNorm9
I0825 11:09:03.282968  1476 net.cpp:186] Top shape: 10 32 16 16 (81920)
I0825 11:09:03.282971  1476 net.cpp:194] Memory required for data: 27320440
I0825 11:09:03.282981  1476 layer_factory.hpp:77] Creating layer Scale9
I0825 11:09:03.282990  1476 net.cpp:128] Creating Layer Scale9
I0825 11:09:03.282995  1476 net.cpp:558] Scale9 <- Convolution9
I0825 11:09:03.283000  1476 net.cpp:509] Scale9 -> Convolution9 (in-place)
I0825 11:09:03.283053  1476 layer_factory.hpp:77] Creating layer Scale9
I0825 11:09:03.283207  1476 net.cpp:172] Setting up Scale9
I0825 11:09:03.283217  1476 net.cpp:186] Top shape: 10 32 16 16 (81920)
I0825 11:09:03.283221  1476 net.cpp:194] Memory required for data: 27648120
I0825 11:09:03.283229  1476 layer_factory.hpp:77] Creating layer ReLU8
I0825 11:09:03.283236  1476 net.cpp:128] Creating Layer ReLU8
I0825 11:09:03.283241  1476 net.cpp:558] ReLU8 <- Convolution9
I0825 11:09:03.283248  1476 net.cpp:509] ReLU8 -> Convolution9 (in-place)
I0825 11:09:03.283486  1476 net.cpp:172] Setting up ReLU8
I0825 11:09:03.283499  1476 net.cpp:186] Top shape: 10 32 16 16 (81920)
I0825 11:09:03.283504  1476 net.cpp:194] Memory required for data: 27975800
I0825 11:09:03.283509  1476 layer_factory.hpp:77] Creating layer Convolution10
I0825 11:09:03.283520  1476 net.cpp:128] Creating Layer Convolution10
I0825 11:09:03.283527  1476 net.cpp:558] Convolution10 <- Convolution9
I0825 11:09:03.283536  1476 net.cpp:522] Convolution10 -> Convolution10
I0825 11:09:03.284966  1476 net.cpp:172] Setting up Convolution10
I0825 11:09:03.284991  1476 net.cpp:186] Top shape: 10 32 16 16 (81920)
I0825 11:09:03.284996  1476 net.cpp:194] Memory required for data: 28303480
I0825 11:09:03.285023  1476 layer_factory.hpp:77] Creating layer BatchNorm10
I0825 11:09:03.285034  1476 net.cpp:128] Creating Layer BatchNorm10
I0825 11:09:03.285040  1476 net.cpp:558] BatchNorm10 <- Convolution10
I0825 11:09:03.285048  1476 net.cpp:509] BatchNorm10 -> Convolution10 (in-place)
I0825 11:09:03.285320  1476 net.cpp:172] Setting up BatchNorm10
I0825 11:09:03.285329  1476 net.cpp:186] Top shape: 10 32 16 16 (81920)
I0825 11:09:03.285333  1476 net.cpp:194] Memory required for data: 28631160
I0825 11:09:03.285343  1476 layer_factory.hpp:77] Creating layer Scale10
I0825 11:09:03.285351  1476 net.cpp:128] Creating Layer Scale10
I0825 11:09:03.285356  1476 net.cpp:558] Scale10 <- Convolution10
I0825 11:09:03.285360  1476 net.cpp:509] Scale10 -> Convolution10 (in-place)
I0825 11:09:03.285413  1476 layer_factory.hpp:77] Creating layer Scale10
I0825 11:09:03.285567  1476 net.cpp:172] Setting up Scale10
I0825 11:09:03.285576  1476 net.cpp:186] Top shape: 10 32 16 16 (81920)
I0825 11:09:03.285580  1476 net.cpp:194] Memory required for data: 28958840
I0825 11:09:03.285588  1476 layer_factory.hpp:77] Creating layer Eltwise4
I0825 11:09:03.285598  1476 net.cpp:128] Creating Layer Eltwise4
I0825 11:09:03.285603  1476 net.cpp:558] Eltwise4 <- Convolution8
I0825 11:09:03.285607  1476 net.cpp:558] Eltwise4 <- Convolution10
I0825 11:09:03.285614  1476 net.cpp:522] Eltwise4 -> Eltwise4
I0825 11:09:03.285636  1476 net.cpp:172] Setting up Eltwise4
I0825 11:09:03.285645  1476 net.cpp:186] Top shape: 10 32 16 16 (81920)
I0825 11:09:03.285650  1476 net.cpp:194] Memory required for data: 29286520
I0825 11:09:03.285655  1476 layer_factory.hpp:77] Creating layer ReLU9
I0825 11:09:03.285678  1476 net.cpp:128] Creating Layer ReLU9
I0825 11:09:03.285686  1476 net.cpp:558] ReLU9 <- Eltwise4
I0825 11:09:03.285692  1476 net.cpp:509] ReLU9 -> Eltwise4 (in-place)
I0825 11:09:03.286134  1476 net.cpp:172] Setting up ReLU9
I0825 11:09:03.286156  1476 net.cpp:186] Top shape: 10 32 16 16 (81920)
I0825 11:09:03.286164  1476 net.cpp:194] Memory required for data: 29614200
I0825 11:09:03.286168  1476 layer_factory.hpp:77] Creating layer Eltwise4_ReLU9_0_split
I0825 11:09:03.286176  1476 net.cpp:128] Creating Layer Eltwise4_ReLU9_0_split
I0825 11:09:03.286181  1476 net.cpp:558] Eltwise4_ReLU9_0_split <- Eltwise4
I0825 11:09:03.286188  1476 net.cpp:522] Eltwise4_ReLU9_0_split -> Eltwise4_ReLU9_0_split_0
I0825 11:09:03.286200  1476 net.cpp:522] Eltwise4_ReLU9_0_split -> Eltwise4_ReLU9_0_split_1
I0825 11:09:03.286257  1476 net.cpp:172] Setting up Eltwise4_ReLU9_0_split
I0825 11:09:03.286267  1476 net.cpp:186] Top shape: 10 32 16 16 (81920)
I0825 11:09:03.286273  1476 net.cpp:186] Top shape: 10 32 16 16 (81920)
I0825 11:09:03.286278  1476 net.cpp:194] Memory required for data: 30269560
I0825 11:09:03.286283  1476 layer_factory.hpp:77] Creating layer Convolution11
I0825 11:09:03.286298  1476 net.cpp:128] Creating Layer Convolution11
I0825 11:09:03.286303  1476 net.cpp:558] Convolution11 <- Eltwise4_ReLU9_0_split_0
I0825 11:09:03.286311  1476 net.cpp:522] Convolution11 -> Convolution11
I0825 11:09:03.287915  1476 net.cpp:172] Setting up Convolution11
I0825 11:09:03.287943  1476 net.cpp:186] Top shape: 10 32 16 16 (81920)
I0825 11:09:03.287947  1476 net.cpp:194] Memory required for data: 30597240
I0825 11:09:03.287961  1476 layer_factory.hpp:77] Creating layer BatchNorm11
I0825 11:09:03.287968  1476 net.cpp:128] Creating Layer BatchNorm11
I0825 11:09:03.287976  1476 net.cpp:558] BatchNorm11 <- Convolution11
I0825 11:09:03.287984  1476 net.cpp:509] BatchNorm11 -> Convolution11 (in-place)
I0825 11:09:03.288261  1476 net.cpp:172] Setting up BatchNorm11
I0825 11:09:03.288272  1476 net.cpp:186] Top shape: 10 32 16 16 (81920)
I0825 11:09:03.288276  1476 net.cpp:194] Memory required for data: 30924920
I0825 11:09:03.288286  1476 layer_factory.hpp:77] Creating layer Scale11
I0825 11:09:03.288293  1476 net.cpp:128] Creating Layer Scale11
I0825 11:09:03.288297  1476 net.cpp:558] Scale11 <- Convolution11
I0825 11:09:03.288303  1476 net.cpp:509] Scale11 -> Convolution11 (in-place)
I0825 11:09:03.288354  1476 layer_factory.hpp:77] Creating layer Scale11
I0825 11:09:03.288511  1476 net.cpp:172] Setting up Scale11
I0825 11:09:03.288520  1476 net.cpp:186] Top shape: 10 32 16 16 (81920)
I0825 11:09:03.288524  1476 net.cpp:194] Memory required for data: 31252600
I0825 11:09:03.288532  1476 layer_factory.hpp:77] Creating layer ReLU10
I0825 11:09:03.288542  1476 net.cpp:128] Creating Layer ReLU10
I0825 11:09:03.288547  1476 net.cpp:558] ReLU10 <- Convolution11
I0825 11:09:03.288552  1476 net.cpp:509] ReLU10 -> Convolution11 (in-place)
I0825 11:09:03.288791  1476 net.cpp:172] Setting up ReLU10
I0825 11:09:03.288805  1476 net.cpp:186] Top shape: 10 32 16 16 (81920)
I0825 11:09:03.288808  1476 net.cpp:194] Memory required for data: 31580280
I0825 11:09:03.288813  1476 layer_factory.hpp:77] Creating layer Convolution12
I0825 11:09:03.288826  1476 net.cpp:128] Creating Layer Convolution12
I0825 11:09:03.288832  1476 net.cpp:558] Convolution12 <- Convolution11
I0825 11:09:03.288841  1476 net.cpp:522] Convolution12 -> Convolution12
I0825 11:09:03.290274  1476 net.cpp:172] Setting up Convolution12
I0825 11:09:03.290298  1476 net.cpp:186] Top shape: 10 32 16 16 (81920)
I0825 11:09:03.290303  1476 net.cpp:194] Memory required for data: 31907960
I0825 11:09:03.290316  1476 layer_factory.hpp:77] Creating layer BatchNorm12
I0825 11:09:03.290326  1476 net.cpp:128] Creating Layer BatchNorm12
I0825 11:09:03.290340  1476 net.cpp:558] BatchNorm12 <- Convolution12
I0825 11:09:03.290351  1476 net.cpp:509] BatchNorm12 -> Convolution12 (in-place)
I0825 11:09:03.290630  1476 net.cpp:172] Setting up BatchNorm12
I0825 11:09:03.290642  1476 net.cpp:186] Top shape: 10 32 16 16 (81920)
I0825 11:09:03.290660  1476 net.cpp:194] Memory required for data: 32235640
I0825 11:09:03.290671  1476 layer_factory.hpp:77] Creating layer Scale12
I0825 11:09:03.290679  1476 net.cpp:128] Creating Layer Scale12
I0825 11:09:03.290683  1476 net.cpp:558] Scale12 <- Convolution12
I0825 11:09:03.290689  1476 net.cpp:509] Scale12 -> Convolution12 (in-place)
I0825 11:09:03.290742  1476 layer_factory.hpp:77] Creating layer Scale12
I0825 11:09:03.290902  1476 net.cpp:172] Setting up Scale12
I0825 11:09:03.290916  1476 net.cpp:186] Top shape: 10 32 16 16 (81920)
I0825 11:09:03.290920  1476 net.cpp:194] Memory required for data: 32563320
I0825 11:09:03.290928  1476 layer_factory.hpp:77] Creating layer Eltwise5
I0825 11:09:03.290935  1476 net.cpp:128] Creating Layer Eltwise5
I0825 11:09:03.290940  1476 net.cpp:558] Eltwise5 <- Eltwise4_ReLU9_0_split_1
I0825 11:09:03.290946  1476 net.cpp:558] Eltwise5 <- Convolution12
I0825 11:09:03.290953  1476 net.cpp:522] Eltwise5 -> Eltwise5
I0825 11:09:03.290977  1476 net.cpp:172] Setting up Eltwise5
I0825 11:09:03.290983  1476 net.cpp:186] Top shape: 10 32 16 16 (81920)
I0825 11:09:03.290987  1476 net.cpp:194] Memory required for data: 32891000
I0825 11:09:03.290993  1476 layer_factory.hpp:77] Creating layer ReLU11
I0825 11:09:03.291003  1476 net.cpp:128] Creating Layer ReLU11
I0825 11:09:03.291008  1476 net.cpp:558] ReLU11 <- Eltwise5
I0825 11:09:03.291013  1476 net.cpp:509] ReLU11 -> Eltwise5 (in-place)
I0825 11:09:03.291249  1476 net.cpp:172] Setting up ReLU11
I0825 11:09:03.291263  1476 net.cpp:186] Top shape: 10 32 16 16 (81920)
I0825 11:09:03.291267  1476 net.cpp:194] Memory required for data: 33218680
I0825 11:09:03.291272  1476 layer_factory.hpp:77] Creating layer Eltwise5_ReLU11_0_split
I0825 11:09:03.291281  1476 net.cpp:128] Creating Layer Eltwise5_ReLU11_0_split
I0825 11:09:03.291286  1476 net.cpp:558] Eltwise5_ReLU11_0_split <- Eltwise5
I0825 11:09:03.291293  1476 net.cpp:522] Eltwise5_ReLU11_0_split -> Eltwise5_ReLU11_0_split_0
I0825 11:09:03.291303  1476 net.cpp:522] Eltwise5_ReLU11_0_split -> Eltwise5_ReLU11_0_split_1
I0825 11:09:03.291359  1476 net.cpp:172] Setting up Eltwise5_ReLU11_0_split
I0825 11:09:03.291366  1476 net.cpp:186] Top shape: 10 32 16 16 (81920)
I0825 11:09:03.291373  1476 net.cpp:186] Top shape: 10 32 16 16 (81920)
I0825 11:09:03.291378  1476 net.cpp:194] Memory required for data: 33874040
I0825 11:09:03.291381  1476 layer_factory.hpp:77] Creating layer Convolution13
I0825 11:09:03.291393  1476 net.cpp:128] Creating Layer Convolution13
I0825 11:09:03.291399  1476 net.cpp:558] Convolution13 <- Eltwise5_ReLU11_0_split_0
I0825 11:09:03.291409  1476 net.cpp:522] Convolution13 -> Convolution13
I0825 11:09:03.292835  1476 net.cpp:172] Setting up Convolution13
I0825 11:09:03.292861  1476 net.cpp:186] Top shape: 10 32 16 16 (81920)
I0825 11:09:03.292866  1476 net.cpp:194] Memory required for data: 34201720
I0825 11:09:03.292876  1476 layer_factory.hpp:77] Creating layer BatchNorm13
I0825 11:09:03.292886  1476 net.cpp:128] Creating Layer BatchNorm13
I0825 11:09:03.292892  1476 net.cpp:558] BatchNorm13 <- Convolution13
I0825 11:09:03.292898  1476 net.cpp:509] BatchNorm13 -> Convolution13 (in-place)
I0825 11:09:03.293174  1476 net.cpp:172] Setting up BatchNorm13
I0825 11:09:03.293184  1476 net.cpp:186] Top shape: 10 32 16 16 (81920)
I0825 11:09:03.293190  1476 net.cpp:194] Memory required for data: 34529400
I0825 11:09:03.293198  1476 layer_factory.hpp:77] Creating layer Scale13
I0825 11:09:03.293205  1476 net.cpp:128] Creating Layer Scale13
I0825 11:09:03.293210  1476 net.cpp:558] Scale13 <- Convolution13
I0825 11:09:03.293223  1476 net.cpp:509] Scale13 -> Convolution13 (in-place)
I0825 11:09:03.293273  1476 layer_factory.hpp:77] Creating layer Scale13
I0825 11:09:03.293431  1476 net.cpp:172] Setting up Scale13
I0825 11:09:03.293443  1476 net.cpp:186] Top shape: 10 32 16 16 (81920)
I0825 11:09:03.293448  1476 net.cpp:194] Memory required for data: 34857080
I0825 11:09:03.293457  1476 layer_factory.hpp:77] Creating layer ReLU12
I0825 11:09:03.293478  1476 net.cpp:128] Creating Layer ReLU12
I0825 11:09:03.293483  1476 net.cpp:558] ReLU12 <- Convolution13
I0825 11:09:03.293491  1476 net.cpp:509] ReLU12 -> Convolution13 (in-place)
I0825 11:09:03.293934  1476 net.cpp:172] Setting up ReLU12
I0825 11:09:03.293957  1476 net.cpp:186] Top shape: 10 32 16 16 (81920)
I0825 11:09:03.293962  1476 net.cpp:194] Memory required for data: 35184760
I0825 11:09:03.293967  1476 layer_factory.hpp:77] Creating layer Convolution14
I0825 11:09:03.293987  1476 net.cpp:128] Creating Layer Convolution14
I0825 11:09:03.293992  1476 net.cpp:558] Convolution14 <- Convolution13
I0825 11:09:03.293999  1476 net.cpp:522] Convolution14 -> Convolution14
I0825 11:09:03.295477  1476 net.cpp:172] Setting up Convolution14
I0825 11:09:03.295503  1476 net.cpp:186] Top shape: 10 32 16 16 (81920)
I0825 11:09:03.295508  1476 net.cpp:194] Memory required for data: 35512440
I0825 11:09:03.295518  1476 layer_factory.hpp:77] Creating layer BatchNorm14
I0825 11:09:03.295529  1476 net.cpp:128] Creating Layer BatchNorm14
I0825 11:09:03.295534  1476 net.cpp:558] BatchNorm14 <- Convolution14
I0825 11:09:03.295544  1476 net.cpp:509] BatchNorm14 -> Convolution14 (in-place)
I0825 11:09:03.295819  1476 net.cpp:172] Setting up BatchNorm14
I0825 11:09:03.295831  1476 net.cpp:186] Top shape: 10 32 16 16 (81920)
I0825 11:09:03.295835  1476 net.cpp:194] Memory required for data: 35840120
I0825 11:09:03.295845  1476 layer_factory.hpp:77] Creating layer Scale14
I0825 11:09:03.295852  1476 net.cpp:128] Creating Layer Scale14
I0825 11:09:03.295857  1476 net.cpp:558] Scale14 <- Convolution14
I0825 11:09:03.295866  1476 net.cpp:509] Scale14 -> Convolution14 (in-place)
I0825 11:09:03.295914  1476 layer_factory.hpp:77] Creating layer Scale14
I0825 11:09:03.296073  1476 net.cpp:172] Setting up Scale14
I0825 11:09:03.296082  1476 net.cpp:186] Top shape: 10 32 16 16 (81920)
I0825 11:09:03.296087  1476 net.cpp:194] Memory required for data: 36167800
I0825 11:09:03.296093  1476 layer_factory.hpp:77] Creating layer Eltwise6
I0825 11:09:03.296100  1476 net.cpp:128] Creating Layer Eltwise6
I0825 11:09:03.296106  1476 net.cpp:558] Eltwise6 <- Eltwise5_ReLU11_0_split_1
I0825 11:09:03.296111  1476 net.cpp:558] Eltwise6 <- Convolution14
I0825 11:09:03.296119  1476 net.cpp:522] Eltwise6 -> Eltwise6
I0825 11:09:03.296142  1476 net.cpp:172] Setting up Eltwise6
I0825 11:09:03.296152  1476 net.cpp:186] Top shape: 10 32 16 16 (81920)
I0825 11:09:03.296157  1476 net.cpp:194] Memory required for data: 36495480
I0825 11:09:03.296161  1476 layer_factory.hpp:77] Creating layer ReLU13
I0825 11:09:03.296167  1476 net.cpp:128] Creating Layer ReLU13
I0825 11:09:03.296171  1476 net.cpp:558] ReLU13 <- Eltwise6
I0825 11:09:03.296177  1476 net.cpp:509] ReLU13 -> Eltwise6 (in-place)
I0825 11:09:03.296422  1476 net.cpp:172] Setting up ReLU13
I0825 11:09:03.296442  1476 net.cpp:186] Top shape: 10 32 16 16 (81920)
I0825 11:09:03.296447  1476 net.cpp:194] Memory required for data: 36823160
I0825 11:09:03.296452  1476 layer_factory.hpp:77] Creating layer Eltwise6_ReLU13_0_split
I0825 11:09:03.296458  1476 net.cpp:128] Creating Layer Eltwise6_ReLU13_0_split
I0825 11:09:03.296463  1476 net.cpp:558] Eltwise6_ReLU13_0_split <- Eltwise6
I0825 11:09:03.296470  1476 net.cpp:522] Eltwise6_ReLU13_0_split -> Eltwise6_ReLU13_0_split_0
I0825 11:09:03.296480  1476 net.cpp:522] Eltwise6_ReLU13_0_split -> Eltwise6_ReLU13_0_split_1
I0825 11:09:03.296535  1476 net.cpp:172] Setting up Eltwise6_ReLU13_0_split
I0825 11:09:03.296542  1476 net.cpp:186] Top shape: 10 32 16 16 (81920)
I0825 11:09:03.296548  1476 net.cpp:186] Top shape: 10 32 16 16 (81920)
I0825 11:09:03.296552  1476 net.cpp:194] Memory required for data: 37478520
I0825 11:09:03.296556  1476 layer_factory.hpp:77] Creating layer Convolution15
I0825 11:09:03.296571  1476 net.cpp:128] Creating Layer Convolution15
I0825 11:09:03.296576  1476 net.cpp:558] Convolution15 <- Eltwise6_ReLU13_0_split_0
I0825 11:09:03.296583  1476 net.cpp:522] Convolution15 -> Convolution15
I0825 11:09:03.297919  1476 net.cpp:172] Setting up Convolution15
I0825 11:09:03.297958  1476 net.cpp:186] Top shape: 10 64 8 8 (40960)
I0825 11:09:03.297963  1476 net.cpp:194] Memory required for data: 37642360
I0825 11:09:03.297973  1476 layer_factory.hpp:77] Creating layer BatchNorm15
I0825 11:09:03.297984  1476 net.cpp:128] Creating Layer BatchNorm15
I0825 11:09:03.297991  1476 net.cpp:558] BatchNorm15 <- Convolution15
I0825 11:09:03.297998  1476 net.cpp:509] BatchNorm15 -> Convolution15 (in-place)
I0825 11:09:03.298293  1476 net.cpp:172] Setting up BatchNorm15
I0825 11:09:03.298306  1476 net.cpp:186] Top shape: 10 64 8 8 (40960)
I0825 11:09:03.298310  1476 net.cpp:194] Memory required for data: 37806200
I0825 11:09:03.298321  1476 layer_factory.hpp:77] Creating layer Scale15
I0825 11:09:03.298327  1476 net.cpp:128] Creating Layer Scale15
I0825 11:09:03.298333  1476 net.cpp:558] Scale15 <- Convolution15
I0825 11:09:03.298347  1476 net.cpp:509] Scale15 -> Convolution15 (in-place)
I0825 11:09:03.298401  1476 layer_factory.hpp:77] Creating layer Scale15
I0825 11:09:03.298570  1476 net.cpp:172] Setting up Scale15
I0825 11:09:03.298581  1476 net.cpp:186] Top shape: 10 64 8 8 (40960)
I0825 11:09:03.298585  1476 net.cpp:194] Memory required for data: 37970040
I0825 11:09:03.298593  1476 layer_factory.hpp:77] Creating layer Convolution16
I0825 11:09:03.298605  1476 net.cpp:128] Creating Layer Convolution16
I0825 11:09:03.298612  1476 net.cpp:558] Convolution16 <- Eltwise6_ReLU13_0_split_1
I0825 11:09:03.298622  1476 net.cpp:522] Convolution16 -> Convolution16
I0825 11:09:03.300232  1476 net.cpp:172] Setting up Convolution16
I0825 11:09:03.300257  1476 net.cpp:186] Top shape: 10 64 8 8 (40960)
I0825 11:09:03.300262  1476 net.cpp:194] Memory required for data: 38133880
I0825 11:09:03.300274  1476 layer_factory.hpp:77] Creating layer BatchNorm16
I0825 11:09:03.300287  1476 net.cpp:128] Creating Layer BatchNorm16
I0825 11:09:03.300297  1476 net.cpp:558] BatchNorm16 <- Convolution16
I0825 11:09:03.300305  1476 net.cpp:509] BatchNorm16 -> Convolution16 (in-place)
I0825 11:09:03.300593  1476 net.cpp:172] Setting up BatchNorm16
I0825 11:09:03.300603  1476 net.cpp:186] Top shape: 10 64 8 8 (40960)
I0825 11:09:03.300607  1476 net.cpp:194] Memory required for data: 38297720
I0825 11:09:03.300617  1476 layer_factory.hpp:77] Creating layer Scale16
I0825 11:09:03.300626  1476 net.cpp:128] Creating Layer Scale16
I0825 11:09:03.300629  1476 net.cpp:558] Scale16 <- Convolution16
I0825 11:09:03.300637  1476 net.cpp:509] Scale16 -> Convolution16 (in-place)
I0825 11:09:03.300688  1476 layer_factory.hpp:77] Creating layer Scale16
I0825 11:09:03.300851  1476 net.cpp:172] Setting up Scale16
I0825 11:09:03.300861  1476 net.cpp:186] Top shape: 10 64 8 8 (40960)
I0825 11:09:03.300865  1476 net.cpp:194] Memory required for data: 38461560
I0825 11:09:03.300873  1476 layer_factory.hpp:77] Creating layer ReLU14
I0825 11:09:03.300880  1476 net.cpp:128] Creating Layer ReLU14
I0825 11:09:03.300884  1476 net.cpp:558] ReLU14 <- Convolution16
I0825 11:09:03.300892  1476 net.cpp:509] ReLU14 -> Convolution16 (in-place)
I0825 11:09:03.301141  1476 net.cpp:172] Setting up ReLU14
I0825 11:09:03.301156  1476 net.cpp:186] Top shape: 10 64 8 8 (40960)
I0825 11:09:03.301159  1476 net.cpp:194] Memory required for data: 38625400
I0825 11:09:03.301164  1476 layer_factory.hpp:77] Creating layer Convolution17
I0825 11:09:03.301177  1476 net.cpp:128] Creating Layer Convolution17
I0825 11:09:03.301185  1476 net.cpp:558] Convolution17 <- Convolution16
I0825 11:09:03.301193  1476 net.cpp:522] Convolution17 -> Convolution17
I0825 11:09:03.303076  1476 net.cpp:172] Setting up Convolution17
I0825 11:09:03.303102  1476 net.cpp:186] Top shape: 10 64 8 8 (40960)
I0825 11:09:03.303107  1476 net.cpp:194] Memory required for data: 38789240
I0825 11:09:03.303120  1476 layer_factory.hpp:77] Creating layer BatchNorm17
I0825 11:09:03.303130  1476 net.cpp:128] Creating Layer BatchNorm17
I0825 11:09:03.303143  1476 net.cpp:558] BatchNorm17 <- Convolution17
I0825 11:09:03.303151  1476 net.cpp:509] BatchNorm17 -> Convolution17 (in-place)
I0825 11:09:03.303450  1476 net.cpp:172] Setting up BatchNorm17
I0825 11:09:03.303460  1476 net.cpp:186] Top shape: 10 64 8 8 (40960)
I0825 11:09:03.303465  1476 net.cpp:194] Memory required for data: 38953080
I0825 11:09:03.303475  1476 layer_factory.hpp:77] Creating layer Scale17
I0825 11:09:03.303486  1476 net.cpp:128] Creating Layer Scale17
I0825 11:09:03.303493  1476 net.cpp:558] Scale17 <- Convolution17
I0825 11:09:03.303499  1476 net.cpp:509] Scale17 -> Convolution17 (in-place)
I0825 11:09:03.303550  1476 layer_factory.hpp:77] Creating layer Scale17
I0825 11:09:03.303715  1476 net.cpp:172] Setting up Scale17
I0825 11:09:03.303726  1476 net.cpp:186] Top shape: 10 64 8 8 (40960)
I0825 11:09:03.303730  1476 net.cpp:194] Memory required for data: 39116920
I0825 11:09:03.303738  1476 layer_factory.hpp:77] Creating layer Eltwise7
I0825 11:09:03.303745  1476 net.cpp:128] Creating Layer Eltwise7
I0825 11:09:03.303750  1476 net.cpp:558] Eltwise7 <- Convolution15
I0825 11:09:03.303755  1476 net.cpp:558] Eltwise7 <- Convolution17
I0825 11:09:03.303762  1476 net.cpp:522] Eltwise7 -> Eltwise7
I0825 11:09:03.303791  1476 net.cpp:172] Setting up Eltwise7
I0825 11:09:03.303800  1476 net.cpp:186] Top shape: 10 64 8 8 (40960)
I0825 11:09:03.303804  1476 net.cpp:194] Memory required for data: 39280760
I0825 11:09:03.303809  1476 layer_factory.hpp:77] Creating layer ReLU15
I0825 11:09:03.303817  1476 net.cpp:128] Creating Layer ReLU15
I0825 11:09:03.303822  1476 net.cpp:558] ReLU15 <- Eltwise7
I0825 11:09:03.303828  1476 net.cpp:509] ReLU15 -> Eltwise7 (in-place)
I0825 11:09:03.304265  1476 net.cpp:172] Setting up ReLU15
I0825 11:09:03.304288  1476 net.cpp:186] Top shape: 10 64 8 8 (40960)
I0825 11:09:03.304296  1476 net.cpp:194] Memory required for data: 39444600
I0825 11:09:03.304301  1476 layer_factory.hpp:77] Creating layer Eltwise7_ReLU15_0_split
I0825 11:09:03.304308  1476 net.cpp:128] Creating Layer Eltwise7_ReLU15_0_split
I0825 11:09:03.304313  1476 net.cpp:558] Eltwise7_ReLU15_0_split <- Eltwise7
I0825 11:09:03.304322  1476 net.cpp:522] Eltwise7_ReLU15_0_split -> Eltwise7_ReLU15_0_split_0
I0825 11:09:03.304332  1476 net.cpp:522] Eltwise7_ReLU15_0_split -> Eltwise7_ReLU15_0_split_1
I0825 11:09:03.304389  1476 net.cpp:172] Setting up Eltwise7_ReLU15_0_split
I0825 11:09:03.304396  1476 net.cpp:186] Top shape: 10 64 8 8 (40960)
I0825 11:09:03.304402  1476 net.cpp:186] Top shape: 10 64 8 8 (40960)
I0825 11:09:03.304406  1476 net.cpp:194] Memory required for data: 39772280
I0825 11:09:03.304410  1476 layer_factory.hpp:77] Creating layer Convolution18
I0825 11:09:03.304425  1476 net.cpp:128] Creating Layer Convolution18
I0825 11:09:03.304430  1476 net.cpp:558] Convolution18 <- Eltwise7_ReLU15_0_split_0
I0825 11:09:03.304437  1476 net.cpp:522] Convolution18 -> Convolution18
I0825 11:09:03.306493  1476 net.cpp:172] Setting up Convolution18
I0825 11:09:03.306519  1476 net.cpp:186] Top shape: 10 64 8 8 (40960)
I0825 11:09:03.306524  1476 net.cpp:194] Memory required for data: 39936120
I0825 11:09:03.306540  1476 layer_factory.hpp:77] Creating layer BatchNorm18
I0825 11:09:03.306547  1476 net.cpp:128] Creating Layer BatchNorm18
I0825 11:09:03.306555  1476 net.cpp:558] BatchNorm18 <- Convolution18
I0825 11:09:03.306563  1476 net.cpp:509] BatchNorm18 -> Convolution18 (in-place)
I0825 11:09:03.306862  1476 net.cpp:172] Setting up BatchNorm18
I0825 11:09:03.306874  1476 net.cpp:186] Top shape: 10 64 8 8 (40960)
I0825 11:09:03.306877  1476 net.cpp:194] Memory required for data: 40099960
I0825 11:09:03.306887  1476 layer_factory.hpp:77] Creating layer Scale18
I0825 11:09:03.306896  1476 net.cpp:128] Creating Layer Scale18
I0825 11:09:03.306901  1476 net.cpp:558] Scale18 <- Convolution18
I0825 11:09:03.306906  1476 net.cpp:509] Scale18 -> Convolution18 (in-place)
I0825 11:09:03.306958  1476 layer_factory.hpp:77] Creating layer Scale18
I0825 11:09:03.307126  1476 net.cpp:172] Setting up Scale18
I0825 11:09:03.307137  1476 net.cpp:186] Top shape: 10 64 8 8 (40960)
I0825 11:09:03.307142  1476 net.cpp:194] Memory required for data: 40263800
I0825 11:09:03.307164  1476 layer_factory.hpp:77] Creating layer ReLU16
I0825 11:09:03.307173  1476 net.cpp:128] Creating Layer ReLU16
I0825 11:09:03.307178  1476 net.cpp:558] ReLU16 <- Convolution18
I0825 11:09:03.307184  1476 net.cpp:509] ReLU16 -> Convolution18 (in-place)
I0825 11:09:03.307428  1476 net.cpp:172] Setting up ReLU16
I0825 11:09:03.307445  1476 net.cpp:186] Top shape: 10 64 8 8 (40960)
I0825 11:09:03.307449  1476 net.cpp:194] Memory required for data: 40427640
I0825 11:09:03.307454  1476 layer_factory.hpp:77] Creating layer Convolution19
I0825 11:09:03.307471  1476 net.cpp:128] Creating Layer Convolution19
I0825 11:09:03.307476  1476 net.cpp:558] Convolution19 <- Convolution18
I0825 11:09:03.307483  1476 net.cpp:522] Convolution19 -> Convolution19
I0825 11:09:03.309376  1476 net.cpp:172] Setting up Convolution19
I0825 11:09:03.309401  1476 net.cpp:186] Top shape: 10 64 8 8 (40960)
I0825 11:09:03.309406  1476 net.cpp:194] Memory required for data: 40591480
I0825 11:09:03.309415  1476 layer_factory.hpp:77] Creating layer BatchNorm19
I0825 11:09:03.309425  1476 net.cpp:128] Creating Layer BatchNorm19
I0825 11:09:03.309432  1476 net.cpp:558] BatchNorm19 <- Convolution19
I0825 11:09:03.309445  1476 net.cpp:509] BatchNorm19 -> Convolution19 (in-place)
I0825 11:09:03.309736  1476 net.cpp:172] Setting up BatchNorm19
I0825 11:09:03.309747  1476 net.cpp:186] Top shape: 10 64 8 8 (40960)
I0825 11:09:03.309751  1476 net.cpp:194] Memory required for data: 40755320
I0825 11:09:03.309774  1476 layer_factory.hpp:77] Creating layer Scale19
I0825 11:09:03.309784  1476 net.cpp:128] Creating Layer Scale19
I0825 11:09:03.309789  1476 net.cpp:558] Scale19 <- Convolution19
I0825 11:09:03.309795  1476 net.cpp:509] Scale19 -> Convolution19 (in-place)
I0825 11:09:03.309849  1476 layer_factory.hpp:77] Creating layer Scale19
I0825 11:09:03.310010  1476 net.cpp:172] Setting up Scale19
I0825 11:09:03.310021  1476 net.cpp:186] Top shape: 10 64 8 8 (40960)
I0825 11:09:03.310025  1476 net.cpp:194] Memory required for data: 40919160
I0825 11:09:03.310034  1476 layer_factory.hpp:77] Creating layer Eltwise8
I0825 11:09:03.310042  1476 net.cpp:128] Creating Layer Eltwise8
I0825 11:09:03.310047  1476 net.cpp:558] Eltwise8 <- Eltwise7_ReLU15_0_split_1
I0825 11:09:03.310053  1476 net.cpp:558] Eltwise8 <- Convolution19
I0825 11:09:03.310060  1476 net.cpp:522] Eltwise8 -> Eltwise8
I0825 11:09:03.310091  1476 net.cpp:172] Setting up Eltwise8
I0825 11:09:03.310097  1476 net.cpp:186] Top shape: 10 64 8 8 (40960)
I0825 11:09:03.310101  1476 net.cpp:194] Memory required for data: 41083000
I0825 11:09:03.310106  1476 layer_factory.hpp:77] Creating layer ReLU17
I0825 11:09:03.310111  1476 net.cpp:128] Creating Layer ReLU17
I0825 11:09:03.310117  1476 net.cpp:558] ReLU17 <- Eltwise8
I0825 11:09:03.310123  1476 net.cpp:509] ReLU17 -> Eltwise8 (in-place)
I0825 11:09:03.310390  1476 net.cpp:172] Setting up ReLU17
I0825 11:09:03.310405  1476 net.cpp:186] Top shape: 10 64 8 8 (40960)
I0825 11:09:03.310410  1476 net.cpp:194] Memory required for data: 41246840
I0825 11:09:03.310415  1476 layer_factory.hpp:77] Creating layer Eltwise8_ReLU17_0_split
I0825 11:09:03.310422  1476 net.cpp:128] Creating Layer Eltwise8_ReLU17_0_split
I0825 11:09:03.310427  1476 net.cpp:558] Eltwise8_ReLU17_0_split <- Eltwise8
I0825 11:09:03.310436  1476 net.cpp:522] Eltwise8_ReLU17_0_split -> Eltwise8_ReLU17_0_split_0
I0825 11:09:03.310446  1476 net.cpp:522] Eltwise8_ReLU17_0_split -> Eltwise8_ReLU17_0_split_1
I0825 11:09:03.310503  1476 net.cpp:172] Setting up Eltwise8_ReLU17_0_split
I0825 11:09:03.310513  1476 net.cpp:186] Top shape: 10 64 8 8 (40960)
I0825 11:09:03.310519  1476 net.cpp:186] Top shape: 10 64 8 8 (40960)
I0825 11:09:03.310523  1476 net.cpp:194] Memory required for data: 41574520
I0825 11:09:03.310528  1476 layer_factory.hpp:77] Creating layer Convolution20
I0825 11:09:03.310539  1476 net.cpp:128] Creating Layer Convolution20
I0825 11:09:03.310544  1476 net.cpp:558] Convolution20 <- Eltwise8_ReLU17_0_split_0
I0825 11:09:03.310554  1476 net.cpp:522] Convolution20 -> Convolution20
I0825 11:09:03.312623  1476 net.cpp:172] Setting up Convolution20
I0825 11:09:03.312649  1476 net.cpp:186] Top shape: 10 64 8 8 (40960)
I0825 11:09:03.312654  1476 net.cpp:194] Memory required for data: 41738360
I0825 11:09:03.312664  1476 layer_factory.hpp:77] Creating layer BatchNorm20
I0825 11:09:03.312674  1476 net.cpp:128] Creating Layer BatchNorm20
I0825 11:09:03.312682  1476 net.cpp:558] BatchNorm20 <- Convolution20
I0825 11:09:03.312692  1476 net.cpp:509] BatchNorm20 -> Convolution20 (in-place)
I0825 11:09:03.312994  1476 net.cpp:172] Setting up BatchNorm20
I0825 11:09:03.313009  1476 net.cpp:186] Top shape: 10 64 8 8 (40960)
I0825 11:09:03.313012  1476 net.cpp:194] Memory required for data: 41902200
I0825 11:09:03.313022  1476 layer_factory.hpp:77] Creating layer Scale20
I0825 11:09:03.313032  1476 net.cpp:128] Creating Layer Scale20
I0825 11:09:03.313036  1476 net.cpp:558] Scale20 <- Convolution20
I0825 11:09:03.313042  1476 net.cpp:509] Scale20 -> Convolution20 (in-place)
I0825 11:09:03.313096  1476 layer_factory.hpp:77] Creating layer Scale20
I0825 11:09:03.313262  1476 net.cpp:172] Setting up Scale20
I0825 11:09:03.313273  1476 net.cpp:186] Top shape: 10 64 8 8 (40960)
I0825 11:09:03.313277  1476 net.cpp:194] Memory required for data: 42066040
I0825 11:09:03.313285  1476 layer_factory.hpp:77] Creating layer ReLU18
I0825 11:09:03.313292  1476 net.cpp:128] Creating Layer ReLU18
I0825 11:09:03.313297  1476 net.cpp:558] ReLU18 <- Convolution20
I0825 11:09:03.313304  1476 net.cpp:509] ReLU18 -> Convolution20 (in-place)
I0825 11:09:03.313549  1476 net.cpp:172] Setting up ReLU18
I0825 11:09:03.313565  1476 net.cpp:186] Top shape: 10 64 8 8 (40960)
I0825 11:09:03.313568  1476 net.cpp:194] Memory required for data: 42229880
I0825 11:09:03.313573  1476 layer_factory.hpp:77] Creating layer Convolution21
I0825 11:09:03.313585  1476 net.cpp:128] Creating Layer Convolution21
I0825 11:09:03.313591  1476 net.cpp:558] Convolution21 <- Convolution20
I0825 11:09:03.313599  1476 net.cpp:522] Convolution21 -> Convolution21
I0825 11:09:03.316834  1476 net.cpp:172] Setting up Convolution21
I0825 11:09:03.316860  1476 net.cpp:186] Top shape: 10 64 8 8 (40960)
I0825 11:09:03.316865  1476 net.cpp:194] Memory required for data: 42393720
I0825 11:09:03.316875  1476 layer_factory.hpp:77] Creating layer BatchNorm21
I0825 11:09:03.316886  1476 net.cpp:128] Creating Layer BatchNorm21
I0825 11:09:03.316892  1476 net.cpp:558] BatchNorm21 <- Convolution21
I0825 11:09:03.316898  1476 net.cpp:509] BatchNorm21 -> Convolution21 (in-place)
I0825 11:09:03.317190  1476 net.cpp:172] Setting up BatchNorm21
I0825 11:09:03.317201  1476 net.cpp:186] Top shape: 10 64 8 8 (40960)
I0825 11:09:03.317206  1476 net.cpp:194] Memory required for data: 42557560
I0825 11:09:03.317216  1476 layer_factory.hpp:77] Creating layer Scale21
I0825 11:09:03.317225  1476 net.cpp:128] Creating Layer Scale21
I0825 11:09:03.317230  1476 net.cpp:558] Scale21 <- Convolution21
I0825 11:09:03.317236  1476 net.cpp:509] Scale21 -> Convolution21 (in-place)
I0825 11:09:03.317294  1476 layer_factory.hpp:77] Creating layer Scale21
I0825 11:09:03.317466  1476 net.cpp:172] Setting up Scale21
I0825 11:09:03.317476  1476 net.cpp:186] Top shape: 10 64 8 8 (40960)
I0825 11:09:03.317481  1476 net.cpp:194] Memory required for data: 42721400
I0825 11:09:03.317488  1476 layer_factory.hpp:77] Creating layer Eltwise9
I0825 11:09:03.317497  1476 net.cpp:128] Creating Layer Eltwise9
I0825 11:09:03.317503  1476 net.cpp:558] Eltwise9 <- Eltwise8_ReLU17_0_split_1
I0825 11:09:03.317508  1476 net.cpp:558] Eltwise9 <- Convolution21
I0825 11:09:03.317517  1476 net.cpp:522] Eltwise9 -> Eltwise9
I0825 11:09:03.317545  1476 net.cpp:172] Setting up Eltwise9
I0825 11:09:03.317555  1476 net.cpp:186] Top shape: 10 64 8 8 (40960)
I0825 11:09:03.317559  1476 net.cpp:194] Memory required for data: 42885240
I0825 11:09:03.317564  1476 layer_factory.hpp:77] Creating layer ReLU19
I0825 11:09:03.317572  1476 net.cpp:128] Creating Layer ReLU19
I0825 11:09:03.317577  1476 net.cpp:558] ReLU19 <- Eltwise9
I0825 11:09:03.317582  1476 net.cpp:509] ReLU19 -> Eltwise9 (in-place)
I0825 11:09:03.318040  1476 net.cpp:172] Setting up ReLU19
I0825 11:09:03.318064  1476 net.cpp:186] Top shape: 10 64 8 8 (40960)
I0825 11:09:03.318069  1476 net.cpp:194] Memory required for data: 43049080
I0825 11:09:03.318074  1476 layer_factory.hpp:77] Creating layer Pooling1
I0825 11:09:03.318084  1476 net.cpp:128] Creating Layer Pooling1
I0825 11:09:03.318089  1476 net.cpp:558] Pooling1 <- Eltwise9
I0825 11:09:03.318095  1476 net.cpp:522] Pooling1 -> Pooling1
I0825 11:09:03.318387  1476 net.cpp:172] Setting up Pooling1
I0825 11:09:03.318403  1476 net.cpp:186] Top shape: 10 64 1 1 (640)
I0825 11:09:03.318408  1476 net.cpp:194] Memory required for data: 43051640
I0825 11:09:03.318413  1476 layer_factory.hpp:77] Creating layer InnerProduct1
I0825 11:09:03.318425  1476 net.cpp:128] Creating Layer InnerProduct1
I0825 11:09:03.318430  1476 net.cpp:558] InnerProduct1 <- Pooling1
I0825 11:09:03.318439  1476 net.cpp:522] InnerProduct1 -> InnerProduct1
I0825 11:09:03.318615  1476 net.cpp:172] Setting up InnerProduct1
I0825 11:09:03.318626  1476 net.cpp:186] Top shape: 10 10 (100)
I0825 11:09:03.318630  1476 net.cpp:194] Memory required for data: 43052040
I0825 11:09:03.318640  1476 layer_factory.hpp:77] Creating layer InnerProduct1_InnerProduct1_0_split
I0825 11:09:03.318647  1476 net.cpp:128] Creating Layer InnerProduct1_InnerProduct1_0_split
I0825 11:09:03.318652  1476 net.cpp:558] InnerProduct1_InnerProduct1_0_split <- InnerProduct1
I0825 11:09:03.318660  1476 net.cpp:522] InnerProduct1_InnerProduct1_0_split -> InnerProduct1_InnerProduct1_0_split_0
I0825 11:09:03.318670  1476 net.cpp:522] InnerProduct1_InnerProduct1_0_split -> InnerProduct1_InnerProduct1_0_split_1
I0825 11:09:03.318718  1476 net.cpp:172] Setting up InnerProduct1_InnerProduct1_0_split
I0825 11:09:03.318725  1476 net.cpp:186] Top shape: 10 10 (100)
I0825 11:09:03.318730  1476 net.cpp:186] Top shape: 10 10 (100)
I0825 11:09:03.318734  1476 net.cpp:194] Memory required for data: 43052840
I0825 11:09:03.318738  1476 layer_factory.hpp:77] Creating layer SoftmaxWithLoss1
I0825 11:09:03.318747  1476 net.cpp:128] Creating Layer SoftmaxWithLoss1
I0825 11:09:03.318753  1476 net.cpp:558] SoftmaxWithLoss1 <- InnerProduct1_InnerProduct1_0_split_0
I0825 11:09:03.318758  1476 net.cpp:558] SoftmaxWithLoss1 <- Data2_Data1_1_split_0
…
