…
I0817 23:56:11.839016 15109 net.cpp:82] Initializing net from parameters: 
name: "resnet_cifar10"
state {
  phase: TRAIN
  level: 0
  stage: ""
}
layer {
  name: "Data1"
  type: "Data"
  top: "Data1"
  top: "Data2"
  include {
    phase: TRAIN
  }
  transform_param {
    scale: 0.0039215684
    mirror: true
    crop_size: 32
    mean_value: 125.3
    mean_value: 122.9
    mean_value: 113.8
  }
  data_param {
    source: "/home/lijianfei/datasets/cifar10_40/train_lmdb"
    batch_size: 128
    backend: LMDB
  }
  image_data_param {
    shuffle: true
  }
}
layer {
  name: "Convolution1"
  type: "Convolution"
  bottom: "Data1"
  top: "Convolution1"
  param {
    lr_mult: 1
    decay_mult: 1
  }
  param {
    lr_mult: 2
    decay_mult: 0
  }
  convolution_param {
    num_output: 16
    pad: 1
    kernel_size: 3
    stride: 1
    weight_filler {
      type: "msra"
    }
    bias_filler {
      type: "constant"
      value: 0
    }
  }
}
layer {
  name: "BatchNorm1"
  type: "BatchNorm"
  bottom: "Convolution1"
  top: "Convolution1"
  param {
    lr_mult: 0
    decay_mult: 0
  }
  param {
    lr_mult: 0
    decay_mult: 0
  }
  param {
    lr_mult: 0
    decay_mult: 0
  }
}
layer {
  name: "Scale1"
  type: "Scale"
  bottom: "Convolution1"
  top: "Convolution1"
  scale_param {
    bias_term: true
  }
}
layer {
  name: "ReLU1"
  type: "ReLU"
  bottom: "Convolution1"
  top: "Convolution1"
}
layer {
  name: "Convolution2"
  type: "Convolution"
  bottom: "Convolution1"
  top: "Convolution2"
  param {
    lr_mult: 1
    decay_mult: 1
  }
  param {
    lr_mult: 2
    decay_mult: 0
  }
  convolution_param {
    num_output: 16
    pad: 1
    kernel_size: 3
    stride: 1
    weight_filler {
      type: "msra"
    }
    bias_filler {
      type: "constant"
      value: 0
    }
  }
}
layer {
  name: "BatchNorm2"
  type: "BatchNorm"
  bottom: "Convolution2"
  top: "Convolution2"
  param {
    lr_mult: 0
    decay_mult: 0
  }
  param {
    lr_mult: 0
    decay_mult: 0
  }
  param {
    lr_mult: 0
    decay_mult: 0
  }
}
layer {
  name: "Scale2"
  type: "Scale"
  bottom: "Convolution2"
  top: "Convolution2"
  scale_param {
    bias_term: true
  }
}
layer {
  name: "ReLU2"
  type: "ReLU"
  bottom: "Convolution2"
  top: "Convolution2"
}
layer {
  name: "Convolution3"
  type: "Convolution"
  bottom: "Convolution2"
  top: "Convolution3"
  param {
    lr_mult: 1
    decay_mult: 1
  }
  param {
    lr_mult: 2
    decay_mult: 0
  }
  convolution_param {
    num_output: 16
    pad: 1
    kernel_size: 3
    stride: 1
    weight_filler {
      type: "msra"
    }
    bias_filler {
      type: "constant"
      value: 0
    }
  }
}
layer {
  name: "BatchNorm3"
  type: "BatchNorm"
  bottom: "Convolution3"
  top: "Convolution3"
  param {
    lr_mult: 0
    decay_mult: 0
  }
  param {
    lr_mult: 0
    decay_mult: 0
  }
  param {
    lr_mult: 0
    decay_mult: 0
  }
}
layer {
  name: "Scale3"
  type: "Scale"
  bottom: "Convolution3"
  top: "Convolution3"
  scale_param {
    bias_term: true
  }
}
layer {
  name: "Eltwise1"
  type: "Eltwise"
  bottom: "Convolution1"
  bottom: "Convolution3"
  top: "Eltwise1"
  eltwise_param {
    operation: SUM
  }
}
layer {
  name: "ReLU3"
  type: "ReLU"
  bottom: "Eltwise1"
  top: "Eltwise1"
}
layer {
  name: "Convolution4"
  type: "Convolution"
  bottom: "Eltwise1"
  top: "Convolution4"
  param {
    lr_mult: 1
    decay_mult: 1
  }
  param {
    lr_mult: 2
    decay_mult: 0
  }
  convolution_param {
    num_output: 16
    pad: 1
    kernel_size: 3
    stride: 1
    weight_filler {
      type: "msra"
    }
    bias_filler {
      type: "constant"
      value: 0
    }
  }
}
layer {
  name: "BatchNorm4"
  type: "BatchNorm"
  bottom: "Convolution4"
  top: "Convolution4"
  param {
    lr_mult: 0
    decay_mult: 0
  }
  param {
    lr_mult: 0
    decay_mult: 0
  }
  param {
    lr_mult: 0
    decay_mult: 0
  }
}
layer {
  name: "Scale4"
  type: "Scale"
  bottom: "Convolution4"
  top: "Convolution4"
  scale_param {
    bias_term: true
  }
}
layer {
  name: "ReLU4"
  type: "ReLU"
  bottom: "Convolution4"
  top: "Convolution4"
}
layer {
  name: "Convolution5"
  type: "Convolution"
  bottom: "Convolution4"
  top: "Convolution5"
  param {
    lr_mult: 1
    decay_mult: 1
  }
  param {
    lr_mult: 2
    decay_mult: 0
  }
  convolution_param {
    num_output: 16
    pad: 1
    kernel_size: 3
    stride: 1
    weight_filler {
      type: "msra"
    }
    bias_filler {
      type: "constant"
      value: 0
    }
  }
}
layer {
  name: "BatchNorm5"
  type: "BatchNorm"
  bottom: "Convolution5"
  top: "Convolution5"
  param {
    lr_mult: 0
    decay_mult: 0
  }
  param {
    lr_mult: 0
    decay_mult: 0
  }
  param {
    lr_mult: 0
    decay_mult: 0
  }
}
layer {
  name: "Scale5"
  type: "Scale"
  bottom: "Convolution5"
  top: "Convolution5"
  scale_param {
    bias_term: true
  }
}
layer {
  name: "Eltwise2"
  type: "Eltwise"
  bottom: "Eltwise1"
  bottom: "Convolution5"
  top: "Eltwise2"
  eltwise_param {
    operation: SUM
  }
}
layer {
  name: "ReLU5"
  type: "ReLU"
  bottom: "Eltwise2"
  top: "Eltwise2"
}
layer {
  name: "Convolution6"
  type: "Convolution"
  bottom: "Eltwise2"
  top: "Convolution6"
  param {
    lr_mult: 1
    decay_mult: 1
  }
  param {
    lr_mult: 2
    decay_mult: 0
  }
  convolution_param {
    num_output: 16
    pad: 1
    kernel_size: 3
    stride: 1
    weight_filler {
      type: "msra"
    }
    bias_filler {
      type: "constant"
      value: 0
    }
  }
}
layer {
  name: "BatchNorm6"
  type: "BatchNorm"
  bottom: "Convolution6"
  top: "Convolution6"
  param {
    lr_mult: 0
    decay_mult: 0
  }
  param {
    lr_mult: 0
    decay_mult: 0
  }
  param {
    lr_mult: 0
    decay_mult: 0
  }
}
layer {
  name: "Scale6"
  type: "Scale"
  bottom: "Convolution6"
  top: "Convolution6"
  scale_param {
    bias_term: true
  }
}
layer {
  name: "ReLU6"
  type: "ReLU"
  bottom: "Convolution6"
  top: "Convolution6"
}
layer {
  name: "Convolution7"
  type: "Convolution"
  bottom: "Convolution6"
  top: "Convolution7"
  param {
    lr_mult: 1
    decay_mult: 1
  }
  param {
    lr_mult: 2
    decay_mult: 0
  }
  convolution_param {
    num_output: 16
    pad: 1
    kernel_size: 3
    stride: 1
    weight_filler {
      type: "msra"
    }
    bias_filler {
      type: "constant"
      value: 0
    }
  }
}
layer {
  name: "BatchNorm7"
  type: "BatchNorm"
  bottom: "Convolution7"
  top: "Convolution7"
  param {
    lr_mult: 0
    decay_mult: 0
  }
  param {
    lr_mult: 0
    decay_mult: 0
  }
  param {
    lr_mult: 0
    decay_mult: 0
  }
}
layer {
  name: "Scale7"
  type: "Scale"
  bottom: "Convolution7"
  top: "Convolution7"
  scale_param {
    bias_term: true
  }
}
layer {
  name: "Eltwise3"
  type: "Eltwise"
  bottom: "Eltwise2"
  bottom: "Convolution7"
  top: "Eltwise3"
  eltwise_param {
    operation: SUM
  }
}
layer {
  name: "ReLU7"
  type: "ReLU"
  bottom: "Eltwise3"
  top: "Eltwise3"
}
layer {
  name: "Convolution8"
  type: "Convolution"
  bottom: "Eltwise3"
  top: "Convolution8"
  param {
    lr_mult: 1
    decay_mult: 1
  }
  param {
    lr_mult: 2
    decay_mult: 0
  }
  convolution_param {
    num_output: 32
    pad: 0
    kernel_size: 1
    stride: 2
    weight_filler {
      type: "msra"
    }
    bias_filler {
      type: "constant"
      value: 0
    }
  }
}
layer {
  name: "BatchNorm8"
  type: "BatchNorm"
  bottom: "Convolution8"
  top: "Convolution8"
  param {
    lr_mult: 0
    decay_mult: 0
  }
  param {
    lr_mult: 0
    decay_mult: 0
  }
  param {
    lr_mult: 0
    decay_mult: 0
  }
}
layer {
  name: "Scale8"
  type: "Scale"
  bottom: "Convolution8"
  top: "Convolution8"
  scale_param {
    bias_term: true
  }
}
layer {
  name: "Convolution9"
  type: "Convolution"
  bottom: "Eltwise3"
  top: "Convolution9"
  param {
    lr_mult: 1
    decay_mult: 1
  }
  param {
    lr_mult: 2
    decay_mult: 0
  }
  convolution_param {
    num_output: 32
    pad: 1
    kernel_size: 3
    stride: 2
    weight_filler {
      type: "msra"
    }
    bias_filler {
      type: "constant"
      value: 0
    }
  }
}
layer {
  name: "BatchNorm9"
  type: "BatchNorm"
  bottom: "Convolution9"
  top: "Convolution9"
  param {
    lr_mult: 0
    decay_mult: 0
  }
  param {
    lr_mult: 0
    decay_mult: 0
  }
  param {
    lr_mult: 0
    decay_mult: 0
  }
}
layer {
  name: "Scale9"
  type: "Scale"
  bottom: "Convolution9"
  top: "Convolution9"
  scale_param {
    bias_term: true
  }
}
layer {
  name: "ReLU8"
  type: "ReLU"
  bottom: "Convolution9"
  top: "Convolution9"
}
layer {
  name: "Convolution10"
  type: "Convolution"
  bottom: "Convolution9"
  top: "Convolution10"
  param {
    lr_mult: 1
    decay_mult: 1
  }
  param {
    lr_mult: 2
    decay_mult: 0
  }
  convolution_param {
    num_output: 32
    pad: 1
    kernel_size: 3
    stride: 1
    weight_filler {
      type: "msra"
    }
    bias_filler {
      type: "constant"
      value: 0
    }
  }
}
layer {
  name: "BatchNorm10"
  type: "BatchNorm"
  bottom: "Convolution10"
  top: "Convolution10"
  param {
    lr_mult: 0
    decay_mult: 0
  }
  param {
    lr_mult: 0
    decay_mult: 0
  }
  param {
    lr_mult: 0
    decay_mult: 0
  }
}
layer {
  name: "Scale10"
  type: "Scale"
  bottom: "Convolution10"
  top: "Convolution10"
  scale_param {
    bias_term: true
  }
}
layer {
  name: "Eltwise4"
  type: "Eltwise"
  bottom: "Convolution8"
  bottom: "Convolution10"
  top: "Eltwise4"
  eltwise_param {
    operation: SUM
  }
}
layer {
  name: "ReLU9"
  type: "ReLU"
  bottom: "Eltwise4"
  top: "Eltwise4"
}
layer {
  name: "Convolution11"
  type: "Convolution"
  bottom: "Eltwise4"
  top: "Convolution11"
  param {
    lr_mult: 1
    decay_mult: 1
  }
  param {
    lr_mult: 2
    decay_mult: 0
  }
  convolution_param {
    num_output: 32
    pad: 1
    kernel_size: 3
    stride: 1
    weight_filler {
      type: "msra"
    }
    bias_filler {
      type: "constant"
      value: 0
    }
  }
}
layer {
  name: "BatchNorm11"
  type: "BatchNorm"
  bottom: "Convolution11"
  top: "Convolution11"
  param {
    lr_mult: 0
    decay_mult: 0
  }
  param {
    lr_mult: 0
    decay_mult: 0
  }
  param {
    lr_mult: 0
    decay_mult: 0
  }
}
layer {
  name: "Scale11"
  type: "Scale"
  bottom: "Convolution11"
  top: "Convolution11"
  scale_param {
    bias_term: true
  }
}
layer {
  name: "ReLU10"
  type: "ReLU"
  bottom: "Convolution11"
  top: "Convolution11"
}
layer {
  name: "Convolution12"
  type: "Convolution"
  bottom: "Convolution11"
  top: "Convolution12"
  param {
    lr_mult: 1
    decay_mult: 1
  }
  param {
    lr_mult: 2
    decay_mult: 0
  }
  convolution_param {
    num_output: 32
    pad: 1
    kernel_size: 3
    stride: 1
    weight_filler {
      type: "msra"
    }
    bias_filler {
      type: "constant"
      value: 0
    }
  }
}
layer {
  name: "BatchNorm12"
  type: "BatchNorm"
  bottom: "Convolution12"
  top: "Convolution12"
  param {
    lr_mult: 0
    decay_mult: 0
  }
  param {
    lr_mult: 0
    decay_mult: 0
  }
  param {
    lr_mult: 0
    decay_mult: 0
  }
}
layer {
  name: "Scale12"
  type: "Scale"
  bottom: "Convolution12"
  top: "Convolution12"
  scale_param {
    bias_term: true
  }
}
layer {
  name: "Eltwise5"
  type: "Eltwise"
  bottom: "Eltwise4"
  bottom: "Convolution12"
  top: "Eltwise5"
  eltwise_param {
    operation: SUM
  }
}
layer {
  name: "ReLU11"
  type: "ReLU"
  bottom: "Eltwise5"
  top: "Eltwise5"
}
layer {
  name: "Convolution13"
  type: "Convolution"
  bottom: "Eltwise5"
  top: "Convolution13"
  param {
    lr_mult: 1
    decay_mult: 1
  }
  param {
    lr_mult: 2
    decay_mult: 0
  }
  convolution_param {
    num_output: 32
    pad: 1
    kernel_size: 3
    stride: 1
    weight_filler {
      type: "msra"
    }
    bias_filler {
      type: "constant"
      value: 0
    }
  }
}
layer {
  name: "BatchNorm13"
  type: "BatchNorm"
  bottom: "Convolution13"
  top: "Convolution13"
  param {
    lr_mult: 0
    decay_mult: 0
  }
  param {
    lr_mult: 0
    decay_mult: 0
  }
  param {
    lr_mult: 0
    decay_mult: 0
  }
}
layer {
  name: "Scale13"
  type: "Scale"
  bottom: "Convolution13"
  top: "Convolution13"
  scale_param {
    bias_term: true
  }
}
layer {
  name: "ReLU12"
  type: "ReLU"
  bottom: "Convolution13"
  top: "Convolution13"
}
layer {
  name: "Convolution14"
  type: "Convolution"
  bottom: "Convolution13"
  top: "Convolution14"
  param {
    lr_mult: 1
    decay_mult: 1
  }
  param {
    lr_mult: 2
    decay_mult: 0
  }
  convolution_param {
    num_output: 32
    pad: 1
    kernel_size: 3
    stride: 1
    weight_filler {
      type: "msra"
    }
    bias_filler {
      type: "constant"
      value: 0
    }
  }
}
layer {
  name: "BatchNorm14"
  type: "BatchNorm"
  bottom: "Convolution14"
  top: "Convolution14"
  param {
    lr_mult: 0
    decay_mult: 0
  }
  param {
    lr_mult: 0
    decay_mult: 0
  }
  param {
    lr_mult: 0
    decay_mult: 0
  }
}
layer {
  name: "Scale14"
  type: "Scale"
  bottom: "Convolution14"
  top: "Convolution14"
  scale_param {
    bias_term: true
  }
}
layer {
  name: "Eltwise6"
  type: "Eltwise"
  bottom: "Eltwise5"
  bottom: "Convolution14"
  top: "Eltwise6"
  eltwise_param {
    operation: SUM
  }
}
layer {
  name: "ReLU13"
  type: "ReLU"
  bottom: "Eltwise6"
  top: "Eltwise6"
}
layer {
  name: "Convolution15"
  type: "Convolution"
  bottom: "Eltwise6"
  top: "Convolution15"
  param {
    lr_mult: 1
    decay_mult: 1
  }
  param {
    lr_mult: 2
    decay_mult: 0
  }
  convolution_param {
    num_output: 64
    pad: 0
    kernel_size: 1
    stride: 2
    weight_filler {
      type: "msra"
    }
    bias_filler {
      type: "constant"
      value: 0
    }
  }
}
layer {
  name: "BatchNorm15"
  type: "BatchNorm"
  bottom: "Convolution15"
  top: "Convolution15"
  param {
    lr_mult: 0
    decay_mult: 0
  }
  param {
    lr_mult: 0
    decay_mult: 0
  }
  param {
    lr_mult: 0
    decay_mult: 0
  }
}
layer {
  name: "Scale15"
  type: "Scale"
  bottom: "Convolution15"
  top: "Convolution15"
  scale_param {
    bias_term: true
  }
}
layer {
  name: "Convolution16"
  type: "Convolution"
  bottom: "Eltwise6"
  top: "Convolution16"
  param {
    lr_mult: 1
    decay_mult: 1
  }
  param {
    lr_mult: 2
    decay_mult: 0
  }
  convolution_param {
    num_output: 64
    pad: 1
    kernel_size: 3
    stride: 2
    weight_filler {
      type: "msra"
    }
    bias_filler {
      type: "constant"
      value: 0
    }
  }
}
layer {
  name: "BatchNorm16"
  type: "BatchNorm"
  bottom: "Convolution16"
  top: "Convolution16"
  param {
    lr_mult: 0
    decay_mult: 0
  }
  param {
    lr_mult: 0
    decay_mult: 0
  }
  param {
    lr_mult: 0
    decay_mult: 0
  }
}
layer {
  name: "Scale16"
  type: "Scale"
  bottom: "Convolution16"
  top: "Convolution16"
  scale_param {
    bias_term: true
  }
}
layer {
  name: "ReLU14"
  type: "ReLU"
  bottom: "Convolution16"
  top: "Convolution16"
}
layer {
  name: "Convolution17"
  type: "Convolution"
  bottom: "Convolution16"
  top: "Convolution17"
  param {
    lr_mult: 1
    decay_mult: 1
  }
  param {
    lr_mult: 2
    decay_mult: 0
  }
  convolution_param {
    num_output: 64
    pad: 1
    kernel_size: 3
    stride: 1
    weight_filler {
      type: "msra"
    }
    bias_filler {
      type: "constant"
      value: 0
    }
  }
}
layer {
  name: "BatchNorm17"
  type: "BatchNorm"
  bottom: "Convolution17"
  top: "Convolution17"
  param {
    lr_mult: 0
    decay_mult: 0
  }
  param {
    lr_mult: 0
    decay_mult: 0
  }
  param {
    lr_mult: 0
    decay_mult: 0
  }
}
layer {
  name: "Scale17"
  type: "Scale"
  bottom: "Convolution17"
  top: "Convolution17"
  scale_param {
    bias_term: true
  }
}
layer {
  name: "Eltwise7"
  type: "Eltwise"
  bottom: "Convolution15"
  bottom: "Convolution17"
  top: "Eltwise7"
  eltwise_param {
    operation: SUM
  }
}
layer {
  name: "ReLU15"
  type: "ReLU"
  bottom: "Eltwise7"
  top: "Eltwise7"
}
layer {
  name: "Convolution18"
  type: "Convolution"
  bottom: "Eltwise7"
  top: "Convolution18"
  param {
    lr_mult: 1
    decay_mult: 1
  }
  param {
    lr_mult: 2
    decay_mult: 0
  }
  convolution_param {
    num_output: 64
    pad: 1
    kernel_size: 3
    stride: 1
    weight_filler {
      type: "msra"
    }
    bias_filler {
      type: "constant"
      value: 0
    }
  }
}
layer {
  name: "BatchNorm18"
  type: "BatchNorm"
  bottom: "Convolution18"
  top: "Convolution18"
  param {
    lr_mult: 0
    decay_mult: 0
  }
  param {
    lr_mult: 0
    decay_mult: 0
  }
  param {
    lr_mult: 0
    decay_mult: 0
  }
}
layer {
  name: "Scale18"
  type: "Scale"
  bottom: "Convolution18"
  top: "Convolution18"
  scale_param {
    bias_term: true
  }
}
layer {
  name: "ReLU16"
  type: "ReLU"
  bottom: "Convolution18"
  top: "Convolution18"
}
layer {
  name: "Convolution19"
  type: "Convolution"
  bottom: "Convolution18"
  top: "Convolution19"
  param {
    lr_mult: 1
    decay_mult: 1
  }
  param {
    lr_mult: 2
    decay_mult: 0
  }
  convolution_param {
    num_output: 64
    pad: 1
    kernel_size: 3
    stride: 1
    weight_filler {
      type: "msra"
    }
    bias_filler {
      type: "constant"
      value: 0
    }
  }
}
layer {
  name: "BatchNorm19"
  type: "BatchNorm"
  bottom: "Convolution19"
  top: "Convolution19"
  param {
    lr_mult: 0
    decay_mult: 0
  }
  param {
    lr_mult: 0
    decay_mult: 0
  }
  param {
    lr_mult: 0
    decay_mult: 0
  }
}
layer {
  name: "Scale19"
  type: "Scale"
  bottom: "Convolution19"
  top: "Convolution19"
  scale_param {
    bias_term: true
  }
}
layer {
  name: "Eltwise8"
  type: "Eltwise"
  bottom: "Eltwise7"
  bottom: "Convolution19"
  top: "Eltwise8"
  eltwise_param {
    operation: SUM
  }
}
layer {
  name: "ReLU17"
  type: "ReLU"
  bottom: "Eltwise8"
  top: "Eltwise8"
}
layer {
  name: "Convolution20"
  type: "Convolution"
  bottom: "Eltwise8"
  top: "Convolution20"
  param {
    lr_mult: 1
    decay_mult: 1
  }
  param {
    lr_mult: 2
    decay_mult: 0
  }
  convolution_param {
    num_output: 64
    pad: 1
    kernel_size: 3
    stride: 1
    weight_filler {
      type: "msra"
    }
    bias_filler {
      type: "constant"
      value: 0
    }
  }
}
layer {
  name: "BatchNorm20"
  type: "BatchNorm"
  bottom: "Convolution20"
  top: "Convolution20"
  param {
    lr_mult: 0
    decay_mult: 0
  }
  param {
    lr_mult: 0
    decay_mult: 0
  }
  param {
    lr_mult: 0
    decay_mult: 0
  }
}
layer {
  name: "Scale20"
  type: "Scale"
  bottom: "Convolution20"
  top: "Convolution20"
  scale_param {
    bias_term: true
  }
}
layer {
  name: "ReLU18"
  type: "ReLU"
  bottom: "Convolution20"
  top: "Convolution20"
}
layer {
  name: "Convolution21"
  type: "Convolution"
  bottom: "Convolution20"
  top: "Convolution21"
  param {
    lr_mult: 1
    decay_mult: 1
  }
  param {
    lr_mult: 2
    decay_mult: 0
  }
  convolution_param {
    num_output: 64
    pad: 1
    kernel_size: 3
    stride: 1
    weight_filler {
      type: "msra"
    }
    bias_filler {
      type: "constant"
      value: 0
    }
  }
}
layer {
  name: "BatchNorm21"
  type: "BatchNorm"
  bottom: "Convolution21"
  top: "Convolution21"
  param {
    lr_mult: 0
    decay_mult: 0
  }
  param {
    lr_mult: 0
    decay_mult: 0
  }
  param {
    lr_mult: 0
    decay_mult: 0
  }
}
layer {
  name: "Scale21"
  type: "Scale"
  bottom: "Convolution21"
  top: "Convolution21"
  scale_param {
    bias_term: true
  }
}
layer {
  name: "Eltwise9"
  type: "Eltwise"
  bottom: "Eltwise8"
  bottom: "Convolution21"
  top: "Eltwise9"
  eltwise_param {
    operation: SUM
  }
}
layer {
  name: "ReLU19"
  type: "ReLU"
  bottom: "Eltwise9"
  top: "Eltwise9"
}
layer {
  name: "Pooling1"
  type: "Pooling"
  bottom: "Eltwise9"
  top: "Pooling1"
  pooling_param {
    pool: AVE
    global_pooling: true
  }
}
layer {
  name: "InnerProduct1"
  type: "InnerProduct"
  bottom: "Pooling1"
  top: "InnerProduct1"
  param {
    lr_mult: 1
    decay_mult: 1
  }
  param {
    lr_mult: 2
    decay_mult: 1
  }
  inner_product_param {
    num_output: 10
    weight_filler {
      type: "msra"
    }
    bias_filler {
      type: "constant"
      value: 0
    }
  }
}
layer {
  name: "SoftmaxWithLoss1"
  type: "SoftmaxWithLoss"
  bottom: "InnerProduct1"
  bottom: "Data2"
  top: "SoftmaxWithLoss1"
}
I0817 23:56:11.839726 15109 layer_factory.hpp:77] Creating layer Data1
I0817 23:56:11.839949 15109 db_lmdb.cpp:35] Opened lmdb /home/lijianfei/datasets/cifar10_40/train_lmdb
I0817 23:56:11.839998 15109 net.cpp:128] Creating Layer Data1
I0817 23:56:11.840009 15109 net.cpp:522] Data1 -> Data1
I0817 23:56:11.840044 15109 net.cpp:522] Data1 -> Data2
I0817 23:56:11.841907 15109 data_layer.cpp:45] output data size: 128,3,32,32
I0817 23:56:11.857535 15109 net.cpp:172] Setting up Data1
I0817 23:56:11.857595 15109 net.cpp:186] Top shape: 128 3 32 32 (393216)
I0817 23:56:11.857604 15109 net.cpp:186] Top shape: 128 (128)
I0817 23:56:11.857609 15109 net.cpp:194] Memory required for data: 1573376
I0817 23:56:11.857623 15109 layer_factory.hpp:77] Creating layer Convolution1
I0817 23:56:11.857668 15109 net.cpp:128] Creating Layer Convolution1
I0817 23:56:11.857730 15109 net.cpp:558] Convolution1 <- Data1
I0817 23:56:11.857772 15109 net.cpp:522] Convolution1 -> Convolution1
I0817 23:56:12.921633 15109 net.cpp:172] Setting up Convolution1
I0817 23:56:12.921702 15109 net.cpp:186] Top shape: 128 16 32 32 (2097152)
I0817 23:56:12.921708 15109 net.cpp:194] Memory required for data: 9961984
I0817 23:56:12.921756 15109 layer_factory.hpp:77] Creating layer BatchNorm1
I0817 23:56:12.921782 15109 net.cpp:128] Creating Layer BatchNorm1
I0817 23:56:12.921788 15109 net.cpp:558] BatchNorm1 <- Convolution1
I0817 23:56:12.921798 15109 net.cpp:509] BatchNorm1 -> Convolution1 (in-place)
I0817 23:56:12.922040 15109 net.cpp:172] Setting up BatchNorm1
I0817 23:56:12.922053 15109 net.cpp:186] Top shape: 128 16 32 32 (2097152)
I0817 23:56:12.922060 15109 net.cpp:194] Memory required for data: 18350592
I0817 23:56:12.922073 15109 layer_factory.hpp:77] Creating layer Scale1
I0817 23:56:12.922083 15109 net.cpp:128] Creating Layer Scale1
I0817 23:56:12.922088 15109 net.cpp:558] Scale1 <- Convolution1
I0817 23:56:12.922094 15109 net.cpp:509] Scale1 -> Convolution1 (in-place)
I0817 23:56:12.922199 15109 layer_factory.hpp:77] Creating layer Scale1
I0817 23:56:12.922333 15109 net.cpp:172] Setting up Scale1
I0817 23:56:12.922344 15109 net.cpp:186] Top shape: 128 16 32 32 (2097152)
I0817 23:56:12.922349 15109 net.cpp:194] Memory required for data: 26739200
I0817 23:56:12.922358 15109 layer_factory.hpp:77] Creating layer ReLU1
I0817 23:56:12.922369 15109 net.cpp:128] Creating Layer ReLU1
I0817 23:56:12.922374 15109 net.cpp:558] ReLU1 <- Convolution1
I0817 23:56:12.922379 15109 net.cpp:509] ReLU1 -> Convolution1 (in-place)
I0817 23:56:12.923281 15109 net.cpp:172] Setting up ReLU1
I0817 23:56:12.923300 15109 net.cpp:186] Top shape: 128 16 32 32 (2097152)
I0817 23:56:12.923305 15109 net.cpp:194] Memory required for data: 35127808
I0817 23:56:12.923308 15109 layer_factory.hpp:77] Creating layer Convolution1_ReLU1_0_split
I0817 23:56:12.923318 15109 net.cpp:128] Creating Layer Convolution1_ReLU1_0_split
I0817 23:56:12.923323 15109 net.cpp:558] Convolution1_ReLU1_0_split <- Convolution1
I0817 23:56:12.923331 15109 net.cpp:522] Convolution1_ReLU1_0_split -> Convolution1_ReLU1_0_split_0
I0817 23:56:12.923339 15109 net.cpp:522] Convolution1_ReLU1_0_split -> Convolution1_ReLU1_0_split_1
I0817 23:56:12.923388 15109 net.cpp:172] Setting up Convolution1_ReLU1_0_split
I0817 23:56:12.923395 15109 net.cpp:186] Top shape: 128 16 32 32 (2097152)
I0817 23:56:12.923401 15109 net.cpp:186] Top shape: 128 16 32 32 (2097152)
I0817 23:56:12.923406 15109 net.cpp:194] Memory required for data: 51905024
I0817 23:56:12.923410 15109 layer_factory.hpp:77] Creating layer Convolution2
I0817 23:56:12.923426 15109 net.cpp:128] Creating Layer Convolution2
I0817 23:56:12.923430 15109 net.cpp:558] Convolution2 <- Convolution1_ReLU1_0_split_0
I0817 23:56:12.923437 15109 net.cpp:522] Convolution2 -> Convolution2
I0817 23:56:12.930009 15109 net.cpp:172] Setting up Convolution2
I0817 23:56:12.930037 15109 net.cpp:186] Top shape: 128 16 32 32 (2097152)
I0817 23:56:12.930042 15109 net.cpp:194] Memory required for data: 60293632
I0817 23:56:12.930054 15109 layer_factory.hpp:77] Creating layer BatchNorm2
I0817 23:56:12.930065 15109 net.cpp:128] Creating Layer BatchNorm2
I0817 23:56:12.930070 15109 net.cpp:558] BatchNorm2 <- Convolution2
I0817 23:56:12.930078 15109 net.cpp:509] BatchNorm2 -> Convolution2 (in-place)
I0817 23:56:12.930297 15109 net.cpp:172] Setting up BatchNorm2
I0817 23:56:12.930310 15109 net.cpp:186] Top shape: 128 16 32 32 (2097152)
I0817 23:56:12.930315 15109 net.cpp:194] Memory required for data: 68682240
I0817 23:56:12.930325 15109 layer_factory.hpp:77] Creating layer Scale2
I0817 23:56:12.930335 15109 net.cpp:128] Creating Layer Scale2
I0817 23:56:12.930339 15109 net.cpp:558] Scale2 <- Convolution2
I0817 23:56:12.930346 15109 net.cpp:509] Scale2 -> Convolution2 (in-place)
I0817 23:56:12.930382 15109 layer_factory.hpp:77] Creating layer Scale2
I0817 23:56:12.930555 15109 net.cpp:172] Setting up Scale2
I0817 23:56:12.930569 15109 net.cpp:186] Top shape: 128 16 32 32 (2097152)
I0817 23:56:12.930574 15109 net.cpp:194] Memory required for data: 77070848
I0817 23:56:12.930583 15109 layer_factory.hpp:77] Creating layer ReLU2
I0817 23:56:12.930590 15109 net.cpp:128] Creating Layer ReLU2
I0817 23:56:12.930594 15109 net.cpp:558] ReLU2 <- Convolution2
I0817 23:56:12.930601 15109 net.cpp:509] ReLU2 -> Convolution2 (in-place)
I0817 23:56:12.932108 15109 net.cpp:172] Setting up ReLU2
I0817 23:56:12.932127 15109 net.cpp:186] Top shape: 128 16 32 32 (2097152)
I0817 23:56:12.932132 15109 net.cpp:194] Memory required for data: 85459456
I0817 23:56:12.932137 15109 layer_factory.hpp:77] Creating layer Convolution3
I0817 23:56:12.932147 15109 net.cpp:128] Creating Layer Convolution3
I0817 23:56:12.932152 15109 net.cpp:558] Convolution3 <- Convolution2
I0817 23:56:12.932160 15109 net.cpp:522] Convolution3 -> Convolution3
I0817 23:56:12.938840 15109 net.cpp:172] Setting up Convolution3
I0817 23:56:12.938866 15109 net.cpp:186] Top shape: 128 16 32 32 (2097152)
I0817 23:56:12.938871 15109 net.cpp:194] Memory required for data: 93848064
I0817 23:56:12.938881 15109 layer_factory.hpp:77] Creating layer BatchNorm3
I0817 23:56:12.938913 15109 net.cpp:128] Creating Layer BatchNorm3
I0817 23:56:12.938918 15109 net.cpp:558] BatchNorm3 <- Convolution3
I0817 23:56:12.938926 15109 net.cpp:509] BatchNorm3 -> Convolution3 (in-place)
I0817 23:56:12.939172 15109 net.cpp:172] Setting up BatchNorm3
I0817 23:56:12.939184 15109 net.cpp:186] Top shape: 128 16 32 32 (2097152)
I0817 23:56:12.939188 15109 net.cpp:194] Memory required for data: 102236672
I0817 23:56:12.939203 15109 layer_factory.hpp:77] Creating layer Scale3
I0817 23:56:12.939210 15109 net.cpp:128] Creating Layer Scale3
I0817 23:56:12.939215 15109 net.cpp:558] Scale3 <- Convolution3
I0817 23:56:12.939221 15109 net.cpp:509] Scale3 -> Convolution3 (in-place)
I0817 23:56:12.939258 15109 layer_factory.hpp:77] Creating layer Scale3
I0817 23:56:12.939386 15109 net.cpp:172] Setting up Scale3
I0817 23:56:12.939397 15109 net.cpp:186] Top shape: 128 16 32 32 (2097152)
I0817 23:56:12.939402 15109 net.cpp:194] Memory required for data: 110625280
I0817 23:56:12.939410 15109 layer_factory.hpp:77] Creating layer Eltwise1
I0817 23:56:12.939419 15109 net.cpp:128] Creating Layer Eltwise1
I0817 23:56:12.939424 15109 net.cpp:558] Eltwise1 <- Convolution1_ReLU1_0_split_1
I0817 23:56:12.939429 15109 net.cpp:558] Eltwise1 <- Convolution3
I0817 23:56:12.939435 15109 net.cpp:522] Eltwise1 -> Eltwise1
I0817 23:56:12.939463 15109 net.cpp:172] Setting up Eltwise1
I0817 23:56:12.939503 15109 net.cpp:186] Top shape: 128 16 32 32 (2097152)
I0817 23:56:12.939512 15109 net.cpp:194] Memory required for data: 119013888
I0817 23:56:12.939517 15109 layer_factory.hpp:77] Creating layer ReLU3
I0817 23:56:12.939524 15109 net.cpp:128] Creating Layer ReLU3
I0817 23:56:12.939529 15109 net.cpp:558] ReLU3 <- Eltwise1
I0817 23:56:12.939535 15109 net.cpp:509] ReLU3 -> Eltwise1 (in-place)
I0817 23:56:12.940927 15109 net.cpp:172] Setting up ReLU3
I0817 23:56:12.940953 15109 net.cpp:186] Top shape: 128 16 32 32 (2097152)
I0817 23:56:12.940958 15109 net.cpp:194] Memory required for data: 127402496
I0817 23:56:12.940963 15109 layer_factory.hpp:77] Creating layer Eltwise1_ReLU3_0_split
I0817 23:56:12.940971 15109 net.cpp:128] Creating Layer Eltwise1_ReLU3_0_split
I0817 23:56:12.940976 15109 net.cpp:558] Eltwise1_ReLU3_0_split <- Eltwise1
I0817 23:56:12.940984 15109 net.cpp:522] Eltwise1_ReLU3_0_split -> Eltwise1_ReLU3_0_split_0
I0817 23:56:12.940996 15109 net.cpp:522] Eltwise1_ReLU3_0_split -> Eltwise1_ReLU3_0_split_1
I0817 23:56:12.941042 15109 net.cpp:172] Setting up Eltwise1_ReLU3_0_split
I0817 23:56:12.941051 15109 net.cpp:186] Top shape: 128 16 32 32 (2097152)
I0817 23:56:12.941057 15109 net.cpp:186] Top shape: 128 16 32 32 (2097152)
I0817 23:56:12.941061 15109 net.cpp:194] Memory required for data: 144179712
I0817 23:56:12.941066 15109 layer_factory.hpp:77] Creating layer Convolution4
I0817 23:56:12.941079 15109 net.cpp:128] Creating Layer Convolution4
I0817 23:56:12.941084 15109 net.cpp:558] Convolution4 <- Eltwise1_ReLU3_0_split_0
I0817 23:56:12.941092 15109 net.cpp:522] Convolution4 -> Convolution4
I0817 23:56:12.947664 15109 net.cpp:172] Setting up Convolution4
I0817 23:56:12.947691 15109 net.cpp:186] Top shape: 128 16 32 32 (2097152)
I0817 23:56:12.947696 15109 net.cpp:194] Memory required for data: 152568320
I0817 23:56:12.947706 15109 layer_factory.hpp:77] Creating layer BatchNorm4
I0817 23:56:12.947716 15109 net.cpp:128] Creating Layer BatchNorm4
I0817 23:56:12.947721 15109 net.cpp:558] BatchNorm4 <- Convolution4
I0817 23:56:12.947728 15109 net.cpp:509] BatchNorm4 -> Convolution4 (in-place)
I0817 23:56:12.947952 15109 net.cpp:172] Setting up BatchNorm4
I0817 23:56:12.947962 15109 net.cpp:186] Top shape: 128 16 32 32 (2097152)
I0817 23:56:12.947968 15109 net.cpp:194] Memory required for data: 160956928
I0817 23:56:12.947978 15109 layer_factory.hpp:77] Creating layer Scale4
I0817 23:56:12.947986 15109 net.cpp:128] Creating Layer Scale4
I0817 23:56:12.947990 15109 net.cpp:558] Scale4 <- Convolution4
I0817 23:56:12.947996 15109 net.cpp:509] Scale4 -> Convolution4 (in-place)
I0817 23:56:12.948051 15109 layer_factory.hpp:77] Creating layer Scale4
I0817 23:56:12.948176 15109 net.cpp:172] Setting up Scale4
I0817 23:56:12.948189 15109 net.cpp:186] Top shape: 128 16 32 32 (2097152)
I0817 23:56:12.948194 15109 net.cpp:194] Memory required for data: 169345536
I0817 23:56:12.948201 15109 layer_factory.hpp:77] Creating layer ReLU4
I0817 23:56:12.948209 15109 net.cpp:128] Creating Layer ReLU4
I0817 23:56:12.948212 15109 net.cpp:558] ReLU4 <- Convolution4
I0817 23:56:12.948218 15109 net.cpp:509] ReLU4 -> Convolution4 (in-place)
I0817 23:56:12.949753 15109 net.cpp:172] Setting up ReLU4
I0817 23:56:12.949769 15109 net.cpp:186] Top shape: 128 16 32 32 (2097152)
I0817 23:56:12.949774 15109 net.cpp:194] Memory required for data: 177734144
I0817 23:56:12.949779 15109 layer_factory.hpp:77] Creating layer Convolution5
I0817 23:56:12.949790 15109 net.cpp:128] Creating Layer Convolution5
I0817 23:56:12.949795 15109 net.cpp:558] Convolution5 <- Convolution4
I0817 23:56:12.949802 15109 net.cpp:522] Convolution5 -> Convolution5
I0817 23:56:12.956483 15109 net.cpp:172] Setting up Convolution5
I0817 23:56:12.956509 15109 net.cpp:186] Top shape: 128 16 32 32 (2097152)
I0817 23:56:12.956514 15109 net.cpp:194] Memory required for data: 186122752
I0817 23:56:12.956524 15109 layer_factory.hpp:77] Creating layer BatchNorm5
I0817 23:56:12.956534 15109 net.cpp:128] Creating Layer BatchNorm5
I0817 23:56:12.956539 15109 net.cpp:558] BatchNorm5 <- Convolution5
I0817 23:56:12.956547 15109 net.cpp:509] BatchNorm5 -> Convolution5 (in-place)
I0817 23:56:12.956778 15109 net.cpp:172] Setting up BatchNorm5
I0817 23:56:12.956789 15109 net.cpp:186] Top shape: 128 16 32 32 (2097152)
I0817 23:56:12.956794 15109 net.cpp:194] Memory required for data: 194511360
I0817 23:56:12.956805 15109 layer_factory.hpp:77] Creating layer Scale5
I0817 23:56:12.956813 15109 net.cpp:128] Creating Layer Scale5
I0817 23:56:12.956818 15109 net.cpp:558] Scale5 <- Convolution5
I0817 23:56:12.956825 15109 net.cpp:509] Scale5 -> Convolution5 (in-place)
I0817 23:56:12.956862 15109 layer_factory.hpp:77] Creating layer Scale5
I0817 23:56:12.956987 15109 net.cpp:172] Setting up Scale5
I0817 23:56:12.956998 15109 net.cpp:186] Top shape: 128 16 32 32 (2097152)
I0817 23:56:12.957003 15109 net.cpp:194] Memory required for data: 202899968
I0817 23:56:12.957011 15109 layer_factory.hpp:77] Creating layer Eltwise2
I0817 23:56:12.957018 15109 net.cpp:128] Creating Layer Eltwise2
I0817 23:56:12.957023 15109 net.cpp:558] Eltwise2 <- Eltwise1_ReLU3_0_split_1
I0817 23:56:12.957028 15109 net.cpp:558] Eltwise2 <- Convolution5
I0817 23:56:12.957034 15109 net.cpp:522] Eltwise2 -> Eltwise2
I0817 23:56:12.957059 15109 net.cpp:172] Setting up Eltwise2
I0817 23:56:12.957067 15109 net.cpp:186] Top shape: 128 16 32 32 (2097152)
I0817 23:56:12.957070 15109 net.cpp:194] Memory required for data: 211288576
I0817 23:56:12.957074 15109 layer_factory.hpp:77] Creating layer ReLU5
I0817 23:56:12.957082 15109 net.cpp:128] Creating Layer ReLU5
I0817 23:56:12.957085 15109 net.cpp:558] ReLU5 <- Eltwise2
I0817 23:56:12.957092 15109 net.cpp:509] ReLU5 -> Eltwise2 (in-place)
I0817 23:56:12.958573 15109 net.cpp:172] Setting up ReLU5
I0817 23:56:12.958590 15109 net.cpp:186] Top shape: 128 16 32 32 (2097152)
I0817 23:56:12.958595 15109 net.cpp:194] Memory required for data: 219677184
I0817 23:56:12.958600 15109 layer_factory.hpp:77] Creating layer Eltwise2_ReLU5_0_split
I0817 23:56:12.958607 15109 net.cpp:128] Creating Layer Eltwise2_ReLU5_0_split
I0817 23:56:12.958612 15109 net.cpp:558] Eltwise2_ReLU5_0_split <- Eltwise2
I0817 23:56:12.958619 15109 net.cpp:522] Eltwise2_ReLU5_0_split -> Eltwise2_ReLU5_0_split_0
I0817 23:56:12.958627 15109 net.cpp:522] Eltwise2_ReLU5_0_split -> Eltwise2_ReLU5_0_split_1
I0817 23:56:12.958676 15109 net.cpp:172] Setting up Eltwise2_ReLU5_0_split
I0817 23:56:12.958683 15109 net.cpp:186] Top shape: 128 16 32 32 (2097152)
I0817 23:56:12.958689 15109 net.cpp:186] Top shape: 128 16 32 32 (2097152)
I0817 23:56:12.958693 15109 net.cpp:194] Memory required for data: 236454400
I0817 23:56:12.958712 15109 layer_factory.hpp:77] Creating layer Convolution6
I0817 23:56:12.958724 15109 net.cpp:128] Creating Layer Convolution6
I0817 23:56:12.958729 15109 net.cpp:558] Convolution6 <- Eltwise2_ReLU5_0_split_0
I0817 23:56:12.958735 15109 net.cpp:522] Convolution6 -> Convolution6
I0817 23:56:12.965335 15109 net.cpp:172] Setting up Convolution6
I0817 23:56:12.965363 15109 net.cpp:186] Top shape: 128 16 32 32 (2097152)
I0817 23:56:12.965368 15109 net.cpp:194] Memory required for data: 244843008
I0817 23:56:12.965378 15109 layer_factory.hpp:77] Creating layer BatchNorm6
I0817 23:56:12.965389 15109 net.cpp:128] Creating Layer BatchNorm6
I0817 23:56:12.965394 15109 net.cpp:558] BatchNorm6 <- Convolution6
I0817 23:56:12.965401 15109 net.cpp:509] BatchNorm6 -> Convolution6 (in-place)
I0817 23:56:12.965642 15109 net.cpp:172] Setting up BatchNorm6
I0817 23:56:12.965651 15109 net.cpp:186] Top shape: 128 16 32 32 (2097152)
I0817 23:56:12.965654 15109 net.cpp:194] Memory required for data: 253231616
I0817 23:56:12.965664 15109 layer_factory.hpp:77] Creating layer Scale6
I0817 23:56:12.965673 15109 net.cpp:128] Creating Layer Scale6
I0817 23:56:12.965678 15109 net.cpp:558] Scale6 <- Convolution6
I0817 23:56:12.965683 15109 net.cpp:509] Scale6 -> Convolution6 (in-place)
I0817 23:56:12.965721 15109 layer_factory.hpp:77] Creating layer Scale6
I0817 23:56:12.965858 15109 net.cpp:172] Setting up Scale6
I0817 23:56:12.965865 15109 net.cpp:186] Top shape: 128 16 32 32 (2097152)
I0817 23:56:12.965869 15109 net.cpp:194] Memory required for data: 261620224
I0817 23:56:12.965878 15109 layer_factory.hpp:77] Creating layer ReLU6
I0817 23:56:12.965883 15109 net.cpp:128] Creating Layer ReLU6
I0817 23:56:12.965888 15109 net.cpp:558] ReLU6 <- Convolution6
I0817 23:56:12.965893 15109 net.cpp:509] ReLU6 -> Convolution6 (in-place)
I0817 23:56:12.967416 15109 net.cpp:172] Setting up ReLU6
I0817 23:56:12.967433 15109 net.cpp:186] Top shape: 128 16 32 32 (2097152)
I0817 23:56:12.967437 15109 net.cpp:194] Memory required for data: 270008832
I0817 23:56:12.967442 15109 layer_factory.hpp:77] Creating layer Convolution7
I0817 23:56:12.967458 15109 net.cpp:128] Creating Layer Convolution7
I0817 23:56:12.967463 15109 net.cpp:558] Convolution7 <- Convolution6
I0817 23:56:12.967478 15109 net.cpp:522] Convolution7 -> Convolution7
I0817 23:56:12.974169 15109 net.cpp:172] Setting up Convolution7
I0817 23:56:12.974229 15109 net.cpp:186] Top shape: 128 16 32 32 (2097152)
I0817 23:56:12.974248 15109 net.cpp:194] Memory required for data: 278397440
I0817 23:56:12.974282 15109 layer_factory.hpp:77] Creating layer BatchNorm7
I0817 23:56:12.974309 15109 net.cpp:128] Creating Layer BatchNorm7
I0817 23:56:12.974328 15109 net.cpp:558] BatchNorm7 <- Convolution7
I0817 23:56:12.974347 15109 net.cpp:509] BatchNorm7 -> Convolution7 (in-place)
I0817 23:56:12.974611 15109 net.cpp:172] Setting up BatchNorm7
I0817 23:56:12.974632 15109 net.cpp:186] Top shape: 128 16 32 32 (2097152)
I0817 23:56:12.974649 15109 net.cpp:194] Memory required for data: 286786048
I0817 23:56:12.974673 15109 layer_factory.hpp:77] Creating layer Scale7
I0817 23:56:12.974699 15109 net.cpp:128] Creating Layer Scale7
I0817 23:56:12.974714 15109 net.cpp:558] Scale7 <- Convolution7
I0817 23:56:12.974733 15109 net.cpp:509] Scale7 -> Convolution7 (in-place)
I0817 23:56:12.974795 15109 layer_factory.hpp:77] Creating layer Scale7
I0817 23:56:12.974968 15109 net.cpp:172] Setting up Scale7
I0817 23:56:12.974994 15109 net.cpp:186] Top shape: 128 16 32 32 (2097152)
I0817 23:56:12.975010 15109 net.cpp:194] Memory required for data: 295174656
I0817 23:56:12.975033 15109 layer_factory.hpp:77] Creating layer Eltwise3
I0817 23:56:12.975056 15109 net.cpp:128] Creating Layer Eltwise3
I0817 23:56:12.975073 15109 net.cpp:558] Eltwise3 <- Eltwise2_ReLU5_0_split_1
I0817 23:56:12.975091 15109 net.cpp:558] Eltwise3 <- Convolution7
I0817 23:56:12.975111 15109 net.cpp:522] Eltwise3 -> Eltwise3
I0817 23:56:12.975157 15109 net.cpp:172] Setting up Eltwise3
I0817 23:56:12.975178 15109 net.cpp:186] Top shape: 128 16 32 32 (2097152)
I0817 23:56:12.975205 15109 net.cpp:194] Memory required for data: 303563264
I0817 23:56:12.975221 15109 layer_factory.hpp:77] Creating layer ReLU7
I0817 23:56:12.975242 15109 net.cpp:128] Creating Layer ReLU7
I0817 23:56:12.975258 15109 net.cpp:558] ReLU7 <- Eltwise3
I0817 23:56:12.975276 15109 net.cpp:509] ReLU7 -> Eltwise3 (in-place)
I0817 23:56:12.976222 15109 net.cpp:172] Setting up ReLU7
I0817 23:56:12.976253 15109 net.cpp:186] Top shape: 128 16 32 32 (2097152)
I0817 23:56:12.976272 15109 net.cpp:194] Memory required for data: 311951872
I0817 23:56:12.976287 15109 layer_factory.hpp:77] Creating layer Eltwise3_ReLU7_0_split
I0817 23:56:12.976307 15109 net.cpp:128] Creating Layer Eltwise3_ReLU7_0_split
I0817 23:56:12.976325 15109 net.cpp:558] Eltwise3_ReLU7_0_split <- Eltwise3
I0817 23:56:12.976346 15109 net.cpp:522] Eltwise3_ReLU7_0_split -> Eltwise3_ReLU7_0_split_0
I0817 23:56:12.976368 15109 net.cpp:522] Eltwise3_ReLU7_0_split -> Eltwise3_ReLU7_0_split_1
I0817 23:56:12.976440 15109 net.cpp:172] Setting up Eltwise3_ReLU7_0_split
I0817 23:56:12.976452 15109 net.cpp:186] Top shape: 128 16 32 32 (2097152)
I0817 23:56:12.976459 15109 net.cpp:186] Top shape: 128 16 32 32 (2097152)
I0817 23:56:12.976462 15109 net.cpp:194] Memory required for data: 328729088
I0817 23:56:12.976467 15109 layer_factory.hpp:77] Creating layer Convolution8
I0817 23:56:12.976481 15109 net.cpp:128] Creating Layer Convolution8
I0817 23:56:12.976486 15109 net.cpp:558] Convolution8 <- Eltwise3_ReLU7_0_split_0
I0817 23:56:12.976495 15109 net.cpp:522] Convolution8 -> Convolution8
I0817 23:56:12.983328 15109 net.cpp:172] Setting up Convolution8
I0817 23:56:12.983361 15109 net.cpp:186] Top shape: 128 32 16 16 (1048576)
I0817 23:56:12.983364 15109 net.cpp:194] Memory required for data: 332923392
I0817 23:56:12.983379 15109 layer_factory.hpp:77] Creating layer BatchNorm8
I0817 23:56:12.983393 15109 net.cpp:128] Creating Layer BatchNorm8
I0817 23:56:12.983398 15109 net.cpp:558] BatchNorm8 <- Convolution8
I0817 23:56:12.983405 15109 net.cpp:509] BatchNorm8 -> Convolution8 (in-place)
I0817 23:56:12.983660 15109 net.cpp:172] Setting up BatchNorm8
I0817 23:56:12.983670 15109 net.cpp:186] Top shape: 128 32 16 16 (1048576)
I0817 23:56:12.983675 15109 net.cpp:194] Memory required for data: 337117696
I0817 23:56:12.983685 15109 layer_factory.hpp:77] Creating layer Scale8
I0817 23:56:12.983692 15109 net.cpp:128] Creating Layer Scale8
I0817 23:56:12.983696 15109 net.cpp:558] Scale8 <- Convolution8
I0817 23:56:12.983702 15109 net.cpp:509] Scale8 -> Convolution8 (in-place)
I0817 23:56:12.983745 15109 layer_factory.hpp:77] Creating layer Scale8
I0817 23:56:12.983886 15109 net.cpp:172] Setting up Scale8
I0817 23:56:12.983896 15109 net.cpp:186] Top shape: 128 32 16 16 (1048576)
I0817 23:56:12.983901 15109 net.cpp:194] Memory required for data: 341312000
I0817 23:56:12.983908 15109 layer_factory.hpp:77] Creating layer Convolution9
I0817 23:56:12.983923 15109 net.cpp:128] Creating Layer Convolution9
I0817 23:56:12.983928 15109 net.cpp:558] Convolution9 <- Eltwise3_ReLU7_0_split_1
I0817 23:56:12.983938 15109 net.cpp:522] Convolution9 -> Convolution9
I0817 23:56:12.989684 15109 net.cpp:172] Setting up Convolution9
I0817 23:56:12.989722 15109 net.cpp:186] Top shape: 128 32 16 16 (1048576)
I0817 23:56:12.989727 15109 net.cpp:194] Memory required for data: 345506304
I0817 23:56:12.989747 15109 layer_factory.hpp:77] Creating layer BatchNorm9
I0817 23:56:12.989789 15109 net.cpp:128] Creating Layer BatchNorm9
I0817 23:56:12.989796 15109 net.cpp:558] BatchNorm9 <- Convolution9
I0817 23:56:12.989806 15109 net.cpp:509] BatchNorm9 -> Convolution9 (in-place)
I0817 23:56:12.990054 15109 net.cpp:172] Setting up BatchNorm9
I0817 23:56:12.990067 15109 net.cpp:186] Top shape: 128 32 16 16 (1048576)
I0817 23:56:12.990072 15109 net.cpp:194] Memory required for data: 349700608
I0817 23:56:12.990082 15109 layer_factory.hpp:77] Creating layer Scale9
I0817 23:56:12.990092 15109 net.cpp:128] Creating Layer Scale9
I0817 23:56:12.990095 15109 net.cpp:558] Scale9 <- Convolution9
I0817 23:56:12.990131 15109 net.cpp:509] Scale9 -> Convolution9 (in-place)
I0817 23:56:12.990175 15109 layer_factory.hpp:77] Creating layer Scale9
I0817 23:56:12.990352 15109 net.cpp:172] Setting up Scale9
I0817 23:56:12.990367 15109 net.cpp:186] Top shape: 128 32 16 16 (1048576)
I0817 23:56:12.990371 15109 net.cpp:194] Memory required for data: 353894912
I0817 23:56:12.990381 15109 layer_factory.hpp:77] Creating layer ReLU8
I0817 23:56:12.990401 15109 net.cpp:128] Creating Layer ReLU8
I0817 23:56:12.990406 15109 net.cpp:558] ReLU8 <- Convolution9
I0817 23:56:12.990411 15109 net.cpp:509] ReLU8 -> Convolution9 (in-place)
I0817 23:56:12.991737 15109 net.cpp:172] Setting up ReLU8
I0817 23:56:12.991760 15109 net.cpp:186] Top shape: 128 32 16 16 (1048576)
I0817 23:56:12.991765 15109 net.cpp:194] Memory required for data: 358089216
I0817 23:56:12.991773 15109 layer_factory.hpp:77] Creating layer Convolution10
I0817 23:56:12.991787 15109 net.cpp:128] Creating Layer Convolution10
I0817 23:56:12.991792 15109 net.cpp:558] Convolution10 <- Convolution9
I0817 23:56:12.991799 15109 net.cpp:522] Convolution10 -> Convolution10
I0817 23:56:12.993291 15109 net.cpp:172] Setting up Convolution10
I0817 23:56:12.993317 15109 net.cpp:186] Top shape: 128 32 16 16 (1048576)
I0817 23:56:12.993322 15109 net.cpp:194] Memory required for data: 362283520
I0817 23:56:12.993350 15109 layer_factory.hpp:77] Creating layer BatchNorm10
I0817 23:56:12.993360 15109 net.cpp:128] Creating Layer BatchNorm10
I0817 23:56:12.993366 15109 net.cpp:558] BatchNorm10 <- Convolution10
I0817 23:56:12.993371 15109 net.cpp:509] BatchNorm10 -> Convolution10 (in-place)
I0817 23:56:12.993607 15109 net.cpp:172] Setting up BatchNorm10
I0817 23:56:12.993618 15109 net.cpp:186] Top shape: 128 32 16 16 (1048576)
I0817 23:56:12.993621 15109 net.cpp:194] Memory required for data: 366477824
I0817 23:56:12.993631 15109 layer_factory.hpp:77] Creating layer Scale10
I0817 23:56:12.993638 15109 net.cpp:128] Creating Layer Scale10
I0817 23:56:12.993643 15109 net.cpp:558] Scale10 <- Convolution10
I0817 23:56:12.993649 15109 net.cpp:509] Scale10 -> Convolution10 (in-place)
I0817 23:56:12.993687 15109 layer_factory.hpp:77] Creating layer Scale10
I0817 23:56:12.993824 15109 net.cpp:172] Setting up Scale10
I0817 23:56:12.993834 15109 net.cpp:186] Top shape: 128 32 16 16 (1048576)
I0817 23:56:12.993839 15109 net.cpp:194] Memory required for data: 370672128
I0817 23:56:12.993845 15109 layer_factory.hpp:77] Creating layer Eltwise4
I0817 23:56:12.993856 15109 net.cpp:128] Creating Layer Eltwise4
I0817 23:56:12.993861 15109 net.cpp:558] Eltwise4 <- Convolution8
I0817 23:56:12.993866 15109 net.cpp:558] Eltwise4 <- Convolution10
I0817 23:56:12.993872 15109 net.cpp:522] Eltwise4 -> Eltwise4
I0817 23:56:12.993893 15109 net.cpp:172] Setting up Eltwise4
I0817 23:56:12.993901 15109 net.cpp:186] Top shape: 128 32 16 16 (1048576)
I0817 23:56:12.993904 15109 net.cpp:194] Memory required for data: 374866432
I0817 23:56:12.993908 15109 layer_factory.hpp:77] Creating layer ReLU9
I0817 23:56:12.993917 15109 net.cpp:128] Creating Layer ReLU9
I0817 23:56:12.993922 15109 net.cpp:558] ReLU9 <- Eltwise4
I0817 23:56:12.993930 15109 net.cpp:509] ReLU9 -> Eltwise4 (in-place)
I0817 23:56:12.994161 15109 net.cpp:172] Setting up ReLU9
I0817 23:56:12.994174 15109 net.cpp:186] Top shape: 128 32 16 16 (1048576)
I0817 23:56:12.994179 15109 net.cpp:194] Memory required for data: 379060736
I0817 23:56:12.994184 15109 layer_factory.hpp:77] Creating layer Eltwise4_ReLU9_0_split
I0817 23:56:12.994192 15109 net.cpp:128] Creating Layer Eltwise4_ReLU9_0_split
I0817 23:56:12.994196 15109 net.cpp:558] Eltwise4_ReLU9_0_split <- Eltwise4
I0817 23:56:12.994204 15109 net.cpp:522] Eltwise4_ReLU9_0_split -> Eltwise4_ReLU9_0_split_0
I0817 23:56:12.994216 15109 net.cpp:522] Eltwise4_ReLU9_0_split -> Eltwise4_ReLU9_0_split_1
I0817 23:56:12.994264 15109 net.cpp:172] Setting up Eltwise4_ReLU9_0_split
I0817 23:56:12.994271 15109 net.cpp:186] Top shape: 128 32 16 16 (1048576)
I0817 23:56:12.994277 15109 net.cpp:186] Top shape: 128 32 16 16 (1048576)
I0817 23:56:12.994297 15109 net.cpp:194] Memory required for data: 387449344
I0817 23:56:12.994300 15109 layer_factory.hpp:77] Creating layer Convolution11
I0817 23:56:12.994313 15109 net.cpp:128] Creating Layer Convolution11
I0817 23:56:12.994318 15109 net.cpp:558] Convolution11 <- Eltwise4_ReLU9_0_split_0
I0817 23:56:12.994328 15109 net.cpp:522] Convolution11 -> Convolution11
I0817 23:56:12.995790 15109 net.cpp:172] Setting up Convolution11
I0817 23:56:12.995820 15109 net.cpp:186] Top shape: 128 32 16 16 (1048576)
I0817 23:56:12.995826 15109 net.cpp:194] Memory required for data: 391643648
I0817 23:56:12.995836 15109 layer_factory.hpp:77] Creating layer BatchNorm11
I0817 23:56:12.995846 15109 net.cpp:128] Creating Layer BatchNorm11
I0817 23:56:12.995849 15109 net.cpp:558] BatchNorm11 <- Convolution11
I0817 23:56:12.995859 15109 net.cpp:509] BatchNorm11 -> Convolution11 (in-place)
I0817 23:56:12.996095 15109 net.cpp:172] Setting up BatchNorm11
I0817 23:56:12.996104 15109 net.cpp:186] Top shape: 128 32 16 16 (1048576)
I0817 23:56:12.996107 15109 net.cpp:194] Memory required for data: 395837952
I0817 23:56:12.996116 15109 layer_factory.hpp:77] Creating layer Scale11
I0817 23:56:12.996124 15109 net.cpp:128] Creating Layer Scale11
I0817 23:56:12.996127 15109 net.cpp:558] Scale11 <- Convolution11
I0817 23:56:12.996134 15109 net.cpp:509] Scale11 -> Convolution11 (in-place)
I0817 23:56:12.996172 15109 layer_factory.hpp:77] Creating layer Scale11
I0817 23:56:12.996305 15109 net.cpp:172] Setting up Scale11
I0817 23:56:12.996314 15109 net.cpp:186] Top shape: 128 32 16 16 (1048576)
I0817 23:56:12.996317 15109 net.cpp:194] Memory required for data: 400032256
I0817 23:56:12.996325 15109 layer_factory.hpp:77] Creating layer ReLU10
I0817 23:56:12.996333 15109 net.cpp:128] Creating Layer ReLU10
I0817 23:56:12.996337 15109 net.cpp:558] ReLU10 <- Convolution11
I0817 23:56:12.996343 15109 net.cpp:509] ReLU10 -> Convolution11 (in-place)
I0817 23:56:12.996861 15109 net.cpp:172] Setting up ReLU10
I0817 23:56:12.996878 15109 net.cpp:186] Top shape: 128 32 16 16 (1048576)
I0817 23:56:12.996882 15109 net.cpp:194] Memory required for data: 404226560
I0817 23:56:12.996887 15109 layer_factory.hpp:77] Creating layer Convolution12
I0817 23:56:12.996901 15109 net.cpp:128] Creating Layer Convolution12
I0817 23:56:12.996906 15109 net.cpp:558] Convolution12 <- Convolution11
I0817 23:56:12.996915 15109 net.cpp:522] Convolution12 -> Convolution12
I0817 23:56:12.998378 15109 net.cpp:172] Setting up Convolution12
I0817 23:56:12.998404 15109 net.cpp:186] Top shape: 128 32 16 16 (1048576)
I0817 23:56:12.998409 15109 net.cpp:194] Memory required for data: 408420864
I0817 23:56:12.998420 15109 layer_factory.hpp:77] Creating layer BatchNorm12
I0817 23:56:12.998427 15109 net.cpp:128] Creating Layer BatchNorm12
I0817 23:56:12.998432 15109 net.cpp:558] BatchNorm12 <- Convolution12
I0817 23:56:12.998445 15109 net.cpp:509] BatchNorm12 -> Convolution12 (in-place)
I0817 23:56:12.998682 15109 net.cpp:172] Setting up BatchNorm12
I0817 23:56:12.998690 15109 net.cpp:186] Top shape: 128 32 16 16 (1048576)
I0817 23:56:12.998694 15109 net.cpp:194] Memory required for data: 412615168
I0817 23:56:12.998703 15109 layer_factory.hpp:77] Creating layer Scale12
I0817 23:56:12.998710 15109 net.cpp:128] Creating Layer Scale12
I0817 23:56:12.998714 15109 net.cpp:558] Scale12 <- Convolution12
I0817 23:56:12.998723 15109 net.cpp:509] Scale12 -> Convolution12 (in-place)
I0817 23:56:12.998760 15109 layer_factory.hpp:77] Creating layer Scale12
I0817 23:56:12.998895 15109 net.cpp:172] Setting up Scale12
I0817 23:56:12.998906 15109 net.cpp:186] Top shape: 128 32 16 16 (1048576)
I0817 23:56:12.998910 15109 net.cpp:194] Memory required for data: 416809472
I0817 23:56:12.998919 15109 layer_factory.hpp:77] Creating layer Eltwise5
I0817 23:56:12.998925 15109 net.cpp:128] Creating Layer Eltwise5
I0817 23:56:12.998947 15109 net.cpp:558] Eltwise5 <- Eltwise4_ReLU9_0_split_1
I0817 23:56:12.998952 15109 net.cpp:558] Eltwise5 <- Convolution12
I0817 23:56:12.998958 15109 net.cpp:522] Eltwise5 -> Eltwise5
I0817 23:56:12.999001 15109 net.cpp:172] Setting up Eltwise5
I0817 23:56:12.999008 15109 net.cpp:186] Top shape: 128 32 16 16 (1048576)
I0817 23:56:12.999011 15109 net.cpp:194] Memory required for data: 421003776
I0817 23:56:12.999017 15109 layer_factory.hpp:77] Creating layer ReLU11
I0817 23:56:12.999022 15109 net.cpp:128] Creating Layer ReLU11
I0817 23:56:12.999027 15109 net.cpp:558] ReLU11 <- Eltwise5
I0817 23:56:12.999034 15109 net.cpp:509] ReLU11 -> Eltwise5 (in-place)
I0817 23:56:12.999277 15109 net.cpp:172] Setting up ReLU11
I0817 23:56:12.999287 15109 net.cpp:186] Top shape: 128 32 16 16 (1048576)
I0817 23:56:12.999291 15109 net.cpp:194] Memory required for data: 425198080
I0817 23:56:12.999296 15109 layer_factory.hpp:77] Creating layer Eltwise5_ReLU11_0_split
I0817 23:56:12.999303 15109 net.cpp:128] Creating Layer Eltwise5_ReLU11_0_split
I0817 23:56:12.999307 15109 net.cpp:558] Eltwise5_ReLU11_0_split <- Eltwise5
I0817 23:56:12.999316 15109 net.cpp:522] Eltwise5_ReLU11_0_split -> Eltwise5_ReLU11_0_split_0
I0817 23:56:12.999325 15109 net.cpp:522] Eltwise5_ReLU11_0_split -> Eltwise5_ReLU11_0_split_1
I0817 23:56:12.999373 15109 net.cpp:172] Setting up Eltwise5_ReLU11_0_split
I0817 23:56:12.999380 15109 net.cpp:186] Top shape: 128 32 16 16 (1048576)
I0817 23:56:12.999387 15109 net.cpp:186] Top shape: 128 32 16 16 (1048576)
I0817 23:56:12.999390 15109 net.cpp:194] Memory required for data: 433586688
I0817 23:56:12.999394 15109 layer_factory.hpp:77] Creating layer Convolution13
I0817 23:56:12.999408 15109 net.cpp:128] Creating Layer Convolution13
I0817 23:56:12.999413 15109 net.cpp:558] Convolution13 <- Eltwise5_ReLU11_0_split_0
I0817 23:56:12.999421 15109 net.cpp:522] Convolution13 -> Convolution13
I0817 23:56:13.000895 15109 net.cpp:172] Setting up Convolution13
I0817 23:56:13.000917 15109 net.cpp:186] Top shape: 128 32 16 16 (1048576)
I0817 23:56:13.000921 15109 net.cpp:194] Memory required for data: 437780992
I0817 23:56:13.000931 15109 layer_factory.hpp:77] Creating layer BatchNorm13
I0817 23:56:13.000939 15109 net.cpp:128] Creating Layer BatchNorm13
I0817 23:56:13.000944 15109 net.cpp:558] BatchNorm13 <- Convolution13
I0817 23:56:13.000953 15109 net.cpp:509] BatchNorm13 -> Convolution13 (in-place)
I0817 23:56:13.001194 15109 net.cpp:172] Setting up BatchNorm13
I0817 23:56:13.001200 15109 net.cpp:186] Top shape: 128 32 16 16 (1048576)
I0817 23:56:13.001206 15109 net.cpp:194] Memory required for data: 441975296
I0817 23:56:13.001215 15109 layer_factory.hpp:77] Creating layer Scale13
I0817 23:56:13.001222 15109 net.cpp:128] Creating Layer Scale13
I0817 23:56:13.001226 15109 net.cpp:558] Scale13 <- Convolution13
I0817 23:56:13.001235 15109 net.cpp:509] Scale13 -> Convolution13 (in-place)
I0817 23:56:13.001271 15109 layer_factory.hpp:77] Creating layer Scale13
I0817 23:56:13.001407 15109 net.cpp:172] Setting up Scale13
I0817 23:56:13.001416 15109 net.cpp:186] Top shape: 128 32 16 16 (1048576)
I0817 23:56:13.001420 15109 net.cpp:194] Memory required for data: 446169600
I0817 23:56:13.001428 15109 layer_factory.hpp:77] Creating layer ReLU12
I0817 23:56:13.001435 15109 net.cpp:128] Creating Layer ReLU12
I0817 23:56:13.001438 15109 net.cpp:558] ReLU12 <- Convolution13
I0817 23:56:13.001443 15109 net.cpp:509] ReLU12 -> Convolution13 (in-place)
I0817 23:56:13.001675 15109 net.cpp:172] Setting up ReLU12
I0817 23:56:13.001688 15109 net.cpp:186] Top shape: 128 32 16 16 (1048576)
I0817 23:56:13.001691 15109 net.cpp:194] Memory required for data: 450363904
I0817 23:56:13.001696 15109 layer_factory.hpp:77] Creating layer Convolution14
I0817 23:56:13.001708 15109 net.cpp:128] Creating Layer Convolution14
I0817 23:56:13.001713 15109 net.cpp:558] Convolution14 <- Convolution13
I0817 23:56:13.001720 15109 net.cpp:522] Convolution14 -> Convolution14
I0817 23:56:13.006201 15109 net.cpp:172] Setting up Convolution14
I0817 23:56:13.006228 15109 net.cpp:186] Top shape: 128 32 16 16 (1048576)
I0817 23:56:13.006232 15109 net.cpp:194] Memory required for data: 454558208
I0817 23:56:13.006243 15109 layer_factory.hpp:77] Creating layer BatchNorm14
I0817 23:56:13.006276 15109 net.cpp:128] Creating Layer BatchNorm14
I0817 23:56:13.006283 15109 net.cpp:558] BatchNorm14 <- Convolution14
I0817 23:56:13.006289 15109 net.cpp:509] BatchNorm14 -> Convolution14 (in-place)
I0817 23:56:13.006526 15109 net.cpp:172] Setting up BatchNorm14
I0817 23:56:13.006537 15109 net.cpp:186] Top shape: 128 32 16 16 (1048576)
I0817 23:56:13.006541 15109 net.cpp:194] Memory required for data: 458752512
I0817 23:56:13.006552 15109 layer_factory.hpp:77] Creating layer Scale14
I0817 23:56:13.006561 15109 net.cpp:128] Creating Layer Scale14
I0817 23:56:13.006566 15109 net.cpp:558] Scale14 <- Convolution14
I0817 23:56:13.006572 15109 net.cpp:509] Scale14 -> Convolution14 (in-place)
I0817 23:56:13.006611 15109 layer_factory.hpp:77] Creating layer Scale14
I0817 23:56:13.006744 15109 net.cpp:172] Setting up Scale14
I0817 23:56:13.006754 15109 net.cpp:186] Top shape: 128 32 16 16 (1048576)
I0817 23:56:13.006758 15109 net.cpp:194] Memory required for data: 462946816
I0817 23:56:13.006767 15109 layer_factory.hpp:77] Creating layer Eltwise6
I0817 23:56:13.006775 15109 net.cpp:128] Creating Layer Eltwise6
I0817 23:56:13.006780 15109 net.cpp:558] Eltwise6 <- Eltwise5_ReLU11_0_split_1
I0817 23:56:13.006785 15109 net.cpp:558] Eltwise6 <- Convolution14
I0817 23:56:13.006791 15109 net.cpp:522] Eltwise6 -> Eltwise6
I0817 23:56:13.006811 15109 net.cpp:172] Setting up Eltwise6
I0817 23:56:13.006819 15109 net.cpp:186] Top shape: 128 32 16 16 (1048576)
I0817 23:56:13.006821 15109 net.cpp:194] Memory required for data: 467141120
I0817 23:56:13.006826 15109 layer_factory.hpp:77] Creating layer ReLU13
I0817 23:56:13.006834 15109 net.cpp:128] Creating Layer ReLU13
I0817 23:56:13.006839 15109 net.cpp:558] ReLU13 <- Eltwise6
I0817 23:56:13.006844 15109 net.cpp:509] ReLU13 -> Eltwise6 (in-place)
I0817 23:56:13.007391 15109 net.cpp:172] Setting up ReLU13
I0817 23:56:13.007414 15109 net.cpp:186] Top shape: 128 32 16 16 (1048576)
I0817 23:56:13.007419 15109 net.cpp:194] Memory required for data: 471335424
I0817 23:56:13.007424 15109 layer_factory.hpp:77] Creating layer Eltwise6_ReLU13_0_split
I0817 23:56:13.007432 15109 net.cpp:128] Creating Layer Eltwise6_ReLU13_0_split
I0817 23:56:13.007437 15109 net.cpp:558] Eltwise6_ReLU13_0_split <- Eltwise6
I0817 23:56:13.007444 15109 net.cpp:522] Eltwise6_ReLU13_0_split -> Eltwise6_ReLU13_0_split_0
I0817 23:56:13.007455 15109 net.cpp:522] Eltwise6_ReLU13_0_split -> Eltwise6_ReLU13_0_split_1
I0817 23:56:13.007505 15109 net.cpp:172] Setting up Eltwise6_ReLU13_0_split
I0817 23:56:13.007513 15109 net.cpp:186] Top shape: 128 32 16 16 (1048576)
I0817 23:56:13.007519 15109 net.cpp:186] Top shape: 128 32 16 16 (1048576)
I0817 23:56:13.007522 15109 net.cpp:194] Memory required for data: 479724032
I0817 23:56:13.007526 15109 layer_factory.hpp:77] Creating layer Convolution15
I0817 23:56:13.007540 15109 net.cpp:128] Creating Layer Convolution15
I0817 23:56:13.007545 15109 net.cpp:558] Convolution15 <- Eltwise6_ReLU13_0_split_0
I0817 23:56:13.007552 15109 net.cpp:522] Convolution15 -> Convolution15
I0817 23:56:13.011610 15109 net.cpp:172] Setting up Convolution15
I0817 23:56:13.011637 15109 net.cpp:186] Top shape: 128 64 8 8 (524288)
I0817 23:56:13.011641 15109 net.cpp:194] Memory required for data: 481821184
I0817 23:56:13.011652 15109 layer_factory.hpp:77] Creating layer BatchNorm15
I0817 23:56:13.011662 15109 net.cpp:128] Creating Layer BatchNorm15
I0817 23:56:13.011667 15109 net.cpp:558] BatchNorm15 <- Convolution15
I0817 23:56:13.011677 15109 net.cpp:509] BatchNorm15 -> Convolution15 (in-place)
I0817 23:56:13.011924 15109 net.cpp:172] Setting up BatchNorm15
I0817 23:56:13.011934 15109 net.cpp:186] Top shape: 128 64 8 8 (524288)
I0817 23:56:13.011939 15109 net.cpp:194] Memory required for data: 483918336
I0817 23:56:13.011948 15109 layer_factory.hpp:77] Creating layer Scale15
I0817 23:56:13.011955 15109 net.cpp:128] Creating Layer Scale15
I0817 23:56:13.011960 15109 net.cpp:558] Scale15 <- Convolution15
I0817 23:56:13.011965 15109 net.cpp:509] Scale15 -> Convolution15 (in-place)
I0817 23:56:13.012006 15109 layer_factory.hpp:77] Creating layer Scale15
I0817 23:56:13.012164 15109 net.cpp:172] Setting up Scale15
I0817 23:56:13.012179 15109 net.cpp:186] Top shape: 128 64 8 8 (524288)
I0817 23:56:13.012183 15109 net.cpp:194] Memory required for data: 486015488
I0817 23:56:13.012192 15109 layer_factory.hpp:77] Creating layer Convolution16
I0817 23:56:13.012205 15109 net.cpp:128] Creating Layer Convolution16
I0817 23:56:13.012210 15109 net.cpp:558] Convolution16 <- Eltwise6_ReLU13_0_split_1
I0817 23:56:13.012219 15109 net.cpp:522] Convolution16 -> Convolution16
I0817 23:56:13.015872 15109 net.cpp:172] Setting up Convolution16
I0817 23:56:13.015913 15109 net.cpp:186] Top shape: 128 64 8 8 (524288)
I0817 23:56:13.015918 15109 net.cpp:194] Memory required for data: 488112640
I0817 23:56:13.015933 15109 layer_factory.hpp:77] Creating layer BatchNorm16
I0817 23:56:13.015949 15109 net.cpp:128] Creating Layer BatchNorm16
I0817 23:56:13.015956 15109 net.cpp:558] BatchNorm16 <- Convolution16
I0817 23:56:13.015967 15109 net.cpp:509] BatchNorm16 -> Convolution16 (in-place)
I0817 23:56:13.016232 15109 net.cpp:172] Setting up BatchNorm16
I0817 23:56:13.016239 15109 net.cpp:186] Top shape: 128 64 8 8 (524288)
I0817 23:56:13.016242 15109 net.cpp:194] Memory required for data: 490209792
I0817 23:56:13.016253 15109 layer_factory.hpp:77] Creating layer Scale16
I0817 23:56:13.016261 15109 net.cpp:128] Creating Layer Scale16
I0817 23:56:13.016266 15109 net.cpp:558] Scale16 <- Convolution16
I0817 23:56:13.016273 15109 net.cpp:509] Scale16 -> Convolution16 (in-place)
I0817 23:56:13.016316 15109 layer_factory.hpp:77] Creating layer Scale16
I0817 23:56:13.016463 15109 net.cpp:172] Setting up Scale16
I0817 23:56:13.016470 15109 net.cpp:186] Top shape: 128 64 8 8 (524288)
I0817 23:56:13.016474 15109 net.cpp:194] Memory required for data: 492306944
I0817 23:56:13.016482 15109 layer_factory.hpp:77] Creating layer ReLU14
I0817 23:56:13.016489 15109 net.cpp:128] Creating Layer ReLU14
I0817 23:56:13.016494 15109 net.cpp:558] ReLU14 <- Convolution16
I0817 23:56:13.016499 15109 net.cpp:509] ReLU14 -> Convolution16 (in-place)
I0817 23:56:13.016873 15109 net.cpp:172] Setting up ReLU14
I0817 23:56:13.016886 15109 net.cpp:186] Top shape: 128 64 8 8 (524288)
I0817 23:56:13.016891 15109 net.cpp:194] Memory required for data: 494404096
I0817 23:56:13.016896 15109 layer_factory.hpp:77] Creating layer Convolution17
I0817 23:56:13.016913 15109 net.cpp:128] Creating Layer Convolution17
I0817 23:56:13.016918 15109 net.cpp:558] Convolution17 <- Convolution16
I0817 23:56:13.016927 15109 net.cpp:522] Convolution17 -> Convolution17
I0817 23:56:13.020226 15109 net.cpp:172] Setting up Convolution17
I0817 23:56:13.020253 15109 net.cpp:186] Top shape: 128 64 8 8 (524288)
I0817 23:56:13.020262 15109 net.cpp:194] Memory required for data: 496501248
I0817 23:56:13.020273 15109 layer_factory.hpp:77] Creating layer BatchNorm17
I0817 23:56:13.020282 15109 net.cpp:128] Creating Layer BatchNorm17
I0817 23:56:13.020292 15109 net.cpp:558] BatchNorm17 <- Convolution17
I0817 23:56:13.020300 15109 net.cpp:509] BatchNorm17 -> Convolution17 (in-place)
I0817 23:56:13.020570 15109 net.cpp:172] Setting up BatchNorm17
I0817 23:56:13.020577 15109 net.cpp:186] Top shape: 128 64 8 8 (524288)
I0817 23:56:13.020581 15109 net.cpp:194] Memory required for data: 498598400
I0817 23:56:13.020591 15109 layer_factory.hpp:77] Creating layer Scale17
I0817 23:56:13.020597 15109 net.cpp:128] Creating Layer Scale17
I0817 23:56:13.020601 15109 net.cpp:558] Scale17 <- Convolution17
I0817 23:56:13.020608 15109 net.cpp:509] Scale17 -> Convolution17 (in-place)
I0817 23:56:13.020648 15109 layer_factory.hpp:77] Creating layer Scale17
I0817 23:56:13.020797 15109 net.cpp:172] Setting up Scale17
I0817 23:56:13.020804 15109 net.cpp:186] Top shape: 128 64 8 8 (524288)
I0817 23:56:13.020808 15109 net.cpp:194] Memory required for data: 500695552
I0817 23:56:13.020817 15109 layer_factory.hpp:77] Creating layer Eltwise7
I0817 23:56:13.020824 15109 net.cpp:128] Creating Layer Eltwise7
I0817 23:56:13.020828 15109 net.cpp:558] Eltwise7 <- Convolution15
I0817 23:56:13.020856 15109 net.cpp:558] Eltwise7 <- Convolution17
I0817 23:56:13.020865 15109 net.cpp:522] Eltwise7 -> Eltwise7
I0817 23:56:13.020889 15109 net.cpp:172] Setting up Eltwise7
I0817 23:56:13.020896 15109 net.cpp:186] Top shape: 128 64 8 8 (524288)
I0817 23:56:13.020900 15109 net.cpp:194] Memory required for data: 502792704
I0817 23:56:13.020905 15109 layer_factory.hpp:77] Creating layer ReLU15
I0817 23:56:13.020915 15109 net.cpp:128] Creating Layer ReLU15
I0817 23:56:13.020918 15109 net.cpp:558] ReLU15 <- Eltwise7
I0817 23:56:13.020923 15109 net.cpp:509] ReLU15 -> Eltwise7 (in-place)
I0817 23:56:13.021158 15109 net.cpp:172] Setting up ReLU15
I0817 23:56:13.021168 15109 net.cpp:186] Top shape: 128 64 8 8 (524288)
I0817 23:56:13.021173 15109 net.cpp:194] Memory required for data: 504889856
I0817 23:56:13.021176 15109 layer_factory.hpp:77] Creating layer Eltwise7_ReLU15_0_split
I0817 23:56:13.021186 15109 net.cpp:128] Creating Layer Eltwise7_ReLU15_0_split
I0817 23:56:13.021190 15109 net.cpp:558] Eltwise7_ReLU15_0_split <- Eltwise7
I0817 23:56:13.021196 15109 net.cpp:522] Eltwise7_ReLU15_0_split -> Eltwise7_ReLU15_0_split_0
I0817 23:56:13.021206 15109 net.cpp:522] Eltwise7_ReLU15_0_split -> Eltwise7_ReLU15_0_split_1
I0817 23:56:13.021256 15109 net.cpp:172] Setting up Eltwise7_ReLU15_0_split
I0817 23:56:13.021263 15109 net.cpp:186] Top shape: 128 64 8 8 (524288)
I0817 23:56:13.021270 15109 net.cpp:186] Top shape: 128 64 8 8 (524288)
I0817 23:56:13.021273 15109 net.cpp:194] Memory required for data: 509084160
I0817 23:56:13.021277 15109 layer_factory.hpp:77] Creating layer Convolution18
I0817 23:56:13.021291 15109 net.cpp:128] Creating Layer Convolution18
I0817 23:56:13.021296 15109 net.cpp:558] Convolution18 <- Eltwise7_ReLU15_0_split_0
I0817 23:56:13.021303 15109 net.cpp:522] Convolution18 -> Convolution18
I0817 23:56:13.023483 15109 net.cpp:172] Setting up Convolution18
I0817 23:56:13.023504 15109 net.cpp:186] Top shape: 128 64 8 8 (524288)
I0817 23:56:13.023509 15109 net.cpp:194] Memory required for data: 511181312
I0817 23:56:13.023519 15109 layer_factory.hpp:77] Creating layer BatchNorm18
I0817 23:56:13.023530 15109 net.cpp:128] Creating Layer BatchNorm18
I0817 23:56:13.023535 15109 net.cpp:558] BatchNorm18 <- Convolution18
I0817 23:56:13.023547 15109 net.cpp:509] BatchNorm18 -> Convolution18 (in-place)
I0817 23:56:13.023799 15109 net.cpp:172] Setting up BatchNorm18
I0817 23:56:13.023807 15109 net.cpp:186] Top shape: 128 64 8 8 (524288)
I0817 23:56:13.023810 15109 net.cpp:194] Memory required for data: 513278464
I0817 23:56:13.023819 15109 layer_factory.hpp:77] Creating layer Scale18
I0817 23:56:13.023828 15109 net.cpp:128] Creating Layer Scale18
I0817 23:56:13.023833 15109 net.cpp:558] Scale18 <- Convolution18
I0817 23:56:13.023838 15109 net.cpp:509] Scale18 -> Convolution18 (in-place)
I0817 23:56:13.023880 15109 layer_factory.hpp:77] Creating layer Scale18
I0817 23:56:13.024027 15109 net.cpp:172] Setting up Scale18
I0817 23:56:13.024035 15109 net.cpp:186] Top shape: 128 64 8 8 (524288)
I0817 23:56:13.024039 15109 net.cpp:194] Memory required for data: 515375616
I0817 23:56:13.024046 15109 layer_factory.hpp:77] Creating layer ReLU16
I0817 23:56:13.024058 15109 net.cpp:128] Creating Layer ReLU16
I0817 23:56:13.024063 15109 net.cpp:558] ReLU16 <- Convolution18
I0817 23:56:13.024070 15109 net.cpp:509] ReLU16 -> Convolution18 (in-place)
I0817 23:56:13.024581 15109 net.cpp:172] Setting up ReLU16
I0817 23:56:13.024606 15109 net.cpp:186] Top shape: 128 64 8 8 (524288)
I0817 23:56:13.024610 15109 net.cpp:194] Memory required for data: 517472768
I0817 23:56:13.024616 15109 layer_factory.hpp:77] Creating layer Convolution19
I0817 23:56:13.024629 15109 net.cpp:128] Creating Layer Convolution19
I0817 23:56:13.024636 15109 net.cpp:558] Convolution19 <- Convolution18
I0817 23:56:13.024644 15109 net.cpp:522] Convolution19 -> Convolution19
I0817 23:56:13.027096 15109 net.cpp:172] Setting up Convolution19
I0817 23:56:13.027117 15109 net.cpp:186] Top shape: 128 64 8 8 (524288)
I0817 23:56:13.027122 15109 net.cpp:194] Memory required for data: 519569920
I0817 23:56:13.027150 15109 layer_factory.hpp:77] Creating layer BatchNorm19
I0817 23:56:13.027161 15109 net.cpp:128] Creating Layer BatchNorm19
I0817 23:56:13.027166 15109 net.cpp:558] BatchNorm19 <- Convolution19
I0817 23:56:13.027174 15109 net.cpp:509] BatchNorm19 -> Convolution19 (in-place)
I0817 23:56:13.027446 15109 net.cpp:172] Setting up BatchNorm19
I0817 23:56:13.027454 15109 net.cpp:186] Top shape: 128 64 8 8 (524288)
I0817 23:56:13.027458 15109 net.cpp:194] Memory required for data: 521667072
I0817 23:56:13.027482 15109 layer_factory.hpp:77] Creating layer Scale19
I0817 23:56:13.027492 15109 net.cpp:128] Creating Layer Scale19
I0817 23:56:13.027496 15109 net.cpp:558] Scale19 <- Convolution19
I0817 23:56:13.027501 15109 net.cpp:509] Scale19 -> Convolution19 (in-place)
I0817 23:56:13.027542 15109 layer_factory.hpp:77] Creating layer Scale19
I0817 23:56:13.027688 15109 net.cpp:172] Setting up Scale19
I0817 23:56:13.027695 15109 net.cpp:186] Top shape: 128 64 8 8 (524288)
I0817 23:56:13.027699 15109 net.cpp:194] Memory required for data: 523764224
I0817 23:56:13.027707 15109 layer_factory.hpp:77] Creating layer Eltwise8
I0817 23:56:13.027714 15109 net.cpp:128] Creating Layer Eltwise8
I0817 23:56:13.027719 15109 net.cpp:558] Eltwise8 <- Eltwise7_ReLU15_0_split_1
I0817 23:56:13.027724 15109 net.cpp:558] Eltwise8 <- Convolution19
I0817 23:56:13.027731 15109 net.cpp:522] Eltwise8 -> Eltwise8
I0817 23:56:13.027752 15109 net.cpp:172] Setting up Eltwise8
I0817 23:56:13.027762 15109 net.cpp:186] Top shape: 128 64 8 8 (524288)
I0817 23:56:13.027766 15109 net.cpp:194] Memory required for data: 525861376
I0817 23:56:13.027770 15109 layer_factory.hpp:77] Creating layer ReLU17
I0817 23:56:13.027776 15109 net.cpp:128] Creating Layer ReLU17
I0817 23:56:13.027781 15109 net.cpp:558] ReLU17 <- Eltwise8
I0817 23:56:13.027786 15109 net.cpp:509] ReLU17 -> Eltwise8 (in-place)
I0817 23:56:13.028028 15109 net.cpp:172] Setting up ReLU17
I0817 23:56:13.028040 15109 net.cpp:186] Top shape: 128 64 8 8 (524288)
I0817 23:56:13.028044 15109 net.cpp:194] Memory required for data: 527958528
I0817 23:56:13.028049 15109 layer_factory.hpp:77] Creating layer Eltwise8_ReLU17_0_split
I0817 23:56:13.028056 15109 net.cpp:128] Creating Layer Eltwise8_ReLU17_0_split
I0817 23:56:13.028060 15109 net.cpp:558] Eltwise8_ReLU17_0_split <- Eltwise8
I0817 23:56:13.028066 15109 net.cpp:522] Eltwise8_ReLU17_0_split -> Eltwise8_ReLU17_0_split_0
I0817 23:56:13.028077 15109 net.cpp:522] Eltwise8_ReLU17_0_split -> Eltwise8_ReLU17_0_split_1
I0817 23:56:13.028126 15109 net.cpp:172] Setting up Eltwise8_ReLU17_0_split
I0817 23:56:13.028132 15109 net.cpp:186] Top shape: 128 64 8 8 (524288)
I0817 23:56:13.028138 15109 net.cpp:186] Top shape: 128 64 8 8 (524288)
I0817 23:56:13.028142 15109 net.cpp:194] Memory required for data: 532152832
I0817 23:56:13.028146 15109 layer_factory.hpp:77] Creating layer Convolution20
I0817 23:56:13.028159 15109 net.cpp:128] Creating Layer Convolution20
I0817 23:56:13.028164 15109 net.cpp:558] Convolution20 <- Eltwise8_ReLU17_0_split_0
I0817 23:56:13.028172 15109 net.cpp:522] Convolution20 -> Convolution20
I0817 23:56:13.030100 15109 net.cpp:172] Setting up Convolution20
I0817 23:56:13.030127 15109 net.cpp:186] Top shape: 128 64 8 8 (524288)
I0817 23:56:13.030130 15109 net.cpp:194] Memory required for data: 534249984
I0817 23:56:13.030144 15109 layer_factory.hpp:77] Creating layer BatchNorm20
I0817 23:56:13.030154 15109 net.cpp:128] Creating Layer BatchNorm20
I0817 23:56:13.030159 15109 net.cpp:558] BatchNorm20 <- Convolution20
I0817 23:56:13.030169 15109 net.cpp:509] BatchNorm20 -> Convolution20 (in-place)
I0817 23:56:13.030426 15109 net.cpp:172] Setting up BatchNorm20
I0817 23:56:13.030436 15109 net.cpp:186] Top shape: 128 64 8 8 (524288)
I0817 23:56:13.030441 15109 net.cpp:194] Memory required for data: 536347136
I0817 23:56:13.030449 15109 layer_factory.hpp:77] Creating layer Scale20
I0817 23:56:13.030459 15109 net.cpp:128] Creating Layer Scale20
I0817 23:56:13.030463 15109 net.cpp:558] Scale20 <- Convolution20
I0817 23:56:13.030484 15109 net.cpp:509] Scale20 -> Convolution20 (in-place)
I0817 23:56:13.030529 15109 layer_factory.hpp:77] Creating layer Scale20
I0817 23:56:13.030685 15109 net.cpp:172] Setting up Scale20
I0817 23:56:13.030695 15109 net.cpp:186] Top shape: 128 64 8 8 (524288)
I0817 23:56:13.030699 15109 net.cpp:194] Memory required for data: 538444288
I0817 23:56:13.030711 15109 layer_factory.hpp:77] Creating layer ReLU18
I0817 23:56:13.030719 15109 net.cpp:128] Creating Layer ReLU18
I0817 23:56:13.030725 15109 net.cpp:558] ReLU18 <- Convolution20
I0817 23:56:13.030731 15109 net.cpp:509] ReLU18 -> Convolution20 (in-place)
I0817 23:56:13.030978 15109 net.cpp:172] Setting up ReLU18
I0817 23:56:13.030992 15109 net.cpp:186] Top shape: 128 64 8 8 (524288)
I0817 23:56:13.030997 15109 net.cpp:194] Memory required for data: 540541440
I0817 23:56:13.031006 15109 layer_factory.hpp:77] Creating layer Convolution21
I0817 23:56:13.031019 15109 net.cpp:128] Creating Layer Convolution21
I0817 23:56:13.031026 15109 net.cpp:558] Convolution21 <- Convolution20
I0817 23:56:13.031036 15109 net.cpp:522] Convolution21 -> Convolution21
I0817 23:56:13.033227 15109 net.cpp:172] Setting up Convolution21
I0817 23:56:13.033255 15109 net.cpp:186] Top shape: 128 64 8 8 (524288)
I0817 23:56:13.033259 15109 net.cpp:194] Memory required for data: 542638592
I0817 23:56:13.033272 15109 layer_factory.hpp:77] Creating layer BatchNorm21
I0817 23:56:13.033280 15109 net.cpp:128] Creating Layer BatchNorm21
I0817 23:56:13.033285 15109 net.cpp:558] BatchNorm21 <- Convolution21
I0817 23:56:13.033294 15109 net.cpp:509] BatchNorm21 -> Convolution21 (in-place)
I0817 23:56:13.033572 15109 net.cpp:172] Setting up BatchNorm21
I0817 23:56:13.033583 15109 net.cpp:186] Top shape: 128 64 8 8 (524288)
I0817 23:56:13.033587 15109 net.cpp:194] Memory required for data: 544735744
I0817 23:56:13.033597 15109 layer_factory.hpp:77] Creating layer Scale21
I0817 23:56:13.033603 15109 net.cpp:128] Creating Layer Scale21
I0817 23:56:13.033608 15109 net.cpp:558] Scale21 <- Convolution21
I0817 23:56:13.033615 15109 net.cpp:509] Scale21 -> Convolution21 (in-place)
I0817 23:56:13.033655 15109 layer_factory.hpp:77] Creating layer Scale21
I0817 23:56:13.033805 15109 net.cpp:172] Setting up Scale21
I0817 23:56:13.033815 15109 net.cpp:186] Top shape: 128 64 8 8 (524288)
I0817 23:56:13.033820 15109 net.cpp:194] Memory required for data: 546832896
I0817 23:56:13.033828 15109 layer_factory.hpp:77] Creating layer Eltwise9
I0817 23:56:13.033836 15109 net.cpp:128] Creating Layer Eltwise9
I0817 23:56:13.033841 15109 net.cpp:558] Eltwise9 <- Eltwise8_ReLU17_0_split_1
I0817 23:56:13.033846 15109 net.cpp:558] Eltwise9 <- Convolution21
I0817 23:56:13.033852 15109 net.cpp:522] Eltwise9 -> Eltwise9
I0817 23:56:13.033875 15109 net.cpp:172] Setting up Eltwise9
I0817 23:56:13.033882 15109 net.cpp:186] Top shape: 128 64 8 8 (524288)
I0817 23:56:13.033886 15109 net.cpp:194] Memory required for data: 548930048
I0817 23:56:13.033890 15109 layer_factory.hpp:77] Creating layer ReLU19
I0817 23:56:13.033896 15109 net.cpp:128] Creating Layer ReLU19
I0817 23:56:13.033900 15109 net.cpp:558] ReLU19 <- Eltwise9
I0817 23:56:13.033906 15109 net.cpp:509] ReLU19 -> Eltwise9 (in-place)
I0817 23:56:13.034147 15109 net.cpp:172] Setting up ReLU19
I0817 23:56:13.034163 15109 net.cpp:186] Top shape: 128 64 8 8 (524288)
I0817 23:56:13.034168 15109 net.cpp:194] Memory required for data: 551027200
I0817 23:56:13.034173 15109 layer_factory.hpp:77] Creating layer Pooling1
I0817 23:56:13.034181 15109 net.cpp:128] Creating Layer Pooling1
I0817 23:56:13.034185 15109 net.cpp:558] Pooling1 <- Eltwise9
I0817 23:56:13.034193 15109 net.cpp:522] Pooling1 -> Pooling1
I0817 23:56:13.034787 15109 net.cpp:172] Setting up Pooling1
I0817 23:56:13.034816 15109 net.cpp:186] Top shape: 128 64 1 1 (8192)
I0817 23:56:13.034821 15109 net.cpp:194] Memory required for data: 551059968
I0817 23:56:13.034826 15109 layer_factory.hpp:77] Creating layer InnerProduct1
I0817 23:56:13.034837 15109 net.cpp:128] Creating Layer InnerProduct1
I0817 23:56:13.034862 15109 net.cpp:558] InnerProduct1 <- Pooling1
I0817 23:56:13.034873 15109 net.cpp:522] InnerProduct1 -> InnerProduct1
I0817 23:56:13.035063 15109 net.cpp:172] Setting up InnerProduct1
I0817 23:56:13.035075 15109 net.cpp:186] Top shape: 128 10 (1280)
I0817 23:56:13.035079 15109 net.cpp:194] Memory required for data: 551065088
I0817 23:56:13.035089 15109 layer_factory.hpp:77] Creating layer SoftmaxWithLoss1
I0817 23:56:13.035097 15109 net.cpp:128] Creating Layer SoftmaxWithLoss1
I0817 23:56:13.035102 15109 net.cpp:558] SoftmaxWithLoss1 <- InnerProduct1
I0817 23:56:13.035107 15109 net.cpp:558] SoftmaxWithLoss1 <- Data2
I0817 23:56:13.035117 15109 net.cpp:522] SoftmaxWithLoss1 -> SoftmaxWithLoss1
…
I0817 23:56:13.038043 15109 net.cpp:390] layer_param.include_size():1
I0817 23:56:13.038046 15109 net.cpp:391] layer_param.exclude_size():0
I0817 23:56:13.038671 15109 net.cpp:82] Initializing net from parameters: 
name: "resnet_cifar10"
state {
  phase: TEST
}
layer {
  name: "Data1"
  type: "Data"
  top: "Data1"
  top: "Data2"
  include {
    phase: TEST
  }
  transform_param {
    scale: 0.0039215684
    mean_value: 125.3
    mean_value: 122.9
    mean_value: 113.8
  }
  data_param {
    source: "/home/lijianfei/datasets/cifar10_40/test_lmdb"
    batch_size: 10
    backend: LMDB
  }
}
layer {
  name: "Convolution1"
  type: "Convolution"
  bottom: "Data1"
  top: "Convolution1"
  param {
    lr_mult: 1
    decay_mult: 1
  }
  param {
    lr_mult: 2
    decay_mult: 0
  }
  convolution_param {
    num_output: 16
    pad: 1
    kernel_size: 3
    stride: 1
    weight_filler {
      type: "msra"
    }
    bias_filler {
      type: "constant"
      value: 0
    }
  }
}
layer {
  name: "BatchNorm1"
  type: "BatchNorm"
  bottom: "Convolution1"
  top: "Convolution1"
  param {
    lr_mult: 0
    decay_mult: 0
  }
  param {
    lr_mult: 0
    decay_mult: 0
  }
  param {
    lr_mult: 0
    decay_mult: 0
  }
}
layer {
  name: "Scale1"
  type: "Scale"
  bottom: "Convolution1"
  top: "Convolution1"
  scale_param {
    bias_term: true
  }
}
layer {
  name: "ReLU1"
  type: "ReLU"
  bottom: "Convolution1"
  top: "Convolution1"
}
layer {
  name: "Convolution2"
  type: "Convolution"
  bottom: "Convolution1"
  top: "Convolution2"
  param {
    lr_mult: 1
    decay_mult: 1
  }
  param {
    lr_mult: 2
    decay_mult: 0
  }
  convolution_param {
    num_output: 16
    pad: 1
    kernel_size: 3
    stride: 1
    weight_filler {
      type: "msra"
    }
    bias_filler {
      type: "constant"
      value: 0
    }
  }
}
layer {
  name: "BatchNorm2"
  type: "BatchNorm"
  bottom: "Convolution2"
  top: "Convolution2"
  param {
    lr_mult: 0
    decay_mult: 0
  }
  param {
    lr_mult: 0
    decay_mult: 0
  }
  param {
    lr_mult: 0
    decay_mult: 0
  }
}
layer {
  name: "Scale2"
  type: "Scale"
  bottom: "Convolution2"
  top: "Convolution2"
  scale_param {
    bias_term: true
  }
}
layer {
  name: "ReLU2"
  type: "ReLU"
  bottom: "Convolution2"
  top: "Convolution2"
}
layer {
  name: "Convolution3"
  type: "Convolution"
  bottom: "Convolution2"
  top: "Convolution3"
  param {
    lr_mult: 1
    decay_mult: 1
  }
  param {
    lr_mult: 2
    decay_mult: 0
  }
  convolution_param {
    num_output: 16
    pad: 1
    kernel_size: 3
    stride: 1
    weight_filler {
      type: "msra"
    }
    bias_filler {
      type: "constant"
      value: 0
    }
  }
}
layer {
  name: "BatchNorm3"
  type: "BatchNorm"
  bottom: "Convolution3"
  top: "Convolution3"
  param {
    lr_mult: 0
    decay_mult: 0
  }
  param {
    lr_mult: 0
    decay_mult: 0
  }
  param {
    lr_mult: 0
    decay_mult: 0
  }
}
layer {
  name: "Scale3"
  type: "Scale"
  bottom: "Convolution3"
  top: "Convolution3"
  scale_param {
    bias_term: true
  }
}
layer {
  name: "Eltwise1"
  type: "Eltwise"
  bottom: "Convolution1"
  bottom: "Convolution3"
  top: "Eltwise1"
  eltwise_param {
    operation: SUM
  }
}
layer {
  name: "ReLU3"
  type: "ReLU"
  bottom: "Eltwise1"
  top: "Eltwise1"
}
layer {
  name: "Convolution4"
  type: "Convolution"
  bottom: "Eltwise1"
  top: "Convolution4"
  param {
    lr_mult: 1
    decay_mult: 1
  }
  param {
    lr_mult: 2
    decay_mult: 0
  }
  convolution_param {
    num_output: 16
    pad: 1
    kernel_size: 3
    stride: 1
    weight_filler {
      type: "msra"
    }
    bias_filler {
      type: "constant"
      value: 0
    }
  }
}
layer {
  name: "BatchNorm4"
  type: "BatchNorm"
  bottom: "Convolution4"
  top: "Convolution4"
  param {
    lr_mult: 0
    decay_mult: 0
  }
  param {
    lr_mult: 0
    decay_mult: 0
  }
  param {
    lr_mult: 0
    decay_mult: 0
  }
}
layer {
  name: "Scale4"
  type: "Scale"
  bottom: "Convolution4"
  top: "Convolution4"
  scale_param {
    bias_term: true
  }
}
layer {
  name: "ReLU4"
  type: "ReLU"
  bottom: "Convolution4"
  top: "Convolution4"
}
layer {
  name: "Convolution5"
  type: "Convolution"
  bottom: "Convolution4"
  top: "Convolution5"
  param {
    lr_mult: 1
    decay_mult: 1
  }
  param {
    lr_mult: 2
    decay_mult: 0
  }
  convolution_param {
    num_output: 16
    pad: 1
    kernel_size: 3
    stride: 1
    weight_filler {
      type: "msra"
    }
    bias_filler {
      type: "constant"
      value: 0
    }
  }
}
layer {
  name: "BatchNorm5"
  type: "BatchNorm"
  bottom: "Convolution5"
  top: "Convolution5"
  param {
    lr_mult: 0
    decay_mult: 0
  }
  param {
    lr_mult: 0
    decay_mult: 0
  }
  param {
    lr_mult: 0
    decay_mult: 0
  }
}
layer {
  name: "Scale5"
  type: "Scale"
  bottom: "Convolution5"
  top: "Convolution5"
  scale_param {
    bias_term: true
  }
}
layer {
  name: "Eltwise2"
  type: "Eltwise"
  bottom: "Eltwise1"
  bottom: "Convolution5"
  top: "Eltwise2"
  eltwise_param {
    operation: SUM
  }
}
layer {
  name: "ReLU5"
  type: "ReLU"
  bottom: "Eltwise2"
  top: "Eltwise2"
}
layer {
  name: "Convolution6"
  type: "Convolution"
  bottom: "Eltwise2"
  top: "Convolution6"
  param {
    lr_mult: 1
    decay_mult: 1
  }
  param {
    lr_mult: 2
    decay_mult: 0
  }
  convolution_param {
    num_output: 16
    pad: 1
    kernel_size: 3
    stride: 1
    weight_filler {
      type: "msra"
    }
    bias_filler {
      type: "constant"
      value: 0
    }
  }
}
layer {
  name: "BatchNorm6"
  type: "BatchNorm"
  bottom: "Convolution6"
  top: "Convolution6"
  param {
    lr_mult: 0
    decay_mult: 0
  }
  param {
    lr_mult: 0
    decay_mult: 0
  }
  param {
    lr_mult: 0
    decay_mult: 0
  }
}
layer {
  name: "Scale6"
  type: "Scale"
  bottom: "Convolution6"
  top: "Convolution6"
  scale_param {
    bias_term: true
  }
}
layer {
  name: "ReLU6"
  type: "ReLU"
  bottom: "Convolution6"
  top: "Convolution6"
}
layer {
  name: "Convolution7"
  type: "Convolution"
  bottom: "Convolution6"
  top: "Convolution7"
  param {
    lr_mult: 1
    decay_mult: 1
  }
  param {
    lr_mult: 2
    decay_mult: 0
  }
  convolution_param {
    num_output: 16
    pad: 1
    kernel_size: 3
    stride: 1
    weight_filler {
      type: "msra"
    }
    bias_filler {
      type: "constant"
      value: 0
    }
  }
}
layer {
  name: "BatchNorm7"
  type: "BatchNorm"
  bottom: "Convolution7"
  top: "Convolution7"
  param {
    lr_mult: 0
    decay_mult: 0
  }
  param {
    lr_mult: 0
    decay_mult: 0
  }
  param {
    lr_mult: 0
    decay_mult: 0
  }
}
layer {
  name: "Scale7"
  type: "Scale"
  bottom: "Convolution7"
  top: "Convolution7"
  scale_param {
    bias_term: true
  }
}
layer {
  name: "Eltwise3"
  type: "Eltwise"
  bottom: "Eltwise2"
  bottom: "Convolution7"
  top: "Eltwise3"
  eltwise_param {
    operation: SUM
  }
}
layer {
  name: "ReLU7"
  type: "ReLU"
  bottom: "Eltwise3"
  top: "Eltwise3"
}
layer {
  name: "Convolution8"
  type: "Convolution"
  bottom: "Eltwise3"
  top: "Convolution8"
  param {
    lr_mult: 1
    decay_mult: 1
  }
  param {
    lr_mult: 2
    decay_mult: 0
  }
  convolution_param {
    num_output: 32
    pad: 0
    kernel_size: 1
    stride: 2
    weight_filler {
      type: "msra"
    }
    bias_filler {
      type: "constant"
      value: 0
    }
  }
}
layer {
  name: "BatchNorm8"
  type: "BatchNorm"
  bottom: "Convolution8"
  top: "Convolution8"
  param {
    lr_mult: 0
    decay_mult: 0
  }
  param {
    lr_mult: 0
    decay_mult: 0
  }
  param {
    lr_mult: 0
    decay_mult: 0
  }
}
layer {
  name: "Scale8"
  type: "Scale"
  bottom: "Convolution8"
  top: "Convolution8"
  scale_param {
    bias_term: true
  }
}
layer {
  name: "Convolution9"
  type: "Convolution"
  bottom: "Eltwise3"
  top: "Convolution9"
  param {
    lr_mult: 1
    decay_mult: 1
  }
  param {
    lr_mult: 2
    decay_mult: 0
  }
  convolution_param {
    num_output: 32
    pad: 1
    kernel_size: 3
    stride: 2
    weight_filler {
      type: "msra"
    }
    bias_filler {
      type: "constant"
      value: 0
    }
  }
}
layer {
  name: "BatchNorm9"
  type: "BatchNorm"
  bottom: "Convolution9"
  top: "Convolution9"
  param {
    lr_mult: 0
    decay_mult: 0
  }
  param {
    lr_mult: 0
    decay_mult: 0
  }
  param {
    lr_mult: 0
    decay_mult: 0
  }
}
layer {
  name: "Scale9"
  type: "Scale"
  bottom: "Convolution9"
  top: "Convolution9"
  scale_param {
    bias_term: true
  }
}
layer {
  name: "ReLU8"
  type: "ReLU"
  bottom: "Convolution9"
  top: "Convolution9"
}
layer {
  name: "Convolution10"
  type: "Convolution"
  bottom: "Convolution9"
  top: "Convolution10"
  param {
    lr_mult: 1
    decay_mult: 1
  }
  param {
    lr_mult: 2
    decay_mult: 0
  }
  convolution_param {
    num_output: 32
    pad: 1
    kernel_size: 3
    stride: 1
    weight_filler {
      type: "msra"
    }
    bias_filler {
      type: "constant"
      value: 0
    }
  }
}
layer {
  name: "BatchNorm10"
  type: "BatchNorm"
  bottom: "Convolution10"
  top: "Convolution10"
  param {
    lr_mult: 0
    decay_mult: 0
  }
  param {
    lr_mult: 0
    decay_mult: 0
  }
  param {
    lr_mult: 0
    decay_mult: 0
  }
}
layer {
  name: "Scale10"
  type: "Scale"
  bottom: "Convolution10"
  top: "Convolution10"
  scale_param {
    bias_term: true
  }
}
layer {
  name: "Eltwise4"
  type: "Eltwise"
  bottom: "Convolution8"
  bottom: "Convolution10"
  top: "Eltwise4"
  eltwise_param {
    operation: SUM
  }
}
layer {
  name: "ReLU9"
  type: "ReLU"
  bottom: "Eltwise4"
  top: "Eltwise4"
}
layer {
  name: "Convolution11"
  type: "Convolution"
  bottom: "Eltwise4"
  top: "Convolution11"
  param {
    lr_mult: 1
    decay_mult: 1
  }
  param {
    lr_mult: 2
    decay_mult: 0
  }
  convolution_param {
    num_output: 32
    pad: 1
    kernel_size: 3
    stride: 1
    weight_filler {
      type: "msra"
    }
    bias_filler {
      type: "constant"
      value: 0
    }
  }
}
layer {
  name: "BatchNorm11"
  type: "BatchNorm"
  bottom: "Convolution11"
  top: "Convolution11"
  param {
    lr_mult: 0
    decay_mult: 0
  }
  param {
    lr_mult: 0
    decay_mult: 0
  }
  param {
    lr_mult: 0
    decay_mult: 0
  }
}
layer {
  name: "Scale11"
  type: "Scale"
  bottom: "Convolution11"
  top: "Convolution11"
  scale_param {
    bias_term: true
  }
}
layer {
  name: "ReLU10"
  type: "ReLU"
  bottom: "Convolution11"
  top: "Convolution11"
}
layer {
  name: "Convolution12"
  type: "Convolution"
  bottom: "Convolution11"
  top: "Convolution12"
  param {
    lr_mult: 1
    decay_mult: 1
  }
  param {
    lr_mult: 2
    decay_mult: 0
  }
  convolution_param {
    num_output: 32
    pad: 1
    kernel_size: 3
    stride: 1
    weight_filler {
      type: "msra"
    }
    bias_filler {
      type: "constant"
      value: 0
    }
  }
}
layer {
  name: "BatchNorm12"
  type: "BatchNorm"
  bottom: "Convolution12"
  top: "Convolution12"
  param {
    lr_mult: 0
    decay_mult: 0
  }
  param {
    lr_mult: 0
    decay_mult: 0
  }
  param {
    lr_mult: 0
    decay_mult: 0
  }
}
layer {
  name: "Scale12"
  type: "Scale"
  bottom: "Convolution12"
  top: "Convolution12"
  scale_param {
    bias_term: true
  }
}
layer {
  name: "Eltwise5"
  type: "Eltwise"
  bottom: "Eltwise4"
  bottom: "Convolution12"
  top: "Eltwise5"
  eltwise_param {
    operation: SUM
  }
}
layer {
  name: "ReLU11"
  type: "ReLU"
  bottom: "Eltwise5"
  top: "Eltwise5"
}
layer {
  name: "Convolution13"
  type: "Convolution"
  bottom: "Eltwise5"
  top: "Convolution13"
  param {
    lr_mult: 1
    decay_mult: 1
  }
  param {
    lr_mult: 2
    decay_mult: 0
  }
  convolution_param {
    num_output: 32
    pad: 1
    kernel_size: 3
    stride: 1
    weight_filler {
      type: "msra"
    }
    bias_filler {
      type: "constant"
      value: 0
    }
  }
}
layer {
  name: "BatchNorm13"
  type: "BatchNorm"
  bottom: "Convolution13"
  top: "Convolution13"
  param {
    lr_mult: 0
    decay_mult: 0
  }
  param {
    lr_mult: 0
    decay_mult: 0
  }
  param {
    lr_mult: 0
    decay_mult: 0
  }
}
layer {
  name: "Scale13"
  type: "Scale"
  bottom: "Convolution13"
  top: "Convolution13"
  scale_param {
    bias_term: true
  }
}
layer {
  name: "ReLU12"
  type: "ReLU"
  bottom: "Convolution13"
  top: "Convolution13"
}
layer {
  name: "Convolution14"
  type: "Convolution"
  bottom: "Convolution13"
  top: "Convolution14"
  param {
    lr_mult: 1
    decay_mult: 1
  }
  param {
    lr_mult: 2
    decay_mult: 0
  }
  convolution_param {
    num_output: 32
    pad: 1
    kernel_size: 3
    stride: 1
    weight_filler {
      type: "msra"
    }
    bias_filler {
      type: "constant"
      value: 0
    }
  }
}
layer {
  name: "BatchNorm14"
  type: "BatchNorm"
  bottom: "Convolution14"
  top: "Convolution14"
  param {
    lr_mult: 0
    decay_mult: 0
  }
  param {
    lr_mult: 0
    decay_mult: 0
  }
  param {
    lr_mult: 0
    decay_mult: 0
  }
}
layer {
  name: "Scale14"
  type: "Scale"
  bottom: "Convolution14"
  top: "Convolution14"
  scale_param {
    bias_term: true
  }
}
layer {
  name: "Eltwise6"
  type: "Eltwise"
  bottom: "Eltwise5"
  bottom: "Convolution14"
  top: "Eltwise6"
  eltwise_param {
    operation: SUM
  }
}
layer {
  name: "ReLU13"
  type: "ReLU"
  bottom: "Eltwise6"
  top: "Eltwise6"
}
layer {
  name: "Convolution15"
  type: "Convolution"
  bottom: "Eltwise6"
  top: "Convolution15"
  param {
    lr_mult: 1
    decay_mult: 1
  }
  param {
    lr_mult: 2
    decay_mult: 0
  }
  convolution_param {
    num_output: 64
    pad: 0
    kernel_size: 1
    stride: 2
    weight_filler {
      type: "msra"
    }
    bias_filler {
      type: "constant"
      value: 0
    }
  }
}
layer {
  name: "BatchNorm15"
  type: "BatchNorm"
  bottom: "Convolution15"
  top: "Convolution15"
  param {
    lr_mult: 0
    decay_mult: 0
  }
  param {
    lr_mult: 0
    decay_mult: 0
  }
  param {
    lr_mult: 0
    decay_mult: 0
  }
}
layer {
  name: "Scale15"
  type: "Scale"
  bottom: "Convolution15"
  top: "Convolution15"
  scale_param {
    bias_term: true
  }
}
layer {
  name: "Convolution16"
  type: "Convolution"
  bottom: "Eltwise6"
  top: "Convolution16"
  param {
    lr_mult: 1
    decay_mult: 1
  }
  param {
    lr_mult: 2
    decay_mult: 0
  }
  convolution_param {
    num_output: 64
    pad: 1
    kernel_size: 3
    stride: 2
    weight_filler {
      type: "msra"
    }
    bias_filler {
      type: "constant"
      value: 0
    }
  }
}
layer {
  name: "BatchNorm16"
  type: "BatchNorm"
  bottom: "Convolution16"
  top: "Convolution16"
  param {
    lr_mult: 0
    decay_mult: 0
  }
  param {
    lr_mult: 0
    decay_mult: 0
  }
  param {
    lr_mult: 0
    decay_mult: 0
  }
}
layer {
  name: "Scale16"
  type: "Scale"
  bottom: "Convolution16"
  top: "Convolution16"
  scale_param {
    bias_term: true
  }
}
layer {
  name: "ReLU14"
  type: "ReLU"
  bottom: "Convolution16"
  top: "Convolution16"
}
layer {
  name: "Convolution17"
  type: "Convolution"
  bottom: "Convolution16"
  top: "Convolution17"
  param {
    lr_mult: 1
    decay_mult: 1
  }
  param {
    lr_mult: 2
    decay_mult: 0
  }
  convolution_param {
    num_output: 64
    pad: 1
    kernel_size: 3
    stride: 1
    weight_filler {
      type: "msra"
    }
    bias_filler {
      type: "constant"
      value: 0
    }
  }
}
layer {
  name: "BatchNorm17"
  type: "BatchNorm"
  bottom: "Convolution17"
  top: "Convolution17"
  param {
    lr_mult: 0
    decay_mult: 0
  }
  param {
    lr_mult: 0
    decay_mult: 0
  }
  param {
    lr_mult: 0
    decay_mult: 0
  }
}
layer {
  name: "Scale17"
  type: "Scale"
  bottom: "Convolution17"
  top: "Convolution17"
  scale_param {
    bias_term: true
  }
}
layer {
  name: "Eltwise7"
  type: "Eltwise"
  bottom: "Convolution15"
  bottom: "Convolution17"
  top: "Eltwise7"
  eltwise_param {
    operation: SUM
  }
}
layer {
  name: "ReLU15"
  type: "ReLU"
  bottom: "Eltwise7"
  top: "Eltwise7"
}
layer {
  name: "Convolution18"
  type: "Convolution"
  bottom: "Eltwise7"
  top: "Convolution18"
  param {
    lr_mult: 1
    decay_mult: 1
  }
  param {
    lr_mult: 2
    decay_mult: 0
  }
  convolution_param {
    num_output: 64
    pad: 1
    kernel_size: 3
    stride: 1
    weight_filler {
      type: "msra"
    }
    bias_filler {
      type: "constant"
      value: 0
    }
  }
}
layer {
  name: "BatchNorm18"
  type: "BatchNorm"
  bottom: "Convolution18"
  top: "Convolution18"
  param {
    lr_mult: 0
    decay_mult: 0
  }
  param {
    lr_mult: 0
    decay_mult: 0
  }
  param {
    lr_mult: 0
    decay_mult: 0
  }
}
layer {
  name: "Scale18"
  type: "Scale"
  bottom: "Convolution18"
  top: "Convolution18"
  scale_param {
    bias_term: true
  }
}
layer {
  name: "ReLU16"
  type: "ReLU"
  bottom: "Convolution18"
  top: "Convolution18"
}
layer {
  name: "Convolution19"
  type: "Convolution"
  bottom: "Convolution18"
  top: "Convolution19"
  param {
    lr_mult: 1
    decay_mult: 1
  }
  param {
    lr_mult: 2
    decay_mult: 0
  }
  convolution_param {
    num_output: 64
    pad: 1
    kernel_size: 3
    stride: 1
    weight_filler {
      type: "msra"
    }
    bias_filler {
      type: "constant"
      value: 0
    }
  }
}
layer {
  name: "BatchNorm19"
  type: "BatchNorm"
  bottom: "Convolution19"
  top: "Convolution19"
  param {
    lr_mult: 0
    decay_mult: 0
  }
  param {
    lr_mult: 0
    decay_mult: 0
  }
  param {
    lr_mult: 0
    decay_mult: 0
  }
}
layer {
  name: "Scale19"
  type: "Scale"
  bottom: "Convolution19"
  top: "Convolution19"
  scale_param {
    bias_term: true
  }
}
layer {
  name: "Eltwise8"
  type: "Eltwise"
  bottom: "Eltwise7"
  bottom: "Convolution19"
  top: "Eltwise8"
  eltwise_param {
    operation: SUM
  }
}
layer {
  name: "ReLU17"
  type: "ReLU"
  bottom: "Eltwise8"
  top: "Eltwise8"
}
layer {
  name: "Convolution20"
  type: "Convolution"
  bottom: "Eltwise8"
  top: "Convolution20"
  param {
    lr_mult: 1
    decay_mult: 1
  }
  param {
    lr_mult: 2
    decay_mult: 0
  }
  convolution_param {
    num_output: 64
    pad: 1
    kernel_size: 3
    stride: 1
    weight_filler {
      type: "msra"
    }
    bias_filler {
      type: "constant"
      value: 0
    }
  }
}
layer {
  name: "BatchNorm20"
  type: "BatchNorm"
  bottom: "Convolution20"
  top: "Convolution20"
  param {
    lr_mult: 0
    decay_mult: 0
  }
  param {
    lr_mult: 0
    decay_mult: 0
  }
  param {
    lr_mult: 0
    decay_mult: 0
  }
}
layer {
  name: "Scale20"
  type: "Scale"
  bottom: "Convolution20"
  top: "Convolution20"
  scale_param {
    bias_term: true
  }
}
layer {
  name: "ReLU18"
  type: "ReLU"
  bottom: "Convolution20"
  top: "Convolution20"
}
layer {
  name: "Convolution21"
  type: "Convolution"
  bottom: "Convolution20"
  top: "Convolution21"
  param {
    lr_mult: 1
    decay_mult: 1
  }
  param {
    lr_mult: 2
    decay_mult: 0
  }
  convolution_param {
    num_output: 64
    pad: 1
    kernel_size: 3
    stride: 1
    weight_filler {
      type: "msra"
    }
    bias_filler {
      type: "constant"
      value: 0
    }
  }
}
layer {
  name: "BatchNorm21"
  type: "BatchNorm"
  bottom: "Convolution21"
  top: "Convolution21"
  param {
    lr_mult: 0
    decay_mult: 0
  }
  param {
    lr_mult: 0
    decay_mult: 0
  }
  param {
    lr_mult: 0
    decay_mult: 0
  }
}
layer {
  name: "Scale21"
  type: "Scale"
  bottom: "Convolution21"
  top: "Convolution21"
  scale_param {
    bias_term: true
  }
}
layer {
  name: "Eltwise9"
  type: "Eltwise"
  bottom: "Eltwise8"
  bottom: "Convolution21"
  top: "Eltwise9"
  eltwise_param {
    operation: SUM
  }
}
layer {
  name: "ReLU19"
  type: "ReLU"
  bottom: "Eltwise9"
  top: "Eltwise9"
}
layer {
  name: "Pooling1"
  type: "Pooling"
  bottom: "Eltwise9"
  top: "Pooling1"
  pooling_param {
    pool: AVE
    global_pooling: true
  }
}
layer {
  name: "InnerProduct1"
  type: "InnerProduct"
  bottom: "Pooling1"
  top: "InnerProduct1"
  param {
    lr_mult: 1
    decay_mult: 1
  }
  param {
    lr_mult: 2
    decay_mult: 1
  }
  inner_product_param {
    num_output: 10
    weight_filler {
      type: "msra"
    }
    bias_filler {
      type: "constant"
      value: 0
    }
  }
}
layer {
  name: "SoftmaxWithLoss1"
  type: "SoftmaxWithLoss"
  bottom: "InnerProduct1"
  bottom: "Data2"
  top: "SoftmaxWithLoss1"
}
layer {
  name: "Accuracy1"
  type: "Accuracy"
  bottom: "InnerProduct1"
  bottom: "Data2"
  top: "Accuracy1"
  include {
    phase: TEST
  }
}
I0817 23:56:13.039064 15109 layer_factory.hpp:77] Creating layer Data1
I0817 23:56:13.039160 15109 db_lmdb.cpp:35] Opened lmdb /home/lijianfei/datasets/cifar10_40/test_lmdb
I0817 23:56:13.039180 15109 net.cpp:128] Creating Layer Data1
I0817 23:56:13.039188 15109 net.cpp:522] Data1 -> Data1
I0817 23:56:13.039198 15109 net.cpp:522] Data1 -> Data2
I0817 23:56:13.039347 15109 data_layer.cpp:45] output data size: 10,3,32,32
I0817 23:56:13.047003 15109 net.cpp:172] Setting up Data1
I0817 23:56:13.047026 15109 net.cpp:186] Top shape: 10 3 32 32 (30720)
I0817 23:56:13.047032 15109 net.cpp:186] Top shape: 10 (10)
I0817 23:56:13.047036 15109 net.cpp:194] Memory required for data: 122920
I0817 23:56:13.047041 15109 layer_factory.hpp:77] Creating layer Data2_Data1_1_split
I0817 23:56:13.047050 15109 net.cpp:128] Creating Layer Data2_Data1_1_split
I0817 23:56:13.047055 15109 net.cpp:558] Data2_Data1_1_split <- Data2
I0817 23:56:13.047062 15109 net.cpp:522] Data2_Data1_1_split -> Data2_Data1_1_split_0
I0817 23:56:13.047070 15109 net.cpp:522] Data2_Data1_1_split -> Data2_Data1_1_split_1
I0817 23:56:13.047160 15109 net.cpp:172] Setting up Data2_Data1_1_split
I0817 23:56:13.047171 15109 net.cpp:186] Top shape: 10 (10)
I0817 23:56:13.047176 15109 net.cpp:186] Top shape: 10 (10)
I0817 23:56:13.047180 15109 net.cpp:194] Memory required for data: 123000
I0817 23:56:13.047184 15109 layer_factory.hpp:77] Creating layer Convolution1
I0817 23:56:13.047219 15109 net.cpp:128] Creating Layer Convolution1
I0817 23:56:13.047227 15109 net.cpp:558] Convolution1 <- Data1
I0817 23:56:13.047236 15109 net.cpp:522] Convolution1 -> Convolution1
I0817 23:56:13.053762 15109 net.cpp:172] Setting up Convolution1
I0817 23:56:13.053786 15109 net.cpp:186] Top shape: 10 16 32 32 (163840)
I0817 23:56:13.053791 15109 net.cpp:194] Memory required for data: 778360
I0817 23:56:13.053809 15109 layer_factory.hpp:77] Creating layer BatchNorm1
I0817 23:56:13.053822 15109 net.cpp:128] Creating Layer BatchNorm1
I0817 23:56:13.053827 15109 net.cpp:558] BatchNorm1 <- Convolution1
I0817 23:56:13.053834 15109 net.cpp:509] BatchNorm1 -> Convolution1 (in-place)
I0817 23:56:13.054103 15109 net.cpp:172] Setting up BatchNorm1
I0817 23:56:13.054117 15109 net.cpp:186] Top shape: 10 16 32 32 (163840)
I0817 23:56:13.054121 15109 net.cpp:194] Memory required for data: 1433720
I0817 23:56:13.054133 15109 layer_factory.hpp:77] Creating layer Scale1
I0817 23:56:13.054144 15109 net.cpp:128] Creating Layer Scale1
I0817 23:56:13.054149 15109 net.cpp:558] Scale1 <- Convolution1
I0817 23:56:13.054155 15109 net.cpp:509] Scale1 -> Convolution1 (in-place)
I0817 23:56:13.054206 15109 layer_factory.hpp:77] Creating layer Scale1
I0817 23:56:13.054361 15109 net.cpp:172] Setting up Scale1
I0817 23:56:13.054373 15109 net.cpp:186] Top shape: 10 16 32 32 (163840)
I0817 23:56:13.054378 15109 net.cpp:194] Memory required for data: 2089080
I0817 23:56:13.054386 15109 layer_factory.hpp:77] Creating layer ReLU1
I0817 23:56:13.054395 15109 net.cpp:128] Creating Layer ReLU1
I0817 23:56:13.054399 15109 net.cpp:558] ReLU1 <- Convolution1
I0817 23:56:13.054405 15109 net.cpp:509] ReLU1 -> Convolution1 (in-place)
I0817 23:56:13.055833 15109 net.cpp:172] Setting up ReLU1
I0817 23:56:13.055852 15109 net.cpp:186] Top shape: 10 16 32 32 (163840)
I0817 23:56:13.055866 15109 net.cpp:194] Memory required for data: 2744440
I0817 23:56:13.055871 15109 layer_factory.hpp:77] Creating layer Convolution1_ReLU1_0_split
I0817 23:56:13.055886 15109 net.cpp:128] Creating Layer Convolution1_ReLU1_0_split
I0817 23:56:13.055893 15109 net.cpp:558] Convolution1_ReLU1_0_split <- Convolution1
I0817 23:56:13.055902 15109 net.cpp:522] Convolution1_ReLU1_0_split -> Convolution1_ReLU1_0_split_0
I0817 23:56:13.055918 15109 net.cpp:522] Convolution1_ReLU1_0_split -> Convolution1_ReLU1_0_split_1
I0817 23:56:13.058092 15109 net.cpp:172] Setting up Convolution1_ReLU1_0_split
I0817 23:56:13.058122 15109 net.cpp:186] Top shape: 10 16 32 32 (163840)
I0817 23:56:13.058140 15109 net.cpp:186] Top shape: 10 16 32 32 (163840)
I0817 23:56:13.058145 15109 net.cpp:194] Memory required for data: 4055160
I0817 23:56:13.058158 15109 layer_factory.hpp:77] Creating layer Convolution2
I0817 23:56:13.058182 15109 net.cpp:128] Creating Layer Convolution2
I0817 23:56:13.058189 15109 net.cpp:558] Convolution2 <- Convolution1_ReLU1_0_split_0
I0817 23:56:13.058199 15109 net.cpp:522] Convolution2 -> Convolution2
I0817 23:56:13.063042 15109 net.cpp:172] Setting up Convolution2
I0817 23:56:13.063066 15109 net.cpp:186] Top shape: 10 16 32 32 (163840)
I0817 23:56:13.063072 15109 net.cpp:194] Memory required for data: 4710520
I0817 23:56:13.063087 15109 layer_factory.hpp:77] Creating layer BatchNorm2
I0817 23:56:13.063102 15109 net.cpp:128] Creating Layer BatchNorm2
I0817 23:56:13.063108 15109 net.cpp:558] BatchNorm2 <- Convolution2
I0817 23:56:13.063119 15109 net.cpp:509] BatchNorm2 -> Convolution2 (in-place)
I0817 23:56:13.063457 15109 net.cpp:172] Setting up BatchNorm2
I0817 23:56:13.063472 15109 net.cpp:186] Top shape: 10 16 32 32 (163840)
I0817 23:56:13.063477 15109 net.cpp:194] Memory required for data: 5365880
I0817 23:56:13.063489 15109 layer_factory.hpp:77] Creating layer Scale2
I0817 23:56:13.063498 15109 net.cpp:128] Creating Layer Scale2
I0817 23:56:13.063503 15109 net.cpp:558] Scale2 <- Convolution2
I0817 23:56:13.063518 15109 net.cpp:509] Scale2 -> Convolution2 (in-place)
I0817 23:56:13.063576 15109 layer_factory.hpp:77] Creating layer Scale2
I0817 23:56:13.063786 15109 net.cpp:172] Setting up Scale2
I0817 23:56:13.063803 15109 net.cpp:186] Top shape: 10 16 32 32 (163840)
I0817 23:56:13.063809 15109 net.cpp:194] Memory required for data: 6021240
I0817 23:56:13.063819 15109 layer_factory.hpp:77] Creating layer ReLU2
I0817 23:56:13.063827 15109 net.cpp:128] Creating Layer ReLU2
I0817 23:56:13.063833 15109 net.cpp:558] ReLU2 <- Convolution2
I0817 23:56:13.063840 15109 net.cpp:509] ReLU2 -> Convolution2 (in-place)
I0817 23:56:13.064667 15109 net.cpp:172] Setting up ReLU2
I0817 23:56:13.064697 15109 net.cpp:186] Top shape: 10 16 32 32 (163840)
I0817 23:56:13.064702 15109 net.cpp:194] Memory required for data: 6676600
I0817 23:56:13.064707 15109 layer_factory.hpp:77] Creating layer Convolution3
I0817 23:56:13.064729 15109 net.cpp:128] Creating Layer Convolution3
I0817 23:56:13.064735 15109 net.cpp:558] Convolution3 <- Convolution2
I0817 23:56:13.064745 15109 net.cpp:522] Convolution3 -> Convolution3
I0817 23:56:13.071532 15109 net.cpp:172] Setting up Convolution3
I0817 23:56:13.071565 15109 net.cpp:186] Top shape: 10 16 32 32 (163840)
I0817 23:56:13.071573 15109 net.cpp:194] Memory required for data: 7331960
I0817 23:56:13.071588 15109 layer_factory.hpp:77] Creating layer BatchNorm3
I0817 23:56:13.071605 15109 net.cpp:128] Creating Layer BatchNorm3
I0817 23:56:13.071619 15109 net.cpp:558] BatchNorm3 <- Convolution3
I0817 23:56:13.071635 15109 net.cpp:509] BatchNorm3 -> Convolution3 (in-place)
I0817 23:56:13.072042 15109 net.cpp:172] Setting up BatchNorm3
I0817 23:56:13.072058 15109 net.cpp:186] Top shape: 10 16 32 32 (163840)
I0817 23:56:13.072065 15109 net.cpp:194] Memory required for data: 7987320
I0817 23:56:13.072090 15109 layer_factory.hpp:77] Creating layer Scale3
I0817 23:56:13.072103 15109 net.cpp:128] Creating Layer Scale3
I0817 23:56:13.072110 15109 net.cpp:558] Scale3 <- Convolution3
I0817 23:56:13.072119 15109 net.cpp:509] Scale3 -> Convolution3 (in-place)
I0817 23:56:13.072196 15109 layer_factory.hpp:77] Creating layer Scale3
I0817 23:56:13.072428 15109 net.cpp:172] Setting up Scale3
I0817 23:56:13.072443 15109 net.cpp:186] Top shape: 10 16 32 32 (163840)
I0817 23:56:13.072450 15109 net.cpp:194] Memory required for data: 8642680
I0817 23:56:13.072464 15109 layer_factory.hpp:77] Creating layer Eltwise1
I0817 23:56:13.072480 15109 net.cpp:128] Creating Layer Eltwise1
I0817 23:56:13.072487 15109 net.cpp:558] Eltwise1 <- Convolution1_ReLU1_0_split_1
I0817 23:56:13.072495 15109 net.cpp:558] Eltwise1 <- Convolution3
I0817 23:56:13.072510 15109 net.cpp:522] Eltwise1 -> Eltwise1
I0817 23:56:13.072554 15109 net.cpp:172] Setting up Eltwise1
I0817 23:56:13.072568 15109 net.cpp:186] Top shape: 10 16 32 32 (163840)
I0817 23:56:13.072574 15109 net.cpp:194] Memory required for data: 9298040
I0817 23:56:13.072580 15109 layer_factory.hpp:77] Creating layer ReLU3
I0817 23:56:13.072593 15109 net.cpp:128] Creating Layer ReLU3
I0817 23:56:13.072600 15109 net.cpp:558] ReLU3 <- Eltwise1
I0817 23:56:13.072608 15109 net.cpp:509] ReLU3 -> Eltwise1 (in-place)
I0817 23:56:13.073487 15109 net.cpp:172] Setting up ReLU3
I0817 23:56:13.073510 15109 net.cpp:186] Top shape: 10 16 32 32 (163840)
I0817 23:56:13.073518 15109 net.cpp:194] Memory required for data: 9953400
I0817 23:56:13.073524 15109 layer_factory.hpp:77] Creating layer Eltwise1_ReLU3_0_split
I0817 23:56:13.073544 15109 net.cpp:128] Creating Layer Eltwise1_ReLU3_0_split
I0817 23:56:13.073554 15109 net.cpp:558] Eltwise1_ReLU3_0_split <- Eltwise1
I0817 23:56:13.073565 15109 net.cpp:522] Eltwise1_ReLU3_0_split -> Eltwise1_ReLU3_0_split_0
I0817 23:56:13.073576 15109 net.cpp:522] Eltwise1_ReLU3_0_split -> Eltwise1_ReLU3_0_split_1
I0817 23:56:13.073657 15109 net.cpp:172] Setting up Eltwise1_ReLU3_0_split
I0817 23:56:13.073668 15109 net.cpp:186] Top shape: 10 16 32 32 (163840)
I0817 23:56:13.073678 15109 net.cpp:186] Top shape: 10 16 32 32 (163840)
I0817 23:56:13.073683 15109 net.cpp:194] Memory required for data: 11264120
I0817 23:56:13.073690 15109 layer_factory.hpp:77] Creating layer Convolution4
I0817 23:56:13.073709 15109 net.cpp:128] Creating Layer Convolution4
I0817 23:56:13.073735 15109 net.cpp:558] Convolution4 <- Eltwise1_ReLU3_0_split_0
I0817 23:56:13.073752 15109 net.cpp:522] Convolution4 -> Convolution4
I0817 23:56:13.080160 15109 net.cpp:172] Setting up Convolution4
I0817 23:56:13.080190 15109 net.cpp:186] Top shape: 10 16 32 32 (163840)
I0817 23:56:13.080195 15109 net.cpp:194] Memory required for data: 11919480
I0817 23:56:13.080205 15109 layer_factory.hpp:77] Creating layer BatchNorm4
I0817 23:56:13.080214 15109 net.cpp:128] Creating Layer BatchNorm4
I0817 23:56:13.080224 15109 net.cpp:558] BatchNorm4 <- Convolution4
I0817 23:56:13.080232 15109 net.cpp:509] BatchNorm4 -> Convolution4 (in-place)
I0817 23:56:13.080520 15109 net.cpp:172] Setting up BatchNorm4
I0817 23:56:13.080531 15109 net.cpp:186] Top shape: 10 16 32 32 (163840)
I0817 23:56:13.080535 15109 net.cpp:194] Memory required for data: 12574840
I0817 23:56:13.080545 15109 layer_factory.hpp:77] Creating layer Scale4
I0817 23:56:13.080552 15109 net.cpp:128] Creating Layer Scale4
I0817 23:56:13.080556 15109 net.cpp:558] Scale4 <- Convolution4
I0817 23:56:13.080564 15109 net.cpp:509] Scale4 -> Convolution4 (in-place)
I0817 23:56:13.080610 15109 layer_factory.hpp:77] Creating layer Scale4
I0817 23:56:13.080761 15109 net.cpp:172] Setting up Scale4
I0817 23:56:13.080775 15109 net.cpp:186] Top shape: 10 16 32 32 (163840)
I0817 23:56:13.080780 15109 net.cpp:194] Memory required for data: 13230200
I0817 23:56:13.080787 15109 layer_factory.hpp:77] Creating layer ReLU4
I0817 23:56:13.080795 15109 net.cpp:128] Creating Layer ReLU4
I0817 23:56:13.080798 15109 net.cpp:558] ReLU4 <- Convolution4
I0817 23:56:13.080804 15109 net.cpp:509] ReLU4 -> Convolution4 (in-place)
I0817 23:56:13.082229 15109 net.cpp:172] Setting up ReLU4
I0817 23:56:13.082250 15109 net.cpp:186] Top shape: 10 16 32 32 (163840)
I0817 23:56:13.082255 15109 net.cpp:194] Memory required for data: 13885560
I0817 23:56:13.082259 15109 layer_factory.hpp:77] Creating layer Convolution5
I0817 23:56:13.082275 15109 net.cpp:128] Creating Layer Convolution5
I0817 23:56:13.082299 15109 net.cpp:558] Convolution5 <- Convolution4
I0817 23:56:13.082307 15109 net.cpp:522] Convolution5 -> Convolution5
I0817 23:56:13.088961 15109 net.cpp:172] Setting up Convolution5
I0817 23:56:13.088990 15109 net.cpp:186] Top shape: 10 16 32 32 (163840)
I0817 23:56:13.088995 15109 net.cpp:194] Memory required for data: 14540920
I0817 23:56:13.089009 15109 layer_factory.hpp:77] Creating layer BatchNorm5
I0817 23:56:13.089020 15109 net.cpp:128] Creating Layer BatchNorm5
I0817 23:56:13.089025 15109 net.cpp:558] BatchNorm5 <- Convolution5
I0817 23:56:13.089031 15109 net.cpp:509] BatchNorm5 -> Convolution5 (in-place)
I0817 23:56:13.089304 15109 net.cpp:172] Setting up BatchNorm5
I0817 23:56:13.089315 15109 net.cpp:186] Top shape: 10 16 32 32 (163840)
I0817 23:56:13.089319 15109 net.cpp:194] Memory required for data: 15196280
I0817 23:56:13.089332 15109 layer_factory.hpp:77] Creating layer Scale5
I0817 23:56:13.089346 15109 net.cpp:128] Creating Layer Scale5
I0817 23:56:13.089351 15109 net.cpp:558] Scale5 <- Convolution5
I0817 23:56:13.089360 15109 net.cpp:509] Scale5 -> Convolution5 (in-place)
I0817 23:56:13.089412 15109 layer_factory.hpp:77] Creating layer Scale5
I0817 23:56:13.089568 15109 net.cpp:172] Setting up Scale5
I0817 23:56:13.089579 15109 net.cpp:186] Top shape: 10 16 32 32 (163840)
I0817 23:56:13.089583 15109 net.cpp:194] Memory required for data: 15851640
I0817 23:56:13.089591 15109 layer_factory.hpp:77] Creating layer Eltwise2
I0817 23:56:13.089601 15109 net.cpp:128] Creating Layer Eltwise2
I0817 23:56:13.089607 15109 net.cpp:558] Eltwise2 <- Eltwise1_ReLU3_0_split_1
I0817 23:56:13.089612 15109 net.cpp:558] Eltwise2 <- Convolution5
I0817 23:56:13.089617 15109 net.cpp:522] Eltwise2 -> Eltwise2
I0817 23:56:13.089649 15109 net.cpp:172] Setting up Eltwise2
I0817 23:56:13.089659 15109 net.cpp:186] Top shape: 10 16 32 32 (163840)
I0817 23:56:13.089663 15109 net.cpp:194] Memory required for data: 16507000
I0817 23:56:13.089668 15109 layer_factory.hpp:77] Creating layer ReLU5
I0817 23:56:13.089694 15109 net.cpp:128] Creating Layer ReLU5
I0817 23:56:13.089699 15109 net.cpp:558] ReLU5 <- Eltwise2
I0817 23:56:13.089709 15109 net.cpp:509] ReLU5 -> Eltwise2 (in-place)
I0817 23:56:13.091037 15109 net.cpp:172] Setting up ReLU5
I0817 23:56:13.091061 15109 net.cpp:186] Top shape: 10 16 32 32 (163840)
I0817 23:56:13.091066 15109 net.cpp:194] Memory required for data: 17162360
I0817 23:56:13.091071 15109 layer_factory.hpp:77] Creating layer Eltwise2_ReLU5_0_split
I0817 23:56:13.091079 15109 net.cpp:128] Creating Layer Eltwise2_ReLU5_0_split
I0817 23:56:13.091084 15109 net.cpp:558] Eltwise2_ReLU5_0_split <- Eltwise2
I0817 23:56:13.091094 15109 net.cpp:522] Eltwise2_ReLU5_0_split -> Eltwise2_ReLU5_0_split_0
I0817 23:56:13.091104 15109 net.cpp:522] Eltwise2_ReLU5_0_split -> Eltwise2_ReLU5_0_split_1
I0817 23:56:13.091166 15109 net.cpp:172] Setting up Eltwise2_ReLU5_0_split
I0817 23:56:13.091177 15109 net.cpp:186] Top shape: 10 16 32 32 (163840)
I0817 23:56:13.091183 15109 net.cpp:186] Top shape: 10 16 32 32 (163840)
I0817 23:56:13.091188 15109 net.cpp:194] Memory required for data: 18473080
I0817 23:56:13.091192 15109 layer_factory.hpp:77] Creating layer Convolution6
I0817 23:56:13.091207 15109 net.cpp:128] Creating Layer Convolution6
I0817 23:56:13.091215 15109 net.cpp:558] Convolution6 <- Eltwise2_ReLU5_0_split_0
I0817 23:56:13.091223 15109 net.cpp:522] Convolution6 -> Convolution6
I0817 23:56:13.097789 15109 net.cpp:172] Setting up Convolution6
I0817 23:56:13.097815 15109 net.cpp:186] Top shape: 10 16 32 32 (163840)
I0817 23:56:13.097820 15109 net.cpp:194] Memory required for data: 19128440
I0817 23:56:13.097832 15109 layer_factory.hpp:77] Creating layer BatchNorm6
I0817 23:56:13.097843 15109 net.cpp:128] Creating Layer BatchNorm6
I0817 23:56:13.097856 15109 net.cpp:558] BatchNorm6 <- Convolution6
I0817 23:56:13.097864 15109 net.cpp:509] BatchNorm6 -> Convolution6 (in-place)
I0817 23:56:13.098145 15109 net.cpp:172] Setting up BatchNorm6
I0817 23:56:13.098156 15109 net.cpp:186] Top shape: 10 16 32 32 (163840)
I0817 23:56:13.098161 15109 net.cpp:194] Memory required for data: 19783800
I0817 23:56:13.098170 15109 layer_factory.hpp:77] Creating layer Scale6
I0817 23:56:13.098191 15109 net.cpp:128] Creating Layer Scale6
I0817 23:56:13.098196 15109 net.cpp:558] Scale6 <- Convolution6
I0817 23:56:13.098202 15109 net.cpp:509] Scale6 -> Convolution6 (in-place)
I0817 23:56:13.098254 15109 layer_factory.hpp:77] Creating layer Scale6
I0817 23:56:13.098410 15109 net.cpp:172] Setting up Scale6
I0817 23:56:13.098420 15109 net.cpp:186] Top shape: 10 16 32 32 (163840)
I0817 23:56:13.098424 15109 net.cpp:194] Memory required for data: 20439160
I0817 23:56:13.098433 15109 layer_factory.hpp:77] Creating layer ReLU6
I0817 23:56:13.098439 15109 net.cpp:128] Creating Layer ReLU6
I0817 23:56:13.098443 15109 net.cpp:558] ReLU6 <- Convolution6
I0817 23:56:13.098451 15109 net.cpp:509] ReLU6 -> Convolution6 (in-place)
I0817 23:56:13.099853 15109 net.cpp:172] Setting up ReLU6
I0817 23:56:13.099872 15109 net.cpp:186] Top shape: 10 16 32 32 (163840)
I0817 23:56:13.099879 15109 net.cpp:194] Memory required for data: 21094520
I0817 23:56:13.099884 15109 layer_factory.hpp:77] Creating layer Convolution7
I0817 23:56:13.099900 15109 net.cpp:128] Creating Layer Convolution7
I0817 23:56:13.099910 15109 net.cpp:558] Convolution7 <- Convolution6
I0817 23:56:13.099920 15109 net.cpp:522] Convolution7 -> Convolution7
I0817 23:56:13.106596 15109 net.cpp:172] Setting up Convolution7
I0817 23:56:13.106626 15109 net.cpp:186] Top shape: 10 16 32 32 (163840)
I0817 23:56:13.106629 15109 net.cpp:194] Memory required for data: 21749880
I0817 23:56:13.106643 15109 layer_factory.hpp:77] Creating layer BatchNorm7
I0817 23:56:13.106657 15109 net.cpp:128] Creating Layer BatchNorm7
I0817 23:56:13.106665 15109 net.cpp:558] BatchNorm7 <- Convolution7
I0817 23:56:13.106673 15109 net.cpp:509] BatchNorm7 -> Convolution7 (in-place)
I0817 23:56:13.106969 15109 net.cpp:172] Setting up BatchNorm7
I0817 23:56:13.106982 15109 net.cpp:186] Top shape: 10 16 32 32 (163840)
I0817 23:56:13.107013 15109 net.cpp:194] Memory required for data: 22405240
I0817 23:56:13.107024 15109 layer_factory.hpp:77] Creating layer Scale7
I0817 23:56:13.107035 15109 net.cpp:128] Creating Layer Scale7
I0817 23:56:13.107040 15109 net.cpp:558] Scale7 <- Convolution7
I0817 23:56:13.107045 15109 net.cpp:509] Scale7 -> Convolution7 (in-place)
I0817 23:56:13.107100 15109 layer_factory.hpp:77] Creating layer Scale7
I0817 23:56:13.107266 15109 net.cpp:172] Setting up Scale7
I0817 23:56:13.107278 15109 net.cpp:186] Top shape: 10 16 32 32 (163840)
I0817 23:56:13.107283 15109 net.cpp:194] Memory required for data: 23060600
I0817 23:56:13.107291 15109 layer_factory.hpp:77] Creating layer Eltwise3
I0817 23:56:13.107301 15109 net.cpp:128] Creating Layer Eltwise3
I0817 23:56:13.107306 15109 net.cpp:558] Eltwise3 <- Eltwise2_ReLU5_0_split_1
I0817 23:56:13.107311 15109 net.cpp:558] Eltwise3 <- Convolution7
I0817 23:56:13.107317 15109 net.cpp:522] Eltwise3 -> Eltwise3
I0817 23:56:13.107347 15109 net.cpp:172] Setting up Eltwise3
I0817 23:56:13.107362 15109 net.cpp:186] Top shape: 10 16 32 32 (163840)
I0817 23:56:13.107367 15109 net.cpp:194] Memory required for data: 23715960
I0817 23:56:13.107370 15109 layer_factory.hpp:77] Creating layer ReLU7
I0817 23:56:13.107376 15109 net.cpp:128] Creating Layer ReLU7
I0817 23:56:13.107380 15109 net.cpp:558] ReLU7 <- Eltwise3
I0817 23:56:13.107388 15109 net.cpp:509] ReLU7 -> Eltwise3 (in-place)
I0817 23:56:13.108667 15109 net.cpp:172] Setting up ReLU7
I0817 23:56:13.108685 15109 net.cpp:186] Top shape: 10 16 32 32 (163840)
I0817 23:56:13.108688 15109 net.cpp:194] Memory required for data: 24371320
I0817 23:56:13.108693 15109 layer_factory.hpp:77] Creating layer Eltwise3_ReLU7_0_split
I0817 23:56:13.108700 15109 net.cpp:128] Creating Layer Eltwise3_ReLU7_0_split
I0817 23:56:13.108705 15109 net.cpp:558] Eltwise3_ReLU7_0_split <- Eltwise3
I0817 23:56:13.108714 15109 net.cpp:522] Eltwise3_ReLU7_0_split -> Eltwise3_ReLU7_0_split_0
I0817 23:56:13.108722 15109 net.cpp:522] Eltwise3_ReLU7_0_split -> Eltwise3_ReLU7_0_split_1
I0817 23:56:13.108779 15109 net.cpp:172] Setting up Eltwise3_ReLU7_0_split
I0817 23:56:13.108803 15109 net.cpp:186] Top shape: 10 16 32 32 (163840)
I0817 23:56:13.108809 15109 net.cpp:186] Top shape: 10 16 32 32 (163840)
I0817 23:56:13.108814 15109 net.cpp:194] Memory required for data: 25682040
I0817 23:56:13.108819 15109 layer_factory.hpp:77] Creating layer Convolution8
I0817 23:56:13.108830 15109 net.cpp:128] Creating Layer Convolution8
I0817 23:56:13.108835 15109 net.cpp:558] Convolution8 <- Eltwise3_ReLU7_0_split_0
I0817 23:56:13.108845 15109 net.cpp:522] Convolution8 -> Convolution8
I0817 23:56:13.115396 15109 net.cpp:172] Setting up Convolution8
I0817 23:56:13.115417 15109 net.cpp:186] Top shape: 10 32 16 16 (81920)
I0817 23:56:13.115422 15109 net.cpp:194] Memory required for data: 26009720
I0817 23:56:13.115432 15109 layer_factory.hpp:77] Creating layer BatchNorm8
I0817 23:56:13.115448 15109 net.cpp:128] Creating Layer BatchNorm8
I0817 23:56:13.115453 15109 net.cpp:558] BatchNorm8 <- Convolution8
I0817 23:56:13.115460 15109 net.cpp:509] BatchNorm8 -> Convolution8 (in-place)
I0817 23:56:13.115738 15109 net.cpp:172] Setting up BatchNorm8
I0817 23:56:13.115751 15109 net.cpp:186] Top shape: 10 32 16 16 (81920)
I0817 23:56:13.115754 15109 net.cpp:194] Memory required for data: 26337400
I0817 23:56:13.115764 15109 layer_factory.hpp:77] Creating layer Scale8
I0817 23:56:13.115772 15109 net.cpp:128] Creating Layer Scale8
I0817 23:56:13.115775 15109 net.cpp:558] Scale8 <- Convolution8
I0817 23:56:13.115780 15109 net.cpp:509] Scale8 -> Convolution8 (in-place)
I0817 23:56:13.115833 15109 layer_factory.hpp:77] Creating layer Scale8
I0817 23:56:13.115991 15109 net.cpp:172] Setting up Scale8
I0817 23:56:13.116004 15109 net.cpp:186] Top shape: 10 32 16 16 (81920)
I0817 23:56:13.116008 15109 net.cpp:194] Memory required for data: 26665080
I0817 23:56:13.116016 15109 layer_factory.hpp:77] Creating layer Convolution9
I0817 23:56:13.116029 15109 net.cpp:128] Creating Layer Convolution9
I0817 23:56:13.116051 15109 net.cpp:558] Convolution9 <- Eltwise3_ReLU7_0_split_1
I0817 23:56:13.116062 15109 net.cpp:522] Convolution9 -> Convolution9
I0817 23:56:13.122022 15109 net.cpp:172] Setting up Convolution9
I0817 23:56:13.122048 15109 net.cpp:186] Top shape: 10 32 16 16 (81920)
I0817 23:56:13.122052 15109 net.cpp:194] Memory required for data: 26992760
I0817 23:56:13.122066 15109 layer_factory.hpp:77] Creating layer BatchNorm9
I0817 23:56:13.122077 15109 net.cpp:128] Creating Layer BatchNorm9
I0817 23:56:13.122092 15109 net.cpp:558] BatchNorm9 <- Convolution9
I0817 23:56:13.122097 15109 net.cpp:509] BatchNorm9 -> Convolution9 (in-place)
I0817 23:56:13.122371 15109 net.cpp:172] Setting up BatchNorm9
I0817 23:56:13.122382 15109 net.cpp:186] Top shape: 10 32 16 16 (81920)
I0817 23:56:13.122387 15109 net.cpp:194] Memory required for data: 27320440
I0817 23:56:13.122397 15109 layer_factory.hpp:77] Creating layer Scale9
I0817 23:56:13.122407 15109 net.cpp:128] Creating Layer Scale9
I0817 23:56:13.122412 15109 net.cpp:558] Scale9 <- Convolution9
I0817 23:56:13.122418 15109 net.cpp:509] Scale9 -> Convolution9 (in-place)
I0817 23:56:13.122470 15109 layer_factory.hpp:77] Creating layer Scale9
I0817 23:56:13.122634 15109 net.cpp:172] Setting up Scale9
I0817 23:56:13.122647 15109 net.cpp:186] Top shape: 10 32 16 16 (81920)
I0817 23:56:13.122651 15109 net.cpp:194] Memory required for data: 27648120
I0817 23:56:13.122659 15109 layer_factory.hpp:77] Creating layer ReLU8
I0817 23:56:13.122666 15109 net.cpp:128] Creating Layer ReLU8
I0817 23:56:13.122670 15109 net.cpp:558] ReLU8 <- Convolution9
I0817 23:56:13.122678 15109 net.cpp:509] ReLU8 -> Convolution9 (in-place)
I0817 23:56:13.124085 15109 net.cpp:172] Setting up ReLU8
I0817 23:56:13.124104 15109 net.cpp:186] Top shape: 10 32 16 16 (81920)
I0817 23:56:13.124109 15109 net.cpp:194] Memory required for data: 27975800
I0817 23:56:13.124114 15109 layer_factory.hpp:77] Creating layer Convolution10
I0817 23:56:13.124127 15109 net.cpp:128] Creating Layer Convolution10
I0817 23:56:13.124132 15109 net.cpp:558] Convolution10 <- Convolution9
I0817 23:56:13.124142 15109 net.cpp:522] Convolution10 -> Convolution10
I0817 23:56:13.130820 15109 net.cpp:172] Setting up Convolution10
I0817 23:56:13.130846 15109 net.cpp:186] Top shape: 10 32 16 16 (81920)
I0817 23:56:13.130849 15109 net.cpp:194] Memory required for data: 28303480
I0817 23:56:13.130868 15109 layer_factory.hpp:77] Creating layer BatchNorm10
I0817 23:56:13.130880 15109 net.cpp:128] Creating Layer BatchNorm10
I0817 23:56:13.130885 15109 net.cpp:558] BatchNorm10 <- Convolution10
I0817 23:56:13.130892 15109 net.cpp:509] BatchNorm10 -> Convolution10 (in-place)
I0817 23:56:13.131186 15109 net.cpp:172] Setting up BatchNorm10
I0817 23:56:13.131199 15109 net.cpp:186] Top shape: 10 32 16 16 (81920)
I0817 23:56:13.131204 15109 net.cpp:194] Memory required for data: 28631160
I0817 23:56:13.131214 15109 layer_factory.hpp:77] Creating layer Scale10
I0817 23:56:13.131222 15109 net.cpp:128] Creating Layer Scale10
I0817 23:56:13.131227 15109 net.cpp:558] Scale10 <- Convolution10
I0817 23:56:13.131232 15109 net.cpp:509] Scale10 -> Convolution10 (in-place)
I0817 23:56:13.131284 15109 layer_factory.hpp:77] Creating layer Scale10
I0817 23:56:13.131448 15109 net.cpp:172] Setting up Scale10
I0817 23:56:13.131458 15109 net.cpp:186] Top shape: 10 32 16 16 (81920)
I0817 23:56:13.131462 15109 net.cpp:194] Memory required for data: 28958840
I0817 23:56:13.131470 15109 layer_factory.hpp:77] Creating layer Eltwise4
I0817 23:56:13.131477 15109 net.cpp:128] Creating Layer Eltwise4
I0817 23:56:13.131481 15109 net.cpp:558] Eltwise4 <- Convolution8
I0817 23:56:13.131486 15109 net.cpp:558] Eltwise4 <- Convolution10
I0817 23:56:13.131495 15109 net.cpp:522] Eltwise4 -> Eltwise4
I0817 23:56:13.131518 15109 net.cpp:172] Setting up Eltwise4
I0817 23:56:13.131525 15109 net.cpp:186] Top shape: 10 32 16 16 (81920)
I0817 23:56:13.131530 15109 net.cpp:194] Memory required for data: 29286520
I0817 23:56:13.131534 15109 layer_factory.hpp:77] Creating layer ReLU9
I0817 23:56:13.131558 15109 net.cpp:128] Creating Layer ReLU9
I0817 23:56:13.131563 15109 net.cpp:558] ReLU9 <- Eltwise4
I0817 23:56:13.131569 15109 net.cpp:509] ReLU9 -> Eltwise4 (in-place)
I0817 23:56:13.132884 15109 net.cpp:172] Setting up ReLU9
I0817 23:56:13.132910 15109 net.cpp:186] Top shape: 10 32 16 16 (81920)
I0817 23:56:13.132915 15109 net.cpp:194] Memory required for data: 29614200
I0817 23:56:13.132920 15109 layer_factory.hpp:77] Creating layer Eltwise4_ReLU9_0_split
I0817 23:56:13.132931 15109 net.cpp:128] Creating Layer Eltwise4_ReLU9_0_split
I0817 23:56:13.132936 15109 net.cpp:558] Eltwise4_ReLU9_0_split <- Eltwise4
I0817 23:56:13.132943 15109 net.cpp:522] Eltwise4_ReLU9_0_split -> Eltwise4_ReLU9_0_split_0
I0817 23:56:13.132956 15109 net.cpp:522] Eltwise4_ReLU9_0_split -> Eltwise4_ReLU9_0_split_1
I0817 23:56:13.133015 15109 net.cpp:172] Setting up Eltwise4_ReLU9_0_split
I0817 23:56:13.133023 15109 net.cpp:186] Top shape: 10 32 16 16 (81920)
I0817 23:56:13.133029 15109 net.cpp:186] Top shape: 10 32 16 16 (81920)
I0817 23:56:13.133033 15109 net.cpp:194] Memory required for data: 30269560
I0817 23:56:13.133038 15109 layer_factory.hpp:77] Creating layer Convolution11
I0817 23:56:13.133052 15109 net.cpp:128] Creating Layer Convolution11
I0817 23:56:13.133059 15109 net.cpp:558] Convolution11 <- Eltwise4_ReLU9_0_split_0
I0817 23:56:13.133066 15109 net.cpp:522] Convolution11 -> Convolution11
I0817 23:56:13.139940 15109 net.cpp:172] Setting up Convolution11
I0817 23:56:13.139966 15109 net.cpp:186] Top shape: 10 32 16 16 (81920)
I0817 23:56:13.139971 15109 net.cpp:194] Memory required for data: 30597240
I0817 23:56:13.139981 15109 layer_factory.hpp:77] Creating layer BatchNorm11
I0817 23:56:13.139991 15109 net.cpp:128] Creating Layer BatchNorm11
I0817 23:56:13.139997 15109 net.cpp:558] BatchNorm11 <- Convolution11
I0817 23:56:13.140002 15109 net.cpp:509] BatchNorm11 -> Convolution11 (in-place)
I0817 23:56:13.140287 15109 net.cpp:172] Setting up BatchNorm11
I0817 23:56:13.140300 15109 net.cpp:186] Top shape: 10 32 16 16 (81920)
I0817 23:56:13.140303 15109 net.cpp:194] Memory required for data: 30924920
I0817 23:56:13.140313 15109 layer_factory.hpp:77] Creating layer Scale11
I0817 23:56:13.140321 15109 net.cpp:128] Creating Layer Scale11
I0817 23:56:13.140324 15109 net.cpp:558] Scale11 <- Convolution11
I0817 23:56:13.140331 15109 net.cpp:509] Scale11 -> Convolution11 (in-place)
I0817 23:56:13.140384 15109 layer_factory.hpp:77] Creating layer Scale11
I0817 23:56:13.140547 15109 net.cpp:172] Setting up Scale11
I0817 23:56:13.140558 15109 net.cpp:186] Top shape: 10 32 16 16 (81920)
I0817 23:56:13.140561 15109 net.cpp:194] Memory required for data: 31252600
I0817 23:56:13.140569 15109 layer_factory.hpp:77] Creating layer ReLU10
I0817 23:56:13.140576 15109 net.cpp:128] Creating Layer ReLU10
I0817 23:56:13.140580 15109 net.cpp:558] ReLU10 <- Convolution11
I0817 23:56:13.140589 15109 net.cpp:509] ReLU10 -> Convolution11 (in-place)
I0817 23:56:13.141713 15109 net.cpp:172] Setting up ReLU10
I0817 23:56:13.141731 15109 net.cpp:186] Top shape: 10 32 16 16 (81920)
I0817 23:56:13.141736 15109 net.cpp:194] Memory required for data: 31580280
I0817 23:56:13.141739 15109 layer_factory.hpp:77] Creating layer Convolution12
I0817 23:56:13.141753 15109 net.cpp:128] Creating Layer Convolution12
I0817 23:56:13.141758 15109 net.cpp:558] Convolution12 <- Convolution11
I0817 23:56:13.141768 15109 net.cpp:522] Convolution12 -> Convolution12
I0817 23:56:13.148458 15109 net.cpp:172] Setting up Convolution12
I0817 23:56:13.148484 15109 net.cpp:186] Top shape: 10 32 16 16 (81920)
I0817 23:56:13.148489 15109 net.cpp:194] Memory required for data: 31907960
I0817 23:56:13.148499 15109 layer_factory.hpp:77] Creating layer BatchNorm12
I0817 23:56:13.148510 15109 net.cpp:128] Creating Layer BatchNorm12
I0817 23:56:13.148519 15109 net.cpp:558] BatchNorm12 <- Convolution12
I0817 23:56:13.148530 15109 net.cpp:509] BatchNorm12 -> Convolution12 (in-place)
I0817 23:56:13.148809 15109 net.cpp:172] Setting up BatchNorm12
I0817 23:56:13.148821 15109 net.cpp:186] Top shape: 10 32 16 16 (81920)
I0817 23:56:13.148855 15109 net.cpp:194] Memory required for data: 32235640
I0817 23:56:13.148867 15109 layer_factory.hpp:77] Creating layer Scale12
I0817 23:56:13.148877 15109 net.cpp:128] Creating Layer Scale12
I0817 23:56:13.148882 15109 net.cpp:558] Scale12 <- Convolution12
I0817 23:56:13.148887 15109 net.cpp:509] Scale12 -> Convolution12 (in-place)
I0817 23:56:13.148941 15109 layer_factory.hpp:77] Creating layer Scale12
I0817 23:56:13.149104 15109 net.cpp:172] Setting up Scale12
I0817 23:56:13.149116 15109 net.cpp:186] Top shape: 10 32 16 16 (81920)
I0817 23:56:13.149121 15109 net.cpp:194] Memory required for data: 32563320
I0817 23:56:13.149127 15109 layer_factory.hpp:77] Creating layer Eltwise5
I0817 23:56:13.149137 15109 net.cpp:128] Creating Layer Eltwise5
I0817 23:56:13.149142 15109 net.cpp:558] Eltwise5 <- Eltwise4_ReLU9_0_split_1
I0817 23:56:13.149147 15109 net.cpp:558] Eltwise5 <- Convolution12
I0817 23:56:13.149157 15109 net.cpp:522] Eltwise5 -> Eltwise5
I0817 23:56:13.149180 15109 net.cpp:172] Setting up Eltwise5
I0817 23:56:13.149188 15109 net.cpp:186] Top shape: 10 32 16 16 (81920)
I0817 23:56:13.149191 15109 net.cpp:194] Memory required for data: 32891000
I0817 23:56:13.149196 15109 layer_factory.hpp:77] Creating layer ReLU11
I0817 23:56:13.149202 15109 net.cpp:128] Creating Layer ReLU11
I0817 23:56:13.149207 15109 net.cpp:558] ReLU11 <- Eltwise5
I0817 23:56:13.149215 15109 net.cpp:509] ReLU11 -> Eltwise5 (in-place)
I0817 23:56:13.150522 15109 net.cpp:172] Setting up ReLU11
I0817 23:56:13.150539 15109 net.cpp:186] Top shape: 10 32 16 16 (81920)
I0817 23:56:13.150544 15109 net.cpp:194] Memory required for data: 33218680
I0817 23:56:13.150549 15109 layer_factory.hpp:77] Creating layer Eltwise5_ReLU11_0_split
I0817 23:56:13.150557 15109 net.cpp:128] Creating Layer Eltwise5_ReLU11_0_split
I0817 23:56:13.150562 15109 net.cpp:558] Eltwise5_ReLU11_0_split <- Eltwise5
I0817 23:56:13.150569 15109 net.cpp:522] Eltwise5_ReLU11_0_split -> Eltwise5_ReLU11_0_split_0
I0817 23:56:13.150583 15109 net.cpp:522] Eltwise5_ReLU11_0_split -> Eltwise5_ReLU11_0_split_1
I0817 23:56:13.150641 15109 net.cpp:172] Setting up Eltwise5_ReLU11_0_split
I0817 23:56:13.150650 15109 net.cpp:186] Top shape: 10 32 16 16 (81920)
I0817 23:56:13.150655 15109 net.cpp:186] Top shape: 10 32 16 16 (81920)
I0817 23:56:13.150660 15109 net.cpp:194] Memory required for data: 33874040
I0817 23:56:13.150665 15109 layer_factory.hpp:77] Creating layer Convolution13
I0817 23:56:13.150677 15109 net.cpp:128] Creating Layer Convolution13
I0817 23:56:13.150682 15109 net.cpp:558] Convolution13 <- Eltwise5_ReLU11_0_split_0
I0817 23:56:13.150692 15109 net.cpp:522] Convolution13 -> Convolution13
I0817 23:56:13.157315 15109 net.cpp:172] Setting up Convolution13
I0817 23:56:13.157341 15109 net.cpp:186] Top shape: 10 32 16 16 (81920)
I0817 23:56:13.157344 15109 net.cpp:194] Memory required for data: 34201720
I0817 23:56:13.157356 15109 layer_factory.hpp:77] Creating layer BatchNorm13
I0817 23:56:13.157364 15109 net.cpp:128] Creating Layer BatchNorm13
I0817 23:56:13.157369 15109 net.cpp:558] BatchNorm13 <- Convolution13
I0817 23:56:13.157378 15109 net.cpp:509] BatchNorm13 -> Convolution13 (in-place)
I0817 23:56:13.157663 15109 net.cpp:172] Setting up BatchNorm13
I0817 23:56:13.157675 15109 net.cpp:186] Top shape: 10 32 16 16 (81920)
I0817 23:56:13.157680 15109 net.cpp:194] Memory required for data: 34529400
I0817 23:56:13.157690 15109 layer_factory.hpp:77] Creating layer Scale13
I0817 23:56:13.157696 15109 net.cpp:128] Creating Layer Scale13
I0817 23:56:13.157701 15109 net.cpp:558] Scale13 <- Convolution13
I0817 23:56:13.157709 15109 net.cpp:509] Scale13 -> Convolution13 (in-place)
I0817 23:56:13.157759 15109 layer_factory.hpp:77] Creating layer Scale13
I0817 23:56:13.157927 15109 net.cpp:172] Setting up Scale13
I0817 23:56:13.157938 15109 net.cpp:186] Top shape: 10 32 16 16 (81920)
I0817 23:56:13.157943 15109 net.cpp:194] Memory required for data: 34857080
I0817 23:56:13.157950 15109 layer_factory.hpp:77] Creating layer ReLU12
I0817 23:56:13.157974 15109 net.cpp:128] Creating Layer ReLU12
I0817 23:56:13.157979 15109 net.cpp:558] ReLU12 <- Convolution13
I0817 23:56:13.157984 15109 net.cpp:509] ReLU12 -> Convolution13 (in-place)
I0817 23:56:13.159380 15109 net.cpp:172] Setting up ReLU12
I0817 23:56:13.159406 15109 net.cpp:186] Top shape: 10 32 16 16 (81920)
I0817 23:56:13.159411 15109 net.cpp:194] Memory required for data: 35184760
I0817 23:56:13.159416 15109 layer_factory.hpp:77] Creating layer Convolution14
I0817 23:56:13.159440 15109 net.cpp:128] Creating Layer Convolution14
I0817 23:56:13.159446 15109 net.cpp:558] Convolution14 <- Convolution13
I0817 23:56:13.159454 15109 net.cpp:522] Convolution14 -> Convolution14
I0817 23:56:13.166160 15109 net.cpp:172] Setting up Convolution14
I0817 23:56:13.166187 15109 net.cpp:186] Top shape: 10 32 16 16 (81920)
I0817 23:56:13.166191 15109 net.cpp:194] Memory required for data: 35512440
I0817 23:56:13.166201 15109 layer_factory.hpp:77] Creating layer BatchNorm14
I0817 23:56:13.166213 15109 net.cpp:128] Creating Layer BatchNorm14
I0817 23:56:13.166218 15109 net.cpp:558] BatchNorm14 <- Convolution14
I0817 23:56:13.166224 15109 net.cpp:509] BatchNorm14 -> Convolution14 (in-place)
I0817 23:56:13.166512 15109 net.cpp:172] Setting up BatchNorm14
I0817 23:56:13.166524 15109 net.cpp:186] Top shape: 10 32 16 16 (81920)
I0817 23:56:13.166529 15109 net.cpp:194] Memory required for data: 35840120
I0817 23:56:13.166539 15109 layer_factory.hpp:77] Creating layer Scale14
I0817 23:56:13.166546 15109 net.cpp:128] Creating Layer Scale14
I0817 23:56:13.166550 15109 net.cpp:558] Scale14 <- Convolution14
I0817 23:56:13.166558 15109 net.cpp:509] Scale14 -> Convolution14 (in-place)
I0817 23:56:13.166610 15109 layer_factory.hpp:77] Creating layer Scale14
I0817 23:56:13.166784 15109 net.cpp:172] Setting up Scale14
I0817 23:56:13.166795 15109 net.cpp:186] Top shape: 10 32 16 16 (81920)
I0817 23:56:13.166800 15109 net.cpp:194] Memory required for data: 36167800
I0817 23:56:13.166807 15109 layer_factory.hpp:77] Creating layer Eltwise6
I0817 23:56:13.166815 15109 net.cpp:128] Creating Layer Eltwise6
I0817 23:56:13.166821 15109 net.cpp:558] Eltwise6 <- Eltwise5_ReLU11_0_split_1
I0817 23:56:13.166826 15109 net.cpp:558] Eltwise6 <- Convolution14
I0817 23:56:13.166834 15109 net.cpp:522] Eltwise6 -> Eltwise6
I0817 23:56:13.166858 15109 net.cpp:172] Setting up Eltwise6
I0817 23:56:13.166865 15109 net.cpp:186] Top shape: 10 32 16 16 (81920)
I0817 23:56:13.166869 15109 net.cpp:194] Memory required for data: 36495480
I0817 23:56:13.166873 15109 layer_factory.hpp:77] Creating layer ReLU13
I0817 23:56:13.166883 15109 net.cpp:128] Creating Layer ReLU13
I0817 23:56:13.166888 15109 net.cpp:558] ReLU13 <- Eltwise6
I0817 23:56:13.166893 15109 net.cpp:509] ReLU13 -> Eltwise6 (in-place)
I0817 23:56:13.168224 15109 net.cpp:172] Setting up ReLU13
I0817 23:56:13.168244 15109 net.cpp:186] Top shape: 10 32 16 16 (81920)
I0817 23:56:13.168248 15109 net.cpp:194] Memory required for data: 36823160
I0817 23:56:13.168253 15109 layer_factory.hpp:77] Creating layer Eltwise6_ReLU13_0_split
I0817 23:56:13.168264 15109 net.cpp:128] Creating Layer Eltwise6_ReLU13_0_split
I0817 23:56:13.168270 15109 net.cpp:558] Eltwise6_ReLU13_0_split <- Eltwise6
I0817 23:56:13.168277 15109 net.cpp:522] Eltwise6_ReLU13_0_split -> Eltwise6_ReLU13_0_split_0
I0817 23:56:13.168284 15109 net.cpp:522] Eltwise6_ReLU13_0_split -> Eltwise6_ReLU13_0_split_1
I0817 23:56:13.168344 15109 net.cpp:172] Setting up Eltwise6_ReLU13_0_split
I0817 23:56:13.168351 15109 net.cpp:186] Top shape: 10 32 16 16 (81920)
I0817 23:56:13.168357 15109 net.cpp:186] Top shape: 10 32 16 16 (81920)
I0817 23:56:13.168360 15109 net.cpp:194] Memory required for data: 37478520
I0817 23:56:13.168365 15109 layer_factory.hpp:77] Creating layer Convolution15
I0817 23:56:13.168377 15109 net.cpp:128] Creating Layer Convolution15
I0817 23:56:13.168382 15109 net.cpp:558] Convolution15 <- Eltwise6_ReLU13_0_split_0
I0817 23:56:13.168395 15109 net.cpp:522] Convolution15 -> Convolution15
I0817 23:56:13.174998 15109 net.cpp:172] Setting up Convolution15
I0817 23:56:13.175038 15109 net.cpp:186] Top shape: 10 64 8 8 (40960)
I0817 23:56:13.175043 15109 net.cpp:194] Memory required for data: 37642360
I0817 23:56:13.175053 15109 layer_factory.hpp:77] Creating layer BatchNorm15
I0817 23:56:13.175065 15109 net.cpp:128] Creating Layer BatchNorm15
I0817 23:56:13.175071 15109 net.cpp:558] BatchNorm15 <- Convolution15
I0817 23:56:13.175083 15109 net.cpp:509] BatchNorm15 -> Convolution15 (in-place)
I0817 23:56:13.175375 15109 net.cpp:172] Setting up BatchNorm15
I0817 23:56:13.175387 15109 net.cpp:186] Top shape: 10 64 8 8 (40960)
I0817 23:56:13.175391 15109 net.cpp:194] Memory required for data: 37806200
I0817 23:56:13.175401 15109 layer_factory.hpp:77] Creating layer Scale15
I0817 23:56:13.175410 15109 net.cpp:128] Creating Layer Scale15
I0817 23:56:13.175415 15109 net.cpp:558] Scale15 <- Convolution15
I0817 23:56:13.175420 15109 net.cpp:509] Scale15 -> Convolution15 (in-place)
I0817 23:56:13.175472 15109 layer_factory.hpp:77] Creating layer Scale15
I0817 23:56:13.175644 15109 net.cpp:172] Setting up Scale15
I0817 23:56:13.175657 15109 net.cpp:186] Top shape: 10 64 8 8 (40960)
I0817 23:56:13.175660 15109 net.cpp:194] Memory required for data: 37970040
I0817 23:56:13.175668 15109 layer_factory.hpp:77] Creating layer Convolution16
I0817 23:56:13.175680 15109 net.cpp:128] Creating Layer Convolution16
I0817 23:56:13.175686 15109 net.cpp:558] Convolution16 <- Eltwise6_ReLU13_0_split_1
I0817 23:56:13.175695 15109 net.cpp:522] Convolution16 -> Convolution16
I0817 23:56:13.181622 15109 net.cpp:172] Setting up Convolution16
I0817 23:56:13.181648 15109 net.cpp:186] Top shape: 10 64 8 8 (40960)
I0817 23:56:13.181653 15109 net.cpp:194] Memory required for data: 38133880
I0817 23:56:13.181663 15109 layer_factory.hpp:77] Creating layer BatchNorm16
I0817 23:56:13.181672 15109 net.cpp:128] Creating Layer BatchNorm16
I0817 23:56:13.181677 15109 net.cpp:558] BatchNorm16 <- Convolution16
I0817 23:56:13.181690 15109 net.cpp:509] BatchNorm16 -> Convolution16 (in-place)
I0817 23:56:13.181984 15109 net.cpp:172] Setting up BatchNorm16
I0817 23:56:13.181996 15109 net.cpp:186] Top shape: 10 64 8 8 (40960)
I0817 23:56:13.182001 15109 net.cpp:194] Memory required for data: 38297720
I0817 23:56:13.182011 15109 layer_factory.hpp:77] Creating layer Scale16
I0817 23:56:13.182018 15109 net.cpp:128] Creating Layer Scale16
I0817 23:56:13.182023 15109 net.cpp:558] Scale16 <- Convolution16
I0817 23:56:13.182030 15109 net.cpp:509] Scale16 -> Convolution16 (in-place)
I0817 23:56:13.182080 15109 layer_factory.hpp:77] Creating layer Scale16
I0817 23:56:13.182248 15109 net.cpp:172] Setting up Scale16
I0817 23:56:13.182258 15109 net.cpp:186] Top shape: 10 64 8 8 (40960)
I0817 23:56:13.182262 15109 net.cpp:194] Memory required for data: 38461560
I0817 23:56:13.182271 15109 layer_factory.hpp:77] Creating layer ReLU14
I0817 23:56:13.182277 15109 net.cpp:128] Creating Layer ReLU14
I0817 23:56:13.182282 15109 net.cpp:558] ReLU14 <- Convolution16
I0817 23:56:13.182289 15109 net.cpp:509] ReLU14 -> Convolution16 (in-place)
I0817 23:56:13.183672 15109 net.cpp:172] Setting up ReLU14
I0817 23:56:13.183692 15109 net.cpp:186] Top shape: 10 64 8 8 (40960)
I0817 23:56:13.183696 15109 net.cpp:194] Memory required for data: 38625400
I0817 23:56:13.183701 15109 layer_factory.hpp:77] Creating layer Convolution17
I0817 23:56:13.183714 15109 net.cpp:128] Creating Layer Convolution17
I0817 23:56:13.183719 15109 net.cpp:558] Convolution17 <- Convolution16
I0817 23:56:13.183729 15109 net.cpp:522] Convolution17 -> Convolution17
I0817 23:56:13.190454 15109 net.cpp:172] Setting up Convolution17
I0817 23:56:13.190479 15109 net.cpp:186] Top shape: 10 64 8 8 (40960)
I0817 23:56:13.190484 15109 net.cpp:194] Memory required for data: 38789240
I0817 23:56:13.190493 15109 layer_factory.hpp:77] Creating layer BatchNorm17
I0817 23:56:13.190505 15109 net.cpp:128] Creating Layer BatchNorm17
I0817 23:56:13.190510 15109 net.cpp:558] BatchNorm17 <- Convolution17
I0817 23:56:13.190516 15109 net.cpp:509] BatchNorm17 -> Convolution17 (in-place)
I0817 23:56:13.190825 15109 net.cpp:172] Setting up BatchNorm17
I0817 23:56:13.190837 15109 net.cpp:186] Top shape: 10 64 8 8 (40960)
I0817 23:56:13.190841 15109 net.cpp:194] Memory required for data: 38953080
I0817 23:56:13.190851 15109 layer_factory.hpp:77] Creating layer Scale17
I0817 23:56:13.190861 15109 net.cpp:128] Creating Layer Scale17
I0817 23:56:13.190865 15109 net.cpp:558] Scale17 <- Convolution17
I0817 23:56:13.190871 15109 net.cpp:509] Scale17 -> Convolution17 (in-place)
I0817 23:56:13.190924 15109 layer_factory.hpp:77] Creating layer Scale17
I0817 23:56:13.191103 15109 net.cpp:172] Setting up Scale17
I0817 23:56:13.191114 15109 net.cpp:186] Top shape: 10 64 8 8 (40960)
I0817 23:56:13.191119 15109 net.cpp:194] Memory required for data: 39116920
I0817 23:56:13.191128 15109 layer_factory.hpp:77] Creating layer Eltwise7
I0817 23:56:13.191136 15109 net.cpp:128] Creating Layer Eltwise7
I0817 23:56:13.191141 15109 net.cpp:558] Eltwise7 <- Convolution15
I0817 23:56:13.191146 15109 net.cpp:558] Eltwise7 <- Convolution17
I0817 23:56:13.191155 15109 net.cpp:522] Eltwise7 -> Eltwise7
I0817 23:56:13.191184 15109 net.cpp:172] Setting up Eltwise7
I0817 23:56:13.191191 15109 net.cpp:186] Top shape: 10 64 8 8 (40960)
I0817 23:56:13.191195 15109 net.cpp:194] Memory required for data: 39280760
I0817 23:56:13.191200 15109 layer_factory.hpp:77] Creating layer ReLU15
I0817 23:56:13.191208 15109 net.cpp:128] Creating Layer ReLU15
I0817 23:56:13.191213 15109 net.cpp:558] ReLU15 <- Eltwise7
I0817 23:56:13.191218 15109 net.cpp:509] ReLU15 -> Eltwise7 (in-place)
I0817 23:56:13.192524 15109 net.cpp:172] Setting up ReLU15
I0817 23:56:13.192550 15109 net.cpp:186] Top shape: 10 64 8 8 (40960)
I0817 23:56:13.192554 15109 net.cpp:194] Memory required for data: 39444600
I0817 23:56:13.192559 15109 layer_factory.hpp:77] Creating layer Eltwise7_ReLU15_0_split
I0817 23:56:13.192571 15109 net.cpp:128] Creating Layer Eltwise7_ReLU15_0_split
I0817 23:56:13.192576 15109 net.cpp:558] Eltwise7_ReLU15_0_split <- Eltwise7
I0817 23:56:13.192584 15109 net.cpp:522] Eltwise7_ReLU15_0_split -> Eltwise7_ReLU15_0_split_0
I0817 23:56:13.192600 15109 net.cpp:522] Eltwise7_ReLU15_0_split -> Eltwise7_ReLU15_0_split_1
I0817 23:56:13.192657 15109 net.cpp:172] Setting up Eltwise7_ReLU15_0_split
I0817 23:56:13.192665 15109 net.cpp:186] Top shape: 10 64 8 8 (40960)
I0817 23:56:13.192670 15109 net.cpp:186] Top shape: 10 64 8 8 (40960)
I0817 23:56:13.192674 15109 net.cpp:194] Memory required for data: 39772280
I0817 23:56:13.192679 15109 layer_factory.hpp:77] Creating layer Convolution18
I0817 23:56:13.192695 15109 net.cpp:128] Creating Layer Convolution18
I0817 23:56:13.192700 15109 net.cpp:558] Convolution18 <- Eltwise7_ReLU15_0_split_0
I0817 23:56:13.192708 15109 net.cpp:522] Convolution18 -> Convolution18
I0817 23:56:13.199586 15109 net.cpp:172] Setting up Convolution18
I0817 23:56:13.199615 15109 net.cpp:186] Top shape: 10 64 8 8 (40960)
I0817 23:56:13.199620 15109 net.cpp:194] Memory required for data: 39936120
I0817 23:56:13.199631 15109 layer_factory.hpp:77] Creating layer BatchNorm18
I0817 23:56:13.199640 15109 net.cpp:128] Creating Layer BatchNorm18
I0817 23:56:13.199645 15109 net.cpp:558] BatchNorm18 <- Convolution18
I0817 23:56:13.199658 15109 net.cpp:509] BatchNorm18 -> Convolution18 (in-place)
I0817 23:56:13.199962 15109 net.cpp:172] Setting up BatchNorm18
I0817 23:56:13.199975 15109 net.cpp:186] Top shape: 10 64 8 8 (40960)
I0817 23:56:13.199980 15109 net.cpp:194] Memory required for data: 40099960
I0817 23:56:13.199990 15109 layer_factory.hpp:77] Creating layer Scale18
I0817 23:56:13.199996 15109 net.cpp:128] Creating Layer Scale18
I0817 23:56:13.200001 15109 net.cpp:558] Scale18 <- Convolution18
I0817 23:56:13.200008 15109 net.cpp:509] Scale18 -> Convolution18 (in-place)
I0817 23:56:13.200059 15109 layer_factory.hpp:77] Creating layer Scale18
I0817 23:56:13.200224 15109 net.cpp:172] Setting up Scale18
I0817 23:56:13.200235 15109 net.cpp:186] Top shape: 10 64 8 8 (40960)
I0817 23:56:13.200239 15109 net.cpp:194] Memory required for data: 40263800
I0817 23:56:13.200264 15109 layer_factory.hpp:77] Creating layer ReLU16
I0817 23:56:13.200274 15109 net.cpp:128] Creating Layer ReLU16
I0817 23:56:13.200279 15109 net.cpp:558] ReLU16 <- Convolution18
I0817 23:56:13.200284 15109 net.cpp:509] ReLU16 -> Convolution18 (in-place)
I0817 23:56:13.201362 15109 net.cpp:172] Setting up ReLU16
I0817 23:56:13.201380 15109 net.cpp:186] Top shape: 10 64 8 8 (40960)
I0817 23:56:13.201385 15109 net.cpp:194] Memory required for data: 40427640
I0817 23:56:13.201390 15109 layer_factory.hpp:77] Creating layer Convolution19
I0817 23:56:13.201407 15109 net.cpp:128] Creating Layer Convolution19
I0817 23:56:13.201412 15109 net.cpp:558] Convolution19 <- Convolution18
I0817 23:56:13.201419 15109 net.cpp:522] Convolution19 -> Convolution19
I0817 23:56:13.208137 15109 net.cpp:172] Setting up Convolution19
I0817 23:56:13.208163 15109 net.cpp:186] Top shape: 10 64 8 8 (40960)
I0817 23:56:13.208168 15109 net.cpp:194] Memory required for data: 40591480
I0817 23:56:13.208178 15109 layer_factory.hpp:77] Creating layer BatchNorm19
I0817 23:56:13.208189 15109 net.cpp:128] Creating Layer BatchNorm19
I0817 23:56:13.208194 15109 net.cpp:558] BatchNorm19 <- Convolution19
I0817 23:56:13.208207 15109 net.cpp:509] BatchNorm19 -> Convolution19 (in-place)
I0817 23:56:13.208498 15109 net.cpp:172] Setting up BatchNorm19
I0817 23:56:13.208511 15109 net.cpp:186] Top shape: 10 64 8 8 (40960)
I0817 23:56:13.208515 15109 net.cpp:194] Memory required for data: 40755320
I0817 23:56:13.208541 15109 layer_factory.hpp:77] Creating layer Scale19
I0817 23:56:13.208549 15109 net.cpp:128] Creating Layer Scale19
I0817 23:56:13.208554 15109 net.cpp:558] Scale19 <- Convolution19
I0817 23:56:13.208561 15109 net.cpp:509] Scale19 -> Convolution19 (in-place)
I0817 23:56:13.208614 15109 layer_factory.hpp:77] Creating layer Scale19
I0817 23:56:13.208781 15109 net.cpp:172] Setting up Scale19
I0817 23:56:13.208791 15109 net.cpp:186] Top shape: 10 64 8 8 (40960)
I0817 23:56:13.208796 15109 net.cpp:194] Memory required for data: 40919160
I0817 23:56:13.208804 15109 layer_factory.hpp:77] Creating layer Eltwise8
I0817 23:56:13.208811 15109 net.cpp:128] Creating Layer Eltwise8
I0817 23:56:13.208817 15109 net.cpp:558] Eltwise8 <- Eltwise7_ReLU15_0_split_1
I0817 23:56:13.208822 15109 net.cpp:558] Eltwise8 <- Convolution19
I0817 23:56:13.208829 15109 net.cpp:522] Eltwise8 -> Eltwise8
I0817 23:56:13.208861 15109 net.cpp:172] Setting up Eltwise8
I0817 23:56:13.208868 15109 net.cpp:186] Top shape: 10 64 8 8 (40960)
I0817 23:56:13.208873 15109 net.cpp:194] Memory required for data: 41083000
I0817 23:56:13.208876 15109 layer_factory.hpp:77] Creating layer ReLU17
I0817 23:56:13.208883 15109 net.cpp:128] Creating Layer ReLU17
I0817 23:56:13.208887 15109 net.cpp:558] ReLU17 <- Eltwise8
I0817 23:56:13.208892 15109 net.cpp:509] ReLU17 -> Eltwise8 (in-place)
I0817 23:56:13.210163 15109 net.cpp:172] Setting up ReLU17
I0817 23:56:13.210182 15109 net.cpp:186] Top shape: 10 64 8 8 (40960)
I0817 23:56:13.210186 15109 net.cpp:194] Memory required for data: 41246840
I0817 23:56:13.210191 15109 layer_factory.hpp:77] Creating layer Eltwise8_ReLU17_0_split
I0817 23:56:13.210197 15109 net.cpp:128] Creating Layer Eltwise8_ReLU17_0_split
I0817 23:56:13.210202 15109 net.cpp:558] Eltwise8_ReLU17_0_split <- Eltwise8
I0817 23:56:13.210211 15109 net.cpp:522] Eltwise8_ReLU17_0_split -> Eltwise8_ReLU17_0_split_0
I0817 23:56:13.210219 15109 net.cpp:522] Eltwise8_ReLU17_0_split -> Eltwise8_ReLU17_0_split_1
I0817 23:56:13.210274 15109 net.cpp:172] Setting up Eltwise8_ReLU17_0_split
I0817 23:56:13.210283 15109 net.cpp:186] Top shape: 10 64 8 8 (40960)
I0817 23:56:13.210289 15109 net.cpp:186] Top shape: 10 64 8 8 (40960)
I0817 23:56:13.210292 15109 net.cpp:194] Memory required for data: 41574520
I0817 23:56:13.210296 15109 layer_factory.hpp:77] Creating layer Convolution20
I0817 23:56:13.210310 15109 net.cpp:128] Creating Layer Convolution20
I0817 23:56:13.210315 15109 net.cpp:558] Convolution20 <- Eltwise8_ReLU17_0_split_0
I0817 23:56:13.210325 15109 net.cpp:522] Convolution20 -> Convolution20
I0817 23:56:13.215669 15109 net.cpp:172] Setting up Convolution20
I0817 23:56:13.215695 15109 net.cpp:186] Top shape: 10 64 8 8 (40960)
I0817 23:56:13.215700 15109 net.cpp:194] Memory required for data: 41738360
I0817 23:56:13.215711 15109 layer_factory.hpp:77] Creating layer BatchNorm20
I0817 23:56:13.215719 15109 net.cpp:128] Creating Layer BatchNorm20
I0817 23:56:13.215724 15109 net.cpp:558] BatchNorm20 <- Convolution20
I0817 23:56:13.215734 15109 net.cpp:509] BatchNorm20 -> Convolution20 (in-place)
I0817 23:56:13.216045 15109 net.cpp:172] Setting up BatchNorm20
I0817 23:56:13.216058 15109 net.cpp:186] Top shape: 10 64 8 8 (40960)
I0817 23:56:13.216063 15109 net.cpp:194] Memory required for data: 41902200
I0817 23:56:13.216073 15109 layer_factory.hpp:77] Creating layer Scale20
I0817 23:56:13.216082 15109 net.cpp:128] Creating Layer Scale20
I0817 23:56:13.216086 15109 net.cpp:558] Scale20 <- Convolution20
I0817 23:56:13.216092 15109 net.cpp:509] Scale20 -> Convolution20 (in-place)
I0817 23:56:13.216145 15109 layer_factory.hpp:77] Creating layer Scale20
I0817 23:56:13.216318 15109 net.cpp:172] Setting up Scale20
I0817 23:56:13.216329 15109 net.cpp:186] Top shape: 10 64 8 8 (40960)
I0817 23:56:13.216333 15109 net.cpp:194] Memory required for data: 42066040
I0817 23:56:13.216341 15109 layer_factory.hpp:77] Creating layer ReLU18
I0817 23:56:13.216351 15109 net.cpp:128] Creating Layer ReLU18
I0817 23:56:13.216354 15109 net.cpp:558] ReLU18 <- Convolution20
I0817 23:56:13.216361 15109 net.cpp:509] ReLU18 -> Convolution20 (in-place)
I0817 23:56:13.216609 15109 net.cpp:172] Setting up ReLU18
I0817 23:56:13.216624 15109 net.cpp:186] Top shape: 10 64 8 8 (40960)
I0817 23:56:13.216629 15109 net.cpp:194] Memory required for data: 42229880
I0817 23:56:13.216632 15109 layer_factory.hpp:77] Creating layer Convolution21
I0817 23:56:13.216646 15109 net.cpp:128] Creating Layer Convolution21
I0817 23:56:13.216652 15109 net.cpp:558] Convolution21 <- Convolution20
I0817 23:56:13.216660 15109 net.cpp:522] Convolution21 -> Convolution21
I0817 23:56:13.223515 15109 net.cpp:172] Setting up Convolution21
I0817 23:56:13.223567 15109 net.cpp:186] Top shape: 10 64 8 8 (40960)
I0817 23:56:13.223572 15109 net.cpp:194] Memory required for data: 42393720
I0817 23:56:13.223594 15109 layer_factory.hpp:77] Creating layer BatchNorm21
I0817 23:56:13.223610 15109 net.cpp:128] Creating Layer BatchNorm21
I0817 23:56:13.223618 15109 net.cpp:558] BatchNorm21 <- Convolution21
I0817 23:56:13.223634 15109 net.cpp:509] BatchNorm21 -> Convolution21 (in-place)
I0817 23:56:13.223942 15109 net.cpp:172] Setting up BatchNorm21
I0817 23:56:13.223953 15109 net.cpp:186] Top shape: 10 64 8 8 (40960)
I0817 23:56:13.223958 15109 net.cpp:194] Memory required for data: 42557560
I0817 23:56:13.223969 15109 layer_factory.hpp:77] Creating layer Scale21
I0817 23:56:13.223983 15109 net.cpp:128] Creating Layer Scale21
I0817 23:56:13.223986 15109 net.cpp:558] Scale21 <- Convolution21
I0817 23:56:13.223992 15109 net.cpp:509] Scale21 -> Convolution21 (in-place)
I0817 23:56:13.224063 15109 layer_factory.hpp:77] Creating layer Scale21
I0817 23:56:13.224246 15109 net.cpp:172] Setting up Scale21
I0817 23:56:13.224258 15109 net.cpp:186] Top shape: 10 64 8 8 (40960)
I0817 23:56:13.224262 15109 net.cpp:194] Memory required for data: 42721400
I0817 23:56:13.224270 15109 layer_factory.hpp:77] Creating layer Eltwise9
I0817 23:56:13.224282 15109 net.cpp:128] Creating Layer Eltwise9
I0817 23:56:13.224289 15109 net.cpp:558] Eltwise9 <- Eltwise8_ReLU17_0_split_1
I0817 23:56:13.224295 15109 net.cpp:558] Eltwise9 <- Convolution21
I0817 23:56:13.224305 15109 net.cpp:522] Eltwise9 -> Eltwise9
I0817 23:56:13.224336 15109 net.cpp:172] Setting up Eltwise9
I0817 23:56:13.224344 15109 net.cpp:186] Top shape: 10 64 8 8 (40960)
I0817 23:56:13.224347 15109 net.cpp:194] Memory required for data: 42885240
I0817 23:56:13.224352 15109 layer_factory.hpp:77] Creating layer ReLU19
I0817 23:56:13.224364 15109 net.cpp:128] Creating Layer ReLU19
I0817 23:56:13.224369 15109 net.cpp:558] ReLU19 <- Eltwise9
I0817 23:56:13.224426 15109 net.cpp:509] ReLU19 -> Eltwise9 (in-place)
I0817 23:56:13.225878 15109 net.cpp:172] Setting up ReLU19
I0817 23:56:13.225905 15109 net.cpp:186] Top shape: 10 64 8 8 (40960)
I0817 23:56:13.225909 15109 net.cpp:194] Memory required for data: 43049080
I0817 23:56:13.225919 15109 layer_factory.hpp:77] Creating layer Pooling1
I0817 23:56:13.225931 15109 net.cpp:128] Creating Layer Pooling1
I0817 23:56:13.225936 15109 net.cpp:558] Pooling1 <- Eltwise9
I0817 23:56:13.225944 15109 net.cpp:522] Pooling1 -> Pooling1
I0817 23:56:13.227784 15109 net.cpp:172] Setting up Pooling1
I0817 23:56:13.227803 15109 net.cpp:186] Top shape: 10 64 1 1 (640)
I0817 23:56:13.227807 15109 net.cpp:194] Memory required for data: 43051640
I0817 23:56:13.227813 15109 layer_factory.hpp:77] Creating layer InnerProduct1
I0817 23:56:13.227824 15109 net.cpp:128] Creating Layer InnerProduct1
I0817 23:56:13.227830 15109 net.cpp:558] InnerProduct1 <- Pooling1
I0817 23:56:13.227839 15109 net.cpp:522] InnerProduct1 -> InnerProduct1
I0817 23:56:13.228029 15109 net.cpp:172] Setting up InnerProduct1
I0817 23:56:13.228046 15109 net.cpp:186] Top shape: 10 10 (100)
I0817 23:56:13.228050 15109 net.cpp:194] Memory required for data: 43052040
I0817 23:56:13.228060 15109 layer_factory.hpp:77] Creating layer InnerProduct1_InnerProduct1_0_split
I0817 23:56:13.228068 15109 net.cpp:128] Creating Layer InnerProduct1_InnerProduct1_0_split
I0817 23:56:13.228073 15109 net.cpp:558] InnerProduct1_InnerProduct1_0_split <- InnerProduct1
I0817 23:56:13.228087 15109 net.cpp:522] InnerProduct1_InnerProduct1_0_split -> InnerProduct1_InnerProduct1_0_split_0
I0817 23:56:13.228099 15109 net.cpp:522] InnerProduct1_InnerProduct1_0_split -> InnerProduct1_InnerProduct1_0_split_1
I0817 23:56:13.228153 15109 net.cpp:172] Setting up InnerProduct1_InnerProduct1_0_split
I0817 23:56:13.228163 15109 net.cpp:186] Top shape: 10 10 (100)
I0817 23:56:13.228168 15109 net.cpp:186] Top shape: 10 10 (100)
I0817 23:56:13.228174 15109 net.cpp:194] Memory required for data: 43052840
I0817 23:56:13.228179 15109 layer_factory.hpp:77] Creating layer SoftmaxWithLoss1
I0817 23:56:13.228193 15109 net.cpp:128] Creating Layer SoftmaxWithLoss1
I0817 23:56:13.228200 15109 net.cpp:558] SoftmaxWithLoss1 <- InnerProduct1_InnerProduct1_0_split_0
I0817 23:56:13.228206 15109 net.cpp:558] SoftmaxWithLoss1 <- Data2_Data1_1_split_0
…
