…
I0929 10:16:45.216188 22954 upgrade_proto.cpp:82] Successfully upgraded batch norm layers using deprecated params.
I0929 10:16:45.217165 22954 net.cpp:82] Initializing net from parameters: 
name: "ResNet-20"
state {
  phase: TRAIN
  level: 0
  stage: ""
}
layer {
  name: "Data1"
  type: "Data"
  top: "data"
  top: "label"
  transform_param {
    scale: 0.00390625
    mirror: true
    crop_size: 32
    mean_value: 125.3
    mean_value: 122.9
    mean_value: 113.8
  }
  data_param {
    source: "/home/lijianfei/datasets/cifar10_40/train_lmdb"
    batch_size: 128
    backend: LMDB
  }
  image_data_param {
    shuffle: true
  }
}
layer {
  name: "conv1"
  type: "Convolution"
  bottom: "data"
  top: "conv1"
  param {
    lr_mult: 1
    decay_mult: 1
  }
  param {
    lr_mult: 2
    decay_mult: 0
  }
  convolution_param {
    num_output: 16
    bias_term: true
    pad: 1
    kernel_size: 3
    stride: 1
    weight_filler {
      type: "msra"
    }
    bias_filler {
      type: "constant"
      value: 0
    }
  }
}
layer {
  name: "conv1/bn"
  type: "BatchNorm"
  bottom: "conv1"
  top: "conv1"
  param {
    lr_mult: 0
    decay_mult: 0
  }
  param {
    lr_mult: 0
    decay_mult: 0
  }
  param {
    lr_mult: 0
    decay_mult: 0
  }
  batch_norm_param {
    use_global_stats: false
  }
}
layer {
  name: "conv1/scale"
  type: "Scale"
  bottom: "conv1"
  top: "conv1"
  scale_param {
    bias_term: true
  }
}
layer {
  name: "conv1/ReLU"
  type: "ReLU"
  bottom: "conv1"
  top: "conv1"
}
layer {
  name: "conv2_1_0"
  type: "Convolution"
  bottom: "conv1"
  top: "conv2_1_0"
  param {
    lr_mult: 1
    decay_mult: 1
  }
  param {
    lr_mult: 2
    decay_mult: 0
  }
  convolution_param {
    num_output: 16
    bias_term: true
    pad: 1
    kernel_size: 3
    stride: 1
    weight_filler {
      type: "msra"
    }
    bias_filler {
      type: "constant"
      value: 0
    }
  }
}
layer {
  name: "conv2_1_bn0"
  type: "BatchNorm"
  bottom: "conv2_1_0"
  top: "conv2_1_0"
  param {
    lr_mult: 0
    decay_mult: 0
  }
  param {
    lr_mult: 0
    decay_mult: 0
  }
  param {
    lr_mult: 0
    decay_mult: 0
  }
  batch_norm_param {
    use_global_stats: false
  }
}
layer {
  name: "conv2_1_scale0"
  type: "Scale"
  bottom: "conv2_1_0"
  top: "conv2_1_0"
  scale_param {
    bias_term: true
  }
}
layer {
  name: "conv2_1_ReLU0"
  type: "ReLU"
  bottom: "conv2_1_0"
  top: "conv2_1_0"
}
layer {
  name: "conv2_1_1"
  type: "Convolution"
  bottom: "conv2_1_0"
  top: "conv2_1_1"
  param {
    lr_mult: 1
    decay_mult: 1
  }
  param {
    lr_mult: 2
    decay_mult: 0
  }
  convolution_param {
    num_output: 16
    bias_term: true
    pad: 1
    kernel_size: 3
    stride: 1
    weight_filler {
      type: "msra"
    }
    bias_filler {
      type: "constant"
      value: 0
    }
  }
}
layer {
  name: "conv2_1bn1"
  type: "BatchNorm"
  bottom: "conv2_1_1"
  top: "conv2_1_1"
  param {
    lr_mult: 0
    decay_mult: 0
  }
  param {
    lr_mult: 0
    decay_mult: 0
  }
  param {
    lr_mult: 0
    decay_mult: 0
  }
  batch_norm_param {
    use_global_stats: false
  }
}
layer {
  name: "conv2_1_scale1"
  type: "Scale"
  bottom: "conv2_1_1"
  top: "conv2_1_1"
  scale_param {
    bias_term: true
  }
}
layer {
  name: "conv2_Eltwise_1"
  type: "Eltwise"
  bottom: "conv1"
  bottom: "conv2_1_1"
  top: "conv2_Eltwise_1"
  eltwise_param {
    operation: SUM
  }
}
layer {
  name: "conv2_1ReLU_1"
  type: "ReLU"
  bottom: "conv2_Eltwise_1"
  top: "conv2_Eltwise_1"
}
layer {
  name: "conv2_2_0"
  type: "Convolution"
  bottom: "conv2_Eltwise_1"
  top: "conv2_2_0"
  param {
    lr_mult: 1
    decay_mult: 1
  }
  param {
    lr_mult: 2
    decay_mult: 0
  }
  convolution_param {
    num_output: 16
    bias_term: true
    pad: 1
    kernel_size: 3
    stride: 1
    weight_filler {
      type: "msra"
    }
    bias_filler {
      type: "constant"
      value: 0
    }
  }
}
layer {
  name: "conv2_2_bn0"
  type: "BatchNorm"
  bottom: "conv2_2_0"
  top: "conv2_2_0"
  param {
    lr_mult: 0
    decay_mult: 0
  }
  param {
    lr_mult: 0
    decay_mult: 0
  }
  param {
    lr_mult: 0
    decay_mult: 0
  }
  batch_norm_param {
    use_global_stats: false
  }
}
layer {
  name: "conv2_2_scale0"
  type: "Scale"
  bottom: "conv2_2_0"
  top: "conv2_2_0"
  scale_param {
    bias_term: true
  }
}
layer {
  name: "conv2_2_ReLU0"
  type: "ReLU"
  bottom: "conv2_2_0"
  top: "conv2_2_0"
}
layer {
  name: "conv2_2_1"
  type: "Convolution"
  bottom: "conv2_2_0"
  top: "conv2_2_1"
  param {
    lr_mult: 1
    decay_mult: 1
  }
  param {
    lr_mult: 2
    decay_mult: 0
  }
  convolution_param {
    num_output: 16
    bias_term: true
    pad: 1
    kernel_size: 3
    stride: 1
    weight_filler {
      type: "msra"
    }
    bias_filler {
      type: "constant"
      value: 0
    }
  }
}
layer {
  name: "conv2_2bn1"
  type: "BatchNorm"
  bottom: "conv2_2_1"
  top: "conv2_2_1"
  param {
    lr_mult: 0
    decay_mult: 0
  }
  param {
    lr_mult: 0
    decay_mult: 0
  }
  param {
    lr_mult: 0
    decay_mult: 0
  }
  batch_norm_param {
    use_global_stats: false
  }
}
layer {
  name: "conv2_2_scale1"
  type: "Scale"
  bottom: "conv2_2_1"
  top: "conv2_2_1"
  scale_param {
    bias_term: true
  }
}
layer {
  name: "conv2_Eltwise_2"
  type: "Eltwise"
  bottom: "conv2_Eltwise_1"
  bottom: "conv2_2_1"
  top: "conv2_Eltwise_2"
  eltwise_param {
    operation: SUM
  }
}
layer {
  name: "conv2_2ReLU_1"
  type: "ReLU"
  bottom: "conv2_Eltwise_2"
  top: "conv2_Eltwise_2"
}
layer {
  name: "conv2_3_0"
  type: "Convolution"
  bottom: "conv2_Eltwise_2"
  top: "conv2_3_0"
  param {
    lr_mult: 1
    decay_mult: 1
  }
  param {
    lr_mult: 2
    decay_mult: 0
  }
  convolution_param {
    num_output: 16
    bias_term: true
    pad: 1
    kernel_size: 3
    stride: 1
    weight_filler {
      type: "msra"
    }
    bias_filler {
      type: "constant"
      value: 0
    }
  }
}
layer {
  name: "conv2_3_bn0"
  type: "BatchNorm"
  bottom: "conv2_3_0"
  top: "conv2_3_0"
  param {
    lr_mult: 0
    decay_mult: 0
  }
  param {
    lr_mult: 0
    decay_mult: 0
  }
  param {
    lr_mult: 0
    decay_mult: 0
  }
  batch_norm_param {
    use_global_stats: false
  }
}
layer {
  name: "conv2_3_scale0"
  type: "Scale"
  bottom: "conv2_3_0"
  top: "conv2_3_0"
  scale_param {
    bias_term: true
  }
}
layer {
  name: "conv2_3_ReLU0"
  type: "ReLU"
  bottom: "conv2_3_0"
  top: "conv2_3_0"
}
layer {
  name: "conv2_3_1"
  type: "Convolution"
  bottom: "conv2_3_0"
  top: "conv2_3_1"
  param {
    lr_mult: 1
    decay_mult: 1
  }
  param {
    lr_mult: 2
    decay_mult: 0
  }
  convolution_param {
    num_output: 16
    bias_term: true
    pad: 1
    kernel_size: 3
    stride: 1
    weight_filler {
      type: "msra"
    }
    bias_filler {
      type: "constant"
      value: 0
    }
  }
}
layer {
  name: "conv2_3bn1"
  type: "BatchNorm"
  bottom: "conv2_3_1"
  top: "conv2_3_1"
  param {
    lr_mult: 0
    decay_mult: 0
  }
  param {
    lr_mult: 0
    decay_mult: 0
  }
  param {
    lr_mult: 0
    decay_mult: 0
  }
  batch_norm_param {
    use_global_stats: false
  }
}
layer {
  name: "conv2_3_scale1"
  type: "Scale"
  bottom: "conv2_3_1"
  top: "conv2_3_1"
  scale_param {
    bias_term: true
  }
}
layer {
  name: "conv2_Eltwise_3"
  type: "Eltwise"
  bottom: "conv2_Eltwise_2"
  bottom: "conv2_3_1"
  top: "conv2_Eltwise_3"
  eltwise_param {
    operation: SUM
  }
}
layer {
  name: "conv2_3ReLU_1"
  type: "ReLU"
  bottom: "conv2_Eltwise_3"
  top: "conv2_Eltwise_3"
}
layer {
  name: "conv3_1_0"
  type: "Convolution"
  bottom: "conv2_Eltwise_3"
  top: "conv3_1_0"
  param {
    lr_mult: 1
    decay_mult: 1
  }
  param {
    lr_mult: 2
    decay_mult: 0
  }
  convolution_param {
    num_output: 32
    bias_term: true
    pad: 1
    kernel_size: 3
    stride: 2
    weight_filler {
      type: "msra"
    }
    bias_filler {
      type: "constant"
      value: 0
    }
  }
}
layer {
  name: "conv3_1_bn0"
  type: "BatchNorm"
  bottom: "conv3_1_0"
  top: "conv3_1_0"
  param {
    lr_mult: 0
    decay_mult: 0
  }
  param {
    lr_mult: 0
    decay_mult: 0
  }
  param {
    lr_mult: 0
    decay_mult: 0
  }
  batch_norm_param {
    use_global_stats: false
  }
}
layer {
  name: "conv3_1_scale0"
  type: "Scale"
  bottom: "conv3_1_0"
  top: "conv3_1_0"
  scale_param {
    bias_term: true
  }
}
layer {
  name: "conv3_1_ReLU0"
  type: "ReLU"
  bottom: "conv3_1_0"
  top: "conv3_1_0"
}
layer {
  name: "conv3_1_1"
  type: "Convolution"
  bottom: "conv3_1_0"
  top: "conv3_1_1"
  param {
    lr_mult: 1
    decay_mult: 1
  }
  param {
    lr_mult: 2
    decay_mult: 0
  }
  convolution_param {
    num_output: 32
    bias_term: true
    pad: 1
    kernel_size: 3
    stride: 1
    weight_filler {
      type: "msra"
    }
    bias_filler {
      type: "constant"
      value: 0
    }
  }
}
layer {
  name: "conv3_1bn1"
  type: "BatchNorm"
  bottom: "conv3_1_1"
  top: "conv3_1_1"
  param {
    lr_mult: 0
    decay_mult: 0
  }
  param {
    lr_mult: 0
    decay_mult: 0
  }
  param {
    lr_mult: 0
    decay_mult: 0
  }
  batch_norm_param {
    use_global_stats: false
  }
}
layer {
  name: "conv3_1_scale1"
  type: "Scale"
  bottom: "conv3_1_1"
  top: "conv3_1_1"
  scale_param {
    bias_term: true
  }
}
layer {
  name: "conv3_1_down"
  type: "Convolution"
  bottom: "conv2_Eltwise_3"
  top: "conv3_1_down"
  param {
    lr_mult: 1
    decay_mult: 1
  }
  param {
    lr_mult: 2
    decay_mult: 0
  }
  convolution_param {
    num_output: 32
    bias_term: true
    pad: 0
    kernel_size: 1
    stride: 2
    weight_filler {
      type: "msra"
    }
    bias_filler {
      type: "constant"
      value: 0
    }
  }
}
layer {
  name: "conv3_1_bn_down"
  type: "BatchNorm"
  bottom: "conv3_1_down"
  top: "conv3_1_down"
  param {
    lr_mult: 0
    decay_mult: 0
  }
  param {
    lr_mult: 0
    decay_mult: 0
  }
  param {
    lr_mult: 0
    decay_mult: 0
  }
  batch_norm_param {
    use_global_stats: false
  }
}
layer {
  name: "conv3_1_scale_down"
  type: "Scale"
  bottom: "conv3_1_down"
  top: "conv3_1_down"
  scale_param {
    bias_term: true
  }
}
layer {
  name: "conv3_Eltwise_1"
  type: "Eltwise"
  bottom: "conv3_1_1"
  bottom: "conv3_1_down"
  top: "conv3_Eltwise_1"
  eltwise_param {
    operation: SUM
  }
}
layer {
  name: "conv3_1ReLU_1"
  type: "ReLU"
  bottom: "conv3_Eltwise_1"
  top: "conv3_Eltwise_1"
}
layer {
  name: "conv3_2_0"
  type: "Convolution"
  bottom: "conv3_Eltwise_1"
  top: "conv3_2_0"
  param {
    lr_mult: 1
    decay_mult: 1
  }
  param {
    lr_mult: 2
    decay_mult: 0
  }
  convolution_param {
    num_output: 32
    bias_term: true
    pad: 1
    kernel_size: 3
    stride: 1
    weight_filler {
      type: "msra"
    }
    bias_filler {
      type: "constant"
      value: 0
    }
  }
}
layer {
  name: "conv3_2_bn0"
  type: "BatchNorm"
  bottom: "conv3_2_0"
  top: "conv3_2_0"
  param {
    lr_mult: 0
    decay_mult: 0
  }
  param {
    lr_mult: 0
    decay_mult: 0
  }
  param {
    lr_mult: 0
    decay_mult: 0
  }
  batch_norm_param {
    use_global_stats: false
  }
}
layer {
  name: "conv3_2_scale0"
  type: "Scale"
  bottom: "conv3_2_0"
  top: "conv3_2_0"
  scale_param {
    bias_term: true
  }
}
layer {
  name: "conv3_2_ReLU0"
  type: "ReLU"
  bottom: "conv3_2_0"
  top: "conv3_2_0"
}
layer {
  name: "conv3_2_1"
  type: "Convolution"
  bottom: "conv3_2_0"
  top: "conv3_2_1"
  param {
    lr_mult: 1
    decay_mult: 1
  }
  param {
    lr_mult: 2
    decay_mult: 0
  }
  convolution_param {
    num_output: 32
    bias_term: true
    pad: 1
    kernel_size: 3
    stride: 1
    weight_filler {
      type: "msra"
    }
    bias_filler {
      type: "constant"
      value: 0
    }
  }
}
layer {
  name: "conv3_2bn1"
  type: "BatchNorm"
  bottom: "conv3_2_1"
  top: "conv3_2_1"
  param {
    lr_mult: 0
    decay_mult: 0
  }
  param {
    lr_mult: 0
    decay_mult: 0
  }
  param {
    lr_mult: 0
    decay_mult: 0
  }
  batch_norm_param {
    use_global_stats: false
  }
}
layer {
  name: "conv3_2_scale1"
  type: "Scale"
  bottom: "conv3_2_1"
  top: "conv3_2_1"
  scale_param {
    bias_term: true
  }
}
layer {
  name: "conv3_Eltwise_2"
  type: "Eltwise"
  bottom: "conv3_Eltwise_1"
  bottom: "conv3_2_1"
  top: "conv3_Eltwise_2"
  eltwise_param {
    operation: SUM
  }
}
layer {
  name: "conv3_2ReLU_1"
  type: "ReLU"
  bottom: "conv3_Eltwise_2"
  top: "conv3_Eltwise_2"
}
layer {
  name: "conv3_3_0"
  type: "Convolution"
  bottom: "conv3_Eltwise_2"
  top: "conv3_3_0"
  param {
    lr_mult: 1
    decay_mult: 1
  }
  param {
    lr_mult: 2
    decay_mult: 0
  }
  convolution_param {
    num_output: 32
    bias_term: true
    pad: 1
    kernel_size: 3
    stride: 1
    weight_filler {
      type: "msra"
    }
    bias_filler {
      type: "constant"
      value: 0
    }
  }
}
layer {
  name: "conv3_3_bn0"
  type: "BatchNorm"
  bottom: "conv3_3_0"
  top: "conv3_3_0"
  param {
    lr_mult: 0
    decay_mult: 0
  }
  param {
    lr_mult: 0
    decay_mult: 0
  }
  param {
    lr_mult: 0
    decay_mult: 0
  }
  batch_norm_param {
    use_global_stats: false
  }
}
layer {
  name: "conv3_3_scale0"
  type: "Scale"
  bottom: "conv3_3_0"
  top: "conv3_3_0"
  scale_param {
    bias_term: true
  }
}
layer {
  name: "conv3_3_ReLU0"
  type: "ReLU"
  bottom: "conv3_3_0"
  top: "conv3_3_0"
}
layer {
  name: "conv3_3_1"
  type: "Convolution"
  bottom: "conv3_3_0"
  top: "conv3_3_1"
  param {
    lr_mult: 1
    decay_mult: 1
  }
  param {
    lr_mult: 2
    decay_mult: 0
  }
  convolution_param {
    num_output: 32
    bias_term: true
    pad: 1
    kernel_size: 3
    stride: 1
    weight_filler {
      type: "msra"
    }
    bias_filler {
      type: "constant"
      value: 0
    }
  }
}
layer {
  name: "conv3_3bn1"
  type: "BatchNorm"
  bottom: "conv3_3_1"
  top: "conv3_3_1"
  param {
    lr_mult: 0
    decay_mult: 0
  }
  param {
    lr_mult: 0
    decay_mult: 0
  }
  param {
    lr_mult: 0
    decay_mult: 0
  }
  batch_norm_param {
    use_global_stats: false
  }
}
layer {
  name: "conv3_3_scale1"
  type: "Scale"
  bottom: "conv3_3_1"
  top: "conv3_3_1"
  scale_param {
    bias_term: true
  }
}
layer {
  name: "conv3_Eltwise_3"
  type: "Eltwise"
  bottom: "conv3_Eltwise_2"
  bottom: "conv3_3_1"
  top: "conv3_Eltwise_3"
  eltwise_param {
    operation: SUM
  }
}
layer {
  name: "conv3_3ReLU_1"
  type: "ReLU"
  bottom: "conv3_Eltwise_3"
  top: "conv3_Eltwise_3"
}
layer {
  name: "conv4_1_0"
  type: "Convolution"
  bottom: "conv3_Eltwise_3"
  top: "conv4_1_0"
  param {
    lr_mult: 1
    decay_mult: 1
  }
  param {
    lr_mult: 2
    decay_mult: 0
  }
  convolution_param {
    num_output: 64
    bias_term: true
    pad: 1
    kernel_size: 3
    stride: 2
    weight_filler {
      type: "msra"
    }
    bias_filler {
      type: "constant"
      value: 0
    }
  }
}
layer {
  name: "conv4_1_bn0"
  type: "BatchNorm"
  bottom: "conv4_1_0"
  top: "conv4_1_0"
  param {
    lr_mult: 0
    decay_mult: 0
  }
  param {
    lr_mult: 0
    decay_mult: 0
  }
  param {
    lr_mult: 0
    decay_mult: 0
  }
  batch_norm_param {
    use_global_stats: false
  }
}
layer {
  name: "conv4_1_scale0"
  type: "Scale"
  bottom: "conv4_1_0"
  top: "conv4_1_0"
  scale_param {
    bias_term: true
  }
}
layer {
  name: "conv4_1_ReLU0"
  type: "ReLU"
  bottom: "conv4_1_0"
  top: "conv4_1_0"
}
layer {
  name: "conv4_1_1"
  type: "Convolution"
  bottom: "conv4_1_0"
  top: "conv4_1_1"
  param {
    lr_mult: 1
    decay_mult: 1
  }
  param {
    lr_mult: 2
    decay_mult: 0
  }
  convolution_param {
    num_output: 64
    bias_term: true
    pad: 1
    kernel_size: 3
    stride: 1
    weight_filler {
      type: "msra"
    }
    bias_filler {
      type: "constant"
      value: 0
    }
  }
}
layer {
  name: "conv4_1bn1"
  type: "BatchNorm"
  bottom: "conv4_1_1"
  top: "conv4_1_1"
  param {
    lr_mult: 0
    decay_mult: 0
  }
  param {
    lr_mult: 0
    decay_mult: 0
  }
  param {
    lr_mult: 0
    decay_mult: 0
  }
  batch_norm_param {
    use_global_stats: false
  }
}
layer {
  name: "conv4_1_scale1"
  type: "Scale"
  bottom: "conv4_1_1"
  top: "conv4_1_1"
  scale_param {
    bias_term: true
  }
}
layer {
  name: "conv4_1_down"
  type: "Convolution"
  bottom: "conv3_Eltwise_3"
  top: "conv4_1_down"
  param {
    lr_mult: 1
    decay_mult: 1
  }
  param {
    lr_mult: 2
    decay_mult: 0
  }
  convolution_param {
    num_output: 64
    bias_term: true
    pad: 0
    kernel_size: 1
    stride: 2
    weight_filler {
      type: "msra"
    }
    bias_filler {
      type: "constant"
      value: 0
    }
  }
}
layer {
  name: "conv4_1_bn_down"
  type: "BatchNorm"
  bottom: "conv4_1_down"
  top: "conv4_1_down"
  param {
    lr_mult: 0
    decay_mult: 0
  }
  param {
    lr_mult: 0
    decay_mult: 0
  }
  param {
    lr_mult: 0
    decay_mult: 0
  }
  batch_norm_param {
    use_global_stats: false
  }
}
layer {
  name: "conv4_1_scale_down"
  type: "Scale"
  bottom: "conv4_1_down"
  top: "conv4_1_down"
  scale_param {
    bias_term: true
  }
}
layer {
  name: "conv4_Eltwise_1"
  type: "Eltwise"
  bottom: "conv4_1_1"
  bottom: "conv4_1_down"
  top: "conv4_Eltwise_1"
  eltwise_param {
    operation: SUM
  }
}
layer {
  name: "conv4_1ReLU_1"
  type: "ReLU"
  bottom: "conv4_Eltwise_1"
  top: "conv4_Eltwise_1"
}
layer {
  name: "conv4_2_0"
  type: "Convolution"
  bottom: "conv4_Eltwise_1"
  top: "conv4_2_0"
  param {
    lr_mult: 1
    decay_mult: 1
  }
  param {
    lr_mult: 2
    decay_mult: 0
  }
  convolution_param {
    num_output: 64
    bias_term: true
    pad: 1
    kernel_size: 3
    stride: 1
    weight_filler {
      type: "msra"
    }
    bias_filler {
      type: "constant"
      value: 0
    }
  }
}
layer {
  name: "conv4_2_bn0"
  type: "BatchNorm"
  bottom: "conv4_2_0"
  top: "conv4_2_0"
  param {
    lr_mult: 0
    decay_mult: 0
  }
  param {
    lr_mult: 0
    decay_mult: 0
  }
  param {
    lr_mult: 0
    decay_mult: 0
  }
  batch_norm_param {
    use_global_stats: false
  }
}
layer {
  name: "conv4_2_scale0"
  type: "Scale"
  bottom: "conv4_2_0"
  top: "conv4_2_0"
  scale_param {
    bias_term: true
  }
}
layer {
  name: "conv4_2_ReLU0"
  type: "ReLU"
  bottom: "conv4_2_0"
  top: "conv4_2_0"
}
layer {
  name: "conv4_2_1"
  type: "Convolution"
  bottom: "conv4_2_0"
  top: "conv4_2_1"
  param {
    lr_mult: 1
    decay_mult: 1
  }
  param {
    lr_mult: 2
    decay_mult: 0
  }
  convolution_param {
    num_output: 64
    bias_term: true
    pad: 1
    kernel_size: 3
    stride: 1
    weight_filler {
      type: "msra"
    }
    bias_filler {
      type: "constant"
      value: 0
    }
  }
}
layer {
  name: "conv4_2bn1"
  type: "BatchNorm"
  bottom: "conv4_2_1"
  top: "conv4_2_1"
  param {
    lr_mult: 0
    decay_mult: 0
  }
  param {
    lr_mult: 0
    decay_mult: 0
  }
  param {
    lr_mult: 0
    decay_mult: 0
  }
  batch_norm_param {
    use_global_stats: false
  }
}
layer {
  name: "conv4_2_scale1"
  type: "Scale"
  bottom: "conv4_2_1"
  top: "conv4_2_1"
  scale_param {
    bias_term: true
  }
}
layer {
  name: "conv4_Eltwise_2"
  type: "Eltwise"
  bottom: "conv4_Eltwise_1"
  bottom: "conv4_2_1"
  top: "conv4_Eltwise_2"
  eltwise_param {
    operation: SUM
  }
}
layer {
  name: "conv4_2ReLU_1"
  type: "ReLU"
  bottom: "conv4_Eltwise_2"
  top: "conv4_Eltwise_2"
}
layer {
  name: "conv4_3_0"
  type: "Convolution"
  bottom: "conv4_Eltwise_2"
  top: "conv4_3_0"
  param {
    lr_mult: 1
    decay_mult: 1
  }
  param {
    lr_mult: 2
    decay_mult: 0
  }
  convolution_param {
    num_output: 64
    bias_term: true
    pad: 1
    kernel_size: 3
    stride: 1
    weight_filler {
      type: "msra"
    }
    bias_filler {
      type: "constant"
      value: 0
    }
  }
}
layer {
  name: "conv4_3_bn0"
  type: "BatchNorm"
  bottom: "conv4_3_0"
  top: "conv4_3_0"
  param {
    lr_mult: 0
    decay_mult: 0
  }
  param {
    lr_mult: 0
    decay_mult: 0
  }
  param {
    lr_mult: 0
    decay_mult: 0
  }
  batch_norm_param {
    use_global_stats: false
  }
}
layer {
  name: "conv4_3_scale0"
  type: "Scale"
  bottom: "conv4_3_0"
  top: "conv4_3_0"
  scale_param {
    bias_term: true
  }
}
layer {
  name: "conv4_3_ReLU0"
  type: "ReLU"
  bottom: "conv4_3_0"
  top: "conv4_3_0"
}
layer {
  name: "conv4_3_1"
  type: "Convolution"
  bottom: "conv4_3_0"
  top: "conv4_3_1"
  param {
    lr_mult: 1
    decay_mult: 1
  }
  param {
    lr_mult: 2
    decay_mult: 0
  }
  convolution_param {
    num_output: 64
    bias_term: true
    pad: 1
    kernel_size: 3
    stride: 1
    weight_filler {
      type: "msra"
    }
    bias_filler {
      type: "constant"
      value: 0
    }
  }
}
layer {
  name: "conv4_3bn1"
  type: "BatchNorm"
  bottom: "conv4_3_1"
  top: "conv4_3_1"
  param {
    lr_mult: 0
    decay_mult: 0
  }
  param {
    lr_mult: 0
    decay_mult: 0
  }
  param {
    lr_mult: 0
    decay_mult: 0
  }
  batch_norm_param {
    use_global_stats: false
  }
}
layer {
  name: "conv4_3_scale1"
  type: "Scale"
  bottom: "conv4_3_1"
  top: "conv4_3_1"
  scale_param {
    bias_term: true
  }
}
layer {
  name: "conv4_Eltwise_3"
  type: "Eltwise"
  bottom: "conv4_Eltwise_2"
  bottom: "conv4_3_1"
  top: "conv4_Eltwise_3"
  eltwise_param {
    operation: SUM
  }
}
layer {
  name: "conv4_3ReLU_1"
  type: "ReLU"
  bottom: "conv4_Eltwise_3"
  top: "conv4_Eltwise_3"
}
layer {
  name: "Pooling1"
  type: "Pooling"
  bottom: "conv4_Eltwise_3"
  top: "Pooling1"
  pooling_param {
    pool: AVE
    global_pooling: true
  }
}
layer {
  name: "fc1"
  type: "InnerProduct"
  bottom: "Pooling1"
  top: "fc1"
  param {
    lr_mult: 1
    decay_mult: 1
  }
  param {
    lr_mult: 2
    decay_mult: 1
  }
  inner_product_param {
    num_output: 10
    weight_filler {
      type: "msra"
    }
    bias_filler {
      type: "constant"
      value: 0
    }
  }
}
layer {
  name: "Softmax1"
  type: "SoftmaxWithLoss"
  bottom: "fc1"
  bottom: "label"
  top: "Softmax1"
}
I0929 10:16:45.217648 22954 layer_factory.hpp:77] Creating layer Data1
I0929 10:16:45.217864 22954 db_lmdb.cpp:35] Opened lmdb /home/lijianfei/datasets/cifar10_40/train_lmdb
I0929 10:16:45.217912 22954 net.cpp:128] Creating Layer Data1
I0929 10:16:45.217923 22954 net.cpp:522] Data1 -> data
I0929 10:16:45.217974 22954 net.cpp:522] Data1 -> label
I0929 10:16:45.219777 22954 data_layer.cpp:45] output data size: 128,3,32,32
I0929 10:16:45.236210 22954 net.cpp:172] Setting up Data1
I0929 10:16:45.236274 22954 net.cpp:186] Top shape: 128 3 32 32 (393216)
I0929 10:16:45.236280 22954 net.cpp:186] Top shape: 128 (128)
I0929 10:16:45.236284 22954 net.cpp:194] Memory required for data: 1573376
I0929 10:16:45.236300 22954 layer_factory.hpp:77] Creating layer conv1
I0929 10:16:45.236346 22954 net.cpp:128] Creating Layer conv1
I0929 10:16:45.236413 22954 net.cpp:558] conv1 <- data
I0929 10:16:45.236449 22954 net.cpp:522] conv1 -> conv1
I0929 10:16:46.231277 22954 net.cpp:172] Setting up conv1
I0929 10:16:46.231346 22954 net.cpp:186] Top shape: 128 16 32 32 (2097152)
I0929 10:16:46.231353 22954 net.cpp:194] Memory required for data: 9961984
I0929 10:16:46.231400 22954 layer_factory.hpp:77] Creating layer conv1/bn
I0929 10:16:46.231426 22954 net.cpp:128] Creating Layer conv1/bn
I0929 10:16:46.231432 22954 net.cpp:558] conv1/bn <- conv1
I0929 10:16:46.231441 22954 net.cpp:509] conv1/bn -> conv1 (in-place)
I0929 10:16:46.231664 22954 net.cpp:172] Setting up conv1/bn
I0929 10:16:46.231721 22954 net.cpp:186] Top shape: 128 16 32 32 (2097152)
I0929 10:16:46.231725 22954 net.cpp:194] Memory required for data: 18350592
I0929 10:16:46.231739 22954 layer_factory.hpp:77] Creating layer conv1/scale
I0929 10:16:46.231750 22954 net.cpp:128] Creating Layer conv1/scale
I0929 10:16:46.231753 22954 net.cpp:558] conv1/scale <- conv1
I0929 10:16:46.231760 22954 net.cpp:509] conv1/scale -> conv1 (in-place)
I0929 10:16:46.231807 22954 layer_factory.hpp:77] Creating layer conv1/scale
I0929 10:16:46.231930 22954 net.cpp:172] Setting up conv1/scale
I0929 10:16:46.231942 22954 net.cpp:186] Top shape: 128 16 32 32 (2097152)
I0929 10:16:46.231946 22954 net.cpp:194] Memory required for data: 26739200
I0929 10:16:46.231954 22954 layer_factory.hpp:77] Creating layer conv1/ReLU
I0929 10:16:46.231963 22954 net.cpp:128] Creating Layer conv1/ReLU
I0929 10:16:46.231967 22954 net.cpp:558] conv1/ReLU <- conv1
I0929 10:16:46.231972 22954 net.cpp:509] conv1/ReLU -> conv1 (in-place)
I0929 10:16:46.233042 22954 net.cpp:172] Setting up conv1/ReLU
I0929 10:16:46.233057 22954 net.cpp:186] Top shape: 128 16 32 32 (2097152)
I0929 10:16:46.233063 22954 net.cpp:194] Memory required for data: 35127808
I0929 10:16:46.233067 22954 layer_factory.hpp:77] Creating layer conv1_conv1/ReLU_0_split
I0929 10:16:46.233077 22954 net.cpp:128] Creating Layer conv1_conv1/ReLU_0_split
I0929 10:16:46.233081 22954 net.cpp:558] conv1_conv1/ReLU_0_split <- conv1
I0929 10:16:46.233088 22954 net.cpp:522] conv1_conv1/ReLU_0_split -> conv1_conv1/ReLU_0_split_0
I0929 10:16:46.233096 22954 net.cpp:522] conv1_conv1/ReLU_0_split -> conv1_conv1/ReLU_0_split_1
I0929 10:16:46.233137 22954 net.cpp:172] Setting up conv1_conv1/ReLU_0_split
I0929 10:16:46.233145 22954 net.cpp:186] Top shape: 128 16 32 32 (2097152)
I0929 10:16:46.233151 22954 net.cpp:186] Top shape: 128 16 32 32 (2097152)
I0929 10:16:46.233155 22954 net.cpp:194] Memory required for data: 51905024
I0929 10:16:46.233160 22954 layer_factory.hpp:77] Creating layer conv2_1_0
I0929 10:16:46.233172 22954 net.cpp:128] Creating Layer conv2_1_0
I0929 10:16:46.233176 22954 net.cpp:558] conv2_1_0 <- conv1_conv1/ReLU_0_split_0
I0929 10:16:46.233183 22954 net.cpp:522] conv2_1_0 -> conv2_1_0
I0929 10:16:46.239794 22954 net.cpp:172] Setting up conv2_1_0
I0929 10:16:46.239821 22954 net.cpp:186] Top shape: 128 16 32 32 (2097152)
I0929 10:16:46.239826 22954 net.cpp:194] Memory required for data: 60293632
I0929 10:16:46.239838 22954 layer_factory.hpp:77] Creating layer conv2_1_bn0
I0929 10:16:46.239852 22954 net.cpp:128] Creating Layer conv2_1_bn0
I0929 10:16:46.239856 22954 net.cpp:558] conv2_1_bn0 <- conv2_1_0
I0929 10:16:46.239866 22954 net.cpp:509] conv2_1_bn0 -> conv2_1_0 (in-place)
I0929 10:16:46.240084 22954 net.cpp:172] Setting up conv2_1_bn0
I0929 10:16:46.240092 22954 net.cpp:186] Top shape: 128 16 32 32 (2097152)
I0929 10:16:46.240097 22954 net.cpp:194] Memory required for data: 68682240
I0929 10:16:46.240105 22954 layer_factory.hpp:77] Creating layer conv2_1_scale0
I0929 10:16:46.240116 22954 net.cpp:128] Creating Layer conv2_1_scale0
I0929 10:16:46.240121 22954 net.cpp:558] conv2_1_scale0 <- conv2_1_0
I0929 10:16:46.240128 22954 net.cpp:509] conv2_1_scale0 -> conv2_1_0 (in-place)
I0929 10:16:46.240166 22954 layer_factory.hpp:77] Creating layer conv2_1_scale0
I0929 10:16:46.240309 22954 net.cpp:172] Setting up conv2_1_scale0
I0929 10:16:46.240324 22954 net.cpp:186] Top shape: 128 16 32 32 (2097152)
I0929 10:16:46.240327 22954 net.cpp:194] Memory required for data: 77070848
I0929 10:16:46.240335 22954 layer_factory.hpp:77] Creating layer conv2_1_ReLU0
I0929 10:16:46.240342 22954 net.cpp:128] Creating Layer conv2_1_ReLU0
I0929 10:16:46.240346 22954 net.cpp:558] conv2_1_ReLU0 <- conv2_1_0
I0929 10:16:46.240355 22954 net.cpp:509] conv2_1_ReLU0 -> conv2_1_0 (in-place)
I0929 10:16:46.241891 22954 net.cpp:172] Setting up conv2_1_ReLU0
I0929 10:16:46.241911 22954 net.cpp:186] Top shape: 128 16 32 32 (2097152)
I0929 10:16:46.241915 22954 net.cpp:194] Memory required for data: 85459456
I0929 10:16:46.241945 22954 layer_factory.hpp:77] Creating layer conv2_1_1
I0929 10:16:46.241971 22954 net.cpp:128] Creating Layer conv2_1_1
I0929 10:16:46.241976 22954 net.cpp:558] conv2_1_1 <- conv2_1_0
I0929 10:16:46.241986 22954 net.cpp:522] conv2_1_1 -> conv2_1_1
I0929 10:16:46.248646 22954 net.cpp:172] Setting up conv2_1_1
I0929 10:16:46.248672 22954 net.cpp:186] Top shape: 128 16 32 32 (2097152)
I0929 10:16:46.248675 22954 net.cpp:194] Memory required for data: 93848064
I0929 10:16:46.248685 22954 layer_factory.hpp:77] Creating layer conv2_1bn1
I0929 10:16:46.248694 22954 net.cpp:128] Creating Layer conv2_1bn1
I0929 10:16:46.248699 22954 net.cpp:558] conv2_1bn1 <- conv2_1_1
I0929 10:16:46.248708 22954 net.cpp:509] conv2_1bn1 -> conv2_1_1 (in-place)
I0929 10:16:46.248936 22954 net.cpp:172] Setting up conv2_1bn1
I0929 10:16:46.248948 22954 net.cpp:186] Top shape: 128 16 32 32 (2097152)
I0929 10:16:46.248952 22954 net.cpp:194] Memory required for data: 102236672
I0929 10:16:46.248965 22954 layer_factory.hpp:77] Creating layer conv2_1_scale1
I0929 10:16:46.248975 22954 net.cpp:128] Creating Layer conv2_1_scale1
I0929 10:16:46.248980 22954 net.cpp:558] conv2_1_scale1 <- conv2_1_1
I0929 10:16:46.248986 22954 net.cpp:509] conv2_1_scale1 -> conv2_1_1 (in-place)
I0929 10:16:46.249023 22954 layer_factory.hpp:77] Creating layer conv2_1_scale1
I0929 10:16:46.249194 22954 net.cpp:172] Setting up conv2_1_scale1
I0929 10:16:46.249234 22954 net.cpp:186] Top shape: 128 16 32 32 (2097152)
I0929 10:16:46.249243 22954 net.cpp:194] Memory required for data: 110625280
I0929 10:16:46.249253 22954 layer_factory.hpp:77] Creating layer conv2_Eltwise_1
I0929 10:16:46.249264 22954 net.cpp:128] Creating Layer conv2_Eltwise_1
I0929 10:16:46.249267 22954 net.cpp:558] conv2_Eltwise_1 <- conv1_conv1/ReLU_0_split_1
I0929 10:16:46.249274 22954 net.cpp:558] conv2_Eltwise_1 <- conv2_1_1
I0929 10:16:46.249282 22954 net.cpp:522] conv2_Eltwise_1 -> conv2_Eltwise_1
I0929 10:16:46.249315 22954 net.cpp:172] Setting up conv2_Eltwise_1
I0929 10:16:46.249326 22954 net.cpp:186] Top shape: 128 16 32 32 (2097152)
I0929 10:16:46.249331 22954 net.cpp:194] Memory required for data: 119013888
I0929 10:16:46.249336 22954 layer_factory.hpp:77] Creating layer conv2_1ReLU_1
I0929 10:16:46.249342 22954 net.cpp:128] Creating Layer conv2_1ReLU_1
I0929 10:16:46.249346 22954 net.cpp:558] conv2_1ReLU_1 <- conv2_Eltwise_1
I0929 10:16:46.249354 22954 net.cpp:509] conv2_1ReLU_1 -> conv2_Eltwise_1 (in-place)
I0929 10:16:46.250751 22954 net.cpp:172] Setting up conv2_1ReLU_1
I0929 10:16:46.250777 22954 net.cpp:186] Top shape: 128 16 32 32 (2097152)
I0929 10:16:46.250780 22954 net.cpp:194] Memory required for data: 127402496
I0929 10:16:46.250785 22954 layer_factory.hpp:77] Creating layer conv2_Eltwise_1_conv2_1ReLU_1_0_split
I0929 10:16:46.250799 22954 net.cpp:128] Creating Layer conv2_Eltwise_1_conv2_1ReLU_1_0_split
I0929 10:16:46.250805 22954 net.cpp:558] conv2_Eltwise_1_conv2_1ReLU_1_0_split <- conv2_Eltwise_1
I0929 10:16:46.250814 22954 net.cpp:522] conv2_Eltwise_1_conv2_1ReLU_1_0_split -> conv2_Eltwise_1_conv2_1ReLU_1_0_split_0
I0929 10:16:46.250828 22954 net.cpp:522] conv2_Eltwise_1_conv2_1ReLU_1_0_split -> conv2_Eltwise_1_conv2_1ReLU_1_0_split_1
I0929 10:16:46.250877 22954 net.cpp:172] Setting up conv2_Eltwise_1_conv2_1ReLU_1_0_split
I0929 10:16:46.250885 22954 net.cpp:186] Top shape: 128 16 32 32 (2097152)
I0929 10:16:46.250890 22954 net.cpp:186] Top shape: 128 16 32 32 (2097152)
I0929 10:16:46.250895 22954 net.cpp:194] Memory required for data: 144179712
I0929 10:16:46.250900 22954 layer_factory.hpp:77] Creating layer conv2_2_0
I0929 10:16:46.250917 22954 net.cpp:128] Creating Layer conv2_2_0
I0929 10:16:46.250922 22954 net.cpp:558] conv2_2_0 <- conv2_Eltwise_1_conv2_1ReLU_1_0_split_0
I0929 10:16:46.250931 22954 net.cpp:522] conv2_2_0 -> conv2_2_0
I0929 10:16:46.257498 22954 net.cpp:172] Setting up conv2_2_0
I0929 10:16:46.257524 22954 net.cpp:186] Top shape: 128 16 32 32 (2097152)
I0929 10:16:46.257529 22954 net.cpp:194] Memory required for data: 152568320
I0929 10:16:46.257539 22954 layer_factory.hpp:77] Creating layer conv2_2_bn0
I0929 10:16:46.257567 22954 net.cpp:128] Creating Layer conv2_2_bn0
I0929 10:16:46.257573 22954 net.cpp:558] conv2_2_bn0 <- conv2_2_0
I0929 10:16:46.257580 22954 net.cpp:509] conv2_2_bn0 -> conv2_2_0 (in-place)
I0929 10:16:46.257809 22954 net.cpp:172] Setting up conv2_2_bn0
I0929 10:16:46.257822 22954 net.cpp:186] Top shape: 128 16 32 32 (2097152)
I0929 10:16:46.257827 22954 net.cpp:194] Memory required for data: 160956928
I0929 10:16:46.257835 22954 layer_factory.hpp:77] Creating layer conv2_2_scale0
I0929 10:16:46.257843 22954 net.cpp:128] Creating Layer conv2_2_scale0
I0929 10:16:46.257848 22954 net.cpp:558] conv2_2_scale0 <- conv2_2_0
I0929 10:16:46.257855 22954 net.cpp:509] conv2_2_scale0 -> conv2_2_0 (in-place)
I0929 10:16:46.257892 22954 layer_factory.hpp:77] Creating layer conv2_2_scale0
I0929 10:16:46.258069 22954 net.cpp:172] Setting up conv2_2_scale0
I0929 10:16:46.258098 22954 net.cpp:186] Top shape: 128 16 32 32 (2097152)
I0929 10:16:46.258107 22954 net.cpp:194] Memory required for data: 169345536
I0929 10:16:46.258116 22954 layer_factory.hpp:77] Creating layer conv2_2_ReLU0
I0929 10:16:46.258123 22954 net.cpp:128] Creating Layer conv2_2_ReLU0
I0929 10:16:46.258127 22954 net.cpp:558] conv2_2_ReLU0 <- conv2_2_0
I0929 10:16:46.258133 22954 net.cpp:509] conv2_2_ReLU0 -> conv2_2_0 (in-place)
I0929 10:16:46.259593 22954 net.cpp:172] Setting up conv2_2_ReLU0
I0929 10:16:46.259614 22954 net.cpp:186] Top shape: 128 16 32 32 (2097152)
I0929 10:16:46.259618 22954 net.cpp:194] Memory required for data: 177734144
I0929 10:16:46.259624 22954 layer_factory.hpp:77] Creating layer conv2_2_1
I0929 10:16:46.259639 22954 net.cpp:128] Creating Layer conv2_2_1
I0929 10:16:46.259644 22954 net.cpp:558] conv2_2_1 <- conv2_2_0
I0929 10:16:46.259654 22954 net.cpp:522] conv2_2_1 -> conv2_2_1
I0929 10:16:46.266358 22954 net.cpp:172] Setting up conv2_2_1
I0929 10:16:46.266386 22954 net.cpp:186] Top shape: 128 16 32 32 (2097152)
I0929 10:16:46.266389 22954 net.cpp:194] Memory required for data: 186122752
I0929 10:16:46.266398 22954 layer_factory.hpp:77] Creating layer conv2_2bn1
I0929 10:16:46.266410 22954 net.cpp:128] Creating Layer conv2_2bn1
I0929 10:16:46.266415 22954 net.cpp:558] conv2_2bn1 <- conv2_2_1
I0929 10:16:46.266424 22954 net.cpp:509] conv2_2bn1 -> conv2_2_1 (in-place)
I0929 10:16:46.266659 22954 net.cpp:172] Setting up conv2_2bn1
I0929 10:16:46.266670 22954 net.cpp:186] Top shape: 128 16 32 32 (2097152)
I0929 10:16:46.266676 22954 net.cpp:194] Memory required for data: 194511360
I0929 10:16:46.266690 22954 layer_factory.hpp:77] Creating layer conv2_2_scale1
I0929 10:16:46.266698 22954 net.cpp:128] Creating Layer conv2_2_scale1
I0929 10:16:46.266703 22954 net.cpp:558] conv2_2_scale1 <- conv2_2_1
I0929 10:16:46.266710 22954 net.cpp:509] conv2_2_scale1 -> conv2_2_1 (in-place)
I0929 10:16:46.266747 22954 layer_factory.hpp:77] Creating layer conv2_2_scale1
I0929 10:16:46.266924 22954 net.cpp:172] Setting up conv2_2_scale1
I0929 10:16:46.266950 22954 net.cpp:186] Top shape: 128 16 32 32 (2097152)
I0929 10:16:46.266958 22954 net.cpp:194] Memory required for data: 202899968
I0929 10:16:46.266966 22954 layer_factory.hpp:77] Creating layer conv2_Eltwise_2
I0929 10:16:46.266978 22954 net.cpp:128] Creating Layer conv2_Eltwise_2
I0929 10:16:46.266981 22954 net.cpp:558] conv2_Eltwise_2 <- conv2_Eltwise_1_conv2_1ReLU_1_0_split_1
I0929 10:16:46.266986 22954 net.cpp:558] conv2_Eltwise_2 <- conv2_2_1
I0929 10:16:46.266993 22954 net.cpp:522] conv2_Eltwise_2 -> conv2_Eltwise_2
I0929 10:16:46.267024 22954 net.cpp:172] Setting up conv2_Eltwise_2
I0929 10:16:46.267030 22954 net.cpp:186] Top shape: 128 16 32 32 (2097152)
I0929 10:16:46.267035 22954 net.cpp:194] Memory required for data: 211288576
I0929 10:16:46.267040 22954 layer_factory.hpp:77] Creating layer conv2_2ReLU_1
I0929 10:16:46.267045 22954 net.cpp:128] Creating Layer conv2_2ReLU_1
I0929 10:16:46.267050 22954 net.cpp:558] conv2_2ReLU_1 <- conv2_Eltwise_2
I0929 10:16:46.267057 22954 net.cpp:509] conv2_2ReLU_1 -> conv2_Eltwise_2 (in-place)
I0929 10:16:46.268457 22954 net.cpp:172] Setting up conv2_2ReLU_1
I0929 10:16:46.268477 22954 net.cpp:186] Top shape: 128 16 32 32 (2097152)
I0929 10:16:46.268482 22954 net.cpp:194] Memory required for data: 219677184
I0929 10:16:46.268486 22954 layer_factory.hpp:77] Creating layer conv2_Eltwise_2_conv2_2ReLU_1_0_split
I0929 10:16:46.268493 22954 net.cpp:128] Creating Layer conv2_Eltwise_2_conv2_2ReLU_1_0_split
I0929 10:16:46.268498 22954 net.cpp:558] conv2_Eltwise_2_conv2_2ReLU_1_0_split <- conv2_Eltwise_2
I0929 10:16:46.268508 22954 net.cpp:522] conv2_Eltwise_2_conv2_2ReLU_1_0_split -> conv2_Eltwise_2_conv2_2ReLU_1_0_split_0
I0929 10:16:46.268517 22954 net.cpp:522] conv2_Eltwise_2_conv2_2ReLU_1_0_split -> conv2_Eltwise_2_conv2_2ReLU_1_0_split_1
I0929 10:16:46.268568 22954 net.cpp:172] Setting up conv2_Eltwise_2_conv2_2ReLU_1_0_split
I0929 10:16:46.268575 22954 net.cpp:186] Top shape: 128 16 32 32 (2097152)
I0929 10:16:46.268581 22954 net.cpp:186] Top shape: 128 16 32 32 (2097152)
I0929 10:16:46.268586 22954 net.cpp:194] Memory required for data: 236454400
I0929 10:16:46.268590 22954 layer_factory.hpp:77] Creating layer conv2_3_0
I0929 10:16:46.268602 22954 net.cpp:128] Creating Layer conv2_3_0
I0929 10:16:46.268607 22954 net.cpp:558] conv2_3_0 <- conv2_Eltwise_2_conv2_2ReLU_1_0_split_0
I0929 10:16:46.268617 22954 net.cpp:522] conv2_3_0 -> conv2_3_0
I0929 10:16:46.275213 22954 net.cpp:172] Setting up conv2_3_0
I0929 10:16:46.275238 22954 net.cpp:186] Top shape: 128 16 32 32 (2097152)
I0929 10:16:46.275243 22954 net.cpp:194] Memory required for data: 244843008
I0929 10:16:46.275252 22954 layer_factory.hpp:77] Creating layer conv2_3_bn0
I0929 10:16:46.275267 22954 net.cpp:128] Creating Layer conv2_3_bn0
I0929 10:16:46.275272 22954 net.cpp:558] conv2_3_bn0 <- conv2_3_0
I0929 10:16:46.275281 22954 net.cpp:509] conv2_3_bn0 -> conv2_3_0 (in-place)
I0929 10:16:46.275509 22954 net.cpp:172] Setting up conv2_3_bn0
I0929 10:16:46.275521 22954 net.cpp:186] Top shape: 128 16 32 32 (2097152)
I0929 10:16:46.275526 22954 net.cpp:194] Memory required for data: 253231616
I0929 10:16:46.275535 22954 layer_factory.hpp:77] Creating layer conv2_3_scale0
I0929 10:16:46.275544 22954 net.cpp:128] Creating Layer conv2_3_scale0
I0929 10:16:46.275548 22954 net.cpp:558] conv2_3_scale0 <- conv2_3_0
I0929 10:16:46.275554 22954 net.cpp:509] conv2_3_scale0 -> conv2_3_0 (in-place)
I0929 10:16:46.275593 22954 layer_factory.hpp:77] Creating layer conv2_3_scale0
I0929 10:16:46.275728 22954 net.cpp:172] Setting up conv2_3_scale0
I0929 10:16:46.275735 22954 net.cpp:186] Top shape: 128 16 32 32 (2097152)
I0929 10:16:46.275739 22954 net.cpp:194] Memory required for data: 261620224
I0929 10:16:46.275748 22954 layer_factory.hpp:77] Creating layer conv2_3_ReLU0
I0929 10:16:46.275753 22954 net.cpp:128] Creating Layer conv2_3_ReLU0
I0929 10:16:46.275758 22954 net.cpp:558] conv2_3_ReLU0 <- conv2_3_0
I0929 10:16:46.275765 22954 net.cpp:509] conv2_3_ReLU0 -> conv2_3_0 (in-place)
I0929 10:16:46.277309 22954 net.cpp:172] Setting up conv2_3_ReLU0
I0929 10:16:46.277335 22954 net.cpp:186] Top shape: 128 16 32 32 (2097152)
I0929 10:16:46.277339 22954 net.cpp:194] Memory required for data: 270008832
I0929 10:16:46.277344 22954 layer_factory.hpp:77] Creating layer conv2_3_1
I0929 10:16:46.277360 22954 net.cpp:128] Creating Layer conv2_3_1
I0929 10:16:46.277365 22954 net.cpp:558] conv2_3_1 <- conv2_3_0
I0929 10:16:46.277375 22954 net.cpp:522] conv2_3_1 -> conv2_3_1
I0929 10:16:46.284040 22954 net.cpp:172] Setting up conv2_3_1
I0929 10:16:46.284066 22954 net.cpp:186] Top shape: 128 16 32 32 (2097152)
I0929 10:16:46.284071 22954 net.cpp:194] Memory required for data: 278397440
I0929 10:16:46.284080 22954 layer_factory.hpp:77] Creating layer conv2_3bn1
I0929 10:16:46.284092 22954 net.cpp:128] Creating Layer conv2_3bn1
I0929 10:16:46.284097 22954 net.cpp:558] conv2_3bn1 <- conv2_3_1
I0929 10:16:46.284106 22954 net.cpp:509] conv2_3bn1 -> conv2_3_1 (in-place)
I0929 10:16:46.284350 22954 net.cpp:172] Setting up conv2_3bn1
I0929 10:16:46.284363 22954 net.cpp:186] Top shape: 128 16 32 32 (2097152)
I0929 10:16:46.284384 22954 net.cpp:194] Memory required for data: 286786048
I0929 10:16:46.284395 22954 layer_factory.hpp:77] Creating layer conv2_3_scale1
I0929 10:16:46.284415 22954 net.cpp:128] Creating Layer conv2_3_scale1
I0929 10:16:46.284418 22954 net.cpp:558] conv2_3_scale1 <- conv2_3_1
I0929 10:16:46.284425 22954 net.cpp:509] conv2_3_scale1 -> conv2_3_1 (in-place)
I0929 10:16:46.284463 22954 layer_factory.hpp:77] Creating layer conv2_3_scale1
I0929 10:16:46.284626 22954 net.cpp:172] Setting up conv2_3_scale1
I0929 10:16:46.284633 22954 net.cpp:186] Top shape: 128 16 32 32 (2097152)
I0929 10:16:46.284637 22954 net.cpp:194] Memory required for data: 295174656
I0929 10:16:46.284646 22954 layer_factory.hpp:77] Creating layer conv2_Eltwise_3
I0929 10:16:46.284652 22954 net.cpp:128] Creating Layer conv2_Eltwise_3
I0929 10:16:46.284657 22954 net.cpp:558] conv2_Eltwise_3 <- conv2_Eltwise_2_conv2_2ReLU_1_0_split_1
I0929 10:16:46.284662 22954 net.cpp:558] conv2_Eltwise_3 <- conv2_3_1
I0929 10:16:46.284670 22954 net.cpp:522] conv2_Eltwise_3 -> conv2_Eltwise_3
I0929 10:16:46.284696 22954 net.cpp:172] Setting up conv2_Eltwise_3
I0929 10:16:46.284706 22954 net.cpp:186] Top shape: 128 16 32 32 (2097152)
I0929 10:16:46.284710 22954 net.cpp:194] Memory required for data: 303563264
I0929 10:16:46.284714 22954 layer_factory.hpp:77] Creating layer conv2_3ReLU_1
I0929 10:16:46.284720 22954 net.cpp:128] Creating Layer conv2_3ReLU_1
I0929 10:16:46.284724 22954 net.cpp:558] conv2_3ReLU_1 <- conv2_Eltwise_3
I0929 10:16:46.284730 22954 net.cpp:509] conv2_3ReLU_1 -> conv2_Eltwise_3 (in-place)
I0929 10:16:46.286093 22954 net.cpp:172] Setting up conv2_3ReLU_1
I0929 10:16:46.286110 22954 net.cpp:186] Top shape: 128 16 32 32 (2097152)
I0929 10:16:46.286114 22954 net.cpp:194] Memory required for data: 311951872
I0929 10:16:46.286120 22954 layer_factory.hpp:77] Creating layer conv2_Eltwise_3_conv2_3ReLU_1_0_split
I0929 10:16:46.286130 22954 net.cpp:128] Creating Layer conv2_Eltwise_3_conv2_3ReLU_1_0_split
I0929 10:16:46.286139 22954 net.cpp:558] conv2_Eltwise_3_conv2_3ReLU_1_0_split <- conv2_Eltwise_3
I0929 10:16:46.286145 22954 net.cpp:522] conv2_Eltwise_3_conv2_3ReLU_1_0_split -> conv2_Eltwise_3_conv2_3ReLU_1_0_split_0
I0929 10:16:46.286156 22954 net.cpp:522] conv2_Eltwise_3_conv2_3ReLU_1_0_split -> conv2_Eltwise_3_conv2_3ReLU_1_0_split_1
I0929 10:16:46.286204 22954 net.cpp:172] Setting up conv2_Eltwise_3_conv2_3ReLU_1_0_split
I0929 10:16:46.286211 22954 net.cpp:186] Top shape: 128 16 32 32 (2097152)
I0929 10:16:46.286217 22954 net.cpp:186] Top shape: 128 16 32 32 (2097152)
I0929 10:16:46.286221 22954 net.cpp:194] Memory required for data: 328729088
I0929 10:16:46.286226 22954 layer_factory.hpp:77] Creating layer conv3_1_0
I0929 10:16:46.286240 22954 net.cpp:128] Creating Layer conv3_1_0
I0929 10:16:46.286245 22954 net.cpp:558] conv3_1_0 <- conv2_Eltwise_3_conv2_3ReLU_1_0_split_0
I0929 10:16:46.286252 22954 net.cpp:522] conv3_1_0 -> conv3_1_0
I0929 10:16:46.293057 22954 net.cpp:172] Setting up conv3_1_0
I0929 10:16:46.293085 22954 net.cpp:186] Top shape: 128 32 16 16 (1048576)
I0929 10:16:46.293090 22954 net.cpp:194] Memory required for data: 332923392
I0929 10:16:46.293102 22954 layer_factory.hpp:77] Creating layer conv3_1_bn0
I0929 10:16:46.293113 22954 net.cpp:128] Creating Layer conv3_1_bn0
I0929 10:16:46.293118 22954 net.cpp:558] conv3_1_bn0 <- conv3_1_0
I0929 10:16:46.293130 22954 net.cpp:509] conv3_1_bn0 -> conv3_1_0 (in-place)
I0929 10:16:46.293375 22954 net.cpp:172] Setting up conv3_1_bn0
I0929 10:16:46.293388 22954 net.cpp:186] Top shape: 128 32 16 16 (1048576)
I0929 10:16:46.293393 22954 net.cpp:194] Memory required for data: 337117696
I0929 10:16:46.293403 22954 layer_factory.hpp:77] Creating layer conv3_1_scale0
I0929 10:16:46.293413 22954 net.cpp:128] Creating Layer conv3_1_scale0
I0929 10:16:46.293417 22954 net.cpp:558] conv3_1_scale0 <- conv3_1_0
I0929 10:16:46.293423 22954 net.cpp:509] conv3_1_scale0 -> conv3_1_0 (in-place)
I0929 10:16:46.293463 22954 layer_factory.hpp:77] Creating layer conv3_1_scale0
I0929 10:16:46.293617 22954 net.cpp:172] Setting up conv3_1_scale0
I0929 10:16:46.293625 22954 net.cpp:186] Top shape: 128 32 16 16 (1048576)
I0929 10:16:46.293628 22954 net.cpp:194] Memory required for data: 341312000
I0929 10:16:46.293637 22954 layer_factory.hpp:77] Creating layer conv3_1_ReLU0
I0929 10:16:46.293645 22954 net.cpp:128] Creating Layer conv3_1_ReLU0
I0929 10:16:46.293650 22954 net.cpp:558] conv3_1_ReLU0 <- conv3_1_0
I0929 10:16:46.293655 22954 net.cpp:509] conv3_1_ReLU0 -> conv3_1_0 (in-place)
I0929 10:16:46.294960 22954 net.cpp:172] Setting up conv3_1_ReLU0
I0929 10:16:46.294982 22954 net.cpp:186] Top shape: 128 32 16 16 (1048576)
I0929 10:16:46.294986 22954 net.cpp:194] Memory required for data: 345506304
I0929 10:16:46.294991 22954 layer_factory.hpp:77] Creating layer conv3_1_1
I0929 10:16:46.295008 22954 net.cpp:128] Creating Layer conv3_1_1
I0929 10:16:46.295014 22954 net.cpp:558] conv3_1_1 <- conv3_1_0
I0929 10:16:46.295022 22954 net.cpp:522] conv3_1_1 -> conv3_1_1
I0929 10:16:46.301720 22954 net.cpp:172] Setting up conv3_1_1
I0929 10:16:46.301746 22954 net.cpp:186] Top shape: 128 32 16 16 (1048576)
I0929 10:16:46.301750 22954 net.cpp:194] Memory required for data: 349700608
I0929 10:16:46.301760 22954 layer_factory.hpp:77] Creating layer conv3_1bn1
I0929 10:16:46.301771 22954 net.cpp:128] Creating Layer conv3_1bn1
I0929 10:16:46.301776 22954 net.cpp:558] conv3_1bn1 <- conv3_1_1
I0929 10:16:46.301785 22954 net.cpp:509] conv3_1bn1 -> conv3_1_1 (in-place)
I0929 10:16:46.302037 22954 net.cpp:172] Setting up conv3_1bn1
I0929 10:16:46.302044 22954 net.cpp:186] Top shape: 128 32 16 16 (1048576)
I0929 10:16:46.302048 22954 net.cpp:194] Memory required for data: 353894912
I0929 10:16:46.302057 22954 layer_factory.hpp:77] Creating layer conv3_1_scale1
I0929 10:16:46.302064 22954 net.cpp:128] Creating Layer conv3_1_scale1
I0929 10:16:46.302068 22954 net.cpp:558] conv3_1_scale1 <- conv3_1_1
I0929 10:16:46.302075 22954 net.cpp:509] conv3_1_scale1 -> conv3_1_1 (in-place)
I0929 10:16:46.302114 22954 layer_factory.hpp:77] Creating layer conv3_1_scale1
I0929 10:16:46.302253 22954 net.cpp:172] Setting up conv3_1_scale1
I0929 10:16:46.302261 22954 net.cpp:186] Top shape: 128 32 16 16 (1048576)
I0929 10:16:46.302265 22954 net.cpp:194] Memory required for data: 358089216
I0929 10:16:46.302273 22954 layer_factory.hpp:77] Creating layer conv3_1_down
I0929 10:16:46.302284 22954 net.cpp:128] Creating Layer conv3_1_down
I0929 10:16:46.302289 22954 net.cpp:558] conv3_1_down <- conv2_Eltwise_3_conv2_3ReLU_1_0_split_1
I0929 10:16:46.302299 22954 net.cpp:522] conv3_1_down -> conv3_1_down
I0929 10:16:46.308385 22954 net.cpp:172] Setting up conv3_1_down
I0929 10:16:46.308411 22954 net.cpp:186] Top shape: 128 32 16 16 (1048576)
I0929 10:16:46.308415 22954 net.cpp:194] Memory required for data: 362283520
I0929 10:16:46.308434 22954 layer_factory.hpp:77] Creating layer conv3_1_bn_down
I0929 10:16:46.308447 22954 net.cpp:128] Creating Layer conv3_1_bn_down
I0929 10:16:46.308452 22954 net.cpp:558] conv3_1_bn_down <- conv3_1_down
I0929 10:16:46.308465 22954 net.cpp:509] conv3_1_bn_down -> conv3_1_down (in-place)
I0929 10:16:46.308701 22954 net.cpp:172] Setting up conv3_1_bn_down
I0929 10:16:46.308714 22954 net.cpp:186] Top shape: 128 32 16 16 (1048576)
I0929 10:16:46.308718 22954 net.cpp:194] Memory required for data: 366477824
I0929 10:16:46.308727 22954 layer_factory.hpp:77] Creating layer conv3_1_scale_down
I0929 10:16:46.308734 22954 net.cpp:128] Creating Layer conv3_1_scale_down
I0929 10:16:46.308738 22954 net.cpp:558] conv3_1_scale_down <- conv3_1_down
I0929 10:16:46.308746 22954 net.cpp:509] conv3_1_scale_down -> conv3_1_down (in-place)
I0929 10:16:46.308784 22954 layer_factory.hpp:77] Creating layer conv3_1_scale_down
I0929 10:16:46.308924 22954 net.cpp:172] Setting up conv3_1_scale_down
I0929 10:16:46.308933 22954 net.cpp:186] Top shape: 128 32 16 16 (1048576)
I0929 10:16:46.308936 22954 net.cpp:194] Memory required for data: 370672128
I0929 10:16:46.308943 22954 layer_factory.hpp:77] Creating layer conv3_Eltwise_1
I0929 10:16:46.308966 22954 net.cpp:128] Creating Layer conv3_Eltwise_1
I0929 10:16:46.308971 22954 net.cpp:558] conv3_Eltwise_1 <- conv3_1_1
I0929 10:16:46.308976 22954 net.cpp:558] conv3_Eltwise_1 <- conv3_1_down
I0929 10:16:46.308985 22954 net.cpp:522] conv3_Eltwise_1 -> conv3_Eltwise_1
I0929 10:16:46.309008 22954 net.cpp:172] Setting up conv3_Eltwise_1
I0929 10:16:46.309015 22954 net.cpp:186] Top shape: 128 32 16 16 (1048576)
I0929 10:16:46.309020 22954 net.cpp:194] Memory required for data: 374866432
I0929 10:16:46.309023 22954 layer_factory.hpp:77] Creating layer conv3_1ReLU_1
I0929 10:16:46.309031 22954 net.cpp:128] Creating Layer conv3_1ReLU_1
I0929 10:16:46.309036 22954 net.cpp:558] conv3_1ReLU_1 <- conv3_Eltwise_1
I0929 10:16:46.309041 22954 net.cpp:509] conv3_1ReLU_1 -> conv3_Eltwise_1 (in-place)
I0929 10:16:46.310477 22954 net.cpp:172] Setting up conv3_1ReLU_1
I0929 10:16:46.310497 22954 net.cpp:186] Top shape: 128 32 16 16 (1048576)
I0929 10:16:46.310503 22954 net.cpp:194] Memory required for data: 379060736
I0929 10:16:46.310506 22954 layer_factory.hpp:77] Creating layer conv3_Eltwise_1_conv3_1ReLU_1_0_split
I0929 10:16:46.310518 22954 net.cpp:128] Creating Layer conv3_Eltwise_1_conv3_1ReLU_1_0_split
I0929 10:16:46.310523 22954 net.cpp:558] conv3_Eltwise_1_conv3_1ReLU_1_0_split <- conv3_Eltwise_1
I0929 10:16:46.310530 22954 net.cpp:522] conv3_Eltwise_1_conv3_1ReLU_1_0_split -> conv3_Eltwise_1_conv3_1ReLU_1_0_split_0
I0929 10:16:46.310544 22954 net.cpp:522] conv3_Eltwise_1_conv3_1ReLU_1_0_split -> conv3_Eltwise_1_conv3_1ReLU_1_0_split_1
I0929 10:16:46.310595 22954 net.cpp:172] Setting up conv3_Eltwise_1_conv3_1ReLU_1_0_split
I0929 10:16:46.310601 22954 net.cpp:186] Top shape: 128 32 16 16 (1048576)
I0929 10:16:46.310606 22954 net.cpp:186] Top shape: 128 32 16 16 (1048576)
I0929 10:16:46.310611 22954 net.cpp:194] Memory required for data: 387449344
I0929 10:16:46.310614 22954 layer_factory.hpp:77] Creating layer conv3_2_0
I0929 10:16:46.310628 22954 net.cpp:128] Creating Layer conv3_2_0
I0929 10:16:46.310633 22954 net.cpp:558] conv3_2_0 <- conv3_Eltwise_1_conv3_1ReLU_1_0_split_0
I0929 10:16:46.310640 22954 net.cpp:522] conv3_2_0 -> conv3_2_0
I0929 10:16:46.317217 22954 net.cpp:172] Setting up conv3_2_0
I0929 10:16:46.317243 22954 net.cpp:186] Top shape: 128 32 16 16 (1048576)
I0929 10:16:46.317247 22954 net.cpp:194] Memory required for data: 391643648
I0929 10:16:46.317257 22954 layer_factory.hpp:77] Creating layer conv3_2_bn0
I0929 10:16:46.317270 22954 net.cpp:128] Creating Layer conv3_2_bn0
I0929 10:16:46.317275 22954 net.cpp:558] conv3_2_bn0 <- conv3_2_0
I0929 10:16:46.317283 22954 net.cpp:509] conv3_2_bn0 -> conv3_2_0 (in-place)
I0929 10:16:46.317520 22954 net.cpp:172] Setting up conv3_2_bn0
I0929 10:16:46.317528 22954 net.cpp:186] Top shape: 128 32 16 16 (1048576)
I0929 10:16:46.317531 22954 net.cpp:194] Memory required for data: 395837952
I0929 10:16:46.317541 22954 layer_factory.hpp:77] Creating layer conv3_2_scale0
I0929 10:16:46.317548 22954 net.cpp:128] Creating Layer conv3_2_scale0
I0929 10:16:46.317551 22954 net.cpp:558] conv3_2_scale0 <- conv3_2_0
I0929 10:16:46.317559 22954 net.cpp:509] conv3_2_scale0 -> conv3_2_0 (in-place)
I0929 10:16:46.317596 22954 layer_factory.hpp:77] Creating layer conv3_2_scale0
I0929 10:16:46.317736 22954 net.cpp:172] Setting up conv3_2_scale0
I0929 10:16:46.317744 22954 net.cpp:186] Top shape: 128 32 16 16 (1048576)
I0929 10:16:46.317747 22954 net.cpp:194] Memory required for data: 400032256
I0929 10:16:46.317754 22954 layer_factory.hpp:77] Creating layer conv3_2_ReLU0
I0929 10:16:46.317796 22954 net.cpp:128] Creating Layer conv3_2_ReLU0
I0929 10:16:46.317801 22954 net.cpp:558] conv3_2_ReLU0 <- conv3_2_0
I0929 10:16:46.317824 22954 net.cpp:509] conv3_2_ReLU0 -> conv3_2_0 (in-place)
I0929 10:16:46.319304 22954 net.cpp:172] Setting up conv3_2_ReLU0
I0929 10:16:46.319330 22954 net.cpp:186] Top shape: 128 32 16 16 (1048576)
I0929 10:16:46.319335 22954 net.cpp:194] Memory required for data: 404226560
I0929 10:16:46.319340 22954 layer_factory.hpp:77] Creating layer conv3_2_1
I0929 10:16:46.319370 22954 net.cpp:128] Creating Layer conv3_2_1
I0929 10:16:46.319376 22954 net.cpp:558] conv3_2_1 <- conv3_2_0
I0929 10:16:46.319386 22954 net.cpp:522] conv3_2_1 -> conv3_2_1
I0929 10:16:46.326087 22954 net.cpp:172] Setting up conv3_2_1
I0929 10:16:46.326113 22954 net.cpp:186] Top shape: 128 32 16 16 (1048576)
I0929 10:16:46.326117 22954 net.cpp:194] Memory required for data: 408420864
I0929 10:16:46.326126 22954 layer_factory.hpp:77] Creating layer conv3_2bn1
I0929 10:16:46.326139 22954 net.cpp:128] Creating Layer conv3_2bn1
I0929 10:16:46.326144 22954 net.cpp:558] conv3_2bn1 <- conv3_2_1
I0929 10:16:46.326153 22954 net.cpp:509] conv3_2bn1 -> conv3_2_1 (in-place)
I0929 10:16:46.326395 22954 net.cpp:172] Setting up conv3_2bn1
I0929 10:16:46.326406 22954 net.cpp:186] Top shape: 128 32 16 16 (1048576)
I0929 10:16:46.326411 22954 net.cpp:194] Memory required for data: 412615168
I0929 10:16:46.326421 22954 layer_factory.hpp:77] Creating layer conv3_2_scale1
I0929 10:16:46.326429 22954 net.cpp:128] Creating Layer conv3_2_scale1
I0929 10:16:46.326434 22954 net.cpp:558] conv3_2_scale1 <- conv3_2_1
I0929 10:16:46.326439 22954 net.cpp:509] conv3_2_scale1 -> conv3_2_1 (in-place)
I0929 10:16:46.326479 22954 layer_factory.hpp:77] Creating layer conv3_2_scale1
I0929 10:16:46.326648 22954 net.cpp:172] Setting up conv3_2_scale1
I0929 10:16:46.326661 22954 net.cpp:186] Top shape: 128 32 16 16 (1048576)
I0929 10:16:46.326665 22954 net.cpp:194] Memory required for data: 416809472
I0929 10:16:46.326673 22954 layer_factory.hpp:77] Creating layer conv3_Eltwise_2
I0929 10:16:46.326683 22954 net.cpp:128] Creating Layer conv3_Eltwise_2
I0929 10:16:46.326687 22954 net.cpp:558] conv3_Eltwise_2 <- conv3_Eltwise_1_conv3_1ReLU_1_0_split_1
I0929 10:16:46.326692 22954 net.cpp:558] conv3_Eltwise_2 <- conv3_2_1
I0929 10:16:46.326699 22954 net.cpp:522] conv3_Eltwise_2 -> conv3_Eltwise_2
I0929 10:16:46.326722 22954 net.cpp:172] Setting up conv3_Eltwise_2
I0929 10:16:46.326730 22954 net.cpp:186] Top shape: 128 32 16 16 (1048576)
I0929 10:16:46.326733 22954 net.cpp:194] Memory required for data: 421003776
I0929 10:16:46.326737 22954 layer_factory.hpp:77] Creating layer conv3_2ReLU_1
I0929 10:16:46.326743 22954 net.cpp:128] Creating Layer conv3_2ReLU_1
I0929 10:16:46.326747 22954 net.cpp:558] conv3_2ReLU_1 <- conv3_Eltwise_2
I0929 10:16:46.326753 22954 net.cpp:509] conv3_2ReLU_1 -> conv3_Eltwise_2 (in-place)
I0929 10:16:46.328152 22954 net.cpp:172] Setting up conv3_2ReLU_1
I0929 10:16:46.328172 22954 net.cpp:186] Top shape: 128 32 16 16 (1048576)
I0929 10:16:46.328177 22954 net.cpp:194] Memory required for data: 425198080
I0929 10:16:46.328181 22954 layer_factory.hpp:77] Creating layer conv3_Eltwise_2_conv3_2ReLU_1_0_split
I0929 10:16:46.328207 22954 net.cpp:128] Creating Layer conv3_Eltwise_2_conv3_2ReLU_1_0_split
I0929 10:16:46.328213 22954 net.cpp:558] conv3_Eltwise_2_conv3_2ReLU_1_0_split <- conv3_Eltwise_2
I0929 10:16:46.328224 22954 net.cpp:522] conv3_Eltwise_2_conv3_2ReLU_1_0_split -> conv3_Eltwise_2_conv3_2ReLU_1_0_split_0
I0929 10:16:46.328233 22954 net.cpp:522] conv3_Eltwise_2_conv3_2ReLU_1_0_split -> conv3_Eltwise_2_conv3_2ReLU_1_0_split_1
I0929 10:16:46.328281 22954 net.cpp:172] Setting up conv3_Eltwise_2_conv3_2ReLU_1_0_split
I0929 10:16:46.328289 22954 net.cpp:186] Top shape: 128 32 16 16 (1048576)
I0929 10:16:46.328294 22954 net.cpp:186] Top shape: 128 32 16 16 (1048576)
I0929 10:16:46.328299 22954 net.cpp:194] Memory required for data: 433586688
I0929 10:16:46.328302 22954 layer_factory.hpp:77] Creating layer conv3_3_0
I0929 10:16:46.328316 22954 net.cpp:128] Creating Layer conv3_3_0
I0929 10:16:46.328320 22954 net.cpp:558] conv3_3_0 <- conv3_Eltwise_2_conv3_2ReLU_1_0_split_0
I0929 10:16:46.328327 22954 net.cpp:522] conv3_3_0 -> conv3_3_0
I0929 10:16:46.334909 22954 net.cpp:172] Setting up conv3_3_0
I0929 10:16:46.334935 22954 net.cpp:186] Top shape: 128 32 16 16 (1048576)
I0929 10:16:46.334939 22954 net.cpp:194] Memory required for data: 437780992
I0929 10:16:46.334949 22954 layer_factory.hpp:77] Creating layer conv3_3_bn0
I0929 10:16:46.334978 22954 net.cpp:128] Creating Layer conv3_3_bn0
I0929 10:16:46.334985 22954 net.cpp:558] conv3_3_bn0 <- conv3_3_0
I0929 10:16:46.334995 22954 net.cpp:509] conv3_3_bn0 -> conv3_3_0 (in-place)
I0929 10:16:46.335242 22954 net.cpp:172] Setting up conv3_3_bn0
I0929 10:16:46.335253 22954 net.cpp:186] Top shape: 128 32 16 16 (1048576)
I0929 10:16:46.335258 22954 net.cpp:194] Memory required for data: 441975296
I0929 10:16:46.335266 22954 layer_factory.hpp:77] Creating layer conv3_3_scale0
I0929 10:16:46.335275 22954 net.cpp:128] Creating Layer conv3_3_scale0
I0929 10:16:46.335279 22954 net.cpp:558] conv3_3_scale0 <- conv3_3_0
I0929 10:16:46.335285 22954 net.cpp:509] conv3_3_scale0 -> conv3_3_0 (in-place)
I0929 10:16:46.335326 22954 layer_factory.hpp:77] Creating layer conv3_3_scale0
I0929 10:16:46.335469 22954 net.cpp:172] Setting up conv3_3_scale0
I0929 10:16:46.335476 22954 net.cpp:186] Top shape: 128 32 16 16 (1048576)
I0929 10:16:46.335480 22954 net.cpp:194] Memory required for data: 446169600
I0929 10:16:46.335489 22954 layer_factory.hpp:77] Creating layer conv3_3_ReLU0
I0929 10:16:46.335494 22954 net.cpp:128] Creating Layer conv3_3_ReLU0
I0929 10:16:46.335500 22954 net.cpp:558] conv3_3_ReLU0 <- conv3_3_0
I0929 10:16:46.335507 22954 net.cpp:509] conv3_3_ReLU0 -> conv3_3_0 (in-place)
I0929 10:16:46.337005 22954 net.cpp:172] Setting up conv3_3_ReLU0
I0929 10:16:46.337025 22954 net.cpp:186] Top shape: 128 32 16 16 (1048576)
I0929 10:16:46.337029 22954 net.cpp:194] Memory required for data: 450363904
I0929 10:16:46.337034 22954 layer_factory.hpp:77] Creating layer conv3_3_1
I0929 10:16:46.337047 22954 net.cpp:128] Creating Layer conv3_3_1
I0929 10:16:46.337052 22954 net.cpp:558] conv3_3_1 <- conv3_3_0
I0929 10:16:46.337062 22954 net.cpp:522] conv3_3_1 -> conv3_3_1
I0929 10:16:46.343735 22954 net.cpp:172] Setting up conv3_3_1
I0929 10:16:46.343765 22954 net.cpp:186] Top shape: 128 32 16 16 (1048576)
I0929 10:16:46.343770 22954 net.cpp:194] Memory required for data: 454558208
I0929 10:16:46.343780 22954 layer_factory.hpp:77] Creating layer conv3_3bn1
I0929 10:16:46.343801 22954 net.cpp:128] Creating Layer conv3_3bn1
I0929 10:16:46.343806 22954 net.cpp:558] conv3_3bn1 <- conv3_3_1
I0929 10:16:46.343814 22954 net.cpp:509] conv3_3bn1 -> conv3_3_1 (in-place)
I0929 10:16:46.344058 22954 net.cpp:172] Setting up conv3_3bn1
I0929 10:16:46.344072 22954 net.cpp:186] Top shape: 128 32 16 16 (1048576)
I0929 10:16:46.344076 22954 net.cpp:194] Memory required for data: 458752512
I0929 10:16:46.344086 22954 layer_factory.hpp:77] Creating layer conv3_3_scale1
I0929 10:16:46.344094 22954 net.cpp:128] Creating Layer conv3_3_scale1
I0929 10:16:46.344097 22954 net.cpp:558] conv3_3_scale1 <- conv3_3_1
I0929 10:16:46.344105 22954 net.cpp:509] conv3_3_scale1 -> conv3_3_1 (in-place)
I0929 10:16:46.344143 22954 layer_factory.hpp:77] Creating layer conv3_3_scale1
I0929 10:16:46.344287 22954 net.cpp:172] Setting up conv3_3_scale1
I0929 10:16:46.344295 22954 net.cpp:186] Top shape: 128 32 16 16 (1048576)
I0929 10:16:46.344298 22954 net.cpp:194] Memory required for data: 462946816
I0929 10:16:46.344306 22954 layer_factory.hpp:77] Creating layer conv3_Eltwise_3
I0929 10:16:46.344313 22954 net.cpp:128] Creating Layer conv3_Eltwise_3
I0929 10:16:46.344318 22954 net.cpp:558] conv3_Eltwise_3 <- conv3_Eltwise_2_conv3_2ReLU_1_0_split_1
I0929 10:16:46.344323 22954 net.cpp:558] conv3_Eltwise_3 <- conv3_3_1
I0929 10:16:46.344331 22954 net.cpp:522] conv3_Eltwise_3 -> conv3_Eltwise_3
I0929 10:16:46.344352 22954 net.cpp:172] Setting up conv3_Eltwise_3
I0929 10:16:46.344362 22954 net.cpp:186] Top shape: 128 32 16 16 (1048576)
I0929 10:16:46.344365 22954 net.cpp:194] Memory required for data: 467141120
I0929 10:16:46.344369 22954 layer_factory.hpp:77] Creating layer conv3_3ReLU_1
I0929 10:16:46.344375 22954 net.cpp:128] Creating Layer conv3_3ReLU_1
I0929 10:16:46.344379 22954 net.cpp:558] conv3_3ReLU_1 <- conv3_Eltwise_3
I0929 10:16:46.344385 22954 net.cpp:509] conv3_3ReLU_1 -> conv3_Eltwise_3 (in-place)
I0929 10:16:46.345803 22954 net.cpp:172] Setting up conv3_3ReLU_1
I0929 10:16:46.345844 22954 net.cpp:186] Top shape: 128 32 16 16 (1048576)
I0929 10:16:46.345849 22954 net.cpp:194] Memory required for data: 471335424
I0929 10:16:46.345854 22954 layer_factory.hpp:77] Creating layer conv3_Eltwise_3_conv3_3ReLU_1_0_split
I0929 10:16:46.345865 22954 net.cpp:128] Creating Layer conv3_Eltwise_3_conv3_3ReLU_1_0_split
I0929 10:16:46.345870 22954 net.cpp:558] conv3_Eltwise_3_conv3_3ReLU_1_0_split <- conv3_Eltwise_3
I0929 10:16:46.345877 22954 net.cpp:522] conv3_Eltwise_3_conv3_3ReLU_1_0_split -> conv3_Eltwise_3_conv3_3ReLU_1_0_split_0
I0929 10:16:46.345892 22954 net.cpp:522] conv3_Eltwise_3_conv3_3ReLU_1_0_split -> conv3_Eltwise_3_conv3_3ReLU_1_0_split_1
I0929 10:16:46.345959 22954 net.cpp:172] Setting up conv3_Eltwise_3_conv3_3ReLU_1_0_split
I0929 10:16:46.345978 22954 net.cpp:186] Top shape: 128 32 16 16 (1048576)
I0929 10:16:46.345983 22954 net.cpp:186] Top shape: 128 32 16 16 (1048576)
I0929 10:16:46.345988 22954 net.cpp:194] Memory required for data: 479724032
I0929 10:16:46.345991 22954 layer_factory.hpp:77] Creating layer conv4_1_0
I0929 10:16:46.346004 22954 net.cpp:128] Creating Layer conv4_1_0
I0929 10:16:46.346009 22954 net.cpp:558] conv4_1_0 <- conv3_Eltwise_3_conv3_3ReLU_1_0_split_0
I0929 10:16:46.346020 22954 net.cpp:522] conv4_1_0 -> conv4_1_0
I0929 10:16:46.352728 22954 net.cpp:172] Setting up conv4_1_0
I0929 10:16:46.352758 22954 net.cpp:186] Top shape: 128 64 8 8 (524288)
I0929 10:16:46.352763 22954 net.cpp:194] Memory required for data: 481821184
I0929 10:16:46.352774 22954 layer_factory.hpp:77] Creating layer conv4_1_bn0
I0929 10:16:46.352784 22954 net.cpp:128] Creating Layer conv4_1_bn0
I0929 10:16:46.352789 22954 net.cpp:558] conv4_1_bn0 <- conv4_1_0
I0929 10:16:46.352802 22954 net.cpp:509] conv4_1_bn0 -> conv4_1_0 (in-place)
I0929 10:16:46.353065 22954 net.cpp:172] Setting up conv4_1_bn0
I0929 10:16:46.353076 22954 net.cpp:186] Top shape: 128 64 8 8 (524288)
I0929 10:16:46.353081 22954 net.cpp:194] Memory required for data: 483918336
I0929 10:16:46.353091 22954 layer_factory.hpp:77] Creating layer conv4_1_scale0
I0929 10:16:46.353098 22954 net.cpp:128] Creating Layer conv4_1_scale0
I0929 10:16:46.353102 22954 net.cpp:558] conv4_1_scale0 <- conv4_1_0
I0929 10:16:46.353111 22954 net.cpp:509] conv4_1_scale0 -> conv4_1_0 (in-place)
I0929 10:16:46.353150 22954 layer_factory.hpp:77] Creating layer conv4_1_scale0
I0929 10:16:46.353296 22954 net.cpp:172] Setting up conv4_1_scale0
I0929 10:16:46.353303 22954 net.cpp:186] Top shape: 128 64 8 8 (524288)
I0929 10:16:46.353307 22954 net.cpp:194] Memory required for data: 486015488
I0929 10:16:46.353315 22954 layer_factory.hpp:77] Creating layer conv4_1_ReLU0
I0929 10:16:46.353322 22954 net.cpp:128] Creating Layer conv4_1_ReLU0
I0929 10:16:46.353325 22954 net.cpp:558] conv4_1_ReLU0 <- conv4_1_0
I0929 10:16:46.353333 22954 net.cpp:509] conv4_1_ReLU0 -> conv4_1_0 (in-place)
I0929 10:16:46.354606 22954 net.cpp:172] Setting up conv4_1_ReLU0
I0929 10:16:46.354629 22954 net.cpp:186] Top shape: 128 64 8 8 (524288)
I0929 10:16:46.354632 22954 net.cpp:194] Memory required for data: 488112640
I0929 10:16:46.354637 22954 layer_factory.hpp:77] Creating layer conv4_1_1
I0929 10:16:46.354650 22954 net.cpp:128] Creating Layer conv4_1_1
I0929 10:16:46.354656 22954 net.cpp:558] conv4_1_1 <- conv4_1_0
I0929 10:16:46.354666 22954 net.cpp:522] conv4_1_1 -> conv4_1_1
I0929 10:16:46.361544 22954 net.cpp:172] Setting up conv4_1_1
I0929 10:16:46.361573 22954 net.cpp:186] Top shape: 128 64 8 8 (524288)
I0929 10:16:46.361578 22954 net.cpp:194] Memory required for data: 490209792
I0929 10:16:46.361588 22954 layer_factory.hpp:77] Creating layer conv4_1bn1
I0929 10:16:46.361599 22954 net.cpp:128] Creating Layer conv4_1bn1
I0929 10:16:46.361604 22954 net.cpp:558] conv4_1bn1 <- conv4_1_1
I0929 10:16:46.361611 22954 net.cpp:509] conv4_1bn1 -> conv4_1_1 (in-place)
I0929 10:16:46.361883 22954 net.cpp:172] Setting up conv4_1bn1
I0929 10:16:46.361891 22954 net.cpp:186] Top shape: 128 64 8 8 (524288)
I0929 10:16:46.361896 22954 net.cpp:194] Memory required for data: 492306944
I0929 10:16:46.361924 22954 layer_factory.hpp:77] Creating layer conv4_1_scale1
I0929 10:16:46.361943 22954 net.cpp:128] Creating Layer conv4_1_scale1
I0929 10:16:46.361948 22954 net.cpp:558] conv4_1_scale1 <- conv4_1_1
I0929 10:16:46.361953 22954 net.cpp:509] conv4_1_scale1 -> conv4_1_1 (in-place)
I0929 10:16:46.361997 22954 layer_factory.hpp:77] Creating layer conv4_1_scale1
I0929 10:16:46.362145 22954 net.cpp:172] Setting up conv4_1_scale1
I0929 10:16:46.362181 22954 net.cpp:186] Top shape: 128 64 8 8 (524288)
I0929 10:16:46.362186 22954 net.cpp:194] Memory required for data: 494404096
I0929 10:16:46.362195 22954 layer_factory.hpp:77] Creating layer conv4_1_down
I0929 10:16:46.362207 22954 net.cpp:128] Creating Layer conv4_1_down
I0929 10:16:46.362212 22954 net.cpp:558] conv4_1_down <- conv3_Eltwise_3_conv3_3ReLU_1_0_split_1
I0929 10:16:46.362223 22954 net.cpp:522] conv4_1_down -> conv4_1_down
I0929 10:16:46.368014 22954 net.cpp:172] Setting up conv4_1_down
I0929 10:16:46.368039 22954 net.cpp:186] Top shape: 128 64 8 8 (524288)
I0929 10:16:46.368044 22954 net.cpp:194] Memory required for data: 496501248
I0929 10:16:46.368054 22954 layer_factory.hpp:77] Creating layer conv4_1_bn_down
I0929 10:16:46.368065 22954 net.cpp:128] Creating Layer conv4_1_bn_down
I0929 10:16:46.368072 22954 net.cpp:558] conv4_1_bn_down <- conv4_1_down
I0929 10:16:46.368079 22954 net.cpp:509] conv4_1_bn_down -> conv4_1_down (in-place)
I0929 10:16:46.368335 22954 net.cpp:172] Setting up conv4_1_bn_down
I0929 10:16:46.368347 22954 net.cpp:186] Top shape: 128 64 8 8 (524288)
I0929 10:16:46.368351 22954 net.cpp:194] Memory required for data: 498598400
I0929 10:16:46.368361 22954 layer_factory.hpp:77] Creating layer conv4_1_scale_down
I0929 10:16:46.368371 22954 net.cpp:128] Creating Layer conv4_1_scale_down
I0929 10:16:46.368376 22954 net.cpp:558] conv4_1_scale_down <- conv4_1_down
I0929 10:16:46.368381 22954 net.cpp:509] conv4_1_scale_down -> conv4_1_down (in-place)
I0929 10:16:46.368422 22954 layer_factory.hpp:77] Creating layer conv4_1_scale_down
I0929 10:16:46.368569 22954 net.cpp:172] Setting up conv4_1_scale_down
I0929 10:16:46.368577 22954 net.cpp:186] Top shape: 128 64 8 8 (524288)
I0929 10:16:46.368582 22954 net.cpp:194] Memory required for data: 500695552
I0929 10:16:46.368588 22954 layer_factory.hpp:77] Creating layer conv4_Eltwise_1
I0929 10:16:46.368597 22954 net.cpp:128] Creating Layer conv4_Eltwise_1
I0929 10:16:46.368600 22954 net.cpp:558] conv4_Eltwise_1 <- conv4_1_1
I0929 10:16:46.368605 22954 net.cpp:558] conv4_Eltwise_1 <- conv4_1_down
I0929 10:16:46.368614 22954 net.cpp:522] conv4_Eltwise_1 -> conv4_Eltwise_1
I0929 10:16:46.368636 22954 net.cpp:172] Setting up conv4_Eltwise_1
I0929 10:16:46.368643 22954 net.cpp:186] Top shape: 128 64 8 8 (524288)
I0929 10:16:46.368646 22954 net.cpp:194] Memory required for data: 502792704
I0929 10:16:46.368650 22954 layer_factory.hpp:77] Creating layer conv4_1ReLU_1
I0929 10:16:46.368685 22954 net.cpp:128] Creating Layer conv4_1ReLU_1
I0929 10:16:46.368691 22954 net.cpp:558] conv4_1ReLU_1 <- conv4_Eltwise_1
I0929 10:16:46.368696 22954 net.cpp:509] conv4_1ReLU_1 -> conv4_Eltwise_1 (in-place)
I0929 10:16:46.370090 22954 net.cpp:172] Setting up conv4_1ReLU_1
I0929 10:16:46.370110 22954 net.cpp:186] Top shape: 128 64 8 8 (524288)
I0929 10:16:46.370113 22954 net.cpp:194] Memory required for data: 504889856
I0929 10:16:46.370118 22954 layer_factory.hpp:77] Creating layer conv4_Eltwise_1_conv4_1ReLU_1_0_split
I0929 10:16:46.370127 22954 net.cpp:128] Creating Layer conv4_Eltwise_1_conv4_1ReLU_1_0_split
I0929 10:16:46.370133 22954 net.cpp:558] conv4_Eltwise_1_conv4_1ReLU_1_0_split <- conv4_Eltwise_1
I0929 10:16:46.370141 22954 net.cpp:522] conv4_Eltwise_1_conv4_1ReLU_1_0_split -> conv4_Eltwise_1_conv4_1ReLU_1_0_split_0
I0929 10:16:46.370151 22954 net.cpp:522] conv4_Eltwise_1_conv4_1ReLU_1_0_split -> conv4_Eltwise_1_conv4_1ReLU_1_0_split_1
I0929 10:16:46.370215 22954 net.cpp:172] Setting up conv4_Eltwise_1_conv4_1ReLU_1_0_split
I0929 10:16:46.370223 22954 net.cpp:186] Top shape: 128 64 8 8 (524288)
I0929 10:16:46.370247 22954 net.cpp:186] Top shape: 128 64 8 8 (524288)
I0929 10:16:46.370251 22954 net.cpp:194] Memory required for data: 509084160
I0929 10:16:46.370255 22954 layer_factory.hpp:77] Creating layer conv4_2_0
I0929 10:16:46.370270 22954 net.cpp:128] Creating Layer conv4_2_0
I0929 10:16:46.370273 22954 net.cpp:558] conv4_2_0 <- conv4_Eltwise_1_conv4_1ReLU_1_0_split_0
I0929 10:16:46.370283 22954 net.cpp:522] conv4_2_0 -> conv4_2_0
I0929 10:16:46.376834 22954 net.cpp:172] Setting up conv4_2_0
I0929 10:16:46.376860 22954 net.cpp:186] Top shape: 128 64 8 8 (524288)
I0929 10:16:46.376865 22954 net.cpp:194] Memory required for data: 511181312
I0929 10:16:46.376879 22954 layer_factory.hpp:77] Creating layer conv4_2_bn0
I0929 10:16:46.376890 22954 net.cpp:128] Creating Layer conv4_2_bn0
I0929 10:16:46.376896 22954 net.cpp:558] conv4_2_bn0 <- conv4_2_0
I0929 10:16:46.376905 22954 net.cpp:509] conv4_2_bn0 -> conv4_2_0 (in-place)
I0929 10:16:46.377157 22954 net.cpp:172] Setting up conv4_2_bn0
I0929 10:16:46.377167 22954 net.cpp:186] Top shape: 128 64 8 8 (524288)
I0929 10:16:46.377171 22954 net.cpp:194] Memory required for data: 513278464
I0929 10:16:46.377180 22954 layer_factory.hpp:77] Creating layer conv4_2_scale0
I0929 10:16:46.377187 22954 net.cpp:128] Creating Layer conv4_2_scale0
I0929 10:16:46.377192 22954 net.cpp:558] conv4_2_scale0 <- conv4_2_0
I0929 10:16:46.377200 22954 net.cpp:509] conv4_2_scale0 -> conv4_2_0 (in-place)
I0929 10:16:46.377239 22954 layer_factory.hpp:77] Creating layer conv4_2_scale0
I0929 10:16:46.377418 22954 net.cpp:172] Setting up conv4_2_scale0
I0929 10:16:46.377429 22954 net.cpp:186] Top shape: 128 64 8 8 (524288)
I0929 10:16:46.377432 22954 net.cpp:194] Memory required for data: 515375616
I0929 10:16:46.377440 22954 layer_factory.hpp:77] Creating layer conv4_2_ReLU0
I0929 10:16:46.377446 22954 net.cpp:128] Creating Layer conv4_2_ReLU0
I0929 10:16:46.377450 22954 net.cpp:558] conv4_2_ReLU0 <- conv4_2_0
I0929 10:16:46.377456 22954 net.cpp:509] conv4_2_ReLU0 -> conv4_2_0 (in-place)
I0929 10:16:46.378926 22954 net.cpp:172] Setting up conv4_2_ReLU0
I0929 10:16:46.378952 22954 net.cpp:186] Top shape: 128 64 8 8 (524288)
I0929 10:16:46.378957 22954 net.cpp:194] Memory required for data: 517472768
I0929 10:16:46.378962 22954 layer_factory.hpp:77] Creating layer conv4_2_1
I0929 10:16:46.378985 22954 net.cpp:128] Creating Layer conv4_2_1
I0929 10:16:46.378999 22954 net.cpp:558] conv4_2_1 <- conv4_2_0
I0929 10:16:46.379007 22954 net.cpp:522] conv4_2_1 -> conv4_2_1
I0929 10:16:46.385844 22954 net.cpp:172] Setting up conv4_2_1
I0929 10:16:46.385872 22954 net.cpp:186] Top shape: 128 64 8 8 (524288)
I0929 10:16:46.385877 22954 net.cpp:194] Memory required for data: 519569920
I0929 10:16:46.385887 22954 layer_factory.hpp:77] Creating layer conv4_2bn1
I0929 10:16:46.385896 22954 net.cpp:128] Creating Layer conv4_2bn1
I0929 10:16:46.385901 22954 net.cpp:558] conv4_2bn1 <- conv4_2_1
I0929 10:16:46.385910 22954 net.cpp:509] conv4_2bn1 -> conv4_2_1 (in-place)
I0929 10:16:46.386196 22954 net.cpp:172] Setting up conv4_2bn1
I0929 10:16:46.386210 22954 net.cpp:186] Top shape: 128 64 8 8 (524288)
I0929 10:16:46.386215 22954 net.cpp:194] Memory required for data: 521667072
I0929 10:16:46.386238 22954 layer_factory.hpp:77] Creating layer conv4_2_scale1
I0929 10:16:46.386246 22954 net.cpp:128] Creating Layer conv4_2_scale1
I0929 10:16:46.386250 22954 net.cpp:558] conv4_2_scale1 <- conv4_2_1
I0929 10:16:46.386260 22954 net.cpp:509] conv4_2_scale1 -> conv4_2_1 (in-place)
I0929 10:16:46.386301 22954 layer_factory.hpp:77] Creating layer conv4_2_scale1
I0929 10:16:46.386446 22954 net.cpp:172] Setting up conv4_2_scale1
I0929 10:16:46.386454 22954 net.cpp:186] Top shape: 128 64 8 8 (524288)
I0929 10:16:46.386457 22954 net.cpp:194] Memory required for data: 523764224
I0929 10:16:46.386466 22954 layer_factory.hpp:77] Creating layer conv4_Eltwise_2
I0929 10:16:46.386471 22954 net.cpp:128] Creating Layer conv4_Eltwise_2
I0929 10:16:46.386476 22954 net.cpp:558] conv4_Eltwise_2 <- conv4_Eltwise_1_conv4_1ReLU_1_0_split_1
I0929 10:16:46.386499 22954 net.cpp:558] conv4_Eltwise_2 <- conv4_2_1
I0929 10:16:46.386507 22954 net.cpp:522] conv4_Eltwise_2 -> conv4_Eltwise_2
I0929 10:16:46.386528 22954 net.cpp:172] Setting up conv4_Eltwise_2
I0929 10:16:46.386535 22954 net.cpp:186] Top shape: 128 64 8 8 (524288)
I0929 10:16:46.386539 22954 net.cpp:194] Memory required for data: 525861376
I0929 10:16:46.386543 22954 layer_factory.hpp:77] Creating layer conv4_2ReLU_1
I0929 10:16:46.386551 22954 net.cpp:128] Creating Layer conv4_2ReLU_1
I0929 10:16:46.386556 22954 net.cpp:558] conv4_2ReLU_1 <- conv4_Eltwise_2
I0929 10:16:46.386561 22954 net.cpp:509] conv4_2ReLU_1 -> conv4_Eltwise_2 (in-place)
I0929 10:16:46.387758 22954 net.cpp:172] Setting up conv4_2ReLU_1
I0929 10:16:46.387775 22954 net.cpp:186] Top shape: 128 64 8 8 (524288)
I0929 10:16:46.387780 22954 net.cpp:194] Memory required for data: 527958528
I0929 10:16:46.387784 22954 layer_factory.hpp:77] Creating layer conv4_Eltwise_2_conv4_2ReLU_1_0_split
I0929 10:16:46.387794 22954 net.cpp:128] Creating Layer conv4_Eltwise_2_conv4_2ReLU_1_0_split
I0929 10:16:46.387799 22954 net.cpp:558] conv4_Eltwise_2_conv4_2ReLU_1_0_split <- conv4_Eltwise_2
I0929 10:16:46.387809 22954 net.cpp:522] conv4_Eltwise_2_conv4_2ReLU_1_0_split -> conv4_Eltwise_2_conv4_2ReLU_1_0_split_0
I0929 10:16:46.387817 22954 net.cpp:522] conv4_Eltwise_2_conv4_2ReLU_1_0_split -> conv4_Eltwise_2_conv4_2ReLU_1_0_split_1
I0929 10:16:46.387867 22954 net.cpp:172] Setting up conv4_Eltwise_2_conv4_2ReLU_1_0_split
I0929 10:16:46.387876 22954 net.cpp:186] Top shape: 128 64 8 8 (524288)
I0929 10:16:46.387882 22954 net.cpp:186] Top shape: 128 64 8 8 (524288)
I0929 10:16:46.387887 22954 net.cpp:194] Memory required for data: 532152832
I0929 10:16:46.387890 22954 layer_factory.hpp:77] Creating layer conv4_3_0
I0929 10:16:46.387902 22954 net.cpp:128] Creating Layer conv4_3_0
I0929 10:16:46.387907 22954 net.cpp:558] conv4_3_0 <- conv4_Eltwise_2_conv4_2ReLU_1_0_split_0
I0929 10:16:46.387913 22954 net.cpp:522] conv4_3_0 -> conv4_3_0
I0929 10:16:46.395859 22954 net.cpp:172] Setting up conv4_3_0
I0929 10:16:46.395941 22954 net.cpp:186] Top shape: 128 64 8 8 (524288)
I0929 10:16:46.395961 22954 net.cpp:194] Memory required for data: 534249984
I0929 10:16:46.396001 22954 layer_factory.hpp:77] Creating layer conv4_3_bn0
I0929 10:16:46.396057 22954 net.cpp:128] Creating Layer conv4_3_bn0
I0929 10:16:46.396090 22954 net.cpp:558] conv4_3_bn0 <- conv4_3_0
I0929 10:16:46.396126 22954 net.cpp:509] conv4_3_bn0 -> conv4_3_0 (in-place)
I0929 10:16:46.397236 22954 net.cpp:172] Setting up conv4_3_bn0
I0929 10:16:46.397272 22954 net.cpp:186] Top shape: 128 64 8 8 (524288)
I0929 10:16:46.397289 22954 net.cpp:194] Memory required for data: 536347136
I0929 10:16:46.399629 22954 layer_factory.hpp:77] Creating layer conv4_3_scale0
I0929 10:16:46.399652 22954 net.cpp:128] Creating Layer conv4_3_scale0
I0929 10:16:46.399658 22954 net.cpp:558] conv4_3_scale0 <- conv4_3_0
I0929 10:16:46.399672 22954 net.cpp:509] conv4_3_scale0 -> conv4_3_0 (in-place)
I0929 10:16:46.399750 22954 layer_factory.hpp:77] Creating layer conv4_3_scale0
I0929 10:16:46.399951 22954 net.cpp:172] Setting up conv4_3_scale0
I0929 10:16:46.399967 22954 net.cpp:186] Top shape: 128 64 8 8 (524288)
I0929 10:16:46.399972 22954 net.cpp:194] Memory required for data: 538444288
I0929 10:16:46.399982 22954 layer_factory.hpp:77] Creating layer conv4_3_ReLU0
I0929 10:16:46.399991 22954 net.cpp:128] Creating Layer conv4_3_ReLU0
I0929 10:16:46.399997 22954 net.cpp:558] conv4_3_ReLU0 <- conv4_3_0
I0929 10:16:46.400007 22954 net.cpp:509] conv4_3_ReLU0 -> conv4_3_0 (in-place)
I0929 10:16:46.400312 22954 net.cpp:172] Setting up conv4_3_ReLU0
I0929 10:16:46.400329 22954 net.cpp:186] Top shape: 128 64 8 8 (524288)
I0929 10:16:46.400336 22954 net.cpp:194] Memory required for data: 540541440
I0929 10:16:46.400341 22954 layer_factory.hpp:77] Creating layer conv4_3_1
I0929 10:16:46.400362 22954 net.cpp:128] Creating Layer conv4_3_1
I0929 10:16:46.400367 22954 net.cpp:558] conv4_3_1 <- conv4_3_0
I0929 10:16:46.400380 22954 net.cpp:522] conv4_3_1 -> conv4_3_1
I0929 10:16:46.406484 22954 net.cpp:172] Setting up conv4_3_1
I0929 10:16:46.406517 22954 net.cpp:186] Top shape: 128 64 8 8 (524288)
I0929 10:16:46.406523 22954 net.cpp:194] Memory required for data: 542638592
I0929 10:16:46.406535 22954 layer_factory.hpp:77] Creating layer conv4_3bn1
I0929 10:16:46.406550 22954 net.cpp:128] Creating Layer conv4_3bn1
I0929 10:16:46.406563 22954 net.cpp:558] conv4_3bn1 <- conv4_3_1
I0929 10:16:46.406572 22954 net.cpp:509] conv4_3bn1 -> conv4_3_1 (in-place)
I0929 10:16:46.406908 22954 net.cpp:172] Setting up conv4_3bn1
I0929 10:16:46.406920 22954 net.cpp:186] Top shape: 128 64 8 8 (524288)
I0929 10:16:46.406925 22954 net.cpp:194] Memory required for data: 544735744
I0929 10:16:46.406937 22954 layer_factory.hpp:77] Creating layer conv4_3_scale1
I0929 10:16:46.406949 22954 net.cpp:128] Creating Layer conv4_3_scale1
I0929 10:16:46.406955 22954 net.cpp:558] conv4_3_scale1 <- conv4_3_1
I0929 10:16:46.406965 22954 net.cpp:509] conv4_3_scale1 -> conv4_3_1 (in-place)
I0929 10:16:46.407022 22954 layer_factory.hpp:77] Creating layer conv4_3_scale1
I0929 10:16:46.407213 22954 net.cpp:172] Setting up conv4_3_scale1
I0929 10:16:46.407225 22954 net.cpp:186] Top shape: 128 64 8 8 (524288)
I0929 10:16:46.407232 22954 net.cpp:194] Memory required for data: 546832896
I0929 10:16:46.407240 22954 layer_factory.hpp:77] Creating layer conv4_Eltwise_3
I0929 10:16:46.407256 22954 net.cpp:128] Creating Layer conv4_Eltwise_3
I0929 10:16:46.407266 22954 net.cpp:558] conv4_Eltwise_3 <- conv4_Eltwise_2_conv4_2ReLU_1_0_split_1
I0929 10:16:46.407274 22954 net.cpp:558] conv4_Eltwise_3 <- conv4_3_1
I0929 10:16:46.407284 22954 net.cpp:522] conv4_Eltwise_3 -> conv4_Eltwise_3
I0929 10:16:46.407311 22954 net.cpp:172] Setting up conv4_Eltwise_3
I0929 10:16:46.407322 22954 net.cpp:186] Top shape: 128 64 8 8 (524288)
I0929 10:16:46.407327 22954 net.cpp:194] Memory required for data: 548930048
I0929 10:16:46.407337 22954 layer_factory.hpp:77] Creating layer conv4_3ReLU_1
I0929 10:16:46.407348 22954 net.cpp:128] Creating Layer conv4_3ReLU_1
I0929 10:16:46.407357 22954 net.cpp:558] conv4_3ReLU_1 <- conv4_Eltwise_3
I0929 10:16:46.407366 22954 net.cpp:509] conv4_3ReLU_1 -> conv4_Eltwise_3 (in-place)
I0929 10:16:46.408304 22954 net.cpp:172] Setting up conv4_3ReLU_1
I0929 10:16:46.408325 22954 net.cpp:186] Top shape: 128 64 8 8 (524288)
I0929 10:16:46.408330 22954 net.cpp:194] Memory required for data: 551027200
I0929 10:16:46.408336 22954 layer_factory.hpp:77] Creating layer Pooling1
I0929 10:16:46.408349 22954 net.cpp:128] Creating Layer Pooling1
I0929 10:16:46.408360 22954 net.cpp:558] Pooling1 <- conv4_Eltwise_3
I0929 10:16:46.408372 22954 net.cpp:522] Pooling1 -> Pooling1
I0929 10:16:46.410537 22954 net.cpp:172] Setting up Pooling1
I0929 10:16:46.410557 22954 net.cpp:186] Top shape: 128 64 1 1 (8192)
I0929 10:16:46.410562 22954 net.cpp:194] Memory required for data: 551059968
I0929 10:16:46.410567 22954 layer_factory.hpp:77] Creating layer fc1
I0929 10:16:46.410581 22954 net.cpp:128] Creating Layer fc1
I0929 10:16:46.410590 22954 net.cpp:558] fc1 <- Pooling1
I0929 10:16:46.410600 22954 net.cpp:522] fc1 -> fc1
I0929 10:16:46.410785 22954 net.cpp:172] Setting up fc1
I0929 10:16:46.410796 22954 net.cpp:186] Top shape: 128 10 (1280)
I0929 10:16:46.410800 22954 net.cpp:194] Memory required for data: 551065088
I0929 10:16:46.410810 22954 layer_factory.hpp:77] Creating layer Softmax1
I0929 10:16:46.410818 22954 net.cpp:128] Creating Layer Softmax1
I0929 10:16:46.410826 22954 net.cpp:558] Softmax1 <- fc1
I0929 10:16:46.410832 22954 net.cpp:558] Softmax1 <- label
I0929 10:16:46.410842 22954 net.cpp:522] Softmax1 -> Softmax1
…
I0929 10:16:46.414937 22954 solver.cpp:277] Creating test net (#0) specified by test_net file: ./test_ResNet_20.prototxt
I0929 10:16:46.415721 22954 net.cpp:82] Initializing net from parameters: 
name: "ResNet-20"
state {
  phase: TEST
}
layer {
  name: "Data1"
  type: "Data"
  top: "data"
  top: "label"
  transform_param {
    scale: 0.00390625
    mirror: false
    mean_value: 125.3
    mean_value: 122.9
    mean_value: 113.8
  }
  data_param {
    source: "/home/lijianfei/datasets/cifar10_40/test_lmdb"
    batch_size: 10
    backend: LMDB
  }
  image_data_param {
    shuffle: false
  }
}
layer {
  name: "conv1"
  type: "Convolution"
  bottom: "data"
  top: "conv1"
  param {
    lr_mult: 1
    decay_mult: 1
  }
  param {
    lr_mult: 2
    decay_mult: 0
  }
  convolution_param {
    num_output: 16
    bias_term: true
    pad: 1
    kernel_size: 3
    stride: 1
    weight_filler {
      type: "msra"
    }
    bias_filler {
      type: "constant"
      value: 0
    }
  }
}
layer {
  name: "conv1/bn"
  type: "BatchNorm"
  bottom: "conv1"
  top: "conv1"
  param {
    lr_mult: 0
    decay_mult: 0
  }
  param {
    lr_mult: 0
    decay_mult: 0
  }
  param {
    lr_mult: 0
    decay_mult: 0
  }
  batch_norm_param {
    use_global_stats: true
  }
}
layer {
  name: "conv1/scale"
  type: "Scale"
  bottom: "conv1"
  top: "conv1"
  scale_param {
    bias_term: true
  }
}
layer {
  name: "conv1/ReLU"
  type: "ReLU"
  bottom: "conv1"
  top: "conv1"
}
layer {
  name: "conv2_1_0"
  type: "Convolution"
  bottom: "conv1"
  top: "conv2_1_0"
  param {
    lr_mult: 1
    decay_mult: 1
  }
  param {
    lr_mult: 2
    decay_mult: 0
  }
  convolution_param {
    num_output: 16
    bias_term: true
    pad: 1
    kernel_size: 3
    stride: 1
    weight_filler {
      type: "msra"
    }
    bias_filler {
      type: "constant"
      value: 0
    }
  }
}
layer {
  name: "conv2_1_bn0"
  type: "BatchNorm"
  bottom: "conv2_1_0"
  top: "conv2_1_0"
  param {
    lr_mult: 0
    decay_mult: 0
  }
  param {
    lr_mult: 0
    decay_mult: 0
  }
  param {
    lr_mult: 0
    decay_mult: 0
  }
  batch_norm_param {
    use_global_stats: true
  }
}
layer {
  name: "conv2_1_scale0"
  type: "Scale"
  bottom: "conv2_1_0"
  top: "conv2_1_0"
  scale_param {
    bias_term: true
  }
}
layer {
  name: "conv2_1_ReLU0"
  type: "ReLU"
  bottom: "conv2_1_0"
  top: "conv2_1_0"
}
layer {
  name: "conv2_1_1"
  type: "Convolution"
  bottom: "conv2_1_0"
  top: "conv2_1_1"
  param {
    lr_mult: 1
    decay_mult: 1
  }
  param {
    lr_mult: 2
    decay_mult: 0
  }
  convolution_param {
    num_output: 16
    bias_term: true
    pad: 1
    kernel_size: 3
    stride: 1
    weight_filler {
      type: "msra"
    }
    bias_filler {
      type: "constant"
      value: 0
    }
  }
}
layer {
  name: "conv2_1bn1"
  type: "BatchNorm"
  bottom: "conv2_1_1"
  top: "conv2_1_1"
  param {
    lr_mult: 0
    decay_mult: 0
  }
  param {
    lr_mult: 0
    decay_mult: 0
  }
  param {
    lr_mult: 0
    decay_mult: 0
  }
  batch_norm_param {
    use_global_stats: true
  }
}
layer {
  name: "conv2_1_scale1"
  type: "Scale"
  bottom: "conv2_1_1"
  top: "conv2_1_1"
  scale_param {
    bias_term: true
  }
}
layer {
  name: "conv2_Eltwise_1"
  type: "Eltwise"
  bottom: "conv1"
  bottom: "conv2_1_1"
  top: "conv2_Eltwise_1"
  eltwise_param {
    operation: SUM
  }
}
layer {
  name: "conv2_1ReLU_1"
  type: "ReLU"
  bottom: "conv2_Eltwise_1"
  top: "conv2_Eltwise_1"
}
layer {
  name: "conv2_2_0"
  type: "Convolution"
  bottom: "conv2_Eltwise_1"
  top: "conv2_2_0"
  param {
    lr_mult: 1
    decay_mult: 1
  }
  param {
    lr_mult: 2
    decay_mult: 0
  }
  convolution_param {
    num_output: 16
    bias_term: true
    pad: 1
    kernel_size: 3
    stride: 1
    weight_filler {
      type: "msra"
    }
    bias_filler {
      type: "constant"
      value: 0
    }
  }
}
layer {
  name: "conv2_2_bn0"
  type: "BatchNorm"
  bottom: "conv2_2_0"
  top: "conv2_2_0"
  param {
    lr_mult: 0
    decay_mult: 0
  }
  param {
    lr_mult: 0
    decay_mult: 0
  }
  param {
    lr_mult: 0
    decay_mult: 0
  }
  batch_norm_param {
    use_global_stats: true
  }
}
layer {
  name: "conv2_2_scale0"
  type: "Scale"
  bottom: "conv2_2_0"
  top: "conv2_2_0"
  scale_param {
    bias_term: true
  }
}
layer {
  name: "conv2_2_ReLU0"
  type: "ReLU"
  bottom: "conv2_2_0"
  top: "conv2_2_0"
}
layer {
  name: "conv2_2_1"
  type: "Convolution"
  bottom: "conv2_2_0"
  top: "conv2_2_1"
  param {
    lr_mult: 1
    decay_mult: 1
  }
  param {
    lr_mult: 2
    decay_mult: 0
  }
  convolution_param {
    num_output: 16
    bias_term: true
    pad: 1
    kernel_size: 3
    stride: 1
    weight_filler {
      type: "msra"
    }
    bias_filler {
      type: "constant"
      value: 0
    }
  }
}
layer {
  name: "conv2_2bn1"
  type: "BatchNorm"
  bottom: "conv2_2_1"
  top: "conv2_2_1"
  param {
    lr_mult: 0
    decay_mult: 0
  }
  param {
    lr_mult: 0
    decay_mult: 0
  }
  param {
    lr_mult: 0
    decay_mult: 0
  }
  batch_norm_param {
    use_global_stats: true
  }
}
layer {
  name: "conv2_2_scale1"
  type: "Scale"
  bottom: "conv2_2_1"
  top: "conv2_2_1"
  scale_param {
    bias_term: true
  }
}
layer {
  name: "conv2_Eltwise_2"
  type: "Eltwise"
  bottom: "conv2_Eltwise_1"
  bottom: "conv2_2_1"
  top: "conv2_Eltwise_2"
  eltwise_param {
    operation: SUM
  }
}
layer {
  name: "conv2_2ReLU_1"
  type: "ReLU"
  bottom: "conv2_Eltwise_2"
  top: "conv2_Eltwise_2"
}
layer {
  name: "conv2_3_0"
  type: "Convolution"
  bottom: "conv2_Eltwise_2"
  top: "conv2_3_0"
  param {
    lr_mult: 1
    decay_mult: 1
  }
  param {
    lr_mult: 2
    decay_mult: 0
  }
  convolution_param {
    num_output: 16
    bias_term: true
    pad: 1
    kernel_size: 3
    stride: 1
    weight_filler {
      type: "msra"
    }
    bias_filler {
      type: "constant"
      value: 0
    }
  }
}
layer {
  name: "conv2_3_bn0"
  type: "BatchNorm"
  bottom: "conv2_3_0"
  top: "conv2_3_0"
  param {
    lr_mult: 0
    decay_mult: 0
  }
  param {
    lr_mult: 0
    decay_mult: 0
  }
  param {
    lr_mult: 0
    decay_mult: 0
  }
  batch_norm_param {
    use_global_stats: true
  }
}
layer {
  name: "conv2_3_scale0"
  type: "Scale"
  bottom: "conv2_3_0"
  top: "conv2_3_0"
  scale_param {
    bias_term: true
  }
}
layer {
  name: "conv2_3_ReLU0"
  type: "ReLU"
  bottom: "conv2_3_0"
  top: "conv2_3_0"
}
layer {
  name: "conv2_3_1"
  type: "Convolution"
  bottom: "conv2_3_0"
  top: "conv2_3_1"
  param {
    lr_mult: 1
    decay_mult: 1
  }
  param {
    lr_mult: 2
    decay_mult: 0
  }
  convolution_param {
    num_output: 16
    bias_term: true
    pad: 1
    kernel_size: 3
    stride: 1
    weight_filler {
      type: "msra"
    }
    bias_filler {
      type: "constant"
      value: 0
    }
  }
}
layer {
  name: "conv2_3bn1"
  type: "BatchNorm"
  bottom: "conv2_3_1"
  top: "conv2_3_1"
  param {
    lr_mult: 0
    decay_mult: 0
  }
  param {
    lr_mult: 0
    decay_mult: 0
  }
  param {
    lr_mult: 0
    decay_mult: 0
  }
  batch_norm_param {
    use_global_stats: true
  }
}
layer {
  name: "conv2_3_scale1"
  type: "Scale"
  bottom: "conv2_3_1"
  top: "conv2_3_1"
  scale_param {
    bias_term: true
  }
}
layer {
  name: "conv2_Eltwise_3"
  type: "Eltwise"
  bottom: "conv2_Eltwise_2"
  bottom: "conv2_3_1"
  top: "conv2_Eltwise_3"
  eltwise_param {
    operation: SUM
  }
}
layer {
  name: "conv2_3ReLU_1"
  type: "ReLU"
  bottom: "conv2_Eltwise_3"
  top: "conv2_Eltwise_3"
}
layer {
  name: "conv3_1_0"
  type: "Convolution"
  bottom: "conv2_Eltwise_3"
  top: "conv3_1_0"
  param {
    lr_mult: 1
    decay_mult: 1
  }
  param {
    lr_mult: 2
    decay_mult: 0
  }
  convolution_param {
    num_output: 32
    bias_term: true
    pad: 1
    kernel_size: 3
    stride: 2
    weight_filler {
      type: "msra"
    }
    bias_filler {
      type: "constant"
      value: 0
    }
  }
}
layer {
  name: "conv3_1_bn0"
  type: "BatchNorm"
  bottom: "conv3_1_0"
  top: "conv3_1_0"
  param {
    lr_mult: 0
    decay_mult: 0
  }
  param {
    lr_mult: 0
    decay_mult: 0
  }
  param {
    lr_mult: 0
    decay_mult: 0
  }
  batch_norm_param {
    use_global_stats: true
  }
}
layer {
  name: "conv3_1_scale0"
  type: "Scale"
  bottom: "conv3_1_0"
  top: "conv3_1_0"
  scale_param {
    bias_term: true
  }
}
layer {
  name: "conv3_1_ReLU0"
  type: "ReLU"
  bottom: "conv3_1_0"
  top: "conv3_1_0"
}
layer {
  name: "conv3_1_1"
  type: "Convolution"
  bottom: "conv3_1_0"
  top: "conv3_1_1"
  param {
    lr_mult: 1
    decay_mult: 1
  }
  param {
    lr_mult: 2
    decay_mult: 0
  }
  convolution_param {
    num_output: 32
    bias_term: true
    pad: 1
    kernel_size: 3
    stride: 1
    weight_filler {
      type: "msra"
    }
    bias_filler {
      type: "constant"
      value: 0
    }
  }
}
layer {
  name: "conv3_1bn1"
  type: "BatchNorm"
  bottom: "conv3_1_1"
  top: "conv3_1_1"
  param {
    lr_mult: 0
    decay_mult: 0
  }
  param {
    lr_mult: 0
    decay_mult: 0
  }
  param {
    lr_mult: 0
    decay_mult: 0
  }
  batch_norm_param {
    use_global_stats: true
  }
}
layer {
  name: "conv3_1_scale1"
  type: "Scale"
  bottom: "conv3_1_1"
  top: "conv3_1_1"
  scale_param {
    bias_term: true
  }
}
layer {
  name: "conv3_1_down"
  type: "Convolution"
  bottom: "conv2_Eltwise_3"
  top: "conv3_1_down"
  param {
    lr_mult: 1
    decay_mult: 1
  }
  param {
    lr_mult: 2
    decay_mult: 0
  }
  convolution_param {
    num_output: 32
    bias_term: true
    pad: 0
    kernel_size: 1
    stride: 2
    weight_filler {
      type: "msra"
    }
    bias_filler {
      type: "constant"
      value: 0
    }
  }
}
layer {
  name: "conv3_1_bn_down"
  type: "BatchNorm"
  bottom: "conv3_1_down"
  top: "conv3_1_down"
  param {
    lr_mult: 0
    decay_mult: 0
  }
  param {
    lr_mult: 0
    decay_mult: 0
  }
  param {
    lr_mult: 0
    decay_mult: 0
  }
  batch_norm_param {
    use_global_stats: true
  }
}
layer {
  name: "conv3_1_scale_down"
  type: "Scale"
  bottom: "conv3_1_down"
  top: "conv3_1_down"
  scale_param {
    bias_term: true
  }
}
layer {
  name: "conv3_Eltwise_1"
  type: "Eltwise"
  bottom: "conv3_1_1"
  bottom: "conv3_1_down"
  top: "conv3_Eltwise_1"
  eltwise_param {
    operation: SUM
  }
}
layer {
  name: "conv3_1ReLU_1"
  type: "ReLU"
  bottom: "conv3_Eltwise_1"
  top: "conv3_Eltwise_1"
}
layer {
  name: "conv3_2_0"
  type: "Convolution"
  bottom: "conv3_Eltwise_1"
  top: "conv3_2_0"
  param {
    lr_mult: 1
    decay_mult: 1
  }
  param {
    lr_mult: 2
    decay_mult: 0
  }
  convolution_param {
    num_output: 32
    bias_term: true
    pad: 1
    kernel_size: 3
    stride: 1
    weight_filler {
      type: "msra"
    }
    bias_filler {
      type: "constant"
      value: 0
    }
  }
}
layer {
  name: "conv3_2_bn0"
  type: "BatchNorm"
  bottom: "conv3_2_0"
  top: "conv3_2_0"
  param {
    lr_mult: 0
    decay_mult: 0
  }
  param {
    lr_mult: 0
    decay_mult: 0
  }
  param {
    lr_mult: 0
    decay_mult: 0
  }
  batch_norm_param {
    use_global_stats: true
  }
}
layer {
  name: "conv3_2_scale0"
  type: "Scale"
  bottom: "conv3_2_0"
  top: "conv3_2_0"
  scale_param {
    bias_term: true
  }
}
layer {
  name: "conv3_2_ReLU0"
  type: "ReLU"
  bottom: "conv3_2_0"
  top: "conv3_2_0"
}
layer {
  name: "conv3_2_1"
  type: "Convolution"
  bottom: "conv3_2_0"
  top: "conv3_2_1"
  param {
    lr_mult: 1
    decay_mult: 1
  }
  param {
    lr_mult: 2
    decay_mult: 0
  }
  convolution_param {
    num_output: 32
    bias_term: true
    pad: 1
    kernel_size: 3
    stride: 1
    weight_filler {
      type: "msra"
    }
    bias_filler {
      type: "constant"
      value: 0
    }
  }
}
layer {
  name: "conv3_2bn1"
  type: "BatchNorm"
  bottom: "conv3_2_1"
  top: "conv3_2_1"
  param {
    lr_mult: 0
    decay_mult: 0
  }
  param {
    lr_mult: 0
    decay_mult: 0
  }
  param {
    lr_mult: 0
    decay_mult: 0
  }
  batch_norm_param {
    use_global_stats: true
  }
}
layer {
  name: "conv3_2_scale1"
  type: "Scale"
  bottom: "conv3_2_1"
  top: "conv3_2_1"
  scale_param {
    bias_term: true
  }
}
layer {
  name: "conv3_Eltwise_2"
  type: "Eltwise"
  bottom: "conv3_Eltwise_1"
  bottom: "conv3_2_1"
  top: "conv3_Eltwise_2"
  eltwise_param {
    operation: SUM
  }
}
layer {
  name: "conv3_2ReLU_1"
  type: "ReLU"
  bottom: "conv3_Eltwise_2"
  top: "conv3_Eltwise_2"
}
layer {
  name: "conv3_3_0"
  type: "Convolution"
  bottom: "conv3_Eltwise_2"
  top: "conv3_3_0"
  param {
    lr_mult: 1
    decay_mult: 1
  }
  param {
    lr_mult: 2
    decay_mult: 0
  }
  convolution_param {
    num_output: 32
    bias_term: true
    pad: 1
    kernel_size: 3
    stride: 1
    weight_filler {
      type: "msra"
    }
    bias_filler {
      type: "constant"
      value: 0
    }
  }
}
layer {
  name: "conv3_3_bn0"
  type: "BatchNorm"
  bottom: "conv3_3_0"
  top: "conv3_3_0"
  param {
    lr_mult: 0
    decay_mult: 0
  }
  param {
    lr_mult: 0
    decay_mult: 0
  }
  param {
    lr_mult: 0
    decay_mult: 0
  }
  batch_norm_param {
    use_global_stats: true
  }
}
layer {
  name: "conv3_3_scale0"
  type: "Scale"
  bottom: "conv3_3_0"
  top: "conv3_3_0"
  scale_param {
    bias_term: true
  }
}
layer {
  name: "conv3_3_ReLU0"
  type: "ReLU"
  bottom: "conv3_3_0"
  top: "conv3_3_0"
}
layer {
  name: "conv3_3_1"
  type: "Convolution"
  bottom: "conv3_3_0"
  top: "conv3_3_1"
  param {
    lr_mult: 1
    decay_mult: 1
  }
  param {
    lr_mult: 2
    decay_mult: 0
  }
  convolution_param {
    num_output: 32
    bias_term: true
    pad: 1
    kernel_size: 3
    stride: 1
    weight_filler {
      type: "msra"
    }
    bias_filler {
      type: "constant"
      value: 0
    }
  }
}
layer {
  name: "conv3_3bn1"
  type: "BatchNorm"
  bottom: "conv3_3_1"
  top: "conv3_3_1"
  param {
    lr_mult: 0
    decay_mult: 0
  }
  param {
    lr_mult: 0
    decay_mult: 0
  }
  param {
    lr_mult: 0
    decay_mult: 0
  }
  batch_norm_param {
    use_global_stats: true
  }
}
layer {
  name: "conv3_3_scale1"
  type: "Scale"
  bottom: "conv3_3_1"
  top: "conv3_3_1"
  scale_param {
    bias_term: true
  }
}
layer {
  name: "conv3_Eltwise_3"
  type: "Eltwise"
  bottom: "conv3_Eltwise_2"
  bottom: "conv3_3_1"
  top: "conv3_Eltwise_3"
  eltwise_param {
    operation: SUM
  }
}
layer {
  name: "conv3_3ReLU_1"
  type: "ReLU"
  bottom: "conv3_Eltwise_3"
  top: "conv3_Eltwise_3"
}
layer {
  name: "conv4_1_0"
  type: "Convolution"
  bottom: "conv3_Eltwise_3"
  top: "conv4_1_0"
  param {
    lr_mult: 1
    decay_mult: 1
  }
  param {
    lr_mult: 2
    decay_mult: 0
  }
  convolution_param {
    num_output: 64
    bias_term: true
    pad: 1
    kernel_size: 3
    stride: 2
    weight_filler {
      type: "msra"
    }
    bias_filler {
      type: "constant"
      value: 0
    }
  }
}
layer {
  name: "conv4_1_bn0"
  type: "BatchNorm"
  bottom: "conv4_1_0"
  top: "conv4_1_0"
  param {
    lr_mult: 0
    decay_mult: 0
  }
  param {
    lr_mult: 0
    decay_mult: 0
  }
  param {
    lr_mult: 0
    decay_mult: 0
  }
  batch_norm_param {
    use_global_stats: true
  }
}
layer {
  name: "conv4_1_scale0"
  type: "Scale"
  bottom: "conv4_1_0"
  top: "conv4_1_0"
  scale_param {
    bias_term: true
  }
}
layer {
  name: "conv4_1_ReLU0"
  type: "ReLU"
  bottom: "conv4_1_0"
  top: "conv4_1_0"
}
layer {
  name: "conv4_1_1"
  type: "Convolution"
  bottom: "conv4_1_0"
  top: "conv4_1_1"
  param {
    lr_mult: 1
    decay_mult: 1
  }
  param {
    lr_mult: 2
    decay_mult: 0
  }
  convolution_param {
    num_output: 64
    bias_term: true
    pad: 1
    kernel_size: 3
    stride: 1
    weight_filler {
      type: "msra"
    }
    bias_filler {
      type: "constant"
      value: 0
    }
  }
}
layer {
  name: "conv4_1bn1"
  type: "BatchNorm"
  bottom: "conv4_1_1"
  top: "conv4_1_1"
  param {
    lr_mult: 0
    decay_mult: 0
  }
  param {
    lr_mult: 0
    decay_mult: 0
  }
  param {
    lr_mult: 0
    decay_mult: 0
  }
  batch_norm_param {
    use_global_stats: true
  }
}
layer {
  name: "conv4_1_scale1"
  type: "Scale"
  bottom: "conv4_1_1"
  top: "conv4_1_1"
  scale_param {
    bias_term: true
  }
}
layer {
  name: "conv4_1_down"
  type: "Convolution"
  bottom: "conv3_Eltwise_3"
  top: "conv4_1_down"
  param {
    lr_mult: 1
    decay_mult: 1
  }
  param {
    lr_mult: 2
    decay_mult: 0
  }
  convolution_param {
    num_output: 64
    bias_term: true
    pad: 0
    kernel_size: 1
    stride: 2
    weight_filler {
      type: "msra"
    }
    bias_filler {
      type: "constant"
      value: 0
    }
  }
}
layer {
  name: "conv4_1_bn_down"
  type: "BatchNorm"
  bottom: "conv4_1_down"
  top: "conv4_1_down"
  param {
    lr_mult: 0
    decay_mult: 0
  }
  param {
    lr_mult: 0
    decay_mult: 0
  }
  param {
    lr_mult: 0
    decay_mult: 0
  }
  batch_norm_param {
    use_global_stats: true
  }
}
layer {
  name: "conv4_1_scale_down"
  type: "Scale"
  bottom: "conv4_1_down"
  top: "conv4_1_down"
  scale_param {
    bias_term: true
  }
}
layer {
  name: "conv4_Eltwise_1"
  type: "Eltwise"
  bottom: "conv4_1_1"
  bottom: "conv4_1_down"
  top: "conv4_Eltwise_1"
  eltwise_param {
    operation: SUM
  }
}
layer {
  name: "conv4_1ReLU_1"
  type: "ReLU"
  bottom: "conv4_Eltwise_1"
  top: "conv4_Eltwise_1"
}
layer {
  name: "conv4_2_0"
  type: "Convolution"
  bottom: "conv4_Eltwise_1"
  top: "conv4_2_0"
  param {
    lr_mult: 1
    decay_mult: 1
  }
  param {
    lr_mult: 2
    decay_mult: 0
  }
  convolution_param {
    num_output: 64
    bias_term: true
    pad: 1
    kernel_size: 3
    stride: 1
    weight_filler {
      type: "msra"
    }
    bias_filler {
      type: "constant"
      value: 0
    }
  }
}
layer {
  name: "conv4_2_bn0"
  type: "BatchNorm"
  bottom: "conv4_2_0"
  top: "conv4_2_0"
  param {
    lr_mult: 0
    decay_mult: 0
  }
  param {
    lr_mult: 0
    decay_mult: 0
  }
  param {
    lr_mult: 0
    decay_mult: 0
  }
  batch_norm_param {
    use_global_stats: true
  }
}
layer {
  name: "conv4_2_scale0"
  type: "Scale"
  bottom: "conv4_2_0"
  top: "conv4_2_0"
  scale_param {
    bias_term: true
  }
}
layer {
  name: "conv4_2_ReLU0"
  type: "ReLU"
  bottom: "conv4_2_0"
  top: "conv4_2_0"
}
layer {
  name: "conv4_2_1"
  type: "Convolution"
  bottom: "conv4_2_0"
  top: "conv4_2_1"
  param {
    lr_mult: 1
    decay_mult: 1
  }
  param {
    lr_mult: 2
    decay_mult: 0
  }
  convolution_param {
    num_output: 64
    bias_term: true
    pad: 1
    kernel_size: 3
    stride: 1
    weight_filler {
      type: "msra"
    }
    bias_filler {
      type: "constant"
      value: 0
    }
  }
}
layer {
  name: "conv4_2bn1"
  type: "BatchNorm"
  bottom: "conv4_2_1"
  top: "conv4_2_1"
  param {
    lr_mult: 0
    decay_mult: 0
  }
  param {
    lr_mult: 0
    decay_mult: 0
  }
  param {
    lr_mult: 0
    decay_mult: 0
  }
  batch_norm_param {
    use_global_stats: true
  }
}
layer {
  name: "conv4_2_scale1"
  type: "Scale"
  bottom: "conv4_2_1"
  top: "conv4_2_1"
  scale_param {
    bias_term: true
  }
}
layer {
  name: "conv4_Eltwise_2"
  type: "Eltwise"
  bottom: "conv4_Eltwise_1"
  bottom: "conv4_2_1"
  top: "conv4_Eltwise_2"
  eltwise_param {
    operation: SUM
  }
}
layer {
  name: "conv4_2ReLU_1"
  type: "ReLU"
  bottom: "conv4_Eltwise_2"
  top: "conv4_Eltwise_2"
}
layer {
  name: "conv4_3_0"
  type: "Convolution"
  bottom: "conv4_Eltwise_2"
  top: "conv4_3_0"
  param {
    lr_mult: 1
    decay_mult: 1
  }
  param {
    lr_mult: 2
    decay_mult: 0
  }
  convolution_param {
    num_output: 64
    bias_term: true
    pad: 1
    kernel_size: 3
    stride: 1
    weight_filler {
      type: "msra"
    }
    bias_filler {
      type: "constant"
      value: 0
    }
  }
}
layer {
  name: "conv4_3_bn0"
  type: "BatchNorm"
  bottom: "conv4_3_0"
  top: "conv4_3_0"
  param {
    lr_mult: 0
    decay_mult: 0
  }
  param {
    lr_mult: 0
    decay_mult: 0
  }
  param {
    lr_mult: 0
    decay_mult: 0
  }
  batch_norm_param {
    use_global_stats: true
  }
}
layer {
  name: "conv4_3_scale0"
  type: "Scale"
  bottom: "conv4_3_0"
  top: "conv4_3_0"
  scale_param {
    bias_term: true
  }
}
layer {
  name: "conv4_3_ReLU0"
  type: "ReLU"
  bottom: "conv4_3_0"
  top: "conv4_3_0"
}
layer {
  name: "conv4_3_1"
  type: "Convolution"
  bottom: "conv4_3_0"
  top: "conv4_3_1"
  param {
    lr_mult: 1
    decay_mult: 1
  }
  param {
    lr_mult: 2
    decay_mult: 0
  }
  convolution_param {
    num_output: 64
    bias_term: true
    pad: 1
    kernel_size: 3
    stride: 1
    weight_filler {
      type: "msra"
    }
    bias_filler {
      type: "constant"
      value: 0
    }
  }
}
layer {
  name: "conv4_3bn1"
  type: "BatchNorm"
  bottom: "conv4_3_1"
  top: "conv4_3_1"
  param {
    lr_mult: 0
    decay_mult: 0
  }
  param {
    lr_mult: 0
    decay_mult: 0
  }
  param {
    lr_mult: 0
    decay_mult: 0
  }
  batch_norm_param {
    use_global_stats: true
  }
}
layer {
  name: "conv4_3_scale1"
  type: "Scale"
  bottom: "conv4_3_1"
  top: "conv4_3_1"
  scale_param {
    bias_term: true
  }
}
layer {
  name: "conv4_Eltwise_3"
  type: "Eltwise"
  bottom: "conv4_Eltwise_2"
  bottom: "conv4_3_1"
  top: "conv4_Eltwise_3"
  eltwise_param {
    operation: SUM
  }
}
layer {
  name: "conv4_3ReLU_1"
  type: "ReLU"
  bottom: "conv4_Eltwise_3"
  top: "conv4_Eltwise_3"
}
layer {
  name: "Pooling1"
  type: "Pooling"
  bottom: "conv4_Eltwise_3"
  top: "Pooling1"
  pooling_param {
    pool: AVE
    global_pooling: true
  }
}
layer {
  name: "fc1"
  type: "InnerProduct"
  bottom: "Pooling1"
  top: "fc1"
  param {
    lr_mult: 1
    decay_mult: 1
  }
  param {
    lr_mult: 2
    decay_mult: 1
  }
  inner_product_param {
    num_output: 10
    weight_filler {
      type: "msra"
    }
    bias_filler {
      type: "constant"
      value: 0
    }
  }
}
layer {
  name: "Softmax1"
  type: "SoftmaxWithLoss"
  bottom: "fc1"
  bottom: "label"
  top: "Softmax1"
}
layer {
  name: "prob"
  type: "Accuracy"
  bottom: "fc1"
  bottom: "label"
  top: "prob"
}
I0929 10:16:46.416117 22954 layer_factory.hpp:77] Creating layer Data1
I0929 10:16:46.416214 22954 db_lmdb.cpp:35] Opened lmdb /home/lijianfei/datasets/cifar10_40/test_lmdb
I0929 10:16:46.416234 22954 net.cpp:128] Creating Layer Data1
I0929 10:16:46.416241 22954 net.cpp:522] Data1 -> data
I0929 10:16:46.416254 22954 net.cpp:522] Data1 -> label
I0929 10:16:46.416410 22954 data_layer.cpp:45] output data size: 10,3,32,32
I0929 10:16:46.423702 22954 net.cpp:172] Setting up Data1
I0929 10:16:46.423727 22954 net.cpp:186] Top shape: 10 3 32 32 (30720)
I0929 10:16:46.423732 22954 net.cpp:186] Top shape: 10 (10)
I0929 10:16:46.423737 22954 net.cpp:194] Memory required for data: 122920
I0929 10:16:46.423743 22954 layer_factory.hpp:77] Creating layer label_Data1_1_split
I0929 10:16:46.423758 22954 net.cpp:128] Creating Layer label_Data1_1_split
I0929 10:16:46.423763 22954 net.cpp:558] label_Data1_1_split <- label
I0929 10:16:46.423769 22954 net.cpp:522] label_Data1_1_split -> label_Data1_1_split_0
I0929 10:16:46.423786 22954 net.cpp:522] label_Data1_1_split -> label_Data1_1_split_1
I0929 10:16:46.423895 22954 net.cpp:172] Setting up label_Data1_1_split
I0929 10:16:46.423907 22954 net.cpp:186] Top shape: 10 (10)
I0929 10:16:46.423913 22954 net.cpp:186] Top shape: 10 (10)
I0929 10:16:46.423916 22954 net.cpp:194] Memory required for data: 123000
I0929 10:16:46.423924 22954 layer_factory.hpp:77] Creating layer conv1
I0929 10:16:46.423943 22954 net.cpp:128] Creating Layer conv1
I0929 10:16:46.423949 22954 net.cpp:558] conv1 <- data
I0929 10:16:46.423955 22954 net.cpp:522] conv1 -> conv1
I0929 10:16:46.430817 22954 net.cpp:172] Setting up conv1
I0929 10:16:46.430841 22954 net.cpp:186] Top shape: 10 16 32 32 (163840)
I0929 10:16:46.430845 22954 net.cpp:194] Memory required for data: 778360
I0929 10:16:46.430881 22954 layer_factory.hpp:77] Creating layer conv1/bn
I0929 10:16:46.430897 22954 net.cpp:128] Creating Layer conv1/bn
I0929 10:16:46.430907 22954 net.cpp:558] conv1/bn <- conv1
I0929 10:16:46.430917 22954 net.cpp:509] conv1/bn -> conv1 (in-place)
I0929 10:16:46.431193 22954 net.cpp:172] Setting up conv1/bn
I0929 10:16:46.431203 22954 net.cpp:186] Top shape: 10 16 32 32 (163840)
I0929 10:16:46.431207 22954 net.cpp:194] Memory required for data: 1433720
I0929 10:16:46.431221 22954 layer_factory.hpp:77] Creating layer conv1/scale
I0929 10:16:46.431236 22954 net.cpp:128] Creating Layer conv1/scale
I0929 10:16:46.431241 22954 net.cpp:558] conv1/scale <- conv1
I0929 10:16:46.431246 22954 net.cpp:509] conv1/scale -> conv1 (in-place)
I0929 10:16:46.431301 22954 layer_factory.hpp:77] Creating layer conv1/scale
I0929 10:16:46.431455 22954 net.cpp:172] Setting up conv1/scale
I0929 10:16:46.431468 22954 net.cpp:186] Top shape: 10 16 32 32 (163840)
I0929 10:16:46.431471 22954 net.cpp:194] Memory required for data: 2089080
I0929 10:16:46.431478 22954 layer_factory.hpp:77] Creating layer conv1/ReLU
I0929 10:16:46.431486 22954 net.cpp:128] Creating Layer conv1/ReLU
I0929 10:16:46.431490 22954 net.cpp:558] conv1/ReLU <- conv1
I0929 10:16:46.431499 22954 net.cpp:509] conv1/ReLU -> conv1 (in-place)
I0929 10:16:46.432493 22954 net.cpp:172] Setting up conv1/ReLU
I0929 10:16:46.432559 22954 net.cpp:186] Top shape: 10 16 32 32 (163840)
I0929 10:16:46.432591 22954 net.cpp:194] Memory required for data: 2744440
I0929 10:16:46.432615 22954 layer_factory.hpp:77] Creating layer conv1_conv1/ReLU_0_split
I0929 10:16:46.432642 22954 net.cpp:128] Creating Layer conv1_conv1/ReLU_0_split
I0929 10:16:46.432664 22954 net.cpp:558] conv1_conv1/ReLU_0_split <- conv1
I0929 10:16:46.432693 22954 net.cpp:522] conv1_conv1/ReLU_0_split -> conv1_conv1/ReLU_0_split_0
I0929 10:16:46.432723 22954 net.cpp:522] conv1_conv1/ReLU_0_split -> conv1_conv1/ReLU_0_split_1
I0929 10:16:46.434778 22954 net.cpp:172] Setting up conv1_conv1/ReLU_0_split
I0929 10:16:46.434886 22954 net.cpp:186] Top shape: 10 16 32 32 (163840)
I0929 10:16:46.434952 22954 net.cpp:186] Top shape: 10 16 32 32 (163840)
I0929 10:16:46.435019 22954 net.cpp:194] Memory required for data: 4055160
I0929 10:16:46.435082 22954 layer_factory.hpp:77] Creating layer conv2_1_0
I0929 10:16:46.435158 22954 net.cpp:128] Creating Layer conv2_1_0
I0929 10:16:46.435226 22954 net.cpp:558] conv2_1_0 <- conv1_conv1/ReLU_0_split_0
I0929 10:16:46.435298 22954 net.cpp:522] conv2_1_0 -> conv2_1_0
I0929 10:16:46.439314 22954 net.cpp:172] Setting up conv2_1_0
I0929 10:16:46.439349 22954 net.cpp:186] Top shape: 10 16 32 32 (163840)
I0929 10:16:46.439355 22954 net.cpp:194] Memory required for data: 4710520
I0929 10:16:46.439476 22954 layer_factory.hpp:77] Creating layer conv2_1_bn0
I0929 10:16:46.439527 22954 net.cpp:128] Creating Layer conv2_1_bn0
I0929 10:16:46.439538 22954 net.cpp:558] conv2_1_bn0 <- conv2_1_0
I0929 10:16:46.439589 22954 net.cpp:509] conv2_1_bn0 -> conv2_1_0 (in-place)
I0929 10:16:46.439975 22954 net.cpp:172] Setting up conv2_1_bn0
I0929 10:16:46.439990 22954 net.cpp:186] Top shape: 10 16 32 32 (163840)
I0929 10:16:46.440078 22954 net.cpp:194] Memory required for data: 5365880
I0929 10:16:46.440126 22954 layer_factory.hpp:77] Creating layer conv2_1_scale0
I0929 10:16:46.440171 22954 net.cpp:128] Creating Layer conv2_1_scale0
I0929 10:16:46.440182 22954 net.cpp:558] conv2_1_scale0 <- conv2_1_0
I0929 10:16:46.440240 22954 net.cpp:509] conv2_1_scale0 -> conv2_1_0 (in-place)
I0929 10:16:46.440352 22954 layer_factory.hpp:77] Creating layer conv2_1_scale0
I0929 10:16:46.440587 22954 net.cpp:172] Setting up conv2_1_scale0
I0929 10:16:46.440600 22954 net.cpp:186] Top shape: 10 16 32 32 (163840)
I0929 10:16:46.440640 22954 net.cpp:194] Memory required for data: 6021240
I0929 10:16:46.440702 22954 layer_factory.hpp:77] Creating layer conv2_1_ReLU0
I0929 10:16:46.440716 22954 net.cpp:128] Creating Layer conv2_1_ReLU0
I0929 10:16:46.440753 22954 net.cpp:558] conv2_1_ReLU0 <- conv2_1_0
I0929 10:16:46.440845 22954 net.cpp:509] conv2_1_ReLU0 -> conv2_1_0 (in-place)
I0929 10:16:46.441424 22954 net.cpp:172] Setting up conv2_1_ReLU0
I0929 10:16:46.441452 22954 net.cpp:186] Top shape: 10 16 32 32 (163840)
I0929 10:16:46.441458 22954 net.cpp:194] Memory required for data: 6676600
I0929 10:16:46.441529 22954 layer_factory.hpp:77] Creating layer conv2_1_1
I0929 10:16:46.441581 22954 net.cpp:128] Creating Layer conv2_1_1
I0929 10:16:46.441592 22954 net.cpp:558] conv2_1_1 <- conv2_1_0
I0929 10:16:46.441643 22954 net.cpp:522] conv2_1_1 -> conv2_1_1
I0929 10:16:46.448168 22954 net.cpp:172] Setting up conv2_1_1
I0929 10:16:46.448226 22954 net.cpp:186] Top shape: 10 16 32 32 (163840)
I0929 10:16:46.448323 22954 net.cpp:194] Memory required for data: 7331960
I0929 10:16:46.448388 22954 layer_factory.hpp:77] Creating layer conv2_1bn1
I0929 10:16:46.448451 22954 net.cpp:128] Creating Layer conv2_1bn1
I0929 10:16:46.448474 22954 net.cpp:558] conv2_1bn1 <- conv2_1_1
I0929 10:16:46.448559 22954 net.cpp:509] conv2_1bn1 -> conv2_1_1 (in-place)
I0929 10:16:46.448959 22954 net.cpp:172] Setting up conv2_1bn1
I0929 10:16:46.448976 22954 net.cpp:186] Top shape: 10 16 32 32 (163840)
I0929 10:16:46.448982 22954 net.cpp:194] Memory required for data: 7987320
I0929 10:16:46.448997 22954 layer_factory.hpp:77] Creating layer conv2_1_scale1
I0929 10:16:46.449118 22954 net.cpp:128] Creating Layer conv2_1_scale1
I0929 10:16:46.449127 22954 net.cpp:558] conv2_1_scale1 <- conv2_1_1
I0929 10:16:46.449137 22954 net.cpp:509] conv2_1_scale1 -> conv2_1_1 (in-place)
I0929 10:16:46.449277 22954 layer_factory.hpp:77] Creating layer conv2_1_scale1
I0929 10:16:46.449470 22954 net.cpp:172] Setting up conv2_1_scale1
I0929 10:16:46.449484 22954 net.cpp:186] Top shape: 10 16 32 32 (163840)
I0929 10:16:46.449535 22954 net.cpp:194] Memory required for data: 8642680
I0929 10:16:46.449606 22954 layer_factory.hpp:77] Creating layer conv2_Eltwise_1
I0929 10:16:46.449620 22954 net.cpp:128] Creating Layer conv2_Eltwise_1
I0929 10:16:46.449625 22954 net.cpp:558] conv2_Eltwise_1 <- conv1_conv1/ReLU_0_split_1
I0929 10:16:46.449681 22954 net.cpp:558] conv2_Eltwise_1 <- conv2_1_1
I0929 10:16:46.449736 22954 net.cpp:522] conv2_Eltwise_1 -> conv2_Eltwise_1
I0929 10:16:46.449822 22954 net.cpp:172] Setting up conv2_Eltwise_1
I0929 10:16:46.449834 22954 net.cpp:186] Top shape: 10 16 32 32 (163840)
I0929 10:16:46.449841 22954 net.cpp:194] Memory required for data: 9298040
I0929 10:16:46.449846 22954 layer_factory.hpp:77] Creating layer conv2_1ReLU_1
I0929 10:16:46.449856 22954 net.cpp:128] Creating Layer conv2_1ReLU_1
I0929 10:16:46.449862 22954 net.cpp:558] conv2_1ReLU_1 <- conv2_Eltwise_1
I0929 10:16:46.449867 22954 net.cpp:509] conv2_1ReLU_1 -> conv2_Eltwise_1 (in-place)
I0929 10:16:46.450378 22954 net.cpp:172] Setting up conv2_1ReLU_1
I0929 10:16:46.450397 22954 net.cpp:186] Top shape: 10 16 32 32 (163840)
I0929 10:16:46.450402 22954 net.cpp:194] Memory required for data: 9953400
I0929 10:16:46.450407 22954 layer_factory.hpp:77] Creating layer conv2_Eltwise_1_conv2_1ReLU_1_0_split
I0929 10:16:46.450451 22954 net.cpp:128] Creating Layer conv2_Eltwise_1_conv2_1ReLU_1_0_split
I0929 10:16:46.450520 22954 net.cpp:558] conv2_Eltwise_1_conv2_1ReLU_1_0_split <- conv2_Eltwise_1
I0929 10:16:46.450533 22954 net.cpp:522] conv2_Eltwise_1_conv2_1ReLU_1_0_split -> conv2_Eltwise_1_conv2_1ReLU_1_0_split_0
I0929 10:16:46.450574 22954 net.cpp:522] conv2_Eltwise_1_conv2_1ReLU_1_0_split -> conv2_Eltwise_1_conv2_1ReLU_1_0_split_1
I0929 10:16:46.450748 22954 net.cpp:172] Setting up conv2_Eltwise_1_conv2_1ReLU_1_0_split
I0929 10:16:46.450762 22954 net.cpp:186] Top shape: 10 16 32 32 (163840)
I0929 10:16:46.450767 22954 net.cpp:186] Top shape: 10 16 32 32 (163840)
I0929 10:16:46.450772 22954 net.cpp:194] Memory required for data: 11264120
I0929 10:16:46.450775 22954 layer_factory.hpp:77] Creating layer conv2_2_0
I0929 10:16:46.450827 22954 net.cpp:128] Creating Layer conv2_2_0
I0929 10:16:46.450881 22954 net.cpp:558] conv2_2_0 <- conv2_Eltwise_1_conv2_1ReLU_1_0_split_0
I0929 10:16:46.450889 22954 net.cpp:522] conv2_2_0 -> conv2_2_0
I0929 10:16:46.453271 22954 net.cpp:172] Setting up conv2_2_0
I0929 10:16:46.453299 22954 net.cpp:186] Top shape: 10 16 32 32 (163840)
I0929 10:16:46.453302 22954 net.cpp:194] Memory required for data: 11919480
I0929 10:16:46.453316 22954 layer_factory.hpp:77] Creating layer conv2_2_bn0
I0929 10:16:46.453331 22954 net.cpp:128] Creating Layer conv2_2_bn0
I0929 10:16:46.453337 22954 net.cpp:558] conv2_2_bn0 <- conv2_2_0
I0929 10:16:46.453346 22954 net.cpp:509] conv2_2_bn0 -> conv2_2_0 (in-place)
I0929 10:16:46.453809 22954 net.cpp:172] Setting up conv2_2_bn0
I0929 10:16:46.453824 22954 net.cpp:186] Top shape: 10 16 32 32 (163840)
I0929 10:16:46.453827 22954 net.cpp:194] Memory required for data: 12574840
I0929 10:16:46.453869 22954 layer_factory.hpp:77] Creating layer conv2_2_scale0
I0929 10:16:46.453882 22954 net.cpp:128] Creating Layer conv2_2_scale0
I0929 10:16:46.453925 22954 net.cpp:558] conv2_2_scale0 <- conv2_2_0
I0929 10:16:46.453963 22954 net.cpp:509] conv2_2_scale0 -> conv2_2_0 (in-place)
I0929 10:16:46.454130 22954 layer_factory.hpp:77] Creating layer conv2_2_scale0
I0929 10:16:46.454324 22954 net.cpp:172] Setting up conv2_2_scale0
I0929 10:16:46.454339 22954 net.cpp:186] Top shape: 10 16 32 32 (163840)
I0929 10:16:46.454342 22954 net.cpp:194] Memory required for data: 13230200
I0929 10:16:46.454351 22954 layer_factory.hpp:77] Creating layer conv2_2_ReLU0
I0929 10:16:46.454390 22954 net.cpp:128] Creating Layer conv2_2_ReLU0
I0929 10:16:46.454396 22954 net.cpp:558] conv2_2_ReLU0 <- conv2_2_0
I0929 10:16:46.454440 22954 net.cpp:509] conv2_2_ReLU0 -> conv2_2_0 (in-place)
I0929 10:16:46.454816 22954 net.cpp:172] Setting up conv2_2_ReLU0
I0929 10:16:46.454833 22954 net.cpp:186] Top shape: 10 16 32 32 (163840)
I0929 10:16:46.454838 22954 net.cpp:194] Memory required for data: 13885560
I0929 10:16:46.454843 22954 layer_factory.hpp:77] Creating layer conv2_2_1
I0929 10:16:46.454931 22954 net.cpp:128] Creating Layer conv2_2_1
I0929 10:16:46.454972 22954 net.cpp:558] conv2_2_1 <- conv2_2_0
I0929 10:16:46.455003 22954 net.cpp:522] conv2_2_1 -> conv2_2_1
I0929 10:16:46.456423 22954 net.cpp:172] Setting up conv2_2_1
I0929 10:16:46.456449 22954 net.cpp:186] Top shape: 10 16 32 32 (163840)
I0929 10:16:46.456454 22954 net.cpp:194] Memory required for data: 14540920
I0929 10:16:46.456465 22954 layer_factory.hpp:77] Creating layer conv2_2bn1
I0929 10:16:46.456473 22954 net.cpp:128] Creating Layer conv2_2bn1
I0929 10:16:46.456478 22954 net.cpp:558] conv2_2bn1 <- conv2_2_1
I0929 10:16:46.456487 22954 net.cpp:509] conv2_2bn1 -> conv2_2_1 (in-place)
I0929 10:16:46.456966 22954 net.cpp:172] Setting up conv2_2bn1
I0929 10:16:46.456980 22954 net.cpp:186] Top shape: 10 16 32 32 (163840)
I0929 10:16:46.456985 22954 net.cpp:194] Memory required for data: 15196280
I0929 10:16:46.457033 22954 layer_factory.hpp:77] Creating layer conv2_2_scale1
I0929 10:16:46.457067 22954 net.cpp:128] Creating Layer conv2_2_scale1
I0929 10:16:46.457073 22954 net.cpp:558] conv2_2_scale1 <- conv2_2_1
I0929 10:16:46.457079 22954 net.cpp:509] conv2_2_scale1 -> conv2_2_1 (in-place)
I0929 10:16:46.457141 22954 layer_factory.hpp:77] Creating layer conv2_2_scale1
I0929 10:16:46.457291 22954 net.cpp:172] Setting up conv2_2_scale1
I0929 10:16:46.457298 22954 net.cpp:186] Top shape: 10 16 32 32 (163840)
I0929 10:16:46.457303 22954 net.cpp:194] Memory required for data: 15851640
I0929 10:16:46.457310 22954 layer_factory.hpp:77] Creating layer conv2_Eltwise_2
I0929 10:16:46.457319 22954 net.cpp:128] Creating Layer conv2_Eltwise_2
I0929 10:16:46.457325 22954 net.cpp:558] conv2_Eltwise_2 <- conv2_Eltwise_1_conv2_1ReLU_1_0_split_1
I0929 10:16:46.457330 22954 net.cpp:558] conv2_Eltwise_2 <- conv2_2_1
I0929 10:16:46.457337 22954 net.cpp:522] conv2_Eltwise_2 -> conv2_Eltwise_2
I0929 10:16:46.457366 22954 net.cpp:172] Setting up conv2_Eltwise_2
I0929 10:16:46.457373 22954 net.cpp:186] Top shape: 10 16 32 32 (163840)
I0929 10:16:46.457377 22954 net.cpp:194] Memory required for data: 16507000
I0929 10:16:46.457381 22954 layer_factory.hpp:77] Creating layer conv2_2ReLU_1
I0929 10:16:46.457404 22954 net.cpp:128] Creating Layer conv2_2ReLU_1
I0929 10:16:46.457409 22954 net.cpp:558] conv2_2ReLU_1 <- conv2_Eltwise_2
I0929 10:16:46.457414 22954 net.cpp:509] conv2_2ReLU_1 -> conv2_Eltwise_2 (in-place)
I0929 10:16:46.457860 22954 net.cpp:172] Setting up conv2_2ReLU_1
I0929 10:16:46.457877 22954 net.cpp:186] Top shape: 10 16 32 32 (163840)
I0929 10:16:46.457881 22954 net.cpp:194] Memory required for data: 17162360
I0929 10:16:46.457886 22954 layer_factory.hpp:77] Creating layer conv2_Eltwise_2_conv2_2ReLU_1_0_split
I0929 10:16:46.457895 22954 net.cpp:128] Creating Layer conv2_Eltwise_2_conv2_2ReLU_1_0_split
I0929 10:16:46.457898 22954 net.cpp:558] conv2_Eltwise_2_conv2_2ReLU_1_0_split <- conv2_Eltwise_2
I0929 10:16:46.457908 22954 net.cpp:522] conv2_Eltwise_2_conv2_2ReLU_1_0_split -> conv2_Eltwise_2_conv2_2ReLU_1_0_split_0
I0929 10:16:46.457917 22954 net.cpp:522] conv2_Eltwise_2_conv2_2ReLU_1_0_split -> conv2_Eltwise_2_conv2_2ReLU_1_0_split_1
I0929 10:16:46.457995 22954 net.cpp:172] Setting up conv2_Eltwise_2_conv2_2ReLU_1_0_split
I0929 10:16:46.458004 22954 net.cpp:186] Top shape: 10 16 32 32 (163840)
I0929 10:16:46.458010 22954 net.cpp:186] Top shape: 10 16 32 32 (163840)
I0929 10:16:46.458014 22954 net.cpp:194] Memory required for data: 18473080
I0929 10:16:46.458017 22954 layer_factory.hpp:77] Creating layer conv2_3_0
I0929 10:16:46.458029 22954 net.cpp:128] Creating Layer conv2_3_0
I0929 10:16:46.458034 22954 net.cpp:558] conv2_3_0 <- conv2_Eltwise_2_conv2_2ReLU_1_0_split_0
I0929 10:16:46.458043 22954 net.cpp:522] conv2_3_0 -> conv2_3_0
I0929 10:16:46.459857 22954 net.cpp:172] Setting up conv2_3_0
I0929 10:16:46.459879 22954 net.cpp:186] Top shape: 10 16 32 32 (163840)
I0929 10:16:46.459883 22954 net.cpp:194] Memory required for data: 19128440
I0929 10:16:46.459893 22954 layer_factory.hpp:77] Creating layer conv2_3_bn0
I0929 10:16:46.459905 22954 net.cpp:128] Creating Layer conv2_3_bn0
I0929 10:16:46.459911 22954 net.cpp:558] conv2_3_bn0 <- conv2_3_0
I0929 10:16:46.459918 22954 net.cpp:509] conv2_3_bn0 -> conv2_3_0 (in-place)
I0929 10:16:46.460191 22954 net.cpp:172] Setting up conv2_3_bn0
I0929 10:16:46.460198 22954 net.cpp:186] Top shape: 10 16 32 32 (163840)
I0929 10:16:46.460202 22954 net.cpp:194] Memory required for data: 19783800
I0929 10:16:46.460212 22954 layer_factory.hpp:77] Creating layer conv2_3_scale0
I0929 10:16:46.460218 22954 net.cpp:128] Creating Layer conv2_3_scale0
I0929 10:16:46.460222 22954 net.cpp:558] conv2_3_scale0 <- conv2_3_0
I0929 10:16:46.460228 22954 net.cpp:509] conv2_3_scale0 -> conv2_3_0 (in-place)
I0929 10:16:46.460279 22954 layer_factory.hpp:77] Creating layer conv2_3_scale0
I0929 10:16:46.460427 22954 net.cpp:172] Setting up conv2_3_scale0
I0929 10:16:46.460434 22954 net.cpp:186] Top shape: 10 16 32 32 (163840)
I0929 10:16:46.460438 22954 net.cpp:194] Memory required for data: 20439160
I0929 10:16:46.460446 22954 layer_factory.hpp:77] Creating layer conv2_3_ReLU0
I0929 10:16:46.460454 22954 net.cpp:128] Creating Layer conv2_3_ReLU0
I0929 10:16:46.460458 22954 net.cpp:558] conv2_3_ReLU0 <- conv2_3_0
I0929 10:16:46.460465 22954 net.cpp:509] conv2_3_ReLU0 -> conv2_3_0 (in-place)
I0929 10:16:46.460940 22954 net.cpp:172] Setting up conv2_3_ReLU0
I0929 10:16:46.460956 22954 net.cpp:186] Top shape: 10 16 32 32 (163840)
I0929 10:16:46.460996 22954 net.cpp:194] Memory required for data: 21094520
I0929 10:16:46.461005 22954 layer_factory.hpp:77] Creating layer conv2_3_1
I0929 10:16:46.461060 22954 net.cpp:128] Creating Layer conv2_3_1
I0929 10:16:46.461068 22954 net.cpp:558] conv2_3_1 <- conv2_3_0
I0929 10:16:46.461110 22954 net.cpp:522] conv2_3_1 -> conv2_3_1
I0929 10:16:46.462497 22954 net.cpp:172] Setting up conv2_3_1
I0929 10:16:46.462524 22954 net.cpp:186] Top shape: 10 16 32 32 (163840)
I0929 10:16:46.462528 22954 net.cpp:194] Memory required for data: 21749880
I0929 10:16:46.462538 22954 layer_factory.hpp:77] Creating layer conv2_3bn1
I0929 10:16:46.462635 22954 net.cpp:128] Creating Layer conv2_3bn1
I0929 10:16:46.462643 22954 net.cpp:558] conv2_3bn1 <- conv2_3_1
I0929 10:16:46.462692 22954 net.cpp:509] conv2_3bn1 -> conv2_3_1 (in-place)
I0929 10:16:46.463037 22954 net.cpp:172] Setting up conv2_3bn1
I0929 10:16:46.463050 22954 net.cpp:186] Top shape: 10 16 32 32 (163840)
I0929 10:16:46.463090 22954 net.cpp:194] Memory required for data: 22405240
I0929 10:16:46.463129 22954 layer_factory.hpp:77] Creating layer conv2_3_scale1
I0929 10:16:46.463140 22954 net.cpp:128] Creating Layer conv2_3_scale1
I0929 10:16:46.463178 22954 net.cpp:558] conv2_3_scale1 <- conv2_3_1
I0929 10:16:46.463187 22954 net.cpp:509] conv2_3_scale1 -> conv2_3_1 (in-place)
I0929 10:16:46.463280 22954 layer_factory.hpp:77] Creating layer conv2_3_scale1
I0929 10:16:46.463467 22954 net.cpp:172] Setting up conv2_3_scale1
I0929 10:16:46.463479 22954 net.cpp:186] Top shape: 10 16 32 32 (163840)
I0929 10:16:46.463515 22954 net.cpp:194] Memory required for data: 23060600
I0929 10:16:46.463529 22954 layer_factory.hpp:77] Creating layer conv2_Eltwise_3
I0929 10:16:46.463587 22954 net.cpp:128] Creating Layer conv2_Eltwise_3
I0929 10:16:46.463596 22954 net.cpp:558] conv2_Eltwise_3 <- conv2_Eltwise_2_conv2_2ReLU_1_0_split_1
I0929 10:16:46.463635 22954 net.cpp:558] conv2_Eltwise_3 <- conv2_3_1
I0929 10:16:46.463646 22954 net.cpp:522] conv2_Eltwise_3 -> conv2_Eltwise_3
I0929 10:16:46.463716 22954 net.cpp:172] Setting up conv2_Eltwise_3
I0929 10:16:46.463726 22954 net.cpp:186] Top shape: 10 16 32 32 (163840)
I0929 10:16:46.463730 22954 net.cpp:194] Memory required for data: 23715960
I0929 10:16:46.463769 22954 layer_factory.hpp:77] Creating layer conv2_3ReLU_1
I0929 10:16:46.463809 22954 net.cpp:128] Creating Layer conv2_3ReLU_1
I0929 10:16:46.463817 22954 net.cpp:558] conv2_3ReLU_1 <- conv2_Eltwise_3
I0929 10:16:46.463857 22954 net.cpp:509] conv2_3ReLU_1 -> conv2_Eltwise_3 (in-place)
I0929 10:16:46.464136 22954 net.cpp:172] Setting up conv2_3ReLU_1
I0929 10:16:46.464150 22954 net.cpp:186] Top shape: 10 16 32 32 (163840)
I0929 10:16:46.464192 22954 net.cpp:194] Memory required for data: 24371320
I0929 10:16:46.464200 22954 layer_factory.hpp:77] Creating layer conv2_Eltwise_3_conv2_3ReLU_1_0_split
I0929 10:16:46.464243 22954 net.cpp:128] Creating Layer conv2_Eltwise_3_conv2_3ReLU_1_0_split
I0929 10:16:46.464251 22954 net.cpp:558] conv2_Eltwise_3_conv2_3ReLU_1_0_split <- conv2_Eltwise_3
I0929 10:16:46.464296 22954 net.cpp:522] conv2_Eltwise_3_conv2_3ReLU_1_0_split -> conv2_Eltwise_3_conv2_3ReLU_1_0_split_0
I0929 10:16:46.464309 22954 net.cpp:522] conv2_Eltwise_3_conv2_3ReLU_1_0_split -> conv2_Eltwise_3_conv2_3ReLU_1_0_split_1
I0929 10:16:46.464427 22954 net.cpp:172] Setting up conv2_Eltwise_3_conv2_3ReLU_1_0_split
I0929 10:16:46.464437 22954 net.cpp:186] Top shape: 10 16 32 32 (163840)
I0929 10:16:46.464478 22954 net.cpp:186] Top shape: 10 16 32 32 (163840)
I0929 10:16:46.464486 22954 net.cpp:194] Memory required for data: 25682040
I0929 10:16:46.464490 22954 layer_factory.hpp:77] Creating layer conv3_1_0
I0929 10:16:46.464560 22954 net.cpp:128] Creating Layer conv3_1_0
I0929 10:16:46.464568 22954 net.cpp:558] conv3_1_0 <- conv2_Eltwise_3_conv2_3ReLU_1_0_split_0
I0929 10:16:46.464612 22954 net.cpp:522] conv3_1_0 -> conv3_1_0
I0929 10:16:46.466040 22954 net.cpp:172] Setting up conv3_1_0
I0929 10:16:46.466063 22954 net.cpp:186] Top shape: 10 32 16 16 (81920)
I0929 10:16:46.466066 22954 net.cpp:194] Memory required for data: 26009720
I0929 10:16:46.466076 22954 layer_factory.hpp:77] Creating layer conv3_1_bn0
I0929 10:16:46.466087 22954 net.cpp:128] Creating Layer conv3_1_bn0
I0929 10:16:46.466092 22954 net.cpp:558] conv3_1_bn0 <- conv3_1_0
I0929 10:16:46.466099 22954 net.cpp:509] conv3_1_bn0 -> conv3_1_0 (in-place)
I0929 10:16:46.466472 22954 net.cpp:172] Setting up conv3_1_bn0
I0929 10:16:46.466485 22954 net.cpp:186] Top shape: 10 32 16 16 (81920)
I0929 10:16:46.466488 22954 net.cpp:194] Memory required for data: 26337400
I0929 10:16:46.466498 22954 layer_factory.hpp:77] Creating layer conv3_1_scale0
I0929 10:16:46.466552 22954 net.cpp:128] Creating Layer conv3_1_scale0
I0929 10:16:46.466591 22954 net.cpp:558] conv3_1_scale0 <- conv3_1_0
I0929 10:16:46.466624 22954 net.cpp:509] conv3_1_scale0 -> conv3_1_0 (in-place)
I0929 10:16:46.466737 22954 layer_factory.hpp:77] Creating layer conv3_1_scale0
I0929 10:16:46.466926 22954 net.cpp:172] Setting up conv3_1_scale0
I0929 10:16:46.466939 22954 net.cpp:186] Top shape: 10 32 16 16 (81920)
I0929 10:16:46.466943 22954 net.cpp:194] Memory required for data: 26665080
I0929 10:16:46.466953 22954 layer_factory.hpp:77] Creating layer conv3_1_ReLU0
I0929 10:16:46.467005 22954 net.cpp:128] Creating Layer conv3_1_ReLU0
I0929 10:16:46.467044 22954 net.cpp:558] conv3_1_ReLU0 <- conv3_1_0
I0929 10:16:46.467057 22954 net.cpp:509] conv3_1_ReLU0 -> conv3_1_0 (in-place)
I0929 10:16:46.467345 22954 net.cpp:172] Setting up conv3_1_ReLU0
I0929 10:16:46.467360 22954 net.cpp:186] Top shape: 10 32 16 16 (81920)
I0929 10:16:46.467365 22954 net.cpp:194] Memory required for data: 26992760
I0929 10:16:46.467370 22954 layer_factory.hpp:77] Creating layer conv3_1_1
I0929 10:16:46.467445 22954 net.cpp:128] Creating Layer conv3_1_1
I0929 10:16:46.467453 22954 net.cpp:558] conv3_1_1 <- conv3_1_0
I0929 10:16:46.467464 22954 net.cpp:522] conv3_1_1 -> conv3_1_1
I0929 10:16:46.469000 22954 net.cpp:172] Setting up conv3_1_1
I0929 10:16:46.469027 22954 net.cpp:186] Top shape: 10 32 16 16 (81920)
I0929 10:16:46.469032 22954 net.cpp:194] Memory required for data: 27320440
I0929 10:16:46.469041 22954 layer_factory.hpp:77] Creating layer conv3_1bn1
I0929 10:16:46.469123 22954 net.cpp:128] Creating Layer conv3_1bn1
I0929 10:16:46.469135 22954 net.cpp:558] conv3_1bn1 <- conv3_1_1
I0929 10:16:46.469146 22954 net.cpp:509] conv3_1bn1 -> conv3_1_1 (in-place)
I0929 10:16:46.469476 22954 net.cpp:172] Setting up conv3_1bn1
I0929 10:16:46.469489 22954 net.cpp:186] Top shape: 10 32 16 16 (81920)
I0929 10:16:46.469493 22954 net.cpp:194] Memory required for data: 27648120
I0929 10:16:46.469503 22954 layer_factory.hpp:77] Creating layer conv3_1_scale1
I0929 10:16:46.469569 22954 net.cpp:128] Creating Layer conv3_1_scale1
I0929 10:16:46.469578 22954 net.cpp:558] conv3_1_scale1 <- conv3_1_1
I0929 10:16:46.469585 22954 net.cpp:509] conv3_1_scale1 -> conv3_1_1 (in-place)
I0929 10:16:46.469688 22954 layer_factory.hpp:77] Creating layer conv3_1_scale1
I0929 10:16:46.469892 22954 net.cpp:172] Setting up conv3_1_scale1
I0929 10:16:46.469907 22954 net.cpp:186] Top shape: 10 32 16 16 (81920)
I0929 10:16:46.469913 22954 net.cpp:194] Memory required for data: 27975800
I0929 10:16:46.469923 22954 layer_factory.hpp:77] Creating layer conv3_1_down
I0929 10:16:46.470042 22954 net.cpp:128] Creating Layer conv3_1_down
I0929 10:16:46.470057 22954 net.cpp:558] conv3_1_down <- conv2_Eltwise_3_conv2_3ReLU_1_0_split_1
I0929 10:16:46.470067 22954 net.cpp:522] conv3_1_down -> conv3_1_down
I0929 10:16:46.471379 22954 net.cpp:172] Setting up conv3_1_down
I0929 10:16:46.471405 22954 net.cpp:186] Top shape: 10 32 16 16 (81920)
I0929 10:16:46.471410 22954 net.cpp:194] Memory required for data: 28303480
I0929 10:16:46.471429 22954 layer_factory.hpp:77] Creating layer conv3_1_bn_down
I0929 10:16:46.471441 22954 net.cpp:128] Creating Layer conv3_1_bn_down
I0929 10:16:46.471448 22954 net.cpp:558] conv3_1_bn_down <- conv3_1_down
I0929 10:16:46.471455 22954 net.cpp:509] conv3_1_bn_down -> conv3_1_down (in-place)
I0929 10:16:46.471720 22954 net.cpp:172] Setting up conv3_1_bn_down
I0929 10:16:46.471729 22954 net.cpp:186] Top shape: 10 32 16 16 (81920)
I0929 10:16:46.471734 22954 net.cpp:194] Memory required for data: 28631160
I0929 10:16:46.471743 22954 layer_factory.hpp:77] Creating layer conv3_1_scale_down
I0929 10:16:46.471750 22954 net.cpp:128] Creating Layer conv3_1_scale_down
I0929 10:16:46.471755 22954 net.cpp:558] conv3_1_scale_down <- conv3_1_down
I0929 10:16:46.471762 22954 net.cpp:509] conv3_1_scale_down -> conv3_1_down (in-place)
I0929 10:16:46.471812 22954 layer_factory.hpp:77] Creating layer conv3_1_scale_down
I0929 10:16:46.471966 22954 net.cpp:172] Setting up conv3_1_scale_down
I0929 10:16:46.471976 22954 net.cpp:186] Top shape: 10 32 16 16 (81920)
I0929 10:16:46.471999 22954 net.cpp:194] Memory required for data: 28958840
I0929 10:16:46.472008 22954 layer_factory.hpp:77] Creating layer conv3_Eltwise_1
I0929 10:16:46.472016 22954 net.cpp:128] Creating Layer conv3_Eltwise_1
I0929 10:16:46.472021 22954 net.cpp:558] conv3_Eltwise_1 <- conv3_1_1
I0929 10:16:46.472025 22954 net.cpp:558] conv3_Eltwise_1 <- conv3_1_down
I0929 10:16:46.472034 22954 net.cpp:522] conv3_Eltwise_1 -> conv3_Eltwise_1
I0929 10:16:46.472059 22954 net.cpp:172] Setting up conv3_Eltwise_1
I0929 10:16:46.472065 22954 net.cpp:186] Top shape: 10 32 16 16 (81920)
I0929 10:16:46.472069 22954 net.cpp:194] Memory required for data: 29286520
I0929 10:16:46.472074 22954 layer_factory.hpp:77] Creating layer conv3_1ReLU_1
I0929 10:16:46.472081 22954 net.cpp:128] Creating Layer conv3_1ReLU_1
I0929 10:16:46.472086 22954 net.cpp:558] conv3_1ReLU_1 <- conv3_Eltwise_1
I0929 10:16:46.472091 22954 net.cpp:509] conv3_1ReLU_1 -> conv3_Eltwise_1 (in-place)
I0929 10:16:46.472533 22954 net.cpp:172] Setting up conv3_1ReLU_1
I0929 10:16:46.472553 22954 net.cpp:186] Top shape: 10 32 16 16 (81920)
I0929 10:16:46.472558 22954 net.cpp:194] Memory required for data: 29614200
I0929 10:16:46.472563 22954 layer_factory.hpp:77] Creating layer conv3_Eltwise_1_conv3_1ReLU_1_0_split
I0929 10:16:46.472571 22954 net.cpp:128] Creating Layer conv3_Eltwise_1_conv3_1ReLU_1_0_split
I0929 10:16:46.472578 22954 net.cpp:558] conv3_Eltwise_1_conv3_1ReLU_1_0_split <- conv3_Eltwise_1
I0929 10:16:46.472587 22954 net.cpp:522] conv3_Eltwise_1_conv3_1ReLU_1_0_split -> conv3_Eltwise_1_conv3_1ReLU_1_0_split_0
I0929 10:16:46.472599 22954 net.cpp:522] conv3_Eltwise_1_conv3_1ReLU_1_0_split -> conv3_Eltwise_1_conv3_1ReLU_1_0_split_1
I0929 10:16:46.472658 22954 net.cpp:172] Setting up conv3_Eltwise_1_conv3_1ReLU_1_0_split
I0929 10:16:46.472668 22954 net.cpp:186] Top shape: 10 32 16 16 (81920)
I0929 10:16:46.472674 22954 net.cpp:186] Top shape: 10 32 16 16 (81920)
I0929 10:16:46.472678 22954 net.cpp:194] Memory required for data: 30269560
I0929 10:16:46.472682 22954 layer_factory.hpp:77] Creating layer conv3_2_0
I0929 10:16:46.472693 22954 net.cpp:128] Creating Layer conv3_2_0
I0929 10:16:46.472697 22954 net.cpp:558] conv3_2_0 <- conv3_Eltwise_1_conv3_1ReLU_1_0_split_0
I0929 10:16:46.472707 22954 net.cpp:522] conv3_2_0 -> conv3_2_0
I0929 10:16:46.474339 22954 net.cpp:172] Setting up conv3_2_0
I0929 10:16:46.474361 22954 net.cpp:186] Top shape: 10 32 16 16 (81920)
I0929 10:16:46.474365 22954 net.cpp:194] Memory required for data: 30597240
I0929 10:16:46.474378 22954 layer_factory.hpp:77] Creating layer conv3_2_bn0
I0929 10:16:46.474390 22954 net.cpp:128] Creating Layer conv3_2_bn0
I0929 10:16:46.474395 22954 net.cpp:558] conv3_2_bn0 <- conv3_2_0
I0929 10:16:46.474402 22954 net.cpp:509] conv3_2_bn0 -> conv3_2_0 (in-place)
I0929 10:16:46.474678 22954 net.cpp:172] Setting up conv3_2_bn0
I0929 10:16:46.474686 22954 net.cpp:186] Top shape: 10 32 16 16 (81920)
I0929 10:16:46.474690 22954 net.cpp:194] Memory required for data: 30924920
I0929 10:16:46.474700 22954 layer_factory.hpp:77] Creating layer conv3_2_scale0
I0929 10:16:46.474709 22954 net.cpp:128] Creating Layer conv3_2_scale0
I0929 10:16:46.474714 22954 net.cpp:558] conv3_2_scale0 <- conv3_2_0
I0929 10:16:46.474721 22954 net.cpp:509] conv3_2_scale0 -> conv3_2_0 (in-place)
I0929 10:16:46.474771 22954 layer_factory.hpp:77] Creating layer conv3_2_scale0
I0929 10:16:46.474933 22954 net.cpp:172] Setting up conv3_2_scale0
I0929 10:16:46.474943 22954 net.cpp:186] Top shape: 10 32 16 16 (81920)
I0929 10:16:46.474947 22954 net.cpp:194] Memory required for data: 31252600
I0929 10:16:46.474954 22954 layer_factory.hpp:77] Creating layer conv3_2_ReLU0
I0929 10:16:46.474961 22954 net.cpp:128] Creating Layer conv3_2_ReLU0
I0929 10:16:46.474968 22954 net.cpp:558] conv3_2_ReLU0 <- conv3_2_0
I0929 10:16:46.474977 22954 net.cpp:509] conv3_2_ReLU0 -> conv3_2_0 (in-place)
I0929 10:16:46.475221 22954 net.cpp:172] Setting up conv3_2_ReLU0
I0929 10:16:46.475234 22954 net.cpp:186] Top shape: 10 32 16 16 (81920)
I0929 10:16:46.475237 22954 net.cpp:194] Memory required for data: 31580280
I0929 10:16:46.475261 22954 layer_factory.hpp:77] Creating layer conv3_2_1
I0929 10:16:46.475275 22954 net.cpp:128] Creating Layer conv3_2_1
I0929 10:16:46.475283 22954 net.cpp:558] conv3_2_1 <- conv3_2_0
I0929 10:16:46.475293 22954 net.cpp:522] conv3_2_1 -> conv3_2_1
I0929 10:16:46.479830 22954 net.cpp:172] Setting up conv3_2_1
I0929 10:16:46.479857 22954 net.cpp:186] Top shape: 10 32 16 16 (81920)
I0929 10:16:46.479862 22954 net.cpp:194] Memory required for data: 31907960
I0929 10:16:46.479876 22954 layer_factory.hpp:77] Creating layer conv3_2bn1
I0929 10:16:46.479885 22954 net.cpp:128] Creating Layer conv3_2bn1
I0929 10:16:46.479890 22954 net.cpp:558] conv3_2bn1 <- conv3_2_1
I0929 10:16:46.479903 22954 net.cpp:509] conv3_2bn1 -> conv3_2_1 (in-place)
I0929 10:16:46.480186 22954 net.cpp:172] Setting up conv3_2bn1
I0929 10:16:46.480197 22954 net.cpp:186] Top shape: 10 32 16 16 (81920)
I0929 10:16:46.480202 22954 net.cpp:194] Memory required for data: 32235640
I0929 10:16:46.480212 22954 layer_factory.hpp:77] Creating layer conv3_2_scale1
I0929 10:16:46.480219 22954 net.cpp:128] Creating Layer conv3_2_scale1
I0929 10:16:46.480226 22954 net.cpp:558] conv3_2_scale1 <- conv3_2_1
I0929 10:16:46.480231 22954 net.cpp:509] conv3_2_scale1 -> conv3_2_1 (in-place)
I0929 10:16:46.480283 22954 layer_factory.hpp:77] Creating layer conv3_2_scale1
I0929 10:16:46.480440 22954 net.cpp:172] Setting up conv3_2_scale1
I0929 10:16:46.480454 22954 net.cpp:186] Top shape: 10 32 16 16 (81920)
I0929 10:16:46.480458 22954 net.cpp:194] Memory required for data: 32563320
I0929 10:16:46.480466 22954 layer_factory.hpp:77] Creating layer conv3_Eltwise_2
I0929 10:16:46.480473 22954 net.cpp:128] Creating Layer conv3_Eltwise_2
I0929 10:16:46.480479 22954 net.cpp:558] conv3_Eltwise_2 <- conv3_Eltwise_1_conv3_1ReLU_1_0_split_1
I0929 10:16:46.480484 22954 net.cpp:558] conv3_Eltwise_2 <- conv3_2_1
I0929 10:16:46.480489 22954 net.cpp:522] conv3_Eltwise_2 -> conv3_Eltwise_2
I0929 10:16:46.480515 22954 net.cpp:172] Setting up conv3_Eltwise_2
I0929 10:16:46.480521 22954 net.cpp:186] Top shape: 10 32 16 16 (81920)
I0929 10:16:46.480525 22954 net.cpp:194] Memory required for data: 32891000
I0929 10:16:46.480530 22954 layer_factory.hpp:77] Creating layer conv3_2ReLU_1
I0929 10:16:46.480536 22954 net.cpp:128] Creating Layer conv3_2ReLU_1
I0929 10:16:46.480540 22954 net.cpp:558] conv3_2ReLU_1 <- conv3_Eltwise_2
I0929 10:16:46.480548 22954 net.cpp:509] conv3_2ReLU_1 -> conv3_Eltwise_2 (in-place)
I0929 10:16:46.481905 22954 net.cpp:172] Setting up conv3_2ReLU_1
I0929 10:16:46.481923 22954 net.cpp:186] Top shape: 10 32 16 16 (81920)
I0929 10:16:46.481927 22954 net.cpp:194] Memory required for data: 33218680
I0929 10:16:46.481950 22954 layer_factory.hpp:77] Creating layer conv3_Eltwise_2_conv3_2ReLU_1_0_split
I0929 10:16:46.481957 22954 net.cpp:128] Creating Layer conv3_Eltwise_2_conv3_2ReLU_1_0_split
I0929 10:16:46.481966 22954 net.cpp:558] conv3_Eltwise_2_conv3_2ReLU_1_0_split <- conv3_Eltwise_2
I0929 10:16:46.481972 22954 net.cpp:522] conv3_Eltwise_2_conv3_2ReLU_1_0_split -> conv3_Eltwise_2_conv3_2ReLU_1_0_split_0
I0929 10:16:46.481981 22954 net.cpp:522] conv3_Eltwise_2_conv3_2ReLU_1_0_split -> conv3_Eltwise_2_conv3_2ReLU_1_0_split_1
I0929 10:16:46.482043 22954 net.cpp:172] Setting up conv3_Eltwise_2_conv3_2ReLU_1_0_split
I0929 10:16:46.482050 22954 net.cpp:186] Top shape: 10 32 16 16 (81920)
I0929 10:16:46.482056 22954 net.cpp:186] Top shape: 10 32 16 16 (81920)
I0929 10:16:46.482060 22954 net.cpp:194] Memory required for data: 33874040
I0929 10:16:46.482064 22954 layer_factory.hpp:77] Creating layer conv3_3_0
I0929 10:16:46.482079 22954 net.cpp:128] Creating Layer conv3_3_0
I0929 10:16:46.482082 22954 net.cpp:558] conv3_3_0 <- conv3_Eltwise_2_conv3_2ReLU_1_0_split_0
I0929 10:16:46.482092 22954 net.cpp:522] conv3_3_0 -> conv3_3_0
I0929 10:16:46.488687 22954 net.cpp:172] Setting up conv3_3_0
I0929 10:16:46.488714 22954 net.cpp:186] Top shape: 10 32 16 16 (81920)
I0929 10:16:46.488718 22954 net.cpp:194] Memory required for data: 34201720
I0929 10:16:46.488747 22954 layer_factory.hpp:77] Creating layer conv3_3_bn0
I0929 10:16:46.488765 22954 net.cpp:128] Creating Layer conv3_3_bn0
I0929 10:16:46.488770 22954 net.cpp:558] conv3_3_bn0 <- conv3_3_0
I0929 10:16:46.488777 22954 net.cpp:509] conv3_3_bn0 -> conv3_3_0 (in-place)
I0929 10:16:46.489053 22954 net.cpp:172] Setting up conv3_3_bn0
I0929 10:16:46.489064 22954 net.cpp:186] Top shape: 10 32 16 16 (81920)
I0929 10:16:46.489068 22954 net.cpp:194] Memory required for data: 34529400
I0929 10:16:46.489078 22954 layer_factory.hpp:77] Creating layer conv3_3_scale0
I0929 10:16:46.489090 22954 net.cpp:128] Creating Layer conv3_3_scale0
I0929 10:16:46.489096 22954 net.cpp:558] conv3_3_scale0 <- conv3_3_0
I0929 10:16:46.489101 22954 net.cpp:509] conv3_3_scale0 -> conv3_3_0 (in-place)
I0929 10:16:46.489154 22954 layer_factory.hpp:77] Creating layer conv3_3_scale0
I0929 10:16:46.489313 22954 net.cpp:172] Setting up conv3_3_scale0
I0929 10:16:46.489326 22954 net.cpp:186] Top shape: 10 32 16 16 (81920)
I0929 10:16:46.489331 22954 net.cpp:194] Memory required for data: 34857080
I0929 10:16:46.489338 22954 layer_factory.hpp:77] Creating layer conv3_3_ReLU0
I0929 10:16:46.489348 22954 net.cpp:128] Creating Layer conv3_3_ReLU0
I0929 10:16:46.489352 22954 net.cpp:558] conv3_3_ReLU0 <- conv3_3_0
I0929 10:16:46.489361 22954 net.cpp:509] conv3_3_ReLU0 -> conv3_3_0 (in-place)
I0929 10:16:46.490759 22954 net.cpp:172] Setting up conv3_3_ReLU0
I0929 10:16:46.490787 22954 net.cpp:186] Top shape: 10 32 16 16 (81920)
I0929 10:16:46.490792 22954 net.cpp:194] Memory required for data: 35184760
I0929 10:16:46.490797 22954 layer_factory.hpp:77] Creating layer conv3_3_1
I0929 10:16:46.490820 22954 net.cpp:128] Creating Layer conv3_3_1
I0929 10:16:46.490825 22954 net.cpp:558] conv3_3_1 <- conv3_3_0
I0929 10:16:46.490839 22954 net.cpp:522] conv3_3_1 -> conv3_3_1
I0929 10:16:46.497560 22954 net.cpp:172] Setting up conv3_3_1
I0929 10:16:46.497587 22954 net.cpp:186] Top shape: 10 32 16 16 (81920)
I0929 10:16:46.497591 22954 net.cpp:194] Memory required for data: 35512440
I0929 10:16:46.497601 22954 layer_factory.hpp:77] Creating layer conv3_3bn1
I0929 10:16:46.497615 22954 net.cpp:128] Creating Layer conv3_3bn1
I0929 10:16:46.497620 22954 net.cpp:558] conv3_3bn1 <- conv3_3_1
I0929 10:16:46.497627 22954 net.cpp:509] conv3_3bn1 -> conv3_3_1 (in-place)
I0929 10:16:46.497907 22954 net.cpp:172] Setting up conv3_3bn1
I0929 10:16:46.497918 22954 net.cpp:186] Top shape: 10 32 16 16 (81920)
I0929 10:16:46.497922 22954 net.cpp:194] Memory required for data: 35840120
I0929 10:16:46.497947 22954 layer_factory.hpp:77] Creating layer conv3_3_scale1
I0929 10:16:46.497957 22954 net.cpp:128] Creating Layer conv3_3_scale1
I0929 10:16:46.497961 22954 net.cpp:558] conv3_3_scale1 <- conv3_3_1
I0929 10:16:46.497967 22954 net.cpp:509] conv3_3_scale1 -> conv3_3_1 (in-place)
I0929 10:16:46.498021 22954 layer_factory.hpp:77] Creating layer conv3_3_scale1
I0929 10:16:46.498188 22954 net.cpp:172] Setting up conv3_3_scale1
I0929 10:16:46.498199 22954 net.cpp:186] Top shape: 10 32 16 16 (81920)
I0929 10:16:46.498204 22954 net.cpp:194] Memory required for data: 36167800
I0929 10:16:46.498212 22954 layer_factory.hpp:77] Creating layer conv3_Eltwise_3
I0929 10:16:46.498219 22954 net.cpp:128] Creating Layer conv3_Eltwise_3
I0929 10:16:46.498224 22954 net.cpp:558] conv3_Eltwise_3 <- conv3_Eltwise_2_conv3_2ReLU_1_0_split_1
I0929 10:16:46.498229 22954 net.cpp:558] conv3_Eltwise_3 <- conv3_3_1
I0929 10:16:46.498239 22954 net.cpp:522] conv3_Eltwise_3 -> conv3_Eltwise_3
I0929 10:16:46.498261 22954 net.cpp:172] Setting up conv3_Eltwise_3
I0929 10:16:46.498268 22954 net.cpp:186] Top shape: 10 32 16 16 (81920)
I0929 10:16:46.498271 22954 net.cpp:194] Memory required for data: 36495480
I0929 10:16:46.498275 22954 layer_factory.hpp:77] Creating layer conv3_3ReLU_1
I0929 10:16:46.498282 22954 net.cpp:128] Creating Layer conv3_3ReLU_1
I0929 10:16:46.498286 22954 net.cpp:558] conv3_3ReLU_1 <- conv3_Eltwise_3
I0929 10:16:46.498294 22954 net.cpp:509] conv3_3ReLU_1 -> conv3_Eltwise_3 (in-place)
I0929 10:16:46.499577 22954 net.cpp:172] Setting up conv3_3ReLU_1
I0929 10:16:46.499593 22954 net.cpp:186] Top shape: 10 32 16 16 (81920)
I0929 10:16:46.499598 22954 net.cpp:194] Memory required for data: 36823160
I0929 10:16:46.499603 22954 layer_factory.hpp:77] Creating layer conv3_Eltwise_3_conv3_3ReLU_1_0_split
I0929 10:16:46.499614 22954 net.cpp:128] Creating Layer conv3_Eltwise_3_conv3_3ReLU_1_0_split
I0929 10:16:46.499619 22954 net.cpp:558] conv3_Eltwise_3_conv3_3ReLU_1_0_split <- conv3_Eltwise_3
I0929 10:16:46.499624 22954 net.cpp:522] conv3_Eltwise_3_conv3_3ReLU_1_0_split -> conv3_Eltwise_3_conv3_3ReLU_1_0_split_0
I0929 10:16:46.499632 22954 net.cpp:522] conv3_Eltwise_3_conv3_3ReLU_1_0_split -> conv3_Eltwise_3_conv3_3ReLU_1_0_split_1
I0929 10:16:46.499689 22954 net.cpp:172] Setting up conv3_Eltwise_3_conv3_3ReLU_1_0_split
I0929 10:16:46.499696 22954 net.cpp:186] Top shape: 10 32 16 16 (81920)
I0929 10:16:46.499702 22954 net.cpp:186] Top shape: 10 32 16 16 (81920)
I0929 10:16:46.499706 22954 net.cpp:194] Memory required for data: 37478520
I0929 10:16:46.499711 22954 layer_factory.hpp:77] Creating layer conv4_1_0
I0929 10:16:46.499723 22954 net.cpp:128] Creating Layer conv4_1_0
I0929 10:16:46.499728 22954 net.cpp:558] conv4_1_0 <- conv3_Eltwise_3_conv3_3ReLU_1_0_split_0
I0929 10:16:46.499739 22954 net.cpp:522] conv4_1_0 -> conv4_1_0
I0929 10:16:46.506376 22954 net.cpp:172] Setting up conv4_1_0
I0929 10:16:46.506402 22954 net.cpp:186] Top shape: 10 64 8 8 (40960)
I0929 10:16:46.506407 22954 net.cpp:194] Memory required for data: 37642360
I0929 10:16:46.506417 22954 layer_factory.hpp:77] Creating layer conv4_1_bn0
I0929 10:16:46.506428 22954 net.cpp:128] Creating Layer conv4_1_bn0
I0929 10:16:46.506434 22954 net.cpp:558] conv4_1_bn0 <- conv4_1_0
I0929 10:16:46.506443 22954 net.cpp:509] conv4_1_bn0 -> conv4_1_0 (in-place)
I0929 10:16:46.506732 22954 net.cpp:172] Setting up conv4_1_bn0
I0929 10:16:46.506743 22954 net.cpp:186] Top shape: 10 64 8 8 (40960)
I0929 10:16:46.506748 22954 net.cpp:194] Memory required for data: 37806200
I0929 10:16:46.506757 22954 layer_factory.hpp:77] Creating layer conv4_1_scale0
I0929 10:16:46.506765 22954 net.cpp:128] Creating Layer conv4_1_scale0
I0929 10:16:46.506769 22954 net.cpp:558] conv4_1_scale0 <- conv4_1_0
I0929 10:16:46.506778 22954 net.cpp:509] conv4_1_scale0 -> conv4_1_0 (in-place)
I0929 10:16:46.506827 22954 layer_factory.hpp:77] Creating layer conv4_1_scale0
I0929 10:16:46.506990 22954 net.cpp:172] Setting up conv4_1_scale0
I0929 10:16:46.507000 22954 net.cpp:186] Top shape: 10 64 8 8 (40960)
I0929 10:16:46.507004 22954 net.cpp:194] Memory required for data: 37970040
I0929 10:16:46.507012 22954 layer_factory.hpp:77] Creating layer conv4_1_ReLU0
I0929 10:16:46.507019 22954 net.cpp:128] Creating Layer conv4_1_ReLU0
I0929 10:16:46.507022 22954 net.cpp:558] conv4_1_ReLU0 <- conv4_1_0
I0929 10:16:46.507033 22954 net.cpp:509] conv4_1_ReLU0 -> conv4_1_0 (in-place)
I0929 10:16:46.508432 22954 net.cpp:172] Setting up conv4_1_ReLU0
I0929 10:16:46.508450 22954 net.cpp:186] Top shape: 10 64 8 8 (40960)
I0929 10:16:46.508455 22954 net.cpp:194] Memory required for data: 38133880
I0929 10:16:46.508460 22954 layer_factory.hpp:77] Creating layer conv4_1_1
I0929 10:16:46.508472 22954 net.cpp:128] Creating Layer conv4_1_1
I0929 10:16:46.508477 22954 net.cpp:558] conv4_1_1 <- conv4_1_0
I0929 10:16:46.508488 22954 net.cpp:522] conv4_1_1 -> conv4_1_1
I0929 10:16:46.515143 22954 net.cpp:172] Setting up conv4_1_1
I0929 10:16:46.515169 22954 net.cpp:186] Top shape: 10 64 8 8 (40960)
I0929 10:16:46.515173 22954 net.cpp:194] Memory required for data: 38297720
I0929 10:16:46.515183 22954 layer_factory.hpp:77] Creating layer conv4_1bn1
I0929 10:16:46.515194 22954 net.cpp:128] Creating Layer conv4_1bn1
I0929 10:16:46.515200 22954 net.cpp:558] conv4_1bn1 <- conv4_1_1
I0929 10:16:46.515206 22954 net.cpp:509] conv4_1bn1 -> conv4_1_1 (in-place)
I0929 10:16:46.515488 22954 net.cpp:172] Setting up conv4_1bn1
I0929 10:16:46.515499 22954 net.cpp:186] Top shape: 10 64 8 8 (40960)
I0929 10:16:46.515519 22954 net.cpp:194] Memory required for data: 38461560
I0929 10:16:46.515529 22954 layer_factory.hpp:77] Creating layer conv4_1_scale1
I0929 10:16:46.515539 22954 net.cpp:128] Creating Layer conv4_1_scale1
I0929 10:16:46.515544 22954 net.cpp:558] conv4_1_scale1 <- conv4_1_1
I0929 10:16:46.515550 22954 net.cpp:509] conv4_1_scale1 -> conv4_1_1 (in-place)
I0929 10:16:46.515604 22954 layer_factory.hpp:77] Creating layer conv4_1_scale1
I0929 10:16:46.515767 22954 net.cpp:172] Setting up conv4_1_scale1
I0929 10:16:46.515779 22954 net.cpp:186] Top shape: 10 64 8 8 (40960)
I0929 10:16:46.515784 22954 net.cpp:194] Memory required for data: 38625400
I0929 10:16:46.515791 22954 layer_factory.hpp:77] Creating layer conv4_1_down
I0929 10:16:46.515803 22954 net.cpp:128] Creating Layer conv4_1_down
I0929 10:16:46.515808 22954 net.cpp:558] conv4_1_down <- conv3_Eltwise_3_conv3_3ReLU_1_0_split_1
I0929 10:16:46.515820 22954 net.cpp:522] conv4_1_down -> conv4_1_down
I0929 10:16:46.521796 22954 net.cpp:172] Setting up conv4_1_down
I0929 10:16:46.521822 22954 net.cpp:186] Top shape: 10 64 8 8 (40960)
I0929 10:16:46.521827 22954 net.cpp:194] Memory required for data: 38789240
I0929 10:16:46.521837 22954 layer_factory.hpp:77] Creating layer conv4_1_bn_down
I0929 10:16:46.521848 22954 net.cpp:128] Creating Layer conv4_1_bn_down
I0929 10:16:46.521853 22954 net.cpp:558] conv4_1_bn_down <- conv4_1_down
I0929 10:16:46.521860 22954 net.cpp:509] conv4_1_bn_down -> conv4_1_down (in-place)
I0929 10:16:46.522162 22954 net.cpp:172] Setting up conv4_1_bn_down
I0929 10:16:46.522176 22954 net.cpp:186] Top shape: 10 64 8 8 (40960)
I0929 10:16:46.522179 22954 net.cpp:194] Memory required for data: 38953080
I0929 10:16:46.522189 22954 layer_factory.hpp:77] Creating layer conv4_1_scale_down
I0929 10:16:46.522197 22954 net.cpp:128] Creating Layer conv4_1_scale_down
I0929 10:16:46.522202 22954 net.cpp:558] conv4_1_scale_down <- conv4_1_down
I0929 10:16:46.522207 22954 net.cpp:509] conv4_1_scale_down -> conv4_1_down (in-place)
I0929 10:16:46.522262 22954 layer_factory.hpp:77] Creating layer conv4_1_scale_down
I0929 10:16:46.522424 22954 net.cpp:172] Setting up conv4_1_scale_down
I0929 10:16:46.522436 22954 net.cpp:186] Top shape: 10 64 8 8 (40960)
I0929 10:16:46.522440 22954 net.cpp:194] Memory required for data: 39116920
I0929 10:16:46.522449 22954 layer_factory.hpp:77] Creating layer conv4_Eltwise_1
I0929 10:16:46.522455 22954 net.cpp:128] Creating Layer conv4_Eltwise_1
I0929 10:16:46.522459 22954 net.cpp:558] conv4_Eltwise_1 <- conv4_1_1
I0929 10:16:46.522464 22954 net.cpp:558] conv4_Eltwise_1 <- conv4_1_down
I0929 10:16:46.522472 22954 net.cpp:522] conv4_Eltwise_1 -> conv4_Eltwise_1
I0929 10:16:46.522500 22954 net.cpp:172] Setting up conv4_Eltwise_1
I0929 10:16:46.522511 22954 net.cpp:186] Top shape: 10 64 8 8 (40960)
I0929 10:16:46.522514 22954 net.cpp:194] Memory required for data: 39280760
I0929 10:16:46.522518 22954 layer_factory.hpp:77] Creating layer conv4_1ReLU_1
I0929 10:16:46.522524 22954 net.cpp:128] Creating Layer conv4_1ReLU_1
I0929 10:16:46.522528 22954 net.cpp:558] conv4_1ReLU_1 <- conv4_Eltwise_1
I0929 10:16:46.522534 22954 net.cpp:509] conv4_1ReLU_1 -> conv4_Eltwise_1 (in-place)
I0929 10:16:46.523847 22954 net.cpp:172] Setting up conv4_1ReLU_1
I0929 10:16:46.523869 22954 net.cpp:186] Top shape: 10 64 8 8 (40960)
I0929 10:16:46.523874 22954 net.cpp:194] Memory required for data: 39444600
I0929 10:16:46.523878 22954 layer_factory.hpp:77] Creating layer conv4_Eltwise_1_conv4_1ReLU_1_0_split
I0929 10:16:46.523888 22954 net.cpp:128] Creating Layer conv4_Eltwise_1_conv4_1ReLU_1_0_split
I0929 10:16:46.523893 22954 net.cpp:558] conv4_Eltwise_1_conv4_1ReLU_1_0_split <- conv4_Eltwise_1
I0929 10:16:46.523903 22954 net.cpp:522] conv4_Eltwise_1_conv4_1ReLU_1_0_split -> conv4_Eltwise_1_conv4_1ReLU_1_0_split_0
I0929 10:16:46.523912 22954 net.cpp:522] conv4_Eltwise_1_conv4_1ReLU_1_0_split -> conv4_Eltwise_1_conv4_1ReLU_1_0_split_1
I0929 10:16:46.523969 22954 net.cpp:172] Setting up conv4_Eltwise_1_conv4_1ReLU_1_0_split
I0929 10:16:46.523978 22954 net.cpp:186] Top shape: 10 64 8 8 (40960)
I0929 10:16:46.523999 22954 net.cpp:186] Top shape: 10 64 8 8 (40960)
I0929 10:16:46.524003 22954 net.cpp:194] Memory required for data: 39772280
I0929 10:16:46.524008 22954 layer_factory.hpp:77] Creating layer conv4_2_0
I0929 10:16:46.524020 22954 net.cpp:128] Creating Layer conv4_2_0
I0929 10:16:46.524025 22954 net.cpp:558] conv4_2_0 <- conv4_Eltwise_1_conv4_1ReLU_1_0_split_0
I0929 10:16:46.524032 22954 net.cpp:522] conv4_2_0 -> conv4_2_0
I0929 10:16:46.530860 22954 net.cpp:172] Setting up conv4_2_0
I0929 10:16:46.530889 22954 net.cpp:186] Top shape: 10 64 8 8 (40960)
I0929 10:16:46.530894 22954 net.cpp:194] Memory required for data: 39936120
I0929 10:16:46.530903 22954 layer_factory.hpp:77] Creating layer conv4_2_bn0
I0929 10:16:46.530912 22954 net.cpp:128] Creating Layer conv4_2_bn0
I0929 10:16:46.530917 22954 net.cpp:558] conv4_2_bn0 <- conv4_2_0
I0929 10:16:46.530926 22954 net.cpp:509] conv4_2_bn0 -> conv4_2_0 (in-place)
I0929 10:16:46.531222 22954 net.cpp:172] Setting up conv4_2_bn0
I0929 10:16:46.531234 22954 net.cpp:186] Top shape: 10 64 8 8 (40960)
I0929 10:16:46.531239 22954 net.cpp:194] Memory required for data: 40099960
I0929 10:16:46.531249 22954 layer_factory.hpp:77] Creating layer conv4_2_scale0
I0929 10:16:46.531255 22954 net.cpp:128] Creating Layer conv4_2_scale0
I0929 10:16:46.531260 22954 net.cpp:558] conv4_2_scale0 <- conv4_2_0
I0929 10:16:46.531265 22954 net.cpp:509] conv4_2_scale0 -> conv4_2_0 (in-place)
I0929 10:16:46.531321 22954 layer_factory.hpp:77] Creating layer conv4_2_scale0
I0929 10:16:46.531481 22954 net.cpp:172] Setting up conv4_2_scale0
I0929 10:16:46.531493 22954 net.cpp:186] Top shape: 10 64 8 8 (40960)
I0929 10:16:46.531497 22954 net.cpp:194] Memory required for data: 40263800
I0929 10:16:46.531505 22954 layer_factory.hpp:77] Creating layer conv4_2_ReLU0
I0929 10:16:46.531512 22954 net.cpp:128] Creating Layer conv4_2_ReLU0
I0929 10:16:46.531515 22954 net.cpp:558] conv4_2_ReLU0 <- conv4_2_0
I0929 10:16:46.531522 22954 net.cpp:509] conv4_2_ReLU0 -> conv4_2_0 (in-place)
I0929 10:16:46.532719 22954 net.cpp:172] Setting up conv4_2_ReLU0
I0929 10:16:46.532735 22954 net.cpp:186] Top shape: 10 64 8 8 (40960)
I0929 10:16:46.532740 22954 net.cpp:194] Memory required for data: 40427640
I0929 10:16:46.532744 22954 layer_factory.hpp:77] Creating layer conv4_2_1
I0929 10:16:46.532757 22954 net.cpp:128] Creating Layer conv4_2_1
I0929 10:16:46.532763 22954 net.cpp:558] conv4_2_1 <- conv4_2_0
I0929 10:16:46.532769 22954 net.cpp:522] conv4_2_1 -> conv4_2_1
I0929 10:16:46.539511 22954 net.cpp:172] Setting up conv4_2_1
I0929 10:16:46.539537 22954 net.cpp:186] Top shape: 10 64 8 8 (40960)
I0929 10:16:46.539541 22954 net.cpp:194] Memory required for data: 40591480
I0929 10:16:46.539551 22954 layer_factory.hpp:77] Creating layer conv4_2bn1
I0929 10:16:46.539562 22954 net.cpp:128] Creating Layer conv4_2bn1
I0929 10:16:46.539567 22954 net.cpp:558] conv4_2bn1 <- conv4_2_1
I0929 10:16:46.539577 22954 net.cpp:509] conv4_2bn1 -> conv4_2_1 (in-place)
I0929 10:16:46.539870 22954 net.cpp:172] Setting up conv4_2bn1
I0929 10:16:46.539881 22954 net.cpp:186] Top shape: 10 64 8 8 (40960)
I0929 10:16:46.539887 22954 net.cpp:194] Memory required for data: 40755320
I0929 10:16:46.539911 22954 layer_factory.hpp:77] Creating layer conv4_2_scale1
I0929 10:16:46.539919 22954 net.cpp:128] Creating Layer conv4_2_scale1
I0929 10:16:46.539923 22954 net.cpp:558] conv4_2_scale1 <- conv4_2_1
I0929 10:16:46.539932 22954 net.cpp:509] conv4_2_scale1 -> conv4_2_1 (in-place)
I0929 10:16:46.539984 22954 layer_factory.hpp:77] Creating layer conv4_2_scale1
I0929 10:16:46.540145 22954 net.cpp:172] Setting up conv4_2_scale1
I0929 10:16:46.540156 22954 net.cpp:186] Top shape: 10 64 8 8 (40960)
I0929 10:16:46.540161 22954 net.cpp:194] Memory required for data: 40919160
I0929 10:16:46.540169 22954 layer_factory.hpp:77] Creating layer conv4_Eltwise_2
I0929 10:16:46.540179 22954 net.cpp:128] Creating Layer conv4_Eltwise_2
I0929 10:16:46.540184 22954 net.cpp:558] conv4_Eltwise_2 <- conv4_Eltwise_1_conv4_1ReLU_1_0_split_1
I0929 10:16:46.540206 22954 net.cpp:558] conv4_Eltwise_2 <- conv4_2_1
I0929 10:16:46.540213 22954 net.cpp:522] conv4_Eltwise_2 -> conv4_Eltwise_2
I0929 10:16:46.540246 22954 net.cpp:172] Setting up conv4_Eltwise_2
I0929 10:16:46.540253 22954 net.cpp:186] Top shape: 10 64 8 8 (40960)
I0929 10:16:46.540257 22954 net.cpp:194] Memory required for data: 41083000
I0929 10:16:46.540261 22954 layer_factory.hpp:77] Creating layer conv4_2ReLU_1
I0929 10:16:46.540267 22954 net.cpp:128] Creating Layer conv4_2ReLU_1
I0929 10:16:46.540272 22954 net.cpp:558] conv4_2ReLU_1 <- conv4_Eltwise_2
I0929 10:16:46.540279 22954 net.cpp:509] conv4_2ReLU_1 -> conv4_Eltwise_2 (in-place)
I0929 10:16:46.541548 22954 net.cpp:172] Setting up conv4_2ReLU_1
I0929 10:16:46.541563 22954 net.cpp:186] Top shape: 10 64 8 8 (40960)
I0929 10:16:46.541568 22954 net.cpp:194] Memory required for data: 41246840
I0929 10:16:46.541574 22954 layer_factory.hpp:77] Creating layer conv4_Eltwise_2_conv4_2ReLU_1_0_split
I0929 10:16:46.541580 22954 net.cpp:128] Creating Layer conv4_Eltwise_2_conv4_2ReLU_1_0_split
I0929 10:16:46.541584 22954 net.cpp:558] conv4_Eltwise_2_conv4_2ReLU_1_0_split <- conv4_Eltwise_2
I0929 10:16:46.541594 22954 net.cpp:522] conv4_Eltwise_2_conv4_2ReLU_1_0_split -> conv4_Eltwise_2_conv4_2ReLU_1_0_split_0
I0929 10:16:46.541604 22954 net.cpp:522] conv4_Eltwise_2_conv4_2ReLU_1_0_split -> conv4_Eltwise_2_conv4_2ReLU_1_0_split_1
I0929 10:16:46.541659 22954 net.cpp:172] Setting up conv4_Eltwise_2_conv4_2ReLU_1_0_split
I0929 10:16:46.541667 22954 net.cpp:186] Top shape: 10 64 8 8 (40960)
I0929 10:16:46.541673 22954 net.cpp:186] Top shape: 10 64 8 8 (40960)
I0929 10:16:46.541677 22954 net.cpp:194] Memory required for data: 41574520
I0929 10:16:46.541682 22954 layer_factory.hpp:77] Creating layer conv4_3_0
I0929 10:16:46.541693 22954 net.cpp:128] Creating Layer conv4_3_0
I0929 10:16:46.541698 22954 net.cpp:558] conv4_3_0 <- conv4_Eltwise_2_conv4_2ReLU_1_0_split_0
I0929 10:16:46.541708 22954 net.cpp:522] conv4_3_0 -> conv4_3_0
I0929 10:16:46.548509 22954 net.cpp:172] Setting up conv4_3_0
I0929 10:16:46.548537 22954 net.cpp:186] Top shape: 10 64 8 8 (40960)
I0929 10:16:46.548540 22954 net.cpp:194] Memory required for data: 41738360
I0929 10:16:46.548552 22954 layer_factory.hpp:77] Creating layer conv4_3_bn0
I0929 10:16:46.548563 22954 net.cpp:128] Creating Layer conv4_3_bn0
I0929 10:16:46.548569 22954 net.cpp:558] conv4_3_bn0 <- conv4_3_0
I0929 10:16:46.548576 22954 net.cpp:509] conv4_3_bn0 -> conv4_3_0 (in-place)
I0929 10:16:46.548878 22954 net.cpp:172] Setting up conv4_3_bn0
I0929 10:16:46.548890 22954 net.cpp:186] Top shape: 10 64 8 8 (40960)
I0929 10:16:46.548895 22954 net.cpp:194] Memory required for data: 41902200
I0929 10:16:46.548904 22954 layer_factory.hpp:77] Creating layer conv4_3_scale0
I0929 10:16:46.548912 22954 net.cpp:128] Creating Layer conv4_3_scale0
I0929 10:16:46.548916 22954 net.cpp:558] conv4_3_scale0 <- conv4_3_0
I0929 10:16:46.548921 22954 net.cpp:509] conv4_3_scale0 -> conv4_3_0 (in-place)
I0929 10:16:46.548976 22954 layer_factory.hpp:77] Creating layer conv4_3_scale0
I0929 10:16:46.549139 22954 net.cpp:172] Setting up conv4_3_scale0
I0929 10:16:46.549150 22954 net.cpp:186] Top shape: 10 64 8 8 (40960)
I0929 10:16:46.549155 22954 net.cpp:194] Memory required for data: 42066040
I0929 10:16:46.549163 22954 layer_factory.hpp:77] Creating layer conv4_3_ReLU0
I0929 10:16:46.549170 22954 net.cpp:128] Creating Layer conv4_3_ReLU0
I0929 10:16:46.549173 22954 net.cpp:558] conv4_3_ReLU0 <- conv4_3_0
I0929 10:16:46.549181 22954 net.cpp:509] conv4_3_ReLU0 -> conv4_3_0 (in-place)
I0929 10:16:46.550386 22954 net.cpp:172] Setting up conv4_3_ReLU0
I0929 10:16:46.550402 22954 net.cpp:186] Top shape: 10 64 8 8 (40960)
I0929 10:16:46.550406 22954 net.cpp:194] Memory required for data: 42229880
I0929 10:16:46.550411 22954 layer_factory.hpp:77] Creating layer conv4_3_1
I0929 10:16:46.550426 22954 net.cpp:128] Creating Layer conv4_3_1
I0929 10:16:46.550431 22954 net.cpp:558] conv4_3_1 <- conv4_3_0
I0929 10:16:46.550441 22954 net.cpp:522] conv4_3_1 -> conv4_3_1
I0929 10:16:46.557139 22954 net.cpp:172] Setting up conv4_3_1
I0929 10:16:46.557165 22954 net.cpp:186] Top shape: 10 64 8 8 (40960)
I0929 10:16:46.557169 22954 net.cpp:194] Memory required for data: 42393720
I0929 10:16:46.557180 22954 layer_factory.hpp:77] Creating layer conv4_3bn1
I0929 10:16:46.557193 22954 net.cpp:128] Creating Layer conv4_3bn1
I0929 10:16:46.557198 22954 net.cpp:558] conv4_3bn1 <- conv4_3_1
I0929 10:16:46.557204 22954 net.cpp:509] conv4_3bn1 -> conv4_3_1 (in-place)
I0929 10:16:46.557497 22954 net.cpp:172] Setting up conv4_3bn1
I0929 10:16:46.557508 22954 net.cpp:186] Top shape: 10 64 8 8 (40960)
I0929 10:16:46.557513 22954 net.cpp:194] Memory required for data: 42557560
I0929 10:16:46.557523 22954 layer_factory.hpp:77] Creating layer conv4_3_scale1
I0929 10:16:46.557530 22954 net.cpp:128] Creating Layer conv4_3_scale1
I0929 10:16:46.557535 22954 net.cpp:558] conv4_3_scale1 <- conv4_3_1
I0929 10:16:46.557541 22954 net.cpp:509] conv4_3_scale1 -> conv4_3_1 (in-place)
I0929 10:16:46.557596 22954 layer_factory.hpp:77] Creating layer conv4_3_scale1
I0929 10:16:46.557763 22954 net.cpp:172] Setting up conv4_3_scale1
I0929 10:16:46.557777 22954 net.cpp:186] Top shape: 10 64 8 8 (40960)
I0929 10:16:46.557781 22954 net.cpp:194] Memory required for data: 42721400
I0929 10:16:46.557790 22954 layer_factory.hpp:77] Creating layer conv4_Eltwise_3
I0929 10:16:46.557796 22954 net.cpp:128] Creating Layer conv4_Eltwise_3
I0929 10:16:46.557801 22954 net.cpp:558] conv4_Eltwise_3 <- conv4_Eltwise_2_conv4_2ReLU_1_0_split_1
I0929 10:16:46.557807 22954 net.cpp:558] conv4_Eltwise_3 <- conv4_3_1
I0929 10:16:46.557816 22954 net.cpp:522] conv4_Eltwise_3 -> conv4_Eltwise_3
I0929 10:16:46.557843 22954 net.cpp:172] Setting up conv4_Eltwise_3
I0929 10:16:46.557852 22954 net.cpp:186] Top shape: 10 64 8 8 (40960)
I0929 10:16:46.557857 22954 net.cpp:194] Memory required for data: 42885240
I0929 10:16:46.557860 22954 layer_factory.hpp:77] Creating layer conv4_3ReLU_1
I0929 10:16:46.557868 22954 net.cpp:128] Creating Layer conv4_3ReLU_1
I0929 10:16:46.557871 22954 net.cpp:558] conv4_3ReLU_1 <- conv4_Eltwise_3
I0929 10:16:46.557876 22954 net.cpp:509] conv4_3ReLU_1 -> conv4_Eltwise_3 (in-place)
I0929 10:16:46.559161 22954 net.cpp:172] Setting up conv4_3ReLU_1
I0929 10:16:46.559186 22954 net.cpp:186] Top shape: 10 64 8 8 (40960)
I0929 10:16:46.559190 22954 net.cpp:194] Memory required for data: 43049080
I0929 10:16:46.559197 22954 layer_factory.hpp:77] Creating layer Pooling1
I0929 10:16:46.559211 22954 net.cpp:128] Creating Layer Pooling1
I0929 10:16:46.559216 22954 net.cpp:558] Pooling1 <- conv4_Eltwise_3
I0929 10:16:46.559223 22954 net.cpp:522] Pooling1 -> Pooling1
I0929 10:16:46.561393 22954 net.cpp:172] Setting up Pooling1
I0929 10:16:46.561414 22954 net.cpp:186] Top shape: 10 64 1 1 (640)
I0929 10:16:46.561419 22954 net.cpp:194] Memory required for data: 43051640
I0929 10:16:46.561424 22954 layer_factory.hpp:77] Creating layer fc1
I0929 10:16:46.561434 22954 net.cpp:128] Creating Layer fc1
I0929 10:16:46.561439 22954 net.cpp:558] fc1 <- Pooling1
I0929 10:16:46.561452 22954 net.cpp:522] fc1 -> fc1
I0929 10:16:46.561628 22954 net.cpp:172] Setting up fc1
I0929 10:16:46.561640 22954 net.cpp:186] Top shape: 10 10 (100)
I0929 10:16:46.561643 22954 net.cpp:194] Memory required for data: 43052040
I0929 10:16:46.561652 22954 layer_factory.hpp:77] Creating layer fc1_fc1_0_split
I0929 10:16:46.561661 22954 net.cpp:128] Creating Layer fc1_fc1_0_split
I0929 10:16:46.561666 22954 net.cpp:558] fc1_fc1_0_split <- fc1
I0929 10:16:46.561674 22954 net.cpp:522] fc1_fc1_0_split -> fc1_fc1_0_split_0
I0929 10:16:46.561682 22954 net.cpp:522] fc1_fc1_0_split -> fc1_fc1_0_split_1
I0929 10:16:46.561730 22954 net.cpp:172] Setting up fc1_fc1_0_split
I0929 10:16:46.561739 22954 net.cpp:186] Top shape: 10 10 (100)
I0929 10:16:46.561744 22954 net.cpp:186] Top shape: 10 10 (100)
I0929 10:16:46.561748 22954 net.cpp:194] Memory required for data: 43052840
I0929 10:16:46.561753 22954 layer_factory.hpp:77] Creating layer Softmax1
I0929 10:16:46.561759 22954 net.cpp:128] Creating Layer Softmax1
I0929 10:16:46.561782 22954 net.cpp:558] Softmax1 <- fc1_fc1_0_split_0
I0929 10:16:46.561789 22954 net.cpp:558] Softmax1 <- label_Data1_1_split_0
I0929 10:16:46.561794 22954 net.cpp:522] Softmax1 -> Softmax1
…
