…
I1128 15:19:18.883656 26047 solver.cpp:77] Creating training net from train_net file: /home/ljf/caffe-master/examples/ljftest_cifar10_mobilenet/train.prototxt
I1128 15:19:18.884021 26047 net.cpp:51] Initializing net from parameters: 
state {
  phase: TRAIN
  level: 0
  stage: ""
}
layer {
  name: "Data1"
  type: "Data"
  top: "Data1"
  top: "Data2"
  transform_param {
    mirror: true
    crop_size: 28
  }
  data_param {
    source: "/home/ljf/caffe-master/examples/ljftest_cifar10_mobilenet/train_lmdb"
    batch_size: 128
    backend: LMDB
  }
  image_data_param {
    shuffle: true
  }
}
layer {
  name: "Convolution1"
  type: "Convolution"
  bottom: "Data1"
  top: "Convolution1"
  convolution_param {
    num_output: 32
    bias_term: true
    pad: 1
    kernel_size: 3
    stride: 1
    weight_filler {
      type: "msra"
    }
    bias_filler {
      type: "constant"
    }
  }
}
layer {
  name: "BatchNorm1"
  type: "BatchNorm"
  bottom: "Convolution1"
  top: "Convolution1"
  batch_norm_param {
    use_global_stats: false
  }
}
layer {
  name: "Scale1"
  type: "Scale"
  bottom: "Convolution1"
  top: "Convolution1"
  scale_param {
    bias_term: true
  }
}
layer {
  name: "ReLU1"
  type: "ReLU"
  bottom: "Convolution1"
  top: "Convolution1"
}
layer {
  name: "Convolution2"
  type: "Convolution"
  bottom: "Convolution1"
  top: "Convolution2"
  convolution_param {
    num_output: 32
    bias_term: true
    pad: 1
    kernel_size: 3
    group: 32
    stride: 1
    weight_filler {
      type: "msra"
    }
    bias_filler {
      type: "constant"
    }
  }
}
layer {
  name: "BatchNorm2"
  type: "BatchNorm"
  bottom: "Convolution2"
  top: "Convolution2"
  batch_norm_param {
    use_global_stats: false
  }
}
layer {
  name: "Scale2"
  type: "Scale"
  bottom: "Convolution2"
  top: "Convolution2"
  scale_param {
    bias_term: true
  }
}
layer {
  name: "ReLU2"
  type: "ReLU"
  bottom: "Convolution2"
  top: "Convolution2"
}
layer {
  name: "Convolution3"
  type: "Convolution"
  bottom: "Convolution2"
  top: "Convolution3"
  convolution_param {
    num_output: 64
    bias_term: true
    pad: 0
    kernel_size: 1
    stride: 1
    weight_filler {
      type: "msra"
    }
    bias_filler {
      type: "constant"
    }
  }
}
layer {
  name: "BatchNorm3"
  type: "BatchNorm"
  bottom: "Convolution3"
  top: "Convolution3"
  batch_norm_param {
    use_global_stats: false
  }
}
layer {
  name: "Scale3"
  type: "Scale"
  bottom: "Convolution3"
  top: "Convolution3"
  scale_param {
    bias_term: true
  }
}
layer {
  name: "ReLU3"
  type: "ReLU"
  bottom: "Convolution3"
  top: "Convolution3"
}
layer {
  name: "Convolution4"
  type: "Convolution"
  bottom: "Convolution3"
  top: "Convolution4"
  convolution_param {
    num_output: 64
    bias_term: true
    pad: 1
    kernel_size: 3
    group: 64
    stride: 2
    weight_filler {
      type: "msra"
    }
    bias_filler {
      type: "constant"
    }
  }
}
layer {
  name: "BatchNorm4"
  type: "BatchNorm"
  bottom: "Convolution4"
  top: "Convolution4"
  batch_norm_param {
    use_global_stats: false
  }
}
layer {
  name: "Scale4"
  type: "Scale"
  bottom: "Convolution4"
  top: "Convolution4"
  scale_param {
    bias_term: true
  }
}
layer {
  name: "ReLU4"
  type: "ReLU"
  bottom: "Convolution4"
  top: "Convolution4"
}
layer {
  name: "Convolution5"
  type: "Convolution"
  bottom: "Convolution4"
  top: "Convolution5"
  convolution_param {
    num_output: 128
    bias_term: true
    pad: 0
    kernel_size: 1
    stride: 1
    weight_filler {
      type: "msra"
    }
    bias_filler {
      type: "constant"
    }
  }
}
layer {
  name: "BatchNorm5"
  type: "BatchNorm"
  bottom: "Convolution5"
  top: "Convolution5"
  batch_norm_param {
    use_global_stats: false
  }
}
layer {
  name: "Scale5"
  type: "Scale"
  bottom: "Convolution5"
  top: "Convolution5"
  scale_param {
    bias_term: true
  }
}
layer {
  name: "ReLU5"
  type: "ReLU"
  bottom: "Convolution5"
  top: "Convolution5"
}
layer {
  name: "Convolution6"
  type: "Convolution"
  bottom: "Convolution5"
  top: "Convolution6"
  convolution_param {
    num_output: 128
    bias_term: true
    pad: 1
    kernel_size: 3
    group: 128
    stride: 2
    weight_filler {
      type: "msra"
    }
    bias_filler {
      type: "constant"
    }
  }
}
layer {
  name: "BatchNorm6"
  type: "BatchNorm"
  bottom: "Convolution6"
  top: "Convolution6"
  batch_norm_param {
    use_global_stats: false
  }
}
layer {
  name: "Scale6"
  type: "Scale"
  bottom: "Convolution6"
  top: "Convolution6"
  scale_param {
    bias_term: true
  }
}
layer {
  name: "ReLU6"
  type: "ReLU"
  bottom: "Convolution6"
  top: "Convolution6"
}
layer {
  name: "Convolution7"
  type: "Convolution"
  bottom: "Convolution6"
  top: "Convolution7"
  convolution_param {
    num_output: 256
    bias_term: true
    pad: 0
    kernel_size: 1
    stride: 1
    weight_filler {
      type: "msra"
    }
    bias_filler {
      type: "constant"
    }
  }
}
layer {
  name: "BatchNorm7"
  type: "BatchNorm"
  bottom: "Convolution7"
  top: "Convolution7"
  batch_norm_param {
    use_global_stats: false
  }
}
layer {
  name: "Scale7"
  type: "Scale"
  bottom: "Convolution7"
  top: "Convolution7"
  scale_param {
    bias_term: true
  }
}
layer {
  name: "ReLU7"
  type: "ReLU"
  bottom: "Convolution7"
  top: "Convolution7"
}
layer {
  name: "Convolution8"
  type: "Convolution"
  bottom: "Convolution7"
  top: "Convolution8"
  convolution_param {
    num_output: 256
    bias_term: true
    pad: 1
    kernel_size: 3
    group: 256
    stride: 2
    weight_filler {
      type: "msra"
    }
    bias_filler {
      type: "constant"
    }
  }
}
layer {
  name: "BatchNorm8"
  type: "BatchNorm"
  bottom: "Convolution8"
  top: "Convolution8"
  batch_norm_param {
    use_global_stats: false
  }
}
layer {
  name: "Scale8"
  type: "Scale"
  bottom: "Convolution8"
  top: "Convolution8"
  scale_param {
    bias_term: true
  }
}
layer {
  name: "ReLU8"
  type: "ReLU"
  bottom: "Convolution8"
  top: "Convolution8"
}
layer {
  name: "Convolution9"
  type: "Convolution"
  bottom: "Convolution8"
  top: "Convolution9"
  convolution_param {
    num_output: 512
    bias_term: true
    pad: 0
    kernel_size: 1
    stride: 1
    weight_filler {
      type: "msra"
    }
    bias_filler {
      type: "constant"
    }
  }
}
layer {
  name: "BatchNorm9"
  type: "BatchNorm"
  bottom: "Convolution9"
  top: "Convolution9"
  batch_norm_param {
    use_global_stats: false
  }
}
layer {
  name: "Scale9"
  type: "Scale"
  bottom: "Convolution9"
  top: "Convolution9"
  scale_param {
    bias_term: true
  }
}
layer {
  name: "ReLU9"
  type: "ReLU"
  bottom: "Convolution9"
  top: "Convolution9"
}
layer {
  name: "Convolution10"
  type: "Convolution"
  bottom: "Convolution9"
  top: "Convolution10"
  convolution_param {
    num_output: 512
    bias_term: true
    pad: 1
    kernel_size: 3
    group: 512
    stride: 2
    weight_filler {
      type: "msra"
    }
    bias_filler {
      type: "constant"
    }
  }
}
layer {
  name: "BatchNorm10"
  type: "BatchNorm"
  bottom: "Convolution10"
  top: "Convolution10"
  batch_norm_param {
    use_global_stats: false
  }
}
layer {
  name: "Scale10"
  type: "Scale"
  bottom: "Convolution10"
  top: "Convolution10"
  scale_param {
    bias_term: true
  }
}
layer {
  name: "ReLU10"
  type: "ReLU"
  bottom: "Convolution10"
  top: "Convolution10"
}
layer {
  name: "Convolution11"
  type: "Convolution"
  bottom: "Convolution10"
  top: "Convolution11"
  convolution_param {
    num_output: 1024
    bias_term: true
    pad: 0
    kernel_size: 1
    stride: 1
    weight_filler {
      type: "msra"
    }
    bias_filler {
      type: "constant"
    }
  }
}
layer {
  name: "BatchNorm11"
  type: "BatchNorm"
  bottom: "Convolution11"
  top: "Convolution11"
  batch_norm_param {
    use_global_stats: false
  }
}
layer {
  name: "Scale11"
  type: "Scale"
  bottom: "Convolution11"
  top: "Convolution11"
  scale_param {
    bias_term: true
  }
}
layer {
  name: "ReLU11"
  type: "ReLU"
  bottom: "Convolution11"
  top: "Convolution11"
}
layer {
  name: "Pooling1"
  type: "Pooling"
  bottom: "Convolution11"
  top: "Pooling1"
  pooling_param {
    pool: AVE
    global_pooling: true
  }
}
layer {
  name: "InnerProduct1"
  type: "InnerProduct"
  bottom: "Pooling1"
  top: "InnerProduct1"
  inner_product_param {
    num_output: 10
    weight_filler {
      type: "xavier"
    }
    bias_filler {
      type: "constant"
    }
  }
}
layer {
  name: "SoftmaxWithLoss1"
  type: "SoftmaxWithLoss"
  bottom: "InnerProduct1"
  bottom: "Data2"
  top: "SoftmaxWithLoss1"
}
I1128 15:19:18.884145 26047 layer_factory.hpp:77] Creating layer Data1
I1128 15:19:18.884224 26047 db_lmdb.cpp:35] Opened lmdb /home/ljf/caffe-master/examples/ljftest_cifar10_mobilenet/train_lmdb
I1128 15:19:18.884271 26047 net.cpp:84] Creating Layer Data1
I1128 15:19:18.884276 26047 net.cpp:380] Data1 -> Data1
I1128 15:19:18.884294 26047 net.cpp:380] Data1 -> Data2
I1128 15:19:18.885011 26047 data_layer.cpp:45] output data size: 128,3,28,28
I1128 15:19:18.888813 26047 net.cpp:122] Setting up Data1
I1128 15:19:18.888833 26047 net.cpp:129] Top shape: 128 3 28 28 (301056)
I1128 15:19:18.888836 26047 net.cpp:129] Top shape: 128 (128)
I1128 15:19:18.888839 26047 net.cpp:137] Memory required for data: 1204736
I1128 15:19:18.888849 26047 layer_factory.hpp:77] Creating layer Convolution1
I1128 15:19:18.888867 26047 net.cpp:84] Creating Layer Convolution1
I1128 15:19:18.888873 26047 net.cpp:406] Convolution1 <- Data1
I1128 15:19:18.888885 26047 net.cpp:380] Convolution1 -> Convolution1
I1128 15:19:19.092967 26047 net.cpp:122] Setting up Convolution1
I1128 15:19:19.093003 26047 net.cpp:129] Top shape: 128 32 28 28 (3211264)
I1128 15:19:19.093008 26047 net.cpp:137] Memory required for data: 14049792
I1128 15:19:19.093031 26047 layer_factory.hpp:77] Creating layer BatchNorm1
I1128 15:19:19.093040 26047 net.cpp:84] Creating Layer BatchNorm1
I1128 15:19:19.093044 26047 net.cpp:406] BatchNorm1 <- Convolution1
I1128 15:19:19.093047 26047 net.cpp:367] BatchNorm1 -> Convolution1 (in-place)
I1128 15:19:19.093183 26047 net.cpp:122] Setting up BatchNorm1
I1128 15:19:19.093186 26047 net.cpp:129] Top shape: 128 32 28 28 (3211264)
I1128 15:19:19.093202 26047 net.cpp:137] Memory required for data: 26894848
I1128 15:19:19.093209 26047 layer_factory.hpp:77] Creating layer Scale1
I1128 15:19:19.093214 26047 net.cpp:84] Creating Layer Scale1
I1128 15:19:19.093215 26047 net.cpp:406] Scale1 <- Convolution1
I1128 15:19:19.093219 26047 net.cpp:367] Scale1 -> Convolution1 (in-place)
I1128 15:19:19.093243 26047 layer_factory.hpp:77] Creating layer Scale1
I1128 15:19:19.093314 26047 net.cpp:122] Setting up Scale1
I1128 15:19:19.093318 26047 net.cpp:129] Top shape: 128 32 28 28 (3211264)
I1128 15:19:19.093320 26047 net.cpp:137] Memory required for data: 39739904
I1128 15:19:19.093323 26047 layer_factory.hpp:77] Creating layer ReLU1
I1128 15:19:19.093328 26047 net.cpp:84] Creating Layer ReLU1
I1128 15:19:19.093330 26047 net.cpp:406] ReLU1 <- Convolution1
I1128 15:19:19.093333 26047 net.cpp:367] ReLU1 -> Convolution1 (in-place)
I1128 15:19:19.093469 26047 net.cpp:122] Setting up ReLU1
I1128 15:19:19.093475 26047 net.cpp:129] Top shape: 128 32 28 28 (3211264)
I1128 15:19:19.093477 26047 net.cpp:137] Memory required for data: 52584960
I1128 15:19:19.093478 26047 layer_factory.hpp:77] Creating layer Convolution2
I1128 15:19:19.093484 26047 net.cpp:84] Creating Layer Convolution2
I1128 15:19:19.093499 26047 net.cpp:406] Convolution2 <- Convolution1
I1128 15:19:19.093502 26047 net.cpp:380] Convolution2 -> Convolution2
I1128 15:19:19.109099 26047 net.cpp:122] Setting up Convolution2
I1128 15:19:19.109117 26047 net.cpp:129] Top shape: 128 32 28 28 (3211264)
I1128 15:19:19.109119 26047 net.cpp:137] Memory required for data: 65430016
I1128 15:19:19.109128 26047 layer_factory.hpp:77] Creating layer BatchNorm2
I1128 15:19:19.109134 26047 net.cpp:84] Creating Layer BatchNorm2
I1128 15:19:19.109138 26047 net.cpp:406] BatchNorm2 <- Convolution2
I1128 15:19:19.109143 26047 net.cpp:367] BatchNorm2 -> Convolution2 (in-place)
I1128 15:19:19.109308 26047 net.cpp:122] Setting up BatchNorm2
I1128 15:19:19.109313 26047 net.cpp:129] Top shape: 128 32 28 28 (3211264)
I1128 15:19:19.109313 26047 net.cpp:137] Memory required for data: 78275072
I1128 15:19:19.109318 26047 layer_factory.hpp:77] Creating layer Scale2
I1128 15:19:19.109321 26047 net.cpp:84] Creating Layer Scale2
I1128 15:19:19.109323 26047 net.cpp:406] Scale2 <- Convolution2
I1128 15:19:19.109325 26047 net.cpp:367] Scale2 -> Convolution2 (in-place)
I1128 15:19:19.109349 26047 layer_factory.hpp:77] Creating layer Scale2
I1128 15:19:19.109457 26047 net.cpp:122] Setting up Scale2
I1128 15:19:19.109460 26047 net.cpp:129] Top shape: 128 32 28 28 (3211264)
I1128 15:19:19.109462 26047 net.cpp:137] Memory required for data: 91120128
I1128 15:19:19.109465 26047 layer_factory.hpp:77] Creating layer ReLU2
I1128 15:19:19.109470 26047 net.cpp:84] Creating Layer ReLU2
I1128 15:19:19.109472 26047 net.cpp:406] ReLU2 <- Convolution2
I1128 15:19:19.109474 26047 net.cpp:367] ReLU2 -> Convolution2 (in-place)
I1128 15:19:19.109619 26047 net.cpp:122] Setting up ReLU2
I1128 15:19:19.109624 26047 net.cpp:129] Top shape: 128 32 28 28 (3211264)
I1128 15:19:19.109625 26047 net.cpp:137] Memory required for data: 103965184
I1128 15:19:19.109627 26047 layer_factory.hpp:77] Creating layer Convolution3
I1128 15:19:19.109633 26047 net.cpp:84] Creating Layer Convolution3
I1128 15:19:19.109635 26047 net.cpp:406] Convolution3 <- Convolution2
I1128 15:19:19.109639 26047 net.cpp:380] Convolution3 -> Convolution3
I1128 15:19:19.110893 26047 net.cpp:122] Setting up Convolution3
I1128 15:19:19.110903 26047 net.cpp:129] Top shape: 128 64 28 28 (6422528)
I1128 15:19:19.110904 26047 net.cpp:137] Memory required for data: 129655296
I1128 15:19:19.110908 26047 layer_factory.hpp:77] Creating layer BatchNorm3
I1128 15:19:19.110913 26047 net.cpp:84] Creating Layer BatchNorm3
I1128 15:19:19.110914 26047 net.cpp:406] BatchNorm3 <- Convolution3
I1128 15:19:19.110918 26047 net.cpp:367] BatchNorm3 -> Convolution3 (in-place)
I1128 15:19:19.111074 26047 net.cpp:122] Setting up BatchNorm3
I1128 15:19:19.111079 26047 net.cpp:129] Top shape: 128 64 28 28 (6422528)
I1128 15:19:19.111080 26047 net.cpp:137] Memory required for data: 155345408
I1128 15:19:19.111088 26047 layer_factory.hpp:77] Creating layer Scale3
I1128 15:19:19.111090 26047 net.cpp:84] Creating Layer Scale3
I1128 15:19:19.111091 26047 net.cpp:406] Scale3 <- Convolution3
I1128 15:19:19.111094 26047 net.cpp:367] Scale3 -> Convolution3 (in-place)
I1128 15:19:19.111116 26047 layer_factory.hpp:77] Creating layer Scale3
I1128 15:19:19.111222 26047 net.cpp:122] Setting up Scale3
I1128 15:19:19.111227 26047 net.cpp:129] Top shape: 128 64 28 28 (6422528)
I1128 15:19:19.111227 26047 net.cpp:137] Memory required for data: 181035520
I1128 15:19:19.111232 26047 layer_factory.hpp:77] Creating layer ReLU3
I1128 15:19:19.111235 26047 net.cpp:84] Creating Layer ReLU3
I1128 15:19:19.111238 26047 net.cpp:406] ReLU3 <- Convolution3
I1128 15:19:19.111239 26047 net.cpp:367] ReLU3 -> Convolution3 (in-place)
I1128 15:19:19.111379 26047 net.cpp:122] Setting up ReLU3
I1128 15:19:19.111384 26047 net.cpp:129] Top shape: 128 64 28 28 (6422528)
I1128 15:19:19.111387 26047 net.cpp:137] Memory required for data: 206725632
I1128 15:19:19.111387 26047 layer_factory.hpp:77] Creating layer Convolution4
I1128 15:19:19.111393 26047 net.cpp:84] Creating Layer Convolution4
I1128 15:19:19.111395 26047 net.cpp:406] Convolution4 <- Convolution3
I1128 15:19:19.111409 26047 net.cpp:380] Convolution4 -> Convolution4
I1128 15:19:19.143265 26047 net.cpp:122] Setting up Convolution4
I1128 15:19:19.143298 26047 net.cpp:129] Top shape: 128 64 14 14 (1605632)
I1128 15:19:19.143301 26047 net.cpp:137] Memory required for data: 213148160
I1128 15:19:19.143309 26047 layer_factory.hpp:77] Creating layer BatchNorm4
I1128 15:19:19.143318 26047 net.cpp:84] Creating Layer BatchNorm4
I1128 15:19:19.143321 26047 net.cpp:406] BatchNorm4 <- Convolution4
I1128 15:19:19.143326 26047 net.cpp:367] BatchNorm4 -> Convolution4 (in-place)
I1128 15:19:19.143491 26047 net.cpp:122] Setting up BatchNorm4
I1128 15:19:19.143496 26047 net.cpp:129] Top shape: 128 64 14 14 (1605632)
I1128 15:19:19.143512 26047 net.cpp:137] Memory required for data: 219570688
I1128 15:19:19.143515 26047 layer_factory.hpp:77] Creating layer Scale4
I1128 15:19:19.143518 26047 net.cpp:84] Creating Layer Scale4
I1128 15:19:19.143522 26047 net.cpp:406] Scale4 <- Convolution4
I1128 15:19:19.143524 26047 net.cpp:367] Scale4 -> Convolution4 (in-place)
I1128 15:19:19.143566 26047 layer_factory.hpp:77] Creating layer Scale4
I1128 15:19:19.143688 26047 net.cpp:122] Setting up Scale4
I1128 15:19:19.143693 26047 net.cpp:129] Top shape: 128 64 14 14 (1605632)
I1128 15:19:19.143695 26047 net.cpp:137] Memory required for data: 225993216
I1128 15:19:19.143712 26047 layer_factory.hpp:77] Creating layer ReLU4
I1128 15:19:19.143718 26047 net.cpp:84] Creating Layer ReLU4
I1128 15:19:19.143720 26047 net.cpp:406] ReLU4 <- Convolution4
I1128 15:19:19.143723 26047 net.cpp:367] ReLU4 -> Convolution4 (in-place)
I1128 15:19:19.143852 26047 net.cpp:122] Setting up ReLU4
I1128 15:19:19.143857 26047 net.cpp:129] Top shape: 128 64 14 14 (1605632)
I1128 15:19:19.143859 26047 net.cpp:137] Memory required for data: 232415744
I1128 15:19:19.143875 26047 layer_factory.hpp:77] Creating layer Convolution5
I1128 15:19:19.143882 26047 net.cpp:84] Creating Layer Convolution5
I1128 15:19:19.143883 26047 net.cpp:406] Convolution5 <- Convolution4
I1128 15:19:19.143888 26047 net.cpp:380] Convolution5 -> Convolution5
I1128 15:19:19.145403 26047 net.cpp:122] Setting up Convolution5
I1128 15:19:19.145412 26047 net.cpp:129] Top shape: 128 128 14 14 (3211264)
I1128 15:19:19.145428 26047 net.cpp:137] Memory required for data: 245260800
I1128 15:19:19.145432 26047 layer_factory.hpp:77] Creating layer BatchNorm5
I1128 15:19:19.145437 26047 net.cpp:84] Creating Layer BatchNorm5
I1128 15:19:19.145439 26047 net.cpp:406] BatchNorm5 <- Convolution5
I1128 15:19:19.145442 26047 net.cpp:367] BatchNorm5 -> Convolution5 (in-place)
I1128 15:19:19.145598 26047 net.cpp:122] Setting up BatchNorm5
I1128 15:19:19.145604 26047 net.cpp:129] Top shape: 128 128 14 14 (3211264)
I1128 15:19:19.145619 26047 net.cpp:137] Memory required for data: 258105856
I1128 15:19:19.145627 26047 layer_factory.hpp:77] Creating layer Scale5
I1128 15:19:19.145629 26047 net.cpp:84] Creating Layer Scale5
I1128 15:19:19.145632 26047 net.cpp:406] Scale5 <- Convolution5
I1128 15:19:19.145635 26047 net.cpp:367] Scale5 -> Convolution5 (in-place)
I1128 15:19:19.145660 26047 layer_factory.hpp:77] Creating layer Scale5
I1128 15:19:19.145767 26047 net.cpp:122] Setting up Scale5
I1128 15:19:19.145772 26047 net.cpp:129] Top shape: 128 128 14 14 (3211264)
I1128 15:19:19.145774 26047 net.cpp:137] Memory required for data: 270950912
I1128 15:19:19.145777 26047 layer_factory.hpp:77] Creating layer ReLU5
I1128 15:19:19.145779 26047 net.cpp:84] Creating Layer ReLU5
I1128 15:19:19.145781 26047 net.cpp:406] ReLU5 <- Convolution5
I1128 15:19:19.145784 26047 net.cpp:367] ReLU5 -> Convolution5 (in-place)
I1128 15:19:19.145917 26047 net.cpp:122] Setting up ReLU5
I1128 15:19:19.145923 26047 net.cpp:129] Top shape: 128 128 14 14 (3211264)
I1128 15:19:19.145939 26047 net.cpp:137] Memory required for data: 283795968
I1128 15:19:19.145941 26047 layer_factory.hpp:77] Creating layer Convolution6
I1128 15:19:19.145947 26047 net.cpp:84] Creating Layer Convolution6
I1128 15:19:19.145949 26047 net.cpp:406] Convolution6 <- Convolution5
I1128 15:19:19.145963 26047 net.cpp:380] Convolution6 -> Convolution6
I1128 15:19:19.212424 26047 net.cpp:122] Setting up Convolution6
I1128 15:19:19.212458 26047 net.cpp:129] Top shape: 128 128 7 7 (802816)
I1128 15:19:19.212462 26047 net.cpp:137] Memory required for data: 287007232
I1128 15:19:19.212472 26047 layer_factory.hpp:77] Creating layer BatchNorm6
I1128 15:19:19.212482 26047 net.cpp:84] Creating Layer BatchNorm6
I1128 15:19:19.212486 26047 net.cpp:406] BatchNorm6 <- Convolution6
I1128 15:19:19.212489 26047 net.cpp:367] BatchNorm6 -> Convolution6 (in-place)
I1128 15:19:19.212694 26047 net.cpp:122] Setting up BatchNorm6
I1128 15:19:19.212698 26047 net.cpp:129] Top shape: 128 128 7 7 (802816)
I1128 15:19:19.212714 26047 net.cpp:137] Memory required for data: 290218496
I1128 15:19:19.212719 26047 layer_factory.hpp:77] Creating layer Scale6
I1128 15:19:19.212723 26047 net.cpp:84] Creating Layer Scale6
I1128 15:19:19.212725 26047 net.cpp:406] Scale6 <- Convolution6
I1128 15:19:19.212728 26047 net.cpp:367] Scale6 -> Convolution6 (in-place)
I1128 15:19:19.212760 26047 layer_factory.hpp:77] Creating layer Scale6
I1128 15:19:19.212901 26047 net.cpp:122] Setting up Scale6
I1128 15:19:19.212905 26047 net.cpp:129] Top shape: 128 128 7 7 (802816)
I1128 15:19:19.212908 26047 net.cpp:137] Memory required for data: 293429760
I1128 15:19:19.212924 26047 layer_factory.hpp:77] Creating layer ReLU6
I1128 15:19:19.212929 26047 net.cpp:84] Creating Layer ReLU6
I1128 15:19:19.212930 26047 net.cpp:406] ReLU6 <- Convolution6
I1128 15:19:19.212932 26047 net.cpp:367] ReLU6 -> Convolution6 (in-place)
I1128 15:19:19.213261 26047 net.cpp:122] Setting up ReLU6
I1128 15:19:19.213284 26047 net.cpp:129] Top shape: 128 128 7 7 (802816)
I1128 15:19:19.213286 26047 net.cpp:137] Memory required for data: 296641024
I1128 15:19:19.213289 26047 layer_factory.hpp:77] Creating layer Convolution7
I1128 15:19:19.213294 26047 net.cpp:84] Creating Layer Convolution7
I1128 15:19:19.213296 26047 net.cpp:406] Convolution7 <- Convolution6
I1128 15:19:19.213300 26047 net.cpp:380] Convolution7 -> Convolution7
I1128 15:19:19.214876 26047 net.cpp:122] Setting up Convolution7
I1128 15:19:19.214900 26047 net.cpp:129] Top shape: 128 256 7 7 (1605632)
I1128 15:19:19.214902 26047 net.cpp:137] Memory required for data: 303063552
I1128 15:19:19.214906 26047 layer_factory.hpp:77] Creating layer BatchNorm7
I1128 15:19:19.214910 26047 net.cpp:84] Creating Layer BatchNorm7
I1128 15:19:19.214911 26047 net.cpp:406] BatchNorm7 <- Convolution7
I1128 15:19:19.214915 26047 net.cpp:367] BatchNorm7 -> Convolution7 (in-place)
I1128 15:19:19.215112 26047 net.cpp:122] Setting up BatchNorm7
I1128 15:19:19.215116 26047 net.cpp:129] Top shape: 128 256 7 7 (1605632)
I1128 15:19:19.215132 26047 net.cpp:137] Memory required for data: 309486080
I1128 15:19:19.215135 26047 layer_factory.hpp:77] Creating layer Scale7
I1128 15:19:19.215139 26047 net.cpp:84] Creating Layer Scale7
I1128 15:19:19.215140 26047 net.cpp:406] Scale7 <- Convolution7
I1128 15:19:19.215143 26047 net.cpp:367] Scale7 -> Convolution7 (in-place)
I1128 15:19:19.215174 26047 layer_factory.hpp:77] Creating layer Scale7
I1128 15:19:19.215304 26047 net.cpp:122] Setting up Scale7
I1128 15:19:19.215308 26047 net.cpp:129] Top shape: 128 256 7 7 (1605632)
I1128 15:19:19.215311 26047 net.cpp:137] Memory required for data: 315908608
I1128 15:19:19.215313 26047 layer_factory.hpp:77] Creating layer ReLU7
I1128 15:19:19.215328 26047 net.cpp:84] Creating Layer ReLU7
I1128 15:19:19.215330 26047 net.cpp:406] ReLU7 <- Convolution7
I1128 15:19:19.215333 26047 net.cpp:367] ReLU7 -> Convolution7 (in-place)
I1128 15:19:19.215487 26047 net.cpp:122] Setting up ReLU7
I1128 15:19:19.215493 26047 net.cpp:129] Top shape: 128 256 7 7 (1605632)
I1128 15:19:19.215509 26047 net.cpp:137] Memory required for data: 322331136
I1128 15:19:19.215510 26047 layer_factory.hpp:77] Creating layer Convolution8
I1128 15:19:19.215515 26047 net.cpp:84] Creating Layer Convolution8
I1128 15:19:19.215518 26047 net.cpp:406] Convolution8 <- Convolution7
I1128 15:19:19.215533 26047 net.cpp:380] Convolution8 -> Convolution8
I1128 15:19:19.360308 26047 net.cpp:122] Setting up Convolution8
I1128 15:19:19.360342 26047 net.cpp:129] Top shape: 128 256 4 4 (524288)
I1128 15:19:19.360347 26047 net.cpp:137] Memory required for data: 324428288
I1128 15:19:19.360357 26047 layer_factory.hpp:77] Creating layer BatchNorm8
I1128 15:19:19.360366 26047 net.cpp:84] Creating Layer BatchNorm8
I1128 15:19:19.360368 26047 net.cpp:406] BatchNorm8 <- Convolution8
I1128 15:19:19.360374 26047 net.cpp:367] BatchNorm8 -> Convolution8 (in-place)
I1128 15:19:19.360687 26047 net.cpp:122] Setting up BatchNorm8
I1128 15:19:19.360692 26047 net.cpp:129] Top shape: 128 256 4 4 (524288)
I1128 15:19:19.360707 26047 net.cpp:137] Memory required for data: 326525440
I1128 15:19:19.360711 26047 layer_factory.hpp:77] Creating layer Scale8
I1128 15:19:19.360715 26047 net.cpp:84] Creating Layer Scale8
I1128 15:19:19.360716 26047 net.cpp:406] Scale8 <- Convolution8
I1128 15:19:19.360720 26047 net.cpp:367] Scale8 -> Convolution8 (in-place)
I1128 15:19:19.360769 26047 layer_factory.hpp:77] Creating layer Scale8
I1128 15:19:19.360941 26047 net.cpp:122] Setting up Scale8
I1128 15:19:19.360945 26047 net.cpp:129] Top shape: 128 256 4 4 (524288)
I1128 15:19:19.360961 26047 net.cpp:137] Memory required for data: 328622592
I1128 15:19:19.360965 26047 layer_factory.hpp:77] Creating layer ReLU8
I1128 15:19:19.360971 26047 net.cpp:84] Creating Layer ReLU8
I1128 15:19:19.360973 26047 net.cpp:406] ReLU8 <- Convolution8
I1128 15:19:19.360975 26047 net.cpp:367] ReLU8 -> Convolution8 (in-place)
I1128 15:19:19.361112 26047 net.cpp:122] Setting up ReLU8
I1128 15:19:19.361117 26047 net.cpp:129] Top shape: 128 256 4 4 (524288)
I1128 15:19:19.361133 26047 net.cpp:137] Memory required for data: 330719744
I1128 15:19:19.361135 26047 layer_factory.hpp:77] Creating layer Convolution9
I1128 15:19:19.361141 26047 net.cpp:84] Creating Layer Convolution9
I1128 15:19:19.361143 26047 net.cpp:406] Convolution9 <- Convolution8
I1128 15:19:19.361147 26047 net.cpp:380] Convolution9 -> Convolution9
I1128 15:19:19.362934 26047 net.cpp:122] Setting up Convolution9
I1128 15:19:19.362958 26047 net.cpp:129] Top shape: 128 512 4 4 (1048576)
I1128 15:19:19.362960 26047 net.cpp:137] Memory required for data: 334914048
I1128 15:19:19.362963 26047 layer_factory.hpp:77] Creating layer BatchNorm9
I1128 15:19:19.362967 26047 net.cpp:84] Creating Layer BatchNorm9
I1128 15:19:19.362969 26047 net.cpp:406] BatchNorm9 <- Convolution9
I1128 15:19:19.362972 26047 net.cpp:367] BatchNorm9 -> Convolution9 (in-place)
I1128 15:19:19.363277 26047 net.cpp:122] Setting up BatchNorm9
I1128 15:19:19.363281 26047 net.cpp:129] Top shape: 128 512 4 4 (1048576)
I1128 15:19:19.363298 26047 net.cpp:137] Memory required for data: 339108352
I1128 15:19:19.363301 26047 layer_factory.hpp:77] Creating layer Scale9
I1128 15:19:19.363304 26047 net.cpp:84] Creating Layer Scale9
I1128 15:19:19.363306 26047 net.cpp:406] Scale9 <- Convolution9
I1128 15:19:19.363309 26047 net.cpp:367] Scale9 -> Convolution9 (in-place)
I1128 15:19:19.363353 26047 layer_factory.hpp:77] Creating layer Scale9
I1128 15:19:19.363559 26047 net.cpp:122] Setting up Scale9
I1128 15:19:19.363562 26047 net.cpp:129] Top shape: 128 512 4 4 (1048576)
I1128 15:19:19.363579 26047 net.cpp:137] Memory required for data: 343302656
I1128 15:19:19.363581 26047 layer_factory.hpp:77] Creating layer ReLU9
I1128 15:19:19.363584 26047 net.cpp:84] Creating Layer ReLU9
I1128 15:19:19.363586 26047 net.cpp:406] ReLU9 <- Convolution9
I1128 15:19:19.363590 26047 net.cpp:367] ReLU9 -> Convolution9 (in-place)
I1128 15:19:19.363931 26047 net.cpp:122] Setting up ReLU9
I1128 15:19:19.363955 26047 net.cpp:129] Top shape: 128 512 4 4 (1048576)
I1128 15:19:19.363956 26047 net.cpp:137] Memory required for data: 347496960
I1128 15:19:19.363958 26047 layer_factory.hpp:77] Creating layer Convolution10
I1128 15:19:19.363963 26047 net.cpp:84] Creating Layer Convolution10
I1128 15:19:19.363965 26047 net.cpp:406] Convolution10 <- Convolution9
I1128 15:19:19.363981 26047 net.cpp:380] Convolution10 -> Convolution10
I1128 15:19:19.660491 26047 net.cpp:122] Setting up Convolution10
I1128 15:19:19.660526 26047 net.cpp:129] Top shape: 128 512 2 2 (262144)
I1128 15:19:19.660529 26047 net.cpp:137] Memory required for data: 348545536
I1128 15:19:19.660550 26047 layer_factory.hpp:77] Creating layer BatchNorm10
I1128 15:19:19.660560 26047 net.cpp:84] Creating Layer BatchNorm10
I1128 15:19:19.660565 26047 net.cpp:406] BatchNorm10 <- Convolution10
I1128 15:19:19.660568 26047 net.cpp:367] BatchNorm10 -> Convolution10 (in-place)
I1128 15:19:19.661201 26047 net.cpp:122] Setting up BatchNorm10
I1128 15:19:19.661206 26047 net.cpp:129] Top shape: 128 512 2 2 (262144)
I1128 15:19:19.661221 26047 net.cpp:137] Memory required for data: 349594112
I1128 15:19:19.661226 26047 layer_factory.hpp:77] Creating layer Scale10
I1128 15:19:19.661231 26047 net.cpp:84] Creating Layer Scale10
I1128 15:19:19.661233 26047 net.cpp:406] Scale10 <- Convolution10
I1128 15:19:19.661237 26047 net.cpp:367] Scale10 -> Convolution10 (in-place)
I1128 15:19:19.661331 26047 layer_factory.hpp:77] Creating layer Scale10
I1128 15:19:19.661676 26047 net.cpp:122] Setting up Scale10
I1128 15:19:19.661681 26047 net.cpp:129] Top shape: 128 512 2 2 (262144)
I1128 15:19:19.661697 26047 net.cpp:137] Memory required for data: 350642688
I1128 15:19:19.661700 26047 layer_factory.hpp:77] Creating layer ReLU10
I1128 15:19:19.661703 26047 net.cpp:84] Creating Layer ReLU10
I1128 15:19:19.661706 26047 net.cpp:406] ReLU10 <- Convolution10
I1128 15:19:19.661708 26047 net.cpp:367] ReLU10 -> Convolution10 (in-place)
I1128 15:19:19.662083 26047 net.cpp:122] Setting up ReLU10
I1128 15:19:19.662106 26047 net.cpp:129] Top shape: 128 512 2 2 (262144)
I1128 15:19:19.662108 26047 net.cpp:137] Memory required for data: 351691264
I1128 15:19:19.662111 26047 layer_factory.hpp:77] Creating layer Convolution11
I1128 15:19:19.662117 26047 net.cpp:84] Creating Layer Convolution11
I1128 15:19:19.662119 26047 net.cpp:406] Convolution11 <- Convolution10
I1128 15:19:19.662123 26047 net.cpp:380] Convolution11 -> Convolution11
I1128 15:19:19.667332 26047 net.cpp:122] Setting up Convolution11
I1128 15:19:19.667356 26047 net.cpp:129] Top shape: 128 1024 2 2 (524288)
I1128 15:19:19.667359 26047 net.cpp:137] Memory required for data: 353788416
I1128 15:19:19.667363 26047 layer_factory.hpp:77] Creating layer BatchNorm11
I1128 15:19:19.667369 26047 net.cpp:84] Creating Layer BatchNorm11
I1128 15:19:19.667371 26047 net.cpp:406] BatchNorm11 <- Convolution11
I1128 15:19:19.667374 26047 net.cpp:367] BatchNorm11 -> Convolution11 (in-place)
I1128 15:19:19.668042 26047 net.cpp:122] Setting up BatchNorm11
I1128 15:19:19.668048 26047 net.cpp:129] Top shape: 128 1024 2 2 (524288)
I1128 15:19:19.668051 26047 net.cpp:137] Memory required for data: 355885568
I1128 15:19:19.668066 26047 layer_factory.hpp:77] Creating layer Scale11
I1128 15:19:19.668071 26047 net.cpp:84] Creating Layer Scale11
I1128 15:19:19.668071 26047 net.cpp:406] Scale11 <- Convolution11
I1128 15:19:19.668074 26047 net.cpp:367] Scale11 -> Convolution11 (in-place)
I1128 15:19:19.668218 26047 layer_factory.hpp:77] Creating layer Scale11
I1128 15:19:19.668565 26047 net.cpp:122] Setting up Scale11
I1128 15:19:19.668568 26047 net.cpp:129] Top shape: 128 1024 2 2 (524288)
I1128 15:19:19.668570 26047 net.cpp:137] Memory required for data: 357982720
I1128 15:19:19.668587 26047 layer_factory.hpp:77] Creating layer ReLU11
I1128 15:19:19.668592 26047 net.cpp:84] Creating Layer ReLU11
I1128 15:19:19.668594 26047 net.cpp:406] ReLU11 <- Convolution11
I1128 15:19:19.668596 26047 net.cpp:367] ReLU11 -> Convolution11 (in-place)
I1128 15:19:19.668733 26047 net.cpp:122] Setting up ReLU11
I1128 15:19:19.668738 26047 net.cpp:129] Top shape: 128 1024 2 2 (524288)
I1128 15:19:19.668754 26047 net.cpp:137] Memory required for data: 360079872
I1128 15:19:19.668756 26047 layer_factory.hpp:77] Creating layer Pooling1
I1128 15:19:19.668759 26047 net.cpp:84] Creating Layer Pooling1
I1128 15:19:19.668761 26047 net.cpp:406] Pooling1 <- Convolution11
I1128 15:19:19.668777 26047 net.cpp:380] Pooling1 -> Pooling1
I1128 15:19:19.669230 26047 net.cpp:122] Setting up Pooling1
I1128 15:19:19.669239 26047 net.cpp:129] Top shape: 128 1024 1 1 (131072)
I1128 15:19:19.669255 26047 net.cpp:137] Memory required for data: 360604160
I1128 15:19:19.669256 26047 layer_factory.hpp:77] Creating layer InnerProduct1
I1128 15:19:19.669260 26047 net.cpp:84] Creating Layer InnerProduct1
I1128 15:19:19.669262 26047 net.cpp:406] InnerProduct1 <- Pooling1
I1128 15:19:19.669266 26047 net.cpp:380] InnerProduct1 -> InnerProduct1
I1128 15:19:19.669626 26047 net.cpp:122] Setting up InnerProduct1
I1128 15:19:19.669631 26047 net.cpp:129] Top shape: 128 10 (1280)
I1128 15:19:19.669632 26047 net.cpp:137] Memory required for data: 360609280
I1128 15:19:19.669651 26047 layer_factory.hpp:77] Creating layer SoftmaxWithLoss1
I1128 15:19:19.669654 26047 net.cpp:84] Creating Layer SoftmaxWithLoss1
I1128 15:19:19.669656 26047 net.cpp:406] SoftmaxWithLoss1 <- InnerProduct1
I1128 15:19:19.669658 26047 net.cpp:406] SoftmaxWithLoss1 <- Data2
I1128 15:19:19.669663 26047 net.cpp:380] SoftmaxWithLoss1 -> SoftmaxWithLoss1
…
I1128 15:19:19.670503 26047 solver.cpp:172] Creating test net (#0) specified by test_net file: /home/ljf/caffe-master/examples/ljftest_cifar10_mobilenet/test.prototxt
I1128 15:19:19.670670 26047 net.cpp:51] Initializing net from parameters: 
state {
  phase: TEST
}
layer {
  name: "Data1"
  type: "Data"
  top: "Data1"
  top: "Data2"
  transform_param {
    crop_size: 28
  }
  data_param {
    source: "/home/ljf/caffe-master/examples/ljftest_cifar10_mobilenet/test_lmdb"
    batch_size: 100
    backend: LMDB
  }
  image_data_param {
    shuffle: true
  }
}
layer {
  name: "Convolution1"
  type: "Convolution"
  bottom: "Data1"
  top: "Convolution1"
  convolution_param {
    num_output: 32
    bias_term: true
    pad: 1
    kernel_size: 3
    stride: 1
    weight_filler {
      type: "msra"
    }
    bias_filler {
      type: "constant"
    }
  }
}
layer {
  name: "BatchNorm1"
  type: "BatchNorm"
  bottom: "Convolution1"
  top: "Convolution1"
  batch_norm_param {
    use_global_stats: true
  }
}
layer {
  name: "Scale1"
  type: "Scale"
  bottom: "Convolution1"
  top: "Convolution1"
  scale_param {
    bias_term: true
  }
}
layer {
  name: "ReLU1"
  type: "ReLU"
  bottom: "Convolution1"
  top: "Convolution1"
}
layer {
  name: "Convolution2"
  type: "Convolution"
  bottom: "Convolution1"
  top: "Convolution2"
  convolution_param {
    num_output: 32
    bias_term: true
    pad: 1
    kernel_size: 3
    group: 32
    stride: 1
    weight_filler {
      type: "msra"
    }
    bias_filler {
      type: "constant"
    }
  }
}
layer {
  name: "BatchNorm2"
  type: "BatchNorm"
  bottom: "Convolution2"
  top: "Convolution2"
  batch_norm_param {
    use_global_stats: true
  }
}
layer {
  name: "Scale2"
  type: "Scale"
  bottom: "Convolution2"
  top: "Convolution2"
  scale_param {
    bias_term: true
  }
}
layer {
  name: "ReLU2"
  type: "ReLU"
  bottom: "Convolution2"
  top: "Convolution2"
}
layer {
  name: "Convolution3"
  type: "Convolution"
  bottom: "Convolution2"
  top: "Convolution3"
  convolution_param {
    num_output: 64
    bias_term: true
    pad: 0
    kernel_size: 1
    stride: 1
    weight_filler {
      type: "msra"
    }
    bias_filler {
      type: "constant"
    }
  }
}
layer {
  name: "BatchNorm3"
  type: "BatchNorm"
  bottom: "Convolution3"
  top: "Convolution3"
  batch_norm_param {
    use_global_stats: true
  }
}
layer {
  name: "Scale3"
  type: "Scale"
  bottom: "Convolution3"
  top: "Convolution3"
  scale_param {
    bias_term: true
  }
}
layer {
  name: "ReLU3"
  type: "ReLU"
  bottom: "Convolution3"
  top: "Convolution3"
}
layer {
  name: "Convolution4"
  type: "Convolution"
  bottom: "Convolution3"
  top: "Convolution4"
  convolution_param {
    num_output: 64
    bias_term: true
    pad: 1
    kernel_size: 3
    group: 64
    stride: 2
    weight_filler {
      type: "msra"
    }
    bias_filler {
      type: "constant"
    }
  }
}
layer {
  name: "BatchNorm4"
  type: "BatchNorm"
  bottom: "Convolution4"
  top: "Convolution4"
  batch_norm_param {
    use_global_stats: true
  }
}
layer {
  name: "Scale4"
  type: "Scale"
  bottom: "Convolution4"
  top: "Convolution4"
  scale_param {
    bias_term: true
  }
}
layer {
  name: "ReLU4"
  type: "ReLU"
  bottom: "Convolution4"
  top: "Convolution4"
}
layer {
  name: "Convolution5"
  type: "Convolution"
  bottom: "Convolution4"
  top: "Convolution5"
  convolution_param {
    num_output: 128
    bias_term: true
    pad: 0
    kernel_size: 1
    stride: 1
    weight_filler {
      type: "msra"
    }
    bias_filler {
      type: "constant"
    }
  }
}
layer {
  name: "BatchNorm5"
  type: "BatchNorm"
  bottom: "Convolution5"
  top: "Convolution5"
  batch_norm_param {
    use_global_stats: true
  }
}
layer {
  name: "Scale5"
  type: "Scale"
  bottom: "Convolution5"
  top: "Convolution5"
  scale_param {
    bias_term: true
  }
}
layer {
  name: "ReLU5"
  type: "ReLU"
  bottom: "Convolution5"
  top: "Convolution5"
}
layer {
  name: "Convolution6"
  type: "Convolution"
  bottom: "Convolution5"
  top: "Convolution6"
  convolution_param {
    num_output: 128
    bias_term: true
    pad: 1
    kernel_size: 3
    group: 128
    stride: 2
    weight_filler {
      type: "msra"
    }
    bias_filler {
      type: "constant"
    }
  }
}
layer {
  name: "BatchNorm6"
  type: "BatchNorm"
  bottom: "Convolution6"
  top: "Convolution6"
  batch_norm_param {
    use_global_stats: true
  }
}
layer {
  name: "Scale6"
  type: "Scale"
  bottom: "Convolution6"
  top: "Convolution6"
  scale_param {
    bias_term: true
  }
}
layer {
  name: "ReLU6"
  type: "ReLU"
  bottom: "Convolution6"
  top: "Convolution6"
}
layer {
  name: "Convolution7"
  type: "Convolution"
  bottom: "Convolution6"
  top: "Convolution7"
  convolution_param {
    num_output: 256
    bias_term: true
    pad: 0
    kernel_size: 1
    stride: 1
    weight_filler {
      type: "msra"
    }
    bias_filler {
      type: "constant"
    }
  }
}
layer {
  name: "BatchNorm7"
  type: "BatchNorm"
  bottom: "Convolution7"
  top: "Convolution7"
  batch_norm_param {
    use_global_stats: true
  }
}
layer {
  name: "Scale7"
  type: "Scale"
  bottom: "Convolution7"
  top: "Convolution7"
  scale_param {
    bias_term: true
  }
}
layer {
  name: "ReLU7"
  type: "ReLU"
  bottom: "Convolution7"
  top: "Convolution7"
}
layer {
  name: "Convolution8"
  type: "Convolution"
  bottom: "Convolution7"
  top: "Convolution8"
  convolution_param {
    num_output: 256
    bias_term: true
    pad: 1
    kernel_size: 3
    group: 256
    stride: 2
    weight_filler {
      type: "msra"
    }
    bias_filler {
      type: "constant"
    }
  }
}
layer {
  name: "BatchNorm8"
  type: "BatchNorm"
  bottom: "Convolution8"
  top: "Convolution8"
  batch_norm_param {
    use_global_stats: true
  }
}
layer {
  name: "Scale8"
  type: "Scale"
  bottom: "Convolution8"
  top: "Convolution8"
  scale_param {
    bias_term: true
  }
}
layer {
  name: "ReLU8"
  type: "ReLU"
  bottom: "Convolution8"
  top: "Convolution8"
}
layer {
  name: "Convolution9"
  type: "Convolution"
  bottom: "Convolution8"
  top: "Convolution9"
  convolution_param {
    num_output: 512
    bias_term: true
    pad: 0
    kernel_size: 1
    stride: 1
    weight_filler {
      type: "msra"
    }
    bias_filler {
      type: "constant"
    }
  }
}
layer {
  name: "BatchNorm9"
  type: "BatchNorm"
  bottom: "Convolution9"
  top: "Convolution9"
  batch_norm_param {
    use_global_stats: true
  }
}
layer {
  name: "Scale9"
  type: "Scale"
  bottom: "Convolution9"
  top: "Convolution9"
  scale_param {
    bias_term: true
  }
}
layer {
  name: "ReLU9"
  type: "ReLU"
  bottom: "Convolution9"
  top: "Convolution9"
}
layer {
  name: "Convolution10"
  type: "Convolution"
  bottom: "Convolution9"
  top: "Convolution10"
  convolution_param {
    num_output: 512
    bias_term: true
    pad: 1
    kernel_size: 3
    group: 512
    stride: 2
    weight_filler {
      type: "msra"
    }
    bias_filler {
      type: "constant"
    }
  }
}
layer {
  name: "BatchNorm10"
  type: "BatchNorm"
  bottom: "Convolution10"
  top: "Convolution10"
  batch_norm_param {
    use_global_stats: true
  }
}
layer {
  name: "Scale10"
  type: "Scale"
  bottom: "Convolution10"
  top: "Convolution10"
  scale_param {
    bias_term: true
  }
}
layer {
  name: "ReLU10"
  type: "ReLU"
  bottom: "Convolution10"
  top: "Convolution10"
}
layer {
  name: "Convolution11"
  type: "Convolution"
  bottom: "Convolution10"
  top: "Convolution11"
  convolution_param {
    num_output: 1024
    bias_term: true
    pad: 0
    kernel_size: 1
    stride: 1
    weight_filler {
      type: "msra"
    }
    bias_filler {
      type: "constant"
    }
  }
}
layer {
  name: "BatchNorm11"
  type: "BatchNorm"
  bottom: "Convolution11"
  top: "Convolution11"
  batch_norm_param {
    use_global_stats: true
  }
}
layer {
  name: "Scale11"
  type: "Scale"
  bottom: "Convolution11"
  top: "Convolution11"
  scale_param {
    bias_term: true
  }
}
layer {
  name: "ReLU11"
  type: "ReLU"
  bottom: "Convolution11"
  top: "Convolution11"
}
layer {
  name: "Pooling1"
  type: "Pooling"
  bottom: "Convolution11"
  top: "Pooling1"
  pooling_param {
    pool: AVE
    global_pooling: true
  }
}
layer {
  name: "InnerProduct1"
  type: "InnerProduct"
  bottom: "Pooling1"
  top: "InnerProduct1"
  inner_product_param {
    num_output: 10
    weight_filler {
      type: "xavier"
    }
    bias_filler {
      type: "constant"
    }
  }
}
layer {
  name: "Accuracy1"
  type: "Accuracy"
  bottom: "InnerProduct1"
  bottom: "Data2"
  top: "Accuracy1"
}
layer {
  name: "SoftmaxWithLoss1"
  type: "SoftmaxWithLoss"
  bottom: "InnerProduct1"
  bottom: "Data2"
  top: "SoftmaxWithLoss1"
}
I1128 15:19:19.670775 26047 layer_factory.hpp:77] Creating layer Data1
I1128 15:19:19.670814 26047 db_lmdb.cpp:35] Opened lmdb /home/ljf/caffe-master/examples/ljftest_cifar10_mobilenet/test_lmdb
I1128 15:19:19.670822 26047 net.cpp:84] Creating Layer Data1
I1128 15:19:19.670825 26047 net.cpp:380] Data1 -> Data1
I1128 15:19:19.670831 26047 net.cpp:380] Data1 -> Data2
I1128 15:19:19.671104 26047 data_layer.cpp:45] output data size: 100,3,28,28
I1128 15:19:19.674434 26047 net.cpp:122] Setting up Data1
I1128 15:19:19.674466 26047 net.cpp:129] Top shape: 100 3 28 28 (235200)
I1128 15:19:19.674470 26047 net.cpp:129] Top shape: 100 (100)
I1128 15:19:19.674473 26047 net.cpp:137] Memory required for data: 941200
I1128 15:19:19.674477 26047 layer_factory.hpp:77] Creating layer Data2_Data1_1_split
I1128 15:19:19.674487 26047 net.cpp:84] Creating Layer Data2_Data1_1_split
I1128 15:19:19.674490 26047 net.cpp:406] Data2_Data1_1_split <- Data2
I1128 15:19:19.674495 26047 net.cpp:380] Data2_Data1_1_split -> Data2_Data1_1_split_0
I1128 15:19:19.674504 26047 net.cpp:380] Data2_Data1_1_split -> Data2_Data1_1_split_1
I1128 15:19:19.674641 26047 net.cpp:122] Setting up Data2_Data1_1_split
I1128 15:19:19.674646 26047 net.cpp:129] Top shape: 100 (100)
I1128 15:19:19.674649 26047 net.cpp:129] Top shape: 100 (100)
I1128 15:19:19.674650 26047 net.cpp:137] Memory required for data: 942000
I1128 15:19:19.674651 26047 layer_factory.hpp:77] Creating layer Convolution1
I1128 15:19:19.674661 26047 net.cpp:84] Creating Layer Convolution1
I1128 15:19:19.674664 26047 net.cpp:406] Convolution1 <- Data1
I1128 15:19:19.674667 26047 net.cpp:380] Convolution1 -> Convolution1
I1128 15:19:19.676676 26047 net.cpp:122] Setting up Convolution1
I1128 15:19:19.676687 26047 net.cpp:129] Top shape: 100 32 28 28 (2508800)
I1128 15:19:19.676689 26047 net.cpp:137] Memory required for data: 10977200
I1128 15:19:19.676697 26047 layer_factory.hpp:77] Creating layer BatchNorm1
I1128 15:19:19.676703 26047 net.cpp:84] Creating Layer BatchNorm1
I1128 15:19:19.676707 26047 net.cpp:406] BatchNorm1 <- Convolution1
I1128 15:19:19.676710 26047 net.cpp:367] BatchNorm1 -> Convolution1 (in-place)
I1128 15:19:19.677372 26047 net.cpp:122] Setting up BatchNorm1
I1128 15:19:19.677378 26047 net.cpp:129] Top shape: 100 32 28 28 (2508800)
I1128 15:19:19.677392 26047 net.cpp:137] Memory required for data: 21012400
I1128 15:19:19.677398 26047 layer_factory.hpp:77] Creating layer Scale1
I1128 15:19:19.677403 26047 net.cpp:84] Creating Layer Scale1
I1128 15:19:19.677405 26047 net.cpp:406] Scale1 <- Convolution1
I1128 15:19:19.677409 26047 net.cpp:367] Scale1 -> Convolution1 (in-place)
I1128 15:19:19.677582 26047 layer_factory.hpp:77] Creating layer Scale1
I1128 15:19:19.677948 26047 net.cpp:122] Setting up Scale1
I1128 15:19:19.677953 26047 net.cpp:129] Top shape: 100 32 28 28 (2508800)
I1128 15:19:19.677955 26047 net.cpp:137] Memory required for data: 31047600
I1128 15:19:19.677959 26047 layer_factory.hpp:77] Creating layer ReLU1
I1128 15:19:19.677963 26047 net.cpp:84] Creating Layer ReLU1
I1128 15:19:19.677964 26047 net.cpp:406] ReLU1 <- Convolution1
I1128 15:19:19.677968 26047 net.cpp:367] ReLU1 -> Convolution1 (in-place)
I1128 15:19:19.678493 26047 net.cpp:122] Setting up ReLU1
I1128 15:19:19.678499 26047 net.cpp:129] Top shape: 100 32 28 28 (2508800)
I1128 15:19:19.678501 26047 net.cpp:137] Memory required for data: 41082800
I1128 15:19:19.678504 26047 layer_factory.hpp:77] Creating layer Convolution2
I1128 15:19:19.678510 26047 net.cpp:84] Creating Layer Convolution2
I1128 15:19:19.678513 26047 net.cpp:406] Convolution2 <- Convolution1
I1128 15:19:19.678515 26047 net.cpp:380] Convolution2 -> Convolution2
I1128 15:19:19.698778 26047 net.cpp:122] Setting up Convolution2
I1128 15:19:19.698797 26047 net.cpp:129] Top shape: 100 32 28 28 (2508800)
I1128 15:19:19.698799 26047 net.cpp:137] Memory required for data: 51118000
I1128 15:19:19.698808 26047 layer_factory.hpp:77] Creating layer BatchNorm2
I1128 15:19:19.698815 26047 net.cpp:84] Creating Layer BatchNorm2
I1128 15:19:19.698817 26047 net.cpp:406] BatchNorm2 <- Convolution2
I1128 15:19:19.698822 26047 net.cpp:367] BatchNorm2 -> Convolution2 (in-place)
I1128 15:19:19.699460 26047 net.cpp:122] Setting up BatchNorm2
I1128 15:19:19.699465 26047 net.cpp:129] Top shape: 100 32 28 28 (2508800)
I1128 15:19:19.699466 26047 net.cpp:137] Memory required for data: 61153200
I1128 15:19:19.699470 26047 layer_factory.hpp:77] Creating layer Scale2
I1128 15:19:19.699476 26047 net.cpp:84] Creating Layer Scale2
I1128 15:19:19.699478 26047 net.cpp:406] Scale2 <- Convolution2
I1128 15:19:19.699481 26047 net.cpp:367] Scale2 -> Convolution2 (in-place)
I1128 15:19:19.699576 26047 layer_factory.hpp:77] Creating layer Scale2
I1128 15:19:19.699954 26047 net.cpp:122] Setting up Scale2
I1128 15:19:19.699960 26047 net.cpp:129] Top shape: 100 32 28 28 (2508800)
I1128 15:19:19.699961 26047 net.cpp:137] Memory required for data: 71188400
I1128 15:19:19.699965 26047 layer_factory.hpp:77] Creating layer ReLU2
I1128 15:19:19.699968 26047 net.cpp:84] Creating Layer ReLU2
I1128 15:19:19.699970 26047 net.cpp:406] ReLU2 <- Convolution2
I1128 15:19:19.699973 26047 net.cpp:367] ReLU2 -> Convolution2 (in-place)
I1128 15:19:19.700366 26047 net.cpp:122] Setting up ReLU2
I1128 15:19:19.700374 26047 net.cpp:129] Top shape: 100 32 28 28 (2508800)
I1128 15:19:19.700376 26047 net.cpp:137] Memory required for data: 81223600
I1128 15:19:19.700378 26047 layer_factory.hpp:77] Creating layer Convolution3
I1128 15:19:19.700384 26047 net.cpp:84] Creating Layer Convolution3
I1128 15:19:19.700387 26047 net.cpp:406] Convolution3 <- Convolution2
I1128 15:19:19.700390 26047 net.cpp:380] Convolution3 -> Convolution3
I1128 15:19:19.701812 26047 net.cpp:122] Setting up Convolution3
I1128 15:19:19.701818 26047 net.cpp:129] Top shape: 100 64 28 28 (5017600)
I1128 15:19:19.701820 26047 net.cpp:137] Memory required for data: 101294000
I1128 15:19:19.701824 26047 layer_factory.hpp:77] Creating layer BatchNorm3
I1128 15:19:19.701828 26047 net.cpp:84] Creating Layer BatchNorm3
I1128 15:19:19.701830 26047 net.cpp:406] BatchNorm3 <- Convolution3
I1128 15:19:19.701833 26047 net.cpp:367] BatchNorm3 -> Convolution3 (in-place)
I1128 15:19:19.702452 26047 net.cpp:122] Setting up BatchNorm3
I1128 15:19:19.702457 26047 net.cpp:129] Top shape: 100 64 28 28 (5017600)
I1128 15:19:19.702469 26047 net.cpp:137] Memory required for data: 121364400
I1128 15:19:19.702476 26047 layer_factory.hpp:77] Creating layer Scale3
I1128 15:19:19.702481 26047 net.cpp:84] Creating Layer Scale3
I1128 15:19:19.702481 26047 net.cpp:406] Scale3 <- Convolution3
I1128 15:19:19.702484 26047 net.cpp:367] Scale3 -> Convolution3 (in-place)
I1128 15:19:19.702579 26047 layer_factory.hpp:77] Creating layer Scale3
I1128 15:19:19.702922 26047 net.cpp:122] Setting up Scale3
I1128 15:19:19.702927 26047 net.cpp:129] Top shape: 100 64 28 28 (5017600)
I1128 15:19:19.702929 26047 net.cpp:137] Memory required for data: 141434800
I1128 15:19:19.702932 26047 layer_factory.hpp:77] Creating layer ReLU3
I1128 15:19:19.702936 26047 net.cpp:84] Creating Layer ReLU3
I1128 15:19:19.702937 26047 net.cpp:406] ReLU3 <- Convolution3
I1128 15:19:19.702940 26047 net.cpp:367] ReLU3 -> Convolution3 (in-place)
I1128 15:19:19.703073 26047 net.cpp:122] Setting up ReLU3
I1128 15:19:19.703078 26047 net.cpp:129] Top shape: 100 64 28 28 (5017600)
I1128 15:19:19.703080 26047 net.cpp:137] Memory required for data: 161505200
I1128 15:19:19.703081 26047 layer_factory.hpp:77] Creating layer Convolution4
I1128 15:19:19.703088 26047 net.cpp:84] Creating Layer Convolution4
I1128 15:19:19.703089 26047 net.cpp:406] Convolution4 <- Convolution3
I1128 15:19:19.703092 26047 net.cpp:380] Convolution4 -> Convolution4
I1128 15:19:19.742725 26047 net.cpp:122] Setting up Convolution4
I1128 15:19:19.742759 26047 net.cpp:129] Top shape: 100 64 14 14 (1254400)
I1128 15:19:19.742763 26047 net.cpp:137] Memory required for data: 166522800
I1128 15:19:19.742771 26047 layer_factory.hpp:77] Creating layer BatchNorm4
I1128 15:19:19.742779 26047 net.cpp:84] Creating Layer BatchNorm4
I1128 15:19:19.742782 26047 net.cpp:406] BatchNorm4 <- Convolution4
I1128 15:19:19.742789 26047 net.cpp:367] BatchNorm4 -> Convolution4 (in-place)
I1128 15:19:19.743472 26047 net.cpp:122] Setting up BatchNorm4
I1128 15:19:19.743477 26047 net.cpp:129] Top shape: 100 64 14 14 (1254400)
I1128 15:19:19.743494 26047 net.cpp:137] Memory required for data: 171540400
I1128 15:19:19.743499 26047 layer_factory.hpp:77] Creating layer Scale4
I1128 15:19:19.743505 26047 net.cpp:84] Creating Layer Scale4
I1128 15:19:19.743506 26047 net.cpp:406] Scale4 <- Convolution4
I1128 15:19:19.743510 26047 net.cpp:367] Scale4 -> Convolution4 (in-place)
I1128 15:19:19.743643 26047 layer_factory.hpp:77] Creating layer Scale4
I1128 15:19:19.744066 26047 net.cpp:122] Setting up Scale4
I1128 15:19:19.744071 26047 net.cpp:129] Top shape: 100 64 14 14 (1254400)
I1128 15:19:19.744072 26047 net.cpp:137] Memory required for data: 176558000
I1128 15:19:19.744091 26047 layer_factory.hpp:77] Creating layer ReLU4
I1128 15:19:19.744094 26047 net.cpp:84] Creating Layer ReLU4
I1128 15:19:19.744096 26047 net.cpp:406] ReLU4 <- Convolution4
I1128 15:19:19.744099 26047 net.cpp:367] ReLU4 -> Convolution4 (in-place)
I1128 15:19:19.744504 26047 net.cpp:122] Setting up ReLU4
I1128 15:19:19.744513 26047 net.cpp:129] Top shape: 100 64 14 14 (1254400)
I1128 15:19:19.744514 26047 net.cpp:137] Memory required for data: 181575600
I1128 15:19:19.744530 26047 layer_factory.hpp:77] Creating layer Convolution5
I1128 15:19:19.744537 26047 net.cpp:84] Creating Layer Convolution5
I1128 15:19:19.744539 26047 net.cpp:406] Convolution5 <- Convolution4
I1128 15:19:19.744542 26047 net.cpp:380] Convolution5 -> Convolution5
I1128 15:19:19.746119 26047 net.cpp:122] Setting up Convolution5
I1128 15:19:19.746141 26047 net.cpp:129] Top shape: 100 128 14 14 (2508800)
I1128 15:19:19.746145 26047 net.cpp:137] Memory required for data: 191610800
I1128 15:19:19.746147 26047 layer_factory.hpp:77] Creating layer BatchNorm5
I1128 15:19:19.746151 26047 net.cpp:84] Creating Layer BatchNorm5
I1128 15:19:19.746155 26047 net.cpp:406] BatchNorm5 <- Convolution5
I1128 15:19:19.746157 26047 net.cpp:367] BatchNorm5 -> Convolution5 (in-place)
I1128 15:19:19.746822 26047 net.cpp:122] Setting up BatchNorm5
I1128 15:19:19.746826 26047 net.cpp:129] Top shape: 100 128 14 14 (2508800)
I1128 15:19:19.746853 26047 net.cpp:137] Memory required for data: 201646000
I1128 15:19:19.746861 26047 layer_factory.hpp:77] Creating layer Scale5
I1128 15:19:19.746865 26047 net.cpp:84] Creating Layer Scale5
I1128 15:19:19.746867 26047 net.cpp:406] Scale5 <- Convolution5
I1128 15:19:19.746871 26047 net.cpp:367] Scale5 -> Convolution5 (in-place)
I1128 15:19:19.747011 26047 layer_factory.hpp:77] Creating layer Scale5
I1128 15:19:19.747392 26047 net.cpp:122] Setting up Scale5
I1128 15:19:19.747397 26047 net.cpp:129] Top shape: 100 128 14 14 (2508800)
I1128 15:19:19.747413 26047 net.cpp:137] Memory required for data: 211681200
I1128 15:19:19.747416 26047 layer_factory.hpp:77] Creating layer ReLU5
I1128 15:19:19.747419 26047 net.cpp:84] Creating Layer ReLU5
I1128 15:19:19.747421 26047 net.cpp:406] ReLU5 <- Convolution5
I1128 15:19:19.747424 26047 net.cpp:367] ReLU5 -> Convolution5 (in-place)
I1128 15:19:19.747560 26047 net.cpp:122] Setting up ReLU5
I1128 15:19:19.747565 26047 net.cpp:129] Top shape: 100 128 14 14 (2508800)
I1128 15:19:19.747582 26047 net.cpp:137] Memory required for data: 221716400
I1128 15:19:19.747584 26047 layer_factory.hpp:77] Creating layer Convolution6
I1128 15:19:19.747589 26047 net.cpp:84] Creating Layer Convolution6
I1128 15:19:19.747592 26047 net.cpp:406] Convolution6 <- Convolution5
I1128 15:19:19.747596 26047 net.cpp:380] Convolution6 -> Convolution6
I1128 15:19:19.833863 26047 net.cpp:122] Setting up Convolution6
I1128 15:19:19.833883 26047 net.cpp:129] Top shape: 100 128 7 7 (627200)
I1128 15:19:19.833899 26047 net.cpp:137] Memory required for data: 224225200
I1128 15:19:19.833907 26047 layer_factory.hpp:77] Creating layer BatchNorm6
I1128 15:19:19.833916 26047 net.cpp:84] Creating Layer BatchNorm6
I1128 15:19:19.833920 26047 net.cpp:406] BatchNorm6 <- Convolution6
I1128 15:19:19.833925 26047 net.cpp:367] BatchNorm6 -> Convolution6 (in-place)
I1128 15:19:19.834703 26047 net.cpp:122] Setting up BatchNorm6
I1128 15:19:19.834708 26047 net.cpp:129] Top shape: 100 128 7 7 (627200)
I1128 15:19:19.834725 26047 net.cpp:137] Memory required for data: 226734000
I1128 15:19:19.834729 26047 layer_factory.hpp:77] Creating layer Scale6
I1128 15:19:19.834733 26047 net.cpp:84] Creating Layer Scale6
I1128 15:19:19.834735 26047 net.cpp:406] Scale6 <- Convolution6
I1128 15:19:19.834738 26047 net.cpp:367] Scale6 -> Convolution6 (in-place)
I1128 15:19:19.834867 26047 layer_factory.hpp:77] Creating layer Scale6
I1128 15:19:19.835301 26047 net.cpp:122] Setting up Scale6
I1128 15:19:19.835306 26047 net.cpp:129] Top shape: 100 128 7 7 (627200)
I1128 15:19:19.835322 26047 net.cpp:137] Memory required for data: 229242800
I1128 15:19:19.835325 26047 layer_factory.hpp:77] Creating layer ReLU6
I1128 15:19:19.835328 26047 net.cpp:84] Creating Layer ReLU6
I1128 15:19:19.835330 26047 net.cpp:406] ReLU6 <- Convolution6
I1128 15:19:19.835335 26047 net.cpp:367] ReLU6 -> Convolution6 (in-place)
I1128 15:19:19.835481 26047 net.cpp:122] Setting up ReLU6
I1128 15:19:19.835486 26047 net.cpp:129] Top shape: 100 128 7 7 (627200)
I1128 15:19:19.835489 26047 net.cpp:137] Memory required for data: 231751600
I1128 15:19:19.835490 26047 layer_factory.hpp:77] Creating layer Convolution7
I1128 15:19:19.835497 26047 net.cpp:84] Creating Layer Convolution7
I1128 15:19:19.835500 26047 net.cpp:406] Convolution7 <- Convolution6
I1128 15:19:19.835502 26047 net.cpp:380] Convolution7 -> Convolution7
I1128 15:19:19.837456 26047 net.cpp:122] Setting up Convolution7
I1128 15:19:19.837465 26047 net.cpp:129] Top shape: 100 256 7 7 (1254400)
I1128 15:19:19.837467 26047 net.cpp:137] Memory required for data: 236769200
I1128 15:19:19.837471 26047 layer_factory.hpp:77] Creating layer BatchNorm7
I1128 15:19:19.837476 26047 net.cpp:84] Creating Layer BatchNorm7
I1128 15:19:19.837478 26047 net.cpp:406] BatchNorm7 <- Convolution7
I1128 15:19:19.837481 26047 net.cpp:367] BatchNorm7 -> Convolution7 (in-place)
I1128 15:19:19.838243 26047 net.cpp:122] Setting up BatchNorm7
I1128 15:19:19.838248 26047 net.cpp:129] Top shape: 100 256 7 7 (1254400)
I1128 15:19:19.838261 26047 net.cpp:137] Memory required for data: 241786800
I1128 15:19:19.838265 26047 layer_factory.hpp:77] Creating layer Scale7
I1128 15:19:19.838268 26047 net.cpp:84] Creating Layer Scale7
I1128 15:19:19.838270 26047 net.cpp:406] Scale7 <- Convolution7
I1128 15:19:19.838274 26047 net.cpp:367] Scale7 -> Convolution7 (in-place)
I1128 15:19:19.838428 26047 layer_factory.hpp:77] Creating layer Scale7
I1128 15:19:19.838865 26047 net.cpp:122] Setting up Scale7
I1128 15:19:19.838870 26047 net.cpp:129] Top shape: 100 256 7 7 (1254400)
I1128 15:19:19.838886 26047 net.cpp:137] Memory required for data: 246804400
I1128 15:19:19.838889 26047 layer_factory.hpp:77] Creating layer ReLU7
I1128 15:19:19.838892 26047 net.cpp:84] Creating Layer ReLU7
I1128 15:19:19.838893 26047 net.cpp:406] ReLU7 <- Convolution7
I1128 15:19:19.838897 26047 net.cpp:367] ReLU7 -> Convolution7 (in-place)
I1128 15:19:19.839326 26047 net.cpp:122] Setting up ReLU7
I1128 15:19:19.839334 26047 net.cpp:129] Top shape: 100 256 7 7 (1254400)
I1128 15:19:19.839349 26047 net.cpp:137] Memory required for data: 251822000
I1128 15:19:19.839352 26047 layer_factory.hpp:77] Creating layer Convolution8
I1128 15:19:19.839357 26047 net.cpp:84] Creating Layer Convolution8
I1128 15:19:19.839359 26047 net.cpp:406] Convolution8 <- Convolution7
I1128 15:19:19.839363 26047 net.cpp:380] Convolution8 -> Convolution8
I1128 15:19:20.004468 26047 net.cpp:122] Setting up Convolution8
I1128 15:19:20.004501 26047 net.cpp:129] Top shape: 100 256 4 4 (409600)
I1128 15:19:20.004503 26047 net.cpp:137] Memory required for data: 253460400
I1128 15:19:20.004513 26047 layer_factory.hpp:77] Creating layer BatchNorm8
I1128 15:19:20.004523 26047 net.cpp:84] Creating Layer BatchNorm8
I1128 15:19:20.004525 26047 net.cpp:406] BatchNorm8 <- Convolution8
I1128 15:19:20.004530 26047 net.cpp:367] BatchNorm8 -> Convolution8 (in-place)
I1128 15:19:20.005569 26047 net.cpp:122] Setting up BatchNorm8
I1128 15:19:20.005575 26047 net.cpp:129] Top shape: 100 256 4 4 (409600)
I1128 15:19:20.005591 26047 net.cpp:137] Memory required for data: 255098800
I1128 15:19:20.005595 26047 layer_factory.hpp:77] Creating layer Scale8
I1128 15:19:20.005604 26047 net.cpp:84] Creating Layer Scale8
I1128 15:19:20.005607 26047 net.cpp:406] Scale8 <- Convolution8
I1128 15:19:20.005610 26047 net.cpp:367] Scale8 -> Convolution8 (in-place)
I1128 15:19:20.005760 26047 layer_factory.hpp:77] Creating layer Scale8
I1128 15:19:20.006289 26047 net.cpp:122] Setting up Scale8
I1128 15:19:20.006294 26047 net.cpp:129] Top shape: 100 256 4 4 (409600)
I1128 15:19:20.006310 26047 net.cpp:137] Memory required for data: 256737200
I1128 15:19:20.006314 26047 layer_factory.hpp:77] Creating layer ReLU8
I1128 15:19:20.006316 26047 net.cpp:84] Creating Layer ReLU8
I1128 15:19:20.006319 26047 net.cpp:406] ReLU8 <- Convolution8
I1128 15:19:20.006321 26047 net.cpp:367] ReLU8 -> Convolution8 (in-place)
I1128 15:19:20.006476 26047 net.cpp:122] Setting up ReLU8
I1128 15:19:20.006481 26047 net.cpp:129] Top shape: 100 256 4 4 (409600)
I1128 15:19:20.006497 26047 net.cpp:137] Memory required for data: 258375600
I1128 15:19:20.006500 26047 layer_factory.hpp:77] Creating layer Convolution9
I1128 15:19:20.006506 26047 net.cpp:84] Creating Layer Convolution9
I1128 15:19:20.006508 26047 net.cpp:406] Convolution9 <- Convolution8
I1128 15:19:20.006512 26047 net.cpp:380] Convolution9 -> Convolution9
I1128 15:19:20.009290 26047 net.cpp:122] Setting up Convolution9
I1128 15:19:20.009313 26047 net.cpp:129] Top shape: 100 512 4 4 (819200)
I1128 15:19:20.009315 26047 net.cpp:137] Memory required for data: 261652400
I1128 15:19:20.009320 26047 layer_factory.hpp:77] Creating layer BatchNorm9
I1128 15:19:20.009325 26047 net.cpp:84] Creating Layer BatchNorm9
I1128 15:19:20.009325 26047 net.cpp:406] BatchNorm9 <- Convolution9
I1128 15:19:20.009330 26047 net.cpp:367] BatchNorm9 -> Convolution9 (in-place)
I1128 15:19:20.010275 26047 net.cpp:122] Setting up BatchNorm9
I1128 15:19:20.010280 26047 net.cpp:129] Top shape: 100 512 4 4 (819200)
I1128 15:19:20.010296 26047 net.cpp:137] Memory required for data: 264929200
I1128 15:19:20.010310 26047 layer_factory.hpp:77] Creating layer Scale9
I1128 15:19:20.010314 26047 net.cpp:84] Creating Layer Scale9
I1128 15:19:20.010316 26047 net.cpp:406] Scale9 <- Convolution9
I1128 15:19:20.010319 26047 net.cpp:367] Scale9 -> Convolution9 (in-place)
I1128 15:19:20.010465 26047 layer_factory.hpp:77] Creating layer Scale9
I1128 15:19:20.010999 26047 net.cpp:122] Setting up Scale9
I1128 15:19:20.011004 26047 net.cpp:129] Top shape: 100 512 4 4 (819200)
I1128 15:19:20.011020 26047 net.cpp:137] Memory required for data: 268206000
I1128 15:19:20.011023 26047 layer_factory.hpp:77] Creating layer ReLU9
I1128 15:19:20.011027 26047 net.cpp:84] Creating Layer ReLU9
I1128 15:19:20.011029 26047 net.cpp:406] ReLU9 <- Convolution9
I1128 15:19:20.011031 26047 net.cpp:367] ReLU9 -> Convolution9 (in-place)
I1128 15:19:20.011180 26047 net.cpp:122] Setting up ReLU9
I1128 15:19:20.011186 26047 net.cpp:129] Top shape: 100 512 4 4 (819200)
I1128 15:19:20.011203 26047 net.cpp:137] Memory required for data: 271482800
I1128 15:19:20.011204 26047 layer_factory.hpp:77] Creating layer Convolution10
I1128 15:19:20.011209 26047 net.cpp:84] Creating Layer Convolution10
I1128 15:19:20.011211 26047 net.cpp:406] Convolution10 <- Convolution9
I1128 15:19:20.011216 26047 net.cpp:380] Convolution10 -> Convolution10
I1128 15:19:20.359854 26047 net.cpp:122] Setting up Convolution10
I1128 15:19:20.359887 26047 net.cpp:129] Top shape: 100 512 2 2 (204800)
I1128 15:19:20.359889 26047 net.cpp:137] Memory required for data: 272302000
I1128 15:19:20.359907 26047 layer_factory.hpp:77] Creating layer BatchNorm10
I1128 15:19:20.359915 26047 net.cpp:84] Creating Layer BatchNorm10
I1128 15:19:20.359918 26047 net.cpp:406] BatchNorm10 <- Convolution10
I1128 15:19:20.359922 26047 net.cpp:367] BatchNorm10 -> Convolution10 (in-place)
I1128 15:19:20.361189 26047 net.cpp:122] Setting up BatchNorm10
I1128 15:19:20.361196 26047 net.cpp:129] Top shape: 100 512 2 2 (204800)
I1128 15:19:20.361212 26047 net.cpp:137] Memory required for data: 273121200
I1128 15:19:20.361217 26047 layer_factory.hpp:77] Creating layer Scale10
I1128 15:19:20.361220 26047 net.cpp:84] Creating Layer Scale10
I1128 15:19:20.361222 26047 net.cpp:406] Scale10 <- Convolution10
I1128 15:19:20.361225 26047 net.cpp:367] Scale10 -> Convolution10 (in-place)
I1128 15:19:20.361416 26047 layer_factory.hpp:77] Creating layer Scale10
I1128 15:19:20.362116 26047 net.cpp:122] Setting up Scale10
I1128 15:19:20.362123 26047 net.cpp:129] Top shape: 100 512 2 2 (204800)
I1128 15:19:20.362138 26047 net.cpp:137] Memory required for data: 273940400
I1128 15:19:20.362141 26047 layer_factory.hpp:77] Creating layer ReLU10
I1128 15:19:20.362146 26047 net.cpp:84] Creating Layer ReLU10
I1128 15:19:20.362149 26047 net.cpp:406] ReLU10 <- Convolution10
I1128 15:19:20.362150 26047 net.cpp:367] ReLU10 -> Convolution10 (in-place)
I1128 15:19:20.362313 26047 net.cpp:122] Setting up ReLU10
I1128 15:19:20.362320 26047 net.cpp:129] Top shape: 100 512 2 2 (204800)
I1128 15:19:20.362336 26047 net.cpp:137] Memory required for data: 274759600
I1128 15:19:20.362339 26047 layer_factory.hpp:77] Creating layer Convolution11
I1128 15:19:20.362344 26047 net.cpp:84] Creating Layer Convolution11
I1128 15:19:20.362346 26047 net.cpp:406] Convolution11 <- Convolution10
I1128 15:19:20.362350 26047 net.cpp:380] Convolution11 -> Convolution11
I1128 15:19:20.368713 26047 net.cpp:122] Setting up Convolution11
I1128 15:19:20.368741 26047 net.cpp:129] Top shape: 100 1024 2 2 (409600)
I1128 15:19:20.368743 26047 net.cpp:137] Memory required for data: 276398000
I1128 15:19:20.368749 26047 layer_factory.hpp:77] Creating layer BatchNorm11
I1128 15:19:20.368754 26047 net.cpp:84] Creating Layer BatchNorm11
I1128 15:19:20.368757 26047 net.cpp:406] BatchNorm11 <- Convolution11
I1128 15:19:20.368760 26047 net.cpp:367] BatchNorm11 -> Convolution11 (in-place)
I1128 15:19:20.370092 26047 net.cpp:122] Setting up BatchNorm11
I1128 15:19:20.370100 26047 net.cpp:129] Top shape: 100 1024 2 2 (409600)
I1128 15:19:20.370129 26047 net.cpp:137] Memory required for data: 278036400
I1128 15:19:20.370136 26047 layer_factory.hpp:77] Creating layer Scale11
I1128 15:19:20.370138 26047 net.cpp:84] Creating Layer Scale11
I1128 15:19:20.370141 26047 net.cpp:406] Scale11 <- Convolution11
I1128 15:19:20.370143 26047 net.cpp:367] Scale11 -> Convolution11 (in-place)
I1128 15:19:20.370365 26047 layer_factory.hpp:77] Creating layer Scale11
I1128 15:19:20.371292 26047 net.cpp:122] Setting up Scale11
I1128 15:19:20.371305 26047 net.cpp:129] Top shape: 100 1024 2 2 (409600)
I1128 15:19:20.371309 26047 net.cpp:137] Memory required for data: 279674800
I1128 15:19:20.371315 26047 layer_factory.hpp:77] Creating layer ReLU11
I1128 15:19:20.371325 26047 net.cpp:84] Creating Layer ReLU11
I1128 15:19:20.371328 26047 net.cpp:406] ReLU11 <- Convolution11
I1128 15:19:20.371348 26047 net.cpp:367] ReLU11 -> Convolution11 (in-place)
I1128 15:19:20.372375 26047 net.cpp:122] Setting up ReLU11
I1128 15:19:20.372398 26047 net.cpp:129] Top shape: 100 1024 2 2 (409600)
I1128 15:19:20.372400 26047 net.cpp:137] Memory required for data: 281313200
I1128 15:19:20.372403 26047 layer_factory.hpp:77] Creating layer Pooling1
I1128 15:19:20.372407 26047 net.cpp:84] Creating Layer Pooling1
I1128 15:19:20.372409 26047 net.cpp:406] Pooling1 <- Convolution11
I1128 15:19:20.372413 26047 net.cpp:380] Pooling1 -> Pooling1
I1128 15:19:20.372663 26047 net.cpp:122] Setting up Pooling1
I1128 15:19:20.372671 26047 net.cpp:129] Top shape: 100 1024 1 1 (102400)
I1128 15:19:20.372674 26047 net.cpp:137] Memory required for data: 281722800
I1128 15:19:20.372690 26047 layer_factory.hpp:77] Creating layer InnerProduct1
I1128 15:19:20.372696 26047 net.cpp:84] Creating Layer InnerProduct1
I1128 15:19:20.372700 26047 net.cpp:406] InnerProduct1 <- Pooling1
I1128 15:19:20.372707 26047 net.cpp:380] InnerProduct1 -> InnerProduct1
I1128 15:19:20.373389 26047 net.cpp:122] Setting up InnerProduct1
I1128 15:19:20.373394 26047 net.cpp:129] Top shape: 100 10 (1000)
I1128 15:19:20.373396 26047 net.cpp:137] Memory required for data: 281726800
I1128 15:19:20.373400 26047 layer_factory.hpp:77] Creating layer InnerProduct1_InnerProduct1_0_split
I1128 15:19:20.373406 26047 net.cpp:84] Creating Layer InnerProduct1_InnerProduct1_0_split
I1128 15:19:20.373410 26047 net.cpp:406] InnerProduct1_InnerProduct1_0_split <- InnerProduct1
I1128 15:19:20.373416 26047 net.cpp:380] InnerProduct1_InnerProduct1_0_split -> InnerProduct1_InnerProduct1_0_split_0
I1128 15:19:20.373423 26047 net.cpp:380] InnerProduct1_InnerProduct1_0_split -> InnerProduct1_InnerProduct1_0_split_1
I1128 15:19:20.373605 26047 net.cpp:122] Setting up InnerProduct1_InnerProduct1_0_split
I1128 15:19:20.373611 26047 net.cpp:129] Top shape: 100 10 (1000)
I1128 15:19:20.373613 26047 net.cpp:129] Top shape: 100 10 (1000)
I1128 15:19:20.373615 26047 net.cpp:137] Memory required for data: 281734800
I1128 15:19:20.373616 26047 layer_factory.hpp:77] Creating layer Accuracy1
I1128 15:19:20.373620 26047 net.cpp:84] Creating Layer Accuracy1
I1128 15:19:20.373625 26047 net.cpp:406] Accuracy1 <- InnerProduct1_InnerProduct1_0_split_0
I1128 15:19:20.373626 26047 net.cpp:406] Accuracy1 <- Data2_Data1_1_split_0
I1128 15:19:20.373631 26047 net.cpp:380] Accuracy1 -> Accuracy1
…
