…
I1128 19:31:37.615172 30336 solver.cpp:77] Creating training net from train_net file: /home/ljf/caffe-master/examples/ljftest_cifar10_WRN/train.prototxt
I1128 19:31:37.615990 30336 net.cpp:51] Initializing net from parameters: 
state {
  phase: TRAIN
  level: 0
  stage: ""
}
layer {
  name: "Data1"
  type: "Data"
  top: "Data1"
  top: "Data2"
  transform_param {
    mirror: true
    crop_size: 28
  }
  data_param {
    source: "/home/ljf/caffe-master/examples/ljftest_cifar10_WRN/train_lmdb"
    batch_size: 128
    backend: LMDB
  }
  image_data_param {
    shuffle: true
  }
}
layer {
  name: "Convolution1"
  type: "Convolution"
  bottom: "Data1"
  top: "Convolution1"
  convolution_param {
    num_output: 96
    bias_term: true
    pad: 1
    kernel_size: 3
    stride: 1
    weight_filler {
      type: "msra"
    }
    bias_filler {
      type: "constant"
    }
  }
}
layer {
  name: "BatchNorm1"
  type: "BatchNorm"
  bottom: "Convolution1"
  top: "Convolution1"
  batch_norm_param {
    use_global_stats: false
  }
}
layer {
  name: "Scale1"
  type: "Scale"
  bottom: "Convolution1"
  top: "Convolution1"
  scale_param {
    bias_term: true
  }
}
layer {
  name: "ReLU1"
  type: "ReLU"
  bottom: "Convolution1"
  top: "Convolution1"
}
layer {
  name: "Convolution2"
  type: "Convolution"
  bottom: "Convolution1"
  top: "Convolution2"
  convolution_param {
    num_output: 96
    bias_term: true
    pad: 1
    kernel_size: 3
    stride: 1
    weight_filler {
      type: "msra"
    }
    bias_filler {
      type: "constant"
    }
  }
}
layer {
  name: "BatchNorm2"
  type: "BatchNorm"
  bottom: "Convolution2"
  top: "Convolution2"
  batch_norm_param {
    use_global_stats: false
  }
}
layer {
  name: "Scale2"
  type: "Scale"
  bottom: "Convolution2"
  top: "Convolution2"
  scale_param {
    bias_term: true
  }
}
layer {
  name: "ReLU2"
  type: "ReLU"
  bottom: "Convolution2"
  top: "Convolution2"
}
layer {
  name: "Convolution3"
  type: "Convolution"
  bottom: "Convolution2"
  top: "Convolution3"
  convolution_param {
    num_output: 96
    bias_term: true
    pad: 1
    kernel_size: 3
    stride: 1
    weight_filler {
      type: "msra"
    }
    bias_filler {
      type: "constant"
    }
  }
}
layer {
  name: "BatchNorm3"
  type: "BatchNorm"
  bottom: "Convolution3"
  top: "Convolution3"
  batch_norm_param {
    use_global_stats: false
  }
}
layer {
  name: "Scale3"
  type: "Scale"
  bottom: "Convolution3"
  top: "Convolution3"
  scale_param {
    bias_term: true
  }
}
layer {
  name: "Eltwise1"
  type: "Eltwise"
  bottom: "Convolution3"
  bottom: "Convolution1"
  top: "Eltwise1"
  eltwise_param {
    operation: SUM
  }
}
layer {
  name: "ReLU3"
  type: "ReLU"
  bottom: "Eltwise1"
  top: "Eltwise1"
}
layer {
  name: "Convolution4"
  type: "Convolution"
  bottom: "Eltwise1"
  top: "Convolution4"
  convolution_param {
    num_output: 96
    bias_term: true
    pad: 1
    kernel_size: 3
    stride: 1
    weight_filler {
      type: "msra"
    }
    bias_filler {
      type: "constant"
    }
  }
}
layer {
  name: "BatchNorm4"
  type: "BatchNorm"
  bottom: "Convolution4"
  top: "Convolution4"
  batch_norm_param {
    use_global_stats: false
  }
}
layer {
  name: "Scale4"
  type: "Scale"
  bottom: "Convolution4"
  top: "Convolution4"
  scale_param {
    bias_term: true
  }
}
layer {
  name: "ReLU4"
  type: "ReLU"
  bottom: "Convolution4"
  top: "Convolution4"
}
layer {
  name: "Convolution5"
  type: "Convolution"
  bottom: "Convolution4"
  top: "Convolution5"
  convolution_param {
    num_output: 96
    bias_term: true
    pad: 1
    kernel_size: 3
    stride: 1
    weight_filler {
      type: "msra"
    }
    bias_filler {
      type: "constant"
    }
  }
}
layer {
  name: "BatchNorm5"
  type: "BatchNorm"
  bottom: "Convolution5"
  top: "Convolution5"
  batch_norm_param {
    use_global_stats: false
  }
}
layer {
  name: "Scale5"
  type: "Scale"
  bottom: "Convolution5"
  top: "Convolution5"
  scale_param {
    bias_term: true
  }
}
layer {
  name: "Eltwise2"
  type: "Eltwise"
  bottom: "Convolution5"
  bottom: "Eltwise1"
  top: "Eltwise2"
  eltwise_param {
    operation: SUM
  }
}
layer {
  name: "ReLU5"
  type: "ReLU"
  bottom: "Eltwise2"
  top: "Eltwise2"
}
layer {
  name: "Convolution6"
  type: "Convolution"
  bottom: "Eltwise2"
  top: "Convolution6"
  convolution_param {
    num_output: 96
    bias_term: true
    pad: 1
    kernel_size: 3
    stride: 1
    weight_filler {
      type: "msra"
    }
    bias_filler {
      type: "constant"
    }
  }
}
layer {
  name: "BatchNorm6"
  type: "BatchNorm"
  bottom: "Convolution6"
  top: "Convolution6"
  batch_norm_param {
    use_global_stats: false
  }
}
layer {
  name: "Scale6"
  type: "Scale"
  bottom: "Convolution6"
  top: "Convolution6"
  scale_param {
    bias_term: true
  }
}
layer {
  name: "ReLU6"
  type: "ReLU"
  bottom: "Convolution6"
  top: "Convolution6"
}
layer {
  name: "Convolution7"
  type: "Convolution"
  bottom: "Convolution6"
  top: "Convolution7"
  convolution_param {
    num_output: 96
    bias_term: true
    pad: 1
    kernel_size: 3
    stride: 1
    weight_filler {
      type: "msra"
    }
    bias_filler {
      type: "constant"
    }
  }
}
layer {
  name: "BatchNorm7"
  type: "BatchNorm"
  bottom: "Convolution7"
  top: "Convolution7"
  batch_norm_param {
    use_global_stats: false
  }
}
layer {
  name: "Scale7"
  type: "Scale"
  bottom: "Convolution7"
  top: "Convolution7"
  scale_param {
    bias_term: true
  }
}
layer {
  name: "Eltwise3"
  type: "Eltwise"
  bottom: "Convolution7"
  bottom: "Eltwise2"
  top: "Eltwise3"
  eltwise_param {
    operation: SUM
  }
}
layer {
  name: "ReLU7"
  type: "ReLU"
  bottom: "Eltwise3"
  top: "Eltwise3"
}
layer {
  name: "Convolution8"
  type: "Convolution"
  bottom: "Eltwise3"
  top: "Convolution8"
  convolution_param {
    num_output: 192
    bias_term: true
    pad: 1
    kernel_size: 3
    stride: 2
    weight_filler {
      type: "msra"
    }
    bias_filler {
      type: "constant"
    }
  }
}
layer {
  name: "BatchNorm8"
  type: "BatchNorm"
  bottom: "Convolution8"
  top: "Convolution8"
  batch_norm_param {
    use_global_stats: false
  }
}
layer {
  name: "Scale8"
  type: "Scale"
  bottom: "Convolution8"
  top: "Convolution8"
  scale_param {
    bias_term: true
  }
}
layer {
  name: "ReLU8"
  type: "ReLU"
  bottom: "Convolution8"
  top: "Convolution8"
}
layer {
  name: "Convolution9"
  type: "Convolution"
  bottom: "Convolution8"
  top: "Convolution9"
  convolution_param {
    num_output: 192
    bias_term: true
    pad: 1
    kernel_size: 3
    stride: 1
    weight_filler {
      type: "msra"
    }
    bias_filler {
      type: "constant"
    }
  }
}
layer {
  name: "BatchNorm9"
  type: "BatchNorm"
  bottom: "Convolution9"
  top: "Convolution9"
  batch_norm_param {
    use_global_stats: false
  }
}
layer {
  name: "Scale9"
  type: "Scale"
  bottom: "Convolution9"
  top: "Convolution9"
  scale_param {
    bias_term: true
  }
}
layer {
  name: "Convolution10"
  type: "Convolution"
  bottom: "Eltwise3"
  top: "Convolution10"
  convolution_param {
    num_output: 192
    bias_term: true
    pad: 0
    kernel_size: 1
    stride: 2
    weight_filler {
      type: "msra"
    }
    bias_filler {
      type: "constant"
    }
  }
}
layer {
  name: "BatchNorm10"
  type: "BatchNorm"
  bottom: "Convolution10"
  top: "Convolution10"
  batch_norm_param {
    use_global_stats: false
  }
}
layer {
  name: "Scale10"
  type: "Scale"
  bottom: "Convolution10"
  top: "Convolution10"
  scale_param {
    bias_term: true
  }
}
layer {
  name: "Eltwise4"
  type: "Eltwise"
  bottom: "Convolution9"
  bottom: "Convolution10"
  top: "Eltwise4"
  eltwise_param {
    operation: SUM
  }
}
layer {
  name: "ReLU9"
  type: "ReLU"
  bottom: "Eltwise4"
  top: "Eltwise4"
}
layer {
  name: "Convolution11"
  type: "Convolution"
  bottom: "Eltwise4"
  top: "Convolution11"
  convolution_param {
    num_output: 192
    bias_term: true
    pad: 1
    kernel_size: 3
    stride: 1
    weight_filler {
      type: "msra"
    }
    bias_filler {
      type: "constant"
    }
  }
}
layer {
  name: "BatchNorm11"
  type: "BatchNorm"
  bottom: "Convolution11"
  top: "Convolution11"
  batch_norm_param {
    use_global_stats: false
  }
}
layer {
  name: "Scale11"
  type: "Scale"
  bottom: "Convolution11"
  top: "Convolution11"
  scale_param {
    bias_term: true
  }
}
layer {
  name: "ReLU10"
  type: "ReLU"
  bottom: "Convolution11"
  top: "Convolution11"
}
layer {
  name: "Convolution12"
  type: "Convolution"
  bottom: "Convolution11"
  top: "Convolution12"
  convolution_param {
    num_output: 192
    bias_term: true
    pad: 1
    kernel_size: 3
    stride: 1
    weight_filler {
      type: "msra"
    }
    bias_filler {
      type: "constant"
    }
  }
}
layer {
  name: "BatchNorm12"
  type: "BatchNorm"
  bottom: "Convolution12"
  top: "Convolution12"
  batch_norm_param {
    use_global_stats: false
  }
}
layer {
  name: "Scale12"
  type: "Scale"
  bottom: "Convolution12"
  top: "Convolution12"
  scale_param {
    bias_term: true
  }
}
layer {
  name: "Eltwise5"
  type: "Eltwise"
  bottom: "Convolution12"
  bottom: "Eltwise4"
  top: "Eltwise5"
  eltwise_param {
    operation: SUM
  }
}
layer {
  name: "ReLU11"
  type: "ReLU"
  bottom: "Eltwise5"
  top: "Eltwise5"
}
layer {
  name: "Convolution13"
  type: "Convolution"
  bottom: "Eltwise5"
  top: "Convolution13"
  convolution_param {
    num_output: 192
    bias_term: true
    pad: 1
    kernel_size: 3
    stride: 1
    weight_filler {
      type: "msra"
    }
    bias_filler {
      type: "constant"
    }
  }
}
layer {
  name: "BatchNorm13"
  type: "BatchNorm"
  bottom: "Convolution13"
  top: "Convolution13"
  batch_norm_param {
    use_global_stats: false
  }
}
layer {
  name: "Scale13"
  type: "Scale"
  bottom: "Convolution13"
  top: "Convolution13"
  scale_param {
    bias_term: true
  }
}
layer {
  name: "ReLU12"
  type: "ReLU"
  bottom: "Convolution13"
  top: "Convolution13"
}
layer {
  name: "Convolution14"
  type: "Convolution"
  bottom: "Convolution13"
  top: "Convolution14"
  convolution_param {
    num_output: 192
    bias_term: true
    pad: 1
    kernel_size: 3
    stride: 1
    weight_filler {
      type: "msra"
    }
    bias_filler {
      type: "constant"
    }
  }
}
layer {
  name: "BatchNorm14"
  type: "BatchNorm"
  bottom: "Convolution14"
  top: "Convolution14"
  batch_norm_param {
    use_global_stats: false
  }
}
layer {
  name: "Scale14"
  type: "Scale"
  bottom: "Convolution14"
  top: "Convolution14"
  scale_param {
    bias_term: true
  }
}
layer {
  name: "Eltwise6"
  type: "Eltwise"
  bottom: "Convolution14"
  bottom: "Eltwise5"
  top: "Eltwise6"
  eltwise_param {
    operation: SUM
  }
}
layer {
  name: "ReLU13"
  type: "ReLU"
  bottom: "Eltwise6"
  top: "Eltwise6"
}
layer {
  name: "Convolution15"
  type: "Convolution"
  bottom: "Eltwise6"
  top: "Convolution15"
  convolution_param {
    num_output: 384
    bias_term: true
    pad: 1
    kernel_size: 3
    stride: 2
    weight_filler {
      type: "msra"
    }
    bias_filler {
      type: "constant"
    }
  }
}
layer {
  name: "BatchNorm15"
  type: "BatchNorm"
  bottom: "Convolution15"
  top: "Convolution15"
  batch_norm_param {
    use_global_stats: false
  }
}
layer {
  name: "Scale15"
  type: "Scale"
  bottom: "Convolution15"
  top: "Convolution15"
  scale_param {
    bias_term: true
  }
}
layer {
  name: "ReLU14"
  type: "ReLU"
  bottom: "Convolution15"
  top: "Convolution15"
}
layer {
  name: "Convolution16"
  type: "Convolution"
  bottom: "Convolution15"
  top: "Convolution16"
  convolution_param {
    num_output: 384
    bias_term: true
    pad: 1
    kernel_size: 3
    stride: 1
    weight_filler {
      type: "msra"
    }
    bias_filler {
      type: "constant"
    }
  }
}
layer {
  name: "BatchNorm16"
  type: "BatchNorm"
  bottom: "Convolution16"
  top: "Convolution16"
  batch_norm_param {
    use_global_stats: false
  }
}
layer {
  name: "Scale16"
  type: "Scale"
  bottom: "Convolution16"
  top: "Convolution16"
  scale_param {
    bias_term: true
  }
}
layer {
  name: "Convolution17"
  type: "Convolution"
  bottom: "Eltwise6"
  top: "Convolution17"
  convolution_param {
    num_output: 384
    bias_term: true
    pad: 0
    kernel_size: 1
    stride: 2
    weight_filler {
      type: "msra"
    }
    bias_filler {
      type: "constant"
    }
  }
}
layer {
  name: "BatchNorm17"
  type: "BatchNorm"
  bottom: "Convolution17"
  top: "Convolution17"
  batch_norm_param {
    use_global_stats: false
  }
}
layer {
  name: "Scale17"
  type: "Scale"
  bottom: "Convolution17"
  top: "Convolution17"
  scale_param {
    bias_term: true
  }
}
layer {
  name: "Eltwise7"
  type: "Eltwise"
  bottom: "Convolution16"
  bottom: "Convolution17"
  top: "Eltwise7"
  eltwise_param {
    operation: SUM
  }
}
layer {
  name: "ReLU15"
  type: "ReLU"
  bottom: "Eltwise7"
  top: "Eltwise7"
}
layer {
  name: "Convolution18"
  type: "Convolution"
  bottom: "Eltwise7"
  top: "Convolution18"
  convolution_param {
    num_output: 384
    bias_term: true
    pad: 1
    kernel_size: 3
    stride: 1
    weight_filler {
      type: "msra"
    }
    bias_filler {
      type: "constant"
    }
  }
}
layer {
  name: "BatchNorm18"
  type: "BatchNorm"
  bottom: "Convolution18"
  top: "Convolution18"
  batch_norm_param {
    use_global_stats: false
  }
}
layer {
  name: "Scale18"
  type: "Scale"
  bottom: "Convolution18"
  top: "Convolution18"
  scale_param {
    bias_term: true
  }
}
layer {
  name: "ReLU16"
  type: "ReLU"
  bottom: "Convolution18"
  top: "Convolution18"
}
layer {
  name: "Convolution19"
  type: "Convolution"
  bottom: "Convolution18"
  top: "Convolution19"
  convolution_param {
    num_output: 384
    bias_term: true
    pad: 1
    kernel_size: 3
    stride: 1
    weight_filler {
      type: "msra"
    }
    bias_filler {
      type: "constant"
    }
  }
}
layer {
  name: "BatchNorm19"
  type: "BatchNorm"
  bottom: "Convolution19"
  top: "Convolution19"
  batch_norm_param {
    use_global_stats: false
  }
}
layer {
  name: "Scale19"
  type: "Scale"
  bottom: "Convolution19"
  top: "Convolution19"
  scale_param {
    bias_term: true
  }
}
layer {
  name: "Eltwise8"
  type: "Eltwise"
  bottom: "Convolution19"
  bottom: "Eltwise7"
  top: "Eltwise8"
  eltwise_param {
    operation: SUM
  }
}
layer {
  name: "ReLU17"
  type: "ReLU"
  bottom: "Eltwise8"
  top: "Eltwise8"
}
layer {
  name: "Convolution20"
  type: "Convolution"
  bottom: "Eltwise8"
  top: "Convolution20"
  convolution_param {
    num_output: 384
    bias_term: true
    pad: 1
    kernel_size: 3
    stride: 1
    weight_filler {
      type: "msra"
    }
    bias_filler {
      type: "constant"
    }
  }
}
layer {
  name: "BatchNorm20"
  type: "BatchNorm"
  bottom: "Convolution20"
  top: "Convolution20"
  batch_norm_param {
    use_global_stats: false
  }
}
layer {
  name: "Scale20"
  type: "Scale"
  bottom: "Convolution20"
  top: "Convolution20"
  scale_param {
    bias_term: true
  }
}
layer {
  name: "ReLU18"
  type: "ReLU"
  bottom: "Convolution20"
  top: "Convolution20"
}
layer {
  name: "Convolution21"
  type: "Convolution"
  bottom: "Convolution20"
  top: "Convolution21"
  convolution_param {
    num_output: 384
    bias_term: true
    pad: 1
    kernel_size: 3
    stride: 1
    weight_filler {
      type: "msra"
    }
    bias_filler {
      type: "constant"
    }
  }
}
layer {
  name: "BatchNorm21"
  type: "BatchNorm"
  bottom: "Convolution21"
  top: "Convolution21"
  batch_norm_param {
    use_global_stats: false
  }
}
layer {
  name: "Scale21"
  type: "Scale"
  bottom: "Convolution21"
  top: "Convolution21"
  scale_param {
    bias_term: true
  }
}
layer {
  name: "Eltwise9"
  type: "Eltwise"
  bottom: "Convolution21"
  bottom: "Eltwise8"
  top: "Eltwise9"
  eltwise_param {
    operation: SUM
  }
}
layer {
  name: "ReLU19"
  type: "ReLU"
  bottom: "Eltwise9"
  top: "Eltwise9"
}
layer {
  name: "Convolution22"
  type: "Convolution"
  bottom: "Eltwise9"
  top: "Convolution22"
  convolution_param {
    num_output: 384
    bias_term: true
    pad: 1
    kernel_size: 3
    stride: 2
    weight_filler {
      type: "msra"
    }
    bias_filler {
      type: "constant"
    }
  }
}
layer {
  name: "BatchNorm22"
  type: "BatchNorm"
  bottom: "Convolution22"
  top: "Convolution22"
  batch_norm_param {
    use_global_stats: false
  }
}
layer {
  name: "Scale22"
  type: "Scale"
  bottom: "Convolution22"
  top: "Convolution22"
  scale_param {
    bias_term: true
  }
}
layer {
  name: "ReLU20"
  type: "ReLU"
  bottom: "Convolution22"
  top: "Convolution22"
}
layer {
  name: "Convolution23"
  type: "Convolution"
  bottom: "Convolution22"
  top: "Convolution23"
  convolution_param {
    num_output: 384
    bias_term: true
    pad: 1
    kernel_size: 3
    stride: 1
    weight_filler {
      type: "msra"
    }
    bias_filler {
      type: "constant"
    }
  }
}
layer {
  name: "BatchNorm23"
  type: "BatchNorm"
  bottom: "Convolution23"
  top: "Convolution23"
  batch_norm_param {
    use_global_stats: false
  }
}
layer {
  name: "Scale23"
  type: "Scale"
  bottom: "Convolution23"
  top: "Convolution23"
  scale_param {
    bias_term: true
  }
}
layer {
  name: "Convolution24"
  type: "Convolution"
  bottom: "Eltwise9"
  top: "Convolution24"
  convolution_param {
    num_output: 384
    bias_term: true
    pad: 0
    kernel_size: 1
    stride: 2
    weight_filler {
      type: "msra"
    }
    bias_filler {
      type: "constant"
    }
  }
}
layer {
  name: "BatchNorm24"
  type: "BatchNorm"
  bottom: "Convolution24"
  top: "Convolution24"
  batch_norm_param {
    use_global_stats: false
  }
}
layer {
  name: "Scale24"
  type: "Scale"
  bottom: "Convolution24"
  top: "Convolution24"
  scale_param {
    bias_term: true
  }
}
layer {
  name: "Eltwise10"
  type: "Eltwise"
  bottom: "Convolution23"
  bottom: "Convolution24"
  top: "Eltwise10"
  eltwise_param {
    operation: SUM
  }
}
layer {
  name: "ReLU21"
  type: "ReLU"
  bottom: "Eltwise10"
  top: "Eltwise10"
}
layer {
  name: "Convolution25"
  type: "Convolution"
  bottom: "Eltwise10"
  top: "Convolution25"
  convolution_param {
    num_output: 384
    bias_term: true
    pad: 1
    kernel_size: 3
    stride: 1
    weight_filler {
      type: "msra"
    }
    bias_filler {
      type: "constant"
    }
  }
}
layer {
  name: "BatchNorm25"
  type: "BatchNorm"
  bottom: "Convolution25"
  top: "Convolution25"
  batch_norm_param {
    use_global_stats: false
  }
}
layer {
  name: "Scale25"
  type: "Scale"
  bottom: "Convolution25"
  top: "Convolution25"
  scale_param {
    bias_term: true
  }
}
layer {
  name: "ReLU22"
  type: "ReLU"
  bottom: "Convolution25"
  top: "Convolution25"
}
layer {
  name: "Convolution26"
  type: "Convolution"
  bottom: "Convolution25"
  top: "Convolution26"
  convolution_param {
    num_output: 384
    bias_term: true
    pad: 1
    kernel_size: 3
    stride: 1
    weight_filler {
      type: "msra"
    }
    bias_filler {
      type: "constant"
    }
  }
}
layer {
  name: "BatchNorm26"
  type: "BatchNorm"
  bottom: "Convolution26"
  top: "Convolution26"
  batch_norm_param {
    use_global_stats: false
  }
}
layer {
  name: "Scale26"
  type: "Scale"
  bottom: "Convolution26"
  top: "Convolution26"
  scale_param {
    bias_term: true
  }
}
layer {
  name: "Eltwise11"
  type: "Eltwise"
  bottom: "Convolution26"
  bottom: "Eltwise10"
  top: "Eltwise11"
  eltwise_param {
    operation: SUM
  }
}
layer {
  name: "ReLU23"
  type: "ReLU"
  bottom: "Eltwise11"
  top: "Eltwise11"
}
layer {
  name: "Convolution27"
  type: "Convolution"
  bottom: "Eltwise11"
  top: "Convolution27"
  convolution_param {
    num_output: 384
    bias_term: true
    pad: 1
    kernel_size: 3
    stride: 1
    weight_filler {
      type: "msra"
    }
    bias_filler {
      type: "constant"
    }
  }
}
layer {
  name: "BatchNorm27"
  type: "BatchNorm"
  bottom: "Convolution27"
  top: "Convolution27"
  batch_norm_param {
    use_global_stats: false
  }
}
layer {
  name: "Scale27"
  type: "Scale"
  bottom: "Convolution27"
  top: "Convolution27"
  scale_param {
    bias_term: true
  }
}
layer {
  name: "ReLU24"
  type: "ReLU"
  bottom: "Convolution27"
  top: "Convolution27"
}
layer {
  name: "Convolution28"
  type: "Convolution"
  bottom: "Convolution27"
  top: "Convolution28"
  convolution_param {
    num_output: 384
    bias_term: true
    pad: 1
    kernel_size: 3
    stride: 1
    weight_filler {
      type: "msra"
    }
    bias_filler {
      type: "constant"
    }
  }
}
layer {
  name: "BatchNorm28"
  type: "BatchNorm"
  bottom: "Convolution28"
  top: "Convolution28"
  batch_norm_param {
    use_global_stats: false
  }
}
layer {
  name: "Scale28"
  type: "Scale"
  bottom: "Convolution28"
  top: "Convolution28"
  scale_param {
    bias_term: true
  }
}
layer {
  name: "Eltwise12"
  type: "Eltwise"
  bottom: "Convolution28"
  bottom: "Eltwise11"
  top: "Eltwise12"
  eltwise_param {
    operation: SUM
  }
}
layer {
  name: "ReLU25"
  type: "ReLU"
  bottom: "Eltwise12"
  top: "Eltwise12"
}
layer {
  name: "Pooling1"
  type: "Pooling"
  bottom: "Eltwise12"
  top: "Pooling1"
  pooling_param {
    pool: AVE
    global_pooling: true
  }
}
layer {
  name: "InnerProduct1"
  type: "InnerProduct"
  bottom: "Pooling1"
  top: "InnerProduct1"
  inner_product_param {
    num_output: 10
    weight_filler {
      type: "xavier"
    }
    bias_filler {
      type: "constant"
    }
  }
}
layer {
  name: "SoftmaxWithLoss1"
  type: "SoftmaxWithLoss"
  bottom: "InnerProduct1"
  bottom: "Data2"
  top: "SoftmaxWithLoss1"
}
I1128 19:31:37.616473 30336 layer_factory.hpp:77] Creating layer Data1
I1128 19:31:37.616562 30336 db_lmdb.cpp:35] Opened lmdb /home/ljf/caffe-master/examples/ljftest_cifar10_WRN/train_lmdb
I1128 19:31:37.616590 30336 net.cpp:84] Creating Layer Data1
I1128 19:31:37.616597 30336 net.cpp:380] Data1 -> Data1
I1128 19:31:37.616616 30336 net.cpp:380] Data1 -> Data2
I1128 19:31:37.617385 30336 data_layer.cpp:45] output data size: 128,3,28,28
I1128 19:31:37.621165 30336 net.cpp:122] Setting up Data1
I1128 19:31:37.621186 30336 net.cpp:129] Top shape: 128 3 28 28 (301056)
I1128 19:31:37.621189 30336 net.cpp:129] Top shape: 128 (128)
I1128 19:31:37.621193 30336 net.cpp:137] Memory required for data: 1204736
I1128 19:31:37.621202 30336 layer_factory.hpp:77] Creating layer Convolution1
I1128 19:31:37.621222 30336 net.cpp:84] Creating Layer Convolution1
I1128 19:31:37.621227 30336 net.cpp:406] Convolution1 <- Data1
I1128 19:31:37.621239 30336 net.cpp:380] Convolution1 -> Convolution1
I1128 19:31:37.932593 30336 net.cpp:122] Setting up Convolution1
I1128 19:31:37.932615 30336 net.cpp:129] Top shape: 128 96 28 28 (9633792)
I1128 19:31:37.932620 30336 net.cpp:137] Memory required for data: 39739904
I1128 19:31:37.932663 30336 layer_factory.hpp:77] Creating layer BatchNorm1
I1128 19:31:37.932677 30336 net.cpp:84] Creating Layer BatchNorm1
I1128 19:31:37.932682 30336 net.cpp:406] BatchNorm1 <- Convolution1
I1128 19:31:37.932713 30336 net.cpp:367] BatchNorm1 -> Convolution1 (in-place)
I1128 19:31:37.932868 30336 net.cpp:122] Setting up BatchNorm1
I1128 19:31:37.932874 30336 net.cpp:129] Top shape: 128 96 28 28 (9633792)
I1128 19:31:37.932876 30336 net.cpp:137] Memory required for data: 78275072
I1128 19:31:37.932900 30336 layer_factory.hpp:77] Creating layer Scale1
I1128 19:31:37.932907 30336 net.cpp:84] Creating Layer Scale1
I1128 19:31:37.932910 30336 net.cpp:406] Scale1 <- Convolution1
I1128 19:31:37.932915 30336 net.cpp:367] Scale1 -> Convolution1 (in-place)
I1128 19:31:37.932943 30336 layer_factory.hpp:77] Creating layer Scale1
I1128 19:31:37.933015 30336 net.cpp:122] Setting up Scale1
I1128 19:31:37.933020 30336 net.cpp:129] Top shape: 128 96 28 28 (9633792)
I1128 19:31:37.933023 30336 net.cpp:137] Memory required for data: 116810240
I1128 19:31:37.933040 30336 layer_factory.hpp:77] Creating layer ReLU1
I1128 19:31:37.933048 30336 net.cpp:84] Creating Layer ReLU1
I1128 19:31:37.933051 30336 net.cpp:406] ReLU1 <- Convolution1
I1128 19:31:37.933055 30336 net.cpp:367] ReLU1 -> Convolution1 (in-place)
I1128 19:31:37.933171 30336 net.cpp:122] Setting up ReLU1
I1128 19:31:37.933178 30336 net.cpp:129] Top shape: 128 96 28 28 (9633792)
I1128 19:31:37.933182 30336 net.cpp:137] Memory required for data: 155345408
I1128 19:31:37.933184 30336 layer_factory.hpp:77] Creating layer Convolution1_ReLU1_0_split
I1128 19:31:37.933189 30336 net.cpp:84] Creating Layer Convolution1_ReLU1_0_split
I1128 19:31:37.933193 30336 net.cpp:406] Convolution1_ReLU1_0_split <- Convolution1
I1128 19:31:37.933198 30336 net.cpp:380] Convolution1_ReLU1_0_split -> Convolution1_ReLU1_0_split_0
I1128 19:31:37.933205 30336 net.cpp:380] Convolution1_ReLU1_0_split -> Convolution1_ReLU1_0_split_1
I1128 19:31:37.933233 30336 net.cpp:122] Setting up Convolution1_ReLU1_0_split
I1128 19:31:37.933238 30336 net.cpp:129] Top shape: 128 96 28 28 (9633792)
I1128 19:31:37.933243 30336 net.cpp:129] Top shape: 128 96 28 28 (9633792)
I1128 19:31:37.933246 30336 net.cpp:137] Memory required for data: 232415744
I1128 19:31:37.933250 30336 layer_factory.hpp:77] Creating layer Convolution2
I1128 19:31:37.933259 30336 net.cpp:84] Creating Layer Convolution2
I1128 19:31:37.933262 30336 net.cpp:406] Convolution2 <- Convolution1_ReLU1_0_split_0
I1128 19:31:37.933267 30336 net.cpp:380] Convolution2 -> Convolution2
I1128 19:31:37.934600 30336 net.cpp:122] Setting up Convolution2
I1128 19:31:37.934609 30336 net.cpp:129] Top shape: 128 96 28 28 (9633792)
I1128 19:31:37.934612 30336 net.cpp:137] Memory required for data: 270950912
I1128 19:31:37.934622 30336 layer_factory.hpp:77] Creating layer BatchNorm2
I1128 19:31:37.934628 30336 net.cpp:84] Creating Layer BatchNorm2
I1128 19:31:37.934631 30336 net.cpp:406] BatchNorm2 <- Convolution2
I1128 19:31:37.934638 30336 net.cpp:367] BatchNorm2 -> Convolution2 (in-place)
I1128 19:31:37.934751 30336 net.cpp:122] Setting up BatchNorm2
I1128 19:31:37.934757 30336 net.cpp:129] Top shape: 128 96 28 28 (9633792)
I1128 19:31:37.934761 30336 net.cpp:137] Memory required for data: 309486080
I1128 19:31:37.934767 30336 layer_factory.hpp:77] Creating layer Scale2
I1128 19:31:37.934774 30336 net.cpp:84] Creating Layer Scale2
I1128 19:31:37.934777 30336 net.cpp:406] Scale2 <- Convolution2
I1128 19:31:37.934782 30336 net.cpp:367] Scale2 -> Convolution2 (in-place)
I1128 19:31:37.934805 30336 layer_factory.hpp:77] Creating layer Scale2
I1128 19:31:37.934872 30336 net.cpp:122] Setting up Scale2
I1128 19:31:37.934877 30336 net.cpp:129] Top shape: 128 96 28 28 (9633792)
I1128 19:31:37.934880 30336 net.cpp:137] Memory required for data: 348021248
I1128 19:31:37.934886 30336 layer_factory.hpp:77] Creating layer ReLU2
I1128 19:31:37.934891 30336 net.cpp:84] Creating Layer ReLU2
I1128 19:31:37.934895 30336 net.cpp:406] ReLU2 <- Convolution2
I1128 19:31:37.934900 30336 net.cpp:367] ReLU2 -> Convolution2 (in-place)
I1128 19:31:37.935006 30336 net.cpp:122] Setting up ReLU2
I1128 19:31:37.935012 30336 net.cpp:129] Top shape: 128 96 28 28 (9633792)
I1128 19:31:37.935015 30336 net.cpp:137] Memory required for data: 386556416
I1128 19:31:37.935019 30336 layer_factory.hpp:77] Creating layer Convolution3
I1128 19:31:37.935026 30336 net.cpp:84] Creating Layer Convolution3
I1128 19:31:37.935029 30336 net.cpp:406] Convolution3 <- Convolution2
I1128 19:31:37.935034 30336 net.cpp:380] Convolution3 -> Convolution3
I1128 19:31:37.936349 30336 net.cpp:122] Setting up Convolution3
I1128 19:31:37.936358 30336 net.cpp:129] Top shape: 128 96 28 28 (9633792)
I1128 19:31:37.936362 30336 net.cpp:137] Memory required for data: 425091584
I1128 19:31:37.936368 30336 layer_factory.hpp:77] Creating layer BatchNorm3
I1128 19:31:37.936374 30336 net.cpp:84] Creating Layer BatchNorm3
I1128 19:31:37.936379 30336 net.cpp:406] BatchNorm3 <- Convolution3
I1128 19:31:37.936384 30336 net.cpp:367] BatchNorm3 -> Convolution3 (in-place)
I1128 19:31:37.936506 30336 net.cpp:122] Setting up BatchNorm3
I1128 19:31:37.936511 30336 net.cpp:129] Top shape: 128 96 28 28 (9633792)
I1128 19:31:37.936516 30336 net.cpp:137] Memory required for data: 463626752
I1128 19:31:37.936524 30336 layer_factory.hpp:77] Creating layer Scale3
I1128 19:31:37.936529 30336 net.cpp:84] Creating Layer Scale3
I1128 19:31:37.936533 30336 net.cpp:406] Scale3 <- Convolution3
I1128 19:31:37.936540 30336 net.cpp:367] Scale3 -> Convolution3 (in-place)
I1128 19:31:37.936563 30336 layer_factory.hpp:77] Creating layer Scale3
I1128 19:31:37.936631 30336 net.cpp:122] Setting up Scale3
I1128 19:31:37.936636 30336 net.cpp:129] Top shape: 128 96 28 28 (9633792)
I1128 19:31:37.936641 30336 net.cpp:137] Memory required for data: 502161920
I1128 19:31:37.936646 30336 layer_factory.hpp:77] Creating layer Eltwise1
I1128 19:31:37.936652 30336 net.cpp:84] Creating Layer Eltwise1
I1128 19:31:37.936655 30336 net.cpp:406] Eltwise1 <- Convolution3
I1128 19:31:37.936661 30336 net.cpp:406] Eltwise1 <- Convolution1_ReLU1_0_split_1
I1128 19:31:37.936666 30336 net.cpp:380] Eltwise1 -> Eltwise1
I1128 19:31:37.936684 30336 net.cpp:122] Setting up Eltwise1
I1128 19:31:37.936689 30336 net.cpp:129] Top shape: 128 96 28 28 (9633792)
I1128 19:31:37.936693 30336 net.cpp:137] Memory required for data: 540697088
I1128 19:31:37.936697 30336 layer_factory.hpp:77] Creating layer ReLU3
I1128 19:31:37.936702 30336 net.cpp:84] Creating Layer ReLU3
I1128 19:31:37.936707 30336 net.cpp:406] ReLU3 <- Eltwise1
I1128 19:31:37.936712 30336 net.cpp:367] ReLU3 -> Eltwise1 (in-place)
I1128 19:31:37.936816 30336 net.cpp:122] Setting up ReLU3
I1128 19:31:37.936822 30336 net.cpp:129] Top shape: 128 96 28 28 (9633792)
I1128 19:31:37.936825 30336 net.cpp:137] Memory required for data: 579232256
I1128 19:31:37.936828 30336 layer_factory.hpp:77] Creating layer Eltwise1_ReLU3_0_split
I1128 19:31:37.936833 30336 net.cpp:84] Creating Layer Eltwise1_ReLU3_0_split
I1128 19:31:37.936837 30336 net.cpp:406] Eltwise1_ReLU3_0_split <- Eltwise1
I1128 19:31:37.936842 30336 net.cpp:380] Eltwise1_ReLU3_0_split -> Eltwise1_ReLU3_0_split_0
I1128 19:31:37.936851 30336 net.cpp:380] Eltwise1_ReLU3_0_split -> Eltwise1_ReLU3_0_split_1
I1128 19:31:37.936875 30336 net.cpp:122] Setting up Eltwise1_ReLU3_0_split
I1128 19:31:37.936880 30336 net.cpp:129] Top shape: 128 96 28 28 (9633792)
I1128 19:31:37.936884 30336 net.cpp:129] Top shape: 128 96 28 28 (9633792)
I1128 19:31:37.936887 30336 net.cpp:137] Memory required for data: 656302592
I1128 19:31:37.936890 30336 layer_factory.hpp:77] Creating layer Convolution4
I1128 19:31:37.936899 30336 net.cpp:84] Creating Layer Convolution4
I1128 19:31:37.936902 30336 net.cpp:406] Convolution4 <- Eltwise1_ReLU3_0_split_0
I1128 19:31:37.936908 30336 net.cpp:380] Convolution4 -> Convolution4
I1128 19:31:37.938211 30336 net.cpp:122] Setting up Convolution4
I1128 19:31:37.938220 30336 net.cpp:129] Top shape: 128 96 28 28 (9633792)
I1128 19:31:37.938222 30336 net.cpp:137] Memory required for data: 694837760
I1128 19:31:37.938230 30336 layer_factory.hpp:77] Creating layer BatchNorm4
I1128 19:31:37.938235 30336 net.cpp:84] Creating Layer BatchNorm4
I1128 19:31:37.938239 30336 net.cpp:406] BatchNorm4 <- Convolution4
I1128 19:31:37.938244 30336 net.cpp:367] BatchNorm4 -> Convolution4 (in-place)
I1128 19:31:37.938369 30336 net.cpp:122] Setting up BatchNorm4
I1128 19:31:37.938374 30336 net.cpp:129] Top shape: 128 96 28 28 (9633792)
I1128 19:31:37.938377 30336 net.cpp:137] Memory required for data: 733372928
I1128 19:31:37.938400 30336 layer_factory.hpp:77] Creating layer Scale4
I1128 19:31:37.938405 30336 net.cpp:84] Creating Layer Scale4
I1128 19:31:37.938408 30336 net.cpp:406] Scale4 <- Convolution4
I1128 19:31:37.938413 30336 net.cpp:367] Scale4 -> Convolution4 (in-place)
I1128 19:31:37.938436 30336 layer_factory.hpp:77] Creating layer Scale4
I1128 19:31:37.938515 30336 net.cpp:122] Setting up Scale4
I1128 19:31:37.938520 30336 net.cpp:129] Top shape: 128 96 28 28 (9633792)
I1128 19:31:37.938524 30336 net.cpp:137] Memory required for data: 771908096
I1128 19:31:37.938549 30336 layer_factory.hpp:77] Creating layer ReLU4
I1128 19:31:37.938555 30336 net.cpp:84] Creating Layer ReLU4
I1128 19:31:37.938558 30336 net.cpp:406] ReLU4 <- Convolution4
I1128 19:31:37.938563 30336 net.cpp:367] ReLU4 -> Convolution4 (in-place)
I1128 19:31:37.938680 30336 net.cpp:122] Setting up ReLU4
I1128 19:31:37.938686 30336 net.cpp:129] Top shape: 128 96 28 28 (9633792)
I1128 19:31:37.938689 30336 net.cpp:137] Memory required for data: 810443264
I1128 19:31:37.938706 30336 layer_factory.hpp:77] Creating layer Convolution5
I1128 19:31:37.938715 30336 net.cpp:84] Creating Layer Convolution5
I1128 19:31:37.938719 30336 net.cpp:406] Convolution5 <- Convolution4
I1128 19:31:37.938724 30336 net.cpp:380] Convolution5 -> Convolution5
I1128 19:31:37.940033 30336 net.cpp:122] Setting up Convolution5
I1128 19:31:37.940042 30336 net.cpp:129] Top shape: 128 96 28 28 (9633792)
I1128 19:31:37.940047 30336 net.cpp:137] Memory required for data: 848978432
I1128 19:31:37.940052 30336 layer_factory.hpp:77] Creating layer BatchNorm5
I1128 19:31:37.940059 30336 net.cpp:84] Creating Layer BatchNorm5
I1128 19:31:37.940062 30336 net.cpp:406] BatchNorm5 <- Convolution5
I1128 19:31:37.940068 30336 net.cpp:367] BatchNorm5 -> Convolution5 (in-place)
I1128 19:31:37.940181 30336 net.cpp:122] Setting up BatchNorm5
I1128 19:31:37.940186 30336 net.cpp:129] Top shape: 128 96 28 28 (9633792)
I1128 19:31:37.940189 30336 net.cpp:137] Memory required for data: 887513600
I1128 19:31:37.940199 30336 layer_factory.hpp:77] Creating layer Scale5
I1128 19:31:37.940204 30336 net.cpp:84] Creating Layer Scale5
I1128 19:31:37.940207 30336 net.cpp:406] Scale5 <- Convolution5
I1128 19:31:37.940212 30336 net.cpp:367] Scale5 -> Convolution5 (in-place)
I1128 19:31:37.940235 30336 layer_factory.hpp:77] Creating layer Scale5
I1128 19:31:37.940305 30336 net.cpp:122] Setting up Scale5
I1128 19:31:37.940311 30336 net.cpp:129] Top shape: 128 96 28 28 (9633792)
I1128 19:31:37.940315 30336 net.cpp:137] Memory required for data: 926048768
I1128 19:31:37.940320 30336 layer_factory.hpp:77] Creating layer Eltwise2
I1128 19:31:37.940325 30336 net.cpp:84] Creating Layer Eltwise2
I1128 19:31:37.940328 30336 net.cpp:406] Eltwise2 <- Convolution5
I1128 19:31:37.940332 30336 net.cpp:406] Eltwise2 <- Eltwise1_ReLU3_0_split_1
I1128 19:31:37.940338 30336 net.cpp:380] Eltwise2 -> Eltwise2
I1128 19:31:37.940356 30336 net.cpp:122] Setting up Eltwise2
I1128 19:31:37.940361 30336 net.cpp:129] Top shape: 128 96 28 28 (9633792)
I1128 19:31:37.940363 30336 net.cpp:137] Memory required for data: 964583936
I1128 19:31:37.940368 30336 layer_factory.hpp:77] Creating layer ReLU5
I1128 19:31:37.940372 30336 net.cpp:84] Creating Layer ReLU5
I1128 19:31:37.940376 30336 net.cpp:406] ReLU5 <- Eltwise2
I1128 19:31:37.940381 30336 net.cpp:367] ReLU5 -> Eltwise2 (in-place)
I1128 19:31:37.940688 30336 net.cpp:122] Setting up ReLU5
I1128 19:31:37.940696 30336 net.cpp:129] Top shape: 128 96 28 28 (9633792)
I1128 19:31:37.940699 30336 net.cpp:137] Memory required for data: 1003119104
I1128 19:31:37.940702 30336 layer_factory.hpp:77] Creating layer Eltwise2_ReLU5_0_split
I1128 19:31:37.940708 30336 net.cpp:84] Creating Layer Eltwise2_ReLU5_0_split
I1128 19:31:37.940711 30336 net.cpp:406] Eltwise2_ReLU5_0_split <- Eltwise2
I1128 19:31:37.940716 30336 net.cpp:380] Eltwise2_ReLU5_0_split -> Eltwise2_ReLU5_0_split_0
I1128 19:31:37.940722 30336 net.cpp:380] Eltwise2_ReLU5_0_split -> Eltwise2_ReLU5_0_split_1
I1128 19:31:37.940749 30336 net.cpp:122] Setting up Eltwise2_ReLU5_0_split
I1128 19:31:37.940754 30336 net.cpp:129] Top shape: 128 96 28 28 (9633792)
I1128 19:31:37.940758 30336 net.cpp:129] Top shape: 128 96 28 28 (9633792)
I1128 19:31:37.940762 30336 net.cpp:137] Memory required for data: 1080189440
I1128 19:31:37.940764 30336 layer_factory.hpp:77] Creating layer Convolution6
I1128 19:31:37.940773 30336 net.cpp:84] Creating Layer Convolution6
I1128 19:31:37.940775 30336 net.cpp:406] Convolution6 <- Eltwise2_ReLU5_0_split_0
I1128 19:31:37.940780 30336 net.cpp:380] Convolution6 -> Convolution6
I1128 19:31:37.941910 30336 net.cpp:122] Setting up Convolution6
I1128 19:31:37.941918 30336 net.cpp:129] Top shape: 128 96 28 28 (9633792)
I1128 19:31:37.941921 30336 net.cpp:137] Memory required for data: 1118724608
I1128 19:31:37.941928 30336 layer_factory.hpp:77] Creating layer BatchNorm6
I1128 19:31:37.941934 30336 net.cpp:84] Creating Layer BatchNorm6
I1128 19:31:37.941939 30336 net.cpp:406] BatchNorm6 <- Convolution6
I1128 19:31:37.941944 30336 net.cpp:367] BatchNorm6 -> Convolution6 (in-place)
I1128 19:31:37.942059 30336 net.cpp:122] Setting up BatchNorm6
I1128 19:31:37.942065 30336 net.cpp:129] Top shape: 128 96 28 28 (9633792)
I1128 19:31:37.942070 30336 net.cpp:137] Memory required for data: 1157259776
I1128 19:31:37.942077 30336 layer_factory.hpp:77] Creating layer Scale6
I1128 19:31:37.942081 30336 net.cpp:84] Creating Layer Scale6
I1128 19:31:37.942085 30336 net.cpp:406] Scale6 <- Convolution6
I1128 19:31:37.942091 30336 net.cpp:367] Scale6 -> Convolution6 (in-place)
I1128 19:31:37.942113 30336 layer_factory.hpp:77] Creating layer Scale6
I1128 19:31:37.942183 30336 net.cpp:122] Setting up Scale6
I1128 19:31:37.942188 30336 net.cpp:129] Top shape: 128 96 28 28 (9633792)
I1128 19:31:37.942191 30336 net.cpp:137] Memory required for data: 1195794944
I1128 19:31:37.942196 30336 layer_factory.hpp:77] Creating layer ReLU6
I1128 19:31:37.942201 30336 net.cpp:84] Creating Layer ReLU6
I1128 19:31:37.942204 30336 net.cpp:406] ReLU6 <- Convolution6
I1128 19:31:37.942209 30336 net.cpp:367] ReLU6 -> Convolution6 (in-place)
I1128 19:31:37.942481 30336 net.cpp:122] Setting up ReLU6
I1128 19:31:37.942488 30336 net.cpp:129] Top shape: 128 96 28 28 (9633792)
I1128 19:31:37.942492 30336 net.cpp:137] Memory required for data: 1234330112
I1128 19:31:37.942495 30336 layer_factory.hpp:77] Creating layer Convolution7
I1128 19:31:37.942517 30336 net.cpp:84] Creating Layer Convolution7
I1128 19:31:37.942522 30336 net.cpp:406] Convolution7 <- Convolution6
I1128 19:31:37.942526 30336 net.cpp:380] Convolution7 -> Convolution7
I1128 19:31:37.943910 30336 net.cpp:122] Setting up Convolution7
I1128 19:31:37.943919 30336 net.cpp:129] Top shape: 128 96 28 28 (9633792)
I1128 19:31:37.943922 30336 net.cpp:137] Memory required for data: 1272865280
I1128 19:31:37.943928 30336 layer_factory.hpp:77] Creating layer BatchNorm7
I1128 19:31:37.943934 30336 net.cpp:84] Creating Layer BatchNorm7
I1128 19:31:37.943939 30336 net.cpp:406] BatchNorm7 <- Convolution7
I1128 19:31:37.943944 30336 net.cpp:367] BatchNorm7 -> Convolution7 (in-place)
I1128 19:31:37.944064 30336 net.cpp:122] Setting up BatchNorm7
I1128 19:31:37.944069 30336 net.cpp:129] Top shape: 128 96 28 28 (9633792)
I1128 19:31:37.944073 30336 net.cpp:137] Memory required for data: 1311400448
I1128 19:31:37.944080 30336 layer_factory.hpp:77] Creating layer Scale7
I1128 19:31:37.944088 30336 net.cpp:84] Creating Layer Scale7
I1128 19:31:37.944092 30336 net.cpp:406] Scale7 <- Convolution7
I1128 19:31:37.944097 30336 net.cpp:367] Scale7 -> Convolution7 (in-place)
I1128 19:31:37.944121 30336 layer_factory.hpp:77] Creating layer Scale7
I1128 19:31:37.944190 30336 net.cpp:122] Setting up Scale7
I1128 19:31:37.944196 30336 net.cpp:129] Top shape: 128 96 28 28 (9633792)
I1128 19:31:37.944200 30336 net.cpp:137] Memory required for data: 1349935616
I1128 19:31:37.944205 30336 layer_factory.hpp:77] Creating layer Eltwise3
I1128 19:31:37.944211 30336 net.cpp:84] Creating Layer Eltwise3
I1128 19:31:37.944214 30336 net.cpp:406] Eltwise3 <- Convolution7
I1128 19:31:37.944219 30336 net.cpp:406] Eltwise3 <- Eltwise2_ReLU5_0_split_1
I1128 19:31:37.944226 30336 net.cpp:380] Eltwise3 -> Eltwise3
I1128 19:31:37.944242 30336 net.cpp:122] Setting up Eltwise3
I1128 19:31:37.944247 30336 net.cpp:129] Top shape: 128 96 28 28 (9633792)
I1128 19:31:37.944252 30336 net.cpp:137] Memory required for data: 1388470784
I1128 19:31:37.944254 30336 layer_factory.hpp:77] Creating layer ReLU7
I1128 19:31:37.944258 30336 net.cpp:84] Creating Layer ReLU7
I1128 19:31:37.944262 30336 net.cpp:406] ReLU7 <- Eltwise3
I1128 19:31:37.944273 30336 net.cpp:367] ReLU7 -> Eltwise3 (in-place)
I1128 19:31:37.944382 30336 net.cpp:122] Setting up ReLU7
I1128 19:31:37.944389 30336 net.cpp:129] Top shape: 128 96 28 28 (9633792)
I1128 19:31:37.944392 30336 net.cpp:137] Memory required for data: 1427005952
I1128 19:31:37.944396 30336 layer_factory.hpp:77] Creating layer Eltwise3_ReLU7_0_split
I1128 19:31:37.944401 30336 net.cpp:84] Creating Layer Eltwise3_ReLU7_0_split
I1128 19:31:37.944403 30336 net.cpp:406] Eltwise3_ReLU7_0_split <- Eltwise3
I1128 19:31:37.944408 30336 net.cpp:380] Eltwise3_ReLU7_0_split -> Eltwise3_ReLU7_0_split_0
I1128 19:31:37.944416 30336 net.cpp:380] Eltwise3_ReLU7_0_split -> Eltwise3_ReLU7_0_split_1
I1128 19:31:37.944442 30336 net.cpp:122] Setting up Eltwise3_ReLU7_0_split
I1128 19:31:37.944447 30336 net.cpp:129] Top shape: 128 96 28 28 (9633792)
I1128 19:31:37.944452 30336 net.cpp:129] Top shape: 128 96 28 28 (9633792)
I1128 19:31:37.944454 30336 net.cpp:137] Memory required for data: 1504076288
I1128 19:31:37.944458 30336 layer_factory.hpp:77] Creating layer Convolution8
I1128 19:31:37.944465 30336 net.cpp:84] Creating Layer Convolution8
I1128 19:31:37.944468 30336 net.cpp:406] Convolution8 <- Eltwise3_ReLU7_0_split_0
I1128 19:31:37.944474 30336 net.cpp:380] Convolution8 -> Convolution8
I1128 19:31:37.946430 30336 net.cpp:122] Setting up Convolution8
I1128 19:31:37.946440 30336 net.cpp:129] Top shape: 128 192 14 14 (4816896)
I1128 19:31:37.946444 30336 net.cpp:137] Memory required for data: 1523343872
I1128 19:31:37.946450 30336 layer_factory.hpp:77] Creating layer BatchNorm8
I1128 19:31:37.946457 30336 net.cpp:84] Creating Layer BatchNorm8
I1128 19:31:37.946461 30336 net.cpp:406] BatchNorm8 <- Convolution8
I1128 19:31:37.946466 30336 net.cpp:367] BatchNorm8 -> Convolution8 (in-place)
I1128 19:31:37.946590 30336 net.cpp:122] Setting up BatchNorm8
I1128 19:31:37.946596 30336 net.cpp:129] Top shape: 128 192 14 14 (4816896)
I1128 19:31:37.946599 30336 net.cpp:137] Memory required for data: 1542611456
I1128 19:31:37.946619 30336 layer_factory.hpp:77] Creating layer Scale8
I1128 19:31:37.946624 30336 net.cpp:84] Creating Layer Scale8
I1128 19:31:37.946627 30336 net.cpp:406] Scale8 <- Convolution8
I1128 19:31:37.946631 30336 net.cpp:367] Scale8 -> Convolution8 (in-place)
I1128 19:31:37.946655 30336 layer_factory.hpp:77] Creating layer Scale8
I1128 19:31:37.946727 30336 net.cpp:122] Setting up Scale8
I1128 19:31:37.946732 30336 net.cpp:129] Top shape: 128 192 14 14 (4816896)
I1128 19:31:37.946735 30336 net.cpp:137] Memory required for data: 1561879040
I1128 19:31:37.946740 30336 layer_factory.hpp:77] Creating layer ReLU8
I1128 19:31:37.946745 30336 net.cpp:84] Creating Layer ReLU8
I1128 19:31:37.946749 30336 net.cpp:406] ReLU8 <- Convolution8
I1128 19:31:37.946754 30336 net.cpp:367] ReLU8 -> Convolution8 (in-place)
I1128 19:31:37.946894 30336 net.cpp:122] Setting up ReLU8
I1128 19:31:37.946900 30336 net.cpp:129] Top shape: 128 192 14 14 (4816896)
I1128 19:31:37.946904 30336 net.cpp:137] Memory required for data: 1581146624
I1128 19:31:37.946907 30336 layer_factory.hpp:77] Creating layer Convolution9
I1128 19:31:37.946914 30336 net.cpp:84] Creating Layer Convolution9
I1128 19:31:37.946918 30336 net.cpp:406] Convolution9 <- Convolution8
I1128 19:31:37.946923 30336 net.cpp:380] Convolution9 -> Convolution9
I1128 19:31:37.950475 30336 net.cpp:122] Setting up Convolution9
I1128 19:31:37.950487 30336 net.cpp:129] Top shape: 128 192 14 14 (4816896)
I1128 19:31:37.950490 30336 net.cpp:137] Memory required for data: 1600414208
I1128 19:31:37.950498 30336 layer_factory.hpp:77] Creating layer BatchNorm9
I1128 19:31:37.950505 30336 net.cpp:84] Creating Layer BatchNorm9
I1128 19:31:37.950510 30336 net.cpp:406] BatchNorm9 <- Convolution9
I1128 19:31:37.950528 30336 net.cpp:367] BatchNorm9 -> Convolution9 (in-place)
I1128 19:31:37.950680 30336 net.cpp:122] Setting up BatchNorm9
I1128 19:31:37.950685 30336 net.cpp:129] Top shape: 128 192 14 14 (4816896)
I1128 19:31:37.950687 30336 net.cpp:137] Memory required for data: 1619681792
I1128 19:31:37.950721 30336 layer_factory.hpp:77] Creating layer Scale9
I1128 19:31:37.950727 30336 net.cpp:84] Creating Layer Scale9
I1128 19:31:37.950743 30336 net.cpp:406] Scale9 <- Convolution9
I1128 19:31:37.950748 30336 net.cpp:367] Scale9 -> Convolution9 (in-place)
I1128 19:31:37.950788 30336 layer_factory.hpp:77] Creating layer Scale9
I1128 19:31:37.950898 30336 net.cpp:122] Setting up Scale9
I1128 19:31:37.950904 30336 net.cpp:129] Top shape: 128 192 14 14 (4816896)
I1128 19:31:37.950907 30336 net.cpp:137] Memory required for data: 1638949376
I1128 19:31:37.950912 30336 layer_factory.hpp:77] Creating layer Convolution10
I1128 19:31:37.950922 30336 net.cpp:84] Creating Layer Convolution10
I1128 19:31:37.950925 30336 net.cpp:406] Convolution10 <- Eltwise3_ReLU7_0_split_1
I1128 19:31:37.950932 30336 net.cpp:380] Convolution10 -> Convolution10
I1128 19:31:37.952414 30336 net.cpp:122] Setting up Convolution10
I1128 19:31:37.952424 30336 net.cpp:129] Top shape: 128 192 14 14 (4816896)
I1128 19:31:37.952427 30336 net.cpp:137] Memory required for data: 1658216960
I1128 19:31:37.952440 30336 layer_factory.hpp:77] Creating layer BatchNorm10
I1128 19:31:37.952445 30336 net.cpp:84] Creating Layer BatchNorm10
I1128 19:31:37.952450 30336 net.cpp:406] BatchNorm10 <- Convolution10
I1128 19:31:37.952456 30336 net.cpp:367] BatchNorm10 -> Convolution10 (in-place)
I1128 19:31:37.952635 30336 net.cpp:122] Setting up BatchNorm10
I1128 19:31:37.952639 30336 net.cpp:129] Top shape: 128 192 14 14 (4816896)
I1128 19:31:37.952643 30336 net.cpp:137] Memory required for data: 1677484544
I1128 19:31:37.952651 30336 layer_factory.hpp:77] Creating layer Scale10
I1128 19:31:37.952656 30336 net.cpp:84] Creating Layer Scale10
I1128 19:31:37.952661 30336 net.cpp:406] Scale10 <- Convolution10
I1128 19:31:37.952666 30336 net.cpp:367] Scale10 -> Convolution10 (in-place)
I1128 19:31:37.952705 30336 layer_factory.hpp:77] Creating layer Scale10
I1128 19:31:37.952814 30336 net.cpp:122] Setting up Scale10
I1128 19:31:37.952821 30336 net.cpp:129] Top shape: 128 192 14 14 (4816896)
I1128 19:31:37.952824 30336 net.cpp:137] Memory required for data: 1696752128
I1128 19:31:37.952831 30336 layer_factory.hpp:77] Creating layer Eltwise4
I1128 19:31:37.952836 30336 net.cpp:84] Creating Layer Eltwise4
I1128 19:31:37.952839 30336 net.cpp:406] Eltwise4 <- Convolution9
I1128 19:31:37.952844 30336 net.cpp:406] Eltwise4 <- Convolution10
I1128 19:31:37.952850 30336 net.cpp:380] Eltwise4 -> Eltwise4
I1128 19:31:37.952883 30336 net.cpp:122] Setting up Eltwise4
I1128 19:31:37.952888 30336 net.cpp:129] Top shape: 128 192 14 14 (4816896)
I1128 19:31:37.952893 30336 net.cpp:137] Memory required for data: 1716019712
I1128 19:31:37.952908 30336 layer_factory.hpp:77] Creating layer ReLU9
I1128 19:31:37.952913 30336 net.cpp:84] Creating Layer ReLU9
I1128 19:31:37.952931 30336 net.cpp:406] ReLU9 <- Eltwise4
I1128 19:31:37.952937 30336 net.cpp:367] ReLU9 -> Eltwise4 (in-place)
I1128 19:31:37.953061 30336 net.cpp:122] Setting up ReLU9
I1128 19:31:37.953068 30336 net.cpp:129] Top shape: 128 192 14 14 (4816896)
I1128 19:31:37.953070 30336 net.cpp:137] Memory required for data: 1735287296
I1128 19:31:37.953073 30336 layer_factory.hpp:77] Creating layer Eltwise4_ReLU9_0_split
I1128 19:31:37.953078 30336 net.cpp:84] Creating Layer Eltwise4_ReLU9_0_split
I1128 19:31:37.953083 30336 net.cpp:406] Eltwise4_ReLU9_0_split <- Eltwise4
I1128 19:31:37.953088 30336 net.cpp:380] Eltwise4_ReLU9_0_split -> Eltwise4_ReLU9_0_split_0
I1128 19:31:37.953094 30336 net.cpp:380] Eltwise4_ReLU9_0_split -> Eltwise4_ReLU9_0_split_1
I1128 19:31:37.953148 30336 net.cpp:122] Setting up Eltwise4_ReLU9_0_split
I1128 19:31:37.953153 30336 net.cpp:129] Top shape: 128 192 14 14 (4816896)
I1128 19:31:37.953172 30336 net.cpp:129] Top shape: 128 192 14 14 (4816896)
I1128 19:31:37.953176 30336 net.cpp:137] Memory required for data: 1773822464
I1128 19:31:37.953179 30336 layer_factory.hpp:77] Creating layer Convolution11
I1128 19:31:37.953187 30336 net.cpp:84] Creating Layer Convolution11
I1128 19:31:37.953191 30336 net.cpp:406] Convolution11 <- Eltwise4_ReLU9_0_split_0
I1128 19:31:37.953203 30336 net.cpp:380] Convolution11 -> Convolution11
I1128 19:31:37.956701 30336 net.cpp:122] Setting up Convolution11
I1128 19:31:37.956712 30336 net.cpp:129] Top shape: 128 192 14 14 (4816896)
I1128 19:31:37.956714 30336 net.cpp:137] Memory required for data: 1793090048
I1128 19:31:37.956735 30336 layer_factory.hpp:77] Creating layer BatchNorm11
I1128 19:31:37.956743 30336 net.cpp:84] Creating Layer BatchNorm11
I1128 19:31:37.956748 30336 net.cpp:406] BatchNorm11 <- Convolution11
I1128 19:31:37.956753 30336 net.cpp:367] BatchNorm11 -> Convolution11 (in-place)
I1128 19:31:37.956913 30336 net.cpp:122] Setting up BatchNorm11
I1128 19:31:37.956918 30336 net.cpp:129] Top shape: 128 192 14 14 (4816896)
I1128 19:31:37.956923 30336 net.cpp:137] Memory required for data: 1812357632
I1128 19:31:37.956944 30336 layer_factory.hpp:77] Creating layer Scale11
I1128 19:31:37.956949 30336 net.cpp:84] Creating Layer Scale11
I1128 19:31:37.956953 30336 net.cpp:406] Scale11 <- Convolution11
I1128 19:31:37.956959 30336 net.cpp:367] Scale11 -> Convolution11 (in-place)
I1128 19:31:37.956996 30336 layer_factory.hpp:77] Creating layer Scale11
I1128 19:31:37.957095 30336 net.cpp:122] Setting up Scale11
I1128 19:31:37.957101 30336 net.cpp:129] Top shape: 128 192 14 14 (4816896)
I1128 19:31:37.957104 30336 net.cpp:137] Memory required for data: 1831625216
I1128 19:31:37.957126 30336 layer_factory.hpp:77] Creating layer ReLU10
I1128 19:31:37.957132 30336 net.cpp:84] Creating Layer ReLU10
I1128 19:31:37.957136 30336 net.cpp:406] ReLU10 <- Convolution11
I1128 19:31:37.957141 30336 net.cpp:367] ReLU10 -> Convolution11 (in-place)
I1128 19:31:37.957265 30336 net.cpp:122] Setting up ReLU10
I1128 19:31:37.957271 30336 net.cpp:129] Top shape: 128 192 14 14 (4816896)
I1128 19:31:37.957274 30336 net.cpp:137] Memory required for data: 1850892800
I1128 19:31:37.957289 30336 layer_factory.hpp:77] Creating layer Convolution12
I1128 19:31:37.957298 30336 net.cpp:84] Creating Layer Convolution12
I1128 19:31:37.957303 30336 net.cpp:406] Convolution12 <- Convolution11
I1128 19:31:37.957307 30336 net.cpp:380] Convolution12 -> Convolution12
I1128 19:31:37.960755 30336 net.cpp:122] Setting up Convolution12
I1128 19:31:37.960769 30336 net.cpp:129] Top shape: 128 192 14 14 (4816896)
I1128 19:31:37.960773 30336 net.cpp:137] Memory required for data: 1870160384
I1128 19:31:37.960794 30336 layer_factory.hpp:77] Creating layer BatchNorm12
I1128 19:31:37.960803 30336 net.cpp:84] Creating Layer BatchNorm12
I1128 19:31:37.960805 30336 net.cpp:406] BatchNorm12 <- Convolution12
I1128 19:31:37.960811 30336 net.cpp:367] BatchNorm12 -> Convolution12 (in-place)
I1128 19:31:37.960958 30336 net.cpp:122] Setting up BatchNorm12
I1128 19:31:37.960963 30336 net.cpp:129] Top shape: 128 192 14 14 (4816896)
I1128 19:31:37.960966 30336 net.cpp:137] Memory required for data: 1889427968
I1128 19:31:37.960988 30336 layer_factory.hpp:77] Creating layer Scale12
I1128 19:31:37.960994 30336 net.cpp:84] Creating Layer Scale12
I1128 19:31:37.960997 30336 net.cpp:406] Scale12 <- Convolution12
I1128 19:31:37.961001 30336 net.cpp:367] Scale12 -> Convolution12 (in-place)
I1128 19:31:37.961057 30336 layer_factory.hpp:77] Creating layer Scale12
I1128 19:31:37.961171 30336 net.cpp:122] Setting up Scale12
I1128 19:31:37.961176 30336 net.cpp:129] Top shape: 128 192 14 14 (4816896)
I1128 19:31:37.961179 30336 net.cpp:137] Memory required for data: 1908695552
I1128 19:31:37.961200 30336 layer_factory.hpp:77] Creating layer Eltwise5
I1128 19:31:37.961206 30336 net.cpp:84] Creating Layer Eltwise5
I1128 19:31:37.961210 30336 net.cpp:406] Eltwise5 <- Convolution12
I1128 19:31:37.961215 30336 net.cpp:406] Eltwise5 <- Eltwise4_ReLU9_0_split_1
I1128 19:31:37.961220 30336 net.cpp:380] Eltwise5 -> Eltwise5
I1128 19:31:37.961239 30336 net.cpp:122] Setting up Eltwise5
I1128 19:31:37.961257 30336 net.cpp:129] Top shape: 128 192 14 14 (4816896)
I1128 19:31:37.961261 30336 net.cpp:137] Memory required for data: 1927963136
I1128 19:31:37.961280 30336 layer_factory.hpp:77] Creating layer ReLU11
I1128 19:31:37.961294 30336 net.cpp:84] Creating Layer ReLU11
I1128 19:31:37.961298 30336 net.cpp:406] ReLU11 <- Eltwise5
I1128 19:31:37.961316 30336 net.cpp:367] ReLU11 -> Eltwise5 (in-place)
I1128 19:31:37.961462 30336 net.cpp:122] Setting up ReLU11
I1128 19:31:37.961468 30336 net.cpp:129] Top shape: 128 192 14 14 (4816896)
I1128 19:31:37.961472 30336 net.cpp:137] Memory required for data: 1947230720
I1128 19:31:37.961488 30336 layer_factory.hpp:77] Creating layer Eltwise5_ReLU11_0_split
I1128 19:31:37.961495 30336 net.cpp:84] Creating Layer Eltwise5_ReLU11_0_split
I1128 19:31:37.961499 30336 net.cpp:406] Eltwise5_ReLU11_0_split <- Eltwise5
I1128 19:31:37.961504 30336 net.cpp:380] Eltwise5_ReLU11_0_split -> Eltwise5_ReLU11_0_split_0
I1128 19:31:37.961511 30336 net.cpp:380] Eltwise5_ReLU11_0_split -> Eltwise5_ReLU11_0_split_1
I1128 19:31:37.961540 30336 net.cpp:122] Setting up Eltwise5_ReLU11_0_split
I1128 19:31:37.961545 30336 net.cpp:129] Top shape: 128 192 14 14 (4816896)
I1128 19:31:37.961562 30336 net.cpp:129] Top shape: 128 192 14 14 (4816896)
I1128 19:31:37.961565 30336 net.cpp:137] Memory required for data: 1985765888
I1128 19:31:37.961570 30336 layer_factory.hpp:77] Creating layer Convolution13
I1128 19:31:37.961591 30336 net.cpp:84] Creating Layer Convolution13
I1128 19:31:37.961593 30336 net.cpp:406] Convolution13 <- Eltwise5_ReLU11_0_split_0
I1128 19:31:37.961598 30336 net.cpp:380] Convolution13 -> Convolution13
I1128 19:31:37.965339 30336 net.cpp:122] Setting up Convolution13
I1128 19:31:37.965354 30336 net.cpp:129] Top shape: 128 192 14 14 (4816896)
I1128 19:31:37.965358 30336 net.cpp:137] Memory required for data: 2005033472
I1128 19:31:37.965364 30336 layer_factory.hpp:77] Creating layer BatchNorm13
I1128 19:31:37.965373 30336 net.cpp:84] Creating Layer BatchNorm13
I1128 19:31:37.965378 30336 net.cpp:406] BatchNorm13 <- Convolution13
I1128 19:31:37.965382 30336 net.cpp:367] BatchNorm13 -> Convolution13 (in-place)
I1128 19:31:37.965541 30336 net.cpp:122] Setting up BatchNorm13
I1128 19:31:37.965548 30336 net.cpp:129] Top shape: 128 192 14 14 (4816896)
I1128 19:31:37.965550 30336 net.cpp:137] Memory required for data: 2024301056
I1128 19:31:37.965557 30336 layer_factory.hpp:77] Creating layer Scale13
I1128 19:31:37.965564 30336 net.cpp:84] Creating Layer Scale13
I1128 19:31:37.965567 30336 net.cpp:406] Scale13 <- Convolution13
I1128 19:31:37.965574 30336 net.cpp:367] Scale13 -> Convolution13 (in-place)
I1128 19:31:37.965652 30336 layer_factory.hpp:77] Creating layer Scale13
I1128 19:31:37.965767 30336 net.cpp:122] Setting up Scale13
I1128 19:31:37.965772 30336 net.cpp:129] Top shape: 128 192 14 14 (4816896)
I1128 19:31:37.965775 30336 net.cpp:137] Memory required for data: 2043568640
I1128 19:31:37.965780 30336 layer_factory.hpp:77] Creating layer ReLU12
I1128 19:31:37.965786 30336 net.cpp:84] Creating Layer ReLU12
I1128 19:31:37.965790 30336 net.cpp:406] ReLU12 <- Convolution13
I1128 19:31:37.965796 30336 net.cpp:367] ReLU12 -> Convolution13 (in-place)
I1128 19:31:37.966096 30336 net.cpp:122] Setting up ReLU12
I1128 19:31:37.966104 30336 net.cpp:129] Top shape: 128 192 14 14 (4816896)
I1128 19:31:37.966107 30336 net.cpp:137] Memory required for data: 2062836224
I1128 19:31:37.966112 30336 layer_factory.hpp:77] Creating layer Convolution14
I1128 19:31:37.966120 30336 net.cpp:84] Creating Layer Convolution14
I1128 19:31:37.966123 30336 net.cpp:406] Convolution14 <- Convolution13
I1128 19:31:37.966130 30336 net.cpp:380] Convolution14 -> Convolution14
I1128 19:31:37.969571 30336 net.cpp:122] Setting up Convolution14
I1128 19:31:37.969581 30336 net.cpp:129] Top shape: 128 192 14 14 (4816896)
I1128 19:31:37.969584 30336 net.cpp:137] Memory required for data: 2082103808
I1128 19:31:37.969591 30336 layer_factory.hpp:77] Creating layer BatchNorm14
I1128 19:31:37.969610 30336 net.cpp:84] Creating Layer BatchNorm14
I1128 19:31:37.969614 30336 net.cpp:406] BatchNorm14 <- Convolution14
I1128 19:31:37.969619 30336 net.cpp:367] BatchNorm14 -> Convolution14 (in-place)
I1128 19:31:37.969748 30336 net.cpp:122] Setting up BatchNorm14
I1128 19:31:37.969763 30336 net.cpp:129] Top shape: 128 192 14 14 (4816896)
I1128 19:31:37.969765 30336 net.cpp:137] Memory required for data: 2101371392
I1128 19:31:37.969774 30336 layer_factory.hpp:77] Creating layer Scale14
I1128 19:31:37.969779 30336 net.cpp:84] Creating Layer Scale14
I1128 19:31:37.969784 30336 net.cpp:406] Scale14 <- Convolution14
I1128 19:31:37.969789 30336 net.cpp:367] Scale14 -> Convolution14 (in-place)
I1128 19:31:37.969815 30336 layer_factory.hpp:77] Creating layer Scale14
I1128 19:31:37.969926 30336 net.cpp:122] Setting up Scale14
I1128 19:31:37.969933 30336 net.cpp:129] Top shape: 128 192 14 14 (4816896)
I1128 19:31:37.969935 30336 net.cpp:137] Memory required for data: 2120638976
I1128 19:31:37.969940 30336 layer_factory.hpp:77] Creating layer Eltwise6
I1128 19:31:37.969946 30336 net.cpp:84] Creating Layer Eltwise6
I1128 19:31:37.969951 30336 net.cpp:406] Eltwise6 <- Convolution14
I1128 19:31:37.969956 30336 net.cpp:406] Eltwise6 <- Eltwise5_ReLU11_0_split_1
I1128 19:31:37.969960 30336 net.cpp:380] Eltwise6 -> Eltwise6
I1128 19:31:37.969980 30336 net.cpp:122] Setting up Eltwise6
I1128 19:31:37.969985 30336 net.cpp:129] Top shape: 128 192 14 14 (4816896)
I1128 19:31:37.969990 30336 net.cpp:137] Memory required for data: 2139906560
I1128 19:31:37.969992 30336 layer_factory.hpp:77] Creating layer ReLU13
I1128 19:31:37.969998 30336 net.cpp:84] Creating Layer ReLU13
I1128 19:31:37.970002 30336 net.cpp:406] ReLU13 <- Eltwise6
I1128 19:31:37.970006 30336 net.cpp:367] ReLU13 -> Eltwise6 (in-place)
I1128 19:31:37.970155 30336 net.cpp:122] Setting up ReLU13
I1128 19:31:37.970160 30336 net.cpp:129] Top shape: 128 192 14 14 (4816896)
I1128 19:31:37.970165 30336 net.cpp:137] Memory required for data: 2159174144
I1128 19:31:37.970167 30336 layer_factory.hpp:77] Creating layer Eltwise6_ReLU13_0_split
I1128 19:31:37.970172 30336 net.cpp:84] Creating Layer Eltwise6_ReLU13_0_split
I1128 19:31:37.970176 30336 net.cpp:406] Eltwise6_ReLU13_0_split <- Eltwise6
I1128 19:31:37.970182 30336 net.cpp:380] Eltwise6_ReLU13_0_split -> Eltwise6_ReLU13_0_split_0
I1128 19:31:37.970190 30336 net.cpp:380] Eltwise6_ReLU13_0_split -> Eltwise6_ReLU13_0_split_1
I1128 19:31:37.970217 30336 net.cpp:122] Setting up Eltwise6_ReLU13_0_split
I1128 19:31:37.970222 30336 net.cpp:129] Top shape: 128 192 14 14 (4816896)
I1128 19:31:37.970227 30336 net.cpp:129] Top shape: 128 192 14 14 (4816896)
I1128 19:31:37.970230 30336 net.cpp:137] Memory required for data: 2197709312
I1128 19:31:37.970233 30336 layer_factory.hpp:77] Creating layer Convolution15
I1128 19:31:37.970240 30336 net.cpp:84] Creating Layer Convolution15
I1128 19:31:37.970244 30336 net.cpp:406] Convolution15 <- Eltwise6_ReLU13_0_split_0
I1128 19:31:37.970249 30336 net.cpp:380] Convolution15 -> Convolution15
I1128 19:31:37.975666 30336 net.cpp:122] Setting up Convolution15
I1128 19:31:37.975675 30336 net.cpp:129] Top shape: 128 384 7 7 (2408448)
I1128 19:31:37.975678 30336 net.cpp:137] Memory required for data: 2207343104
I1128 19:31:37.975684 30336 layer_factory.hpp:77] Creating layer BatchNorm15
I1128 19:31:37.975692 30336 net.cpp:84] Creating Layer BatchNorm15
I1128 19:31:37.975695 30336 net.cpp:406] BatchNorm15 <- Convolution15
I1128 19:31:37.975702 30336 net.cpp:367] BatchNorm15 -> Convolution15 (in-place)
I1128 19:31:37.975857 30336 net.cpp:122] Setting up BatchNorm15
I1128 19:31:37.975862 30336 net.cpp:129] Top shape: 128 384 7 7 (2408448)
I1128 19:31:37.975865 30336 net.cpp:137] Memory required for data: 2216976896
I1128 19:31:37.975872 30336 layer_factory.hpp:77] Creating layer Scale15
I1128 19:31:37.975877 30336 net.cpp:84] Creating Layer Scale15
I1128 19:31:37.975880 30336 net.cpp:406] Scale15 <- Convolution15
I1128 19:31:37.975884 30336 net.cpp:367] Scale15 -> Convolution15 (in-place)
I1128 19:31:37.975908 30336 layer_factory.hpp:77] Creating layer Scale15
I1128 19:31:37.975981 30336 net.cpp:122] Setting up Scale15
I1128 19:31:37.975987 30336 net.cpp:129] Top shape: 128 384 7 7 (2408448)
I1128 19:31:37.975991 30336 net.cpp:137] Memory required for data: 2226610688
I1128 19:31:37.976003 30336 layer_factory.hpp:77] Creating layer ReLU14
I1128 19:31:37.976009 30336 net.cpp:84] Creating Layer ReLU14
I1128 19:31:37.976013 30336 net.cpp:406] ReLU14 <- Convolution15
I1128 19:31:37.976018 30336 net.cpp:367] ReLU14 -> Convolution15 (in-place)
I1128 19:31:37.976161 30336 net.cpp:122] Setting up ReLU14
I1128 19:31:37.976167 30336 net.cpp:129] Top shape: 128 384 7 7 (2408448)
I1128 19:31:37.976171 30336 net.cpp:137] Memory required for data: 2236244480
I1128 19:31:37.976173 30336 layer_factory.hpp:77] Creating layer Convolution16
I1128 19:31:37.976181 30336 net.cpp:84] Creating Layer Convolution16
I1128 19:31:37.976184 30336 net.cpp:406] Convolution16 <- Convolution15
I1128 19:31:37.976189 30336 net.cpp:380] Convolution16 -> Convolution16
I1128 19:31:37.986413 30336 net.cpp:122] Setting up Convolution16
I1128 19:31:37.986429 30336 net.cpp:129] Top shape: 128 384 7 7 (2408448)
I1128 19:31:37.986433 30336 net.cpp:137] Memory required for data: 2245878272
I1128 19:31:37.986440 30336 layer_factory.hpp:77] Creating layer BatchNorm16
I1128 19:31:37.986449 30336 net.cpp:84] Creating Layer BatchNorm16
I1128 19:31:37.986454 30336 net.cpp:406] BatchNorm16 <- Convolution16
I1128 19:31:37.986461 30336 net.cpp:367] BatchNorm16 -> Convolution16 (in-place)
I1128 19:31:37.986591 30336 net.cpp:122] Setting up BatchNorm16
I1128 19:31:37.986596 30336 net.cpp:129] Top shape: 128 384 7 7 (2408448)
I1128 19:31:37.986599 30336 net.cpp:137] Memory required for data: 2255512064
I1128 19:31:37.986608 30336 layer_factory.hpp:77] Creating layer Scale16
I1128 19:31:37.986613 30336 net.cpp:84] Creating Layer Scale16
I1128 19:31:37.986618 30336 net.cpp:406] Scale16 <- Convolution16
I1128 19:31:37.986623 30336 net.cpp:367] Scale16 -> Convolution16 (in-place)
I1128 19:31:37.986647 30336 layer_factory.hpp:77] Creating layer Scale16
I1128 19:31:37.986722 30336 net.cpp:122] Setting up Scale16
I1128 19:31:37.986728 30336 net.cpp:129] Top shape: 128 384 7 7 (2408448)
I1128 19:31:37.986732 30336 net.cpp:137] Memory required for data: 2265145856
I1128 19:31:37.986737 30336 layer_factory.hpp:77] Creating layer Convolution17
I1128 19:31:37.986747 30336 net.cpp:84] Creating Layer Convolution17
I1128 19:31:37.986750 30336 net.cpp:406] Convolution17 <- Eltwise6_ReLU13_0_split_1
I1128 19:31:37.986757 30336 net.cpp:380] Convolution17 -> Convolution17
I1128 19:31:37.987920 30336 net.cpp:122] Setting up Convolution17
I1128 19:31:37.987929 30336 net.cpp:129] Top shape: 128 384 7 7 (2408448)
I1128 19:31:37.987932 30336 net.cpp:137] Memory required for data: 2274779648
I1128 19:31:37.987938 30336 layer_factory.hpp:77] Creating layer BatchNorm17
I1128 19:31:37.987944 30336 net.cpp:84] Creating Layer BatchNorm17
I1128 19:31:37.987949 30336 net.cpp:406] BatchNorm17 <- Convolution17
I1128 19:31:37.987954 30336 net.cpp:367] BatchNorm17 -> Convolution17 (in-place)
I1128 19:31:37.988080 30336 net.cpp:122] Setting up BatchNorm17
I1128 19:31:37.988085 30336 net.cpp:129] Top shape: 128 384 7 7 (2408448)
I1128 19:31:37.988088 30336 net.cpp:137] Memory required for data: 2284413440
I1128 19:31:37.988095 30336 layer_factory.hpp:77] Creating layer Scale17
I1128 19:31:37.988099 30336 net.cpp:84] Creating Layer Scale17
I1128 19:31:37.988103 30336 net.cpp:406] Scale17 <- Convolution17
I1128 19:31:37.988108 30336 net.cpp:367] Scale17 -> Convolution17 (in-place)
I1128 19:31:37.988131 30336 layer_factory.hpp:77] Creating layer Scale17
I1128 19:31:37.988205 30336 net.cpp:122] Setting up Scale17
I1128 19:31:37.988211 30336 net.cpp:129] Top shape: 128 384 7 7 (2408448)
I1128 19:31:37.988214 30336 net.cpp:137] Memory required for data: 2294047232
I1128 19:31:37.988220 30336 layer_factory.hpp:77] Creating layer Eltwise7
I1128 19:31:37.988225 30336 net.cpp:84] Creating Layer Eltwise7
I1128 19:31:37.988229 30336 net.cpp:406] Eltwise7 <- Convolution16
I1128 19:31:37.988234 30336 net.cpp:406] Eltwise7 <- Convolution17
I1128 19:31:37.988239 30336 net.cpp:380] Eltwise7 -> Eltwise7
I1128 19:31:37.988256 30336 net.cpp:122] Setting up Eltwise7
I1128 19:31:37.988270 30336 net.cpp:129] Top shape: 128 384 7 7 (2408448)
I1128 19:31:37.988274 30336 net.cpp:137] Memory required for data: 2303681024
I1128 19:31:37.988277 30336 layer_factory.hpp:77] Creating layer ReLU15
I1128 19:31:37.988283 30336 net.cpp:84] Creating Layer ReLU15
I1128 19:31:37.988287 30336 net.cpp:406] ReLU15 <- Eltwise7
I1128 19:31:37.988291 30336 net.cpp:367] ReLU15 -> Eltwise7 (in-place)
I1128 19:31:37.988404 30336 net.cpp:122] Setting up ReLU15
I1128 19:31:37.988409 30336 net.cpp:129] Top shape: 128 384 7 7 (2408448)
I1128 19:31:37.988412 30336 net.cpp:137] Memory required for data: 2313314816
I1128 19:31:37.988415 30336 layer_factory.hpp:77] Creating layer Eltwise7_ReLU15_0_split
I1128 19:31:37.988421 30336 net.cpp:84] Creating Layer Eltwise7_ReLU15_0_split
I1128 19:31:37.988440 30336 net.cpp:406] Eltwise7_ReLU15_0_split <- Eltwise7
I1128 19:31:37.988445 30336 net.cpp:380] Eltwise7_ReLU15_0_split -> Eltwise7_ReLU15_0_split_0
I1128 19:31:37.988451 30336 net.cpp:380] Eltwise7_ReLU15_0_split -> Eltwise7_ReLU15_0_split_1
I1128 19:31:37.988493 30336 net.cpp:122] Setting up Eltwise7_ReLU15_0_split
I1128 19:31:37.988512 30336 net.cpp:129] Top shape: 128 384 7 7 (2408448)
I1128 19:31:37.988517 30336 net.cpp:129] Top shape: 128 384 7 7 (2408448)
I1128 19:31:37.988520 30336 net.cpp:137] Memory required for data: 2332582400
I1128 19:31:37.988523 30336 layer_factory.hpp:77] Creating layer Convolution18
I1128 19:31:37.988530 30336 net.cpp:84] Creating Layer Convolution18
I1128 19:31:37.988534 30336 net.cpp:406] Convolution18 <- Eltwise7_ReLU15_0_split_0
I1128 19:31:37.988539 30336 net.cpp:380] Convolution18 -> Convolution18
I1128 19:31:37.998911 30336 net.cpp:122] Setting up Convolution18
I1128 19:31:37.998930 30336 net.cpp:129] Top shape: 128 384 7 7 (2408448)
I1128 19:31:37.998934 30336 net.cpp:137] Memory required for data: 2342216192
I1128 19:31:37.998940 30336 layer_factory.hpp:77] Creating layer BatchNorm18
I1128 19:31:37.998948 30336 net.cpp:84] Creating Layer BatchNorm18
I1128 19:31:37.998952 30336 net.cpp:406] BatchNorm18 <- Convolution18
I1128 19:31:37.998960 30336 net.cpp:367] BatchNorm18 -> Convolution18 (in-place)
I1128 19:31:37.999095 30336 net.cpp:122] Setting up BatchNorm18
I1128 19:31:37.999101 30336 net.cpp:129] Top shape: 128 384 7 7 (2408448)
I1128 19:31:37.999104 30336 net.cpp:137] Memory required for data: 2351849984
I1128 19:31:37.999111 30336 layer_factory.hpp:77] Creating layer Scale18
I1128 19:31:37.999116 30336 net.cpp:84] Creating Layer Scale18
I1128 19:31:37.999121 30336 net.cpp:406] Scale18 <- Convolution18
I1128 19:31:37.999126 30336 net.cpp:367] Scale18 -> Convolution18 (in-place)
I1128 19:31:37.999152 30336 layer_factory.hpp:77] Creating layer Scale18
I1128 19:31:37.999263 30336 net.cpp:122] Setting up Scale18
I1128 19:31:37.999269 30336 net.cpp:129] Top shape: 128 384 7 7 (2408448)
I1128 19:31:37.999271 30336 net.cpp:137] Memory required for data: 2361483776
I1128 19:31:37.999276 30336 layer_factory.hpp:77] Creating layer ReLU16
I1128 19:31:37.999282 30336 net.cpp:84] Creating Layer ReLU16
I1128 19:31:37.999286 30336 net.cpp:406] ReLU16 <- Convolution18
I1128 19:31:37.999290 30336 net.cpp:367] ReLU16 -> Convolution18 (in-place)
I1128 19:31:37.999400 30336 net.cpp:122] Setting up ReLU16
I1128 19:31:37.999406 30336 net.cpp:129] Top shape: 128 384 7 7 (2408448)
I1128 19:31:37.999410 30336 net.cpp:137] Memory required for data: 2371117568
I1128 19:31:37.999413 30336 layer_factory.hpp:77] Creating layer Convolution19
I1128 19:31:37.999421 30336 net.cpp:84] Creating Layer Convolution19
I1128 19:31:37.999425 30336 net.cpp:406] Convolution19 <- Convolution18
I1128 19:31:37.999431 30336 net.cpp:380] Convolution19 -> Convolution19
I1128 19:31:38.009527 30336 net.cpp:122] Setting up Convolution19
I1128 19:31:38.009547 30336 net.cpp:129] Top shape: 128 384 7 7 (2408448)
I1128 19:31:38.009551 30336 net.cpp:137] Memory required for data: 2380751360
I1128 19:31:38.009559 30336 layer_factory.hpp:77] Creating layer BatchNorm19
I1128 19:31:38.009567 30336 net.cpp:84] Creating Layer BatchNorm19
I1128 19:31:38.009582 30336 net.cpp:406] BatchNorm19 <- Convolution19
I1128 19:31:38.009588 30336 net.cpp:367] BatchNorm19 -> Convolution19 (in-place)
I1128 19:31:38.009724 30336 net.cpp:122] Setting up BatchNorm19
I1128 19:31:38.009730 30336 net.cpp:129] Top shape: 128 384 7 7 (2408448)
I1128 19:31:38.009733 30336 net.cpp:137] Memory required for data: 2390385152
I1128 19:31:38.009747 30336 layer_factory.hpp:77] Creating layer Scale19
I1128 19:31:38.009753 30336 net.cpp:84] Creating Layer Scale19
I1128 19:31:38.009757 30336 net.cpp:406] Scale19 <- Convolution19
I1128 19:31:38.009763 30336 net.cpp:367] Scale19 -> Convolution19 (in-place)
I1128 19:31:38.009790 30336 layer_factory.hpp:77] Creating layer Scale19
I1128 19:31:38.009904 30336 net.cpp:122] Setting up Scale19
I1128 19:31:38.009909 30336 net.cpp:129] Top shape: 128 384 7 7 (2408448)
I1128 19:31:38.009912 30336 net.cpp:137] Memory required for data: 2400018944
I1128 19:31:38.009917 30336 layer_factory.hpp:77] Creating layer Eltwise8
I1128 19:31:38.009924 30336 net.cpp:84] Creating Layer Eltwise8
I1128 19:31:38.009928 30336 net.cpp:406] Eltwise8 <- Convolution19
I1128 19:31:38.009932 30336 net.cpp:406] Eltwise8 <- Eltwise7_ReLU15_0_split_1
I1128 19:31:38.009938 30336 net.cpp:380] Eltwise8 -> Eltwise8
I1128 19:31:38.009954 30336 net.cpp:122] Setting up Eltwise8
I1128 19:31:38.009960 30336 net.cpp:129] Top shape: 128 384 7 7 (2408448)
I1128 19:31:38.009963 30336 net.cpp:137] Memory required for data: 2409652736
I1128 19:31:38.009966 30336 layer_factory.hpp:77] Creating layer ReLU17
I1128 19:31:38.009974 30336 net.cpp:84] Creating Layer ReLU17
I1128 19:31:38.009976 30336 net.cpp:406] ReLU17 <- Eltwise8
I1128 19:31:38.009981 30336 net.cpp:367] ReLU17 -> Eltwise8 (in-place)
I1128 19:31:38.010093 30336 net.cpp:122] Setting up ReLU17
I1128 19:31:38.010100 30336 net.cpp:129] Top shape: 128 384 7 7 (2408448)
I1128 19:31:38.010103 30336 net.cpp:137] Memory required for data: 2419286528
I1128 19:31:38.010105 30336 layer_factory.hpp:77] Creating layer Eltwise8_ReLU17_0_split
I1128 19:31:38.010112 30336 net.cpp:84] Creating Layer Eltwise8_ReLU17_0_split
I1128 19:31:38.010114 30336 net.cpp:406] Eltwise8_ReLU17_0_split <- Eltwise8
I1128 19:31:38.010119 30336 net.cpp:380] Eltwise8_ReLU17_0_split -> Eltwise8_ReLU17_0_split_0
I1128 19:31:38.010126 30336 net.cpp:380] Eltwise8_ReLU17_0_split -> Eltwise8_ReLU17_0_split_1
I1128 19:31:38.010155 30336 net.cpp:122] Setting up Eltwise8_ReLU17_0_split
I1128 19:31:38.010161 30336 net.cpp:129] Top shape: 128 384 7 7 (2408448)
I1128 19:31:38.010165 30336 net.cpp:129] Top shape: 128 384 7 7 (2408448)
I1128 19:31:38.010169 30336 net.cpp:137] Memory required for data: 2438554112
I1128 19:31:38.010171 30336 layer_factory.hpp:77] Creating layer Convolution20
I1128 19:31:38.010180 30336 net.cpp:84] Creating Layer Convolution20
I1128 19:31:38.010184 30336 net.cpp:406] Convolution20 <- Eltwise8_ReLU17_0_split_0
I1128 19:31:38.010190 30336 net.cpp:380] Convolution20 -> Convolution20
I1128 19:31:38.020220 30336 net.cpp:122] Setting up Convolution20
I1128 19:31:38.020234 30336 net.cpp:129] Top shape: 128 384 7 7 (2408448)
I1128 19:31:38.020237 30336 net.cpp:137] Memory required for data: 2448187904
I1128 19:31:38.020258 30336 layer_factory.hpp:77] Creating layer BatchNorm20
I1128 19:31:38.020267 30336 net.cpp:84] Creating Layer BatchNorm20
I1128 19:31:38.020272 30336 net.cpp:406] BatchNorm20 <- Convolution20
I1128 19:31:38.020278 30336 net.cpp:367] BatchNorm20 -> Convolution20 (in-place)
I1128 19:31:38.020422 30336 net.cpp:122] Setting up BatchNorm20
I1128 19:31:38.020428 30336 net.cpp:129] Top shape: 128 384 7 7 (2408448)
I1128 19:31:38.020431 30336 net.cpp:137] Memory required for data: 2457821696
I1128 19:31:38.020453 30336 layer_factory.hpp:77] Creating layer Scale20
I1128 19:31:38.020459 30336 net.cpp:84] Creating Layer Scale20
I1128 19:31:38.020463 30336 net.cpp:406] Scale20 <- Convolution20
I1128 19:31:38.020467 30336 net.cpp:367] Scale20 -> Convolution20 (in-place)
I1128 19:31:38.020519 30336 layer_factory.hpp:77] Creating layer Scale20
I1128 19:31:38.020619 30336 net.cpp:122] Setting up Scale20
I1128 19:31:38.020625 30336 net.cpp:129] Top shape: 128 384 7 7 (2408448)
I1128 19:31:38.020628 30336 net.cpp:137] Memory required for data: 2467455488
I1128 19:31:38.020634 30336 layer_factory.hpp:77] Creating layer ReLU18
I1128 19:31:38.020651 30336 net.cpp:84] Creating Layer ReLU18
I1128 19:31:38.020656 30336 net.cpp:406] ReLU18 <- Convolution20
I1128 19:31:38.020674 30336 net.cpp:367] ReLU18 -> Convolution20 (in-place)
I1128 19:31:38.020998 30336 net.cpp:122] Setting up ReLU18
I1128 19:31:38.021006 30336 net.cpp:129] Top shape: 128 384 7 7 (2408448)
I1128 19:31:38.021009 30336 net.cpp:137] Memory required for data: 2477089280
I1128 19:31:38.021026 30336 layer_factory.hpp:77] Creating layer Convolution21
I1128 19:31:38.021034 30336 net.cpp:84] Creating Layer Convolution21
I1128 19:31:38.021039 30336 net.cpp:406] Convolution21 <- Convolution20
I1128 19:31:38.021044 30336 net.cpp:380] Convolution21 -> Convolution21
I1128 19:31:38.031268 30336 net.cpp:122] Setting up Convolution21
I1128 19:31:38.031287 30336 net.cpp:129] Top shape: 128 384 7 7 (2408448)
I1128 19:31:38.031291 30336 net.cpp:137] Memory required for data: 2486723072
I1128 19:31:38.031312 30336 layer_factory.hpp:77] Creating layer BatchNorm21
I1128 19:31:38.031322 30336 net.cpp:84] Creating Layer BatchNorm21
I1128 19:31:38.031324 30336 net.cpp:406] BatchNorm21 <- Convolution21
I1128 19:31:38.031332 30336 net.cpp:367] BatchNorm21 -> Convolution21 (in-place)
I1128 19:31:38.031466 30336 net.cpp:122] Setting up BatchNorm21
I1128 19:31:38.031471 30336 net.cpp:129] Top shape: 128 384 7 7 (2408448)
I1128 19:31:38.031473 30336 net.cpp:137] Memory required for data: 2496356864
I1128 19:31:38.031481 30336 layer_factory.hpp:77] Creating layer Scale21
I1128 19:31:38.031487 30336 net.cpp:84] Creating Layer Scale21
I1128 19:31:38.031491 30336 net.cpp:406] Scale21 <- Convolution21
I1128 19:31:38.031496 30336 net.cpp:367] Scale21 -> Convolution21 (in-place)
I1128 19:31:38.031520 30336 layer_factory.hpp:77] Creating layer Scale21
I1128 19:31:38.031599 30336 net.cpp:122] Setting up Scale21
I1128 19:31:38.031605 30336 net.cpp:129] Top shape: 128 384 7 7 (2408448)
I1128 19:31:38.031607 30336 net.cpp:137] Memory required for data: 2505990656
I1128 19:31:38.031613 30336 layer_factory.hpp:77] Creating layer Eltwise9
I1128 19:31:38.031653 30336 net.cpp:84] Creating Layer Eltwise9
I1128 19:31:38.031657 30336 net.cpp:406] Eltwise9 <- Convolution21
I1128 19:31:38.031662 30336 net.cpp:406] Eltwise9 <- Eltwise8_ReLU17_0_split_1
I1128 19:31:38.031668 30336 net.cpp:380] Eltwise9 -> Eltwise9
I1128 19:31:38.031699 30336 net.cpp:122] Setting up Eltwise9
I1128 19:31:38.031704 30336 net.cpp:129] Top shape: 128 384 7 7 (2408448)
I1128 19:31:38.031708 30336 net.cpp:137] Memory required for data: 2515624448
I1128 19:31:38.031710 30336 layer_factory.hpp:77] Creating layer ReLU19
I1128 19:31:38.031729 30336 net.cpp:84] Creating Layer ReLU19
I1128 19:31:38.031733 30336 net.cpp:406] ReLU19 <- Eltwise9
I1128 19:31:38.031738 30336 net.cpp:367] ReLU19 -> Eltwise9 (in-place)
I1128 19:31:38.032130 30336 net.cpp:122] Setting up ReLU19
I1128 19:31:38.032137 30336 net.cpp:129] Top shape: 128 384 7 7 (2408448)
I1128 19:31:38.032141 30336 net.cpp:137] Memory required for data: 2525258240
I1128 19:31:38.032160 30336 layer_factory.hpp:77] Creating layer Eltwise9_ReLU19_0_split
I1128 19:31:38.032165 30336 net.cpp:84] Creating Layer Eltwise9_ReLU19_0_split
I1128 19:31:38.032168 30336 net.cpp:406] Eltwise9_ReLU19_0_split <- Eltwise9
I1128 19:31:38.032176 30336 net.cpp:380] Eltwise9_ReLU19_0_split -> Eltwise9_ReLU19_0_split_0
I1128 19:31:38.032182 30336 net.cpp:380] Eltwise9_ReLU19_0_split -> Eltwise9_ReLU19_0_split_1
I1128 19:31:38.032240 30336 net.cpp:122] Setting up Eltwise9_ReLU19_0_split
I1128 19:31:38.032245 30336 net.cpp:129] Top shape: 128 384 7 7 (2408448)
I1128 19:31:38.032251 30336 net.cpp:129] Top shape: 128 384 7 7 (2408448)
I1128 19:31:38.032254 30336 net.cpp:137] Memory required for data: 2544525824
I1128 19:31:38.032270 30336 layer_factory.hpp:77] Creating layer Convolution22
I1128 19:31:38.032305 30336 net.cpp:84] Creating Layer Convolution22
I1128 19:31:38.032308 30336 net.cpp:406] Convolution22 <- Eltwise9_ReLU19_0_split_0
I1128 19:31:38.032315 30336 net.cpp:380] Convolution22 -> Convolution22
I1128 19:31:38.042516 30336 net.cpp:122] Setting up Convolution22
I1128 19:31:38.042531 30336 net.cpp:129] Top shape: 128 384 4 4 (786432)
I1128 19:31:38.042534 30336 net.cpp:137] Memory required for data: 2547671552
I1128 19:31:38.042541 30336 layer_factory.hpp:77] Creating layer BatchNorm22
I1128 19:31:38.042549 30336 net.cpp:84] Creating Layer BatchNorm22
I1128 19:31:38.042552 30336 net.cpp:406] BatchNorm22 <- Convolution22
I1128 19:31:38.042559 30336 net.cpp:367] BatchNorm22 -> Convolution22 (in-place)
I1128 19:31:38.042728 30336 net.cpp:122] Setting up BatchNorm22
I1128 19:31:38.042734 30336 net.cpp:129] Top shape: 128 384 4 4 (786432)
I1128 19:31:38.042737 30336 net.cpp:137] Memory required for data: 2550817280
I1128 19:31:38.042744 30336 layer_factory.hpp:77] Creating layer Scale22
I1128 19:31:38.042750 30336 net.cpp:84] Creating Layer Scale22
I1128 19:31:38.042753 30336 net.cpp:406] Scale22 <- Convolution22
I1128 19:31:38.042758 30336 net.cpp:367] Scale22 -> Convolution22 (in-place)
I1128 19:31:38.042784 30336 layer_factory.hpp:77] Creating layer Scale22
I1128 19:31:38.042863 30336 net.cpp:122] Setting up Scale22
I1128 19:31:38.042870 30336 net.cpp:129] Top shape: 128 384 4 4 (786432)
I1128 19:31:38.042872 30336 net.cpp:137] Memory required for data: 2553963008
I1128 19:31:38.042877 30336 layer_factory.hpp:77] Creating layer ReLU20
I1128 19:31:38.042883 30336 net.cpp:84] Creating Layer ReLU20
I1128 19:31:38.042887 30336 net.cpp:406] ReLU20 <- Convolution22
I1128 19:31:38.042891 30336 net.cpp:367] ReLU20 -> Convolution22 (in-place)
I1128 19:31:38.043005 30336 net.cpp:122] Setting up ReLU20
I1128 19:31:38.043011 30336 net.cpp:129] Top shape: 128 384 4 4 (786432)
I1128 19:31:38.043015 30336 net.cpp:137] Memory required for data: 2557108736
I1128 19:31:38.043017 30336 layer_factory.hpp:77] Creating layer Convolution23
I1128 19:31:38.043026 30336 net.cpp:84] Creating Layer Convolution23
I1128 19:31:38.043030 30336 net.cpp:406] Convolution23 <- Convolution22
I1128 19:31:38.043035 30336 net.cpp:380] Convolution23 -> Convolution23
I1128 19:31:38.053112 30336 net.cpp:122] Setting up Convolution23
I1128 19:31:38.053128 30336 net.cpp:129] Top shape: 128 384 4 4 (786432)
I1128 19:31:38.053131 30336 net.cpp:137] Memory required for data: 2560254464
I1128 19:31:38.053139 30336 layer_factory.hpp:77] Creating layer BatchNorm23
I1128 19:31:38.053148 30336 net.cpp:84] Creating Layer BatchNorm23
I1128 19:31:38.053153 30336 net.cpp:406] BatchNorm23 <- Convolution23
I1128 19:31:38.053160 30336 net.cpp:367] BatchNorm23 -> Convolution23 (in-place)
I1128 19:31:38.053311 30336 net.cpp:122] Setting up BatchNorm23
I1128 19:31:38.053318 30336 net.cpp:129] Top shape: 128 384 4 4 (786432)
I1128 19:31:38.053320 30336 net.cpp:137] Memory required for data: 2563400192
I1128 19:31:38.053341 30336 layer_factory.hpp:77] Creating layer Scale23
I1128 19:31:38.053349 30336 net.cpp:84] Creating Layer Scale23
I1128 19:31:38.053352 30336 net.cpp:406] Scale23 <- Convolution23
I1128 19:31:38.053357 30336 net.cpp:367] Scale23 -> Convolution23 (in-place)
I1128 19:31:38.053385 30336 layer_factory.hpp:77] Creating layer Scale23
I1128 19:31:38.053468 30336 net.cpp:122] Setting up Scale23
I1128 19:31:38.053486 30336 net.cpp:129] Top shape: 128 384 4 4 (786432)
I1128 19:31:38.053489 30336 net.cpp:137] Memory required for data: 2566545920
I1128 19:31:38.053510 30336 layer_factory.hpp:77] Creating layer Convolution24
I1128 19:31:38.053520 30336 net.cpp:84] Creating Layer Convolution24
I1128 19:31:38.053524 30336 net.cpp:406] Convolution24 <- Eltwise9_ReLU19_0_split_1
I1128 19:31:38.053532 30336 net.cpp:380] Convolution24 -> Convolution24
I1128 19:31:38.055246 30336 net.cpp:122] Setting up Convolution24
I1128 19:31:38.055255 30336 net.cpp:129] Top shape: 128 384 4 4 (786432)
I1128 19:31:38.055258 30336 net.cpp:137] Memory required for data: 2569691648
I1128 19:31:38.055277 30336 layer_factory.hpp:77] Creating layer BatchNorm24
I1128 19:31:38.055285 30336 net.cpp:84] Creating Layer BatchNorm24
I1128 19:31:38.055289 30336 net.cpp:406] BatchNorm24 <- Convolution24
I1128 19:31:38.055295 30336 net.cpp:367] BatchNorm24 -> Convolution24 (in-place)
I1128 19:31:38.055433 30336 net.cpp:122] Setting up BatchNorm24
I1128 19:31:38.055438 30336 net.cpp:129] Top shape: 128 384 4 4 (786432)
I1128 19:31:38.055441 30336 net.cpp:137] Memory required for data: 2572837376
I1128 19:31:38.055447 30336 layer_factory.hpp:77] Creating layer Scale24
I1128 19:31:38.055454 30336 net.cpp:84] Creating Layer Scale24
I1128 19:31:38.055459 30336 net.cpp:406] Scale24 <- Convolution24
I1128 19:31:38.055462 30336 net.cpp:367] Scale24 -> Convolution24 (in-place)
I1128 19:31:38.055487 30336 layer_factory.hpp:77] Creating layer Scale24
I1128 19:31:38.055569 30336 net.cpp:122] Setting up Scale24
I1128 19:31:38.055575 30336 net.cpp:129] Top shape: 128 384 4 4 (786432)
I1128 19:31:38.055578 30336 net.cpp:137] Memory required for data: 2575983104
I1128 19:31:38.055583 30336 layer_factory.hpp:77] Creating layer Eltwise10
I1128 19:31:38.055604 30336 net.cpp:84] Creating Layer Eltwise10
I1128 19:31:38.055609 30336 net.cpp:406] Eltwise10 <- Convolution23
I1128 19:31:38.055613 30336 net.cpp:406] Eltwise10 <- Convolution24
I1128 19:31:38.055634 30336 net.cpp:380] Eltwise10 -> Eltwise10
I1128 19:31:38.055652 30336 net.cpp:122] Setting up Eltwise10
I1128 19:31:38.055657 30336 net.cpp:129] Top shape: 128 384 4 4 (786432)
I1128 19:31:38.055660 30336 net.cpp:137] Memory required for data: 2579128832
I1128 19:31:38.055677 30336 layer_factory.hpp:77] Creating layer ReLU21
I1128 19:31:38.055685 30336 net.cpp:84] Creating Layer ReLU21
I1128 19:31:38.055703 30336 net.cpp:406] ReLU21 <- Eltwise10
I1128 19:31:38.055708 30336 net.cpp:367] ReLU21 -> Eltwise10 (in-place)
I1128 19:31:38.055826 30336 net.cpp:122] Setting up ReLU21
I1128 19:31:38.055833 30336 net.cpp:129] Top shape: 128 384 4 4 (786432)
I1128 19:31:38.055836 30336 net.cpp:137] Memory required for data: 2582274560
I1128 19:31:38.055840 30336 layer_factory.hpp:77] Creating layer Eltwise10_ReLU21_0_split
I1128 19:31:38.055845 30336 net.cpp:84] Creating Layer Eltwise10_ReLU21_0_split
I1128 19:31:38.055850 30336 net.cpp:406] Eltwise10_ReLU21_0_split <- Eltwise10
I1128 19:31:38.055855 30336 net.cpp:380] Eltwise10_ReLU21_0_split -> Eltwise10_ReLU21_0_split_0
I1128 19:31:38.055863 30336 net.cpp:380] Eltwise10_ReLU21_0_split -> Eltwise10_ReLU21_0_split_1
I1128 19:31:38.055907 30336 net.cpp:122] Setting up Eltwise10_ReLU21_0_split
I1128 19:31:38.055913 30336 net.cpp:129] Top shape: 128 384 4 4 (786432)
I1128 19:31:38.055917 30336 net.cpp:129] Top shape: 128 384 4 4 (786432)
I1128 19:31:38.055922 30336 net.cpp:137] Memory required for data: 2588566016
I1128 19:31:38.055924 30336 layer_factory.hpp:77] Creating layer Convolution25
I1128 19:31:38.055948 30336 net.cpp:84] Creating Layer Convolution25
I1128 19:31:38.055950 30336 net.cpp:406] Convolution25 <- Eltwise10_ReLU21_0_split_0
I1128 19:31:38.055958 30336 net.cpp:380] Convolution25 -> Convolution25
I1128 19:31:38.066347 30336 net.cpp:122] Setting up Convolution25
I1128 19:31:38.066365 30336 net.cpp:129] Top shape: 128 384 4 4 (786432)
I1128 19:31:38.066370 30336 net.cpp:137] Memory required for data: 2591711744
I1128 19:31:38.066376 30336 layer_factory.hpp:77] Creating layer BatchNorm25
I1128 19:31:38.066385 30336 net.cpp:84] Creating Layer BatchNorm25
I1128 19:31:38.066388 30336 net.cpp:406] BatchNorm25 <- Convolution25
I1128 19:31:38.066396 30336 net.cpp:367] BatchNorm25 -> Convolution25 (in-place)
I1128 19:31:38.066540 30336 net.cpp:122] Setting up BatchNorm25
I1128 19:31:38.066546 30336 net.cpp:129] Top shape: 128 384 4 4 (786432)
I1128 19:31:38.066548 30336 net.cpp:137] Memory required for data: 2594857472
I1128 19:31:38.066557 30336 layer_factory.hpp:77] Creating layer Scale25
I1128 19:31:38.066565 30336 net.cpp:84] Creating Layer Scale25
I1128 19:31:38.066568 30336 net.cpp:406] Scale25 <- Convolution25
I1128 19:31:38.066582 30336 net.cpp:367] Scale25 -> Convolution25 (in-place)
I1128 19:31:38.066609 30336 layer_factory.hpp:77] Creating layer Scale25
I1128 19:31:38.066694 30336 net.cpp:122] Setting up Scale25
I1128 19:31:38.066700 30336 net.cpp:129] Top shape: 128 384 4 4 (786432)
I1128 19:31:38.066704 30336 net.cpp:137] Memory required for data: 2598003200
I1128 19:31:38.066710 30336 layer_factory.hpp:77] Creating layer ReLU22
I1128 19:31:38.066716 30336 net.cpp:84] Creating Layer ReLU22
I1128 19:31:38.066720 30336 net.cpp:406] ReLU22 <- Convolution25
I1128 19:31:38.066725 30336 net.cpp:367] ReLU22 -> Convolution25 (in-place)
I1128 19:31:38.066843 30336 net.cpp:122] Setting up ReLU22
I1128 19:31:38.066849 30336 net.cpp:129] Top shape: 128 384 4 4 (786432)
I1128 19:31:38.066853 30336 net.cpp:137] Memory required for data: 2601148928
I1128 19:31:38.066856 30336 layer_factory.hpp:77] Creating layer Convolution26
I1128 19:31:38.066866 30336 net.cpp:84] Creating Layer Convolution26
I1128 19:31:38.066869 30336 net.cpp:406] Convolution26 <- Convolution25
I1128 19:31:38.066875 30336 net.cpp:380] Convolution26 -> Convolution26
I1128 19:31:38.077011 30336 net.cpp:122] Setting up Convolution26
I1128 19:31:38.077025 30336 net.cpp:129] Top shape: 128 384 4 4 (786432)
I1128 19:31:38.077028 30336 net.cpp:137] Memory required for data: 2604294656
I1128 19:31:38.077049 30336 layer_factory.hpp:77] Creating layer BatchNorm26
I1128 19:31:38.077060 30336 net.cpp:84] Creating Layer BatchNorm26
I1128 19:31:38.077065 30336 net.cpp:406] BatchNorm26 <- Convolution26
I1128 19:31:38.077071 30336 net.cpp:367] BatchNorm26 -> Convolution26 (in-place)
I1128 19:31:38.077229 30336 net.cpp:122] Setting up BatchNorm26
I1128 19:31:38.077235 30336 net.cpp:129] Top shape: 128 384 4 4 (786432)
I1128 19:31:38.077239 30336 net.cpp:137] Memory required for data: 2607440384
I1128 19:31:38.077261 30336 layer_factory.hpp:77] Creating layer Scale26
I1128 19:31:38.077267 30336 net.cpp:84] Creating Layer Scale26
I1128 19:31:38.077272 30336 net.cpp:406] Scale26 <- Convolution26
I1128 19:31:38.077294 30336 net.cpp:367] Scale26 -> Convolution26 (in-place)
I1128 19:31:38.077363 30336 layer_factory.hpp:77] Creating layer Scale26
I1128 19:31:38.077487 30336 net.cpp:122] Setting up Scale26
I1128 19:31:38.077492 30336 net.cpp:129] Top shape: 128 384 4 4 (786432)
I1128 19:31:38.077497 30336 net.cpp:137] Memory required for data: 2610586112
I1128 19:31:38.077517 30336 layer_factory.hpp:77] Creating layer Eltwise11
I1128 19:31:38.077522 30336 net.cpp:84] Creating Layer Eltwise11
I1128 19:31:38.077527 30336 net.cpp:406] Eltwise11 <- Convolution26
I1128 19:31:38.077533 30336 net.cpp:406] Eltwise11 <- Eltwise10_ReLU21_0_split_1
I1128 19:31:38.077555 30336 net.cpp:380] Eltwise11 -> Eltwise11
I1128 19:31:38.077587 30336 net.cpp:122] Setting up Eltwise11
I1128 19:31:38.077592 30336 net.cpp:129] Top shape: 128 384 4 4 (786432)
I1128 19:31:38.077596 30336 net.cpp:137] Memory required for data: 2613731840
I1128 19:31:38.077599 30336 layer_factory.hpp:77] Creating layer ReLU23
I1128 19:31:38.077626 30336 net.cpp:84] Creating Layer ReLU23
I1128 19:31:38.077642 30336 net.cpp:406] ReLU23 <- Eltwise11
I1128 19:31:38.077649 30336 net.cpp:367] ReLU23 -> Eltwise11 (in-place)
I1128 19:31:38.077798 30336 net.cpp:122] Setting up ReLU23
I1128 19:31:38.077805 30336 net.cpp:129] Top shape: 128 384 4 4 (786432)
I1128 19:31:38.077808 30336 net.cpp:137] Memory required for data: 2616877568
I1128 19:31:38.077812 30336 layer_factory.hpp:77] Creating layer Eltwise11_ReLU23_0_split
I1128 19:31:38.077817 30336 net.cpp:84] Creating Layer Eltwise11_ReLU23_0_split
I1128 19:31:38.077821 30336 net.cpp:406] Eltwise11_ReLU23_0_split <- Eltwise11
I1128 19:31:38.077826 30336 net.cpp:380] Eltwise11_ReLU23_0_split -> Eltwise11_ReLU23_0_split_0
I1128 19:31:38.077834 30336 net.cpp:380] Eltwise11_ReLU23_0_split -> Eltwise11_ReLU23_0_split_1
I1128 19:31:38.077867 30336 net.cpp:122] Setting up Eltwise11_ReLU23_0_split
I1128 19:31:38.077872 30336 net.cpp:129] Top shape: 128 384 4 4 (786432)
I1128 19:31:38.077886 30336 net.cpp:129] Top shape: 128 384 4 4 (786432)
I1128 19:31:38.077890 30336 net.cpp:137] Memory required for data: 2623169024
I1128 19:31:38.077893 30336 layer_factory.hpp:77] Creating layer Convolution27
I1128 19:31:38.077903 30336 net.cpp:84] Creating Layer Convolution27
I1128 19:31:38.077906 30336 net.cpp:406] Convolution27 <- Eltwise11_ReLU23_0_split_0
I1128 19:31:38.077913 30336 net.cpp:380] Convolution27 -> Convolution27
I1128 19:31:38.088069 30336 net.cpp:122] Setting up Convolution27
I1128 19:31:38.088085 30336 net.cpp:129] Top shape: 128 384 4 4 (786432)
I1128 19:31:38.088088 30336 net.cpp:137] Memory required for data: 2626314752
I1128 19:31:38.088096 30336 layer_factory.hpp:77] Creating layer BatchNorm27
I1128 19:31:38.088106 30336 net.cpp:84] Creating Layer BatchNorm27
I1128 19:31:38.088110 30336 net.cpp:406] BatchNorm27 <- Convolution27
I1128 19:31:38.088119 30336 net.cpp:367] BatchNorm27 -> Convolution27 (in-place)
I1128 19:31:38.088261 30336 net.cpp:122] Setting up BatchNorm27
I1128 19:31:38.088268 30336 net.cpp:129] Top shape: 128 384 4 4 (786432)
I1128 19:31:38.088270 30336 net.cpp:137] Memory required for data: 2629460480
I1128 19:31:38.088276 30336 layer_factory.hpp:77] Creating layer Scale27
I1128 19:31:38.088284 30336 net.cpp:84] Creating Layer Scale27
I1128 19:31:38.088287 30336 net.cpp:406] Scale27 <- Convolution27
I1128 19:31:38.088292 30336 net.cpp:367] Scale27 -> Convolution27 (in-place)
I1128 19:31:38.088318 30336 layer_factory.hpp:77] Creating layer Scale27
I1128 19:31:38.088403 30336 net.cpp:122] Setting up Scale27
I1128 19:31:38.088409 30336 net.cpp:129] Top shape: 128 384 4 4 (786432)
I1128 19:31:38.088413 30336 net.cpp:137] Memory required for data: 2632606208
I1128 19:31:38.088418 30336 layer_factory.hpp:77] Creating layer ReLU24
I1128 19:31:38.088433 30336 net.cpp:84] Creating Layer ReLU24
I1128 19:31:38.088436 30336 net.cpp:406] ReLU24 <- Convolution27
I1128 19:31:38.088441 30336 net.cpp:367] ReLU24 -> Convolution27 (in-place)
I1128 19:31:38.088560 30336 net.cpp:122] Setting up ReLU24
I1128 19:31:38.088567 30336 net.cpp:129] Top shape: 128 384 4 4 (786432)
I1128 19:31:38.088569 30336 net.cpp:137] Memory required for data: 2635751936
I1128 19:31:38.088573 30336 layer_factory.hpp:77] Creating layer Convolution28
I1128 19:31:38.088582 30336 net.cpp:84] Creating Layer Convolution28
I1128 19:31:38.088585 30336 net.cpp:406] Convolution28 <- Convolution27
I1128 19:31:38.088591 30336 net.cpp:380] Convolution28 -> Convolution28
I1128 19:31:38.099031 30336 net.cpp:122] Setting up Convolution28
I1128 19:31:38.099051 30336 net.cpp:129] Top shape: 128 384 4 4 (786432)
I1128 19:31:38.099054 30336 net.cpp:137] Memory required for data: 2638897664
I1128 19:31:38.099061 30336 layer_factory.hpp:77] Creating layer BatchNorm28
I1128 19:31:38.099069 30336 net.cpp:84] Creating Layer BatchNorm28
I1128 19:31:38.099073 30336 net.cpp:406] BatchNorm28 <- Convolution28
I1128 19:31:38.099081 30336 net.cpp:367] BatchNorm28 -> Convolution28 (in-place)
I1128 19:31:38.099226 30336 net.cpp:122] Setting up BatchNorm28
I1128 19:31:38.099233 30336 net.cpp:129] Top shape: 128 384 4 4 (786432)
I1128 19:31:38.099236 30336 net.cpp:137] Memory required for data: 2642043392
I1128 19:31:38.099244 30336 layer_factory.hpp:77] Creating layer Scale28
I1128 19:31:38.099251 30336 net.cpp:84] Creating Layer Scale28
I1128 19:31:38.099254 30336 net.cpp:406] Scale28 <- Convolution28
I1128 19:31:38.099259 30336 net.cpp:367] Scale28 -> Convolution28 (in-place)
I1128 19:31:38.099287 30336 layer_factory.hpp:77] Creating layer Scale28
I1128 19:31:38.099406 30336 net.cpp:122] Setting up Scale28
I1128 19:31:38.099412 30336 net.cpp:129] Top shape: 128 384 4 4 (786432)
I1128 19:31:38.099416 30336 net.cpp:137] Memory required for data: 2645189120
I1128 19:31:38.099421 30336 layer_factory.hpp:77] Creating layer Eltwise12
I1128 19:31:38.099427 30336 net.cpp:84] Creating Layer Eltwise12
I1128 19:31:38.099431 30336 net.cpp:406] Eltwise12 <- Convolution28
I1128 19:31:38.099437 30336 net.cpp:406] Eltwise12 <- Eltwise11_ReLU23_0_split_1
I1128 19:31:38.099455 30336 net.cpp:380] Eltwise12 -> Eltwise12
I1128 19:31:38.099473 30336 net.cpp:122] Setting up Eltwise12
I1128 19:31:38.099480 30336 net.cpp:129] Top shape: 128 384 4 4 (786432)
I1128 19:31:38.099484 30336 net.cpp:137] Memory required for data: 2648334848
I1128 19:31:38.099488 30336 layer_factory.hpp:77] Creating layer ReLU25
I1128 19:31:38.099493 30336 net.cpp:84] Creating Layer ReLU25
I1128 19:31:38.099496 30336 net.cpp:406] ReLU25 <- Eltwise12
I1128 19:31:38.099503 30336 net.cpp:367] ReLU25 -> Eltwise12 (in-place)
I1128 19:31:38.099844 30336 net.cpp:122] Setting up ReLU25
I1128 19:31:38.099853 30336 net.cpp:129] Top shape: 128 384 4 4 (786432)
I1128 19:31:38.099856 30336 net.cpp:137] Memory required for data: 2651480576
I1128 19:31:38.099859 30336 layer_factory.hpp:77] Creating layer Pooling1
I1128 19:31:38.099869 30336 net.cpp:84] Creating Layer Pooling1
I1128 19:31:38.099872 30336 net.cpp:406] Pooling1 <- Eltwise12
I1128 19:31:38.099877 30336 net.cpp:380] Pooling1 -> Pooling1
I1128 19:31:38.100021 30336 net.cpp:122] Setting up Pooling1
I1128 19:31:38.100028 30336 net.cpp:129] Top shape: 128 384 1 1 (49152)
I1128 19:31:38.100031 30336 net.cpp:137] Memory required for data: 2651677184
I1128 19:31:38.100034 30336 layer_factory.hpp:77] Creating layer InnerProduct1
I1128 19:31:38.100041 30336 net.cpp:84] Creating Layer InnerProduct1
I1128 19:31:38.100045 30336 net.cpp:406] InnerProduct1 <- Pooling1
I1128 19:31:38.100050 30336 net.cpp:380] InnerProduct1 -> InnerProduct1
I1128 19:31:38.100169 30336 net.cpp:122] Setting up InnerProduct1
I1128 19:31:38.100175 30336 net.cpp:129] Top shape: 128 10 (1280)
I1128 19:31:38.100178 30336 net.cpp:137] Memory required for data: 2651682304
I1128 19:31:38.100183 30336 layer_factory.hpp:77] Creating layer SoftmaxWithLoss1
I1128 19:31:38.100190 30336 net.cpp:84] Creating Layer SoftmaxWithLoss1
I1128 19:31:38.100194 30336 net.cpp:406] SoftmaxWithLoss1 <- InnerProduct1
I1128 19:31:38.100200 30336 net.cpp:406] SoftmaxWithLoss1 <- Data2
I1128 19:31:38.100206 30336 net.cpp:380] SoftmaxWithLoss1 -> SoftmaxWithLoss1
…
I1128 19:31:38.101510 30336 solver.cpp:172] Creating test net (#0) specified by test_net file: /home/ljf/caffe-master/examples/ljftest_cifar10_WRN/test.prototxt
I1128 19:31:38.101821 30336 net.cpp:51] Initializing net from parameters: 
state {
  phase: TEST
}
layer {
  name: "Data1"
  type: "Data"
  top: "Data1"
  top: "Data2"
  transform_param {
    crop_size: 28
  }
  data_param {
    source: "/home/ljf/caffe-master/examples/ljftest_cifar10_WRN/test_lmdb"
    batch_size: 20
    backend: LMDB
  }
  image_data_param {
    shuffle: true
  }
}
layer {
  name: "Convolution1"
  type: "Convolution"
  bottom: "Data1"
  top: "Convolution1"
  convolution_param {
    num_output: 96
    bias_term: true
    pad: 1
    kernel_size: 3
    stride: 1
    weight_filler {
      type: "msra"
    }
    bias_filler {
      type: "constant"
    }
  }
}
layer {
  name: "BatchNorm1"
  type: "BatchNorm"
  bottom: "Convolution1"
  top: "Convolution1"
  batch_norm_param {
    use_global_stats: true
  }
}
layer {
  name: "Scale1"
  type: "Scale"
  bottom: "Convolution1"
  top: "Convolution1"
  scale_param {
    bias_term: true
  }
}
layer {
  name: "ReLU1"
  type: "ReLU"
  bottom: "Convolution1"
  top: "Convolution1"
}
layer {
  name: "Convolution2"
  type: "Convolution"
  bottom: "Convolution1"
  top: "Convolution2"
  convolution_param {
    num_output: 96
    bias_term: true
    pad: 1
    kernel_size: 3
    stride: 1
    weight_filler {
      type: "msra"
    }
    bias_filler {
      type: "constant"
    }
  }
}
layer {
  name: "BatchNorm2"
  type: "BatchNorm"
  bottom: "Convolution2"
  top: "Convolution2"
  batch_norm_param {
    use_global_stats: true
  }
}
layer {
  name: "Scale2"
  type: "Scale"
  bottom: "Convolution2"
  top: "Convolution2"
  scale_param {
    bias_term: true
  }
}
layer {
  name: "ReLU2"
  type: "ReLU"
  bottom: "Convolution2"
  top: "Convolution2"
}
layer {
  name: "Convolution3"
  type: "Convolution"
  bottom: "Convolution2"
  top: "Convolution3"
  convolution_param {
    num_output: 96
    bias_term: true
    pad: 1
    kernel_size: 3
    stride: 1
    weight_filler {
      type: "msra"
    }
    bias_filler {
      type: "constant"
    }
  }
}
layer {
  name: "BatchNorm3"
  type: "BatchNorm"
  bottom: "Convolution3"
  top: "Convolution3"
  batch_norm_param {
    use_global_stats: true
  }
}
layer {
  name: "Scale3"
  type: "Scale"
  bottom: "Convolution3"
  top: "Convolution3"
  scale_param {
    bias_term: true
  }
}
layer {
  name: "Eltwise1"
  type: "Eltwise"
  bottom: "Convolution3"
  bottom: "Convolution1"
  top: "Eltwise1"
  eltwise_param {
    operation: SUM
  }
}
layer {
  name: "ReLU3"
  type: "ReLU"
  bottom: "Eltwise1"
  top: "Eltwise1"
}
layer {
  name: "Convolution4"
  type: "Convolution"
  bottom: "Eltwise1"
  top: "Convolution4"
  convolution_param {
    num_output: 96
    bias_term: true
    pad: 1
    kernel_size: 3
    stride: 1
    weight_filler {
      type: "msra"
    }
    bias_filler {
      type: "constant"
    }
  }
}
layer {
  name: "BatchNorm4"
  type: "BatchNorm"
  bottom: "Convolution4"
  top: "Convolution4"
  batch_norm_param {
    use_global_stats: true
  }
}
layer {
  name: "Scale4"
  type: "Scale"
  bottom: "Convolution4"
  top: "Convolution4"
  scale_param {
    bias_term: true
  }
}
layer {
  name: "ReLU4"
  type: "ReLU"
  bottom: "Convolution4"
  top: "Convolution4"
}
layer {
  name: "Convolution5"
  type: "Convolution"
  bottom: "Convolution4"
  top: "Convolution5"
  convolution_param {
    num_output: 96
    bias_term: true
    pad: 1
    kernel_size: 3
    stride: 1
    weight_filler {
      type: "msra"
    }
    bias_filler {
      type: "constant"
    }
  }
}
layer {
  name: "BatchNorm5"
  type: "BatchNorm"
  bottom: "Convolution5"
  top: "Convolution5"
  batch_norm_param {
    use_global_stats: true
  }
}
layer {
  name: "Scale5"
  type: "Scale"
  bottom: "Convolution5"
  top: "Convolution5"
  scale_param {
    bias_term: true
  }
}
layer {
  name: "Eltwise2"
  type: "Eltwise"
  bottom: "Convolution5"
  bottom: "Eltwise1"
  top: "Eltwise2"
  eltwise_param {
    operation: SUM
  }
}
layer {
  name: "ReLU5"
  type: "ReLU"
  bottom: "Eltwise2"
  top: "Eltwise2"
}
layer {
  name: "Convolution6"
  type: "Convolution"
  bottom: "Eltwise2"
  top: "Convolution6"
  convolution_param {
    num_output: 96
    bias_term: true
    pad: 1
    kernel_size: 3
    stride: 1
    weight_filler {
      type: "msra"
    }
    bias_filler {
      type: "constant"
    }
  }
}
layer {
  name: "BatchNorm6"
  type: "BatchNorm"
  bottom: "Convolution6"
  top: "Convolution6"
  batch_norm_param {
    use_global_stats: true
  }
}
layer {
  name: "Scale6"
  type: "Scale"
  bottom: "Convolution6"
  top: "Convolution6"
  scale_param {
    bias_term: true
  }
}
layer {
  name: "ReLU6"
  type: "ReLU"
  bottom: "Convolution6"
  top: "Convolution6"
}
layer {
  name: "Convolution7"
  type: "Convolution"
  bottom: "Convolution6"
  top: "Convolution7"
  convolution_param {
    num_output: 96
    bias_term: true
    pad: 1
    kernel_size: 3
    stride: 1
    weight_filler {
      type: "msra"
    }
    bias_filler {
      type: "constant"
    }
  }
}
layer {
  name: "BatchNorm7"
  type: "BatchNorm"
  bottom: "Convolution7"
  top: "Convolution7"
  batch_norm_param {
    use_global_stats: true
  }
}
layer {
  name: "Scale7"
  type: "Scale"
  bottom: "Convolution7"
  top: "Convolution7"
  scale_param {
    bias_term: true
  }
}
layer {
  name: "Eltwise3"
  type: "Eltwise"
  bottom: "Convolution7"
  bottom: "Eltwise2"
  top: "Eltwise3"
  eltwise_param {
    operation: SUM
  }
}
layer {
  name: "ReLU7"
  type: "ReLU"
  bottom: "Eltwise3"
  top: "Eltwise3"
}
layer {
  name: "Convolution8"
  type: "Convolution"
  bottom: "Eltwise3"
  top: "Convolution8"
  convolution_param {
    num_output: 192
    bias_term: true
    pad: 1
    kernel_size: 3
    stride: 2
    weight_filler {
      type: "msra"
    }
    bias_filler {
      type: "constant"
    }
  }
}
layer {
  name: "BatchNorm8"
  type: "BatchNorm"
  bottom: "Convolution8"
  top: "Convolution8"
  batch_norm_param {
    use_global_stats: true
  }
}
layer {
  name: "Scale8"
  type: "Scale"
  bottom: "Convolution8"
  top: "Convolution8"
  scale_param {
    bias_term: true
  }
}
layer {
  name: "ReLU8"
  type: "ReLU"
  bottom: "Convolution8"
  top: "Convolution8"
}
layer {
  name: "Convolution9"
  type: "Convolution"
  bottom: "Convolution8"
  top: "Convolution9"
  convolution_param {
    num_output: 192
    bias_term: true
    pad: 1
    kernel_size: 3
    stride: 1
    weight_filler {
      type: "msra"
    }
    bias_filler {
      type: "constant"
    }
  }
}
layer {
  name: "BatchNorm9"
  type: "BatchNorm"
  bottom: "Convolution9"
  top: "Convolution9"
  batch_norm_param {
    use_global_stats: true
  }
}
layer {
  name: "Scale9"
  type: "Scale"
  bottom: "Convolution9"
  top: "Convolution9"
  scale_param {
    bias_term: true
  }
}
layer {
  name: "Convolution10"
  type: "Convolution"
  bottom: "Eltwise3"
  top: "Convolution10"
  convolution_param {
    num_output: 192
    bias_term: true
    pad: 0
    kernel_size: 1
    stride: 2
    weight_filler {
      type: "msra"
    }
    bias_filler {
      type: "constant"
    }
  }
}
layer {
  name: "BatchNorm10"
  type: "BatchNorm"
  bottom: "Convolution10"
  top: "Convolution10"
  batch_norm_param {
    use_global_stats: true
  }
}
layer {
  name: "Scale10"
  type: "Scale"
  bottom: "Convolution10"
  top: "Convolution10"
  scale_param {
    bias_term: true
  }
}
layer {
  name: "Eltwise4"
  type: "Eltwise"
  bottom: "Convolution9"
  bottom: "Convolution10"
  top: "Eltwise4"
  eltwise_param {
    operation: SUM
  }
}
layer {
  name: "ReLU9"
  type: "ReLU"
  bottom: "Eltwise4"
  top: "Eltwise4"
}
layer {
  name: "Convolution11"
  type: "Convolution"
  bottom: "Eltwise4"
  top: "Convolution11"
  convolution_param {
    num_output: 192
    bias_term: true
    pad: 1
    kernel_size: 3
    stride: 1
    weight_filler {
      type: "msra"
    }
    bias_filler {
      type: "constant"
    }
  }
}
layer {
  name: "BatchNorm11"
  type: "BatchNorm"
  bottom: "Convolution11"
  top: "Convolution11"
  batch_norm_param {
    use_global_stats: true
  }
}
layer {
  name: "Scale11"
  type: "Scale"
  bottom: "Convolution11"
  top: "Convolution11"
  scale_param {
    bias_term: true
  }
}
layer {
  name: "ReLU10"
  type: "ReLU"
  bottom: "Convolution11"
  top: "Convolution11"
}
layer {
  name: "Convolution12"
  type: "Convolution"
  bottom: "Convolution11"
  top: "Convolution12"
  convolution_param {
    num_output: 192
    bias_term: true
    pad: 1
    kernel_size: 3
    stride: 1
    weight_filler {
      type: "msra"
    }
    bias_filler {
      type: "constant"
    }
  }
}
layer {
  name: "BatchNorm12"
  type: "BatchNorm"
  bottom: "Convolution12"
  top: "Convolution12"
  batch_norm_param {
    use_global_stats: true
  }
}
layer {
  name: "Scale12"
  type: "Scale"
  bottom: "Convolution12"
  top: "Convolution12"
  scale_param {
    bias_term: true
  }
}
layer {
  name: "Eltwise5"
  type: "Eltwise"
  bottom: "Convolution12"
  bottom: "Eltwise4"
  top: "Eltwise5"
  eltwise_param {
    operation: SUM
  }
}
layer {
  name: "ReLU11"
  type: "ReLU"
  bottom: "Eltwise5"
  top: "Eltwise5"
}
layer {
  name: "Convolution13"
  type: "Convolution"
  bottom: "Eltwise5"
  top: "Convolution13"
  convolution_param {
    num_output: 192
    bias_term: true
    pad: 1
    kernel_size: 3
    stride: 1
    weight_filler {
      type: "msra"
    }
    bias_filler {
      type: "constant"
    }
  }
}
layer {
  name: "BatchNorm13"
  type: "BatchNorm"
  bottom: "Convolution13"
  top: "Convolution13"
  batch_norm_param {
    use_global_stats: true
  }
}
layer {
  name: "Scale13"
  type: "Scale"
  bottom: "Convolution13"
  top: "Convolution13"
  scale_param {
    bias_term: true
  }
}
layer {
  name: "ReLU12"
  type: "ReLU"
  bottom: "Convolution13"
  top: "Convolution13"
}
layer {
  name: "Convolution14"
  type: "Convolution"
  bottom: "Convolution13"
  top: "Convolution14"
  convolution_param {
    num_output: 192
    bias_term: true
    pad: 1
    kernel_size: 3
    stride: 1
    weight_filler {
      type: "msra"
    }
    bias_filler {
      type: "constant"
    }
  }
}
layer {
  name: "BatchNorm14"
  type: "BatchNorm"
  bottom: "Convolution14"
  top: "Convolution14"
  batch_norm_param {
    use_global_stats: true
  }
}
layer {
  name: "Scale14"
  type: "Scale"
  bottom: "Convolution14"
  top: "Convolution14"
  scale_param {
    bias_term: true
  }
}
layer {
  name: "Eltwise6"
  type: "Eltwise"
  bottom: "Convolution14"
  bottom: "Eltwise5"
  top: "Eltwise6"
  eltwise_param {
    operation: SUM
  }
}
layer {
  name: "ReLU13"
  type: "ReLU"
  bottom: "Eltwise6"
  top: "Eltwise6"
}
layer {
  name: "Convolution15"
  type: "Convolution"
  bottom: "Eltwise6"
  top: "Convolution15"
  convolution_param {
    num_output: 384
    bias_term: true
    pad: 1
    kernel_size: 3
    stride: 2
    weight_filler {
      type: "msra"
    }
    bias_filler {
      type: "constant"
    }
  }
}
layer {
  name: "BatchNorm15"
  type: "BatchNorm"
  bottom: "Convolution15"
  top: "Convolution15"
  batch_norm_param {
    use_global_stats: true
  }
}
layer {
  name: "Scale15"
  type: "Scale"
  bottom: "Convolution15"
  top: "Convolution15"
  scale_param {
    bias_term: true
  }
}
layer {
  name: "ReLU14"
  type: "ReLU"
  bottom: "Convolution15"
  top: "Convolution15"
}
layer {
  name: "Convolution16"
  type: "Convolution"
  bottom: "Convolution15"
  top: "Convolution16"
  convolution_param {
    num_output: 384
    bias_term: true
    pad: 1
    kernel_size: 3
    stride: 1
    weight_filler {
      type: "msra"
    }
    bias_filler {
      type: "constant"
    }
  }
}
layer {
  name: "BatchNorm16"
  type: "BatchNorm"
  bottom: "Convolution16"
  top: "Convolution16"
  batch_norm_param {
    use_global_stats: true
  }
}
layer {
  name: "Scale16"
  type: "Scale"
  bottom: "Convolution16"
  top: "Convolution16"
  scale_param {
    bias_term: true
  }
}
layer {
  name: "Convolution17"
  type: "Convolution"
  bottom: "Eltwise6"
  top: "Convolution17"
  convolution_param {
    num_output: 384
    bias_term: true
    pad: 0
    kernel_size: 1
    stride: 2
    weight_filler {
      type: "msra"
    }
    bias_filler {
      type: "constant"
    }
  }
}
layer {
  name: "BatchNorm17"
  type: "BatchNorm"
  bottom: "Convolution17"
  top: "Convolution17"
  batch_norm_param {
    use_global_stats: true
  }
}
layer {
  name: "Scale17"
  type: "Scale"
  bottom: "Convolution17"
  top: "Convolution17"
  scale_param {
    bias_term: true
  }
}
layer {
  name: "Eltwise7"
  type: "Eltwise"
  bottom: "Convolution16"
  bottom: "Convolution17"
  top: "Eltwise7"
  eltwise_param {
    operation: SUM
  }
}
layer {
  name: "ReLU15"
  type: "ReLU"
  bottom: "Eltwise7"
  top: "Eltwise7"
}
layer {
  name: "Convolution18"
  type: "Convolution"
  bottom: "Eltwise7"
  top: "Convolution18"
  convolution_param {
    num_output: 384
    bias_term: true
    pad: 1
    kernel_size: 3
    stride: 1
    weight_filler {
      type: "msra"
    }
    bias_filler {
      type: "constant"
    }
  }
}
layer {
  name: "BatchNorm18"
  type: "BatchNorm"
  bottom: "Convolution18"
  top: "Convolution18"
  batch_norm_param {
    use_global_stats: true
  }
}
layer {
  name: "Scale18"
  type: "Scale"
  bottom: "Convolution18"
  top: "Convolution18"
  scale_param {
    bias_term: true
  }
}
layer {
  name: "ReLU16"
  type: "ReLU"
  bottom: "Convolution18"
  top: "Convolution18"
}
layer {
  name: "Convolution19"
  type: "Convolution"
  bottom: "Convolution18"
  top: "Convolution19"
  convolution_param {
    num_output: 384
    bias_term: true
    pad: 1
    kernel_size: 3
    stride: 1
    weight_filler {
      type: "msra"
    }
    bias_filler {
      type: "constant"
    }
  }
}
layer {
  name: "BatchNorm19"
  type: "BatchNorm"
  bottom: "Convolution19"
  top: "Convolution19"
  batch_norm_param {
    use_global_stats: true
  }
}
layer {
  name: "Scale19"
  type: "Scale"
  bottom: "Convolution19"
  top: "Convolution19"
  scale_param {
    bias_term: true
  }
}
layer {
  name: "Eltwise8"
  type: "Eltwise"
  bottom: "Convolution19"
  bottom: "Eltwise7"
  top: "Eltwise8"
  eltwise_param {
    operation: SUM
  }
}
layer {
  name: "ReLU17"
  type: "ReLU"
  bottom: "Eltwise8"
  top: "Eltwise8"
}
layer {
  name: "Convolution20"
  type: "Convolution"
  bottom: "Eltwise8"
  top: "Convolution20"
  convolution_param {
    num_output: 384
    bias_term: true
    pad: 1
    kernel_size: 3
    stride: 1
    weight_filler {
      type: "msra"
    }
    bias_filler {
      type: "constant"
    }
  }
}
layer {
  name: "BatchNorm20"
  type: "BatchNorm"
  bottom: "Convolution20"
  top: "Convolution20"
  batch_norm_param {
    use_global_stats: true
  }
}
layer {
  name: "Scale20"
  type: "Scale"
  bottom: "Convolution20"
  top: "Convolution20"
  scale_param {
    bias_term: true
  }
}
layer {
  name: "ReLU18"
  type: "ReLU"
  bottom: "Convolution20"
  top: "Convolution20"
}
layer {
  name: "Convolution21"
  type: "Convolution"
  bottom: "Convolution20"
  top: "Convolution21"
  convolution_param {
    num_output: 384
    bias_term: true
    pad: 1
    kernel_size: 3
    stride: 1
    weight_filler {
      type: "msra"
    }
    bias_filler {
      type: "constant"
    }
  }
}
layer {
  name: "BatchNorm21"
  type: "BatchNorm"
  bottom: "Convolution21"
  top: "Convolution21"
  batch_norm_param {
    use_global_stats: true
  }
}
layer {
  name: "Scale21"
  type: "Scale"
  bottom: "Convolution21"
  top: "Convolution21"
  scale_param {
    bias_term: true
  }
}
layer {
  name: "Eltwise9"
  type: "Eltwise"
  bottom: "Convolution21"
  bottom: "Eltwise8"
  top: "Eltwise9"
  eltwise_param {
    operation: SUM
  }
}
layer {
  name: "ReLU19"
  type: "ReLU"
  bottom: "Eltwise9"
  top: "Eltwise9"
}
layer {
  name: "Convolution22"
  type: "Convolution"
  bottom: "Eltwise9"
  top: "Convolution22"
  convolution_param {
    num_output: 384
    bias_term: true
    pad: 1
    kernel_size: 3
    stride: 2
    weight_filler {
      type: "msra"
    }
    bias_filler {
      type: "constant"
    }
  }
}
layer {
  name: "BatchNorm22"
  type: "BatchNorm"
  bottom: "Convolution22"
  top: "Convolution22"
  batch_norm_param {
    use_global_stats: true
  }
}
layer {
  name: "Scale22"
  type: "Scale"
  bottom: "Convolution22"
  top: "Convolution22"
  scale_param {
    bias_term: true
  }
}
layer {
  name: "ReLU20"
  type: "ReLU"
  bottom: "Convolution22"
  top: "Convolution22"
}
layer {
  name: "Convolution23"
  type: "Convolution"
  bottom: "Convolution22"
  top: "Convolution23"
  convolution_param {
    num_output: 384
    bias_term: true
    pad: 1
    kernel_size: 3
    stride: 1
    weight_filler {
      type: "msra"
    }
    bias_filler {
      type: "constant"
    }
  }
}
layer {
  name: "BatchNorm23"
  type: "BatchNorm"
  bottom: "Convolution23"
  top: "Convolution23"
  batch_norm_param {
    use_global_stats: true
  }
}
layer {
  name: "Scale23"
  type: "Scale"
  bottom: "Convolution23"
  top: "Convolution23"
  scale_param {
    bias_term: true
  }
}
layer {
  name: "Convolution24"
  type: "Convolution"
  bottom: "Eltwise9"
  top: "Convolution24"
  convolution_param {
    num_output: 384
    bias_term: true
    pad: 0
    kernel_size: 1
    stride: 2
    weight_filler {
      type: "msra"
    }
    bias_filler {
      type: "constant"
    }
  }
}
layer {
  name: "BatchNorm24"
  type: "BatchNorm"
  bottom: "Convolution24"
  top: "Convolution24"
  batch_norm_param {
    use_global_stats: true
  }
}
layer {
  name: "Scale24"
  type: "Scale"
  bottom: "Convolution24"
  top: "Convolution24"
  scale_param {
    bias_term: true
  }
}
layer {
  name: "Eltwise10"
  type: "Eltwise"
  bottom: "Convolution23"
  bottom: "Convolution24"
  top: "Eltwise10"
  eltwise_param {
    operation: SUM
  }
}
layer {
  name: "ReLU21"
  type: "ReLU"
  bottom: "Eltwise10"
  top: "Eltwise10"
}
layer {
  name: "Convolution25"
  type: "Convolution"
  bottom: "Eltwise10"
  top: "Convolution25"
  convolution_param {
    num_output: 384
    bias_term: true
    pad: 1
    kernel_size: 3
    stride: 1
    weight_filler {
      type: "msra"
    }
    bias_filler {
      type: "constant"
    }
  }
}
layer {
  name: "BatchNorm25"
  type: "BatchNorm"
  bottom: "Convolution25"
  top: "Convolution25"
  batch_norm_param {
    use_global_stats: true
  }
}
layer {
  name: "Scale25"
  type: "Scale"
  bottom: "Convolution25"
  top: "Convolution25"
  scale_param {
    bias_term: true
  }
}
layer {
  name: "ReLU22"
  type: "ReLU"
  bottom: "Convolution25"
  top: "Convolution25"
}
layer {
  name: "Convolution26"
  type: "Convolution"
  bottom: "Convolution25"
  top: "Convolution26"
  convolution_param {
    num_output: 384
    bias_term: true
    pad: 1
    kernel_size: 3
    stride: 1
    weight_filler {
      type: "msra"
    }
    bias_filler {
      type: "constant"
    }
  }
}
layer {
  name: "BatchNorm26"
  type: "BatchNorm"
  bottom: "Convolution26"
  top: "Convolution26"
  batch_norm_param {
    use_global_stats: true
  }
}
layer {
  name: "Scale26"
  type: "Scale"
  bottom: "Convolution26"
  top: "Convolution26"
  scale_param {
    bias_term: true
  }
}
layer {
  name: "Eltwise11"
  type: "Eltwise"
  bottom: "Convolution26"
  bottom: "Eltwise10"
  top: "Eltwise11"
  eltwise_param {
    operation: SUM
  }
}
layer {
  name: "ReLU23"
  type: "ReLU"
  bottom: "Eltwise11"
  top: "Eltwise11"
}
layer {
  name: "Convolution27"
  type: "Convolution"
  bottom: "Eltwise11"
  top: "Convolution27"
  convolution_param {
    num_output: 384
    bias_term: true
    pad: 1
    kernel_size: 3
    stride: 1
    weight_filler {
      type: "msra"
    }
    bias_filler {
      type: "constant"
    }
  }
}
layer {
  name: "BatchNorm27"
  type: "BatchNorm"
  bottom: "Convolution27"
  top: "Convolution27"
  batch_norm_param {
    use_global_stats: true
  }
}
layer {
  name: "Scale27"
  type: "Scale"
  bottom: "Convolution27"
  top: "Convolution27"
  scale_param {
    bias_term: true
  }
}
layer {
  name: "ReLU24"
  type: "ReLU"
  bottom: "Convolution27"
  top: "Convolution27"
}
layer {
  name: "Convolution28"
  type: "Convolution"
  bottom: "Convolution27"
  top: "Convolution28"
  convolution_param {
    num_output: 384
    bias_term: true
    pad: 1
    kernel_size: 3
    stride: 1
    weight_filler {
      type: "msra"
    }
    bias_filler {
      type: "constant"
    }
  }
}
layer {
  name: "BatchNorm28"
  type: "BatchNorm"
  bottom: "Convolution28"
  top: "Convolution28"
  batch_norm_param {
    use_global_stats: true
  }
}
layer {
  name: "Scale28"
  type: "Scale"
  bottom: "Convolution28"
  top: "Convolution28"
  scale_param {
    bias_term: true
  }
}
layer {
  name: "Eltwise12"
  type: "Eltwise"
  bottom: "Convolution28"
  bottom: "Eltwise11"
  top: "Eltwise12"
  eltwise_param {
    operation: SUM
  }
}
layer {
  name: "ReLU25"
  type: "ReLU"
  bottom: "Eltwise12"
  top: "Eltwise12"
}
layer {
  name: "Pooling1"
  type: "Pooling"
  bottom: "Eltwise12"
  top: "Pooling1"
  pooling_param {
    pool: AVE
    global_pooling: true
  }
}
layer {
  name: "InnerProduct1"
  type: "InnerProduct"
  bottom: "Pooling1"
  top: "InnerProduct1"
  inner_product_param {
    num_output: 10
    weight_filler {
      type: "xavier"
    }
    bias_filler {
      type: "constant"
    }
  }
}
layer {
  name: "Accuracy1"
  type: "Accuracy"
  bottom: "InnerProduct1"
  bottom: "Data2"
  top: "Accuracy1"
}
layer {
  name: "SoftmaxWithLoss1"
  type: "SoftmaxWithLoss"
  bottom: "InnerProduct1"
  bottom: "Data2"
  top: "SoftmaxWithLoss1"
}
I1128 19:31:38.102145 30336 layer_factory.hpp:77] Creating layer Data1
I1128 19:31:38.102190 30336 db_lmdb.cpp:35] Opened lmdb /home/ljf/caffe-master/examples/ljftest_cifar10_WRN/test_lmdb
I1128 19:31:38.102202 30336 net.cpp:84] Creating Layer Data1
I1128 19:31:38.102206 30336 net.cpp:380] Data1 -> Data1
I1128 19:31:38.102216 30336 net.cpp:380] Data1 -> Data2
I1128 19:31:38.102313 30336 data_layer.cpp:45] output data size: 20,3,28,28
I1128 19:31:38.103044 30336 net.cpp:122] Setting up Data1
I1128 19:31:38.103052 30336 net.cpp:129] Top shape: 20 3 28 28 (47040)
I1128 19:31:38.103057 30336 net.cpp:129] Top shape: 20 (20)
I1128 19:31:38.103060 30336 net.cpp:137] Memory required for data: 188240
I1128 19:31:38.103065 30336 layer_factory.hpp:77] Creating layer Data2_Data1_1_split
I1128 19:31:38.103071 30336 net.cpp:84] Creating Layer Data2_Data1_1_split
I1128 19:31:38.103076 30336 net.cpp:406] Data2_Data1_1_split <- Data2
I1128 19:31:38.103081 30336 net.cpp:380] Data2_Data1_1_split -> Data2_Data1_1_split_0
I1128 19:31:38.103090 30336 net.cpp:380] Data2_Data1_1_split -> Data2_Data1_1_split_1
I1128 19:31:38.103405 30336 net.cpp:122] Setting up Data2_Data1_1_split
I1128 19:31:38.103411 30336 net.cpp:129] Top shape: 20 (20)
I1128 19:31:38.103415 30336 net.cpp:129] Top shape: 20 (20)
I1128 19:31:38.103418 30336 net.cpp:137] Memory required for data: 188400
I1128 19:31:38.103420 30336 layer_factory.hpp:77] Creating layer Convolution1
I1128 19:31:38.103431 30336 net.cpp:84] Creating Layer Convolution1
I1128 19:31:38.103435 30336 net.cpp:406] Convolution1 <- Data1
I1128 19:31:38.103440 30336 net.cpp:380] Convolution1 -> Convolution1
I1128 19:31:38.104423 30336 net.cpp:122] Setting up Convolution1
I1128 19:31:38.104434 30336 net.cpp:129] Top shape: 20 96 28 28 (1505280)
I1128 19:31:38.104439 30336 net.cpp:137] Memory required for data: 6209520
I1128 19:31:38.104446 30336 layer_factory.hpp:77] Creating layer BatchNorm1
I1128 19:31:38.104454 30336 net.cpp:84] Creating Layer BatchNorm1
I1128 19:31:38.104459 30336 net.cpp:406] BatchNorm1 <- Convolution1
I1128 19:31:38.104463 30336 net.cpp:367] BatchNorm1 -> Convolution1 (in-place)
I1128 19:31:38.104624 30336 net.cpp:122] Setting up BatchNorm1
I1128 19:31:38.104630 30336 net.cpp:129] Top shape: 20 96 28 28 (1505280)
I1128 19:31:38.104634 30336 net.cpp:137] Memory required for data: 12230640
I1128 19:31:38.104643 30336 layer_factory.hpp:77] Creating layer Scale1
I1128 19:31:38.104650 30336 net.cpp:84] Creating Layer Scale1
I1128 19:31:38.104652 30336 net.cpp:406] Scale1 <- Convolution1
I1128 19:31:38.104658 30336 net.cpp:367] Scale1 -> Convolution1 (in-place)
I1128 19:31:38.104696 30336 layer_factory.hpp:77] Creating layer Scale1
I1128 19:31:38.104818 30336 net.cpp:122] Setting up Scale1
I1128 19:31:38.104825 30336 net.cpp:129] Top shape: 20 96 28 28 (1505280)
I1128 19:31:38.104830 30336 net.cpp:137] Memory required for data: 18251760
I1128 19:31:38.104835 30336 layer_factory.hpp:77] Creating layer ReLU1
I1128 19:31:38.104841 30336 net.cpp:84] Creating Layer ReLU1
I1128 19:31:38.104845 30336 net.cpp:406] ReLU1 <- Convolution1
I1128 19:31:38.104851 30336 net.cpp:367] ReLU1 -> Convolution1 (in-place)
I1128 19:31:38.104995 30336 net.cpp:122] Setting up ReLU1
I1128 19:31:38.105002 30336 net.cpp:129] Top shape: 20 96 28 28 (1505280)
I1128 19:31:38.105005 30336 net.cpp:137] Memory required for data: 24272880
I1128 19:31:38.105008 30336 layer_factory.hpp:77] Creating layer Convolution1_ReLU1_0_split
I1128 19:31:38.105013 30336 net.cpp:84] Creating Layer Convolution1_ReLU1_0_split
I1128 19:31:38.105017 30336 net.cpp:406] Convolution1_ReLU1_0_split <- Convolution1
I1128 19:31:38.105023 30336 net.cpp:380] Convolution1_ReLU1_0_split -> Convolution1_ReLU1_0_split_0
I1128 19:31:38.105031 30336 net.cpp:380] Convolution1_ReLU1_0_split -> Convolution1_ReLU1_0_split_1
I1128 19:31:38.105067 30336 net.cpp:122] Setting up Convolution1_ReLU1_0_split
I1128 19:31:38.105072 30336 net.cpp:129] Top shape: 20 96 28 28 (1505280)
I1128 19:31:38.105075 30336 net.cpp:129] Top shape: 20 96 28 28 (1505280)
I1128 19:31:38.105079 30336 net.cpp:137] Memory required for data: 36315120
I1128 19:31:38.105082 30336 layer_factory.hpp:77] Creating layer Convolution2
I1128 19:31:38.105090 30336 net.cpp:84] Creating Layer Convolution2
I1128 19:31:38.105094 30336 net.cpp:406] Convolution2 <- Convolution1_ReLU1_0_split_0
I1128 19:31:38.105103 30336 net.cpp:380] Convolution2 -> Convolution2
I1128 19:31:38.106627 30336 net.cpp:122] Setting up Convolution2
I1128 19:31:38.106637 30336 net.cpp:129] Top shape: 20 96 28 28 (1505280)
I1128 19:31:38.106642 30336 net.cpp:137] Memory required for data: 42336240
I1128 19:31:38.106649 30336 layer_factory.hpp:77] Creating layer BatchNorm2
I1128 19:31:38.106658 30336 net.cpp:84] Creating Layer BatchNorm2
I1128 19:31:38.106662 30336 net.cpp:406] BatchNorm2 <- Convolution2
I1128 19:31:38.106667 30336 net.cpp:367] BatchNorm2 -> Convolution2 (in-place)
I1128 19:31:38.106820 30336 net.cpp:122] Setting up BatchNorm2
I1128 19:31:38.106827 30336 net.cpp:129] Top shape: 20 96 28 28 (1505280)
I1128 19:31:38.106830 30336 net.cpp:137] Memory required for data: 48357360
I1128 19:31:38.106837 30336 layer_factory.hpp:77] Creating layer Scale2
I1128 19:31:38.106842 30336 net.cpp:84] Creating Layer Scale2
I1128 19:31:38.106847 30336 net.cpp:406] Scale2 <- Convolution2
I1128 19:31:38.106851 30336 net.cpp:367] Scale2 -> Convolution2 (in-place)
I1128 19:31:38.106910 30336 layer_factory.hpp:77] Creating layer Scale2
I1128 19:31:38.107025 30336 net.cpp:122] Setting up Scale2
I1128 19:31:38.107031 30336 net.cpp:129] Top shape: 20 96 28 28 (1505280)
I1128 19:31:38.107034 30336 net.cpp:137] Memory required for data: 54378480
I1128 19:31:38.107059 30336 layer_factory.hpp:77] Creating layer ReLU2
I1128 19:31:38.107065 30336 net.cpp:84] Creating Layer ReLU2
I1128 19:31:38.107069 30336 net.cpp:406] ReLU2 <- Convolution2
I1128 19:31:38.107075 30336 net.cpp:367] ReLU2 -> Convolution2 (in-place)
I1128 19:31:38.107398 30336 net.cpp:122] Setting up ReLU2
I1128 19:31:38.107406 30336 net.cpp:129] Top shape: 20 96 28 28 (1505280)
I1128 19:31:38.107410 30336 net.cpp:137] Memory required for data: 60399600
I1128 19:31:38.107414 30336 layer_factory.hpp:77] Creating layer Convolution3
I1128 19:31:38.107421 30336 net.cpp:84] Creating Layer Convolution3
I1128 19:31:38.107426 30336 net.cpp:406] Convolution3 <- Convolution2
I1128 19:31:38.107431 30336 net.cpp:380] Convolution3 -> Convolution3
I1128 19:31:38.108716 30336 net.cpp:122] Setting up Convolution3
I1128 19:31:38.108726 30336 net.cpp:129] Top shape: 20 96 28 28 (1505280)
I1128 19:31:38.108729 30336 net.cpp:137] Memory required for data: 66420720
I1128 19:31:38.108736 30336 layer_factory.hpp:77] Creating layer BatchNorm3
I1128 19:31:38.108741 30336 net.cpp:84] Creating Layer BatchNorm3
I1128 19:31:38.108745 30336 net.cpp:406] BatchNorm3 <- Convolution3
I1128 19:31:38.108752 30336 net.cpp:367] BatchNorm3 -> Convolution3 (in-place)
I1128 19:31:38.108909 30336 net.cpp:122] Setting up BatchNorm3
I1128 19:31:38.108914 30336 net.cpp:129] Top shape: 20 96 28 28 (1505280)
I1128 19:31:38.108917 30336 net.cpp:137] Memory required for data: 72441840
I1128 19:31:38.108928 30336 layer_factory.hpp:77] Creating layer Scale3
I1128 19:31:38.108933 30336 net.cpp:84] Creating Layer Scale3
I1128 19:31:38.108937 30336 net.cpp:406] Scale3 <- Convolution3
I1128 19:31:38.108942 30336 net.cpp:367] Scale3 -> Convolution3 (in-place)
I1128 19:31:38.108978 30336 layer_factory.hpp:77] Creating layer Scale3
I1128 19:31:38.109067 30336 net.cpp:122] Setting up Scale3
I1128 19:31:38.109074 30336 net.cpp:129] Top shape: 20 96 28 28 (1505280)
I1128 19:31:38.109077 30336 net.cpp:137] Memory required for data: 78462960
I1128 19:31:38.109084 30336 layer_factory.hpp:77] Creating layer Eltwise1
I1128 19:31:38.109091 30336 net.cpp:84] Creating Layer Eltwise1
I1128 19:31:38.109093 30336 net.cpp:406] Eltwise1 <- Convolution3
I1128 19:31:38.109097 30336 net.cpp:406] Eltwise1 <- Convolution1_ReLU1_0_split_1
I1128 19:31:38.109103 30336 net.cpp:380] Eltwise1 -> Eltwise1
I1128 19:31:38.109124 30336 net.cpp:122] Setting up Eltwise1
I1128 19:31:38.109130 30336 net.cpp:129] Top shape: 20 96 28 28 (1505280)
I1128 19:31:38.109133 30336 net.cpp:137] Memory required for data: 84484080
I1128 19:31:38.109136 30336 layer_factory.hpp:77] Creating layer ReLU3
I1128 19:31:38.109140 30336 net.cpp:84] Creating Layer ReLU3
I1128 19:31:38.109144 30336 net.cpp:406] ReLU3 <- Eltwise1
I1128 19:31:38.109149 30336 net.cpp:367] ReLU3 -> Eltwise1 (in-place)
I1128 19:31:38.109488 30336 net.cpp:122] Setting up ReLU3
I1128 19:31:38.109496 30336 net.cpp:129] Top shape: 20 96 28 28 (1505280)
I1128 19:31:38.109499 30336 net.cpp:137] Memory required for data: 90505200
I1128 19:31:38.109503 30336 layer_factory.hpp:77] Creating layer Eltwise1_ReLU3_0_split
I1128 19:31:38.109526 30336 net.cpp:84] Creating Layer Eltwise1_ReLU3_0_split
I1128 19:31:38.109530 30336 net.cpp:406] Eltwise1_ReLU3_0_split <- Eltwise1
I1128 19:31:38.109535 30336 net.cpp:380] Eltwise1_ReLU3_0_split -> Eltwise1_ReLU3_0_split_0
I1128 19:31:38.109541 30336 net.cpp:380] Eltwise1_ReLU3_0_split -> Eltwise1_ReLU3_0_split_1
I1128 19:31:38.109602 30336 net.cpp:122] Setting up Eltwise1_ReLU3_0_split
I1128 19:31:38.109608 30336 net.cpp:129] Top shape: 20 96 28 28 (1505280)
I1128 19:31:38.109624 30336 net.cpp:129] Top shape: 20 96 28 28 (1505280)
I1128 19:31:38.109628 30336 net.cpp:137] Memory required for data: 102547440
I1128 19:31:38.109645 30336 layer_factory.hpp:77] Creating layer Convolution4
I1128 19:31:38.109655 30336 net.cpp:84] Creating Layer Convolution4
I1128 19:31:38.109658 30336 net.cpp:406] Convolution4 <- Eltwise1_ReLU3_0_split_0
I1128 19:31:38.109665 30336 net.cpp:380] Convolution4 -> Convolution4
I1128 19:31:38.111156 30336 net.cpp:122] Setting up Convolution4
I1128 19:31:38.111166 30336 net.cpp:129] Top shape: 20 96 28 28 (1505280)
I1128 19:31:38.111168 30336 net.cpp:137] Memory required for data: 108568560
I1128 19:31:38.111188 30336 layer_factory.hpp:77] Creating layer BatchNorm4
I1128 19:31:38.111196 30336 net.cpp:84] Creating Layer BatchNorm4
I1128 19:31:38.111202 30336 net.cpp:406] BatchNorm4 <- Convolution4
I1128 19:31:38.111207 30336 net.cpp:367] BatchNorm4 -> Convolution4 (in-place)
I1128 19:31:38.111402 30336 net.cpp:122] Setting up BatchNorm4
I1128 19:31:38.111408 30336 net.cpp:129] Top shape: 20 96 28 28 (1505280)
I1128 19:31:38.111412 30336 net.cpp:137] Memory required for data: 114589680
I1128 19:31:38.111433 30336 layer_factory.hpp:77] Creating layer Scale4
I1128 19:31:38.111438 30336 net.cpp:84] Creating Layer Scale4
I1128 19:31:38.111443 30336 net.cpp:406] Scale4 <- Convolution4
I1128 19:31:38.111449 30336 net.cpp:367] Scale4 -> Convolution4 (in-place)
I1128 19:31:38.111493 30336 layer_factory.hpp:77] Creating layer Scale4
I1128 19:31:38.111584 30336 net.cpp:122] Setting up Scale4
I1128 19:31:38.111590 30336 net.cpp:129] Top shape: 20 96 28 28 (1505280)
I1128 19:31:38.111593 30336 net.cpp:137] Memory required for data: 120610800
I1128 19:31:38.111598 30336 layer_factory.hpp:77] Creating layer ReLU4
I1128 19:31:38.111603 30336 net.cpp:84] Creating Layer ReLU4
I1128 19:31:38.111608 30336 net.cpp:406] ReLU4 <- Convolution4
I1128 19:31:38.111613 30336 net.cpp:367] ReLU4 -> Convolution4 (in-place)
I1128 19:31:38.111740 30336 net.cpp:122] Setting up ReLU4
I1128 19:31:38.111747 30336 net.cpp:129] Top shape: 20 96 28 28 (1505280)
I1128 19:31:38.111750 30336 net.cpp:137] Memory required for data: 126631920
I1128 19:31:38.111753 30336 layer_factory.hpp:77] Creating layer Convolution5
I1128 19:31:38.111762 30336 net.cpp:84] Creating Layer Convolution5
I1128 19:31:38.111764 30336 net.cpp:406] Convolution5 <- Convolution4
I1128 19:31:38.111770 30336 net.cpp:380] Convolution5 -> Convolution5
I1128 19:31:38.113229 30336 net.cpp:122] Setting up Convolution5
I1128 19:31:38.113237 30336 net.cpp:129] Top shape: 20 96 28 28 (1505280)
I1128 19:31:38.113241 30336 net.cpp:137] Memory required for data: 132653040
I1128 19:31:38.113247 30336 layer_factory.hpp:77] Creating layer BatchNorm5
I1128 19:31:38.113255 30336 net.cpp:84] Creating Layer BatchNorm5
I1128 19:31:38.113258 30336 net.cpp:406] BatchNorm5 <- Convolution5
I1128 19:31:38.113265 30336 net.cpp:367] BatchNorm5 -> Convolution5 (in-place)
I1128 19:31:38.113420 30336 net.cpp:122] Setting up BatchNorm5
I1128 19:31:38.113425 30336 net.cpp:129] Top shape: 20 96 28 28 (1505280)
I1128 19:31:38.113428 30336 net.cpp:137] Memory required for data: 138674160
I1128 19:31:38.113438 30336 layer_factory.hpp:77] Creating layer Scale5
I1128 19:31:38.113443 30336 net.cpp:84] Creating Layer Scale5
I1128 19:31:38.113447 30336 net.cpp:406] Scale5 <- Convolution5
I1128 19:31:38.113451 30336 net.cpp:367] Scale5 -> Convolution5 (in-place)
I1128 19:31:38.113485 30336 layer_factory.hpp:77] Creating layer Scale5
I1128 19:31:38.113576 30336 net.cpp:122] Setting up Scale5
I1128 19:31:38.113582 30336 net.cpp:129] Top shape: 20 96 28 28 (1505280)
I1128 19:31:38.113585 30336 net.cpp:137] Memory required for data: 144695280
I1128 19:31:38.113590 30336 layer_factory.hpp:77] Creating layer Eltwise2
I1128 19:31:38.113595 30336 net.cpp:84] Creating Layer Eltwise2
I1128 19:31:38.113600 30336 net.cpp:406] Eltwise2 <- Convolution5
I1128 19:31:38.113605 30336 net.cpp:406] Eltwise2 <- Eltwise1_ReLU3_0_split_1
I1128 19:31:38.113608 30336 net.cpp:380] Eltwise2 -> Eltwise2
I1128 19:31:38.113644 30336 net.cpp:122] Setting up Eltwise2
I1128 19:31:38.113651 30336 net.cpp:129] Top shape: 20 96 28 28 (1505280)
I1128 19:31:38.113653 30336 net.cpp:137] Memory required for data: 150716400
I1128 19:31:38.113656 30336 layer_factory.hpp:77] Creating layer ReLU5
I1128 19:31:38.113674 30336 net.cpp:84] Creating Layer ReLU5
I1128 19:31:38.113678 30336 net.cpp:406] ReLU5 <- Eltwise2
I1128 19:31:38.113682 30336 net.cpp:367] ReLU5 -> Eltwise2 (in-place)
I1128 19:31:38.113842 30336 net.cpp:122] Setting up ReLU5
I1128 19:31:38.113848 30336 net.cpp:129] Top shape: 20 96 28 28 (1505280)
I1128 19:31:38.113852 30336 net.cpp:137] Memory required for data: 156737520
I1128 19:31:38.113869 30336 layer_factory.hpp:77] Creating layer Eltwise2_ReLU5_0_split
I1128 19:31:38.113875 30336 net.cpp:84] Creating Layer Eltwise2_ReLU5_0_split
I1128 19:31:38.113879 30336 net.cpp:406] Eltwise2_ReLU5_0_split <- Eltwise2
I1128 19:31:38.113886 30336 net.cpp:380] Eltwise2_ReLU5_0_split -> Eltwise2_ReLU5_0_split_0
I1128 19:31:38.113893 30336 net.cpp:380] Eltwise2_ReLU5_0_split -> Eltwise2_ReLU5_0_split_1
I1128 19:31:38.113955 30336 net.cpp:122] Setting up Eltwise2_ReLU5_0_split
I1128 19:31:38.113963 30336 net.cpp:129] Top shape: 20 96 28 28 (1505280)
I1128 19:31:38.113981 30336 net.cpp:129] Top shape: 20 96 28 28 (1505280)
I1128 19:31:38.113984 30336 net.cpp:137] Memory required for data: 168779760
I1128 19:31:38.113987 30336 layer_factory.hpp:77] Creating layer Convolution6
I1128 19:31:38.114012 30336 net.cpp:84] Creating Layer Convolution6
I1128 19:31:38.114015 30336 net.cpp:406] Convolution6 <- Eltwise2_ReLU5_0_split_0
I1128 19:31:38.114022 30336 net.cpp:380] Convolution6 -> Convolution6
I1128 19:31:38.115515 30336 net.cpp:122] Setting up Convolution6
I1128 19:31:38.115525 30336 net.cpp:129] Top shape: 20 96 28 28 (1505280)
I1128 19:31:38.115530 30336 net.cpp:137] Memory required for data: 174800880
I1128 19:31:38.115550 30336 layer_factory.hpp:77] Creating layer BatchNorm6
I1128 19:31:38.115556 30336 net.cpp:84] Creating Layer BatchNorm6
I1128 19:31:38.115559 30336 net.cpp:406] BatchNorm6 <- Convolution6
I1128 19:31:38.115566 30336 net.cpp:367] BatchNorm6 -> Convolution6 (in-place)
I1128 19:31:38.115739 30336 net.cpp:122] Setting up BatchNorm6
I1128 19:31:38.115746 30336 net.cpp:129] Top shape: 20 96 28 28 (1505280)
I1128 19:31:38.115749 30336 net.cpp:137] Memory required for data: 180822000
I1128 19:31:38.115756 30336 layer_factory.hpp:77] Creating layer Scale6
I1128 19:31:38.115761 30336 net.cpp:84] Creating Layer Scale6
I1128 19:31:38.115766 30336 net.cpp:406] Scale6 <- Convolution6
I1128 19:31:38.115770 30336 net.cpp:367] Scale6 -> Convolution6 (in-place)
I1128 19:31:38.115804 30336 layer_factory.hpp:77] Creating layer Scale6
I1128 19:31:38.115896 30336 net.cpp:122] Setting up Scale6
I1128 19:31:38.115901 30336 net.cpp:129] Top shape: 20 96 28 28 (1505280)
I1128 19:31:38.115905 30336 net.cpp:137] Memory required for data: 186843120
I1128 19:31:38.115911 30336 layer_factory.hpp:77] Creating layer ReLU6
I1128 19:31:38.115916 30336 net.cpp:84] Creating Layer ReLU6
I1128 19:31:38.115918 30336 net.cpp:406] ReLU6 <- Convolution6
I1128 19:31:38.115926 30336 net.cpp:367] ReLU6 -> Convolution6 (in-place)
I1128 19:31:38.116048 30336 net.cpp:122] Setting up ReLU6
I1128 19:31:38.116055 30336 net.cpp:129] Top shape: 20 96 28 28 (1505280)
I1128 19:31:38.116058 30336 net.cpp:137] Memory required for data: 192864240
I1128 19:31:38.116061 30336 layer_factory.hpp:77] Creating layer Convolution7
I1128 19:31:38.116070 30336 net.cpp:84] Creating Layer Convolution7
I1128 19:31:38.116073 30336 net.cpp:406] Convolution7 <- Convolution6
I1128 19:31:38.116080 30336 net.cpp:380] Convolution7 -> Convolution7
I1128 19:31:38.117638 30336 net.cpp:122] Setting up Convolution7
I1128 19:31:38.117647 30336 net.cpp:129] Top shape: 20 96 28 28 (1505280)
I1128 19:31:38.117651 30336 net.cpp:137] Memory required for data: 198885360
I1128 19:31:38.117657 30336 layer_factory.hpp:77] Creating layer BatchNorm7
I1128 19:31:38.117667 30336 net.cpp:84] Creating Layer BatchNorm7
I1128 19:31:38.117671 30336 net.cpp:406] BatchNorm7 <- Convolution7
I1128 19:31:38.117676 30336 net.cpp:367] BatchNorm7 -> Convolution7 (in-place)
I1128 19:31:38.117833 30336 net.cpp:122] Setting up BatchNorm7
I1128 19:31:38.117839 30336 net.cpp:129] Top shape: 20 96 28 28 (1505280)
I1128 19:31:38.117842 30336 net.cpp:137] Memory required for data: 204906480
I1128 19:31:38.117849 30336 layer_factory.hpp:77] Creating layer Scale7
I1128 19:31:38.117861 30336 net.cpp:84] Creating Layer Scale7
I1128 19:31:38.117866 30336 net.cpp:406] Scale7 <- Convolution7
I1128 19:31:38.117871 30336 net.cpp:367] Scale7 -> Convolution7 (in-place)
I1128 19:31:38.117918 30336 layer_factory.hpp:77] Creating layer Scale7
I1128 19:31:38.118054 30336 net.cpp:122] Setting up Scale7
I1128 19:31:38.118060 30336 net.cpp:129] Top shape: 20 96 28 28 (1505280)
I1128 19:31:38.118063 30336 net.cpp:137] Memory required for data: 210927600
I1128 19:31:38.118069 30336 layer_factory.hpp:77] Creating layer Eltwise3
I1128 19:31:38.118077 30336 net.cpp:84] Creating Layer Eltwise3
I1128 19:31:38.118080 30336 net.cpp:406] Eltwise3 <- Convolution7
I1128 19:31:38.118085 30336 net.cpp:406] Eltwise3 <- Eltwise2_ReLU5_0_split_1
I1128 19:31:38.118091 30336 net.cpp:380] Eltwise3 -> Eltwise3
I1128 19:31:38.118139 30336 net.cpp:122] Setting up Eltwise3
I1128 19:31:38.118145 30336 net.cpp:129] Top shape: 20 96 28 28 (1505280)
I1128 19:31:38.118149 30336 net.cpp:137] Memory required for data: 216948720
I1128 19:31:38.118151 30336 layer_factory.hpp:77] Creating layer ReLU7
I1128 19:31:38.118156 30336 net.cpp:84] Creating Layer ReLU7
I1128 19:31:38.118160 30336 net.cpp:406] ReLU7 <- Eltwise3
I1128 19:31:38.118165 30336 net.cpp:367] ReLU7 -> Eltwise3 (in-place)
I1128 19:31:38.118288 30336 net.cpp:122] Setting up ReLU7
I1128 19:31:38.118294 30336 net.cpp:129] Top shape: 20 96 28 28 (1505280)
I1128 19:31:38.118296 30336 net.cpp:137] Memory required for data: 222969840
I1128 19:31:38.118299 30336 layer_factory.hpp:77] Creating layer Eltwise3_ReLU7_0_split
I1128 19:31:38.118304 30336 net.cpp:84] Creating Layer Eltwise3_ReLU7_0_split
I1128 19:31:38.118309 30336 net.cpp:406] Eltwise3_ReLU7_0_split <- Eltwise3
I1128 19:31:38.118314 30336 net.cpp:380] Eltwise3_ReLU7_0_split -> Eltwise3_ReLU7_0_split_0
I1128 19:31:38.118321 30336 net.cpp:380] Eltwise3_ReLU7_0_split -> Eltwise3_ReLU7_0_split_1
I1128 19:31:38.118356 30336 net.cpp:122] Setting up Eltwise3_ReLU7_0_split
I1128 19:31:38.118361 30336 net.cpp:129] Top shape: 20 96 28 28 (1505280)
I1128 19:31:38.118366 30336 net.cpp:129] Top shape: 20 96 28 28 (1505280)
I1128 19:31:38.118368 30336 net.cpp:137] Memory required for data: 235012080
I1128 19:31:38.118372 30336 layer_factory.hpp:77] Creating layer Convolution8
I1128 19:31:38.118381 30336 net.cpp:84] Creating Layer Convolution8
I1128 19:31:38.118383 30336 net.cpp:406] Convolution8 <- Eltwise3_ReLU7_0_split_0
I1128 19:31:38.118391 30336 net.cpp:380] Convolution8 -> Convolution8
I1128 19:31:38.120719 30336 net.cpp:122] Setting up Convolution8
I1128 19:31:38.120728 30336 net.cpp:129] Top shape: 20 192 14 14 (752640)
I1128 19:31:38.120731 30336 net.cpp:137] Memory required for data: 238022640
I1128 19:31:38.120738 30336 layer_factory.hpp:77] Creating layer BatchNorm8
I1128 19:31:38.120745 30336 net.cpp:84] Creating Layer BatchNorm8
I1128 19:31:38.120749 30336 net.cpp:406] BatchNorm8 <- Convolution8
I1128 19:31:38.120755 30336 net.cpp:367] BatchNorm8 -> Convolution8 (in-place)
I1128 19:31:38.120913 30336 net.cpp:122] Setting up BatchNorm8
I1128 19:31:38.120919 30336 net.cpp:129] Top shape: 20 192 14 14 (752640)
I1128 19:31:38.120923 30336 net.cpp:137] Memory required for data: 241033200
I1128 19:31:38.120929 30336 layer_factory.hpp:77] Creating layer Scale8
I1128 19:31:38.120935 30336 net.cpp:84] Creating Layer Scale8
I1128 19:31:38.120939 30336 net.cpp:406] Scale8 <- Convolution8
I1128 19:31:38.120944 30336 net.cpp:367] Scale8 -> Convolution8 (in-place)
I1128 19:31:38.120978 30336 layer_factory.hpp:77] Creating layer Scale8
I1128 19:31:38.121070 30336 net.cpp:122] Setting up Scale8
I1128 19:31:38.121076 30336 net.cpp:129] Top shape: 20 192 14 14 (752640)
I1128 19:31:38.121079 30336 net.cpp:137] Memory required for data: 244043760
I1128 19:31:38.121084 30336 layer_factory.hpp:77] Creating layer ReLU8
I1128 19:31:38.121089 30336 net.cpp:84] Creating Layer ReLU8
I1128 19:31:38.121093 30336 net.cpp:406] ReLU8 <- Convolution8
I1128 19:31:38.121099 30336 net.cpp:367] ReLU8 -> Convolution8 (in-place)
I1128 19:31:38.121419 30336 net.cpp:122] Setting up ReLU8
I1128 19:31:38.121434 30336 net.cpp:129] Top shape: 20 192 14 14 (752640)
I1128 19:31:38.121438 30336 net.cpp:137] Memory required for data: 247054320
I1128 19:31:38.121441 30336 layer_factory.hpp:77] Creating layer Convolution9
I1128 19:31:38.121449 30336 net.cpp:84] Creating Layer Convolution9
I1128 19:31:38.121454 30336 net.cpp:406] Convolution9 <- Convolution8
I1128 19:31:38.121460 30336 net.cpp:380] Convolution9 -> Convolution9
I1128 19:31:38.124258 30336 net.cpp:122] Setting up Convolution9
I1128 19:31:38.124267 30336 net.cpp:129] Top shape: 20 192 14 14 (752640)
I1128 19:31:38.124271 30336 net.cpp:137] Memory required for data: 250064880
I1128 19:31:38.124277 30336 layer_factory.hpp:77] Creating layer BatchNorm9
I1128 19:31:38.124284 30336 net.cpp:84] Creating Layer BatchNorm9
I1128 19:31:38.124289 30336 net.cpp:406] BatchNorm9 <- Convolution9
I1128 19:31:38.124295 30336 net.cpp:367] BatchNorm9 -> Convolution9 (in-place)
I1128 19:31:38.124455 30336 net.cpp:122] Setting up BatchNorm9
I1128 19:31:38.124461 30336 net.cpp:129] Top shape: 20 192 14 14 (752640)
I1128 19:31:38.124464 30336 net.cpp:137] Memory required for data: 253075440
I1128 19:31:38.124470 30336 layer_factory.hpp:77] Creating layer Scale9
I1128 19:31:38.124475 30336 net.cpp:84] Creating Layer Scale9
I1128 19:31:38.124480 30336 net.cpp:406] Scale9 <- Convolution9
I1128 19:31:38.124485 30336 net.cpp:367] Scale9 -> Convolution9 (in-place)
I1128 19:31:38.124518 30336 layer_factory.hpp:77] Creating layer Scale9
I1128 19:31:38.124609 30336 net.cpp:122] Setting up Scale9
I1128 19:31:38.124615 30336 net.cpp:129] Top shape: 20 192 14 14 (752640)
I1128 19:31:38.124617 30336 net.cpp:137] Memory required for data: 256086000
I1128 19:31:38.124624 30336 layer_factory.hpp:77] Creating layer Convolution10
I1128 19:31:38.124631 30336 net.cpp:84] Creating Layer Convolution10
I1128 19:31:38.124636 30336 net.cpp:406] Convolution10 <- Eltwise3_ReLU7_0_split_1
I1128 19:31:38.124642 30336 net.cpp:380] Convolution10 -> Convolution10
I1128 19:31:38.125915 30336 net.cpp:122] Setting up Convolution10
I1128 19:31:38.125926 30336 net.cpp:129] Top shape: 20 192 14 14 (752640)
I1128 19:31:38.125931 30336 net.cpp:137] Memory required for data: 259096560
I1128 19:31:38.125944 30336 layer_factory.hpp:77] Creating layer BatchNorm10
I1128 19:31:38.125952 30336 net.cpp:84] Creating Layer BatchNorm10
I1128 19:31:38.125955 30336 net.cpp:406] BatchNorm10 <- Convolution10
I1128 19:31:38.125962 30336 net.cpp:367] BatchNorm10 -> Convolution10 (in-place)
I1128 19:31:38.126114 30336 net.cpp:122] Setting up BatchNorm10
I1128 19:31:38.126121 30336 net.cpp:129] Top shape: 20 192 14 14 (752640)
I1128 19:31:38.126123 30336 net.cpp:137] Memory required for data: 262107120
I1128 19:31:38.126130 30336 layer_factory.hpp:77] Creating layer Scale10
I1128 19:31:38.126137 30336 net.cpp:84] Creating Layer Scale10
I1128 19:31:38.126140 30336 net.cpp:406] Scale10 <- Convolution10
I1128 19:31:38.126144 30336 net.cpp:367] Scale10 -> Convolution10 (in-place)
I1128 19:31:38.126179 30336 layer_factory.hpp:77] Creating layer Scale10
I1128 19:31:38.126271 30336 net.cpp:122] Setting up Scale10
I1128 19:31:38.126276 30336 net.cpp:129] Top shape: 20 192 14 14 (752640)
I1128 19:31:38.126279 30336 net.cpp:137] Memory required for data: 265117680
I1128 19:31:38.126284 30336 layer_factory.hpp:77] Creating layer Eltwise4
I1128 19:31:38.126291 30336 net.cpp:84] Creating Layer Eltwise4
I1128 19:31:38.126293 30336 net.cpp:406] Eltwise4 <- Convolution9
I1128 19:31:38.126297 30336 net.cpp:406] Eltwise4 <- Convolution10
I1128 19:31:38.126304 30336 net.cpp:380] Eltwise4 -> Eltwise4
I1128 19:31:38.126324 30336 net.cpp:122] Setting up Eltwise4
I1128 19:31:38.126329 30336 net.cpp:129] Top shape: 20 192 14 14 (752640)
I1128 19:31:38.126332 30336 net.cpp:137] Memory required for data: 268128240
I1128 19:31:38.126335 30336 layer_factory.hpp:77] Creating layer ReLU9
I1128 19:31:38.126341 30336 net.cpp:84] Creating Layer ReLU9
I1128 19:31:38.126345 30336 net.cpp:406] ReLU9 <- Eltwise4
I1128 19:31:38.126349 30336 net.cpp:367] ReLU9 -> Eltwise4 (in-place)
I1128 19:31:38.126682 30336 net.cpp:122] Setting up ReLU9
I1128 19:31:38.126691 30336 net.cpp:129] Top shape: 20 192 14 14 (752640)
I1128 19:31:38.126694 30336 net.cpp:137] Memory required for data: 271138800
I1128 19:31:38.126698 30336 layer_factory.hpp:77] Creating layer Eltwise4_ReLU9_0_split
I1128 19:31:38.126705 30336 net.cpp:84] Creating Layer Eltwise4_ReLU9_0_split
I1128 19:31:38.126709 30336 net.cpp:406] Eltwise4_ReLU9_0_split <- Eltwise4
I1128 19:31:38.126714 30336 net.cpp:380] Eltwise4_ReLU9_0_split -> Eltwise4_ReLU9_0_split_0
I1128 19:31:38.126744 30336 net.cpp:380] Eltwise4_ReLU9_0_split -> Eltwise4_ReLU9_0_split_1
I1128 19:31:38.126806 30336 net.cpp:122] Setting up Eltwise4_ReLU9_0_split
I1128 19:31:38.126811 30336 net.cpp:129] Top shape: 20 192 14 14 (752640)
I1128 19:31:38.126816 30336 net.cpp:129] Top shape: 20 192 14 14 (752640)
I1128 19:31:38.126818 30336 net.cpp:137] Memory required for data: 277159920
I1128 19:31:38.126834 30336 layer_factory.hpp:77] Creating layer Convolution11
I1128 19:31:38.126844 30336 net.cpp:84] Creating Layer Convolution11
I1128 19:31:38.126847 30336 net.cpp:406] Convolution11 <- Eltwise4_ReLU9_0_split_0
I1128 19:31:38.126854 30336 net.cpp:380] Convolution11 -> Convolution11
I1128 19:31:38.130368 30336 net.cpp:122] Setting up Convolution11
I1128 19:31:38.130383 30336 net.cpp:129] Top shape: 20 192 14 14 (752640)
I1128 19:31:38.130386 30336 net.cpp:137] Memory required for data: 280170480
I1128 19:31:38.130393 30336 layer_factory.hpp:77] Creating layer BatchNorm11
I1128 19:31:38.130403 30336 net.cpp:84] Creating Layer BatchNorm11
I1128 19:31:38.130406 30336 net.cpp:406] BatchNorm11 <- Convolution11
I1128 19:31:38.130412 30336 net.cpp:367] BatchNorm11 -> Convolution11 (in-place)
I1128 19:31:38.130630 30336 net.cpp:122] Setting up BatchNorm11
I1128 19:31:38.130635 30336 net.cpp:129] Top shape: 20 192 14 14 (752640)
I1128 19:31:38.130638 30336 net.cpp:137] Memory required for data: 283181040
I1128 19:31:38.130645 30336 layer_factory.hpp:77] Creating layer Scale11
I1128 19:31:38.130650 30336 net.cpp:84] Creating Layer Scale11
I1128 19:31:38.130653 30336 net.cpp:406] Scale11 <- Convolution11
I1128 19:31:38.130659 30336 net.cpp:367] Scale11 -> Convolution11 (in-place)
I1128 19:31:38.130753 30336 layer_factory.hpp:77] Creating layer Scale11
I1128 19:31:38.130877 30336 net.cpp:122] Setting up Scale11
I1128 19:31:38.130882 30336 net.cpp:129] Top shape: 20 192 14 14 (752640)
I1128 19:31:38.130884 30336 net.cpp:137] Memory required for data: 286191600
I1128 19:31:38.130889 30336 layer_factory.hpp:77] Creating layer ReLU10
I1128 19:31:38.130895 30336 net.cpp:84] Creating Layer ReLU10
I1128 19:31:38.130899 30336 net.cpp:406] ReLU10 <- Convolution11
I1128 19:31:38.130904 30336 net.cpp:367] ReLU10 -> Convolution11 (in-place)
I1128 19:31:38.131266 30336 net.cpp:122] Setting up ReLU10
I1128 19:31:38.131275 30336 net.cpp:129] Top shape: 20 192 14 14 (752640)
I1128 19:31:38.131278 30336 net.cpp:137] Memory required for data: 289202160
I1128 19:31:38.131294 30336 layer_factory.hpp:77] Creating layer Convolution12
I1128 19:31:38.131304 30336 net.cpp:84] Creating Layer Convolution12
I1128 19:31:38.131307 30336 net.cpp:406] Convolution12 <- Convolution11
I1128 19:31:38.131314 30336 net.cpp:380] Convolution12 -> Convolution12
I1128 19:31:38.134948 30336 net.cpp:122] Setting up Convolution12
I1128 19:31:38.134956 30336 net.cpp:129] Top shape: 20 192 14 14 (752640)
I1128 19:31:38.134960 30336 net.cpp:137] Memory required for data: 292212720
I1128 19:31:38.134966 30336 layer_factory.hpp:77] Creating layer BatchNorm12
I1128 19:31:38.134974 30336 net.cpp:84] Creating Layer BatchNorm12
I1128 19:31:38.134979 30336 net.cpp:406] BatchNorm12 <- Convolution12
I1128 19:31:38.134982 30336 net.cpp:367] BatchNorm12 -> Convolution12 (in-place)
I1128 19:31:38.135179 30336 net.cpp:122] Setting up BatchNorm12
I1128 19:31:38.135184 30336 net.cpp:129] Top shape: 20 192 14 14 (752640)
I1128 19:31:38.135186 30336 net.cpp:137] Memory required for data: 295223280
I1128 19:31:38.135192 30336 layer_factory.hpp:77] Creating layer Scale12
I1128 19:31:38.135205 30336 net.cpp:84] Creating Layer Scale12
I1128 19:31:38.135210 30336 net.cpp:406] Scale12 <- Convolution12
I1128 19:31:38.135215 30336 net.cpp:367] Scale12 -> Convolution12 (in-place)
I1128 19:31:38.135251 30336 layer_factory.hpp:77] Creating layer Scale12
I1128 19:31:38.135342 30336 net.cpp:122] Setting up Scale12
I1128 19:31:38.135349 30336 net.cpp:129] Top shape: 20 192 14 14 (752640)
I1128 19:31:38.135351 30336 net.cpp:137] Memory required for data: 298233840
I1128 19:31:38.135356 30336 layer_factory.hpp:77] Creating layer Eltwise5
I1128 19:31:38.135362 30336 net.cpp:84] Creating Layer Eltwise5
I1128 19:31:38.135366 30336 net.cpp:406] Eltwise5 <- Convolution12
I1128 19:31:38.135370 30336 net.cpp:406] Eltwise5 <- Eltwise4_ReLU9_0_split_1
I1128 19:31:38.135376 30336 net.cpp:380] Eltwise5 -> Eltwise5
I1128 19:31:38.135398 30336 net.cpp:122] Setting up Eltwise5
I1128 19:31:38.135403 30336 net.cpp:129] Top shape: 20 192 14 14 (752640)
I1128 19:31:38.135406 30336 net.cpp:137] Memory required for data: 301244400
I1128 19:31:38.135411 30336 layer_factory.hpp:77] Creating layer ReLU11
I1128 19:31:38.135416 30336 net.cpp:84] Creating Layer ReLU11
I1128 19:31:38.135421 30336 net.cpp:406] ReLU11 <- Eltwise5
I1128 19:31:38.135424 30336 net.cpp:367] ReLU11 -> Eltwise5 (in-place)
I1128 19:31:38.135545 30336 net.cpp:122] Setting up ReLU11
I1128 19:31:38.135551 30336 net.cpp:129] Top shape: 20 192 14 14 (752640)
I1128 19:31:38.135555 30336 net.cpp:137] Memory required for data: 304254960
I1128 19:31:38.135557 30336 layer_factory.hpp:77] Creating layer Eltwise5_ReLU11_0_split
I1128 19:31:38.135563 30336 net.cpp:84] Creating Layer Eltwise5_ReLU11_0_split
I1128 19:31:38.135567 30336 net.cpp:406] Eltwise5_ReLU11_0_split <- Eltwise5
I1128 19:31:38.135572 30336 net.cpp:380] Eltwise5_ReLU11_0_split -> Eltwise5_ReLU11_0_split_0
I1128 19:31:38.135581 30336 net.cpp:380] Eltwise5_ReLU11_0_split -> Eltwise5_ReLU11_0_split_1
I1128 19:31:38.135625 30336 net.cpp:122] Setting up Eltwise5_ReLU11_0_split
I1128 19:31:38.135632 30336 net.cpp:129] Top shape: 20 192 14 14 (752640)
I1128 19:31:38.135637 30336 net.cpp:129] Top shape: 20 192 14 14 (752640)
I1128 19:31:38.135641 30336 net.cpp:137] Memory required for data: 310276080
I1128 19:31:38.135644 30336 layer_factory.hpp:77] Creating layer Convolution13
I1128 19:31:38.135654 30336 net.cpp:84] Creating Layer Convolution13
I1128 19:31:38.135658 30336 net.cpp:406] Convolution13 <- Eltwise5_ReLU11_0_split_0
I1128 19:31:38.135663 30336 net.cpp:380] Convolution13 -> Convolution13
I1128 19:31:38.139230 30336 net.cpp:122] Setting up Convolution13
I1128 19:31:38.139240 30336 net.cpp:129] Top shape: 20 192 14 14 (752640)
I1128 19:31:38.139243 30336 net.cpp:137] Memory required for data: 313286640
I1128 19:31:38.139250 30336 layer_factory.hpp:77] Creating layer BatchNorm13
I1128 19:31:38.139256 30336 net.cpp:84] Creating Layer BatchNorm13
I1128 19:31:38.139259 30336 net.cpp:406] BatchNorm13 <- Convolution13
I1128 19:31:38.139266 30336 net.cpp:367] BatchNorm13 -> Convolution13 (in-place)
I1128 19:31:38.139430 30336 net.cpp:122] Setting up BatchNorm13
I1128 19:31:38.139436 30336 net.cpp:129] Top shape: 20 192 14 14 (752640)
I1128 19:31:38.139438 30336 net.cpp:137] Memory required for data: 316297200
I1128 19:31:38.139446 30336 layer_factory.hpp:77] Creating layer Scale13
I1128 19:31:38.139451 30336 net.cpp:84] Creating Layer Scale13
I1128 19:31:38.139456 30336 net.cpp:406] Scale13 <- Convolution13
I1128 19:31:38.139461 30336 net.cpp:367] Scale13 -> Convolution13 (in-place)
I1128 19:31:38.139497 30336 layer_factory.hpp:77] Creating layer Scale13
I1128 19:31:38.139588 30336 net.cpp:122] Setting up Scale13
I1128 19:31:38.139595 30336 net.cpp:129] Top shape: 20 192 14 14 (752640)
I1128 19:31:38.139597 30336 net.cpp:137] Memory required for data: 319307760
I1128 19:31:38.139602 30336 layer_factory.hpp:77] Creating layer ReLU12
I1128 19:31:38.139607 30336 net.cpp:84] Creating Layer ReLU12
I1128 19:31:38.139611 30336 net.cpp:406] ReLU12 <- Convolution13
I1128 19:31:38.139657 30336 net.cpp:367] ReLU12 -> Convolution13 (in-place)
I1128 19:31:38.139796 30336 net.cpp:122] Setting up ReLU12
I1128 19:31:38.139803 30336 net.cpp:129] Top shape: 20 192 14 14 (752640)
I1128 19:31:38.139806 30336 net.cpp:137] Memory required for data: 322318320
I1128 19:31:38.139809 30336 layer_factory.hpp:77] Creating layer Convolution14
I1128 19:31:38.139823 30336 net.cpp:84] Creating Layer Convolution14
I1128 19:31:38.139827 30336 net.cpp:406] Convolution14 <- Convolution13
I1128 19:31:38.139832 30336 net.cpp:380] Convolution14 -> Convolution14
I1128 19:31:38.143421 30336 net.cpp:122] Setting up Convolution14
I1128 19:31:38.143431 30336 net.cpp:129] Top shape: 20 192 14 14 (752640)
I1128 19:31:38.143435 30336 net.cpp:137] Memory required for data: 325328880
I1128 19:31:38.143442 30336 layer_factory.hpp:77] Creating layer BatchNorm14
I1128 19:31:38.143450 30336 net.cpp:84] Creating Layer BatchNorm14
I1128 19:31:38.143453 30336 net.cpp:406] BatchNorm14 <- Convolution14
I1128 19:31:38.143458 30336 net.cpp:367] BatchNorm14 -> Convolution14 (in-place)
I1128 19:31:38.143631 30336 net.cpp:122] Setting up BatchNorm14
I1128 19:31:38.143637 30336 net.cpp:129] Top shape: 20 192 14 14 (752640)
I1128 19:31:38.143640 30336 net.cpp:137] Memory required for data: 328339440
I1128 19:31:38.143666 30336 layer_factory.hpp:77] Creating layer Scale14
I1128 19:31:38.143672 30336 net.cpp:84] Creating Layer Scale14
I1128 19:31:38.143677 30336 net.cpp:406] Scale14 <- Convolution14
I1128 19:31:38.143682 30336 net.cpp:367] Scale14 -> Convolution14 (in-place)
I1128 19:31:38.143731 30336 layer_factory.hpp:77] Creating layer Scale14
I1128 19:31:38.143826 30336 net.cpp:122] Setting up Scale14
I1128 19:31:38.143831 30336 net.cpp:129] Top shape: 20 192 14 14 (752640)
I1128 19:31:38.143834 30336 net.cpp:137] Memory required for data: 331350000
I1128 19:31:38.143839 30336 layer_factory.hpp:77] Creating layer Eltwise6
I1128 19:31:38.143847 30336 net.cpp:84] Creating Layer Eltwise6
I1128 19:31:38.143851 30336 net.cpp:406] Eltwise6 <- Convolution14
I1128 19:31:38.143856 30336 net.cpp:406] Eltwise6 <- Eltwise5_ReLU11_0_split_1
I1128 19:31:38.143862 30336 net.cpp:380] Eltwise6 -> Eltwise6
I1128 19:31:38.143883 30336 net.cpp:122] Setting up Eltwise6
I1128 19:31:38.143889 30336 net.cpp:129] Top shape: 20 192 14 14 (752640)
I1128 19:31:38.143892 30336 net.cpp:137] Memory required for data: 334360560
I1128 19:31:38.143894 30336 layer_factory.hpp:77] Creating layer ReLU13
I1128 19:31:38.143900 30336 net.cpp:84] Creating Layer ReLU13
I1128 19:31:38.143903 30336 net.cpp:406] ReLU13 <- Eltwise6
I1128 19:31:38.143909 30336 net.cpp:367] ReLU13 -> Eltwise6 (in-place)
I1128 19:31:38.144033 30336 net.cpp:122] Setting up ReLU13
I1128 19:31:38.144040 30336 net.cpp:129] Top shape: 20 192 14 14 (752640)
I1128 19:31:38.144043 30336 net.cpp:137] Memory required for data: 337371120
I1128 19:31:38.144047 30336 layer_factory.hpp:77] Creating layer Eltwise6_ReLU13_0_split
I1128 19:31:38.144052 30336 net.cpp:84] Creating Layer Eltwise6_ReLU13_0_split
I1128 19:31:38.144057 30336 net.cpp:406] Eltwise6_ReLU13_0_split <- Eltwise6
I1128 19:31:38.144062 30336 net.cpp:380] Eltwise6_ReLU13_0_split -> Eltwise6_ReLU13_0_split_0
I1128 19:31:38.144068 30336 net.cpp:380] Eltwise6_ReLU13_0_split -> Eltwise6_ReLU13_0_split_1
I1128 19:31:38.144104 30336 net.cpp:122] Setting up Eltwise6_ReLU13_0_split
I1128 19:31:38.144109 30336 net.cpp:129] Top shape: 20 192 14 14 (752640)
I1128 19:31:38.144114 30336 net.cpp:129] Top shape: 20 192 14 14 (752640)
I1128 19:31:38.144115 30336 net.cpp:137] Memory required for data: 343392240
I1128 19:31:38.144119 30336 layer_factory.hpp:77] Creating layer Convolution15
I1128 19:31:38.144127 30336 net.cpp:84] Creating Layer Convolution15
I1128 19:31:38.144130 30336 net.cpp:406] Convolution15 <- Eltwise6_ReLU13_0_split_0
I1128 19:31:38.144137 30336 net.cpp:380] Convolution15 -> Convolution15
I1128 19:31:38.149659 30336 net.cpp:122] Setting up Convolution15
I1128 19:31:38.149670 30336 net.cpp:129] Top shape: 20 384 7 7 (376320)
I1128 19:31:38.149685 30336 net.cpp:137] Memory required for data: 344897520
I1128 19:31:38.149691 30336 layer_factory.hpp:77] Creating layer BatchNorm15
I1128 19:31:38.149698 30336 net.cpp:84] Creating Layer BatchNorm15
I1128 19:31:38.149703 30336 net.cpp:406] BatchNorm15 <- Convolution15
I1128 19:31:38.149709 30336 net.cpp:367] BatchNorm15 -> Convolution15 (in-place)
I1128 19:31:38.149871 30336 net.cpp:122] Setting up BatchNorm15
I1128 19:31:38.149878 30336 net.cpp:129] Top shape: 20 384 7 7 (376320)
I1128 19:31:38.149881 30336 net.cpp:137] Memory required for data: 346402800
I1128 19:31:38.149888 30336 layer_factory.hpp:77] Creating layer Scale15
I1128 19:31:38.149893 30336 net.cpp:84] Creating Layer Scale15
I1128 19:31:38.149896 30336 net.cpp:406] Scale15 <- Convolution15
I1128 19:31:38.149902 30336 net.cpp:367] Scale15 -> Convolution15 (in-place)
I1128 19:31:38.149935 30336 layer_factory.hpp:77] Creating layer Scale15
I1128 19:31:38.150028 30336 net.cpp:122] Setting up Scale15
I1128 19:31:38.150034 30336 net.cpp:129] Top shape: 20 384 7 7 (376320)
I1128 19:31:38.150039 30336 net.cpp:137] Memory required for data: 347908080
I1128 19:31:38.150044 30336 layer_factory.hpp:77] Creating layer ReLU14
I1128 19:31:38.150049 30336 net.cpp:84] Creating Layer ReLU14
I1128 19:31:38.150053 30336 net.cpp:406] ReLU14 <- Convolution15
I1128 19:31:38.150058 30336 net.cpp:367] ReLU14 -> Convolution15 (in-place)
I1128 19:31:38.150183 30336 net.cpp:122] Setting up ReLU14
I1128 19:31:38.150189 30336 net.cpp:129] Top shape: 20 384 7 7 (376320)
I1128 19:31:38.150192 30336 net.cpp:137] Memory required for data: 349413360
I1128 19:31:38.150197 30336 layer_factory.hpp:77] Creating layer Convolution16
I1128 19:31:38.150205 30336 net.cpp:84] Creating Layer Convolution16
I1128 19:31:38.150208 30336 net.cpp:406] Convolution16 <- Convolution15
I1128 19:31:38.150213 30336 net.cpp:380] Convolution16 -> Convolution16
I1128 19:31:38.160917 30336 net.cpp:122] Setting up Convolution16
I1128 19:31:38.160938 30336 net.cpp:129] Top shape: 20 384 7 7 (376320)
I1128 19:31:38.160941 30336 net.cpp:137] Memory required for data: 350918640
I1128 19:31:38.160948 30336 layer_factory.hpp:77] Creating layer BatchNorm16
I1128 19:31:38.160957 30336 net.cpp:84] Creating Layer BatchNorm16
I1128 19:31:38.160964 30336 net.cpp:406] BatchNorm16 <- Convolution16
I1128 19:31:38.160972 30336 net.cpp:367] BatchNorm16 -> Convolution16 (in-place)
I1128 19:31:38.161206 30336 net.cpp:122] Setting up BatchNorm16
I1128 19:31:38.161211 30336 net.cpp:129] Top shape: 20 384 7 7 (376320)
I1128 19:31:38.161214 30336 net.cpp:137] Memory required for data: 352423920
I1128 19:31:38.161221 30336 layer_factory.hpp:77] Creating layer Scale16
I1128 19:31:38.161227 30336 net.cpp:84] Creating Layer Scale16
I1128 19:31:38.161231 30336 net.cpp:406] Scale16 <- Convolution16
I1128 19:31:38.161237 30336 net.cpp:367] Scale16 -> Convolution16 (in-place)
I1128 19:31:38.161303 30336 layer_factory.hpp:77] Creating layer Scale16
I1128 19:31:38.161396 30336 net.cpp:122] Setting up Scale16
I1128 19:31:38.161402 30336 net.cpp:129] Top shape: 20 384 7 7 (376320)
I1128 19:31:38.161406 30336 net.cpp:137] Memory required for data: 353929200
I1128 19:31:38.161411 30336 layer_factory.hpp:77] Creating layer Convolution17
I1128 19:31:38.161443 30336 net.cpp:84] Creating Layer Convolution17
I1128 19:31:38.161448 30336 net.cpp:406] Convolution17 <- Eltwise6_ReLU13_0_split_1
I1128 19:31:38.161456 30336 net.cpp:380] Convolution17 -> Convolution17
I1128 19:31:38.162726 30336 net.cpp:122] Setting up Convolution17
I1128 19:31:38.162735 30336 net.cpp:129] Top shape: 20 384 7 7 (376320)
I1128 19:31:38.162739 30336 net.cpp:137] Memory required for data: 355434480
I1128 19:31:38.162745 30336 layer_factory.hpp:77] Creating layer BatchNorm17
I1128 19:31:38.162751 30336 net.cpp:84] Creating Layer BatchNorm17
I1128 19:31:38.162755 30336 net.cpp:406] BatchNorm17 <- Convolution17
I1128 19:31:38.162761 30336 net.cpp:367] BatchNorm17 -> Convolution17 (in-place)
I1128 19:31:38.162928 30336 net.cpp:122] Setting up BatchNorm17
I1128 19:31:38.162935 30336 net.cpp:129] Top shape: 20 384 7 7 (376320)
I1128 19:31:38.162959 30336 net.cpp:137] Memory required for data: 356939760
I1128 19:31:38.162966 30336 layer_factory.hpp:77] Creating layer Scale17
I1128 19:31:38.162972 30336 net.cpp:84] Creating Layer Scale17
I1128 19:31:38.162976 30336 net.cpp:406] Scale17 <- Convolution17
I1128 19:31:38.162982 30336 net.cpp:367] Scale17 -> Convolution17 (in-place)
I1128 19:31:38.163014 30336 layer_factory.hpp:77] Creating layer Scale17
I1128 19:31:38.163143 30336 net.cpp:122] Setting up Scale17
I1128 19:31:38.163151 30336 net.cpp:129] Top shape: 20 384 7 7 (376320)
I1128 19:31:38.163166 30336 net.cpp:137] Memory required for data: 358445040
I1128 19:31:38.163172 30336 layer_factory.hpp:77] Creating layer Eltwise7
I1128 19:31:38.163178 30336 net.cpp:84] Creating Layer Eltwise7
I1128 19:31:38.163182 30336 net.cpp:406] Eltwise7 <- Convolution16
I1128 19:31:38.163185 30336 net.cpp:406] Eltwise7 <- Convolution17
I1128 19:31:38.163192 30336 net.cpp:380] Eltwise7 -> Eltwise7
I1128 19:31:38.163214 30336 net.cpp:122] Setting up Eltwise7
I1128 19:31:38.163220 30336 net.cpp:129] Top shape: 20 384 7 7 (376320)
I1128 19:31:38.163223 30336 net.cpp:137] Memory required for data: 359950320
I1128 19:31:38.163225 30336 layer_factory.hpp:77] Creating layer ReLU15
I1128 19:31:38.163231 30336 net.cpp:84] Creating Layer ReLU15
I1128 19:31:38.163235 30336 net.cpp:406] ReLU15 <- Eltwise7
I1128 19:31:38.163240 30336 net.cpp:367] ReLU15 -> Eltwise7 (in-place)
I1128 19:31:38.163359 30336 net.cpp:122] Setting up ReLU15
I1128 19:31:38.163367 30336 net.cpp:129] Top shape: 20 384 7 7 (376320)
I1128 19:31:38.163369 30336 net.cpp:137] Memory required for data: 361455600
I1128 19:31:38.163372 30336 layer_factory.hpp:77] Creating layer Eltwise7_ReLU15_0_split
I1128 19:31:38.163378 30336 net.cpp:84] Creating Layer Eltwise7_ReLU15_0_split
I1128 19:31:38.163380 30336 net.cpp:406] Eltwise7_ReLU15_0_split <- Eltwise7
I1128 19:31:38.163386 30336 net.cpp:380] Eltwise7_ReLU15_0_split -> Eltwise7_ReLU15_0_split_0
I1128 19:31:38.163393 30336 net.cpp:380] Eltwise7_ReLU15_0_split -> Eltwise7_ReLU15_0_split_1
I1128 19:31:38.163429 30336 net.cpp:122] Setting up Eltwise7_ReLU15_0_split
I1128 19:31:38.163434 30336 net.cpp:129] Top shape: 20 384 7 7 (376320)
I1128 19:31:38.163439 30336 net.cpp:129] Top shape: 20 384 7 7 (376320)
I1128 19:31:38.163441 30336 net.cpp:137] Memory required for data: 364466160
I1128 19:31:38.163444 30336 layer_factory.hpp:77] Creating layer Convolution18
I1128 19:31:38.163452 30336 net.cpp:84] Creating Layer Convolution18
I1128 19:31:38.163456 30336 net.cpp:406] Convolution18 <- Eltwise7_ReLU15_0_split_0
I1128 19:31:38.163463 30336 net.cpp:380] Convolution18 -> Convolution18
I1128 19:31:38.173764 30336 net.cpp:122] Setting up Convolution18
I1128 19:31:38.173781 30336 net.cpp:129] Top shape: 20 384 7 7 (376320)
I1128 19:31:38.173784 30336 net.cpp:137] Memory required for data: 365971440
I1128 19:31:38.173794 30336 layer_factory.hpp:77] Creating layer BatchNorm18
I1128 19:31:38.173802 30336 net.cpp:84] Creating Layer BatchNorm18
I1128 19:31:38.173806 30336 net.cpp:406] BatchNorm18 <- Convolution18
I1128 19:31:38.173813 30336 net.cpp:367] BatchNorm18 -> Convolution18 (in-place)
I1128 19:31:38.173979 30336 net.cpp:122] Setting up BatchNorm18
I1128 19:31:38.173985 30336 net.cpp:129] Top shape: 20 384 7 7 (376320)
I1128 19:31:38.173987 30336 net.cpp:137] Memory required for data: 367476720
I1128 19:31:38.173995 30336 layer_factory.hpp:77] Creating layer Scale18
I1128 19:31:38.174001 30336 net.cpp:84] Creating Layer Scale18
I1128 19:31:38.174005 30336 net.cpp:406] Scale18 <- Convolution18
I1128 19:31:38.174010 30336 net.cpp:367] Scale18 -> Convolution18 (in-place)
I1128 19:31:38.174046 30336 layer_factory.hpp:77] Creating layer Scale18
I1128 19:31:38.174145 30336 net.cpp:122] Setting up Scale18
I1128 19:31:38.174151 30336 net.cpp:129] Top shape: 20 384 7 7 (376320)
I1128 19:31:38.174154 30336 net.cpp:137] Memory required for data: 368982000
I1128 19:31:38.174160 30336 layer_factory.hpp:77] Creating layer ReLU16
I1128 19:31:38.174176 30336 net.cpp:84] Creating Layer ReLU16
I1128 19:31:38.174180 30336 net.cpp:406] ReLU16 <- Convolution18
I1128 19:31:38.174185 30336 net.cpp:367] ReLU16 -> Convolution18 (in-place)
I1128 19:31:38.174533 30336 net.cpp:122] Setting up ReLU16
I1128 19:31:38.174541 30336 net.cpp:129] Top shape: 20 384 7 7 (376320)
I1128 19:31:38.174545 30336 net.cpp:137] Memory required for data: 370487280
I1128 19:31:38.174547 30336 layer_factory.hpp:77] Creating layer Convolution19
I1128 19:31:38.174557 30336 net.cpp:84] Creating Layer Convolution19
I1128 19:31:38.174561 30336 net.cpp:406] Convolution19 <- Convolution18
I1128 19:31:38.174568 30336 net.cpp:380] Convolution19 -> Convolution19
I1128 19:31:38.184765 30336 net.cpp:122] Setting up Convolution19
I1128 19:31:38.184782 30336 net.cpp:129] Top shape: 20 384 7 7 (376320)
I1128 19:31:38.184785 30336 net.cpp:137] Memory required for data: 371992560
I1128 19:31:38.184792 30336 layer_factory.hpp:77] Creating layer BatchNorm19
I1128 19:31:38.184801 30336 net.cpp:84] Creating Layer BatchNorm19
I1128 19:31:38.184806 30336 net.cpp:406] BatchNorm19 <- Convolution19
I1128 19:31:38.184813 30336 net.cpp:367] BatchNorm19 -> Convolution19 (in-place)
I1128 19:31:38.184984 30336 net.cpp:122] Setting up BatchNorm19
I1128 19:31:38.184989 30336 net.cpp:129] Top shape: 20 384 7 7 (376320)
I1128 19:31:38.184993 30336 net.cpp:137] Memory required for data: 373497840
I1128 19:31:38.185009 30336 layer_factory.hpp:77] Creating layer Scale19
I1128 19:31:38.185015 30336 net.cpp:84] Creating Layer Scale19
I1128 19:31:38.185019 30336 net.cpp:406] Scale19 <- Convolution19
I1128 19:31:38.185024 30336 net.cpp:367] Scale19 -> Convolution19 (in-place)
I1128 19:31:38.185060 30336 layer_factory.hpp:77] Creating layer Scale19
I1128 19:31:38.185158 30336 net.cpp:122] Setting up Scale19
I1128 19:31:38.185164 30336 net.cpp:129] Top shape: 20 384 7 7 (376320)
I1128 19:31:38.185168 30336 net.cpp:137] Memory required for data: 375003120
I1128 19:31:38.185173 30336 layer_factory.hpp:77] Creating layer Eltwise8
I1128 19:31:38.185179 30336 net.cpp:84] Creating Layer Eltwise8
I1128 19:31:38.185184 30336 net.cpp:406] Eltwise8 <- Convolution19
I1128 19:31:38.185189 30336 net.cpp:406] Eltwise8 <- Eltwise7_ReLU15_0_split_1
I1128 19:31:38.185194 30336 net.cpp:380] Eltwise8 -> Eltwise8
I1128 19:31:38.185217 30336 net.cpp:122] Setting up Eltwise8
I1128 19:31:38.185222 30336 net.cpp:129] Top shape: 20 384 7 7 (376320)
I1128 19:31:38.185225 30336 net.cpp:137] Memory required for data: 376508400
I1128 19:31:38.185228 30336 layer_factory.hpp:77] Creating layer ReLU17
I1128 19:31:38.185235 30336 net.cpp:84] Creating Layer ReLU17
I1128 19:31:38.185238 30336 net.cpp:406] ReLU17 <- Eltwise8
I1128 19:31:38.185243 30336 net.cpp:367] ReLU17 -> Eltwise8 (in-place)
I1128 19:31:38.185365 30336 net.cpp:122] Setting up ReLU17
I1128 19:31:38.185372 30336 net.cpp:129] Top shape: 20 384 7 7 (376320)
I1128 19:31:38.185375 30336 net.cpp:137] Memory required for data: 378013680
I1128 19:31:38.185377 30336 layer_factory.hpp:77] Creating layer Eltwise8_ReLU17_0_split
I1128 19:31:38.185384 30336 net.cpp:84] Creating Layer Eltwise8_ReLU17_0_split
I1128 19:31:38.185387 30336 net.cpp:406] Eltwise8_ReLU17_0_split <- Eltwise8
I1128 19:31:38.185394 30336 net.cpp:380] Eltwise8_ReLU17_0_split -> Eltwise8_ReLU17_0_split_0
I1128 19:31:38.185400 30336 net.cpp:380] Eltwise8_ReLU17_0_split -> Eltwise8_ReLU17_0_split_1
I1128 19:31:38.185462 30336 net.cpp:122] Setting up Eltwise8_ReLU17_0_split
I1128 19:31:38.185468 30336 net.cpp:129] Top shape: 20 384 7 7 (376320)
I1128 19:31:38.185472 30336 net.cpp:129] Top shape: 20 384 7 7 (376320)
I1128 19:31:38.185475 30336 net.cpp:137] Memory required for data: 381024240
I1128 19:31:38.185477 30336 layer_factory.hpp:77] Creating layer Convolution20
I1128 19:31:38.185487 30336 net.cpp:84] Creating Layer Convolution20
I1128 19:31:38.185490 30336 net.cpp:406] Convolution20 <- Eltwise8_ReLU17_0_split_0
I1128 19:31:38.185519 30336 net.cpp:380] Convolution20 -> Convolution20
I1128 19:31:38.196123 30336 net.cpp:122] Setting up Convolution20
I1128 19:31:38.196158 30336 net.cpp:129] Top shape: 20 384 7 7 (376320)
I1128 19:31:38.196161 30336 net.cpp:137] Memory required for data: 382529520
I1128 19:31:38.196182 30336 layer_factory.hpp:77] Creating layer BatchNorm20
I1128 19:31:38.196192 30336 net.cpp:84] Creating Layer BatchNorm20
I1128 19:31:38.196197 30336 net.cpp:406] BatchNorm20 <- Convolution20
I1128 19:31:38.196204 30336 net.cpp:367] BatchNorm20 -> Convolution20 (in-place)
I1128 19:31:38.196383 30336 net.cpp:122] Setting up BatchNorm20
I1128 19:31:38.196389 30336 net.cpp:129] Top shape: 20 384 7 7 (376320)
I1128 19:31:38.196393 30336 net.cpp:137] Memory required for data: 384034800
I1128 19:31:38.196413 30336 layer_factory.hpp:77] Creating layer Scale20
I1128 19:31:38.196419 30336 net.cpp:84] Creating Layer Scale20
I1128 19:31:38.196424 30336 net.cpp:406] Scale20 <- Convolution20
I1128 19:31:38.196429 30336 net.cpp:367] Scale20 -> Convolution20 (in-place)
I1128 19:31:38.196465 30336 layer_factory.hpp:77] Creating layer Scale20
I1128 19:31:38.196573 30336 net.cpp:122] Setting up Scale20
I1128 19:31:38.196578 30336 net.cpp:129] Top shape: 20 384 7 7 (376320)
I1128 19:31:38.196581 30336 net.cpp:137] Memory required for data: 385540080
I1128 19:31:38.196601 30336 layer_factory.hpp:77] Creating layer ReLU18
I1128 19:31:38.196609 30336 net.cpp:84] Creating Layer ReLU18
I1128 19:31:38.196611 30336 net.cpp:406] ReLU18 <- Convolution20
I1128 19:31:38.196616 30336 net.cpp:367] ReLU18 -> Convolution20 (in-place)
I1128 19:31:38.196740 30336 net.cpp:122] Setting up ReLU18
I1128 19:31:38.196748 30336 net.cpp:129] Top shape: 20 384 7 7 (376320)
I1128 19:31:38.196750 30336 net.cpp:137] Memory required for data: 387045360
I1128 19:31:38.196753 30336 layer_factory.hpp:77] Creating layer Convolution21
I1128 19:31:38.196763 30336 net.cpp:84] Creating Layer Convolution21
I1128 19:31:38.196765 30336 net.cpp:406] Convolution21 <- Convolution20
I1128 19:31:38.196772 30336 net.cpp:380] Convolution21 -> Convolution21
I1128 19:31:38.206940 30336 net.cpp:122] Setting up Convolution21
I1128 19:31:38.206956 30336 net.cpp:129] Top shape: 20 384 7 7 (376320)
I1128 19:31:38.206959 30336 net.cpp:137] Memory required for data: 388550640
I1128 19:31:38.206979 30336 layer_factory.hpp:77] Creating layer BatchNorm21
I1128 19:31:38.206990 30336 net.cpp:84] Creating Layer BatchNorm21
I1128 19:31:38.206995 30336 net.cpp:406] BatchNorm21 <- Convolution21
I1128 19:31:38.207000 30336 net.cpp:367] BatchNorm21 -> Convolution21 (in-place)
I1128 19:31:38.207185 30336 net.cpp:122] Setting up BatchNorm21
I1128 19:31:38.207190 30336 net.cpp:129] Top shape: 20 384 7 7 (376320)
I1128 19:31:38.207193 30336 net.cpp:137] Memory required for data: 390055920
I1128 19:31:38.207212 30336 layer_factory.hpp:77] Creating layer Scale21
I1128 19:31:38.207218 30336 net.cpp:84] Creating Layer Scale21
I1128 19:31:38.207223 30336 net.cpp:406] Scale21 <- Convolution21
I1128 19:31:38.207229 30336 net.cpp:367] Scale21 -> Convolution21 (in-place)
I1128 19:31:38.207267 30336 layer_factory.hpp:77] Creating layer Scale21
I1128 19:31:38.207365 30336 net.cpp:122] Setting up Scale21
I1128 19:31:38.207371 30336 net.cpp:129] Top shape: 20 384 7 7 (376320)
I1128 19:31:38.207375 30336 net.cpp:137] Memory required for data: 391561200
I1128 19:31:38.207379 30336 layer_factory.hpp:77] Creating layer Eltwise9
I1128 19:31:38.207386 30336 net.cpp:84] Creating Layer Eltwise9
I1128 19:31:38.207389 30336 net.cpp:406] Eltwise9 <- Convolution21
I1128 19:31:38.207393 30336 net.cpp:406] Eltwise9 <- Eltwise8_ReLU17_0_split_1
I1128 19:31:38.207399 30336 net.cpp:380] Eltwise9 -> Eltwise9
I1128 19:31:38.207422 30336 net.cpp:122] Setting up Eltwise9
I1128 19:31:38.207428 30336 net.cpp:129] Top shape: 20 384 7 7 (376320)
I1128 19:31:38.207432 30336 net.cpp:137] Memory required for data: 393066480
I1128 19:31:38.207434 30336 layer_factory.hpp:77] Creating layer ReLU19
I1128 19:31:38.207438 30336 net.cpp:84] Creating Layer ReLU19
I1128 19:31:38.207443 30336 net.cpp:406] ReLU19 <- Eltwise9
I1128 19:31:38.207449 30336 net.cpp:367] ReLU19 -> Eltwise9 (in-place)
I1128 19:31:38.207582 30336 net.cpp:122] Setting up ReLU19
I1128 19:31:38.207588 30336 net.cpp:129] Top shape: 20 384 7 7 (376320)
I1128 19:31:38.207592 30336 net.cpp:137] Memory required for data: 394571760
I1128 19:31:38.207594 30336 layer_factory.hpp:77] Creating layer Eltwise9_ReLU19_0_split
I1128 19:31:38.207600 30336 net.cpp:84] Creating Layer Eltwise9_ReLU19_0_split
I1128 19:31:38.207604 30336 net.cpp:406] Eltwise9_ReLU19_0_split <- Eltwise9
I1128 19:31:38.207610 30336 net.cpp:380] Eltwise9_ReLU19_0_split -> Eltwise9_ReLU19_0_split_0
I1128 19:31:38.207643 30336 net.cpp:380] Eltwise9_ReLU19_0_split -> Eltwise9_ReLU19_0_split_1
I1128 19:31:38.207697 30336 net.cpp:122] Setting up Eltwise9_ReLU19_0_split
I1128 19:31:38.207703 30336 net.cpp:129] Top shape: 20 384 7 7 (376320)
I1128 19:31:38.207707 30336 net.cpp:129] Top shape: 20 384 7 7 (376320)
I1128 19:31:38.207710 30336 net.cpp:137] Memory required for data: 397582320
I1128 19:31:38.207715 30336 layer_factory.hpp:77] Creating layer Convolution22
I1128 19:31:38.207722 30336 net.cpp:84] Creating Layer Convolution22
I1128 19:31:38.207726 30336 net.cpp:406] Convolution22 <- Eltwise9_ReLU19_0_split_0
I1128 19:31:38.207731 30336 net.cpp:380] Convolution22 -> Convolution22
I1128 19:31:38.217929 30336 net.cpp:122] Setting up Convolution22
I1128 19:31:38.217947 30336 net.cpp:129] Top shape: 20 384 4 4 (122880)
I1128 19:31:38.217949 30336 net.cpp:137] Memory required for data: 398073840
I1128 19:31:38.217972 30336 layer_factory.hpp:77] Creating layer BatchNorm22
I1128 19:31:38.217980 30336 net.cpp:84] Creating Layer BatchNorm22
I1128 19:31:38.217985 30336 net.cpp:406] BatchNorm22 <- Convolution22
I1128 19:31:38.217993 30336 net.cpp:367] BatchNorm22 -> Convolution22 (in-place)
I1128 19:31:38.218163 30336 net.cpp:122] Setting up BatchNorm22
I1128 19:31:38.218169 30336 net.cpp:129] Top shape: 20 384 4 4 (122880)
I1128 19:31:38.218173 30336 net.cpp:137] Memory required for data: 398565360
I1128 19:31:38.218178 30336 layer_factory.hpp:77] Creating layer Scale22
I1128 19:31:38.218185 30336 net.cpp:84] Creating Layer Scale22
I1128 19:31:38.218191 30336 net.cpp:406] Scale22 <- Convolution22
I1128 19:31:38.218195 30336 net.cpp:367] Scale22 -> Convolution22 (in-place)
I1128 19:31:38.218243 30336 layer_factory.hpp:77] Creating layer Scale22
I1128 19:31:38.218365 30336 net.cpp:122] Setting up Scale22
I1128 19:31:38.218371 30336 net.cpp:129] Top shape: 20 384 4 4 (122880)
I1128 19:31:38.218374 30336 net.cpp:137] Memory required for data: 399056880
I1128 19:31:38.218394 30336 layer_factory.hpp:77] Creating layer ReLU20
I1128 19:31:38.218400 30336 net.cpp:84] Creating Layer ReLU20
I1128 19:31:38.218403 30336 net.cpp:406] ReLU20 <- Convolution22
I1128 19:31:38.218410 30336 net.cpp:367] ReLU20 -> Convolution22 (in-place)
I1128 19:31:38.218538 30336 net.cpp:122] Setting up ReLU20
I1128 19:31:38.218545 30336 net.cpp:129] Top shape: 20 384 4 4 (122880)
I1128 19:31:38.218549 30336 net.cpp:137] Memory required for data: 399548400
I1128 19:31:38.218552 30336 layer_factory.hpp:77] Creating layer Convolution23
I1128 19:31:38.218562 30336 net.cpp:84] Creating Layer Convolution23
I1128 19:31:38.218565 30336 net.cpp:406] Convolution23 <- Convolution22
I1128 19:31:38.218571 30336 net.cpp:380] Convolution23 -> Convolution23
I1128 19:31:38.229138 30336 net.cpp:122] Setting up Convolution23
I1128 19:31:38.229158 30336 net.cpp:129] Top shape: 20 384 4 4 (122880)
I1128 19:31:38.229161 30336 net.cpp:137] Memory required for data: 400039920
I1128 19:31:38.229183 30336 layer_factory.hpp:77] Creating layer BatchNorm23
I1128 19:31:38.229192 30336 net.cpp:84] Creating Layer BatchNorm23
I1128 19:31:38.229197 30336 net.cpp:406] BatchNorm23 <- Convolution23
I1128 19:31:38.229205 30336 net.cpp:367] BatchNorm23 -> Convolution23 (in-place)
I1128 19:31:38.229387 30336 net.cpp:122] Setting up BatchNorm23
I1128 19:31:38.229393 30336 net.cpp:129] Top shape: 20 384 4 4 (122880)
I1128 19:31:38.229396 30336 net.cpp:137] Memory required for data: 400531440
I1128 19:31:38.229416 30336 layer_factory.hpp:77] Creating layer Scale23
I1128 19:31:38.229432 30336 net.cpp:84] Creating Layer Scale23
I1128 19:31:38.229436 30336 net.cpp:406] Scale23 <- Convolution23
I1128 19:31:38.229442 30336 net.cpp:367] Scale23 -> Convolution23 (in-place)
I1128 19:31:38.229480 30336 layer_factory.hpp:77] Creating layer Scale23
I1128 19:31:38.229578 30336 net.cpp:122] Setting up Scale23
I1128 19:31:38.229583 30336 net.cpp:129] Top shape: 20 384 4 4 (122880)
I1128 19:31:38.229598 30336 net.cpp:137] Memory required for data: 401022960
I1128 19:31:38.229604 30336 layer_factory.hpp:77] Creating layer Convolution24
I1128 19:31:38.229627 30336 net.cpp:84] Creating Layer Convolution24
I1128 19:31:38.229631 30336 net.cpp:406] Convolution24 <- Eltwise9_ReLU19_0_split_1
I1128 19:31:38.229637 30336 net.cpp:380] Convolution24 -> Convolution24
I1128 19:31:38.231348 30336 net.cpp:122] Setting up Convolution24
I1128 19:31:38.231359 30336 net.cpp:129] Top shape: 20 384 4 4 (122880)
I1128 19:31:38.231361 30336 net.cpp:137] Memory required for data: 401514480
I1128 19:31:38.231366 30336 layer_factory.hpp:77] Creating layer BatchNorm24
I1128 19:31:38.231374 30336 net.cpp:84] Creating Layer BatchNorm24
I1128 19:31:38.231379 30336 net.cpp:406] BatchNorm24 <- Convolution24
I1128 19:31:38.231384 30336 net.cpp:367] BatchNorm24 -> Convolution24 (in-place)
I1128 19:31:38.231549 30336 net.cpp:122] Setting up BatchNorm24
I1128 19:31:38.231554 30336 net.cpp:129] Top shape: 20 384 4 4 (122880)
I1128 19:31:38.231557 30336 net.cpp:137] Memory required for data: 402006000
I1128 19:31:38.231564 30336 layer_factory.hpp:77] Creating layer Scale24
I1128 19:31:38.231568 30336 net.cpp:84] Creating Layer Scale24
I1128 19:31:38.231572 30336 net.cpp:406] Scale24 <- Convolution24
I1128 19:31:38.231578 30336 net.cpp:367] Scale24 -> Convolution24 (in-place)
I1128 19:31:38.231611 30336 layer_factory.hpp:77] Creating layer Scale24
I1128 19:31:38.231753 30336 net.cpp:122] Setting up Scale24
I1128 19:31:38.231760 30336 net.cpp:129] Top shape: 20 384 4 4 (122880)
I1128 19:31:38.231763 30336 net.cpp:137] Memory required for data: 402497520
I1128 19:31:38.231770 30336 layer_factory.hpp:77] Creating layer Eltwise10
I1128 19:31:38.231776 30336 net.cpp:84] Creating Layer Eltwise10
I1128 19:31:38.231779 30336 net.cpp:406] Eltwise10 <- Convolution23
I1128 19:31:38.231784 30336 net.cpp:406] Eltwise10 <- Convolution24
I1128 19:31:38.231791 30336 net.cpp:380] Eltwise10 -> Eltwise10
I1128 19:31:38.231812 30336 net.cpp:122] Setting up Eltwise10
I1128 19:31:38.231817 30336 net.cpp:129] Top shape: 20 384 4 4 (122880)
I1128 19:31:38.231822 30336 net.cpp:137] Memory required for data: 402989040
I1128 19:31:38.231824 30336 layer_factory.hpp:77] Creating layer ReLU21
I1128 19:31:38.231830 30336 net.cpp:84] Creating Layer ReLU21
I1128 19:31:38.231834 30336 net.cpp:406] ReLU21 <- Eltwise10
I1128 19:31:38.231838 30336 net.cpp:367] ReLU21 -> Eltwise10 (in-place)
I1128 19:31:38.231961 30336 net.cpp:122] Setting up ReLU21
I1128 19:31:38.231966 30336 net.cpp:129] Top shape: 20 384 4 4 (122880)
I1128 19:31:38.231969 30336 net.cpp:137] Memory required for data: 403480560
I1128 19:31:38.231972 30336 layer_factory.hpp:77] Creating layer Eltwise10_ReLU21_0_split
I1128 19:31:38.231978 30336 net.cpp:84] Creating Layer Eltwise10_ReLU21_0_split
I1128 19:31:38.231982 30336 net.cpp:406] Eltwise10_ReLU21_0_split <- Eltwise10
I1128 19:31:38.231987 30336 net.cpp:380] Eltwise10_ReLU21_0_split -> Eltwise10_ReLU21_0_split_0
I1128 19:31:38.231994 30336 net.cpp:380] Eltwise10_ReLU21_0_split -> Eltwise10_ReLU21_0_split_1
I1128 19:31:38.232030 30336 net.cpp:122] Setting up Eltwise10_ReLU21_0_split
I1128 19:31:38.232035 30336 net.cpp:129] Top shape: 20 384 4 4 (122880)
I1128 19:31:38.232039 30336 net.cpp:129] Top shape: 20 384 4 4 (122880)
I1128 19:31:38.232043 30336 net.cpp:137] Memory required for data: 404463600
I1128 19:31:38.232046 30336 layer_factory.hpp:77] Creating layer Convolution25
I1128 19:31:38.232054 30336 net.cpp:84] Creating Layer Convolution25
I1128 19:31:38.232058 30336 net.cpp:406] Convolution25 <- Eltwise10_ReLU21_0_split_0
I1128 19:31:38.232070 30336 net.cpp:380] Convolution25 -> Convolution25
I1128 19:31:38.242374 30336 net.cpp:122] Setting up Convolution25
I1128 19:31:38.242391 30336 net.cpp:129] Top shape: 20 384 4 4 (122880)
I1128 19:31:38.242394 30336 net.cpp:137] Memory required for data: 404955120
I1128 19:31:38.242403 30336 layer_factory.hpp:77] Creating layer BatchNorm25
I1128 19:31:38.242410 30336 net.cpp:84] Creating Layer BatchNorm25
I1128 19:31:38.242414 30336 net.cpp:406] BatchNorm25 <- Convolution25
I1128 19:31:38.242422 30336 net.cpp:367] BatchNorm25 -> Convolution25 (in-place)
I1128 19:31:38.242633 30336 net.cpp:122] Setting up BatchNorm25
I1128 19:31:38.242640 30336 net.cpp:129] Top shape: 20 384 4 4 (122880)
I1128 19:31:38.242642 30336 net.cpp:137] Memory required for data: 405446640
I1128 19:31:38.242648 30336 layer_factory.hpp:77] Creating layer Scale25
I1128 19:31:38.242655 30336 net.cpp:84] Creating Layer Scale25
I1128 19:31:38.242658 30336 net.cpp:406] Scale25 <- Convolution25
I1128 19:31:38.242666 30336 net.cpp:367] Scale25 -> Convolution25 (in-place)
I1128 19:31:38.242735 30336 layer_factory.hpp:77] Creating layer Scale25
I1128 19:31:38.242832 30336 net.cpp:122] Setting up Scale25
I1128 19:31:38.242839 30336 net.cpp:129] Top shape: 20 384 4 4 (122880)
I1128 19:31:38.242842 30336 net.cpp:137] Memory required for data: 405938160
I1128 19:31:38.242847 30336 layer_factory.hpp:77] Creating layer ReLU22
I1128 19:31:38.242853 30336 net.cpp:84] Creating Layer ReLU22
I1128 19:31:38.242857 30336 net.cpp:406] ReLU22 <- Convolution25
I1128 19:31:38.242861 30336 net.cpp:367] ReLU22 -> Convolution25 (in-place)
I1128 19:31:38.243228 30336 net.cpp:122] Setting up ReLU22
I1128 19:31:38.243237 30336 net.cpp:129] Top shape: 20 384 4 4 (122880)
I1128 19:31:38.243239 30336 net.cpp:137] Memory required for data: 406429680
I1128 19:31:38.243242 30336 layer_factory.hpp:77] Creating layer Convolution26
I1128 19:31:38.243252 30336 net.cpp:84] Creating Layer Convolution26
I1128 19:31:38.243255 30336 net.cpp:406] Convolution26 <- Convolution25
I1128 19:31:38.243263 30336 net.cpp:380] Convolution26 -> Convolution26
I1128 19:31:38.253139 30336 net.cpp:122] Setting up Convolution26
I1128 19:31:38.253155 30336 net.cpp:129] Top shape: 20 384 4 4 (122880)
I1128 19:31:38.253159 30336 net.cpp:137] Memory required for data: 406921200
I1128 19:31:38.253180 30336 layer_factory.hpp:77] Creating layer BatchNorm26
I1128 19:31:38.253188 30336 net.cpp:84] Creating Layer BatchNorm26
I1128 19:31:38.253193 30336 net.cpp:406] BatchNorm26 <- Convolution26
I1128 19:31:38.253201 30336 net.cpp:367] BatchNorm26 -> Convolution26 (in-place)
I1128 19:31:38.253373 30336 net.cpp:122] Setting up BatchNorm26
I1128 19:31:38.253379 30336 net.cpp:129] Top shape: 20 384 4 4 (122880)
I1128 19:31:38.253382 30336 net.cpp:137] Memory required for data: 407412720
I1128 19:31:38.253388 30336 layer_factory.hpp:77] Creating layer Scale26
I1128 19:31:38.253396 30336 net.cpp:84] Creating Layer Scale26
I1128 19:31:38.253399 30336 net.cpp:406] Scale26 <- Convolution26
I1128 19:31:38.253404 30336 net.cpp:367] Scale26 -> Convolution26 (in-place)
I1128 19:31:38.253440 30336 layer_factory.hpp:77] Creating layer Scale26
I1128 19:31:38.253538 30336 net.cpp:122] Setting up Scale26
I1128 19:31:38.253545 30336 net.cpp:129] Top shape: 20 384 4 4 (122880)
I1128 19:31:38.253547 30336 net.cpp:137] Memory required for data: 407904240
I1128 19:31:38.253552 30336 layer_factory.hpp:77] Creating layer Eltwise11
I1128 19:31:38.253559 30336 net.cpp:84] Creating Layer Eltwise11
I1128 19:31:38.253562 30336 net.cpp:406] Eltwise11 <- Convolution26
I1128 19:31:38.253567 30336 net.cpp:406] Eltwise11 <- Eltwise10_ReLU21_0_split_1
I1128 19:31:38.253572 30336 net.cpp:380] Eltwise11 -> Eltwise11
I1128 19:31:38.253595 30336 net.cpp:122] Setting up Eltwise11
I1128 19:31:38.253602 30336 net.cpp:129] Top shape: 20 384 4 4 (122880)
I1128 19:31:38.253604 30336 net.cpp:137] Memory required for data: 408395760
I1128 19:31:38.253607 30336 layer_factory.hpp:77] Creating layer ReLU23
I1128 19:31:38.253613 30336 net.cpp:84] Creating Layer ReLU23
I1128 19:31:38.253628 30336 net.cpp:406] ReLU23 <- Eltwise11
I1128 19:31:38.253633 30336 net.cpp:367] ReLU23 -> Eltwise11 (in-place)
I1128 19:31:38.254082 30336 net.cpp:122] Setting up ReLU23
I1128 19:31:38.254091 30336 net.cpp:129] Top shape: 20 384 4 4 (122880)
I1128 19:31:38.254096 30336 net.cpp:137] Memory required for data: 408887280
I1128 19:31:38.254098 30336 layer_factory.hpp:77] Creating layer Eltwise11_ReLU23_0_split
I1128 19:31:38.254104 30336 net.cpp:84] Creating Layer Eltwise11_ReLU23_0_split
I1128 19:31:38.254108 30336 net.cpp:406] Eltwise11_ReLU23_0_split <- Eltwise11
I1128 19:31:38.254114 30336 net.cpp:380] Eltwise11_ReLU23_0_split -> Eltwise11_ReLU23_0_split_0
I1128 19:31:38.254122 30336 net.cpp:380] Eltwise11_ReLU23_0_split -> Eltwise11_ReLU23_0_split_1
I1128 19:31:38.254168 30336 net.cpp:122] Setting up Eltwise11_ReLU23_0_split
I1128 19:31:38.254174 30336 net.cpp:129] Top shape: 20 384 4 4 (122880)
I1128 19:31:38.254179 30336 net.cpp:129] Top shape: 20 384 4 4 (122880)
I1128 19:31:38.254182 30336 net.cpp:137] Memory required for data: 409870320
I1128 19:31:38.254185 30336 layer_factory.hpp:77] Creating layer Convolution27
I1128 19:31:38.254195 30336 net.cpp:84] Creating Layer Convolution27
I1128 19:31:38.254199 30336 net.cpp:406] Convolution27 <- Eltwise11_ReLU23_0_split_0
I1128 19:31:38.254204 30336 net.cpp:380] Convolution27 -> Convolution27
I1128 19:31:38.264698 30336 net.cpp:122] Setting up Convolution27
I1128 19:31:38.264717 30336 net.cpp:129] Top shape: 20 384 4 4 (122880)
I1128 19:31:38.264721 30336 net.cpp:137] Memory required for data: 410361840
I1128 19:31:38.264729 30336 layer_factory.hpp:77] Creating layer BatchNorm27
I1128 19:31:38.264737 30336 net.cpp:84] Creating Layer BatchNorm27
I1128 19:31:38.264741 30336 net.cpp:406] BatchNorm27 <- Convolution27
I1128 19:31:38.264750 30336 net.cpp:367] BatchNorm27 -> Convolution27 (in-place)
I1128 19:31:38.264956 30336 net.cpp:122] Setting up BatchNorm27
I1128 19:31:38.264961 30336 net.cpp:129] Top shape: 20 384 4 4 (122880)
I1128 19:31:38.264964 30336 net.cpp:137] Memory required for data: 410853360
I1128 19:31:38.264971 30336 layer_factory.hpp:77] Creating layer Scale27
I1128 19:31:38.264988 30336 net.cpp:84] Creating Layer Scale27
I1128 19:31:38.264992 30336 net.cpp:406] Scale27 <- Convolution27
I1128 19:31:38.265012 30336 net.cpp:367] Scale27 -> Convolution27 (in-place)
I1128 19:31:38.265063 30336 layer_factory.hpp:77] Creating layer Scale27
I1128 19:31:38.265193 30336 net.cpp:122] Setting up Scale27
I1128 19:31:38.265198 30336 net.cpp:129] Top shape: 20 384 4 4 (122880)
I1128 19:31:38.265202 30336 net.cpp:137] Memory required for data: 411344880
I1128 19:31:38.265221 30336 layer_factory.hpp:77] Creating layer ReLU24
I1128 19:31:38.265228 30336 net.cpp:84] Creating Layer ReLU24
I1128 19:31:38.265230 30336 net.cpp:406] ReLU24 <- Convolution27
I1128 19:31:38.265236 30336 net.cpp:367] ReLU24 -> Convolution27 (in-place)
I1128 19:31:38.265375 30336 net.cpp:122] Setting up ReLU24
I1128 19:31:38.265383 30336 net.cpp:129] Top shape: 20 384 4 4 (122880)
I1128 19:31:38.265384 30336 net.cpp:137] Memory required for data: 411836400
I1128 19:31:38.265388 30336 layer_factory.hpp:77] Creating layer Convolution28
I1128 19:31:38.265398 30336 net.cpp:84] Creating Layer Convolution28
I1128 19:31:38.265401 30336 net.cpp:406] Convolution28 <- Convolution27
I1128 19:31:38.265408 30336 net.cpp:380] Convolution28 -> Convolution28
I1128 19:31:38.275537 30336 net.cpp:122] Setting up Convolution28
I1128 19:31:38.275555 30336 net.cpp:129] Top shape: 20 384 4 4 (122880)
I1128 19:31:38.275558 30336 net.cpp:137] Memory required for data: 412327920
I1128 19:31:38.275580 30336 layer_factory.hpp:77] Creating layer BatchNorm28
I1128 19:31:38.275589 30336 net.cpp:84] Creating Layer BatchNorm28
I1128 19:31:38.275595 30336 net.cpp:406] BatchNorm28 <- Convolution28
I1128 19:31:38.275604 30336 net.cpp:367] BatchNorm28 -> Convolution28 (in-place)
I1128 19:31:38.275784 30336 net.cpp:122] Setting up BatchNorm28
I1128 19:31:38.275789 30336 net.cpp:129] Top shape: 20 384 4 4 (122880)
I1128 19:31:38.275802 30336 net.cpp:137] Memory required for data: 412819440
I1128 19:31:38.275810 30336 layer_factory.hpp:77] Creating layer Scale28
I1128 19:31:38.275818 30336 net.cpp:84] Creating Layer Scale28
I1128 19:31:38.275822 30336 net.cpp:406] Scale28 <- Convolution28
I1128 19:31:38.275827 30336 net.cpp:367] Scale28 -> Convolution28 (in-place)
I1128 19:31:38.275864 30336 layer_factory.hpp:77] Creating layer Scale28
I1128 19:31:38.275964 30336 net.cpp:122] Setting up Scale28
I1128 19:31:38.275969 30336 net.cpp:129] Top shape: 20 384 4 4 (122880)
I1128 19:31:38.275974 30336 net.cpp:137] Memory required for data: 413310960
I1128 19:31:38.275979 30336 layer_factory.hpp:77] Creating layer Eltwise12
I1128 19:31:38.275986 30336 net.cpp:84] Creating Layer Eltwise12
I1128 19:31:38.275990 30336 net.cpp:406] Eltwise12 <- Convolution28
I1128 19:31:38.275995 30336 net.cpp:406] Eltwise12 <- Eltwise11_ReLU23_0_split_1
I1128 19:31:38.276001 30336 net.cpp:380] Eltwise12 -> Eltwise12
I1128 19:31:38.276026 30336 net.cpp:122] Setting up Eltwise12
I1128 19:31:38.276031 30336 net.cpp:129] Top shape: 20 384 4 4 (122880)
I1128 19:31:38.276034 30336 net.cpp:137] Memory required for data: 413802480
I1128 19:31:38.276038 30336 layer_factory.hpp:77] Creating layer ReLU25
I1128 19:31:38.276043 30336 net.cpp:84] Creating Layer ReLU25
I1128 19:31:38.276046 30336 net.cpp:406] ReLU25 <- Eltwise12
I1128 19:31:38.276052 30336 net.cpp:367] ReLU25 -> Eltwise12 (in-place)
I1128 19:31:38.276176 30336 net.cpp:122] Setting up ReLU25
I1128 19:31:38.276183 30336 net.cpp:129] Top shape: 20 384 4 4 (122880)
I1128 19:31:38.276186 30336 net.cpp:137] Memory required for data: 414294000
I1128 19:31:38.276190 30336 layer_factory.hpp:77] Creating layer Pooling1
I1128 19:31:38.276195 30336 net.cpp:84] Creating Layer Pooling1
I1128 19:31:38.276198 30336 net.cpp:406] Pooling1 <- Eltwise12
I1128 19:31:38.276206 30336 net.cpp:380] Pooling1 -> Pooling1
I1128 19:31:38.276372 30336 net.cpp:122] Setting up Pooling1
I1128 19:31:38.276379 30336 net.cpp:129] Top shape: 20 384 1 1 (7680)
I1128 19:31:38.276382 30336 net.cpp:137] Memory required for data: 414324720
I1128 19:31:38.276386 30336 layer_factory.hpp:77] Creating layer InnerProduct1
I1128 19:31:38.276391 30336 net.cpp:84] Creating Layer InnerProduct1
I1128 19:31:38.276394 30336 net.cpp:406] InnerProduct1 <- Pooling1
I1128 19:31:38.276401 30336 net.cpp:380] InnerProduct1 -> InnerProduct1
I1128 19:31:38.276522 30336 net.cpp:122] Setting up InnerProduct1
I1128 19:31:38.276527 30336 net.cpp:129] Top shape: 20 10 (200)
I1128 19:31:38.276530 30336 net.cpp:137] Memory required for data: 414325520
I1128 19:31:38.276536 30336 layer_factory.hpp:77] Creating layer InnerProduct1_InnerProduct1_0_split
I1128 19:31:38.276541 30336 net.cpp:84] Creating Layer InnerProduct1_InnerProduct1_0_split
I1128 19:31:38.276545 30336 net.cpp:406] InnerProduct1_InnerProduct1_0_split <- InnerProduct1
I1128 19:31:38.276551 30336 net.cpp:380] InnerProduct1_InnerProduct1_0_split -> InnerProduct1_InnerProduct1_0_split_0
I1128 19:31:38.276558 30336 net.cpp:380] InnerProduct1_InnerProduct1_0_split -> InnerProduct1_InnerProduct1_0_split_1
I1128 19:31:38.276595 30336 net.cpp:122] Setting up InnerProduct1_InnerProduct1_0_split
I1128 19:31:38.276600 30336 net.cpp:129] Top shape: 20 10 (200)
I1128 19:31:38.276603 30336 net.cpp:129] Top shape: 20 10 (200)
I1128 19:31:38.276607 30336 net.cpp:137] Memory required for data: 414327120
I1128 19:31:38.276609 30336 layer_factory.hpp:77] Creating layer Accuracy1
I1128 19:31:38.276614 30336 net.cpp:84] Creating Layer Accuracy1
I1128 19:31:38.276618 30336 net.cpp:406] Accuracy1 <- InnerProduct1_InnerProduct1_0_split_0
I1128 19:31:38.276623 30336 net.cpp:406] Accuracy1 <- Data2_Data1_1_split_0
I1128 19:31:38.276629 30336 net.cpp:380] Accuracy1 -> Accuracy1
…
