…
I1002 12:07:04.953896 30882 upgrade_proto.cpp:82] Successfully upgraded batch norm layers using deprecated params.
I1002 12:07:04.954893 30882 net.cpp:82] Initializing net from parameters: 
name: "WRN-20"
state {
  phase: TRAIN
  level: 0
  stage: ""
}
layer {
  name: "Data1"
  type: "Data"
  top: "data"
  top: "label"
  transform_param {
    scale: 0.00390625
    mirror: true
    crop_size: 32
    mean_value: 125.3
    mean_value: 122.9
    mean_value: 113.8
  }
  data_param {
    source: "/home/lijianfei/datasets/cifar10_40/train_lmdb"
    batch_size: 64
    backend: LMDB
  }
  image_data_param {
    shuffle: true
  }
}
layer {
  name: "conv1"
  type: "Convolution"
  bottom: "data"
  top: "conv1"
  param {
    lr_mult: 1
    decay_mult: 1
  }
  param {
    lr_mult: 2
    decay_mult: 0
  }
  convolution_param {
    num_output: 16
    bias_term: true
    pad: 1
    kernel_size: 3
    stride: 1
    weight_filler {
      type: "msra"
    }
    bias_filler {
      type: "constant"
      value: 0
    }
  }
}
layer {
  name: "conv1/bn"
  type: "BatchNorm"
  bottom: "conv1"
  top: "conv1"
  param {
    lr_mult: 0
    decay_mult: 0
  }
  param {
    lr_mult: 0
    decay_mult: 0
  }
  param {
    lr_mult: 0
    decay_mult: 0
  }
  batch_norm_param {
    use_global_stats: false
  }
}
layer {
  name: "conv1/scale"
  type: "Scale"
  bottom: "conv1"
  top: "conv1"
  scale_param {
    bias_term: true
  }
}
layer {
  name: "conv1/ReLU"
  type: "ReLU"
  bottom: "conv1"
  top: "conv1"
}
layer {
  name: "conv2_1_0"
  type: "Convolution"
  bottom: "conv1"
  top: "conv2_1_0"
  param {
    lr_mult: 1
    decay_mult: 1
  }
  param {
    lr_mult: 2
    decay_mult: 0
  }
  convolution_param {
    num_output: 128
    bias_term: true
    pad: 1
    kernel_size: 3
    stride: 1
    weight_filler {
      type: "msra"
    }
    bias_filler {
      type: "constant"
      value: 0
    }
  }
}
layer {
  name: "conv2_1_bn0"
  type: "BatchNorm"
  bottom: "conv2_1_0"
  top: "conv2_1_0"
  param {
    lr_mult: 0
    decay_mult: 0
  }
  param {
    lr_mult: 0
    decay_mult: 0
  }
  param {
    lr_mult: 0
    decay_mult: 0
  }
  batch_norm_param {
    use_global_stats: false
  }
}
layer {
  name: "conv2_1_scale0"
  type: "Scale"
  bottom: "conv2_1_0"
  top: "conv2_1_0"
  scale_param {
    bias_term: true
  }
}
layer {
  name: "conv2_1_ReLU0"
  type: "ReLU"
  bottom: "conv2_1_0"
  top: "conv2_1_0"
}
layer {
  name: "conv2_Drop1"
  type: "Dropout"
  bottom: "conv2_1_0"
  top: "conv2_1_0"
  dropout_param {
    dropout_ratio: 0.5
  }
}
layer {
  name: "conv2_1_1"
  type: "Convolution"
  bottom: "conv2_1_0"
  top: "conv2_1_1"
  param {
    lr_mult: 1
    decay_mult: 1
  }
  param {
    lr_mult: 2
    decay_mult: 0
  }
  convolution_param {
    num_output: 128
    bias_term: true
    pad: 1
    kernel_size: 3
    stride: 1
    weight_filler {
      type: "msra"
    }
    bias_filler {
      type: "constant"
      value: 0
    }
  }
}
layer {
  name: "conv2_1bn1"
  type: "BatchNorm"
  bottom: "conv2_1_1"
  top: "conv2_1_1"
  param {
    lr_mult: 0
    decay_mult: 0
  }
  param {
    lr_mult: 0
    decay_mult: 0
  }
  param {
    lr_mult: 0
    decay_mult: 0
  }
  batch_norm_param {
    use_global_stats: false
  }
}
layer {
  name: "conv2_1_scale1"
  type: "Scale"
  bottom: "conv2_1_1"
  top: "conv2_1_1"
  scale_param {
    bias_term: true
  }
}
layer {
  name: "conv2_1_down"
  type: "Convolution"
  bottom: "conv1"
  top: "conv2_1_down"
  param {
    lr_mult: 1
    decay_mult: 1
  }
  param {
    lr_mult: 2
    decay_mult: 0
  }
  convolution_param {
    num_output: 128
    bias_term: true
    pad: 0
    kernel_size: 1
    stride: 1
    weight_filler {
      type: "msra"
    }
    bias_filler {
      type: "constant"
      value: 0
    }
  }
}
layer {
  name: "conv2_1_bn_down"
  type: "BatchNorm"
  bottom: "conv2_1_down"
  top: "conv2_1_down"
  param {
    lr_mult: 0
    decay_mult: 0
  }
  param {
    lr_mult: 0
    decay_mult: 0
  }
  param {
    lr_mult: 0
    decay_mult: 0
  }
  batch_norm_param {
    use_global_stats: false
  }
}
layer {
  name: "conv2_1_scale_down"
  type: "Scale"
  bottom: "conv2_1_down"
  top: "conv2_1_down"
  scale_param {
    bias_term: true
  }
}
layer {
  name: "conv2_Eltwise_1"
  type: "Eltwise"
  bottom: "conv2_1_1"
  bottom: "conv2_1_down"
  top: "conv2_Eltwise_1"
  eltwise_param {
    operation: SUM
  }
}
layer {
  name: "conv2_1ReLU_1"
  type: "ReLU"
  bottom: "conv2_Eltwise_1"
  top: "conv2_Eltwise_1"
}
layer {
  name: "conv2_2_0"
  type: "Convolution"
  bottom: "conv2_Eltwise_1"
  top: "conv2_2_0"
  param {
    lr_mult: 1
    decay_mult: 1
  }
  param {
    lr_mult: 2
    decay_mult: 0
  }
  convolution_param {
    num_output: 128
    bias_term: true
    pad: 1
    kernel_size: 3
    stride: 1
    weight_filler {
      type: "msra"
    }
    bias_filler {
      type: "constant"
      value: 0
    }
  }
}
layer {
  name: "conv2_2_bn0"
  type: "BatchNorm"
  bottom: "conv2_2_0"
  top: "conv2_2_0"
  param {
    lr_mult: 0
    decay_mult: 0
  }
  param {
    lr_mult: 0
    decay_mult: 0
  }
  param {
    lr_mult: 0
    decay_mult: 0
  }
  batch_norm_param {
    use_global_stats: false
  }
}
layer {
  name: "conv2_2_scale0"
  type: "Scale"
  bottom: "conv2_2_0"
  top: "conv2_2_0"
  scale_param {
    bias_term: true
  }
}
layer {
  name: "conv2_2_ReLU0"
  type: "ReLU"
  bottom: "conv2_2_0"
  top: "conv2_2_0"
}
layer {
  name: "conv2_Drop2"
  type: "Dropout"
  bottom: "conv2_2_0"
  top: "conv2_2_0"
  dropout_param {
    dropout_ratio: 0.5
  }
}
layer {
  name: "conv2_2_1"
  type: "Convolution"
  bottom: "conv2_2_0"
  top: "conv2_2_1"
  param {
    lr_mult: 1
    decay_mult: 1
  }
  param {
    lr_mult: 2
    decay_mult: 0
  }
  convolution_param {
    num_output: 128
    bias_term: true
    pad: 1
    kernel_size: 3
    stride: 1
    weight_filler {
      type: "msra"
    }
    bias_filler {
      type: "constant"
      value: 0
    }
  }
}
layer {
  name: "conv2_2bn1"
  type: "BatchNorm"
  bottom: "conv2_2_1"
  top: "conv2_2_1"
  param {
    lr_mult: 0
    decay_mult: 0
  }
  param {
    lr_mult: 0
    decay_mult: 0
  }
  param {
    lr_mult: 0
    decay_mult: 0
  }
  batch_norm_param {
    use_global_stats: false
  }
}
layer {
  name: "conv2_2_scale1"
  type: "Scale"
  bottom: "conv2_2_1"
  top: "conv2_2_1"
  scale_param {
    bias_term: true
  }
}
layer {
  name: "conv2_Eltwise_2"
  type: "Eltwise"
  bottom: "conv2_Eltwise_1"
  bottom: "conv2_2_1"
  top: "conv2_Eltwise_2"
  eltwise_param {
    operation: SUM
  }
}
layer {
  name: "conv2_2ReLU_1"
  type: "ReLU"
  bottom: "conv2_Eltwise_2"
  top: "conv2_Eltwise_2"
}
layer {
  name: "conv2_3_0"
  type: "Convolution"
  bottom: "conv2_Eltwise_2"
  top: "conv2_3_0"
  param {
    lr_mult: 1
    decay_mult: 1
  }
  param {
    lr_mult: 2
    decay_mult: 0
  }
  convolution_param {
    num_output: 128
    bias_term: true
    pad: 1
    kernel_size: 3
    stride: 1
    weight_filler {
      type: "msra"
    }
    bias_filler {
      type: "constant"
      value: 0
    }
  }
}
layer {
  name: "conv2_3_bn0"
  type: "BatchNorm"
  bottom: "conv2_3_0"
  top: "conv2_3_0"
  param {
    lr_mult: 0
    decay_mult: 0
  }
  param {
    lr_mult: 0
    decay_mult: 0
  }
  param {
    lr_mult: 0
    decay_mult: 0
  }
  batch_norm_param {
    use_global_stats: false
  }
}
layer {
  name: "conv2_3_scale0"
  type: "Scale"
  bottom: "conv2_3_0"
  top: "conv2_3_0"
  scale_param {
    bias_term: true
  }
}
layer {
  name: "conv2_3_ReLU0"
  type: "ReLU"
  bottom: "conv2_3_0"
  top: "conv2_3_0"
}
layer {
  name: "conv2_Drop3"
  type: "Dropout"
  bottom: "conv2_3_0"
  top: "conv2_3_0"
  dropout_param {
    dropout_ratio: 0.5
  }
}
layer {
  name: "conv2_3_1"
  type: "Convolution"
  bottom: "conv2_3_0"
  top: "conv2_3_1"
  param {
    lr_mult: 1
    decay_mult: 1
  }
  param {
    lr_mult: 2
    decay_mult: 0
  }
  convolution_param {
    num_output: 128
    bias_term: true
    pad: 1
    kernel_size: 3
    stride: 1
    weight_filler {
      type: "msra"
    }
    bias_filler {
      type: "constant"
      value: 0
    }
  }
}
layer {
  name: "conv2_3bn1"
  type: "BatchNorm"
  bottom: "conv2_3_1"
  top: "conv2_3_1"
  param {
    lr_mult: 0
    decay_mult: 0
  }
  param {
    lr_mult: 0
    decay_mult: 0
  }
  param {
    lr_mult: 0
    decay_mult: 0
  }
  batch_norm_param {
    use_global_stats: false
  }
}
layer {
  name: "conv2_3_scale1"
  type: "Scale"
  bottom: "conv2_3_1"
  top: "conv2_3_1"
  scale_param {
    bias_term: true
  }
}
layer {
  name: "conv2_Eltwise_3"
  type: "Eltwise"
  bottom: "conv2_Eltwise_2"
  bottom: "conv2_3_1"
  top: "conv2_Eltwise_3"
  eltwise_param {
    operation: SUM
  }
}
layer {
  name: "conv2_3ReLU_1"
  type: "ReLU"
  bottom: "conv2_Eltwise_3"
  top: "conv2_Eltwise_3"
}
layer {
  name: "conv3_1_0"
  type: "Convolution"
  bottom: "conv2_Eltwise_3"
  top: "conv3_1_0"
  param {
    lr_mult: 1
    decay_mult: 1
  }
  param {
    lr_mult: 2
    decay_mult: 0
  }
  convolution_param {
    num_output: 256
    bias_term: true
    pad: 1
    kernel_size: 3
    stride: 2
    weight_filler {
      type: "msra"
    }
    bias_filler {
      type: "constant"
      value: 0
    }
  }
}
layer {
  name: "conv3_1_bn0"
  type: "BatchNorm"
  bottom: "conv3_1_0"
  top: "conv3_1_0"
  param {
    lr_mult: 0
    decay_mult: 0
  }
  param {
    lr_mult: 0
    decay_mult: 0
  }
  param {
    lr_mult: 0
    decay_mult: 0
  }
  batch_norm_param {
    use_global_stats: false
  }
}
layer {
  name: "conv3_1_scale0"
  type: "Scale"
  bottom: "conv3_1_0"
  top: "conv3_1_0"
  scale_param {
    bias_term: true
  }
}
layer {
  name: "conv3_1_ReLU0"
  type: "ReLU"
  bottom: "conv3_1_0"
  top: "conv3_1_0"
}
layer {
  name: "conv3_Drop1"
  type: "Dropout"
  bottom: "conv3_1_0"
  top: "conv3_1_0"
  dropout_param {
    dropout_ratio: 0.5
  }
}
layer {
  name: "conv3_1_1"
  type: "Convolution"
  bottom: "conv3_1_0"
  top: "conv3_1_1"
  param {
    lr_mult: 1
    decay_mult: 1
  }
  param {
    lr_mult: 2
    decay_mult: 0
  }
  convolution_param {
    num_output: 256
    bias_term: true
    pad: 1
    kernel_size: 3
    stride: 1
    weight_filler {
      type: "msra"
    }
    bias_filler {
      type: "constant"
      value: 0
    }
  }
}
layer {
  name: "conv3_1bn1"
  type: "BatchNorm"
  bottom: "conv3_1_1"
  top: "conv3_1_1"
  param {
    lr_mult: 0
    decay_mult: 0
  }
  param {
    lr_mult: 0
    decay_mult: 0
  }
  param {
    lr_mult: 0
    decay_mult: 0
  }
  batch_norm_param {
    use_global_stats: false
  }
}
layer {
  name: "conv3_1_scale1"
  type: "Scale"
  bottom: "conv3_1_1"
  top: "conv3_1_1"
  scale_param {
    bias_term: true
  }
}
layer {
  name: "conv3_1_down"
  type: "Convolution"
  bottom: "conv2_Eltwise_3"
  top: "conv3_1_down"
  param {
    lr_mult: 1
    decay_mult: 1
  }
  param {
    lr_mult: 2
    decay_mult: 0
  }
  convolution_param {
    num_output: 256
    bias_term: true
    pad: 0
    kernel_size: 1
    stride: 2
    weight_filler {
      type: "msra"
    }
    bias_filler {
      type: "constant"
      value: 0
    }
  }
}
layer {
  name: "conv3_1_bn_down"
  type: "BatchNorm"
  bottom: "conv3_1_down"
  top: "conv3_1_down"
  param {
    lr_mult: 0
    decay_mult: 0
  }
  param {
    lr_mult: 0
    decay_mult: 0
  }
  param {
    lr_mult: 0
    decay_mult: 0
  }
  batch_norm_param {
    use_global_stats: false
  }
}
layer {
  name: "conv3_1_scale_down"
  type: "Scale"
  bottom: "conv3_1_down"
  top: "conv3_1_down"
  scale_param {
    bias_term: true
  }
}
layer {
  name: "conv3_Eltwise_1"
  type: "Eltwise"
  bottom: "conv3_1_1"
  bottom: "conv3_1_down"
  top: "conv3_Eltwise_1"
  eltwise_param {
    operation: SUM
  }
}
layer {
  name: "conv3_1ReLU_1"
  type: "ReLU"
  bottom: "conv3_Eltwise_1"
  top: "conv3_Eltwise_1"
}
layer {
  name: "conv3_2_0"
  type: "Convolution"
  bottom: "conv3_Eltwise_1"
  top: "conv3_2_0"
  param {
    lr_mult: 1
    decay_mult: 1
  }
  param {
    lr_mult: 2
    decay_mult: 0
  }
  convolution_param {
    num_output: 256
    bias_term: true
    pad: 1
    kernel_size: 3
    stride: 1
    weight_filler {
      type: "msra"
    }
    bias_filler {
      type: "constant"
      value: 0
    }
  }
}
layer {
  name: "conv3_2_bn0"
  type: "BatchNorm"
  bottom: "conv3_2_0"
  top: "conv3_2_0"
  param {
    lr_mult: 0
    decay_mult: 0
  }
  param {
    lr_mult: 0
    decay_mult: 0
  }
  param {
    lr_mult: 0
    decay_mult: 0
  }
  batch_norm_param {
    use_global_stats: false
  }
}
layer {
  name: "conv3_2_scale0"
  type: "Scale"
  bottom: "conv3_2_0"
  top: "conv3_2_0"
  scale_param {
    bias_term: true
  }
}
layer {
  name: "conv3_2_ReLU0"
  type: "ReLU"
  bottom: "conv3_2_0"
  top: "conv3_2_0"
}
layer {
  name: "conv3_Drop2"
  type: "Dropout"
  bottom: "conv3_2_0"
  top: "conv3_2_0"
  dropout_param {
    dropout_ratio: 0.5
  }
}
layer {
  name: "conv3_2_1"
  type: "Convolution"
  bottom: "conv3_2_0"
  top: "conv3_2_1"
  param {
    lr_mult: 1
    decay_mult: 1
  }
  param {
    lr_mult: 2
    decay_mult: 0
  }
  convolution_param {
    num_output: 256
    bias_term: true
    pad: 1
    kernel_size: 3
    stride: 1
    weight_filler {
      type: "msra"
    }
    bias_filler {
      type: "constant"
      value: 0
    }
  }
}
layer {
  name: "conv3_2bn1"
  type: "BatchNorm"
  bottom: "conv3_2_1"
  top: "conv3_2_1"
  param {
    lr_mult: 0
    decay_mult: 0
  }
  param {
    lr_mult: 0
    decay_mult: 0
  }
  param {
    lr_mult: 0
    decay_mult: 0
  }
  batch_norm_param {
    use_global_stats: false
  }
}
layer {
  name: "conv3_2_scale1"
  type: "Scale"
  bottom: "conv3_2_1"
  top: "conv3_2_1"
  scale_param {
    bias_term: true
  }
}
layer {
  name: "conv3_Eltwise_2"
  type: "Eltwise"
  bottom: "conv3_Eltwise_1"
  bottom: "conv3_2_1"
  top: "conv3_Eltwise_2"
  eltwise_param {
    operation: SUM
  }
}
layer {
  name: "conv3_2ReLU_1"
  type: "ReLU"
  bottom: "conv3_Eltwise_2"
  top: "conv3_Eltwise_2"
}
layer {
  name: "conv3_3_0"
  type: "Convolution"
  bottom: "conv3_Eltwise_2"
  top: "conv3_3_0"
  param {
    lr_mult: 1
    decay_mult: 1
  }
  param {
    lr_mult: 2
    decay_mult: 0
  }
  convolution_param {
    num_output: 256
    bias_term: true
    pad: 1
    kernel_size: 3
    stride: 1
    weight_filler {
      type: "msra"
    }
    bias_filler {
      type: "constant"
      value: 0
    }
  }
}
layer {
  name: "conv3_3_bn0"
  type: "BatchNorm"
  bottom: "conv3_3_0"
  top: "conv3_3_0"
  param {
    lr_mult: 0
    decay_mult: 0
  }
  param {
    lr_mult: 0
    decay_mult: 0
  }
  param {
    lr_mult: 0
    decay_mult: 0
  }
  batch_norm_param {
    use_global_stats: false
  }
}
layer {
  name: "conv3_3_scale0"
  type: "Scale"
  bottom: "conv3_3_0"
  top: "conv3_3_0"
  scale_param {
    bias_term: true
  }
}
layer {
  name: "conv3_3_ReLU0"
  type: "ReLU"
  bottom: "conv3_3_0"
  top: "conv3_3_0"
}
layer {
  name: "conv3_Drop3"
  type: "Dropout"
  bottom: "conv3_3_0"
  top: "conv3_3_0"
  dropout_param {
    dropout_ratio: 0.5
  }
}
layer {
  name: "conv3_3_1"
  type: "Convolution"
  bottom: "conv3_3_0"
  top: "conv3_3_1"
  param {
    lr_mult: 1
    decay_mult: 1
  }
  param {
    lr_mult: 2
    decay_mult: 0
  }
  convolution_param {
    num_output: 256
    bias_term: true
    pad: 1
    kernel_size: 3
    stride: 1
    weight_filler {
      type: "msra"
    }
    bias_filler {
      type: "constant"
      value: 0
    }
  }
}
layer {
  name: "conv3_3bn1"
  type: "BatchNorm"
  bottom: "conv3_3_1"
  top: "conv3_3_1"
  param {
    lr_mult: 0
    decay_mult: 0
  }
  param {
    lr_mult: 0
    decay_mult: 0
  }
  param {
    lr_mult: 0
    decay_mult: 0
  }
  batch_norm_param {
    use_global_stats: false
  }
}
layer {
  name: "conv3_3_scale1"
  type: "Scale"
  bottom: "conv3_3_1"
  top: "conv3_3_1"
  scale_param {
    bias_term: true
  }
}
layer {
  name: "conv3_Eltwise_3"
  type: "Eltwise"
  bottom: "conv3_Eltwise_2"
  bottom: "conv3_3_1"
  top: "conv3_Eltwise_3"
  eltwise_param {
    operation: SUM
  }
}
layer {
  name: "conv3_3ReLU_1"
  type: "ReLU"
  bottom: "conv3_Eltwise_3"
  top: "conv3_Eltwise_3"
}
layer {
  name: "conv4_1_0"
  type: "Convolution"
  bottom: "conv3_Eltwise_3"
  top: "conv4_1_0"
  param {
    lr_mult: 1
    decay_mult: 1
  }
  param {
    lr_mult: 2
    decay_mult: 0
  }
  convolution_param {
    num_output: 512
    bias_term: true
    pad: 1
    kernel_size: 3
    stride: 2
    weight_filler {
      type: "msra"
    }
    bias_filler {
      type: "constant"
      value: 0
    }
  }
}
layer {
  name: "conv4_1_bn0"
  type: "BatchNorm"
  bottom: "conv4_1_0"
  top: "conv4_1_0"
  param {
    lr_mult: 0
    decay_mult: 0
  }
  param {
    lr_mult: 0
    decay_mult: 0
  }
  param {
    lr_mult: 0
    decay_mult: 0
  }
  batch_norm_param {
    use_global_stats: false
  }
}
layer {
  name: "conv4_1_scale0"
  type: "Scale"
  bottom: "conv4_1_0"
  top: "conv4_1_0"
  scale_param {
    bias_term: true
  }
}
layer {
  name: "conv4_1_ReLU0"
  type: "ReLU"
  bottom: "conv4_1_0"
  top: "conv4_1_0"
}
layer {
  name: "conv4_Drop1"
  type: "Dropout"
  bottom: "conv4_1_0"
  top: "conv4_1_0"
  dropout_param {
    dropout_ratio: 0.5
  }
}
layer {
  name: "conv4_1_1"
  type: "Convolution"
  bottom: "conv4_1_0"
  top: "conv4_1_1"
  param {
    lr_mult: 1
    decay_mult: 1
  }
  param {
    lr_mult: 2
    decay_mult: 0
  }
  convolution_param {
    num_output: 512
    bias_term: true
    pad: 1
    kernel_size: 3
    stride: 1
    weight_filler {
      type: "msra"
    }
    bias_filler {
      type: "constant"
      value: 0
    }
  }
}
layer {
  name: "conv4_1bn1"
  type: "BatchNorm"
  bottom: "conv4_1_1"
  top: "conv4_1_1"
  param {
    lr_mult: 0
    decay_mult: 0
  }
  param {
    lr_mult: 0
    decay_mult: 0
  }
  param {
    lr_mult: 0
    decay_mult: 0
  }
  batch_norm_param {
    use_global_stats: false
  }
}
layer {
  name: "conv4_1_scale1"
  type: "Scale"
  bottom: "conv4_1_1"
  top: "conv4_1_1"
  scale_param {
    bias_term: true
  }
}
layer {
  name: "conv4_1_down"
  type: "Convolution"
  bottom: "conv3_Eltwise_3"
  top: "conv4_1_down"
  param {
    lr_mult: 1
    decay_mult: 1
  }
  param {
    lr_mult: 2
    decay_mult: 0
  }
  convolution_param {
    num_output: 512
    bias_term: true
    pad: 0
    kernel_size: 1
    stride: 2
    weight_filler {
      type: "msra"
    }
    bias_filler {
      type: "constant"
      value: 0
    }
  }
}
layer {
  name: "conv4_1_bn_down"
  type: "BatchNorm"
  bottom: "conv4_1_down"
  top: "conv4_1_down"
  param {
    lr_mult: 0
    decay_mult: 0
  }
  param {
    lr_mult: 0
    decay_mult: 0
  }
  param {
    lr_mult: 0
    decay_mult: 0
  }
  batch_norm_param {
    use_global_stats: false
  }
}
layer {
  name: "conv4_1_scale_down"
  type: "Scale"
  bottom: "conv4_1_down"
  top: "conv4_1_down"
  scale_param {
    bias_term: true
  }
}
layer {
  name: "conv4_Eltwise_1"
  type: "Eltwise"
  bottom: "conv4_1_1"
  bottom: "conv4_1_down"
  top: "conv4_Eltwise_1"
  eltwise_param {
    operation: SUM
  }
}
layer {
  name: "conv4_1ReLU_1"
  type: "ReLU"
  bottom: "conv4_Eltwise_1"
  top: "conv4_Eltwise_1"
}
layer {
  name: "conv4_2_0"
  type: "Convolution"
  bottom: "conv4_Eltwise_1"
  top: "conv4_2_0"
  param {
    lr_mult: 1
    decay_mult: 1
  }
  param {
    lr_mult: 2
    decay_mult: 0
  }
  convolution_param {
    num_output: 512
    bias_term: true
    pad: 1
    kernel_size: 3
    stride: 1
    weight_filler {
      type: "msra"
    }
    bias_filler {
      type: "constant"
      value: 0
    }
  }
}
layer {
  name: "conv4_2_bn0"
  type: "BatchNorm"
  bottom: "conv4_2_0"
  top: "conv4_2_0"
  param {
    lr_mult: 0
    decay_mult: 0
  }
  param {
    lr_mult: 0
    decay_mult: 0
  }
  param {
    lr_mult: 0
    decay_mult: 0
  }
  batch_norm_param {
    use_global_stats: false
  }
}
layer {
  name: "conv4_2_scale0"
  type: "Scale"
  bottom: "conv4_2_0"
  top: "conv4_2_0"
  scale_param {
    bias_term: true
  }
}
layer {
  name: "conv4_2_ReLU0"
  type: "ReLU"
  bottom: "conv4_2_0"
  top: "conv4_2_0"
}
layer {
  name: "conv4_Drop2"
  type: "Dropout"
  bottom: "conv4_2_0"
  top: "conv4_2_0"
  dropout_param {
    dropout_ratio: 0.5
  }
}
layer {
  name: "conv4_2_1"
  type: "Convolution"
  bottom: "conv4_2_0"
  top: "conv4_2_1"
  param {
    lr_mult: 1
    decay_mult: 1
  }
  param {
    lr_mult: 2
    decay_mult: 0
  }
  convolution_param {
    num_output: 512
    bias_term: true
    pad: 1
    kernel_size: 3
    stride: 1
    weight_filler {
      type: "msra"
    }
    bias_filler {
      type: "constant"
      value: 0
    }
  }
}
layer {
  name: "conv4_2bn1"
  type: "BatchNorm"
  bottom: "conv4_2_1"
  top: "conv4_2_1"
  param {
    lr_mult: 0
    decay_mult: 0
  }
  param {
    lr_mult: 0
    decay_mult: 0
  }
  param {
    lr_mult: 0
    decay_mult: 0
  }
  batch_norm_param {
    use_global_stats: false
  }
}
layer {
  name: "conv4_2_scale1"
  type: "Scale"
  bottom: "conv4_2_1"
  top: "conv4_2_1"
  scale_param {
    bias_term: true
  }
}
layer {
  name: "conv4_Eltwise_2"
  type: "Eltwise"
  bottom: "conv4_Eltwise_1"
  bottom: "conv4_2_1"
  top: "conv4_Eltwise_2"
  eltwise_param {
    operation: SUM
  }
}
layer {
  name: "conv4_2ReLU_1"
  type: "ReLU"
  bottom: "conv4_Eltwise_2"
  top: "conv4_Eltwise_2"
}
layer {
  name: "conv4_3_0"
  type: "Convolution"
  bottom: "conv4_Eltwise_2"
  top: "conv4_3_0"
  param {
    lr_mult: 1
    decay_mult: 1
  }
  param {
    lr_mult: 2
    decay_mult: 0
  }
  convolution_param {
    num_output: 512
    bias_term: true
    pad: 1
    kernel_size: 3
    stride: 1
    weight_filler {
      type: "msra"
    }
    bias_filler {
      type: "constant"
      value: 0
    }
  }
}
layer {
  name: "conv4_3_bn0"
  type: "BatchNorm"
  bottom: "conv4_3_0"
  top: "conv4_3_0"
  param {
    lr_mult: 0
    decay_mult: 0
  }
  param {
    lr_mult: 0
    decay_mult: 0
  }
  param {
    lr_mult: 0
    decay_mult: 0
  }
  batch_norm_param {
    use_global_stats: false
  }
}
layer {
  name: "conv4_3_scale0"
  type: "Scale"
  bottom: "conv4_3_0"
  top: "conv4_3_0"
  scale_param {
    bias_term: true
  }
}
layer {
  name: "conv4_3_ReLU0"
  type: "ReLU"
  bottom: "conv4_3_0"
  top: "conv4_3_0"
}
layer {
  name: "conv4_Drop3"
  type: "Dropout"
  bottom: "conv4_3_0"
  top: "conv4_3_0"
  dropout_param {
    dropout_ratio: 0.5
  }
}
layer {
  name: "conv4_3_1"
  type: "Convolution"
  bottom: "conv4_3_0"
  top: "conv4_3_1"
  param {
    lr_mult: 1
    decay_mult: 1
  }
  param {
    lr_mult: 2
    decay_mult: 0
  }
  convolution_param {
    num_output: 512
    bias_term: true
    pad: 1
    kernel_size: 3
    stride: 1
    weight_filler {
      type: "msra"
    }
    bias_filler {
      type: "constant"
      value: 0
    }
  }
}
layer {
  name: "conv4_3bn1"
  type: "BatchNorm"
  bottom: "conv4_3_1"
  top: "conv4_3_1"
  param {
    lr_mult: 0
    decay_mult: 0
  }
  param {
    lr_mult: 0
    decay_mult: 0
  }
  param {
    lr_mult: 0
    decay_mult: 0
  }
  batch_norm_param {
    use_global_stats: false
  }
}
layer {
  name: "conv4_3_scale1"
  type: "Scale"
  bottom: "conv4_3_1"
  top: "conv4_3_1"
  scale_param {
    bias_term: true
  }
}
layer {
  name: "conv4_Eltwise_3"
  type: "Eltwise"
  bottom: "conv4_Eltwise_2"
  bottom: "conv4_3_1"
  top: "conv4_Eltwise_3"
  eltwise_param {
    operation: SUM
  }
}
layer {
  name: "conv4_3ReLU_1"
  type: "ReLU"
  bottom: "conv4_Eltwise_3"
  top: "conv4_Eltwise_3"
}
layer {
  name: "Pooling1"
  type: "Pooling"
  bottom: "conv4_Eltwise_3"
  top: "Pooling1"
  pooling_param {
    pool: AVE
    global_pooling: true
  }
}
layer {
  name: "fc1"
  type: "InnerProduct"
  bottom: "Pooling1"
  top: "fc1"
  param {
    lr_mult: 1
    decay_mult: 1
  }
  param {
    lr_mult: 2
    decay_mult: 1
  }
  inner_product_param {
    num_output: 10
    weight_filler {
      type: "msra"
    }
    bias_filler {
      type: "constant"
      value: 0
    }
  }
}
layer {
  name: "Softmax1"
  type: "SoftmaxWithLoss"
  bottom: "fc1"
  bottom: "label"
  top: "Softmax1"
}
I1002 12:07:04.955406 30882 layer_factory.hpp:77] Creating layer Data1
I1002 12:07:04.955606 30882 db_lmdb.cpp:35] Opened lmdb /home/lijianfei/datasets/cifar10_40/train_lmdb
I1002 12:07:04.955649 30882 net.cpp:128] Creating Layer Data1
I1002 12:07:04.955659 30882 net.cpp:522] Data1 -> data
I1002 12:07:04.955688 30882 net.cpp:522] Data1 -> label
I1002 12:07:04.957252 30882 data_layer.cpp:45] output data size: 64,3,32,32
I1002 12:07:04.961894 30882 net.cpp:172] Setting up Data1
I1002 12:07:04.961956 30882 net.cpp:186] Top shape: 64 3 32 32 (196608)
I1002 12:07:04.961963 30882 net.cpp:186] Top shape: 64 (64)
I1002 12:07:04.961967 30882 net.cpp:194] Memory required for data: 786688
I1002 12:07:04.961980 30882 layer_factory.hpp:77] Creating layer conv1
I1002 12:07:04.962011 30882 net.cpp:128] Creating Layer conv1
I1002 12:07:04.962021 30882 net.cpp:558] conv1 <- data
I1002 12:07:04.962039 30882 net.cpp:522] conv1 -> conv1
I1002 12:07:05.707237 30882 net.cpp:172] Setting up conv1
I1002 12:07:05.707294 30882 net.cpp:186] Top shape: 64 16 32 32 (1048576)
I1002 12:07:05.707299 30882 net.cpp:194] Memory required for data: 4980992
I1002 12:07:05.707336 30882 layer_factory.hpp:77] Creating layer conv1/bn
I1002 12:07:05.707360 30882 net.cpp:128] Creating Layer conv1/bn
I1002 12:07:05.707365 30882 net.cpp:558] conv1/bn <- conv1
I1002 12:07:05.707373 30882 net.cpp:509] conv1/bn -> conv1 (in-place)
I1002 12:07:05.707597 30882 net.cpp:172] Setting up conv1/bn
I1002 12:07:05.707608 30882 net.cpp:186] Top shape: 64 16 32 32 (1048576)
I1002 12:07:05.707613 30882 net.cpp:194] Memory required for data: 9175296
I1002 12:07:05.707626 30882 layer_factory.hpp:77] Creating layer conv1/scale
I1002 12:07:05.707636 30882 net.cpp:128] Creating Layer conv1/scale
I1002 12:07:05.707640 30882 net.cpp:558] conv1/scale <- conv1
I1002 12:07:05.707646 30882 net.cpp:509] conv1/scale -> conv1 (in-place)
I1002 12:07:05.707693 30882 layer_factory.hpp:77] Creating layer conv1/scale
I1002 12:07:05.707815 30882 net.cpp:172] Setting up conv1/scale
I1002 12:07:05.707826 30882 net.cpp:186] Top shape: 64 16 32 32 (1048576)
I1002 12:07:05.707830 30882 net.cpp:194] Memory required for data: 13369600
I1002 12:07:05.707839 30882 layer_factory.hpp:77] Creating layer conv1/ReLU
I1002 12:07:05.707845 30882 net.cpp:128] Creating Layer conv1/ReLU
I1002 12:07:05.707850 30882 net.cpp:558] conv1/ReLU <- conv1
I1002 12:07:05.707855 30882 net.cpp:509] conv1/ReLU -> conv1 (in-place)
I1002 12:07:05.708067 30882 net.cpp:172] Setting up conv1/ReLU
I1002 12:07:05.708081 30882 net.cpp:186] Top shape: 64 16 32 32 (1048576)
I1002 12:07:05.708086 30882 net.cpp:194] Memory required for data: 17563904
I1002 12:07:05.708089 30882 layer_factory.hpp:77] Creating layer conv1_conv1/ReLU_0_split
I1002 12:07:05.708096 30882 net.cpp:128] Creating Layer conv1_conv1/ReLU_0_split
I1002 12:07:05.708101 30882 net.cpp:558] conv1_conv1/ReLU_0_split <- conv1
I1002 12:07:05.708107 30882 net.cpp:522] conv1_conv1/ReLU_0_split -> conv1_conv1/ReLU_0_split_0
I1002 12:07:05.708115 30882 net.cpp:522] conv1_conv1/ReLU_0_split -> conv1_conv1/ReLU_0_split_1
I1002 12:07:05.708156 30882 net.cpp:172] Setting up conv1_conv1/ReLU_0_split
I1002 12:07:05.708163 30882 net.cpp:186] Top shape: 64 16 32 32 (1048576)
I1002 12:07:05.708169 30882 net.cpp:186] Top shape: 64 16 32 32 (1048576)
I1002 12:07:05.708173 30882 net.cpp:194] Memory required for data: 25952512
I1002 12:07:05.708178 30882 layer_factory.hpp:77] Creating layer conv2_1_0
I1002 12:07:05.708230 30882 net.cpp:128] Creating Layer conv2_1_0
I1002 12:07:05.708235 30882 net.cpp:558] conv2_1_0 <- conv1_conv1/ReLU_0_split_0
I1002 12:07:05.708241 30882 net.cpp:522] conv2_1_0 -> conv2_1_0
I1002 12:07:05.711165 30882 net.cpp:172] Setting up conv2_1_0
I1002 12:07:05.711194 30882 net.cpp:186] Top shape: 64 128 32 32 (8388608)
I1002 12:07:05.711199 30882 net.cpp:194] Memory required for data: 59506944
I1002 12:07:05.711212 30882 layer_factory.hpp:77] Creating layer conv2_1_bn0
I1002 12:07:05.711225 30882 net.cpp:128] Creating Layer conv2_1_bn0
I1002 12:07:05.711230 30882 net.cpp:558] conv2_1_bn0 <- conv2_1_0
I1002 12:07:05.711238 30882 net.cpp:509] conv2_1_bn0 -> conv2_1_0 (in-place)
I1002 12:07:05.711454 30882 net.cpp:172] Setting up conv2_1_bn0
I1002 12:07:05.711465 30882 net.cpp:186] Top shape: 64 128 32 32 (8388608)
I1002 12:07:05.711469 30882 net.cpp:194] Memory required for data: 93061376
I1002 12:07:05.711479 30882 layer_factory.hpp:77] Creating layer conv2_1_scale0
I1002 12:07:05.711489 30882 net.cpp:128] Creating Layer conv2_1_scale0
I1002 12:07:05.711494 30882 net.cpp:558] conv2_1_scale0 <- conv2_1_0
I1002 12:07:05.711500 30882 net.cpp:509] conv2_1_scale0 -> conv2_1_0 (in-place)
I1002 12:07:05.711540 30882 layer_factory.hpp:77] Creating layer conv2_1_scale0
I1002 12:07:05.711660 30882 net.cpp:172] Setting up conv2_1_scale0
I1002 12:07:05.711671 30882 net.cpp:186] Top shape: 64 128 32 32 (8388608)
I1002 12:07:05.711675 30882 net.cpp:194] Memory required for data: 126615808
I1002 12:07:05.711683 30882 layer_factory.hpp:77] Creating layer conv2_1_ReLU0
I1002 12:07:05.711689 30882 net.cpp:128] Creating Layer conv2_1_ReLU0
I1002 12:07:05.711694 30882 net.cpp:558] conv2_1_ReLU0 <- conv2_1_0
I1002 12:07:05.711701 30882 net.cpp:509] conv2_1_ReLU0 -> conv2_1_0 (in-place)
I1002 12:07:05.711917 30882 net.cpp:172] Setting up conv2_1_ReLU0
I1002 12:07:05.711930 30882 net.cpp:186] Top shape: 64 128 32 32 (8388608)
I1002 12:07:05.711935 30882 net.cpp:194] Memory required for data: 160170240
I1002 12:07:05.711939 30882 layer_factory.hpp:77] Creating layer conv2_Drop1
I1002 12:07:05.711947 30882 net.cpp:128] Creating Layer conv2_Drop1
I1002 12:07:05.711951 30882 net.cpp:558] conv2_Drop1 <- conv2_1_0
I1002 12:07:05.711959 30882 net.cpp:509] conv2_Drop1 -> conv2_1_0 (in-place)
I1002 12:07:05.711992 30882 net.cpp:172] Setting up conv2_Drop1
I1002 12:07:05.711998 30882 net.cpp:186] Top shape: 64 128 32 32 (8388608)
I1002 12:07:05.712004 30882 net.cpp:194] Memory required for data: 193724672
I1002 12:07:05.712008 30882 layer_factory.hpp:77] Creating layer conv2_1_1
I1002 12:07:05.712020 30882 net.cpp:128] Creating Layer conv2_1_1
I1002 12:07:05.712025 30882 net.cpp:558] conv2_1_1 <- conv2_1_0
I1002 12:07:05.712034 30882 net.cpp:522] conv2_1_1 -> conv2_1_1
I1002 12:07:05.716828 30882 net.cpp:172] Setting up conv2_1_1
I1002 12:07:05.716861 30882 net.cpp:186] Top shape: 64 128 32 32 (8388608)
I1002 12:07:05.716866 30882 net.cpp:194] Memory required for data: 227279104
I1002 12:07:05.716877 30882 layer_factory.hpp:77] Creating layer conv2_1bn1
I1002 12:07:05.716886 30882 net.cpp:128] Creating Layer conv2_1bn1
I1002 12:07:05.716892 30882 net.cpp:558] conv2_1bn1 <- conv2_1_1
I1002 12:07:05.716902 30882 net.cpp:509] conv2_1bn1 -> conv2_1_1 (in-place)
I1002 12:07:05.717109 30882 net.cpp:172] Setting up conv2_1bn1
I1002 12:07:05.717121 30882 net.cpp:186] Top shape: 64 128 32 32 (8388608)
I1002 12:07:05.717125 30882 net.cpp:194] Memory required for data: 260833536
I1002 12:07:05.717139 30882 layer_factory.hpp:77] Creating layer conv2_1_scale1
I1002 12:07:05.717146 30882 net.cpp:128] Creating Layer conv2_1_scale1
I1002 12:07:05.717150 30882 net.cpp:558] conv2_1_scale1 <- conv2_1_1
I1002 12:07:05.717156 30882 net.cpp:509] conv2_1_scale1 -> conv2_1_1 (in-place)
I1002 12:07:05.717195 30882 layer_factory.hpp:77] Creating layer conv2_1_scale1
I1002 12:07:05.717300 30882 net.cpp:172] Setting up conv2_1_scale1
I1002 12:07:05.717311 30882 net.cpp:186] Top shape: 64 128 32 32 (8388608)
I1002 12:07:05.717315 30882 net.cpp:194] Memory required for data: 294387968
I1002 12:07:05.717344 30882 layer_factory.hpp:77] Creating layer conv2_1_down
I1002 12:07:05.717355 30882 net.cpp:128] Creating Layer conv2_1_down
I1002 12:07:05.717358 30882 net.cpp:558] conv2_1_down <- conv1_conv1/ReLU_0_split_1
I1002 12:07:05.717365 30882 net.cpp:522] conv2_1_down -> conv2_1_down
I1002 12:07:05.719786 30882 net.cpp:172] Setting up conv2_1_down
I1002 12:07:05.719813 30882 net.cpp:186] Top shape: 64 128 32 32 (8388608)
I1002 12:07:05.719817 30882 net.cpp:194] Memory required for data: 327942400
I1002 12:07:05.719827 30882 layer_factory.hpp:77] Creating layer conv2_1_bn_down
I1002 12:07:05.719836 30882 net.cpp:128] Creating Layer conv2_1_bn_down
I1002 12:07:05.719841 30882 net.cpp:558] conv2_1_bn_down <- conv2_1_down
I1002 12:07:05.719848 30882 net.cpp:509] conv2_1_bn_down -> conv2_1_down (in-place)
I1002 12:07:05.720060 30882 net.cpp:172] Setting up conv2_1_bn_down
I1002 12:07:05.720070 30882 net.cpp:186] Top shape: 64 128 32 32 (8388608)
I1002 12:07:05.720074 30882 net.cpp:194] Memory required for data: 361496832
I1002 12:07:05.720084 30882 layer_factory.hpp:77] Creating layer conv2_1_scale_down
I1002 12:07:05.720094 30882 net.cpp:128] Creating Layer conv2_1_scale_down
I1002 12:07:05.720098 30882 net.cpp:558] conv2_1_scale_down <- conv2_1_down
I1002 12:07:05.720104 30882 net.cpp:509] conv2_1_scale_down -> conv2_1_down (in-place)
I1002 12:07:05.720145 30882 layer_factory.hpp:77] Creating layer conv2_1_scale_down
I1002 12:07:05.720261 30882 net.cpp:172] Setting up conv2_1_scale_down
I1002 12:07:05.720271 30882 net.cpp:186] Top shape: 64 128 32 32 (8388608)
I1002 12:07:05.720275 30882 net.cpp:194] Memory required for data: 395051264
I1002 12:07:05.720283 30882 layer_factory.hpp:77] Creating layer conv2_Eltwise_1
I1002 12:07:05.720291 30882 net.cpp:128] Creating Layer conv2_Eltwise_1
I1002 12:07:05.720295 30882 net.cpp:558] conv2_Eltwise_1 <- conv2_1_1
I1002 12:07:05.720300 30882 net.cpp:558] conv2_Eltwise_1 <- conv2_1_down
I1002 12:07:05.720306 30882 net.cpp:522] conv2_Eltwise_1 -> conv2_Eltwise_1
I1002 12:07:05.720336 30882 net.cpp:172] Setting up conv2_Eltwise_1
I1002 12:07:05.720345 30882 net.cpp:186] Top shape: 64 128 32 32 (8388608)
I1002 12:07:05.720348 30882 net.cpp:194] Memory required for data: 428605696
I1002 12:07:05.720352 30882 layer_factory.hpp:77] Creating layer conv2_1ReLU_1
I1002 12:07:05.720360 30882 net.cpp:128] Creating Layer conv2_1ReLU_1
I1002 12:07:05.720363 30882 net.cpp:558] conv2_1ReLU_1 <- conv2_Eltwise_1
I1002 12:07:05.720368 30882 net.cpp:509] conv2_1ReLU_1 -> conv2_Eltwise_1 (in-place)
I1002 12:07:05.720782 30882 net.cpp:172] Setting up conv2_1ReLU_1
I1002 12:07:05.720803 30882 net.cpp:186] Top shape: 64 128 32 32 (8388608)
I1002 12:07:05.720806 30882 net.cpp:194] Memory required for data: 462160128
I1002 12:07:05.720811 30882 layer_factory.hpp:77] Creating layer conv2_Eltwise_1_conv2_1ReLU_1_0_split
I1002 12:07:05.720820 30882 net.cpp:128] Creating Layer conv2_Eltwise_1_conv2_1ReLU_1_0_split
I1002 12:07:05.720825 30882 net.cpp:558] conv2_Eltwise_1_conv2_1ReLU_1_0_split <- conv2_Eltwise_1
I1002 12:07:05.720832 30882 net.cpp:522] conv2_Eltwise_1_conv2_1ReLU_1_0_split -> conv2_Eltwise_1_conv2_1ReLU_1_0_split_0
I1002 12:07:05.720841 30882 net.cpp:522] conv2_Eltwise_1_conv2_1ReLU_1_0_split -> conv2_Eltwise_1_conv2_1ReLU_1_0_split_1
I1002 12:07:05.720886 30882 net.cpp:172] Setting up conv2_Eltwise_1_conv2_1ReLU_1_0_split
I1002 12:07:05.720893 30882 net.cpp:186] Top shape: 64 128 32 32 (8388608)
I1002 12:07:05.720899 30882 net.cpp:186] Top shape: 64 128 32 32 (8388608)
I1002 12:07:05.720902 30882 net.cpp:194] Memory required for data: 529268992
I1002 12:07:05.720906 30882 layer_factory.hpp:77] Creating layer conv2_2_0
I1002 12:07:05.720917 30882 net.cpp:128] Creating Layer conv2_2_0
I1002 12:07:05.720921 30882 net.cpp:558] conv2_2_0 <- conv2_Eltwise_1_conv2_1ReLU_1_0_split_0
I1002 12:07:05.720929 30882 net.cpp:522] conv2_2_0 -> conv2_2_0
I1002 12:07:05.724601 30882 net.cpp:172] Setting up conv2_2_0
I1002 12:07:05.724627 30882 net.cpp:186] Top shape: 64 128 32 32 (8388608)
I1002 12:07:05.724649 30882 net.cpp:194] Memory required for data: 562823424
I1002 12:07:05.724660 30882 layer_factory.hpp:77] Creating layer conv2_2_bn0
I1002 12:07:05.724673 30882 net.cpp:128] Creating Layer conv2_2_bn0
I1002 12:07:05.724678 30882 net.cpp:558] conv2_2_bn0 <- conv2_2_0
I1002 12:07:05.724684 30882 net.cpp:509] conv2_2_bn0 -> conv2_2_0 (in-place)
I1002 12:07:05.724905 30882 net.cpp:172] Setting up conv2_2_bn0
I1002 12:07:05.724916 30882 net.cpp:186] Top shape: 64 128 32 32 (8388608)
I1002 12:07:05.724920 30882 net.cpp:194] Memory required for data: 596377856
I1002 12:07:05.724933 30882 layer_factory.hpp:77] Creating layer conv2_2_scale0
I1002 12:07:05.724941 30882 net.cpp:128] Creating Layer conv2_2_scale0
I1002 12:07:05.724946 30882 net.cpp:558] conv2_2_scale0 <- conv2_2_0
I1002 12:07:05.724951 30882 net.cpp:509] conv2_2_scale0 -> conv2_2_0 (in-place)
I1002 12:07:05.724992 30882 layer_factory.hpp:77] Creating layer conv2_2_scale0
I1002 12:07:05.725102 30882 net.cpp:172] Setting up conv2_2_scale0
I1002 12:07:05.725112 30882 net.cpp:186] Top shape: 64 128 32 32 (8388608)
I1002 12:07:05.725116 30882 net.cpp:194] Memory required for data: 629932288
I1002 12:07:05.725124 30882 layer_factory.hpp:77] Creating layer conv2_2_ReLU0
I1002 12:07:05.725131 30882 net.cpp:128] Creating Layer conv2_2_ReLU0
I1002 12:07:05.725134 30882 net.cpp:558] conv2_2_ReLU0 <- conv2_2_0
I1002 12:07:05.725141 30882 net.cpp:509] conv2_2_ReLU0 -> conv2_2_0 (in-place)
I1002 12:07:05.725360 30882 net.cpp:172] Setting up conv2_2_ReLU0
I1002 12:07:05.725373 30882 net.cpp:186] Top shape: 64 128 32 32 (8388608)
I1002 12:07:05.725378 30882 net.cpp:194] Memory required for data: 663486720
I1002 12:07:05.725383 30882 layer_factory.hpp:77] Creating layer conv2_Drop2
I1002 12:07:05.725389 30882 net.cpp:128] Creating Layer conv2_Drop2
I1002 12:07:05.725395 30882 net.cpp:558] conv2_Drop2 <- conv2_2_0
I1002 12:07:05.725401 30882 net.cpp:509] conv2_Drop2 -> conv2_2_0 (in-place)
I1002 12:07:05.725428 30882 net.cpp:172] Setting up conv2_Drop2
I1002 12:07:05.725436 30882 net.cpp:186] Top shape: 64 128 32 32 (8388608)
I1002 12:07:05.725440 30882 net.cpp:194] Memory required for data: 697041152
I1002 12:07:05.725445 30882 layer_factory.hpp:77] Creating layer conv2_2_1
I1002 12:07:05.725455 30882 net.cpp:128] Creating Layer conv2_2_1
I1002 12:07:05.725458 30882 net.cpp:558] conv2_2_1 <- conv2_2_0
I1002 12:07:05.725466 30882 net.cpp:522] conv2_2_1 -> conv2_2_1
I1002 12:07:05.729137 30882 net.cpp:172] Setting up conv2_2_1
I1002 12:07:05.729164 30882 net.cpp:186] Top shape: 64 128 32 32 (8388608)
I1002 12:07:05.729168 30882 net.cpp:194] Memory required for data: 730595584
I1002 12:07:05.729178 30882 layer_factory.hpp:77] Creating layer conv2_2bn1
I1002 12:07:05.729187 30882 net.cpp:128] Creating Layer conv2_2bn1
I1002 12:07:05.729192 30882 net.cpp:558] conv2_2bn1 <- conv2_2_1
I1002 12:07:05.729198 30882 net.cpp:509] conv2_2bn1 -> conv2_2_1 (in-place)
I1002 12:07:05.729423 30882 net.cpp:172] Setting up conv2_2bn1
I1002 12:07:05.729434 30882 net.cpp:186] Top shape: 64 128 32 32 (8388608)
I1002 12:07:05.729439 30882 net.cpp:194] Memory required for data: 764150016
I1002 12:07:05.729449 30882 layer_factory.hpp:77] Creating layer conv2_2_scale1
I1002 12:07:05.729455 30882 net.cpp:128] Creating Layer conv2_2_scale1
I1002 12:07:05.729460 30882 net.cpp:558] conv2_2_scale1 <- conv2_2_1
I1002 12:07:05.729466 30882 net.cpp:509] conv2_2_scale1 -> conv2_2_1 (in-place)
I1002 12:07:05.729506 30882 layer_factory.hpp:77] Creating layer conv2_2_scale1
I1002 12:07:05.729619 30882 net.cpp:172] Setting up conv2_2_scale1
I1002 12:07:05.729629 30882 net.cpp:186] Top shape: 64 128 32 32 (8388608)
I1002 12:07:05.729634 30882 net.cpp:194] Memory required for data: 797704448
I1002 12:07:05.729641 30882 layer_factory.hpp:77] Creating layer conv2_Eltwise_2
I1002 12:07:05.729647 30882 net.cpp:128] Creating Layer conv2_Eltwise_2
I1002 12:07:05.729652 30882 net.cpp:558] conv2_Eltwise_2 <- conv2_Eltwise_1_conv2_1ReLU_1_0_split_1
I1002 12:07:05.729657 30882 net.cpp:558] conv2_Eltwise_2 <- conv2_2_1
I1002 12:07:05.729679 30882 net.cpp:522] conv2_Eltwise_2 -> conv2_Eltwise_2
I1002 12:07:05.729707 30882 net.cpp:172] Setting up conv2_Eltwise_2
I1002 12:07:05.729719 30882 net.cpp:186] Top shape: 64 128 32 32 (8388608)
I1002 12:07:05.729724 30882 net.cpp:194] Memory required for data: 831258880
I1002 12:07:05.729728 30882 layer_factory.hpp:77] Creating layer conv2_2ReLU_1
I1002 12:07:05.729734 30882 net.cpp:128] Creating Layer conv2_2ReLU_1
I1002 12:07:05.729739 30882 net.cpp:558] conv2_2ReLU_1 <- conv2_Eltwise_2
I1002 12:07:05.729745 30882 net.cpp:509] conv2_2ReLU_1 -> conv2_Eltwise_2 (in-place)
I1002 12:07:05.729979 30882 net.cpp:172] Setting up conv2_2ReLU_1
I1002 12:07:05.729995 30882 net.cpp:186] Top shape: 64 128 32 32 (8388608)
I1002 12:07:05.729998 30882 net.cpp:194] Memory required for data: 864813312
I1002 12:07:05.730003 30882 layer_factory.hpp:77] Creating layer conv2_Eltwise_2_conv2_2ReLU_1_0_split
I1002 12:07:05.730010 30882 net.cpp:128] Creating Layer conv2_Eltwise_2_conv2_2ReLU_1_0_split
I1002 12:07:05.730015 30882 net.cpp:558] conv2_Eltwise_2_conv2_2ReLU_1_0_split <- conv2_Eltwise_2
I1002 12:07:05.730020 30882 net.cpp:522] conv2_Eltwise_2_conv2_2ReLU_1_0_split -> conv2_Eltwise_2_conv2_2ReLU_1_0_split_0
I1002 12:07:05.730029 30882 net.cpp:522] conv2_Eltwise_2_conv2_2ReLU_1_0_split -> conv2_Eltwise_2_conv2_2ReLU_1_0_split_1
I1002 12:07:05.730072 30882 net.cpp:172] Setting up conv2_Eltwise_2_conv2_2ReLU_1_0_split
I1002 12:07:05.730079 30882 net.cpp:186] Top shape: 64 128 32 32 (8388608)
I1002 12:07:05.730084 30882 net.cpp:186] Top shape: 64 128 32 32 (8388608)
I1002 12:07:05.730088 30882 net.cpp:194] Memory required for data: 931922176
I1002 12:07:05.730093 30882 layer_factory.hpp:77] Creating layer conv2_3_0
I1002 12:07:05.730103 30882 net.cpp:128] Creating Layer conv2_3_0
I1002 12:07:05.730108 30882 net.cpp:558] conv2_3_0 <- conv2_Eltwise_2_conv2_2ReLU_1_0_split_0
I1002 12:07:05.730114 30882 net.cpp:522] conv2_3_0 -> conv2_3_0
I1002 12:07:05.735005 30882 net.cpp:172] Setting up conv2_3_0
I1002 12:07:05.735034 30882 net.cpp:186] Top shape: 64 128 32 32 (8388608)
I1002 12:07:05.735038 30882 net.cpp:194] Memory required for data: 965476608
I1002 12:07:05.735049 30882 layer_factory.hpp:77] Creating layer conv2_3_bn0
I1002 12:07:05.735061 30882 net.cpp:128] Creating Layer conv2_3_bn0
I1002 12:07:05.735066 30882 net.cpp:558] conv2_3_bn0 <- conv2_3_0
I1002 12:07:05.735077 30882 net.cpp:509] conv2_3_bn0 -> conv2_3_0 (in-place)
I1002 12:07:05.735306 30882 net.cpp:172] Setting up conv2_3_bn0
I1002 12:07:05.735317 30882 net.cpp:186] Top shape: 64 128 32 32 (8388608)
I1002 12:07:05.735321 30882 net.cpp:194] Memory required for data: 999031040
I1002 12:07:05.735332 30882 layer_factory.hpp:77] Creating layer conv2_3_scale0
I1002 12:07:05.735338 30882 net.cpp:128] Creating Layer conv2_3_scale0
I1002 12:07:05.735342 30882 net.cpp:558] conv2_3_scale0 <- conv2_3_0
I1002 12:07:05.735348 30882 net.cpp:509] conv2_3_scale0 -> conv2_3_0 (in-place)
I1002 12:07:05.735390 30882 layer_factory.hpp:77] Creating layer conv2_3_scale0
I1002 12:07:05.735505 30882 net.cpp:172] Setting up conv2_3_scale0
I1002 12:07:05.735517 30882 net.cpp:186] Top shape: 64 128 32 32 (8388608)
I1002 12:07:05.735520 30882 net.cpp:194] Memory required for data: 1032585472
I1002 12:07:05.735528 30882 layer_factory.hpp:77] Creating layer conv2_3_ReLU0
I1002 12:07:05.735535 30882 net.cpp:128] Creating Layer conv2_3_ReLU0
I1002 12:07:05.735539 30882 net.cpp:558] conv2_3_ReLU0 <- conv2_3_0
I1002 12:07:05.735545 30882 net.cpp:509] conv2_3_ReLU0 -> conv2_3_0 (in-place)
I1002 12:07:05.735951 30882 net.cpp:172] Setting up conv2_3_ReLU0
I1002 12:07:05.735972 30882 net.cpp:186] Top shape: 64 128 32 32 (8388608)
I1002 12:07:05.735977 30882 net.cpp:194] Memory required for data: 1066139904
I1002 12:07:05.735981 30882 layer_factory.hpp:77] Creating layer conv2_Drop3
I1002 12:07:05.735991 30882 net.cpp:128] Creating Layer conv2_Drop3
I1002 12:07:05.735996 30882 net.cpp:558] conv2_Drop3 <- conv2_3_0
I1002 12:07:05.736002 30882 net.cpp:509] conv2_Drop3 -> conv2_3_0 (in-place)
I1002 12:07:05.736052 30882 net.cpp:172] Setting up conv2_Drop3
I1002 12:07:05.736060 30882 net.cpp:186] Top shape: 64 128 32 32 (8388608)
I1002 12:07:05.736064 30882 net.cpp:194] Memory required for data: 1099694336
I1002 12:07:05.736068 30882 layer_factory.hpp:77] Creating layer conv2_3_1
I1002 12:07:05.736078 30882 net.cpp:128] Creating Layer conv2_3_1
I1002 12:07:05.736083 30882 net.cpp:558] conv2_3_1 <- conv2_3_0
I1002 12:07:05.736090 30882 net.cpp:522] conv2_3_1 -> conv2_3_1
I1002 12:07:05.739727 30882 net.cpp:172] Setting up conv2_3_1
I1002 12:07:05.739753 30882 net.cpp:186] Top shape: 64 128 32 32 (8388608)
I1002 12:07:05.739758 30882 net.cpp:194] Memory required for data: 1133248768
I1002 12:07:05.739768 30882 layer_factory.hpp:77] Creating layer conv2_3bn1
I1002 12:07:05.739776 30882 net.cpp:128] Creating Layer conv2_3bn1
I1002 12:07:05.739781 30882 net.cpp:558] conv2_3bn1 <- conv2_3_1
I1002 12:07:05.739789 30882 net.cpp:509] conv2_3bn1 -> conv2_3_1 (in-place)
I1002 12:07:05.740029 30882 net.cpp:172] Setting up conv2_3bn1
I1002 12:07:05.740041 30882 net.cpp:186] Top shape: 64 128 32 32 (8388608)
I1002 12:07:05.740044 30882 net.cpp:194] Memory required for data: 1166803200
I1002 12:07:05.740054 30882 layer_factory.hpp:77] Creating layer conv2_3_scale1
I1002 12:07:05.740061 30882 net.cpp:128] Creating Layer conv2_3_scale1
I1002 12:07:05.740065 30882 net.cpp:558] conv2_3_scale1 <- conv2_3_1
I1002 12:07:05.740072 30882 net.cpp:509] conv2_3_scale1 -> conv2_3_1 (in-place)
I1002 12:07:05.740113 30882 layer_factory.hpp:77] Creating layer conv2_3_scale1
I1002 12:07:05.740232 30882 net.cpp:172] Setting up conv2_3_scale1
I1002 12:07:05.740243 30882 net.cpp:186] Top shape: 64 128 32 32 (8388608)
I1002 12:07:05.740247 30882 net.cpp:194] Memory required for data: 1200357632
I1002 12:07:05.740255 30882 layer_factory.hpp:77] Creating layer conv2_Eltwise_3
I1002 12:07:05.740263 30882 net.cpp:128] Creating Layer conv2_Eltwise_3
I1002 12:07:05.740268 30882 net.cpp:558] conv2_Eltwise_3 <- conv2_Eltwise_2_conv2_2ReLU_1_0_split_1
I1002 12:07:05.740273 30882 net.cpp:558] conv2_Eltwise_3 <- conv2_3_1
I1002 12:07:05.740279 30882 net.cpp:522] conv2_Eltwise_3 -> conv2_Eltwise_3
I1002 12:07:05.740306 30882 net.cpp:172] Setting up conv2_Eltwise_3
I1002 12:07:05.740314 30882 net.cpp:186] Top shape: 64 128 32 32 (8388608)
I1002 12:07:05.740317 30882 net.cpp:194] Memory required for data: 1233912064
I1002 12:07:05.740321 30882 layer_factory.hpp:77] Creating layer conv2_3ReLU_1
I1002 12:07:05.740327 30882 net.cpp:128] Creating Layer conv2_3ReLU_1
I1002 12:07:05.740331 30882 net.cpp:558] conv2_3ReLU_1 <- conv2_Eltwise_3
I1002 12:07:05.740337 30882 net.cpp:509] conv2_3ReLU_1 -> conv2_Eltwise_3 (in-place)
I1002 12:07:05.740564 30882 net.cpp:172] Setting up conv2_3ReLU_1
I1002 12:07:05.740577 30882 net.cpp:186] Top shape: 64 128 32 32 (8388608)
I1002 12:07:05.740582 30882 net.cpp:194] Memory required for data: 1267466496
I1002 12:07:05.740586 30882 layer_factory.hpp:77] Creating layer conv2_Eltwise_3_conv2_3ReLU_1_0_split
I1002 12:07:05.740593 30882 net.cpp:128] Creating Layer conv2_Eltwise_3_conv2_3ReLU_1_0_split
I1002 12:07:05.740597 30882 net.cpp:558] conv2_Eltwise_3_conv2_3ReLU_1_0_split <- conv2_Eltwise_3
I1002 12:07:05.740603 30882 net.cpp:522] conv2_Eltwise_3_conv2_3ReLU_1_0_split -> conv2_Eltwise_3_conv2_3ReLU_1_0_split_0
I1002 12:07:05.740612 30882 net.cpp:522] conv2_Eltwise_3_conv2_3ReLU_1_0_split -> conv2_Eltwise_3_conv2_3ReLU_1_0_split_1
I1002 12:07:05.740658 30882 net.cpp:172] Setting up conv2_Eltwise_3_conv2_3ReLU_1_0_split
I1002 12:07:05.740664 30882 net.cpp:186] Top shape: 64 128 32 32 (8388608)
I1002 12:07:05.740669 30882 net.cpp:186] Top shape: 64 128 32 32 (8388608)
I1002 12:07:05.740674 30882 net.cpp:194] Memory required for data: 1334575360
I1002 12:07:05.740677 30882 layer_factory.hpp:77] Creating layer conv3_1_0
I1002 12:07:05.740687 30882 net.cpp:128] Creating Layer conv3_1_0
I1002 12:07:05.740692 30882 net.cpp:558] conv3_1_0 <- conv2_Eltwise_3_conv2_3ReLU_1_0_split_0
I1002 12:07:05.740716 30882 net.cpp:522] conv3_1_0 -> conv3_1_0
I1002 12:07:05.747967 30882 net.cpp:172] Setting up conv3_1_0
I1002 12:07:05.747995 30882 net.cpp:186] Top shape: 64 256 16 16 (4194304)
I1002 12:07:05.748000 30882 net.cpp:194] Memory required for data: 1351352576
I1002 12:07:05.748011 30882 layer_factory.hpp:77] Creating layer conv3_1_bn0
I1002 12:07:05.748021 30882 net.cpp:128] Creating Layer conv3_1_bn0
I1002 12:07:05.748026 30882 net.cpp:558] conv3_1_bn0 <- conv3_1_0
I1002 12:07:05.748037 30882 net.cpp:509] conv3_1_bn0 -> conv3_1_0 (in-place)
I1002 12:07:05.748265 30882 net.cpp:172] Setting up conv3_1_bn0
I1002 12:07:05.748275 30882 net.cpp:186] Top shape: 64 256 16 16 (4194304)
I1002 12:07:05.748280 30882 net.cpp:194] Memory required for data: 1368129792
I1002 12:07:05.748289 30882 layer_factory.hpp:77] Creating layer conv3_1_scale0
I1002 12:07:05.748297 30882 net.cpp:128] Creating Layer conv3_1_scale0
I1002 12:07:05.748301 30882 net.cpp:558] conv3_1_scale0 <- conv3_1_0
I1002 12:07:05.748307 30882 net.cpp:509] conv3_1_scale0 -> conv3_1_0 (in-place)
I1002 12:07:05.748350 30882 layer_factory.hpp:77] Creating layer conv3_1_scale0
I1002 12:07:05.748471 30882 net.cpp:172] Setting up conv3_1_scale0
I1002 12:07:05.748481 30882 net.cpp:186] Top shape: 64 256 16 16 (4194304)
I1002 12:07:05.748484 30882 net.cpp:194] Memory required for data: 1384907008
I1002 12:07:05.748492 30882 layer_factory.hpp:77] Creating layer conv3_1_ReLU0
I1002 12:07:05.748499 30882 net.cpp:128] Creating Layer conv3_1_ReLU0
I1002 12:07:05.748503 30882 net.cpp:558] conv3_1_ReLU0 <- conv3_1_0
I1002 12:07:05.748509 30882 net.cpp:509] conv3_1_ReLU0 -> conv3_1_0 (in-place)
I1002 12:07:05.748733 30882 net.cpp:172] Setting up conv3_1_ReLU0
I1002 12:07:05.748746 30882 net.cpp:186] Top shape: 64 256 16 16 (4194304)
I1002 12:07:05.748751 30882 net.cpp:194] Memory required for data: 1401684224
I1002 12:07:05.748755 30882 layer_factory.hpp:77] Creating layer conv3_Drop1
I1002 12:07:05.748762 30882 net.cpp:128] Creating Layer conv3_Drop1
I1002 12:07:05.748766 30882 net.cpp:558] conv3_Drop1 <- conv3_1_0
I1002 12:07:05.748772 30882 net.cpp:509] conv3_Drop1 -> conv3_1_0 (in-place)
I1002 12:07:05.748796 30882 net.cpp:172] Setting up conv3_Drop1
I1002 12:07:05.748803 30882 net.cpp:186] Top shape: 64 256 16 16 (4194304)
I1002 12:07:05.748807 30882 net.cpp:194] Memory required for data: 1418461440
I1002 12:07:05.748811 30882 layer_factory.hpp:77] Creating layer conv3_1_1
I1002 12:07:05.748821 30882 net.cpp:128] Creating Layer conv3_1_1
I1002 12:07:05.748826 30882 net.cpp:558] conv3_1_1 <- conv3_1_0
I1002 12:07:05.748832 30882 net.cpp:522] conv3_1_1 -> conv3_1_1
I1002 12:07:05.760803 30882 net.cpp:172] Setting up conv3_1_1
I1002 12:07:05.760833 30882 net.cpp:186] Top shape: 64 256 16 16 (4194304)
I1002 12:07:05.760838 30882 net.cpp:194] Memory required for data: 1435238656
I1002 12:07:05.760855 30882 layer_factory.hpp:77] Creating layer conv3_1bn1
I1002 12:07:05.760869 30882 net.cpp:128] Creating Layer conv3_1bn1
I1002 12:07:05.760874 30882 net.cpp:558] conv3_1bn1 <- conv3_1_1
I1002 12:07:05.760881 30882 net.cpp:509] conv3_1bn1 -> conv3_1_1 (in-place)
I1002 12:07:05.761111 30882 net.cpp:172] Setting up conv3_1bn1
I1002 12:07:05.761122 30882 net.cpp:186] Top shape: 64 256 16 16 (4194304)
I1002 12:07:05.761126 30882 net.cpp:194] Memory required for data: 1452015872
I1002 12:07:05.761135 30882 layer_factory.hpp:77] Creating layer conv3_1_scale1
I1002 12:07:05.761143 30882 net.cpp:128] Creating Layer conv3_1_scale1
I1002 12:07:05.761148 30882 net.cpp:558] conv3_1_scale1 <- conv3_1_1
I1002 12:07:05.761154 30882 net.cpp:509] conv3_1_scale1 -> conv3_1_1 (in-place)
I1002 12:07:05.761198 30882 layer_factory.hpp:77] Creating layer conv3_1_scale1
I1002 12:07:05.761318 30882 net.cpp:172] Setting up conv3_1_scale1
I1002 12:07:05.761329 30882 net.cpp:186] Top shape: 64 256 16 16 (4194304)
I1002 12:07:05.761333 30882 net.cpp:194] Memory required for data: 1468793088
I1002 12:07:05.761340 30882 layer_factory.hpp:77] Creating layer conv3_1_down
I1002 12:07:05.761351 30882 net.cpp:128] Creating Layer conv3_1_down
I1002 12:07:05.761389 30882 net.cpp:558] conv3_1_down <- conv2_Eltwise_3_conv2_3ReLU_1_0_split_1
I1002 12:07:05.761396 30882 net.cpp:522] conv3_1_down -> conv3_1_down
I1002 12:07:05.763113 30882 net.cpp:172] Setting up conv3_1_down
I1002 12:07:05.763139 30882 net.cpp:186] Top shape: 64 256 16 16 (4194304)
I1002 12:07:05.763144 30882 net.cpp:194] Memory required for data: 1485570304
I1002 12:07:05.763154 30882 layer_factory.hpp:77] Creating layer conv3_1_bn_down
I1002 12:07:05.763164 30882 net.cpp:128] Creating Layer conv3_1_bn_down
I1002 12:07:05.763168 30882 net.cpp:558] conv3_1_bn_down <- conv3_1_down
I1002 12:07:05.763175 30882 net.cpp:509] conv3_1_bn_down -> conv3_1_down (in-place)
I1002 12:07:05.763404 30882 net.cpp:172] Setting up conv3_1_bn_down
I1002 12:07:05.763414 30882 net.cpp:186] Top shape: 64 256 16 16 (4194304)
I1002 12:07:05.763419 30882 net.cpp:194] Memory required for data: 1502347520
I1002 12:07:05.763428 30882 layer_factory.hpp:77] Creating layer conv3_1_scale_down
I1002 12:07:05.763437 30882 net.cpp:128] Creating Layer conv3_1_scale_down
I1002 12:07:05.763440 30882 net.cpp:558] conv3_1_scale_down <- conv3_1_down
I1002 12:07:05.763447 30882 net.cpp:509] conv3_1_scale_down -> conv3_1_down (in-place)
I1002 12:07:05.763490 30882 layer_factory.hpp:77] Creating layer conv3_1_scale_down
I1002 12:07:05.763617 30882 net.cpp:172] Setting up conv3_1_scale_down
I1002 12:07:05.763626 30882 net.cpp:186] Top shape: 64 256 16 16 (4194304)
I1002 12:07:05.763631 30882 net.cpp:194] Memory required for data: 1519124736
I1002 12:07:05.763638 30882 layer_factory.hpp:77] Creating layer conv3_Eltwise_1
I1002 12:07:05.763646 30882 net.cpp:128] Creating Layer conv3_Eltwise_1
I1002 12:07:05.763650 30882 net.cpp:558] conv3_Eltwise_1 <- conv3_1_1
I1002 12:07:05.763655 30882 net.cpp:558] conv3_Eltwise_1 <- conv3_1_down
I1002 12:07:05.763661 30882 net.cpp:522] conv3_Eltwise_1 -> conv3_Eltwise_1
I1002 12:07:05.763684 30882 net.cpp:172] Setting up conv3_Eltwise_1
I1002 12:07:05.763690 30882 net.cpp:186] Top shape: 64 256 16 16 (4194304)
I1002 12:07:05.763695 30882 net.cpp:194] Memory required for data: 1535901952
I1002 12:07:05.763698 30882 layer_factory.hpp:77] Creating layer conv3_1ReLU_1
I1002 12:07:05.763705 30882 net.cpp:128] Creating Layer conv3_1ReLU_1
I1002 12:07:05.763708 30882 net.cpp:558] conv3_1ReLU_1 <- conv3_Eltwise_1
I1002 12:07:05.763715 30882 net.cpp:509] conv3_1ReLU_1 -> conv3_Eltwise_1 (in-place)
I1002 12:07:05.763937 30882 net.cpp:172] Setting up conv3_1ReLU_1
I1002 12:07:05.763950 30882 net.cpp:186] Top shape: 64 256 16 16 (4194304)
I1002 12:07:05.763954 30882 net.cpp:194] Memory required for data: 1552679168
I1002 12:07:05.763958 30882 layer_factory.hpp:77] Creating layer conv3_Eltwise_1_conv3_1ReLU_1_0_split
I1002 12:07:05.763965 30882 net.cpp:128] Creating Layer conv3_Eltwise_1_conv3_1ReLU_1_0_split
I1002 12:07:05.763972 30882 net.cpp:558] conv3_Eltwise_1_conv3_1ReLU_1_0_split <- conv3_Eltwise_1
I1002 12:07:05.763978 30882 net.cpp:522] conv3_Eltwise_1_conv3_1ReLU_1_0_split -> conv3_Eltwise_1_conv3_1ReLU_1_0_split_0
I1002 12:07:05.763985 30882 net.cpp:522] conv3_Eltwise_1_conv3_1ReLU_1_0_split -> conv3_Eltwise_1_conv3_1ReLU_1_0_split_1
I1002 12:07:05.764031 30882 net.cpp:172] Setting up conv3_Eltwise_1_conv3_1ReLU_1_0_split
I1002 12:07:05.764039 30882 net.cpp:186] Top shape: 64 256 16 16 (4194304)
I1002 12:07:05.764045 30882 net.cpp:186] Top shape: 64 256 16 16 (4194304)
I1002 12:07:05.764048 30882 net.cpp:194] Memory required for data: 1586233600
I1002 12:07:05.764052 30882 layer_factory.hpp:77] Creating layer conv3_2_0
I1002 12:07:05.764062 30882 net.cpp:128] Creating Layer conv3_2_0
I1002 12:07:05.764067 30882 net.cpp:558] conv3_2_0 <- conv3_Eltwise_1_conv3_1ReLU_1_0_split_0
I1002 12:07:05.764075 30882 net.cpp:522] conv3_2_0 -> conv3_2_0
I1002 12:07:05.776052 30882 net.cpp:172] Setting up conv3_2_0
I1002 12:07:05.776080 30882 net.cpp:186] Top shape: 64 256 16 16 (4194304)
I1002 12:07:05.776085 30882 net.cpp:194] Memory required for data: 1603010816
I1002 12:07:05.776096 30882 layer_factory.hpp:77] Creating layer conv3_2_bn0
I1002 12:07:05.776129 30882 net.cpp:128] Creating Layer conv3_2_bn0
I1002 12:07:05.776134 30882 net.cpp:558] conv3_2_bn0 <- conv3_2_0
I1002 12:07:05.776141 30882 net.cpp:509] conv3_2_bn0 -> conv3_2_0 (in-place)
I1002 12:07:05.776377 30882 net.cpp:172] Setting up conv3_2_bn0
I1002 12:07:05.776388 30882 net.cpp:186] Top shape: 64 256 16 16 (4194304)
I1002 12:07:05.776392 30882 net.cpp:194] Memory required for data: 1619788032
I1002 12:07:05.776402 30882 layer_factory.hpp:77] Creating layer conv3_2_scale0
I1002 12:07:05.776410 30882 net.cpp:128] Creating Layer conv3_2_scale0
I1002 12:07:05.776415 30882 net.cpp:558] conv3_2_scale0 <- conv3_2_0
I1002 12:07:05.776422 30882 net.cpp:509] conv3_2_scale0 -> conv3_2_0 (in-place)
I1002 12:07:05.776466 30882 layer_factory.hpp:77] Creating layer conv3_2_scale0
I1002 12:07:05.776592 30882 net.cpp:172] Setting up conv3_2_scale0
I1002 12:07:05.776602 30882 net.cpp:186] Top shape: 64 256 16 16 (4194304)
I1002 12:07:05.776607 30882 net.cpp:194] Memory required for data: 1636565248
I1002 12:07:05.776614 30882 layer_factory.hpp:77] Creating layer conv3_2_ReLU0
I1002 12:07:05.776620 30882 net.cpp:128] Creating Layer conv3_2_ReLU0
I1002 12:07:05.776625 30882 net.cpp:558] conv3_2_ReLU0 <- conv3_2_0
I1002 12:07:05.776630 30882 net.cpp:509] conv3_2_ReLU0 -> conv3_2_0 (in-place)
I1002 12:07:05.777053 30882 net.cpp:172] Setting up conv3_2_ReLU0
I1002 12:07:05.777076 30882 net.cpp:186] Top shape: 64 256 16 16 (4194304)
I1002 12:07:05.777079 30882 net.cpp:194] Memory required for data: 1653342464
I1002 12:07:05.777084 30882 layer_factory.hpp:77] Creating layer conv3_Drop2
I1002 12:07:05.777093 30882 net.cpp:128] Creating Layer conv3_Drop2
I1002 12:07:05.777098 30882 net.cpp:558] conv3_Drop2 <- conv3_2_0
I1002 12:07:05.777106 30882 net.cpp:509] conv3_Drop2 -> conv3_2_0 (in-place)
I1002 12:07:05.777134 30882 net.cpp:172] Setting up conv3_Drop2
I1002 12:07:05.777142 30882 net.cpp:186] Top shape: 64 256 16 16 (4194304)
I1002 12:07:05.777145 30882 net.cpp:194] Memory required for data: 1670119680
I1002 12:07:05.777149 30882 layer_factory.hpp:77] Creating layer conv3_2_1
I1002 12:07:05.777159 30882 net.cpp:128] Creating Layer conv3_2_1
I1002 12:07:05.777163 30882 net.cpp:558] conv3_2_1 <- conv3_2_0
I1002 12:07:05.777170 30882 net.cpp:522] conv3_2_1 -> conv3_2_1
I1002 12:07:05.789163 30882 net.cpp:172] Setting up conv3_2_1
I1002 12:07:05.789192 30882 net.cpp:186] Top shape: 64 256 16 16 (4194304)
I1002 12:07:05.789196 30882 net.cpp:194] Memory required for data: 1686896896
I1002 12:07:05.789208 30882 layer_factory.hpp:77] Creating layer conv3_2bn1
I1002 12:07:05.789218 30882 net.cpp:128] Creating Layer conv3_2bn1
I1002 12:07:05.789223 30882 net.cpp:558] conv3_2bn1 <- conv3_2_1
I1002 12:07:05.789235 30882 net.cpp:509] conv3_2bn1 -> conv3_2_1 (in-place)
I1002 12:07:05.789479 30882 net.cpp:172] Setting up conv3_2bn1
I1002 12:07:05.789490 30882 net.cpp:186] Top shape: 64 256 16 16 (4194304)
I1002 12:07:05.789494 30882 net.cpp:194] Memory required for data: 1703674112
I1002 12:07:05.789503 30882 layer_factory.hpp:77] Creating layer conv3_2_scale1
I1002 12:07:05.789511 30882 net.cpp:128] Creating Layer conv3_2_scale1
I1002 12:07:05.789515 30882 net.cpp:558] conv3_2_scale1 <- conv3_2_1
I1002 12:07:05.789521 30882 net.cpp:509] conv3_2_scale1 -> conv3_2_1 (in-place)
I1002 12:07:05.789566 30882 layer_factory.hpp:77] Creating layer conv3_2_scale1
I1002 12:07:05.789700 30882 net.cpp:172] Setting up conv3_2_scale1
I1002 12:07:05.789710 30882 net.cpp:186] Top shape: 64 256 16 16 (4194304)
I1002 12:07:05.789714 30882 net.cpp:194] Memory required for data: 1720451328
I1002 12:07:05.789722 30882 layer_factory.hpp:77] Creating layer conv3_Eltwise_2
I1002 12:07:05.789733 30882 net.cpp:128] Creating Layer conv3_Eltwise_2
I1002 12:07:05.789738 30882 net.cpp:558] conv3_Eltwise_2 <- conv3_Eltwise_1_conv3_1ReLU_1_0_split_1
I1002 12:07:05.789744 30882 net.cpp:558] conv3_Eltwise_2 <- conv3_2_1
I1002 12:07:05.789749 30882 net.cpp:522] conv3_Eltwise_2 -> conv3_Eltwise_2
I1002 12:07:05.789793 30882 net.cpp:172] Setting up conv3_Eltwise_2
I1002 12:07:05.789801 30882 net.cpp:186] Top shape: 64 256 16 16 (4194304)
I1002 12:07:05.789804 30882 net.cpp:194] Memory required for data: 1737228544
I1002 12:07:05.789809 30882 layer_factory.hpp:77] Creating layer conv3_2ReLU_1
I1002 12:07:05.789816 30882 net.cpp:128] Creating Layer conv3_2ReLU_1
I1002 12:07:05.789821 30882 net.cpp:558] conv3_2ReLU_1 <- conv3_Eltwise_2
I1002 12:07:05.789826 30882 net.cpp:509] conv3_2ReLU_1 -> conv3_Eltwise_2 (in-place)
I1002 12:07:05.790081 30882 net.cpp:172] Setting up conv3_2ReLU_1
I1002 12:07:05.790097 30882 net.cpp:186] Top shape: 64 256 16 16 (4194304)
I1002 12:07:05.790102 30882 net.cpp:194] Memory required for data: 1754005760
I1002 12:07:05.790107 30882 layer_factory.hpp:77] Creating layer conv3_Eltwise_2_conv3_2ReLU_1_0_split
I1002 12:07:05.790113 30882 net.cpp:128] Creating Layer conv3_Eltwise_2_conv3_2ReLU_1_0_split
I1002 12:07:05.790118 30882 net.cpp:558] conv3_Eltwise_2_conv3_2ReLU_1_0_split <- conv3_Eltwise_2
I1002 12:07:05.790125 30882 net.cpp:522] conv3_Eltwise_2_conv3_2ReLU_1_0_split -> conv3_Eltwise_2_conv3_2ReLU_1_0_split_0
I1002 12:07:05.790133 30882 net.cpp:522] conv3_Eltwise_2_conv3_2ReLU_1_0_split -> conv3_Eltwise_2_conv3_2ReLU_1_0_split_1
I1002 12:07:05.790184 30882 net.cpp:172] Setting up conv3_Eltwise_2_conv3_2ReLU_1_0_split
I1002 12:07:05.790199 30882 net.cpp:186] Top shape: 64 256 16 16 (4194304)
I1002 12:07:05.790205 30882 net.cpp:186] Top shape: 64 256 16 16 (4194304)
I1002 12:07:05.790208 30882 net.cpp:194] Memory required for data: 1787560192
I1002 12:07:05.790212 30882 layer_factory.hpp:77] Creating layer conv3_3_0
I1002 12:07:05.790222 30882 net.cpp:128] Creating Layer conv3_3_0
I1002 12:07:05.790227 30882 net.cpp:558] conv3_3_0 <- conv3_Eltwise_2_conv3_2ReLU_1_0_split_0
I1002 12:07:05.790235 30882 net.cpp:522] conv3_3_0 -> conv3_3_0
I1002 12:07:05.802268 30882 net.cpp:172] Setting up conv3_3_0
I1002 12:07:05.802296 30882 net.cpp:186] Top shape: 64 256 16 16 (4194304)
I1002 12:07:05.802301 30882 net.cpp:194] Memory required for data: 1804337408
I1002 12:07:05.802312 30882 layer_factory.hpp:77] Creating layer conv3_3_bn0
I1002 12:07:05.802323 30882 net.cpp:128] Creating Layer conv3_3_bn0
I1002 12:07:05.802328 30882 net.cpp:558] conv3_3_bn0 <- conv3_3_0
I1002 12:07:05.802340 30882 net.cpp:509] conv3_3_bn0 -> conv3_3_0 (in-place)
I1002 12:07:05.802585 30882 net.cpp:172] Setting up conv3_3_bn0
I1002 12:07:05.802597 30882 net.cpp:186] Top shape: 64 256 16 16 (4194304)
I1002 12:07:05.802600 30882 net.cpp:194] Memory required for data: 1821114624
I1002 12:07:05.802610 30882 layer_factory.hpp:77] Creating layer conv3_3_scale0
I1002 12:07:05.802618 30882 net.cpp:128] Creating Layer conv3_3_scale0
I1002 12:07:05.802623 30882 net.cpp:558] conv3_3_scale0 <- conv3_3_0
I1002 12:07:05.802628 30882 net.cpp:509] conv3_3_scale0 -> conv3_3_0 (in-place)
I1002 12:07:05.802672 30882 layer_factory.hpp:77] Creating layer conv3_3_scale0
I1002 12:07:05.802801 30882 net.cpp:172] Setting up conv3_3_scale0
I1002 12:07:05.802812 30882 net.cpp:186] Top shape: 64 256 16 16 (4194304)
I1002 12:07:05.802816 30882 net.cpp:194] Memory required for data: 1837891840
I1002 12:07:05.802824 30882 layer_factory.hpp:77] Creating layer conv3_3_ReLU0
I1002 12:07:05.802830 30882 net.cpp:128] Creating Layer conv3_3_ReLU0
I1002 12:07:05.802835 30882 net.cpp:558] conv3_3_ReLU0 <- conv3_3_0
I1002 12:07:05.802840 30882 net.cpp:509] conv3_3_ReLU0 -> conv3_3_0 (in-place)
I1002 12:07:05.803067 30882 net.cpp:172] Setting up conv3_3_ReLU0
I1002 12:07:05.803079 30882 net.cpp:186] Top shape: 64 256 16 16 (4194304)
I1002 12:07:05.803084 30882 net.cpp:194] Memory required for data: 1854669056
I1002 12:07:05.803088 30882 layer_factory.hpp:77] Creating layer conv3_Drop3
I1002 12:07:05.803097 30882 net.cpp:128] Creating Layer conv3_Drop3
I1002 12:07:05.803102 30882 net.cpp:558] conv3_Drop3 <- conv3_3_0
I1002 12:07:05.803107 30882 net.cpp:509] conv3_Drop3 -> conv3_3_0 (in-place)
I1002 12:07:05.803133 30882 net.cpp:172] Setting up conv3_Drop3
I1002 12:07:05.803139 30882 net.cpp:186] Top shape: 64 256 16 16 (4194304)
I1002 12:07:05.803161 30882 net.cpp:194] Memory required for data: 1871446272
I1002 12:07:05.803166 30882 layer_factory.hpp:77] Creating layer conv3_3_1
I1002 12:07:05.803177 30882 net.cpp:128] Creating Layer conv3_3_1
I1002 12:07:05.803181 30882 net.cpp:558] conv3_3_1 <- conv3_3_0
I1002 12:07:05.803189 30882 net.cpp:522] conv3_3_1 -> conv3_3_1
I1002 12:07:05.815167 30882 net.cpp:172] Setting up conv3_3_1
I1002 12:07:05.815196 30882 net.cpp:186] Top shape: 64 256 16 16 (4194304)
I1002 12:07:05.815201 30882 net.cpp:194] Memory required for data: 1888223488
I1002 12:07:05.815212 30882 layer_factory.hpp:77] Creating layer conv3_3bn1
I1002 12:07:05.815222 30882 net.cpp:128] Creating Layer conv3_3bn1
I1002 12:07:05.815227 30882 net.cpp:558] conv3_3bn1 <- conv3_3_1
I1002 12:07:05.815238 30882 net.cpp:509] conv3_3bn1 -> conv3_3_1 (in-place)
I1002 12:07:05.815481 30882 net.cpp:172] Setting up conv3_3bn1
I1002 12:07:05.815492 30882 net.cpp:186] Top shape: 64 256 16 16 (4194304)
I1002 12:07:05.815496 30882 net.cpp:194] Memory required for data: 1905000704
I1002 12:07:05.815506 30882 layer_factory.hpp:77] Creating layer conv3_3_scale1
I1002 12:07:05.815515 30882 net.cpp:128] Creating Layer conv3_3_scale1
I1002 12:07:05.815518 30882 net.cpp:558] conv3_3_scale1 <- conv3_3_1
I1002 12:07:05.815524 30882 net.cpp:509] conv3_3_scale1 -> conv3_3_1 (in-place)
I1002 12:07:05.815568 30882 layer_factory.hpp:77] Creating layer conv3_3_scale1
I1002 12:07:05.815699 30882 net.cpp:172] Setting up conv3_3_scale1
I1002 12:07:05.815709 30882 net.cpp:186] Top shape: 64 256 16 16 (4194304)
I1002 12:07:05.815713 30882 net.cpp:194] Memory required for data: 1921777920
I1002 12:07:05.815721 30882 layer_factory.hpp:77] Creating layer conv3_Eltwise_3
I1002 12:07:05.815729 30882 net.cpp:128] Creating Layer conv3_Eltwise_3
I1002 12:07:05.815734 30882 net.cpp:558] conv3_Eltwise_3 <- conv3_Eltwise_2_conv3_2ReLU_1_0_split_1
I1002 12:07:05.815740 30882 net.cpp:558] conv3_Eltwise_3 <- conv3_3_1
I1002 12:07:05.815747 30882 net.cpp:522] conv3_Eltwise_3 -> conv3_Eltwise_3
I1002 12:07:05.815768 30882 net.cpp:172] Setting up conv3_Eltwise_3
I1002 12:07:05.815775 30882 net.cpp:186] Top shape: 64 256 16 16 (4194304)
I1002 12:07:05.815779 30882 net.cpp:194] Memory required for data: 1938555136
I1002 12:07:05.815783 30882 layer_factory.hpp:77] Creating layer conv3_3ReLU_1
I1002 12:07:05.815789 30882 net.cpp:128] Creating Layer conv3_3ReLU_1
I1002 12:07:05.815793 30882 net.cpp:558] conv3_3ReLU_1 <- conv3_Eltwise_3
I1002 12:07:05.815800 30882 net.cpp:509] conv3_3ReLU_1 -> conv3_Eltwise_3 (in-place)
I1002 12:07:05.816224 30882 net.cpp:172] Setting up conv3_3ReLU_1
I1002 12:07:05.816246 30882 net.cpp:186] Top shape: 64 256 16 16 (4194304)
I1002 12:07:05.816251 30882 net.cpp:194] Memory required for data: 1955332352
I1002 12:07:05.816256 30882 layer_factory.hpp:77] Creating layer conv3_Eltwise_3_conv3_3ReLU_1_0_split
I1002 12:07:05.816264 30882 net.cpp:128] Creating Layer conv3_Eltwise_3_conv3_3ReLU_1_0_split
I1002 12:07:05.816269 30882 net.cpp:558] conv3_Eltwise_3_conv3_3ReLU_1_0_split <- conv3_Eltwise_3
I1002 12:07:05.816277 30882 net.cpp:522] conv3_Eltwise_3_conv3_3ReLU_1_0_split -> conv3_Eltwise_3_conv3_3ReLU_1_0_split_0
I1002 12:07:05.816287 30882 net.cpp:522] conv3_Eltwise_3_conv3_3ReLU_1_0_split -> conv3_Eltwise_3_conv3_3ReLU_1_0_split_1
I1002 12:07:05.816336 30882 net.cpp:172] Setting up conv3_Eltwise_3_conv3_3ReLU_1_0_split
I1002 12:07:05.816344 30882 net.cpp:186] Top shape: 64 256 16 16 (4194304)
I1002 12:07:05.816349 30882 net.cpp:186] Top shape: 64 256 16 16 (4194304)
I1002 12:07:05.816354 30882 net.cpp:194] Memory required for data: 1988886784
I1002 12:07:05.816357 30882 layer_factory.hpp:77] Creating layer conv4_1_0
I1002 12:07:05.816368 30882 net.cpp:128] Creating Layer conv4_1_0
I1002 12:07:05.816373 30882 net.cpp:558] conv4_1_0 <- conv3_Eltwise_3_conv3_3ReLU_1_0_split_0
I1002 12:07:05.816380 30882 net.cpp:522] conv4_1_0 -> conv4_1_0
I1002 12:07:05.838840 30882 net.cpp:172] Setting up conv4_1_0
I1002 12:07:05.838910 30882 net.cpp:186] Top shape: 64 512 8 8 (2097152)
I1002 12:07:05.838915 30882 net.cpp:194] Memory required for data: 1997275392
I1002 12:07:05.838932 30882 layer_factory.hpp:77] Creating layer conv4_1_bn0
I1002 12:07:05.838946 30882 net.cpp:128] Creating Layer conv4_1_bn0
I1002 12:07:05.838958 30882 net.cpp:558] conv4_1_bn0 <- conv4_1_0
I1002 12:07:05.838966 30882 net.cpp:509] conv4_1_bn0 -> conv4_1_0 (in-place)
I1002 12:07:05.839221 30882 net.cpp:172] Setting up conv4_1_bn0
I1002 12:07:05.839231 30882 net.cpp:186] Top shape: 64 512 8 8 (2097152)
I1002 12:07:05.839236 30882 net.cpp:194] Memory required for data: 2005664000
I1002 12:07:05.839246 30882 layer_factory.hpp:77] Creating layer conv4_1_scale0
I1002 12:07:05.839256 30882 net.cpp:128] Creating Layer conv4_1_scale0
I1002 12:07:05.839259 30882 net.cpp:558] conv4_1_scale0 <- conv4_1_0
I1002 12:07:05.839264 30882 net.cpp:509] conv4_1_scale0 -> conv4_1_0 (in-place)
I1002 12:07:05.839309 30882 layer_factory.hpp:77] Creating layer conv4_1_scale0
I1002 12:07:05.839452 30882 net.cpp:172] Setting up conv4_1_scale0
I1002 12:07:05.839462 30882 net.cpp:186] Top shape: 64 512 8 8 (2097152)
I1002 12:07:05.839465 30882 net.cpp:194] Memory required for data: 2014052608
I1002 12:07:05.839473 30882 layer_factory.hpp:77] Creating layer conv4_1_ReLU0
I1002 12:07:05.839480 30882 net.cpp:128] Creating Layer conv4_1_ReLU0
I1002 12:07:05.839485 30882 net.cpp:558] conv4_1_ReLU0 <- conv4_1_0
I1002 12:07:05.839490 30882 net.cpp:509] conv4_1_ReLU0 -> conv4_1_0 (in-place)
I1002 12:07:05.839913 30882 net.cpp:172] Setting up conv4_1_ReLU0
I1002 12:07:05.839934 30882 net.cpp:186] Top shape: 64 512 8 8 (2097152)
I1002 12:07:05.839938 30882 net.cpp:194] Memory required for data: 2022441216
I1002 12:07:05.839943 30882 layer_factory.hpp:77] Creating layer conv4_Drop1
I1002 12:07:05.839952 30882 net.cpp:128] Creating Layer conv4_Drop1
I1002 12:07:05.839957 30882 net.cpp:558] conv4_Drop1 <- conv4_1_0
I1002 12:07:05.839964 30882 net.cpp:509] conv4_Drop1 -> conv4_1_0 (in-place)
I1002 12:07:05.840003 30882 net.cpp:172] Setting up conv4_Drop1
I1002 12:07:05.840010 30882 net.cpp:186] Top shape: 64 512 8 8 (2097152)
I1002 12:07:05.840014 30882 net.cpp:194] Memory required for data: 2030829824
I1002 12:07:05.840018 30882 layer_factory.hpp:77] Creating layer conv4_1_1
I1002 12:07:05.840030 30882 net.cpp:128] Creating Layer conv4_1_1
I1002 12:07:05.840034 30882 net.cpp:558] conv4_1_1 <- conv4_1_0
I1002 12:07:05.840041 30882 net.cpp:522] conv4_1_1 -> conv4_1_1
I1002 12:07:05.885280 30882 net.cpp:172] Setting up conv4_1_1
I1002 12:07:05.885340 30882 net.cpp:186] Top shape: 64 512 8 8 (2097152)
I1002 12:07:05.885344 30882 net.cpp:194] Memory required for data: 2039218432
I1002 12:07:05.885365 30882 layer_factory.hpp:77] Creating layer conv4_1bn1
I1002 12:07:05.885380 30882 net.cpp:128] Creating Layer conv4_1bn1
I1002 12:07:05.885392 30882 net.cpp:558] conv4_1bn1 <- conv4_1_1
I1002 12:07:05.885401 30882 net.cpp:509] conv4_1bn1 -> conv4_1_1 (in-place)
I1002 12:07:05.885659 30882 net.cpp:172] Setting up conv4_1bn1
I1002 12:07:05.885670 30882 net.cpp:186] Top shape: 64 512 8 8 (2097152)
I1002 12:07:05.885674 30882 net.cpp:194] Memory required for data: 2047607040
I1002 12:07:05.885685 30882 layer_factory.hpp:77] Creating layer conv4_1_scale1
I1002 12:07:05.885694 30882 net.cpp:128] Creating Layer conv4_1_scale1
I1002 12:07:05.885699 30882 net.cpp:558] conv4_1_scale1 <- conv4_1_1
I1002 12:07:05.885704 30882 net.cpp:509] conv4_1_scale1 -> conv4_1_1 (in-place)
I1002 12:07:05.885749 30882 layer_factory.hpp:77] Creating layer conv4_1_scale1
I1002 12:07:05.885893 30882 net.cpp:172] Setting up conv4_1_scale1
I1002 12:07:05.885921 30882 net.cpp:186] Top shape: 64 512 8 8 (2097152)
I1002 12:07:05.885926 30882 net.cpp:194] Memory required for data: 2055995648
I1002 12:07:05.885933 30882 layer_factory.hpp:77] Creating layer conv4_1_down
I1002 12:07:05.885946 30882 net.cpp:128] Creating Layer conv4_1_down
I1002 12:07:05.885951 30882 net.cpp:558] conv4_1_down <- conv3_Eltwise_3_conv3_3ReLU_1_0_split_1
I1002 12:07:05.885958 30882 net.cpp:522] conv4_1_down -> conv4_1_down
I1002 12:07:05.889369 30882 net.cpp:172] Setting up conv4_1_down
I1002 12:07:05.889394 30882 net.cpp:186] Top shape: 64 512 8 8 (2097152)
I1002 12:07:05.889400 30882 net.cpp:194] Memory required for data: 2064384256
I1002 12:07:05.889410 30882 layer_factory.hpp:77] Creating layer conv4_1_bn_down
I1002 12:07:05.889418 30882 net.cpp:128] Creating Layer conv4_1_bn_down
I1002 12:07:05.889423 30882 net.cpp:558] conv4_1_bn_down <- conv4_1_down
I1002 12:07:05.889430 30882 net.cpp:509] conv4_1_bn_down -> conv4_1_down (in-place)
I1002 12:07:05.889688 30882 net.cpp:172] Setting up conv4_1_bn_down
I1002 12:07:05.889698 30882 net.cpp:186] Top shape: 64 512 8 8 (2097152)
I1002 12:07:05.889703 30882 net.cpp:194] Memory required for data: 2072772864
I1002 12:07:05.889713 30882 layer_factory.hpp:77] Creating layer conv4_1_scale_down
I1002 12:07:05.889719 30882 net.cpp:128] Creating Layer conv4_1_scale_down
I1002 12:07:05.889724 30882 net.cpp:558] conv4_1_scale_down <- conv4_1_down
I1002 12:07:05.889729 30882 net.cpp:509] conv4_1_scale_down -> conv4_1_down (in-place)
I1002 12:07:05.889771 30882 layer_factory.hpp:77] Creating layer conv4_1_scale_down
I1002 12:07:05.889920 30882 net.cpp:172] Setting up conv4_1_scale_down
I1002 12:07:05.889931 30882 net.cpp:186] Top shape: 64 512 8 8 (2097152)
I1002 12:07:05.889936 30882 net.cpp:194] Memory required for data: 2081161472
I1002 12:07:05.889945 30882 layer_factory.hpp:77] Creating layer conv4_Eltwise_1
I1002 12:07:05.889952 30882 net.cpp:128] Creating Layer conv4_Eltwise_1
I1002 12:07:05.889957 30882 net.cpp:558] conv4_Eltwise_1 <- conv4_1_1
I1002 12:07:05.889962 30882 net.cpp:558] conv4_Eltwise_1 <- conv4_1_down
I1002 12:07:05.889968 30882 net.cpp:522] conv4_Eltwise_1 -> conv4_Eltwise_1
I1002 12:07:05.889995 30882 net.cpp:172] Setting up conv4_Eltwise_1
I1002 12:07:05.890002 30882 net.cpp:186] Top shape: 64 512 8 8 (2097152)
I1002 12:07:05.890007 30882 net.cpp:194] Memory required for data: 2089550080
I1002 12:07:05.890010 30882 layer_factory.hpp:77] Creating layer conv4_1ReLU_1
I1002 12:07:05.890017 30882 net.cpp:128] Creating Layer conv4_1ReLU_1
I1002 12:07:05.890022 30882 net.cpp:558] conv4_1ReLU_1 <- conv4_Eltwise_1
I1002 12:07:05.890027 30882 net.cpp:509] conv4_1ReLU_1 -> conv4_Eltwise_1 (in-place)
I1002 12:07:05.890255 30882 net.cpp:172] Setting up conv4_1ReLU_1
I1002 12:07:05.890270 30882 net.cpp:186] Top shape: 64 512 8 8 (2097152)
I1002 12:07:05.890275 30882 net.cpp:194] Memory required for data: 2097938688
I1002 12:07:05.890280 30882 layer_factory.hpp:77] Creating layer conv4_Eltwise_1_conv4_1ReLU_1_0_split
I1002 12:07:05.890286 30882 net.cpp:128] Creating Layer conv4_Eltwise_1_conv4_1ReLU_1_0_split
I1002 12:07:05.890292 30882 net.cpp:558] conv4_Eltwise_1_conv4_1ReLU_1_0_split <- conv4_Eltwise_1
I1002 12:07:05.890298 30882 net.cpp:522] conv4_Eltwise_1_conv4_1ReLU_1_0_split -> conv4_Eltwise_1_conv4_1ReLU_1_0_split_0
I1002 12:07:05.890306 30882 net.cpp:522] conv4_Eltwise_1_conv4_1ReLU_1_0_split -> conv4_Eltwise_1_conv4_1ReLU_1_0_split_1
I1002 12:07:05.890357 30882 net.cpp:172] Setting up conv4_Eltwise_1_conv4_1ReLU_1_0_split
I1002 12:07:05.890367 30882 net.cpp:186] Top shape: 64 512 8 8 (2097152)
I1002 12:07:05.890372 30882 net.cpp:186] Top shape: 64 512 8 8 (2097152)
I1002 12:07:05.890377 30882 net.cpp:194] Memory required for data: 2114715904
I1002 12:07:05.890380 30882 layer_factory.hpp:77] Creating layer conv4_2_0
I1002 12:07:05.890390 30882 net.cpp:128] Creating Layer conv4_2_0
I1002 12:07:05.890395 30882 net.cpp:558] conv4_2_0 <- conv4_Eltwise_1_conv4_1ReLU_1_0_split_0
I1002 12:07:05.890403 30882 net.cpp:522] conv4_2_0 -> conv4_2_0
I1002 12:07:05.935626 30882 net.cpp:172] Setting up conv4_2_0
I1002 12:07:05.935684 30882 net.cpp:186] Top shape: 64 512 8 8 (2097152)
I1002 12:07:05.935689 30882 net.cpp:194] Memory required for data: 2123104512
I1002 12:07:05.935708 30882 layer_factory.hpp:77] Creating layer conv4_2_bn0
I1002 12:07:05.935724 30882 net.cpp:128] Creating Layer conv4_2_bn0
I1002 12:07:05.935735 30882 net.cpp:558] conv4_2_bn0 <- conv4_2_0
I1002 12:07:05.935793 30882 net.cpp:509] conv4_2_bn0 -> conv4_2_0 (in-place)
I1002 12:07:05.936054 30882 net.cpp:172] Setting up conv4_2_bn0
I1002 12:07:05.936065 30882 net.cpp:186] Top shape: 64 512 8 8 (2097152)
I1002 12:07:05.936069 30882 net.cpp:194] Memory required for data: 2131493120
I1002 12:07:05.936089 30882 layer_factory.hpp:77] Creating layer conv4_2_scale0
I1002 12:07:05.936100 30882 net.cpp:128] Creating Layer conv4_2_scale0
I1002 12:07:05.936103 30882 net.cpp:558] conv4_2_scale0 <- conv4_2_0
I1002 12:07:05.936110 30882 net.cpp:509] conv4_2_scale0 -> conv4_2_0 (in-place)
I1002 12:07:05.936154 30882 layer_factory.hpp:77] Creating layer conv4_2_scale0
I1002 12:07:05.936305 30882 net.cpp:172] Setting up conv4_2_scale0
I1002 12:07:05.936316 30882 net.cpp:186] Top shape: 64 512 8 8 (2097152)
I1002 12:07:05.936319 30882 net.cpp:194] Memory required for data: 2139881728
I1002 12:07:05.936327 30882 layer_factory.hpp:77] Creating layer conv4_2_ReLU0
I1002 12:07:05.936336 30882 net.cpp:128] Creating Layer conv4_2_ReLU0
I1002 12:07:05.936341 30882 net.cpp:558] conv4_2_ReLU0 <- conv4_2_0
I1002 12:07:05.936345 30882 net.cpp:509] conv4_2_ReLU0 -> conv4_2_0 (in-place)
I1002 12:07:05.936779 30882 net.cpp:172] Setting up conv4_2_ReLU0
I1002 12:07:05.936801 30882 net.cpp:186] Top shape: 64 512 8 8 (2097152)
I1002 12:07:05.936805 30882 net.cpp:194] Memory required for data: 2148270336
I1002 12:07:05.936810 30882 layer_factory.hpp:77] Creating layer conv4_Drop2
I1002 12:07:05.936820 30882 net.cpp:128] Creating Layer conv4_Drop2
I1002 12:07:05.936825 30882 net.cpp:558] conv4_Drop2 <- conv4_2_0
I1002 12:07:05.936832 30882 net.cpp:509] conv4_Drop2 -> conv4_2_0 (in-place)
I1002 12:07:05.936867 30882 net.cpp:172] Setting up conv4_Drop2
I1002 12:07:05.936875 30882 net.cpp:186] Top shape: 64 512 8 8 (2097152)
I1002 12:07:05.936878 30882 net.cpp:194] Memory required for data: 2156658944
I1002 12:07:05.936883 30882 layer_factory.hpp:77] Creating layer conv4_2_1
I1002 12:07:05.936895 30882 net.cpp:128] Creating Layer conv4_2_1
I1002 12:07:05.936899 30882 net.cpp:558] conv4_2_1 <- conv4_2_0
I1002 12:07:05.936906 30882 net.cpp:522] conv4_2_1 -> conv4_2_1
I1002 12:07:05.982172 30882 net.cpp:172] Setting up conv4_2_1
I1002 12:07:05.982229 30882 net.cpp:186] Top shape: 64 512 8 8 (2097152)
I1002 12:07:05.982234 30882 net.cpp:194] Memory required for data: 2165047552
I1002 12:07:05.982254 30882 layer_factory.hpp:77] Creating layer conv4_2bn1
I1002 12:07:05.982271 30882 net.cpp:128] Creating Layer conv4_2bn1
I1002 12:07:05.982278 30882 net.cpp:558] conv4_2bn1 <- conv4_2_1
I1002 12:07:05.982290 30882 net.cpp:509] conv4_2bn1 -> conv4_2_1 (in-place)
I1002 12:07:05.982556 30882 net.cpp:172] Setting up conv4_2bn1
I1002 12:07:05.982568 30882 net.cpp:186] Top shape: 64 512 8 8 (2097152)
I1002 12:07:05.982573 30882 net.cpp:194] Memory required for data: 2173436160
I1002 12:07:05.982583 30882 layer_factory.hpp:77] Creating layer conv4_2_scale1
I1002 12:07:05.982592 30882 net.cpp:128] Creating Layer conv4_2_scale1
I1002 12:07:05.982597 30882 net.cpp:558] conv4_2_scale1 <- conv4_2_1
I1002 12:07:05.982602 30882 net.cpp:509] conv4_2_scale1 -> conv4_2_1 (in-place)
I1002 12:07:05.982650 30882 layer_factory.hpp:77] Creating layer conv4_2_scale1
I1002 12:07:05.982800 30882 net.cpp:172] Setting up conv4_2_scale1
I1002 12:07:05.982810 30882 net.cpp:186] Top shape: 64 512 8 8 (2097152)
I1002 12:07:05.982815 30882 net.cpp:194] Memory required for data: 2181824768
I1002 12:07:05.982822 30882 layer_factory.hpp:77] Creating layer conv4_Eltwise_2
I1002 12:07:05.982831 30882 net.cpp:128] Creating Layer conv4_Eltwise_2
I1002 12:07:05.982836 30882 net.cpp:558] conv4_Eltwise_2 <- conv4_Eltwise_1_conv4_1ReLU_1_0_split_1
I1002 12:07:05.982841 30882 net.cpp:558] conv4_Eltwise_2 <- conv4_2_1
I1002 12:07:05.982848 30882 net.cpp:522] conv4_Eltwise_2 -> conv4_Eltwise_2
I1002 12:07:05.982877 30882 net.cpp:172] Setting up conv4_Eltwise_2
I1002 12:07:05.982884 30882 net.cpp:186] Top shape: 64 512 8 8 (2097152)
I1002 12:07:05.982888 30882 net.cpp:194] Memory required for data: 2190213376
I1002 12:07:05.982935 30882 layer_factory.hpp:77] Creating layer conv4_2ReLU_1
I1002 12:07:05.982945 30882 net.cpp:128] Creating Layer conv4_2ReLU_1
I1002 12:07:05.982949 30882 net.cpp:558] conv4_2ReLU_1 <- conv4_Eltwise_2
I1002 12:07:05.982954 30882 net.cpp:509] conv4_2ReLU_1 -> conv4_Eltwise_2 (in-place)
I1002 12:07:05.983192 30882 net.cpp:172] Setting up conv4_2ReLU_1
I1002 12:07:05.983207 30882 net.cpp:186] Top shape: 64 512 8 8 (2097152)
I1002 12:07:05.983211 30882 net.cpp:194] Memory required for data: 2198601984
I1002 12:07:05.983216 30882 layer_factory.hpp:77] Creating layer conv4_Eltwise_2_conv4_2ReLU_1_0_split
I1002 12:07:05.983223 30882 net.cpp:128] Creating Layer conv4_Eltwise_2_conv4_2ReLU_1_0_split
I1002 12:07:05.983227 30882 net.cpp:558] conv4_Eltwise_2_conv4_2ReLU_1_0_split <- conv4_Eltwise_2
I1002 12:07:05.983234 30882 net.cpp:522] conv4_Eltwise_2_conv4_2ReLU_1_0_split -> conv4_Eltwise_2_conv4_2ReLU_1_0_split_0
I1002 12:07:05.983243 30882 net.cpp:522] conv4_Eltwise_2_conv4_2ReLU_1_0_split -> conv4_Eltwise_2_conv4_2ReLU_1_0_split_1
I1002 12:07:05.983294 30882 net.cpp:172] Setting up conv4_Eltwise_2_conv4_2ReLU_1_0_split
I1002 12:07:05.983309 30882 net.cpp:186] Top shape: 64 512 8 8 (2097152)
I1002 12:07:05.983314 30882 net.cpp:186] Top shape: 64 512 8 8 (2097152)
I1002 12:07:05.983319 30882 net.cpp:194] Memory required for data: 2215379200
I1002 12:07:05.983322 30882 layer_factory.hpp:77] Creating layer conv4_3_0
I1002 12:07:05.983335 30882 net.cpp:128] Creating Layer conv4_3_0
I1002 12:07:05.983340 30882 net.cpp:558] conv4_3_0 <- conv4_Eltwise_2_conv4_2ReLU_1_0_split_0
I1002 12:07:05.983346 30882 net.cpp:522] conv4_3_0 -> conv4_3_0
I1002 12:07:06.028596 30882 net.cpp:172] Setting up conv4_3_0
I1002 12:07:06.028654 30882 net.cpp:186] Top shape: 64 512 8 8 (2097152)
I1002 12:07:06.028658 30882 net.cpp:194] Memory required for data: 2223767808
I1002 12:07:06.028678 30882 layer_factory.hpp:77] Creating layer conv4_3_bn0
I1002 12:07:06.028694 30882 net.cpp:128] Creating Layer conv4_3_bn0
I1002 12:07:06.028707 30882 net.cpp:558] conv4_3_bn0 <- conv4_3_0
I1002 12:07:06.028715 30882 net.cpp:509] conv4_3_bn0 -> conv4_3_0 (in-place)
I1002 12:07:06.028983 30882 net.cpp:172] Setting up conv4_3_bn0
I1002 12:07:06.028995 30882 net.cpp:186] Top shape: 64 512 8 8 (2097152)
I1002 12:07:06.028998 30882 net.cpp:194] Memory required for data: 2232156416
I1002 12:07:06.029009 30882 layer_factory.hpp:77] Creating layer conv4_3_scale0
I1002 12:07:06.029021 30882 net.cpp:128] Creating Layer conv4_3_scale0
I1002 12:07:06.029024 30882 net.cpp:558] conv4_3_scale0 <- conv4_3_0
I1002 12:07:06.029031 30882 net.cpp:509] conv4_3_scale0 -> conv4_3_0 (in-place)
I1002 12:07:06.029075 30882 layer_factory.hpp:77] Creating layer conv4_3_scale0
I1002 12:07:06.029227 30882 net.cpp:172] Setting up conv4_3_scale0
I1002 12:07:06.029237 30882 net.cpp:186] Top shape: 64 512 8 8 (2097152)
I1002 12:07:06.029242 30882 net.cpp:194] Memory required for data: 2240545024
I1002 12:07:06.029249 30882 layer_factory.hpp:77] Creating layer conv4_3_ReLU0
I1002 12:07:06.029256 30882 net.cpp:128] Creating Layer conv4_3_ReLU0
I1002 12:07:06.029261 30882 net.cpp:558] conv4_3_ReLU0 <- conv4_3_0
I1002 12:07:06.029266 30882 net.cpp:509] conv4_3_ReLU0 -> conv4_3_0 (in-place)
I1002 12:07:06.029494 30882 net.cpp:172] Setting up conv4_3_ReLU0
I1002 12:07:06.029506 30882 net.cpp:186] Top shape: 64 512 8 8 (2097152)
I1002 12:07:06.029510 30882 net.cpp:194] Memory required for data: 2248933632
I1002 12:07:06.029515 30882 layer_factory.hpp:77] Creating layer conv4_Drop3
I1002 12:07:06.029525 30882 net.cpp:128] Creating Layer conv4_Drop3
I1002 12:07:06.029528 30882 net.cpp:558] conv4_Drop3 <- conv4_3_0
I1002 12:07:06.029536 30882 net.cpp:509] conv4_Drop3 -> conv4_3_0 (in-place)
I1002 12:07:06.029567 30882 net.cpp:172] Setting up conv4_Drop3
I1002 12:07:06.029575 30882 net.cpp:186] Top shape: 64 512 8 8 (2097152)
I1002 12:07:06.029579 30882 net.cpp:194] Memory required for data: 2257322240
I1002 12:07:06.029583 30882 layer_factory.hpp:77] Creating layer conv4_3_1
I1002 12:07:06.029639 30882 net.cpp:128] Creating Layer conv4_3_1
I1002 12:07:06.029644 30882 net.cpp:558] conv4_3_1 <- conv4_3_0
I1002 12:07:06.029650 30882 net.cpp:522] conv4_3_1 -> conv4_3_1
I1002 12:07:06.074976 30882 net.cpp:172] Setting up conv4_3_1
I1002 12:07:06.075034 30882 net.cpp:186] Top shape: 64 512 8 8 (2097152)
I1002 12:07:06.075039 30882 net.cpp:194] Memory required for data: 2265710848
I1002 12:07:06.075059 30882 layer_factory.hpp:77] Creating layer conv4_3bn1
I1002 12:07:06.075076 30882 net.cpp:128] Creating Layer conv4_3bn1
I1002 12:07:06.075083 30882 net.cpp:558] conv4_3bn1 <- conv4_3_1
I1002 12:07:06.075095 30882 net.cpp:509] conv4_3bn1 -> conv4_3_1 (in-place)
I1002 12:07:06.075363 30882 net.cpp:172] Setting up conv4_3bn1
I1002 12:07:06.075374 30882 net.cpp:186] Top shape: 64 512 8 8 (2097152)
I1002 12:07:06.075378 30882 net.cpp:194] Memory required for data: 2274099456
I1002 12:07:06.075388 30882 layer_factory.hpp:77] Creating layer conv4_3_scale1
I1002 12:07:06.075398 30882 net.cpp:128] Creating Layer conv4_3_scale1
I1002 12:07:06.075402 30882 net.cpp:558] conv4_3_scale1 <- conv4_3_1
I1002 12:07:06.075408 30882 net.cpp:509] conv4_3_scale1 -> conv4_3_1 (in-place)
I1002 12:07:06.075454 30882 layer_factory.hpp:77] Creating layer conv4_3_scale1
I1002 12:07:06.075606 30882 net.cpp:172] Setting up conv4_3_scale1
I1002 12:07:06.075618 30882 net.cpp:186] Top shape: 64 512 8 8 (2097152)
I1002 12:07:06.075621 30882 net.cpp:194] Memory required for data: 2282488064
I1002 12:07:06.075629 30882 layer_factory.hpp:77] Creating layer conv4_Eltwise_3
I1002 12:07:06.075639 30882 net.cpp:128] Creating Layer conv4_Eltwise_3
I1002 12:07:06.075644 30882 net.cpp:558] conv4_Eltwise_3 <- conv4_Eltwise_2_conv4_2ReLU_1_0_split_1
I1002 12:07:06.075649 30882 net.cpp:558] conv4_Eltwise_3 <- conv4_3_1
I1002 12:07:06.075655 30882 net.cpp:522] conv4_Eltwise_3 -> conv4_Eltwise_3
I1002 12:07:06.075685 30882 net.cpp:172] Setting up conv4_Eltwise_3
I1002 12:07:06.075692 30882 net.cpp:186] Top shape: 64 512 8 8 (2097152)
I1002 12:07:06.075695 30882 net.cpp:194] Memory required for data: 2290876672
I1002 12:07:06.075700 30882 layer_factory.hpp:77] Creating layer conv4_3ReLU_1
I1002 12:07:06.075707 30882 net.cpp:128] Creating Layer conv4_3ReLU_1
I1002 12:07:06.075712 30882 net.cpp:558] conv4_3ReLU_1 <- conv4_Eltwise_3
I1002 12:07:06.075717 30882 net.cpp:509] conv4_3ReLU_1 -> conv4_Eltwise_3 (in-place)
I1002 12:07:06.075953 30882 net.cpp:172] Setting up conv4_3ReLU_1
I1002 12:07:06.075969 30882 net.cpp:186] Top shape: 64 512 8 8 (2097152)
I1002 12:07:06.075973 30882 net.cpp:194] Memory required for data: 2299265280
I1002 12:07:06.075978 30882 layer_factory.hpp:77] Creating layer Pooling1
I1002 12:07:06.075986 30882 net.cpp:128] Creating Layer Pooling1
I1002 12:07:06.075991 30882 net.cpp:558] Pooling1 <- conv4_Eltwise_3
I1002 12:07:06.075999 30882 net.cpp:522] Pooling1 -> Pooling1
I1002 12:07:06.076495 30882 net.cpp:172] Setting up Pooling1
I1002 12:07:06.076517 30882 net.cpp:186] Top shape: 64 512 1 1 (32768)
I1002 12:07:06.076521 30882 net.cpp:194] Memory required for data: 2299396352
I1002 12:07:06.076526 30882 layer_factory.hpp:77] Creating layer fc1
I1002 12:07:06.076539 30882 net.cpp:128] Creating Layer fc1
I1002 12:07:06.076545 30882 net.cpp:558] fc1 <- Pooling1
I1002 12:07:06.076552 30882 net.cpp:522] fc1 -> fc1
I1002 12:07:06.078161 30882 net.cpp:172] Setting up fc1
I1002 12:07:06.078181 30882 net.cpp:186] Top shape: 64 10 (640)
I1002 12:07:06.078186 30882 net.cpp:194] Memory required for data: 2299398912
I1002 12:07:06.078197 30882 layer_factory.hpp:77] Creating layer Softmax1
I1002 12:07:06.078204 30882 net.cpp:128] Creating Layer Softmax1
I1002 12:07:06.078214 30882 net.cpp:558] Softmax1 <- fc1
I1002 12:07:06.078219 30882 net.cpp:558] Softmax1 <- label
I1002 12:07:06.078228 30882 net.cpp:522] Softmax1 -> Softmax1
…
I1002 12:07:06.080548 30882 solver.cpp:277] Creating test net (#0) specified by test_net file: ./test_WRN_20.prototxt
I1002 12:07:06.081374 30882 net.cpp:82] Initializing net from parameters: 
name: "WRN-20"
state {
  phase: TEST
}
layer {
  name: "Data1"
  type: "Data"
  top: "data"
  top: "label"
  transform_param {
    scale: 0.00390625
    mirror: false
    mean_value: 125.3
    mean_value: 122.9
    mean_value: 113.8
  }
  data_param {
    source: "/home/lijianfei/datasets/cifar10_40/test_lmdb"
    batch_size: 10
    backend: LMDB
  }
  image_data_param {
    shuffle: false
  }
}
layer {
  name: "conv1"
  type: "Convolution"
  bottom: "data"
  top: "conv1"
  param {
    lr_mult: 1
    decay_mult: 1
  }
  param {
    lr_mult: 2
    decay_mult: 0
  }
  convolution_param {
    num_output: 16
    bias_term: true
    pad: 1
    kernel_size: 3
    stride: 1
    weight_filler {
      type: "msra"
    }
    bias_filler {
      type: "constant"
      value: 0
    }
  }
}
layer {
  name: "conv1/bn"
  type: "BatchNorm"
  bottom: "conv1"
  top: "conv1"
  param {
    lr_mult: 0
    decay_mult: 0
  }
  param {
    lr_mult: 0
    decay_mult: 0
  }
  param {
    lr_mult: 0
    decay_mult: 0
  }
  batch_norm_param {
    use_global_stats: true
  }
}
layer {
  name: "conv1/scale"
  type: "Scale"
  bottom: "conv1"
  top: "conv1"
  scale_param {
    bias_term: true
  }
}
layer {
  name: "conv1/ReLU"
  type: "ReLU"
  bottom: "conv1"
  top: "conv1"
}
layer {
  name: "conv2_1_0"
  type: "Convolution"
  bottom: "conv1"
  top: "conv2_1_0"
  param {
    lr_mult: 1
    decay_mult: 1
  }
  param {
    lr_mult: 2
    decay_mult: 0
  }
  convolution_param {
    num_output: 128
    bias_term: true
    pad: 1
    kernel_size: 3
    stride: 1
    weight_filler {
      type: "msra"
    }
    bias_filler {
      type: "constant"
      value: 0
    }
  }
}
layer {
  name: "conv2_1_bn0"
  type: "BatchNorm"
  bottom: "conv2_1_0"
  top: "conv2_1_0"
  param {
    lr_mult: 0
    decay_mult: 0
  }
  param {
    lr_mult: 0
    decay_mult: 0
  }
  param {
    lr_mult: 0
    decay_mult: 0
  }
  batch_norm_param {
    use_global_stats: true
  }
}
layer {
  name: "conv2_1_scale0"
  type: "Scale"
  bottom: "conv2_1_0"
  top: "conv2_1_0"
  scale_param {
    bias_term: true
  }
}
layer {
  name: "conv2_1_ReLU0"
  type: "ReLU"
  bottom: "conv2_1_0"
  top: "conv2_1_0"
}
layer {
  name: "conv2_Drop1"
  type: "Dropout"
  bottom: "conv2_1_0"
  top: "conv2_1_0"
  dropout_param {
    dropout_ratio: 1
  }
}
layer {
  name: "conv2_1_1"
  type: "Convolution"
  bottom: "conv2_1_0"
  top: "conv2_1_1"
  param {
    lr_mult: 1
    decay_mult: 1
  }
  param {
    lr_mult: 2
    decay_mult: 0
  }
  convolution_param {
    num_output: 128
    bias_term: true
    pad: 1
    kernel_size: 3
    stride: 1
    weight_filler {
      type: "msra"
    }
    bias_filler {
      type: "constant"
      value: 0
    }
  }
}
layer {
  name: "conv2_1bn1"
  type: "BatchNorm"
  bottom: "conv2_1_1"
  top: "conv2_1_1"
  param {
    lr_mult: 0
    decay_mult: 0
  }
  param {
    lr_mult: 0
    decay_mult: 0
  }
  param {
    lr_mult: 0
    decay_mult: 0
  }
  batch_norm_param {
    use_global_stats: true
  }
}
layer {
  name: "conv2_1_scale1"
  type: "Scale"
  bottom: "conv2_1_1"
  top: "conv2_1_1"
  scale_param {
    bias_term: true
  }
}
layer {
  name: "conv2_1_down"
  type: "Convolution"
  bottom: "conv1"
  top: "conv2_1_down"
  param {
    lr_mult: 1
    decay_mult: 1
  }
  param {
    lr_mult: 2
    decay_mult: 0
  }
  convolution_param {
    num_output: 128
    bias_term: true
    pad: 0
    kernel_size: 1
    stride: 1
    weight_filler {
      type: "msra"
    }
    bias_filler {
      type: "constant"
      value: 0
    }
  }
}
layer {
  name: "conv2_1_bn_down"
  type: "BatchNorm"
  bottom: "conv2_1_down"
  top: "conv2_1_down"
  param {
    lr_mult: 0
    decay_mult: 0
  }
  param {
    lr_mult: 0
    decay_mult: 0
  }
  param {
    lr_mult: 0
    decay_mult: 0
  }
  batch_norm_param {
    use_global_stats: true
  }
}
layer {
  name: "conv2_1_scale_down"
  type: "Scale"
  bottom: "conv2_1_down"
  top: "conv2_1_down"
  scale_param {
    bias_term: true
  }
}
layer {
  name: "conv2_Eltwise_1"
  type: "Eltwise"
  bottom: "conv2_1_1"
  bottom: "conv2_1_down"
  top: "conv2_Eltwise_1"
  eltwise_param {
    operation: SUM
  }
}
layer {
  name: "conv2_1ReLU_1"
  type: "ReLU"
  bottom: "conv2_Eltwise_1"
  top: "conv2_Eltwise_1"
}
layer {
  name: "conv2_2_0"
  type: "Convolution"
  bottom: "conv2_Eltwise_1"
  top: "conv2_2_0"
  param {
    lr_mult: 1
    decay_mult: 1
  }
  param {
    lr_mult: 2
    decay_mult: 0
  }
  convolution_param {
    num_output: 128
    bias_term: true
    pad: 1
    kernel_size: 3
    stride: 1
    weight_filler {
      type: "msra"
    }
    bias_filler {
      type: "constant"
      value: 0
    }
  }
}
layer {
  name: "conv2_2_bn0"
  type: "BatchNorm"
  bottom: "conv2_2_0"
  top: "conv2_2_0"
  param {
    lr_mult: 0
    decay_mult: 0
  }
  param {
    lr_mult: 0
    decay_mult: 0
  }
  param {
    lr_mult: 0
    decay_mult: 0
  }
  batch_norm_param {
    use_global_stats: true
  }
}
layer {
  name: "conv2_2_scale0"
  type: "Scale"
  bottom: "conv2_2_0"
  top: "conv2_2_0"
  scale_param {
    bias_term: true
  }
}
layer {
  name: "conv2_2_ReLU0"
  type: "ReLU"
  bottom: "conv2_2_0"
  top: "conv2_2_0"
}
layer {
  name: "conv2_Drop2"
  type: "Dropout"
  bottom: "conv2_2_0"
  top: "conv2_2_0"
  dropout_param {
    dropout_ratio: 1
  }
}
layer {
  name: "conv2_2_1"
  type: "Convolution"
  bottom: "conv2_2_0"
  top: "conv2_2_1"
  param {
    lr_mult: 1
    decay_mult: 1
  }
  param {
    lr_mult: 2
    decay_mult: 0
  }
  convolution_param {
    num_output: 128
    bias_term: true
    pad: 1
    kernel_size: 3
    stride: 1
    weight_filler {
      type: "msra"
    }
    bias_filler {
      type: "constant"
      value: 0
    }
  }
}
layer {
  name: "conv2_2bn1"
  type: "BatchNorm"
  bottom: "conv2_2_1"
  top: "conv2_2_1"
  param {
    lr_mult: 0
    decay_mult: 0
  }
  param {
    lr_mult: 0
    decay_mult: 0
  }
  param {
    lr_mult: 0
    decay_mult: 0
  }
  batch_norm_param {
    use_global_stats: true
  }
}
layer {
  name: "conv2_2_scale1"
  type: "Scale"
  bottom: "conv2_2_1"
  top: "conv2_2_1"
  scale_param {
    bias_term: true
  }
}
layer {
  name: "conv2_Eltwise_2"
  type: "Eltwise"
  bottom: "conv2_Eltwise_1"
  bottom: "conv2_2_1"
  top: "conv2_Eltwise_2"
  eltwise_param {
    operation: SUM
  }
}
layer {
  name: "conv2_2ReLU_1"
  type: "ReLU"
  bottom: "conv2_Eltwise_2"
  top: "conv2_Eltwise_2"
}
layer {
  name: "conv2_3_0"
  type: "Convolution"
  bottom: "conv2_Eltwise_2"
  top: "conv2_3_0"
  param {
    lr_mult: 1
    decay_mult: 1
  }
  param {
    lr_mult: 2
    decay_mult: 0
  }
  convolution_param {
    num_output: 128
    bias_term: true
    pad: 1
    kernel_size: 3
    stride: 1
    weight_filler {
      type: "msra"
    }
    bias_filler {
      type: "constant"
      value: 0
    }
  }
}
layer {
  name: "conv2_3_bn0"
  type: "BatchNorm"
  bottom: "conv2_3_0"
  top: "conv2_3_0"
  param {
    lr_mult: 0
    decay_mult: 0
  }
  param {
    lr_mult: 0
    decay_mult: 0
  }
  param {
    lr_mult: 0
    decay_mult: 0
  }
  batch_norm_param {
    use_global_stats: true
  }
}
layer {
  name: "conv2_3_scale0"
  type: "Scale"
  bottom: "conv2_3_0"
  top: "conv2_3_0"
  scale_param {
    bias_term: true
  }
}
layer {
  name: "conv2_3_ReLU0"
  type: "ReLU"
  bottom: "conv2_3_0"
  top: "conv2_3_0"
}
layer {
  name: "conv2_Drop3"
  type: "Dropout"
  bottom: "conv2_3_0"
  top: "conv2_3_0"
  dropout_param {
    dropout_ratio: 1
  }
}
layer {
  name: "conv2_3_1"
  type: "Convolution"
  bottom: "conv2_3_0"
  top: "conv2_3_1"
  param {
    lr_mult: 1
    decay_mult: 1
  }
  param {
    lr_mult: 2
    decay_mult: 0
  }
  convolution_param {
    num_output: 128
    bias_term: true
    pad: 1
    kernel_size: 3
    stride: 1
    weight_filler {
      type: "msra"
    }
    bias_filler {
      type: "constant"
      value: 0
    }
  }
}
layer {
  name: "conv2_3bn1"
  type: "BatchNorm"
  bottom: "conv2_3_1"
  top: "conv2_3_1"
  param {
    lr_mult: 0
    decay_mult: 0
  }
  param {
    lr_mult: 0
    decay_mult: 0
  }
  param {
    lr_mult: 0
    decay_mult: 0
  }
  batch_norm_param {
    use_global_stats: true
  }
}
layer {
  name: "conv2_3_scale1"
  type: "Scale"
  bottom: "conv2_3_1"
  top: "conv2_3_1"
  scale_param {
    bias_term: true
  }
}
layer {
  name: "conv2_Eltwise_3"
  type: "Eltwise"
  bottom: "conv2_Eltwise_2"
  bottom: "conv2_3_1"
  top: "conv2_Eltwise_3"
  eltwise_param {
    operation: SUM
  }
}
layer {
  name: "conv2_3ReLU_1"
  type: "ReLU"
  bottom: "conv2_Eltwise_3"
  top: "conv2_Eltwise_3"
}
layer {
  name: "conv3_1_0"
  type: "Convolution"
  bottom: "conv2_Eltwise_3"
  top: "conv3_1_0"
  param {
    lr_mult: 1
    decay_mult: 1
  }
  param {
    lr_mult: 2
    decay_mult: 0
  }
  convolution_param {
    num_output: 256
    bias_term: true
    pad: 1
    kernel_size: 3
    stride: 2
    weight_filler {
      type: "msra"
    }
    bias_filler {
      type: "constant"
      value: 0
    }
  }
}
layer {
  name: "conv3_1_bn0"
  type: "BatchNorm"
  bottom: "conv3_1_0"
  top: "conv3_1_0"
  param {
    lr_mult: 0
    decay_mult: 0
  }
  param {
    lr_mult: 0
    decay_mult: 0
  }
  param {
    lr_mult: 0
    decay_mult: 0
  }
  batch_norm_param {
    use_global_stats: true
  }
}
layer {
  name: "conv3_1_scale0"
  type: "Scale"
  bottom: "conv3_1_0"
  top: "conv3_1_0"
  scale_param {
    bias_term: true
  }
}
layer {
  name: "conv3_1_ReLU0"
  type: "ReLU"
  bottom: "conv3_1_0"
  top: "conv3_1_0"
}
layer {
  name: "conv3_Drop1"
  type: "Dropout"
  bottom: "conv3_1_0"
  top: "conv3_1_0"
  dropout_param {
    dropout_ratio: 1
  }
}
layer {
  name: "conv3_1_1"
  type: "Convolution"
  bottom: "conv3_1_0"
  top: "conv3_1_1"
  param {
    lr_mult: 1
    decay_mult: 1
  }
  param {
    lr_mult: 2
    decay_mult: 0
  }
  convolution_param {
    num_output: 256
    bias_term: true
    pad: 1
    kernel_size: 3
    stride: 1
    weight_filler {
      type: "msra"
    }
    bias_filler {
      type: "constant"
      value: 0
    }
  }
}
layer {
  name: "conv3_1bn1"
  type: "BatchNorm"
  bottom: "conv3_1_1"
  top: "conv3_1_1"
  param {
    lr_mult: 0
    decay_mult: 0
  }
  param {
    lr_mult: 0
    decay_mult: 0
  }
  param {
    lr_mult: 0
    decay_mult: 0
  }
  batch_norm_param {
    use_global_stats: true
  }
}
layer {
  name: "conv3_1_scale1"
  type: "Scale"
  bottom: "conv3_1_1"
  top: "conv3_1_1"
  scale_param {
    bias_term: true
  }
}
layer {
  name: "conv3_1_down"
  type: "Convolution"
  bottom: "conv2_Eltwise_3"
  top: "conv3_1_down"
  param {
    lr_mult: 1
    decay_mult: 1
  }
  param {
    lr_mult: 2
    decay_mult: 0
  }
  convolution_param {
    num_output: 256
    bias_term: true
    pad: 0
    kernel_size: 1
    stride: 2
    weight_filler {
      type: "msra"
    }
    bias_filler {
      type: "constant"
      value: 0
    }
  }
}
layer {
  name: "conv3_1_bn_down"
  type: "BatchNorm"
  bottom: "conv3_1_down"
  top: "conv3_1_down"
  param {
    lr_mult: 0
    decay_mult: 0
  }
  param {
    lr_mult: 0
    decay_mult: 0
  }
  param {
    lr_mult: 0
    decay_mult: 0
  }
  batch_norm_param {
    use_global_stats: true
  }
}
layer {
  name: "conv3_1_scale_down"
  type: "Scale"
  bottom: "conv3_1_down"
  top: "conv3_1_down"
  scale_param {
    bias_term: true
  }
}
layer {
  name: "conv3_Eltwise_1"
  type: "Eltwise"
  bottom: "conv3_1_1"
  bottom: "conv3_1_down"
  top: "conv3_Eltwise_1"
  eltwise_param {
    operation: SUM
  }
}
layer {
  name: "conv3_1ReLU_1"
  type: "ReLU"
  bottom: "conv3_Eltwise_1"
  top: "conv3_Eltwise_1"
}
layer {
  name: "conv3_2_0"
  type: "Convolution"
  bottom: "conv3_Eltwise_1"
  top: "conv3_2_0"
  param {
    lr_mult: 1
    decay_mult: 1
  }
  param {
    lr_mult: 2
    decay_mult: 0
  }
  convolution_param {
    num_output: 256
    bias_term: true
    pad: 1
    kernel_size: 3
    stride: 1
    weight_filler {
      type: "msra"
    }
    bias_filler {
      type: "constant"
      value: 0
    }
  }
}
layer {
  name: "conv3_2_bn0"
  type: "BatchNorm"
  bottom: "conv3_2_0"
  top: "conv3_2_0"
  param {
    lr_mult: 0
    decay_mult: 0
  }
  param {
    lr_mult: 0
    decay_mult: 0
  }
  param {
    lr_mult: 0
    decay_mult: 0
  }
  batch_norm_param {
    use_global_stats: true
  }
}
layer {
  name: "conv3_2_scale0"
  type: "Scale"
  bottom: "conv3_2_0"
  top: "conv3_2_0"
  scale_param {
    bias_term: true
  }
}
layer {
  name: "conv3_2_ReLU0"
  type: "ReLU"
  bottom: "conv3_2_0"
  top: "conv3_2_0"
}
layer {
  name: "conv3_Drop2"
  type: "Dropout"
  bottom: "conv3_2_0"
  top: "conv3_2_0"
  dropout_param {
    dropout_ratio: 1
  }
}
layer {
  name: "conv3_2_1"
  type: "Convolution"
  bottom: "conv3_2_0"
  top: "conv3_2_1"
  param {
    lr_mult: 1
    decay_mult: 1
  }
  param {
    lr_mult: 2
    decay_mult: 0
  }
  convolution_param {
    num_output: 256
    bias_term: true
    pad: 1
    kernel_size: 3
    stride: 1
    weight_filler {
      type: "msra"
    }
    bias_filler {
      type: "constant"
      value: 0
    }
  }
}
layer {
  name: "conv3_2bn1"
  type: "BatchNorm"
  bottom: "conv3_2_1"
  top: "conv3_2_1"
  param {
    lr_mult: 0
    decay_mult: 0
  }
  param {
    lr_mult: 0
    decay_mult: 0
  }
  param {
    lr_mult: 0
    decay_mult: 0
  }
  batch_norm_param {
    use_global_stats: true
  }
}
layer {
  name: "conv3_2_scale1"
  type: "Scale"
  bottom: "conv3_2_1"
  top: "conv3_2_1"
  scale_param {
    bias_term: true
  }
}
layer {
  name: "conv3_Eltwise_2"
  type: "Eltwise"
  bottom: "conv3_Eltwise_1"
  bottom: "conv3_2_1"
  top: "conv3_Eltwise_2"
  eltwise_param {
    operation: SUM
  }
}
layer {
  name: "conv3_2ReLU_1"
  type: "ReLU"
  bottom: "conv3_Eltwise_2"
  top: "conv3_Eltwise_2"
}
layer {
  name: "conv3_3_0"
  type: "Convolution"
  bottom: "conv3_Eltwise_2"
  top: "conv3_3_0"
  param {
    lr_mult: 1
    decay_mult: 1
  }
  param {
    lr_mult: 2
    decay_mult: 0
  }
  convolution_param {
    num_output: 256
    bias_term: true
    pad: 1
    kernel_size: 3
    stride: 1
    weight_filler {
      type: "msra"
    }
    bias_filler {
      type: "constant"
      value: 0
    }
  }
}
layer {
  name: "conv3_3_bn0"
  type: "BatchNorm"
  bottom: "conv3_3_0"
  top: "conv3_3_0"
  param {
    lr_mult: 0
    decay_mult: 0
  }
  param {
    lr_mult: 0
    decay_mult: 0
  }
  param {
    lr_mult: 0
    decay_mult: 0
  }
  batch_norm_param {
    use_global_stats: true
  }
}
layer {
  name: "conv3_3_scale0"
  type: "Scale"
  bottom: "conv3_3_0"
  top: "conv3_3_0"
  scale_param {
    bias_term: true
  }
}
layer {
  name: "conv3_3_ReLU0"
  type: "ReLU"
  bottom: "conv3_3_0"
  top: "conv3_3_0"
}
layer {
  name: "conv3_Drop3"
  type: "Dropout"
  bottom: "conv3_3_0"
  top: "conv3_3_0"
  dropout_param {
    dropout_ratio: 1
  }
}
layer {
  name: "conv3_3_1"
  type: "Convolution"
  bottom: "conv3_3_0"
  top: "conv3_3_1"
  param {
    lr_mult: 1
    decay_mult: 1
  }
  param {
    lr_mult: 2
    decay_mult: 0
  }
  convolution_param {
    num_output: 256
    bias_term: true
    pad: 1
    kernel_size: 3
    stride: 1
    weight_filler {
      type: "msra"
    }
    bias_filler {
      type: "constant"
      value: 0
    }
  }
}
layer {
  name: "conv3_3bn1"
  type: "BatchNorm"
  bottom: "conv3_3_1"
  top: "conv3_3_1"
  param {
    lr_mult: 0
    decay_mult: 0
  }
  param {
    lr_mult: 0
    decay_mult: 0
  }
  param {
    lr_mult: 0
    decay_mult: 0
  }
  batch_norm_param {
    use_global_stats: true
  }
}
layer {
  name: "conv3_3_scale1"
  type: "Scale"
  bottom: "conv3_3_1"
  top: "conv3_3_1"
  scale_param {
    bias_term: true
  }
}
layer {
  name: "conv3_Eltwise_3"
  type: "Eltwise"
  bottom: "conv3_Eltwise_2"
  bottom: "conv3_3_1"
  top: "conv3_Eltwise_3"
  eltwise_param {
    operation: SUM
  }
}
layer {
  name: "conv3_3ReLU_1"
  type: "ReLU"
  bottom: "conv3_Eltwise_3"
  top: "conv3_Eltwise_3"
}
layer {
  name: "conv4_1_0"
  type: "Convolution"
  bottom: "conv3_Eltwise_3"
  top: "conv4_1_0"
  param {
    lr_mult: 1
    decay_mult: 1
  }
  param {
    lr_mult: 2
    decay_mult: 0
  }
  convolution_param {
    num_output: 512
    bias_term: true
    pad: 1
    kernel_size: 3
    stride: 2
    weight_filler {
      type: "msra"
    }
    bias_filler {
      type: "constant"
      value: 0
    }
  }
}
layer {
  name: "conv4_1_bn0"
  type: "BatchNorm"
  bottom: "conv4_1_0"
  top: "conv4_1_0"
  param {
    lr_mult: 0
    decay_mult: 0
  }
  param {
    lr_mult: 0
    decay_mult: 0
  }
  param {
    lr_mult: 0
    decay_mult: 0
  }
  batch_norm_param {
    use_global_stats: true
  }
}
layer {
  name: "conv4_1_scale0"
  type: "Scale"
  bottom: "conv4_1_0"
  top: "conv4_1_0"
  scale_param {
    bias_term: true
  }
}
layer {
  name: "conv4_1_ReLU0"
  type: "ReLU"
  bottom: "conv4_1_0"
  top: "conv4_1_0"
}
layer {
  name: "conv4_Drop1"
  type: "Dropout"
  bottom: "conv4_1_0"
  top: "conv4_1_0"
  dropout_param {
    dropout_ratio: 1
  }
}
layer {
  name: "conv4_1_1"
  type: "Convolution"
  bottom: "conv4_1_0"
  top: "conv4_1_1"
  param {
    lr_mult: 1
    decay_mult: 1
  }
  param {
    lr_mult: 2
    decay_mult: 0
  }
  convolution_param {
    num_output: 512
    bias_term: true
    pad: 1
    kernel_size: 3
    stride: 1
    weight_filler {
      type: "msra"
    }
    bias_filler {
      type: "constant"
      value: 0
    }
  }
}
layer {
  name: "conv4_1bn1"
  type: "BatchNorm"
  bottom: "conv4_1_1"
  top: "conv4_1_1"
  param {
    lr_mult: 0
    decay_mult: 0
  }
  param {
    lr_mult: 0
    decay_mult: 0
  }
  param {
    lr_mult: 0
    decay_mult: 0
  }
  batch_norm_param {
    use_global_stats: true
  }
}
layer {
  name: "conv4_1_scale1"
  type: "Scale"
  bottom: "conv4_1_1"
  top: "conv4_1_1"
  scale_param {
    bias_term: true
  }
}
layer {
  name: "conv4_1_down"
  type: "Convolution"
  bottom: "conv3_Eltwise_3"
  top: "conv4_1_down"
  param {
    lr_mult: 1
    decay_mult: 1
  }
  param {
    lr_mult: 2
    decay_mult: 0
  }
  convolution_param {
    num_output: 512
    bias_term: true
    pad: 0
    kernel_size: 1
    stride: 2
    weight_filler {
      type: "msra"
    }
    bias_filler {
      type: "constant"
      value: 0
    }
  }
}
layer {
  name: "conv4_1_bn_down"
  type: "BatchNorm"
  bottom: "conv4_1_down"
  top: "conv4_1_down"
  param {
    lr_mult: 0
    decay_mult: 0
  }
  param {
    lr_mult: 0
    decay_mult: 0
  }
  param {
    lr_mult: 0
    decay_mult: 0
  }
  batch_norm_param {
    use_global_stats: true
  }
}
layer {
  name: "conv4_1_scale_down"
  type: "Scale"
  bottom: "conv4_1_down"
  top: "conv4_1_down"
  scale_param {
    bias_term: true
  }
}
layer {
  name: "conv4_Eltwise_1"
  type: "Eltwise"
  bottom: "conv4_1_1"
  bottom: "conv4_1_down"
  top: "conv4_Eltwise_1"
  eltwise_param {
    operation: SUM
  }
}
layer {
  name: "conv4_1ReLU_1"
  type: "ReLU"
  bottom: "conv4_Eltwise_1"
  top: "conv4_Eltwise_1"
}
layer {
  name: "conv4_2_0"
  type: "Convolution"
  bottom: "conv4_Eltwise_1"
  top: "conv4_2_0"
  param {
    lr_mult: 1
    decay_mult: 1
  }
  param {
    lr_mult: 2
    decay_mult: 0
  }
  convolution_param {
    num_output: 512
    bias_term: true
    pad: 1
    kernel_size: 3
    stride: 1
    weight_filler {
      type: "msra"
    }
    bias_filler {
      type: "constant"
      value: 0
    }
  }
}
layer {
  name: "conv4_2_bn0"
  type: "BatchNorm"
  bottom: "conv4_2_0"
  top: "conv4_2_0"
  param {
    lr_mult: 0
    decay_mult: 0
  }
  param {
    lr_mult: 0
    decay_mult: 0
  }
  param {
    lr_mult: 0
    decay_mult: 0
  }
  batch_norm_param {
    use_global_stats: true
  }
}
layer {
  name: "conv4_2_scale0"
  type: "Scale"
  bottom: "conv4_2_0"
  top: "conv4_2_0"
  scale_param {
    bias_term: true
  }
}
layer {
  name: "conv4_2_ReLU0"
  type: "ReLU"
  bottom: "conv4_2_0"
  top: "conv4_2_0"
}
layer {
  name: "conv4_Drop2"
  type: "Dropout"
  bottom: "conv4_2_0"
  top: "conv4_2_0"
  dropout_param {
    dropout_ratio: 1
  }
}
layer {
  name: "conv4_2_1"
  type: "Convolution"
  bottom: "conv4_2_0"
  top: "conv4_2_1"
  param {
    lr_mult: 1
    decay_mult: 1
  }
  param {
    lr_mult: 2
    decay_mult: 0
  }
  convolution_param {
    num_output: 512
    bias_term: true
    pad: 1
    kernel_size: 3
    stride: 1
    weight_filler {
      type: "msra"
    }
    bias_filler {
      type: "constant"
      value: 0
    }
  }
}
layer {
  name: "conv4_2bn1"
  type: "BatchNorm"
  bottom: "conv4_2_1"
  top: "conv4_2_1"
  param {
    lr_mult: 0
    decay_mult: 0
  }
  param {
    lr_mult: 0
    decay_mult: 0
  }
  param {
    lr_mult: 0
    decay_mult: 0
  }
  batch_norm_param {
    use_global_stats: true
  }
}
layer {
  name: "conv4_2_scale1"
  type: "Scale"
  bottom: "conv4_2_1"
  top: "conv4_2_1"
  scale_param {
    bias_term: true
  }
}
layer {
  name: "conv4_Eltwise_2"
  type: "Eltwise"
  bottom: "conv4_Eltwise_1"
  bottom: "conv4_2_1"
  top: "conv4_Eltwise_2"
  eltwise_param {
    operation: SUM
  }
}
layer {
  name: "conv4_2ReLU_1"
  type: "ReLU"
  bottom: "conv4_Eltwise_2"
  top: "conv4_Eltwise_2"
}
layer {
  name: "conv4_3_0"
  type: "Convolution"
  bottom: "conv4_Eltwise_2"
  top: "conv4_3_0"
  param {
    lr_mult: 1
    decay_mult: 1
  }
  param {
    lr_mult: 2
    decay_mult: 0
  }
  convolution_param {
    num_output: 512
    bias_term: true
    pad: 1
    kernel_size: 3
    stride: 1
    weight_filler {
      type: "msra"
    }
    bias_filler {
      type: "constant"
      value: 0
    }
  }
}
layer {
  name: "conv4_3_bn0"
  type: "BatchNorm"
  bottom: "conv4_3_0"
  top: "conv4_3_0"
  param {
    lr_mult: 0
    decay_mult: 0
  }
  param {
    lr_mult: 0
    decay_mult: 0
  }
  param {
    lr_mult: 0
    decay_mult: 0
  }
  batch_norm_param {
    use_global_stats: true
  }
}
layer {
  name: "conv4_3_scale0"
  type: "Scale"
  bottom: "conv4_3_0"
  top: "conv4_3_0"
  scale_param {
    bias_term: true
  }
}
layer {
  name: "conv4_3_ReLU0"
  type: "ReLU"
  bottom: "conv4_3_0"
  top: "conv4_3_0"
}
layer {
  name: "conv4_Drop3"
  type: "Dropout"
  bottom: "conv4_3_0"
  top: "conv4_3_0"
  dropout_param {
    dropout_ratio: 1
  }
}
layer {
  name: "conv4_3_1"
  type: "Convolution"
  bottom: "conv4_3_0"
  top: "conv4_3_1"
  param {
    lr_mult: 1
    decay_mult: 1
  }
  param {
    lr_mult: 2
    decay_mult: 0
  }
  convolution_param {
    num_output: 512
    bias_term: true
    pad: 1
    kernel_size: 3
    stride: 1
    weight_filler {
      type: "msra"
    }
    bias_filler {
      type: "constant"
      value: 0
    }
  }
}
layer {
  name: "conv4_3bn1"
  type: "BatchNorm"
  bottom: "conv4_3_1"
  top: "conv4_3_1"
  param {
    lr_mult: 0
    decay_mult: 0
  }
  param {
    lr_mult: 0
    decay_mult: 0
  }
  param {
    lr_mult: 0
    decay_mult: 0
  }
  batch_norm_param {
    use_global_stats: true
  }
}
layer {
  name: "conv4_3_scale1"
  type: "Scale"
  bottom: "conv4_3_1"
  top: "conv4_3_1"
  scale_param {
    bias_term: true
  }
}
layer {
  name: "conv4_Eltwise_3"
  type: "Eltwise"
  bottom: "conv4_Eltwise_2"
  bottom: "conv4_3_1"
  top: "conv4_Eltwise_3"
  eltwise_param {
    operation: SUM
  }
}
layer {
  name: "conv4_3ReLU_1"
  type: "ReLU"
  bottom: "conv4_Eltwise_3"
  top: "conv4_Eltwise_3"
}
layer {
  name: "Pooling1"
  type: "Pooling"
  bottom: "conv4_Eltwise_3"
  top: "Pooling1"
  pooling_param {
    pool: AVE
    global_pooling: true
  }
}
layer {
  name: "fc1"
  type: "InnerProduct"
  bottom: "Pooling1"
  top: "fc1"
  param {
    lr_mult: 1
    decay_mult: 1
  }
  param {
    lr_mult: 2
    decay_mult: 1
  }
  inner_product_param {
    num_output: 10
    weight_filler {
      type: "msra"
    }
    bias_filler {
      type: "constant"
      value: 0
    }
  }
}
layer {
  name: "Softmax1"
  type: "SoftmaxWithLoss"
  bottom: "fc1"
  bottom: "label"
  top: "Softmax1"
}
layer {
  name: "prob"
  type: "Accuracy"
  bottom: "fc1"
  bottom: "label"
  top: "prob"
}
I1002 12:07:06.081781 30882 layer_factory.hpp:77] Creating layer Data1
I1002 12:07:06.081867 30882 db_lmdb.cpp:35] Opened lmdb /home/lijianfei/datasets/cifar10_40/test_lmdb
I1002 12:07:06.081885 30882 net.cpp:128] Creating Layer Data1
I1002 12:07:06.081892 30882 net.cpp:522] Data1 -> data
I1002 12:07:06.081912 30882 net.cpp:522] Data1 -> label
I1002 12:07:06.082067 30882 data_layer.cpp:45] output data size: 10,3,32,32
I1002 12:07:06.082819 30882 net.cpp:172] Setting up Data1
I1002 12:07:06.082834 30882 net.cpp:186] Top shape: 10 3 32 32 (30720)
I1002 12:07:06.082840 30882 net.cpp:186] Top shape: 10 (10)
I1002 12:07:06.082844 30882 net.cpp:194] Memory required for data: 122920
I1002 12:07:06.082849 30882 layer_factory.hpp:77] Creating layer label_Data1_1_split
I1002 12:07:06.082859 30882 net.cpp:128] Creating Layer label_Data1_1_split
I1002 12:07:06.082862 30882 net.cpp:558] label_Data1_1_split <- label
I1002 12:07:06.082870 30882 net.cpp:522] label_Data1_1_split -> label_Data1_1_split_0
I1002 12:07:06.082878 30882 net.cpp:522] label_Data1_1_split -> label_Data1_1_split_1
I1002 12:07:06.082933 30882 net.cpp:172] Setting up label_Data1_1_split
I1002 12:07:06.082940 30882 net.cpp:186] Top shape: 10 (10)
I1002 12:07:06.082947 30882 net.cpp:186] Top shape: 10 (10)
I1002 12:07:06.082949 30882 net.cpp:194] Memory required for data: 123000
I1002 12:07:06.082953 30882 layer_factory.hpp:77] Creating layer conv1
I1002 12:07:06.082964 30882 net.cpp:128] Creating Layer conv1
I1002 12:07:06.082969 30882 net.cpp:558] conv1 <- data
I1002 12:07:06.082976 30882 net.cpp:522] conv1 -> conv1
I1002 12:07:06.084314 30882 net.cpp:172] Setting up conv1
I1002 12:07:06.084332 30882 net.cpp:186] Top shape: 10 16 32 32 (163840)
I1002 12:07:06.084337 30882 net.cpp:194] Memory required for data: 778360
I1002 12:07:06.084349 30882 layer_factory.hpp:77] Creating layer conv1/bn
I1002 12:07:06.084360 30882 net.cpp:128] Creating Layer conv1/bn
I1002 12:07:06.084365 30882 net.cpp:558] conv1/bn <- conv1
I1002 12:07:06.084372 30882 net.cpp:509] conv1/bn -> conv1 (in-place)
I1002 12:07:06.084645 30882 net.cpp:172] Setting up conv1/bn
I1002 12:07:06.084653 30882 net.cpp:186] Top shape: 10 16 32 32 (163840)
I1002 12:07:06.084656 30882 net.cpp:194] Memory required for data: 1433720
I1002 12:07:06.084668 30882 layer_factory.hpp:77] Creating layer conv1/scale
I1002 12:07:06.084677 30882 net.cpp:128] Creating Layer conv1/scale
I1002 12:07:06.084681 30882 net.cpp:558] conv1/scale <- conv1
I1002 12:07:06.084687 30882 net.cpp:509] conv1/scale -> conv1 (in-place)
I1002 12:07:06.084738 30882 layer_factory.hpp:77] Creating layer conv1/scale
I1002 12:07:06.084908 30882 net.cpp:172] Setting up conv1/scale
I1002 12:07:06.084918 30882 net.cpp:186] Top shape: 10 16 32 32 (163840)
I1002 12:07:06.084920 30882 net.cpp:194] Memory required for data: 2089080
I1002 12:07:06.084928 30882 layer_factory.hpp:77] Creating layer conv1/ReLU
I1002 12:07:06.084935 30882 net.cpp:128] Creating Layer conv1/ReLU
I1002 12:07:06.084939 30882 net.cpp:558] conv1/ReLU <- conv1
I1002 12:07:06.084945 30882 net.cpp:509] conv1/ReLU -> conv1 (in-place)
I1002 12:07:06.085182 30882 net.cpp:172] Setting up conv1/ReLU
I1002 12:07:06.085192 30882 net.cpp:186] Top shape: 10 16 32 32 (163840)
I1002 12:07:06.085196 30882 net.cpp:194] Memory required for data: 2744440
I1002 12:07:06.085201 30882 layer_factory.hpp:77] Creating layer conv1_conv1/ReLU_0_split
I1002 12:07:06.085207 30882 net.cpp:128] Creating Layer conv1_conv1/ReLU_0_split
I1002 12:07:06.085211 30882 net.cpp:558] conv1_conv1/ReLU_0_split <- conv1
I1002 12:07:06.085217 30882 net.cpp:522] conv1_conv1/ReLU_0_split -> conv1_conv1/ReLU_0_split_0
I1002 12:07:06.085225 30882 net.cpp:522] conv1_conv1/ReLU_0_split -> conv1_conv1/ReLU_0_split_1
I1002 12:07:06.085276 30882 net.cpp:172] Setting up conv1_conv1/ReLU_0_split
I1002 12:07:06.085283 30882 net.cpp:186] Top shape: 10 16 32 32 (163840)
I1002 12:07:06.085289 30882 net.cpp:186] Top shape: 10 16 32 32 (163840)
I1002 12:07:06.085292 30882 net.cpp:194] Memory required for data: 4055160
I1002 12:07:06.085296 30882 layer_factory.hpp:77] Creating layer conv2_1_0
I1002 12:07:06.085306 30882 net.cpp:128] Creating Layer conv2_1_0
I1002 12:07:06.085310 30882 net.cpp:558] conv2_1_0 <- conv1_conv1/ReLU_0_split_0
I1002 12:07:06.085317 30882 net.cpp:522] conv2_1_0 -> conv2_1_0
I1002 12:07:06.086891 30882 net.cpp:172] Setting up conv2_1_0
I1002 12:07:06.086910 30882 net.cpp:186] Top shape: 10 128 32 32 (1310720)
I1002 12:07:06.086913 30882 net.cpp:194] Memory required for data: 9298040
I1002 12:07:06.086925 30882 layer_factory.hpp:77] Creating layer conv2_1_bn0
I1002 12:07:06.086935 30882 net.cpp:128] Creating Layer conv2_1_bn0
I1002 12:07:06.086941 30882 net.cpp:558] conv2_1_bn0 <- conv2_1_0
I1002 12:07:06.086946 30882 net.cpp:509] conv2_1_bn0 -> conv2_1_0 (in-place)
I1002 12:07:06.087205 30882 net.cpp:172] Setting up conv2_1_bn0
I1002 12:07:06.087219 30882 net.cpp:186] Top shape: 10 128 32 32 (1310720)
I1002 12:07:06.087224 30882 net.cpp:194] Memory required for data: 14540920
I1002 12:07:06.087232 30882 layer_factory.hpp:77] Creating layer conv2_1_scale0
I1002 12:07:06.087239 30882 net.cpp:128] Creating Layer conv2_1_scale0
I1002 12:07:06.087244 30882 net.cpp:558] conv2_1_scale0 <- conv2_1_0
I1002 12:07:06.087249 30882 net.cpp:509] conv2_1_scale0 -> conv2_1_0 (in-place)
I1002 12:07:06.087298 30882 layer_factory.hpp:77] Creating layer conv2_1_scale0
I1002 12:07:06.087450 30882 net.cpp:172] Setting up conv2_1_scale0
I1002 12:07:06.087462 30882 net.cpp:186] Top shape: 10 128 32 32 (1310720)
I1002 12:07:06.087466 30882 net.cpp:194] Memory required for data: 19783800
I1002 12:07:06.087474 30882 layer_factory.hpp:77] Creating layer conv2_1_ReLU0
I1002 12:07:06.087481 30882 net.cpp:128] Creating Layer conv2_1_ReLU0
I1002 12:07:06.087484 30882 net.cpp:558] conv2_1_ReLU0 <- conv2_1_0
I1002 12:07:06.087491 30882 net.cpp:509] conv2_1_ReLU0 -> conv2_1_0 (in-place)
I1002 12:07:06.088277 30882 net.cpp:172] Setting up conv2_1_ReLU0
I1002 12:07:06.088300 30882 net.cpp:186] Top shape: 10 128 32 32 (1310720)
I1002 12:07:06.088305 30882 net.cpp:194] Memory required for data: 25026680
I1002 12:07:06.088310 30882 layer_factory.hpp:77] Creating layer conv2_Drop1
I1002 12:07:06.088322 30882 net.cpp:128] Creating Layer conv2_Drop1
I1002 12:07:06.088327 30882 net.cpp:558] conv2_Drop1 <- conv2_1_0
I1002 12:07:06.088335 30882 net.cpp:509] conv2_Drop1 -> conv2_1_0 (in-place)
I1002 12:07:06.088402 30882 net.cpp:172] Setting up conv2_Drop1
I1002 12:07:06.088412 30882 net.cpp:186] Top shape: 10 128 32 32 (1310720)
I1002 12:07:06.088415 30882 net.cpp:194] Memory required for data: 30269560
I1002 12:07:06.088419 30882 layer_factory.hpp:77] Creating layer conv2_1_1
I1002 12:07:06.088449 30882 net.cpp:128] Creating Layer conv2_1_1
I1002 12:07:06.088454 30882 net.cpp:558] conv2_1_1 <- conv2_1_0
I1002 12:07:06.088461 30882 net.cpp:522] conv2_1_1 -> conv2_1_1
I1002 12:07:06.092279 30882 net.cpp:172] Setting up conv2_1_1
I1002 12:07:06.092308 30882 net.cpp:186] Top shape: 10 128 32 32 (1310720)
I1002 12:07:06.092311 30882 net.cpp:194] Memory required for data: 35512440
I1002 12:07:06.092321 30882 layer_factory.hpp:77] Creating layer conv2_1bn1
I1002 12:07:06.092331 30882 net.cpp:128] Creating Layer conv2_1bn1
I1002 12:07:06.092335 30882 net.cpp:558] conv2_1bn1 <- conv2_1_1
I1002 12:07:06.092342 30882 net.cpp:509] conv2_1bn1 -> conv2_1_1 (in-place)
I1002 12:07:06.092613 30882 net.cpp:172] Setting up conv2_1bn1
I1002 12:07:06.092623 30882 net.cpp:186] Top shape: 10 128 32 32 (1310720)
I1002 12:07:06.092628 30882 net.cpp:194] Memory required for data: 40755320
I1002 12:07:06.092639 30882 layer_factory.hpp:77] Creating layer conv2_1_scale1
I1002 12:07:06.092648 30882 net.cpp:128] Creating Layer conv2_1_scale1
I1002 12:07:06.092653 30882 net.cpp:558] conv2_1_scale1 <- conv2_1_1
I1002 12:07:06.092658 30882 net.cpp:509] conv2_1_scale1 -> conv2_1_1 (in-place)
I1002 12:07:06.092707 30882 layer_factory.hpp:77] Creating layer conv2_1_scale1
I1002 12:07:06.092844 30882 net.cpp:172] Setting up conv2_1_scale1
I1002 12:07:06.092854 30882 net.cpp:186] Top shape: 10 128 32 32 (1310720)
I1002 12:07:06.092859 30882 net.cpp:194] Memory required for data: 45998200
I1002 12:07:06.092866 30882 layer_factory.hpp:77] Creating layer conv2_1_down
I1002 12:07:06.092876 30882 net.cpp:128] Creating Layer conv2_1_down
I1002 12:07:06.092882 30882 net.cpp:558] conv2_1_down <- conv1_conv1/ReLU_0_split_1
I1002 12:07:06.092890 30882 net.cpp:522] conv2_1_down -> conv2_1_down
I1002 12:07:06.094166 30882 net.cpp:172] Setting up conv2_1_down
I1002 12:07:06.094192 30882 net.cpp:186] Top shape: 10 128 32 32 (1310720)
I1002 12:07:06.094195 30882 net.cpp:194] Memory required for data: 51241080
I1002 12:07:06.094205 30882 layer_factory.hpp:77] Creating layer conv2_1_bn_down
I1002 12:07:06.094220 30882 net.cpp:128] Creating Layer conv2_1_bn_down
I1002 12:07:06.094225 30882 net.cpp:558] conv2_1_bn_down <- conv2_1_down
I1002 12:07:06.094233 30882 net.cpp:509] conv2_1_bn_down -> conv2_1_down (in-place)
I1002 12:07:06.094488 30882 net.cpp:172] Setting up conv2_1_bn_down
I1002 12:07:06.094497 30882 net.cpp:186] Top shape: 10 128 32 32 (1310720)
I1002 12:07:06.094501 30882 net.cpp:194] Memory required for data: 56483960
I1002 12:07:06.094511 30882 layer_factory.hpp:77] Creating layer conv2_1_scale_down
I1002 12:07:06.094518 30882 net.cpp:128] Creating Layer conv2_1_scale_down
I1002 12:07:06.094525 30882 net.cpp:558] conv2_1_scale_down <- conv2_1_down
I1002 12:07:06.094532 30882 net.cpp:509] conv2_1_scale_down -> conv2_1_down (in-place)
I1002 12:07:06.094580 30882 layer_factory.hpp:77] Creating layer conv2_1_scale_down
I1002 12:07:06.094718 30882 net.cpp:172] Setting up conv2_1_scale_down
I1002 12:07:06.094728 30882 net.cpp:186] Top shape: 10 128 32 32 (1310720)
I1002 12:07:06.094732 30882 net.cpp:194] Memory required for data: 61726840
I1002 12:07:06.094740 30882 layer_factory.hpp:77] Creating layer conv2_Eltwise_1
I1002 12:07:06.094748 30882 net.cpp:128] Creating Layer conv2_Eltwise_1
I1002 12:07:06.094753 30882 net.cpp:558] conv2_Eltwise_1 <- conv2_1_1
I1002 12:07:06.094758 30882 net.cpp:558] conv2_Eltwise_1 <- conv2_1_down
I1002 12:07:06.094763 30882 net.cpp:522] conv2_Eltwise_1 -> conv2_Eltwise_1
I1002 12:07:06.094792 30882 net.cpp:172] Setting up conv2_Eltwise_1
I1002 12:07:06.094801 30882 net.cpp:186] Top shape: 10 128 32 32 (1310720)
I1002 12:07:06.094805 30882 net.cpp:194] Memory required for data: 66969720
I1002 12:07:06.094810 30882 layer_factory.hpp:77] Creating layer conv2_1ReLU_1
I1002 12:07:06.094815 30882 net.cpp:128] Creating Layer conv2_1ReLU_1
I1002 12:07:06.094820 30882 net.cpp:558] conv2_1ReLU_1 <- conv2_Eltwise_1
I1002 12:07:06.094825 30882 net.cpp:509] conv2_1ReLU_1 -> conv2_Eltwise_1 (in-place)
I1002 12:07:06.095083 30882 net.cpp:172] Setting up conv2_1ReLU_1
I1002 12:07:06.095098 30882 net.cpp:186] Top shape: 10 128 32 32 (1310720)
I1002 12:07:06.095101 30882 net.cpp:194] Memory required for data: 72212600
I1002 12:07:06.095106 30882 layer_factory.hpp:77] Creating layer conv2_Eltwise_1_conv2_1ReLU_1_0_split
I1002 12:07:06.095113 30882 net.cpp:128] Creating Layer conv2_Eltwise_1_conv2_1ReLU_1_0_split
I1002 12:07:06.095118 30882 net.cpp:558] conv2_Eltwise_1_conv2_1ReLU_1_0_split <- conv2_Eltwise_1
I1002 12:07:06.095124 30882 net.cpp:522] conv2_Eltwise_1_conv2_1ReLU_1_0_split -> conv2_Eltwise_1_conv2_1ReLU_1_0_split_0
I1002 12:07:06.095132 30882 net.cpp:522] conv2_Eltwise_1_conv2_1ReLU_1_0_split -> conv2_Eltwise_1_conv2_1ReLU_1_0_split_1
I1002 12:07:06.095185 30882 net.cpp:172] Setting up conv2_Eltwise_1_conv2_1ReLU_1_0_split
I1002 12:07:06.095194 30882 net.cpp:186] Top shape: 10 128 32 32 (1310720)
I1002 12:07:06.095199 30882 net.cpp:186] Top shape: 10 128 32 32 (1310720)
I1002 12:07:06.095203 30882 net.cpp:194] Memory required for data: 82698360
I1002 12:07:06.095207 30882 layer_factory.hpp:77] Creating layer conv2_2_0
I1002 12:07:06.095218 30882 net.cpp:128] Creating Layer conv2_2_0
I1002 12:07:06.095226 30882 net.cpp:558] conv2_2_0 <- conv2_Eltwise_1_conv2_1ReLU_1_0_split_0
I1002 12:07:06.095232 30882 net.cpp:522] conv2_2_0 -> conv2_2_0
I1002 12:07:06.100275 30882 net.cpp:172] Setting up conv2_2_0
I1002 12:07:06.100302 30882 net.cpp:186] Top shape: 10 128 32 32 (1310720)
I1002 12:07:06.100307 30882 net.cpp:194] Memory required for data: 87941240
I1002 12:07:06.100322 30882 layer_factory.hpp:77] Creating layer conv2_2_bn0
I1002 12:07:06.100337 30882 net.cpp:128] Creating Layer conv2_2_bn0
I1002 12:07:06.100342 30882 net.cpp:558] conv2_2_bn0 <- conv2_2_0
I1002 12:07:06.100353 30882 net.cpp:509] conv2_2_bn0 -> conv2_2_0 (in-place)
I1002 12:07:06.100625 30882 net.cpp:172] Setting up conv2_2_bn0
I1002 12:07:06.100634 30882 net.cpp:186] Top shape: 10 128 32 32 (1310720)
I1002 12:07:06.100638 30882 net.cpp:194] Memory required for data: 93184120
I1002 12:07:06.100653 30882 layer_factory.hpp:77] Creating layer conv2_2_scale0
I1002 12:07:06.100661 30882 net.cpp:128] Creating Layer conv2_2_scale0
I1002 12:07:06.100666 30882 net.cpp:558] conv2_2_scale0 <- conv2_2_0
I1002 12:07:06.100672 30882 net.cpp:509] conv2_2_scale0 -> conv2_2_0 (in-place)
I1002 12:07:06.100723 30882 layer_factory.hpp:77] Creating layer conv2_2_scale0
I1002 12:07:06.100862 30882 net.cpp:172] Setting up conv2_2_scale0
I1002 12:07:06.100872 30882 net.cpp:186] Top shape: 10 128 32 32 (1310720)
I1002 12:07:06.100877 30882 net.cpp:194] Memory required for data: 98427000
I1002 12:07:06.100885 30882 layer_factory.hpp:77] Creating layer conv2_2_ReLU0
I1002 12:07:06.100891 30882 net.cpp:128] Creating Layer conv2_2_ReLU0
I1002 12:07:06.100900 30882 net.cpp:558] conv2_2_ReLU0 <- conv2_2_0
I1002 12:07:06.100906 30882 net.cpp:509] conv2_2_ReLU0 -> conv2_2_0 (in-place)
I1002 12:07:06.101137 30882 net.cpp:172] Setting up conv2_2_ReLU0
I1002 12:07:06.101151 30882 net.cpp:186] Top shape: 10 128 32 32 (1310720)
I1002 12:07:06.101155 30882 net.cpp:194] Memory required for data: 103669880
I1002 12:07:06.101160 30882 layer_factory.hpp:77] Creating layer conv2_Drop2
I1002 12:07:06.101167 30882 net.cpp:128] Creating Layer conv2_Drop2
I1002 12:07:06.101172 30882 net.cpp:558] conv2_Drop2 <- conv2_2_0
I1002 12:07:06.101178 30882 net.cpp:509] conv2_Drop2 -> conv2_2_0 (in-place)
I1002 12:07:06.101212 30882 net.cpp:172] Setting up conv2_Drop2
I1002 12:07:06.101220 30882 net.cpp:186] Top shape: 10 128 32 32 (1310720)
I1002 12:07:06.101224 30882 net.cpp:194] Memory required for data: 108912760
I1002 12:07:06.101229 30882 layer_factory.hpp:77] Creating layer conv2_2_1
I1002 12:07:06.101239 30882 net.cpp:128] Creating Layer conv2_2_1
I1002 12:07:06.101244 30882 net.cpp:558] conv2_2_1 <- conv2_2_0
I1002 12:07:06.101250 30882 net.cpp:522] conv2_2_1 -> conv2_2_1
I1002 12:07:06.104979 30882 net.cpp:172] Setting up conv2_2_1
I1002 12:07:06.105005 30882 net.cpp:186] Top shape: 10 128 32 32 (1310720)
I1002 12:07:06.105034 30882 net.cpp:194] Memory required for data: 114155640
I1002 12:07:06.105048 30882 layer_factory.hpp:77] Creating layer conv2_2bn1
I1002 12:07:06.105060 30882 net.cpp:128] Creating Layer conv2_2bn1
I1002 12:07:06.105065 30882 net.cpp:558] conv2_2bn1 <- conv2_2_1
I1002 12:07:06.105072 30882 net.cpp:509] conv2_2bn1 -> conv2_2_1 (in-place)
I1002 12:07:06.105353 30882 net.cpp:172] Setting up conv2_2bn1
I1002 12:07:06.105363 30882 net.cpp:186] Top shape: 10 128 32 32 (1310720)
I1002 12:07:06.105368 30882 net.cpp:194] Memory required for data: 119398520
I1002 12:07:06.105378 30882 layer_factory.hpp:77] Creating layer conv2_2_scale1
I1002 12:07:06.105392 30882 net.cpp:128] Creating Layer conv2_2_scale1
I1002 12:07:06.105396 30882 net.cpp:558] conv2_2_scale1 <- conv2_2_1
I1002 12:07:06.105402 30882 net.cpp:509] conv2_2_scale1 -> conv2_2_1 (in-place)
I1002 12:07:06.105451 30882 layer_factory.hpp:77] Creating layer conv2_2_scale1
I1002 12:07:06.105592 30882 net.cpp:172] Setting up conv2_2_scale1
I1002 12:07:06.105602 30882 net.cpp:186] Top shape: 10 128 32 32 (1310720)
I1002 12:07:06.105605 30882 net.cpp:194] Memory required for data: 124641400
I1002 12:07:06.105613 30882 layer_factory.hpp:77] Creating layer conv2_Eltwise_2
I1002 12:07:06.105621 30882 net.cpp:128] Creating Layer conv2_Eltwise_2
I1002 12:07:06.105625 30882 net.cpp:558] conv2_Eltwise_2 <- conv2_Eltwise_1_conv2_1ReLU_1_0_split_1
I1002 12:07:06.105630 30882 net.cpp:558] conv2_Eltwise_2 <- conv2_2_1
I1002 12:07:06.105638 30882 net.cpp:522] conv2_Eltwise_2 -> conv2_Eltwise_2
I1002 12:07:06.105665 30882 net.cpp:172] Setting up conv2_Eltwise_2
I1002 12:07:06.105674 30882 net.cpp:186] Top shape: 10 128 32 32 (1310720)
I1002 12:07:06.105679 30882 net.cpp:194] Memory required for data: 129884280
I1002 12:07:06.105682 30882 layer_factory.hpp:77] Creating layer conv2_2ReLU_1
I1002 12:07:06.105690 30882 net.cpp:128] Creating Layer conv2_2ReLU_1
I1002 12:07:06.105695 30882 net.cpp:558] conv2_2ReLU_1 <- conv2_Eltwise_2
I1002 12:07:06.105700 30882 net.cpp:509] conv2_2ReLU_1 -> conv2_Eltwise_2 (in-place)
I1002 12:07:06.106140 30882 net.cpp:172] Setting up conv2_2ReLU_1
I1002 12:07:06.106161 30882 net.cpp:186] Top shape: 10 128 32 32 (1310720)
I1002 12:07:06.106165 30882 net.cpp:194] Memory required for data: 135127160
I1002 12:07:06.106170 30882 layer_factory.hpp:77] Creating layer conv2_Eltwise_2_conv2_2ReLU_1_0_split
I1002 12:07:06.106178 30882 net.cpp:128] Creating Layer conv2_Eltwise_2_conv2_2ReLU_1_0_split
I1002 12:07:06.106184 30882 net.cpp:558] conv2_Eltwise_2_conv2_2ReLU_1_0_split <- conv2_Eltwise_2
I1002 12:07:06.106190 30882 net.cpp:522] conv2_Eltwise_2_conv2_2ReLU_1_0_split -> conv2_Eltwise_2_conv2_2ReLU_1_0_split_0
I1002 12:07:06.106201 30882 net.cpp:522] conv2_Eltwise_2_conv2_2ReLU_1_0_split -> conv2_Eltwise_2_conv2_2ReLU_1_0_split_1
I1002 12:07:06.106261 30882 net.cpp:172] Setting up conv2_Eltwise_2_conv2_2ReLU_1_0_split
I1002 12:07:06.106272 30882 net.cpp:186] Top shape: 10 128 32 32 (1310720)
I1002 12:07:06.106278 30882 net.cpp:186] Top shape: 10 128 32 32 (1310720)
I1002 12:07:06.106282 30882 net.cpp:194] Memory required for data: 145612920
I1002 12:07:06.106287 30882 layer_factory.hpp:77] Creating layer conv2_3_0
I1002 12:07:06.106298 30882 net.cpp:128] Creating Layer conv2_3_0
I1002 12:07:06.106302 30882 net.cpp:558] conv2_3_0 <- conv2_Eltwise_2_conv2_2ReLU_1_0_split_0
I1002 12:07:06.106309 30882 net.cpp:522] conv2_3_0 -> conv2_3_0
I1002 12:07:06.110069 30882 net.cpp:172] Setting up conv2_3_0
I1002 12:07:06.110095 30882 net.cpp:186] Top shape: 10 128 32 32 (1310720)
I1002 12:07:06.110100 30882 net.cpp:194] Memory required for data: 150855800
I1002 12:07:06.110110 30882 layer_factory.hpp:77] Creating layer conv2_3_bn0
I1002 12:07:06.110119 30882 net.cpp:128] Creating Layer conv2_3_bn0
I1002 12:07:06.110124 30882 net.cpp:558] conv2_3_bn0 <- conv2_3_0
I1002 12:07:06.110136 30882 net.cpp:509] conv2_3_bn0 -> conv2_3_0 (in-place)
I1002 12:07:06.110414 30882 net.cpp:172] Setting up conv2_3_bn0
I1002 12:07:06.110424 30882 net.cpp:186] Top shape: 10 128 32 32 (1310720)
I1002 12:07:06.110445 30882 net.cpp:194] Memory required for data: 156098680
I1002 12:07:06.110455 30882 layer_factory.hpp:77] Creating layer conv2_3_scale0
I1002 12:07:06.110463 30882 net.cpp:128] Creating Layer conv2_3_scale0
I1002 12:07:06.110467 30882 net.cpp:558] conv2_3_scale0 <- conv2_3_0
I1002 12:07:06.110474 30882 net.cpp:509] conv2_3_scale0 -> conv2_3_0 (in-place)
I1002 12:07:06.110525 30882 layer_factory.hpp:77] Creating layer conv2_3_scale0
I1002 12:07:06.110671 30882 net.cpp:172] Setting up conv2_3_scale0
I1002 12:07:06.110680 30882 net.cpp:186] Top shape: 10 128 32 32 (1310720)
I1002 12:07:06.110685 30882 net.cpp:194] Memory required for data: 161341560
I1002 12:07:06.110692 30882 layer_factory.hpp:77] Creating layer conv2_3_ReLU0
I1002 12:07:06.110699 30882 net.cpp:128] Creating Layer conv2_3_ReLU0
I1002 12:07:06.110703 30882 net.cpp:558] conv2_3_ReLU0 <- conv2_3_0
I1002 12:07:06.110709 30882 net.cpp:509] conv2_3_ReLU0 -> conv2_3_0 (in-place)
I1002 12:07:06.110944 30882 net.cpp:172] Setting up conv2_3_ReLU0
I1002 12:07:06.110957 30882 net.cpp:186] Top shape: 10 128 32 32 (1310720)
I1002 12:07:06.110962 30882 net.cpp:194] Memory required for data: 166584440
I1002 12:07:06.110966 30882 layer_factory.hpp:77] Creating layer conv2_Drop3
I1002 12:07:06.110973 30882 net.cpp:128] Creating Layer conv2_Drop3
I1002 12:07:06.110978 30882 net.cpp:558] conv2_Drop3 <- conv2_3_0
I1002 12:07:06.110985 30882 net.cpp:509] conv2_Drop3 -> conv2_3_0 (in-place)
I1002 12:07:06.111016 30882 net.cpp:172] Setting up conv2_Drop3
I1002 12:07:06.111023 30882 net.cpp:186] Top shape: 10 128 32 32 (1310720)
I1002 12:07:06.111027 30882 net.cpp:194] Memory required for data: 171827320
I1002 12:07:06.111032 30882 layer_factory.hpp:77] Creating layer conv2_3_1
I1002 12:07:06.111040 30882 net.cpp:128] Creating Layer conv2_3_1
I1002 12:07:06.111045 30882 net.cpp:558] conv2_3_1 <- conv2_3_0
I1002 12:07:06.111052 30882 net.cpp:522] conv2_3_1 -> conv2_3_1
I1002 12:07:06.116084 30882 net.cpp:172] Setting up conv2_3_1
I1002 12:07:06.116112 30882 net.cpp:186] Top shape: 10 128 32 32 (1310720)
I1002 12:07:06.116117 30882 net.cpp:194] Memory required for data: 177070200
I1002 12:07:06.116127 30882 layer_factory.hpp:77] Creating layer conv2_3bn1
I1002 12:07:06.116138 30882 net.cpp:128] Creating Layer conv2_3bn1
I1002 12:07:06.116143 30882 net.cpp:558] conv2_3bn1 <- conv2_3_1
I1002 12:07:06.116154 30882 net.cpp:509] conv2_3bn1 -> conv2_3_1 (in-place)
I1002 12:07:06.116438 30882 net.cpp:172] Setting up conv2_3bn1
I1002 12:07:06.116449 30882 net.cpp:186] Top shape: 10 128 32 32 (1310720)
I1002 12:07:06.116453 30882 net.cpp:194] Memory required for data: 182313080
I1002 12:07:06.116463 30882 layer_factory.hpp:77] Creating layer conv2_3_scale1
I1002 12:07:06.116472 30882 net.cpp:128] Creating Layer conv2_3_scale1
I1002 12:07:06.116475 30882 net.cpp:558] conv2_3_scale1 <- conv2_3_1
I1002 12:07:06.116482 30882 net.cpp:509] conv2_3_scale1 -> conv2_3_1 (in-place)
I1002 12:07:06.116533 30882 layer_factory.hpp:77] Creating layer conv2_3_scale1
I1002 12:07:06.116678 30882 net.cpp:172] Setting up conv2_3_scale1
I1002 12:07:06.116689 30882 net.cpp:186] Top shape: 10 128 32 32 (1310720)
I1002 12:07:06.116694 30882 net.cpp:194] Memory required for data: 187555960
I1002 12:07:06.116701 30882 layer_factory.hpp:77] Creating layer conv2_Eltwise_3
I1002 12:07:06.116709 30882 net.cpp:128] Creating Layer conv2_Eltwise_3
I1002 12:07:06.116714 30882 net.cpp:558] conv2_Eltwise_3 <- conv2_Eltwise_2_conv2_2ReLU_1_0_split_1
I1002 12:07:06.116719 30882 net.cpp:558] conv2_Eltwise_3 <- conv2_3_1
I1002 12:07:06.116725 30882 net.cpp:522] conv2_Eltwise_3 -> conv2_Eltwise_3
I1002 12:07:06.116755 30882 net.cpp:172] Setting up conv2_Eltwise_3
I1002 12:07:06.116763 30882 net.cpp:186] Top shape: 10 128 32 32 (1310720)
I1002 12:07:06.116766 30882 net.cpp:194] Memory required for data: 192798840
I1002 12:07:06.116770 30882 layer_factory.hpp:77] Creating layer conv2_3ReLU_1
I1002 12:07:06.116777 30882 net.cpp:128] Creating Layer conv2_3ReLU_1
I1002 12:07:06.116781 30882 net.cpp:558] conv2_3ReLU_1 <- conv2_Eltwise_3
I1002 12:07:06.116806 30882 net.cpp:509] conv2_3ReLU_1 -> conv2_Eltwise_3 (in-place)
I1002 12:07:06.117049 30882 net.cpp:172] Setting up conv2_3ReLU_1
I1002 12:07:06.117063 30882 net.cpp:186] Top shape: 10 128 32 32 (1310720)
I1002 12:07:06.117069 30882 net.cpp:194] Memory required for data: 198041720
I1002 12:07:06.117072 30882 layer_factory.hpp:77] Creating layer conv2_Eltwise_3_conv2_3ReLU_1_0_split
I1002 12:07:06.117080 30882 net.cpp:128] Creating Layer conv2_Eltwise_3_conv2_3ReLU_1_0_split
I1002 12:07:06.117084 30882 net.cpp:558] conv2_Eltwise_3_conv2_3ReLU_1_0_split <- conv2_Eltwise_3
I1002 12:07:06.117091 30882 net.cpp:522] conv2_Eltwise_3_conv2_3ReLU_1_0_split -> conv2_Eltwise_3_conv2_3ReLU_1_0_split_0
I1002 12:07:06.117100 30882 net.cpp:522] conv2_Eltwise_3_conv2_3ReLU_1_0_split -> conv2_Eltwise_3_conv2_3ReLU_1_0_split_1
I1002 12:07:06.117154 30882 net.cpp:172] Setting up conv2_Eltwise_3_conv2_3ReLU_1_0_split
I1002 12:07:06.117164 30882 net.cpp:186] Top shape: 10 128 32 32 (1310720)
I1002 12:07:06.117171 30882 net.cpp:186] Top shape: 10 128 32 32 (1310720)
I1002 12:07:06.117173 30882 net.cpp:194] Memory required for data: 208527480
I1002 12:07:06.117178 30882 layer_factory.hpp:77] Creating layer conv3_1_0
I1002 12:07:06.117188 30882 net.cpp:128] Creating Layer conv3_1_0
I1002 12:07:06.117193 30882 net.cpp:558] conv3_1_0 <- conv2_Eltwise_3_conv2_3ReLU_1_0_split_0
I1002 12:07:06.117200 30882 net.cpp:522] conv3_1_0 -> conv3_1_0
I1002 12:07:06.123100 30882 net.cpp:172] Setting up conv3_1_0
I1002 12:07:06.123126 30882 net.cpp:186] Top shape: 10 256 16 16 (655360)
I1002 12:07:06.123131 30882 net.cpp:194] Memory required for data: 211148920
I1002 12:07:06.123142 30882 layer_factory.hpp:77] Creating layer conv3_1_bn0
I1002 12:07:06.123150 30882 net.cpp:128] Creating Layer conv3_1_bn0
I1002 12:07:06.123155 30882 net.cpp:558] conv3_1_bn0 <- conv3_1_0
I1002 12:07:06.123167 30882 net.cpp:509] conv3_1_bn0 -> conv3_1_0 (in-place)
I1002 12:07:06.123430 30882 net.cpp:172] Setting up conv3_1_bn0
I1002 12:07:06.123441 30882 net.cpp:186] Top shape: 10 256 16 16 (655360)
I1002 12:07:06.123445 30882 net.cpp:194] Memory required for data: 213770360
I1002 12:07:06.123455 30882 layer_factory.hpp:77] Creating layer conv3_1_scale0
I1002 12:07:06.123462 30882 net.cpp:128] Creating Layer conv3_1_scale0
I1002 12:07:06.123466 30882 net.cpp:558] conv3_1_scale0 <- conv3_1_0
I1002 12:07:06.123472 30882 net.cpp:509] conv3_1_scale0 -> conv3_1_0 (in-place)
I1002 12:07:06.123522 30882 layer_factory.hpp:77] Creating layer conv3_1_scale0
I1002 12:07:06.123669 30882 net.cpp:172] Setting up conv3_1_scale0
I1002 12:07:06.123679 30882 net.cpp:186] Top shape: 10 256 16 16 (655360)
I1002 12:07:06.123683 30882 net.cpp:194] Memory required for data: 216391800
I1002 12:07:06.123692 30882 layer_factory.hpp:77] Creating layer conv3_1_ReLU0
I1002 12:07:06.123698 30882 net.cpp:128] Creating Layer conv3_1_ReLU0
I1002 12:07:06.123703 30882 net.cpp:558] conv3_1_ReLU0 <- conv3_1_0
I1002 12:07:06.123708 30882 net.cpp:509] conv3_1_ReLU0 -> conv3_1_0 (in-place)
I1002 12:07:06.123942 30882 net.cpp:172] Setting up conv3_1_ReLU0
I1002 12:07:06.123956 30882 net.cpp:186] Top shape: 10 256 16 16 (655360)
I1002 12:07:06.123960 30882 net.cpp:194] Memory required for data: 219013240
I1002 12:07:06.123965 30882 layer_factory.hpp:77] Creating layer conv3_Drop1
I1002 12:07:06.123972 30882 net.cpp:128] Creating Layer conv3_Drop1
I1002 12:07:06.123976 30882 net.cpp:558] conv3_Drop1 <- conv3_1_0
I1002 12:07:06.123982 30882 net.cpp:509] conv3_Drop1 -> conv3_1_0 (in-place)
I1002 12:07:06.124011 30882 net.cpp:172] Setting up conv3_Drop1
I1002 12:07:06.124017 30882 net.cpp:186] Top shape: 10 256 16 16 (655360)
I1002 12:07:06.124022 30882 net.cpp:194] Memory required for data: 221634680
I1002 12:07:06.124025 30882 layer_factory.hpp:77] Creating layer conv3_1_1
I1002 12:07:06.124035 30882 net.cpp:128] Creating Layer conv3_1_1
I1002 12:07:06.124039 30882 net.cpp:558] conv3_1_1 <- conv3_1_0
I1002 12:07:06.124047 30882 net.cpp:522] conv3_1_1 -> conv3_1_1
I1002 12:07:06.136359 30882 net.cpp:172] Setting up conv3_1_1
I1002 12:07:06.136389 30882 net.cpp:186] Top shape: 10 256 16 16 (655360)
I1002 12:07:06.136395 30882 net.cpp:194] Memory required for data: 224256120
I1002 12:07:06.136416 30882 layer_factory.hpp:77] Creating layer conv3_1bn1
I1002 12:07:06.136433 30882 net.cpp:128] Creating Layer conv3_1bn1
I1002 12:07:06.136438 30882 net.cpp:558] conv3_1bn1 <- conv3_1_1
I1002 12:07:06.136447 30882 net.cpp:509] conv3_1bn1 -> conv3_1_1 (in-place)
I1002 12:07:06.136737 30882 net.cpp:172] Setting up conv3_1bn1
I1002 12:07:06.136750 30882 net.cpp:186] Top shape: 10 256 16 16 (655360)
I1002 12:07:06.136754 30882 net.cpp:194] Memory required for data: 226877560
I1002 12:07:06.136765 30882 layer_factory.hpp:77] Creating layer conv3_1_scale1
I1002 12:07:06.136771 30882 net.cpp:128] Creating Layer conv3_1_scale1
I1002 12:07:06.136775 30882 net.cpp:558] conv3_1_scale1 <- conv3_1_1
I1002 12:07:06.136781 30882 net.cpp:509] conv3_1_scale1 -> conv3_1_1 (in-place)
I1002 12:07:06.136835 30882 layer_factory.hpp:77] Creating layer conv3_1_scale1
I1002 12:07:06.136991 30882 net.cpp:172] Setting up conv3_1_scale1
I1002 12:07:06.137002 30882 net.cpp:186] Top shape: 10 256 16 16 (655360)
I1002 12:07:06.137006 30882 net.cpp:194] Memory required for data: 229499000
I1002 12:07:06.137013 30882 layer_factory.hpp:77] Creating layer conv3_1_down
I1002 12:07:06.137027 30882 net.cpp:128] Creating Layer conv3_1_down
I1002 12:07:06.137032 30882 net.cpp:558] conv3_1_down <- conv2_Eltwise_3_conv2_3ReLU_1_0_split_1
I1002 12:07:06.137042 30882 net.cpp:522] conv3_1_down -> conv3_1_down
I1002 12:07:06.138897 30882 net.cpp:172] Setting up conv3_1_down
I1002 12:07:06.138919 30882 net.cpp:186] Top shape: 10 256 16 16 (655360)
I1002 12:07:06.138924 30882 net.cpp:194] Memory required for data: 232120440
I1002 12:07:06.138933 30882 layer_factory.hpp:77] Creating layer conv3_1_bn_down
I1002 12:07:06.138949 30882 net.cpp:128] Creating Layer conv3_1_bn_down
I1002 12:07:06.138954 30882 net.cpp:558] conv3_1_bn_down <- conv3_1_down
I1002 12:07:06.138964 30882 net.cpp:509] conv3_1_bn_down -> conv3_1_down (in-place)
I1002 12:07:06.139243 30882 net.cpp:172] Setting up conv3_1_bn_down
I1002 12:07:06.139253 30882 net.cpp:186] Top shape: 10 256 16 16 (655360)
I1002 12:07:06.139257 30882 net.cpp:194] Memory required for data: 234741880
I1002 12:07:06.139267 30882 layer_factory.hpp:77] Creating layer conv3_1_scale_down
I1002 12:07:06.139274 30882 net.cpp:128] Creating Layer conv3_1_scale_down
I1002 12:07:06.139278 30882 net.cpp:558] conv3_1_scale_down <- conv3_1_down
I1002 12:07:06.139288 30882 net.cpp:509] conv3_1_scale_down -> conv3_1_down (in-place)
I1002 12:07:06.139338 30882 layer_factory.hpp:77] Creating layer conv3_1_scale_down
I1002 12:07:06.139493 30882 net.cpp:172] Setting up conv3_1_scale_down
I1002 12:07:06.139504 30882 net.cpp:186] Top shape: 10 256 16 16 (655360)
I1002 12:07:06.139508 30882 net.cpp:194] Memory required for data: 237363320
I1002 12:07:06.139515 30882 layer_factory.hpp:77] Creating layer conv3_Eltwise_1
I1002 12:07:06.139525 30882 net.cpp:128] Creating Layer conv3_Eltwise_1
I1002 12:07:06.139530 30882 net.cpp:558] conv3_Eltwise_1 <- conv3_1_1
I1002 12:07:06.139535 30882 net.cpp:558] conv3_Eltwise_1 <- conv3_1_down
I1002 12:07:06.139541 30882 net.cpp:522] conv3_Eltwise_1 -> conv3_Eltwise_1
I1002 12:07:06.139565 30882 net.cpp:172] Setting up conv3_Eltwise_1
I1002 12:07:06.139572 30882 net.cpp:186] Top shape: 10 256 16 16 (655360)
I1002 12:07:06.139576 30882 net.cpp:194] Memory required for data: 239984760
I1002 12:07:06.139580 30882 layer_factory.hpp:77] Creating layer conv3_1ReLU_1
I1002 12:07:06.139590 30882 net.cpp:128] Creating Layer conv3_1ReLU_1
I1002 12:07:06.139593 30882 net.cpp:558] conv3_1ReLU_1 <- conv3_Eltwise_1
I1002 12:07:06.139600 30882 net.cpp:509] conv3_1ReLU_1 -> conv3_Eltwise_1 (in-place)
I1002 12:07:06.140046 30882 net.cpp:172] Setting up conv3_1ReLU_1
I1002 12:07:06.140070 30882 net.cpp:186] Top shape: 10 256 16 16 (655360)
I1002 12:07:06.140075 30882 net.cpp:194] Memory required for data: 242606200
I1002 12:07:06.140100 30882 layer_factory.hpp:77] Creating layer conv3_Eltwise_1_conv3_1ReLU_1_0_split
I1002 12:07:06.140110 30882 net.cpp:128] Creating Layer conv3_Eltwise_1_conv3_1ReLU_1_0_split
I1002 12:07:06.140115 30882 net.cpp:558] conv3_Eltwise_1_conv3_1ReLU_1_0_split <- conv3_Eltwise_1
I1002 12:07:06.140123 30882 net.cpp:522] conv3_Eltwise_1_conv3_1ReLU_1_0_split -> conv3_Eltwise_1_conv3_1ReLU_1_0_split_0
I1002 12:07:06.140132 30882 net.cpp:522] conv3_Eltwise_1_conv3_1ReLU_1_0_split -> conv3_Eltwise_1_conv3_1ReLU_1_0_split_1
I1002 12:07:06.140194 30882 net.cpp:172] Setting up conv3_Eltwise_1_conv3_1ReLU_1_0_split
I1002 12:07:06.140205 30882 net.cpp:186] Top shape: 10 256 16 16 (655360)
I1002 12:07:06.140210 30882 net.cpp:186] Top shape: 10 256 16 16 (655360)
I1002 12:07:06.140214 30882 net.cpp:194] Memory required for data: 247849080
I1002 12:07:06.140218 30882 layer_factory.hpp:77] Creating layer conv3_2_0
I1002 12:07:06.140233 30882 net.cpp:128] Creating Layer conv3_2_0
I1002 12:07:06.140239 30882 net.cpp:558] conv3_2_0 <- conv3_Eltwise_1_conv3_1ReLU_1_0_split_0
I1002 12:07:06.140245 30882 net.cpp:522] conv3_2_0 -> conv3_2_0
I1002 12:07:06.152405 30882 net.cpp:172] Setting up conv3_2_0
I1002 12:07:06.152433 30882 net.cpp:186] Top shape: 10 256 16 16 (655360)
I1002 12:07:06.152437 30882 net.cpp:194] Memory required for data: 250470520
I1002 12:07:06.152448 30882 layer_factory.hpp:77] Creating layer conv3_2_bn0
I1002 12:07:06.152462 30882 net.cpp:128] Creating Layer conv3_2_bn0
I1002 12:07:06.152467 30882 net.cpp:558] conv3_2_bn0 <- conv3_2_0
I1002 12:07:06.152479 30882 net.cpp:509] conv3_2_bn0 -> conv3_2_0 (in-place)
I1002 12:07:06.152775 30882 net.cpp:172] Setting up conv3_2_bn0
I1002 12:07:06.152786 30882 net.cpp:186] Top shape: 10 256 16 16 (655360)
I1002 12:07:06.152789 30882 net.cpp:194] Memory required for data: 253091960
I1002 12:07:06.152799 30882 layer_factory.hpp:77] Creating layer conv3_2_scale0
I1002 12:07:06.152806 30882 net.cpp:128] Creating Layer conv3_2_scale0
I1002 12:07:06.152810 30882 net.cpp:558] conv3_2_scale0 <- conv3_2_0
I1002 12:07:06.152818 30882 net.cpp:509] conv3_2_scale0 -> conv3_2_0 (in-place)
I1002 12:07:06.152870 30882 layer_factory.hpp:77] Creating layer conv3_2_scale0
I1002 12:07:06.153029 30882 net.cpp:172] Setting up conv3_2_scale0
I1002 12:07:06.153040 30882 net.cpp:186] Top shape: 10 256 16 16 (655360)
I1002 12:07:06.153044 30882 net.cpp:194] Memory required for data: 255713400
I1002 12:07:06.153053 30882 layer_factory.hpp:77] Creating layer conv3_2_ReLU0
I1002 12:07:06.153060 30882 net.cpp:128] Creating Layer conv3_2_ReLU0
I1002 12:07:06.153065 30882 net.cpp:558] conv3_2_ReLU0 <- conv3_2_0
I1002 12:07:06.153070 30882 net.cpp:509] conv3_2_ReLU0 -> conv3_2_0 (in-place)
I1002 12:07:06.153317 30882 net.cpp:172] Setting up conv3_2_ReLU0
I1002 12:07:06.153331 30882 net.cpp:186] Top shape: 10 256 16 16 (655360)
I1002 12:07:06.153336 30882 net.cpp:194] Memory required for data: 258334840
I1002 12:07:06.153339 30882 layer_factory.hpp:77] Creating layer conv3_Drop2
I1002 12:07:06.153350 30882 net.cpp:128] Creating Layer conv3_Drop2
I1002 12:07:06.153355 30882 net.cpp:558] conv3_Drop2 <- conv3_2_0
I1002 12:07:06.153362 30882 net.cpp:509] conv3_Drop2 -> conv3_2_0 (in-place)
I1002 12:07:06.153389 30882 net.cpp:172] Setting up conv3_Drop2
I1002 12:07:06.153396 30882 net.cpp:186] Top shape: 10 256 16 16 (655360)
I1002 12:07:06.153400 30882 net.cpp:194] Memory required for data: 260956280
I1002 12:07:06.153404 30882 layer_factory.hpp:77] Creating layer conv3_2_1
I1002 12:07:06.153421 30882 net.cpp:128] Creating Layer conv3_2_1
I1002 12:07:06.153426 30882 net.cpp:558] conv3_2_1 <- conv3_2_0
I1002 12:07:06.153434 30882 net.cpp:522] conv3_2_1 -> conv3_2_1
I1002 12:07:06.165611 30882 net.cpp:172] Setting up conv3_2_1
I1002 12:07:06.165640 30882 net.cpp:186] Top shape: 10 256 16 16 (655360)
I1002 12:07:06.165645 30882 net.cpp:194] Memory required for data: 263577720
I1002 12:07:06.165655 30882 layer_factory.hpp:77] Creating layer conv3_2bn1
I1002 12:07:06.165668 30882 net.cpp:128] Creating Layer conv3_2bn1
I1002 12:07:06.165696 30882 net.cpp:558] conv3_2bn1 <- conv3_2_1
I1002 12:07:06.165706 30882 net.cpp:509] conv3_2bn1 -> conv3_2_1 (in-place)
I1002 12:07:06.166024 30882 net.cpp:172] Setting up conv3_2bn1
I1002 12:07:06.166038 30882 net.cpp:186] Top shape: 10 256 16 16 (655360)
I1002 12:07:06.166043 30882 net.cpp:194] Memory required for data: 266199160
I1002 12:07:06.166052 30882 layer_factory.hpp:77] Creating layer conv3_2_scale1
I1002 12:07:06.166065 30882 net.cpp:128] Creating Layer conv3_2_scale1
I1002 12:07:06.166070 30882 net.cpp:558] conv3_2_scale1 <- conv3_2_1
I1002 12:07:06.166076 30882 net.cpp:509] conv3_2_scale1 -> conv3_2_1 (in-place)
I1002 12:07:06.166133 30882 layer_factory.hpp:77] Creating layer conv3_2_scale1
I1002 12:07:06.166294 30882 net.cpp:172] Setting up conv3_2_scale1
I1002 12:07:06.166306 30882 net.cpp:186] Top shape: 10 256 16 16 (655360)
I1002 12:07:06.166309 30882 net.cpp:194] Memory required for data: 268820600
I1002 12:07:06.166317 30882 layer_factory.hpp:77] Creating layer conv3_Eltwise_2
I1002 12:07:06.166328 30882 net.cpp:128] Creating Layer conv3_Eltwise_2
I1002 12:07:06.166333 30882 net.cpp:558] conv3_Eltwise_2 <- conv3_Eltwise_1_conv3_1ReLU_1_0_split_1
I1002 12:07:06.166338 30882 net.cpp:558] conv3_Eltwise_2 <- conv3_2_1
I1002 12:07:06.166347 30882 net.cpp:522] conv3_Eltwise_2 -> conv3_Eltwise_2
I1002 12:07:06.166373 30882 net.cpp:172] Setting up conv3_Eltwise_2
I1002 12:07:06.166379 30882 net.cpp:186] Top shape: 10 256 16 16 (655360)
I1002 12:07:06.166383 30882 net.cpp:194] Memory required for data: 271442040
I1002 12:07:06.166388 30882 layer_factory.hpp:77] Creating layer conv3_2ReLU_1
I1002 12:07:06.166394 30882 net.cpp:128] Creating Layer conv3_2ReLU_1
I1002 12:07:06.166399 30882 net.cpp:558] conv3_2ReLU_1 <- conv3_Eltwise_2
I1002 12:07:06.166406 30882 net.cpp:509] conv3_2ReLU_1 -> conv3_Eltwise_2 (in-place)
I1002 12:07:06.166658 30882 net.cpp:172] Setting up conv3_2ReLU_1
I1002 12:07:06.166672 30882 net.cpp:186] Top shape: 10 256 16 16 (655360)
I1002 12:07:06.166676 30882 net.cpp:194] Memory required for data: 274063480
I1002 12:07:06.166682 30882 layer_factory.hpp:77] Creating layer conv3_Eltwise_2_conv3_2ReLU_1_0_split
I1002 12:07:06.166688 30882 net.cpp:128] Creating Layer conv3_Eltwise_2_conv3_2ReLU_1_0_split
I1002 12:07:06.166693 30882 net.cpp:558] conv3_Eltwise_2_conv3_2ReLU_1_0_split <- conv3_Eltwise_2
I1002 12:07:06.166702 30882 net.cpp:522] conv3_Eltwise_2_conv3_2ReLU_1_0_split -> conv3_Eltwise_2_conv3_2ReLU_1_0_split_0
I1002 12:07:06.166723 30882 net.cpp:522] conv3_Eltwise_2_conv3_2ReLU_1_0_split -> conv3_Eltwise_2_conv3_2ReLU_1_0_split_1
I1002 12:07:06.166781 30882 net.cpp:172] Setting up conv3_Eltwise_2_conv3_2ReLU_1_0_split
I1002 12:07:06.166792 30882 net.cpp:186] Top shape: 10 256 16 16 (655360)
I1002 12:07:06.166798 30882 net.cpp:186] Top shape: 10 256 16 16 (655360)
I1002 12:07:06.166802 30882 net.cpp:194] Memory required for data: 279306360
I1002 12:07:06.166806 30882 layer_factory.hpp:77] Creating layer conv3_3_0
I1002 12:07:06.166820 30882 net.cpp:128] Creating Layer conv3_3_0
I1002 12:07:06.166824 30882 net.cpp:558] conv3_3_0 <- conv3_Eltwise_2_conv3_2ReLU_1_0_split_0
I1002 12:07:06.166833 30882 net.cpp:522] conv3_3_0 -> conv3_3_0
I1002 12:07:06.179014 30882 net.cpp:172] Setting up conv3_3_0
I1002 12:07:06.179045 30882 net.cpp:186] Top shape: 10 256 16 16 (655360)
I1002 12:07:06.179050 30882 net.cpp:194] Memory required for data: 281927800
I1002 12:07:06.179061 30882 layer_factory.hpp:77] Creating layer conv3_3_bn0
I1002 12:07:06.179070 30882 net.cpp:128] Creating Layer conv3_3_bn0
I1002 12:07:06.179075 30882 net.cpp:558] conv3_3_bn0 <- conv3_3_0
I1002 12:07:06.179090 30882 net.cpp:509] conv3_3_bn0 -> conv3_3_0 (in-place)
I1002 12:07:06.179390 30882 net.cpp:172] Setting up conv3_3_bn0
I1002 12:07:06.179400 30882 net.cpp:186] Top shape: 10 256 16 16 (655360)
I1002 12:07:06.179404 30882 net.cpp:194] Memory required for data: 284549240
I1002 12:07:06.179414 30882 layer_factory.hpp:77] Creating layer conv3_3_scale0
I1002 12:07:06.179440 30882 net.cpp:128] Creating Layer conv3_3_scale0
I1002 12:07:06.179445 30882 net.cpp:558] conv3_3_scale0 <- conv3_3_0
I1002 12:07:06.179450 30882 net.cpp:509] conv3_3_scale0 -> conv3_3_0 (in-place)
I1002 12:07:06.179507 30882 layer_factory.hpp:77] Creating layer conv3_3_scale0
I1002 12:07:06.179669 30882 net.cpp:172] Setting up conv3_3_scale0
I1002 12:07:06.179680 30882 net.cpp:186] Top shape: 10 256 16 16 (655360)
I1002 12:07:06.179684 30882 net.cpp:194] Memory required for data: 287170680
I1002 12:07:06.179692 30882 layer_factory.hpp:77] Creating layer conv3_3_ReLU0
I1002 12:07:06.179702 30882 net.cpp:128] Creating Layer conv3_3_ReLU0
I1002 12:07:06.179706 30882 net.cpp:558] conv3_3_ReLU0 <- conv3_3_0
I1002 12:07:06.179711 30882 net.cpp:509] conv3_3_ReLU0 -> conv3_3_0 (in-place)
I1002 12:07:06.180168 30882 net.cpp:172] Setting up conv3_3_ReLU0
I1002 12:07:06.180191 30882 net.cpp:186] Top shape: 10 256 16 16 (655360)
I1002 12:07:06.180194 30882 net.cpp:194] Memory required for data: 289792120
I1002 12:07:06.180199 30882 layer_factory.hpp:77] Creating layer conv3_Drop3
I1002 12:07:06.180210 30882 net.cpp:128] Creating Layer conv3_Drop3
I1002 12:07:06.180215 30882 net.cpp:558] conv3_Drop3 <- conv3_3_0
I1002 12:07:06.180222 30882 net.cpp:509] conv3_Drop3 -> conv3_3_0 (in-place)
I1002 12:07:06.180255 30882 net.cpp:172] Setting up conv3_Drop3
I1002 12:07:06.180263 30882 net.cpp:186] Top shape: 10 256 16 16 (655360)
I1002 12:07:06.180266 30882 net.cpp:194] Memory required for data: 292413560
I1002 12:07:06.180271 30882 layer_factory.hpp:77] Creating layer conv3_3_1
I1002 12:07:06.180285 30882 net.cpp:128] Creating Layer conv3_3_1
I1002 12:07:06.180290 30882 net.cpp:558] conv3_3_1 <- conv3_3_0
I1002 12:07:06.180297 30882 net.cpp:522] conv3_3_1 -> conv3_3_1
I1002 12:07:06.192492 30882 net.cpp:172] Setting up conv3_3_1
I1002 12:07:06.192523 30882 net.cpp:186] Top shape: 10 256 16 16 (655360)
I1002 12:07:06.192528 30882 net.cpp:194] Memory required for data: 295035000
I1002 12:07:06.192538 30882 layer_factory.hpp:77] Creating layer conv3_3bn1
I1002 12:07:06.192548 30882 net.cpp:128] Creating Layer conv3_3bn1
I1002 12:07:06.192553 30882 net.cpp:558] conv3_3bn1 <- conv3_3_1
I1002 12:07:06.192566 30882 net.cpp:509] conv3_3bn1 -> conv3_3_1 (in-place)
I1002 12:07:06.192867 30882 net.cpp:172] Setting up conv3_3bn1
I1002 12:07:06.192878 30882 net.cpp:186] Top shape: 10 256 16 16 (655360)
I1002 12:07:06.192883 30882 net.cpp:194] Memory required for data: 297656440
I1002 12:07:06.192893 30882 layer_factory.hpp:77] Creating layer conv3_3_scale1
I1002 12:07:06.192899 30882 net.cpp:128] Creating Layer conv3_3_scale1
I1002 12:07:06.192904 30882 net.cpp:558] conv3_3_scale1 <- conv3_3_1
I1002 12:07:06.192912 30882 net.cpp:509] conv3_3_scale1 -> conv3_3_1 (in-place)
I1002 12:07:06.192966 30882 layer_factory.hpp:77] Creating layer conv3_3_scale1
I1002 12:07:06.193128 30882 net.cpp:172] Setting up conv3_3_scale1
I1002 12:07:06.193138 30882 net.cpp:186] Top shape: 10 256 16 16 (655360)
I1002 12:07:06.193142 30882 net.cpp:194] Memory required for data: 300277880
I1002 12:07:06.193150 30882 layer_factory.hpp:77] Creating layer conv3_Eltwise_3
I1002 12:07:06.193161 30882 net.cpp:128] Creating Layer conv3_Eltwise_3
I1002 12:07:06.193166 30882 net.cpp:558] conv3_Eltwise_3 <- conv3_Eltwise_2_conv3_2ReLU_1_0_split_1
I1002 12:07:06.193171 30882 net.cpp:558] conv3_Eltwise_3 <- conv3_3_1
I1002 12:07:06.193177 30882 net.cpp:522] conv3_Eltwise_3 -> conv3_Eltwise_3
I1002 12:07:06.193204 30882 net.cpp:172] Setting up conv3_Eltwise_3
I1002 12:07:06.193212 30882 net.cpp:186] Top shape: 10 256 16 16 (655360)
I1002 12:07:06.193215 30882 net.cpp:194] Memory required for data: 302899320
I1002 12:07:06.193219 30882 layer_factory.hpp:77] Creating layer conv3_3ReLU_1
I1002 12:07:06.193225 30882 net.cpp:128] Creating Layer conv3_3ReLU_1
I1002 12:07:06.193229 30882 net.cpp:558] conv3_3ReLU_1 <- conv3_Eltwise_3
I1002 12:07:06.193238 30882 net.cpp:509] conv3_3ReLU_1 -> conv3_Eltwise_3 (in-place)
I1002 12:07:06.193495 30882 net.cpp:172] Setting up conv3_3ReLU_1
I1002 12:07:06.193526 30882 net.cpp:186] Top shape: 10 256 16 16 (655360)
I1002 12:07:06.193531 30882 net.cpp:194] Memory required for data: 305520760
I1002 12:07:06.193536 30882 layer_factory.hpp:77] Creating layer conv3_Eltwise_3_conv3_3ReLU_1_0_split
I1002 12:07:06.193545 30882 net.cpp:128] Creating Layer conv3_Eltwise_3_conv3_3ReLU_1_0_split
I1002 12:07:06.193552 30882 net.cpp:558] conv3_Eltwise_3_conv3_3ReLU_1_0_split <- conv3_Eltwise_3
I1002 12:07:06.193562 30882 net.cpp:522] conv3_Eltwise_3_conv3_3ReLU_1_0_split -> conv3_Eltwise_3_conv3_3ReLU_1_0_split_0
I1002 12:07:06.193569 30882 net.cpp:522] conv3_Eltwise_3_conv3_3ReLU_1_0_split -> conv3_Eltwise_3_conv3_3ReLU_1_0_split_1
I1002 12:07:06.193632 30882 net.cpp:172] Setting up conv3_Eltwise_3_conv3_3ReLU_1_0_split
I1002 12:07:06.193642 30882 net.cpp:186] Top shape: 10 256 16 16 (655360)
I1002 12:07:06.193648 30882 net.cpp:186] Top shape: 10 256 16 16 (655360)
I1002 12:07:06.193652 30882 net.cpp:194] Memory required for data: 310763640
I1002 12:07:06.193656 30882 layer_factory.hpp:77] Creating layer conv4_1_0
I1002 12:07:06.193668 30882 net.cpp:128] Creating Layer conv4_1_0
I1002 12:07:06.193673 30882 net.cpp:558] conv4_1_0 <- conv3_Eltwise_3_conv3_3ReLU_1_0_split_0
I1002 12:07:06.193683 30882 net.cpp:522] conv4_1_0 -> conv4_1_0
I1002 12:07:06.216598 30882 net.cpp:172] Setting up conv4_1_0
I1002 12:07:06.216644 30882 net.cpp:186] Top shape: 10 512 8 8 (327680)
I1002 12:07:06.216648 30882 net.cpp:194] Memory required for data: 312074360
I1002 12:07:06.216666 30882 layer_factory.hpp:77] Creating layer conv4_1_bn0
I1002 12:07:06.216681 30882 net.cpp:128] Creating Layer conv4_1_bn0
I1002 12:07:06.216691 30882 net.cpp:558] conv4_1_bn0 <- conv4_1_0
I1002 12:07:06.216698 30882 net.cpp:509] conv4_1_bn0 -> conv4_1_0 (in-place)
I1002 12:07:06.217027 30882 net.cpp:172] Setting up conv4_1_bn0
I1002 12:07:06.217039 30882 net.cpp:186] Top shape: 10 512 8 8 (327680)
I1002 12:07:06.217043 30882 net.cpp:194] Memory required for data: 313385080
I1002 12:07:06.217053 30882 layer_factory.hpp:77] Creating layer conv4_1_scale0
I1002 12:07:06.217063 30882 net.cpp:128] Creating Layer conv4_1_scale0
I1002 12:07:06.217067 30882 net.cpp:558] conv4_1_scale0 <- conv4_1_0
I1002 12:07:06.217075 30882 net.cpp:509] conv4_1_scale0 -> conv4_1_0 (in-place)
I1002 12:07:06.217133 30882 layer_factory.hpp:77] Creating layer conv4_1_scale0
I1002 12:07:06.217312 30882 net.cpp:172] Setting up conv4_1_scale0
I1002 12:07:06.217325 30882 net.cpp:186] Top shape: 10 512 8 8 (327680)
I1002 12:07:06.217329 30882 net.cpp:194] Memory required for data: 314695800
I1002 12:07:06.217337 30882 layer_factory.hpp:77] Creating layer conv4_1_ReLU0
I1002 12:07:06.217344 30882 net.cpp:128] Creating Layer conv4_1_ReLU0
I1002 12:07:06.217348 30882 net.cpp:558] conv4_1_ReLU0 <- conv4_1_0
I1002 12:07:06.217355 30882 net.cpp:509] conv4_1_ReLU0 -> conv4_1_0 (in-place)
I1002 12:07:06.217603 30882 net.cpp:172] Setting up conv4_1_ReLU0
I1002 12:07:06.217619 30882 net.cpp:186] Top shape: 10 512 8 8 (327680)
I1002 12:07:06.217624 30882 net.cpp:194] Memory required for data: 316006520
I1002 12:07:06.217628 30882 layer_factory.hpp:77] Creating layer conv4_Drop1
I1002 12:07:06.217638 30882 net.cpp:128] Creating Layer conv4_Drop1
I1002 12:07:06.217643 30882 net.cpp:558] conv4_Drop1 <- conv4_1_0
I1002 12:07:06.217648 30882 net.cpp:509] conv4_Drop1 -> conv4_1_0 (in-place)
I1002 12:07:06.217685 30882 net.cpp:172] Setting up conv4_Drop1
I1002 12:07:06.217692 30882 net.cpp:186] Top shape: 10 512 8 8 (327680)
I1002 12:07:06.217696 30882 net.cpp:194] Memory required for data: 317317240
I1002 12:07:06.217700 30882 layer_factory.hpp:77] Creating layer conv4_1_1
I1002 12:07:06.217713 30882 net.cpp:128] Creating Layer conv4_1_1
I1002 12:07:06.217718 30882 net.cpp:558] conv4_1_1 <- conv4_1_0
I1002 12:07:06.217728 30882 net.cpp:522] conv4_1_1 -> conv4_1_1
I1002 12:07:06.263242 30882 net.cpp:172] Setting up conv4_1_1
I1002 12:07:06.263300 30882 net.cpp:186] Top shape: 10 512 8 8 (327680)
I1002 12:07:06.263304 30882 net.cpp:194] Memory required for data: 318627960
I1002 12:07:06.263365 30882 layer_factory.hpp:77] Creating layer conv4_1bn1
I1002 12:07:06.263383 30882 net.cpp:128] Creating Layer conv4_1bn1
I1002 12:07:06.263396 30882 net.cpp:558] conv4_1bn1 <- conv4_1_1
I1002 12:07:06.263408 30882 net.cpp:509] conv4_1bn1 -> conv4_1_1 (in-place)
I1002 12:07:06.263736 30882 net.cpp:172] Setting up conv4_1bn1
I1002 12:07:06.263747 30882 net.cpp:186] Top shape: 10 512 8 8 (327680)
I1002 12:07:06.263751 30882 net.cpp:194] Memory required for data: 319938680
I1002 12:07:06.263762 30882 layer_factory.hpp:77] Creating layer conv4_1_scale1
I1002 12:07:06.263770 30882 net.cpp:128] Creating Layer conv4_1_scale1
I1002 12:07:06.263775 30882 net.cpp:558] conv4_1_scale1 <- conv4_1_1
I1002 12:07:06.263785 30882 net.cpp:509] conv4_1_scale1 -> conv4_1_1 (in-place)
I1002 12:07:06.263844 30882 layer_factory.hpp:77] Creating layer conv4_1_scale1
I1002 12:07:06.264027 30882 net.cpp:172] Setting up conv4_1_scale1
I1002 12:07:06.264037 30882 net.cpp:186] Top shape: 10 512 8 8 (327680)
I1002 12:07:06.264042 30882 net.cpp:194] Memory required for data: 321249400
I1002 12:07:06.264050 30882 layer_factory.hpp:77] Creating layer conv4_1_down
I1002 12:07:06.264063 30882 net.cpp:128] Creating Layer conv4_1_down
I1002 12:07:06.264070 30882 net.cpp:558] conv4_1_down <- conv3_Eltwise_3_conv3_3ReLU_1_0_split_1
I1002 12:07:06.264081 30882 net.cpp:522] conv4_1_down -> conv4_1_down
I1002 12:07:06.267649 30882 net.cpp:172] Setting up conv4_1_down
I1002 12:07:06.267679 30882 net.cpp:186] Top shape: 10 512 8 8 (327680)
I1002 12:07:06.267683 30882 net.cpp:194] Memory required for data: 322560120
I1002 12:07:06.267693 30882 layer_factory.hpp:77] Creating layer conv4_1_bn_down
I1002 12:07:06.267701 30882 net.cpp:128] Creating Layer conv4_1_bn_down
I1002 12:07:06.267706 30882 net.cpp:558] conv4_1_bn_down <- conv4_1_down
I1002 12:07:06.267720 30882 net.cpp:509] conv4_1_bn_down -> conv4_1_down (in-place)
I1002 12:07:06.268033 30882 net.cpp:172] Setting up conv4_1_bn_down
I1002 12:07:06.268043 30882 net.cpp:186] Top shape: 10 512 8 8 (327680)
I1002 12:07:06.268048 30882 net.cpp:194] Memory required for data: 323870840
I1002 12:07:06.268057 30882 layer_factory.hpp:77] Creating layer conv4_1_scale_down
I1002 12:07:06.268064 30882 net.cpp:128] Creating Layer conv4_1_scale_down
I1002 12:07:06.268069 30882 net.cpp:558] conv4_1_scale_down <- conv4_1_down
I1002 12:07:06.268074 30882 net.cpp:509] conv4_1_scale_down -> conv4_1_down (in-place)
I1002 12:07:06.268126 30882 layer_factory.hpp:77] Creating layer conv4_1_scale_down
I1002 12:07:06.268304 30882 net.cpp:172] Setting up conv4_1_scale_down
I1002 12:07:06.268316 30882 net.cpp:186] Top shape: 10 512 8 8 (327680)
I1002 12:07:06.268319 30882 net.cpp:194] Memory required for data: 325181560
I1002 12:07:06.268327 30882 layer_factory.hpp:77] Creating layer conv4_Eltwise_1
I1002 12:07:06.268337 30882 net.cpp:128] Creating Layer conv4_Eltwise_1
I1002 12:07:06.268342 30882 net.cpp:558] conv4_Eltwise_1 <- conv4_1_1
I1002 12:07:06.268347 30882 net.cpp:558] conv4_Eltwise_1 <- conv4_1_down
I1002 12:07:06.268353 30882 net.cpp:522] conv4_Eltwise_1 -> conv4_Eltwise_1
I1002 12:07:06.268386 30882 net.cpp:172] Setting up conv4_Eltwise_1
I1002 12:07:06.268393 30882 net.cpp:186] Top shape: 10 512 8 8 (327680)
I1002 12:07:06.268398 30882 net.cpp:194] Memory required for data: 326492280
I1002 12:07:06.268401 30882 layer_factory.hpp:77] Creating layer conv4_1ReLU_1
I1002 12:07:06.268409 30882 net.cpp:128] Creating Layer conv4_1ReLU_1
I1002 12:07:06.268412 30882 net.cpp:558] conv4_1ReLU_1 <- conv4_Eltwise_1
I1002 12:07:06.268420 30882 net.cpp:509] conv4_1ReLU_1 -> conv4_Eltwise_1 (in-place)
I1002 12:07:06.268891 30882 net.cpp:172] Setting up conv4_1ReLU_1
I1002 12:07:06.268914 30882 net.cpp:186] Top shape: 10 512 8 8 (327680)
I1002 12:07:06.268918 30882 net.cpp:194] Memory required for data: 327803000
I1002 12:07:06.268923 30882 layer_factory.hpp:77] Creating layer conv4_Eltwise_1_conv4_1ReLU_1_0_split
I1002 12:07:06.268931 30882 net.cpp:128] Creating Layer conv4_Eltwise_1_conv4_1ReLU_1_0_split
I1002 12:07:06.268952 30882 net.cpp:558] conv4_Eltwise_1_conv4_1ReLU_1_0_split <- conv4_Eltwise_1
I1002 12:07:06.268963 30882 net.cpp:522] conv4_Eltwise_1_conv4_1ReLU_1_0_split -> conv4_Eltwise_1_conv4_1ReLU_1_0_split_0
I1002 12:07:06.268973 30882 net.cpp:522] conv4_Eltwise_1_conv4_1ReLU_1_0_split -> conv4_Eltwise_1_conv4_1ReLU_1_0_split_1
I1002 12:07:06.269042 30882 net.cpp:172] Setting up conv4_Eltwise_1_conv4_1ReLU_1_0_split
I1002 12:07:06.269058 30882 net.cpp:186] Top shape: 10 512 8 8 (327680)
I1002 12:07:06.269064 30882 net.cpp:186] Top shape: 10 512 8 8 (327680)
I1002 12:07:06.269068 30882 net.cpp:194] Memory required for data: 330424440
I1002 12:07:06.269073 30882 layer_factory.hpp:77] Creating layer conv4_2_0
I1002 12:07:06.269084 30882 net.cpp:128] Creating Layer conv4_2_0
I1002 12:07:06.269089 30882 net.cpp:558] conv4_2_0 <- conv4_Eltwise_1_conv4_1ReLU_1_0_split_0
I1002 12:07:06.269098 30882 net.cpp:522] conv4_2_0 -> conv4_2_0
I1002 12:07:06.314663 30882 net.cpp:172] Setting up conv4_2_0
I1002 12:07:06.314720 30882 net.cpp:186] Top shape: 10 512 8 8 (327680)
I1002 12:07:06.314724 30882 net.cpp:194] Memory required for data: 331735160
I1002 12:07:06.314746 30882 layer_factory.hpp:77] Creating layer conv4_2_bn0
I1002 12:07:06.314764 30882 net.cpp:128] Creating Layer conv4_2_bn0
I1002 12:07:06.314774 30882 net.cpp:558] conv4_2_bn0 <- conv4_2_0
I1002 12:07:06.314783 30882 net.cpp:509] conv4_2_bn0 -> conv4_2_0 (in-place)
I1002 12:07:06.315115 30882 net.cpp:172] Setting up conv4_2_bn0
I1002 12:07:06.315126 30882 net.cpp:186] Top shape: 10 512 8 8 (327680)
I1002 12:07:06.315131 30882 net.cpp:194] Memory required for data: 333045880
I1002 12:07:06.315156 30882 layer_factory.hpp:77] Creating layer conv4_2_scale0
I1002 12:07:06.315167 30882 net.cpp:128] Creating Layer conv4_2_scale0
I1002 12:07:06.315171 30882 net.cpp:558] conv4_2_scale0 <- conv4_2_0
I1002 12:07:06.315177 30882 net.cpp:509] conv4_2_scale0 -> conv4_2_0 (in-place)
I1002 12:07:06.315239 30882 layer_factory.hpp:77] Creating layer conv4_2_scale0
I1002 12:07:06.315423 30882 net.cpp:172] Setting up conv4_2_scale0
I1002 12:07:06.315433 30882 net.cpp:186] Top shape: 10 512 8 8 (327680)
I1002 12:07:06.315438 30882 net.cpp:194] Memory required for data: 334356600
I1002 12:07:06.315444 30882 layer_factory.hpp:77] Creating layer conv4_2_ReLU0
I1002 12:07:06.315454 30882 net.cpp:128] Creating Layer conv4_2_ReLU0
I1002 12:07:06.315459 30882 net.cpp:558] conv4_2_ReLU0 <- conv4_2_0
I1002 12:07:06.315467 30882 net.cpp:509] conv4_2_ReLU0 -> conv4_2_0 (in-place)
I1002 12:07:06.315727 30882 net.cpp:172] Setting up conv4_2_ReLU0
I1002 12:07:06.315742 30882 net.cpp:186] Top shape: 10 512 8 8 (327680)
I1002 12:07:06.315747 30882 net.cpp:194] Memory required for data: 335667320
I1002 12:07:06.315752 30882 layer_factory.hpp:77] Creating layer conv4_Drop2
I1002 12:07:06.315762 30882 net.cpp:128] Creating Layer conv4_Drop2
I1002 12:07:06.315768 30882 net.cpp:558] conv4_Drop2 <- conv4_2_0
I1002 12:07:06.315776 30882 net.cpp:509] conv4_Drop2 -> conv4_2_0 (in-place)
I1002 12:07:06.315814 30882 net.cpp:172] Setting up conv4_Drop2
I1002 12:07:06.315821 30882 net.cpp:186] Top shape: 10 512 8 8 (327680)
I1002 12:07:06.315825 30882 net.cpp:194] Memory required for data: 336978040
I1002 12:07:06.315829 30882 layer_factory.hpp:77] Creating layer conv4_2_1
I1002 12:07:06.315845 30882 net.cpp:128] Creating Layer conv4_2_1
I1002 12:07:06.315850 30882 net.cpp:558] conv4_2_1 <- conv4_2_0
I1002 12:07:06.315857 30882 net.cpp:522] conv4_2_1 -> conv4_2_1
I1002 12:07:06.361389 30882 net.cpp:172] Setting up conv4_2_1
I1002 12:07:06.361449 30882 net.cpp:186] Top shape: 10 512 8 8 (327680)
I1002 12:07:06.361452 30882 net.cpp:194] Memory required for data: 338288760
I1002 12:07:06.361474 30882 layer_factory.hpp:77] Creating layer conv4_2bn1
I1002 12:07:06.361491 30882 net.cpp:128] Creating Layer conv4_2bn1
I1002 12:07:06.361503 30882 net.cpp:558] conv4_2bn1 <- conv4_2_1
I1002 12:07:06.361515 30882 net.cpp:509] conv4_2bn1 -> conv4_2_1 (in-place)
I1002 12:07:06.361846 30882 net.cpp:172] Setting up conv4_2bn1
I1002 12:07:06.361891 30882 net.cpp:186] Top shape: 10 512 8 8 (327680)
I1002 12:07:06.361896 30882 net.cpp:194] Memory required for data: 339599480
I1002 12:07:06.361925 30882 layer_factory.hpp:77] Creating layer conv4_2_scale1
I1002 12:07:06.361935 30882 net.cpp:128] Creating Layer conv4_2_scale1
I1002 12:07:06.361939 30882 net.cpp:558] conv4_2_scale1 <- conv4_2_1
I1002 12:07:06.361945 30882 net.cpp:509] conv4_2_scale1 -> conv4_2_1 (in-place)
I1002 12:07:06.362013 30882 layer_factory.hpp:77] Creating layer conv4_2_scale1
I1002 12:07:06.362198 30882 net.cpp:172] Setting up conv4_2_scale1
I1002 12:07:06.362210 30882 net.cpp:186] Top shape: 10 512 8 8 (327680)
I1002 12:07:06.362215 30882 net.cpp:194] Memory required for data: 340910200
I1002 12:07:06.362222 30882 layer_factory.hpp:77] Creating layer conv4_Eltwise_2
I1002 12:07:06.362231 30882 net.cpp:128] Creating Layer conv4_Eltwise_2
I1002 12:07:06.362238 30882 net.cpp:558] conv4_Eltwise_2 <- conv4_Eltwise_1_conv4_1ReLU_1_0_split_1
I1002 12:07:06.362244 30882 net.cpp:558] conv4_Eltwise_2 <- conv4_2_1
I1002 12:07:06.362251 30882 net.cpp:522] conv4_Eltwise_2 -> conv4_Eltwise_2
I1002 12:07:06.362285 30882 net.cpp:172] Setting up conv4_Eltwise_2
I1002 12:07:06.362293 30882 net.cpp:186] Top shape: 10 512 8 8 (327680)
I1002 12:07:06.362296 30882 net.cpp:194] Memory required for data: 342220920
I1002 12:07:06.362300 30882 layer_factory.hpp:77] Creating layer conv4_2ReLU_1
I1002 12:07:06.362308 30882 net.cpp:128] Creating Layer conv4_2ReLU_1
I1002 12:07:06.362311 30882 net.cpp:558] conv4_2ReLU_1 <- conv4_Eltwise_2
I1002 12:07:06.362319 30882 net.cpp:509] conv4_2ReLU_1 -> conv4_Eltwise_2 (in-place)
I1002 12:07:06.362581 30882 net.cpp:172] Setting up conv4_2ReLU_1
I1002 12:07:06.362596 30882 net.cpp:186] Top shape: 10 512 8 8 (327680)
I1002 12:07:06.362599 30882 net.cpp:194] Memory required for data: 343531640
I1002 12:07:06.362604 30882 layer_factory.hpp:77] Creating layer conv4_Eltwise_2_conv4_2ReLU_1_0_split
I1002 12:07:06.362617 30882 net.cpp:128] Creating Layer conv4_Eltwise_2_conv4_2ReLU_1_0_split
I1002 12:07:06.362623 30882 net.cpp:558] conv4_Eltwise_2_conv4_2ReLU_1_0_split <- conv4_Eltwise_2
I1002 12:07:06.362632 30882 net.cpp:522] conv4_Eltwise_2_conv4_2ReLU_1_0_split -> conv4_Eltwise_2_conv4_2ReLU_1_0_split_0
I1002 12:07:06.362641 30882 net.cpp:522] conv4_Eltwise_2_conv4_2ReLU_1_0_split -> conv4_Eltwise_2_conv4_2ReLU_1_0_split_1
I1002 12:07:06.362709 30882 net.cpp:172] Setting up conv4_Eltwise_2_conv4_2ReLU_1_0_split
I1002 12:07:06.362718 30882 net.cpp:186] Top shape: 10 512 8 8 (327680)
I1002 12:07:06.362725 30882 net.cpp:186] Top shape: 10 512 8 8 (327680)
I1002 12:07:06.362728 30882 net.cpp:194] Memory required for data: 346153080
I1002 12:07:06.362732 30882 layer_factory.hpp:77] Creating layer conv4_3_0
I1002 12:07:06.362746 30882 net.cpp:128] Creating Layer conv4_3_0
I1002 12:07:06.362751 30882 net.cpp:558] conv4_3_0 <- conv4_Eltwise_2_conv4_2ReLU_1_0_split_0
I1002 12:07:06.362759 30882 net.cpp:522] conv4_3_0 -> conv4_3_0
I1002 12:07:06.408284 30882 net.cpp:172] Setting up conv4_3_0
I1002 12:07:06.408344 30882 net.cpp:186] Top shape: 10 512 8 8 (327680)
I1002 12:07:06.408349 30882 net.cpp:194] Memory required for data: 347463800
I1002 12:07:06.408370 30882 layer_factory.hpp:77] Creating layer conv4_3_bn0
I1002 12:07:06.408388 30882 net.cpp:128] Creating Layer conv4_3_bn0
I1002 12:07:06.408399 30882 net.cpp:558] conv4_3_bn0 <- conv4_3_0
I1002 12:07:06.408407 30882 net.cpp:509] conv4_3_bn0 -> conv4_3_0 (in-place)
I1002 12:07:06.408735 30882 net.cpp:172] Setting up conv4_3_bn0
I1002 12:07:06.408746 30882 net.cpp:186] Top shape: 10 512 8 8 (327680)
I1002 12:07:06.408751 30882 net.cpp:194] Memory required for data: 348774520
I1002 12:07:06.408761 30882 layer_factory.hpp:77] Creating layer conv4_3_scale0
I1002 12:07:06.408772 30882 net.cpp:128] Creating Layer conv4_3_scale0
I1002 12:07:06.408777 30882 net.cpp:558] conv4_3_scale0 <- conv4_3_0
I1002 12:07:06.408783 30882 net.cpp:509] conv4_3_scale0 -> conv4_3_0 (in-place)
I1002 12:07:06.408845 30882 layer_factory.hpp:77] Creating layer conv4_3_scale0
I1002 12:07:06.409075 30882 net.cpp:172] Setting up conv4_3_scale0
I1002 12:07:06.409086 30882 net.cpp:186] Top shape: 10 512 8 8 (327680)
I1002 12:07:06.409090 30882 net.cpp:194] Memory required for data: 350085240
I1002 12:07:06.409098 30882 layer_factory.hpp:77] Creating layer conv4_3_ReLU0
I1002 12:07:06.409108 30882 net.cpp:128] Creating Layer conv4_3_ReLU0
I1002 12:07:06.409113 30882 net.cpp:558] conv4_3_ReLU0 <- conv4_3_0
I1002 12:07:06.409118 30882 net.cpp:509] conv4_3_ReLU0 -> conv4_3_0 (in-place)
I1002 12:07:06.409375 30882 net.cpp:172] Setting up conv4_3_ReLU0
I1002 12:07:06.409391 30882 net.cpp:186] Top shape: 10 512 8 8 (327680)
I1002 12:07:06.409395 30882 net.cpp:194] Memory required for data: 351395960
I1002 12:07:06.409400 30882 layer_factory.hpp:77] Creating layer conv4_Drop3
I1002 12:07:06.409411 30882 net.cpp:128] Creating Layer conv4_Drop3
I1002 12:07:06.409416 30882 net.cpp:558] conv4_Drop3 <- conv4_3_0
I1002 12:07:06.409422 30882 net.cpp:509] conv4_Drop3 -> conv4_3_0 (in-place)
I1002 12:07:06.409462 30882 net.cpp:172] Setting up conv4_Drop3
I1002 12:07:06.409469 30882 net.cpp:186] Top shape: 10 512 8 8 (327680)
I1002 12:07:06.409473 30882 net.cpp:194] Memory required for data: 352706680
I1002 12:07:06.409477 30882 layer_factory.hpp:77] Creating layer conv4_3_1
I1002 12:07:06.409495 30882 net.cpp:128] Creating Layer conv4_3_1
I1002 12:07:06.409500 30882 net.cpp:558] conv4_3_1 <- conv4_3_0
I1002 12:07:06.409510 30882 net.cpp:522] conv4_3_1 -> conv4_3_1
I1002 12:07:06.455049 30882 net.cpp:172] Setting up conv4_3_1
I1002 12:07:06.455107 30882 net.cpp:186] Top shape: 10 512 8 8 (327680)
I1002 12:07:06.455112 30882 net.cpp:194] Memory required for data: 354017400
I1002 12:07:06.455132 30882 layer_factory.hpp:77] Creating layer conv4_3bn1
I1002 12:07:06.455152 30882 net.cpp:128] Creating Layer conv4_3bn1
I1002 12:07:06.455163 30882 net.cpp:558] conv4_3bn1 <- conv4_3_1
I1002 12:07:06.455174 30882 net.cpp:509] conv4_3bn1 -> conv4_3_1 (in-place)
I1002 12:07:06.455514 30882 net.cpp:172] Setting up conv4_3bn1
I1002 12:07:06.455526 30882 net.cpp:186] Top shape: 10 512 8 8 (327680)
I1002 12:07:06.455530 30882 net.cpp:194] Memory required for data: 355328120
I1002 12:07:06.455540 30882 layer_factory.hpp:77] Creating layer conv4_3_scale1
I1002 12:07:06.455549 30882 net.cpp:128] Creating Layer conv4_3_scale1
I1002 12:07:06.455554 30882 net.cpp:558] conv4_3_scale1 <- conv4_3_1
I1002 12:07:06.455559 30882 net.cpp:509] conv4_3_scale1 -> conv4_3_1 (in-place)
I1002 12:07:06.455624 30882 layer_factory.hpp:77] Creating layer conv4_3_scale1
I1002 12:07:06.455807 30882 net.cpp:172] Setting up conv4_3_scale1
I1002 12:07:06.455818 30882 net.cpp:186] Top shape: 10 512 8 8 (327680)
I1002 12:07:06.455822 30882 net.cpp:194] Memory required for data: 356638840
I1002 12:07:06.455830 30882 layer_factory.hpp:77] Creating layer conv4_Eltwise_3
I1002 12:07:06.455839 30882 net.cpp:128] Creating Layer conv4_Eltwise_3
I1002 12:07:06.455845 30882 net.cpp:558] conv4_Eltwise_3 <- conv4_Eltwise_2_conv4_2ReLU_1_0_split_1
I1002 12:07:06.455850 30882 net.cpp:558] conv4_Eltwise_3 <- conv4_3_1
I1002 12:07:06.455859 30882 net.cpp:522] conv4_Eltwise_3 -> conv4_Eltwise_3
I1002 12:07:06.455893 30882 net.cpp:172] Setting up conv4_Eltwise_3
I1002 12:07:06.455909 30882 net.cpp:186] Top shape: 10 512 8 8 (327680)
I1002 12:07:06.455914 30882 net.cpp:194] Memory required for data: 357949560
I1002 12:07:06.455919 30882 layer_factory.hpp:77] Creating layer conv4_3ReLU_1
I1002 12:07:06.455927 30882 net.cpp:128] Creating Layer conv4_3ReLU_1
I1002 12:07:06.455932 30882 net.cpp:558] conv4_3ReLU_1 <- conv4_Eltwise_3
I1002 12:07:06.455937 30882 net.cpp:509] conv4_3ReLU_1 -> conv4_Eltwise_3 (in-place)
I1002 12:07:06.456408 30882 net.cpp:172] Setting up conv4_3ReLU_1
I1002 12:07:06.456434 30882 net.cpp:186] Top shape: 10 512 8 8 (327680)
I1002 12:07:06.456439 30882 net.cpp:194] Memory required for data: 359260280
I1002 12:07:06.456444 30882 layer_factory.hpp:77] Creating layer Pooling1
I1002 12:07:06.456454 30882 net.cpp:128] Creating Layer Pooling1
I1002 12:07:06.456498 30882 net.cpp:558] Pooling1 <- conv4_Eltwise_3
I1002 12:07:06.456506 30882 net.cpp:522] Pooling1 -> Pooling1
I1002 12:07:06.456802 30882 net.cpp:172] Setting up Pooling1
I1002 12:07:06.456817 30882 net.cpp:186] Top shape: 10 512 1 1 (5120)
I1002 12:07:06.456822 30882 net.cpp:194] Memory required for data: 359280760
I1002 12:07:06.456826 30882 layer_factory.hpp:77] Creating layer fc1
I1002 12:07:06.456840 30882 net.cpp:128] Creating Layer fc1
I1002 12:07:06.456845 30882 net.cpp:558] fc1 <- Pooling1
I1002 12:07:06.456853 30882 net.cpp:522] fc1 -> fc1
I1002 12:07:06.457119 30882 net.cpp:172] Setting up fc1
I1002 12:07:06.457129 30882 net.cpp:186] Top shape: 10 10 (100)
I1002 12:07:06.457134 30882 net.cpp:194] Memory required for data: 359281160
I1002 12:07:06.457144 30882 layer_factory.hpp:77] Creating layer fc1_fc1_0_split
I1002 12:07:06.457150 30882 net.cpp:128] Creating Layer fc1_fc1_0_split
I1002 12:07:06.457155 30882 net.cpp:558] fc1_fc1_0_split <- fc1
I1002 12:07:06.457164 30882 net.cpp:522] fc1_fc1_0_split -> fc1_fc1_0_split_0
I1002 12:07:06.457171 30882 net.cpp:522] fc1_fc1_0_split -> fc1_fc1_0_split_1
I1002 12:07:06.457224 30882 net.cpp:172] Setting up fc1_fc1_0_split
I1002 12:07:06.457234 30882 net.cpp:186] Top shape: 10 10 (100)
I1002 12:07:06.457239 30882 net.cpp:186] Top shape: 10 10 (100)
I1002 12:07:06.457243 30882 net.cpp:194] Memory required for data: 359281960
I1002 12:07:06.457247 30882 layer_factory.hpp:77] Creating layer Softmax1
I1002 12:07:06.457257 30882 net.cpp:128] Creating Layer Softmax1
I1002 12:07:06.457262 30882 net.cpp:558] Softmax1 <- fc1_fc1_0_split_0
I1002 12:07:06.457267 30882 net.cpp:558] Softmax1 <- label_Data1_1_split_0
I1002 12:07:06.457273 30882 net.cpp:522] Softmax1 -> Softmax1
…
