…
I1113 16:49:04.604028  7495 upgrade_proto.cpp:77] Attempting to upgrade batch norm layers using deprecated params: /home/ljf/caffe-master/examples/ljftest_cifar10_VggNet_BN/train.prototxt
I1113 16:49:04.604035  7495 upgrade_proto.cpp:80] Successfully upgraded batch norm layers using deprecated params.
I1113 16:49:04.604276  7495 net.cpp:51] Initializing net from parameters: 
state {
  phase: TRAIN
  level: 0
  stage: ""
}
layer {
  name: "cifar10"
  type: "Data"
  top: "data"
  top: "label"
  transform_param {
    mirror: true
    crop_size: 28
  }
  data_param {
    source: "/home/ljf/caffe-master/examples/ljftest_cifar10_VggNet_BN/train_lmdb"
    batch_size: 256
    backend: LMDB
  }
  image_data_param {
    shuffle: true
  }
}
layer {
  name: "conv1"
  type: "Convolution"
  bottom: "data"
  top: "conv1"
  param {
    lr_mult: 1
  }
  param {
    lr_mult: 2
  }
  convolution_param {
    num_output: 64
    pad: 1
    kernel_size: 3
    stride: 1
    weight_filler {
      type: "msra"
    }
    bias_filler {
      type: "constant"
    }
  }
}
layer {
  name: "BN1"
  type: "BatchNorm"
  bottom: "conv1"
  top: "conv1"
  param {
    lr_mult: 0
    decay_mult: 0
  }
  param {
    lr_mult: 0
    decay_mult: 0
  }
  param {
    lr_mult: 0
    decay_mult: 0
  }
  batch_norm_param {
    use_global_stats: false
  }
}
layer {
  name: "scale1"
  type: "Scale"
  bottom: "conv1"
  top: "conv1"
  scale_param {
    bias_term: true
  }
}
layer {
  name: "relu1"
  type: "ReLU"
  bottom: "conv1"
  top: "conv1"
}
layer {
  name: "conv2"
  type: "Convolution"
  bottom: "conv1"
  top: "conv2"
  param {
    lr_mult: 1
  }
  param {
    lr_mult: 2
  }
  convolution_param {
    num_output: 64
    pad: 1
    kernel_size: 3
    stride: 1
    weight_filler {
      type: "msra"
    }
    bias_filler {
      type: "constant"
    }
  }
}
layer {
  name: "BN2"
  type: "BatchNorm"
  bottom: "conv2"
  top: "conv2"
  param {
    lr_mult: 0
    decay_mult: 0
  }
  param {
    lr_mult: 0
    decay_mult: 0
  }
  param {
    lr_mult: 0
    decay_mult: 0
  }
  batch_norm_param {
    use_global_stats: false
  }
}
layer {
  name: "scale2"
  type: "Scale"
  bottom: "conv2"
  top: "conv2"
  scale_param {
    bias_term: true
  }
}
layer {
  name: "relu2"
  type: "ReLU"
  bottom: "conv2"
  top: "conv2"
}
layer {
  name: "pool2"
  type: "Pooling"
  bottom: "conv2"
  top: "pool2"
  pooling_param {
    pool: MAX
    kernel_size: 2
    stride: 2
    pad: 0
  }
}
layer {
  name: "conv3"
  type: "Convolution"
  bottom: "pool2"
  top: "conv3"
  param {
    lr_mult: 1
  }
  param {
    lr_mult: 2
  }
  convolution_param {
    num_output: 128
    pad: 1
    kernel_size: 3
    stride: 1
    weight_filler {
      type: "msra"
    }
    bias_filler {
      type: "constant"
    }
  }
}
layer {
  name: "BN3"
  type: "BatchNorm"
  bottom: "conv3"
  top: "conv3"
  param {
    lr_mult: 0
    decay_mult: 0
  }
  param {
    lr_mult: 0
    decay_mult: 0
  }
  param {
    lr_mult: 0
    decay_mult: 0
  }
  batch_norm_param {
    use_global_stats: false
  }
}
layer {
  name: "scale3"
  type: "Scale"
  bottom: "conv3"
  top: "conv3"
  scale_param {
    bias_term: true
  }
}
layer {
  name: "relu3"
  type: "ReLU"
  bottom: "conv3"
  top: "conv3"
}
layer {
  name: "conv4"
  type: "Convolution"
  bottom: "conv3"
  top: "conv4"
  param {
    lr_mult: 1
  }
  param {
    lr_mult: 2
  }
  convolution_param {
    num_output: 128
    pad: 1
    kernel_size: 3
    stride: 1
    weight_filler {
      type: "msra"
    }
    bias_filler {
      type: "constant"
    }
  }
}
layer {
  name: "BN4"
  type: "BatchNorm"
  bottom: "conv4"
  top: "conv4"
  param {
    lr_mult: 0
    decay_mult: 0
  }
  param {
    lr_mult: 0
    decay_mult: 0
  }
  param {
    lr_mult: 0
    decay_mult: 0
  }
  batch_norm_param {
    use_global_stats: false
  }
}
layer {
  name: "scale4"
  type: "Scale"
  bottom: "conv4"
  top: "conv4"
  scale_param {
    bias_term: true
  }
}
layer {
  name: "relu4"
  type: "ReLU"
  bottom: "conv4"
  top: "conv4"
}
layer {
  name: "pool4"
  type: "Pooling"
  bottom: "conv4"
  top: "pool4"
  pooling_param {
    pool: MAX
    kernel_size: 2
    stride: 2
    pad: 0
  }
}
layer {
  name: "conv5"
  type: "Convolution"
  bottom: "pool4"
  top: "conv5"
  param {
    lr_mult: 1
  }
  param {
    lr_mult: 2
  }
  convolution_param {
    num_output: 256
    pad: 1
    kernel_size: 3
    stride: 1
    weight_filler {
      type: "msra"
    }
    bias_filler {
      type: "constant"
    }
  }
}
layer {
  name: "BN5"
  type: "BatchNorm"
  bottom: "conv5"
  top: "conv5"
  param {
    lr_mult: 0
    decay_mult: 0
  }
  param {
    lr_mult: 0
    decay_mult: 0
  }
  param {
    lr_mult: 0
    decay_mult: 0
  }
  batch_norm_param {
    use_global_stats: false
  }
}
layer {
  name: "scale5"
  type: "Scale"
  bottom: "conv5"
  top: "conv5"
  scale_param {
    bias_term: true
  }
}
layer {
  name: "relu5"
  type: "ReLU"
  bottom: "conv5"
  top: "conv5"
}
layer {
  name: "conv6"
  type: "Convolution"
  bottom: "conv5"
  top: "conv6"
  param {
    lr_mult: 1
  }
  param {
    lr_mult: 2
  }
  convolution_param {
    num_output: 256
    pad: 1
    kernel_size: 3
    stride: 1
    weight_filler {
      type: "msra"
    }
    bias_filler {
      type: "constant"
    }
  }
}
layer {
  name: "BN6"
  type: "BatchNorm"
  bottom: "conv6"
  top: "conv6"
  param {
    lr_mult: 0
    decay_mult: 0
  }
  param {
    lr_mult: 0
    decay_mult: 0
  }
  param {
    lr_mult: 0
    decay_mult: 0
  }
  batch_norm_param {
    use_global_stats: false
  }
}
layer {
  name: "scale6"
  type: "Scale"
  bottom: "conv6"
  top: "conv6"
  scale_param {
    bias_term: true
  }
}
layer {
  name: "relu6"
  type: "ReLU"
  bottom: "conv6"
  top: "conv6"
}
layer {
  name: "conv7"
  type: "Convolution"
  bottom: "conv6"
  top: "conv7"
  param {
    lr_mult: 1
  }
  param {
    lr_mult: 2
  }
  convolution_param {
    num_output: 256
    pad: 1
    kernel_size: 3
    stride: 1
    weight_filler {
      type: "msra"
    }
    bias_filler {
      type: "constant"
    }
  }
}
layer {
  name: "BN7"
  type: "BatchNorm"
  bottom: "conv7"
  top: "conv7"
  param {
    lr_mult: 0
    decay_mult: 0
  }
  param {
    lr_mult: 0
    decay_mult: 0
  }
  param {
    lr_mult: 0
    decay_mult: 0
  }
  batch_norm_param {
    use_global_stats: false
  }
}
layer {
  name: "scale7"
  type: "Scale"
  bottom: "conv7"
  top: "conv7"
  scale_param {
    bias_term: true
  }
}
layer {
  name: "relu7"
  type: "ReLU"
  bottom: "conv7"
  top: "conv7"
}
layer {
  name: "pool7"
  type: "Pooling"
  bottom: "conv7"
  top: "pool7"
  pooling_param {
    pool: MAX
    kernel_size: 2
    stride: 2
    pad: 0
  }
}
layer {
  name: "conv8"
  type: "Convolution"
  bottom: "pool7"
  top: "conv8"
  param {
    lr_mult: 1
  }
  param {
    lr_mult: 2
  }
  convolution_param {
    num_output: 512
    pad: 1
    kernel_size: 3
    stride: 1
    weight_filler {
      type: "msra"
    }
    bias_filler {
      type: "constant"
    }
  }
}
layer {
  name: "BN8"
  type: "BatchNorm"
  bottom: "conv8"
  top: "conv8"
  param {
    lr_mult: 0
    decay_mult: 0
  }
  param {
    lr_mult: 0
    decay_mult: 0
  }
  param {
    lr_mult: 0
    decay_mult: 0
  }
  batch_norm_param {
    use_global_stats: false
  }
}
layer {
  name: "scale8"
  type: "Scale"
  bottom: "conv8"
  top: "conv8"
  scale_param {
    bias_term: true
  }
}
layer {
  name: "relu8"
  type: "ReLU"
  bottom: "conv8"
  top: "conv8"
}
layer {
  name: "conv9"
  type: "Convolution"
  bottom: "conv8"
  top: "conv9"
  param {
    lr_mult: 1
  }
  param {
    lr_mult: 2
  }
  convolution_param {
    num_output: 512
    pad: 1
    kernel_size: 3
    stride: 1
    weight_filler {
      type: "msra"
    }
    bias_filler {
      type: "constant"
    }
  }
}
layer {
  name: "BN9"
  type: "BatchNorm"
  bottom: "conv9"
  top: "conv9"
  param {
    lr_mult: 0
    decay_mult: 0
  }
  param {
    lr_mult: 0
    decay_mult: 0
  }
  param {
    lr_mult: 0
    decay_mult: 0
  }
  batch_norm_param {
    use_global_stats: false
  }
}
layer {
  name: "scale9"
  type: "Scale"
  bottom: "conv9"
  top: "conv9"
  scale_param {
    bias_term: true
  }
}
layer {
  name: "relu9"
  type: "ReLU"
  bottom: "conv9"
  top: "conv9"
}
layer {
  name: "conv10"
  type: "Convolution"
  bottom: "conv9"
  top: "conv10"
  param {
    lr_mult: 1
  }
  param {
    lr_mult: 2
  }
  convolution_param {
    num_output: 512
    pad: 1
    kernel_size: 3
    stride: 1
    weight_filler {
      type: "msra"
    }
    bias_filler {
      type: "constant"
    }
  }
}
layer {
  name: "BN10"
  type: "BatchNorm"
  bottom: "conv10"
  top: "conv10"
  param {
    lr_mult: 0
    decay_mult: 0
  }
  param {
    lr_mult: 0
    decay_mult: 0
  }
  param {
    lr_mult: 0
    decay_mult: 0
  }
  batch_norm_param {
    use_global_stats: false
  }
}
layer {
  name: "scale10"
  type: "Scale"
  bottom: "conv10"
  top: "conv10"
  scale_param {
    bias_term: true
  }
}
layer {
  name: "relu10"
  type: "ReLU"
  bottom: "conv10"
  top: "conv10"
}
layer {
  name: "pool10"
  type: "Pooling"
  bottom: "conv10"
  top: "pool10"
  pooling_param {
    pool: MAX
    kernel_size: 2
    stride: 2
    pad: 0
  }
}
layer {
  name: "fc65"
  type: "InnerProduct"
  bottom: "pool10"
  top: "fc65"
  inner_product_param {
    num_output: 1024
    weight_filler {
      type: "xavier"
    }
    bias_filler {
      type: "constant"
    }
  }
}
layer {
  name: "relu65"
  type: "ReLU"
  bottom: "fc65"
  top: "fc65"
}
layer {
  name: "drop65"
  type: "Dropout"
  bottom: "fc65"
  top: "fc65"
  dropout_param {
    dropout_ratio: 0.5
  }
}
layer {
  name: "fc66"
  type: "InnerProduct"
  bottom: "fc65"
  top: "fc66"
  inner_product_param {
    num_output: 1024
    weight_filler {
      type: "xavier"
    }
    bias_filler {
      type: "constant"
    }
  }
}
layer {
  name: "relu66"
  type: "ReLU"
  bottom: "fc66"
  top: "fc66"
}
layer {
  name: "drop66"
  type: "Dropout"
  bottom: "fc66"
  top: "fc66"
  dropout_param {
    dropout_ratio: 0.5
  }
}
layer {
  name: "fc100"
  type: "InnerProduct"
  bottom: "fc66"
  top: "fc100"
  inner_product_param {
    num_output: 10
    weight_filler {
      type: "xavier"
    }
    bias_filler {
      type: "constant"
    }
  }
}
layer {
  name: "loss"
  type: "SoftmaxWithLoss"
  bottom: "fc100"
  bottom: "label"
  top: "loss"
}
I1113 16:49:04.604404  7495 layer_factory.hpp:77] Creating layer cifar10
I1113 16:49:04.604517  7495 db_lmdb.cpp:35] Opened lmdb /home/ljf/caffe-master/examples/ljftest_cifar10_VggNet_BN/train_lmdb
I1113 16:49:04.604552  7495 net.cpp:84] Creating Layer cifar10
I1113 16:49:04.604557  7495 net.cpp:380] cifar10 -> data
I1113 16:49:04.604583  7495 net.cpp:380] cifar10 -> label
I1113 16:49:04.605216  7495 data_layer.cpp:45] output data size: 256,3,28,28
I1113 16:49:04.609997  7495 net.cpp:122] Setting up cifar10
I1113 16:49:04.610016  7495 net.cpp:129] Top shape: 256 3 28 28 (602112)
I1113 16:49:04.610019  7495 net.cpp:129] Top shape: 256 (256)
I1113 16:49:04.610021  7495 net.cpp:137] Memory required for data: 2409472
I1113 16:49:04.610028  7495 layer_factory.hpp:77] Creating layer conv1
I1113 16:49:04.610044  7495 net.cpp:84] Creating Layer conv1
I1113 16:49:04.610049  7495 net.cpp:406] conv1 <- data
I1113 16:49:04.610072  7495 net.cpp:380] conv1 -> conv1
I1113 16:49:04.771188  7495 net.cpp:122] Setting up conv1
I1113 16:49:04.771224  7495 net.cpp:129] Top shape: 256 64 28 28 (12845056)
I1113 16:49:04.771242  7495 net.cpp:137] Memory required for data: 53789696
I1113 16:49:04.771265  7495 layer_factory.hpp:77] Creating layer BN1
I1113 16:49:04.771275  7495 net.cpp:84] Creating Layer BN1
I1113 16:49:04.771277  7495 net.cpp:406] BN1 <- conv1
I1113 16:49:04.771283  7495 net.cpp:367] BN1 -> conv1 (in-place)
I1113 16:49:04.771451  7495 net.cpp:122] Setting up BN1
I1113 16:49:04.771456  7495 net.cpp:129] Top shape: 256 64 28 28 (12845056)
I1113 16:49:04.771471  7495 net.cpp:137] Memory required for data: 105169920
I1113 16:49:04.771477  7495 layer_factory.hpp:77] Creating layer scale1
I1113 16:49:04.771481  7495 net.cpp:84] Creating Layer scale1
I1113 16:49:04.771484  7495 net.cpp:406] scale1 <- conv1
I1113 16:49:04.771486  7495 net.cpp:367] scale1 -> conv1 (in-place)
I1113 16:49:04.771512  7495 layer_factory.hpp:77] Creating layer scale1
I1113 16:49:04.771579  7495 net.cpp:122] Setting up scale1
I1113 16:49:04.771584  7495 net.cpp:129] Top shape: 256 64 28 28 (12845056)
I1113 16:49:04.771586  7495 net.cpp:137] Memory required for data: 156550144
I1113 16:49:04.771589  7495 layer_factory.hpp:77] Creating layer relu1
I1113 16:49:04.771594  7495 net.cpp:84] Creating Layer relu1
I1113 16:49:04.771595  7495 net.cpp:406] relu1 <- conv1
I1113 16:49:04.771598  7495 net.cpp:367] relu1 -> conv1 (in-place)
I1113 16:49:04.771726  7495 net.cpp:122] Setting up relu1
I1113 16:49:04.771731  7495 net.cpp:129] Top shape: 256 64 28 28 (12845056)
I1113 16:49:04.771747  7495 net.cpp:137] Memory required for data: 207930368
I1113 16:49:04.771750  7495 layer_factory.hpp:77] Creating layer conv2
I1113 16:49:04.771759  7495 net.cpp:84] Creating Layer conv2
I1113 16:49:04.771760  7495 net.cpp:406] conv2 <- conv1
I1113 16:49:04.771764  7495 net.cpp:380] conv2 -> conv2
I1113 16:49:04.773151  7495 net.cpp:122] Setting up conv2
I1113 16:49:04.773159  7495 net.cpp:129] Top shape: 256 64 28 28 (12845056)
I1113 16:49:04.773175  7495 net.cpp:137] Memory required for data: 259310592
I1113 16:49:04.773180  7495 layer_factory.hpp:77] Creating layer BN2
I1113 16:49:04.773186  7495 net.cpp:84] Creating Layer BN2
I1113 16:49:04.773188  7495 net.cpp:406] BN2 <- conv2
I1113 16:49:04.773191  7495 net.cpp:367] BN2 -> conv2 (in-place)
I1113 16:49:04.773305  7495 net.cpp:122] Setting up BN2
I1113 16:49:04.773309  7495 net.cpp:129] Top shape: 256 64 28 28 (12845056)
I1113 16:49:04.773311  7495 net.cpp:137] Memory required for data: 310690816
I1113 16:49:04.773315  7495 layer_factory.hpp:77] Creating layer scale2
I1113 16:49:04.773319  7495 net.cpp:84] Creating Layer scale2
I1113 16:49:04.773321  7495 net.cpp:406] scale2 <- conv2
I1113 16:49:04.773324  7495 net.cpp:367] scale2 -> conv2 (in-place)
I1113 16:49:04.773344  7495 layer_factory.hpp:77] Creating layer scale2
I1113 16:49:04.773447  7495 net.cpp:122] Setting up scale2
I1113 16:49:04.773454  7495 net.cpp:129] Top shape: 256 64 28 28 (12845056)
I1113 16:49:04.773455  7495 net.cpp:137] Memory required for data: 362071040
I1113 16:49:04.773458  7495 layer_factory.hpp:77] Creating layer relu2
I1113 16:49:04.773463  7495 net.cpp:84] Creating Layer relu2
I1113 16:49:04.773464  7495 net.cpp:406] relu2 <- conv2
I1113 16:49:04.773468  7495 net.cpp:367] relu2 -> conv2 (in-place)
I1113 16:49:04.773612  7495 net.cpp:122] Setting up relu2
I1113 16:49:04.773617  7495 net.cpp:129] Top shape: 256 64 28 28 (12845056)
I1113 16:49:04.773634  7495 net.cpp:137] Memory required for data: 413451264
I1113 16:49:04.773635  7495 layer_factory.hpp:77] Creating layer pool2
I1113 16:49:04.773639  7495 net.cpp:84] Creating Layer pool2
I1113 16:49:04.773641  7495 net.cpp:406] pool2 <- conv2
I1113 16:49:04.773644  7495 net.cpp:380] pool2 -> pool2
I1113 16:49:04.773675  7495 net.cpp:122] Setting up pool2
I1113 16:49:04.773680  7495 net.cpp:129] Top shape: 256 64 14 14 (3211264)
I1113 16:49:04.773681  7495 net.cpp:137] Memory required for data: 426296320
I1113 16:49:04.773684  7495 layer_factory.hpp:77] Creating layer conv3
I1113 16:49:04.773690  7495 net.cpp:84] Creating Layer conv3
I1113 16:49:04.773699  7495 net.cpp:406] conv3 <- pool2
I1113 16:49:04.773703  7495 net.cpp:380] conv3 -> conv3
I1113 16:49:04.775275  7495 net.cpp:122] Setting up conv3
I1113 16:49:04.775285  7495 net.cpp:129] Top shape: 256 128 14 14 (6422528)
I1113 16:49:04.775286  7495 net.cpp:137] Memory required for data: 451986432
I1113 16:49:04.775290  7495 layer_factory.hpp:77] Creating layer BN3
I1113 16:49:04.775295  7495 net.cpp:84] Creating Layer BN3
I1113 16:49:04.775298  7495 net.cpp:406] BN3 <- conv3
I1113 16:49:04.775301  7495 net.cpp:367] BN3 -> conv3 (in-place)
I1113 16:49:04.775408  7495 net.cpp:122] Setting up BN3
I1113 16:49:04.775413  7495 net.cpp:129] Top shape: 256 128 14 14 (6422528)
I1113 16:49:04.775413  7495 net.cpp:137] Memory required for data: 477676544
I1113 16:49:04.775419  7495 layer_factory.hpp:77] Creating layer scale3
I1113 16:49:04.775424  7495 net.cpp:84] Creating Layer scale3
I1113 16:49:04.775426  7495 net.cpp:406] scale3 <- conv3
I1113 16:49:04.775429  7495 net.cpp:367] scale3 -> conv3 (in-place)
I1113 16:49:04.775449  7495 layer_factory.hpp:77] Creating layer scale3
I1113 16:49:04.775506  7495 net.cpp:122] Setting up scale3
I1113 16:49:04.775511  7495 net.cpp:129] Top shape: 256 128 14 14 (6422528)
I1113 16:49:04.775512  7495 net.cpp:137] Memory required for data: 503366656
I1113 16:49:04.775516  7495 layer_factory.hpp:77] Creating layer relu3
I1113 16:49:04.775518  7495 net.cpp:84] Creating Layer relu3
I1113 16:49:04.775521  7495 net.cpp:406] relu3 <- conv3
I1113 16:49:04.775523  7495 net.cpp:367] relu3 -> conv3 (in-place)
I1113 16:49:04.775622  7495 net.cpp:122] Setting up relu3
I1113 16:49:04.775627  7495 net.cpp:129] Top shape: 256 128 14 14 (6422528)
I1113 16:49:04.775629  7495 net.cpp:137] Memory required for data: 529056768
I1113 16:49:04.775631  7495 layer_factory.hpp:77] Creating layer conv4
I1113 16:49:04.775636  7495 net.cpp:84] Creating Layer conv4
I1113 16:49:04.775638  7495 net.cpp:406] conv4 <- conv3
I1113 16:49:04.775642  7495 net.cpp:380] conv4 -> conv4
I1113 16:49:04.777323  7495 net.cpp:122] Setting up conv4
I1113 16:49:04.777330  7495 net.cpp:129] Top shape: 256 128 14 14 (6422528)
I1113 16:49:04.777333  7495 net.cpp:137] Memory required for data: 554746880
I1113 16:49:04.777338  7495 layer_factory.hpp:77] Creating layer BN4
I1113 16:49:04.777341  7495 net.cpp:84] Creating Layer BN4
I1113 16:49:04.777344  7495 net.cpp:406] BN4 <- conv4
I1113 16:49:04.777348  7495 net.cpp:367] BN4 -> conv4 (in-place)
I1113 16:49:04.777489  7495 net.cpp:122] Setting up BN4
I1113 16:49:04.777493  7495 net.cpp:129] Top shape: 256 128 14 14 (6422528)
I1113 16:49:04.777495  7495 net.cpp:137] Memory required for data: 580436992
I1113 16:49:04.777499  7495 layer_factory.hpp:77] Creating layer scale4
I1113 16:49:04.777504  7495 net.cpp:84] Creating Layer scale4
I1113 16:49:04.777506  7495 net.cpp:406] scale4 <- conv4
I1113 16:49:04.777523  7495 net.cpp:367] scale4 -> conv4 (in-place)
I1113 16:49:04.777544  7495 layer_factory.hpp:77] Creating layer scale4
I1113 16:49:04.777644  7495 net.cpp:122] Setting up scale4
I1113 16:49:04.777648  7495 net.cpp:129] Top shape: 256 128 14 14 (6422528)
I1113 16:49:04.777650  7495 net.cpp:137] Memory required for data: 606127104
I1113 16:49:04.777668  7495 layer_factory.hpp:77] Creating layer relu4
I1113 16:49:04.777671  7495 net.cpp:84] Creating Layer relu4
I1113 16:49:04.777673  7495 net.cpp:406] relu4 <- conv4
I1113 16:49:04.777676  7495 net.cpp:367] relu4 -> conv4 (in-place)
I1113 16:49:04.777791  7495 net.cpp:122] Setting up relu4
I1113 16:49:04.777797  7495 net.cpp:129] Top shape: 256 128 14 14 (6422528)
I1113 16:49:04.777814  7495 net.cpp:137] Memory required for data: 631817216
I1113 16:49:04.777815  7495 layer_factory.hpp:77] Creating layer pool4
I1113 16:49:04.777818  7495 net.cpp:84] Creating Layer pool4
I1113 16:49:04.777822  7495 net.cpp:406] pool4 <- conv4
I1113 16:49:04.777823  7495 net.cpp:380] pool4 -> pool4
I1113 16:49:04.777844  7495 net.cpp:122] Setting up pool4
I1113 16:49:04.777860  7495 net.cpp:129] Top shape: 256 128 7 7 (1605632)
I1113 16:49:04.777892  7495 net.cpp:137] Memory required for data: 638239744
I1113 16:49:04.777894  7495 layer_factory.hpp:77] Creating layer conv5
I1113 16:49:04.777899  7495 net.cpp:84] Creating Layer conv5
I1113 16:49:04.777915  7495 net.cpp:406] conv5 <- pool4
I1113 16:49:04.777918  7495 net.cpp:380] conv5 -> conv5
I1113 16:49:04.780699  7495 net.cpp:122] Setting up conv5
I1113 16:49:04.780709  7495 net.cpp:129] Top shape: 256 256 7 7 (3211264)
I1113 16:49:04.780710  7495 net.cpp:137] Memory required for data: 651084800
I1113 16:49:04.780715  7495 layer_factory.hpp:77] Creating layer BN5
I1113 16:49:04.780720  7495 net.cpp:84] Creating Layer BN5
I1113 16:49:04.780722  7495 net.cpp:406] BN5 <- conv5
I1113 16:49:04.780725  7495 net.cpp:367] BN5 -> conv5 (in-place)
I1113 16:49:04.780835  7495 net.cpp:122] Setting up BN5
I1113 16:49:04.780840  7495 net.cpp:129] Top shape: 256 256 7 7 (3211264)
I1113 16:49:04.780841  7495 net.cpp:137] Memory required for data: 663929856
I1113 16:49:04.780848  7495 layer_factory.hpp:77] Creating layer scale5
I1113 16:49:04.780853  7495 net.cpp:84] Creating Layer scale5
I1113 16:49:04.780854  7495 net.cpp:406] scale5 <- conv5
I1113 16:49:04.780858  7495 net.cpp:367] scale5 -> conv5 (in-place)
I1113 16:49:04.780876  7495 layer_factory.hpp:77] Creating layer scale5
I1113 16:49:04.780937  7495 net.cpp:122] Setting up scale5
I1113 16:49:04.780942  7495 net.cpp:129] Top shape: 256 256 7 7 (3211264)
I1113 16:49:04.780943  7495 net.cpp:137] Memory required for data: 676774912
I1113 16:49:04.780946  7495 layer_factory.hpp:77] Creating layer relu5
I1113 16:49:04.780949  7495 net.cpp:84] Creating Layer relu5
I1113 16:49:04.780951  7495 net.cpp:406] relu5 <- conv5
I1113 16:49:04.780953  7495 net.cpp:367] relu5 -> conv5 (in-place)
I1113 16:49:04.781224  7495 net.cpp:122] Setting up relu5
I1113 16:49:04.781232  7495 net.cpp:129] Top shape: 256 256 7 7 (3211264)
I1113 16:49:04.781234  7495 net.cpp:137] Memory required for data: 689619968
I1113 16:49:04.781236  7495 layer_factory.hpp:77] Creating layer conv6
I1113 16:49:04.781241  7495 net.cpp:84] Creating Layer conv6
I1113 16:49:04.781244  7495 net.cpp:406] conv6 <- conv5
I1113 16:49:04.781247  7495 net.cpp:380] conv6 -> conv6
I1113 16:49:04.786262  7495 net.cpp:122] Setting up conv6
I1113 16:49:04.786273  7495 net.cpp:129] Top shape: 256 256 7 7 (3211264)
I1113 16:49:04.786276  7495 net.cpp:137] Memory required for data: 702465024
I1113 16:49:04.786280  7495 layer_factory.hpp:77] Creating layer BN6
I1113 16:49:04.786285  7495 net.cpp:84] Creating Layer BN6
I1113 16:49:04.786288  7495 net.cpp:406] BN6 <- conv6
I1113 16:49:04.786290  7495 net.cpp:367] BN6 -> conv6 (in-place)
I1113 16:49:04.786404  7495 net.cpp:122] Setting up BN6
I1113 16:49:04.786408  7495 net.cpp:129] Top shape: 256 256 7 7 (3211264)
I1113 16:49:04.786411  7495 net.cpp:137] Memory required for data: 715310080
I1113 16:49:04.786414  7495 layer_factory.hpp:77] Creating layer scale6
I1113 16:49:04.786418  7495 net.cpp:84] Creating Layer scale6
I1113 16:49:04.786419  7495 net.cpp:406] scale6 <- conv6
I1113 16:49:04.786422  7495 net.cpp:367] scale6 -> conv6 (in-place)
I1113 16:49:04.786442  7495 layer_factory.hpp:77] Creating layer scale6
I1113 16:49:04.786504  7495 net.cpp:122] Setting up scale6
I1113 16:49:04.786507  7495 net.cpp:129] Top shape: 256 256 7 7 (3211264)
I1113 16:49:04.786509  7495 net.cpp:137] Memory required for data: 728155136
I1113 16:49:04.786512  7495 layer_factory.hpp:77] Creating layer relu6
I1113 16:49:04.786515  7495 net.cpp:84] Creating Layer relu6
I1113 16:49:04.786517  7495 net.cpp:406] relu6 <- conv6
I1113 16:49:04.786520  7495 net.cpp:367] relu6 -> conv6 (in-place)
I1113 16:49:04.786788  7495 net.cpp:122] Setting up relu6
I1113 16:49:04.786795  7495 net.cpp:129] Top shape: 256 256 7 7 (3211264)
I1113 16:49:04.786798  7495 net.cpp:137] Memory required for data: 741000192
I1113 16:49:04.786799  7495 layer_factory.hpp:77] Creating layer conv7
I1113 16:49:04.786805  7495 net.cpp:84] Creating Layer conv7
I1113 16:49:04.786808  7495 net.cpp:406] conv7 <- conv6
I1113 16:49:04.786820  7495 net.cpp:380] conv7 -> conv7
I1113 16:49:04.791822  7495 net.cpp:122] Setting up conv7
I1113 16:49:04.791832  7495 net.cpp:129] Top shape: 256 256 7 7 (3211264)
I1113 16:49:04.791834  7495 net.cpp:137] Memory required for data: 753845248
I1113 16:49:04.791838  7495 layer_factory.hpp:77] Creating layer BN7
I1113 16:49:04.791841  7495 net.cpp:84] Creating Layer BN7
I1113 16:49:04.791844  7495 net.cpp:406] BN7 <- conv7
I1113 16:49:04.791847  7495 net.cpp:367] BN7 -> conv7 (in-place)
I1113 16:49:04.791957  7495 net.cpp:122] Setting up BN7
I1113 16:49:04.791961  7495 net.cpp:129] Top shape: 256 256 7 7 (3211264)
I1113 16:49:04.791963  7495 net.cpp:137] Memory required for data: 766690304
I1113 16:49:04.791967  7495 layer_factory.hpp:77] Creating layer scale7
I1113 16:49:04.791970  7495 net.cpp:84] Creating Layer scale7
I1113 16:49:04.791972  7495 net.cpp:406] scale7 <- conv7
I1113 16:49:04.791975  7495 net.cpp:367] scale7 -> conv7 (in-place)
I1113 16:49:04.791995  7495 layer_factory.hpp:77] Creating layer scale7
I1113 16:49:04.792052  7495 net.cpp:122] Setting up scale7
I1113 16:49:04.792057  7495 net.cpp:129] Top shape: 256 256 7 7 (3211264)
I1113 16:49:04.792058  7495 net.cpp:137] Memory required for data: 779535360
I1113 16:49:04.792062  7495 layer_factory.hpp:77] Creating layer relu7
I1113 16:49:04.792064  7495 net.cpp:84] Creating Layer relu7
I1113 16:49:04.792065  7495 net.cpp:406] relu7 <- conv7
I1113 16:49:04.792068  7495 net.cpp:367] relu7 -> conv7 (in-place)
I1113 16:49:04.792197  7495 net.cpp:122] Setting up relu7
I1113 16:49:04.792202  7495 net.cpp:129] Top shape: 256 256 7 7 (3211264)
I1113 16:49:04.792204  7495 net.cpp:137] Memory required for data: 792380416
I1113 16:49:04.792207  7495 layer_factory.hpp:77] Creating layer pool7
I1113 16:49:04.792209  7495 net.cpp:84] Creating Layer pool7
I1113 16:49:04.792212  7495 net.cpp:406] pool7 <- conv7
I1113 16:49:04.792214  7495 net.cpp:380] pool7 -> pool7
I1113 16:49:04.792235  7495 net.cpp:122] Setting up pool7
I1113 16:49:04.792238  7495 net.cpp:129] Top shape: 256 256 4 4 (1048576)
I1113 16:49:04.792240  7495 net.cpp:137] Memory required for data: 796574720
I1113 16:49:04.792242  7495 layer_factory.hpp:77] Creating layer conv8
I1113 16:49:04.792248  7495 net.cpp:84] Creating Layer conv8
I1113 16:49:04.792251  7495 net.cpp:406] conv8 <- pool7
I1113 16:49:04.792254  7495 net.cpp:380] conv8 -> conv8
I1113 16:49:04.801913  7495 net.cpp:122] Setting up conv8
I1113 16:49:04.801933  7495 net.cpp:129] Top shape: 256 512 4 4 (2097152)
I1113 16:49:04.801934  7495 net.cpp:137] Memory required for data: 804963328
I1113 16:49:04.801940  7495 layer_factory.hpp:77] Creating layer BN8
I1113 16:49:04.801946  7495 net.cpp:84] Creating Layer BN8
I1113 16:49:04.801949  7495 net.cpp:406] BN8 <- conv8
I1113 16:49:04.801954  7495 net.cpp:367] BN8 -> conv8 (in-place)
I1113 16:49:04.802072  7495 net.cpp:122] Setting up BN8
I1113 16:49:04.802075  7495 net.cpp:129] Top shape: 256 512 4 4 (2097152)
I1113 16:49:04.802078  7495 net.cpp:137] Memory required for data: 813351936
I1113 16:49:04.802081  7495 layer_factory.hpp:77] Creating layer scale8
I1113 16:49:04.802085  7495 net.cpp:84] Creating Layer scale8
I1113 16:49:04.802088  7495 net.cpp:406] scale8 <- conv8
I1113 16:49:04.802090  7495 net.cpp:367] scale8 -> conv8 (in-place)
I1113 16:49:04.802109  7495 layer_factory.hpp:77] Creating layer scale8
I1113 16:49:04.802173  7495 net.cpp:122] Setting up scale8
I1113 16:49:04.802177  7495 net.cpp:129] Top shape: 256 512 4 4 (2097152)
I1113 16:49:04.802179  7495 net.cpp:137] Memory required for data: 821740544
I1113 16:49:04.802182  7495 layer_factory.hpp:77] Creating layer relu8
I1113 16:49:04.802186  7495 net.cpp:84] Creating Layer relu8
I1113 16:49:04.802187  7495 net.cpp:406] relu8 <- conv8
I1113 16:49:04.802191  7495 net.cpp:367] relu8 -> conv8 (in-place)
I1113 16:49:04.802296  7495 net.cpp:122] Setting up relu8
I1113 16:49:04.802301  7495 net.cpp:129] Top shape: 256 512 4 4 (2097152)
I1113 16:49:04.802302  7495 net.cpp:137] Memory required for data: 830129152
I1113 16:49:04.802315  7495 layer_factory.hpp:77] Creating layer conv9
I1113 16:49:04.802322  7495 net.cpp:84] Creating Layer conv9
I1113 16:49:04.802325  7495 net.cpp:406] conv9 <- conv8
I1113 16:49:04.802327  7495 net.cpp:380] conv9 -> conv9
I1113 16:49:04.819910  7495 net.cpp:122] Setting up conv9
I1113 16:49:04.819942  7495 net.cpp:129] Top shape: 256 512 4 4 (2097152)
I1113 16:49:04.819946  7495 net.cpp:137] Memory required for data: 838517760
I1113 16:49:04.819952  7495 layer_factory.hpp:77] Creating layer BN9
I1113 16:49:04.819962  7495 net.cpp:84] Creating Layer BN9
I1113 16:49:04.819965  7495 net.cpp:406] BN9 <- conv9
I1113 16:49:04.819969  7495 net.cpp:367] BN9 -> conv9 (in-place)
I1113 16:49:04.820138  7495 net.cpp:122] Setting up BN9
I1113 16:49:04.820142  7495 net.cpp:129] Top shape: 256 512 4 4 (2097152)
I1113 16:49:04.820159  7495 net.cpp:137] Memory required for data: 846906368
I1113 16:49:04.820163  7495 layer_factory.hpp:77] Creating layer scale9
I1113 16:49:04.820168  7495 net.cpp:84] Creating Layer scale9
I1113 16:49:04.820169  7495 net.cpp:406] scale9 <- conv9
I1113 16:49:04.820173  7495 net.cpp:367] scale9 -> conv9 (in-place)
I1113 16:49:04.820190  7495 layer_factory.hpp:77] Creating layer scale9
I1113 16:49:04.820257  7495 net.cpp:122] Setting up scale9
I1113 16:49:04.820261  7495 net.cpp:129] Top shape: 256 512 4 4 (2097152)
I1113 16:49:04.820263  7495 net.cpp:137] Memory required for data: 855294976
I1113 16:49:04.820266  7495 layer_factory.hpp:77] Creating layer relu9
I1113 16:49:04.820271  7495 net.cpp:84] Creating Layer relu9
I1113 16:49:04.820272  7495 net.cpp:406] relu9 <- conv9
I1113 16:49:04.820274  7495 net.cpp:367] relu9 -> conv9 (in-place)
I1113 16:49:04.820392  7495 net.cpp:122] Setting up relu9
I1113 16:49:04.820397  7495 net.cpp:129] Top shape: 256 512 4 4 (2097152)
I1113 16:49:04.820413  7495 net.cpp:137] Memory required for data: 863683584
I1113 16:49:04.820415  7495 layer_factory.hpp:77] Creating layer conv10
I1113 16:49:04.820421  7495 net.cpp:84] Creating Layer conv10
I1113 16:49:04.820423  7495 net.cpp:406] conv10 <- conv9
I1113 16:49:04.820426  7495 net.cpp:380] conv10 -> conv10
I1113 16:49:04.838196  7495 net.cpp:122] Setting up conv10
I1113 16:49:04.838227  7495 net.cpp:129] Top shape: 256 512 4 4 (2097152)
I1113 16:49:04.838228  7495 net.cpp:137] Memory required for data: 872072192
I1113 16:49:04.838243  7495 layer_factory.hpp:77] Creating layer BN10
I1113 16:49:04.838251  7495 net.cpp:84] Creating Layer BN10
I1113 16:49:04.838255  7495 net.cpp:406] BN10 <- conv10
I1113 16:49:04.838259  7495 net.cpp:367] BN10 -> conv10 (in-place)
I1113 16:49:04.838387  7495 net.cpp:122] Setting up BN10
I1113 16:49:04.838392  7495 net.cpp:129] Top shape: 256 512 4 4 (2097152)
I1113 16:49:04.838393  7495 net.cpp:137] Memory required for data: 880460800
I1113 16:49:04.838412  7495 layer_factory.hpp:77] Creating layer scale10
I1113 16:49:04.838416  7495 net.cpp:84] Creating Layer scale10
I1113 16:49:04.838418  7495 net.cpp:406] scale10 <- conv10
I1113 16:49:04.838420  7495 net.cpp:367] scale10 -> conv10 (in-place)
I1113 16:49:04.838439  7495 layer_factory.hpp:77] Creating layer scale10
I1113 16:49:04.838506  7495 net.cpp:122] Setting up scale10
I1113 16:49:04.838510  7495 net.cpp:129] Top shape: 256 512 4 4 (2097152)
I1113 16:49:04.838511  7495 net.cpp:137] Memory required for data: 888849408
I1113 16:49:04.838515  7495 layer_factory.hpp:77] Creating layer relu10
I1113 16:49:04.838518  7495 net.cpp:84] Creating Layer relu10
I1113 16:49:04.838521  7495 net.cpp:406] relu10 <- conv10
I1113 16:49:04.838522  7495 net.cpp:367] relu10 -> conv10 (in-place)
I1113 16:49:04.838624  7495 net.cpp:122] Setting up relu10
I1113 16:49:04.838629  7495 net.cpp:129] Top shape: 256 512 4 4 (2097152)
I1113 16:49:04.838630  7495 net.cpp:137] Memory required for data: 897238016
I1113 16:49:04.838632  7495 layer_factory.hpp:77] Creating layer pool10
I1113 16:49:04.838635  7495 net.cpp:84] Creating Layer pool10
I1113 16:49:04.838639  7495 net.cpp:406] pool10 <- conv10
I1113 16:49:04.838641  7495 net.cpp:380] pool10 -> pool10
I1113 16:49:04.838690  7495 net.cpp:122] Setting up pool10
I1113 16:49:04.838693  7495 net.cpp:129] Top shape: 256 512 2 2 (524288)
I1113 16:49:04.838696  7495 net.cpp:137] Memory required for data: 899335168
I1113 16:49:04.838697  7495 layer_factory.hpp:77] Creating layer fc65
I1113 16:49:04.838713  7495 net.cpp:84] Creating Layer fc65
I1113 16:49:04.838716  7495 net.cpp:406] fc65 <- pool10
I1113 16:49:04.838719  7495 net.cpp:380] fc65 -> fc65
I1113 16:49:04.850675  7495 net.cpp:122] Setting up fc65
I1113 16:49:04.850699  7495 net.cpp:129] Top shape: 256 1024 (262144)
I1113 16:49:04.850702  7495 net.cpp:137] Memory required for data: 900383744
I1113 16:49:04.850711  7495 layer_factory.hpp:77] Creating layer relu65
I1113 16:49:04.850721  7495 net.cpp:84] Creating Layer relu65
I1113 16:49:04.850724  7495 net.cpp:406] relu65 <- fc65
I1113 16:49:04.850728  7495 net.cpp:367] relu65 -> fc65 (in-place)
I1113 16:49:04.851133  7495 net.cpp:122] Setting up relu65
I1113 16:49:04.851141  7495 net.cpp:129] Top shape: 256 1024 (262144)
I1113 16:49:04.851145  7495 net.cpp:137] Memory required for data: 901432320
I1113 16:49:04.851147  7495 layer_factory.hpp:77] Creating layer drop65
I1113 16:49:04.851152  7495 net.cpp:84] Creating Layer drop65
I1113 16:49:04.851155  7495 net.cpp:406] drop65 <- fc65
I1113 16:49:04.851157  7495 net.cpp:367] drop65 -> fc65 (in-place)
I1113 16:49:04.851176  7495 net.cpp:122] Setting up drop65
I1113 16:49:04.851181  7495 net.cpp:129] Top shape: 256 1024 (262144)
I1113 16:49:04.851182  7495 net.cpp:137] Memory required for data: 902480896
I1113 16:49:04.851183  7495 layer_factory.hpp:77] Creating layer fc66
I1113 16:49:04.851187  7495 net.cpp:84] Creating Layer fc66
I1113 16:49:04.851189  7495 net.cpp:406] fc66 <- fc65
I1113 16:49:04.851192  7495 net.cpp:380] fc66 -> fc66
I1113 16:49:04.855836  7495 net.cpp:122] Setting up fc66
I1113 16:49:04.855849  7495 net.cpp:129] Top shape: 256 1024 (262144)
I1113 16:49:04.855851  7495 net.cpp:137] Memory required for data: 903529472
I1113 16:49:04.855856  7495 layer_factory.hpp:77] Creating layer relu66
I1113 16:49:04.855861  7495 net.cpp:84] Creating Layer relu66
I1113 16:49:04.855865  7495 net.cpp:406] relu66 <- fc66
I1113 16:49:04.855868  7495 net.cpp:367] relu66 -> fc66 (in-place)
I1113 16:49:04.855994  7495 net.cpp:122] Setting up relu66
I1113 16:49:04.855999  7495 net.cpp:129] Top shape: 256 1024 (262144)
I1113 16:49:04.856001  7495 net.cpp:137] Memory required for data: 904578048
I1113 16:49:04.856003  7495 layer_factory.hpp:77] Creating layer drop66
I1113 16:49:04.856007  7495 net.cpp:84] Creating Layer drop66
I1113 16:49:04.856009  7495 net.cpp:406] drop66 <- fc66
I1113 16:49:04.856011  7495 net.cpp:367] drop66 -> fc66 (in-place)
I1113 16:49:04.856024  7495 net.cpp:122] Setting up drop66
I1113 16:49:04.856029  7495 net.cpp:129] Top shape: 256 1024 (262144)
I1113 16:49:04.856030  7495 net.cpp:137] Memory required for data: 905626624
I1113 16:49:04.856031  7495 layer_factory.hpp:77] Creating layer fc100
I1113 16:49:04.856035  7495 net.cpp:84] Creating Layer fc100
I1113 16:49:04.856037  7495 net.cpp:406] fc100 <- fc66
I1113 16:49:04.856040  7495 net.cpp:380] fc100 -> fc100
I1113 16:49:04.856703  7495 net.cpp:122] Setting up fc100
I1113 16:49:04.856712  7495 net.cpp:129] Top shape: 256 10 (2560)
I1113 16:49:04.856714  7495 net.cpp:137] Memory required for data: 905636864
I1113 16:49:04.856719  7495 layer_factory.hpp:77] Creating layer loss
I1113 16:49:04.856722  7495 net.cpp:84] Creating Layer loss
I1113 16:49:04.856726  7495 net.cpp:406] loss <- fc100
I1113 16:49:04.856729  7495 net.cpp:406] loss <- label
I1113 16:49:04.856734  7495 net.cpp:380] loss -> loss
I1113 16:49:04.856742  7495 layer_factory.hpp:77] Creating layer loss
…
I1113 16:49:04.857481  7495 upgrade_proto.cpp:80] Successfully upgraded batch norm layers using deprecated params.
I1113 16:49:04.857486  7495 solver.cpp:172] Creating test net (#0) specified by test_net file: /home/ljf/caffe-master/examples/ljftest_cifar10_VggNet_BN/test.prototxt
I1113 16:49:04.857702  7495 net.cpp:51] Initializing net from parameters: 
state {
  phase: TEST
}
layer {
  name: "cifar10"
  type: "Data"
  top: "data"
  top: "label"
  transform_param {
    crop_size: 28
  }
  data_param {
    source: "/home/ljf/caffe-master/examples/ljftest_cifar10_VggNet_BN/test_lmdb"
    batch_size: 100
    backend: LMDB
  }
}
layer {
  name: "conv1"
  type: "Convolution"
  bottom: "data"
  top: "conv1"
  param {
    lr_mult: 1
  }
  param {
    lr_mult: 2
  }
  convolution_param {
    num_output: 64
    pad: 1
    kernel_size: 3
    stride: 1
    weight_filler {
      type: "msra"
    }
    bias_filler {
      type: "constant"
    }
  }
}
layer {
  name: "BN1"
  type: "BatchNorm"
  bottom: "conv1"
  top: "conv1"
  param {
    lr_mult: 0
    decay_mult: 0
  }
  param {
    lr_mult: 0
    decay_mult: 0
  }
  param {
    lr_mult: 0
    decay_mult: 0
  }
  batch_norm_param {
    use_global_stats: true
  }
}
layer {
  name: "scale1"
  type: "Scale"
  bottom: "conv1"
  top: "conv1"
  scale_param {
    bias_term: true
  }
}
layer {
  name: "relu1"
  type: "ReLU"
  bottom: "conv1"
  top: "conv1"
}
layer {
  name: "conv2"
  type: "Convolution"
  bottom: "conv1"
  top: "conv2"
  param {
    lr_mult: 1
  }
  param {
    lr_mult: 2
  }
  convolution_param {
    num_output: 64
    pad: 1
    kernel_size: 3
    stride: 1
    weight_filler {
      type: "msra"
    }
    bias_filler {
      type: "constant"
    }
  }
}
layer {
  name: "BN2"
  type: "BatchNorm"
  bottom: "conv2"
  top: "conv2"
  param {
    lr_mult: 0
    decay_mult: 0
  }
  param {
    lr_mult: 0
    decay_mult: 0
  }
  param {
    lr_mult: 0
    decay_mult: 0
  }
  batch_norm_param {
    use_global_stats: true
  }
}
layer {
  name: "scale2"
  type: "Scale"
  bottom: "conv2"
  top: "conv2"
  scale_param {
    bias_term: true
  }
}
layer {
  name: "relu2"
  type: "ReLU"
  bottom: "conv2"
  top: "conv2"
}
layer {
  name: "pool2"
  type: "Pooling"
  bottom: "conv2"
  top: "pool2"
  pooling_param {
    pool: MAX
    kernel_size: 2
    stride: 2
    pad: 0
  }
}
layer {
  name: "conv3"
  type: "Convolution"
  bottom: "pool2"
  top: "conv3"
  param {
    lr_mult: 1
  }
  param {
    lr_mult: 2
  }
  convolution_param {
    num_output: 128
    pad: 1
    kernel_size: 3
    stride: 1
    weight_filler {
      type: "msra"
    }
    bias_filler {
      type: "constant"
    }
  }
}
layer {
  name: "BN3"
  type: "BatchNorm"
  bottom: "conv3"
  top: "conv3"
  param {
    lr_mult: 0
    decay_mult: 0
  }
  param {
    lr_mult: 0
    decay_mult: 0
  }
  param {
    lr_mult: 0
    decay_mult: 0
  }
  batch_norm_param {
    use_global_stats: true
  }
}
layer {
  name: "scale3"
  type: "Scale"
  bottom: "conv3"
  top: "conv3"
  scale_param {
    bias_term: true
  }
}
layer {
  name: "relu3"
  type: "ReLU"
  bottom: "conv3"
  top: "conv3"
}
layer {
  name: "conv4"
  type: "Convolution"
  bottom: "conv3"
  top: "conv4"
  param {
    lr_mult: 1
  }
  param {
    lr_mult: 2
  }
  convolution_param {
    num_output: 128
    pad: 1
    kernel_size: 3
    stride: 1
    weight_filler {
      type: "msra"
    }
    bias_filler {
      type: "constant"
    }
  }
}
layer {
  name: "BN4"
  type: "BatchNorm"
  bottom: "conv4"
  top: "conv4"
  param {
    lr_mult: 0
    decay_mult: 0
  }
  param {
    lr_mult: 0
    decay_mult: 0
  }
  param {
    lr_mult: 0
    decay_mult: 0
  }
  batch_norm_param {
    use_global_stats: true
  }
}
layer {
  name: "scale4"
  type: "Scale"
  bottom: "conv4"
  top: "conv4"
  scale_param {
    bias_term: true
  }
}
layer {
  name: "relu4"
  type: "ReLU"
  bottom: "conv4"
  top: "conv4"
}
layer {
  name: "pool4"
  type: "Pooling"
  bottom: "conv4"
  top: "pool4"
  pooling_param {
    pool: MAX
    kernel_size: 2
    stride: 2
    pad: 0
  }
}
layer {
  name: "conv5"
  type: "Convolution"
  bottom: "pool4"
  top: "conv5"
  param {
    lr_mult: 1
  }
  param {
    lr_mult: 2
  }
  convolution_param {
    num_output: 256
    pad: 1
    kernel_size: 3
    stride: 1
    weight_filler {
      type: "msra"
    }
    bias_filler {
      type: "constant"
    }
  }
}
layer {
  name: "BN5"
  type: "BatchNorm"
  bottom: "conv5"
  top: "conv5"
  param {
    lr_mult: 0
    decay_mult: 0
  }
  param {
    lr_mult: 0
    decay_mult: 0
  }
  param {
    lr_mult: 0
    decay_mult: 0
  }
  batch_norm_param {
    use_global_stats: true
  }
}
layer {
  name: "scale5"
  type: "Scale"
  bottom: "conv5"
  top: "conv5"
  scale_param {
    bias_term: true
  }
}
layer {
  name: "relu5"
  type: "ReLU"
  bottom: "conv5"
  top: "conv5"
}
layer {
  name: "conv6"
  type: "Convolution"
  bottom: "conv5"
  top: "conv6"
  param {
    lr_mult: 1
  }
  param {
    lr_mult: 2
  }
  convolution_param {
    num_output: 256
    pad: 1
    kernel_size: 3
    stride: 1
    weight_filler {
      type: "msra"
    }
    bias_filler {
      type: "constant"
    }
  }
}
layer {
  name: "BN6"
  type: "BatchNorm"
  bottom: "conv6"
  top: "conv6"
  param {
    lr_mult: 0
    decay_mult: 0
  }
  param {
    lr_mult: 0
    decay_mult: 0
  }
  param {
    lr_mult: 0
    decay_mult: 0
  }
  batch_norm_param {
    use_global_stats: true
  }
}
layer {
  name: "scale6"
  type: "Scale"
  bottom: "conv6"
  top: "conv6"
  scale_param {
    bias_term: true
  }
}
layer {
  name: "relu6"
  type: "ReLU"
  bottom: "conv6"
  top: "conv6"
}
layer {
  name: "conv7"
  type: "Convolution"
  bottom: "conv6"
  top: "conv7"
  param {
    lr_mult: 1
  }
  param {
    lr_mult: 2
  }
  convolution_param {
    num_output: 256
    pad: 1
    kernel_size: 3
    stride: 1
    weight_filler {
      type: "msra"
    }
    bias_filler {
      type: "constant"
    }
  }
}
layer {
  name: "BN7"
  type: "BatchNorm"
  bottom: "conv7"
  top: "conv7"
  param {
    lr_mult: 0
    decay_mult: 0
  }
  param {
    lr_mult: 0
    decay_mult: 0
  }
  param {
    lr_mult: 0
    decay_mult: 0
  }
  batch_norm_param {
    use_global_stats: true
  }
}
layer {
  name: "scale7"
  type: "Scale"
  bottom: "conv7"
  top: "conv7"
  scale_param {
    bias_term: true
  }
}
layer {
  name: "relu7"
  type: "ReLU"
  bottom: "conv7"
  top: "conv7"
}
layer {
  name: "pool7"
  type: "Pooling"
  bottom: "conv7"
  top: "pool7"
  pooling_param {
    pool: MAX
    kernel_size: 2
    stride: 2
    pad: 0
  }
}
layer {
  name: "conv8"
  type: "Convolution"
  bottom: "pool7"
  top: "conv8"
  param {
    lr_mult: 1
  }
  param {
    lr_mult: 2
  }
  convolution_param {
    num_output: 512
    pad: 1
    kernel_size: 3
    stride: 1
    weight_filler {
      type: "msra"
    }
    bias_filler {
      type: "constant"
    }
  }
}
layer {
  name: "BN8"
  type: "BatchNorm"
  bottom: "conv8"
  top: "conv8"
  param {
    lr_mult: 0
    decay_mult: 0
  }
  param {
    lr_mult: 0
    decay_mult: 0
  }
  param {
    lr_mult: 0
    decay_mult: 0
  }
  batch_norm_param {
    use_global_stats: true
  }
}
layer {
  name: "scale8"
  type: "Scale"
  bottom: "conv8"
  top: "conv8"
  scale_param {
    bias_term: true
  }
}
layer {
  name: "relu8"
  type: "ReLU"
  bottom: "conv8"
  top: "conv8"
}
layer {
  name: "conv9"
  type: "Convolution"
  bottom: "conv8"
  top: "conv9"
  param {
    lr_mult: 1
  }
  param {
    lr_mult: 2
  }
  convolution_param {
    num_output: 512
    pad: 1
    kernel_size: 3
    stride: 1
    weight_filler {
      type: "msra"
    }
    bias_filler {
      type: "constant"
    }
  }
}
layer {
  name: "BN9"
  type: "BatchNorm"
  bottom: "conv9"
  top: "conv9"
  param {
    lr_mult: 0
    decay_mult: 0
  }
  param {
    lr_mult: 0
    decay_mult: 0
  }
  param {
    lr_mult: 0
    decay_mult: 0
  }
  batch_norm_param {
    use_global_stats: true
  }
}
layer {
  name: "scale9"
  type: "Scale"
  bottom: "conv9"
  top: "conv9"
  scale_param {
    bias_term: true
  }
}
layer {
  name: "relu9"
  type: "ReLU"
  bottom: "conv9"
  top: "conv9"
}
layer {
  name: "conv10"
  type: "Convolution"
  bottom: "conv9"
  top: "conv10"
  param {
    lr_mult: 1
  }
  param {
    lr_mult: 2
  }
  convolution_param {
    num_output: 512
    pad: 1
    kernel_size: 3
    stride: 1
    weight_filler {
      type: "msra"
    }
    bias_filler {
      type: "constant"
    }
  }
}
layer {
  name: "BN10"
  type: "BatchNorm"
  bottom: "conv10"
  top: "conv10"
  param {
    lr_mult: 0
    decay_mult: 0
  }
  param {
    lr_mult: 0
    decay_mult: 0
  }
  param {
    lr_mult: 0
    decay_mult: 0
  }
  batch_norm_param {
    use_global_stats: true
  }
}
layer {
  name: "scale10"
  type: "Scale"
  bottom: "conv10"
  top: "conv10"
  scale_param {
    bias_term: true
  }
}
layer {
  name: "relu10"
  type: "ReLU"
  bottom: "conv10"
  top: "conv10"
}
layer {
  name: "pool10"
  type: "Pooling"
  bottom: "conv10"
  top: "pool10"
  pooling_param {
    pool: MAX
    kernel_size: 2
    stride: 2
    pad: 0
  }
}
layer {
  name: "fc65"
  type: "InnerProduct"
  bottom: "pool10"
  top: "fc65"
  inner_product_param {
    num_output: 1024
    weight_filler {
      type: "xavier"
    }
    bias_filler {
      type: "constant"
    }
  }
}
layer {
  name: "relu65"
  type: "ReLU"
  bottom: "fc65"
  top: "fc65"
}
layer {
  name: "drop65"
  type: "Dropout"
  bottom: "fc65"
  top: "fc65"
  dropout_param {
    dropout_ratio: 0.5
  }
}
layer {
  name: "fc66"
  type: "InnerProduct"
  bottom: "fc65"
  top: "fc66"
  inner_product_param {
    num_output: 1024
    weight_filler {
      type: "xavier"
    }
    bias_filler {
      type: "constant"
    }
  }
}
layer {
  name: "relu66"
  type: "ReLU"
  bottom: "fc66"
  top: "fc66"
}
layer {
  name: "drop66"
  type: "Dropout"
  bottom: "fc66"
  top: "fc66"
  dropout_param {
    dropout_ratio: 0.5
  }
}
layer {
  name: "fc100"
  type: "InnerProduct"
  bottom: "fc66"
  top: "fc100"
  inner_product_param {
    num_output: 10
    weight_filler {
      type: "xavier"
    }
    bias_filler {
      type: "constant"
    }
  }
}
layer {
  name: "loss"
  type: "SoftmaxWithLoss"
  bottom: "fc100"
  bottom: "label"
  top: "loss"
}
layer {
  name: "acc"
  type: "Accuracy"
  bottom: "fc100"
  bottom: "label"
  top: "acc"
  include {
    phase: TEST
  }
}
I1113 16:49:04.857811  7495 layer_factory.hpp:77] Creating layer cifar10
I1113 16:49:04.857879  7495 db_lmdb.cpp:35] Opened lmdb /home/ljf/caffe-master/examples/ljftest_cifar10_VggNet_BN/test_lmdb
I1113 16:49:04.857892  7495 net.cpp:84] Creating Layer cifar10
I1113 16:49:04.857894  7495 net.cpp:380] cifar10 -> data
I1113 16:49:04.857899  7495 net.cpp:380] cifar10 -> label
I1113 16:49:04.857969  7495 data_layer.cpp:45] output data size: 100,3,28,28
I1113 16:49:04.860273  7495 net.cpp:122] Setting up cifar10
I1113 16:49:04.860293  7495 net.cpp:129] Top shape: 100 3 28 28 (235200)
I1113 16:49:04.860297  7495 net.cpp:129] Top shape: 100 (100)
I1113 16:49:04.860299  7495 net.cpp:137] Memory required for data: 941200
I1113 16:49:04.860306  7495 layer_factory.hpp:77] Creating layer label_cifar10_1_split
I1113 16:49:04.860317  7495 net.cpp:84] Creating Layer label_cifar10_1_split
I1113 16:49:04.860321  7495 net.cpp:406] label_cifar10_1_split <- label
I1113 16:49:04.860325  7495 net.cpp:380] label_cifar10_1_split -> label_cifar10_1_split_0
I1113 16:49:04.860334  7495 net.cpp:380] label_cifar10_1_split -> label_cifar10_1_split_1
I1113 16:49:04.860388  7495 net.cpp:122] Setting up label_cifar10_1_split
I1113 16:49:04.860394  7495 net.cpp:129] Top shape: 100 (100)
I1113 16:49:04.860397  7495 net.cpp:129] Top shape: 100 (100)
I1113 16:49:04.860400  7495 net.cpp:137] Memory required for data: 942000
I1113 16:49:04.860404  7495 layer_factory.hpp:77] Creating layer conv1
I1113 16:49:04.860414  7495 net.cpp:84] Creating Layer conv1
I1113 16:49:04.860416  7495 net.cpp:406] conv1 <- data
I1113 16:49:04.860422  7495 net.cpp:380] conv1 -> conv1
I1113 16:49:04.861277  7495 net.cpp:122] Setting up conv1
I1113 16:49:04.861286  7495 net.cpp:129] Top shape: 100 64 28 28 (5017600)
I1113 16:49:04.861299  7495 net.cpp:137] Memory required for data: 21012400
I1113 16:49:04.861310  7495 layer_factory.hpp:77] Creating layer BN1
I1113 16:49:04.861317  7495 net.cpp:84] Creating Layer BN1
I1113 16:49:04.861321  7495 net.cpp:406] BN1 <- conv1
I1113 16:49:04.861328  7495 net.cpp:367] BN1 -> conv1 (in-place)
I1113 16:49:04.861490  7495 net.cpp:122] Setting up BN1
I1113 16:49:04.861495  7495 net.cpp:129] Top shape: 100 64 28 28 (5017600)
I1113 16:49:04.861500  7495 net.cpp:137] Memory required for data: 41082800
I1113 16:49:04.861513  7495 layer_factory.hpp:77] Creating layer scale1
I1113 16:49:04.861521  7495 net.cpp:84] Creating Layer scale1
I1113 16:49:04.861524  7495 net.cpp:406] scale1 <- conv1
I1113 16:49:04.861529  7495 net.cpp:367] scale1 -> conv1 (in-place)
I1113 16:49:04.861574  7495 layer_factory.hpp:77] Creating layer scale1
I1113 16:49:04.861656  7495 net.cpp:122] Setting up scale1
I1113 16:49:04.861661  7495 net.cpp:129] Top shape: 100 64 28 28 (5017600)
I1113 16:49:04.861665  7495 net.cpp:137] Memory required for data: 61153200
I1113 16:49:04.861670  7495 layer_factory.hpp:77] Creating layer relu1
I1113 16:49:04.861676  7495 net.cpp:84] Creating Layer relu1
I1113 16:49:04.861681  7495 net.cpp:406] relu1 <- conv1
I1113 16:49:04.861685  7495 net.cpp:367] relu1 -> conv1 (in-place)
I1113 16:49:04.861793  7495 net.cpp:122] Setting up relu1
I1113 16:49:04.861800  7495 net.cpp:129] Top shape: 100 64 28 28 (5017600)
I1113 16:49:04.861804  7495 net.cpp:137] Memory required for data: 81223600
I1113 16:49:04.861809  7495 layer_factory.hpp:77] Creating layer conv2
I1113 16:49:04.861815  7495 net.cpp:84] Creating Layer conv2
I1113 16:49:04.861819  7495 net.cpp:406] conv2 <- conv1
I1113 16:49:04.861824  7495 net.cpp:380] conv2 -> conv2
I1113 16:49:04.862893  7495 net.cpp:122] Setting up conv2
I1113 16:49:04.862902  7495 net.cpp:129] Top shape: 100 64 28 28 (5017600)
I1113 16:49:04.862906  7495 net.cpp:137] Memory required for data: 101294000
I1113 16:49:04.862915  7495 layer_factory.hpp:77] Creating layer BN2
I1113 16:49:04.862920  7495 net.cpp:84] Creating Layer BN2
I1113 16:49:04.862926  7495 net.cpp:406] BN2 <- conv2
I1113 16:49:04.862931  7495 net.cpp:367] BN2 -> conv2 (in-place)
I1113 16:49:04.863057  7495 net.cpp:122] Setting up BN2
I1113 16:49:04.863062  7495 net.cpp:129] Top shape: 100 64 28 28 (5017600)
I1113 16:49:04.863065  7495 net.cpp:137] Memory required for data: 121364400
I1113 16:49:04.863072  7495 layer_factory.hpp:77] Creating layer scale2
I1113 16:49:04.863080  7495 net.cpp:84] Creating Layer scale2
I1113 16:49:04.863083  7495 net.cpp:406] scale2 <- conv2
I1113 16:49:04.863087  7495 net.cpp:367] scale2 -> conv2 (in-place)
I1113 16:49:04.863116  7495 layer_factory.hpp:77] Creating layer scale2
I1113 16:49:04.863194  7495 net.cpp:122] Setting up scale2
I1113 16:49:04.863200  7495 net.cpp:129] Top shape: 100 64 28 28 (5017600)
I1113 16:49:04.863206  7495 net.cpp:137] Memory required for data: 141434800
I1113 16:49:04.863212  7495 layer_factory.hpp:77] Creating layer relu2
I1113 16:49:04.863219  7495 net.cpp:84] Creating Layer relu2
I1113 16:49:04.863221  7495 net.cpp:406] relu2 <- conv2
I1113 16:49:04.863225  7495 net.cpp:367] relu2 -> conv2 (in-place)
I1113 16:49:04.863567  7495 net.cpp:122] Setting up relu2
I1113 16:49:04.863576  7495 net.cpp:129] Top shape: 100 64 28 28 (5017600)
I1113 16:49:04.863580  7495 net.cpp:137] Memory required for data: 161505200
I1113 16:49:04.863584  7495 layer_factory.hpp:77] Creating layer pool2
I1113 16:49:04.863591  7495 net.cpp:84] Creating Layer pool2
I1113 16:49:04.863595  7495 net.cpp:406] pool2 <- conv2
I1113 16:49:04.863602  7495 net.cpp:380] pool2 -> pool2
I1113 16:49:04.863634  7495 net.cpp:122] Setting up pool2
I1113 16:49:04.863653  7495 net.cpp:129] Top shape: 100 64 14 14 (1254400)
I1113 16:49:04.863656  7495 net.cpp:137] Memory required for data: 166522800
I1113 16:49:04.863659  7495 layer_factory.hpp:77] Creating layer conv3
I1113 16:49:04.863667  7495 net.cpp:84] Creating Layer conv3
I1113 16:49:04.863670  7495 net.cpp:406] conv3 <- pool2
I1113 16:49:04.863684  7495 net.cpp:380] conv3 -> conv3
I1113 16:49:04.865949  7495 net.cpp:122] Setting up conv3
I1113 16:49:04.865963  7495 net.cpp:129] Top shape: 100 128 14 14 (2508800)
I1113 16:49:04.865968  7495 net.cpp:137] Memory required for data: 176558000
I1113 16:49:04.865978  7495 layer_factory.hpp:77] Creating layer BN3
I1113 16:49:04.865988  7495 net.cpp:84] Creating Layer BN3
I1113 16:49:04.866004  7495 net.cpp:406] BN3 <- conv3
I1113 16:49:04.866011  7495 net.cpp:367] BN3 -> conv3 (in-place)
I1113 16:49:04.866170  7495 net.cpp:122] Setting up BN3
I1113 16:49:04.866176  7495 net.cpp:129] Top shape: 100 128 14 14 (2508800)
I1113 16:49:04.866180  7495 net.cpp:137] Memory required for data: 186593200
I1113 16:49:04.866204  7495 layer_factory.hpp:77] Creating layer scale3
I1113 16:49:04.866211  7495 net.cpp:84] Creating Layer scale3
I1113 16:49:04.866215  7495 net.cpp:406] scale3 <- conv3
I1113 16:49:04.866219  7495 net.cpp:367] scale3 -> conv3 (in-place)
I1113 16:49:04.866276  7495 layer_factory.hpp:77] Creating layer scale3
I1113 16:49:04.866389  7495 net.cpp:122] Setting up scale3
I1113 16:49:04.866395  7495 net.cpp:129] Top shape: 100 128 14 14 (2508800)
I1113 16:49:04.866399  7495 net.cpp:137] Memory required for data: 196628400
I1113 16:49:04.866416  7495 layer_factory.hpp:77] Creating layer relu3
I1113 16:49:04.866423  7495 net.cpp:84] Creating Layer relu3
I1113 16:49:04.866426  7495 net.cpp:406] relu3 <- conv3
I1113 16:49:04.866431  7495 net.cpp:367] relu3 -> conv3 (in-place)
I1113 16:49:04.866776  7495 net.cpp:122] Setting up relu3
I1113 16:49:04.866785  7495 net.cpp:129] Top shape: 100 128 14 14 (2508800)
I1113 16:49:04.866788  7495 net.cpp:137] Memory required for data: 206663600
I1113 16:49:04.866791  7495 layer_factory.hpp:77] Creating layer conv4
I1113 16:49:04.866799  7495 net.cpp:84] Creating Layer conv4
I1113 16:49:04.866803  7495 net.cpp:406] conv4 <- conv3
I1113 16:49:04.866821  7495 net.cpp:380] conv4 -> conv4
I1113 16:49:04.868633  7495 net.cpp:122] Setting up conv4
I1113 16:49:04.868643  7495 net.cpp:129] Top shape: 100 128 14 14 (2508800)
I1113 16:49:04.868646  7495 net.cpp:137] Memory required for data: 216698800
I1113 16:49:04.868652  7495 layer_factory.hpp:77] Creating layer BN4
I1113 16:49:04.868661  7495 net.cpp:84] Creating Layer BN4
I1113 16:49:04.868665  7495 net.cpp:406] BN4 <- conv4
I1113 16:49:04.868670  7495 net.cpp:367] BN4 -> conv4 (in-place)
I1113 16:49:04.868831  7495 net.cpp:122] Setting up BN4
I1113 16:49:04.868837  7495 net.cpp:129] Top shape: 100 128 14 14 (2508800)
I1113 16:49:04.868840  7495 net.cpp:137] Memory required for data: 226734000
I1113 16:49:04.868861  7495 layer_factory.hpp:77] Creating layer scale4
I1113 16:49:04.868867  7495 net.cpp:84] Creating Layer scale4
I1113 16:49:04.868870  7495 net.cpp:406] scale4 <- conv4
I1113 16:49:04.868875  7495 net.cpp:367] scale4 -> conv4 (in-place)
I1113 16:49:04.868930  7495 layer_factory.hpp:77] Creating layer scale4
I1113 16:49:04.869040  7495 net.cpp:122] Setting up scale4
I1113 16:49:04.869046  7495 net.cpp:129] Top shape: 100 128 14 14 (2508800)
I1113 16:49:04.869048  7495 net.cpp:137] Memory required for data: 236769200
I1113 16:49:04.869068  7495 layer_factory.hpp:77] Creating layer relu4
I1113 16:49:04.869073  7495 net.cpp:84] Creating Layer relu4
I1113 16:49:04.869077  7495 net.cpp:406] relu4 <- conv4
I1113 16:49:04.869081  7495 net.cpp:367] relu4 -> conv4 (in-place)
I1113 16:49:04.869205  7495 net.cpp:122] Setting up relu4
I1113 16:49:04.869211  7495 net.cpp:129] Top shape: 100 128 14 14 (2508800)
I1113 16:49:04.869215  7495 net.cpp:137] Memory required for data: 246804400
I1113 16:49:04.869217  7495 layer_factory.hpp:77] Creating layer pool4
I1113 16:49:04.869222  7495 net.cpp:84] Creating Layer pool4
I1113 16:49:04.869225  7495 net.cpp:406] pool4 <- conv4
I1113 16:49:04.869230  7495 net.cpp:380] pool4 -> pool4
I1113 16:49:04.869261  7495 net.cpp:122] Setting up pool4
I1113 16:49:04.869266  7495 net.cpp:129] Top shape: 100 128 7 7 (627200)
I1113 16:49:04.869268  7495 net.cpp:137] Memory required for data: 249313200
I1113 16:49:04.869279  7495 layer_factory.hpp:77] Creating layer conv5
I1113 16:49:04.869287  7495 net.cpp:84] Creating Layer conv5
I1113 16:49:04.869290  7495 net.cpp:406] conv5 <- pool4
I1113 16:49:04.869295  7495 net.cpp:380] conv5 -> conv5
I1113 16:49:04.872262  7495 net.cpp:122] Setting up conv5
I1113 16:49:04.872272  7495 net.cpp:129] Top shape: 100 256 7 7 (1254400)
I1113 16:49:04.872275  7495 net.cpp:137] Memory required for data: 254330800
I1113 16:49:04.872282  7495 layer_factory.hpp:77] Creating layer BN5
I1113 16:49:04.872287  7495 net.cpp:84] Creating Layer BN5
I1113 16:49:04.872290  7495 net.cpp:406] BN5 <- conv5
I1113 16:49:04.872297  7495 net.cpp:367] BN5 -> conv5 (in-place)
I1113 16:49:04.872422  7495 net.cpp:122] Setting up BN5
I1113 16:49:04.872427  7495 net.cpp:129] Top shape: 100 256 7 7 (1254400)
I1113 16:49:04.872431  7495 net.cpp:137] Memory required for data: 259348400
I1113 16:49:04.872440  7495 layer_factory.hpp:77] Creating layer scale5
I1113 16:49:04.872445  7495 net.cpp:84] Creating Layer scale5
I1113 16:49:04.872448  7495 net.cpp:406] scale5 <- conv5
I1113 16:49:04.872452  7495 net.cpp:367] scale5 -> conv5 (in-place)
I1113 16:49:04.872483  7495 layer_factory.hpp:77] Creating layer scale5
I1113 16:49:04.872551  7495 net.cpp:122] Setting up scale5
I1113 16:49:04.872557  7495 net.cpp:129] Top shape: 100 256 7 7 (1254400)
I1113 16:49:04.872560  7495 net.cpp:137] Memory required for data: 264366000
I1113 16:49:04.872565  7495 layer_factory.hpp:77] Creating layer relu5
I1113 16:49:04.872570  7495 net.cpp:84] Creating Layer relu5
I1113 16:49:04.872575  7495 net.cpp:406] relu5 <- conv5
I1113 16:49:04.872578  7495 net.cpp:367] relu5 -> conv5 (in-place)
I1113 16:49:04.872689  7495 net.cpp:122] Setting up relu5
I1113 16:49:04.872695  7495 net.cpp:129] Top shape: 100 256 7 7 (1254400)
I1113 16:49:04.872699  7495 net.cpp:137] Memory required for data: 269383600
I1113 16:49:04.872701  7495 layer_factory.hpp:77] Creating layer conv6
I1113 16:49:04.872709  7495 net.cpp:84] Creating Layer conv6
I1113 16:49:04.872712  7495 net.cpp:406] conv6 <- conv5
I1113 16:49:04.872719  7495 net.cpp:380] conv6 -> conv6
I1113 16:49:04.877946  7495 net.cpp:122] Setting up conv6
I1113 16:49:04.877959  7495 net.cpp:129] Top shape: 100 256 7 7 (1254400)
I1113 16:49:04.877964  7495 net.cpp:137] Memory required for data: 274401200
I1113 16:49:04.877969  7495 layer_factory.hpp:77] Creating layer BN6
I1113 16:49:04.877976  7495 net.cpp:84] Creating Layer BN6
I1113 16:49:04.877981  7495 net.cpp:406] BN6 <- conv6
I1113 16:49:04.877987  7495 net.cpp:367] BN6 -> conv6 (in-place)
I1113 16:49:04.878118  7495 net.cpp:122] Setting up BN6
I1113 16:49:04.878123  7495 net.cpp:129] Top shape: 100 256 7 7 (1254400)
I1113 16:49:04.878126  7495 net.cpp:137] Memory required for data: 279418800
I1113 16:49:04.878134  7495 layer_factory.hpp:77] Creating layer scale6
I1113 16:49:04.878139  7495 net.cpp:84] Creating Layer scale6
I1113 16:49:04.878142  7495 net.cpp:406] scale6 <- conv6
I1113 16:49:04.878147  7495 net.cpp:367] scale6 -> conv6 (in-place)
I1113 16:49:04.878207  7495 layer_factory.hpp:77] Creating layer scale6
I1113 16:49:04.878280  7495 net.cpp:122] Setting up scale6
I1113 16:49:04.878285  7495 net.cpp:129] Top shape: 100 256 7 7 (1254400)
I1113 16:49:04.878289  7495 net.cpp:137] Memory required for data: 284436400
I1113 16:49:04.878296  7495 layer_factory.hpp:77] Creating layer relu6
I1113 16:49:04.878301  7495 net.cpp:84] Creating Layer relu6
I1113 16:49:04.878304  7495 net.cpp:406] relu6 <- conv6
I1113 16:49:04.878309  7495 net.cpp:367] relu6 -> conv6 (in-place)
I1113 16:49:04.878419  7495 net.cpp:122] Setting up relu6
I1113 16:49:04.878425  7495 net.cpp:129] Top shape: 100 256 7 7 (1254400)
I1113 16:49:04.878428  7495 net.cpp:137] Memory required for data: 289454000
I1113 16:49:04.878432  7495 layer_factory.hpp:77] Creating layer conv7
I1113 16:49:04.878440  7495 net.cpp:84] Creating Layer conv7
I1113 16:49:04.878443  7495 net.cpp:406] conv7 <- conv6
I1113 16:49:04.878448  7495 net.cpp:380] conv7 -> conv7
I1113 16:49:04.883639  7495 net.cpp:122] Setting up conv7
I1113 16:49:04.883656  7495 net.cpp:129] Top shape: 100 256 7 7 (1254400)
I1113 16:49:04.883658  7495 net.cpp:137] Memory required for data: 294471600
I1113 16:49:04.883666  7495 layer_factory.hpp:77] Creating layer BN7
I1113 16:49:04.883673  7495 net.cpp:84] Creating Layer BN7
I1113 16:49:04.883678  7495 net.cpp:406] BN7 <- conv7
I1113 16:49:04.883684  7495 net.cpp:367] BN7 -> conv7 (in-place)
I1113 16:49:04.883843  7495 net.cpp:122] Setting up BN7
I1113 16:49:04.883849  7495 net.cpp:129] Top shape: 100 256 7 7 (1254400)
I1113 16:49:04.883852  7495 net.cpp:137] Memory required for data: 299489200
I1113 16:49:04.883860  7495 layer_factory.hpp:77] Creating layer scale7
I1113 16:49:04.883867  7495 net.cpp:84] Creating Layer scale7
I1113 16:49:04.883870  7495 net.cpp:406] scale7 <- conv7
I1113 16:49:04.883877  7495 net.cpp:367] scale7 -> conv7 (in-place)
I1113 16:49:04.883908  7495 layer_factory.hpp:77] Creating layer scale7
I1113 16:49:04.883980  7495 net.cpp:122] Setting up scale7
I1113 16:49:04.883986  7495 net.cpp:129] Top shape: 100 256 7 7 (1254400)
I1113 16:49:04.883991  7495 net.cpp:137] Memory required for data: 304506800
I1113 16:49:04.883996  7495 layer_factory.hpp:77] Creating layer relu7
I1113 16:49:04.884001  7495 net.cpp:84] Creating Layer relu7
I1113 16:49:04.884004  7495 net.cpp:406] relu7 <- conv7
I1113 16:49:04.884009  7495 net.cpp:367] relu7 -> conv7 (in-place)
I1113 16:49:04.884120  7495 net.cpp:122] Setting up relu7
I1113 16:49:04.884127  7495 net.cpp:129] Top shape: 100 256 7 7 (1254400)
I1113 16:49:04.884130  7495 net.cpp:137] Memory required for data: 309524400
I1113 16:49:04.884133  7495 layer_factory.hpp:77] Creating layer pool7
I1113 16:49:04.884141  7495 net.cpp:84] Creating Layer pool7
I1113 16:49:04.884145  7495 net.cpp:406] pool7 <- conv7
I1113 16:49:04.884150  7495 net.cpp:380] pool7 -> pool7
I1113 16:49:04.884181  7495 net.cpp:122] Setting up pool7
I1113 16:49:04.884187  7495 net.cpp:129] Top shape: 100 256 4 4 (409600)
I1113 16:49:04.884191  7495 net.cpp:137] Memory required for data: 311162800
I1113 16:49:04.884193  7495 layer_factory.hpp:77] Creating layer conv8
I1113 16:49:04.884202  7495 net.cpp:84] Creating Layer conv8
I1113 16:49:04.884205  7495 net.cpp:406] conv8 <- pool7
I1113 16:49:04.884210  7495 net.cpp:380] conv8 -> conv8
I1113 16:49:04.893468  7495 net.cpp:122] Setting up conv8
I1113 16:49:04.893486  7495 net.cpp:129] Top shape: 100 512 4 4 (819200)
I1113 16:49:04.893489  7495 net.cpp:137] Memory required for data: 314439600
I1113 16:49:04.893497  7495 layer_factory.hpp:77] Creating layer BN8
I1113 16:49:04.893506  7495 net.cpp:84] Creating Layer BN8
I1113 16:49:04.893510  7495 net.cpp:406] BN8 <- conv8
I1113 16:49:04.893517  7495 net.cpp:367] BN8 -> conv8 (in-place)
I1113 16:49:04.893657  7495 net.cpp:122] Setting up BN8
I1113 16:49:04.893663  7495 net.cpp:129] Top shape: 100 512 4 4 (819200)
I1113 16:49:04.893667  7495 net.cpp:137] Memory required for data: 317716400
I1113 16:49:04.893673  7495 layer_factory.hpp:77] Creating layer scale8
I1113 16:49:04.893681  7495 net.cpp:84] Creating Layer scale8
I1113 16:49:04.893683  7495 net.cpp:406] scale8 <- conv8
I1113 16:49:04.893688  7495 net.cpp:367] scale8 -> conv8 (in-place)
I1113 16:49:04.893719  7495 layer_factory.hpp:77] Creating layer scale8
I1113 16:49:04.893796  7495 net.cpp:122] Setting up scale8
I1113 16:49:04.893802  7495 net.cpp:129] Top shape: 100 512 4 4 (819200)
I1113 16:49:04.893806  7495 net.cpp:137] Memory required for data: 320993200
I1113 16:49:04.893811  7495 layer_factory.hpp:77] Creating layer relu8
I1113 16:49:04.893816  7495 net.cpp:84] Creating Layer relu8
I1113 16:49:04.893820  7495 net.cpp:406] relu8 <- conv8
I1113 16:49:04.893826  7495 net.cpp:367] relu8 -> conv8 (in-place)
I1113 16:49:04.894126  7495 net.cpp:122] Setting up relu8
I1113 16:49:04.894134  7495 net.cpp:129] Top shape: 100 512 4 4 (819200)
I1113 16:49:04.894137  7495 net.cpp:137] Memory required for data: 324270000
I1113 16:49:04.894141  7495 layer_factory.hpp:77] Creating layer conv9
I1113 16:49:04.894162  7495 net.cpp:84] Creating Layer conv9
I1113 16:49:04.894166  7495 net.cpp:406] conv9 <- conv8
I1113 16:49:04.894172  7495 net.cpp:380] conv9 -> conv9
I1113 16:49:04.911818  7495 net.cpp:122] Setting up conv9
I1113 16:49:04.911839  7495 net.cpp:129] Top shape: 100 512 4 4 (819200)
I1113 16:49:04.911842  7495 net.cpp:137] Memory required for data: 327546800
I1113 16:49:04.911864  7495 layer_factory.hpp:77] Creating layer BN9
I1113 16:49:04.911875  7495 net.cpp:84] Creating Layer BN9
I1113 16:49:04.911878  7495 net.cpp:406] BN9 <- conv9
I1113 16:49:04.911885  7495 net.cpp:367] BN9 -> conv9 (in-place)
I1113 16:49:04.912062  7495 net.cpp:122] Setting up BN9
I1113 16:49:04.912068  7495 net.cpp:129] Top shape: 100 512 4 4 (819200)
I1113 16:49:04.912071  7495 net.cpp:137] Memory required for data: 330823600
I1113 16:49:04.912091  7495 layer_factory.hpp:77] Creating layer scale9
I1113 16:49:04.912096  7495 net.cpp:84] Creating Layer scale9
I1113 16:49:04.912101  7495 net.cpp:406] scale9 <- conv9
I1113 16:49:04.912106  7495 net.cpp:367] scale9 -> conv9 (in-place)
I1113 16:49:04.912135  7495 layer_factory.hpp:77] Creating layer scale9
I1113 16:49:04.912211  7495 net.cpp:122] Setting up scale9
I1113 16:49:04.912217  7495 net.cpp:129] Top shape: 100 512 4 4 (819200)
I1113 16:49:04.912220  7495 net.cpp:137] Memory required for data: 334100400
I1113 16:49:04.912225  7495 layer_factory.hpp:77] Creating layer relu9
I1113 16:49:04.912231  7495 net.cpp:84] Creating Layer relu9
I1113 16:49:04.912235  7495 net.cpp:406] relu9 <- conv9
I1113 16:49:04.912240  7495 net.cpp:367] relu9 -> conv9 (in-place)
I1113 16:49:04.912649  7495 net.cpp:122] Setting up relu9
I1113 16:49:04.912658  7495 net.cpp:129] Top shape: 100 512 4 4 (819200)
I1113 16:49:04.912662  7495 net.cpp:137] Memory required for data: 337377200
I1113 16:49:04.912664  7495 layer_factory.hpp:77] Creating layer conv10
I1113 16:49:04.912673  7495 net.cpp:84] Creating Layer conv10
I1113 16:49:04.912678  7495 net.cpp:406] conv10 <- conv9
I1113 16:49:04.912683  7495 net.cpp:380] conv10 -> conv10
I1113 16:49:04.931006  7495 net.cpp:122] Setting up conv10
I1113 16:49:04.931025  7495 net.cpp:129] Top shape: 100 512 4 4 (819200)
I1113 16:49:04.931028  7495 net.cpp:137] Memory required for data: 340654000
I1113 16:49:04.931047  7495 layer_factory.hpp:77] Creating layer BN10
I1113 16:49:04.931074  7495 net.cpp:84] Creating Layer BN10
I1113 16:49:04.931078  7495 net.cpp:406] BN10 <- conv10
I1113 16:49:04.931083  7495 net.cpp:367] BN10 -> conv10 (in-place)
I1113 16:49:04.931232  7495 net.cpp:122] Setting up BN10
I1113 16:49:04.931238  7495 net.cpp:129] Top shape: 100 512 4 4 (819200)
I1113 16:49:04.931241  7495 net.cpp:137] Memory required for data: 343930800
I1113 16:49:04.931248  7495 layer_factory.hpp:77] Creating layer scale10
I1113 16:49:04.931255  7495 net.cpp:84] Creating Layer scale10
I1113 16:49:04.931259  7495 net.cpp:406] scale10 <- conv10
I1113 16:49:04.931263  7495 net.cpp:367] scale10 -> conv10 (in-place)
I1113 16:49:04.931294  7495 layer_factory.hpp:77] Creating layer scale10
I1113 16:49:04.931401  7495 net.cpp:122] Setting up scale10
I1113 16:49:04.931421  7495 net.cpp:129] Top shape: 100 512 4 4 (819200)
I1113 16:49:04.931424  7495 net.cpp:137] Memory required for data: 347207600
I1113 16:49:04.931429  7495 layer_factory.hpp:77] Creating layer relu10
I1113 16:49:04.931435  7495 net.cpp:84] Creating Layer relu10
I1113 16:49:04.931439  7495 net.cpp:406] relu10 <- conv10
I1113 16:49:04.931455  7495 net.cpp:367] relu10 -> conv10 (in-place)
I1113 16:49:04.931599  7495 net.cpp:122] Setting up relu10
I1113 16:49:04.931605  7495 net.cpp:129] Top shape: 100 512 4 4 (819200)
I1113 16:49:04.931608  7495 net.cpp:137] Memory required for data: 350484400
I1113 16:49:04.931612  7495 layer_factory.hpp:77] Creating layer pool10
I1113 16:49:04.931617  7495 net.cpp:84] Creating Layer pool10
I1113 16:49:04.931620  7495 net.cpp:406] pool10 <- conv10
I1113 16:49:04.931625  7495 net.cpp:380] pool10 -> pool10
I1113 16:49:04.931656  7495 net.cpp:122] Setting up pool10
I1113 16:49:04.931661  7495 net.cpp:129] Top shape: 100 512 2 2 (204800)
I1113 16:49:04.931674  7495 net.cpp:137] Memory required for data: 351303600
I1113 16:49:04.931679  7495 layer_factory.hpp:77] Creating layer fc65
I1113 16:49:04.931684  7495 net.cpp:84] Creating Layer fc65
I1113 16:49:04.931689  7495 net.cpp:406] fc65 <- pool10
I1113 16:49:04.931692  7495 net.cpp:380] fc65 -> fc65
I1113 16:49:04.940929  7495 net.cpp:122] Setting up fc65
I1113 16:49:04.940953  7495 net.cpp:129] Top shape: 100 1024 (102400)
I1113 16:49:04.940955  7495 net.cpp:137] Memory required for data: 351713200
I1113 16:49:04.940968  7495 layer_factory.hpp:77] Creating layer relu65
I1113 16:49:04.940979  7495 net.cpp:84] Creating Layer relu65
I1113 16:49:04.940984  7495 net.cpp:406] relu65 <- fc65
I1113 16:49:04.941013  7495 net.cpp:367] relu65 -> fc65 (in-place)
I1113 16:49:04.941185  7495 net.cpp:122] Setting up relu65
I1113 16:49:04.941192  7495 net.cpp:129] Top shape: 100 1024 (102400)
I1113 16:49:04.941195  7495 net.cpp:137] Memory required for data: 352122800
I1113 16:49:04.941197  7495 layer_factory.hpp:77] Creating layer drop65
I1113 16:49:04.941203  7495 net.cpp:84] Creating Layer drop65
I1113 16:49:04.941207  7495 net.cpp:406] drop65 <- fc65
I1113 16:49:04.941212  7495 net.cpp:367] drop65 -> fc65 (in-place)
I1113 16:49:04.941234  7495 net.cpp:122] Setting up drop65
I1113 16:49:04.941239  7495 net.cpp:129] Top shape: 100 1024 (102400)
I1113 16:49:04.941242  7495 net.cpp:137] Memory required for data: 352532400
I1113 16:49:04.941246  7495 layer_factory.hpp:77] Creating layer fc66
I1113 16:49:04.941251  7495 net.cpp:84] Creating Layer fc66
I1113 16:49:04.941254  7495 net.cpp:406] fc66 <- fc65
I1113 16:49:04.941259  7495 net.cpp:380] fc66 -> fc66
I1113 16:49:04.946177  7495 net.cpp:122] Setting up fc66
I1113 16:49:04.946192  7495 net.cpp:129] Top shape: 100 1024 (102400)
I1113 16:49:04.946194  7495 net.cpp:137] Memory required for data: 352942000
I1113 16:49:04.946202  7495 layer_factory.hpp:77] Creating layer relu66
I1113 16:49:04.946208  7495 net.cpp:84] Creating Layer relu66
I1113 16:49:04.946211  7495 net.cpp:406] relu66 <- fc66
I1113 16:49:04.946216  7495 net.cpp:367] relu66 -> fc66 (in-place)
I1113 16:49:04.946470  7495 net.cpp:122] Setting up relu66
I1113 16:49:04.946476  7495 net.cpp:129] Top shape: 100 1024 (102400)
I1113 16:49:04.946480  7495 net.cpp:137] Memory required for data: 353351600
I1113 16:49:04.946482  7495 layer_factory.hpp:77] Creating layer drop66
I1113 16:49:04.946488  7495 net.cpp:84] Creating Layer drop66
I1113 16:49:04.946492  7495 net.cpp:406] drop66 <- fc66
I1113 16:49:04.946496  7495 net.cpp:367] drop66 -> fc66 (in-place)
I1113 16:49:04.946550  7495 net.cpp:122] Setting up drop66
I1113 16:49:04.946555  7495 net.cpp:129] Top shape: 100 1024 (102400)
I1113 16:49:04.946558  7495 net.cpp:137] Memory required for data: 353761200
I1113 16:49:04.946561  7495 layer_factory.hpp:77] Creating layer fc100
I1113 16:49:04.946566  7495 net.cpp:84] Creating Layer fc100
I1113 16:49:04.946583  7495 net.cpp:406] fc100 <- fc66
I1113 16:49:04.946588  7495 net.cpp:380] fc100 -> fc100
I1113 16:49:04.946735  7495 net.cpp:122] Setting up fc100
I1113 16:49:04.946741  7495 net.cpp:129] Top shape: 100 10 (1000)
I1113 16:49:04.946744  7495 net.cpp:137] Memory required for data: 353765200
I1113 16:49:04.946764  7495 layer_factory.hpp:77] Creating layer fc100_fc100_0_split
I1113 16:49:04.946769  7495 net.cpp:84] Creating Layer fc100_fc100_0_split
I1113 16:49:04.946774  7495 net.cpp:406] fc100_fc100_0_split <- fc100
I1113 16:49:04.946779  7495 net.cpp:380] fc100_fc100_0_split -> fc100_fc100_0_split_0
I1113 16:49:04.946785  7495 net.cpp:380] fc100_fc100_0_split -> fc100_fc100_0_split_1
I1113 16:49:04.946843  7495 net.cpp:122] Setting up fc100_fc100_0_split
I1113 16:49:04.946847  7495 net.cpp:129] Top shape: 100 10 (1000)
I1113 16:49:04.946852  7495 net.cpp:129] Top shape: 100 10 (1000)
I1113 16:49:04.946867  7495 net.cpp:137] Memory required for data: 353773200
I1113 16:49:04.946871  7495 layer_factory.hpp:77] Creating layer loss
I1113 16:49:04.946876  7495 net.cpp:84] Creating Layer loss
I1113 16:49:04.946904  7495 net.cpp:406] loss <- fc100_fc100_0_split_0
I1113 16:49:04.946909  7495 net.cpp:406] loss <- label_cifar10_1_split_0
I1113 16:49:04.946928  7495 net.cpp:380] loss -> loss
…
