…
I0825 11:12:20.279774  2068 net.cpp:82] Initializing net from parameters: 
name: "resnet_cifar10"
state {
  phase: TRAIN
  level: 0
  stage: ""
}
layer {
  name: "Data1"
  type: "Data"
  top: "Data1"
  top: "Data2"
  include {
    phase: TRAIN
  }
  transform_param {
    scale: 0.00390625
    mirror: true
    crop_size: 32
    mean_value: 125.3
    mean_value: 122.9
    mean_value: 113.8
  }
  data_param {
    source: "/home/lijianfei/datasets/cifar10_40/train_lmdb"
    batch_size: 64
    backend: LMDB
  }
  image_data_param {
    shuffle: true
  }
}
layer {
  name: "Convolution1"
  type: "Convolution"
  bottom: "Data1"
  top: "Convolution1"
  param {
    lr_mult: 1
    decay_mult: 1
  }
  param {
    lr_mult: 2
    decay_mult: 0
  }
  convolution_param {
    num_output: 16
    pad: 1
    kernel_size: 3
    stride: 1
    weight_filler {
      type: "msra"
    }
    bias_filler {
      type: "constant"
      value: 0
    }
  }
}
layer {
  name: "BatchNorm1"
  type: "BatchNorm"
  bottom: "Convolution1"
  top: "Convolution1"
  param {
    lr_mult: 0
    decay_mult: 0
  }
  param {
    lr_mult: 0
    decay_mult: 0
  }
  param {
    lr_mult: 0
    decay_mult: 0
  }
}
layer {
  name: "Scale1"
  type: "Scale"
  bottom: "Convolution1"
  top: "Convolution1"
  scale_param {
    bias_term: true
  }
}
layer {
  name: "ReLU1"
  type: "ReLU"
  bottom: "Convolution1"
  top: "Convolution1"
}
layer {
  name: "Convolution2"
  type: "Convolution"
  bottom: "Convolution1"
  top: "Convolution2"
  param {
    lr_mult: 1
    decay_mult: 1
  }
  param {
    lr_mult: 2
    decay_mult: 0
  }
  convolution_param {
    num_output: 16
    pad: 1
    kernel_size: 3
    stride: 1
    weight_filler {
      type: "msra"
    }
    bias_filler {
      type: "constant"
      value: 0
    }
  }
}
layer {
  name: "BatchNorm2"
  type: "BatchNorm"
  bottom: "Convolution2"
  top: "Convolution2"
  param {
    lr_mult: 0
    decay_mult: 0
  }
  param {
    lr_mult: 0
    decay_mult: 0
  }
  param {
    lr_mult: 0
    decay_mult: 0
  }
}
layer {
  name: "Scale2"
  type: "Scale"
  bottom: "Convolution2"
  top: "Convolution2"
  scale_param {
    bias_term: true
  }
}
layer {
  name: "ReLU2"
  type: "ReLU"
  bottom: "Convolution2"
  top: "Convolution2"
}
layer {
  name: "Convolution3"
  type: "Convolution"
  bottom: "Convolution2"
  top: "Convolution3"
  param {
    lr_mult: 1
    decay_mult: 1
  }
  param {
    lr_mult: 2
    decay_mult: 0
  }
  convolution_param {
    num_output: 16
    pad: 1
    kernel_size: 3
    stride: 1
    weight_filler {
      type: "msra"
    }
    bias_filler {
      type: "constant"
      value: 0
    }
  }
}
layer {
  name: "BatchNorm3"
  type: "BatchNorm"
  bottom: "Convolution3"
  top: "Convolution3"
  param {
    lr_mult: 0
    decay_mult: 0
  }
  param {
    lr_mult: 0
    decay_mult: 0
  }
  param {
    lr_mult: 0
    decay_mult: 0
  }
}
layer {
  name: "Scale3"
  type: "Scale"
  bottom: "Convolution3"
  top: "Convolution3"
  scale_param {
    bias_term: true
  }
}
layer {
  name: "Eltwise1"
  type: "Eltwise"
  bottom: "Convolution1"
  bottom: "Convolution3"
  top: "Eltwise1"
  eltwise_param {
    operation: SUM
  }
}
layer {
  name: "ReLU3"
  type: "ReLU"
  bottom: "Eltwise1"
  top: "Eltwise1"
}
layer {
  name: "Convolution4"
  type: "Convolution"
  bottom: "Eltwise1"
  top: "Convolution4"
  param {
    lr_mult: 1
    decay_mult: 1
  }
  param {
    lr_mult: 2
    decay_mult: 0
  }
  convolution_param {
    num_output: 16
    pad: 1
    kernel_size: 3
    stride: 1
    weight_filler {
      type: "msra"
    }
    bias_filler {
      type: "constant"
      value: 0
    }
  }
}
layer {
  name: "BatchNorm4"
  type: "BatchNorm"
  bottom: "Convolution4"
  top: "Convolution4"
  param {
    lr_mult: 0
    decay_mult: 0
  }
  param {
    lr_mult: 0
    decay_mult: 0
  }
  param {
    lr_mult: 0
    decay_mult: 0
  }
}
layer {
  name: "Scale4"
  type: "Scale"
  bottom: "Convolution4"
  top: "Convolution4"
  scale_param {
    bias_term: true
  }
}
layer {
  name: "ReLU4"
  type: "ReLU"
  bottom: "Convolution4"
  top: "Convolution4"
}
layer {
  name: "Convolution5"
  type: "Convolution"
  bottom: "Convolution4"
  top: "Convolution5"
  param {
    lr_mult: 1
    decay_mult: 1
  }
  param {
    lr_mult: 2
    decay_mult: 0
  }
  convolution_param {
    num_output: 16
    pad: 1
    kernel_size: 3
    stride: 1
    weight_filler {
      type: "msra"
    }
    bias_filler {
      type: "constant"
      value: 0
    }
  }
}
layer {
  name: "BatchNorm5"
  type: "BatchNorm"
  bottom: "Convolution5"
  top: "Convolution5"
  param {
    lr_mult: 0
    decay_mult: 0
  }
  param {
    lr_mult: 0
    decay_mult: 0
  }
  param {
    lr_mult: 0
    decay_mult: 0
  }
}
layer {
  name: "Scale5"
  type: "Scale"
  bottom: "Convolution5"
  top: "Convolution5"
  scale_param {
    bias_term: true
  }
}
layer {
  name: "Eltwise2"
  type: "Eltwise"
  bottom: "Eltwise1"
  bottom: "Convolution5"
  top: "Eltwise2"
  eltwise_param {
    operation: SUM
  }
}
layer {
  name: "ReLU5"
  type: "ReLU"
  bottom: "Eltwise2"
  top: "Eltwise2"
}
layer {
  name: "Convolution6"
  type: "Convolution"
  bottom: "Eltwise2"
  top: "Convolution6"
  param {
    lr_mult: 1
    decay_mult: 1
  }
  param {
    lr_mult: 2
    decay_mult: 0
  }
  convolution_param {
    num_output: 16
    pad: 1
    kernel_size: 3
    stride: 1
    weight_filler {
      type: "msra"
    }
    bias_filler {
      type: "constant"
      value: 0
    }
  }
}
layer {
  name: "BatchNorm6"
  type: "BatchNorm"
  bottom: "Convolution6"
  top: "Convolution6"
  param {
    lr_mult: 0
    decay_mult: 0
  }
  param {
    lr_mult: 0
    decay_mult: 0
  }
  param {
    lr_mult: 0
    decay_mult: 0
  }
}
layer {
  name: "Scale6"
  type: "Scale"
  bottom: "Convolution6"
  top: "Convolution6"
  scale_param {
    bias_term: true
  }
}
layer {
  name: "ReLU6"
  type: "ReLU"
  bottom: "Convolution6"
  top: "Convolution6"
}
layer {
  name: "Convolution7"
  type: "Convolution"
  bottom: "Convolution6"
  top: "Convolution7"
  param {
    lr_mult: 1
    decay_mult: 1
  }
  param {
    lr_mult: 2
    decay_mult: 0
  }
  convolution_param {
    num_output: 16
    pad: 1
    kernel_size: 3
    stride: 1
    weight_filler {
      type: "msra"
    }
    bias_filler {
      type: "constant"
      value: 0
    }
  }
}
layer {
  name: "BatchNorm7"
  type: "BatchNorm"
  bottom: "Convolution7"
  top: "Convolution7"
  param {
    lr_mult: 0
    decay_mult: 0
  }
  param {
    lr_mult: 0
    decay_mult: 0
  }
  param {
    lr_mult: 0
    decay_mult: 0
  }
}
layer {
  name: "Scale7"
  type: "Scale"
  bottom: "Convolution7"
  top: "Convolution7"
  scale_param {
    bias_term: true
  }
}
layer {
  name: "Eltwise3"
  type: "Eltwise"
  bottom: "Eltwise2"
  bottom: "Convolution7"
  top: "Eltwise3"
  eltwise_param {
    operation: SUM
  }
}
layer {
  name: "ReLU7"
  type: "ReLU"
  bottom: "Eltwise3"
  top: "Eltwise3"
}
layer {
  name: "Convolution8"
  type: "Convolution"
  bottom: "Eltwise3"
  top: "Convolution8"
  param {
    lr_mult: 1
    decay_mult: 1
  }
  param {
    lr_mult: 2
    decay_mult: 0
  }
  convolution_param {
    num_output: 16
    pad: 1
    kernel_size: 3
    stride: 1
    weight_filler {
      type: "msra"
    }
    bias_filler {
      type: "constant"
      value: 0
    }
  }
}
layer {
  name: "BatchNorm8"
  type: "BatchNorm"
  bottom: "Convolution8"
  top: "Convolution8"
  param {
    lr_mult: 0
    decay_mult: 0
  }
  param {
    lr_mult: 0
    decay_mult: 0
  }
  param {
    lr_mult: 0
    decay_mult: 0
  }
}
layer {
  name: "Scale8"
  type: "Scale"
  bottom: "Convolution8"
  top: "Convolution8"
  scale_param {
    bias_term: true
  }
}
layer {
  name: "ReLU8"
  type: "ReLU"
  bottom: "Convolution8"
  top: "Convolution8"
}
layer {
  name: "Convolution9"
  type: "Convolution"
  bottom: "Convolution8"
  top: "Convolution9"
  param {
    lr_mult: 1
    decay_mult: 1
  }
  param {
    lr_mult: 2
    decay_mult: 0
  }
  convolution_param {
    num_output: 16
    pad: 1
    kernel_size: 3
    stride: 1
    weight_filler {
      type: "msra"
    }
    bias_filler {
      type: "constant"
      value: 0
    }
  }
}
layer {
  name: "BatchNorm9"
  type: "BatchNorm"
  bottom: "Convolution9"
  top: "Convolution9"
  param {
    lr_mult: 0
    decay_mult: 0
  }
  param {
    lr_mult: 0
    decay_mult: 0
  }
  param {
    lr_mult: 0
    decay_mult: 0
  }
}
layer {
  name: "Scale9"
  type: "Scale"
  bottom: "Convolution9"
  top: "Convolution9"
  scale_param {
    bias_term: true
  }
}
layer {
  name: "Eltwise4"
  type: "Eltwise"
  bottom: "Eltwise3"
  bottom: "Convolution9"
  top: "Eltwise4"
  eltwise_param {
    operation: SUM
  }
}
layer {
  name: "ReLU9"
  type: "ReLU"
  bottom: "Eltwise4"
  top: "Eltwise4"
}
layer {
  name: "Convolution10"
  type: "Convolution"
  bottom: "Eltwise4"
  top: "Convolution10"
  param {
    lr_mult: 1
    decay_mult: 1
  }
  param {
    lr_mult: 2
    decay_mult: 0
  }
  convolution_param {
    num_output: 16
    pad: 1
    kernel_size: 3
    stride: 1
    weight_filler {
      type: "msra"
    }
    bias_filler {
      type: "constant"
      value: 0
    }
  }
}
layer {
  name: "BatchNorm10"
  type: "BatchNorm"
  bottom: "Convolution10"
  top: "Convolution10"
  param {
    lr_mult: 0
    decay_mult: 0
  }
  param {
    lr_mult: 0
    decay_mult: 0
  }
  param {
    lr_mult: 0
    decay_mult: 0
  }
}
layer {
  name: "Scale10"
  type: "Scale"
  bottom: "Convolution10"
  top: "Convolution10"
  scale_param {
    bias_term: true
  }
}
layer {
  name: "ReLU10"
  type: "ReLU"
  bottom: "Convolution10"
  top: "Convolution10"
}
layer {
  name: "Convolution11"
  type: "Convolution"
  bottom: "Convolution10"
  top: "Convolution11"
  param {
    lr_mult: 1
    decay_mult: 1
  }
  param {
    lr_mult: 2
    decay_mult: 0
  }
  convolution_param {
    num_output: 16
    pad: 1
    kernel_size: 3
    stride: 1
    weight_filler {
      type: "msra"
    }
    bias_filler {
      type: "constant"
      value: 0
    }
  }
}
layer {
  name: "BatchNorm11"
  type: "BatchNorm"
  bottom: "Convolution11"
  top: "Convolution11"
  param {
    lr_mult: 0
    decay_mult: 0
  }
  param {
    lr_mult: 0
    decay_mult: 0
  }
  param {
    lr_mult: 0
    decay_mult: 0
  }
}
layer {
  name: "Scale11"
  type: "Scale"
  bottom: "Convolution11"
  top: "Convolution11"
  scale_param {
    bias_term: true
  }
}
layer {
  name: "Eltwise5"
  type: "Eltwise"
  bottom: "Eltwise4"
  bottom: "Convolution11"
  top: "Eltwise5"
  eltwise_param {
    operation: SUM
  }
}
layer {
  name: "ReLU11"
  type: "ReLU"
  bottom: "Eltwise5"
  top: "Eltwise5"
}
layer {
  name: "Convolution12"
  type: "Convolution"
  bottom: "Eltwise5"
  top: "Convolution12"
  param {
    lr_mult: 1
    decay_mult: 1
  }
  param {
    lr_mult: 2
    decay_mult: 0
  }
  convolution_param {
    num_output: 16
    pad: 1
    kernel_size: 3
    stride: 1
    weight_filler {
      type: "msra"
    }
    bias_filler {
      type: "constant"
      value: 0
    }
  }
}
layer {
  name: "BatchNorm12"
  type: "BatchNorm"
  bottom: "Convolution12"
  top: "Convolution12"
  param {
    lr_mult: 0
    decay_mult: 0
  }
  param {
    lr_mult: 0
    decay_mult: 0
  }
  param {
    lr_mult: 0
    decay_mult: 0
  }
}
layer {
  name: "Scale12"
  type: "Scale"
  bottom: "Convolution12"
  top: "Convolution12"
  scale_param {
    bias_term: true
  }
}
layer {
  name: "ReLU12"
  type: "ReLU"
  bottom: "Convolution12"
  top: "Convolution12"
}
layer {
  name: "Convolution13"
  type: "Convolution"
  bottom: "Convolution12"
  top: "Convolution13"
  param {
    lr_mult: 1
    decay_mult: 1
  }
  param {
    lr_mult: 2
    decay_mult: 0
  }
  convolution_param {
    num_output: 16
    pad: 1
    kernel_size: 3
    stride: 1
    weight_filler {
      type: "msra"
    }
    bias_filler {
      type: "constant"
      value: 0
    }
  }
}
layer {
  name: "BatchNorm13"
  type: "BatchNorm"
  bottom: "Convolution13"
  top: "Convolution13"
  param {
    lr_mult: 0
    decay_mult: 0
  }
  param {
    lr_mult: 0
    decay_mult: 0
  }
  param {
    lr_mult: 0
    decay_mult: 0
  }
}
layer {
  name: "Scale13"
  type: "Scale"
  bottom: "Convolution13"
  top: "Convolution13"
  scale_param {
    bias_term: true
  }
}
layer {
  name: "Eltwise6"
  type: "Eltwise"
  bottom: "Eltwise5"
  bottom: "Convolution13"
  top: "Eltwise6"
  eltwise_param {
    operation: SUM
  }
}
layer {
  name: "ReLU13"
  type: "ReLU"
  bottom: "Eltwise6"
  top: "Eltwise6"
}
layer {
  name: "Convolution14"
  type: "Convolution"
  bottom: "Eltwise6"
  top: "Convolution14"
  param {
    lr_mult: 1
    decay_mult: 1
  }
  param {
    lr_mult: 2
    decay_mult: 0
  }
  convolution_param {
    num_output: 16
    pad: 1
    kernel_size: 3
    stride: 1
    weight_filler {
      type: "msra"
    }
    bias_filler {
      type: "constant"
      value: 0
    }
  }
}
layer {
  name: "BatchNorm14"
  type: "BatchNorm"
  bottom: "Convolution14"
  top: "Convolution14"
  param {
    lr_mult: 0
    decay_mult: 0
  }
  param {
    lr_mult: 0
    decay_mult: 0
  }
  param {
    lr_mult: 0
    decay_mult: 0
  }
}
layer {
  name: "Scale14"
  type: "Scale"
  bottom: "Convolution14"
  top: "Convolution14"
  scale_param {
    bias_term: true
  }
}
layer {
  name: "ReLU14"
  type: "ReLU"
  bottom: "Convolution14"
  top: "Convolution14"
}
layer {
  name: "Convolution15"
  type: "Convolution"
  bottom: "Convolution14"
  top: "Convolution15"
  param {
    lr_mult: 1
    decay_mult: 1
  }
  param {
    lr_mult: 2
    decay_mult: 0
  }
  convolution_param {
    num_output: 16
    pad: 1
    kernel_size: 3
    stride: 1
    weight_filler {
      type: "msra"
    }
    bias_filler {
      type: "constant"
      value: 0
    }
  }
}
layer {
  name: "BatchNorm15"
  type: "BatchNorm"
  bottom: "Convolution15"
  top: "Convolution15"
  param {
    lr_mult: 0
    decay_mult: 0
  }
  param {
    lr_mult: 0
    decay_mult: 0
  }
  param {
    lr_mult: 0
    decay_mult: 0
  }
}
layer {
  name: "Scale15"
  type: "Scale"
  bottom: "Convolution15"
  top: "Convolution15"
  scale_param {
    bias_term: true
  }
}
layer {
  name: "Eltwise7"
  type: "Eltwise"
  bottom: "Eltwise6"
  bottom: "Convolution15"
  top: "Eltwise7"
  eltwise_param {
    operation: SUM
  }
}
layer {
  name: "ReLU15"
  type: "ReLU"
  bottom: "Eltwise7"
  top: "Eltwise7"
}
layer {
  name: "Convolution16"
  type: "Convolution"
  bottom: "Eltwise7"
  top: "Convolution16"
  param {
    lr_mult: 1
    decay_mult: 1
  }
  param {
    lr_mult: 2
    decay_mult: 0
  }
  convolution_param {
    num_output: 16
    pad: 1
    kernel_size: 3
    stride: 1
    weight_filler {
      type: "msra"
    }
    bias_filler {
      type: "constant"
      value: 0
    }
  }
}
layer {
  name: "BatchNorm16"
  type: "BatchNorm"
  bottom: "Convolution16"
  top: "Convolution16"
  param {
    lr_mult: 0
    decay_mult: 0
  }
  param {
    lr_mult: 0
    decay_mult: 0
  }
  param {
    lr_mult: 0
    decay_mult: 0
  }
}
layer {
  name: "Scale16"
  type: "Scale"
  bottom: "Convolution16"
  top: "Convolution16"
  scale_param {
    bias_term: true
  }
}
layer {
  name: "ReLU16"
  type: "ReLU"
  bottom: "Convolution16"
  top: "Convolution16"
}
layer {
  name: "Convolution17"
  type: "Convolution"
  bottom: "Convolution16"
  top: "Convolution17"
  param {
    lr_mult: 1
    decay_mult: 1
  }
  param {
    lr_mult: 2
    decay_mult: 0
  }
  convolution_param {
    num_output: 16
    pad: 1
    kernel_size: 3
    stride: 1
    weight_filler {
      type: "msra"
    }
    bias_filler {
      type: "constant"
      value: 0
    }
  }
}
layer {
  name: "BatchNorm17"
  type: "BatchNorm"
  bottom: "Convolution17"
  top: "Convolution17"
  param {
    lr_mult: 0
    decay_mult: 0
  }
  param {
    lr_mult: 0
    decay_mult: 0
  }
  param {
    lr_mult: 0
    decay_mult: 0
  }
}
layer {
  name: "Scale17"
  type: "Scale"
  bottom: "Convolution17"
  top: "Convolution17"
  scale_param {
    bias_term: true
  }
}
layer {
  name: "Eltwise8"
  type: "Eltwise"
  bottom: "Eltwise7"
  bottom: "Convolution17"
  top: "Eltwise8"
  eltwise_param {
    operation: SUM
  }
}
layer {
  name: "ReLU17"
  type: "ReLU"
  bottom: "Eltwise8"
  top: "Eltwise8"
}
layer {
  name: "Convolution18"
  type: "Convolution"
  bottom: "Eltwise8"
  top: "Convolution18"
  param {
    lr_mult: 1
    decay_mult: 1
  }
  param {
    lr_mult: 2
    decay_mult: 0
  }
  convolution_param {
    num_output: 16
    pad: 1
    kernel_size: 3
    stride: 1
    weight_filler {
      type: "msra"
    }
    bias_filler {
      type: "constant"
      value: 0
    }
  }
}
layer {
  name: "BatchNorm18"
  type: "BatchNorm"
  bottom: "Convolution18"
  top: "Convolution18"
  param {
    lr_mult: 0
    decay_mult: 0
  }
  param {
    lr_mult: 0
    decay_mult: 0
  }
  param {
    lr_mult: 0
    decay_mult: 0
  }
}
layer {
  name: "Scale18"
  type: "Scale"
  bottom: "Convolution18"
  top: "Convolution18"
  scale_param {
    bias_term: true
  }
}
layer {
  name: "ReLU18"
  type: "ReLU"
  bottom: "Convolution18"
  top: "Convolution18"
}
layer {
  name: "Convolution19"
  type: "Convolution"
  bottom: "Convolution18"
  top: "Convolution19"
  param {
    lr_mult: 1
    decay_mult: 1
  }
  param {
    lr_mult: 2
    decay_mult: 0
  }
  convolution_param {
    num_output: 16
    pad: 1
    kernel_size: 3
    stride: 1
    weight_filler {
      type: "msra"
    }
    bias_filler {
      type: "constant"
      value: 0
    }
  }
}
layer {
  name: "BatchNorm19"
  type: "BatchNorm"
  bottom: "Convolution19"
  top: "Convolution19"
  param {
    lr_mult: 0
    decay_mult: 0
  }
  param {
    lr_mult: 0
    decay_mult: 0
  }
  param {
    lr_mult: 0
    decay_mult: 0
  }
}
layer {
  name: "Scale19"
  type: "Scale"
  bottom: "Convolution19"
  top: "Convolution19"
  scale_param {
    bias_term: true
  }
}
layer {
  name: "Eltwise9"
  type: "Eltwise"
  bottom: "Eltwise8"
  bottom: "Convolution19"
  top: "Eltwise9"
  eltwise_param {
    operation: SUM
  }
}
layer {
  name: "ReLU19"
  type: "ReLU"
  bottom: "Eltwise9"
  top: "Eltwise9"
}
layer {
  name: "Convolution20"
  type: "Convolution"
  bottom: "Eltwise9"
  top: "Convolution20"
  param {
    lr_mult: 1
    decay_mult: 1
  }
  param {
    lr_mult: 2
    decay_mult: 0
  }
  convolution_param {
    num_output: 32
    pad: 0
    kernel_size: 1
    stride: 2
    weight_filler {
      type: "msra"
    }
    bias_filler {
      type: "constant"
      value: 0
    }
  }
}
layer {
  name: "BatchNorm20"
  type: "BatchNorm"
  bottom: "Convolution20"
  top: "Convolution20"
  param {
    lr_mult: 0
    decay_mult: 0
  }
  param {
    lr_mult: 0
    decay_mult: 0
  }
  param {
    lr_mult: 0
    decay_mult: 0
  }
}
layer {
  name: "Scale20"
  type: "Scale"
  bottom: "Convolution20"
  top: "Convolution20"
  scale_param {
    bias_term: true
  }
}
layer {
  name: "Convolution21"
  type: "Convolution"
  bottom: "Eltwise9"
  top: "Convolution21"
  param {
    lr_mult: 1
    decay_mult: 1
  }
  param {
    lr_mult: 2
    decay_mult: 0
  }
  convolution_param {
    num_output: 32
    pad: 1
    kernel_size: 3
    stride: 2
    weight_filler {
      type: "msra"
    }
    bias_filler {
      type: "constant"
      value: 0
    }
  }
}
layer {
  name: "BatchNorm21"
  type: "BatchNorm"
  bottom: "Convolution21"
  top: "Convolution21"
  param {
    lr_mult: 0
    decay_mult: 0
  }
  param {
    lr_mult: 0
    decay_mult: 0
  }
  param {
    lr_mult: 0
    decay_mult: 0
  }
}
layer {
  name: "Scale21"
  type: "Scale"
  bottom: "Convolution21"
  top: "Convolution21"
  scale_param {
    bias_term: true
  }
}
layer {
  name: "ReLU20"
  type: "ReLU"
  bottom: "Convolution21"
  top: "Convolution21"
}
layer {
  name: "Convolution22"
  type: "Convolution"
  bottom: "Convolution21"
  top: "Convolution22"
  param {
    lr_mult: 1
    decay_mult: 1
  }
  param {
    lr_mult: 2
    decay_mult: 0
  }
  convolution_param {
    num_output: 32
    pad: 1
    kernel_size: 3
    stride: 1
    weight_filler {
      type: "msra"
    }
    bias_filler {
      type: "constant"
      value: 0
    }
  }
}
layer {
  name: "BatchNorm22"
  type: "BatchNorm"
  bottom: "Convolution22"
  top: "Convolution22"
  param {
    lr_mult: 0
    decay_mult: 0
  }
  param {
    lr_mult: 0
    decay_mult: 0
  }
  param {
    lr_mult: 0
    decay_mult: 0
  }
}
layer {
  name: "Scale22"
  type: "Scale"
  bottom: "Convolution22"
  top: "Convolution22"
  scale_param {
    bias_term: true
  }
}
layer {
  name: "Eltwise10"
  type: "Eltwise"
  bottom: "Convolution20"
  bottom: "Convolution22"
  top: "Eltwise10"
  eltwise_param {
    operation: SUM
  }
}
layer {
  name: "ReLU21"
  type: "ReLU"
  bottom: "Eltwise10"
  top: "Eltwise10"
}
layer {
  name: "Convolution23"
  type: "Convolution"
  bottom: "Eltwise10"
  top: "Convolution23"
  param {
    lr_mult: 1
    decay_mult: 1
  }
  param {
    lr_mult: 2
    decay_mult: 0
  }
  convolution_param {
    num_output: 32
    pad: 1
    kernel_size: 3
    stride: 1
    weight_filler {
      type: "msra"
    }
    bias_filler {
      type: "constant"
      value: 0
    }
  }
}
layer {
  name: "BatchNorm23"
  type: "BatchNorm"
  bottom: "Convolution23"
  top: "Convolution23"
  param {
    lr_mult: 0
    decay_mult: 0
  }
  param {
    lr_mult: 0
    decay_mult: 0
  }
  param {
    lr_mult: 0
    decay_mult: 0
  }
}
layer {
  name: "Scale23"
  type: "Scale"
  bottom: "Convolution23"
  top: "Convolution23"
  scale_param {
    bias_term: true
  }
}
layer {
  name: "ReLU22"
  type: "ReLU"
  bottom: "Convolution23"
  top: "Convolution23"
}
layer {
  name: "Convolution24"
  type: "Convolution"
  bottom: "Convolution23"
  top: "Convolution24"
  param {
    lr_mult: 1
    decay_mult: 1
  }
  param {
    lr_mult: 2
    decay_mult: 0
  }
  convolution_param {
    num_output: 32
    pad: 1
    kernel_size: 3
    stride: 1
    weight_filler {
      type: "msra"
    }
    bias_filler {
      type: "constant"
      value: 0
    }
  }
}
layer {
  name: "BatchNorm24"
  type: "BatchNorm"
  bottom: "Convolution24"
  top: "Convolution24"
  param {
    lr_mult: 0
    decay_mult: 0
  }
  param {
    lr_mult: 0
    decay_mult: 0
  }
  param {
    lr_mult: 0
    decay_mult: 0
  }
}
layer {
  name: "Scale24"
  type: "Scale"
  bottom: "Convolution24"
  top: "Convolution24"
  scale_param {
    bias_term: true
  }
}
layer {
  name: "Eltwise11"
  type: "Eltwise"
  bottom: "Eltwise10"
  bottom: "Convolution24"
  top: "Eltwise11"
  eltwise_param {
    operation: SUM
  }
}
layer {
  name: "ReLU23"
  type: "ReLU"
  bottom: "Eltwise11"
  top: "Eltwise11"
}
layer {
  name: "Convolution25"
  type: "Convolution"
  bottom: "Eltwise11"
  top: "Convolution25"
  param {
    lr_mult: 1
    decay_mult: 1
  }
  param {
    lr_mult: 2
    decay_mult: 0
  }
  convolution_param {
    num_output: 32
    pad: 1
    kernel_size: 3
    stride: 1
    weight_filler {
      type: "msra"
    }
    bias_filler {
      type: "constant"
      value: 0
    }
  }
}
layer {
  name: "BatchNorm25"
  type: "BatchNorm"
  bottom: "Convolution25"
  top: "Convolution25"
  param {
    lr_mult: 0
    decay_mult: 0
  }
  param {
    lr_mult: 0
    decay_mult: 0
  }
  param {
    lr_mult: 0
    decay_mult: 0
  }
}
layer {
  name: "Scale25"
  type: "Scale"
  bottom: "Convolution25"
  top: "Convolution25"
  scale_param {
    bias_term: true
  }
}
layer {
  name: "ReLU24"
  type: "ReLU"
  bottom: "Convolution25"
  top: "Convolution25"
}
layer {
  name: "Convolution26"
  type: "Convolution"
  bottom: "Convolution25"
  top: "Convolution26"
  param {
    lr_mult: 1
    decay_mult: 1
  }
  param {
    lr_mult: 2
    decay_mult: 0
  }
  convolution_param {
    num_output: 32
    pad: 1
    kernel_size: 3
    stride: 1
    weight_filler {
      type: "msra"
    }
    bias_filler {
      type: "constant"
      value: 0
    }
  }
}
layer {
  name: "BatchNorm26"
  type: "BatchNorm"
  bottom: "Convolution26"
  top: "Convolution26"
  param {
    lr_mult: 0
    decay_mult: 0
  }
  param {
    lr_mult: 0
    decay_mult: 0
  }
  param {
    lr_mult: 0
    decay_mult: 0
  }
}
layer {
  name: "Scale26"
  type: "Scale"
  bottom: "Convolution26"
  top: "Convolution26"
  scale_param {
    bias_term: true
  }
}
layer {
  name: "Eltwise12"
  type: "Eltwise"
  bottom: "Eltwise11"
  bottom: "Convolution26"
  top: "Eltwise12"
  eltwise_param {
    operation: SUM
  }
}
layer {
  name: "ReLU25"
  type: "ReLU"
  bottom: "Eltwise12"
  top: "Eltwise12"
}
layer {
  name: "Convolution27"
  type: "Convolution"
  bottom: "Eltwise12"
  top: "Convolution27"
  param {
    lr_mult: 1
    decay_mult: 1
  }
  param {
    lr_mult: 2
    decay_mult: 0
  }
  convolution_param {
    num_output: 32
    pad: 1
    kernel_size: 3
    stride: 1
    weight_filler {
      type: "msra"
    }
    bias_filler {
      type: "constant"
      value: 0
    }
  }
}
layer {
  name: "BatchNorm27"
  type: "BatchNorm"
  bottom: "Convolution27"
  top: "Convolution27"
  param {
    lr_mult: 0
    decay_mult: 0
  }
  param {
    lr_mult: 0
    decay_mult: 0
  }
  param {
    lr_mult: 0
    decay_mult: 0
  }
}
layer {
  name: "Scale27"
  type: "Scale"
  bottom: "Convolution27"
  top: "Convolution27"
  scale_param {
    bias_term: true
  }
}
layer {
  name: "ReLU26"
  type: "ReLU"
  bottom: "Convolution27"
  top: "Convolution27"
}
layer {
  name: "Convolution28"
  type: "Convolution"
  bottom: "Convolution27"
  top: "Convolution28"
  param {
    lr_mult: 1
    decay_mult: 1
  }
  param {
    lr_mult: 2
    decay_mult: 0
  }
  convolution_param {
    num_output: 32
    pad: 1
    kernel_size: 3
    stride: 1
    weight_filler {
      type: "msra"
    }
    bias_filler {
      type: "constant"
      value: 0
    }
  }
}
layer {
  name: "BatchNorm28"
  type: "BatchNorm"
  bottom: "Convolution28"
  top: "Convolution28"
  param {
    lr_mult: 0
    decay_mult: 0
  }
  param {
    lr_mult: 0
    decay_mult: 0
  }
  param {
    lr_mult: 0
    decay_mult: 0
  }
}
layer {
  name: "Scale28"
  type: "Scale"
  bottom: "Convolution28"
  top: "Convolution28"
  scale_param {
    bias_term: true
  }
}
layer {
  name: "Eltwise13"
  type: "Eltwise"
  bottom: "Eltwise12"
  bottom: "Convolution28"
  top: "Eltwise13"
  eltwise_param {
    operation: SUM
  }
}
layer {
  name: "ReLU27"
  type: "ReLU"
  bottom: "Eltwise13"
  top: "Eltwise13"
}
layer {
  name: "Convolution29"
  type: "Convolution"
  bottom: "Eltwise13"
  top: "Convolution29"
  param {
    lr_mult: 1
    decay_mult: 1
  }
  param {
    lr_mult: 2
    decay_mult: 0
  }
  convolution_param {
    num_output: 32
    pad: 1
    kernel_size: 3
    stride: 1
    weight_filler {
      type: "msra"
    }
    bias_filler {
      type: "constant"
      value: 0
    }
  }
}
layer {
  name: "BatchNorm29"
  type: "BatchNorm"
  bottom: "Convolution29"
  top: "Convolution29"
  param {
    lr_mult: 0
    decay_mult: 0
  }
  param {
    lr_mult: 0
    decay_mult: 0
  }
  param {
    lr_mult: 0
    decay_mult: 0
  }
}
layer {
  name: "Scale29"
  type: "Scale"
  bottom: "Convolution29"
  top: "Convolution29"
  scale_param {
    bias_term: true
  }
}
layer {
  name: "ReLU28"
  type: "ReLU"
  bottom: "Convolution29"
  top: "Convolution29"
}
layer {
  name: "Convolution30"
  type: "Convolution"
  bottom: "Convolution29"
  top: "Convolution30"
  param {
    lr_mult: 1
    decay_mult: 1
  }
  param {
    lr_mult: 2
    decay_mult: 0
  }
  convolution_param {
    num_output: 32
    pad: 1
    kernel_size: 3
    stride: 1
    weight_filler {
      type: "msra"
    }
    bias_filler {
      type: "constant"
      value: 0
    }
  }
}
layer {
  name: "BatchNorm30"
  type: "BatchNorm"
  bottom: "Convolution30"
  top: "Convolution30"
  param {
    lr_mult: 0
    decay_mult: 0
  }
  param {
    lr_mult: 0
    decay_mult: 0
  }
  param {
    lr_mult: 0
    decay_mult: 0
  }
}
layer {
  name: "Scale30"
  type: "Scale"
  bottom: "Convolution30"
  top: "Convolution30"
  scale_param {
    bias_term: true
  }
}
layer {
  name: "Eltwise14"
  type: "Eltwise"
  bottom: "Eltwise13"
  bottom: "Convolution30"
  top: "Eltwise14"
  eltwise_param {
    operation: SUM
  }
}
layer {
  name: "ReLU29"
  type: "ReLU"
  bottom: "Eltwise14"
  top: "Eltwise14"
}
layer {
  name: "Convolution31"
  type: "Convolution"
  bottom: "Eltwise14"
  top: "Convolution31"
  param {
    lr_mult: 1
    decay_mult: 1
  }
  param {
    lr_mult: 2
    decay_mult: 0
  }
  convolution_param {
    num_output: 32
    pad: 1
    kernel_size: 3
    stride: 1
    weight_filler {
      type: "msra"
    }
    bias_filler {
      type: "constant"
      value: 0
    }
  }
}
layer {
  name: "BatchNorm31"
  type: "BatchNorm"
  bottom: "Convolution31"
  top: "Convolution31"
  param {
    lr_mult: 0
    decay_mult: 0
  }
  param {
    lr_mult: 0
    decay_mult: 0
  }
  param {
    lr_mult: 0
    decay_mult: 0
  }
}
layer {
  name: "Scale31"
  type: "Scale"
  bottom: "Convolution31"
  top: "Convolution31"
  scale_param {
    bias_term: true
  }
}
layer {
  name: "ReLU30"
  type: "ReLU"
  bottom: "Convolution31"
  top: "Convolution31"
}
layer {
  name: "Convolution32"
  type: "Convolution"
  bottom: "Convolution31"
  top: "Convolution32"
  param {
    lr_mult: 1
    decay_mult: 1
  }
  param {
    lr_mult: 2
    decay_mult: 0
  }
  convolution_param {
    num_output: 32
    pad: 1
    kernel_size: 3
    stride: 1
    weight_filler {
      type: "msra"
    }
    bias_filler {
      type: "constant"
      value: 0
    }
  }
}
layer {
  name: "BatchNorm32"
  type: "BatchNorm"
  bottom: "Convolution32"
  top: "Convolution32"
  param {
    lr_mult: 0
    decay_mult: 0
  }
  param {
    lr_mult: 0
    decay_mult: 0
  }
  param {
    lr_mult: 0
    decay_mult: 0
  }
}
layer {
  name: "Scale32"
  type: "Scale"
  bottom: "Convolution32"
  top: "Convolution32"
  scale_param {
    bias_term: true
  }
}
layer {
  name: "Eltwise15"
  type: "Eltwise"
  bottom: "Eltwise14"
  bottom: "Convolution32"
  top: "Eltwise15"
  eltwise_param {
    operation: SUM
  }
}
layer {
  name: "ReLU31"
  type: "ReLU"
  bottom: "Eltwise
I0825 11:12:20.306347  2068 layer_factory.hpp:77] Creating layer Data1
I0825 11:12:20.306617  2068 db_lmdb.cpp:35] Opened lmdb /home/lijianfei/datasets/cifar10_40/train_lmdb
I0825 11:12:20.306713  2068 net.cpp:128] Creating Layer Data1
I0825 11:12:20.306756  2068 net.cpp:522] Data1 -> Data1
I0825 11:12:20.306820  2068 net.cpp:522] Data1 -> Data2
I0825 11:12:20.308640  2068 data_layer.cpp:45] output data size: 64,3,32,32
I0825 11:12:20.336519  2068 net.cpp:172] Setting up Data1
I0825 11:12:20.336652  2068 net.cpp:186] Top shape: 64 3 32 32 (196608)
I0825 11:12:20.336693  2068 net.cpp:186] Top shape: 64 (64)
I0825 11:12:20.336724  2068 net.cpp:194] Memory required for data: 786688
I0825 11:12:20.336767  2068 layer_factory.hpp:77] Creating layer Convolution1
I0825 11:12:20.336832  2068 net.cpp:128] Creating Layer Convolution1
I0825 11:12:20.336869  2068 net.cpp:558] Convolution1 <- Data1
I0825 11:12:20.336920  2068 net.cpp:522] Convolution1 -> Convolution1
I0825 11:12:21.631618  2068 net.cpp:172] Setting up Convolution1
I0825 11:12:21.631737  2068 net.cpp:186] Top shape: 64 16 32 32 (1048576)
I0825 11:12:21.631759  2068 net.cpp:194] Memory required for data: 4980992
I0825 11:12:21.631816  2068 layer_factory.hpp:77] Creating layer BatchNorm1
I0825 11:12:21.631850  2068 net.cpp:128] Creating Layer BatchNorm1
I0825 11:12:21.631870  2068 net.cpp:558] BatchNorm1 <- Convolution1
I0825 11:12:21.631893  2068 net.cpp:509] BatchNorm1 -> Convolution1 (in-place)
I0825 11:12:21.632151  2068 net.cpp:172] Setting up BatchNorm1
I0825 11:12:21.632175  2068 net.cpp:186] Top shape: 64 16 32 32 (1048576)
I0825 11:12:21.632206  2068 net.cpp:194] Memory required for data: 9175296
I0825 11:12:21.632236  2068 layer_factory.hpp:77] Creating layer Scale1
I0825 11:12:21.632261  2068 net.cpp:128] Creating Layer Scale1
I0825 11:12:21.632279  2068 net.cpp:558] Scale1 <- Convolution1
I0825 11:12:21.632299  2068 net.cpp:509] Scale1 -> Convolution1 (in-place)
I0825 11:12:21.632371  2068 layer_factory.hpp:77] Creating layer Scale1
I0825 11:12:21.632519  2068 net.cpp:172] Setting up Scale1
I0825 11:12:21.632541  2068 net.cpp:186] Top shape: 64 16 32 32 (1048576)
I0825 11:12:21.632560  2068 net.cpp:194] Memory required for data: 13369600
I0825 11:12:21.632582  2068 layer_factory.hpp:77] Creating layer ReLU1
I0825 11:12:21.632618  2068 net.cpp:128] Creating Layer ReLU1
I0825 11:12:21.632637  2068 net.cpp:558] ReLU1 <- Convolution1
I0825 11:12:21.632656  2068 net.cpp:509] ReLU1 -> Convolution1 (in-place)
I0825 11:12:21.633347  2068 net.cpp:172] Setting up ReLU1
I0825 11:12:21.633378  2068 net.cpp:186] Top shape: 64 16 32 32 (1048576)
I0825 11:12:21.633396  2068 net.cpp:194] Memory required for data: 17563904
I0825 11:12:21.633414  2068 layer_factory.hpp:77] Creating layer Convolution1_ReLU1_0_split
I0825 11:12:21.633437  2068 net.cpp:128] Creating Layer Convolution1_ReLU1_0_split
I0825 11:12:21.633456  2068 net.cpp:558] Convolution1_ReLU1_0_split <- Convolution1
I0825 11:12:21.633477  2068 net.cpp:522] Convolution1_ReLU1_0_split -> Convolution1_ReLU1_0_split_0
I0825 11:12:21.633502  2068 net.cpp:522] Convolution1_ReLU1_0_split -> Convolution1_ReLU1_0_split_1
I0825 11:12:21.633568  2068 net.cpp:172] Setting up Convolution1_ReLU1_0_split
I0825 11:12:21.633589  2068 net.cpp:186] Top shape: 64 16 32 32 (1048576)
I0825 11:12:21.633608  2068 net.cpp:186] Top shape: 64 16 32 32 (1048576)
I0825 11:12:21.633625  2068 net.cpp:194] Memory required for data: 25952512
I0825 11:12:21.633643  2068 layer_factory.hpp:77] Creating layer Convolution2
I0825 11:12:21.633671  2068 net.cpp:128] Creating Layer Convolution2
I0825 11:12:21.633689  2068 net.cpp:558] Convolution2 <- Convolution1_ReLU1_0_split_0
I0825 11:12:21.633710  2068 net.cpp:522] Convolution2 -> Convolution2
I0825 11:12:21.638247  2068 net.cpp:172] Setting up Convolution2
I0825 11:12:21.638298  2068 net.cpp:186] Top shape: 64 16 32 32 (1048576)
I0825 11:12:21.638315  2068 net.cpp:194] Memory required for data: 30146816
I0825 11:12:21.638350  2068 layer_factory.hpp:77] Creating layer BatchNorm2
I0825 11:12:21.638375  2068 net.cpp:128] Creating Layer BatchNorm2
I0825 11:12:21.638392  2068 net.cpp:558] BatchNorm2 <- Convolution2
I0825 11:12:21.638412  2068 net.cpp:509] BatchNorm2 -> Convolution2 (in-place)
I0825 11:12:21.638655  2068 net.cpp:172] Setting up BatchNorm2
I0825 11:12:21.638676  2068 net.cpp:186] Top shape: 64 16 32 32 (1048576)
I0825 11:12:21.638692  2068 net.cpp:194] Memory required for data: 34341120
I0825 11:12:21.638716  2068 layer_factory.hpp:77] Creating layer Scale2
I0825 11:12:21.638737  2068 net.cpp:128] Creating Layer Scale2
I0825 11:12:21.638754  2068 net.cpp:558] Scale2 <- Convolution2
I0825 11:12:21.638773  2068 net.cpp:509] Scale2 -> Convolution2 (in-place)
I0825 11:12:21.638833  2068 layer_factory.hpp:77] Creating layer Scale2
I0825 11:12:21.638972  2068 net.cpp:172] Setting up Scale2
I0825 11:12:21.638993  2068 net.cpp:186] Top shape: 64 16 32 32 (1048576)
I0825 11:12:21.639009  2068 net.cpp:194] Memory required for data: 38535424
I0825 11:12:21.639030  2068 layer_factory.hpp:77] Creating layer ReLU2
I0825 11:12:21.639050  2068 net.cpp:128] Creating Layer ReLU2
I0825 11:12:21.639073  2068 net.cpp:558] ReLU2 <- Convolution2
I0825 11:12:21.639092  2068 net.cpp:509] ReLU2 -> Convolution2 (in-place)
I0825 11:12:21.640437  2068 net.cpp:172] Setting up ReLU2
I0825 11:12:21.640467  2068 net.cpp:186] Top shape: 64 16 32 32 (1048576)
I0825 11:12:21.640485  2068 net.cpp:194] Memory required for data: 42729728
I0825 11:12:21.640502  2068 layer_factory.hpp:77] Creating layer Convolution3
I0825 11:12:21.640528  2068 net.cpp:128] Creating Layer Convolution3
I0825 11:12:21.640558  2068 net.cpp:558] Convolution3 <- Convolution2
I0825 11:12:21.640579  2068 net.cpp:522] Convolution3 -> Convolution3
I0825 11:12:21.653664  2068 net.cpp:172] Setting up Convolution3
I0825 11:12:21.653709  2068 net.cpp:186] Top shape: 64 16 32 32 (1048576)
I0825 11:12:21.653728  2068 net.cpp:194] Memory required for data: 46924032
I0825 11:12:21.653751  2068 layer_factory.hpp:77] Creating layer BatchNorm3
I0825 11:12:21.653772  2068 net.cpp:128] Creating Layer BatchNorm3
I0825 11:12:21.653790  2068 net.cpp:558] BatchNorm3 <- Convolution3
I0825 11:12:21.653810  2068 net.cpp:509] BatchNorm3 -> Convolution3 (in-place)
I0825 11:12:21.654053  2068 net.cpp:172] Setting up BatchNorm3
I0825 11:12:21.654088  2068 net.cpp:186] Top shape: 64 16 32 32 (1048576)
I0825 11:12:21.654105  2068 net.cpp:194] Memory required for data: 51118336
I0825 11:12:21.654132  2068 layer_factory.hpp:77] Creating layer Scale3
I0825 11:12:21.654153  2068 net.cpp:128] Creating Layer Scale3
I0825 11:12:21.654170  2068 net.cpp:558] Scale3 <- Convolution3
I0825 11:12:21.654189  2068 net.cpp:509] Scale3 -> Convolution3 (in-place)
I0825 11:12:21.654249  2068 layer_factory.hpp:77] Creating layer Scale3
I0825 11:12:21.654402  2068 net.cpp:172] Setting up Scale3
I0825 11:12:21.654424  2068 net.cpp:186] Top shape: 64 16 32 32 (1048576)
I0825 11:12:21.654441  2068 net.cpp:194] Memory required for data: 55312640
I0825 11:12:21.654464  2068 layer_factory.hpp:77] Creating layer Eltwise1
I0825 11:12:21.654485  2068 net.cpp:128] Creating Layer Eltwise1
I0825 11:12:21.654502  2068 net.cpp:558] Eltwise1 <- Convolution1_ReLU1_0_split_1
I0825 11:12:21.654520  2068 net.cpp:558] Eltwise1 <- Convolution3
I0825 11:12:21.654541  2068 net.cpp:522] Eltwise1 -> Eltwise1
I0825 11:12:21.654589  2068 net.cpp:172] Setting up Eltwise1
I0825 11:12:21.654611  2068 net.cpp:186] Top shape: 64 16 32 32 (1048576)
I0825 11:12:21.654628  2068 net.cpp:194] Memory required for data: 59506944
I0825 11:12:21.654644  2068 layer_factory.hpp:77] Creating layer ReLU3
I0825 11:12:21.654664  2068 net.cpp:128] Creating Layer ReLU3
I0825 11:12:21.654680  2068 net.cpp:558] ReLU3 <- Eltwise1
I0825 11:12:21.654700  2068 net.cpp:509] ReLU3 -> Eltwise1 (in-place)
I0825 11:12:21.657905  2068 net.cpp:172] Setting up ReLU3
I0825 11:12:21.657946  2068 net.cpp:186] Top shape: 64 16 32 32 (1048576)
I0825 11:12:21.657964  2068 net.cpp:194] Memory required for data: 63701248
I0825 11:12:21.657982  2068 layer_factory.hpp:77] Creating layer Eltwise1_ReLU3_0_split
I0825 11:12:21.658004  2068 net.cpp:128] Creating Layer Eltwise1_ReLU3_0_split
I0825 11:12:21.658021  2068 net.cpp:558] Eltwise1_ReLU3_0_split <- Eltwise1
I0825 11:12:21.658042  2068 net.cpp:522] Eltwise1_ReLU3_0_split -> Eltwise1_ReLU3_0_split_0
I0825 11:12:21.658066  2068 net.cpp:522] Eltwise1_ReLU3_0_split -> Eltwise1_ReLU3_0_split_1
I0825 11:12:21.658130  2068 net.cpp:172] Setting up Eltwise1_ReLU3_0_split
I0825 11:12:21.658152  2068 net.cpp:186] Top shape: 64 16 32 32 (1048576)
I0825 11:12:21.658171  2068 net.cpp:186] Top shape: 64 16 32 32 (1048576)
I0825 11:12:21.658188  2068 net.cpp:194] Memory required for data: 72089856
I0825 11:12:21.658205  2068 layer_factory.hpp:77] Creating layer Convolution4
I0825 11:12:21.658231  2068 net.cpp:128] Creating Layer Convolution4
I0825 11:12:21.658248  2068 net.cpp:558] Convolution4 <- Eltwise1_ReLU3_0_split_0
I0825 11:12:21.658268  2068 net.cpp:522] Convolution4 -> Convolution4
I0825 11:12:21.671197  2068 net.cpp:172] Setting up Convolution4
I0825 11:12:21.671241  2068 net.cpp:186] Top shape: 64 16 32 32 (1048576)
I0825 11:12:21.671257  2068 net.cpp:194] Memory required for data: 76284160
I0825 11:12:21.671281  2068 layer_factory.hpp:77] Creating layer BatchNorm4
I0825 11:12:21.671303  2068 net.cpp:128] Creating Layer BatchNorm4
I0825 11:12:21.671320  2068 net.cpp:558] BatchNorm4 <- Convolution4
I0825 11:12:21.671340  2068 net.cpp:509] BatchNorm4 -> Convolution4 (in-place)
I0825 11:12:21.671586  2068 net.cpp:172] Setting up BatchNorm4
I0825 11:12:21.671608  2068 net.cpp:186] Top shape: 64 16 32 32 (1048576)
I0825 11:12:21.671633  2068 net.cpp:194] Memory required for data: 80478464
I0825 11:12:21.671656  2068 layer_factory.hpp:77] Creating layer Scale4
I0825 11:12:21.671677  2068 net.cpp:128] Creating Layer Scale4
I0825 11:12:21.671694  2068 net.cpp:558] Scale4 <- Convolution4
I0825 11:12:21.671712  2068 net.cpp:509] Scale4 -> Convolution4 (in-place)
I0825 11:12:21.671773  2068 layer_factory.hpp:77] Creating layer Scale4
I0825 11:12:21.671917  2068 net.cpp:172] Setting up Scale4
I0825 11:12:21.671939  2068 net.cpp:186] Top shape: 64 16 32 32 (1048576)
I0825 11:12:21.671955  2068 net.cpp:194] Memory required for data: 84672768
I0825 11:12:21.671977  2068 layer_factory.hpp:77] Creating layer ReLU4
I0825 11:12:21.672004  2068 net.cpp:128] Creating Layer ReLU4
I0825 11:12:21.672021  2068 net.cpp:558] ReLU4 <- Convolution4
I0825 11:12:21.672040  2068 net.cpp:509] ReLU4 -> Convolution4 (in-place)
I0825 11:12:21.673527  2068 net.cpp:172] Setting up ReLU4
I0825 11:12:21.673555  2068 net.cpp:186] Top shape: 64 16 32 32 (1048576)
I0825 11:12:21.673573  2068 net.cpp:194] Memory required for data: 88867072
I0825 11:12:21.673589  2068 layer_factory.hpp:77] Creating layer Convolution5
I0825 11:12:21.673614  2068 net.cpp:128] Creating Layer Convolution5
I0825 11:12:21.673632  2068 net.cpp:558] Convolution5 <- Convolution4
I0825 11:12:21.673652  2068 net.cpp:522] Convolution5 -> Convolution5
I0825 11:12:21.680537  2068 net.cpp:172] Setting up Convolution5
I0825 11:12:21.680579  2068 net.cpp:186] Top shape: 64 16 32 32 (1048576)
I0825 11:12:21.680596  2068 net.cpp:194] Memory required for data: 93061376
I0825 11:12:21.680619  2068 layer_factory.hpp:77] Creating layer BatchNorm5
I0825 11:12:21.680642  2068 net.cpp:128] Creating Layer BatchNorm5
I0825 11:12:21.680660  2068 net.cpp:558] BatchNorm5 <- Convolution5
I0825 11:12:21.680680  2068 net.cpp:509] BatchNorm5 -> Convolution5 (in-place)
I0825 11:12:21.680935  2068 net.cpp:172] Setting up BatchNorm5
I0825 11:12:21.680958  2068 net.cpp:186] Top shape: 64 16 32 32 (1048576)
I0825 11:12:21.680974  2068 net.cpp:194] Memory required for data: 97255680
I0825 11:12:21.681001  2068 layer_factory.hpp:77] Creating layer Scale5
I0825 11:12:21.681020  2068 net.cpp:128] Creating Layer Scale5
I0825 11:12:21.681037  2068 net.cpp:558] Scale5 <- Convolution5
I0825 11:12:21.681058  2068 net.cpp:509] Scale5 -> Convolution5 (in-place)
I0825 11:12:21.681120  2068 layer_factory.hpp:77] Creating layer Scale5
I0825 11:12:21.681270  2068 net.cpp:172] Setting up Scale5
I0825 11:12:21.681291  2068 net.cpp:186] Top shape: 64 16 32 32 (1048576)
I0825 11:12:21.681306  2068 net.cpp:194] Memory required for data: 101449984
I0825 11:12:21.681327  2068 layer_factory.hpp:77] Creating layer Eltwise2
I0825 11:12:21.681347  2068 net.cpp:128] Creating Layer Eltwise2
I0825 11:12:21.681363  2068 net.cpp:558] Eltwise2 <- Eltwise1_ReLU3_0_split_1
I0825 11:12:21.681380  2068 net.cpp:558] Eltwise2 <- Convolution5
I0825 11:12:21.681398  2068 net.cpp:522] Eltwise2 -> Eltwise2
I0825 11:12:21.681442  2068 net.cpp:172] Setting up Eltwise2
I0825 11:12:21.681462  2068 net.cpp:186] Top shape: 64 16 32 32 (1048576)
I0825 11:12:21.681478  2068 net.cpp:194] Memory required for data: 105644288
I0825 11:12:21.681493  2068 layer_factory.hpp:77] Creating layer ReLU5
I0825 11:12:21.681510  2068 net.cpp:128] Creating Layer ReLU5
I0825 11:12:21.681526  2068 net.cpp:558] ReLU5 <- Eltwise2
I0825 11:12:21.681543  2068 net.cpp:509] ReLU5 -> Eltwise2 (in-place)
I0825 11:12:21.681815  2068 net.cpp:172] Setting up ReLU5
I0825 11:12:21.681843  2068 net.cpp:186] Top shape: 64 16 32 32 (1048576)
I0825 11:12:21.681857  2068 net.cpp:194] Memory required for data: 109838592
I0825 11:12:21.681874  2068 layer_factory.hpp:77] Creating layer Eltwise2_ReLU5_0_split
I0825 11:12:21.681895  2068 net.cpp:128] Creating Layer Eltwise2_ReLU5_0_split
I0825 11:12:21.681913  2068 net.cpp:558] Eltwise2_ReLU5_0_split <- Eltwise2
I0825 11:12:21.681931  2068 net.cpp:522] Eltwise2_ReLU5_0_split -> Eltwise2_ReLU5_0_split_0
I0825 11:12:21.681952  2068 net.cpp:522] Eltwise2_ReLU5_0_split -> Eltwise2_ReLU5_0_split_1
I0825 11:12:21.682026  2068 net.cpp:172] Setting up Eltwise2_ReLU5_0_split
I0825 11:12:21.682047  2068 net.cpp:186] Top shape: 64 16 32 32 (1048576)
I0825 11:12:21.682065  2068 net.cpp:186] Top shape: 64 16 32 32 (1048576)
I0825 11:12:21.682081  2068 net.cpp:194] Memory required for data: 118227200
I0825 11:12:21.682098  2068 layer_factory.hpp:77] Creating layer Convolution6
I0825 11:12:21.682123  2068 net.cpp:128] Creating Layer Convolution6
I0825 11:12:21.682144  2068 net.cpp:558] Convolution6 <- Eltwise2_ReLU5_0_split_0
I0825 11:12:21.682168  2068 net.cpp:522] Convolution6 -> Convolution6
I0825 11:12:21.687299  2068 net.cpp:172] Setting up Convolution6
I0825 11:12:21.687360  2068 net.cpp:186] Top shape: 64 16 32 32 (1048576)
I0825 11:12:21.687376  2068 net.cpp:194] Memory required for data: 122421504
I0825 11:12:21.687402  2068 layer_factory.hpp:77] Creating layer BatchNorm6
I0825 11:12:21.687422  2068 net.cpp:128] Creating Layer BatchNorm6
I0825 11:12:21.687438  2068 net.cpp:558] BatchNorm6 <- Convolution6
I0825 11:12:21.687461  2068 net.cpp:509] BatchNorm6 -> Convolution6 (in-place)
I0825 11:12:21.687722  2068 net.cpp:172] Setting up BatchNorm6
I0825 11:12:21.687744  2068 net.cpp:186] Top shape: 64 16 32 32 (1048576)
I0825 11:12:21.687760  2068 net.cpp:194] Memory required for data: 126615808
I0825 11:12:21.687783  2068 layer_factory.hpp:77] Creating layer Scale6
I0825 11:12:21.687804  2068 net.cpp:128] Creating Layer Scale6
I0825 11:12:21.687821  2068 net.cpp:558] Scale6 <- Convolution6
I0825 11:12:21.687841  2068 net.cpp:509] Scale6 -> Convolution6 (in-place)
I0825 11:12:21.687903  2068 layer_factory.hpp:77] Creating layer Scale6
I0825 11:12:21.688057  2068 net.cpp:172] Setting up Scale6
I0825 11:12:21.688081  2068 net.cpp:186] Top shape: 64 16 32 32 (1048576)
I0825 11:12:21.688097  2068 net.cpp:194] Memory required for data: 130810112
I0825 11:12:21.688117  2068 layer_factory.hpp:77] Creating layer ReLU6
I0825 11:12:21.688138  2068 net.cpp:128] Creating Layer ReLU6
I0825 11:12:21.688154  2068 net.cpp:558] ReLU6 <- Convolution6
I0825 11:12:21.688172  2068 net.cpp:509] ReLU6 -> Convolution6 (in-place)
I0825 11:12:21.689431  2068 net.cpp:172] Setting up ReLU6
I0825 11:12:21.689474  2068 net.cpp:186] Top shape: 64 16 32 32 (1048576)
I0825 11:12:21.689491  2068 net.cpp:194] Memory required for data: 135004416
I0825 11:12:21.689508  2068 layer_factory.hpp:77] Creating layer Convolution7
I0825 11:12:21.689535  2068 net.cpp:128] Creating Layer Convolution7
I0825 11:12:21.689553  2068 net.cpp:558] Convolution7 <- Convolution6
I0825 11:12:21.689574  2068 net.cpp:522] Convolution7 -> Convolution7
I0825 11:12:21.697849  2068 net.cpp:172] Setting up Convolution7
I0825 11:12:21.697896  2068 net.cpp:186] Top shape: 64 16 32 32 (1048576)
I0825 11:12:21.697913  2068 net.cpp:194] Memory required for data: 139198720
I0825 11:12:21.697937  2068 layer_factory.hpp:77] Creating layer BatchNorm7
I0825 11:12:21.697962  2068 net.cpp:128] Creating Layer BatchNorm7
I0825 11:12:21.697979  2068 net.cpp:558] BatchNorm7 <- Convolution7
I0825 11:12:21.697999  2068 net.cpp:509] BatchNorm7 -> Convolution7 (in-place)
I0825 11:12:21.698266  2068 net.cpp:172] Setting up BatchNorm7
I0825 11:12:21.698288  2068 net.cpp:186] Top shape: 64 16 32 32 (1048576)
I0825 11:12:21.698305  2068 net.cpp:194] Memory required for data: 143393024
I0825 11:12:21.698329  2068 layer_factory.hpp:77] Creating layer Scale7
I0825 11:12:21.698360  2068 net.cpp:128] Creating Layer Scale7
I0825 11:12:21.698379  2068 net.cpp:558] Scale7 <- Convolution7
I0825 11:12:21.698398  2068 net.cpp:509] Scale7 -> Convolution7 (in-place)
I0825 11:12:21.698463  2068 layer_factory.hpp:77] Creating layer Scale7
I0825 11:12:21.698618  2068 net.cpp:172] Setting up Scale7
I0825 11:12:21.698642  2068 net.cpp:186] Top shape: 64 16 32 32 (1048576)
I0825 11:12:21.698658  2068 net.cpp:194] Memory required for data: 147587328
I0825 11:12:21.698680  2068 layer_factory.hpp:77] Creating layer Eltwise3
I0825 11:12:21.698701  2068 net.cpp:128] Creating Layer Eltwise3
I0825 11:12:21.698726  2068 net.cpp:558] Eltwise3 <- Eltwise2_ReLU5_0_split_1
I0825 11:12:21.698745  2068 net.cpp:558] Eltwise3 <- Convolution7
I0825 11:12:21.698765  2068 net.cpp:522] Eltwise3 -> Eltwise3
I0825 11:12:21.698812  2068 net.cpp:172] Setting up Eltwise3
I0825 11:12:21.698833  2068 net.cpp:186] Top shape: 64 16 32 32 (1048576)
I0825 11:12:21.698849  2068 net.cpp:194] Memory required for data: 151781632
I0825 11:12:21.698865  2068 layer_factory.hpp:77] Creating layer ReLU7
I0825 11:12:21.698884  2068 net.cpp:128] Creating Layer ReLU7
I0825 11:12:21.698900  2068 net.cpp:558] ReLU7 <- Eltwise3
I0825 11:12:21.698918  2068 net.cpp:509] ReLU7 -> Eltwise3 (in-place)
I0825 11:12:21.699990  2068 net.cpp:172] Setting up ReLU7
I0825 11:12:21.700018  2068 net.cpp:186] Top shape: 64 16 32 32 (1048576)
I0825 11:12:21.700036  2068 net.cpp:194] Memory required for data: 155975936
I0825 11:12:21.700052  2068 layer_factory.hpp:77] Creating layer Eltwise3_ReLU7_0_split
I0825 11:12:21.700073  2068 net.cpp:128] Creating Layer Eltwise3_ReLU7_0_split
I0825 11:12:21.700093  2068 net.cpp:558] Eltwise3_ReLU7_0_split <- Eltwise3
I0825 11:12:21.700114  2068 net.cpp:522] Eltwise3_ReLU7_0_split -> Eltwise3_ReLU7_0_split_0
I0825 11:12:21.700134  2068 net.cpp:522] Eltwise3_ReLU7_0_split -> Eltwise3_ReLU7_0_split_1
I0825 11:12:21.700201  2068 net.cpp:172] Setting up Eltwise3_ReLU7_0_split
I0825 11:12:21.700222  2068 net.cpp:186] Top shape: 64 16 32 32 (1048576)
I0825 11:12:21.700242  2068 net.cpp:186] Top shape: 64 16 32 32 (1048576)
I0825 11:12:21.700258  2068 net.cpp:194] Memory required for data: 164364544
I0825 11:12:21.700273  2068 layer_factory.hpp:77] Creating layer Convolution8
I0825 11:12:21.700299  2068 net.cpp:128] Creating Layer Convolution8
I0825 11:12:21.700317  2068 net.cpp:558] Convolution8 <- Eltwise3_ReLU7_0_split_0
I0825 11:12:21.700340  2068 net.cpp:522] Convolution8 -> Convolution8
I0825 11:12:21.706943  2068 net.cpp:172] Setting up Convolution8
I0825 11:12:21.706986  2068 net.cpp:186] Top shape: 64 16 32 32 (1048576)
I0825 11:12:21.707003  2068 net.cpp:194] Memory required for data: 168558848
I0825 11:12:21.707027  2068 layer_factory.hpp:77] Creating layer BatchNorm8
I0825 11:12:21.707047  2068 net.cpp:128] Creating Layer BatchNorm8
I0825 11:12:21.707063  2068 net.cpp:558] BatchNorm8 <- Convolution8
I0825 11:12:21.707085  2068 net.cpp:509] BatchNorm8 -> Convolution8 (in-place)
I0825 11:12:21.707351  2068 net.cpp:172] Setting up BatchNorm8
I0825 11:12:21.707373  2068 net.cpp:186] Top shape: 64 16 32 32 (1048576)
I0825 11:12:21.707389  2068 net.cpp:194] Memory required for data: 172753152
I0825 11:12:21.707413  2068 layer_factory.hpp:77] Creating layer Scale8
I0825 11:12:21.707433  2068 net.cpp:128] Creating Layer Scale8
I0825 11:12:21.707450  2068 net.cpp:558] Scale8 <- Convolution8
I0825 11:12:21.707471  2068 net.cpp:509] Scale8 -> Convolution8 (in-place)
I0825 11:12:21.707531  2068 layer_factory.hpp:77] Creating layer Scale8
I0825 11:12:21.707690  2068 net.cpp:172] Setting up Scale8
I0825 11:12:21.707711  2068 net.cpp:186] Top shape: 64 16 32 32 (1048576)
I0825 11:12:21.707727  2068 net.cpp:194] Memory required for data: 176947456
I0825 11:12:21.707748  2068 layer_factory.hpp:77] Creating layer ReLU8
I0825 11:12:21.707767  2068 net.cpp:128] Creating Layer ReLU8
I0825 11:12:21.707782  2068 net.cpp:558] ReLU8 <- Convolution8
I0825 11:12:21.707800  2068 net.cpp:509] ReLU8 -> Convolution8 (in-place)
I0825 11:12:21.709123  2068 net.cpp:172] Setting up ReLU8
I0825 11:12:21.709153  2068 net.cpp:186] Top shape: 64 16 32 32 (1048576)
I0825 11:12:21.709170  2068 net.cpp:194] Memory required for data: 181141760
I0825 11:12:21.709187  2068 layer_factory.hpp:77] Creating layer Convolution9
I0825 11:12:21.709213  2068 net.cpp:128] Creating Layer Convolution9
I0825 11:12:21.709233  2068 net.cpp:558] Convolution9 <- Convolution8
I0825 11:12:21.709257  2068 net.cpp:522] Convolution9 -> Convolution9
I0825 11:12:21.722398  2068 net.cpp:172] Setting up Convolution9
I0825 11:12:21.722442  2068 net.cpp:186] Top shape: 64 16 32 32 (1048576)
I0825 11:12:21.722465  2068 net.cpp:194] Memory required for data: 185336064
I0825 11:12:21.722489  2068 layer_factory.hpp:77] Creating layer BatchNorm9
I0825 11:12:21.722512  2068 net.cpp:128] Creating Layer BatchNorm9
I0825 11:12:21.722528  2068 net.cpp:558] BatchNorm9 <- Convolution9
I0825 11:12:21.722550  2068 net.cpp:509] BatchNorm9 -> Convolution9 (in-place)
I0825 11:12:21.722823  2068 net.cpp:172] Setting up BatchNorm9
I0825 11:12:21.722846  2068 net.cpp:186] Top shape: 64 16 32 32 (1048576)
I0825 11:12:21.722862  2068 net.cpp:194] Memory required for data: 189530368
I0825 11:12:21.722887  2068 layer_factory.hpp:77] Creating layer Scale9
I0825 11:12:21.722906  2068 net.cpp:128] Creating Layer Scale9
I0825 11:12:21.722932  2068 net.cpp:558] Scale9 <- Convolution9
I0825 11:12:21.722951  2068 net.cpp:509] Scale9 -> Convolution9 (in-place)
I0825 11:12:21.723017  2068 layer_factory.hpp:77] Creating layer Scale9
I0825 11:12:21.723173  2068 net.cpp:172] Setting up Scale9
I0825 11:12:21.723194  2068 net.cpp:186] Top shape: 64 16 32 32 (1048576)
I0825 11:12:21.723210  2068 net.cpp:194] Memory required for data: 193724672
I0825 11:12:21.723232  2068 layer_factory.hpp:77] Creating layer Eltwise4
I0825 11:12:21.723254  2068 net.cpp:128] Creating Layer Eltwise4
I0825 11:12:21.723271  2068 net.cpp:558] Eltwise4 <- Eltwise3_ReLU7_0_split_1
I0825 11:12:21.723289  2068 net.cpp:558] Eltwise4 <- Convolution9
I0825 11:12:21.723309  2068 net.cpp:522] Eltwise4 -> Eltwise4
I0825 11:12:21.723354  2068 net.cpp:172] Setting up Eltwise4
I0825 11:12:21.723376  2068 net.cpp:186] Top shape: 64 16 32 32 (1048576)
I0825 11:12:21.723390  2068 net.cpp:194] Memory required for data: 197918976
I0825 11:12:21.723407  2068 layer_factory.hpp:77] Creating layer ReLU9
I0825 11:12:21.723426  2068 net.cpp:128] Creating Layer ReLU9
I0825 11:12:21.723443  2068 net.cpp:558] ReLU9 <- Eltwise4
I0825 11:12:21.723462  2068 net.cpp:509] ReLU9 -> Eltwise4 (in-place)
I0825 11:12:21.726645  2068 net.cpp:172] Setting up ReLU9
I0825 11:12:21.726675  2068 net.cpp:186] Top shape: 64 16 32 32 (1048576)
I0825 11:12:21.726692  2068 net.cpp:194] Memory required for data: 202113280
I0825 11:12:21.726709  2068 layer_factory.hpp:77] Creating layer Eltwise4_ReLU9_0_split
I0825 11:12:21.726730  2068 net.cpp:128] Creating Layer Eltwise4_ReLU9_0_split
I0825 11:12:21.726747  2068 net.cpp:558] Eltwise4_ReLU9_0_split <- Eltwise4
I0825 11:12:21.726769  2068 net.cpp:522] Eltwise4_ReLU9_0_split -> Eltwise4_ReLU9_0_split_0
I0825 11:12:21.726791  2068 net.cpp:522] Eltwise4_ReLU9_0_split -> Eltwise4_ReLU9_0_split_1
I0825 11:12:21.726860  2068 net.cpp:172] Setting up Eltwise4_ReLU9_0_split
I0825 11:12:21.726881  2068 net.cpp:186] Top shape: 64 16 32 32 (1048576)
I0825 11:12:21.726898  2068 net.cpp:186] Top shape: 64 16 32 32 (1048576)
I0825 11:12:21.726914  2068 net.cpp:194] Memory required for data: 210501888
I0825 11:12:21.726932  2068 layer_factory.hpp:77] Creating layer Convolution10
I0825 11:12:21.726959  2068 net.cpp:128] Creating Layer Convolution10
I0825 11:12:21.726977  2068 net.cpp:558] Convolution10 <- Eltwise4_ReLU9_0_split_0
I0825 11:12:21.727000  2068 net.cpp:522] Convolution10 -> Convolution10
I0825 11:12:21.739874  2068 net.cpp:172] Setting up Convolution10
I0825 11:12:21.739922  2068 net.cpp:186] Top shape: 64 16 32 32 (1048576)
I0825 11:12:21.739939  2068 net.cpp:194] Memory required for data: 214696192
I0825 11:12:21.739971  2068 layer_factory.hpp:77] Creating layer BatchNorm10
I0825 11:12:21.739995  2068 net.cpp:128] Creating Layer BatchNorm10
I0825 11:12:21.740013  2068 net.cpp:558] BatchNorm10 <- Convolution10
I0825 11:12:21.740033  2068 net.cpp:509] BatchNorm10 -> Convolution10 (in-place)
I0825 11:12:21.740305  2068 net.cpp:172] Setting up BatchNorm10
I0825 11:12:21.740326  2068 net.cpp:186] Top shape: 64 16 32 32 (1048576)
I0825 11:12:21.740344  2068 net.cpp:194] Memory required for data: 218890496
I0825 11:12:21.740366  2068 layer_factory.hpp:77] Creating layer Scale10
I0825 11:12:21.740388  2068 net.cpp:128] Creating Layer Scale10
I0825 11:12:21.740406  2068 net.cpp:558] Scale10 <- Convolution10
I0825 11:12:21.740432  2068 net.cpp:509] Scale10 -> Convolution10 (in-place)
I0825 11:12:21.740496  2068 layer_factory.hpp:77] Creating layer Scale10
I0825 11:12:21.740654  2068 net.cpp:172] Setting up Scale10
I0825 11:12:21.740677  2068 net.cpp:186] Top shape: 64 16 32 32 (1048576)
I0825 11:12:21.740694  2068 net.cpp:194] Memory required for data: 223084800
I0825 11:12:21.740715  2068 layer_factory.hpp:77] Creating layer ReLU10
I0825 11:12:21.740734  2068 net.cpp:128] Creating Layer ReLU10
I0825 11:12:21.740751  2068 net.cpp:558] ReLU10 <- Convolution10
I0825 11:12:21.740772  2068 net.cpp:509] ReLU10 -> Convolution10 (in-place)
I0825 11:12:21.742182  2068 net.cpp:172] Setting up ReLU10
I0825 11:12:21.742234  2068 net.cpp:186] Top shape: 64 16 32 32 (1048576)
I0825 11:12:21.742251  2068 net.cpp:194] Memory required for data: 227279104
I0825 11:12:21.742269  2068 layer_factory.hpp:77] Creating layer Convolution11
I0825 11:12:21.742295  2068 net.cpp:128] Creating Layer Convolution11
I0825 11:12:21.742312  2068 net.cpp:558] Convolution11 <- Convolution10
I0825 11:12:21.742343  2068 net.cpp:522] Convolution11 -> Convolution11
I0825 11:12:21.749140  2068 net.cpp:172] Setting up Convolution11
I0825 11:12:21.749184  2068 net.cpp:186] Top shape: 64 16 32 32 (1048576)
I0825 11:12:21.749200  2068 net.cpp:194] Memory required for data: 231473408
I0825 11:12:21.749223  2068 layer_factory.hpp:77] Creating layer BatchNorm11
I0825 11:12:21.749248  2068 net.cpp:128] Creating Layer BatchNorm11
I0825 11:12:21.749265  2068 net.cpp:558] BatchNorm11 <- Convolution11
I0825 11:12:21.749287  2068 net.cpp:509] BatchNorm11 -> Convolution11 (in-place)
I0825 11:12:21.749560  2068 net.cpp:172] Setting up BatchNorm11
I0825 11:12:21.749583  2068 net.cpp:186] Top shape: 64 16 32 32 (1048576)
I0825 11:12:21.749598  2068 net.cpp:194] Memory required for data: 235667712
I0825 11:12:21.749620  2068 layer_factory.hpp:77] Creating layer Scale11
I0825 11:12:21.749642  2068 net.cpp:128] Creating Layer Scale11
I0825 11:12:21.749660  2068 net.cpp:558] Scale11 <- Convolution11
I0825 11:12:21.749677  2068 net.cpp:509] Scale11 -> Convolution11 (in-place)
I0825 11:12:21.749742  2068 layer_factory.hpp:77] Creating layer Scale11
I0825 11:12:21.749902  2068 net.cpp:172] Setting up Scale11
I0825 11:12:21.749922  2068 net.cpp:186] Top shape: 64 16 32 32 (1048576)
I0825 11:12:21.749938  2068 net.cpp:194] Memory required for data: 239862016
I0825 11:12:21.749960  2068 layer_factory.hpp:77] Creating layer Eltwise5
I0825 11:12:21.749981  2068 net.cpp:128] Creating Layer Eltwise5
I0825 11:12:21.750000  2068 net.cpp:558] Eltwise5 <- Eltwise4_ReLU9_0_split_1
I0825 11:12:21.750016  2068 net.cpp:558] Eltwise5 <- Convolution11
I0825 11:12:21.750036  2068 net.cpp:522] Eltwise5 -> Eltwise5
I0825 11:12:21.750082  2068 net.cpp:172] Setting up Eltwise5
I0825 11:12:21.750102  2068 net.cpp:186] Top shape: 64 16 32 32 (1048576)
I0825 11:12:21.750118  2068 net.cpp:194] Memory required for data: 244056320
I0825 11:12:21.750133  2068 layer_factory.hpp:77] Creating layer ReLU11
I0825 11:12:21.750151  2068 net.cpp:128] Creating Layer ReLU11
I0825 11:12:21.750169  2068 net.cpp:558] ReLU11 <- Eltwise5
I0825 11:12:21.750187  2068 net.cpp:509] ReLU11 -> Eltwise5 (in-place)
I0825 11:12:21.751293  2068 net.cpp:172] Setting up ReLU11
I0825 11:12:21.751323  2068 net.cpp:186] Top shape: 64 16 32 32 (1048576)
I0825 11:12:21.751340  2068 net.cpp:194] Memory required for data: 248250624
I0825 11:12:21.751356  2068 layer_factory.hpp:77] Creating layer Eltwise5_ReLU11_0_split
I0825 11:12:21.751379  2068 net.cpp:128] Creating Layer Eltwise5_ReLU11_0_split
I0825 11:12:21.751397  2068 net.cpp:558] Eltwise5_ReLU11_0_split <- Eltwise5
I0825 11:12:21.751416  2068 net.cpp:522] Eltwise5_ReLU11_0_split -> Eltwise5_ReLU11_0_split_0
I0825 11:12:21.751438  2068 net.cpp:522] Eltwise5_ReLU11_0_split -> Eltwise5_ReLU11_0_split_1
I0825 11:12:21.751505  2068 net.cpp:172] Setting up Eltwise5_ReLU11_0_split
I0825 11:12:21.751526  2068 net.cpp:186] Top shape: 64 16 32 32 (1048576)
I0825 11:12:21.751550  2068 net.cpp:186] Top shape: 64 16 32 32 (1048576)
I0825 11:12:21.751567  2068 net.cpp:194] Memory required for data: 256639232
I0825 11:12:21.751585  2068 layer_factory.hpp:77] Creating layer Convolution12
I0825 11:12:21.751610  2068 net.cpp:128] Creating Layer Convolution12
I0825 11:12:21.751627  2068 net.cpp:558] Convolution12 <- Eltwise5_ReLU11_0_split_0
I0825 11:12:21.751652  2068 net.cpp:522] Convolution12 -> Convolution12
I0825 11:12:21.766611  2068 net.cpp:172] Setting up Convolution12
I0825 11:12:21.766659  2068 net.cpp:186] Top shape: 64 16 32 32 (1048576)
I0825 11:12:21.766676  2068 net.cpp:194] Memory required for data: 260833536
I0825 11:12:21.766700  2068 layer_factory.hpp:77] Creating layer BatchNorm12
I0825 11:12:21.766739  2068 net.cpp:128] Creating Layer BatchNorm12
I0825 11:12:21.766757  2068 net.cpp:558] BatchNorm12 <- Convolution12
I0825 11:12:21.766777  2068 net.cpp:509] BatchNorm12 -> Convolution12 (in-place)
I0825 11:12:21.767058  2068 net.cpp:172] Setting up BatchNorm12
I0825 11:12:21.767083  2068 net.cpp:186] Top shape: 64 16 32 32 (1048576)
I0825 11:12:21.767099  2068 net.cpp:194] Memory required for data: 265027840
I0825 11:12:21.767123  2068 layer_factory.hpp:77] Creating layer Scale12
I0825 11:12:21.767143  2068 net.cpp:128] Creating Layer Scale12
I0825 11:12:21.767160  2068 net.cpp:558] Scale12 <- Convolution12
I0825 11:12:21.767179  2068 net.cpp:509] Scale12 -> Convolution12 (in-place)
I0825 11:12:21.767247  2068 layer_factory.hpp:77] Creating layer Scale12
I0825 11:12:21.767405  2068 net.cpp:172] Setting up Scale12
I0825 11:12:21.767427  2068 net.cpp:186] Top shape: 64 16 32 32 (1048576)
I0825 11:12:21.767443  2068 net.cpp:194] Memory required for data: 269222144
I0825 11:12:21.767465  2068 layer_factory.hpp:77] Creating layer ReLU12
I0825 11:12:21.767488  2068 net.cpp:128] Creating Layer ReLU12
I0825 11:12:21.767504  2068 net.cpp:558] ReLU12 <- Convolution12
I0825 11:12:21.767525  2068 net.cpp:509] ReLU12 -> Convolution12 (in-place)
I0825 11:12:21.772941  2068 net.cpp:172] Setting up ReLU12
I0825 11:12:21.772971  2068 net.cpp:186] Top shape: 64 16 32 32 (1048576)
I0825 11:12:21.772987  2068 net.cpp:194] Memory required for data: 273416448
I0825 11:12:21.773005  2068 layer_factory.hpp:77] Creating layer Convolution13
I0825 11:12:21.773032  2068 net.cpp:128] Creating Layer Convolution13
I0825 11:12:21.773051  2068 net.cpp:558] Convolution13 <- Convolution12
I0825 11:12:21.773073  2068 net.cpp:522] Convolution13 -> Convolution13
I0825 11:12:21.792508  2068 net.cpp:172] Setting up Convolution13
I0825 11:12:21.792551  2068 net.cpp:186] Top shape: 64 16 32 32 (1048576)
I0825 11:12:21.792567  2068 net.cpp:194] Memory required for data: 277610752
I0825 11:12:21.792590  2068 layer_factory.hpp:77] Creating layer BatchNorm13
I0825 11:12:21.792613  2068 net.cpp:128] Creating Layer BatchNorm13
I0825 11:12:21.792631  2068 net.cpp:558] BatchNorm13 <- Convolution13
I0825 11:12:21.792654  2068 net.cpp:509] BatchNorm13 -> Convolution13 (in-place)
I0825 11:12:21.792919  2068 net.cpp:172] Setting up BatchNorm13
I0825 11:12:21.792942  2068 net.cpp:186] Top shape: 64 16 32 32 (1048576)
I0825 11:12:21.792958  2068 net.cpp:194] Memory required for data: 281805056
I0825 11:12:21.792981  2068 layer_factory.hpp:77] Creating layer Scale13
I0825 11:12:21.793001  2068 net.cpp:128] Creating Layer Scale13
I0825 11:12:21.793020  2068 net.cpp:558] Scale13 <- Convolution13
I0825 11:12:21.793038  2068 net.cpp:509] Scale13 -> Convolution13 (in-place)
I0825 11:12:21.793102  2068 layer_factory.hpp:77] Creating layer Scale13
I0825 11:12:21.793264  2068 net.cpp:172] Setting up Scale13
I0825 11:12:21.793287  2068 net.cpp:186] Top shape: 64 16 32 32 (1048576)
I0825 11:12:21.793303  2068 net.cpp:194] Memory required for data: 285999360
I0825 11:12:21.793323  2068 layer_factory.hpp:77] Creating layer Eltwise6
I0825 11:12:21.793345  2068 net.cpp:128] Creating Layer Eltwise6
I0825 11:12:21.793362  2068 net.cpp:558] Eltwise6 <- Eltwise5_ReLU11_0_split_1
I0825 11:12:21.793380  2068 net.cpp:558] Eltwise6 <- Convolution13
I0825 11:12:21.793406  2068 net.cpp:522] Eltwise6 -> Eltwise6
I0825 11:12:21.793458  2068 net.cpp:172] Setting up Eltwise6
I0825 11:12:21.793480  2068 net.cpp:186] Top shape: 64 16 32 32 (1048576)
I0825 11:12:21.793495  2068 net.cpp:194] Memory required for data: 290193664
I0825 11:12:21.793511  2068 layer_factory.hpp:77] Creating layer ReLU13
I0825 11:12:21.793535  2068 net.cpp:128] Creating Layer ReLU13
I0825 11:12:21.793551  2068 net.cpp:558] ReLU13 <- Eltwise6
I0825 11:12:21.793570  2068 net.cpp:509] ReLU13 -> Eltwise6 (in-place)
I0825 11:12:21.798903  2068 net.cpp:172] Setting up ReLU13
I0825 11:12:21.798943  2068 net.cpp:186] Top shape: 64 16 32 32 (1048576)
I0825 11:12:21.798959  2068 net.cpp:194] Memory required for data: 294387968
I0825 11:12:21.798988  2068 layer_factory.hpp:77] Creating layer Eltwise6_ReLU13_0_split
I0825 11:12:21.799011  2068 net.cpp:128] Creating Layer Eltwise6_ReLU13_0_split
I0825 11:12:21.799031  2068 net.cpp:558] Eltwise6_ReLU13_0_split <- Eltwise6
I0825 11:12:21.799049  2068 net.cpp:522] Eltwise6_ReLU13_0_split -> Eltwise6_ReLU13_0_split_0
I0825 11:12:21.799072  2068 net.cpp:522] Eltwise6_ReLU13_0_split -> Eltwise6_ReLU13_0_split_1
I0825 11:12:21.799144  2068 net.cpp:172] Setting up Eltwise6_ReLU13_0_split
I0825 11:12:21.799163  2068 net.cpp:186] Top shape: 64 16 32 32 (1048576)
I0825 11:12:21.799182  2068 net.cpp:186] Top shape: 64 16 32 32 (1048576)
I0825 11:12:21.799198  2068 net.cpp:194] Memory required for data: 302776576
I0825 11:12:21.799214  2068 layer_factory.hpp:77] Creating layer Convolution14
I0825 11:12:21.799243  2068 net.cpp:128] Creating Layer Convolution14
I0825 11:12:21.799260  2068 net.cpp:558] Convolution14 <- Eltwise6_ReLU13_0_split_0
I0825 11:12:21.799281  2068 net.cpp:522] Convolution14 -> Convolution14
I0825 11:12:21.812732  2068 net.cpp:172] Setting up Convolution14
I0825 11:12:21.812775  2068 net.cpp:186] Top shape: 64 16 32 32 (1048576)
I0825 11:12:21.812791  2068 net.cpp:194] Memory required for data: 306970880
I0825 11:12:21.812814  2068 layer_factory.hpp:77] Creating layer BatchNorm14
I0825 11:12:21.812837  2068 net.cpp:128] Creating Layer BatchNorm14
I0825 11:12:21.812855  2068 net.cpp:558] BatchNorm14 <- Convolution14
I0825 11:12:21.812873  2068 net.cpp:509] BatchNorm14 -> Convolution14 (in-place)
I0825 11:12:21.813148  2068 net.cpp:172] Setting up BatchNorm14
I0825 11:12:21.813170  2068 net.cpp:186] Top shape: 64 16 32 32 (1048576)
I0825 11:12:21.813186  2068 net.cpp:194] Memory required for data: 311165184
I0825 11:12:21.813210  2068 layer_factory.hpp:77] Creating layer Scale14
I0825 11:12:21.813230  2068 net.cpp:128] Creating Layer Scale14
I0825 11:12:21.813246  2068 net.cpp:558] Scale14 <- Convolution14
I0825 11:12:21.813266  2068 net.cpp:509] Scale14 -> Convolution14 (in-place)
I0825 11:12:21.813331  2068 layer_factory.hpp:77] Creating layer Scale14
I0825 11:12:21.813490  2068 net.cpp:172] Setting up Scale14
I0825 11:12:21.813513  2068 net.cpp:186] Top shape: 64 16 32 32 (1048576)
I0825 11:12:21.813529  2068 net.cpp:194] Memory required for data: 315359488
I0825 11:12:21.813549  2068 layer_factory.hpp:77] Creating layer ReLU14
I0825 11:12:21.813568  2068 net.cpp:128] Creating Layer ReLU14
I0825 11:12:21.813585  2068 net.cpp:558] ReLU14 <- Convolution14
I0825 11:12:21.813606  2068 net.cpp:509] ReLU14 -> Convolution14 (in-place)
I0825 11:12:21.816936  2068 net.cpp:172] Setting up ReLU14
I0825 11:12:21.816967  2068 net.cpp:186] Top shape: 64 16 32 32 (1048576)
I0825 11:12:21.816983  2068 net.cpp:194] Memory required for data: 319553792
I0825 11:12:21.817000  2068 layer_factory.hpp:77] Creating layer Convolution15
I0825 11:12:21.817026  2068 net.cpp:128] Creating Layer Convolution15
I0825 11:12:21.817044  2068 net.cpp:558] Convolution15 <- Convolution14
I0825 11:12:21.817066  2068 net.cpp:522] Convolution15 -> Convolution15
I0825 11:12:21.827368  2068 net.cpp:172] Setting up Convolution15
I0825 11:12:21.827414  2068 net.cpp:186] Top shape: 64 16 32 32 (1048576)
I0825 11:12:21.827430  2068 net.cpp:194] Memory required for data: 323748096
I0825 11:12:21.827453  2068 layer_factory.hpp:77] Creating layer BatchNorm15
I0825 11:12:21.827488  2068 net.cpp:128] Creating Layer BatchNorm15
I0825 11:12:21.827505  2068 net.cpp:558] BatchNorm15 <- Convolution15
I0825 11:12:21.827527  2068 net.cpp:509] BatchNorm15 -> Convolution15 (in-place)
I0825 11:12:21.827802  2068 net.cpp:172] Setting up BatchNorm15
I0825 11:12:21.827826  2068 net.cpp:186] Top shape: 64 16 32 32 (1048576)
I0825 11:12:21.827842  2068 net.cpp:194] Memory required for data: 327942400
I0825 11:12:21.827867  2068 layer_factory.hpp:77] Creating layer Scale15
I0825 11:12:21.827885  2068 net.cpp:128] Creating Layer Scale15
I0825 11:12:21.827903  2068 net.cpp:558] Scale15 <- Convolution15
I0825 11:12:21.827931  2068 net.cpp:509] Scale15 -> Convolution15 (in-place)
I0825 11:12:21.827994  2068 layer_factory.hpp:77] Creating layer Scale15
I0825 11:12:21.828156  2068 net.cpp:172] Setting up Scale15
I0825 11:12:21.828181  2068 net.cpp:186] Top shape: 64 16 32 32 (1048576)
I0825 11:12:21.828197  2068 net.cpp:194] Memory required for data: 332136704
I0825 11:12:21.828218  2068 layer_factory.hpp:77] Creating layer Eltwise7
I0825 11:12:21.828239  2068 net.cpp:128] Creating Layer Eltwise7
I0825 11:12:21.828256  2068 net.cpp:558] Eltwise7 <- Eltwise6_ReLU13_0_split_1
I0825 11:12:21.828274  2068 net.cpp:558] Eltwise7 <- Convolution15
I0825 11:12:21.828294  2068 net.cpp:522] Eltwise7 -> Eltwise7
I0825 11:12:21.828341  2068 net.cpp:172] Setting up Eltwise7
I0825 11:12:21.828361  2068 net.cpp:186] Top shape: 64 16 32 32 (1048576)
I0825 11:12:21.828377  2068 net.cpp:194] Memory required for data: 336331008
I0825 11:12:21.828392  2068 layer_factory.hpp:77] Creating layer ReLU15
I0825 11:12:21.828413  2068 net.cpp:128] Creating Layer ReLU15
I0825 11:12:21.828428  2068 net.cpp:558] ReLU15 <- Eltwise7
I0825 11:12:21.828447  2068 net.cpp:509] ReLU15 -> Eltwise7 (in-place)
I0825 11:12:21.831657  2068 net.cpp:172] Setting up ReLU15
I0825 11:12:21.831688  2068 net.cpp:186] Top shape: 64 16 32 32 (1048576)
I0825 11:12:21.831704  2068 net.cpp:194] Memory required for data: 340525312
I0825 11:12:21.831722  2068 layer_factory.hpp:77] Creating layer Eltwise7_ReLU15_0_split
I0825 11:12:21.831744  2068 net.cpp:128] Creating Layer Eltwise7_ReLU15_0_split
I0825 11:12:21.831761  2068 net.cpp:558] Eltwise7_ReLU15_0_split <- Eltwise7
I0825 11:12:21.831781  2068 net.cpp:522] Eltwise7_ReLU15_0_split -> Eltwise7_ReLU15_0_split_0
I0825 11:12:21.831804  2068 net.cpp:522] Eltwise7_ReLU15_0_split -> Eltwise7_ReLU15_0_split_1
I0825 11:12:21.831871  2068 net.cpp:172] Setting up Eltwise7_ReLU15_0_split
I0825 11:12:21.831892  2068 net.cpp:186] Top shape: 64 16 32 32 (1048576)
I0825 11:12:21.831910  2068 net.cpp:186] Top shape: 64 16 32 32 (1048576)
I0825 11:12:21.831926  2068 net.cpp:194] Memory required for data: 348913920
I0825 11:12:21.831943  2068 layer_factory.hpp:77] Creating layer Convolution16
I0825 11:12:21.831967  2068 net.cpp:128] Creating Layer Convolution16
I0825 11:12:21.831984  2068 net.cpp:558] Convolution16 <- Eltwise7_ReLU15_0_split_0
I0825 11:12:21.832007  2068 net.cpp:522] Convolution16 -> Convolution16
I0825 11:12:21.847280  2068 net.cpp:172] Setting up Convolution16
I0825 11:12:21.847326  2068 net.cpp:186] Top shape: 64 16 32 32 (1048576)
I0825 11:12:21.847343  2068 net.cpp:194] Memory required for data: 353108224
I0825 11:12:21.847368  2068 layer_factory.hpp:77] Creating layer BatchNorm16
I0825 11:12:21.847389  2068 net.cpp:128] Creating Layer BatchNorm16
I0825 11:12:21.847406  2068 net.cpp:558] BatchNorm16 <- Convolution16
I0825 11:12:21.847427  2068 net.cpp:509] BatchNorm16 -> Convolution16 (in-place)
I0825 11:12:21.847700  2068 net.cpp:172] Setting up BatchNorm16
I0825 11:12:21.847723  2068 net.cpp:186] Top shape: 64 16 32 32 (1048576)
I0825 11:12:21.847739  2068 net.cpp:194] Memory required for data: 357302528
I0825 11:12:21.847764  2068 layer_factory.hpp:77] Creating layer Scale16
I0825 11:12:21.847786  2068 net.cpp:128] Creating Layer Scale16
I0825 11:12:21.847805  2068 net.cpp:558] Scale16 <- Convolution16
I0825 11:12:21.847822  2068 net.cpp:509] Scale16 -> Convolution16 (in-place)
I0825 11:12:21.847896  2068 layer_factory.hpp:77] Creating layer Scale16
I0825 11:12:21.848058  2068 net.cpp:172] Setting up Scale16
I0825 11:12:21.848080  2068 net.cpp:186] Top shape: 64 16 32 32 (1048576)
I0825 11:12:21.848096  2068 net.cpp:194] Memory required for data: 361496832
I0825 11:12:21.848117  2068 layer_factory.hpp:77] Creating layer ReLU16
I0825 11:12:21.848143  2068 net.cpp:128] Creating Layer ReLU16
I0825 11:12:21.848160  2068 net.cpp:558] ReLU16 <- Convolution16
I0825 11:12:21.848179  2068 net.cpp:509] ReLU16 -> Convolution16 (in-place)
I0825 11:12:21.853339  2068 net.cpp:172] Setting up ReLU16
I0825 11:12:21.853381  2068 net.cpp:186] Top shape: 64 16 32 32 (1048576)
I0825 11:12:21.853410  2068 net.cpp:194] Memory required for data: 365691136
I0825 11:12:21.853427  2068 layer_factory.hpp:77] Creating layer Convolution17
I0825 11:12:21.853453  2068 net.cpp:128] Creating Layer Convolution17
I0825 11:12:21.853471  2068 net.cpp:558] Convolution17 <- Convolution16
I0825 11:12:21.853493  2068 net.cpp:522] Convolution17 -> Convolution17
I0825 11:12:21.867662  2068 net.cpp:172] Setting up Convolution17
I0825 11:12:21.867704  2068 net.cpp:186] Top shape: 64 16 32 32 (1048576)
I0825 11:12:21.867722  2068 net.cpp:194] Memory required for data: 369885440
I0825 11:12:21.867745  2068 layer_factory.hpp:77] Creating layer BatchNorm17
I0825 11:12:21.867769  2068 net.cpp:128] Creating Layer BatchNorm17
I0825 11:12:21.867785  2068 net.cpp:558] BatchNorm17 <- Convolution17
I0825 11:12:21.867807  2068 net.cpp:509] BatchNorm17 -> Convolution17 (in-place)
I0825 11:12:21.868088  2068 net.cpp:172] Setting up BatchNorm17
I0825 11:12:21.868109  2068 net.cpp:186] Top shape: 64 16 32 32 (1048576)
I0825 11:12:21.868126  2068 net.cpp:194] Memory required for data: 374079744
I0825 11:12:21.868149  2068 layer_factory.hpp:77] Creating layer Scale17
I0825 11:12:21.868168  2068 net.cpp:128] Creating Layer Scale17
I0825 11:12:21.868185  2068 net.cpp:558] Scale17 <- Convolution17
I0825 11:12:21.868204  2068 net.cpp:509] Scale17 -> Convolution17 (in-place)
I0825 11:12:21.868269  2068 layer_factory.hpp:77] Creating layer Scale17
I0825 11:12:21.868429  2068 net.cpp:172] Setting up Scale17
I0825 11:12:21.868453  2068 net.cpp:186] Top shape: 64 16 32 32 (1048576)
I0825 11:12:21.868468  2068 net.cpp:194] Memory required for data: 378274048
I0825 11:12:21.868489  2068 layer_factory.hpp:77] Creating layer Eltwise8
I0825 11:12:21.868511  2068 net.cpp:128] Creating Layer Eltwise8
I0825 11:12:21.868528  2068 net.cpp:558] Eltwise8 <- Eltwise7_ReLU15_0_split_1
I0825 11:12:21.868546  2068 net.cpp:558] Eltwise8 <- Convolution17
I0825 11:12:21.868566  2068 net.cpp:522] Eltwise8 -> Eltwise8
I0825 11:12:21.868611  2068 net.cpp:172] Setting up Eltwise8
I0825 11:12:21.868631  2068 net.cpp:186] Top shape: 64 16 32 32 (1048576)
I0825 11:12:21.868647  2068 net.cpp:194] Memory required for data: 382468352
I0825 11:12:21.868664  2068 layer_factory.hpp:77] Creating layer ReLU17
I0825 11:12:21.868683  2068 net.cpp:128] Creating Layer ReLU17
I0825 11:12:21.868700  2068 net.cpp:558] ReLU17 <- Eltwise8
I0825 11:12:21.868721  2068 net.cpp:509] ReLU17 -> Eltwise8 (in-place)
I0825 11:12:21.869817  2068 net.cpp:172] Setting up ReLU17
I0825 11:12:21.869843  2068 net.cpp:186] Top shape: 64 16 32 32 (1048576)
I0825 11:12:21.869860  2068 net.cpp:194] Memory required for data: 386662656
I0825 11:12:21.869877  2068 layer_factory.hpp:77] Creating layer Eltwise8_ReLU17_0_split
I0825 11:12:21.869897  2068 net.cpp:128] Creating Layer Eltwise8_ReLU17_0_split
I0825 11:12:21.869915  2068 net.cpp:558] Eltwise8_ReLU17_0_split <- Eltwise8
I0825 11:12:21.869938  2068 net.cpp:522] Eltwise8_ReLU17_0_split -> Eltwise8_ReLU17_0_split_0
I0825 11:12:21.869961  2068 net.cpp:522] Eltwise8_ReLU17_0_split -> Eltwise8_ReLU17_0_split_1
I0825 11:12:21.870028  2068 net.cpp:172] Setting up Eltwise8_ReLU17_0_split
I0825 11:12:21.870049  2068 net.cpp:186] Top shape: 64 16 32 32 (1048576)
I0825 11:12:21.870067  2068 net.cpp:186] Top shape: 64 16 32 32 (1048576)
I0825 11:12:21.870090  2068 net.cpp:194] Memory required for data: 395051264
I0825 11:12:21.870107  2068 layer_factory.hpp:77] Creating layer Convolution18
I0825 11:12:21.870132  2068 net.cpp:128] Creating Layer Convolution18
I0825 11:12:21.870149  2068 net.cpp:558] Convolution18 <- Eltwise8_ReLU17_0_split_0
I0825 11:12:21.870172  2068 net.cpp:522] Convolution18 -> Convolution18
I0825 11:12:21.876703  2068 net.cpp:172] Setting up Convolution18
I0825 11:12:21.876750  2068 net.cpp:186] Top shape: 64 16 32 32 (1048576)
I0825 11:12:21.876768  2068 net.cpp:194] Memory required for data: 399245568
I0825 11:12:21.876792  2068 layer_factory.hpp:77] Creating layer BatchNorm18
I0825 11:12:21.876813  2068 net.cpp:128] Creating Layer BatchNorm18
I0825 11:12:21.876842  2068 net.cpp:558] BatchNorm18 <- Convolution18
I0825 11:12:21.876864  2068 net.cpp:509] BatchNorm18 -> Convolution18 (in-place)
I0825 11:12:21.877149  2068 net.cpp:172] Setting up BatchNorm18
I0825 11:12:21.877172  2068 net.cpp:186] Top shape: 64 16 32 32 (1048576)
I0825 11:12:21.877188  2068 net.cpp:194] Memory required for data: 403439872
I0825 11:12:21.877213  2068 layer_factory.hpp:77] Creating layer Scale18
I0825 11:12:21.877233  2068 net.cpp:128] Creating Layer Scale18
I0825 11:12:21.877250  2068 net.cpp:558] Scale18 <- Convolution18
I0825 11:12:21.877270  2068 net.cpp:509] Scale18 -> Convolution18 (in-place)
I0825 11:12:21.877334  2068 layer_factory.hpp:77] Creating layer Scale18
I0825 11:12:21.877494  2068 net.cpp:172] Setting up Scale18
I0825 11:12:21.877516  2068 net.cpp:186] Top shape: 64 16 32 32 (1048576)
I0825 11:12:21.877532  2068 net.cpp:194] Memory required for data: 407634176
I0825 11:12:21.877552  2068 layer_factory.hpp:77] Creating layer ReLU18
I0825 11:12:21.877573  2068 net.cpp:128] Creating Layer ReLU18
I0825 11:12:21.877590  2068 net.cpp:558] ReLU18 <- Convolution18
I0825 11:12:21.877609  2068 net.cpp:509] ReLU18 -> Convolution18 (in-place)
I0825 11:12:21.878835  2068 net.cpp:172] Setting up ReLU18
I0825 11:12:21.878865  2068 net.cpp:186] Top shape: 64 16 32 32 (1048576)
I0825 11:12:21.878882  2068 net.cpp:194] Memory required for data: 411828480
I0825 11:12:21.878901  2068 layer_factory.hpp:77] Creating layer Convolution19
I0825 11:12:21.878931  2068 net.cpp:128] Creating Layer Convolution19
I0825 11:12:21.878948  2068 net.cpp:558] Convolution19 <- Convolution18
I0825 11:12:21.878969  2068 net.cpp:522] Convolution19 -> Convolution19
I0825 11:12:21.889989  2068 net.cpp:172] Setting up Convolution19
I0825 11:12:21.890033  2068 net.cpp:186] Top shape: 64 16 32 32 (1048576)
I0825 11:12:21.890049  2068 net.cpp:194] Memory required for data: 416022784
I0825 11:12:21.890072  2068 layer_factory.hpp:77] Creating layer BatchNorm19
I0825 11:12:21.890096  2068 net.cpp:128] Creating Layer BatchNorm19
I0825 11:12:21.890115  2068 net.cpp:558] BatchNorm19 <- Convolution19
I0825 11:12:21.890134  2068 net.cpp:509] BatchNorm19 -> Convolution19 (in-place)
I0825 11:12:21.890426  2068 net.cpp:172] Setting up BatchNorm19
I0825 11:12:21.890455  2068 net.cpp:186] Top shape: 64 16 32 32 (1048576)
I0825 11:12:21.890472  2068 net.cpp:194] Memory required for data: 420217088
I0825 11:12:21.890511  2068 layer_factory.hpp:77] Creating layer Scale19
I0825 11:12:21.890534  2068 net.cpp:128] Creating Layer Scale19
I0825 11:12:21.890552  2068 net.cpp:558] Scale19 <- Convolution19
I0825 11:12:21.890570  2068 net.cpp:509] Scale19 -> Convolution19 (in-place)
I0825 11:12:21.890640  2068 layer_factory.hpp:77] Creating layer Scale19
I0825 11:12:21.890802  2068 net.cpp:172] Setting up Scale19
I0825 11:12:21.890825  2068 net.cpp:186] Top shape: 64 16 32 32 (1048576)
I0825 11:12:21.890841  2068 net.cpp:194] Memory required for data: 424411392
I0825 11:12:21.890861  2068 layer_factory.hpp:77] Creating layer Eltwise9
I0825 11:12:21.890880  2068 net.cpp:128] Creating Layer Eltwise9
I0825 11:12:21.890897  2068 net.cpp:558] Eltwise9 <- Eltwise8_ReLU17_0_split_1
I0825 11:12:21.890915  2068 net.cpp:558] Eltwise9 <- Convolution19
I0825 11:12:21.890936  2068 net.cpp:522] Eltwise9 -> Eltwise9
I0825 11:12:21.890990  2068 net.cpp:172] Setting up Eltwise9
I0825 11:12:21.891012  2068 net.cpp:186] Top shape: 64 16 32 32 (1048576)
I0825 11:12:21.891028  2068 net.cpp:194] Memory required for data: 428605696
I0825 11:12:21.891046  2068 layer_factory.hpp:77] Creating layer ReLU19
I0825 11:12:21.891063  2068 net.cpp:128] Creating Layer ReLU19
I0825 11:12:21.891079  2068 net.cpp:558] ReLU19 <- Eltwise9
I0825 11:12:21.891098  2068 net.cpp:509] ReLU19 -> Eltwise9 (in-place)
I0825 11:12:21.894239  2068 net.cpp:172] Setting up ReLU19
I0825 11:12:21.894268  2068 net.cpp:186] Top shape: 64 16 32 32 (1048576)
I0825 11:12:21.894285  2068 net.cpp:194] Memory required for data: 432800000
I0825 11:12:21.894301  2068 layer_factory.hpp:77] Creating layer Eltwise9_ReLU19_0_split
I0825 11:12:21.894338  2068 net.cpp:128] Creating Layer Eltwise9_ReLU19_0_split
I0825 11:12:21.894358  2068 net.cpp:558] Eltwise9_ReLU19_0_split <- Eltwise9
I0825 11:12:21.894379  2068 net.cpp:522] Eltwise9_ReLU19_0_split -> Eltwise9_ReLU19_0_split_0
I0825 11:12:21.894402  2068 net.cpp:522] Eltwise9_ReLU19_0_split -> Eltwise9_ReLU19_0_split_1
I0825 11:12:21.894474  2068 net.cpp:172] Setting up Eltwise9_ReLU19_0_split
I0825 11:12:21.894495  2068 net.cpp:186] Top shape: 64 16 32 32 (1048576)
I0825 11:12:21.894513  2068 net.cpp:186] Top shape: 64 16 32 32 (1048576)
I0825 11:12:21.894531  2068 net.cpp:194] Memory required for data: 441188608
I0825 11:12:21.894546  2068 layer_factory.hpp:77] Creating layer Convolution20
I0825 11:12:21.894577  2068 net.cpp:128] Creating Layer Convolution20
I0825 11:12:21.894594  2068 net.cpp:558] Convolution20 <- Eltwise9_ReLU19_0_split_0
I0825 11:12:21.894614  2068 net.cpp:522] Convolution20 -> Convolution20
I0825 11:12:21.907702  2068 net.cpp:172] Setting up Convolution20
I0825 11:12:21.907747  2068 net.cpp:186] Top shape: 64 32 16 16 (524288)
I0825 11:12:21.907763  2068 net.cpp:194] Memory required for data: 443285760
I0825 11:12:21.907788  2068 layer_factory.hpp:77] Creating layer BatchNorm20
I0825 11:12:21.907807  2068 net.cpp:128] Creating Layer BatchNorm20
I0825 11:12:21.907825  2068 net.cpp:558] BatchNorm20 <- Convolution20
I0825 11:12:21.907846  2068 net.cpp:509] BatchNorm20 -> Convolution20 (in-place)
I0825 11:12:21.908129  2068 net.cpp:172] Setting up BatchNorm20
I0825 11:12:21.908150  2068 net.cpp:186] Top shape: 64 32 16 16 (524288)
I0825 11:12:21.908166  2068 net.cpp:194] Memory required for data: 445382912
I0825 11:12:21.908190  2068 layer_factory.hpp:77] Creating layer Scale20
I0825 11:12:21.908210  2068 net.cpp:128] Creating Layer Scale20
I0825 11:12:21.908226  2068 net.cpp:558] Scale20 <- Convolution20
I0825 11:12:21.908247  2068 net.cpp:509] Scale20 -> Convolution20 (in-place)
I0825 11:12:21.908310  2068 layer_factory.hpp:77] Creating layer Scale20
I0825 11:12:21.908476  2068 net.cpp:172] Setting up Scale20
I0825 11:12:21.908498  2068 net.cpp:186] Top shape: 64 32 16 16 (524288)
I0825 11:12:21.908514  2068 net.cpp:194] Memory required for data: 447480064
I0825 11:12:21.908535  2068 layer_factory.hpp:77] Creating layer Convolution21
I0825 11:12:21.908560  2068 net.cpp:128] Creating Layer Convolution21
I0825 11:12:21.908578  2068 net.cpp:558] Convolution21 <- Eltwise9_ReLU19_0_split_1
I0825 11:12:21.908601  2068 net.cpp:522] Convolution21 -> Convolution21
I0825 11:12:21.916635  2068 net.cpp:172] Setting up Convolution21
I0825 11:12:21.916682  2068 net.cpp:186] Top shape: 64 32 16 16 (524288)
I0825 11:12:21.916700  2068 net.cpp:194] Memory required for data: 449577216
I0825 11:12:21.916724  2068 layer_factory.hpp:77] Creating layer BatchNorm21
I0825 11:12:21.916748  2068 net.cpp:128] Creating Layer BatchNorm21
I0825 11:12:21.916766  2068 net.cpp:558] BatchNorm21 <- Convolution21
I0825 11:12:21.916785  2068 net.cpp:509] BatchNorm21 -> Convolution21 (in-place)
I0825 11:12:21.917063  2068 net.cpp:172] Setting up BatchNorm21
I0825 11:12:21.917085  2068 net.cpp:186] Top shape: 64 32 16 16 (524288)
I0825 11:12:21.917101  2068 net.cpp:194] Memory required for data: 451674368
I0825 11:12:21.917124  2068 layer_factory.hpp:77] Creating layer Scale21
I0825 11:12:21.917155  2068 net.cpp:128] Creating Layer Scale21
I0825 11:12:21.917172  2068 net.cpp:558] Scale21 <- Convolution21
I0825 11:12:21.917191  2068 net.cpp:509] Scale21 -> Convolution21 (in-place)
I0825 11:12:21.917259  2068 layer_factory.hpp:77] Creating layer Scale21
I0825 11:12:21.917428  2068 net.cpp:172] Setting up Scale21
I0825 11:12:21.917449  2068 net.cpp:186] Top shape: 64 32 16 16 (524288)
I0825 11:12:21.917465  2068 net.cpp:194] Memory required for data: 453771520
I0825 11:12:21.917487  2068 layer_factory.hpp:77] Creating layer ReLU20
I0825 11:12:21.917510  2068 net.cpp:128] Creating Layer ReLU20
I0825 11:12:21.917526  2068 net.cpp:558] ReLU20 <- Convolution21
I0825 11:12:21.917558  2068 net.cpp:509] ReLU20 -> Convolution21 (in-place)
I0825 11:12:21.918792  2068 net.cpp:172] Setting up ReLU20
I0825 11:12:21.918833  2068 net.cpp:186] Top shape: 64 32 16 16 (524288)
I0825 11:12:21.918851  2068 net.cpp:194] Memory required for data: 455868672
I0825 11:12:21.918869  2068 layer_factory.hpp:77] Creating layer Convolution22
I0825 11:12:21.918895  2068 net.cpp:128] Creating Layer Convolution22
I0825 11:12:21.918913  2068 net.cpp:558] Convolution22 <- Convolution21
I0825 11:12:21.918936  2068 net.cpp:522] Convolution22 -> Convolution22
I0825 11:12:21.925819  2068 net.cpp:172] Setting up Convolution22
I0825 11:12:21.925914  2068 net.cpp:186] Top shape: 64 32 16 16 (524288)
I0825 11:12:21.925947  2068 net.cpp:194] Memory required for data: 457965824
I0825 11:12:21.925987  2068 layer_factory.hpp:77] Creating layer BatchNorm22
I0825 11:12:21.926026  2068 net.cpp:128] Creating Layer BatchNorm22
I0825 11:12:21.926059  2068 net.cpp:558] BatchNorm22 <- Convolution22
I0825 11:12:21.926098  2068 net.cpp:509] BatchNorm22 -> Convolution22 (in-place)
I0825 11:12:21.926414  2068 net.cpp:172] Setting up BatchNorm22
I0825 11:12:21.926460  2068 net.cpp:186] Top shape: 64 32 16 16 (524288)
I0825 11:12:21.926491  2068 net.cpp:194] Memory required for data: 460062976
I0825 11:12:21.926530  2068 layer_factory.hpp:77] Creating layer Scale22
I0825 11:12:21.926565  2068 net.cpp:128] Creating Layer Scale22
I0825 11:12:21.926596  2068 net.cpp:558] Scale22 <- Convolution22
I0825 11:12:21.926630  2068 net.cpp:509] Scale22 -> Convolution22 (in-place)
I0825 11:12:21.926717  2068 layer_factory.hpp:77] Creating layer Scale22
I0825 11:12:21.926905  2068 net.cpp:172] Setting up Scale22
I0825 11:12:21.926944  2068 net.cpp:186] Top shape: 64 32 16 16 (524288)
I0825 11:12:21.926975  2068 net.cpp:194] Memory required for data: 462160128
I0825 11:12:21.927013  2068 layer_factory.hpp:77] Creating layer Eltwise10
I0825 11:12:21.927052  2068 net.cpp:128] Creating Layer Eltwise10
I0825 11:12:21.927085  2068 net.cpp:558] Eltwise10 <- Convolution20
I0825 11:12:21.927119  2068 net.cpp:558] Eltwise10 <- Convolution22
I0825 11:12:21.927153  2068 net.cpp:522] Eltwise10 -> Eltwise10
I0825 11:12:21.927214  2068 net.cpp:172] Setting up Eltwise10
I0825 11:12:21.927250  2068 net.cpp:186] Top shape: 64 32 16 16 (524288)
I0825 11:12:21.927281  2068 net.cpp:194] Memory required for data: 464257280
I0825 11:12:21.927314  2068 layer_factory.hpp:77] Creating layer ReLU21
I0825 11:12:21.927347  2068 net.cpp:128] Creating Layer ReLU21
I0825 11:12:21.927378  2068 net.cpp:558] ReLU21 <- Eltwise10
I0825 11:12:21.927414  2068 net.cpp:509] ReLU21 -> Eltwise10 (in-place)
I0825 11:12:21.927922  2068 net.cpp:172] Setting up ReLU21
I0825 11:12:21.927969  2068 net.cpp:186] Top shape: 64 32 16 16 (524288)
I0825 11:12:21.928000  2068 net.cpp:194] Memory required for data: 466354432
I0825 11:12:21.928033  2068 layer_factory.hpp:77] Creating layer Eltwise10_ReLU21_0_split
I0825 11:12:21.928073  2068 net.cpp:128] Creating Layer Eltwise10_ReLU21_0_split
I0825 11:12:21.928107  2068 net.cpp:558] Eltwise10_ReLU21_0_split <- Eltwise10
I0825 11:12:21.928145  2068 net.cpp:522] Eltwise10_ReLU21_0_split -> Eltwise10_ReLU21_0_split_0
I0825 11:12:21.928185  2068 net.cpp:522] Eltwise10_ReLU21_0_split -> Eltwise10_ReLU21_0_split_1
I0825 11:12:21.928275  2068 net.cpp:172] Setting up Eltwise10_ReLU21_0_split
I0825 11:12:21.928320  2068 net.cpp:186] Top shape: 64 32 16 16 (524288)
I0825 11:12:21.928354  2068 net.cpp:186] Top shape: 64 32 16 16 (524288)
I0825 11:12:21.928385  2068 net.cpp:194] Memory required for data: 470548736
I0825 11:12:21.928418  2068 layer_factory.hpp:77] Creating layer Convolution23
I0825 11:12:21.928462  2068 net.cpp:128] Creating Layer Convolution23
I0825 11:12:21.928494  2068 net.cpp:558] Convolution23 <- Eltwise10_ReLU21_0_split_0
I0825 11:12:21.928534  2068 net.cpp:522] Convolution23 -> Convolution23
I0825 11:12:21.941388  2068 net.cpp:172] Setting up Convolution23
I0825 11:12:21.941457  2068 net.cpp:186] Top shape: 64 32 16 16 (524288)
I0825 11:12:21.941501  2068 net.cpp:194] Memory required for data: 472645888
I0825 11:12:21.941540  2068 layer_factory.hpp:77] Creating layer BatchNorm23
I0825 11:12:21.941579  2068 net.cpp:128] Creating Layer BatchNorm23
I0825 11:12:21.941612  2068 net.cpp:558] BatchNorm23 <- Convolution23
I0825 11:12:21.941646  2068 net.cpp:509] BatchNorm23 -> Convolution23 (in-place)
I0825 11:12:21.941947  2068 net.cpp:172] Setting up BatchNorm23
I0825 11:12:21.941988  2068 net.cpp:186] Top shape: 64 32 16 16 (524288)
I0825 11:12:21.942020  2068 net.cpp:194] Memory required for data: 474743040
I0825 11:12:21.942059  2068 layer_factory.hpp:77] Creating layer Scale23
I0825 11:12:21.942096  2068 net.cpp:128] Creating Layer Scale23
I0825 11:12:21.942128  2068 net.cpp:558] Scale23 <- Convolution23
I0825 11:12:21.942162  2068 net.cpp:509] Scale23 -> Convolution23 (in-place)
I0825 11:12:21.942245  2068 layer_factory.hpp:77] Creating layer Scale23
I0825 11:12:21.942441  2068 net.cpp:172] Setting up Scale23
I0825 11:12:21.942483  2068 net.cpp:186] Top shape: 64 32 16 16 (524288)
I0825 11:12:21.942514  2068 net.cpp:194] Memory required for data: 476840192
I0825 11:12:21.942551  2068 layer_factory.hpp:77] Creating layer ReLU22
I0825 11:12:21.942591  2068 net.cpp:128] Creating Layer ReLU22
I0825 11:12:21.942623  2068 net.cpp:558] ReLU22 <- Convolution23
I0825 11:12:21.942661  2068 net.cpp:509] ReLU22 -> Convolution23 (in-place)
I0825 11:12:21.945367  2068 net.cpp:172] Setting up ReLU22
I0825 11:12:21.945420  2068 net.cpp:186] Top shape: 64 32 16 16 (524288)
I0825 11:12:21.945452  2068 net.cpp:194] Memory required for data: 478937344
I0825 11:12:21.945484  2068 layer_factory.hpp:77] Creating layer Convolution24
I0825 11:12:21.945528  2068 net.cpp:128] Creating Layer Convolution24
I0825 11:12:21.945561  2068 net.cpp:558] Convolution24 <- Convolution23
I0825 11:12:21.945600  2068 net.cpp:522] Convolution24 -> Convolution24
I0825 11:12:21.960731  2068 net.cpp:172] Setting up Convolution24
I0825 11:12:21.960798  2068 net.cpp:186] Top shape: 64 32 16 16 (524288)
I0825 11:12:21.960830  2068 net.cpp:194] Memory required for data: 481034496
I0825 11:12:21.960870  2068 layer_factory.hpp:77] Creating layer BatchNorm24
I0825 11:12:21.960908  2068 net.cpp:128] Creating Layer BatchNorm24
I0825 11:12:21.960940  2068 net.cpp:558] BatchNorm24 <- Convolution24
I0825 11:12:21.960976  2068 net.cpp:509] BatchNorm24 -> Convolution24 (in-place)
I0825 11:12:21.961275  2068 net.cpp:172] Setting up BatchNorm24
I0825 11:12:21.961314  2068 net.cpp:186] Top shape: 64 32 16 16 (524288)
I0825 11:12:21.961345  2068 net.cpp:194] Memory required for data: 483131648
I0825 11:12:21.961385  2068 layer_factory.hpp:77] Creating layer Scale24
I0825 11:12:21.961423  2068 net.cpp:128] Creating Layer Scale24
I0825 11:12:21.961455  2068 net.cpp:558] Scale24 <- Convolution24
I0825 11:12:21.961488  2068 net.cpp:509] Scale24 -> Convolution24 (in-place)
I0825 11:12:21.961573  2068 layer_factory.hpp:77] Creating layer Scale24
I0825 11:12:21.961760  2068 net.cpp:172] Setting up Scale24
I0825 11:12:21.961798  2068 net.cpp:186] Top shape: 64 32 16 16 (524288)
I0825 11:12:21.961830  2068 net.cpp:194] Memory required for data: 485228800
I0825 11:12:21.961868  2068 layer_factory.hpp:77] Creating layer Eltwise11
I0825 11:12:21.961905  2068 net.cpp:128] Creating Layer Eltwise11
I0825 11:12:21.961936  2068 net.cpp:558] Eltwise11 <- Eltwise10_ReLU21_0_split_1
I0825 11:12:21.961977  2068 net.cpp:558] Eltwise11 <- Convolution24
I0825 11:12:21.962011  2068 net.cpp:522] Eltwise11 -> Eltwise11
I0825 11:12:21.962072  2068 net.cpp:172] Setting up Eltwise11
I0825 11:12:21.962108  2068 net.cpp:186] Top shape: 64 32 16 16 (524288)
I0825 11:12:21.962139  2068 net.cpp:194] Memory required for data: 487325952
I0825 11:12:21.962172  2068 layer_factory.hpp:77] Creating layer ReLU23
I0825 11:12:21.962206  2068 net.cpp:128] Creating Layer ReLU23
I0825 11:12:21.962237  2068 net.cpp:558] ReLU23 <- Eltwise11
I0825 11:12:21.962272  2068 net.cpp:509] ReLU23 -> Eltwise11 (in-place)
I0825 11:12:21.965123  2068 net.cpp:172] Setting up ReLU23
I0825 11:12:21.965205  2068 net.cpp:186] Top shape: 64 32 16 16 (524288)
I0825 11:12:21.965239  2068 net.cpp:194] Memory required for data: 489423104
I0825 11:12:21.965271  2068 layer_factory.hpp:77] Creating layer Eltwise11_ReLU23_0_split
I0825 11:12:21.965307  2068 net.cpp:128] Creating Layer Eltwise11_ReLU23_0_split
I0825 11:12:21.965340  2068 net.cpp:558] Eltwise11_ReLU23_0_split <- Eltwise11
I0825 11:12:21.965378  2068 net.cpp:522] Eltwise11_ReLU23_0_split -> Eltwise11_ReLU23_0_split_0
I0825 11:12:21.965417  2068 net.cpp:522] Eltwise11_ReLU23_0_split -> Eltwise11_ReLU23_0_split_1
I0825 11:12:21.965512  2068 net.cpp:172] Setting up Eltwise11_ReLU23_0_split
I0825 11:12:21.965549  2068 net.cpp:186] Top shape: 64 32 16 16 (524288)
I0825 11:12:21.965582  2068 net.cpp:186] Top shape: 64 32 16 16 (524288)
I0825 11:12:21.965613  2068 net.cpp:194] Memory required for data: 493617408
I0825 11:12:21.965646  2068 layer_factory.hpp:77] Creating layer Convolution25
I0825 11:12:21.965685  2068 net.cpp:128] Creating Layer Convolution25
I0825 11:12:21.965718  2068 net.cpp:558] Convolution25 <- Eltwise11_ReLU23_0_split_0
I0825 11:12:21.965756  2068 net.cpp:522] Convolution25 -> Convolution25
I0825 11:12:21.977138  2068 net.cpp:172] Setting up Convolution25
I0825 11:12:21.977206  2068 net.cpp:186] Top shape: 64 32 16 16 (524288)
I0825 11:12:21.977239  2068 net.cpp:194] Memory required for data: 495714560
I0825 11:12:21.977277  2068 layer_factory.hpp:77] Creating layer BatchNorm25
I0825 11:12:21.977313  2068 net.cpp:128] Creating Layer BatchNorm25
I0825 11:12:21.977347  2068 net.cpp:558] BatchNorm25 <- Convolution25
I0825 11:12:21.977385  2068 net.cpp:509] BatchNorm25 -> Convolution25 (in-place)
I0825 11:12:21.977687  2068 net.cpp:172] Setting up BatchNorm25
I0825 11:12:21.977728  2068 net.cpp:186] Top shape: 64 32 16 16 (524288)
I0825 11:12:21.977759  2068 net.cpp:194] Memory required for data: 497811712
I0825 11:12:21.977799  2068 layer_factory.hpp:77] Creating layer Scale25
I0825 11:12:21.977834  2068 net.cpp:128] Creating Layer Scale25
I0825 11:12:21.977866  2068 net.cpp:558] Scale25 <- Convolution25
I0825 11:12:21.977900  2068 net.cpp:509] Scale25 -> Convolution25 (in-place)
I0825 11:12:21.977985  2068 layer_factory.hpp:77] Creating layer Scale25
I0825 11:12:21.978169  2068 net.cpp:172] Setting up Scale25
I0825 11:12:21.978209  2068 net.cpp:186] Top shape: 64 32 16 16 (524288)
I0825 11:12:21.978241  2068 net.cpp:194] Memory required for data: 499908864
I0825 11:12:21.978278  2068 layer_factory.hpp:77] Creating layer ReLU24
I0825 11:12:21.978313  2068 net.cpp:128] Creating Layer ReLU24
I0825 11:12:21.978354  2068 net.cpp:558] ReLU24 <- Convolution25
I0825 11:12:21.978389  2068 net.cpp:509] ReLU24 -> Convolution25 (in-place)
I0825 11:12:21.981385  2068 net.cpp:172] Setting up ReLU24
I0825 11:12:21.981437  2068 net.cpp:186] Top shape: 64 32 16 16 (524288)
I0825 11:12:21.981470  2068 net.cpp:194] Memory required for data: 502006016
I0825 11:12:21.981503  2068 layer_factory.hpp:77] Creating layer Convolution26
I0825 11:12:21.981547  2068 net.cpp:128] Creating Layer Convolution26
I0825 11:12:21.981580  2068 net.cpp:558] Convolution26 <- Convolution25
I0825 11:12:21.981616  2068 net.cpp:522] Convolution26 -> Convolution26
I0825 11:12:21.996824  2068 net.cpp:172] Setting up Convolution26
I0825 11:12:21.996891  2068 net.cpp:186] Top shape: 64 32 16 16 (524288)
I0825 11:12:21.996933  2068 net.cpp:194] Memory required for data: 504103168
I0825 11:12:21.996973  2068 layer_factory.hpp:77] Creating layer BatchNorm26
I0825 11:12:21.997011  2068 net.cpp:128] Creating Layer BatchNorm26
I0825 11:12:21.997043  2068 net.cpp:558] BatchNorm26 <- Convolution26
I0825 11:12:21.997078  2068 net.cpp:509] BatchNorm26 -> Convolution26 (in-place)
I0825 11:12:21.997388  2068 net.cpp:172] Setting up BatchNorm26
I0825 11:12:21.997429  2068 net.cpp:186] Top shape: 64 32 16 16 (524288)
I0825 11:12:21.997460  2068 net.cpp:194] Memory required for data: 506200320
I0825 11:12:21.997500  2068 layer_factory.hpp:77] Creating layer Scale26
I0825 11:12:21.997535  2068 net.cpp:128] Creating Layer Scale26
I0825 11:12:21.997577  2068 net.cpp:558] Scale26 <- Convolution26
I0825 11:12:21.997611  2068 net.cpp:509] Scale26 -> Convolution26 (in-place)
I0825 11:12:21.997701  2068 layer_factory.hpp:77] Creating layer Scale26
I0825 11:12:21.997890  2068 net.cpp:172] Setting up Scale26
I0825 11:12:21.997928  2068 net.cpp:186] Top shape: 64 32 16 16 (524288)
I0825 11:12:21.997961  2068 net.cpp:194] Memory required for data: 508297472
I0825 11:12:21.997997  2068 layer_factory.hpp:77] Creating layer Eltwise12
I0825 11:12:21.998035  2068 net.cpp:128] Creating Layer Eltwise12
I0825 11:12:21.998067  2068 net.cpp:558] Eltwise12 <- Eltwise11_ReLU23_0_split_1
I0825 11:12:21.998101  2068 net.cpp:558] Eltwise12 <- Convolution26
I0825 11:12:21.998136  2068 net.cpp:522] Eltwise12 -> Eltwise12
I0825 11:12:21.998193  2068 net.cpp:172] Setting up Eltwise12
I0825 11:12:21.998229  2068 net.cpp:186] Top shape: 64 32 16 16 (524288)
I0825 11:12:21.998260  2068 net.cpp:194] Memory required for data: 510394624
I0825 11:12:21.998291  2068 layer_factory.hpp:77] Creating layer ReLU25
I0825 11:12:21.998329  2068 net.cpp:128] Creating Layer ReLU25
I0825 11:12:21.998368  2068 net.cpp:558] ReLU25 <- Eltwise12
I0825 11:12:21.998401  2068 net.cpp:509] ReLU25 -> Eltwise12 (in-place)
I0825 11:12:22.003168  2068 net.cpp:172] Setting up ReLU25
I0825 11:12:22.003219  2068 net.cpp:186] Top shape: 64 32 16 16 (524288)
I0825 11:12:22.003252  2068 net.cpp:194] Memory required for data: 512491776
I0825 11:12:22.003283  2068 layer_factory.hpp:77] Creating layer Eltwise12_ReLU25_0_split
I0825 11:12:22.003335  2068 net.cpp:128] Creating Layer Eltwise12_ReLU25_0_split
I0825 11:12:22.003368  2068 net.cpp:558] Eltwise12_ReLU25_0_split <- Eltwise12
I0825 11:12:22.003404  2068 net.cpp:522] Eltwise12_ReLU25_0_split -> Eltwise12_ReLU25_0_split_0
I0825 11:12:22.003451  2068 net.cpp:522] Eltwise12_ReLU25_0_split -> Eltwise12_ReLU25_0_split_1
I0825 11:12:22.003542  2068 net.cpp:172] Setting up Eltwise12_ReLU25_0_split
I0825 11:12:22.003582  2068 net.cpp:186] Top shape: 64 32 16 16 (524288)
I0825 11:12:22.003615  2068 net.cpp:186] Top shape: 64 32 16 16 (524288)
I0825 11:12:22.003646  2068 net.cpp:194] Memory required for data: 516686080
I0825 11:12:22.003679  2068 layer_factory.hpp:77] Creating layer Convolution27
I0825 11:12:22.003718  2068 net.cpp:128] Creating Layer Convolution27
I0825 11:12:22.003751  2068 net.cpp:558] Convolution27 <- Eltwise12_ReLU25_0_split_0
I0825 11:12:22.003790  2068 net.cpp:522] Convolution27 -> Convolution27
I0825 11:12:22.022169  2068 net.cpp:172] Setting up Convolution27
I0825 11:12:22.022239  2068 net.cpp:186] Top shape: 64 32 16 16 (524288)
I0825 11:12:22.022272  2068 net.cpp:194] Memory required for data: 518783232
I0825 11:12:22.022312  2068 layer_factory.hpp:77] Creating layer BatchNorm27
I0825 11:12:22.022359  2068 net.cpp:128] Creating Layer BatchNorm27
I0825 11:12:22.022393  2068 net.cpp:558] BatchNorm27 <- Convolution27
I0825 11:12:22.022428  2068 net.cpp:509] BatchNorm27 -> Convolution27 (in-place)
I0825 11:12:22.022737  2068 net.cpp:172] Setting up BatchNorm27
I0825 11:12:22.022776  2068 net.cpp:186] Top shape: 64 32 16 16 (524288)
I0825 11:12:22.022807  2068 net.cpp:194] Memory required for data: 520880384
I0825 11:12:22.022846  2068 layer_factory.hpp:77] Creating layer Scale27
I0825 11:12:22.022881  2068 net.cpp:128] Creating Layer Scale27
I0825 11:12:22.022920  2068 net.cpp:558] Scale27 <- Convolution27
I0825 11:12:22.022958  2068 net.cpp:509] Scale27 -> Convolution27 (in-place)
I0825 11:12:22.023042  2068 layer_factory.hpp:77] Creating layer Scale27
I0825 11:12:22.023232  2068 net.cpp:172] Setting up Scale27
I0825 11:12:22.023270  2068 net.cpp:186] Top shape: 64 32 16 16 (524288)
I0825 11:12:22.023301  2068 net.cpp:194] Memory required for data: 522977536
I0825 11:12:22.023339  2068 layer_factory.hpp:77] Creating layer ReLU26
I0825 11:12:22.023373  2068 net.cpp:128] Creating Layer ReLU26
I0825 11:12:22.023404  2068 net.cpp:558] ReLU26 <- Convolution27
I0825 11:12:22.023442  2068 net.cpp:509] ReLU26 -> Convolution27 (in-place)
I0825 11:12:22.026403  2068 net.cpp:172] Setting up ReLU26
I0825 11:12:22.026465  2068 net.cpp:186] Top shape: 64 32 16 16 (524288)
I0825 11:12:22.026497  2068 net.cpp:194] Memory required for data: 525074688
I0825 11:12:22.026530  2068 layer_factory.hpp:77] Creating layer Convolution28
I0825 11:12:22.026573  2068 net.cpp:128] Creating Layer Convolution28
I0825 11:12:22.026607  2068 net.cpp:558] Convolution28 <- Convolution27
I0825 11:12:22.026645  2068 net.cpp:522] Convolution28 -> Convolution28
I0825 11:12:22.037734  2068 net.cpp:172] Setting up Convolution28
I0825 11:12:22.037799  2068 net.cpp:186] Top shape: 64 32 16 16 (524288)
I0825 11:12:22.037832  2068 net.cpp:194] Memory required for data: 527171840
I0825 11:12:22.037870  2068 layer_factory.hpp:77] Creating layer BatchNorm28
I0825 11:12:22.037910  2068 net.cpp:128] Creating Layer BatchNorm28
I0825 11:12:22.037942  2068 net.cpp:558] BatchNorm28 <- Convolution28
I0825 11:12:22.037979  2068 net.cpp:509] BatchNorm28 -> Convolution28 (in-place)
I0825 11:12:22.038286  2068 net.cpp:172] Setting up BatchNorm28
I0825 11:12:22.038326  2068 net.cpp:186] Top shape: 64 32 16 16 (524288)
I0825 11:12:22.038367  2068 net.cpp:194] Memory required for data: 529268992
I0825 11:12:22.038406  2068 layer_factory.hpp:77] Creating layer Scale28
I0825 11:12:22.038445  2068 net.cpp:128] Creating Layer Scale28
I0825 11:12:22.038476  2068 net.cpp:558] Scale28 <- Convolution28
I0825 11:12:22.038509  2068 net.cpp:509] Scale28 -> Convolution28 (in-place)
I0825 11:12:22.038599  2068 layer_factory.hpp:77] Creating layer Scale28
I0825 11:12:22.038794  2068 net.cpp:172] Setting up Scale28
I0825 11:12:22.038831  2068 net.cpp:186] Top shape: 64 32 16 16 (524288)
I0825 11:12:22.038862  2068 net.cpp:194] Memory required for data: 531366144
I0825 11:12:22.038900  2068 layer_factory.hpp:77] Creating layer Eltwise13
I0825 11:12:22.038939  2068 net.cpp:128] Creating Layer Eltwise13
I0825 11:12:22.038975  2068 net.cpp:558] Eltwise13 <- Eltwise12_ReLU25_0_split_1
I0825 11:12:22.039011  2068 net.cpp:558] Eltwise13 <- Convolution28
I0825 11:12:22.039047  2068 net.cpp:522] Eltwise13 -> Eltwise13
I0825 11:12:22.039113  2068 net.cpp:172] Setting up Eltwise13
I0825 11:12:22.039150  2068 net.cpp:186] Top shape: 64 32 16 16 (524288)
I0825 11:12:22.039182  2068 net.cpp:194] Memory required for data: 533463296
I0825 11:12:22.039214  2068 layer_factory.hpp:77] Creating layer ReLU27
I0825 11:12:22.039248  2068 net.cpp:128] Creating Layer ReLU27
I0825 11:12:22.039280  2068 net.cpp:558] ReLU27 <- Eltwise13
I0825 11:12:22.039315  2068 net.cpp:509] ReLU27 -> Eltwise13 (in-place)
I0825 11:12:22.039849  2068 net.cpp:172] Setting up ReLU27
I0825 11:12:22.039896  2068 net.cpp:186] Top shape: 64 32 16 16 (524288)
I0825 11:12:22.039928  2068 net.cpp:194] Memory required for data: 535560448
I0825 11:12:22.039960  2068 layer_factory.hpp:77] Creating layer Eltwise13_ReLU27_0_split
I0825 11:12:22.039997  2068 net.cpp:128] Creating Layer Eltwise13_ReLU27_0_split
I0825 11:12:22.040030  2068 net.cpp:558] Eltwise13_ReLU27_0_split <- Eltwise13
I0825 11:12:22.040067  2068 net.cpp:522] Eltwise13_ReLU27_0_split -> Eltwise13_ReLU27_0_split_0
I0825 11:12:22.040107  2068 net.cpp:522] Eltwise13_ReLU27_0_split -> Eltwise13_ReLU27_0_split_1
I0825 11:12:22.040200  2068 net.cpp:172] Setting up Eltwise13_ReLU27_0_split
I0825 11:12:22.040238  2068 net.cpp:186] Top shape: 64 32 16 16 (524288)
I0825 11:12:22.040280  2068 net.cpp:186] Top shape: 64 32 16 16 (524288)
I0825 11:12:22.040313  2068 net.cpp:194] Memory required for data: 539754752
I0825 11:12:22.040344  2068 layer_factory.hpp:77] Creating layer Convolution29
I0825 11:12:22.040386  2068 net.cpp:128] Creating Layer Convolution29
I0825 11:12:22.040418  2068 net.cpp:558] Convolution29 <- Eltwise13_ReLU27_0_split_0
I0825 11:12:22.040460  2068 net.cpp:522] Convolution29 -> Convolution29
I0825 11:12:22.048893  2068 net.cpp:172] Setting up Convolution29
I0825 11:12:22.048961  2068 net.cpp:186] Top shape: 64 32 16 16 (524288)
I0825 11:12:22.048993  2068 net.cpp:194] Memory required for data: 541851904
I0825 11:12:22.049043  2068 layer_factory.hpp:77] Creating layer BatchNorm29
I0825 11:12:22.049082  2068 net.cpp:128] Creating Layer BatchNorm29
I0825 11:12:22.049113  2068 net.cpp:558] BatchNorm29 <- Convolution29
I0825 11:12:22.049149  2068 net.cpp:509] BatchNorm29 -> Convolution29 (in-place)
I0825 11:12:22.049461  2068 net.cpp:172] Setting up BatchNorm29
I0825 11:12:22.049502  2068 net.cpp:186] Top shape: 64 32 16 16 (524288)
I0825 11:12:22.049533  2068 net.cpp:194] Memory required for data: 543949056
I0825 11:12:22.049572  2068 layer_factory.hpp:77] Creating layer Scale29
I0825 11:12:22.049610  2068 net.cpp:128] Creating Layer Scale29
I0825 11:12:22.049641  2068 net.cpp:558] Scale29 <- Convolution29
I0825 11:12:22.049674  2068 net.cpp:509] Scale29 -> Convolution29 (in-place)
I0825 11:12:22.049760  2068 layer_factory.hpp:77] Creating layer Scale29
I0825 11:12:22.049952  2068 net.cpp:172] Setting up Scale29
I0825 11:12:22.049989  2068 net.cpp:186] Top shape: 64 32 16 16 (524288)
I0825 11:12:22.050020  2068 net.cpp:194] Memory required for data: 546046208
I0825 11:12:22.050057  2068 layer_factory.hpp:77] Creating layer ReLU28
I0825 11:12:22.050096  2068 net.cpp:128] Creating Layer ReLU28
I0825 11:12:22.050127  2068 net.cpp:558] ReLU28 <- Convolution29
I0825 11:12:22.050163  2068 net.cpp:509] ReLU28 -> Convolution29 (in-place)
I0825 11:12:22.053146  2068 net.cpp:172] Setting up ReLU28
I0825 11:12:22.053203  2068 net.cpp:186] Top shape: 64 32 16 16 (524288)
I0825 11:12:22.053236  2068 net.cpp:194] Memory required for data: 548143360
I0825 11:12:22.053268  2068 layer_factory.hpp:77] Creating layer Convolution30
I0825 11:12:22.053314  2068 net.cpp:128] Creating Layer Convolution30
I0825 11:12:22.053346  2068 net.cpp:558] Convolution30 <- Convolution29
I0825 11:12:22.053386  2068 net.cpp:522] Convolution30 -> Convolution30
I0825 11:12:22.072731  2068 net.cpp:172] Setting up Convolution30
I0825 11:12:22.072798  2068 net.cpp:186] Top shape: 64 32 16 16 (524288)
I0825 11:12:22.072831  2068 net.cpp:194] Memory required for data: 550240512
I0825 11:12:22.072870  2068 layer_factory.hpp:77] Creating layer BatchNorm30
I0825 11:12:22.072908  2068 net.cpp:128] Creating Layer BatchNorm30
I0825 11:12:22.072942  2068 net.cpp:558] BatchNorm30 <- Convolution30
I0825 11:12:22.072978  2068 net.cpp:509] BatchNorm30 -> Convolution30 (in-place)
I0825 11:12:22.073292  2068 net.cpp:172] Setting up BatchNorm30
I0825 11:12:22.073333  2068 net.cpp:186] Top shape: 64 32 16 16 (524288)
I0825 11:12:22.073364  2068 net.cpp:194] Memory required for data: 552337664
I0825 11:12:22.073402  2068 layer_factory.hpp:77] Creating layer Scale30
I0825 11:12:22.073439  2068 net.cpp:128] Creating Layer Scale30
I0825 11:12:22.073472  2068 net.cpp:558] Scale30 <- Convolution30
I0825 11:12:22.073504  2068 net.cpp:509] Scale30 -> Convolution30 (in-place)
I0825 11:12:22.073591  2068 layer_factory.hpp:77] Creating layer Scale30
I0825 11:12:22.073781  2068 net.cpp:172] Setting up Scale30
I0825 11:12:22.073819  2068 net.cpp:186] Top shape: 64 32 16 16 (524288)
I0825 11:12:22.073850  2068 net.cpp:194] Memory required for data: 554434816
I0825 11:12:22.073887  2068 layer_factory.hpp:77] Creating layer Eltwise14
I0825 11:12:22.073925  2068 net.cpp:128] Creating Layer Eltwise14
I0825 11:12:22.073957  2068 net.cpp:558] Eltwise14 <- Eltwise13_ReLU27_0_split_1
I0825 11:12:22.074000  2068 net.cpp:558] Eltwise14 <- Convolution30
I0825 11:12:22.074034  2068 net.cpp:522] Eltwise14 -> Eltwise14
I0825 11:12:22.074097  2068 net.cpp:172] Setting up Eltwise14
I0825 11:12:22.074133  2068 net.cpp:186] Top shape: 64 32 16 16 (524288)
I0825 11:12:22.074164  2068 net.cpp:194] Memory required for data: 556531968
I0825 11:12:22.074195  2068 layer_factory.hpp:77] Creating layer ReLU29
I0825 11:12:22.074229  2068 net.cpp:128] Creating Layer ReLU29
I0825 11:12:22.074260  2068 net.cpp:558] ReLU29 <- Eltwise14
I0825 11:12:22.074295  2068 net.cpp:509] ReLU29 -> Eltwise14 (in-place)
I0825 11:12:22.079046  2068 net.cpp:172] Setting up ReLU29
I0825 11:12:22.079107  2068 net.cpp:186] Top shape: 64 32 16 16 (524288)
I0825 11:12:22.079149  2068 net.cpp:194] Memory required for data: 558629120
I0825 11:12:22.079182  2068 layer_factory.hpp:77] Creating layer Eltwise14_ReLU29_0_split
I0825 11:12:22.079219  2068 net.cpp:128] Creating Layer Eltwise14_ReLU29_0_split
I0825 11:12:22.079253  2068 net.cpp:558] Eltwise14_ReLU29_0_split <- Eltwise14
I0825 11:12:22.079290  2068 net.cpp:522] Eltwise14_ReLU29_0_split -> Eltwise14_ReLU29_0_split_0
I0825 11:12:22.079329  2068 net.cpp:522] Eltwise14_ReLU29_0_split -> Eltwise14_ReLU29_0_split_1
I0825 11:12:22.079423  2068 net.cpp:172] Setting up Eltwise14_ReLU29_0_split
I0825 11:12:22.079461  2068 net.cpp:186] Top shape: 64 32 16 16 (524288)
I0825 11:12:22.079495  2068 net.cpp:186] Top shape: 64 32 16 16 (524288)
I0825 11:12:22.079525  2068 net.cpp:194] Memory required for data: 562823424
I0825 11:12:22.079557  2068 layer_factory.hpp:77] Creating layer Convolution31
I0825 11:12:22.079601  2068 net.cpp:128] Creating Layer Convolution31
I0825 11:12:22.079632  2068 net.cpp:558] Convolution31 <- Eltwise14_ReLU29_0_split_0
I0825 11:12:22.079672  2068 net.cpp:522] Convolution31 -> Convolution31
I0825 11:12:22.098651  2068 net.cpp:172] Setting up Convolution31
I0825 11:12:22.098717  2068 net.cpp:186] Top shape: 64 32 16 16 (524288)
I0825 11:12:22.098749  2068 net.cpp:194] Memory required for data: 564920576
I0825 11:12:22.098788  2068 layer_factory.hpp:77] Creating layer BatchNorm31
I0825 11:12:22.098827  2068 net.cpp:128] Creating Layer BatchNorm31
I0825 11:12:22.098860  2068 net.cpp:558] BatchNorm31 <- Convolution31
I0825 11:12:22.098896  2068 net.cpp:509] BatchNorm31 -> Convolution31 (in-place)
I0825 11:12:22.099203  2068 net.cpp:172] Setting up BatchNorm31
I0825 11:12:22.099241  2068 net.cpp:186] Top shape: 64 32 16 16 (524288)
I0825 11:12:22.099273  2068 net.cpp:194] Memory required for data: 567017728
I0825 11:12:22.099313  2068 layer_factory.hpp:77] Creating layer Scale31
I0825 11:12:22.099352  2068 net.cpp:128] Creating Layer Scale31
I0825 11:12:22.099385  2068 net.cpp:558] Scale31 <- Convolution31
I0825 11:12:22.099417  2068 net.cpp:509] Scale31 -> Convolution31 (in-place)
I0825 11:12:22.099506  2068 layer_factory.hpp:77] Creating layer Scale31
I0825 11:12:22.099699  2068 net.cpp:172] Setting up Scale31
I0825 11:12:22.099736  2068 net.cpp:186] Top shape: 64 32 16 16 (524288)
I0825 11:12:22.099767  2068 net.cpp:194] Memory required for data: 569114880
I0825 11:12:22.099804  2068 layer_factory.hpp:77] Creating layer ReLU30
I0825 11:12:22.099841  2068 net.cpp:128] Creating Layer ReLU30
I0825 11:12:22.099874  2068 net.cpp:558] ReLU30 <- Convolution31
I0825 11:12:22.099906  2068 net.cpp:509] ReLU30 -> Convolution31 (in-place)
I0825 11:12:22.103379  2068 net.cpp:172] Setting up ReLU30
I0825 11:12:22.103444  2068 net.cpp:186] Top shape: 64 32 16 16 (524288)
I0825 11:12:22.103477  2068 net.cpp:194] Memory required for data: 571212032
I0825 11:12:22.103510  2068 layer_factory.hpp:77] Creating layer Convolution32
I0825 11:12:22.103551  2068 net.cpp:128] Creating Layer Convolution32
I0825 11:12:22.103585  2068 net.cpp:558] Convolution32 <- Convolution31
I0825 11:12:22.103621  2068 net.cpp:522] Convolution32 -> Convolution32
I0825 11:12:22.116677  2068 net.cpp:172] Setting up Convolution32
I0825 11:12:22.116744  2068 net.cpp:186] Top shape: 64 32 16 16 (524288)
I0825 11:12:22.116776  2068 net.cpp:194] Memory required for data: 573309184
I0825 11:12:22.116827  2068 layer_factory.hpp:77] Creating layer BatchNorm32
I0825 11:12:22.116866  2068 net.cpp:128] Creating Layer BatchNorm32
I0825 11:12:22.116899  2068 net.cpp:558] BatchNorm32 <- Convolution32
I0825 11:12:22.116933  2068 net.cpp:509] BatchNorm32 -> Convolution32 (in-place)
I0825 11:12:22.117244  2068 net.cpp:172] Setting up BatchNorm32
I0825 11:12:22.117285  2068 net.cpp:186] Top shape: 64 32 16 16 (524288)
I0825 11:12:22.117316  2068 net.cpp:194] Memory required for data: 575406336
I0825 11:12:22.117354  2068 layer_factory.hpp:77] Creating layer Scale32
I0825 11:12:22.117391  2068 net.cpp:128] Creating Layer Scale32
I0825 11:12:22.117432  2068 net.cpp:558] Scale32 <- Convolution32
I0825 11:12:22.117466  2068 net.cpp:509] Scale32 -> Convolution32 (in-place)
I0825 11:12:22.117554  2068 layer_factory.hpp:77] Creating layer Scale32
I0825 11:12:22.117756  2068 net.cpp:172] Setting up Scale32
I0825 11:12:22.117797  2068 net.cpp:186] Top shape: 64 32 16 16 (524288)
I0825 11:12:22.117828  2068 net.cpp:194] Memory required for data: 577503488
I0825 11:12:22.117866  2068 layer_factory.hpp:77] Creating layer Eltwise15
I0825 11:12:22.117900  2068 net.cpp:128] Creating Layer Eltwise15
I0825 11:12:22.117933  2068 net.cpp:558] Eltwise15 <- Eltwise14_ReLU29_0_split_1
I0825 11:12:22.117966  2068 net.cpp:558] Eltwise15 <- Convolution32
I0825 11:12:22.118003  2068 net.cpp:522] Eltwise15 -> Eltwise15
I0825 11:12:22.118062  2068 net.cpp:172] Setting up Eltwise15
I0825 11:12:22.118098  2068 net.cpp:186] Top shape: 64 32 16 16 (524288)
I0825 11:12:22.118129  2068 net.cpp:194] Memory required for data: 579600640
I0825 11:12:22.118160  2068 layer_factory.hpp:77] Creating layer ReLU31
I0825 11:12:22.118197  2068 net.cpp:128] Creating Layer ReLU31
I0825 11:12:22.118228  2068 net.cpp:558] ReLU31 <- Eltwise15
I0825 11:12:22.118260  2068 net.cpp:509] ReLU31 -> Eltwise15 (in-place)
I0825 11:12:22.121179  2068 net.cpp:172] Setting up ReLU31
I0825 11:12:22.121250  2068 net.cpp:186] Top shape: 64 32 16 16 (524288)
I0825 11:12:22.121284  2068 net.cpp:194] Memory required for data: 581697792
I0825 11:12:22.121316  2068 layer_factory.hpp:77] Creating layer Eltwise15_ReLU31_0_split
I0825 11:12:22.121352  2068 net.cpp:128] Creating Layer Eltwise15_ReLU31_0_split
I0825 11:12:22.121385  2068 net.cpp:558] Eltwise15_ReLU31_0_split <- Eltwise15
I0825 11:12:22.121421  2068 net.cpp:522] Eltwise15_ReLU31_0_split -> Eltwise15_ReLU31_0_split_0
I0825 11:12:22.121462  2068 net.cpp:522] Eltwise15_ReLU31_0_split -> Eltwise15_ReLU31_0_split_1
I0825 11:12:22.121559  2068 net.cpp:172] Setting up Eltwise15_ReLU31_0_split
I0825 11:12:22.121596  2068 net.cpp:186] Top shape: 64 32 16 16 (524288)
I0825 11:12:22.121630  2068 net.cpp:186] Top shape: 64 32 16 16 (524288)
I0825 11:12:22.121660  2068 net.cpp:194] Memory required for data: 585892096
I0825 11:12:22.121693  2068 layer_factory.hpp:77] Creating layer Convolution33
I0825 11:12:22.121737  2068 net.cpp:128] Creating Layer Convolution33
I0825 11:12:22.121768  2068 net.cpp:558] Convolution33 <- Eltwise15_ReLU31_0_split_0
I0825 11:12:22.121805  2068 net.cpp:522] Convolution33 -> Convolution33
I0825 11:12:22.136607  2068 net.cpp:172] Setting up Convolution33
I0825 11:12:22.136678  2068 net.cpp:186] Top shape: 64 32 16 16 (524288)
I0825 11:12:22.136711  2068 net.cpp:194] Memory required for data: 587989248
I0825 11:12:22.136750  2068 layer_factory.hpp:77] Creating layer BatchNorm33
I0825 11:12:22.136787  2068 net.cpp:128] Creating Layer BatchNorm33
I0825 11:12:22.136819  2068 net.cpp:558] BatchNorm33 <- Convolution33
I0825 11:12:22.136855  2068 net.cpp:509] BatchNorm33 -> Convolution33 (in-place)
I0825 11:12:22.137177  2068 net.cpp:172] Setting up BatchNorm33
I0825 11:12:22.137217  2068 net.cpp:186] Top shape: 64 32 16 16 (524288)
I0825 11:12:22.137248  2068 net.cpp:194] Memory required for data: 590086400
I0825 11:12:22.137286  2068 layer_factory.hpp:77] Creating layer Scale33
I0825 11:12:22.137322  2068 net.cpp:128] Creating Layer Scale33
I0825 11:12:22.137353  2068 net.cpp:558] Scale33 <- Convolution33
I0825 11:12:22.137393  2068 net.cpp:509] Scale33 -> Convolution33 (in-place)
I0825 11:12:22.137482  2068 layer_factory.hpp:77] Creating layer Scale33
I0825 11:12:22.137678  2068 net.cpp:172] Setting up Scale33
I0825 11:12:22.137719  2068 net.cpp:186] Top shape: 64 32 16 16 (524288)
I0825 11:12:22.137751  2068 net.cpp:194] Memory required for data: 592183552
I0825 11:12:22.137789  2068 layer_factory.hpp:77] Creating layer ReLU32
I0825 11:12:22.137822  2068 net.cpp:128] Creating Layer ReLU32
I0825 11:12:22.137853  2068 net.cpp:558] ReLU32 <- Convolution33
I0825 11:12:22.137887  2068 net.cpp:509] ReLU32 -> Convolution33 (in-place)
I0825 11:12:22.142662  2068 net.cpp:172] Setting up ReLU32
I0825 11:12:22.142729  2068 net.cpp:186] Top shape: 64 32 16 16 (524288)
I0825 11:12:22.142761  2068 net.cpp:194] Memory required for data: 594280704
I0825 11:12:22.142793  2068 layer_factory.hpp:77] Creating layer Convolution34
I0825 11:12:22.142838  2068 net.cpp:128] Creating Layer Convolution34
I0825 11:12:22.142869  2068 net.cpp:558] Convolution34 <- Convolution33
I0825 11:12:22.142905  2068 net.cpp:522] Convolution34 -> Convolution34
I0825 11:12:22.162196  2068 net.cpp:172] Setting up Convolution34
I0825 11:12:22.162261  2068 net.cpp:186] Top shape: 64 32 16 16 (524288)
I0825 11:12:22.162294  2068 net.cpp:194] Memory required for data: 596377856
I0825 11:12:22.162339  2068 layer_factory.hpp:77] Creating layer BatchNorm34
I0825 11:12:22.162379  2068 net.cpp:128] Creating Layer BatchNorm34
I0825 11:12:22.162411  2068 net.cpp:558] BatchNorm34 <- Convolution34
I0825 11:12:22.162446  2068 net.cpp:509] BatchNorm34 -> Convolution34 (in-place)
I0825 11:12:22.162760  2068 net.cpp:172] Setting up BatchNorm34
I0825 11:12:22.162801  2068 net.cpp:186] Top shape: 64 32 16 16 (524288)
I0825 11:12:22.162832  2068 net.cpp:194] Memory required for data: 598475008
I0825 11:12:22.162871  2068 layer_factory.hpp:77] Creating layer Scale34
I0825 11:12:22.162906  2068 net.cpp:128] Creating Layer Scale34
I0825 11:12:22.162937  2068 net.cpp:558] Scale34 <- Convolution34
I0825 11:12:22.162971  2068 net.cpp:509] Scale34 -> Convolution34 (in-place)
I0825 11:12:22.163060  2068 layer_factory.hpp:77] Creating layer Scale34
I0825 11:12:22.163252  2068 net.cpp:172] Setting up Scale34
I0825 11:12:22.163291  2068 net.cpp:186] Top shape: 64 32 16 16 (524288)
I0825 11:12:22.163322  2068 net.cpp:194] Memory required for data: 600572160
I0825 11:12:22.163358  2068 layer_factory.hpp:77] Creating layer Eltwise16
I0825 11:12:22.163398  2068 net.cpp:128] Creating Layer Eltwise16
I0825 11:12:22.163429  2068 net.cpp:558] Eltwise16 <- Eltwise15_ReLU31_0_split_1
I0825 11:12:22.163462  2068 net.cpp:558] Eltwise16 <- Convolution34
I0825 11:12:22.163497  2068 net.cpp:522] Eltwise16 -> Eltwise16
I0825 11:12:22.163556  2068 net.cpp:172] Setting up Eltwise16
I0825 11:12:22.163592  2068 net.cpp:186] Top shape: 64 32 16 16 (524288)
I0825 11:12:22.163624  2068 net.cpp:194] Memory required for data: 602669312
I0825 11:12:22.163655  2068 layer_factory.hpp:77] Creating layer ReLU33
I0825 11:12:22.163692  2068 net.cpp:128] Creating Layer ReLU33
I0825 11:12:22.163724  2068 net.cpp:558] ReLU33 <- Eltwise16
I0825 11:12:22.163758  2068 net.cpp:509] ReLU33 -> Eltwise16 (in-place)
I0825 11:12:22.168584  2068 net.cpp:172] Setting up ReLU33
I0825 11:12:22.168649  2068 net.cpp:186] Top shape: 64 32 16 16 (524288)
I0825 11:12:22.168682  2068 net.cpp:194] Memory required for data: 604766464
I0825 11:12:22.168715  2068 layer_factory.hpp:77] Creating layer Eltwise16_ReLU33_0_split
I0825 11:12:22.168751  2068 net.cpp:128] Creating Layer Eltwise16_ReLU33_0_split
I0825 11:12:22.168783  2068 net.cpp:558] Eltwise16_ReLU33_0_split <- Eltwise16
I0825 11:12:22.168818  2068 net.cpp:522] Eltwise16_ReLU33_0_split -> Eltwise16_ReLU33_0_split_0
I0825 11:12:22.168859  2068 net.cpp:522] Eltwise16_ReLU33_0_split -> Eltwise16_ReLU33_0_split_1
I0825 11:12:22.168952  2068 net.cpp:172] Setting up Eltwise16_ReLU33_0_split
I0825 11:12:22.168990  2068 net.cpp:186] Top shape: 64 32 16 16 (524288)
I0825 11:12:22.169030  2068 net.cpp:186] Top shape: 64 32 16 16 (524288)
I0825 11:12:22.169062  2068 net.cpp:194] Memory required for data: 608960768
I0825 11:12:22.169093  2068 layer_factory.hpp:77] Creating layer Convolution35
I0825 11:12:22.169137  2068 net.cpp:128] Creating Layer Convolution35
I0825 11:12:22.169169  2068 net.cpp:558] Convolution35 <- Eltwise16_ReLU33_0_split_0
I0825 11:12:22.169204  2068 net.cpp:522] Convolution35 -> Convolution35
I0825 11:12:22.184530  2068 net.cpp:172] Setting up Convolution35
I0825 11:12:22.184595  2068 net.cpp:186] Top shape: 64 32 16 16 (524288)
I0825 11:12:22.184628  2068 net.cpp:194] Memory required for data: 611057920
I0825 11:12:22.184676  2068 layer_factory.hpp:77] Creating layer BatchNorm35
I0825 11:12:22.184716  2068 net.cpp:128] Creating Layer BatchNorm35
I0825 11:12:22.184749  2068 net.cpp:558] BatchNorm35 <- Convolution35
I0825 11:12:22.184785  2068 net.cpp:509] BatchNorm35 -> Convolution35 (in-place)
I0825 11:12:22.185102  2068 net.cpp:172] Setting up BatchNorm35
I0825 11:12:22.185142  2068 net.cpp:186] Top shape: 64 32 16 16 (524288)
I0825 11:12:22.185173  2068 net.cpp:194] Memory required for data: 613155072
I0825 11:12:22.185212  2068 layer_factory.hpp:77] Creating layer Scale35
I0825 11:12:22.185250  2068 net.cpp:128] Creating Layer Scale35
I0825 11:12:22.185281  2068 net.cpp:558] Scale35 <- Convolution35
I0825 11:12:22.185314  2068 net.cpp:509] Scale35 -> Convolution35 (in-place)
I0825 11:12:22.185401  2068 layer_factory.hpp:77] Creating layer Scale35
I0825 11:12:22.185597  2068 net.cpp:172] Setting up Scale35
I0825 11:12:22.185634  2068 net.cpp:186] Top shape: 64 32 16 16 (524288)
I0825 11:12:22.185667  2068 net.cpp:194] Memory required for data: 615252224
I0825 11:12:22.185703  2068 layer_factory.hpp:77] Creating layer ReLU34
I0825 11:12:22.185739  2068 net.cpp:128] Creating Layer ReLU34
I0825 11:12:22.185771  2068 net.cpp:558] ReLU34 <- Convolution35
I0825 11:12:22.185804  2068 net.cpp:509] ReLU34 -> Convolution35 (in-place)
I0825 11:12:22.188774  2068 net.cpp:172] Setting up ReLU34
I0825 11:12:22.188828  2068 net.cpp:186] Top shape: 64 32 16 16 (524288)
I0825 11:12:22.188860  2068 net.cpp:194] Memory required for data: 617349376
I0825 11:12:22.188894  2068 layer_factory.hpp:77] Creating layer Convolution36
I0825 11:12:22.188937  2068 net.cpp:128] Creating Layer Convolution36
I0825 11:12:22.188971  2068 net.cpp:558] Convolution36 <- Convolution35
I0825 11:12:22.189007  2068 net.cpp:522] Convolution36 -> Convolution36
I0825 11:12:22.202121  2068 net.cpp:172] Setting up Convolution36
I0825 11:12:22.202185  2068 net.cpp:186] Top shape: 64 32 16 16 (524288)
I0825 11:12:22.202219  2068 net.cpp:194] Memory required for data: 619446528
I0825 11:12:22.202258  2068 layer_factory.hpp:77] Creating layer BatchNorm36
I0825 11:12:22.202296  2068 net.cpp:128] Creating Layer BatchNorm36
I0825 11:12:22.202330  2068 net.cpp:558] BatchNorm36 <- Convolution36
I0825 11:12:22.202371  2068 net.cpp:509] BatchNorm36 -> Convolution36 (in-place)
I0825 11:12:22.202692  2068 net.cpp:172] Setting up BatchNorm36
I0825 11:12:22.202734  2068 net.cpp:186] Top shape: 64 32 16 16 (524288)
I0825 11:12:22.202765  2068 net.cpp:194] Memory required for data: 621543680
I0825 11:12:22.202805  2068 layer_factory.hpp:77] Creating layer Scale36
I0825 11:12:22.202841  2068 net.cpp:128] Creating Layer Scale36
I0825 11:12:22.202872  2068 net.cpp:558] Scale36 <- Convolution36
I0825 11:12:22.202908  2068 net.cpp:509] Scale36 -> Convolution36 (in-place)
I0825 11:12:22.202993  2068 layer_factory.hpp:77] Creating layer Scale36
I0825 11:12:22.203187  2068 net.cpp:172] Setting up Scale36
I0825 11:12:22.203225  2068 net.cpp:186] Top shape: 64 32 16 16 (524288)
I0825 11:12:22.203258  2068 net.cpp:194] Memory required for data: 623640832
I0825 11:12:22.203294  2068 layer_factory.hpp:77] Creating layer Eltwise17
I0825 11:12:22.203330  2068 net.cpp:128] Creating Layer Eltwise17
I0825 11:12:22.203362  2068 net.cpp:558] Eltwise17 <- Eltwise16_ReLU33_0_split_1
I0825 11:12:22.203395  2068 net.cpp:558] Eltwise17 <- Convolution36
I0825 11:12:22.203439  2068 net.cpp:522] Eltwise17 -> Eltwise17
I0825 11:12:22.203498  2068 net.cpp:172] Setting up Eltwise17
I0825 11:12:22.203534  2068 net.cpp:186] Top shape: 64 32 16 16 (524288)
I0825 11:12:22.203567  2068 net.cpp:194] Memory required for data: 625737984
I0825 11:12:22.203598  2068 layer_factory.hpp:77] Creating layer ReLU35
I0825 11:12:22.203636  2068 net.cpp:128] Creating Layer ReLU35
I0825 11:12:22.203668  2068 net.cpp:558] ReLU35 <- Eltwise17
I0825 11:12:22.203701  2068 net.cpp:509] ReLU35 -> Eltwise17 (in-place)
I0825 11:12:22.208461  2068 net.cpp:172] Setting up ReLU35
I0825 11:12:22.208513  2068 net.cpp:186] Top shape: 64 32 16 16 (524288)
I0825 11:12:22.208554  2068 net.cpp:194] Memory required for data: 627835136
I0825 11:12:22.208586  2068 layer_factory.hpp:77] Creating layer Eltwise17_ReLU35_0_split
I0825 11:12:22.208626  2068 net.cpp:128] Creating Layer Eltwise17_ReLU35_0_split
I0825 11:12:22.208659  2068 net.cpp:558] Eltwise17_ReLU35_0_split <- Eltwise17
I0825 11:12:22.208695  2068 net.cpp:522] Eltwise17_ReLU35_0_split -> Eltwise17_ReLU35_0_split_0
I0825 11:12:22.208734  2068 net.cpp:522] Eltwise17_ReLU35_0_split -> Eltwise17_ReLU35_0_split_1
I0825 11:12:22.208829  2068 net.cpp:172] Setting up Eltwise17_ReLU35_0_split
I0825 11:12:22.208868  2068 net.cpp:186] Top shape: 64 32 16 16 (524288)
I0825 11:12:22.208902  2068 net.cpp:186] Top shape: 64 32 16 16 (524288)
I0825 11:12:22.208933  2068 net.cpp:194] Memory required for data: 632029440
I0825 11:12:22.208966  2068 layer_factory.hpp:77] Creating layer Convolution37
I0825 11:12:22.209012  2068 net.cpp:128] Creating Layer Convolution37
I0825 11:12:22.209044  2068 net.cpp:558] Convolution37 <- Eltwise17_ReLU35_0_split_0
I0825 11:12:22.209080  2068 net.cpp:522] Convolution37 -> Convolution37
I0825 11:12:22.228103  2068 net.cpp:172] Setting up Convolution37
I0825 11:12:22.228168  2068 net.cpp:186] Top shape: 64 32 16 16 (524288)
I0825 11:12:22.228200  2068 net.cpp:194] Memory required for data: 634126592
I0825 11:12:22.228238  2068 layer_factory.hpp:77] Creating layer BatchNorm37
I0825 11:12:22.228277  2068 net.cpp:128] Creating Layer BatchNorm37
I0825 11:12:22.228310  2068 net.cpp:558] BatchNorm37 <- Convolution37
I0825 11:12:22.228346  2068 net.cpp:509] BatchNorm37 -> Convolution37 (in-place)
I0825 11:12:22.228659  2068 net.cpp:172] Setting up BatchNorm37
I0825 11:12:22.228699  2068 net.cpp:186] Top shape: 64 32 16 16 (524288)
I0825 11:12:22.228730  2068 net.cpp:194] Memory required for data: 636223744
I0825 11:12:22.228792  2068 layer_factory.hpp:77] Creating layer Scale37
I0825 11:12:22.228829  2068 net.cpp:128] Creating Layer Scale37
I0825 11:12:22.228862  2068 net.cpp:558] Scale37 <- Convolution37
I0825 11:12:22.228894  2068 net.cpp:509] Scale37 -> Convolution37 (in-place)
I0825 11:12:22.228986  2068 layer_factory.hpp:77] Creating layer Scale37
I0825 11:12:22.229180  2068 net.cpp:172] Setting up Scale37
I0825 11:12:22.229219  2068 net.cpp:186] Top shape: 64 32 16 16 (524288)
I0825 11:12:22.229250  2068 net.cpp:194] Memory required for data: 638320896
I0825 11:12:22.229287  2068 layer_factory.hpp:77] Creating layer ReLU36
I0825 11:12:22.229321  2068 net.cpp:128] Creating Layer ReLU36
I0825 11:12:22.229352  2068 net.cpp:558] ReLU36 <- Convolution37
I0825 11:12:22.229388  2068 net.cpp:509] ReLU36 -> Convolution37 (in-place)
I0825 11:12:22.234413  2068 net.cpp:172] Setting up ReLU36
I0825 11:12:22.234475  2068 net.cpp:186] Top shape: 64 32 16 16 (524288)
I0825 11:12:22.234508  2068 net.cpp:194] Memory required for data: 640418048
I0825 11:12:22.234540  2068 layer_factory.hpp:77] Creating layer Convolution38
I0825 11:12:22.234583  2068 net.cpp:128] Creating Layer Convolution38
I0825 11:12:22.234616  2068 net.cpp:558] Convolution38 <- Convolution37
I0825 11:12:22.234654  2068 net.cpp:522] Convolution38 -> Convolution38
I0825 11:12:22.244755  2068 net.cpp:172] Setting up Convolution38
I0825 11:12:22.244822  2068 net.cpp:186] Top shape: 64 32 16 16 (524288)
I0825 11:12:22.244854  2068 net.cpp:194] Memory required for data: 642515200
I0825 11:12:22.244899  2068 layer_factory.hpp:77] Creating layer BatchNorm38
I0825 11:12:22.244936  2068 net.cpp:128] Creating Layer BatchNorm38
I0825 11:12:22.244968  2068 net.cpp:558] BatchNorm38 <- Convolution38
I0825 11:12:22.245003  2068 net.cpp:509] BatchNorm38 -> Convolution38 (in-place)
I0825 11:12:22.245319  2068 net.cpp:172] Setting up BatchNorm38
I0825 11:12:22.245359  2068 net.cpp:186] Top shape: 64 32 16 16 (524288)
I0825 11:12:22.245391  2068 net.cpp:194] Memory required for data: 644612352
I0825 11:12:22.245429  2068 layer_factory.hpp:77] Creating layer Scale38
I0825 11:12:22.245467  2068 net.cpp:128] Creating Layer Scale38
I0825 11:12:22.245498  2068 net.cpp:558] Scale38 <- Convolution38
I0825 11:12:22.245543  2068 net.cpp:509] Scale38 -> Convolution38 (in-place)
I0825 11:12:22.245633  2068 layer_factory.hpp:77] Creating layer Scale38
I0825 11:12:22.245827  2068 net.cpp:172] Setting up Scale38
I0825 11:12:22.245865  2068 net.cpp:186] Top shape: 64 32 16 16 (524288)
I0825 11:12:22.245898  2068 net.cpp:194] Memory required for data: 646709504
I0825 11:12:22.245934  2068 layer_factory.hpp:77] Creating layer Eltwise18
I0825 11:12:22.245972  2068 net.cpp:128] Creating Layer Eltwise18
I0825 11:12:22.246004  2068 net.cpp:558] Eltwise18 <- Eltwise17_ReLU35_0_split_1
I0825 11:12:22.246037  2068 net.cpp:558] Eltwise18 <- Convolution38
I0825 11:12:22.246074  2068 net.cpp:522] Eltwise18 -> Eltwise18
I0825 11:12:22.246132  2068 net.cpp:172] Setting up Eltwise18
I0825 11:12:22.246168  2068 net.cpp:186] Top shape: 64 32 16 16 (524288)
I0825 11:12:22.246199  2068 net.cpp:194] Memory required for data: 648806656
I0825 11:12:22.246232  2068 layer_factory.hpp:77] Creating layer ReLU37
I0825 11:12:22.246265  2068 net.cpp:128] Creating Layer ReLU37
I0825 11:12:22.246296  2068 net.cpp:558] ReLU37 <- Eltwise18
I0825 11:12:22.246340  2068 net.cpp:509] ReLU37 -> Eltwise18 (in-place)
I0825 11:12:22.246623  2068 net.cpp:172] Setting up ReLU37
I0825 11:12:22.246676  2068 net.cpp:186] Top shape: 64 32 16 16 (524288)
I0825 11:12:22.246709  2068 net.cpp:194] Memory required for data: 650903808
I0825 11:12:22.246742  2068 layer_factory.hpp:77] Creating layer Eltwise18_ReLU37_0_split
I0825 11:12:22.246778  2068 net.cpp:128] Creating Layer Eltwise18_ReLU37_0_split
I0825 11:12:22.246811  2068 net.cpp:558] Eltwise18_ReLU37_0_split <- Eltwise18
I0825 11:12:22.246850  2068 net.cpp:522] Eltwise18_ReLU37_0_split -> Eltwise18_ReLU37_0_split_0
I0825 11:12:22.246887  2068 net.cpp:522] Eltwise18_ReLU37_0_split -> Eltwise18_ReLU37_0_split_1
I0825 11:12:22.246981  2068 net.cpp:172] Setting up Eltwise18_ReLU37_0_split
I0825 11:12:22.247020  2068 net.cpp:186] Top shape: 64 32 16 16 (524288)
I0825 11:12:22.247052  2068 net.cpp:186] Top shape: 64 32 16 16 (524288)
I0825 11:12:22.247083  2068 net.cpp:194] Memory required for data: 655098112
I0825 11:12:22.247115  2068 layer_factory.hpp:77] Creating layer Convolution39
I0825 11:12:22.247156  2068 net.cpp:128] Creating Layer Convolution39
I0825 11:12:22.247189  2068 net.cpp:558] Convolution39 <- Eltwise18_ReLU37_0_split_0
I0825 11:12:22.247228  2068 net.cpp:522] Convolution39 -> Convolution39
I0825 11:12:22.252704  2068 net.cpp:172] Setting up Convolution39
I0825 11:12:22.252771  2068 net.cpp:186] Top shape: 64 64 8 8 (262144)
I0825 11:12:22.252804  2068 net.cpp:194] Memory required for data: 656146688
I0825 11:12:22.252842  2068 layer_factory.hpp:77] Creating layer BatchNorm39
I0825 11:12:22.252882  2068 net.cpp:128] Creating Layer BatchNorm39
I0825 11:12:22.252914  2068 net.cpp:558] BatchNorm39 <- Convolution39
I0825 11:12:22.252954  2068 net.cpp:509] BatchNorm39 -> Convolution39 (in-place)
I0825 11:12:22.253280  2068 net.cpp:172] Setting up BatchNorm39
I0825 11:12:22.253321  2068 net.cpp:186] Top shape: 64 64 8 8 (262144)
I0825 11:12:22.253352  2068 net.cpp:194] Memory required for data: 657195264
I0825 11:12:22.253391  2068 layer_factory.hpp:77] Creating layer Scale39
I0825 11:12:22.253425  2068 net.cpp:128] Creating Layer Scale39
I0825 11:12:22.253456  2068 net.cpp:558] Scale39 <- Convolution39
I0825 11:12:22.253500  2068 net.cpp:509] Scale39 -> Convolution39 (in-place)
I0825 11:12:22.253585  2068 layer_factory.hpp:77] Creating layer Scale39
I0825 11:12:22.253782  2068 net.cpp:172] Setting up Scale39
I0825 11:12:22.253819  2068 net.cpp:186] Top shape: 64 64 8 8 (262144)
I0825 11:12:22.253851  2068 net.cpp:194] Memory required for data: 658243840
I0825 11:12:22.253888  2068 layer_factory.hpp:77] Creating layer Convolution40
I0825 11:12:22.253929  2068 net.cpp:128] Creating Layer Convolution40
I0825 11:12:22.253962  2068 net.cpp:558] Convolution40 <- Eltwise18_ReLU37_0_split_1
I0825 11:12:22.254000  2068 net.cpp:522] Convolution40 -> Convolution40
I0825 11:12:22.259785  2068 net.cpp:172] Setting up Convolution40
I0825 11:12:22.259867  2068 net.cpp:186] Top shape: 64 64 8 8 (262144)
I0825 11:12:22.259899  2068 net.cpp:194] Memory required for data: 659292416
I0825 11:12:22.259938  2068 layer_factory.hpp:77] Creating layer BatchNorm40
I0825 11:12:22.259977  2068 net.cpp:128] Creating Layer BatchNorm40
I0825 11:12:22.260010  2068 net.cpp:558] BatchNorm40 <- Convolution40
I0825 11:12:22.260046  2068 net.cpp:509] BatchNorm40 -> Convolution40 (in-place)
I0825 11:12:22.260377  2068 net.cpp:172] Setting up BatchNorm40
I0825 11:12:22.260417  2068 net.cpp:186] Top shape: 64 64 8 8 (262144)
I0825 11:12:22.260448  2068 net.cpp:194] Memory required for data: 660340992
I0825 11:12:22.260488  2068 layer_factory.hpp:77] Creating layer Scale40
I0825 11:12:22.260524  2068 net.cpp:128] Creating Layer Scale40
I0825 11:12:22.260556  2068 net.cpp:558] Scale40 <- Convolution40
I0825 11:12:22.260589  2068 net.cpp:509] Scale40 -> Convolution40 (in-place)
I0825 11:12:22.260676  2068 layer_factory.hpp:77] Creating layer Scale40
I0825 11:12:22.260884  2068 net.cpp:172] Setting up Scale40
I0825 11:12:22.260922  2068 net.cpp:186] Top shape: 64 64 8 8 (262144)
I0825 11:12:22.260954  2068 net.cpp:194] Memory required for data: 661389568
I0825 11:12:22.260993  2068 layer_factory.hpp:77] Creating layer ReLU38
I0825 11:12:22.261031  2068 net.cpp:128] Creating Layer ReLU38
I0825 11:12:22.261062  2068 net.cpp:558] ReLU38 <- Convolution40
I0825 11:12:22.261096  2068 net.cpp:509] ReLU38 -> Convolution40 (in-place)
I0825 11:12:22.261384  2068 net.cpp:172] Setting up ReLU38
I0825 11:12:22.261433  2068 net.cpp:186] Top shape: 64 64 8 8 (262144)
I0825 11:12:22.261464  2068 net.cpp:194] Memory required for data: 662438144
I0825 11:12:22.261497  2068 layer_factory.hpp:77] Creating layer Convolution41
I0825 11:12:22.261541  2068 net.cpp:128] Creating Layer Convolution41
I0825 11:12:22.261574  2068 net.cpp:558] Convolution41 <- Convolution40
I0825 11:12:22.261611  2068 net.cpp:522] Convolution41 -> Convolution41
I0825 11:12:22.270473  2068 net.cpp:172] Setting up Convolution41
I0825 11:12:22.270561  2068 net.cpp:186] Top shape: 64 64 8 8 (262144)
I0825 11:12:22.270596  2068 net.cpp:194] Memory required for data: 663486720
I0825 11:12:22.270638  2068 layer_factory.hpp:77] Creating layer BatchNorm41
I0825 11:12:22.270679  2068 net.cpp:128] Creating Layer BatchNorm41
I0825 11:12:22.270714  2068 net.cpp:558] BatchNorm41 <- Convolution41
I0825 11:12:22.270751  2068 net.cpp:509] BatchNorm41 -> Convolution41 (in-place)
I0825 11:12:22.271090  2068 net.cpp:172] Setting up BatchNorm41
I0825 11:12:22.271131  2068 net.cpp:186] Top shape: 64 64 8 8 (262144)
I0825 11:12:22.271162  2068 net.cpp:194] Memory required for data: 664535296
I0825 11:12:22.271201  2068 layer_factory.hpp:77] Creating layer Scale41
I0825 11:12:22.271240  2068 net.cpp:128] Creating Layer Scale41
I0825 11:12:22.271272  2068 net.cpp:558] Scale41 <- Convolution41
I0825 11:12:22.271306  2068 net.cpp:509] Scale41 -> Convolution41 (in-place)
I0825 11:12:22.271395  2068 layer_factory.hpp:77] Creating layer Scale41
I0825 11:12:22.271601  2068 net.cpp:172] Setting up Scale41
I0825 11:12:22.271641  2068 net.cpp:186] Top shape: 64 64 8 8 (262144)
I0825 11:12:22.271672  2068 net.cpp:194] Memory required for data: 665583872
I0825 11:12:22.271710  2068 layer_factory.hpp:77] Creating layer Eltwise19
I0825 11:12:22.271747  2068 net.cpp:128] Creating Layer Eltwise19
I0825 11:12:22.271795  2068 net.cpp:558] Eltwise19 <- Convolution39
I0825 11:12:22.271828  2068 net.cpp:558] Eltwise19 <- Convolution41
I0825 11:12:22.271863  2068 net.cpp:522] Eltwise19 -> Eltwise19
I0825 11:12:22.271932  2068 net.cpp:172] Setting up Eltwise19
I0825 11:12:22.271970  2068 net.cpp:186] Top shape: 64 64 8 8 (262144)
I0825 11:12:22.272001  2068 net.cpp:194] Memory required for data: 666632448
I0825 11:12:22.272033  2068 layer_factory.hpp:77] Creating layer ReLU39
I0825 11:12:22.272068  2068 net.cpp:128] Creating Layer ReLU39
I0825 11:12:22.272099  2068 net.cpp:558] ReLU39 <- Eltwise19
I0825 11:12:22.272132  2068 net.cpp:509] ReLU39 -> Eltwise19 (in-place)
I0825 11:12:22.274412  2068 net.cpp:172] Setting up ReLU39
I0825 11:12:22.274719  2068 net.cpp:186] Top shape: 64 64 8 8 (262144)
I0825 11:12:22.274752  2068 net.cpp:194] Memory required for data: 667681024
I0825 11:12:22.274786  2068 layer_factory.hpp:77] Creating layer Eltwise19_ReLU39_0_split
I0825 11:12:22.274825  2068 net.cpp:128] Creating Layer Eltwise19_ReLU39_0_split
I0825 11:12:22.274859  2068 net.cpp:558] Eltwise19_ReLU39_0_split <- Eltwise19
I0825 11:12:22.274899  2068 net.cpp:522] Eltwise19_ReLU39_0_split -> Eltwise19_ReLU39_0_split_0
I0825 11:12:22.274951  2068 net.cpp:522] Eltwise19_ReLU39_0_split -> Eltwise19_ReLU39_0_split_1
I0825 11:12:22.275058  2068 net.cpp:172] Setting up Eltwise19_ReLU39_0_split
I0825 11:12:22.275096  2068 net.cpp:186] Top shape: 64 64 8 8 (262144)
I0825 11:12:22.275130  2068 net.cpp:186] Top shape: 64 64 8 8 (262144)
I0825 11:12:22.275161  2068 net.cpp:194] Memory required for data: 669778176
I0825 11:12:22.275193  2068 layer_factory.hpp:77] Creating layer Convolution42
I0825 11:12:22.275236  2068 net.cpp:128] Creating Layer Convolution42
I0825 11:12:22.275269  2068 net.cpp:558] Convolution42 <- Eltwise19_ReLU39_0_split_0
I0825 11:12:22.275308  2068 net.cpp:522] Convolution42 -> Convolution42
I0825 11:12:22.286916  2068 net.cpp:172] Setting up Convolution42
I0825 11:12:22.286983  2068 net.cpp:186] Top shape: 64 64 8 8 (262144)
I0825 11:12:22.287015  2068 net.cpp:194] Memory required for data: 670826752
I0825 11:12:22.287055  2068 layer_factory.hpp:77] Creating layer BatchNorm42
I0825 11:12:22.287092  2068 net.cpp:128] Creating Layer BatchNorm42
I0825 11:12:22.287124  2068 net.cpp:558] BatchNorm42 <- Convolution42
I0825 11:12:22.287161  2068 net.cpp:509] BatchNorm42 -> Convolution42 (in-place)
I0825 11:12:22.287492  2068 net.cpp:172] Setting up BatchNorm42
I0825 11:12:22.287533  2068 net.cpp:186] Top shape: 64 64 8 8 (262144)
I0825 11:12:22.287564  2068 net.cpp:194] Memory required for data: 671875328
I0825 11:12:22.287605  2068 layer_factory.hpp:77] Creating layer Scale42
I0825 11:12:22.287639  2068 net.cpp:128] Creating Layer Scale42
I0825 11:12:22.287670  2068 net.cpp:558] Scale42 <- Convolution42
I0825 11:12:22.287706  2068 net.cpp:509] Scale42 -> Convolution42 (in-place)
I0825 11:12:22.287794  2068 layer_factory.hpp:77] Creating layer Scale42
I0825 11:12:22.287998  2068 net.cpp:172] Setting up Scale42
I0825 11:12:22.288036  2068 net.cpp:186] Top shape: 64 64 8 8 (262144)
I0825 11:12:22.288067  2068 net.cpp:194] Memory required for data: 672923904
I0825 11:12:22.288105  2068 layer_factory.hpp:77] Creating layer ReLU40
I0825 11:12:22.288142  2068 net.cpp:128] Creating Layer ReLU40
I0825 11:12:22.288173  2068 net.cpp:558] ReLU40 <- Convolution42
I0825 11:12:22.288208  2068 net.cpp:509] ReLU40 -> Convolution42 (in-place)
I0825 11:12:22.289065  2068 net.cpp:172] Setting up ReLU40
I0825 11:12:22.289130  2068 net.cpp:186] Top shape: 64 64 8 8 (262144)
I0825 11:12:22.289162  2068 net.cpp:194] Memory required for data: 673972480
I0825 11:12:22.289196  2068 layer_factory.hpp:77] Creating layer Convolution43
I0825 11:12:22.289239  2068 net.cpp:128] Creating Layer Convolution43
I0825 11:12:22.289273  2068 net.cpp:558] Convolution43 <- Convolution42
I0825 11:12:22.289309  2068 net.cpp:522] Convolution43 -> Convolution43
I0825 11:12:22.296228  2068 net.cpp:172] Setting up Convolution43
I0825 11:12:22.296301  2068 net.cpp:186] Top shape: 64 64 8 8 (262144)
I0825 11:12:22.296334  2068 net.cpp:194] Memory required for data: 675021056
I0825 11:12:22.296373  2068 layer_factory.hpp:77] Creating layer BatchNorm43
I0825 11:12:22.296411  2068 net.cpp:128] Creating Layer BatchNorm43
I0825 11:12:22.296443  2068 net.cpp:558] BatchNorm43 <- Convolution43
I0825 11:12:22.296480  2068 net.cpp:509] BatchNorm43 -> Convolution43 (in-place)
I0825 11:12:22.296820  2068 net.cpp:172] Setting up BatchNorm43
I0825 11:12:22.296862  2068 net.cpp:186] Top shape: 64 64 8 8 (262144)
I0825 11:12:22.296893  2068 net.cpp:194] Memory required for data: 676069632
I0825 11:12:22.296932  2068 layer_factory.hpp:77] Creating layer Scale43
I0825 11:12:22.296977  2068 net.cpp:128] Creating Layer Scale43
I0825 11:12:22.297009  2068 net.cpp:558] Scale43 <- Convolution43
I0825 11:12:22.297044  2068 net.cpp:509] Scale43 -> Convolution43 (in-place)
I0825 11:12:22.297139  2068 layer_factory.hpp:77] Creating layer Scale43
I0825 11:12:22.297345  2068 net.cpp:172] Setting up Scale43
I0825 11:12:22.297384  2068 net.cpp:186] Top shape: 64 64 8 8 (262144)
I0825 11:12:22.297415  2068 net.cpp:194] Memory required for data: 677118208
I0825 11:12:22.297451  2068 layer_factory.hpp:77] Creating layer Eltwise20
I0825 11:12:22.297489  2068 net.cpp:128] Creating Layer Eltwise20
I0825 11:12:22.297521  2068 net.cpp:558] Eltwise20 <- Eltwise19_ReLU39_0_split_1
I0825 11:12:22.297555  2068 net.cpp:558] Eltwise20 <- Convolution43
I0825 11:12:22.297590  2068 net.cpp:522] Eltwise20 -> Eltwise20
I0825 11:12:22.297657  2068 net.cpp:172] Setting up Eltwise20
I0825 11:12:22.297693  2068 net.cpp:186] Top shape: 64 64 8 8 (262144)
I0825 11:12:22.297724  2068 net.cpp:194] Memory required for data: 678166784
I0825 11:12:22.297755  2068 layer_factory.hpp:77] Creating layer ReLU41
I0825 11:12:22.297788  2068 net.cpp:128] Creating Layer ReLU41
I0825 11:12:22.297821  2068 net.cpp:558] ReLU41 <- Eltwise20
I0825 11:12:22.297854  2068 net.cpp:509] ReLU41 -> Eltwise20 (in-place)
I0825 11:12:22.298142  2068 net.cpp:172] Setting up ReLU41
I0825 11:12:22.298193  2068 net.cpp:186] Top shape: 64 64 8 8 (262144)
I0825 11:12:22.298224  2068 net.cpp:194] Memory required for data: 679215360
I0825 11:12:22.298257  2068 layer_factory.hpp:77] Creating layer Eltwise20_ReLU41_0_split
I0825 11:12:22.298295  2068 net.cpp:128] Creating Layer Eltwise20_ReLU41_0_split
I0825 11:12:22.298327  2068 net.cpp:558] Eltwise20_ReLU41_0_split <- Eltwise20
I0825 11:12:22.298375  2068 net.cpp:522] Eltwise20_ReLU41_0_split -> Eltwise20_ReLU41_0_split_0
I0825 11:12:22.298415  2068 net.cpp:522] Eltwise20_ReLU41_0_split -> Eltwise20_ReLU41_0_split_1
I0825 11:12:22.298514  2068 net.cpp:172] Setting up Eltwise20_ReLU41_0_split
I0825 11:12:22.298552  2068 net.cpp:186] Top shape: 64 64 8 8 (262144)
I0825 11:12:22.298586  2068 net.cpp:186] Top shape: 64 64 8 8 (262144)
I0825 11:12:22.298617  2068 net.cpp:194] Memory required for data: 681312512
I0825 11:12:22.298650  2068 layer_factory.hpp:77] Creating layer Convolution44
I0825 11:12:22.298691  2068 net.cpp:128] Creating Layer Convolution44
I0825 11:12:22.298722  2068 net.cpp:558] Convolution44 <- Eltwise20_ReLU41_0_split_0
I0825 11:12:22.298761  2068 net.cpp:522] Convolution44 -> Convolution44
I0825 11:12:22.310741  2068 net.cpp:172] Setting up Convolution44
I0825 11:12:22.310811  2068 net.cpp:186] Top shape: 64 64 8 8 (262144)
I0825 11:12:22.310843  2068 net.cpp:194] Memory required for data: 682361088
I0825 11:12:22.310883  2068 layer_factory.hpp:77] Creating layer BatchNorm44
I0825 11:12:22.310921  2068 net.cpp:128] Creating Layer BatchNorm44
I0825 11:12:22.310953  2068 net.cpp:558] BatchNorm44 <- Convolution44
I0825 11:12:22.310988  2068 net.cpp:509] BatchNorm44 -> Convolution44 (in-place)
I0825 11:12:22.311327  2068 net.cpp:172] Setting up BatchNorm44
I0825 11:12:22.311367  2068 net.cpp:186] Top shape: 64 64 8 8 (262144)
I0825 11:12:22.311399  2068 net.cpp:194] Memory required for data: 683409664
I0825 11:12:22.311439  2068 layer_factory.hpp:77] Creating layer Scale44
I0825 11:12:22.311484  2068 net.cpp:128] Creating Layer Scale44
I0825 11:12:22.311517  2068 net.cpp:558] Scale44 <- Convolution44
I0825 11:12:22.311550  2068 net.cpp:509] Scale44 -> Convolution44 (in-place)
I0825 11:12:22.311640  2068 layer_factory.hpp:77] Creating layer Scale44
I0825 11:12:22.311848  2068 net.cpp:172] Setting up Scale44
I0825 11:12:22.311887  2068 net.cpp:186] Top shape: 64 64 8 8 (262144)
I0825 11:12:22.311919  2068 net.cpp:194] Memory required for data: 684458240
I0825 11:12:22.311957  2068 layer_factory.hpp:77] Creating layer ReLU42
I0825 11:12:22.311995  2068 net.cpp:128] Creating Layer ReLU42
I0825 11:12:22.312027  2068 net.cpp:558] ReLU42 <- Convolution44
I0825 11:12:22.312070  2068 net.cpp:509] ReLU42 -> Convolution44 (in-place)
I0825 11:12:22.314996  2068 net.cpp:172] Setting up ReLU42
I0825 11:12:22.315048  2068 net.cpp:186] Top shape: 64 64 8 8 (262144)
I0825 11:12:22.315080  2068 net.cpp:194] Memory required for data: 685506816
I0825 11:12:22.315114  2068 layer_factory.hpp:77] Creating layer Convolution45
I0825 11:12:22.315157  2068 net.cpp:128] Creating Layer Convolution45
I0825 11:12:22.315191  2068 net.cpp:558] Convolution45 <- Convolution44
I0825 11:12:22.315227  2068 net.cpp:522] Convolution45 -> Convolution45
I0825 11:12:22.328586  2068 net.cpp:172] Setting up Convolution45
I0825 11:12:22.328652  2068 net.cpp:186] Top shape: 64 64 8 8 (262144)
I0825 11:12:22.328685  2068 net.cpp:194] Memory required for data: 686555392
I0825 11:12:22.328723  2068 layer_factory.hpp:77] Creating layer BatchNorm45
I0825 11:12:22.328759  2068 net.cpp:128] Creating Layer BatchNorm45
I0825 11:12:22.328791  2068 net.cpp:558] BatchNorm45 <- Convolution45
I0825 11:12:22.328830  2068 net.cpp:509] BatchNorm45 -> Convolution45 (in-place)
I0825 11:12:22.329174  2068 net.cpp:172] Setting up BatchNorm45
I0825 11:12:22.329212  2068 net.cpp:186] Top shape: 64 64 8 8 (262144)
I0825 11:12:22.329244  2068 net.cpp:194] Memory required for data: 687603968
I0825 11:12:22.329283  2068 layer_factory.hpp:77] Creating layer Scale45
I0825 11:12:22.329321  2068 net.cpp:128] Creating Layer Scale45
I0825 11:12:22.329354  2068 net.cpp:558] Scale45 <- Convolution45
I0825 11:12:22.329386  2068 net.cpp:509] Scale45 -> Convolution45 (in-place)
I0825 11:12:22.329474  2068 layer_factory.hpp:77] Creating layer Scale45
I0825 11:12:22.329684  2068 net.cpp:172] Setting up Scale45
I0825 11:12:22.329721  2068 net.cpp:186] Top shape: 64 64 8 8 (262144)
I0825 11:12:22.329751  2068 net.cpp:194] Memory required for data: 688652544
I0825 11:12:22.329789  2068 layer_factory.hpp:77] Creating layer Eltwise21
I0825 11:12:22.329828  2068 net.cpp:128] Creating Layer Eltwise21
I0825 11:12:22.329860  2068 net.cpp:558] Eltwise21 <- Eltwise20_ReLU41_0_split_1
I0825 11:12:22.329895  2068 net.cpp:558] Eltwise21 <- Convolution45
I0825 11:12:22.329931  2068 net.cpp:522] Eltwise21 -> Eltwise21
I0825 11:12:22.329994  2068 net.cpp:172] Setting up Eltwise21
I0825 11:12:22.330030  2068 net.cpp:186] Top shape: 64 64 8 8 (262144)
I0825 11:12:22.330061  2068 net.cpp:194] Memory required for data: 689701120
I0825 11:12:22.330093  2068 layer_factory.hpp:77] Creating layer ReLU43
I0825 11:12:22.330130  2068 net.cpp:128] Creating Layer ReLU43
I0825 11:12:22.330162  2068 net.cpp:558] ReLU43 <- Eltwise21
I0825 11:12:22.330194  2068 net.cpp:509] ReLU43 -> Eltwise21 (in-place)
I0825 11:12:22.332734  2068 net.cpp:172] Setting up ReLU43
I0825 11:12:22.332800  2068 net.cpp:186] Top shape: 64 64 8 8 (262144)
I0825 11:12:22.332832  2068 net.cpp:194] Memory required for data: 690749696
I0825 11:12:22.332865  2068 layer_factory.hpp:77] Creating layer Eltwise21_ReLU43_0_split
…
I0825 11:12:23.306365  2068 net.cpp:128] Creating Layer Convolution40
I0825 11:12:23.306398  2068 net.cpp:558] Convolution40 <- Eltwise18_ReLU37_0_split_1
I0825 11:12:23.306435  2068 net.cpp:522] Convolution40 -> Convolution40
I0825 11:12:23.318035  2068 net.cpp:172] Setting up Convolution40
I0825 11:12:23.318101  2068 net.cpp:186] Top shape: 10 64 8 8 (40960)
I0825 11:12:23.318133  2068 net.cpp:194] Memory required for data: 103014520
I0825 11:12:23.318172  2068 layer_factory.hpp:77] Creating layer BatchNorm40
I0825 11:12:23.318213  2068 net.cpp:128] Creating Layer BatchNorm40
I0825 11:12:23.318245  2068 net.cpp:558] BatchNorm40 <- Convolution40
I0825 11:12:23.318280  2068 net.cpp:509] BatchNorm40 -> Convolution40 (in-place)
I0825 11:12:23.318555  2068 net.cpp:172] Setting up BatchNorm40
I0825 11:12:23.318595  2068 net.cpp:186] Top shape: 10 64 8 8 (40960)
I0825 11:12:23.318626  2068 net.cpp:194] Memory required for data: 103178360
I0825 11:12:23.318665  2068 layer_factory.hpp:77] Creating layer Scale40
I0825 11:12:23.318701  2068 net.cpp:128] Creating Layer Scale40
I0825 11:12:23.318732  2068 net.cpp:558] Scale40 <- Convolution40
I0825 11:12:23.318765  2068 net.cpp:509] Scale40 -> Convolution40 (in-place)
I0825 11:12:23.318850  2068 layer_factory.hpp:77] Creating layer Scale40
I0825 11:12:23.319021  2068 net.cpp:172] Setting up Scale40
I0825 11:12:23.319066  2068 net.cpp:186] Top shape: 10 64 8 8 (40960)
I0825 11:12:23.319108  2068 net.cpp:194] Memory required for data: 103342200
I0825 11:12:23.319145  2068 layer_factory.hpp:77] Creating layer ReLU38
I0825 11:12:23.319180  2068 net.cpp:128] Creating Layer ReLU38
I0825 11:12:23.319212  2068 net.cpp:558] ReLU38 <- Convolution40
I0825 11:12:23.319245  2068 net.cpp:509] ReLU38 -> Convolution40 (in-place)
I0825 11:12:23.324338  2068 net.cpp:172] Setting up ReLU38
I0825 11:12:23.324395  2068 net.cpp:186] Top shape: 10 64 8 8 (40960)
I0825 11:12:23.324427  2068 net.cpp:194] Memory required for data: 103506040
I0825 11:12:23.324460  2068 layer_factory.hpp:77] Creating layer Convolution41
I0825 11:12:23.324502  2068 net.cpp:128] Creating Layer Convolution41
I0825 11:12:23.324548  2068 net.cpp:558] Convolution41 <- Convolution40
I0825 11:12:23.324584  2068 net.cpp:522] Convolution41 -> Convolution41
I0825 11:12:23.341719  2068 net.cpp:172] Setting up Convolution41
I0825 11:12:23.341786  2068 net.cpp:186] Top shape: 10 64 8 8 (40960)
I0825 11:12:23.341820  2068 net.cpp:194] Memory required for data: 103669880
I0825 11:12:23.341857  2068 layer_factory.hpp:77] Creating layer BatchNorm41
I0825 11:12:23.341893  2068 net.cpp:128] Creating Layer BatchNorm41
I0825 11:12:23.341925  2068 net.cpp:558] BatchNorm41 <- Convolution41
I0825 11:12:23.341962  2068 net.cpp:509] BatchNorm41 -> Convolution41 (in-place)
I0825 11:12:23.342232  2068 net.cpp:172] Setting up BatchNorm41
I0825 11:12:23.342272  2068 net.cpp:186] Top shape: 10 64 8 8 (40960)
I0825 11:12:23.342303  2068 net.cpp:194] Memory required for data: 103833720
I0825 11:12:23.342347  2068 layer_factory.hpp:77] Creating layer Scale41
I0825 11:12:23.342383  2068 net.cpp:128] Creating Layer Scale41
I0825 11:12:23.342414  2068 net.cpp:558] Scale41 <- Convolution41
I0825 11:12:23.342450  2068 net.cpp:509] Scale41 -> Convolution41 (in-place)
I0825 11:12:23.342530  2068 layer_factory.hpp:77] Creating layer Scale41
I0825 11:12:23.342700  2068 net.cpp:172] Setting up Scale41
I0825 11:12:23.342736  2068 net.cpp:186] Top shape: 10 64 8 8 (40960)
I0825 11:12:23.342767  2068 net.cpp:194] Memory required for data: 103997560
I0825 11:12:23.342804  2068 layer_factory.hpp:77] Creating layer Eltwise19
I0825 11:12:23.342842  2068 net.cpp:128] Creating Layer Eltwise19
I0825 11:12:23.342873  2068 net.cpp:558] Eltwise19 <- Convolution39
I0825 11:12:23.342906  2068 net.cpp:558] Eltwise19 <- Convolution41
I0825 11:12:23.342941  2068 net.cpp:522] Eltwise19 -> Eltwise19
I0825 11:12:23.343000  2068 net.cpp:172] Setting up Eltwise19
I0825 11:12:23.343035  2068 net.cpp:186] Top shape: 10 64 8 8 (40960)
I0825 11:12:23.343067  2068 net.cpp:194] Memory required for data: 104161400
I0825 11:12:23.343099  2068 layer_factory.hpp:77] Creating layer ReLU39
I0825 11:12:23.343132  2068 net.cpp:128] Creating Layer ReLU39
I0825 11:12:23.343163  2068 net.cpp:558] ReLU39 <- Eltwise19
I0825 11:12:23.343199  2068 net.cpp:509] ReLU39 -> Eltwise19 (in-place)
I0825 11:12:23.345963  2068 net.cpp:172] Setting up ReLU39
I0825 11:12:23.346026  2068 net.cpp:186] Top shape: 10 64 8 8 (40960)
I0825 11:12:23.346058  2068 net.cpp:194] Memory required for data: 104325240
I0825 11:12:23.346091  2068 layer_factory.hpp:77] Creating layer Eltwise19_ReLU39_0_split
I0825 11:12:23.346127  2068 net.cpp:128] Creating Layer Eltwise19_ReLU39_0_split
I0825 11:12:23.346160  2068 net.cpp:558] Eltwise19_ReLU39_0_split <- Eltwise19
I0825 11:12:23.346199  2068 net.cpp:522] Eltwise19_ReLU39_0_split -> Eltwise19_ReLU39_0_split_0
I0825 11:12:23.346237  2068 net.cpp:522] Eltwise19_ReLU39_0_split -> Eltwise19_ReLU39_0_split_1
I0825 11:12:23.346324  2068 net.cpp:172] Setting up Eltwise19_ReLU39_0_split
I0825 11:12:23.346367  2068 net.cpp:186] Top shape: 10 64 8 8 (40960)
I0825 11:12:23.346401  2068 net.cpp:186] Top shape: 10 64 8 8 (40960)
I0825 11:12:23.346432  2068 net.cpp:194] Memory required for data: 104652920
I0825 11:12:23.346464  2068 layer_factory.hpp:77] Creating layer Convolution42
I0825 11:12:23.346504  2068 net.cpp:128] Creating Layer Convolution42
I0825 11:12:23.346536  2068 net.cpp:558] Convolution42 <- Eltwise19_ReLU39_0_split_0
I0825 11:12:23.346581  2068 net.cpp:522] Convolution42 -> Convolution42
I0825 11:12:23.359490  2068 net.cpp:172] Setting up Convolution42
I0825 11:12:23.359556  2068 net.cpp:186] Top shape: 10 64 8 8 (40960)
I0825 11:12:23.359588  2068 net.cpp:194] Memory required for data: 104816760
I0825 11:12:23.359627  2068 layer_factory.hpp:77] Creating layer BatchNorm42
I0825 11:12:23.359665  2068 net.cpp:128] Creating Layer BatchNorm42
I0825 11:12:23.359699  2068 net.cpp:558] BatchNorm42 <- Convolution42
I0825 11:12:23.359732  2068 net.cpp:509] BatchNorm42 -> Convolution42 (in-place)
I0825 11:12:23.360013  2068 net.cpp:172] Setting up BatchNorm42
I0825 11:12:23.360052  2068 net.cpp:186] Top shape: 10 64 8 8 (40960)
I0825 11:12:23.360095  2068 net.cpp:194] Memory required for data: 104980600
I0825 11:12:23.360134  2068 layer_factory.hpp:77] Creating layer Scale42
I0825 11:12:23.360169  2068 net.cpp:128] Creating Layer Scale42
I0825 11:12:23.360200  2068 net.cpp:558] Scale42 <- Convolution42
I0825 11:12:23.360234  2068 net.cpp:509] Scale42 -> Convolution42 (in-place)
I0825 11:12:23.360319  2068 layer_factory.hpp:77] Creating layer Scale42
I0825 11:12:23.360496  2068 net.cpp:172] Setting up Scale42
I0825 11:12:23.360533  2068 net.cpp:186] Top shape: 10 64 8 8 (40960)
I0825 11:12:23.360564  2068 net.cpp:194] Memory required for data: 105144440
I0825 11:12:23.360601  2068 layer_factory.hpp:77] Creating layer ReLU40
I0825 11:12:23.360636  2068 net.cpp:128] Creating Layer ReLU40
I0825 11:12:23.360667  2068 net.cpp:558] ReLU40 <- Convolution42
I0825 11:12:23.360700  2068 net.cpp:509] ReLU40 -> Convolution42 (in-place)
I0825 11:12:23.365583  2068 net.cpp:172] Setting up ReLU40
I0825 11:12:23.365641  2068 net.cpp:186] Top shape: 10 64 8 8 (40960)
I0825 11:12:23.365674  2068 net.cpp:194] Memory required for data: 105308280
I0825 11:12:23.365705  2068 layer_factory.hpp:77] Creating layer Convolution43
I0825 11:12:23.365747  2068 net.cpp:128] Creating Layer Convolution43
I0825 11:12:23.365779  2068 net.cpp:558] Convolution43 <- Convolution42
I0825 11:12:23.365818  2068 net.cpp:522] Convolution43 -> Convolution43
I0825 11:12:23.381505  2068 net.cpp:172] Setting up Convolution43
I0825 11:12:23.381572  2068 net.cpp:186] Top shape: 10 64 8 8 (40960)
I0825 11:12:23.381604  2068 net.cpp:194] Memory required for data: 105472120
I0825 11:12:23.381642  2068 layer_factory.hpp:77] Creating layer BatchNorm43
I0825 11:12:23.381678  2068 net.cpp:128] Creating Layer BatchNorm43
I0825 11:12:23.381711  2068 net.cpp:558] BatchNorm43 <- Convolution43
I0825 11:12:23.381747  2068 net.cpp:509] BatchNorm43 -> Convolution43 (in-place)
I0825 11:12:23.382025  2068 net.cpp:172] Setting up BatchNorm43
I0825 11:12:23.382062  2068 net.cpp:186] Top shape: 10 64 8 8 (40960)
I0825 11:12:23.382093  2068 net.cpp:194] Memory required for data: 105635960
I0825 11:12:23.382133  2068 layer_factory.hpp:77] Creating layer Scale43
I0825 11:12:23.382167  2068 net.cpp:128] Creating Layer Scale43
I0825 11:12:23.382199  2068 net.cpp:558] Scale43 <- Convolution43
I0825 11:12:23.382232  2068 net.cpp:509] Scale43 -> Convolution43 (in-place)
I0825 11:12:23.382315  2068 layer_factory.hpp:77] Creating layer Scale43
I0825 11:12:23.382500  2068 net.cpp:172] Setting up Scale43
I0825 11:12:23.382539  2068 net.cpp:186] Top shape: 10 64 8 8 (40960)
I0825 11:12:23.382568  2068 net.cpp:194] Memory required for data: 105799800
I0825 11:12:23.382606  2068 layer_factory.hpp:77] Creating layer Eltwise20
I0825 11:12:23.382642  2068 net.cpp:128] Creating Layer Eltwise20
I0825 11:12:23.382675  2068 net.cpp:558] Eltwise20 <- Eltwise19_ReLU39_0_split_1
I0825 11:12:23.382709  2068 net.cpp:558] Eltwise20 <- Convolution43
I0825 11:12:23.382743  2068 net.cpp:522] Eltwise20 -> Eltwise20
I0825 11:12:23.382804  2068 net.cpp:172] Setting up Eltwise20
I0825 11:12:23.382839  2068 net.cpp:186] Top shape: 10 64 8 8 (40960)
I0825 11:12:23.382874  2068 net.cpp:194] Memory required for data: 105963640
I0825 11:12:23.382906  2068 layer_factory.hpp:77] Creating layer ReLU41
I0825 11:12:23.382941  2068 net.cpp:128] Creating Layer ReLU41
I0825 11:12:23.382978  2068 net.cpp:558] ReLU41 <- Eltwise20
I0825 11:12:23.383013  2068 net.cpp:509] ReLU41 -> Eltwise20 (in-place)
I0825 11:12:23.385736  2068 net.cpp:172] Setting up ReLU41
I0825 11:12:23.385789  2068 net.cpp:186] Top shape: 10 64 8 8 (40960)
I0825 11:12:23.385821  2068 net.cpp:194] Memory required for data: 106127480
I0825 11:12:23.385854  2068 layer_factory.hpp:77] Creating layer Eltwise20_ReLU41_0_split
I0825 11:12:23.385890  2068 net.cpp:128] Creating Layer Eltwise20_ReLU41_0_split
I0825 11:12:23.385923  2068 net.cpp:558] Eltwise20_ReLU41_0_split <- Eltwise20
I0825 11:12:23.385962  2068 net.cpp:522] Eltwise20_ReLU41_0_split -> Eltwise20_ReLU41_0_split_0
I0825 11:12:23.386011  2068 net.cpp:522] Eltwise20_ReLU41_0_split -> Eltwise20_ReLU41_0_split_1
I0825 11:12:23.386099  2068 net.cpp:172] Setting up Eltwise20_ReLU41_0_split
I0825 11:12:23.386137  2068 net.cpp:186] Top shape: 10 64 8 8 (40960)
I0825 11:12:23.386170  2068 net.cpp:186] Top shape: 10 64 8 8 (40960)
I0825 11:12:23.386200  2068 net.cpp:194] Memory required for data: 106455160
I0825 11:12:23.386232  2068 layer_factory.hpp:77] Creating layer Convolution44
I0825 11:12:23.386272  2068 net.cpp:128] Creating Layer Convolution44
I0825 11:12:23.386304  2068 net.cpp:558] Convolution44 <- Eltwise20_ReLU41_0_split_0
I0825 11:12:23.386350  2068 net.cpp:522] Convolution44 -> Convolution44
I0825 11:12:23.397677  2068 net.cpp:172] Setting up Convolution44
I0825 11:12:23.397742  2068 net.cpp:186] Top shape: 10 64 8 8 (40960)
I0825 11:12:23.397774  2068 net.cpp:194] Memory required for data: 106619000
I0825 11:12:23.397814  2068 layer_factory.hpp:77] Creating layer BatchNorm44
I0825 11:12:23.397852  2068 net.cpp:128] Creating Layer BatchNorm44
I0825 11:12:23.397884  2068 net.cpp:558] BatchNorm44 <- Convolution44
I0825 11:12:23.397922  2068 net.cpp:509] BatchNorm44 -> Convolution44 (in-place)
I0825 11:12:23.398206  2068 net.cpp:172] Setting up BatchNorm44
I0825 11:12:23.398245  2068 net.cpp:186] Top shape: 10 64 8 8 (40960)
I0825 11:12:23.398277  2068 net.cpp:194] Memory required for data: 106782840
I0825 11:12:23.398314  2068 layer_factory.hpp:77] Creating layer Scale44
I0825 11:12:23.398360  2068 net.cpp:128] Creating Layer Scale44
I0825 11:12:23.398391  2068 net.cpp:558] Scale44 <- Convolution44
I0825 11:12:23.398424  2068 net.cpp:509] Scale44 -> Convolution44 (in-place)
I0825 11:12:23.398507  2068 layer_factory.hpp:77] Creating layer Scale44
I0825 11:12:23.398687  2068 net.cpp:172] Setting up Scale44
I0825 11:12:23.398725  2068 net.cpp:186] Top shape: 10 64 8 8 (40960)
I0825 11:12:23.398756  2068 net.cpp:194] Memory required for data: 106946680
I0825 11:12:23.398793  2068 layer_factory.hpp:77] Creating layer ReLU42
I0825 11:12:23.398828  2068 net.cpp:128] Creating Layer ReLU42
I0825 11:12:23.398859  2068 net.cpp:558] ReLU42 <- Convolution44
I0825 11:12:23.398895  2068 net.cpp:509] ReLU42 -> Convolution44 (in-place)
I0825 11:12:23.399530  2068 net.cpp:172] Setting up ReLU42
I0825 11:12:23.399583  2068 net.cpp:186] Top shape: 10 64 8 8 (40960)
I0825 11:12:23.399617  2068 net.cpp:194] Memory required for data: 107110520
I0825 11:12:23.399649  2068 layer_factory.hpp:77] Creating layer Convolution45
I0825 11:12:23.399691  2068 net.cpp:128] Creating Layer Convolution45
I0825 11:12:23.399724  2068 net.cpp:558] Convolution45 <- Convolution44
I0825 11:12:23.399761  2068 net.cpp:522] Convolution45 -> Convolution45
I0825 11:12:23.406505  2068 net.cpp:172] Setting up Convolution45
I0825 11:12:23.406569  2068 net.cpp:186] Top shape: 10 64 8 8 (40960)
I0825 11:12:23.406601  2068 net.cpp:194] Memory required for data: 107274360
I0825 11:12:23.406641  2068 layer_factory.hpp:77] Creating layer BatchNorm45
I0825 11:12:23.406678  2068 net.cpp:128] Creating Layer BatchNorm45
I0825 11:12:23.406711  2068 net.cpp:558] BatchNorm45 <- Convolution45
I0825 11:12:23.406745  2068 net.cpp:509] BatchNorm45 -> Convolution45 (in-place)
I0825 11:12:23.407022  2068 net.cpp:172] Setting up BatchNorm45
I0825 11:12:23.407061  2068 net.cpp:186] Top shape: 10 64 8 8 (40960)
I0825 11:12:23.407099  2068 net.cpp:194] Memory required for data: 107438200
I0825 11:12:23.407138  2068 layer_factory.hpp:77] Creating layer Scale45
I0825 11:12:23.407173  2068 net.cpp:128] Creating Layer Scale45
I0825 11:12:23.407204  2068 net.cpp:558] Scale45 <- Convolution45
I0825 11:12:23.407238  2068 net.cpp:509] Scale45 -> Convolution45 (in-place)
I0825 11:12:23.407323  2068 layer_factory.hpp:77] Creating layer Scale45
I0825 11:12:23.407500  2068 net.cpp:172] Setting up Scale45
I0825 11:12:23.407537  2068 net.cpp:186] Top shape: 10 64 8 8 (40960)
I0825 11:12:23.407567  2068 net.cpp:194] Memory required for data: 107602040
I0825 11:12:23.407604  2068 layer_factory.hpp:77] Creating layer Eltwise21
I0825 11:12:23.407650  2068 net.cpp:128] Creating Layer Eltwise21
I0825 11:12:23.407683  2068 net.cpp:558] Eltwise21 <- Eltwise20_ReLU41_0_split_1
I0825 11:12:23.407716  2068 net.cpp:558] Eltwise21 <- Convolution45
I0825 11:12:23.407754  2068 net.cpp:522] Eltwise21 -> Eltwise21
I0825 11:12:23.407815  2068 net.cpp:172] Setting up Eltwise21
I0825 11:12:23.407853  2068 net.cpp:186] Top shape: 10 64 8 8 (40960)
I0825 11:12:23.407883  2068 net.cpp:194] Memory required for data: 107765880
I0825 11:12:23.407915  2068 layer_factory.hpp:77] Creating layer ReLU43
I0825 11:12:23.407949  2068 net.cpp:128] Creating Layer ReLU43
I0825 11:12:23.407980  2068 net.cpp:558] ReLU43 <- Eltwise21
I0825 11:12:23.408013  2068 net.cpp:509] ReLU43 -> Eltwise21 (in-place)
I0825 11:12:23.408628  2068 net.cpp:172] Setting up ReLU43
I0825 11:12:23.408692  2068 net.cpp:186] Top shape: 10 64 8 8 (40960)
I0825 11:12:23.408725  2068 net.cpp:194] Memory required for data: 107929720
I0825 11:12:23.408757  2068 layer_factory.hpp:77] Creating layer Eltwise21_ReLU43_0_split
I0825 11:12:23.408795  2068 net.cpp:128] Creating Layer Eltwise21_ReLU43_0_split
I0825 11:12:23.408828  2068 net.cpp:558] Eltwise21_ReLU43_0_split <- Eltwise21
I0825 11:12:23.408864  2068 net.cpp:522] Eltwise21_ReLU43_0_split -> Eltwise21_ReLU43_0_split_0
I0825 11:12:23.408905  2068 net.cpp:522] Eltwise21_ReLU43_0_split -> Eltwise21_ReLU43_0_split_1
I0825 11:12:23.408989  2068 net.cpp:172] Setting up Eltwise21_ReLU43_0_split
I0825 11:12:23.409025  2068 net.cpp:186] Top shape: 10 64 8 8 (40960)
I0825 11:12:23.409060  2068 net.cpp:186] Top shape: 10 64 8 8 (40960)
I0825 11:12:23.409091  2068 net.cpp:194] Memory required for data: 108257400
I0825 11:12:23.409122  2068 layer_factory.hpp:77] Creating layer Convolution46
I0825 11:12:23.409163  2068 net.cpp:128] Creating Layer Convolution46
I0825 11:12:23.409195  2068 net.cpp:558] Convolution46 <- Eltwise21_ReLU43_0_split_0
I0825 11:12:23.409235  2068 net.cpp:522] Convolution46 -> Convolution46
I0825 11:12:23.420122  2068 net.cpp:172] Setting up Convolution46
I0825 11:12:23.420189  2068 net.cpp:186] Top shape: 10 64 8 8 (40960)
I0825 11:12:23.420222  2068 net.cpp:194] Memory required for data: 108421240
I0825 11:12:23.420260  2068 layer_factory.hpp:77] Creating layer BatchNorm46
I0825 11:12:23.420300  2068 net.cpp:128] Creating Layer BatchNorm46
I0825 11:12:23.420332  2068 net.cpp:558] BatchNorm46 <- Convolution46
I0825 11:12:23.420369  2068 net.cpp:509] BatchNorm46 -> Convolution46 (in-place)
I0825 11:12:23.420656  2068 net.cpp:172] Setting up BatchNorm46
I0825 11:12:23.420696  2068 net.cpp:186] Top shape: 10 64 8 8 (40960)
I0825 11:12:23.420727  2068 net.cpp:194] Memory required for data: 108585080
I0825 11:12:23.420765  2068 layer_factory.hpp:77] Creating layer Scale46
I0825 11:12:23.420800  2068 net.cpp:128] Creating Layer Scale46
I0825 11:12:23.420831  2068 net.cpp:558] Scale46 <- Convolution46
I0825 11:12:23.420864  2068 net.cpp:509] Scale46 -> Convolution46 (in-place)
I0825 11:12:23.420948  2068 layer_factory.hpp:77] Creating layer Scale46
I0825 11:12:23.421125  2068 net.cpp:172] Setting up Scale46
I0825 11:12:23.421162  2068 net.cpp:186] Top shape: 10 64 8 8 (40960)
I0825 11:12:23.421192  2068 net.cpp:194] Memory required for data: 108748920
I0825 11:12:23.421229  2068 layer_factory.hpp:77] Creating layer ReLU44
I0825 11:12:23.421273  2068 net.cpp:128] Creating Layer ReLU44
I0825 11:12:23.421305  2068 net.cpp:558] ReLU44 <- Convolution46
I0825 11:12:23.421339  2068 net.cpp:509] ReLU44 -> Convolution46 (in-place)
I0825 11:12:23.424057  2068 net.cpp:172] Setting up ReLU44
I0825 11:12:23.424110  2068 net.cpp:186] Top shape: 10 64 8 8 (40960)
I0825 11:12:23.424142  2068 net.cpp:194] Memory required for data: 108912760
I0825 11:12:23.424175  2068 layer_factory.hpp:77] Creating layer Convolution47
I0825 11:12:23.424217  2068 net.cpp:128] Creating Layer Convolution47
I0825 11:12:23.424249  2068 net.cpp:558] Convolution47 <- Convolution46
I0825 11:12:23.424288  2068 net.cpp:522] Convolution47 -> Convolution47
I0825 11:12:23.437350  2068 net.cpp:172] Setting up Convolution47
I0825 11:12:23.437417  2068 net.cpp:186] Top shape: 10 64 8 8 (40960)
I0825 11:12:23.437449  2068 net.cpp:194] Memory required for data: 109076600
I0825 11:12:23.437489  2068 layer_factory.hpp:77] Creating layer BatchNorm47
I0825 11:12:23.437527  2068 net.cpp:128] Creating Layer BatchNorm47
I0825 11:12:23.437559  2068 net.cpp:558] BatchNorm47 <- Convolution47
I0825 11:12:23.437597  2068 net.cpp:509] BatchNorm47 -> Convolution47 (in-place)
I0825 11:12:23.437889  2068 net.cpp:172] Setting up BatchNorm47
I0825 11:12:23.437929  2068 net.cpp:186] Top shape: 10 64 8 8 (40960)
I0825 11:12:23.437959  2068 net.cpp:194] Memory required for data: 109240440
I0825 11:12:23.437999  2068 layer_factory.hpp:77] Creating layer Scale47
I0825 11:12:23.438033  2068 net.cpp:128] Creating Layer Scale47
I0825 11:12:23.438064  2068 net.cpp:558] Scale47 <- Convolution47
I0825 11:12:23.438098  2068 net.cpp:509] Scale47 -> Convolution47 (in-place)
I0825 11:12:23.438182  2068 layer_factory.hpp:77] Creating layer Scale47
I0825 11:12:23.438371  2068 net.cpp:172] Setting up Scale47
I0825 11:12:23.438411  2068 net.cpp:186] Top shape: 10 64 8 8 (40960)
I0825 11:12:23.438442  2068 net.cpp:194] Memory required for data: 109404280
I0825 11:12:23.438479  2068 layer_factory.hpp:77] Creating layer Eltwise22
I0825 11:12:23.438519  2068 net.cpp:128] Creating Layer Eltwise22
I0825 11:12:23.438551  2068 net.cpp:558] Eltwise22 <- Eltwise21_ReLU43_0_split_1
I0825 11:12:23.438585  2068 net.cpp:558] Eltwise22 <- Convolution47
I0825 11:12:23.438621  2068 net.cpp:522] Eltwise22 -> Eltwise22
I0825 11:12:23.438684  2068 net.cpp:172] Setting up Eltwise22
I0825 11:12:23.438719  2068 net.cpp:186] Top shape: 10 64 8 8 (40960)
I0825 11:12:23.438750  2068 net.cpp:194] Memory required for data: 109568120
I0825 11:12:23.438781  2068 layer_factory.hpp:77] Creating layer ReLU45
I0825 11:12:23.438817  2068 net.cpp:128] Creating Layer ReLU45
I0825 11:12:23.438848  2068 net.cpp:558] ReLU45 <- Eltwise22
I0825 11:12:23.438879  2068 net.cpp:509] ReLU45 -> Eltwise22 (in-place)
I0825 11:12:23.441609  2068 net.cpp:172] Setting up ReLU45
I0825 11:12:23.441663  2068 net.cpp:186] Top shape: 10 64 8 8 (40960)
I0825 11:12:23.441694  2068 net.cpp:194] Memory required for data: 109731960
I0825 11:12:23.441726  2068 layer_factory.hpp:77] Creating layer Eltwise22_ReLU45_0_split
I0825 11:12:23.441763  2068 net.cpp:128] Creating Layer Eltwise22_ReLU45_0_split
I0825 11:12:23.441797  2068 net.cpp:558] Eltwise22_ReLU45_0_split <- Eltwise22
I0825 11:12:23.441834  2068 net.cpp:522] Eltwise22_ReLU45_0_split -> Eltwise22_ReLU45_0_split_0
I0825 11:12:23.441874  2068 net.cpp:522] Eltwise22_ReLU45_0_split -> Eltwise22_ReLU45_0_split_1
I0825 11:12:23.441960  2068 net.cpp:172] Setting up Eltwise22_ReLU45_0_split
I0825 11:12:23.441998  2068 net.cpp:186] Top shape: 10 64 8 8 (40960)
I0825 11:12:23.442030  2068 net.cpp:186] Top shape: 10 64 8 8 (40960)
I0825 11:12:23.442061  2068 net.cpp:194] Memory required for data: 110059640
I0825 11:12:23.442093  2068 layer_factory.hpp:77] Creating layer Convolution48
I0825 11:12:23.442134  2068 net.cpp:128] Creating Layer Convolution48
I0825 11:12:23.442167  2068 net.cpp:558] Convolution48 <- Eltwise22_ReLU45_0_split_0
I0825 11:12:23.442204  2068 net.cpp:522] Convolution48 -> Convolution48
I0825 11:12:23.448997  2068 net.cpp:172] Setting up Convolution48
I0825 11:12:23.449072  2068 net.cpp:186] Top shape: 10 64 8 8 (40960)
I0825 11:12:23.449105  2068 net.cpp:194] Memory required for data: 110223480
I0825 11:12:23.449146  2068 layer_factory.hpp:77] Creating layer BatchNorm48
I0825 11:12:23.449182  2068 net.cpp:128] Creating Layer BatchNorm48
I0825 11:12:23.449215  2068 net.cpp:558] BatchNorm48 <- Convolution48
I0825 11:12:23.449250  2068 net.cpp:509] BatchNorm48 -> Convolution48 (in-place)
I0825 11:12:23.449542  2068 net.cpp:172] Setting up BatchNorm48
I0825 11:12:23.449581  2068 net.cpp:186] Top shape: 10 64 8 8 (40960)
I0825 11:12:23.449612  2068 net.cpp:194] Memory required for data: 110387320
I0825 11:12:23.449661  2068 layer_factory.hpp:77] Creating layer Scale48
I0825 11:12:23.449697  2068 net.cpp:128] Creating Layer Scale48
I0825 11:12:23.449728  2068 net.cpp:558] Scale48 <- Convolution48
I0825 11:12:23.449761  2068 net.cpp:509] Scale48 -> Convolution48 (in-place)
I0825 11:12:23.449849  2068 layer_factory.hpp:77] Creating layer Scale48
I0825 11:12:23.450027  2068 net.cpp:172] Setting up Scale48
I0825 11:12:23.450064  2068 net.cpp:186] Top shape: 10 64 8 8 (40960)
I0825 11:12:23.450096  2068 net.cpp:194] Memory required for data: 110551160
I0825 11:12:23.450134  2068 layer_factory.hpp:77] Creating layer ReLU46
I0825 11:12:23.450167  2068 net.cpp:128] Creating Layer ReLU46
I0825 11:12:23.450198  2068 net.cpp:558] ReLU46 <- Convolution48
I0825 11:12:23.450233  2068 net.cpp:509] ReLU46 -> Convolution48 (in-place)
I0825 11:12:23.450877  2068 net.cpp:172] Setting up ReLU46
I0825 11:12:23.450947  2068 net.cpp:186] Top shape: 10 64 8 8 (40960)
I0825 11:12:23.450979  2068 net.cpp:194] Memory required for data: 110715000
I0825 11:12:23.451012  2068 layer_factory.hpp:77] Creating layer Convolution49
I0825 11:12:23.451056  2068 net.cpp:128] Creating Layer Convolution49
I0825 11:12:23.451088  2068 net.cpp:558] Convolution49 <- Convolution48
I0825 11:12:23.451126  2068 net.cpp:522] Convolution49 -> Convolution49
I0825 11:12:23.457861  2068 net.cpp:172] Setting up Convolution49
I0825 11:12:23.457928  2068 net.cpp:186] Top shape: 10 64 8 8 (40960)
I0825 11:12:23.457960  2068 net.cpp:194] Memory required for data: 110878840
I0825 11:12:23.458000  2068 layer_factory.hpp:77] Creating layer BatchNorm49
I0825 11:12:23.458036  2068 net.cpp:128] Creating Layer BatchNorm49
I0825 11:12:23.458068  2068 net.cpp:558] BatchNorm49 <- Convolution49
I0825 11:12:23.458103  2068 net.cpp:509] BatchNorm49 -> Convolution49 (in-place)
I0825 11:12:23.458389  2068 net.cpp:172] Setting up BatchNorm49
I0825 11:12:23.458429  2068 net.cpp:186] Top shape: 10 64 8 8 (40960)
I0825 11:12:23.458461  2068 net.cpp:194] Memory required for data: 111042680
I0825 11:12:23.458500  2068 layer_factory.hpp:77] Creating layer Scale49
I0825 11:12:23.458536  2068 net.cpp:128] Creating Layer Scale49
I0825 11:12:23.458567  2068 net.cpp:558] Scale49 <- Convolution49
I0825 11:12:23.458601  2068 net.cpp:509] Scale49 -> Convolution49 (in-place)
I0825 11:12:23.458683  2068 layer_factory.hpp:77] Creating layer Scale49
I0825 11:12:23.458860  2068 net.cpp:172] Setting up Scale49
I0825 11:12:23.458900  2068 net.cpp:186] Top shape: 10 64 8 8 (40960)
I0825 11:12:23.458932  2068 net.cpp:194] Memory required for data: 111206520
I0825 11:12:23.458969  2068 layer_factory.hpp:77] Creating layer Eltwise23
I0825 11:12:23.459005  2068 net.cpp:128] Creating Layer Eltwise23
I0825 11:12:23.459038  2068 net.cpp:558] Eltwise23 <- Eltwise22_ReLU45_0_split_1
I0825 11:12:23.459070  2068 net.cpp:558] Eltwise23 <- Convolution49
I0825 11:12:23.459105  2068 net.cpp:522] Eltwise23 -> Eltwise23
I0825 11:12:23.459167  2068 net.cpp:172] Setting up Eltwise23
I0825 11:12:23.459203  2068 net.cpp:186] Top shape: 10 64 8 8 (40960)
I0825 11:12:23.459233  2068 net.cpp:194] Memory required for data: 111370360
I0825 11:12:23.459265  2068 layer_factory.hpp:77] Creating layer ReLU47
I0825 11:12:23.459300  2068 net.cpp:128] Creating Layer ReLU47
I0825 11:12:23.459337  2068 net.cpp:558] ReLU47 <- Eltwise23
I0825 11:12:23.459370  2068 net.cpp:509] ReLU47 -> Eltwise23 (in-place)
I0825 11:12:23.462131  2068 net.cpp:172] Setting up ReLU47
I0825 11:12:23.462184  2068 net.cpp:186] Top shape: 10 64 8 8 (40960)
I0825 11:12:23.462216  2068 net.cpp:194] Memory required for data: 111534200
I0825 11:12:23.462249  2068 layer_factory.hpp:77] Creating layer Eltwise23_ReLU47_0_split
I0825 11:12:23.462288  2068 net.cpp:128] Creating Layer Eltwise23_ReLU47_0_split
I0825 11:12:23.462321  2068 net.cpp:558] Eltwise23_ReLU47_0_split <- Eltwise23
I0825 11:12:23.462366  2068 net.cpp:522] Eltwise23_ReLU47_0_split -> Eltwise23_ReLU47_0_split_0
I0825 11:12:23.462405  2068 net.cpp:522] Eltwise23_ReLU47_0_split -> Eltwise23_ReLU47_0_split_1
I0825 11:12:23.462505  2068 net.cpp:172] Setting up Eltwise23_ReLU47_0_split
I0825 11:12:23.462543  2068 net.cpp:186] Top shape: 10 64 8 8 (40960)
I0825 11:12:23.462576  2068 net.cpp:186] Top shape: 10 64 8 8 (40960)
I0825 11:12:23.462607  2068 net.cpp:194] Memory required for data: 111861880
I0825 11:12:23.462640  2068 layer_factory.hpp:77] Creating layer Convolution50
I0825 11:12:23.462680  2068 net.cpp:128] Creating Layer Convolution50
I0825 11:12:23.462713  2068 net.cpp:558] Convolution50 <- Eltwise23_ReLU47_0_split_0
I0825 11:12:23.462750  2068 net.cpp:522] Convolution50 -> Convolution50
I0825 11:12:23.473732  2068 net.cpp:172] Setting up Convolution50
I0825 11:12:23.473798  2068 net.cpp:186] Top shape: 10 64 8 8 (40960)
I0825 11:12:23.473830  2068 net.cpp:194] Memory required for data: 112025720
I0825 11:12:23.473870  2068 layer_factory.hpp:77] Creating layer BatchNorm50
I0825 11:12:23.473908  2068 net.cpp:128] Creating Layer BatchNorm50
I0825 11:12:23.473942  2068 net.cpp:558] BatchNorm50 <- Convolution50
I0825 11:12:23.473981  2068 net.cpp:509] BatchNorm50 -> Convolution50 (in-place)
I0825 11:12:23.474275  2068 net.cpp:172] Setting up BatchNorm50
I0825 11:12:23.474314  2068 net.cpp:186] Top shape: 10 64 8 8 (40960)
I0825 11:12:23.474352  2068 net.cpp:194] Memory required for data: 112189560
I0825 11:12:23.474392  2068 layer_factory.hpp:77] Creating layer Scale50
I0825 11:12:23.474427  2068 net.cpp:128] Creating Layer Scale50
I0825 11:12:23.474459  2068 net.cpp:558] Scale50 <- Convolution50
I0825 11:12:23.474494  2068 net.cpp:509] Scale50 -> Convolution50 (in-place)
I0825 11:12:23.474577  2068 layer_factory.hpp:77] Creating layer Scale50
I0825 11:12:23.474758  2068 net.cpp:172] Setting up Scale50
I0825 11:12:23.474795  2068 net.cpp:186] Top shape: 10 64 8 8 (40960)
I0825 11:12:23.474828  2068 net.cpp:194] Memory required for data: 112353400
I0825 11:12:23.474864  2068 layer_factory.hpp:77] Creating layer ReLU48
I0825 11:12:23.474898  2068 net.cpp:128] Creating Layer ReLU48
I0825 11:12:23.474930  2068 net.cpp:558] ReLU48 <- Convolution50
I0825 11:12:23.474966  2068 net.cpp:509] ReLU48 -> Convolution50 (in-place)
I0825 11:12:23.475584  2068 net.cpp:172] Setting up ReLU48
I0825 11:12:23.475637  2068 net.cpp:186] Top shape: 10 64 8 8 (40960)
I0825 11:12:23.475669  2068 net.cpp:194] Memory required for data: 112517240
I0825 11:12:23.475702  2068 layer_factory.hpp:77] Creating layer Convolution51
I0825 11:12:23.475744  2068 net.cpp:128] Creating Layer Convolution51
I0825 11:12:23.475776  2068 net.cpp:558] Convolution51 <- Convolution50
I0825 11:12:23.475813  2068 net.cpp:522] Convolution51 -> Convolution51
I0825 11:12:23.480471  2068 net.cpp:172] Setting up Convolution51
I0825 11:12:23.480536  2068 net.cpp:186] Top shape: 10 64 8 8 (40960)
I0825 11:12:23.480567  2068 net.cpp:194] Memory required for data: 112681080
I0825 11:12:23.480605  2068 layer_factory.hpp:77] Creating layer BatchNorm51
I0825 11:12:23.480643  2068 net.cpp:128] Creating Layer BatchNorm51
I0825 11:12:23.480674  2068 net.cpp:558] BatchNorm51 <- Convolution51
I0825 11:12:23.480708  2068 net.cpp:509] BatchNorm51 -> Convolution51 (in-place)
I0825 11:12:23.480996  2068 net.cpp:172] Setting up BatchNorm51
I0825 11:12:23.481035  2068 net.cpp:186] Top shape: 10 64 8 8 (40960)
I0825 11:12:23.481066  2068 net.cpp:194] Memory required for data: 112844920
I0825 11:12:23.481106  2068 layer_factory.hpp:77] Creating layer Scale51
I0825 11:12:23.481153  2068 net.cpp:128] Creating Layer Scale51
I0825 11:12:23.481184  2068 net.cpp:558] Scale51 <- Convolution51
I0825 11:12:23.481217  2068 net.cpp:509] Scale51 -> Convolution51 (in-place)
I0825 11:12:23.481302  2068 layer_factory.hpp:77] Creating layer Scale51
I0825 11:12:23.481484  2068 net.cpp:172] Setting up Scale51
I0825 11:12:23.481521  2068 net.cpp:186] Top shape: 10 64 8 8 (40960)
I0825 11:12:23.481552  2068 net.cpp:194] Memory required for data: 113008760
I0825 11:12:23.481588  2068 layer_factory.hpp:77] Creating layer Eltwise24
I0825 11:12:23.481626  2068 net.cpp:128] Creating Layer Eltwise24
I0825 11:12:23.481659  2068 net.cpp:558] Eltwise24 <- Eltwise23_ReLU47_0_split_1
I0825 11:12:23.481703  2068 net.cpp:558] Eltwise24 <- Convolution51
I0825 11:12:23.481740  2068 net.cpp:522] Eltwise24 -> Eltwise24
I0825 11:12:23.481801  2068 net.cpp:172] Setting up Eltwise24
I0825 11:12:23.481837  2068 net.cpp:186] Top shape: 10 64 8 8 (40960)
I0825 11:12:23.481868  2068 net.cpp:194] Memory required for data: 113172600
I0825 11:12:23.481899  2068 layer_factory.hpp:77] Creating layer ReLU49
I0825 11:12:23.481935  2068 net.cpp:128] Creating Layer ReLU49
I0825 11:12:23.481967  2068 net.cpp:558] ReLU49 <- Eltwise24
I0825 11:12:23.482000  2068 net.cpp:509] ReLU49 -> Eltwise24 (in-place)
I0825 11:12:23.482617  2068 net.cpp:172] Setting up ReLU49
I0825 11:12:23.482683  2068 net.cpp:186] Top shape: 10 64 8 8 (40960)
I0825 11:12:23.482714  2068 net.cpp:194] Memory required for data: 113336440
I0825 11:12:23.482748  2068 layer_factory.hpp:77] Creating layer Eltwise24_ReLU49_0_split
I0825 11:12:23.482787  2068 net.cpp:128] Creating Layer Eltwise24_ReLU49_0_split
I0825 11:12:23.482820  2068 net.cpp:558] Eltwise24_ReLU49_0_split <- Eltwise24
I0825 11:12:23.482856  2068 net.cpp:522] Eltwise24_ReLU49_0_split -> Eltwise24_ReLU49_0_split_0
I0825 11:12:23.482897  2068 net.cpp:522] Eltwise24_ReLU49_0_split -> Eltwise24_ReLU49_0_split_1
I0825 11:12:23.482995  2068 net.cpp:172] Setting up Eltwise24_ReLU49_0_split
I0825 11:12:23.483031  2068 net.cpp:186] Top shape: 10 64 8 8 (40960)
I0825 11:12:23.483067  2068 net.cpp:186] Top shape: 10 64 8 8 (40960)
I0825 11:12:23.483098  2068 net.cpp:194] Memory required for data: 113664120
I0825 11:12:23.483129  2068 layer_factory.hpp:77] Creating layer Convolution52
I0825 11:12:23.483167  2068 net.cpp:128] Creating Layer Convolution52
I0825 11:12:23.483199  2068 net.cpp:558] Convolution52 <- Eltwise24_ReLU49_0_split_0
I0825 11:12:23.483238  2068 net.cpp:522] Convolution52 -> Convolution52
I0825 11:12:23.492899  2068 net.cpp:172] Setting up Convolution52
I0825 11:12:23.494979  2068 net.cpp:186] Top shape: 10 64 8 8 (40960)
I0825 11:12:23.495021  2068 net.cpp:194] Memory required for data: 113827960
I0825 11:12:23.495067  2068 layer_factory.hpp:77] Creating layer BatchNorm52
I0825 11:12:23.495108  2068 net.cpp:128] Creating Layer BatchNorm52
I0825 11:12:23.495146  2068 net.cpp:558] BatchNorm52 <- Convolution52
I0825 11:12:23.495199  2068 net.cpp:509] BatchNorm52 -> Convolution52 (in-place)
I0825 11:12:23.495514  2068 net.cpp:172] Setting up BatchNorm52
I0825 11:12:23.495555  2068 net.cpp:186] Top shape: 10 64 8 8 (40960)
I0825 11:12:23.495587  2068 net.cpp:194] Memory required for data: 113991800
I0825 11:12:23.495627  2068 layer_factory.hpp:77] Creating layer Scale52
I0825 11:12:23.495664  2068 net.cpp:128] Creating Layer Scale52
I0825 11:12:23.495697  2068 net.cpp:558] Scale52 <- Convolution52
I0825 11:12:23.495730  2068 net.cpp:509] Scale52 -> Convolution52 (in-place)
I0825 11:12:23.495826  2068 layer_factory.hpp:77] Creating layer Scale52
I0825 11:12:23.496007  2068 net.cpp:172] Setting up Scale52
I0825 11:12:23.496048  2068 net.cpp:186] Top shape: 10 64 8 8 (40960)
I0825 11:12:23.496079  2068 net.cpp:194] Memory required for data: 114155640
I0825 11:12:23.496116  2068 layer_factory.hpp:77] Creating layer ReLU50
I0825 11:12:23.496163  2068 net.cpp:128] Creating Layer ReLU50
I0825 11:12:23.496196  2068 net.cpp:558] ReLU50 <- Convolution52
I0825 11:12:23.496229  2068 net.cpp:509] ReLU50 -> Convolution52 (in-place)
I0825 11:12:23.496799  2068 net.cpp:172] Setting up ReLU50
I0825 11:12:23.496855  2068 net.cpp:186] Top shape: 10 64 8 8 (40960)
I0825 11:12:23.496887  2068 net.cpp:194] Memory required for data: 114319480
I0825 11:12:23.496922  2068 layer_factory.hpp:77] Creating layer Convolution53
I0825 11:12:23.496965  2068 net.cpp:128] Creating Layer Convolution53
I0825 11:12:23.496999  2068 net.cpp:558] Convolution53 <- Convolution52
I0825 11:12:23.497035  2068 net.cpp:522] Convolution53 -> Convolution53
I0825 11:12:23.506008  2068 net.cpp:172] Setting up Convolution53
I0825 11:12:23.506083  2068 net.cpp:186] Top shape: 10 64 8 8 (40960)
I0825 11:12:23.506129  2068 net.cpp:194] Memory required for data: 114483320
I0825 11:12:23.506170  2068 layer_factory.hpp:77] Creating layer BatchNorm53
I0825 11:12:23.506206  2068 net.cpp:128] Creating Layer BatchNorm53
I0825 11:12:23.506238  2068 net.cpp:558] BatchNorm53 <- Convolution53
I0825 11:12:23.506276  2068 net.cpp:509] BatchNorm53 -> Convolution53 (in-place)
I0825 11:12:23.506589  2068 net.cpp:172] Setting up BatchNorm53
I0825 11:12:23.506634  2068 net.cpp:186] Top shape: 10 64 8 8 (40960)
I0825 11:12:23.506665  2068 net.cpp:194] Memory required for data: 114647160
I0825 11:12:23.506705  2068 layer_factory.hpp:77] Creating layer Scale53
I0825 11:12:23.506741  2068 net.cpp:128] Creating Layer Scale53
I0825 11:12:23.506772  2068 net.cpp:558] Scale53 <- Convolution53
I0825 11:12:23.506811  2068 net.cpp:509] Scale53 -> Convolution53 (in-place)
I0825 11:12:23.506896  2068 layer_factory.hpp:77] Creating layer Scale53
I0825 11:12:23.507081  2068 net.cpp:172] Setting up Scale53
I0825 11:12:23.507119  2068 net.cpp:186] Top shape: 10 64 8 8 (40960)
I0825 11:12:23.507150  2068 net.cpp:194] Memory required for data: 114811000
I0825 11:12:23.507189  2068 layer_factory.hpp:77] Creating layer Eltwise25
I0825 11:12:23.507228  2068 net.cpp:128] Creating Layer Eltwise25
I0825 11:12:23.507262  2068 net.cpp:558] Eltwise25 <- Eltwise24_ReLU49_0_split_1
I0825 11:12:23.507297  2068 net.cpp:558] Eltwise25 <- Convolution53
I0825 11:12:23.507331  2068 net.cpp:522] Eltwise25 -> Eltwise25
I0825 11:12:23.507395  2068 net.cpp:172] Setting up Eltwise25
I0825 11:12:23.507431  2068 net.cpp:186] Top shape: 10 64 8 8 (40960)
I0825 11:12:23.507462  2068 net.cpp:194] Memory required for data: 114974840
I0825 11:12:23.507493  2068 layer_factory.hpp:77] Creating layer ReLU51
I0825 11:12:23.507529  2068 net.cpp:128] Creating Layer ReLU51
I0825 11:12:23.507560  2068 net.cpp:558] ReLU51 <- Eltwise25
I0825 11:12:23.507594  2068 net.cpp:509] ReLU51 -> Eltwise25 (in-place)
I0825 11:12:23.508152  2068 net.cpp:172] Setting up ReLU51
I0825 11:12:23.508203  2068 net.cpp:186] Top shape: 10 64 8 8 (40960)
I0825 11:12:23.508235  2068 net.cpp:194] Memory required for data: 115138680
I0825 11:12:23.508268  2068 layer_factory.hpp:77] Creating layer Eltwise25_ReLU51_0_split
I0825 11:12:23.508306  2068 net.cpp:128] Creating Layer Eltwise25_ReLU51_0_split
I0825 11:12:23.508338  2068 net.cpp:558] Eltwise25_ReLU51_0_split <- Eltwise25
I0825 11:12:23.508376  2068 net.cpp:522] Eltwise25_ReLU51_0_split -> Eltwise25_ReLU51_0_split_0
I0825 11:12:23.508415  2068 net.cpp:522] Eltwise25_ReLU51_0_split -> Eltwise25_ReLU51_0_split_1
I0825 11:12:23.508507  2068 net.cpp:172] Setting up Eltwise25_ReLU51_0_split
I0825 11:12:23.508544  2068 net.cpp:186] Top shape: 10 64 8 8 (40960)
I0825 11:12:23.508577  2068 net.cpp:186] Top shape: 10 64 8 8 (40960)
I0825 11:12:23.508608  2068 net.cpp:194] Memory required for data: 115466360
I0825 11:12:23.508641  2068 layer_factory.hpp:77] Creating layer Convolution54
I0825 11:12:23.508682  2068 net.cpp:128] Creating Layer Convolution54
I0825 11:12:23.508714  2068 net.cpp:558] Convolution54 <- Eltwise25_ReLU51_0_split_0
I0825 11:12:23.508754  2068 net.cpp:522] Convolution54 -> Convolution54
I0825 11:12:23.518203  2068 net.cpp:172] Setting up Convolution54
I0825 11:12:23.518285  2068 net.cpp:186] Top shape: 10 64 8 8 (40960)
I0825 11:12:23.518318  2068 net.cpp:194] Memory required for data: 115630200
I0825 11:12:23.518384  2068 layer_factory.hpp:77] Creating layer BatchNorm54
I0825 11:12:23.518426  2068 net.cpp:128] Creating Layer BatchNorm54
I0825 11:12:23.518460  2068 net.cpp:558] BatchNorm54 <- Convolution54
I0825 11:12:23.518497  2068 net.cpp:509] BatchNorm54 -> Convolution54 (in-place)
I0825 11:12:23.518808  2068 net.cpp:172] Setting up BatchNorm54
I0825 11:12:23.518849  2068 net.cpp:186] Top shape: 10 64 8 8 (40960)
I0825 11:12:23.518880  2068 net.cpp:194] Memory required for data: 115794040
I0825 11:12:23.518925  2068 layer_factory.hpp:77] Creating layer Scale54
I0825 11:12:23.518970  2068 net.cpp:128] Creating Layer Scale54
I0825 11:12:23.519001  2068 net.cpp:558] Scale54 <- Convolution54
I0825 11:12:23.519047  2068 net.cpp:509] Scale54 -> Convolution54 (in-place)
I0825 11:12:23.519141  2068 layer_factory.hpp:77] Creating layer Scale54
I0825 11:12:23.519328  2068 net.cpp:172] Setting up Scale54
I0825 11:12:23.519366  2068 net.cpp:186] Top shape: 10 64 8 8 (40960)
I0825 11:12:23.519397  2068 net.cpp:194] Memory required for data: 115957880
I0825 11:12:23.519435  2068 layer_factory.hpp:77] Creating layer ReLU52
I0825 11:12:23.519472  2068 net.cpp:128] Creating Layer ReLU52
I0825 11:12:23.519505  2068 net.cpp:558] ReLU52 <- Convolution54
I0825 11:12:23.519539  2068 net.cpp:509] ReLU52 -> Convolution54 (in-place)
I0825 11:12:23.519876  2068 net.cpp:172] Setting up ReLU52
I0825 11:12:23.519932  2068 net.cpp:186] Top shape: 10 64 8 8 (40960)
I0825 11:12:23.519963  2068 net.cpp:194] Memory required for data: 116121720
I0825 11:12:23.519997  2068 layer_factory.hpp:77] Creating layer Convolution55
I0825 11:12:23.520041  2068 net.cpp:128] Creating Layer Convolution55
I0825 11:12:23.520076  2068 net.cpp:558] Convolution55 <- Convolution54
I0825 11:12:23.520113  2068 net.cpp:522] Convolution55 -> Convolution55
I0825 11:12:23.535971  2068 net.cpp:172] Setting up Convolution55
I0825 11:12:23.536048  2068 net.cpp:186] Top shape: 10 64 8 8 (40960)
I0825 11:12:23.536082  2068 net.cpp:194] Memory required for data: 116285560
I0825 11:12:23.536123  2068 layer_factory.hpp:77] Creating layer BatchNorm55
I0825 11:12:23.536164  2068 net.cpp:128] Creating Layer BatchNorm55
I0825 11:12:23.536195  2068 net.cpp:558] BatchNorm55 <- Convolution55
I0825 11:12:23.536232  2068 net.cpp:509] BatchNorm55 -> Convolution55 (in-place)
I0825 11:12:23.536532  2068 net.cpp:172] Setting up BatchNorm55
I0825 11:12:23.536571  2068 net.cpp:186] Top shape: 10 64 8 8 (40960)
I0825 11:12:23.536603  2068 net.cpp:194] Memory required for data: 116449400
I0825 11:12:23.536643  2068 layer_factory.hpp:77] Creating layer Scale55
I0825 11:12:23.536679  2068 net.cpp:128] Creating Layer Scale55
I0825 11:12:23.536710  2068 net.cpp:558] Scale55 <- Convolution55
I0825 11:12:23.536743  2068 net.cpp:509] Scale55 -> Convolution55 (in-place)
I0825 11:12:23.536834  2068 layer_factory.hpp:77] Creating layer Scale55
I0825 11:12:23.537022  2068 net.cpp:172] Setting up Scale55
I0825 11:12:23.537060  2068 net.cpp:186] Top shape: 10 64 8 8 (40960)
I0825 11:12:23.537091  2068 net.cpp:194] Memory required for data: 116613240
I0825 11:12:23.537128  2068 layer_factory.hpp:77] Creating layer Eltwise26
I0825 11:12:23.537168  2068 net.cpp:128] Creating Layer Eltwise26
I0825 11:12:23.537201  2068 net.cpp:558] Eltwise26 <- Eltwise25_ReLU51_0_split_1
I0825 11:12:23.537235  2068 net.cpp:558] Eltwise26 <- Convolution55
I0825 11:12:23.537271  2068 net.cpp:522] Eltwise26 -> Eltwise26
I0825 11:12:23.537334  2068 net.cpp:172] Setting up Eltwise26
I0825 11:12:23.537369  2068 net.cpp:186] Top shape: 10 64 8 8 (40960)
I0825 11:12:23.537400  2068 net.cpp:194] Memory required for data: 116777080
I0825 11:12:23.537432  2068 layer_factory.hpp:77] Creating layer ReLU53
I0825 11:12:23.537467  2068 net.cpp:128] Creating Layer ReLU53
I0825 11:12:23.537499  2068 net.cpp:558] ReLU53 <- Eltwise26
I0825 11:12:23.537533  2068 net.cpp:509] ReLU53 -> Eltwise26 (in-place)
I0825 11:12:23.540496  2068 net.cpp:172] Setting up ReLU53
I0825 11:12:23.540561  2068 net.cpp:186] Top shape: 10 64 8 8 (40960)
I0825 11:12:23.540604  2068 net.cpp:194] Memory required for data: 116940920
I0825 11:12:23.540637  2068 layer_factory.hpp:77] Creating layer Eltwise26_ReLU53_0_split
I0825 11:12:23.540676  2068 net.cpp:128] Creating Layer Eltwise26_ReLU53_0_split
I0825 11:12:23.540709  2068 net.cpp:558] Eltwise26_ReLU53_0_split <- Eltwise26
I0825 11:12:23.540745  2068 net.cpp:522] Eltwise26_ReLU53_0_split -> Eltwise26_ReLU53_0_split_0
I0825 11:12:23.540784  2068 net.cpp:522] Eltwise26_ReLU53_0_split -> Eltwise26_ReLU53_0_split_1
I0825 11:12:23.540876  2068 net.cpp:172] Setting up Eltwise26_ReLU53_0_split
I0825 11:12:23.540913  2068 net.cpp:186] Top shape: 10 64 8 8 (40960)
I0825 11:12:23.540957  2068 net.cpp:186] Top shape: 10 64 8 8 (40960)
I0825 11:12:23.540988  2068 net.cpp:194] Memory required for data: 117268600
I0825 11:12:23.541021  2068 layer_factory.hpp:77] Creating layer Convolution56
I0825 11:12:23.541062  2068 net.cpp:128] Creating Layer Convolution56
I0825 11:12:23.541095  2068 net.cpp:558] Convolution56 <- Eltwise26_ReLU53_0_split_0
I0825 11:12:23.541134  2068 net.cpp:522] Convolution56 -> Convolution56
I0825 11:12:23.551589  2068 net.cpp:172] Setting up Convolution56
I0825 11:12:23.551661  2068 net.cpp:186] Top shape: 10 64 8 8 (40960)
I0825 11:12:23.551695  2068 net.cpp:194] Memory required for data: 117432440
I0825 11:12:23.551738  2068 layer_factory.hpp:77] Creating layer BatchNorm56
I0825 11:12:23.551777  2068 net.cpp:128] Creating Layer BatchNorm56
I0825 11:12:23.551811  2068 net.cpp:558] BatchNorm56 <- Convolution56
I0825 11:12:23.551848  2068 net.cpp:509] BatchNorm56 -> Convolution56 (in-place)
I0825 11:12:23.552155  2068 net.cpp:172] Setting up BatchNorm56
I0825 11:12:23.552194  2068 net.cpp:186] Top shape: 10 64 8 8 (40960)
I0825 11:12:23.552225  2068 net.cpp:194] Memory required for data: 117596280
I0825 11:12:23.552264  2068 layer_factory.hpp:77] Creating layer Scale56
I0825 11:12:23.552300  2068 net.cpp:128] Creating Layer Scale56
I0825 11:12:23.552331  2068 net.cpp:558] Scale56 <- Convolution56
I0825 11:12:23.552367  2068 net.cpp:509] Scale56 -> Convolution56 (in-place)
I0825 11:12:23.552453  2068 layer_factory.hpp:77] Creating layer Scale56
I0825 11:12:23.552644  2068 net.cpp:172] Setting up Scale56
I0825 11:12:23.552682  2068 net.cpp:186] Top shape: 10 64 8 8 (40960)
I0825 11:12:23.552714  2068 net.cpp:194] Memory required for data: 117760120
I0825 11:12:23.552752  2068 layer_factory.hpp:77] Creating layer ReLU54
I0825 11:12:23.552785  2068 net.cpp:128] Creating Layer ReLU54
I0825 11:12:23.552817  2068 net.cpp:558] ReLU54 <- Convolution56
I0825 11:12:23.552853  2068 net.cpp:509] ReLU54 -> Convolution56 (in-place)
I0825 11:12:23.555510  2068 net.cpp:172] Setting up ReLU54
I0825 11:12:23.555567  2068 net.cpp:186] Top shape: 10 64 8 8 (40960)
I0825 11:12:23.555599  2068 net.cpp:194] Memory required for data: 117923960
I0825 11:12:23.555631  2068 layer_factory.hpp:77] Creating layer Convolution57
I0825 11:12:23.555675  2068 net.cpp:128] Creating Layer Convolution57
I0825 11:12:23.555708  2068 net.cpp:558] Convolution57 <- Convolution56
I0825 11:12:23.555747  2068 net.cpp:522] Convolution57 -> Convolution57
I0825 11:12:23.568737  2068 net.cpp:172] Setting up Convolution57
I0825 11:12:23.568783  2068 net.cpp:186] Top shape: 10 64 8 8 (40960)
I0825 11:12:23.568801  2068 net.cpp:194] Memory required for data: 118087800
I0825 11:12:23.568825  2068 layer_factory.hpp:77] Creating layer BatchNorm57
I0825 11:12:23.568850  2068 net.cpp:128] Creating Layer BatchNorm57
I0825 11:12:23.568871  2068 net.cpp:558] BatchNorm57 <- Convolution57
I0825 11:12:23.568891  2068 net.cpp:509] BatchNorm57 -> Convolution57 (in-place)
I0825 11:12:23.569175  2068 net.cpp:172] Setting up BatchNorm57
I0825 11:12:23.569196  2068 net.cpp:186] Top shape: 10 64 8 8 (40960)
I0825 11:12:23.569212  2068 net.cpp:194] Memory required for data: 118251640
I0825 11:12:23.569236  2068 layer_factory.hpp:77] Creating layer Scale57
I0825 11:12:23.569258  2068 net.cpp:128] Creating Layer Scale57
I0825 11:12:23.569275  2068 net.cpp:558] Scale57 <- Convolution57
I0825 11:12:23.569306  2068 net.cpp:509] Scale57 -> Convolution57 (in-place)
I0825 11:12:23.569377  2068 layer_factory.hpp:77] Creating layer Scale57
I0825 11:12:23.569550  2068 net.cpp:172] Setting up Scale57
I0825 11:12:23.569571  2068 net.cpp:186] Top shape: 10 64 8 8 (40960)
I0825 11:12:23.569587  2068 net.cpp:194] Memory required for data: 118415480
I0825 11:12:23.569608  2068 layer_factory.hpp:77] Creating layer Eltwise27
I0825 11:12:23.569633  2068 net.cpp:128] Creating Layer Eltwise27
I0825 11:12:23.569650  2068 net.cpp:558] Eltwise27 <- Eltwise26_ReLU53_0_split_1
I0825 11:12:23.569669  2068 net.cpp:558] Eltwise27 <- Convolution57
I0825 11:12:23.569692  2068 net.cpp:522] Eltwise27 -> Eltwise27
I0825 11:12:23.569751  2068 net.cpp:172] Setting up Eltwise27
I0825 11:12:23.569772  2068 net.cpp:186] Top shape: 10 64 8 8 (40960)
I0825 11:12:23.569787  2068 net.cpp:194] Memory required for data: 118579320
I0825 11:12:23.569804  2068 layer_factory.hpp:77] Creating layer ReLU55
I0825 11:12:23.569826  2068 net.cpp:128] Creating Layer ReLU55
I0825 11:12:23.569844  2068 net.cpp:558] ReLU55 <- Eltwise27
I0825 11:12:23.569861  2068 net.cpp:509] ReLU55 -> Eltwise27 (in-place)
I0825 11:12:23.575078  2068 net.cpp:172] Setting up ReLU55
I0825 11:12:23.575114  2068 net.cpp:186] Top shape: 10 64 8 8 (40960)
I0825 11:12:23.575130  2068 net.cpp:194] Memory required for data: 118743160
I0825 11:12:23.575147  2068 layer_factory.hpp:77] Creating layer Pooling1
I0825 11:12:23.575171  2068 net.cpp:128] Creating Layer Pooling1
I0825 11:12:23.575188  2068 net.cpp:558] Pooling1 <- Eltwise27
I0825 11:12:23.575211  2068 net.cpp:522] Pooling1 -> Pooling1
I0825 11:12:23.581596  2068 net.cpp:172] Setting up Pooling1
I0825 11:12:23.581638  2068 net.cpp:186] Top shape: 10 64 1 1 (640)
I0825 11:12:23.581656  2068 net.cpp:194] Memory required for data: 118745720
I0825 11:12:23.581673  2068 layer_factory.hpp:77] Creating layer InnerProduct1
I0825 11:12:23.581698  2068 net.cpp:128] Creating Layer InnerProduct1
I0825 11:12:23.581717  2068 net.cpp:558] InnerProduct1 <- Pooling1
I0825 11:12:23.581738  2068 net.cpp:522] InnerProduct1 -> InnerProduct1
I0825 11:12:23.581946  2068 net.cpp:172] Setting up InnerProduct1
I0825 11:12:23.581974  2068 net.cpp:186] Top shape: 10 10 (100)
I0825 11:12:23.581991  2068 net.cpp:194] Memory required for data: 118746120
I0825 11:12:23.582015  2068 layer_factory.hpp:77] Creating layer InnerProduct1_InnerProduct1_0_split
I0825 11:12:23.582034  2068 net.cpp:128] Creating Layer InnerProduct1_InnerProduct1_0_split
I0825 11:12:23.582051  2068 net.cpp:558] InnerProduct1_InnerProduct1_0_split <- InnerProduct1
I0825 11:12:23.582072  2068 net.cpp:522] InnerProduct1_InnerProduct1_0_split -> InnerProduct1_InnerProduct1_0_split_0
I0825 11:12:23.582096  2068 net.cpp:522] InnerProduct1_InnerProduct1_0_split -> InnerProduct1_InnerProduct1_0_split_1
I0825 11:12:23.582161  2068 net.cpp:172] Setting up InnerProduct1_InnerProduct1_0_split
I0825 11:12:23.582181  2068 net.cpp:186] Top shape: 10 10 (100)
I0825 11:12:23.582199  2068 net.cpp:186] Top shape: 10 10 (100)
I0825 11:12:23.582214  2068 net.cpp:194] Memory required for data: 118746920
I0825 11:12:23.582232  2068 layer_factory.hpp:77] Creating layer SoftmaxWithLoss1
I0825 11:12:23.582254  2068 net.cpp:128] Creating Layer SoftmaxWithLoss1
I0825 11:12:23.582271  2068 net.cpp:558] SoftmaxWithLoss1 <- InnerProduct1_InnerProduct1_0_split_0
I0825 11:12:23.582289  2068 net.cpp:558] SoftmaxWithLoss1 <- Data2_Data1_1_split_0
…
