…
I0818 10:58:37.363559  3083 net.cpp:82] Initializing net from parameters: 
name: "resnet_cifar10"
state {
  phase: TRAIN
  level: 0
  stage: ""
}
layer {
  name: "Data1"
  type: "Data"
  top: "Data1"
  top: "Data2"
  include {
    phase: TRAIN
  }
  transform_param {
    scale: 0.0039215684
    mirror: true
    crop_size: 32
    mean_value: 125.3
    mean_value: 122.9
    mean_value: 113.8
  }
  data_param {
    source: "/home/lijianfei/datasets/cifar10_40/train_lmdb"
    batch_size: 64
    backend: LMDB
  }
  image_data_param {
    shuffle: true
  }
}
layer {
  name: "Convolution1"
  type: "Convolution"
  bottom: "Data1"
  top: "Convolution1"
  param {
    lr_mult: 1
    decay_mult: 1
  }
  param {
    lr_mult: 2
    decay_mult: 0
  }
  convolution_param {
    num_output: 16
    pad: 1
    kernel_size: 3
    stride: 1
    weight_filler {
      type: "msra"
    }
    bias_filler {
      type: "constant"
      value: 0
    }
  }
}
layer {
  name: "BatchNorm1"
  type: "BatchNorm"
  bottom: "Convolution1"
  top: "Convolution1"
  param {
    lr_mult: 0
    decay_mult: 0
  }
  param {
    lr_mult: 0
    decay_mult: 0
  }
  param {
    lr_mult: 0
    decay_mult: 0
  }
}
layer {
  name: "Scale1"
  type: "Scale"
  bottom: "Convolution1"
  top: "Convolution1"
  scale_param {
    bias_term: true
  }
}
layer {
  name: "ReLU1"
  type: "ReLU"
  bottom: "Convolution1"
  top: "Convolution1"
}
layer {
  name: "Convolution2"
  type: "Convolution"
  bottom: "Convolution1"
  top: "Convolution2"
  param {
    lr_mult: 1
    decay_mult: 1
  }
  param {
    lr_mult: 2
    decay_mult: 0
  }
  convolution_param {
    num_output: 16
    pad: 1
    kernel_size: 3
    stride: 1
    weight_filler {
      type: "msra"
    }
    bias_filler {
      type: "constant"
      value: 0
    }
  }
}
layer {
  name: "BatchNorm2"
  type: "BatchNorm"
  bottom: "Convolution2"
  top: "Convolution2"
  param {
    lr_mult: 0
    decay_mult: 0
  }
  param {
    lr_mult: 0
    decay_mult: 0
  }
  param {
    lr_mult: 0
    decay_mult: 0
  }
}
layer {
  name: "Scale2"
  type: "Scale"
  bottom: "Convolution2"
  top: "Convolution2"
  scale_param {
    bias_term: true
  }
}
layer {
  name: "ReLU2"
  type: "ReLU"
  bottom: "Convolution2"
  top: "Convolution2"
}
layer {
  name: "Convolution3"
  type: "Convolution"
  bottom: "Convolution2"
  top: "Convolution3"
  param {
    lr_mult: 1
    decay_mult: 1
  }
  param {
    lr_mult: 2
    decay_mult: 0
  }
  convolution_param {
    num_output: 16
    pad: 1
    kernel_size: 3
    stride: 1
    weight_filler {
      type: "msra"
    }
    bias_filler {
      type: "constant"
      value: 0
    }
  }
}
layer {
  name: "BatchNorm3"
  type: "BatchNorm"
  bottom: "Convolution3"
  top: "Convolution3"
  param {
    lr_mult: 0
    decay_mult: 0
  }
  param {
    lr_mult: 0
    decay_mult: 0
  }
  param {
    lr_mult: 0
    decay_mult: 0
  }
}
layer {
  name: "Scale3"
  type: "Scale"
  bottom: "Convolution3"
  top: "Convolution3"
  scale_param {
    bias_term: true
  }
}
layer {
  name: "Eltwise1"
  type: "Eltwise"
  bottom: "Convolution1"
  bottom: "Convolution3"
  top: "Eltwise1"
  eltwise_param {
    operation: SUM
  }
}
layer {
  name: "ReLU3"
  type: "ReLU"
  bottom: "Eltwise1"
  top: "Eltwise1"
}
layer {
  name: "Convolution4"
  type: "Convolution"
  bottom: "Eltwise1"
  top: "Convolution4"
  param {
    lr_mult: 1
    decay_mult: 1
  }
  param {
    lr_mult: 2
    decay_mult: 0
  }
  convolution_param {
    num_output: 16
    pad: 1
    kernel_size: 3
    stride: 1
    weight_filler {
      type: "msra"
    }
    bias_filler {
      type: "constant"
      value: 0
    }
  }
}
layer {
  name: "BatchNorm4"
  type: "BatchNorm"
  bottom: "Convolution4"
  top: "Convolution4"
  param {
    lr_mult: 0
    decay_mult: 0
  }
  param {
    lr_mult: 0
    decay_mult: 0
  }
  param {
    lr_mult: 0
    decay_mult: 0
  }
}
layer {
  name: "Scale4"
  type: "Scale"
  bottom: "Convolution4"
  top: "Convolution4"
  scale_param {
    bias_term: true
  }
}
layer {
  name: "ReLU4"
  type: "ReLU"
  bottom: "Convolution4"
  top: "Convolution4"
}
layer {
  name: "Convolution5"
  type: "Convolution"
  bottom: "Convolution4"
  top: "Convolution5"
  param {
    lr_mult: 1
    decay_mult: 1
  }
  param {
    lr_mult: 2
    decay_mult: 0
  }
  convolution_param {
    num_output: 16
    pad: 1
    kernel_size: 3
    stride: 1
    weight_filler {
      type: "msra"
    }
    bias_filler {
      type: "constant"
      value: 0
    }
  }
}
layer {
  name: "BatchNorm5"
  type: "BatchNorm"
  bottom: "Convolution5"
  top: "Convolution5"
  param {
    lr_mult: 0
    decay_mult: 0
  }
  param {
    lr_mult: 0
    decay_mult: 0
  }
  param {
    lr_mult: 0
    decay_mult: 0
  }
}
layer {
  name: "Scale5"
  type: "Scale"
  bottom: "Convolution5"
  top: "Convolution5"
  scale_param {
    bias_term: true
  }
}
layer {
  name: "Eltwise2"
  type: "Eltwise"
  bottom: "Eltwise1"
  bottom: "Convolution5"
  top: "Eltwise2"
  eltwise_param {
    operation: SUM
  }
}
layer {
  name: "ReLU5"
  type: "ReLU"
  bottom: "Eltwise2"
  top: "Eltwise2"
}
layer {
  name: "Convolution6"
  type: "Convolution"
  bottom: "Eltwise2"
  top: "Convolution6"
  param {
    lr_mult: 1
    decay_mult: 1
  }
  param {
    lr_mult: 2
    decay_mult: 0
  }
  convolution_param {
    num_output: 16
    pad: 1
    kernel_size: 3
    stride: 1
    weight_filler {
      type: "msra"
    }
    bias_filler {
      type: "constant"
      value: 0
    }
  }
}
layer {
  name: "BatchNorm6"
  type: "BatchNorm"
  bottom: "Convolution6"
  top: "Convolution6"
  param {
    lr_mult: 0
    decay_mult: 0
  }
  param {
    lr_mult: 0
    decay_mult: 0
  }
  param {
    lr_mult: 0
    decay_mult: 0
  }
}
layer {
  name: "Scale6"
  type: "Scale"
  bottom: "Convolution6"
  top: "Convolution6"
  scale_param {
    bias_term: true
  }
}
layer {
  name: "ReLU6"
  type: "ReLU"
  bottom: "Convolution6"
  top: "Convolution6"
}
layer {
  name: "Convolution7"
  type: "Convolution"
  bottom: "Convolution6"
  top: "Convolution7"
  param {
    lr_mult: 1
    decay_mult: 1
  }
  param {
    lr_mult: 2
    decay_mult: 0
  }
  convolution_param {
    num_output: 16
    pad: 1
    kernel_size: 3
    stride: 1
    weight_filler {
      type: "msra"
    }
    bias_filler {
      type: "constant"
      value: 0
    }
  }
}
layer {
  name: "BatchNorm7"
  type: "BatchNorm"
  bottom: "Convolution7"
  top: "Convolution7"
  param {
    lr_mult: 0
    decay_mult: 0
  }
  param {
    lr_mult: 0
    decay_mult: 0
  }
  param {
    lr_mult: 0
    decay_mult: 0
  }
}
layer {
  name: "Scale7"
  type: "Scale"
  bottom: "Convolution7"
  top: "Convolution7"
  scale_param {
    bias_term: true
  }
}
layer {
  name: "Eltwise3"
  type: "Eltwise"
  bottom: "Eltwise2"
  bottom: "Convolution7"
  top: "Eltwise3"
  eltwise_param {
    operation: SUM
  }
}
layer {
  name: "ReLU7"
  type: "ReLU"
  bottom: "Eltwise3"
  top: "Eltwise3"
}
layer {
  name: "Convolution8"
  type: "Convolution"
  bottom: "Eltwise3"
  top: "Convolution8"
  param {
    lr_mult: 1
    decay_mult: 1
  }
  param {
    lr_mult: 2
    decay_mult: 0
  }
  convolution_param {
    num_output: 16
    pad: 1
    kernel_size: 3
    stride: 1
    weight_filler {
      type: "msra"
    }
    bias_filler {
      type: "constant"
      value: 0
    }
  }
}
layer {
  name: "BatchNorm8"
  type: "BatchNorm"
  bottom: "Convolution8"
  top: "Convolution8"
  param {
    lr_mult: 0
    decay_mult: 0
  }
  param {
    lr_mult: 0
    decay_mult: 0
  }
  param {
    lr_mult: 0
    decay_mult: 0
  }
}
layer {
  name: "Scale8"
  type: "Scale"
  bottom: "Convolution8"
  top: "Convolution8"
  scale_param {
    bias_term: true
  }
}
layer {
  name: "ReLU8"
  type: "ReLU"
  bottom: "Convolution8"
  top: "Convolution8"
}
layer {
  name: "Convolution9"
  type: "Convolution"
  bottom: "Convolution8"
  top: "Convolution9"
  param {
    lr_mult: 1
    decay_mult: 1
  }
  param {
    lr_mult: 2
    decay_mult: 0
  }
  convolution_param {
    num_output: 16
    pad: 1
    kernel_size: 3
    stride: 1
    weight_filler {
      type: "msra"
    }
    bias_filler {
      type: "constant"
      value: 0
    }
  }
}
layer {
  name: "BatchNorm9"
  type: "BatchNorm"
  bottom: "Convolution9"
  top: "Convolution9"
  param {
    lr_mult: 0
    decay_mult: 0
  }
  param {
    lr_mult: 0
    decay_mult: 0
  }
  param {
    lr_mult: 0
    decay_mult: 0
  }
}
layer {
  name: "Scale9"
  type: "Scale"
  bottom: "Convolution9"
  top: "Convolution9"
  scale_param {
    bias_term: true
  }
}
layer {
  name: "Eltwise4"
  type: "Eltwise"
  bottom: "Eltwise3"
  bottom: "Convolution9"
  top: "Eltwise4"
  eltwise_param {
    operation: SUM
  }
}
layer {
  name: "ReLU9"
  type: "ReLU"
  bottom: "Eltwise4"
  top: "Eltwise4"
}
layer {
  name: "Convolution10"
  type: "Convolution"
  bottom: "Eltwise4"
  top: "Convolution10"
  param {
    lr_mult: 1
    decay_mult: 1
  }
  param {
    lr_mult: 2
    decay_mult: 0
  }
  convolution_param {
    num_output: 16
    pad: 1
    kernel_size: 3
    stride: 1
    weight_filler {
      type: "msra"
    }
    bias_filler {
      type: "constant"
      value: 0
    }
  }
}
layer {
  name: "BatchNorm10"
  type: "BatchNorm"
  bottom: "Convolution10"
  top: "Convolution10"
  param {
    lr_mult: 0
    decay_mult: 0
  }
  param {
    lr_mult: 0
    decay_mult: 0
  }
  param {
    lr_mult: 0
    decay_mult: 0
  }
}
layer {
  name: "Scale10"
  type: "Scale"
  bottom: "Convolution10"
  top: "Convolution10"
  scale_param {
    bias_term: true
  }
}
layer {
  name: "ReLU10"
  type: "ReLU"
  bottom: "Convolution10"
  top: "Convolution10"
}
layer {
  name: "Convolution11"
  type: "Convolution"
  bottom: "Convolution10"
  top: "Convolution11"
  param {
    lr_mult: 1
    decay_mult: 1
  }
  param {
    lr_mult: 2
    decay_mult: 0
  }
  convolution_param {
    num_output: 16
    pad: 1
    kernel_size: 3
    stride: 1
    weight_filler {
      type: "msra"
    }
    bias_filler {
      type: "constant"
      value: 0
    }
  }
}
layer {
  name: "BatchNorm11"
  type: "BatchNorm"
  bottom: "Convolution11"
  top: "Convolution11"
  param {
    lr_mult: 0
    decay_mult: 0
  }
  param {
    lr_mult: 0
    decay_mult: 0
  }
  param {
    lr_mult: 0
    decay_mult: 0
  }
}
layer {
  name: "Scale11"
  type: "Scale"
  bottom: "Convolution11"
  top: "Convolution11"
  scale_param {
    bias_term: true
  }
}
layer {
  name: "Eltwise5"
  type: "Eltwise"
  bottom: "Eltwise4"
  bottom: "Convolution11"
  top: "Eltwise5"
  eltwise_param {
    operation: SUM
  }
}
layer {
  name: "ReLU11"
  type: "ReLU"
  bottom: "Eltwise5"
  top: "Eltwise5"
}
layer {
  name: "Convolution12"
  type: "Convolution"
  bottom: "Eltwise5"
  top: "Convolution12"
  param {
    lr_mult: 1
    decay_mult: 1
  }
  param {
    lr_mult: 2
    decay_mult: 0
  }
  convolution_param {
    num_output: 16
    pad: 1
    kernel_size: 3
    stride: 1
    weight_filler {
      type: "msra"
    }
    bias_filler {
      type: "constant"
      value: 0
    }
  }
}
layer {
  name: "BatchNorm12"
  type: "BatchNorm"
  bottom: "Convolution12"
  top: "Convolution12"
  param {
    lr_mult: 0
    decay_mult: 0
  }
  param {
    lr_mult: 0
    decay_mult: 0
  }
  param {
    lr_mult: 0
    decay_mult: 0
  }
}
layer {
  name: "Scale12"
  type: "Scale"
  bottom: "Convolution12"
  top: "Convolution12"
  scale_param {
    bias_term: true
  }
}
layer {
  name: "ReLU12"
  type: "ReLU"
  bottom: "Convolution12"
  top: "Convolution12"
}
layer {
  name: "Convolution13"
  type: "Convolution"
  bottom: "Convolution12"
  top: "Convolution13"
  param {
    lr_mult: 1
    decay_mult: 1
  }
  param {
    lr_mult: 2
    decay_mult: 0
  }
  convolution_param {
    num_output: 16
    pad: 1
    kernel_size: 3
    stride: 1
    weight_filler {
      type: "msra"
    }
    bias_filler {
      type: "constant"
      value: 0
    }
  }
}
layer {
  name: "BatchNorm13"
  type: "BatchNorm"
  bottom: "Convolution13"
  top: "Convolution13"
  param {
    lr_mult: 0
    decay_mult: 0
  }
  param {
    lr_mult: 0
    decay_mult: 0
  }
  param {
    lr_mult: 0
    decay_mult: 0
  }
}
layer {
  name: "Scale13"
  type: "Scale"
  bottom: "Convolution13"
  top: "Convolution13"
  scale_param {
    bias_term: true
  }
}
layer {
  name: "Eltwise6"
  type: "Eltwise"
  bottom: "Eltwise5"
  bottom: "Convolution13"
  top: "Eltwise6"
  eltwise_param {
    operation: SUM
  }
}
layer {
  name: "ReLU13"
  type: "ReLU"
  bottom: "Eltwise6"
  top: "Eltwise6"
}
layer {
  name: "Convolution14"
  type: "Convolution"
  bottom: "Eltwise6"
  top: "Convolution14"
  param {
    lr_mult: 1
    decay_mult: 1
  }
  param {
    lr_mult: 2
    decay_mult: 0
  }
  convolution_param {
    num_output: 16
    pad: 1
    kernel_size: 3
    stride: 1
    weight_filler {
      type: "msra"
    }
    bias_filler {
      type: "constant"
      value: 0
    }
  }
}
layer {
  name: "BatchNorm14"
  type: "BatchNorm"
  bottom: "Convolution14"
  top: "Convolution14"
  param {
    lr_mult: 0
    decay_mult: 0
  }
  param {
    lr_mult: 0
    decay_mult: 0
  }
  param {
    lr_mult: 0
    decay_mult: 0
  }
}
layer {
  name: "Scale14"
  type: "Scale"
  bottom: "Convolution14"
  top: "Convolution14"
  scale_param {
    bias_term: true
  }
}
layer {
  name: "ReLU14"
  type: "ReLU"
  bottom: "Convolution14"
  top: "Convolution14"
}
layer {
  name: "Convolution15"
  type: "Convolution"
  bottom: "Convolution14"
  top: "Convolution15"
  param {
    lr_mult: 1
    decay_mult: 1
  }
  param {
    lr_mult: 2
    decay_mult: 0
  }
  convolution_param {
    num_output: 16
    pad: 1
    kernel_size: 3
    stride: 1
    weight_filler {
      type: "msra"
    }
    bias_filler {
      type: "constant"
      value: 0
    }
  }
}
layer {
  name: "BatchNorm15"
  type: "BatchNorm"
  bottom: "Convolution15"
  top: "Convolution15"
  param {
    lr_mult: 0
    decay_mult: 0
  }
  param {
    lr_mult: 0
    decay_mult: 0
  }
  param {
    lr_mult: 0
    decay_mult: 0
  }
}
layer {
  name: "Scale15"
  type: "Scale"
  bottom: "Convolution15"
  top: "Convolution15"
  scale_param {
    bias_term: true
  }
}
layer {
  name: "Eltwise7"
  type: "Eltwise"
  bottom: "Eltwise6"
  bottom: "Convolution15"
  top: "Eltwise7"
  eltwise_param {
    operation: SUM
  }
}
layer {
  name: "ReLU15"
  type: "ReLU"
  bottom: "Eltwise7"
  top: "Eltwise7"
}
layer {
  name: "Convolution16"
  type: "Convolution"
  bottom: "Eltwise7"
  top: "Convolution16"
  param {
    lr_mult: 1
    decay_mult: 1
  }
  param {
    lr_mult: 2
    decay_mult: 0
  }
  convolution_param {
    num_output: 16
    pad: 1
    kernel_size: 3
    stride: 1
    weight_filler {
      type: "msra"
    }
    bias_filler {
      type: "constant"
      value: 0
    }
  }
}
layer {
  name: "BatchNorm16"
  type: "BatchNorm"
  bottom: "Convolution16"
  top: "Convolution16"
  param {
    lr_mult: 0
    decay_mult: 0
  }
  param {
    lr_mult: 0
    decay_mult: 0
  }
  param {
    lr_mult: 0
    decay_mult: 0
  }
}
layer {
  name: "Scale16"
  type: "Scale"
  bottom: "Convolution16"
  top: "Convolution16"
  scale_param {
    bias_term: true
  }
}
layer {
  name: "ReLU16"
  type: "ReLU"
  bottom: "Convolution16"
  top: "Convolution16"
}
layer {
  name: "Convolution17"
  type: "Convolution"
  bottom: "Convolution16"
  top: "Convolution17"
  param {
    lr_mult: 1
    decay_mult: 1
  }
  param {
    lr_mult: 2
    decay_mult: 0
  }
  convolution_param {
    num_output: 16
    pad: 1
    kernel_size: 3
    stride: 1
    weight_filler {
      type: "msra"
    }
    bias_filler {
      type: "constant"
      value: 0
    }
  }
}
layer {
  name: "BatchNorm17"
  type: "BatchNorm"
  bottom: "Convolution17"
  top: "Convolution17"
  param {
    lr_mult: 0
    decay_mult: 0
  }
  param {
    lr_mult: 0
    decay_mult: 0
  }
  param {
    lr_mult: 0
    decay_mult: 0
  }
}
layer {
  name: "Scale17"
  type: "Scale"
  bottom: "Convolution17"
  top: "Convolution17"
  scale_param {
    bias_term: true
  }
}
layer {
  name: "Eltwise8"
  type: "Eltwise"
  bottom: "Eltwise7"
  bottom: "Convolution17"
  top: "Eltwise8"
  eltwise_param {
    operation: SUM
  }
}
layer {
  name: "ReLU17"
  type: "ReLU"
  bottom: "Eltwise8"
  top: "Eltwise8"
}
layer {
  name: "Convolution18"
  type: "Convolution"
  bottom: "Eltwise8"
  top: "Convolution18"
  param {
    lr_mult: 1
    decay_mult: 1
  }
  param {
    lr_mult: 2
    decay_mult: 0
  }
  convolution_param {
    num_output: 16
    pad: 1
    kernel_size: 3
    stride: 1
    weight_filler {
      type: "msra"
    }
    bias_filler {
      type: "constant"
      value: 0
    }
  }
}
layer {
  name: "BatchNorm18"
  type: "BatchNorm"
  bottom: "Convolution18"
  top: "Convolution18"
  param {
    lr_mult: 0
    decay_mult: 0
  }
  param {
    lr_mult: 0
    decay_mult: 0
  }
  param {
    lr_mult: 0
    decay_mult: 0
  }
}
layer {
  name: "Scale18"
  type: "Scale"
  bottom: "Convolution18"
  top: "Convolution18"
  scale_param {
    bias_term: true
  }
}
layer {
  name: "ReLU18"
  type: "ReLU"
  bottom: "Convolution18"
  top: "Convolution18"
}
layer {
  name: "Convolution19"
  type: "Convolution"
  bottom: "Convolution18"
  top: "Convolution19"
  param {
    lr_mult: 1
    decay_mult: 1
  }
  param {
    lr_mult: 2
    decay_mult: 0
  }
  convolution_param {
    num_output: 16
    pad: 1
    kernel_size: 3
    stride: 1
    weight_filler {
      type: "msra"
    }
    bias_filler {
      type: "constant"
      value: 0
    }
  }
}
layer {
  name: "BatchNorm19"
  type: "BatchNorm"
  bottom: "Convolution19"
  top: "Convolution19"
  param {
    lr_mult: 0
    decay_mult: 0
  }
  param {
    lr_mult: 0
    decay_mult: 0
  }
  param {
    lr_mult: 0
    decay_mult: 0
  }
}
layer {
  name: "Scale19"
  type: "Scale"
  bottom: "Convolution19"
  top: "Convolution19"
  scale_param {
    bias_term: true
  }
}
layer {
  name: "Eltwise9"
  type: "Eltwise"
  bottom: "Eltwise8"
  bottom: "Convolution19"
  top: "Eltwise9"
  eltwise_param {
    operation: SUM
  }
}
layer {
  name: "ReLU19"
  type: "ReLU"
  bottom: "Eltwise9"
  top: "Eltwise9"
}
layer {
  name: "Convolution20"
  type: "Convolution"
  bottom: "Eltwise9"
  top: "Convolution20"
  param {
    lr_mult: 1
    decay_mult: 1
  }
  param {
    lr_mult: 2
    decay_mult: 0
  }
  convolution_param {
    num_output: 32
    pad: 0
    kernel_size: 1
    stride: 2
    weight_filler {
      type: "msra"
    }
    bias_filler {
      type: "constant"
      value: 0
    }
  }
}
layer {
  name: "BatchNorm20"
  type: "BatchNorm"
  bottom: "Convolution20"
  top: "Convolution20"
  param {
    lr_mult: 0
    decay_mult: 0
  }
  param {
    lr_mult: 0
    decay_mult: 0
  }
  param {
    lr_mult: 0
    decay_mult: 0
  }
}
layer {
  name: "Scale20"
  type: "Scale"
  bottom: "Convolution20"
  top: "Convolution20"
  scale_param {
    bias_term: true
  }
}
layer {
  name: "Convolution21"
  type: "Convolution"
  bottom: "Eltwise9"
  top: "Convolution21"
  param {
    lr_mult: 1
    decay_mult: 1
  }
  param {
    lr_mult: 2
    decay_mult: 0
  }
  convolution_param {
    num_output: 32
    pad: 1
    kernel_size: 3
    stride: 2
    weight_filler {
      type: "msra"
    }
    bias_filler {
      type: "constant"
      value: 0
    }
  }
}
layer {
  name: "BatchNorm21"
  type: "BatchNorm"
  bottom: "Convolution21"
  top: "Convolution21"
  param {
    lr_mult: 0
    decay_mult: 0
  }
  param {
    lr_mult: 0
    decay_mult: 0
  }
  param {
    lr_mult: 0
    decay_mult: 0
  }
}
layer {
  name: "Scale21"
  type: "Scale"
  bottom: "Convolution21"
  top: "Convolution21"
  scale_param {
    bias_term: true
  }
}
layer {
  name: "ReLU20"
  type: "ReLU"
  bottom: "Convolution21"
  top: "Convolution21"
}
layer {
  name: "Convolution22"
  type: "Convolution"
  bottom: "Convolution21"
  top: "Convolution22"
  param {
    lr_mult: 1
    decay_mult: 1
  }
  param {
    lr_mult: 2
    decay_mult: 0
  }
  convolution_param {
    num_output: 32
    pad: 1
    kernel_size: 3
    stride: 1
    weight_filler {
      type: "msra"
    }
    bias_filler {
      type: "constant"
      value: 0
    }
  }
}
layer {
  name: "BatchNorm22"
  type: "BatchNorm"
  bottom: "Convolution22"
  top: "Convolution22"
  param {
    lr_mult: 0
    decay_mult: 0
  }
  param {
    lr_mult: 0
    decay_mult: 0
  }
  param {
    lr_mult: 0
    decay_mult: 0
  }
}
layer {
  name: "Scale22"
  type: "Scale"
  bottom: "Convolution22"
  top: "Convolution22"
  scale_param {
    bias_term: true
  }
}
layer {
  name: "Eltwise10"
  type: "Eltwise"
  bottom: "Convolution20"
  bottom: "Convolution22"
  top: "Eltwise10"
  eltwise_param {
    operation: SUM
  }
}
layer {
  name: "ReLU21"
  type: "ReLU"
  bottom: "Eltwise10"
  top: "Eltwise10"
}
layer {
  name: "Convolution23"
  type: "Convolution"
  bottom: "Eltwise10"
  top: "Convolution23"
  param {
    lr_mult: 1
    decay_mult: 1
  }
  param {
    lr_mult: 2
    decay_mult: 0
  }
  convolution_param {
    num_output: 32
    pad: 1
    kernel_size: 3
    stride: 1
    weight_filler {
      type: "msra"
    }
    bias_filler {
      type: "constant"
      value: 0
    }
  }
}
layer {
  name: "BatchNorm23"
  type: "BatchNorm"
  bottom: "Convolution23"
  top: "Convolution23"
  param {
    lr_mult: 0
    decay_mult: 0
  }
  param {
    lr_mult: 0
    decay_mult: 0
  }
  param {
    lr_mult: 0
    decay_mult: 0
  }
}
layer {
  name: "Scale23"
  type: "Scale"
  bottom: "Convolution23"
  top: "Convolution23"
  scale_param {
    bias_term: true
  }
}
layer {
  name: "ReLU22"
  type: "ReLU"
  bottom: "Convolution23"
  top: "Convolution23"
}
layer {
  name: "Convolution24"
  type: "Convolution"
  bottom: "Convolution23"
  top: "Convolution24"
  param {
    lr_mult: 1
    decay_mult: 1
  }
  param {
    lr_mult: 2
    decay_mult: 0
  }
  convolution_param {
    num_output: 32
    pad: 1
    kernel_size: 3
    stride: 1
    weight_filler {
      type: "msra"
    }
    bias_filler {
      type: "constant"
      value: 0
    }
  }
}
layer {
  name: "BatchNorm24"
  type: "BatchNorm"
  bottom: "Convolution24"
  top: "Convolution24"
  param {
    lr_mult: 0
    decay_mult: 0
  }
  param {
    lr_mult: 0
    decay_mult: 0
  }
  param {
    lr_mult: 0
    decay_mult: 0
  }
}
layer {
  name: "Scale24"
  type: "Scale"
  bottom: "Convolution24"
  top: "Convolution24"
  scale_param {
    bias_term: true
  }
}
layer {
  name: "Eltwise11"
  type: "Eltwise"
  bottom: "Eltwise10"
  bottom: "Convolution24"
  top: "Eltwise11"
  eltwise_param {
    operation: SUM
  }
}
layer {
  name: "ReLU23"
  type: "ReLU"
  bottom: "Eltwise11"
  top: "Eltwise11"
}
layer {
  name: "Convolution25"
  type: "Convolution"
  bottom: "Eltwise11"
  top: "Convolution25"
  param {
    lr_mult: 1
    decay_mult: 1
  }
  param {
    lr_mult: 2
    decay_mult: 0
  }
  convolution_param {
    num_output: 32
    pad: 1
    kernel_size: 3
    stride: 1
    weight_filler {
      type: "msra"
    }
    bias_filler {
      type: "constant"
      value: 0
    }
  }
}
layer {
  name: "BatchNorm25"
  type: "BatchNorm"
  bottom: "Convolution25"
  top: "Convolution25"
  param {
    lr_mult: 0
    decay_mult: 0
  }
  param {
    lr_mult: 0
    decay_mult: 0
  }
  param {
    lr_mult: 0
    decay_mult: 0
  }
}
layer {
  name: "Scale25"
  type: "Scale"
  bottom: "Convolution25"
  top: "Convolution25"
  scale_param {
    bias_term: true
  }
}
layer {
  name: "ReLU24"
  type: "ReLU"
  bottom: "Convolution25"
  top: "Convolution25"
}
layer {
  name: "Convolution26"
  type: "Convolution"
  bottom: "Convolution25"
  top: "Convolution26"
  param {
    lr_mult: 1
    decay_mult: 1
  }
  param {
    lr_mult: 2
    decay_mult: 0
  }
  convolution_param {
    num_output: 32
    pad: 1
    kernel_size: 3
    stride: 1
    weight_filler {
      type: "msra"
    }
    bias_filler {
      type: "constant"
      value: 0
    }
  }
}
layer {
  name: "BatchNorm26"
  type: "BatchNorm"
  bottom: "Convolution26"
  top: "Convolution26"
  param {
    lr_mult: 0
    decay_mult: 0
  }
  param {
    lr_mult: 0
    decay_mult: 0
  }
  param {
    lr_mult: 0
    decay_mult: 0
  }
}
layer {
  name: "Scale26"
  type: "Scale"
  bottom: "Convolution26"
  top: "Convolution26"
  scale_param {
    bias_term: true
  }
}
layer {
  name: "Eltwise12"
  type: "Eltwise"
  bottom: "Eltwise11"
  bottom: "Convolution26"
  top: "Eltwise12"
  eltwise_param {
    operation: SUM
  }
}
layer {
  name: "ReLU25"
  type: "ReLU"
  bottom: "Eltwise12"
  top: "Eltwise12"
}
layer {
  name: "Convolution27"
  type: "Convolution"
  bottom: "Eltwise12"
  top: "Convolution27"
  param {
    lr_mult: 1
    decay_mult: 1
  }
  param {
    lr_mult: 2
    decay_mult: 0
  }
  convolution_param {
    num_output: 32
    pad: 1
    kernel_size: 3
    stride: 1
    weight_filler {
      type: "msra"
    }
    bias_filler {
      type: "constant"
      value: 0
    }
  }
}
layer {
  name: "BatchNorm27"
  type: "BatchNorm"
  bottom: "Convolution27"
  top: "Convolution27"
  param {
    lr_mult: 0
    decay_mult: 0
  }
  param {
    lr_mult: 0
    decay_mult: 0
  }
  param {
    lr_mult: 0
    decay_mult: 0
  }
}
layer {
  name: "Scale27"
  type: "Scale"
  bottom: "Convolution27"
  top: "Convolution27"
  scale_param {
    bias_term: true
  }
}
layer {
  name: "ReLU26"
  type: "ReLU"
  bottom: "Convolution27"
  top: "Convolution27"
}
layer {
  name: "Convolution28"
  type: "Convolution"
  bottom: "Convolution27"
  top: "Convolution28"
  param {
    lr_mult: 1
    decay_mult: 1
  }
  param {
    lr_mult: 2
    decay_mult: 0
  }
  convolution_param {
    num_output: 32
    pad: 1
    kernel_size: 3
    stride: 1
    weight_filler {
      type: "msra"
    }
    bias_filler {
      type: "constant"
      value: 0
    }
  }
}
layer {
  name: "BatchNorm28"
  type: "BatchNorm"
  bottom: "Convolution28"
  top: "Convolution28"
  param {
    lr_mult: 0
    decay_mult: 0
  }
  param {
    lr_mult: 0
    decay_mult: 0
  }
  param {
    lr_mult: 0
    decay_mult: 0
  }
}
layer {
  name: "Scale28"
  type: "Scale"
  bottom: "Convolution28"
  top: "Convolution28"
  scale_param {
    bias_term: true
  }
}
layer {
  name: "Eltwise13"
  type: "Eltwise"
  bottom: "Eltwise12"
  bottom: "Convolution28"
  top: "Eltwise13"
  eltwise_param {
    operation: SUM
  }
}
layer {
  name: "ReLU27"
  type: "ReLU"
  bottom: "Eltwise13"
  top: "Eltwise13"
}
layer {
  name: "Convolution29"
  type: "Convolution"
  bottom: "Eltwise13"
  top: "Convolution29"
  param {
    lr_mult: 1
    decay_mult: 1
  }
  param {
    lr_mult: 2
    decay_mult: 0
  }
  convolution_param {
    num_output: 32
    pad: 1
    kernel_size: 3
    stride: 1
    weight_filler {
      type: "msra"
    }
    bias_filler {
      type: "constant"
      value: 0
    }
  }
}
layer {
  name: "BatchNorm29"
  type: "BatchNorm"
  bottom: "Convolution29"
  top: "Convolution29"
  param {
    lr_mult: 0
    decay_mult: 0
  }
  param {
    lr_mult: 0
    decay_mult: 0
  }
  param {
    lr_mult: 0
    decay_mult: 0
  }
}
layer {
  name: "Scale29"
  type: "Scale"
  bottom: "Convolution29"
  top: "Convolution29"
  scale_param {
    bias_term: true
  }
}
layer {
  name: "ReLU28"
  type: "ReLU"
  bottom: "Convolution29"
  top: "Convolution29"
}
layer {
  name: "Convolution30"
  type: "Convolution"
  bottom: "Convolution29"
  top: "Convolution30"
  param {
    lr_mult: 1
    decay_mult: 1
  }
  param {
    lr_mult: 2
    decay_mult: 0
  }
  convolution_param {
    num_output: 32
    pad: 1
    kernel_size: 3
    stride: 1
    weight_filler {
      type: "msra"
    }
    bias_filler {
      type: "constant"
      value: 0
    }
  }
}
layer {
  name: "BatchNorm30"
  type: "BatchNorm"
  bottom: "Convolution30"
  top: "Convolution30"
  param {
    lr_mult: 0
    decay_mult: 0
  }
  param {
    lr_mult: 0
    decay_mult: 0
  }
  param {
    lr_mult: 0
    decay_mult: 0
  }
}
layer {
  name: "Scale30"
  type: "Scale"
  bottom: "Convolution30"
  top: "Convolution30"
  scale_param {
    bias_term: true
  }
}
layer {
  name: "Eltwise14"
  type: "Eltwise"
  bottom: "Eltwise13"
  bottom: "Convolution30"
  top: "Eltwise14"
  eltwise_param {
    operation: SUM
  }
}
layer {
  name: "ReLU29"
  type: "ReLU"
  bottom: "Eltwise14"
  top: "Eltwise14"
}
layer {
  name: "Convolution31"
  type: "Convolution"
  bottom: "Eltwise14"
  top: "Convolution31"
  param {
    lr_mult: 1
    decay_mult: 1
  }
  param {
    lr_mult: 2
    decay_mult: 0
  }
  convolution_param {
    num_output: 32
    pad: 1
    kernel_size: 3
    stride: 1
    weight_filler {
      type: "msra"
    }
    bias_filler {
      type: "constant"
      value: 0
    }
  }
}
layer {
  name: "BatchNorm31"
  type: "BatchNorm"
  bottom: "Convolution31"
  top: "Convolution31"
  param {
    lr_mult: 0
    decay_mult: 0
  }
  param {
    lr_mult: 0
    decay_mult: 0
  }
  param {
    lr_mult: 0
    decay_mult: 0
  }
}
layer {
  name: "Scale31"
  type: "Scale"
  bottom: "Convolution31"
  top: "Convolution31"
  scale_param {
    bias_term: true
  }
}
layer {
  name: "ReLU30"
  type: "ReLU"
  bottom: "Convolution31"
  top: "Convolution31"
}
layer {
  name: "Convolution32"
  type: "Convolution"
  bottom: "Convolution31"
  top: "Convolution32"
  param {
    lr_mult: 1
    decay_mult: 1
  }
  param {
    lr_mult: 2
    decay_mult: 0
  }
  convolution_param {
    num_output: 32
    pad: 1
    kernel_size: 3
    stride: 1
    weight_filler {
      type: "msra"
    }
    bias_filler {
      type: "constant"
      value: 0
    }
  }
}
layer {
  name: "BatchNorm32"
  type: "BatchNorm"
  bottom: "Convolution32"
  top: "Convolution32"
  param {
    lr_mult: 0
    decay_mult: 0
  }
  param {
    lr_mult: 0
    decay_mult: 0
  }
  param {
    lr_mult: 0
    decay_mult: 0
  }
}
layer {
  name: "Scale32"
  type: "Scale"
  bottom: "Convolution32"
  top: "Convolution32"
  scale_param {
    bias_term: true
  }
}
layer {
  name: "Eltwise15"
  type: "Eltwise"
  bottom: "Eltwise14"
  bottom: "Convolution32"
  top: "Eltwise15"
  eltwise_param {
    operation: SUM
  }
}
layer {
  name: "ReLU31"
  type: "ReLU"
  bottom: "Eltwi
I0818 10:58:37.364755  3083 layer_factory.hpp:77] Creating layer Data1
I0818 10:58:37.364943  3083 db_lmdb.cpp:35] Opened lmdb /home/lijianfei/datasets/cifar10_40/train_lmdb
I0818 10:58:37.365000  3083 net.cpp:128] Creating Layer Data1
I0818 10:58:37.365011  3083 net.cpp:522] Data1 -> Data1
I0818 10:58:37.365044  3083 net.cpp:522] Data1 -> Data2
I0818 10:58:37.366796  3083 data_layer.cpp:45] output data size: 64,3,32,32
I0818 10:58:37.378634  3083 net.cpp:172] Setting up Data1
I0818 10:58:37.378695  3083 net.cpp:186] Top shape: 64 3 32 32 (196608)
I0818 10:58:37.378700  3083 net.cpp:186] Top shape: 64 (64)
I0818 10:58:37.378705  3083 net.cpp:194] Memory required for data: 786688
I0818 10:58:37.378718  3083 layer_factory.hpp:77] Creating layer Convolution1
I0818 10:58:37.378749  3083 net.cpp:128] Creating Layer Convolution1
I0818 10:58:37.378760  3083 net.cpp:558] Convolution1 <- Data1
I0818 10:58:37.378779  3083 net.cpp:522] Convolution1 -> Convolution1
I0818 10:58:38.534807  3083 net.cpp:172] Setting up Convolution1
I0818 10:58:38.534871  3083 net.cpp:186] Top shape: 64 16 32 32 (1048576)
I0818 10:58:38.534876  3083 net.cpp:194] Memory required for data: 4980992
I0818 10:58:38.534924  3083 layer_factory.hpp:77] Creating layer BatchNorm1
I0818 10:58:38.535008  3083 net.cpp:128] Creating Layer BatchNorm1
I0818 10:58:38.535027  3083 net.cpp:558] BatchNorm1 <- Convolution1
I0818 10:58:38.535050  3083 net.cpp:509] BatchNorm1 -> Convolution1 (in-place)
I0818 10:58:38.535303  3083 net.cpp:172] Setting up BatchNorm1
I0818 10:58:38.535315  3083 net.cpp:186] Top shape: 64 16 32 32 (1048576)
I0818 10:58:38.535320  3083 net.cpp:194] Memory required for data: 9175296
I0818 10:58:38.535334  3083 layer_factory.hpp:77] Creating layer Scale1
I0818 10:58:38.535346  3083 net.cpp:128] Creating Layer Scale1
I0818 10:58:38.535351  3083 net.cpp:558] Scale1 <- Convolution1
I0818 10:58:38.535378  3083 net.cpp:509] Scale1 -> Convolution1 (in-place)
I0818 10:58:38.535446  3083 layer_factory.hpp:77] Creating layer Scale1
I0818 10:58:38.535578  3083 net.cpp:172] Setting up Scale1
I0818 10:58:38.535588  3083 net.cpp:186] Top shape: 64 16 32 32 (1048576)
I0818 10:58:38.535593  3083 net.cpp:194] Memory required for data: 13369600
I0818 10:58:38.535622  3083 layer_factory.hpp:77] Creating layer ReLU1
I0818 10:58:38.535670  3083 net.cpp:128] Creating Layer ReLU1
I0818 10:58:38.535689  3083 net.cpp:558] ReLU1 <- Convolution1
I0818 10:58:38.535709  3083 net.cpp:509] ReLU1 -> Convolution1 (in-place)
I0818 10:58:38.536495  3083 net.cpp:172] Setting up ReLU1
I0818 10:58:38.536526  3083 net.cpp:186] Top shape: 64 16 32 32 (1048576)
I0818 10:58:38.536545  3083 net.cpp:194] Memory required for data: 17563904
I0818 10:58:38.536556  3083 layer_factory.hpp:77] Creating layer Convolution1_ReLU1_0_split
I0818 10:58:38.536566  3083 net.cpp:128] Creating Layer Convolution1_ReLU1_0_split
I0818 10:58:38.536569  3083 net.cpp:558] Convolution1_ReLU1_0_split <- Convolution1
I0818 10:58:38.536577  3083 net.cpp:522] Convolution1_ReLU1_0_split -> Convolution1_ReLU1_0_split_0
I0818 10:58:38.536586  3083 net.cpp:522] Convolution1_ReLU1_0_split -> Convolution1_ReLU1_0_split_1
I0818 10:58:38.536634  3083 net.cpp:172] Setting up Convolution1_ReLU1_0_split
I0818 10:58:38.536643  3083 net.cpp:186] Top shape: 64 16 32 32 (1048576)
I0818 10:58:38.536648  3083 net.cpp:186] Top shape: 64 16 32 32 (1048576)
I0818 10:58:38.536653  3083 net.cpp:194] Memory required for data: 25952512
I0818 10:58:38.536658  3083 layer_factory.hpp:77] Creating layer Convolution2
I0818 10:58:38.536672  3083 net.cpp:128] Creating Layer Convolution2
I0818 10:58:38.536677  3083 net.cpp:558] Convolution2 <- Convolution1_ReLU1_0_split_0
I0818 10:58:38.536684  3083 net.cpp:522] Convolution2 -> Convolution2
I0818 10:58:38.548725  3083 net.cpp:172] Setting up Convolution2
I0818 10:58:38.548761  3083 net.cpp:186] Top shape: 64 16 32 32 (1048576)
I0818 10:58:38.548766  3083 net.cpp:194] Memory required for data: 30146816
I0818 10:58:38.548782  3083 layer_factory.hpp:77] Creating layer BatchNorm2
I0818 10:58:38.548830  3083 net.cpp:128] Creating Layer BatchNorm2
I0818 10:58:38.548844  3083 net.cpp:558] BatchNorm2 <- Convolution2
I0818 10:58:38.548866  3083 net.cpp:509] BatchNorm2 -> Convolution2 (in-place)
I0818 10:58:38.549103  3083 net.cpp:172] Setting up BatchNorm2
I0818 10:58:38.549115  3083 net.cpp:186] Top shape: 64 16 32 32 (1048576)
I0818 10:58:38.549119  3083 net.cpp:194] Memory required for data: 34341120
I0818 10:58:38.549130  3083 layer_factory.hpp:77] Creating layer Scale2
I0818 10:58:38.549160  3083 net.cpp:128] Creating Layer Scale2
I0818 10:58:38.549175  3083 net.cpp:558] Scale2 <- Convolution2
I0818 10:58:38.549193  3083 net.cpp:509] Scale2 -> Convolution2 (in-place)
I0818 10:58:38.549252  3083 layer_factory.hpp:77] Creating layer Scale2
I0818 10:58:38.549389  3083 net.cpp:172] Setting up Scale2
I0818 10:58:38.549401  3083 net.cpp:186] Top shape: 64 16 32 32 (1048576)
I0818 10:58:38.549405  3083 net.cpp:194] Memory required for data: 38535424
I0818 10:58:38.549413  3083 layer_factory.hpp:77] Creating layer ReLU2
I0818 10:58:38.549439  3083 net.cpp:128] Creating Layer ReLU2
I0818 10:58:38.549454  3083 net.cpp:558] ReLU2 <- Convolution2
I0818 10:58:38.549470  3083 net.cpp:509] ReLU2 -> Convolution2 (in-place)
I0818 10:58:38.552919  3083 net.cpp:172] Setting up ReLU2
I0818 10:58:38.552939  3083 net.cpp:186] Top shape: 64 16 32 32 (1048576)
I0818 10:58:38.552943  3083 net.cpp:194] Memory required for data: 42729728
I0818 10:58:38.552949  3083 layer_factory.hpp:77] Creating layer Convolution3
I0818 10:58:38.552963  3083 net.cpp:128] Creating Layer Convolution3
I0818 10:58:38.552968  3083 net.cpp:558] Convolution3 <- Convolution2
I0818 10:58:38.552975  3083 net.cpp:522] Convolution3 -> Convolution3
I0818 10:58:38.565724  3083 net.cpp:172] Setting up Convolution3
I0818 10:58:38.565750  3083 net.cpp:186] Top shape: 64 16 32 32 (1048576)
I0818 10:58:38.565754  3083 net.cpp:194] Memory required for data: 46924032
I0818 10:58:38.565764  3083 layer_factory.hpp:77] Creating layer BatchNorm3
I0818 10:58:38.565775  3083 net.cpp:128] Creating Layer BatchNorm3
I0818 10:58:38.565779  3083 net.cpp:558] BatchNorm3 <- Convolution3
I0818 10:58:38.565788  3083 net.cpp:509] BatchNorm3 -> Convolution3 (in-place)
I0818 10:58:38.566004  3083 net.cpp:172] Setting up BatchNorm3
I0818 10:58:38.566061  3083 net.cpp:186] Top shape: 64 16 32 32 (1048576)
I0818 10:58:38.566076  3083 net.cpp:194] Memory required for data: 51118336
I0818 10:58:38.566099  3083 layer_factory.hpp:77] Creating layer Scale3
I0818 10:58:38.566118  3083 net.cpp:128] Creating Layer Scale3
I0818 10:58:38.566135  3083 net.cpp:558] Scale3 <- Convolution3
I0818 10:58:38.566153  3083 net.cpp:509] Scale3 -> Convolution3 (in-place)
I0818 10:58:38.566211  3083 layer_factory.hpp:77] Creating layer Scale3
I0818 10:58:38.566349  3083 net.cpp:172] Setting up Scale3
I0818 10:58:38.566371  3083 net.cpp:186] Top shape: 64 16 32 32 (1048576)
I0818 10:58:38.566385  3083 net.cpp:194] Memory required for data: 55312640
I0818 10:58:38.566404  3083 layer_factory.hpp:77] Creating layer Eltwise1
I0818 10:58:38.566423  3083 net.cpp:128] Creating Layer Eltwise1
I0818 10:58:38.566440  3083 net.cpp:558] Eltwise1 <- Convolution1_ReLU1_0_split_1
I0818 10:58:38.566455  3083 net.cpp:558] Eltwise1 <- Convolution3
I0818 10:58:38.566473  3083 net.cpp:522] Eltwise1 -> Eltwise1
I0818 10:58:38.566515  3083 net.cpp:172] Setting up Eltwise1
I0818 10:58:38.566534  3083 net.cpp:186] Top shape: 64 16 32 32 (1048576)
I0818 10:58:38.566546  3083 net.cpp:194] Memory required for data: 59506944
I0818 10:58:38.566560  3083 layer_factory.hpp:77] Creating layer ReLU3
I0818 10:58:38.566577  3083 net.cpp:128] Creating Layer ReLU3
I0818 10:58:38.566591  3083 net.cpp:558] ReLU3 <- Eltwise1
I0818 10:58:38.566606  3083 net.cpp:509] ReLU3 -> Eltwise1 (in-place)
I0818 10:58:38.567883  3083 net.cpp:172] Setting up ReLU3
I0818 10:58:38.567909  3083 net.cpp:186] Top shape: 64 16 32 32 (1048576)
I0818 10:58:38.567914  3083 net.cpp:194] Memory required for data: 63701248
I0818 10:58:38.567919  3083 layer_factory.hpp:77] Creating layer Eltwise1_ReLU3_0_split
I0818 10:58:38.567929  3083 net.cpp:128] Creating Layer Eltwise1_ReLU3_0_split
I0818 10:58:38.567934  3083 net.cpp:558] Eltwise1_ReLU3_0_split <- Eltwise1
I0818 10:58:38.567940  3083 net.cpp:522] Eltwise1_ReLU3_0_split -> Eltwise1_ReLU3_0_split_0
I0818 10:58:38.567951  3083 net.cpp:522] Eltwise1_ReLU3_0_split -> Eltwise1_ReLU3_0_split_1
I0818 10:58:38.567996  3083 net.cpp:172] Setting up Eltwise1_ReLU3_0_split
I0818 10:58:38.568037  3083 net.cpp:186] Top shape: 64 16 32 32 (1048576)
I0818 10:58:38.568053  3083 net.cpp:186] Top shape: 64 16 32 32 (1048576)
I0818 10:58:38.568066  3083 net.cpp:194] Memory required for data: 72089856
I0818 10:58:38.568080  3083 layer_factory.hpp:77] Creating layer Convolution4
I0818 10:58:38.568102  3083 net.cpp:128] Creating Layer Convolution4
I0818 10:58:38.568117  3083 net.cpp:558] Convolution4 <- Eltwise1_ReLU3_0_split_0
I0818 10:58:38.568135  3083 net.cpp:522] Convolution4 -> Convolution4
I0818 10:58:38.574712  3083 net.cpp:172] Setting up Convolution4
I0818 10:58:38.574736  3083 net.cpp:186] Top shape: 64 16 32 32 (1048576)
I0818 10:58:38.574740  3083 net.cpp:194] Memory required for data: 76284160
I0818 10:58:38.574751  3083 layer_factory.hpp:77] Creating layer BatchNorm4
I0818 10:58:38.574761  3083 net.cpp:128] Creating Layer BatchNorm4
I0818 10:58:38.574766  3083 net.cpp:558] BatchNorm4 <- Convolution4
I0818 10:58:38.574774  3083 net.cpp:509] BatchNorm4 -> Convolution4 (in-place)
I0818 10:58:38.574996  3083 net.cpp:172] Setting up BatchNorm4
I0818 10:58:38.575036  3083 net.cpp:186] Top shape: 64 16 32 32 (1048576)
I0818 10:58:38.575057  3083 net.cpp:194] Memory required for data: 80478464
I0818 10:58:38.575080  3083 layer_factory.hpp:77] Creating layer Scale4
I0818 10:58:38.575098  3083 net.cpp:128] Creating Layer Scale4
I0818 10:58:38.575116  3083 net.cpp:558] Scale4 <- Convolution4
I0818 10:58:38.575132  3083 net.cpp:509] Scale4 -> Convolution4 (in-place)
I0818 10:58:38.575191  3083 layer_factory.hpp:77] Creating layer Scale4
I0818 10:58:38.575331  3083 net.cpp:172] Setting up Scale4
I0818 10:58:38.575354  3083 net.cpp:186] Top shape: 64 16 32 32 (1048576)
I0818 10:58:38.575368  3083 net.cpp:194] Memory required for data: 84672768
I0818 10:58:38.575387  3083 layer_factory.hpp:77] Creating layer ReLU4
I0818 10:58:38.575414  3083 net.cpp:128] Creating Layer ReLU4
I0818 10:58:38.575428  3083 net.cpp:558] ReLU4 <- Convolution4
I0818 10:58:38.575443  3083 net.cpp:509] ReLU4 -> Convolution4 (in-place)
I0818 10:58:38.576829  3083 net.cpp:172] Setting up ReLU4
I0818 10:58:38.576848  3083 net.cpp:186] Top shape: 64 16 32 32 (1048576)
I0818 10:58:38.576853  3083 net.cpp:194] Memory required for data: 88867072
I0818 10:58:38.576856  3083 layer_factory.hpp:77] Creating layer Convolution5
I0818 10:58:38.576869  3083 net.cpp:128] Creating Layer Convolution5
I0818 10:58:38.576874  3083 net.cpp:558] Convolution5 <- Convolution4
I0818 10:58:38.576881  3083 net.cpp:522] Convolution5 -> Convolution5
I0818 10:58:38.583729  3083 net.cpp:172] Setting up Convolution5
I0818 10:58:38.583777  3083 net.cpp:186] Top shape: 64 16 32 32 (1048576)
I0818 10:58:38.583796  3083 net.cpp:194] Memory required for data: 93061376
I0818 10:58:38.583817  3083 layer_factory.hpp:77] Creating layer BatchNorm5
I0818 10:58:38.583837  3083 net.cpp:128] Creating Layer BatchNorm5
I0818 10:58:38.583851  3083 net.cpp:558] BatchNorm5 <- Convolution5
I0818 10:58:38.583868  3083 net.cpp:509] BatchNorm5 -> Convolution5 (in-place)
I0818 10:58:38.584116  3083 net.cpp:172] Setting up BatchNorm5
I0818 10:58:38.584141  3083 net.cpp:186] Top shape: 64 16 32 32 (1048576)
I0818 10:58:38.584163  3083 net.cpp:194] Memory required for data: 97255680
I0818 10:58:38.584187  3083 layer_factory.hpp:77] Creating layer Scale5
I0818 10:58:38.584204  3083 net.cpp:128] Creating Layer Scale5
I0818 10:58:38.584221  3083 net.cpp:558] Scale5 <- Convolution5
I0818 10:58:38.584237  3083 net.cpp:509] Scale5 -> Convolution5 (in-place)
I0818 10:58:38.584295  3083 layer_factory.hpp:77] Creating layer Scale5
I0818 10:58:38.584436  3083 net.cpp:172] Setting up Scale5
I0818 10:58:38.584458  3083 net.cpp:186] Top shape: 64 16 32 32 (1048576)
I0818 10:58:38.584475  3083 net.cpp:194] Memory required for data: 101449984
I0818 10:58:38.584494  3083 layer_factory.hpp:77] Creating layer Eltwise2
I0818 10:58:38.584514  3083 net.cpp:128] Creating Layer Eltwise2
I0818 10:58:38.584530  3083 net.cpp:558] Eltwise2 <- Eltwise1_ReLU3_0_split_1
I0818 10:58:38.584545  3083 net.cpp:558] Eltwise2 <- Convolution5
I0818 10:58:38.584564  3083 net.cpp:522] Eltwise2 -> Eltwise2
I0818 10:58:38.584606  3083 net.cpp:172] Setting up Eltwise2
I0818 10:58:38.584625  3083 net.cpp:186] Top shape: 64 16 32 32 (1048576)
I0818 10:58:38.584640  3083 net.cpp:194] Memory required for data: 105644288
I0818 10:58:38.584655  3083 layer_factory.hpp:77] Creating layer ReLU5
I0818 10:58:38.584672  3083 net.cpp:128] Creating Layer ReLU5
I0818 10:58:38.584686  3083 net.cpp:558] ReLU5 <- Eltwise2
I0818 10:58:38.584703  3083 net.cpp:509] ReLU5 -> Eltwise2 (in-place)
I0818 10:58:38.587930  3083 net.cpp:172] Setting up ReLU5
I0818 10:58:38.587947  3083 net.cpp:186] Top shape: 64 16 32 32 (1048576)
I0818 10:58:38.587951  3083 net.cpp:194] Memory required for data: 109838592
I0818 10:58:38.587956  3083 layer_factory.hpp:77] Creating layer Eltwise2_ReLU5_0_split
I0818 10:58:38.587965  3083 net.cpp:128] Creating Layer Eltwise2_ReLU5_0_split
I0818 10:58:38.587968  3083 net.cpp:558] Eltwise2_ReLU5_0_split <- Eltwise2
I0818 10:58:38.587976  3083 net.cpp:522] Eltwise2_ReLU5_0_split -> Eltwise2_ReLU5_0_split_0
I0818 10:58:38.588014  3083 net.cpp:522] Eltwise2_ReLU5_0_split -> Eltwise2_ReLU5_0_split_1
I0818 10:58:38.588081  3083 net.cpp:172] Setting up Eltwise2_ReLU5_0_split
I0818 10:58:38.588101  3083 net.cpp:186] Top shape: 64 16 32 32 (1048576)
I0818 10:58:38.588120  3083 net.cpp:186] Top shape: 64 16 32 32 (1048576)
I0818 10:58:38.588133  3083 net.cpp:194] Memory required for data: 118227200
I0818 10:58:38.588148  3083 layer_factory.hpp:77] Creating layer Convolution6
I0818 10:58:38.588169  3083 net.cpp:128] Creating Layer Convolution6
I0818 10:58:38.588183  3083 net.cpp:558] Convolution6 <- Eltwise2_ReLU5_0_split_0
I0818 10:58:38.588201  3083 net.cpp:522] Convolution6 -> Convolution6
I0818 10:58:38.601079  3083 net.cpp:172] Setting up Convolution6
I0818 10:58:38.601121  3083 net.cpp:186] Top shape: 64 16 32 32 (1048576)
I0818 10:58:38.601125  3083 net.cpp:194] Memory required for data: 122421504
I0818 10:58:38.601136  3083 layer_factory.hpp:77] Creating layer BatchNorm6
I0818 10:58:38.601145  3083 net.cpp:128] Creating Layer BatchNorm6
I0818 10:58:38.601150  3083 net.cpp:558] BatchNorm6 <- Convolution6
I0818 10:58:38.601156  3083 net.cpp:509] BatchNorm6 -> Convolution6 (in-place)
I0818 10:58:38.601423  3083 net.cpp:172] Setting up BatchNorm6
I0818 10:58:38.601433  3083 net.cpp:186] Top shape: 64 16 32 32 (1048576)
I0818 10:58:38.601438  3083 net.cpp:194] Memory required for data: 126615808
I0818 10:58:38.601449  3083 layer_factory.hpp:77] Creating layer Scale6
I0818 10:58:38.601477  3083 net.cpp:128] Creating Layer Scale6
I0818 10:58:38.601491  3083 net.cpp:558] Scale6 <- Convolution6
I0818 10:58:38.601513  3083 net.cpp:509] Scale6 -> Convolution6 (in-place)
I0818 10:58:38.601579  3083 layer_factory.hpp:77] Creating layer Scale6
I0818 10:58:38.601728  3083 net.cpp:172] Setting up Scale6
I0818 10:58:38.601739  3083 net.cpp:186] Top shape: 64 16 32 32 (1048576)
I0818 10:58:38.601744  3083 net.cpp:194] Memory required for data: 130810112
I0818 10:58:38.601752  3083 layer_factory.hpp:77] Creating layer ReLU6
I0818 10:58:38.601779  3083 net.cpp:128] Creating Layer ReLU6
I0818 10:58:38.601794  3083 net.cpp:558] ReLU6 <- Convolution6
I0818 10:58:38.601809  3083 net.cpp:509] ReLU6 -> Convolution6 (in-place)
I0818 10:58:38.605312  3083 net.cpp:172] Setting up ReLU6
I0818 10:58:38.605340  3083 net.cpp:186] Top shape: 64 16 32 32 (1048576)
I0818 10:58:38.605346  3083 net.cpp:194] Memory required for data: 135004416
I0818 10:58:38.605351  3083 layer_factory.hpp:77] Creating layer Convolution7
I0818 10:58:38.605365  3083 net.cpp:128] Creating Layer Convolution7
I0818 10:58:38.605399  3083 net.cpp:558] Convolution7 <- Convolution6
I0818 10:58:38.605418  3083 net.cpp:522] Convolution7 -> Convolution7
I0818 10:58:38.616103  3083 net.cpp:172] Setting up Convolution7
I0818 10:58:38.616133  3083 net.cpp:186] Top shape: 64 16 32 32 (1048576)
I0818 10:58:38.616138  3083 net.cpp:194] Memory required for data: 139198720
I0818 10:58:38.616148  3083 layer_factory.hpp:77] Creating layer BatchNorm7
I0818 10:58:38.616158  3083 net.cpp:128] Creating Layer BatchNorm7
I0818 10:58:38.616161  3083 net.cpp:558] BatchNorm7 <- Convolution7
I0818 10:58:38.616171  3083 net.cpp:509] BatchNorm7 -> Convolution7 (in-place)
I0818 10:58:38.616411  3083 net.cpp:172] Setting up BatchNorm7
I0818 10:58:38.616456  3083 net.cpp:186] Top shape: 64 16 32 32 (1048576)
I0818 10:58:38.616470  3083 net.cpp:194] Memory required for data: 143393024
I0818 10:58:38.616490  3083 layer_factory.hpp:77] Creating layer Scale7
I0818 10:58:38.616516  3083 net.cpp:128] Creating Layer Scale7
I0818 10:58:38.616533  3083 net.cpp:558] Scale7 <- Convolution7
I0818 10:58:38.616549  3083 net.cpp:509] Scale7 -> Convolution7 (in-place)
I0818 10:58:38.616611  3083 layer_factory.hpp:77] Creating layer Scale7
I0818 10:58:38.616765  3083 net.cpp:172] Setting up Scale7
I0818 10:58:38.616788  3083 net.cpp:186] Top shape: 64 16 32 32 (1048576)
I0818 10:58:38.616801  3083 net.cpp:194] Memory required for data: 147587328
I0818 10:58:38.616819  3083 layer_factory.hpp:77] Creating layer Eltwise3
I0818 10:58:38.616839  3083 net.cpp:128] Creating Layer Eltwise3
I0818 10:58:38.616863  3083 net.cpp:558] Eltwise3 <- Eltwise2_ReLU5_0_split_1
I0818 10:58:38.616879  3083 net.cpp:558] Eltwise3 <- Convolution7
I0818 10:58:38.616896  3083 net.cpp:522] Eltwise3 -> Eltwise3
I0818 10:58:38.616940  3083 net.cpp:172] Setting up Eltwise3
I0818 10:58:38.616956  3083 net.cpp:186] Top shape: 64 16 32 32 (1048576)
I0818 10:58:38.616969  3083 net.cpp:194] Memory required for data: 151781632
I0818 10:58:38.616983  3083 layer_factory.hpp:77] Creating layer ReLU7
I0818 10:58:38.616999  3083 net.cpp:128] Creating Layer ReLU7
I0818 10:58:38.617012  3083 net.cpp:558] ReLU7 <- Eltwise3
I0818 10:58:38.617031  3083 net.cpp:509] ReLU7 -> Eltwise3 (in-place)
I0818 10:58:38.618196  3083 net.cpp:172] Setting up ReLU7
I0818 10:58:38.618212  3083 net.cpp:186] Top shape: 64 16 32 32 (1048576)
I0818 10:58:38.618218  3083 net.cpp:194] Memory required for data: 155975936
I0818 10:58:38.618223  3083 layer_factory.hpp:77] Creating layer Eltwise3_ReLU7_0_split
I0818 10:58:38.618230  3083 net.cpp:128] Creating Layer Eltwise3_ReLU7_0_split
I0818 10:58:38.618235  3083 net.cpp:558] Eltwise3_ReLU7_0_split <- Eltwise3
I0818 10:58:38.618244  3083 net.cpp:522] Eltwise3_ReLU7_0_split -> Eltwise3_ReLU7_0_split_0
I0818 10:58:38.618252  3083 net.cpp:522] Eltwise3_ReLU7_0_split -> Eltwise3_ReLU7_0_split_1
I0818 10:58:38.618300  3083 net.cpp:172] Setting up Eltwise3_ReLU7_0_split
I0818 10:58:38.618335  3083 net.cpp:186] Top shape: 64 16 32 32 (1048576)
I0818 10:58:38.618351  3083 net.cpp:186] Top shape: 64 16 32 32 (1048576)
I0818 10:58:38.618365  3083 net.cpp:194] Memory required for data: 164364544
I0818 10:58:38.618378  3083 layer_factory.hpp:77] Creating layer Convolution8
I0818 10:58:38.618402  3083 net.cpp:128] Creating Layer Convolution8
I0818 10:58:38.618415  3083 net.cpp:558] Convolution8 <- Eltwise3_ReLU7_0_split_0
I0818 10:58:38.618435  3083 net.cpp:522] Convolution8 -> Convolution8
I0818 10:58:38.625003  3083 net.cpp:172] Setting up Convolution8
I0818 10:58:38.625052  3083 net.cpp:186] Top shape: 64 16 32 32 (1048576)
I0818 10:58:38.625071  3083 net.cpp:194] Memory required for data: 168558848
I0818 10:58:38.625092  3083 layer_factory.hpp:77] Creating layer BatchNorm8
I0818 10:58:38.625113  3083 net.cpp:128] Creating Layer BatchNorm8
I0818 10:58:38.625126  3083 net.cpp:558] BatchNorm8 <- Convolution8
I0818 10:58:38.625145  3083 net.cpp:509] BatchNorm8 -> Convolution8 (in-place)
I0818 10:58:38.625403  3083 net.cpp:172] Setting up BatchNorm8
I0818 10:58:38.625427  3083 net.cpp:186] Top shape: 64 16 32 32 (1048576)
I0818 10:58:38.625442  3083 net.cpp:194] Memory required for data: 172753152
I0818 10:58:38.625461  3083 layer_factory.hpp:77] Creating layer Scale8
I0818 10:58:38.625483  3083 net.cpp:128] Creating Layer Scale8
I0818 10:58:38.625499  3083 net.cpp:558] Scale8 <- Convolution8
I0818 10:58:38.625514  3083 net.cpp:509] Scale8 -> Convolution8 (in-place)
I0818 10:58:38.625574  3083 layer_factory.hpp:77] Creating layer Scale8
I0818 10:58:38.625727  3083 net.cpp:172] Setting up Scale8
I0818 10:58:38.625747  3083 net.cpp:186] Top shape: 64 16 32 32 (1048576)
I0818 10:58:38.625761  3083 net.cpp:194] Memory required for data: 176947456
I0818 10:58:38.625779  3083 layer_factory.hpp:77] Creating layer ReLU8
I0818 10:58:38.625800  3083 net.cpp:128] Creating Layer ReLU8
I0818 10:58:38.625815  3083 net.cpp:558] ReLU8 <- Convolution8
I0818 10:58:38.625830  3083 net.cpp:509] ReLU8 -> Convolution8 (in-place)
I0818 10:58:38.629256  3083 net.cpp:172] Setting up ReLU8
I0818 10:58:38.629272  3083 net.cpp:186] Top shape: 64 16 32 32 (1048576)
I0818 10:58:38.629277  3083 net.cpp:194] Memory required for data: 181141760
I0818 10:58:38.629283  3083 layer_factory.hpp:77] Creating layer Convolution9
I0818 10:58:38.629299  3083 net.cpp:128] Creating Layer Convolution9
I0818 10:58:38.629304  3083 net.cpp:558] Convolution9 <- Convolution8
I0818 10:58:38.629341  3083 net.cpp:522] Convolution9 -> Convolution9
I0818 10:58:38.637145  3083 net.cpp:172] Setting up Convolution9
I0818 10:58:38.637171  3083 net.cpp:186] Top shape: 64 16 32 32 (1048576)
I0818 10:58:38.637176  3083 net.cpp:194] Memory required for data: 185336064
I0818 10:58:38.637187  3083 layer_factory.hpp:77] Creating layer BatchNorm9
I0818 10:58:38.637197  3083 net.cpp:128] Creating Layer BatchNorm9
I0818 10:58:38.637202  3083 net.cpp:558] BatchNorm9 <- Convolution9
I0818 10:58:38.637238  3083 net.cpp:509] BatchNorm9 -> Convolution9 (in-place)
I0818 10:58:38.637495  3083 net.cpp:172] Setting up BatchNorm9
I0818 10:58:38.637506  3083 net.cpp:186] Top shape: 64 16 32 32 (1048576)
I0818 10:58:38.637509  3083 net.cpp:194] Memory required for data: 189530368
I0818 10:58:38.637519  3083 layer_factory.hpp:77] Creating layer Scale9
I0818 10:58:38.637545  3083 net.cpp:128] Creating Layer Scale9
I0818 10:58:38.637571  3083 net.cpp:558] Scale9 <- Convolution9
I0818 10:58:38.637590  3083 net.cpp:509] Scale9 -> Convolution9 (in-place)
I0818 10:58:38.637655  3083 layer_factory.hpp:77] Creating layer Scale9
I0818 10:58:38.637794  3083 net.cpp:172] Setting up Scale9
I0818 10:58:38.637804  3083 net.cpp:186] Top shape: 64 16 32 32 (1048576)
I0818 10:58:38.637807  3083 net.cpp:194] Memory required for data: 193724672
I0818 10:58:38.637833  3083 layer_factory.hpp:77] Creating layer Eltwise4
I0818 10:58:38.637851  3083 net.cpp:128] Creating Layer Eltwise4
I0818 10:58:38.637868  3083 net.cpp:558] Eltwise4 <- Eltwise3_ReLU7_0_split_1
I0818 10:58:38.637883  3083 net.cpp:558] Eltwise4 <- Convolution9
I0818 10:58:38.637903  3083 net.cpp:522] Eltwise4 -> Eltwise4
I0818 10:58:38.637948  3083 net.cpp:172] Setting up Eltwise4
I0818 10:58:38.637966  3083 net.cpp:186] Top shape: 64 16 32 32 (1048576)
I0818 10:58:38.637981  3083 net.cpp:194] Memory required for data: 197918976
I0818 10:58:38.637995  3083 layer_factory.hpp:77] Creating layer ReLU9
I0818 10:58:38.638011  3083 net.cpp:128] Creating Layer ReLU9
I0818 10:58:38.638025  3083 net.cpp:558] ReLU9 <- Eltwise4
I0818 10:58:38.638043  3083 net.cpp:509] ReLU9 -> Eltwise4 (in-place)
I0818 10:58:38.638295  3083 net.cpp:172] Setting up ReLU9
I0818 10:58:38.638309  3083 net.cpp:186] Top shape: 64 16 32 32 (1048576)
I0818 10:58:38.638314  3083 net.cpp:194] Memory required for data: 202113280
I0818 10:58:38.638319  3083 layer_factory.hpp:77] Creating layer Eltwise4_ReLU9_0_split
I0818 10:58:38.638345  3083 net.cpp:128] Creating Layer Eltwise4_ReLU9_0_split
I0818 10:58:38.638362  3083 net.cpp:558] Eltwise4_ReLU9_0_split <- Eltwise4
I0818 10:58:38.638382  3083 net.cpp:522] Eltwise4_ReLU9_0_split -> Eltwise4_ReLU9_0_split_0
I0818 10:58:38.638402  3083 net.cpp:522] Eltwise4_ReLU9_0_split -> Eltwise4_ReLU9_0_split_1
I0818 10:58:38.638464  3083 net.cpp:172] Setting up Eltwise4_ReLU9_0_split
I0818 10:58:38.638484  3083 net.cpp:186] Top shape: 64 16 32 32 (1048576)
I0818 10:58:38.638501  3083 net.cpp:186] Top shape: 64 16 32 32 (1048576)
I0818 10:58:38.638515  3083 net.cpp:194] Memory required for data: 210501888
I0818 10:58:38.638532  3083 layer_factory.hpp:77] Creating layer Convolution10
I0818 10:58:38.638556  3083 net.cpp:128] Creating Layer Convolution10
I0818 10:58:38.638572  3083 net.cpp:558] Convolution10 <- Eltwise4_ReLU9_0_split_0
I0818 10:58:38.638593  3083 net.cpp:522] Convolution10 -> Convolution10
I0818 10:58:38.639969  3083 net.cpp:172] Setting up Convolution10
I0818 10:58:38.639997  3083 net.cpp:186] Top shape: 64 16 32 32 (1048576)
I0818 10:58:38.640002  3083 net.cpp:194] Memory required for data: 214696192
I0818 10:58:38.640019  3083 layer_factory.hpp:77] Creating layer BatchNorm10
I0818 10:58:38.640058  3083 net.cpp:128] Creating Layer BatchNorm10
I0818 10:58:38.640074  3083 net.cpp:558] BatchNorm10 <- Convolution10
I0818 10:58:38.640094  3083 net.cpp:509] BatchNorm10 -> Convolution10 (in-place)
I0818 10:58:38.640354  3083 net.cpp:172] Setting up BatchNorm10
I0818 10:58:38.640367  3083 net.cpp:186] Top shape: 64 16 32 32 (1048576)
I0818 10:58:38.640370  3083 net.cpp:194] Memory required for data: 218890496
I0818 10:58:38.640381  3083 layer_factory.hpp:77] Creating layer Scale10
I0818 10:58:38.640404  3083 net.cpp:128] Creating Layer Scale10
I0818 10:58:38.640421  3083 net.cpp:558] Scale10 <- Convolution10
I0818 10:58:38.640444  3083 net.cpp:509] Scale10 -> Convolution10 (in-place)
I0818 10:58:38.640511  3083 layer_factory.hpp:77] Creating layer Scale10
I0818 10:58:38.640666  3083 net.cpp:172] Setting up Scale10
I0818 10:58:38.640677  3083 net.cpp:186] Top shape: 64 16 32 32 (1048576)
I0818 10:58:38.640681  3083 net.cpp:194] Memory required for data: 223084800
I0818 10:58:38.640691  3083 layer_factory.hpp:77] Creating layer ReLU10
I0818 10:58:38.640713  3083 net.cpp:128] Creating Layer ReLU10
I0818 10:58:38.640727  3083 net.cpp:558] ReLU10 <- Convolution10
I0818 10:58:38.640745  3083 net.cpp:509] ReLU10 -> Convolution10 (in-place)
I0818 10:58:38.641286  3083 net.cpp:172] Setting up ReLU10
I0818 10:58:38.641322  3083 net.cpp:186] Top shape: 64 16 32 32 (1048576)
I0818 10:58:38.641327  3083 net.cpp:194] Memory required for data: 227279104
I0818 10:58:38.641332  3083 layer_factory.hpp:77] Creating layer Convolution11
I0818 10:58:38.641345  3083 net.cpp:128] Creating Layer Convolution11
I0818 10:58:38.641353  3083 net.cpp:558] Convolution11 <- Convolution10
I0818 10:58:38.641363  3083 net.cpp:522] Convolution11 -> Convolution11
I0818 10:58:38.649549  3083 net.cpp:172] Setting up Convolution11
I0818 10:58:38.649585  3083 net.cpp:186] Top shape: 64 16 32 32 (1048576)
I0818 10:58:38.649590  3083 net.cpp:194] Memory required for data: 231473408
I0818 10:58:38.649605  3083 layer_factory.hpp:77] Creating layer BatchNorm11
I0818 10:58:38.649617  3083 net.cpp:128] Creating Layer BatchNorm11
I0818 10:58:38.649652  3083 net.cpp:558] BatchNorm11 <- Convolution11
I0818 10:58:38.649673  3083 net.cpp:509] BatchNorm11 -> Convolution11 (in-place)
I0818 10:58:38.649948  3083 net.cpp:172] Setting up BatchNorm11
I0818 10:58:38.649960  3083 net.cpp:186] Top shape: 64 16 32 32 (1048576)
I0818 10:58:38.649966  3083 net.cpp:194] Memory required for data: 235667712
I0818 10:58:38.649976  3083 layer_factory.hpp:77] Creating layer Scale11
I0818 10:58:38.650003  3083 net.cpp:128] Creating Layer Scale11
I0818 10:58:38.650017  3083 net.cpp:558] Scale11 <- Convolution11
I0818 10:58:38.650033  3083 net.cpp:509] Scale11 -> Convolution11 (in-place)
I0818 10:58:38.650099  3083 layer_factory.hpp:77] Creating layer Scale11
I0818 10:58:38.650260  3083 net.cpp:172] Setting up Scale11
I0818 10:58:38.650271  3083 net.cpp:186] Top shape: 64 16 32 32 (1048576)
I0818 10:58:38.650276  3083 net.cpp:194] Memory required for data: 239862016
I0818 10:58:38.650285  3083 layer_factory.hpp:77] Creating layer Eltwise5
I0818 10:58:38.650317  3083 net.cpp:128] Creating Layer Eltwise5
I0818 10:58:38.650333  3083 net.cpp:558] Eltwise5 <- Eltwise4_ReLU9_0_split_1
I0818 10:58:38.650351  3083 net.cpp:558] Eltwise5 <- Convolution11
I0818 10:58:38.650367  3083 net.cpp:522] Eltwise5 -> Eltwise5
I0818 10:58:38.650410  3083 net.cpp:172] Setting up Eltwise5
I0818 10:58:38.650429  3083 net.cpp:186] Top shape: 64 16 32 32 (1048576)
I0818 10:58:38.650442  3083 net.cpp:194] Memory required for data: 244056320
I0818 10:58:38.650460  3083 layer_factory.hpp:77] Creating layer ReLU11
I0818 10:58:38.650476  3083 net.cpp:128] Creating Layer ReLU11
I0818 10:58:38.650491  3083 net.cpp:558] ReLU11 <- Eltwise5
I0818 10:58:38.650509  3083 net.cpp:509] ReLU11 -> Eltwise5 (in-place)
I0818 10:58:38.652395  3083 net.cpp:172] Setting up ReLU11
I0818 10:58:38.652416  3083 net.cpp:186] Top shape: 64 16 32 32 (1048576)
I0818 10:58:38.652420  3083 net.cpp:194] Memory required for data: 248250624
I0818 10:58:38.652426  3083 layer_factory.hpp:77] Creating layer Eltwise5_ReLU11_0_split
I0818 10:58:38.652434  3083 net.cpp:128] Creating Layer Eltwise5_ReLU11_0_split
I0818 10:58:38.652441  3083 net.cpp:558] Eltwise5_ReLU11_0_split <- Eltwise5
I0818 10:58:38.652449  3083 net.cpp:522] Eltwise5_ReLU11_0_split -> Eltwise5_ReLU11_0_split_0
I0818 10:58:38.652457  3083 net.cpp:522] Eltwise5_ReLU11_0_split -> Eltwise5_ReLU11_0_split_1
I0818 10:58:38.652539  3083 net.cpp:172] Setting up Eltwise5_ReLU11_0_split
I0818 10:58:38.652559  3083 net.cpp:186] Top shape: 64 16 32 32 (1048576)
I0818 10:58:38.652582  3083 net.cpp:186] Top shape: 64 16 32 32 (1048576)
I0818 10:58:38.652597  3083 net.cpp:194] Memory required for data: 256639232
I0818 10:58:38.652611  3083 layer_factory.hpp:77] Creating layer Convolution12
I0818 10:58:38.652637  3083 net.cpp:128] Creating Layer Convolution12
I0818 10:58:38.652654  3083 net.cpp:558] Convolution12 <- Eltwise5_ReLU11_0_split_0
I0818 10:58:38.652676  3083 net.cpp:522] Convolution12 -> Convolution12
I0818 10:58:38.659242  3083 net.cpp:172] Setting up Convolution12
I0818 10:58:38.659271  3083 net.cpp:186] Top shape: 64 16 32 32 (1048576)
I0818 10:58:38.659276  3083 net.cpp:194] Memory required for data: 260833536
I0818 10:58:38.659286  3083 layer_factory.hpp:77] Creating layer BatchNorm12
I0818 10:58:38.659312  3083 net.cpp:128] Creating Layer BatchNorm12
I0818 10:58:38.659317  3083 net.cpp:558] BatchNorm12 <- Convolution12
I0818 10:58:38.659327  3083 net.cpp:509] BatchNorm12 -> Convolution12 (in-place)
I0818 10:58:38.659579  3083 net.cpp:172] Setting up BatchNorm12
I0818 10:58:38.659618  3083 net.cpp:186] Top shape: 64 16 32 32 (1048576)
I0818 10:58:38.659632  3083 net.cpp:194] Memory required for data: 265027840
I0818 10:58:38.659653  3083 layer_factory.hpp:77] Creating layer Scale12
I0818 10:58:38.659672  3083 net.cpp:128] Creating Layer Scale12
I0818 10:58:38.659687  3083 net.cpp:558] Scale12 <- Convolution12
I0818 10:58:38.659704  3083 net.cpp:509] Scale12 -> Convolution12 (in-place)
I0818 10:58:38.659765  3083 layer_factory.hpp:77] Creating layer Scale12
I0818 10:58:38.659917  3083 net.cpp:172] Setting up Scale12
I0818 10:58:38.659943  3083 net.cpp:186] Top shape: 64 16 32 32 (1048576)
I0818 10:58:38.659957  3083 net.cpp:194] Memory required for data: 269222144
I0818 10:58:38.659979  3083 layer_factory.hpp:77] Creating layer ReLU12
I0818 10:58:38.659996  3083 net.cpp:128] Creating Layer ReLU12
I0818 10:58:38.660009  3083 net.cpp:558] ReLU12 <- Convolution12
I0818 10:58:38.660025  3083 net.cpp:509] ReLU12 -> Convolution12 (in-place)
I0818 10:58:38.661348  3083 net.cpp:172] Setting up ReLU12
I0818 10:58:38.661367  3083 net.cpp:186] Top shape: 64 16 32 32 (1048576)
I0818 10:58:38.661371  3083 net.cpp:194] Memory required for data: 273416448
I0818 10:58:38.661376  3083 layer_factory.hpp:77] Creating layer Convolution13
I0818 10:58:38.661389  3083 net.cpp:128] Creating Layer Convolution13
I0818 10:58:38.661394  3083 net.cpp:558] Convolution13 <- Convolution12
I0818 10:58:38.661401  3083 net.cpp:522] Convolution13 -> Convolution13
I0818 10:58:38.668292  3083 net.cpp:172] Setting up Convolution13
I0818 10:58:38.668314  3083 net.cpp:186] Top shape: 64 16 32 32 (1048576)
I0818 10:58:38.668319  3083 net.cpp:194] Memory required for data: 277610752
I0818 10:58:38.668330  3083 layer_factory.hpp:77] Creating layer BatchNorm13
I0818 10:58:38.668341  3083 net.cpp:128] Creating Layer BatchNorm13
I0818 10:58:38.668380  3083 net.cpp:558] BatchNorm13 <- Convolution13
I0818 10:58:38.668395  3083 net.cpp:509] BatchNorm13 -> Convolution13 (in-place)
I0818 10:58:38.668649  3083 net.cpp:172] Setting up BatchNorm13
I0818 10:58:38.668661  3083 net.cpp:186] Top shape: 64 16 32 32 (1048576)
I0818 10:58:38.668665  3083 net.cpp:194] Memory required for data: 281805056
I0818 10:58:38.668675  3083 layer_factory.hpp:77] Creating layer Scale13
I0818 10:58:38.668684  3083 net.cpp:128] Creating Layer Scale13
I0818 10:58:38.668687  3083 net.cpp:558] Scale13 <- Convolution13
I0818 10:58:38.668694  3083 net.cpp:509] Scale13 -> Convolution13 (in-place)
I0818 10:58:38.668740  3083 layer_factory.hpp:77] Creating layer Scale13
I0818 10:58:38.668877  3083 net.cpp:172] Setting up Scale13
I0818 10:58:38.668889  3083 net.cpp:186] Top shape: 64 16 32 32 (1048576)
I0818 10:58:38.668915  3083 net.cpp:194] Memory required for data: 285999360
I0818 10:58:38.668928  3083 layer_factory.hpp:77] Creating layer Eltwise6
I0818 10:58:38.668938  3083 net.cpp:128] Creating Layer Eltwise6
I0818 10:58:38.668946  3083 net.cpp:558] Eltwise6 <- Eltwise5_ReLU11_0_split_1
I0818 10:58:38.668951  3083 net.cpp:558] Eltwise6 <- Convolution13
I0818 10:58:38.668984  3083 net.cpp:522] Eltwise6 -> Eltwise6
I0818 10:58:38.669039  3083 net.cpp:172] Setting up Eltwise6
I0818 10:58:38.669051  3083 net.cpp:186] Top shape: 64 16 32 32 (1048576)
I0818 10:58:38.669055  3083 net.cpp:194] Memory required for data: 290193664
I0818 10:58:38.669060  3083 layer_factory.hpp:77] Creating layer ReLU13
I0818 10:58:38.669093  3083 net.cpp:128] Creating Layer ReLU13
I0818 10:58:38.669101  3083 net.cpp:558] ReLU13 <- Eltwise6
I0818 10:58:38.669107  3083 net.cpp:509] ReLU13 -> Eltwise6 (in-place)
I0818 10:58:38.670434  3083 net.cpp:172] Setting up ReLU13
I0818 10:58:38.670478  3083 net.cpp:186] Top shape: 64 16 32 32 (1048576)
I0818 10:58:38.670495  3083 net.cpp:194] Memory required for data: 294387968
I0818 10:58:38.670526  3083 layer_factory.hpp:77] Creating layer Eltwise6_ReLU13_0_split
I0818 10:58:38.670547  3083 net.cpp:128] Creating Layer Eltwise6_ReLU13_0_split
I0818 10:58:38.670565  3083 net.cpp:558] Eltwise6_ReLU13_0_split <- Eltwise6
I0818 10:58:38.670585  3083 net.cpp:522] Eltwise6_ReLU13_0_split -> Eltwise6_ReLU13_0_split_0
I0818 10:58:38.670608  3083 net.cpp:522] Eltwise6_ReLU13_0_split -> Eltwise6_ReLU13_0_split_1
I0818 10:58:38.670691  3083 net.cpp:172] Setting up Eltwise6_ReLU13_0_split
I0818 10:58:38.670712  3083 net.cpp:186] Top shape: 64 16 32 32 (1048576)
I0818 10:58:38.670727  3083 net.cpp:186] Top shape: 64 16 32 32 (1048576)
I0818 10:58:38.670740  3083 net.cpp:194] Memory required for data: 302776576
I0818 10:58:38.670754  3083 layer_factory.hpp:77] Creating layer Convolution14
I0818 10:58:38.670776  3083 net.cpp:128] Creating Layer Convolution14
I0818 10:58:38.670791  3083 net.cpp:558] Convolution14 <- Eltwise6_ReLU13_0_split_0
I0818 10:58:38.670811  3083 net.cpp:522] Convolution14 -> Convolution14
I0818 10:58:38.683557  3083 net.cpp:172] Setting up Convolution14
I0818 10:58:38.683578  3083 net.cpp:186] Top shape: 64 16 32 32 (1048576)
I0818 10:58:38.683583  3083 net.cpp:194] Memory required for data: 306970880
I0818 10:58:38.683593  3083 layer_factory.hpp:77] Creating layer BatchNorm14
I0818 10:58:38.683605  3083 net.cpp:128] Creating Layer BatchNorm14
I0818 10:58:38.683610  3083 net.cpp:558] BatchNorm14 <- Convolution14
I0818 10:58:38.683617  3083 net.cpp:509] BatchNorm14 -> Convolution14 (in-place)
I0818 10:58:38.683869  3083 net.cpp:172] Setting up BatchNorm14
I0818 10:58:38.683908  3083 net.cpp:186] Top shape: 64 16 32 32 (1048576)
I0818 10:58:38.683923  3083 net.cpp:194] Memory required for data: 311165184
I0818 10:58:38.683943  3083 layer_factory.hpp:77] Creating layer Scale14
I0818 10:58:38.683961  3083 net.cpp:128] Creating Layer Scale14
I0818 10:58:38.683979  3083 net.cpp:558] Scale14 <- Convolution14
I0818 10:58:38.683995  3083 net.cpp:509] Scale14 -> Convolution14 (in-place)
I0818 10:58:38.684060  3083 layer_factory.hpp:77] Creating layer Scale14
I0818 10:58:38.684216  3083 net.cpp:172] Setting up Scale14
I0818 10:58:38.684238  3083 net.cpp:186] Top shape: 64 16 32 32 (1048576)
I0818 10:58:38.684252  3083 net.cpp:194] Memory required for data: 315359488
I0818 10:58:38.684270  3083 layer_factory.hpp:77] Creating layer ReLU14
I0818 10:58:38.684288  3083 net.cpp:128] Creating Layer ReLU14
I0818 10:58:38.684303  3083 net.cpp:558] ReLU14 <- Convolution14
I0818 10:58:38.684327  3083 net.cpp:509] ReLU14 -> Convolution14 (in-place)
I0818 10:58:38.687773  3083 net.cpp:172] Setting up ReLU14
I0818 10:58:38.687793  3083 net.cpp:186] Top shape: 64 16 32 32 (1048576)
I0818 10:58:38.687798  3083 net.cpp:194] Memory required for data: 319553792
I0818 10:58:38.687803  3083 layer_factory.hpp:77] Creating layer Convolution15
I0818 10:58:38.687819  3083 net.cpp:128] Creating Layer Convolution15
I0818 10:58:38.687824  3083 net.cpp:558] Convolution15 <- Convolution14
I0818 10:58:38.687834  3083 net.cpp:522] Convolution15 -> Convolution15
I0818 10:58:38.700798  3083 net.cpp:172] Setting up Convolution15
I0818 10:58:38.700822  3083 net.cpp:186] Top shape: 64 16 32 32 (1048576)
I0818 10:58:38.700826  3083 net.cpp:194] Memory required for data: 323748096
I0818 10:58:38.700836  3083 layer_factory.hpp:77] Creating layer BatchNorm15
I0818 10:58:38.700847  3083 net.cpp:128] Creating Layer BatchNorm15
I0818 10:58:38.700852  3083 net.cpp:558] BatchNorm15 <- Convolution15
I0818 10:58:38.700862  3083 net.cpp:509] BatchNorm15 -> Convolution15 (in-place)
I0818 10:58:38.701112  3083 net.cpp:172] Setting up BatchNorm15
I0818 10:58:38.701153  3083 net.cpp:186] Top shape: 64 16 32 32 (1048576)
I0818 10:58:38.701166  3083 net.cpp:194] Memory required for data: 327942400
I0818 10:58:38.701189  3083 layer_factory.hpp:77] Creating layer Scale15
I0818 10:58:38.701207  3083 net.cpp:128] Creating Layer Scale15
I0818 10:58:38.701228  3083 net.cpp:558] Scale15 <- Convolution15
I0818 10:58:38.701256  3083 net.cpp:509] Scale15 -> Convolution15 (in-place)
I0818 10:58:38.701321  3083 layer_factory.hpp:77] Creating layer Scale15
I0818 10:58:38.701478  3083 net.cpp:172] Setting up Scale15
I0818 10:58:38.701501  3083 net.cpp:186] Top shape: 64 16 32 32 (1048576)
I0818 10:58:38.701515  3083 net.cpp:194] Memory required for data: 332136704
I0818 10:58:38.701534  3083 layer_factory.hpp:77] Creating layer Eltwise7
I0818 10:58:38.701555  3083 net.cpp:128] Creating Layer Eltwise7
I0818 10:58:38.701575  3083 net.cpp:558] Eltwise7 <- Eltwise6_ReLU13_0_split_1
I0818 10:58:38.701589  3083 net.cpp:558] Eltwise7 <- Convolution15
I0818 10:58:38.701606  3083 net.cpp:522] Eltwise7 -> Eltwise7
I0818 10:58:38.701649  3083 net.cpp:172] Setting up Eltwise7
I0818 10:58:38.701666  3083 net.cpp:186] Top shape: 64 16 32 32 (1048576)
I0818 10:58:38.701679  3083 net.cpp:194] Memory required for data: 336331008
I0818 10:58:38.701694  3083 layer_factory.hpp:77] Creating layer ReLU15
I0818 10:58:38.701709  3083 net.cpp:128] Creating Layer ReLU15
I0818 10:58:38.701722  3083 net.cpp:558] ReLU15 <- Eltwise7
I0818 10:58:38.701741  3083 net.cpp:509] ReLU15 -> Eltwise7 (in-place)
I0818 10:58:38.702925  3083 net.cpp:172] Setting up ReLU15
I0818 10:58:38.702942  3083 net.cpp:186] Top shape: 64 16 32 32 (1048576)
I0818 10:58:38.702947  3083 net.cpp:194] Memory required for data: 340525312
I0818 10:58:38.702951  3083 layer_factory.hpp:77] Creating layer Eltwise7_ReLU15_0_split
I0818 10:58:38.702960  3083 net.cpp:128] Creating Layer Eltwise7_ReLU15_0_split
I0818 10:58:38.702963  3083 net.cpp:558] Eltwise7_ReLU15_0_split <- Eltwise7
I0818 10:58:38.702972  3083 net.cpp:522] Eltwise7_ReLU15_0_split -> Eltwise7_ReLU15_0_split_0
I0818 10:58:38.702980  3083 net.cpp:522] Eltwise7_ReLU15_0_split -> Eltwise7_ReLU15_0_split_1
I0818 10:58:38.703032  3083 net.cpp:172] Setting up Eltwise7_ReLU15_0_split
I0818 10:58:38.703066  3083 net.cpp:186] Top shape: 64 16 32 32 (1048576)
I0818 10:58:38.703083  3083 net.cpp:186] Top shape: 64 16 32 32 (1048576)
I0818 10:58:38.703095  3083 net.cpp:194] Memory required for data: 348913920
I0818 10:58:38.703110  3083 layer_factory.hpp:77] Creating layer Convolution16
I0818 10:58:38.703133  3083 net.cpp:128] Creating Layer Convolution16
I0818 10:58:38.703147  3083 net.cpp:558] Convolution16 <- Eltwise7_ReLU15_0_split_0
I0818 10:58:38.703167  3083 net.cpp:522] Convolution16 -> Convolution16
I0818 10:58:38.708822  3083 net.cpp:172] Setting up Convolution16
I0818 10:58:38.708849  3083 net.cpp:186] Top shape: 64 16 32 32 (1048576)
I0818 10:58:38.708854  3083 net.cpp:194] Memory required for data: 353108224
I0818 10:58:38.708864  3083 layer_factory.hpp:77] Creating layer BatchNorm16
I0818 10:58:38.708873  3083 net.cpp:128] Creating Layer BatchNorm16
I0818 10:58:38.708880  3083 net.cpp:558] BatchNorm16 <- Convolution16
I0818 10:58:38.708889  3083 net.cpp:509] BatchNorm16 -> Convolution16 (in-place)
I0818 10:58:38.709180  3083 net.cpp:172] Setting up BatchNorm16
I0818 10:58:38.709203  3083 net.cpp:186] Top shape: 64 16 32 32 (1048576)
I0818 10:58:38.709219  3083 net.cpp:194] Memory required for data: 357302528
I0818 10:58:38.709233  3083 layer_factory.hpp:77] Creating layer Scale16
I0818 10:58:38.709244  3083 net.cpp:128] Creating Layer Scale16
I0818 10:58:38.709250  3083 net.cpp:558] Scale16 <- Convolution16
I0818 10:58:38.709259  3083 net.cpp:509] Scale16 -> Convolution16 (in-place)
I0818 10:58:38.709334  3083 layer_factory.hpp:77] Creating layer Scale16
I0818 10:58:38.709478  3083 net.cpp:172] Setting up Scale16
I0818 10:58:38.709491  3083 net.cpp:186] Top shape: 64 16 32 32 (1048576)
I0818 10:58:38.709496  3083 net.cpp:194] Memory required for data: 361496832
I0818 10:58:38.709506  3083 layer_factory.hpp:77] Creating layer ReLU16
I0818 10:58:38.709514  3083 net.cpp:128] Creating Layer ReLU16
I0818 10:58:38.709518  3083 net.cpp:558] ReLU16 <- Convolution16
I0818 10:58:38.709524  3083 net.cpp:509] ReLU16 -> Convolution16 (in-place)
I0818 10:58:38.710093  3083 net.cpp:172] Setting up ReLU16
I0818 10:58:38.710114  3083 net.cpp:186] Top shape: 64 16 32 32 (1048576)
I0818 10:58:38.710136  3083 net.cpp:194] Memory required for data: 365691136
I0818 10:58:38.710141  3083 layer_factory.hpp:77] Creating layer Convolution17
I0818 10:58:38.710180  3083 net.cpp:128] Creating Layer Convolution17
I0818 10:58:38.710191  3083 net.cpp:558] Convolution17 <- Convolution16
I0818 10:58:38.710198  3083 net.cpp:522] Convolution17 -> Convolution17
I0818 10:58:38.720695  3083 net.cpp:172] Setting up Convolution17
I0818 10:58:38.720722  3083 net.cpp:186] Top shape: 64 16 32 32 (1048576)
I0818 10:58:38.720726  3083 net.cpp:194] Memory required for data: 369885440
I0818 10:58:38.720737  3083 layer_factory.hpp:77] Creating layer BatchNorm17
I0818 10:58:38.720748  3083 net.cpp:128] Creating Layer BatchNorm17
I0818 10:58:38.720753  3083 net.cpp:558] BatchNorm17 <- Convolution17
I0818 10:58:38.720762  3083 net.cpp:509] BatchNorm17 -> Convolution17 (in-place)
I0818 10:58:38.721057  3083 net.cpp:172] Setting up BatchNorm17
I0818 10:58:38.721078  3083 net.cpp:186] Top shape: 64 16 32 32 (1048576)
I0818 10:58:38.721092  3083 net.cpp:194] Memory required for data: 374079744
I0818 10:58:38.721114  3083 layer_factory.hpp:77] Creating layer Scale17
I0818 10:58:38.721141  3083 net.cpp:128] Creating Layer Scale17
I0818 10:58:38.721155  3083 net.cpp:558] Scale17 <- Convolution17
I0818 10:58:38.721171  3083 net.cpp:509] Scale17 -> Convolution17 (in-place)
I0818 10:58:38.721235  3083 layer_factory.hpp:77] Creating layer Scale17
I0818 10:58:38.721402  3083 net.cpp:172] Setting up Scale17
I0818 10:58:38.721422  3083 net.cpp:186] Top shape: 64 16 32 32 (1048576)
I0818 10:58:38.721436  3083 net.cpp:194] Memory required for data: 378274048
I0818 10:58:38.721455  3083 layer_factory.hpp:77] Creating layer Eltwise8
I0818 10:58:38.721472  3083 net.cpp:128] Creating Layer Eltwise8
I0818 10:58:38.721487  3083 net.cpp:558] Eltwise8 <- Eltwise7_ReLU15_0_split_1
I0818 10:58:38.721503  3083 net.cpp:558] Eltwise8 <- Convolution17
I0818 10:58:38.721526  3083 net.cpp:522] Eltwise8 -> Eltwise8
I0818 10:58:38.721570  3083 net.cpp:172] Setting up Eltwise8
I0818 10:58:38.721587  3083 net.cpp:186] Top shape: 64 16 32 32 (1048576)
I0818 10:58:38.721601  3083 net.cpp:194] Memory required for data: 382468352
I0818 10:58:38.721614  3083 layer_factory.hpp:77] Creating layer ReLU17
I0818 10:58:38.721634  3083 net.cpp:128] Creating Layer ReLU17
I0818 10:58:38.721648  3083 net.cpp:558] ReLU17 <- Eltwise8
I0818 10:58:38.721666  3083 net.cpp:509] ReLU17 -> Eltwise8 (in-place)
I0818 10:58:38.724922  3083 net.cpp:172] Setting up ReLU17
I0818 10:58:38.724942  3083 net.cpp:186] Top shape: 64 16 32 32 (1048576)
I0818 10:58:38.724947  3083 net.cpp:194] Memory required for data: 386662656
I0818 10:58:38.724952  3083 layer_factory.hpp:77] Creating layer Eltwise8_ReLU17_0_split
I0818 10:58:38.724959  3083 net.cpp:128] Creating Layer Eltwise8_ReLU17_0_split
I0818 10:58:38.724964  3083 net.cpp:558] Eltwise8_ReLU17_0_split <- Eltwise8
I0818 10:58:38.724973  3083 net.cpp:522] Eltwise8_ReLU17_0_split -> Eltwise8_ReLU17_0_split_0
I0818 10:58:38.724982  3083 net.cpp:522] Eltwise8_ReLU17_0_split -> Eltwise8_ReLU17_0_split_1
I0818 10:58:38.725031  3083 net.cpp:172] Setting up Eltwise8_ReLU17_0_split
I0818 10:58:38.725076  3083 net.cpp:186] Top shape: 64 16 32 32 (1048576)
I0818 10:58:38.725092  3083 net.cpp:186] Top shape: 64 16 32 32 (1048576)
I0818 10:58:38.725113  3083 net.cpp:194] Memory required for data: 395051264
I0818 10:58:38.725127  3083 layer_factory.hpp:77] Creating layer Convolution18
I0818 10:58:38.725152  3083 net.cpp:128] Creating Layer Convolution18
I0818 10:58:38.725167  3083 net.cpp:558] Convolution18 <- Eltwise8_ReLU17_0_split_0
I0818 10:58:38.725188  3083 net.cpp:522] Convolution18 -> Convolution18
I0818 10:58:38.738003  3083 net.cpp:172] Setting up Convolution18
I0818 10:58:38.738030  3083 net.cpp:186] Top shape: 64 16 32 32 (1048576)
I0818 10:58:38.738035  3083 net.cpp:194] Memory required for data: 399245568
I0818 10:58:38.738045  3083 layer_factory.hpp:77] Creating layer BatchNorm18
I0818 10:58:38.738055  3083 net.cpp:128] Creating Layer BatchNorm18
I0818 10:58:38.738104  3083 net.cpp:558] BatchNorm18 <- Convolution18
I0818 10:58:38.738123  3083 net.cpp:509] BatchNorm18 -> Convolution18 (in-place)
I0818 10:58:38.738399  3083 net.cpp:172] Setting up BatchNorm18
I0818 10:58:38.738411  3083 net.cpp:186] Top shape: 64 16 32 32 (1048576)
I0818 10:58:38.738415  3083 net.cpp:194] Memory required for data: 403439872
I0818 10:58:38.738426  3083 layer_factory.hpp:77] Creating layer Scale18
I0818 10:58:38.738456  3083 net.cpp:128] Creating Layer Scale18
I0818 10:58:38.738471  3083 net.cpp:558] Scale18 <- Convolution18
I0818 10:58:38.738489  3083 net.cpp:509] Scale18 -> Convolution18 (in-place)
I0818 10:58:38.738554  3083 layer_factory.hpp:77] Creating layer Scale18
I0818 10:58:38.738720  3083 net.cpp:172] Setting up Scale18
I0818 10:58:38.738732  3083 net.cpp:186] Top shape: 64 16 32 32 (1048576)
I0818 10:58:38.738736  3083 net.cpp:194] Memory required for data: 407634176
I0818 10:58:38.738745  3083 layer_factory.hpp:77] Creating layer ReLU18
I0818 10:58:38.738777  3083 net.cpp:128] Creating Layer ReLU18
I0818 10:58:38.738792  3083 net.cpp:558] ReLU18 <- Convolution18
I0818 10:58:38.738811  3083 net.cpp:509] ReLU18 -> Convolution18 (in-place)
I0818 10:58:38.741708  3083 net.cpp:172] Setting up ReLU18
I0818 10:58:38.741724  3083 net.cpp:186] Top shape: 64 16 32 32 (1048576)
I0818 10:58:38.741730  3083 net.cpp:194] Memory required for data: 411828480
I0818 10:58:38.741735  3083 layer_factory.hpp:77] Creating layer Convolution19
I0818 10:58:38.741753  3083 net.cpp:128] Creating Layer Convolution19
I0818 10:58:38.741758  3083 net.cpp:558] Convolution19 <- Convolution18
I0818 10:58:38.741766  3083 net.cpp:522] Convolution19 -> Convolution19
I0818 10:58:38.748530  3083 net.cpp:172] Setting up Convolution19
I0818 10:58:38.748556  3083 net.cpp:186] Top shape: 64 16 32 32 (1048576)
I0818 10:58:38.748560  3083 net.cpp:194] Memory required for data: 416022784
I0818 10:58:38.748570  3083 layer_factory.hpp:77] Creating layer BatchNorm19
I0818 10:58:38.748581  3083 net.cpp:128] Creating Layer BatchNorm19
I0818 10:58:38.748587  3083 net.cpp:558] BatchNorm19 <- Convolution19
I0818 10:58:38.748594  3083 net.cpp:509] BatchNorm19 -> Convolution19 (in-place)
I0818 10:58:38.748853  3083 net.cpp:172] Setting up BatchNorm19
I0818 10:58:38.748893  3083 net.cpp:186] Top shape: 64 16 32 32 (1048576)
I0818 10:58:38.748908  3083 net.cpp:194] Memory required for data: 420217088
I0818 10:58:38.748942  3083 layer_factory.hpp:77] Creating layer Scale19
I0818 10:58:38.748962  3083 net.cpp:128] Creating Layer Scale19
I0818 10:58:38.748977  3083 net.cpp:558] Scale19 <- Convolution19
I0818 10:58:38.748994  3083 net.cpp:509] Scale19 -> Convolution19 (in-place)
I0818 10:58:38.749060  3083 layer_factory.hpp:77] Creating layer Scale19
I0818 10:58:38.749219  3083 net.cpp:172] Setting up Scale19
I0818 10:58:38.749243  3083 net.cpp:186] Top shape: 64 16 32 32 (1048576)
I0818 10:58:38.749256  3083 net.cpp:194] Memory required for data: 424411392
I0818 10:58:38.749274  3083 layer_factory.hpp:77] Creating layer Eltwise9
I0818 10:58:38.749291  3083 net.cpp:128] Creating Layer Eltwise9
I0818 10:58:38.749306  3083 net.cpp:558] Eltwise9 <- Eltwise8_ReLU17_0_split_1
I0818 10:58:38.749321  3083 net.cpp:558] Eltwise9 <- Convolution19
I0818 10:58:38.749339  3083 net.cpp:522] Eltwise9 -> Eltwise9
I0818 10:58:38.749393  3083 net.cpp:172] Setting up Eltwise9
I0818 10:58:38.749411  3083 net.cpp:186] Top shape: 64 16 32 32 (1048576)
I0818 10:58:38.749428  3083 net.cpp:194] Memory required for data: 428605696
I0818 10:58:38.749445  3083 layer_factory.hpp:77] Creating layer ReLU19
I0818 10:58:38.749467  3083 net.cpp:128] Creating Layer ReLU19
I0818 10:58:38.749482  3083 net.cpp:558] ReLU19 <- Eltwise9
I0818 10:58:38.749497  3083 net.cpp:509] ReLU19 -> Eltwise9 (in-place)
I0818 10:58:38.750620  3083 net.cpp:172] Setting up ReLU19
I0818 10:58:38.750634  3083 net.cpp:186] Top shape: 64 16 32 32 (1048576)
I0818 10:58:38.750639  3083 net.cpp:194] Memory required for data: 432800000
I0818 10:58:38.750643  3083 layer_factory.hpp:77] Creating layer Eltwise9_ReLU19_0_split
I0818 10:58:38.750674  3083 net.cpp:128] Creating Layer Eltwise9_ReLU19_0_split
I0818 10:58:38.750679  3083 net.cpp:558] Eltwise9_ReLU19_0_split <- Eltwise9
I0818 10:58:38.750689  3083 net.cpp:522] Eltwise9_ReLU19_0_split -> Eltwise9_ReLU19_0_split_0
I0818 10:58:38.750697  3083 net.cpp:522] Eltwise9_ReLU19_0_split -> Eltwise9_ReLU19_0_split_1
I0818 10:58:38.750749  3083 net.cpp:172] Setting up Eltwise9_ReLU19_0_split
I0818 10:58:38.750790  3083 net.cpp:186] Top shape: 64 16 32 32 (1048576)
I0818 10:58:38.750810  3083 net.cpp:186] Top shape: 64 16 32 32 (1048576)
I0818 10:58:38.750828  3083 net.cpp:194] Memory required for data: 441188608
I0818 10:58:38.750845  3083 layer_factory.hpp:77] Creating layer Convolution20
I0818 10:58:38.750870  3083 net.cpp:128] Creating Layer Convolution20
I0818 10:58:38.750887  3083 net.cpp:558] Convolution20 <- Eltwise9_ReLU19_0_split_0
I0818 10:58:38.750910  3083 net.cpp:522] Convolution20 -> Convolution20
I0818 10:58:38.757828  3083 net.cpp:172] Setting up Convolution20
I0818 10:58:38.757879  3083 net.cpp:186] Top shape: 64 32 16 16 (524288)
I0818 10:58:38.757899  3083 net.cpp:194] Memory required for data: 443285760
I0818 10:58:38.757921  3083 layer_factory.hpp:77] Creating layer BatchNorm20
I0818 10:58:38.757939  3083 net.cpp:128] Creating Layer BatchNorm20
I0818 10:58:38.757954  3083 net.cpp:558] BatchNorm20 <- Convolution20
I0818 10:58:38.757974  3083 net.cpp:509] BatchNorm20 -> Convolution20 (in-place)
I0818 10:58:38.758252  3083 net.cpp:172] Setting up BatchNorm20
I0818 10:58:38.758275  3083 net.cpp:186] Top shape: 64 32 16 16 (524288)
I0818 10:58:38.758288  3083 net.cpp:194] Memory required for data: 445382912
I0818 10:58:38.758311  3083 layer_factory.hpp:77] Creating layer Scale20
I0818 10:58:38.758330  3083 net.cpp:128] Creating Layer Scale20
I0818 10:58:38.758345  3083 net.cpp:558] Scale20 <- Convolution20
I0818 10:58:38.758361  3083 net.cpp:509] Scale20 -> Convolution20 (in-place)
I0818 10:58:38.758426  3083 layer_factory.hpp:77] Creating layer Scale20
I0818 10:58:38.758591  3083 net.cpp:172] Setting up Scale20
I0818 10:58:38.758613  3083 net.cpp:186] Top shape: 64 32 16 16 (524288)
I0818 10:58:38.758630  3083 net.cpp:194] Memory required for data: 447480064
I0818 10:58:38.758649  3083 layer_factory.hpp:77] Creating layer Convolution21
I0818 10:58:38.758685  3083 net.cpp:128] Creating Layer Convolution21
I0818 10:58:38.758702  3083 net.cpp:558] Convolution21 <- Eltwise9_ReLU19_0_split_1
I0818 10:58:38.758719  3083 net.cpp:522] Convolution21 -> Convolution21
I0818 10:58:38.770570  3083 net.cpp:172] Setting up Convolution21
I0818 10:58:38.770599  3083 net.cpp:186] Top shape: 64 32 16 16 (524288)
I0818 10:58:38.770604  3083 net.cpp:194] Memory required for data: 449577216
I0818 10:58:38.770617  3083 layer_factory.hpp:77] Creating layer BatchNorm21
I0818 10:58:38.770628  3083 net.cpp:128] Creating Layer BatchNorm21
I0818 10:58:38.770633  3083 net.cpp:558] BatchNorm21 <- Convolution21
I0818 10:58:38.770644  3083 net.cpp:509] BatchNorm21 -> Convolution21 (in-place)
I0818 10:58:38.770907  3083 net.cpp:172] Setting up BatchNorm21
I0818 10:58:38.770948  3083 net.cpp:186] Top shape: 64 32 16 16 (524288)
I0818 10:58:38.770962  3083 net.cpp:194] Memory required for data: 451674368
I0818 10:58:38.770983  3083 layer_factory.hpp:77] Creating layer Scale21
I0818 10:58:38.771015  3083 net.cpp:128] Creating Layer Scale21
I0818 10:58:38.771030  3083 net.cpp:558] Scale21 <- Convolution21
I0818 10:58:38.771049  3083 net.cpp:509] Scale21 -> Convolution21 (in-place)
I0818 10:58:38.771114  3083 layer_factory.hpp:77] Creating layer Scale21
I0818 10:58:38.771275  3083 net.cpp:172] Setting up Scale21
I0818 10:58:38.771301  3083 net.cpp:186] Top shape: 64 32 16 16 (524288)
I0818 10:58:38.771314  3083 net.cpp:194] Memory required for data: 453771520
I0818 10:58:38.771332  3083 layer_factory.hpp:77] Creating layer ReLU20
I0818 10:58:38.771350  3083 net.cpp:128] Creating Layer ReLU20
I0818 10:58:38.771366  3083 net.cpp:558] ReLU20 <- Convolution21
I0818 10:58:38.771395  3083 net.cpp:509] ReLU20 -> Convolution21 (in-place)
I0818 10:58:38.774771  3083 net.cpp:172] Setting up ReLU20
I0818 10:58:38.774794  3083 net.cpp:186] Top shape: 64 32 16 16 (524288)
I0818 10:58:38.774799  3083 net.cpp:194] Memory required for data: 455868672
I0818 10:58:38.774804  3083 layer_factory.hpp:77] Creating layer Convolution22
I0818 10:58:38.774822  3083 net.cpp:128] Creating Layer Convolution22
I0818 10:58:38.774827  3083 net.cpp:558] Convolution22 <- Convolution21
I0818 10:58:38.774837  3083 net.cpp:522] Convolution22 -> Convolution22
I0818 10:58:38.787883  3083 net.cpp:172] Setting up Convolution22
I0818 10:58:38.787909  3083 net.cpp:186] Top shape: 64 32 16 16 (524288)
I0818 10:58:38.787912  3083 net.cpp:194] Memory required for data: 457965824
I0818 10:58:38.787925  3083 layer_factory.hpp:77] Creating layer BatchNorm22
I0818 10:58:38.787936  3083 net.cpp:128] Creating Layer BatchNorm22
I0818 10:58:38.787941  3083 net.cpp:558] BatchNorm22 <- Convolution22
I0818 10:58:38.787952  3083 net.cpp:509] BatchNorm22 -> Convolution22 (in-place)
I0818 10:58:38.788198  3083 net.cpp:172] Setting up BatchNorm22
I0818 10:58:38.788213  3083 net.cpp:186] Top shape: 64 32 16 16 (524288)
I0818 10:58:38.788216  3083 net.cpp:194] Memory required for data: 460062976
I0818 10:58:38.788226  3083 layer_factory.hpp:77] Creating layer Scale22
I0818 10:58:38.788234  3083 net.cpp:128] Creating Layer Scale22
I0818 10:58:38.788239  3083 net.cpp:558] Scale22 <- Convolution22
I0818 10:58:38.788245  3083 net.cpp:509] Scale22 -> Convolution22 (in-place)
I0818 10:58:38.788291  3083 layer_factory.hpp:77] Creating layer Scale22
I0818 10:58:38.788436  3083 net.cpp:172] Setting up Scale22
I0818 10:58:38.788444  3083 net.cpp:186] Top shape: 64 32 16 16 (524288)
I0818 10:58:38.788447  3083 net.cpp:194] Memory required for data: 462160128
I0818 10:58:38.788455  3083 layer_factory.hpp:77] Creating layer Eltwise10
I0818 10:58:38.788470  3083 net.cpp:128] Creating Layer Eltwise10
I0818 10:58:38.788475  3083 net.cpp:558] Eltwise10 <- Convolution20
I0818 10:58:38.788480  3083 net.cpp:558] Eltwise10 <- Convolution22
I0818 10:58:38.788486  3083 net.cpp:522] Eltwise10 -> Eltwise10
I0818 10:58:38.788511  3083 net.cpp:172] Setting up Eltwise10
I0818 10:58:38.788527  3083 net.cpp:186] Top shape: 64 32 16 16 (524288)
I0818 10:58:38.788532  3083 net.cpp:194] Memory required for data: 464257280
I0818 10:58:38.788537  3083 layer_factory.hpp:77] Creating layer ReLU21
I0818 10:58:38.788543  3083 net.cpp:128] Creating Layer ReLU21
I0818 10:58:38.788547  3083 net.cpp:558] ReLU21 <- Eltwise10
I0818 10:58:38.788553  3083 net.cpp:509] ReLU21 -> Eltwise10 (in-place)
I0818 10:58:38.789952  3083 net.cpp:172] Setting up ReLU21
I0818 10:58:38.789968  3083 net.cpp:186] Top shape: 64 32 16 16 (524288)
I0818 10:58:38.789974  3083 net.cpp:194] Memory required for data: 466354432
I0818 10:58:38.789979  3083 layer_factory.hpp:77] Creating layer Eltwise10_ReLU21_0_split
I0818 10:58:38.789986  3083 net.cpp:128] Creating Layer Eltwise10_ReLU21_0_split
I0818 10:58:38.789991  3083 net.cpp:558] Eltwise10_ReLU21_0_split <- Eltwise10
I0818 10:58:38.789999  3083 net.cpp:522] Eltwise10_ReLU21_0_split -> Eltwise10_ReLU21_0_split_0
I0818 10:58:38.790009  3083 net.cpp:522] Eltwise10_ReLU21_0_split -> Eltwise10_ReLU21_0_split_1
I0818 10:58:38.790058  3083 net.cpp:172] Setting up Eltwise10_ReLU21_0_split
I0818 10:58:38.790069  3083 net.cpp:186] Top shape: 64 32 16 16 (524288)
I0818 10:58:38.790076  3083 net.cpp:186] Top shape: 64 32 16 16 (524288)
I0818 10:58:38.790079  3083 net.cpp:194] Memory required for data: 470548736
I0818 10:58:38.790083  3083 layer_factory.hpp:77] Creating layer Convolution23
I0818 10:58:38.790097  3083 net.cpp:128] Creating Layer Convolution23
I0818 10:58:38.790102  3083 net.cpp:558] Convolution23 <- Eltwise10_ReLU21_0_split_0
I0818 10:58:38.790109  3083 net.cpp:522] Convolution23 -> Convolution23
I0818 10:58:38.797086  3083 net.cpp:172] Setting up Convolution23
I0818 10:58:38.797112  3083 net.cpp:186] Top shape: 64 32 16 16 (524288)
I0818 10:58:38.797132  3083 net.cpp:194] Memory required for data: 472645888
I0818 10:58:38.797143  3083 layer_factory.hpp:77] Creating layer BatchNorm23
I0818 10:58:38.797155  3083 net.cpp:128] Creating Layer BatchNorm23
I0818 10:58:38.797160  3083 net.cpp:558] BatchNorm23 <- Convolution23
I0818 10:58:38.797174  3083 net.cpp:509] BatchNorm23 -> Convolution23 (in-place)
I0818 10:58:38.797444  3083 net.cpp:172] Setting up BatchNorm23
I0818 10:58:38.797453  3083 net.cpp:186] Top shape: 64 32 16 16 (524288)
I0818 10:58:38.797458  3083 net.cpp:194] Memory required for data: 474743040
I0818 10:58:38.797468  3083 layer_factory.hpp:77] Creating layer Scale23
I0818 10:58:38.797478  3083 net.cpp:128] Creating Layer Scale23
I0818 10:58:38.797483  3083 net.cpp:558] Scale23 <- Convolution23
I0818 10:58:38.797490  3083 net.cpp:509] Scale23 -> Convolution23 (in-place)
I0818 10:58:38.797535  3083 layer_factory.hpp:77] Creating layer Scale23
I0818 10:58:38.797682  3083 net.cpp:172] Setting up Scale23
I0818 10:58:38.797691  3083 net.cpp:186] Top shape: 64 32 16 16 (524288)
I0818 10:58:38.797695  3083 net.cpp:194] Memory required for data: 476840192
I0818 10:58:38.797703  3083 layer_factory.hpp:77] Creating layer ReLU22
I0818 10:58:38.797713  3083 net.cpp:128] Creating Layer ReLU22
I0818 10:58:38.797718  3083 net.cpp:558] ReLU22 <- Convolution23
I0818 10:58:38.797724  3083 net.cpp:509] ReLU22 -> Convolution23 (in-place)
I0818 10:58:38.798928  3083 net.cpp:172] Setting up ReLU22
I0818 10:58:38.798941  3083 net.cpp:186] Top shape: 64 32 16 16 (524288)
I0818 10:58:38.798946  3083 net.cpp:194] Memory required for data: 478937344
I0818 10:58:38.798951  3083 layer_factory.hpp:77] Creating layer Convolution24
I0818 10:58:38.798964  3083 net.cpp:128] Creating Layer Convolution24
I0818 10:58:38.798969  3083 net.cpp:558] Convolution24 <- Convolution23
I0818 10:58:38.798985  3083 net.cpp:522] Convolution24 -> Convolution24
I0818 10:58:38.805779  3083 net.cpp:172] Setting up Convolution24
I0818 10:58:38.805804  3083 net.cpp:186] Top shape: 64 32 16 16 (524288)
I0818 10:58:38.805807  3083 net.cpp:194] Memory required for data: 481034496
I0818 10:58:38.805819  3083 layer_factory.hpp:77] Creating layer BatchNorm24
I0818 10:58:38.805830  3083 net.cpp:128] Creating Layer BatchNorm24
I0818 10:58:38.805838  3083 net.cpp:558] BatchNorm24 <- Convolution24
I0818 10:58:38.805848  3083 net.cpp:509] BatchNorm24 -> Convolution24 (in-place)
I0818 10:58:38.806105  3083 net.cpp:172] Setting up BatchNorm24
I0818 10:58:38.806116  3083 net.cpp:186] Top shape: 64 32 16 16 (524288)
I0818 10:58:38.806120  3083 net.cpp:194] Memory required for data: 483131648
I0818 10:58:38.806130  3083 layer_factory.hpp:77] Creating layer Scale24
I0818 10:58:38.806139  3083 net.cpp:128] Creating Layer Scale24
I0818 10:58:38.806144  3083 net.cpp:558] Scale24 <- Convolution24
I0818 10:58:38.806149  3083 net.cpp:509] Scale24 -> Convolution24 (in-place)
I0818 10:58:38.806197  3083 layer_factory.hpp:77] Creating layer Scale24
I0818 10:58:38.806342  3083 net.cpp:172] Setting up Scale24
I0818 10:58:38.806352  3083 net.cpp:186] Top shape: 64 32 16 16 (524288)
I0818 10:58:38.806356  3083 net.cpp:194] Memory required for data: 485228800
I0818 10:58:38.806365  3083 layer_factory.hpp:77] Creating layer Eltwise11
I0818 10:58:38.806377  3083 net.cpp:128] Creating Layer Eltwise11
I0818 10:58:38.806386  3083 net.cpp:558] Eltwise11 <- Eltwise10_ReLU21_0_split_1
I0818 10:58:38.806391  3083 net.cpp:558] Eltwise11 <- Convolution24
I0818 10:58:38.806397  3083 net.cpp:522] Eltwise11 -> Eltwise11
I0818 10:58:38.806421  3083 net.cpp:172] Setting up Eltwise11
I0818 10:58:38.806427  3083 net.cpp:186] Top shape: 64 32 16 16 (524288)
I0818 10:58:38.806432  3083 net.cpp:194] Memory required for data: 487325952
I0818 10:58:38.806435  3083 layer_factory.hpp:77] Creating layer ReLU23
I0818 10:58:38.806442  3083 net.cpp:128] Creating Layer ReLU23
I0818 10:58:38.806447  3083 net.cpp:558] ReLU23 <- Eltwise11
I0818 10:58:38.806454  3083 net.cpp:509] ReLU23 -> Eltwise11 (in-place)
I0818 10:58:38.809978  3083 net.cpp:172] Setting up ReLU23
I0818 10:58:38.810019  3083 net.cpp:186] Top shape: 64 32 16 16 (524288)
I0818 10:58:38.810024  3083 net.cpp:194] Memory required for data: 489423104
I0818 10:58:38.810029  3083 layer_factory.hpp:77] Creating layer Eltwise11_ReLU23_0_split
I0818 10:58:38.810036  3083 net.cpp:128] Creating Layer Eltwise11_ReLU23_0_split
I0818 10:58:38.810041  3083 net.cpp:558] Eltwise11_ReLU23_0_split <- Eltwise11
I0818 10:58:38.810052  3083 net.cpp:522] Eltwise11_ReLU23_0_split -> Eltwise11_ReLU23_0_split_0
I0818 10:58:38.810067  3083 net.cpp:522] Eltwise11_ReLU23_0_split -> Eltwise11_ReLU23_0_split_1
I0818 10:58:38.810122  3083 net.cpp:172] Setting up Eltwise11_ReLU23_0_split
I0818 10:58:38.810129  3083 net.cpp:186] Top shape: 64 32 16 16 (524288)
I0818 10:58:38.810135  3083 net.cpp:186] Top shape: 64 32 16 16 (524288)
I0818 10:58:38.810139  3083 net.cpp:194] Memory required for data: 493617408
I0818 10:58:38.810143  3083 layer_factory.hpp:77] Creating layer Convolution25
I0818 10:58:38.810158  3083 net.cpp:128] Creating Layer Convolution25
I0818 10:58:38.810163  3083 net.cpp:558] Convolution25 <- Eltwise11_ReLU23_0_split_0
I0818 10:58:38.810169  3083 net.cpp:522] Convolution25 -> Convolution25
I0818 10:58:38.823163  3083 net.cpp:172] Setting up Convolution25
I0818 10:58:38.823184  3083 net.cpp:186] Top shape: 64 32 16 16 (524288)
I0818 10:58:38.823189  3083 net.cpp:194] Memory required for data: 495714560
I0818 10:58:38.823199  3083 layer_factory.hpp:77] Creating layer BatchNorm25
I0818 10:58:38.823210  3083 net.cpp:128] Creating Layer BatchNorm25
I0818 10:58:38.823216  3083 net.cpp:558] BatchNorm25 <- Convolution25
I0818 10:58:38.823225  3083 net.cpp:509] BatchNorm25 -> Convolution25 (in-place)
I0818 10:58:38.823482  3083 net.cpp:172] Setting up BatchNorm25
I0818 10:58:38.823494  3083 net.cpp:186] Top shape: 64 32 16 16 (524288)
I0818 10:58:38.823498  3083 net.cpp:194] Memory required for data: 497811712
I0818 10:58:38.823508  3083 layer_factory.hpp:77] Creating layer Scale25
I0818 10:58:38.823520  3083 net.cpp:128] Creating Layer Scale25
I0818 10:58:38.823524  3083 net.cpp:558] Scale25 <- Convolution25
I0818 10:58:38.823530  3083 net.cpp:509] Scale25 -> Convolution25 (in-place)
I0818 10:58:38.823578  3083 layer_factory.hpp:77] Creating layer Scale25
I0818 10:58:38.823729  3083 net.cpp:172] Setting up Scale25
I0818 10:58:38.823736  3083 net.cpp:186] Top shape: 64 32 16 16 (524288)
I0818 10:58:38.823740  3083 net.cpp:194] Memory required for data: 499908864
I0818 10:58:38.823748  3083 layer_factory.hpp:77] Creating layer ReLU24
I0818 10:58:38.823756  3083 net.cpp:128] Creating Layer ReLU24
I0818 10:58:38.823761  3083 net.cpp:558] ReLU24 <- Convolution25
I0818 10:58:38.823766  3083 net.cpp:509] ReLU24 -> Convolution25 (in-place)
I0818 10:58:38.827371  3083 net.cpp:172] Setting up ReLU24
I0818 10:58:38.827391  3083 net.cpp:186] Top shape: 64 32 16 16 (524288)
I0818 10:58:38.827396  3083 net.cpp:194] Memory required for data: 502006016
I0818 10:58:38.827401  3083 layer_factory.hpp:77] Creating layer Convolution26
I0818 10:58:38.827415  3083 net.cpp:128] Creating Layer Convolution26
I0818 10:58:38.827421  3083 net.cpp:558] Convolution26 <- Convolution25
I0818 10:58:38.827430  3083 net.cpp:522] Convolution26 -> Convolution26
I0818 10:58:38.838397  3083 net.cpp:172] Setting up Convolution26
I0818 10:58:38.838423  3083 net.cpp:186] Top shape: 64 32 16 16 (524288)
I0818 10:58:38.838428  3083 net.cpp:194] Memory required for data: 504103168
I0818 10:58:38.838438  3083 layer_factory.hpp:77] Creating layer BatchNorm26
I0818 10:58:38.838449  3083 net.cpp:128] Creating Layer BatchNorm26
I0818 10:58:38.838454  3083 net.cpp:558] BatchNorm26 <- Convolution26
I0818 10:58:38.838464  3083 net.cpp:509] BatchNorm26 -> Convolution26 (in-place)
I0818 10:58:38.838742  3083 net.cpp:172] Setting up BatchNorm26
I0818 10:58:38.838755  3083 net.cpp:186] Top shape: 64 32 16 16 (524288)
I0818 10:58:38.838759  3083 net.cpp:194] Memory required for data: 506200320
I0818 10:58:38.838769  3083 layer_factory.hpp:77] Creating layer Scale26
I0818 10:58:38.838776  3083 net.cpp:128] Creating Layer Scale26
I0818 10:58:38.838795  3083 net.cpp:558] Scale26 <- Convolution26
I0818 10:58:38.838804  3083 net.cpp:509] Scale26 -> Convolution26 (in-place)
I0818 10:58:38.838852  3083 layer_factory.hpp:77] Creating layer Scale26
I0818 10:58:38.839004  3083 net.cpp:172] Setting up Scale26
I0818 10:58:38.839011  3083 net.cpp:186] Top shape: 64 32 16 16 (524288)
I0818 10:58:38.839015  3083 net.cpp:194] Memory required for data: 508297472
I0818 10:58:38.839022  3083 layer_factory.hpp:77] Creating layer Eltwise12
I0818 10:58:38.839030  3083 net.cpp:128] Creating Layer Eltwise12
I0818 10:58:38.839035  3083 net.cpp:558] Eltwise12 <- Eltwise11_ReLU23_0_split_1
I0818 10:58:38.839040  3083 net.cpp:558] Eltwise12 <- Convolution26
I0818 10:58:38.839048  3083 net.cpp:522] Eltwise12 -> Eltwise12
I0818 10:58:38.839071  3083 net.cpp:172] Setting up Eltwise12
I0818 10:58:38.839079  3083 net.cpp:186] Top shape: 64 32 16 16 (524288)
I0818 10:58:38.839083  3083 net.cpp:194] Memory required for data: 510394624
I0818 10:58:38.839087  3083 layer_factory.hpp:77] Creating layer ReLU25
I0818 10:58:38.839093  3083 net.cpp:128] Creating Layer ReLU25
I0818 10:58:38.839098  3083 net.cpp:558] ReLU25 <- Eltwise12
I0818 10:58:38.839103  3083 net.cpp:509] ReLU25 -> Eltwise12 (in-place)
I0818 10:58:38.840492  3083 net.cpp:172] Setting up ReLU25
I0818 10:58:38.840508  3083 net.cpp:186] Top shape: 64 32 16 16 (524288)
I0818 10:58:38.840513  3083 net.cpp:194] Memory required for data: 512491776
I0818 10:58:38.840517  3083 layer_factory.hpp:77] Creating layer Eltwise12_ReLU25_0_split
I0818 10:58:38.840538  3083 net.cpp:128] Creating Layer Eltwise12_ReLU25_0_split
I0818 10:58:38.840543  3083 net.cpp:558] Eltwise12_ReLU25_0_split <- Eltwise12
I0818 10:58:38.840551  3083 net.cpp:522] Eltwise12_ReLU25_0_split -> Eltwise12_ReLU25_0_split_0
I0818 10:58:38.840567  3083 net.cpp:522] Eltwise12_ReLU25_0_split -> Eltwise12_ReLU25_0_split_1
I0818 10:58:38.840625  3083 net.cpp:172] Setting up Eltwise12_ReLU25_0_split
I0818 10:58:38.840636  3083 net.cpp:186] Top shape: 64 32 16 16 (524288)
I0818 10:58:38.840642  3083 net.cpp:186] Top shape: 64 32 16 16 (524288)
I0818 10:58:38.840646  3083 net.cpp:194] Memory required for data: 516686080
I0818 10:58:38.840651  3083 layer_factory.hpp:77] Creating layer Convolution27
I0818 10:58:38.840662  3083 net.cpp:128] Creating Layer Convolution27
I0818 10:58:38.840667  3083 net.cpp:558] Convolution27 <- Eltwise12_ReLU25_0_split_0
I0818 10:58:38.840675  3083 net.cpp:522] Convolution27 -> Convolution27
I0818 10:58:38.847338  3083 net.cpp:172] Setting up Convolution27
I0818 10:58:38.847363  3083 net.cpp:186] Top shape: 64 32 16 16 (524288)
I0818 10:58:38.847368  3083 net.cpp:194] Memory required for data: 518783232
I0818 10:58:38.847378  3083 layer_factory.hpp:77] Creating layer BatchNorm27
I0818 10:58:38.847388  3083 net.cpp:128] Creating Layer BatchNorm27
I0818 10:58:38.847393  3083 net.cpp:558] BatchNorm27 <- Convolution27
I0818 10:58:38.847400  3083 net.cpp:509] BatchNorm27 -> Convolution27 (in-place)
I0818 10:58:38.847666  3083 net.cpp:172] Setting up BatchNorm27
I0818 10:58:38.847679  3083 net.cpp:186] Top shape: 64 32 16 16 (524288)
I0818 10:58:38.847683  3083 net.cpp:194] Memory required for data: 520880384
I0818 10:58:38.847693  3083 layer_factory.hpp:77] Creating layer Scale27
I0818 10:58:38.847700  3083 net.cpp:128] Creating Layer Scale27
I0818 10:58:38.847704  3083 net.cpp:558] Scale27 <- Convolution27
I0818 10:58:38.847709  3083 net.cpp:509] Scale27 -> Convolution27 (in-place)
I0818 10:58:38.847759  3083 layer_factory.hpp:77] Creating layer Scale27
I0818 10:58:38.847913  3083 net.cpp:172] Setting up Scale27
I0818 10:58:38.847920  3083 net.cpp:186] Top shape: 64 32 16 16 (524288)
I0818 10:58:38.847925  3083 net.cpp:194] Memory required for data: 522977536
I0818 10:58:38.847934  3083 layer_factory.hpp:77] Creating layer ReLU26
I0818 10:58:38.847940  3083 net.cpp:128] Creating Layer ReLU26
I0818 10:58:38.847944  3083 net.cpp:558] ReLU26 <- Convolution27
I0818 10:58:38.847952  3083 net.cpp:509] ReLU26 -> Convolution27 (in-place)
I0818 10:58:38.849439  3083 net.cpp:172] Setting up ReLU26
I0818 10:58:38.849462  3083 net.cpp:186] Top shape: 64 32 16 16 (524288)
I0818 10:58:38.849467  3083 net.cpp:194] Memory required for data: 525074688
I0818 10:58:38.849472  3083 layer_factory.hpp:77] Creating layer Convolution28
I0818 10:58:38.849485  3083 net.cpp:128] Creating Layer Convolution28
I0818 10:58:38.849493  3083 net.cpp:558] Convolution28 <- Convolution27
I0818 10:58:38.849503  3083 net.cpp:522] Convolution28 -> Convolution28
I0818 10:58:38.858386  3083 net.cpp:172] Setting up Convolution28
I0818 10:58:38.858415  3083 net.cpp:186] Top shape: 64 32 16 16 (524288)
I0818 10:58:38.858420  3083 net.cpp:194] Memory required for data: 527171840
I0818 10:58:38.858430  3083 layer_factory.hpp:77] Creating layer BatchNorm28
I0818 10:58:38.858438  3083 net.cpp:128] Creating Layer BatchNorm28
I0818 10:58:38.858443  3083 net.cpp:558] BatchNorm28 <- Convolution28
I0818 10:58:38.858453  3083 net.cpp:509] BatchNorm28 -> Convolution28 (in-place)
I0818 10:58:38.858741  3083 net.cpp:172] Setting up BatchNorm28
I0818 10:58:38.858752  3083 net.cpp:186] Top shape: 64 32 16 16 (524288)
I0818 10:58:38.858757  3083 net.cpp:194] Memory required for data: 529268992
I0818 10:58:38.858767  3083 layer_factory.hpp:77] Creating layer Scale28
I0818 10:58:38.858777  3083 net.cpp:128] Creating Layer Scale28
I0818 10:58:38.858781  3083 net.cpp:558] Scale28 <- Convolution28
I0818 10:58:38.858786  3083 net.cpp:509] Scale28 -> Convolution28 (in-place)
I0818 10:58:38.858834  3083 layer_factory.hpp:77] Creating layer Scale28
I0818 10:58:38.858981  3083 net.cpp:172] Setting up Scale28
I0818 10:58:38.858994  3083 net.cpp:186] Top shape: 64 32 16 16 (524288)
I0818 10:58:38.858999  3083 net.cpp:194] Memory required for data: 531366144
I0818 10:58:38.859005  3083 layer_factory.hpp:77] Creating layer Eltwise13
I0818 10:58:38.859017  3083 net.cpp:128] Creating Layer Eltwise13
I0818 10:58:38.859022  3083 net.cpp:558] Eltwise13 <- Eltwise12_ReLU25_0_split_1
I0818 10:58:38.859027  3083 net.cpp:558] Eltwise13 <- Convolution28
I0818 10:58:38.859033  3083 net.cpp:522] Eltwise13 -> Eltwise13
I0818 10:58:38.859057  3083 net.cpp:172] Setting up Eltwise13
I0818 10:58:38.859064  3083 net.cpp:186] Top shape: 64 32 16 16 (524288)
I0818 10:58:38.859068  3083 net.cpp:194] Memory required for data: 533463296
I0818 10:58:38.859072  3083 layer_factory.hpp:77] Creating layer ReLU27
I0818 10:58:38.859079  3083 net.cpp:128] Creating Layer ReLU27
I0818 10:58:38.859083  3083 net.cpp:558] ReLU27 <- Eltwise13
I0818 10:58:38.859091  3083 net.cpp:509] ReLU27 -> Eltwise13 (in-place)
I0818 10:58:38.862586  3083 net.cpp:172] Setting up ReLU27
I0818 10:58:38.862603  3083 net.cpp:186] Top shape: 64 32 16 16 (524288)
I0818 10:58:38.862608  3083 net.cpp:194] Memory required for data: 535560448
I0818 10:58:38.862613  3083 layer_factory.hpp:77] Creating layer Eltwise13_ReLU27_0_split
I0818 10:58:38.862620  3083 net.cpp:128] Creating Layer Eltwise13_ReLU27_0_split
I0818 10:58:38.862625  3083 net.cpp:558] Eltwise13_ReLU27_0_split <- Eltwise13
I0818 10:58:38.862634  3083 net.cpp:522] Eltwise13_ReLU27_0_split -> Eltwise13_ReLU27_0_split_0
I0818 10:58:38.862646  3083 net.cpp:522] Eltwise13_ReLU27_0_split -> Eltwise13_ReLU27_0_split_1
I0818 10:58:38.862709  3083 net.cpp:172] Setting up Eltwise13_ReLU27_0_split
I0818 10:58:38.862720  3083 net.cpp:186] Top shape: 64 32 16 16 (524288)
I0818 10:58:38.862726  3083 net.cpp:186] Top shape: 64 32 16 16 (524288)
I0818 10:58:38.862730  3083 net.cpp:194] Memory required for data: 539754752
I0818 10:58:38.862735  3083 layer_factory.hpp:77] Creating layer Convolution29
I0818 10:58:38.862746  3083 net.cpp:128] Creating Layer Convolution29
I0818 10:58:38.862751  3083 net.cpp:558] Convolution29 <- Eltwise13_ReLU27_0_split_0
I0818 10:58:38.862761  3083 net.cpp:522] Convolution29 -> Convolution29
I0818 10:58:38.875747  3083 net.cpp:172] Setting up Convolution29
I0818 10:58:38.875773  3083 net.cpp:186] Top shape: 64 32 16 16 (524288)
I0818 10:58:38.875778  3083 net.cpp:194] Memory required for data: 541851904
I0818 10:58:38.875804  3083 layer_factory.hpp:77] Creating layer BatchNorm29
I0818 10:58:38.875813  3083 net.cpp:128] Creating Layer BatchNorm29
I0818 10:58:38.875818  3083 net.cpp:558] BatchNorm29 <- Convolution29
I0818 10:58:38.875826  3083 net.cpp:509] BatchNorm29 -> Convolution29 (in-place)
I0818 10:58:38.876092  3083 net.cpp:172] Setting up BatchNorm29
I0818 10:58:38.876106  3083 net.cpp:186] Top shape: 64 32 16 16 (524288)
I0818 10:58:38.876109  3083 net.cpp:194] Memory required for data: 543949056
I0818 10:58:38.876119  3083 layer_factory.hpp:77] Creating layer Scale29
I0818 10:58:38.876127  3083 net.cpp:128] Creating Layer Scale29
I0818 10:58:38.876130  3083 net.cpp:558] Scale29 <- Convolution29
I0818 10:58:38.876138  3083 net.cpp:509] Scale29 -> Convolution29 (in-place)
I0818 10:58:38.876184  3083 layer_factory.hpp:77] Creating layer Scale29
I0818 10:58:38.876334  3083 net.cpp:172] Setting up Scale29
I0818 10:58:38.876341  3083 net.cpp:186] Top shape: 64 32 16 16 (524288)
I0818 10:58:38.876345  3083 net.cpp:194] Memory required for data: 546046208
I0818 10:58:38.876353  3083 layer_factory.hpp:77] Creating layer ReLU28
I0818 10:58:38.876360  3083 net.cpp:128] Creating Layer ReLU28
I0818 10:58:38.876364  3083 net.cpp:558] ReLU28 <- Convolution29
I0818 10:58:38.876369  3083 net.cpp:509] ReLU28 -> Convolution29 (in-place)
I0818 10:58:38.879933  3083 net.cpp:172] Setting up ReLU28
I0818 10:58:38.879952  3083 net.cpp:186] Top shape: 64 32 16 16 (524288)
I0818 10:58:38.879957  3083 net.cpp:194] Memory required for data: 548143360
I0818 10:58:38.879962  3083 layer_factory.hpp:77] Creating layer Convolution30
I0818 10:58:38.879976  3083 net.cpp:128] Creating Layer Convolution30
I0818 10:58:38.879981  3083 net.cpp:558] Convolution30 <- Convolution29
I0818 10:58:38.879990  3083 net.cpp:522] Convolution30 -> Convolution30
I0818 10:58:38.889091  3083 net.cpp:172] Setting up Convolution30
I0818 10:58:38.889119  3083 net.cpp:186] Top shape: 64 32 16 16 (524288)
I0818 10:58:38.889124  3083 net.cpp:194] Memory required for data: 550240512
I0818 10:58:38.889134  3083 layer_factory.hpp:77] Creating layer BatchNorm30
I0818 10:58:38.889142  3083 net.cpp:128] Creating Layer BatchNorm30
I0818 10:58:38.889147  3083 net.cpp:558] BatchNorm30 <- Convolution30
I0818 10:58:38.889156  3083 net.cpp:509] BatchNorm30 -> Convolution30 (in-place)
I0818 10:58:38.889420  3083 net.cpp:172] Setting up BatchNorm30
I0818 10:58:38.889432  3083 net.cpp:186] Top shape: 64 32 16 16 (524288)
I0818 10:58:38.889436  3083 net.cpp:194] Memory required for data: 552337664
I0818 10:58:38.889446  3083 layer_factory.hpp:77] Creating layer Scale30
I0818 10:58:38.889453  3083 net.cpp:128] Creating Layer Scale30
I0818 10:58:38.889458  3083 net.cpp:558] Scale30 <- Convolution30
I0818 10:58:38.889463  3083 net.cpp:509] Scale30 -> Convolution30 (in-place)
I0818 10:58:38.889513  3083 layer_factory.hpp:77] Creating layer Scale30
I0818 10:58:38.889658  3083 net.cpp:172] Setting up Scale30
I0818 10:58:38.889665  3083 net.cpp:186] Top shape: 64 32 16 16 (524288)
I0818 10:58:38.889669  3083 net.cpp:194] Memory required for data: 554434816
I0818 10:58:38.889678  3083 layer_factory.hpp:77] Creating layer Eltwise14
I0818 10:58:38.889686  3083 net.cpp:128] Creating Layer Eltwise14
I0818 10:58:38.889691  3083 net.cpp:558] Eltwise14 <- Eltwise13_ReLU27_0_split_1
I0818 10:58:38.889696  3083 net.cpp:558] Eltwise14 <- Convolution30
I0818 10:58:38.889703  3083 net.cpp:522] Eltwise14 -> Eltwise14
I0818 10:58:38.889727  3083 net.cpp:172] Setting up Eltwise14
I0818 10:58:38.889734  3083 net.cpp:186] Top shape: 64 32 16 16 (524288)
I0818 10:58:38.889737  3083 net.cpp:194] Memory required for data: 556531968
I0818 10:58:38.889741  3083 layer_factory.hpp:77] Creating layer ReLU29
I0818 10:58:38.889748  3083 net.cpp:128] Creating Layer ReLU29
I0818 10:58:38.889752  3083 net.cpp:558] ReLU29 <- Eltwise14
I0818 10:58:38.889760  3083 net.cpp:509] ReLU29 -> Eltwise14 (in-place)
I0818 10:58:38.891204  3083 net.cpp:172] Setting up ReLU29
I0818 10:58:38.891221  3083 net.cpp:186] Top shape: 64 32 16 16 (524288)
I0818 10:58:38.891240  3083 net.cpp:194] Memory required for data: 558629120
I0818 10:58:38.891245  3083 layer_factory.hpp:77] Creating layer Eltwise14_ReLU29_0_split
I0818 10:58:38.891255  3083 net.cpp:128] Creating Layer Eltwise14_ReLU29_0_split
I0818 10:58:38.891261  3083 net.cpp:558] Eltwise14_ReLU29_0_split <- Eltwise14
I0818 10:58:38.891270  3083 net.cpp:522] Eltwise14_ReLU29_0_split -> Eltwise14_ReLU29_0_split_0
I0818 10:58:38.891279  3083 net.cpp:522] Eltwise14_ReLU29_0_split -> Eltwise14_ReLU29_0_split_1
I0818 10:58:38.891336  3083 net.cpp:172] Setting up Eltwise14_ReLU29_0_split
I0818 10:58:38.891347  3083 net.cpp:186] Top shape: 64 32 16 16 (524288)
I0818 10:58:38.891353  3083 net.cpp:186] Top shape: 64 32 16 16 (524288)
I0818 10:58:38.891357  3083 net.cpp:194] Memory required for data: 562823424
I0818 10:58:38.891361  3083 layer_factory.hpp:77] Creating layer Convolution31
I0818 10:58:38.891373  3083 net.cpp:128] Creating Layer Convolution31
I0818 10:58:38.891378  3083 net.cpp:558] Convolution31 <- Eltwise14_ReLU29_0_split_0
I0818 10:58:38.891388  3083 net.cpp:522] Convolution31 -> Convolution31
I0818 10:58:38.898069  3083 net.cpp:172] Setting up Convolution31
I0818 10:58:38.898097  3083 net.cpp:186] Top shape: 64 32 16 16 (524288)
I0818 10:58:38.898100  3083 net.cpp:194] Memory required for data: 564920576
I0818 10:58:38.898110  3083 layer_factory.hpp:77] Creating layer BatchNorm31
I0818 10:58:38.898119  3083 net.cpp:128] Creating Layer BatchNorm31
I0818 10:58:38.898124  3083 net.cpp:558] BatchNorm31 <- Convolution31
I0818 10:58:38.898142  3083 net.cpp:509] BatchNorm31 -> Convolution31 (in-place)
I0818 10:58:38.898413  3083 net.cpp:172] Setting up BatchNorm31
I0818 10:58:38.898423  3083 net.cpp:186] Top shape: 64 32 16 16 (524288)
I0818 10:58:38.898427  3083 net.cpp:194] Memory required for data: 567017728
I0818 10:58:38.898437  3083 layer_factory.hpp:77] Creating layer Scale31
I0818 10:58:38.898447  3083 net.cpp:128] Creating Layer Scale31
I0818 10:58:38.898452  3083 net.cpp:558] Scale31 <- Convolution31
I0818 10:58:38.898456  3083 net.cpp:509] Scale31 -> Convolution31 (in-place)
I0818 10:58:38.898505  3083 layer_factory.hpp:77] Creating layer Scale31
I0818 10:58:38.898663  3083 net.cpp:172] Setting up Scale31
I0818 10:58:38.898676  3083 net.cpp:186] Top shape: 64 32 16 16 (524288)
I0818 10:58:38.898681  3083 net.cpp:194] Memory required for data: 569114880
I0818 10:58:38.898689  3083 layer_factory.hpp:77] Creating layer ReLU30
I0818 10:58:38.898699  3083 net.cpp:128] Creating Layer ReLU30
I0818 10:58:38.898703  3083 net.cpp:558] ReLU30 <- Convolution31
I0818 10:58:38.898708  3083 net.cpp:509] ReLU30 -> Convolution31 (in-place)
I0818 10:58:38.900146  3083 net.cpp:172] Setting up ReLU30
I0818 10:58:38.900168  3083 net.cpp:186] Top shape: 64 32 16 16 (524288)
I0818 10:58:38.900173  3083 net.cpp:194] Memory required for data: 571212032
I0818 10:58:38.900178  3083 layer_factory.hpp:77] Creating layer Convolution32
I0818 10:58:38.900193  3083 net.cpp:128] Creating Layer Convolution32
I0818 10:58:38.900202  3083 net.cpp:558] Convolution32 <- Convolution31
I0818 10:58:38.900210  3083 net.cpp:522] Convolution32 -> Convolution32
I0818 10:58:38.905352  3083 net.cpp:172] Setting up Convolution32
I0818 10:58:38.905375  3083 net.cpp:186] Top shape: 64 32 16 16 (524288)
I0818 10:58:38.905380  3083 net.cpp:194] Memory required for data: 573309184
I0818 10:58:38.905390  3083 layer_factory.hpp:77] Creating layer BatchNorm32
I0818 10:58:38.905401  3083 net.cpp:128] Creating Layer BatchNorm32
I0818 10:58:38.905407  3083 net.cpp:558] BatchNorm32 <- Convolution32
I0818 10:58:38.905418  3083 net.cpp:509] BatchNorm32 -> Convolution32 (in-place)
I0818 10:58:38.905688  3083 net.cpp:172] Setting up BatchNorm32
I0818 10:58:38.905697  3083 net.cpp:186] Top shape: 64 32 16 16 (524288)
I0818 10:58:38.905701  3083 net.cpp:194] Memory required for data: 575406336
I0818 10:58:38.905712  3083 layer_factory.hpp:77] Creating layer Scale32
I0818 10:58:38.905721  3083 net.cpp:128] Creating Layer Scale32
I0818 10:58:38.905740  3083 net.cpp:558] Scale32 <- Convolution32
I0818 10:58:38.905750  3083 net.cpp:509] Scale32 -> Convolution32 (in-place)
I0818 10:58:38.905799  3083 layer_factory.hpp:77] Creating layer Scale32
I0818 10:58:38.905956  3083 net.cpp:172] Setting up Scale32
I0818 10:58:38.905967  3083 net.cpp:186] Top shape: 64 32 16 16 (524288)
I0818 10:58:38.905972  3083 net.cpp:194] Memory required for data: 577503488
I0818 10:58:38.905979  3083 layer_factory.hpp:77] Creating layer Eltwise15
I0818 10:58:38.905989  3083 net.cpp:128] Creating Layer Eltwise15
I0818 10:58:38.905995  3083 net.cpp:558] Eltwise15 <- Eltwise14_ReLU29_0_split_1
I0818 10:58:38.906002  3083 net.cpp:558] Eltwise15 <- Convolution32
I0818 10:58:38.906010  3083 net.cpp:522] Eltwise15 -> Eltwise15
I0818 10:58:38.906035  3083 net.cpp:172] Setting up Eltwise15
I0818 10:58:38.906042  3083 net.cpp:186] Top shape: 64 32 16 16 (524288)
I0818 10:58:38.906046  3083 net.cpp:194] Memory required for data: 579600640
I0818 10:58:38.906050  3083 layer_factory.hpp:77] Creating layer ReLU31
I0818 10:58:38.906059  3083 net.cpp:128] Creating Layer ReLU31
I0818 10:58:38.906064  3083 net.cpp:558] ReLU31 <- Eltwise15
I0818 10:58:38.906069  3083 net.cpp:509] ReLU31 -> Eltwise15 (in-place)
I0818 10:58:38.906602  3083 net.cpp:172] Setting up ReLU31
I0818 10:58:38.906621  3083 net.cpp:186] Top shape: 64 32 16 16 (524288)
I0818 10:58:38.906626  3083 net.cpp:194] Memory required for data: 581697792
I0818 10:58:38.906631  3083 layer_factory.hpp:77] Creating layer Eltwise15_ReLU31_0_split
I0818 10:58:38.906646  3083 net.cpp:128] Creating Layer Eltwise15_ReLU31_0_split
I0818 10:58:38.906664  3083 net.cpp:558] Eltwise15_ReLU31_0_split <- Eltwise15
I0818 10:58:38.906674  3083 net.cpp:522] Eltwise15_ReLU31_0_split -> Eltwise15_ReLU31_0_split_0
I0818 10:58:38.906684  3083 net.cpp:522] Eltwise15_ReLU31_0_split -> Eltwise15_ReLU31_0_split_1
I0818 10:58:38.906744  3083 net.cpp:172] Setting up Eltwise15_ReLU31_0_split
I0818 10:58:38.906754  3083 net.cpp:186] Top shape: 64 32 16 16 (524288)
I0818 10:58:38.906759  3083 net.cpp:186] Top shape: 64 32 16 16 (524288)
I0818 10:58:38.906764  3083 net.cpp:194] Memory required for data: 585892096
I0818 10:58:38.906767  3083 layer_factory.hpp:77] Creating layer Convolution33
I0818 10:58:38.906780  3083 net.cpp:128] Creating Layer Convolution33
I0818 10:58:38.906788  3083 net.cpp:558] Convolution33 <- Eltwise15_ReLU31_0_split_0
I0818 10:58:38.906795  3083 net.cpp:522] Convolution33 -> Convolution33
I0818 10:58:38.913192  3083 net.cpp:172] Setting up Convolution33
I0818 10:58:38.913219  3083 net.cpp:186] Top shape: 64 32 16 16 (524288)
I0818 10:58:38.913224  3083 net.cpp:194] Memory required for data: 587989248
I0818 10:58:38.913234  3083 layer_factory.hpp:77] Creating layer BatchNorm33
I0818 10:58:38.913244  3083 net.cpp:128] Creating Layer BatchNorm33
I0818 10:58:38.913251  3083 net.cpp:558] BatchNorm33 <- Convolution33
I0818 10:58:38.913261  3083 net.cpp:509] BatchNorm33 -> Convolution33 (in-place)
I0818 10:58:38.913547  3083 net.cpp:172] Setting up BatchNorm33
I0818 10:58:38.913559  3083 net.cpp:186] Top shape: 64 32 16 16 (524288)
I0818 10:58:38.913563  3083 net.cpp:194] Memory required for data: 590086400
I0818 10:58:38.913574  3083 layer_factory.hpp:77] Creating layer Scale33
I0818 10:58:38.913583  3083 net.cpp:128] Creating Layer Scale33
I0818 10:58:38.913589  3083 net.cpp:558] Scale33 <- Convolution33
I0818 10:58:38.913594  3083 net.cpp:509] Scale33 -> Convolution33 (in-place)
I0818 10:58:38.913643  3083 layer_factory.hpp:77] Creating layer Scale33
I0818 10:58:38.913800  3083 net.cpp:172] Setting up Scale33
I0818 10:58:38.913807  3083 net.cpp:186] Top shape: 64 32 16 16 (524288)
I0818 10:58:38.913811  3083 net.cpp:194] Memory required for data: 592183552
I0818 10:58:38.913820  3083 layer_factory.hpp:77] Creating layer ReLU32
I0818 10:58:38.913827  3083 net.cpp:128] Creating Layer ReLU32
I0818 10:58:38.913832  3083 net.cpp:558] ReLU32 <- Convolution33
I0818 10:58:38.913837  3083 net.cpp:509] ReLU32 -> Convolution33 (in-place)
I0818 10:58:38.914947  3083 net.cpp:172] Setting up ReLU32
I0818 10:58:38.914976  3083 net.cpp:186] Top shape: 64 32 16 16 (524288)
I0818 10:58:38.914980  3083 net.cpp:194] Memory required for data: 594280704
I0818 10:58:38.914985  3083 layer_factory.hpp:77] Creating layer Convolution34
I0818 10:58:38.915000  3083 net.cpp:128] Creating Layer Convolution34
I0818 10:58:38.915005  3083 net.cpp:558] Convolution34 <- Convolution33
I0818 10:58:38.915014  3083 net.cpp:522] Convolution34 -> Convolution34
I0818 10:58:38.916548  3083 net.cpp:172] Setting up Convolution34
I0818 10:58:38.916571  3083 net.cpp:186] Top shape: 64 32 16 16 (524288)
I0818 10:58:38.916576  3083 net.cpp:194] Memory required for data: 596377856
I0818 10:58:38.916586  3083 layer_factory.hpp:77] Creating layer BatchNorm34
I0818 10:58:38.916597  3083 net.cpp:128] Creating Layer BatchNorm34
I0818 10:58:38.916602  3083 net.cpp:558] BatchNorm34 <- Convolution34
I0818 10:58:38.916611  3083 net.cpp:509] BatchNorm34 -> Convolution34 (in-place)
I0818 10:58:38.916877  3083 net.cpp:172] Setting up BatchNorm34
I0818 10:58:38.916888  3083 net.cpp:186] Top shape: 64 32 16 16 (524288)
I0818 10:58:38.916893  3083 net.cpp:194] Memory required for data: 598475008
I0818 10:58:38.916903  3083 layer_factory.hpp:77] Creating layer Scale34
I0818 10:58:38.916909  3083 net.cpp:128] Creating Layer Scale34
I0818 10:58:38.916913  3083 net.cpp:558] Scale34 <- Convolution34
I0818 10:58:38.916923  3083 net.cpp:509] Scale34 -> Convolution34 (in-place)
I0818 10:58:38.916970  3083 layer_factory.hpp:77] Creating layer Scale34
I0818 10:58:38.917124  3083 net.cpp:172] Setting up Scale34
I0818 10:58:38.917135  3083 net.cpp:186] Top shape: 64 32 16 16 (524288)
I0818 10:58:38.917138  3083 net.cpp:194] Memory required for data: 600572160
I0818 10:58:38.917146  3083 layer_factory.hpp:77] Creating layer Eltwise16
I0818 10:58:38.917153  3083 net.cpp:128] Creating Layer Eltwise16
I0818 10:58:38.917158  3083 net.cpp:558] Eltwise16 <- Eltwise15_ReLU31_0_split_1
I0818 10:58:38.917163  3083 net.cpp:558] Eltwise16 <- Convolution34
I0818 10:58:38.917171  3083 net.cpp:522] Eltwise16 -> Eltwise16
I0818 10:58:38.917194  3083 net.cpp:172] Setting up Eltwise16
I0818 10:58:38.917203  3083 net.cpp:186] Top shape: 64 32 16 16 (524288)
I0818 10:58:38.917207  3083 net.cpp:194] Memory required for data: 602669312
I0818 10:58:38.917212  3083 layer_factory.hpp:77] Creating layer ReLU33
I0818 10:58:38.917217  3083 net.cpp:128] Creating Layer ReLU33
I0818 10:58:38.917222  3083 net.cpp:558] ReLU33 <- Eltwise16
I0818 10:58:38.917227  3083 net.cpp:509] ReLU33 -> Eltwise16 (in-place)
I0818 10:58:38.917768  3083 net.cpp:172] Setting up ReLU33
I0818 10:58:38.917789  3083 net.cpp:186] Top shape: 64 32 16 16 (524288)
I0818 10:58:38.917793  3083 net.cpp:194] Memory required for data: 604766464
I0818 10:58:38.917798  3083 layer_factory.hpp:77] Creating layer Eltwise16_ReLU33_0_split
I0818 10:58:38.917809  3083 net.cpp:128] Creating Layer Eltwise16_ReLU33_0_split
I0818 10:58:38.917814  3083 net.cpp:558] Eltwise16_ReLU33_0_split <- Eltwise16
I0818 10:58:38.917824  3083 net.cpp:522] Eltwise16_ReLU33_0_split -> Eltwise16_ReLU33_0_split_0
I0818 10:58:38.917832  3083 net.cpp:522] Eltwise16_ReLU33_0_split -> Eltwise16_ReLU33_0_split_1
I0818 10:58:38.917886  3083 net.cpp:172] Setting up Eltwise16_ReLU33_0_split
I0818 10:58:38.917896  3083 net.cpp:186] Top shape: 64 32 16 16 (524288)
I0818 10:58:38.917901  3083 net.cpp:186] Top shape: 64 32 16 16 (524288)
I0818 10:58:38.917906  3083 net.cpp:194] Memory required for data: 608960768
I0818 10:58:38.917909  3083 layer_factory.hpp:77] Creating layer Convolution35
I0818 10:58:38.917922  3083 net.cpp:128] Creating Layer Convolution35
I0818 10:58:38.917925  3083 net.cpp:558] Convolution35 <- Eltwise16_ReLU33_0_split_0
I0818 10:58:38.917932  3083 net.cpp:522] Convolution35 -> Convolution35
I0818 10:58:38.919603  3083 net.cpp:172] Setting up Convolution35
I0818 10:58:38.919627  3083 net.cpp:186] Top shape: 64 32 16 16 (524288)
I0818 10:58:38.919631  3083 net.cpp:194] Memory required for data: 611057920
I0818 10:58:38.919657  3083 layer_factory.hpp:77] Creating layer BatchNorm35
I0818 10:58:38.919668  3083 net.cpp:128] Creating Layer BatchNorm35
I0818 10:58:38.919673  3083 net.cpp:558] BatchNorm35 <- Convolution35
I0818 10:58:38.919684  3083 net.cpp:509] BatchNorm35 -> Convolution35 (in-place)
I0818 10:58:38.919957  3083 net.cpp:172] Setting up BatchNorm35
I0818 10:58:38.919965  3083 net.cpp:186] Top shape: 64 32 16 16 (524288)
I0818 10:58:38.919968  3083 net.cpp:194] Memory required for data: 613155072
I0818 10:58:38.919978  3083 layer_factory.hpp:77] Creating layer Scale35
I0818 10:58:38.919986  3083 net.cpp:128] Creating Layer Scale35
I0818 10:58:38.919989  3083 net.cpp:558] Scale35 <- Convolution35
I0818 10:58:38.919994  3083 net.cpp:509] Scale35 -> Convolution35 (in-place)
I0818 10:58:38.920043  3083 layer_factory.hpp:77] Creating layer Scale35
I0818 10:58:38.920197  3083 net.cpp:172] Setting up Scale35
I0818 10:58:38.920204  3083 net.cpp:186] Top shape: 64 32 16 16 (524288)
I0818 10:58:38.920208  3083 net.cpp:194] Memory required for data: 615252224
I0818 10:58:38.920215  3083 layer_factory.hpp:77] Creating layer ReLU34
I0818 10:58:38.920224  3083 net.cpp:128] Creating Layer ReLU34
I0818 10:58:38.920228  3083 net.cpp:558] ReLU34 <- Convolution35
I0818 10:58:38.920234  3083 net.cpp:509] ReLU34 -> Convolution35 (in-place)
I0818 10:58:38.920478  3083 net.cpp:172] Setting up ReLU34
I0818 10:58:38.920487  3083 net.cpp:186] Top shape: 64 32 16 16 (524288)
I0818 10:58:38.920491  3083 net.cpp:194] Memory required for data: 617349376
I0818 10:58:38.920496  3083 layer_factory.hpp:77] Creating layer Convolution36
I0818 10:58:38.920508  3083 net.cpp:128] Creating Layer Convolution36
I0818 10:58:38.920513  3083 net.cpp:558] Convolution36 <- Convolution35
I0818 10:58:38.920522  3083 net.cpp:522] Convolution36 -> Convolution36
I0818 10:58:38.927038  3083 net.cpp:172] Setting up Convolution36
I0818 10:58:38.927067  3083 net.cpp:186] Top shape: 64 32 16 16 (524288)
I0818 10:58:38.927072  3083 net.cpp:194] Memory required for data: 619446528
I0818 10:58:38.927083  3083 layer_factory.hpp:77] Creating layer BatchNorm36
I0818 10:58:38.927100  3083 net.cpp:128] Creating Layer BatchNorm36
I0818 10:58:38.927106  3083 net.cpp:558] BatchNorm36 <- Convolution36
I0818 10:58:38.927114  3083 net.cpp:509] BatchNorm36 -> Convolution36 (in-place)
I0818 10:58:38.927392  3083 net.cpp:172] Setting up BatchNorm36
I0818 10:58:38.927402  3083 net.cpp:186] Top shape: 64 32 16 16 (524288)
I0818 10:58:38.927407  3083 net.cpp:194] Memory required for data: 621543680
I0818 10:58:38.927417  3083 layer_factory.hpp:77] Creating layer Scale36
I0818 10:58:38.927428  3083 net.cpp:128] Creating Layer Scale36
I0818 10:58:38.927433  3083 net.cpp:558] Scale36 <- Convolution36
I0818 10:58:38.927439  3083 net.cpp:509] Scale36 -> Convolution36 (in-place)
I0818 10:58:38.927489  3083 layer_factory.hpp:77] Creating layer Scale36
I0818 10:58:38.927650  3083 net.cpp:172] Setting up Scale36
I0818 10:58:38.927660  3083 net.cpp:186] Top shape: 64 32 16 16 (524288)
I0818 10:58:38.927664  3083 net.cpp:194] Memory required for data: 623640832
I0818 10:58:38.927672  3083 layer_factory.hpp:77] Creating layer Eltwise17
I0818 10:58:38.927685  3083 net.cpp:128] Creating Layer Eltwise17
I0818 10:58:38.927690  3083 net.cpp:558] Eltwise17 <- Eltwise16_ReLU33_0_split_1
I0818 10:58:38.927695  3083 net.cpp:558] Eltwise17 <- Convolution36
I0818 10:58:38.927705  3083 net.cpp:522] Eltwise17 -> Eltwise17
I0818 10:58:38.927727  3083 net.cpp:172] Setting up Eltwise17
I0818 10:58:38.927734  3083 net.cpp:186] Top shape: 64 32 16 16 (524288)
I0818 10:58:38.927738  3083 net.cpp:194] Memory required for data: 625737984
I0818 10:58:38.927743  3083 layer_factory.hpp:77] Creating layer ReLU35
I0818 10:58:38.927754  3083 net.cpp:128] Creating Layer ReLU35
I0818 10:58:38.927759  3083 net.cpp:558] ReLU35 <- Eltwise17
I0818 10:58:38.927767  3083 net.cpp:509] ReLU35 -> Eltwise17 (in-place)
I0818 10:58:38.930109  3083 net.cpp:172] Setting up ReLU35
I0818 10:58:38.930126  3083 net.cpp:186] Top shape: 64 32 16 16 (524288)
I0818 10:58:38.930155  3083 net.cpp:194] Memory required for data: 627835136
I0818 10:58:38.930160  3083 layer_factory.hpp:77] Creating layer Eltwise17_ReLU35_0_split
I0818 10:58:38.930171  3083 net.cpp:128] Creating Layer Eltwise17_ReLU35_0_split
I0818 10:58:38.930176  3083 net.cpp:558] Eltwise17_ReLU35_0_split <- Eltwise17
I0818 10:58:38.930183  3083 net.cpp:522] Eltwise17_ReLU35_0_split -> Eltwise17_ReLU35_0_split_0
I0818 10:58:38.930194  3083 net.cpp:522] Eltwise17_ReLU35_0_split -> Eltwise17_ReLU35_0_split_1
I0818 10:58:38.930250  3083 net.cpp:172] Setting up Eltwise17_ReLU35_0_split
I0818 10:58:38.930260  3083 net.cpp:186] Top shape: 64 32 16 16 (524288)
I0818 10:58:38.930266  3083 net.cpp:186] Top shape: 64 32 16 16 (524288)
I0818 10:58:38.930270  3083 net.cpp:194] Memory required for data: 632029440
I0818 10:58:38.930274  3083 layer_factory.hpp:77] Creating layer Convolution37
I0818 10:58:38.930289  3083 net.cpp:128] Creating Layer Convolution37
I0818 10:58:38.930294  3083 net.cpp:558] Convolution37 <- Eltwise17_ReLU35_0_split_0
I0818 10:58:38.930305  3083 net.cpp:522] Convolution37 -> Convolution37
I0818 10:58:38.936976  3083 net.cpp:172] Setting up Convolution37
I0818 10:58:38.937003  3083 net.cpp:186] Top shape: 64 32 16 16 (524288)
I0818 10:58:38.937008  3083 net.cpp:194] Memory required for data: 634126592
I0818 10:58:38.937018  3083 layer_factory.hpp:77] Creating layer BatchNorm37
I0818 10:58:38.937029  3083 net.cpp:128] Creating Layer BatchNorm37
I0818 10:58:38.937038  3083 net.cpp:558] BatchNorm37 <- Convolution37
I0818 10:58:38.937045  3083 net.cpp:509] BatchNorm37 -> Convolution37 (in-place)
I0818 10:58:38.937319  3083 net.cpp:172] Setting up BatchNorm37
I0818 10:58:38.937330  3083 net.cpp:186] Top shape: 64 32 16 16 (524288)
I0818 10:58:38.937335  3083 net.cpp:194] Memory required for data: 636223744
I0818 10:58:38.937366  3083 layer_factory.hpp:77] Creating layer Scale37
I0818 10:58:38.937377  3083 net.cpp:128] Creating Layer Scale37
I0818 10:58:38.937382  3083 net.cpp:558] Scale37 <- Convolution37
I0818 10:58:38.937388  3083 net.cpp:509] Scale37 -> Convolution37 (in-place)
I0818 10:58:38.937438  3083 layer_factory.hpp:77] Creating layer Scale37
I0818 10:58:38.937597  3083 net.cpp:172] Setting up Scale37
I0818 10:58:38.937606  3083 net.cpp:186] Top shape: 64 32 16 16 (524288)
I0818 10:58:38.937611  3083 net.cpp:194] Memory required for data: 638320896
I0818 10:58:38.937618  3083 layer_factory.hpp:77] Creating layer ReLU36
I0818 10:58:38.937628  3083 net.cpp:128] Creating Layer ReLU36
I0818 10:58:38.937634  3083 net.cpp:558] ReLU36 <- Convolution37
I0818 10:58:38.937640  3083 net.cpp:509] ReLU36 -> Convolution37 (in-place)
I0818 10:58:38.939087  3083 net.cpp:172] Setting up ReLU36
I0818 10:58:38.939107  3083 net.cpp:186] Top shape: 64 32 16 16 (524288)
I0818 10:58:38.939112  3083 net.cpp:194] Memory required for data: 640418048
I0818 10:58:38.939117  3083 layer_factory.hpp:77] Creating layer Convolution38
I0818 10:58:38.939131  3083 net.cpp:128] Creating Layer Convolution38
I0818 10:58:38.939136  3083 net.cpp:558] Convolution38 <- Convolution37
I0818 10:58:38.939153  3083 net.cpp:522] Convolution38 -> Convolution38
I0818 10:58:38.946050  3083 net.cpp:172] Setting up Convolution38
I0818 10:58:38.946074  3083 net.cpp:186] Top shape: 64 32 16 16 (524288)
I0818 10:58:38.946079  3083 net.cpp:194] Memory required for data: 642515200
I0818 10:58:38.946089  3083 layer_factory.hpp:77] Creating layer BatchNorm38
I0818 10:58:38.946097  3083 net.cpp:128] Creating Layer BatchNorm38
I0818 10:58:38.946102  3083 net.cpp:558] BatchNorm38 <- Convolution38
I0818 10:58:38.946111  3083 net.cpp:509] BatchNorm38 -> Convolution38 (in-place)
I0818 10:58:38.946395  3083 net.cpp:172] Setting up BatchNorm38
I0818 10:58:38.946406  3083 net.cpp:186] Top shape: 64 32 16 16 (524288)
I0818 10:58:38.946410  3083 net.cpp:194] Memory required for data: 644612352
I0818 10:58:38.946420  3083 layer_factory.hpp:77] Creating layer Scale38
I0818 10:58:38.946431  3083 net.cpp:128] Creating Layer Scale38
I0818 10:58:38.946436  3083 net.cpp:558] Scale38 <- Convolution38
I0818 10:58:38.946463  3083 net.cpp:509] Scale38 -> Convolution38 (in-place)
I0818 10:58:38.946517  3083 layer_factory.hpp:77] Creating layer Scale38
I0818 10:58:38.946686  3083 net.cpp:172] Setting up Scale38
I0818 10:58:38.946698  3083 net.cpp:186] Top shape: 64 32 16 16 (524288)
I0818 10:58:38.946702  3083 net.cpp:194] Memory required for data: 646709504
I0818 10:58:38.946710  3083 layer_factory.hpp:77] Creating layer Eltwise18
I0818 10:58:38.946722  3083 net.cpp:128] Creating Layer Eltwise18
I0818 10:58:38.946727  3083 net.cpp:558] Eltwise18 <- Eltwise17_ReLU35_0_split_1
I0818 10:58:38.946735  3083 net.cpp:558] Eltwise18 <- Convolution38
I0818 10:58:38.946744  3083 net.cpp:522] Eltwise18 -> Eltwise18
I0818 10:58:38.946770  3083 net.cpp:172] Setting up Eltwise18
I0818 10:58:38.946780  3083 net.cpp:186] Top shape: 64 32 16 16 (524288)
I0818 10:58:38.946784  3083 net.cpp:194] Memory required for data: 648806656
I0818 10:58:38.946789  3083 layer_factory.hpp:77] Creating layer ReLU37
I0818 10:58:38.946795  3083 net.cpp:128] Creating Layer ReLU37
I0818 10:58:38.946805  3083 net.cpp:558] ReLU37 <- Eltwise18
I0818 10:58:38.946811  3083 net.cpp:509] ReLU37 -> Eltwise18 (in-place)
I0818 10:58:38.948168  3083 net.cpp:172] Setting up ReLU37
I0818 10:58:38.948181  3083 net.cpp:186] Top shape: 64 32 16 16 (524288)
I0818 10:58:38.948186  3083 net.cpp:194] Memory required for data: 650903808
I0818 10:58:38.948190  3083 layer_factory.hpp:77] Creating layer Eltwise18_ReLU37_0_split
I0818 10:58:38.948200  3083 net.cpp:128] Creating Layer Eltwise18_ReLU37_0_split
I0818 10:58:38.948210  3083 net.cpp:558] Eltwise18_ReLU37_0_split <- Eltwise18
I0818 10:58:38.948216  3083 net.cpp:522] Eltwise18_ReLU37_0_split -> Eltwise18_ReLU37_0_split_0
I0818 10:58:38.948225  3083 net.cpp:522] Eltwise18_ReLU37_0_split -> Eltwise18_ReLU37_0_split_1
I0818 10:58:38.948284  3083 net.cpp:172] Setting up Eltwise18_ReLU37_0_split
I0818 10:58:38.948295  3083 net.cpp:186] Top shape: 64 32 16 16 (524288)
I0818 10:58:38.948302  3083 net.cpp:186] Top shape: 64 32 16 16 (524288)
I0818 10:58:38.948305  3083 net.cpp:194] Memory required for data: 655098112
I0818 10:58:38.948313  3083 layer_factory.hpp:77] Creating layer Convolution39
I0818 10:58:38.948325  3083 net.cpp:128] Creating Layer Convolution39
I0818 10:58:38.948334  3083 net.cpp:558] Convolution39 <- Eltwise18_ReLU37_0_split_0
I0818 10:58:38.948343  3083 net.cpp:522] Convolution39 -> Convolution39
I0818 10:58:38.961326  3083 net.cpp:172] Setting up Convolution39
I0818 10:58:38.961354  3083 net.cpp:186] Top shape: 64 64 8 8 (262144)
I0818 10:58:38.961357  3083 net.cpp:194] Memory required for data: 656146688
I0818 10:58:38.961369  3083 layer_factory.hpp:77] Creating layer BatchNorm39
I0818 10:58:38.961378  3083 net.cpp:128] Creating Layer BatchNorm39
I0818 10:58:38.961385  3083 net.cpp:558] BatchNorm39 <- Convolution39
I0818 10:58:38.961400  3083 net.cpp:509] BatchNorm39 -> Convolution39 (in-place)
I0818 10:58:38.961681  3083 net.cpp:172] Setting up BatchNorm39
I0818 10:58:38.961691  3083 net.cpp:186] Top shape: 64 64 8 8 (262144)
I0818 10:58:38.961695  3083 net.cpp:194] Memory required for data: 657195264
I0818 10:58:38.961705  3083 layer_factory.hpp:77] Creating layer Scale39
I0818 10:58:38.961717  3083 net.cpp:128] Creating Layer Scale39
I0818 10:58:38.961722  3083 net.cpp:558] Scale39 <- Convolution39
I0818 10:58:38.961729  3083 net.cpp:509] Scale39 -> Convolution39 (in-place)
I0818 10:58:38.961778  3083 layer_factory.hpp:77] Creating layer Scale39
I0818 10:58:38.961941  3083 net.cpp:172] Setting up Scale39
I0818 10:58:38.961951  3083 net.cpp:186] Top shape: 64 64 8 8 (262144)
I0818 10:58:38.961956  3083 net.cpp:194] Memory required for data: 658243840
I0818 10:58:38.961963  3083 layer_factory.hpp:77] Creating layer Convolution40
I0818 10:58:38.961980  3083 net.cpp:128] Creating Layer Convolution40
I0818 10:58:38.961987  3083 net.cpp:558] Convolution40 <- Eltwise18_ReLU37_0_split_1
I0818 10:58:38.961995  3083 net.cpp:522] Convolution40 -> Convolution40
I0818 10:58:38.974617  3083 net.cpp:172] Setting up Convolution40
I0818 10:58:38.974683  3083 net.cpp:186] Top shape: 64 64 8 8 (262144)
I0818 10:58:38.974689  3083 net.cpp:194] Memory required for data: 659292416
I0818 10:58:38.974700  3083 layer_factory.hpp:77] Creating layer BatchNorm40
I0818 10:58:38.974710  3083 net.cpp:128] Creating Layer BatchNorm40
I0818 10:58:38.974715  3083 net.cpp:558] BatchNorm40 <- Convolution40
I0818 10:58:38.974725  3083 net.cpp:509] BatchNorm40 -> Convolution40 (in-place)
I0818 10:58:38.975028  3083 net.cpp:172] Setting up BatchNorm40
I0818 10:58:38.975064  3083 net.cpp:186] Top shape: 64 64 8 8 (262144)
I0818 10:58:38.975085  3083 net.cpp:194] Memory required for data: 660340992
I0818 10:58:38.975107  3083 layer_factory.hpp:77] Creating layer Scale40
I0818 10:58:38.975124  3083 net.cpp:128] Creating Layer Scale40
I0818 10:58:38.975139  3083 net.cpp:558] Scale40 <- Convolution40
I0818 10:58:38.975158  3083 net.cpp:509] Scale40 -> Convolution40 (in-place)
I0818 10:58:38.975226  3083 layer_factory.hpp:77] Creating layer Scale40
I0818 10:58:38.975411  3083 net.cpp:172] Setting up Scale40
I0818 10:58:38.975430  3083 net.cpp:186] Top shape: 64 64 8 8 (262144)
I0818 10:58:38.975443  3083 net.cpp:194] Memory required for data: 661389568
I0818 10:58:38.975461  3083 layer_factory.hpp:77] Creating layer ReLU38
I0818 10:58:38.975479  3083 net.cpp:128] Creating Layer ReLU38
I0818 10:58:38.975497  3083 net.cpp:558] ReLU38 <- Convolution40
I0818 10:58:38.975515  3083 net.cpp:509] ReLU38 -> Convolution40 (in-place)
I0818 10:58:38.978420  3083 net.cpp:172] Setting up ReLU38
I0818 10:58:38.978438  3083 net.cpp:186] Top shape: 64 64 8 8 (262144)
I0818 10:58:38.978443  3083 net.cpp:194] Memory required for data: 662438144
I0818 10:58:38.978447  3083 layer_factory.hpp:77] Creating layer Convolution41
I0818 10:58:38.978462  3083 net.cpp:128] Creating Layer Convolution41
I0818 10:58:38.978467  3083 net.cpp:558] Convolution41 <- Convolution40
I0818 10:58:38.978477  3083 net.cpp:522] Convolution41 -> Convolution41
I0818 10:58:38.985513  3083 net.cpp:172] Setting up Convolution41
I0818 10:58:38.985540  3083 net.cpp:186] Top shape: 64 64 8 8 (262144)
I0818 10:58:38.985544  3083 net.cpp:194] Memory required for data: 663486720
I0818 10:58:38.985554  3083 layer_factory.hpp:77] Creating layer BatchNorm41
I0818 10:58:38.985565  3083 net.cpp:128] Creating Layer BatchNorm41
I0818 10:58:38.985571  3083 net.cpp:558] BatchNorm41 <- Convolution41
I0818 10:58:38.985580  3083 net.cpp:509] BatchNorm41 -> Convolution41 (in-place)
I0818 10:58:38.985882  3083 net.cpp:172] Setting up BatchNorm41
I0818 10:58:38.985895  3083 net.cpp:186] Top shape: 64 64 8 8 (262144)
I0818 10:58:38.985899  3083 net.cpp:194] Memory required for data: 664535296
I0818 10:58:38.985909  3083 layer_factory.hpp:77] Creating layer Scale41
I0818 10:58:38.985916  3083 net.cpp:128] Creating Layer Scale41
I0818 10:58:38.985921  3083 net.cpp:558] Scale41 <- Convolution41
I0818 10:58:38.985929  3083 net.cpp:509] Scale41 -> Convolution41 (in-place)
I0818 10:58:38.985977  3083 layer_factory.hpp:77] Creating layer Scale41
I0818 10:58:38.986142  3083 net.cpp:172] Setting up Scale41
I0818 10:58:38.986155  3083 net.cpp:186] Top shape: 64 64 8 8 (262144)
I0818 10:58:38.986160  3083 net.cpp:194] Memory required for data: 665583872
I0818 10:58:38.986169  3083 layer_factory.hpp:77] Creating layer Eltwise19
I0818 10:58:38.986178  3083 net.cpp:128] Creating Layer Eltwise19
I0818 10:58:38.986183  3083 net.cpp:558] Eltwise19 <- Convolution39
I0818 10:58:38.986188  3083 net.cpp:558] Eltwise19 <- Convolution41
I0818 10:58:38.986197  3083 net.cpp:522] Eltwise19 -> Eltwise19
I0818 10:58:38.986229  3083 net.cpp:172] Setting up Eltwise19
I0818 10:58:38.986237  3083 net.cpp:186] Top shape: 64 64 8 8 (262144)
I0818 10:58:38.986239  3083 net.cpp:194] Memory required for data: 666632448
I0818 10:58:38.986244  3083 layer_factory.hpp:77] Creating layer ReLU39
I0818 10:58:38.986250  3083 net.cpp:128] Creating Layer ReLU39
I0818 10:58:38.986254  3083 net.cpp:558] ReLU39 <- Eltwise19
I0818 10:58:38.986261  3083 net.cpp:509] ReLU39 -> Eltwise19 (in-place)
I0818 10:58:38.987326  3083 net.cpp:172] Setting up ReLU39
I0818 10:58:38.987344  3083 net.cpp:186] Top shape: 64 64 8 8 (262144)
I0818 10:58:38.987349  3083 net.cpp:194] Memory required for data: 667681024
I0818 10:58:38.987354  3083 layer_factory.hpp:77] Creating layer Eltwise19_ReLU39_0_split
I0818 10:58:38.987361  3083 net.cpp:128] Creating Layer Eltwise19_ReLU39_0_split
I0818 10:58:38.987366  3083 net.cpp:558] Eltwise19_ReLU39_0_split <- Eltwise19
I0818 10:58:38.987377  3083 net.cpp:522] Eltwise19_ReLU39_0_split -> Eltwise19_ReLU39_0_split_0
I0818 10:58:38.987386  3083 net.cpp:522] Eltwise19_ReLU39_0_split -> Eltwise19_ReLU39_0_split_1
I0818 10:58:38.987444  3083 net.cpp:172] Setting up Eltwise19_ReLU39_0_split
I0818 10:58:38.987454  3083 net.cpp:186] Top shape: 64 64 8 8 (262144)
I0818 10:58:38.987460  3083 net.cpp:186] Top shape: 64 64 8 8 (262144)
I0818 10:58:38.987464  3083 net.cpp:194] Memory required for data: 669778176
I0818 10:58:38.987468  3083 layer_factory.hpp:77] Creating layer Convolution42
I0818 10:58:38.987480  3083 net.cpp:128] Creating Layer Convolution42
I0818 10:58:38.987485  3083 net.cpp:558] Convolution42 <- Eltwise19_ReLU39_0_split_0
I0818 10:58:38.987494  3083 net.cpp:522] Convolution42 -> Convolution42
I0818 10:58:38.991778  3083 net.cpp:172] Setting up Convolution42
I0818 10:58:38.991829  3083 net.cpp:186] Top shape: 64 64 8 8 (262144)
I0818 10:58:38.991849  3083 net.cpp:194] Memory required for data: 670826752
I0818 10:58:38.991870  3083 layer_factory.hpp:77] Creating layer BatchNorm42
I0818 10:58:38.991891  3083 net.cpp:128] Creating Layer BatchNorm42
I0818 10:58:38.991906  3083 net.cpp:558] BatchNorm42 <- Convolution42
I0818 10:58:38.991930  3083 net.cpp:509] BatchNorm42 -> Convolution42 (in-place)
I0818 10:58:38.992239  3083 net.cpp:172] Setting up BatchNorm42
I0818 10:58:38.992261  3083 net.cpp:186] Top shape: 64 64 8 8 (262144)
I0818 10:58:38.992274  3083 net.cpp:194] Memory required for data: 671875328
I0818 10:58:38.992295  3083 layer_factory.hpp:77] Creating layer Scale42
I0818 10:58:38.992316  3083 net.cpp:128] Creating Layer Scale42
I0818 10:58:38.992331  3083 net.cpp:558] Scale42 <- Convolution42
I0818 10:58:38.992347  3083 net.cpp:509] Scale42 -> Convolution42 (in-place)
I0818 10:58:38.992419  3083 layer_factory.hpp:77] Creating layer Scale42
I0818 10:58:38.992600  3083 net.cpp:172] Setting up Scale42
I0818 10:58:38.992622  3083 net.cpp:186] Top shape: 64 64 8 8 (262144)
I0818 10:58:38.992636  3083 net.cpp:194] Memory required for data: 672923904
I0818 10:58:38.992655  3083 layer_factory.hpp:77] Creating layer ReLU40
I0818 10:58:38.992673  3083 net.cpp:128] Creating Layer ReLU40
I0818 10:58:38.992692  3083 net.cpp:558] ReLU40 <- Convolution42
I0818 10:58:38.992708  3083 net.cpp:509] ReLU40 -> Convolution42 (in-place)
I0818 10:58:38.995990  3083 net.cpp:172] Setting up ReLU40
I0818 10:58:38.996014  3083 net.cpp:186] Top shape: 64 64 8 8 (262144)
I0818 10:58:38.996019  3083 net.cpp:194] Memory required for data: 673972480
I0818 10:58:38.996024  3083 layer_factory.hpp:77] Creating layer Convolution43
I0818 10:58:38.996042  3083 net.cpp:128] Creating Layer Convolution43
I0818 10:58:38.996047  3083 net.cpp:558] Convolution43 <- Convolution42
I0818 10:58:38.996055  3083 net.cpp:522] Convolution43 -> Convolution43
I0818 10:58:39.009433  3083 net.cpp:172] Setting up Convolution43
I0818 10:58:39.009461  3083 net.cpp:186] Top shape: 64 64 8 8 (262144)
I0818 10:58:39.009466  3083 net.cpp:194] Memory required for data: 675021056
I0818 10:58:39.009477  3083 layer_factory.hpp:77] Creating layer BatchNorm43
I0818 10:58:39.009486  3083 net.cpp:128] Creating Layer BatchNorm43
I0818 10:58:39.009491  3083 net.cpp:558] BatchNorm43 <- Convolution43
I0818 10:58:39.009500  3083 net.cpp:509] BatchNorm43 -> Convolution43 (in-place)
I0818 10:58:39.009802  3083 net.cpp:172] Setting up BatchNorm43
I0818 10:58:39.009845  3083 net.cpp:186] Top shape: 64 64 8 8 (262144)
I0818 10:58:39.009862  3083 net.cpp:194] Memory required for data: 676069632
I0818 10:58:39.009883  3083 layer_factory.hpp:77] Creating layer Scale43
I0818 10:58:39.009914  3083 net.cpp:128] Creating Layer Scale43
I0818 10:58:39.009928  3083 net.cpp:558] Scale43 <- Convolution43
I0818 10:58:39.009948  3083 net.cpp:509] Scale43 -> Convolution43 (in-place)
I0818 10:58:39.010021  3083 layer_factory.hpp:77] Creating layer Scale43
I0818 10:58:39.010211  3083 net.cpp:172] Setting up Scale43
I0818 10:58:39.010231  3083 net.cpp:186] Top shape: 64 64 8 8 (262144)
I0818 10:58:39.010246  3083 net.cpp:194] Memory required for data: 677118208
I0818 10:58:39.010264  3083 layer_factory.hpp:77] Creating layer Eltwise20
I0818 10:58:39.010284  3083 net.cpp:128] Creating Layer Eltwise20
I0818 10:58:39.010300  3083 net.cpp:558] Eltwise20 <- Eltwise19_ReLU39_0_split_1
I0818 10:58:39.010315  3083 net.cpp:558] Eltwise20 <- Convolution43
I0818 10:58:39.010332  3083 net.cpp:522] Eltwise20 -> Eltwise20
I0818 10:58:39.010380  3083 net.cpp:172] Setting up Eltwise20
I0818 10:58:39.010401  3083 net.cpp:186] Top shape: 64 64 8 8 (262144)
I0818 10:58:39.010414  3083 net.cpp:194] Memory required for data: 678166784
I0818 10:58:39.010428  3083 layer_factory.hpp:77] Creating layer ReLU41
I0818 10:58:39.010448  3083 net.cpp:128] Creating Layer ReLU41
I0818 10:58:39.010462  3083 net.cpp:558] ReLU41 <- Eltwise20
I0818 10:58:39.010480  3083 net.cpp:509] ReLU41 -> Eltwise20 (in-place)
I0818 10:58:39.013325  3083 net.cpp:172] Setting up ReLU41
I0818 10:58:39.013346  3083 net.cpp:186] Top shape: 64 64 8 8 (262144)
I0818 10:58:39.013350  3083 net.cpp:194] Memory required for data: 679215360
I0818 10:58:39.013355  3083 layer_factory.hpp:77] Creating layer Eltwise20_ReLU41_0_split
I0818 10:58:39.013363  3083 net.cpp:128] Creating Layer Eltwise20_ReLU41_0_split
I0818 10:58:39.013370  3083 net.cpp:558] Eltwise20_ReLU41_0_split <- Eltwise20
I0818 10:58:39.013378  3083 net.cpp:522] Eltwise20_ReLU41_0_split -> Eltwise20_ReLU41_0_split_0
I0818 10:58:39.013387  3083 net.cpp:522] Eltwise20_ReLU41_0_split -> Eltwise20_ReLU41_0_split_1
I0818 10:58:39.013449  3083 net.cpp:172] Setting up Eltwise20_ReLU41_0_split
I0818 10:58:39.013489  3083 net.cpp:186] Top shape: 64 64 8 8 (262144)
I0818 10:58:39.013504  3083 net.cpp:186] Top shape: 64 64 8 8 (262144)
I0818 10:58:39.013519  3083 net.cpp:194] Memory required for data: 681312512
I0818 10:58:39.013532  3083 layer_factory.hpp:77] Creating layer Convolution44
I0818 10:58:39.013556  3083 net.cpp:128] Creating Layer Convolution44
I0818 10:58:39.013571  3083 net.cpp:558] Convolution44 <- Eltwise20_ReLU41_0_split_0
I0818 10:58:39.013590  3083 net.cpp:522] Convolution44 -> Convolution44
I0818 10:58:39.022948  3083 net.cpp:172] Setting up Convolution44
I0818 10:58:39.022971  3083 net.cpp:186] Top shape: 64 64 8 8 (262144)
I0818 10:58:39.022975  3083 net.cpp:194] Memory required for data: 682361088
I0818 10:58:39.022989  3083 layer_factory.hpp:77] Creating layer BatchNorm44
I0818 10:58:39.023000  3083 net.cpp:128] Creating Layer BatchNorm44
I0818 10:58:39.023005  3083 net.cpp:558] BatchNorm44 <- Convolution44
I0818 10:58:39.023012  3083 net.cpp:509] BatchNorm44 -> Convolution44 (in-place)
I0818 10:58:39.023304  3083 net.cpp:172] Setting up BatchNorm44
I0818 10:58:39.023344  3083 net.cpp:186] Top shape: 64 64 8 8 (262144)
I0818 10:58:39.023361  3083 net.cpp:194] Memory required for data: 683409664
I0818 10:58:39.023383  3083 layer_factory.hpp:77] Creating layer Scale44
I0818 10:58:39.023409  3083 net.cpp:128] Creating Layer Scale44
I0818 10:58:39.023423  3083 net.cpp:558] Scale44 <- Convolution44
I0818 10:58:39.023445  3083 net.cpp:509] Scale44 -> Convolution44 (in-place)
I0818 10:58:39.023524  3083 layer_factory.hpp:77] Creating layer Scale44
I0818 10:58:39.023711  3083 net.cpp:172] Setting up Scale44
I0818 10:58:39.023731  3083 net.cpp:186] Top shape: 64 64 8 8 (262144)
I0818 10:58:39.023744  3083 net.cpp:194] Memory required for data: 684458240
I0818 10:58:39.023763  3083 layer_factory.hpp:77] Creating layer ReLU42
I0818 10:58:39.023779  3083 net.cpp:128] Creating Layer ReLU42
I0818 10:58:39.023793  3083 net.cpp:558] ReLU42 <- Convolution44
I0818 10:58:39.023818  3083 net.cpp:509] ReLU42 -> Convolution44 (in-place)
I0818 10:58:39.025017  3083 net.cpp:172] Setting up ReLU42
I0818 10:58:39.025038  3083 net.cpp:186] Top shape: 64 64 8 8 (262144)
I0818 10:58:39.025041  3083 net.cpp:194] Memory required for data: 685506816
I0818 10:58:39.025046  3083 layer_factory.hpp:77] Creating layer Convolution45
I0818 10:58:39.025060  3083 net.cpp:128] Creating Layer Convolution45
I0818 10:58:39.025065  3083 net.cpp:558] Convolution45 <- Convolution44
I0818 10:58:39.025075  3083 net.cpp:522] Convolution45 -> Convolution45
I0818 10:58:39.032135  3083 net.cpp:172] Setting up Convolution45
I0818 10:58:39.032158  3083 net.cpp:186] Top shape: 64 64 8 8 (262144)
I0818 10:58:39.032163  3083 net.cpp:194] Memory required for data: 686555392
I0818 10:58:39.032174  3083 layer_factory.hpp:77] Creating layer BatchNorm45
I0818 10:58:39.032186  3083 net.cpp:128] Creating Layer BatchNorm45
I0818 10:58:39.032192  3083 net.cpp:558] BatchNorm45 <- Convolution45
I0818 10:58:39.032200  3083 net.cpp:509] BatchNorm45 -> Convolution45 (in-place)
I0818 10:58:39.032505  3083 net.cpp:172] Setting up BatchNorm45
I0818 10:58:39.032516  3083 net.cpp:186] Top shape: 64 64 8 8 (262144)
I0818 10:58:39.032519  3083 net.cpp:194] Memory required for data: 687603968
I0818 10:58:39.032558  3083 layer_factory.hpp:77] Creating layer Scale45
I0818 10:58:39.032580  3083 net.cpp:128] Creating Layer Scale45
I0818 10:58:39.032594  3083 net.cpp:558] Scale45 <- Convolution45
I0818 10:58:39.032615  3083 net.cpp:509] Scale45 -> Convolution45 (in-place)
I0818 10:58:39.032688  3083 layer_factory.hpp:77] Creating layer Scale45
I0818 10:58:39.032861  3083 net.cpp:172] Setting up Scale45
I0818 10:58:39.032874  3083 net.cpp:186] Top shape: 64 64 8 8 (262144)
I0818 10:58:39.032899  3083 net.cpp:194] Memory required for data: 688652544
I0818 10:58:39.032912  3083 layer_factory.hpp:77] Creating layer Eltwise21
I0818 10:58:39.032919  3083 net.cpp:128] Creating Layer Eltwise21
I0818 10:58:39.032924  3083 net.cpp:558] Eltwise21 <- Eltwise20_ReLU41_0_split_1
I0818 10:58:39.032930  3083 net.cpp:558] Eltwise21 <- Convolution45
I0818 10:58:39.032936  3083 net.cpp:522] Eltwise21 -> Eltwise21
I0818 10:58:39.032990  3083 net.cpp:172] Setting up Eltwise21
I0818 10:58:39.033001  3083 net.cpp:186] Top shape: 64 64 8 8 (262144)
I0818 10:58:39.033005  3083 net.cpp:194] Memory required for data: 689701120
I0818 10:58:39.033010  3083 layer_factory.hpp:77] Creating layer ReLU43
I0818 10:58:39.033036  3083 net.cpp:128] Creating Layer ReLU43
I0818 10:58:39.033054  3083 net.cpp:558] ReLU43 <- Eltwise21
I0818 10:58:39.033063  3083 net.cpp:509] ReLU43 -> Eltwise21 (in-place)
I0818 10:58:39.033951  3083 net.cpp:172] Setting up ReLU43
I0818 10:58:39.033972  3083 net.cpp:186] Top shape: 64 64 8 8 (262144)
I0818 10:58:39.033977  3083 net.cpp:194] Memory required for data: 690749696
I0818 10:58:39.033982  3083 layer_factory.hpp:77] Creating layer Eltwise21_ReLU43_0_split
…
I0818 10:58:39.659837  3083 net.cpp:128] Creating Layer Convolution40
I0818 10:58:39.659857  3083 net.cpp:558] Convolution40 <- Eltwise18_ReLU37_0_split_1
I0818 10:58:39.659899  3083 net.cpp:522] Convolution40 -> Convolution40
I0818 10:58:39.665637  3083 net.cpp:172] Setting up Convolution40
I0818 10:58:39.665684  3083 net.cpp:186] Top shape: 10 64 8 8 (40960)
I0818 10:58:39.665702  3083 net.cpp:194] Memory required for data: 103014520
I0818 10:58:39.665724  3083 layer_factory.hpp:77] Creating layer BatchNorm40
I0818 10:58:39.665745  3083 net.cpp:128] Creating Layer BatchNorm40
I0818 10:58:39.665760  3083 net.cpp:558] BatchNorm40 <- Convolution40
I0818 10:58:39.665779  3083 net.cpp:509] BatchNorm40 -> Convolution40 (in-place)
I0818 10:58:39.666035  3083 net.cpp:172] Setting up BatchNorm40
I0818 10:58:39.666055  3083 net.cpp:186] Top shape: 10 64 8 8 (40960)
I0818 10:58:39.666069  3083 net.cpp:194] Memory required for data: 103178360
I0818 10:58:39.666088  3083 layer_factory.hpp:77] Creating layer Scale40
I0818 10:58:39.666108  3083 net.cpp:128] Creating Layer Scale40
I0818 10:58:39.666122  3083 net.cpp:558] Scale40 <- Convolution40
I0818 10:58:39.666144  3083 net.cpp:509] Scale40 -> Convolution40 (in-place)
I0818 10:58:39.666209  3083 layer_factory.hpp:77] Creating layer Scale40
I0818 10:58:39.666379  3083 net.cpp:172] Setting up Scale40
I0818 10:58:39.666400  3083 net.cpp:186] Top shape: 10 64 8 8 (40960)
I0818 10:58:39.666421  3083 net.cpp:194] Memory required for data: 103342200
I0818 10:58:39.666440  3083 layer_factory.hpp:77] Creating layer ReLU38
I0818 10:58:39.666456  3083 net.cpp:128] Creating Layer ReLU38
I0818 10:58:39.666471  3083 net.cpp:558] ReLU38 <- Convolution40
I0818 10:58:39.666489  3083 net.cpp:509] ReLU38 -> Convolution40 (in-place)
I0818 10:58:39.669842  3083 net.cpp:172] Setting up ReLU38
I0818 10:58:39.669862  3083 net.cpp:186] Top shape: 10 64 8 8 (40960)
I0818 10:58:39.669867  3083 net.cpp:194] Memory required for data: 103506040
I0818 10:58:39.669873  3083 layer_factory.hpp:77] Creating layer Convolution41
I0818 10:58:39.669888  3083 net.cpp:128] Creating Layer Convolution41
I0818 10:58:39.669935  3083 net.cpp:558] Convolution41 <- Convolution40
I0818 10:58:39.669960  3083 net.cpp:522] Convolution41 -> Convolution41
I0818 10:58:39.682927  3083 net.cpp:172] Setting up Convolution41
I0818 10:58:39.682951  3083 net.cpp:186] Top shape: 10 64 8 8 (40960)
I0818 10:58:39.682955  3083 net.cpp:194] Memory required for data: 103669880
I0818 10:58:39.682966  3083 layer_factory.hpp:77] Creating layer BatchNorm41
I0818 10:58:39.682979  3083 net.cpp:128] Creating Layer BatchNorm41
I0818 10:58:39.682984  3083 net.cpp:558] BatchNorm41 <- Convolution41
I0818 10:58:39.682991  3083 net.cpp:509] BatchNorm41 -> Convolution41 (in-place)
I0818 10:58:39.683228  3083 net.cpp:172] Setting up BatchNorm41
I0818 10:58:39.683269  3083 net.cpp:186] Top shape: 10 64 8 8 (40960)
I0818 10:58:39.683284  3083 net.cpp:194] Memory required for data: 103833720
I0818 10:58:39.683303  3083 layer_factory.hpp:77] Creating layer Scale41
I0818 10:58:39.683324  3083 net.cpp:128] Creating Layer Scale41
I0818 10:58:39.683341  3083 net.cpp:558] Scale41 <- Convolution41
I0818 10:58:39.683358  3083 net.cpp:509] Scale41 -> Convolution41 (in-place)
I0818 10:58:39.683424  3083 layer_factory.hpp:77] Creating layer Scale41
I0818 10:58:39.683574  3083 net.cpp:172] Setting up Scale41
I0818 10:58:39.683598  3083 net.cpp:186] Top shape: 10 64 8 8 (40960)
I0818 10:58:39.683612  3083 net.cpp:194] Memory required for data: 103997560
I0818 10:58:39.683630  3083 layer_factory.hpp:77] Creating layer Eltwise19
I0818 10:58:39.683647  3083 net.cpp:128] Creating Layer Eltwise19
I0818 10:58:39.683666  3083 net.cpp:558] Eltwise19 <- Convolution39
I0818 10:58:39.683686  3083 net.cpp:558] Eltwise19 <- Convolution41
I0818 10:58:39.683702  3083 net.cpp:522] Eltwise19 -> Eltwise19
I0818 10:58:39.683743  3083 net.cpp:172] Setting up Eltwise19
I0818 10:58:39.683761  3083 net.cpp:186] Top shape: 10 64 8 8 (40960)
I0818 10:58:39.683774  3083 net.cpp:194] Memory required for data: 104161400
I0818 10:58:39.683787  3083 layer_factory.hpp:77] Creating layer ReLU39
I0818 10:58:39.683805  3083 net.cpp:128] Creating Layer ReLU39
I0818 10:58:39.683820  3083 net.cpp:558] ReLU39 <- Eltwise19
I0818 10:58:39.683835  3083 net.cpp:509] ReLU39 -> Eltwise19 (in-place)
I0818 10:58:39.687152  3083 net.cpp:172] Setting up ReLU39
I0818 10:58:39.687175  3083 net.cpp:186] Top shape: 10 64 8 8 (40960)
I0818 10:58:39.687178  3083 net.cpp:194] Memory required for data: 104325240
I0818 10:58:39.687183  3083 layer_factory.hpp:77] Creating layer Eltwise19_ReLU39_0_split
I0818 10:58:39.687196  3083 net.cpp:128] Creating Layer Eltwise19_ReLU39_0_split
I0818 10:58:39.687202  3083 net.cpp:558] Eltwise19_ReLU39_0_split <- Eltwise19
I0818 10:58:39.687209  3083 net.cpp:522] Eltwise19_ReLU39_0_split -> Eltwise19_ReLU39_0_split_0
I0818 10:58:39.687222  3083 net.cpp:522] Eltwise19_ReLU39_0_split -> Eltwise19_ReLU39_0_split_1
I0818 10:58:39.687273  3083 net.cpp:172] Setting up Eltwise19_ReLU39_0_split
I0818 10:58:39.687311  3083 net.cpp:186] Top shape: 10 64 8 8 (40960)
I0818 10:58:39.687327  3083 net.cpp:186] Top shape: 10 64 8 8 (40960)
I0818 10:58:39.687341  3083 net.cpp:194] Memory required for data: 104652920
I0818 10:58:39.687355  3083 layer_factory.hpp:77] Creating layer Convolution42
I0818 10:58:39.687376  3083 net.cpp:128] Creating Layer Convolution42
I0818 10:58:39.687391  3083 net.cpp:558] Convolution42 <- Eltwise19_ReLU39_0_split_0
I0818 10:58:39.687418  3083 net.cpp:522] Convolution42 -> Convolution42
I0818 10:58:39.697984  3083 net.cpp:172] Setting up Convolution42
I0818 10:58:39.698011  3083 net.cpp:186] Top shape: 10 64 8 8 (40960)
I0818 10:58:39.698016  3083 net.cpp:194] Memory required for data: 104816760
I0818 10:58:39.698029  3083 layer_factory.hpp:77] Creating layer BatchNorm42
I0818 10:58:39.698040  3083 net.cpp:128] Creating Layer BatchNorm42
I0818 10:58:39.698045  3083 net.cpp:558] BatchNorm42 <- Convolution42
I0818 10:58:39.698055  3083 net.cpp:509] BatchNorm42 -> Convolution42 (in-place)
I0818 10:58:39.698300  3083 net.cpp:172] Setting up BatchNorm42
I0818 10:58:39.698345  3083 net.cpp:186] Top shape: 10 64 8 8 (40960)
I0818 10:58:39.698370  3083 net.cpp:194] Memory required for data: 104980600
I0818 10:58:39.698398  3083 layer_factory.hpp:77] Creating layer Scale42
I0818 10:58:39.698420  3083 net.cpp:128] Creating Layer Scale42
I0818 10:58:39.698434  3083 net.cpp:558] Scale42 <- Convolution42
I0818 10:58:39.698451  3083 net.cpp:509] Scale42 -> Convolution42 (in-place)
I0818 10:58:39.698516  3083 layer_factory.hpp:77] Creating layer Scale42
I0818 10:58:39.698678  3083 net.cpp:172] Setting up Scale42
I0818 10:58:39.698704  3083 net.cpp:186] Top shape: 10 64 8 8 (40960)
I0818 10:58:39.698717  3083 net.cpp:194] Memory required for data: 105144440
I0818 10:58:39.698740  3083 layer_factory.hpp:77] Creating layer ReLU40
I0818 10:58:39.698761  3083 net.cpp:128] Creating Layer ReLU40
I0818 10:58:39.698776  3083 net.cpp:558] ReLU40 <- Convolution42
I0818 10:58:39.698794  3083 net.cpp:509] ReLU40 -> Convolution42 (in-place)
I0818 10:58:39.699812  3083 net.cpp:172] Setting up ReLU40
I0818 10:58:39.699832  3083 net.cpp:186] Top shape: 10 64 8 8 (40960)
I0818 10:58:39.699838  3083 net.cpp:194] Memory required for data: 105308280
I0818 10:58:39.699843  3083 layer_factory.hpp:77] Creating layer Convolution43
I0818 10:58:39.699857  3083 net.cpp:128] Creating Layer Convolution43
I0818 10:58:39.699863  3083 net.cpp:558] Convolution43 <- Convolution42
I0818 10:58:39.699874  3083 net.cpp:522] Convolution43 -> Convolution43
I0818 10:58:39.706647  3083 net.cpp:172] Setting up Convolution43
I0818 10:58:39.706688  3083 net.cpp:186] Top shape: 10 64 8 8 (40960)
I0818 10:58:39.706692  3083 net.cpp:194] Memory required for data: 105472120
I0818 10:58:39.706706  3083 layer_factory.hpp:77] Creating layer BatchNorm43
I0818 10:58:39.706717  3083 net.cpp:128] Creating Layer BatchNorm43
I0818 10:58:39.706722  3083 net.cpp:558] BatchNorm43 <- Convolution43
I0818 10:58:39.706728  3083 net.cpp:509] BatchNorm43 -> Convolution43 (in-place)
I0818 10:58:39.706964  3083 net.cpp:172] Setting up BatchNorm43
I0818 10:58:39.707002  3083 net.cpp:186] Top shape: 10 64 8 8 (40960)
I0818 10:58:39.707016  3083 net.cpp:194] Memory required for data: 105635960
I0818 10:58:39.707037  3083 layer_factory.hpp:77] Creating layer Scale43
I0818 10:58:39.707054  3083 net.cpp:128] Creating Layer Scale43
I0818 10:58:39.707073  3083 net.cpp:558] Scale43 <- Convolution43
I0818 10:58:39.707092  3083 net.cpp:509] Scale43 -> Convolution43 (in-place)
I0818 10:58:39.707164  3083 layer_factory.hpp:77] Creating layer Scale43
I0818 10:58:39.707319  3083 net.cpp:172] Setting up Scale43
I0818 10:58:39.707342  3083 net.cpp:186] Top shape: 10 64 8 8 (40960)
I0818 10:58:39.707360  3083 net.cpp:194] Memory required for data: 105799800
I0818 10:58:39.707381  3083 layer_factory.hpp:77] Creating layer Eltwise20
I0818 10:58:39.707401  3083 net.cpp:128] Creating Layer Eltwise20
I0818 10:58:39.707419  3083 net.cpp:558] Eltwise20 <- Eltwise19_ReLU39_0_split_1
I0818 10:58:39.707435  3083 net.cpp:558] Eltwise20 <- Convolution43
I0818 10:58:39.707454  3083 net.cpp:522] Eltwise20 -> Eltwise20
I0818 10:58:39.707511  3083 net.cpp:172] Setting up Eltwise20
I0818 10:58:39.707536  3083 net.cpp:186] Top shape: 10 64 8 8 (40960)
I0818 10:58:39.707554  3083 net.cpp:194] Memory required for data: 105963640
I0818 10:58:39.707571  3083 layer_factory.hpp:77] Creating layer ReLU41
I0818 10:58:39.707592  3083 net.cpp:128] Creating Layer ReLU41
I0818 10:58:39.707615  3083 net.cpp:558] ReLU41 <- Eltwise20
I0818 10:58:39.707634  3083 net.cpp:509] ReLU41 -> Eltwise20 (in-place)
I0818 10:58:39.708797  3083 net.cpp:172] Setting up ReLU41
I0818 10:58:39.708837  3083 net.cpp:186] Top shape: 10 64 8 8 (40960)
I0818 10:58:39.708851  3083 net.cpp:194] Memory required for data: 106127480
I0818 10:58:39.708866  3083 layer_factory.hpp:77] Creating layer Eltwise20_ReLU41_0_split
I0818 10:58:39.708884  3083 net.cpp:128] Creating Layer Eltwise20_ReLU41_0_split
I0818 10:58:39.708902  3083 net.cpp:558] Eltwise20_ReLU41_0_split <- Eltwise20
I0818 10:58:39.708925  3083 net.cpp:522] Eltwise20_ReLU41_0_split -> Eltwise20_ReLU41_0_split_0
I0818 10:58:39.708961  3083 net.cpp:522] Eltwise20_ReLU41_0_split -> Eltwise20_ReLU41_0_split_1
I0818 10:58:39.709025  3083 net.cpp:172] Setting up Eltwise20_ReLU41_0_split
I0818 10:58:39.709048  3083 net.cpp:186] Top shape: 10 64 8 8 (40960)
I0818 10:58:39.709066  3083 net.cpp:186] Top shape: 10 64 8 8 (40960)
I0818 10:58:39.709084  3083 net.cpp:194] Memory required for data: 106455160
I0818 10:58:39.709100  3083 layer_factory.hpp:77] Creating layer Convolution44
I0818 10:58:39.709128  3083 net.cpp:128] Creating Layer Convolution44
I0818 10:58:39.709164  3083 net.cpp:558] Convolution44 <- Eltwise20_ReLU41_0_split_0
I0818 10:58:39.709185  3083 net.cpp:522] Convolution44 -> Convolution44
I0818 10:58:39.719035  3083 net.cpp:172] Setting up Convolution44
I0818 10:58:39.719061  3083 net.cpp:186] Top shape: 10 64 8 8 (40960)
I0818 10:58:39.719066  3083 net.cpp:194] Memory required for data: 106619000
I0818 10:58:39.719079  3083 layer_factory.hpp:77] Creating layer BatchNorm44
I0818 10:58:39.719115  3083 net.cpp:128] Creating Layer BatchNorm44
I0818 10:58:39.719131  3083 net.cpp:558] BatchNorm44 <- Convolution44
I0818 10:58:39.719154  3083 net.cpp:509] BatchNorm44 -> Convolution44 (in-place)
I0818 10:58:39.719418  3083 net.cpp:172] Setting up BatchNorm44
I0818 10:58:39.719429  3083 net.cpp:186] Top shape: 10 64 8 8 (40960)
I0818 10:58:39.719434  3083 net.cpp:194] Memory required for data: 106782840
I0818 10:58:39.719444  3083 layer_factory.hpp:77] Creating layer Scale44
I0818 10:58:39.719486  3083 net.cpp:128] Creating Layer Scale44
I0818 10:58:39.719503  3083 net.cpp:558] Scale44 <- Convolution44
I0818 10:58:39.719524  3083 net.cpp:509] Scale44 -> Convolution44 (in-place)
I0818 10:58:39.719585  3083 layer_factory.hpp:77] Creating layer Scale44
I0818 10:58:39.719748  3083 net.cpp:172] Setting up Scale44
I0818 10:58:39.719760  3083 net.cpp:186] Top shape: 10 64 8 8 (40960)
I0818 10:58:39.719764  3083 net.cpp:194] Memory required for data: 106946680
I0818 10:58:39.719790  3083 layer_factory.hpp:77] Creating layer ReLU42
I0818 10:58:39.719818  3083 net.cpp:128] Creating Layer ReLU42
I0818 10:58:39.719835  3083 net.cpp:558] ReLU42 <- Convolution44
I0818 10:58:39.719854  3083 net.cpp:509] ReLU42 -> Convolution44 (in-place)
I0818 10:58:39.721928  3083 net.cpp:172] Setting up ReLU42
I0818 10:58:39.721951  3083 net.cpp:186] Top shape: 10 64 8 8 (40960)
I0818 10:58:39.721956  3083 net.cpp:194] Memory required for data: 107110520
I0818 10:58:39.721961  3083 layer_factory.hpp:77] Creating layer Convolution45
I0818 10:58:39.721976  3083 net.cpp:128] Creating Layer Convolution45
I0818 10:58:39.721985  3083 net.cpp:558] Convolution45 <- Convolution44
I0818 10:58:39.721993  3083 net.cpp:522] Convolution45 -> Convolution45
I0818 10:58:39.733940  3083 net.cpp:172] Setting up Convolution45
I0818 10:58:39.733968  3083 net.cpp:186] Top shape: 10 64 8 8 (40960)
I0818 10:58:39.733971  3083 net.cpp:194] Memory required for data: 107274360
I0818 10:58:39.733981  3083 layer_factory.hpp:77] Creating layer BatchNorm45
I0818 10:58:39.733992  3083 net.cpp:128] Creating Layer BatchNorm45
I0818 10:58:39.733999  3083 net.cpp:558] BatchNorm45 <- Convolution45
I0818 10:58:39.734007  3083 net.cpp:509] BatchNorm45 -> Convolution45 (in-place)
I0818 10:58:39.734241  3083 net.cpp:172] Setting up BatchNorm45
I0818 10:58:39.734253  3083 net.cpp:186] Top shape: 10 64 8 8 (40960)
I0818 10:58:39.734257  3083 net.cpp:194] Memory required for data: 107438200
I0818 10:58:39.734267  3083 layer_factory.hpp:77] Creating layer Scale45
I0818 10:58:39.734277  3083 net.cpp:128] Creating Layer Scale45
I0818 10:58:39.734282  3083 net.cpp:558] Scale45 <- Convolution45
I0818 10:58:39.734288  3083 net.cpp:509] Scale45 -> Convolution45 (in-place)
I0818 10:58:39.734333  3083 layer_factory.hpp:77] Creating layer Scale45
I0818 10:58:39.734472  3083 net.cpp:172] Setting up Scale45
I0818 10:58:39.734478  3083 net.cpp:186] Top shape: 10 64 8 8 (40960)
I0818 10:58:39.734483  3083 net.cpp:194] Memory required for data: 107602040
I0818 10:58:39.734489  3083 layer_factory.hpp:77] Creating layer Eltwise21
I0818 10:58:39.734515  3083 net.cpp:128] Creating Layer Eltwise21
I0818 10:58:39.734522  3083 net.cpp:558] Eltwise21 <- Eltwise20_ReLU41_0_split_1
I0818 10:58:39.734529  3083 net.cpp:558] Eltwise21 <- Convolution45
I0818 10:58:39.734534  3083 net.cpp:522] Eltwise21 -> Eltwise21
I0818 10:58:39.734561  3083 net.cpp:172] Setting up Eltwise21
I0818 10:58:39.734568  3083 net.cpp:186] Top shape: 10 64 8 8 (40960)
I0818 10:58:39.734572  3083 net.cpp:194] Memory required for data: 107765880
I0818 10:58:39.734576  3083 layer_factory.hpp:77] Creating layer ReLU43
I0818 10:58:39.734582  3083 net.cpp:128] Creating Layer ReLU43
I0818 10:58:39.734587  3083 net.cpp:558] ReLU43 <- Eltwise21
I0818 10:58:39.734592  3083 net.cpp:509] ReLU43 -> Eltwise21 (in-place)
I0818 10:58:39.737689  3083 net.cpp:172] Setting up ReLU43
I0818 10:58:39.737716  3083 net.cpp:186] Top shape: 10 64 8 8 (40960)
I0818 10:58:39.737721  3083 net.cpp:194] Memory required for data: 107929720
I0818 10:58:39.737726  3083 layer_factory.hpp:77] Creating layer Eltwise21_ReLU43_0_split
I0818 10:58:39.737735  3083 net.cpp:128] Creating Layer Eltwise21_ReLU43_0_split
I0818 10:58:39.737740  3083 net.cpp:558] Eltwise21_ReLU43_0_split <- Eltwise21
I0818 10:58:39.737749  3083 net.cpp:522] Eltwise21_ReLU43_0_split -> Eltwise21_ReLU43_0_split_0
I0818 10:58:39.737759  3083 net.cpp:522] Eltwise21_ReLU43_0_split -> Eltwise21_ReLU43_0_split_1
I0818 10:58:39.737809  3083 net.cpp:172] Setting up Eltwise21_ReLU43_0_split
I0818 10:58:39.737823  3083 net.cpp:186] Top shape: 10 64 8 8 (40960)
I0818 10:58:39.737828  3083 net.cpp:186] Top shape: 10 64 8 8 (40960)
I0818 10:58:39.737831  3083 net.cpp:194] Memory required for data: 108257400
I0818 10:58:39.737836  3083 layer_factory.hpp:77] Creating layer Convolution46
I0818 10:58:39.737850  3083 net.cpp:128] Creating Layer Convolution46
I0818 10:58:39.737855  3083 net.cpp:558] Convolution46 <- Eltwise21_ReLU43_0_split_0
I0818 10:58:39.737864  3083 net.cpp:522] Convolution46 -> Convolution46
I0818 10:58:39.744850  3083 net.cpp:172] Setting up Convolution46
I0818 10:58:39.744876  3083 net.cpp:186] Top shape: 10 64 8 8 (40960)
I0818 10:58:39.744881  3083 net.cpp:194] Memory required for data: 108421240
I0818 10:58:39.744892  3083 layer_factory.hpp:77] Creating layer BatchNorm46
I0818 10:58:39.744900  3083 net.cpp:128] Creating Layer BatchNorm46
I0818 10:58:39.744906  3083 net.cpp:558] BatchNorm46 <- Convolution46
I0818 10:58:39.744915  3083 net.cpp:509] BatchNorm46 -> Convolution46 (in-place)
I0818 10:58:39.745165  3083 net.cpp:172] Setting up BatchNorm46
I0818 10:58:39.745177  3083 net.cpp:186] Top shape: 10 64 8 8 (40960)
I0818 10:58:39.745182  3083 net.cpp:194] Memory required for data: 108585080
I0818 10:58:39.745190  3083 layer_factory.hpp:77] Creating layer Scale46
I0818 10:58:39.745199  3083 net.cpp:128] Creating Layer Scale46
I0818 10:58:39.745203  3083 net.cpp:558] Scale46 <- Convolution46
I0818 10:58:39.745209  3083 net.cpp:509] Scale46 -> Convolution46 (in-place)
I0818 10:58:39.745255  3083 layer_factory.hpp:77] Creating layer Scale46
I0818 10:58:39.745393  3083 net.cpp:172] Setting up Scale46
I0818 10:58:39.745400  3083 net.cpp:186] Top shape: 10 64 8 8 (40960)
I0818 10:58:39.745404  3083 net.cpp:194] Memory required for data: 108748920
I0818 10:58:39.745412  3083 layer_factory.hpp:77] Creating layer ReLU44
I0818 10:58:39.745420  3083 net.cpp:128] Creating Layer ReLU44
I0818 10:58:39.745425  3083 net.cpp:558] ReLU44 <- Convolution46
I0818 10:58:39.745430  3083 net.cpp:509] ReLU44 -> Convolution46 (in-place)
I0818 10:58:39.746659  3083 net.cpp:172] Setting up ReLU44
I0818 10:58:39.746680  3083 net.cpp:186] Top shape: 10 64 8 8 (40960)
I0818 10:58:39.746685  3083 net.cpp:194] Memory required for data: 108912760
I0818 10:58:39.746690  3083 layer_factory.hpp:77] Creating layer Convolution47
I0818 10:58:39.746703  3083 net.cpp:128] Creating Layer Convolution47
I0818 10:58:39.746708  3083 net.cpp:558] Convolution47 <- Convolution46
I0818 10:58:39.746716  3083 net.cpp:522] Convolution47 -> Convolution47
I0818 10:58:39.753584  3083 net.cpp:172] Setting up Convolution47
I0818 10:58:39.753609  3083 net.cpp:186] Top shape: 10 64 8 8 (40960)
I0818 10:58:39.753614  3083 net.cpp:194] Memory required for data: 109076600
I0818 10:58:39.753626  3083 layer_factory.hpp:77] Creating layer BatchNorm47
I0818 10:58:39.753635  3083 net.cpp:128] Creating Layer BatchNorm47
I0818 10:58:39.753674  3083 net.cpp:558] BatchNorm47 <- Convolution47
I0818 10:58:39.753688  3083 net.cpp:509] BatchNorm47 -> Convolution47 (in-place)
I0818 10:58:39.753945  3083 net.cpp:172] Setting up BatchNorm47
I0818 10:58:39.753957  3083 net.cpp:186] Top shape: 10 64 8 8 (40960)
I0818 10:58:39.753960  3083 net.cpp:194] Memory required for data: 109240440
I0818 10:58:39.753971  3083 layer_factory.hpp:77] Creating layer Scale47
I0818 10:58:39.754004  3083 net.cpp:128] Creating Layer Scale47
I0818 10:58:39.754011  3083 net.cpp:558] Scale47 <- Convolution47
I0818 10:58:39.754017  3083 net.cpp:509] Scale47 -> Convolution47 (in-place)
I0818 10:58:39.754071  3083 layer_factory.hpp:77] Creating layer Scale47
I0818 10:58:39.754218  3083 net.cpp:172] Setting up Scale47
I0818 10:58:39.754228  3083 net.cpp:186] Top shape: 10 64 8 8 (40960)
I0818 10:58:39.754251  3083 net.cpp:194] Memory required for data: 109404280
I0818 10:58:39.754266  3083 layer_factory.hpp:77] Creating layer Eltwise22
I0818 10:58:39.754277  3083 net.cpp:128] Creating Layer Eltwise22
I0818 10:58:39.754285  3083 net.cpp:558] Eltwise22 <- Eltwise21_ReLU43_0_split_1
I0818 10:58:39.754292  3083 net.cpp:558] Eltwise22 <- Convolution47
I0818 10:58:39.754302  3083 net.cpp:522] Eltwise22 -> Eltwise22
I0818 10:58:39.754335  3083 net.cpp:172] Setting up Eltwise22
I0818 10:58:39.754345  3083 net.cpp:186] Top shape: 10 64 8 8 (40960)
I0818 10:58:39.754369  3083 net.cpp:194] Memory required for data: 109568120
I0818 10:58:39.754376  3083 layer_factory.hpp:77] Creating layer ReLU45
I0818 10:58:39.754415  3083 net.cpp:128] Creating Layer ReLU45
I0818 10:58:39.754423  3083 net.cpp:558] ReLU45 <- Eltwise22
I0818 10:58:39.754433  3083 net.cpp:509] ReLU45 -> Eltwise22 (in-place)
I0818 10:58:39.755707  3083 net.cpp:172] Setting up ReLU45
I0818 10:58:39.755744  3083 net.cpp:186] Top shape: 10 64 8 8 (40960)
I0818 10:58:39.755761  3083 net.cpp:194] Memory required for data: 109731960
I0818 10:58:39.755779  3083 layer_factory.hpp:77] Creating layer Eltwise22_ReLU45_0_split
I0818 10:58:39.755800  3083 net.cpp:128] Creating Layer Eltwise22_ReLU45_0_split
I0818 10:58:39.755818  3083 net.cpp:558] Eltwise22_ReLU45_0_split <- Eltwise22
I0818 10:58:39.755836  3083 net.cpp:522] Eltwise22_ReLU45_0_split -> Eltwise22_ReLU45_0_split_0
I0818 10:58:39.755858  3083 net.cpp:522] Eltwise22_ReLU45_0_split -> Eltwise22_ReLU45_0_split_1
I0818 10:58:39.755924  3083 net.cpp:172] Setting up Eltwise22_ReLU45_0_split
I0818 10:58:39.755944  3083 net.cpp:186] Top shape: 10 64 8 8 (40960)
I0818 10:58:39.755959  3083 net.cpp:186] Top shape: 10 64 8 8 (40960)
I0818 10:58:39.755972  3083 net.cpp:194] Memory required for data: 110059640
I0818 10:58:39.755990  3083 layer_factory.hpp:77] Creating layer Convolution48
I0818 10:58:39.756012  3083 net.cpp:128] Creating Layer Convolution48
I0818 10:58:39.756027  3083 net.cpp:558] Convolution48 <- Eltwise22_ReLU45_0_split_0
I0818 10:58:39.756047  3083 net.cpp:522] Convolution48 -> Convolution48
I0818 10:58:39.765805  3083 net.cpp:172] Setting up Convolution48
I0818 10:58:39.765831  3083 net.cpp:186] Top shape: 10 64 8 8 (40960)
I0818 10:58:39.765836  3083 net.cpp:194] Memory required for data: 110223480
I0818 10:58:39.765847  3083 layer_factory.hpp:77] Creating layer BatchNorm48
I0818 10:58:39.765859  3083 net.cpp:128] Creating Layer BatchNorm48
I0818 10:58:39.765866  3083 net.cpp:558] BatchNorm48 <- Convolution48
I0818 10:58:39.765874  3083 net.cpp:509] BatchNorm48 -> Convolution48 (in-place)
I0818 10:58:39.766163  3083 net.cpp:172] Setting up BatchNorm48
I0818 10:58:39.766175  3083 net.cpp:186] Top shape: 10 64 8 8 (40960)
I0818 10:58:39.766180  3083 net.cpp:194] Memory required for data: 110387320
I0818 10:58:39.766223  3083 layer_factory.hpp:77] Creating layer Scale48
I0818 10:58:39.766247  3083 net.cpp:128] Creating Layer Scale48
I0818 10:58:39.766263  3083 net.cpp:558] Scale48 <- Convolution48
I0818 10:58:39.766283  3083 net.cpp:509] Scale48 -> Convolution48 (in-place)
I0818 10:58:39.766397  3083 layer_factory.hpp:77] Creating layer Scale48
I0818 10:58:39.766568  3083 net.cpp:172] Setting up Scale48
I0818 10:58:39.766580  3083 net.cpp:186] Top shape: 10 64 8 8 (40960)
I0818 10:58:39.766585  3083 net.cpp:194] Memory required for data: 110551160
I0818 10:58:39.766593  3083 layer_factory.hpp:77] Creating layer ReLU46
I0818 10:58:39.766619  3083 net.cpp:128] Creating Layer ReLU46
I0818 10:58:39.766634  3083 net.cpp:558] ReLU46 <- Convolution48
I0818 10:58:39.766677  3083 net.cpp:509] ReLU46 -> Convolution48 (in-place)
I0818 10:58:39.767581  3083 net.cpp:172] Setting up ReLU46
I0818 10:58:39.767607  3083 net.cpp:186] Top shape: 10 64 8 8 (40960)
I0818 10:58:39.767611  3083 net.cpp:194] Memory required for data: 110715000
I0818 10:58:39.767616  3083 layer_factory.hpp:77] Creating layer Convolution49
I0818 10:58:39.767632  3083 net.cpp:128] Creating Layer Convolution49
I0818 10:58:39.767666  3083 net.cpp:558] Convolution49 <- Convolution48
I0818 10:58:39.767688  3083 net.cpp:522] Convolution49 -> Convolution49
I0818 10:58:39.773996  3083 net.cpp:172] Setting up Convolution49
I0818 10:58:39.774024  3083 net.cpp:186] Top shape: 10 64 8 8 (40960)
I0818 10:58:39.774029  3083 net.cpp:194] Memory required for data: 110878840
I0818 10:58:39.774039  3083 layer_factory.hpp:77] Creating layer BatchNorm49
I0818 10:58:39.774047  3083 net.cpp:128] Creating Layer BatchNorm49
I0818 10:58:39.774052  3083 net.cpp:558] BatchNorm49 <- Convolution49
I0818 10:58:39.774060  3083 net.cpp:509] BatchNorm49 -> Convolution49 (in-place)
I0818 10:58:39.774294  3083 net.cpp:172] Setting up BatchNorm49
I0818 10:58:39.774333  3083 net.cpp:186] Top shape: 10 64 8 8 (40960)
I0818 10:58:39.774345  3083 net.cpp:194] Memory required for data: 111042680
I0818 10:58:39.774366  3083 layer_factory.hpp:77] Creating layer Scale49
I0818 10:58:39.774384  3083 net.cpp:128] Creating Layer Scale49
I0818 10:58:39.774401  3083 net.cpp:558] Scale49 <- Convolution49
I0818 10:58:39.774421  3083 net.cpp:509] Scale49 -> Convolution49 (in-place)
I0818 10:58:39.774484  3083 layer_factory.hpp:77] Creating layer Scale49
I0818 10:58:39.774643  3083 net.cpp:172] Setting up Scale49
I0818 10:58:39.774675  3083 net.cpp:186] Top shape: 10 64 8 8 (40960)
I0818 10:58:39.774689  3083 net.cpp:194] Memory required for data: 111206520
I0818 10:58:39.774708  3083 layer_factory.hpp:77] Creating layer Eltwise23
I0818 10:58:39.774729  3083 net.cpp:128] Creating Layer Eltwise23
I0818 10:58:39.774744  3083 net.cpp:558] Eltwise23 <- Eltwise22_ReLU45_0_split_1
I0818 10:58:39.774758  3083 net.cpp:558] Eltwise23 <- Convolution49
I0818 10:58:39.774777  3083 net.cpp:522] Eltwise23 -> Eltwise23
I0818 10:58:39.774824  3083 net.cpp:172] Setting up Eltwise23
I0818 10:58:39.774842  3083 net.cpp:186] Top shape: 10 64 8 8 (40960)
I0818 10:58:39.774855  3083 net.cpp:194] Memory required for data: 111370360
I0818 10:58:39.774869  3083 layer_factory.hpp:77] Creating layer ReLU47
I0818 10:58:39.774886  3083 net.cpp:128] Creating Layer ReLU47
I0818 10:58:39.774900  3083 net.cpp:558] ReLU47 <- Eltwise23
I0818 10:58:39.774915  3083 net.cpp:509] ReLU47 -> Eltwise23 (in-place)
I0818 10:58:39.775255  3083 net.cpp:172] Setting up ReLU47
I0818 10:58:39.775290  3083 net.cpp:186] Top shape: 10 64 8 8 (40960)
I0818 10:58:39.775305  3083 net.cpp:194] Memory required for data: 111534200
I0818 10:58:39.775319  3083 layer_factory.hpp:77] Creating layer Eltwise23_ReLU47_0_split
I0818 10:58:39.775338  3083 net.cpp:128] Creating Layer Eltwise23_ReLU47_0_split
I0818 10:58:39.775353  3083 net.cpp:558] Eltwise23_ReLU47_0_split <- Eltwise23
I0818 10:58:39.775373  3083 net.cpp:522] Eltwise23_ReLU47_0_split -> Eltwise23_ReLU47_0_split_0
I0818 10:58:39.775393  3083 net.cpp:522] Eltwise23_ReLU47_0_split -> Eltwise23_ReLU47_0_split_1
I0818 10:58:39.775468  3083 net.cpp:172] Setting up Eltwise23_ReLU47_0_split
I0818 10:58:39.775504  3083 net.cpp:186] Top shape: 10 64 8 8 (40960)
I0818 10:58:39.775521  3083 net.cpp:186] Top shape: 10 64 8 8 (40960)
I0818 10:58:39.775537  3083 net.cpp:194] Memory required for data: 111861880
I0818 10:58:39.775554  3083 layer_factory.hpp:77] Creating layer Convolution50
I0818 10:58:39.775578  3083 net.cpp:128] Creating Layer Convolution50
I0818 10:58:39.775591  3083 net.cpp:558] Convolution50 <- Eltwise23_ReLU47_0_split_0
I0818 10:58:39.775609  3083 net.cpp:522] Convolution50 -> Convolution50
I0818 10:58:39.778523  3083 net.cpp:172] Setting up Convolution50
I0818 10:58:39.778573  3083 net.cpp:186] Top shape: 10 64 8 8 (40960)
I0818 10:58:39.778592  3083 net.cpp:194] Memory required for data: 112025720
I0818 10:58:39.778614  3083 layer_factory.hpp:77] Creating layer BatchNorm50
I0818 10:58:39.778631  3083 net.cpp:128] Creating Layer BatchNorm50
I0818 10:58:39.778646  3083 net.cpp:558] BatchNorm50 <- Convolution50
I0818 10:58:39.778684  3083 net.cpp:509] BatchNorm50 -> Convolution50 (in-place)
I0818 10:58:39.778959  3083 net.cpp:172] Setting up BatchNorm50
I0818 10:58:39.778982  3083 net.cpp:186] Top shape: 10 64 8 8 (40960)
I0818 10:58:39.778995  3083 net.cpp:194] Memory required for data: 112189560
I0818 10:58:39.779016  3083 layer_factory.hpp:77] Creating layer Scale50
I0818 10:58:39.779032  3083 net.cpp:128] Creating Layer Scale50
I0818 10:58:39.779047  3083 net.cpp:558] Scale50 <- Convolution50
I0818 10:58:39.779067  3083 net.cpp:509] Scale50 -> Convolution50 (in-place)
I0818 10:58:39.779130  3083 layer_factory.hpp:77] Creating layer Scale50
I0818 10:58:39.779305  3083 net.cpp:172] Setting up Scale50
I0818 10:58:39.779326  3083 net.cpp:186] Top shape: 10 64 8 8 (40960)
I0818 10:58:39.779340  3083 net.cpp:194] Memory required for data: 112353400
I0818 10:58:39.779358  3083 layer_factory.hpp:77] Creating layer ReLU48
I0818 10:58:39.779376  3083 net.cpp:128] Creating Layer ReLU48
I0818 10:58:39.779390  3083 net.cpp:558] ReLU48 <- Convolution50
I0818 10:58:39.779405  3083 net.cpp:509] ReLU48 -> Convolution50 (in-place)
I0818 10:58:39.779692  3083 net.cpp:172] Setting up ReLU48
I0818 10:58:39.779727  3083 net.cpp:186] Top shape: 10 64 8 8 (40960)
I0818 10:58:39.779742  3083 net.cpp:194] Memory required for data: 112517240
I0818 10:58:39.779757  3083 layer_factory.hpp:77] Creating layer Convolution51
I0818 10:58:39.779798  3083 net.cpp:128] Creating Layer Convolution51
I0818 10:58:39.779815  3083 net.cpp:558] Convolution51 <- Convolution50
I0818 10:58:39.779839  3083 net.cpp:522] Convolution51 -> Convolution51
I0818 10:58:39.782160  3083 net.cpp:172] Setting up Convolution51
I0818 10:58:39.782205  3083 net.cpp:186] Top shape: 10 64 8 8 (40960)
I0818 10:58:39.782214  3083 net.cpp:194] Memory required for data: 112681080
I0818 10:58:39.782227  3083 layer_factory.hpp:77] Creating layer BatchNorm51
I0818 10:58:39.782238  3083 net.cpp:128] Creating Layer BatchNorm51
I0818 10:58:39.782248  3083 net.cpp:558] BatchNorm51 <- Convolution51
I0818 10:58:39.782258  3083 net.cpp:509] BatchNorm51 -> Convolution51 (in-place)
I0818 10:58:39.782515  3083 net.cpp:172] Setting up BatchNorm51
I0818 10:58:39.782524  3083 net.cpp:186] Top shape: 10 64 8 8 (40960)
I0818 10:58:39.782529  3083 net.cpp:194] Memory required for data: 112844920
I0818 10:58:39.782541  3083 layer_factory.hpp:77] Creating layer Scale51
I0818 10:58:39.782549  3083 net.cpp:128] Creating Layer Scale51
I0818 10:58:39.782553  3083 net.cpp:558] Scale51 <- Convolution51
I0818 10:58:39.782562  3083 net.cpp:509] Scale51 -> Convolution51 (in-place)
I0818 10:58:39.782608  3083 layer_factory.hpp:77] Creating layer Scale51
I0818 10:58:39.782763  3083 net.cpp:172] Setting up Scale51
I0818 10:58:39.782773  3083 net.cpp:186] Top shape: 10 64 8 8 (40960)
I0818 10:58:39.782781  3083 net.cpp:194] Memory required for data: 113008760
I0818 10:58:39.782789  3083 layer_factory.hpp:77] Creating layer Eltwise24
I0818 10:58:39.782799  3083 net.cpp:128] Creating Layer Eltwise24
I0818 10:58:39.782806  3083 net.cpp:558] Eltwise24 <- Eltwise23_ReLU47_0_split_1
I0818 10:58:39.782829  3083 net.cpp:558] Eltwise24 <- Convolution51
I0818 10:58:39.782840  3083 net.cpp:522] Eltwise24 -> Eltwise24
I0818 10:58:39.782871  3083 net.cpp:172] Setting up Eltwise24
I0818 10:58:39.782881  3083 net.cpp:186] Top shape: 10 64 8 8 (40960)
I0818 10:58:39.782886  3083 net.cpp:194] Memory required for data: 113172600
I0818 10:58:39.782891  3083 layer_factory.hpp:77] Creating layer ReLU49
I0818 10:58:39.782899  3083 net.cpp:128] Creating Layer ReLU49
I0818 10:58:39.782905  3083 net.cpp:558] ReLU49 <- Eltwise24
I0818 10:58:39.782912  3083 net.cpp:509] ReLU49 -> Eltwise24 (in-place)
I0818 10:58:39.783516  3083 net.cpp:172] Setting up ReLU49
I0818 10:58:39.783541  3083 net.cpp:186] Top shape: 10 64 8 8 (40960)
I0818 10:58:39.783545  3083 net.cpp:194] Memory required for data: 113336440
I0818 10:58:39.783550  3083 layer_factory.hpp:77] Creating layer Eltwise24_ReLU49_0_split
I0818 10:58:39.783560  3083 net.cpp:128] Creating Layer Eltwise24_ReLU49_0_split
I0818 10:58:39.783568  3083 net.cpp:558] Eltwise24_ReLU49_0_split <- Eltwise24
I0818 10:58:39.783581  3083 net.cpp:522] Eltwise24_ReLU49_0_split -> Eltwise24_ReLU49_0_split_0
I0818 10:58:39.783591  3083 net.cpp:522] Eltwise24_ReLU49_0_split -> Eltwise24_ReLU49_0_split_1
I0818 10:58:39.783656  3083 net.cpp:172] Setting up Eltwise24_ReLU49_0_split
I0818 10:58:39.783666  3083 net.cpp:186] Top shape: 10 64 8 8 (40960)
I0818 10:58:39.783675  3083 net.cpp:186] Top shape: 10 64 8 8 (40960)
I0818 10:58:39.783680  3083 net.cpp:194] Memory required for data: 113664120
I0818 10:58:39.783685  3083 layer_factory.hpp:77] Creating layer Convolution52
I0818 10:58:39.783697  3083 net.cpp:128] Creating Layer Convolution52
I0818 10:58:39.783704  3083 net.cpp:558] Convolution52 <- Eltwise24_ReLU49_0_split_0
I0818 10:58:39.783715  3083 net.cpp:522] Convolution52 -> Convolution52
I0818 10:58:39.788594  3083 net.cpp:172] Setting up Convolution52
I0818 10:58:39.788616  3083 net.cpp:186] Top shape: 10 64 8 8 (40960)
I0818 10:58:39.788621  3083 net.cpp:194] Memory required for data: 113827960
I0818 10:58:39.788631  3083 layer_factory.hpp:77] Creating layer BatchNorm52
I0818 10:58:39.788643  3083 net.cpp:128] Creating Layer BatchNorm52
I0818 10:58:39.788648  3083 net.cpp:558] BatchNorm52 <- Convolution52
I0818 10:58:39.788655  3083 net.cpp:509] BatchNorm52 -> Convolution52 (in-place)
I0818 10:58:39.788928  3083 net.cpp:172] Setting up BatchNorm52
I0818 10:58:39.788939  3083 net.cpp:186] Top shape: 10 64 8 8 (40960)
I0818 10:58:39.788944  3083 net.cpp:194] Memory required for data: 113991800
I0818 10:58:39.788954  3083 layer_factory.hpp:77] Creating layer Scale52
I0818 10:58:39.788967  3083 net.cpp:128] Creating Layer Scale52
I0818 10:58:39.788972  3083 net.cpp:558] Scale52 <- Convolution52
I0818 10:58:39.788978  3083 net.cpp:509] Scale52 -> Convolution52 (in-place)
I0818 10:58:39.789026  3083 layer_factory.hpp:77] Creating layer Scale52
I0818 10:58:39.789238  3083 net.cpp:172] Setting up Scale52
I0818 10:58:39.789250  3083 net.cpp:186] Top shape: 10 64 8 8 (40960)
I0818 10:58:39.789254  3083 net.cpp:194] Memory required for data: 114155640
I0818 10:58:39.789263  3083 layer_factory.hpp:77] Creating layer ReLU50
I0818 10:58:39.789284  3083 net.cpp:128] Creating Layer ReLU50
I0818 10:58:39.789289  3083 net.cpp:558] ReLU50 <- Convolution52
I0818 10:58:39.789296  3083 net.cpp:509] ReLU50 -> Convolution52 (in-place)
I0818 10:58:39.790330  3083 net.cpp:172] Setting up ReLU50
I0818 10:58:39.790351  3083 net.cpp:186] Top shape: 10 64 8 8 (40960)
I0818 10:58:39.790355  3083 net.cpp:194] Memory required for data: 114319480
I0818 10:58:39.790361  3083 layer_factory.hpp:77] Creating layer Convolution53
I0818 10:58:39.790372  3083 net.cpp:128] Creating Layer Convolution53
I0818 10:58:39.790379  3083 net.cpp:558] Convolution53 <- Convolution52
I0818 10:58:39.790393  3083 net.cpp:522] Convolution53 -> Convolution53
I0818 10:58:39.795549  3083 net.cpp:172] Setting up Convolution53
I0818 10:58:39.795575  3083 net.cpp:186] Top shape: 10 64 8 8 (40960)
I0818 10:58:39.795595  3083 net.cpp:194] Memory required for data: 114483320
I0818 10:58:39.795606  3083 layer_factory.hpp:77] Creating layer BatchNorm53
I0818 10:58:39.795616  3083 net.cpp:128] Creating Layer BatchNorm53
I0818 10:58:39.795622  3083 net.cpp:558] BatchNorm53 <- Convolution53
I0818 10:58:39.795629  3083 net.cpp:509] BatchNorm53 -> Convolution53 (in-place)
I0818 10:58:39.795883  3083 net.cpp:172] Setting up BatchNorm53
I0818 10:58:39.795897  3083 net.cpp:186] Top shape: 10 64 8 8 (40960)
I0818 10:58:39.795902  3083 net.cpp:194] Memory required for data: 114647160
I0818 10:58:39.795912  3083 layer_factory.hpp:77] Creating layer Scale53
I0818 10:58:39.795918  3083 net.cpp:128] Creating Layer Scale53
I0818 10:58:39.795923  3083 net.cpp:558] Scale53 <- Convolution53
I0818 10:58:39.795933  3083 net.cpp:509] Scale53 -> Convolution53 (in-place)
I0818 10:58:39.795984  3083 layer_factory.hpp:77] Creating layer Scale53
I0818 10:58:39.796128  3083 net.cpp:172] Setting up Scale53
I0818 10:58:39.796140  3083 net.cpp:186] Top shape: 10 64 8 8 (40960)
I0818 10:58:39.796150  3083 net.cpp:194] Memory required for data: 114811000
I0818 10:58:39.796159  3083 layer_factory.hpp:77] Creating layer Eltwise25
I0818 10:58:39.796167  3083 net.cpp:128] Creating Layer Eltwise25
I0818 10:58:39.796176  3083 net.cpp:558] Eltwise25 <- Eltwise24_ReLU49_0_split_1
I0818 10:58:39.796182  3083 net.cpp:558] Eltwise25 <- Convolution53
I0818 10:58:39.796190  3083 net.cpp:522] Eltwise25 -> Eltwise25
I0818 10:58:39.796219  3083 net.cpp:172] Setting up Eltwise25
I0818 10:58:39.796233  3083 net.cpp:186] Top shape: 10 64 8 8 (40960)
I0818 10:58:39.796238  3083 net.cpp:194] Memory required for data: 114974840
I0818 10:58:39.796243  3083 layer_factory.hpp:77] Creating layer ReLU51
I0818 10:58:39.796252  3083 net.cpp:128] Creating Layer ReLU51
I0818 10:58:39.796258  3083 net.cpp:558] ReLU51 <- Eltwise25
I0818 10:58:39.796264  3083 net.cpp:509] ReLU51 -> Eltwise25 (in-place)
I0818 10:58:39.796578  3083 net.cpp:172] Setting up ReLU51
I0818 10:58:39.796595  3083 net.cpp:186] Top shape: 10 64 8 8 (40960)
I0818 10:58:39.796599  3083 net.cpp:194] Memory required for data: 115138680
I0818 10:58:39.796604  3083 layer_factory.hpp:77] Creating layer Eltwise25_ReLU51_0_split
I0818 10:58:39.796617  3083 net.cpp:128] Creating Layer Eltwise25_ReLU51_0_split
I0818 10:58:39.796625  3083 net.cpp:558] Eltwise25_ReLU51_0_split <- Eltwise25
I0818 10:58:39.796633  3083 net.cpp:522] Eltwise25_ReLU51_0_split -> Eltwise25_ReLU51_0_split_0
I0818 10:58:39.796643  3083 net.cpp:522] Eltwise25_ReLU51_0_split -> Eltwise25_ReLU51_0_split_1
I0818 10:58:39.796700  3083 net.cpp:172] Setting up Eltwise25_ReLU51_0_split
I0818 10:58:39.796710  3083 net.cpp:186] Top shape: 10 64 8 8 (40960)
I0818 10:58:39.796715  3083 net.cpp:186] Top shape: 10 64 8 8 (40960)
I0818 10:58:39.796721  3083 net.cpp:194] Memory required for data: 115466360
I0818 10:58:39.796725  3083 layer_factory.hpp:77] Creating layer Convolution54
I0818 10:58:39.796737  3083 net.cpp:128] Creating Layer Convolution54
I0818 10:58:39.796746  3083 net.cpp:558] Convolution54 <- Eltwise25_ReLU51_0_split_0
I0818 10:58:39.796754  3083 net.cpp:522] Convolution54 -> Convolution54
I0818 10:58:39.803886  3083 net.cpp:172] Setting up Convolution54
I0818 10:58:39.803917  3083 net.cpp:186] Top shape: 10 64 8 8 (40960)
I0818 10:58:39.803925  3083 net.cpp:194] Memory required for data: 115630200
I0818 10:58:39.803938  3083 layer_factory.hpp:77] Creating layer BatchNorm54
I0818 10:58:39.803949  3083 net.cpp:128] Creating Layer BatchNorm54
I0818 10:58:39.803954  3083 net.cpp:558] BatchNorm54 <- Convolution54
I0818 10:58:39.803964  3083 net.cpp:509] BatchNorm54 -> Convolution54 (in-place)
I0818 10:58:39.804237  3083 net.cpp:172] Setting up BatchNorm54
I0818 10:58:39.804247  3083 net.cpp:186] Top shape: 10 64 8 8 (40960)
I0818 10:58:39.804251  3083 net.cpp:194] Memory required for data: 115794040
I0818 10:58:39.804261  3083 layer_factory.hpp:77] Creating layer Scale54
I0818 10:58:39.804272  3083 net.cpp:128] Creating Layer Scale54
I0818 10:58:39.804277  3083 net.cpp:558] Scale54 <- Convolution54
I0818 10:58:39.804303  3083 net.cpp:509] Scale54 -> Convolution54 (in-place)
I0818 10:58:39.804355  3083 layer_factory.hpp:77] Creating layer Scale54
I0818 10:58:39.804560  3083 net.cpp:172] Setting up Scale54
I0818 10:58:39.804572  3083 net.cpp:186] Top shape: 10 64 8 8 (40960)
I0818 10:58:39.804577  3083 net.cpp:194] Memory required for data: 115957880
I0818 10:58:39.804585  3083 layer_factory.hpp:77] Creating layer ReLU52
I0818 10:58:39.804595  3083 net.cpp:128] Creating Layer ReLU52
I0818 10:58:39.804600  3083 net.cpp:558] ReLU52 <- Convolution54
I0818 10:58:39.804610  3083 net.cpp:509] ReLU52 -> Convolution54 (in-place)
I0818 10:58:39.807727  3083 net.cpp:172] Setting up ReLU52
I0818 10:58:39.807749  3083 net.cpp:186] Top shape: 10 64 8 8 (40960)
I0818 10:58:39.807754  3083 net.cpp:194] Memory required for data: 116121720
I0818 10:58:39.807760  3083 layer_factory.hpp:77] Creating layer Convolution55
I0818 10:58:39.807775  3083 net.cpp:128] Creating Layer Convolution55
I0818 10:58:39.807785  3083 net.cpp:558] Convolution55 <- Convolution54
I0818 10:58:39.807796  3083 net.cpp:522] Convolution55 -> Convolution55
I0818 10:58:39.817653  3083 net.cpp:172] Setting up Convolution55
I0818 10:58:39.817679  3083 net.cpp:186] Top shape: 10 64 8 8 (40960)
I0818 10:58:39.817684  3083 net.cpp:194] Memory required for data: 116285560
I0818 10:58:39.817694  3083 layer_factory.hpp:77] Creating layer BatchNorm55
I0818 10:58:39.817703  3083 net.cpp:128] Creating Layer BatchNorm55
I0818 10:58:39.817708  3083 net.cpp:558] BatchNorm55 <- Convolution55
I0818 10:58:39.817716  3083 net.cpp:509] BatchNorm55 -> Convolution55 (in-place)
I0818 10:58:39.817968  3083 net.cpp:172] Setting up BatchNorm55
I0818 10:58:39.817981  3083 net.cpp:186] Top shape: 10 64 8 8 (40960)
I0818 10:58:39.817986  3083 net.cpp:194] Memory required for data: 116449400
I0818 10:58:39.817996  3083 layer_factory.hpp:77] Creating layer Scale55
I0818 10:58:39.818004  3083 net.cpp:128] Creating Layer Scale55
I0818 10:58:39.818008  3083 net.cpp:558] Scale55 <- Convolution55
I0818 10:58:39.818014  3083 net.cpp:509] Scale55 -> Convolution55 (in-place)
I0818 10:58:39.818063  3083 layer_factory.hpp:77] Creating layer Scale55
I0818 10:58:39.818212  3083 net.cpp:172] Setting up Scale55
I0818 10:58:39.818220  3083 net.cpp:186] Top shape: 10 64 8 8 (40960)
I0818 10:58:39.818224  3083 net.cpp:194] Memory required for data: 116613240
I0818 10:58:39.818233  3083 layer_factory.hpp:77] Creating layer Eltwise26
I0818 10:58:39.818244  3083 net.cpp:128] Creating Layer Eltwise26
I0818 10:58:39.818250  3083 net.cpp:558] Eltwise26 <- Eltwise25_ReLU51_0_split_1
I0818 10:58:39.818256  3083 net.cpp:558] Eltwise26 <- Convolution55
I0818 10:58:39.818264  3083 net.cpp:522] Eltwise26 -> Eltwise26
I0818 10:58:39.818292  3083 net.cpp:172] Setting up Eltwise26
I0818 10:58:39.818305  3083 net.cpp:186] Top shape: 10 64 8 8 (40960)
I0818 10:58:39.818308  3083 net.cpp:194] Memory required for data: 116777080
I0818 10:58:39.818313  3083 layer_factory.hpp:77] Creating layer ReLU53
I0818 10:58:39.818322  3083 net.cpp:128] Creating Layer ReLU53
I0818 10:58:39.818327  3083 net.cpp:558] ReLU53 <- Eltwise26
I0818 10:58:39.818332  3083 net.cpp:509] ReLU53 -> Eltwise26 (in-place)
I0818 10:58:39.820104  3083 net.cpp:172] Setting up ReLU53
I0818 10:58:39.820130  3083 net.cpp:186] Top shape: 10 64 8 8 (40960)
I0818 10:58:39.820134  3083 net.cpp:194] Memory required for data: 116940920
I0818 10:58:39.820139  3083 layer_factory.hpp:77] Creating layer Eltwise26_ReLU53_0_split
I0818 10:58:39.820152  3083 net.cpp:128] Creating Layer Eltwise26_ReLU53_0_split
I0818 10:58:39.820158  3083 net.cpp:558] Eltwise26_ReLU53_0_split <- Eltwise26
I0818 10:58:39.820168  3083 net.cpp:522] Eltwise26_ReLU53_0_split -> Eltwise26_ReLU53_0_split_0
I0818 10:58:39.820178  3083 net.cpp:522] Eltwise26_ReLU53_0_split -> Eltwise26_ReLU53_0_split_1
I0818 10:58:39.820235  3083 net.cpp:172] Setting up Eltwise26_ReLU53_0_split
I0818 10:58:39.820243  3083 net.cpp:186] Top shape: 10 64 8 8 (40960)
I0818 10:58:39.820273  3083 net.cpp:186] Top shape: 10 64 8 8 (40960)
I0818 10:58:39.820277  3083 net.cpp:194] Memory required for data: 117268600
I0818 10:58:39.820281  3083 layer_factory.hpp:77] Creating layer Convolution56
I0818 10:58:39.820294  3083 net.cpp:128] Creating Layer Convolution56
I0818 10:58:39.820299  3083 net.cpp:558] Convolution56 <- Eltwise26_ReLU53_0_split_0
I0818 10:58:39.820307  3083 net.cpp:522] Convolution56 -> Convolution56
I0818 10:58:39.826967  3083 net.cpp:172] Setting up Convolution56
I0818 10:58:39.826988  3083 net.cpp:186] Top shape: 10 64 8 8 (40960)
I0818 10:58:39.826993  3083 net.cpp:194] Memory required for data: 117432440
I0818 10:58:39.827003  3083 layer_factory.hpp:77] Creating layer BatchNorm56
I0818 10:58:39.827015  3083 net.cpp:128] Creating Layer BatchNorm56
I0818 10:58:39.827025  3083 net.cpp:558] BatchNorm56 <- Convolution56
I0818 10:58:39.827035  3083 net.cpp:509] BatchNorm56 -> Convolution56 (in-place)
I0818 10:58:39.827306  3083 net.cpp:172] Setting up BatchNorm56
I0818 10:58:39.827316  3083 net.cpp:186] Top shape: 10 64 8 8 (40960)
I0818 10:58:39.827320  3083 net.cpp:194] Memory required for data: 117596280
I0818 10:58:39.827330  3083 layer_factory.hpp:77] Creating layer Scale56
I0818 10:58:39.827339  3083 net.cpp:128] Creating Layer Scale56
I0818 10:58:39.827344  3083 net.cpp:558] Scale56 <- Convolution56
I0818 10:58:39.827349  3083 net.cpp:509] Scale56 -> Convolution56 (in-place)
I0818 10:58:39.827399  3083 layer_factory.hpp:77] Creating layer Scale56
I0818 10:58:39.827603  3083 net.cpp:172] Setting up Scale56
I0818 10:58:39.827615  3083 net.cpp:186] Top shape: 10 64 8 8 (40960)
I0818 10:58:39.827620  3083 net.cpp:194] Memory required for data: 117760120
I0818 10:58:39.827627  3083 layer_factory.hpp:77] Creating layer ReLU54
I0818 10:58:39.827642  3083 net.cpp:128] Creating Layer ReLU54
I0818 10:58:39.827651  3083 net.cpp:558] ReLU54 <- Convolution56
I0818 10:58:39.827657  3083 net.cpp:509] ReLU54 -> Convolution56 (in-place)
I0818 10:58:39.828728  3083 net.cpp:172] Setting up ReLU54
I0818 10:58:39.828747  3083 net.cpp:186] Top shape: 10 64 8 8 (40960)
I0818 10:58:39.828752  3083 net.cpp:194] Memory required for data: 117923960
I0818 10:58:39.828757  3083 layer_factory.hpp:77] Creating layer Convolution57
I0818 10:58:39.828770  3083 net.cpp:128] Creating Layer Convolution57
I0818 10:58:39.828778  3083 net.cpp:558] Convolution57 <- Convolution56
I0818 10:58:39.828788  3083 net.cpp:522] Convolution57 -> Convolution57
I0818 10:58:39.837702  3083 net.cpp:172] Setting up Convolution57
I0818 10:58:39.837729  3083 net.cpp:186] Top shape: 10 64 8 8 (40960)
I0818 10:58:39.837733  3083 net.cpp:194] Memory required for data: 118087800
I0818 10:58:39.837744  3083 layer_factory.hpp:77] Creating layer BatchNorm57
I0818 10:58:39.837754  3083 net.cpp:128] Creating Layer BatchNorm57
I0818 10:58:39.837760  3083 net.cpp:558] BatchNorm57 <- Convolution57
I0818 10:58:39.837774  3083 net.cpp:509] BatchNorm57 -> Convolution57 (in-place)
I0818 10:58:39.838032  3083 net.cpp:172] Setting up BatchNorm57
I0818 10:58:39.838042  3083 net.cpp:186] Top shape: 10 64 8 8 (40960)
I0818 10:58:39.838045  3083 net.cpp:194] Memory required for data: 118251640
I0818 10:58:39.838055  3083 layer_factory.hpp:77] Creating layer Scale57
I0818 10:58:39.838066  3083 net.cpp:128] Creating Layer Scale57
I0818 10:58:39.838070  3083 net.cpp:558] Scale57 <- Convolution57
I0818 10:58:39.838078  3083 net.cpp:509] Scale57 -> Convolution57 (in-place)
I0818 10:58:39.838125  3083 layer_factory.hpp:77] Creating layer Scale57
I0818 10:58:39.838304  3083 net.cpp:172] Setting up Scale57
I0818 10:58:39.838315  3083 net.cpp:186] Top shape: 10 64 8 8 (40960)
I0818 10:58:39.838320  3083 net.cpp:194] Memory required for data: 118415480
I0818 10:58:39.838328  3083 layer_factory.hpp:77] Creating layer Eltwise27
I0818 10:58:39.838340  3083 net.cpp:128] Creating Layer Eltwise27
I0818 10:58:39.838344  3083 net.cpp:558] Eltwise27 <- Eltwise26_ReLU53_0_split_1
I0818 10:58:39.838351  3083 net.cpp:558] Eltwise27 <- Convolution57
I0818 10:58:39.838358  3083 net.cpp:522] Eltwise27 -> Eltwise27
I0818 10:58:39.838405  3083 net.cpp:172] Setting up Eltwise27
I0818 10:58:39.838413  3083 net.cpp:186] Top shape: 10 64 8 8 (40960)
I0818 10:58:39.838416  3083 net.cpp:194] Memory required for data: 118579320
I0818 10:58:39.838420  3083 layer_factory.hpp:77] Creating layer ReLU55
I0818 10:58:39.838428  3083 net.cpp:128] Creating Layer ReLU55
I0818 10:58:39.838433  3083 net.cpp:558] ReLU55 <- Eltwise27
I0818 10:58:39.838438  3083 net.cpp:509] ReLU55 -> Eltwise27 (in-place)
I0818 10:58:39.841920  3083 net.cpp:172] Setting up ReLU55
I0818 10:58:39.841945  3083 net.cpp:186] Top shape: 10 64 8 8 (40960)
I0818 10:58:39.841950  3083 net.cpp:194] Memory required for data: 118743160
I0818 10:58:39.841955  3083 layer_factory.hpp:77] Creating layer Pooling1
I0818 10:58:39.841965  3083 net.cpp:128] Creating Layer Pooling1
I0818 10:58:39.841970  3083 net.cpp:558] Pooling1 <- Eltwise27
I0818 10:58:39.841981  3083 net.cpp:522] Pooling1 -> Pooling1
I0818 10:58:39.846261  3083 net.cpp:172] Setting up Pooling1
I0818 10:58:39.846288  3083 net.cpp:186] Top shape: 10 64 1 1 (640)
I0818 10:58:39.846292  3083 net.cpp:194] Memory required for data: 118745720
I0818 10:58:39.846297  3083 layer_factory.hpp:77] Creating layer InnerProduct1
I0818 10:58:39.846310  3083 net.cpp:128] Creating Layer InnerProduct1
I0818 10:58:39.846316  3083 net.cpp:558] InnerProduct1 <- Pooling1
I0818 10:58:39.846328  3083 net.cpp:522] InnerProduct1 -> InnerProduct1
I0818 10:58:39.846515  3083 net.cpp:172] Setting up InnerProduct1
I0818 10:58:39.846559  3083 net.cpp:186] Top shape: 10 10 (100)
I0818 10:58:39.846576  3083 net.cpp:194] Memory required for data: 118746120
I0818 10:58:39.846601  3083 layer_factory.hpp:77] Creating layer InnerProduct1_InnerProduct1_0_split
I0818 10:58:39.846621  3083 net.cpp:128] Creating Layer InnerProduct1_InnerProduct1_0_split
I0818 10:58:39.846640  3083 net.cpp:558] InnerProduct1_InnerProduct1_0_split <- InnerProduct1
I0818 10:58:39.846673  3083 net.cpp:522] InnerProduct1_InnerProduct1_0_split -> InnerProduct1_InnerProduct1_0_split_0
I0818 10:58:39.846698  3083 net.cpp:522] InnerProduct1_InnerProduct1_0_split -> InnerProduct1_InnerProduct1_0_split_1
I0818 10:58:39.846766  3083 net.cpp:172] Setting up InnerProduct1_InnerProduct1_0_split
I0818 10:58:39.846789  3083 net.cpp:186] Top shape: 10 10 (100)
I0818 10:58:39.846804  3083 net.cpp:186] Top shape: 10 10 (100)
I0818 10:58:39.846817  3083 net.cpp:194] Memory required for data: 118746920
I0818 10:58:39.846830  3083 layer_factory.hpp:77] Creating layer SoftmaxWithLoss1
I0818 10:58:39.846848  3083 net.cpp:128] Creating Layer SoftmaxWithLoss1
I0818 10:58:39.846863  3083 net.cpp:558] SoftmaxWithLoss1 <- InnerProduct1_InnerProduct1_0_split_0
I0818 10:58:39.846879  3083 net.cpp:558] SoftmaxWithLoss1 <- Data2_Data1_1_split_0
…
