…
I0930 15:51:20.775302 32668 upgrade_proto.cpp:82] Successfully upgraded batch norm layers using deprecated params.
I0930 15:51:20.777586 32668 net.cpp:82] Initializing net from parameters: 
name: "ResNet-56"
state {
  phase: TRAIN
  level: 0
  stage: ""
}
layer {
  name: "Data1"
  type: "Data"
  top: "data"
  top: "label"
  transform_param {
    scale: 0.00390625
    mirror: true
    crop_size: 32
    mean_value: 125.3
    mean_value: 122.9
    mean_value: 113.8
  }
  data_param {
    source: "/home/lijianfei/datasets/cifar10_40/train_lmdb"
    batch_size: 128
    backend: LMDB
  }
  image_data_param {
    shuffle: true
  }
}
layer {
  name: "conv1"
  type: "Convolution"
  bottom: "data"
  top: "conv1"
  param {
    lr_mult: 1
    decay_mult: 1
  }
  param {
    lr_mult: 2
    decay_mult: 0
  }
  convolution_param {
    num_output: 16
    bias_term: true
    pad: 1
    kernel_size: 3
    stride: 1
    weight_filler {
      type: "msra"
    }
    bias_filler {
      type: "constant"
      value: 0
    }
  }
}
layer {
  name: "conv1/bn"
  type: "BatchNorm"
  bottom: "conv1"
  top: "conv1"
  param {
    lr_mult: 0
    decay_mult: 0
  }
  param {
    lr_mult: 0
    decay_mult: 0
  }
  param {
    lr_mult: 0
    decay_mult: 0
  }
  batch_norm_param {
    use_global_stats: false
  }
}
layer {
  name: "conv1/scale"
  type: "Scale"
  bottom: "conv1"
  top: "conv1"
  scale_param {
    bias_term: true
  }
}
layer {
  name: "conv1/ReLU"
  type: "ReLU"
  bottom: "conv1"
  top: "conv1"
}
layer {
  name: "conv2_1_0"
  type: "Convolution"
  bottom: "conv1"
  top: "conv2_1_0"
  param {
    lr_mult: 1
    decay_mult: 1
  }
  param {
    lr_mult: 2
    decay_mult: 0
  }
  convolution_param {
    num_output: 16
    bias_term: true
    pad: 1
    kernel_size: 3
    stride: 1
    weight_filler {
      type: "msra"
    }
    bias_filler {
      type: "constant"
      value: 0
    }
  }
}
layer {
  name: "conv2_1_bn0"
  type: "BatchNorm"
  bottom: "conv2_1_0"
  top: "conv2_1_0"
  param {
    lr_mult: 0
    decay_mult: 0
  }
  param {
    lr_mult: 0
    decay_mult: 0
  }
  param {
    lr_mult: 0
    decay_mult: 0
  }
  batch_norm_param {
    use_global_stats: false
  }
}
layer {
  name: "conv2_1_scale0"
  type: "Scale"
  bottom: "conv2_1_0"
  top: "conv2_1_0"
  scale_param {
    bias_term: true
  }
}
layer {
  name: "conv2_1_ReLU0"
  type: "ReLU"
  bottom: "conv2_1_0"
  top: "conv2_1_0"
}
layer {
  name: "conv2_1_1"
  type: "Convolution"
  bottom: "conv2_1_0"
  top: "conv2_1_1"
  param {
    lr_mult: 1
    decay_mult: 1
  }
  param {
    lr_mult: 2
    decay_mult: 0
  }
  convolution_param {
    num_output: 16
    bias_term: true
    pad: 1
    kernel_size: 3
    stride: 1
    weight_filler {
      type: "msra"
    }
    bias_filler {
      type: "constant"
      value: 0
    }
  }
}
layer {
  name: "conv2_1bn1"
  type: "BatchNorm"
  bottom: "conv2_1_1"
  top: "conv2_1_1"
  param {
    lr_mult: 0
    decay_mult: 0
  }
  param {
    lr_mult: 0
    decay_mult: 0
  }
  param {
    lr_mult: 0
    decay_mult: 0
  }
  batch_norm_param {
    use_global_stats: false
  }
}
layer {
  name: "conv2_1_scale1"
  type: "Scale"
  bottom: "conv2_1_1"
  top: "conv2_1_1"
  scale_param {
    bias_term: true
  }
}
layer {
  name: "conv2_Eltwise_1"
  type: "Eltwise"
  bottom: "conv1"
  bottom: "conv2_1_1"
  top: "conv2_Eltwise_1"
  eltwise_param {
    operation: SUM
  }
}
layer {
  name: "conv2_1ReLU_1"
  type: "ReLU"
  bottom: "conv2_Eltwise_1"
  top: "conv2_Eltwise_1"
}
layer {
  name: "conv2_2_0"
  type: "Convolution"
  bottom: "conv2_Eltwise_1"
  top: "conv2_2_0"
  param {
    lr_mult: 1
    decay_mult: 1
  }
  param {
    lr_mult: 2
    decay_mult: 0
  }
  convolution_param {
    num_output: 16
    bias_term: true
    pad: 1
    kernel_size: 3
    stride: 1
    weight_filler {
      type: "msra"
    }
    bias_filler {
      type: "constant"
      value: 0
    }
  }
}
layer {
  name: "conv2_2_bn0"
  type: "BatchNorm"
  bottom: "conv2_2_0"
  top: "conv2_2_0"
  param {
    lr_mult: 0
    decay_mult: 0
  }
  param {
    lr_mult: 0
    decay_mult: 0
  }
  param {
    lr_mult: 0
    decay_mult: 0
  }
  batch_norm_param {
    use_global_stats: false
  }
}
layer {
  name: "conv2_2_scale0"
  type: "Scale"
  bottom: "conv2_2_0"
  top: "conv2_2_0"
  scale_param {
    bias_term: true
  }
}
layer {
  name: "conv2_2_ReLU0"
  type: "ReLU"
  bottom: "conv2_2_0"
  top: "conv2_2_0"
}
layer {
  name: "conv2_2_1"
  type: "Convolution"
  bottom: "conv2_2_0"
  top: "conv2_2_1"
  param {
    lr_mult: 1
    decay_mult: 1
  }
  param {
    lr_mult: 2
    decay_mult: 0
  }
  convolution_param {
    num_output: 16
    bias_term: true
    pad: 1
    kernel_size: 3
    stride: 1
    weight_filler {
      type: "msra"
    }
    bias_filler {
      type: "constant"
      value: 0
    }
  }
}
layer {
  name: "conv2_2bn1"
  type: "BatchNorm"
  bottom: "conv2_2_1"
  top: "conv2_2_1"
  param {
    lr_mult: 0
    decay_mult: 0
  }
  param {
    lr_mult: 0
    decay_mult: 0
  }
  param {
    lr_mult: 0
    decay_mult: 0
  }
  batch_norm_param {
    use_global_stats: false
  }
}
layer {
  name: "conv2_2_scale1"
  type: "Scale"
  bottom: "conv2_2_1"
  top: "conv2_2_1"
  scale_param {
    bias_term: true
  }
}
layer {
  name: "conv2_Eltwise_2"
  type: "Eltwise"
  bottom: "conv2_Eltwise_1"
  bottom: "conv2_2_1"
  top: "conv2_Eltwise_2"
  eltwise_param {
    operation: SUM
  }
}
layer {
  name: "conv2_2ReLU_1"
  type: "ReLU"
  bottom: "conv2_Eltwise_2"
  top: "conv2_Eltwise_2"
}
layer {
  name: "conv2_3_0"
  type: "Convolution"
  bottom: "conv2_Eltwise_2"
  top: "conv2_3_0"
  param {
    lr_mult: 1
    decay_mult: 1
  }
  param {
    lr_mult: 2
    decay_mult: 0
  }
  convolution_param {
    num_output: 16
    bias_term: true
    pad: 1
    kernel_size: 3
    stride: 1
    weight_filler {
      type: "msra"
    }
    bias_filler {
      type: "constant"
      value: 0
    }
  }
}
layer {
  name: "conv2_3_bn0"
  type: "BatchNorm"
  bottom: "conv2_3_0"
  top: "conv2_3_0"
  param {
    lr_mult: 0
    decay_mult: 0
  }
  param {
    lr_mult: 0
    decay_mult: 0
  }
  param {
    lr_mult: 0
    decay_mult: 0
  }
  batch_norm_param {
    use_global_stats: false
  }
}
layer {
  name: "conv2_3_scale0"
  type: "Scale"
  bottom: "conv2_3_0"
  top: "conv2_3_0"
  scale_param {
    bias_term: true
  }
}
layer {
  name: "conv2_3_ReLU0"
  type: "ReLU"
  bottom: "conv2_3_0"
  top: "conv2_3_0"
}
layer {
  name: "conv2_3_1"
  type: "Convolution"
  bottom: "conv2_3_0"
  top: "conv2_3_1"
  param {
    lr_mult: 1
    decay_mult: 1
  }
  param {
    lr_mult: 2
    decay_mult: 0
  }
  convolution_param {
    num_output: 16
    bias_term: true
    pad: 1
    kernel_size: 3
    stride: 1
    weight_filler {
      type: "msra"
    }
    bias_filler {
      type: "constant"
      value: 0
    }
  }
}
layer {
  name: "conv2_3bn1"
  type: "BatchNorm"
  bottom: "conv2_3_1"
  top: "conv2_3_1"
  param {
    lr_mult: 0
    decay_mult: 0
  }
  param {
    lr_mult: 0
    decay_mult: 0
  }
  param {
    lr_mult: 0
    decay_mult: 0
  }
  batch_norm_param {
    use_global_stats: false
  }
}
layer {
  name: "conv2_3_scale1"
  type: "Scale"
  bottom: "conv2_3_1"
  top: "conv2_3_1"
  scale_param {
    bias_term: true
  }
}
layer {
  name: "conv2_Eltwise_3"
  type: "Eltwise"
  bottom: "conv2_Eltwise_2"
  bottom: "conv2_3_1"
  top: "conv2_Eltwise_3"
  eltwise_param {
    operation: SUM
  }
}
layer {
  name: "conv2_3ReLU_1"
  type: "ReLU"
  bottom: "conv2_Eltwise_3"
  top: "conv2_Eltwise_3"
}
layer {
  name: "conv2_4_0"
  type: "Convolution"
  bottom: "conv2_Eltwise_3"
  top: "conv2_4_0"
  param {
    lr_mult: 1
    decay_mult: 1
  }
  param {
    lr_mult: 2
    decay_mult: 0
  }
  convolution_param {
    num_output: 16
    bias_term: true
    pad: 1
    kernel_size: 3
    stride: 1
    weight_filler {
      type: "msra"
    }
    bias_filler {
      type: "constant"
      value: 0
    }
  }
}
layer {
  name: "conv2_4_bn0"
  type: "BatchNorm"
  bottom: "conv2_4_0"
  top: "conv2_4_0"
  param {
    lr_mult: 0
    decay_mult: 0
  }
  param {
    lr_mult: 0
    decay_mult: 0
  }
  param {
    lr_mult: 0
    decay_mult: 0
  }
  batch_norm_param {
    use_global_stats: false
  }
}
layer {
  name: "conv2_4_scale0"
  type: "Scale"
  bottom: "conv2_4_0"
  top: "conv2_4_0"
  scale_param {
    bias_term: true
  }
}
layer {
  name: "conv2_4_ReLU0"
  type: "ReLU"
  bottom: "conv2_4_0"
  top: "conv2_4_0"
}
layer {
  name: "conv2_4_1"
  type: "Convolution"
  bottom: "conv2_4_0"
  top: "conv2_4_1"
  param {
    lr_mult: 1
    decay_mult: 1
  }
  param {
    lr_mult: 2
    decay_mult: 0
  }
  convolution_param {
    num_output: 16
    bias_term: true
    pad: 1
    kernel_size: 3
    stride: 1
    weight_filler {
      type: "msra"
    }
    bias_filler {
      type: "constant"
      value: 0
    }
  }
}
layer {
  name: "conv2_4bn1"
  type: "BatchNorm"
  bottom: "conv2_4_1"
  top: "conv2_4_1"
  param {
    lr_mult: 0
    decay_mult: 0
  }
  param {
    lr_mult: 0
    decay_mult: 0
  }
  param {
    lr_mult: 0
    decay_mult: 0
  }
  batch_norm_param {
    use_global_stats: false
  }
}
layer {
  name: "conv2_4_scale1"
  type: "Scale"
  bottom: "conv2_4_1"
  top: "conv2_4_1"
  scale_param {
    bias_term: true
  }
}
layer {
  name: "conv2_Eltwise_4"
  type: "Eltwise"
  bottom: "conv2_Eltwise_3"
  bottom: "conv2_4_1"
  top: "conv2_Eltwise_4"
  eltwise_param {
    operation: SUM
  }
}
layer {
  name: "conv2_4ReLU_1"
  type: "ReLU"
  bottom: "conv2_Eltwise_4"
  top: "conv2_Eltwise_4"
}
layer {
  name: "conv2_5_0"
  type: "Convolution"
  bottom: "conv2_Eltwise_4"
  top: "conv2_5_0"
  param {
    lr_mult: 1
    decay_mult: 1
  }
  param {
    lr_mult: 2
    decay_mult: 0
  }
  convolution_param {
    num_output: 16
    bias_term: true
    pad: 1
    kernel_size: 3
    stride: 1
    weight_filler {
      type: "msra"
    }
    bias_filler {
      type: "constant"
      value: 0
    }
  }
}
layer {
  name: "conv2_5_bn0"
  type: "BatchNorm"
  bottom: "conv2_5_0"
  top: "conv2_5_0"
  param {
    lr_mult: 0
    decay_mult: 0
  }
  param {
    lr_mult: 0
    decay_mult: 0
  }
  param {
    lr_mult: 0
    decay_mult: 0
  }
  batch_norm_param {
    use_global_stats: false
  }
}
layer {
  name: "conv2_5_scale0"
  type: "Scale"
  bottom: "conv2_5_0"
  top: "conv2_5_0"
  scale_param {
    bias_term: true
  }
}
layer {
  name: "conv2_5_ReLU0"
  type: "ReLU"
  bottom: "conv2_5_0"
  top: "conv2_5_0"
}
layer {
  name: "conv2_5_1"
  type: "Convolution"
  bottom: "conv2_5_0"
  top: "conv2_5_1"
  param {
    lr_mult: 1
    decay_mult: 1
  }
  param {
    lr_mult: 2
    decay_mult: 0
  }
  convolution_param {
    num_output: 16
    bias_term: true
    pad: 1
    kernel_size: 3
    stride: 1
    weight_filler {
      type: "msra"
    }
    bias_filler {
      type: "constant"
      value: 0
    }
  }
}
layer {
  name: "conv2_5bn1"
  type: "BatchNorm"
  bottom: "conv2_5_1"
  top: "conv2_5_1"
  param {
    lr_mult: 0
    decay_mult: 0
  }
  param {
    lr_mult: 0
    decay_mult: 0
  }
  param {
    lr_mult: 0
    decay_mult: 0
  }
  batch_norm_param {
    use_global_stats: false
  }
}
layer {
  name: "conv2_5_scale1"
  type: "Scale"
  bottom: "conv2_5_1"
  top: "conv2_5_1"
  scale_param {
    bias_term: true
  }
}
layer {
  name: "conv2_Eltwise_5"
  type: "Eltwise"
  bottom: "conv2_Eltwise_4"
  bottom: "conv2_5_1"
  top: "conv2_Eltwise_5"
  eltwise_param {
    operation: SUM
  }
}
layer {
  name: "conv2_5ReLU_1"
  type: "ReLU"
  bottom: "conv2_Eltwise_5"
  top: "conv2_Eltwise_5"
}
layer {
  name: "conv2_6_0"
  type: "Convolution"
  bottom: "conv2_Eltwise_5"
  top: "conv2_6_0"
  param {
    lr_mult: 1
    decay_mult: 1
  }
  param {
    lr_mult: 2
    decay_mult: 0
  }
  convolution_param {
    num_output: 16
    bias_term: true
    pad: 1
    kernel_size: 3
    stride: 1
    weight_filler {
      type: "msra"
    }
    bias_filler {
      type: "constant"
      value: 0
    }
  }
}
layer {
  name: "conv2_6_bn0"
  type: "BatchNorm"
  bottom: "conv2_6_0"
  top: "conv2_6_0"
  param {
    lr_mult: 0
    decay_mult: 0
  }
  param {
    lr_mult: 0
    decay_mult: 0
  }
  param {
    lr_mult: 0
    decay_mult: 0
  }
  batch_norm_param {
    use_global_stats: false
  }
}
layer {
  name: "conv2_6_scale0"
  type: "Scale"
  bottom: "conv2_6_0"
  top: "conv2_6_0"
  scale_param {
    bias_term: true
  }
}
layer {
  name: "conv2_6_ReLU0"
  type: "ReLU"
  bottom: "conv2_6_0"
  top: "conv2_6_0"
}
layer {
  name: "conv2_6_1"
  type: "Convolution"
  bottom: "conv2_6_0"
  top: "conv2_6_1"
  param {
    lr_mult: 1
    decay_mult: 1
  }
  param {
    lr_mult: 2
    decay_mult: 0
  }
  convolution_param {
    num_output: 16
    bias_term: true
    pad: 1
    kernel_size: 3
    stride: 1
    weight_filler {
      type: "msra"
    }
    bias_filler {
      type: "constant"
      value: 0
    }
  }
}
layer {
  name: "conv2_6bn1"
  type: "BatchNorm"
  bottom: "conv2_6_1"
  top: "conv2_6_1"
  param {
    lr_mult: 0
    decay_mult: 0
  }
  param {
    lr_mult: 0
    decay_mult: 0
  }
  param {
    lr_mult: 0
    decay_mult: 0
  }
  batch_norm_param {
    use_global_stats: false
  }
}
layer {
  name: "conv2_6_scale1"
  type: "Scale"
  bottom: "conv2_6_1"
  top: "conv2_6_1"
  scale_param {
    bias_term: true
  }
}
layer {
  name: "conv2_Eltwise_6"
  type: "Eltwise"
  bottom: "conv2_Eltwise_5"
  bottom: "conv2_6_1"
  top: "conv2_Eltwise_6"
  eltwise_param {
    operation: SUM
  }
}
layer {
  name: "conv2_6ReLU_1"
  type: "ReLU"
  bottom: "conv2_Eltwise_6"
  top: "conv2_Eltwise_6"
}
layer {
  name: "conv2_7_0"
  type: "Convolution"
  bottom: "conv2_Eltwise_6"
  top: "conv2_7_0"
  param {
    lr_mult: 1
    decay_mult: 1
  }
  param {
    lr_mult: 2
    decay_mult: 0
  }
  convolution_param {
    num_output: 16
    bias_term: true
    pad: 1
    kernel_size: 3
    stride: 1
    weight_filler {
      type: "msra"
    }
    bias_filler {
      type: "constant"
      value: 0
    }
  }
}
layer {
  name: "conv2_7_bn0"
  type: "BatchNorm"
  bottom: "conv2_7_0"
  top: "conv2_7_0"
  param {
    lr_mult: 0
    decay_mult: 0
  }
  param {
    lr_mult: 0
    decay_mult: 0
  }
  param {
    lr_mult: 0
    decay_mult: 0
  }
  batch_norm_param {
    use_global_stats: false
  }
}
layer {
  name: "conv2_7_scale0"
  type: "Scale"
  bottom: "conv2_7_0"
  top: "conv2_7_0"
  scale_param {
    bias_term: true
  }
}
layer {
  name: "conv2_7_ReLU0"
  type: "ReLU"
  bottom: "conv2_7_0"
  top: "conv2_7_0"
}
layer {
  name: "conv2_7_1"
  type: "Convolution"
  bottom: "conv2_7_0"
  top: "conv2_7_1"
  param {
    lr_mult: 1
    decay_mult: 1
  }
  param {
    lr_mult: 2
    decay_mult: 0
  }
  convolution_param {
    num_output: 16
    bias_term: true
    pad: 1
    kernel_size: 3
    stride: 1
    weight_filler {
      type: "msra"
    }
    bias_filler {
      type: "constant"
      value: 0
    }
  }
}
layer {
  name: "conv2_7bn1"
  type: "BatchNorm"
  bottom: "conv2_7_1"
  top: "conv2_7_1"
  param {
    lr_mult: 0
    decay_mult: 0
  }
  param {
    lr_mult: 0
    decay_mult: 0
  }
  param {
    lr_mult: 0
    decay_mult: 0
  }
  batch_norm_param {
    use_global_stats: false
  }
}
layer {
  name: "conv2_7_scale1"
  type: "Scale"
  bottom: "conv2_7_1"
  top: "conv2_7_1"
  scale_param {
    bias_term: true
  }
}
layer {
  name: "conv2_Eltwise_7"
  type: "Eltwise"
  bottom: "conv2_Eltwise_6"
  bottom: "conv2_7_1"
  top: "conv2_Eltwise_7"
  eltwise_param {
    operation: SUM
  }
}
layer {
  name: "conv2_7ReLU_1"
  type: "ReLU"
  bottom: "conv2_Eltwise_7"
  top: "conv2_Eltwise_7"
}
layer {
  name: "conv2_8_0"
  type: "Convolution"
  bottom: "conv2_Eltwise_7"
  top: "conv2_8_0"
  param {
    lr_mult: 1
    decay_mult: 1
  }
  param {
    lr_mult: 2
    decay_mult: 0
  }
  convolution_param {
    num_output: 16
    bias_term: true
    pad: 1
    kernel_size: 3
    stride: 1
    weight_filler {
      type: "msra"
    }
    bias_filler {
      type: "constant"
      value: 0
    }
  }
}
layer {
  name: "conv2_8_bn0"
  type: "BatchNorm"
  bottom: "conv2_8_0"
  top: "conv2_8_0"
  param {
    lr_mult: 0
    decay_mult: 0
  }
  param {
    lr_mult: 0
    decay_mult: 0
  }
  param {
    lr_mult: 0
    decay_mult: 0
  }
  batch_norm_param {
    use_global_stats: false
  }
}
layer {
  name: "conv2_8_scale0"
  type: "Scale"
  bottom: "conv2_8_0"
  top: "conv2_8_0"
  scale_param {
    bias_term: true
  }
}
layer {
  name: "conv2_8_ReLU0"
  type: "ReLU"
  bottom: "conv2_8_0"
  top: "conv2_8_0"
}
layer {
  name: "conv2_8_1"
  type: "Convolution"
  bottom: "conv2_8_0"
  top: "conv2_8_1"
  param {
    lr_mult: 1
    decay_mult: 1
  }
  param {
    lr_mult: 2
    decay_mult: 0
  }
  convolution_param {
    num_output: 16
    bias_term: true
    pad: 1
    kernel_size: 3
    stride: 1
    weight_filler {
      type: "msra"
    }
    bias_filler {
      type: "constant"
      value: 0
    }
  }
}
layer {
  name: "conv2_8bn1"
  type: "BatchNorm"
  bottom: "conv2_8_1"
  top: "conv2_8_1"
  param {
    lr_mult: 0
    decay_mult: 0
  }
  param {
    lr_mult: 0
    decay_mult: 0
  }
  param {
    lr_mult: 0
    decay_mult: 0
  }
  batch_norm_param {
    use_global_stats: false
  }
}
layer {
  name: "conv2_8_scale1"
  type: "Scale"
  bottom: "conv2_8_1"
  top: "conv2_8_1"
  scale_param {
    bias_term: true
  }
}
layer {
  name: "conv2_Eltwise_8"
  type: "Eltwise"
  bottom: "conv2_Eltwise_7"
  bottom: "conv2_8_1"
  top: "conv2_Eltwise_8"
  eltwise_param {
    operation: SUM
  }
}
layer {
  name: "conv2_8ReLU_1"
  type: "ReLU"
  bottom: "conv2_Eltwise_8"
  top: "conv2_Eltwise_8"
}
layer {
  name: "conv2_9_0"
  type: "Convolution"
  bottom: "conv2_Eltwise_8"
  top: "conv2_9_0"
  param {
    lr_mult: 1
    decay_mult: 1
  }
  param {
    lr_mult: 2
    decay_mult: 0
  }
  convolution_param {
    num_output: 16
    bias_term: true
    pad: 1
    kernel_size: 3
    stride: 1
    weight_filler {
      type: "msra"
    }
    bias_filler {
      type: "constant"
      value: 0
    }
  }
}
layer {
  name: "conv2_9_bn0"
  type: "BatchNorm"
  bottom: "conv2_9_0"
  top: "conv2_9_0"
  param {
    lr_mult: 0
    decay_mult: 0
  }
  param {
    lr_mult: 0
    decay_mult: 0
  }
  param {
    lr_mult: 0
    decay_mult: 0
  }
  batch_norm_param {
    use_global_stats: false
  }
}
layer {
  name: "conv2_9_scale0"
  type: "Scale"
  bottom: "conv2_9_0"
  top: "conv2_9_0"
  scale_param {
    bias_term: true
  }
}
layer {
  name: "conv2_9_ReLU0"
  type: "ReLU"
  bottom: "conv2_9_0"
  top: "conv2_9_0"
}
layer {
  name: "conv2_9_1"
  type: "Convolution"
  bottom: "conv2_9_0"
  top: "conv2_9_1"
  param {
    lr_mult: 1
    decay_mult: 1
  }
  param {
    lr_mult: 2
    decay_mult: 0
  }
  convolution_param {
    num_output: 16
    bias_term: true
    pad: 1
    kernel_size: 3
    stride: 1
    weight_filler {
      type: "msra"
    }
    bias_filler {
      type: "constant"
      value: 0
    }
  }
}
layer {
  name: "conv2_9bn1"
  type: "BatchNorm"
  bottom: "conv2_9_1"
  top: "conv2_9_1"
  param {
    lr_mult: 0
    decay_mult: 0
  }
  param {
    lr_mult: 0
    decay_mult: 0
  }
  param {
    lr_mult: 0
    decay_mult: 0
  }
  batch_norm_param {
    use_global_stats: false
  }
}
layer {
  name: "conv2_9_scale1"
  type: "Scale"
  bottom: "conv2_9_1"
  top: "conv2_9_1"
  scale_param {
    bias_term: true
  }
}
layer {
  name: "conv2_Eltwise_9"
  type: "Eltwise"
  bottom: "conv2_Eltwise_8"
  bottom: "conv2_9_1"
  top: "conv2_Eltwise_9"
  eltwise_param {
    operation: SUM
  }
}
layer {
  name: "conv2_9ReLU_1"
  type: "ReLU"
  bottom: "conv2_Eltwise_9"
  top: "conv2_Eltwise_9"
}
layer {
  name: "conv3_1_0"
  type: "Convolution"
  bottom: "conv2_Eltwise_9"
  top: "conv3_1_0"
  param {
    lr_mult: 1
    decay_mult: 1
  }
  param {
    lr_mult: 2
    decay_mult: 0
  }
  convolution_param {
    num_output: 32
    bias_term: true
    pad: 1
    kernel_size: 3
    stride: 2
    weight_filler {
      type: "msra"
    }
    bias_filler {
      type: "constant"
      value: 0
    }
  }
}
layer {
  name: "conv3_1_bn0"
  type: "BatchNorm"
  bottom: "conv3_1_0"
  top: "conv3_1_0"
  param {
    lr_mult: 0
    decay_mult: 0
  }
  param {
    lr_mult: 0
    decay_mult: 0
  }
  param {
    lr_mult: 0
    decay_mult: 0
  }
  batch_norm_param {
    use_global_stats: false
  }
}
layer {
  name: "conv3_1_scale0"
  type: "Scale"
  bottom: "conv3_1_0"
  top: "conv3_1_0"
  scale_param {
    bias_term: true
  }
}
layer {
  name: "conv3_1_ReLU0"
  type: "ReLU"
  bottom: "conv3_1_0"
  top: "conv3_1_0"
}
layer {
  name: "conv3_1_1"
  type: "Convolution"
  bottom: "conv3_1_0"
  top: "conv3_1_1"
  param {
    lr_mult: 1
    decay_mult: 1
  }
  param {
    lr_mult: 2
    decay_mult: 0
  }
  convolution_param {
    num_output: 32
    bias_term: true
    pad: 1
    kernel_size: 3
    stride: 1
    weight_filler {
      type: "msra"
    }
    bias_filler {
      type: "constant"
      value: 0
    }
  }
}
layer {
  name: "conv3_1bn1"
  type: "BatchNorm"
  bottom: "conv3_1_1"
  top: "conv3_1_1"
  param {
    lr_mult: 0
    decay_mult: 0
  }
  param {
    lr_mult: 0
    decay_mult: 0
  }
  param {
    lr_mult: 0
    decay_mult: 0
  }
  batch_norm_param {
    use_global_stats: false
  }
}
layer {
  name: "conv3_1_scale1"
  type: "Scale"
  bottom: "conv3_1_1"
  top: "conv3_1_1"
  scale_param {
    bias_term: true
  }
}
layer {
  name: "conv3_1_down"
  type: "Convolution"
  bottom: "conv2_Eltwise_9"
  top: "conv3_1_down"
  param {
    lr_mult: 1
    decay_mult: 1
  }
  param {
    lr_mult: 2
    decay_mult: 0
  }
  convolution_param {
    num_output: 32
    bias_term: true
    pad: 0
    kernel_size: 1
    stride: 2
    weight_filler {
      type: "msra"
    }
    bias_filler {
      type: "constant"
      value: 0
    }
  }
}
layer {
  name: "conv3_1_bn_down"
  type: "BatchNorm"
  bottom: "conv3_1_down"
  top: "conv3_1_down"
  param {
    lr_mult: 0
    decay_mult: 0
  }
  param {
    lr_mult: 0
    decay_mult: 0
  }
  param {
    lr_mult: 0
    decay_mult: 0
  }
  batch_norm_param {
    use_global_stats: false
  }
}
layer {
  name: "conv3_1_scale_down"
  type: "Scale"
  bottom: "conv3_1_down"
  top: "conv3_1_down"
  scale_param {
    bias_term: true
  }
}
layer {
  name: "conv3_Eltwise_1"
  type: "Eltwise"
  bottom: "conv3_1_1"
  bottom: "conv3_1_down"
  top: "conv3_Eltwise_1"
  eltwise_param {
    operation: SUM
  }
}
layer {
  name: "conv3_1ReLU_1"
  type: "ReLU"
  bottom: "conv3_Eltwise_1"
  top: "conv3_Eltwise_1"
}
layer {
  name: "conv3_2_0"
  type: "Convolution"
  bottom: "conv3_Eltwise_1"
  top: "conv3_2_0"
  param {
    lr_mult: 1
    decay_mult: 1
  }
  param {
    lr_mult: 2
    decay_mult: 0
  }
  convolution_param {
    num_output: 32
    bias_term: true
    pad: 1
    kernel_size: 3
    stride: 1
    weight_filler {
      type: "msra"
    }
    bias_filler {
      type: "constant"
      value: 0
    }
  }
}
layer {
  name: "conv3_2_bn0"
  type: "BatchNorm"
  bottom: "conv3_2_0"
  top: "conv3_2_0"
  param {
    lr_mult: 0
    decay_mult: 0
  }
  param {
    lr_mult: 0
    decay_mult: 0
  }
  param {
    lr_mult: 0
    decay_mult: 0
  }
  batch_norm_param {
    use_global_stats: false
  }
}
layer {
  name: "conv3_2_scale0"
  type: "Scale"
  bottom: "conv3_2_0"
  top: "conv3_2_0"
  scale_param {
    bias_term: true
  }
}
layer {
  name: "conv3_2_ReLU0"
  type: "ReLU"
  bottom: "conv3_2_0"
  top: "conv3_2_0"
}
layer {
  name: "conv3_2_1"
  type: "Convolution"
  bottom: "conv3_2_0"
  top: "conv3_2_1"
  param {
    lr_mult: 1
    decay_mult: 1
  }
  param {
    lr_mult: 2
    decay_mult: 0
  }
  convolution_param {
    num_output: 32
    bias_term: true
    pad: 1
    kernel_size: 3
    stride: 1
    weight_filler {
      type: "msra"
    }
    bias_filler {
      type: "constant"
      value: 0
    }
  }
}
layer {
  name: "conv3_2bn1"
  type: "BatchNorm"
  bottom: "conv3_2_1"
  top: "conv3_2_1"
  param {
    lr_mult: 0
    decay_mult: 0
  }
  param {
    lr_mult: 0
    decay_mult: 0
  }
  param {
    lr_mult: 0
    decay_mult: 0
  }
  batch_norm_param {
    use_global_stats: false
  }
}
layer {
  name: "conv3_2_scale1"
  type: "Scale"
  bottom: "conv3_2_1"
  top: "conv3_2_1"
  scale_param {
    bias_term: true
  }
}
layer {
  name: "conv3_Eltwise_2"
  type: "Eltwise"
  bottom: "conv3_Eltwise_1"
  bottom: "conv3_2_1"
  top: "conv3_Eltwise_2"
  eltwise_param {
    operation: SUM
  }
}
layer {
  name: "conv3_2ReLU_1"
  type: "ReLU"
  bottom: "conv3_Eltwise_2"
  top: "conv3_Eltwise_2"
}
layer {
  name: "conv3_3_0"
  type: "Convolution"
  bottom: "conv3_Eltwise_2"
  top: "conv3_3_0"
  param {
    lr_mult: 1
    decay_mult: 1
  }
  param {
    lr_mult: 2
    decay_mult: 0
  }
  convolution_param {
    num_output: 32
    bias_term: true
    pad: 1
    kernel_size: 3
    stride: 1
    weight_filler {
      type: "msra"
    }
    bias_filler {
      type: "constant"
      value: 0
    }
  }
}
layer {
  name: "conv3_3_bn0"
  type: "BatchNorm"
  bottom: "conv3_3_0"
  top: "conv3_3_0"
  param {
    lr_mult: 0
    decay_mult: 0
  }
  param {
    lr_mult: 0
    decay_mult: 0
  }
  param {
    lr_mult: 0
    decay_mult: 0
  }
  batch_norm_param {
    use_global_stats: false
  }
}
layer {
  name: "conv3_3_scale0"
  type: "Scale"
  bottom: "conv3_3_0"
  top: "conv3_3_0"
  scale_param {
    bias_term: true
  }
}
layer {
  name: "conv3_3_ReLU0"
  type: "ReLU"
  bottom: "conv3_3_0"
  top: "conv3_3_0"
}
layer {
  name: "conv3_3_1"
  type: "Convolution"
  bottom: "conv3_3_0"
  top: "conv3_3_1"
  param {
    lr_mult: 1
    decay_mult: 1
  }
  param {
    lr_mult: 2
    decay_mult: 0
  }
  convolution_param {
    num_output: 32
    bias_term: true
    pad: 1
    kernel_size: 3
    stride: 1
    weight_filler {
      type: "msra"
    }
    bias_filler {
      type: "constant"
      value: 0
    }
  }
}
layer {
  name: "conv3_3bn1"
  type: "BatchNorm"
  bottom: "conv3_3_1"
  top: "conv3_3_1"
  param {
    lr_mult: 0
    decay_mult: 0
  }
  param {
    lr_mult: 0
    decay_mult: 0
  }
  param {
    lr_mult: 0
    decay_mult: 0
  }
  batch_norm_param {
    use_global_stats: false
  }
}
layer {
  name: "conv3_3_scale1"
  type: "Scale"
  bottom: "conv3_3_1"
  top: "conv3_3_1"
  scale_param {
    bias_term: true
  }
}
layer {
  name: "conv3_Eltwise_3"
  type: "Eltwise"
  bottom: "conv3_Eltwise_2"
  bottom: "conv3_3_1"
  top: "conv3_Eltwise_3"
  eltwise_param {
    operation: SUM
  }
}
layer {
  name: "conv3_3ReLU_1"
  type: "ReLU"
  bottom: "conv3_Eltwise_3"
  top: "conv3_Eltwise_3"
}
layer {
  name: "conv3_4_0"
  type: "Convolution"
  bottom: "conv3_Eltwise_3"
  top: "conv3_4_0"
  param {
    lr_mult: 1
    decay_mult: 1
  }
  param {
    lr_mult: 2
    decay_mult: 0
  }
  convolution_param {
    num_output: 32
    bias_term: true
    pad: 1
    kernel_size: 3
    stride: 1
    weight_filler {
      type: "msra"
    }
    bias_filler {
      type: "constant"
      value: 0
    }
  }
}
layer {
  name: "conv3_4_bn0"
  type: "BatchNorm"
  bottom: "conv3_4_0"
  top: "conv3_4_0"
  param {
    lr_mult: 0
    decay_mult: 0
  }
  param {
    lr_mult: 0
    decay_mult: 0
  }
  param {
    lr_mult: 0
    decay_mult: 0
  }
  batch_norm_param {
    use_global_stats: false
  }
}
layer {
  name: "conv3_4_scale0"
  type: "Scale"
  bottom: "conv3_4_0"
  top: "conv3_4_0"
  scale_param {
    bias_term: true
  }
}
layer {
  name: "conv3_4_ReLU0"
  type: "ReLU"
  bottom: "conv3_4_0"
  top: "conv3_4_0"
}
layer {
  name: "conv3_4_1"
  type: "Convolution"
  bottom: "conv3_4_0"
  top: "conv3_4_1"
  param {
    lr_mult: 1
    decay_mult: 1
  }
  param {
    lr_mult: 2
    decay_mult: 0
  }
  convolution_param {
    num_output: 32
    bias_term: true
    pad: 1
    kernel_size: 3
    stride: 1
    weight_filler {
      type: "msra"
    }
    bias_filler {
      type: "constant"
      value: 0
    }
  }
}
layer {
  name: "conv3_4bn1"
  type: "BatchNorm"
  bottom: "conv3_4_1"
  top: "conv3_4_1"
  param {
    lr_mult: 0
    decay_mult: 0
  }
  param {
    lr_mult: 0
    decay_mult: 0
  }
  param {
    lr_mult: 0
    decay_mult: 0
  }
  batch_norm_param {
    use_global_stats: false
  }
}
layer {
  name: "conv3_4_scale1"
  type: "Scale"
  bottom: "conv3_4_1"
  top: "conv3_4_1"
  scale_param {
    bias_term: true
  }
}
layer {
  name: "conv3_Eltwise_4"
  type: "Eltwise"
  bottom: "conv3_Eltwise_3"
  bottom: "conv3_4_1"
  top: "conv3_Eltwise_4"
  eltwise_param {
    operation: SUM
  }
}
layer {
  name: "conv3_4ReLU_1"
  type: "ReLU"
  bottom: "conv3_Eltwise_4"
  top: "conv3_Eltwise_4"
}
layer {
  name: "conv3_5_0"
  type: "Convolution"
  bottom: "conv3_Eltwise_4"
  top: "conv3_5_0"
  param {
    lr_mult: 1
    decay_mult: 1
  }
  param {
    lr_mult: 2
    decay_mult: 0
  }
  convolution_param {
    num_output: 32
    bias_term: true
    pad: 1
    kernel_size: 3
    stride: 1
    weight_filler {
      type: "msra"
    }
    bias_filler {
      type: "constant"
      value: 0
    }
  }
}
layer {
  name: "conv3_5_bn0"
  type: "BatchNorm"
  bottom: "conv3_5_0"
  top: "conv3_5_0"
  param {
    lr_mult: 0
    decay_mult: 0
  }
  param {
    lr_mult: 0
    decay_mult: 0
  }
  param {
    lr_mult: 0
    decay_mult: 0
  }
  batch_norm_param {
    use_global_stats: false
  }
}
layer {
  name: "conv3_5_scale0"
  type: "Scale"
  bottom: "conv3_5_0"
  top: "conv3_5_0"
  scale_param {
    bias_term: true
  }
}
layer {
  name: "conv3_5_ReLU0"
  type: "ReLU"
  bottom: "conv3_5_0"
  top: "conv3_5_0"
}
layer {
  name: "conv3_5_1"
  type: "Convolution"
  bottom: "conv3_5_0"
  top: "conv3_5_1"
  param {
    lr_mult: 1
    decay_mult: 1
  }
  param {
    lr_mult: 2
    decay_mult: 0
  }
  convolution_param {
    num_output: 32
    bias_term: true
    pad: 1
    kernel_size: 3
    stride: 1
    weight_filler {
      type: "msra"
    }
    bias_filler {
      type: "constant"
      value: 0
    }
  }
}
layer {
  name: "conv3_5bn1"
  type: "BatchNorm"
  bottom: "conv3_5_1"
  top: "conv3_5_1"
  param {
    lr_mult: 0
    decay_mult: 0
  }
  param {
    lr_mult: 0
    decay_mult: 0
  }
  param {
    lr_mult: 0
    decay_mult: 0
  }
  batch_norm_param {
    use_global_stats: false
  }
}
layer {
  name: "conv3_5_scale1"
I0930 15:51:20.778791 32668 layer_factory.hpp:77] Creating layer Data1
I0930 15:51:20.778960 32668 db_lmdb.cpp:35] Opened lmdb /home/lijianfei/datasets/cifar10_40/train_lmdb
I0930 15:51:20.779012 32668 net.cpp:128] Creating Layer Data1
I0930 15:51:20.779023 32668 net.cpp:522] Data1 -> data
I0930 15:51:20.779049 32668 net.cpp:522] Data1 -> label
I0930 15:51:20.780635 32668 data_layer.cpp:45] output data size: 128,3,32,32
I0930 15:51:20.792719 32668 net.cpp:172] Setting up Data1
I0930 15:51:20.792809 32668 net.cpp:186] Top shape: 128 3 32 32 (393216)
I0930 15:51:20.792819 32668 net.cpp:186] Top shape: 128 (128)
I0930 15:51:20.792824 32668 net.cpp:194] Memory required for data: 1573376
I0930 15:51:20.792840 32668 layer_factory.hpp:77] Creating layer conv1
I0930 15:51:20.792870 32668 net.cpp:128] Creating Layer conv1
I0930 15:51:20.792878 32668 net.cpp:558] conv1 <- data
I0930 15:51:20.792898 32668 net.cpp:522] conv1 -> conv1
I0930 15:51:21.734344 32668 net.cpp:172] Setting up conv1
I0930 15:51:21.734392 32668 net.cpp:186] Top shape: 128 16 32 32 (2097152)
I0930 15:51:21.734398 32668 net.cpp:194] Memory required for data: 9961984
I0930 15:51:21.734441 32668 layer_factory.hpp:77] Creating layer conv1/bn
I0930 15:51:21.734470 32668 net.cpp:128] Creating Layer conv1/bn
I0930 15:51:21.734479 32668 net.cpp:558] conv1/bn <- conv1
I0930 15:51:21.734488 32668 net.cpp:509] conv1/bn -> conv1 (in-place)
I0930 15:51:21.734755 32668 net.cpp:172] Setting up conv1/bn
I0930 15:51:21.734803 32668 net.cpp:186] Top shape: 128 16 32 32 (2097152)
I0930 15:51:21.734820 32668 net.cpp:194] Memory required for data: 18350592
I0930 15:51:21.734848 32668 layer_factory.hpp:77] Creating layer conv1/scale
I0930 15:51:21.734863 32668 net.cpp:128] Creating Layer conv1/scale
I0930 15:51:21.734870 32668 net.cpp:558] conv1/scale <- conv1
I0930 15:51:21.734876 32668 net.cpp:509] conv1/scale -> conv1 (in-place)
I0930 15:51:21.734927 32668 layer_factory.hpp:77] Creating layer conv1/scale
I0930 15:51:21.735051 32668 net.cpp:172] Setting up conv1/scale
I0930 15:51:21.735064 32668 net.cpp:186] Top shape: 128 16 32 32 (2097152)
I0930 15:51:21.735067 32668 net.cpp:194] Memory required for data: 26739200
I0930 15:51:21.735075 32668 layer_factory.hpp:77] Creating layer conv1/ReLU
I0930 15:51:21.735085 32668 net.cpp:128] Creating Layer conv1/ReLU
I0930 15:51:21.735092 32668 net.cpp:558] conv1/ReLU <- conv1
I0930 15:51:21.735098 32668 net.cpp:509] conv1/ReLU -> conv1 (in-place)
I0930 15:51:21.735328 32668 net.cpp:172] Setting up conv1/ReLU
I0930 15:51:21.735365 32668 net.cpp:186] Top shape: 128 16 32 32 (2097152)
I0930 15:51:21.735373 32668 net.cpp:194] Memory required for data: 35127808
I0930 15:51:21.735379 32668 layer_factory.hpp:77] Creating layer conv1_conv1/ReLU_0_split
I0930 15:51:21.735388 32668 net.cpp:128] Creating Layer conv1_conv1/ReLU_0_split
I0930 15:51:21.735394 32668 net.cpp:558] conv1_conv1/ReLU_0_split <- conv1
I0930 15:51:21.735400 32668 net.cpp:522] conv1_conv1/ReLU_0_split -> conv1_conv1/ReLU_0_split_0
I0930 15:51:21.735411 32668 net.cpp:522] conv1_conv1/ReLU_0_split -> conv1_conv1/ReLU_0_split_1
I0930 15:51:21.735460 32668 net.cpp:172] Setting up conv1_conv1/ReLU_0_split
I0930 15:51:21.735471 32668 net.cpp:186] Top shape: 128 16 32 32 (2097152)
I0930 15:51:21.735494 32668 net.cpp:186] Top shape: 128 16 32 32 (2097152)
I0930 15:51:21.735502 32668 net.cpp:194] Memory required for data: 51905024
I0930 15:51:21.735507 32668 layer_factory.hpp:77] Creating layer conv2_1_0
I0930 15:51:21.735520 32668 net.cpp:128] Creating Layer conv2_1_0
I0930 15:51:21.735527 32668 net.cpp:558] conv2_1_0 <- conv1_conv1/ReLU_0_split_0
I0930 15:51:21.735533 32668 net.cpp:522] conv2_1_0 -> conv2_1_0
I0930 15:51:21.738103 32668 net.cpp:172] Setting up conv2_1_0
I0930 15:51:21.738126 32668 net.cpp:186] Top shape: 128 16 32 32 (2097152)
I0930 15:51:21.738131 32668 net.cpp:194] Memory required for data: 60293632
I0930 15:51:21.738147 32668 layer_factory.hpp:77] Creating layer conv2_1_bn0
I0930 15:51:21.738196 32668 net.cpp:128] Creating Layer conv2_1_bn0
I0930 15:51:21.738206 32668 net.cpp:558] conv2_1_bn0 <- conv2_1_0
I0930 15:51:21.738214 32668 net.cpp:509] conv2_1_bn0 -> conv2_1_0 (in-place)
I0930 15:51:21.738430 32668 net.cpp:172] Setting up conv2_1_bn0
I0930 15:51:21.738461 32668 net.cpp:186] Top shape: 128 16 32 32 (2097152)
I0930 15:51:21.738474 32668 net.cpp:194] Memory required for data: 68682240
I0930 15:51:21.738497 32668 layer_factory.hpp:77] Creating layer conv2_1_scale0
I0930 15:51:21.738519 32668 net.cpp:128] Creating Layer conv2_1_scale0
I0930 15:51:21.738534 32668 net.cpp:558] conv2_1_scale0 <- conv2_1_0
I0930 15:51:21.738550 32668 net.cpp:509] conv2_1_scale0 -> conv2_1_0 (in-place)
I0930 15:51:21.738605 32668 layer_factory.hpp:77] Creating layer conv2_1_scale0
I0930 15:51:21.738751 32668 net.cpp:172] Setting up conv2_1_scale0
I0930 15:51:21.738764 32668 net.cpp:186] Top shape: 128 16 32 32 (2097152)
I0930 15:51:21.738768 32668 net.cpp:194] Memory required for data: 77070848
I0930 15:51:21.738777 32668 layer_factory.hpp:77] Creating layer conv2_1_ReLU0
I0930 15:51:21.738785 32668 net.cpp:128] Creating Layer conv2_1_ReLU0
I0930 15:51:21.738788 32668 net.cpp:558] conv2_1_ReLU0 <- conv2_1_0
I0930 15:51:21.738795 32668 net.cpp:509] conv2_1_ReLU0 -> conv2_1_0 (in-place)
I0930 15:51:21.739007 32668 net.cpp:172] Setting up conv2_1_ReLU0
I0930 15:51:21.739020 32668 net.cpp:186] Top shape: 128 16 32 32 (2097152)
I0930 15:51:21.739025 32668 net.cpp:194] Memory required for data: 85459456
I0930 15:51:21.739045 32668 layer_factory.hpp:77] Creating layer conv2_1_1
I0930 15:51:21.739058 32668 net.cpp:128] Creating Layer conv2_1_1
I0930 15:51:21.739063 32668 net.cpp:558] conv2_1_1 <- conv2_1_0
I0930 15:51:21.739069 32668 net.cpp:522] conv2_1_1 -> conv2_1_1
I0930 15:51:21.740252 32668 net.cpp:172] Setting up conv2_1_1
I0930 15:51:21.740278 32668 net.cpp:186] Top shape: 128 16 32 32 (2097152)
I0930 15:51:21.740281 32668 net.cpp:194] Memory required for data: 93848064
I0930 15:51:21.740291 32668 layer_factory.hpp:77] Creating layer conv2_1bn1
I0930 15:51:21.740301 32668 net.cpp:128] Creating Layer conv2_1bn1
I0930 15:51:21.740306 32668 net.cpp:558] conv2_1bn1 <- conv2_1_1
I0930 15:51:21.740312 32668 net.cpp:509] conv2_1bn1 -> conv2_1_1 (in-place)
I0930 15:51:21.740527 32668 net.cpp:172] Setting up conv2_1bn1
I0930 15:51:21.740538 32668 net.cpp:186] Top shape: 128 16 32 32 (2097152)
I0930 15:51:21.740543 32668 net.cpp:194] Memory required for data: 102236672
I0930 15:51:21.740556 32668 layer_factory.hpp:77] Creating layer conv2_1_scale1
I0930 15:51:21.740563 32668 net.cpp:128] Creating Layer conv2_1_scale1
I0930 15:51:21.740567 32668 net.cpp:558] conv2_1_scale1 <- conv2_1_1
I0930 15:51:21.740573 32668 net.cpp:509] conv2_1_scale1 -> conv2_1_1 (in-place)
I0930 15:51:21.740609 32668 layer_factory.hpp:77] Creating layer conv2_1_scale1
I0930 15:51:21.740775 32668 net.cpp:172] Setting up conv2_1_scale1
I0930 15:51:21.740799 32668 net.cpp:186] Top shape: 128 16 32 32 (2097152)
I0930 15:51:21.740813 32668 net.cpp:194] Memory required for data: 110625280
I0930 15:51:21.740833 32668 layer_factory.hpp:77] Creating layer conv2_Eltwise_1
I0930 15:51:21.740856 32668 net.cpp:128] Creating Layer conv2_Eltwise_1
I0930 15:51:21.740864 32668 net.cpp:558] conv2_Eltwise_1 <- conv1_conv1/ReLU_0_split_1
I0930 15:51:21.740870 32668 net.cpp:558] conv2_Eltwise_1 <- conv2_1_1
I0930 15:51:21.740877 32668 net.cpp:522] conv2_Eltwise_1 -> conv2_Eltwise_1
I0930 15:51:21.740909 32668 net.cpp:172] Setting up conv2_Eltwise_1
I0930 15:51:21.740936 32668 net.cpp:186] Top shape: 128 16 32 32 (2097152)
I0930 15:51:21.740954 32668 net.cpp:194] Memory required for data: 119013888
I0930 15:51:21.740969 32668 layer_factory.hpp:77] Creating layer conv2_1ReLU_1
I0930 15:51:21.740985 32668 net.cpp:128] Creating Layer conv2_1ReLU_1
I0930 15:51:21.740999 32668 net.cpp:558] conv2_1ReLU_1 <- conv2_Eltwise_1
I0930 15:51:21.741016 32668 net.cpp:509] conv2_1ReLU_1 -> conv2_Eltwise_1 (in-place)
I0930 15:51:21.741469 32668 net.cpp:172] Setting up conv2_1ReLU_1
I0930 15:51:21.741510 32668 net.cpp:186] Top shape: 128 16 32 32 (2097152)
I0930 15:51:21.741519 32668 net.cpp:194] Memory required for data: 127402496
I0930 15:51:21.741525 32668 layer_factory.hpp:77] Creating layer conv2_Eltwise_1_conv2_1ReLU_1_0_split
I0930 15:51:21.741534 32668 net.cpp:128] Creating Layer conv2_Eltwise_1_conv2_1ReLU_1_0_split
I0930 15:51:21.741539 32668 net.cpp:558] conv2_Eltwise_1_conv2_1ReLU_1_0_split <- conv2_Eltwise_1
I0930 15:51:21.741547 32668 net.cpp:522] conv2_Eltwise_1_conv2_1ReLU_1_0_split -> conv2_Eltwise_1_conv2_1ReLU_1_0_split_0
I0930 15:51:21.741557 32668 net.cpp:522] conv2_Eltwise_1_conv2_1ReLU_1_0_split -> conv2_Eltwise_1_conv2_1ReLU_1_0_split_1
I0930 15:51:21.741606 32668 net.cpp:172] Setting up conv2_Eltwise_1_conv2_1ReLU_1_0_split
I0930 15:51:21.741641 32668 net.cpp:186] Top shape: 128 16 32 32 (2097152)
I0930 15:51:21.741657 32668 net.cpp:186] Top shape: 128 16 32 32 (2097152)
I0930 15:51:21.741665 32668 net.cpp:194] Memory required for data: 144179712
I0930 15:51:21.741670 32668 layer_factory.hpp:77] Creating layer conv2_2_0
I0930 15:51:21.741683 32668 net.cpp:128] Creating Layer conv2_2_0
I0930 15:51:21.741688 32668 net.cpp:558] conv2_2_0 <- conv2_Eltwise_1_conv2_1ReLU_1_0_split_0
I0930 15:51:21.741695 32668 net.cpp:522] conv2_2_0 -> conv2_2_0
I0930 15:51:21.742903 32668 net.cpp:172] Setting up conv2_2_0
I0930 15:51:21.742926 32668 net.cpp:186] Top shape: 128 16 32 32 (2097152)
I0930 15:51:21.742930 32668 net.cpp:194] Memory required for data: 152568320
I0930 15:51:21.742957 32668 layer_factory.hpp:77] Creating layer conv2_2_bn0
I0930 15:51:21.742966 32668 net.cpp:128] Creating Layer conv2_2_bn0
I0930 15:51:21.742971 32668 net.cpp:558] conv2_2_bn0 <- conv2_2_0
I0930 15:51:21.742978 32668 net.cpp:509] conv2_2_bn0 -> conv2_2_0 (in-place)
I0930 15:51:21.743201 32668 net.cpp:172] Setting up conv2_2_bn0
I0930 15:51:21.743237 32668 net.cpp:186] Top shape: 128 16 32 32 (2097152)
I0930 15:51:21.743255 32668 net.cpp:194] Memory required for data: 160956928
I0930 15:51:21.743279 32668 layer_factory.hpp:77] Creating layer conv2_2_scale0
I0930 15:51:21.743299 32668 net.cpp:128] Creating Layer conv2_2_scale0
I0930 15:51:21.743316 32668 net.cpp:558] conv2_2_scale0 <- conv2_2_0
I0930 15:51:21.743335 32668 net.cpp:509] conv2_2_scale0 -> conv2_2_0 (in-place)
I0930 15:51:21.743392 32668 layer_factory.hpp:77] Creating layer conv2_2_scale0
I0930 15:51:21.743533 32668 net.cpp:172] Setting up conv2_2_scale0
I0930 15:51:21.743556 32668 net.cpp:186] Top shape: 128 16 32 32 (2097152)
I0930 15:51:21.743572 32668 net.cpp:194] Memory required for data: 169345536
I0930 15:51:21.743593 32668 layer_factory.hpp:77] Creating layer conv2_2_ReLU0
I0930 15:51:21.743613 32668 net.cpp:128] Creating Layer conv2_2_ReLU0
I0930 15:51:21.743630 32668 net.cpp:558] conv2_2_ReLU0 <- conv2_2_0
I0930 15:51:21.743649 32668 net.cpp:509] conv2_2_ReLU0 -> conv2_2_0 (in-place)
I0930 15:51:21.743881 32668 net.cpp:172] Setting up conv2_2_ReLU0
I0930 15:51:21.743909 32668 net.cpp:186] Top shape: 128 16 32 32 (2097152)
I0930 15:51:21.743928 32668 net.cpp:194] Memory required for data: 177734144
I0930 15:51:21.743948 32668 layer_factory.hpp:77] Creating layer conv2_2_1
I0930 15:51:21.743974 32668 net.cpp:128] Creating Layer conv2_2_1
I0930 15:51:21.743993 32668 net.cpp:558] conv2_2_1 <- conv2_2_0
I0930 15:51:21.744015 32668 net.cpp:522] conv2_2_1 -> conv2_2_1
I0930 15:51:21.745280 32668 net.cpp:172] Setting up conv2_2_1
I0930 15:51:21.745309 32668 net.cpp:186] Top shape: 128 16 32 32 (2097152)
I0930 15:51:21.745314 32668 net.cpp:194] Memory required for data: 186122752
I0930 15:51:21.745326 32668 layer_factory.hpp:77] Creating layer conv2_2bn1
I0930 15:51:21.745334 32668 net.cpp:128] Creating Layer conv2_2bn1
I0930 15:51:21.745339 32668 net.cpp:558] conv2_2bn1 <- conv2_2_1
I0930 15:51:21.745352 32668 net.cpp:509] conv2_2bn1 -> conv2_2_1 (in-place)
I0930 15:51:21.745595 32668 net.cpp:172] Setting up conv2_2bn1
I0930 15:51:21.745607 32668 net.cpp:186] Top shape: 128 16 32 32 (2097152)
I0930 15:51:21.745612 32668 net.cpp:194] Memory required for data: 194511360
I0930 15:51:21.745626 32668 layer_factory.hpp:77] Creating layer conv2_2_scale1
I0930 15:51:21.745635 32668 net.cpp:128] Creating Layer conv2_2_scale1
I0930 15:51:21.745638 32668 net.cpp:558] conv2_2_scale1 <- conv2_2_1
I0930 15:51:21.745645 32668 net.cpp:509] conv2_2_scale1 -> conv2_2_1 (in-place)
I0930 15:51:21.745684 32668 layer_factory.hpp:77] Creating layer conv2_2_scale1
I0930 15:51:21.745826 32668 net.cpp:172] Setting up conv2_2_scale1
I0930 15:51:21.745837 32668 net.cpp:186] Top shape: 128 16 32 32 (2097152)
I0930 15:51:21.745841 32668 net.cpp:194] Memory required for data: 202899968
I0930 15:51:21.745849 32668 layer_factory.hpp:77] Creating layer conv2_Eltwise_2
I0930 15:51:21.745858 32668 net.cpp:128] Creating Layer conv2_Eltwise_2
I0930 15:51:21.745865 32668 net.cpp:558] conv2_Eltwise_2 <- conv2_Eltwise_1_conv2_1ReLU_1_0_split_1
I0930 15:51:21.745872 32668 net.cpp:558] conv2_Eltwise_2 <- conv2_2_1
I0930 15:51:21.745877 32668 net.cpp:522] conv2_Eltwise_2 -> conv2_Eltwise_2
I0930 15:51:21.745903 32668 net.cpp:172] Setting up conv2_Eltwise_2
I0930 15:51:21.745913 32668 net.cpp:186] Top shape: 128 16 32 32 (2097152)
I0930 15:51:21.745916 32668 net.cpp:194] Memory required for data: 211288576
I0930 15:51:21.745920 32668 layer_factory.hpp:77] Creating layer conv2_2ReLU_1
I0930 15:51:21.745926 32668 net.cpp:128] Creating Layer conv2_2ReLU_1
I0930 15:51:21.745941 32668 net.cpp:558] conv2_2ReLU_1 <- conv2_Eltwise_2
I0930 15:51:21.745949 32668 net.cpp:509] conv2_2ReLU_1 -> conv2_Eltwise_2 (in-place)
I0930 15:51:21.746193 32668 net.cpp:172] Setting up conv2_2ReLU_1
I0930 15:51:21.746207 32668 net.cpp:186] Top shape: 128 16 32 32 (2097152)
I0930 15:51:21.746212 32668 net.cpp:194] Memory required for data: 219677184
I0930 15:51:21.746217 32668 layer_factory.hpp:77] Creating layer conv2_Eltwise_2_conv2_2ReLU_1_0_split
I0930 15:51:21.746223 32668 net.cpp:128] Creating Layer conv2_Eltwise_2_conv2_2ReLU_1_0_split
I0930 15:51:21.746255 32668 net.cpp:558] conv2_Eltwise_2_conv2_2ReLU_1_0_split <- conv2_Eltwise_2
I0930 15:51:21.746268 32668 net.cpp:522] conv2_Eltwise_2_conv2_2ReLU_1_0_split -> conv2_Eltwise_2_conv2_2ReLU_1_0_split_0
I0930 15:51:21.746278 32668 net.cpp:522] conv2_Eltwise_2_conv2_2ReLU_1_0_split -> conv2_Eltwise_2_conv2_2ReLU_1_0_split_1
I0930 15:51:21.746332 32668 net.cpp:172] Setting up conv2_Eltwise_2_conv2_2ReLU_1_0_split
I0930 15:51:21.746342 32668 net.cpp:186] Top shape: 128 16 32 32 (2097152)
I0930 15:51:21.746348 32668 net.cpp:186] Top shape: 128 16 32 32 (2097152)
I0930 15:51:21.746369 32668 net.cpp:194] Memory required for data: 236454400
I0930 15:51:21.746377 32668 layer_factory.hpp:77] Creating layer conv2_3_0
I0930 15:51:21.746390 32668 net.cpp:128] Creating Layer conv2_3_0
I0930 15:51:21.746397 32668 net.cpp:558] conv2_3_0 <- conv2_Eltwise_2_conv2_2ReLU_1_0_split_0
I0930 15:51:21.746407 32668 net.cpp:522] conv2_3_0 -> conv2_3_0
I0930 15:51:21.747674 32668 net.cpp:172] Setting up conv2_3_0
I0930 15:51:21.747695 32668 net.cpp:186] Top shape: 128 16 32 32 (2097152)
I0930 15:51:21.747700 32668 net.cpp:194] Memory required for data: 244843008
I0930 15:51:21.747710 32668 layer_factory.hpp:77] Creating layer conv2_3_bn0
I0930 15:51:21.747726 32668 net.cpp:128] Creating Layer conv2_3_bn0
I0930 15:51:21.747732 32668 net.cpp:558] conv2_3_bn0 <- conv2_3_0
I0930 15:51:21.747740 32668 net.cpp:509] conv2_3_bn0 -> conv2_3_0 (in-place)
I0930 15:51:21.747980 32668 net.cpp:172] Setting up conv2_3_bn0
I0930 15:51:21.747990 32668 net.cpp:186] Top shape: 128 16 32 32 (2097152)
I0930 15:51:21.747994 32668 net.cpp:194] Memory required for data: 253231616
I0930 15:51:21.748004 32668 layer_factory.hpp:77] Creating layer conv2_3_scale0
I0930 15:51:21.748039 32668 net.cpp:128] Creating Layer conv2_3_scale0
I0930 15:51:21.748047 32668 net.cpp:558] conv2_3_scale0 <- conv2_3_0
I0930 15:51:21.748054 32668 net.cpp:509] conv2_3_scale0 -> conv2_3_0 (in-place)
I0930 15:51:21.748100 32668 layer_factory.hpp:77] Creating layer conv2_3_scale0
I0930 15:51:21.748234 32668 net.cpp:172] Setting up conv2_3_scale0
I0930 15:51:21.748245 32668 net.cpp:186] Top shape: 128 16 32 32 (2097152)
I0930 15:51:21.748248 32668 net.cpp:194] Memory required for data: 261620224
I0930 15:51:21.748256 32668 layer_factory.hpp:77] Creating layer conv2_3_ReLU0
I0930 15:51:21.748270 32668 net.cpp:128] Creating Layer conv2_3_ReLU0
I0930 15:51:21.748275 32668 net.cpp:558] conv2_3_ReLU0 <- conv2_3_0
I0930 15:51:21.748280 32668 net.cpp:509] conv2_3_ReLU0 -> conv2_3_0 (in-place)
I0930 15:51:21.748728 32668 net.cpp:172] Setting up conv2_3_ReLU0
I0930 15:51:21.748749 32668 net.cpp:186] Top shape: 128 16 32 32 (2097152)
I0930 15:51:21.748757 32668 net.cpp:194] Memory required for data: 270008832
I0930 15:51:21.748762 32668 layer_factory.hpp:77] Creating layer conv2_3_1
I0930 15:51:21.748777 32668 net.cpp:128] Creating Layer conv2_3_1
I0930 15:51:21.748785 32668 net.cpp:558] conv2_3_1 <- conv2_3_0
I0930 15:51:21.748796 32668 net.cpp:522] conv2_3_1 -> conv2_3_1
I0930 15:51:21.750102 32668 net.cpp:172] Setting up conv2_3_1
I0930 15:51:21.750128 32668 net.cpp:186] Top shape: 128 16 32 32 (2097152)
I0930 15:51:21.750133 32668 net.cpp:194] Memory required for data: 278397440
I0930 15:51:21.750144 32668 layer_factory.hpp:77] Creating layer conv2_3bn1
I0930 15:51:21.750152 32668 net.cpp:128] Creating Layer conv2_3bn1
I0930 15:51:21.750157 32668 net.cpp:558] conv2_3bn1 <- conv2_3_1
I0930 15:51:21.750166 32668 net.cpp:509] conv2_3bn1 -> conv2_3_1 (in-place)
I0930 15:51:21.750411 32668 net.cpp:172] Setting up conv2_3bn1
I0930 15:51:21.750437 32668 net.cpp:186] Top shape: 128 16 32 32 (2097152)
I0930 15:51:21.750440 32668 net.cpp:194] Memory required for data: 286786048
I0930 15:51:21.750452 32668 layer_factory.hpp:77] Creating layer conv2_3_scale1
I0930 15:51:21.750485 32668 net.cpp:128] Creating Layer conv2_3_scale1
I0930 15:51:21.750501 32668 net.cpp:558] conv2_3_scale1 <- conv2_3_1
I0930 15:51:21.750521 32668 net.cpp:509] conv2_3_scale1 -> conv2_3_1 (in-place)
I0930 15:51:21.750586 32668 layer_factory.hpp:77] Creating layer conv2_3_scale1
I0930 15:51:21.750725 32668 net.cpp:172] Setting up conv2_3_scale1
I0930 15:51:21.750735 32668 net.cpp:186] Top shape: 128 16 32 32 (2097152)
I0930 15:51:21.750739 32668 net.cpp:194] Memory required for data: 295174656
I0930 15:51:21.750747 32668 layer_factory.hpp:77] Creating layer conv2_Eltwise_3
I0930 15:51:21.750777 32668 net.cpp:128] Creating Layer conv2_Eltwise_3
I0930 15:51:21.750798 32668 net.cpp:558] conv2_Eltwise_3 <- conv2_Eltwise_2_conv2_2ReLU_1_0_split_1
I0930 15:51:21.750818 32668 net.cpp:558] conv2_Eltwise_3 <- conv2_3_1
I0930 15:51:21.750838 32668 net.cpp:522] conv2_Eltwise_3 -> conv2_Eltwise_3
I0930 15:51:21.750883 32668 net.cpp:172] Setting up conv2_Eltwise_3
I0930 15:51:21.750893 32668 net.cpp:186] Top shape: 128 16 32 32 (2097152)
I0930 15:51:21.750897 32668 net.cpp:194] Memory required for data: 303563264
I0930 15:51:21.750902 32668 layer_factory.hpp:77] Creating layer conv2_3ReLU_1
I0930 15:51:21.750912 32668 net.cpp:128] Creating Layer conv2_3ReLU_1
I0930 15:51:21.750917 32668 net.cpp:558] conv2_3ReLU_1 <- conv2_Eltwise_3
I0930 15:51:21.750922 32668 net.cpp:509] conv2_3ReLU_1 -> conv2_Eltwise_3 (in-place)
I0930 15:51:21.751152 32668 net.cpp:172] Setting up conv2_3ReLU_1
I0930 15:51:21.751166 32668 net.cpp:186] Top shape: 128 16 32 32 (2097152)
I0930 15:51:21.751174 32668 net.cpp:194] Memory required for data: 311951872
I0930 15:51:21.751179 32668 layer_factory.hpp:77] Creating layer conv2_Eltwise_3_conv2_3ReLU_1_0_split
I0930 15:51:21.751186 32668 net.cpp:128] Creating Layer conv2_Eltwise_3_conv2_3ReLU_1_0_split
I0930 15:51:21.751191 32668 net.cpp:558] conv2_Eltwise_3_conv2_3ReLU_1_0_split <- conv2_Eltwise_3
I0930 15:51:21.751200 32668 net.cpp:522] conv2_Eltwise_3_conv2_3ReLU_1_0_split -> conv2_Eltwise_3_conv2_3ReLU_1_0_split_0
I0930 15:51:21.751211 32668 net.cpp:522] conv2_Eltwise_3_conv2_3ReLU_1_0_split -> conv2_Eltwise_3_conv2_3ReLU_1_0_split_1
I0930 15:51:21.751258 32668 net.cpp:172] Setting up conv2_Eltwise_3_conv2_3ReLU_1_0_split
I0930 15:51:21.751267 32668 net.cpp:186] Top shape: 128 16 32 32 (2097152)
I0930 15:51:21.751273 32668 net.cpp:186] Top shape: 128 16 32 32 (2097152)
I0930 15:51:21.751277 32668 net.cpp:194] Memory required for data: 328729088
I0930 15:51:21.751281 32668 layer_factory.hpp:77] Creating layer conv2_4_0
I0930 15:51:21.751296 32668 net.cpp:128] Creating Layer conv2_4_0
I0930 15:51:21.751324 32668 net.cpp:558] conv2_4_0 <- conv2_Eltwise_3_conv2_3ReLU_1_0_split_0
I0930 15:51:21.751345 32668 net.cpp:522] conv2_4_0 -> conv2_4_0
I0930 15:51:21.752638 32668 net.cpp:172] Setting up conv2_4_0
I0930 15:51:21.752660 32668 net.cpp:186] Top shape: 128 16 32 32 (2097152)
I0930 15:51:21.752665 32668 net.cpp:194] Memory required for data: 337117696
I0930 15:51:21.752679 32668 layer_factory.hpp:77] Creating layer conv2_4_bn0
I0930 15:51:21.752691 32668 net.cpp:128] Creating Layer conv2_4_bn0
I0930 15:51:21.752696 32668 net.cpp:558] conv2_4_bn0 <- conv2_4_0
I0930 15:51:21.752705 32668 net.cpp:509] conv2_4_bn0 -> conv2_4_0 (in-place)
I0930 15:51:21.752943 32668 net.cpp:172] Setting up conv2_4_bn0
I0930 15:51:21.752951 32668 net.cpp:186] Top shape: 128 16 32 32 (2097152)
I0930 15:51:21.752955 32668 net.cpp:194] Memory required for data: 345506304
I0930 15:51:21.752965 32668 layer_factory.hpp:77] Creating layer conv2_4_scale0
I0930 15:51:21.752975 32668 net.cpp:128] Creating Layer conv2_4_scale0
I0930 15:51:21.752984 32668 net.cpp:558] conv2_4_scale0 <- conv2_4_0
I0930 15:51:21.752990 32668 net.cpp:509] conv2_4_scale0 -> conv2_4_0 (in-place)
I0930 15:51:21.753031 32668 layer_factory.hpp:77] Creating layer conv2_4_scale0
I0930 15:51:21.753221 32668 net.cpp:172] Setting up conv2_4_scale0
I0930 15:51:21.753232 32668 net.cpp:186] Top shape: 128 16 32 32 (2097152)
I0930 15:51:21.753237 32668 net.cpp:194] Memory required for data: 353894912
I0930 15:51:21.753247 32668 layer_factory.hpp:77] Creating layer conv2_4_ReLU0
I0930 15:51:21.753257 32668 net.cpp:128] Creating Layer conv2_4_ReLU0
I0930 15:51:21.753262 32668 net.cpp:558] conv2_4_ReLU0 <- conv2_4_0
I0930 15:51:21.753269 32668 net.cpp:509] conv2_4_ReLU0 -> conv2_4_0 (in-place)
I0930 15:51:21.753506 32668 net.cpp:172] Setting up conv2_4_ReLU0
I0930 15:51:21.753518 32668 net.cpp:186] Top shape: 128 16 32 32 (2097152)
I0930 15:51:21.753523 32668 net.cpp:194] Memory required for data: 362283520
I0930 15:51:21.753527 32668 layer_factory.hpp:77] Creating layer conv2_4_1
I0930 15:51:21.753541 32668 net.cpp:128] Creating Layer conv2_4_1
I0930 15:51:21.753548 32668 net.cpp:558] conv2_4_1 <- conv2_4_0
I0930 15:51:21.753558 32668 net.cpp:522] conv2_4_1 -> conv2_4_1
I0930 15:51:21.754845 32668 net.cpp:172] Setting up conv2_4_1
I0930 15:51:21.754874 32668 net.cpp:186] Top shape: 128 16 32 32 (2097152)
I0930 15:51:21.754878 32668 net.cpp:194] Memory required for data: 370672128
I0930 15:51:21.754889 32668 layer_factory.hpp:77] Creating layer conv2_4bn1
I0930 15:51:21.754896 32668 net.cpp:128] Creating Layer conv2_4bn1
I0930 15:51:21.754910 32668 net.cpp:558] conv2_4bn1 <- conv2_4_1
I0930 15:51:21.754920 32668 net.cpp:509] conv2_4bn1 -> conv2_4_1 (in-place)
I0930 15:51:21.755159 32668 net.cpp:172] Setting up conv2_4bn1
I0930 15:51:21.755169 32668 net.cpp:186] Top shape: 128 16 32 32 (2097152)
I0930 15:51:21.755173 32668 net.cpp:194] Memory required for data: 379060736
I0930 15:51:21.755183 32668 layer_factory.hpp:77] Creating layer conv2_4_scale1
I0930 15:51:21.755193 32668 net.cpp:128] Creating Layer conv2_4_scale1
I0930 15:51:21.755198 32668 net.cpp:558] conv2_4_scale1 <- conv2_4_1
I0930 15:51:21.755205 32668 net.cpp:509] conv2_4_scale1 -> conv2_4_1 (in-place)
I0930 15:51:21.755244 32668 layer_factory.hpp:77] Creating layer conv2_4_scale1
I0930 15:51:21.755378 32668 net.cpp:172] Setting up conv2_4_scale1
I0930 15:51:21.755384 32668 net.cpp:186] Top shape: 128 16 32 32 (2097152)
I0930 15:51:21.755388 32668 net.cpp:194] Memory required for data: 387449344
I0930 15:51:21.755395 32668 layer_factory.hpp:77] Creating layer conv2_Eltwise_4
I0930 15:51:21.755404 32668 net.cpp:128] Creating Layer conv2_Eltwise_4
I0930 15:51:21.755409 32668 net.cpp:558] conv2_Eltwise_4 <- conv2_Eltwise_3_conv2_3ReLU_1_0_split_1
I0930 15:51:21.755414 32668 net.cpp:558] conv2_Eltwise_4 <- conv2_4_1
I0930 15:51:21.755420 32668 net.cpp:522] conv2_Eltwise_4 -> conv2_Eltwise_4
I0930 15:51:21.755446 32668 net.cpp:172] Setting up conv2_Eltwise_4
I0930 15:51:21.755453 32668 net.cpp:186] Top shape: 128 16 32 32 (2097152)
I0930 15:51:21.755457 32668 net.cpp:194] Memory required for data: 395837952
I0930 15:51:21.755461 32668 layer_factory.hpp:77] Creating layer conv2_4ReLU_1
I0930 15:51:21.755466 32668 net.cpp:128] Creating Layer conv2_4ReLU_1
I0930 15:51:21.755470 32668 net.cpp:558] conv2_4ReLU_1 <- conv2_Eltwise_4
I0930 15:51:21.755478 32668 net.cpp:509] conv2_4ReLU_1 -> conv2_Eltwise_4 (in-place)
I0930 15:51:21.755707 32668 net.cpp:172] Setting up conv2_4ReLU_1
I0930 15:51:21.755717 32668 net.cpp:186] Top shape: 128 16 32 32 (2097152)
I0930 15:51:21.755720 32668 net.cpp:194] Memory required for data: 404226560
I0930 15:51:21.755725 32668 layer_factory.hpp:77] Creating layer conv2_Eltwise_4_conv2_4ReLU_1_0_split
I0930 15:51:21.755733 32668 net.cpp:128] Creating Layer conv2_Eltwise_4_conv2_4ReLU_1_0_split
I0930 15:51:21.755736 32668 net.cpp:558] conv2_Eltwise_4_conv2_4ReLU_1_0_split <- conv2_Eltwise_4
I0930 15:51:21.755745 32668 net.cpp:522] conv2_Eltwise_4_conv2_4ReLU_1_0_split -> conv2_Eltwise_4_conv2_4ReLU_1_0_split_0
I0930 15:51:21.755754 32668 net.cpp:522] conv2_Eltwise_4_conv2_4ReLU_1_0_split -> conv2_Eltwise_4_conv2_4ReLU_1_0_split_1
I0930 15:51:21.755801 32668 net.cpp:172] Setting up conv2_Eltwise_4_conv2_4ReLU_1_0_split
I0930 15:51:21.755823 32668 net.cpp:186] Top shape: 128 16 32 32 (2097152)
I0930 15:51:21.755830 32668 net.cpp:186] Top shape: 128 16 32 32 (2097152)
I0930 15:51:21.755833 32668 net.cpp:194] Memory required for data: 421003776
I0930 15:51:21.755837 32668 layer_factory.hpp:77] Creating layer conv2_5_0
I0930 15:51:21.755848 32668 net.cpp:128] Creating Layer conv2_5_0
I0930 15:51:21.755853 32668 net.cpp:558] conv2_5_0 <- conv2_Eltwise_4_conv2_4ReLU_1_0_split_0
I0930 15:51:21.755862 32668 net.cpp:522] conv2_5_0 -> conv2_5_0
I0930 15:51:21.757125 32668 net.cpp:172] Setting up conv2_5_0
I0930 15:51:21.757145 32668 net.cpp:186] Top shape: 128 16 32 32 (2097152)
I0930 15:51:21.757149 32668 net.cpp:194] Memory required for data: 429392384
I0930 15:51:21.757169 32668 layer_factory.hpp:77] Creating layer conv2_5_bn0
I0930 15:51:21.757181 32668 net.cpp:128] Creating Layer conv2_5_bn0
I0930 15:51:21.757186 32668 net.cpp:558] conv2_5_bn0 <- conv2_5_0
I0930 15:51:21.757192 32668 net.cpp:509] conv2_5_bn0 -> conv2_5_0 (in-place)
I0930 15:51:21.757431 32668 net.cpp:172] Setting up conv2_5_bn0
I0930 15:51:21.757437 32668 net.cpp:186] Top shape: 128 16 32 32 (2097152)
I0930 15:51:21.757442 32668 net.cpp:194] Memory required for data: 437780992
I0930 15:51:21.757452 32668 layer_factory.hpp:77] Creating layer conv2_5_scale0
I0930 15:51:21.757460 32668 net.cpp:128] Creating Layer conv2_5_scale0
I0930 15:51:21.757464 32668 net.cpp:558] conv2_5_scale0 <- conv2_5_0
I0930 15:51:21.757470 32668 net.cpp:509] conv2_5_scale0 -> conv2_5_0 (in-place)
I0930 15:51:21.757506 32668 layer_factory.hpp:77] Creating layer conv2_5_scale0
I0930 15:51:21.757639 32668 net.cpp:172] Setting up conv2_5_scale0
I0930 15:51:21.757647 32668 net.cpp:186] Top shape: 128 16 32 32 (2097152)
I0930 15:51:21.757650 32668 net.cpp:194] Memory required for data: 446169600
I0930 15:51:21.757658 32668 layer_factory.hpp:77] Creating layer conv2_5_ReLU0
I0930 15:51:21.757664 32668 net.cpp:128] Creating Layer conv2_5_ReLU0
I0930 15:51:21.757668 32668 net.cpp:558] conv2_5_ReLU0 <- conv2_5_0
I0930 15:51:21.757673 32668 net.cpp:509] conv2_5_ReLU0 -> conv2_5_0 (in-place)
I0930 15:51:21.758150 32668 net.cpp:172] Setting up conv2_5_ReLU0
I0930 15:51:21.758174 32668 net.cpp:186] Top shape: 128 16 32 32 (2097152)
I0930 15:51:21.758182 32668 net.cpp:194] Memory required for data: 454558208
I0930 15:51:21.758186 32668 layer_factory.hpp:77] Creating layer conv2_5_1
I0930 15:51:21.758199 32668 net.cpp:128] Creating Layer conv2_5_1
I0930 15:51:21.758208 32668 net.cpp:558] conv2_5_1 <- conv2_5_0
I0930 15:51:21.758215 32668 net.cpp:522] conv2_5_1 -> conv2_5_1
I0930 15:51:21.762742 32668 net.cpp:172] Setting up conv2_5_1
I0930 15:51:21.762768 32668 net.cpp:186] Top shape: 128 16 32 32 (2097152)
I0930 15:51:21.762773 32668 net.cpp:194] Memory required for data: 462946816
I0930 15:51:21.762784 32668 layer_factory.hpp:77] Creating layer conv2_5bn1
I0930 15:51:21.762795 32668 net.cpp:128] Creating Layer conv2_5bn1
I0930 15:51:21.762811 32668 net.cpp:558] conv2_5bn1 <- conv2_5_1
I0930 15:51:21.762820 32668 net.cpp:509] conv2_5bn1 -> conv2_5_1 (in-place)
I0930 15:51:21.763063 32668 net.cpp:172] Setting up conv2_5bn1
I0930 15:51:21.763075 32668 net.cpp:186] Top shape: 128 16 32 32 (2097152)
I0930 15:51:21.763079 32668 net.cpp:194] Memory required for data: 471335424
I0930 15:51:21.763088 32668 layer_factory.hpp:77] Creating layer conv2_5_scale1
I0930 15:51:21.763098 32668 net.cpp:128] Creating Layer conv2_5_scale1
I0930 15:51:21.763103 32668 net.cpp:558] conv2_5_scale1 <- conv2_5_1
I0930 15:51:21.763109 32668 net.cpp:509] conv2_5_scale1 -> conv2_5_1 (in-place)
I0930 15:51:21.763149 32668 layer_factory.hpp:77] Creating layer conv2_5_scale1
I0930 15:51:21.763291 32668 net.cpp:172] Setting up conv2_5_scale1
I0930 15:51:21.763301 32668 net.cpp:186] Top shape: 128 16 32 32 (2097152)
I0930 15:51:21.763305 32668 net.cpp:194] Memory required for data: 479724032
I0930 15:51:21.763314 32668 layer_factory.hpp:77] Creating layer conv2_Eltwise_5
I0930 15:51:21.763324 32668 net.cpp:128] Creating Layer conv2_Eltwise_5
I0930 15:51:21.763345 32668 net.cpp:558] conv2_Eltwise_5 <- conv2_Eltwise_4_conv2_4ReLU_1_0_split_1
I0930 15:51:21.763351 32668 net.cpp:558] conv2_Eltwise_5 <- conv2_5_1
I0930 15:51:21.763360 32668 net.cpp:522] conv2_Eltwise_5 -> conv2_Eltwise_5
I0930 15:51:21.763389 32668 net.cpp:172] Setting up conv2_Eltwise_5
I0930 15:51:21.763396 32668 net.cpp:186] Top shape: 128 16 32 32 (2097152)
I0930 15:51:21.763399 32668 net.cpp:194] Memory required for data: 488112640
I0930 15:51:21.763404 32668 layer_factory.hpp:77] Creating layer conv2_5ReLU_1
I0930 15:51:21.763411 32668 net.cpp:128] Creating Layer conv2_5ReLU_1
I0930 15:51:21.763414 32668 net.cpp:558] conv2_5ReLU_1 <- conv2_Eltwise_5
I0930 15:51:21.763420 32668 net.cpp:509] conv2_5ReLU_1 -> conv2_Eltwise_5 (in-place)
I0930 15:51:21.764806 32668 net.cpp:172] Setting up conv2_5ReLU_1
I0930 15:51:21.764823 32668 net.cpp:186] Top shape: 128 16 32 32 (2097152)
I0930 15:51:21.764827 32668 net.cpp:194] Memory required for data: 496501248
I0930 15:51:21.764832 32668 layer_factory.hpp:77] Creating layer conv2_Eltwise_5_conv2_5ReLU_1_0_split
I0930 15:51:21.764839 32668 net.cpp:128] Creating Layer conv2_Eltwise_5_conv2_5ReLU_1_0_split
I0930 15:51:21.764844 32668 net.cpp:558] conv2_Eltwise_5_conv2_5ReLU_1_0_split <- conv2_Eltwise_5
I0930 15:51:21.764853 32668 net.cpp:522] conv2_Eltwise_5_conv2_5ReLU_1_0_split -> conv2_Eltwise_5_conv2_5ReLU_1_0_split_0
I0930 15:51:21.764861 32668 net.cpp:522] conv2_Eltwise_5_conv2_5ReLU_1_0_split -> conv2_Eltwise_5_conv2_5ReLU_1_0_split_1
I0930 15:51:21.764909 32668 net.cpp:172] Setting up conv2_Eltwise_5_conv2_5ReLU_1_0_split
I0930 15:51:21.764917 32668 net.cpp:186] Top shape: 128 16 32 32 (2097152)
I0930 15:51:21.764922 32668 net.cpp:186] Top shape: 128 16 32 32 (2097152)
I0930 15:51:21.764926 32668 net.cpp:194] Memory required for data: 513278464
I0930 15:51:21.764931 32668 layer_factory.hpp:77] Creating layer conv2_6_0
I0930 15:51:21.764945 32668 net.cpp:128] Creating Layer conv2_6_0
I0930 15:51:21.764950 32668 net.cpp:558] conv2_6_0 <- conv2_Eltwise_5_conv2_5ReLU_1_0_split_0
I0930 15:51:21.764957 32668 net.cpp:522] conv2_6_0 -> conv2_6_0
I0930 15:51:21.769100 32668 net.cpp:172] Setting up conv2_6_0
I0930 15:51:21.769127 32668 net.cpp:186] Top shape: 128 16 32 32 (2097152)
I0930 15:51:21.769132 32668 net.cpp:194] Memory required for data: 521667072
I0930 15:51:21.769141 32668 layer_factory.hpp:77] Creating layer conv2_6_bn0
I0930 15:51:21.769152 32668 net.cpp:128] Creating Layer conv2_6_bn0
I0930 15:51:21.769158 32668 net.cpp:558] conv2_6_bn0 <- conv2_6_0
I0930 15:51:21.769166 32668 net.cpp:509] conv2_6_bn0 -> conv2_6_0 (in-place)
I0930 15:51:21.769412 32668 net.cpp:172] Setting up conv2_6_bn0
I0930 15:51:21.769424 32668 net.cpp:186] Top shape: 128 16 32 32 (2097152)
I0930 15:51:21.769428 32668 net.cpp:194] Memory required for data: 530055680
I0930 15:51:21.769438 32668 layer_factory.hpp:77] Creating layer conv2_6_scale0
I0930 15:51:21.769448 32668 net.cpp:128] Creating Layer conv2_6_scale0
I0930 15:51:21.769451 32668 net.cpp:558] conv2_6_scale0 <- conv2_6_0
I0930 15:51:21.769457 32668 net.cpp:509] conv2_6_scale0 -> conv2_6_0 (in-place)
I0930 15:51:21.769497 32668 layer_factory.hpp:77] Creating layer conv2_6_scale0
I0930 15:51:21.769645 32668 net.cpp:172] Setting up conv2_6_scale0
I0930 15:51:21.769656 32668 net.cpp:186] Top shape: 128 16 32 32 (2097152)
I0930 15:51:21.769661 32668 net.cpp:194] Memory required for data: 538444288
I0930 15:51:21.769670 32668 layer_factory.hpp:77] Creating layer conv2_6_ReLU0
I0930 15:51:21.769675 32668 net.cpp:128] Creating Layer conv2_6_ReLU0
I0930 15:51:21.769680 32668 net.cpp:558] conv2_6_ReLU0 <- conv2_6_0
I0930 15:51:21.769688 32668 net.cpp:509] conv2_6_ReLU0 -> conv2_6_0 (in-place)
I0930 15:51:21.769922 32668 net.cpp:172] Setting up conv2_6_ReLU0
I0930 15:51:21.769949 32668 net.cpp:186] Top shape: 128 16 32 32 (2097152)
I0930 15:51:21.769954 32668 net.cpp:194] Memory required for data: 546832896
I0930 15:51:21.769959 32668 layer_factory.hpp:77] Creating layer conv2_6_1
I0930 15:51:21.769989 32668 net.cpp:128] Creating Layer conv2_6_1
I0930 15:51:21.769996 32668 net.cpp:558] conv2_6_1 <- conv2_6_0
I0930 15:51:21.770006 32668 net.cpp:522] conv2_6_1 -> conv2_6_1
I0930 15:51:21.771325 32668 net.cpp:172] Setting up conv2_6_1
I0930 15:51:21.771354 32668 net.cpp:186] Top shape: 128 16 32 32 (2097152)
I0930 15:51:21.771359 32668 net.cpp:194] Memory required for data: 555221504
I0930 15:51:21.771369 32668 layer_factory.hpp:77] Creating layer conv2_6bn1
I0930 15:51:21.771378 32668 net.cpp:128] Creating Layer conv2_6bn1
I0930 15:51:21.771386 32668 net.cpp:558] conv2_6bn1 <- conv2_6_1
I0930 15:51:21.771397 32668 net.cpp:509] conv2_6bn1 -> conv2_6_1 (in-place)
I0930 15:51:21.771651 32668 net.cpp:172] Setting up conv2_6bn1
I0930 15:51:21.771661 32668 net.cpp:186] Top shape: 128 16 32 32 (2097152)
I0930 15:51:21.771665 32668 net.cpp:194] Memory required for data: 563610112
I0930 15:51:21.771677 32668 layer_factory.hpp:77] Creating layer conv2_6_scale1
I0930 15:51:21.771687 32668 net.cpp:128] Creating Layer conv2_6_scale1
I0930 15:51:21.771690 32668 net.cpp:558] conv2_6_scale1 <- conv2_6_1
I0930 15:51:21.771703 32668 net.cpp:509] conv2_6_scale1 -> conv2_6_1 (in-place)
I0930 15:51:21.771745 32668 layer_factory.hpp:77] Creating layer conv2_6_scale1
I0930 15:51:21.771885 32668 net.cpp:172] Setting up conv2_6_scale1
I0930 15:51:21.771894 32668 net.cpp:186] Top shape: 128 16 32 32 (2097152)
I0930 15:51:21.771899 32668 net.cpp:194] Memory required for data: 571998720
I0930 15:51:21.771906 32668 layer_factory.hpp:77] Creating layer conv2_Eltwise_6
I0930 15:51:21.771917 32668 net.cpp:128] Creating Layer conv2_Eltwise_6
I0930 15:51:21.771925 32668 net.cpp:558] conv2_Eltwise_6 <- conv2_Eltwise_5_conv2_5ReLU_1_0_split_1
I0930 15:51:21.771931 32668 net.cpp:558] conv2_Eltwise_6 <- conv2_6_1
I0930 15:51:21.771936 32668 net.cpp:522] conv2_Eltwise_6 -> conv2_Eltwise_6
I0930 15:51:21.771970 32668 net.cpp:172] Setting up conv2_Eltwise_6
I0930 15:51:21.771981 32668 net.cpp:186] Top shape: 128 16 32 32 (2097152)
I0930 15:51:21.771984 32668 net.cpp:194] Memory required for data: 580387328
I0930 15:51:21.771989 32668 layer_factory.hpp:77] Creating layer conv2_6ReLU_1
I0930 15:51:21.771999 32668 net.cpp:128] Creating Layer conv2_6ReLU_1
I0930 15:51:21.772006 32668 net.cpp:558] conv2_6ReLU_1 <- conv2_Eltwise_6
I0930 15:51:21.772012 32668 net.cpp:509] conv2_6ReLU_1 -> conv2_Eltwise_6 (in-place)
I0930 15:51:21.772500 32668 net.cpp:172] Setting up conv2_6ReLU_1
I0930 15:51:21.772521 32668 net.cpp:186] Top shape: 128 16 32 32 (2097152)
I0930 15:51:21.772524 32668 net.cpp:194] Memory required for data: 588775936
I0930 15:51:21.772534 32668 layer_factory.hpp:77] Creating layer conv2_Eltwise_6_conv2_6ReLU_1_0_split
I0930 15:51:21.772545 32668 net.cpp:128] Creating Layer conv2_Eltwise_6_conv2_6ReLU_1_0_split
I0930 15:51:21.772552 32668 net.cpp:558] conv2_Eltwise_6_conv2_6ReLU_1_0_split <- conv2_Eltwise_6
I0930 15:51:21.772559 32668 net.cpp:522] conv2_Eltwise_6_conv2_6ReLU_1_0_split -> conv2_Eltwise_6_conv2_6ReLU_1_0_split_0
I0930 15:51:21.772573 32668 net.cpp:522] conv2_Eltwise_6_conv2_6ReLU_1_0_split -> conv2_Eltwise_6_conv2_6ReLU_1_0_split_1
I0930 15:51:21.772625 32668 net.cpp:172] Setting up conv2_Eltwise_6_conv2_6ReLU_1_0_split
I0930 15:51:21.772635 32668 net.cpp:186] Top shape: 128 16 32 32 (2097152)
I0930 15:51:21.772641 32668 net.cpp:186] Top shape: 128 16 32 32 (2097152)
I0930 15:51:21.772644 32668 net.cpp:194] Memory required for data: 605553152
I0930 15:51:21.772650 32668 layer_factory.hpp:77] Creating layer conv2_7_0
I0930 15:51:21.772662 32668 net.cpp:128] Creating Layer conv2_7_0
I0930 15:51:21.772667 32668 net.cpp:558] conv2_7_0 <- conv2_Eltwise_6_conv2_6ReLU_1_0_split_0
I0930 15:51:21.772676 32668 net.cpp:522] conv2_7_0 -> conv2_7_0
I0930 15:51:21.773990 32668 net.cpp:172] Setting up conv2_7_0
I0930 15:51:21.774016 32668 net.cpp:186] Top shape: 128 16 32 32 (2097152)
I0930 15:51:21.774021 32668 net.cpp:194] Memory required for data: 613941760
I0930 15:51:21.774031 32668 layer_factory.hpp:77] Creating layer conv2_7_bn0
I0930 15:51:21.774062 32668 net.cpp:128] Creating Layer conv2_7_bn0
I0930 15:51:21.774070 32668 net.cpp:558] conv2_7_bn0 <- conv2_7_0
I0930 15:51:21.774077 32668 net.cpp:509] conv2_7_bn0 -> conv2_7_0 (in-place)
I0930 15:51:21.774332 32668 net.cpp:172] Setting up conv2_7_bn0
I0930 15:51:21.774340 32668 net.cpp:186] Top shape: 128 16 32 32 (2097152)
I0930 15:51:21.774345 32668 net.cpp:194] Memory required for data: 622330368
I0930 15:51:21.774354 32668 layer_factory.hpp:77] Creating layer conv2_7_scale0
I0930 15:51:21.774364 32668 net.cpp:128] Creating Layer conv2_7_scale0
I0930 15:51:21.774369 32668 net.cpp:558] conv2_7_scale0 <- conv2_7_0
I0930 15:51:21.774374 32668 net.cpp:509] conv2_7_scale0 -> conv2_7_0 (in-place)
I0930 15:51:21.774415 32668 layer_factory.hpp:77] Creating layer conv2_7_scale0
I0930 15:51:21.774559 32668 net.cpp:172] Setting up conv2_7_scale0
I0930 15:51:21.774566 32668 net.cpp:186] Top shape: 128 16 32 32 (2097152)
I0930 15:51:21.774570 32668 net.cpp:194] Memory required for data: 630718976
I0930 15:51:21.774579 32668 layer_factory.hpp:77] Creating layer conv2_7_ReLU0
I0930 15:51:21.774586 32668 net.cpp:128] Creating Layer conv2_7_ReLU0
I0930 15:51:21.774591 32668 net.cpp:558] conv2_7_ReLU0 <- conv2_7_0
I0930 15:51:21.774596 32668 net.cpp:509] conv2_7_ReLU0 -> conv2_7_0 (in-place)
I0930 15:51:21.774832 32668 net.cpp:172] Setting up conv2_7_ReLU0
I0930 15:51:21.774847 32668 net.cpp:186] Top shape: 128 16 32 32 (2097152)
I0930 15:51:21.774850 32668 net.cpp:194] Memory required for data: 639107584
I0930 15:51:21.774855 32668 layer_factory.hpp:77] Creating layer conv2_7_1
I0930 15:51:21.774869 32668 net.cpp:128] Creating Layer conv2_7_1
I0930 15:51:21.774874 32668 net.cpp:558] conv2_7_1 <- conv2_7_0
I0930 15:51:21.774881 32668 net.cpp:522] conv2_7_1 -> conv2_7_1
I0930 15:51:21.776170 32668 net.cpp:172] Setting up conv2_7_1
I0930 15:51:21.776195 32668 net.cpp:186] Top shape: 128 16 32 32 (2097152)
I0930 15:51:21.776199 32668 net.cpp:194] Memory required for data: 647496192
I0930 15:51:21.776209 32668 layer_factory.hpp:77] Creating layer conv2_7bn1
I0930 15:51:21.776219 32668 net.cpp:128] Creating Layer conv2_7bn1
I0930 15:51:21.776224 32668 net.cpp:558] conv2_7bn1 <- conv2_7_1
I0930 15:51:21.776233 32668 net.cpp:509] conv2_7bn1 -> conv2_7_1 (in-place)
I0930 15:51:21.776486 32668 net.cpp:172] Setting up conv2_7bn1
I0930 15:51:21.776499 32668 net.cpp:186] Top shape: 128 16 32 32 (2097152)
I0930 15:51:21.776504 32668 net.cpp:194] Memory required for data: 655884800
I0930 15:51:21.776512 32668 layer_factory.hpp:77] Creating layer conv2_7_scale1
I0930 15:51:21.776521 32668 net.cpp:128] Creating Layer conv2_7_scale1
I0930 15:51:21.776526 32668 net.cpp:558] conv2_7_scale1 <- conv2_7_1
I0930 15:51:21.776531 32668 net.cpp:509] conv2_7_scale1 -> conv2_7_1 (in-place)
I0930 15:51:21.776572 32668 layer_factory.hpp:77] Creating layer conv2_7_scale1
I0930 15:51:21.776710 32668 net.cpp:172] Setting up conv2_7_scale1
I0930 15:51:21.776721 32668 net.cpp:186] Top shape: 128 16 32 32 (2097152)
I0930 15:51:21.776726 32668 net.cpp:194] Memory required for data: 664273408
I0930 15:51:21.776733 32668 layer_factory.hpp:77] Creating layer conv2_Eltwise_7
I0930 15:51:21.776741 32668 net.cpp:128] Creating Layer conv2_Eltwise_7
I0930 15:51:21.776746 32668 net.cpp:558] conv2_Eltwise_7 <- conv2_Eltwise_6_conv2_6ReLU_1_0_split_1
I0930 15:51:21.776751 32668 net.cpp:558] conv2_Eltwise_7 <- conv2_7_1
I0930 15:51:21.776758 32668 net.cpp:522] conv2_Eltwise_7 -> conv2_Eltwise_7
I0930 15:51:21.776785 32668 net.cpp:172] Setting up conv2_Eltwise_7
I0930 15:51:21.776793 32668 net.cpp:186] Top shape: 128 16 32 32 (2097152)
I0930 15:51:21.776796 32668 net.cpp:194] Memory required for data: 672662016
I0930 15:51:21.776800 32668 layer_factory.hpp:77] Creating layer conv2_7ReLU_1
I0930 15:51:21.776806 32668 net.cpp:128] Creating Layer conv2_7ReLU_1
I0930 15:51:21.776810 32668 net.cpp:558] conv2_7ReLU_1 <- conv2_Eltwise_7
I0930 15:51:21.776816 32668 net.cpp:509] conv2_7ReLU_1 -> conv2_Eltwise_7 (in-place)
I0930 15:51:21.777050 32668 net.cpp:172] Setting up conv2_7ReLU_1
I0930 15:51:21.777083 32668 net.cpp:186] Top shape: 128 16 32 32 (2097152)
I0930 15:51:21.777087 32668 net.cpp:194] Memory required for data: 681050624
I0930 15:51:21.777092 32668 layer_factory.hpp:77] Creating layer conv2_Eltwise_7_conv2_7ReLU_1_0_split
I0930 15:51:21.777099 32668 net.cpp:128] Creating Layer conv2_Eltwise_7_conv2_7ReLU_1_0_split
I0930 15:51:21.777103 32668 net.cpp:558] conv2_Eltwise_7_conv2_7ReLU_1_0_split <- conv2_Eltwise_7
I0930 15:51:21.777112 32668 net.cpp:522] conv2_Eltwise_7_conv2_7ReLU_1_0_split -> conv2_Eltwise_7_conv2_7ReLU_1_0_split_0
I0930 15:51:21.777120 32668 net.cpp:522] conv2_Eltwise_7_conv2_7ReLU_1_0_split -> conv2_Eltwise_7_conv2_7ReLU_1_0_split_1
I0930 15:51:21.777169 32668 net.cpp:172] Setting up conv2_Eltwise_7_conv2_7ReLU_1_0_split
I0930 15:51:21.777176 32668 net.cpp:186] Top shape: 128 16 32 32 (2097152)
I0930 15:51:21.777181 32668 net.cpp:186] Top shape: 128 16 32 32 (2097152)
I0930 15:51:21.777185 32668 net.cpp:194] Memory required for data: 697827840
I0930 15:51:21.777189 32668 layer_factory.hpp:77] Creating layer conv2_8_0
I0930 15:51:21.777204 32668 net.cpp:128] Creating Layer conv2_8_0
I0930 15:51:21.777209 32668 net.cpp:558] conv2_8_0 <- conv2_Eltwise_7_conv2_7ReLU_1_0_split_0
I0930 15:51:21.777215 32668 net.cpp:522] conv2_8_0 -> conv2_8_0
I0930 15:51:21.778743 32668 net.cpp:172] Setting up conv2_8_0
I0930 15:51:21.778765 32668 net.cpp:186] Top shape: 128 16 32 32 (2097152)
I0930 15:51:21.778770 32668 net.cpp:194] Memory required for data: 706216448
I0930 15:51:21.778780 32668 layer_factory.hpp:77] Creating layer conv2_8_bn0
I0930 15:51:21.778791 32668 net.cpp:128] Creating Layer conv2_8_bn0
I0930 15:51:21.778796 32668 net.cpp:558] conv2_8_bn0 <- conv2_8_0
I0930 15:51:21.778805 32668 net.cpp:509] conv2_8_bn0 -> conv2_8_0 (in-place)
I0930 15:51:21.779057 32668 net.cpp:172] Setting up conv2_8_bn0
I0930 15:51:21.779068 32668 net.cpp:186] Top shape: 128 16 32 32 (2097152)
I0930 15:51:21.779072 32668 net.cpp:194] Memory required for data: 714605056
I0930 15:51:21.779083 32668 layer_factory.hpp:77] Creating layer conv2_8_scale0
I0930 15:51:21.779089 32668 net.cpp:128] Creating Layer conv2_8_scale0
I0930 15:51:21.779094 32668 net.cpp:558] conv2_8_scale0 <- conv2_8_0
I0930 15:51:21.779099 32668 net.cpp:509] conv2_8_scale0 -> conv2_8_0 (in-place)
I0930 15:51:21.779140 32668 layer_factory.hpp:77] Creating layer conv2_8_scale0
I0930 15:51:21.779281 32668 net.cpp:172] Setting up conv2_8_scale0
I0930 15:51:21.779291 32668 net.cpp:186] Top shape: 128 16 32 32 (2097152)
I0930 15:51:21.779295 32668 net.cpp:194] Memory required for data: 722993664
I0930 15:51:21.779304 32668 layer_factory.hpp:77] Creating layer conv2_8_ReLU0
I0930 15:51:21.779309 32668 net.cpp:128] Creating Layer conv2_8_ReLU0
I0930 15:51:21.779314 32668 net.cpp:558] conv2_8_ReLU0 <- conv2_8_0
I0930 15:51:21.779321 32668 net.cpp:509] conv2_8_ReLU0 -> conv2_8_0 (in-place)
I0930 15:51:21.779780 32668 net.cpp:172] Setting up conv2_8_ReLU0
I0930 15:51:21.779803 32668 net.cpp:186] Top shape: 128 16 32 32 (2097152)
I0930 15:51:21.779806 32668 net.cpp:194] Memory required for data: 731382272
I0930 15:51:21.779812 32668 layer_factory.hpp:77] Creating layer conv2_8_1
I0930 15:51:21.779825 32668 net.cpp:128] Creating Layer conv2_8_1
I0930 15:51:21.779830 32668 net.cpp:558] conv2_8_1 <- conv2_8_0
I0930 15:51:21.779840 32668 net.cpp:522] conv2_8_1 -> conv2_8_1
I0930 15:51:21.781146 32668 net.cpp:172] Setting up conv2_8_1
I0930 15:51:21.781173 32668 net.cpp:186] Top shape: 128 16 32 32 (2097152)
I0930 15:51:21.781177 32668 net.cpp:194] Memory required for data: 739770880
I0930 15:51:21.781188 32668 layer_factory.hpp:77] Creating layer conv2_8bn1
I0930 15:51:21.781196 32668 net.cpp:128] Creating Layer conv2_8bn1
I0930 15:51:21.781201 32668 net.cpp:558] conv2_8bn1 <- conv2_8_1
I0930 15:51:21.781210 32668 net.cpp:509] conv2_8bn1 -> conv2_8_1 (in-place)
I0930 15:51:21.781462 32668 net.cpp:172] Setting up conv2_8bn1
I0930 15:51:21.781474 32668 net.cpp:186] Top shape: 128 16 32 32 (2097152)
I0930 15:51:21.781478 32668 net.cpp:194] Memory required for data: 748159488
I0930 15:51:21.781503 32668 layer_factory.hpp:77] Creating layer conv2_8_scale1
I0930 15:51:21.781510 32668 net.cpp:128] Creating Layer conv2_8_scale1
I0930 15:51:21.781515 32668 net.cpp:558] conv2_8_scale1 <- conv2_8_1
I0930 15:51:21.781522 32668 net.cpp:509] conv2_8_scale1 -> conv2_8_1 (in-place)
I0930 15:51:21.781563 32668 layer_factory.hpp:77] Creating layer conv2_8_scale1
I0930 15:51:21.781703 32668 net.cpp:172] Setting up conv2_8_scale1
I0930 15:51:21.781718 32668 net.cpp:186] Top shape: 128 16 32 32 (2097152)
I0930 15:51:21.781723 32668 net.cpp:194] Memory required for data: 756548096
I0930 15:51:21.781733 32668 layer_factory.hpp:77] Creating layer conv2_Eltwise_8
I0930 15:51:21.781741 32668 net.cpp:128] Creating Layer conv2_Eltwise_8
I0930 15:51:21.781746 32668 net.cpp:558] conv2_Eltwise_8 <- conv2_Eltwise_7_conv2_7ReLU_1_0_split_1
I0930 15:51:21.781752 32668 net.cpp:558] conv2_Eltwise_8 <- conv2_8_1
I0930 15:51:21.781759 32668 net.cpp:522] conv2_Eltwise_8 -> conv2_Eltwise_8
I0930 15:51:21.781785 32668 net.cpp:172] Setting up conv2_Eltwise_8
I0930 15:51:21.781792 32668 net.cpp:186] Top shape: 128 16 32 32 (2097152)
I0930 15:51:21.781796 32668 net.cpp:194] Memory required for data: 764936704
I0930 15:51:21.781800 32668 layer_factory.hpp:77] Creating layer conv2_8ReLU_1
I0930 15:51:21.781806 32668 net.cpp:128] Creating Layer conv2_8ReLU_1
I0930 15:51:21.781810 32668 net.cpp:558] conv2_8ReLU_1 <- conv2_Eltwise_8
I0930 15:51:21.781817 32668 net.cpp:509] conv2_8ReLU_1 -> conv2_Eltwise_8 (in-place)
I0930 15:51:21.782073 32668 net.cpp:172] Setting up conv2_8ReLU_1
I0930 15:51:21.782088 32668 net.cpp:186] Top shape: 128 16 32 32 (2097152)
I0930 15:51:21.782091 32668 net.cpp:194] Memory required for data: 773325312
I0930 15:51:21.782096 32668 layer_factory.hpp:77] Creating layer conv2_Eltwise_8_conv2_8ReLU_1_0_split
I0930 15:51:21.782104 32668 net.cpp:128] Creating Layer conv2_Eltwise_8_conv2_8ReLU_1_0_split
I0930 15:51:21.782107 32668 net.cpp:558] conv2_Eltwise_8_conv2_8ReLU_1_0_split <- conv2_Eltwise_8
I0930 15:51:21.782117 32668 net.cpp:522] conv2_Eltwise_8_conv2_8ReLU_1_0_split -> conv2_Eltwise_8_conv2_8ReLU_1_0_split_0
I0930 15:51:21.782125 32668 net.cpp:522] conv2_Eltwise_8_conv2_8ReLU_1_0_split -> conv2_Eltwise_8_conv2_8ReLU_1_0_split_1
I0930 15:51:21.782177 32668 net.cpp:172] Setting up conv2_Eltwise_8_conv2_8ReLU_1_0_split
I0930 15:51:21.782187 32668 net.cpp:186] Top shape: 128 16 32 32 (2097152)
I0930 15:51:21.782193 32668 net.cpp:186] Top shape: 128 16 32 32 (2097152)
I0930 15:51:21.782197 32668 net.cpp:194] Memory required for data: 790102528
I0930 15:51:21.782202 32668 layer_factory.hpp:77] Creating layer conv2_9_0
I0930 15:51:21.782213 32668 net.cpp:128] Creating Layer conv2_9_0
I0930 15:51:21.782218 32668 net.cpp:558] conv2_9_0 <- conv2_Eltwise_8_conv2_8ReLU_1_0_split_0
I0930 15:51:21.782229 32668 net.cpp:522] conv2_9_0 -> conv2_9_0
I0930 15:51:21.783530 32668 net.cpp:172] Setting up conv2_9_0
I0930 15:51:21.783556 32668 net.cpp:186] Top shape: 128 16 32 32 (2097152)
I0930 15:51:21.783561 32668 net.cpp:194] Memory required for data: 798491136
I0930 15:51:21.783571 32668 layer_factory.hpp:77] Creating layer conv2_9_bn0
I0930 15:51:21.783581 32668 net.cpp:128] Creating Layer conv2_9_bn0
I0930 15:51:21.783586 32668 net.cpp:558] conv2_9_bn0 <- conv2_9_0
I0930 15:51:21.783594 32668 net.cpp:509] conv2_9_bn0 -> conv2_9_0 (in-place)
I0930 15:51:21.783849 32668 net.cpp:172] Setting up conv2_9_bn0
I0930 15:51:21.783860 32668 net.cpp:186] Top shape: 128 16 32 32 (2097152)
I0930 15:51:21.783864 32668 net.cpp:194] Memory required for data: 806879744
I0930 15:51:21.783874 32668 layer_factory.hpp:77] Creating layer conv2_9_scale0
I0930 15:51:21.783881 32668 net.cpp:128] Creating Layer conv2_9_scale0
I0930 15:51:21.783890 32668 net.cpp:558] conv2_9_scale0 <- conv2_9_0
I0930 15:51:21.783900 32668 net.cpp:509] conv2_9_scale0 -> conv2_9_0 (in-place)
I0930 15:51:21.783941 32668 layer_factory.hpp:77] Creating layer conv2_9_scale0
I0930 15:51:21.784081 32668 net.cpp:172] Setting up conv2_9_scale0
I0930 15:51:21.784106 32668 net.cpp:186] Top shape: 128 16 32 32 (2097152)
I0930 15:51:21.784111 32668 net.cpp:194] Memory required for data: 815268352
I0930 15:51:21.784119 32668 layer_factory.hpp:77] Creating layer conv2_9_ReLU0
I0930 15:51:21.784128 32668 net.cpp:128] Creating Layer conv2_9_ReLU0
I0930 15:51:21.784138 32668 net.cpp:558] conv2_9_ReLU0 <- conv2_9_0
I0930 15:51:21.784144 32668 net.cpp:509] conv2_9_ReLU0 -> conv2_9_0 (in-place)
I0930 15:51:21.784394 32668 net.cpp:172] Setting up conv2_9_ReLU0
I0930 15:51:21.784406 32668 net.cpp:186] Top shape: 128 16 32 32 (2097152)
I0930 15:51:21.784411 32668 net.cpp:194] Memory required for data: 823656960
I0930 15:51:21.784415 32668 layer_factory.hpp:77] Creating layer conv2_9_1
I0930 15:51:21.784430 32668 net.cpp:128] Creating Layer conv2_9_1
I0930 15:51:21.784436 32668 net.cpp:558] conv2_9_1 <- conv2_9_0
I0930 15:51:21.784446 32668 net.cpp:522] conv2_9_1 -> conv2_9_1
I0930 15:51:21.785764 32668 net.cpp:172] Setting up conv2_9_1
I0930 15:51:21.785791 32668 net.cpp:186] Top shape: 128 16 32 32 (2097152)
I0930 15:51:21.785795 32668 net.cpp:194] Memory required for data: 832045568
I0930 15:51:21.785805 32668 layer_factory.hpp:77] Creating layer conv2_9bn1
I0930 15:51:21.785820 32668 net.cpp:128] Creating Layer conv2_9bn1
I0930 15:51:21.785825 32668 net.cpp:558] conv2_9bn1 <- conv2_9_1
I0930 15:51:21.785836 32668 net.cpp:509] conv2_9bn1 -> conv2_9_1 (in-place)
I0930 15:51:21.786103 32668 net.cpp:172] Setting up conv2_9bn1
I0930 15:51:21.786116 32668 net.cpp:186] Top shape: 128 16 32 32 (2097152)
I0930 15:51:21.786120 32668 net.cpp:194] Memory required for data: 840434176
I0930 15:51:21.786144 32668 layer_factory.hpp:77] Creating layer conv2_9_scale1
I0930 15:51:21.786159 32668 net.cpp:128] Creating Layer conv2_9_scale1
I0930 15:51:21.786165 32668 net.cpp:558] conv2_9_scale1 <- conv2_9_1
I0930 15:51:21.786172 32668 net.cpp:509] conv2_9_scale1 -> conv2_9_1 (in-place)
I0930 15:51:21.786212 32668 layer_factory.hpp:77] Creating layer conv2_9_scale1
I0930 15:51:21.786355 32668 net.cpp:172] Setting up conv2_9_scale1
I0930 15:51:21.786365 32668 net.cpp:186] Top shape: 128 16 32 32 (2097152)
I0930 15:51:21.786368 32668 net.cpp:194] Memory required for data: 848822784
I0930 15:51:21.786376 32668 layer_factory.hpp:77] Creating layer conv2_Eltwise_9
I0930 15:51:21.786386 32668 net.cpp:128] Creating Layer conv2_Eltwise_9
I0930 15:51:21.786391 32668 net.cpp:558] conv2_Eltwise_9 <- conv2_Eltwise_8_conv2_8ReLU_1_0_split_1
I0930 15:51:21.786396 32668 net.cpp:558] conv2_Eltwise_9 <- conv2_9_1
I0930 15:51:21.786406 32668 net.cpp:522] conv2_Eltwise_9 -> conv2_Eltwise_9
I0930 15:51:21.786435 32668 net.cpp:172] Setting up conv2_Eltwise_9
I0930 15:51:21.786447 32668 net.cpp:186] Top shape: 128 16 32 32 (2097152)
I0930 15:51:21.786450 32668 net.cpp:194] Memory required for data: 857211392
I0930 15:51:21.786454 32668 layer_factory.hpp:77] Creating layer conv2_9ReLU_1
I0930 15:51:21.786463 32668 net.cpp:128] Creating Layer conv2_9ReLU_1
I0930 15:51:21.786468 32668 net.cpp:558] conv2_9ReLU_1 <- conv2_Eltwise_9
I0930 15:51:21.786473 32668 net.cpp:509] conv2_9ReLU_1 -> conv2_Eltwise_9 (in-place)
I0930 15:51:21.787623 32668 net.cpp:172] Setting up conv2_9ReLU_1
I0930 15:51:21.787642 32668 net.cpp:186] Top shape: 128 16 32 32 (2097152)
I0930 15:51:21.787645 32668 net.cpp:194] Memory required for data: 865600000
I0930 15:51:21.787650 32668 layer_factory.hpp:77] Creating layer conv2_Eltwise_9_conv2_9ReLU_1_0_split
I0930 15:51:21.787660 32668 net.cpp:128] Creating Layer conv2_Eltwise_9_conv2_9ReLU_1_0_split
I0930 15:51:21.787665 32668 net.cpp:558] conv2_Eltwise_9_conv2_9ReLU_1_0_split <- conv2_Eltwise_9
I0930 15:51:21.787672 32668 net.cpp:522] conv2_Eltwise_9_conv2_9ReLU_1_0_split -> conv2_Eltwise_9_conv2_9ReLU_1_0_split_0
I0930 15:51:21.787680 32668 net.cpp:522] conv2_Eltwise_9_conv2_9ReLU_1_0_split -> conv2_Eltwise_9_conv2_9ReLU_1_0_split_1
I0930 15:51:21.787732 32668 net.cpp:172] Setting up conv2_Eltwise_9_conv2_9ReLU_1_0_split
I0930 15:51:21.787742 32668 net.cpp:186] Top shape: 128 16 32 32 (2097152)
I0930 15:51:21.787765 32668 net.cpp:186] Top shape: 128 16 32 32 (2097152)
I0930 15:51:21.787770 32668 net.cpp:194] Memory required for data: 882377216
I0930 15:51:21.787775 32668 layer_factory.hpp:77] Creating layer conv3_1_0
I0930 15:51:21.787787 32668 net.cpp:128] Creating Layer conv3_1_0
I0930 15:51:21.787794 32668 net.cpp:558] conv3_1_0 <- conv2_Eltwise_9_conv2_9ReLU_1_0_split_0
I0930 15:51:21.787806 32668 net.cpp:522] conv3_1_0 -> conv3_1_0
I0930 15:51:21.794549 32668 net.cpp:172] Setting up conv3_1_0
I0930 15:51:21.794579 32668 net.cpp:186] Top shape: 128 32 16 16 (1048576)
I0930 15:51:21.794584 32668 net.cpp:194] Memory required for data: 886571520
I0930 15:51:21.794601 32668 layer_factory.hpp:77] Creating layer conv3_1_bn0
I0930 15:51:21.794615 32668 net.cpp:128] Creating Layer conv3_1_bn0
I0930 15:51:21.794622 32668 net.cpp:558] conv3_1_bn0 <- conv3_1_0
I0930 15:51:21.794632 32668 net.cpp:509] conv3_1_bn0 -> conv3_1_0 (in-place)
I0930 15:51:21.794895 32668 net.cpp:172] Setting up conv3_1_bn0
I0930 15:51:21.794910 32668 net.cpp:186] Top shape: 128 32 16 16 (1048576)
I0930 15:51:21.794914 32668 net.cpp:194] Memory required for data: 890765824
I0930 15:51:21.794924 32668 layer_factory.hpp:77] Creating layer conv3_1_scale0
I0930 15:51:21.794934 32668 net.cpp:128] Creating Layer conv3_1_scale0
I0930 15:51:21.794939 32668 net.cpp:558] conv3_1_scale0 <- conv3_1_0
I0930 15:51:21.794945 32668 net.cpp:509] conv3_1_scale0 -> conv3_1_0 (in-place)
I0930 15:51:21.794986 32668 layer_factory.hpp:77] Creating layer conv3_1_scale0
I0930 15:51:21.795130 32668 net.cpp:172] Setting up conv3_1_scale0
I0930 15:51:21.795141 32668 net.cpp:186] Top shape: 128 32 16 16 (1048576)
I0930 15:51:21.795146 32668 net.cpp:194] Memory required for data: 894960128
I0930 15:51:21.795153 32668 layer_factory.hpp:77] Creating layer conv3_1_ReLU0
I0930 15:51:21.795161 32668 net.cpp:128] Creating Layer conv3_1_ReLU0
I0930 15:51:21.795164 32668 net.cpp:558] conv3_1_ReLU0 <- conv3_1_0
I0930 15:51:21.795173 32668 net.cpp:509] conv3_1_ReLU0 -> conv3_1_0 (in-place)
I0930 15:51:21.795644 32668 net.cpp:172] Setting up conv3_1_ReLU0
I0930 15:51:21.795665 32668 net.cpp:186] Top shape: 128 32 16 16 (1048576)
I0930 15:51:21.795670 32668 net.cpp:194] Memory required for data: 899154432
I0930 15:51:21.795675 32668 layer_factory.hpp:77] Creating layer conv3_1_1
I0930 15:51:21.795688 32668 net.cpp:128] Creating Layer conv3_1_1
I0930 15:51:21.795696 32668 net.cpp:558] conv3_1_1 <- conv3_1_0
I0930 15:51:21.795706 32668 net.cpp:522] conv3_1_1 -> conv3_1_1
I0930 15:51:21.797163 32668 net.cpp:172] Setting up conv3_1_1
I0930 15:51:21.797189 32668 net.cpp:186] Top shape: 128 32 16 16 (1048576)
I0930 15:51:21.797194 32668 net.cpp:194] Memory required for data: 903348736
I0930 15:51:21.797207 32668 layer_factory.hpp:77] Creating layer conv3_1bn1
I0930 15:51:21.797224 32668 net.cpp:128] Creating Layer conv3_1bn1
I0930 15:51:21.797230 32668 net.cpp:558] conv3_1bn1 <- conv3_1_1
I0930 15:51:21.797236 32668 net.cpp:509] conv3_1bn1 -> conv3_1_1 (in-place)
I0930 15:51:21.797485 32668 net.cpp:172] Setting up conv3_1bn1
I0930 15:51:21.797497 32668 net.cpp:186] Top shape: 128 32 16 16 (1048576)
I0930 15:51:21.797500 32668 net.cpp:194] Memory required for data: 907543040
I0930 15:51:21.797510 32668 layer_factory.hpp:77] Creating layer conv3_1_scale1
I0930 15:51:21.797519 32668 net.cpp:128] Creating Layer conv3_1_scale1
I0930 15:51:21.797524 32668 net.cpp:558] conv3_1_scale1 <- conv3_1_1
I0930 15:51:21.797529 32668 net.cpp:509] conv3_1_scale1 -> conv3_1_1 (in-place)
I0930 15:51:21.797570 32668 layer_factory.hpp:77] Creating layer conv3_1_scale1
I0930 15:51:21.797713 32668 net.cpp:172] Setting up conv3_1_scale1
I0930 15:51:21.797724 32668 net.cpp:186] Top shape: 128 32 16 16 (1048576)
I0930 15:51:21.797727 32668 net.cpp:194] Memory required for data: 911737344
I0930 15:51:21.797735 32668 layer_factory.hpp:77] Creating layer conv3_1_down
I0930 15:51:21.797749 32668 net.cpp:128] Creating Layer conv3_1_down
I0930 15:51:21.797755 32668 net.cpp:558] conv3_1_down <- conv2_Eltwise_9_conv2_9ReLU_1_0_split_1
I0930 15:51:21.797782 32668 net.cpp:522] conv3_1_down -> conv3_1_down
I0930 15:51:21.799100 32668 net.cpp:172] Setting up conv3_1_down
I0930 15:51:21.799127 32668 net.cpp:186] Top shape: 128 32 16 16 (1048576)
I0930 15:51:21.799132 32668 net.cpp:194] Memory required for data: 915931648
I0930 15:51:21.799146 32668 layer_factory.hpp:77] Creating layer conv3_1_bn_down
I0930 15:51:21.799157 32668 net.cpp:128] Creating Layer conv3_1_bn_down
I0930 15:51:21.799165 32668 net.cpp:558] conv3_1_bn_down <- conv3_1_down
I0930 15:51:21.799175 32668 net.cpp:509] conv3_1_bn_down -> conv3_1_down (in-place)
I0930 15:51:21.799427 32668 net.cpp:172] Setting up conv3_1_bn_down
I0930 15:51:21.799437 32668 net.cpp:186] Top shape: 128 32 16 16 (1048576)
I0930 15:51:21.799440 32668 net.cpp:194] Memory required for data: 920125952
I0930 15:51:21.799449 32668 layer_factory.hpp:77] Creating layer conv3_1_scale_down
I0930 15:51:21.799460 32668 net.cpp:128] Creating Layer conv3_1_scale_down
I0930 15:51:21.799469 32668 net.cpp:558] conv3_1_scale_down <- conv3_1_down
I0930 15:51:21.799475 32668 net.cpp:509] conv3_1_scale_down -> conv3_1_down (in-place)
I0930 15:51:21.799517 32668 layer_factory.hpp:77] Creating layer conv3_1_scale_down
I0930 15:51:21.799659 32668 net.cpp:172] Setting up conv3_1_scale_down
I0930 15:51:21.799669 32668 net.cpp:186] Top shape: 128 32 16 16 (1048576)
I0930 15:51:21.799672 32668 net.cpp:194] Memory required for data: 924320256
I0930 15:51:21.799680 32668 layer_factory.hpp:77] Creating layer conv3_Eltwise_1
I0930 15:51:21.799688 32668 net.cpp:128] Creating Layer conv3_Eltwise_1
I0930 15:51:21.799695 32668 net.cpp:558] conv3_Eltwise_1 <- conv3_1_1
I0930 15:51:21.799700 32668 net.cpp:558] conv3_Eltwise_1 <- conv3_1_down
I0930 15:51:21.799708 32668 net.cpp:522] conv3_Eltwise_1 -> conv3_Eltwise_1
I0930 15:51:21.799733 32668 net.cpp:172] Setting up conv3_Eltwise_1
I0930 15:51:21.799744 32668 net.cpp:186] Top shape: 128 32 16 16 (1048576)
I0930 15:51:21.799752 32668 net.cpp:194] Memory required for data: 928514560
I0930 15:51:21.799757 32668 layer_factory.hpp:77] Creating layer conv3_1ReLU_1
I0930 15:51:21.799762 32668 net.cpp:128] Creating Layer conv3_1ReLU_1
I0930 15:51:21.799770 32668 net.cpp:558] conv3_1ReLU_1 <- conv3_Eltwise_1
I0930 15:51:21.799777 32668 net.cpp:509] conv3_1ReLU_1 -> conv3_Eltwise_1 (in-place)
I0930 15:51:21.800015 32668 net.cpp:172] Setting up conv3_1ReLU_1
I0930 15:51:21.800030 32668 net.cpp:186] Top shape: 128 32 16 16 (1048576)
I0930 15:51:21.800034 32668 net.cpp:194] Memory required for data: 932708864
I0930 15:51:21.800042 32668 layer_factory.hpp:77] Creating layer conv3_Eltwise_1_conv3_1ReLU_1_0_split
I0930 15:51:21.800050 32668 net.cpp:128] Creating Layer conv3_Eltwise_1_conv3_1ReLU_1_0_split
I0930 15:51:21.800057 32668 net.cpp:558] conv3_Eltwise_1_conv3_1ReLU_1_0_split <- conv3_Eltwise_1
I0930 15:51:21.800065 32668 net.cpp:522] conv3_Eltwise_1_conv3_1ReLU_1_0_split -> conv3_Eltwise_1_conv3_1ReLU_1_0_split_0
I0930 15:51:21.800078 32668 net.cpp:522] conv3_Eltwise_1_conv3_1ReLU_1_0_split -> conv3_Eltwise_1_conv3_1ReLU_1_0_split_1
I0930 15:51:21.800130 32668 net.cpp:172] Setting up conv3_Eltwise_1_conv3_1ReLU_1_0_split
I0930 15:51:21.800139 32668 net.cpp:186] Top shape: 128 32 16 16 (1048576)
I0930 15:51:21.800145 32668 net.cpp:186] Top shape: 128 32 16 16 (1048576)
I0930 15:51:21.800153 32668 net.cpp:194] Memory required for data: 941097472
I0930 15:51:21.800158 32668 layer_factory.hpp:77] Creating layer conv3_2_0
I0930 15:51:21.800171 32668 net.cpp:128] Creating Layer conv3_2_0
I0930 15:51:21.800176 32668 net.cpp:558] conv3_2_0 <- conv3_Eltwise_1_conv3_1ReLU_1_0_split_0
I0930 15:51:21.800185 32668 net.cpp:522] conv3_2_0 -> conv3_2_0
I0930 15:51:21.801832 32668 net.cpp:172] Setting up conv3_2_0
I0930 15:51:21.801862 32668 net.cpp:186] Top shape: 128 32 16 16 (1048576)
I0930 15:51:21.801867 32668 net.cpp:194] Memory required for data: 945291776
I0930 15:51:21.801878 32668 layer_factory.hpp:77] Creating layer conv3_2_bn0
I0930 15:51:21.801887 32668 net.cpp:128] Creating Layer conv3_2_bn0
I0930 15:51:21.801910 32668 net.cpp:558] conv3_2_bn0 <- conv3_2_0
I0930 15:51:21.801920 32668 net.cpp:509] conv3_2_bn0 -> conv3_2_0 (in-place)
I0930 15:51:21.802206 32668 net.cpp:172] Setting up conv3_2_bn0
I0930 15:51:21.802218 32668 net.cpp:186] Top shape: 128 32 16 16 (1048576)
I0930 15:51:21.802222 32668 net.cpp:194] Memory required for data: 949486080
I0930 15:51:21.802233 32668 layer_factory.hpp:77] Creating layer conv3_2_scale0
I0930 15:51:21.802240 32668 net.cpp:128] Creating Layer conv3_2_scale0
I0930 15:51:21.802245 32668 net.cpp:558] conv3_2_scale0 <- conv3_2_0
I0930 15:51:21.802250 32668 net.cpp:509] conv3_2_scale0 -> conv3_2_0 (in-place)
I0930 15:51:21.802292 32668 layer_factory.hpp:77] Creating layer conv3_2_scale0
I0930 15:51:21.802436 32668 net.cpp:172] Setting up conv3_2_scale0
I0930 15:51:21.802446 32668 net.cpp:186] Top shape: 128 32 16 16 (1048576)
I0930 15:51:21.802450 32668 net.cpp:194] Memory required for data: 953680384
I0930 15:51:21.802459 32668 layer_factory.hpp:77] Creating layer conv3_2_ReLU0
I0930 15:51:21.802469 32668 net.cpp:128] Creating Layer conv3_2_ReLU0
I0930 15:51:21.802476 32668 net.cpp:558] conv3_2_ReLU0 <- conv3_2_0
I0930 15:51:21.802482 32668 net.cpp:509] conv3_2_ReLU0 -> conv3_2_0 (in-place)
I0930 15:51:21.802723 32668 net.cpp:172] Setting up conv3_2_ReLU0
I0930 15:51:21.802736 32668 net.cpp:186] Top shape: 128 32 16 16 (1048576)
I0930 15:51:21.802740 32668 net.cpp:194] Memory required for data: 957874688
I0930 15:51:21.802745 32668 layer_factory.hpp:77] Creating layer conv3_2_1
I0930 15:51:21.802757 32668 net.cpp:128] Creating Layer conv3_2_1
I0930 15:51:21.802764 32668 net.cpp:558] conv3_2_1 <- conv3_2_0
I0930 15:51:21.802774 32668 net.cpp:522] conv3_2_1 -> conv3_2_1
I0930 15:51:21.804208 32668 net.cpp:172] Setting up conv3_2_1
I0930 15:51:21.804234 32668 net.cpp:186] Top shape: 128 32 16 16 (1048576)
I0930 15:51:21.804237 32668 net.cpp:194] Memory required for data: 962068992
I0930 15:51:21.804249 32668 layer_factory.hpp:77] Creating layer conv3_2bn1
I0930 15:51:21.804258 32668 net.cpp:128] Creating Layer conv3_2bn1
I0930 15:51:21.804267 32668 net.cpp:558] conv3_2bn1 <- conv3_2_1
I0930 15:51:21.804275 32668 net.cpp:509] conv3_2bn1 -> conv3_2_1 (in-place)
I0930 15:51:21.804527 32668 net.cpp:172] Setting up conv3_2bn1
I0930 15:51:21.804538 32668 net.cpp:186] Top shape: 128 32 16 16 (1048576)
I0930 15:51:21.804541 32668 net.cpp:194] Memory required for data: 966263296
I0930 15:51:21.804550 32668 layer_factory.hpp:77] Creating layer conv3_2_scale1
I0930 15:51:21.804560 32668 net.cpp:128] Creating Layer conv3_2_scale1
I0930 15:51:21.804564 32668 net.cpp:558] conv3_2_scale1 <- conv3_2_1
I0930 15:51:21.804570 32668 net.cpp:509] conv3_2_scale1 -> conv3_2_1 (in-place)
I0930 15:51:21.804613 32668 layer_factory.hpp:77] Creating layer conv3_2_scale1
I0930 15:51:21.804762 32668 net.cpp:172] Setting up conv3_2_scale1
I0930 15:51:21.804777 32668 net.cpp:186] Top shape: 128 32 16 16 (1048576)
I0930 15:51:21.804781 32668 net.cpp:194] Memory required for data: 970457600
I0930 15:51:21.804790 32668 layer_factory.hpp:77] Creating layer conv3_Eltwise_2
I0930 15:51:21.804800 32668 net.cpp:128] Creating Layer conv3_Eltwise_2
I0930 15:51:21.804805 32668 net.cpp:558] conv3_Eltwise_2 <- conv3_Eltwise_1_conv3_1ReLU_1_0_split_1
I0930 15:51:21.804811 32668 net.cpp:558] conv3_Eltwise_2 <- conv3_2_1
I0930 15:51:21.804818 32668 net.cpp:522] conv3_Eltwise_2 -> conv3_Eltwise_2
I0930 15:51:21.804841 32668 net.cpp:172] Setting up conv3_Eltwise_2
I0930 15:51:21.804847 32668 net.cpp:186] Top shape: 128 32 16 16 (1048576)
I0930 15:51:21.804852 32668 net.cpp:194] Memory required for data: 974651904
I0930 15:51:21.804855 32668 layer_factory.hpp:77] Creating layer conv3_2ReLU_1
I0930 15:51:21.804862 32668 net.cpp:128] Creating Layer conv3_2ReLU_1
I0930 15:51:21.804868 32668 net.cpp:558] conv3_2ReLU_1 <- conv3_Eltwise_2
I0930 15:51:21.804877 32668 net.cpp:509] conv3_2ReLU_1 -> conv3_Eltwise_2 (in-place)
I0930 15:51:21.805336 32668 net.cpp:172] Setting up conv3_2ReLU_1
I0930 15:51:21.805357 32668 net.cpp:186] Top shape: 128 32 16 16 (1048576)
I0930 15:51:21.805380 32668 net.cpp:194] Memory required for data: 978846208
I0930 15:51:21.805385 32668 layer_factory.hpp:77] Creating layer conv3_Eltwise_2_conv3_2ReLU_1_0_split
I0930 15:51:21.805393 32668 net.cpp:128] Creating Layer conv3_Eltwise_2_conv3_2ReLU_1_0_split
I0930 15:51:21.805402 32668 net.cpp:558] conv3_Eltwise_2_conv3_2ReLU_1_0_split <- conv3_Eltwise_2
I0930 15:51:21.805408 32668 net.cpp:522] conv3_Eltwise_2_conv3_2ReLU_1_0_split -> conv3_Eltwise_2_conv3_2ReLU_1_0_split_0
I0930 15:51:21.805420 32668 net.cpp:522] conv3_Eltwise_2_conv3_2ReLU_1_0_split -> conv3_Eltwise_2_conv3_2ReLU_1_0_split_1
I0930 15:51:21.805480 32668 net.cpp:172] Setting up conv3_Eltwise_2_conv3_2ReLU_1_0_split
I0930 15:51:21.805487 32668 net.cpp:186] Top shape: 128 32 16 16 (1048576)
I0930 15:51:21.805492 32668 net.cpp:186] Top shape: 128 32 16 16 (1048576)
I0930 15:51:21.805496 32668 net.cpp:194] Memory required for data: 987234816
I0930 15:51:21.805500 32668 layer_factory.hpp:77] Creating layer conv3_3_0
I0930 15:51:21.805512 32668 net.cpp:128] Creating Layer conv3_3_0
I0930 15:51:21.805517 32668 net.cpp:558] conv3_3_0 <- conv3_Eltwise_2_conv3_2ReLU_1_0_split_0
I0930 15:51:21.805526 32668 net.cpp:522] conv3_3_0 -> conv3_3_0
I0930 15:51:21.806993 32668 net.cpp:172] Setting up conv3_3_0
I0930 15:51:21.807020 32668 net.cpp:186] Top shape: 128 32 16 16 (1048576)
I0930 15:51:21.807024 32668 net.cpp:194] Memory required for data: 991429120
I0930 15:51:21.807034 32668 layer_factory.hpp:77] Creating layer conv3_3_bn0
I0930 15:51:21.807044 32668 net.cpp:128] Creating Layer conv3_3_bn0
I0930 15:51:21.807054 32668 net.cpp:558] conv3_3_bn0 <- conv3_3_0
I0930 15:51:21.807060 32668 net.cpp:509] conv3_3_bn0 -> conv3_3_0 (in-place)
I0930 15:51:21.807317 32668 net.cpp:172] Setting up conv3_3_bn0
I0930 15:51:21.807327 32668 net.cpp:186] Top shape: 128 32 16 16 (1048576)
I0930 15:51:21.807332 32668 net.cpp:194] Memory required for data: 995623424
I0930 15:51:21.807341 32668 layer_factory.hpp:77] Creating layer conv3_3_scale0
I0930 15:51:21.807350 32668 net.cpp:128] Creating Layer conv3_3_scale0
I0930 15:51:21.807354 32668 net.cpp:558] conv3_3_scale0 <- conv3_3_0
I0930 15:51:21.807366 32668 net.cpp:509] conv3_3_scale0 -> conv3_3_0 (in-place)
I0930 15:51:21.807409 32668 layer_factory.hpp:77] Creating layer conv3_3_scale0
I0930 15:51:21.807555 32668 net.cpp:172] Setting up conv3_3_scale0
I0930 15:51:21.807566 32668 net.cpp:186] Top shape: 128 32 16 16 (1048576)
I0930 15:51:21.807574 32668 net.cpp:194] Memory required for data: 999817728
I0930 15:51:21.807581 32668 layer_factory.hpp:77] Creating layer conv3_3_ReLU0
I0930 15:51:21.807590 32668 net.cpp:128] Creating Layer conv3_3_ReLU0
I0930 15:51:21.807595 32668 net.cpp:558] conv3_3_ReLU0 <- conv3_3_0
I0930 15:51:21.807600 32668 net.cpp:509] conv3_3_ReLU0 -> conv3_3_0 (in-place)
I0930 15:51:21.807837 32668 net.cpp:172] Setting up conv3_3_ReLU0
I0930 15:51:21.807852 32668 net.cpp:186] Top shape: 128 32 16 16 (1048576)
I0930 15:51:21.807860 32668 net.cpp:194] Memory required for data: 1004012032
I0930 15:51:21.807864 32668 layer_factory.hpp:77] Creating layer conv3_3_1
I0930 15:51:21.807876 32668 net.cpp:128] Creating Layer conv3_3_1
I0930 15:51:21.807881 32668 net.cpp:558] conv3_3_1 <- conv3_3_0
I0930 15:51:21.807890 32668 net.cpp:522] conv3_3_1 -> conv3_3_1
I0930 15:51:21.809335 32668 net.cpp:172] Setting up conv3_3_1
I0930 15:51:21.809361 32668 net.cpp:186] Top shape: 128 32 16 16 (1048576)
I0930 15:51:21.809365 32668 net.cpp:194] Memory required for data: 1008206336
I0930 15:51:21.809376 32668 layer_factory.hpp:77] Creating layer conv3_3bn1
I0930 15:51:21.809386 32668 net.cpp:128] Creating Layer conv3_3bn1
I0930 15:51:21.809396 32668 net.cpp:558] conv3_3bn1 <- conv3_3_1
I0930 15:51:21.809404 32668 net.cpp:509] conv3_3bn1 -> conv3_3_1 (in-place)
I0930 15:51:21.809662 32668 net.cpp:172] Setting up conv3_3bn1
I0930 15:51:21.809672 32668 net.cpp:186] Top shape: 128 32 16 16 (1048576)
I0930 15:51:21.809676 32668 net.cpp:194] Memory required for data: 1012400640
I0930 15:51:21.809689 32668 layer_factory.hpp:77] Creating layer conv3_3_scale1
I0930 15:51:21.809713 32668 net.cpp:128] Creating Layer conv3_3_scale1
I0930 15:51:21.809718 32668 net.cpp:558] conv3_3_scale1 <- conv3_3_1
I0930 15:51:21.809723 32668 net.cpp:509] conv3_3_scale1 -> conv3_3_1 (in-place)
I0930 15:51:21.809767 32668 layer_factory.hpp:77] Creating layer conv3_3_scale1
I0930 15:51:21.809918 32668 net.cpp:172] Setting up conv3_3_scale1
I0930 15:51:21.809937 32668 net.cpp:186] Top shape: 128 32 16 16 (1048576)
I0930 15:51:21.809942 32668 net.cpp:194] Memory required for data: 1016594944
I0930 15:51:21.809952 32668 layer_factory.hpp:77] Creating layer conv3_Eltwise_3
I0930 15:51:21.809962 32668 net.cpp:128] Creating Layer conv3_Eltwise_3
I0930 15:51:21.809967 32668 net.cpp:558] conv3_Eltwise_3 <- conv3_Eltwise_2_conv3_2ReLU_1_0_split_1
I0930 15:51:21.809972 32668 net.cpp:558] conv3_Eltwise_3 <- conv3_3_1
I0930 15:51:21.809979 32668 net.cpp:522] conv3_Eltwise_3 -> conv3_Eltwise_3
I0930 15:51:21.810003 32668 net.cpp:172] Setting up conv3_Eltwise_3
I0930 15:51:21.810010 32668 net.cpp:186] Top shape: 128 32 16 16 (1048576)
I0930 15:51:21.810014 32668 net.cpp:194] Memory required for data: 1020789248
I0930 15:51:21.810019 32668 layer_factory.hpp:77] Creating layer conv3_3ReLU_1
I0930 15:51:21.810029 32668 net.cpp:128] Creating Layer conv3_3ReLU_1
I0930 15:51:21.810034 32668 net.cpp:558] conv3_3ReLU_1 <- conv3_Eltwise_3
I0930 15:51:21.810039 32668 net.cpp:509] conv3_3ReLU_1 -> conv3_Eltwise_3 (in-place)
I0930 15:51:21.810281 32668 net.cpp:172] Setting up conv3_3ReLU_1
I0930 15:51:21.810292 32668 net.cpp:186] Top shape: 128 32 16 16 (1048576)
I0930 15:51:21.810297 32668 net.cpp:194] Memory required for data: 1024983552
I0930 15:51:21.810302 32668 layer_factory.hpp:77] Creating layer conv3_Eltwise_3_conv3_3ReLU_1_0_split
I0930 15:51:21.810322 32668 net.cpp:128] Creating Layer conv3_Eltwise_3_conv3_3ReLU_1_0_split
I0930 15:51:21.810329 32668 net.cpp:558] conv3_Eltwise_3_conv3_3ReLU_1_0_split <- conv3_Eltwise_3
I0930 15:51:21.810336 32668 net.cpp:522] conv3_Eltwise_3_conv3_3ReLU_1_0_split -> conv3_Eltwise_3_conv3_3ReLU_1_0_split_0
I0930 15:51:21.810351 32668 net.cpp:522] conv3_Eltwise_3_conv3_3ReLU_1_0_split -> conv3_Eltwise_3_conv3_3ReLU_1_0_split_1
I0930 15:51:21.810400 32668 net.cpp:172] Setting up conv3_Eltwise_3_conv3_3ReLU_1_0_split
I0930 15:51:21.810408 32668 net.cpp:186] Top shape: 128 32 16 16 (1048576)
I0930 15:51:21.810415 32668 net.cpp:186] Top shape: 128 32 16 16 (1048576)
I0930 15:51:21.810418 32668 net.cpp:194] Memory required for data: 1033372160
I0930 15:51:21.810423 32668 layer_factory.hpp:77] Creating layer conv3_4_0
I0930 15:51:21.810433 32668 net.cpp:128] Creating Layer conv3_4_0
I0930 15:51:21.810441 32668 net.cpp:558] conv3_4_0 <- conv3_Eltwise_3_conv3_3ReLU_1_0_split_0
I0930 15:51:21.810449 32668 net.cpp:522] conv3_4_0 -> conv3_4_0
I0930 15:51:21.811944 32668 net.cpp:172] Setting up conv3_4_0
I0930 15:51:21.811970 32668 net.cpp:186] Top shape: 128 32 16 16 (1048576)
I0930 15:51:21.811975 32668 net.cpp:194] Memory required for data: 1037566464
I0930 15:51:21.811985 32668 layer_factory.hpp:77] Creating layer conv3_4_bn0
I0930 15:51:21.811995 32668 net.cpp:128] Creating Layer conv3_4_bn0
I0930 15:51:21.812005 32668 net.cpp:558] conv3_4_bn0 <- conv3_4_0
I0930 15:51:21.812012 32668 net.cpp:509] conv3_4_bn0 -> conv3_4_0 (in-place)
I0930 15:51:21.812273 32668 net.cpp:172] Setting up conv3_4_bn0
I0930 15:51:21.812283 32668 net.cpp:186] Top shape: 128 32 16 16 (1048576)
I0930 15:51:21.812288 32668 net.cpp:194] Memory required for data: 1041760768
I0930 15:51:21.812297 32668 layer_factory.hpp:77] Creating layer conv3_4_scale0
I0930 15:51:21.812304 32668 net.cpp:128] Creating Layer conv3_4_scale0
I0930 15:51:21.812310 32668 net.cpp:558] conv3_4_scale0 <- conv3_4_0
I0930 15:51:21.812319 32668 net.cpp:509] conv3_4_scale0 -> conv3_4_0 (in-place)
I0930 15:51:21.812361 32668 layer_factory.hpp:77] Creating layer conv3_4_scale0
I0930 15:51:21.812511 32668 net.cpp:172] Setting up conv3_4_scale0
I0930 15:51:21.812525 32668 net.cpp:186] Top shape: 128 32 16 16 (1048576)
I0930 15:51:21.812546 32668 net.cpp:194] Memory required for data: 1045955072
I0930 15:51:21.812554 32668 layer_factory.hpp:77] Creating layer conv3_4_ReLU0
I0930 15:51:21.812561 32668 net.cpp:128] Creating Layer conv3_4_ReLU0
I0930 15:51:21.812566 32668 net.cpp:558] conv3_4_ReLU0 <- conv3_4_0
I0930 15:51:21.812572 32668 net.cpp:509] conv3_4_ReLU0 -> conv3_4_0 (in-place)
I0930 15:51:21.813047 32668 net.cpp:172] Setting up conv3_4_ReLU0
I0930 15:51:21.813068 32668 net.cpp:186] Top shape: 128 32 16 16 (1048576)
I0930 15:51:21.813072 32668 net.cpp:194] Memory required for data: 1050149376
I0930 15:51:21.813077 32668 layer_factory.hpp:77] Creating layer conv3_4_1
I0930 15:51:21.813097 32668 net.cpp:128] Creating Layer conv3_4_1
I0930 15:51:21.813105 32668 net.cpp:558] conv3_4_1 <- conv3_4_0
I0930 15:51:21.813113 32668 net.cpp:522] conv3_4_1 -> conv3_4_1
I0930 15:51:21.814601 32668 net.cpp:172] Setting up conv3_4_1
I0930 15:51:21.814628 32668 net.cpp:186] Top shape: 128 32 16 16 (1048576)
I0930 15:51:21.814632 32668 net.cpp:194] Memory required for data: 1054343680
I0930 15:51:21.814642 32668 layer_factory.hpp:77] Creating layer conv3_4bn1
I0930 15:51:21.814653 32668 net.cpp:128] Creating Layer conv3_4bn1
I0930 15:51:21.814662 32668 net.cpp:558] conv3_4bn1 <- conv3_4_1
I0930 15:51:21.814671 32668 net.cpp:509] conv3_4bn1 -> conv3_4_1 (in-place)
I0930 15:51:21.814932 32668 net.cpp:172] Setting up conv3_4bn1
I0930 15:51:21.814941 32668 net.cpp:186] Top shape: 128 32 16 16 (1048576)
I0930 15:51:21.814945 32668 net.cpp:194] Memory required for data: 1058537984
I0930 15:51:21.814956 32668 layer_factory.hpp:77] Creating layer conv3_4_scale1
I0930 15:51:21.814965 32668 net.cpp:128] Creating Layer conv3_4_scale1
I0930 15:51:21.814970 32668 net.cpp:558] conv3_4_scale1 <- conv3_4_1
I0930 15:51:21.814977 32668 net.cpp:509] conv3_4_scale1 -> conv3_4_1 (in-place)
I0930 15:51:21.815017 32668 layer_factory.hpp:77] Creating layer conv3_4_scale1
I0930 15:51:21.815169 32668 net.cpp:172] Setting up conv3_4_scale1
I0930 15:51:21.815178 32668 net.cpp:186] Top shape: 128 32 16 16 (1048576)
I0930 15:51:21.815182 32668 net.cpp:194] Memory required for data: 1062732288
I0930 15:51:21.815191 32668 layer_factory.hpp:77] Creating layer conv3_Eltwise_4
I0930 15:51:21.815199 32668 net.cpp:128] Creating Layer conv3_Eltwise_4
I0930 15:51:21.815204 32668 net.cpp:558] conv3_Eltwise_4 <- conv3_Eltwise_3_conv3_3ReLU_1_0_split_1
I0930 15:51:21.815209 32668 net.cpp:558] conv3_Eltwise_4 <- conv3_4_1
I0930 15:51:21.815219 32668 net.cpp:522] conv3_Eltwise_4 -> conv3_Eltwise_4
I0930 15:51:21.815244 32668 net.cpp:172] Setting up conv3_Eltwise_4
I0930 15:51:21.815251 32668 net.cpp:186] Top shape: 128 32 16 16 (1048576)
I0930 15:51:21.815255 32668 net.cpp:194] Memory required for data: 1066926592
I0930 15:51:21.815259 32668 layer_factory.hpp:77] Creating layer conv3_4ReLU_1
I0930 15:51:21.815268 32668 net.cpp:128] Creating Layer conv3_4ReLU_1
I0930 15:51:21.815271 32668 net.cpp:558] conv3_4ReLU_1 <- conv3_Eltwise_4
I0930 15:51:21.815277 32668 net.cpp:509] conv3_4ReLU_1 -> conv3_Eltwise_4 (in-place)
I0930 15:51:21.815521 32668 net.cpp:172] Setting up conv3_4ReLU_1
I0930 15:51:21.815534 32668 net.cpp:186] Top shape: 128 32 16 16 (1048576)
I0930 15:51:21.815538 32668 net.cpp:194] Memory required for data: 1071120896
I0930 15:51:21.815542 32668 layer_factory.hpp:77] Creating layer conv3_Eltwise_4_conv3_4ReLU_1_0_split
I0930 15:51:21.815551 32668 net.cpp:128] Creating Layer conv3_Eltwise_4_conv3_4ReLU_1_0_split
I0930 15:51:21.815557 32668 net.cpp:558] conv3_Eltwise_4_conv3_4ReLU_1_0_split <- conv3_Eltwise_4
I0930 15:51:21.815563 32668 net.cpp:522] conv3_Eltwise_4_conv3_4ReLU_1_0_split -> conv3_Eltwise_4_conv3_4ReLU_1_0_split_0
I0930 15:51:21.815575 32668 net.cpp:522] conv3_Eltwise_4_conv3_4ReLU_1_0_split -> conv3_Eltwise_4_conv3_4ReLU_1_0_split_1
I0930 15:51:21.815632 32668 net.cpp:172] Setting up conv3_Eltwise_4_conv3_4ReLU_1_0_split
I0930 15:51:21.815642 32668 net.cpp:186] Top shape: 128 32 16 16 (1048576)
I0930 15:51:21.815647 32668 net.cpp:186] Top shape: 128 32 16 16 (1048576)
I0930 15:51:21.815666 32668 net.cpp:194] Memory required for data: 1079509504
I0930 15:51:21.815671 32668 layer_factory.hpp:77] Creating layer conv3_5_0
I0930 15:51:21.815683 32668 net.cpp:128] Creating Layer conv3_5_0
I0930 15:51:21.815690 32668 net.cpp:558] conv3_5_0 <- conv3_Eltwise_4_conv3_4ReLU_1_0_split_0
I0930 15:51:21.815697 32668 net.cpp:522] conv3_5_0 -> conv3_5_0
I0930 15:51:21.817162 32668 net.cpp:172] Setting up conv3_5_0
I0930 15:51:21.817183 32668 net.cpp:186] Top shape: 128 32 16 16 (1048576)
I0930 15:51:21.817188 32668 net.cpp:194] Memory required for data: 1083703808
I0930 15:51:21.817198 32668 layer_factory.hpp:77] Creating layer conv3_5_bn0
I0930 15:51:21.817209 32668 net.cpp:128] Creating Layer conv3_5_bn0
I0930 15:51:21.817216 32668 net.cpp:558] conv3_5_bn0 <- conv3_5_0
I0930 15:51:21.817226 32668 net.cpp:509] conv3_5_bn0 -> conv3_5_0 (in-place)
I0930 15:51:21.817493 32668 net.cpp:172] Setting up conv3_5_bn0
I0930 15:51:21.817503 32668 net.cpp:186] Top shape: 128 32 16 16 (1048576)
I0930 15:51:21.817507 32668 net.cpp:194] Memory required for data: 1087898112
I0930 15:51:21.817517 32668 layer_factory.hpp:77] Creating layer conv3_5_scale0
I0930 15:51:21.817528 32668 net.cpp:128] Creating Layer conv3_5_scale0
I0930 15:51:21.817531 32668 net.cpp:558] conv3_5_scale0 <- conv3_5_0
I0930 15:51:21.817540 32668 net.cpp:509] conv3_5_scale0 -> conv3_5_0 (in-place)
I0930 15:51:21.817581 32668 layer_factory.hpp:77] Creating layer conv3_5_scale0
I0930 15:51:21.817734 32668 net.cpp:172] Setting up conv3_5_scale0
I0930 15:51:21.817744 32668 net.cpp:186] Top shape: 128 32 16 16 (1048576)
I0930 15:51:21.817749 32668 net.cpp:194] Memory required for data: 1092092416
I0930 15:51:21.817755 32668 layer_factory.hpp:77] Creating layer conv3_5_ReLU0
I0930 15:51:21.817765 32668 net.cpp:128] Creating Layer conv3_5_ReLU0
I0930 15:51:21.817770 32668 net.cpp:558] conv3_5_ReLU0 <- conv3_5_0
I0930 15:51:21.817777 32668 net.cpp:509] conv3_5_ReLU0 -> conv3_5_0 (in-place)
I0930 15:51:21.818032 32668 net.cpp:172] Setting up conv3_5_ReLU0
I0930 15:51:21.818047 32668 net.cpp:186] Top shape: 128 32 16 16 (1048576)
I0930 15:51:21.818050 32668 net.cpp:194] Memory required for data: 1096286720
I0930 15:51:21.818056 32668 layer_factory.hpp:77] Creating layer conv3_5_1
I0930 15:51:21.818069 32668 net.cpp:128] Creating Layer conv3_5_1
I0930 15:51:21.818078 32668 net.cpp:558] conv3_5_1 <- conv3_5_0
I0930 15:51:21.818087 32668 net.cpp:522] conv3_5_1 -> conv3_5_1
I0930 15:51:21.819561 32668 net.cpp:172] Setting up conv3_5_1
I0930 15:51:21.819589 32668 net.cpp:186] Top shape: 128 32 16 16 (1048576)
I0930 15:51:21.819593 32668 net.cpp:194] Memory required for data: 1100481024
I0930 15:51:21.819603 32668 layer_factory.hpp:77] Creating layer conv3_5bn1
I0930 15:51:21.819612 32668 net.cpp:128] Creating Layer conv3_5bn1
I0930 15:51:21.819622 32668 net.cpp:558] conv3_5bn1 <- conv3_5_1
I0930 15:51:21.819630 32668 net.cpp:509] conv3_5bn1 -> conv3_5_1 (in-place)
I0930 15:51:21.819902 32668 net.cpp:172] Setting up conv3_5bn1
I0930 15:51:21.819912 32668 net.cpp:186] Top shape: 128 32 16 16 (1048576)
I0930 15:51:21.819916 32668 net.cpp:194] Memory required for data: 1104675328
I0930 15:51:21.819926 32668 layer_factory.hpp:77] Creating layer conv3_5_scale1
I0930 15:51:21.819936 32668 net.cpp:128] Creating Layer conv3_5_scale1
I0930 15:51:21.819941 32668 net.cpp:558] conv3_5_scale1 <- conv3_5_1
I0930 15:51:21.819945 32668 net.cpp:509] conv3_5_scale1 -> conv3_5_1 (in-place)
I0930 15:51:21.819988 32668 layer_factory.hpp:77] Creating layer conv3_5_scale1
I0930 15:51:21.820137 32668 net.cpp:172] Setting up conv3_5_scale1
I0930 15:51:21.820147 32668 net.cpp:186] Top shape: 128 32 16 16 (1048576)
I0930 15:51:21.820150 32668 net.cpp:194] Memory required for data: 1108869632
I0930 15:51:21.820158 32668 layer_factory.hpp:77] Creating layer conv3_Eltwise_5
I0930 15:51:21.820170 32668 net.cpp:128] Creating Layer conv3_Eltwise_5
I0930 15:51:21.820178 32668 net.cpp:558] conv3_Eltwise_5 <- conv3_Eltwise_4_conv3_4ReLU_1_0_split_1
I0930 15:51:21.820197 32668 net.cpp:558] conv3_Eltwise_5 <- conv3_5_1
I0930 15:51:21.820204 32668 net.cpp:522] conv3_Eltwise_5 -> conv3_Eltwise_5
I0930 15:51:21.820228 32668 net.cpp:172] Setting up conv3_Eltwise_5
I0930 15:51:21.820238 32668 net.cpp:186] Top shape: 128 32 16 16 (1048576)
I0930 15:51:21.820241 32668 net.cpp:194] Memory required for data: 1113063936
I0930 15:51:21.820246 32668 layer_factory.hpp:77] Creating layer conv3_5ReLU_1
I0930 15:51:21.820255 32668 net.cpp:128] Creating Layer conv3_5ReLU_1
I0930 15:51:21.820260 32668 net.cpp:558] conv3_5ReLU_1 <- conv3_Eltwise_5
I0930 15:51:21.820264 32668 net.cpp:509] conv3_5ReLU_1 -> conv3_Eltwise_5 (in-place)
I0930 15:51:21.820511 32668 net.cpp:172] Setting up conv3_5ReLU_1
I0930 15:51:21.820524 32668 net.cpp:186] Top shape: 128 32 16 16 (1048576)
I0930 15:51:21.820528 32668 net.cpp:194] Memory required for data: 1117258240
I0930 15:51:21.820533 32668 layer_factory.hpp:77] Creating layer conv3_Eltwise_5_conv3_5ReLU_1_0_split
I0930 15:51:21.820542 32668 net.cpp:128] Creating Layer conv3_Eltwise_5_conv3_5ReLU_1_0_split
I0930 15:51:21.820550 32668 net.cpp:558] conv3_Eltwise_5_conv3_5ReLU_1_0_split <- conv3_Eltwise_5
I0930 15:51:21.820559 32668 net.cpp:522] conv3_Eltwise_5_conv3_5ReLU_1_0_split -> conv3_Eltwise_5_conv3_5ReLU_1_0_split_0
I0930 15:51:21.820569 32668 net.cpp:522] conv3_Eltwise_5_conv3_5ReLU_1_0_split -> conv3_Eltwise_5_conv3_5ReLU_1_0_split_1
I0930 15:51:21.820619 32668 net.cpp:172] Setting up conv3_Eltwise_5_conv3_5ReLU_1_0_split
I0930 15:51:21.820629 32668 net.cpp:186] Top shape: 128 32 16 16 (1048576)
I0930 15:51:21.820638 32668 net.cpp:186] Top shape: 128 32 16 16 (1048576)
I0930 15:51:21.820642 32668 net.cpp:194] Memory required for data: 1125646848
I0930 15:51:21.820647 32668 layer_factory.hpp:77] Creating layer conv3_6_0
I0930 15:51:21.820658 32668 net.cpp:128] Creating Layer conv3_6_0
I0930 15:51:21.820665 32668 net.cpp:558] conv3_6_0 <- conv3_Eltwise_5_conv3_5ReLU_1_0_split_0
I0930 15:51:21.820672 32668 net.cpp:522] conv3_6_0 -> conv3_6_0
I0930 15:51:21.822157 32668 net.cpp:172] Setting up conv3_6_0
I0930 15:51:21.822182 32668 net.cpp:186] Top shape: 128 32 16 16 (1048576)
I0930 15:51:21.822186 32668 net.cpp:194] Memory required for data: 1129841152
I0930 15:51:21.822196 32668 layer_factory.hpp:77] Creating layer conv3_6_bn0
I0930 15:51:21.822206 32668 net.cpp:128] Creating Layer conv3_6_bn0
I0930 15:51:21.822211 32668 net.cpp:558] conv3_6_bn0 <- conv3_6_0
I0930 15:51:21.822222 32668 net.cpp:509] conv3_6_bn0 -> conv3_6_0 (in-place)
I0930 15:51:21.822495 32668 net.cpp:172] Setting up conv3_6_bn0
I0930 15:51:21.822505 32668 net.cpp:186] Top shape: 128 32 16 16 (1048576)
I0930 15:51:21.822510 32668 net.cpp:194] Memory required for data: 1134035456
I0930 15:51:21.822521 32668 layer_factory.hpp:77] Creating layer conv3_6_scale0
I0930 15:51:21.822531 32668 net.cpp:128] Creating Layer conv3_6_scale0
I0930 15:51:21.822535 32668 net.cpp:558] conv3_6_scale0 <- conv3_6_0
I0930 15:51:21.822541 32668 net.cpp:509] conv3_6_scale0 -> conv3_6_0 (in-place)
I0930 15:51:21.822587 32668 layer_factory.hpp:77] Creating layer conv3_6_scale0
I0930 15:51:21.822737 32668 net.cpp:172] Setting up conv3_6_scale0
I0930 15:51:21.822747 32668 net.cpp:186] Top shape: 128 32 16 16 (1048576)
I0930 15:51:21.822751 32668 net.cpp:194] Memory required for data: 1138229760
I0930 15:51:21.822759 32668 layer_factory.hpp:77] Creating layer conv3_6_ReLU0
I0930 15:51:21.822772 32668 net.cpp:128] Creating Layer conv3_6_ReLU0
I0930 15:51:21.822777 32668 net.cpp:558] conv3_6_ReLU0 <- conv3_6_0
I0930 15:51:21.822782 32668 net.cpp:509] conv3_6_ReLU0 -> conv3_6_0 (in-place)
I0930 15:51:21.823274 32668 net.cpp:172] Setting up conv3_6_ReLU0
I0930 15:51:21.823297 32668 net.cpp:186] Top shape: 128 32 16 16 (1048576)
I0930 15:51:21.823302 32668 net.cpp:194] Memory required for data: 1142424064
I0930 15:51:21.823307 32668 layer_factory.hpp:77] Creating layer conv3_6_1
I0930 15:51:21.823329 32668 net.cpp:128] Creating Layer conv3_6_1
I0930 15:51:21.823338 32668 net.cpp:558] conv3_6_1 <- conv3_6_0
I0930 15:51:21.823349 32668 net.cpp:522] conv3_6_1 -> conv3_6_1
I0930 15:51:21.828732 32668 net.cpp:172] Setting up conv3_6_1
I0930 15:51:21.828763 32668 net.cpp:186] Top shape: 128 32 16 16 (1048576)
I0930 15:51:21.828768 32668 net.cpp:194] Memory required for data: 1146618368
I0930 15:51:21.828781 32668 layer_factory.hpp:77] Creating layer conv3_6bn1
I0930 15:51:21.828790 32668 net.cpp:128] Creating Layer conv3_6bn1
I0930 15:51:21.828795 32668 net.cpp:558] conv3_6bn1 <- conv3_6_1
I0930 15:51:21.828804 32668 net.cpp:509] conv3_6bn1 -> conv3_6_1 (in-place)
I0930 15:51:21.829077 32668 net.cpp:172] Setting up conv3_6bn1
I0930 15:51:21.829090 32668 net.cpp:186] Top shape: 128 32 16 16 (1048576)
I0930 15:51:21.829094 32668 net.cpp:194] Memory required for data: 1150812672
I0930 15:51:21.829104 32668 layer_factory.hpp:77] Creating layer conv3_6_scale1
I0930 15:51:21.829113 32668 net.cpp:128] Creating Layer conv3_6_scale1
I0930 15:51:21.829116 32668 net.cpp:558] conv3_6_scale1 <- conv3_6_1
I0930 15:51:21.829121 32668 net.cpp:509] conv3_6_scale1 -> conv3_6_1 (in-place)
I0930 15:51:21.829166 32668 layer_factory.hpp:77] Creating layer conv3_6_scale1
I0930 15:51:21.829318 32668 net.cpp:172] Setting up conv3_6_scale1
I0930 15:51:21.829329 32668 net.cpp:186] Top shape: 128 32 16 16 (1048576)
I0930 15:51:21.829334 32668 net.cpp:194] Memory required for data: 1155006976
I0930 15:51:21.829341 32668 layer_factory.hpp:77] Creating layer conv3_Eltwise_6
I0930 15:51:21.829351 32668 net.cpp:128] Creating Layer conv3_Eltwise_6
I0930 15:51:21.829356 32668 net.cpp:558] conv3_Eltwise_6 <- conv3_Eltwise_5_conv3_5ReLU_1_0_split_1
I0930 15:51:21.829361 32668 net.cpp:558] conv3_Eltwise_6 <- conv3_6_1
I0930 15:51:21.829367 32668 net.cpp:522] conv3_Eltwise_6 -> conv3_Eltwise_6
I0930 15:51:21.829391 32668 net.cpp:172] Setting up conv3_Eltwise_6
I0930 15:51:21.829397 32668 net.cpp:186] Top shape: 128 32 16 16 (1048576)
I0930 15:51:21.829401 32668 net.cpp:194] Memory required for data: 1159201280
I0930 15:51:21.829406 32668 layer_factory.hpp:77] Creating layer conv3_6ReLU_1
I0930 15:51:21.829413 32668 net.cpp:128] Creating Layer conv3_6ReLU_1
I0930 15:51:21.829418 32668 net.cpp:558] conv3_6ReLU_1 <- conv3_Eltwise_6
I0930 15:51:21.829423 32668 net.cpp:509] conv3_6ReLU_1 -> conv3_Eltwise_6 (in-place)
I0930 15:51:21.831004 32668 net.cpp:172] Setting up conv3_6ReLU_1
I0930 15:51:21.831027 32668 net.cpp:186] Top shape: 128 32 16 16 (1048576)
I0930 15:51:21.831032 32668 net.cpp:194] Memory required for data: 1163395584
I0930 15:51:21.831037 32668 layer_factory.hpp:77] Creating layer conv3_Eltwise_6_conv3_6ReLU_1_0_split
I0930 15:51:21.831050 32668 net.cpp:128] Creating Layer conv3_Eltwise_6_conv3_6ReLU_1_0_split
I0930 15:51:21.831055 32668 net.cpp:558] conv3_Eltwise_6_conv3_6ReLU_1_0_split <- conv3_Eltwise_6
I0930 15:51:21.831065 32668 net.cpp:522] conv3_Eltwise_6_conv3_6ReLU_1_0_split -> conv3_Eltwise_6_conv3_6ReLU_1_0_split_0
I0930 15:51:21.831075 32668 net.cpp:522] conv3_Eltwise_6_conv3_6ReLU_1_0_split -> conv3_Eltwise_6_conv3_6ReLU_1_0_split_1
I0930 15:51:21.831140 32668 net.cpp:172] Setting up conv3_Eltwise_6_conv3_6ReLU_1_0_split
I0930 15:51:21.831154 32668 net.cpp:186] Top shape: 128 32 16 16 (1048576)
I0930 15:51:21.831161 32668 net.cpp:186] Top shape: 128 32 16 16 (1048576)
I0930 15:51:21.831164 32668 net.cpp:194] Memory required for data: 1171784192
I0930 15:51:21.831168 32668 layer_factory.hpp:77] Creating layer conv3_7_0
I0930 15:51:21.831182 32668 net.cpp:128] Creating Layer conv3_7_0
I0930 15:51:21.831187 32668 net.cpp:558] conv3_7_0 <- conv3_Eltwise_6_conv3_6ReLU_1_0_split_0
I0930 15:51:21.831195 32668 net.cpp:522] conv3_7_0 -> conv3_7_0
I0930 15:51:21.834599 32668 net.cpp:172] Setting up conv3_7_0
I0930 15:51:21.834626 32668 net.cpp:186] Top shape: 128 32 16 16 (1048576)
I0930 15:51:21.834630 32668 net.cpp:194] Memory required for data: 1175978496
I0930 15:51:21.834641 32668 layer_factory.hpp:77] Creating layer conv3_7_bn0
I0930 15:51:21.834652 32668 net.cpp:128] Creating Layer conv3_7_bn0
I0930 15:51:21.834658 32668 net.cpp:558] conv3_7_bn0 <- conv3_7_0
I0930 15:51:21.834679 32668 net.cpp:509] conv3_7_bn0 -> conv3_7_0 (in-place)
I0930 15:51:21.834965 32668 net.cpp:172] Setting up conv3_7_bn0
I0930 15:51:21.834980 32668 net.cpp:186] Top shape: 128 32 16 16 (1048576)
I0930 15:51:21.834983 32668 net.cpp:194] Memory required for data: 1180172800
I0930 15:51:21.834993 32668 layer_factory.hpp:77] Creating layer conv3_7_scale0
I0930 15:51:21.835000 32668 net.cpp:128] Creating Layer conv3_7_scale0
I0930 15:51:21.835005 32668 net.cpp:558] conv3_7_scale0 <- conv3_7_0
I0930 15:51:21.835012 32668 net.cpp:509] conv3_7_scale0 -> conv3_7_0 (in-place)
I0930 15:51:21.835054 32668 layer_factory.hpp:77] Creating layer conv3_7_scale0
I0930 15:51:21.835206 32668 net.cpp:172] Setting up conv3_7_scale0
I0930 15:51:21.835219 32668 net.cpp:186] Top shape: 128 32 16 16 (1048576)
I0930 15:51:21.835224 32668 net.cpp:194] Memory required for data: 1184367104
I0930 15:51:21.835232 32668 layer_factory.hpp:77] Creating layer conv3_7_ReLU0
I0930 15:51:21.835238 32668 net.cpp:128] Creating Layer conv3_7_ReLU0
I0930 15:51:21.835242 32668 net.cpp:558] conv3_7_ReLU0 <- conv3_7_0
I0930 15:51:21.835247 32668 net.cpp:509] conv3_7_ReLU0 -> conv3_7_0 (in-place)
I0930 15:51:21.835495 32668 net.cpp:172] Setting up conv3_7_ReLU0
I0930 15:51:21.835508 32668 net.cpp:186] Top shape: 128 32 16 16 (1048576)
I0930 15:51:21.835512 32668 net.cpp:194] Memory required for data: 1188561408
I0930 15:51:21.835517 32668 layer_factory.hpp:77] Creating layer conv3_7_1
I0930 15:51:21.835530 32668 net.cpp:128] Creating Layer conv3_7_1
I0930 15:51:21.835536 32668 net.cpp:558] conv3_7_1 <- conv3_7_0
I0930 15:51:21.835543 32668 net.cpp:522] conv3_7_1 -> conv3_7_1
I0930 15:51:21.837040 32668 net.cpp:172] Setting up conv3_7_1
I0930 15:51:21.837062 32668 net.cpp:186] Top shape: 128 32 16 16 (1048576)
I0930 15:51:21.837067 32668 net.cpp:194] Memory required for data: 1192755712
I0930 15:51:21.837082 32668 layer_factory.hpp:77] Creating layer conv3_7bn1
I0930 15:51:21.837092 32668 net.cpp:128] Creating Layer conv3_7bn1
I0930 15:51:21.837098 32668 net.cpp:558] conv3_7bn1 <- conv3_7_1
I0930 15:51:21.837107 32668 net.cpp:509] conv3_7bn1 -> conv3_7_1 (in-place)
I0930 15:51:21.837378 32668 net.cpp:172] Setting up conv3_7bn1
I0930 15:51:21.837389 32668 net.cpp:186] Top shape: 128 32 16 16 (1048576)
I0930 15:51:21.837394 32668 net.cpp:194] Memory required for data: 1196950016
I0930 15:51:21.837404 32668 layer_factory.hpp:77] Creating layer conv3_7_scale1
I0930 15:51:21.837410 32668 net.cpp:128] Creating Layer conv3_7_scale1
I0930 15:51:21.837414 32668 net.cpp:558] conv3_7_scale1 <- conv3_7_1
I0930 15:51:21.837419 32668 net.cpp:509] conv3_7_scale1 -> conv3_7_1 (in-place)
I0930 15:51:21.837463 32668 layer_factory.hpp:77] Creating layer conv3_7_scale1
I0930 15:51:21.837618 32668 net.cpp:172] Setting up conv3_7_scale1
I0930 15:51:21.837630 32668 net.cpp:186] Top shape: 128 32 16 16 (1048576)
I0930 15:51:21.837633 32668 net.cpp:194] Memory required for data: 1201144320
I0930 15:51:21.837641 32668 layer_factory.hpp:77] Creating layer conv3_Eltwise_7
I0930 15:51:21.837648 32668 net.cpp:128] Creating Layer conv3_Eltwise_7
I0930 15:51:21.837652 32668 net.cpp:558] conv3_Eltwise_7 <- conv3_Eltwise_6_conv3_6ReLU_1_0_split_1
I0930 15:51:21.837658 32668 net.cpp:558] conv3_Eltwise_7 <- conv3_7_1
I0930 15:51:21.837666 32668 net.cpp:522] conv3_Eltwise_7 -> conv3_Eltwise_7
I0930 15:51:21.837689 32668 net.cpp:172] Setting up conv3_Eltwise_7
I0930 15:51:21.837695 32668 net.cpp:186] Top shape: 128 32 16 16 (1048576)
I0930 15:51:21.837699 32668 net.cpp:194] Memory required for data: 1205338624
I0930 15:51:21.837703 32668 layer_factory.hpp:77] Creating layer conv3_7ReLU_1
I0930 15:51:21.837709 32668 net.cpp:128] Creating Layer conv3_7ReLU_1
I0930 15:51:21.837713 32668 net.cpp:558] conv3_7ReLU_1 <- conv3_Eltwise_7
I0930 15:51:21.837720 32668 net.cpp:509] conv3_7ReLU_1 -> conv3_Eltwise_7 (in-place)
I0930 15:51:21.838201 32668 net.cpp:172] Setting up conv3_7ReLU_1
I0930 15:51:21.838223 32668 net.cpp:186] Top shape: 128 32 16 16 (1048576)
I0930 15:51:21.838228 32668 net.cpp:194] Memory required for data: 1209532928
I0930 15:51:21.838250 32668 layer_factory.hpp:77] Creating layer conv3_Eltwise_7_conv3_7ReLU_1_0_split
I0930 15:51:21.838261 32668 net.cpp:128] Creating Layer conv3_Eltwise_7_conv3_7ReLU_1_0_split
I0930 15:51:21.838266 32668 net.cpp:558] conv3_Eltwise_7_conv3_7ReLU_1_0_split <- conv3_Eltwise_7
I0930 15:51:21.838274 32668 net.cpp:522] conv3_Eltwise_7_conv3_7ReLU_1_0_split -> conv3_Eltwise_7_conv3_7ReLU_1_0_split_0
I0930 15:51:21.838282 32668 net.cpp:522] conv3_Eltwise_7_conv3_7ReLU_1_0_split -> conv3_Eltwise_7_conv3_7ReLU_1_0_split_1
I0930 15:51:21.838342 32668 net.cpp:172] Setting up conv3_Eltwise_7_conv3_7ReLU_1_0_split
I0930 15:51:21.838349 32668 net.cpp:186] Top shape: 128 32 16 16 (1048576)
I0930 15:51:21.838356 32668 net.cpp:186] Top shape: 128 32 16 16 (1048576)
I0930 15:51:21.838358 32668 net.cpp:194] Memory required for data: 1217921536
I0930 15:51:21.838363 32668 layer_factory.hpp:77] Creating layer conv3_8_0
I0930 15:51:21.838376 32668 net.cpp:128] Creating Layer conv3_8_0
I0930 15:51:21.838382 32668 net.cpp:558] conv3_8_0 <- conv3_Eltwise_7_conv3_7ReLU_1_0_split_0
I0930 15:51:21.838390 32668 net.cpp:522] conv3_8_0 -> conv3_8_0
I0930 15:51:21.839885 32668 net.cpp:172] Setting up conv3_8_0
I0930 15:51:21.839911 32668 net.cpp:186] Top shape: 128 32 16 16 (1048576)
I0930 15:51:21.839916 32668 net.cpp:194] Memory required for data: 1222115840
I0930 15:51:21.839928 32668 layer_factory.hpp:77] Creating layer conv3_8_bn0
I0930 15:51:21.839938 32668 net.cpp:128] Creating Layer conv3_8_bn0
I0930 15:51:21.839944 32668 net.cpp:558] conv3_8_bn0 <- conv3_8_0
I0930 15:51:21.839954 32668 net.cpp:509] conv3_8_bn0 -> conv3_8_0 (in-place)
I0930 15:51:21.840220 32668 net.cpp:172] Setting up conv3_8_bn0
I0930 15:51:21.840230 32668 net.cpp:186] Top shape: 128 32 16 16 (1048576)
I0930 15:51:21.840234 32668 net.cpp:194] Memory required for data: 1226310144
I0930 15:51:21.840243 32668 layer_factory.hpp:77] Creating layer conv3_8_scale0
I0930 15:51:21.840250 32668 net.cpp:128] Creating Layer conv3_8_scale0
I0930 15:51:21.840255 32668 net.cpp:558] conv3_8_scale0 <- conv3_8_0
I0930 15:51:21.840262 32668 net.cpp:509] conv3_8_scale0 -> conv3_8_0 (in-place)
I0930 15:51:21.840304 32668 layer_factory.hpp:77] Creating layer conv3_8_scale0
I0930 15:51:21.840461 32668 net.cpp:172] Setting up conv3_8_scale0
I0930 15:51:21.840471 32668 net.cpp:186] Top shape: 128 32 16 16 (1048576)
I0930 15:51:21.840476 32668 net.cpp:194] Memory required for data: 1230504448
I0930 15:51:21.840482 32668 layer_factory.hpp:77] Creating layer conv3_8_ReLU0
I0930 15:51:21.840488 32668 net.cpp:128] Creating Layer conv3_8_ReLU0
I0930 15:51:21.840493 32668 net.cpp:558] conv3_8_ReLU0 <- conv3_8_0
I0930 15:51:21.840504 32668 net.cpp:509] conv3_8_ReLU0 -> conv3_8_0 (in-place)
I0930 15:51:21.840750 32668 net.cpp:172] Setting up conv3_8_ReLU0
I0930 15:51:21.840764 32668 net.cpp:186] Top shape: 128 32 16 16 (1048576)
I0930 15:51:21.840767 32668 net.cpp:194] Memory required for data: 1234698752
I0930 15:51:21.840772 32668 layer_factory.hpp:77] Creating layer conv3_8_1
I0930 15:51:21.840785 32668 net.cpp:128] Creating Layer conv3_8_1
I0930 15:51:21.840790 32668 net.cpp:558] conv3_8_1 <- conv3_8_0
I0930 15:51:21.840801 32668 net.cpp:522] conv3_8_1 -> conv3_8_1
I0930 15:51:21.842319 32668 net.cpp:172] Setting up conv3_8_1
I0930 15:51:21.842346 32668 net.cpp:186] Top shape: 128 32 16 16 (1048576)
I0930 15:51:21.842350 32668 net.cpp:194] Memory required for data: 1238893056
I0930 15:51:21.842360 32668 layer_factory.hpp:77] Creating layer conv3_8bn1
I0930 15:51:21.842371 32668 net.cpp:128] Creating Layer conv3_8bn1
I0930 15:51:21.842377 32668 net.cpp:558] conv3_8bn1 <- conv3_8_1
I0930 15:51:21.842386 32668 net.cpp:509] conv3_8bn1 -> conv3_8_1 (in-place)
I0930 15:51:21.842658 32668 net.cpp:172] Setting up conv3_8bn1
I0930 15:51:21.842667 32668 net.cpp:186] Top shape: 128 32 16 16 (1048576)
I0930 15:51:21.842672 32668 net.cpp:194] Memory required for data: 1243087360
I0930 15:51:21.842681 32668 layer_factory.hpp:77] Creating layer conv3_8_scale1
I0930 15:51:21.842707 32668 net.cpp:128] Creating Layer conv3_8_scale1
I0930 15:51:21.842712 32668 net.cpp:558] conv3_8_scale1 <- conv3_8_1
I0930 15:51:21.842717 32668 net.cpp:509] conv3_8_scale1 -> conv3_8_1 (in-place)
I0930 15:51:21.842764 32668 layer_factory.hpp:77] Creating layer conv3_8_scale1
I0930 15:51:21.842921 32668 net.cpp:172] Setting up conv3_8_scale1
I0930 15:51:21.842932 32668 net.cpp:186] Top shape: 128 32 16 16 (1048576)
I0930 15:51:21.842936 32668 net.cpp:194] Memory required for data: 1247281664
I0930 15:51:21.842944 32668 layer_factory.hpp:77] Creating layer conv3_Eltwise_8
I0930 15:51:21.842953 32668 net.cpp:128] Creating Layer conv3_Eltwise_8
I0930 15:51:21.842958 32668 net.cpp:558] conv3_Eltwise_8 <- conv3_Eltwise_7_conv3_7ReLU_1_0_split_1
I0930 15:51:21.842964 32668 net.cpp:558] conv3_Eltwise_8 <- conv3_8_1
I0930 15:51:21.842972 32668 net.cpp:522] conv3_Eltwise_8 -> conv3_Eltwise_8
I0930 15:51:21.842993 32668 net.cpp:172] Setting up conv3_Eltwise_8
I0930 15:51:21.843003 32668 net.cpp:186] Top shape: 128 32 16 16 (1048576)
I0930 15:51:21.843008 32668 net.cpp:194] Memory required for data: 1251475968
I0930 15:51:21.843011 32668 layer_factory.hpp:77] Creating layer conv3_8ReLU_1
I0930 15:51:21.843019 32668 net.cpp:128] Creating Layer conv3_8ReLU_1
I0930 15:51:21.843024 32668 net.cpp:558] conv3_8ReLU_1 <- conv3_Eltwise_8
I0930 15:51:21.843029 32668 net.cpp:509] conv3_8ReLU_1 -> conv3_Eltwise_8 (in-place)
I0930 15:51:21.843282 32668 net.cpp:172] Setting up conv3_8ReLU_1
I0930 15:51:21.843295 32668 net.cpp:186] Top shape: 128 32 16 16 (1048576)
I0930 15:51:21.843299 32668 net.cpp:194] Memory required for data: 1255670272
I0930 15:51:21.843303 32668 layer_factory.hpp:77] Creating layer conv3_Eltwise_8_conv3_8ReLU_1_0_split
I0930 15:51:21.843312 32668 net.cpp:128] Creating Layer conv3_Eltwise_8_conv3_8ReLU_1_0_split
I0930 15:51:21.843317 32668 net.cpp:558] conv3_Eltwise_8_conv3_8ReLU_1_0_split <- conv3_Eltwise_8
I0930 15:51:21.843327 32668 net.cpp:522] conv3_Eltwise_8_conv3_8ReLU_1_0_split -> conv3_Eltwise_8_conv3_8ReLU_1_0_split_0
I0930 15:51:21.843335 32668 net.cpp:522] conv3_Eltwise_8_conv3_8ReLU_1_0_split -> conv3_Eltwise_8_conv3_8ReLU_1_0_split_1
I0930 15:51:21.843389 32668 net.cpp:172] Setting up conv3_Eltwise_8_conv3_8ReLU_1_0_split
I0930 15:51:21.843400 32668 net.cpp:186] Top shape: 128 32 16 16 (1048576)
I0930 15:51:21.843408 32668 net.cpp:186] Top shape: 128 32 16 16 (1048576)
I0930 15:51:21.843412 32668 net.cpp:194] Memory required for data: 1264058880
I0930 15:51:21.843417 32668 layer_factory.hpp:77] Creating layer conv3_9_0
I0930 15:51:21.843430 32668 net.cpp:128] Creating Layer conv3_9_0
I0930 15:51:21.843436 32668 net.cpp:558] conv3_9_0 <- conv3_Eltwise_8_conv3_8ReLU_1_0_split_0
I0930 15:51:21.843443 32668 net.cpp:522] conv3_9_0 -> conv3_9_0
I0930 15:51:21.844938 32668 net.cpp:172] Setting up conv3_9_0
I0930 15:51:21.844964 32668 net.cpp:186] Top shape: 128 32 16 16 (1048576)
I0930 15:51:21.844969 32668 net.cpp:194] Memory required for data: 1268253184
I0930 15:51:21.844983 32668 layer_factory.hpp:77] Creating layer conv3_9_bn0
I0930 15:51:21.844995 32668 net.cpp:128] Creating Layer conv3_9_bn0
I0930 15:51:21.845003 32668 net.cpp:558] conv3_9_bn0 <- conv3_9_0
I0930 15:51:21.845012 32668 net.cpp:509] conv3_9_bn0 -> conv3_9_0 (in-place)
I0930 15:51:21.845284 32668 net.cpp:172] Setting up conv3_9_bn0
I0930 15:51:21.845294 32668 net.cpp:186] Top shape: 128 32 16 16 (1048576)
I0930 15:51:21.845299 32668 net.cpp:194] Memory required for data: 1272447488
I0930 15:51:21.845326 32668 layer_factory.hpp:77] Creating layer conv3_9_scale0
I0930 15:51:21.845336 32668 net.cpp:128] Creating Layer conv3_9_scale0
I0930 15:51:21.845341 32668 net.cpp:558] conv3_9_scale0 <- conv3_9_0
I0930 15:51:21.845347 32668 net.cpp:509] conv3_9_scale0 -> conv3_9_0 (in-place)
I0930 15:51:21.845393 32668 layer_factory.hpp:77] Creating layer conv3_9_scale0
I0930 15:51:21.845543 32668 net.cpp:172] Setting up conv3_9_scale0
I0930 15:51:21.845553 32668 net.cpp:186] Top shape: 128 32 16 16 (1048576)
I0930 15:51:21.845557 32668 net.cpp:194] Memory required for data: 1276641792
I0930 15:51:21.845580 32668 layer_factory.hpp:77] Creating layer conv3_9_ReLU0
I0930 15:51:21.845587 32668 net.cpp:128] Creating Layer conv3_9_ReLU0
I0930 15:51:21.845597 32668 net.cpp:558] conv3_9_ReLU0 <- conv3_9_0
I0930 15:51:21.845602 32668 net.cpp:509] conv3_9_ReLU0 -> conv3_9_0 (in-place)
I0930 15:51:21.846112 32668 net.cpp:172] Setting up conv3_9_ReLU0
I0930 15:51:21.846133 32668 net.cpp:186] Top shape: 128 32 16 16 (1048576)
I0930 15:51:21.846138 32668 net.cpp:194] Memory required for data: 1280836096
I0930 15:51:21.846143 32668 layer_factory.hpp:77] Creating layer conv3_9_1
I0930 15:51:21.846158 32668 net.cpp:128] Creating Layer conv3_9_1
I0930 15:51:21.846163 32668 net.cpp:558] conv3_9_1 <- conv3_9_0
I0930 15:51:21.846174 32668 net.cpp:522] conv3_9_1 -> conv3_9_1
I0930 15:51:21.847687 32668 net.cpp:172] Setting up conv3_9_1
I0930 15:51:21.847712 32668 net.cpp:186] Top shape: 128 32 16 16 (1048576)
I0930 15:51:21.847718 32668 net.cpp:194] Memory required for data: 1285030400
I0930 15:51:21.847728 32668 layer_factory.hpp:77] Creating layer conv3_9bn1
I0930 15:51:21.847735 32668 net.cpp:128] Creating Layer conv3_9bn1
I0930 15:51:21.847740 32668 net.cpp:558] conv3_9bn1 <- conv3_9_1
I0930 15:51:21.847749 32668 net.cpp:509] conv3_9bn1 -> conv3_9_1 (in-place)
I0930 15:51:21.848026 32668 net.cpp:172] Setting up conv3_9bn1
I0930 15:51:21.848035 32668 net.cpp:186] Top shape: 128 32 16 16 (1048576)
I0930 15:51:21.848039 32668 net.cpp:194] Memory required for data: 1289224704
I0930 15:51:21.848049 32668 layer_factory.hpp:77] Creating layer conv3_9_scale1
I0930 15:51:21.848057 32668 net.cpp:128] Creating Layer conv3_9_scale1
I0930 15:51:21.848060 32668 net.cpp:558] conv3_9_scale1 <- conv3_9_1
I0930 15:51:21.848067 32668 net.cpp:509] conv3_9_scale1 -> conv3_9_1 (in-place)
I0930 15:51:21.848110 32668 layer_factory.hpp:77] Creating layer conv3_9_scale1
I0930 15:51:21.848270 32668 net.cpp:172] Setting up conv3_9_scale1
I0930 15:51:21.848282 32668 net.cpp:186] Top shape: 128 32 16 16 (1048576)
I0930 15:51:21.848286 32668 net.cpp:194] Memory required for data: 1293419008
I0930 15:51:21.848294 32668 layer_factory.hpp:77] Creating layer conv3_Eltwise_9
I0930 15:51:21.848300 32668 net.cpp:128] Creating Layer conv3_Eltwise_9
I0930 15:51:21.848305 32668 net.cpp:558] conv3_Eltwise_9 <- conv3_Eltwise_8_conv3_8ReLU_1_0_split_1
I0930 15:51:21.848310 32668 net.cpp:558] conv3_Eltwise_9 <- conv3_9_1
I0930 15:51:21.848317 32668 net.cpp:522] conv3_Eltwise_9 -> conv3_Eltwise_9
I0930 15:51:21.848342 32668 net.cpp:172] Setting up conv3_Eltwise_9
I0930 15:51:21.848350 32668 net.cpp:186] Top shape: 128 32 16 16 (1048576)
I0930 15:51:21.848353 32668 net.cpp:194] Memory required for data: 1297613312
I0930 15:51:21.848357 32668 layer_factory.hpp:77] Creating layer conv3_9ReLU_1
I0930 15:51:21.848363 32668 net.cpp:128] Creating Layer conv3_9ReLU_1
I0930 15:51:21.848368 32668 net.cpp:558] conv3_9ReLU_1 <- conv3_Eltwise_9
I0930 15:51:21.848376 32668 net.cpp:509] conv3_9ReLU_1 -> conv3_Eltwise_9 (in-place)
I0930 15:51:21.848639 32668 net.cpp:172] Setting up conv3_9ReLU_1
I0930 15:51:21.848661 32668 net.cpp:186] Top shape: 128 32 16 16 (1048576)
I0930 15:51:21.848666 32668 net.cpp:194] Memory required for data: 1301807616
I0930 15:51:21.848671 32668 layer_factory.hpp:77] Creating layer conv3_Eltwise_9_conv3_9ReLU_1_0_split
I0930 15:51:21.848678 32668 net.cpp:128] Creating Layer conv3_Eltwise_9_conv3_9ReLU_1_0_split
I0930 15:51:21.848683 32668 net.cpp:558] conv3_Eltwise_9_conv3_9ReLU_1_0_split <- conv3_Eltwise_9
I0930 15:51:21.848691 32668 net.cpp:522] conv3_Eltwise_9_conv3_9ReLU_1_0_split -> conv3_Eltwise_9_conv3_9ReLU_1_0_split_0
I0930 15:51:21.848701 32668 net.cpp:522] conv3_Eltwise_9_conv3_9ReLU_1_0_split -> conv3_Eltwise_9_conv3_9ReLU_1_0_split_1
I0930 15:51:21.848755 32668 net.cpp:172] Setting up conv3_Eltwise_9_conv3_9ReLU_1_0_split
I0930 15:51:21.848767 32668 net.cpp:186] Top shape: 128 32 16 16 (1048576)
I0930 15:51:21.848772 32668 net.cpp:186] Top shape: 128 32 16 16 (1048576)
I0930 15:51:21.848775 32668 net.cpp:194] Memory required for data: 1310196224
I0930 15:51:21.848798 32668 layer_factory.hpp:77] Creating layer conv4_1_0
I0930 15:51:21.848814 32668 net.cpp:128] Creating Layer conv4_1_0
I0930 15:51:21.848820 32668 net.cpp:558] conv4_1_0 <- conv3_Eltwise_9_conv3_9ReLU_1_0_split_0
I0930 15:51:21.848829 32668 net.cpp:522] conv4_1_0 -> conv4_1_0
I0930 15:51:21.852149 32668 net.cpp:172] Setting up conv4_1_0
I0930 15:51:21.852180 32668 net.cpp:186] Top shape: 128 64 8 8 (524288)
I0930 15:51:21.852183 32668 net.cpp:194] Memory required for data: 1312293376
I0930 15:51:21.852202 32668 layer_factory.hpp:77] Creating layer conv4_1_bn0
I0930 15:51:21.852216 32668 net.cpp:128] Creating Layer conv4_1_bn0
I0930 15:51:21.852226 32668 net.cpp:558] conv4_1_bn0 <- conv4_1_0
I0930 15:51:21.852236 32668 net.cpp:509] conv4_1_bn0 -> conv4_1_0 (in-place)
I0930 15:51:21.852530 32668 net.cpp:172] Setting up conv4_1_bn0
I0930 15:51:21.852540 32668 net.cpp:186] Top shape: 128 64 8 8 (524288)
I0930 15:51:21.852545 32668 net.cpp:194] Memory required for data: 1314390528
I0930 15:51:21.852555 32668 layer_factory.hpp:77] Creating layer conv4_1_scale0
I0930 15:51:21.852564 32668 net.cpp:128] Creating Layer conv4_1_scale0
I0930 15:51:21.852571 32668 net.cpp:558] conv4_1_scale0 <- conv4_1_0
I0930 15:51:21.852576 32668 net.cpp:509] conv4_1_scale0 -> conv4_1_0 (in-place)
I0930 15:51:21.852623 32668 layer_factory.hpp:77] Creating layer conv4_1_scale0
I0930 15:51:21.852787 32668 net.cpp:172] Setting up conv4_1_scale0
I0930 15:51:21.852797 32668 net.cpp:186] Top shape: 128 64 8 8 (524288)
I0930 15:51:21.852800 32668 net.cpp:194] Memory required for data: 1316487680
I0930 15:51:21.852809 32668 layer_factory.hpp:77] Creating layer conv4_1_ReLU0
I0930 15:51:21.852818 32668 net.cpp:128] Creating Layer conv4_1_ReLU0
I0930 15:51:21.852823 32668 net.cpp:558] conv4_1_ReLU0 <- conv4_1_0
I0930 15:51:21.852829 32668 net.cpp:509] conv4_1_ReLU0 -> conv4_1_0 (in-place)
I0930 15:51:21.853078 32668 net.cpp:172] Setting up conv4_1_ReLU0
I0930 15:51:21.853092 32668 net.cpp:186] Top shape: 128 64 8 8 (524288)
I0930 15:51:21.853096 32668 net.cpp:194] Memory required for data: 1318584832
I0930 15:51:21.853101 32668 layer_factory.hpp:77] Creating layer conv4_1_1
I0930 15:51:21.853116 32668 net.cpp:128] Creating Layer conv4_1_1
I0930 15:51:21.853124 32668 net.cpp:558] conv4_1_1 <- conv4_1_0
I0930 15:51:21.853135 32668 net.cpp:522] conv4_1_1 -> conv4_1_1
I0930 15:51:21.855343 32668 net.cpp:172] Setting up conv4_1_1
I0930 15:51:21.855373 32668 net.cpp:186] Top shape: 128 64 8 8 (524288)
I0930 15:51:21.855377 32668 net.cpp:194] Memory required for data: 1320681984
I0930 15:51:21.855392 32668 layer_factory.hpp:77] Creating layer conv4_1bn1
I0930 15:51:21.855401 32668 net.cpp:128] Creating Layer conv4_1bn1
I0930 15:51:21.855406 32668 net.cpp:558] conv4_1bn1 <- conv4_1_1
I0930 15:51:21.855415 32668 net.cpp:509] conv4_1bn1 -> conv4_1_1 (in-place)
I0930 15:51:21.855716 32668 net.cpp:172] Setting up conv4_1bn1
I0930 15:51:21.855726 32668 net.cpp:186] Top shape: 128 64 8 8 (524288)
I0930 15:51:21.855731 32668 net.cpp:194] Memory required for data: 1322779136
I0930 15:51:21.855741 32668 layer_factory.hpp:77] Creating layer conv4_1_scale1
I0930 15:51:21.855747 32668 net.cpp:128] Creating Layer conv4_1_scale1
I0930 15:51:21.855752 32668 net.cpp:558] conv4_1_scale1 <- conv4_1_1
I0930 15:51:21.855760 32668 net.cpp:509] conv4_1_scale1 -> conv4_1_1 (in-place)
I0930 15:51:21.855808 32668 layer_factory.hpp:77] Creating layer conv4_1_scale1
I0930 15:51:21.855973 32668 net.cpp:172] Setting up conv4_1_scale1
I0930 15:51:21.855983 32668 net.cpp:186] Top shape: 128 64 8 8 (524288)
I0930 15:51:21.855988 32668 net.cpp:194] Memory required for data: 1324876288
I0930 15:51:21.855995 32668 layer_factory.hpp:77] Creating layer conv4_1_down
I0930 15:51:21.856006 32668 net.cpp:128] Creating Layer conv4_1_down
I0930 15:51:21.856015 32668 net.cpp:558] conv4_1_down <- conv3_Eltwise_9_conv3_9ReLU_1_0_split_1
I0930 15:51:21.856025 32668 net.cpp:522] conv4_1_down -> conv4_1_down
I0930 15:51:21.857456 32668 net.cpp:172] Setting up conv4_1_down
I0930 15:51:21.857501 32668 net.cpp:186] Top shape: 128 64 8 8 (524288)
I0930 15:51:21.857506 32668 net.cpp:194] Memory required for data: 1326973440
I0930 15:51:21.857518 32668 layer_factory.hpp:77] Creating layer conv4_1_bn_down
I0930 15:51:21.857529 32668 net.cpp:128] Creating Layer conv4_1_bn_down
I0930 15:51:21.857534 32668 net.cpp:558] conv4_1_bn_down <- conv4_1_down
I0930 15:51:21.857542 32668 net.cpp:509] conv4_1_bn_down -> conv4_1_down (in-place)
I0930 15:51:21.857831 32668 net.cpp:172] Setting up conv4_1_bn_down
I0930 15:51:21.857839 32668 net.cpp:186] Top shape: 128 64 8 8 (524288)
I0930 15:51:21.857844 32668 net.cpp:194] Memory required for data: 1329070592
I0930 15:51:21.857853 32668 layer_factory.hpp:77] Creating layer conv4_1_scale_down
I0930 15:51:21.857866 32668 net.cpp:128] Creating Layer conv4_1_scale_down
I0930 15:51:21.857870 32668 net.cpp:558] conv4_1_scale_down <- conv4_1_down
I0930 15:51:21.857875 32668 net.cpp:509] conv4_1_scale_down -> conv4_1_down (in-place)
I0930 15:51:21.857921 32668 layer_factory.hpp:77] Creating layer conv4_1_scale_down
I0930 15:51:21.858103 32668 net.cpp:172] Setting up conv4_1_scale_down
I0930 15:51:21.858114 32668 net.cpp:186] Top shape: 128 64 8 8 (524288)
I0930 15:51:21.858117 32668 net.cpp:194] Memory required for data: 1331167744
I0930 15:51:21.858126 32668 layer_factory.hpp:77] Creating layer conv4_Eltwise_1
I0930 15:51:21.858144 32668 net.cpp:128] Creating Layer conv4_Eltwise_1
I0930 15:51:21.858150 32668 net.cpp:558] conv4_Eltwise_1 <- conv4_1_1
I0930 15:51:21.858155 32668 net.cpp:558] conv4_Eltwise_1 <- conv4_1_down
I0930 15:51:21.858161 32668 net.cpp:522] conv4_Eltwise_1 -> conv4_Eltwise_1
I0930 15:51:21.858188 32668 net.cpp:172] Setting up conv4_Eltwise_1
I0930 15:51:21.858196 32668 net.cpp:186] Top shape: 128 64 8 8 (524288)
I0930 15:51:21.858201 32668 net.cpp:194] Memory required for data: 1333264896
I0930 15:51:21.858206 32668 layer_factory.hpp:77] Creating layer conv4_1ReLU_1
I0930 15:51:21.858211 32668 net.cpp:128] Creating Layer conv4_1ReLU_1
I0930 15:51:21.858217 32668 net.cpp:558] conv4_1ReLU_1 <- conv4_Eltwise_1
I0930 15:51:21.858223 32668 net.cpp:509] conv4_1ReLU_1 -> conv4_Eltwise_1 (in-place)
I0930 15:51:21.858475 32668 net.cpp:172] Setting up conv4_1ReLU_1
I0930 15:51:21.858489 32668 net.cpp:186] Top shape: 128 64 8 8 (524288)
I0930 15:51:21.858492 32668 net.cpp:194] Memory required for data: 1335362048
I0930 15:51:21.858497 32668 layer_factory.hpp:77] Creating layer conv4_Eltwise_1_conv4_1ReLU_1_0_split
I0930 15:51:21.858505 32668 net.cpp:128] Creating Layer conv4_Eltwise_1_conv4_1ReLU_1_0_split
I0930 15:51:21.858510 32668 net.cpp:558] conv4_Eltwise_1_conv4_1ReLU_1_0_split <- conv4_Eltwise_1
I0930 15:51:21.858518 32668 net.cpp:522] conv4_Eltwise_1_conv4_1ReLU_1_0_split -> conv4_Eltwise_1_conv4_1ReLU_1_0_split_0
I0930 15:51:21.858526 32668 net.cpp:522] conv4_Eltwise_1_conv4_1ReLU_1_0_split -> conv4_Eltwise_1_conv4_1ReLU_1_0_split_1
I0930 15:51:21.858582 32668 net.cpp:172] Setting up conv4_Eltwise_1_conv4_1ReLU_1_0_split
I0930 15:51:21.858592 32668 net.cpp:186] Top shape: 128 64 8 8 (524288)
I0930 15:51:21.858598 32668 net.cpp:186] Top shape: 128 64 8 8 (524288)
I0930 15:51:21.858603 32668 net.cpp:194] Memory required for data: 1339556352
I0930 15:51:21.858606 32668 layer_factory.hpp:77] Creating layer conv4_2_0
I0930 15:51:21.858618 32668 net.cpp:128] Creating Layer conv4_2_0
I0930 15:51:21.858623 32668 net.cpp:558] conv4_2_0 <- conv4_Eltwise_1_conv4_1ReLU_1_0_split_0
I0930 15:51:21.858633 32668 net.cpp:522] conv4_2_0 -> conv4_2_0
I0930 15:51:21.860579 32668 net.cpp:172] Setting up conv4_2_0
I0930 15:51:21.860605 32668 net.cpp:186] Top shape: 128 64 8 8 (524288)
I0930 15:51:21.860610 32668 net.cpp:194] Memory required for data: 1341653504
I0930 15:51:21.860620 32668 layer_factory.hpp:77] Creating layer conv4_2_bn0
I0930 15:51:21.860631 32668 net.cpp:128] Creating Layer conv4_2_bn0
I0930 15:51:21.860636 32668 net.cpp:558] conv4_2_bn0 <- conv4_2_0
I0930 15:51:21.860643 32668 net.cpp:509] conv4_2_bn0 -> conv4_2_0 (in-place)
I0930 15:51:21.860950 32668 net.cpp:172] Setting up conv4_2_bn0
I0930 15:51:21.860961 32668 net.cpp:186] Top shape: 128 64 8 8 (524288)
I0930 15:51:21.860965 32668 net.cpp:194] Memory required for data: 1343750656
I0930 15:51:21.860975 32668 layer_factory.hpp:77] Creating layer conv4_2_scale0
I0930 15:51:21.860986 32668 net.cpp:128] Creating Layer conv4_2_scale0
I0930 15:51:21.860991 32668 net.cpp:558] conv4_2_scale0 <- conv4_2_0
I0930 15:51:21.860996 32668 net.cpp:509] conv4_2_scale0 -> conv4_2_0 (in-place)
I0930 15:51:21.861044 32668 layer_factory.hpp:77] Creating layer conv4_2_scale0
I0930 15:51:21.861207 32668 net.cpp:172] Setting up conv4_2_scale0
I0930 15:51:21.861217 32668 net.cpp:186] Top shape: 128 64 8 8 (524288)
I0930 15:51:21.861222 32668 net.cpp:194] Memory required for data: 1345847808
I0930 15:51:21.861230 32668 layer_factory.hpp:77] Creating layer conv4_2_ReLU0
I0930 15:51:21.861238 32668 net.cpp:128] Creating Layer conv4_2_ReLU0
I0930 15:51:21.861243 32668 net.cpp:558] conv4_2_ReLU0 <- conv4_2_0
I0930 15:51:21.861248 32668 net.cpp:509] conv4_2_ReLU0 -> conv4_2_0 (in-place)
I0930 15:51:21.861745 32668 net.cpp:172] Setting up conv4_2_ReLU0
I0930 15:51:21.861766 32668 net.cpp:186] Top shape: 128 64 8 8 (524288)
I0930 15:51:21.861771 32668 net.cpp:194] Memory required for data: 1347944960
I0930 15:51:21.861776 32668 layer_factory.hpp:77] Creating layer conv4_2_1
I0930 15:51:21.861794 32668 net.cpp:128] Creating Layer conv4_2_1
I0930 15:51:21.861804 32668 net.cpp:558] conv4_2_1 <- conv4_2_0
I0930 15:51:21.861811 32668 net.cpp:522] conv4_2_1 -> conv4_2_1
I0930 15:51:21.864053 32668 net.cpp:172] Setting up conv4_2_1
I0930 15:51:21.864079 32668 net.cpp:186] Top shape: 128 64 8 8 (524288)
I0930 15:51:21.864084 32668 net.cpp:194] Memory required for data: 1350042112
I0930 15:51:21.864099 32668 layer_factory.hpp:77] Creating layer conv4_2bn1
I0930 15:51:21.864110 32668 net.cpp:128] Creating Layer conv4_2bn1
I0930 15:51:21.864127 32668 net.cpp:558] conv4_2bn1 <- conv4_2_1
I0930 15:51:21.864136 32668 net.cpp:509] conv4_2bn1 -> conv4_2_1 (in-place)
I0930 15:51:21.864436 32668 net.cpp:172] Setting up conv4_2bn1
I0930 15:51:21.864446 32668 net.cpp:186] Top shape: 128 64 8 8 (524288)
I0930 15:51:21.864450 32668 net.cpp:194] Memory required for data: 1352139264
I0930 15:51:21.864459 32668 layer_factory.hpp:77] Creating layer conv4_2_scale1
I0930 15:51:21.864471 32668 net.cpp:128] Creating Layer conv4_2_scale1
I0930 15:51:21.864475 32668 net.cpp:558] conv4_2_scale1 <- conv4_2_1
I0930 15:51:21.864483 32668 net.cpp:509] conv4_2_scale1 -> conv4_2_1 (in-place)
I0930 15:51:21.864527 32668 layer_factory.hpp:77] Creating layer conv4_2_scale1
I0930 15:51:21.864691 32668 net.cpp:172] Setting up conv4_2_scale1
I0930 15:51:21.864702 32668 net.cpp:186] Top shape: 128 64 8 8 (524288)
I0930 15:51:21.864706 32668 net.cpp:194] Memory required for data: 1354236416
I0930 15:51:21.864713 32668 layer_factory.hpp:77] Creating layer conv4_Eltwise_2
I0930 15:51:21.864720 32668 net.cpp:128] Creating Layer conv4_Eltwise_2
I0930 15:51:21.864725 32668 net.cpp:558] conv4_Eltwise_2 <- conv4_Eltwise_1_conv4_1ReLU_1_0_split_1
I0930 15:51:21.864730 32668 net.cpp:558] conv4_Eltwise_2 <- conv4_2_1
I0930 15:51:21.864739 32668 net.cpp:522] conv4_Eltwise_2 -> conv4_Eltwise_2
I0930 15:51:21.864763 32668 net.cpp:172] Setting up conv4_Eltwise_2
I0930 15:51:21.864771 32668 net.cpp:186] Top shape: 128 64 8 8 (524288)
I0930 15:51:21.864775 32668 net.cpp:194] Memory required for data: 1356333568
I0930 15:51:21.864779 32668 layer_factory.hpp:77] Creating layer conv4_2ReLU_1
I0930 15:51:21.864786 32668 net.cpp:128] Creating Layer conv4_2ReLU_1
I0930 15:51:21.864790 32668 net.cpp:558] conv4_2ReLU_1 <- conv4_Eltwise_2
…
I0930 15:51:22.088146 32668 net.cpp:194] Memory required for data: 103506040
I0930 15:51:22.088153 32668 layer_factory.hpp:77] Creating layer conv4_1_down
I0930 15:51:22.088165 32668 net.cpp:128] Creating Layer conv4_1_down
I0930 15:51:22.088171 32668 net.cpp:558] conv4_1_down <- conv3_Eltwise_9_conv3_9ReLU_1_0_split_1
I0930 15:51:22.088179 32668 net.cpp:522] conv4_1_down -> conv4_1_down
I0930 15:51:22.093050 32668 net.cpp:172] Setting up conv4_1_down
I0930 15:51:22.093070 32668 net.cpp:186] Top shape: 10 64 8 8 (40960)
I0930 15:51:22.093073 32668 net.cpp:194] Memory required for data: 103669880
I0930 15:51:22.093082 32668 layer_factory.hpp:77] Creating layer conv4_1_bn_down
I0930 15:51:22.093097 32668 net.cpp:128] Creating Layer conv4_1_bn_down
I0930 15:51:22.093103 32668 net.cpp:558] conv4_1_bn_down <- conv4_1_down
I0930 15:51:22.093109 32668 net.cpp:509] conv4_1_bn_down -> conv4_1_down (in-place)
I0930 15:51:22.093335 32668 net.cpp:172] Setting up conv4_1_bn_down
I0930 15:51:22.093343 32668 net.cpp:186] Top shape: 10 64 8 8 (40960)
I0930 15:51:22.093346 32668 net.cpp:194] Memory required for data: 103833720
I0930 15:51:22.093355 32668 layer_factory.hpp:77] Creating layer conv4_1_scale_down
I0930 15:51:22.093364 32668 net.cpp:128] Creating Layer conv4_1_scale_down
I0930 15:51:22.093369 32668 net.cpp:558] conv4_1_scale_down <- conv4_1_down
I0930 15:51:22.093374 32668 net.cpp:509] conv4_1_scale_down -> conv4_1_down (in-place)
I0930 15:51:22.093420 32668 layer_factory.hpp:77] Creating layer conv4_1_scale_down
I0930 15:51:22.093555 32668 net.cpp:172] Setting up conv4_1_scale_down
I0930 15:51:22.093562 32668 net.cpp:186] Top shape: 10 64 8 8 (40960)
I0930 15:51:22.093581 32668 net.cpp:194] Memory required for data: 103997560
I0930 15:51:22.093590 32668 layer_factory.hpp:77] Creating layer conv4_Eltwise_1
I0930 15:51:22.093597 32668 net.cpp:128] Creating Layer conv4_Eltwise_1
I0930 15:51:22.093602 32668 net.cpp:558] conv4_Eltwise_1 <- conv4_1_1
I0930 15:51:22.093607 32668 net.cpp:558] conv4_Eltwise_1 <- conv4_1_down
I0930 15:51:22.093616 32668 net.cpp:522] conv4_Eltwise_1 -> conv4_Eltwise_1
I0930 15:51:22.093641 32668 net.cpp:172] Setting up conv4_Eltwise_1
I0930 15:51:22.093647 32668 net.cpp:186] Top shape: 10 64 8 8 (40960)
I0930 15:51:22.093652 32668 net.cpp:194] Memory required for data: 104161400
I0930 15:51:22.093655 32668 layer_factory.hpp:77] Creating layer conv4_1ReLU_1
I0930 15:51:22.093664 32668 net.cpp:128] Creating Layer conv4_1ReLU_1
I0930 15:51:22.093668 32668 net.cpp:558] conv4_1ReLU_1 <- conv4_Eltwise_1
I0930 15:51:22.093673 32668 net.cpp:509] conv4_1ReLU_1 -> conv4_Eltwise_1 (in-place)
I0930 15:51:22.094223 32668 net.cpp:172] Setting up conv4_1ReLU_1
I0930 15:51:22.094244 32668 net.cpp:186] Top shape: 10 64 8 8 (40960)
I0930 15:51:22.094247 32668 net.cpp:194] Memory required for data: 104325240
I0930 15:51:22.094252 32668 layer_factory.hpp:77] Creating layer conv4_Eltwise_1_conv4_1ReLU_1_0_split
I0930 15:51:22.094260 32668 net.cpp:128] Creating Layer conv4_Eltwise_1_conv4_1ReLU_1_0_split
I0930 15:51:22.094265 32668 net.cpp:558] conv4_Eltwise_1_conv4_1ReLU_1_0_split <- conv4_Eltwise_1
I0930 15:51:22.094275 32668 net.cpp:522] conv4_Eltwise_1_conv4_1ReLU_1_0_split -> conv4_Eltwise_1_conv4_1ReLU_1_0_split_0
I0930 15:51:22.094285 32668 net.cpp:522] conv4_Eltwise_1_conv4_1ReLU_1_0_split -> conv4_Eltwise_1_conv4_1ReLU_1_0_split_1
I0930 15:51:22.094333 32668 net.cpp:172] Setting up conv4_Eltwise_1_conv4_1ReLU_1_0_split
I0930 15:51:22.094341 32668 net.cpp:186] Top shape: 10 64 8 8 (40960)
I0930 15:51:22.094347 32668 net.cpp:186] Top shape: 10 64 8 8 (40960)
I0930 15:51:22.094350 32668 net.cpp:194] Memory required for data: 104652920
I0930 15:51:22.094354 32668 layer_factory.hpp:77] Creating layer conv4_2_0
I0930 15:51:22.094367 32668 net.cpp:128] Creating Layer conv4_2_0
I0930 15:51:22.094372 32668 net.cpp:558] conv4_2_0 <- conv4_Eltwise_1_conv4_1ReLU_1_0_split_0
I0930 15:51:22.094379 32668 net.cpp:522] conv4_2_0 -> conv4_2_0
I0930 15:51:22.096622 32668 net.cpp:172] Setting up conv4_2_0
I0930 15:51:22.096642 32668 net.cpp:186] Top shape: 10 64 8 8 (40960)
I0930 15:51:22.096647 32668 net.cpp:194] Memory required for data: 104816760
I0930 15:51:22.096657 32668 layer_factory.hpp:77] Creating layer conv4_2_bn0
I0930 15:51:22.096665 32668 net.cpp:128] Creating Layer conv4_2_bn0
I0930 15:51:22.096670 32668 net.cpp:558] conv4_2_bn0 <- conv4_2_0
I0930 15:51:22.096679 32668 net.cpp:509] conv4_2_bn0 -> conv4_2_0 (in-place)
I0930 15:51:22.096921 32668 net.cpp:172] Setting up conv4_2_bn0
I0930 15:51:22.096928 32668 net.cpp:186] Top shape: 10 64 8 8 (40960)
I0930 15:51:22.096932 32668 net.cpp:194] Memory required for data: 104980600
I0930 15:51:22.096942 32668 layer_factory.hpp:77] Creating layer conv4_2_scale0
I0930 15:51:22.096949 32668 net.cpp:128] Creating Layer conv4_2_scale0
I0930 15:51:22.096953 32668 net.cpp:558] conv4_2_scale0 <- conv4_2_0
I0930 15:51:22.096961 32668 net.cpp:509] conv4_2_scale0 -> conv4_2_0 (in-place)
I0930 15:51:22.097005 32668 layer_factory.hpp:77] Creating layer conv4_2_scale0
I0930 15:51:22.097141 32668 net.cpp:172] Setting up conv4_2_scale0
I0930 15:51:22.097147 32668 net.cpp:186] Top shape: 10 64 8 8 (40960)
I0930 15:51:22.097151 32668 net.cpp:194] Memory required for data: 105144440
I0930 15:51:22.097159 32668 layer_factory.hpp:77] Creating layer conv4_2_ReLU0
I0930 15:51:22.097167 32668 net.cpp:128] Creating Layer conv4_2_ReLU0
I0930 15:51:22.097172 32668 net.cpp:558] conv4_2_ReLU0 <- conv4_2_0
I0930 15:51:22.097177 32668 net.cpp:509] conv4_2_ReLU0 -> conv4_2_0 (in-place)
I0930 15:51:22.097452 32668 net.cpp:172] Setting up conv4_2_ReLU0
I0930 15:51:22.097463 32668 net.cpp:186] Top shape: 10 64 8 8 (40960)
I0930 15:51:22.097467 32668 net.cpp:194] Memory required for data: 105308280
I0930 15:51:22.097487 32668 layer_factory.hpp:77] Creating layer conv4_2_1
I0930 15:51:22.097506 32668 net.cpp:128] Creating Layer conv4_2_1
I0930 15:51:22.097512 32668 net.cpp:558] conv4_2_1 <- conv4_2_0
I0930 15:51:22.097520 32668 net.cpp:522] conv4_2_1 -> conv4_2_1
I0930 15:51:22.099536 32668 net.cpp:172] Setting up conv4_2_1
I0930 15:51:22.099555 32668 net.cpp:186] Top shape: 10 64 8 8 (40960)
I0930 15:51:22.099558 32668 net.cpp:194] Memory required for data: 105472120
I0930 15:51:22.099568 32668 layer_factory.hpp:77] Creating layer conv4_2bn1
I0930 15:51:22.099580 32668 net.cpp:128] Creating Layer conv4_2bn1
I0930 15:51:22.099584 32668 net.cpp:558] conv4_2bn1 <- conv4_2_1
I0930 15:51:22.099592 32668 net.cpp:509] conv4_2bn1 -> conv4_2_1 (in-place)
I0930 15:51:22.099824 32668 net.cpp:172] Setting up conv4_2bn1
I0930 15:51:22.099831 32668 net.cpp:186] Top shape: 10 64 8 8 (40960)
I0930 15:51:22.099835 32668 net.cpp:194] Memory required for data: 105635960
I0930 15:51:22.099845 32668 layer_factory.hpp:77] Creating layer conv4_2_scale1
I0930 15:51:22.099853 32668 net.cpp:128] Creating Layer conv4_2_scale1
I0930 15:51:22.099858 32668 net.cpp:558] conv4_2_scale1 <- conv4_2_1
I0930 15:51:22.099864 32668 net.cpp:509] conv4_2_scale1 -> conv4_2_1 (in-place)
I0930 15:51:22.099908 32668 layer_factory.hpp:77] Creating layer conv4_2_scale1
I0930 15:51:22.100046 32668 net.cpp:172] Setting up conv4_2_scale1
I0930 15:51:22.100054 32668 net.cpp:186] Top shape: 10 64 8 8 (40960)
I0930 15:51:22.100059 32668 net.cpp:194] Memory required for data: 105799800
I0930 15:51:22.100066 32668 layer_factory.hpp:77] Creating layer conv4_Eltwise_2
I0930 15:51:22.100075 32668 net.cpp:128] Creating Layer conv4_Eltwise_2
I0930 15:51:22.100080 32668 net.cpp:558] conv4_Eltwise_2 <- conv4_Eltwise_1_conv4_1ReLU_1_0_split_1
I0930 15:51:22.100085 32668 net.cpp:558] conv4_Eltwise_2 <- conv4_2_1
I0930 15:51:22.100091 32668 net.cpp:522] conv4_Eltwise_2 -> conv4_Eltwise_2
I0930 15:51:22.100117 32668 net.cpp:172] Setting up conv4_Eltwise_2
I0930 15:51:22.100124 32668 net.cpp:186] Top shape: 10 64 8 8 (40960)
I0930 15:51:22.100127 32668 net.cpp:194] Memory required for data: 105963640
I0930 15:51:22.100131 32668 layer_factory.hpp:77] Creating layer conv4_2ReLU_1
I0930 15:51:22.100138 32668 net.cpp:128] Creating Layer conv4_2ReLU_1
I0930 15:51:22.100142 32668 net.cpp:558] conv4_2ReLU_1 <- conv4_Eltwise_2
I0930 15:51:22.100147 32668 net.cpp:509] conv4_2ReLU_1 -> conv4_Eltwise_2 (in-place)
I0930 15:51:22.100419 32668 net.cpp:172] Setting up conv4_2ReLU_1
I0930 15:51:22.100430 32668 net.cpp:186] Top shape: 10 64 8 8 (40960)
I0930 15:51:22.100435 32668 net.cpp:194] Memory required for data: 106127480
I0930 15:51:22.100440 32668 layer_factory.hpp:77] Creating layer conv4_Eltwise_2_conv4_2ReLU_1_0_split
I0930 15:51:22.100446 32668 net.cpp:128] Creating Layer conv4_Eltwise_2_conv4_2ReLU_1_0_split
I0930 15:51:22.100450 32668 net.cpp:558] conv4_Eltwise_2_conv4_2ReLU_1_0_split <- conv4_Eltwise_2
I0930 15:51:22.100459 32668 net.cpp:522] conv4_Eltwise_2_conv4_2ReLU_1_0_split -> conv4_Eltwise_2_conv4_2ReLU_1_0_split_0
I0930 15:51:22.100468 32668 net.cpp:522] conv4_Eltwise_2_conv4_2ReLU_1_0_split -> conv4_Eltwise_2_conv4_2ReLU_1_0_split_1
I0930 15:51:22.100517 32668 net.cpp:172] Setting up conv4_Eltwise_2_conv4_2ReLU_1_0_split
I0930 15:51:22.100523 32668 net.cpp:186] Top shape: 10 64 8 8 (40960)
I0930 15:51:22.100529 32668 net.cpp:186] Top shape: 10 64 8 8 (40960)
I0930 15:51:22.100533 32668 net.cpp:194] Memory required for data: 106455160
I0930 15:51:22.100538 32668 layer_factory.hpp:77] Creating layer conv4_3_0
I0930 15:51:22.100553 32668 net.cpp:128] Creating Layer conv4_3_0
I0930 15:51:22.100558 32668 net.cpp:558] conv4_3_0 <- conv4_Eltwise_2_conv4_2ReLU_1_0_split_0
I0930 15:51:22.100567 32668 net.cpp:522] conv4_3_0 -> conv4_3_0
I0930 15:51:22.102797 32668 net.cpp:172] Setting up conv4_3_0
I0930 15:51:22.102814 32668 net.cpp:186] Top shape: 10 64 8 8 (40960)
I0930 15:51:22.102818 32668 net.cpp:194] Memory required for data: 106619000
I0930 15:51:22.102844 32668 layer_factory.hpp:77] Creating layer conv4_3_bn0
I0930 15:51:22.102855 32668 net.cpp:128] Creating Layer conv4_3_bn0
I0930 15:51:22.102861 32668 net.cpp:558] conv4_3_bn0 <- conv4_3_0
I0930 15:51:22.102869 32668 net.cpp:509] conv4_3_bn0 -> conv4_3_0 (in-place)
I0930 15:51:22.103114 32668 net.cpp:172] Setting up conv4_3_bn0
I0930 15:51:22.103121 32668 net.cpp:186] Top shape: 10 64 8 8 (40960)
I0930 15:51:22.103126 32668 net.cpp:194] Memory required for data: 106782840
I0930 15:51:22.103135 32668 layer_factory.hpp:77] Creating layer conv4_3_scale0
I0930 15:51:22.103142 32668 net.cpp:128] Creating Layer conv4_3_scale0
I0930 15:51:22.103147 32668 net.cpp:558] conv4_3_scale0 <- conv4_3_0
I0930 15:51:22.103152 32668 net.cpp:509] conv4_3_scale0 -> conv4_3_0 (in-place)
I0930 15:51:22.103199 32668 layer_factory.hpp:77] Creating layer conv4_3_scale0
I0930 15:51:22.103335 32668 net.cpp:172] Setting up conv4_3_scale0
I0930 15:51:22.103343 32668 net.cpp:186] Top shape: 10 64 8 8 (40960)
I0930 15:51:22.103346 32668 net.cpp:194] Memory required for data: 106946680
I0930 15:51:22.103354 32668 layer_factory.hpp:77] Creating layer conv4_3_ReLU0
I0930 15:51:22.103360 32668 net.cpp:128] Creating Layer conv4_3_ReLU0
I0930 15:51:22.103364 32668 net.cpp:558] conv4_3_ReLU0 <- conv4_3_0
I0930 15:51:22.103369 32668 net.cpp:509] conv4_3_ReLU0 -> conv4_3_0 (in-place)
I0930 15:51:22.103654 32668 net.cpp:172] Setting up conv4_3_ReLU0
I0930 15:51:22.103665 32668 net.cpp:186] Top shape: 10 64 8 8 (40960)
I0930 15:51:22.103669 32668 net.cpp:194] Memory required for data: 107110520
I0930 15:51:22.103674 32668 layer_factory.hpp:77] Creating layer conv4_3_1
I0930 15:51:22.103687 32668 net.cpp:128] Creating Layer conv4_3_1
I0930 15:51:22.103691 32668 net.cpp:558] conv4_3_1 <- conv4_3_0
I0930 15:51:22.103703 32668 net.cpp:522] conv4_3_1 -> conv4_3_1
I0930 15:51:22.105695 32668 net.cpp:172] Setting up conv4_3_1
I0930 15:51:22.105713 32668 net.cpp:186] Top shape: 10 64 8 8 (40960)
I0930 15:51:22.105717 32668 net.cpp:194] Memory required for data: 107274360
I0930 15:51:22.105727 32668 layer_factory.hpp:77] Creating layer conv4_3bn1
I0930 15:51:22.105736 32668 net.cpp:128] Creating Layer conv4_3bn1
I0930 15:51:22.105741 32668 net.cpp:558] conv4_3bn1 <- conv4_3_1
I0930 15:51:22.105749 32668 net.cpp:509] conv4_3bn1 -> conv4_3_1 (in-place)
I0930 15:51:22.106020 32668 net.cpp:172] Setting up conv4_3bn1
I0930 15:51:22.106029 32668 net.cpp:186] Top shape: 10 64 8 8 (40960)
I0930 15:51:22.106032 32668 net.cpp:194] Memory required for data: 107438200
I0930 15:51:22.106042 32668 layer_factory.hpp:77] Creating layer conv4_3_scale1
I0930 15:51:22.106053 32668 net.cpp:128] Creating Layer conv4_3_scale1
I0930 15:51:22.106057 32668 net.cpp:558] conv4_3_scale1 <- conv4_3_1
I0930 15:51:22.106063 32668 net.cpp:509] conv4_3_scale1 -> conv4_3_1 (in-place)
I0930 15:51:22.106108 32668 layer_factory.hpp:77] Creating layer conv4_3_scale1
I0930 15:51:22.106245 32668 net.cpp:172] Setting up conv4_3_scale1
I0930 15:51:22.106252 32668 net.cpp:186] Top shape: 10 64 8 8 (40960)
I0930 15:51:22.106256 32668 net.cpp:194] Memory required for data: 107602040
I0930 15:51:22.106264 32668 layer_factory.hpp:77] Creating layer conv4_Eltwise_3
I0930 15:51:22.106272 32668 net.cpp:128] Creating Layer conv4_Eltwise_3
I0930 15:51:22.106277 32668 net.cpp:558] conv4_Eltwise_3 <- conv4_Eltwise_2_conv4_2ReLU_1_0_split_1
I0930 15:51:22.106283 32668 net.cpp:558] conv4_Eltwise_3 <- conv4_3_1
I0930 15:51:22.106292 32668 net.cpp:522] conv4_Eltwise_3 -> conv4_Eltwise_3
I0930 15:51:22.106317 32668 net.cpp:172] Setting up conv4_Eltwise_3
I0930 15:51:22.106323 32668 net.cpp:186] Top shape: 10 64 8 8 (40960)
I0930 15:51:22.106326 32668 net.cpp:194] Memory required for data: 107765880
I0930 15:51:22.106330 32668 layer_factory.hpp:77] Creating layer conv4_3ReLU_1
I0930 15:51:22.106336 32668 net.cpp:128] Creating Layer conv4_3ReLU_1
I0930 15:51:22.106340 32668 net.cpp:558] conv4_3ReLU_1 <- conv4_Eltwise_3
I0930 15:51:22.106348 32668 net.cpp:509] conv4_3ReLU_1 -> conv4_Eltwise_3 (in-place)
I0930 15:51:22.106901 32668 net.cpp:172] Setting up conv4_3ReLU_1
I0930 15:51:22.106918 32668 net.cpp:186] Top shape: 10 64 8 8 (40960)
I0930 15:51:22.106922 32668 net.cpp:194] Memory required for data: 107929720
I0930 15:51:22.106927 32668 layer_factory.hpp:77] Creating layer conv4_Eltwise_3_conv4_3ReLU_1_0_split
I0930 15:51:22.106937 32668 net.cpp:128] Creating Layer conv4_Eltwise_3_conv4_3ReLU_1_0_split
I0930 15:51:22.106943 32668 net.cpp:558] conv4_Eltwise_3_conv4_3ReLU_1_0_split <- conv4_Eltwise_3
I0930 15:51:22.106950 32668 net.cpp:522] conv4_Eltwise_3_conv4_3ReLU_1_0_split -> conv4_Eltwise_3_conv4_3ReLU_1_0_split_0
I0930 15:51:22.106959 32668 net.cpp:522] conv4_Eltwise_3_conv4_3ReLU_1_0_split -> conv4_Eltwise_3_conv4_3ReLU_1_0_split_1
I0930 15:51:22.107010 32668 net.cpp:172] Setting up conv4_Eltwise_3_conv4_3ReLU_1_0_split
I0930 15:51:22.107017 32668 net.cpp:186] Top shape: 10 64 8 8 (40960)
I0930 15:51:22.107023 32668 net.cpp:186] Top shape: 10 64 8 8 (40960)
I0930 15:51:22.107028 32668 net.cpp:194] Memory required for data: 108257400
I0930 15:51:22.107031 32668 layer_factory.hpp:77] Creating layer conv4_4_0
I0930 15:51:22.107043 32668 net.cpp:128] Creating Layer conv4_4_0
I0930 15:51:22.107048 32668 net.cpp:558] conv4_4_0 <- conv4_Eltwise_3_conv4_3ReLU_1_0_split_0
I0930 15:51:22.107059 32668 net.cpp:522] conv4_4_0 -> conv4_4_0
I0930 15:51:22.109583 32668 net.cpp:172] Setting up conv4_4_0
I0930 15:51:22.109601 32668 net.cpp:186] Top shape: 10 64 8 8 (40960)
I0930 15:51:22.109606 32668 net.cpp:194] Memory required for data: 108421240
I0930 15:51:22.109616 32668 layer_factory.hpp:77] Creating layer conv4_4_bn0
I0930 15:51:22.109627 32668 net.cpp:128] Creating Layer conv4_4_bn0
I0930 15:51:22.109632 32668 net.cpp:558] conv4_4_bn0 <- conv4_4_0
I0930 15:51:22.109640 32668 net.cpp:509] conv4_4_bn0 -> conv4_4_0 (in-place)
I0930 15:51:22.109889 32668 net.cpp:172] Setting up conv4_4_bn0
I0930 15:51:22.109897 32668 net.cpp:186] Top shape: 10 64 8 8 (40960)
I0930 15:51:22.109900 32668 net.cpp:194] Memory required for data: 108585080
I0930 15:51:22.109910 32668 layer_factory.hpp:77] Creating layer conv4_4_scale0
I0930 15:51:22.109917 32668 net.cpp:128] Creating Layer conv4_4_scale0
I0930 15:51:22.109921 32668 net.cpp:558] conv4_4_scale0 <- conv4_4_0
I0930 15:51:22.109937 32668 net.cpp:509] conv4_4_scale0 -> conv4_4_0 (in-place)
I0930 15:51:22.109982 32668 layer_factory.hpp:77] Creating layer conv4_4_scale0
I0930 15:51:22.110121 32668 net.cpp:172] Setting up conv4_4_scale0
I0930 15:51:22.110128 32668 net.cpp:186] Top shape: 10 64 8 8 (40960)
I0930 15:51:22.110131 32668 net.cpp:194] Memory required for data: 108748920
I0930 15:51:22.110139 32668 layer_factory.hpp:77] Creating layer conv4_4_ReLU0
I0930 15:51:22.110146 32668 net.cpp:128] Creating Layer conv4_4_ReLU0
I0930 15:51:22.110150 32668 net.cpp:558] conv4_4_ReLU0 <- conv4_4_0
I0930 15:51:22.110157 32668 net.cpp:509] conv4_4_ReLU0 -> conv4_4_0 (in-place)
I0930 15:51:22.110441 32668 net.cpp:172] Setting up conv4_4_ReLU0
I0930 15:51:22.110453 32668 net.cpp:186] Top shape: 10 64 8 8 (40960)
I0930 15:51:22.110457 32668 net.cpp:194] Memory required for data: 108912760
I0930 15:51:22.110461 32668 layer_factory.hpp:77] Creating layer conv4_4_1
I0930 15:51:22.110474 32668 net.cpp:128] Creating Layer conv4_4_1
I0930 15:51:22.110479 32668 net.cpp:558] conv4_4_1 <- conv4_4_0
I0930 15:51:22.110489 32668 net.cpp:522] conv4_4_1 -> conv4_4_1
I0930 15:51:22.113878 32668 net.cpp:172] Setting up conv4_4_1
I0930 15:51:22.113898 32668 net.cpp:186] Top shape: 10 64 8 8 (40960)
I0930 15:51:22.113903 32668 net.cpp:194] Memory required for data: 109076600
I0930 15:51:22.113912 32668 layer_factory.hpp:77] Creating layer conv4_4bn1
I0930 15:51:22.113924 32668 net.cpp:128] Creating Layer conv4_4bn1
I0930 15:51:22.113950 32668 net.cpp:558] conv4_4bn1 <- conv4_4_1
I0930 15:51:22.113962 32668 net.cpp:509] conv4_4bn1 -> conv4_4_1 (in-place)
I0930 15:51:22.114219 32668 net.cpp:172] Setting up conv4_4bn1
I0930 15:51:22.114228 32668 net.cpp:186] Top shape: 10 64 8 8 (40960)
I0930 15:51:22.114230 32668 net.cpp:194] Memory required for data: 109240440
I0930 15:51:22.114262 32668 layer_factory.hpp:77] Creating layer conv4_4_scale1
I0930 15:51:22.114271 32668 net.cpp:128] Creating Layer conv4_4_scale1
I0930 15:51:22.114276 32668 net.cpp:558] conv4_4_scale1 <- conv4_4_1
I0930 15:51:22.114284 32668 net.cpp:509] conv4_4_scale1 -> conv4_4_1 (in-place)
I0930 15:51:22.114336 32668 layer_factory.hpp:77] Creating layer conv4_4_scale1
I0930 15:51:22.114480 32668 net.cpp:172] Setting up conv4_4_scale1
I0930 15:51:22.114487 32668 net.cpp:186] Top shape: 10 64 8 8 (40960)
I0930 15:51:22.114491 32668 net.cpp:194] Memory required for data: 109404280
I0930 15:51:22.114500 32668 layer_factory.hpp:77] Creating layer conv4_Eltwise_4
I0930 15:51:22.114507 32668 net.cpp:128] Creating Layer conv4_Eltwise_4
I0930 15:51:22.114512 32668 net.cpp:558] conv4_Eltwise_4 <- conv4_Eltwise_3_conv4_3ReLU_1_0_split_1
I0930 15:51:22.114518 32668 net.cpp:558] conv4_Eltwise_4 <- conv4_4_1
I0930 15:51:22.114527 32668 net.cpp:522] conv4_Eltwise_4 -> conv4_Eltwise_4
I0930 15:51:22.114555 32668 net.cpp:172] Setting up conv4_Eltwise_4
I0930 15:51:22.114562 32668 net.cpp:186] Top shape: 10 64 8 8 (40960)
I0930 15:51:22.114567 32668 net.cpp:194] Memory required for data: 109568120
I0930 15:51:22.114570 32668 layer_factory.hpp:77] Creating layer conv4_4ReLU_1
I0930 15:51:22.114576 32668 net.cpp:128] Creating Layer conv4_4ReLU_1
I0930 15:51:22.114580 32668 net.cpp:558] conv4_4ReLU_1 <- conv4_Eltwise_4
I0930 15:51:22.114589 32668 net.cpp:509] conv4_4ReLU_1 -> conv4_Eltwise_4 (in-place)
I0930 15:51:22.114873 32668 net.cpp:172] Setting up conv4_4ReLU_1
I0930 15:51:22.114884 32668 net.cpp:186] Top shape: 10 64 8 8 (40960)
I0930 15:51:22.114888 32668 net.cpp:194] Memory required for data: 109731960
I0930 15:51:22.114893 32668 layer_factory.hpp:77] Creating layer conv4_Eltwise_4_conv4_4ReLU_1_0_split
I0930 15:51:22.114902 32668 net.cpp:128] Creating Layer conv4_Eltwise_4_conv4_4ReLU_1_0_split
I0930 15:51:22.114907 32668 net.cpp:558] conv4_Eltwise_4_conv4_4ReLU_1_0_split <- conv4_Eltwise_4
I0930 15:51:22.114917 32668 net.cpp:522] conv4_Eltwise_4_conv4_4ReLU_1_0_split -> conv4_Eltwise_4_conv4_4ReLU_1_0_split_0
I0930 15:51:22.114925 32668 net.cpp:522] conv4_Eltwise_4_conv4_4ReLU_1_0_split -> conv4_Eltwise_4_conv4_4ReLU_1_0_split_1
I0930 15:51:22.114979 32668 net.cpp:172] Setting up conv4_Eltwise_4_conv4_4ReLU_1_0_split
I0930 15:51:22.114985 32668 net.cpp:186] Top shape: 10 64 8 8 (40960)
I0930 15:51:22.114990 32668 net.cpp:186] Top shape: 10 64 8 8 (40960)
I0930 15:51:22.114995 32668 net.cpp:194] Memory required for data: 110059640
I0930 15:51:22.114998 32668 layer_factory.hpp:77] Creating layer conv4_5_0
I0930 15:51:22.115011 32668 net.cpp:128] Creating Layer conv4_5_0
I0930 15:51:22.115016 32668 net.cpp:558] conv4_5_0 <- conv4_Eltwise_4_conv4_4ReLU_1_0_split_0
I0930 15:51:22.115025 32668 net.cpp:522] conv4_5_0 -> conv4_5_0
I0930 15:51:22.117252 32668 net.cpp:172] Setting up conv4_5_0
I0930 15:51:22.117270 32668 net.cpp:186] Top shape: 10 64 8 8 (40960)
I0930 15:51:22.117274 32668 net.cpp:194] Memory required for data: 110223480
I0930 15:51:22.117285 32668 layer_factory.hpp:77] Creating layer conv4_5_bn0
I0930 15:51:22.117295 32668 net.cpp:128] Creating Layer conv4_5_bn0
I0930 15:51:22.117300 32668 net.cpp:558] conv4_5_bn0 <- conv4_5_0
I0930 15:51:22.117306 32668 net.cpp:509] conv4_5_bn0 -> conv4_5_0 (in-place)
I0930 15:51:22.117568 32668 net.cpp:172] Setting up conv4_5_bn0
I0930 15:51:22.117574 32668 net.cpp:186] Top shape: 10 64 8 8 (40960)
I0930 15:51:22.117578 32668 net.cpp:194] Memory required for data: 110387320
I0930 15:51:22.117588 32668 layer_factory.hpp:77] Creating layer conv4_5_scale0
I0930 15:51:22.117597 32668 net.cpp:128] Creating Layer conv4_5_scale0
I0930 15:51:22.117601 32668 net.cpp:558] conv4_5_scale0 <- conv4_5_0
I0930 15:51:22.117607 32668 net.cpp:509] conv4_5_scale0 -> conv4_5_0 (in-place)
I0930 15:51:22.117653 32668 layer_factory.hpp:77] Creating layer conv4_5_scale0
I0930 15:51:22.117796 32668 net.cpp:172] Setting up conv4_5_scale0
I0930 15:51:22.117817 32668 net.cpp:186] Top shape: 10 64 8 8 (40960)
I0930 15:51:22.117823 32668 net.cpp:194] Memory required for data: 110551160
I0930 15:51:22.117831 32668 layer_factory.hpp:77] Creating layer conv4_5_ReLU0
I0930 15:51:22.117841 32668 net.cpp:128] Creating Layer conv4_5_ReLU0
I0930 15:51:22.117844 32668 net.cpp:558] conv4_5_ReLU0 <- conv4_5_0
I0930 15:51:22.117852 32668 net.cpp:509] conv4_5_ReLU0 -> conv4_5_0 (in-place)
I0930 15:51:22.118417 32668 net.cpp:172] Setting up conv4_5_ReLU0
I0930 15:51:22.118436 32668 net.cpp:186] Top shape: 10 64 8 8 (40960)
I0930 15:51:22.118441 32668 net.cpp:194] Memory required for data: 110715000
I0930 15:51:22.118446 32668 layer_factory.hpp:77] Creating layer conv4_5_1
I0930 15:51:22.118459 32668 net.cpp:128] Creating Layer conv4_5_1
I0930 15:51:22.118465 32668 net.cpp:558] conv4_5_1 <- conv4_5_0
I0930 15:51:22.118475 32668 net.cpp:522] conv4_5_1 -> conv4_5_1
I0930 15:51:22.120759 32668 net.cpp:172] Setting up conv4_5_1
I0930 15:51:22.120777 32668 net.cpp:186] Top shape: 10 64 8 8 (40960)
I0930 15:51:22.120781 32668 net.cpp:194] Memory required for data: 110878840
I0930 15:51:22.120791 32668 layer_factory.hpp:77] Creating layer conv4_5bn1
I0930 15:51:22.120800 32668 net.cpp:128] Creating Layer conv4_5bn1
I0930 15:51:22.120805 32668 net.cpp:558] conv4_5bn1 <- conv4_5_1
I0930 15:51:22.120811 32668 net.cpp:509] conv4_5bn1 -> conv4_5_1 (in-place)
I0930 15:51:22.121048 32668 net.cpp:172] Setting up conv4_5bn1
I0930 15:51:22.121055 32668 net.cpp:186] Top shape: 10 64 8 8 (40960)
I0930 15:51:22.121059 32668 net.cpp:194] Memory required for data: 111042680
I0930 15:51:22.121071 32668 layer_factory.hpp:77] Creating layer conv4_5_scale1
I0930 15:51:22.121078 32668 net.cpp:128] Creating Layer conv4_5_scale1
I0930 15:51:22.121083 32668 net.cpp:558] conv4_5_scale1 <- conv4_5_1
I0930 15:51:22.121088 32668 net.cpp:509] conv4_5_scale1 -> conv4_5_1 (in-place)
I0930 15:51:22.121134 32668 layer_factory.hpp:77] Creating layer conv4_5_scale1
I0930 15:51:22.121274 32668 net.cpp:172] Setting up conv4_5_scale1
I0930 15:51:22.121282 32668 net.cpp:186] Top shape: 10 64 8 8 (40960)
I0930 15:51:22.121285 32668 net.cpp:194] Memory required for data: 111206520
I0930 15:51:22.121294 32668 layer_factory.hpp:77] Creating layer conv4_Eltwise_5
I0930 15:51:22.121302 32668 net.cpp:128] Creating Layer conv4_Eltwise_5
I0930 15:51:22.121307 32668 net.cpp:558] conv4_Eltwise_5 <- conv4_Eltwise_4_conv4_4ReLU_1_0_split_1
I0930 15:51:22.121312 32668 net.cpp:558] conv4_Eltwise_5 <- conv4_5_1
I0930 15:51:22.121318 32668 net.cpp:522] conv4_Eltwise_5 -> conv4_Eltwise_5
I0930 15:51:22.121345 32668 net.cpp:172] Setting up conv4_Eltwise_5
I0930 15:51:22.121352 32668 net.cpp:186] Top shape: 10 64 8 8 (40960)
I0930 15:51:22.121356 32668 net.cpp:194] Memory required for data: 111370360
I0930 15:51:22.121359 32668 layer_factory.hpp:77] Creating layer conv4_5ReLU_1
I0930 15:51:22.121366 32668 net.cpp:128] Creating Layer conv4_5ReLU_1
I0930 15:51:22.121371 32668 net.cpp:558] conv4_5ReLU_1 <- conv4_Eltwise_5
I0930 15:51:22.121378 32668 net.cpp:509] conv4_5ReLU_1 -> conv4_Eltwise_5 (in-place)
I0930 15:51:22.121657 32668 net.cpp:172] Setting up conv4_5ReLU_1
I0930 15:51:22.121670 32668 net.cpp:186] Top shape: 10 64 8 8 (40960)
I0930 15:51:22.121673 32668 net.cpp:194] Memory required for data: 111534200
I0930 15:51:22.121677 32668 layer_factory.hpp:77] Creating layer conv4_Eltwise_5_conv4_5ReLU_1_0_split
I0930 15:51:22.121685 32668 net.cpp:128] Creating Layer conv4_Eltwise_5_conv4_5ReLU_1_0_split
I0930 15:51:22.121690 32668 net.cpp:558] conv4_Eltwise_5_conv4_5ReLU_1_0_split <- conv4_Eltwise_5
I0930 15:51:22.121698 32668 net.cpp:522] conv4_Eltwise_5_conv4_5ReLU_1_0_split -> conv4_Eltwise_5_conv4_5ReLU_1_0_split_0
I0930 15:51:22.121707 32668 net.cpp:522] conv4_Eltwise_5_conv4_5ReLU_1_0_split -> conv4_Eltwise_5_conv4_5ReLU_1_0_split_1
I0930 15:51:22.121757 32668 net.cpp:172] Setting up conv4_Eltwise_5_conv4_5ReLU_1_0_split
I0930 15:51:22.121763 32668 net.cpp:186] Top shape: 10 64 8 8 (40960)
I0930 15:51:22.121769 32668 net.cpp:186] Top shape: 10 64 8 8 (40960)
I0930 15:51:22.121789 32668 net.cpp:194] Memory required for data: 111861880
I0930 15:51:22.121794 32668 layer_factory.hpp:77] Creating layer conv4_6_0
I0930 15:51:22.121806 32668 net.cpp:128] Creating Layer conv4_6_0
I0930 15:51:22.121811 32668 net.cpp:558] conv4_6_0 <- conv4_Eltwise_5_conv4_5ReLU_1_0_split_0
I0930 15:51:22.121821 32668 net.cpp:522] conv4_6_0 -> conv4_6_0
I0930 15:51:22.124099 32668 net.cpp:172] Setting up conv4_6_0
I0930 15:51:22.124117 32668 net.cpp:186] Top shape: 10 64 8 8 (40960)
I0930 15:51:22.124121 32668 net.cpp:194] Memory required for data: 112025720
I0930 15:51:22.124131 32668 layer_factory.hpp:77] Creating layer conv4_6_bn0
I0930 15:51:22.124145 32668 net.cpp:128] Creating Layer conv4_6_bn0
I0930 15:51:22.124150 32668 net.cpp:558] conv4_6_bn0 <- conv4_6_0
I0930 15:51:22.124159 32668 net.cpp:509] conv4_6_bn0 -> conv4_6_0 (in-place)
I0930 15:51:22.124411 32668 net.cpp:172] Setting up conv4_6_bn0
I0930 15:51:22.124418 32668 net.cpp:186] Top shape: 10 64 8 8 (40960)
I0930 15:51:22.124423 32668 net.cpp:194] Memory required for data: 112189560
I0930 15:51:22.124433 32668 layer_factory.hpp:77] Creating layer conv4_6_scale0
I0930 15:51:22.124440 32668 net.cpp:128] Creating Layer conv4_6_scale0
I0930 15:51:22.124445 32668 net.cpp:558] conv4_6_scale0 <- conv4_6_0
I0930 15:51:22.124450 32668 net.cpp:509] conv4_6_scale0 -> conv4_6_0 (in-place)
I0930 15:51:22.124496 32668 layer_factory.hpp:77] Creating layer conv4_6_scale0
I0930 15:51:22.124639 32668 net.cpp:172] Setting up conv4_6_scale0
I0930 15:51:22.124646 32668 net.cpp:186] Top shape: 10 64 8 8 (40960)
I0930 15:51:22.124650 32668 net.cpp:194] Memory required for data: 112353400
I0930 15:51:22.124657 32668 layer_factory.hpp:77] Creating layer conv4_6_ReLU0
I0930 15:51:22.124663 32668 net.cpp:128] Creating Layer conv4_6_ReLU0
I0930 15:51:22.124668 32668 net.cpp:558] conv4_6_ReLU0 <- conv4_6_0
I0930 15:51:22.124675 32668 net.cpp:509] conv4_6_ReLU0 -> conv4_6_0 (in-place)
I0930 15:51:22.124959 32668 net.cpp:172] Setting up conv4_6_ReLU0
I0930 15:51:22.124970 32668 net.cpp:186] Top shape: 10 64 8 8 (40960)
I0930 15:51:22.124974 32668 net.cpp:194] Memory required for data: 112517240
I0930 15:51:22.124979 32668 layer_factory.hpp:77] Creating layer conv4_6_1
I0930 15:51:22.124991 32668 net.cpp:128] Creating Layer conv4_6_1
I0930 15:51:22.124997 32668 net.cpp:558] conv4_6_1 <- conv4_6_0
I0930 15:51:22.125006 32668 net.cpp:522] conv4_6_1 -> conv4_6_1
I0930 15:51:22.127065 32668 net.cpp:172] Setting up conv4_6_1
I0930 15:51:22.127084 32668 net.cpp:186] Top shape: 10 64 8 8 (40960)
I0930 15:51:22.127089 32668 net.cpp:194] Memory required for data: 112681080
I0930 15:51:22.127099 32668 layer_factory.hpp:77] Creating layer conv4_6bn1
I0930 15:51:22.127108 32668 net.cpp:128] Creating Layer conv4_6bn1
I0930 15:51:22.127113 32668 net.cpp:558] conv4_6bn1 <- conv4_6_1
I0930 15:51:22.127120 32668 net.cpp:509] conv4_6bn1 -> conv4_6_1 (in-place)
I0930 15:51:22.127367 32668 net.cpp:172] Setting up conv4_6bn1
I0930 15:51:22.127374 32668 net.cpp:186] Top shape: 10 64 8 8 (40960)
I0930 15:51:22.127378 32668 net.cpp:194] Memory required for data: 112844920
I0930 15:51:22.127388 32668 layer_factory.hpp:77] Creating layer conv4_6_scale1
I0930 15:51:22.127395 32668 net.cpp:128] Creating Layer conv4_6_scale1
I0930 15:51:22.127399 32668 net.cpp:558] conv4_6_scale1 <- conv4_6_1
I0930 15:51:22.127404 32668 net.cpp:509] conv4_6_scale1 -> conv4_6_1 (in-place)
I0930 15:51:22.127454 32668 layer_factory.hpp:77] Creating layer conv4_6_scale1
I0930 15:51:22.127593 32668 net.cpp:172] Setting up conv4_6_scale1
I0930 15:51:22.127602 32668 net.cpp:186] Top shape: 10 64 8 8 (40960)
I0930 15:51:22.127606 32668 net.cpp:194] Memory required for data: 113008760
I0930 15:51:22.127614 32668 layer_factory.hpp:77] Creating layer conv4_Eltwise_6
I0930 15:51:22.127620 32668 net.cpp:128] Creating Layer conv4_Eltwise_6
I0930 15:51:22.127625 32668 net.cpp:558] conv4_Eltwise_6 <- conv4_Eltwise_5_conv4_5ReLU_1_0_split_1
I0930 15:51:22.127630 32668 net.cpp:558] conv4_Eltwise_6 <- conv4_6_1
I0930 15:51:22.127653 32668 net.cpp:522] conv4_Eltwise_6 -> conv4_Eltwise_6
I0930 15:51:22.127681 32668 net.cpp:172] Setting up conv4_Eltwise_6
I0930 15:51:22.127689 32668 net.cpp:186] Top shape: 10 64 8 8 (40960)
I0930 15:51:22.127693 32668 net.cpp:194] Memory required for data: 113172600
I0930 15:51:22.127697 32668 layer_factory.hpp:77] Creating layer conv4_6ReLU_1
I0930 15:51:22.127703 32668 net.cpp:128] Creating Layer conv4_6ReLU_1
I0930 15:51:22.127708 32668 net.cpp:558] conv4_6ReLU_1 <- conv4_Eltwise_6
I0930 15:51:22.127713 32668 net.cpp:509] conv4_6ReLU_1 -> conv4_Eltwise_6 (in-place)
I0930 15:51:22.128252 32668 net.cpp:172] Setting up conv4_6ReLU_1
I0930 15:51:22.128268 32668 net.cpp:186] Top shape: 10 64 8 8 (40960)
I0930 15:51:22.128273 32668 net.cpp:194] Memory required for data: 113336440
I0930 15:51:22.128278 32668 layer_factory.hpp:77] Creating layer conv4_Eltwise_6_conv4_6ReLU_1_0_split
I0930 15:51:22.128288 32668 net.cpp:128] Creating Layer conv4_Eltwise_6_conv4_6ReLU_1_0_split
I0930 15:51:22.128293 32668 net.cpp:558] conv4_Eltwise_6_conv4_6ReLU_1_0_split <- conv4_Eltwise_6
I0930 15:51:22.128300 32668 net.cpp:522] conv4_Eltwise_6_conv4_6ReLU_1_0_split -> conv4_Eltwise_6_conv4_6ReLU_1_0_split_0
I0930 15:51:22.128311 32668 net.cpp:522] conv4_Eltwise_6_conv4_6ReLU_1_0_split -> conv4_Eltwise_6_conv4_6ReLU_1_0_split_1
I0930 15:51:22.128374 32668 net.cpp:172] Setting up conv4_Eltwise_6_conv4_6ReLU_1_0_split
I0930 15:51:22.128381 32668 net.cpp:186] Top shape: 10 64 8 8 (40960)
I0930 15:51:22.128388 32668 net.cpp:186] Top shape: 10 64 8 8 (40960)
I0930 15:51:22.128392 32668 net.cpp:194] Memory required for data: 113664120
I0930 15:51:22.128396 32668 layer_factory.hpp:77] Creating layer conv4_7_0
I0930 15:51:22.128407 32668 net.cpp:128] Creating Layer conv4_7_0
I0930 15:51:22.128412 32668 net.cpp:558] conv4_7_0 <- conv4_Eltwise_6_conv4_6ReLU_1_0_split_0
I0930 15:51:22.128418 32668 net.cpp:522] conv4_7_0 -> conv4_7_0
I0930 15:51:22.130717 32668 net.cpp:172] Setting up conv4_7_0
I0930 15:51:22.130738 32668 net.cpp:186] Top shape: 10 64 8 8 (40960)
I0930 15:51:22.130743 32668 net.cpp:194] Memory required for data: 113827960
I0930 15:51:22.130753 32668 layer_factory.hpp:77] Creating layer conv4_7_bn0
I0930 15:51:22.130760 32668 net.cpp:128] Creating Layer conv4_7_bn0
I0930 15:51:22.130766 32668 net.cpp:558] conv4_7_bn0 <- conv4_7_0
I0930 15:51:22.130775 32668 net.cpp:509] conv4_7_bn0 -> conv4_7_0 (in-place)
I0930 15:51:22.131034 32668 net.cpp:172] Setting up conv4_7_bn0
I0930 15:51:22.131042 32668 net.cpp:186] Top shape: 10 64 8 8 (40960)
I0930 15:51:22.131045 32668 net.cpp:194] Memory required for data: 113991800
I0930 15:51:22.131055 32668 layer_factory.hpp:77] Creating layer conv4_7_scale0
I0930 15:51:22.131062 32668 net.cpp:128] Creating Layer conv4_7_scale0
I0930 15:51:22.131067 32668 net.cpp:558] conv4_7_scale0 <- conv4_7_0
I0930 15:51:22.131073 32668 net.cpp:509] conv4_7_scale0 -> conv4_7_0 (in-place)
I0930 15:51:22.131120 32668 layer_factory.hpp:77] Creating layer conv4_7_scale0
I0930 15:51:22.131261 32668 net.cpp:172] Setting up conv4_7_scale0
I0930 15:51:22.131268 32668 net.cpp:186] Top shape: 10 64 8 8 (40960)
I0930 15:51:22.131273 32668 net.cpp:194] Memory required for data: 114155640
I0930 15:51:22.131280 32668 layer_factory.hpp:77] Creating layer conv4_7_ReLU0
I0930 15:51:22.131297 32668 net.cpp:128] Creating Layer conv4_7_ReLU0
I0930 15:51:22.131302 32668 net.cpp:558] conv4_7_ReLU0 <- conv4_7_0
I0930 15:51:22.131309 32668 net.cpp:509] conv4_7_ReLU0 -> conv4_7_0 (in-place)
I0930 15:51:22.131597 32668 net.cpp:172] Setting up conv4_7_ReLU0
I0930 15:51:22.131608 32668 net.cpp:186] Top shape: 10 64 8 8 (40960)
I0930 15:51:22.131611 32668 net.cpp:194] Memory required for data: 114319480
I0930 15:51:22.131616 32668 layer_factory.hpp:77] Creating layer conv4_7_1
I0930 15:51:22.131630 32668 net.cpp:128] Creating Layer conv4_7_1
I0930 15:51:22.131635 32668 net.cpp:558] conv4_7_1 <- conv4_7_0
I0930 15:51:22.131644 32668 net.cpp:522] conv4_7_1 -> conv4_7_1
I0930 15:51:22.133702 32668 net.cpp:172] Setting up conv4_7_1
I0930 15:51:22.133735 32668 net.cpp:186] Top shape: 10 64 8 8 (40960)
I0930 15:51:22.133740 32668 net.cpp:194] Memory required for data: 114483320
I0930 15:51:22.133750 32668 layer_factory.hpp:77] Creating layer conv4_7bn1
I0930 15:51:22.133761 32668 net.cpp:128] Creating Layer conv4_7bn1
I0930 15:51:22.133767 32668 net.cpp:558] conv4_7bn1 <- conv4_7_1
I0930 15:51:22.133775 32668 net.cpp:509] conv4_7bn1 -> conv4_7_1 (in-place)
I0930 15:51:22.134054 32668 net.cpp:172] Setting up conv4_7bn1
I0930 15:51:22.134063 32668 net.cpp:186] Top shape: 10 64 8 8 (40960)
I0930 15:51:22.134066 32668 net.cpp:194] Memory required for data: 114647160
I0930 15:51:22.134076 32668 layer_factory.hpp:77] Creating layer conv4_7_scale1
I0930 15:51:22.134083 32668 net.cpp:128] Creating Layer conv4_7_scale1
I0930 15:51:22.134088 32668 net.cpp:558] conv4_7_scale1 <- conv4_7_1
I0930 15:51:22.134093 32668 net.cpp:509] conv4_7_scale1 -> conv4_7_1 (in-place)
I0930 15:51:22.134141 32668 layer_factory.hpp:77] Creating layer conv4_7_scale1
I0930 15:51:22.134280 32668 net.cpp:172] Setting up conv4_7_scale1
I0930 15:51:22.134289 32668 net.cpp:186] Top shape: 10 64 8 8 (40960)
I0930 15:51:22.134291 32668 net.cpp:194] Memory required for data: 114811000
I0930 15:51:22.134299 32668 layer_factory.hpp:77] Creating layer conv4_Eltwise_7
I0930 15:51:22.134308 32668 net.cpp:128] Creating Layer conv4_Eltwise_7
I0930 15:51:22.134313 32668 net.cpp:558] conv4_Eltwise_7 <- conv4_Eltwise_6_conv4_6ReLU_1_0_split_1
I0930 15:51:22.134318 32668 net.cpp:558] conv4_Eltwise_7 <- conv4_7_1
I0930 15:51:22.134325 32668 net.cpp:522] conv4_Eltwise_7 -> conv4_Eltwise_7
I0930 15:51:22.134351 32668 net.cpp:172] Setting up conv4_Eltwise_7
I0930 15:51:22.134358 32668 net.cpp:186] Top shape: 10 64 8 8 (40960)
I0930 15:51:22.134361 32668 net.cpp:194] Memory required for data: 114974840
I0930 15:51:22.134366 32668 layer_factory.hpp:77] Creating layer conv4_7ReLU_1
I0930 15:51:22.134371 32668 net.cpp:128] Creating Layer conv4_7ReLU_1
I0930 15:51:22.134377 32668 net.cpp:558] conv4_7ReLU_1 <- conv4_Eltwise_7
I0930 15:51:22.134382 32668 net.cpp:509] conv4_7ReLU_1 -> conv4_Eltwise_7 (in-place)
I0930 15:51:22.134675 32668 net.cpp:172] Setting up conv4_7ReLU_1
I0930 15:51:22.134686 32668 net.cpp:186] Top shape: 10 64 8 8 (40960)
I0930 15:51:22.134690 32668 net.cpp:194] Memory required for data: 115138680
I0930 15:51:22.134696 32668 layer_factory.hpp:77] Creating layer conv4_Eltwise_7_conv4_7ReLU_1_0_split
I0930 15:51:22.134702 32668 net.cpp:128] Creating Layer conv4_Eltwise_7_conv4_7ReLU_1_0_split
I0930 15:51:22.134707 32668 net.cpp:558] conv4_Eltwise_7_conv4_7ReLU_1_0_split <- conv4_Eltwise_7
I0930 15:51:22.134716 32668 net.cpp:522] conv4_Eltwise_7_conv4_7ReLU_1_0_split -> conv4_Eltwise_7_conv4_7ReLU_1_0_split_0
I0930 15:51:22.134724 32668 net.cpp:522] conv4_Eltwise_7_conv4_7ReLU_1_0_split -> conv4_Eltwise_7_conv4_7ReLU_1_0_split_1
I0930 15:51:22.134774 32668 net.cpp:172] Setting up conv4_Eltwise_7_conv4_7ReLU_1_0_split
I0930 15:51:22.134781 32668 net.cpp:186] Top shape: 10 64 8 8 (40960)
I0930 15:51:22.134788 32668 net.cpp:186] Top shape: 10 64 8 8 (40960)
I0930 15:51:22.134791 32668 net.cpp:194] Memory required for data: 115466360
I0930 15:51:22.134795 32668 layer_factory.hpp:77] Creating layer conv4_8_0
I0930 15:51:22.134806 32668 net.cpp:128] Creating Layer conv4_8_0
I0930 15:51:22.134811 32668 net.cpp:558] conv4_8_0 <- conv4_Eltwise_7_conv4_7ReLU_1_0_split_0
I0930 15:51:22.134820 32668 net.cpp:522] conv4_8_0 -> conv4_8_0
I0930 15:51:22.139658 32668 net.cpp:172] Setting up conv4_8_0
I0930 15:51:22.139677 32668 net.cpp:186] Top shape: 10 64 8 8 (40960)
I0930 15:51:22.139680 32668 net.cpp:194] Memory required for data: 115630200
I0930 15:51:22.139690 32668 layer_factory.hpp:77] Creating layer conv4_8_bn0
I0930 15:51:22.139701 32668 net.cpp:128] Creating Layer conv4_8_bn0
I0930 15:51:22.139706 32668 net.cpp:558] conv4_8_bn0 <- conv4_8_0
I0930 15:51:22.139714 32668 net.cpp:509] conv4_8_bn0 -> conv4_8_0 (in-place)
I0930 15:51:22.140069 32668 net.cpp:172] Setting up conv4_8_bn0
I0930 15:51:22.140076 32668 net.cpp:186] Top shape: 10 64 8 8 (40960)
I0930 15:51:22.140095 32668 net.cpp:194] Memory required for data: 115794040
I0930 15:51:22.140107 32668 layer_factory.hpp:77] Creating layer conv4_8_scale0
I0930 15:51:22.140115 32668 net.cpp:128] Creating Layer conv4_8_scale0
I0930 15:51:22.140120 32668 net.cpp:558] conv4_8_scale0 <- conv4_8_0
I0930 15:51:22.140125 32668 net.cpp:509] conv4_8_scale0 -> conv4_8_0 (in-place)
I0930 15:51:22.140177 32668 layer_factory.hpp:77] Creating layer conv4_8_scale0
I0930 15:51:22.140321 32668 net.cpp:172] Setting up conv4_8_scale0
I0930 15:51:22.140329 32668 net.cpp:186] Top shape: 10 64 8 8 (40960)
I0930 15:51:22.140333 32668 net.cpp:194] Memory required for data: 115957880
I0930 15:51:22.140341 32668 layer_factory.hpp:77] Creating layer conv4_8_ReLU0
I0930 15:51:22.140347 32668 net.cpp:128] Creating Layer conv4_8_ReLU0
I0930 15:51:22.140352 32668 net.cpp:558] conv4_8_ReLU0 <- conv4_8_0
I0930 15:51:22.140358 32668 net.cpp:509] conv4_8_ReLU0 -> conv4_8_0 (in-place)
I0930 15:51:22.141461 32668 net.cpp:172] Setting up conv4_8_ReLU0
I0930 15:51:22.141472 32668 net.cpp:186] Top shape: 10 64 8 8 (40960)
I0930 15:51:22.141476 32668 net.cpp:194] Memory required for data: 116121720
I0930 15:51:22.141481 32668 layer_factory.hpp:77] Creating layer conv4_8_1
I0930 15:51:22.141494 32668 net.cpp:128] Creating Layer conv4_8_1
I0930 15:51:22.141499 32668 net.cpp:558] conv4_8_1 <- conv4_8_0
I0930 15:51:22.141508 32668 net.cpp:522] conv4_8_1 -> conv4_8_1
I0930 15:51:22.143560 32668 net.cpp:172] Setting up conv4_8_1
I0930 15:51:22.143580 32668 net.cpp:186] Top shape: 10 64 8 8 (40960)
I0930 15:51:22.143584 32668 net.cpp:194] Memory required for data: 116285560
I0930 15:51:22.143594 32668 layer_factory.hpp:77] Creating layer conv4_8bn1
I0930 15:51:22.143602 32668 net.cpp:128] Creating Layer conv4_8bn1
I0930 15:51:22.143607 32668 net.cpp:558] conv4_8bn1 <- conv4_8_1
I0930 15:51:22.143616 32668 net.cpp:509] conv4_8bn1 -> conv4_8_1 (in-place)
I0930 15:51:22.143867 32668 net.cpp:172] Setting up conv4_8bn1
I0930 15:51:22.143874 32668 net.cpp:186] Top shape: 10 64 8 8 (40960)
I0930 15:51:22.143878 32668 net.cpp:194] Memory required for data: 116449400
I0930 15:51:22.143888 32668 layer_factory.hpp:77] Creating layer conv4_8_scale1
I0930 15:51:22.143894 32668 net.cpp:128] Creating Layer conv4_8_scale1
I0930 15:51:22.143898 32668 net.cpp:558] conv4_8_scale1 <- conv4_8_1
I0930 15:51:22.143906 32668 net.cpp:509] conv4_8_scale1 -> conv4_8_1 (in-place)
I0930 15:51:22.143951 32668 layer_factory.hpp:77] Creating layer conv4_8_scale1
I0930 15:51:22.144098 32668 net.cpp:172] Setting up conv4_8_scale1
I0930 15:51:22.144106 32668 net.cpp:186] Top shape: 10 64 8 8 (40960)
I0930 15:51:22.144109 32668 net.cpp:194] Memory required for data: 116613240
I0930 15:51:22.144117 32668 layer_factory.hpp:77] Creating layer conv4_Eltwise_8
I0930 15:51:22.144127 32668 net.cpp:128] Creating Layer conv4_Eltwise_8
I0930 15:51:22.144132 32668 net.cpp:558] conv4_Eltwise_8 <- conv4_Eltwise_7_conv4_7ReLU_1_0_split_1
I0930 15:51:22.144137 32668 net.cpp:558] conv4_Eltwise_8 <- conv4_8_1
I0930 15:51:22.144143 32668 net.cpp:522] conv4_Eltwise_8 -> conv4_Eltwise_8
I0930 15:51:22.144171 32668 net.cpp:172] Setting up conv4_Eltwise_8
I0930 15:51:22.144177 32668 net.cpp:186] Top shape: 10 64 8 8 (40960)
I0930 15:51:22.144181 32668 net.cpp:194] Memory required for data: 116777080
I0930 15:51:22.144186 32668 layer_factory.hpp:77] Creating layer conv4_8ReLU_1
I0930 15:51:22.144191 32668 net.cpp:128] Creating Layer conv4_8ReLU_1
I0930 15:51:22.144196 32668 net.cpp:558] conv4_8ReLU_1 <- conv4_Eltwise_8
I0930 15:51:22.144203 32668 net.cpp:509] conv4_8ReLU_1 -> conv4_Eltwise_8 (in-place)
I0930 15:51:22.144958 32668 net.cpp:172] Setting up conv4_8ReLU_1
I0930 15:51:22.144975 32668 net.cpp:186] Top shape: 10 64 8 8 (40960)
I0930 15:51:22.144979 32668 net.cpp:194] Memory required for data: 116940920
I0930 15:51:22.144984 32668 layer_factory.hpp:77] Creating layer conv4_Eltwise_8_conv4_8ReLU_1_0_split
I0930 15:51:22.144992 32668 net.cpp:128] Creating Layer conv4_Eltwise_8_conv4_8ReLU_1_0_split
I0930 15:51:22.145012 32668 net.cpp:558] conv4_Eltwise_8_conv4_8ReLU_1_0_split <- conv4_Eltwise_8
I0930 15:51:22.145023 32668 net.cpp:522] conv4_Eltwise_8_conv4_8ReLU_1_0_split -> conv4_Eltwise_8_conv4_8ReLU_1_0_split_0
I0930 15:51:22.145032 32668 net.cpp:522] conv4_Eltwise_8_conv4_8ReLU_1_0_split -> conv4_Eltwise_8_conv4_8ReLU_1_0_split_1
I0930 15:51:22.145088 32668 net.cpp:172] Setting up conv4_Eltwise_8_conv4_8ReLU_1_0_split
I0930 15:51:22.145095 32668 net.cpp:186] Top shape: 10 64 8 8 (40960)
I0930 15:51:22.145102 32668 net.cpp:186] Top shape: 10 64 8 8 (40960)
I0930 15:51:22.145105 32668 net.cpp:194] Memory required for data: 117268600
I0930 15:51:22.145109 32668 layer_factory.hpp:77] Creating layer conv4_9_0
I0930 15:51:22.145121 32668 net.cpp:128] Creating Layer conv4_9_0
I0930 15:51:22.145126 32668 net.cpp:558] conv4_9_0 <- conv4_Eltwise_8_conv4_8ReLU_1_0_split_0
I0930 15:51:22.145135 32668 net.cpp:522] conv4_9_0 -> conv4_9_0
I0930 15:51:22.147410 32668 net.cpp:172] Setting up conv4_9_0
I0930 15:51:22.147428 32668 net.cpp:186] Top shape: 10 64 8 8 (40960)
I0930 15:51:22.147433 32668 net.cpp:194] Memory required for data: 117432440
I0930 15:51:22.147442 32668 layer_factory.hpp:77] Creating layer conv4_9_bn0
I0930 15:51:22.147454 32668 net.cpp:128] Creating Layer conv4_9_bn0
I0930 15:51:22.147459 32668 net.cpp:558] conv4_9_bn0 <- conv4_9_0
I0930 15:51:22.147467 32668 net.cpp:509] conv4_9_bn0 -> conv4_9_0 (in-place)
I0930 15:51:22.147732 32668 net.cpp:172] Setting up conv4_9_bn0
I0930 15:51:22.147738 32668 net.cpp:186] Top shape: 10 64 8 8 (40960)
I0930 15:51:22.147742 32668 net.cpp:194] Memory required for data: 117596280
I0930 15:51:22.147752 32668 layer_factory.hpp:77] Creating layer conv4_9_scale0
I0930 15:51:22.147760 32668 net.cpp:128] Creating Layer conv4_9_scale0
I0930 15:51:22.147764 32668 net.cpp:558] conv4_9_scale0 <- conv4_9_0
I0930 15:51:22.147770 32668 net.cpp:509] conv4_9_scale0 -> conv4_9_0 (in-place)
I0930 15:51:22.147817 32668 layer_factory.hpp:77] Creating layer conv4_9_scale0
I0930 15:51:22.147966 32668 net.cpp:172] Setting up conv4_9_scale0
I0930 15:51:22.147974 32668 net.cpp:186] Top shape: 10 64 8 8 (40960)
I0930 15:51:22.147977 32668 net.cpp:194] Memory required for data: 117760120
I0930 15:51:22.147984 32668 layer_factory.hpp:77] Creating layer conv4_9_ReLU0
I0930 15:51:22.147990 32668 net.cpp:128] Creating Layer conv4_9_ReLU0
I0930 15:51:22.147995 32668 net.cpp:558] conv4_9_ReLU0 <- conv4_9_0
I0930 15:51:22.148002 32668 net.cpp:509] conv4_9_ReLU0 -> conv4_9_0 (in-place)
I0930 15:51:22.148284 32668 net.cpp:172] Setting up conv4_9_ReLU0
I0930 15:51:22.148296 32668 net.cpp:186] Top shape: 10 64 8 8 (40960)
I0930 15:51:22.148300 32668 net.cpp:194] Memory required for data: 117923960
I0930 15:51:22.148304 32668 layer_factory.hpp:77] Creating layer conv4_9_1
I0930 15:51:22.148316 32668 net.cpp:128] Creating Layer conv4_9_1
I0930 15:51:22.148321 32668 net.cpp:558] conv4_9_1 <- conv4_9_0
I0930 15:51:22.148331 32668 net.cpp:522] conv4_9_1 -> conv4_9_1
I0930 15:51:22.150414 32668 net.cpp:172] Setting up conv4_9_1
I0930 15:51:22.150431 32668 net.cpp:186] Top shape: 10 64 8 8 (40960)
I0930 15:51:22.150436 32668 net.cpp:194] Memory required for data: 118087800
I0930 15:51:22.150445 32668 layer_factory.hpp:77] Creating layer conv4_9bn1
I0930 15:51:22.150456 32668 net.cpp:128] Creating Layer conv4_9bn1
I0930 15:51:22.150461 32668 net.cpp:558] conv4_9bn1 <- conv4_9_1
I0930 15:51:22.150468 32668 net.cpp:509] conv4_9bn1 -> conv4_9_1 (in-place)
I0930 15:51:22.150723 32668 net.cpp:172] Setting up conv4_9bn1
I0930 15:51:22.150732 32668 net.cpp:186] Top shape: 10 64 8 8 (40960)
I0930 15:51:22.150734 32668 net.cpp:194] Memory required for data: 118251640
I0930 15:51:22.150744 32668 layer_factory.hpp:77] Creating layer conv4_9_scale1
I0930 15:51:22.150750 32668 net.cpp:128] Creating Layer conv4_9_scale1
I0930 15:51:22.150755 32668 net.cpp:558] conv4_9_scale1 <- conv4_9_1
I0930 15:51:22.150760 32668 net.cpp:509] conv4_9_scale1 -> conv4_9_1 (in-place)
I0930 15:51:22.150810 32668 layer_factory.hpp:77] Creating layer conv4_9_scale1
I0930 15:51:22.150972 32668 net.cpp:172] Setting up conv4_9_scale1
I0930 15:51:22.150980 32668 net.cpp:186] Top shape: 10 64 8 8 (40960)
I0930 15:51:22.150985 32668 net.cpp:194] Memory required for data: 118415480
I0930 15:51:22.150992 32668 layer_factory.hpp:77] Creating layer conv4_Eltwise_9
I0930 15:51:22.151000 32668 net.cpp:128] Creating Layer conv4_Eltwise_9
I0930 15:51:22.151003 32668 net.cpp:558] conv4_Eltwise_9 <- conv4_Eltwise_8_conv4_8ReLU_1_0_split_1
I0930 15:51:22.151008 32668 net.cpp:558] conv4_Eltwise_9 <- conv4_9_1
I0930 15:51:22.151016 32668 net.cpp:522] conv4_Eltwise_9 -> conv4_Eltwise_9
I0930 15:51:22.151042 32668 net.cpp:172] Setting up conv4_Eltwise_9
I0930 15:51:22.151051 32668 net.cpp:186] Top shape: 10 64 8 8 (40960)
I0930 15:51:22.151055 32668 net.cpp:194] Memory required for data: 118579320
I0930 15:51:22.151059 32668 layer_factory.hpp:77] Creating layer conv4_9ReLU_1
I0930 15:51:22.151065 32668 net.cpp:128] Creating Layer conv4_9ReLU_1
I0930 15:51:22.151069 32668 net.cpp:558] conv4_9ReLU_1 <- conv4_Eltwise_9
I0930 15:51:22.151075 32668 net.cpp:509] conv4_9ReLU_1 -> conv4_Eltwise_9 (in-place)
I0930 15:51:22.151371 32668 net.cpp:172] Setting up conv4_9ReLU_1
I0930 15:51:22.151384 32668 net.cpp:186] Top shape: 10 64 8 8 (40960)
I0930 15:51:22.151388 32668 net.cpp:194] Memory required for data: 118743160
I0930 15:51:22.151393 32668 layer_factory.hpp:77] Creating layer Pooling1
I0930 15:51:22.151402 32668 net.cpp:128] Creating Layer Pooling1
I0930 15:51:22.151407 32668 net.cpp:558] Pooling1 <- conv4_Eltwise_9
I0930 15:51:22.151414 32668 net.cpp:522] Pooling1 -> Pooling1
I0930 15:51:22.151996 32668 net.cpp:172] Setting up Pooling1
I0930 15:51:22.152015 32668 net.cpp:186] Top shape: 10 64 1 1 (640)
I0930 15:51:22.152019 32668 net.cpp:194] Memory required for data: 118745720
I0930 15:51:22.152024 32668 layer_factory.hpp:77] Creating layer fc1
I0930 15:51:22.152034 32668 net.cpp:128] Creating Layer fc1
I0930 15:51:22.152040 32668 net.cpp:558] fc1 <- Pooling1
I0930 15:51:22.152050 32668 net.cpp:522] fc1 -> fc1
I0930 15:51:22.152230 32668 net.cpp:172] Setting up fc1
I0930 15:51:22.152238 32668 net.cpp:186] Top shape: 10 10 (100)
I0930 15:51:22.152242 32668 net.cpp:194] Memory required for data: 118746120
I0930 15:51:22.152251 32668 layer_factory.hpp:77] Creating layer fc1_fc1_0_split
I0930 15:51:22.152261 32668 net.cpp:128] Creating Layer fc1_fc1_0_split
I0930 15:51:22.152266 32668 net.cpp:558] fc1_fc1_0_split <- fc1
I0930 15:51:22.152273 32668 net.cpp:522] fc1_fc1_0_split -> fc1_fc1_0_split_0
I0930 15:51:22.152281 32668 net.cpp:522] fc1_fc1_0_split -> fc1_fc1_0_split_1
I0930 15:51:22.152324 32668 net.cpp:172] Setting up fc1_fc1_0_split
I0930 15:51:22.152333 32668 net.cpp:186] Top shape: 10 10 (100)
I0930 15:51:22.152338 32668 net.cpp:186] Top shape: 10 10 (100)
I0930 15:51:22.152343 32668 net.cpp:194] Memory required for data: 118746920
I0930 15:51:22.152346 32668 layer_factory.hpp:77] Creating layer Softmax1
I0930 15:51:22.152354 32668 net.cpp:128] Creating Layer Softmax1
I0930 15:51:22.152357 32668 net.cpp:558] Softmax1 <- fc1_fc1_0_split_0
I0930 15:51:22.152362 32668 net.cpp:558] Softmax1 <- label_Data1_1_split_0
I0930 15:51:22.152369 32668 net.cpp:522] Softmax1 -> Softmax1
…
