…
I0927 22:04:49.612915 26253 upgrade_proto.cpp:82] Successfully upgraded batch norm layers using deprecated params.
I0927 22:04:49.615269 26253 net.cpp:82] Initializing net from parameters: 
name: "ResNet-56"
state {
  phase: TRAIN
  level: 0
  stage: ""
}
layer {
  name: "Data1"
  type: "Data"
  top: "data"
  top: "label"
  transform_param {
    scale: 0.00390625
    mirror: true
    crop_size: 32
    mean_value: 125.3
    mean_value: 122.9
    mean_value: 113.8
  }
  data_param {
    source: "/home/lijianfei/datasets/cifar10_40/train_lmdb"
    batch_size: 128
    backend: LMDB
  }
  image_data_param {
    shuffle: true
  }
}
layer {
  name: "conv1"
  type: "Convolution"
  bottom: "data"
  top: "conv1"
  param {
    lr_mult: 1
    decay_mult: 1
  }
  param {
    lr_mult: 2
    decay_mult: 0
  }
  convolution_param {
    num_output: 16
    bias_term: true
    pad: 1
    kernel_size: 3
    stride: 1
    weight_filler {
      type: "msra"
    }
    bias_filler {
      type: "constant"
      value: 0
    }
  }
}
layer {
  name: "conv1/bn"
  type: "BatchNorm"
  bottom: "conv1"
  top: "conv1"
  param {
    lr_mult: 0
    decay_mult: 0
  }
  param {
    lr_mult: 0
    decay_mult: 0
  }
  param {
    lr_mult: 0
    decay_mult: 0
  }
  batch_norm_param {
    use_global_stats: false
  }
}
layer {
  name: "conv1/scale"
  type: "Scale"
  bottom: "conv1"
  top: "conv1"
  scale_param {
    bias_term: true
  }
}
layer {
  name: "conv1/ReLU"
  type: "ReLU"
  bottom: "conv1"
  top: "conv1"
}
layer {
  name: "conv2_1_0"
  type: "Convolution"
  bottom: "conv1"
  top: "conv2_1_0"
  param {
    lr_mult: 1
    decay_mult: 1
  }
  param {
    lr_mult: 2
    decay_mult: 0
  }
  convolution_param {
    num_output: 16
    bias_term: true
    pad: 1
    kernel_size: 3
    stride: 1
    weight_filler {
      type: "msra"
    }
    bias_filler {
      type: "constant"
      value: 0
    }
  }
}
layer {
  name: "conv2_1_bn0"
  type: "BatchNorm"
  bottom: "conv2_1_0"
  top: "conv2_1_0"
  param {
    lr_mult: 0
    decay_mult: 0
  }
  param {
    lr_mult: 0
    decay_mult: 0
  }
  param {
    lr_mult: 0
    decay_mult: 0
  }
  batch_norm_param {
    use_global_stats: false
  }
}
layer {
  name: "conv2_1_scale0"
  type: "Scale"
  bottom: "conv2_1_0"
  top: "conv2_1_0"
  scale_param {
    bias_term: true
  }
}
layer {
  name: "conv2_1_ReLU0"
  type: "ReLU"
  bottom: "conv2_1_0"
  top: "conv2_1_0"
}
layer {
  name: "conv2_1_1"
  type: "Convolution"
  bottom: "conv2_1_0"
  top: "conv2_1_1"
  param {
    lr_mult: 1
    decay_mult: 1
  }
  param {
    lr_mult: 2
    decay_mult: 0
  }
  convolution_param {
    num_output: 16
    bias_term: true
    pad: 1
    kernel_size: 3
    stride: 1
    weight_filler {
      type: "msra"
    }
    bias_filler {
      type: "constant"
      value: 0
    }
  }
}
layer {
  name: "conv2_1bn1"
  type: "BatchNorm"
  bottom: "conv2_1_1"
  top: "conv2_1_1"
  param {
    lr_mult: 0
    decay_mult: 0
  }
  param {
    lr_mult: 0
    decay_mult: 0
  }
  param {
    lr_mult: 0
    decay_mult: 0
  }
  batch_norm_param {
    use_global_stats: false
  }
}
layer {
  name: "conv2_1_scale1"
  type: "Scale"
  bottom: "conv2_1_1"
  top: "conv2_1_1"
  scale_param {
    bias_term: true
  }
}
layer {
  name: "conv2_Eltwise_1"
  type: "Eltwise"
  bottom: "conv1"
  bottom: "conv2_1_1"
  top: "conv2_Eltwise_1"
  eltwise_param {
    operation: SUM
  }
}
layer {
  name: "conv2_1ReLU_1"
  type: "ReLU"
  bottom: "conv2_Eltwise_1"
  top: "conv2_Eltwise_1"
}
layer {
  name: "conv2_2_0"
  type: "Convolution"
  bottom: "conv2_Eltwise_1"
  top: "conv2_2_0"
  param {
    lr_mult: 1
    decay_mult: 1
  }
  param {
    lr_mult: 2
    decay_mult: 0
  }
  convolution_param {
    num_output: 16
    bias_term: true
    pad: 1
    kernel_size: 3
    stride: 1
    weight_filler {
      type: "msra"
    }
    bias_filler {
      type: "constant"
      value: 0
    }
  }
}
layer {
  name: "conv2_2_bn0"
  type: "BatchNorm"
  bottom: "conv2_2_0"
  top: "conv2_2_0"
  param {
    lr_mult: 0
    decay_mult: 0
  }
  param {
    lr_mult: 0
    decay_mult: 0
  }
  param {
    lr_mult: 0
    decay_mult: 0
  }
  batch_norm_param {
    use_global_stats: false
  }
}
layer {
  name: "conv2_2_scale0"
  type: "Scale"
  bottom: "conv2_2_0"
  top: "conv2_2_0"
  scale_param {
    bias_term: true
  }
}
layer {
  name: "conv2_2_ReLU0"
  type: "ReLU"
  bottom: "conv2_2_0"
  top: "conv2_2_0"
}
layer {
  name: "conv2_2_1"
  type: "Convolution"
  bottom: "conv2_2_0"
  top: "conv2_2_1"
  param {
    lr_mult: 1
    decay_mult: 1
  }
  param {
    lr_mult: 2
    decay_mult: 0
  }
  convolution_param {
    num_output: 16
    bias_term: true
    pad: 1
    kernel_size: 3
    stride: 1
    weight_filler {
      type: "msra"
    }
    bias_filler {
      type: "constant"
      value: 0
    }
  }
}
layer {
  name: "conv2_2bn1"
  type: "BatchNorm"
  bottom: "conv2_2_1"
  top: "conv2_2_1"
  param {
    lr_mult: 0
    decay_mult: 0
  }
  param {
    lr_mult: 0
    decay_mult: 0
  }
  param {
    lr_mult: 0
    decay_mult: 0
  }
  batch_norm_param {
    use_global_stats: false
  }
}
layer {
  name: "conv2_2_scale1"
  type: "Scale"
  bottom: "conv2_2_1"
  top: "conv2_2_1"
  scale_param {
    bias_term: true
  }
}
layer {
  name: "conv2_Eltwise_2"
  type: "Eltwise"
  bottom: "conv2_Eltwise_1"
  bottom: "conv2_2_1"
  top: "conv2_Eltwise_2"
  eltwise_param {
    operation: SUM
  }
}
layer {
  name: "conv2_2ReLU_1"
  type: "ReLU"
  bottom: "conv2_Eltwise_2"
  top: "conv2_Eltwise_2"
}
layer {
  name: "conv2_3_0"
  type: "Convolution"
  bottom: "conv2_Eltwise_2"
  top: "conv2_3_0"
  param {
    lr_mult: 1
    decay_mult: 1
  }
  param {
    lr_mult: 2
    decay_mult: 0
  }
  convolution_param {
    num_output: 16
    bias_term: true
    pad: 1
    kernel_size: 3
    stride: 1
    weight_filler {
      type: "msra"
    }
    bias_filler {
      type: "constant"
      value: 0
    }
  }
}
layer {
  name: "conv2_3_bn0"
  type: "BatchNorm"
  bottom: "conv2_3_0"
  top: "conv2_3_0"
  param {
    lr_mult: 0
    decay_mult: 0
  }
  param {
    lr_mult: 0
    decay_mult: 0
  }
  param {
    lr_mult: 0
    decay_mult: 0
  }
  batch_norm_param {
    use_global_stats: false
  }
}
layer {
  name: "conv2_3_scale0"
  type: "Scale"
  bottom: "conv2_3_0"
  top: "conv2_3_0"
  scale_param {
    bias_term: true
  }
}
layer {
  name: "conv2_3_ReLU0"
  type: "ReLU"
  bottom: "conv2_3_0"
  top: "conv2_3_0"
}
layer {
  name: "conv2_3_1"
  type: "Convolution"
  bottom: "conv2_3_0"
  top: "conv2_3_1"
  param {
    lr_mult: 1
    decay_mult: 1
  }
  param {
    lr_mult: 2
    decay_mult: 0
  }
  convolution_param {
    num_output: 16
    bias_term: true
    pad: 1
    kernel_size: 3
    stride: 1
    weight_filler {
      type: "msra"
    }
    bias_filler {
      type: "constant"
      value: 0
    }
  }
}
layer {
  name: "conv2_3bn1"
  type: "BatchNorm"
  bottom: "conv2_3_1"
  top: "conv2_3_1"
  param {
    lr_mult: 0
    decay_mult: 0
  }
  param {
    lr_mult: 0
    decay_mult: 0
  }
  param {
    lr_mult: 0
    decay_mult: 0
  }
  batch_norm_param {
    use_global_stats: false
  }
}
layer {
  name: "conv2_3_scale1"
  type: "Scale"
  bottom: "conv2_3_1"
  top: "conv2_3_1"
  scale_param {
    bias_term: true
  }
}
layer {
  name: "conv2_Eltwise_3"
  type: "Eltwise"
  bottom: "conv2_Eltwise_2"
  bottom: "conv2_3_1"
  top: "conv2_Eltwise_3"
  eltwise_param {
    operation: SUM
  }
}
layer {
  name: "conv2_3ReLU_1"
  type: "ReLU"
  bottom: "conv2_Eltwise_3"
  top: "conv2_Eltwise_3"
}
layer {
  name: "conv2_4_0"
  type: "Convolution"
  bottom: "conv2_Eltwise_3"
  top: "conv2_4_0"
  param {
    lr_mult: 1
    decay_mult: 1
  }
  param {
    lr_mult: 2
    decay_mult: 0
  }
  convolution_param {
    num_output: 16
    bias_term: true
    pad: 1
    kernel_size: 3
    stride: 1
    weight_filler {
      type: "msra"
    }
    bias_filler {
      type: "constant"
      value: 0
    }
  }
}
layer {
  name: "conv2_4_bn0"
  type: "BatchNorm"
  bottom: "conv2_4_0"
  top: "conv2_4_0"
  param {
    lr_mult: 0
    decay_mult: 0
  }
  param {
    lr_mult: 0
    decay_mult: 0
  }
  param {
    lr_mult: 0
    decay_mult: 0
  }
  batch_norm_param {
    use_global_stats: false
  }
}
layer {
  name: "conv2_4_scale0"
  type: "Scale"
  bottom: "conv2_4_0"
  top: "conv2_4_0"
  scale_param {
    bias_term: true
  }
}
layer {
  name: "conv2_4_ReLU0"
  type: "ReLU"
  bottom: "conv2_4_0"
  top: "conv2_4_0"
}
layer {
  name: "conv2_4_1"
  type: "Convolution"
  bottom: "conv2_4_0"
  top: "conv2_4_1"
  param {
    lr_mult: 1
    decay_mult: 1
  }
  param {
    lr_mult: 2
    decay_mult: 0
  }
  convolution_param {
    num_output: 16
    bias_term: true
    pad: 1
    kernel_size: 3
    stride: 1
    weight_filler {
      type: "msra"
    }
    bias_filler {
      type: "constant"
      value: 0
    }
  }
}
layer {
  name: "conv2_4bn1"
  type: "BatchNorm"
  bottom: "conv2_4_1"
  top: "conv2_4_1"
  param {
    lr_mult: 0
    decay_mult: 0
  }
  param {
    lr_mult: 0
    decay_mult: 0
  }
  param {
    lr_mult: 0
    decay_mult: 0
  }
  batch_norm_param {
    use_global_stats: false
  }
}
layer {
  name: "conv2_4_scale1"
  type: "Scale"
  bottom: "conv2_4_1"
  top: "conv2_4_1"
  scale_param {
    bias_term: true
  }
}
layer {
  name: "conv2_Eltwise_4"
  type: "Eltwise"
  bottom: "conv2_Eltwise_3"
  bottom: "conv2_4_1"
  top: "conv2_Eltwise_4"
  eltwise_param {
    operation: SUM
  }
}
layer {
  name: "conv2_4ReLU_1"
  type: "ReLU"
  bottom: "conv2_Eltwise_4"
  top: "conv2_Eltwise_4"
}
layer {
  name: "conv2_5_0"
  type: "Convolution"
  bottom: "conv2_Eltwise_4"
  top: "conv2_5_0"
  param {
    lr_mult: 1
    decay_mult: 1
  }
  param {
    lr_mult: 2
    decay_mult: 0
  }
  convolution_param {
    num_output: 16
    bias_term: true
    pad: 1
    kernel_size: 3
    stride: 1
    weight_filler {
      type: "msra"
    }
    bias_filler {
      type: "constant"
      value: 0
    }
  }
}
layer {
  name: "conv2_5_bn0"
  type: "BatchNorm"
  bottom: "conv2_5_0"
  top: "conv2_5_0"
  param {
    lr_mult: 0
    decay_mult: 0
  }
  param {
    lr_mult: 0
    decay_mult: 0
  }
  param {
    lr_mult: 0
    decay_mult: 0
  }
  batch_norm_param {
    use_global_stats: false
  }
}
layer {
  name: "conv2_5_scale0"
  type: "Scale"
  bottom: "conv2_5_0"
  top: "conv2_5_0"
  scale_param {
    bias_term: true
  }
}
layer {
  name: "conv2_5_ReLU0"
  type: "ReLU"
  bottom: "conv2_5_0"
  top: "conv2_5_0"
}
layer {
  name: "conv2_5_1"
  type: "Convolution"
  bottom: "conv2_5_0"
  top: "conv2_5_1"
  param {
    lr_mult: 1
    decay_mult: 1
  }
  param {
    lr_mult: 2
    decay_mult: 0
  }
  convolution_param {
    num_output: 16
    bias_term: true
    pad: 1
    kernel_size: 3
    stride: 1
    weight_filler {
      type: "msra"
    }
    bias_filler {
      type: "constant"
      value: 0
    }
  }
}
layer {
  name: "conv2_5bn1"
  type: "BatchNorm"
  bottom: "conv2_5_1"
  top: "conv2_5_1"
  param {
    lr_mult: 0
    decay_mult: 0
  }
  param {
    lr_mult: 0
    decay_mult: 0
  }
  param {
    lr_mult: 0
    decay_mult: 0
  }
  batch_norm_param {
    use_global_stats: false
  }
}
layer {
  name: "conv2_5_scale1"
  type: "Scale"
  bottom: "conv2_5_1"
  top: "conv2_5_1"
  scale_param {
    bias_term: true
  }
}
layer {
  name: "conv2_Eltwise_5"
  type: "Eltwise"
  bottom: "conv2_Eltwise_4"
  bottom: "conv2_5_1"
  top: "conv2_Eltwise_5"
  eltwise_param {
    operation: SUM
  }
}
layer {
  name: "conv2_5ReLU_1"
  type: "ReLU"
  bottom: "conv2_Eltwise_5"
  top: "conv2_Eltwise_5"
}
layer {
  name: "conv2_6_0"
  type: "Convolution"
  bottom: "conv2_Eltwise_5"
  top: "conv2_6_0"
  param {
    lr_mult: 1
    decay_mult: 1
  }
  param {
    lr_mult: 2
    decay_mult: 0
  }
  convolution_param {
    num_output: 16
    bias_term: true
    pad: 1
    kernel_size: 3
    stride: 1
    weight_filler {
      type: "msra"
    }
    bias_filler {
      type: "constant"
      value: 0
    }
  }
}
layer {
  name: "conv2_6_bn0"
  type: "BatchNorm"
  bottom: "conv2_6_0"
  top: "conv2_6_0"
  param {
    lr_mult: 0
    decay_mult: 0
  }
  param {
    lr_mult: 0
    decay_mult: 0
  }
  param {
    lr_mult: 0
    decay_mult: 0
  }
  batch_norm_param {
    use_global_stats: false
  }
}
layer {
  name: "conv2_6_scale0"
  type: "Scale"
  bottom: "conv2_6_0"
  top: "conv2_6_0"
  scale_param {
    bias_term: true
  }
}
layer {
  name: "conv2_6_ReLU0"
  type: "ReLU"
  bottom: "conv2_6_0"
  top: "conv2_6_0"
}
layer {
  name: "conv2_6_1"
  type: "Convolution"
  bottom: "conv2_6_0"
  top: "conv2_6_1"
  param {
    lr_mult: 1
    decay_mult: 1
  }
  param {
    lr_mult: 2
    decay_mult: 0
  }
  convolution_param {
    num_output: 16
    bias_term: true
    pad: 1
    kernel_size: 3
    stride: 1
    weight_filler {
      type: "msra"
    }
    bias_filler {
      type: "constant"
      value: 0
    }
  }
}
layer {
  name: "conv2_6bn1"
  type: "BatchNorm"
  bottom: "conv2_6_1"
  top: "conv2_6_1"
  param {
    lr_mult: 0
    decay_mult: 0
  }
  param {
    lr_mult: 0
    decay_mult: 0
  }
  param {
    lr_mult: 0
    decay_mult: 0
  }
  batch_norm_param {
    use_global_stats: false
  }
}
layer {
  name: "conv2_6_scale1"
  type: "Scale"
  bottom: "conv2_6_1"
  top: "conv2_6_1"
  scale_param {
    bias_term: true
  }
}
layer {
  name: "conv2_Eltwise_6"
  type: "Eltwise"
  bottom: "conv2_Eltwise_5"
  bottom: "conv2_6_1"
  top: "conv2_Eltwise_6"
  eltwise_param {
    operation: SUM
  }
}
layer {
  name: "conv2_6ReLU_1"
  type: "ReLU"
  bottom: "conv2_Eltwise_6"
  top: "conv2_Eltwise_6"
}
layer {
  name: "conv2_7_0"
  type: "Convolution"
  bottom: "conv2_Eltwise_6"
  top: "conv2_7_0"
  param {
    lr_mult: 1
    decay_mult: 1
  }
  param {
    lr_mult: 2
    decay_mult: 0
  }
  convolution_param {
    num_output: 16
    bias_term: true
    pad: 1
    kernel_size: 3
    stride: 1
    weight_filler {
      type: "msra"
    }
    bias_filler {
      type: "constant"
      value: 0
    }
  }
}
layer {
  name: "conv2_7_bn0"
  type: "BatchNorm"
  bottom: "conv2_7_0"
  top: "conv2_7_0"
  param {
    lr_mult: 0
    decay_mult: 0
  }
  param {
    lr_mult: 0
    decay_mult: 0
  }
  param {
    lr_mult: 0
    decay_mult: 0
  }
  batch_norm_param {
    use_global_stats: false
  }
}
layer {
  name: "conv2_7_scale0"
  type: "Scale"
  bottom: "conv2_7_0"
  top: "conv2_7_0"
  scale_param {
    bias_term: true
  }
}
layer {
  name: "conv2_7_ReLU0"
  type: "ReLU"
  bottom: "conv2_7_0"
  top: "conv2_7_0"
}
layer {
  name: "conv2_7_1"
  type: "Convolution"
  bottom: "conv2_7_0"
  top: "conv2_7_1"
  param {
    lr_mult: 1
    decay_mult: 1
  }
  param {
    lr_mult: 2
    decay_mult: 0
  }
  convolution_param {
    num_output: 16
    bias_term: true
    pad: 1
    kernel_size: 3
    stride: 1
    weight_filler {
      type: "msra"
    }
    bias_filler {
      type: "constant"
      value: 0
    }
  }
}
layer {
  name: "conv2_7bn1"
  type: "BatchNorm"
  bottom: "conv2_7_1"
  top: "conv2_7_1"
  param {
    lr_mult: 0
    decay_mult: 0
  }
  param {
    lr_mult: 0
    decay_mult: 0
  }
  param {
    lr_mult: 0
    decay_mult: 0
  }
  batch_norm_param {
    use_global_stats: false
  }
}
layer {
  name: "conv2_7_scale1"
  type: "Scale"
  bottom: "conv2_7_1"
  top: "conv2_7_1"
  scale_param {
    bias_term: true
  }
}
layer {
  name: "conv2_Eltwise_7"
  type: "Eltwise"
  bottom: "conv2_Eltwise_6"
  bottom: "conv2_7_1"
  top: "conv2_Eltwise_7"
  eltwise_param {
    operation: SUM
  }
}
layer {
  name: "conv2_7ReLU_1"
  type: "ReLU"
  bottom: "conv2_Eltwise_7"
  top: "conv2_Eltwise_7"
}
layer {
  name: "conv2_8_0"
  type: "Convolution"
  bottom: "conv2_Eltwise_7"
  top: "conv2_8_0"
  param {
    lr_mult: 1
    decay_mult: 1
  }
  param {
    lr_mult: 2
    decay_mult: 0
  }
  convolution_param {
    num_output: 16
    bias_term: true
    pad: 1
    kernel_size: 3
    stride: 1
    weight_filler {
      type: "msra"
    }
    bias_filler {
      type: "constant"
      value: 0
    }
  }
}
layer {
  name: "conv2_8_bn0"
  type: "BatchNorm"
  bottom: "conv2_8_0"
  top: "conv2_8_0"
  param {
    lr_mult: 0
    decay_mult: 0
  }
  param {
    lr_mult: 0
    decay_mult: 0
  }
  param {
    lr_mult: 0
    decay_mult: 0
  }
  batch_norm_param {
    use_global_stats: false
  }
}
layer {
  name: "conv2_8_scale0"
  type: "Scale"
  bottom: "conv2_8_0"
  top: "conv2_8_0"
  scale_param {
    bias_term: true
  }
}
layer {
  name: "conv2_8_ReLU0"
  type: "ReLU"
  bottom: "conv2_8_0"
  top: "conv2_8_0"
}
layer {
  name: "conv2_8_1"
  type: "Convolution"
  bottom: "conv2_8_0"
  top: "conv2_8_1"
  param {
    lr_mult: 1
    decay_mult: 1
  }
  param {
    lr_mult: 2
    decay_mult: 0
  }
  convolution_param {
    num_output: 16
    bias_term: true
    pad: 1
    kernel_size: 3
    stride: 1
    weight_filler {
      type: "msra"
    }
    bias_filler {
      type: "constant"
      value: 0
    }
  }
}
layer {
  name: "conv2_8bn1"
  type: "BatchNorm"
  bottom: "conv2_8_1"
  top: "conv2_8_1"
  param {
    lr_mult: 0
    decay_mult: 0
  }
  param {
    lr_mult: 0
    decay_mult: 0
  }
  param {
    lr_mult: 0
    decay_mult: 0
  }
  batch_norm_param {
    use_global_stats: false
  }
}
layer {
  name: "conv2_8_scale1"
  type: "Scale"
  bottom: "conv2_8_1"
  top: "conv2_8_1"
  scale_param {
    bias_term: true
  }
}
layer {
  name: "conv2_Eltwise_8"
  type: "Eltwise"
  bottom: "conv2_Eltwise_7"
  bottom: "conv2_8_1"
  top: "conv2_Eltwise_8"
  eltwise_param {
    operation: SUM
  }
}
layer {
  name: "conv2_8ReLU_1"
  type: "ReLU"
  bottom: "conv2_Eltwise_8"
  top: "conv2_Eltwise_8"
}
layer {
  name: "conv2_9_0"
  type: "Convolution"
  bottom: "conv2_Eltwise_8"
  top: "conv2_9_0"
  param {
    lr_mult: 1
    decay_mult: 1
  }
  param {
    lr_mult: 2
    decay_mult: 0
  }
  convolution_param {
    num_output: 16
    bias_term: true
    pad: 1
    kernel_size: 3
    stride: 1
    weight_filler {
      type: "msra"
    }
    bias_filler {
      type: "constant"
      value: 0
    }
  }
}
layer {
  name: "conv2_9_bn0"
  type: "BatchNorm"
  bottom: "conv2_9_0"
  top: "conv2_9_0"
  param {
    lr_mult: 0
    decay_mult: 0
  }
  param {
    lr_mult: 0
    decay_mult: 0
  }
  param {
    lr_mult: 0
    decay_mult: 0
  }
  batch_norm_param {
    use_global_stats: false
  }
}
layer {
  name: "conv2_9_scale0"
  type: "Scale"
  bottom: "conv2_9_0"
  top: "conv2_9_0"
  scale_param {
    bias_term: true
  }
}
layer {
  name: "conv2_9_ReLU0"
  type: "ReLU"
  bottom: "conv2_9_0"
  top: "conv2_9_0"
}
layer {
  name: "conv2_9_1"
  type: "Convolution"
  bottom: "conv2_9_0"
  top: "conv2_9_1"
  param {
    lr_mult: 1
    decay_mult: 1
  }
  param {
    lr_mult: 2
    decay_mult: 0
  }
  convolution_param {
    num_output: 16
    bias_term: true
    pad: 1
    kernel_size: 3
    stride: 1
    weight_filler {
      type: "msra"
    }
    bias_filler {
      type: "constant"
      value: 0
    }
  }
}
layer {
  name: "conv2_9bn1"
  type: "BatchNorm"
  bottom: "conv2_9_1"
  top: "conv2_9_1"
  param {
    lr_mult: 0
    decay_mult: 0
  }
  param {
    lr_mult: 0
    decay_mult: 0
  }
  param {
    lr_mult: 0
    decay_mult: 0
  }
  batch_norm_param {
    use_global_stats: false
  }
}
layer {
  name: "conv2_9_scale1"
  type: "Scale"
  bottom: "conv2_9_1"
  top: "conv2_9_1"
  scale_param {
    bias_term: true
  }
}
layer {
  name: "conv2_Eltwise_9"
  type: "Eltwise"
  bottom: "conv2_Eltwise_8"
  bottom: "conv2_9_1"
  top: "conv2_Eltwise_9"
  eltwise_param {
    operation: SUM
  }
}
layer {
  name: "conv2_9ReLU_1"
  type: "ReLU"
  bottom: "conv2_Eltwise_9"
  top: "conv2_Eltwise_9"
}
layer {
  name: "conv3_1_0"
  type: "Convolution"
  bottom: "conv2_Eltwise_9"
  top: "conv3_1_0"
  param {
    lr_mult: 1
    decay_mult: 1
  }
  param {
    lr_mult: 2
    decay_mult: 0
  }
  convolution_param {
    num_output: 32
    bias_term: true
    pad: 1
    kernel_size: 3
    stride: 2
    weight_filler {
      type: "msra"
    }
    bias_filler {
      type: "constant"
      value: 0
    }
  }
}
layer {
  name: "conv3_1_bn0"
  type: "BatchNorm"
  bottom: "conv3_1_0"
  top: "conv3_1_0"
  param {
    lr_mult: 0
    decay_mult: 0
  }
  param {
    lr_mult: 0
    decay_mult: 0
  }
  param {
    lr_mult: 0
    decay_mult: 0
  }
  batch_norm_param {
    use_global_stats: false
  }
}
layer {
  name: "conv3_1_scale0"
  type: "Scale"
  bottom: "conv3_1_0"
  top: "conv3_1_0"
  scale_param {
    bias_term: true
  }
}
layer {
  name: "conv3_1_ReLU0"
  type: "ReLU"
  bottom: "conv3_1_0"
  top: "conv3_1_0"
}
layer {
  name: "conv3_1_1"
  type: "Convolution"
  bottom: "conv3_1_0"
  top: "conv3_1_1"
  param {
    lr_mult: 1
    decay_mult: 1
  }
  param {
    lr_mult: 2
    decay_mult: 0
  }
  convolution_param {
    num_output: 32
    bias_term: true
    pad: 1
    kernel_size: 3
    stride: 1
    weight_filler {
      type: "msra"
    }
    bias_filler {
      type: "constant"
      value: 0
    }
  }
}
layer {
  name: "conv3_1bn1"
  type: "BatchNorm"
  bottom: "conv3_1_1"
  top: "conv3_1_1"
  param {
    lr_mult: 0
    decay_mult: 0
  }
  param {
    lr_mult: 0
    decay_mult: 0
  }
  param {
    lr_mult: 0
    decay_mult: 0
  }
  batch_norm_param {
    use_global_stats: false
  }
}
layer {
  name: "conv3_1_scale1"
  type: "Scale"
  bottom: "conv3_1_1"
  top: "conv3_1_1"
  scale_param {
    bias_term: true
  }
}
layer {
  name: "conv3_1_down"
  type: "Convolution"
  bottom: "conv2_Eltwise_9"
  top: "conv3_1_down"
  param {
    lr_mult: 1
    decay_mult: 1
  }
  param {
    lr_mult: 2
    decay_mult: 0
  }
  convolution_param {
    num_output: 32
    bias_term: true
    pad: 0
    kernel_size: 1
    stride: 2
    weight_filler {
      type: "msra"
    }
    bias_filler {
      type: "constant"
      value: 0
    }
  }
}
layer {
  name: "conv3_1_bn_down"
  type: "BatchNorm"
  bottom: "conv3_1_down"
  top: "conv3_1_down"
  param {
    lr_mult: 0
    decay_mult: 0
  }
  param {
    lr_mult: 0
    decay_mult: 0
  }
  param {
    lr_mult: 0
    decay_mult: 0
  }
  batch_norm_param {
    use_global_stats: false
  }
}
layer {
  name: "conv3_1_scale_down"
  type: "Scale"
  bottom: "conv3_1_down"
  top: "conv3_1_down"
  scale_param {
    bias_term: true
  }
}
layer {
  name: "conv3_Eltwise_1"
  type: "Eltwise"
  bottom: "conv3_1_1"
  bottom: "conv3_1_down"
  top: "conv3_Eltwise_1"
  eltwise_param {
    operation: SUM
  }
}
layer {
  name: "conv3_1ReLU_1"
  type: "ReLU"
  bottom: "conv3_Eltwise_1"
  top: "conv3_Eltwise_1"
}
layer {
  name: "conv3_2_0"
  type: "Convolution"
  bottom: "conv3_Eltwise_1"
  top: "conv3_2_0"
  param {
    lr_mult: 1
    decay_mult: 1
  }
  param {
    lr_mult: 2
    decay_mult: 0
  }
  convolution_param {
    num_output: 32
    bias_term: true
    pad: 1
    kernel_size: 3
    stride: 1
    weight_filler {
      type: "msra"
    }
    bias_filler {
      type: "constant"
      value: 0
    }
  }
}
layer {
  name: "conv3_2_bn0"
  type: "BatchNorm"
  bottom: "conv3_2_0"
  top: "conv3_2_0"
  param {
    lr_mult: 0
    decay_mult: 0
  }
  param {
    lr_mult: 0
    decay_mult: 0
  }
  param {
    lr_mult: 0
    decay_mult: 0
  }
  batch_norm_param {
    use_global_stats: false
  }
}
layer {
  name: "conv3_2_scale0"
  type: "Scale"
  bottom: "conv3_2_0"
  top: "conv3_2_0"
  scale_param {
    bias_term: true
  }
}
layer {
  name: "conv3_2_ReLU0"
  type: "ReLU"
  bottom: "conv3_2_0"
  top: "conv3_2_0"
}
layer {
  name: "conv3_2_1"
  type: "Convolution"
  bottom: "conv3_2_0"
  top: "conv3_2_1"
  param {
    lr_mult: 1
    decay_mult: 1
  }
  param {
    lr_mult: 2
    decay_mult: 0
  }
  convolution_param {
    num_output: 32
    bias_term: true
    pad: 1
    kernel_size: 3
    stride: 1
    weight_filler {
      type: "msra"
    }
    bias_filler {
      type: "constant"
      value: 0
    }
  }
}
layer {
  name: "conv3_2bn1"
  type: "BatchNorm"
  bottom: "conv3_2_1"
  top: "conv3_2_1"
  param {
    lr_mult: 0
    decay_mult: 0
  }
  param {
    lr_mult: 0
    decay_mult: 0
  }
  param {
    lr_mult: 0
    decay_mult: 0
  }
  batch_norm_param {
    use_global_stats: false
  }
}
layer {
  name: "conv3_2_scale1"
  type: "Scale"
  bottom: "conv3_2_1"
  top: "conv3_2_1"
  scale_param {
    bias_term: true
  }
}
layer {
  name: "conv3_Eltwise_2"
  type: "Eltwise"
  bottom: "conv3_Eltwise_1"
  bottom: "conv3_2_1"
  top: "conv3_Eltwise_2"
  eltwise_param {
    operation: SUM
  }
}
layer {
  name: "conv3_2ReLU_1"
  type: "ReLU"
  bottom: "conv3_Eltwise_2"
  top: "conv3_Eltwise_2"
}
layer {
  name: "conv3_3_0"
  type: "Convolution"
  bottom: "conv3_Eltwise_2"
  top: "conv3_3_0"
  param {
    lr_mult: 1
    decay_mult: 1
  }
  param {
    lr_mult: 2
    decay_mult: 0
  }
  convolution_param {
    num_output: 32
    bias_term: true
    pad: 1
    kernel_size: 3
    stride: 1
    weight_filler {
      type: "msra"
    }
    bias_filler {
      type: "constant"
      value: 0
    }
  }
}
layer {
  name: "conv3_3_bn0"
  type: "BatchNorm"
  bottom: "conv3_3_0"
  top: "conv3_3_0"
  param {
    lr_mult: 0
    decay_mult: 0
  }
  param {
    lr_mult: 0
    decay_mult: 0
  }
  param {
    lr_mult: 0
    decay_mult: 0
  }
  batch_norm_param {
    use_global_stats: false
  }
}
layer {
  name: "conv3_3_scale0"
  type: "Scale"
  bottom: "conv3_3_0"
  top: "conv3_3_0"
  scale_param {
    bias_term: true
  }
}
layer {
  name: "conv3_3_ReLU0"
  type: "ReLU"
  bottom: "conv3_3_0"
  top: "conv3_3_0"
}
layer {
  name: "conv3_3_1"
  type: "Convolution"
  bottom: "conv3_3_0"
  top: "conv3_3_1"
  param {
    lr_mult: 1
    decay_mult: 1
  }
  param {
    lr_mult: 2
    decay_mult: 0
  }
  convolution_param {
    num_output: 32
    bias_term: true
    pad: 1
    kernel_size: 3
    stride: 1
    weight_filler {
      type: "msra"
    }
    bias_filler {
      type: "constant"
      value: 0
    }
  }
}
layer {
  name: "conv3_3bn1"
  type: "BatchNorm"
  bottom: "conv3_3_1"
  top: "conv3_3_1"
  param {
    lr_mult: 0
    decay_mult: 0
  }
  param {
    lr_mult: 0
    decay_mult: 0
  }
  param {
    lr_mult: 0
    decay_mult: 0
  }
  batch_norm_param {
    use_global_stats: false
  }
}
layer {
  name: "conv3_3_scale1"
  type: "Scale"
  bottom: "conv3_3_1"
  top: "conv3_3_1"
  scale_param {
    bias_term: true
  }
}
layer {
  name: "conv3_Eltwise_3"
  type: "Eltwise"
  bottom: "conv3_Eltwise_2"
  bottom: "conv3_3_1"
  top: "conv3_Eltwise_3"
  eltwise_param {
    operation: SUM
  }
}
layer {
  name: "conv3_3ReLU_1"
  type: "ReLU"
  bottom: "conv3_Eltwise_3"
  top: "conv3_Eltwise_3"
}
layer {
  name: "conv3_4_0"
  type: "Convolution"
  bottom: "conv3_Eltwise_3"
  top: "conv3_4_0"
  param {
    lr_mult: 1
    decay_mult: 1
  }
  param {
    lr_mult: 2
    decay_mult: 0
  }
  convolution_param {
    num_output: 32
    bias_term: true
    pad: 1
    kernel_size: 3
    stride: 1
    weight_filler {
      type: "msra"
    }
    bias_filler {
      type: "constant"
      value: 0
    }
  }
}
layer {
  name: "conv3_4_bn0"
  type: "BatchNorm"
  bottom: "conv3_4_0"
  top: "conv3_4_0"
  param {
    lr_mult: 0
    decay_mult: 0
  }
  param {
    lr_mult: 0
    decay_mult: 0
  }
  param {
    lr_mult: 0
    decay_mult: 0
  }
  batch_norm_param {
    use_global_stats: false
  }
}
layer {
  name: "conv3_4_scale0"
  type: "Scale"
  bottom: "conv3_4_0"
  top: "conv3_4_0"
  scale_param {
    bias_term: true
  }
}
layer {
  name: "conv3_4_ReLU0"
  type: "ReLU"
  bottom: "conv3_4_0"
  top: "conv3_4_0"
}
layer {
  name: "conv3_4_1"
  type: "Convolution"
  bottom: "conv3_4_0"
  top: "conv3_4_1"
  param {
    lr_mult: 1
    decay_mult: 1
  }
  param {
    lr_mult: 2
    decay_mult: 0
  }
  convolution_param {
    num_output: 32
    bias_term: true
    pad: 1
    kernel_size: 3
    stride: 1
    weight_filler {
      type: "msra"
    }
    bias_filler {
      type: "constant"
      value: 0
    }
  }
}
layer {
  name: "conv3_4bn1"
  type: "BatchNorm"
  bottom: "conv3_4_1"
  top: "conv3_4_1"
  param {
    lr_mult: 0
    decay_mult: 0
  }
  param {
    lr_mult: 0
    decay_mult: 0
  }
  param {
    lr_mult: 0
    decay_mult: 0
  }
  batch_norm_param {
    use_global_stats: false
  }
}
layer {
  name: "conv3_4_scale1"
  type: "Scale"
  bottom: "conv3_4_1"
  top: "conv3_4_1"
  scale_param {
    bias_term: true
  }
}
layer {
  name: "conv3_Eltwise_4"
  type: "Eltwise"
  bottom: "conv3_Eltwise_3"
  bottom: "conv3_4_1"
  top: "conv3_Eltwise_4"
  eltwise_param {
    operation: SUM
  }
}
layer {
  name: "conv3_4ReLU_1"
  type: "ReLU"
  bottom: "conv3_Eltwise_4"
  top: "conv3_Eltwise_4"
}
layer {
  name: "conv3_5_0"
  type: "Convolution"
  bottom: "conv3_Eltwise_4"
  top: "conv3_5_0"
  param {
    lr_mult: 1
    decay_mult: 1
  }
  param {
    lr_mult: 2
    decay_mult: 0
  }
  convolution_param {
    num_output: 32
    bias_term: true
    pad: 1
    kernel_size: 3
    stride: 1
    weight_filler {
      type: "msra"
    }
    bias_filler {
      type: "constant"
      value: 0
    }
  }
}
layer {
  name: "conv3_5_bn0"
  type: "BatchNorm"
  bottom: "conv3_5_0"
  top: "conv3_5_0"
  param {
    lr_mult: 0
    decay_mult: 0
  }
  param {
    lr_mult: 0
    decay_mult: 0
  }
  param {
    lr_mult: 0
    decay_mult: 0
  }
  batch_norm_param {
    use_global_stats: false
  }
}
layer {
  name: "conv3_5_scale0"
  type: "Scale"
  bottom: "conv3_5_0"
  top: "conv3_5_0"
  scale_param {
    bias_term: true
  }
}
layer {
  name: "conv3_5_ReLU0"
  type: "ReLU"
  bottom: "conv3_5_0"
  top: "conv3_5_0"
}
layer {
  name: "conv3_5_1"
  type: "Convolution"
  bottom: "conv3_5_0"
  top: "conv3_5_1"
  param {
    lr_mult: 1
    decay_mult: 1
  }
  param {
    lr_mult: 2
    decay_mult: 0
  }
  convolution_param {
    num_output: 32
    bias_term: true
    pad: 1
    kernel_size: 3
    stride: 1
    weight_filler {
      type: "msra"
    }
    bias_filler {
      type: "constant"
      value: 0
    }
  }
}
layer {
  name: "conv3_5bn1"
  type: "BatchNorm"
  bottom: "conv3_5_1"
  top: "conv3_5_1"
  param {
    lr_mult: 0
    decay_mult: 0
  }
  param {
    lr_mult: 0
    decay_mult: 0
  }
  param {
    lr_mult: 0
    decay_mult: 0
  }
  batch_norm_param {
    use_global_stats: false
  }
}
layer {
  name: "conv3_5_scale1"
I0927 22:04:49.616545 26253 layer_factory.hpp:77] Creating layer Data1
I0927 22:04:49.616732 26253 db_lmdb.cpp:35] Opened lmdb /home/lijianfei/datasets/cifar10_40/train_lmdb
I0927 22:04:49.616791 26253 net.cpp:128] Creating Layer Data1
I0927 22:04:49.616802 26253 net.cpp:522] Data1 -> data
I0927 22:04:49.616832 26253 net.cpp:522] Data1 -> label
I0927 22:04:49.618649 26253 data_layer.cpp:45] output data size: 128,3,32,32
I0927 22:04:49.633991 26253 net.cpp:172] Setting up Data1
I0927 22:04:49.634049 26253 net.cpp:186] Top shape: 128 3 32 32 (393216)
I0927 22:04:49.634057 26253 net.cpp:186] Top shape: 128 (128)
I0927 22:04:49.634060 26253 net.cpp:194] Memory required for data: 1573376
I0927 22:04:49.634084 26253 layer_factory.hpp:77] Creating layer conv1
I0927 22:04:49.634121 26253 net.cpp:128] Creating Layer conv1
I0927 22:04:49.634133 26253 net.cpp:558] conv1 <- data
I0927 22:04:49.634160 26253 net.cpp:522] conv1 -> conv1
I0927 22:04:50.672431 26253 net.cpp:172] Setting up conv1
I0927 22:04:50.672497 26253 net.cpp:186] Top shape: 128 16 32 32 (2097152)
I0927 22:04:50.672503 26253 net.cpp:194] Memory required for data: 9961984
I0927 22:04:50.672549 26253 layer_factory.hpp:77] Creating layer conv1/bn
I0927 22:04:50.672575 26253 net.cpp:128] Creating Layer conv1/bn
I0927 22:04:50.672581 26253 net.cpp:558] conv1/bn <- conv1
I0927 22:04:50.672591 26253 net.cpp:509] conv1/bn -> conv1 (in-place)
I0927 22:04:50.672884 26253 net.cpp:172] Setting up conv1/bn
I0927 22:04:50.672950 26253 net.cpp:186] Top shape: 128 16 32 32 (2097152)
I0927 22:04:50.672968 26253 net.cpp:194] Memory required for data: 18350592
I0927 22:04:50.672997 26253 layer_factory.hpp:77] Creating layer conv1/scale
I0927 22:04:50.673022 26253 net.cpp:128] Creating Layer conv1/scale
I0927 22:04:50.673032 26253 net.cpp:558] conv1/scale <- conv1
I0927 22:04:50.673039 26253 net.cpp:509] conv1/scale -> conv1 (in-place)
I0927 22:04:50.673094 26253 layer_factory.hpp:77] Creating layer conv1/scale
I0927 22:04:50.673226 26253 net.cpp:172] Setting up conv1/scale
I0927 22:04:50.673261 26253 net.cpp:186] Top shape: 128 16 32 32 (2097152)
I0927 22:04:50.673346 26253 net.cpp:194] Memory required for data: 26739200
I0927 22:04:50.673372 26253 layer_factory.hpp:77] Creating layer conv1/ReLU
I0927 22:04:50.673396 26253 net.cpp:128] Creating Layer conv1/ReLU
I0927 22:04:50.673416 26253 net.cpp:558] conv1/ReLU <- conv1
I0927 22:04:50.673437 26253 net.cpp:509] conv1/ReLU -> conv1 (in-place)
I0927 22:04:50.674129 26253 net.cpp:172] Setting up conv1/ReLU
I0927 22:04:50.674147 26253 net.cpp:186] Top shape: 128 16 32 32 (2097152)
I0927 22:04:50.674154 26253 net.cpp:194] Memory required for data: 35127808
I0927 22:04:50.674158 26253 layer_factory.hpp:77] Creating layer conv1_conv1/ReLU_0_split
I0927 22:04:50.674167 26253 net.cpp:128] Creating Layer conv1_conv1/ReLU_0_split
I0927 22:04:50.674171 26253 net.cpp:558] conv1_conv1/ReLU_0_split <- conv1
I0927 22:04:50.674180 26253 net.cpp:522] conv1_conv1/ReLU_0_split -> conv1_conv1/ReLU_0_split_0
I0927 22:04:50.674188 26253 net.cpp:522] conv1_conv1/ReLU_0_split -> conv1_conv1/ReLU_0_split_1
I0927 22:04:50.674237 26253 net.cpp:172] Setting up conv1_conv1/ReLU_0_split
I0927 22:04:50.674283 26253 net.cpp:186] Top shape: 128 16 32 32 (2097152)
I0927 22:04:50.674304 26253 net.cpp:186] Top shape: 128 16 32 32 (2097152)
I0927 22:04:50.674324 26253 net.cpp:194] Memory required for data: 51905024
I0927 22:04:50.674341 26253 layer_factory.hpp:77] Creating layer conv2_1_0
I0927 22:04:50.674386 26253 net.cpp:128] Creating Layer conv2_1_0
I0927 22:04:50.674404 26253 net.cpp:558] conv2_1_0 <- conv1_conv1/ReLU_0_split_0
I0927 22:04:50.674427 26253 net.cpp:522] conv2_1_0 -> conv2_1_0
I0927 22:04:50.680788 26253 net.cpp:172] Setting up conv2_1_0
I0927 22:04:50.680819 26253 net.cpp:186] Top shape: 128 16 32 32 (2097152)
I0927 22:04:50.680824 26253 net.cpp:194] Memory required for data: 60293632
I0927 22:04:50.680836 26253 layer_factory.hpp:77] Creating layer conv2_1_bn0
I0927 22:04:50.680847 26253 net.cpp:128] Creating Layer conv2_1_bn0
I0927 22:04:50.680852 26253 net.cpp:558] conv2_1_bn0 <- conv2_1_0
I0927 22:04:50.680860 26253 net.cpp:509] conv2_1_bn0 -> conv2_1_0 (in-place)
I0927 22:04:50.681078 26253 net.cpp:172] Setting up conv2_1_bn0
I0927 22:04:50.681119 26253 net.cpp:186] Top shape: 128 16 32 32 (2097152)
I0927 22:04:50.681138 26253 net.cpp:194] Memory required for data: 68682240
I0927 22:04:50.681162 26253 layer_factory.hpp:77] Creating layer conv2_1_scale0
I0927 22:04:50.681185 26253 net.cpp:128] Creating Layer conv2_1_scale0
I0927 22:04:50.681202 26253 net.cpp:558] conv2_1_scale0 <- conv2_1_0
I0927 22:04:50.681222 26253 net.cpp:509] conv2_1_scale0 -> conv2_1_0 (in-place)
I0927 22:04:50.681279 26253 layer_factory.hpp:77] Creating layer conv2_1_scale0
I0927 22:04:50.681432 26253 net.cpp:172] Setting up conv2_1_scale0
I0927 22:04:50.681455 26253 net.cpp:186] Top shape: 128 16 32 32 (2097152)
I0927 22:04:50.681469 26253 net.cpp:194] Memory required for data: 77070848
I0927 22:04:50.681488 26253 layer_factory.hpp:77] Creating layer conv2_1_ReLU0
I0927 22:04:50.681506 26253 net.cpp:128] Creating Layer conv2_1_ReLU0
I0927 22:04:50.681525 26253 net.cpp:558] conv2_1_ReLU0 <- conv2_1_0
I0927 22:04:50.681541 26253 net.cpp:509] conv2_1_ReLU0 -> conv2_1_0 (in-place)
I0927 22:04:50.682857 26253 net.cpp:172] Setting up conv2_1_ReLU0
I0927 22:04:50.682879 26253 net.cpp:186] Top shape: 128 16 32 32 (2097152)
I0927 22:04:50.682883 26253 net.cpp:194] Memory required for data: 85459456
I0927 22:04:50.682906 26253 layer_factory.hpp:77] Creating layer conv2_1_1
I0927 22:04:50.682919 26253 net.cpp:128] Creating Layer conv2_1_1
I0927 22:04:50.682925 26253 net.cpp:558] conv2_1_1 <- conv2_1_0
I0927 22:04:50.682934 26253 net.cpp:522] conv2_1_1 -> conv2_1_1
I0927 22:04:50.689513 26253 net.cpp:172] Setting up conv2_1_1
I0927 22:04:50.689541 26253 net.cpp:186] Top shape: 128 16 32 32 (2097152)
I0927 22:04:50.689546 26253 net.cpp:194] Memory required for data: 93848064
I0927 22:04:50.689560 26253 layer_factory.hpp:77] Creating layer conv2_1bn1
I0927 22:04:50.689570 26253 net.cpp:128] Creating Layer conv2_1bn1
I0927 22:04:50.689579 26253 net.cpp:558] conv2_1bn1 <- conv2_1_1
I0927 22:04:50.689587 26253 net.cpp:509] conv2_1bn1 -> conv2_1_1 (in-place)
I0927 22:04:50.689810 26253 net.cpp:172] Setting up conv2_1bn1
I0927 22:04:50.689821 26253 net.cpp:186] Top shape: 128 16 32 32 (2097152)
I0927 22:04:50.689826 26253 net.cpp:194] Memory required for data: 102236672
I0927 22:04:50.689838 26253 layer_factory.hpp:77] Creating layer conv2_1_scale1
I0927 22:04:50.689868 26253 net.cpp:128] Creating Layer conv2_1_scale1
I0927 22:04:50.689873 26253 net.cpp:558] conv2_1_scale1 <- conv2_1_1
I0927 22:04:50.689880 26253 net.cpp:509] conv2_1_scale1 -> conv2_1_1 (in-place)
I0927 22:04:50.689918 26253 layer_factory.hpp:77] Creating layer conv2_1_scale1
I0927 22:04:50.690039 26253 net.cpp:172] Setting up conv2_1_scale1
I0927 22:04:50.690078 26253 net.cpp:186] Top shape: 128 16 32 32 (2097152)
I0927 22:04:50.690093 26253 net.cpp:194] Memory required for data: 110625280
I0927 22:04:50.690116 26253 layer_factory.hpp:77] Creating layer conv2_Eltwise_1
I0927 22:04:50.690140 26253 net.cpp:128] Creating Layer conv2_Eltwise_1
I0927 22:04:50.690155 26253 net.cpp:558] conv2_Eltwise_1 <- conv1_conv1/ReLU_0_split_1
I0927 22:04:50.690171 26253 net.cpp:558] conv2_Eltwise_1 <- conv2_1_1
I0927 22:04:50.690196 26253 net.cpp:522] conv2_Eltwise_1 -> conv2_Eltwise_1
I0927 22:04:50.690243 26253 net.cpp:172] Setting up conv2_Eltwise_1
I0927 22:04:50.690263 26253 net.cpp:186] Top shape: 128 16 32 32 (2097152)
I0927 22:04:50.690276 26253 net.cpp:194] Memory required for data: 119013888
I0927 22:04:50.690286 26253 layer_factory.hpp:77] Creating layer conv2_1ReLU_1
I0927 22:04:50.690294 26253 net.cpp:128] Creating Layer conv2_1ReLU_1
I0927 22:04:50.690299 26253 net.cpp:558] conv2_1ReLU_1 <- conv2_Eltwise_1
I0927 22:04:50.690305 26253 net.cpp:509] conv2_1ReLU_1 -> conv2_Eltwise_1 (in-place)
I0927 22:04:50.691578 26253 net.cpp:172] Setting up conv2_1ReLU_1
I0927 22:04:50.691606 26253 net.cpp:186] Top shape: 128 16 32 32 (2097152)
I0927 22:04:50.691610 26253 net.cpp:194] Memory required for data: 127402496
I0927 22:04:50.691617 26253 layer_factory.hpp:77] Creating layer conv2_Eltwise_1_conv2_1ReLU_1_0_split
I0927 22:04:50.691629 26253 net.cpp:128] Creating Layer conv2_Eltwise_1_conv2_1ReLU_1_0_split
I0927 22:04:50.691634 26253 net.cpp:558] conv2_Eltwise_1_conv2_1ReLU_1_0_split <- conv2_Eltwise_1
I0927 22:04:50.691642 26253 net.cpp:522] conv2_Eltwise_1_conv2_1ReLU_1_0_split -> conv2_Eltwise_1_conv2_1ReLU_1_0_split_0
I0927 22:04:50.691655 26253 net.cpp:522] conv2_Eltwise_1_conv2_1ReLU_1_0_split -> conv2_Eltwise_1_conv2_1ReLU_1_0_split_1
I0927 22:04:50.691704 26253 net.cpp:172] Setting up conv2_Eltwise_1_conv2_1ReLU_1_0_split
I0927 22:04:50.691752 26253 net.cpp:186] Top shape: 128 16 32 32 (2097152)
I0927 22:04:50.691772 26253 net.cpp:186] Top shape: 128 16 32 32 (2097152)
I0927 22:04:50.691790 26253 net.cpp:194] Memory required for data: 144179712
I0927 22:04:50.691808 26253 layer_factory.hpp:77] Creating layer conv2_2_0
I0927 22:04:50.691834 26253 net.cpp:128] Creating Layer conv2_2_0
I0927 22:04:50.691854 26253 net.cpp:558] conv2_2_0 <- conv2_Eltwise_1_conv2_1ReLU_1_0_split_0
I0927 22:04:50.691872 26253 net.cpp:522] conv2_2_0 -> conv2_2_0
I0927 22:04:50.698302 26253 net.cpp:172] Setting up conv2_2_0
I0927 22:04:50.698331 26253 net.cpp:186] Top shape: 128 16 32 32 (2097152)
I0927 22:04:50.698336 26253 net.cpp:194] Memory required for data: 152568320
I0927 22:04:50.698364 26253 layer_factory.hpp:77] Creating layer conv2_2_bn0
I0927 22:04:50.698374 26253 net.cpp:128] Creating Layer conv2_2_bn0
I0927 22:04:50.698422 26253 net.cpp:558] conv2_2_bn0 <- conv2_2_0
I0927 22:04:50.698446 26253 net.cpp:509] conv2_2_bn0 -> conv2_2_0 (in-place)
I0927 22:04:50.698693 26253 net.cpp:172] Setting up conv2_2_bn0
I0927 22:04:50.698705 26253 net.cpp:186] Top shape: 128 16 32 32 (2097152)
I0927 22:04:50.698709 26253 net.cpp:194] Memory required for data: 160956928
I0927 22:04:50.698720 26253 layer_factory.hpp:77] Creating layer conv2_2_scale0
I0927 22:04:50.698729 26253 net.cpp:128] Creating Layer conv2_2_scale0
I0927 22:04:50.698734 26253 net.cpp:558] conv2_2_scale0 <- conv2_2_0
I0927 22:04:50.698740 26253 net.cpp:509] conv2_2_scale0 -> conv2_2_0 (in-place)
I0927 22:04:50.698776 26253 layer_factory.hpp:77] Creating layer conv2_2_scale0
I0927 22:04:50.698940 26253 net.cpp:172] Setting up conv2_2_scale0
I0927 22:04:50.698971 26253 net.cpp:186] Top shape: 128 16 32 32 (2097152)
I0927 22:04:50.698988 26253 net.cpp:194] Memory required for data: 169345536
I0927 22:04:50.699012 26253 layer_factory.hpp:77] Creating layer conv2_2_ReLU0
I0927 22:04:50.699033 26253 net.cpp:128] Creating Layer conv2_2_ReLU0
I0927 22:04:50.699053 26253 net.cpp:558] conv2_2_ReLU0 <- conv2_2_0
I0927 22:04:50.699071 26253 net.cpp:509] conv2_2_ReLU0 -> conv2_2_0 (in-place)
I0927 22:04:50.700356 26253 net.cpp:172] Setting up conv2_2_ReLU0
I0927 22:04:50.700374 26253 net.cpp:186] Top shape: 128 16 32 32 (2097152)
I0927 22:04:50.700381 26253 net.cpp:194] Memory required for data: 177734144
I0927 22:04:50.700386 26253 layer_factory.hpp:77] Creating layer conv2_2_1
I0927 22:04:50.700402 26253 net.cpp:128] Creating Layer conv2_2_1
I0927 22:04:50.700407 26253 net.cpp:558] conv2_2_1 <- conv2_2_0
I0927 22:04:50.700414 26253 net.cpp:522] conv2_2_1 -> conv2_2_1
I0927 22:04:50.707037 26253 net.cpp:172] Setting up conv2_2_1
I0927 22:04:50.707064 26253 net.cpp:186] Top shape: 128 16 32 32 (2097152)
I0927 22:04:50.707069 26253 net.cpp:194] Memory required for data: 186122752
I0927 22:04:50.707079 26253 layer_factory.hpp:77] Creating layer conv2_2bn1
I0927 22:04:50.707089 26253 net.cpp:128] Creating Layer conv2_2bn1
I0927 22:04:50.707094 26253 net.cpp:558] conv2_2bn1 <- conv2_2_1
I0927 22:04:50.707103 26253 net.cpp:509] conv2_2bn1 -> conv2_2_1 (in-place)
I0927 22:04:50.707332 26253 net.cpp:172] Setting up conv2_2bn1
I0927 22:04:50.707342 26253 net.cpp:186] Top shape: 128 16 32 32 (2097152)
I0927 22:04:50.707347 26253 net.cpp:194] Memory required for data: 194511360
I0927 22:04:50.707360 26253 layer_factory.hpp:77] Creating layer conv2_2_scale1
I0927 22:04:50.707372 26253 net.cpp:128] Creating Layer conv2_2_scale1
I0927 22:04:50.707377 26253 net.cpp:558] conv2_2_scale1 <- conv2_2_1
I0927 22:04:50.707382 26253 net.cpp:509] conv2_2_scale1 -> conv2_2_1 (in-place)
I0927 22:04:50.707422 26253 layer_factory.hpp:77] Creating layer conv2_2_scale1
I0927 22:04:50.707546 26253 net.cpp:172] Setting up conv2_2_scale1
I0927 22:04:50.707557 26253 net.cpp:186] Top shape: 128 16 32 32 (2097152)
I0927 22:04:50.707562 26253 net.cpp:194] Memory required for data: 202899968
I0927 22:04:50.707569 26253 layer_factory.hpp:77] Creating layer conv2_Eltwise_2
I0927 22:04:50.707577 26253 net.cpp:128] Creating Layer conv2_Eltwise_2
I0927 22:04:50.707582 26253 net.cpp:558] conv2_Eltwise_2 <- conv2_Eltwise_1_conv2_1ReLU_1_0_split_1
I0927 22:04:50.707587 26253 net.cpp:558] conv2_Eltwise_2 <- conv2_2_1
I0927 22:04:50.707593 26253 net.cpp:522] conv2_Eltwise_2 -> conv2_Eltwise_2
I0927 22:04:50.707619 26253 net.cpp:172] Setting up conv2_Eltwise_2
I0927 22:04:50.707626 26253 net.cpp:186] Top shape: 128 16 32 32 (2097152)
I0927 22:04:50.707630 26253 net.cpp:194] Memory required for data: 211288576
I0927 22:04:50.707635 26253 layer_factory.hpp:77] Creating layer conv2_2ReLU_1
I0927 22:04:50.707643 26253 net.cpp:128] Creating Layer conv2_2ReLU_1
I0927 22:04:50.707646 26253 net.cpp:558] conv2_2ReLU_1 <- conv2_Eltwise_2
I0927 22:04:50.707653 26253 net.cpp:509] conv2_2ReLU_1 -> conv2_Eltwise_2 (in-place)
I0927 22:04:50.709127 26253 net.cpp:172] Setting up conv2_2ReLU_1
I0927 22:04:50.709146 26253 net.cpp:186] Top shape: 128 16 32 32 (2097152)
I0927 22:04:50.709151 26253 net.cpp:194] Memory required for data: 219677184
I0927 22:04:50.709156 26253 layer_factory.hpp:77] Creating layer conv2_Eltwise_2_conv2_2ReLU_1_0_split
I0927 22:04:50.709163 26253 net.cpp:128] Creating Layer conv2_Eltwise_2_conv2_2ReLU_1_0_split
I0927 22:04:50.709168 26253 net.cpp:558] conv2_Eltwise_2_conv2_2ReLU_1_0_split <- conv2_Eltwise_2
I0927 22:04:50.709174 26253 net.cpp:522] conv2_Eltwise_2_conv2_2ReLU_1_0_split -> conv2_Eltwise_2_conv2_2ReLU_1_0_split_0
I0927 22:04:50.709183 26253 net.cpp:522] conv2_Eltwise_2_conv2_2ReLU_1_0_split -> conv2_Eltwise_2_conv2_2ReLU_1_0_split_1
I0927 22:04:50.709233 26253 net.cpp:172] Setting up conv2_Eltwise_2_conv2_2ReLU_1_0_split
I0927 22:04:50.709240 26253 net.cpp:186] Top shape: 128 16 32 32 (2097152)
I0927 22:04:50.709246 26253 net.cpp:186] Top shape: 128 16 32 32 (2097152)
I0927 22:04:50.709250 26253 net.cpp:194] Memory required for data: 236454400
I0927 22:04:50.709254 26253 layer_factory.hpp:77] Creating layer conv2_3_0
I0927 22:04:50.709265 26253 net.cpp:128] Creating Layer conv2_3_0
I0927 22:04:50.709270 26253 net.cpp:558] conv2_3_0 <- conv2_Eltwise_2_conv2_2ReLU_1_0_split_0
I0927 22:04:50.709277 26253 net.cpp:522] conv2_3_0 -> conv2_3_0
I0927 22:04:50.715800 26253 net.cpp:172] Setting up conv2_3_0
I0927 22:04:50.715827 26253 net.cpp:186] Top shape: 128 16 32 32 (2097152)
I0927 22:04:50.715831 26253 net.cpp:194] Memory required for data: 244843008
I0927 22:04:50.715842 26253 layer_factory.hpp:77] Creating layer conv2_3_bn0
I0927 22:04:50.715853 26253 net.cpp:128] Creating Layer conv2_3_bn0
I0927 22:04:50.715857 26253 net.cpp:558] conv2_3_bn0 <- conv2_3_0
I0927 22:04:50.715865 26253 net.cpp:509] conv2_3_bn0 -> conv2_3_0 (in-place)
I0927 22:04:50.716095 26253 net.cpp:172] Setting up conv2_3_bn0
I0927 22:04:50.716109 26253 net.cpp:186] Top shape: 128 16 32 32 (2097152)
I0927 22:04:50.716112 26253 net.cpp:194] Memory required for data: 253231616
I0927 22:04:50.716122 26253 layer_factory.hpp:77] Creating layer conv2_3_scale0
I0927 22:04:50.716130 26253 net.cpp:128] Creating Layer conv2_3_scale0
I0927 22:04:50.716135 26253 net.cpp:558] conv2_3_scale0 <- conv2_3_0
I0927 22:04:50.716141 26253 net.cpp:509] conv2_3_scale0 -> conv2_3_0 (in-place)
I0927 22:04:50.716178 26253 layer_factory.hpp:77] Creating layer conv2_3_scale0
I0927 22:04:50.716308 26253 net.cpp:172] Setting up conv2_3_scale0
I0927 22:04:50.716320 26253 net.cpp:186] Top shape: 128 16 32 32 (2097152)
I0927 22:04:50.716326 26253 net.cpp:194] Memory required for data: 261620224
I0927 22:04:50.716333 26253 layer_factory.hpp:77] Creating layer conv2_3_ReLU0
I0927 22:04:50.716341 26253 net.cpp:128] Creating Layer conv2_3_ReLU0
I0927 22:04:50.716346 26253 net.cpp:558] conv2_3_ReLU0 <- conv2_3_0
I0927 22:04:50.716351 26253 net.cpp:509] conv2_3_ReLU0 -> conv2_3_0 (in-place)
I0927 22:04:50.717859 26253 net.cpp:172] Setting up conv2_3_ReLU0
I0927 22:04:50.717885 26253 net.cpp:186] Top shape: 128 16 32 32 (2097152)
I0927 22:04:50.717888 26253 net.cpp:194] Memory required for data: 270008832
I0927 22:04:50.717893 26253 layer_factory.hpp:77] Creating layer conv2_3_1
I0927 22:04:50.717907 26253 net.cpp:128] Creating Layer conv2_3_1
I0927 22:04:50.717912 26253 net.cpp:558] conv2_3_1 <- conv2_3_0
I0927 22:04:50.717921 26253 net.cpp:522] conv2_3_1 -> conv2_3_1
I0927 22:04:50.724525 26253 net.cpp:172] Setting up conv2_3_1
I0927 22:04:50.724555 26253 net.cpp:186] Top shape: 128 16 32 32 (2097152)
I0927 22:04:50.724560 26253 net.cpp:194] Memory required for data: 278397440
I0927 22:04:50.724570 26253 layer_factory.hpp:77] Creating layer conv2_3bn1
I0927 22:04:50.724578 26253 net.cpp:128] Creating Layer conv2_3bn1
I0927 22:04:50.724583 26253 net.cpp:558] conv2_3bn1 <- conv2_3_1
I0927 22:04:50.724592 26253 net.cpp:509] conv2_3bn1 -> conv2_3_1 (in-place)
I0927 22:04:50.724840 26253 net.cpp:172] Setting up conv2_3bn1
I0927 22:04:50.724869 26253 net.cpp:186] Top shape: 128 16 32 32 (2097152)
I0927 22:04:50.724874 26253 net.cpp:194] Memory required for data: 286786048
I0927 22:04:50.724884 26253 layer_factory.hpp:77] Creating layer conv2_3_scale1
I0927 22:04:50.724896 26253 net.cpp:128] Creating Layer conv2_3_scale1
I0927 22:04:50.724901 26253 net.cpp:558] conv2_3_scale1 <- conv2_3_1
I0927 22:04:50.724907 26253 net.cpp:509] conv2_3_scale1 -> conv2_3_1 (in-place)
I0927 22:04:50.724951 26253 layer_factory.hpp:77] Creating layer conv2_3_scale1
I0927 22:04:50.725097 26253 net.cpp:172] Setting up conv2_3_scale1
I0927 22:04:50.725111 26253 net.cpp:186] Top shape: 128 16 32 32 (2097152)
I0927 22:04:50.725114 26253 net.cpp:194] Memory required for data: 295174656
I0927 22:04:50.725122 26253 layer_factory.hpp:77] Creating layer conv2_Eltwise_3
I0927 22:04:50.725129 26253 net.cpp:128] Creating Layer conv2_Eltwise_3
I0927 22:04:50.725134 26253 net.cpp:558] conv2_Eltwise_3 <- conv2_Eltwise_2_conv2_2ReLU_1_0_split_1
I0927 22:04:50.725139 26253 net.cpp:558] conv2_Eltwise_3 <- conv2_3_1
I0927 22:04:50.725148 26253 net.cpp:522] conv2_Eltwise_3 -> conv2_Eltwise_3
I0927 22:04:50.725176 26253 net.cpp:172] Setting up conv2_Eltwise_3
I0927 22:04:50.725183 26253 net.cpp:186] Top shape: 128 16 32 32 (2097152)
I0927 22:04:50.725188 26253 net.cpp:194] Memory required for data: 303563264
I0927 22:04:50.725191 26253 layer_factory.hpp:77] Creating layer conv2_3ReLU_1
I0927 22:04:50.725198 26253 net.cpp:128] Creating Layer conv2_3ReLU_1
I0927 22:04:50.725203 26253 net.cpp:558] conv2_3ReLU_1 <- conv2_Eltwise_3
I0927 22:04:50.725210 26253 net.cpp:509] conv2_3ReLU_1 -> conv2_Eltwise_3 (in-place)
I0927 22:04:50.726615 26253 net.cpp:172] Setting up conv2_3ReLU_1
I0927 22:04:50.726634 26253 net.cpp:186] Top shape: 128 16 32 32 (2097152)
I0927 22:04:50.726639 26253 net.cpp:194] Memory required for data: 311951872
I0927 22:04:50.726642 26253 layer_factory.hpp:77] Creating layer conv2_Eltwise_3_conv2_3ReLU_1_0_split
I0927 22:04:50.726649 26253 net.cpp:128] Creating Layer conv2_Eltwise_3_conv2_3ReLU_1_0_split
I0927 22:04:50.726655 26253 net.cpp:558] conv2_Eltwise_3_conv2_3ReLU_1_0_split <- conv2_Eltwise_3
I0927 22:04:50.726665 26253 net.cpp:522] conv2_Eltwise_3_conv2_3ReLU_1_0_split -> conv2_Eltwise_3_conv2_3ReLU_1_0_split_0
I0927 22:04:50.726672 26253 net.cpp:522] conv2_Eltwise_3_conv2_3ReLU_1_0_split -> conv2_Eltwise_3_conv2_3ReLU_1_0_split_1
I0927 22:04:50.726724 26253 net.cpp:172] Setting up conv2_Eltwise_3_conv2_3ReLU_1_0_split
I0927 22:04:50.726732 26253 net.cpp:186] Top shape: 128 16 32 32 (2097152)
I0927 22:04:50.726737 26253 net.cpp:186] Top shape: 128 16 32 32 (2097152)
I0927 22:04:50.726742 26253 net.cpp:194] Memory required for data: 328729088
I0927 22:04:50.726745 26253 layer_factory.hpp:77] Creating layer conv2_4_0
I0927 22:04:50.726760 26253 net.cpp:128] Creating Layer conv2_4_0
I0927 22:04:50.726765 26253 net.cpp:558] conv2_4_0 <- conv2_Eltwise_3_conv2_3ReLU_1_0_split_0
I0927 22:04:50.726773 26253 net.cpp:522] conv2_4_0 -> conv2_4_0
I0927 22:04:50.733290 26253 net.cpp:172] Setting up conv2_4_0
I0927 22:04:50.733317 26253 net.cpp:186] Top shape: 128 16 32 32 (2097152)
I0927 22:04:50.733321 26253 net.cpp:194] Memory required for data: 337117696
I0927 22:04:50.733331 26253 layer_factory.hpp:77] Creating layer conv2_4_bn0
I0927 22:04:50.733343 26253 net.cpp:128] Creating Layer conv2_4_bn0
I0927 22:04:50.733348 26253 net.cpp:558] conv2_4_bn0 <- conv2_4_0
I0927 22:04:50.733357 26253 net.cpp:509] conv2_4_bn0 -> conv2_4_0 (in-place)
I0927 22:04:50.733599 26253 net.cpp:172] Setting up conv2_4_bn0
I0927 22:04:50.733613 26253 net.cpp:186] Top shape: 128 16 32 32 (2097152)
I0927 22:04:50.733616 26253 net.cpp:194] Memory required for data: 345506304
I0927 22:04:50.733626 26253 layer_factory.hpp:77] Creating layer conv2_4_scale0
I0927 22:04:50.733635 26253 net.cpp:128] Creating Layer conv2_4_scale0
I0927 22:04:50.733640 26253 net.cpp:558] conv2_4_scale0 <- conv2_4_0
I0927 22:04:50.733645 26253 net.cpp:509] conv2_4_scale0 -> conv2_4_0 (in-place)
I0927 22:04:50.733686 26253 layer_factory.hpp:77] Creating layer conv2_4_scale0
I0927 22:04:50.733841 26253 net.cpp:172] Setting up conv2_4_scale0
I0927 22:04:50.733850 26253 net.cpp:186] Top shape: 128 16 32 32 (2097152)
I0927 22:04:50.733853 26253 net.cpp:194] Memory required for data: 353894912
I0927 22:04:50.733861 26253 layer_factory.hpp:77] Creating layer conv2_4_ReLU0
I0927 22:04:50.733868 26253 net.cpp:128] Creating Layer conv2_4_ReLU0
I0927 22:04:50.733872 26253 net.cpp:558] conv2_4_ReLU0 <- conv2_4_0
I0927 22:04:50.733880 26253 net.cpp:509] conv2_4_ReLU0 -> conv2_4_0 (in-place)
I0927 22:04:50.735335 26253 net.cpp:172] Setting up conv2_4_ReLU0
I0927 22:04:50.735355 26253 net.cpp:186] Top shape: 128 16 32 32 (2097152)
I0927 22:04:50.735360 26253 net.cpp:194] Memory required for data: 362283520
I0927 22:04:50.735364 26253 layer_factory.hpp:77] Creating layer conv2_4_1
I0927 22:04:50.735379 26253 net.cpp:128] Creating Layer conv2_4_1
I0927 22:04:50.735385 26253 net.cpp:558] conv2_4_1 <- conv2_4_0
I0927 22:04:50.735395 26253 net.cpp:522] conv2_4_1 -> conv2_4_1
I0927 22:04:50.742063 26253 net.cpp:172] Setting up conv2_4_1
I0927 22:04:50.742091 26253 net.cpp:186] Top shape: 128 16 32 32 (2097152)
I0927 22:04:50.742095 26253 net.cpp:194] Memory required for data: 370672128
I0927 22:04:50.742105 26253 layer_factory.hpp:77] Creating layer conv2_4bn1
I0927 22:04:50.742115 26253 net.cpp:128] Creating Layer conv2_4bn1
I0927 22:04:50.742120 26253 net.cpp:558] conv2_4bn1 <- conv2_4_1
I0927 22:04:50.742128 26253 net.cpp:509] conv2_4bn1 -> conv2_4_1 (in-place)
I0927 22:04:50.742377 26253 net.cpp:172] Setting up conv2_4bn1
I0927 22:04:50.742391 26253 net.cpp:186] Top shape: 128 16 32 32 (2097152)
I0927 22:04:50.742395 26253 net.cpp:194] Memory required for data: 379060736
I0927 22:04:50.742405 26253 layer_factory.hpp:77] Creating layer conv2_4_scale1
I0927 22:04:50.742413 26253 net.cpp:128] Creating Layer conv2_4_scale1
I0927 22:04:50.742416 26253 net.cpp:558] conv2_4_scale1 <- conv2_4_1
I0927 22:04:50.742424 26253 net.cpp:509] conv2_4_scale1 -> conv2_4_1 (in-place)
I0927 22:04:50.742462 26253 layer_factory.hpp:77] Creating layer conv2_4_scale1
I0927 22:04:50.742596 26253 net.cpp:172] Setting up conv2_4_scale1
I0927 22:04:50.742604 26253 net.cpp:186] Top shape: 128 16 32 32 (2097152)
I0927 22:04:50.742607 26253 net.cpp:194] Memory required for data: 387449344
I0927 22:04:50.742615 26253 layer_factory.hpp:77] Creating layer conv2_Eltwise_4
I0927 22:04:50.742625 26253 net.cpp:128] Creating Layer conv2_Eltwise_4
I0927 22:04:50.742630 26253 net.cpp:558] conv2_Eltwise_4 <- conv2_Eltwise_3_conv2_3ReLU_1_0_split_1
I0927 22:04:50.742635 26253 net.cpp:558] conv2_Eltwise_4 <- conv2_4_1
I0927 22:04:50.742641 26253 net.cpp:522] conv2_Eltwise_4 -> conv2_Eltwise_4
I0927 22:04:50.742668 26253 net.cpp:172] Setting up conv2_Eltwise_4
I0927 22:04:50.742676 26253 net.cpp:186] Top shape: 128 16 32 32 (2097152)
I0927 22:04:50.742679 26253 net.cpp:194] Memory required for data: 395837952
I0927 22:04:50.742684 26253 layer_factory.hpp:77] Creating layer conv2_4ReLU_1
I0927 22:04:50.742691 26253 net.cpp:128] Creating Layer conv2_4ReLU_1
I0927 22:04:50.742694 26253 net.cpp:558] conv2_4ReLU_1 <- conv2_Eltwise_4
I0927 22:04:50.742702 26253 net.cpp:509] conv2_4ReLU_1 -> conv2_Eltwise_4 (in-place)
I0927 22:04:50.744113 26253 net.cpp:172] Setting up conv2_4ReLU_1
I0927 22:04:50.744133 26253 net.cpp:186] Top shape: 128 16 32 32 (2097152)
I0927 22:04:50.744138 26253 net.cpp:194] Memory required for data: 404226560
I0927 22:04:50.744143 26253 layer_factory.hpp:77] Creating layer conv2_Eltwise_4_conv2_4ReLU_1_0_split
I0927 22:04:50.744150 26253 net.cpp:128] Creating Layer conv2_Eltwise_4_conv2_4ReLU_1_0_split
I0927 22:04:50.744158 26253 net.cpp:558] conv2_Eltwise_4_conv2_4ReLU_1_0_split <- conv2_Eltwise_4
I0927 22:04:50.744164 26253 net.cpp:522] conv2_Eltwise_4_conv2_4ReLU_1_0_split -> conv2_Eltwise_4_conv2_4ReLU_1_0_split_0
I0927 22:04:50.744172 26253 net.cpp:522] conv2_Eltwise_4_conv2_4ReLU_1_0_split -> conv2_Eltwise_4_conv2_4ReLU_1_0_split_1
I0927 22:04:50.744221 26253 net.cpp:172] Setting up conv2_Eltwise_4_conv2_4ReLU_1_0_split
I0927 22:04:50.744244 26253 net.cpp:186] Top shape: 128 16 32 32 (2097152)
I0927 22:04:50.744251 26253 net.cpp:186] Top shape: 128 16 32 32 (2097152)
I0927 22:04:50.744254 26253 net.cpp:194] Memory required for data: 421003776
I0927 22:04:50.744259 26253 layer_factory.hpp:77] Creating layer conv2_5_0
I0927 22:04:50.744271 26253 net.cpp:128] Creating Layer conv2_5_0
I0927 22:04:50.744277 26253 net.cpp:558] conv2_5_0 <- conv2_Eltwise_4_conv2_4ReLU_1_0_split_0
I0927 22:04:50.744287 26253 net.cpp:522] conv2_5_0 -> conv2_5_0
I0927 22:04:50.750849 26253 net.cpp:172] Setting up conv2_5_0
I0927 22:04:50.750875 26253 net.cpp:186] Top shape: 128 16 32 32 (2097152)
I0927 22:04:50.750880 26253 net.cpp:194] Memory required for data: 429392384
I0927 22:04:50.750901 26253 layer_factory.hpp:77] Creating layer conv2_5_bn0
I0927 22:04:50.750913 26253 net.cpp:128] Creating Layer conv2_5_bn0
I0927 22:04:50.750919 26253 net.cpp:558] conv2_5_bn0 <- conv2_5_0
I0927 22:04:50.750928 26253 net.cpp:509] conv2_5_bn0 -> conv2_5_0 (in-place)
I0927 22:04:50.751169 26253 net.cpp:172] Setting up conv2_5_bn0
I0927 22:04:50.751181 26253 net.cpp:186] Top shape: 128 16 32 32 (2097152)
I0927 22:04:50.751186 26253 net.cpp:194] Memory required for data: 437780992
I0927 22:04:50.751196 26253 layer_factory.hpp:77] Creating layer conv2_5_scale0
I0927 22:04:50.751206 26253 net.cpp:128] Creating Layer conv2_5_scale0
I0927 22:04:50.751210 26253 net.cpp:558] conv2_5_scale0 <- conv2_5_0
I0927 22:04:50.751216 26253 net.cpp:509] conv2_5_scale0 -> conv2_5_0 (in-place)
I0927 22:04:50.751255 26253 layer_factory.hpp:77] Creating layer conv2_5_scale0
I0927 22:04:50.751395 26253 net.cpp:172] Setting up conv2_5_scale0
I0927 22:04:50.751402 26253 net.cpp:186] Top shape: 128 16 32 32 (2097152)
I0927 22:04:50.751406 26253 net.cpp:194] Memory required for data: 446169600
I0927 22:04:50.751415 26253 layer_factory.hpp:77] Creating layer conv2_5_ReLU0
I0927 22:04:50.751421 26253 net.cpp:128] Creating Layer conv2_5_ReLU0
I0927 22:04:50.751425 26253 net.cpp:558] conv2_5_ReLU0 <- conv2_5_0
I0927 22:04:50.751433 26253 net.cpp:509] conv2_5_ReLU0 -> conv2_5_0 (in-place)
I0927 22:04:50.752933 26253 net.cpp:172] Setting up conv2_5_ReLU0
I0927 22:04:50.752959 26253 net.cpp:186] Top shape: 128 16 32 32 (2097152)
I0927 22:04:50.752964 26253 net.cpp:194] Memory required for data: 454558208
I0927 22:04:50.752969 26253 layer_factory.hpp:77] Creating layer conv2_5_1
I0927 22:04:50.752985 26253 net.cpp:128] Creating Layer conv2_5_1
I0927 22:04:50.752991 26253 net.cpp:558] conv2_5_1 <- conv2_5_0
I0927 22:04:50.753006 26253 net.cpp:522] conv2_5_1 -> conv2_5_1
I0927 22:04:50.759644 26253 net.cpp:172] Setting up conv2_5_1
I0927 22:04:50.759672 26253 net.cpp:186] Top shape: 128 16 32 32 (2097152)
I0927 22:04:50.759676 26253 net.cpp:194] Memory required for data: 462946816
I0927 22:04:50.759686 26253 layer_factory.hpp:77] Creating layer conv2_5bn1
I0927 22:04:50.759698 26253 net.cpp:128] Creating Layer conv2_5bn1
I0927 22:04:50.759703 26253 net.cpp:558] conv2_5bn1 <- conv2_5_1
I0927 22:04:50.759713 26253 net.cpp:509] conv2_5bn1 -> conv2_5_1 (in-place)
I0927 22:04:50.759965 26253 net.cpp:172] Setting up conv2_5bn1
I0927 22:04:50.759979 26253 net.cpp:186] Top shape: 128 16 32 32 (2097152)
I0927 22:04:50.759982 26253 net.cpp:194] Memory required for data: 471335424
I0927 22:04:50.759992 26253 layer_factory.hpp:77] Creating layer conv2_5_scale1
I0927 22:04:50.760001 26253 net.cpp:128] Creating Layer conv2_5_scale1
I0927 22:04:50.760006 26253 net.cpp:558] conv2_5_scale1 <- conv2_5_1
I0927 22:04:50.760012 26253 net.cpp:509] conv2_5_scale1 -> conv2_5_1 (in-place)
I0927 22:04:50.760053 26253 layer_factory.hpp:77] Creating layer conv2_5_scale1
I0927 22:04:50.760195 26253 net.cpp:172] Setting up conv2_5_scale1
I0927 22:04:50.760213 26253 net.cpp:186] Top shape: 128 16 32 32 (2097152)
I0927 22:04:50.760218 26253 net.cpp:194] Memory required for data: 479724032
I0927 22:04:50.760226 26253 layer_factory.hpp:77] Creating layer conv2_Eltwise_5
I0927 22:04:50.760232 26253 net.cpp:128] Creating Layer conv2_Eltwise_5
I0927 22:04:50.760253 26253 net.cpp:558] conv2_Eltwise_5 <- conv2_Eltwise_4_conv2_4ReLU_1_0_split_1
I0927 22:04:50.760259 26253 net.cpp:558] conv2_Eltwise_5 <- conv2_5_1
I0927 22:04:50.760268 26253 net.cpp:522] conv2_Eltwise_5 -> conv2_Eltwise_5
I0927 22:04:50.760298 26253 net.cpp:172] Setting up conv2_Eltwise_5
I0927 22:04:50.760305 26253 net.cpp:186] Top shape: 128 16 32 32 (2097152)
I0927 22:04:50.760309 26253 net.cpp:194] Memory required for data: 488112640
I0927 22:04:50.760314 26253 layer_factory.hpp:77] Creating layer conv2_5ReLU_1
I0927 22:04:50.760320 26253 net.cpp:128] Creating Layer conv2_5ReLU_1
I0927 22:04:50.760324 26253 net.cpp:558] conv2_5ReLU_1 <- conv2_Eltwise_5
I0927 22:04:50.760332 26253 net.cpp:509] conv2_5ReLU_1 -> conv2_Eltwise_5 (in-place)
I0927 22:04:50.761696 26253 net.cpp:172] Setting up conv2_5ReLU_1
I0927 22:04:50.761715 26253 net.cpp:186] Top shape: 128 16 32 32 (2097152)
I0927 22:04:50.761719 26253 net.cpp:194] Memory required for data: 496501248
I0927 22:04:50.761724 26253 layer_factory.hpp:77] Creating layer conv2_Eltwise_5_conv2_5ReLU_1_0_split
I0927 22:04:50.761731 26253 net.cpp:128] Creating Layer conv2_Eltwise_5_conv2_5ReLU_1_0_split
I0927 22:04:50.761735 26253 net.cpp:558] conv2_Eltwise_5_conv2_5ReLU_1_0_split <- conv2_Eltwise_5
I0927 22:04:50.761744 26253 net.cpp:522] conv2_Eltwise_5_conv2_5ReLU_1_0_split -> conv2_Eltwise_5_conv2_5ReLU_1_0_split_0
I0927 22:04:50.761754 26253 net.cpp:522] conv2_Eltwise_5_conv2_5ReLU_1_0_split -> conv2_Eltwise_5_conv2_5ReLU_1_0_split_1
I0927 22:04:50.761802 26253 net.cpp:172] Setting up conv2_Eltwise_5_conv2_5ReLU_1_0_split
I0927 22:04:50.761811 26253 net.cpp:186] Top shape: 128 16 32 32 (2097152)
I0927 22:04:50.761816 26253 net.cpp:186] Top shape: 128 16 32 32 (2097152)
I0927 22:04:50.761819 26253 net.cpp:194] Memory required for data: 513278464
I0927 22:04:50.761824 26253 layer_factory.hpp:77] Creating layer conv2_6_0
I0927 22:04:50.761837 26253 net.cpp:128] Creating Layer conv2_6_0
I0927 22:04:50.761842 26253 net.cpp:558] conv2_6_0 <- conv2_Eltwise_5_conv2_5ReLU_1_0_split_0
I0927 22:04:50.761852 26253 net.cpp:522] conv2_6_0 -> conv2_6_0
I0927 22:04:50.768419 26253 net.cpp:172] Setting up conv2_6_0
I0927 22:04:50.768445 26253 net.cpp:186] Top shape: 128 16 32 32 (2097152)
I0927 22:04:50.768450 26253 net.cpp:194] Memory required for data: 521667072
I0927 22:04:50.768460 26253 layer_factory.hpp:77] Creating layer conv2_6_bn0
I0927 22:04:50.768472 26253 net.cpp:128] Creating Layer conv2_6_bn0
I0927 22:04:50.768477 26253 net.cpp:558] conv2_6_bn0 <- conv2_6_0
I0927 22:04:50.768486 26253 net.cpp:509] conv2_6_bn0 -> conv2_6_0 (in-place)
I0927 22:04:50.768738 26253 net.cpp:172] Setting up conv2_6_bn0
I0927 22:04:50.768751 26253 net.cpp:186] Top shape: 128 16 32 32 (2097152)
I0927 22:04:50.768756 26253 net.cpp:194] Memory required for data: 530055680
I0927 22:04:50.768765 26253 layer_factory.hpp:77] Creating layer conv2_6_scale0
I0927 22:04:50.768779 26253 net.cpp:128] Creating Layer conv2_6_scale0
I0927 22:04:50.768784 26253 net.cpp:558] conv2_6_scale0 <- conv2_6_0
I0927 22:04:50.768790 26253 net.cpp:509] conv2_6_scale0 -> conv2_6_0 (in-place)
I0927 22:04:50.768831 26253 layer_factory.hpp:77] Creating layer conv2_6_scale0
I0927 22:04:50.768970 26253 net.cpp:172] Setting up conv2_6_scale0
I0927 22:04:50.768976 26253 net.cpp:186] Top shape: 128 16 32 32 (2097152)
I0927 22:04:50.768980 26253 net.cpp:194] Memory required for data: 538444288
I0927 22:04:50.768987 26253 layer_factory.hpp:77] Creating layer conv2_6_ReLU0
I0927 22:04:50.768995 26253 net.cpp:128] Creating Layer conv2_6_ReLU0
I0927 22:04:50.768998 26253 net.cpp:558] conv2_6_ReLU0 <- conv2_6_0
I0927 22:04:50.769006 26253 net.cpp:509] conv2_6_ReLU0 -> conv2_6_0 (in-place)
I0927 22:04:50.770490 26253 net.cpp:172] Setting up conv2_6_ReLU0
I0927 22:04:50.770509 26253 net.cpp:186] Top shape: 128 16 32 32 (2097152)
I0927 22:04:50.770514 26253 net.cpp:194] Memory required for data: 546832896
I0927 22:04:50.770517 26253 layer_factory.hpp:77] Creating layer conv2_6_1
I0927 22:04:50.770547 26253 net.cpp:128] Creating Layer conv2_6_1
I0927 22:04:50.770555 26253 net.cpp:558] conv2_6_1 <- conv2_6_0
I0927 22:04:50.770566 26253 net.cpp:522] conv2_6_1 -> conv2_6_1
I0927 22:04:50.777218 26253 net.cpp:172] Setting up conv2_6_1
I0927 22:04:50.777245 26253 net.cpp:186] Top shape: 128 16 32 32 (2097152)
I0927 22:04:50.777251 26253 net.cpp:194] Memory required for data: 555221504
I0927 22:04:50.777261 26253 layer_factory.hpp:77] Creating layer conv2_6bn1
I0927 22:04:50.777268 26253 net.cpp:128] Creating Layer conv2_6bn1
I0927 22:04:50.777273 26253 net.cpp:558] conv2_6bn1 <- conv2_6_1
I0927 22:04:50.777283 26253 net.cpp:509] conv2_6bn1 -> conv2_6_1 (in-place)
I0927 22:04:50.777537 26253 net.cpp:172] Setting up conv2_6bn1
I0927 22:04:50.777544 26253 net.cpp:186] Top shape: 128 16 32 32 (2097152)
I0927 22:04:50.777549 26253 net.cpp:194] Memory required for data: 563610112
I0927 22:04:50.777559 26253 layer_factory.hpp:77] Creating layer conv2_6_scale1
I0927 22:04:50.777565 26253 net.cpp:128] Creating Layer conv2_6_scale1
I0927 22:04:50.777570 26253 net.cpp:558] conv2_6_scale1 <- conv2_6_1
I0927 22:04:50.777580 26253 net.cpp:509] conv2_6_scale1 -> conv2_6_1 (in-place)
I0927 22:04:50.777617 26253 layer_factory.hpp:77] Creating layer conv2_6_scale1
I0927 22:04:50.777757 26253 net.cpp:172] Setting up conv2_6_scale1
I0927 22:04:50.777767 26253 net.cpp:186] Top shape: 128 16 32 32 (2097152)
I0927 22:04:50.777771 26253 net.cpp:194] Memory required for data: 571998720
I0927 22:04:50.777778 26253 layer_factory.hpp:77] Creating layer conv2_Eltwise_6
I0927 22:04:50.777786 26253 net.cpp:128] Creating Layer conv2_Eltwise_6
I0927 22:04:50.777791 26253 net.cpp:558] conv2_Eltwise_6 <- conv2_Eltwise_5_conv2_5ReLU_1_0_split_1
I0927 22:04:50.777796 26253 net.cpp:558] conv2_Eltwise_6 <- conv2_6_1
I0927 22:04:50.777802 26253 net.cpp:522] conv2_Eltwise_6 -> conv2_Eltwise_6
I0927 22:04:50.777833 26253 net.cpp:172] Setting up conv2_Eltwise_6
I0927 22:04:50.777842 26253 net.cpp:186] Top shape: 128 16 32 32 (2097152)
I0927 22:04:50.777845 26253 net.cpp:194] Memory required for data: 580387328
I0927 22:04:50.777849 26253 layer_factory.hpp:77] Creating layer conv2_6ReLU_1
I0927 22:04:50.777860 26253 net.cpp:128] Creating Layer conv2_6ReLU_1
I0927 22:04:50.777865 26253 net.cpp:558] conv2_6ReLU_1 <- conv2_Eltwise_6
I0927 22:04:50.777871 26253 net.cpp:509] conv2_6ReLU_1 -> conv2_Eltwise_6 (in-place)
I0927 22:04:50.779278 26253 net.cpp:172] Setting up conv2_6ReLU_1
I0927 22:04:50.779301 26253 net.cpp:186] Top shape: 128 16 32 32 (2097152)
I0927 22:04:50.779306 26253 net.cpp:194] Memory required for data: 588775936
I0927 22:04:50.779312 26253 layer_factory.hpp:77] Creating layer conv2_Eltwise_6_conv2_6ReLU_1_0_split
I0927 22:04:50.779322 26253 net.cpp:128] Creating Layer conv2_Eltwise_6_conv2_6ReLU_1_0_split
I0927 22:04:50.779328 26253 net.cpp:558] conv2_Eltwise_6_conv2_6ReLU_1_0_split <- conv2_Eltwise_6
I0927 22:04:50.779337 26253 net.cpp:522] conv2_Eltwise_6_conv2_6ReLU_1_0_split -> conv2_Eltwise_6_conv2_6ReLU_1_0_split_0
I0927 22:04:50.779346 26253 net.cpp:522] conv2_Eltwise_6_conv2_6ReLU_1_0_split -> conv2_Eltwise_6_conv2_6ReLU_1_0_split_1
I0927 22:04:50.779399 26253 net.cpp:172] Setting up conv2_Eltwise_6_conv2_6ReLU_1_0_split
I0927 22:04:50.779410 26253 net.cpp:186] Top shape: 128 16 32 32 (2097152)
I0927 22:04:50.779417 26253 net.cpp:186] Top shape: 128 16 32 32 (2097152)
I0927 22:04:50.779420 26253 net.cpp:194] Memory required for data: 605553152
I0927 22:04:50.779424 26253 layer_factory.hpp:77] Creating layer conv2_7_0
I0927 22:04:50.779438 26253 net.cpp:128] Creating Layer conv2_7_0
I0927 22:04:50.779443 26253 net.cpp:558] conv2_7_0 <- conv2_Eltwise_6_conv2_6ReLU_1_0_split_0
I0927 22:04:50.779449 26253 net.cpp:522] conv2_7_0 -> conv2_7_0
I0927 22:04:50.786026 26253 net.cpp:172] Setting up conv2_7_0
I0927 22:04:50.786054 26253 net.cpp:186] Top shape: 128 16 32 32 (2097152)
I0927 22:04:50.786058 26253 net.cpp:194] Memory required for data: 613941760
I0927 22:04:50.786068 26253 layer_factory.hpp:77] Creating layer conv2_7_bn0
I0927 22:04:50.786096 26253 net.cpp:128] Creating Layer conv2_7_bn0
I0927 22:04:50.786103 26253 net.cpp:558] conv2_7_bn0 <- conv2_7_0
I0927 22:04:50.786110 26253 net.cpp:509] conv2_7_bn0 -> conv2_7_0 (in-place)
I0927 22:04:50.786365 26253 net.cpp:172] Setting up conv2_7_bn0
I0927 22:04:50.786379 26253 net.cpp:186] Top shape: 128 16 32 32 (2097152)
I0927 22:04:50.786383 26253 net.cpp:194] Memory required for data: 622330368
I0927 22:04:50.786393 26253 layer_factory.hpp:77] Creating layer conv2_7_scale0
I0927 22:04:50.786401 26253 net.cpp:128] Creating Layer conv2_7_scale0
I0927 22:04:50.786404 26253 net.cpp:558] conv2_7_scale0 <- conv2_7_0
I0927 22:04:50.786411 26253 net.cpp:509] conv2_7_scale0 -> conv2_7_0 (in-place)
I0927 22:04:50.786454 26253 layer_factory.hpp:77] Creating layer conv2_7_scale0
I0927 22:04:50.786592 26253 net.cpp:172] Setting up conv2_7_scale0
I0927 22:04:50.786599 26253 net.cpp:186] Top shape: 128 16 32 32 (2097152)
I0927 22:04:50.786602 26253 net.cpp:194] Memory required for data: 630718976
I0927 22:04:50.786610 26253 layer_factory.hpp:77] Creating layer conv2_7_ReLU0
I0927 22:04:50.786619 26253 net.cpp:128] Creating Layer conv2_7_ReLU0
I0927 22:04:50.786624 26253 net.cpp:558] conv2_7_ReLU0 <- conv2_7_0
I0927 22:04:50.786633 26253 net.cpp:509] conv2_7_ReLU0 -> conv2_7_0 (in-place)
I0927 22:04:50.788105 26253 net.cpp:172] Setting up conv2_7_ReLU0
I0927 22:04:50.788125 26253 net.cpp:186] Top shape: 128 16 32 32 (2097152)
I0927 22:04:50.788130 26253 net.cpp:194] Memory required for data: 639107584
I0927 22:04:50.788134 26253 layer_factory.hpp:77] Creating layer conv2_7_1
I0927 22:04:50.788151 26253 net.cpp:128] Creating Layer conv2_7_1
I0927 22:04:50.788156 26253 net.cpp:558] conv2_7_1 <- conv2_7_0
I0927 22:04:50.788170 26253 net.cpp:522] conv2_7_1 -> conv2_7_1
I0927 22:04:50.794819 26253 net.cpp:172] Setting up conv2_7_1
I0927 22:04:50.794847 26253 net.cpp:186] Top shape: 128 16 32 32 (2097152)
I0927 22:04:50.794850 26253 net.cpp:194] Memory required for data: 647496192
I0927 22:04:50.794860 26253 layer_factory.hpp:77] Creating layer conv2_7bn1
I0927 22:04:50.794872 26253 net.cpp:128] Creating Layer conv2_7bn1
I0927 22:04:50.794878 26253 net.cpp:558] conv2_7bn1 <- conv2_7_1
I0927 22:04:50.794886 26253 net.cpp:509] conv2_7bn1 -> conv2_7_1 (in-place)
I0927 22:04:50.795138 26253 net.cpp:172] Setting up conv2_7bn1
I0927 22:04:50.795151 26253 net.cpp:186] Top shape: 128 16 32 32 (2097152)
I0927 22:04:50.795156 26253 net.cpp:194] Memory required for data: 655884800
I0927 22:04:50.795164 26253 layer_factory.hpp:77] Creating layer conv2_7_scale1
I0927 22:04:50.795173 26253 net.cpp:128] Creating Layer conv2_7_scale1
I0927 22:04:50.795178 26253 net.cpp:558] conv2_7_scale1 <- conv2_7_1
I0927 22:04:50.795183 26253 net.cpp:509] conv2_7_scale1 -> conv2_7_1 (in-place)
I0927 22:04:50.795225 26253 layer_factory.hpp:77] Creating layer conv2_7_scale1
I0927 22:04:50.795366 26253 net.cpp:172] Setting up conv2_7_scale1
I0927 22:04:50.795373 26253 net.cpp:186] Top shape: 128 16 32 32 (2097152)
I0927 22:04:50.795377 26253 net.cpp:194] Memory required for data: 664273408
I0927 22:04:50.795385 26253 layer_factory.hpp:77] Creating layer conv2_Eltwise_7
I0927 22:04:50.795392 26253 net.cpp:128] Creating Layer conv2_Eltwise_7
I0927 22:04:50.795397 26253 net.cpp:558] conv2_Eltwise_7 <- conv2_Eltwise_6_conv2_6ReLU_1_0_split_1
I0927 22:04:50.795403 26253 net.cpp:558] conv2_Eltwise_7 <- conv2_7_1
I0927 22:04:50.795410 26253 net.cpp:522] conv2_Eltwise_7 -> conv2_Eltwise_7
I0927 22:04:50.795439 26253 net.cpp:172] Setting up conv2_Eltwise_7
I0927 22:04:50.795445 26253 net.cpp:186] Top shape: 128 16 32 32 (2097152)
I0927 22:04:50.795449 26253 net.cpp:194] Memory required for data: 672662016
I0927 22:04:50.795454 26253 layer_factory.hpp:77] Creating layer conv2_7ReLU_1
I0927 22:04:50.795460 26253 net.cpp:128] Creating Layer conv2_7ReLU_1
I0927 22:04:50.795464 26253 net.cpp:558] conv2_7ReLU_1 <- conv2_Eltwise_7
I0927 22:04:50.795471 26253 net.cpp:509] conv2_7ReLU_1 -> conv2_Eltwise_7 (in-place)
I0927 22:04:50.796898 26253 net.cpp:172] Setting up conv2_7ReLU_1
I0927 22:04:50.796933 26253 net.cpp:186] Top shape: 128 16 32 32 (2097152)
I0927 22:04:50.796938 26253 net.cpp:194] Memory required for data: 681050624
I0927 22:04:50.796943 26253 layer_factory.hpp:77] Creating layer conv2_Eltwise_7_conv2_7ReLU_1_0_split
I0927 22:04:50.796952 26253 net.cpp:128] Creating Layer conv2_Eltwise_7_conv2_7ReLU_1_0_split
I0927 22:04:50.796957 26253 net.cpp:558] conv2_Eltwise_7_conv2_7ReLU_1_0_split <- conv2_Eltwise_7
I0927 22:04:50.796967 26253 net.cpp:522] conv2_Eltwise_7_conv2_7ReLU_1_0_split -> conv2_Eltwise_7_conv2_7ReLU_1_0_split_0
I0927 22:04:50.796975 26253 net.cpp:522] conv2_Eltwise_7_conv2_7ReLU_1_0_split -> conv2_Eltwise_7_conv2_7ReLU_1_0_split_1
I0927 22:04:50.797026 26253 net.cpp:172] Setting up conv2_Eltwise_7_conv2_7ReLU_1_0_split
I0927 22:04:50.797034 26253 net.cpp:186] Top shape: 128 16 32 32 (2097152)
I0927 22:04:50.797040 26253 net.cpp:186] Top shape: 128 16 32 32 (2097152)
I0927 22:04:50.797044 26253 net.cpp:194] Memory required for data: 697827840
I0927 22:04:50.797049 26253 layer_factory.hpp:77] Creating layer conv2_8_0
I0927 22:04:50.797065 26253 net.cpp:128] Creating Layer conv2_8_0
I0927 22:04:50.797070 26253 net.cpp:558] conv2_8_0 <- conv2_Eltwise_7_conv2_7ReLU_1_0_split_0
I0927 22:04:50.797078 26253 net.cpp:522] conv2_8_0 -> conv2_8_0
I0927 22:04:50.803851 26253 net.cpp:172] Setting up conv2_8_0
I0927 22:04:50.803879 26253 net.cpp:186] Top shape: 128 16 32 32 (2097152)
I0927 22:04:50.803882 26253 net.cpp:194] Memory required for data: 706216448
I0927 22:04:50.803892 26253 layer_factory.hpp:77] Creating layer conv2_8_bn0
I0927 22:04:50.803905 26253 net.cpp:128] Creating Layer conv2_8_bn0
I0927 22:04:50.803910 26253 net.cpp:558] conv2_8_bn0 <- conv2_8_0
I0927 22:04:50.803918 26253 net.cpp:509] conv2_8_bn0 -> conv2_8_0 (in-place)
I0927 22:04:50.804172 26253 net.cpp:172] Setting up conv2_8_bn0
I0927 22:04:50.804184 26253 net.cpp:186] Top shape: 128 16 32 32 (2097152)
I0927 22:04:50.804188 26253 net.cpp:194] Memory required for data: 714605056
I0927 22:04:50.804198 26253 layer_factory.hpp:77] Creating layer conv2_8_scale0
I0927 22:04:50.804204 26253 net.cpp:128] Creating Layer conv2_8_scale0
I0927 22:04:50.804209 26253 net.cpp:558] conv2_8_scale0 <- conv2_8_0
I0927 22:04:50.804214 26253 net.cpp:509] conv2_8_scale0 -> conv2_8_0 (in-place)
I0927 22:04:50.804256 26253 layer_factory.hpp:77] Creating layer conv2_8_scale0
I0927 22:04:50.804399 26253 net.cpp:172] Setting up conv2_8_scale0
I0927 22:04:50.804407 26253 net.cpp:186] Top shape: 128 16 32 32 (2097152)
I0927 22:04:50.804411 26253 net.cpp:194] Memory required for data: 722993664
I0927 22:04:50.804419 26253 layer_factory.hpp:77] Creating layer conv2_8_ReLU0
I0927 22:04:50.804425 26253 net.cpp:128] Creating Layer conv2_8_ReLU0
I0927 22:04:50.804430 26253 net.cpp:558] conv2_8_ReLU0 <- conv2_8_0
I0927 22:04:50.804437 26253 net.cpp:509] conv2_8_ReLU0 -> conv2_8_0 (in-place)
I0927 22:04:50.805689 26253 net.cpp:172] Setting up conv2_8_ReLU0
I0927 22:04:50.805716 26253 net.cpp:186] Top shape: 128 16 32 32 (2097152)
I0927 22:04:50.805721 26253 net.cpp:194] Memory required for data: 731382272
I0927 22:04:50.805725 26253 layer_factory.hpp:77] Creating layer conv2_8_1
I0927 22:04:50.805742 26253 net.cpp:128] Creating Layer conv2_8_1
I0927 22:04:50.805748 26253 net.cpp:558] conv2_8_1 <- conv2_8_0
I0927 22:04:50.805758 26253 net.cpp:522] conv2_8_1 -> conv2_8_1
I0927 22:04:50.812391 26253 net.cpp:172] Setting up conv2_8_1
I0927 22:04:50.812420 26253 net.cpp:186] Top shape: 128 16 32 32 (2097152)
I0927 22:04:50.812425 26253 net.cpp:194] Memory required for data: 739770880
I0927 22:04:50.812435 26253 layer_factory.hpp:77] Creating layer conv2_8bn1
I0927 22:04:50.812444 26253 net.cpp:128] Creating Layer conv2_8bn1
I0927 22:04:50.812448 26253 net.cpp:558] conv2_8bn1 <- conv2_8_1
I0927 22:04:50.812458 26253 net.cpp:509] conv2_8bn1 -> conv2_8_1 (in-place)
I0927 22:04:50.812716 26253 net.cpp:172] Setting up conv2_8bn1
I0927 22:04:50.812729 26253 net.cpp:186] Top shape: 128 16 32 32 (2097152)
I0927 22:04:50.812733 26253 net.cpp:194] Memory required for data: 748159488
I0927 22:04:50.812759 26253 layer_factory.hpp:77] Creating layer conv2_8_scale1
I0927 22:04:50.812767 26253 net.cpp:128] Creating Layer conv2_8_scale1
I0927 22:04:50.812772 26253 net.cpp:558] conv2_8_scale1 <- conv2_8_1
I0927 22:04:50.812780 26253 net.cpp:509] conv2_8_scale1 -> conv2_8_1 (in-place)
I0927 22:04:50.812821 26253 layer_factory.hpp:77] Creating layer conv2_8_scale1
I0927 22:04:50.812960 26253 net.cpp:172] Setting up conv2_8_scale1
I0927 22:04:50.812968 26253 net.cpp:186] Top shape: 128 16 32 32 (2097152)
I0927 22:04:50.812973 26253 net.cpp:194] Memory required for data: 756548096
I0927 22:04:50.812980 26253 layer_factory.hpp:77] Creating layer conv2_Eltwise_8
I0927 22:04:50.812989 26253 net.cpp:128] Creating Layer conv2_Eltwise_8
I0927 22:04:50.812994 26253 net.cpp:558] conv2_Eltwise_8 <- conv2_Eltwise_7_conv2_7ReLU_1_0_split_1
I0927 22:04:50.812999 26253 net.cpp:558] conv2_Eltwise_8 <- conv2_8_1
I0927 22:04:50.813005 26253 net.cpp:522] conv2_Eltwise_8 -> conv2_Eltwise_8
I0927 22:04:50.813033 26253 net.cpp:172] Setting up conv2_Eltwise_8
I0927 22:04:50.813040 26253 net.cpp:186] Top shape: 128 16 32 32 (2097152)
I0927 22:04:50.813045 26253 net.cpp:194] Memory required for data: 764936704
I0927 22:04:50.813048 26253 layer_factory.hpp:77] Creating layer conv2_8ReLU_1
I0927 22:04:50.813055 26253 net.cpp:128] Creating Layer conv2_8ReLU_1
I0927 22:04:50.813060 26253 net.cpp:558] conv2_8ReLU_1 <- conv2_Eltwise_8
I0927 22:04:50.813066 26253 net.cpp:509] conv2_8ReLU_1 -> conv2_Eltwise_8 (in-place)
I0927 22:04:50.814471 26253 net.cpp:172] Setting up conv2_8ReLU_1
I0927 22:04:50.814491 26253 net.cpp:186] Top shape: 128 16 32 32 (2097152)
I0927 22:04:50.814496 26253 net.cpp:194] Memory required for data: 773325312
I0927 22:04:50.814501 26253 layer_factory.hpp:77] Creating layer conv2_Eltwise_8_conv2_8ReLU_1_0_split
I0927 22:04:50.814507 26253 net.cpp:128] Creating Layer conv2_Eltwise_8_conv2_8ReLU_1_0_split
I0927 22:04:50.814512 26253 net.cpp:558] conv2_Eltwise_8_conv2_8ReLU_1_0_split <- conv2_Eltwise_8
I0927 22:04:50.814522 26253 net.cpp:522] conv2_Eltwise_8_conv2_8ReLU_1_0_split -> conv2_Eltwise_8_conv2_8ReLU_1_0_split_0
I0927 22:04:50.814530 26253 net.cpp:522] conv2_Eltwise_8_conv2_8ReLU_1_0_split -> conv2_Eltwise_8_conv2_8ReLU_1_0_split_1
I0927 22:04:50.814582 26253 net.cpp:172] Setting up conv2_Eltwise_8_conv2_8ReLU_1_0_split
I0927 22:04:50.814589 26253 net.cpp:186] Top shape: 128 16 32 32 (2097152)
I0927 22:04:50.814595 26253 net.cpp:186] Top shape: 128 16 32 32 (2097152)
I0927 22:04:50.814599 26253 net.cpp:194] Memory required for data: 790102528
I0927 22:04:50.814604 26253 layer_factory.hpp:77] Creating layer conv2_9_0
I0927 22:04:50.814615 26253 net.cpp:128] Creating Layer conv2_9_0
I0927 22:04:50.814620 26253 net.cpp:558] conv2_9_0 <- conv2_Eltwise_8_conv2_8ReLU_1_0_split_0
I0927 22:04:50.814630 26253 net.cpp:522] conv2_9_0 -> conv2_9_0
I0927 22:04:50.821183 26253 net.cpp:172] Setting up conv2_9_0
I0927 22:04:50.821213 26253 net.cpp:186] Top shape: 128 16 32 32 (2097152)
I0927 22:04:50.821218 26253 net.cpp:194] Memory required for data: 798491136
I0927 22:04:50.821226 26253 layer_factory.hpp:77] Creating layer conv2_9_bn0
I0927 22:04:50.821235 26253 net.cpp:128] Creating Layer conv2_9_bn0
I0927 22:04:50.821240 26253 net.cpp:558] conv2_9_bn0 <- conv2_9_0
I0927 22:04:50.821249 26253 net.cpp:509] conv2_9_bn0 -> conv2_9_0 (in-place)
I0927 22:04:50.821501 26253 net.cpp:172] Setting up conv2_9_bn0
I0927 22:04:50.821512 26253 net.cpp:186] Top shape: 128 16 32 32 (2097152)
I0927 22:04:50.821516 26253 net.cpp:194] Memory required for data: 806879744
I0927 22:04:50.821525 26253 layer_factory.hpp:77] Creating layer conv2_9_scale0
I0927 22:04:50.821532 26253 net.cpp:128] Creating Layer conv2_9_scale0
I0927 22:04:50.821537 26253 net.cpp:558] conv2_9_scale0 <- conv2_9_0
I0927 22:04:50.821545 26253 net.cpp:509] conv2_9_scale0 -> conv2_9_0 (in-place)
I0927 22:04:50.821584 26253 layer_factory.hpp:77] Creating layer conv2_9_scale0
I0927 22:04:50.821722 26253 net.cpp:172] Setting up conv2_9_scale0
I0927 22:04:50.821744 26253 net.cpp:186] Top shape: 128 16 32 32 (2097152)
I0927 22:04:50.821749 26253 net.cpp:194] Memory required for data: 815268352
I0927 22:04:50.821758 26253 layer_factory.hpp:77] Creating layer conv2_9_ReLU0
I0927 22:04:50.821765 26253 net.cpp:128] Creating Layer conv2_9_ReLU0
I0927 22:04:50.821770 26253 net.cpp:558] conv2_9_ReLU0 <- conv2_9_0
I0927 22:04:50.821775 26253 net.cpp:509] conv2_9_ReLU0 -> conv2_9_0 (in-place)
I0927 22:04:50.822358 26253 net.cpp:172] Setting up conv2_9_ReLU0
I0927 22:04:50.822374 26253 net.cpp:186] Top shape: 128 16 32 32 (2097152)
I0927 22:04:50.822379 26253 net.cpp:194] Memory required for data: 823656960
I0927 22:04:50.822383 26253 layer_factory.hpp:77] Creating layer conv2_9_1
I0927 22:04:50.822397 26253 net.cpp:128] Creating Layer conv2_9_1
I0927 22:04:50.822402 26253 net.cpp:558] conv2_9_1 <- conv2_9_0
I0927 22:04:50.822412 26253 net.cpp:522] conv2_9_1 -> conv2_9_1
I0927 22:04:50.823899 26253 net.cpp:172] Setting up conv2_9_1
I0927 22:04:50.823921 26253 net.cpp:186] Top shape: 128 16 32 32 (2097152)
I0927 22:04:50.823926 26253 net.cpp:194] Memory required for data: 832045568
I0927 22:04:50.823936 26253 layer_factory.hpp:77] Creating layer conv2_9bn1
I0927 22:04:50.823947 26253 net.cpp:128] Creating Layer conv2_9bn1
I0927 22:04:50.823952 26253 net.cpp:558] conv2_9bn1 <- conv2_9_1
I0927 22:04:50.823959 26253 net.cpp:509] conv2_9bn1 -> conv2_9_1 (in-place)
I0927 22:04:50.824214 26253 net.cpp:172] Setting up conv2_9bn1
I0927 22:04:50.824223 26253 net.cpp:186] Top shape: 128 16 32 32 (2097152)
I0927 22:04:50.824226 26253 net.cpp:194] Memory required for data: 840434176
I0927 22:04:50.824247 26253 layer_factory.hpp:77] Creating layer conv2_9_scale1
I0927 22:04:50.824257 26253 net.cpp:128] Creating Layer conv2_9_scale1
I0927 22:04:50.824262 26253 net.cpp:558] conv2_9_scale1 <- conv2_9_1
I0927 22:04:50.824268 26253 net.cpp:509] conv2_9_scale1 -> conv2_9_1 (in-place)
I0927 22:04:50.824308 26253 layer_factory.hpp:77] Creating layer conv2_9_scale1
I0927 22:04:50.824445 26253 net.cpp:172] Setting up conv2_9_scale1
I0927 22:04:50.824456 26253 net.cpp:186] Top shape: 128 16 32 32 (2097152)
I0927 22:04:50.824460 26253 net.cpp:194] Memory required for data: 848822784
I0927 22:04:50.824468 26253 layer_factory.hpp:77] Creating layer conv2_Eltwise_9
I0927 22:04:50.824474 26253 net.cpp:128] Creating Layer conv2_Eltwise_9
I0927 22:04:50.824479 26253 net.cpp:558] conv2_Eltwise_9 <- conv2_Eltwise_8_conv2_8ReLU_1_0_split_1
I0927 22:04:50.824484 26253 net.cpp:558] conv2_Eltwise_9 <- conv2_9_1
I0927 22:04:50.824491 26253 net.cpp:522] conv2_Eltwise_9 -> conv2_Eltwise_9
I0927 22:04:50.824520 26253 net.cpp:172] Setting up conv2_Eltwise_9
I0927 22:04:50.824527 26253 net.cpp:186] Top shape: 128 16 32 32 (2097152)
I0927 22:04:50.824532 26253 net.cpp:194] Memory required for data: 857211392
I0927 22:04:50.824535 26253 layer_factory.hpp:77] Creating layer conv2_9ReLU_1
I0927 22:04:50.824544 26253 net.cpp:128] Creating Layer conv2_9ReLU_1
I0927 22:04:50.824549 26253 net.cpp:558] conv2_9ReLU_1 <- conv2_Eltwise_9
I0927 22:04:50.824554 26253 net.cpp:509] conv2_9ReLU_1 -> conv2_Eltwise_9 (in-place)
I0927 22:04:50.824800 26253 net.cpp:172] Setting up conv2_9ReLU_1
I0927 22:04:50.824810 26253 net.cpp:186] Top shape: 128 16 32 32 (2097152)
I0927 22:04:50.824815 26253 net.cpp:194] Memory required for data: 865600000
I0927 22:04:50.824820 26253 layer_factory.hpp:77] Creating layer conv2_Eltwise_9_conv2_9ReLU_1_0_split
I0927 22:04:50.824828 26253 net.cpp:128] Creating Layer conv2_Eltwise_9_conv2_9ReLU_1_0_split
I0927 22:04:50.824832 26253 net.cpp:558] conv2_Eltwise_9_conv2_9ReLU_1_0_split <- conv2_Eltwise_9
I0927 22:04:50.824839 26253 net.cpp:522] conv2_Eltwise_9_conv2_9ReLU_1_0_split -> conv2_Eltwise_9_conv2_9ReLU_1_0_split_0
I0927 22:04:50.824847 26253 net.cpp:522] conv2_Eltwise_9_conv2_9ReLU_1_0_split -> conv2_Eltwise_9_conv2_9ReLU_1_0_split_1
I0927 22:04:50.824898 26253 net.cpp:172] Setting up conv2_Eltwise_9_conv2_9ReLU_1_0_split
I0927 22:04:50.824905 26253 net.cpp:186] Top shape: 128 16 32 32 (2097152)
I0927 22:04:50.824926 26253 net.cpp:186] Top shape: 128 16 32 32 (2097152)
I0927 22:04:50.824930 26253 net.cpp:194] Memory required for data: 882377216
I0927 22:04:50.824935 26253 layer_factory.hpp:77] Creating layer conv3_1_0
I0927 22:04:50.824947 26253 net.cpp:128] Creating Layer conv3_1_0
I0927 22:04:50.824954 26253 net.cpp:558] conv3_1_0 <- conv2_Eltwise_9_conv2_9ReLU_1_0_split_0
I0927 22:04:50.824961 26253 net.cpp:522] conv3_1_0 -> conv3_1_0
I0927 22:04:50.831838 26253 net.cpp:172] Setting up conv3_1_0
I0927 22:04:50.831887 26253 net.cpp:186] Top shape: 128 32 16 16 (1048576)
I0927 22:04:50.831892 26253 net.cpp:194] Memory required for data: 886571520
I0927 22:04:50.831910 26253 layer_factory.hpp:77] Creating layer conv3_1_bn0
I0927 22:04:50.831924 26253 net.cpp:128] Creating Layer conv3_1_bn0
I0927 22:04:50.831933 26253 net.cpp:558] conv3_1_bn0 <- conv3_1_0
I0927 22:04:50.831943 26253 net.cpp:509] conv3_1_bn0 -> conv3_1_0 (in-place)
I0927 22:04:50.832226 26253 net.cpp:172] Setting up conv3_1_bn0
I0927 22:04:50.832239 26253 net.cpp:186] Top shape: 128 32 16 16 (1048576)
I0927 22:04:50.832243 26253 net.cpp:194] Memory required for data: 890765824
I0927 22:04:50.832253 26253 layer_factory.hpp:77] Creating layer conv3_1_scale0
I0927 22:04:50.832270 26253 net.cpp:128] Creating Layer conv3_1_scale0
I0927 22:04:50.832278 26253 net.cpp:558] conv3_1_scale0 <- conv3_1_0
I0927 22:04:50.832284 26253 net.cpp:509] conv3_1_scale0 -> conv3_1_0 (in-place)
I0927 22:04:50.832331 26253 layer_factory.hpp:77] Creating layer conv3_1_scale0
I0927 22:04:50.832489 26253 net.cpp:172] Setting up conv3_1_scale0
I0927 22:04:50.832499 26253 net.cpp:186] Top shape: 128 32 16 16 (1048576)
I0927 22:04:50.832502 26253 net.cpp:194] Memory required for data: 894960128
I0927 22:04:50.832511 26253 layer_factory.hpp:77] Creating layer conv3_1_ReLU0
I0927 22:04:50.832525 26253 net.cpp:128] Creating Layer conv3_1_ReLU0
I0927 22:04:50.832532 26253 net.cpp:558] conv3_1_ReLU0 <- conv3_1_0
I0927 22:04:50.832538 26253 net.cpp:509] conv3_1_ReLU0 -> conv3_1_0 (in-place)
I0927 22:04:50.833559 26253 net.cpp:172] Setting up conv3_1_ReLU0
I0927 22:04:50.833588 26253 net.cpp:186] Top shape: 128 32 16 16 (1048576)
I0927 22:04:50.833595 26253 net.cpp:194] Memory required for data: 899154432
I0927 22:04:50.833601 26253 layer_factory.hpp:77] Creating layer conv3_1_1
I0927 22:04:50.833622 26253 net.cpp:128] Creating Layer conv3_1_1
I0927 22:04:50.833637 26253 net.cpp:558] conv3_1_1 <- conv3_1_0
I0927 22:04:50.833652 26253 net.cpp:522] conv3_1_1 -> conv3_1_1
I0927 22:04:50.840337 26253 net.cpp:172] Setting up conv3_1_1
I0927 22:04:50.840365 26253 net.cpp:186] Top shape: 128 32 16 16 (1048576)
I0927 22:04:50.840370 26253 net.cpp:194] Memory required for data: 903348736
I0927 22:04:50.840384 26253 layer_factory.hpp:77] Creating layer conv3_1bn1
I0927 22:04:50.840396 26253 net.cpp:128] Creating Layer conv3_1bn1
I0927 22:04:50.840402 26253 net.cpp:558] conv3_1bn1 <- conv3_1_1
I0927 22:04:50.840409 26253 net.cpp:509] conv3_1bn1 -> conv3_1_1 (in-place)
I0927 22:04:50.840662 26253 net.cpp:172] Setting up conv3_1bn1
I0927 22:04:50.840674 26253 net.cpp:186] Top shape: 128 32 16 16 (1048576)
I0927 22:04:50.840679 26253 net.cpp:194] Memory required for data: 907543040
I0927 22:04:50.840689 26253 layer_factory.hpp:77] Creating layer conv3_1_scale1
I0927 22:04:50.840699 26253 net.cpp:128] Creating Layer conv3_1_scale1
I0927 22:04:50.840704 26253 net.cpp:558] conv3_1_scale1 <- conv3_1_1
I0927 22:04:50.840709 26253 net.cpp:509] conv3_1_scale1 -> conv3_1_1 (in-place)
I0927 22:04:50.840754 26253 layer_factory.hpp:77] Creating layer conv3_1_scale1
I0927 22:04:50.840903 26253 net.cpp:172] Setting up conv3_1_scale1
I0927 22:04:50.840915 26253 net.cpp:186] Top shape: 128 32 16 16 (1048576)
I0927 22:04:50.840919 26253 net.cpp:194] Memory required for data: 911737344
I0927 22:04:50.840927 26253 layer_factory.hpp:77] Creating layer conv3_1_down
I0927 22:04:50.840941 26253 net.cpp:128] Creating Layer conv3_1_down
I0927 22:04:50.840951 26253 net.cpp:558] conv3_1_down <- conv2_Eltwise_9_conv2_9ReLU_1_0_split_1
I0927 22:04:50.840984 26253 net.cpp:522] conv3_1_down -> conv3_1_down
I0927 22:04:50.846992 26253 net.cpp:172] Setting up conv3_1_down
I0927 22:04:50.847015 26253 net.cpp:186] Top shape: 128 32 16 16 (1048576)
I0927 22:04:50.847020 26253 net.cpp:194] Memory required for data: 915931648
I0927 22:04:50.847030 26253 layer_factory.hpp:77] Creating layer conv3_1_bn_down
I0927 22:04:50.847043 26253 net.cpp:128] Creating Layer conv3_1_bn_down
I0927 22:04:50.847048 26253 net.cpp:558] conv3_1_bn_down <- conv3_1_down
I0927 22:04:50.847059 26253 net.cpp:509] conv3_1_bn_down -> conv3_1_down (in-place)
I0927 22:04:50.847312 26253 net.cpp:172] Setting up conv3_1_bn_down
I0927 22:04:50.847324 26253 net.cpp:186] Top shape: 128 32 16 16 (1048576)
I0927 22:04:50.847328 26253 net.cpp:194] Memory required for data: 920125952
I0927 22:04:50.847338 26253 layer_factory.hpp:77] Creating layer conv3_1_scale_down
I0927 22:04:50.847353 26253 net.cpp:128] Creating Layer conv3_1_scale_down
I0927 22:04:50.847357 26253 net.cpp:558] conv3_1_scale_down <- conv3_1_down
I0927 22:04:50.847363 26253 net.cpp:509] conv3_1_scale_down -> conv3_1_down (in-place)
I0927 22:04:50.847407 26253 layer_factory.hpp:77] Creating layer conv3_1_scale_down
I0927 22:04:50.847553 26253 net.cpp:172] Setting up conv3_1_scale_down
I0927 22:04:50.847563 26253 net.cpp:186] Top shape: 128 32 16 16 (1048576)
I0927 22:04:50.847568 26253 net.cpp:194] Memory required for data: 924320256
I0927 22:04:50.847575 26253 layer_factory.hpp:77] Creating layer conv3_Eltwise_1
I0927 22:04:50.847591 26253 net.cpp:128] Creating Layer conv3_Eltwise_1
I0927 22:04:50.847599 26253 net.cpp:558] conv3_Eltwise_1 <- conv3_1_1
I0927 22:04:50.847604 26253 net.cpp:558] conv3_Eltwise_1 <- conv3_1_down
I0927 22:04:50.847610 26253 net.cpp:522] conv3_Eltwise_1 -> conv3_Eltwise_1
I0927 22:04:50.847635 26253 net.cpp:172] Setting up conv3_Eltwise_1
I0927 22:04:50.847645 26253 net.cpp:186] Top shape: 128 32 16 16 (1048576)
I0927 22:04:50.847649 26253 net.cpp:194] Memory required for data: 928514560
I0927 22:04:50.847653 26253 layer_factory.hpp:77] Creating layer conv3_1ReLU_1
I0927 22:04:50.847661 26253 net.cpp:128] Creating Layer conv3_1ReLU_1
I0927 22:04:50.847666 26253 net.cpp:558] conv3_1ReLU_1 <- conv3_Eltwise_1
I0927 22:04:50.847671 26253 net.cpp:509] conv3_1ReLU_1 -> conv3_Eltwise_1 (in-place)
I0927 22:04:50.849032 26253 net.cpp:172] Setting up conv3_1ReLU_1
I0927 22:04:50.849052 26253 net.cpp:186] Top shape: 128 32 16 16 (1048576)
I0927 22:04:50.849057 26253 net.cpp:194] Memory required for data: 932708864
I0927 22:04:50.849061 26253 layer_factory.hpp:77] Creating layer conv3_Eltwise_1_conv3_1ReLU_1_0_split
I0927 22:04:50.849074 26253 net.cpp:128] Creating Layer conv3_Eltwise_1_conv3_1ReLU_1_0_split
I0927 22:04:50.849078 26253 net.cpp:558] conv3_Eltwise_1_conv3_1ReLU_1_0_split <- conv3_Eltwise_1
I0927 22:04:50.849088 26253 net.cpp:522] conv3_Eltwise_1_conv3_1ReLU_1_0_split -> conv3_Eltwise_1_conv3_1ReLU_1_0_split_0
I0927 22:04:50.849097 26253 net.cpp:522] conv3_Eltwise_1_conv3_1ReLU_1_0_split -> conv3_Eltwise_1_conv3_1ReLU_1_0_split_1
I0927 22:04:50.849151 26253 net.cpp:172] Setting up conv3_Eltwise_1_conv3_1ReLU_1_0_split
I0927 22:04:50.849161 26253 net.cpp:186] Top shape: 128 32 16 16 (1048576)
I0927 22:04:50.849167 26253 net.cpp:186] Top shape: 128 32 16 16 (1048576)
I0927 22:04:50.849172 26253 net.cpp:194] Memory required for data: 941097472
I0927 22:04:50.849176 26253 layer_factory.hpp:77] Creating layer conv3_2_0
I0927 22:04:50.849191 26253 net.cpp:128] Creating Layer conv3_2_0
I0927 22:04:50.849197 26253 net.cpp:558] conv3_2_0 <- conv3_Eltwise_1_conv3_1ReLU_1_0_split_0
I0927 22:04:50.849210 26253 net.cpp:522] conv3_2_0 -> conv3_2_0
I0927 22:04:50.856024 26253 net.cpp:172] Setting up conv3_2_0
I0927 22:04:50.856050 26253 net.cpp:186] Top shape: 128 32 16 16 (1048576)
I0927 22:04:50.856055 26253 net.cpp:194] Memory required for data: 945291776
I0927 22:04:50.856070 26253 layer_factory.hpp:77] Creating layer conv3_2_bn0
I0927 22:04:50.856079 26253 net.cpp:128] Creating Layer conv3_2_bn0
I0927 22:04:50.856109 26253 net.cpp:558] conv3_2_bn0 <- conv3_2_0
I0927 22:04:50.856119 26253 net.cpp:509] conv3_2_bn0 -> conv3_2_0 (in-place)
I0927 22:04:50.856392 26253 net.cpp:172] Setting up conv3_2_bn0
I0927 22:04:50.856405 26253 net.cpp:186] Top shape: 128 32 16 16 (1048576)
I0927 22:04:50.856410 26253 net.cpp:194] Memory required for data: 949486080
I0927 22:04:50.856420 26253 layer_factory.hpp:77] Creating layer conv3_2_scale0
I0927 22:04:50.856427 26253 net.cpp:128] Creating Layer conv3_2_scale0
I0927 22:04:50.856432 26253 net.cpp:558] conv3_2_scale0 <- conv3_2_0
I0927 22:04:50.856441 26253 net.cpp:509] conv3_2_scale0 -> conv3_2_0 (in-place)
I0927 22:04:50.856482 26253 layer_factory.hpp:77] Creating layer conv3_2_scale0
I0927 22:04:50.856634 26253 net.cpp:172] Setting up conv3_2_scale0
I0927 22:04:50.856648 26253 net.cpp:186] Top shape: 128 32 16 16 (1048576)
I0927 22:04:50.856652 26253 net.cpp:194] Memory required for data: 953680384
I0927 22:04:50.856660 26253 layer_factory.hpp:77] Creating layer conv3_2_ReLU0
I0927 22:04:50.856669 26253 net.cpp:128] Creating Layer conv3_2_ReLU0
I0927 22:04:50.856674 26253 net.cpp:558] conv3_2_ReLU0 <- conv3_2_0
I0927 22:04:50.856679 26253 net.cpp:509] conv3_2_ReLU0 -> conv3_2_0 (in-place)
I0927 22:04:50.857833 26253 net.cpp:172] Setting up conv3_2_ReLU0
I0927 22:04:50.857851 26253 net.cpp:186] Top shape: 128 32 16 16 (1048576)
I0927 22:04:50.857856 26253 net.cpp:194] Memory required for data: 957874688
I0927 22:04:50.857861 26253 layer_factory.hpp:77] Creating layer conv3_2_1
I0927 22:04:50.857875 26253 net.cpp:128] Creating Layer conv3_2_1
I0927 22:04:50.857880 26253 net.cpp:558] conv3_2_1 <- conv3_2_0
I0927 22:04:50.857888 26253 net.cpp:522] conv3_2_1 -> conv3_2_1
I0927 22:04:50.864595 26253 net.cpp:172] Setting up conv3_2_1
I0927 22:04:50.864619 26253 net.cpp:186] Top shape: 128 32 16 16 (1048576)
I0927 22:04:50.864624 26253 net.cpp:194] Memory required for data: 962068992
I0927 22:04:50.864634 26253 layer_factory.hpp:77] Creating layer conv3_2bn1
I0927 22:04:50.864651 26253 net.cpp:128] Creating Layer conv3_2bn1
I0927 22:04:50.864656 26253 net.cpp:558] conv3_2bn1 <- conv3_2_1
I0927 22:04:50.864663 26253 net.cpp:509] conv3_2bn1 -> conv3_2_1 (in-place)
I0927 22:04:50.864918 26253 net.cpp:172] Setting up conv3_2bn1
I0927 22:04:50.864929 26253 net.cpp:186] Top shape: 128 32 16 16 (1048576)
I0927 22:04:50.864935 26253 net.cpp:194] Memory required for data: 966263296
I0927 22:04:50.864944 26253 layer_factory.hpp:77] Creating layer conv3_2_scale1
I0927 22:04:50.864951 26253 net.cpp:128] Creating Layer conv3_2_scale1
I0927 22:04:50.864955 26253 net.cpp:558] conv3_2_scale1 <- conv3_2_1
I0927 22:04:50.864961 26253 net.cpp:509] conv3_2_scale1 -> conv3_2_1 (in-place)
I0927 22:04:50.865005 26253 layer_factory.hpp:77] Creating layer conv3_2_scale1
I0927 22:04:50.865155 26253 net.cpp:172] Setting up conv3_2_scale1
I0927 22:04:50.865167 26253 net.cpp:186] Top shape: 128 32 16 16 (1048576)
I0927 22:04:50.865171 26253 net.cpp:194] Memory required for data: 970457600
I0927 22:04:50.865180 26253 layer_factory.hpp:77] Creating layer conv3_Eltwise_2
I0927 22:04:50.865190 26253 net.cpp:128] Creating Layer conv3_Eltwise_2
I0927 22:04:50.865195 26253 net.cpp:558] conv3_Eltwise_2 <- conv3_Eltwise_1_conv3_1ReLU_1_0_split_1
I0927 22:04:50.865200 26253 net.cpp:558] conv3_Eltwise_2 <- conv3_2_1
I0927 22:04:50.865208 26253 net.cpp:522] conv3_Eltwise_2 -> conv3_Eltwise_2
I0927 22:04:50.865231 26253 net.cpp:172] Setting up conv3_Eltwise_2
I0927 22:04:50.865237 26253 net.cpp:186] Top shape: 128 32 16 16 (1048576)
I0927 22:04:50.865242 26253 net.cpp:194] Memory required for data: 974651904
I0927 22:04:50.865245 26253 layer_factory.hpp:77] Creating layer conv3_2ReLU_1
I0927 22:04:50.865252 26253 net.cpp:128] Creating Layer conv3_2ReLU_1
I0927 22:04:50.865257 26253 net.cpp:558] conv3_2ReLU_1 <- conv3_Eltwise_2
I0927 22:04:50.865265 26253 net.cpp:509] conv3_2ReLU_1 -> conv3_Eltwise_2 (in-place)
I0927 22:04:50.866667 26253 net.cpp:172] Setting up conv3_2ReLU_1
I0927 22:04:50.866688 26253 net.cpp:186] Top shape: 128 32 16 16 (1048576)
I0927 22:04:50.866709 26253 net.cpp:194] Memory required for data: 978846208
I0927 22:04:50.866714 26253 layer_factory.hpp:77] Creating layer conv3_Eltwise_2_conv3_2ReLU_1_0_split
I0927 22:04:50.866726 26253 net.cpp:128] Creating Layer conv3_Eltwise_2_conv3_2ReLU_1_0_split
I0927 22:04:50.866731 26253 net.cpp:558] conv3_Eltwise_2_conv3_2ReLU_1_0_split <- conv3_Eltwise_2
I0927 22:04:50.866739 26253 net.cpp:522] conv3_Eltwise_2_conv3_2ReLU_1_0_split -> conv3_Eltwise_2_conv3_2ReLU_1_0_split_0
I0927 22:04:50.866749 26253 net.cpp:522] conv3_Eltwise_2_conv3_2ReLU_1_0_split -> conv3_Eltwise_2_conv3_2ReLU_1_0_split_1
I0927 22:04:50.866807 26253 net.cpp:172] Setting up conv3_Eltwise_2_conv3_2ReLU_1_0_split
I0927 22:04:50.866832 26253 net.cpp:186] Top shape: 128 32 16 16 (1048576)
I0927 22:04:50.866838 26253 net.cpp:186] Top shape: 128 32 16 16 (1048576)
I0927 22:04:50.866842 26253 net.cpp:194] Memory required for data: 987234816
I0927 22:04:50.866847 26253 layer_factory.hpp:77] Creating layer conv3_3_0
I0927 22:04:50.866859 26253 net.cpp:128] Creating Layer conv3_3_0
I0927 22:04:50.866864 26253 net.cpp:558] conv3_3_0 <- conv3_Eltwise_2_conv3_2ReLU_1_0_split_0
I0927 22:04:50.866874 26253 net.cpp:522] conv3_3_0 -> conv3_3_0
I0927 22:04:50.873364 26253 net.cpp:172] Setting up conv3_3_0
I0927 22:04:50.873391 26253 net.cpp:186] Top shape: 128 32 16 16 (1048576)
I0927 22:04:50.873395 26253 net.cpp:194] Memory required for data: 991429120
I0927 22:04:50.873405 26253 layer_factory.hpp:77] Creating layer conv3_3_bn0
I0927 22:04:50.873416 26253 net.cpp:128] Creating Layer conv3_3_bn0
I0927 22:04:50.873422 26253 net.cpp:558] conv3_3_bn0 <- conv3_3_0
I0927 22:04:50.873430 26253 net.cpp:509] conv3_3_bn0 -> conv3_3_0 (in-place)
I0927 22:04:50.873692 26253 net.cpp:172] Setting up conv3_3_bn0
I0927 22:04:50.873704 26253 net.cpp:186] Top shape: 128 32 16 16 (1048576)
I0927 22:04:50.873708 26253 net.cpp:194] Memory required for data: 995623424
I0927 22:04:50.873718 26253 layer_factory.hpp:77] Creating layer conv3_3_scale0
I0927 22:04:50.873725 26253 net.cpp:128] Creating Layer conv3_3_scale0
I0927 22:04:50.873729 26253 net.cpp:558] conv3_3_scale0 <- conv3_3_0
I0927 22:04:50.873737 26253 net.cpp:509] conv3_3_scale0 -> conv3_3_0 (in-place)
I0927 22:04:50.873777 26253 layer_factory.hpp:77] Creating layer conv3_3_scale0
I0927 22:04:50.873929 26253 net.cpp:172] Setting up conv3_3_scale0
I0927 22:04:50.873939 26253 net.cpp:186] Top shape: 128 32 16 16 (1048576)
I0927 22:04:50.873944 26253 net.cpp:194] Memory required for data: 999817728
I0927 22:04:50.873951 26253 layer_factory.hpp:77] Creating layer conv3_3_ReLU0
I0927 22:04:50.873958 26253 net.cpp:128] Creating Layer conv3_3_ReLU0
I0927 22:04:50.873962 26253 net.cpp:558] conv3_3_ReLU0 <- conv3_3_0
I0927 22:04:50.873968 26253 net.cpp:509] conv3_3_ReLU0 -> conv3_3_0 (in-place)
I0927 22:04:50.875428 26253 net.cpp:172] Setting up conv3_3_ReLU0
I0927 22:04:50.875449 26253 net.cpp:186] Top shape: 128 32 16 16 (1048576)
I0927 22:04:50.875453 26253 net.cpp:194] Memory required for data: 1004012032
I0927 22:04:50.875458 26253 layer_factory.hpp:77] Creating layer conv3_3_1
I0927 22:04:50.875471 26253 net.cpp:128] Creating Layer conv3_3_1
I0927 22:04:50.875478 26253 net.cpp:558] conv3_3_1 <- conv3_3_0
I0927 22:04:50.875488 26253 net.cpp:522] conv3_3_1 -> conv3_3_1
I0927 22:04:50.882186 26253 net.cpp:172] Setting up conv3_3_1
I0927 22:04:50.882213 26253 net.cpp:186] Top shape: 128 32 16 16 (1048576)
I0927 22:04:50.882218 26253 net.cpp:194] Memory required for data: 1008206336
I0927 22:04:50.882228 26253 layer_factory.hpp:77] Creating layer conv3_3bn1
I0927 22:04:50.882241 26253 net.cpp:128] Creating Layer conv3_3bn1
I0927 22:04:50.882246 26253 net.cpp:558] conv3_3bn1 <- conv3_3_1
I0927 22:04:50.882254 26253 net.cpp:509] conv3_3bn1 -> conv3_3_1 (in-place)
I0927 22:04:50.882519 26253 net.cpp:172] Setting up conv3_3bn1
I0927 22:04:50.882527 26253 net.cpp:186] Top shape: 128 32 16 16 (1048576)
I0927 22:04:50.882531 26253 net.cpp:194] Memory required for data: 1012400640
I0927 22:04:50.882541 26253 layer_factory.hpp:77] Creating layer conv3_3_scale1
I0927 22:04:50.882566 26253 net.cpp:128] Creating Layer conv3_3_scale1
I0927 22:04:50.882571 26253 net.cpp:558] conv3_3_scale1 <- conv3_3_1
I0927 22:04:50.882577 26253 net.cpp:509] conv3_3_scale1 -> conv3_3_1 (in-place)
I0927 22:04:50.882622 26253 layer_factory.hpp:77] Creating layer conv3_3_scale1
I0927 22:04:50.882768 26253 net.cpp:172] Setting up conv3_3_scale1
I0927 22:04:50.882776 26253 net.cpp:186] Top shape: 128 32 16 16 (1048576)
I0927 22:04:50.882781 26253 net.cpp:194] Memory required for data: 1016594944
I0927 22:04:50.882787 26253 layer_factory.hpp:77] Creating layer conv3_Eltwise_3
I0927 22:04:50.882796 26253 net.cpp:128] Creating Layer conv3_Eltwise_3
I0927 22:04:50.882800 26253 net.cpp:558] conv3_Eltwise_3 <- conv3_Eltwise_2_conv3_2ReLU_1_0_split_1
I0927 22:04:50.882805 26253 net.cpp:558] conv3_Eltwise_3 <- conv3_3_1
I0927 22:04:50.882823 26253 net.cpp:522] conv3_Eltwise_3 -> conv3_Eltwise_3
I0927 22:04:50.882848 26253 net.cpp:172] Setting up conv3_Eltwise_3
I0927 22:04:50.882855 26253 net.cpp:186] Top shape: 128 32 16 16 (1048576)
I0927 22:04:50.882858 26253 net.cpp:194] Memory required for data: 1020789248
I0927 22:04:50.882863 26253 layer_factory.hpp:77] Creating layer conv3_3ReLU_1
I0927 22:04:50.882872 26253 net.cpp:128] Creating Layer conv3_3ReLU_1
I0927 22:04:50.882877 26253 net.cpp:558] conv3_3ReLU_1 <- conv3_Eltwise_3
I0927 22:04:50.882882 26253 net.cpp:509] conv3_3ReLU_1 -> conv3_Eltwise_3 (in-place)
I0927 22:04:50.884260 26253 net.cpp:172] Setting up conv3_3ReLU_1
I0927 22:04:50.884280 26253 net.cpp:186] Top shape: 128 32 16 16 (1048576)
I0927 22:04:50.884284 26253 net.cpp:194] Memory required for data: 1024983552
I0927 22:04:50.884289 26253 layer_factory.hpp:77] Creating layer conv3_Eltwise_3_conv3_3ReLU_1_0_split
I0927 22:04:50.884312 26253 net.cpp:128] Creating Layer conv3_Eltwise_3_conv3_3ReLU_1_0_split
I0927 22:04:50.884317 26253 net.cpp:558] conv3_Eltwise_3_conv3_3ReLU_1_0_split <- conv3_Eltwise_3
I0927 22:04:50.884328 26253 net.cpp:522] conv3_Eltwise_3_conv3_3ReLU_1_0_split -> conv3_Eltwise_3_conv3_3ReLU_1_0_split_0
I0927 22:04:50.884342 26253 net.cpp:522] conv3_Eltwise_3_conv3_3ReLU_1_0_split -> conv3_Eltwise_3_conv3_3ReLU_1_0_split_1
I0927 22:04:50.884393 26253 net.cpp:172] Setting up conv3_Eltwise_3_conv3_3ReLU_1_0_split
I0927 22:04:50.884402 26253 net.cpp:186] Top shape: 128 32 16 16 (1048576)
I0927 22:04:50.884408 26253 net.cpp:186] Top shape: 128 32 16 16 (1048576)
I0927 22:04:50.884413 26253 net.cpp:194] Memory required for data: 1033372160
I0927 22:04:50.884418 26253 layer_factory.hpp:77] Creating layer conv3_4_0
I0927 22:04:50.884428 26253 net.cpp:128] Creating Layer conv3_4_0
I0927 22:04:50.884433 26253 net.cpp:558] conv3_4_0 <- conv3_Eltwise_3_conv3_3ReLU_1_0_split_0
I0927 22:04:50.884441 26253 net.cpp:522] conv3_4_0 -> conv3_4_0
I0927 22:04:50.889704 26253 net.cpp:172] Setting up conv3_4_0
I0927 22:04:50.889731 26253 net.cpp:186] Top shape: 128 32 16 16 (1048576)
I0927 22:04:50.889735 26253 net.cpp:194] Memory required for data: 1037566464
I0927 22:04:50.889745 26253 layer_factory.hpp:77] Creating layer conv3_4_bn0
I0927 22:04:50.889756 26253 net.cpp:128] Creating Layer conv3_4_bn0
I0927 22:04:50.889761 26253 net.cpp:558] conv3_4_bn0 <- conv3_4_0
I0927 22:04:50.889768 26253 net.cpp:509] conv3_4_bn0 -> conv3_4_0 (in-place)
I0927 22:04:50.890028 26253 net.cpp:172] Setting up conv3_4_bn0
I0927 22:04:50.890040 26253 net.cpp:186] Top shape: 128 32 16 16 (1048576)
I0927 22:04:50.890046 26253 net.cpp:194] Memory required for data: 1041760768
I0927 22:04:50.890055 26253 layer_factory.hpp:77] Creating layer conv3_4_scale0
I0927 22:04:50.890063 26253 net.cpp:128] Creating Layer conv3_4_scale0
I0927 22:04:50.890066 26253 net.cpp:558] conv3_4_scale0 <- conv3_4_0
I0927 22:04:50.890074 26253 net.cpp:509] conv3_4_scale0 -> conv3_4_0 (in-place)
I0927 22:04:50.890115 26253 layer_factory.hpp:77] Creating layer conv3_4_scale0
I0927 22:04:50.890264 26253 net.cpp:172] Setting up conv3_4_scale0
I0927 22:04:50.890280 26253 net.cpp:186] Top shape: 128 32 16 16 (1048576)
I0927 22:04:50.890300 26253 net.cpp:194] Memory required for data: 1045955072
I0927 22:04:50.890308 26253 layer_factory.hpp:77] Creating layer conv3_4_ReLU0
I0927 22:04:50.890316 26253 net.cpp:128] Creating Layer conv3_4_ReLU0
I0927 22:04:50.890319 26253 net.cpp:558] conv3_4_ReLU0 <- conv3_4_0
I0927 22:04:50.890326 26253 net.cpp:509] conv3_4_ReLU0 -> conv3_4_0 (in-place)
I0927 22:04:50.890837 26253 net.cpp:172] Setting up conv3_4_ReLU0
I0927 22:04:50.890861 26253 net.cpp:186] Top shape: 128 32 16 16 (1048576)
I0927 22:04:50.890864 26253 net.cpp:194] Memory required for data: 1050149376
I0927 22:04:50.890871 26253 layer_factory.hpp:77] Creating layer conv3_4_1
I0927 22:04:50.890887 26253 net.cpp:128] Creating Layer conv3_4_1
I0927 22:04:50.890892 26253 net.cpp:558] conv3_4_1 <- conv3_4_0
I0927 22:04:50.890899 26253 net.cpp:522] conv3_4_1 -> conv3_4_1
I0927 22:04:50.897276 26253 net.cpp:172] Setting up conv3_4_1
I0927 22:04:50.897305 26253 net.cpp:186] Top shape: 128 32 16 16 (1048576)
I0927 22:04:50.897310 26253 net.cpp:194] Memory required for data: 1054343680
I0927 22:04:50.897320 26253 layer_factory.hpp:77] Creating layer conv3_4bn1
I0927 22:04:50.897332 26253 net.cpp:128] Creating Layer conv3_4bn1
I0927 22:04:50.897337 26253 net.cpp:558] conv3_4bn1 <- conv3_4_1
I0927 22:04:50.897346 26253 net.cpp:509] conv3_4bn1 -> conv3_4_1 (in-place)
I0927 22:04:50.897608 26253 net.cpp:172] Setting up conv3_4bn1
I0927 22:04:50.897619 26253 net.cpp:186] Top shape: 128 32 16 16 (1048576)
I0927 22:04:50.897624 26253 net.cpp:194] Memory required for data: 1058537984
I0927 22:04:50.897634 26253 layer_factory.hpp:77] Creating layer conv3_4_scale1
I0927 22:04:50.897652 26253 net.cpp:128] Creating Layer conv3_4_scale1
I0927 22:04:50.897657 26253 net.cpp:558] conv3_4_scale1 <- conv3_4_1
I0927 22:04:50.897665 26253 net.cpp:509] conv3_4_scale1 -> conv3_4_1 (in-place)
I0927 22:04:50.897706 26253 layer_factory.hpp:77] Creating layer conv3_4_scale1
I0927 22:04:50.897857 26253 net.cpp:172] Setting up conv3_4_scale1
I0927 22:04:50.897867 26253 net.cpp:186] Top shape: 128 32 16 16 (1048576)
I0927 22:04:50.897872 26253 net.cpp:194] Memory required for data: 1062732288
I0927 22:04:50.897881 26253 layer_factory.hpp:77] Creating layer conv3_Eltwise_4
I0927 22:04:50.897887 26253 net.cpp:128] Creating Layer conv3_Eltwise_4
I0927 22:04:50.897891 26253 net.cpp:558] conv3_Eltwise_4 <- conv3_Eltwise_3_conv3_3ReLU_1_0_split_1
I0927 22:04:50.897897 26253 net.cpp:558] conv3_Eltwise_4 <- conv3_4_1
I0927 22:04:50.897905 26253 net.cpp:522] conv3_Eltwise_4 -> conv3_Eltwise_4
I0927 22:04:50.897928 26253 net.cpp:172] Setting up conv3_Eltwise_4
I0927 22:04:50.897935 26253 net.cpp:186] Top shape: 128 32 16 16 (1048576)
I0927 22:04:50.897939 26253 net.cpp:194] Memory required for data: 1066926592
I0927 22:04:50.897943 26253 layer_factory.hpp:77] Creating layer conv3_4ReLU_1
I0927 22:04:50.897953 26253 net.cpp:128] Creating Layer conv3_4ReLU_1
I0927 22:04:50.897958 26253 net.cpp:558] conv3_4ReLU_1 <- conv3_Eltwise_4
I0927 22:04:50.897964 26253 net.cpp:509] conv3_4ReLU_1 -> conv3_Eltwise_4 (in-place)
I0927 22:04:50.899345 26253 net.cpp:172] Setting up conv3_4ReLU_1
I0927 22:04:50.899361 26253 net.cpp:186] Top shape: 128 32 16 16 (1048576)
I0927 22:04:50.899365 26253 net.cpp:194] Memory required for data: 1071120896
I0927 22:04:50.899370 26253 layer_factory.hpp:77] Creating layer conv3_Eltwise_4_conv3_4ReLU_1_0_split
I0927 22:04:50.899380 26253 net.cpp:128] Creating Layer conv3_Eltwise_4_conv3_4ReLU_1_0_split
I0927 22:04:50.899385 26253 net.cpp:558] conv3_Eltwise_4_conv3_4ReLU_1_0_split <- conv3_Eltwise_4
I0927 22:04:50.899392 26253 net.cpp:522] conv3_Eltwise_4_conv3_4ReLU_1_0_split -> conv3_Eltwise_4_conv3_4ReLU_1_0_split_0
I0927 22:04:50.899400 26253 net.cpp:522] conv3_Eltwise_4_conv3_4ReLU_1_0_split -> conv3_Eltwise_4_conv3_4ReLU_1_0_split_1
I0927 22:04:50.899454 26253 net.cpp:172] Setting up conv3_Eltwise_4_conv3_4ReLU_1_0_split
I0927 22:04:50.899461 26253 net.cpp:186] Top shape: 128 32 16 16 (1048576)
I0927 22:04:50.899467 26253 net.cpp:186] Top shape: 128 32 16 16 (1048576)
I0927 22:04:50.899488 26253 net.cpp:194] Memory required for data: 1079509504
I0927 22:04:50.899493 26253 layer_factory.hpp:77] Creating layer conv3_5_0
I0927 22:04:50.899508 26253 net.cpp:128] Creating Layer conv3_5_0
I0927 22:04:50.899513 26253 net.cpp:558] conv3_5_0 <- conv3_Eltwise_4_conv3_4ReLU_1_0_split_0
I0927 22:04:50.899521 26253 net.cpp:522] conv3_5_0 -> conv3_5_0
I0927 22:04:50.906011 26253 net.cpp:172] Setting up conv3_5_0
I0927 22:04:50.906038 26253 net.cpp:186] Top shape: 128 32 16 16 (1048576)
I0927 22:04:50.906044 26253 net.cpp:194] Memory required for data: 1083703808
I0927 22:04:50.906054 26253 layer_factory.hpp:77] Creating layer conv3_5_bn0
I0927 22:04:50.906066 26253 net.cpp:128] Creating Layer conv3_5_bn0
I0927 22:04:50.906071 26253 net.cpp:558] conv3_5_bn0 <- conv3_5_0
I0927 22:04:50.906081 26253 net.cpp:509] conv3_5_bn0 -> conv3_5_0 (in-place)
I0927 22:04:50.906344 26253 net.cpp:172] Setting up conv3_5_bn0
I0927 22:04:50.906358 26253 net.cpp:186] Top shape: 128 32 16 16 (1048576)
I0927 22:04:50.906361 26253 net.cpp:194] Memory required for data: 1087898112
I0927 22:04:50.906371 26253 layer_factory.hpp:77] Creating layer conv3_5_scale0
I0927 22:04:50.906378 26253 net.cpp:128] Creating Layer conv3_5_scale0
I0927 22:04:50.906383 26253 net.cpp:558] conv3_5_scale0 <- conv3_5_0
I0927 22:04:50.906391 26253 net.cpp:509] conv3_5_scale0 -> conv3_5_0 (in-place)
I0927 22:04:50.906432 26253 layer_factory.hpp:77] Creating layer conv3_5_scale0
I0927 22:04:50.906584 26253 net.cpp:172] Setting up conv3_5_scale0
I0927 22:04:50.906590 26253 net.cpp:186] Top shape: 128 32 16 16 (1048576)
I0927 22:04:50.906594 26253 net.cpp:194] Memory required for data: 1092092416
I0927 22:04:50.906602 26253 layer_factory.hpp:77] Creating layer conv3_5_ReLU0
I0927 22:04:50.906610 26253 net.cpp:128] Creating Layer conv3_5_ReLU0
I0927 22:04:50.906613 26253 net.cpp:558] conv3_5_ReLU0 <- conv3_5_0
I0927 22:04:50.906621 26253 net.cpp:509] conv3_5_ReLU0 -> conv3_5_0 (in-place)
I0927 22:04:50.908051 26253 net.cpp:172] Setting up conv3_5_ReLU0
I0927 22:04:50.908071 26253 net.cpp:186] Top shape: 128 32 16 16 (1048576)
I0927 22:04:50.908076 26253 net.cpp:194] Memory required for data: 1096286720
I0927 22:04:50.908080 26253 layer_factory.hpp:77] Creating layer conv3_5_1
I0927 22:04:50.908097 26253 net.cpp:128] Creating Layer conv3_5_1
I0927 22:04:50.908102 26253 net.cpp:558] conv3_5_1 <- conv3_5_0
I0927 22:04:50.908113 26253 net.cpp:522] conv3_5_1 -> conv3_5_1
I0927 22:04:50.914713 26253 net.cpp:172] Setting up conv3_5_1
I0927 22:04:50.914741 26253 net.cpp:186] Top shape: 128 32 16 16 (1048576)
I0927 22:04:50.914746 26253 net.cpp:194] Memory required for data: 1100481024
I0927 22:04:50.914755 26253 layer_factory.hpp:77] Creating layer conv3_5bn1
I0927 22:04:50.914764 26253 net.cpp:128] Creating Layer conv3_5bn1
I0927 22:04:50.914769 26253 net.cpp:558] conv3_5bn1 <- conv3_5_1
I0927 22:04:50.914780 26253 net.cpp:509] conv3_5bn1 -> conv3_5_1 (in-place)
I0927 22:04:50.915060 26253 net.cpp:172] Setting up conv3_5bn1
I0927 22:04:50.915073 26253 net.cpp:186] Top shape: 128 32 16 16 (1048576)
I0927 22:04:50.915077 26253 net.cpp:194] Memory required for data: 1104675328
I0927 22:04:50.915087 26253 layer_factory.hpp:77] Creating layer conv3_5_scale1
I0927 22:04:50.915094 26253 net.cpp:128] Creating Layer conv3_5_scale1
I0927 22:04:50.915099 26253 net.cpp:558] conv3_5_scale1 <- conv3_5_1
I0927 22:04:50.915104 26253 net.cpp:509] conv3_5_scale1 -> conv3_5_1 (in-place)
I0927 22:04:50.915149 26253 layer_factory.hpp:77] Creating layer conv3_5_scale1
I0927 22:04:50.915299 26253 net.cpp:172] Setting up conv3_5_scale1
I0927 22:04:50.915311 26253 net.cpp:186] Top shape: 128 32 16 16 (1048576)
I0927 22:04:50.915315 26253 net.cpp:194] Memory required for data: 1108869632
I0927 22:04:50.915323 26253 layer_factory.hpp:77] Creating layer conv3_Eltwise_5
I0927 22:04:50.915334 26253 net.cpp:128] Creating Layer conv3_Eltwise_5
I0927 22:04:50.915339 26253 net.cpp:558] conv3_Eltwise_5 <- conv3_Eltwise_4_conv3_4ReLU_1_0_split_1
I0927 22:04:50.915362 26253 net.cpp:558] conv3_Eltwise_5 <- conv3_5_1
I0927 22:04:50.915369 26253 net.cpp:522] conv3_Eltwise_5 -> conv3_Eltwise_5
I0927 22:04:50.915393 26253 net.cpp:172] Setting up conv3_Eltwise_5
I0927 22:04:50.915406 26253 net.cpp:186] Top shape: 128 32 16 16 (1048576)
I0927 22:04:50.915410 26253 net.cpp:194] Memory required for data: 1113063936
I0927 22:04:50.915415 26253 layer_factory.hpp:77] Creating layer conv3_5ReLU_1
I0927 22:04:50.915424 26253 net.cpp:128] Creating Layer conv3_5ReLU_1
I0927 22:04:50.915428 26253 net.cpp:558] conv3_5ReLU_1 <- conv3_Eltwise_5
I0927 22:04:50.915437 26253 net.cpp:509] conv3_5ReLU_1 -> conv3_Eltwise_5 (in-place)
I0927 22:04:50.916740 26253 net.cpp:172] Setting up conv3_5ReLU_1
I0927 22:04:50.916756 26253 net.cpp:186] Top shape: 128 32 16 16 (1048576)
I0927 22:04:50.916761 26253 net.cpp:194] Memory required for data: 1117258240
I0927 22:04:50.916766 26253 layer_factory.hpp:77] Creating layer conv3_Eltwise_5_conv3_5ReLU_1_0_split
I0927 22:04:50.916777 26253 net.cpp:128] Creating Layer conv3_Eltwise_5_conv3_5ReLU_1_0_split
I0927 22:04:50.916781 26253 net.cpp:558] conv3_Eltwise_5_conv3_5ReLU_1_0_split <- conv3_Eltwise_5
I0927 22:04:50.916790 26253 net.cpp:522] conv3_Eltwise_5_conv3_5ReLU_1_0_split -> conv3_Eltwise_5_conv3_5ReLU_1_0_split_0
I0927 22:04:50.916800 26253 net.cpp:522] conv3_Eltwise_5_conv3_5ReLU_1_0_split -> conv3_Eltwise_5_conv3_5ReLU_1_0_split_1
I0927 22:04:50.916851 26253 net.cpp:172] Setting up conv3_Eltwise_5_conv3_5ReLU_1_0_split
I0927 22:04:50.916862 26253 net.cpp:186] Top shape: 128 32 16 16 (1048576)
I0927 22:04:50.916867 26253 net.cpp:186] Top shape: 128 32 16 16 (1048576)
I0927 22:04:50.916872 26253 net.cpp:194] Memory required for data: 1125646848
I0927 22:04:50.916875 26253 layer_factory.hpp:77] Creating layer conv3_6_0
I0927 22:04:50.916888 26253 net.cpp:128] Creating Layer conv3_6_0
I0927 22:04:50.916893 26253 net.cpp:558] conv3_6_0 <- conv3_Eltwise_5_conv3_5ReLU_1_0_split_0
I0927 22:04:50.916900 26253 net.cpp:522] conv3_6_0 -> conv3_6_0
I0927 22:04:50.923539 26253 net.cpp:172] Setting up conv3_6_0
I0927 22:04:50.923571 26253 net.cpp:186] Top shape: 128 32 16 16 (1048576)
I0927 22:04:50.923576 26253 net.cpp:194] Memory required for data: 1129841152
I0927 22:04:50.923588 26253 layer_factory.hpp:77] Creating layer conv3_6_bn0
I0927 22:04:50.923600 26253 net.cpp:128] Creating Layer conv3_6_bn0
I0927 22:04:50.923605 26253 net.cpp:558] conv3_6_bn0 <- conv3_6_0
I0927 22:04:50.923619 26253 net.cpp:509] conv3_6_bn0 -> conv3_6_0 (in-place)
I0927 22:04:50.923894 26253 net.cpp:172] Setting up conv3_6_bn0
I0927 22:04:50.923907 26253 net.cpp:186] Top shape: 128 32 16 16 (1048576)
I0927 22:04:50.923910 26253 net.cpp:194] Memory required for data: 1134035456
I0927 22:04:50.923920 26253 layer_factory.hpp:77] Creating layer conv3_6_scale0
I0927 22:04:50.923928 26253 net.cpp:128] Creating Layer conv3_6_scale0
I0927 22:04:50.923933 26253 net.cpp:558] conv3_6_scale0 <- conv3_6_0
I0927 22:04:50.923938 26253 net.cpp:509] conv3_6_scale0 -> conv3_6_0 (in-place)
I0927 22:04:50.923987 26253 layer_factory.hpp:77] Creating layer conv3_6_scale0
I0927 22:04:50.924139 26253 net.cpp:172] Setting up conv3_6_scale0
I0927 22:04:50.924149 26253 net.cpp:186] Top shape: 128 32 16 16 (1048576)
I0927 22:04:50.924154 26253 net.cpp:194] Memory required for data: 1138229760
I0927 22:04:50.924161 26253 layer_factory.hpp:77] Creating layer conv3_6_ReLU0
I0927 22:04:50.924171 26253 net.cpp:128] Creating Layer conv3_6_ReLU0
I0927 22:04:50.924175 26253 net.cpp:558] conv3_6_ReLU0 <- conv3_6_0
I0927 22:04:50.924181 26253 net.cpp:509] conv3_6_ReLU0 -> conv3_6_0 (in-place)
I0927 22:04:50.925551 26253 net.cpp:172] Setting up conv3_6_ReLU0
I0927 22:04:50.925576 26253 net.cpp:186] Top shape: 128 32 16 16 (1048576)
I0927 22:04:50.925580 26253 net.cpp:194] Memory required for data: 1142424064
I0927 22:04:50.925585 26253 layer_factory.hpp:77] Creating layer conv3_6_1
I0927 22:04:50.925602 26253 net.cpp:128] Creating Layer conv3_6_1
I0927 22:04:50.925608 26253 net.cpp:558] conv3_6_1 <- conv3_6_0
I0927 22:04:50.925626 26253 net.cpp:522] conv3_6_1 -> conv3_6_1
I0927 22:04:50.932296 26253 net.cpp:172] Setting up conv3_6_1
I0927 22:04:50.932337 26253 net.cpp:186] Top shape: 128 32 16 16 (1048576)
I0927 22:04:50.932340 26253 net.cpp:194] Memory required for data: 1146618368
I0927 22:04:50.932355 26253 layer_factory.hpp:77] Creating layer conv3_6bn1
I0927 22:04:50.932374 26253 net.cpp:128] Creating Layer conv3_6bn1
I0927 22:04:50.932379 26253 net.cpp:558] conv3_6bn1 <- conv3_6_1
I0927 22:04:50.932389 26253 net.cpp:509] conv3_6bn1 -> conv3_6_1 (in-place)
I0927 22:04:50.932667 26253 net.cpp:172] Setting up conv3_6bn1
I0927 22:04:50.932677 26253 net.cpp:186] Top shape: 128 32 16 16 (1048576)
I0927 22:04:50.932682 26253 net.cpp:194] Memory required for data: 1150812672
I0927 22:04:50.932693 26253 layer_factory.hpp:77] Creating layer conv3_6_scale1
I0927 22:04:50.932705 26253 net.cpp:128] Creating Layer conv3_6_scale1
I0927 22:04:50.932709 26253 net.cpp:558] conv3_6_scale1 <- conv3_6_1
I0927 22:04:50.932715 26253 net.cpp:509] conv3_6_scale1 -> conv3_6_1 (in-place)
I0927 22:04:50.932763 26253 layer_factory.hpp:77] Creating layer conv3_6_scale1
I0927 22:04:50.932925 26253 net.cpp:172] Setting up conv3_6_scale1
I0927 22:04:50.932935 26253 net.cpp:186] Top shape: 128 32 16 16 (1048576)
I0927 22:04:50.932940 26253 net.cpp:194] Memory required for data: 1155006976
I0927 22:04:50.932947 26253 layer_factory.hpp:77] Creating layer conv3_Eltwise_6
I0927 22:04:50.932963 26253 net.cpp:128] Creating Layer conv3_Eltwise_6
I0927 22:04:50.932970 26253 net.cpp:558] conv3_Eltwise_6 <- conv3_Eltwise_5_conv3_5ReLU_1_0_split_1
I0927 22:04:50.932974 26253 net.cpp:558] conv3_Eltwise_6 <- conv3_6_1
I0927 22:04:50.932981 26253 net.cpp:522] conv3_Eltwise_6 -> conv3_Eltwise_6
I0927 22:04:50.933007 26253 net.cpp:172] Setting up conv3_Eltwise_6
I0927 22:04:50.933014 26253 net.cpp:186] Top shape: 128 32 16 16 (1048576)
I0927 22:04:50.933018 26253 net.cpp:194] Memory required for data: 1159201280
I0927 22:04:50.933022 26253 layer_factory.hpp:77] Creating layer conv3_6ReLU_1
I0927 22:04:50.933032 26253 net.cpp:128] Creating Layer conv3_6ReLU_1
I0927 22:04:50.933039 26253 net.cpp:558] conv3_6ReLU_1 <- conv3_Eltwise_6
I0927 22:04:50.933048 26253 net.cpp:509] conv3_6ReLU_1 -> conv3_Eltwise_6 (in-place)
I0927 22:04:50.934566 26253 net.cpp:172] Setting up conv3_6ReLU_1
I0927 22:04:50.934592 26253 net.cpp:186] Top shape: 128 32 16 16 (1048576)
I0927 22:04:50.934597 26253 net.cpp:194] Memory required for data: 1163395584
I0927 22:04:50.934602 26253 layer_factory.hpp:77] Creating layer conv3_Eltwise_6_conv3_6ReLU_1_0_split
I0927 22:04:50.934612 26253 net.cpp:128] Creating Layer conv3_Eltwise_6_conv3_6ReLU_1_0_split
I0927 22:04:50.934617 26253 net.cpp:558] conv3_Eltwise_6_conv3_6ReLU_1_0_split <- conv3_Eltwise_6
I0927 22:04:50.934631 26253 net.cpp:522] conv3_Eltwise_6_conv3_6ReLU_1_0_split -> conv3_Eltwise_6_conv3_6ReLU_1_0_split_0
I0927 22:04:50.934641 26253 net.cpp:522] conv3_Eltwise_6_conv3_6ReLU_1_0_split -> conv3_Eltwise_6_conv3_6ReLU_1_0_split_1
I0927 22:04:50.934705 26253 net.cpp:172] Setting up conv3_Eltwise_6_conv3_6ReLU_1_0_split
I0927 22:04:50.934717 26253 net.cpp:186] Top shape: 128 32 16 16 (1048576)
I0927 22:04:50.934723 26253 net.cpp:186] Top shape: 128 32 16 16 (1048576)
I0927 22:04:50.934729 26253 net.cpp:194] Memory required for data: 1171784192
I0927 22:04:50.934734 26253 layer_factory.hpp:77] Creating layer conv3_7_0
I0927 22:04:50.934749 26253 net.cpp:128] Creating Layer conv3_7_0
I0927 22:04:50.934754 26253 net.cpp:558] conv3_7_0 <- conv3_Eltwise_6_conv3_6ReLU_1_0_split_0
I0927 22:04:50.934764 26253 net.cpp:522] conv3_7_0 -> conv3_7_0
I0927 22:04:50.941270 26253 net.cpp:172] Setting up conv3_7_0
I0927 22:04:50.941300 26253 net.cpp:186] Top shape: 128 32 16 16 (1048576)
I0927 22:04:50.941305 26253 net.cpp:194] Memory required for data: 1175978496
I0927 22:04:50.941319 26253 layer_factory.hpp:77] Creating layer conv3_7_bn0
I0927 22:04:50.941331 26253 net.cpp:128] Creating Layer conv3_7_bn0
I0927 22:04:50.941337 26253 net.cpp:558] conv3_7_bn0 <- conv3_7_0
I0927 22:04:50.941367 26253 net.cpp:509] conv3_7_bn0 -> conv3_7_0 (in-place)
I0927 22:04:50.941655 26253 net.cpp:172] Setting up conv3_7_bn0
I0927 22:04:50.941668 26253 net.cpp:186] Top shape: 128 32 16 16 (1048576)
I0927 22:04:50.941673 26253 net.cpp:194] Memory required for data: 1180172800
I0927 22:04:50.941684 26253 layer_factory.hpp:77] Creating layer conv3_7_scale0
I0927 22:04:50.941691 26253 net.cpp:128] Creating Layer conv3_7_scale0
I0927 22:04:50.941696 26253 net.cpp:558] conv3_7_scale0 <- conv3_7_0
I0927 22:04:50.941706 26253 net.cpp:509] conv3_7_scale0 -> conv3_7_0 (in-place)
I0927 22:04:50.941750 26253 layer_factory.hpp:77] Creating layer conv3_7_scale0
I0927 22:04:50.941905 26253 net.cpp:172] Setting up conv3_7_scale0
I0927 22:04:50.941920 26253 net.cpp:186] Top shape: 128 32 16 16 (1048576)
I0927 22:04:50.941925 26253 net.cpp:194] Memory required for data: 1184367104
I0927 22:04:50.941932 26253 layer_factory.hpp:77] Creating layer conv3_7_ReLU0
I0927 22:04:50.941939 26253 net.cpp:128] Creating Layer conv3_7_ReLU0
I0927 22:04:50.941944 26253 net.cpp:558] conv3_7_ReLU0 <- conv3_7_0
I0927 22:04:50.941951 26253 net.cpp:509] conv3_7_ReLU0 -> conv3_7_0 (in-place)
I0927 22:04:50.943064 26253 net.cpp:172] Setting up conv3_7_ReLU0
I0927 22:04:50.943083 26253 net.cpp:186] Top shape: 128 32 16 16 (1048576)
I0927 22:04:50.943087 26253 net.cpp:194] Memory required for data: 1188561408
I0927 22:04:50.943092 26253 layer_factory.hpp:77] Creating layer conv3_7_1
I0927 22:04:50.943106 26253 net.cpp:128] Creating Layer conv3_7_1
I0927 22:04:50.943111 26253 net.cpp:558] conv3_7_1 <- conv3_7_0
I0927 22:04:50.943120 26253 net.cpp:522] conv3_7_1 -> conv3_7_1
I0927 22:04:50.949755 26253 net.cpp:172] Setting up conv3_7_1
I0927 22:04:50.949784 26253 net.cpp:186] Top shape: 128 32 16 16 (1048576)
I0927 22:04:50.949787 26253 net.cpp:194] Memory required for data: 1192755712
I0927 22:04:50.949800 26253 layer_factory.hpp:77] Creating layer conv3_7bn1
I0927 22:04:50.949810 26253 net.cpp:128] Creating Layer conv3_7bn1
I0927 22:04:50.949816 26253 net.cpp:558] conv3_7bn1 <- conv3_7_1
I0927 22:04:50.949831 26253 net.cpp:509] conv3_7bn1 -> conv3_7_1 (in-place)
I0927 22:04:50.950099 26253 net.cpp:172] Setting up conv3_7bn1
I0927 22:04:50.950111 26253 net.cpp:186] Top shape: 128 32 16 16 (1048576)
I0927 22:04:50.950116 26253 net.cpp:194] Memory required for data: 1196950016
I0927 22:04:50.950126 26253 layer_factory.hpp:77] Creating layer conv3_7_scale1
I0927 22:04:50.950132 26253 net.cpp:128] Creating Layer conv3_7_scale1
I0927 22:04:50.950137 26253 net.cpp:558] conv3_7_scale1 <- conv3_7_1
I0927 22:04:50.950143 26253 net.cpp:509] conv3_7_scale1 -> conv3_7_1 (in-place)
I0927 22:04:50.950188 26253 layer_factory.hpp:77] Creating layer conv3_7_scale1
I0927 22:04:50.950351 26253 net.cpp:172] Setting up conv3_7_scale1
I0927 22:04:50.950364 26253 net.cpp:186] Top shape: 128 32 16 16 (1048576)
I0927 22:04:50.950368 26253 net.cpp:194] Memory required for data: 1201144320
I0927 22:04:50.950376 26253 layer_factory.hpp:77] Creating layer conv3_Eltwise_7
I0927 22:04:50.950384 26253 net.cpp:128] Creating Layer conv3_Eltwise_7
I0927 22:04:50.950390 26253 net.cpp:558] conv3_Eltwise_7 <- conv3_Eltwise_6_conv3_6ReLU_1_0_split_1
I0927 22:04:50.950395 26253 net.cpp:558] conv3_Eltwise_7 <- conv3_7_1
I0927 22:04:50.950404 26253 net.cpp:522] conv3_Eltwise_7 -> conv3_Eltwise_7
I0927 22:04:50.950428 26253 net.cpp:172] Setting up conv3_Eltwise_7
I0927 22:04:50.950440 26253 net.cpp:186] Top shape: 128 32 16 16 (1048576)
I0927 22:04:50.950445 26253 net.cpp:194] Memory required for data: 1205338624
I0927 22:04:50.950449 26253 layer_factory.hpp:77] Creating layer conv3_7ReLU_1
I0927 22:04:50.950459 26253 net.cpp:128] Creating Layer conv3_7ReLU_1
I0927 22:04:50.950464 26253 net.cpp:558] conv3_7ReLU_1 <- conv3_Eltwise_7
I0927 22:04:50.950469 26253 net.cpp:509] conv3_7ReLU_1 -> conv3_Eltwise_7 (in-place)
I0927 22:04:50.951792 26253 net.cpp:172] Setting up conv3_7ReLU_1
I0927 22:04:50.951817 26253 net.cpp:186] Top shape: 128 32 16 16 (1048576)
I0927 22:04:50.951822 26253 net.cpp:194] Memory required for data: 1209532928
I0927 22:04:50.951844 26253 layer_factory.hpp:77] Creating layer conv3_Eltwise_7_conv3_7ReLU_1_0_split
I0927 22:04:50.951859 26253 net.cpp:128] Creating Layer conv3_Eltwise_7_conv3_7ReLU_1_0_split
I0927 22:04:50.951865 26253 net.cpp:558] conv3_Eltwise_7_conv3_7ReLU_1_0_split <- conv3_Eltwise_7
I0927 22:04:50.951872 26253 net.cpp:522] conv3_Eltwise_7_conv3_7ReLU_1_0_split -> conv3_Eltwise_7_conv3_7ReLU_1_0_split_0
I0927 22:04:50.951881 26253 net.cpp:522] conv3_Eltwise_7_conv3_7ReLU_1_0_split -> conv3_Eltwise_7_conv3_7ReLU_1_0_split_1
I0927 22:04:50.951942 26253 net.cpp:172] Setting up conv3_Eltwise_7_conv3_7ReLU_1_0_split
I0927 22:04:50.951949 26253 net.cpp:186] Top shape: 128 32 16 16 (1048576)
I0927 22:04:50.951956 26253 net.cpp:186] Top shape: 128 32 16 16 (1048576)
I0927 22:04:50.951959 26253 net.cpp:194] Memory required for data: 1217921536
I0927 22:04:50.951963 26253 layer_factory.hpp:77] Creating layer conv3_8_0
I0927 22:04:50.951977 26253 net.cpp:128] Creating Layer conv3_8_0
I0927 22:04:50.951982 26253 net.cpp:558] conv3_8_0 <- conv3_Eltwise_7_conv3_7ReLU_1_0_split_0
I0927 22:04:50.951989 26253 net.cpp:522] conv3_8_0 -> conv3_8_0
I0927 22:04:50.958475 26253 net.cpp:172] Setting up conv3_8_0
I0927 22:04:50.958503 26253 net.cpp:186] Top shape: 128 32 16 16 (1048576)
I0927 22:04:50.958508 26253 net.cpp:194] Memory required for data: 1222115840
I0927 22:04:50.958519 26253 layer_factory.hpp:77] Creating layer conv3_8_bn0
I0927 22:04:50.958531 26253 net.cpp:128] Creating Layer conv3_8_bn0
I0927 22:04:50.958536 26253 net.cpp:558] conv3_8_bn0 <- conv3_8_0
I0927 22:04:50.958550 26253 net.cpp:509] conv3_8_bn0 -> conv3_8_0 (in-place)
I0927 22:04:50.958832 26253 net.cpp:172] Setting up conv3_8_bn0
I0927 22:04:50.958843 26253 net.cpp:186] Top shape: 128 32 16 16 (1048576)
I0927 22:04:50.958847 26253 net.cpp:194] Memory required for data: 1226310144
I0927 22:04:50.958858 26253 layer_factory.hpp:77] Creating layer conv3_8_scale0
I0927 22:04:50.958865 26253 net.cpp:128] Creating Layer conv3_8_scale0
I0927 22:04:50.958869 26253 net.cpp:558] conv3_8_scale0 <- conv3_8_0
I0927 22:04:50.958878 26253 net.cpp:509] conv3_8_scale0 -> conv3_8_0 (in-place)
I0927 22:04:50.958921 26253 layer_factory.hpp:77] Creating layer conv3_8_scale0
I0927 22:04:50.959077 26253 net.cpp:172] Setting up conv3_8_scale0
I0927 22:04:50.959090 26253 net.cpp:186] Top shape: 128 32 16 16 (1048576)
I0927 22:04:50.959097 26253 net.cpp:194] Memory required for data: 1230504448
I0927 22:04:50.959105 26253 layer_factory.hpp:77] Creating layer conv3_8_ReLU0
I0927 22:04:50.959111 26253 net.cpp:128] Creating Layer conv3_8_ReLU0
I0927 22:04:50.959115 26253 net.cpp:558] conv3_8_ReLU0 <- conv3_8_0
I0927 22:04:50.959127 26253 net.cpp:509] conv3_8_ReLU0 -> conv3_8_0 (in-place)
I0927 22:04:50.960500 26253 net.cpp:172] Setting up conv3_8_ReLU0
I0927 22:04:50.960520 26253 net.cpp:186] Top shape: 128 32 16 16 (1048576)
I0927 22:04:50.960525 26253 net.cpp:194] Memory required for data: 1234698752
I0927 22:04:50.960528 26253 layer_factory.hpp:77] Creating layer conv3_8_1
I0927 22:04:50.960542 26253 net.cpp:128] Creating Layer conv3_8_1
I0927 22:04:50.960547 26253 net.cpp:558] conv3_8_1 <- conv3_8_0
I0927 22:04:50.960562 26253 net.cpp:522] conv3_8_1 -> conv3_8_1
I0927 22:04:50.967239 26253 net.cpp:172] Setting up conv3_8_1
I0927 22:04:50.967267 26253 net.cpp:186] Top shape: 128 32 16 16 (1048576)
I0927 22:04:50.967272 26253 net.cpp:194] Memory required for data: 1238893056
I0927 22:04:50.967283 26253 layer_factory.hpp:77] Creating layer conv3_8bn1
I0927 22:04:50.967290 26253 net.cpp:128] Creating Layer conv3_8bn1
I0927 22:04:50.967295 26253 net.cpp:558] conv3_8bn1 <- conv3_8_1
I0927 22:04:50.967305 26253 net.cpp:509] conv3_8bn1 -> conv3_8_1 (in-place)
I0927 22:04:50.967578 26253 net.cpp:172] Setting up conv3_8bn1
I0927 22:04:50.967591 26253 net.cpp:186] Top shape: 128 32 16 16 (1048576)
I0927 22:04:50.967594 26253 net.cpp:194] Memory required for data: 1243087360
I0927 22:04:50.967604 26253 layer_factory.hpp:77] Creating layer conv3_8_scale1
I0927 22:04:50.967628 26253 net.cpp:128] Creating Layer conv3_8_scale1
I0927 22:04:50.967633 26253 net.cpp:558] conv3_8_scale1 <- conv3_8_1
I0927 22:04:50.967639 26253 net.cpp:509] conv3_8_scale1 -> conv3_8_1 (in-place)
I0927 22:04:50.967685 26253 layer_factory.hpp:77] Creating layer conv3_8_scale1
I0927 22:04:50.967844 26253 net.cpp:172] Setting up conv3_8_scale1
I0927 22:04:50.967855 26253 net.cpp:186] Top shape: 128 32 16 16 (1048576)
I0927 22:04:50.967859 26253 net.cpp:194] Memory required for data: 1247281664
I0927 22:04:50.967867 26253 layer_factory.hpp:77] Creating layer conv3_Eltwise_8
I0927 22:04:50.967878 26253 net.cpp:128] Creating Layer conv3_Eltwise_8
I0927 22:04:50.967885 26253 net.cpp:558] conv3_Eltwise_8 <- conv3_Eltwise_7_conv3_7ReLU_1_0_split_1
I0927 22:04:50.967890 26253 net.cpp:558] conv3_Eltwise_8 <- conv3_8_1
I0927 22:04:50.967895 26253 net.cpp:522] conv3_Eltwise_8 -> conv3_Eltwise_8
I0927 22:04:50.967919 26253 net.cpp:172] Setting up conv3_Eltwise_8
I0927 22:04:50.967926 26253 net.cpp:186] Top shape: 128 32 16 16 (1048576)
I0927 22:04:50.967931 26253 net.cpp:194] Memory required for data: 1251475968
I0927 22:04:50.967936 26253 layer_factory.hpp:77] Creating layer conv3_8ReLU_1
I0927 22:04:50.967944 26253 net.cpp:128] Creating Layer conv3_8ReLU_1
I0927 22:04:50.967949 26253 net.cpp:558] conv3_8ReLU_1 <- conv3_Eltwise_8
I0927 22:04:50.967954 26253 net.cpp:509] conv3_8ReLU_1 -> conv3_Eltwise_8 (in-place)
I0927 22:04:50.969266 26253 net.cpp:172] Setting up conv3_8ReLU_1
I0927 22:04:50.969285 26253 net.cpp:186] Top shape: 128 32 16 16 (1048576)
I0927 22:04:50.969290 26253 net.cpp:194] Memory required for data: 1255670272
I0927 22:04:50.969295 26253 layer_factory.hpp:77] Creating layer conv3_Eltwise_8_conv3_8ReLU_1_0_split
I0927 22:04:50.969305 26253 net.cpp:128] Creating Layer conv3_Eltwise_8_conv3_8ReLU_1_0_split
I0927 22:04:50.969310 26253 net.cpp:558] conv3_Eltwise_8_conv3_8ReLU_1_0_split <- conv3_Eltwise_8
I0927 22:04:50.969318 26253 net.cpp:522] conv3_Eltwise_8_conv3_8ReLU_1_0_split -> conv3_Eltwise_8_conv3_8ReLU_1_0_split_0
I0927 22:04:50.969331 26253 net.cpp:522] conv3_Eltwise_8_conv3_8ReLU_1_0_split -> conv3_Eltwise_8_conv3_8ReLU_1_0_split_1
I0927 22:04:50.969383 26253 net.cpp:172] Setting up conv3_Eltwise_8_conv3_8ReLU_1_0_split
I0927 22:04:50.969400 26253 net.cpp:186] Top shape: 128 32 16 16 (1048576)
I0927 22:04:50.969406 26253 net.cpp:186] Top shape: 128 32 16 16 (1048576)
I0927 22:04:50.969410 26253 net.cpp:194] Memory required for data: 1264058880
I0927 22:04:50.969414 26253 layer_factory.hpp:77] Creating layer conv3_9_0
I0927 22:04:50.969427 26253 net.cpp:128] Creating Layer conv3_9_0
I0927 22:04:50.969432 26253 net.cpp:558] conv3_9_0 <- conv3_Eltwise_8_conv3_8ReLU_1_0_split_0
I0927 22:04:50.969440 26253 net.cpp:522] conv3_9_0 -> conv3_9_0
I0927 22:04:50.975975 26253 net.cpp:172] Setting up conv3_9_0
I0927 22:04:50.976003 26253 net.cpp:186] Top shape: 128 32 16 16 (1048576)
I0927 22:04:50.976008 26253 net.cpp:194] Memory required for data: 1268253184
I0927 22:04:50.976018 26253 layer_factory.hpp:77] Creating layer conv3_9_bn0
I0927 22:04:50.976027 26253 net.cpp:128] Creating Layer conv3_9_bn0
I0927 22:04:50.976032 26253 net.cpp:558] conv3_9_bn0 <- conv3_9_0
I0927 22:04:50.976047 26253 net.cpp:509] conv3_9_bn0 -> conv3_9_0 (in-place)
I0927 22:04:50.976321 26253 net.cpp:172] Setting up conv3_9_bn0
I0927 22:04:50.976333 26253 net.cpp:186] Top shape: 128 32 16 16 (1048576)
I0927 22:04:50.976337 26253 net.cpp:194] Memory required for data: 1272447488
I0927 22:04:50.976372 26253 layer_factory.hpp:77] Creating layer conv3_9_scale0
I0927 22:04:50.976379 26253 net.cpp:128] Creating Layer conv3_9_scale0
I0927 22:04:50.976383 26253 net.cpp:558] conv3_9_scale0 <- conv3_9_0
I0927 22:04:50.976389 26253 net.cpp:509] conv3_9_scale0 -> conv3_9_0 (in-place)
I0927 22:04:50.976438 26253 layer_factory.hpp:77] Creating layer conv3_9_scale0
I0927 22:04:50.976595 26253 net.cpp:172] Setting up conv3_9_scale0
I0927 22:04:50.976606 26253 net.cpp:186] Top shape: 128 32 16 16 (1048576)
I0927 22:04:50.976610 26253 net.cpp:194] Memory required for data: 1276641792
I0927 22:04:50.976637 26253 layer_factory.hpp:77] Creating layer conv3_9_ReLU0
I0927 22:04:50.976647 26253 net.cpp:128] Creating Layer conv3_9_ReLU0
I0927 22:04:50.976652 26253 net.cpp:558] conv3_9_ReLU0 <- conv3_9_0
I0927 22:04:50.976658 26253 net.cpp:509] conv3_9_ReLU0 -> conv3_9_0 (in-place)
I0927 22:04:50.978003 26253 net.cpp:172] Setting up conv3_9_ReLU0
I0927 22:04:50.978029 26253 net.cpp:186] Top shape: 128 32 16 16 (1048576)
I0927 22:04:50.978034 26253 net.cpp:194] Memory required for data: 1280836096
I0927 22:04:50.978039 26253 layer_factory.hpp:77] Creating layer conv3_9_1
I0927 22:04:50.978055 26253 net.cpp:128] Creating Layer conv3_9_1
I0927 22:04:50.978060 26253 net.cpp:558] conv3_9_1 <- conv3_9_0
I0927 22:04:50.978070 26253 net.cpp:522] conv3_9_1 -> conv3_9_1
I0927 22:04:50.984750 26253 net.cpp:172] Setting up conv3_9_1
I0927 22:04:50.984777 26253 net.cpp:186] Top shape: 128 32 16 16 (1048576)
I0927 22:04:50.984781 26253 net.cpp:194] Memory required for data: 1285030400
I0927 22:04:50.984791 26253 layer_factory.hpp:77] Creating layer conv3_9bn1
I0927 22:04:50.984802 26253 net.cpp:128] Creating Layer conv3_9bn1
I0927 22:04:50.984808 26253 net.cpp:558] conv3_9bn1 <- conv3_9_1
I0927 22:04:50.984815 26253 net.cpp:509] conv3_9bn1 -> conv3_9_1 (in-place)
I0927 22:04:50.985101 26253 net.cpp:172] Setting up conv3_9bn1
I0927 22:04:50.985112 26253 net.cpp:186] Top shape: 128 32 16 16 (1048576)
I0927 22:04:50.985118 26253 net.cpp:194] Memory required for data: 1289224704
I0927 22:04:50.985128 26253 layer_factory.hpp:77] Creating layer conv3_9_scale1
I0927 22:04:50.985136 26253 net.cpp:128] Creating Layer conv3_9_scale1
I0927 22:04:50.985141 26253 net.cpp:558] conv3_9_scale1 <- conv3_9_1
I0927 22:04:50.985149 26253 net.cpp:509] conv3_9_scale1 -> conv3_9_1 (in-place)
I0927 22:04:50.985193 26253 layer_factory.hpp:77] Creating layer conv3_9_scale1
I0927 22:04:50.985355 26253 net.cpp:172] Setting up conv3_9_scale1
I0927 22:04:50.985369 26253 net.cpp:186] Top shape: 128 32 16 16 (1048576)
I0927 22:04:50.985373 26253 net.cpp:194] Memory required for data: 1293419008
I0927 22:04:50.985383 26253 layer_factory.hpp:77] Creating layer conv3_Eltwise_9
I0927 22:04:50.985390 26253 net.cpp:128] Creating Layer conv3_Eltwise_9
I0927 22:04:50.985396 26253 net.cpp:558] conv3_Eltwise_9 <- conv3_Eltwise_8_conv3_8ReLU_1_0_split_1
I0927 22:04:50.985401 26253 net.cpp:558] conv3_Eltwise_9 <- conv3_9_1
I0927 22:04:50.985407 26253 net.cpp:522] conv3_Eltwise_9 -> conv3_Eltwise_9
I0927 22:04:50.985433 26253 net.cpp:172] Setting up conv3_Eltwise_9
I0927 22:04:50.985447 26253 net.cpp:186] Top shape: 128 32 16 16 (1048576)
I0927 22:04:50.985452 26253 net.cpp:194] Memory required for data: 1297613312
I0927 22:04:50.985457 26253 layer_factory.hpp:77] Creating layer conv3_9ReLU_1
I0927 22:04:50.985464 26253 net.cpp:128] Creating Layer conv3_9ReLU_1
I0927 22:04:50.985468 26253 net.cpp:558] conv3_9ReLU_1 <- conv3_Eltwise_9
I0927 22:04:50.985476 26253 net.cpp:509] conv3_9ReLU_1 -> conv3_Eltwise_9 (in-place)
I0927 22:04:50.986766 26253 net.cpp:172] Setting up conv3_9ReLU_1
I0927 22:04:50.986784 26253 net.cpp:186] Top shape: 128 32 16 16 (1048576)
I0927 22:04:50.986788 26253 net.cpp:194] Memory required for data: 1301807616
I0927 22:04:50.986793 26253 layer_factory.hpp:77] Creating layer conv3_Eltwise_9_conv3_9ReLU_1_0_split
I0927 22:04:50.986801 26253 net.cpp:128] Creating Layer conv3_Eltwise_9_conv3_9ReLU_1_0_split
I0927 22:04:50.986805 26253 net.cpp:558] conv3_Eltwise_9_conv3_9ReLU_1_0_split <- conv3_Eltwise_9
I0927 22:04:50.986824 26253 net.cpp:522] conv3_Eltwise_9_conv3_9ReLU_1_0_split -> conv3_Eltwise_9_conv3_9ReLU_1_0_split_0
I0927 22:04:50.986834 26253 net.cpp:522] conv3_Eltwise_9_conv3_9ReLU_1_0_split -> conv3_Eltwise_9_conv3_9ReLU_1_0_split_1
I0927 22:04:50.986891 26253 net.cpp:172] Setting up conv3_Eltwise_9_conv3_9ReLU_1_0_split
I0927 22:04:50.986898 26253 net.cpp:186] Top shape: 128 32 16 16 (1048576)
I0927 22:04:50.986903 26253 net.cpp:186] Top shape: 128 32 16 16 (1048576)
I0927 22:04:50.986907 26253 net.cpp:194] Memory required for data: 1310196224
I0927 22:04:50.986928 26253 layer_factory.hpp:77] Creating layer conv4_1_0
I0927 22:04:50.986946 26253 net.cpp:128] Creating Layer conv4_1_0
I0927 22:04:50.986951 26253 net.cpp:558] conv4_1_0 <- conv3_Eltwise_9_conv3_9ReLU_1_0_split_0
I0927 22:04:50.986961 26253 net.cpp:522] conv4_1_0 -> conv4_1_0
I0927 22:04:50.993788 26253 net.cpp:172] Setting up conv4_1_0
I0927 22:04:50.993818 26253 net.cpp:186] Top shape: 128 64 8 8 (524288)
I0927 22:04:50.993821 26253 net.cpp:194] Memory required for data: 1312293376
I0927 22:04:50.993832 26253 layer_factory.hpp:77] Creating layer conv4_1_bn0
I0927 22:04:50.993845 26253 net.cpp:128] Creating Layer conv4_1_bn0
I0927 22:04:50.993851 26253 net.cpp:558] conv4_1_bn0 <- conv4_1_0
I0927 22:04:50.993865 26253 net.cpp:509] conv4_1_bn0 -> conv4_1_0 (in-place)
I0927 22:04:50.994160 26253 net.cpp:172] Setting up conv4_1_bn0
I0927 22:04:50.994174 26253 net.cpp:186] Top shape: 128 64 8 8 (524288)
I0927 22:04:50.994179 26253 net.cpp:194] Memory required for data: 1314390528
I0927 22:04:50.994189 26253 layer_factory.hpp:77] Creating layer conv4_1_scale0
I0927 22:04:50.994199 26253 net.cpp:128] Creating Layer conv4_1_scale0
I0927 22:04:50.994204 26253 net.cpp:558] conv4_1_scale0 <- conv4_1_0
I0927 22:04:50.994210 26253 net.cpp:509] conv4_1_scale0 -> conv4_1_0 (in-place)
I0927 22:04:50.994256 26253 layer_factory.hpp:77] Creating layer conv4_1_scale0
I0927 22:04:50.994431 26253 net.cpp:172] Setting up conv4_1_scale0
I0927 22:04:50.994441 26253 net.cpp:186] Top shape: 128 64 8 8 (524288)
I0927 22:04:50.994446 26253 net.cpp:194] Memory required for data: 1316487680
I0927 22:04:50.994454 26253 layer_factory.hpp:77] Creating layer conv4_1_ReLU0
I0927 22:04:50.994460 26253 net.cpp:128] Creating Layer conv4_1_ReLU0
I0927 22:04:50.994465 26253 net.cpp:558] conv4_1_ReLU0 <- conv4_1_0
I0927 22:04:50.994474 26253 net.cpp:509] conv4_1_ReLU0 -> conv4_1_0 (in-place)
I0927 22:04:50.995587 26253 net.cpp:172] Setting up conv4_1_ReLU0
I0927 22:04:50.995607 26253 net.cpp:186] Top shape: 128 64 8 8 (524288)
I0927 22:04:50.995612 26253 net.cpp:194] Memory required for data: 1318584832
I0927 22:04:50.995617 26253 layer_factory.hpp:77] Creating layer conv4_1_1
I0927 22:04:50.995631 26253 net.cpp:128] Creating Layer conv4_1_1
I0927 22:04:50.995636 26253 net.cpp:558] conv4_1_1 <- conv4_1_0
I0927 22:04:50.995646 26253 net.cpp:522] conv4_1_1 -> conv4_1_1
I0927 22:04:51.002569 26253 net.cpp:172] Setting up conv4_1_1
I0927 22:04:51.002599 26253 net.cpp:186] Top shape: 128 64 8 8 (524288)
I0927 22:04:51.002604 26253 net.cpp:194] Memory required for data: 1320681984
I0927 22:04:51.002617 26253 layer_factory.hpp:77] Creating layer conv4_1bn1
I0927 22:04:51.002626 26253 net.cpp:128] Creating Layer conv4_1bn1
I0927 22:04:51.002631 26253 net.cpp:558] conv4_1bn1 <- conv4_1_1
I0927 22:04:51.002645 26253 net.cpp:509] conv4_1bn1 -> conv4_1_1 (in-place)
I0927 22:04:51.002967 26253 net.cpp:172] Setting up conv4_1bn1
I0927 22:04:51.002981 26253 net.cpp:186] Top shape: 128 64 8 8 (524288)
I0927 22:04:51.002985 26253 net.cpp:194] Memory required for data: 1322779136
I0927 22:04:51.002996 26253 layer_factory.hpp:77] Creating layer conv4_1_scale1
I0927 22:04:51.003005 26253 net.cpp:128] Creating Layer conv4_1_scale1
I0927 22:04:51.003008 26253 net.cpp:558] conv4_1_scale1 <- conv4_1_1
I0927 22:04:51.003017 26253 net.cpp:509] conv4_1_scale1 -> conv4_1_1 (in-place)
I0927 22:04:51.003062 26253 layer_factory.hpp:77] Creating layer conv4_1_scale1
I0927 22:04:51.003226 26253 net.cpp:172] Setting up conv4_1_scale1
I0927 22:04:51.003238 26253 net.cpp:186] Top shape: 128 64 8 8 (524288)
I0927 22:04:51.003242 26253 net.cpp:194] Memory required for data: 1324876288
I0927 22:04:51.003250 26253 layer_factory.hpp:77] Creating layer conv4_1_down
I0927 22:04:51.003263 26253 net.cpp:128] Creating Layer conv4_1_down
I0927 22:04:51.003268 26253 net.cpp:558] conv4_1_down <- conv3_Eltwise_9_conv3_9ReLU_1_0_split_1
I0927 22:04:51.003278 26253 net.cpp:522] conv4_1_down -> conv4_1_down
I0927 22:04:51.008929 26253 net.cpp:172] Setting up conv4_1_down
I0927 22:04:51.008975 26253 net.cpp:186] Top shape: 128 64 8 8 (524288)
I0927 22:04:51.008978 26253 net.cpp:194] Memory required for data: 1326973440
I0927 22:04:51.008990 26253 layer_factory.hpp:77] Creating layer conv4_1_bn_down
I0927 22:04:51.009001 26253 net.cpp:128] Creating Layer conv4_1_bn_down
I0927 22:04:51.009006 26253 net.cpp:558] conv4_1_bn_down <- conv4_1_down
I0927 22:04:51.009013 26253 net.cpp:509] conv4_1_bn_down -> conv4_1_down (in-place)
I0927 22:04:51.009305 26253 net.cpp:172] Setting up conv4_1_bn_down
I0927 22:04:51.009315 26253 net.cpp:186] Top shape: 128 64 8 8 (524288)
I0927 22:04:51.009321 26253 net.cpp:194] Memory required for data: 1329070592
I0927 22:04:51.009331 26253 layer_factory.hpp:77] Creating layer conv4_1_scale_down
I0927 22:04:51.009341 26253 net.cpp:128] Creating Layer conv4_1_scale_down
I0927 22:04:51.009346 26253 net.cpp:558] conv4_1_scale_down <- conv4_1_down
I0927 22:04:51.009351 26253 net.cpp:509] conv4_1_scale_down -> conv4_1_down (in-place)
I0927 22:04:51.009397 26253 layer_factory.hpp:77] Creating layer conv4_1_scale_down
I0927 22:04:51.009559 26253 net.cpp:172] Setting up conv4_1_scale_down
I0927 22:04:51.009570 26253 net.cpp:186] Top shape: 128 64 8 8 (524288)
I0927 22:04:51.009574 26253 net.cpp:194] Memory required for data: 1331167744
I0927 22:04:51.009582 26253 layer_factory.hpp:77] Creating layer conv4_Eltwise_1
I0927 22:04:51.009598 26253 net.cpp:128] Creating Layer conv4_Eltwise_1
I0927 22:04:51.009603 26253 net.cpp:558] conv4_Eltwise_1 <- conv4_1_1
I0927 22:04:51.009608 26253 net.cpp:558] conv4_Eltwise_1 <- conv4_1_down
I0927 22:04:51.009616 26253 net.cpp:522] conv4_Eltwise_1 -> conv4_Eltwise_1
I0927 22:04:51.009641 26253 net.cpp:172] Setting up conv4_Eltwise_1
I0927 22:04:51.009649 26253 net.cpp:186] Top shape: 128 64 8 8 (524288)
I0927 22:04:51.009652 26253 net.cpp:194] Memory required for data: 1333264896
I0927 22:04:51.009656 26253 layer_factory.hpp:77] Creating layer conv4_1ReLU_1
I0927 22:04:51.009662 26253 net.cpp:128] Creating Layer conv4_1ReLU_1
I0927 22:04:51.009667 26253 net.cpp:558] conv4_1ReLU_1 <- conv4_Eltwise_1
I0927 22:04:51.009675 26253 net.cpp:509] conv4_1ReLU_1 -> conv4_Eltwise_1 (in-place)
I0927 22:04:51.010960 26253 net.cpp:172] Setting up conv4_1ReLU_1
I0927 22:04:51.010982 26253 net.cpp:186] Top shape: 128 64 8 8 (524288)
I0927 22:04:51.010985 26253 net.cpp:194] Memory required for data: 1335362048
I0927 22:04:51.010990 26253 layer_factory.hpp:77] Creating layer conv4_Eltwise_1_conv4_1ReLU_1_0_split
I0927 22:04:51.010998 26253 net.cpp:128] Creating Layer conv4_Eltwise_1_conv4_1ReLU_1_0_split
I0927 22:04:51.011003 26253 net.cpp:558] conv4_Eltwise_1_conv4_1ReLU_1_0_split <- conv4_Eltwise_1
I0927 22:04:51.011011 26253 net.cpp:522] conv4_Eltwise_1_conv4_1ReLU_1_0_split -> conv4_Eltwise_1_conv4_1ReLU_1_0_split_0
I0927 22:04:51.011020 26253 net.cpp:522] conv4_Eltwise_1_conv4_1ReLU_1_0_split -> conv4_Eltwise_1_conv4_1ReLU_1_0_split_1
I0927 22:04:51.011085 26253 net.cpp:172] Setting up conv4_Eltwise_1_conv4_1ReLU_1_0_split
I0927 22:04:51.011092 26253 net.cpp:186] Top shape: 128 64 8 8 (524288)
I0927 22:04:51.011098 26253 net.cpp:186] Top shape: 128 64 8 8 (524288)
I0927 22:04:51.011101 26253 net.cpp:194] Memory required for data: 1339556352
I0927 22:04:51.011106 26253 layer_factory.hpp:77] Creating layer conv4_2_0
I0927 22:04:51.011118 26253 net.cpp:128] Creating Layer conv4_2_0
I0927 22:04:51.011123 26253 net.cpp:558] conv4_2_0 <- conv4_Eltwise_1_conv4_1ReLU_1_0_split_0
I0927 22:04:51.011133 26253 net.cpp:522] conv4_2_0 -> conv4_2_0
I0927 22:04:51.017736 26253 net.cpp:172] Setting up conv4_2_0
I0927 22:04:51.017763 26253 net.cpp:186] Top shape: 128 64 8 8 (524288)
I0927 22:04:51.017767 26253 net.cpp:194] Memory required for data: 1341653504
I0927 22:04:51.017778 26253 layer_factory.hpp:77] Creating layer conv4_2_bn0
I0927 22:04:51.017789 26253 net.cpp:128] Creating Layer conv4_2_bn0
I0927 22:04:51.017796 26253 net.cpp:558] conv4_2_bn0 <- conv4_2_0
I0927 22:04:51.017802 26253 net.cpp:509] conv4_2_bn0 -> conv4_2_0 (in-place)
I0927 22:04:51.018110 26253 net.cpp:172] Setting up conv4_2_bn0
I0927 22:04:51.018121 26253 net.cpp:186] Top shape: 128 64 8 8 (524288)
I0927 22:04:51.018126 26253 net.cpp:194] Memory required for data: 1343750656
I0927 22:04:51.018136 26253 layer_factory.hpp:77] Creating layer conv4_2_scale0
I0927 22:04:51.018142 26253 net.cpp:128] Creating Layer conv4_2_scale0
I0927 22:04:51.018147 26253 net.cpp:558] conv4_2_scale0 <- conv4_2_0
I0927 22:04:51.018153 26253 net.cpp:509] conv4_2_scale0 -> conv4_2_0 (in-place)
I0927 22:04:51.018201 26253 layer_factory.hpp:77] Creating layer conv4_2_scale0
I0927 22:04:51.018363 26253 net.cpp:172] Setting up conv4_2_scale0
I0927 22:04:51.018376 26253 net.cpp:186] Top shape: 128 64 8 8 (524288)
I0927 22:04:51.018381 26253 net.cpp:194] Memory required for data: 1345847808
I0927 22:04:51.018389 26253 layer_factory.hpp:77] Creating layer conv4_2_ReLU0
I0927 22:04:51.018395 26253 net.cpp:128] Creating Layer conv4_2_ReLU0
I0927 22:04:51.018400 26253 net.cpp:558] conv4_2_ReLU0 <- conv4_2_0
I0927 22:04:51.018405 26253 net.cpp:509] conv4_2_ReLU0 -> conv4_2_0 (in-place)
I0927 22:04:51.019774 26253 net.cpp:172] Setting up conv4_2_ReLU0
I0927 22:04:51.019800 26253 net.cpp:186] Top shape: 128 64 8 8 (524288)
I0927 22:04:51.019804 26253 net.cpp:194] Memory required for data: 1347944960
I0927 22:04:51.019810 26253 layer_factory.hpp:77] Creating layer conv4_2_1
I0927 22:04:51.019829 26253 net.cpp:128] Creating Layer conv4_2_1
I0927 22:04:51.019834 26253 net.cpp:558] conv4_2_1 <- conv4_2_0
I0927 22:04:51.019841 26253 net.cpp:522] conv4_2_1 -> conv4_2_1
I0927 22:04:51.026790 26253 net.cpp:172] Setting up conv4_2_1
I0927 22:04:51.026826 26253 net.cpp:186] Top shape: 128 64 8 8 (524288)
I0927 22:04:51.026831 26253 net.cpp:194] Memory required for data: 1350042112
I0927 22:04:51.026842 26253 layer_factory.hpp:77] Creating layer conv4_2bn1
I0927 22:04:51.026854 26253 net.cpp:128] Creating Layer conv4_2bn1
I0927 22:04:51.026859 26253 net.cpp:558] conv4_2bn1 <- conv4_2_1
I0927 22:04:51.026870 26253 net.cpp:509] conv4_2bn1 -> conv4_2_1 (in-place)
I0927 22:04:51.027174 26253 net.cpp:172] Setting up conv4_2bn1
I0927 22:04:51.027187 26253 net.cpp:186] Top shape: 128 64 8 8 (524288)
I0927 22:04:51.027191 26253 net.cpp:194] Memory required for data: 1352139264
I0927 22:04:51.027202 26253 layer_factory.hpp:77] Creating layer conv4_2_scale1
I0927 22:04:51.027209 26253 net.cpp:128] Creating Layer conv4_2_scale1
I0927 22:04:51.027215 26253 net.cpp:558] conv4_2_scale1 <- conv4_2_1
I0927 22:04:51.027221 26253 net.cpp:509] conv4_2_scale1 -> conv4_2_1 (in-place)
I0927 22:04:51.027266 26253 layer_factory.hpp:77] Creating layer conv4_2_scale1
I0927 22:04:51.027433 26253 net.cpp:172] Setting up conv4_2_scale1
I0927 22:04:51.027444 26253 net.cpp:186] Top shape: 128 64 8 8 (524288)
I0927 22:04:51.027448 26253 net.cpp:194] Memory required for data: 1354236416
I0927 22:04:51.027456 26253 layer_factory.hpp:77] Creating layer conv4_Eltwise_2
I0927 22:04:51.027464 26253 net.cpp:128] Creating Layer conv4_Eltwise_2
I0927 22:04:51.027469 26253 net.cpp:558] conv4_Eltwise_2 <- conv4_Eltwise_1_conv4_1ReLU_1_0_split_1
I0927 22:04:51.027474 26253 net.cpp:558] conv4_Eltwise_2 <- conv4_2_1
I0927 22:04:51.027482 26253 net.cpp:522] conv4_Eltwise_2 -> conv4_Eltwise_2
I0927 22:04:51.027506 26253 net.cpp:172] Setting up conv4_Eltwise_2
I0927 22:04:51.027513 26253 net.cpp:186] Top shape: 128 64 8 8 (524288)
I0927 22:04:51.027518 26253 net.cpp:194] Memory required for data: 1356333568
I0927 22:04:51.027521 26253 layer_factory.hpp:77] Creating layer conv4_2ReLU_1
I0927 22:04:51.027528 26253 net.cpp:128] Creating Layer conv4_2ReLU_1
I0927 22:04:51.027535 26253 net.cpp:558] conv4_2ReLU_1 <- conv4_Eltwise_2
…
I0927 22:04:51.486374 26253 net.cpp:194] Memory required for data: 103506040
I0927 22:04:51.486382 26253 layer_factory.hpp:77] Creating layer conv4_1_down
I0927 22:04:51.486394 26253 net.cpp:128] Creating Layer conv4_1_down
I0927 22:04:51.486400 26253 net.cpp:558] conv4_1_down <- conv3_Eltwise_9_conv3_9ReLU_1_0_split_1
I0927 22:04:51.486407 26253 net.cpp:522] conv4_1_down -> conv4_1_down
I0927 22:04:51.492405 26253 net.cpp:172] Setting up conv4_1_down
I0927 22:04:51.492431 26253 net.cpp:186] Top shape: 10 64 8 8 (40960)
I0927 22:04:51.492436 26253 net.cpp:194] Memory required for data: 103669880
I0927 22:04:51.492446 26253 layer_factory.hpp:77] Creating layer conv4_1_bn_down
I0927 22:04:51.492455 26253 net.cpp:128] Creating Layer conv4_1_bn_down
I0927 22:04:51.492460 26253 net.cpp:558] conv4_1_bn_down <- conv4_1_down
I0927 22:04:51.492468 26253 net.cpp:509] conv4_1_bn_down -> conv4_1_down (in-place)
I0927 22:04:51.492703 26253 net.cpp:172] Setting up conv4_1_bn_down
I0927 22:04:51.492715 26253 net.cpp:186] Top shape: 10 64 8 8 (40960)
I0927 22:04:51.492720 26253 net.cpp:194] Memory required for data: 103833720
I0927 22:04:51.492730 26253 layer_factory.hpp:77] Creating layer conv4_1_scale_down
I0927 22:04:51.492739 26253 net.cpp:128] Creating Layer conv4_1_scale_down
I0927 22:04:51.492744 26253 net.cpp:558] conv4_1_scale_down <- conv4_1_down
I0927 22:04:51.492750 26253 net.cpp:509] conv4_1_scale_down -> conv4_1_down (in-place)
I0927 22:04:51.492796 26253 layer_factory.hpp:77] Creating layer conv4_1_scale_down
I0927 22:04:51.492931 26253 net.cpp:172] Setting up conv4_1_scale_down
I0927 22:04:51.492944 26253 net.cpp:186] Top shape: 10 64 8 8 (40960)
I0927 22:04:51.492966 26253 net.cpp:194] Memory required for data: 103997560
I0927 22:04:51.492974 26253 layer_factory.hpp:77] Creating layer conv4_Eltwise_1
I0927 22:04:51.492985 26253 net.cpp:128] Creating Layer conv4_Eltwise_1
I0927 22:04:51.492990 26253 net.cpp:558] conv4_Eltwise_1 <- conv4_1_1
I0927 22:04:51.492995 26253 net.cpp:558] conv4_Eltwise_1 <- conv4_1_down
I0927 22:04:51.493002 26253 net.cpp:522] conv4_Eltwise_1 -> conv4_Eltwise_1
I0927 22:04:51.493028 26253 net.cpp:172] Setting up conv4_Eltwise_1
I0927 22:04:51.493036 26253 net.cpp:186] Top shape: 10 64 8 8 (40960)
I0927 22:04:51.493041 26253 net.cpp:194] Memory required for data: 104161400
I0927 22:04:51.493044 26253 layer_factory.hpp:77] Creating layer conv4_1ReLU_1
I0927 22:04:51.493052 26253 net.cpp:128] Creating Layer conv4_1ReLU_1
I0927 22:04:51.493055 26253 net.cpp:558] conv4_1ReLU_1 <- conv4_Eltwise_1
I0927 22:04:51.493063 26253 net.cpp:509] conv4_1ReLU_1 -> conv4_Eltwise_1 (in-place)
I0927 22:04:51.494472 26253 net.cpp:172] Setting up conv4_1ReLU_1
I0927 22:04:51.494499 26253 net.cpp:186] Top shape: 10 64 8 8 (40960)
I0927 22:04:51.494504 26253 net.cpp:194] Memory required for data: 104325240
I0927 22:04:51.494509 26253 layer_factory.hpp:77] Creating layer conv4_Eltwise_1_conv4_1ReLU_1_0_split
I0927 22:04:51.494520 26253 net.cpp:128] Creating Layer conv4_Eltwise_1_conv4_1ReLU_1_0_split
I0927 22:04:51.494525 26253 net.cpp:558] conv4_Eltwise_1_conv4_1ReLU_1_0_split <- conv4_Eltwise_1
I0927 22:04:51.494532 26253 net.cpp:522] conv4_Eltwise_1_conv4_1ReLU_1_0_split -> conv4_Eltwise_1_conv4_1ReLU_1_0_split_0
I0927 22:04:51.494545 26253 net.cpp:522] conv4_Eltwise_1_conv4_1ReLU_1_0_split -> conv4_Eltwise_1_conv4_1ReLU_1_0_split_1
I0927 22:04:51.494596 26253 net.cpp:172] Setting up conv4_Eltwise_1_conv4_1ReLU_1_0_split
I0927 22:04:51.494604 26253 net.cpp:186] Top shape: 10 64 8 8 (40960)
I0927 22:04:51.494609 26253 net.cpp:186] Top shape: 10 64 8 8 (40960)
I0927 22:04:51.494613 26253 net.cpp:194] Memory required for data: 104652920
I0927 22:04:51.494617 26253 layer_factory.hpp:77] Creating layer conv4_2_0
I0927 22:04:51.494629 26253 net.cpp:128] Creating Layer conv4_2_0
I0927 22:04:51.494637 26253 net.cpp:558] conv4_2_0 <- conv4_Eltwise_1_conv4_1ReLU_1_0_split_0
I0927 22:04:51.494643 26253 net.cpp:522] conv4_2_0 -> conv4_2_0
I0927 22:04:51.501474 26253 net.cpp:172] Setting up conv4_2_0
I0927 22:04:51.501502 26253 net.cpp:186] Top shape: 10 64 8 8 (40960)
I0927 22:04:51.501507 26253 net.cpp:194] Memory required for data: 104816760
I0927 22:04:51.501516 26253 layer_factory.hpp:77] Creating layer conv4_2_bn0
I0927 22:04:51.501528 26253 net.cpp:128] Creating Layer conv4_2_bn0
I0927 22:04:51.501534 26253 net.cpp:558] conv4_2_bn0 <- conv4_2_0
I0927 22:04:51.501547 26253 net.cpp:509] conv4_2_bn0 -> conv4_2_0 (in-place)
I0927 22:04:51.501816 26253 net.cpp:172] Setting up conv4_2_bn0
I0927 22:04:51.501827 26253 net.cpp:186] Top shape: 10 64 8 8 (40960)
I0927 22:04:51.501832 26253 net.cpp:194] Memory required for data: 104980600
I0927 22:04:51.501842 26253 layer_factory.hpp:77] Creating layer conv4_2_scale0
I0927 22:04:51.501848 26253 net.cpp:128] Creating Layer conv4_2_scale0
I0927 22:04:51.501853 26253 net.cpp:558] conv4_2_scale0 <- conv4_2_0
I0927 22:04:51.501860 26253 net.cpp:509] conv4_2_scale0 -> conv4_2_0 (in-place)
I0927 22:04:51.501904 26253 layer_factory.hpp:77] Creating layer conv4_2_scale0
I0927 22:04:51.502043 26253 net.cpp:172] Setting up conv4_2_scale0
I0927 22:04:51.502054 26253 net.cpp:186] Top shape: 10 64 8 8 (40960)
I0927 22:04:51.502058 26253 net.cpp:194] Memory required for data: 105144440
I0927 22:04:51.502066 26253 layer_factory.hpp:77] Creating layer conv4_2_ReLU0
I0927 22:04:51.502074 26253 net.cpp:128] Creating Layer conv4_2_ReLU0
I0927 22:04:51.502077 26253 net.cpp:558] conv4_2_ReLU0 <- conv4_2_0
I0927 22:04:51.502086 26253 net.cpp:509] conv4_2_ReLU0 -> conv4_2_0 (in-place)
I0927 22:04:51.503226 26253 net.cpp:172] Setting up conv4_2_ReLU0
I0927 22:04:51.503247 26253 net.cpp:186] Top shape: 10 64 8 8 (40960)
I0927 22:04:51.503250 26253 net.cpp:194] Memory required for data: 105308280
I0927 22:04:51.503271 26253 layer_factory.hpp:77] Creating layer conv4_2_1
I0927 22:04:51.503321 26253 net.cpp:128] Creating Layer conv4_2_1
I0927 22:04:51.503327 26253 net.cpp:558] conv4_2_1 <- conv4_2_0
I0927 22:04:51.503338 26253 net.cpp:522] conv4_2_1 -> conv4_2_1
I0927 22:04:51.509907 26253 net.cpp:172] Setting up conv4_2_1
I0927 22:04:51.509933 26253 net.cpp:186] Top shape: 10 64 8 8 (40960)
I0927 22:04:51.509938 26253 net.cpp:194] Memory required for data: 105472120
I0927 22:04:51.509948 26253 layer_factory.hpp:77] Creating layer conv4_2bn1
I0927 22:04:51.509959 26253 net.cpp:128] Creating Layer conv4_2bn1
I0927 22:04:51.509965 26253 net.cpp:558] conv4_2bn1 <- conv4_2_1
I0927 22:04:51.509979 26253 net.cpp:509] conv4_2bn1 -> conv4_2_1 (in-place)
I0927 22:04:51.510222 26253 net.cpp:172] Setting up conv4_2bn1
I0927 22:04:51.510236 26253 net.cpp:186] Top shape: 10 64 8 8 (40960)
I0927 22:04:51.510239 26253 net.cpp:194] Memory required for data: 105635960
I0927 22:04:51.510249 26253 layer_factory.hpp:77] Creating layer conv4_2_scale1
I0927 22:04:51.510258 26253 net.cpp:128] Creating Layer conv4_2_scale1
I0927 22:04:51.510263 26253 net.cpp:558] conv4_2_scale1 <- conv4_2_1
I0927 22:04:51.510269 26253 net.cpp:509] conv4_2_scale1 -> conv4_2_1 (in-place)
I0927 22:04:51.510315 26253 layer_factory.hpp:77] Creating layer conv4_2_scale1
I0927 22:04:51.510455 26253 net.cpp:172] Setting up conv4_2_scale1
I0927 22:04:51.510468 26253 net.cpp:186] Top shape: 10 64 8 8 (40960)
I0927 22:04:51.510471 26253 net.cpp:194] Memory required for data: 105799800
I0927 22:04:51.510479 26253 layer_factory.hpp:77] Creating layer conv4_Eltwise_2
I0927 22:04:51.510488 26253 net.cpp:128] Creating Layer conv4_Eltwise_2
I0927 22:04:51.510493 26253 net.cpp:558] conv4_Eltwise_2 <- conv4_Eltwise_1_conv4_1ReLU_1_0_split_1
I0927 22:04:51.510498 26253 net.cpp:558] conv4_Eltwise_2 <- conv4_2_1
I0927 22:04:51.510506 26253 net.cpp:522] conv4_Eltwise_2 -> conv4_Eltwise_2
I0927 22:04:51.510532 26253 net.cpp:172] Setting up conv4_Eltwise_2
I0927 22:04:51.510538 26253 net.cpp:186] Top shape: 10 64 8 8 (40960)
I0927 22:04:51.510542 26253 net.cpp:194] Memory required for data: 105963640
I0927 22:04:51.510546 26253 layer_factory.hpp:77] Creating layer conv4_2ReLU_1
I0927 22:04:51.510555 26253 net.cpp:128] Creating Layer conv4_2ReLU_1
I0927 22:04:51.510560 26253 net.cpp:558] conv4_2ReLU_1 <- conv4_Eltwise_2
I0927 22:04:51.510566 26253 net.cpp:509] conv4_2ReLU_1 -> conv4_Eltwise_2 (in-place)
I0927 22:04:51.511994 26253 net.cpp:172] Setting up conv4_2ReLU_1
I0927 22:04:51.512015 26253 net.cpp:186] Top shape: 10 64 8 8 (40960)
I0927 22:04:51.512020 26253 net.cpp:194] Memory required for data: 106127480
I0927 22:04:51.512025 26253 layer_factory.hpp:77] Creating layer conv4_Eltwise_2_conv4_2ReLU_1_0_split
I0927 22:04:51.512038 26253 net.cpp:128] Creating Layer conv4_Eltwise_2_conv4_2ReLU_1_0_split
I0927 22:04:51.512043 26253 net.cpp:558] conv4_Eltwise_2_conv4_2ReLU_1_0_split <- conv4_Eltwise_2
I0927 22:04:51.512053 26253 net.cpp:522] conv4_Eltwise_2_conv4_2ReLU_1_0_split -> conv4_Eltwise_2_conv4_2ReLU_1_0_split_0
I0927 22:04:51.512064 26253 net.cpp:522] conv4_Eltwise_2_conv4_2ReLU_1_0_split -> conv4_Eltwise_2_conv4_2ReLU_1_0_split_1
I0927 22:04:51.512114 26253 net.cpp:172] Setting up conv4_Eltwise_2_conv4_2ReLU_1_0_split
I0927 22:04:51.512123 26253 net.cpp:186] Top shape: 10 64 8 8 (40960)
I0927 22:04:51.512128 26253 net.cpp:186] Top shape: 10 64 8 8 (40960)
I0927 22:04:51.512132 26253 net.cpp:194] Memory required for data: 106455160
I0927 22:04:51.512136 26253 layer_factory.hpp:77] Creating layer conv4_3_0
I0927 22:04:51.512150 26253 net.cpp:128] Creating Layer conv4_3_0
I0927 22:04:51.512154 26253 net.cpp:558] conv4_3_0 <- conv4_Eltwise_2_conv4_2ReLU_1_0_split_0
I0927 22:04:51.512161 26253 net.cpp:522] conv4_3_0 -> conv4_3_0
I0927 22:04:51.518966 26253 net.cpp:172] Setting up conv4_3_0
I0927 22:04:51.518995 26253 net.cpp:186] Top shape: 10 64 8 8 (40960)
I0927 22:04:51.518999 26253 net.cpp:194] Memory required for data: 106619000
I0927 22:04:51.519026 26253 layer_factory.hpp:77] Creating layer conv4_3_bn0
I0927 22:04:51.519039 26253 net.cpp:128] Creating Layer conv4_3_bn0
I0927 22:04:51.519045 26253 net.cpp:558] conv4_3_bn0 <- conv4_3_0
I0927 22:04:51.519054 26253 net.cpp:509] conv4_3_bn0 -> conv4_3_0 (in-place)
I0927 22:04:51.519311 26253 net.cpp:172] Setting up conv4_3_bn0
I0927 22:04:51.519323 26253 net.cpp:186] Top shape: 10 64 8 8 (40960)
I0927 22:04:51.519328 26253 net.cpp:194] Memory required for data: 106782840
I0927 22:04:51.519338 26253 layer_factory.hpp:77] Creating layer conv4_3_scale0
I0927 22:04:51.519345 26253 net.cpp:128] Creating Layer conv4_3_scale0
I0927 22:04:51.519349 26253 net.cpp:558] conv4_3_scale0 <- conv4_3_0
I0927 22:04:51.519356 26253 net.cpp:509] conv4_3_scale0 -> conv4_3_0 (in-place)
I0927 22:04:51.519402 26253 layer_factory.hpp:77] Creating layer conv4_3_scale0
I0927 22:04:51.519541 26253 net.cpp:172] Setting up conv4_3_scale0
I0927 22:04:51.519554 26253 net.cpp:186] Top shape: 10 64 8 8 (40960)
I0927 22:04:51.519559 26253 net.cpp:194] Memory required for data: 106946680
I0927 22:04:51.519567 26253 layer_factory.hpp:77] Creating layer conv4_3_ReLU0
I0927 22:04:51.519573 26253 net.cpp:128] Creating Layer conv4_3_ReLU0
I0927 22:04:51.519578 26253 net.cpp:558] conv4_3_ReLU0 <- conv4_3_0
I0927 22:04:51.519583 26253 net.cpp:509] conv4_3_ReLU0 -> conv4_3_0 (in-place)
I0927 22:04:51.520714 26253 net.cpp:172] Setting up conv4_3_ReLU0
I0927 22:04:51.520735 26253 net.cpp:186] Top shape: 10 64 8 8 (40960)
I0927 22:04:51.520740 26253 net.cpp:194] Memory required for data: 107110520
I0927 22:04:51.520745 26253 layer_factory.hpp:77] Creating layer conv4_3_1
I0927 22:04:51.520757 26253 net.cpp:128] Creating Layer conv4_3_1
I0927 22:04:51.520762 26253 net.cpp:558] conv4_3_1 <- conv4_3_0
I0927 22:04:51.520771 26253 net.cpp:522] conv4_3_1 -> conv4_3_1
I0927 22:04:51.527444 26253 net.cpp:172] Setting up conv4_3_1
I0927 22:04:51.527472 26253 net.cpp:186] Top shape: 10 64 8 8 (40960)
I0927 22:04:51.527477 26253 net.cpp:194] Memory required for data: 107274360
I0927 22:04:51.527487 26253 layer_factory.hpp:77] Creating layer conv4_3bn1
I0927 22:04:51.527498 26253 net.cpp:128] Creating Layer conv4_3bn1
I0927 22:04:51.527503 26253 net.cpp:558] conv4_3bn1 <- conv4_3_1
I0927 22:04:51.527511 26253 net.cpp:509] conv4_3bn1 -> conv4_3_1 (in-place)
I0927 22:04:51.527756 26253 net.cpp:172] Setting up conv4_3bn1
I0927 22:04:51.527768 26253 net.cpp:186] Top shape: 10 64 8 8 (40960)
I0927 22:04:51.527772 26253 net.cpp:194] Memory required for data: 107438200
I0927 22:04:51.527782 26253 layer_factory.hpp:77] Creating layer conv4_3_scale1
I0927 22:04:51.527789 26253 net.cpp:128] Creating Layer conv4_3_scale1
I0927 22:04:51.527794 26253 net.cpp:558] conv4_3_scale1 <- conv4_3_1
I0927 22:04:51.527802 26253 net.cpp:509] conv4_3_scale1 -> conv4_3_1 (in-place)
I0927 22:04:51.527845 26253 layer_factory.hpp:77] Creating layer conv4_3_scale1
I0927 22:04:51.527987 26253 net.cpp:172] Setting up conv4_3_scale1
I0927 22:04:51.527997 26253 net.cpp:186] Top shape: 10 64 8 8 (40960)
I0927 22:04:51.528002 26253 net.cpp:194] Memory required for data: 107602040
I0927 22:04:51.528010 26253 layer_factory.hpp:77] Creating layer conv4_Eltwise_3
I0927 22:04:51.528020 26253 net.cpp:128] Creating Layer conv4_Eltwise_3
I0927 22:04:51.528025 26253 net.cpp:558] conv4_Eltwise_3 <- conv4_Eltwise_2_conv4_2ReLU_1_0_split_1
I0927 22:04:51.528030 26253 net.cpp:558] conv4_Eltwise_3 <- conv4_3_1
I0927 22:04:51.528036 26253 net.cpp:522] conv4_Eltwise_3 -> conv4_Eltwise_3
I0927 22:04:51.528064 26253 net.cpp:172] Setting up conv4_Eltwise_3
I0927 22:04:51.528070 26253 net.cpp:186] Top shape: 10 64 8 8 (40960)
I0927 22:04:51.528074 26253 net.cpp:194] Memory required for data: 107765880
I0927 22:04:51.528079 26253 layer_factory.hpp:77] Creating layer conv4_3ReLU_1
I0927 22:04:51.528084 26253 net.cpp:128] Creating Layer conv4_3ReLU_1
I0927 22:04:51.528090 26253 net.cpp:558] conv4_3ReLU_1 <- conv4_Eltwise_3
I0927 22:04:51.528098 26253 net.cpp:509] conv4_3ReLU_1 -> conv4_Eltwise_3 (in-place)
I0927 22:04:51.529491 26253 net.cpp:172] Setting up conv4_3ReLU_1
I0927 22:04:51.529517 26253 net.cpp:186] Top shape: 10 64 8 8 (40960)
I0927 22:04:51.529522 26253 net.cpp:194] Memory required for data: 107929720
I0927 22:04:51.529527 26253 layer_factory.hpp:77] Creating layer conv4_Eltwise_3_conv4_3ReLU_1_0_split
I0927 22:04:51.529536 26253 net.cpp:128] Creating Layer conv4_Eltwise_3_conv4_3ReLU_1_0_split
I0927 22:04:51.529541 26253 net.cpp:558] conv4_Eltwise_3_conv4_3ReLU_1_0_split <- conv4_Eltwise_3
I0927 22:04:51.529551 26253 net.cpp:522] conv4_Eltwise_3_conv4_3ReLU_1_0_split -> conv4_Eltwise_3_conv4_3ReLU_1_0_split_0
I0927 22:04:51.529563 26253 net.cpp:522] conv4_Eltwise_3_conv4_3ReLU_1_0_split -> conv4_Eltwise_3_conv4_3ReLU_1_0_split_1
I0927 22:04:51.529616 26253 net.cpp:172] Setting up conv4_Eltwise_3_conv4_3ReLU_1_0_split
I0927 22:04:51.529623 26253 net.cpp:186] Top shape: 10 64 8 8 (40960)
I0927 22:04:51.529629 26253 net.cpp:186] Top shape: 10 64 8 8 (40960)
I0927 22:04:51.529633 26253 net.cpp:194] Memory required for data: 108257400
I0927 22:04:51.529637 26253 layer_factory.hpp:77] Creating layer conv4_4_0
I0927 22:04:51.529650 26253 net.cpp:128] Creating Layer conv4_4_0
I0927 22:04:51.529655 26253 net.cpp:558] conv4_4_0 <- conv4_Eltwise_3_conv4_3ReLU_1_0_split_0
I0927 22:04:51.529664 26253 net.cpp:522] conv4_4_0 -> conv4_4_0
I0927 22:04:51.536475 26253 net.cpp:172] Setting up conv4_4_0
I0927 22:04:51.536504 26253 net.cpp:186] Top shape: 10 64 8 8 (40960)
I0927 22:04:51.536507 26253 net.cpp:194] Memory required for data: 108421240
I0927 22:04:51.536518 26253 layer_factory.hpp:77] Creating layer conv4_4_bn0
I0927 22:04:51.536530 26253 net.cpp:128] Creating Layer conv4_4_bn0
I0927 22:04:51.536535 26253 net.cpp:558] conv4_4_bn0 <- conv4_4_0
I0927 22:04:51.536542 26253 net.cpp:509] conv4_4_bn0 -> conv4_4_0 (in-place)
I0927 22:04:51.536794 26253 net.cpp:172] Setting up conv4_4_bn0
I0927 22:04:51.536806 26253 net.cpp:186] Top shape: 10 64 8 8 (40960)
I0927 22:04:51.536810 26253 net.cpp:194] Memory required for data: 108585080
I0927 22:04:51.536820 26253 layer_factory.hpp:77] Creating layer conv4_4_scale0
I0927 22:04:51.536828 26253 net.cpp:128] Creating Layer conv4_4_scale0
I0927 22:04:51.536833 26253 net.cpp:558] conv4_4_scale0 <- conv4_4_0
I0927 22:04:51.536837 26253 net.cpp:509] conv4_4_scale0 -> conv4_4_0 (in-place)
I0927 22:04:51.536886 26253 layer_factory.hpp:77] Creating layer conv4_4_scale0
I0927 22:04:51.537034 26253 net.cpp:172] Setting up conv4_4_scale0
I0927 22:04:51.537045 26253 net.cpp:186] Top shape: 10 64 8 8 (40960)
I0927 22:04:51.537048 26253 net.cpp:194] Memory required for data: 108748920
I0927 22:04:51.537056 26253 layer_factory.hpp:77] Creating layer conv4_4_ReLU0
I0927 22:04:51.537063 26253 net.cpp:128] Creating Layer conv4_4_ReLU0
I0927 22:04:51.537068 26253 net.cpp:558] conv4_4_ReLU0 <- conv4_4_0
I0927 22:04:51.537075 26253 net.cpp:509] conv4_4_ReLU0 -> conv4_4_0 (in-place)
I0927 22:04:51.538283 26253 net.cpp:172] Setting up conv4_4_ReLU0
I0927 22:04:51.538303 26253 net.cpp:186] Top shape: 10 64 8 8 (40960)
I0927 22:04:51.538307 26253 net.cpp:194] Memory required for data: 108912760
I0927 22:04:51.538312 26253 layer_factory.hpp:77] Creating layer conv4_4_1
I0927 22:04:51.538328 26253 net.cpp:128] Creating Layer conv4_4_1
I0927 22:04:51.538333 26253 net.cpp:558] conv4_4_1 <- conv4_4_0
I0927 22:04:51.538343 26253 net.cpp:522] conv4_4_1 -> conv4_4_1
I0927 22:04:51.545047 26253 net.cpp:172] Setting up conv4_4_1
I0927 22:04:51.545076 26253 net.cpp:186] Top shape: 10 64 8 8 (40960)
I0927 22:04:51.545080 26253 net.cpp:194] Memory required for data: 109076600
I0927 22:04:51.545091 26253 layer_factory.hpp:77] Creating layer conv4_4bn1
I0927 22:04:51.545104 26253 net.cpp:128] Creating Layer conv4_4bn1
I0927 22:04:51.545109 26253 net.cpp:558] conv4_4bn1 <- conv4_4_1
I0927 22:04:51.545116 26253 net.cpp:509] conv4_4bn1 -> conv4_4_1 (in-place)
I0927 22:04:51.545364 26253 net.cpp:172] Setting up conv4_4bn1
I0927 22:04:51.545375 26253 net.cpp:186] Top shape: 10 64 8 8 (40960)
I0927 22:04:51.545380 26253 net.cpp:194] Memory required for data: 109240440
I0927 22:04:51.545410 26253 layer_factory.hpp:77] Creating layer conv4_4_scale1
I0927 22:04:51.545418 26253 net.cpp:128] Creating Layer conv4_4_scale1
I0927 22:04:51.545423 26253 net.cpp:558] conv4_4_scale1 <- conv4_4_1
I0927 22:04:51.545428 26253 net.cpp:509] conv4_4_scale1 -> conv4_4_1 (in-place)
I0927 22:04:51.545480 26253 layer_factory.hpp:77] Creating layer conv4_4_scale1
I0927 22:04:51.545624 26253 net.cpp:172] Setting up conv4_4_scale1
I0927 22:04:51.545635 26253 net.cpp:186] Top shape: 10 64 8 8 (40960)
I0927 22:04:51.545639 26253 net.cpp:194] Memory required for data: 109404280
I0927 22:04:51.545648 26253 layer_factory.hpp:77] Creating layer conv4_Eltwise_4
I0927 22:04:51.545656 26253 net.cpp:128] Creating Layer conv4_Eltwise_4
I0927 22:04:51.545661 26253 net.cpp:558] conv4_Eltwise_4 <- conv4_Eltwise_3_conv4_3ReLU_1_0_split_1
I0927 22:04:51.545666 26253 net.cpp:558] conv4_Eltwise_4 <- conv4_4_1
I0927 22:04:51.545675 26253 net.cpp:522] conv4_Eltwise_4 -> conv4_Eltwise_4
I0927 22:04:51.545701 26253 net.cpp:172] Setting up conv4_Eltwise_4
I0927 22:04:51.545711 26253 net.cpp:186] Top shape: 10 64 8 8 (40960)
I0927 22:04:51.545716 26253 net.cpp:194] Memory required for data: 109568120
I0927 22:04:51.545719 26253 layer_factory.hpp:77] Creating layer conv4_4ReLU_1
I0927 22:04:51.545727 26253 net.cpp:128] Creating Layer conv4_4ReLU_1
I0927 22:04:51.545730 26253 net.cpp:558] conv4_4ReLU_1 <- conv4_Eltwise_4
I0927 22:04:51.545735 26253 net.cpp:509] conv4_4ReLU_1 -> conv4_Eltwise_4 (in-place)
I0927 22:04:51.547092 26253 net.cpp:172] Setting up conv4_4ReLU_1
I0927 22:04:51.547109 26253 net.cpp:186] Top shape: 10 64 8 8 (40960)
I0927 22:04:51.547116 26253 net.cpp:194] Memory required for data: 109731960
I0927 22:04:51.547122 26253 layer_factory.hpp:77] Creating layer conv4_Eltwise_4_conv4_4ReLU_1_0_split
I0927 22:04:51.547132 26253 net.cpp:128] Creating Layer conv4_Eltwise_4_conv4_4ReLU_1_0_split
I0927 22:04:51.547142 26253 net.cpp:558] conv4_Eltwise_4_conv4_4ReLU_1_0_split <- conv4_Eltwise_4
I0927 22:04:51.547150 26253 net.cpp:522] conv4_Eltwise_4_conv4_4ReLU_1_0_split -> conv4_Eltwise_4_conv4_4ReLU_1_0_split_0
I0927 22:04:51.547161 26253 net.cpp:522] conv4_Eltwise_4_conv4_4ReLU_1_0_split -> conv4_Eltwise_4_conv4_4ReLU_1_0_split_1
I0927 22:04:51.547214 26253 net.cpp:172] Setting up conv4_Eltwise_4_conv4_4ReLU_1_0_split
I0927 22:04:51.547220 26253 net.cpp:186] Top shape: 10 64 8 8 (40960)
I0927 22:04:51.547226 26253 net.cpp:186] Top shape: 10 64 8 8 (40960)
I0927 22:04:51.547230 26253 net.cpp:194] Memory required for data: 110059640
I0927 22:04:51.547235 26253 layer_factory.hpp:77] Creating layer conv4_5_0
I0927 22:04:51.547250 26253 net.cpp:128] Creating Layer conv4_5_0
I0927 22:04:51.547255 26253 net.cpp:558] conv4_5_0 <- conv4_Eltwise_4_conv4_4ReLU_1_0_split_0
I0927 22:04:51.547262 26253 net.cpp:522] conv4_5_0 -> conv4_5_0
I0927 22:04:51.554126 26253 net.cpp:172] Setting up conv4_5_0
I0927 22:04:51.554155 26253 net.cpp:186] Top shape: 10 64 8 8 (40960)
I0927 22:04:51.554160 26253 net.cpp:194] Memory required for data: 110223480
I0927 22:04:51.554172 26253 layer_factory.hpp:77] Creating layer conv4_5_bn0
I0927 22:04:51.554181 26253 net.cpp:128] Creating Layer conv4_5_bn0
I0927 22:04:51.554186 26253 net.cpp:558] conv4_5_bn0 <- conv4_5_0
I0927 22:04:51.554198 26253 net.cpp:509] conv4_5_bn0 -> conv4_5_0 (in-place)
I0927 22:04:51.554463 26253 net.cpp:172] Setting up conv4_5_bn0
I0927 22:04:51.554476 26253 net.cpp:186] Top shape: 10 64 8 8 (40960)
I0927 22:04:51.554481 26253 net.cpp:194] Memory required for data: 110387320
I0927 22:04:51.554489 26253 layer_factory.hpp:77] Creating layer conv4_5_scale0
I0927 22:04:51.554497 26253 net.cpp:128] Creating Layer conv4_5_scale0
I0927 22:04:51.554502 26253 net.cpp:558] conv4_5_scale0 <- conv4_5_0
I0927 22:04:51.554509 26253 net.cpp:509] conv4_5_scale0 -> conv4_5_0 (in-place)
I0927 22:04:51.554554 26253 layer_factory.hpp:77] Creating layer conv4_5_scale0
I0927 22:04:51.554700 26253 net.cpp:172] Setting up conv4_5_scale0
I0927 22:04:51.554728 26253 net.cpp:186] Top shape: 10 64 8 8 (40960)
I0927 22:04:51.554733 26253 net.cpp:194] Memory required for data: 110551160
I0927 22:04:51.554740 26253 layer_factory.hpp:77] Creating layer conv4_5_ReLU0
I0927 22:04:51.554749 26253 net.cpp:128] Creating Layer conv4_5_ReLU0
I0927 22:04:51.554755 26253 net.cpp:558] conv4_5_ReLU0 <- conv4_5_0
I0927 22:04:51.554760 26253 net.cpp:509] conv4_5_ReLU0 -> conv4_5_0 (in-place)
I0927 22:04:51.555939 26253 net.cpp:172] Setting up conv4_5_ReLU0
I0927 22:04:51.555966 26253 net.cpp:186] Top shape: 10 64 8 8 (40960)
I0927 22:04:51.555970 26253 net.cpp:194] Memory required for data: 110715000
I0927 22:04:51.555976 26253 layer_factory.hpp:77] Creating layer conv4_5_1
I0927 22:04:51.555990 26253 net.cpp:128] Creating Layer conv4_5_1
I0927 22:04:51.555995 26253 net.cpp:558] conv4_5_1 <- conv4_5_0
I0927 22:04:51.556010 26253 net.cpp:522] conv4_5_1 -> conv4_5_1
I0927 22:04:51.562674 26253 net.cpp:172] Setting up conv4_5_1
I0927 22:04:51.562702 26253 net.cpp:186] Top shape: 10 64 8 8 (40960)
I0927 22:04:51.562706 26253 net.cpp:194] Memory required for data: 110878840
I0927 22:04:51.562716 26253 layer_factory.hpp:77] Creating layer conv4_5bn1
I0927 22:04:51.562726 26253 net.cpp:128] Creating Layer conv4_5bn1
I0927 22:04:51.562731 26253 net.cpp:558] conv4_5bn1 <- conv4_5_1
I0927 22:04:51.562737 26253 net.cpp:509] conv4_5bn1 -> conv4_5_1 (in-place)
I0927 22:04:51.562991 26253 net.cpp:172] Setting up conv4_5bn1
I0927 22:04:51.563004 26253 net.cpp:186] Top shape: 10 64 8 8 (40960)
I0927 22:04:51.563009 26253 net.cpp:194] Memory required for data: 111042680
I0927 22:04:51.563019 26253 layer_factory.hpp:77] Creating layer conv4_5_scale1
I0927 22:04:51.563026 26253 net.cpp:128] Creating Layer conv4_5_scale1
I0927 22:04:51.563031 26253 net.cpp:558] conv4_5_scale1 <- conv4_5_1
I0927 22:04:51.563036 26253 net.cpp:509] conv4_5_scale1 -> conv4_5_1 (in-place)
I0927 22:04:51.563081 26253 layer_factory.hpp:77] Creating layer conv4_5_scale1
I0927 22:04:51.563230 26253 net.cpp:172] Setting up conv4_5_scale1
I0927 22:04:51.563241 26253 net.cpp:186] Top shape: 10 64 8 8 (40960)
I0927 22:04:51.563246 26253 net.cpp:194] Memory required for data: 111206520
I0927 22:04:51.563252 26253 layer_factory.hpp:77] Creating layer conv4_Eltwise_5
I0927 22:04:51.563261 26253 net.cpp:128] Creating Layer conv4_Eltwise_5
I0927 22:04:51.563266 26253 net.cpp:558] conv4_Eltwise_5 <- conv4_Eltwise_4_conv4_4ReLU_1_0_split_1
I0927 22:04:51.563271 26253 net.cpp:558] conv4_Eltwise_5 <- conv4_5_1
I0927 22:04:51.563278 26253 net.cpp:522] conv4_Eltwise_5 -> conv4_Eltwise_5
I0927 22:04:51.563308 26253 net.cpp:172] Setting up conv4_Eltwise_5
I0927 22:04:51.563314 26253 net.cpp:186] Top shape: 10 64 8 8 (40960)
I0927 22:04:51.563318 26253 net.cpp:194] Memory required for data: 111370360
I0927 22:04:51.563323 26253 layer_factory.hpp:77] Creating layer conv4_5ReLU_1
I0927 22:04:51.563328 26253 net.cpp:128] Creating Layer conv4_5ReLU_1
I0927 22:04:51.563333 26253 net.cpp:558] conv4_5ReLU_1 <- conv4_Eltwise_5
I0927 22:04:51.563338 26253 net.cpp:509] conv4_5ReLU_1 -> conv4_Eltwise_5 (in-place)
I0927 22:04:51.564729 26253 net.cpp:172] Setting up conv4_5ReLU_1
I0927 22:04:51.564749 26253 net.cpp:186] Top shape: 10 64 8 8 (40960)
I0927 22:04:51.564754 26253 net.cpp:194] Memory required for data: 111534200
I0927 22:04:51.564761 26253 layer_factory.hpp:77] Creating layer conv4_Eltwise_5_conv4_5ReLU_1_0_split
I0927 22:04:51.564769 26253 net.cpp:128] Creating Layer conv4_Eltwise_5_conv4_5ReLU_1_0_split
I0927 22:04:51.564774 26253 net.cpp:558] conv4_Eltwise_5_conv4_5ReLU_1_0_split <- conv4_Eltwise_5
I0927 22:04:51.564783 26253 net.cpp:522] conv4_Eltwise_5_conv4_5ReLU_1_0_split -> conv4_Eltwise_5_conv4_5ReLU_1_0_split_0
I0927 22:04:51.564795 26253 net.cpp:522] conv4_Eltwise_5_conv4_5ReLU_1_0_split -> conv4_Eltwise_5_conv4_5ReLU_1_0_split_1
I0927 22:04:51.564846 26253 net.cpp:172] Setting up conv4_Eltwise_5_conv4_5ReLU_1_0_split
I0927 22:04:51.564852 26253 net.cpp:186] Top shape: 10 64 8 8 (40960)
I0927 22:04:51.564858 26253 net.cpp:186] Top shape: 10 64 8 8 (40960)
I0927 22:04:51.564878 26253 net.cpp:194] Memory required for data: 111861880
I0927 22:04:51.564883 26253 layer_factory.hpp:77] Creating layer conv4_6_0
I0927 22:04:51.564898 26253 net.cpp:128] Creating Layer conv4_6_0
I0927 22:04:51.564903 26253 net.cpp:558] conv4_6_0 <- conv4_Eltwise_5_conv4_5ReLU_1_0_split_0
I0927 22:04:51.564910 26253 net.cpp:522] conv4_6_0 -> conv4_6_0
I0927 22:04:51.571735 26253 net.cpp:172] Setting up conv4_6_0
I0927 22:04:51.571763 26253 net.cpp:186] Top shape: 10 64 8 8 (40960)
I0927 22:04:51.571768 26253 net.cpp:194] Memory required for data: 112025720
I0927 22:04:51.571779 26253 layer_factory.hpp:77] Creating layer conv4_6_bn0
I0927 22:04:51.571787 26253 net.cpp:128] Creating Layer conv4_6_bn0
I0927 22:04:51.571792 26253 net.cpp:558] conv4_6_bn0 <- conv4_6_0
I0927 22:04:51.571808 26253 net.cpp:509] conv4_6_bn0 -> conv4_6_0 (in-place)
I0927 22:04:51.572079 26253 net.cpp:172] Setting up conv4_6_bn0
I0927 22:04:51.572093 26253 net.cpp:186] Top shape: 10 64 8 8 (40960)
I0927 22:04:51.572096 26253 net.cpp:194] Memory required for data: 112189560
I0927 22:04:51.572106 26253 layer_factory.hpp:77] Creating layer conv4_6_scale0
I0927 22:04:51.572116 26253 net.cpp:128] Creating Layer conv4_6_scale0
I0927 22:04:51.572121 26253 net.cpp:558] conv4_6_scale0 <- conv4_6_0
I0927 22:04:51.572127 26253 net.cpp:509] conv4_6_scale0 -> conv4_6_0 (in-place)
I0927 22:04:51.572175 26253 layer_factory.hpp:77] Creating layer conv4_6_scale0
I0927 22:04:51.572324 26253 net.cpp:172] Setting up conv4_6_scale0
I0927 22:04:51.572335 26253 net.cpp:186] Top shape: 10 64 8 8 (40960)
I0927 22:04:51.572338 26253 net.cpp:194] Memory required for data: 112353400
I0927 22:04:51.572346 26253 layer_factory.hpp:77] Creating layer conv4_6_ReLU0
I0927 22:04:51.572355 26253 net.cpp:128] Creating Layer conv4_6_ReLU0
I0927 22:04:51.572360 26253 net.cpp:558] conv4_6_ReLU0 <- conv4_6_0
I0927 22:04:51.572365 26253 net.cpp:509] conv4_6_ReLU0 -> conv4_6_0 (in-place)
I0927 22:04:51.573446 26253 net.cpp:172] Setting up conv4_6_ReLU0
I0927 22:04:51.573465 26253 net.cpp:186] Top shape: 10 64 8 8 (40960)
I0927 22:04:51.573470 26253 net.cpp:194] Memory required for data: 112517240
I0927 22:04:51.573474 26253 layer_factory.hpp:77] Creating layer conv4_6_1
I0927 22:04:51.573491 26253 net.cpp:128] Creating Layer conv4_6_1
I0927 22:04:51.573498 26253 net.cpp:558] conv4_6_1 <- conv4_6_0
I0927 22:04:51.573504 26253 net.cpp:522] conv4_6_1 -> conv4_6_1
I0927 22:04:51.575655 26253 net.cpp:172] Setting up conv4_6_1
I0927 22:04:51.575682 26253 net.cpp:186] Top shape: 10 64 8 8 (40960)
I0927 22:04:51.575686 26253 net.cpp:194] Memory required for data: 112681080
I0927 22:04:51.575696 26253 layer_factory.hpp:77] Creating layer conv4_6bn1
I0927 22:04:51.575708 26253 net.cpp:128] Creating Layer conv4_6bn1
I0927 22:04:51.575713 26253 net.cpp:558] conv4_6bn1 <- conv4_6_1
I0927 22:04:51.575727 26253 net.cpp:509] conv4_6bn1 -> conv4_6_1 (in-place)
I0927 22:04:51.575983 26253 net.cpp:172] Setting up conv4_6bn1
I0927 22:04:51.575994 26253 net.cpp:186] Top shape: 10 64 8 8 (40960)
I0927 22:04:51.575997 26253 net.cpp:194] Memory required for data: 112844920
I0927 22:04:51.576007 26253 layer_factory.hpp:77] Creating layer conv4_6_scale1
I0927 22:04:51.576014 26253 net.cpp:128] Creating Layer conv4_6_scale1
I0927 22:04:51.576019 26253 net.cpp:558] conv4_6_scale1 <- conv4_6_1
I0927 22:04:51.576023 26253 net.cpp:509] conv4_6_scale1 -> conv4_6_1 (in-place)
I0927 22:04:51.576073 26253 layer_factory.hpp:77] Creating layer conv4_6_scale1
I0927 22:04:51.576217 26253 net.cpp:172] Setting up conv4_6_scale1
I0927 22:04:51.576225 26253 net.cpp:186] Top shape: 10 64 8 8 (40960)
I0927 22:04:51.576230 26253 net.cpp:194] Memory required for data: 113008760
I0927 22:04:51.576237 26253 layer_factory.hpp:77] Creating layer conv4_Eltwise_6
I0927 22:04:51.576246 26253 net.cpp:128] Creating Layer conv4_Eltwise_6
I0927 22:04:51.576251 26253 net.cpp:558] conv4_Eltwise_6 <- conv4_Eltwise_5_conv4_5ReLU_1_0_split_1
I0927 22:04:51.576256 26253 net.cpp:558] conv4_Eltwise_6 <- conv4_6_1
I0927 22:04:51.576280 26253 net.cpp:522] conv4_Eltwise_6 -> conv4_Eltwise_6
I0927 22:04:51.576310 26253 net.cpp:172] Setting up conv4_Eltwise_6
I0927 22:04:51.576318 26253 net.cpp:186] Top shape: 10 64 8 8 (40960)
I0927 22:04:51.576323 26253 net.cpp:194] Memory required for data: 113172600
I0927 22:04:51.576326 26253 layer_factory.hpp:77] Creating layer conv4_6ReLU_1
I0927 22:04:51.576333 26253 net.cpp:128] Creating Layer conv4_6ReLU_1
I0927 22:04:51.576336 26253 net.cpp:558] conv4_6ReLU_1 <- conv4_Eltwise_6
I0927 22:04:51.576342 26253 net.cpp:509] conv4_6ReLU_1 -> conv4_Eltwise_6 (in-place)
I0927 22:04:51.577108 26253 net.cpp:172] Setting up conv4_6ReLU_1
I0927 22:04:51.577133 26253 net.cpp:186] Top shape: 10 64 8 8 (40960)
I0927 22:04:51.577138 26253 net.cpp:194] Memory required for data: 113336440
I0927 22:04:51.577143 26253 layer_factory.hpp:77] Creating layer conv4_Eltwise_6_conv4_6ReLU_1_0_split
I0927 22:04:51.577152 26253 net.cpp:128] Creating Layer conv4_Eltwise_6_conv4_6ReLU_1_0_split
I0927 22:04:51.577157 26253 net.cpp:558] conv4_Eltwise_6_conv4_6ReLU_1_0_split <- conv4_Eltwise_6
I0927 22:04:51.577167 26253 net.cpp:522] conv4_Eltwise_6_conv4_6ReLU_1_0_split -> conv4_Eltwise_6_conv4_6ReLU_1_0_split_0
I0927 22:04:51.577175 26253 net.cpp:522] conv4_Eltwise_6_conv4_6ReLU_1_0_split -> conv4_Eltwise_6_conv4_6ReLU_1_0_split_1
I0927 22:04:51.577237 26253 net.cpp:172] Setting up conv4_Eltwise_6_conv4_6ReLU_1_0_split
I0927 22:04:51.577245 26253 net.cpp:186] Top shape: 10 64 8 8 (40960)
I0927 22:04:51.577251 26253 net.cpp:186] Top shape: 10 64 8 8 (40960)
I0927 22:04:51.577255 26253 net.cpp:194] Memory required for data: 113664120
I0927 22:04:51.577260 26253 layer_factory.hpp:77] Creating layer conv4_7_0
I0927 22:04:51.577270 26253 net.cpp:128] Creating Layer conv4_7_0
I0927 22:04:51.577277 26253 net.cpp:558] conv4_7_0 <- conv4_Eltwise_6_conv4_6ReLU_1_0_split_0
I0927 22:04:51.577286 26253 net.cpp:522] conv4_7_0 -> conv4_7_0
I0927 22:04:51.582015 26253 net.cpp:172] Setting up conv4_7_0
I0927 22:04:51.582043 26253 net.cpp:186] Top shape: 10 64 8 8 (40960)
I0927 22:04:51.582047 26253 net.cpp:194] Memory required for data: 113827960
I0927 22:04:51.582059 26253 layer_factory.hpp:77] Creating layer conv4_7_bn0
I0927 22:04:51.582072 26253 net.cpp:128] Creating Layer conv4_7_bn0
I0927 22:04:51.582077 26253 net.cpp:558] conv4_7_bn0 <- conv4_7_0
I0927 22:04:51.582092 26253 net.cpp:509] conv4_7_bn0 -> conv4_7_0 (in-place)
I0927 22:04:51.582367 26253 net.cpp:172] Setting up conv4_7_bn0
I0927 22:04:51.582379 26253 net.cpp:186] Top shape: 10 64 8 8 (40960)
I0927 22:04:51.582383 26253 net.cpp:194] Memory required for data: 113991800
I0927 22:04:51.582396 26253 layer_factory.hpp:77] Creating layer conv4_7_scale0
I0927 22:04:51.582406 26253 net.cpp:128] Creating Layer conv4_7_scale0
I0927 22:04:51.582410 26253 net.cpp:558] conv4_7_scale0 <- conv4_7_0
I0927 22:04:51.582418 26253 net.cpp:509] conv4_7_scale0 -> conv4_7_0 (in-place)
I0927 22:04:51.582465 26253 layer_factory.hpp:77] Creating layer conv4_7_scale0
I0927 22:04:51.582617 26253 net.cpp:172] Setting up conv4_7_scale0
I0927 22:04:51.582628 26253 net.cpp:186] Top shape: 10 64 8 8 (40960)
I0927 22:04:51.582633 26253 net.cpp:194] Memory required for data: 114155640
I0927 22:04:51.582640 26253 layer_factory.hpp:77] Creating layer conv4_7_ReLU0
I0927 22:04:51.582664 26253 net.cpp:128] Creating Layer conv4_7_ReLU0
I0927 22:04:51.582669 26253 net.cpp:558] conv4_7_ReLU0 <- conv4_7_0
I0927 22:04:51.582675 26253 net.cpp:509] conv4_7_ReLU0 -> conv4_7_0 (in-place)
I0927 22:04:51.583804 26253 net.cpp:172] Setting up conv4_7_ReLU0
I0927 22:04:51.583827 26253 net.cpp:186] Top shape: 10 64 8 8 (40960)
I0927 22:04:51.583832 26253 net.cpp:194] Memory required for data: 114319480
I0927 22:04:51.583837 26253 layer_factory.hpp:77] Creating layer conv4_7_1
I0927 22:04:51.583853 26253 net.cpp:128] Creating Layer conv4_7_1
I0927 22:04:51.583859 26253 net.cpp:558] conv4_7_1 <- conv4_7_0
I0927 22:04:51.583874 26253 net.cpp:522] conv4_7_1 -> conv4_7_1
I0927 22:04:51.590600 26253 net.cpp:172] Setting up conv4_7_1
I0927 22:04:51.590649 26253 net.cpp:186] Top shape: 10 64 8 8 (40960)
I0927 22:04:51.590654 26253 net.cpp:194] Memory required for data: 114483320
I0927 22:04:51.590664 26253 layer_factory.hpp:77] Creating layer conv4_7bn1
I0927 22:04:51.590677 26253 net.cpp:128] Creating Layer conv4_7bn1
I0927 22:04:51.590682 26253 net.cpp:558] conv4_7bn1 <- conv4_7_1
I0927 22:04:51.590693 26253 net.cpp:509] conv4_7bn1 -> conv4_7_1 (in-place)
I0927 22:04:51.590975 26253 net.cpp:172] Setting up conv4_7bn1
I0927 22:04:51.590987 26253 net.cpp:186] Top shape: 10 64 8 8 (40960)
I0927 22:04:51.590991 26253 net.cpp:194] Memory required for data: 114647160
I0927 22:04:51.591002 26253 layer_factory.hpp:77] Creating layer conv4_7_scale1
I0927 22:04:51.591015 26253 net.cpp:128] Creating Layer conv4_7_scale1
I0927 22:04:51.591022 26253 net.cpp:558] conv4_7_scale1 <- conv4_7_1
I0927 22:04:51.591027 26253 net.cpp:509] conv4_7_scale1 -> conv4_7_1 (in-place)
I0927 22:04:51.591076 26253 layer_factory.hpp:77] Creating layer conv4_7_scale1
I0927 22:04:51.591226 26253 net.cpp:172] Setting up conv4_7_scale1
I0927 22:04:51.591238 26253 net.cpp:186] Top shape: 10 64 8 8 (40960)
I0927 22:04:51.591243 26253 net.cpp:194] Memory required for data: 114811000
I0927 22:04:51.591251 26253 layer_factory.hpp:77] Creating layer conv4_Eltwise_7
I0927 22:04:51.591261 26253 net.cpp:128] Creating Layer conv4_Eltwise_7
I0927 22:04:51.591266 26253 net.cpp:558] conv4_Eltwise_7 <- conv4_Eltwise_6_conv4_6ReLU_1_0_split_1
I0927 22:04:51.591272 26253 net.cpp:558] conv4_Eltwise_7 <- conv4_7_1
I0927 22:04:51.591281 26253 net.cpp:522] conv4_Eltwise_7 -> conv4_Eltwise_7
I0927 22:04:51.591308 26253 net.cpp:172] Setting up conv4_Eltwise_7
I0927 22:04:51.591315 26253 net.cpp:186] Top shape: 10 64 8 8 (40960)
I0927 22:04:51.591320 26253 net.cpp:194] Memory required for data: 114974840
I0927 22:04:51.591323 26253 layer_factory.hpp:77] Creating layer conv4_7ReLU_1
I0927 22:04:51.591332 26253 net.cpp:128] Creating Layer conv4_7ReLU_1
I0927 22:04:51.591337 26253 net.cpp:558] conv4_7ReLU_1 <- conv4_Eltwise_7
I0927 22:04:51.591342 26253 net.cpp:509] conv4_7ReLU_1 -> conv4_Eltwise_7 (in-place)
I0927 22:04:51.592613 26253 net.cpp:172] Setting up conv4_7ReLU_1
I0927 22:04:51.592634 26253 net.cpp:186] Top shape: 10 64 8 8 (40960)
I0927 22:04:51.592639 26253 net.cpp:194] Memory required for data: 115138680
I0927 22:04:51.592644 26253 layer_factory.hpp:77] Creating layer conv4_Eltwise_7_conv4_7ReLU_1_0_split
I0927 22:04:51.592658 26253 net.cpp:128] Creating Layer conv4_Eltwise_7_conv4_7ReLU_1_0_split
I0927 22:04:51.592662 26253 net.cpp:558] conv4_Eltwise_7_conv4_7ReLU_1_0_split <- conv4_Eltwise_7
I0927 22:04:51.592671 26253 net.cpp:522] conv4_Eltwise_7_conv4_7ReLU_1_0_split -> conv4_Eltwise_7_conv4_7ReLU_1_0_split_0
I0927 22:04:51.592685 26253 net.cpp:522] conv4_Eltwise_7_conv4_7ReLU_1_0_split -> conv4_Eltwise_7_conv4_7ReLU_1_0_split_1
I0927 22:04:51.592736 26253 net.cpp:172] Setting up conv4_Eltwise_7_conv4_7ReLU_1_0_split
I0927 22:04:51.592746 26253 net.cpp:186] Top shape: 10 64 8 8 (40960)
I0927 22:04:51.592752 26253 net.cpp:186] Top shape: 10 64 8 8 (40960)
I0927 22:04:51.592756 26253 net.cpp:194] Memory required for data: 115466360
I0927 22:04:51.592761 26253 layer_factory.hpp:77] Creating layer conv4_8_0
I0927 22:04:51.592773 26253 net.cpp:128] Creating Layer conv4_8_0
I0927 22:04:51.592778 26253 net.cpp:558] conv4_8_0 <- conv4_Eltwise_7_conv4_7ReLU_1_0_split_0
I0927 22:04:51.592785 26253 net.cpp:522] conv4_8_0 -> conv4_8_0
I0927 22:04:51.599635 26253 net.cpp:172] Setting up conv4_8_0
I0927 22:04:51.599664 26253 net.cpp:186] Top shape: 10 64 8 8 (40960)
I0927 22:04:51.599669 26253 net.cpp:194] Memory required for data: 115630200
I0927 22:04:51.599679 26253 layer_factory.hpp:77] Creating layer conv4_8_bn0
I0927 22:04:51.599689 26253 net.cpp:128] Creating Layer conv4_8_bn0
I0927 22:04:51.599696 26253 net.cpp:558] conv4_8_bn0 <- conv4_8_0
I0927 22:04:51.599704 26253 net.cpp:509] conv4_8_bn0 -> conv4_8_0 (in-place)
I0927 22:04:51.599974 26253 net.cpp:172] Setting up conv4_8_bn0
I0927 22:04:51.599987 26253 net.cpp:186] Top shape: 10 64 8 8 (40960)
I0927 22:04:51.600010 26253 net.cpp:194] Memory required for data: 115794040
I0927 22:04:51.600021 26253 layer_factory.hpp:77] Creating layer conv4_8_scale0
I0927 22:04:51.600028 26253 net.cpp:128] Creating Layer conv4_8_scale0
I0927 22:04:51.600033 26253 net.cpp:558] conv4_8_scale0 <- conv4_8_0
I0927 22:04:51.600039 26253 net.cpp:509] conv4_8_scale0 -> conv4_8_0 (in-place)
I0927 22:04:51.600092 26253 layer_factory.hpp:77] Creating layer conv4_8_scale0
I0927 22:04:51.600239 26253 net.cpp:172] Setting up conv4_8_scale0
I0927 22:04:51.600255 26253 net.cpp:186] Top shape: 10 64 8 8 (40960)
I0927 22:04:51.600260 26253 net.cpp:194] Memory required for data: 115957880
I0927 22:04:51.600267 26253 layer_factory.hpp:77] Creating layer conv4_8_ReLU0
I0927 22:04:51.600275 26253 net.cpp:128] Creating Layer conv4_8_ReLU0
I0927 22:04:51.600278 26253 net.cpp:558] conv4_8_ReLU0 <- conv4_8_0
I0927 22:04:51.600284 26253 net.cpp:509] conv4_8_ReLU0 -> conv4_8_0 (in-place)
I0927 22:04:51.601404 26253 net.cpp:172] Setting up conv4_8_ReLU0
I0927 22:04:51.601428 26253 net.cpp:186] Top shape: 10 64 8 8 (40960)
I0927 22:04:51.601433 26253 net.cpp:194] Memory required for data: 116121720
I0927 22:04:51.601436 26253 layer_factory.hpp:77] Creating layer conv4_8_1
I0927 22:04:51.601449 26253 net.cpp:128] Creating Layer conv4_8_1
I0927 22:04:51.601455 26253 net.cpp:558] conv4_8_1 <- conv4_8_0
I0927 22:04:51.601462 26253 net.cpp:522] conv4_8_1 -> conv4_8_1
I0927 22:04:51.608094 26253 net.cpp:172] Setting up conv4_8_1
I0927 22:04:51.608121 26253 net.cpp:186] Top shape: 10 64 8 8 (40960)
I0927 22:04:51.608125 26253 net.cpp:194] Memory required for data: 116285560
I0927 22:04:51.608135 26253 layer_factory.hpp:77] Creating layer conv4_8bn1
I0927 22:04:51.608146 26253 net.cpp:128] Creating Layer conv4_8bn1
I0927 22:04:51.608152 26253 net.cpp:558] conv4_8bn1 <- conv4_8_1
I0927 22:04:51.608160 26253 net.cpp:509] conv4_8bn1 -> conv4_8_1 (in-place)
I0927 22:04:51.608423 26253 net.cpp:172] Setting up conv4_8bn1
I0927 22:04:51.608435 26253 net.cpp:186] Top shape: 10 64 8 8 (40960)
I0927 22:04:51.608441 26253 net.cpp:194] Memory required for data: 116449400
I0927 22:04:51.608450 26253 layer_factory.hpp:77] Creating layer conv4_8_scale1
I0927 22:04:51.608458 26253 net.cpp:128] Creating Layer conv4_8_scale1
I0927 22:04:51.608463 26253 net.cpp:558] conv4_8_scale1 <- conv4_8_1
I0927 22:04:51.608471 26253 net.cpp:509] conv4_8_scale1 -> conv4_8_1 (in-place)
I0927 22:04:51.608520 26253 layer_factory.hpp:77] Creating layer conv4_8_scale1
I0927 22:04:51.608671 26253 net.cpp:172] Setting up conv4_8_scale1
I0927 22:04:51.608685 26253 net.cpp:186] Top shape: 10 64 8 8 (40960)
I0927 22:04:51.608688 26253 net.cpp:194] Memory required for data: 116613240
I0927 22:04:51.608696 26253 layer_factory.hpp:77] Creating layer conv4_Eltwise_8
I0927 22:04:51.608705 26253 net.cpp:128] Creating Layer conv4_Eltwise_8
I0927 22:04:51.608709 26253 net.cpp:558] conv4_Eltwise_8 <- conv4_Eltwise_7_conv4_7ReLU_1_0_split_1
I0927 22:04:51.608714 26253 net.cpp:558] conv4_Eltwise_8 <- conv4_8_1
I0927 22:04:51.608723 26253 net.cpp:522] conv4_Eltwise_8 -> conv4_Eltwise_8
I0927 22:04:51.608752 26253 net.cpp:172] Setting up conv4_Eltwise_8
I0927 22:04:51.608760 26253 net.cpp:186] Top shape: 10 64 8 8 (40960)
I0927 22:04:51.608763 26253 net.cpp:194] Memory required for data: 116777080
I0927 22:04:51.608768 26253 layer_factory.hpp:77] Creating layer conv4_8ReLU_1
I0927 22:04:51.608774 26253 net.cpp:128] Creating Layer conv4_8ReLU_1
I0927 22:04:51.608778 26253 net.cpp:558] conv4_8ReLU_1 <- conv4_Eltwise_8
I0927 22:04:51.608783 26253 net.cpp:509] conv4_8ReLU_1 -> conv4_Eltwise_8 (in-place)
I0927 22:04:51.610412 26253 net.cpp:172] Setting up conv4_8ReLU_1
I0927 22:04:51.610440 26253 net.cpp:186] Top shape: 10 64 8 8 (40960)
I0927 22:04:51.610443 26253 net.cpp:194] Memory required for data: 116940920
I0927 22:04:51.610448 26253 layer_factory.hpp:77] Creating layer conv4_Eltwise_8_conv4_8ReLU_1_0_split
I0927 22:04:51.610457 26253 net.cpp:128] Creating Layer conv4_Eltwise_8_conv4_8ReLU_1_0_split
I0927 22:04:51.610483 26253 net.cpp:558] conv4_Eltwise_8_conv4_8ReLU_1_0_split <- conv4_Eltwise_8
I0927 22:04:51.610494 26253 net.cpp:522] conv4_Eltwise_8_conv4_8ReLU_1_0_split -> conv4_Eltwise_8_conv4_8ReLU_1_0_split_0
I0927 22:04:51.610503 26253 net.cpp:522] conv4_Eltwise_8_conv4_8ReLU_1_0_split -> conv4_Eltwise_8_conv4_8ReLU_1_0_split_1
I0927 22:04:51.610563 26253 net.cpp:172] Setting up conv4_Eltwise_8_conv4_8ReLU_1_0_split
I0927 22:04:51.610570 26253 net.cpp:186] Top shape: 10 64 8 8 (40960)
I0927 22:04:51.610576 26253 net.cpp:186] Top shape: 10 64 8 8 (40960)
I0927 22:04:51.610580 26253 net.cpp:194] Memory required for data: 117268600
I0927 22:04:51.610584 26253 layer_factory.hpp:77] Creating layer conv4_9_0
I0927 22:04:51.610596 26253 net.cpp:128] Creating Layer conv4_9_0
I0927 22:04:51.610601 26253 net.cpp:558] conv4_9_0 <- conv4_Eltwise_8_conv4_8ReLU_1_0_split_0
I0927 22:04:51.610611 26253 net.cpp:522] conv4_9_0 -> conv4_9_0
I0927 22:04:51.617166 26253 net.cpp:172] Setting up conv4_9_0
I0927 22:04:51.617193 26253 net.cpp:186] Top shape: 10 64 8 8 (40960)
I0927 22:04:51.617197 26253 net.cpp:194] Memory required for data: 117432440
I0927 22:04:51.617208 26253 layer_factory.hpp:77] Creating layer conv4_9_bn0
I0927 22:04:51.617219 26253 net.cpp:128] Creating Layer conv4_9_bn0
I0927 22:04:51.617225 26253 net.cpp:558] conv4_9_bn0 <- conv4_9_0
I0927 22:04:51.617231 26253 net.cpp:509] conv4_9_bn0 -> conv4_9_0 (in-place)
I0927 22:04:51.617506 26253 net.cpp:172] Setting up conv4_9_bn0
I0927 22:04:51.617518 26253 net.cpp:186] Top shape: 10 64 8 8 (40960)
I0927 22:04:51.617522 26253 net.cpp:194] Memory required for data: 117596280
I0927 22:04:51.617532 26253 layer_factory.hpp:77] Creating layer conv4_9_scale0
I0927 22:04:51.617542 26253 net.cpp:128] Creating Layer conv4_9_scale0
I0927 22:04:51.617547 26253 net.cpp:558] conv4_9_scale0 <- conv4_9_0
I0927 22:04:51.617552 26253 net.cpp:509] conv4_9_scale0 -> conv4_9_0 (in-place)
I0927 22:04:51.617602 26253 layer_factory.hpp:77] Creating layer conv4_9_scale0
I0927 22:04:51.617758 26253 net.cpp:172] Setting up conv4_9_scale0
I0927 22:04:51.617770 26253 net.cpp:186] Top shape: 10 64 8 8 (40960)
I0927 22:04:51.617774 26253 net.cpp:194] Memory required for data: 117760120
I0927 22:04:51.617782 26253 layer_factory.hpp:77] Creating layer conv4_9_ReLU0
I0927 22:04:51.617792 26253 net.cpp:128] Creating Layer conv4_9_ReLU0
I0927 22:04:51.617797 26253 net.cpp:558] conv4_9_ReLU0 <- conv4_9_0
I0927 22:04:51.617805 26253 net.cpp:509] conv4_9_ReLU0 -> conv4_9_0 (in-place)
I0927 22:04:51.618962 26253 net.cpp:172] Setting up conv4_9_ReLU0
I0927 22:04:51.618983 26253 net.cpp:186] Top shape: 10 64 8 8 (40960)
I0927 22:04:51.618988 26253 net.cpp:194] Memory required for data: 117923960
I0927 22:04:51.618993 26253 layer_factory.hpp:77] Creating layer conv4_9_1
I0927 22:04:51.619009 26253 net.cpp:128] Creating Layer conv4_9_1
I0927 22:04:51.619015 26253 net.cpp:558] conv4_9_1 <- conv4_9_0
I0927 22:04:51.619022 26253 net.cpp:522] conv4_9_1 -> conv4_9_1
I0927 22:04:51.625689 26253 net.cpp:172] Setting up conv4_9_1
I0927 22:04:51.625716 26253 net.cpp:186] Top shape: 10 64 8 8 (40960)
I0927 22:04:51.625720 26253 net.cpp:194] Memory required for data: 118087800
I0927 22:04:51.625731 26253 layer_factory.hpp:77] Creating layer conv4_9bn1
I0927 22:04:51.625743 26253 net.cpp:128] Creating Layer conv4_9bn1
I0927 22:04:51.625749 26253 net.cpp:558] conv4_9bn1 <- conv4_9_1
I0927 22:04:51.625763 26253 net.cpp:509] conv4_9bn1 -> conv4_9_1 (in-place)
I0927 22:04:51.626029 26253 net.cpp:172] Setting up conv4_9bn1
I0927 22:04:51.626040 26253 net.cpp:186] Top shape: 10 64 8 8 (40960)
I0927 22:04:51.626045 26253 net.cpp:194] Memory required for data: 118251640
I0927 22:04:51.626055 26253 layer_factory.hpp:77] Creating layer conv4_9_scale1
I0927 22:04:51.626062 26253 net.cpp:128] Creating Layer conv4_9_scale1
I0927 22:04:51.626067 26253 net.cpp:558] conv4_9_scale1 <- conv4_9_1
I0927 22:04:51.626072 26253 net.cpp:509] conv4_9_scale1 -> conv4_9_1 (in-place)
I0927 22:04:51.626123 26253 layer_factory.hpp:77] Creating layer conv4_9_scale1
I0927 22:04:51.626291 26253 net.cpp:172] Setting up conv4_9_scale1
I0927 22:04:51.626303 26253 net.cpp:186] Top shape: 10 64 8 8 (40960)
I0927 22:04:51.626307 26253 net.cpp:194] Memory required for data: 118415480
I0927 22:04:51.626315 26253 layer_factory.hpp:77] Creating layer conv4_Eltwise_9
I0927 22:04:51.626325 26253 net.cpp:128] Creating Layer conv4_Eltwise_9
I0927 22:04:51.626332 26253 net.cpp:558] conv4_Eltwise_9 <- conv4_Eltwise_8_conv4_8ReLU_1_0_split_1
I0927 22:04:51.626336 26253 net.cpp:558] conv4_Eltwise_9 <- conv4_9_1
I0927 22:04:51.626343 26253 net.cpp:522] conv4_Eltwise_9 -> conv4_Eltwise_9
I0927 22:04:51.626371 26253 net.cpp:172] Setting up conv4_Eltwise_9
I0927 22:04:51.626379 26253 net.cpp:186] Top shape: 10 64 8 8 (40960)
I0927 22:04:51.626382 26253 net.cpp:194] Memory required for data: 118579320
I0927 22:04:51.626386 26253 layer_factory.hpp:77] Creating layer conv4_9ReLU_1
I0927 22:04:51.626394 26253 net.cpp:128] Creating Layer conv4_9ReLU_1
I0927 22:04:51.626399 26253 net.cpp:558] conv4_9ReLU_1 <- conv4_Eltwise_9
I0927 22:04:51.626405 26253 net.cpp:509] conv4_9ReLU_1 -> conv4_Eltwise_9 (in-place)
I0927 22:04:51.627763 26253 net.cpp:172] Setting up conv4_9ReLU_1
I0927 22:04:51.627785 26253 net.cpp:186] Top shape: 10 64 8 8 (40960)
I0927 22:04:51.627789 26253 net.cpp:194] Memory required for data: 118743160
I0927 22:04:51.627794 26253 layer_factory.hpp:77] Creating layer Pooling1
I0927 22:04:51.627810 26253 net.cpp:128] Creating Layer Pooling1
I0927 22:04:51.627815 26253 net.cpp:558] Pooling1 <- conv4_Eltwise_9
I0927 22:04:51.627823 26253 net.cpp:522] Pooling1 -> Pooling1
I0927 22:04:51.629984 26253 net.cpp:172] Setting up Pooling1
I0927 22:04:51.630010 26253 net.cpp:186] Top shape: 10 64 1 1 (640)
I0927 22:04:51.630014 26253 net.cpp:194] Memory required for data: 118745720
I0927 22:04:51.630020 26253 layer_factory.hpp:77] Creating layer fc1
I0927 22:04:51.630033 26253 net.cpp:128] Creating Layer fc1
I0927 22:04:51.630038 26253 net.cpp:558] fc1 <- Pooling1
I0927 22:04:51.630051 26253 net.cpp:522] fc1 -> fc1
I0927 22:04:51.630235 26253 net.cpp:172] Setting up fc1
I0927 22:04:51.630247 26253 net.cpp:186] Top shape: 10 10 (100)
I0927 22:04:51.630252 26253 net.cpp:194] Memory required for data: 118746120
I0927 22:04:51.630261 26253 layer_factory.hpp:77] Creating layer fc1_fc1_0_split
I0927 22:04:51.630272 26253 net.cpp:128] Creating Layer fc1_fc1_0_split
I0927 22:04:51.630277 26253 net.cpp:558] fc1_fc1_0_split <- fc1
I0927 22:04:51.630283 26253 net.cpp:522] fc1_fc1_0_split -> fc1_fc1_0_split_0
I0927 22:04:51.630291 26253 net.cpp:522] fc1_fc1_0_split -> fc1_fc1_0_split_1
I0927 22:04:51.630337 26253 net.cpp:172] Setting up fc1_fc1_0_split
I0927 22:04:51.630344 26253 net.cpp:186] Top shape: 10 10 (100)
I0927 22:04:51.630349 26253 net.cpp:186] Top shape: 10 10 (100)
I0927 22:04:51.630353 26253 net.cpp:194] Memory required for data: 118746920
I0927 22:04:51.630357 26253 layer_factory.hpp:77] Creating layer Softmax1
I0927 22:04:51.630367 26253 net.cpp:128] Creating Layer Softmax1
I0927 22:04:51.630372 26253 net.cpp:558] Softmax1 <- fc1_fc1_0_split_0
I0927 22:04:51.630376 26253 net.cpp:558] Softmax1 <- label_Data1_1_split_0
I0927 22:04:51.630383 26253 net.cpp:522] Softmax1 -> Softmax1
…
